…
snapshot: 0
snapshot_prefix: "resnet50_rfcn_ohem"
iter_size: 8
I0529 22:03:46.334553 24924 solver.cpp:81] Creating training net from train_net file: /home/user/Disk1.8T/py-R-FCN/experiments/5_28_original/train_agnostic_ohem.prototxt
I0529 22:03:46.336557 24924 net.cpp:58] Initializing net from parameters: 
name: "ResNet-50"
state {
  phase: TRAIN
}
layer {
  name: "input-data"
  type: "Python"
  top: "data"
  top: "im_info"
  top: "gt_boxes"
  python_param {
    module: "roi_data_layer.layer"
    layer: "RoIDataLayer"
    param_str: "\'num_classes\': 2"
  }
}
layer {
  name: "conv1"
  type: "Convolution"
  bottom: "data"
  top: "conv1"
  param {
    lr_mult: 0
  }
  param {
    lr_mult: 0
  }
  convolution_param {
    num_output: 64
    pad: 3
    kernel_size: 7
    stride: 2
  }
}
layer {
  name: "bn_conv1"
  type: "BatchNorm"
  bottom: "conv1"
  top: "conv1"
  param {
    lr_mult: 0
    decay_mult: 0
  }
  param {
    lr_mult: 0
    decay_mult: 0
  }
  param {
    lr_mult: 0
    decay_mult: 0
  }
  batch_norm_param {
    use_global_stats: true
  }
}
layer {
  name: "scale_conv1"
  type: "Scale"
  bottom: "conv1"
  top: "conv1"
  param {
    lr_mult: 0
    decay_mult: 0
  }
  param {
    lr_mult: 0
    decay_mult: 0
  }
  scale_param {
    bias_term: true
  }
}
layer {
  name: "conv1_relu"
  type: "ReLU"
  bottom: "conv1"
  top: "conv1"
}
layer {
  name: "pool1"
  type: "Pooling"
  bottom: "conv1"
  top: "pool1"
  pooling_param {
    pool: MAX
    kernel_size: 3
    stride: 2
  }
}
layer {
  name: "res2a_branch1"
  type: "Convolution"
  bottom: "pool1"
  top: "res2a_branch1"
  param {
    lr_mult: 0
  }
  convolution_param {
    num_output: 256
    bias_term: false
    pad: 0
    kernel_size: 1
    stride: 1
  }
}
layer {
  name: "bn2a_branch1"
  type: "BatchNorm"
  bottom: "res2a_branch1"
  top: "res2a_branch1"
  param {
    lr_mult: 0
    decay_mult: 0
  }
  param {
    lr_mult: 0
    decay_mult: 0
  }
  param {
    lr_mult: 0
    decay_mult: 0
  }
  batch_norm_param {
    use_global_stats: true
  }
}
layer {
  name: "scale2a_branch1"
  type: "Scale"
  bottom: "res2a_branch1"
  top: "res2a_branch1"
  param {
    lr_mult: 0
    decay_mult: 0
  }
  param {
    lr_mult: 0
    decay_mult: 0
  }
  scale_param {
    bias_term: true
  }
}
layer {
  name: "res2a_branch2a"
  type: "Convolution"
  bottom: "pool1"
  top: "res2a_branch2a"
  param {
    lr_mult: 0
  }
  convolution_param {
    num_output: 64
    bias_term: false
    pad: 0
    kernel_size: 1
    stride: 1
  }
}
layer {
  name: "bn2a_branch2a"
  type: "BatchNorm"
  bottom: "res2a_branch2a"
  top: "res2a_branch2a"
  param {
    lr_mult: 0
    decay_mult: 0
  }
  param {
    lr_mult: 0
    decay_mult: 0
  }
  param {
    lr_mult: 0
    decay_mult: 0
  }
  batch_norm_param {
    use_global_stats: true
  }
}
layer {
  name: "scale2a_branch2a"
  type: "Scale"
  bottom: "res2a_branch2a"
  top: "res2a_branch2a"
  param {
    lr_mult: 0
    decay_mult: 0
  }
  param {
    lr_mult: 0
    decay_mult: 0
  }
  scale_param {
    bias_term: true
  }
}
layer {
  name: "res2a_branch2a_relu"
  type: "ReLU"
  bottom: "res2a_branch2a"
  top: "res2a_branch2a"
}
layer {
  name: "res2a_branch2b"
  type: "Convolution"
  bottom: "res2a_branch2a"
  top: "res2a_branch2b"
  param {
    lr_mult: 0
  }
  convolution_param {
    num_output: 64
    bias_term: false
    pad: 1
    kernel_size: 3
    stride: 1
  }
}
layer {
  name: "bn2a_branch2b"
  type: "BatchNorm"
  bottom: "res2a_branch2b"
  top: "res2a_branch2b"
  param {
    lr_mult: 0
    decay_mult: 0
  }
  param {
    lr_mult: 0
    decay_mult: 0
  }
  param {
    lr_mult: 0
    decay_mult: 0
  }
  batch_norm_param {
    use_global_stats: true
  }
}
layer {
  name: "scale2a_branch2b"
  type: "Scale"
  bottom: "res2a_branch2b"
  top: "res2a_branch2b"
  param {
    lr_mult: 0
    decay_mult: 0
  }
  param {
    lr_mult: 0
    decay_mult: 0
  }
  scale_param {
    bias_term: true
  }
}
layer {
  name: "res2a_branch2b_relu"
  type: "ReLU"
  bottom: "res2a_branch2b"
  top: "res2a_branch2b"
}
layer {
  name: "res2a_branch2c"
  type: "Convolution"
  bottom: "res2a_branch2b"
  top: "res2a_branch2c"
  param {
    lr_mult: 0
  }
  convolution_param {
    num_output: 256
    bias_term: false
    pad: 0
    kernel_size: 1
    stride: 1
  }
}
layer {
  name: "bn2a_branch2c"
  type: "BatchNorm"
  bottom: "res2a_branch2c"
  top: "res2a_branch2c"
  param {
    lr_mult: 0
    decay_mult: 0
  }
  param {
    lr_mult: 0
    decay_mult: 0
  }
  param {
    lr_mult: 0
    decay_mult: 0
  }
  batch_norm_param {
    use_global_stats: true
  }
}
layer {
  name: "scale2a_branch2c"
  type: "Scale"
  bottom: "res2a_branch2c"
  top: "res2a_branch2c"
  param {
    lr_mult: 0
    decay_mult: 0
  }
  param {
    lr_mult: 0
    decay_mult: 0
  }
  scale_param {
    bias_term: true
  }
}
layer {
  name: "res2a"
  type: "Eltwise"
  bottom: "res2a_branch1"
  bottom: "res2a_branch2c"
  top: "res2a"
}
layer {
  name: "res2a_relu"
  type: "ReLU"
  bottom: "res2a"
  top: "res2a"
}
layer {
  name: "res2b_branch2a"
  type: "Convolution"
  bottom: "res2a"
  top: "res2b_branch2a"
  param {
    lr_mult: 0
  }
  convolution_param {
    num_output: 64
    bias_term: false
    pad: 0
    kernel_size: 1
    stride: 1
  }
}
layer {
  name: "bn2b_branch2a"
  type: "BatchNorm"
  bottom: "res2b_branch2a"
  top: "res2b_branch2a"
  param {
    lr_mult: 0
    decay_mult: 0
  }
  param {
    lr_mult: 0
    decay_mult: 0
  }
  param {
    lr_mult: 0
    decay_mult: 0
  }
  batch_norm_param {
    use_global_stats: true
  }
}
layer {
  name: "scale2b_branch2a"
  type: "Scale"
  bottom: "res2b_branch2a"
  top: "res2b_branch2a"
  param {
    lr_mult: 0
    decay_mult: 0
  }
  param {
    lr_mult: 0
    decay_mult: 0
  }
  scale_param {
    bias_term: true
  }
}
layer {
  name: "res2b_branch2a_relu"
  type: "ReLU"
  bottom: "res2b_branch2a"
  top: "res2b_branch2a"
}
layer {
  name: "res2b_branch2b"
  type: "Convolution"
  bottom: "res2b_branch2a"
  top: "res2b_branch2b"
  param {
    lr_mult: 0
  }
  convolution_param {
    num_output: 64
    bias_term: false
    pad: 1
    kernel_size: 3
    stride: 1
  }
}
layer {
  name: "bn2b_branch2b"
  type: "BatchNorm"
  bottom: "res2b_branch2b"
  top: "res2b_branch2b"
  param {
    lr_mult: 0
    decay_mult: 0
  }
  param {
    lr_mult: 0
    decay_mult: 0
  }
  param {
    lr_mult: 0
    decay_mult: 0
  }
  batch_norm_param {
    use_global_stats: true
  }
}
layer {
  name: "scale2b_branch2b"
  type: "Scale"
  bottom: "res2b_branch2b"
  top: "res2b_branch2b"
  param {
    lr_mult: 0
    decay_mult: 0
  }
  param {
    lr_mult: 0
    decay_mult: 0
  }
  scale_param {
    bias_term: true
  }
}
layer {
  name: "res2b_branch2b_relu"
  type: "ReLU"
  bottom: "res2b_branch2b"
  top: "res2b_branch2b"
}
layer {
  name: "res2b_branch2c"
  type: "Convolution"
  bottom: "res2b_branch2b"
  top: "res2b_branch2c"
  param {
    lr_mult: 0
  }
  convolution_param {
    num_output: 256
    bias_term: false
    pad: 0
    kernel_size: 1
    stride: 1
  }
}
layer {
  name: "bn2b_branch2c"
  type: "BatchNorm"
  bottom: "res2b_branch2c"
  top: "res2b_branch2c"
  param {
    lr_mult: 0
    decay_mult: 0
  }
  param {
    lr_mult: 0
    decay_mult: 0
  }
  param {
    lr_mult: 0
    decay_mult: 0
  }
  batch_norm_param {
    use_global_stats: true
  }
}
layer {
  name: "scale2b_branch2c"
  type: "Scale"
  bottom: "res2b_branch2c"
  top: "res2b_branch2c"
  param {
    lr_mult: 0
    decay_mult: 0
  }
  param {
    lr_mult: 0
    decay_mult: 0
  }
  scale_param {
    bias_term: true
  }
}
layer {
  name: "res2b"
  type: "Eltwise"
  bottom: "res2a"
  bottom: "res2b_branch2c"
  top: "res2b"
}
layer {
  name: "res2b_relu"
  type: "ReLU"
  bottom: "res2b"
  top: "res2b"
}
layer {
  name: "res2c_branch2a"
  type: "Convolution"
  bottom: "res2b"
  top: "res2c_branch2a"
  param {
    lr_mult: 0
  }
  convolution_param {
    num_output: 64
    bias_term: false
    pad: 0
    kernel_size: 1
    stride: 1
  }
}
layer {
  name: "bn2c_branch2a"
  type: "BatchNorm"
  bottom: "res2c_branch2a"
  top: "res2c_branch2a"
  param {
    lr_mult: 0
    decay_mult: 0
  }
  param {
    lr_mult: 0
    decay_mult: 0
  }
  param {
    lr_mult: 0
    decay_mult: 0
  }
  batch_norm_param {
    use_global_stats: true
  }
}
layer {
  name: "scale2c_branch2a"
  type: "Scale"
  bottom: "res2c_branch2a"
  top: "res2c_branch2a"
  param {
    lr_mult: 0
    decay_mult: 0
  }
  param {
    lr_mult: 0
    decay_mult: 0
  }
  scale_param {
    bias_term: true
  }
}
layer {
  name: "res2c_branch2a_relu"
  type: "ReLU"
  bottom: "res2c_branch2a"
  top: "res2c_branch2a"
}
layer {
  name: "res2c_branch2b"
  type: "Convolution"
  bottom: "res2c_branch2a"
  top: "res2c_branch2b"
  param {
    lr_mult: 0
  }
  convolution_param {
    num_output: 64
    bias_term: false
    pad: 1
    kernel_size: 3
    stride: 1
  }
}
layer {
  name: "bn2c_branch2b"
  type: "BatchNorm"
  bottom: "res2c_branch2b"
  top: "res2c_branch2b"
  param {
    lr_mult: 0
    decay_mult: 0
  }
  param {
    lr_mult: 0
    decay_mult: 0
  }
  param {
    lr_mult: 0
    decay_mult: 0
  }
  batch_norm_param {
    use_global_stats: true
  }
}
layer {
  name: "scale2c_branch2b"
  type: "Scale"
  bottom: "res2c_branch2b"
  top: "res2c_branch2b"
  param {
    lr_mult: 0
    decay_mult: 0
  }
  param {
    lr_mult: 0
    decay_mult: 0
  }
  scale_param {
    bias_term: true
  }
}
layer {
  name: "res2c_branch2b_relu"
  type: "ReLU"
  bottom: "res2c_branch2b"
  top: "res2c_branch2b"
}
layer {
  name: "res2c_branch2c"
  type: "Convolution"
  bottom: "res2c_branch2b"
  top: "res2c_branch2c"
  param {
    lr_mult: 0
  }
  convolution_param {
    num_output: 256
    bias_term: false
    pad: 0
    kernel_size: 1
    stride: 1
  }
}
layer {
  name: "bn2c_branch2c"
  type: "BatchNorm"
  bottom: "res2c_branch2c"
  top: "res2c_branch2c"
  param {
    lr_mult: 0
    decay_mult: 0
  }
  param {
    lr_mult: 0
    decay_mult: 0
  }
  param {
    lr_mult: 0
    decay_mult: 0
  }
  batch_norm_param {
    use_global_stats: true
  }
}
layer {
  name: "scale2c_branch2c"
  type: "Scale"
  bottom: "res2c_branch2c"
  top: "res2c_branch2c"
  param {
    lr_mult: 0
    decay_mult: 0
  }
  param {
    lr_mult: 0
    decay_mult: 0
  }
  scale_param {
    bias_term: true
  }
}
layer {
  name: "res2c"
  type: "Eltwise"
  bottom: "res2b"
  bottom: "res2c_branch2c"
  top: "res2c"
}
layer {
  name: "res2c_relu"
  type: "ReLU"
  bottom: "res2c"
  top: "res2c"
}
layer {
  name: "res3a_branch1"
  type: "Convolution"
  bottom: "res2c"
  top: "res3a_branch1"
  param {
    lr_mult: 1
  }
  convolution_param {
    num_output: 512
    bias_term: false
    pad: 0
    kernel_size: 1
    stride: 2
  }
}
layer {
  name: "bn3a_branch1"
  type: "BatchNorm"
  bottom: "res3a_branch1"
  top: "res3a_branch1"
  param {
    lr_mult: 0
    decay_mult: 0
  }
  param {
    lr_mult: 0
    decay_mult: 0
  }
  param {
    lr_mult: 0
    decay_mult: 0
  }
  batch_norm_param {
    use_global_stats: true
  }
}
layer {
  name: "scale3a_branch1"
  type: "Scale"
  bottom: "res3a_branch1"
  top: "res3a_branch1"
  param {
    lr_mult: 0
    decay_mult: 0
  }
  param {
    lr_mult: 0
    decay_mult: 0
  }
  scale_param {
    bias_term: true
  }
}
layer {
  name: "res3a_branch2a"
  type: "Convolution"
  bottom: "res2c"
  top: "res3a_branch2a"
  param {
    lr_mult: 1
  }
  convolution_param {
    num_output: 128
    bias_term: false
    pad: 0
    kernel_size: 1
    stride: 2
  }
}
layer {
  name: "bn3a_branch2a"
  type: "BatchNorm"
  bottom: "res3a_branch2a"
  top: "res3a_branch2a"
  param {
    lr_mult: 0
    decay_mult: 0
  }
  param {
    lr_mult: 0
    decay_mult: 0
  }
  param {
    lr_mult: 0
    decay_mult: 0
  }
  batch_norm_param {
    use_global_stats: true
  }
}
layer {
  name: "scale3a_branch2a"
  type: "Scale"
  bottom: "res3a_branch2a"
  top: "res3a_branch2a"
  param {
    lr_mult: 0
    decay_mult: 0
  }
  param {
    lr_mult: 0
    decay_mult: 0
  }
  scale_param {
    bias_term: true
  }
}
layer {
  name: "res3a_branch2a_relu"
  type: "ReLU"
  bottom: "res3a_branch2a"
  top: "res3a_branch2a"
}
layer {
  name: "res3a_branch2b"
  type: "Convolution"
  bottom: "res3a_branch2a"
  top: "res3a_branch2b"
  param {
    lr_mult: 1
  }
  convolution_param {
    num_output: 128
    bias_term: false
    pad: 1
    kernel_size: 3
    stride: 1
  }
}
layer {
  name: "bn3a_branch2b"
  type: "BatchNorm"
  bottom: "res3a_branch2b"
  top: "res3a_branch2b"
  param {
    lr_mult: 0
    decay_mult: 0
  }
  param {
    lr_mult: 0
    decay_mult: 0
  }
  param {
    lr_mult: 0
    decay_mult: 0
  }
  batch_norm_param {
    use_global_stats: true
  }
}
layer {
  name: "scale3a_branch2b"
  type: "Scale"
  bottom: "res3a_branch2b"
  top: "res3a_branch2b"
  param {
    lr_mult: 0
    decay_mult: 0
  }
  param {
    lr_mult: 0
    decay_mult: 0
  }
  scale_param {
    bias_term: true
  }
}
layer {
  name: "res3a_branch2b_relu"
  type: "ReLU"
  bottom: "res3a_branch2b"
  top: "res3a_branch2b"
}
layer {
  name: "res3a_branch2c"
  type: "Convolution"
  bottom: "res3a_branch2b"
  top: "res3a_branch2c"
  param {
    lr_mult: 1
  }
  convolution_param {
    num_output: 512
    bias_term: false
    pad: 0
    kernel_size: 1
    stride: 1
  }
}
layer {
  name: "bn3a_branch2c"
  type: "BatchNorm"
  bottom: "res3a_branch2c"
  top: "res3a_branch2c"
  param {
    lr_mult: 0
    decay_mult: 0
  }
  param {
    lr_mult: 0
    decay_mult: 0
  }
  param {
    lr_mult: 0
    decay_mult: 0
  }
  batch_norm_param {
    use_global_stats: true
  }
}
layer {
  name: "scale3a_branch2c"
  type: "Scale"
  bottom: "res3a_branch2c"
  top: "res3a_branch2c"
  param {
    lr_mult: 0
    decay_mult: 0
  }
  param {
    lr_mult: 0
    decay_mult: 0
  }
  scale_param {
    bias_term: true
  }
}
layer {
  name: "res3a"
  type: "Eltwise"
  bottom: "res3a_branch1"
  bottom: "res3a_branch2c"
  top: "res3a"
}
layer {
  name: "res3a_relu"
  type: "ReLU"
  bottom: "res3a"
  top: "res3a"
}
layer {
  name: "res3b_branch2a"
  type: "Convolution"
  bottom: "res3a"
  top: "res3b_branch2a"
  param {
    lr_mult: 1
  }
  convolution_param {
    num_output: 128
    bias_term: false
    pad: 0
    kernel_size: 1
    stride: 1
  }
}
layer {
  name: "bn3b_branch2a"
  type: "BatchNorm"
  bottom: "res3b_branch2a"
  top: "res3b_branch2a"
  param {
    lr_mult: 0
    decay_mult: 0
  }
  param {
    lr_mult: 0
    decay_mult: 0
  }
  param {
    lr_mult: 0
    decay_mult: 0
  }
  batch_norm_param {
    use_global_stats: true
  }
}
layer {
  name: "scale3b_branch2a"
  type: "Scale"
  bottom: "res3b_branch2a"
  top: "res3b_branch2a"
  param {
    lr_mult: 0
    decay_mult: 0
  }
  param {
    lr_mult: 0
    decay_mult: 0
  }
  scale_param {
    bias_term: true
  }
}
layer {
  name: "res3b_branch2a_relu"
  type: "ReLU"
  bottom: "res3b_branch2a"
  top: "res3b_branch2a"
}
layer {
  name: "res3b_branch2b"
  type: "Convolution"
  bottom: "res3b_branch2a"
  top: "res3b_branch2b"
  param {
    lr_mult: 1
  }
  convolution_param {
    num_output: 128
    bias_term: false
    pad: 1
    kernel_size: 3
    stride: 1
  }
}
layer {
  name: "bn3b_branch2b"
  type: "BatchNorm"
  bottom: "res3b_branch2b"
  top: "res3b_branch2b"
  param {
    lr_mult: 0
    decay_mult: 0
  }
  param {
    lr_mult: 0
    decay_mult: 0
  }
  param {
    lr_mult: 0
    decay_mult: 0
  }
  batch_norm_param {
    use_global_stats: true
  }
}
layer {
  name: "scale3b_branch2b"
  type: "Scale"
  bottom: "res3b_branch2b"
  top: "res3b_branch2b"
  param {
    lr_mult: 0
    decay_mult: 0
  }
  param {
    lr_mult: 0
    decay_mult: 0
  }
  scale_param {
    bias_term: true
  }
}
layer {
  name: "res3b_branch2b_relu"
  type: "ReLU"
  bottom: "res3b_branch2b"
  top: "res3b_branch2b"
}
layer {
  name: "res3b_branch2c"
  type: "Convolution"
  bottom: "res3b_branch2b"
  top: "res3b_branch2c"
  param {
    lr_mult: 1
  }
  convolution_param {
    num_output: 512
    bias_term: false
    pad: 0
    kernel_size: 1
    stride: 1
  }
}
layer {
  name: "bn3b_branch2c"
  type: "BatchNorm"
  bottom: "res3b_branch2c"
  top: "res3b_branch2c"
  param {
    lr_mult: 0
    decay_mult: 0
  }
  param {
    lr_mult: 0
    decay_mult: 0
  }
  param {
    lr_mult: 0
    decay_mult: 0
  }
  batch_norm_param {
    use_global_stats: true
  }
}
layer {
  name: "scale3b_branch2c"
  type: "Scale"
  bottom: "res3b_branch2c"
  top: "res3b_branch2c"
  param {
    lr_mult: 0
    decay_mult: 0
  }
  param {
    lr_mult: 0
    decay_mult: 0
  }
  scale_param {
    bias_term: true
  }
}
layer {
  name: "res3b"
  type: "Eltwise"
  bottom: "res3a"
  bottom: "res3b_branch2c"
  top: "res3b"
}
layer {
  name: "res3b_relu"
  type: "ReLU"
  bottom: "res3b"
  top: "res3b"
}
layer {
  name: "res3c_branch2a"
  type: "Convolution"
  bottom: "res3b"
  top: "res3c_branch2a"
  param {
    lr_mult: 1
  }
  convolution_param {
    num_output: 128
    bias_term: false
    pad: 0
    kernel_size: 1
    stride: 1
  }
}
layer {
  name: "bn3c_branch2a"
  type: "BatchNorm"
  bottom: "res3c_branch2a"
  top: "res3c_branch2a"
  param {
    lr_mult: 0
    decay_mult: 0
  }
  param {
    lr_mult: 0
    decay_mult: 0
  }
  param {
    lr_mult: 0
    decay_mult: 0
  }
  batch_norm_param {
    use_global_stats: true
  }
}
layer {
  name: "scale3c_branch2a"
  type: "Scale"
  bottom: "res3c_branch2a"
  top: "res3c_branch2a"
  param {
    lr_mult: 0
    decay_mult: 0
  }
  param {
    lr_mult: 0
    decay_mult: 0
  }
  scale_param {
    bias_term: true
  }
}
layer {
  name: "res3c_branch2a_relu"
  type: "ReLU"
  bottom: "res3c_branch2a"
  top: "res3c_branch2a"
}
layer {
  name: "res3c_branch2b"
  type: "Convolution"
  bottom: "res3c_branch2a"
  top: "res3c_branch2b"
  param {
    lr_mult: 1
  }
  convolution_param {
    num_output: 128
    bias_term: false
    pad: 1
    kernel_size: 3
    stride: 1
  }
}
layer {
  name: "bn3c_branch2b"
  type: "BatchNorm"
  bottom: "res3c_branch2b"
  top: "res3c_branch2b"
  param {
    lr_mult: 0
    decay_mult: 0
  }
  param {
    lr_mult: 0
    decay_mult: 0
  }
  param {
    lr_mult: 0
    decay_mult: 0
  }
  batch_norm_param {
    use_global_stats: true
  }
}
layer {
  name: "scale3c_branch2b"
  type: "Scale"
  bottom: "res3c_branch2b"
  top: "res3c_branch2b"
  param {
    lr_mult: 0
    decay_mult: 0
  }
  param {
    lr_mult: 0
    decay_mult: 0
  }
  scale_param {
    bias_term: true
  }
}
layer {
  name: "res3c_branch2b_relu"
  type: "ReLU"
  bottom: "res3c_branch2b"
  top: "res3c_branch2b"
}
layer {
  name: "res3c_branch2c"
  type: "Convolution"
  bottom: "res3c_branch2b"
  top: "res3c_branch2c"
  param {
    lr_mult: 1
  }
  convolution_param {
    num_output: 512
    bias_term: false
    pad: 0
    kernel_size: 1
    stride: 1
  }
}
layer {
  name: "bn3c_branch2c"
  type: "BatchNorm"
  bottom: "res3c_branch2c"
  top: "res3c_branch2c"
  param {
    lr_mult: 0
    decay_mult: 0
  }
  param {
    lr_mult: 0
    decay_mult: 0
  }
  param {
    lr_mult: 0
    decay_mult: 0
  }
  batch_norm_param {
    use_global_stats: true
  }
}
layer {
  name: "scale3c_branch2c"
  type: "Scale"
  bottom: "res3c_branch2c"
  top: "res3c_branch2c"
  param {
    lr_mult: 0
    decay_mult: 0
  }
  param {
    lr_mult: 0
    decay_mult: 0
  }
  scale_param {
    bias_term: true
  }
}
layer {
  name: "res3c"
  type: "Eltwise"
  bottom: "res3b"
  bottom: "res3c_branch2c"
  top: "res3c"
}
layer {
  name: "res3c_relu"
  type: "ReLU"
  bottom: "res3c"
  top: "res3c"
}
layer {
  name: "res3d_branch2a"
  type: "Convolution"
  bottom: "res3c"
  top: "res3d_branch2a"
  param {
    lr_mult: 1
  }
  convolution_param {
    num_output: 128
    bias_term: false
    pad: 0
    kernel_size: 1
    stride: 1
  }
}
layer {
  name: "bn3d_branch2a"
  type: "BatchNorm"
  bottom: "res3d_branch2a"
  top: "res3d_branch2a"
  param {
    lr_mult: 0
    decay_mult: 0
  }
  param {
    lr_mult: 0
    decay_mult: 0
  }
  param {
    lr_mult: 0
    decay_mult: 0
  }
  batch_norm_param {
    use_global_stats: true
  }
}
layer {
  name: "scale3d_branch2a"
  type: "Scale"
  bottom: "res3d_branch2a"
  top: "res3d_branch2a"
  param {
    lr_mult: 0
    decay_mult: 0
  }
  param {
    lr_mult: 0
    decay_mult: 0
  }
  scale_param {
    bias_term: true
  }
}
layer {
  name: "res3d_branch2a_relu"
  type: "ReLU"
  bottom: "res3d_branch2a"
  top: "res3d_branch2a"
}
layer {
  name: "res3d_branch2b"
  type: "Convolution"
  bottom: "res3d_branch2a"
  top: "res3d_branch2b"
  param {
    lr_mult: 1
  }
  convolution_param {
    num_output: 128
    bias_term: false
    pad: 1
    kernel_size: 3
    stride: 1
  }
}
layer {
  name: "bn3d_branch2b"
  type: "BatchNorm"
  bottom: "res3d_branch2b"
  top: "res3d_branch2b"
  param {
    lr_mult: 0
    decay_mult: 0
  }
  param {
    lr_mult: 0
    decay_mult: 0
  }
  param {
    lr_mult: 0
    decay_mult: 0
  }
  batch_norm_param {
    use_global_stats: true
  }
}
layer {
  name: "scale3d_branch2b"
  type: "Scale"
  bottom: "res3d_branch2b"
  top: "res3d_branch2b"
  param {
    lr_mult: 0
    decay_mult: 0
  }
  param {
    lr_mult: 0
    decay_mult: 0
  }
  scale_param {
    bias_term: true
  }
}
layer {
  name: "res3d_branch2b_relu"
  type: "ReLU"
  bottom: "res3d_branch2b"
  top: "res3d_branch2b"
}
layer {
  name: "res3d_branch2c"
  type: "Convolution"
  bottom: "res3d_branch2b"
  top: "res3d_branch2c"
  param {
    lr_mult: 1
  }
  convolution_param {
    num_output: 512
    bias_term: false
    pad: 0
    kernel_size: 1
    stride: 1
  }
}
layer {
  name: "bn3d_branch2c"
  type: "BatchNorm"
  bottom: "res3d_branch2c"
  top: "res3d_branch2c"
  param {
    lr_mult: 0
    decay_mult: 0
  }
  param {
    lr_mult: 0
    decay_mult: 0
  }
  param {
    lr_mult: 0
    decay_mult: 0
  }
  batch_norm_param {
    use_global_stats: true
  }
}
layer {
  name: "scale3d_branch2c"
  type: "Scale"
  bottom: "res3d_branch2c"
  top: "res3d_branch2c"
  param {
    lr_mult: 0
    decay_mult: 0
  }
  param {
    lr_mult: 0
    decay_mult: 0
  }
  scale_param {
    bias_term: true
  }
}
layer {
  name: "res3d"
  type: "Eltwise"
  bottom: "res3c"
  bottom: "res3d_branch2c"
  top: "res3d"
}
layer {
  name: "res3d_relu"
  type: "ReLU"
  bottom: "res3d"
  top: "res3d"
}
layer {
  name: "res4a_branch1"
  type: "Convolution"
  bottom: "res3d"
  top: "res4a_branch1"
  param {
    lr_mult: 1
  }
  convolution_param {
    num_output: 1024
    bias_term: false
    pad: 0
    kernel_size: 1
    stride: 2
  }
}
layer {
  name: "bn4a_branch1"
  type: "BatchNorm"
  bottom: "res4a_branch1"
  top: "res4a_branch1"
  param {
    lr_mult: 0
    decay_mult: 0
  }
  param {
    lr_mult: 0
    decay_mult: 0
  }
  param {
    lr_mult: 0
    decay_mult: 0
  }
  batch_norm_param {
    use_global_stats: true
  }
}
layer {
  name: "scale4a_branch1"
  type: "Scale"
  bottom: "res4a_branch1"
  top: "res4a_branch1"
  param {
    lr_mult: 0
    decay_mult: 0
  }
  param {
    lr_mult: 0
    decay_mult: 0
  }
  scale_param {
    bias_term: true
  }
}
layer {
  name: "res4a_branch2a"
  type: "Convolution"
  bottom: "res3d"
  top: "res4a_branch2a"
  param {
    lr_mult: 1
  }
  convolution_param {
    num_output: 256
    bias_term: false
    pad: 0
    kernel_size: 1
    stride: 2
  }
}
layer {
  name: "bn4a_branch2a"
  type: "BatchNorm"
  bottom: "res4a_branch2a"
  top: "res4a_branch2a"
  param {
    lr_mult: 0
    decay_mult: 0
  }
  param {
    lr_mult: 0
    decay_mult: 0
  }
  param {
    lr_mult: 0
    decay_mult: 0
  }
  batch_norm_param {
    use_global_stats: true
  }
}
layer {
  name: "scale4a_branch2a"
  type: "Scale"
  bottom: "res4a_branch2a"
  top: "res4a_branch2a"
  param {
    lr_mult: 0
    decay_mult: 0
  }
  param {
    lr_mult: 0
    decay_mult: 0
  }
  scale_param {
    bias_term: true
  }
}
layer {
  name: "res4a_branch2a_relu"
  type: "ReLU"
  bottom: "res4a_branch2a"
  top: "res4a_branch2a"
}
layer {
  name: "res4a_branch2b"
  type: "Convolution"
  bottom: "res4a_branch2a"
  top: "res4a_branch2b"
  param {
    lr_mult: 1
  }
  convolution_param {
    num_output: 256
    bias_term: false
    pad: 1
    kernel_size: 3
    stride: 1
  }
}
layer {
  name: "bn4a_branch2b"
  type: "BatchNorm"
  bottom: "res4a_branch2b"
  top: "res4a_branch2b"
  param {
    lr_mult: 0
    decay_mult: 0
  }
  param {
    lr_mult: 0
    decay_mult: 0
  }
  param {
    lr_mult: 0
    decay_mult: 0
  }
  batch_norm_param {
    use_global_stats: true
  }
}
layer {
  name: "scale4a_branch2b"
  type: "Scale"
  bottom: "res4a_branch2b"
  top: "res4a_branch2b"
  param {
    lr_mult: 0
    decay_mult: 0
  }
  param {
    lr_mult: 0
    decay_mult: 0
  }
  scale_param {
    bias_term: true
  }
}
layer {
  name: "res4a_branch2b_relu"
  type: "ReLU"
  bottom: "res4a_branch2b"
  top: "res4a_branch2b"
}
layer {
  name: "res4a_branch2c"
  type: "Convolution"
  bottom: "res4a_branch2b"
  top: "res4a_branch2c"
  param {
    lr_mult: 1
  }
  convolution_param {
    num_output: 1024
    bias_term: false
    pad: 0
    kernel_size: 1
    stride: 1
  }
}
layer {
  name: "bn4a_branch2c"
  type: "BatchNorm"
  bottom: "res4a_branch2c"
  top: "res4a_branch2c"
  param {
    lr_mult: 0
    decay_mult: 0
  }
  param {
    lr_mult: 0
    decay_mult: 0
  }
  param {
    lr_mult: 0
    decay_mult: 0
  }
  batch_norm_param {
    use_global_stats: true
  }
}
layer {
  name: "scale4a_branch2c"
  type: "Scale"
  bottom: "res4a_branch2c"
  top: "res4a_branch2c"
  param {
    lr_mult: 0
    decay_mult: 0
  }
  param {
    lr_mult: 0
    decay_mult: 0
  }
  scale_param {
    bias_term: true
  }
}
layer {
  name: "res4a"
  type: "Eltwise"
  bottom: "res4a_branch1"
  bottom: "res4a_branch2c"
  top: "res4a"
}
layer {
  name: "res4a_relu"
  type: "ReLU"
  bottom: "res4a"
  top: "res4a"
}
layer {
  name: "res4b_branch2a"
  type: "Convolution"
  bottom: "res4a"
  top: "res4b_branch2a"
  param {
    lr_mult: 1
  }
  convolution_param {
    num_output: 256
    bias_term: false
    pad: 0
    kernel_size: 1
    stride: 1
  }
}
layer {
  name: "bn4b_branch2a"
  type: "BatchNorm"
  bottom: "res4b_branch2a"
  top: "res4b_branch2a"
  param {
    lr_mult: 0
    decay_mult: 0
  }
  param {
    lr_mult: 0
    decay_mult: 0
  }
  param {
    lr_mult: 0
    decay_mult: 0
  }
  batch_norm_param {
    use_global_stats: true
  }
}
layer {
  name: "scale4b_branch2a"
  type: "Scale"
  bottom: "res4b_branch2a"
  top: "res4b_branch2a"
  param {
    lr_mult: 0
    decay_mult: 0
  }
  param {
    lr_mult: 0
    decay_mult: 0
  }
  scale_param {
    bias_term: true
  }
}
layer {
  name: "res4b_branch2a_relu"
  type: "ReLU"
  bottom: "res4b_branch2a"
  top: "res4b_branch2a"
}
layer {
  name: "res4b_branch2b"
  type: "Convolution"
  bottom: "res4b_branch2a"
  top: "res4b_branch2b"
  param {
    lr_mult: 1
  }
  convolution_param {
    num_output: 256
    bias_term: false
    pad: 1
    kernel_size: 3
    stride: 1
  }
}
layer {
  name: "bn4b_branch2b"
  type: "BatchNorm"
  bottom: "res4b_branch2b"
  top: "res4b_branch2b"
  param {
    lr_mult: 0
    decay_mult: 0
  }
  param {
    lr_mult: 0
    decay_mult: 0
  }
  param {
    lr_mult: 0
    decay_mult: 0
  }
  batch_norm_param {
    use_global_stats: true
  }
}
layer {
  name: "scale4b_branch2b"
  type: "Scale"
  bottom: "res4b_branch2b"
  top: "res4b_branch2b"
  param {
    lr_mult: 0
    decay_mult: 0
  }
  param {
    lr_mult: 0
    decay_mult: 0
  }
  scale_param {
    bias_term: true
  }
}
layer {
  name: "res4b_branch2b_relu"
  type: "ReLU"
  bottom: "res4b_branch2b"
  top: "res4b_branch2b"
}
layer {
  name: "res4b_branch2c"
  type: "Convolution"
  bottom: "res4b_branch2b"
  top: "res4b_branch2c"
  param {
    lr_mult: 1
  }
  convolution_param {
    num_output: 1024
    bias_term: false
    pad: 0
    kernel_size: 1
    stride: 1
  }
}
layer {
  name: "bn4b_branch2c"
  type: "BatchNorm"
  bottom: "res4b_branch2c"
  top: "res4b_branch2c"
  param {
    lr_mult: 0
    decay_mult: 0
  }
  param {
    lr_mult: 0
    decay_mult: 0
  }
  param {
    lr_mult: 0
    decay_mult: 0
  }
  batch_norm_param {
    use_global_stats: true
  }
}
layer {
  name: "scale4b_branch2c"
  type: "Scale"
  bottom: "res4b_branch2c"
  top: "res4b_branch2c"
  param {
    lr_mult: 0
    decay_mult: 0
  }
  param {
    lr_mult: 0
    decay_mult: 0
  }
  scale_param {
    bias_term: true
  }
}
layer {
  name: "res4b"
  type: "Eltwise"
  bottom: "res4a"
  bottom: "res4b_branch2c"
  top: "res4b"
}
layer {
  name: "res4b_relu"
  type: "ReLU"
  bottom: "res4b"
  top: "res4b"
}
layer {
  name: "res4c_branch2a"
  type: "Convolution"
  bottom: "res4b"
  top: "res4c_branch2a"
  param {
    lr_mult: 1
  }
  convolution_param {
    num_output: 256
    bias_term: false
    pad: 0
    kernel_size: 1
    stride: 1
  }
}
layer {
  name: "bn4c_branch2a"
  type: "BatchNorm"
  bottom: "res4c_branch2a"
  top: "res4c_branch2a"
  param {
    lr_mult: 0
    decay_mult: 0
  }
  param {
    lr_mult: 0
    decay_mult: 0
  }
  param {
    lr_mult: 0
    decay_mult: 0
  }
  batch_norm_param {
    use_global_stats: true
  }
}
layer {
  name: "scale4c_branch2a"
  type: "Scale"
  bottom: "res4c_branch2a"
  top: "res4c_branch2a"
  param {
    lr_mult: 0
    decay_mult: 0
  }
  param {
    lr_mult: 0
    decay_mult: 0
  }
  scale_param {
    bias_term: true
  }
}
layer {
  name: "res4c_branch2a_relu"
  type: "ReLU"
  bottom: "res4c_branch2a"
  top: "res4c_branch2a"
}
layer {
  name: "res4c_branch2b"
  type: "Convolution"
  bottom: "res4c_branch2a"
  top: "res4c_branch2b"
  param {
    lr_mult: 1
  }
  convolution_param {
    num_output: 256
    bias_term: false
    pad: 1
    kernel_size: 3
    stride: 1
  }
}
layer {
  name: "bn4c_branch2b"
  type: "BatchNorm"
  bottom: "res4c_branch2b"
  top: "res4c_branch2b"
  param {
    lr_mult: 0
    decay_mult: 0
  }
  param {
    lr_mult: 0
    decay_mult: 0
  }
  param {
    lr_mult: 0
    decay_mult: 0
  }
  batch_norm_param {
    use_global_stats: true
  }
}
layer {
  name: "scale4c_branch2b"
  type: "Scale"
  bottom: "res4c_branch2b"
  top: "res4c_branch2b"
  param {
    lr_mult: 0
    decay_mult: 0
  }
  param {
    lr_mult: 0
    decay_mult: 0
  }
  scale_param {
    bias_term: true
  }
}
layer {
  name: "res4c_branch2b_relu"
  type: "ReLU"
  bottom: "res4c_branch2b"
  top: "res4c_
I0529 22:03:46.338222 24924 layer_factory.hpp:77] Creating layer input-data
I0529 22:03:46.347692 24924 net.cpp:100] Creating Layer input-data
I0529 22:03:46.347713 24924 net.cpp:418] input-data -> data
I0529 22:03:46.347748 24924 net.cpp:418] input-data -> im_info
I0529 22:03:46.347764 24924 net.cpp:418] input-data -> gt_boxes
RoiDataLayer: name_to_top: {'gt_boxes': 2, 'data': 0, 'im_info': 1}
I0529 22:03:46.367921 24924 net.cpp:150] Setting up input-data
I0529 22:03:46.367944 24924 net.cpp:157] Top shape: 1 3 640 1280 (2457600)
I0529 22:03:46.367949 24924 net.cpp:157] Top shape: 1 3 (3)
I0529 22:03:46.367951 24924 net.cpp:157] Top shape: 1 4 (4)
I0529 22:03:46.367952 24924 net.cpp:165] Memory required for data: 9830428
I0529 22:03:46.367967 24924 layer_factory.hpp:77] Creating layer data_input-data_0_split
I0529 22:03:46.367995 24924 net.cpp:100] Creating Layer data_input-data_0_split
I0529 22:03:46.368003 24924 net.cpp:444] data_input-data_0_split <- data
I0529 22:03:46.368019 24924 net.cpp:418] data_input-data_0_split -> data_input-data_0_split_0
I0529 22:03:46.368039 24924 net.cpp:418] data_input-data_0_split -> data_input-data_0_split_1
I0529 22:03:46.368072 24924 net.cpp:150] Setting up data_input-data_0_split
I0529 22:03:46.368078 24924 net.cpp:157] Top shape: 1 3 640 1280 (2457600)
I0529 22:03:46.368083 24924 net.cpp:157] Top shape: 1 3 640 1280 (2457600)
I0529 22:03:46.368084 24924 net.cpp:165] Memory required for data: 29491228
I0529 22:03:46.368086 24924 layer_factory.hpp:77] Creating layer im_info_input-data_1_split
I0529 22:03:46.368095 24924 net.cpp:100] Creating Layer im_info_input-data_1_split
I0529 22:03:46.368099 24924 net.cpp:444] im_info_input-data_1_split <- im_info
I0529 22:03:46.368108 24924 net.cpp:418] im_info_input-data_1_split -> im_info_input-data_1_split_0
I0529 22:03:46.368119 24924 net.cpp:418] im_info_input-data_1_split -> im_info_input-data_1_split_1
I0529 22:03:46.368142 24924 net.cpp:150] Setting up im_info_input-data_1_split
I0529 22:03:46.368149 24924 net.cpp:157] Top shape: 1 3 (3)
I0529 22:03:46.368151 24924 net.cpp:157] Top shape: 1 3 (3)
I0529 22:03:46.368152 24924 net.cpp:165] Memory required for data: 29491252
I0529 22:03:46.368155 24924 layer_factory.hpp:77] Creating layer gt_boxes_input-data_2_split
I0529 22:03:46.368161 24924 net.cpp:100] Creating Layer gt_boxes_input-data_2_split
I0529 22:03:46.368165 24924 net.cpp:444] gt_boxes_input-data_2_split <- gt_boxes
I0529 22:03:46.368173 24924 net.cpp:418] gt_boxes_input-data_2_split -> gt_boxes_input-data_2_split_0
I0529 22:03:46.368182 24924 net.cpp:418] gt_boxes_input-data_2_split -> gt_boxes_input-data_2_split_1
I0529 22:03:46.368209 24924 net.cpp:150] Setting up gt_boxes_input-data_2_split
I0529 22:03:46.368216 24924 net.cpp:157] Top shape: 1 4 (4)
I0529 22:03:46.368219 24924 net.cpp:157] Top shape: 1 4 (4)
I0529 22:03:46.368221 24924 net.cpp:165] Memory required for data: 29491284
I0529 22:03:46.368223 24924 layer_factory.hpp:77] Creating layer conv1
I0529 22:03:46.368242 24924 net.cpp:100] Creating Layer conv1
I0529 22:03:46.368247 24924 net.cpp:444] conv1 <- data_input-data_0_split_0
I0529 22:03:46.368257 24924 net.cpp:418] conv1 -> conv1
I0529 22:03:46.658150 24924 cudnn_conv_layer.cpp:194] Reallocating workspace storage: 3686424
I0529 22:03:46.658372 24924 net.cpp:150] Setting up conv1
I0529 22:03:46.658403 24924 net.cpp:157] Top shape: 1 64 320 640 (13107200)
I0529 22:03:46.658406 24924 net.cpp:165] Memory required for data: 81920084
I0529 22:03:46.658452 24924 layer_factory.hpp:77] Creating layer bn_conv1
I0529 22:03:46.658479 24924 net.cpp:100] Creating Layer bn_conv1
I0529 22:03:46.658488 24924 net.cpp:444] bn_conv1 <- conv1
I0529 22:03:46.658499 24924 net.cpp:405] bn_conv1 -> conv1 (in-place)
I0529 22:03:46.658905 24924 net.cpp:150] Setting up bn_conv1
I0529 22:03:46.658910 24924 net.cpp:157] Top shape: 1 64 320 640 (13107200)
I0529 22:03:46.658926 24924 net.cpp:165] Memory required for data: 134348884
I0529 22:03:46.658948 24924 layer_factory.hpp:77] Creating layer scale_conv1
I0529 22:03:46.658962 24924 net.cpp:100] Creating Layer scale_conv1
I0529 22:03:46.658967 24924 net.cpp:444] scale_conv1 <- conv1
I0529 22:03:46.658974 24924 net.cpp:405] scale_conv1 -> conv1 (in-place)
I0529 22:03:46.659015 24924 layer_factory.hpp:77] Creating layer scale_conv1
I0529 22:03:46.660130 24924 net.cpp:150] Setting up scale_conv1
I0529 22:03:46.660138 24924 net.cpp:157] Top shape: 1 64 320 640 (13107200)
I0529 22:03:46.660140 24924 net.cpp:165] Memory required for data: 186777684
I0529 22:03:46.660151 24924 layer_factory.hpp:77] Creating layer conv1_relu
I0529 22:03:46.660162 24924 net.cpp:100] Creating Layer conv1_relu
I0529 22:03:46.660167 24924 net.cpp:444] conv1_relu <- conv1
I0529 22:03:46.660177 24924 net.cpp:405] conv1_relu -> conv1 (in-place)
I0529 22:03:46.660320 24924 net.cpp:150] Setting up conv1_relu
I0529 22:03:46.660326 24924 net.cpp:157] Top shape: 1 64 320 640 (13107200)
I0529 22:03:46.660328 24924 net.cpp:165] Memory required for data: 239206484
I0529 22:03:46.660332 24924 layer_factory.hpp:77] Creating layer pool1
I0529 22:03:46.660348 24924 net.cpp:100] Creating Layer pool1
I0529 22:03:46.660353 24924 net.cpp:444] pool1 <- conv1
I0529 22:03:46.660364 24924 net.cpp:418] pool1 -> pool1
I0529 22:03:46.660404 24924 net.cpp:150] Setting up pool1
I0529 22:03:46.660413 24924 net.cpp:157] Top shape: 1 64 160 320 (3276800)
I0529 22:03:46.660414 24924 net.cpp:165] Memory required for data: 252313684
I0529 22:03:46.660418 24924 layer_factory.hpp:77] Creating layer pool1_pool1_0_split
I0529 22:03:46.660426 24924 net.cpp:100] Creating Layer pool1_pool1_0_split
I0529 22:03:46.660429 24924 net.cpp:444] pool1_pool1_0_split <- pool1
I0529 22:03:46.660439 24924 net.cpp:418] pool1_pool1_0_split -> pool1_pool1_0_split_0
I0529 22:03:46.660449 24924 net.cpp:418] pool1_pool1_0_split -> pool1_pool1_0_split_1
I0529 22:03:46.660477 24924 net.cpp:150] Setting up pool1_pool1_0_split
I0529 22:03:46.660483 24924 net.cpp:157] Top shape: 1 64 160 320 (3276800)
I0529 22:03:46.660486 24924 net.cpp:157] Top shape: 1 64 160 320 (3276800)
I0529 22:03:46.660488 24924 net.cpp:165] Memory required for data: 278528084
I0529 22:03:46.660491 24924 layer_factory.hpp:77] Creating layer res2a_branch1
I0529 22:03:46.660503 24924 net.cpp:100] Creating Layer res2a_branch1
I0529 22:03:46.660508 24924 net.cpp:444] res2a_branch1 <- pool1_pool1_0_split_0
I0529 22:03:46.660518 24924 net.cpp:418] res2a_branch1 -> res2a_branch1
I0529 22:03:46.661231 24924 cudnn_conv_layer.cpp:194] Reallocating workspace storage: 928152
I0529 22:03:46.661420 24924 net.cpp:150] Setting up res2a_branch1
I0529 22:03:46.661429 24924 net.cpp:157] Top shape: 1 256 160 320 (13107200)
I0529 22:03:46.661432 24924 net.cpp:165] Memory required for data: 330956884
I0529 22:03:46.661442 24924 layer_factory.hpp:77] Creating layer bn2a_branch1
I0529 22:03:46.661453 24924 net.cpp:100] Creating Layer bn2a_branch1
I0529 22:03:46.661458 24924 net.cpp:444] bn2a_branch1 <- res2a_branch1
I0529 22:03:46.661469 24924 net.cpp:405] bn2a_branch1 -> res2a_branch1 (in-place)
I0529 22:03:46.662148 24924 net.cpp:150] Setting up bn2a_branch1
I0529 22:03:46.662156 24924 net.cpp:157] Top shape: 1 256 160 320 (13107200)
I0529 22:03:46.662158 24924 net.cpp:165] Memory required for data: 383385684
I0529 22:03:46.662184 24924 layer_factory.hpp:77] Creating layer scale2a_branch1
I0529 22:03:46.662199 24924 net.cpp:100] Creating Layer scale2a_branch1
I0529 22:03:46.662204 24924 net.cpp:444] scale2a_branch1 <- res2a_branch1
I0529 22:03:46.662212 24924 net.cpp:405] scale2a_branch1 -> res2a_branch1 (in-place)
I0529 22:03:46.662253 24924 layer_factory.hpp:77] Creating layer scale2a_branch1
I0529 22:03:46.662470 24924 net.cpp:150] Setting up scale2a_branch1
I0529 22:03:46.662477 24924 net.cpp:157] Top shape: 1 256 160 320 (13107200)
I0529 22:03:46.662478 24924 net.cpp:165] Memory required for data: 435814484
I0529 22:03:46.662487 24924 layer_factory.hpp:77] Creating layer res2a_branch2a
I0529 22:03:46.662499 24924 net.cpp:100] Creating Layer res2a_branch2a
I0529 22:03:46.662504 24924 net.cpp:444] res2a_branch2a <- pool1_pool1_0_split_1
I0529 22:03:46.662515 24924 net.cpp:418] res2a_branch2a -> res2a_branch2a
I0529 22:03:46.663697 24924 cudnn_conv_layer.cpp:194] Reallocating workspace storage: 928152
I0529 22:03:46.663714 24924 net.cpp:150] Setting up res2a_branch2a
I0529 22:03:46.663722 24924 net.cpp:157] Top shape: 1 64 160 320 (3276800)
I0529 22:03:46.663723 24924 net.cpp:165] Memory required for data: 448921684
I0529 22:03:46.663733 24924 layer_factory.hpp:77] Creating layer bn2a_branch2a
I0529 22:03:46.663744 24924 net.cpp:100] Creating Layer bn2a_branch2a
I0529 22:03:46.663749 24924 net.cpp:444] bn2a_branch2a <- res2a_branch2a
I0529 22:03:46.663759 24924 net.cpp:405] bn2a_branch2a -> res2a_branch2a (in-place)
I0529 22:03:46.663959 24924 net.cpp:150] Setting up bn2a_branch2a
I0529 22:03:46.663964 24924 net.cpp:157] Top shape: 1 64 160 320 (3276800)
I0529 22:03:46.663966 24924 net.cpp:165] Memory required for data: 462028884
I0529 22:03:46.663987 24924 layer_factory.hpp:77] Creating layer scale2a_branch2a
I0529 22:03:46.664000 24924 net.cpp:100] Creating Layer scale2a_branch2a
I0529 22:03:46.664005 24924 net.cpp:444] scale2a_branch2a <- res2a_branch2a
I0529 22:03:46.664012 24924 net.cpp:405] scale2a_branch2a -> res2a_branch2a (in-place)
I0529 22:03:46.664052 24924 layer_factory.hpp:77] Creating layer scale2a_branch2a
I0529 22:03:46.664275 24924 net.cpp:150] Setting up scale2a_branch2a
I0529 22:03:46.664281 24924 net.cpp:157] Top shape: 1 64 160 320 (3276800)
I0529 22:03:46.664283 24924 net.cpp:165] Memory required for data: 475136084
I0529 22:03:46.664291 24924 layer_factory.hpp:77] Creating layer res2a_branch2a_relu
I0529 22:03:46.664305 24924 net.cpp:100] Creating Layer res2a_branch2a_relu
I0529 22:03:46.664310 24924 net.cpp:444] res2a_branch2a_relu <- res2a_branch2a
I0529 22:03:46.664319 24924 net.cpp:405] res2a_branch2a_relu -> res2a_branch2a (in-place)
I0529 22:03:46.664439 24924 net.cpp:150] Setting up res2a_branch2a_relu
I0529 22:03:46.664444 24924 net.cpp:157] Top shape: 1 64 160 320 (3276800)
I0529 22:03:46.664446 24924 net.cpp:165] Memory required for data: 488243284
I0529 22:03:46.664449 24924 layer_factory.hpp:77] Creating layer res2a_branch2b
I0529 22:03:46.664461 24924 net.cpp:100] Creating Layer res2a_branch2b
I0529 22:03:46.664466 24924 net.cpp:444] res2a_branch2b <- res2a_branch2a
I0529 22:03:46.664477 24924 net.cpp:418] res2a_branch2b -> res2a_branch2b
I0529 22:03:46.665197 24924 cudnn_conv_layer.cpp:194] Reallocating workspace storage: 786432
I0529 22:03:46.665387 24924 net.cpp:150] Setting up res2a_branch2b
I0529 22:03:46.665396 24924 net.cpp:157] Top shape: 1 64 160 320 (3276800)
I0529 22:03:46.665398 24924 net.cpp:165] Memory required for data: 501350484
I0529 22:03:46.665407 24924 layer_factory.hpp:77] Creating layer bn2a_branch2b
I0529 22:03:46.665419 24924 net.cpp:100] Creating Layer bn2a_branch2b
I0529 22:03:46.665424 24924 net.cpp:444] bn2a_branch2b <- res2a_branch2b
I0529 22:03:46.665434 24924 net.cpp:405] bn2a_branch2b -> res2a_branch2b (in-place)
I0529 22:03:46.665637 24924 net.cpp:150] Setting up bn2a_branch2b
I0529 22:03:46.665642 24924 net.cpp:157] Top shape: 1 64 160 320 (3276800)
I0529 22:03:46.665645 24924 net.cpp:165] Memory required for data: 514457684
I0529 22:03:46.665658 24924 layer_factory.hpp:77] Creating layer scale2a_branch2b
I0529 22:03:46.665668 24924 net.cpp:100] Creating Layer scale2a_branch2b
I0529 22:03:46.665673 24924 net.cpp:444] scale2a_branch2b <- res2a_branch2b
I0529 22:03:46.665683 24924 net.cpp:405] scale2a_branch2b -> res2a_branch2b (in-place)
I0529 22:03:46.665721 24924 layer_factory.hpp:77] Creating layer scale2a_branch2b
I0529 22:03:46.665946 24924 net.cpp:150] Setting up scale2a_branch2b
I0529 22:03:46.665951 24924 net.cpp:157] Top shape: 1 64 160 320 (3276800)
I0529 22:03:46.665954 24924 net.cpp:165] Memory required for data: 527564884
I0529 22:03:46.665962 24924 layer_factory.hpp:77] Creating layer res2a_branch2b_relu
I0529 22:03:46.665971 24924 net.cpp:100] Creating Layer res2a_branch2b_relu
I0529 22:03:46.665976 24924 net.cpp:444] res2a_branch2b_relu <- res2a_branch2b
I0529 22:03:46.665983 24924 net.cpp:405] res2a_branch2b_relu -> res2a_branch2b (in-place)
I0529 22:03:46.666287 24924 net.cpp:150] Setting up res2a_branch2b_relu
I0529 22:03:46.666294 24924 net.cpp:157] Top shape: 1 64 160 320 (3276800)
I0529 22:03:46.666296 24924 net.cpp:165] Memory required for data: 540672084
I0529 22:03:46.666301 24924 layer_factory.hpp:77] Creating layer res2a_branch2c
I0529 22:03:46.666312 24924 net.cpp:100] Creating Layer res2a_branch2c
I0529 22:03:46.666317 24924 net.cpp:444] res2a_branch2c <- res2a_branch2b
I0529 22:03:46.666329 24924 net.cpp:418] res2a_branch2c -> res2a_branch2c
I0529 22:03:46.667023 24924 cudnn_conv_layer.cpp:194] Reallocating workspace storage: 928152
I0529 22:03:46.667035 24924 net.cpp:150] Setting up res2a_branch2c
I0529 22:03:46.667042 24924 net.cpp:157] Top shape: 1 256 160 320 (13107200)
I0529 22:03:46.667044 24924 net.cpp:165] Memory required for data: 593100884
I0529 22:03:46.667053 24924 layer_factory.hpp:77] Creating layer bn2a_branch2c
I0529 22:03:46.667064 24924 net.cpp:100] Creating Layer bn2a_branch2c
I0529 22:03:46.667069 24924 net.cpp:444] bn2a_branch2c <- res2a_branch2c
I0529 22:03:46.667079 24924 net.cpp:405] bn2a_branch2c -> res2a_branch2c (in-place)
I0529 22:03:46.667778 24924 net.cpp:150] Setting up bn2a_branch2c
I0529 22:03:46.667785 24924 net.cpp:157] Top shape: 1 256 160 320 (13107200)
I0529 22:03:46.667788 24924 net.cpp:165] Memory required for data: 645529684
I0529 22:03:46.667804 24924 layer_factory.hpp:77] Creating layer scale2a_branch2c
I0529 22:03:46.667815 24924 net.cpp:100] Creating Layer scale2a_branch2c
I0529 22:03:46.667820 24924 net.cpp:444] scale2a_branch2c <- res2a_branch2c
I0529 22:03:46.667830 24924 net.cpp:405] scale2a_branch2c -> res2a_branch2c (in-place)
I0529 22:03:46.667871 24924 layer_factory.hpp:77] Creating layer scale2a_branch2c
I0529 22:03:46.668089 24924 net.cpp:150] Setting up scale2a_branch2c
I0529 22:03:46.668095 24924 net.cpp:157] Top shape: 1 256 160 320 (13107200)
I0529 22:03:46.668098 24924 net.cpp:165] Memory required for data: 697958484
I0529 22:03:46.668107 24924 layer_factory.hpp:77] Creating layer res2a
I0529 22:03:46.668115 24924 net.cpp:100] Creating Layer res2a
I0529 22:03:46.668119 24924 net.cpp:444] res2a <- res2a_branch1
I0529 22:03:46.668126 24924 net.cpp:444] res2a <- res2a_branch2c
I0529 22:03:46.668133 24924 net.cpp:418] res2a -> res2a
I0529 22:03:46.668161 24924 net.cpp:150] Setting up res2a
I0529 22:03:46.668167 24924 net.cpp:157] Top shape: 1 256 160 320 (13107200)
I0529 22:03:46.668170 24924 net.cpp:165] Memory required for data: 750387284
I0529 22:03:46.668172 24924 layer_factory.hpp:77] Creating layer res2a_relu
I0529 22:03:46.668180 24924 net.cpp:100] Creating Layer res2a_relu
I0529 22:03:46.668184 24924 net.cpp:444] res2a_relu <- res2a
I0529 22:03:46.668192 24924 net.cpp:405] res2a_relu -> res2a (in-place)
I0529 22:03:46.668318 24924 net.cpp:150] Setting up res2a_relu
I0529 22:03:46.668323 24924 net.cpp:157] Top shape: 1 256 160 320 (13107200)
I0529 22:03:46.668325 24924 net.cpp:165] Memory required for data: 802816084
I0529 22:03:46.668329 24924 layer_factory.hpp:77] Creating layer res2a_res2a_relu_0_split
I0529 22:03:46.668336 24924 net.cpp:100] Creating Layer res2a_res2a_relu_0_split
I0529 22:03:46.668341 24924 net.cpp:444] res2a_res2a_relu_0_split <- res2a
I0529 22:03:46.668350 24924 net.cpp:418] res2a_res2a_relu_0_split -> res2a_res2a_relu_0_split_0
I0529 22:03:46.668361 24924 net.cpp:418] res2a_res2a_relu_0_split -> res2a_res2a_relu_0_split_1
I0529 22:03:46.668392 24924 net.cpp:150] Setting up res2a_res2a_relu_0_split
I0529 22:03:46.668400 24924 net.cpp:157] Top shape: 1 256 160 320 (13107200)
I0529 22:03:46.668402 24924 net.cpp:157] Top shape: 1 256 160 320 (13107200)
I0529 22:03:46.668403 24924 net.cpp:165] Memory required for data: 907673684
I0529 22:03:46.668406 24924 layer_factory.hpp:77] Creating layer res2b_branch2a
I0529 22:03:46.668417 24924 net.cpp:100] Creating Layer res2b_branch2a
I0529 22:03:46.668421 24924 net.cpp:444] res2b_branch2a <- res2a_res2a_relu_0_split_0
I0529 22:03:46.668431 24924 net.cpp:418] res2b_branch2a -> res2b_branch2a
I0529 22:03:46.669198 24924 cudnn_conv_layer.cpp:194] Reallocating workspace storage: 928152
I0529 22:03:46.669399 24924 net.cpp:150] Setting up res2b_branch2a
I0529 22:03:46.669409 24924 net.cpp:157] Top shape: 1 64 160 320 (3276800)
I0529 22:03:46.669411 24924 net.cpp:165] Memory required for data: 920780884
I0529 22:03:46.669421 24924 layer_factory.hpp:77] Creating layer bn2b_branch2a
I0529 22:03:46.669435 24924 net.cpp:100] Creating Layer bn2b_branch2a
I0529 22:03:46.669440 24924 net.cpp:444] bn2b_branch2a <- res2b_branch2a
I0529 22:03:46.669451 24924 net.cpp:405] bn2b_branch2a -> res2b_branch2a (in-place)
I0529 22:03:46.669662 24924 net.cpp:150] Setting up bn2b_branch2a
I0529 22:03:46.669668 24924 net.cpp:157] Top shape: 1 64 160 320 (3276800)
I0529 22:03:46.669669 24924 net.cpp:165] Memory required for data: 933888084
I0529 22:03:46.669693 24924 layer_factory.hpp:77] Creating layer scale2b_branch2a
I0529 22:03:46.669706 24924 net.cpp:100] Creating Layer scale2b_branch2a
I0529 22:03:46.669710 24924 net.cpp:444] scale2b_branch2a <- res2b_branch2a
I0529 22:03:46.669719 24924 net.cpp:405] scale2b_branch2a -> res2b_branch2a (in-place)
I0529 22:03:46.669759 24924 layer_factory.hpp:77] Creating layer scale2b_branch2a
I0529 22:03:46.669984 24924 net.cpp:150] Setting up scale2b_branch2a
I0529 22:03:46.669991 24924 net.cpp:157] Top shape: 1 64 160 320 (3276800)
I0529 22:03:46.669993 24924 net.cpp:165] Memory required for data: 946995284
I0529 22:03:46.670001 24924 layer_factory.hpp:77] Creating layer res2b_branch2a_relu
I0529 22:03:46.670009 24924 net.cpp:100] Creating Layer res2b_branch2a_relu
I0529 22:03:46.670014 24924 net.cpp:444] res2b_branch2a_relu <- res2b_branch2a
I0529 22:03:46.670022 24924 net.cpp:405] res2b_branch2a_relu -> res2b_branch2a (in-place)
I0529 22:03:46.670150 24924 net.cpp:150] Setting up res2b_branch2a_relu
I0529 22:03:46.670156 24924 net.cpp:157] Top shape: 1 64 160 320 (3276800)
I0529 22:03:46.670158 24924 net.cpp:165] Memory required for data: 960102484
I0529 22:03:46.670161 24924 layer_factory.hpp:77] Creating layer res2b_branch2b
I0529 22:03:46.670173 24924 net.cpp:100] Creating Layer res2b_branch2b
I0529 22:03:46.670178 24924 net.cpp:444] res2b_branch2b <- res2b_branch2a
I0529 22:03:46.670189 24924 net.cpp:418] res2b_branch2b -> res2b_branch2b
I0529 22:03:46.670927 24924 cudnn_conv_layer.cpp:194] Reallocating workspace storage: 786432
I0529 22:03:46.670943 24924 net.cpp:150] Setting up res2b_branch2b
I0529 22:03:46.670949 24924 net.cpp:157] Top shape: 1 64 160 320 (3276800)
I0529 22:03:46.670953 24924 net.cpp:165] Memory required for data: 973209684
I0529 22:03:46.670960 24924 layer_factory.hpp:77] Creating layer bn2b_branch2b
I0529 22:03:46.670977 24924 net.cpp:100] Creating Layer bn2b_branch2b
I0529 22:03:46.670982 24924 net.cpp:444] bn2b_branch2b <- res2b_branch2b
I0529 22:03:46.670994 24924 net.cpp:405] bn2b_branch2b -> res2b_branch2b (in-place)
I0529 22:03:46.671196 24924 net.cpp:150] Setting up bn2b_branch2b
I0529 22:03:46.671201 24924 net.cpp:157] Top shape: 1 64 160 320 (3276800)
I0529 22:03:46.671203 24924 net.cpp:165] Memory required for data: 986316884
I0529 22:03:46.671216 24924 layer_factory.hpp:77] Creating layer scale2b_branch2b
I0529 22:03:46.671227 24924 net.cpp:100] Creating Layer scale2b_branch2b
I0529 22:03:46.671232 24924 net.cpp:444] scale2b_branch2b <- res2b_branch2b
I0529 22:03:46.671241 24924 net.cpp:405] scale2b_branch2b -> res2b_branch2b (in-place)
I0529 22:03:46.671280 24924 layer_factory.hpp:77] Creating layer scale2b_branch2b
I0529 22:03:46.671507 24924 net.cpp:150] Setting up scale2b_branch2b
I0529 22:03:46.671514 24924 net.cpp:157] Top shape: 1 64 160 320 (3276800)
I0529 22:03:46.671515 24924 net.cpp:165] Memory required for data: 999424084
I0529 22:03:46.671524 24924 layer_factory.hpp:77] Creating layer res2b_branch2b_relu
I0529 22:03:46.671532 24924 net.cpp:100] Creating Layer res2b_branch2b_relu
I0529 22:03:46.671536 24924 net.cpp:444] res2b_branch2b_relu <- res2b_branch2b
I0529 22:03:46.671545 24924 net.cpp:405] res2b_branch2b_relu -> res2b_branch2b (in-place)
I0529 22:03:46.671883 24924 net.cpp:150] Setting up res2b_branch2b_relu
I0529 22:03:46.671890 24924 net.cpp:157] Top shape: 1 64 160 320 (3276800)
I0529 22:03:46.671892 24924 net.cpp:165] Memory required for data: 1012531284
I0529 22:03:46.671896 24924 layer_factory.hpp:77] Creating layer res2b_branch2c
I0529 22:03:46.671910 24924 net.cpp:100] Creating Layer res2b_branch2c
I0529 22:03:46.671916 24924 net.cpp:444] res2b_branch2c <- res2b_branch2b
I0529 22:03:46.671926 24924 net.cpp:418] res2b_branch2c -> res2b_branch2c
I0529 22:03:46.672652 24924 cudnn_conv_layer.cpp:194] Reallocating workspace storage: 928152
I0529 22:03:46.672896 24924 net.cpp:150] Setting up res2b_branch2c
I0529 22:03:46.672907 24924 net.cpp:157] Top shape: 1 256 160 320 (13107200)
I0529 22:03:46.672956 24924 net.cpp:165] Memory required for data: 1064960084
I0529 22:03:46.672969 24924 layer_factory.hpp:77] Creating layer bn2b_branch2c
I0529 22:03:46.672983 24924 net.cpp:100] Creating Layer bn2b_branch2c
I0529 22:03:46.672988 24924 net.cpp:444] bn2b_branch2c <- res2b_branch2c
I0529 22:03:46.672999 24924 net.cpp:405] bn2b_branch2c -> res2b_branch2c (in-place)
I0529 22:03:46.673734 24924 net.cpp:150] Setting up bn2b_branch2c
I0529 22:03:46.673743 24924 net.cpp:157] Top shape: 1 256 160 320 (13107200)
I0529 22:03:46.673745 24924 net.cpp:165] Memory required for data: 1117388884
I0529 22:03:46.673763 24924 layer_factory.hpp:77] Creating layer scale2b_branch2c
I0529 22:03:46.673775 24924 net.cpp:100] Creating Layer scale2b_branch2c
I0529 22:03:46.673780 24924 net.cpp:444] scale2b_branch2c <- res2b_branch2c
I0529 22:03:46.673790 24924 net.cpp:405] scale2b_branch2c -> res2b_branch2c (in-place)
I0529 22:03:46.673833 24924 layer_factory.hpp:77] Creating layer scale2b_branch2c
I0529 22:03:46.674054 24924 net.cpp:150] Setting up scale2b_branch2c
I0529 22:03:46.674060 24924 net.cpp:157] Top shape: 1 256 160 320 (13107200)
I0529 22:03:46.674062 24924 net.cpp:165] Memory required for data: 1169817684
I0529 22:03:46.674070 24924 layer_factory.hpp:77] Creating layer res2b
I0529 22:03:46.674079 24924 net.cpp:100] Creating Layer res2b
I0529 22:03:46.674083 24924 net.cpp:444] res2b <- res2a_res2a_relu_0_split_1
I0529 22:03:46.674090 24924 net.cpp:444] res2b <- res2b_branch2c
I0529 22:03:46.674098 24924 net.cpp:418] res2b -> res2b
I0529 22:03:46.674125 24924 net.cpp:150] Setting up res2b
I0529 22:03:46.674132 24924 net.cpp:157] Top shape: 1 256 160 320 (13107200)
I0529 22:03:46.674134 24924 net.cpp:165] Memory required for data: 1222246484
I0529 22:03:46.674137 24924 layer_factory.hpp:77] Creating layer res2b_relu
I0529 22:03:46.674144 24924 net.cpp:100] Creating Layer res2b_relu
I0529 22:03:46.674147 24924 net.cpp:444] res2b_relu <- res2b
I0529 22:03:46.674155 24924 net.cpp:405] res2b_relu -> res2b (in-place)
I0529 22:03:46.674293 24924 net.cpp:150] Setting up res2b_relu
I0529 22:03:46.674299 24924 net.cpp:157] Top shape: 1 256 160 320 (13107200)
I0529 22:03:46.674299 24924 net.cpp:165] Memory required for data: 1274675284
I0529 22:03:46.674304 24924 layer_factory.hpp:77] Creating layer res2b_res2b_relu_0_split
I0529 22:03:46.674310 24924 net.cpp:100] Creating Layer res2b_res2b_relu_0_split
I0529 22:03:46.674314 24924 net.cpp:444] res2b_res2b_relu_0_split <- res2b
I0529 22:03:46.674324 24924 net.cpp:418] res2b_res2b_relu_0_split -> res2b_res2b_relu_0_split_0
I0529 22:03:46.674334 24924 net.cpp:418] res2b_res2b_relu_0_split -> res2b_res2b_relu_0_split_1
I0529 22:03:46.674366 24924 net.cpp:150] Setting up res2b_res2b_relu_0_split
I0529 22:03:46.674372 24924 net.cpp:157] Top shape: 1 256 160 320 (13107200)
I0529 22:03:46.674376 24924 net.cpp:157] Top shape: 1 256 160 320 (13107200)
I0529 22:03:46.674378 24924 net.cpp:165] Memory required for data: 1379532884
I0529 22:03:46.674381 24924 layer_factory.hpp:77] Creating layer res2c_branch2a
I0529 22:03:46.674392 24924 net.cpp:100] Creating Layer res2c_branch2a
I0529 22:03:46.674397 24924 net.cpp:444] res2c_branch2a <- res2b_res2b_relu_0_split_0
I0529 22:03:46.674407 24924 net.cpp:418] res2c_branch2a -> res2c_branch2a
I0529 22:03:46.675134 24924 cudnn_conv_layer.cpp:194] Reallocating workspace storage: 928152
I0529 22:03:46.675151 24924 net.cpp:150] Setting up res2c_branch2a
I0529 22:03:46.675158 24924 net.cpp:157] Top shape: 1 64 160 320 (3276800)
I0529 22:03:46.675160 24924 net.cpp:165] Memory required for data: 1392640084
I0529 22:03:46.675169 24924 layer_factory.hpp:77] Creating layer bn2c_branch2a
I0529 22:03:46.675180 24924 net.cpp:100] Creating Layer bn2c_branch2a
I0529 22:03:46.675184 24924 net.cpp:444] bn2c_branch2a <- res2c_branch2a
I0529 22:03:46.675195 24924 net.cpp:405] bn2c_branch2a -> res2c_branch2a (in-place)
I0529 22:03:46.675401 24924 net.cpp:150] Setting up bn2c_branch2a
I0529 22:03:46.675406 24924 net.cpp:157] Top shape: 1 64 160 320 (3276800)
I0529 22:03:46.675408 24924 net.cpp:165] Memory required for data: 1405747284
I0529 22:03:46.675422 24924 layer_factory.hpp:77] Creating layer scale2c_branch2a
I0529 22:03:46.675432 24924 net.cpp:100] Creating Layer scale2c_branch2a
I0529 22:03:46.675436 24924 net.cpp:444] scale2c_branch2a <- res2c_branch2a
I0529 22:03:46.675446 24924 net.cpp:405] scale2c_branch2a -> res2c_branch2a (in-place)
I0529 22:03:46.675485 24924 layer_factory.hpp:77] Creating layer scale2c_branch2a
I0529 22:03:46.675709 24924 net.cpp:150] Setting up scale2c_branch2a
I0529 22:03:46.675714 24924 net.cpp:157] Top shape: 1 64 160 320 (3276800)
I0529 22:03:46.675716 24924 net.cpp:165] Memory required for data: 1418854484
I0529 22:03:46.675725 24924 layer_factory.hpp:77] Creating layer res2c_branch2a_relu
I0529 22:03:46.675732 24924 net.cpp:100] Creating Layer res2c_branch2a_relu
I0529 22:03:46.675737 24924 net.cpp:444] res2c_branch2a_relu <- res2c_branch2a
I0529 22:03:46.675745 24924 net.cpp:405] res2c_branch2a_relu -> res2c_branch2a (in-place)
I0529 22:03:46.675868 24924 net.cpp:150] Setting up res2c_branch2a_relu
I0529 22:03:46.675873 24924 net.cpp:157] Top shape: 1 64 160 320 (3276800)
I0529 22:03:46.675875 24924 net.cpp:165] Memory required for data: 1431961684
I0529 22:03:46.675879 24924 layer_factory.hpp:77] Creating layer res2c_branch2b
I0529 22:03:46.675891 24924 net.cpp:100] Creating Layer res2c_branch2b
I0529 22:03:46.675895 24924 net.cpp:444] res2c_branch2b <- res2c_branch2a
I0529 22:03:46.675906 24924 net.cpp:418] res2c_branch2b -> res2c_branch2b
I0529 22:03:46.676635 24924 cudnn_conv_layer.cpp:194] Reallocating workspace storage: 786432
I0529 22:03:46.676826 24924 net.cpp:150] Setting up res2c_branch2b
I0529 22:03:46.676834 24924 net.cpp:157] Top shape: 1 64 160 320 (3276800)
I0529 22:03:46.676836 24924 net.cpp:165] Memory required for data: 1445068884
I0529 22:03:46.676846 24924 layer_factory.hpp:77] Creating layer bn2c_branch2b
I0529 22:03:46.676856 24924 net.cpp:100] Creating Layer bn2c_branch2b
I0529 22:03:46.676861 24924 net.cpp:444] bn2c_branch2b <- res2c_branch2b
I0529 22:03:46.676870 24924 net.cpp:405] bn2c_branch2b -> res2c_branch2b (in-place)
I0529 22:03:46.677084 24924 net.cpp:150] Setting up bn2c_branch2b
I0529 22:03:46.677090 24924 net.cpp:157] Top shape: 1 64 160 320 (3276800)
I0529 22:03:46.677093 24924 net.cpp:165] Memory required for data: 1458176084
I0529 22:03:46.677105 24924 layer_factory.hpp:77] Creating layer scale2c_branch2b
I0529 22:03:46.677115 24924 net.cpp:100] Creating Layer scale2c_branch2b
I0529 22:03:46.677119 24924 net.cpp:444] scale2c_branch2b <- res2c_branch2b
I0529 22:03:46.677127 24924 net.cpp:405] scale2c_branch2b -> res2c_branch2b (in-place)
I0529 22:03:46.677167 24924 layer_factory.hpp:77] Creating layer scale2c_branch2b
I0529 22:03:46.677394 24924 net.cpp:150] Setting up scale2c_branch2b
I0529 22:03:46.677400 24924 net.cpp:157] Top shape: 1 64 160 320 (3276800)
I0529 22:03:46.677402 24924 net.cpp:165] Memory required for data: 1471283284
I0529 22:03:46.677412 24924 layer_factory.hpp:77] Creating layer res2c_branch2b_relu
I0529 22:03:46.677419 24924 net.cpp:100] Creating Layer res2c_branch2b_relu
I0529 22:03:46.677423 24924 net.cpp:444] res2c_branch2b_relu <- res2c_branch2b
I0529 22:03:46.677433 24924 net.cpp:405] res2c_branch2b_relu -> res2c_branch2b (in-place)
I0529 22:03:46.677561 24924 net.cpp:150] Setting up res2c_branch2b_relu
I0529 22:03:46.677565 24924 net.cpp:157] Top shape: 1 64 160 320 (3276800)
I0529 22:03:46.677568 24924 net.cpp:165] Memory required for data: 1484390484
I0529 22:03:46.677572 24924 layer_factory.hpp:77] Creating layer res2c_branch2c
I0529 22:03:46.677582 24924 net.cpp:100] Creating Layer res2c_branch2c
I0529 22:03:46.677587 24924 net.cpp:444] res2c_branch2c <- res2c_branch2b
I0529 22:03:46.677598 24924 net.cpp:418] res2c_branch2c -> res2c_branch2c
I0529 22:03:46.678310 24924 cudnn_conv_layer.cpp:194] Reallocating workspace storage: 928152
I0529 22:03:46.678323 24924 net.cpp:150] Setting up res2c_branch2c
I0529 22:03:46.678328 24924 net.cpp:157] Top shape: 1 256 160 320 (13107200)
I0529 22:03:46.678330 24924 net.cpp:165] Memory required for data: 1536819284
I0529 22:03:46.678339 24924 layer_factory.hpp:77] Creating layer bn2c_branch2c
I0529 22:03:46.678351 24924 net.cpp:100] Creating Layer bn2c_branch2c
I0529 22:03:46.678356 24924 net.cpp:444] bn2c_branch2c <- res2c_branch2c
I0529 22:03:46.678369 24924 net.cpp:405] bn2c_branch2c -> res2c_branch2c (in-place)
I0529 22:03:46.679080 24924 net.cpp:150] Setting up bn2c_branch2c
I0529 22:03:46.679088 24924 net.cpp:157] Top shape: 1 256 160 320 (13107200)
I0529 22:03:46.679090 24924 net.cpp:165] Memory required for data: 1589248084
I0529 22:03:46.679123 24924 layer_factory.hpp:77] Creating layer scale2c_branch2c
I0529 22:03:46.679137 24924 net.cpp:100] Creating Layer scale2c_branch2c
I0529 22:03:46.679143 24924 net.cpp:444] scale2c_branch2c <- res2c_branch2c
I0529 22:03:46.679153 24924 net.cpp:405] scale2c_branch2c -> res2c_branch2c (in-place)
I0529 22:03:46.679206 24924 layer_factory.hpp:77] Creating layer scale2c_branch2c
I0529 22:03:46.679442 24924 net.cpp:150] Setting up scale2c_branch2c
I0529 22:03:46.679450 24924 net.cpp:157] Top shape: 1 256 160 320 (13107200)
I0529 22:03:46.679451 24924 net.cpp:165] Memory required for data: 1641676884
I0529 22:03:46.679464 24924 layer_factory.hpp:77] Creating layer res2c
I0529 22:03:46.679476 24924 net.cpp:100] Creating Layer res2c
I0529 22:03:46.679482 24924 net.cpp:444] res2c <- res2b_res2b_relu_0_split_1
I0529 22:03:46.679493 24924 net.cpp:444] res2c <- res2c_branch2c
I0529 22:03:46.679503 24924 net.cpp:418] res2c -> res2c
I0529 22:03:46.679536 24924 net.cpp:150] Setting up res2c
I0529 22:03:46.679545 24924 net.cpp:157] Top shape: 1 256 160 320 (13107200)
I0529 22:03:46.679548 24924 net.cpp:165] Memory required for data: 1694105684
I0529 22:03:46.679553 24924 layer_factory.hpp:77] Creating layer res2c_relu
I0529 22:03:46.679563 24924 net.cpp:100] Creating Layer res2c_relu
I0529 22:03:46.679569 24924 net.cpp:444] res2c_relu <- res2c
I0529 22:03:46.679581 24924 net.cpp:405] res2c_relu -> res2c (in-place)
I0529 22:03:46.679913 24924 net.cpp:150] Setting up res2c_relu
I0529 22:03:46.679920 24924 net.cpp:157] Top shape: 1 256 160 320 (13107200)
I0529 22:03:46.679924 24924 net.cpp:165] Memory required for data: 1746534484
I0529 22:03:46.679929 24924 layer_factory.hpp:77] Creating layer res2c_res2c_relu_0_split
I0529 22:03:46.679940 24924 net.cpp:100] Creating Layer res2c_res2c_relu_0_split
I0529 22:03:46.679947 24924 net.cpp:444] res2c_res2c_relu_0_split <- res2c
I0529 22:03:46.679961 24924 net.cpp:418] res2c_res2c_relu_0_split -> res2c_res2c_relu_0_split_0
I0529 22:03:46.679977 24924 net.cpp:418] res2c_res2c_relu_0_split -> res2c_res2c_relu_0_split_1
I0529 22:03:46.680019 24924 net.cpp:150] Setting up res2c_res2c_relu_0_split
I0529 22:03:46.680027 24924 net.cpp:157] Top shape: 1 256 160 320 (13107200)
I0529 22:03:46.680033 24924 net.cpp:157] Top shape: 1 256 160 320 (13107200)
I0529 22:03:46.680037 24924 net.cpp:165] Memory required for data: 1851392084
I0529 22:03:46.680040 24924 layer_factory.hpp:77] Creating layer res3a_branch1
I0529 22:03:46.680058 24924 net.cpp:100] Creating Layer res3a_branch1
I0529 22:03:46.680063 24924 net.cpp:444] res3a_branch1 <- res2c_res2c_relu_0_split_0
I0529 22:03:46.680079 24924 net.cpp:418] res3a_branch1 -> res3a_branch1
I0529 22:03:46.681488 24924 cudnn_conv_layer.cpp:194] Reallocating workspace storage: 230424
I0529 22:03:46.681685 24924 net.cpp:150] Setting up res3a_branch1
I0529 22:03:46.681696 24924 net.cpp:157] Top shape: 1 512 80 160 (6553600)
I0529 22:03:46.681700 24924 net.cpp:165] Memory required for data: 1877606484
I0529 22:03:46.681712 24924 layer_factory.hpp:77] Creating layer bn3a_branch1
I0529 22:03:46.681730 24924 net.cpp:100] Creating Layer bn3a_branch1
I0529 22:03:46.681735 24924 net.cpp:444] bn3a_branch1 <- res3a_branch1
I0529 22:03:46.681751 24924 net.cpp:405] bn3a_branch1 -> res3a_branch1 (in-place)
I0529 22:03:46.682410 24924 net.cpp:150] Setting up bn3a_branch1
I0529 22:03:46.682418 24924 net.cpp:157] Top shape: 1 512 80 160 (6553600)
I0529 22:03:46.682421 24924 net.cpp:165] Memory required for data: 1903820884
I0529 22:03:46.682440 24924 layer_factory.hpp:77] Creating layer scale3a_branch1
I0529 22:03:46.682454 24924 net.cpp:100] Creating Layer scale3a_branch1
I0529 22:03:46.682461 24924 net.cpp:444] scale3a_branch1 <- res3a_branch1
I0529 22:03:46.682476 24924 net.cpp:405] scale3a_branch1 -> res3a_branch1 (in-place)
I0529 22:03:46.682521 24924 layer_factory.hpp:77] Creating layer scale3a_branch1
I0529 22:03:46.682663 24924 net.cpp:150] Setting up scale3a_branch1
I0529 22:03:46.682672 24924 net.cpp:157] Top shape: 1 512 80 160 (6553600)
I0529 22:03:46.682674 24924 net.cpp:165] Memory required for data: 1930035284
I0529 22:03:46.682685 24924 layer_factory.hpp:77] Creating layer res3a_branch2a
I0529 22:03:46.682701 24924 net.cpp:100] Creating Layer res3a_branch2a
I0529 22:03:46.682708 24924 net.cpp:444] res3a_branch2a <- res2c_res2c_relu_0_split_1
I0529 22:03:46.682724 24924 net.cpp:418] res3a_branch2a -> res3a_branch2a
I0529 22:03:46.683506 24924 cudnn_conv_layer.cpp:194] Reallocating workspace storage: 230424
I0529 22:03:46.683522 24924 net.cpp:150] Setting up res3a_branch2a
I0529 22:03:46.683531 24924 net.cpp:157] Top shape: 1 128 80 160 (1638400)
I0529 22:03:46.683534 24924 net.cpp:165] Memory required for data: 1936588884
I0529 22:03:46.683544 24924 layer_factory.hpp:77] Creating layer bn3a_branch2a
I0529 22:03:46.683559 24924 net.cpp:100] Creating Layer bn3a_branch2a
I0529 22:03:46.683565 24924 net.cpp:444] bn3a_branch2a <- res3a_branch2a
I0529 22:03:46.683581 24924 net.cpp:405] bn3a_branch2a -> res3a_branch2a (in-place)
I0529 22:03:46.683745 24924 net.cpp:150] Setting up bn3a_branch2a
I0529 22:03:46.683753 24924 net.cpp:157] Top shape: 1 128 80 160 (1638400)
I0529 22:03:46.683755 24924 net.cpp:165] Memory required for data: 1943142484
I0529 22:03:46.683773 24924 layer_factory.hpp:77] Creating layer scale3a_branch2a
I0529 22:03:46.683787 24924 net.cpp:100] Creating Layer scale3a_branch2a
I0529 22:03:46.683794 24924 net.cpp:444] scale3a_branch2a <- res3a_branch2a
I0529 22:03:46.683807 24924 net.cpp:405] scale3a_branch2a -> res3a_branch2a (in-place)
I0529 22:03:46.683853 24924 layer_factory.hpp:77] Creating layer scale3a_branch2a
I0529 22:03:46.683990 24924 net.cpp:150] Setting up scale3a_branch2a
I0529 22:03:46.683996 24924 net.cpp:157] Top shape: 1 128 80 160 (1638400)
I0529 22:03:46.684000 24924 net.cpp:165] Memory required for data: 1949696084
I0529 22:03:46.684010 24924 layer_factory.hpp:77] Creating layer res3a_branch2a_relu
I0529 22:03:46.684021 24924 net.cpp:100] Creating Layer res3a_branch2a_relu
I0529 22:03:46.684027 24924 net.cpp:444] res3a_branch2a_relu <- res3a_branch2a
I0529 22:03:46.684041 24924 net.cpp:405] res3a_branch2a_relu -> res3a_branch2a (in-place)
I0529 22:03:46.684173 24924 net.cpp:150] Setting up res3a_branch2a_relu
I0529 22:03:46.684180 24924 net.cpp:157] Top shape: 1 128 80 160 (1638400)
I0529 22:03:46.684182 24924 net.cpp:165] Memory required for data: 1956249684
I0529 22:03:46.684188 24924 layer_factory.hpp:77] Creating layer res3a_branch2b
I0529 22:03:46.684203 24924 net.cpp:100] Creating Layer res3a_branch2b
I0529 22:03:46.684209 24924 net.cpp:444] res3a_branch2b <- res3a_branch2a
I0529 22:03:46.684226 24924 net.cpp:418] res3a_branch2b -> res3a_branch2b
I0529 22:03:46.685170 24924 cudnn_conv_layer.cpp:194] Reallocating workspace storage: 3145728
I0529 22:03:46.685369 24924 net.cpp:150] Setting up res3a_branch2b
I0529 22:03:46.685379 24924 net.cpp:157] Top shape: 1 128 80 160 (1638400)
I0529 22:03:46.685382 24924 net.cpp:165] Memory required for data: 1962803284
I0529 22:03:46.685395 24924 layer_factory.hpp:77] Creating layer bn3a_branch2b
I0529 22:03:46.685410 24924 net.cpp:100] Creating Layer bn3a_branch2b
I0529 22:03:46.685416 24924 net.cpp:444] bn3a_branch2b <- res3a_branch2b
I0529 22:03:46.685431 24924 net.cpp:405] bn3a_branch2b -> res3a_branch2b (in-place)
I0529 22:03:46.685601 24924 net.cpp:150] Setting up bn3a_branch2b
I0529 22:03:46.685607 24924 net.cpp:157] Top shape: 1 128 80 160 (1638400)
I0529 22:03:46.685611 24924 net.cpp:165] Memory required for data: 1969356884
I0529 22:03:46.685627 24924 layer_factory.hpp:77] Creating layer scale3a_branch2b
I0529 22:03:46.685652 24924 net.cpp:100] Creating Layer scale3a_branch2b
I0529 22:03:46.685657 24924 net.cpp:444] scale3a_branch2b <- res3a_branch2b
I0529 22:03:46.685672 24924 net.cpp:405] scale3a_branch2b -> res3a_branch2b (in-place)
I0529 22:03:46.685719 24924 layer_factory.hpp:77] Creating layer scale3a_branch2b
I0529 22:03:46.685856 24924 net.cpp:150] Setting up scale3a_branch2b
I0529 22:03:46.685863 24924 net.cpp:157] Top shape: 1 128 80 160 (1638400)
I0529 22:03:46.685866 24924 net.cpp:165] Memory required for data: 1975910484
I0529 22:03:46.685879 24924 layer_factory.hpp:77] Creating layer res3a_branch2b_relu
I0529 22:03:46.685891 24924 net.cpp:100] Creating Layer res3a_branch2b_relu
I0529 22:03:46.685897 24924 net.cpp:444] res3a_branch2b_relu <- res3a_branch2b
I0529 22:03:46.685910 24924 net.cpp:405] res3a_branch2b_relu -> res3a_branch2b (in-place)
I0529 22:03:46.686050 24924 net.cpp:150] Setting up res3a_branch2b_relu
I0529 22:03:46.686058 24924 net.cpp:157] Top shape: 1 128 80 160 (1638400)
I0529 22:03:46.686060 24924 net.cpp:165] Memory required for data: 1982464084
I0529 22:03:46.686065 24924 layer_factory.hpp:77] Creating layer res3a_branch2c
I0529 22:03:46.686081 24924 net.cpp:100] Creating Layer res3a_branch2c
I0529 22:03:46.686087 24924 net.cpp:444] res3a_branch2c <- res3a_branch2b
I0529 22:03:46.686103 24924 net.cpp:418] res3a_branch2c -> res3a_branch2c
I0529 22:03:46.686931 24924 cudnn_conv_layer.cpp:194] Reallocating workspace storage: 236952
I0529 22:03:46.686949 24924 net.cpp:150] Setting up res3a_branch2c
I0529 22:03:46.686959 24924 net.cpp:157] Top shape: 1 512 80 160 (6553600)
I0529 22:03:46.686961 24924 net.cpp:165] Memory required for data: 2008678484
I0529 22:03:46.686974 24924 layer_factory.hpp:77] Creating layer bn3a_branch2c
I0529 22:03:46.686988 24924 net.cpp:100] Creating Layer bn3a_branch2c
I0529 22:03:46.686995 24924 net.cpp:444] bn3a_branch2c <- res3a_branch2c
I0529 22:03:46.687010 24924 net.cpp:405] bn3a_branch2c -> res3a_branch2c (in-place)
I0529 22:03:46.687175 24924 net.cpp:150] Setting up bn3a_branch2c
I0529 22:03:46.687182 24924 net.cpp:157] Top shape: 1 512 80 160 (6553600)
I0529 22:03:46.687186 24924 net.cpp:165] Memory required for data: 2034892884
I0529 22:03:46.687201 24924 layer_factory.hpp:77] Creating layer scale3a_branch2c
I0529 22:03:46.687216 24924 net.cpp:100] Creating Layer scale3a_branch2c
I0529 22:03:46.687222 24924 net.cpp:444] scale3a_branch2c <- res3a_branch2c
I0529 22:03:46.687235 24924 net.cpp:405] scale3a_branch2c -> res3a_branch2c (in-place)
I0529 22:03:46.687278 24924 layer_factory.hpp:77] Creating layer scale3a_branch2c
I0529 22:03:46.687417 24924 net.cpp:150] Setting up scale3a_branch2c
I0529 22:03:46.687424 24924 net.cpp:157] Top shape: 1 512 80 160 (6553600)
I0529 22:03:46.687427 24924 net.cpp:165] Memory required for data: 2061107284
I0529 22:03:46.687439 24924 layer_factory.hpp:77] Creating layer res3a
I0529 22:03:46.687450 24924 net.cpp:100] Creating Layer res3a
I0529 22:03:46.687455 24924 net.cpp:444] res3a <- res3a_branch1
I0529 22:03:46.687467 24924 net.cpp:444] res3a <- res3a_branch2c
I0529 22:03:46.687477 24924 net.cpp:418] res3a -> res3a
I0529 22:03:46.687510 24924 net.cpp:150] Setting up res3a
I0529 22:03:46.687520 24924 net.cpp:157] Top shape: 1 512 80 160 (6553600)
I0529 22:03:46.687523 24924 net.cpp:165] Memory required for data: 2087321684
I0529 22:03:46.687527 24924 layer_factory.hpp:77] Creating layer res3a_relu
I0529 22:03:46.687537 24924 net.cpp:100] Creating Layer res3a_relu
I0529 22:03:46.687542 24924 net.cpp:444] res3a_relu <- res3a
I0529 22:03:46.687556 24924 net.cpp:405] res3a_relu -> res3a (in-place)
I0529 22:03:46.687880 24924 net.cpp:150] Setting up res3a_relu
I0529 22:03:46.687889 24924 net.cpp:157] Top shape: 1 512 80 160 (6553600)
I0529 22:03:46.687892 24924 net.cpp:165] Memory required for data: 2113536084
I0529 22:03:46.687898 24924 layer_factory.hpp:77] Creating layer res3a_res3a_relu_0_split
I0529 22:03:46.687911 24924 net.cpp:100] Creating Layer res3a_res3a_relu_0_split
I0529 22:03:46.687916 24924 net.cpp:444] res3a_res3a_relu_0_split <- res3a
I0529 22:03:46.687932 24924 net.cpp:418] res3a_res3a_relu_0_split -> res3a_res3a_relu_0_split_0
I0529 22:03:46.687947 24924 net.cpp:418] res3a_res3a_relu_0_split -> res3a_res3a_relu_0_split_1
I0529 22:03:46.687988 24924 net.cpp:150] Setting up res3a_res3a_relu_0_split
I0529 22:03:46.687997 24924 net.cpp:157] Top shape: 1 512 80 160 (6553600)
I0529 22:03:46.688002 24924 net.cpp:157] Top shape: 1 512 80 160 (6553600)
I0529 22:03:46.688006 24924 net.cpp:165] Memory required for data: 2165964884
I0529 22:03:46.688010 24924 layer_factory.hpp:77] Creating layer res3b_branch2a
I0529 22:03:46.688026 24924 net.cpp:100] Creating Layer res3b_branch2a
I0529 22:03:46.688032 24924 net.cpp:444] res3b_branch2a <- res3a_res3a_relu_0_split_0
I0529 22:03:46.688047 24924 net.cpp:418] res3b_branch2a -> res3b_branch2a
I0529 22:03:46.688876 24924 cudnn_conv_layer.cpp:194] Reallocating workspace storage: 236952
I0529 22:03:46.688899 24924 net.cpp:150] Setting up res3b_branch2a
I0529 22:03:46.688906 24924 net.cpp:157] Top shape: 1 128 80 160 (1638400)
I0529 22:03:46.688916 24924 net.cpp:165] Memory required for data: 2172518484
I0529 22:03:46.688930 24924 layer_factory.hpp:77] Creating layer bn3b_branch2a
I0529 22:03:46.688947 24924 net.cpp:100] Creating Layer bn3b_branch2a
I0529 22:03:46.688954 24924 net.cpp:444] bn3b_branch2a <- res3b_branch2a
I0529 22:03:46.688968 24924 net.cpp:405] bn3b_branch2a -> res3b_branch2a (in-place)
I0529 22:03:46.689142 24924 net.cpp:150] Setting up bn3b_branch2a
I0529 22:03:46.689149 24924 net.cpp:157] Top shape: 1 128 80 160 (1638400)
I0529 22:03:46.689152 24924 net.cpp:165] Memory required for data: 2179072084
I0529 22:03:46.689169 24924 layer_factory.hpp:77] Creating layer scale3b_branch2a
I0529 22:03:46.689185 24924 net.cpp:100] Creating Layer scale3b_branch2a
I0529 22:03:46.689193 24924 net.cpp:444] scale3b_branch2a <- res3b_branch2a
I0529 22:03:46.689205 24924 net.cpp:405] scale3b_branch2a -> res3b_branch2a (in-place)
I0529 22:03:46.689252 24924 layer_factory.hpp:77] Creating layer scale3b_branch2a
I0529 22:03:46.689393 24924 net.cpp:150] Setting up scale3b_branch2a
I0529 22:03:46.689399 24924 net.cpp:157] Top shape: 1 128 80 160 (1638400)
I0529 22:03:46.689401 24924 net.cpp:165] Memory required for data: 2185625684
I0529 22:03:46.689414 24924 layer_factory.hpp:77] Creating layer res3b_branch2a_relu
I0529 22:03:46.689424 24924 net.cpp:100] Creating Layer res3b_branch2a_relu
I0529 22:03:46.689430 24924 net.cpp:444] res3b_branch2a_relu <- res3b_branch2a
I0529 22:03:46.689443 24924 net.cpp:405] res3b_branch2a_relu -> res3b_branch2a (in-place)
I0529 22:03:46.689584 24924 net.cpp:150] Setting up res3b_branch2a_relu
I0529 22:03:46.689590 24924 net.cpp:157] Top shape: 1 128 80 160 (1638400)
I0529 22:03:46.689594 24924 net.cpp:165] Memory required for data: 2192179284
I0529 22:03:46.689599 24924 layer_factory.hpp:77] Creating layer res3b_branch2b
I0529 22:03:46.689615 24924 net.cpp:100] Creating Layer res3b_branch2b
I0529 22:03:46.689621 24924 net.cpp:444] res3b_branch2b <- res3b_branch2a
I0529 22:03:46.689637 24924 net.cpp:418] res3b_branch2b -> res3b_branch2b
I0529 22:03:46.690789 24924 cudnn_conv_layer.cpp:194] Reallocating workspace storage: 3145728
I0529 22:03:46.690984 24924 net.cpp:150] Setting up res3b_branch2b
I0529 22:03:46.690997 24924 net.cpp:157] Top shape: 1 128 80 160 (1638400)
I0529 22:03:46.691001 24924 net.cpp:165] Memory required for data: 2198732884
I0529 22:03:46.691013 24924 layer_factory.hpp:77] Creating layer bn3b_branch2b
I0529 22:03:46.691027 24924 net.cpp:100] Creating Layer bn3b_branch2b
I0529 22:03:46.691035 24924 net.cpp:444] bn3b_branch2b <- res3b_branch2b
I0529 22:03:46.691048 24924 net.cpp:405] bn3b_branch2b -> res3b_branch2b (in-place)
I0529 22:03:46.691218 24924 net.cpp:150] Setting up bn3b_branch2b
I0529 22:03:46.691226 24924 net.cpp:157] Top shape: 1 128 80 160 (1638400)
I0529 22:03:46.691227 24924 net.cpp:165] Memory required for data: 2205286484
I0529 22:03:46.691244 24924 layer_factory.hpp:77] Creating layer scale3b_branch2b
I0529 22:03:46.691257 24924 net.cpp:100] Creating Layer scale3b_branch2b
I0529 22:03:46.691263 24924 net.cpp:444] scale3b_branch2b <- res3b_branch2b
I0529 22:03:46.691277 24924 net.cpp:405] scale3b_branch2b -> res3b_branch2b (in-place)
I0529 22:03:46.691323 24924 layer_factory.hpp:77] Creating layer scale3b_branch2b
I0529 22:03:46.691462 24924 net.cpp:150] Setting up scale3b_branch2b
I0529 22:03:46.691469 24924 net.cpp:157] Top shape: 1 128 80 160 (1638400)
I0529 22:03:46.691473 24924 net.cpp:165] Memory required for data: 2211840084
I0529 22:03:46.691484 24924 layer_factory.hpp:77] Creating layer res3b_branch2b_relu
I0529 22:03:46.691494 24924 net.cpp:100] Creating Layer res3b_branch2b_relu
I0529 22:03:46.691500 24924 net.cpp:444] res3b_branch2b_relu <- res3b_branch2b
I0529 22:03:46.691514 24924 net.cpp:405] res3b_branch2b_relu -> res3b_branch2b (in-place)
I0529 22:03:46.691653 24924 net.cpp:150] Setting up res3b_branch2b_relu
I0529 22:03:46.691659 24924 net.cpp:157] Top shape: 1 128 80 160 (1638400)
I0529 22:03:46.691663 24924 net.cpp:165] Memory required for data: 2218393684
I0529 22:03:46.691668 24924 layer_factory.hpp:77] Creating layer res3b_branch2c
I0529 22:03:46.691684 24924 net.cpp:100] Creating Layer res3b_branch2c
I0529 22:03:46.691689 24924 net.cpp:444] res3b_branch2c <- res3b_branch2b
I0529 22:03:46.691705 24924 net.cpp:418] res3b_branch2c -> res3b_branch2c
I0529 22:03:46.692535 24924 cudnn_conv_layer.cpp:194] Reallocating workspace storage: 236952
I0529 22:03:46.692557 24924 net.cpp:150] Setting up res3b_branch2c
I0529 22:03:46.692565 24924 net.cpp:157] Top shape: 1 512 80 160 (6553600)
I0529 22:03:46.692569 24924 net.cpp:165] Memory required for data: 2244608084
I0529 22:03:46.692580 24924 layer_factory.hpp:77] Creating layer bn3b_branch2c
I0529 22:03:46.692593 24924 net.cpp:100] Creating Layer bn3b_branch2c
I0529 22:03:46.692600 24924 net.cpp:444] bn3b_branch2c <- res3b_branch2c
I0529 22:03:46.692616 24924 net.cpp:405] bn3b_branch2c -> res3b_branch2c (in-place)
I0529 22:03:46.692785 24924 net.cpp:150] Setting up bn3b_branch2c
I0529 22:03:46.692791 24924 net.cpp:157] Top shape: 1 512 80 160 (6553600)
I0529 22:03:46.692795 24924 net.cpp:165] Memory required for data: 2270822484
I0529 22:03:46.692811 24924 layer_factory.hpp:77] Creating layer scale3b_branch2c
I0529 22:03:46.692823 24924 net.cpp:100] Creating Layer scale3b_branch2c
I0529 22:03:46.692829 24924 net.cpp:444] scale3b_branch2c <- res3b_branch2c
I0529 22:03:46.692843 24924 net.cpp:405] scale3b_branch2c -> res3b_branch2c (in-place)
I0529 22:03:46.692888 24924 layer_factory.hpp:77] Creating layer scale3b_branch2c
I0529 22:03:46.693032 24924 net.cpp:150] Setting up scale3b_branch2c
I0529 22:03:46.693039 24924 net.cpp:157] Top shape: 1 512 80 160 (6553600)
I0529 22:03:46.693042 24924 net.cpp:165] Memory required for data: 2297036884
I0529 22:03:46.693055 24924 layer_factory.hpp:77] Creating layer res3b
I0529 22:03:46.693066 24924 net.cpp:100] Creating Layer res3b
I0529 22:03:46.693073 24924 net.cpp:444] res3b <- res3a_res3a_relu_0_split_1
I0529 22:03:46.693084 24924 net.cpp:444] res3b <- res3b_branch2c
I0529 22:03:46.693094 24924 net.cpp:418] res3b -> res3b
I0529 22:03:46.693127 24924 net.cpp:150] Setting up res3b
I0529 22:03:46.693135 24924 net.cpp:157] Top shape: 1 512 80 160 (6553600)
I0529 22:03:46.693138 24924 net.cpp:165] Memory required for data: 2323251284
I0529 22:03:46.693143 24924 layer_factory.hpp:77] Creating layer res3b_relu
I0529 22:03:46.693156 24924 net.cpp:100] Creating Layer res3b_relu
I0529 22:03:46.693161 24924 net.cpp:444] res3b_relu <- res3b
I0529 22:03:46.693172 24924 net.cpp:405] res3b_relu -> res3b (in-place)
I0529 22:03:46.693495 24924 net.cpp:150] Setting up res3b_relu
I0529 22:03:46.693502 24924 net.cpp:157] Top shape: 1 512 80 160 (6553600)
I0529 22:03:46.693506 24924 net.cpp:165] Memory required for data: 2349465684
I0529 22:03:46.693511 24924 layer_factory.hpp:77] Creating layer res3b_res3b_relu_0_split
I0529 22:03:46.693524 24924 net.cpp:100] Creating Layer res3b_res3b_relu_0_split
I0529 22:03:46.693531 24924 net.cpp:444] res3b_res3b_relu_0_split <- res3b
I0529 22:03:46.693545 24924 net.cpp:418] res3b_res3b_relu_0_split -> res3b_res3b_relu_0_split_0
I0529 22:03:46.693562 24924 net.cpp:418] res3b_res3b_relu_0_split -> res3b_res3b_relu_0_split_1
I0529 22:03:46.693601 24924 net.cpp:150] Setting up res3b_res3b_relu_0_split
I0529 22:03:46.693611 24924 net.cpp:157] Top shape: 1 512 80 160 (6553600)
I0529 22:03:46.693616 24924 net.cpp:157] Top shape: 1 512 80 160 (6553600)
I0529 22:03:46.693619 24924 net.cpp:165] Memory required for data: 2401894484
I0529 22:03:46.693624 24924 layer_factory.hpp:77] Creating layer res3c_branch2a
I0529 22:03:46.693639 24924 net.cpp:100] Creating Layer res3c_branch2a
I0529 22:03:46.693645 24924 net.cpp:444] res3c_branch2a <- res3b_res3b_relu_0_split_0
I0529 22:03:46.693660 24924 net.cpp:418] res3c_branch2a -> res3c_branch2a
I0529 22:03:46.694463 24924 cudnn_conv_layer.cpp:194] Reallocating workspace storage: 236952
I0529 22:03:46.694480 24924 net.cpp:150] Setting up res3c_branch2a
I0529 22:03:46.694489 24924 net.cpp:157] Top shape: 1 128 80 160 (1638400)
I0529 22:03:46.694491 24924 net.cpp:165] Memory required for data: 2408448084
I0529 22:03:46.694504 24924 layer_factory.hpp:77] Creating layer bn3c_branch2a
I0529 22:03:46.694517 24924 net.cpp:100] Creating Layer bn3c_branch2a
I0529 22:03:46.694525 24924 net.cpp:444] bn3c_branch2a <- res3c_branch2a
I0529 22:03:46.694538 24924 net.cpp:405] bn3c_branch2a -> res3c_branch2a (in-place)
I0529 22:03:46.694706 24924 net.cpp:150] Setting up bn3c_branch2a
I0529 22:03:46.694712 24924 net.cpp:157] Top shape: 1 128 80 160 (1638400)
I0529 22:03:46.694715 24924 net.cpp:165] Memory required for data: 2415001684
I0529 22:03:46.694731 24924 layer_factory.hpp:77] Creating layer scale3c_branch2a
I0529 22:03:46.694746 24924 net.cpp:100] Creating Layer scale3c_branch2a
I0529 22:03:46.694752 24924 net.cpp:444] scale3c_branch2a <- res3c_branch2a
I0529 22:03:46.694766 24924 net.cpp:405] scale3c_branch2a -> res3c_branch2a (in-place)
I0529 22:03:46.694813 24924 layer_factory.hpp:77] Creating layer scale3c_branch2a
I0529 22:03:46.694952 24924 net.cpp:150] Setting up scale3c_branch2a
I0529 22:03:46.694957 24924 net.cpp:157] Top shape: 1 128 80 160 (1638400)
I0529 22:03:46.694960 24924 net.cpp:165] Memory required for data: 2421555284
I0529 22:03:46.694972 24924 layer_factory.hpp:77] Creating layer res3c_branch2a_relu
I0529 22:03:46.694983 24924 net.cpp:100] Creating Layer res3c_branch2a_relu
I0529 22:03:46.694988 24924 net.cpp:444] res3c_branch2a_relu <- res3c_branch2a
I0529 22:03:46.695001 24924 net.cpp:405] res3c_branch2a_relu -> res3c_branch2a (in-place)
I0529 22:03:46.695132 24924 net.cpp:150] Setting up res3c_branch2a_relu
I0529 22:03:46.695138 24924 net.cpp:157] Top shape: 1 128 80 160 (1638400)
I0529 22:03:46.695140 24924 net.cpp:165] Memory required for data: 2428108884
I0529 22:03:46.695145 24924 layer_factory.hpp:77] Creating layer res3c_branch2b
I0529 22:03:46.695161 24924 net.cpp:100] Creating Layer res3c_branch2b
I0529 22:03:46.695168 24924 net.cpp:444] res3c_branch2b <- res3c_branch2a
I0529 22:03:46.695183 24924 net.cpp:418] res3c_branch2b -> res3c_branch2b
I0529 22:03:46.696621 24924 cudnn_conv_layer.cpp:194] Reallocating workspace storage: 3145728
I0529 22:03:46.696825 24924 net.cpp:150] Setting up res3c_branch2b
I0529 22:03:46.696837 24924 net.cpp:157] Top shape: 1 128 80 160 (1638400)
I0529 22:03:46.696841 24924 net.cpp:165] Memory required for data: 2434662484
I0529 22:03:46.696854 24924 layer_factory.hpp:77] Creating layer bn3c_branch2b
I0529 22:03:46.696869 24924 net.cpp:100] Creating Layer bn3c_branch2b
I0529 22:03:46.696876 24924 net.cpp:444] bn3c_branch2b <- res3c_branch2b
I0529 22:03:46.696890 24924 net.cpp:405] bn3c_branch2b -> res3c_branch2b (in-place)
I0529 22:03:46.697068 24924 net.cpp:150] Setting up bn3c_branch2b
I0529 22:03:46.697077 24924 net.cpp:157] Top shape: 1 128 80 160 (1638400)
I0529 22:03:46.697079 24924 net.cpp:165] Memory required for data: 2441216084
I0529 22:03:46.697096 24924 layer_factory.hpp:77] Creating layer scale3c_branch2b
I0529 22:03:46.697109 24924 net.cpp:100] Creating Layer scale3c_branch2b
I0529 22:03:46.697115 24924 net.cpp:444] scale3c_branch2b <- res3c_branch2b
I0529 22:03:46.697130 24924 net.cpp:405] scale3c_branch2b -> res3c_branch2b (in-place)
I0529 22:03:46.697178 24924 layer_factory.hpp:77] Creating layer scale3c_branch2b
I0529 22:03:46.697319 24924 net.cpp:150] Setting up scale3c_branch2b
I0529 22:03:46.697325 24924 net.cpp:157] Top shape: 1 128 80 160 (1638400)
I0529 22:03:46.697329 24924 net.cpp:165] Memory required for data: 2447769684
I0529 22:03:46.697340 24924 layer_factory.hpp:77] Creating layer res3c_branch2b_relu
I0529 22:03:46.697351 24924 net.cpp:100] Creating Layer res3c_branch2b_relu
I0529 22:03:46.697357 24924 net.cpp:444] res3c_branch2b_relu <- res3c_branch2b
I0529 22:03:46.697371 24924 net.cpp:405] res3c_branch2b_relu -> res3c_branch2b (in-place)
I0529 22:03:46.697511 24924 net.cpp:150] Setting up res3c_branch2b_relu
I0529 22:03:46.697518 24924 net.cpp:157] Top shape: 1 128 80 160 (1638400)
I0529 22:03:46.697520 24924 net.cpp:165] Memory required for data: 2454323284
I0529 22:03:46.697526 24924 layer_factory.hpp:77] Creating layer res3c_branch2c
I0529 22:03:46.697542 24924 net.cpp:100] Creating Layer res3c_branch2c
I0529 22:03:46.697548 24924 net.cpp:444] res3c_branch2c <- res3c_branch2b
I0529 22:03:46.697564 24924 net.cpp:418] res3c_branch2c -> res3c_branch2c
I0529 22:03:46.698398 24924 cudnn_conv_layer.cpp:194] Reallocating workspace storage: 236952
I0529 22:03:46.698417 24924 net.cpp:150] Setting up res3c_branch2c
I0529 22:03:46.698426 24924 net.cpp:157] Top shape: 1 512 80 160 (6553600)
I0529 22:03:46.698428 24924 net.cpp:165] Memory required for data: 2480537684
I0529 22:03:46.698441 24924 layer_factory.hpp:77] Creating layer bn3c_branch2c
I0529 22:03:46.698454 24924 net.cpp:100] Creating Layer bn3c_branch2c
I0529 22:03:46.698462 24924 net.cpp:444] bn3c_branch2c <- res3c_branch2c
I0529 22:03:46.698477 24924 net.cpp:405] bn3c_branch2c -> res3c_branch2c (in-place)
I0529 22:03:46.698645 24924 net.cpp:150] Setting up bn3c_branch2c
I0529 22:03:46.698652 24924 net.cpp:157] Top shape: 1 512 80 160 (6553600)
I0529 22:03:46.698655 24924 net.cpp:165] Memory required for data: 2506752084
I0529 22:03:46.698671 24924 layer_factory.hpp:77] Creating layer scale3c_branch2c
I0529 22:03:46.698686 24924 net.cpp:100] Creating Layer scale3c_branch2c
I0529 22:03:46.698693 24924 net.cpp:444] scale3c_branch2c <- res3c_branch2c
I0529 22:03:46.698705 24924 net.cpp:405] scale3c_branch2c -> res3c_branch2c (in-place)
I0529 22:03:46.698750 24924 layer_factory.hpp:77] Creating layer scale3c_branch2c
I0529 22:03:46.698891 24924 net.cpp:150] Setting up scale3c_branch2c
I0529 22:03:46.698899 24924 net.cpp:157] Top shape: 1 512 80 160 (6553600)
I0529 22:03:46.698901 24924 net.cpp:165] Memory required for data: 2532966484
I0529 22:03:46.698913 24924 layer_factory.hpp:77] Creating layer res3c
I0529 22:03:46.698925 24924 net.cpp:100] Creating Layer res3c
I0529 22:03:46.698930 24924 net.cpp:444] res3c <- res3b_res3b_relu_0_split_1
I0529 22:03:46.698941 24924 net.cpp:444] res3c <- res3c_branch2c
I0529 22:03:46.698953 24924 net.cpp:418] res3c -> res3c
I0529 22:03:46.698985 24924 net.cpp:150] Setting up res3c
I0529 22:03:46.698995 24924 net.cpp:157] Top shape: 1 512 80 160 (6553600)
I0529 22:03:46.698998 24924 net.cpp:165] Memory required for data: 2559180884
I0529 22:03:46.699003 24924 layer_factory.hpp:77] Creating layer res3c_relu
I0529 22:03:46.699013 24924 net.cpp:100] Creating Layer res3c_relu
I0529 22:03:46.699018 24924 net.cpp:444] res3c_relu <- res3c
I0529 22:03:46.699030 24924 net.cpp:405] res3c_relu -> res3c (in-place)
I0529 22:03:46.699162 24924 net.cpp:150] Setting up res3c_relu
I0529 22:03:46.699167 24924 net.cpp:157] Top shape: 1 512 80 160 (6553600)
I0529 22:03:46.699170 24924 net.cpp:165] Memory required for data: 2585395284
I0529 22:03:46.699175 24924 layer_factory.hpp:77] Creating layer res3c_res3c_relu_0_split
I0529 22:03:46.699187 24924 net.cpp:100] Creating Layer res3c_res3c_relu_0_split
I0529 22:03:46.699192 24924 net.cpp:444] res3c_res3c_relu_0_split <- res3c
I0529 22:03:46.699206 24924 net.cpp:418] res3c_res3c_relu_0_split -> res3c_res3c_relu_0_split_0
I0529 22:03:46.699221 24924 net.cpp:418] res3c_res3c_relu_0_split -> res3c_res3c_relu_0_split_1
I0529 22:03:46.699261 24924 net.cpp:150] Setting up res3c_res3c_relu_0_split
I0529 22:03:46.699270 24924 net.cpp:157] Top shape: 1 512 80 160 (6553600)
I0529 22:03:46.699275 24924 net.cpp:157] Top shape: 1 512 80 160 (6553600)
I0529 22:03:46.699278 24924 net.cpp:165] Memory required for data: 2637824084
I0529 22:03:46.699282 24924 layer_factory.hpp:77] Creating layer res3d_branch2a
I0529 22:03:46.699298 24924 net.cpp:100] Creating Layer res3d_branch2a
I0529 22:03:46.699304 24924 net.cpp:444] res3d_branch2a <- res3c_res3c_relu_0_split_0
I0529 22:03:46.699319 24924 net.cpp:418] res3d_branch2a -> res3d_branch2a
I0529 22:03:46.700649 24924 cudnn_conv_layer.cpp:194] Reallocating workspace storage: 236952
I0529 22:03:46.700675 24924 net.cpp:150] Setting up res3d_branch2a
I0529 22:03:46.700685 24924 net.cpp:157] Top shape: 1 128 80 160 (1638400)
I0529 22:03:46.700687 24924 net.cpp:165] Memory required for data: 2644377684
I0529 22:03:46.700700 24924 layer_factory.hpp:77] Creating layer bn3d_branch2a
I0529 22:03:46.700714 24924 net.cpp:100] Creating Layer bn3d_branch2a
I0529 22:03:46.700721 24924 net.cpp:444] bn3d_branch2a <- res3d_branch2a
I0529 22:03:46.700736 24924 net.cpp:405] bn3d_branch2a -> res3d_branch2a (in-place)
I0529 22:03:46.700906 24924 net.cpp:150] Setting up bn3d_branch2a
I0529 22:03:46.700920 24924 net.cpp:157] Top shape: 1 128 80 160 (1638400)
I0529 22:03:46.700923 24924 net.cpp:165] Memory required for data: 2650931284
I0529 22:03:46.700963 24924 layer_factory.hpp:77] Creating layer scale3d_branch2a
I0529 22:03:46.700979 24924 net.cpp:100] Creating Layer scale3d_branch2a
I0529 22:03:46.700986 24924 net.cpp:444] scale3d_branch2a <- res3d_branch2a
I0529 22:03:46.701000 24924 net.cpp:405] scale3d_branch2a -> res3d_branch2a (in-place)
I0529 22:03:46.701048 24924 layer_factory.hpp:77] Creating layer scale3d_branch2a
I0529 22:03:46.701694 24924 net.cpp:150] Setting up scale3d_branch2a
I0529 22:03:46.701704 24924 net.cpp:157] Top shape: 1 128 80 160 (1638400)
I0529 22:03:46.701706 24924 net.cpp:165] Memory required for data: 2657484884
I0529 22:03:46.701719 24924 layer_factory.hpp:77] Creating layer res3d_branch2a_relu
I0529 22:03:46.701732 24924 net.cpp:100] Creating Layer res3d_branch2a_relu
I0529 22:03:46.701738 24924 net.cpp:444] res3d_branch2a_relu <- res3d_branch2a
I0529 22:03:46.701753 24924 net.cpp:405] res3d_branch2a_relu -> res3d_branch2a (in-place)
I0529 22:03:46.702093 24924 net.cpp:150] Setting up res3d_branch2a_relu
I0529 22:03:46.702101 24924 net.cpp:157] Top shape: 1 128 80 160 (1638400)
I0529 22:03:46.702105 24924 net.cpp:165] Memory required for data: 2664038484
I0529 22:03:46.702111 24924 layer_factory.hpp:77] Creating layer res3d_branch2b
I0529 22:03:46.702127 24924 net.cpp:100] Creating Layer res3d_branch2b
I0529 22:03:46.702133 24924 net.cpp:444] res3d_branch2b <- res3d_branch2a
I0529 22:03:46.702150 24924 net.cpp:418] res3d_branch2b -> res3d_branch2b
I0529 22:03:46.703091 24924 cudnn_conv_layer.cpp:194] Reallocating workspace storage: 3145728
I0529 22:03:46.703291 24924 net.cpp:150] Setting up res3d_branch2b
I0529 22:03:46.703302 24924 net.cpp:157] Top shape: 1 128 80 160 (1638400)
I0529 22:03:46.703305 24924 net.cpp:165] Memory required for data: 2670592084
I0529 22:03:46.703317 24924 layer_factory.hpp:77] Creating layer bn3d_branch2b
I0529 22:03:46.703332 24924 net.cpp:100] Creating Layer bn3d_branch2b
I0529 22:03:46.703338 24924 net.cpp:444] bn3d_branch2b <- res3d_branch2b
I0529 22:03:46.703353 24924 net.cpp:405] bn3d_branch2b -> res3d_branch2b (in-place)
I0529 22:03:46.703529 24924 net.cpp:150] Setting up bn3d_branch2b
I0529 22:03:46.703536 24924 net.cpp:157] Top shape: 1 128 80 160 (1638400)
I0529 22:03:46.703538 24924 net.cpp:165] Memory required for data: 2677145684
I0529 22:03:46.703555 24924 layer_factory.hpp:77] Creating layer scale3d_branch2b
I0529 22:03:46.703568 24924 net.cpp:100] Creating Layer scale3d_branch2b
I0529 22:03:46.703574 24924 net.cpp:444] scale3d_branch2b <- res3d_branch2b
I0529 22:03:46.703588 24924 net.cpp:405] scale3d_branch2b -> res3d_branch2b (in-place)
I0529 22:03:46.703637 24924 layer_factory.hpp:77] Creating layer scale3d_branch2b
I0529 22:03:46.703776 24924 net.cpp:150] Setting up scale3d_branch2b
I0529 22:03:46.703784 24924 net.cpp:157] Top shape: 1 128 80 160 (1638400)
I0529 22:03:46.703788 24924 net.cpp:165] Memory required for data: 2683699284
I0529 22:03:46.703799 24924 layer_factory.hpp:77] Creating layer res3d_branch2b_relu
I0529 22:03:46.703810 24924 net.cpp:100] Creating Layer res3d_branch2b_relu
I0529 22:03:46.703815 24924 net.cpp:444] res3d_branch2b_relu <- res3d_branch2b
I0529 22:03:46.703827 24924 net.cpp:405] res3d_branch2b_relu -> res3d_branch2b (in-place)
I0529 22:03:46.703965 24924 net.cpp:150] Setting up res3d_branch2b_relu
I0529 22:03:46.703971 24924 net.cpp:157] Top shape: 1 128 80 160 (1638400)
I0529 22:03:46.703975 24924 net.cpp:165] Memory required for data: 2690252884
I0529 22:03:46.703980 24924 layer_factory.hpp:77] Creating layer res3d_branch2c
I0529 22:03:46.703995 24924 net.cpp:100] Creating Layer res3d_branch2c
I0529 22:03:46.704001 24924 net.cpp:444] res3d_branch2c <- res3d_branch2b
I0529 22:03:46.704016 24924 net.cpp:418] res3d_branch2c -> res3d_branch2c
I0529 22:03:46.704860 24924 cudnn_conv_layer.cpp:194] Reallocating workspace storage: 236952
I0529 22:03:46.705070 24924 net.cpp:150] Setting up res3d_branch2c
I0529 22:03:46.705080 24924 net.cpp:157] Top shape: 1 512 80 160 (6553600)
I0529 22:03:46.705085 24924 net.cpp:165] Memory required for data: 2716467284
I0529 22:03:46.705096 24924 layer_factory.hpp:77] Creating layer bn3d_branch2c
I0529 22:03:46.705112 24924 net.cpp:100] Creating Layer bn3d_branch2c
I0529 22:03:46.705118 24924 net.cpp:444] bn3d_branch2c <- res3d_branch2c
I0529 22:03:46.705133 24924 net.cpp:405] bn3d_branch2c -> res3d_branch2c (in-place)
I0529 22:03:46.705312 24924 net.cpp:150] Setting up bn3d_branch2c
I0529 22:03:46.705317 24924 net.cpp:157] Top shape: 1 512 80 160 (6553600)
I0529 22:03:46.705320 24924 net.cpp:165] Memory required for data: 2742681684
I0529 22:03:46.705337 24924 layer_factory.hpp:77] Creating layer scale3d_branch2c
I0529 22:03:46.705349 24924 net.cpp:100] Creating Layer scale3d_branch2c
I0529 22:03:46.705355 24924 net.cpp:444] scale3d_branch2c <- res3d_branch2c
I0529 22:03:46.705370 24924 net.cpp:405] scale3d_branch2c -> res3d_branch2c (in-place)
I0529 22:03:46.705416 24924 layer_factory.hpp:77] Creating layer scale3d_branch2c
I0529 22:03:46.705556 24924 net.cpp:150] Setting up scale3d_branch2c
I0529 22:03:46.705564 24924 net.cpp:157] Top shape: 1 512 80 160 (6553600)
I0529 22:03:46.705566 24924 net.cpp:165] Memory required for data: 2768896084
I0529 22:03:46.705579 24924 layer_factory.hpp:77] Creating layer res3d
I0529 22:03:46.705590 24924 net.cpp:100] Creating Layer res3d
I0529 22:03:46.705596 24924 net.cpp:444] res3d <- res3c_res3c_relu_0_split_1
I0529 22:03:46.705607 24924 net.cpp:444] res3d <- res3d_branch2c
I0529 22:03:46.705617 24924 net.cpp:418] res3d -> res3d
I0529 22:03:46.705651 24924 net.cpp:150] Setting up res3d
I0529 22:03:46.705658 24924 net.cpp:157] Top shape: 1 512 80 160 (6553600)
I0529 22:03:46.705662 24924 net.cpp:165] Memory required for data: 2795110484
I0529 22:03:46.705667 24924 layer_factory.hpp:77] Creating layer res3d_relu
I0529 22:03:46.705677 24924 net.cpp:100] Creating Layer res3d_relu
I0529 22:03:46.705682 24924 net.cpp:444] res3d_relu <- res3d
I0529 22:03:46.705695 24924 net.cpp:405] res3d_relu -> res3d (in-place)
I0529 22:03:46.705832 24924 net.cpp:150] Setting up res3d_relu
I0529 22:03:46.705839 24924 net.cpp:157] Top shape: 1 512 80 160 (6553600)
I0529 22:03:46.705842 24924 net.cpp:165] Memory required for data: 2821324884
I0529 22:03:46.705847 24924 layer_factory.hpp:77] Creating layer res3d_res3d_relu_0_split
I0529 22:03:46.705858 24924 net.cpp:100] Creating Layer res3d_res3d_relu_0_split
I0529 22:03:46.705864 24924 net.cpp:444] res3d_res3d_relu_0_split <- res3d
I0529 22:03:46.705878 24924 net.cpp:418] res3d_res3d_relu_0_split -> res3d_res3d_relu_0_split_0
I0529 22:03:46.705893 24924 net.cpp:418] res3d_res3d_relu_0_split -> res3d_res3d_relu_0_split_1
I0529 22:03:46.705935 24924 net.cpp:150] Setting up res3d_res3d_relu_0_split
I0529 22:03:46.705942 24924 net.cpp:157] Top shape: 1 512 80 160 (6553600)
I0529 22:03:46.705947 24924 net.cpp:157] Top shape: 1 512 80 160 (6553600)
I0529 22:03:46.705950 24924 net.cpp:165] Memory required for data: 2873753684
I0529 22:03:46.705955 24924 layer_factory.hpp:77] Creating layer res4a_branch1
I0529 22:03:46.705971 24924 net.cpp:100] Creating Layer res4a_branch1
I0529 22:03:46.705976 24924 net.cpp:444] res4a_branch1 <- res3d_res3d_relu_0_split_0
I0529 22:03:46.705992 24924 net.cpp:418] res4a_branch1 -> res4a_branch1
I0529 22:03:46.707922 24924 cudnn_conv_layer.cpp:194] Reallocating workspace storage: 57624
I0529 22:03:46.707938 24924 net.cpp:150] Setting up res4a_branch1
I0529 22:03:46.707947 24924 net.cpp:157] Top shape: 1 1024 40 80 (3276800)
I0529 22:03:46.707950 24924 net.cpp:165] Memory required for data: 2886860884
I0529 22:03:46.707963 24924 layer_factory.hpp:77] Creating layer bn4a_branch1
I0529 22:03:46.707979 24924 net.cpp:100] Creating Layer bn4a_branch1
I0529 22:03:46.707986 24924 net.cpp:444] bn4a_branch1 <- res4a_branch1
I0529 22:03:46.708001 24924 net.cpp:405] bn4a_branch1 -> res4a_branch1 (in-place)
I0529 22:03:46.708168 24924 net.cpp:150] Setting up bn4a_branch1
I0529 22:03:46.708174 24924 net.cpp:157] Top shape: 1 1024 40 80 (3276800)
I0529 22:03:46.708178 24924 net.cpp:165] Memory required for data: 2899968084
I0529 22:03:46.708194 24924 layer_factory.hpp:77] Creating layer scale4a_branch1
I0529 22:03:46.708209 24924 net.cpp:100] Creating Layer scale4a_branch1
I0529 22:03:46.708214 24924 net.cpp:444] scale4a_branch1 <- res4a_branch1
I0529 22:03:46.708228 24924 net.cpp:405] scale4a_branch1 -> res4a_branch1 (in-place)
I0529 22:03:46.708273 24924 layer_factory.hpp:77] Creating layer scale4a_branch1
I0529 22:03:46.708392 24924 net.cpp:150] Setting up scale4a_branch1
I0529 22:03:46.708400 24924 net.cpp:157] Top shape: 1 1024 40 80 (3276800)
I0529 22:03:46.708403 24924 net.cpp:165] Memory required for data: 2913075284
I0529 22:03:46.708415 24924 layer_factory.hpp:77] Creating layer res4a_branch2a
I0529 22:03:46.708431 24924 net.cpp:100] Creating Layer res4a_branch2a
I0529 22:03:46.708436 24924 net.cpp:444] res4a_branch2a <- res3d_res3d_relu_0_split_1
I0529 22:03:46.708452 24924 net.cpp:418] res4a_branch2a -> res4a_branch2a
I0529 22:03:46.709386 24924 cudnn_conv_layer.cpp:194] Reallocating workspace storage: 57624
I0529 22:03:46.709403 24924 net.cpp:150] Setting up res4a_branch2a
I0529 22:03:46.709410 24924 net.cpp:157] Top shape: 1 256 40 80 (819200)
I0529 22:03:46.709414 24924 net.cpp:165] Memory required for data: 2916352084
I0529 22:03:46.709425 24924 layer_factory.hpp:77] Creating layer bn4a_branch2a
I0529 22:03:46.709439 24924 net.cpp:100] Creating Layer bn4a_branch2a
I0529 22:03:46.709446 24924 net.cpp:444] bn4a_branch2a <- res4a_branch2a
I0529 22:03:46.709461 24924 net.cpp:405] bn4a_branch2a -> res4a_branch2a (in-place)
I0529 22:03:46.709623 24924 net.cpp:150] Setting up bn4a_branch2a
I0529 22:03:46.709630 24924 net.cpp:157] Top shape: 1 256 40 80 (819200)
I0529 22:03:46.709632 24924 net.cpp:165] Memory required for data: 2919628884
I0529 22:03:46.709648 24924 layer_factory.hpp:77] Creating layer scale4a_branch2a
I0529 22:03:46.709662 24924 net.cpp:100] Creating Layer scale4a_branch2a
I0529 22:03:46.709668 24924 net.cpp:444] scale4a_branch2a <- res4a_branch2a
I0529 22:03:46.709682 24924 net.cpp:405] scale4a_branch2a -> res4a_branch2a (in-place)
I0529 22:03:46.709729 24924 layer_factory.hpp:77] Creating layer scale4a_branch2a
I0529 22:03:46.709843 24924 net.cpp:150] Setting up scale4a_branch2a
I0529 22:03:46.709851 24924 net.cpp:157] Top shape: 1 256 40 80 (819200)
I0529 22:03:46.709853 24924 net.cpp:165] Memory required for data: 2922905684
I0529 22:03:46.709866 24924 layer_factory.hpp:77] Creating layer res4a_branch2a_relu
I0529 22:03:46.709875 24924 net.cpp:100] Creating Layer res4a_branch2a_relu
I0529 22:03:46.709882 24924 net.cpp:444] res4a_branch2a_relu <- res4a_branch2a
I0529 22:03:46.709895 24924 net.cpp:405] res4a_branch2a_relu -> res4a_branch2a (in-place)
I0529 22:03:46.710237 24924 net.cpp:150] Setting up res4a_branch2a_relu
I0529 22:03:46.710245 24924 net.cpp:157] Top shape: 1 256 40 80 (819200)
I0529 22:03:46.710248 24924 net.cpp:165] Memory required for data: 2926182484
I0529 22:03:46.710253 24924 layer_factory.hpp:77] Creating layer res4a_branch2b
I0529 22:03:46.710270 24924 net.cpp:100] Creating Layer res4a_branch2b
I0529 22:03:46.710278 24924 net.cpp:444] res4a_branch2b <- res4a_branch2a
I0529 22:03:46.710294 24924 net.cpp:418] res4a_branch2b -> res4a_branch2b
I0529 22:03:46.712369 24924 cudnn_conv_layer.cpp:194] Reallocating workspace storage: 12582912
I0529 22:03:46.712581 24924 net.cpp:150] Setting up res4a_branch2b
I0529 22:03:46.712594 24924 net.cpp:157] Top shape: 1 256 40 80 (819200)
I0529 22:03:46.712599 24924 net.cpp:165] Memory required for data: 2929459284
I0529 22:03:46.712611 24924 layer_factory.hpp:77] Creating layer bn4a_branch2b
I0529 22:03:46.712627 24924 net.cpp:100] Creating Layer bn4a_branch2b
I0529 22:03:46.712635 24924 net.cpp:444] bn4a_branch2b <- res4a_branch2b
I0529 22:03:46.712648 24924 net.cpp:405] bn4a_branch2b -> res4a_branch2b (in-place)
I0529 22:03:46.712817 24924 net.cpp:150] Setting up bn4a_branch2b
I0529 22:03:46.712823 24924 net.cpp:157] Top shape: 1 256 40 80 (819200)
I0529 22:03:46.712826 24924 net.cpp:165] Memory required for data: 2932736084
I0529 22:03:46.712842 24924 layer_factory.hpp:77] Creating layer scale4a_branch2b
I0529 22:03:46.712857 24924 net.cpp:100] Creating Layer scale4a_branch2b
I0529 22:03:46.712863 24924 net.cpp:444] scale4a_branch2b <- res4a_branch2b
I0529 22:03:46.712877 24924 net.cpp:405] scale4a_branch2b -> res4a_branch2b (in-place)
I0529 22:03:46.712934 24924 layer_factory.hpp:77] Creating layer scale4a_branch2b
I0529 22:03:46.713053 24924 net.cpp:150] Setting up scale4a_branch2b
I0529 22:03:46.713060 24924 net.cpp:157] Top shape: 1 256 40 80 (819200)
I0529 22:03:46.713063 24924 net.cpp:165] Memory required for data: 2936012884
I0529 22:03:46.713075 24924 layer_factory.hpp:77] Creating layer res4a_branch2b_relu
I0529 22:03:46.713086 24924 net.cpp:100] Creating Layer res4a_branch2b_relu
I0529 22:03:46.713093 24924 net.cpp:444] res4a_branch2b_relu <- res4a_branch2b
I0529 22:03:46.713106 24924 net.cpp:405] res4a_branch2b_relu -> res4a_branch2b (in-place)
I0529 22:03:46.713264 24924 net.cpp:150] Setting up res4a_branch2b_relu
I0529 22:03:46.713271 24924 net.cpp:157] Top shape: 1 256 40 80 (819200)
I0529 22:03:46.713274 24924 net.cpp:165] Memory required for data: 2939289684
I0529 22:03:46.713279 24924 layer_factory.hpp:77] Creating layer res4a_branch2c
I0529 22:03:46.713295 24924 net.cpp:100] Creating Layer res4a_branch2c
I0529 22:03:46.713301 24924 net.cpp:444] res4a_branch2c <- res4a_branch2b
I0529 22:03:46.713317 24924 net.cpp:418] res4a_branch2c -> res4a_branch2c
I0529 22:03:46.714941 24924 cudnn_conv_layer.cpp:194] Reallocating workspace storage: 64152
I0529 22:03:46.714957 24924 net.cpp:150] Setting up res4a_branch2c
I0529 22:03:46.714967 24924 net.cpp:157] Top shape: 1 1024 40 80 (3276800)
I0529 22:03:46.714970 24924 net.cpp:165] Memory required for data: 2952396884
I0529 22:03:46.714982 24924 layer_factory.hpp:77] Creating layer bn4a_branch2c
I0529 22:03:46.714996 24924 net.cpp:100] Creating Layer bn4a_branch2c
I0529 22:03:46.715003 24924 net.cpp:444] bn4a_branch2c <- res4a_branch2c
I0529 22:03:46.715019 24924 net.cpp:405] bn4a_branch2c -> res4a_branch2c (in-place)
I0529 22:03:46.715188 24924 net.cpp:150] Setting up bn4a_branch2c
I0529 22:03:46.715194 24924 net.cpp:157] Top shape: 1 1024 40 80 (3276800)
I0529 22:03:46.715198 24924 net.cpp:165] Memory required for data: 2965504084
I0529 22:03:46.715214 24924 layer_factory.hpp:77] Creating layer scale4a_branch2c
I0529 22:03:46.715227 24924 net.cpp:100] Creating Layer scale4a_branch2c
I0529 22:03:46.715234 24924 net.cpp:444] scale4a_branch2c <- res4a_branch2c
I0529 22:03:46.715247 24924 net.cpp:405] scale4a_branch2c -> res4a_branch2c (in-place)
I0529 22:03:46.715294 24924 layer_factory.hpp:77] Creating layer scale4a_branch2c
I0529 22:03:46.715416 24924 net.cpp:150] Setting up scale4a_branch2c
I0529 22:03:46.715423 24924 net.cpp:157] Top shape: 1 1024 40 80 (3276800)
I0529 22:03:46.715426 24924 net.cpp:165] Memory required for data: 2978611284
I0529 22:03:46.715437 24924 layer_factory.hpp:77] Creating layer res4a
I0529 22:03:46.715462 24924 net.cpp:100] Creating Layer res4a
I0529 22:03:46.715469 24924 net.cpp:444] res4a <- res4a_branch1
I0529 22:03:46.715481 24924 net.cpp:444] res4a <- res4a_branch2c
I0529 22:03:46.715492 24924 net.cpp:418] res4a -> res4a
I0529 22:03:46.715524 24924 net.cpp:150] Setting up res4a
I0529 22:03:46.715533 24924 net.cpp:157] Top shape: 1 1024 40 80 (3276800)
I0529 22:03:46.715536 24924 net.cpp:165] Memory required for data: 2991718484
I0529 22:03:46.715544 24924 layer_factory.hpp:77] Creating layer res4a_relu
I0529 22:03:46.715554 24924 net.cpp:100] Creating Layer res4a_relu
I0529 22:03:46.715559 24924 net.cpp:444] res4a_relu <- res4a
I0529 22:03:46.715571 24924 net.cpp:405] res4a_relu -> res4a (in-place)
I0529 22:03:46.715713 24924 net.cpp:150] Setting up res4a_relu
I0529 22:03:46.715720 24924 net.cpp:157] Top shape: 1 1024 40 80 (3276800)
I0529 22:03:46.715723 24924 net.cpp:165] Memory required for data: 3004825684
I0529 22:03:46.715728 24924 layer_factory.hpp:77] Creating layer res4a_res4a_relu_0_split
I0529 22:03:46.715739 24924 net.cpp:100] Creating Layer res4a_res4a_relu_0_split
I0529 22:03:46.715744 24924 net.cpp:444] res4a_res4a_relu_0_split <- res4a
I0529 22:03:46.715760 24924 net.cpp:418] res4a_res4a_relu_0_split -> res4a_res4a_relu_0_split_0
I0529 22:03:46.715776 24924 net.cpp:418] res4a_res4a_relu_0_split -> res4a_res4a_relu_0_split_1
I0529 22:03:46.715818 24924 net.cpp:150] Setting up res4a_res4a_relu_0_split
I0529 22:03:46.715827 24924 net.cpp:157] Top shape: 1 1024 40 80 (3276800)
I0529 22:03:46.715832 24924 net.cpp:157] Top shape: 1 1024 40 80 (3276800)
I0529 22:03:46.715837 24924 net.cpp:165] Memory required for data: 3031040084
I0529 22:03:46.715840 24924 layer_factory.hpp:77] Creating layer res4b_branch2a
I0529 22:03:46.715857 24924 net.cpp:100] Creating Layer res4b_branch2a
I0529 22:03:46.715863 24924 net.cpp:444] res4b_branch2a <- res4a_res4a_relu_0_split_0
I0529 22:03:46.715878 24924 net.cpp:418] res4b_branch2a -> res4b_branch2a
I0529 22:03:46.716976 24924 cudnn_conv_layer.cpp:194] Reallocating workspace storage: 64152
I0529 22:03:46.716992 24924 net.cpp:150] Setting up res4b_branch2a
I0529 22:03:46.717002 24924 net.cpp:157] Top shape: 1 256 40 80 (819200)
I0529 22:03:46.717005 24924 net.cpp:165] Memory required for data: 3034316884
I0529 22:03:46.717016 24924 layer_factory.hpp:77] Creating layer bn4b_branch2a
I0529 22:03:46.717031 24924 net.cpp:100] Creating Layer bn4b_branch2a
I0529 22:03:46.717037 24924 net.cpp:444] bn4b_branch2a <- res4b_branch2a
I0529 22:03:46.717052 24924 net.cpp:405] bn4b_branch2a -> res4b_branch2a (in-place)
I0529 22:03:46.717216 24924 net.cpp:150] Setting up bn4b_branch2a
I0529 22:03:46.717223 24924 net.cpp:157] Top shape: 1 256 40 80 (819200)
I0529 22:03:46.717226 24924 net.cpp:165] Memory required for data: 3037593684
I0529 22:03:46.717242 24924 layer_factory.hpp:77] Creating layer scale4b_branch2a
I0529 22:03:46.717255 24924 net.cpp:100] Creating Layer scale4b_branch2a
I0529 22:03:46.717262 24924 net.cpp:444] scale4b_branch2a <- res4b_branch2a
I0529 22:03:46.717277 24924 net.cpp:405] scale4b_branch2a -> res4b_branch2a (in-place)
I0529 22:03:46.717324 24924 layer_factory.hpp:77] Creating layer scale4b_branch2a
I0529 22:03:46.717440 24924 net.cpp:150] Setting up scale4b_branch2a
I0529 22:03:46.717448 24924 net.cpp:157] Top shape: 1 256 40 80 (819200)
I0529 22:03:46.717452 24924 net.cpp:165] Memory required for data: 3040870484
I0529 22:03:46.717463 24924 layer_factory.hpp:77] Creating layer res4b_branch2a_relu
I0529 22:03:46.717473 24924 net.cpp:100] Creating Layer res4b_branch2a_relu
I0529 22:03:46.717479 24924 net.cpp:444] res4b_branch2a_relu <- res4b_branch2a
I0529 22:03:46.717491 24924 net.cpp:405] res4b_branch2a_relu -> res4b_branch2a (in-place)
I0529 22:03:46.717828 24924 net.cpp:150] Setting up res4b_branch2a_relu
I0529 22:03:46.717836 24924 net.cpp:157] Top shape: 1 256 40 80 (819200)
I0529 22:03:46.717839 24924 net.cpp:165] Memory required for data: 3044147284
I0529 22:03:46.717845 24924 layer_factory.hpp:77] Creating layer res4b_branch2b
I0529 22:03:46.717861 24924 net.cpp:100] Creating Layer res4b_branch2b
I0529 22:03:46.717869 24924 net.cpp:444] res4b_branch2b <- res4b_branch2a
I0529 22:03:46.717885 24924 net.cpp:418] res4b_branch2b -> res4b_branch2b
I0529 22:03:46.720052 24924 cudnn_conv_layer.cpp:194] Reallocating workspace storage: 12582912
I0529 22:03:46.720278 24924 net.cpp:150] Setting up res4b_branch2b
I0529 22:03:46.720295 24924 net.cpp:157] Top shape: 1 256 40 80 (819200)
I0529 22:03:46.720299 24924 net.cpp:165] Memory required for data: 3047424084
I0529 22:03:46.720319 24924 layer_factory.hpp:77] Creating layer bn4b_branch2b
I0529 22:03:46.720342 24924 net.cpp:100] Creating Layer bn4b_branch2b
I0529 22:03:46.720352 24924 net.cpp:444] bn4b_branch2b <- res4b_branch2b
I0529 22:03:46.720371 24924 net.cpp:405] bn4b_branch2b -> res4b_branch2b (in-place)
I0529 22:03:46.720556 24924 net.cpp:150] Setting up bn4b_branch2b
I0529 22:03:46.720562 24924 net.cpp:157] Top shape: 1 256 40 80 (819200)
I0529 22:03:46.720566 24924 net.cpp:165] Memory required for data: 3050700884
I0529 22:03:46.720582 24924 layer_factory.hpp:77] Creating layer scale4b_branch2b
I0529 22:03:46.720597 24924 net.cpp:100] Creating Layer scale4b_branch2b
I0529 22:03:46.720602 24924 net.cpp:444] scale4b_branch2b <- res4b_branch2b
I0529 22:03:46.720618 24924 net.cpp:405] scale4b_branch2b -> res4b_branch2b (in-place)
I0529 22:03:46.720675 24924 layer_factory.hpp:77] Creating layer scale4b_branch2b
I0529 22:03:46.720798 24924 net.cpp:150] Setting up scale4b_branch2b
I0529 22:03:46.720804 24924 net.cpp:157] Top shape: 1 256 40 80 (819200)
I0529 22:03:46.720808 24924 net.cpp:165] Memory required for data: 3053977684
I0529 22:03:46.720819 24924 layer_factory.hpp:77] Creating layer res4b_branch2b_relu
I0529 22:03:46.720830 24924 net.cpp:100] Creating Layer res4b_branch2b_relu
I0529 22:03:46.720836 24924 net.cpp:444] res4b_branch2b_relu <- res4b_branch2b
I0529 22:03:46.720849 24924 net.cpp:405] res4b_branch2b_relu -> res4b_branch2b (in-place)
I0529 22:03:46.721005 24924 net.cpp:150] Setting up res4b_branch2b_relu
I0529 22:03:46.721012 24924 net.cpp:157] Top shape: 1 256 40 80 (819200)
I0529 22:03:46.721015 24924 net.cpp:165] Memory required for data: 3057254484
I0529 22:03:46.721020 24924 layer_factory.hpp:77] Creating layer res4b_branch2c
I0529 22:03:46.721038 24924 net.cpp:100] Creating Layer res4b_branch2c
I0529 22:03:46.721045 24924 net.cpp:444] res4b_branch2c <- res4b_branch2b
I0529 22:03:46.721060 24924 net.cpp:418] res4b_branch2c -> res4b_branch2c
I0529 22:03:46.722987 24924 cudnn_conv_layer.cpp:194] Reallocating workspace storage: 64152
I0529 22:03:46.723007 24924 net.cpp:150] Setting up res4b_branch2c
I0529 22:03:46.723021 24924 net.cpp:157] Top shape: 1 1024 40 80 (3276800)
I0529 22:03:46.723024 24924 net.cpp:165] Memory required for data: 3070361684
I0529 22:03:46.723043 24924 layer_factory.hpp:77] Creating layer bn4b_branch2c
I0529 22:03:46.723067 24924 net.cpp:100] Creating Layer bn4b_branch2c
I0529 22:03:46.723076 24924 net.cpp:444] bn4b_branch2c <- res4b_branch2c
I0529 22:03:46.723094 24924 net.cpp:405] bn4b_branch2c -> res4b_branch2c (in-place)
I0529 22:03:46.723278 24924 net.cpp:150] Setting up bn4b_branch2c
I0529 22:03:46.723285 24924 net.cpp:157] Top shape: 1 1024 40 80 (3276800)
I0529 22:03:46.723289 24924 net.cpp:165] Memory required for data: 3083468884
I0529 22:03:46.723305 24924 layer_factory.hpp:77] Creating layer scale4b_branch2c
I0529 22:03:46.723322 24924 net.cpp:100] Creating Layer scale4b_branch2c
I0529 22:03:46.723328 24924 net.cpp:444] scale4b_branch2c <- res4b_branch2c
I0529 22:03:46.723342 24924 net.cpp:405] scale4b_branch2c -> res4b_branch2c (in-place)
I0529 22:03:46.723392 24924 layer_factory.hpp:77] Creating layer scale4b_branch2c
I0529 22:03:46.723517 24924 net.cpp:150] Setting up scale4b_branch2c
I0529 22:03:46.723525 24924 net.cpp:157] Top shape: 1 1024 40 80 (3276800)
I0529 22:03:46.723527 24924 net.cpp:165] Memory required for data: 3096576084
I0529 22:03:46.723539 24924 layer_factory.hpp:77] Creating layer res4b
I0529 22:03:46.723551 24924 net.cpp:100] Creating Layer res4b
I0529 22:03:46.723557 24924 net.cpp:444] res4b <- res4a_res4a_relu_0_split_1
I0529 22:03:46.723569 24924 net.cpp:444] res4b <- res4b_branch2c
I0529 22:03:46.723579 24924 net.cpp:418] res4b -> res4b
I0529 22:03:46.723614 24924 net.cpp:150] Setting up res4b
I0529 22:03:46.723623 24924 net.cpp:157] Top shape: 1 1024 40 80 (3276800)
I0529 22:03:46.723626 24924 net.cpp:165] Memory required for data: 3109683284
I0529 22:03:46.723630 24924 layer_factory.hpp:77] Creating layer res4b_relu
I0529 22:03:46.723641 24924 net.cpp:100] Creating Layer res4b_relu
I0529 22:03:46.723646 24924 net.cpp:444] res4b_relu <- res4b
I0529 22:03:46.723659 24924 net.cpp:405] res4b_relu -> res4b (in-place)
I0529 22:03:46.723809 24924 net.cpp:150] Setting up res4b_relu
I0529 22:03:46.723816 24924 net.cpp:157] Top shape: 1 1024 40 80 (3276800)
I0529 22:03:46.723819 24924 net.cpp:165] Memory required for data: 3122790484
I0529 22:03:46.723824 24924 layer_factory.hpp:77] Creating layer res4b_res4b_relu_0_split
I0529 22:03:46.723836 24924 net.cpp:100] Creating Layer res4b_res4b_relu_0_split
I0529 22:03:46.723841 24924 net.cpp:444] res4b_res4b_relu_0_split <- res4b
I0529 22:03:46.723856 24924 net.cpp:418] res4b_res4b_relu_0_split -> res4b_res4b_relu_0_split_0
I0529 22:03:46.723872 24924 net.cpp:418] res4b_res4b_relu_0_split -> res4b_res4b_relu_0_split_1
I0529 22:03:46.723917 24924 net.cpp:150] Setting up res4b_res4b_relu_0_split
I0529 22:03:46.723925 24924 net.cpp:157] Top shape: 1 1024 40 80 (3276800)
I0529 22:03:46.723932 24924 net.cpp:157] Top shape: 1 1024 40 80 (3276800)
I0529 22:03:46.723934 24924 net.cpp:165] Memory required for data: 3149004884
I0529 22:03:46.723939 24924 layer_factory.hpp:77] Creating layer res4c_branch2a
I0529 22:03:46.723954 24924 net.cpp:100] Creating Layer res4c_branch2a
I0529 22:03:46.723960 24924 net.cpp:444] res4c_branch2a <- res4b_res4b_relu_0_split_0
I0529 22:03:46.723976 24924 net.cpp:418] res4c_branch2a -> res4c_branch2a
I0529 22:03:46.725131 24924 cudnn_conv_layer.cpp:194] Reallocating workspace storage: 64152
I0529 22:03:46.725145 24924 net.cpp:150] Setting up res4c_branch2a
I0529 22:03:46.725153 24924 net.cpp:157] Top shape: 1 256 40 80 (819200)
I0529 22:03:46.725157 24924 net.cpp:165] Memory required for data: 3152281684
I0529 22:03:46.725168 24924 layer_factory.hpp:77] Creating layer bn4c_branch2a
I0529 22:03:46.725183 24924 net.cpp:100] Creating Layer bn4c_branch2a
I0529 22:03:46.725188 24924 net.cpp:444] bn4c_branch2a <- res4c_branch2a
I0529 22:03:46.725203 24924 net.cpp:405] bn4c_branch2a -> res4c_branch2a (in-place)
I0529 22:03:46.725371 24924 net.cpp:150] Setting up bn4c_branch2a
I0529 22:03:46.725378 24924 net.cpp:157] Top shape: 1 256 40 80 (819200)
I0529 22:03:46.725380 24924 net.cpp:165] Memory required for data: 3155558484
I0529 22:03:46.725396 24924 layer_factory.hpp:77] Creating layer scale4c_branch2a
I0529 22:03:46.725410 24924 net.cpp:100] Creating Layer scale4c_branch2a
I0529 22:03:46.725415 24924 net.cpp:444] scale4c_branch2a <- res4c_branch2a
I0529 22:03:46.725430 24924 net.cpp:405] scale4c_branch2a -> res4c_branch2a (in-place)
I0529 22:03:46.725478 24924 layer_factory.hpp:77] Creating layer scale4c_branch2a
I0529 22:03:46.725597 24924 net.cpp:150] Setting up scale4c_branch2a
I0529 22:03:46.725605 24924 net.cpp:157] Top shape: 1 256 40 80 (819200)
I0529 22:03:46.725608 24924 net.cpp:165] Memory required for data: 3158835284
I0529 22:03:46.725620 24924 layer_factory.hpp:77] Creating layer res4c_branch2a_relu
I0529 22:03:46.725630 24924 net.cpp:100] Creating Layer res4c_branch2a_relu
I0529 22:03:46.725636 24924 net.cpp:444] res4c_branch2a_relu <- res4c_branch2a
I0529 22:03:46.725648 24924 net.cpp:405] res4c_branch2a_relu -> res4c_branch2a (in-place)
I0529 22:03:46.725790 24924 net.cpp:150] Setting up res4c_branch2a_relu
I0529 22:03:46.725796 24924 net.cpp:157] Top shape: 1 256 40 80 (819200)
I0529 22:03:46.725800 24924 net.cpp:165] Memory required for data: 3162112084
I0529 22:03:46.725805 24924 layer_factory.hpp:77] Creating layer res4c_branch2b
I0529 22:03:46.725819 24924 net.cpp:100] Creating Layer res4c_branch2b
I0529 22:03:46.725826 24924 net.cpp:444] res4c_branch2b <- res4c_branch2a
I0529 22:03:46.725842 24924 net.cpp:418] res4c_branch2b -> res4c_branch2b
I0529 22:03:46.727936 24924 cudnn_conv_layer.cpp:194] Reallocating workspace storage: 12582912
I0529 22:03:46.728152 24924 net.cpp:150] Setting up res4c_branch2b
I0529 22:03:46.728163 24924 net.cpp:157] Top shape: 1 256 40 80 (819200)
I0529 22:03:46.728166 24924 net.cpp:165] Memory required for data: 3165388884
I0529 22:03:46.728178 24924 layer_factory.hpp:77] Creating layer bn4c_branch2b
I0529 22:03:46.728193 24924 net.cpp:100] Creating Layer bn4c_branch2b
I0529 22:03:46.728201 24924 net.cpp:444] bn4c_branch2b <- res4c_branch2b
I0529 22:03:46.728217 24924 net.cpp:405] bn4c_branch2b -> res4c_branch2b (in-place)
I0529 22:03:46.728394 24924 net.cpp:150] Setting up bn4c_branch2b
I0529 22:03:46.728399 24924 net.cpp:157] Top shape: 1 256 40 80 (819200)
I0529 22:03:46.728402 24924 net.cpp:165] Memory required for data: 3168665684
I0529 22:03:46.728420 24924 layer_factory.hpp:77] Creating layer scale4c_branch2b
I0529 22:03:46.728433 24924 net.cpp:100] Creating Layer scale4c_branch2b
I0529 22:03:46.728440 24924 net.cpp:444] scale4c_branch2b <- res4c_branch2b
I0529 22:03:46.728453 24924 net.cpp:405] scale4c_branch2b -> res4c_branch2b (in-place)
I0529 22:03:46.728504 24924 layer_factory.hpp:77] Creating layer scale4c_branch2b
I0529 22:03:46.728626 24924 net.cpp:150] Setting up scale4c_branch2b
I0529 22:03:46.728632 24924 net.cpp:157] Top shape: 1 256 40 80 (819200)
I0529 22:03:46.728636 24924 net.cpp:165] Memory required for data: 3171942484
I0529 22:03:46.728647 24924 layer_factory.hpp:77] Creating layer res4c_branch2b_relu
I0529 22:03:46.728658 24924 net.cpp:100] Creating Layer res4c_branch2b_relu
I0529 22:03:46.728664 24924 net.cpp:444] res4c_branch2b_relu <- res4c_branch2b
I0529 22:03:46.728678 24924 net.cpp:405] res4c_branch2b_relu -> res4c_branch2b (in-place)
I0529 22:03:46.729024 24924 net.cpp:150] Setting up res4c_branch2b_relu
I0529 22:03:46.729033 24924 net.cpp:157] Top shape: 1 256 40 80 (819200)
I0529 22:03:46.729037 24924 net.cpp:165] Memory required for data: 3175219284
I0529 22:03:46.729043 24924 layer_factory.hpp:77] Creating layer res4c_branch2c
I0529 22:03:46.729058 24924 net.cpp:100] Creating Layer res4c_branch2c
I0529 22:03:46.729064 24924 net.cpp:444] res4c_branch2c <- res4c_branch2b
I0529 22:03:46.729080 24924 net.cpp:418] res4c_branch2c -> res4c_branch2c
I0529 22:03:46.730733 24924 cudnn_conv_layer.cpp:194] Reallocating workspace storage: 64152
I0529 22:03:46.730751 24924 net.cpp:150] Setting up res4c_branch2c
I0529 22:03:46.730759 24924 net.cpp:157] Top shape: 1 1024 40 80 (3276800)
I0529 22:03:46.730762 24924 net.cpp:165] Memory required for data: 3188326484
I0529 22:03:46.730775 24924 layer_factory.hpp:77] Creating layer bn4c_branch2c
I0529 22:03:46.730792 24924 net.cpp:100] Creating Layer bn4c_branch2c
I0529 22:03:46.730799 24924 net.cpp:444] bn4c_branch2c <- res4c_branch2c
I0529 22:03:46.730814 24924 net.cpp:405] bn4c_branch2c -> res4c_branch2c (in-place)
I0529 22:03:46.730991 24924 net.cpp:150] Setting up bn4c_branch2c
I0529 22:03:46.730998 24924 net.cpp:157] Top shape: 1 1024 40 80 (3276800)
I0529 22:03:46.731000 24924 net.cpp:165] Memory required for data: 3201433684
I0529 22:03:46.731016 24924 layer_factory.hpp:77] Creating layer scale4c_branch2c
I0529 22:03:46.731030 24924 net.cpp:100] Creating Layer scale4c_branch2c
I0529 22:03:46.731036 24924 net.cpp:444] scale4c_branch2c <- res4c_branch2c
I0529 22:03:46.731051 24924 net.cpp:405] scale4c_branch2c -> res4c_branch2c (in-place)
I0529 22:03:46.731097 24924 layer_factory.hpp:77] Creating layer scale4c_branch2c
I0529 22:03:46.731220 24924 net.cpp:150] Setting up scale4c_branch2c
I0529 22:03:46.731227 24924 net.cpp:157] Top shape: 1 1024 40 80 (3276800)
I0529 22:03:46.731230 24924 net.cpp:165] Memory required for data: 3214540884
I0529 22:03:46.731242 24924 layer_factory.hpp:77] Creating layer res4c
I0529 22:03:46.731254 24924 net.cpp:100] Creating Layer res4c
I0529 22:03:46.731261 24924 net.cpp:444] res4c <- res4b_res4b_relu_0_split_1
I0529 22:03:46.731272 24924 net.cpp:444] res4c <- res4c_branch2c
I0529 22:03:46.731282 24924 net.cpp:418] res4c -> res4c
I0529 22:03:46.731318 24924 net.cpp:150] Setting up res4c
I0529 22:03:46.731326 24924 net.cpp:157] Top shape: 1 1024 40 80 (3276800)
I0529 22:03:46.731329 24924 net.cpp:165] Memory required for data: 3227648084
I0529 22:03:46.731334 24924 layer_factory.hpp:77] Creating layer res4c_relu
I0529 22:03:46.731344 24924 net.cpp:100] Creating Layer res4c_relu
I0529 22:03:46.731350 24924 net.cpp:444] res4c_relu <- res4c
I0529 22:03:46.731364 24924 net.cpp:405] res4c_relu -> res4c (in-place)
I0529 22:03:46.731508 24924 net.cpp:150] Setting up res4c_relu
I0529 22:03:46.731515 24924 net.cpp:157] Top shape: 1 1024 40 80 (3276800)
I0529 22:03:46.731518 24924 net.cpp:165] Memory required for data: 3240755284
I0529 22:03:46.731523 24924 layer_factory.hpp:77] Creating layer res4c_res4c_relu_0_split
I0529 22:03:46.731535 24924 net.cpp:100] Creating Layer res4c_res4c_relu_0_split
I0529 22:03:46.731541 24924 net.cpp:444] res4c_res4c_relu_0_split <- res4c
I0529 22:03:46.731554 24924 net.cpp:418] res4c_res4c_relu_0_split -> res4c_res4c_relu_0_split_0
I0529 22:03:46.731572 24924 net.cpp:418] res4c_res4c_relu_0_split -> res4c_res4c_relu_0_split_1
I0529 22:03:46.731616 24924 net.cpp:150] Setting up res4c_res4c_relu_0_split
I0529 22:03:46.731624 24924 net.cpp:157] Top shape: 1 1024 40 80 (3276800)
I0529 22:03:46.731631 24924 net.cpp:157] Top shape: 1 1024 40 80 (3276800)
I0529 22:03:46.731633 24924 net.cpp:165] Memory required for data: 3266969684
I0529 22:03:46.731638 24924 layer_factory.hpp:77] Creating layer res4d_branch2a
I0529 22:03:46.731653 24924 net.cpp:100] Creating Layer res4d_branch2a
I0529 22:03:46.731659 24924 net.cpp:444] res4d_branch2a <- res4c_res4c_relu_0_split_0
I0529 22:03:46.731675 24924 net.cpp:418] res4d_branch2a -> res4d_branch2a
I0529 22:03:46.732792 24924 cudnn_conv_layer.cpp:194] Reallocating workspace storage: 64152
I0529 22:03:46.732807 24924 net.cpp:150] Setting up res4d_branch2a
I0529 22:03:46.732815 24924 net.cpp:157] Top shape: 1 256 40 80 (819200)
I0529 22:03:46.732818 24924 net.cpp:165] Memory required for data: 3270246484
I0529 22:03:46.732831 24924 layer_factory.hpp:77] Creating layer bn4d_branch2a
I0529 22:03:46.732844 24924 net.cpp:100] Creating Layer bn4d_branch2a
I0529 22:03:46.732851 24924 net.cpp:444] bn4d_branch2a <- res4d_branch2a
I0529 22:03:46.732864 24924 net.cpp:405] bn4d_branch2a -> res4d_branch2a (in-place)
I0529 22:03:46.733044 24924 net.cpp:150] Setting up bn4d_branch2a
I0529 22:03:46.733052 24924 net.cpp:157] Top shape: 1 256 40 80 (819200)
I0529 22:03:46.733055 24924 net.cpp:165] Memory required for data: 3273523284
I0529 22:03:46.733072 24924 layer_factory.hpp:77] Creating layer scale4d_branch2a
I0529 22:03:46.733085 24924 net.cpp:100] Creating Layer scale4d_branch2a
I0529 22:03:46.733091 24924 net.cpp:444] scale4d_branch2a <- res4d_branch2a
I0529 22:03:46.733104 24924 net.cpp:405] scale4d_branch2a -> res4d_branch2a (in-place)
I0529 22:03:46.733155 24924 layer_factory.hpp:77] Creating layer scale4d_branch2a
I0529 22:03:46.733275 24924 net.cpp:150] Setting up scale4d_branch2a
I0529 22:03:46.733283 24924 net.cpp:157] Top shape: 1 256 40 80 (819200)
I0529 22:03:46.733285 24924 net.cpp:165] Memory required for data: 3276800084
I0529 22:03:46.733297 24924 layer_factory.hpp:77] Creating layer res4d_branch2a_relu
I0529 22:03:46.733309 24924 net.cpp:100] Creating Layer res4d_branch2a_relu
I0529 22:03:46.733314 24924 net.cpp:444] res4d_branch2a_relu <- res4d_branch2a
I0529 22:03:46.733327 24924 net.cpp:405] res4d_branch2a_relu -> res4d_branch2a (in-place)
I0529 22:03:46.733467 24924 net.cpp:150] Setting up res4d_branch2a_relu
I0529 22:03:46.733474 24924 net.cpp:157] Top shape: 1 256 40 80 (819200)
I0529 22:03:46.733476 24924 net.cpp:165] Memory required for data: 3280076884
I0529 22:03:46.733481 24924 layer_factory.hpp:77] Creating layer res4d_branch2b
I0529 22:03:46.733496 24924 net.cpp:100] Creating Layer res4d_branch2b
I0529 22:03:46.733502 24924 net.cpp:444] res4d_branch2b <- res4d_branch2a
I0529 22:03:46.733518 24924 net.cpp:418] res4d_branch2b -> res4d_branch2b
I0529 22:03:46.735608 24924 cudnn_conv_layer.cpp:194] Reallocating workspace storage: 12582912
I0529 22:03:46.735827 24924 net.cpp:150] Setting up res4d_branch2b
I0529 22:03:46.735838 24924 net.cpp:157] Top shape: 1 256 40 80 (819200)
I0529 22:03:46.735843 24924 net.cpp:165] Memory required for data: 3283353684
I0529 22:03:46.735857 24924 layer_factory.hpp:77] Creating layer bn4d_branch2b
I0529 22:03:46.735872 24924 net.cpp:100] Creating Layer bn4d_branch2b
I0529 22:03:46.735878 24924 net.cpp:444] bn4d_branch2b <- res4d_branch2b
I0529 22:03:46.735894 24924 net.cpp:405] bn4d_branch2b -> res4d_branch2b (in-place)
I0529 22:03:46.736073 24924 net.cpp:150] Setting up bn4d_branch2b
I0529 22:03:46.736078 24924 net.cpp:157] Top shape: 1 256 40 80 (819200)
I0529 22:03:46.736081 24924 net.cpp:165] Memory required for data: 3286630484
I0529 22:03:46.736099 24924 layer_factory.hpp:77] Creating layer scale4d_branch2b
I0529 22:03:46.736112 24924 net.cpp:100] Creating Layer scale4d_branch2b
I0529 22:03:46.736119 24924 net.cpp:444] scale4d_branch2b <- res4d_branch2b
I0529 22:03:46.736133 24924 net.cpp:405] scale4d_branch2b -> res4d_branch2b (in-place)
I0529 22:03:46.736186 24924 layer_factory.hpp:77] Creating layer scale4d_branch2b
I0529 22:03:46.736308 24924 net.cpp:150] Setting up scale4d_branch2b
I0529 22:03:46.736315 24924 net.cpp:157] Top shape: 1 256 40 80 (819200)
I0529 22:03:46.736318 24924 net.cpp:165] Memory required for data: 3289907284
I0529 22:03:46.736330 24924 layer_factory.hpp:77] Creating layer res4d_branch2b_relu
I0529 22:03:46.736341 24924 net.cpp:100] Creating Layer res4d_branch2b_relu
I0529 22:03:46.736347 24924 net.cpp:444] res4d_branch2b_relu <- res4d_branch2b
I0529 22:03:46.736359 24924 net.cpp:405] res4d_branch2b_relu -> res4d_branch2b (in-place)
I0529 22:03:46.736713 24924 net.cpp:150] Setting up res4d_branch2b_relu
I0529 22:03:46.736721 24924 net.cpp:157] Top shape: 1 256 40 80 (819200)
I0529 22:03:46.736724 24924 net.cpp:165] Memory required for data: 3293184084
I0529 22:03:46.736729 24924 layer_factory.hpp:77] Creating layer res4d_branch2c
I0529 22:03:46.736747 24924 net.cpp:100] Creating Layer res4d_branch2c
I0529 22:03:46.736754 24924 net.cpp:444] res4d_branch2c <- res4d_branch2b
I0529 22:03:46.736770 24924 net.cpp:418] res4d_branch2c -> res4d_branch2c
I0529 22:03:46.738471 24924 cudnn_conv_layer.cpp:194] Reallocating workspace storage: 64152
I0529 22:03:46.738489 24924 net.cpp:150] Setting up res4d_branch2c
I0529 22:03:46.738499 24924 net.cpp:157] Top shape: 1 1024 40 80 (3276800)
I0529 22:03:46.738502 24924 net.cpp:165] Memory required for data: 3306291284
I0529 22:03:46.738514 24924 layer_factory.hpp:77] Creating layer bn4d_branch2c
I0529 22:03:46.738533 24924 net.cpp:100] Creating Layer bn4d_branch2c
I0529 22:03:46.738539 24924 net.cpp:444] bn4d_branch2c <- res4d_branch2c
I0529 22:03:46.738554 24924 net.cpp:405] bn4d_branch2c -> res4d_branch2c (in-place)
I0529 22:03:46.738735 24924 net.cpp:150] Setting up bn4d_branch2c
I0529 22:03:46.738742 24924 net.cpp:157] Top shape: 1 1024 40 80 (3276800)
I0529 22:03:46.738745 24924 net.cpp:165] Memory required for data: 3319398484
I0529 22:03:46.738762 24924 layer_factory.hpp:77] Creating layer scale4d_branch2c
I0529 22:03:46.738777 24924 net.cpp:100] Creating Layer scale4d_branch2c
I0529 22:03:46.738783 24924 net.cpp:444] scale4d_branch2c <- res4d_branch2c
I0529 22:03:46.738797 24924 net.cpp:405] scale4d_branch2c -> res4d_branch2c (in-place)
I0529 22:03:46.738848 24924 layer_factory.hpp:77] Creating layer scale4d_branch2c
I0529 22:03:46.738976 24924 net.cpp:150] Setting up scale4d_branch2c
I0529 22:03:46.738983 24924 net.cpp:157] Top shape: 1 1024 40 80 (3276800)
I0529 22:03:46.738986 24924 net.cpp:165] Memory required for data: 3332505684
I0529 22:03:46.738998 24924 layer_factory.hpp:77] Creating layer res4d
I0529 22:03:46.739009 24924 net.cpp:100] Creating Layer res4d
I0529 22:03:46.739017 24924 net.cpp:444] res4d <- res4c_res4c_relu_0_split_1
I0529 22:03:46.739028 24924 net.cpp:444] res4d <- res4d_branch2c
I0529 22:03:46.739040 24924 net.cpp:418] res4d -> res4d
I0529 22:03:46.739076 24924 net.cpp:150] Setting up res4d
I0529 22:03:46.739085 24924 net.cpp:157] Top shape: 1 1024 40 80 (3276800)
I0529 22:03:46.739089 24924 net.cpp:165] Memory required for data: 3345612884
I0529 22:03:46.739094 24924 layer_factory.hpp:77] Creating layer res4d_relu
I0529 22:03:46.739104 24924 net.cpp:100] Creating Layer res4d_relu
I0529 22:03:46.739109 24924 net.cpp:444] res4d_relu <- res4d
I0529 22:03:46.739123 24924 net.cpp:405] res4d_relu -> res4d (in-place)
I0529 22:03:46.739271 24924 net.cpp:150] Setting up res4d_relu
I0529 22:03:46.739279 24924 net.cpp:157] Top shape: 1 1024 40 80 (3276800)
I0529 22:03:46.739281 24924 net.cpp:165] Memory required for data: 3358720084
I0529 22:03:46.739286 24924 layer_factory.hpp:77] Creating layer res4d_res4d_relu_0_split
I0529 22:03:46.739298 24924 net.cpp:100] Creating Layer res4d_res4d_relu_0_split
I0529 22:03:46.739303 24924 net.cpp:444] res4d_res4d_relu_0_split <- res4d
I0529 22:03:46.739317 24924 net.cpp:418] res4d_res4d_relu_0_split -> res4d_res4d_relu_0_split_0
I0529 22:03:46.739336 24924 net.cpp:418] res4d_res4d_relu_0_split -> res4d_res4d_relu_0_split_1
I0529 22:03:46.739380 24924 net.cpp:150] Setting up res4d_res4d_relu_0_split
I0529 22:03:46.739388 24924 net.cpp:157] Top shape: 1 1024 40 80 (3276800)
I0529 22:03:46.739394 24924 net.cpp:157] Top shape: 1 1024 40 80 (3276800)
I0529 22:03:46.739398 24924 net.cpp:165] Memory required for data: 3384934484
I0529 22:03:46.739403 24924 layer_factory.hpp:77] Creating layer res4e_branch2a
I0529 22:03:46.739419 24924 net.cpp:100] Creating Layer res4e_branch2a
I0529 22:03:46.739425 24924 net.cpp:444] res4e_branch2a <- res4d_res4d_relu_0_split_0
I0529 22:03:46.739442 24924 net.cpp:418] res4e_branch2a -> res4e_branch2a
I0529 22:03:46.740653 24924 cudnn_conv_layer.cpp:194] Reallocating workspace storage: 64152
I0529 22:03:46.740671 24924 net.cpp:150] Setting up res4e_branch2a
I0529 22:03:46.740681 24924 net.cpp:157] Top shape: 1 256 40 80 (819200)
I0529 22:03:46.740684 24924 net.cpp:165] Memory required for data: 3388211284
I0529 22:03:46.740697 24924 layer_factory.hpp:77] Creating layer bn4e_branch2a
I0529 22:03:46.740713 24924 net.cpp:100] Creating Layer bn4e_branch2a
I0529 22:03:46.740721 24924 net.cpp:444] bn4e_branch2a <- res4e_branch2a
I0529 22:03:46.740736 24924 net.cpp:405] bn4e_branch2a -> res4e_branch2a (in-place)
I0529 22:03:46.740921 24924 net.cpp:150] Setting up bn4e_branch2a
I0529 22:03:46.740928 24924 net.cpp:157] Top shape: 1 256 40 80 (819200)
I0529 22:03:46.740931 24924 net.cpp:165] Memory required for data: 3391488084
I0529 22:03:46.740949 24924 layer_factory.hpp:77] Creating layer scale4e_branch2a
I0529 22:03:46.740964 24924 net.cpp:100] Creating Layer scale4e_branch2a
I0529 22:03:46.740970 24924 net.cpp:444] scale4e_branch2a <- res4e_branch2a
I0529 22:03:46.740984 24924 net.cpp:405] scale4e_branch2a -> res4e_branch2a (in-place)
I0529 22:03:46.741034 24924 layer_factory.hpp:77] Creating layer scale4e_branch2a
I0529 22:03:46.741156 24924 net.cpp:150] Setting up scale4e_branch2a
I0529 22:03:46.741163 24924 net.cpp:157] Top shape: 1 256 40 80 (819200)
I0529 22:03:46.741166 24924 net.cpp:165] Memory required for data: 3394764884
I0529 22:03:46.741178 24924 layer_factory.hpp:77] Creating layer res4e_branch2a_relu
I0529 22:03:46.741190 24924 net.cpp:100] Creating Layer res4e_branch2a_relu
I0529 22:03:46.741196 24924 net.cpp:444] res4e_branch2a_relu <- res4e_branch2a
I0529 22:03:46.741209 24924 net.cpp:405] res4e_branch2a_relu -> res4e_branch2a (in-place)
I0529 22:03:46.741358 24924 net.cpp:150] Setting up res4e_branch2a_relu
I0529 22:03:46.741365 24924 net.cpp:157] Top shape: 1 256 40 80 (819200)
I0529 22:03:46.741369 24924 net.cpp:165] Memory required for data: 3398041684
I0529 22:03:46.741374 24924 layer_factory.hpp:77] Creating layer res4e_branch2b
I0529 22:03:46.741389 24924 net.cpp:100] Creating Layer res4e_branch2b
I0529 22:03:46.741395 24924 net.cpp:444] res4e_branch2b <- res4e_branch2a
I0529 22:03:46.741410 24924 net.cpp:418] res4e_branch2b -> res4e_branch2b
I0529 22:03:46.743541 24924 cudnn_conv_layer.cpp:194] Reallocating workspace storage: 12582912
I0529 22:03:46.743758 24924 net.cpp:150] Setting up res4e_branch2b
I0529 22:03:46.743769 24924 net.cpp:157] Top shape: 1 256 40 80 (819200)
I0529 22:03:46.743772 24924 net.cpp:165] Memory required for data: 3401318484
I0529 22:03:46.743784 24924 layer_factory.hpp:77] Creating layer bn4e_branch2b
I0529 22:03:46.743800 24924 net.cpp:100] Creating Layer bn4e_branch2b
I0529 22:03:46.743808 24924 net.cpp:444] bn4e_branch2b <- res4e_branch2b
I0529 22:03:46.743824 24924 net.cpp:405] bn4e_branch2b -> res4e_branch2b (in-place)
I0529 22:03:46.744002 24924 net.cpp:150] Setting up bn4e_branch2b
I0529 22:03:46.744009 24924 net.cpp:157] Top shape: 1 256 40 80 (819200)
I0529 22:03:46.744012 24924 net.cpp:165] Memory required for data: 3404595284
I0529 22:03:46.744029 24924 layer_factory.hpp:77] Creating layer scale4e_branch2b
I0529 22:03:46.744045 24924 net.cpp:100] Creating Layer scale4e_branch2b
I0529 22:03:46.744050 24924 net.cpp:444] scale4e_branch2b <- res4e_branch2b
I0529 22:03:46.744063 24924 net.cpp:405] scale4e_branch2b -> res4e_branch2b (in-place)
I0529 22:03:46.744117 24924 layer_factory.hpp:77] Creating layer scale4e_branch2b
I0529 22:03:46.744240 24924 net.cpp:150] Setting up scale4e_branch2b
I0529 22:03:46.744248 24924 net.cpp:157] Top shape: 1 256 40 80 (819200)
I0529 22:03:46.744251 24924 net.cpp:165] Memory required for data: 3407872084
I0529 22:03:46.744262 24924 layer_factory.hpp:77] Creating layer res4e_branch2b_relu
I0529 22:03:46.744274 24924 net.cpp:100] Creating Layer res4e_branch2b_relu
I0529 22:03:46.744280 24924 net.cpp:444] res4e_branch2b_relu <- res4e_branch2b
I0529 22:03:46.744293 24924 net.cpp:405] res4e_branch2b_relu -> res4e_branch2b (in-place)
I0529 22:03:46.744640 24924 net.cpp:150] Setting up res4e_branch2b_relu
I0529 22:03:46.744648 24924 net.cpp:157] Top shape: 1 256 40 80 (819200)
I0529 22:03:46.744652 24924 net.cpp:165] Memory required for data: 3411148884
I0529 22:03:46.744657 24924 layer_factory.hpp:77] Creating layer res4e_branch2c
I0529 22:03:46.744674 24924 net.cpp:100] Creating Layer res4e_branch2c
I0529 22:03:46.744681 24924 net.cpp:444] res4e_branch2c <- res4e_branch2b
I0529 22:03:46.744699 24924 net.cpp:418] res4e_branch2c -> res4e_branch2c
I0529 22:03:46.746356 24924 cudnn_conv_layer.cpp:194] Reallocating workspace storage: 64152
I0529 22:03:46.746371 24924 net.cpp:150] Setting up res4e_branch2c
I0529 22:03:46.746382 24924 net.cpp:157] Top shape: 1 1024 40 80 (3276800)
I0529 22:03:46.746387 24924 net.cpp:165] Memory required for data: 3424256084
I0529 22:03:46.746398 24924 layer_factory.hpp:77] Creating layer bn4e_branch2c
I0529 22:03:46.746412 24924 net.cpp:100] Creating Layer bn4e_branch2c
I0529 22:03:46.746419 24924 net.cpp:444] bn4e_branch2c <- res4e_branch2c
I0529 22:03:46.746434 24924 net.cpp:405] bn4e_branch2c -> res4e_branch2c (in-place)
I0529 22:03:46.746616 24924 net.cpp:150] Setting up bn4e_branch2c
I0529 22:03:46.746623 24924 net.cpp:157] Top shape: 1 1024 40 80 (3276800)
I0529 22:03:46.746626 24924 net.cpp:165] Memory required for data: 3437363284
I0529 22:03:46.746644 24924 layer_factory.hpp:77] Creating layer scale4e_branch2c
I0529 22:03:46.746656 24924 net.cpp:100] Creating Layer scale4e_branch2c
I0529 22:03:46.746662 24924 net.cpp:444] scale4e_branch2c <- res4e_branch2c
I0529 22:03:46.746676 24924 net.cpp:405] scale4e_branch2c -> res4e_branch2c (in-place)
I0529 22:03:46.746726 24924 layer_factory.hpp:77] Creating layer scale4e_branch2c
I0529 22:03:46.746852 24924 net.cpp:150] Setting up scale4e_branch2c
I0529 22:03:46.746860 24924 net.cpp:157] Top shape: 1 1024 40 80 (3276800)
I0529 22:03:46.746862 24924 net.cpp:165] Memory required for data: 3450470484
I0529 22:03:46.746875 24924 layer_factory.hpp:77] Creating layer res4e
I0529 22:03:46.746886 24924 net.cpp:100] Creating Layer res4e
I0529 22:03:46.746891 24924 net.cpp:444] res4e <- res4d_res4d_relu_0_split_1
I0529 22:03:46.746902 24924 net.cpp:444] res4e <- res4e_branch2c
I0529 22:03:46.746915 24924 net.cpp:418] res4e -> res4e
I0529 22:03:46.746949 24924 net.cpp:150] Setting up res4e
I0529 22:03:46.746958 24924 net.cpp:157] Top shape: 1 1024 40 80 (3276800)
I0529 22:03:46.746961 24924 net.cpp:165] Memory required for data: 3463577684
I0529 22:03:46.746966 24924 layer_factory.hpp:77] Creating layer res4e_relu
I0529 22:03:46.746978 24924 net.cpp:100] Creating Layer res4e_relu
I0529 22:03:46.746982 24924 net.cpp:444] res4e_relu <- res4e
I0529 22:03:46.746995 24924 net.cpp:405] res4e_relu -> res4e (in-place)
I0529 22:03:46.747139 24924 net.cpp:150] Setting up res4e_relu
I0529 22:03:46.747146 24924 net.cpp:157] Top shape: 1 1024 40 80 (3276800)
I0529 22:03:46.747149 24924 net.cpp:165] Memory required for data: 3476684884
I0529 22:03:46.747154 24924 layer_factory.hpp:77] Creating layer res4e_res4e_relu_0_split
I0529 22:03:46.747166 24924 net.cpp:100] Creating Layer res4e_res4e_relu_0_split
I0529 22:03:46.747171 24924 net.cpp:444] res4e_res4e_relu_0_split <- res4e
I0529 22:03:46.747185 24924 net.cpp:418] res4e_res4e_relu_0_split -> res4e_res4e_relu_0_split_0
I0529 22:03:46.747200 24924 net.cpp:418] res4e_res4e_relu_0_split -> res4e_res4e_relu_0_split_1
I0529 22:03:46.747246 24924 net.cpp:150] Setting up res4e_res4e_relu_0_split
I0529 22:03:46.747254 24924 net.cpp:157] Top shape: 1 1024 40 80 (3276800)
I0529 22:03:46.747259 24924 net.cpp:157] Top shape: 1 1024 40 80 (3276800)
I0529 22:03:46.747262 24924 net.cpp:165] Memory required for data: 3502899284
I0529 22:03:46.747267 24924 layer_factory.hpp:77] Creating layer res4f_branch2a
I0529 22:03:46.747283 24924 net.cpp:100] Creating Layer res4f_branch2a
I0529 22:03:46.747289 24924 net.cpp:444] res4f_branch2a <- res4e_res4e_relu_0_split_0
I0529 22:03:46.747305 24924 net.cpp:418] res4f_branch2a -> res4f_branch2a
I0529 22:03:46.748419 24924 cudnn_conv_layer.cpp:194] Reallocating workspace storage: 64152
I0529 22:03:46.748433 24924 net.cpp:150] Setting up res4f_branch2a
I0529 22:03:46.748441 24924 net.cpp:157] Top shape: 1 256 40 80 (819200)
I0529 22:03:46.748445 24924 net.cpp:165] Memory required for data: 3506176084
I0529 22:03:46.748456 24924 layer_factory.hpp:77] Creating layer bn4f_branch2a
I0529 22:03:46.748471 24924 net.cpp:100] Creating Layer bn4f_branch2a
I0529 22:03:46.748476 24924 net.cpp:444] bn4f_branch2a <- res4f_branch2a
I0529 22:03:46.748491 24924 net.cpp:405] bn4f_branch2a -> res4f_branch2a (in-place)
I0529 22:03:46.748668 24924 net.cpp:150] Setting up bn4f_branch2a
I0529 22:03:46.748674 24924 net.cpp:157] Top shape: 1 256 40 80 (819200)
I0529 22:03:46.748677 24924 net.cpp:165] Memory required for data: 3509452884
I0529 22:03:46.748694 24924 layer_factory.hpp:77] Creating layer scale4f_branch2a
I0529 22:03:46.748708 24924 net.cpp:100] Creating Layer scale4f_branch2a
I0529 22:03:46.748714 24924 net.cpp:444] scale4f_branch2a <- res4f_branch2a
I0529 22:03:46.748728 24924 net.cpp:405] scale4f_branch2a -> res4f_branch2a (in-place)
I0529 22:03:46.748777 24924 layer_factory.hpp:77] Creating layer scale4f_branch2a
I0529 22:03:46.748903 24924 net.cpp:150] Setting up scale4f_branch2a
I0529 22:03:46.748914 24924 net.cpp:157] Top shape: 1 256 40 80 (819200)
I0529 22:03:46.748917 24924 net.cpp:165] Memory required for data: 3512729684
I0529 22:03:46.748929 24924 layer_factory.hpp:77] Creating layer res4f_branch2a_relu
I0529 22:03:46.748939 24924 net.cpp:100] Creating Layer res4f_branch2a_relu
I0529 22:03:46.748945 24924 net.cpp:444] res4f_branch2a_relu <- res4f_branch2a
I0529 22:03:46.748956 24924 net.cpp:405] res4f_branch2a_relu -> res4f_branch2a (in-place)
I0529 22:03:46.749100 24924 net.cpp:150] Setting up res4f_branch2a_relu
I0529 22:03:46.749107 24924 net.cpp:157] Top shape: 1 256 40 80 (819200)
I0529 22:03:46.749110 24924 net.cpp:165] Memory required for data: 3516006484
I0529 22:03:46.749115 24924 layer_factory.hpp:77] Creating layer res4f_branch2b
I0529 22:03:46.749131 24924 net.cpp:100] Creating Layer res4f_branch2b
I0529 22:03:46.749137 24924 net.cpp:444] res4f_branch2b <- res4f_branch2a
I0529 22:03:46.749152 24924 net.cpp:418] res4f_branch2b -> res4f_branch2b
I0529 22:03:46.751281 24924 cudnn_conv_layer.cpp:194] Reallocating workspace storage: 12582912
I0529 22:03:46.751503 24924 net.cpp:150] Setting up res4f_branch2b
I0529 22:03:46.751515 24924 net.cpp:157] Top shape: 1 256 40 80 (819200)
I0529 22:03:46.751519 24924 net.cpp:165] Memory required for data: 3519283284
I0529 22:03:46.751533 24924 layer_factory.hpp:77] Creating layer bn4f_branch2b
I0529 22:03:46.751552 24924 net.cpp:100] Creating Layer bn4f_branch2b
I0529 22:03:46.751560 24924 net.cpp:444] bn4f_branch2b <- res4f_branch2b
I0529 22:03:46.751576 24924 net.cpp:405] bn4f_branch2b -> res4f_branch2b (in-place)
I0529 22:03:46.751765 24924 net.cpp:150] Setting up bn4f_branch2b
I0529 22:03:46.751771 24924 net.cpp:157] Top shape: 1 256 40 80 (819200)
I0529 22:03:46.751775 24924 net.cpp:165] Memory required for data: 3522560084
I0529 22:03:46.751791 24924 layer_factory.hpp:77] Creating layer scale4f_branch2b
I0529 22:03:46.751806 24924 net.cpp:100] Creating Layer scale4f_branch2b
I0529 22:03:46.751811 24924 net.cpp:444] scale4f_branch2b <- res4f_branch2b
I0529 22:03:46.751827 24924 net.cpp:405] scale4f_branch2b -> res4f_branch2b (in-place)
I0529 22:03:46.751879 24924 layer_factory.hpp:77] Creating layer scale4f_branch2b
I0529 22:03:46.752005 24924 net.cpp:150] Setting up scale4f_branch2b
I0529 22:03:46.752012 24924 net.cpp:157] Top shape: 1 256 40 80 (819200)
I0529 22:03:46.752015 24924 net.cpp:165] Memory required for data: 3525836884
I0529 22:03:46.752027 24924 layer_factory.hpp:77] Creating layer res4f_branch2b_relu
I0529 22:03:46.752039 24924 net.cpp:100] Creating Layer res4f_branch2b_relu
I0529 22:03:46.752045 24924 net.cpp:444] res4f_branch2b_relu <- res4f_branch2b
I0529 22:03:46.752058 24924 net.cpp:405] res4f_branch2b_relu -> res4f_branch2b (in-place)
I0529 22:03:46.752204 24924 net.cpp:150] Setting up res4f_branch2b_relu
I0529 22:03:46.752213 24924 net.cpp:157] Top shape: 1 256 40 80 (819200)
I0529 22:03:46.752214 24924 net.cpp:165] Memory required for data: 3529113684
I0529 22:03:46.752221 24924 layer_factory.hpp:77] Creating layer res4f_branch2c
I0529 22:03:46.752238 24924 net.cpp:100] Creating Layer res4f_branch2c
I0529 22:03:46.752243 24924 net.cpp:444] res4f_branch2c <- res4f_branch2b
I0529 22:03:46.752259 24924 net.cpp:418] res4f_branch2c -> res4f_branch2c
I0529 22:03:46.754206 24924 cudnn_conv_layer.cpp:194] Reallocating workspace storage: 64152
I0529 22:03:46.754225 24924 net.cpp:150] Setting up res4f_branch2c
I0529 22:03:46.754235 24924 net.cpp:157] Top shape: 1 1024 40 80 (3276800)
I0529 22:03:46.754238 24924 net.cpp:165] Memory required for data: 3542220884
I0529 22:03:46.754253 24924 layer_factory.hpp:77] Creating layer bn4f_branch2c
I0529 22:03:46.754276 24924 net.cpp:100] Creating Layer bn4f_branch2c
I0529 22:03:46.754283 24924 net.cpp:444] bn4f_branch2c <- res4f_branch2c
I0529 22:03:46.754300 24924 net.cpp:405] bn4f_branch2c -> res4f_branch2c (in-place)
I0529 22:03:46.754492 24924 net.cpp:150] Setting up bn4f_branch2c
I0529 22:03:46.754498 24924 net.cpp:157] Top shape: 1 1024 40 80 (3276800)
I0529 22:03:46.754500 24924 net.cpp:165] Memory required for data: 3555328084
I0529 22:03:46.754549 24924 layer_factory.hpp:77] Creating layer scale4f_branch2c
I0529 22:03:46.754567 24924 net.cpp:100] Creating Layer scale4f_branch2c
I0529 22:03:46.754573 24924 net.cpp:444] scale4f_branch2c <- res4f_branch2c
I0529 22:03:46.754586 24924 net.cpp:405] scale4f_branch2c -> res4f_branch2c (in-place)
I0529 22:03:46.754637 24924 layer_factory.hpp:77] Creating layer scale4f_branch2c
I0529 22:03:46.754768 24924 net.cpp:150] Setting up scale4f_branch2c
I0529 22:03:46.754776 24924 net.cpp:157] Top shape: 1 1024 40 80 (3276800)
I0529 22:03:46.754778 24924 net.cpp:165] Memory required for data: 3568435284
I0529 22:03:46.754791 24924 layer_factory.hpp:77] Creating layer res4f
I0529 22:03:46.754802 24924 net.cpp:100] Creating Layer res4f
I0529 22:03:46.754808 24924 net.cpp:444] res4f <- res4e_res4e_relu_0_split_1
I0529 22:03:46.754819 24924 net.cpp:444] res4f <- res4f_branch2c
I0529 22:03:46.754832 24924 net.cpp:418] res4f -> res4f
I0529 22:03:46.754868 24924 net.cpp:150] Setting up res4f
I0529 22:03:46.754876 24924 net.cpp:157] Top shape: 1 1024 40 80 (3276800)
I0529 22:03:46.754879 24924 net.cpp:165] Memory required for data: 3581542484
I0529 22:03:46.754884 24924 layer_factory.hpp:77] Creating layer res4f_relu
I0529 22:03:46.754894 24924 net.cpp:100] Creating Layer res4f_relu
I0529 22:03:46.754899 24924 net.cpp:444] res4f_relu <- res4f
I0529 22:03:46.754914 24924 net.cpp:405] res4f_relu -> res4f (in-place)
I0529 22:03:46.755285 24924 net.cpp:150] Setting up res4f_relu
I0529 22:03:46.755293 24924 net.cpp:157] Top shape: 1 1024 40 80 (3276800)
I0529 22:03:46.755296 24924 net.cpp:165] Memory required for data: 3594649684
I0529 22:03:46.755301 24924 layer_factory.hpp:77] Creating layer res4f_res4f_relu_0_split
I0529 22:03:46.755316 24924 net.cpp:100] Creating Layer res4f_res4f_relu_0_split
I0529 22:03:46.755321 24924 net.cpp:444] res4f_res4f_relu_0_split <- res4f
I0529 22:03:46.755336 24924 net.cpp:418] res4f_res4f_relu_0_split -> res4f_res4f_relu_0_split_0
I0529 22:03:46.755352 24924 net.cpp:418] res4f_res4f_relu_0_split -> res4f_res4f_relu_0_split_1
I0529 22:03:46.755367 24924 net.cpp:418] res4f_res4f_relu_0_split -> res4f_res4f_relu_0_split_2
I0529 22:03:46.755425 24924 net.cpp:150] Setting up res4f_res4f_relu_0_split
I0529 22:03:46.755434 24924 net.cpp:157] Top shape: 1 1024 40 80 (3276800)
I0529 22:03:46.755439 24924 net.cpp:157] Top shape: 1 1024 40 80 (3276800)
I0529 22:03:46.755445 24924 net.cpp:157] Top shape: 1 1024 40 80 (3276800)
I0529 22:03:46.755448 24924 net.cpp:165] Memory required for data: 3633971284
I0529 22:03:46.755452 24924 layer_factory.hpp:77] Creating layer res5a_branch1
I0529 22:03:46.755470 24924 net.cpp:100] Creating Layer res5a_branch1
I0529 22:03:46.755476 24924 net.cpp:444] res5a_branch1 <- res4f_res4f_relu_0_split_0
I0529 22:03:46.755492 24924 net.cpp:418] res5a_branch1 -> res5a_branch1
I0529 22:03:46.760749 24924 cudnn_conv_layer.cpp:194] Reallocating workspace storage: 57624
I0529 22:03:46.760771 24924 net.cpp:150] Setting up res5a_branch1
I0529 22:03:46.760787 24924 net.cpp:157] Top shape: 1 2048 40 80 (6553600)
I0529 22:03:46.760790 24924 net.cpp:165] Memory required for data: 3660185684
I0529 22:03:46.760812 24924 layer_factory.hpp:77] Creating layer bn5a_branch1
I0529 22:03:46.760840 24924 net.cpp:100] Creating Layer bn5a_branch1
I0529 22:03:46.760851 24924 net.cpp:444] bn5a_branch1 <- res5a_branch1
I0529 22:03:46.760871 24924 net.cpp:405] bn5a_branch1 -> res5a_branch1 (in-place)
I0529 22:03:46.761075 24924 net.cpp:150] Setting up bn5a_branch1
I0529 22:03:46.761082 24924 net.cpp:157] Top shape: 1 2048 40 80 (6553600)
I0529 22:03:46.761085 24924 net.cpp:165] Memory required for data: 3686400084
I0529 22:03:46.761102 24924 layer_factory.hpp:77] Creating layer scale5a_branch1
I0529 22:03:46.761118 24924 net.cpp:100] Creating Layer scale5a_branch1
I0529 22:03:46.761124 24924 net.cpp:444] scale5a_branch1 <- res5a_branch1
I0529 22:03:46.761137 24924 net.cpp:405] scale5a_branch1 -> res5a_branch1 (in-place)
I0529 22:03:46.761190 24924 layer_factory.hpp:77] Creating layer scale5a_branch1
I0529 22:03:46.761323 24924 net.cpp:150] Setting up scale5a_branch1
I0529 22:03:46.761330 24924 net.cpp:157] Top shape: 1 2048 40 80 (6553600)
I0529 22:03:46.761333 24924 net.cpp:165] Memory required for data: 3712614484
I0529 22:03:46.761345 24924 layer_factory.hpp:77] Creating layer res5a_branch2a
I0529 22:03:46.761363 24924 net.cpp:100] Creating Layer res5a_branch2a
…
I0530 20:27:15.480478 26136 net.cpp:150] Setting up res4e_branch2c
I0530 20:27:15.480489 26136 net.cpp:157] Top shape: 1 1024 14 14 (200704)
I0530 20:27:15.480492 26136 net.cpp:165] Memory required for data: 208531468
I0530 20:27:15.480509 26136 layer_factory.hpp:77] Creating layer bn4e_branch2c
I0530 20:27:15.480528 26136 net.cpp:100] Creating Layer bn4e_branch2c
I0530 20:27:15.480537 26136 net.cpp:444] bn4e_branch2c <- res4e_branch2c
I0530 20:27:15.480554 26136 net.cpp:405] bn4e_branch2c -> res4e_branch2c (in-place)
I0530 20:27:15.480743 26136 net.cpp:150] Setting up bn4e_branch2c
I0530 20:27:15.480751 26136 net.cpp:157] Top shape: 1 1024 14 14 (200704)
I0530 20:27:15.480754 26136 net.cpp:165] Memory required for data: 209334284
I0530 20:27:15.480773 26136 layer_factory.hpp:77] Creating layer scale4e_branch2c
I0530 20:27:15.480790 26136 net.cpp:100] Creating Layer scale4e_branch2c
I0530 20:27:15.480798 26136 net.cpp:444] scale4e_branch2c <- res4e_branch2c
I0530 20:27:15.480811 26136 net.cpp:405] scale4e_branch2c -> res4e_branch2c (in-place)
I0530 20:27:15.480865 26136 layer_factory.hpp:77] Creating layer scale4e_branch2c
I0530 20:27:15.481035 26136 net.cpp:150] Setting up scale4e_branch2c
I0530 20:27:15.481045 26136 net.cpp:157] Top shape: 1 1024 14 14 (200704)
I0530 20:27:15.481048 26136 net.cpp:165] Memory required for data: 210137100
I0530 20:27:15.481061 26136 layer_factory.hpp:77] Creating layer res4e
I0530 20:27:15.481076 26136 net.cpp:100] Creating Layer res4e
I0530 20:27:15.481083 26136 net.cpp:444] res4e <- res4d_res4d_relu_0_split_1
I0530 20:27:15.481096 26136 net.cpp:444] res4e <- res4e_branch2c
I0530 20:27:15.481106 26136 net.cpp:418] res4e -> res4e
I0530 20:27:15.481146 26136 net.cpp:150] Setting up res4e
I0530 20:27:15.481155 26136 net.cpp:157] Top shape: 1 1024 14 14 (200704)
I0530 20:27:15.481159 26136 net.cpp:165] Memory required for data: 210939916
I0530 20:27:15.481164 26136 layer_factory.hpp:77] Creating layer res4e_relu
I0530 20:27:15.481175 26136 net.cpp:100] Creating Layer res4e_relu
I0530 20:27:15.481182 26136 net.cpp:444] res4e_relu <- res4e
I0530 20:27:15.481196 26136 net.cpp:405] res4e_relu -> res4e (in-place)
I0530 20:27:15.481345 26136 net.cpp:150] Setting up res4e_relu
I0530 20:27:15.481353 26136 net.cpp:157] Top shape: 1 1024 14 14 (200704)
I0530 20:27:15.481356 26136 net.cpp:165] Memory required for data: 211742732
I0530 20:27:15.481361 26136 layer_factory.hpp:77] Creating layer res4e_res4e_relu_0_split
I0530 20:27:15.481375 26136 net.cpp:100] Creating Layer res4e_res4e_relu_0_split
I0530 20:27:15.481381 26136 net.cpp:444] res4e_res4e_relu_0_split <- res4e
I0530 20:27:15.481397 26136 net.cpp:418] res4e_res4e_relu_0_split -> res4e_res4e_relu_0_split_0
I0530 20:27:15.481415 26136 net.cpp:418] res4e_res4e_relu_0_split -> res4e_res4e_relu_0_split_1
I0530 20:27:15.481462 26136 net.cpp:150] Setting up res4e_res4e_relu_0_split
I0530 20:27:15.481470 26136 net.cpp:157] Top shape: 1 1024 14 14 (200704)
I0530 20:27:15.481477 26136 net.cpp:157] Top shape: 1 1024 14 14 (200704)
I0530 20:27:15.481480 26136 net.cpp:165] Memory required for data: 213348364
I0530 20:27:15.481485 26136 layer_factory.hpp:77] Creating layer res4f_branch2a
I0530 20:27:15.481503 26136 net.cpp:100] Creating Layer res4f_branch2a
I0530 20:27:15.481510 26136 net.cpp:444] res4f_branch2a <- res4e_res4e_relu_0_split_0
I0530 20:27:15.481529 26136 net.cpp:418] res4f_branch2a -> res4f_branch2a
I0530 20:27:15.486845 26136 cudnn_conv_layer.cpp:194] Reallocating workspace storage: 10080
I0530 20:27:15.486924 26136 net.cpp:150] Setting up res4f_branch2a
I0530 20:27:15.486956 26136 net.cpp:157] Top shape: 1 256 14 14 (50176)
I0530 20:27:15.486961 26136 net.cpp:165] Memory required for data: 213549068
I0530 20:27:15.487007 26136 layer_factory.hpp:77] Creating layer bn4f_branch2a
I0530 20:27:15.487061 26136 net.cpp:100] Creating Layer bn4f_branch2a
I0530 20:27:15.487074 26136 net.cpp:444] bn4f_branch2a <- res4f_branch2a
I0530 20:27:15.487104 26136 net.cpp:405] bn4f_branch2a -> res4f_branch2a (in-place)
I0530 20:27:15.487422 26136 net.cpp:150] Setting up bn4f_branch2a
I0530 20:27:15.487433 26136 net.cpp:157] Top shape: 1 256 14 14 (50176)
I0530 20:27:15.487437 26136 net.cpp:165] Memory required for data: 213749772
I0530 20:27:15.487464 26136 layer_factory.hpp:77] Creating layer scale4f_branch2a
I0530 20:27:15.487489 26136 net.cpp:100] Creating Layer scale4f_branch2a
I0530 20:27:15.487498 26136 net.cpp:444] scale4f_branch2a <- res4f_branch2a
I0530 20:27:15.487514 26136 net.cpp:405] scale4f_branch2a -> res4f_branch2a (in-place)
I0530 20:27:15.487592 26136 layer_factory.hpp:77] Creating layer scale4f_branch2a
I0530 20:27:15.487793 26136 net.cpp:150] Setting up scale4f_branch2a
I0530 20:27:15.487802 26136 net.cpp:157] Top shape: 1 256 14 14 (50176)
I0530 20:27:15.487804 26136 net.cpp:165] Memory required for data: 213950476
I0530 20:27:15.487818 26136 layer_factory.hpp:77] Creating layer res4f_branch2a_relu
I0530 20:27:15.487834 26136 net.cpp:100] Creating Layer res4f_branch2a_relu
I0530 20:27:15.487841 26136 net.cpp:444] res4f_branch2a_relu <- res4f_branch2a
I0530 20:27:15.487854 26136 net.cpp:405] res4f_branch2a_relu -> res4f_branch2a (in-place)
I0530 20:27:15.488099 26136 net.cpp:150] Setting up res4f_branch2a_relu
I0530 20:27:15.488107 26136 net.cpp:157] Top shape: 1 256 14 14 (50176)
I0530 20:27:15.488111 26136 net.cpp:165] Memory required for data: 214151180
I0530 20:27:15.488116 26136 layer_factory.hpp:77] Creating layer res4f_branch2b
I0530 20:27:15.488142 26136 net.cpp:100] Creating Layer res4f_branch2b
I0530 20:27:15.488152 26136 net.cpp:444] res4f_branch2b <- res4f_branch2a
I0530 20:27:15.488168 26136 net.cpp:418] res4f_branch2b -> res4f_branch2b
I0530 20:27:15.491803 26136 cudnn_conv_layer.cpp:194] Reallocating workspace storage: 12582912
I0530 20:27:15.492149 26136 net.cpp:150] Setting up res4f_branch2b
I0530 20:27:15.492168 26136 net.cpp:157] Top shape: 1 256 14 14 (50176)
I0530 20:27:15.492172 26136 net.cpp:165] Memory required for data: 214351884
I0530 20:27:15.492197 26136 layer_factory.hpp:77] Creating layer bn4f_branch2b
I0530 20:27:15.492224 26136 net.cpp:100] Creating Layer bn4f_branch2b
I0530 20:27:15.492235 26136 net.cpp:444] bn4f_branch2b <- res4f_branch2b
I0530 20:27:15.492256 26136 net.cpp:405] bn4f_branch2b -> res4f_branch2b (in-place)
I0530 20:27:15.492516 26136 net.cpp:150] Setting up bn4f_branch2b
I0530 20:27:15.492525 26136 net.cpp:157] Top shape: 1 256 14 14 (50176)
I0530 20:27:15.492528 26136 net.cpp:165] Memory required for data: 214552588
I0530 20:27:15.492548 26136 layer_factory.hpp:77] Creating layer scale4f_branch2b
I0530 20:27:15.492563 26136 net.cpp:100] Creating Layer scale4f_branch2b
I0530 20:27:15.492570 26136 net.cpp:444] scale4f_branch2b <- res4f_branch2b
I0530 20:27:15.492585 26136 net.cpp:405] scale4f_branch2b -> res4f_branch2b (in-place)
I0530 20:27:15.492651 26136 layer_factory.hpp:77] Creating layer scale4f_branch2b
I0530 20:27:15.492816 26136 net.cpp:150] Setting up scale4f_branch2b
I0530 20:27:15.492825 26136 net.cpp:157] Top shape: 1 256 14 14 (50176)
I0530 20:27:15.492828 26136 net.cpp:165] Memory required for data: 214753292
I0530 20:27:15.492841 26136 layer_factory.hpp:77] Creating layer res4f_branch2b_relu
I0530 20:27:15.492852 26136 net.cpp:100] Creating Layer res4f_branch2b_relu
I0530 20:27:15.492859 26136 net.cpp:444] res4f_branch2b_relu <- res4f_branch2b
I0530 20:27:15.492872 26136 net.cpp:405] res4f_branch2b_relu -> res4f_branch2b (in-place)
I0530 20:27:15.493082 26136 net.cpp:150] Setting up res4f_branch2b_relu
I0530 20:27:15.493090 26136 net.cpp:157] Top shape: 1 256 14 14 (50176)
I0530 20:27:15.493093 26136 net.cpp:165] Memory required for data: 214953996
I0530 20:27:15.493099 26136 layer_factory.hpp:77] Creating layer res4f_branch2c
I0530 20:27:15.493120 26136 net.cpp:100] Creating Layer res4f_branch2c
I0530 20:27:15.493127 26136 net.cpp:444] res4f_branch2c <- res4f_branch2b
I0530 20:27:15.493145 26136 net.cpp:418] res4f_branch2c -> res4f_branch2c
I0530 20:27:15.495627 26136 cudnn_conv_layer.cpp:194] Reallocating workspace storage: 10080
I0530 20:27:15.495657 26136 net.cpp:150] Setting up res4f_branch2c
I0530 20:27:15.495667 26136 net.cpp:157] Top shape: 1 1024 14 14 (200704)
I0530 20:27:15.495671 26136 net.cpp:165] Memory required for data: 215756812
I0530 20:27:15.495684 26136 layer_factory.hpp:77] Creating layer bn4f_branch2c
I0530 20:27:15.495703 26136 net.cpp:100] Creating Layer bn4f_branch2c
I0530 20:27:15.495710 26136 net.cpp:444] bn4f_branch2c <- res4f_branch2c
I0530 20:27:15.495728 26136 net.cpp:405] bn4f_branch2c -> res4f_branch2c (in-place)
I0530 20:27:15.495981 26136 net.cpp:150] Setting up bn4f_branch2c
I0530 20:27:15.495990 26136 net.cpp:157] Top shape: 1 1024 14 14 (200704)
I0530 20:27:15.495993 26136 net.cpp:165] Memory required for data: 216559628
I0530 20:27:15.496057 26136 layer_factory.hpp:77] Creating layer scale4f_branch2c
I0530 20:27:15.496073 26136 net.cpp:100] Creating Layer scale4f_branch2c
I0530 20:27:15.496080 26136 net.cpp:444] scale4f_branch2c <- res4f_branch2c
I0530 20:27:15.496093 26136 net.cpp:405] scale4f_branch2c -> res4f_branch2c (in-place)
I0530 20:27:15.496155 26136 layer_factory.hpp:77] Creating layer scale4f_branch2c
I0530 20:27:15.496325 26136 net.cpp:150] Setting up scale4f_branch2c
I0530 20:27:15.496335 26136 net.cpp:157] Top shape: 1 1024 14 14 (200704)
I0530 20:27:15.496338 26136 net.cpp:165] Memory required for data: 217362444
I0530 20:27:15.496351 26136 layer_factory.hpp:77] Creating layer res4f
I0530 20:27:15.496363 26136 net.cpp:100] Creating Layer res4f
I0530 20:27:15.496371 26136 net.cpp:444] res4f <- res4e_res4e_relu_0_split_1
I0530 20:27:15.496381 26136 net.cpp:444] res4f <- res4f_branch2c
I0530 20:27:15.496393 26136 net.cpp:418] res4f -> res4f
I0530 20:27:15.496436 26136 net.cpp:150] Setting up res4f
I0530 20:27:15.496445 26136 net.cpp:157] Top shape: 1 1024 14 14 (200704)
I0530 20:27:15.496448 26136 net.cpp:165] Memory required for data: 218165260
I0530 20:27:15.496454 26136 layer_factory.hpp:77] Creating layer res4f_relu
I0530 20:27:15.496466 26136 net.cpp:100] Creating Layer res4f_relu
I0530 20:27:15.496472 26136 net.cpp:444] res4f_relu <- res4f
I0530 20:27:15.496484 26136 net.cpp:405] res4f_relu -> res4f (in-place)
I0530 20:27:15.497009 26136 net.cpp:150] Setting up res4f_relu
I0530 20:27:15.497022 26136 net.cpp:157] Top shape: 1 1024 14 14 (200704)
I0530 20:27:15.497026 26136 net.cpp:165] Memory required for data: 218968076
I0530 20:27:15.497031 26136 layer_factory.hpp:77] Creating layer res4f_res4f_relu_0_split
I0530 20:27:15.497045 26136 net.cpp:100] Creating Layer res4f_res4f_relu_0_split
I0530 20:27:15.497051 26136 net.cpp:444] res4f_res4f_relu_0_split <- res4f
I0530 20:27:15.497067 26136 net.cpp:418] res4f_res4f_relu_0_split -> res4f_res4f_relu_0_split_0
I0530 20:27:15.497086 26136 net.cpp:418] res4f_res4f_relu_0_split -> res4f_res4f_relu_0_split_1
I0530 20:27:15.497099 26136 net.cpp:418] res4f_res4f_relu_0_split -> res4f_res4f_relu_0_split_2
I0530 20:27:15.497172 26136 net.cpp:150] Setting up res4f_res4f_relu_0_split
I0530 20:27:15.497182 26136 net.cpp:157] Top shape: 1 1024 14 14 (200704)
I0530 20:27:15.497189 26136 net.cpp:157] Top shape: 1 1024 14 14 (200704)
I0530 20:27:15.497193 26136 net.cpp:157] Top shape: 1 1024 14 14 (200704)
I0530 20:27:15.497196 26136 net.cpp:165] Memory required for data: 221376524
I0530 20:27:15.497201 26136 layer_factory.hpp:77] Creating layer res5a_branch1
I0530 20:27:15.497220 26136 net.cpp:100] Creating Layer res5a_branch1
I0530 20:27:15.497225 26136 net.cpp:444] res5a_branch1 <- res4f_res4f_relu_0_split_0
I0530 20:27:15.497241 26136 net.cpp:418] res5a_branch1 -> res5a_branch1
I0530 20:27:15.506830 26136 cudnn_conv_layer.cpp:194] Reallocating workspace storage: 8568
I0530 20:27:15.506871 26136 net.cpp:150] Setting up res5a_branch1
I0530 20:27:15.506888 26136 net.cpp:157] Top shape: 1 2048 14 14 (401408)
I0530 20:27:15.506892 26136 net.cpp:165] Memory required for data: 222982156
I0530 20:27:15.506918 26136 layer_factory.hpp:77] Creating layer bn5a_branch1
I0530 20:27:15.506952 26136 net.cpp:100] Creating Layer bn5a_branch1
I0530 20:27:15.506961 26136 net.cpp:444] bn5a_branch1 <- res5a_branch1
I0530 20:27:15.506985 26136 net.cpp:405] bn5a_branch1 -> res5a_branch1 (in-place)
I0530 20:27:15.507262 26136 net.cpp:150] Setting up bn5a_branch1
I0530 20:27:15.507270 26136 net.cpp:157] Top shape: 1 2048 14 14 (401408)
I0530 20:27:15.507274 26136 net.cpp:165] Memory required for data: 224587788
I0530 20:27:15.507297 26136 layer_factory.hpp:77] Creating layer scale5a_branch1
I0530 20:27:15.507315 26136 net.cpp:100] Creating Layer scale5a_branch1
I0530 20:27:15.507321 26136 net.cpp:444] scale5a_branch1 <- res5a_branch1
I0530 20:27:15.507335 26136 net.cpp:405] scale5a_branch1 -> res5a_branch1 (in-place)
I0530 20:27:15.507401 26136 layer_factory.hpp:77] Creating layer scale5a_branch1
I0530 20:27:15.507576 26136 net.cpp:150] Setting up scale5a_branch1
I0530 20:27:15.507585 26136 net.cpp:157] Top shape: 1 2048 14 14 (401408)
I0530 20:27:15.507588 26136 net.cpp:165] Memory required for data: 226193420
I0530 20:27:15.507601 26136 layer_factory.hpp:77] Creating layer res5a_branch2a
I0530 20:27:15.507622 26136 net.cpp:100] Creating Layer res5a_branch2a
I0530 20:27:15.507628 26136 net.cpp:444] res5a_branch2a <- res4f_res4f_relu_0_split_1
I0530 20:27:15.507645 26136 net.cpp:418] res5a_branch2a -> res5a_branch2a
I0530 20:27:15.511070 26136 cudnn_conv_layer.cpp:194] Reallocating workspace storage: 10080
I0530 20:27:15.511102 26136 net.cpp:150] Setting up res5a_branch2a
I0530 20:27:15.511116 26136 net.cpp:157] Top shape: 1 512 14 14 (100352)
I0530 20:27:15.511121 26136 net.cpp:165] Memory required for data: 226594828
I0530 20:27:15.511137 26136 layer_factory.hpp:77] Creating layer bn5a_branch2a
I0530 20:27:15.511158 26136 net.cpp:100] Creating Layer bn5a_branch2a
I0530 20:27:15.511168 26136 net.cpp:444] bn5a_branch2a <- res5a_branch2a
I0530 20:27:15.511185 26136 net.cpp:405] bn5a_branch2a -> res5a_branch2a (in-place)
I0530 20:27:15.511445 26136 net.cpp:150] Setting up bn5a_branch2a
I0530 20:27:15.511452 26136 net.cpp:157] Top shape: 1 512 14 14 (100352)
I0530 20:27:15.511456 26136 net.cpp:165] Memory required for data: 226996236
I0530 20:27:15.511476 26136 layer_factory.hpp:77] Creating layer scale5a_branch2a
I0530 20:27:15.511492 26136 net.cpp:100] Creating Layer scale5a_branch2a
I0530 20:27:15.511498 26136 net.cpp:444] scale5a_branch2a <- res5a_branch2a
I0530 20:27:15.511513 26136 net.cpp:405] scale5a_branch2a -> res5a_branch2a (in-place)
I0530 20:27:15.511572 26136 layer_factory.hpp:77] Creating layer scale5a_branch2a
I0530 20:27:15.511742 26136 net.cpp:150] Setting up scale5a_branch2a
I0530 20:27:15.511750 26136 net.cpp:157] Top shape: 1 512 14 14 (100352)
I0530 20:27:15.511754 26136 net.cpp:165] Memory required for data: 227397644
I0530 20:27:15.511767 26136 layer_factory.hpp:77] Creating layer res5a_branch2a_relu
I0530 20:27:15.511780 26136 net.cpp:100] Creating Layer res5a_branch2a_relu
I0530 20:27:15.511786 26136 net.cpp:444] res5a_branch2a_relu <- res5a_branch2a
I0530 20:27:15.511798 26136 net.cpp:405] res5a_branch2a_relu -> res5a_branch2a (in-place)
I0530 20:27:15.511991 26136 net.cpp:150] Setting up res5a_branch2a_relu
I0530 20:27:15.512001 26136 net.cpp:157] Top shape: 1 512 14 14 (100352)
I0530 20:27:15.512003 26136 net.cpp:165] Memory required for data: 227799052
I0530 20:27:15.512008 26136 layer_factory.hpp:77] Creating layer res5a_branch2b
I0530 20:27:15.512027 26136 net.cpp:100] Creating Layer res5a_branch2b
I0530 20:27:15.512033 26136 net.cpp:444] res5a_branch2b <- res5a_branch2a
I0530 20:27:15.512049 26136 net.cpp:418] res5a_branch2b -> res5a_branch2b
I0530 20:27:15.519486 26136 net.cpp:150] Setting up res5a_branch2b
I0530 20:27:15.519518 26136 net.cpp:157] Top shape: 1 512 14 14 (100352)
I0530 20:27:15.519522 26136 net.cpp:165] Memory required for data: 228200460
I0530 20:27:15.519549 26136 layer_factory.hpp:77] Creating layer bn5a_branch2b
I0530 20:27:15.519583 26136 net.cpp:100] Creating Layer bn5a_branch2b
I0530 20:27:15.519596 26136 net.cpp:444] bn5a_branch2b <- res5a_branch2b
I0530 20:27:15.519618 26136 net.cpp:405] bn5a_branch2b -> res5a_branch2b (in-place)
I0530 20:27:15.519978 26136 net.cpp:150] Setting up bn5a_branch2b
I0530 20:27:15.519986 26136 net.cpp:157] Top shape: 1 512 14 14 (100352)
I0530 20:27:15.519989 26136 net.cpp:165] Memory required for data: 228601868
I0530 20:27:15.520010 26136 layer_factory.hpp:77] Creating layer scale5a_branch2b
I0530 20:27:15.520030 26136 net.cpp:100] Creating Layer scale5a_branch2b
I0530 20:27:15.520036 26136 net.cpp:444] scale5a_branch2b <- res5a_branch2b
I0530 20:27:15.520051 26136 net.cpp:405] scale5a_branch2b -> res5a_branch2b (in-place)
I0530 20:27:15.520117 26136 layer_factory.hpp:77] Creating layer scale5a_branch2b
I0530 20:27:15.520294 26136 net.cpp:150] Setting up scale5a_branch2b
I0530 20:27:15.520303 26136 net.cpp:157] Top shape: 1 512 14 14 (100352)
I0530 20:27:15.520306 26136 net.cpp:165] Memory required for data: 229003276
I0530 20:27:15.520319 26136 layer_factory.hpp:77] Creating layer res5a_branch2b_relu
I0530 20:27:15.520332 26136 net.cpp:100] Creating Layer res5a_branch2b_relu
I0530 20:27:15.520339 26136 net.cpp:444] res5a_branch2b_relu <- res5a_branch2b
I0530 20:27:15.520351 26136 net.cpp:405] res5a_branch2b_relu -> res5a_branch2b (in-place)
I0530 20:27:15.520598 26136 net.cpp:150] Setting up res5a_branch2b_relu
I0530 20:27:15.520607 26136 net.cpp:157] Top shape: 1 512 14 14 (100352)
I0530 20:27:15.520611 26136 net.cpp:165] Memory required for data: 229404684
I0530 20:27:15.520615 26136 layer_factory.hpp:77] Creating layer res5a_branch2c
I0530 20:27:15.520637 26136 net.cpp:100] Creating Layer res5a_branch2c
I0530 20:27:15.520643 26136 net.cpp:444] res5a_branch2c <- res5a_branch2b
I0530 20:27:15.520659 26136 net.cpp:418] res5a_branch2c -> res5a_branch2c
I0530 20:27:15.524803 26136 cudnn_conv_layer.cpp:194] Reallocating workspace storage: 7800
I0530 20:27:15.524839 26136 net.cpp:150] Setting up res5a_branch2c
I0530 20:27:15.524853 26136 net.cpp:157] Top shape: 1 2048 14 14 (401408)
I0530 20:27:15.524857 26136 net.cpp:165] Memory required for data: 231010316
I0530 20:27:15.524878 26136 layer_factory.hpp:77] Creating layer bn5a_branch2c
I0530 20:27:15.524958 26136 net.cpp:100] Creating Layer bn5a_branch2c
I0530 20:27:15.524972 26136 net.cpp:444] bn5a_branch2c <- res5a_branch2c
I0530 20:27:15.524998 26136 net.cpp:405] bn5a_branch2c -> res5a_branch2c (in-place)
I0530 20:27:15.525223 26136 net.cpp:150] Setting up bn5a_branch2c
I0530 20:27:15.525230 26136 net.cpp:157] Top shape: 1 2048 14 14 (401408)
I0530 20:27:15.525233 26136 net.cpp:165] Memory required for data: 232615948
I0530 20:27:15.525254 26136 layer_factory.hpp:77] Creating layer scale5a_branch2c
I0530 20:27:15.525272 26136 net.cpp:100] Creating Layer scale5a_branch2c
I0530 20:27:15.525277 26136 net.cpp:444] scale5a_branch2c <- res5a_branch2c
I0530 20:27:15.525288 26136 net.cpp:405] scale5a_branch2c -> res5a_branch2c (in-place)
I0530 20:27:15.525352 26136 layer_factory.hpp:77] Creating layer scale5a_branch2c
I0530 20:27:15.525498 26136 net.cpp:150] Setting up scale5a_branch2c
I0530 20:27:15.525506 26136 net.cpp:157] Top shape: 1 2048 14 14 (401408)
I0530 20:27:15.525511 26136 net.cpp:165] Memory required for data: 234221580
I0530 20:27:15.525524 26136 layer_factory.hpp:77] Creating layer res5a
I0530 20:27:15.525539 26136 net.cpp:100] Creating Layer res5a
I0530 20:27:15.525548 26136 net.cpp:444] res5a <- res5a_branch1
I0530 20:27:15.525562 26136 net.cpp:444] res5a <- res5a_branch2c
I0530 20:27:15.525574 26136 net.cpp:418] res5a -> res5a
I0530 20:27:15.525626 26136 net.cpp:150] Setting up res5a
I0530 20:27:15.525636 26136 net.cpp:157] Top shape: 1 2048 14 14 (401408)
I0530 20:27:15.525640 26136 net.cpp:165] Memory required for data: 235827212
I0530 20:27:15.525645 26136 layer_factory.hpp:77] Creating layer res5a_relu
I0530 20:27:15.525658 26136 net.cpp:100] Creating Layer res5a_relu
I0530 20:27:15.525666 26136 net.cpp:444] res5a_relu <- res5a
I0530 20:27:15.525681 26136 net.cpp:405] res5a_relu -> res5a (in-place)
I0530 20:27:15.526111 26136 net.cpp:150] Setting up res5a_relu
I0530 20:27:15.526119 26136 net.cpp:157] Top shape: 1 2048 14 14 (401408)
I0530 20:27:15.526124 26136 net.cpp:165] Memory required for data: 237432844
I0530 20:27:15.526130 26136 layer_factory.hpp:77] Creating layer res5a_res5a_relu_0_split
I0530 20:27:15.526144 26136 net.cpp:100] Creating Layer res5a_res5a_relu_0_split
I0530 20:27:15.526152 26136 net.cpp:444] res5a_res5a_relu_0_split <- res5a
I0530 20:27:15.526171 26136 net.cpp:418] res5a_res5a_relu_0_split -> res5a_res5a_relu_0_split_0
I0530 20:27:15.526191 26136 net.cpp:418] res5a_res5a_relu_0_split -> res5a_res5a_relu_0_split_1
I0530 20:27:15.526245 26136 net.cpp:150] Setting up res5a_res5a_relu_0_split
I0530 20:27:15.526254 26136 net.cpp:157] Top shape: 1 2048 14 14 (401408)
I0530 20:27:15.526262 26136 net.cpp:157] Top shape: 1 2048 14 14 (401408)
I0530 20:27:15.526265 26136 net.cpp:165] Memory required for data: 240644108
I0530 20:27:15.526270 26136 layer_factory.hpp:77] Creating layer res5b_branch2a
I0530 20:27:15.526291 26136 net.cpp:100] Creating Layer res5b_branch2a
I0530 20:27:15.526298 26136 net.cpp:444] res5b_branch2a <- res5a_res5a_relu_0_split_0
I0530 20:27:15.526319 26136 net.cpp:418] res5b_branch2a -> res5b_branch2a
I0530 20:27:15.529738 26136 cudnn_conv_layer.cpp:194] Reallocating workspace storage: 10080
I0530 20:27:15.529775 26136 net.cpp:150] Setting up res5b_branch2a
I0530 20:27:15.529791 26136 net.cpp:157] Top shape: 1 512 14 14 (100352)
I0530 20:27:15.529796 26136 net.cpp:165] Memory required for data: 241045516
I0530 20:27:15.529819 26136 layer_factory.hpp:77] Creating layer bn5b_branch2a
I0530 20:27:15.529850 26136 net.cpp:100] Creating Layer bn5b_branch2a
I0530 20:27:15.529861 26136 net.cpp:444] bn5b_branch2a <- res5b_branch2a
I0530 20:27:15.529886 26136 net.cpp:405] bn5b_branch2a -> res5b_branch2a (in-place)
I0530 20:27:15.530097 26136 net.cpp:150] Setting up bn5b_branch2a
I0530 20:27:15.530104 26136 net.cpp:157] Top shape: 1 512 14 14 (100352)
I0530 20:27:15.530108 26136 net.cpp:165] Memory required for data: 241446924
I0530 20:27:15.530131 26136 layer_factory.hpp:77] Creating layer scale5b_branch2a
I0530 20:27:15.530148 26136 net.cpp:100] Creating Layer scale5b_branch2a
I0530 20:27:15.530156 26136 net.cpp:444] scale5b_branch2a <- res5b_branch2a
I0530 20:27:15.530174 26136 net.cpp:405] scale5b_branch2a -> res5b_branch2a (in-place)
I0530 20:27:15.530234 26136 layer_factory.hpp:77] Creating layer scale5b_branch2a
I0530 20:27:15.530377 26136 net.cpp:150] Setting up scale5b_branch2a
I0530 20:27:15.530388 26136 net.cpp:157] Top shape: 1 512 14 14 (100352)
I0530 20:27:15.530392 26136 net.cpp:165] Memory required for data: 241848332
I0530 20:27:15.530407 26136 layer_factory.hpp:77] Creating layer res5b_branch2a_relu
I0530 20:27:15.530421 26136 net.cpp:100] Creating Layer res5b_branch2a_relu
I0530 20:27:15.530429 26136 net.cpp:444] res5b_branch2a_relu <- res5b_branch2a
I0530 20:27:15.530443 26136 net.cpp:405] res5b_branch2a_relu -> res5b_branch2a (in-place)
I0530 20:27:15.530601 26136 net.cpp:150] Setting up res5b_branch2a_relu
I0530 20:27:15.530608 26136 net.cpp:157] Top shape: 1 512 14 14 (100352)
I0530 20:27:15.530611 26136 net.cpp:165] Memory required for data: 242249740
I0530 20:27:15.530617 26136 layer_factory.hpp:77] Creating layer res5b_branch2b
I0530 20:27:15.530637 26136 net.cpp:100] Creating Layer res5b_branch2b
I0530 20:27:15.530643 26136 net.cpp:444] res5b_branch2b <- res5b_branch2a
I0530 20:27:15.530663 26136 net.cpp:418] res5b_branch2b -> res5b_branch2b
I0530 20:27:15.536309 26136 net.cpp:150] Setting up res5b_branch2b
I0530 20:27:15.536345 26136 net.cpp:157] Top shape: 1 512 14 14 (100352)
I0530 20:27:15.536350 26136 net.cpp:165] Memory required for data: 242651148
I0530 20:27:15.536376 26136 layer_factory.hpp:77] Creating layer bn5b_branch2b
I0530 20:27:15.536412 26136 net.cpp:100] Creating Layer bn5b_branch2b
I0530 20:27:15.536425 26136 net.cpp:444] bn5b_branch2b <- res5b_branch2b
I0530 20:27:15.536450 26136 net.cpp:405] bn5b_branch2b -> res5b_branch2b (in-place)
I0530 20:27:15.536804 26136 net.cpp:150] Setting up bn5b_branch2b
I0530 20:27:15.536816 26136 net.cpp:157] Top shape: 1 512 14 14 (100352)
I0530 20:27:15.536821 26136 net.cpp:165] Memory required for data: 243052556
I0530 20:27:15.536846 26136 layer_factory.hpp:77] Creating layer scale5b_branch2b
I0530 20:27:15.536871 26136 net.cpp:100] Creating Layer scale5b_branch2b
I0530 20:27:15.536880 26136 net.cpp:444] scale5b_branch2b <- res5b_branch2b
I0530 20:27:15.536895 26136 net.cpp:405] scale5b_branch2b -> res5b_branch2b (in-place)
I0530 20:27:15.537058 26136 layer_factory.hpp:77] Creating layer scale5b_branch2b
I0530 20:27:15.537264 26136 net.cpp:150] Setting up scale5b_branch2b
I0530 20:27:15.537272 26136 net.cpp:157] Top shape: 1 512 14 14 (100352)
I0530 20:27:15.537276 26136 net.cpp:165] Memory required for data: 243453964
I0530 20:27:15.537289 26136 layer_factory.hpp:77] Creating layer res5b_branch2b_relu
I0530 20:27:15.537302 26136 net.cpp:100] Creating Layer res5b_branch2b_relu
I0530 20:27:15.537309 26136 net.cpp:444] res5b_branch2b_relu <- res5b_branch2b
I0530 20:27:15.537322 26136 net.cpp:405] res5b_branch2b_relu -> res5b_branch2b (in-place)
I0530 20:27:15.537564 26136 net.cpp:150] Setting up res5b_branch2b_relu
I0530 20:27:15.537570 26136 net.cpp:157] Top shape: 1 512 14 14 (100352)
I0530 20:27:15.537571 26136 net.cpp:165] Memory required for data: 243855372
I0530 20:27:15.537576 26136 layer_factory.hpp:77] Creating layer res5b_branch2c
I0530 20:27:15.537595 26136 net.cpp:100] Creating Layer res5b_branch2c
I0530 20:27:15.537600 26136 net.cpp:444] res5b_branch2c <- res5b_branch2b
I0530 20:27:15.537613 26136 net.cpp:418] res5b_branch2c -> res5b_branch2c
I0530 20:27:15.541477 26136 cudnn_conv_layer.cpp:194] Reallocating workspace storage: 7800
I0530 20:27:15.541513 26136 net.cpp:150] Setting up res5b_branch2c
I0530 20:27:15.541543 26136 net.cpp:157] Top shape: 1 2048 14 14 (401408)
I0530 20:27:15.541558 26136 net.cpp:165] Memory required for data: 245461004
I0530 20:27:15.541579 26136 layer_factory.hpp:77] Creating layer bn5b_branch2c
I0530 20:27:15.541606 26136 net.cpp:100] Creating Layer bn5b_branch2c
I0530 20:27:15.541616 26136 net.cpp:444] bn5b_branch2c <- res5b_branch2c
I0530 20:27:15.541633 26136 net.cpp:405] bn5b_branch2c -> res5b_branch2c (in-place)
I0530 20:27:15.541843 26136 net.cpp:150] Setting up bn5b_branch2c
I0530 20:27:15.541848 26136 net.cpp:157] Top shape: 1 2048 14 14 (401408)
I0530 20:27:15.541851 26136 net.cpp:165] Memory required for data: 247066636
I0530 20:27:15.541865 26136 layer_factory.hpp:77] Creating layer scale5b_branch2c
I0530 20:27:15.541879 26136 net.cpp:100] Creating Layer scale5b_branch2c
I0530 20:27:15.541883 26136 net.cpp:444] scale5b_branch2c <- res5b_branch2c
I0530 20:27:15.541893 26136 net.cpp:405] scale5b_branch2c -> res5b_branch2c (in-place)
I0530 20:27:15.541947 26136 layer_factory.hpp:77] Creating layer scale5b_branch2c
I0530 20:27:15.542106 26136 net.cpp:150] Setting up scale5b_branch2c
I0530 20:27:15.542114 26136 net.cpp:157] Top shape: 1 2048 14 14 (401408)
I0530 20:27:15.542114 26136 net.cpp:165] Memory required for data: 248672268
I0530 20:27:15.542124 26136 layer_factory.hpp:77] Creating layer res5b
I0530 20:27:15.542135 26136 net.cpp:100] Creating Layer res5b
I0530 20:27:15.542140 26136 net.cpp:444] res5b <- res5a_res5a_relu_0_split_1
I0530 20:27:15.542147 26136 net.cpp:444] res5b <- res5b_branch2c
I0530 20:27:15.542156 26136 net.cpp:418] res5b -> res5b
I0530 20:27:15.542191 26136 net.cpp:150] Setting up res5b
I0530 20:27:15.542197 26136 net.cpp:157] Top shape: 1 2048 14 14 (401408)
I0530 20:27:15.542199 26136 net.cpp:165] Memory required for data: 250277900
I0530 20:27:15.542202 26136 layer_factory.hpp:77] Creating layer res5b_relu
I0530 20:27:15.542212 26136 net.cpp:100] Creating Layer res5b_relu
I0530 20:27:15.542217 26136 net.cpp:444] res5b_relu <- res5b
I0530 20:27:15.542224 26136 net.cpp:405] res5b_relu -> res5b (in-place)
I0530 20:27:15.542644 26136 net.cpp:150] Setting up res5b_relu
I0530 20:27:15.542654 26136 net.cpp:157] Top shape: 1 2048 14 14 (401408)
I0530 20:27:15.542655 26136 net.cpp:165] Memory required for data: 251883532
I0530 20:27:15.542659 26136 layer_factory.hpp:77] Creating layer res5b_res5b_relu_0_split
I0530 20:27:15.542670 26136 net.cpp:100] Creating Layer res5b_res5b_relu_0_split
I0530 20:27:15.542675 26136 net.cpp:444] res5b_res5b_relu_0_split <- res5b
I0530 20:27:15.542687 26136 net.cpp:418] res5b_res5b_relu_0_split -> res5b_res5b_relu_0_split_0
I0530 20:27:15.542702 26136 net.cpp:418] res5b_res5b_relu_0_split -> res5b_res5b_relu_0_split_1
I0530 20:27:15.542748 26136 net.cpp:150] Setting up res5b_res5b_relu_0_split
I0530 20:27:15.542757 26136 net.cpp:157] Top shape: 1 2048 14 14 (401408)
I0530 20:27:15.542760 26136 net.cpp:157] Top shape: 1 2048 14 14 (401408)
I0530 20:27:15.542762 26136 net.cpp:165] Memory required for data: 255094796
I0530 20:27:15.542765 26136 layer_factory.hpp:77] Creating layer res5c_branch2a
I0530 20:27:15.542779 26136 net.cpp:100] Creating Layer res5c_branch2a
I0530 20:27:15.542785 26136 net.cpp:444] res5c_branch2a <- res5b_res5b_relu_0_split_0
I0530 20:27:15.542796 26136 net.cpp:418] res5c_branch2a -> res5c_branch2a
I0530 20:27:15.546188 26136 cudnn_conv_layer.cpp:194] Reallocating workspace storage: 10080
I0530 20:27:15.546219 26136 net.cpp:150] Setting up res5c_branch2a
I0530 20:27:15.546242 26136 net.cpp:157] Top shape: 1 512 14 14 (100352)
I0530 20:27:15.546252 26136 net.cpp:165] Memory required for data: 255496204
I0530 20:27:15.546267 26136 layer_factory.hpp:77] Creating layer bn5c_branch2a
I0530 20:27:15.546288 26136 net.cpp:100] Creating Layer bn5c_branch2a
I0530 20:27:15.546298 26136 net.cpp:444] bn5c_branch2a <- res5c_branch2a
I0530 20:27:15.546313 26136 net.cpp:405] bn5c_branch2a -> res5c_branch2a (in-place)
I0530 20:27:15.546514 26136 net.cpp:150] Setting up bn5c_branch2a
I0530 20:27:15.546519 26136 net.cpp:157] Top shape: 1 512 14 14 (100352)
I0530 20:27:15.546522 26136 net.cpp:165] Memory required for data: 255897612
I0530 20:27:15.546536 26136 layer_factory.hpp:77] Creating layer scale5c_branch2a
I0530 20:27:15.546550 26136 net.cpp:100] Creating Layer scale5c_branch2a
I0530 20:27:15.546556 26136 net.cpp:444] scale5c_branch2a <- res5c_branch2a
I0530 20:27:15.546571 26136 net.cpp:405] scale5c_branch2a -> res5c_branch2a (in-place)
I0530 20:27:15.546653 26136 layer_factory.hpp:77] Creating layer scale5c_branch2a
I0530 20:27:15.546790 26136 net.cpp:150] Setting up scale5c_branch2a
I0530 20:27:15.546797 26136 net.cpp:157] Top shape: 1 512 14 14 (100352)
I0530 20:27:15.546802 26136 net.cpp:165] Memory required for data: 256299020
I0530 20:27:15.546814 26136 layer_factory.hpp:77] Creating layer res5c_branch2a_relu
I0530 20:27:15.546828 26136 net.cpp:100] Creating Layer res5c_branch2a_relu
I0530 20:27:15.546835 26136 net.cpp:444] res5c_branch2a_relu <- res5c_branch2a
I0530 20:27:15.546849 26136 net.cpp:405] res5c_branch2a_relu -> res5c_branch2a (in-place)
I0530 20:27:15.547000 26136 net.cpp:150] Setting up res5c_branch2a_relu
I0530 20:27:15.547008 26136 net.cpp:157] Top shape: 1 512 14 14 (100352)
I0530 20:27:15.547011 26136 net.cpp:165] Memory required for data: 256700428
I0530 20:27:15.547017 26136 layer_factory.hpp:77] Creating layer res5c_branch2b
I0530 20:27:15.547035 26136 net.cpp:100] Creating Layer res5c_branch2b
I0530 20:27:15.547041 26136 net.cpp:444] res5c_branch2b <- res5c_branch2a
I0530 20:27:15.547058 26136 net.cpp:418] res5c_branch2b -> res5c_branch2b
I0530 20:27:15.552896 26136 net.cpp:150] Setting up res5c_branch2b
I0530 20:27:15.552997 26136 net.cpp:157] Top shape: 1 512 14 14 (100352)
I0530 20:27:15.553004 26136 net.cpp:165] Memory required for data: 257101836
I0530 20:27:15.553032 26136 layer_factory.hpp:77] Creating layer bn5c_branch2b
I0530 20:27:15.553067 26136 net.cpp:100] Creating Layer bn5c_branch2b
I0530 20:27:15.553081 26136 net.cpp:444] bn5c_branch2b <- res5c_branch2b
I0530 20:27:15.553105 26136 net.cpp:405] bn5c_branch2b -> res5c_branch2b (in-place)
I0530 20:27:15.553344 26136 net.cpp:150] Setting up bn5c_branch2b
I0530 20:27:15.553350 26136 net.cpp:157] Top shape: 1 512 14 14 (100352)
I0530 20:27:15.553354 26136 net.cpp:165] Memory required for data: 257503244
I0530 20:27:15.553375 26136 layer_factory.hpp:77] Creating layer scale5c_branch2b
I0530 20:27:15.553391 26136 net.cpp:100] Creating Layer scale5c_branch2b
I0530 20:27:15.553400 26136 net.cpp:444] scale5c_branch2b <- res5c_branch2b
I0530 20:27:15.553416 26136 net.cpp:405] scale5c_branch2b -> res5c_branch2b (in-place)
I0530 20:27:15.553478 26136 layer_factory.hpp:77] Creating layer scale5c_branch2b
I0530 20:27:15.553623 26136 net.cpp:150] Setting up scale5c_branch2b
I0530 20:27:15.553632 26136 net.cpp:157] Top shape: 1 512 14 14 (100352)
I0530 20:27:15.553634 26136 net.cpp:165] Memory required for data: 257904652
I0530 20:27:15.553648 26136 layer_factory.hpp:77] Creating layer res5c_branch2b_relu
I0530 20:27:15.553663 26136 net.cpp:100] Creating Layer res5c_branch2b_relu
I0530 20:27:15.553669 26136 net.cpp:444] res5c_branch2b_relu <- res5c_branch2b
I0530 20:27:15.553685 26136 net.cpp:405] res5c_branch2b_relu -> res5c_branch2b (in-place)
I0530 20:27:15.553900 26136 net.cpp:150] Setting up res5c_branch2b_relu
I0530 20:27:15.553907 26136 net.cpp:157] Top shape: 1 512 14 14 (100352)
I0530 20:27:15.553911 26136 net.cpp:165] Memory required for data: 258306060
I0530 20:27:15.553917 26136 layer_factory.hpp:77] Creating layer res5c_branch2c
I0530 20:27:15.553936 26136 net.cpp:100] Creating Layer res5c_branch2c
I0530 20:27:15.553943 26136 net.cpp:444] res5c_branch2c <- res5c_branch2b
I0530 20:27:15.553962 26136 net.cpp:418] res5c_branch2c -> res5c_branch2c
I0530 20:27:15.557515 26136 cudnn_conv_layer.cpp:194] Reallocating workspace storage: 7800
I0530 20:27:15.557554 26136 net.cpp:150] Setting up res5c_branch2c
I0530 20:27:15.557571 26136 net.cpp:157] Top shape: 1 2048 14 14 (401408)
I0530 20:27:15.557575 26136 net.cpp:165] Memory required for data: 259911692
I0530 20:27:15.557598 26136 layer_factory.hpp:77] Creating layer bn5c_branch2c
I0530 20:27:15.557626 26136 net.cpp:100] Creating Layer bn5c_branch2c
I0530 20:27:15.557637 26136 net.cpp:444] bn5c_branch2c <- res5c_branch2c
I0530 20:27:15.557657 26136 net.cpp:405] bn5c_branch2c -> res5c_branch2c (in-place)
I0530 20:27:15.557875 26136 net.cpp:150] Setting up bn5c_branch2c
I0530 20:27:15.557883 26136 net.cpp:157] Top shape: 1 2048 14 14 (401408)
I0530 20:27:15.557886 26136 net.cpp:165] Memory required for data: 261517324
I0530 20:27:15.557905 26136 layer_factory.hpp:77] Creating layer scale5c_branch2c
I0530 20:27:15.557922 26136 net.cpp:100] Creating Layer scale5c_branch2c
I0530 20:27:15.557929 26136 net.cpp:444] scale5c_branch2c <- res5c_branch2c
I0530 20:27:15.557945 26136 net.cpp:405] scale5c_branch2c -> res5c_branch2c (in-place)
I0530 20:27:15.558003 26136 layer_factory.hpp:77] Creating layer scale5c_branch2c
I0530 20:27:15.558147 26136 net.cpp:150] Setting up scale5c_branch2c
I0530 20:27:15.558154 26136 net.cpp:157] Top shape: 1 2048 14 14 (401408)
I0530 20:27:15.558158 26136 net.cpp:165] Memory required for data: 263122956
I0530 20:27:15.558172 26136 layer_factory.hpp:77] Creating layer res5c
I0530 20:27:15.558187 26136 net.cpp:100] Creating Layer res5c
I0530 20:27:15.558193 26136 net.cpp:444] res5c <- res5b_res5b_relu_0_split_1
I0530 20:27:15.558205 26136 net.cpp:444] res5c <- res5c_branch2c
I0530 20:27:15.558218 26136 net.cpp:418] res5c -> res5c
I0530 20:27:15.558257 26136 net.cpp:150] Setting up res5c
I0530 20:27:15.558266 26136 net.cpp:157] Top shape: 1 2048 14 14 (401408)
I0530 20:27:15.558270 26136 net.cpp:165] Memory required for data: 264728588
I0530 20:27:15.558275 26136 layer_factory.hpp:77] Creating layer res5c_relu
I0530 20:27:15.558290 26136 net.cpp:100] Creating Layer res5c_relu
I0530 20:27:15.558295 26136 net.cpp:444] res5c_relu <- res5c
I0530 20:27:15.558310 26136 net.cpp:405] res5c_relu -> res5c (in-place)
I0530 20:27:15.558459 26136 net.cpp:150] Setting up res5c_relu
I0530 20:27:15.558466 26136 net.cpp:157] Top shape: 1 2048 14 14 (401408)
I0530 20:27:15.558470 26136 net.cpp:165] Memory required for data: 266334220
I0530 20:27:15.558475 26136 layer_factory.hpp:77] Creating layer rpn_conv/3x3
I0530 20:27:15.558497 26136 net.cpp:100] Creating Layer rpn_conv/3x3
I0530 20:27:15.558504 26136 net.cpp:444] rpn_conv/3x3 <- res4f_res4f_relu_0_split_2
I0530 20:27:15.558522 26136 net.cpp:418] rpn_conv/3x3 -> rpn/output
I0530 20:27:16.086249 26136 cudnn_conv_layer.cpp:194] Reallocating workspace storage: 21676032
I0530 20:27:16.086688 26136 net.cpp:150] Setting up rpn_conv/3x3
I0530 20:27:16.086714 26136 net.cpp:157] Top shape: 1 512 14 14 (100352)
I0530 20:27:16.086737 26136 net.cpp:165] Memory required for data: 266735628
I0530 20:27:16.086778 26136 layer_factory.hpp:77] Creating layer rpn_relu/3x3
I0530 20:27:16.086823 26136 net.cpp:100] Creating Layer rpn_relu/3x3
I0530 20:27:16.086839 26136 net.cpp:444] rpn_relu/3x3 <- rpn/output
I0530 20:27:16.086879 26136 net.cpp:405] rpn_relu/3x3 -> rpn/output (in-place)
I0530 20:27:16.087406 26136 net.cpp:150] Setting up rpn_relu/3x3
I0530 20:27:16.087440 26136 net.cpp:157] Top shape: 1 512 14 14 (100352)
I0530 20:27:16.087445 26136 net.cpp:165] Memory required for data: 267137036
I0530 20:27:16.087453 26136 layer_factory.hpp:77] Creating layer rpn/output_rpn_relu/3x3_0_split
I0530 20:27:16.087473 26136 net.cpp:100] Creating Layer rpn/output_rpn_relu/3x3_0_split
I0530 20:27:16.087484 26136 net.cpp:444] rpn/output_rpn_relu/3x3_0_split <- rpn/output
I0530 20:27:16.087503 26136 net.cpp:418] rpn/output_rpn_relu/3x3_0_split -> rpn/output_rpn_relu/3x3_0_split_0
I0530 20:27:16.087528 26136 net.cpp:418] rpn/output_rpn_relu/3x3_0_split -> rpn/output_rpn_relu/3x3_0_split_1
I0530 20:27:16.087625 26136 net.cpp:150] Setting up rpn/output_rpn_relu/3x3_0_split
I0530 20:27:16.087636 26136 net.cpp:157] Top shape: 1 512 14 14 (100352)
I0530 20:27:16.087642 26136 net.cpp:157] Top shape: 1 512 14 14 (100352)
I0530 20:27:16.087646 26136 net.cpp:165] Memory required for data: 267939852
I0530 20:27:16.087651 26136 layer_factory.hpp:77] Creating layer rpn_cls_score
I0530 20:27:16.087693 26136 net.cpp:100] Creating Layer rpn_cls_score
I0530 20:27:16.087700 26136 net.cpp:444] rpn_cls_score <- rpn/output_rpn_relu/3x3_0_split_0
I0530 20:27:16.087720 26136 net.cpp:418] rpn_cls_score -> rpn_cls_score
I0530 20:27:16.090265 26136 cudnn_conv_layer.cpp:194] Reallocating workspace storage: 10080
I0530 20:27:16.090306 26136 net.cpp:150] Setting up rpn_cls_score
I0530 20:27:16.090324 26136 net.cpp:157] Top shape: 1 22 14 14 (4312)
I0530 20:27:16.090328 26136 net.cpp:165] Memory required for data: 267957100
I0530 20:27:16.090355 26136 layer_factory.hpp:77] Creating layer rpn_bbox_pred
I0530 20:27:16.090394 26136 net.cpp:100] Creating Layer rpn_bbox_pred
I0530 20:27:16.090406 26136 net.cpp:444] rpn_bbox_pred <- rpn/output_rpn_relu/3x3_0_split_1
I0530 20:27:16.090430 26136 net.cpp:418] rpn_bbox_pred -> rpn_bbox_pred
I0530 20:27:16.093948 26136 cudnn_conv_layer.cpp:194] Reallocating workspace storage: 10080
I0530 20:27:16.093976 26136 net.cpp:150] Setting up rpn_bbox_pred
I0530 20:27:16.093986 26136 net.cpp:157] Top shape: 1 44 14 14 (8624)
I0530 20:27:16.093988 26136 net.cpp:165] Memory required for data: 267991596
I0530 20:27:16.094003 26136 layer_factory.hpp:77] Creating layer rpn_cls_score_reshape
I0530 20:27:16.094022 26136 net.cpp:100] Creating Layer rpn_cls_score_reshape
I0530 20:27:16.094028 26136 net.cpp:444] rpn_cls_score_reshape <- rpn_cls_score
I0530 20:27:16.094046 26136 net.cpp:418] rpn_cls_score_reshape -> rpn_cls_score_reshape
I0530 20:27:16.094091 26136 net.cpp:150] Setting up rpn_cls_score_reshape
I0530 20:27:16.094100 26136 net.cpp:157] Top shape: 1 2 154 14 (4312)
I0530 20:27:16.094105 26136 net.cpp:165] Memory required for data: 268008844
I0530 20:27:16.094110 26136 layer_factory.hpp:77] Creating layer rpn_cls_prob
I0530 20:27:16.094123 26136 net.cpp:100] Creating Layer rpn_cls_prob
I0530 20:27:16.094130 26136 net.cpp:444] rpn_cls_prob <- rpn_cls_score_reshape
I0530 20:27:16.094146 26136 net.cpp:418] rpn_cls_prob -> rpn_cls_prob
I0530 20:27:16.094391 26136 net.cpp:150] Setting up rpn_cls_prob
I0530 20:27:16.094403 26136 net.cpp:157] Top shape: 1 2 154 14 (4312)
I0530 20:27:16.094406 26136 net.cpp:165] Memory required for data: 268026092
I0530 20:27:16.094411 26136 layer_factory.hpp:77] Creating layer rpn_cls_prob_reshape
I0530 20:27:16.094425 26136 net.cpp:100] Creating Layer rpn_cls_prob_reshape
I0530 20:27:16.094432 26136 net.cpp:444] rpn_cls_prob_reshape <- rpn_cls_prob
I0530 20:27:16.094449 26136 net.cpp:418] rpn_cls_prob_reshape -> rpn_cls_prob_reshape
I0530 20:27:16.094486 26136 net.cpp:150] Setting up rpn_cls_prob_reshape
I0530 20:27:16.094496 26136 net.cpp:157] Top shape: 1 22 14 14 (4312)
I0530 20:27:16.094499 26136 net.cpp:165] Memory required for data: 268043340
I0530 20:27:16.094504 26136 layer_factory.hpp:77] Creating layer proposal
I0530 20:27:16.094821 26136 net.cpp:100] Creating Layer proposal
I0530 20:27:16.094832 26136 net.cpp:444] proposal <- rpn_cls_prob_reshape
I0530 20:27:16.094846 26136 net.cpp:444] proposal <- rpn_bbox_pred
I0530 20:27:16.094854 26136 net.cpp:444] proposal <- im_info
I0530 20:27:16.094867 26136 net.cpp:418] proposal -> rois
I0530 20:27:16.095989 26136 net.cpp:150] Setting up proposal
I0530 20:27:16.096002 26136 net.cpp:157] Top shape: 1 5 (5)
I0530 20:27:16.096007 26136 net.cpp:165] Memory required for data: 268043360
I0530 20:27:16.096014 26136 layer_factory.hpp:77] Creating layer rois_proposal_0_split
I0530 20:27:16.096027 26136 net.cpp:100] Creating Layer rois_proposal_0_split
I0530 20:27:16.096035 26136 net.cpp:444] rois_proposal_0_split <- rois
I0530 20:27:16.096050 26136 net.cpp:418] rois_proposal_0_split -> rois_proposal_0_split_0
I0530 20:27:16.096068 26136 net.cpp:418] rois_proposal_0_split -> rois_proposal_0_split_1
I0530 20:27:16.096117 26136 net.cpp:150] Setting up rois_proposal_0_split
I0530 20:27:16.096127 26136 net.cpp:157] Top shape: 1 5 (5)
I0530 20:27:16.096132 26136 net.cpp:157] Top shape: 1 5 (5)
I0530 20:27:16.096137 26136 net.cpp:165] Memory required for data: 268043400
I0530 20:27:16.096141 26136 layer_factory.hpp:77] Creating layer conv_new_1
I0530 20:27:16.096159 26136 net.cpp:100] Creating Layer conv_new_1
I0530 20:27:16.096166 26136 net.cpp:444] conv_new_1 <- res5c
I0530 20:27:16.096184 26136 net.cpp:418] conv_new_1 -> conv_new_1
I0530 20:27:16.331557 26136 cudnn_conv_layer.cpp:194] Reallocating workspace storage: 10080
I0530 20:27:16.331594 26136 net.cpp:150] Setting up conv_new_1
I0530 20:27:16.331612 26136 net.cpp:157] Top shape: 1 1024 14 14 (200704)
I0530 20:27:16.331615 26136 net.cpp:165] Memory required for data: 268846216
I0530 20:27:16.331640 26136 layer_factory.hpp:77] Creating layer conv_new_1_relu
I0530 20:27:16.331663 26136 net.cpp:100] Creating Layer conv_new_1_relu
I0530 20:27:16.331674 26136 net.cpp:444] conv_new_1_relu <- conv_new_1
I0530 20:27:16.331693 26136 net.cpp:405] conv_new_1_relu -> conv_new_1 (in-place)
I0530 20:27:16.331856 26136 net.cpp:150] Setting up conv_new_1_relu
I0530 20:27:16.331866 26136 net.cpp:157] Top shape: 1 1024 14 14 (200704)
I0530 20:27:16.331871 26136 net.cpp:165] Memory required for data: 269649032
I0530 20:27:16.331876 26136 layer_factory.hpp:77] Creating layer conv_new_1_conv_new_1_relu_0_split
I0530 20:27:16.331887 26136 net.cpp:100] Creating Layer conv_new_1_conv_new_1_relu_0_split
I0530 20:27:16.331890 26136 net.cpp:444] conv_new_1_conv_new_1_relu_0_split <- conv_new_1
I0530 20:27:16.331903 26136 net.cpp:418] conv_new_1_conv_new_1_relu_0_split -> conv_new_1_conv_new_1_relu_0_split_0
I0530 20:27:16.331918 26136 net.cpp:418] conv_new_1_conv_new_1_relu_0_split -> conv_new_1_conv_new_1_relu_0_split_1
I0530 20:27:16.331979 26136 net.cpp:150] Setting up conv_new_1_conv_new_1_relu_0_split
I0530 20:27:16.331989 26136 net.cpp:157] Top shape: 1 1024 14 14 (200704)
I0530 20:27:16.331995 26136 net.cpp:157] Top shape: 1 1024 14 14 (200704)
I0530 20:27:16.331998 26136 net.cpp:165] Memory required for data: 271254664
I0530 20:27:16.332003 26136 layer_factory.hpp:77] Creating layer rfcn_cls
I0530 20:27:16.332024 26136 net.cpp:100] Creating Layer rfcn_cls
I0530 20:27:16.332032 26136 net.cpp:444] rfcn_cls <- conv_new_1_conv_new_1_relu_0_split_0
I0530 20:27:16.332051 26136 net.cpp:418] rfcn_cls -> rfcn_cls
I0530 20:27:16.344354 26136 cudnn_conv_layer.cpp:194] Reallocating workspace storage: 10080
I0530 20:27:16.344390 26136 net.cpp:150] Setting up rfcn_cls
I0530 20:27:16.344413 26136 net.cpp:157] Top shape: 1 98 14 14 (19208)
I0530 20:27:16.344425 26136 net.cpp:165] Memory required for data: 271331496
I0530 20:27:16.344446 26136 layer_factory.hpp:77] Creating layer rfcn_bbox
I0530 20:27:16.344502 26136 net.cpp:100] Creating Layer rfcn_bbox
I0530 20:27:16.344512 26136 net.cpp:444] rfcn_bbox <- conv_new_1_conv_new_1_relu_0_split_1
I0530 20:27:16.344537 26136 net.cpp:418] rfcn_bbox -> rfcn_bbox
I0530 20:27:16.390916 26136 cudnn_conv_layer.cpp:194] Reallocating workspace storage: 10080
I0530 20:27:16.390955 26136 net.cpp:150] Setting up rfcn_bbox
I0530 20:27:16.390972 26136 net.cpp:157] Top shape: 1 392 14 14 (76832)
I0530 20:27:16.390975 26136 net.cpp:165] Memory required for data: 271638824
I0530 20:27:16.391000 26136 layer_factory.hpp:77] Creating layer psroipooled_cls_rois
I0530 20:27:16.391026 26136 net.cpp:100] Creating Layer psroipooled_cls_rois
I0530 20:27:16.391037 26136 net.cpp:444] psroipooled_cls_rois <- rfcn_cls
I0530 20:27:16.391053 26136 net.cpp:444] psroipooled_cls_rois <- rois_proposal_0_split_0
I0530 20:27:16.391068 26136 net.cpp:418] psroipooled_cls_rois -> psroipooled_cls_rois
I0530 20:27:16.391091 26136 psroi_pooling_layer.cpp:26] Spatial scale: 0.0625
I0530 20:27:16.391149 26136 net.cpp:150] Setting up psroipooled_cls_rois
I0530 20:27:16.391157 26136 net.cpp:157] Top shape: 1 2 7 7 (98)
I0530 20:27:16.391160 26136 net.cpp:165] Memory required for data: 271639216
I0530 20:27:16.391165 26136 layer_factory.hpp:77] Creating layer ave_cls_score_rois
I0530 20:27:16.391180 26136 net.cpp:100] Creating Layer ave_cls_score_rois
I0530 20:27:16.391187 26136 net.cpp:444] ave_cls_score_rois <- psroipooled_cls_rois
I0530 20:27:16.391203 26136 net.cpp:418] ave_cls_score_rois -> cls_score
I0530 20:27:16.391657 26136 net.cpp:150] Setting up ave_cls_score_rois
I0530 20:27:16.391669 26136 net.cpp:157] Top shape: 1 2 1 1 (2)
I0530 20:27:16.391674 26136 net.cpp:165] Memory required for data: 271639224
I0530 20:27:16.391680 26136 layer_factory.hpp:77] Creating layer psroipooled_loc_rois
I0530 20:27:16.391691 26136 net.cpp:100] Creating Layer psroipooled_loc_rois
I0530 20:27:16.391700 26136 net.cpp:444] psroipooled_loc_rois <- rfcn_bbox
I0530 20:27:16.391711 26136 net.cpp:444] psroipooled_loc_rois <- rois_proposal_0_split_1
I0530 20:27:16.391727 26136 net.cpp:418] psroipooled_loc_rois -> psroipooled_loc_rois
I0530 20:27:16.391744 26136 psroi_pooling_layer.cpp:26] Spatial scale: 0.0625
I0530 20:27:16.391789 26136 net.cpp:150] Setting up psroipooled_loc_rois
I0530 20:27:16.391799 26136 net.cpp:157] Top shape: 1 8 7 7 (392)
I0530 20:27:16.391803 26136 net.cpp:165] Memory required for data: 271640792
I0530 20:27:16.391808 26136 layer_factory.hpp:77] Creating layer ave_bbox_pred_rois
I0530 20:27:16.391820 26136 net.cpp:100] Creating Layer ave_bbox_pred_rois
I0530 20:27:16.391827 26136 net.cpp:444] ave_bbox_pred_rois <- psroipooled_loc_rois
I0530 20:27:16.391844 26136 net.cpp:418] ave_bbox_pred_rois -> bbox_pred_pre
I0530 20:27:16.392016 26136 net.cpp:150] Setting up ave_bbox_pred_rois
I0530 20:27:16.392026 26136 net.cpp:157] Top shape: 1 8 1 1 (8)
I0530 20:27:16.392030 26136 net.cpp:165] Memory required for data: 271640824
I0530 20:27:16.392035 26136 layer_factory.hpp:77] Creating layer cls_prob
I0530 20:27:16.392050 26136 net.cpp:100] Creating Layer cls_prob
I0530 20:27:16.392056 26136 net.cpp:444] cls_prob <- cls_score
I0530 20:27:16.392069 26136 net.cpp:418] cls_prob -> cls_prob_pre
I0530 20:27:16.392280 26136 net.cpp:150] Setting up cls_prob
I0530 20:27:16.392290 26136 net.cpp:157] Top shape: 1 2 1 1 (2)
I0530 20:27:16.392294 26136 net.cpp:165] Memory required for data: 271640832
I0530 20:27:16.392300 26136 layer_factory.hpp:77] Creating layer cls_prob_reshape
I0530 20:27:16.392315 26136 net.cpp:100] Creating Layer cls_prob_reshape
I0530 20:27:16.392323 26136 net.cpp:444] cls_prob_reshape <- cls_prob_pre
I0530 20:27:16.392338 26136 net.cpp:418] cls_prob_reshape -> cls_prob
I0530 20:27:16.392379 26136 net.cpp:150] Setting up cls_prob_reshape
I0530 20:27:16.392387 26136 net.cpp:157] Top shape: 1 2 (2)
I0530 20:27:16.392391 26136 net.cpp:165] Memory required for data: 271640840
I0530 20:27:16.392395 26136 layer_factory.hpp:77] Creating layer bbox_pred_reshape
I0530 20:27:16.392407 26136 net.cpp:100] Creating Layer bbox_pred_reshape
I0530 20:27:16.392415 26136 net.cpp:444] bbox_pred_reshape <- bbox_pred_pre
I0530 20:27:16.392431 26136 net.cpp:418] bbox_pred_reshape -> bbox_pred
I0530 20:27:16.392467 26136 net.cpp:150] Setting up bbox_pred_reshape
I0530 20:27:16.392474 26136 net.cpp:157] Top shape: 1 8 (8)
I0530 20:27:16.392478 26136 net.cpp:165] Memory required for data: 271640872
I0530 20:27:16.392484 26136 net.cpp:228] bbox_pred_reshape does not need backward computation.
I0530 20:27:16.392490 26136 net.cpp:228] cls_prob_reshape does not need backward computation.
I0530 20:27:16.392495 26136 net.cpp:228] cls_prob does not need backward computation.
I0530 20:27:16.392500 26136 net.cpp:228] ave_bbox_pred_rois does not need backward computation.
…
