…
snapshot_prefix: "resnet50_rfcn_ohem"
iter_size: 8
I0625 11:56:04.066094  4216 solver.cpp:81] Creating training net from train_net file: /home/user/Disk1.8T/py_R_FCN_6_25/experiments/6_25_head/train_agnostic_ohem.prototxt
I0625 11:56:04.068032  4216 net.cpp:58] Initializing net from parameters: 
name: "ResNet-50"
state {
  phase: TRAIN
}
layer {
  name: "input-data"
  type: "Python"
  top: "data"
  top: "im_info"
  top: "gt_boxes"
  python_param {
    module: "roi_data_layer.layer"
    layer: "RoIDataLayer"
    param_str: "\'num_classes\': 2"
  }
}
layer {
  name: "conv1"
  type: "Convolution"
  bottom: "data"
  top: "conv1"
  param {
    lr_mult: 0
  }
  param {
    lr_mult: 0
  }
  convolution_param {
    num_output: 64
    pad: 3
    kernel_size: 7
    stride: 2
  }
}
layer {
  name: "bn_conv1"
  type: "BatchNorm"
  bottom: "conv1"
  top: "conv1"
  param {
    lr_mult: 0
    decay_mult: 0
  }
  param {
    lr_mult: 0
    decay_mult: 0
  }
  param {
    lr_mult: 0
    decay_mult: 0
  }
  batch_norm_param {
    use_global_stats: true
  }
}
layer {
  name: "scale_conv1"
  type: "Scale"
  bottom: "conv1"
  top: "conv1"
  param {
    lr_mult: 0
    decay_mult: 0
  }
  param {
    lr_mult: 0
    decay_mult: 0
  }
  scale_param {
    bias_term: true
  }
}
layer {
  name: "conv1_relu"
  type: "ReLU"
  bottom: "conv1"
  top: "conv1"
}
layer {
  name: "pool1"
  type: "Pooling"
  bottom: "conv1"
  top: "pool1"
  pooling_param {
    pool: MAX
    kernel_size: 3
    stride: 2
  }
}
layer {
  name: "res2a_branch1"
  type: "Convolution"
  bottom: "pool1"
  top: "res2a_branch1"
  param {
    lr_mult: 0
  }
  convolution_param {
    num_output: 256
    bias_term: false
    pad: 0
    kernel_size: 1
    stride: 1
  }
}
layer {
  name: "bn2a_branch1"
  type: "BatchNorm"
  bottom: "res2a_branch1"
  top: "res2a_branch1"
  param {
    lr_mult: 0
    decay_mult: 0
  }
  param {
    lr_mult: 0
    decay_mult: 0
  }
  param {
    lr_mult: 0
    decay_mult: 0
  }
  batch_norm_param {
    use_global_stats: true
  }
}
layer {
  name: "scale2a_branch1"
  type: "Scale"
  bottom: "res2a_branch1"
  top: "res2a_branch1"
  param {
    lr_mult: 0
    decay_mult: 0
  }
  param {
    lr_mult: 0
    decay_mult: 0
  }
  scale_param {
    bias_term: true
  }
}
layer {
  name: "res2a_branch2a"
  type: "Convolution"
  bottom: "pool1"
  top: "res2a_branch2a"
  param {
    lr_mult: 0
  }
  convolution_param {
    num_output: 64
    bias_term: false
    pad: 0
    kernel_size: 1
    stride: 1
  }
}
layer {
  name: "bn2a_branch2a"
  type: "BatchNorm"
  bottom: "res2a_branch2a"
  top: "res2a_branch2a"
  param {
    lr_mult: 0
    decay_mult: 0
  }
  param {
    lr_mult: 0
    decay_mult: 0
  }
  param {
    lr_mult: 0
    decay_mult: 0
  }
  batch_norm_param {
    use_global_stats: true
  }
}
layer {
  name: "scale2a_branch2a"
  type: "Scale"
  bottom: "res2a_branch2a"
  top: "res2a_branch2a"
  param {
    lr_mult: 0
    decay_mult: 0
  }
  param {
    lr_mult: 0
    decay_mult: 0
  }
  scale_param {
    bias_term: true
  }
}
layer {
  name: "res2a_branch2a_relu"
  type: "ReLU"
  bottom: "res2a_branch2a"
  top: "res2a_branch2a"
}
layer {
  name: "res2a_branch2b"
  type: "Convolution"
  bottom: "res2a_branch2a"
  top: "res2a_branch2b"
  param {
    lr_mult: 0
  }
  convolution_param {
    num_output: 64
    bias_term: false
    pad: 1
    kernel_size: 3
    stride: 1
  }
}
layer {
  name: "bn2a_branch2b"
  type: "BatchNorm"
  bottom: "res2a_branch2b"
  top: "res2a_branch2b"
  param {
    lr_mult: 0
    decay_mult: 0
  }
  param {
    lr_mult: 0
    decay_mult: 0
  }
  param {
    lr_mult: 0
    decay_mult: 0
  }
  batch_norm_param {
    use_global_stats: true
  }
}
layer {
  name: "scale2a_branch2b"
  type: "Scale"
  bottom: "res2a_branch2b"
  top: "res2a_branch2b"
  param {
    lr_mult: 0
    decay_mult: 0
  }
  param {
    lr_mult: 0
    decay_mult: 0
  }
  scale_param {
    bias_term: true
  }
}
layer {
  name: "res2a_branch2b_relu"
  type: "ReLU"
  bottom: "res2a_branch2b"
  top: "res2a_branch2b"
}
layer {
  name: "res2a_branch2c"
  type: "Convolution"
  bottom: "res2a_branch2b"
  top: "res2a_branch2c"
  param {
    lr_mult: 0
  }
  convolution_param {
    num_output: 256
    bias_term: false
    pad: 0
    kernel_size: 1
    stride: 1
  }
}
layer {
  name: "bn2a_branch2c"
  type: "BatchNorm"
  bottom: "res2a_branch2c"
  top: "res2a_branch2c"
  param {
    lr_mult: 0
    decay_mult: 0
  }
  param {
    lr_mult: 0
    decay_mult: 0
  }
  param {
    lr_mult: 0
    decay_mult: 0
  }
  batch_norm_param {
    use_global_stats: true
  }
}
layer {
  name: "scale2a_branch2c"
  type: "Scale"
  bottom: "res2a_branch2c"
  top: "res2a_branch2c"
  param {
    lr_mult: 0
    decay_mult: 0
  }
  param {
    lr_mult: 0
    decay_mult: 0
  }
  scale_param {
    bias_term: true
  }
}
layer {
  name: "res2a"
  type: "Eltwise"
  bottom: "res2a_branch1"
  bottom: "res2a_branch2c"
  top: "res2a"
}
layer {
  name: "res2a_relu"
  type: "ReLU"
  bottom: "res2a"
  top: "res2a"
}
layer {
  name: "res2b_branch2a"
  type: "Convolution"
  bottom: "res2a"
  top: "res2b_branch2a"
  param {
    lr_mult: 0
  }
  convolution_param {
    num_output: 64
    bias_term: false
    pad: 0
    kernel_size: 1
    stride: 1
  }
}
layer {
  name: "bn2b_branch2a"
  type: "BatchNorm"
  bottom: "res2b_branch2a"
  top: "res2b_branch2a"
  param {
    lr_mult: 0
    decay_mult: 0
  }
  param {
    lr_mult: 0
    decay_mult: 0
  }
  param {
    lr_mult: 0
    decay_mult: 0
  }
  batch_norm_param {
    use_global_stats: true
  }
}
layer {
  name: "scale2b_branch2a"
  type: "Scale"
  bottom: "res2b_branch2a"
  top: "res2b_branch2a"
  param {
    lr_mult: 0
    decay_mult: 0
  }
  param {
    lr_mult: 0
    decay_mult: 0
  }
  scale_param {
    bias_term: true
  }
}
layer {
  name: "res2b_branch2a_relu"
  type: "ReLU"
  bottom: "res2b_branch2a"
  top: "res2b_branch2a"
}
layer {
  name: "res2b_branch2b"
  type: "Convolution"
  bottom: "res2b_branch2a"
  top: "res2b_branch2b"
  param {
    lr_mult: 0
  }
  convolution_param {
    num_output: 64
    bias_term: false
    pad: 1
    kernel_size: 3
    stride: 1
  }
}
layer {
  name: "bn2b_branch2b"
  type: "BatchNorm"
  bottom: "res2b_branch2b"
  top: "res2b_branch2b"
  param {
    lr_mult: 0
    decay_mult: 0
  }
  param {
    lr_mult: 0
    decay_mult: 0
  }
  param {
    lr_mult: 0
    decay_mult: 0
  }
  batch_norm_param {
    use_global_stats: true
  }
}
layer {
  name: "scale2b_branch2b"
  type: "Scale"
  bottom: "res2b_branch2b"
  top: "res2b_branch2b"
  param {
    lr_mult: 0
    decay_mult: 0
  }
  param {
    lr_mult: 0
    decay_mult: 0
  }
  scale_param {
    bias_term: true
  }
}
layer {
  name: "res2b_branch2b_relu"
  type: "ReLU"
  bottom: "res2b_branch2b"
  top: "res2b_branch2b"
}
layer {
  name: "res2b_branch2c"
  type: "Convolution"
  bottom: "res2b_branch2b"
  top: "res2b_branch2c"
  param {
    lr_mult: 0
  }
  convolution_param {
    num_output: 256
    bias_term: false
    pad: 0
    kernel_size: 1
    stride: 1
  }
}
layer {
  name: "bn2b_branch2c"
  type: "BatchNorm"
  bottom: "res2b_branch2c"
  top: "res2b_branch2c"
  param {
    lr_mult: 0
    decay_mult: 0
  }
  param {
    lr_mult: 0
    decay_mult: 0
  }
  param {
    lr_mult: 0
    decay_mult: 0
  }
  batch_norm_param {
    use_global_stats: true
  }
}
layer {
  name: "scale2b_branch2c"
  type: "Scale"
  bottom: "res2b_branch2c"
  top: "res2b_branch2c"
  param {
    lr_mult: 0
    decay_mult: 0
  }
  param {
    lr_mult: 0
    decay_mult: 0
  }
  scale_param {
    bias_term: true
  }
}
layer {
  name: "res2b"
  type: "Eltwise"
  bottom: "res2a"
  bottom: "res2b_branch2c"
  top: "res2b"
}
layer {
  name: "res2b_relu"
  type: "ReLU"
  bottom: "res2b"
  top: "res2b"
}
layer {
  name: "res2c_branch2a"
  type: "Convolution"
  bottom: "res2b"
  top: "res2c_branch2a"
  param {
    lr_mult: 0
  }
  convolution_param {
    num_output: 64
    bias_term: false
    pad: 0
    kernel_size: 1
    stride: 1
  }
}
layer {
  name: "bn2c_branch2a"
  type: "BatchNorm"
  bottom: "res2c_branch2a"
  top: "res2c_branch2a"
  param {
    lr_mult: 0
    decay_mult: 0
  }
  param {
    lr_mult: 0
    decay_mult: 0
  }
  param {
    lr_mult: 0
    decay_mult: 0
  }
  batch_norm_param {
    use_global_stats: true
  }
}
layer {
  name: "scale2c_branch2a"
  type: "Scale"
  bottom: "res2c_branch2a"
  top: "res2c_branch2a"
  param {
    lr_mult: 0
    decay_mult: 0
  }
  param {
    lr_mult: 0
    decay_mult: 0
  }
  scale_param {
    bias_term: true
  }
}
layer {
  name: "res2c_branch2a_relu"
  type: "ReLU"
  bottom: "res2c_branch2a"
  top: "res2c_branch2a"
}
layer {
  name: "res2c_branch2b"
  type: "Convolution"
  bottom: "res2c_branch2a"
  top: "res2c_branch2b"
  param {
    lr_mult: 0
  }
  convolution_param {
    num_output: 64
    bias_term: false
    pad: 1
    kernel_size: 3
    stride: 1
  }
}
layer {
  name: "bn2c_branch2b"
  type: "BatchNorm"
  bottom: "res2c_branch2b"
  top: "res2c_branch2b"
  param {
    lr_mult: 0
    decay_mult: 0
  }
  param {
    lr_mult: 0
    decay_mult: 0
  }
  param {
    lr_mult: 0
    decay_mult: 0
  }
  batch_norm_param {
    use_global_stats: true
  }
}
layer {
  name: "scale2c_branch2b"
  type: "Scale"
  bottom: "res2c_branch2b"
  top: "res2c_branch2b"
  param {
    lr_mult: 0
    decay_mult: 0
  }
  param {
    lr_mult: 0
    decay_mult: 0
  }
  scale_param {
    bias_term: true
  }
}
layer {
  name: "res2c_branch2b_relu"
  type: "ReLU"
  bottom: "res2c_branch2b"
  top: "res2c_branch2b"
}
layer {
  name: "res2c_branch2c"
  type: "Convolution"
  bottom: "res2c_branch2b"
  top: "res2c_branch2c"
  param {
    lr_mult: 0
  }
  convolution_param {
    num_output: 256
    bias_term: false
    pad: 0
    kernel_size: 1
    stride: 1
  }
}
layer {
  name: "bn2c_branch2c"
  type: "BatchNorm"
  bottom: "res2c_branch2c"
  top: "res2c_branch2c"
  param {
    lr_mult: 0
    decay_mult: 0
  }
  param {
    lr_mult: 0
    decay_mult: 0
  }
  param {
    lr_mult: 0
    decay_mult: 0
  }
  batch_norm_param {
    use_global_stats: true
  }
}
layer {
  name: "scale2c_branch2c"
  type: "Scale"
  bottom: "res2c_branch2c"
  top: "res2c_branch2c"
  param {
    lr_mult: 0
    decay_mult: 0
  }
  param {
    lr_mult: 0
    decay_mult: 0
  }
  scale_param {
    bias_term: true
  }
}
layer {
  name: "res2c"
  type: "Eltwise"
  bottom: "res2b"
  bottom: "res2c_branch2c"
  top: "res2c"
}
layer {
  name: "res2c_relu"
  type: "ReLU"
  bottom: "res2c"
  top: "res2c"
}
layer {
  name: "res3a_branch1"
  type: "Convolution"
  bottom: "res2c"
  top: "res3a_branch1"
  param {
    lr_mult: 1
  }
  convolution_param {
    num_output: 512
    bias_term: false
    pad: 0
    kernel_size: 1
    stride: 2
  }
}
layer {
  name: "bn3a_branch1"
  type: "BatchNorm"
  bottom: "res3a_branch1"
  top: "res3a_branch1"
  param {
    lr_mult: 0
    decay_mult: 0
  }
  param {
    lr_mult: 0
    decay_mult: 0
  }
  param {
    lr_mult: 0
    decay_mult: 0
  }
  batch_norm_param {
    use_global_stats: true
  }
}
layer {
  name: "scale3a_branch1"
  type: "Scale"
  bottom: "res3a_branch1"
  top: "res3a_branch1"
  param {
    lr_mult: 0
    decay_mult: 0
  }
  param {
    lr_mult: 0
    decay_mult: 0
  }
  scale_param {
    bias_term: true
  }
}
layer {
  name: "res3a_branch2a"
  type: "Convolution"
  bottom: "res2c"
  top: "res3a_branch2a"
  param {
    lr_mult: 1
  }
  convolution_param {
    num_output: 128
    bias_term: false
    pad: 0
    kernel_size: 1
    stride: 2
  }
}
layer {
  name: "bn3a_branch2a"
  type: "BatchNorm"
  bottom: "res3a_branch2a"
  top: "res3a_branch2a"
  param {
    lr_mult: 0
    decay_mult: 0
  }
  param {
    lr_mult: 0
    decay_mult: 0
  }
  param {
    lr_mult: 0
    decay_mult: 0
  }
  batch_norm_param {
    use_global_stats: true
  }
}
layer {
  name: "scale3a_branch2a"
  type: "Scale"
  bottom: "res3a_branch2a"
  top: "res3a_branch2a"
  param {
    lr_mult: 0
    decay_mult: 0
  }
  param {
    lr_mult: 0
    decay_mult: 0
  }
  scale_param {
    bias_term: true
  }
}
layer {
  name: "res3a_branch2a_relu"
  type: "ReLU"
  bottom: "res3a_branch2a"
  top: "res3a_branch2a"
}
layer {
  name: "res3a_branch2b"
  type: "Convolution"
  bottom: "res3a_branch2a"
  top: "res3a_branch2b"
  param {
    lr_mult: 1
  }
  convolution_param {
    num_output: 128
    bias_term: false
    pad: 1
    kernel_size: 3
    stride: 1
  }
}
layer {
  name: "bn3a_branch2b"
  type: "BatchNorm"
  bottom: "res3a_branch2b"
  top: "res3a_branch2b"
  param {
    lr_mult: 0
    decay_mult: 0
  }
  param {
    lr_mult: 0
    decay_mult: 0
  }
  param {
    lr_mult: 0
    decay_mult: 0
  }
  batch_norm_param {
    use_global_stats: true
  }
}
layer {
  name: "scale3a_branch2b"
  type: "Scale"
  bottom: "res3a_branch2b"
  top: "res3a_branch2b"
  param {
    lr_mult: 0
    decay_mult: 0
  }
  param {
    lr_mult: 0
    decay_mult: 0
  }
  scale_param {
    bias_term: true
  }
}
layer {
  name: "res3a_branch2b_relu"
  type: "ReLU"
  bottom: "res3a_branch2b"
  top: "res3a_branch2b"
}
layer {
  name: "res3a_branch2c"
  type: "Convolution"
  bottom: "res3a_branch2b"
  top: "res3a_branch2c"
  param {
    lr_mult: 1
  }
  convolution_param {
    num_output: 512
    bias_term: false
    pad: 0
    kernel_size: 1
    stride: 1
  }
}
layer {
  name: "bn3a_branch2c"
  type: "BatchNorm"
  bottom: "res3a_branch2c"
  top: "res3a_branch2c"
  param {
    lr_mult: 0
    decay_mult: 0
  }
  param {
    lr_mult: 0
    decay_mult: 0
  }
  param {
    lr_mult: 0
    decay_mult: 0
  }
  batch_norm_param {
    use_global_stats: true
  }
}
layer {
  name: "scale3a_branch2c"
  type: "Scale"
  bottom: "res3a_branch2c"
  top: "res3a_branch2c"
  param {
    lr_mult: 0
    decay_mult: 0
  }
  param {
    lr_mult: 0
    decay_mult: 0
  }
  scale_param {
    bias_term: true
  }
}
layer {
  name: "res3a"
  type: "Eltwise"
  bottom: "res3a_branch1"
  bottom: "res3a_branch2c"
  top: "res3a"
}
layer {
  name: "res3a_relu"
  type: "ReLU"
  bottom: "res3a"
  top: "res3a"
}
layer {
  name: "res3b_branch2a"
  type: "Convolution"
  bottom: "res3a"
  top: "res3b_branch2a"
  param {
    lr_mult: 1
  }
  convolution_param {
    num_output: 128
    bias_term: false
    pad: 0
    kernel_size: 1
    stride: 1
  }
}
layer {
  name: "bn3b_branch2a"
  type: "BatchNorm"
  bottom: "res3b_branch2a"
  top: "res3b_branch2a"
  param {
    lr_mult: 0
    decay_mult: 0
  }
  param {
    lr_mult: 0
    decay_mult: 0
  }
  param {
    lr_mult: 0
    decay_mult: 0
  }
  batch_norm_param {
    use_global_stats: true
  }
}
layer {
  name: "scale3b_branch2a"
  type: "Scale"
  bottom: "res3b_branch2a"
  top: "res3b_branch2a"
  param {
    lr_mult: 0
    decay_mult: 0
  }
  param {
    lr_mult: 0
    decay_mult: 0
  }
  scale_param {
    bias_term: true
  }
}
layer {
  name: "res3b_branch2a_relu"
  type: "ReLU"
  bottom: "res3b_branch2a"
  top: "res3b_branch2a"
}
layer {
  name: "res3b_branch2b"
  type: "Convolution"
  bottom: "res3b_branch2a"
  top: "res3b_branch2b"
  param {
    lr_mult: 1
  }
  convolution_param {
    num_output: 128
    bias_term: false
    pad: 1
    kernel_size: 3
    stride: 1
  }
}
layer {
  name: "bn3b_branch2b"
  type: "BatchNorm"
  bottom: "res3b_branch2b"
  top: "res3b_branch2b"
  param {
    lr_mult: 0
    decay_mult: 0
  }
  param {
    lr_mult: 0
    decay_mult: 0
  }
  param {
    lr_mult: 0
    decay_mult: 0
  }
  batch_norm_param {
    use_global_stats: true
  }
}
layer {
  name: "scale3b_branch2b"
  type: "Scale"
  bottom: "res3b_branch2b"
  top: "res3b_branch2b"
  param {
    lr_mult: 0
    decay_mult: 0
  }
  param {
    lr_mult: 0
    decay_mult: 0
  }
  scale_param {
    bias_term: true
  }
}
layer {
  name: "res3b_branch2b_relu"
  type: "ReLU"
  bottom: "res3b_branch2b"
  top: "res3b_branch2b"
}
layer {
  name: "res3b_branch2c"
  type: "Convolution"
  bottom: "res3b_branch2b"
  top: "res3b_branch2c"
  param {
    lr_mult: 1
  }
  convolution_param {
    num_output: 512
    bias_term: false
    pad: 0
    kernel_size: 1
    stride: 1
  }
}
layer {
  name: "bn3b_branch2c"
  type: "BatchNorm"
  bottom: "res3b_branch2c"
  top: "res3b_branch2c"
  param {
    lr_mult: 0
    decay_mult: 0
  }
  param {
    lr_mult: 0
    decay_mult: 0
  }
  param {
    lr_mult: 0
    decay_mult: 0
  }
  batch_norm_param {
    use_global_stats: true
  }
}
layer {
  name: "scale3b_branch2c"
  type: "Scale"
  bottom: "res3b_branch2c"
  top: "res3b_branch2c"
  param {
    lr_mult: 0
    decay_mult: 0
  }
  param {
    lr_mult: 0
    decay_mult: 0
  }
  scale_param {
    bias_term: true
  }
}
layer {
  name: "res3b"
  type: "Eltwise"
  bottom: "res3a"
  bottom: "res3b_branch2c"
  top: "res3b"
}
layer {
  name: "res3b_relu"
  type: "ReLU"
  bottom: "res3b"
  top: "res3b"
}
layer {
  name: "res3c_branch2a"
  type: "Convolution"
  bottom: "res3b"
  top: "res3c_branch2a"
  param {
    lr_mult: 1
  }
  convolution_param {
    num_output: 128
    bias_term: false
    pad: 0
    kernel_size: 1
    stride: 1
  }
}
layer {
  name: "bn3c_branch2a"
  type: "BatchNorm"
  bottom: "res3c_branch2a"
  top: "res3c_branch2a"
  param {
    lr_mult: 0
    decay_mult: 0
  }
  param {
    lr_mult: 0
    decay_mult: 0
  }
  param {
    lr_mult: 0
    decay_mult: 0
  }
  batch_norm_param {
    use_global_stats: true
  }
}
layer {
  name: "scale3c_branch2a"
  type: "Scale"
  bottom: "res3c_branch2a"
  top: "res3c_branch2a"
  param {
    lr_mult: 0
    decay_mult: 0
  }
  param {
    lr_mult: 0
    decay_mult: 0
  }
  scale_param {
    bias_term: true
  }
}
layer {
  name: "res3c_branch2a_relu"
  type: "ReLU"
  bottom: "res3c_branch2a"
  top: "res3c_branch2a"
}
layer {
  name: "res3c_branch2b"
  type: "Convolution"
  bottom: "res3c_branch2a"
  top: "res3c_branch2b"
  param {
    lr_mult: 1
  }
  convolution_param {
    num_output: 128
    bias_term: false
    pad: 1
    kernel_size: 3
    stride: 1
  }
}
layer {
  name: "bn3c_branch2b"
  type: "BatchNorm"
  bottom: "res3c_branch2b"
  top: "res3c_branch2b"
  param {
    lr_mult: 0
    decay_mult: 0
  }
  param {
    lr_mult: 0
    decay_mult: 0
  }
  param {
    lr_mult: 0
    decay_mult: 0
  }
  batch_norm_param {
    use_global_stats: true
  }
}
layer {
  name: "scale3c_branch2b"
  type: "Scale"
  bottom: "res3c_branch2b"
  top: "res3c_branch2b"
  param {
    lr_mult: 0
    decay_mult: 0
  }
  param {
    lr_mult: 0
    decay_mult: 0
  }
  scale_param {
    bias_term: true
  }
}
layer {
  name: "res3c_branch2b_relu"
  type: "ReLU"
  bottom: "res3c_branch2b"
  top: "res3c_branch2b"
}
layer {
  name: "res3c_branch2c"
  type: "Convolution"
  bottom: "res3c_branch2b"
  top: "res3c_branch2c"
  param {
    lr_mult: 1
  }
  convolution_param {
    num_output: 512
    bias_term: false
    pad: 0
    kernel_size: 1
    stride: 1
  }
}
layer {
  name: "bn3c_branch2c"
  type: "BatchNorm"
  bottom: "res3c_branch2c"
  top: "res3c_branch2c"
  param {
    lr_mult: 0
    decay_mult: 0
  }
  param {
    lr_mult: 0
    decay_mult: 0
  }
  param {
    lr_mult: 0
    decay_mult: 0
  }
  batch_norm_param {
    use_global_stats: true
  }
}
layer {
  name: "scale3c_branch2c"
  type: "Scale"
  bottom: "res3c_branch2c"
  top: "res3c_branch2c"
  param {
    lr_mult: 0
    decay_mult: 0
  }
  param {
    lr_mult: 0
    decay_mult: 0
  }
  scale_param {
    bias_term: true
  }
}
layer {
  name: "res3c"
  type: "Eltwise"
  bottom: "res3b"
  bottom: "res3c_branch2c"
  top: "res3c"
}
layer {
  name: "res3c_relu"
  type: "ReLU"
  bottom: "res3c"
  top: "res3c"
}
layer {
  name: "res3d_branch2a"
  type: "Convolution"
  bottom: "res3c"
  top: "res3d_branch2a"
  param {
    lr_mult: 1
  }
  convolution_param {
    num_output: 128
    bias_term: false
    pad: 0
    kernel_size: 1
    stride: 1
  }
}
layer {
  name: "bn3d_branch2a"
  type: "BatchNorm"
  bottom: "res3d_branch2a"
  top: "res3d_branch2a"
  param {
    lr_mult: 0
    decay_mult: 0
  }
  param {
    lr_mult: 0
    decay_mult: 0
  }
  param {
    lr_mult: 0
    decay_mult: 0
  }
  batch_norm_param {
    use_global_stats: true
  }
}
layer {
  name: "scale3d_branch2a"
  type: "Scale"
  bottom: "res3d_branch2a"
  top: "res3d_branch2a"
  param {
    lr_mult: 0
    decay_mult: 0
  }
  param {
    lr_mult: 0
    decay_mult: 0
  }
  scale_param {
    bias_term: true
  }
}
layer {
  name: "res3d_branch2a_relu"
  type: "ReLU"
  bottom: "res3d_branch2a"
  top: "res3d_branch2a"
}
layer {
  name: "res3d_branch2b"
  type: "Convolution"
  bottom: "res3d_branch2a"
  top: "res3d_branch2b"
  param {
    lr_mult: 1
  }
  convolution_param {
    num_output: 128
    bias_term: false
    pad: 1
    kernel_size: 3
    stride: 1
  }
}
layer {
  name: "bn3d_branch2b"
  type: "BatchNorm"
  bottom: "res3d_branch2b"
  top: "res3d_branch2b"
  param {
    lr_mult: 0
    decay_mult: 0
  }
  param {
    lr_mult: 0
    decay_mult: 0
  }
  param {
    lr_mult: 0
    decay_mult: 0
  }
  batch_norm_param {
    use_global_stats: true
  }
}
layer {
  name: "scale3d_branch2b"
  type: "Scale"
  bottom: "res3d_branch2b"
  top: "res3d_branch2b"
  param {
    lr_mult: 0
    decay_mult: 0
  }
  param {
    lr_mult: 0
    decay_mult: 0
  }
  scale_param {
    bias_term: true
  }
}
layer {
  name: "res3d_branch2b_relu"
  type: "ReLU"
  bottom: "res3d_branch2b"
  top: "res3d_branch2b"
}
layer {
  name: "res3d_branch2c"
  type: "Convolution"
  bottom: "res3d_branch2b"
  top: "res3d_branch2c"
  param {
    lr_mult: 1
  }
  convolution_param {
    num_output: 512
    bias_term: false
    pad: 0
    kernel_size: 1
    stride: 1
  }
}
layer {
  name: "bn3d_branch2c"
  type: "BatchNorm"
  bottom: "res3d_branch2c"
  top: "res3d_branch2c"
  param {
    lr_mult: 0
    decay_mult: 0
  }
  param {
    lr_mult: 0
    decay_mult: 0
  }
  param {
    lr_mult: 0
    decay_mult: 0
  }
  batch_norm_param {
    use_global_stats: true
  }
}
layer {
  name: "scale3d_branch2c"
  type: "Scale"
  bottom: "res3d_branch2c"
  top: "res3d_branch2c"
  param {
    lr_mult: 0
    decay_mult: 0
  }
  param {
    lr_mult: 0
    decay_mult: 0
  }
  scale_param {
    bias_term: true
  }
}
layer {
  name: "res3d"
  type: "Eltwise"
  bottom: "res3c"
  bottom: "res3d_branch2c"
  top: "res3d"
}
layer {
  name: "res3d_relu"
  type: "ReLU"
  bottom: "res3d"
  top: "res3d"
}
layer {
  name: "res4a_branch1"
  type: "Convolution"
  bottom: "res3d"
  top: "res4a_branch1"
  param {
    lr_mult: 1
  }
  convolution_param {
    num_output: 1024
    bias_term: false
    pad: 0
    kernel_size: 1
    stride: 2
  }
}
layer {
  name: "bn4a_branch1"
  type: "BatchNorm"
  bottom: "res4a_branch1"
  top: "res4a_branch1"
  param {
    lr_mult: 0
    decay_mult: 0
  }
  param {
    lr_mult: 0
    decay_mult: 0
  }
  param {
    lr_mult: 0
    decay_mult: 0
  }
  batch_norm_param {
    use_global_stats: true
  }
}
layer {
  name: "scale4a_branch1"
  type: "Scale"
  bottom: "res4a_branch1"
  top: "res4a_branch1"
  param {
    lr_mult: 0
    decay_mult: 0
  }
  param {
    lr_mult: 0
    decay_mult: 0
  }
  scale_param {
    bias_term: true
  }
}
layer {
  name: "res4a_branch2a"
  type: "Convolution"
  bottom: "res3d"
  top: "res4a_branch2a"
  param {
    lr_mult: 1
  }
  convolution_param {
    num_output: 256
    bias_term: false
    pad: 0
    kernel_size: 1
    stride: 2
  }
}
layer {
  name: "bn4a_branch2a"
  type: "BatchNorm"
  bottom: "res4a_branch2a"
  top: "res4a_branch2a"
  param {
    lr_mult: 0
    decay_mult: 0
  }
  param {
    lr_mult: 0
    decay_mult: 0
  }
  param {
    lr_mult: 0
    decay_mult: 0
  }
  batch_norm_param {
    use_global_stats: true
  }
}
layer {
  name: "scale4a_branch2a"
  type: "Scale"
  bottom: "res4a_branch2a"
  top: "res4a_branch2a"
  param {
    lr_mult: 0
    decay_mult: 0
  }
  param {
    lr_mult: 0
    decay_mult: 0
  }
  scale_param {
    bias_term: true
  }
}
layer {
  name: "res4a_branch2a_relu"
  type: "ReLU"
  bottom: "res4a_branch2a"
  top: "res4a_branch2a"
}
layer {
  name: "res4a_branch2b"
  type: "Convolution"
  bottom: "res4a_branch2a"
  top: "res4a_branch2b"
  param {
    lr_mult: 1
  }
  convolution_param {
    num_output: 256
    bias_term: false
    pad: 1
    kernel_size: 3
    stride: 1
  }
}
layer {
  name: "bn4a_branch2b"
  type: "BatchNorm"
  bottom: "res4a_branch2b"
  top: "res4a_branch2b"
  param {
    lr_mult: 0
    decay_mult: 0
  }
  param {
    lr_mult: 0
    decay_mult: 0
  }
  param {
    lr_mult: 0
    decay_mult: 0
  }
  batch_norm_param {
    use_global_stats: true
  }
}
layer {
  name: "scale4a_branch2b"
  type: "Scale"
  bottom: "res4a_branch2b"
  top: "res4a_branch2b"
  param {
    lr_mult: 0
    decay_mult: 0
  }
  param {
    lr_mult: 0
    decay_mult: 0
  }
  scale_param {
    bias_term: true
  }
}
layer {
  name: "res4a_branch2b_relu"
  type: "ReLU"
  bottom: "res4a_branch2b"
  top: "res4a_branch2b"
}
layer {
  name: "res4a_branch2c"
  type: "Convolution"
  bottom: "res4a_branch2b"
  top: "res4a_branch2c"
  param {
    lr_mult: 1
  }
  convolution_param {
    num_output: 1024
    bias_term: false
    pad: 0
    kernel_size: 1
    stride: 1
  }
}
layer {
  name: "bn4a_branch2c"
  type: "BatchNorm"
  bottom: "res4a_branch2c"
  top: "res4a_branch2c"
  param {
    lr_mult: 0
    decay_mult: 0
  }
  param {
    lr_mult: 0
    decay_mult: 0
  }
  param {
    lr_mult: 0
    decay_mult: 0
  }
  batch_norm_param {
    use_global_stats: true
  }
}
layer {
  name: "scale4a_branch2c"
  type: "Scale"
  bottom: "res4a_branch2c"
  top: "res4a_branch2c"
  param {
    lr_mult: 0
    decay_mult: 0
  }
  param {
    lr_mult: 0
    decay_mult: 0
  }
  scale_param {
    bias_term: true
  }
}
layer {
  name: "res4a"
  type: "Eltwise"
  bottom: "res4a_branch1"
  bottom: "res4a_branch2c"
  top: "res4a"
}
layer {
  name: "res4a_relu"
  type: "ReLU"
  bottom: "res4a"
  top: "res4a"
}
layer {
  name: "res4b_branch2a"
  type: "Convolution"
  bottom: "res4a"
  top: "res4b_branch2a"
  param {
    lr_mult: 1
  }
  convolution_param {
    num_output: 256
    bias_term: false
    pad: 0
    kernel_size: 1
    stride: 1
  }
}
layer {
  name: "bn4b_branch2a"
  type: "BatchNorm"
  bottom: "res4b_branch2a"
  top: "res4b_branch2a"
  param {
    lr_mult: 0
    decay_mult: 0
  }
  param {
    lr_mult: 0
    decay_mult: 0
  }
  param {
    lr_mult: 0
    decay_mult: 0
  }
  batch_norm_param {
    use_global_stats: true
  }
}
layer {
  name: "scale4b_branch2a"
  type: "Scale"
  bottom: "res4b_branch2a"
  top: "res4b_branch2a"
  param {
    lr_mult: 0
    decay_mult: 0
  }
  param {
    lr_mult: 0
    decay_mult: 0
  }
  scale_param {
    bias_term: true
  }
}
layer {
  name: "res4b_branch2a_relu"
  type: "ReLU"
  bottom: "res4b_branch2a"
  top: "res4b_branch2a"
}
layer {
  name: "res4b_branch2b"
  type: "Convolution"
  bottom: "res4b_branch2a"
  top: "res4b_branch2b"
  param {
    lr_mult: 1
  }
  convolution_param {
    num_output: 256
    bias_term: false
    pad: 1
    kernel_size: 3
    stride: 1
  }
}
layer {
  name: "bn4b_branch2b"
  type: "BatchNorm"
  bottom: "res4b_branch2b"
  top: "res4b_branch2b"
  param {
    lr_mult: 0
    decay_mult: 0
  }
  param {
    lr_mult: 0
    decay_mult: 0
  }
  param {
    lr_mult: 0
    decay_mult: 0
  }
  batch_norm_param {
    use_global_stats: true
  }
}
layer {
  name: "scale4b_branch2b"
  type: "Scale"
  bottom: "res4b_branch2b"
  top: "res4b_branch2b"
  param {
    lr_mult: 0
    decay_mult: 0
  }
  param {
    lr_mult: 0
    decay_mult: 0
  }
  scale_param {
    bias_term: true
  }
}
layer {
  name: "res4b_branch2b_relu"
  type: "ReLU"
  bottom: "res4b_branch2b"
  top: "res4b_branch2b"
}
layer {
  name: "res4b_branch2c"
  type: "Convolution"
  bottom: "res4b_branch2b"
  top: "res4b_branch2c"
  param {
    lr_mult: 1
  }
  convolution_param {
    num_output: 1024
    bias_term: false
    pad: 0
    kernel_size: 1
    stride: 1
  }
}
layer {
  name: "bn4b_branch2c"
  type: "BatchNorm"
  bottom: "res4b_branch2c"
  top: "res4b_branch2c"
  param {
    lr_mult: 0
    decay_mult: 0
  }
  param {
    lr_mult: 0
    decay_mult: 0
  }
  param {
    lr_mult: 0
    decay_mult: 0
  }
  batch_norm_param {
    use_global_stats: true
  }
}
layer {
  name: "scale4b_branch2c"
  type: "Scale"
  bottom: "res4b_branch2c"
  top: "res4b_branch2c"
  param {
    lr_mult: 0
    decay_mult: 0
  }
  param {
    lr_mult: 0
    decay_mult: 0
  }
  scale_param {
    bias_term: true
  }
}
layer {
  name: "res4b"
  type: "Eltwise"
  bottom: "res4a"
  bottom: "res4b_branch2c"
  top: "res4b"
}
layer {
  name: "res4b_relu"
  type: "ReLU"
  bottom: "res4b"
  top: "res4b"
}
layer {
  name: "res4c_branch2a"
  type: "Convolution"
  bottom: "res4b"
  top: "res4c_branch2a"
  param {
    lr_mult: 1
  }
  convolution_param {
    num_output: 256
    bias_term: false
    pad: 0
    kernel_size: 1
    stride: 1
  }
}
layer {
  name: "bn4c_branch2a"
  type: "BatchNorm"
  bottom: "res4c_branch2a"
  top: "res4c_branch2a"
  param {
    lr_mult: 0
    decay_mult: 0
  }
  param {
    lr_mult: 0
    decay_mult: 0
  }
  param {
    lr_mult: 0
    decay_mult: 0
  }
  batch_norm_param {
    use_global_stats: true
  }
}
layer {
  name: "scale4c_branch2a"
  type: "Scale"
  bottom: "res4c_branch2a"
  top: "res4c_branch2a"
  param {
    lr_mult: 0
    decay_mult: 0
  }
  param {
    lr_mult: 0
    decay_mult: 0
  }
  scale_param {
    bias_term: true
  }
}
layer {
  name: "res4c_branch2a_relu"
  type: "ReLU"
  bottom: "res4c_branch2a"
  top: "res4c_branch2a"
}
layer {
  name: "res4c_branch2b"
  type: "Convolution"
  bottom: "res4c_branch2a"
  top: "res4c_branch2b"
  param {
    lr_mult: 1
  }
  convolution_param {
    num_output: 256
    bias_term: false
    pad: 1
    kernel_size: 3
    stride: 1
  }
}
layer {
  name: "bn4c_branch2b"
  type: "BatchNorm"
  bottom: "res4c_branch2b"
  top: "res4c_branch2b"
  param {
    lr_mult: 0
    decay_mult: 0
  }
  param {
    lr_mult: 0
    decay_mult: 0
  }
  param {
    lr_mult: 0
    decay_mult: 0
  }
  batch_norm_param {
    use_global_stats: true
  }
}
layer {
  name: "scale4c_branch2b"
  type: "Scale"
  bottom: "res4c_branch2b"
  top: "res4c_branch2b"
  param {
    lr_mult: 0
    decay_mult: 0
  }
  param {
    lr_mult: 0
    decay_mult: 0
  }
  scale_param {
    bias_term: true
  }
}
layer {
  name: "res4c_branch2b_relu"
  type: "ReLU"
  bottom: "res4c_branch2b"
  top: "res4c_
I0625 11:56:04.069643  4216 layer_factory.hpp:77] Creating layer input-data
I0625 11:56:04.077958  4216 net.cpp:100] Creating Layer input-data
I0625 11:56:04.077977  4216 net.cpp:418] input-data -> data
I0625 11:56:04.078011  4216 net.cpp:418] input-data -> im_info
I0625 11:56:04.078025  4216 net.cpp:418] input-data -> gt_boxes
RoiDataLayer: name_to_top: {'gt_boxes': 2, 'data': 0, 'im_info': 1}
I0625 11:56:04.095683  4216 net.cpp:150] Setting up input-data
I0625 11:56:04.095705  4216 net.cpp:157] Top shape: 1 3 960 1280 (3686400)
I0625 11:56:04.095710  4216 net.cpp:157] Top shape: 1 3 (3)
I0625 11:56:04.095713  4216 net.cpp:157] Top shape: 1 4 (4)
I0625 11:56:04.095715  4216 net.cpp:165] Memory required for data: 14745628
I0625 11:56:04.095731  4216 layer_factory.hpp:77] Creating layer data_input-data_0_split
I0625 11:56:04.095757  4216 net.cpp:100] Creating Layer data_input-data_0_split
I0625 11:56:04.095767  4216 net.cpp:444] data_input-data_0_split <- data
I0625 11:56:04.095782  4216 net.cpp:418] data_input-data_0_split -> data_input-data_0_split_0
I0625 11:56:04.095800  4216 net.cpp:418] data_input-data_0_split -> data_input-data_0_split_1
I0625 11:56:04.095834  4216 net.cpp:150] Setting up data_input-data_0_split
I0625 11:56:04.095844  4216 net.cpp:157] Top shape: 1 3 960 1280 (3686400)
I0625 11:56:04.095849  4216 net.cpp:157] Top shape: 1 3 960 1280 (3686400)
I0625 11:56:04.095850  4216 net.cpp:165] Memory required for data: 44236828
I0625 11:56:04.095854  4216 layer_factory.hpp:77] Creating layer im_info_input-data_1_split
I0625 11:56:04.095863  4216 net.cpp:100] Creating Layer im_info_input-data_1_split
I0625 11:56:04.095867  4216 net.cpp:444] im_info_input-data_1_split <- im_info
I0625 11:56:04.095877  4216 net.cpp:418] im_info_input-data_1_split -> im_info_input-data_1_split_0
I0625 11:56:04.095888  4216 net.cpp:418] im_info_input-data_1_split -> im_info_input-data_1_split_1
I0625 11:56:04.095913  4216 net.cpp:150] Setting up im_info_input-data_1_split
I0625 11:56:04.095919  4216 net.cpp:157] Top shape: 1 3 (3)
I0625 11:56:04.095922  4216 net.cpp:157] Top shape: 1 3 (3)
I0625 11:56:04.095924  4216 net.cpp:165] Memory required for data: 44236852
I0625 11:56:04.095927  4216 layer_factory.hpp:77] Creating layer gt_boxes_input-data_2_split
I0625 11:56:04.095933  4216 net.cpp:100] Creating Layer gt_boxes_input-data_2_split
I0625 11:56:04.095937  4216 net.cpp:444] gt_boxes_input-data_2_split <- gt_boxes
I0625 11:56:04.095947  4216 net.cpp:418] gt_boxes_input-data_2_split -> gt_boxes_input-data_2_split_0
I0625 11:56:04.095957  4216 net.cpp:418] gt_boxes_input-data_2_split -> gt_boxes_input-data_2_split_1
I0625 11:56:04.095983  4216 net.cpp:150] Setting up gt_boxes_input-data_2_split
I0625 11:56:04.095990  4216 net.cpp:157] Top shape: 1 4 (4)
I0625 11:56:04.095994  4216 net.cpp:157] Top shape: 1 4 (4)
I0625 11:56:04.095996  4216 net.cpp:165] Memory required for data: 44236884
I0625 11:56:04.095999  4216 layer_factory.hpp:77] Creating layer conv1
I0625 11:56:04.096017  4216 net.cpp:100] Creating Layer conv1
I0625 11:56:04.096021  4216 net.cpp:444] conv1 <- data_input-data_0_split_0
I0625 11:56:04.096032  4216 net.cpp:418] conv1 -> conv1
I0625 11:56:04.382251  4216 cudnn_conv_layer.cpp:194] Reallocating workspace storage: 5529624
I0625 11:56:04.382474  4216 net.cpp:150] Setting up conv1
I0625 11:56:04.382505  4216 net.cpp:157] Top shape: 1 64 480 640 (19660800)
I0625 11:56:04.382508  4216 net.cpp:165] Memory required for data: 122880084
I0625 11:56:04.382556  4216 layer_factory.hpp:77] Creating layer bn_conv1
I0625 11:56:04.382581  4216 net.cpp:100] Creating Layer bn_conv1
I0625 11:56:04.382591  4216 net.cpp:444] bn_conv1 <- conv1
I0625 11:56:04.382604  4216 net.cpp:405] bn_conv1 -> conv1 (in-place)
I0625 11:56:04.383607  4216 net.cpp:150] Setting up bn_conv1
I0625 11:56:04.383615  4216 net.cpp:157] Top shape: 1 64 480 640 (19660800)
I0625 11:56:04.383631  4216 net.cpp:165] Memory required for data: 201523284
I0625 11:56:04.383658  4216 layer_factory.hpp:77] Creating layer scale_conv1
I0625 11:56:04.383673  4216 net.cpp:100] Creating Layer scale_conv1
I0625 11:56:04.383678  4216 net.cpp:444] scale_conv1 <- conv1
I0625 11:56:04.383688  4216 net.cpp:405] scale_conv1 -> conv1 (in-place)
I0625 11:56:04.383731  4216 layer_factory.hpp:77] Creating layer scale_conv1
I0625 11:56:04.385555  4216 net.cpp:150] Setting up scale_conv1
I0625 11:56:04.385565  4216 net.cpp:157] Top shape: 1 64 480 640 (19660800)
I0625 11:56:04.385567  4216 net.cpp:165] Memory required for data: 280166484
I0625 11:56:04.385581  4216 layer_factory.hpp:77] Creating layer conv1_relu
I0625 11:56:04.385594  4216 net.cpp:100] Creating Layer conv1_relu
I0625 11:56:04.385601  4216 net.cpp:444] conv1_relu <- conv1
I0625 11:56:04.385612  4216 net.cpp:405] conv1_relu -> conv1 (in-place)
I0625 11:56:04.385766  4216 net.cpp:150] Setting up conv1_relu
I0625 11:56:04.385772  4216 net.cpp:157] Top shape: 1 64 480 640 (19660800)
I0625 11:56:04.385776  4216 net.cpp:165] Memory required for data: 358809684
I0625 11:56:04.385778  4216 layer_factory.hpp:77] Creating layer pool1
I0625 11:56:04.385797  4216 net.cpp:100] Creating Layer pool1
I0625 11:56:04.385802  4216 net.cpp:444] pool1 <- conv1
I0625 11:56:04.385813  4216 net.cpp:418] pool1 -> pool1
I0625 11:56:04.385855  4216 net.cpp:150] Setting up pool1
I0625 11:56:04.385864  4216 net.cpp:157] Top shape: 1 64 240 320 (4915200)
I0625 11:56:04.385866  4216 net.cpp:165] Memory required for data: 378470484
I0625 11:56:04.385869  4216 layer_factory.hpp:77] Creating layer pool1_pool1_0_split
I0625 11:56:04.385876  4216 net.cpp:100] Creating Layer pool1_pool1_0_split
I0625 11:56:04.385880  4216 net.cpp:444] pool1_pool1_0_split <- pool1
I0625 11:56:04.385890  4216 net.cpp:418] pool1_pool1_0_split -> pool1_pool1_0_split_0
I0625 11:56:04.385900  4216 net.cpp:418] pool1_pool1_0_split -> pool1_pool1_0_split_1
I0625 11:56:04.385931  4216 net.cpp:150] Setting up pool1_pool1_0_split
I0625 11:56:04.385936  4216 net.cpp:157] Top shape: 1 64 240 320 (4915200)
I0625 11:56:04.385939  4216 net.cpp:157] Top shape: 1 64 240 320 (4915200)
I0625 11:56:04.385941  4216 net.cpp:165] Memory required for data: 417792084
I0625 11:56:04.385944  4216 layer_factory.hpp:77] Creating layer res2a_branch1
I0625 11:56:04.385959  4216 net.cpp:100] Creating Layer res2a_branch1
I0625 11:56:04.385963  4216 net.cpp:444] res2a_branch1 <- pool1_pool1_0_split_0
I0625 11:56:04.385974  4216 net.cpp:418] res2a_branch1 -> res2a_branch1
I0625 11:56:04.386680  4216 cudnn_conv_layer.cpp:194] Reallocating workspace storage: 1388952
I0625 11:56:04.386876  4216 net.cpp:150] Setting up res2a_branch1
I0625 11:56:04.386886  4216 net.cpp:157] Top shape: 1 256 240 320 (19660800)
I0625 11:56:04.386889  4216 net.cpp:165] Memory required for data: 496435284
I0625 11:56:04.386899  4216 layer_factory.hpp:77] Creating layer bn2a_branch1
I0625 11:56:04.386911  4216 net.cpp:100] Creating Layer bn2a_branch1
I0625 11:56:04.386915  4216 net.cpp:444] bn2a_branch1 <- res2a_branch1
I0625 11:56:04.386927  4216 net.cpp:405] bn2a_branch1 -> res2a_branch1 (in-place)
I0625 11:56:04.387152  4216 net.cpp:150] Setting up bn2a_branch1
I0625 11:56:04.387158  4216 net.cpp:157] Top shape: 1 256 240 320 (19660800)
I0625 11:56:04.387161  4216 net.cpp:165] Memory required for data: 575078484
I0625 11:56:04.387181  4216 layer_factory.hpp:77] Creating layer scale2a_branch1
I0625 11:56:04.387193  4216 net.cpp:100] Creating Layer scale2a_branch1
I0625 11:56:04.387198  4216 net.cpp:444] scale2a_branch1 <- res2a_branch1
I0625 11:56:04.387207  4216 net.cpp:405] scale2a_branch1 -> res2a_branch1 (in-place)
I0625 11:56:04.387246  4216 layer_factory.hpp:77] Creating layer scale2a_branch1
I0625 11:56:04.387528  4216 net.cpp:150] Setting up scale2a_branch1
I0625 11:56:04.387534  4216 net.cpp:157] Top shape: 1 256 240 320 (19660800)
I0625 11:56:04.387537  4216 net.cpp:165] Memory required for data: 653721684
I0625 11:56:04.387545  4216 layer_factory.hpp:77] Creating layer res2a_branch2a
I0625 11:56:04.387557  4216 net.cpp:100] Creating Layer res2a_branch2a
I0625 11:56:04.387562  4216 net.cpp:444] res2a_branch2a <- pool1_pool1_0_split_1
I0625 11:56:04.387573  4216 net.cpp:418] res2a_branch2a -> res2a_branch2a
I0625 11:56:04.388716  4216 cudnn_conv_layer.cpp:194] Reallocating workspace storage: 1388952
I0625 11:56:04.388903  4216 net.cpp:150] Setting up res2a_branch2a
I0625 11:56:04.388912  4216 net.cpp:157] Top shape: 1 64 240 320 (4915200)
I0625 11:56:04.388916  4216 net.cpp:165] Memory required for data: 673382484
I0625 11:56:04.388924  4216 layer_factory.hpp:77] Creating layer bn2a_branch2a
I0625 11:56:04.388936  4216 net.cpp:100] Creating Layer bn2a_branch2a
I0625 11:56:04.388941  4216 net.cpp:444] bn2a_branch2a <- res2a_branch2a
I0625 11:56:04.388950  4216 net.cpp:405] bn2a_branch2a -> res2a_branch2a (in-place)
I0625 11:56:04.389184  4216 net.cpp:150] Setting up bn2a_branch2a
I0625 11:56:04.389189  4216 net.cpp:157] Top shape: 1 64 240 320 (4915200)
I0625 11:56:04.389191  4216 net.cpp:165] Memory required for data: 693043284
I0625 11:56:04.389212  4216 layer_factory.hpp:77] Creating layer scale2a_branch2a
I0625 11:56:04.389225  4216 net.cpp:100] Creating Layer scale2a_branch2a
I0625 11:56:04.389228  4216 net.cpp:444] scale2a_branch2a <- res2a_branch2a
I0625 11:56:04.389237  4216 net.cpp:405] scale2a_branch2a -> res2a_branch2a (in-place)
I0625 11:56:04.389276  4216 layer_factory.hpp:77] Creating layer scale2a_branch2a
I0625 11:56:04.389565  4216 net.cpp:150] Setting up scale2a_branch2a
I0625 11:56:04.389572  4216 net.cpp:157] Top shape: 1 64 240 320 (4915200)
I0625 11:56:04.389573  4216 net.cpp:165] Memory required for data: 712704084
I0625 11:56:04.389582  4216 layer_factory.hpp:77] Creating layer res2a_branch2a_relu
I0625 11:56:04.389595  4216 net.cpp:100] Creating Layer res2a_branch2a_relu
I0625 11:56:04.389600  4216 net.cpp:444] res2a_branch2a_relu <- res2a_branch2a
I0625 11:56:04.389608  4216 net.cpp:405] res2a_branch2a_relu -> res2a_branch2a (in-place)
I0625 11:56:04.389727  4216 net.cpp:150] Setting up res2a_branch2a_relu
I0625 11:56:04.389734  4216 net.cpp:157] Top shape: 1 64 240 320 (4915200)
I0625 11:56:04.389735  4216 net.cpp:165] Memory required for data: 732364884
I0625 11:56:04.389739  4216 layer_factory.hpp:77] Creating layer res2a_branch2b
I0625 11:56:04.389750  4216 net.cpp:100] Creating Layer res2a_branch2b
I0625 11:56:04.389755  4216 net.cpp:444] res2a_branch2b <- res2a_branch2a
I0625 11:56:04.389765  4216 net.cpp:418] res2a_branch2b -> res2a_branch2b
I0625 11:56:04.390960  4216 cudnn_conv_layer.cpp:194] Reallocating workspace storage: 786432
I0625 11:56:04.391149  4216 net.cpp:150] Setting up res2a_branch2b
I0625 11:56:04.391158  4216 net.cpp:157] Top shape: 1 64 240 320 (4915200)
I0625 11:56:04.391161  4216 net.cpp:165] Memory required for data: 752025684
I0625 11:56:04.391170  4216 layer_factory.hpp:77] Creating layer bn2a_branch2b
I0625 11:56:04.391181  4216 net.cpp:100] Creating Layer bn2a_branch2b
I0625 11:56:04.391186  4216 net.cpp:444] bn2a_branch2b <- res2a_branch2b
I0625 11:56:04.391196  4216 net.cpp:405] bn2a_branch2b -> res2a_branch2b (in-place)
I0625 11:56:04.391436  4216 net.cpp:150] Setting up bn2a_branch2b
I0625 11:56:04.391443  4216 net.cpp:157] Top shape: 1 64 240 320 (4915200)
I0625 11:56:04.391444  4216 net.cpp:165] Memory required for data: 771686484
I0625 11:56:04.391456  4216 layer_factory.hpp:77] Creating layer scale2a_branch2b
I0625 11:56:04.391466  4216 net.cpp:100] Creating Layer scale2a_branch2b
I0625 11:56:04.391471  4216 net.cpp:444] scale2a_branch2b <- res2a_branch2b
I0625 11:56:04.391481  4216 net.cpp:405] scale2a_branch2b -> res2a_branch2b (in-place)
I0625 11:56:04.391520  4216 layer_factory.hpp:77] Creating layer scale2a_branch2b
I0625 11:56:04.392287  4216 net.cpp:150] Setting up scale2a_branch2b
I0625 11:56:04.392295  4216 net.cpp:157] Top shape: 1 64 240 320 (4915200)
I0625 11:56:04.392297  4216 net.cpp:165] Memory required for data: 791347284
I0625 11:56:04.392308  4216 layer_factory.hpp:77] Creating layer res2a_branch2b_relu
I0625 11:56:04.392318  4216 net.cpp:100] Creating Layer res2a_branch2b_relu
I0625 11:56:04.392323  4216 net.cpp:444] res2a_branch2b_relu <- res2a_branch2b
I0625 11:56:04.392331  4216 net.cpp:405] res2a_branch2b_relu -> res2a_branch2b (in-place)
I0625 11:56:04.392649  4216 net.cpp:150] Setting up res2a_branch2b_relu
I0625 11:56:04.392657  4216 net.cpp:157] Top shape: 1 64 240 320 (4915200)
I0625 11:56:04.392658  4216 net.cpp:165] Memory required for data: 811008084
I0625 11:56:04.392663  4216 layer_factory.hpp:77] Creating layer res2a_branch2c
I0625 11:56:04.392676  4216 net.cpp:100] Creating Layer res2a_branch2c
I0625 11:56:04.392680  4216 net.cpp:444] res2a_branch2c <- res2a_branch2b
I0625 11:56:04.392693  4216 net.cpp:418] res2a_branch2c -> res2a_branch2c
I0625 11:56:04.393430  4216 cudnn_conv_layer.cpp:194] Reallocating workspace storage: 1388952
I0625 11:56:04.393635  4216 net.cpp:150] Setting up res2a_branch2c
I0625 11:56:04.393658  4216 net.cpp:157] Top shape: 1 256 240 320 (19660800)
I0625 11:56:04.393661  4216 net.cpp:165] Memory required for data: 889651284
I0625 11:56:04.393671  4216 layer_factory.hpp:77] Creating layer bn2a_branch2c
I0625 11:56:04.393685  4216 net.cpp:100] Creating Layer bn2a_branch2c
I0625 11:56:04.393690  4216 net.cpp:444] bn2a_branch2c <- res2a_branch2c
I0625 11:56:04.393702  4216 net.cpp:405] bn2a_branch2c -> res2a_branch2c (in-place)
I0625 11:56:04.393942  4216 net.cpp:150] Setting up bn2a_branch2c
I0625 11:56:04.393949  4216 net.cpp:157] Top shape: 1 256 240 320 (19660800)
I0625 11:56:04.393962  4216 net.cpp:165] Memory required for data: 968294484
I0625 11:56:04.393975  4216 layer_factory.hpp:77] Creating layer scale2a_branch2c
I0625 11:56:04.393987  4216 net.cpp:100] Creating Layer scale2a_branch2c
I0625 11:56:04.393991  4216 net.cpp:444] scale2a_branch2c <- res2a_branch2c
I0625 11:56:04.393999  4216 net.cpp:405] scale2a_branch2c -> res2a_branch2c (in-place)
I0625 11:56:04.394039  4216 layer_factory.hpp:77] Creating layer scale2a_branch2c
I0625 11:56:04.394326  4216 net.cpp:150] Setting up scale2a_branch2c
I0625 11:56:04.394332  4216 net.cpp:157] Top shape: 1 256 240 320 (19660800)
I0625 11:56:04.394335  4216 net.cpp:165] Memory required for data: 1046937684
I0625 11:56:04.394343  4216 layer_factory.hpp:77] Creating layer res2a
I0625 11:56:04.394353  4216 net.cpp:100] Creating Layer res2a
I0625 11:56:04.394358  4216 net.cpp:444] res2a <- res2a_branch1
I0625 11:56:04.394366  4216 net.cpp:444] res2a <- res2a_branch2c
I0625 11:56:04.394372  4216 net.cpp:418] res2a -> res2a
I0625 11:56:04.394399  4216 net.cpp:150] Setting up res2a
I0625 11:56:04.394407  4216 net.cpp:157] Top shape: 1 256 240 320 (19660800)
I0625 11:56:04.394408  4216 net.cpp:165] Memory required for data: 1125580884
I0625 11:56:04.394412  4216 layer_factory.hpp:77] Creating layer res2a_relu
I0625 11:56:04.394419  4216 net.cpp:100] Creating Layer res2a_relu
I0625 11:56:04.394423  4216 net.cpp:444] res2a_relu <- res2a
I0625 11:56:04.394431  4216 net.cpp:405] res2a_relu -> res2a (in-place)
I0625 11:56:04.394556  4216 net.cpp:150] Setting up res2a_relu
I0625 11:56:04.394562  4216 net.cpp:157] Top shape: 1 256 240 320 (19660800)
I0625 11:56:04.394563  4216 net.cpp:165] Memory required for data: 1204224084
I0625 11:56:04.394567  4216 layer_factory.hpp:77] Creating layer res2a_res2a_relu_0_split
I0625 11:56:04.394575  4216 net.cpp:100] Creating Layer res2a_res2a_relu_0_split
I0625 11:56:04.394579  4216 net.cpp:444] res2a_res2a_relu_0_split <- res2a
I0625 11:56:04.394588  4216 net.cpp:418] res2a_res2a_relu_0_split -> res2a_res2a_relu_0_split_0
I0625 11:56:04.394599  4216 net.cpp:418] res2a_res2a_relu_0_split -> res2a_res2a_relu_0_split_1
I0625 11:56:04.394632  4216 net.cpp:150] Setting up res2a_res2a_relu_0_split
I0625 11:56:04.394639  4216 net.cpp:157] Top shape: 1 256 240 320 (19660800)
I0625 11:56:04.394642  4216 net.cpp:157] Top shape: 1 256 240 320 (19660800)
I0625 11:56:04.394644  4216 net.cpp:165] Memory required for data: 1361510484
I0625 11:56:04.394646  4216 layer_factory.hpp:77] Creating layer res2b_branch2a
I0625 11:56:04.394659  4216 net.cpp:100] Creating Layer res2b_branch2a
I0625 11:56:04.394662  4216 net.cpp:444] res2b_branch2a <- res2a_res2a_relu_0_split_0
I0625 11:56:04.394672  4216 net.cpp:418] res2b_branch2a -> res2b_branch2a
I0625 11:56:04.395457  4216 cudnn_conv_layer.cpp:194] Reallocating workspace storage: 1388952
I0625 11:56:04.395656  4216 net.cpp:150] Setting up res2b_branch2a
I0625 11:56:04.395666  4216 net.cpp:157] Top shape: 1 64 240 320 (4915200)
I0625 11:56:04.395669  4216 net.cpp:165] Memory required for data: 1381171284
I0625 11:56:04.395679  4216 layer_factory.hpp:77] Creating layer bn2b_branch2a
I0625 11:56:04.395694  4216 net.cpp:100] Creating Layer bn2b_branch2a
I0625 11:56:04.395699  4216 net.cpp:444] bn2b_branch2a <- res2b_branch2a
I0625 11:56:04.395709  4216 net.cpp:405] bn2b_branch2a -> res2b_branch2a (in-place)
I0625 11:56:04.395956  4216 net.cpp:150] Setting up bn2b_branch2a
I0625 11:56:04.395961  4216 net.cpp:157] Top shape: 1 64 240 320 (4915200)
I0625 11:56:04.395964  4216 net.cpp:165] Memory required for data: 1400832084
I0625 11:56:04.395987  4216 layer_factory.hpp:77] Creating layer scale2b_branch2a
I0625 11:56:04.396001  4216 net.cpp:100] Creating Layer scale2b_branch2a
I0625 11:56:04.396006  4216 net.cpp:444] scale2b_branch2a <- res2b_branch2a
I0625 11:56:04.396018  4216 net.cpp:405] scale2b_branch2a -> res2b_branch2a (in-place)
I0625 11:56:04.396059  4216 layer_factory.hpp:77] Creating layer scale2b_branch2a
I0625 11:56:04.396848  4216 net.cpp:150] Setting up scale2b_branch2a
I0625 11:56:04.396857  4216 net.cpp:157] Top shape: 1 64 240 320 (4915200)
I0625 11:56:04.396858  4216 net.cpp:165] Memory required for data: 1420492884
I0625 11:56:04.396869  4216 layer_factory.hpp:77] Creating layer res2b_branch2a_relu
I0625 11:56:04.396879  4216 net.cpp:100] Creating Layer res2b_branch2a_relu
I0625 11:56:04.396884  4216 net.cpp:444] res2b_branch2a_relu <- res2b_branch2a
I0625 11:56:04.396894  4216 net.cpp:405] res2b_branch2a_relu -> res2b_branch2a (in-place)
I0625 11:56:04.397033  4216 net.cpp:150] Setting up res2b_branch2a_relu
I0625 11:56:04.397039  4216 net.cpp:157] Top shape: 1 64 240 320 (4915200)
I0625 11:56:04.397042  4216 net.cpp:165] Memory required for data: 1440153684
I0625 11:56:04.397044  4216 layer_factory.hpp:77] Creating layer res2b_branch2b
I0625 11:56:04.397059  4216 net.cpp:100] Creating Layer res2b_branch2b
I0625 11:56:04.397064  4216 net.cpp:444] res2b_branch2b <- res2b_branch2a
I0625 11:56:04.397076  4216 net.cpp:418] res2b_branch2b -> res2b_branch2b
I0625 11:56:04.397840  4216 cudnn_conv_layer.cpp:194] Reallocating workspace storage: 786432
I0625 11:56:04.397852  4216 net.cpp:150] Setting up res2b_branch2b
I0625 11:56:04.397859  4216 net.cpp:157] Top shape: 1 64 240 320 (4915200)
I0625 11:56:04.397861  4216 net.cpp:165] Memory required for data: 1459814484
I0625 11:56:04.397871  4216 layer_factory.hpp:77] Creating layer bn2b_branch2b
I0625 11:56:04.397891  4216 net.cpp:100] Creating Layer bn2b_branch2b
I0625 11:56:04.397895  4216 net.cpp:444] bn2b_branch2b <- res2b_branch2b
I0625 11:56:04.397907  4216 net.cpp:405] bn2b_branch2b -> res2b_branch2b (in-place)
I0625 11:56:04.398146  4216 net.cpp:150] Setting up bn2b_branch2b
I0625 11:56:04.398152  4216 net.cpp:157] Top shape: 1 64 240 320 (4915200)
I0625 11:56:04.398154  4216 net.cpp:165] Memory required for data: 1479475284
I0625 11:56:04.398167  4216 layer_factory.hpp:77] Creating layer scale2b_branch2b
I0625 11:56:04.398178  4216 net.cpp:100] Creating Layer scale2b_branch2b
I0625 11:56:04.398183  4216 net.cpp:444] scale2b_branch2b <- res2b_branch2b
I0625 11:56:04.398192  4216 net.cpp:405] scale2b_branch2b -> res2b_branch2b (in-place)
I0625 11:56:04.398233  4216 layer_factory.hpp:77] Creating layer scale2b_branch2b
I0625 11:56:04.398527  4216 net.cpp:150] Setting up scale2b_branch2b
I0625 11:56:04.398533  4216 net.cpp:157] Top shape: 1 64 240 320 (4915200)
I0625 11:56:04.398535  4216 net.cpp:165] Memory required for data: 1499136084
I0625 11:56:04.398543  4216 layer_factory.hpp:77] Creating layer res2b_branch2b_relu
I0625 11:56:04.398552  4216 net.cpp:100] Creating Layer res2b_branch2b_relu
I0625 11:56:04.398557  4216 net.cpp:444] res2b_branch2b_relu <- res2b_branch2b
I0625 11:56:04.398566  4216 net.cpp:405] res2b_branch2b_relu -> res2b_branch2b (in-place)
I0625 11:56:04.398877  4216 net.cpp:150] Setting up res2b_branch2b_relu
I0625 11:56:04.398885  4216 net.cpp:157] Top shape: 1 64 240 320 (4915200)
I0625 11:56:04.398888  4216 net.cpp:165] Memory required for data: 1518796884
I0625 11:56:04.398891  4216 layer_factory.hpp:77] Creating layer res2b_branch2c
I0625 11:56:04.398905  4216 net.cpp:100] Creating Layer res2b_branch2c
I0625 11:56:04.398910  4216 net.cpp:444] res2b_branch2c <- res2b_branch2b
I0625 11:56:04.398923  4216 net.cpp:418] res2b_branch2c -> res2b_branch2c
I0625 11:56:04.399646  4216 cudnn_conv_layer.cpp:194] Reallocating workspace storage: 1388952
I0625 11:56:04.399832  4216 net.cpp:150] Setting up res2b_branch2c
I0625 11:56:04.399842  4216 net.cpp:157] Top shape: 1 256 240 320 (19660800)
I0625 11:56:04.399844  4216 net.cpp:165] Memory required for data: 1597440084
I0625 11:56:04.399854  4216 layer_factory.hpp:77] Creating layer bn2b_branch2c
I0625 11:56:04.399865  4216 net.cpp:100] Creating Layer bn2b_branch2c
I0625 11:56:04.399869  4216 net.cpp:444] bn2b_branch2c <- res2b_branch2c
I0625 11:56:04.399879  4216 net.cpp:405] bn2b_branch2c -> res2b_branch2c (in-place)
I0625 11:56:04.400120  4216 net.cpp:150] Setting up bn2b_branch2c
I0625 11:56:04.400126  4216 net.cpp:157] Top shape: 1 256 240 320 (19660800)
I0625 11:56:04.400128  4216 net.cpp:165] Memory required for data: 1676083284
I0625 11:56:04.400141  4216 layer_factory.hpp:77] Creating layer scale2b_branch2c
I0625 11:56:04.400151  4216 net.cpp:100] Creating Layer scale2b_branch2c
I0625 11:56:04.400156  4216 net.cpp:444] scale2b_branch2c <- res2b_branch2c
I0625 11:56:04.400166  4216 net.cpp:405] scale2b_branch2c -> res2b_branch2c (in-place)
I0625 11:56:04.400207  4216 layer_factory.hpp:77] Creating layer scale2b_branch2c
I0625 11:56:04.400985  4216 net.cpp:150] Setting up scale2b_branch2c
I0625 11:56:04.400995  4216 net.cpp:157] Top shape: 1 256 240 320 (19660800)
I0625 11:56:04.400996  4216 net.cpp:165] Memory required for data: 1754726484
I0625 11:56:04.401006  4216 layer_factory.hpp:77] Creating layer res2b
I0625 11:56:04.401018  4216 net.cpp:100] Creating Layer res2b
I0625 11:56:04.401024  4216 net.cpp:444] res2b <- res2a_res2a_relu_0_split_1
I0625 11:56:04.401033  4216 net.cpp:444] res2b <- res2b_branch2c
I0625 11:56:04.401041  4216 net.cpp:418] res2b -> res2b
I0625 11:56:04.401077  4216 net.cpp:150] Setting up res2b
I0625 11:56:04.401084  4216 net.cpp:157] Top shape: 1 256 240 320 (19660800)
I0625 11:56:04.401087  4216 net.cpp:165] Memory required for data: 1833369684
I0625 11:56:04.401089  4216 layer_factory.hpp:77] Creating layer res2b_relu
I0625 11:56:04.401098  4216 net.cpp:100] Creating Layer res2b_relu
I0625 11:56:04.401101  4216 net.cpp:444] res2b_relu <- res2b
I0625 11:56:04.401110  4216 net.cpp:405] res2b_relu -> res2b (in-place)
I0625 11:56:04.401243  4216 net.cpp:150] Setting up res2b_relu
I0625 11:56:04.401248  4216 net.cpp:157] Top shape: 1 256 240 320 (19660800)
I0625 11:56:04.401252  4216 net.cpp:165] Memory required for data: 1912012884
I0625 11:56:04.401254  4216 layer_factory.hpp:77] Creating layer res2b_res2b_relu_0_split
I0625 11:56:04.401263  4216 net.cpp:100] Creating Layer res2b_res2b_relu_0_split
I0625 11:56:04.401268  4216 net.cpp:444] res2b_res2b_relu_0_split <- res2b
I0625 11:56:04.401278  4216 net.cpp:418] res2b_res2b_relu_0_split -> res2b_res2b_relu_0_split_0
I0625 11:56:04.401289  4216 net.cpp:418] res2b_res2b_relu_0_split -> res2b_res2b_relu_0_split_1
I0625 11:56:04.401324  4216 net.cpp:150] Setting up res2b_res2b_relu_0_split
I0625 11:56:04.401330  4216 net.cpp:157] Top shape: 1 256 240 320 (19660800)
I0625 11:56:04.401335  4216 net.cpp:157] Top shape: 1 256 240 320 (19660800)
I0625 11:56:04.401336  4216 net.cpp:165] Memory required for data: 2069299284
I0625 11:56:04.401340  4216 layer_factory.hpp:77] Creating layer res2c_branch2a
I0625 11:56:04.401351  4216 net.cpp:100] Creating Layer res2c_branch2a
I0625 11:56:04.401356  4216 net.cpp:444] res2c_branch2a <- res2b_res2b_relu_0_split_0
I0625 11:56:04.401367  4216 net.cpp:418] res2c_branch2a -> res2c_branch2a
I0625 11:56:04.402108  4216 cudnn_conv_layer.cpp:194] Reallocating workspace storage: 1388952
I0625 11:56:04.402302  4216 net.cpp:150] Setting up res2c_branch2a
I0625 11:56:04.402310  4216 net.cpp:157] Top shape: 1 64 240 320 (4915200)
I0625 11:56:04.402313  4216 net.cpp:165] Memory required for data: 2088960084
I0625 11:56:04.402323  4216 layer_factory.hpp:77] Creating layer bn2c_branch2a
I0625 11:56:04.402333  4216 net.cpp:100] Creating Layer bn2c_branch2a
I0625 11:56:04.402339  4216 net.cpp:444] bn2c_branch2a <- res2c_branch2a
I0625 11:56:04.402350  4216 net.cpp:405] bn2c_branch2a -> res2c_branch2a (in-place)
I0625 11:56:04.402596  4216 net.cpp:150] Setting up bn2c_branch2a
I0625 11:56:04.402602  4216 net.cpp:157] Top shape: 1 64 240 320 (4915200)
I0625 11:56:04.402604  4216 net.cpp:165] Memory required for data: 2108620884
I0625 11:56:04.402616  4216 layer_factory.hpp:77] Creating layer scale2c_branch2a
I0625 11:56:04.402627  4216 net.cpp:100] Creating Layer scale2c_branch2a
I0625 11:56:04.402631  4216 net.cpp:444] scale2c_branch2a <- res2c_branch2a
I0625 11:56:04.402642  4216 net.cpp:405] scale2c_branch2a -> res2c_branch2a (in-place)
I0625 11:56:04.402683  4216 layer_factory.hpp:77] Creating layer scale2c_branch2a
I0625 11:56:04.402983  4216 net.cpp:150] Setting up scale2c_branch2a
I0625 11:56:04.402989  4216 net.cpp:157] Top shape: 1 64 240 320 (4915200)
I0625 11:56:04.402992  4216 net.cpp:165] Memory required for data: 2128281684
I0625 11:56:04.403000  4216 layer_factory.hpp:77] Creating layer res2c_branch2a_relu
I0625 11:56:04.403009  4216 net.cpp:100] Creating Layer res2c_branch2a_relu
I0625 11:56:04.403013  4216 net.cpp:444] res2c_branch2a_relu <- res2c_branch2a
I0625 11:56:04.403023  4216 net.cpp:405] res2c_branch2a_relu -> res2c_branch2a (in-place)
I0625 11:56:04.403151  4216 net.cpp:150] Setting up res2c_branch2a_relu
I0625 11:56:04.403156  4216 net.cpp:157] Top shape: 1 64 240 320 (4915200)
I0625 11:56:04.403158  4216 net.cpp:165] Memory required for data: 2147942484
I0625 11:56:04.403162  4216 layer_factory.hpp:77] Creating layer res2c_branch2b
I0625 11:56:04.403174  4216 net.cpp:100] Creating Layer res2c_branch2b
I0625 11:56:04.403179  4216 net.cpp:444] res2c_branch2b <- res2c_branch2a
I0625 11:56:04.403192  4216 net.cpp:418] res2c_branch2b -> res2c_branch2b
I0625 11:56:04.403945  4216 cudnn_conv_layer.cpp:194] Reallocating workspace storage: 786432
I0625 11:56:04.404135  4216 net.cpp:150] Setting up res2c_branch2b
I0625 11:56:04.404145  4216 net.cpp:157] Top shape: 1 64 240 320 (4915200)
I0625 11:56:04.404146  4216 net.cpp:165] Memory required for data: 2167603284
I0625 11:56:04.404155  4216 layer_factory.hpp:77] Creating layer bn2c_branch2b
I0625 11:56:04.404166  4216 net.cpp:100] Creating Layer bn2c_branch2b
I0625 11:56:04.404171  4216 net.cpp:444] bn2c_branch2b <- res2c_branch2b
I0625 11:56:04.404183  4216 net.cpp:405] bn2c_branch2b -> res2c_branch2b (in-place)
I0625 11:56:04.404428  4216 net.cpp:150] Setting up bn2c_branch2b
I0625 11:56:04.404433  4216 net.cpp:157] Top shape: 1 64 240 320 (4915200)
I0625 11:56:04.404434  4216 net.cpp:165] Memory required for data: 2187264084
I0625 11:56:04.404446  4216 layer_factory.hpp:77] Creating layer scale2c_branch2b
I0625 11:56:04.404458  4216 net.cpp:100] Creating Layer scale2c_branch2b
I0625 11:56:04.404461  4216 net.cpp:444] scale2c_branch2b <- res2c_branch2b
I0625 11:56:04.404469  4216 net.cpp:405] scale2c_branch2b -> res2c_branch2b (in-place)
I0625 11:56:04.404510  4216 layer_factory.hpp:77] Creating layer scale2c_branch2b
I0625 11:56:04.405294  4216 net.cpp:150] Setting up scale2c_branch2b
I0625 11:56:04.405303  4216 net.cpp:157] Top shape: 1 64 240 320 (4915200)
I0625 11:56:04.405304  4216 net.cpp:165] Memory required for data: 2206924884
I0625 11:56:04.405316  4216 layer_factory.hpp:77] Creating layer res2c_branch2b_relu
I0625 11:56:04.405326  4216 net.cpp:100] Creating Layer res2c_branch2b_relu
I0625 11:56:04.405331  4216 net.cpp:444] res2c_branch2b_relu <- res2c_branch2b
I0625 11:56:04.405342  4216 net.cpp:405] res2c_branch2b_relu -> res2c_branch2b (in-place)
I0625 11:56:04.405481  4216 net.cpp:150] Setting up res2c_branch2b_relu
I0625 11:56:04.405488  4216 net.cpp:157] Top shape: 1 64 240 320 (4915200)
I0625 11:56:04.405489  4216 net.cpp:165] Memory required for data: 2226585684
I0625 11:56:04.405493  4216 layer_factory.hpp:77] Creating layer res2c_branch2c
I0625 11:56:04.405505  4216 net.cpp:100] Creating Layer res2c_branch2c
I0625 11:56:04.405510  4216 net.cpp:444] res2c_branch2c <- res2c_branch2b
I0625 11:56:04.405521  4216 net.cpp:418] res2c_branch2c -> res2c_branch2c
I0625 11:56:04.406257  4216 cudnn_conv_layer.cpp:194] Reallocating workspace storage: 1388952
I0625 11:56:04.406450  4216 net.cpp:150] Setting up res2c_branch2c
I0625 11:56:04.406458  4216 net.cpp:157] Top shape: 1 256 240 320 (19660800)
I0625 11:56:04.406461  4216 net.cpp:165] Memory required for data: 2305228884
I0625 11:56:04.406469  4216 layer_factory.hpp:77] Creating layer bn2c_branch2c
I0625 11:56:04.406481  4216 net.cpp:100] Creating Layer bn2c_branch2c
I0625 11:56:04.406487  4216 net.cpp:444] bn2c_branch2c <- res2c_branch2c
I0625 11:56:04.406498  4216 net.cpp:405] bn2c_branch2c -> res2c_branch2c (in-place)
I0625 11:56:04.406739  4216 net.cpp:150] Setting up bn2c_branch2c
I0625 11:56:04.406744  4216 net.cpp:157] Top shape: 1 256 240 320 (19660800)
I0625 11:56:04.406746  4216 net.cpp:165] Memory required for data: 2383872084
I0625 11:56:04.406774  4216 layer_factory.hpp:77] Creating layer scale2c_branch2c
I0625 11:56:04.406785  4216 net.cpp:100] Creating Layer scale2c_branch2c
I0625 11:56:04.406790  4216 net.cpp:444] scale2c_branch2c <- res2c_branch2c
I0625 11:56:04.406800  4216 net.cpp:405] scale2c_branch2c -> res2c_branch2c (in-place)
I0625 11:56:04.406842  4216 layer_factory.hpp:77] Creating layer scale2c_branch2c
I0625 11:56:04.407145  4216 net.cpp:150] Setting up scale2c_branch2c
I0625 11:56:04.407152  4216 net.cpp:157] Top shape: 1 256 240 320 (19660800)
I0625 11:56:04.407155  4216 net.cpp:165] Memory required for data: 2462515284
I0625 11:56:04.407162  4216 layer_factory.hpp:77] Creating layer res2c
I0625 11:56:04.407171  4216 net.cpp:100] Creating Layer res2c
I0625 11:56:04.407176  4216 net.cpp:444] res2c <- res2b_res2b_relu_0_split_1
I0625 11:56:04.407183  4216 net.cpp:444] res2c <- res2c_branch2c
I0625 11:56:04.407189  4216 net.cpp:418] res2c -> res2c
I0625 11:56:04.407217  4216 net.cpp:150] Setting up res2c
I0625 11:56:04.407223  4216 net.cpp:157] Top shape: 1 256 240 320 (19660800)
I0625 11:56:04.407225  4216 net.cpp:165] Memory required for data: 2541158484
I0625 11:56:04.407228  4216 layer_factory.hpp:77] Creating layer res2c_relu
I0625 11:56:04.407235  4216 net.cpp:100] Creating Layer res2c_relu
I0625 11:56:04.407239  4216 net.cpp:444] res2c_relu <- res2c
I0625 11:56:04.407248  4216 net.cpp:405] res2c_relu -> res2c (in-place)
I0625 11:56:04.407558  4216 net.cpp:150] Setting up res2c_relu
I0625 11:56:04.407565  4216 net.cpp:157] Top shape: 1 256 240 320 (19660800)
I0625 11:56:04.407567  4216 net.cpp:165] Memory required for data: 2619801684
I0625 11:56:04.407572  4216 layer_factory.hpp:77] Creating layer res2c_res2c_relu_0_split
I0625 11:56:04.407580  4216 net.cpp:100] Creating Layer res2c_res2c_relu_0_split
I0625 11:56:04.407585  4216 net.cpp:444] res2c_res2c_relu_0_split <- res2c
I0625 11:56:04.407596  4216 net.cpp:418] res2c_res2c_relu_0_split -> res2c_res2c_relu_0_split_0
I0625 11:56:04.407608  4216 net.cpp:418] res2c_res2c_relu_0_split -> res2c_res2c_relu_0_split_1
I0625 11:56:04.407645  4216 net.cpp:150] Setting up res2c_res2c_relu_0_split
I0625 11:56:04.407652  4216 net.cpp:157] Top shape: 1 256 240 320 (19660800)
I0625 11:56:04.407655  4216 net.cpp:157] Top shape: 1 256 240 320 (19660800)
I0625 11:56:04.407657  4216 net.cpp:165] Memory required for data: 2777088084
I0625 11:56:04.407660  4216 layer_factory.hpp:77] Creating layer res3a_branch1
I0625 11:56:04.407672  4216 net.cpp:100] Creating Layer res3a_branch1
I0625 11:56:04.407677  4216 net.cpp:444] res3a_branch1 <- res2c_res2c_relu_0_split_0
I0625 11:56:04.407688  4216 net.cpp:418] res3a_branch1 -> res3a_branch1
I0625 11:56:04.408571  4216 cudnn_conv_layer.cpp:194] Reallocating workspace storage: 345624
I0625 11:56:04.408586  4216 net.cpp:150] Setting up res3a_branch1
I0625 11:56:04.408593  4216 net.cpp:157] Top shape: 1 512 120 160 (9830400)
I0625 11:56:04.408596  4216 net.cpp:165] Memory required for data: 2816409684
I0625 11:56:04.408605  4216 layer_factory.hpp:77] Creating layer bn3a_branch1
I0625 11:56:04.408617  4216 net.cpp:100] Creating Layer bn3a_branch1
I0625 11:56:04.408622  4216 net.cpp:444] bn3a_branch1 <- res3a_branch1
I0625 11:56:04.408634  4216 net.cpp:405] bn3a_branch1 -> res3a_branch1 (in-place)
I0625 11:56:04.409351  4216 net.cpp:150] Setting up bn3a_branch1
I0625 11:56:04.409363  4216 net.cpp:157] Top shape: 1 512 120 160 (9830400)
I0625 11:56:04.409363  4216 net.cpp:165] Memory required for data: 2855731284
I0625 11:56:04.409384  4216 layer_factory.hpp:77] Creating layer scale3a_branch1
I0625 11:56:04.409404  4216 net.cpp:100] Creating Layer scale3a_branch1
I0625 11:56:04.409409  4216 net.cpp:444] scale3a_branch1 <- res3a_branch1
I0625 11:56:04.409420  4216 net.cpp:405] scale3a_branch1 -> res3a_branch1 (in-place)
I0625 11:56:04.409468  4216 layer_factory.hpp:77] Creating layer scale3a_branch1
I0625 11:56:04.409618  4216 net.cpp:150] Setting up scale3a_branch1
I0625 11:56:04.409624  4216 net.cpp:157] Top shape: 1 512 120 160 (9830400)
I0625 11:56:04.409626  4216 net.cpp:165] Memory required for data: 2895052884
I0625 11:56:04.409636  4216 layer_factory.hpp:77] Creating layer res3a_branch2a
I0625 11:56:04.409651  4216 net.cpp:100] Creating Layer res3a_branch2a
I0625 11:56:04.409656  4216 net.cpp:444] res3a_branch2a <- res2c_res2c_relu_0_split_1
I0625 11:56:04.409667  4216 net.cpp:418] res3a_branch2a -> res3a_branch2a
I0625 11:56:04.410475  4216 cudnn_conv_layer.cpp:194] Reallocating workspace storage: 345624
I0625 11:56:04.410492  4216 net.cpp:150] Setting up res3a_branch2a
I0625 11:56:04.410498  4216 net.cpp:157] Top shape: 1 128 120 160 (2457600)
I0625 11:56:04.410501  4216 net.cpp:165] Memory required for data: 2904883284
I0625 11:56:04.410511  4216 layer_factory.hpp:77] Creating layer bn3a_branch2a
I0625 11:56:04.410523  4216 net.cpp:100] Creating Layer bn3a_branch2a
I0625 11:56:04.410528  4216 net.cpp:444] bn3a_branch2a <- res3a_branch2a
I0625 11:56:04.410538  4216 net.cpp:405] bn3a_branch2a -> res3a_branch2a (in-place)
I0625 11:56:04.410707  4216 net.cpp:150] Setting up bn3a_branch2a
I0625 11:56:04.410713  4216 net.cpp:157] Top shape: 1 128 120 160 (2457600)
I0625 11:56:04.410715  4216 net.cpp:165] Memory required for data: 2914713684
I0625 11:56:04.410728  4216 layer_factory.hpp:77] Creating layer scale3a_branch2a
I0625 11:56:04.410738  4216 net.cpp:100] Creating Layer scale3a_branch2a
I0625 11:56:04.410743  4216 net.cpp:444] scale3a_branch2a <- res3a_branch2a
I0625 11:56:04.410753  4216 net.cpp:405] scale3a_branch2a -> res3a_branch2a (in-place)
I0625 11:56:04.410792  4216 layer_factory.hpp:77] Creating layer scale3a_branch2a
I0625 11:56:04.410974  4216 net.cpp:150] Setting up scale3a_branch2a
I0625 11:56:04.410980  4216 net.cpp:157] Top shape: 1 128 120 160 (2457600)
I0625 11:56:04.410982  4216 net.cpp:165] Memory required for data: 2924544084
I0625 11:56:04.410991  4216 layer_factory.hpp:77] Creating layer res3a_branch2a_relu
I0625 11:56:04.411001  4216 net.cpp:100] Creating Layer res3a_branch2a_relu
I0625 11:56:04.411006  4216 net.cpp:444] res3a_branch2a_relu <- res3a_branch2a
I0625 11:56:04.411015  4216 net.cpp:405] res3a_branch2a_relu -> res3a_branch2a (in-place)
I0625 11:56:04.411145  4216 net.cpp:150] Setting up res3a_branch2a_relu
I0625 11:56:04.411152  4216 net.cpp:157] Top shape: 1 128 120 160 (2457600)
I0625 11:56:04.411154  4216 net.cpp:165] Memory required for data: 2934374484
I0625 11:56:04.411157  4216 layer_factory.hpp:77] Creating layer res3a_branch2b
I0625 11:56:04.411168  4216 net.cpp:100] Creating Layer res3a_branch2b
I0625 11:56:04.411173  4216 net.cpp:444] res3a_branch2b <- res3a_branch2a
I0625 11:56:04.411185  4216 net.cpp:418] res3a_branch2b -> res3a_branch2b
I0625 11:56:04.412693  4216 cudnn_conv_layer.cpp:194] Reallocating workspace storage: 3145728
I0625 11:56:04.412897  4216 net.cpp:150] Setting up res3a_branch2b
I0625 11:56:04.412909  4216 net.cpp:157] Top shape: 1 128 120 160 (2457600)
I0625 11:56:04.412911  4216 net.cpp:165] Memory required for data: 2944204884
I0625 11:56:04.412923  4216 layer_factory.hpp:77] Creating layer bn3a_branch2b
I0625 11:56:04.412940  4216 net.cpp:100] Creating Layer bn3a_branch2b
I0625 11:56:04.412946  4216 net.cpp:444] bn3a_branch2b <- res3a_branch2b
I0625 11:56:04.412958  4216 net.cpp:405] bn3a_branch2b -> res3a_branch2b (in-place)
I0625 11:56:04.413130  4216 net.cpp:150] Setting up bn3a_branch2b
I0625 11:56:04.413136  4216 net.cpp:157] Top shape: 1 128 120 160 (2457600)
I0625 11:56:04.413137  4216 net.cpp:165] Memory required for data: 2954035284
I0625 11:56:04.413149  4216 layer_factory.hpp:77] Creating layer scale3a_branch2b
I0625 11:56:04.413172  4216 net.cpp:100] Creating Layer scale3a_branch2b
I0625 11:56:04.413177  4216 net.cpp:444] scale3a_branch2b <- res3a_branch2b
I0625 11:56:04.413185  4216 net.cpp:405] scale3a_branch2b -> res3a_branch2b (in-place)
I0625 11:56:04.413228  4216 layer_factory.hpp:77] Creating layer scale3a_branch2b
I0625 11:56:04.413373  4216 net.cpp:150] Setting up scale3a_branch2b
I0625 11:56:04.413379  4216 net.cpp:157] Top shape: 1 128 120 160 (2457600)
I0625 11:56:04.413381  4216 net.cpp:165] Memory required for data: 2963865684
I0625 11:56:04.413391  4216 layer_factory.hpp:77] Creating layer res3a_branch2b_relu
I0625 11:56:04.413399  4216 net.cpp:100] Creating Layer res3a_branch2b_relu
I0625 11:56:04.413403  4216 net.cpp:444] res3a_branch2b_relu <- res3a_branch2b
I0625 11:56:04.413413  4216 net.cpp:405] res3a_branch2b_relu -> res3a_branch2b (in-place)
I0625 11:56:04.413540  4216 net.cpp:150] Setting up res3a_branch2b_relu
I0625 11:56:04.413547  4216 net.cpp:157] Top shape: 1 128 120 160 (2457600)
I0625 11:56:04.413547  4216 net.cpp:165] Memory required for data: 2973696084
I0625 11:56:04.413552  4216 layer_factory.hpp:77] Creating layer res3a_branch2c
I0625 11:56:04.413564  4216 net.cpp:100] Creating Layer res3a_branch2c
I0625 11:56:04.413569  4216 net.cpp:444] res3a_branch2c <- res3a_branch2b
I0625 11:56:04.413580  4216 net.cpp:418] res3a_branch2c -> res3a_branch2c
I0625 11:56:04.414386  4216 cudnn_conv_layer.cpp:194] Reallocating workspace storage: 352152
I0625 11:56:04.414398  4216 net.cpp:150] Setting up res3a_branch2c
I0625 11:56:04.414404  4216 net.cpp:157] Top shape: 1 512 120 160 (9830400)
I0625 11:56:04.414407  4216 net.cpp:165] Memory required for data: 3013017684
I0625 11:56:04.414414  4216 layer_factory.hpp:77] Creating layer bn3a_branch2c
I0625 11:56:04.414427  4216 net.cpp:100] Creating Layer bn3a_branch2c
I0625 11:56:04.414432  4216 net.cpp:444] bn3a_branch2c <- res3a_branch2c
I0625 11:56:04.414443  4216 net.cpp:405] bn3a_branch2c -> res3a_branch2c (in-place)
I0625 11:56:04.414609  4216 net.cpp:150] Setting up bn3a_branch2c
I0625 11:56:04.414614  4216 net.cpp:157] Top shape: 1 512 120 160 (9830400)
I0625 11:56:04.414616  4216 net.cpp:165] Memory required for data: 3052339284
I0625 11:56:04.414629  4216 layer_factory.hpp:77] Creating layer scale3a_branch2c
I0625 11:56:04.414640  4216 net.cpp:100] Creating Layer scale3a_branch2c
I0625 11:56:04.414644  4216 net.cpp:444] scale3a_branch2c <- res3a_branch2c
I0625 11:56:04.414654  4216 net.cpp:405] scale3a_branch2c -> res3a_branch2c (in-place)
I0625 11:56:04.414691  4216 layer_factory.hpp:77] Creating layer scale3a_branch2c
I0625 11:56:04.414839  4216 net.cpp:150] Setting up scale3a_branch2c
I0625 11:56:04.414844  4216 net.cpp:157] Top shape: 1 512 120 160 (9830400)
I0625 11:56:04.414846  4216 net.cpp:165] Memory required for data: 3091660884
I0625 11:56:04.414855  4216 layer_factory.hpp:77] Creating layer res3a
I0625 11:56:04.414868  4216 net.cpp:100] Creating Layer res3a
I0625 11:56:04.414873  4216 net.cpp:444] res3a <- res3a_branch1
I0625 11:56:04.414881  4216 net.cpp:444] res3a <- res3a_branch2c
I0625 11:56:04.414888  4216 net.cpp:418] res3a -> res3a
I0625 11:56:04.414918  4216 net.cpp:150] Setting up res3a
I0625 11:56:04.414924  4216 net.cpp:157] Top shape: 1 512 120 160 (9830400)
I0625 11:56:04.414925  4216 net.cpp:165] Memory required for data: 3130982484
I0625 11:56:04.414928  4216 layer_factory.hpp:77] Creating layer res3a_relu
I0625 11:56:04.414935  4216 net.cpp:100] Creating Layer res3a_relu
I0625 11:56:04.414940  4216 net.cpp:444] res3a_relu <- res3a
I0625 11:56:04.414950  4216 net.cpp:405] res3a_relu -> res3a (in-place)
I0625 11:56:04.415264  4216 net.cpp:150] Setting up res3a_relu
I0625 11:56:04.415272  4216 net.cpp:157] Top shape: 1 512 120 160 (9830400)
I0625 11:56:04.415274  4216 net.cpp:165] Memory required for data: 3170304084
I0625 11:56:04.415278  4216 layer_factory.hpp:77] Creating layer res3a_res3a_relu_0_split
I0625 11:56:04.415288  4216 net.cpp:100] Creating Layer res3a_res3a_relu_0_split
I0625 11:56:04.415293  4216 net.cpp:444] res3a_res3a_relu_0_split <- res3a
I0625 11:56:04.415304  4216 net.cpp:418] res3a_res3a_relu_0_split -> res3a_res3a_relu_0_split_0
I0625 11:56:04.415316  4216 net.cpp:418] res3a_res3a_relu_0_split -> res3a_res3a_relu_0_split_1
I0625 11:56:04.415354  4216 net.cpp:150] Setting up res3a_res3a_relu_0_split
I0625 11:56:04.415361  4216 net.cpp:157] Top shape: 1 512 120 160 (9830400)
I0625 11:56:04.415364  4216 net.cpp:157] Top shape: 1 512 120 160 (9830400)
I0625 11:56:04.415366  4216 net.cpp:165] Memory required for data: 3248947284
I0625 11:56:04.415369  4216 layer_factory.hpp:77] Creating layer res3b_branch2a
I0625 11:56:04.415382  4216 net.cpp:100] Creating Layer res3b_branch2a
I0625 11:56:04.415387  4216 net.cpp:444] res3b_branch2a <- res3a_res3a_relu_0_split_0
I0625 11:56:04.415398  4216 net.cpp:418] res3b_branch2a -> res3b_branch2a
I0625 11:56:04.416195  4216 cudnn_conv_layer.cpp:194] Reallocating workspace storage: 352152
I0625 11:56:04.416211  4216 net.cpp:150] Setting up res3b_branch2a
I0625 11:56:04.416218  4216 net.cpp:157] Top shape: 1 128 120 160 (2457600)
I0625 11:56:04.416220  4216 net.cpp:165] Memory required for data: 3258777684
I0625 11:56:04.416229  4216 layer_factory.hpp:77] Creating layer bn3b_branch2a
I0625 11:56:04.416240  4216 net.cpp:100] Creating Layer bn3b_branch2a
I0625 11:56:04.416245  4216 net.cpp:444] bn3b_branch2a <- res3b_branch2a
I0625 11:56:04.416257  4216 net.cpp:405] bn3b_branch2a -> res3b_branch2a (in-place)
I0625 11:56:04.416426  4216 net.cpp:150] Setting up bn3b_branch2a
I0625 11:56:04.416432  4216 net.cpp:157] Top shape: 1 128 120 160 (2457600)
I0625 11:56:04.416435  4216 net.cpp:165] Memory required for data: 3268608084
I0625 11:56:04.416447  4216 layer_factory.hpp:77] Creating layer scale3b_branch2a
I0625 11:56:04.416457  4216 net.cpp:100] Creating Layer scale3b_branch2a
I0625 11:56:04.416462  4216 net.cpp:444] scale3b_branch2a <- res3b_branch2a
I0625 11:56:04.416471  4216 net.cpp:405] scale3b_branch2a -> res3b_branch2a (in-place)
I0625 11:56:04.416513  4216 layer_factory.hpp:77] Creating layer scale3b_branch2a
I0625 11:56:04.417165  4216 net.cpp:150] Setting up scale3b_branch2a
I0625 11:56:04.417172  4216 net.cpp:157] Top shape: 1 128 120 160 (2457600)
I0625 11:56:04.417174  4216 net.cpp:165] Memory required for data: 3278438484
I0625 11:56:04.417186  4216 layer_factory.hpp:77] Creating layer res3b_branch2a_relu
I0625 11:56:04.417194  4216 net.cpp:100] Creating Layer res3b_branch2a_relu
I0625 11:56:04.417201  4216 net.cpp:444] res3b_branch2a_relu <- res3b_branch2a
I0625 11:56:04.417209  4216 net.cpp:405] res3b_branch2a_relu -> res3b_branch2a (in-place)
I0625 11:56:04.417346  4216 net.cpp:150] Setting up res3b_branch2a_relu
I0625 11:56:04.417352  4216 net.cpp:157] Top shape: 1 128 120 160 (2457600)
I0625 11:56:04.417354  4216 net.cpp:165] Memory required for data: 3288268884
I0625 11:56:04.417358  4216 layer_factory.hpp:77] Creating layer res3b_branch2b
I0625 11:56:04.417371  4216 net.cpp:100] Creating Layer res3b_branch2b
I0625 11:56:04.417376  4216 net.cpp:444] res3b_branch2b <- res3b_branch2a
I0625 11:56:04.417388  4216 net.cpp:418] res3b_branch2b -> res3b_branch2b
I0625 11:56:04.418505  4216 cudnn_conv_layer.cpp:194] Reallocating workspace storage: 3145728
I0625 11:56:04.418701  4216 net.cpp:150] Setting up res3b_branch2b
I0625 11:56:04.418710  4216 net.cpp:157] Top shape: 1 128 120 160 (2457600)
I0625 11:56:04.418712  4216 net.cpp:165] Memory required for data: 3298099284
I0625 11:56:04.418722  4216 layer_factory.hpp:77] Creating layer bn3b_branch2b
I0625 11:56:04.418735  4216 net.cpp:100] Creating Layer bn3b_branch2b
I0625 11:56:04.418738  4216 net.cpp:444] bn3b_branch2b <- res3b_branch2b
I0625 11:56:04.418751  4216 net.cpp:405] bn3b_branch2b -> res3b_branch2b (in-place)
I0625 11:56:04.418937  4216 net.cpp:150] Setting up bn3b_branch2b
I0625 11:56:04.418943  4216 net.cpp:157] Top shape: 1 128 120 160 (2457600)
I0625 11:56:04.418946  4216 net.cpp:165] Memory required for data: 3307929684
I0625 11:56:04.418959  4216 layer_factory.hpp:77] Creating layer scale3b_branch2b
I0625 11:56:04.418970  4216 net.cpp:100] Creating Layer scale3b_branch2b
I0625 11:56:04.418974  4216 net.cpp:444] scale3b_branch2b <- res3b_branch2b
I0625 11:56:04.418984  4216 net.cpp:405] scale3b_branch2b -> res3b_branch2b (in-place)
I0625 11:56:04.419026  4216 layer_factory.hpp:77] Creating layer scale3b_branch2b
I0625 11:56:04.419173  4216 net.cpp:150] Setting up scale3b_branch2b
I0625 11:56:04.419178  4216 net.cpp:157] Top shape: 1 128 120 160 (2457600)
I0625 11:56:04.419180  4216 net.cpp:165] Memory required for data: 3317760084
I0625 11:56:04.419188  4216 layer_factory.hpp:77] Creating layer res3b_branch2b_relu
I0625 11:56:04.419198  4216 net.cpp:100] Creating Layer res3b_branch2b_relu
I0625 11:56:04.419203  4216 net.cpp:444] res3b_branch2b_relu <- res3b_branch2b
I0625 11:56:04.419212  4216 net.cpp:405] res3b_branch2b_relu -> res3b_branch2b (in-place)
I0625 11:56:04.419342  4216 net.cpp:150] Setting up res3b_branch2b_relu
I0625 11:56:04.419348  4216 net.cpp:157] Top shape: 1 128 120 160 (2457600)
I0625 11:56:04.419349  4216 net.cpp:165] Memory required for data: 3327590484
I0625 11:56:04.419353  4216 layer_factory.hpp:77] Creating layer res3b_branch2c
I0625 11:56:04.419365  4216 net.cpp:100] Creating Layer res3b_branch2c
I0625 11:56:04.419369  4216 net.cpp:444] res3b_branch2c <- res3b_branch2b
I0625 11:56:04.419381  4216 net.cpp:418] res3b_branch2c -> res3b_branch2c
I0625 11:56:04.420183  4216 cudnn_conv_layer.cpp:194] Reallocating workspace storage: 352152
I0625 11:56:04.420197  4216 net.cpp:150] Setting up res3b_branch2c
I0625 11:56:04.420202  4216 net.cpp:157] Top shape: 1 512 120 160 (9830400)
I0625 11:56:04.420205  4216 net.cpp:165] Memory required for data: 3366912084
I0625 11:56:04.420213  4216 layer_factory.hpp:77] Creating layer bn3b_branch2c
I0625 11:56:04.420224  4216 net.cpp:100] Creating Layer bn3b_branch2c
I0625 11:56:04.420229  4216 net.cpp:444] bn3b_branch2c <- res3b_branch2c
I0625 11:56:04.420241  4216 net.cpp:405] bn3b_branch2c -> res3b_branch2c (in-place)
I0625 11:56:04.420414  4216 net.cpp:150] Setting up bn3b_branch2c
I0625 11:56:04.420419  4216 net.cpp:157] Top shape: 1 512 120 160 (9830400)
I0625 11:56:04.420421  4216 net.cpp:165] Memory required for data: 3406233684
I0625 11:56:04.420434  4216 layer_factory.hpp:77] Creating layer scale3b_branch2c
I0625 11:56:04.420444  4216 net.cpp:100] Creating Layer scale3b_branch2c
I0625 11:56:04.420449  4216 net.cpp:444] scale3b_branch2c <- res3b_branch2c
I0625 11:56:04.420460  4216 net.cpp:405] scale3b_branch2c -> res3b_branch2c (in-place)
I0625 11:56:04.420498  4216 layer_factory.hpp:77] Creating layer scale3b_branch2c
I0625 11:56:04.420645  4216 net.cpp:150] Setting up scale3b_branch2c
I0625 11:56:04.420651  4216 net.cpp:157] Top shape: 1 512 120 160 (9830400)
I0625 11:56:04.420653  4216 net.cpp:165] Memory required for data: 3445555284
I0625 11:56:04.420662  4216 layer_factory.hpp:77] Creating layer res3b
I0625 11:56:04.420671  4216 net.cpp:100] Creating Layer res3b
I0625 11:56:04.420676  4216 net.cpp:444] res3b <- res3a_res3a_relu_0_split_1
I0625 11:56:04.420684  4216 net.cpp:444] res3b <- res3b_branch2c
I0625 11:56:04.420691  4216 net.cpp:418] res3b -> res3b
I0625 11:56:04.420720  4216 net.cpp:150] Setting up res3b
I0625 11:56:04.420727  4216 net.cpp:157] Top shape: 1 512 120 160 (9830400)
I0625 11:56:04.420729  4216 net.cpp:165] Memory required for data: 3484876884
I0625 11:56:04.420732  4216 layer_factory.hpp:77] Creating layer res3b_relu
I0625 11:56:04.420739  4216 net.cpp:100] Creating Layer res3b_relu
I0625 11:56:04.420743  4216 net.cpp:444] res3b_relu <- res3b
I0625 11:56:04.420753  4216 net.cpp:405] res3b_relu -> res3b (in-place)
I0625 11:56:04.421069  4216 net.cpp:150] Setting up res3b_relu
I0625 11:56:04.421077  4216 net.cpp:157] Top shape: 1 512 120 160 (9830400)
I0625 11:56:04.421078  4216 net.cpp:165] Memory required for data: 3524198484
I0625 11:56:04.421082  4216 layer_factory.hpp:77] Creating layer res3b_res3b_relu_0_split
I0625 11:56:04.421092  4216 net.cpp:100] Creating Layer res3b_res3b_relu_0_split
I0625 11:56:04.421097  4216 net.cpp:444] res3b_res3b_relu_0_split <- res3b
I0625 11:56:04.421108  4216 net.cpp:418] res3b_res3b_relu_0_split -> res3b_res3b_relu_0_split_0
I0625 11:56:04.421120  4216 net.cpp:418] res3b_res3b_relu_0_split -> res3b_res3b_relu_0_split_1
I0625 11:56:04.421159  4216 net.cpp:150] Setting up res3b_res3b_relu_0_split
I0625 11:56:04.421165  4216 net.cpp:157] Top shape: 1 512 120 160 (9830400)
I0625 11:56:04.421169  4216 net.cpp:157] Top shape: 1 512 120 160 (9830400)
I0625 11:56:04.421171  4216 net.cpp:165] Memory required for data: 3602841684
I0625 11:56:04.421175  4216 layer_factory.hpp:77] Creating layer res3c_branch2a
I0625 11:56:04.421186  4216 net.cpp:100] Creating Layer res3c_branch2a
I0625 11:56:04.421191  4216 net.cpp:444] res3c_branch2a <- res3b_res3b_relu_0_split_0
I0625 11:56:04.421202  4216 net.cpp:418] res3c_branch2a -> res3c_branch2a
I0625 11:56:04.422000  4216 cudnn_conv_layer.cpp:194] Reallocating workspace storage: 352152
I0625 11:56:04.422016  4216 net.cpp:150] Setting up res3c_branch2a
I0625 11:56:04.422022  4216 net.cpp:157] Top shape: 1 128 120 160 (2457600)
I0625 11:56:04.422025  4216 net.cpp:165] Memory required for data: 3612672084
I0625 11:56:04.422034  4216 layer_factory.hpp:77] Creating layer bn3c_branch2a
I0625 11:56:04.422045  4216 net.cpp:100] Creating Layer bn3c_branch2a
I0625 11:56:04.422050  4216 net.cpp:444] bn3c_branch2a <- res3c_branch2a
I0625 11:56:04.422061  4216 net.cpp:405] bn3c_branch2a -> res3c_branch2a (in-place)
I0625 11:56:04.422233  4216 net.cpp:150] Setting up bn3c_branch2a
I0625 11:56:04.422238  4216 net.cpp:157] Top shape: 1 128 120 160 (2457600)
I0625 11:56:04.422241  4216 net.cpp:165] Memory required for data: 3622502484
I0625 11:56:04.422253  4216 layer_factory.hpp:77] Creating layer scale3c_branch2a
I0625 11:56:04.422264  4216 net.cpp:100] Creating Layer scale3c_branch2a
I0625 11:56:04.422269  4216 net.cpp:444] scale3c_branch2a <- res3c_branch2a
I0625 11:56:04.422279  4216 net.cpp:405] scale3c_branch2a -> res3c_branch2a (in-place)
I0625 11:56:04.422332  4216 layer_factory.hpp:77] Creating layer scale3c_branch2a
I0625 11:56:04.422524  4216 net.cpp:150] Setting up scale3c_branch2a
I0625 11:56:04.422531  4216 net.cpp:157] Top shape: 1 128 120 160 (2457600)
I0625 11:56:04.422534  4216 net.cpp:165] Memory required for data: 3632332884
I0625 11:56:04.422545  4216 layer_factory.hpp:77] Creating layer res3c_branch2a_relu
I0625 11:56:04.422556  4216 net.cpp:100] Creating Layer res3c_branch2a_relu
I0625 11:56:04.422562  4216 net.cpp:444] res3c_branch2a_relu <- res3c_branch2a
I0625 11:56:04.422574  4216 net.cpp:405] res3c_branch2a_relu -> res3c_branch2a (in-place)
I0625 11:56:04.422729  4216 net.cpp:150] Setting up res3c_branch2a_relu
I0625 11:56:04.422736  4216 net.cpp:157] Top shape: 1 128 120 160 (2457600)
I0625 11:56:04.422739  4216 net.cpp:165] Memory required for data: 3642163284
I0625 11:56:04.422744  4216 layer_factory.hpp:77] Creating layer res3c_branch2b
I0625 11:56:04.422760  4216 net.cpp:100] Creating Layer res3c_branch2b
I0625 11:56:04.422765  4216 net.cpp:444] res3c_branch2b <- res3c_branch2a
I0625 11:56:04.422780  4216 net.cpp:418] res3c_branch2b -> res3c_branch2b
I0625 11:56:04.423940  4216 cudnn_conv_layer.cpp:194] Reallocating workspace storage: 3145728
I0625 11:56:04.424140  4216 net.cpp:150] Setting up res3c_branch2b
I0625 11:56:04.424149  4216 net.cpp:157] Top shape: 1 128 120 160 (2457600)
I0625 11:56:04.424151  4216 net.cpp:165] Memory required for data: 3651993684
I0625 11:56:04.424161  4216 layer_factory.hpp:77] Creating layer bn3c_branch2b
I0625 11:56:04.424173  4216 net.cpp:100] Creating Layer bn3c_branch2b
I0625 11:56:04.424177  4216 net.cpp:444] bn3c_branch2b <- res3c_branch2b
I0625 11:56:04.424190  4216 net.cpp:405] bn3c_branch2b -> res3c_branch2b (in-place)
I0625 11:56:04.424365  4216 net.cpp:150] Setting up bn3c_branch2b
I0625 11:56:04.424371  4216 net.cpp:157] Top shape: 1 128 120 160 (2457600)
I0625 11:56:04.424372  4216 net.cpp:165] Memory required for data: 3661824084
I0625 11:56:04.424386  4216 layer_factory.hpp:77] Creating layer scale3c_branch2b
I0625 11:56:04.424396  4216 net.cpp:100] Creating Layer scale3c_branch2b
I0625 11:56:04.424399  4216 net.cpp:444] scale3c_branch2b <- res3c_branch2b
I0625 11:56:04.424409  4216 net.cpp:405] scale3c_branch2b -> res3c_branch2b (in-place)
I0625 11:56:04.424453  4216 layer_factory.hpp:77] Creating layer scale3c_branch2b
I0625 11:56:04.424599  4216 net.cpp:150] Setting up scale3c_branch2b
I0625 11:56:04.424605  4216 net.cpp:157] Top shape: 1 128 120 160 (2457600)
I0625 11:56:04.424607  4216 net.cpp:165] Memory required for data: 3671654484
I0625 11:56:04.424615  4216 layer_factory.hpp:77] Creating layer res3c_branch2b_relu
I0625 11:56:04.424623  4216 net.cpp:100] Creating Layer res3c_branch2b_relu
I0625 11:56:04.424628  4216 net.cpp:444] res3c_branch2b_relu <- res3c_branch2b
I0625 11:56:04.424636  4216 net.cpp:405] res3c_branch2b_relu -> res3c_branch2b (in-place)
I0625 11:56:04.424770  4216 net.cpp:150] Setting up res3c_branch2b_relu
I0625 11:56:04.424777  4216 net.cpp:157] Top shape: 1 128 120 160 (2457600)
I0625 11:56:04.424778  4216 net.cpp:165] Memory required for data: 3681484884
I0625 11:56:04.424782  4216 layer_factory.hpp:77] Creating layer res3c_branch2c
I0625 11:56:04.424793  4216 net.cpp:100] Creating Layer res3c_branch2c
I0625 11:56:04.424798  4216 net.cpp:444] res3c_branch2c <- res3c_branch2b
I0625 11:56:04.424809  4216 net.cpp:418] res3c_branch2c -> res3c_branch2c
I0625 11:56:04.425622  4216 cudnn_conv_layer.cpp:194] Reallocating workspace storage: 352152
I0625 11:56:04.425633  4216 net.cpp:150] Setting up res3c_branch2c
I0625 11:56:04.425640  4216 net.cpp:157] Top shape: 1 512 120 160 (9830400)
I0625 11:56:04.425642  4216 net.cpp:165] Memory required for data: 3720806484
I0625 11:56:04.425650  4216 layer_factory.hpp:77] Creating layer bn3c_branch2c
I0625 11:56:04.425662  4216 net.cpp:100] Creating Layer bn3c_branch2c
I0625 11:56:04.425668  4216 net.cpp:444] bn3c_branch2c <- res3c_branch2c
I0625 11:56:04.425678  4216 net.cpp:405] bn3c_branch2c -> res3c_branch2c (in-place)
I0625 11:56:04.425848  4216 net.cpp:150] Setting up bn3c_branch2c
I0625 11:56:04.425853  4216 net.cpp:157] Top shape: 1 512 120 160 (9830400)
I0625 11:56:04.425855  4216 net.cpp:165] Memory required for data: 3760128084
I0625 11:56:04.425868  4216 layer_factory.hpp:77] Creating layer scale3c_branch2c
I0625 11:56:04.425879  4216 net.cpp:100] Creating Layer scale3c_branch2c
I0625 11:56:04.425884  4216 net.cpp:444] scale3c_branch2c <- res3c_branch2c
I0625 11:56:04.425892  4216 net.cpp:405] scale3c_branch2c -> res3c_branch2c (in-place)
I0625 11:56:04.425931  4216 layer_factory.hpp:77] Creating layer scale3c_branch2c
I0625 11:56:04.426082  4216 net.cpp:150] Setting up scale3c_branch2c
I0625 11:56:04.426089  4216 net.cpp:157] Top shape: 1 512 120 160 (9830400)
I0625 11:56:04.426090  4216 net.cpp:165] Memory required for data: 3799449684
I0625 11:56:04.426098  4216 layer_factory.hpp:77] Creating layer res3c
I0625 11:56:04.426106  4216 net.cpp:100] Creating Layer res3c
I0625 11:56:04.426110  4216 net.cpp:444] res3c <- res3b_res3b_relu_0_split_1
I0625 11:56:04.426118  4216 net.cpp:444] res3c <- res3c_branch2c
I0625 11:56:04.426127  4216 net.cpp:418] res3c -> res3c
I0625 11:56:04.426156  4216 net.cpp:150] Setting up res3c
I0625 11:56:04.426163  4216 net.cpp:157] Top shape: 1 512 120 160 (9830400)
I0625 11:56:04.426165  4216 net.cpp:165] Memory required for data: 3838771284
I0625 11:56:04.426168  4216 layer_factory.hpp:77] Creating layer res3c_relu
I0625 11:56:04.426175  4216 net.cpp:100] Creating Layer res3c_relu
I0625 11:56:04.426179  4216 net.cpp:444] res3c_relu <- res3c
I0625 11:56:04.426188  4216 net.cpp:405] res3c_relu -> res3c (in-place)
I0625 11:56:04.426311  4216 net.cpp:150] Setting up res3c_relu
I0625 11:56:04.426317  4216 net.cpp:157] Top shape: 1 512 120 160 (9830400)
I0625 11:56:04.426319  4216 net.cpp:165] Memory required for data: 3878092884
I0625 11:56:04.426323  4216 layer_factory.hpp:77] Creating layer res3c_res3c_relu_0_split
I0625 11:56:04.426331  4216 net.cpp:100] Creating Layer res3c_res3c_relu_0_split
I0625 11:56:04.426335  4216 net.cpp:444] res3c_res3c_relu_0_split <- res3c
I0625 11:56:04.426347  4216 net.cpp:418] res3c_res3c_relu_0_split -> res3c_res3c_relu_0_split_0
I0625 11:56:04.426358  4216 net.cpp:418] res3c_res3c_relu_0_split -> res3c_res3c_relu_0_split_1
I0625 11:56:04.426394  4216 net.cpp:150] Setting up res3c_res3c_relu_0_split
I0625 11:56:04.426400  4216 net.cpp:157] Top shape: 1 512 120 160 (9830400)
I0625 11:56:04.426404  4216 net.cpp:157] Top shape: 1 512 120 160 (9830400)
I0625 11:56:04.426406  4216 net.cpp:165] Memory required for data: 3956736084
I0625 11:56:04.426409  4216 layer_factory.hpp:77] Creating layer res3d_branch2a
I0625 11:56:04.426420  4216 net.cpp:100] Creating Layer res3d_branch2a
I0625 11:56:04.426425  4216 net.cpp:444] res3d_branch2a <- res3c_res3c_relu_0_split_0
I0625 11:56:04.426436  4216 net.cpp:418] res3d_branch2a -> res3d_branch2a
I0625 11:56:04.427759  4216 cudnn_conv_layer.cpp:194] Reallocating workspace storage: 352152
I0625 11:56:04.427776  4216 net.cpp:150] Setting up res3d_branch2a
I0625 11:56:04.427783  4216 net.cpp:157] Top shape: 1 128 120 160 (2457600)
I0625 11:56:04.427786  4216 net.cpp:165] Memory required for data: 3966566484
I0625 11:56:04.427795  4216 layer_factory.hpp:77] Creating layer bn3d_branch2a
I0625 11:56:04.427809  4216 net.cpp:100] Creating Layer bn3d_branch2a
I0625 11:56:04.427814  4216 net.cpp:444] bn3d_branch2a <- res3d_branch2a
I0625 11:56:04.427826  4216 net.cpp:405] bn3d_branch2a -> res3d_branch2a (in-place)
I0625 11:56:04.427999  4216 net.cpp:150] Setting up bn3d_branch2a
I0625 11:56:04.428005  4216 net.cpp:157] Top shape: 1 128 120 160 (2457600)
I0625 11:56:04.428007  4216 net.cpp:165] Memory required for data: 3976396884
I0625 11:56:04.428041  4216 layer_factory.hpp:77] Creating layer scale3d_branch2a
I0625 11:56:04.428053  4216 net.cpp:100] Creating Layer scale3d_branch2a
I0625 11:56:04.428058  4216 net.cpp:444] scale3d_branch2a <- res3d_branch2a
I0625 11:56:04.428067  4216 net.cpp:405] scale3d_branch2a -> res3d_branch2a (in-place)
I0625 11:56:04.428112  4216 layer_factory.hpp:77] Creating layer scale3d_branch2a
I0625 11:56:04.428261  4216 net.cpp:150] Setting up scale3d_branch2a
I0625 11:56:04.428267  4216 net.cpp:157] Top shape: 1 128 120 160 (2457600)
I0625 11:56:04.428268  4216 net.cpp:165] Memory required for data: 3986227284
I0625 11:56:04.428277  4216 layer_factory.hpp:77] Creating layer res3d_branch2a_relu
I0625 11:56:04.428285  4216 net.cpp:100] Creating Layer res3d_branch2a_relu
I0625 11:56:04.428289  4216 net.cpp:444] res3d_branch2a_relu <- res3d_branch2a
I0625 11:56:04.428299  4216 net.cpp:405] res3d_branch2a_relu -> res3d_branch2a (in-place)
I0625 11:56:04.428622  4216 net.cpp:150] Setting up res3d_branch2a_relu
I0625 11:56:04.428629  4216 net.cpp:157] Top shape: 1 128 120 160 (2457600)
I0625 11:56:04.428632  4216 net.cpp:165] Memory required for data: 3996057684
I0625 11:56:04.428635  4216 layer_factory.hpp:77] Creating layer res3d_branch2b
I0625 11:56:04.428649  4216 net.cpp:100] Creating Layer res3d_branch2b
I0625 11:56:04.428654  4216 net.cpp:444] res3d_branch2b <- res3d_branch2a
I0625 11:56:04.428668  4216 net.cpp:418] res3d_branch2b -> res3d_branch2b
I0625 11:56:04.430083  4216 cudnn_conv_layer.cpp:194] Reallocating workspace storage: 3145728
I0625 11:56:04.430279  4216 net.cpp:150] Setting up res3d_branch2b
I0625 11:56:04.430289  4216 net.cpp:157] Top shape: 1 128 120 160 (2457600)
I0625 11:56:04.430291  4216 net.cpp:165] Memory required for data: 4005888084
I0625 11:56:04.430301  4216 layer_factory.hpp:77] Creating layer bn3d_branch2b
I0625 11:56:04.430313  4216 net.cpp:100] Creating Layer bn3d_branch2b
I0625 11:56:04.430318  4216 net.cpp:444] bn3d_branch2b <- res3d_branch2b
I0625 11:56:04.430330  4216 net.cpp:405] bn3d_branch2b -> res3d_branch2b (in-place)
I0625 11:56:04.430507  4216 net.cpp:150] Setting up bn3d_branch2b
I0625 11:56:04.430513  4216 net.cpp:157] Top shape: 1 128 120 160 (2457600)
I0625 11:56:04.430516  4216 net.cpp:165] Memory required for data: 4015718484
I0625 11:56:04.430527  4216 layer_factory.hpp:77] Creating layer scale3d_branch2b
I0625 11:56:04.430538  4216 net.cpp:100] Creating Layer scale3d_branch2b
I0625 11:56:04.430543  4216 net.cpp:444] scale3d_branch2b <- res3d_branch2b
I0625 11:56:04.430552  4216 net.cpp:405] scale3d_branch2b -> res3d_branch2b (in-place)
I0625 11:56:04.430594  4216 layer_factory.hpp:77] Creating layer scale3d_branch2b
I0625 11:56:04.430742  4216 net.cpp:150] Setting up scale3d_branch2b
I0625 11:56:04.430748  4216 net.cpp:157] Top shape: 1 128 120 160 (2457600)
I0625 11:56:04.430750  4216 net.cpp:165] Memory required for data: 4025548884
I0625 11:56:04.430758  4216 layer_factory.hpp:77] Creating layer res3d_branch2b_relu
I0625 11:56:04.430766  4216 net.cpp:100] Creating Layer res3d_branch2b_relu
I0625 11:56:04.430770  4216 net.cpp:444] res3d_branch2b_relu <- res3d_branch2b
I0625 11:56:04.430778  4216 net.cpp:405] res3d_branch2b_relu -> res3d_branch2b (in-place)
I0625 11:56:04.430925  4216 net.cpp:150] Setting up res3d_branch2b_relu
I0625 11:56:04.430932  4216 net.cpp:157] Top shape: 1 128 120 160 (2457600)
I0625 11:56:04.430934  4216 net.cpp:165] Memory required for data: 4035379284
I0625 11:56:04.430938  4216 layer_factory.hpp:77] Creating layer res3d_branch2c
I0625 11:56:04.430950  4216 net.cpp:100] Creating Layer res3d_branch2c
I0625 11:56:04.430955  4216 net.cpp:444] res3d_branch2c <- res3d_branch2b
I0625 11:56:04.430968  4216 net.cpp:418] res3d_branch2c -> res3d_branch2c
I0625 11:56:04.431797  4216 cudnn_conv_layer.cpp:194] Reallocating workspace storage: 352152
I0625 11:56:04.431809  4216 net.cpp:150] Setting up res3d_branch2c
I0625 11:56:04.431815  4216 net.cpp:157] Top shape: 1 512 120 160 (9830400)
I0625 11:56:04.431818  4216 net.cpp:165] Memory required for data: 4074700884
I0625 11:56:04.431826  4216 layer_factory.hpp:77] Creating layer bn3d_branch2c
I0625 11:56:04.431838  4216 net.cpp:100] Creating Layer bn3d_branch2c
I0625 11:56:04.431843  4216 net.cpp:444] bn3d_branch2c <- res3d_branch2c
I0625 11:56:04.431852  4216 net.cpp:405] bn3d_branch2c -> res3d_branch2c (in-place)
I0625 11:56:04.432031  4216 net.cpp:150] Setting up bn3d_branch2c
I0625 11:56:04.432036  4216 net.cpp:157] Top shape: 1 512 120 160 (9830400)
I0625 11:56:04.432039  4216 net.cpp:165] Memory required for data: 4114022484
I0625 11:56:04.432051  4216 layer_factory.hpp:77] Creating layer scale3d_branch2c
I0625 11:56:04.432062  4216 net.cpp:100] Creating Layer scale3d_branch2c
I0625 11:56:04.432067  4216 net.cpp:444] scale3d_branch2c <- res3d_branch2c
I0625 11:56:04.432076  4216 net.cpp:405] scale3d_branch2c -> res3d_branch2c (in-place)
I0625 11:56:04.432116  4216 layer_factory.hpp:77] Creating layer scale3d_branch2c
I0625 11:56:04.432265  4216 net.cpp:150] Setting up scale3d_branch2c
I0625 11:56:04.432271  4216 net.cpp:157] Top shape: 1 512 120 160 (9830400)
I0625 11:56:04.432273  4216 net.cpp:165] Memory required for data: 4153344084
I0625 11:56:04.432282  4216 layer_factory.hpp:77] Creating layer res3d
I0625 11:56:04.432291  4216 net.cpp:100] Creating Layer res3d
I0625 11:56:04.432296  4216 net.cpp:444] res3d <- res3c_res3c_relu_0_split_1
I0625 11:56:04.432304  4216 net.cpp:444] res3d <- res3d_branch2c
I0625 11:56:04.432312  4216 net.cpp:418] res3d -> res3d
I0625 11:56:04.432341  4216 net.cpp:150] Setting up res3d
I0625 11:56:04.432348  4216 net.cpp:157] Top shape: 1 512 120 160 (9830400)
I0625 11:56:04.432350  4216 net.cpp:165] Memory required for data: 4192665684
I0625 11:56:04.432353  4216 layer_factory.hpp:77] Creating layer res3d_relu
I0625 11:56:04.432361  4216 net.cpp:100] Creating Layer res3d_relu
I0625 11:56:04.432365  4216 net.cpp:444] res3d_relu <- res3d
I0625 11:56:04.432374  4216 net.cpp:405] res3d_relu -> res3d (in-place)
I0625 11:56:04.432503  4216 net.cpp:150] Setting up res3d_relu
I0625 11:56:04.432509  4216 net.cpp:157] Top shape: 1 512 120 160 (9830400)
I0625 11:56:04.432512  4216 net.cpp:165] Memory required for data: 4231987284
I0625 11:56:04.432515  4216 layer_factory.hpp:77] Creating layer res3d_res3d_relu_0_split
I0625 11:56:04.432524  4216 net.cpp:100] Creating Layer res3d_res3d_relu_0_split
I0625 11:56:04.432528  4216 net.cpp:444] res3d_res3d_relu_0_split <- res3d
I0625 11:56:04.432538  4216 net.cpp:418] res3d_res3d_relu_0_split -> res3d_res3d_relu_0_split_0
I0625 11:56:04.432549  4216 net.cpp:418] res3d_res3d_relu_0_split -> res3d_res3d_relu_0_split_1
I0625 11:56:04.432586  4216 net.cpp:150] Setting up res3d_res3d_relu_0_split
I0625 11:56:04.432593  4216 net.cpp:157] Top shape: 1 512 120 160 (9830400)
I0625 11:56:04.432596  4216 net.cpp:157] Top shape: 1 512 120 160 (9830400)
I0625 11:56:04.432598  4216 net.cpp:165] Memory required for data: 4310630484
I0625 11:56:04.432602  4216 layer_factory.hpp:77] Creating layer res4a_branch1
I0625 11:56:04.432615  4216 net.cpp:100] Creating Layer res4a_branch1
I0625 11:56:04.432618  4216 net.cpp:444] res4a_branch1 <- res3d_res3d_relu_0_split_0
I0625 11:56:04.432631  4216 net.cpp:418] res4a_branch1 -> res4a_branch1
I0625 11:56:04.434545  4216 cudnn_conv_layer.cpp:194] Reallocating workspace storage: 86424
I0625 11:56:04.434751  4216 net.cpp:150] Setting up res4a_branch1
I0625 11:56:04.434762  4216 net.cpp:157] Top shape: 1 1024 60 80 (4915200)
I0625 11:56:04.434763  4216 net.cpp:165] Memory required for data: 4330291284
I0625 11:56:04.434777  4216 layer_factory.hpp:77] Creating layer bn4a_branch1
I0625 11:56:04.434792  4216 net.cpp:100] Creating Layer bn4a_branch1
I0625 11:56:04.434798  4216 net.cpp:444] bn4a_branch1 <- res4a_branch1
I0625 11:56:04.434810  4216 net.cpp:405] bn4a_branch1 -> res4a_branch1 (in-place)
I0625 11:56:04.434991  4216 net.cpp:150] Setting up bn4a_branch1
I0625 11:56:04.434998  4216 net.cpp:157] Top shape: 1 1024 60 80 (4915200)
I0625 11:56:04.434999  4216 net.cpp:165] Memory required for data: 4349952084
I0625 11:56:04.435012  4216 layer_factory.hpp:77] Creating layer scale4a_branch1
I0625 11:56:04.435024  4216 net.cpp:100] Creating Layer scale4a_branch1
I0625 11:56:04.435029  4216 net.cpp:444] scale4a_branch1 <- res4a_branch1
I0625 11:56:04.435039  4216 net.cpp:405] scale4a_branch1 -> res4a_branch1 (in-place)
I0625 11:56:04.435081  4216 layer_factory.hpp:77] Creating layer scale4a_branch1
I0625 11:56:04.435210  4216 net.cpp:150] Setting up scale4a_branch1
I0625 11:56:04.435216  4216 net.cpp:157] Top shape: 1 1024 60 80 (4915200)
I0625 11:56:04.435219  4216 net.cpp:165] Memory required for data: 4369612884
I0625 11:56:04.435226  4216 layer_factory.hpp:77] Creating layer res4a_branch2a
I0625 11:56:04.435240  4216 net.cpp:100] Creating Layer res4a_branch2a
I0625 11:56:04.435246  4216 net.cpp:444] res4a_branch2a <- res3d_res3d_relu_0_split_1
I0625 11:56:04.435259  4216 net.cpp:418] res4a_branch2a -> res4a_branch2a
I0625 11:56:04.436164  4216 cudnn_conv_layer.cpp:194] Reallocating workspace storage: 86424
I0625 11:56:04.436180  4216 net.cpp:150] Setting up res4a_branch2a
I0625 11:56:04.436187  4216 net.cpp:157] Top shape: 1 256 60 80 (1228800)
I0625 11:56:04.436189  4216 net.cpp:165] Memory required for data: 4374528084
I0625 11:56:04.436197  4216 layer_factory.hpp:77] Creating layer bn4a_branch2a
I0625 11:56:04.436209  4216 net.cpp:100] Creating Layer bn4a_branch2a
I0625 11:56:04.436214  4216 net.cpp:444] bn4a_branch2a <- res4a_branch2a
I0625 11:56:04.436226  4216 net.cpp:405] bn4a_branch2a -> res4a_branch2a (in-place)
I0625 11:56:04.436389  4216 net.cpp:150] Setting up bn4a_branch2a
I0625 11:56:04.436395  4216 net.cpp:157] Top shape: 1 256 60 80 (1228800)
I0625 11:56:04.436398  4216 net.cpp:165] Memory required for data: 4379443284
I0625 11:56:04.436410  4216 layer_factory.hpp:77] Creating layer scale4a_branch2a
I0625 11:56:04.436420  4216 net.cpp:100] Creating Layer scale4a_branch2a
I0625 11:56:04.436425  4216 net.cpp:444] scale4a_branch2a <- res4a_branch2a
I0625 11:56:04.436434  4216 net.cpp:405] scale4a_branch2a -> res4a_branch2a (in-place)
I0625 11:56:04.436478  4216 layer_factory.hpp:77] Creating layer scale4a_branch2a
I0625 11:56:04.436599  4216 net.cpp:150] Setting up scale4a_branch2a
I0625 11:56:04.436604  4216 net.cpp:157] Top shape: 1 256 60 80 (1228800)
I0625 11:56:04.436607  4216 net.cpp:165] Memory required for data: 4384358484
I0625 11:56:04.436615  4216 layer_factory.hpp:77] Creating layer res4a_branch2a_relu
I0625 11:56:04.436625  4216 net.cpp:100] Creating Layer res4a_branch2a_relu
I0625 11:56:04.436630  4216 net.cpp:444] res4a_branch2a_relu <- res4a_branch2a
I0625 11:56:04.436637  4216 net.cpp:405] res4a_branch2a_relu -> res4a_branch2a (in-place)
I0625 11:56:04.436960  4216 net.cpp:150] Setting up res4a_branch2a_relu
I0625 11:56:04.436967  4216 net.cpp:157] Top shape: 1 256 60 80 (1228800)
I0625 11:56:04.436970  4216 net.cpp:165] Memory required for data: 4389273684
I0625 11:56:04.436975  4216 layer_factory.hpp:77] Creating layer res4a_branch2b
I0625 11:56:04.436987  4216 net.cpp:100] Creating Layer res4a_branch2b
I0625 11:56:04.436992  4216 net.cpp:444] res4a_branch2b <- res4a_branch2a
I0625 11:56:04.437005  4216 net.cpp:418] res4a_branch2b -> res4a_branch2b
I0625 11:56:04.439071  4216 cudnn_conv_layer.cpp:194] Reallocating workspace storage: 12582912
I0625 11:56:04.439277  4216 net.cpp:150] Setting up res4a_branch2b
I0625 11:56:04.439288  4216 net.cpp:157] Top shape: 1 256 60 80 (1228800)
I0625 11:56:04.439291  4216 net.cpp:165] Memory required for data: 4394188884
I0625 11:56:04.439302  4216 layer_factory.hpp:77] Creating layer bn4a_branch2b
I0625 11:56:04.439318  4216 net.cpp:100] Creating Layer bn4a_branch2b
I0625 11:56:04.439324  4216 net.cpp:444] bn4a_branch2b <- res4a_branch2b
I0625 11:56:04.439337  4216 net.cpp:405] bn4a_branch2b -> res4a_branch2b (in-place)
I0625 11:56:04.439509  4216 net.cpp:150] Setting up bn4a_branch2b
I0625 11:56:04.439514  4216 net.cpp:157] Top shape: 1 256 60 80 (1228800)
I0625 11:56:04.439517  4216 net.cpp:165] Memory required for data: 4399104084
I0625 11:56:04.439529  4216 layer_factory.hpp:77] Creating layer scale4a_branch2b
I0625 11:56:04.439541  4216 net.cpp:100] Creating Layer scale4a_branch2b
I0625 11:56:04.439546  4216 net.cpp:444] scale4a_branch2b <- res4a_branch2b
I0625 11:56:04.439555  4216 net.cpp:405] scale4a_branch2b -> res4a_branch2b (in-place)
I0625 11:56:04.439599  4216 layer_factory.hpp:77] Creating layer scale4a_branch2b
I0625 11:56:04.439723  4216 net.cpp:150] Setting up scale4a_branch2b
I0625 11:56:04.439728  4216 net.cpp:157] Top shape: 1 256 60 80 (1228800)
I0625 11:56:04.439730  4216 net.cpp:165] Memory required for data: 4404019284
I0625 11:56:04.439739  4216 layer_factory.hpp:77] Creating layer res4a_branch2b_relu
I0625 11:56:04.439749  4216 net.cpp:100] Creating Layer res4a_branch2b_relu
I0625 11:56:04.439754  4216 net.cpp:444] res4a_branch2b_relu <- res4a_branch2b
I0625 11:56:04.439762  4216 net.cpp:405] res4a_branch2b_relu -> res4a_branch2b (in-place)
I0625 11:56:04.439909  4216 net.cpp:150] Setting up res4a_branch2b_relu
I0625 11:56:04.439915  4216 net.cpp:157] Top shape: 1 256 60 80 (1228800)
I0625 11:56:04.439916  4216 net.cpp:165] Memory required for data: 4408934484
I0625 11:56:04.439920  4216 layer_factory.hpp:77] Creating layer res4a_branch2c
I0625 11:56:04.439934  4216 net.cpp:100] Creating Layer res4a_branch2c
I0625 11:56:04.439939  4216 net.cpp:444] res4a_branch2c <- res4a_branch2b
I0625 11:56:04.439950  4216 net.cpp:418] res4a_branch2c -> res4a_branch2c
I0625 11:56:04.441576  4216 cudnn_conv_layer.cpp:194] Reallocating workspace storage: 92952
I0625 11:56:04.441596  4216 net.cpp:150] Setting up res4a_branch2c
I0625 11:56:04.441604  4216 net.cpp:157] Top shape: 1 1024 60 80 (4915200)
I0625 11:56:04.441606  4216 net.cpp:165] Memory required for data: 4428595284
I0625 11:56:04.441618  4216 layer_factory.hpp:77] Creating layer bn4a_branch2c
I0625 11:56:04.441635  4216 net.cpp:100] Creating Layer bn4a_branch2c
I0625 11:56:04.441642  4216 net.cpp:444] bn4a_branch2c <- res4a_branch2c
I0625 11:56:04.441653  4216 net.cpp:405] bn4a_branch2c -> res4a_branch2c (in-place)
I0625 11:56:04.441825  4216 net.cpp:150] Setting up bn4a_branch2c
I0625 11:56:04.441831  4216 net.cpp:157] Top shape: 1 1024 60 80 (4915200)
I0625 11:56:04.441833  4216 net.cpp:165] Memory required for data: 4448256084
I0625 11:56:04.441845  4216 layer_factory.hpp:77] Creating layer scale4a_branch2c
I0625 11:56:04.441859  4216 net.cpp:100] Creating Layer scale4a_branch2c
I0625 11:56:04.441864  4216 net.cpp:444] scale4a_branch2c <- res4a_branch2c
I0625 11:56:04.441872  4216 net.cpp:405] scale4a_branch2c -> res4a_branch2c (in-place)
I0625 11:56:04.441915  4216 layer_factory.hpp:77] Creating layer scale4a_branch2c
I0625 11:56:04.442045  4216 net.cpp:150] Setting up scale4a_branch2c
I0625 11:56:04.442051  4216 net.cpp:157] Top shape: 1 1024 60 80 (4915200)
I0625 11:56:04.442054  4216 net.cpp:165] Memory required for data: 4467916884
I0625 11:56:04.442061  4216 layer_factory.hpp:77] Creating layer res4a
I0625 11:56:04.442085  4216 net.cpp:100] Creating Layer res4a
I0625 11:56:04.442090  4216 net.cpp:444] res4a <- res4a_branch1
I0625 11:56:04.442098  4216 net.cpp:444] res4a <- res4a_branch2c
I0625 11:56:04.442106  4216 net.cpp:418] res4a -> res4a
I0625 11:56:04.442147  4216 net.cpp:150] Setting up res4a
I0625 11:56:04.442155  4216 net.cpp:157] Top shape: 1 1024 60 80 (4915200)
I0625 11:56:04.442158  4216 net.cpp:165] Memory required for data: 4487577684
I0625 11:56:04.442167  4216 layer_factory.hpp:77] Creating layer res4a_relu
I0625 11:56:04.442178  4216 net.cpp:100] Creating Layer res4a_relu
I0625 11:56:04.442184  4216 net.cpp:444] res4a_relu <- res4a
I0625 11:56:04.442198  4216 net.cpp:405] res4a_relu -> res4a (in-place)
I0625 11:56:04.442338  4216 net.cpp:150] Setting up res4a_relu
I0625 11:56:04.442344  4216 net.cpp:157] Top shape: 1 1024 60 80 (4915200)
I0625 11:56:04.442347  4216 net.cpp:165] Memory required for data: 4507238484
I0625 11:56:04.442350  4216 layer_factory.hpp:77] Creating layer res4a_res4a_relu_0_split
I0625 11:56:04.442358  4216 net.cpp:100] Creating Layer res4a_res4a_relu_0_split
I0625 11:56:04.442363  4216 net.cpp:444] res4a_res4a_relu_0_split <- res4a
I0625 11:56:04.442374  4216 net.cpp:418] res4a_res4a_relu_0_split -> res4a_res4a_relu_0_split_0
I0625 11:56:04.442386  4216 net.cpp:418] res4a_res4a_relu_0_split -> res4a_res4a_relu_0_split_1
I0625 11:56:04.442433  4216 net.cpp:150] Setting up res4a_res4a_relu_0_split
I0625 11:56:04.442440  4216 net.cpp:157] Top shape: 1 1024 60 80 (4915200)
I0625 11:56:04.442443  4216 net.cpp:157] Top shape: 1 1024 60 80 (4915200)
I0625 11:56:04.442445  4216 net.cpp:165] Memory required for data: 4546560084
I0625 11:56:04.442448  4216 layer_factory.hpp:77] Creating layer res4b_branch2a
I0625 11:56:04.442462  4216 net.cpp:100] Creating Layer res4b_branch2a
I0625 11:56:04.442467  4216 net.cpp:444] res4b_branch2a <- res4a_res4a_relu_0_split_0
I0625 11:56:04.442478  4216 net.cpp:418] res4b_branch2a -> res4b_branch2a
I0625 11:56:04.443648  4216 cudnn_conv_layer.cpp:194] Reallocating workspace storage: 92952
I0625 11:56:04.443670  4216 net.cpp:150] Setting up res4b_branch2a
I0625 11:56:04.443678  4216 net.cpp:157] Top shape: 1 256 60 80 (1228800)
I0625 11:56:04.443681  4216 net.cpp:165] Memory required for data: 4551475284
I0625 11:56:04.443691  4216 layer_factory.hpp:77] Creating layer bn4b_branch2a
I0625 11:56:04.443702  4216 net.cpp:100] Creating Layer bn4b_branch2a
I0625 11:56:04.443707  4216 net.cpp:444] bn4b_branch2a <- res4b_branch2a
I0625 11:56:04.443718  4216 net.cpp:405] bn4b_branch2a -> res4b_branch2a (in-place)
I0625 11:56:04.443889  4216 net.cpp:150] Setting up bn4b_branch2a
I0625 11:56:04.443894  4216 net.cpp:157] Top shape: 1 256 60 80 (1228800)
I0625 11:56:04.443897  4216 net.cpp:165] Memory required for data: 4556390484
I0625 11:56:04.443909  4216 layer_factory.hpp:77] Creating layer scale4b_branch2a
I0625 11:56:04.443920  4216 net.cpp:100] Creating Layer scale4b_branch2a
I0625 11:56:04.443925  4216 net.cpp:444] scale4b_branch2a <- res4b_branch2a
I0625 11:56:04.443934  4216 net.cpp:405] scale4b_branch2a -> res4b_branch2a (in-place)
I0625 11:56:04.443979  4216 layer_factory.hpp:77] Creating layer scale4b_branch2a
I0625 11:56:04.444104  4216 net.cpp:150] Setting up scale4b_branch2a
I0625 11:56:04.444110  4216 net.cpp:157] Top shape: 1 256 60 80 (1228800)
I0625 11:56:04.444113  4216 net.cpp:165] Memory required for data: 4561305684
I0625 11:56:04.444120  4216 layer_factory.hpp:77] Creating layer res4b_branch2a_relu
I0625 11:56:04.444129  4216 net.cpp:100] Creating Layer res4b_branch2a_relu
I0625 11:56:04.444133  4216 net.cpp:444] res4b_branch2a_relu <- res4b_branch2a
I0625 11:56:04.444142  4216 net.cpp:405] res4b_branch2a_relu -> res4b_branch2a (in-place)
I0625 11:56:04.444495  4216 net.cpp:150] Setting up res4b_branch2a_relu
I0625 11:56:04.444504  4216 net.cpp:157] Top shape: 1 256 60 80 (1228800)
I0625 11:56:04.444505  4216 net.cpp:165] Memory required for data: 4566220884
I0625 11:56:04.444510  4216 layer_factory.hpp:77] Creating layer res4b_branch2b
I0625 11:56:04.444525  4216 net.cpp:100] Creating Layer res4b_branch2b
I0625 11:56:04.444530  4216 net.cpp:444] res4b_branch2b <- res4b_branch2a
I0625 11:56:04.444542  4216 net.cpp:418] res4b_branch2b -> res4b_branch2b
I0625 11:56:04.446668  4216 cudnn_conv_layer.cpp:194] Reallocating workspace storage: 12582912
I0625 11:56:04.446892  4216 net.cpp:150] Setting up res4b_branch2b
I0625 11:56:04.446904  4216 net.cpp:157] Top shape: 1 256 60 80 (1228800)
I0625 11:56:04.446907  4216 net.cpp:165] Memory required for data: 4571136084
I0625 11:56:04.446919  4216 layer_factory.hpp:77] Creating layer bn4b_branch2b
I0625 11:56:04.446938  4216 net.cpp:100] Creating Layer bn4b_branch2b
I0625 11:56:04.446944  4216 net.cpp:444] bn4b_branch2b <- res4b_branch2b
I0625 11:56:04.446959  4216 net.cpp:405] bn4b_branch2b -> res4b_branch2b (in-place)
I0625 11:56:04.447139  4216 net.cpp:150] Setting up bn4b_branch2b
I0625 11:56:04.447144  4216 net.cpp:157] Top shape: 1 256 60 80 (1228800)
I0625 11:56:04.447146  4216 net.cpp:165] Memory required for data: 4576051284
I0625 11:56:04.447160  4216 layer_factory.hpp:77] Creating layer scale4b_branch2b
I0625 11:56:04.447172  4216 net.cpp:100] Creating Layer scale4b_branch2b
I0625 11:56:04.447177  4216 net.cpp:444] scale4b_branch2b <- res4b_branch2b
I0625 11:56:04.447186  4216 net.cpp:405] scale4b_branch2b -> res4b_branch2b (in-place)
I0625 11:56:04.447232  4216 layer_factory.hpp:77] Creating layer scale4b_branch2b
I0625 11:56:04.447358  4216 net.cpp:150] Setting up scale4b_branch2b
I0625 11:56:04.447365  4216 net.cpp:157] Top shape: 1 256 60 80 (1228800)
I0625 11:56:04.447366  4216 net.cpp:165] Memory required for data: 4580966484
I0625 11:56:04.447376  4216 layer_factory.hpp:77] Creating layer res4b_branch2b_relu
I0625 11:56:04.447384  4216 net.cpp:100] Creating Layer res4b_branch2b_relu
I0625 11:56:04.447388  4216 net.cpp:444] res4b_branch2b_relu <- res4b_branch2b
I0625 11:56:04.447397  4216 net.cpp:405] res4b_branch2b_relu -> res4b_branch2b (in-place)
I0625 11:56:04.447535  4216 net.cpp:150] Setting up res4b_branch2b_relu
I0625 11:56:04.447540  4216 net.cpp:157] Top shape: 1 256 60 80 (1228800)
I0625 11:56:04.447542  4216 net.cpp:165] Memory required for data: 4585881684
I0625 11:56:04.447546  4216 layer_factory.hpp:77] Creating layer res4b_branch2c
I0625 11:56:04.447558  4216 net.cpp:100] Creating Layer res4b_branch2c
I0625 11:56:04.447564  4216 net.cpp:444] res4b_branch2c <- res4b_branch2b
I0625 11:56:04.447574  4216 net.cpp:418] res4b_branch2c -> res4b_branch2c
I0625 11:56:04.449198  4216 cudnn_conv_layer.cpp:194] Reallocating workspace storage: 92952
I0625 11:56:04.449216  4216 net.cpp:150] Setting up res4b_branch2c
I0625 11:56:04.449223  4216 net.cpp:157] Top shape: 1 1024 60 80 (4915200)
I0625 11:56:04.449225  4216 net.cpp:165] Memory required for data: 4605542484
I0625 11:56:04.449234  4216 layer_factory.hpp:77] Creating layer bn4b_branch2c
I0625 11:56:04.449246  4216 net.cpp:100] Creating Layer bn4b_branch2c
I0625 11:56:04.449252  4216 net.cpp:444] bn4b_branch2c <- res4b_branch2c
I0625 11:56:04.449264  4216 net.cpp:405] bn4b_branch2c -> res4b_branch2c (in-place)
I0625 11:56:04.449439  4216 net.cpp:150] Setting up bn4b_branch2c
I0625 11:56:04.449443  4216 net.cpp:157] Top shape: 1 1024 60 80 (4915200)
I0625 11:56:04.449445  4216 net.cpp:165] Memory required for data: 4625203284
I0625 11:56:04.449458  4216 layer_factory.hpp:77] Creating layer scale4b_branch2c
I0625 11:56:04.449470  4216 net.cpp:100] Creating Layer scale4b_branch2c
I0625 11:56:04.449473  4216 net.cpp:444] scale4b_branch2c <- res4b_branch2c
I0625 11:56:04.449483  4216 net.cpp:405] scale4b_branch2c -> res4b_branch2c (in-place)
I0625 11:56:04.449525  4216 layer_factory.hpp:77] Creating layer scale4b_branch2c
I0625 11:56:04.449654  4216 net.cpp:150] Setting up scale4b_branch2c
I0625 11:56:04.449661  4216 net.cpp:157] Top shape: 1 1024 60 80 (4915200)
I0625 11:56:04.449662  4216 net.cpp:165] Memory required for data: 4644864084
I0625 11:56:04.449671  4216 layer_factory.hpp:77] Creating layer res4b
I0625 11:56:04.449679  4216 net.cpp:100] Creating Layer res4b
I0625 11:56:04.449683  4216 net.cpp:444] res4b <- res4a_res4a_relu_0_split_1
I0625 11:56:04.449692  4216 net.cpp:444] res4b <- res4b_branch2c
I0625 11:56:04.449699  4216 net.cpp:418] res4b -> res4b
I0625 11:56:04.449729  4216 net.cpp:150] Setting up res4b
I0625 11:56:04.449735  4216 net.cpp:157] Top shape: 1 1024 60 80 (4915200)
I0625 11:56:04.449738  4216 net.cpp:165] Memory required for data: 4664524884
I0625 11:56:04.449740  4216 layer_factory.hpp:77] Creating layer res4b_relu
I0625 11:56:04.449748  4216 net.cpp:100] Creating Layer res4b_relu
I0625 11:56:04.449753  4216 net.cpp:444] res4b_relu <- res4b
I0625 11:56:04.449761  4216 net.cpp:405] res4b_relu -> res4b (in-place)
I0625 11:56:04.449888  4216 net.cpp:150] Setting up res4b_relu
I0625 11:56:04.449894  4216 net.cpp:157] Top shape: 1 1024 60 80 (4915200)
I0625 11:56:04.449896  4216 net.cpp:165] Memory required for data: 4684185684
I0625 11:56:04.449900  4216 layer_factory.hpp:77] Creating layer res4b_res4b_relu_0_split
I0625 11:56:04.449908  4216 net.cpp:100] Creating Layer res4b_res4b_relu_0_split
I0625 11:56:04.449913  4216 net.cpp:444] res4b_res4b_relu_0_split <- res4b
I0625 11:56:04.449923  4216 net.cpp:418] res4b_res4b_relu_0_split -> res4b_res4b_relu_0_split_0
I0625 11:56:04.449934  4216 net.cpp:418] res4b_res4b_relu_0_split -> res4b_res4b_relu_0_split_1
I0625 11:56:04.449972  4216 net.cpp:150] Setting up res4b_res4b_relu_0_split
I0625 11:56:04.449978  4216 net.cpp:157] Top shape: 1 1024 60 80 (4915200)
I0625 11:56:04.449982  4216 net.cpp:157] Top shape: 1 1024 60 80 (4915200)
I0625 11:56:04.449985  4216 net.cpp:165] Memory required for data: 4723507284
I0625 11:56:04.449987  4216 layer_factory.hpp:77] Creating layer res4c_branch2a
I0625 11:56:04.450000  4216 net.cpp:100] Creating Layer res4c_branch2a
I0625 11:56:04.450004  4216 net.cpp:444] res4c_branch2a <- res4b_res4b_relu_0_split_0
I0625 11:56:04.450016  4216 net.cpp:418] res4c_branch2a -> res4c_branch2a
I0625 11:56:04.451126  4216 cudnn_conv_layer.cpp:194] Reallocating workspace storage: 92952
I0625 11:56:04.451144  4216 net.cpp:150] Setting up res4c_branch2a
I0625 11:56:04.451150  4216 net.cpp:157] Top shape: 1 256 60 80 (1228800)
I0625 11:56:04.451153  4216 net.cpp:165] Memory required for data: 4728422484
I0625 11:56:04.451162  4216 layer_factory.hpp:77] Creating layer bn4c_branch2a
I0625 11:56:04.451174  4216 net.cpp:100] Creating Layer bn4c_branch2a
I0625 11:56:04.451179  4216 net.cpp:444] bn4c_branch2a <- res4c_branch2a
I0625 11:56:04.451190  4216 net.cpp:405] bn4c_branch2a -> res4c_branch2a (in-place)
I0625 11:56:04.451361  4216 net.cpp:150] Setting up bn4c_branch2a
I0625 11:56:04.451366  4216 net.cpp:157] Top shape: 1 256 60 80 (1228800)
I0625 11:56:04.451369  4216 net.cpp:165] Memory required for data: 4733337684
I0625 11:56:04.451381  4216 layer_factory.hpp:77] Creating layer scale4c_branch2a
I0625 11:56:04.451392  4216 net.cpp:100] Creating Layer scale4c_branch2a
I0625 11:56:04.451397  4216 net.cpp:444] scale4c_branch2a <- res4c_branch2a
I0625 11:56:04.451406  4216 net.cpp:405] scale4c_branch2a -> res4c_branch2a (in-place)
I0625 11:56:04.451452  4216 layer_factory.hpp:77] Creating layer scale4c_branch2a
I0625 11:56:04.451578  4216 net.cpp:150] Setting up scale4c_branch2a
I0625 11:56:04.451584  4216 net.cpp:157] Top shape: 1 256 60 80 (1228800)
I0625 11:56:04.451586  4216 net.cpp:165] Memory required for data: 4738252884
I0625 11:56:04.451596  4216 layer_factory.hpp:77] Creating layer res4c_branch2a_relu
I0625 11:56:04.451603  4216 net.cpp:100] Creating Layer res4c_branch2a_relu
I0625 11:56:04.451607  4216 net.cpp:444] res4c_branch2a_relu <- res4c_branch2a
I0625 11:56:04.451617  4216 net.cpp:405] res4c_branch2a_relu -> res4c_branch2a (in-place)
I0625 11:56:04.451747  4216 net.cpp:150] Setting up res4c_branch2a_relu
I0625 11:56:04.451753  4216 net.cpp:157] Top shape: 1 256 60 80 (1228800)
I0625 11:56:04.451756  4216 net.cpp:165] Memory required for data: 4743168084
I0625 11:56:04.451758  4216 layer_factory.hpp:77] Creating layer res4c_branch2b
I0625 11:56:04.451771  4216 net.cpp:100] Creating Layer res4c_branch2b
I0625 11:56:04.451776  4216 net.cpp:444] res4c_branch2b <- res4c_branch2a
I0625 11:56:04.451788  4216 net.cpp:418] res4c_branch2b -> res4c_branch2b
I0625 11:56:04.454088  4216 cudnn_conv_layer.cpp:194] Reallocating workspace storage: 12582912
I0625 11:56:04.454303  4216 net.cpp:150] Setting up res4c_branch2b
I0625 11:56:04.454313  4216 net.cpp:157] Top shape: 1 256 60 80 (1228800)
I0625 11:56:04.454316  4216 net.cpp:165] Memory required for data: 4748083284
I0625 11:56:04.454329  4216 layer_factory.hpp:77] Creating layer bn4c_branch2b
I0625 11:56:04.454345  4216 net.cpp:100] Creating Layer bn4c_branch2b
I0625 11:56:04.454351  4216 net.cpp:444] bn4c_branch2b <- res4c_branch2b
I0625 11:56:04.454365  4216 net.cpp:405] bn4c_branch2b -> res4c_branch2b (in-place)
I0625 11:56:04.454542  4216 net.cpp:150] Setting up bn4c_branch2b
I0625 11:56:04.454548  4216 net.cpp:157] Top shape: 1 256 60 80 (1228800)
I0625 11:56:04.454550  4216 net.cpp:165] Memory required for data: 4752998484
I0625 11:56:04.454563  4216 layer_factory.hpp:77] Creating layer scale4c_branch2b
I0625 11:56:04.454574  4216 net.cpp:100] Creating Layer scale4c_branch2b
I0625 11:56:04.454579  4216 net.cpp:444] scale4c_branch2b <- res4c_branch2b
I0625 11:56:04.454589  4216 net.cpp:405] scale4c_branch2b -> res4c_branch2b (in-place)
I0625 11:56:04.454633  4216 layer_factory.hpp:77] Creating layer scale4c_branch2b
I0625 11:56:04.454761  4216 net.cpp:150] Setting up scale4c_branch2b
I0625 11:56:04.454766  4216 net.cpp:157] Top shape: 1 256 60 80 (1228800)
I0625 11:56:04.454768  4216 net.cpp:165] Memory required for data: 4757913684
I0625 11:56:04.454777  4216 layer_factory.hpp:77] Creating layer res4c_branch2b_relu
I0625 11:56:04.454787  4216 net.cpp:100] Creating Layer res4c_branch2b_relu
I0625 11:56:04.454790  4216 net.cpp:444] res4c_branch2b_relu <- res4c_branch2b
I0625 11:56:04.454799  4216 net.cpp:405] res4c_branch2b_relu -> res4c_branch2b (in-place)
I0625 11:56:04.455165  4216 net.cpp:150] Setting up res4c_branch2b_relu
I0625 11:56:04.455173  4216 net.cpp:157] Top shape: 1 256 60 80 (1228800)
I0625 11:56:04.455176  4216 net.cpp:165] Memory required for data: 4762828884
I0625 11:56:04.455180  4216 layer_factory.hpp:77] Creating layer res4c_branch2c
I0625 11:56:04.455195  4216 net.cpp:100] Creating Layer res4c_branch2c
I0625 11:56:04.455200  4216 net.cpp:444] res4c_branch2c <- res4c_branch2b
I0625 11:56:04.455214  4216 net.cpp:418] res4c_branch2c -> res4c_branch2c
I0625 11:56:04.456849  4216 cudnn_conv_layer.cpp:194] Reallocating workspace storage: 92952
I0625 11:56:04.456869  4216 net.cpp:150] Setting up res4c_branch2c
I0625 11:56:04.456876  4216 net.cpp:157] Top shape: 1 1024 60 80 (4915200)
I0625 11:56:04.456879  4216 net.cpp:165] Memory required for data: 4782489684
I0625 11:56:04.456889  4216 layer_factory.hpp:77] Creating layer bn4c_branch2c
I0625 11:56:04.456903  4216 net.cpp:100] Creating Layer bn4c_branch2c
I0625 11:56:04.456908  4216 net.cpp:444] bn4c_branch2c <- res4c_branch2c
I0625 11:56:04.456919  4216 net.cpp:405] bn4c_branch2c -> res4c_branch2c (in-place)
I0625 11:56:04.457100  4216 net.cpp:150] Setting up bn4c_branch2c
I0625 11:56:04.457106  4216 net.cpp:157] Top shape: 1 1024 60 80 (4915200)
I0625 11:56:04.457108  4216 net.cpp:165] Memory required for data: 4802150484
I0625 11:56:04.457121  4216 layer_factory.hpp:77] Creating layer scale4c_branch2c
I0625 11:56:04.457132  4216 net.cpp:100] Creating Layer scale4c_branch2c
I0625 11:56:04.457136  4216 net.cpp:444] scale4c_branch2c <- res4c_branch2c
I0625 11:56:04.457145  4216 net.cpp:405] scale4c_branch2c -> res4c_branch2c (in-place)
I0625 11:56:04.457190  4216 layer_factory.hpp:77] Creating layer scale4c_branch2c
I0625 11:56:04.457321  4216 net.cpp:150] Setting up scale4c_branch2c
I0625 11:56:04.457327  4216 net.cpp:157] Top shape: 1 1024 60 80 (4915200)
I0625 11:56:04.457329  4216 net.cpp:165] Memory required for data: 4821811284
I0625 11:56:04.457339  4216 layer_factory.hpp:77] Creating layer res4c
I0625 11:56:04.457347  4216 net.cpp:100] Creating Layer res4c
I0625 11:56:04.457352  4216 net.cpp:444] res4c <- res4b_res4b_relu_0_split_1
I0625 11:56:04.457360  4216 net.cpp:444] res4c <- res4c_branch2c
I0625 11:56:04.457367  4216 net.cpp:418] res4c -> res4c
I0625 11:56:04.457399  4216 net.cpp:150] Setting up res4c
I0625 11:56:04.457406  4216 net.cpp:157] Top shape: 1 1024 60 80 (4915200)
I0625 11:56:04.457407  4216 net.cpp:165] Memory required for data: 4841472084
I0625 11:56:04.457412  4216 layer_factory.hpp:77] Creating layer res4c_relu
I0625 11:56:04.457418  4216 net.cpp:100] Creating Layer res4c_relu
I0625 11:56:04.457422  4216 net.cpp:444] res4c_relu <- res4c
I0625 11:56:04.457432  4216 net.cpp:405] res4c_relu -> res4c (in-place)
I0625 11:56:04.457561  4216 net.cpp:150] Setting up res4c_relu
I0625 11:56:04.457567  4216 net.cpp:157] Top shape: 1 1024 60 80 (4915200)
I0625 11:56:04.457569  4216 net.cpp:165] Memory required for data: 4861132884
I0625 11:56:04.457572  4216 layer_factory.hpp:77] Creating layer res4c_res4c_relu_0_split
I0625 11:56:04.457581  4216 net.cpp:100] Creating Layer res4c_res4c_relu_0_split
I0625 11:56:04.457585  4216 net.cpp:444] res4c_res4c_relu_0_split <- res4c
I0625 11:56:04.457595  4216 net.cpp:418] res4c_res4c_relu_0_split -> res4c_res4c_relu_0_split_0
I0625 11:56:04.457607  4216 net.cpp:418] res4c_res4c_relu_0_split -> res4c_res4c_relu_0_split_1
I0625 11:56:04.457645  4216 net.cpp:150] Setting up res4c_res4c_relu_0_split
I0625 11:56:04.457653  4216 net.cpp:157] Top shape: 1 1024 60 80 (4915200)
I0625 11:56:04.457655  4216 net.cpp:157] Top shape: 1 1024 60 80 (4915200)
I0625 11:56:04.457657  4216 net.cpp:165] Memory required for data: 4900454484
I0625 11:56:04.457660  4216 layer_factory.hpp:77] Creating layer res4d_branch2a
I0625 11:56:04.457672  4216 net.cpp:100] Creating Layer res4d_branch2a
I0625 11:56:04.457677  4216 net.cpp:444] res4d_branch2a <- res4c_res4c_relu_0_split_0
I0625 11:56:04.457690  4216 net.cpp:418] res4d_branch2a -> res4d_branch2a
I0625 11:56:04.458802  4216 cudnn_conv_layer.cpp:194] Reallocating workspace storage: 92952
I0625 11:56:04.458819  4216 net.cpp:150] Setting up res4d_branch2a
I0625 11:56:04.458827  4216 net.cpp:157] Top shape: 1 256 60 80 (1228800)
I0625 11:56:04.458828  4216 net.cpp:165] Memory required for data: 4905369684
I0625 11:56:04.458837  4216 layer_factory.hpp:77] Creating layer bn4d_branch2a
I0625 11:56:04.458849  4216 net.cpp:100] Creating Layer bn4d_branch2a
I0625 11:56:04.458854  4216 net.cpp:444] bn4d_branch2a <- res4d_branch2a
I0625 11:56:04.458873  4216 net.cpp:405] bn4d_branch2a -> res4d_branch2a (in-place)
I0625 11:56:04.459075  4216 net.cpp:150] Setting up bn4d_branch2a
I0625 11:56:04.459080  4216 net.cpp:157] Top shape: 1 256 60 80 (1228800)
I0625 11:56:04.459082  4216 net.cpp:165] Memory required for data: 4910284884
I0625 11:56:04.459095  4216 layer_factory.hpp:77] Creating layer scale4d_branch2a
I0625 11:56:04.459106  4216 net.cpp:100] Creating Layer scale4d_branch2a
I0625 11:56:04.459110  4216 net.cpp:444] scale4d_branch2a <- res4d_branch2a
I0625 11:56:04.459120  4216 net.cpp:405] scale4d_branch2a -> res4d_branch2a (in-place)
I0625 11:56:04.459166  4216 layer_factory.hpp:77] Creating layer scale4d_branch2a
I0625 11:56:04.459292  4216 net.cpp:150] Setting up scale4d_branch2a
I0625 11:56:04.459298  4216 net.cpp:157] Top shape: 1 256 60 80 (1228800)
I0625 11:56:04.459300  4216 net.cpp:165] Memory required for data: 4915200084
I0625 11:56:04.459309  4216 layer_factory.hpp:77] Creating layer res4d_branch2a_relu
I0625 11:56:04.459318  4216 net.cpp:100] Creating Layer res4d_branch2a_relu
I0625 11:56:04.459322  4216 net.cpp:444] res4d_branch2a_relu <- res4d_branch2a
I0625 11:56:04.459331  4216 net.cpp:405] res4d_branch2a_relu -> res4d_branch2a (in-place)
I0625 11:56:04.459463  4216 net.cpp:150] Setting up res4d_branch2a_relu
I0625 11:56:04.459470  4216 net.cpp:157] Top shape: 1 256 60 80 (1228800)
I0625 11:56:04.459472  4216 net.cpp:165] Memory required for data: 4920115284
I0625 11:56:04.459475  4216 layer_factory.hpp:77] Creating layer res4d_branch2b
I0625 11:56:04.459486  4216 net.cpp:100] Creating Layer res4d_branch2b
I0625 11:56:04.459491  4216 net.cpp:444] res4d_branch2b <- res4d_branch2a
I0625 11:56:04.459504  4216 net.cpp:418] res4d_branch2b -> res4d_branch2b
I0625 11:56:04.461624  4216 cudnn_conv_layer.cpp:194] Reallocating workspace storage: 12582912
I0625 11:56:04.461848  4216 net.cpp:150] Setting up res4d_branch2b
I0625 11:56:04.461858  4216 net.cpp:157] Top shape: 1 256 60 80 (1228800)
I0625 11:56:04.461861  4216 net.cpp:165] Memory required for data: 4925030484
I0625 11:56:04.461874  4216 layer_factory.hpp:77] Creating layer bn4d_branch2b
I0625 11:56:04.461890  4216 net.cpp:100] Creating Layer bn4d_branch2b
I0625 11:56:04.461896  4216 net.cpp:444] bn4d_branch2b <- res4d_branch2b
I0625 11:56:04.461908  4216 net.cpp:405] bn4d_branch2b -> res4d_branch2b (in-place)
I0625 11:56:04.462095  4216 net.cpp:150] Setting up bn4d_branch2b
I0625 11:56:04.462100  4216 net.cpp:157] Top shape: 1 256 60 80 (1228800)
I0625 11:56:04.462102  4216 net.cpp:165] Memory required for data: 4929945684
I0625 11:56:04.462116  4216 layer_factory.hpp:77] Creating layer scale4d_branch2b
I0625 11:56:04.462126  4216 net.cpp:100] Creating Layer scale4d_branch2b
I0625 11:56:04.462131  4216 net.cpp:444] scale4d_branch2b <- res4d_branch2b
I0625 11:56:04.462139  4216 net.cpp:405] scale4d_branch2b -> res4d_branch2b (in-place)
I0625 11:56:04.462188  4216 layer_factory.hpp:77] Creating layer scale4d_branch2b
I0625 11:56:04.462314  4216 net.cpp:150] Setting up scale4d_branch2b
I0625 11:56:04.462321  4216 net.cpp:157] Top shape: 1 256 60 80 (1228800)
I0625 11:56:04.462322  4216 net.cpp:165] Memory required for data: 4934860884
I0625 11:56:04.462332  4216 layer_factory.hpp:77] Creating layer res4d_branch2b_relu
I0625 11:56:04.462339  4216 net.cpp:100] Creating Layer res4d_branch2b_relu
I0625 11:56:04.462344  4216 net.cpp:444] res4d_branch2b_relu <- res4d_branch2b
I0625 11:56:04.462354  4216 net.cpp:405] res4d_branch2b_relu -> res4d_branch2b (in-place)
I0625 11:56:04.462699  4216 net.cpp:150] Setting up res4d_branch2b_relu
I0625 11:56:04.462707  4216 net.cpp:157] Top shape: 1 256 60 80 (1228800)
I0625 11:56:04.462709  4216 net.cpp:165] Memory required for data: 4939776084
I0625 11:56:04.462713  4216 layer_factory.hpp:77] Creating layer res4d_branch2c
I0625 11:56:04.462728  4216 net.cpp:100] Creating Layer res4d_branch2c
I0625 11:56:04.462734  4216 net.cpp:444] res4d_branch2c <- res4d_branch2b
I0625 11:56:04.462747  4216 net.cpp:418] res4d_branch2c -> res4d_branch2c
I0625 11:56:04.464404  4216 cudnn_conv_layer.cpp:194] Reallocating workspace storage: 92952
I0625 11:56:04.464423  4216 net.cpp:150] Setting up res4d_branch2c
I0625 11:56:04.464431  4216 net.cpp:157] Top shape: 1 1024 60 80 (4915200)
I0625 11:56:04.464432  4216 net.cpp:165] Memory required for data: 4959436884
I0625 11:56:04.464442  4216 layer_factory.hpp:77] Creating layer bn4d_branch2c
I0625 11:56:04.464457  4216 net.cpp:100] Creating Layer bn4d_branch2c
I0625 11:56:04.464462  4216 net.cpp:444] bn4d_branch2c <- res4d_branch2c
I0625 11:56:04.464474  4216 net.cpp:405] bn4d_branch2c -> res4d_branch2c (in-place)
I0625 11:56:04.464655  4216 net.cpp:150] Setting up bn4d_branch2c
I0625 11:56:04.464660  4216 net.cpp:157] Top shape: 1 1024 60 80 (4915200)
I0625 11:56:04.464663  4216 net.cpp:165] Memory required for data: 4979097684
I0625 11:56:04.464675  4216 layer_factory.hpp:77] Creating layer scale4d_branch2c
I0625 11:56:04.464687  4216 net.cpp:100] Creating Layer scale4d_branch2c
I0625 11:56:04.464692  4216 net.cpp:444] scale4d_branch2c <- res4d_branch2c
I0625 11:56:04.464701  4216 net.cpp:405] scale4d_branch2c -> res4d_branch2c (in-place)
I0625 11:56:04.464745  4216 layer_factory.hpp:77] Creating layer scale4d_branch2c
I0625 11:56:04.464877  4216 net.cpp:150] Setting up scale4d_branch2c
I0625 11:56:04.464882  4216 net.cpp:157] Top shape: 1 1024 60 80 (4915200)
I0625 11:56:04.464885  4216 net.cpp:165] Memory required for data: 4998758484
I0625 11:56:04.464893  4216 layer_factory.hpp:77] Creating layer res4d
I0625 11:56:04.464903  4216 net.cpp:100] Creating Layer res4d
I0625 11:56:04.464908  4216 net.cpp:444] res4d <- res4c_res4c_relu_0_split_1
I0625 11:56:04.464916  4216 net.cpp:444] res4d <- res4d_branch2c
I0625 11:56:04.464924  4216 net.cpp:418] res4d -> res4d
I0625 11:56:04.464954  4216 net.cpp:150] Setting up res4d
I0625 11:56:04.464962  4216 net.cpp:157] Top shape: 1 1024 60 80 (4915200)
I0625 11:56:04.464963  4216 net.cpp:165] Memory required for data: 5018419284
I0625 11:56:04.464967  4216 layer_factory.hpp:77] Creating layer res4d_relu
I0625 11:56:04.464975  4216 net.cpp:100] Creating Layer res4d_relu
I0625 11:56:04.464979  4216 net.cpp:444] res4d_relu <- res4d
I0625 11:56:04.464988  4216 net.cpp:405] res4d_relu -> res4d (in-place)
I0625 11:56:04.465118  4216 net.cpp:150] Setting up res4d_relu
I0625 11:56:04.465124  4216 net.cpp:157] Top shape: 1 1024 60 80 (4915200)
I0625 11:56:04.465126  4216 net.cpp:165] Memory required for data: 5038080084
I0625 11:56:04.465129  4216 layer_factory.hpp:77] Creating layer res4d_res4d_relu_0_split
I0625 11:56:04.465138  4216 net.cpp:100] Creating Layer res4d_res4d_relu_0_split
I0625 11:56:04.465142  4216 net.cpp:444] res4d_res4d_relu_0_split <- res4d
I0625 11:56:04.465153  4216 net.cpp:418] res4d_res4d_relu_0_split -> res4d_res4d_relu_0_split_0
I0625 11:56:04.465164  4216 net.cpp:418] res4d_res4d_relu_0_split -> res4d_res4d_relu_0_split_1
I0625 11:56:04.465204  4216 net.cpp:150] Setting up res4d_res4d_relu_0_split
I0625 11:56:04.465210  4216 net.cpp:157] Top shape: 1 1024 60 80 (4915200)
I0625 11:56:04.465214  4216 net.cpp:157] Top shape: 1 1024 60 80 (4915200)
I0625 11:56:04.465215  4216 net.cpp:165] Memory required for data: 5077401684
I0625 11:56:04.465219  4216 layer_factory.hpp:77] Creating layer res4e_branch2a
I0625 11:56:04.465230  4216 net.cpp:100] Creating Layer res4e_branch2a
I0625 11:56:04.465235  4216 net.cpp:444] res4e_branch2a <- res4d_res4d_relu_0_split_0
I0625 11:56:04.465246  4216 net.cpp:418] res4e_branch2a -> res4e_branch2a
I0625 11:56:04.466361  4216 cudnn_conv_layer.cpp:194] Reallocating workspace storage: 92952
I0625 11:56:04.466377  4216 net.cpp:150] Setting up res4e_branch2a
I0625 11:56:04.466383  4216 net.cpp:157] Top shape: 1 256 60 80 (1228800)
I0625 11:56:04.466387  4216 net.cpp:165] Memory required for data: 5082316884
I0625 11:56:04.466395  4216 layer_factory.hpp:77] Creating layer bn4e_branch2a
I0625 11:56:04.466408  4216 net.cpp:100] Creating Layer bn4e_branch2a
I0625 11:56:04.466413  4216 net.cpp:444] bn4e_branch2a <- res4e_branch2a
I0625 11:56:04.466424  4216 net.cpp:405] bn4e_branch2a -> res4e_branch2a (in-place)
I0625 11:56:04.466603  4216 net.cpp:150] Setting up bn4e_branch2a
I0625 11:56:04.466608  4216 net.cpp:157] Top shape: 1 256 60 80 (1228800)
I0625 11:56:04.466609  4216 net.cpp:165] Memory required for data: 5087232084
I0625 11:56:04.466622  4216 layer_factory.hpp:77] Creating layer scale4e_branch2a
I0625 11:56:04.466634  4216 net.cpp:100] Creating Layer scale4e_branch2a
I0625 11:56:04.466639  4216 net.cpp:444] scale4e_branch2a <- res4e_branch2a
I0625 11:56:04.466647  4216 net.cpp:405] scale4e_branch2a -> res4e_branch2a (in-place)
I0625 11:56:04.466693  4216 layer_factory.hpp:77] Creating layer scale4e_branch2a
I0625 11:56:04.466821  4216 net.cpp:150] Setting up scale4e_branch2a
I0625 11:56:04.466827  4216 net.cpp:157] Top shape: 1 256 60 80 (1228800)
I0625 11:56:04.466830  4216 net.cpp:165] Memory required for data: 5092147284
I0625 11:56:04.466838  4216 layer_factory.hpp:77] Creating layer res4e_branch2a_relu
I0625 11:56:04.466846  4216 net.cpp:100] Creating Layer res4e_branch2a_relu
I0625 11:56:04.466850  4216 net.cpp:444] res4e_branch2a_relu <- res4e_branch2a
I0625 11:56:04.466876  4216 net.cpp:405] res4e_branch2a_relu -> res4e_branch2a (in-place)
I0625 11:56:04.467026  4216 net.cpp:150] Setting up res4e_branch2a_relu
I0625 11:56:04.467032  4216 net.cpp:157] Top shape: 1 256 60 80 (1228800)
I0625 11:56:04.467034  4216 net.cpp:165] Memory required for data: 5097062484
I0625 11:56:04.467038  4216 layer_factory.hpp:77] Creating layer res4e_branch2b
I0625 11:56:04.467051  4216 net.cpp:100] Creating Layer res4e_branch2b
I0625 11:56:04.467056  4216 net.cpp:444] res4e_branch2b <- res4e_branch2a
I0625 11:56:04.467068  4216 net.cpp:418] res4e_branch2b -> res4e_branch2b
I0625 11:56:04.469193  4216 cudnn_conv_layer.cpp:194] Reallocating workspace storage: 12582912
I0625 11:56:04.469424  4216 net.cpp:150] Setting up res4e_branch2b
I0625 11:56:04.469434  4216 net.cpp:157] Top shape: 1 256 60 80 (1228800)
I0625 11:56:04.469437  4216 net.cpp:165] Memory required for data: 5101977684
I0625 11:56:04.469450  4216 layer_factory.hpp:77] Creating layer bn4e_branch2b
I0625 11:56:04.469466  4216 net.cpp:100] Creating Layer bn4e_branch2b
I0625 11:56:04.469473  4216 net.cpp:444] bn4e_branch2b <- res4e_branch2b
I0625 11:56:04.469488  4216 net.cpp:405] bn4e_branch2b -> res4e_branch2b (in-place)
I0625 11:56:04.469676  4216 net.cpp:150] Setting up bn4e_branch2b
I0625 11:56:04.469681  4216 net.cpp:157] Top shape: 1 256 60 80 (1228800)
I0625 11:56:04.469683  4216 net.cpp:165] Memory required for data: 5106892884
I0625 11:56:04.469696  4216 layer_factory.hpp:77] Creating layer scale4e_branch2b
I0625 11:56:04.469708  4216 net.cpp:100] Creating Layer scale4e_branch2b
I0625 11:56:04.469713  4216 net.cpp:444] scale4e_branch2b <- res4e_branch2b
I0625 11:56:04.469722  4216 net.cpp:405] scale4e_branch2b -> res4e_branch2b (in-place)
I0625 11:56:04.469770  4216 layer_factory.hpp:77] Creating layer scale4e_branch2b
I0625 11:56:04.469900  4216 net.cpp:150] Setting up scale4e_branch2b
I0625 11:56:04.469907  4216 net.cpp:157] Top shape: 1 256 60 80 (1228800)
I0625 11:56:04.469908  4216 net.cpp:165] Memory required for data: 5111808084
I0625 11:56:04.469916  4216 layer_factory.hpp:77] Creating layer res4e_branch2b_relu
I0625 11:56:04.469925  4216 net.cpp:100] Creating Layer res4e_branch2b_relu
I0625 11:56:04.469930  4216 net.cpp:444] res4e_branch2b_relu <- res4e_branch2b
I0625 11:56:04.469939  4216 net.cpp:405] res4e_branch2b_relu -> res4e_branch2b (in-place)
I0625 11:56:04.470286  4216 net.cpp:150] Setting up res4e_branch2b_relu
I0625 11:56:04.470293  4216 net.cpp:157] Top shape: 1 256 60 80 (1228800)
I0625 11:56:04.470295  4216 net.cpp:165] Memory required for data: 5116723284
I0625 11:56:04.470299  4216 layer_factory.hpp:77] Creating layer res4e_branch2c
I0625 11:56:04.470315  4216 net.cpp:100] Creating Layer res4e_branch2c
I0625 11:56:04.470320  4216 net.cpp:444] res4e_branch2c <- res4e_branch2b
I0625 11:56:04.470335  4216 net.cpp:418] res4e_branch2c -> res4e_branch2c
I0625 11:56:04.471999  4216 cudnn_conv_layer.cpp:194] Reallocating workspace storage: 92952
I0625 11:56:04.472020  4216 net.cpp:150] Setting up res4e_branch2c
I0625 11:56:04.472028  4216 net.cpp:157] Top shape: 1 1024 60 80 (4915200)
I0625 11:56:04.472030  4216 net.cpp:165] Memory required for data: 5136384084
I0625 11:56:04.472040  4216 layer_factory.hpp:77] Creating layer bn4e_branch2c
I0625 11:56:04.472054  4216 net.cpp:100] Creating Layer bn4e_branch2c
I0625 11:56:04.472060  4216 net.cpp:444] bn4e_branch2c <- res4e_branch2c
I0625 11:56:04.472072  4216 net.cpp:405] bn4e_branch2c -> res4e_branch2c (in-place)
I0625 11:56:04.472255  4216 net.cpp:150] Setting up bn4e_branch2c
I0625 11:56:04.472261  4216 net.cpp:157] Top shape: 1 1024 60 80 (4915200)
I0625 11:56:04.472263  4216 net.cpp:165] Memory required for data: 5156044884
I0625 11:56:04.472276  4216 layer_factory.hpp:77] Creating layer scale4e_branch2c
I0625 11:56:04.472287  4216 net.cpp:100] Creating Layer scale4e_branch2c
I0625 11:56:04.472292  4216 net.cpp:444] scale4e_branch2c <- res4e_branch2c
I0625 11:56:04.472302  4216 net.cpp:405] scale4e_branch2c -> res4e_branch2c (in-place)
I0625 11:56:04.472345  4216 layer_factory.hpp:77] Creating layer scale4e_branch2c
I0625 11:56:04.472479  4216 net.cpp:150] Setting up scale4e_branch2c
I0625 11:56:04.472486  4216 net.cpp:157] Top shape: 1 1024 60 80 (4915200)
I0625 11:56:04.472487  4216 net.cpp:165] Memory required for data: 5175705684
I0625 11:56:04.472496  4216 layer_factory.hpp:77] Creating layer res4e
I0625 11:56:04.472504  4216 net.cpp:100] Creating Layer res4e
I0625 11:56:04.472509  4216 net.cpp:444] res4e <- res4d_res4d_relu_0_split_1
I0625 11:56:04.472517  4216 net.cpp:444] res4e <- res4e_branch2c
I0625 11:56:04.472525  4216 net.cpp:418] res4e -> res4e
I0625 11:56:04.472558  4216 net.cpp:150] Setting up res4e
I0625 11:56:04.472565  4216 net.cpp:157] Top shape: 1 1024 60 80 (4915200)
I0625 11:56:04.472568  4216 net.cpp:165] Memory required for data: 5195366484
I0625 11:56:04.472570  4216 layer_factory.hpp:77] Creating layer res4e_relu
I0625 11:56:04.472578  4216 net.cpp:100] Creating Layer res4e_relu
I0625 11:56:04.472581  4216 net.cpp:444] res4e_relu <- res4e
I0625 11:56:04.472592  4216 net.cpp:405] res4e_relu -> res4e (in-place)
I0625 11:56:04.472724  4216 net.cpp:150] Setting up res4e_relu
I0625 11:56:04.472730  4216 net.cpp:157] Top shape: 1 1024 60 80 (4915200)
I0625 11:56:04.472733  4216 net.cpp:165] Memory required for data: 5215027284
I0625 11:56:04.472735  4216 layer_factory.hpp:77] Creating layer res4e_res4e_relu_0_split
I0625 11:56:04.472743  4216 net.cpp:100] Creating Layer res4e_res4e_relu_0_split
I0625 11:56:04.472748  4216 net.cpp:444] res4e_res4e_relu_0_split <- res4e
I0625 11:56:04.472759  4216 net.cpp:418] res4e_res4e_relu_0_split -> res4e_res4e_relu_0_split_0
I0625 11:56:04.472770  4216 net.cpp:418] res4e_res4e_relu_0_split -> res4e_res4e_relu_0_split_1
I0625 11:56:04.472810  4216 net.cpp:150] Setting up res4e_res4e_relu_0_split
I0625 11:56:04.472816  4216 net.cpp:157] Top shape: 1 1024 60 80 (4915200)
I0625 11:56:04.472820  4216 net.cpp:157] Top shape: 1 1024 60 80 (4915200)
I0625 11:56:04.472821  4216 net.cpp:165] Memory required for data: 5254348884
I0625 11:56:04.472824  4216 layer_factory.hpp:77] Creating layer res4f_branch2a
I0625 11:56:04.472836  4216 net.cpp:100] Creating Layer res4f_branch2a
I0625 11:56:04.472841  4216 net.cpp:444] res4f_branch2a <- res4e_res4e_relu_0_split_0
I0625 11:56:04.472854  4216 net.cpp:418] res4f_branch2a -> res4f_branch2a
I0625 11:56:04.473994  4216 cudnn_conv_layer.cpp:194] Reallocating workspace storage: 92952
I0625 11:56:04.474014  4216 net.cpp:150] Setting up res4f_branch2a
I0625 11:56:04.474020  4216 net.cpp:157] Top shape: 1 256 60 80 (1228800)
I0625 11:56:04.474022  4216 net.cpp:165] Memory required for data: 5259264084
I0625 11:56:04.474031  4216 layer_factory.hpp:77] Creating layer bn4f_branch2a
I0625 11:56:04.474045  4216 net.cpp:100] Creating Layer bn4f_branch2a
I0625 11:56:04.474050  4216 net.cpp:444] bn4f_branch2a <- res4f_branch2a
I0625 11:56:04.474061  4216 net.cpp:405] bn4f_branch2a -> res4f_branch2a (in-place)
I0625 11:56:04.474243  4216 net.cpp:150] Setting up bn4f_branch2a
I0625 11:56:04.474248  4216 net.cpp:157] Top shape: 1 256 60 80 (1228800)
I0625 11:56:04.474251  4216 net.cpp:165] Memory required for data: 5264179284
I0625 11:56:04.474263  4216 layer_factory.hpp:77] Creating layer scale4f_branch2a
I0625 11:56:04.474274  4216 net.cpp:100] Creating Layer scale4f_branch2a
I0625 11:56:04.474278  4216 net.cpp:444] scale4f_branch2a <- res4f_branch2a
I0625 11:56:04.474288  4216 net.cpp:405] scale4f_branch2a -> res4f_branch2a (in-place)
I0625 11:56:04.474334  4216 layer_factory.hpp:77] Creating layer scale4f_branch2a
I0625 11:56:04.474467  4216 net.cpp:150] Setting up scale4f_branch2a
I0625 11:56:04.474473  4216 net.cpp:157] Top shape: 1 256 60 80 (1228800)
I0625 11:56:04.474475  4216 net.cpp:165] Memory required for data: 5269094484
I0625 11:56:04.474484  4216 layer_factory.hpp:77] Creating layer res4f_branch2a_relu
I0625 11:56:04.474493  4216 net.cpp:100] Creating Layer res4f_branch2a_relu
I0625 11:56:04.474498  4216 net.cpp:444] res4f_branch2a_relu <- res4f_branch2a
I0625 11:56:04.474506  4216 net.cpp:405] res4f_branch2a_relu -> res4f_branch2a (in-place)
I0625 11:56:04.474669  4216 net.cpp:150] Setting up res4f_branch2a_relu
I0625 11:56:04.474678  4216 net.cpp:157] Top shape: 1 256 60 80 (1228800)
I0625 11:56:04.474679  4216 net.cpp:165] Memory required for data: 5274009684
I0625 11:56:04.474684  4216 layer_factory.hpp:77] Creating layer res4f_branch2b
I0625 11:56:04.474697  4216 net.cpp:100] Creating Layer res4f_branch2b
I0625 11:56:04.474704  4216 net.cpp:444] res4f_branch2b <- res4f_branch2a
I0625 11:56:04.474717  4216 net.cpp:418] res4f_branch2b -> res4f_branch2b
I0625 11:56:04.477010  4216 cudnn_conv_layer.cpp:194] Reallocating workspace storage: 12582912
I0625 11:56:04.477250  4216 net.cpp:150] Setting up res4f_branch2b
I0625 11:56:04.477265  4216 net.cpp:157] Top shape: 1 256 60 80 (1228800)
I0625 11:56:04.477267  4216 net.cpp:165] Memory required for data: 5278924884
I0625 11:56:04.477285  4216 layer_factory.hpp:77] Creating layer bn4f_branch2b
I0625 11:56:04.477305  4216 net.cpp:100] Creating Layer bn4f_branch2b
I0625 11:56:04.477313  4216 net.cpp:444] bn4f_branch2b <- res4f_branch2b
I0625 11:56:04.477327  4216 net.cpp:405] bn4f_branch2b -> res4f_branch2b (in-place)
I0625 11:56:04.477525  4216 net.cpp:150] Setting up bn4f_branch2b
I0625 11:56:04.477530  4216 net.cpp:157] Top shape: 1 256 60 80 (1228800)
I0625 11:56:04.477532  4216 net.cpp:165] Memory required for data: 5283840084
I0625 11:56:04.477546  4216 layer_factory.hpp:77] Creating layer scale4f_branch2b
I0625 11:56:04.477558  4216 net.cpp:100] Creating Layer scale4f_branch2b
I0625 11:56:04.477562  4216 net.cpp:444] scale4f_branch2b <- res4f_branch2b
I0625 11:56:04.477573  4216 net.cpp:405] scale4f_branch2b -> res4f_branch2b (in-place)
I0625 11:56:04.477619  4216 layer_factory.hpp:77] Creating layer scale4f_branch2b
I0625 11:56:04.477754  4216 net.cpp:150] Setting up scale4f_branch2b
I0625 11:56:04.477761  4216 net.cpp:157] Top shape: 1 256 60 80 (1228800)
I0625 11:56:04.477762  4216 net.cpp:165] Memory required for data: 5288755284
I0625 11:56:04.477771  4216 layer_factory.hpp:77] Creating layer res4f_branch2b_relu
I0625 11:56:04.477780  4216 net.cpp:100] Creating Layer res4f_branch2b_relu
I0625 11:56:04.477784  4216 net.cpp:444] res4f_branch2b_relu <- res4f_branch2b
I0625 11:56:04.477794  4216 net.cpp:405] res4f_branch2b_relu -> res4f_branch2b (in-place)
I0625 11:56:04.477938  4216 net.cpp:150] Setting up res4f_branch2b_relu
I0625 11:56:04.477944  4216 net.cpp:157] Top shape: 1 256 60 80 (1228800)
I0625 11:56:04.477946  4216 net.cpp:165] Memory required for data: 5293670484
I0625 11:56:04.477949  4216 layer_factory.hpp:77] Creating layer res4f_branch2c
I0625 11:56:04.477963  4216 net.cpp:100] Creating Layer res4f_branch2c
I0625 11:56:04.477968  4216 net.cpp:444] res4f_branch2c <- res4f_branch2b
I0625 11:56:04.477982  4216 net.cpp:418] res4f_branch2c -> res4f_branch2c
I0625 11:56:04.479665  4216 cudnn_conv_layer.cpp:194] Reallocating workspace storage: 92952
I0625 11:56:04.479687  4216 net.cpp:150] Setting up res4f_branch2c
I0625 11:56:04.479696  4216 net.cpp:157] Top shape: 1 1024 60 80 (4915200)
I0625 11:56:04.479697  4216 net.cpp:165] Memory required for data: 5313331284
I0625 11:56:04.479708  4216 layer_factory.hpp:77] Creating layer bn4f_branch2c
I0625 11:56:04.479724  4216 net.cpp:100] Creating Layer bn4f_branch2c
I0625 11:56:04.479730  4216 net.cpp:444] bn4f_branch2c <- res4f_branch2c
I0625 11:56:04.479743  4216 net.cpp:405] bn4f_branch2c -> res4f_branch2c (in-place)
I0625 11:56:04.479931  4216 net.cpp:150] Setting up bn4f_branch2c
I0625 11:56:04.479938  4216 net.cpp:157] Top shape: 1 1024 60 80 (4915200)
I0625 11:56:04.479939  4216 net.cpp:165] Memory required for data: 5332992084
I0625 11:56:04.479984  4216 layer_factory.hpp:77] Creating layer scale4f_branch2c
I0625 11:56:04.479995  4216 net.cpp:100] Creating Layer scale4f_branch2c
I0625 11:56:04.480000  4216 net.cpp:444] scale4f_branch2c <- res4f_branch2c
I0625 11:56:04.480010  4216 net.cpp:405] scale4f_branch2c -> res4f_branch2c (in-place)
I0625 11:56:04.480056  4216 layer_factory.hpp:77] Creating layer scale4f_branch2c
I0625 11:56:04.480190  4216 net.cpp:150] Setting up scale4f_branch2c
I0625 11:56:04.480195  4216 net.cpp:157] Top shape: 1 1024 60 80 (4915200)
I0625 11:56:04.480198  4216 net.cpp:165] Memory required for data: 5352652884
I0625 11:56:04.480207  4216 layer_factory.hpp:77] Creating layer res4f
I0625 11:56:04.480216  4216 net.cpp:100] Creating Layer res4f
I0625 11:56:04.480221  4216 net.cpp:444] res4f <- res4e_res4e_relu_0_split_1
I0625 11:56:04.480231  4216 net.cpp:444] res4f <- res4f_branch2c
I0625 11:56:04.480237  4216 net.cpp:418] res4f -> res4f
I0625 11:56:04.480269  4216 net.cpp:150] Setting up res4f
I0625 11:56:04.480275  4216 net.cpp:157] Top shape: 1 1024 60 80 (4915200)
I0625 11:56:04.480278  4216 net.cpp:165] Memory required for data: 5372313684
I0625 11:56:04.480281  4216 layer_factory.hpp:77] Creating layer res4f_relu
I0625 11:56:04.480290  4216 net.cpp:100] Creating Layer res4f_relu
I0625 11:56:04.480294  4216 net.cpp:444] res4f_relu <- res4f
I0625 11:56:04.480304  4216 net.cpp:405] res4f_relu -> res4f (in-place)
I0625 11:56:04.480659  4216 net.cpp:150] Setting up res4f_relu
I0625 11:56:04.480665  4216 net.cpp:157] Top shape: 1 1024 60 80 (4915200)
I0625 11:56:04.480669  4216 net.cpp:165] Memory required for data: 5391974484
I0625 11:56:04.480672  4216 layer_factory.hpp:77] Creating layer res4f_res4f_relu_0_split
I0625 11:56:04.480682  4216 net.cpp:100] Creating Layer res4f_res4f_relu_0_split
I0625 11:56:04.480687  4216 net.cpp:444] res4f_res4f_relu_0_split <- res4f
I0625 11:56:04.480698  4216 net.cpp:418] res4f_res4f_relu_0_split -> res4f_res4f_relu_0_split_0
I0625 11:56:04.480712  4216 net.cpp:418] res4f_res4f_relu_0_split -> res4f_res4f_relu_0_split_1
I0625 11:56:04.480721  4216 net.cpp:418] res4f_res4f_relu_0_split -> res4f_res4f_relu_0_split_2
I0625 11:56:04.480774  4216 net.cpp:150] Setting up res4f_res4f_relu_0_split
I0625 11:56:04.480782  4216 net.cpp:157] Top shape: 1 1024 60 80 (4915200)
I0625 11:56:04.480785  4216 net.cpp:157] Top shape: 1 1024 60 80 (4915200)
I0625 11:56:04.480788  4216 net.cpp:157] Top shape: 1 1024 60 80 (4915200)
I0625 11:56:04.480790  4216 net.cpp:165] Memory required for data: 5450956884
I0625 11:56:04.480793  4216 layer_factory.hpp:77] Creating layer res5a_branch1
I0625 11:56:04.480806  4216 net.cpp:100] Creating Layer res5a_branch1
I0625 11:56:04.480810  4216 net.cpp:444] res5a_branch1 <- res4f_res4f_relu_0_split_0
I0625 11:56:04.480823  4216 net.cpp:418] res5a_branch1 -> res5a_branch1
I0625 11:56:04.485910  4216 cudnn_conv_layer.cpp:194] Reallocating workspace storage: 86424
I0625 11:56:04.485936  4216 net.cpp:150] Setting up res5a_branch1
I0625 11:56:04.485949  4216 net.cpp:157] Top shape: 1 2048 60 80 (9830400)
I0625 11:56:04.485951  4216 net.cpp:165] Memory required for data: 5490278484
I0625 11:56:04.485966  4216 layer_factory.hpp:77] Creating layer bn5a_branch1
I0625 11:56:04.485986  4216 net.cpp:100] Creating Layer bn5a_branch1
I0625 11:56:04.485993  4216 net.cpp:444] bn5a_branch1 <- res5a_branch1
I0625 11:56:04.486008  4216 net.cpp:405] bn5a_branch1 -> res5a_branch1 (in-place)
I0625 11:56:04.486209  4216 net.cpp:150] Setting up bn5a_branch1
I0625 11:56:04.486215  4216 net.cpp:157] Top shape: 1 2048 60 80 (9830400)
I0625 11:56:04.486217  4216 net.cpp:165] Memory required for data: 5529600084
I0625 11:56:04.486230  4216 layer_factory.hpp:77] Creating layer scale5a_branch1
I0625 11:56:04.486241  4216 net.cpp:100] Creating Layer scale5a_branch1
I0625 11:56:04.486246  4216 net.cpp:444] scale5a_branch1 <- res5a_branch1
I0625 11:56:04.486256  4216 net.cpp:405] scale5a_branch1 -> res5a_branch1 (in-place)
I0625 11:56:04.486304  4216 layer_factory.hpp:77] Creating layer scale5a_branch1
I0625 11:56:04.486443  4216 net.cpp:150] Setting up scale5a_branch1
I0625 11:56:04.486449  4216 net.cpp:157] Top shape: 1 2048 60 80 (9830400)
I0625 11:56:04.486451  4216 net.cpp:165] Memory required for data: 5568921684
I0625 11:56:04.486460  4216 layer_factory.hpp:77] Creating layer res5a_branch2a
…
I0627 10:55:39.363668 25648 net.cpp:150] Setting up res4e_branch2c
I0627 10:55:39.363677 25648 net.cpp:157] Top shape: 1 1024 14 14 (200704)
I0627 10:55:39.363680 25648 net.cpp:165] Memory required for data: 208531468
I0627 10:55:39.363692 25648 layer_factory.hpp:77] Creating layer bn4e_branch2c
I0627 10:55:39.363708 25648 net.cpp:100] Creating Layer bn4e_branch2c
I0627 10:55:39.363714 25648 net.cpp:444] bn4e_branch2c <- res4e_branch2c
I0627 10:55:39.363729 25648 net.cpp:405] bn4e_branch2c -> res4e_branch2c (in-place)
I0627 10:55:39.363940 25648 net.cpp:150] Setting up bn4e_branch2c
I0627 10:55:39.363946 25648 net.cpp:157] Top shape: 1 1024 14 14 (200704)
I0627 10:55:39.363948 25648 net.cpp:165] Memory required for data: 209334284
I0627 10:55:39.363965 25648 layer_factory.hpp:77] Creating layer scale4e_branch2c
I0627 10:55:39.363978 25648 net.cpp:100] Creating Layer scale4e_branch2c
I0627 10:55:39.363983 25648 net.cpp:444] scale4e_branch2c <- res4e_branch2c
I0627 10:55:39.363996 25648 net.cpp:405] scale4e_branch2c -> res4e_branch2c (in-place)
I0627 10:55:39.364049 25648 layer_factory.hpp:77] Creating layer scale4e_branch2c
I0627 10:55:39.364194 25648 net.cpp:150] Setting up scale4e_branch2c
I0627 10:55:39.364202 25648 net.cpp:157] Top shape: 1 1024 14 14 (200704)
I0627 10:55:39.364204 25648 net.cpp:165] Memory required for data: 210137100
I0627 10:55:39.364215 25648 layer_factory.hpp:77] Creating layer res4e
I0627 10:55:39.364225 25648 net.cpp:100] Creating Layer res4e
I0627 10:55:39.364231 25648 net.cpp:444] res4e <- res4d_res4d_relu_0_split_1
I0627 10:55:39.364240 25648 net.cpp:444] res4e <- res4e_branch2c
I0627 10:55:39.364251 25648 net.cpp:418] res4e -> res4e
I0627 10:55:39.364289 25648 net.cpp:150] Setting up res4e
I0627 10:55:39.364296 25648 net.cpp:157] Top shape: 1 1024 14 14 (200704)
I0627 10:55:39.364300 25648 net.cpp:165] Memory required for data: 210939916
I0627 10:55:39.364303 25648 layer_factory.hpp:77] Creating layer res4e_relu
I0627 10:55:39.364312 25648 net.cpp:100] Creating Layer res4e_relu
I0627 10:55:39.364317 25648 net.cpp:444] res4e_relu <- res4e
I0627 10:55:39.364328 25648 net.cpp:405] res4e_relu -> res4e (in-place)
I0627 10:55:39.364490 25648 net.cpp:150] Setting up res4e_relu
I0627 10:55:39.364496 25648 net.cpp:157] Top shape: 1 1024 14 14 (200704)
I0627 10:55:39.364500 25648 net.cpp:165] Memory required for data: 211742732
I0627 10:55:39.364503 25648 layer_factory.hpp:77] Creating layer res4e_res4e_relu_0_split
I0627 10:55:39.364513 25648 net.cpp:100] Creating Layer res4e_res4e_relu_0_split
I0627 10:55:39.364518 25648 net.cpp:444] res4e_res4e_relu_0_split <- res4e
I0627 10:55:39.364531 25648 net.cpp:418] res4e_res4e_relu_0_split -> res4e_res4e_relu_0_split_0
I0627 10:55:39.364547 25648 net.cpp:418] res4e_res4e_relu_0_split -> res4e_res4e_relu_0_split_1
I0627 10:55:39.364596 25648 net.cpp:150] Setting up res4e_res4e_relu_0_split
I0627 10:55:39.364604 25648 net.cpp:157] Top shape: 1 1024 14 14 (200704)
I0627 10:55:39.364609 25648 net.cpp:157] Top shape: 1 1024 14 14 (200704)
I0627 10:55:39.364611 25648 net.cpp:165] Memory required for data: 213348364
I0627 10:55:39.364615 25648 layer_factory.hpp:77] Creating layer res4f_branch2a
I0627 10:55:39.364629 25648 net.cpp:100] Creating Layer res4f_branch2a
I0627 10:55:39.364637 25648 net.cpp:444] res4f_branch2a <- res4e_res4e_relu_0_split_0
I0627 10:55:39.364656 25648 net.cpp:418] res4f_branch2a -> res4f_branch2a
I0627 10:55:39.366446 25648 cudnn_conv_layer.cpp:194] Reallocating workspace storage: 10080
I0627 10:55:39.366482 25648 net.cpp:150] Setting up res4f_branch2a
I0627 10:55:39.366495 25648 net.cpp:157] Top shape: 1 256 14 14 (50176)
I0627 10:55:39.366499 25648 net.cpp:165] Memory required for data: 213549068
I0627 10:55:39.366518 25648 layer_factory.hpp:77] Creating layer bn4f_branch2a
I0627 10:55:39.366544 25648 net.cpp:100] Creating Layer bn4f_branch2a
I0627 10:55:39.366554 25648 net.cpp:444] bn4f_branch2a <- res4f_branch2a
I0627 10:55:39.366575 25648 net.cpp:405] bn4f_branch2a -> res4f_branch2a (in-place)
I0627 10:55:39.366796 25648 net.cpp:150] Setting up bn4f_branch2a
I0627 10:55:39.366804 25648 net.cpp:157] Top shape: 1 256 14 14 (50176)
I0627 10:55:39.366808 25648 net.cpp:165] Memory required for data: 213749772
I0627 10:55:39.366828 25648 layer_factory.hpp:77] Creating layer scale4f_branch2a
I0627 10:55:39.366847 25648 net.cpp:100] Creating Layer scale4f_branch2a
I0627 10:55:39.366853 25648 net.cpp:444] scale4f_branch2a <- res4f_branch2a
I0627 10:55:39.366879 25648 net.cpp:405] scale4f_branch2a -> res4f_branch2a (in-place)
I0627 10:55:39.366950 25648 layer_factory.hpp:77] Creating layer scale4f_branch2a
I0627 10:55:39.367094 25648 net.cpp:150] Setting up scale4f_branch2a
I0627 10:55:39.367102 25648 net.cpp:157] Top shape: 1 256 14 14 (50176)
I0627 10:55:39.367106 25648 net.cpp:165] Memory required for data: 213950476
I0627 10:55:39.367120 25648 layer_factory.hpp:77] Creating layer res4f_branch2a_relu
I0627 10:55:39.367133 25648 net.cpp:100] Creating Layer res4f_branch2a_relu
I0627 10:55:39.367141 25648 net.cpp:444] res4f_branch2a_relu <- res4f_branch2a
I0627 10:55:39.367157 25648 net.cpp:405] res4f_branch2a_relu -> res4f_branch2a (in-place)
I0627 10:55:39.367326 25648 net.cpp:150] Setting up res4f_branch2a_relu
I0627 10:55:39.367334 25648 net.cpp:157] Top shape: 1 256 14 14 (50176)
I0627 10:55:39.367337 25648 net.cpp:165] Memory required for data: 214151180
I0627 10:55:39.367343 25648 layer_factory.hpp:77] Creating layer res4f_branch2b
I0627 10:55:39.367365 25648 net.cpp:100] Creating Layer res4f_branch2b
I0627 10:55:39.367372 25648 net.cpp:444] res4f_branch2b <- res4f_branch2a
I0627 10:55:39.367393 25648 net.cpp:418] res4f_branch2b -> res4f_branch2b
I0627 10:55:39.369951 25648 cudnn_conv_layer.cpp:194] Reallocating workspace storage: 12582912
I0627 10:55:39.370203 25648 net.cpp:150] Setting up res4f_branch2b
I0627 10:55:39.370218 25648 net.cpp:157] Top shape: 1 256 14 14 (50176)
I0627 10:55:39.370223 25648 net.cpp:165] Memory required for data: 214351884
I0627 10:55:39.370239 25648 layer_factory.hpp:77] Creating layer bn4f_branch2b
I0627 10:55:39.370257 25648 net.cpp:100] Creating Layer bn4f_branch2b
I0627 10:55:39.370265 25648 net.cpp:444] bn4f_branch2b <- res4f_branch2b
I0627 10:55:39.370285 25648 net.cpp:405] bn4f_branch2b -> res4f_branch2b (in-place)
I0627 10:55:39.370503 25648 net.cpp:150] Setting up bn4f_branch2b
I0627 10:55:39.370512 25648 net.cpp:157] Top shape: 1 256 14 14 (50176)
I0627 10:55:39.370515 25648 net.cpp:165] Memory required for data: 214552588
I0627 10:55:39.370535 25648 layer_factory.hpp:77] Creating layer scale4f_branch2b
I0627 10:55:39.370553 25648 net.cpp:100] Creating Layer scale4f_branch2b
I0627 10:55:39.370559 25648 net.cpp:444] scale4f_branch2b <- res4f_branch2b
I0627 10:55:39.370576 25648 net.cpp:405] scale4f_branch2b -> res4f_branch2b (in-place)
I0627 10:55:39.370636 25648 layer_factory.hpp:77] Creating layer scale4f_branch2b
I0627 10:55:39.370781 25648 net.cpp:150] Setting up scale4f_branch2b
I0627 10:55:39.370790 25648 net.cpp:157] Top shape: 1 256 14 14 (50176)
I0627 10:55:39.370793 25648 net.cpp:165] Memory required for data: 214753292
I0627 10:55:39.370807 25648 layer_factory.hpp:77] Creating layer res4f_branch2b_relu
I0627 10:55:39.370820 25648 net.cpp:100] Creating Layer res4f_branch2b_relu
I0627 10:55:39.370827 25648 net.cpp:444] res4f_branch2b_relu <- res4f_branch2b
I0627 10:55:39.370844 25648 net.cpp:405] res4f_branch2b_relu -> res4f_branch2b (in-place)
I0627 10:55:39.371024 25648 net.cpp:150] Setting up res4f_branch2b_relu
I0627 10:55:39.371033 25648 net.cpp:157] Top shape: 1 256 14 14 (50176)
I0627 10:55:39.371037 25648 net.cpp:165] Memory required for data: 214953996
I0627 10:55:39.371043 25648 layer_factory.hpp:77] Creating layer res4f_branch2c
I0627 10:55:39.371063 25648 net.cpp:100] Creating Layer res4f_branch2c
I0627 10:55:39.371071 25648 net.cpp:444] res4f_branch2c <- res4f_branch2b
I0627 10:55:39.371093 25648 net.cpp:418] res4f_branch2c -> res4f_branch2c
I0627 10:55:39.373035 25648 cudnn_conv_layer.cpp:194] Reallocating workspace storage: 10080
I0627 10:55:39.373066 25648 net.cpp:150] Setting up res4f_branch2c
I0627 10:55:39.373078 25648 net.cpp:157] Top shape: 1 1024 14 14 (200704)
I0627 10:55:39.373081 25648 net.cpp:165] Memory required for data: 215756812
I0627 10:55:39.373095 25648 layer_factory.hpp:77] Creating layer bn4f_branch2c
I0627 10:55:39.373111 25648 net.cpp:100] Creating Layer bn4f_branch2c
I0627 10:55:39.373118 25648 net.cpp:444] bn4f_branch2c <- res4f_branch2c
I0627 10:55:39.373132 25648 net.cpp:405] bn4f_branch2c -> res4f_branch2c (in-place)
I0627 10:55:39.373344 25648 net.cpp:150] Setting up bn4f_branch2c
I0627 10:55:39.373351 25648 net.cpp:157] Top shape: 1 1024 14 14 (200704)
I0627 10:55:39.373353 25648 net.cpp:165] Memory required for data: 216559628
I0627 10:55:39.373405 25648 layer_factory.hpp:77] Creating layer scale4f_branch2c
I0627 10:55:39.373420 25648 net.cpp:100] Creating Layer scale4f_branch2c
I0627 10:55:39.373426 25648 net.cpp:444] scale4f_branch2c <- res4f_branch2c
I0627 10:55:39.373437 25648 net.cpp:405] scale4f_branch2c -> res4f_branch2c (in-place)
I0627 10:55:39.373493 25648 layer_factory.hpp:77] Creating layer scale4f_branch2c
I0627 10:55:39.373638 25648 net.cpp:150] Setting up scale4f_branch2c
I0627 10:55:39.373646 25648 net.cpp:157] Top shape: 1 1024 14 14 (200704)
I0627 10:55:39.373649 25648 net.cpp:165] Memory required for data: 217362444
I0627 10:55:39.373659 25648 layer_factory.hpp:77] Creating layer res4f
I0627 10:55:39.373672 25648 net.cpp:100] Creating Layer res4f
I0627 10:55:39.373678 25648 net.cpp:444] res4f <- res4e_res4e_relu_0_split_1
I0627 10:55:39.373687 25648 net.cpp:444] res4f <- res4f_branch2c
I0627 10:55:39.373697 25648 net.cpp:418] res4f -> res4f
I0627 10:55:39.373735 25648 net.cpp:150] Setting up res4f
I0627 10:55:39.373744 25648 net.cpp:157] Top shape: 1 1024 14 14 (200704)
I0627 10:55:39.373746 25648 net.cpp:165] Memory required for data: 218165260
I0627 10:55:39.373750 25648 layer_factory.hpp:77] Creating layer res4f_relu
I0627 10:55:39.373759 25648 net.cpp:100] Creating Layer res4f_relu
I0627 10:55:39.373764 25648 net.cpp:444] res4f_relu <- res4f
I0627 10:55:39.373775 25648 net.cpp:405] res4f_relu -> res4f (in-place)
I0627 10:55:39.374188 25648 net.cpp:150] Setting up res4f_relu
I0627 10:55:39.374197 25648 net.cpp:157] Top shape: 1 1024 14 14 (200704)
I0627 10:55:39.374200 25648 net.cpp:165] Memory required for data: 218968076
I0627 10:55:39.374205 25648 layer_factory.hpp:77] Creating layer res4f_res4f_relu_0_split
I0627 10:55:39.374219 25648 net.cpp:100] Creating Layer res4f_res4f_relu_0_split
I0627 10:55:39.374224 25648 net.cpp:444] res4f_res4f_relu_0_split <- res4f
I0627 10:55:39.374239 25648 net.cpp:418] res4f_res4f_relu_0_split -> res4f_res4f_relu_0_split_0
I0627 10:55:39.374255 25648 net.cpp:418] res4f_res4f_relu_0_split -> res4f_res4f_relu_0_split_1
I0627 10:55:39.374267 25648 net.cpp:418] res4f_res4f_relu_0_split -> res4f_res4f_relu_0_split_2
I0627 10:55:39.374330 25648 net.cpp:150] Setting up res4f_res4f_relu_0_split
I0627 10:55:39.374339 25648 net.cpp:157] Top shape: 1 1024 14 14 (200704)
I0627 10:55:39.374343 25648 net.cpp:157] Top shape: 1 1024 14 14 (200704)
I0627 10:55:39.374346 25648 net.cpp:157] Top shape: 1 1024 14 14 (200704)
I0627 10:55:39.374348 25648 net.cpp:165] Memory required for data: 221376524
I0627 10:55:39.374352 25648 layer_factory.hpp:77] Creating layer res5a_branch1
I0627 10:55:39.374366 25648 net.cpp:100] Creating Layer res5a_branch1
I0627 10:55:39.374372 25648 net.cpp:444] res5a_branch1 <- res4f_res4f_relu_0_split_0
I0627 10:55:39.374387 25648 net.cpp:418] res5a_branch1 -> res5a_branch1
I0627 10:55:39.380528 25648 cudnn_conv_layer.cpp:194] Reallocating workspace storage: 8568
I0627 10:55:39.380563 25648 net.cpp:150] Setting up res5a_branch1
I0627 10:55:39.380580 25648 net.cpp:157] Top shape: 1 2048 14 14 (401408)
I0627 10:55:39.380584 25648 net.cpp:165] Memory required for data: 222982156
I0627 10:55:39.380605 25648 layer_factory.hpp:77] Creating layer bn5a_branch1
I0627 10:55:39.380632 25648 net.cpp:100] Creating Layer bn5a_branch1
I0627 10:55:39.380643 25648 net.cpp:444] bn5a_branch1 <- res5a_branch1
I0627 10:55:39.380662 25648 net.cpp:405] bn5a_branch1 -> res5a_branch1 (in-place)
I0627 10:55:39.380899 25648 net.cpp:150] Setting up bn5a_branch1
I0627 10:55:39.380906 25648 net.cpp:157] Top shape: 1 2048 14 14 (401408)
I0627 10:55:39.380908 25648 net.cpp:165] Memory required for data: 224587788
I0627 10:55:39.380925 25648 layer_factory.hpp:77] Creating layer scale5a_branch1
I0627 10:55:39.380940 25648 net.cpp:100] Creating Layer scale5a_branch1
I0627 10:55:39.380945 25648 net.cpp:444] scale5a_branch1 <- res5a_branch1
I0627 10:55:39.380957 25648 net.cpp:405] scale5a_branch1 -> res5a_branch1 (in-place)
I0627 10:55:39.381013 25648 layer_factory.hpp:77] Creating layer scale5a_branch1
I0627 10:55:39.381161 25648 net.cpp:150] Setting up scale5a_branch1
I0627 10:55:39.381170 25648 net.cpp:157] Top shape: 1 2048 14 14 (401408)
I0627 10:55:39.381171 25648 net.cpp:165] Memory required for data: 226193420
I0627 10:55:39.381182 25648 layer_factory.hpp:77] Creating layer res5a_branch2a
I0627 10:55:39.381199 25648 net.cpp:100] Creating Layer res5a_branch2a
I0627 10:55:39.381206 25648 net.cpp:444] res5a_branch2a <- res4f_res4f_relu_0_split_1
I0627 10:55:39.381222 25648 net.cpp:418] res5a_branch2a -> res5a_branch2a
I0627 10:55:39.384043 25648 cudnn_conv_layer.cpp:194] Reallocating workspace storage: 10080
I0627 10:55:39.384075 25648 net.cpp:150] Setting up res5a_branch2a
I0627 10:55:39.384088 25648 net.cpp:157] Top shape: 1 512 14 14 (100352)
I0627 10:55:39.384091 25648 net.cpp:165] Memory required for data: 226594828
I0627 10:55:39.384107 25648 layer_factory.hpp:77] Creating layer bn5a_branch2a
I0627 10:55:39.384130 25648 net.cpp:100] Creating Layer bn5a_branch2a
I0627 10:55:39.384138 25648 net.cpp:444] bn5a_branch2a <- res5a_branch2a
I0627 10:55:39.384156 25648 net.cpp:405] bn5a_branch2a -> res5a_branch2a (in-place)
I0627 10:55:39.384380 25648 net.cpp:150] Setting up bn5a_branch2a
I0627 10:55:39.384387 25648 net.cpp:157] Top shape: 1 512 14 14 (100352)
I0627 10:55:39.384389 25648 net.cpp:165] Memory required for data: 226996236
I0627 10:55:39.384405 25648 layer_factory.hpp:77] Creating layer scale5a_branch2a
I0627 10:55:39.384421 25648 net.cpp:100] Creating Layer scale5a_branch2a
I0627 10:55:39.384426 25648 net.cpp:444] scale5a_branch2a <- res5a_branch2a
I0627 10:55:39.384438 25648 net.cpp:405] scale5a_branch2a -> res5a_branch2a (in-place)
I0627 10:55:39.384493 25648 layer_factory.hpp:77] Creating layer scale5a_branch2a
I0627 10:55:39.384640 25648 net.cpp:150] Setting up scale5a_branch2a
I0627 10:55:39.384647 25648 net.cpp:157] Top shape: 1 512 14 14 (100352)
I0627 10:55:39.384650 25648 net.cpp:165] Memory required for data: 227397644
I0627 10:55:39.384660 25648 layer_factory.hpp:77] Creating layer res5a_branch2a_relu
I0627 10:55:39.384671 25648 net.cpp:100] Creating Layer res5a_branch2a_relu
I0627 10:55:39.384677 25648 net.cpp:444] res5a_branch2a_relu <- res5a_branch2a
I0627 10:55:39.384688 25648 net.cpp:405] res5a_branch2a_relu -> res5a_branch2a (in-place)
I0627 10:55:39.384850 25648 net.cpp:150] Setting up res5a_branch2a_relu
I0627 10:55:39.384856 25648 net.cpp:157] Top shape: 1 512 14 14 (100352)
I0627 10:55:39.384860 25648 net.cpp:165] Memory required for data: 227799052
I0627 10:55:39.384863 25648 layer_factory.hpp:77] Creating layer res5a_branch2b
I0627 10:55:39.384879 25648 net.cpp:100] Creating Layer res5a_branch2b
I0627 10:55:39.384884 25648 net.cpp:444] res5a_branch2b <- res5a_branch2a
I0627 10:55:39.384901 25648 net.cpp:418] res5a_branch2b -> res5a_branch2b
I0627 10:55:39.390875 25648 net.cpp:150] Setting up res5a_branch2b
I0627 10:55:39.390915 25648 net.cpp:157] Top shape: 1 512 14 14 (100352)
I0627 10:55:39.390918 25648 net.cpp:165] Memory required for data: 228200460
I0627 10:55:39.390941 25648 layer_factory.hpp:77] Creating layer bn5a_branch2b
I0627 10:55:39.390972 25648 net.cpp:100] Creating Layer bn5a_branch2b
I0627 10:55:39.390983 25648 net.cpp:444] bn5a_branch2b <- res5a_branch2b
I0627 10:55:39.391001 25648 net.cpp:405] bn5a_branch2b -> res5a_branch2b (in-place)
I0627 10:55:39.391242 25648 net.cpp:150] Setting up bn5a_branch2b
I0627 10:55:39.391249 25648 net.cpp:157] Top shape: 1 512 14 14 (100352)
I0627 10:55:39.391252 25648 net.cpp:165] Memory required for data: 228601868
I0627 10:55:39.391268 25648 layer_factory.hpp:77] Creating layer scale5a_branch2b
I0627 10:55:39.391284 25648 net.cpp:100] Creating Layer scale5a_branch2b
I0627 10:55:39.391289 25648 net.cpp:444] scale5a_branch2b <- res5a_branch2b
I0627 10:55:39.391301 25648 net.cpp:405] scale5a_branch2b -> res5a_branch2b (in-place)
I0627 10:55:39.391356 25648 layer_factory.hpp:77] Creating layer scale5a_branch2b
I0627 10:55:39.391504 25648 net.cpp:150] Setting up scale5a_branch2b
I0627 10:55:39.391511 25648 net.cpp:157] Top shape: 1 512 14 14 (100352)
I0627 10:55:39.391515 25648 net.cpp:165] Memory required for data: 229003276
I0627 10:55:39.391525 25648 layer_factory.hpp:77] Creating layer res5a_branch2b_relu
I0627 10:55:39.391535 25648 net.cpp:100] Creating Layer res5a_branch2b_relu
I0627 10:55:39.391541 25648 net.cpp:444] res5a_branch2b_relu <- res5a_branch2b
I0627 10:55:39.391552 25648 net.cpp:405] res5a_branch2b_relu -> res5a_branch2b (in-place)
I0627 10:55:39.391757 25648 net.cpp:150] Setting up res5a_branch2b_relu
I0627 10:55:39.391763 25648 net.cpp:157] Top shape: 1 512 14 14 (100352)
I0627 10:55:39.391765 25648 net.cpp:165] Memory required for data: 229404684
I0627 10:55:39.391770 25648 layer_factory.hpp:77] Creating layer res5a_branch2c
I0627 10:55:39.391788 25648 net.cpp:100] Creating Layer res5a_branch2c
I0627 10:55:39.391793 25648 net.cpp:444] res5a_branch2c <- res5a_branch2b
I0627 10:55:39.391809 25648 net.cpp:418] res5a_branch2c -> res5a_branch2c
I0627 10:55:39.395525 25648 cudnn_conv_layer.cpp:194] Reallocating workspace storage: 7800
I0627 10:55:39.395555 25648 net.cpp:150] Setting up res5a_branch2c
I0627 10:55:39.395568 25648 net.cpp:157] Top shape: 1 2048 14 14 (401408)
I0627 10:55:39.395571 25648 net.cpp:165] Memory required for data: 231010316
I0627 10:55:39.395588 25648 layer_factory.hpp:77] Creating layer bn5a_branch2c
I0627 10:55:39.395612 25648 net.cpp:100] Creating Layer bn5a_branch2c
I0627 10:55:39.395620 25648 net.cpp:444] bn5a_branch2c <- res5a_branch2c
I0627 10:55:39.395637 25648 net.cpp:405] bn5a_branch2c -> res5a_branch2c (in-place)
I0627 10:55:39.395864 25648 net.cpp:150] Setting up bn5a_branch2c
I0627 10:55:39.395870 25648 net.cpp:157] Top shape: 1 2048 14 14 (401408)
I0627 10:55:39.395872 25648 net.cpp:165] Memory required for data: 232615948
I0627 10:55:39.395889 25648 layer_factory.hpp:77] Creating layer scale5a_branch2c
I0627 10:55:39.395905 25648 net.cpp:100] Creating Layer scale5a_branch2c
I0627 10:55:39.395910 25648 net.cpp:444] scale5a_branch2c <- res5a_branch2c
I0627 10:55:39.395921 25648 net.cpp:405] scale5a_branch2c -> res5a_branch2c (in-place)
I0627 10:55:39.395978 25648 layer_factory.hpp:77] Creating layer scale5a_branch2c
I0627 10:55:39.396128 25648 net.cpp:150] Setting up scale5a_branch2c
I0627 10:55:39.396136 25648 net.cpp:157] Top shape: 1 2048 14 14 (401408)
I0627 10:55:39.396138 25648 net.cpp:165] Memory required for data: 234221580
I0627 10:55:39.396148 25648 layer_factory.hpp:77] Creating layer res5a
I0627 10:55:39.396159 25648 net.cpp:100] Creating Layer res5a
I0627 10:55:39.396165 25648 net.cpp:444] res5a <- res5a_branch1
I0627 10:55:39.396174 25648 net.cpp:444] res5a <- res5a_branch2c
I0627 10:55:39.396184 25648 net.cpp:418] res5a -> res5a
I0627 10:55:39.396220 25648 net.cpp:150] Setting up res5a
I0627 10:55:39.396229 25648 net.cpp:157] Top shape: 1 2048 14 14 (401408)
I0627 10:55:39.396231 25648 net.cpp:165] Memory required for data: 235827212
I0627 10:55:39.396235 25648 layer_factory.hpp:77] Creating layer res5a_relu
I0627 10:55:39.396245 25648 net.cpp:100] Creating Layer res5a_relu
I0627 10:55:39.396251 25648 net.cpp:444] res5a_relu <- res5a
I0627 10:55:39.396261 25648 net.cpp:405] res5a_relu -> res5a (in-place)
I0627 10:55:39.396700 25648 net.cpp:150] Setting up res5a_relu
I0627 10:55:39.396709 25648 net.cpp:157] Top shape: 1 2048 14 14 (401408)
I0627 10:55:39.396713 25648 net.cpp:165] Memory required for data: 237432844
I0627 10:55:39.396716 25648 layer_factory.hpp:77] Creating layer res5a_res5a_relu_0_split
I0627 10:55:39.396728 25648 net.cpp:100] Creating Layer res5a_res5a_relu_0_split
I0627 10:55:39.396733 25648 net.cpp:444] res5a_res5a_relu_0_split <- res5a
I0627 10:55:39.396749 25648 net.cpp:418] res5a_res5a_relu_0_split -> res5a_res5a_relu_0_split_0
I0627 10:55:39.396765 25648 net.cpp:418] res5a_res5a_relu_0_split -> res5a_res5a_relu_0_split_1
I0627 10:55:39.396816 25648 net.cpp:150] Setting up res5a_res5a_relu_0_split
I0627 10:55:39.396826 25648 net.cpp:157] Top shape: 1 2048 14 14 (401408)
I0627 10:55:39.396829 25648 net.cpp:157] Top shape: 1 2048 14 14 (401408)
I0627 10:55:39.396831 25648 net.cpp:165] Memory required for data: 240644108
I0627 10:55:39.396834 25648 layer_factory.hpp:77] Creating layer res5b_branch2a
I0627 10:55:39.396850 25648 net.cpp:100] Creating Layer res5b_branch2a
I0627 10:55:39.396857 25648 net.cpp:444] res5b_branch2a <- res5a_res5a_relu_0_split_0
I0627 10:55:39.396869 25648 net.cpp:418] res5b_branch2a -> res5b_branch2a
I0627 10:55:39.400818 25648 cudnn_conv_layer.cpp:194] Reallocating workspace storage: 10080
I0627 10:55:39.400854 25648 net.cpp:150] Setting up res5b_branch2a
I0627 10:55:39.400871 25648 net.cpp:157] Top shape: 1 512 14 14 (100352)
I0627 10:55:39.400874 25648 net.cpp:165] Memory required for data: 241045516
I0627 10:55:39.400897 25648 layer_factory.hpp:77] Creating layer bn5b_branch2a
I0627 10:55:39.400925 25648 net.cpp:100] Creating Layer bn5b_branch2a
I0627 10:55:39.400936 25648 net.cpp:444] bn5b_branch2a <- res5b_branch2a
I0627 10:55:39.400956 25648 net.cpp:405] bn5b_branch2a -> res5b_branch2a (in-place)
I0627 10:55:39.401188 25648 net.cpp:150] Setting up bn5b_branch2a
I0627 10:55:39.401196 25648 net.cpp:157] Top shape: 1 512 14 14 (100352)
I0627 10:55:39.401198 25648 net.cpp:165] Memory required for data: 241446924
I0627 10:55:39.401216 25648 layer_factory.hpp:77] Creating layer scale5b_branch2a
I0627 10:55:39.401230 25648 net.cpp:100] Creating Layer scale5b_branch2a
I0627 10:55:39.401235 25648 net.cpp:444] scale5b_branch2a <- res5b_branch2a
I0627 10:55:39.401248 25648 net.cpp:405] scale5b_branch2a -> res5b_branch2a (in-place)
I0627 10:55:39.401304 25648 layer_factory.hpp:77] Creating layer scale5b_branch2a
I0627 10:55:39.401453 25648 net.cpp:150] Setting up scale5b_branch2a
I0627 10:55:39.401459 25648 net.cpp:157] Top shape: 1 512 14 14 (100352)
I0627 10:55:39.401463 25648 net.cpp:165] Memory required for data: 241848332
I0627 10:55:39.401473 25648 layer_factory.hpp:77] Creating layer res5b_branch2a_relu
I0627 10:55:39.401484 25648 net.cpp:100] Creating Layer res5b_branch2a_relu
I0627 10:55:39.401490 25648 net.cpp:444] res5b_branch2a_relu <- res5b_branch2a
I0627 10:55:39.401501 25648 net.cpp:405] res5b_branch2a_relu -> res5b_branch2a (in-place)
I0627 10:55:39.401664 25648 net.cpp:150] Setting up res5b_branch2a_relu
I0627 10:55:39.401671 25648 net.cpp:157] Top shape: 1 512 14 14 (100352)
I0627 10:55:39.401674 25648 net.cpp:165] Memory required for data: 242249740
I0627 10:55:39.401679 25648 layer_factory.hpp:77] Creating layer res5b_branch2b
I0627 10:55:39.401695 25648 net.cpp:100] Creating Layer res5b_branch2b
I0627 10:55:39.401700 25648 net.cpp:444] res5b_branch2b <- res5b_branch2a
I0627 10:55:39.401715 25648 net.cpp:418] res5b_branch2b -> res5b_branch2b
I0627 10:55:39.407732 25648 net.cpp:150] Setting up res5b_branch2b
I0627 10:55:39.407761 25648 net.cpp:157] Top shape: 1 512 14 14 (100352)
I0627 10:55:39.407764 25648 net.cpp:165] Memory required for data: 242651148
I0627 10:55:39.407788 25648 layer_factory.hpp:77] Creating layer bn5b_branch2b
I0627 10:55:39.407819 25648 net.cpp:100] Creating Layer bn5b_branch2b
I0627 10:55:39.407829 25648 net.cpp:444] bn5b_branch2b <- res5b_branch2b
I0627 10:55:39.407850 25648 net.cpp:405] bn5b_branch2b -> res5b_branch2b (in-place)
I0627 10:55:39.408090 25648 net.cpp:150] Setting up bn5b_branch2b
I0627 10:55:39.408097 25648 net.cpp:157] Top shape: 1 512 14 14 (100352)
I0627 10:55:39.408099 25648 net.cpp:165] Memory required for data: 243052556
I0627 10:55:39.408115 25648 layer_factory.hpp:77] Creating layer scale5b_branch2b
I0627 10:55:39.408130 25648 net.cpp:100] Creating Layer scale5b_branch2b
I0627 10:55:39.408136 25648 net.cpp:444] scale5b_branch2b <- res5b_branch2b
I0627 10:55:39.408149 25648 net.cpp:405] scale5b_branch2b -> res5b_branch2b (in-place)
I0627 10:55:39.408203 25648 layer_factory.hpp:77] Creating layer scale5b_branch2b
I0627 10:55:39.408354 25648 net.cpp:150] Setting up scale5b_branch2b
I0627 10:55:39.408361 25648 net.cpp:157] Top shape: 1 512 14 14 (100352)
I0627 10:55:39.408365 25648 net.cpp:165] Memory required for data: 243453964
I0627 10:55:39.408375 25648 layer_factory.hpp:77] Creating layer res5b_branch2b_relu
I0627 10:55:39.408385 25648 net.cpp:100] Creating Layer res5b_branch2b_relu
I0627 10:55:39.408390 25648 net.cpp:444] res5b_branch2b_relu <- res5b_branch2b
I0627 10:55:39.408401 25648 net.cpp:405] res5b_branch2b_relu -> res5b_branch2b (in-place)
I0627 10:55:39.408612 25648 net.cpp:150] Setting up res5b_branch2b_relu
I0627 10:55:39.408618 25648 net.cpp:157] Top shape: 1 512 14 14 (100352)
I0627 10:55:39.408620 25648 net.cpp:165] Memory required for data: 243855372
I0627 10:55:39.408624 25648 layer_factory.hpp:77] Creating layer res5b_branch2c
I0627 10:55:39.408641 25648 net.cpp:100] Creating Layer res5b_branch2c
I0627 10:55:39.408648 25648 net.cpp:444] res5b_branch2c <- res5b_branch2b
I0627 10:55:39.408663 25648 net.cpp:418] res5b_branch2c -> res5b_branch2c
I0627 10:55:39.412384 25648 cudnn_conv_layer.cpp:194] Reallocating workspace storage: 7800
I0627 10:55:39.412415 25648 net.cpp:150] Setting up res5b_branch2c
I0627 10:55:39.412425 25648 net.cpp:157] Top shape: 1 2048 14 14 (401408)
I0627 10:55:39.412428 25648 net.cpp:165] Memory required for data: 245461004
I0627 10:55:39.412444 25648 layer_factory.hpp:77] Creating layer bn5b_branch2c
I0627 10:55:39.412467 25648 net.cpp:100] Creating Layer bn5b_branch2c
I0627 10:55:39.412475 25648 net.cpp:444] bn5b_branch2c <- res5b_branch2c
I0627 10:55:39.412493 25648 net.cpp:405] bn5b_branch2c -> res5b_branch2c (in-place)
I0627 10:55:39.412732 25648 net.cpp:150] Setting up bn5b_branch2c
I0627 10:55:39.412739 25648 net.cpp:157] Top shape: 1 2048 14 14 (401408)
I0627 10:55:39.412741 25648 net.cpp:165] Memory required for data: 247066636
I0627 10:55:39.412758 25648 layer_factory.hpp:77] Creating layer scale5b_branch2c
I0627 10:55:39.412772 25648 net.cpp:100] Creating Layer scale5b_branch2c
I0627 10:55:39.412778 25648 net.cpp:444] scale5b_branch2c <- res5b_branch2c
I0627 10:55:39.412789 25648 net.cpp:405] scale5b_branch2c -> res5b_branch2c (in-place)
I0627 10:55:39.412847 25648 layer_factory.hpp:77] Creating layer scale5b_branch2c
I0627 10:55:39.412998 25648 net.cpp:150] Setting up scale5b_branch2c
I0627 10:55:39.413005 25648 net.cpp:157] Top shape: 1 2048 14 14 (401408)
I0627 10:55:39.413008 25648 net.cpp:165] Memory required for data: 248672268
I0627 10:55:39.413019 25648 layer_factory.hpp:77] Creating layer res5b
I0627 10:55:39.413030 25648 net.cpp:100] Creating Layer res5b
I0627 10:55:39.413035 25648 net.cpp:444] res5b <- res5a_res5a_relu_0_split_1
I0627 10:55:39.413045 25648 net.cpp:444] res5b <- res5b_branch2c
I0627 10:55:39.413054 25648 net.cpp:418] res5b -> res5b
I0627 10:55:39.413092 25648 net.cpp:150] Setting up res5b
I0627 10:55:39.413100 25648 net.cpp:157] Top shape: 1 2048 14 14 (401408)
I0627 10:55:39.413103 25648 net.cpp:165] Memory required for data: 250277900
I0627 10:55:39.413107 25648 layer_factory.hpp:77] Creating layer res5b_relu
I0627 10:55:39.413117 25648 net.cpp:100] Creating Layer res5b_relu
I0627 10:55:39.413122 25648 net.cpp:444] res5b_relu <- res5b
I0627 10:55:39.413133 25648 net.cpp:405] res5b_relu -> res5b (in-place)
I0627 10:55:39.413571 25648 net.cpp:150] Setting up res5b_relu
I0627 10:55:39.413581 25648 net.cpp:157] Top shape: 1 2048 14 14 (401408)
I0627 10:55:39.413585 25648 net.cpp:165] Memory required for data: 251883532
I0627 10:55:39.413589 25648 layer_factory.hpp:77] Creating layer res5b_res5b_relu_0_split
I0627 10:55:39.413601 25648 net.cpp:100] Creating Layer res5b_res5b_relu_0_split
I0627 10:55:39.413606 25648 net.cpp:444] res5b_res5b_relu_0_split <- res5b
I0627 10:55:39.413619 25648 net.cpp:418] res5b_res5b_relu_0_split -> res5b_res5b_relu_0_split_0
I0627 10:55:39.413636 25648 net.cpp:418] res5b_res5b_relu_0_split -> res5b_res5b_relu_0_split_1
I0627 10:55:39.413688 25648 net.cpp:150] Setting up res5b_res5b_relu_0_split
I0627 10:55:39.413697 25648 net.cpp:157] Top shape: 1 2048 14 14 (401408)
I0627 10:55:39.413700 25648 net.cpp:157] Top shape: 1 2048 14 14 (401408)
I0627 10:55:39.413702 25648 net.cpp:165] Memory required for data: 255094796
I0627 10:55:39.413707 25648 layer_factory.hpp:77] Creating layer res5c_branch2a
I0627 10:55:39.413723 25648 net.cpp:100] Creating Layer res5c_branch2a
I0627 10:55:39.413729 25648 net.cpp:444] res5c_branch2a <- res5b_res5b_relu_0_split_0
I0627 10:55:39.413743 25648 net.cpp:418] res5c_branch2a -> res5c_branch2a
I0627 10:55:39.417395 25648 cudnn_conv_layer.cpp:194] Reallocating workspace storage: 10080
I0627 10:55:39.417426 25648 net.cpp:150] Setting up res5c_branch2a
I0627 10:55:39.417438 25648 net.cpp:157] Top shape: 1 512 14 14 (100352)
I0627 10:55:39.417441 25648 net.cpp:165] Memory required for data: 255496204
I0627 10:55:39.417459 25648 layer_factory.hpp:77] Creating layer bn5c_branch2a
I0627 10:55:39.417482 25648 net.cpp:100] Creating Layer bn5c_branch2a
I0627 10:55:39.417490 25648 net.cpp:444] bn5c_branch2a <- res5c_branch2a
I0627 10:55:39.417507 25648 net.cpp:405] bn5c_branch2a -> res5c_branch2a (in-place)
I0627 10:55:39.417737 25648 net.cpp:150] Setting up bn5c_branch2a
I0627 10:55:39.417744 25648 net.cpp:157] Top shape: 1 512 14 14 (100352)
I0627 10:55:39.417747 25648 net.cpp:165] Memory required for data: 255897612
I0627 10:55:39.417763 25648 layer_factory.hpp:77] Creating layer scale5c_branch2a
I0627 10:55:39.417779 25648 net.cpp:100] Creating Layer scale5c_branch2a
I0627 10:55:39.417784 25648 net.cpp:444] scale5c_branch2a <- res5c_branch2a
I0627 10:55:39.417796 25648 net.cpp:405] scale5c_branch2a -> res5c_branch2a (in-place)
I0627 10:55:39.417852 25648 layer_factory.hpp:77] Creating layer scale5c_branch2a
I0627 10:55:39.418001 25648 net.cpp:150] Setting up scale5c_branch2a
I0627 10:55:39.418009 25648 net.cpp:157] Top shape: 1 512 14 14 (100352)
I0627 10:55:39.418011 25648 net.cpp:165] Memory required for data: 256299020
I0627 10:55:39.418021 25648 layer_factory.hpp:77] Creating layer res5c_branch2a_relu
I0627 10:55:39.418032 25648 net.cpp:100] Creating Layer res5c_branch2a_relu
I0627 10:55:39.418037 25648 net.cpp:444] res5c_branch2a_relu <- res5c_branch2a
I0627 10:55:39.418048 25648 net.cpp:405] res5c_branch2a_relu -> res5c_branch2a (in-place)
I0627 10:55:39.418210 25648 net.cpp:150] Setting up res5c_branch2a_relu
I0627 10:55:39.418217 25648 net.cpp:157] Top shape: 1 512 14 14 (100352)
I0627 10:55:39.418220 25648 net.cpp:165] Memory required for data: 256700428
I0627 10:55:39.418224 25648 layer_factory.hpp:77] Creating layer res5c_branch2b
I0627 10:55:39.418241 25648 net.cpp:100] Creating Layer res5c_branch2b
I0627 10:55:39.418246 25648 net.cpp:444] res5c_branch2b <- res5c_branch2a
I0627 10:55:39.418262 25648 net.cpp:418] res5c_branch2b -> res5c_branch2b
I0627 10:55:39.424255 25648 net.cpp:150] Setting up res5c_branch2b
I0627 10:55:39.424288 25648 net.cpp:157] Top shape: 1 512 14 14 (100352)
I0627 10:55:39.424290 25648 net.cpp:165] Memory required for data: 257101836
I0627 10:55:39.424314 25648 layer_factory.hpp:77] Creating layer bn5c_branch2b
I0627 10:55:39.424345 25648 net.cpp:100] Creating Layer bn5c_branch2b
I0627 10:55:39.424355 25648 net.cpp:444] bn5c_branch2b <- res5c_branch2b
I0627 10:55:39.424374 25648 net.cpp:405] bn5c_branch2b -> res5c_branch2b (in-place)
I0627 10:55:39.424618 25648 net.cpp:150] Setting up bn5c_branch2b
I0627 10:55:39.424625 25648 net.cpp:157] Top shape: 1 512 14 14 (100352)
I0627 10:55:39.424628 25648 net.cpp:165] Memory required for data: 257503244
I0627 10:55:39.424645 25648 layer_factory.hpp:77] Creating layer scale5c_branch2b
I0627 10:55:39.424660 25648 net.cpp:100] Creating Layer scale5c_branch2b
I0627 10:55:39.424665 25648 net.cpp:444] scale5c_branch2b <- res5c_branch2b
I0627 10:55:39.424677 25648 net.cpp:405] scale5c_branch2b -> res5c_branch2b (in-place)
I0627 10:55:39.424734 25648 layer_factory.hpp:77] Creating layer scale5c_branch2b
I0627 10:55:39.424885 25648 net.cpp:150] Setting up scale5c_branch2b
I0627 10:55:39.424892 25648 net.cpp:157] Top shape: 1 512 14 14 (100352)
I0627 10:55:39.424895 25648 net.cpp:165] Memory required for data: 257904652
I0627 10:55:39.424906 25648 layer_factory.hpp:77] Creating layer res5c_branch2b_relu
I0627 10:55:39.424916 25648 net.cpp:100] Creating Layer res5c_branch2b_relu
I0627 10:55:39.424921 25648 net.cpp:444] res5c_branch2b_relu <- res5c_branch2b
I0627 10:55:39.424933 25648 net.cpp:405] res5c_branch2b_relu -> res5c_branch2b (in-place)
I0627 10:55:39.425143 25648 net.cpp:150] Setting up res5c_branch2b_relu
I0627 10:55:39.425151 25648 net.cpp:157] Top shape: 1 512 14 14 (100352)
I0627 10:55:39.425154 25648 net.cpp:165] Memory required for data: 258306060
I0627 10:55:39.425158 25648 layer_factory.hpp:77] Creating layer res5c_branch2c
I0627 10:55:39.425175 25648 net.cpp:100] Creating Layer res5c_branch2c
I0627 10:55:39.425181 25648 net.cpp:444] res5c_branch2c <- res5c_branch2b
I0627 10:55:39.425196 25648 net.cpp:418] res5c_branch2c -> res5c_branch2c
I0627 10:55:39.428956 25648 cudnn_conv_layer.cpp:194] Reallocating workspace storage: 7800
I0627 10:55:39.428989 25648 net.cpp:150] Setting up res5c_branch2c
I0627 10:55:39.429003 25648 net.cpp:157] Top shape: 1 2048 14 14 (401408)
I0627 10:55:39.429005 25648 net.cpp:165] Memory required for data: 259911692
I0627 10:55:39.429023 25648 layer_factory.hpp:77] Creating layer bn5c_branch2c
I0627 10:55:39.429046 25648 net.cpp:100] Creating Layer bn5c_branch2c
I0627 10:55:39.429056 25648 net.cpp:444] bn5c_branch2c <- res5c_branch2c
I0627 10:55:39.429074 25648 net.cpp:405] bn5c_branch2c -> res5c_branch2c (in-place)
I0627 10:55:39.429309 25648 net.cpp:150] Setting up bn5c_branch2c
I0627 10:55:39.429316 25648 net.cpp:157] Top shape: 1 2048 14 14 (401408)
I0627 10:55:39.429318 25648 net.cpp:165] Memory required for data: 261517324
I0627 10:55:39.429334 25648 layer_factory.hpp:77] Creating layer scale5c_branch2c
I0627 10:55:39.429350 25648 net.cpp:100] Creating Layer scale5c_branch2c
I0627 10:55:39.429356 25648 net.cpp:444] scale5c_branch2c <- res5c_branch2c
I0627 10:55:39.429369 25648 net.cpp:405] scale5c_branch2c -> res5c_branch2c (in-place)
I0627 10:55:39.429428 25648 layer_factory.hpp:77] Creating layer scale5c_branch2c
I0627 10:55:39.429584 25648 net.cpp:150] Setting up scale5c_branch2c
I0627 10:55:39.429591 25648 net.cpp:157] Top shape: 1 2048 14 14 (401408)
I0627 10:55:39.429594 25648 net.cpp:165] Memory required for data: 263122956
I0627 10:55:39.429603 25648 layer_factory.hpp:77] Creating layer res5c
I0627 10:55:39.429615 25648 net.cpp:100] Creating Layer res5c
I0627 10:55:39.429621 25648 net.cpp:444] res5c <- res5b_res5b_relu_0_split_1
I0627 10:55:39.429632 25648 net.cpp:444] res5c <- res5c_branch2c
I0627 10:55:39.429641 25648 net.cpp:418] res5c -> res5c
I0627 10:55:39.429682 25648 net.cpp:150] Setting up res5c
I0627 10:55:39.429690 25648 net.cpp:157] Top shape: 1 2048 14 14 (401408)
I0627 10:55:39.429693 25648 net.cpp:165] Memory required for data: 264728588
I0627 10:55:39.429697 25648 layer_factory.hpp:77] Creating layer res5c_relu
I0627 10:55:39.429706 25648 net.cpp:100] Creating Layer res5c_relu
I0627 10:55:39.429711 25648 net.cpp:444] res5c_relu <- res5c
I0627 10:55:39.429723 25648 net.cpp:405] res5c_relu -> res5c (in-place)
I0627 10:55:39.429886 25648 net.cpp:150] Setting up res5c_relu
I0627 10:55:39.429893 25648 net.cpp:157] Top shape: 1 2048 14 14 (401408)
I0627 10:55:39.429895 25648 net.cpp:165] Memory required for data: 266334220
I0627 10:55:39.429899 25648 layer_factory.hpp:77] Creating layer rpn_conv/3x3
I0627 10:55:39.429919 25648 net.cpp:100] Creating Layer rpn_conv/3x3
I0627 10:55:39.429926 25648 net.cpp:444] rpn_conv/3x3 <- res4f_res4f_relu_0_split_2
I0627 10:55:39.429941 25648 net.cpp:418] rpn_conv/3x3 -> rpn/output
I0627 10:55:40.015446 25648 cudnn_conv_layer.cpp:194] Reallocating workspace storage: 21676032
I0627 10:55:40.015743 25648 net.cpp:150] Setting up rpn_conv/3x3
I0627 10:55:40.015760 25648 net.cpp:157] Top shape: 1 512 14 14 (100352)
I0627 10:55:40.015763 25648 net.cpp:165] Memory required for data: 266735628
I0627 10:55:40.015787 25648 layer_factory.hpp:77] Creating layer rpn_relu/3x3
I0627 10:55:40.015810 25648 net.cpp:100] Creating Layer rpn_relu/3x3
I0627 10:55:40.015820 25648 net.cpp:444] rpn_relu/3x3 <- rpn/output
I0627 10:55:40.015837 25648 net.cpp:405] rpn_relu/3x3 -> rpn/output (in-place)
I0627 10:55:40.016268 25648 net.cpp:150] Setting up rpn_relu/3x3
I0627 10:55:40.016278 25648 net.cpp:157] Top shape: 1 512 14 14 (100352)
I0627 10:55:40.016280 25648 net.cpp:165] Memory required for data: 267137036
I0627 10:55:40.016284 25648 layer_factory.hpp:77] Creating layer rpn/output_rpn_relu/3x3_0_split
I0627 10:55:40.016297 25648 net.cpp:100] Creating Layer rpn/output_rpn_relu/3x3_0_split
I0627 10:55:40.016302 25648 net.cpp:444] rpn/output_rpn_relu/3x3_0_split <- rpn/output
I0627 10:55:40.016319 25648 net.cpp:418] rpn/output_rpn_relu/3x3_0_split -> rpn/output_rpn_relu/3x3_0_split_0
I0627 10:55:40.016337 25648 net.cpp:418] rpn/output_rpn_relu/3x3_0_split -> rpn/output_rpn_relu/3x3_0_split_1
I0627 10:55:40.016399 25648 net.cpp:150] Setting up rpn/output_rpn_relu/3x3_0_split
I0627 10:55:40.016407 25648 net.cpp:157] Top shape: 1 512 14 14 (100352)
I0627 10:55:40.016412 25648 net.cpp:157] Top shape: 1 512 14 14 (100352)
I0627 10:55:40.016413 25648 net.cpp:165] Memory required for data: 267939852
I0627 10:55:40.016417 25648 layer_factory.hpp:77] Creating layer rpn_cls_score
I0627 10:55:40.016438 25648 net.cpp:100] Creating Layer rpn_cls_score
I0627 10:55:40.016444 25648 net.cpp:444] rpn_cls_score <- rpn/output_rpn_relu/3x3_0_split_0
I0627 10:55:40.016463 25648 net.cpp:418] rpn_cls_score -> rpn_cls_score
I0627 10:55:40.018898 25648 cudnn_conv_layer.cpp:194] Reallocating workspace storage: 10080
I0627 10:55:40.018924 25648 net.cpp:150] Setting up rpn_cls_score
I0627 10:55:40.018931 25648 net.cpp:157] Top shape: 1 22 14 14 (4312)
I0627 10:55:40.018934 25648 net.cpp:165] Memory required for data: 267957100
I0627 10:55:40.018949 25648 layer_factory.hpp:77] Creating layer rpn_bbox_pred
I0627 10:55:40.018971 25648 net.cpp:100] Creating Layer rpn_bbox_pred
I0627 10:55:40.018978 25648 net.cpp:444] rpn_bbox_pred <- rpn/output_rpn_relu/3x3_0_split_1
I0627 10:55:40.018996 25648 net.cpp:418] rpn_bbox_pred -> rpn_bbox_pred
I0627 10:55:40.022800 25648 cudnn_conv_layer.cpp:194] Reallocating workspace storage: 10080
I0627 10:55:40.022827 25648 net.cpp:150] Setting up rpn_bbox_pred
I0627 10:55:40.022836 25648 net.cpp:157] Top shape: 1 44 14 14 (8624)
I0627 10:55:40.022841 25648 net.cpp:165] Memory required for data: 267991596
I0627 10:55:40.022855 25648 layer_factory.hpp:77] Creating layer rpn_cls_score_reshape
I0627 10:55:40.022876 25648 net.cpp:100] Creating Layer rpn_cls_score_reshape
I0627 10:55:40.022882 25648 net.cpp:444] rpn_cls_score_reshape <- rpn_cls_score
I0627 10:55:40.022897 25648 net.cpp:418] rpn_cls_score_reshape -> rpn_cls_score_reshape
I0627 10:55:40.022945 25648 net.cpp:150] Setting up rpn_cls_score_reshape
I0627 10:55:40.022955 25648 net.cpp:157] Top shape: 1 2 154 14 (4312)
I0627 10:55:40.022959 25648 net.cpp:165] Memory required for data: 268008844
I0627 10:55:40.022964 25648 layer_factory.hpp:77] Creating layer rpn_cls_prob
I0627 10:55:40.022976 25648 net.cpp:100] Creating Layer rpn_cls_prob
I0627 10:55:40.022982 25648 net.cpp:444] rpn_cls_prob <- rpn_cls_score_reshape
I0627 10:55:40.022996 25648 net.cpp:418] rpn_cls_prob -> rpn_cls_prob
I0627 10:55:40.023264 25648 net.cpp:150] Setting up rpn_cls_prob
I0627 10:55:40.023275 25648 net.cpp:157] Top shape: 1 2 154 14 (4312)
I0627 10:55:40.023278 25648 net.cpp:165] Memory required for data: 268026092
I0627 10:55:40.023283 25648 layer_factory.hpp:77] Creating layer rpn_cls_prob_reshape
I0627 10:55:40.023296 25648 net.cpp:100] Creating Layer rpn_cls_prob_reshape
I0627 10:55:40.023303 25648 net.cpp:444] rpn_cls_prob_reshape <- rpn_cls_prob
I0627 10:55:40.023320 25648 net.cpp:418] rpn_cls_prob_reshape -> rpn_cls_prob_reshape
I0627 10:55:40.023361 25648 net.cpp:150] Setting up rpn_cls_prob_reshape
I0627 10:55:40.023371 25648 net.cpp:157] Top shape: 1 22 14 14 (4312)
I0627 10:55:40.023375 25648 net.cpp:165] Memory required for data: 268043340
I0627 10:55:40.023380 25648 layer_factory.hpp:77] Creating layer proposal
I0627 10:55:40.023707 25648 net.cpp:100] Creating Layer proposal
I0627 10:55:40.023717 25648 net.cpp:444] proposal <- rpn_cls_prob_reshape
I0627 10:55:40.023730 25648 net.cpp:444] proposal <- rpn_bbox_pred
I0627 10:55:40.023737 25648 net.cpp:444] proposal <- im_info
I0627 10:55:40.023747 25648 net.cpp:418] proposal -> rois
I0627 10:55:40.025002 25648 net.cpp:150] Setting up proposal
I0627 10:55:40.025014 25648 net.cpp:157] Top shape: 1 5 (5)
I0627 10:55:40.025017 25648 net.cpp:165] Memory required for data: 268043360
I0627 10:55:40.025022 25648 layer_factory.hpp:77] Creating layer rois_proposal_0_split
I0627 10:55:40.025032 25648 net.cpp:100] Creating Layer rois_proposal_0_split
I0627 10:55:40.025038 25648 net.cpp:444] rois_proposal_0_split <- rois
I0627 10:55:40.025053 25648 net.cpp:418] rois_proposal_0_split -> rois_proposal_0_split_0
I0627 10:55:40.025068 25648 net.cpp:418] rois_proposal_0_split -> rois_proposal_0_split_1
I0627 10:55:40.025116 25648 net.cpp:150] Setting up rois_proposal_0_split
I0627 10:55:40.025125 25648 net.cpp:157] Top shape: 1 5 (5)
I0627 10:55:40.025128 25648 net.cpp:157] Top shape: 1 5 (5)
I0627 10:55:40.025130 25648 net.cpp:165] Memory required for data: 268043400
I0627 10:55:40.025133 25648 layer_factory.hpp:77] Creating layer conv_new_1
I0627 10:55:40.025152 25648 net.cpp:100] Creating Layer conv_new_1
I0627 10:55:40.025159 25648 net.cpp:444] conv_new_1 <- res5c
I0627 10:55:40.025179 25648 net.cpp:418] conv_new_1 -> conv_new_1
I0627 10:55:40.285748 25648 cudnn_conv_layer.cpp:194] Reallocating workspace storage: 10080
I0627 10:55:40.285781 25648 net.cpp:150] Setting up conv_new_1
I0627 10:55:40.285797 25648 net.cpp:157] Top shape: 1 1024 14 14 (200704)
I0627 10:55:40.285801 25648 net.cpp:165] Memory required for data: 268846216
I0627 10:55:40.285826 25648 layer_factory.hpp:77] Creating layer conv_new_1_relu
I0627 10:55:40.285851 25648 net.cpp:100] Creating Layer conv_new_1_relu
I0627 10:55:40.285859 25648 net.cpp:444] conv_new_1_relu <- conv_new_1
I0627 10:55:40.285876 25648 net.cpp:405] conv_new_1_relu -> conv_new_1 (in-place)
I0627 10:55:40.286048 25648 net.cpp:150] Setting up conv_new_1_relu
I0627 10:55:40.286056 25648 net.cpp:157] Top shape: 1 1024 14 14 (200704)
I0627 10:55:40.286058 25648 net.cpp:165] Memory required for data: 269649032
I0627 10:55:40.286063 25648 layer_factory.hpp:77] Creating layer conv_new_1_conv_new_1_relu_0_split
I0627 10:55:40.286072 25648 net.cpp:100] Creating Layer conv_new_1_conv_new_1_relu_0_split
I0627 10:55:40.286077 25648 net.cpp:444] conv_new_1_conv_new_1_relu_0_split <- conv_new_1
I0627 10:55:40.286090 25648 net.cpp:418] conv_new_1_conv_new_1_relu_0_split -> conv_new_1_conv_new_1_relu_0_split_0
I0627 10:55:40.286106 25648 net.cpp:418] conv_new_1_conv_new_1_relu_0_split -> conv_new_1_conv_new_1_relu_0_split_1
I0627 10:55:40.286165 25648 net.cpp:150] Setting up conv_new_1_conv_new_1_relu_0_split
I0627 10:55:40.286173 25648 net.cpp:157] Top shape: 1 1024 14 14 (200704)
I0627 10:55:40.286178 25648 net.cpp:157] Top shape: 1 1024 14 14 (200704)
I0627 10:55:40.286180 25648 net.cpp:165] Memory required for data: 271254664
I0627 10:55:40.286185 25648 layer_factory.hpp:77] Creating layer rfcn_cls
I0627 10:55:40.286208 25648 net.cpp:100] Creating Layer rfcn_cls
I0627 10:55:40.286216 25648 net.cpp:444] rfcn_cls <- conv_new_1_conv_new_1_relu_0_split_0
I0627 10:55:40.286231 25648 net.cpp:418] rfcn_cls -> rfcn_cls
I0627 10:55:40.299885 25648 cudnn_conv_layer.cpp:194] Reallocating workspace storage: 10080
I0627 10:55:40.299917 25648 net.cpp:150] Setting up rfcn_cls
I0627 10:55:40.299931 25648 net.cpp:157] Top shape: 1 98 14 14 (19208)
I0627 10:55:40.299933 25648 net.cpp:165] Memory required for data: 271331496
I0627 10:55:40.299952 25648 layer_factory.hpp:77] Creating layer rfcn_bbox
I0627 10:55:40.300010 25648 net.cpp:100] Creating Layer rfcn_bbox
I0627 10:55:40.300021 25648 net.cpp:444] rfcn_bbox <- conv_new_1_conv_new_1_relu_0_split_1
I0627 10:55:40.300042 25648 net.cpp:418] rfcn_bbox -> rfcn_bbox
I0627 10:55:40.351351 25648 cudnn_conv_layer.cpp:194] Reallocating workspace storage: 10080
I0627 10:55:40.351384 25648 net.cpp:150] Setting up rfcn_bbox
I0627 10:55:40.351399 25648 net.cpp:157] Top shape: 1 392 14 14 (76832)
I0627 10:55:40.351402 25648 net.cpp:165] Memory required for data: 271638824
I0627 10:55:40.351424 25648 layer_factory.hpp:77] Creating layer psroipooled_cls_rois
I0627 10:55:40.351450 25648 net.cpp:100] Creating Layer psroipooled_cls_rois
I0627 10:55:40.351459 25648 net.cpp:444] psroipooled_cls_rois <- rfcn_cls
I0627 10:55:40.351475 25648 net.cpp:444] psroipooled_cls_rois <- rois_proposal_0_split_0
I0627 10:55:40.351488 25648 net.cpp:418] psroipooled_cls_rois -> psroipooled_cls_rois
I0627 10:55:40.351510 25648 psroi_pooling_layer.cpp:26] Spatial scale: 0.0625
I0627 10:55:40.351573 25648 net.cpp:150] Setting up psroipooled_cls_rois
I0627 10:55:40.351583 25648 net.cpp:157] Top shape: 1 2 7 7 (98)
I0627 10:55:40.351584 25648 net.cpp:165] Memory required for data: 271639216
I0627 10:55:40.351588 25648 layer_factory.hpp:77] Creating layer ave_cls_score_rois
I0627 10:55:40.351601 25648 net.cpp:100] Creating Layer ave_cls_score_rois
I0627 10:55:40.351606 25648 net.cpp:444] ave_cls_score_rois <- psroipooled_cls_rois
I0627 10:55:40.351621 25648 net.cpp:418] ave_cls_score_rois -> cls_score
I0627 10:55:40.352098 25648 net.cpp:150] Setting up ave_cls_score_rois
I0627 10:55:40.352110 25648 net.cpp:157] Top shape: 1 2 1 1 (2)
I0627 10:55:40.352113 25648 net.cpp:165] Memory required for data: 271639224
I0627 10:55:40.352118 25648 layer_factory.hpp:77] Creating layer psroipooled_loc_rois
I0627 10:55:40.352134 25648 net.cpp:100] Creating Layer psroipooled_loc_rois
I0627 10:55:40.352141 25648 net.cpp:444] psroipooled_loc_rois <- rfcn_bbox
I0627 10:55:40.352152 25648 net.cpp:444] psroipooled_loc_rois <- rois_proposal_0_split_1
I0627 10:55:40.352162 25648 net.cpp:418] psroipooled_loc_rois -> psroipooled_loc_rois
I0627 10:55:40.352176 25648 psroi_pooling_layer.cpp:26] Spatial scale: 0.0625
I0627 10:55:40.352226 25648 net.cpp:150] Setting up psroipooled_loc_rois
I0627 10:55:40.352236 25648 net.cpp:157] Top shape: 1 8 7 7 (392)
I0627 10:55:40.352239 25648 net.cpp:165] Memory required for data: 271640792
I0627 10:55:40.352244 25648 layer_factory.hpp:77] Creating layer ave_bbox_pred_rois
I0627 10:55:40.352258 25648 net.cpp:100] Creating Layer ave_bbox_pred_rois
I0627 10:55:40.352265 25648 net.cpp:444] ave_bbox_pred_rois <- psroipooled_loc_rois
I0627 10:55:40.352282 25648 net.cpp:418] ave_bbox_pred_rois -> bbox_pred_pre
I0627 10:55:40.352471 25648 net.cpp:150] Setting up ave_bbox_pred_rois
I0627 10:55:40.352483 25648 net.cpp:157] Top shape: 1 8 1 1 (8)
I0627 10:55:40.352486 25648 net.cpp:165] Memory required for data: 271640824
I0627 10:55:40.352491 25648 layer_factory.hpp:77] Creating layer cls_prob
I0627 10:55:40.352504 25648 net.cpp:100] Creating Layer cls_prob
I0627 10:55:40.352509 25648 net.cpp:444] cls_prob <- cls_score
I0627 10:55:40.352525 25648 net.cpp:418] cls_prob -> cls_prob_pre
I0627 10:55:40.352768 25648 net.cpp:150] Setting up cls_prob
I0627 10:55:40.352779 25648 net.cpp:157] Top shape: 1 2 1 1 (2)
I0627 10:55:40.352783 25648 net.cpp:165] Memory required for data: 271640832
I0627 10:55:40.352788 25648 layer_factory.hpp:77] Creating layer cls_prob_reshape
I0627 10:55:40.352804 25648 net.cpp:100] Creating Layer cls_prob_reshape
I0627 10:55:40.352810 25648 net.cpp:444] cls_prob_reshape <- cls_prob_pre
I0627 10:55:40.352825 25648 net.cpp:418] cls_prob_reshape -> cls_prob
I0627 10:55:40.352865 25648 net.cpp:150] Setting up cls_prob_reshape
I0627 10:55:40.352874 25648 net.cpp:157] Top shape: 1 2 (2)
I0627 10:55:40.352876 25648 net.cpp:165] Memory required for data: 271640840
I0627 10:55:40.352880 25648 layer_factory.hpp:77] Creating layer bbox_pred_reshape
I0627 10:55:40.352890 25648 net.cpp:100] Creating Layer bbox_pred_reshape
I0627 10:55:40.352895 25648 net.cpp:444] bbox_pred_reshape <- bbox_pred_pre
I0627 10:55:40.352910 25648 net.cpp:418] bbox_pred_reshape -> bbox_pred
I0627 10:55:40.352946 25648 net.cpp:150] Setting up bbox_pred_reshape
I0627 10:55:40.352953 25648 net.cpp:157] Top shape: 1 8 (8)
I0627 10:55:40.352957 25648 net.cpp:165] Memory required for data: 271640872
I0627 10:55:40.352962 25648 net.cpp:228] bbox_pred_reshape does not need backward computation.
I0627 10:55:40.352965 25648 net.cpp:228] cls_prob_reshape does not need backward computation.
I0627 10:55:40.352969 25648 net.cpp:228] cls_prob does not need backward computation.
I0627 10:55:40.352973 25648 net.cpp:228] ave_bbox_pred_rois does not need backward computation.
…
