…
snapshot_prefix: "resnet50_rfcn_ohem"
iter_size: 1
I0620 19:58:04.120765 16504 solver.cpp:81] Creating training net from train_net file: /home/user/Disk1.8T/py-R-FCN/experiments/6_13_original_head_upper_body_handle/train_agnostic_ohem.prototxt
I0620 19:58:04.123015 16504 net.cpp:58] Initializing net from parameters: 
name: "ResNet-50"
state {
  phase: TRAIN
}
layer {
  name: "input-data"
  type: "Python"
  top: "data"
  top: "im_info"
  top: "gt_boxes"
  python_param {
    module: "roi_data_layer.layer"
    layer: "RoIDataLayer"
    param_str: "\'num_classes\': 4"
  }
}
layer {
  name: "conv1"
  type: "Convolution"
  bottom: "data"
  top: "conv1"
  param {
    lr_mult: 0
  }
  param {
    lr_mult: 0
  }
  convolution_param {
    num_output: 64
    pad: 3
    kernel_size: 7
    stride: 2
  }
}
layer {
  name: "bn_conv1"
  type: "BatchNorm"
  bottom: "conv1"
  top: "conv1"
  param {
    lr_mult: 0
    decay_mult: 0
  }
  param {
    lr_mult: 0
    decay_mult: 0
  }
  param {
    lr_mult: 0
    decay_mult: 0
  }
  batch_norm_param {
    use_global_stats: true
  }
}
layer {
  name: "scale_conv1"
  type: "Scale"
  bottom: "conv1"
  top: "conv1"
  param {
    lr_mult: 0
    decay_mult: 0
  }
  param {
    lr_mult: 0
    decay_mult: 0
  }
  scale_param {
    bias_term: true
  }
}
layer {
  name: "conv1_relu"
  type: "ReLU"
  bottom: "conv1"
  top: "conv1"
}
layer {
  name: "pool1"
  type: "Pooling"
  bottom: "conv1"
  top: "pool1"
  pooling_param {
    pool: MAX
    kernel_size: 3
    stride: 2
  }
}
layer {
  name: "res2a_branch1"
  type: "Convolution"
  bottom: "pool1"
  top: "res2a_branch1"
  param {
    lr_mult: 0
  }
  convolution_param {
    num_output: 256
    bias_term: false
    pad: 0
    kernel_size: 1
    stride: 1
  }
}
layer {
  name: "bn2a_branch1"
  type: "BatchNorm"
  bottom: "res2a_branch1"
  top: "res2a_branch1"
  param {
    lr_mult: 0
    decay_mult: 0
  }
  param {
    lr_mult: 0
    decay_mult: 0
  }
  param {
    lr_mult: 0
    decay_mult: 0
  }
  batch_norm_param {
    use_global_stats: true
  }
}
layer {
  name: "scale2a_branch1"
  type: "Scale"
  bottom: "res2a_branch1"
  top: "res2a_branch1"
  param {
    lr_mult: 0
    decay_mult: 0
  }
  param {
    lr_mult: 0
    decay_mult: 0
  }
  scale_param {
    bias_term: true
  }
}
layer {
  name: "res2a_branch2a"
  type: "Convolution"
  bottom: "pool1"
  top: "res2a_branch2a"
  param {
    lr_mult: 0
  }
  convolution_param {
    num_output: 64
    bias_term: false
    pad: 0
    kernel_size: 1
    stride: 1
  }
}
layer {
  name: "bn2a_branch2a"
  type: "BatchNorm"
  bottom: "res2a_branch2a"
  top: "res2a_branch2a"
  param {
    lr_mult: 0
    decay_mult: 0
  }
  param {
    lr_mult: 0
    decay_mult: 0
  }
  param {
    lr_mult: 0
    decay_mult: 0
  }
  batch_norm_param {
    use_global_stats: true
  }
}
layer {
  name: "scale2a_branch2a"
  type: "Scale"
  bottom: "res2a_branch2a"
  top: "res2a_branch2a"
  param {
    lr_mult: 0
    decay_mult: 0
  }
  param {
    lr_mult: 0
    decay_mult: 0
  }
  scale_param {
    bias_term: true
  }
}
layer {
  name: "res2a_branch2a_relu"
  type: "ReLU"
  bottom: "res2a_branch2a"
  top: "res2a_branch2a"
}
layer {
  name: "res2a_branch2b"
  type: "Convolution"
  bottom: "res2a_branch2a"
  top: "res2a_branch2b"
  param {
    lr_mult: 0
  }
  convolution_param {
    num_output: 64
    bias_term: false
    pad: 1
    kernel_size: 3
    stride: 1
  }
}
layer {
  name: "bn2a_branch2b"
  type: "BatchNorm"
  bottom: "res2a_branch2b"
  top: "res2a_branch2b"
  param {
    lr_mult: 0
    decay_mult: 0
  }
  param {
    lr_mult: 0
    decay_mult: 0
  }
  param {
    lr_mult: 0
    decay_mult: 0
  }
  batch_norm_param {
    use_global_stats: true
  }
}
layer {
  name: "scale2a_branch2b"
  type: "Scale"
  bottom: "res2a_branch2b"
  top: "res2a_branch2b"
  param {
    lr_mult: 0
    decay_mult: 0
  }
  param {
    lr_mult: 0
    decay_mult: 0
  }
  scale_param {
    bias_term: true
  }
}
layer {
  name: "res2a_branch2b_relu"
  type: "ReLU"
  bottom: "res2a_branch2b"
  top: "res2a_branch2b"
}
layer {
  name: "res2a_branch2c"
  type: "Convolution"
  bottom: "res2a_branch2b"
  top: "res2a_branch2c"
  param {
    lr_mult: 0
  }
  convolution_param {
    num_output: 256
    bias_term: false
    pad: 0
    kernel_size: 1
    stride: 1
  }
}
layer {
  name: "bn2a_branch2c"
  type: "BatchNorm"
  bottom: "res2a_branch2c"
  top: "res2a_branch2c"
  param {
    lr_mult: 0
    decay_mult: 0
  }
  param {
    lr_mult: 0
    decay_mult: 0
  }
  param {
    lr_mult: 0
    decay_mult: 0
  }
  batch_norm_param {
    use_global_stats: true
  }
}
layer {
  name: "scale2a_branch2c"
  type: "Scale"
  bottom: "res2a_branch2c"
  top: "res2a_branch2c"
  param {
    lr_mult: 0
    decay_mult: 0
  }
  param {
    lr_mult: 0
    decay_mult: 0
  }
  scale_param {
    bias_term: true
  }
}
layer {
  name: "res2a"
  type: "Eltwise"
  bottom: "res2a_branch1"
  bottom: "res2a_branch2c"
  top: "res2a"
}
layer {
  name: "res2a_relu"
  type: "ReLU"
  bottom: "res2a"
  top: "res2a"
}
layer {
  name: "res2b_branch2a"
  type: "Convolution"
  bottom: "res2a"
  top: "res2b_branch2a"
  param {
    lr_mult: 0
  }
  convolution_param {
    num_output: 64
    bias_term: false
    pad: 0
    kernel_size: 1
    stride: 1
  }
}
layer {
  name: "bn2b_branch2a"
  type: "BatchNorm"
  bottom: "res2b_branch2a"
  top: "res2b_branch2a"
  param {
    lr_mult: 0
    decay_mult: 0
  }
  param {
    lr_mult: 0
    decay_mult: 0
  }
  param {
    lr_mult: 0
    decay_mult: 0
  }
  batch_norm_param {
    use_global_stats: true
  }
}
layer {
  name: "scale2b_branch2a"
  type: "Scale"
  bottom: "res2b_branch2a"
  top: "res2b_branch2a"
  param {
    lr_mult: 0
    decay_mult: 0
  }
  param {
    lr_mult: 0
    decay_mult: 0
  }
  scale_param {
    bias_term: true
  }
}
layer {
  name: "res2b_branch2a_relu"
  type: "ReLU"
  bottom: "res2b_branch2a"
  top: "res2b_branch2a"
}
layer {
  name: "res2b_branch2b"
  type: "Convolution"
  bottom: "res2b_branch2a"
  top: "res2b_branch2b"
  param {
    lr_mult: 0
  }
  convolution_param {
    num_output: 64
    bias_term: false
    pad: 1
    kernel_size: 3
    stride: 1
  }
}
layer {
  name: "bn2b_branch2b"
  type: "BatchNorm"
  bottom: "res2b_branch2b"
  top: "res2b_branch2b"
  param {
    lr_mult: 0
    decay_mult: 0
  }
  param {
    lr_mult: 0
    decay_mult: 0
  }
  param {
    lr_mult: 0
    decay_mult: 0
  }
  batch_norm_param {
    use_global_stats: true
  }
}
layer {
  name: "scale2b_branch2b"
  type: "Scale"
  bottom: "res2b_branch2b"
  top: "res2b_branch2b"
  param {
    lr_mult: 0
    decay_mult: 0
  }
  param {
    lr_mult: 0
    decay_mult: 0
  }
  scale_param {
    bias_term: true
  }
}
layer {
  name: "res2b_branch2b_relu"
  type: "ReLU"
  bottom: "res2b_branch2b"
  top: "res2b_branch2b"
}
layer {
  name: "res2b_branch2c"
  type: "Convolution"
  bottom: "res2b_branch2b"
  top: "res2b_branch2c"
  param {
    lr_mult: 0
  }
  convolution_param {
    num_output: 256
    bias_term: false
    pad: 0
    kernel_size: 1
    stride: 1
  }
}
layer {
  name: "bn2b_branch2c"
  type: "BatchNorm"
  bottom: "res2b_branch2c"
  top: "res2b_branch2c"
  param {
    lr_mult: 0
    decay_mult: 0
  }
  param {
    lr_mult: 0
    decay_mult: 0
  }
  param {
    lr_mult: 0
    decay_mult: 0
  }
  batch_norm_param {
    use_global_stats: true
  }
}
layer {
  name: "scale2b_branch2c"
  type: "Scale"
  bottom: "res2b_branch2c"
  top: "res2b_branch2c"
  param {
    lr_mult: 0
    decay_mult: 0
  }
  param {
    lr_mult: 0
    decay_mult: 0
  }
  scale_param {
    bias_term: true
  }
}
layer {
  name: "res2b"
  type: "Eltwise"
  bottom: "res2a"
  bottom: "res2b_branch2c"
  top: "res2b"
}
layer {
  name: "res2b_relu"
  type: "ReLU"
  bottom: "res2b"
  top: "res2b"
}
layer {
  name: "res2c_branch2a"
  type: "Convolution"
  bottom: "res2b"
  top: "res2c_branch2a"
  param {
    lr_mult: 0
  }
  convolution_param {
    num_output: 64
    bias_term: false
    pad: 0
    kernel_size: 1
    stride: 1
  }
}
layer {
  name: "bn2c_branch2a"
  type: "BatchNorm"
  bottom: "res2c_branch2a"
  top: "res2c_branch2a"
  param {
    lr_mult: 0
    decay_mult: 0
  }
  param {
    lr_mult: 0
    decay_mult: 0
  }
  param {
    lr_mult: 0
    decay_mult: 0
  }
  batch_norm_param {
    use_global_stats: true
  }
}
layer {
  name: "scale2c_branch2a"
  type: "Scale"
  bottom: "res2c_branch2a"
  top: "res2c_branch2a"
  param {
    lr_mult: 0
    decay_mult: 0
  }
  param {
    lr_mult: 0
    decay_mult: 0
  }
  scale_param {
    bias_term: true
  }
}
layer {
  name: "res2c_branch2a_relu"
  type: "ReLU"
  bottom: "res2c_branch2a"
  top: "res2c_branch2a"
}
layer {
  name: "res2c_branch2b"
  type: "Convolution"
  bottom: "res2c_branch2a"
  top: "res2c_branch2b"
  param {
    lr_mult: 0
  }
  convolution_param {
    num_output: 64
    bias_term: false
    pad: 1
    kernel_size: 3
    stride: 1
  }
}
layer {
  name: "bn2c_branch2b"
  type: "BatchNorm"
  bottom: "res2c_branch2b"
  top: "res2c_branch2b"
  param {
    lr_mult: 0
    decay_mult: 0
  }
  param {
    lr_mult: 0
    decay_mult: 0
  }
  param {
    lr_mult: 0
    decay_mult: 0
  }
  batch_norm_param {
    use_global_stats: true
  }
}
layer {
  name: "scale2c_branch2b"
  type: "Scale"
  bottom: "res2c_branch2b"
  top: "res2c_branch2b"
  param {
    lr_mult: 0
    decay_mult: 0
  }
  param {
    lr_mult: 0
    decay_mult: 0
  }
  scale_param {
    bias_term: true
  }
}
layer {
  name: "res2c_branch2b_relu"
  type: "ReLU"
  bottom: "res2c_branch2b"
  top: "res2c_branch2b"
}
layer {
  name: "res2c_branch2c"
  type: "Convolution"
  bottom: "res2c_branch2b"
  top: "res2c_branch2c"
  param {
    lr_mult: 0
  }
  convolution_param {
    num_output: 256
    bias_term: false
    pad: 0
    kernel_size: 1
    stride: 1
  }
}
layer {
  name: "bn2c_branch2c"
  type: "BatchNorm"
  bottom: "res2c_branch2c"
  top: "res2c_branch2c"
  param {
    lr_mult: 0
    decay_mult: 0
  }
  param {
    lr_mult: 0
    decay_mult: 0
  }
  param {
    lr_mult: 0
    decay_mult: 0
  }
  batch_norm_param {
    use_global_stats: true
  }
}
layer {
  name: "scale2c_branch2c"
  type: "Scale"
  bottom: "res2c_branch2c"
  top: "res2c_branch2c"
  param {
    lr_mult: 0
    decay_mult: 0
  }
  param {
    lr_mult: 0
    decay_mult: 0
  }
  scale_param {
    bias_term: true
  }
}
layer {
  name: "res2c"
  type: "Eltwise"
  bottom: "res2b"
  bottom: "res2c_branch2c"
  top: "res2c"
}
layer {
  name: "res2c_relu"
  type: "ReLU"
  bottom: "res2c"
  top: "res2c"
}
layer {
  name: "res3a_branch1"
  type: "Convolution"
  bottom: "res2c"
  top: "res3a_branch1"
  param {
    lr_mult: 1
  }
  convolution_param {
    num_output: 512
    bias_term: false
    pad: 0
    kernel_size: 1
    stride: 2
  }
}
layer {
  name: "bn3a_branch1"
  type: "BatchNorm"
  bottom: "res3a_branch1"
  top: "res3a_branch1"
  param {
    lr_mult: 0
    decay_mult: 0
  }
  param {
    lr_mult: 0
    decay_mult: 0
  }
  param {
    lr_mult: 0
    decay_mult: 0
  }
  batch_norm_param {
    use_global_stats: true
  }
}
layer {
  name: "scale3a_branch1"
  type: "Scale"
  bottom: "res3a_branch1"
  top: "res3a_branch1"
  param {
    lr_mult: 0
    decay_mult: 0
  }
  param {
    lr_mult: 0
    decay_mult: 0
  }
  scale_param {
    bias_term: true
  }
}
layer {
  name: "res3a_branch2a"
  type: "Convolution"
  bottom: "res2c"
  top: "res3a_branch2a"
  param {
    lr_mult: 1
  }
  convolution_param {
    num_output: 128
    bias_term: false
    pad: 0
    kernel_size: 1
    stride: 2
  }
}
layer {
  name: "bn3a_branch2a"
  type: "BatchNorm"
  bottom: "res3a_branch2a"
  top: "res3a_branch2a"
  param {
    lr_mult: 0
    decay_mult: 0
  }
  param {
    lr_mult: 0
    decay_mult: 0
  }
  param {
    lr_mult: 0
    decay_mult: 0
  }
  batch_norm_param {
    use_global_stats: true
  }
}
layer {
  name: "scale3a_branch2a"
  type: "Scale"
  bottom: "res3a_branch2a"
  top: "res3a_branch2a"
  param {
    lr_mult: 0
    decay_mult: 0
  }
  param {
    lr_mult: 0
    decay_mult: 0
  }
  scale_param {
    bias_term: true
  }
}
layer {
  name: "res3a_branch2a_relu"
  type: "ReLU"
  bottom: "res3a_branch2a"
  top: "res3a_branch2a"
}
layer {
  name: "res3a_branch2b"
  type: "Convolution"
  bottom: "res3a_branch2a"
  top: "res3a_branch2b"
  param {
    lr_mult: 1
  }
  convolution_param {
    num_output: 128
    bias_term: false
    pad: 1
    kernel_size: 3
    stride: 1
  }
}
layer {
  name: "bn3a_branch2b"
  type: "BatchNorm"
  bottom: "res3a_branch2b"
  top: "res3a_branch2b"
  param {
    lr_mult: 0
    decay_mult: 0
  }
  param {
    lr_mult: 0
    decay_mult: 0
  }
  param {
    lr_mult: 0
    decay_mult: 0
  }
  batch_norm_param {
    use_global_stats: true
  }
}
layer {
  name: "scale3a_branch2b"
  type: "Scale"
  bottom: "res3a_branch2b"
  top: "res3a_branch2b"
  param {
    lr_mult: 0
    decay_mult: 0
  }
  param {
    lr_mult: 0
    decay_mult: 0
  }
  scale_param {
    bias_term: true
  }
}
layer {
  name: "res3a_branch2b_relu"
  type: "ReLU"
  bottom: "res3a_branch2b"
  top: "res3a_branch2b"
}
layer {
  name: "res3a_branch2c"
  type: "Convolution"
  bottom: "res3a_branch2b"
  top: "res3a_branch2c"
  param {
    lr_mult: 1
  }
  convolution_param {
    num_output: 512
    bias_term: false
    pad: 0
    kernel_size: 1
    stride: 1
  }
}
layer {
  name: "bn3a_branch2c"
  type: "BatchNorm"
  bottom: "res3a_branch2c"
  top: "res3a_branch2c"
  param {
    lr_mult: 0
    decay_mult: 0
  }
  param {
    lr_mult: 0
    decay_mult: 0
  }
  param {
    lr_mult: 0
    decay_mult: 0
  }
  batch_norm_param {
    use_global_stats: true
  }
}
layer {
  name: "scale3a_branch2c"
  type: "Scale"
  bottom: "res3a_branch2c"
  top: "res3a_branch2c"
  param {
    lr_mult: 0
    decay_mult: 0
  }
  param {
    lr_mult: 0
    decay_mult: 0
  }
  scale_param {
    bias_term: true
  }
}
layer {
  name: "res3a"
  type: "Eltwise"
  bottom: "res3a_branch1"
  bottom: "res3a_branch2c"
  top: "res3a"
}
layer {
  name: "res3a_relu"
  type: "ReLU"
  bottom: "res3a"
  top: "res3a"
}
layer {
  name: "res3b_branch2a"
  type: "Convolution"
  bottom: "res3a"
  top: "res3b_branch2a"
  param {
    lr_mult: 1
  }
  convolution_param {
    num_output: 128
    bias_term: false
    pad: 0
    kernel_size: 1
    stride: 1
  }
}
layer {
  name: "bn3b_branch2a"
  type: "BatchNorm"
  bottom: "res3b_branch2a"
  top: "res3b_branch2a"
  param {
    lr_mult: 0
    decay_mult: 0
  }
  param {
    lr_mult: 0
    decay_mult: 0
  }
  param {
    lr_mult: 0
    decay_mult: 0
  }
  batch_norm_param {
    use_global_stats: true
  }
}
layer {
  name: "scale3b_branch2a"
  type: "Scale"
  bottom: "res3b_branch2a"
  top: "res3b_branch2a"
  param {
    lr_mult: 0
    decay_mult: 0
  }
  param {
    lr_mult: 0
    decay_mult: 0
  }
  scale_param {
    bias_term: true
  }
}
layer {
  name: "res3b_branch2a_relu"
  type: "ReLU"
  bottom: "res3b_branch2a"
  top: "res3b_branch2a"
}
layer {
  name: "res3b_branch2b"
  type: "Convolution"
  bottom: "res3b_branch2a"
  top: "res3b_branch2b"
  param {
    lr_mult: 1
  }
  convolution_param {
    num_output: 128
    bias_term: false
    pad: 1
    kernel_size: 3
    stride: 1
  }
}
layer {
  name: "bn3b_branch2b"
  type: "BatchNorm"
  bottom: "res3b_branch2b"
  top: "res3b_branch2b"
  param {
    lr_mult: 0
    decay_mult: 0
  }
  param {
    lr_mult: 0
    decay_mult: 0
  }
  param {
    lr_mult: 0
    decay_mult: 0
  }
  batch_norm_param {
    use_global_stats: true
  }
}
layer {
  name: "scale3b_branch2b"
  type: "Scale"
  bottom: "res3b_branch2b"
  top: "res3b_branch2b"
  param {
    lr_mult: 0
    decay_mult: 0
  }
  param {
    lr_mult: 0
    decay_mult: 0
  }
  scale_param {
    bias_term: true
  }
}
layer {
  name: "res3b_branch2b_relu"
  type: "ReLU"
  bottom: "res3b_branch2b"
  top: "res3b_branch2b"
}
layer {
  name: "res3b_branch2c"
  type: "Convolution"
  bottom: "res3b_branch2b"
  top: "res3b_branch2c"
  param {
    lr_mult: 1
  }
  convolution_param {
    num_output: 512
    bias_term: false
    pad: 0
    kernel_size: 1
    stride: 1
  }
}
layer {
  name: "bn3b_branch2c"
  type: "BatchNorm"
  bottom: "res3b_branch2c"
  top: "res3b_branch2c"
  param {
    lr_mult: 0
    decay_mult: 0
  }
  param {
    lr_mult: 0
    decay_mult: 0
  }
  param {
    lr_mult: 0
    decay_mult: 0
  }
  batch_norm_param {
    use_global_stats: true
  }
}
layer {
  name: "scale3b_branch2c"
  type: "Scale"
  bottom: "res3b_branch2c"
  top: "res3b_branch2c"
  param {
    lr_mult: 0
    decay_mult: 0
  }
  param {
    lr_mult: 0
    decay_mult: 0
  }
  scale_param {
    bias_term: true
  }
}
layer {
  name: "res3b"
  type: "Eltwise"
  bottom: "res3a"
  bottom: "res3b_branch2c"
  top: "res3b"
}
layer {
  name: "res3b_relu"
  type: "ReLU"
  bottom: "res3b"
  top: "res3b"
}
layer {
  name: "res3c_branch2a"
  type: "Convolution"
  bottom: "res3b"
  top: "res3c_branch2a"
  param {
    lr_mult: 1
  }
  convolution_param {
    num_output: 128
    bias_term: false
    pad: 0
    kernel_size: 1
    stride: 1
  }
}
layer {
  name: "bn3c_branch2a"
  type: "BatchNorm"
  bottom: "res3c_branch2a"
  top: "res3c_branch2a"
  param {
    lr_mult: 0
    decay_mult: 0
  }
  param {
    lr_mult: 0
    decay_mult: 0
  }
  param {
    lr_mult: 0
    decay_mult: 0
  }
  batch_norm_param {
    use_global_stats: true
  }
}
layer {
  name: "scale3c_branch2a"
  type: "Scale"
  bottom: "res3c_branch2a"
  top: "res3c_branch2a"
  param {
    lr_mult: 0
    decay_mult: 0
  }
  param {
    lr_mult: 0
    decay_mult: 0
  }
  scale_param {
    bias_term: true
  }
}
layer {
  name: "res3c_branch2a_relu"
  type: "ReLU"
  bottom: "res3c_branch2a"
  top: "res3c_branch2a"
}
layer {
  name: "res3c_branch2b"
  type: "Convolution"
  bottom: "res3c_branch2a"
  top: "res3c_branch2b"
  param {
    lr_mult: 1
  }
  convolution_param {
    num_output: 128
    bias_term: false
    pad: 1
    kernel_size: 3
    stride: 1
  }
}
layer {
  name: "bn3c_branch2b"
  type: "BatchNorm"
  bottom: "res3c_branch2b"
  top: "res3c_branch2b"
  param {
    lr_mult: 0
    decay_mult: 0
  }
  param {
    lr_mult: 0
    decay_mult: 0
  }
  param {
    lr_mult: 0
    decay_mult: 0
  }
  batch_norm_param {
    use_global_stats: true
  }
}
layer {
  name: "scale3c_branch2b"
  type: "Scale"
  bottom: "res3c_branch2b"
  top: "res3c_branch2b"
  param {
    lr_mult: 0
    decay_mult: 0
  }
  param {
    lr_mult: 0
    decay_mult: 0
  }
  scale_param {
    bias_term: true
  }
}
layer {
  name: "res3c_branch2b_relu"
  type: "ReLU"
  bottom: "res3c_branch2b"
  top: "res3c_branch2b"
}
layer {
  name: "res3c_branch2c"
  type: "Convolution"
  bottom: "res3c_branch2b"
  top: "res3c_branch2c"
  param {
    lr_mult: 1
  }
  convolution_param {
    num_output: 512
    bias_term: false
    pad: 0
    kernel_size: 1
    stride: 1
  }
}
layer {
  name: "bn3c_branch2c"
  type: "BatchNorm"
  bottom: "res3c_branch2c"
  top: "res3c_branch2c"
  param {
    lr_mult: 0
    decay_mult: 0
  }
  param {
    lr_mult: 0
    decay_mult: 0
  }
  param {
    lr_mult: 0
    decay_mult: 0
  }
  batch_norm_param {
    use_global_stats: true
  }
}
layer {
  name: "scale3c_branch2c"
  type: "Scale"
  bottom: "res3c_branch2c"
  top: "res3c_branch2c"
  param {
    lr_mult: 0
    decay_mult: 0
  }
  param {
    lr_mult: 0
    decay_mult: 0
  }
  scale_param {
    bias_term: true
  }
}
layer {
  name: "res3c"
  type: "Eltwise"
  bottom: "res3b"
  bottom: "res3c_branch2c"
  top: "res3c"
}
layer {
  name: "res3c_relu"
  type: "ReLU"
  bottom: "res3c"
  top: "res3c"
}
layer {
  name: "res3d_branch2a"
  type: "Convolution"
  bottom: "res3c"
  top: "res3d_branch2a"
  param {
    lr_mult: 1
  }
  convolution_param {
    num_output: 128
    bias_term: false
    pad: 0
    kernel_size: 1
    stride: 1
  }
}
layer {
  name: "bn3d_branch2a"
  type: "BatchNorm"
  bottom: "res3d_branch2a"
  top: "res3d_branch2a"
  param {
    lr_mult: 0
    decay_mult: 0
  }
  param {
    lr_mult: 0
    decay_mult: 0
  }
  param {
    lr_mult: 0
    decay_mult: 0
  }
  batch_norm_param {
    use_global_stats: true
  }
}
layer {
  name: "scale3d_branch2a"
  type: "Scale"
  bottom: "res3d_branch2a"
  top: "res3d_branch2a"
  param {
    lr_mult: 0
    decay_mult: 0
  }
  param {
    lr_mult: 0
    decay_mult: 0
  }
  scale_param {
    bias_term: true
  }
}
layer {
  name: "res3d_branch2a_relu"
  type: "ReLU"
  bottom: "res3d_branch2a"
  top: "res3d_branch2a"
}
layer {
  name: "res3d_branch2b"
  type: "Convolution"
  bottom: "res3d_branch2a"
  top: "res3d_branch2b"
  param {
    lr_mult: 1
  }
  convolution_param {
    num_output: 128
    bias_term: false
    pad: 1
    kernel_size: 3
    stride: 1
  }
}
layer {
  name: "bn3d_branch2b"
  type: "BatchNorm"
  bottom: "res3d_branch2b"
  top: "res3d_branch2b"
  param {
    lr_mult: 0
    decay_mult: 0
  }
  param {
    lr_mult: 0
    decay_mult: 0
  }
  param {
    lr_mult: 0
    decay_mult: 0
  }
  batch_norm_param {
    use_global_stats: true
  }
}
layer {
  name: "scale3d_branch2b"
  type: "Scale"
  bottom: "res3d_branch2b"
  top: "res3d_branch2b"
  param {
    lr_mult: 0
    decay_mult: 0
  }
  param {
    lr_mult: 0
    decay_mult: 0
  }
  scale_param {
    bias_term: true
  }
}
layer {
  name: "res3d_branch2b_relu"
  type: "ReLU"
  bottom: "res3d_branch2b"
  top: "res3d_branch2b"
}
layer {
  name: "res3d_branch2c"
  type: "Convolution"
  bottom: "res3d_branch2b"
  top: "res3d_branch2c"
  param {
    lr_mult: 1
  }
  convolution_param {
    num_output: 512
    bias_term: false
    pad: 0
    kernel_size: 1
    stride: 1
  }
}
layer {
  name: "bn3d_branch2c"
  type: "BatchNorm"
  bottom: "res3d_branch2c"
  top: "res3d_branch2c"
  param {
    lr_mult: 0
    decay_mult: 0
  }
  param {
    lr_mult: 0
    decay_mult: 0
  }
  param {
    lr_mult: 0
    decay_mult: 0
  }
  batch_norm_param {
    use_global_stats: true
  }
}
layer {
  name: "scale3d_branch2c"
  type: "Scale"
  bottom: "res3d_branch2c"
  top: "res3d_branch2c"
  param {
    lr_mult: 0
    decay_mult: 0
  }
  param {
    lr_mult: 0
    decay_mult: 0
  }
  scale_param {
    bias_term: true
  }
}
layer {
  name: "res3d"
  type: "Eltwise"
  bottom: "res3c"
  bottom: "res3d_branch2c"
  top: "res3d"
}
layer {
  name: "res3d_relu"
  type: "ReLU"
  bottom: "res3d"
  top: "res3d"
}
layer {
  name: "res4a_branch1"
  type: "Convolution"
  bottom: "res3d"
  top: "res4a_branch1"
  param {
    lr_mult: 1
  }
  convolution_param {
    num_output: 1024
    bias_term: false
    pad: 0
    kernel_size: 1
    stride: 2
  }
}
layer {
  name: "bn4a_branch1"
  type: "BatchNorm"
  bottom: "res4a_branch1"
  top: "res4a_branch1"
  param {
    lr_mult: 0
    decay_mult: 0
  }
  param {
    lr_mult: 0
    decay_mult: 0
  }
  param {
    lr_mult: 0
    decay_mult: 0
  }
  batch_norm_param {
    use_global_stats: true
  }
}
layer {
  name: "scale4a_branch1"
  type: "Scale"
  bottom: "res4a_branch1"
  top: "res4a_branch1"
  param {
    lr_mult: 0
    decay_mult: 0
  }
  param {
    lr_mult: 0
    decay_mult: 0
  }
  scale_param {
    bias_term: true
  }
}
layer {
  name: "res4a_branch2a"
  type: "Convolution"
  bottom: "res3d"
  top: "res4a_branch2a"
  param {
    lr_mult: 1
  }
  convolution_param {
    num_output: 256
    bias_term: false
    pad: 0
    kernel_size: 1
    stride: 2
  }
}
layer {
  name: "bn4a_branch2a"
  type: "BatchNorm"
  bottom: "res4a_branch2a"
  top: "res4a_branch2a"
  param {
    lr_mult: 0
    decay_mult: 0
  }
  param {
    lr_mult: 0
    decay_mult: 0
  }
  param {
    lr_mult: 0
    decay_mult: 0
  }
  batch_norm_param {
    use_global_stats: true
  }
}
layer {
  name: "scale4a_branch2a"
  type: "Scale"
  bottom: "res4a_branch2a"
  top: "res4a_branch2a"
  param {
    lr_mult: 0
    decay_mult: 0
  }
  param {
    lr_mult: 0
    decay_mult: 0
  }
  scale_param {
    bias_term: true
  }
}
layer {
  name: "res4a_branch2a_relu"
  type: "ReLU"
  bottom: "res4a_branch2a"
  top: "res4a_branch2a"
}
layer {
  name: "res4a_branch2b"
  type: "Convolution"
  bottom: "res4a_branch2a"
  top: "res4a_branch2b"
  param {
    lr_mult: 1
  }
  convolution_param {
    num_output: 256
    bias_term: false
    pad: 1
    kernel_size: 3
    stride: 1
  }
}
layer {
  name: "bn4a_branch2b"
  type: "BatchNorm"
  bottom: "res4a_branch2b"
  top: "res4a_branch2b"
  param {
    lr_mult: 0
    decay_mult: 0
  }
  param {
    lr_mult: 0
    decay_mult: 0
  }
  param {
    lr_mult: 0
    decay_mult: 0
  }
  batch_norm_param {
    use_global_stats: true
  }
}
layer {
  name: "scale4a_branch2b"
  type: "Scale"
  bottom: "res4a_branch2b"
  top: "res4a_branch2b"
  param {
    lr_mult: 0
    decay_mult: 0
  }
  param {
    lr_mult: 0
    decay_mult: 0
  }
  scale_param {
    bias_term: true
  }
}
layer {
  name: "res4a_branch2b_relu"
  type: "ReLU"
  bottom: "res4a_branch2b"
  top: "res4a_branch2b"
}
layer {
  name: "res4a_branch2c"
  type: "Convolution"
  bottom: "res4a_branch2b"
  top: "res4a_branch2c"
  param {
    lr_mult: 1
  }
  convolution_param {
    num_output: 1024
    bias_term: false
    pad: 0
    kernel_size: 1
    stride: 1
  }
}
layer {
  name: "bn4a_branch2c"
  type: "BatchNorm"
  bottom: "res4a_branch2c"
  top: "res4a_branch2c"
  param {
    lr_mult: 0
    decay_mult: 0
  }
  param {
    lr_mult: 0
    decay_mult: 0
  }
  param {
    lr_mult: 0
    decay_mult: 0
  }
  batch_norm_param {
    use_global_stats: true
  }
}
layer {
  name: "scale4a_branch2c"
  type: "Scale"
  bottom: "res4a_branch2c"
  top: "res4a_branch2c"
  param {
    lr_mult: 0
    decay_mult: 0
  }
  param {
    lr_mult: 0
    decay_mult: 0
  }
  scale_param {
    bias_term: true
  }
}
layer {
  name: "res4a"
  type: "Eltwise"
  bottom: "res4a_branch1"
  bottom: "res4a_branch2c"
  top: "res4a"
}
layer {
  name: "res4a_relu"
  type: "ReLU"
  bottom: "res4a"
  top: "res4a"
}
layer {
  name: "res4b_branch2a"
  type: "Convolution"
  bottom: "res4a"
  top: "res4b_branch2a"
  param {
    lr_mult: 1
  }
  convolution_param {
    num_output: 256
    bias_term: false
    pad: 0
    kernel_size: 1
    stride: 1
  }
}
layer {
  name: "bn4b_branch2a"
  type: "BatchNorm"
  bottom: "res4b_branch2a"
  top: "res4b_branch2a"
  param {
    lr_mult: 0
    decay_mult: 0
  }
  param {
    lr_mult: 0
    decay_mult: 0
  }
  param {
    lr_mult: 0
    decay_mult: 0
  }
  batch_norm_param {
    use_global_stats: true
  }
}
layer {
  name: "scale4b_branch2a"
  type: "Scale"
  bottom: "res4b_branch2a"
  top: "res4b_branch2a"
  param {
    lr_mult: 0
    decay_mult: 0
  }
  param {
    lr_mult: 0
    decay_mult: 0
  }
  scale_param {
    bias_term: true
  }
}
layer {
  name: "res4b_branch2a_relu"
  type: "ReLU"
  bottom: "res4b_branch2a"
  top: "res4b_branch2a"
}
layer {
  name: "res4b_branch2b"
  type: "Convolution"
  bottom: "res4b_branch2a"
  top: "res4b_branch2b"
  param {
    lr_mult: 1
  }
  convolution_param {
    num_output: 256
    bias_term: false
    pad: 1
    kernel_size: 3
    stride: 1
  }
}
layer {
  name: "bn4b_branch2b"
  type: "BatchNorm"
  bottom: "res4b_branch2b"
  top: "res4b_branch2b"
  param {
    lr_mult: 0
    decay_mult: 0
  }
  param {
    lr_mult: 0
    decay_mult: 0
  }
  param {
    lr_mult: 0
    decay_mult: 0
  }
  batch_norm_param {
    use_global_stats: true
  }
}
layer {
  name: "scale4b_branch2b"
  type: "Scale"
  bottom: "res4b_branch2b"
  top: "res4b_branch2b"
  param {
    lr_mult: 0
    decay_mult: 0
  }
  param {
    lr_mult: 0
    decay_mult: 0
  }
  scale_param {
    bias_term: true
  }
}
layer {
  name: "res4b_branch2b_relu"
  type: "ReLU"
  bottom: "res4b_branch2b"
  top: "res4b_branch2b"
}
layer {
  name: "res4b_branch2c"
  type: "Convolution"
  bottom: "res4b_branch2b"
  top: "res4b_branch2c"
  param {
    lr_mult: 1
  }
  convolution_param {
    num_output: 1024
    bias_term: false
    pad: 0
    kernel_size: 1
    stride: 1
  }
}
layer {
  name: "bn4b_branch2c"
  type: "BatchNorm"
  bottom: "res4b_branch2c"
  top: "res4b_branch2c"
  param {
    lr_mult: 0
    decay_mult: 0
  }
  param {
    lr_mult: 0
    decay_mult: 0
  }
  param {
    lr_mult: 0
    decay_mult: 0
  }
  batch_norm_param {
    use_global_stats: true
  }
}
layer {
  name: "scale4b_branch2c"
  type: "Scale"
  bottom: "res4b_branch2c"
  top: "res4b_branch2c"
  param {
    lr_mult: 0
    decay_mult: 0
  }
  param {
    lr_mult: 0
    decay_mult: 0
  }
  scale_param {
    bias_term: true
  }
}
layer {
  name: "res4b"
  type: "Eltwise"
  bottom: "res4a"
  bottom: "res4b_branch2c"
  top: "res4b"
}
layer {
  name: "res4b_relu"
  type: "ReLU"
  bottom: "res4b"
  top: "res4b"
}
layer {
  name: "res4c_branch2a"
  type: "Convolution"
  bottom: "res4b"
  top: "res4c_branch2a"
  param {
    lr_mult: 1
  }
  convolution_param {
    num_output: 256
    bias_term: false
    pad: 0
    kernel_size: 1
    stride: 1
  }
}
layer {
  name: "bn4c_branch2a"
  type: "BatchNorm"
  bottom: "res4c_branch2a"
  top: "res4c_branch2a"
  param {
    lr_mult: 0
    decay_mult: 0
  }
  param {
    lr_mult: 0
    decay_mult: 0
  }
  param {
    lr_mult: 0
    decay_mult: 0
  }
  batch_norm_param {
    use_global_stats: true
  }
}
layer {
  name: "scale4c_branch2a"
  type: "Scale"
  bottom: "res4c_branch2a"
  top: "res4c_branch2a"
  param {
    lr_mult: 0
    decay_mult: 0
  }
  param {
    lr_mult: 0
    decay_mult: 0
  }
  scale_param {
    bias_term: true
  }
}
layer {
  name: "res4c_branch2a_relu"
  type: "ReLU"
  bottom: "res4c_branch2a"
  top: "res4c_branch2a"
}
layer {
  name: "res4c_branch2b"
  type: "Convolution"
  bottom: "res4c_branch2a"
  top: "res4c_branch2b"
  param {
    lr_mult: 1
  }
  convolution_param {
    num_output: 256
    bias_term: false
    pad: 1
    kernel_size: 3
    stride: 1
  }
}
layer {
  name: "bn4c_branch2b"
  type: "BatchNorm"
  bottom: "res4c_branch2b"
  top: "res4c_branch2b"
  param {
    lr_mult: 0
    decay_mult: 0
  }
  param {
    lr_mult: 0
    decay_mult: 0
  }
  param {
    lr_mult: 0
    decay_mult: 0
  }
  batch_norm_param {
    use_global_stats: true
  }
}
layer {
  name: "scale4c_branch2b"
  type: "Scale"
  bottom: "res4c_branch2b"
  top: "res4c_branch2b"
  param {
    lr_mult: 0
    decay_mult: 0
  }
  param {
    lr_mult: 0
    decay_mult: 0
  }
  scale_param {
    bias_term: true
  }
}
layer {
  name: "res4c_branch2b_relu"
  type: "ReLU"
  bottom: "res4c_branch2b"
  top: "res4c_
I0620 19:58:04.124841 16504 layer_factory.hpp:77] Creating layer input-data
I0620 19:58:04.133846 16504 net.cpp:100] Creating Layer input-data
I0620 19:58:04.133868 16504 net.cpp:418] input-data -> data
I0620 19:58:04.133908 16504 net.cpp:418] input-data -> im_info
I0620 19:58:04.133925 16504 net.cpp:418] input-data -> gt_boxes
RoiDataLayer: name_to_top: {'gt_boxes': 2, 'data': 0, 'im_info': 1}
I0620 19:58:04.154641 16504 net.cpp:150] Setting up input-data
I0620 19:58:04.154665 16504 net.cpp:157] Top shape: 1 3 960 1280 (3686400)
I0620 19:58:04.154670 16504 net.cpp:157] Top shape: 1 3 (3)
I0620 19:58:04.154673 16504 net.cpp:157] Top shape: 1 4 (4)
I0620 19:58:04.154675 16504 net.cpp:165] Memory required for data: 14745628
I0620 19:58:04.154691 16504 layer_factory.hpp:77] Creating layer data_input-data_0_split
I0620 19:58:04.154719 16504 net.cpp:100] Creating Layer data_input-data_0_split
I0620 19:58:04.154728 16504 net.cpp:444] data_input-data_0_split <- data
I0620 19:58:04.154747 16504 net.cpp:418] data_input-data_0_split -> data_input-data_0_split_0
I0620 19:58:04.154767 16504 net.cpp:418] data_input-data_0_split -> data_input-data_0_split_1
I0620 19:58:04.154804 16504 net.cpp:150] Setting up data_input-data_0_split
I0620 19:58:04.154812 16504 net.cpp:157] Top shape: 1 3 960 1280 (3686400)
I0620 19:58:04.154816 16504 net.cpp:157] Top shape: 1 3 960 1280 (3686400)
I0620 19:58:04.154819 16504 net.cpp:165] Memory required for data: 44236828
I0620 19:58:04.154822 16504 layer_factory.hpp:77] Creating layer im_info_input-data_1_split
I0620 19:58:04.154834 16504 net.cpp:100] Creating Layer im_info_input-data_1_split
I0620 19:58:04.154839 16504 net.cpp:444] im_info_input-data_1_split <- im_info
I0620 19:58:04.154847 16504 net.cpp:418] im_info_input-data_1_split -> im_info_input-data_1_split_0
I0620 19:58:04.154860 16504 net.cpp:418] im_info_input-data_1_split -> im_info_input-data_1_split_1
I0620 19:58:04.154887 16504 net.cpp:150] Setting up im_info_input-data_1_split
I0620 19:58:04.154894 16504 net.cpp:157] Top shape: 1 3 (3)
I0620 19:58:04.154897 16504 net.cpp:157] Top shape: 1 3 (3)
I0620 19:58:04.154899 16504 net.cpp:165] Memory required for data: 44236852
I0620 19:58:04.154902 16504 layer_factory.hpp:77] Creating layer gt_boxes_input-data_2_split
I0620 19:58:04.154909 16504 net.cpp:100] Creating Layer gt_boxes_input-data_2_split
I0620 19:58:04.154913 16504 net.cpp:444] gt_boxes_input-data_2_split <- gt_boxes
I0620 19:58:04.154923 16504 net.cpp:418] gt_boxes_input-data_2_split -> gt_boxes_input-data_2_split_0
I0620 19:58:04.154933 16504 net.cpp:418] gt_boxes_input-data_2_split -> gt_boxes_input-data_2_split_1
I0620 19:58:04.154964 16504 net.cpp:150] Setting up gt_boxes_input-data_2_split
I0620 19:58:04.154971 16504 net.cpp:157] Top shape: 1 4 (4)
I0620 19:58:04.154975 16504 net.cpp:157] Top shape: 1 4 (4)
I0620 19:58:04.154978 16504 net.cpp:165] Memory required for data: 44236884
I0620 19:58:04.154980 16504 layer_factory.hpp:77] Creating layer conv1
I0620 19:58:04.154999 16504 net.cpp:100] Creating Layer conv1
I0620 19:58:04.155004 16504 net.cpp:444] conv1 <- data_input-data_0_split_0
I0620 19:58:04.155016 16504 net.cpp:418] conv1 -> conv1
I0620 19:58:04.455961 16504 cudnn_conv_layer.cpp:194] Reallocating workspace storage: 5529624
I0620 19:58:04.456171 16504 net.cpp:150] Setting up conv1
I0620 19:58:04.456190 16504 net.cpp:157] Top shape: 1 64 480 640 (19660800)
I0620 19:58:04.456192 16504 net.cpp:165] Memory required for data: 122880084
I0620 19:58:04.456241 16504 layer_factory.hpp:77] Creating layer bn_conv1
I0620 19:58:04.456267 16504 net.cpp:100] Creating Layer bn_conv1
I0620 19:58:04.456277 16504 net.cpp:444] bn_conv1 <- conv1
I0620 19:58:04.456290 16504 net.cpp:405] bn_conv1 -> conv1 (in-place)
I0620 19:58:04.457382 16504 net.cpp:150] Setting up bn_conv1
I0620 19:58:04.457392 16504 net.cpp:157] Top shape: 1 64 480 640 (19660800)
I0620 19:58:04.457394 16504 net.cpp:165] Memory required for data: 201523284
I0620 19:58:04.457424 16504 layer_factory.hpp:77] Creating layer scale_conv1
I0620 19:58:04.457442 16504 net.cpp:100] Creating Layer scale_conv1
I0620 19:58:04.457448 16504 net.cpp:444] scale_conv1 <- conv1
I0620 19:58:04.457458 16504 net.cpp:405] scale_conv1 -> conv1 (in-place)
I0620 19:58:04.457505 16504 layer_factory.hpp:77] Creating layer scale_conv1
I0620 19:58:04.459503 16504 net.cpp:150] Setting up scale_conv1
I0620 19:58:04.459517 16504 net.cpp:157] Top shape: 1 64 480 640 (19660800)
I0620 19:58:04.459519 16504 net.cpp:165] Memory required for data: 280166484
I0620 19:58:04.459534 16504 layer_factory.hpp:77] Creating layer conv1_relu
I0620 19:58:04.459547 16504 net.cpp:100] Creating Layer conv1_relu
I0620 19:58:04.459553 16504 net.cpp:444] conv1_relu <- conv1
I0620 19:58:04.459565 16504 net.cpp:405] conv1_relu -> conv1 (in-place)
I0620 19:58:04.459734 16504 net.cpp:150] Setting up conv1_relu
I0620 19:58:04.459741 16504 net.cpp:157] Top shape: 1 64 480 640 (19660800)
I0620 19:58:04.459743 16504 net.cpp:165] Memory required for data: 358809684
I0620 19:58:04.459748 16504 layer_factory.hpp:77] Creating layer pool1
I0620 19:58:04.459765 16504 net.cpp:100] Creating Layer pool1
I0620 19:58:04.459770 16504 net.cpp:444] pool1 <- conv1
I0620 19:58:04.459782 16504 net.cpp:418] pool1 -> pool1
I0620 19:58:04.459830 16504 net.cpp:150] Setting up pool1
I0620 19:58:04.459839 16504 net.cpp:157] Top shape: 1 64 240 320 (4915200)
I0620 19:58:04.459841 16504 net.cpp:165] Memory required for data: 378470484
I0620 19:58:04.459844 16504 layer_factory.hpp:77] Creating layer pool1_pool1_0_split
I0620 19:58:04.459853 16504 net.cpp:100] Creating Layer pool1_pool1_0_split
I0620 19:58:04.459857 16504 net.cpp:444] pool1_pool1_0_split <- pool1
I0620 19:58:04.459867 16504 net.cpp:418] pool1_pool1_0_split -> pool1_pool1_0_split_0
I0620 19:58:04.459878 16504 net.cpp:418] pool1_pool1_0_split -> pool1_pool1_0_split_1
I0620 19:58:04.459910 16504 net.cpp:150] Setting up pool1_pool1_0_split
I0620 19:58:04.459918 16504 net.cpp:157] Top shape: 1 64 240 320 (4915200)
I0620 19:58:04.459920 16504 net.cpp:157] Top shape: 1 64 240 320 (4915200)
I0620 19:58:04.459923 16504 net.cpp:165] Memory required for data: 417792084
I0620 19:58:04.459925 16504 layer_factory.hpp:77] Creating layer res2a_branch1
I0620 19:58:04.459940 16504 net.cpp:100] Creating Layer res2a_branch1
I0620 19:58:04.459945 16504 net.cpp:444] res2a_branch1 <- pool1_pool1_0_split_0
I0620 19:58:04.459957 16504 net.cpp:418] res2a_branch1 -> res2a_branch1
I0620 19:58:04.460722 16504 cudnn_conv_layer.cpp:194] Reallocating workspace storage: 1388952
I0620 19:58:04.460927 16504 net.cpp:150] Setting up res2a_branch1
I0620 19:58:04.460937 16504 net.cpp:157] Top shape: 1 256 240 320 (19660800)
I0620 19:58:04.460938 16504 net.cpp:165] Memory required for data: 496435284
I0620 19:58:04.460949 16504 layer_factory.hpp:77] Creating layer bn2a_branch1
I0620 19:58:04.460963 16504 net.cpp:100] Creating Layer bn2a_branch1
I0620 19:58:04.460968 16504 net.cpp:444] bn2a_branch1 <- res2a_branch1
I0620 19:58:04.460980 16504 net.cpp:405] bn2a_branch1 -> res2a_branch1 (in-place)
I0620 19:58:04.461225 16504 net.cpp:150] Setting up bn2a_branch1
I0620 19:58:04.461232 16504 net.cpp:157] Top shape: 1 256 240 320 (19660800)
I0620 19:58:04.461235 16504 net.cpp:165] Memory required for data: 575078484
I0620 19:58:04.461257 16504 layer_factory.hpp:77] Creating layer scale2a_branch1
I0620 19:58:04.461272 16504 net.cpp:100] Creating Layer scale2a_branch1
I0620 19:58:04.461275 16504 net.cpp:444] scale2a_branch1 <- res2a_branch1
I0620 19:58:04.461285 16504 net.cpp:405] scale2a_branch1 -> res2a_branch1 (in-place)
I0620 19:58:04.461326 16504 layer_factory.hpp:77] Creating layer scale2a_branch1
I0620 19:58:04.461635 16504 net.cpp:150] Setting up scale2a_branch1
I0620 19:58:04.461642 16504 net.cpp:157] Top shape: 1 256 240 320 (19660800)
I0620 19:58:04.461645 16504 net.cpp:165] Memory required for data: 653721684
I0620 19:58:04.461660 16504 layer_factory.hpp:77] Creating layer res2a_branch2a
I0620 19:58:04.461675 16504 net.cpp:100] Creating Layer res2a_branch2a
I0620 19:58:04.461680 16504 net.cpp:444] res2a_branch2a <- pool1_pool1_0_split_1
I0620 19:58:04.461691 16504 net.cpp:418] res2a_branch2a -> res2a_branch2a
I0620 19:58:04.462955 16504 cudnn_conv_layer.cpp:194] Reallocating workspace storage: 1388952
I0620 19:58:04.463158 16504 net.cpp:150] Setting up res2a_branch2a
I0620 19:58:04.463169 16504 net.cpp:157] Top shape: 1 64 240 320 (4915200)
I0620 19:58:04.463171 16504 net.cpp:165] Memory required for data: 673382484
I0620 19:58:04.463181 16504 layer_factory.hpp:77] Creating layer bn2a_branch2a
I0620 19:58:04.463194 16504 net.cpp:100] Creating Layer bn2a_branch2a
I0620 19:58:04.463199 16504 net.cpp:444] bn2a_branch2a <- res2a_branch2a
I0620 19:58:04.463212 16504 net.cpp:405] bn2a_branch2a -> res2a_branch2a (in-place)
I0620 19:58:04.463466 16504 net.cpp:150] Setting up bn2a_branch2a
I0620 19:58:04.463472 16504 net.cpp:157] Top shape: 1 64 240 320 (4915200)
I0620 19:58:04.463474 16504 net.cpp:165] Memory required for data: 693043284
I0620 19:58:04.463497 16504 layer_factory.hpp:77] Creating layer scale2a_branch2a
I0620 19:58:04.463510 16504 net.cpp:100] Creating Layer scale2a_branch2a
I0620 19:58:04.463515 16504 net.cpp:444] scale2a_branch2a <- res2a_branch2a
I0620 19:58:04.463526 16504 net.cpp:405] scale2a_branch2a -> res2a_branch2a (in-place)
I0620 19:58:04.463567 16504 layer_factory.hpp:77] Creating layer scale2a_branch2a
I0620 19:58:04.463882 16504 net.cpp:150] Setting up scale2a_branch2a
I0620 19:58:04.463889 16504 net.cpp:157] Top shape: 1 64 240 320 (4915200)
I0620 19:58:04.463891 16504 net.cpp:165] Memory required for data: 712704084
I0620 19:58:04.463901 16504 layer_factory.hpp:77] Creating layer res2a_branch2a_relu
I0620 19:58:04.463914 16504 net.cpp:100] Creating Layer res2a_branch2a_relu
I0620 19:58:04.463919 16504 net.cpp:444] res2a_branch2a_relu <- res2a_branch2a
I0620 19:58:04.463928 16504 net.cpp:405] res2a_branch2a_relu -> res2a_branch2a (in-place)
I0620 19:58:04.464061 16504 net.cpp:150] Setting up res2a_branch2a_relu
I0620 19:58:04.464066 16504 net.cpp:157] Top shape: 1 64 240 320 (4915200)
I0620 19:58:04.464069 16504 net.cpp:165] Memory required for data: 732364884
I0620 19:58:04.464072 16504 layer_factory.hpp:77] Creating layer res2a_branch2b
I0620 19:58:04.464085 16504 net.cpp:100] Creating Layer res2a_branch2b
I0620 19:58:04.464089 16504 net.cpp:444] res2a_branch2b <- res2a_branch2a
I0620 19:58:04.464102 16504 net.cpp:418] res2a_branch2b -> res2a_branch2b
I0620 19:58:04.465394 16504 cudnn_conv_layer.cpp:194] Reallocating workspace storage: 786432
I0620 19:58:04.465600 16504 net.cpp:150] Setting up res2a_branch2b
I0620 19:58:04.465610 16504 net.cpp:157] Top shape: 1 64 240 320 (4915200)
I0620 19:58:04.465612 16504 net.cpp:165] Memory required for data: 752025684
I0620 19:58:04.465622 16504 layer_factory.hpp:77] Creating layer bn2a_branch2b
I0620 19:58:04.465636 16504 net.cpp:100] Creating Layer bn2a_branch2b
I0620 19:58:04.465641 16504 net.cpp:444] bn2a_branch2b <- res2a_branch2b
I0620 19:58:04.465652 16504 net.cpp:405] bn2a_branch2b -> res2a_branch2b (in-place)
I0620 19:58:04.465915 16504 net.cpp:150] Setting up bn2a_branch2b
I0620 19:58:04.465921 16504 net.cpp:157] Top shape: 1 64 240 320 (4915200)
I0620 19:58:04.465924 16504 net.cpp:165] Memory required for data: 771686484
I0620 19:58:04.465939 16504 layer_factory.hpp:77] Creating layer scale2a_branch2b
I0620 19:58:04.465950 16504 net.cpp:100] Creating Layer scale2a_branch2b
I0620 19:58:04.465955 16504 net.cpp:444] scale2a_branch2b <- res2a_branch2b
I0620 19:58:04.465965 16504 net.cpp:405] scale2a_branch2b -> res2a_branch2b (in-place)
I0620 19:58:04.466006 16504 layer_factory.hpp:77] Creating layer scale2a_branch2b
I0620 19:58:04.466850 16504 net.cpp:150] Setting up scale2a_branch2b
I0620 19:58:04.466859 16504 net.cpp:157] Top shape: 1 64 240 320 (4915200)
I0620 19:58:04.466861 16504 net.cpp:165] Memory required for data: 791347284
I0620 19:58:04.466874 16504 layer_factory.hpp:77] Creating layer res2a_branch2b_relu
I0620 19:58:04.466886 16504 net.cpp:100] Creating Layer res2a_branch2b_relu
I0620 19:58:04.466893 16504 net.cpp:444] res2a_branch2b_relu <- res2a_branch2b
I0620 19:58:04.466904 16504 net.cpp:405] res2a_branch2b_relu -> res2a_branch2b (in-place)
I0620 19:58:04.467269 16504 net.cpp:150] Setting up res2a_branch2b_relu
I0620 19:58:04.467278 16504 net.cpp:157] Top shape: 1 64 240 320 (4915200)
I0620 19:58:04.467280 16504 net.cpp:165] Memory required for data: 811008084
I0620 19:58:04.467284 16504 layer_factory.hpp:77] Creating layer res2a_branch2c
I0620 19:58:04.467301 16504 net.cpp:100] Creating Layer res2a_branch2c
I0620 19:58:04.467306 16504 net.cpp:444] res2a_branch2c <- res2a_branch2b
I0620 19:58:04.467319 16504 net.cpp:418] res2a_branch2c -> res2a_branch2c
I0620 19:58:04.468092 16504 cudnn_conv_layer.cpp:194] Reallocating workspace storage: 1388952
I0620 19:58:04.468293 16504 net.cpp:150] Setting up res2a_branch2c
I0620 19:58:04.468307 16504 net.cpp:157] Top shape: 1 256 240 320 (19660800)
I0620 19:58:04.468308 16504 net.cpp:165] Memory required for data: 889651284
I0620 19:58:04.468318 16504 layer_factory.hpp:77] Creating layer bn2a_branch2c
I0620 19:58:04.468331 16504 net.cpp:100] Creating Layer bn2a_branch2c
I0620 19:58:04.468336 16504 net.cpp:444] bn2a_branch2c <- res2a_branch2c
I0620 19:58:04.468348 16504 net.cpp:405] bn2a_branch2c -> res2a_branch2c (in-place)
I0620 19:58:04.468600 16504 net.cpp:150] Setting up bn2a_branch2c
I0620 19:58:04.468606 16504 net.cpp:157] Top shape: 1 256 240 320 (19660800)
I0620 19:58:04.468607 16504 net.cpp:165] Memory required for data: 968294484
I0620 19:58:04.468622 16504 layer_factory.hpp:77] Creating layer scale2a_branch2c
I0620 19:58:04.468634 16504 net.cpp:100] Creating Layer scale2a_branch2c
I0620 19:58:04.468639 16504 net.cpp:444] scale2a_branch2c <- res2a_branch2c
I0620 19:58:04.468649 16504 net.cpp:405] scale2a_branch2c -> res2a_branch2c (in-place)
I0620 19:58:04.468693 16504 layer_factory.hpp:77] Creating layer scale2a_branch2c
I0620 19:58:04.469007 16504 net.cpp:150] Setting up scale2a_branch2c
I0620 19:58:04.469014 16504 net.cpp:157] Top shape: 1 256 240 320 (19660800)
I0620 19:58:04.469017 16504 net.cpp:165] Memory required for data: 1046937684
I0620 19:58:04.469025 16504 layer_factory.hpp:77] Creating layer res2a
I0620 19:58:04.469035 16504 net.cpp:100] Creating Layer res2a
I0620 19:58:04.469040 16504 net.cpp:444] res2a <- res2a_branch1
I0620 19:58:04.469049 16504 net.cpp:444] res2a <- res2a_branch2c
I0620 19:58:04.469058 16504 net.cpp:418] res2a -> res2a
I0620 19:58:04.469089 16504 net.cpp:150] Setting up res2a
I0620 19:58:04.469096 16504 net.cpp:157] Top shape: 1 256 240 320 (19660800)
I0620 19:58:04.469099 16504 net.cpp:165] Memory required for data: 1125580884
I0620 19:58:04.469102 16504 layer_factory.hpp:77] Creating layer res2a_relu
I0620 19:58:04.469110 16504 net.cpp:100] Creating Layer res2a_relu
I0620 19:58:04.469115 16504 net.cpp:444] res2a_relu <- res2a
I0620 19:58:04.469125 16504 net.cpp:405] res2a_relu -> res2a (in-place)
I0620 19:58:04.469266 16504 net.cpp:150] Setting up res2a_relu
I0620 19:58:04.469272 16504 net.cpp:157] Top shape: 1 256 240 320 (19660800)
I0620 19:58:04.469275 16504 net.cpp:165] Memory required for data: 1204224084
I0620 19:58:04.469280 16504 layer_factory.hpp:77] Creating layer res2a_res2a_relu_0_split
I0620 19:58:04.469288 16504 net.cpp:100] Creating Layer res2a_res2a_relu_0_split
I0620 19:58:04.469292 16504 net.cpp:444] res2a_res2a_relu_0_split <- res2a
I0620 19:58:04.469302 16504 net.cpp:418] res2a_res2a_relu_0_split -> res2a_res2a_relu_0_split_0
I0620 19:58:04.469316 16504 net.cpp:418] res2a_res2a_relu_0_split -> res2a_res2a_relu_0_split_1
I0620 19:58:04.469352 16504 net.cpp:150] Setting up res2a_res2a_relu_0_split
I0620 19:58:04.469358 16504 net.cpp:157] Top shape: 1 256 240 320 (19660800)
I0620 19:58:04.469362 16504 net.cpp:157] Top shape: 1 256 240 320 (19660800)
I0620 19:58:04.469363 16504 net.cpp:165] Memory required for data: 1361510484
I0620 19:58:04.469367 16504 layer_factory.hpp:77] Creating layer res2b_branch2a
I0620 19:58:04.469379 16504 net.cpp:100] Creating Layer res2b_branch2a
I0620 19:58:04.469385 16504 net.cpp:444] res2b_branch2a <- res2a_res2a_relu_0_split_0
I0620 19:58:04.469396 16504 net.cpp:418] res2b_branch2a -> res2b_branch2a
I0620 19:58:04.470180 16504 cudnn_conv_layer.cpp:194] Reallocating workspace storage: 1388952
I0620 19:58:04.470387 16504 net.cpp:150] Setting up res2b_branch2a
I0620 19:58:04.470398 16504 net.cpp:157] Top shape: 1 64 240 320 (4915200)
I0620 19:58:04.470401 16504 net.cpp:165] Memory required for data: 1381171284
I0620 19:58:04.470412 16504 layer_factory.hpp:77] Creating layer bn2b_branch2a
I0620 19:58:04.470423 16504 net.cpp:100] Creating Layer bn2b_branch2a
I0620 19:58:04.470429 16504 net.cpp:444] bn2b_branch2a <- res2b_branch2a
I0620 19:58:04.470441 16504 net.cpp:405] bn2b_branch2a -> res2b_branch2a (in-place)
I0620 19:58:04.470700 16504 net.cpp:150] Setting up bn2b_branch2a
I0620 19:58:04.470705 16504 net.cpp:157] Top shape: 1 64 240 320 (4915200)
I0620 19:58:04.470707 16504 net.cpp:165] Memory required for data: 1400832084
I0620 19:58:04.470733 16504 layer_factory.hpp:77] Creating layer scale2b_branch2a
I0620 19:58:04.470746 16504 net.cpp:100] Creating Layer scale2b_branch2a
I0620 19:58:04.470752 16504 net.cpp:444] scale2b_branch2a <- res2b_branch2a
I0620 19:58:04.470762 16504 net.cpp:405] scale2b_branch2a -> res2b_branch2a (in-place)
I0620 19:58:04.470805 16504 layer_factory.hpp:77] Creating layer scale2b_branch2a
I0620 19:58:04.471666 16504 net.cpp:150] Setting up scale2b_branch2a
I0620 19:58:04.471675 16504 net.cpp:157] Top shape: 1 64 240 320 (4915200)
I0620 19:58:04.471678 16504 net.cpp:165] Memory required for data: 1420492884
I0620 19:58:04.471689 16504 layer_factory.hpp:77] Creating layer res2b_branch2a_relu
I0620 19:58:04.471700 16504 net.cpp:100] Creating Layer res2b_branch2a_relu
I0620 19:58:04.471705 16504 net.cpp:444] res2b_branch2a_relu <- res2b_branch2a
I0620 19:58:04.471716 16504 net.cpp:405] res2b_branch2a_relu -> res2b_branch2a (in-place)
I0620 19:58:04.471858 16504 net.cpp:150] Setting up res2b_branch2a_relu
I0620 19:58:04.471863 16504 net.cpp:157] Top shape: 1 64 240 320 (4915200)
I0620 19:58:04.471866 16504 net.cpp:165] Memory required for data: 1440153684
I0620 19:58:04.471869 16504 layer_factory.hpp:77] Creating layer res2b_branch2b
I0620 19:58:04.471884 16504 net.cpp:100] Creating Layer res2b_branch2b
I0620 19:58:04.471889 16504 net.cpp:444] res2b_branch2b <- res2b_branch2a
I0620 19:58:04.471901 16504 net.cpp:418] res2b_branch2b -> res2b_branch2b
I0620 19:58:04.472687 16504 cudnn_conv_layer.cpp:194] Reallocating workspace storage: 786432
I0620 19:58:04.472699 16504 net.cpp:150] Setting up res2b_branch2b
I0620 19:58:04.472707 16504 net.cpp:157] Top shape: 1 64 240 320 (4915200)
I0620 19:58:04.472708 16504 net.cpp:165] Memory required for data: 1459814484
I0620 19:58:04.472718 16504 layer_factory.hpp:77] Creating layer bn2b_branch2b
I0620 19:58:04.472736 16504 net.cpp:100] Creating Layer bn2b_branch2b
I0620 19:58:04.472743 16504 net.cpp:444] bn2b_branch2b <- res2b_branch2b
I0620 19:58:04.472754 16504 net.cpp:405] bn2b_branch2b -> res2b_branch2b (in-place)
I0620 19:58:04.473007 16504 net.cpp:150] Setting up bn2b_branch2b
I0620 19:58:04.473013 16504 net.cpp:157] Top shape: 1 64 240 320 (4915200)
I0620 19:58:04.473016 16504 net.cpp:165] Memory required for data: 1479475284
I0620 19:58:04.473029 16504 layer_factory.hpp:77] Creating layer scale2b_branch2b
I0620 19:58:04.473042 16504 net.cpp:100] Creating Layer scale2b_branch2b
I0620 19:58:04.473047 16504 net.cpp:444] scale2b_branch2b <- res2b_branch2b
I0620 19:58:04.473057 16504 net.cpp:405] scale2b_branch2b -> res2b_branch2b (in-place)
I0620 19:58:04.473099 16504 layer_factory.hpp:77] Creating layer scale2b_branch2b
I0620 19:58:04.473412 16504 net.cpp:150] Setting up scale2b_branch2b
I0620 19:58:04.473419 16504 net.cpp:157] Top shape: 1 64 240 320 (4915200)
I0620 19:58:04.473421 16504 net.cpp:165] Memory required for data: 1499136084
I0620 19:58:04.473430 16504 layer_factory.hpp:77] Creating layer res2b_branch2b_relu
I0620 19:58:04.473439 16504 net.cpp:100] Creating Layer res2b_branch2b_relu
I0620 19:58:04.473444 16504 net.cpp:444] res2b_branch2b_relu <- res2b_branch2b
I0620 19:58:04.473453 16504 net.cpp:405] res2b_branch2b_relu -> res2b_branch2b (in-place)
I0620 19:58:04.473783 16504 net.cpp:150] Setting up res2b_branch2b_relu
I0620 19:58:04.473791 16504 net.cpp:157] Top shape: 1 64 240 320 (4915200)
I0620 19:58:04.473793 16504 net.cpp:165] Memory required for data: 1518796884
I0620 19:58:04.473798 16504 layer_factory.hpp:77] Creating layer res2b_branch2c
I0620 19:58:04.473811 16504 net.cpp:100] Creating Layer res2b_branch2c
I0620 19:58:04.473817 16504 net.cpp:444] res2b_branch2c <- res2b_branch2b
I0620 19:58:04.473831 16504 net.cpp:418] res2b_branch2c -> res2b_branch2c
I0620 19:58:04.474561 16504 cudnn_conv_layer.cpp:194] Reallocating workspace storage: 1388952
I0620 19:58:04.474766 16504 net.cpp:150] Setting up res2b_branch2c
I0620 19:58:04.474776 16504 net.cpp:157] Top shape: 1 256 240 320 (19660800)
I0620 19:58:04.474778 16504 net.cpp:165] Memory required for data: 1597440084
I0620 19:58:04.474788 16504 layer_factory.hpp:77] Creating layer bn2b_branch2c
I0620 19:58:04.474802 16504 net.cpp:100] Creating Layer bn2b_branch2c
I0620 19:58:04.474807 16504 net.cpp:444] bn2b_branch2c <- res2b_branch2c
I0620 19:58:04.474818 16504 net.cpp:405] bn2b_branch2c -> res2b_branch2c (in-place)
I0620 19:58:04.475069 16504 net.cpp:150] Setting up bn2b_branch2c
I0620 19:58:04.475075 16504 net.cpp:157] Top shape: 1 256 240 320 (19660800)
I0620 19:58:04.475077 16504 net.cpp:165] Memory required for data: 1676083284
I0620 19:58:04.475092 16504 layer_factory.hpp:77] Creating layer scale2b_branch2c
I0620 19:58:04.475103 16504 net.cpp:100] Creating Layer scale2b_branch2c
I0620 19:58:04.475108 16504 net.cpp:444] scale2b_branch2c <- res2b_branch2c
I0620 19:58:04.475119 16504 net.cpp:405] scale2b_branch2c -> res2b_branch2c (in-place)
I0620 19:58:04.475160 16504 layer_factory.hpp:77] Creating layer scale2b_branch2c
I0620 19:58:04.475996 16504 net.cpp:150] Setting up scale2b_branch2c
I0620 19:58:04.476003 16504 net.cpp:157] Top shape: 1 256 240 320 (19660800)
I0620 19:58:04.476006 16504 net.cpp:165] Memory required for data: 1754726484
I0620 19:58:04.476017 16504 layer_factory.hpp:77] Creating layer res2b
I0620 19:58:04.476029 16504 net.cpp:100] Creating Layer res2b
I0620 19:58:04.476034 16504 net.cpp:444] res2b <- res2a_res2a_relu_0_split_1
I0620 19:58:04.476044 16504 net.cpp:444] res2b <- res2b_branch2c
I0620 19:58:04.476052 16504 net.cpp:418] res2b -> res2b
I0620 19:58:04.476088 16504 net.cpp:150] Setting up res2b
I0620 19:58:04.476095 16504 net.cpp:157] Top shape: 1 256 240 320 (19660800)
I0620 19:58:04.476097 16504 net.cpp:165] Memory required for data: 1833369684
I0620 19:58:04.476100 16504 layer_factory.hpp:77] Creating layer res2b_relu
I0620 19:58:04.476109 16504 net.cpp:100] Creating Layer res2b_relu
I0620 19:58:04.476114 16504 net.cpp:444] res2b_relu <- res2b
I0620 19:58:04.476124 16504 net.cpp:405] res2b_relu -> res2b (in-place)
I0620 19:58:04.476260 16504 net.cpp:150] Setting up res2b_relu
I0620 19:58:04.476266 16504 net.cpp:157] Top shape: 1 256 240 320 (19660800)
I0620 19:58:04.476269 16504 net.cpp:165] Memory required for data: 1912012884
I0620 19:58:04.476272 16504 layer_factory.hpp:77] Creating layer res2b_res2b_relu_0_split
I0620 19:58:04.476281 16504 net.cpp:100] Creating Layer res2b_res2b_relu_0_split
I0620 19:58:04.476286 16504 net.cpp:444] res2b_res2b_relu_0_split <- res2b
I0620 19:58:04.476297 16504 net.cpp:418] res2b_res2b_relu_0_split -> res2b_res2b_relu_0_split_0
I0620 19:58:04.476310 16504 net.cpp:418] res2b_res2b_relu_0_split -> res2b_res2b_relu_0_split_1
I0620 19:58:04.476346 16504 net.cpp:150] Setting up res2b_res2b_relu_0_split
I0620 19:58:04.476353 16504 net.cpp:157] Top shape: 1 256 240 320 (19660800)
I0620 19:58:04.476356 16504 net.cpp:157] Top shape: 1 256 240 320 (19660800)
I0620 19:58:04.476358 16504 net.cpp:165] Memory required for data: 2069299284
I0620 19:58:04.476361 16504 layer_factory.hpp:77] Creating layer res2c_branch2a
I0620 19:58:04.476373 16504 net.cpp:100] Creating Layer res2c_branch2a
I0620 19:58:04.476378 16504 net.cpp:444] res2c_branch2a <- res2b_res2b_relu_0_split_0
I0620 19:58:04.476390 16504 net.cpp:418] res2c_branch2a -> res2c_branch2a
I0620 19:58:04.477166 16504 cudnn_conv_layer.cpp:194] Reallocating workspace storage: 1388952
I0620 19:58:04.477370 16504 net.cpp:150] Setting up res2c_branch2a
I0620 19:58:04.477380 16504 net.cpp:157] Top shape: 1 64 240 320 (4915200)
I0620 19:58:04.477383 16504 net.cpp:165] Memory required for data: 2088960084
I0620 19:58:04.477393 16504 layer_factory.hpp:77] Creating layer bn2c_branch2a
I0620 19:58:04.477406 16504 net.cpp:100] Creating Layer bn2c_branch2a
I0620 19:58:04.477411 16504 net.cpp:444] bn2c_branch2a <- res2c_branch2a
I0620 19:58:04.477423 16504 net.cpp:405] bn2c_branch2a -> res2c_branch2a (in-place)
I0620 19:58:04.477686 16504 net.cpp:150] Setting up bn2c_branch2a
I0620 19:58:04.477692 16504 net.cpp:157] Top shape: 1 64 240 320 (4915200)
I0620 19:58:04.477694 16504 net.cpp:165] Memory required for data: 2108620884
I0620 19:58:04.477710 16504 layer_factory.hpp:77] Creating layer scale2c_branch2a
I0620 19:58:04.477721 16504 net.cpp:100] Creating Layer scale2c_branch2a
I0620 19:58:04.477726 16504 net.cpp:444] scale2c_branch2a <- res2c_branch2a
I0620 19:58:04.477737 16504 net.cpp:405] scale2c_branch2a -> res2c_branch2a (in-place)
I0620 19:58:04.477779 16504 layer_factory.hpp:77] Creating layer scale2c_branch2a
I0620 19:58:04.478094 16504 net.cpp:150] Setting up scale2c_branch2a
I0620 19:58:04.478101 16504 net.cpp:157] Top shape: 1 64 240 320 (4915200)
I0620 19:58:04.478104 16504 net.cpp:165] Memory required for data: 2128281684
I0620 19:58:04.478113 16504 layer_factory.hpp:77] Creating layer res2c_branch2a_relu
I0620 19:58:04.478122 16504 net.cpp:100] Creating Layer res2c_branch2a_relu
I0620 19:58:04.478127 16504 net.cpp:444] res2c_branch2a_relu <- res2c_branch2a
I0620 19:58:04.478137 16504 net.cpp:405] res2c_branch2a_relu -> res2c_branch2a (in-place)
I0620 19:58:04.478266 16504 net.cpp:150] Setting up res2c_branch2a_relu
I0620 19:58:04.478273 16504 net.cpp:157] Top shape: 1 64 240 320 (4915200)
I0620 19:58:04.478276 16504 net.cpp:165] Memory required for data: 2147942484
I0620 19:58:04.478278 16504 layer_factory.hpp:77] Creating layer res2c_branch2b
I0620 19:58:04.478292 16504 net.cpp:100] Creating Layer res2c_branch2b
I0620 19:58:04.478297 16504 net.cpp:444] res2c_branch2b <- res2c_branch2a
I0620 19:58:04.478309 16504 net.cpp:418] res2c_branch2b -> res2c_branch2b
I0620 19:58:04.479073 16504 cudnn_conv_layer.cpp:194] Reallocating workspace storage: 786432
I0620 19:58:04.479275 16504 net.cpp:150] Setting up res2c_branch2b
I0620 19:58:04.479285 16504 net.cpp:157] Top shape: 1 64 240 320 (4915200)
I0620 19:58:04.479288 16504 net.cpp:165] Memory required for data: 2167603284
I0620 19:58:04.479298 16504 layer_factory.hpp:77] Creating layer bn2c_branch2b
I0620 19:58:04.479311 16504 net.cpp:100] Creating Layer bn2c_branch2b
I0620 19:58:04.479316 16504 net.cpp:444] bn2c_branch2b <- res2c_branch2b
I0620 19:58:04.479328 16504 net.cpp:405] bn2c_branch2b -> res2c_branch2b (in-place)
I0620 19:58:04.479583 16504 net.cpp:150] Setting up bn2c_branch2b
I0620 19:58:04.479589 16504 net.cpp:157] Top shape: 1 64 240 320 (4915200)
I0620 19:58:04.479591 16504 net.cpp:165] Memory required for data: 2187264084
I0620 19:58:04.479605 16504 layer_factory.hpp:77] Creating layer scale2c_branch2b
I0620 19:58:04.479617 16504 net.cpp:100] Creating Layer scale2c_branch2b
I0620 19:58:04.479622 16504 net.cpp:444] scale2c_branch2b <- res2c_branch2b
I0620 19:58:04.479632 16504 net.cpp:405] scale2c_branch2b -> res2c_branch2b (in-place)
I0620 19:58:04.479674 16504 layer_factory.hpp:77] Creating layer scale2c_branch2b
I0620 19:58:04.480522 16504 net.cpp:150] Setting up scale2c_branch2b
I0620 19:58:04.480531 16504 net.cpp:157] Top shape: 1 64 240 320 (4915200)
I0620 19:58:04.480533 16504 net.cpp:165] Memory required for data: 2206924884
I0620 19:58:04.480545 16504 layer_factory.hpp:77] Creating layer res2c_branch2b_relu
I0620 19:58:04.480556 16504 net.cpp:100] Creating Layer res2c_branch2b_relu
I0620 19:58:04.480561 16504 net.cpp:444] res2c_branch2b_relu <- res2c_branch2b
I0620 19:58:04.480572 16504 net.cpp:405] res2c_branch2b_relu -> res2c_branch2b (in-place)
I0620 19:58:04.480715 16504 net.cpp:150] Setting up res2c_branch2b_relu
I0620 19:58:04.480720 16504 net.cpp:157] Top shape: 1 64 240 320 (4915200)
I0620 19:58:04.480723 16504 net.cpp:165] Memory required for data: 2226585684
I0620 19:58:04.480727 16504 layer_factory.hpp:77] Creating layer res2c_branch2c
I0620 19:58:04.480741 16504 net.cpp:100] Creating Layer res2c_branch2c
I0620 19:58:04.480746 16504 net.cpp:444] res2c_branch2c <- res2c_branch2b
I0620 19:58:04.480759 16504 net.cpp:418] res2c_branch2c -> res2c_branch2c
I0620 19:58:04.481508 16504 cudnn_conv_layer.cpp:194] Reallocating workspace storage: 1388952
I0620 19:58:04.481727 16504 net.cpp:150] Setting up res2c_branch2c
I0620 19:58:04.481739 16504 net.cpp:157] Top shape: 1 256 240 320 (19660800)
I0620 19:58:04.481741 16504 net.cpp:165] Memory required for data: 2305228884
I0620 19:58:04.481752 16504 layer_factory.hpp:77] Creating layer bn2c_branch2c
I0620 19:58:04.481765 16504 net.cpp:100] Creating Layer bn2c_branch2c
I0620 19:58:04.481770 16504 net.cpp:444] bn2c_branch2c <- res2c_branch2c
I0620 19:58:04.481782 16504 net.cpp:405] bn2c_branch2c -> res2c_branch2c (in-place)
I0620 19:58:04.482039 16504 net.cpp:150] Setting up bn2c_branch2c
I0620 19:58:04.482045 16504 net.cpp:157] Top shape: 1 256 240 320 (19660800)
I0620 19:58:04.482048 16504 net.cpp:165] Memory required for data: 2383872084
I0620 19:58:04.482077 16504 layer_factory.hpp:77] Creating layer scale2c_branch2c
I0620 19:58:04.482090 16504 net.cpp:100] Creating Layer scale2c_branch2c
I0620 19:58:04.482095 16504 net.cpp:444] scale2c_branch2c <- res2c_branch2c
I0620 19:58:04.482105 16504 net.cpp:405] scale2c_branch2c -> res2c_branch2c (in-place)
I0620 19:58:04.482151 16504 layer_factory.hpp:77] Creating layer scale2c_branch2c
I0620 19:58:04.482461 16504 net.cpp:150] Setting up scale2c_branch2c
I0620 19:58:04.482468 16504 net.cpp:157] Top shape: 1 256 240 320 (19660800)
I0620 19:58:04.482471 16504 net.cpp:165] Memory required for data: 2462515284
I0620 19:58:04.482481 16504 layer_factory.hpp:77] Creating layer res2c
I0620 19:58:04.482491 16504 net.cpp:100] Creating Layer res2c
I0620 19:58:04.482496 16504 net.cpp:444] res2c <- res2b_res2b_relu_0_split_1
I0620 19:58:04.482504 16504 net.cpp:444] res2c <- res2c_branch2c
I0620 19:58:04.482512 16504 net.cpp:418] res2c -> res2c
I0620 19:58:04.482542 16504 net.cpp:150] Setting up res2c
I0620 19:58:04.482549 16504 net.cpp:157] Top shape: 1 256 240 320 (19660800)
I0620 19:58:04.482553 16504 net.cpp:165] Memory required for data: 2541158484
I0620 19:58:04.482555 16504 layer_factory.hpp:77] Creating layer res2c_relu
I0620 19:58:04.482563 16504 net.cpp:100] Creating Layer res2c_relu
I0620 19:58:04.482568 16504 net.cpp:444] res2c_relu <- res2c
I0620 19:58:04.482578 16504 net.cpp:405] res2c_relu -> res2c (in-place)
I0620 19:58:04.482918 16504 net.cpp:150] Setting up res2c_relu
I0620 19:58:04.482925 16504 net.cpp:157] Top shape: 1 256 240 320 (19660800)
I0620 19:58:04.482928 16504 net.cpp:165] Memory required for data: 2619801684
I0620 19:58:04.482931 16504 layer_factory.hpp:77] Creating layer res2c_res2c_relu_0_split
I0620 19:58:04.482941 16504 net.cpp:100] Creating Layer res2c_res2c_relu_0_split
I0620 19:58:04.482947 16504 net.cpp:444] res2c_res2c_relu_0_split <- res2c
I0620 19:58:04.482959 16504 net.cpp:418] res2c_res2c_relu_0_split -> res2c_res2c_relu_0_split_0
I0620 19:58:04.482972 16504 net.cpp:418] res2c_res2c_relu_0_split -> res2c_res2c_relu_0_split_1
I0620 19:58:04.483011 16504 net.cpp:150] Setting up res2c_res2c_relu_0_split
I0620 19:58:04.483019 16504 net.cpp:157] Top shape: 1 256 240 320 (19660800)
I0620 19:58:04.483023 16504 net.cpp:157] Top shape: 1 256 240 320 (19660800)
I0620 19:58:04.483024 16504 net.cpp:165] Memory required for data: 2777088084
I0620 19:58:04.483028 16504 layer_factory.hpp:77] Creating layer res3a_branch1
I0620 19:58:04.483041 16504 net.cpp:100] Creating Layer res3a_branch1
I0620 19:58:04.483045 16504 net.cpp:444] res3a_branch1 <- res2c_res2c_relu_0_split_0
I0620 19:58:04.483057 16504 net.cpp:418] res3a_branch1 -> res3a_branch1
I0620 19:58:04.483983 16504 cudnn_conv_layer.cpp:194] Reallocating workspace storage: 345624
I0620 19:58:04.484000 16504 net.cpp:150] Setting up res3a_branch1
I0620 19:58:04.484009 16504 net.cpp:157] Top shape: 1 512 120 160 (9830400)
I0620 19:58:04.484011 16504 net.cpp:165] Memory required for data: 2816409684
I0620 19:58:04.484021 16504 layer_factory.hpp:77] Creating layer bn3a_branch1
I0620 19:58:04.484035 16504 net.cpp:100] Creating Layer bn3a_branch1
I0620 19:58:04.484040 16504 net.cpp:444] bn3a_branch1 <- res3a_branch1
I0620 19:58:04.484051 16504 net.cpp:405] bn3a_branch1 -> res3a_branch1 (in-place)
I0620 19:58:04.484777 16504 net.cpp:150] Setting up bn3a_branch1
I0620 19:58:04.484787 16504 net.cpp:157] Top shape: 1 512 120 160 (9830400)
I0620 19:58:04.484789 16504 net.cpp:165] Memory required for data: 2855731284
I0620 19:58:04.484807 16504 layer_factory.hpp:77] Creating layer scale3a_branch1
I0620 19:58:04.484822 16504 net.cpp:100] Creating Layer scale3a_branch1
I0620 19:58:04.484827 16504 net.cpp:444] scale3a_branch1 <- res3a_branch1
I0620 19:58:04.484839 16504 net.cpp:405] scale3a_branch1 -> res3a_branch1 (in-place)
I0620 19:58:04.484884 16504 layer_factory.hpp:77] Creating layer scale3a_branch1
I0620 19:58:04.485043 16504 net.cpp:150] Setting up scale3a_branch1
I0620 19:58:04.485049 16504 net.cpp:157] Top shape: 1 512 120 160 (9830400)
I0620 19:58:04.485051 16504 net.cpp:165] Memory required for data: 2895052884
I0620 19:58:04.485060 16504 layer_factory.hpp:77] Creating layer res3a_branch2a
I0620 19:58:04.485075 16504 net.cpp:100] Creating Layer res3a_branch2a
I0620 19:58:04.485080 16504 net.cpp:444] res3a_branch2a <- res2c_res2c_relu_0_split_1
I0620 19:58:04.485092 16504 net.cpp:418] res3a_branch2a -> res3a_branch2a
I0620 19:58:04.486001 16504 cudnn_conv_layer.cpp:194] Reallocating workspace storage: 345624
I0620 19:58:04.486017 16504 net.cpp:150] Setting up res3a_branch2a
I0620 19:58:04.486027 16504 net.cpp:157] Top shape: 1 128 120 160 (2457600)
I0620 19:58:04.486028 16504 net.cpp:165] Memory required for data: 2904883284
I0620 19:58:04.486039 16504 layer_factory.hpp:77] Creating layer bn3a_branch2a
I0620 19:58:04.486052 16504 net.cpp:100] Creating Layer bn3a_branch2a
I0620 19:58:04.486058 16504 net.cpp:444] bn3a_branch2a <- res3a_branch2a
I0620 19:58:04.486070 16504 net.cpp:405] bn3a_branch2a -> res3a_branch2a (in-place)
I0620 19:58:04.486243 16504 net.cpp:150] Setting up bn3a_branch2a
I0620 19:58:04.486249 16504 net.cpp:157] Top shape: 1 128 120 160 (2457600)
I0620 19:58:04.486253 16504 net.cpp:165] Memory required for data: 2914713684
I0620 19:58:04.486266 16504 layer_factory.hpp:77] Creating layer scale3a_branch2a
I0620 19:58:04.486277 16504 net.cpp:100] Creating Layer scale3a_branch2a
I0620 19:58:04.486284 16504 net.cpp:444] scale3a_branch2a <- res3a_branch2a
I0620 19:58:04.486294 16504 net.cpp:405] scale3a_branch2a -> res3a_branch2a (in-place)
I0620 19:58:04.486335 16504 layer_factory.hpp:77] Creating layer scale3a_branch2a
I0620 19:58:04.486487 16504 net.cpp:150] Setting up scale3a_branch2a
I0620 19:58:04.486495 16504 net.cpp:157] Top shape: 1 128 120 160 (2457600)
I0620 19:58:04.486496 16504 net.cpp:165] Memory required for data: 2924544084
I0620 19:58:04.486505 16504 layer_factory.hpp:77] Creating layer res3a_branch2a_relu
I0620 19:58:04.486515 16504 net.cpp:100] Creating Layer res3a_branch2a_relu
I0620 19:58:04.486521 16504 net.cpp:444] res3a_branch2a_relu <- res3a_branch2a
I0620 19:58:04.486529 16504 net.cpp:405] res3a_branch2a_relu -> res3a_branch2a (in-place)
I0620 19:58:04.486655 16504 net.cpp:150] Setting up res3a_branch2a_relu
I0620 19:58:04.486661 16504 net.cpp:157] Top shape: 1 128 120 160 (2457600)
I0620 19:58:04.486665 16504 net.cpp:165] Memory required for data: 2934374484
I0620 19:58:04.486668 16504 layer_factory.hpp:77] Creating layer res3a_branch2b
I0620 19:58:04.486681 16504 net.cpp:100] Creating Layer res3a_branch2b
I0620 19:58:04.486686 16504 net.cpp:444] res3a_branch2b <- res3a_branch2a
I0620 19:58:04.486699 16504 net.cpp:418] res3a_branch2b -> res3a_branch2b
I0620 19:58:04.488214 16504 cudnn_conv_layer.cpp:194] Reallocating workspace storage: 3145728
I0620 19:58:04.488425 16504 net.cpp:150] Setting up res3a_branch2b
I0620 19:58:04.488436 16504 net.cpp:157] Top shape: 1 128 120 160 (2457600)
I0620 19:58:04.488440 16504 net.cpp:165] Memory required for data: 2944204884
I0620 19:58:04.488449 16504 layer_factory.hpp:77] Creating layer bn3a_branch2b
I0620 19:58:04.488461 16504 net.cpp:100] Creating Layer bn3a_branch2b
I0620 19:58:04.488466 16504 net.cpp:444] bn3a_branch2b <- res3a_branch2b
I0620 19:58:04.488478 16504 net.cpp:405] bn3a_branch2b -> res3a_branch2b (in-place)
I0620 19:58:04.488652 16504 net.cpp:150] Setting up bn3a_branch2b
I0620 19:58:04.488658 16504 net.cpp:157] Top shape: 1 128 120 160 (2457600)
I0620 19:58:04.488660 16504 net.cpp:165] Memory required for data: 2954035284
I0620 19:58:04.488674 16504 layer_factory.hpp:77] Creating layer scale3a_branch2b
I0620 19:58:04.488694 16504 net.cpp:100] Creating Layer scale3a_branch2b
I0620 19:58:04.488699 16504 net.cpp:444] scale3a_branch2b <- res3a_branch2b
I0620 19:58:04.488709 16504 net.cpp:405] scale3a_branch2b -> res3a_branch2b (in-place)
I0620 19:58:04.488754 16504 layer_factory.hpp:77] Creating layer scale3a_branch2b
I0620 19:58:04.488905 16504 net.cpp:150] Setting up scale3a_branch2b
I0620 19:58:04.488912 16504 net.cpp:157] Top shape: 1 128 120 160 (2457600)
I0620 19:58:04.488914 16504 net.cpp:165] Memory required for data: 2963865684
I0620 19:58:04.488925 16504 layer_factory.hpp:77] Creating layer res3a_branch2b_relu
I0620 19:58:04.488934 16504 net.cpp:100] Creating Layer res3a_branch2b_relu
I0620 19:58:04.488940 16504 net.cpp:444] res3a_branch2b_relu <- res3a_branch2b
I0620 19:58:04.488948 16504 net.cpp:405] res3a_branch2b_relu -> res3a_branch2b (in-place)
I0620 19:58:04.489078 16504 net.cpp:150] Setting up res3a_branch2b_relu
I0620 19:58:04.489084 16504 net.cpp:157] Top shape: 1 128 120 160 (2457600)
I0620 19:58:04.489087 16504 net.cpp:165] Memory required for data: 2973696084
I0620 19:58:04.489091 16504 layer_factory.hpp:77] Creating layer res3a_branch2c
I0620 19:58:04.489104 16504 net.cpp:100] Creating Layer res3a_branch2c
I0620 19:58:04.489109 16504 net.cpp:444] res3a_branch2c <- res3a_branch2b
I0620 19:58:04.489121 16504 net.cpp:418] res3a_branch2c -> res3a_branch2c
I0620 19:58:04.489962 16504 cudnn_conv_layer.cpp:194] Reallocating workspace storage: 352152
I0620 19:58:04.489975 16504 net.cpp:150] Setting up res3a_branch2c
I0620 19:58:04.489982 16504 net.cpp:157] Top shape: 1 512 120 160 (9830400)
I0620 19:58:04.489984 16504 net.cpp:165] Memory required for data: 3013017684
I0620 19:58:04.489995 16504 layer_factory.hpp:77] Creating layer bn3a_branch2c
I0620 19:58:04.490006 16504 net.cpp:100] Creating Layer bn3a_branch2c
I0620 19:58:04.490012 16504 net.cpp:444] bn3a_branch2c <- res3a_branch2c
I0620 19:58:04.490023 16504 net.cpp:405] bn3a_branch2c -> res3a_branch2c (in-place)
I0620 19:58:04.490195 16504 net.cpp:150] Setting up bn3a_branch2c
I0620 19:58:04.490201 16504 net.cpp:157] Top shape: 1 512 120 160 (9830400)
I0620 19:58:04.490203 16504 net.cpp:165] Memory required for data: 3052339284
I0620 19:58:04.490217 16504 layer_factory.hpp:77] Creating layer scale3a_branch2c
I0620 19:58:04.490228 16504 net.cpp:100] Creating Layer scale3a_branch2c
I0620 19:58:04.490233 16504 net.cpp:444] scale3a_branch2c <- res3a_branch2c
I0620 19:58:04.490244 16504 net.cpp:405] scale3a_branch2c -> res3a_branch2c (in-place)
I0620 19:58:04.490284 16504 layer_factory.hpp:77] Creating layer scale3a_branch2c
I0620 19:58:04.490437 16504 net.cpp:150] Setting up scale3a_branch2c
I0620 19:58:04.490443 16504 net.cpp:157] Top shape: 1 512 120 160 (9830400)
I0620 19:58:04.490447 16504 net.cpp:165] Memory required for data: 3091660884
I0620 19:58:04.490455 16504 layer_factory.hpp:77] Creating layer res3a
I0620 19:58:04.490465 16504 net.cpp:100] Creating Layer res3a
I0620 19:58:04.490470 16504 net.cpp:444] res3a <- res3a_branch1
I0620 19:58:04.490479 16504 net.cpp:444] res3a <- res3a_branch2c
I0620 19:58:04.490487 16504 net.cpp:418] res3a -> res3a
I0620 19:58:04.490517 16504 net.cpp:150] Setting up res3a
I0620 19:58:04.490525 16504 net.cpp:157] Top shape: 1 512 120 160 (9830400)
I0620 19:58:04.490527 16504 net.cpp:165] Memory required for data: 3130982484
I0620 19:58:04.490530 16504 layer_factory.hpp:77] Creating layer res3a_relu
I0620 19:58:04.490538 16504 net.cpp:100] Creating Layer res3a_relu
I0620 19:58:04.490542 16504 net.cpp:444] res3a_relu <- res3a
I0620 19:58:04.490552 16504 net.cpp:405] res3a_relu -> res3a (in-place)
I0620 19:58:04.490883 16504 net.cpp:150] Setting up res3a_relu
I0620 19:58:04.490891 16504 net.cpp:157] Top shape: 1 512 120 160 (9830400)
I0620 19:58:04.490895 16504 net.cpp:165] Memory required for data: 3170304084
I0620 19:58:04.490900 16504 layer_factory.hpp:77] Creating layer res3a_res3a_relu_0_split
I0620 19:58:04.490909 16504 net.cpp:100] Creating Layer res3a_res3a_relu_0_split
I0620 19:58:04.490914 16504 net.cpp:444] res3a_res3a_relu_0_split <- res3a
I0620 19:58:04.490926 16504 net.cpp:418] res3a_res3a_relu_0_split -> res3a_res3a_relu_0_split_0
I0620 19:58:04.490939 16504 net.cpp:418] res3a_res3a_relu_0_split -> res3a_res3a_relu_0_split_1
I0620 19:58:04.490977 16504 net.cpp:150] Setting up res3a_res3a_relu_0_split
I0620 19:58:04.490984 16504 net.cpp:157] Top shape: 1 512 120 160 (9830400)
I0620 19:58:04.490988 16504 net.cpp:157] Top shape: 1 512 120 160 (9830400)
I0620 19:58:04.490989 16504 net.cpp:165] Memory required for data: 3248947284
I0620 19:58:04.490993 16504 layer_factory.hpp:77] Creating layer res3b_branch2a
I0620 19:58:04.491005 16504 net.cpp:100] Creating Layer res3b_branch2a
I0620 19:58:04.491010 16504 net.cpp:444] res3b_branch2a <- res3a_res3a_relu_0_split_0
I0620 19:58:04.491021 16504 net.cpp:418] res3b_branch2a -> res3b_branch2a
I0620 19:58:04.491842 16504 cudnn_conv_layer.cpp:194] Reallocating workspace storage: 352152
I0620 19:58:04.491859 16504 net.cpp:150] Setting up res3b_branch2a
I0620 19:58:04.491866 16504 net.cpp:157] Top shape: 1 128 120 160 (2457600)
I0620 19:58:04.491868 16504 net.cpp:165] Memory required for data: 3258777684
I0620 19:58:04.491878 16504 layer_factory.hpp:77] Creating layer bn3b_branch2a
I0620 19:58:04.491890 16504 net.cpp:100] Creating Layer bn3b_branch2a
I0620 19:58:04.491895 16504 net.cpp:444] bn3b_branch2a <- res3b_branch2a
I0620 19:58:04.491907 16504 net.cpp:405] bn3b_branch2a -> res3b_branch2a (in-place)
I0620 19:58:04.492080 16504 net.cpp:150] Setting up bn3b_branch2a
I0620 19:58:04.492086 16504 net.cpp:157] Top shape: 1 128 120 160 (2457600)
I0620 19:58:04.492089 16504 net.cpp:165] Memory required for data: 3268608084
I0620 19:58:04.492103 16504 layer_factory.hpp:77] Creating layer scale3b_branch2a
I0620 19:58:04.492115 16504 net.cpp:100] Creating Layer scale3b_branch2a
I0620 19:58:04.492120 16504 net.cpp:444] scale3b_branch2a <- res3b_branch2a
I0620 19:58:04.492130 16504 net.cpp:405] scale3b_branch2a -> res3b_branch2a (in-place)
I0620 19:58:04.492173 16504 layer_factory.hpp:77] Creating layer scale3b_branch2a
I0620 19:58:04.492875 16504 net.cpp:150] Setting up scale3b_branch2a
I0620 19:58:04.492884 16504 net.cpp:157] Top shape: 1 128 120 160 (2457600)
I0620 19:58:04.492887 16504 net.cpp:165] Memory required for data: 3278438484
I0620 19:58:04.492897 16504 layer_factory.hpp:77] Creating layer res3b_branch2a_relu
I0620 19:58:04.492908 16504 net.cpp:100] Creating Layer res3b_branch2a_relu
I0620 19:58:04.492913 16504 net.cpp:444] res3b_branch2a_relu <- res3b_branch2a
I0620 19:58:04.492923 16504 net.cpp:405] res3b_branch2a_relu -> res3b_branch2a (in-place)
I0620 19:58:04.493060 16504 net.cpp:150] Setting up res3b_branch2a_relu
I0620 19:58:04.493067 16504 net.cpp:157] Top shape: 1 128 120 160 (2457600)
I0620 19:58:04.493069 16504 net.cpp:165] Memory required for data: 3288268884
I0620 19:58:04.493072 16504 layer_factory.hpp:77] Creating layer res3b_branch2b
I0620 19:58:04.493086 16504 net.cpp:100] Creating Layer res3b_branch2b
I0620 19:58:04.493091 16504 net.cpp:444] res3b_branch2b <- res3b_branch2a
I0620 19:58:04.493104 16504 net.cpp:418] res3b_branch2b -> res3b_branch2b
I0620 19:58:04.494268 16504 cudnn_conv_layer.cpp:194] Reallocating workspace storage: 3145728
I0620 19:58:04.494478 16504 net.cpp:150] Setting up res3b_branch2b
I0620 19:58:04.494488 16504 net.cpp:157] Top shape: 1 128 120 160 (2457600)
I0620 19:58:04.494491 16504 net.cpp:165] Memory required for data: 3298099284
I0620 19:58:04.494503 16504 layer_factory.hpp:77] Creating layer bn3b_branch2b
I0620 19:58:04.494514 16504 net.cpp:100] Creating Layer bn3b_branch2b
I0620 19:58:04.494519 16504 net.cpp:444] bn3b_branch2b <- res3b_branch2b
I0620 19:58:04.494531 16504 net.cpp:405] bn3b_branch2b -> res3b_branch2b (in-place)
I0620 19:58:04.494712 16504 net.cpp:150] Setting up bn3b_branch2b
I0620 19:58:04.494719 16504 net.cpp:157] Top shape: 1 128 120 160 (2457600)
I0620 19:58:04.494720 16504 net.cpp:165] Memory required for data: 3307929684
I0620 19:58:04.494735 16504 layer_factory.hpp:77] Creating layer scale3b_branch2b
I0620 19:58:04.494747 16504 net.cpp:100] Creating Layer scale3b_branch2b
I0620 19:58:04.494752 16504 net.cpp:444] scale3b_branch2b <- res3b_branch2b
I0620 19:58:04.494763 16504 net.cpp:405] scale3b_branch2b -> res3b_branch2b (in-place)
I0620 19:58:04.494807 16504 layer_factory.hpp:77] Creating layer scale3b_branch2b
I0620 19:58:04.494959 16504 net.cpp:150] Setting up scale3b_branch2b
I0620 19:58:04.494966 16504 net.cpp:157] Top shape: 1 128 120 160 (2457600)
I0620 19:58:04.494969 16504 net.cpp:165] Memory required for data: 3317760084
I0620 19:58:04.494978 16504 layer_factory.hpp:77] Creating layer res3b_branch2b_relu
I0620 19:58:04.494987 16504 net.cpp:100] Creating Layer res3b_branch2b_relu
I0620 19:58:04.494992 16504 net.cpp:444] res3b_branch2b_relu <- res3b_branch2b
I0620 19:58:04.495002 16504 net.cpp:405] res3b_branch2b_relu -> res3b_branch2b (in-place)
I0620 19:58:04.495136 16504 net.cpp:150] Setting up res3b_branch2b_relu
I0620 19:58:04.495142 16504 net.cpp:157] Top shape: 1 128 120 160 (2457600)
I0620 19:58:04.495144 16504 net.cpp:165] Memory required for data: 3327590484
I0620 19:58:04.495148 16504 layer_factory.hpp:77] Creating layer res3b_branch2c
I0620 19:58:04.495160 16504 net.cpp:100] Creating Layer res3b_branch2c
I0620 19:58:04.495167 16504 net.cpp:444] res3b_branch2c <- res3b_branch2b
I0620 19:58:04.495178 16504 net.cpp:418] res3b_branch2c -> res3b_branch2c
I0620 19:58:04.496007 16504 cudnn_conv_layer.cpp:194] Reallocating workspace storage: 352152
I0620 19:58:04.496021 16504 net.cpp:150] Setting up res3b_branch2c
I0620 19:58:04.496027 16504 net.cpp:157] Top shape: 1 512 120 160 (9830400)
I0620 19:58:04.496029 16504 net.cpp:165] Memory required for data: 3366912084
I0620 19:58:04.496039 16504 layer_factory.hpp:77] Creating layer bn3b_branch2c
I0620 19:58:04.496052 16504 net.cpp:100] Creating Layer bn3b_branch2c
I0620 19:58:04.496057 16504 net.cpp:444] bn3b_branch2c <- res3b_branch2c
I0620 19:58:04.496068 16504 net.cpp:405] bn3b_branch2c -> res3b_branch2c (in-place)
I0620 19:58:04.496243 16504 net.cpp:150] Setting up bn3b_branch2c
I0620 19:58:04.496248 16504 net.cpp:157] Top shape: 1 512 120 160 (9830400)
I0620 19:58:04.496251 16504 net.cpp:165] Memory required for data: 3406233684
I0620 19:58:04.496265 16504 layer_factory.hpp:77] Creating layer scale3b_branch2c
I0620 19:58:04.496278 16504 net.cpp:100] Creating Layer scale3b_branch2c
I0620 19:58:04.496282 16504 net.cpp:444] scale3b_branch2c <- res3b_branch2c
I0620 19:58:04.496294 16504 net.cpp:405] scale3b_branch2c -> res3b_branch2c (in-place)
I0620 19:58:04.496333 16504 layer_factory.hpp:77] Creating layer scale3b_branch2c
I0620 19:58:04.496487 16504 net.cpp:150] Setting up scale3b_branch2c
I0620 19:58:04.496493 16504 net.cpp:157] Top shape: 1 512 120 160 (9830400)
I0620 19:58:04.496496 16504 net.cpp:165] Memory required for data: 3445555284
I0620 19:58:04.496505 16504 layer_factory.hpp:77] Creating layer res3b
I0620 19:58:04.496515 16504 net.cpp:100] Creating Layer res3b
I0620 19:58:04.496520 16504 net.cpp:444] res3b <- res3a_res3a_relu_0_split_1
I0620 19:58:04.496528 16504 net.cpp:444] res3b <- res3b_branch2c
I0620 19:58:04.496537 16504 net.cpp:418] res3b -> res3b
I0620 19:58:04.496567 16504 net.cpp:150] Setting up res3b
I0620 19:58:04.496573 16504 net.cpp:157] Top shape: 1 512 120 160 (9830400)
I0620 19:58:04.496577 16504 net.cpp:165] Memory required for data: 3484876884
I0620 19:58:04.496579 16504 layer_factory.hpp:77] Creating layer res3b_relu
I0620 19:58:04.496587 16504 net.cpp:100] Creating Layer res3b_relu
I0620 19:58:04.496590 16504 net.cpp:444] res3b_relu <- res3b
I0620 19:58:04.496600 16504 net.cpp:405] res3b_relu -> res3b (in-place)
I0620 19:58:04.496932 16504 net.cpp:150] Setting up res3b_relu
I0620 19:58:04.496939 16504 net.cpp:157] Top shape: 1 512 120 160 (9830400)
I0620 19:58:04.496942 16504 net.cpp:165] Memory required for data: 3524198484
I0620 19:58:04.496946 16504 layer_factory.hpp:77] Creating layer res3b_res3b_relu_0_split
I0620 19:58:04.496955 16504 net.cpp:100] Creating Layer res3b_res3b_relu_0_split
I0620 19:58:04.496960 16504 net.cpp:444] res3b_res3b_relu_0_split <- res3b
I0620 19:58:04.496973 16504 net.cpp:418] res3b_res3b_relu_0_split -> res3b_res3b_relu_0_split_0
I0620 19:58:04.496986 16504 net.cpp:418] res3b_res3b_relu_0_split -> res3b_res3b_relu_0_split_1
I0620 19:58:04.497025 16504 net.cpp:150] Setting up res3b_res3b_relu_0_split
I0620 19:58:04.497032 16504 net.cpp:157] Top shape: 1 512 120 160 (9830400)
I0620 19:58:04.497035 16504 net.cpp:157] Top shape: 1 512 120 160 (9830400)
I0620 19:58:04.497037 16504 net.cpp:165] Memory required for data: 3602841684
I0620 19:58:04.497041 16504 layer_factory.hpp:77] Creating layer res3c_branch2a
I0620 19:58:04.497052 16504 net.cpp:100] Creating Layer res3c_branch2a
I0620 19:58:04.497057 16504 net.cpp:444] res3c_branch2a <- res3b_res3b_relu_0_split_0
I0620 19:58:04.497069 16504 net.cpp:418] res3c_branch2a -> res3c_branch2a
I0620 19:58:04.497908 16504 cudnn_conv_layer.cpp:194] Reallocating workspace storage: 352152
I0620 19:58:04.497925 16504 net.cpp:150] Setting up res3c_branch2a
I0620 19:58:04.497932 16504 net.cpp:157] Top shape: 1 128 120 160 (2457600)
I0620 19:58:04.497936 16504 net.cpp:165] Memory required for data: 3612672084
I0620 19:58:04.497944 16504 layer_factory.hpp:77] Creating layer bn3c_branch2a
I0620 19:58:04.497956 16504 net.cpp:100] Creating Layer bn3c_branch2a
I0620 19:58:04.497962 16504 net.cpp:444] bn3c_branch2a <- res3c_branch2a
I0620 19:58:04.497973 16504 net.cpp:405] bn3c_branch2a -> res3c_branch2a (in-place)
I0620 19:58:04.498152 16504 net.cpp:150] Setting up bn3c_branch2a
I0620 19:58:04.498158 16504 net.cpp:157] Top shape: 1 128 120 160 (2457600)
I0620 19:58:04.498162 16504 net.cpp:165] Memory required for data: 3622502484
I0620 19:58:04.498175 16504 layer_factory.hpp:77] Creating layer scale3c_branch2a
I0620 19:58:04.498186 16504 net.cpp:100] Creating Layer scale3c_branch2a
I0620 19:58:04.498191 16504 net.cpp:444] scale3c_branch2a <- res3c_branch2a
I0620 19:58:04.498201 16504 net.cpp:405] scale3c_branch2a -> res3c_branch2a (in-place)
I0620 19:58:04.498245 16504 layer_factory.hpp:77] Creating layer scale3c_branch2a
I0620 19:58:04.498399 16504 net.cpp:150] Setting up scale3c_branch2a
I0620 19:58:04.498405 16504 net.cpp:157] Top shape: 1 128 120 160 (2457600)
I0620 19:58:04.498409 16504 net.cpp:165] Memory required for data: 3632332884
I0620 19:58:04.498417 16504 layer_factory.hpp:77] Creating layer res3c_branch2a_relu
I0620 19:58:04.498426 16504 net.cpp:100] Creating Layer res3c_branch2a_relu
I0620 19:58:04.498431 16504 net.cpp:444] res3c_branch2a_relu <- res3c_branch2a
I0620 19:58:04.498441 16504 net.cpp:405] res3c_branch2a_relu -> res3c_branch2a (in-place)
I0620 19:58:04.498571 16504 net.cpp:150] Setting up res3c_branch2a_relu
I0620 19:58:04.498579 16504 net.cpp:157] Top shape: 1 128 120 160 (2457600)
I0620 19:58:04.498580 16504 net.cpp:165] Memory required for data: 3642163284
I0620 19:58:04.498584 16504 layer_factory.hpp:77] Creating layer res3c_branch2b
I0620 19:58:04.498597 16504 net.cpp:100] Creating Layer res3c_branch2b
I0620 19:58:04.498602 16504 net.cpp:444] res3c_branch2b <- res3c_branch2a
I0620 19:58:04.498615 16504 net.cpp:418] res3c_branch2b -> res3c_branch2b
I0620 19:58:04.499567 16504 cudnn_conv_layer.cpp:194] Reallocating workspace storage: 3145728
I0620 19:58:04.499778 16504 net.cpp:150] Setting up res3c_branch2b
I0620 19:58:04.499788 16504 net.cpp:157] Top shape: 1 128 120 160 (2457600)
I0620 19:58:04.499791 16504 net.cpp:165] Memory required for data: 3651993684
I0620 19:58:04.499801 16504 layer_factory.hpp:77] Creating layer bn3c_branch2b
I0620 19:58:04.499814 16504 net.cpp:100] Creating Layer bn3c_branch2b
I0620 19:58:04.499820 16504 net.cpp:444] bn3c_branch2b <- res3c_branch2b
I0620 19:58:04.499831 16504 net.cpp:405] bn3c_branch2b -> res3c_branch2b (in-place)
I0620 19:58:04.500012 16504 net.cpp:150] Setting up bn3c_branch2b
I0620 19:58:04.500018 16504 net.cpp:157] Top shape: 1 128 120 160 (2457600)
I0620 19:58:04.500020 16504 net.cpp:165] Memory required for data: 3661824084
I0620 19:58:04.500035 16504 layer_factory.hpp:77] Creating layer scale3c_branch2b
I0620 19:58:04.500046 16504 net.cpp:100] Creating Layer scale3c_branch2b
I0620 19:58:04.500051 16504 net.cpp:444] scale3c_branch2b <- res3c_branch2b
I0620 19:58:04.500061 16504 net.cpp:405] scale3c_branch2b -> res3c_branch2b (in-place)
I0620 19:58:04.500105 16504 layer_factory.hpp:77] Creating layer scale3c_branch2b
I0620 19:58:04.500258 16504 net.cpp:150] Setting up scale3c_branch2b
I0620 19:58:04.500265 16504 net.cpp:157] Top shape: 1 128 120 160 (2457600)
I0620 19:58:04.500267 16504 net.cpp:165] Memory required for data: 3671654484
I0620 19:58:04.500277 16504 layer_factory.hpp:77] Creating layer res3c_branch2b_relu
I0620 19:58:04.500285 16504 net.cpp:100] Creating Layer res3c_branch2b_relu
I0620 19:58:04.500290 16504 net.cpp:444] res3c_branch2b_relu <- res3c_branch2b
I0620 19:58:04.500300 16504 net.cpp:405] res3c_branch2b_relu -> res3c_branch2b (in-place)
I0620 19:58:04.500433 16504 net.cpp:150] Setting up res3c_branch2b_relu
I0620 19:58:04.500439 16504 net.cpp:157] Top shape: 1 128 120 160 (2457600)
I0620 19:58:04.500442 16504 net.cpp:165] Memory required for data: 3681484884
I0620 19:58:04.500447 16504 layer_factory.hpp:77] Creating layer res3c_branch2c
I0620 19:58:04.500459 16504 net.cpp:100] Creating Layer res3c_branch2c
I0620 19:58:04.500464 16504 net.cpp:444] res3c_branch2c <- res3c_branch2b
I0620 19:58:04.500478 16504 net.cpp:418] res3c_branch2c -> res3c_branch2c
I0620 19:58:04.501328 16504 cudnn_conv_layer.cpp:194] Reallocating workspace storage: 352152
I0620 19:58:04.501341 16504 net.cpp:150] Setting up res3c_branch2c
I0620 19:58:04.501348 16504 net.cpp:157] Top shape: 1 512 120 160 (9830400)
I0620 19:58:04.501351 16504 net.cpp:165] Memory required for data: 3720806484
I0620 19:58:04.501360 16504 layer_factory.hpp:77] Creating layer bn3c_branch2c
I0620 19:58:04.501374 16504 net.cpp:100] Creating Layer bn3c_branch2c
I0620 19:58:04.501379 16504 net.cpp:444] bn3c_branch2c <- res3c_branch2c
I0620 19:58:04.501391 16504 net.cpp:405] bn3c_branch2c -> res3c_branch2c (in-place)
I0620 19:58:04.501575 16504 net.cpp:150] Setting up bn3c_branch2c
I0620 19:58:04.501581 16504 net.cpp:157] Top shape: 1 512 120 160 (9830400)
I0620 19:58:04.501583 16504 net.cpp:165] Memory required for data: 3760128084
I0620 19:58:04.501597 16504 layer_factory.hpp:77] Creating layer scale3c_branch2c
I0620 19:58:04.501610 16504 net.cpp:100] Creating Layer scale3c_branch2c
I0620 19:58:04.501616 16504 net.cpp:444] scale3c_branch2c <- res3c_branch2c
I0620 19:58:04.501626 16504 net.cpp:405] scale3c_branch2c -> res3c_branch2c (in-place)
I0620 19:58:04.501674 16504 layer_factory.hpp:77] Creating layer scale3c_branch2c
I0620 19:58:04.501837 16504 net.cpp:150] Setting up scale3c_branch2c
I0620 19:58:04.501844 16504 net.cpp:157] Top shape: 1 512 120 160 (9830400)
I0620 19:58:04.501847 16504 net.cpp:165] Memory required for data: 3799449684
I0620 19:58:04.501857 16504 layer_factory.hpp:77] Creating layer res3c
I0620 19:58:04.501865 16504 net.cpp:100] Creating Layer res3c
I0620 19:58:04.501871 16504 net.cpp:444] res3c <- res3b_res3b_relu_0_split_1
I0620 19:58:04.501879 16504 net.cpp:444] res3c <- res3c_branch2c
I0620 19:58:04.501889 16504 net.cpp:418] res3c -> res3c
I0620 19:58:04.501920 16504 net.cpp:150] Setting up res3c
I0620 19:58:04.501929 16504 net.cpp:157] Top shape: 1 512 120 160 (9830400)
I0620 19:58:04.501930 16504 net.cpp:165] Memory required for data: 3838771284
I0620 19:58:04.501935 16504 layer_factory.hpp:77] Creating layer res3c_relu
I0620 19:58:04.501942 16504 net.cpp:100] Creating Layer res3c_relu
I0620 19:58:04.501946 16504 net.cpp:444] res3c_relu <- res3c
I0620 19:58:04.501957 16504 net.cpp:405] res3c_relu -> res3c (in-place)
I0620 19:58:04.502090 16504 net.cpp:150] Setting up res3c_relu
I0620 19:58:04.502096 16504 net.cpp:157] Top shape: 1 512 120 160 (9830400)
I0620 19:58:04.502099 16504 net.cpp:165] Memory required for data: 3878092884
I0620 19:58:04.502102 16504 layer_factory.hpp:77] Creating layer res3c_res3c_relu_0_split
I0620 19:58:04.502111 16504 net.cpp:100] Creating Layer res3c_res3c_relu_0_split
I0620 19:58:04.502116 16504 net.cpp:444] res3c_res3c_relu_0_split <- res3c
I0620 19:58:04.502128 16504 net.cpp:418] res3c_res3c_relu_0_split -> res3c_res3c_relu_0_split_0
I0620 19:58:04.502142 16504 net.cpp:418] res3c_res3c_relu_0_split -> res3c_res3c_relu_0_split_1
I0620 19:58:04.502180 16504 net.cpp:150] Setting up res3c_res3c_relu_0_split
I0620 19:58:04.502188 16504 net.cpp:157] Top shape: 1 512 120 160 (9830400)
I0620 19:58:04.502192 16504 net.cpp:157] Top shape: 1 512 120 160 (9830400)
I0620 19:58:04.502193 16504 net.cpp:165] Memory required for data: 3956736084
I0620 19:58:04.502197 16504 layer_factory.hpp:77] Creating layer res3d_branch2a
I0620 19:58:04.502209 16504 net.cpp:100] Creating Layer res3d_branch2a
I0620 19:58:04.502214 16504 net.cpp:444] res3d_branch2a <- res3c_res3c_relu_0_split_0
I0620 19:58:04.502226 16504 net.cpp:418] res3d_branch2a -> res3d_branch2a
I0620 19:58:04.503638 16504 cudnn_conv_layer.cpp:194] Reallocating workspace storage: 352152
I0620 19:58:04.503654 16504 net.cpp:150] Setting up res3d_branch2a
I0620 19:58:04.503661 16504 net.cpp:157] Top shape: 1 128 120 160 (2457600)
I0620 19:58:04.503664 16504 net.cpp:165] Memory required for data: 3966566484
I0620 19:58:04.503674 16504 layer_factory.hpp:77] Creating layer bn3d_branch2a
I0620 19:58:04.503687 16504 net.cpp:100] Creating Layer bn3d_branch2a
I0620 19:58:04.503693 16504 net.cpp:444] bn3d_branch2a <- res3d_branch2a
I0620 19:58:04.503706 16504 net.cpp:405] bn3d_branch2a -> res3d_branch2a (in-place)
I0620 19:58:04.503893 16504 net.cpp:150] Setting up bn3d_branch2a
I0620 19:58:04.503899 16504 net.cpp:157] Top shape: 1 128 120 160 (2457600)
I0620 19:58:04.503901 16504 net.cpp:165] Memory required for data: 3976396884
I0620 19:58:04.503937 16504 layer_factory.hpp:77] Creating layer scale3d_branch2a
I0620 19:58:04.503952 16504 net.cpp:100] Creating Layer scale3d_branch2a
I0620 19:58:04.503957 16504 net.cpp:444] scale3d_branch2a <- res3d_branch2a
I0620 19:58:04.503967 16504 net.cpp:405] scale3d_branch2a -> res3d_branch2a (in-place)
I0620 19:58:04.504014 16504 layer_factory.hpp:77] Creating layer scale3d_branch2a
I0620 19:58:04.504174 16504 net.cpp:150] Setting up scale3d_branch2a
I0620 19:58:04.504181 16504 net.cpp:157] Top shape: 1 128 120 160 (2457600)
I0620 19:58:04.504184 16504 net.cpp:165] Memory required for data: 3986227284
I0620 19:58:04.504194 16504 layer_factory.hpp:77] Creating layer res3d_branch2a_relu
I0620 19:58:04.504202 16504 net.cpp:100] Creating Layer res3d_branch2a_relu
I0620 19:58:04.504207 16504 net.cpp:444] res3d_branch2a_relu <- res3d_branch2a
I0620 19:58:04.504218 16504 net.cpp:405] res3d_branch2a_relu -> res3d_branch2a (in-place)
I0620 19:58:04.504565 16504 net.cpp:150] Setting up res3d_branch2a_relu
I0620 19:58:04.504575 16504 net.cpp:157] Top shape: 1 128 120 160 (2457600)
I0620 19:58:04.504576 16504 net.cpp:165] Memory required for data: 3996057684
I0620 19:58:04.504580 16504 layer_factory.hpp:77] Creating layer res3d_branch2b
I0620 19:58:04.504595 16504 net.cpp:100] Creating Layer res3d_branch2b
I0620 19:58:04.504601 16504 net.cpp:444] res3d_branch2b <- res3d_branch2a
I0620 19:58:04.504616 16504 net.cpp:418] res3d_branch2b -> res3d_branch2b
I0620 19:58:04.506165 16504 cudnn_conv_layer.cpp:194] Reallocating workspace storage: 3145728
I0620 19:58:04.506381 16504 net.cpp:150] Setting up res3d_branch2b
I0620 19:58:04.506392 16504 net.cpp:157] Top shape: 1 128 120 160 (2457600)
I0620 19:58:04.506394 16504 net.cpp:165] Memory required for data: 4005888084
I0620 19:58:04.506405 16504 layer_factory.hpp:77] Creating layer bn3d_branch2b
I0620 19:58:04.506419 16504 net.cpp:100] Creating Layer bn3d_branch2b
I0620 19:58:04.506425 16504 net.cpp:444] bn3d_branch2b <- res3d_branch2b
I0620 19:58:04.506439 16504 net.cpp:405] bn3d_branch2b -> res3d_branch2b (in-place)
I0620 19:58:04.506630 16504 net.cpp:150] Setting up bn3d_branch2b
I0620 19:58:04.506636 16504 net.cpp:157] Top shape: 1 128 120 160 (2457600)
I0620 19:58:04.506639 16504 net.cpp:165] Memory required for data: 4015718484
I0620 19:58:04.506654 16504 layer_factory.hpp:77] Creating layer scale3d_branch2b
I0620 19:58:04.506665 16504 net.cpp:100] Creating Layer scale3d_branch2b
I0620 19:58:04.506671 16504 net.cpp:444] scale3d_branch2b <- res3d_branch2b
I0620 19:58:04.506681 16504 net.cpp:405] scale3d_branch2b -> res3d_branch2b (in-place)
I0620 19:58:04.506728 16504 layer_factory.hpp:77] Creating layer scale3d_branch2b
I0620 19:58:04.506889 16504 net.cpp:150] Setting up scale3d_branch2b
I0620 19:58:04.506896 16504 net.cpp:157] Top shape: 1 128 120 160 (2457600)
I0620 19:58:04.506899 16504 net.cpp:165] Memory required for data: 4025548884
I0620 19:58:04.506908 16504 layer_factory.hpp:77] Creating layer res3d_branch2b_relu
I0620 19:58:04.506917 16504 net.cpp:100] Creating Layer res3d_branch2b_relu
I0620 19:58:04.506922 16504 net.cpp:444] res3d_branch2b_relu <- res3d_branch2b
I0620 19:58:04.506932 16504 net.cpp:405] res3d_branch2b_relu -> res3d_branch2b (in-place)
I0620 19:58:04.507078 16504 net.cpp:150] Setting up res3d_branch2b_relu
I0620 19:58:04.507086 16504 net.cpp:157] Top shape: 1 128 120 160 (2457600)
I0620 19:58:04.507087 16504 net.cpp:165] Memory required for data: 4035379284
I0620 19:58:04.507091 16504 layer_factory.hpp:77] Creating layer res3d_branch2c
I0620 19:58:04.507104 16504 net.cpp:100] Creating Layer res3d_branch2c
I0620 19:58:04.507110 16504 net.cpp:444] res3d_branch2c <- res3d_branch2b
I0620 19:58:04.507123 16504 net.cpp:418] res3d_branch2c -> res3d_branch2c
I0620 19:58:04.508009 16504 cudnn_conv_layer.cpp:194] Reallocating workspace storage: 352152
I0620 19:58:04.508023 16504 net.cpp:150] Setting up res3d_branch2c
I0620 19:58:04.508030 16504 net.cpp:157] Top shape: 1 512 120 160 (9830400)
I0620 19:58:04.508033 16504 net.cpp:165] Memory required for data: 4074700884
I0620 19:58:04.508042 16504 layer_factory.hpp:77] Creating layer bn3d_branch2c
I0620 19:58:04.508054 16504 net.cpp:100] Creating Layer bn3d_branch2c
I0620 19:58:04.508060 16504 net.cpp:444] bn3d_branch2c <- res3d_branch2c
I0620 19:58:04.508072 16504 net.cpp:405] bn3d_branch2c -> res3d_branch2c (in-place)
I0620 19:58:04.508263 16504 net.cpp:150] Setting up bn3d_branch2c
I0620 19:58:04.508270 16504 net.cpp:157] Top shape: 1 512 120 160 (9830400)
I0620 19:58:04.508271 16504 net.cpp:165] Memory required for data: 4114022484
I0620 19:58:04.508285 16504 layer_factory.hpp:77] Creating layer scale3d_branch2c
I0620 19:58:04.508299 16504 net.cpp:100] Creating Layer scale3d_branch2c
I0620 19:58:04.508306 16504 net.cpp:444] scale3d_branch2c <- res3d_branch2c
I0620 19:58:04.508316 16504 net.cpp:405] scale3d_branch2c -> res3d_branch2c (in-place)
I0620 19:58:04.508358 16504 layer_factory.hpp:77] Creating layer scale3d_branch2c
I0620 19:58:04.508520 16504 net.cpp:150] Setting up scale3d_branch2c
I0620 19:58:04.508527 16504 net.cpp:157] Top shape: 1 512 120 160 (9830400)
I0620 19:58:04.508529 16504 net.cpp:165] Memory required for data: 4153344084
I0620 19:58:04.508539 16504 layer_factory.hpp:77] Creating layer res3d
I0620 19:58:04.508549 16504 net.cpp:100] Creating Layer res3d
I0620 19:58:04.508555 16504 net.cpp:444] res3d <- res3c_res3c_relu_0_split_1
I0620 19:58:04.508563 16504 net.cpp:444] res3d <- res3d_branch2c
I0620 19:58:04.508571 16504 net.cpp:418] res3d -> res3d
I0620 19:58:04.508605 16504 net.cpp:150] Setting up res3d
I0620 19:58:04.508611 16504 net.cpp:157] Top shape: 1 512 120 160 (9830400)
I0620 19:58:04.508615 16504 net.cpp:165] Memory required for data: 4192665684
I0620 19:58:04.508617 16504 layer_factory.hpp:77] Creating layer res3d_relu
I0620 19:58:04.508625 16504 net.cpp:100] Creating Layer res3d_relu
I0620 19:58:04.508630 16504 net.cpp:444] res3d_relu <- res3d
I0620 19:58:04.508641 16504 net.cpp:405] res3d_relu -> res3d (in-place)
I0620 19:58:04.508774 16504 net.cpp:150] Setting up res3d_relu
I0620 19:58:04.508780 16504 net.cpp:157] Top shape: 1 512 120 160 (9830400)
I0620 19:58:04.508782 16504 net.cpp:165] Memory required for data: 4231987284
I0620 19:58:04.508786 16504 layer_factory.hpp:77] Creating layer res3d_res3d_relu_0_split
I0620 19:58:04.508795 16504 net.cpp:100] Creating Layer res3d_res3d_relu_0_split
I0620 19:58:04.508800 16504 net.cpp:444] res3d_res3d_relu_0_split <- res3d
I0620 19:58:04.508811 16504 net.cpp:418] res3d_res3d_relu_0_split -> res3d_res3d_relu_0_split_0
I0620 19:58:04.508826 16504 net.cpp:418] res3d_res3d_relu_0_split -> res3d_res3d_relu_0_split_1
I0620 19:58:04.508864 16504 net.cpp:150] Setting up res3d_res3d_relu_0_split
I0620 19:58:04.508872 16504 net.cpp:157] Top shape: 1 512 120 160 (9830400)
I0620 19:58:04.508875 16504 net.cpp:157] Top shape: 1 512 120 160 (9830400)
I0620 19:58:04.508877 16504 net.cpp:165] Memory required for data: 4310630484
I0620 19:58:04.508880 16504 layer_factory.hpp:77] Creating layer res4a_branch1
I0620 19:58:04.508893 16504 net.cpp:100] Creating Layer res4a_branch1
I0620 19:58:04.508898 16504 net.cpp:444] res4a_branch1 <- res3d_res3d_relu_0_split_0
I0620 19:58:04.508910 16504 net.cpp:418] res4a_branch1 -> res4a_branch1
I0620 19:58:04.510974 16504 cudnn_conv_layer.cpp:194] Reallocating workspace storage: 86424
I0620 19:58:04.511194 16504 net.cpp:150] Setting up res4a_branch1
I0620 19:58:04.511205 16504 net.cpp:157] Top shape: 1 1024 60 80 (4915200)
I0620 19:58:04.511209 16504 net.cpp:165] Memory required for data: 4330291284
I0620 19:58:04.511219 16504 layer_factory.hpp:77] Creating layer bn4a_branch1
I0620 19:58:04.511234 16504 net.cpp:100] Creating Layer bn4a_branch1
I0620 19:58:04.511240 16504 net.cpp:444] bn4a_branch1 <- res4a_branch1
I0620 19:58:04.511252 16504 net.cpp:405] bn4a_branch1 -> res4a_branch1 (in-place)
I0620 19:58:04.511430 16504 net.cpp:150] Setting up bn4a_branch1
I0620 19:58:04.511435 16504 net.cpp:157] Top shape: 1 1024 60 80 (4915200)
I0620 19:58:04.511437 16504 net.cpp:165] Memory required for data: 4349952084
I0620 19:58:04.511452 16504 layer_factory.hpp:77] Creating layer scale4a_branch1
I0620 19:58:04.511464 16504 net.cpp:100] Creating Layer scale4a_branch1
I0620 19:58:04.511469 16504 net.cpp:444] scale4a_branch1 <- res4a_branch1
I0620 19:58:04.511479 16504 net.cpp:405] scale4a_branch1 -> res4a_branch1 (in-place)
I0620 19:58:04.511523 16504 layer_factory.hpp:77] Creating layer scale4a_branch1
I0620 19:58:04.511662 16504 net.cpp:150] Setting up scale4a_branch1
I0620 19:58:04.511669 16504 net.cpp:157] Top shape: 1 1024 60 80 (4915200)
I0620 19:58:04.511672 16504 net.cpp:165] Memory required for data: 4369612884
I0620 19:58:04.511682 16504 layer_factory.hpp:77] Creating layer res4a_branch2a
I0620 19:58:04.511695 16504 net.cpp:100] Creating Layer res4a_branch2a
I0620 19:58:04.511701 16504 net.cpp:444] res4a_branch2a <- res3d_res3d_relu_0_split_1
I0620 19:58:04.511715 16504 net.cpp:418] res4a_branch2a -> res4a_branch2a
I0620 19:58:04.512696 16504 cudnn_conv_layer.cpp:194] Reallocating workspace storage: 86424
I0620 19:58:04.512712 16504 net.cpp:150] Setting up res4a_branch2a
I0620 19:58:04.512719 16504 net.cpp:157] Top shape: 1 256 60 80 (1228800)
I0620 19:58:04.512722 16504 net.cpp:165] Memory required for data: 4374528084
I0620 19:58:04.512730 16504 layer_factory.hpp:77] Creating layer bn4a_branch2a
I0620 19:58:04.512743 16504 net.cpp:100] Creating Layer bn4a_branch2a
I0620 19:58:04.512749 16504 net.cpp:444] bn4a_branch2a <- res4a_branch2a
I0620 19:58:04.512763 16504 net.cpp:405] bn4a_branch2a -> res4a_branch2a (in-place)
I0620 19:58:04.512938 16504 net.cpp:150] Setting up bn4a_branch2a
I0620 19:58:04.512944 16504 net.cpp:157] Top shape: 1 256 60 80 (1228800)
I0620 19:58:04.512946 16504 net.cpp:165] Memory required for data: 4379443284
I0620 19:58:04.512960 16504 layer_factory.hpp:77] Creating layer scale4a_branch2a
I0620 19:58:04.512972 16504 net.cpp:100] Creating Layer scale4a_branch2a
I0620 19:58:04.512977 16504 net.cpp:444] scale4a_branch2a <- res4a_branch2a
I0620 19:58:04.512989 16504 net.cpp:405] scale4a_branch2a -> res4a_branch2a (in-place)
I0620 19:58:04.513036 16504 layer_factory.hpp:77] Creating layer scale4a_branch2a
I0620 19:58:04.513164 16504 net.cpp:150] Setting up scale4a_branch2a
I0620 19:58:04.513171 16504 net.cpp:157] Top shape: 1 256 60 80 (1228800)
I0620 19:58:04.513175 16504 net.cpp:165] Memory required for data: 4384358484
I0620 19:58:04.513183 16504 layer_factory.hpp:77] Creating layer res4a_branch2a_relu
I0620 19:58:04.513192 16504 net.cpp:100] Creating Layer res4a_branch2a_relu
I0620 19:58:04.513197 16504 net.cpp:444] res4a_branch2a_relu <- res4a_branch2a
I0620 19:58:04.513206 16504 net.cpp:405] res4a_branch2a_relu -> res4a_branch2a (in-place)
I0620 19:58:04.513556 16504 net.cpp:150] Setting up res4a_branch2a_relu
I0620 19:58:04.513566 16504 net.cpp:157] Top shape: 1 256 60 80 (1228800)
I0620 19:58:04.513567 16504 net.cpp:165] Memory required for data: 4389273684
I0620 19:58:04.513572 16504 layer_factory.hpp:77] Creating layer res4a_branch2b
I0620 19:58:04.513587 16504 net.cpp:100] Creating Layer res4a_branch2b
I0620 19:58:04.513593 16504 net.cpp:444] res4a_branch2b <- res4a_branch2a
I0620 19:58:04.513607 16504 net.cpp:418] res4a_branch2b -> res4a_branch2b
I0620 19:58:04.515853 16504 cudnn_conv_layer.cpp:194] Reallocating workspace storage: 12582912
I0620 19:58:04.516079 16504 net.cpp:150] Setting up res4a_branch2b
I0620 19:58:04.516093 16504 net.cpp:157] Top shape: 1 256 60 80 (1228800)
I0620 19:58:04.516095 16504 net.cpp:165] Memory required for data: 4394188884
I0620 19:58:04.516113 16504 layer_factory.hpp:77] Creating layer bn4a_branch2b
I0620 19:58:04.516134 16504 net.cpp:100] Creating Layer bn4a_branch2b
I0620 19:58:04.516141 16504 net.cpp:444] bn4a_branch2b <- res4a_branch2b
I0620 19:58:04.516158 16504 net.cpp:405] bn4a_branch2b -> res4a_branch2b (in-place)
I0620 19:58:04.516352 16504 net.cpp:150] Setting up bn4a_branch2b
I0620 19:58:04.516360 16504 net.cpp:157] Top shape: 1 256 60 80 (1228800)
I0620 19:58:04.516361 16504 net.cpp:165] Memory required for data: 4399104084
I0620 19:58:04.516376 16504 layer_factory.hpp:77] Creating layer scale4a_branch2b
I0620 19:58:04.516392 16504 net.cpp:100] Creating Layer scale4a_branch2b
I0620 19:58:04.516397 16504 net.cpp:444] scale4a_branch2b <- res4a_branch2b
I0620 19:58:04.516408 16504 net.cpp:405] scale4a_branch2b -> res4a_branch2b (in-place)
I0620 19:58:04.516458 16504 layer_factory.hpp:77] Creating layer scale4a_branch2b
I0620 19:58:04.516595 16504 net.cpp:150] Setting up scale4a_branch2b
I0620 19:58:04.516602 16504 net.cpp:157] Top shape: 1 256 60 80 (1228800)
I0620 19:58:04.516604 16504 net.cpp:165] Memory required for data: 4404019284
I0620 19:58:04.516613 16504 layer_factory.hpp:77] Creating layer res4a_branch2b_relu
I0620 19:58:04.516624 16504 net.cpp:100] Creating Layer res4a_branch2b_relu
I0620 19:58:04.516629 16504 net.cpp:444] res4a_branch2b_relu <- res4a_branch2b
I0620 19:58:04.516638 16504 net.cpp:405] res4a_branch2b_relu -> res4a_branch2b (in-place)
I0620 19:58:04.516808 16504 net.cpp:150] Setting up res4a_branch2b_relu
I0620 19:58:04.516814 16504 net.cpp:157] Top shape: 1 256 60 80 (1228800)
I0620 19:58:04.516816 16504 net.cpp:165] Memory required for data: 4408934484
I0620 19:58:04.516820 16504 layer_factory.hpp:77] Creating layer res4a_branch2c
I0620 19:58:04.516835 16504 net.cpp:100] Creating Layer res4a_branch2c
I0620 19:58:04.516841 16504 net.cpp:444] res4a_branch2c <- res4a_branch2b
I0620 19:58:04.516855 16504 net.cpp:418] res4a_branch2c -> res4a_branch2c
I0620 19:58:04.518693 16504 cudnn_conv_layer.cpp:194] Reallocating workspace storage: 92952
I0620 19:58:04.518718 16504 net.cpp:150] Setting up res4a_branch2c
I0620 19:58:04.518728 16504 net.cpp:157] Top shape: 1 1024 60 80 (4915200)
I0620 19:58:04.518731 16504 net.cpp:165] Memory required for data: 4428595284
I0620 19:58:04.518746 16504 layer_factory.hpp:77] Creating layer bn4a_branch2c
I0620 19:58:04.518769 16504 net.cpp:100] Creating Layer bn4a_branch2c
I0620 19:58:04.518776 16504 net.cpp:444] bn4a_branch2c <- res4a_branch2c
I0620 19:58:04.518792 16504 net.cpp:405] bn4a_branch2c -> res4a_branch2c (in-place)
I0620 19:58:04.518982 16504 net.cpp:150] Setting up bn4a_branch2c
I0620 19:58:04.518988 16504 net.cpp:157] Top shape: 1 1024 60 80 (4915200)
I0620 19:58:04.518991 16504 net.cpp:165] Memory required for data: 4448256084
I0620 19:58:04.519006 16504 layer_factory.hpp:77] Creating layer scale4a_branch2c
I0620 19:58:04.519019 16504 net.cpp:100] Creating Layer scale4a_branch2c
I0620 19:58:04.519024 16504 net.cpp:444] scale4a_branch2c <- res4a_branch2c
I0620 19:58:04.519034 16504 net.cpp:405] scale4a_branch2c -> res4a_branch2c (in-place)
I0620 19:58:04.519081 16504 layer_factory.hpp:77] Creating layer scale4a_branch2c
I0620 19:58:04.519222 16504 net.cpp:150] Setting up scale4a_branch2c
I0620 19:58:04.519228 16504 net.cpp:157] Top shape: 1 1024 60 80 (4915200)
I0620 19:58:04.519230 16504 net.cpp:165] Memory required for data: 4467916884
I0620 19:58:04.519240 16504 layer_factory.hpp:77] Creating layer res4a
I0620 19:58:04.519265 16504 net.cpp:100] Creating Layer res4a
I0620 19:58:04.519270 16504 net.cpp:444] res4a <- res4a_branch1
I0620 19:58:04.519279 16504 net.cpp:444] res4a <- res4a_branch2c
I0620 19:58:04.519289 16504 net.cpp:418] res4a -> res4a
I0620 19:58:04.519321 16504 net.cpp:150] Setting up res4a
I0620 19:58:04.519330 16504 net.cpp:157] Top shape: 1 1024 60 80 (4915200)
I0620 19:58:04.519332 16504 net.cpp:165] Memory required for data: 4487577684
I0620 19:58:04.519337 16504 layer_factory.hpp:77] Creating layer res4a_relu
I0620 19:58:04.519346 16504 net.cpp:100] Creating Layer res4a_relu
I0620 19:58:04.519351 16504 net.cpp:444] res4a_relu <- res4a
I0620 19:58:04.519359 16504 net.cpp:405] res4a_relu -> res4a (in-place)
I0620 19:58:04.519501 16504 net.cpp:150] Setting up res4a_relu
I0620 19:58:04.519507 16504 net.cpp:157] Top shape: 1 1024 60 80 (4915200)
I0620 19:58:04.519510 16504 net.cpp:165] Memory required for data: 4507238484
I0620 19:58:04.519515 16504 layer_factory.hpp:77] Creating layer res4a_res4a_relu_0_split
I0620 19:58:04.519522 16504 net.cpp:100] Creating Layer res4a_res4a_relu_0_split
I0620 19:58:04.519526 16504 net.cpp:444] res4a_res4a_relu_0_split <- res4a
I0620 19:58:04.519538 16504 net.cpp:418] res4a_res4a_relu_0_split -> res4a_res4a_relu_0_split_0
I0620 19:58:04.519552 16504 net.cpp:418] res4a_res4a_relu_0_split -> res4a_res4a_relu_0_split_1
I0620 19:58:04.519593 16504 net.cpp:150] Setting up res4a_res4a_relu_0_split
I0620 19:58:04.519600 16504 net.cpp:157] Top shape: 1 1024 60 80 (4915200)
I0620 19:58:04.519604 16504 net.cpp:157] Top shape: 1 1024 60 80 (4915200)
I0620 19:58:04.519606 16504 net.cpp:165] Memory required for data: 4546560084
I0620 19:58:04.519609 16504 layer_factory.hpp:77] Creating layer res4b_branch2a
I0620 19:58:04.519624 16504 net.cpp:100] Creating Layer res4b_branch2a
I0620 19:58:04.519629 16504 net.cpp:444] res4b_branch2a <- res4a_res4a_relu_0_split_0
I0620 19:58:04.519642 16504 net.cpp:418] res4b_branch2a -> res4b_branch2a
I0620 19:58:04.520862 16504 cudnn_conv_layer.cpp:194] Reallocating workspace storage: 92952
I0620 19:58:04.520884 16504 net.cpp:150] Setting up res4b_branch2a
I0620 19:58:04.520892 16504 net.cpp:157] Top shape: 1 256 60 80 (1228800)
I0620 19:58:04.520895 16504 net.cpp:165] Memory required for data: 4551475284
I0620 19:58:04.520905 16504 layer_factory.hpp:77] Creating layer bn4b_branch2a
I0620 19:58:04.520917 16504 net.cpp:100] Creating Layer bn4b_branch2a
I0620 19:58:04.520923 16504 net.cpp:444] bn4b_branch2a <- res4b_branch2a
I0620 19:58:04.520936 16504 net.cpp:405] bn4b_branch2a -> res4b_branch2a (in-place)
I0620 19:58:04.521116 16504 net.cpp:150] Setting up bn4b_branch2a
I0620 19:58:04.521122 16504 net.cpp:157] Top shape: 1 256 60 80 (1228800)
I0620 19:58:04.521124 16504 net.cpp:165] Memory required for data: 4556390484
I0620 19:58:04.521139 16504 layer_factory.hpp:77] Creating layer scale4b_branch2a
I0620 19:58:04.521150 16504 net.cpp:100] Creating Layer scale4b_branch2a
I0620 19:58:04.521155 16504 net.cpp:444] scale4b_branch2a <- res4b_branch2a
I0620 19:58:04.521167 16504 net.cpp:405] scale4b_branch2a -> res4b_branch2a (in-place)
I0620 19:58:04.521214 16504 layer_factory.hpp:77] Creating layer scale4b_branch2a
I0620 19:58:04.521348 16504 net.cpp:150] Setting up scale4b_branch2a
I0620 19:58:04.521355 16504 net.cpp:157] Top shape: 1 256 60 80 (1228800)
I0620 19:58:04.521358 16504 net.cpp:165] Memory required for data: 4561305684
I0620 19:58:04.521368 16504 layer_factory.hpp:77] Creating layer res4b_branch2a_relu
I0620 19:58:04.521376 16504 net.cpp:100] Creating Layer res4b_branch2a_relu
I0620 19:58:04.521381 16504 net.cpp:444] res4b_branch2a_relu <- res4b_branch2a
I0620 19:58:04.521390 16504 net.cpp:405] res4b_branch2a_relu -> res4b_branch2a (in-place)
I0620 19:58:04.521769 16504 net.cpp:150] Setting up res4b_branch2a_relu
I0620 19:58:04.521776 16504 net.cpp:157] Top shape: 1 256 60 80 (1228800)
I0620 19:58:04.521778 16504 net.cpp:165] Memory required for data: 4566220884
I0620 19:58:04.521782 16504 layer_factory.hpp:77] Creating layer res4b_branch2b
I0620 19:58:04.521797 16504 net.cpp:100] Creating Layer res4b_branch2b
I0620 19:58:04.521803 16504 net.cpp:444] res4b_branch2b <- res4b_branch2a
I0620 19:58:04.521817 16504 net.cpp:418] res4b_branch2b -> res4b_branch2b
I0620 19:58:04.524070 16504 cudnn_conv_layer.cpp:194] Reallocating workspace storage: 12582912
I0620 19:58:04.524294 16504 net.cpp:150] Setting up res4b_branch2b
I0620 19:58:04.524304 16504 net.cpp:157] Top shape: 1 256 60 80 (1228800)
I0620 19:58:04.524307 16504 net.cpp:165] Memory required for data: 4571136084
I0620 19:58:04.524319 16504 layer_factory.hpp:77] Creating layer bn4b_branch2b
I0620 19:58:04.524334 16504 net.cpp:100] Creating Layer bn4b_branch2b
I0620 19:58:04.524340 16504 net.cpp:444] bn4b_branch2b <- res4b_branch2b
I0620 19:58:04.524353 16504 net.cpp:405] bn4b_branch2b -> res4b_branch2b (in-place)
I0620 19:58:04.524541 16504 net.cpp:150] Setting up bn4b_branch2b
I0620 19:58:04.524547 16504 net.cpp:157] Top shape: 1 256 60 80 (1228800)
I0620 19:58:04.524549 16504 net.cpp:165] Memory required for data: 4576051284
I0620 19:58:04.524564 16504 layer_factory.hpp:77] Creating layer scale4b_branch2b
I0620 19:58:04.524576 16504 net.cpp:100] Creating Layer scale4b_branch2b
I0620 19:58:04.524581 16504 net.cpp:444] scale4b_branch2b <- res4b_branch2b
I0620 19:58:04.524592 16504 net.cpp:405] scale4b_branch2b -> res4b_branch2b (in-place)
I0620 19:58:04.524641 16504 layer_factory.hpp:77] Creating layer scale4b_branch2b
I0620 19:58:04.524776 16504 net.cpp:150] Setting up scale4b_branch2b
I0620 19:58:04.524783 16504 net.cpp:157] Top shape: 1 256 60 80 (1228800)
I0620 19:58:04.524785 16504 net.cpp:165] Memory required for data: 4580966484
I0620 19:58:04.524794 16504 layer_factory.hpp:77] Creating layer res4b_branch2b_relu
I0620 19:58:04.524804 16504 net.cpp:100] Creating Layer res4b_branch2b_relu
I0620 19:58:04.524809 16504 net.cpp:444] res4b_branch2b_relu <- res4b_branch2b
I0620 19:58:04.524819 16504 net.cpp:405] res4b_branch2b_relu -> res4b_branch2b (in-place)
I0620 19:58:04.524962 16504 net.cpp:150] Setting up res4b_branch2b_relu
I0620 19:58:04.524969 16504 net.cpp:157] Top shape: 1 256 60 80 (1228800)
I0620 19:58:04.524971 16504 net.cpp:165] Memory required for data: 4585881684
I0620 19:58:04.524976 16504 layer_factory.hpp:77] Creating layer res4b_branch2c
I0620 19:58:04.524991 16504 net.cpp:100] Creating Layer res4b_branch2c
I0620 19:58:04.524996 16504 net.cpp:444] res4b_branch2c <- res4b_branch2b
I0620 19:58:04.525009 16504 net.cpp:418] res4b_branch2c -> res4b_branch2c
I0620 19:58:04.526792 16504 cudnn_conv_layer.cpp:194] Reallocating workspace storage: 92952
I0620 19:58:04.526813 16504 net.cpp:150] Setting up res4b_branch2c
I0620 19:58:04.526821 16504 net.cpp:157] Top shape: 1 1024 60 80 (4915200)
I0620 19:58:04.526824 16504 net.cpp:165] Memory required for data: 4605542484
I0620 19:58:04.526834 16504 layer_factory.hpp:77] Creating layer bn4b_branch2c
I0620 19:58:04.526849 16504 net.cpp:100] Creating Layer bn4b_branch2c
I0620 19:58:04.526855 16504 net.cpp:444] bn4b_branch2c <- res4b_branch2c
I0620 19:58:04.526868 16504 net.cpp:405] bn4b_branch2c -> res4b_branch2c (in-place)
I0620 19:58:04.527058 16504 net.cpp:150] Setting up bn4b_branch2c
I0620 19:58:04.527065 16504 net.cpp:157] Top shape: 1 1024 60 80 (4915200)
I0620 19:58:04.527066 16504 net.cpp:165] Memory required for data: 4625203284
I0620 19:58:04.527081 16504 layer_factory.hpp:77] Creating layer scale4b_branch2c
I0620 19:58:04.527092 16504 net.cpp:100] Creating Layer scale4b_branch2c
I0620 19:58:04.527097 16504 net.cpp:444] scale4b_branch2c <- res4b_branch2c
I0620 19:58:04.527108 16504 net.cpp:405] scale4b_branch2c -> res4b_branch2c (in-place)
I0620 19:58:04.527154 16504 layer_factory.hpp:77] Creating layer scale4b_branch2c
I0620 19:58:04.527293 16504 net.cpp:150] Setting up scale4b_branch2c
I0620 19:58:04.527300 16504 net.cpp:157] Top shape: 1 1024 60 80 (4915200)
I0620 19:58:04.527302 16504 net.cpp:165] Memory required for data: 4644864084
I0620 19:58:04.527312 16504 layer_factory.hpp:77] Creating layer res4b
I0620 19:58:04.527321 16504 net.cpp:100] Creating Layer res4b
I0620 19:58:04.527328 16504 net.cpp:444] res4b <- res4a_res4a_relu_0_split_1
I0620 19:58:04.527335 16504 net.cpp:444] res4b <- res4b_branch2c
I0620 19:58:04.527345 16504 net.cpp:418] res4b -> res4b
I0620 19:58:04.527379 16504 net.cpp:150] Setting up res4b
I0620 19:58:04.527386 16504 net.cpp:157] Top shape: 1 1024 60 80 (4915200)
I0620 19:58:04.527390 16504 net.cpp:165] Memory required for data: 4664524884
I0620 19:58:04.527392 16504 layer_factory.hpp:77] Creating layer res4b_relu
I0620 19:58:04.527401 16504 net.cpp:100] Creating Layer res4b_relu
I0620 19:58:04.527406 16504 net.cpp:444] res4b_relu <- res4b
I0620 19:58:04.527415 16504 net.cpp:405] res4b_relu -> res4b (in-place)
I0620 19:58:04.527555 16504 net.cpp:150] Setting up res4b_relu
I0620 19:58:04.527562 16504 net.cpp:157] Top shape: 1 1024 60 80 (4915200)
I0620 19:58:04.527565 16504 net.cpp:165] Memory required for data: 4684185684
I0620 19:58:04.527568 16504 layer_factory.hpp:77] Creating layer res4b_res4b_relu_0_split
I0620 19:58:04.527577 16504 net.cpp:100] Creating Layer res4b_res4b_relu_0_split
I0620 19:58:04.527581 16504 net.cpp:444] res4b_res4b_relu_0_split <- res4b
I0620 19:58:04.527593 16504 net.cpp:418] res4b_res4b_relu_0_split -> res4b_res4b_relu_0_split_0
I0620 19:58:04.527607 16504 net.cpp:418] res4b_res4b_relu_0_split -> res4b_res4b_relu_0_split_1
I0620 19:58:04.527649 16504 net.cpp:150] Setting up res4b_res4b_relu_0_split
I0620 19:58:04.527657 16504 net.cpp:157] Top shape: 1 1024 60 80 (4915200)
I0620 19:58:04.527660 16504 net.cpp:157] Top shape: 1 1024 60 80 (4915200)
I0620 19:58:04.527662 16504 net.cpp:165] Memory required for data: 4723507284
I0620 19:58:04.527665 16504 layer_factory.hpp:77] Creating layer res4c_branch2a
I0620 19:58:04.527679 16504 net.cpp:100] Creating Layer res4c_branch2a
I0620 19:58:04.527684 16504 net.cpp:444] res4c_branch2a <- res4b_res4b_relu_0_split_0
I0620 19:58:04.527698 16504 net.cpp:418] res4c_branch2a -> res4c_branch2a
I0620 19:58:04.528887 16504 cudnn_conv_layer.cpp:194] Reallocating workspace storage: 92952
I0620 19:58:04.528904 16504 net.cpp:150] Setting up res4c_branch2a
I0620 19:58:04.528911 16504 net.cpp:157] Top shape: 1 256 60 80 (1228800)
I0620 19:58:04.528913 16504 net.cpp:165] Memory required for data: 4728422484
I0620 19:58:04.528923 16504 layer_factory.hpp:77] Creating layer bn4c_branch2a
I0620 19:58:04.528936 16504 net.cpp:100] Creating Layer bn4c_branch2a
I0620 19:58:04.528942 16504 net.cpp:444] bn4c_branch2a <- res4c_branch2a
I0620 19:58:04.528954 16504 net.cpp:405] bn4c_branch2a -> res4c_branch2a (in-place)
I0620 19:58:04.529139 16504 net.cpp:150] Setting up bn4c_branch2a
I0620 19:58:04.529145 16504 net.cpp:157] Top shape: 1 256 60 80 (1228800)
I0620 19:58:04.529148 16504 net.cpp:165] Memory required for data: 4733337684
I0620 19:58:04.529162 16504 layer_factory.hpp:77] Creating layer scale4c_branch2a
I0620 19:58:04.529173 16504 net.cpp:100] Creating Layer scale4c_branch2a
I0620 19:58:04.529180 16504 net.cpp:444] scale4c_branch2a <- res4c_branch2a
I0620 19:58:04.529189 16504 net.cpp:405] scale4c_branch2a -> res4c_branch2a (in-place)
I0620 19:58:04.529238 16504 layer_factory.hpp:77] Creating layer scale4c_branch2a
I0620 19:58:04.529376 16504 net.cpp:150] Setting up scale4c_branch2a
I0620 19:58:04.529383 16504 net.cpp:157] Top shape: 1 256 60 80 (1228800)
I0620 19:58:04.529386 16504 net.cpp:165] Memory required for data: 4738252884
I0620 19:58:04.529394 16504 layer_factory.hpp:77] Creating layer res4c_branch2a_relu
I0620 19:58:04.529404 16504 net.cpp:100] Creating Layer res4c_branch2a_relu
I0620 19:58:04.529409 16504 net.cpp:444] res4c_branch2a_relu <- res4c_branch2a
I0620 19:58:04.529419 16504 net.cpp:405] res4c_branch2a_relu -> res4c_branch2a (in-place)
I0620 19:58:04.529562 16504 net.cpp:150] Setting up res4c_branch2a_relu
I0620 19:58:04.529568 16504 net.cpp:157] Top shape: 1 256 60 80 (1228800)
I0620 19:58:04.529572 16504 net.cpp:165] Memory required for data: 4743168084
I0620 19:58:04.529575 16504 layer_factory.hpp:77] Creating layer res4c_branch2b
I0620 19:58:04.529588 16504 net.cpp:100] Creating Layer res4c_branch2b
I0620 19:58:04.529594 16504 net.cpp:444] res4c_branch2b <- res4c_branch2a
I0620 19:58:04.529608 16504 net.cpp:418] res4c_branch2b -> res4c_branch2b
I0620 19:58:04.532075 16504 cudnn_conv_layer.cpp:194] Reallocating workspace storage: 12582912
I0620 19:58:04.532305 16504 net.cpp:150] Setting up res4c_branch2b
I0620 19:58:04.532317 16504 net.cpp:157] Top shape: 1 256 60 80 (1228800)
I0620 19:58:04.532320 16504 net.cpp:165] Memory required for data: 4748083284
I0620 19:58:04.532332 16504 layer_factory.hpp:77] Creating layer bn4c_branch2b
I0620 19:58:04.532347 16504 net.cpp:100] Creating Layer bn4c_branch2b
I0620 19:58:04.532353 16504 net.cpp:444] bn4c_branch2b <- res4c_branch2b
I0620 19:58:04.532366 16504 net.cpp:405] bn4c_branch2b -> res4c_branch2b (in-place)
I0620 19:58:04.532557 16504 net.cpp:150] Setting up bn4c_branch2b
I0620 19:58:04.532562 16504 net.cpp:157] Top shape: 1 256 60 80 (1228800)
I0620 19:58:04.532564 16504 net.cpp:165] Memory required for data: 4752998484
I0620 19:58:04.532579 16504 layer_factory.hpp:77] Creating layer scale4c_branch2b
I0620 19:58:04.532589 16504 net.cpp:100] Creating Layer scale4c_branch2b
I0620 19:58:04.532594 16504 net.cpp:444] scale4c_branch2b <- res4c_branch2b
I0620 19:58:04.532605 16504 net.cpp:405] scale4c_branch2b -> res4c_branch2b (in-place)
I0620 19:58:04.532654 16504 layer_factory.hpp:77] Creating layer scale4c_branch2b
I0620 19:58:04.532790 16504 net.cpp:150] Setting up scale4c_branch2b
I0620 19:58:04.532796 16504 net.cpp:157] Top shape: 1 256 60 80 (1228800)
I0620 19:58:04.532799 16504 net.cpp:165] Memory required for data: 4757913684
I0620 19:58:04.532807 16504 layer_factory.hpp:77] Creating layer res4c_branch2b_relu
I0620 19:58:04.532816 16504 net.cpp:100] Creating Layer res4c_branch2b_relu
I0620 19:58:04.532820 16504 net.cpp:444] res4c_branch2b_relu <- res4c_branch2b
I0620 19:58:04.532829 16504 net.cpp:405] res4c_branch2b_relu -> res4c_branch2b (in-place)
I0620 19:58:04.533198 16504 net.cpp:150] Setting up res4c_branch2b_relu
I0620 19:58:04.533207 16504 net.cpp:157] Top shape: 1 256 60 80 (1228800)
I0620 19:58:04.533210 16504 net.cpp:165] Memory required for data: 4762828884
I0620 19:58:04.533213 16504 layer_factory.hpp:77] Creating layer res4c_branch2c
I0620 19:58:04.533228 16504 net.cpp:100] Creating Layer res4c_branch2c
I0620 19:58:04.533233 16504 net.cpp:444] res4c_branch2c <- res4c_branch2b
I0620 19:58:04.533246 16504 net.cpp:418] res4c_branch2c -> res4c_branch2c
I0620 19:58:04.535032 16504 cudnn_conv_layer.cpp:194] Reallocating workspace storage: 92952
I0620 19:58:04.535054 16504 net.cpp:150] Setting up res4c_branch2c
I0620 19:58:04.535061 16504 net.cpp:157] Top shape: 1 1024 60 80 (4915200)
I0620 19:58:04.535063 16504 net.cpp:165] Memory required for data: 4782489684
I0620 19:58:04.535074 16504 layer_factory.hpp:77] Creating layer bn4c_branch2c
I0620 19:58:04.535089 16504 net.cpp:100] Creating Layer bn4c_branch2c
I0620 19:58:04.535094 16504 net.cpp:444] bn4c_branch2c <- res4c_branch2c
I0620 19:58:04.535106 16504 net.cpp:405] bn4c_branch2c -> res4c_branch2c (in-place)
I0620 19:58:04.535295 16504 net.cpp:150] Setting up bn4c_branch2c
I0620 19:58:04.535300 16504 net.cpp:157] Top shape: 1 1024 60 80 (4915200)
I0620 19:58:04.535302 16504 net.cpp:165] Memory required for data: 4802150484
I0620 19:58:04.535316 16504 layer_factory.hpp:77] Creating layer scale4c_branch2c
I0620 19:58:04.535327 16504 net.cpp:100] Creating Layer scale4c_branch2c
I0620 19:58:04.535332 16504 net.cpp:444] scale4c_branch2c <- res4c_branch2c
I0620 19:58:04.535342 16504 net.cpp:405] scale4c_branch2c -> res4c_branch2c (in-place)
I0620 19:58:04.535390 16504 layer_factory.hpp:77] Creating layer scale4c_branch2c
I0620 19:58:04.535532 16504 net.cpp:150] Setting up scale4c_branch2c
I0620 19:58:04.535538 16504 net.cpp:157] Top shape: 1 1024 60 80 (4915200)
I0620 19:58:04.535540 16504 net.cpp:165] Memory required for data: 4821811284
I0620 19:58:04.535549 16504 layer_factory.hpp:77] Creating layer res4c
I0620 19:58:04.535560 16504 net.cpp:100] Creating Layer res4c
I0620 19:58:04.535564 16504 net.cpp:444] res4c <- res4b_res4b_relu_0_split_1
I0620 19:58:04.535573 16504 net.cpp:444] res4c <- res4c_branch2c
I0620 19:58:04.535581 16504 net.cpp:418] res4c -> res4c
I0620 19:58:04.535616 16504 net.cpp:150] Setting up res4c
I0620 19:58:04.535622 16504 net.cpp:157] Top shape: 1 1024 60 80 (4915200)
I0620 19:58:04.535625 16504 net.cpp:165] Memory required for data: 4841472084
I0620 19:58:04.535629 16504 layer_factory.hpp:77] Creating layer res4c_relu
I0620 19:58:04.535637 16504 net.cpp:100] Creating Layer res4c_relu
I0620 19:58:04.535641 16504 net.cpp:444] res4c_relu <- res4c
I0620 19:58:04.535651 16504 net.cpp:405] res4c_relu -> res4c (in-place)
I0620 19:58:04.535789 16504 net.cpp:150] Setting up res4c_relu
I0620 19:58:04.535796 16504 net.cpp:157] Top shape: 1 1024 60 80 (4915200)
I0620 19:58:04.535799 16504 net.cpp:165] Memory required for data: 4861132884
I0620 19:58:04.535802 16504 layer_factory.hpp:77] Creating layer res4c_res4c_relu_0_split
I0620 19:58:04.535811 16504 net.cpp:100] Creating Layer res4c_res4c_relu_0_split
I0620 19:58:04.535816 16504 net.cpp:444] res4c_res4c_relu_0_split <- res4c
I0620 19:58:04.535826 16504 net.cpp:418] res4c_res4c_relu_0_split -> res4c_res4c_relu_0_split_0
I0620 19:58:04.535838 16504 net.cpp:418] res4c_res4c_relu_0_split -> res4c_res4c_relu_0_split_1
I0620 19:58:04.535879 16504 net.cpp:150] Setting up res4c_res4c_relu_0_split
I0620 19:58:04.535887 16504 net.cpp:157] Top shape: 1 1024 60 80 (4915200)
I0620 19:58:04.535892 16504 net.cpp:157] Top shape: 1 1024 60 80 (4915200)
I0620 19:58:04.535892 16504 net.cpp:165] Memory required for data: 4900454484
I0620 19:58:04.535895 16504 layer_factory.hpp:77] Creating layer res4d_branch2a
I0620 19:58:04.535909 16504 net.cpp:100] Creating Layer res4d_branch2a
I0620 19:58:04.535915 16504 net.cpp:444] res4d_branch2a <- res4c_res4c_relu_0_split_0
I0620 19:58:04.535928 16504 net.cpp:418] res4d_branch2a -> res4d_branch2a
I0620 19:58:04.537125 16504 cudnn_conv_layer.cpp:194] Reallocating workspace storage: 92952
I0620 19:58:04.537145 16504 net.cpp:150] Setting up res4d_branch2a
I0620 19:58:04.537153 16504 net.cpp:157] Top shape: 1 256 60 80 (1228800)
I0620 19:58:04.537154 16504 net.cpp:165] Memory required for data: 4905369684
I0620 19:58:04.537164 16504 layer_factory.hpp:77] Creating layer bn4d_branch2a
I0620 19:58:04.537178 16504 net.cpp:100] Creating Layer bn4d_branch2a
I0620 19:58:04.537183 16504 net.cpp:444] bn4d_branch2a <- res4d_branch2a
I0620 19:58:04.537195 16504 net.cpp:405] bn4d_branch2a -> res4d_branch2a (in-place)
I0620 19:58:04.537384 16504 net.cpp:150] Setting up bn4d_branch2a
I0620 19:58:04.537389 16504 net.cpp:157] Top shape: 1 256 60 80 (1228800)
I0620 19:58:04.537392 16504 net.cpp:165] Memory required for data: 4910284884
I0620 19:58:04.537406 16504 layer_factory.hpp:77] Creating layer scale4d_branch2a
I0620 19:58:04.537417 16504 net.cpp:100] Creating Layer scale4d_branch2a
I0620 19:58:04.537422 16504 net.cpp:444] scale4d_branch2a <- res4d_branch2a
I0620 19:58:04.537432 16504 net.cpp:405] scale4d_branch2a -> res4d_branch2a (in-place)
I0620 19:58:04.537482 16504 layer_factory.hpp:77] Creating layer scale4d_branch2a
I0620 19:58:04.537619 16504 net.cpp:150] Setting up scale4d_branch2a
I0620 19:58:04.537627 16504 net.cpp:157] Top shape: 1 256 60 80 (1228800)
I0620 19:58:04.537629 16504 net.cpp:165] Memory required for data: 4915200084
I0620 19:58:04.537638 16504 layer_factory.hpp:77] Creating layer res4d_branch2a_relu
I0620 19:58:04.537647 16504 net.cpp:100] Creating Layer res4d_branch2a_relu
I0620 19:58:04.537652 16504 net.cpp:444] res4d_branch2a_relu <- res4d_branch2a
I0620 19:58:04.537667 16504 net.cpp:405] res4d_branch2a_relu -> res4d_branch2a (in-place)
I0620 19:58:04.537809 16504 net.cpp:150] Setting up res4d_branch2a_relu
I0620 19:58:04.537817 16504 net.cpp:157] Top shape: 1 256 60 80 (1228800)
I0620 19:58:04.537819 16504 net.cpp:165] Memory required for data: 4920115284
I0620 19:58:04.537823 16504 layer_factory.hpp:77] Creating layer res4d_branch2b
I0620 19:58:04.537835 16504 net.cpp:100] Creating Layer res4d_branch2b
I0620 19:58:04.537840 16504 net.cpp:444] res4d_branch2b <- res4d_branch2a
I0620 19:58:04.537854 16504 net.cpp:418] res4d_branch2b -> res4d_branch2b
I0620 19:58:04.540141 16504 cudnn_conv_layer.cpp:194] Reallocating workspace storage: 12582912
I0620 19:58:04.540372 16504 net.cpp:150] Setting up res4d_branch2b
I0620 19:58:04.540383 16504 net.cpp:157] Top shape: 1 256 60 80 (1228800)
I0620 19:58:04.540386 16504 net.cpp:165] Memory required for data: 4925030484
I0620 19:58:04.540400 16504 layer_factory.hpp:77] Creating layer bn4d_branch2b
I0620 19:58:04.540415 16504 net.cpp:100] Creating Layer bn4d_branch2b
I0620 19:58:04.540421 16504 net.cpp:444] bn4d_branch2b <- res4d_branch2b
I0620 19:58:04.540433 16504 net.cpp:405] bn4d_branch2b -> res4d_branch2b (in-place)
I0620 19:58:04.540629 16504 net.cpp:150] Setting up bn4d_branch2b
I0620 19:58:04.540637 16504 net.cpp:157] Top shape: 1 256 60 80 (1228800)
I0620 19:58:04.540637 16504 net.cpp:165] Memory required for data: 4929945684
I0620 19:58:04.540652 16504 layer_factory.hpp:77] Creating layer scale4d_branch2b
I0620 19:58:04.540664 16504 net.cpp:100] Creating Layer scale4d_branch2b
I0620 19:58:04.540669 16504 net.cpp:444] scale4d_branch2b <- res4d_branch2b
I0620 19:58:04.540680 16504 net.cpp:405] scale4d_branch2b -> res4d_branch2b (in-place)
I0620 19:58:04.540732 16504 layer_factory.hpp:77] Creating layer scale4d_branch2b
I0620 19:58:04.540871 16504 net.cpp:150] Setting up scale4d_branch2b
I0620 19:58:04.540879 16504 net.cpp:157] Top shape: 1 256 60 80 (1228800)
I0620 19:58:04.540880 16504 net.cpp:165] Memory required for data: 4934860884
I0620 19:58:04.540890 16504 layer_factory.hpp:77] Creating layer res4d_branch2b_relu
I0620 19:58:04.540900 16504 net.cpp:100] Creating Layer res4d_branch2b_relu
I0620 19:58:04.540905 16504 net.cpp:444] res4d_branch2b_relu <- res4d_branch2b
I0620 19:58:04.540915 16504 net.cpp:405] res4d_branch2b_relu -> res4d_branch2b (in-place)
I0620 19:58:04.541283 16504 net.cpp:150] Setting up res4d_branch2b_relu
I0620 19:58:04.541292 16504 net.cpp:157] Top shape: 1 256 60 80 (1228800)
I0620 19:58:04.541294 16504 net.cpp:165] Memory required for data: 4939776084
I0620 19:58:04.541299 16504 layer_factory.hpp:77] Creating layer res4d_branch2c
I0620 19:58:04.541314 16504 net.cpp:100] Creating Layer res4d_branch2c
I0620 19:58:04.541321 16504 net.cpp:444] res4d_branch2c <- res4d_branch2b
I0620 19:58:04.541335 16504 net.cpp:418] res4d_branch2c -> res4d_branch2c
I0620 19:58:04.543124 16504 cudnn_conv_layer.cpp:194] Reallocating workspace storage: 92952
I0620 19:58:04.543146 16504 net.cpp:150] Setting up res4d_branch2c
I0620 19:58:04.543155 16504 net.cpp:157] Top shape: 1 1024 60 80 (4915200)
I0620 19:58:04.543159 16504 net.cpp:165] Memory required for data: 4959436884
I0620 19:58:04.543169 16504 layer_factory.hpp:77] Creating layer bn4d_branch2c
I0620 19:58:04.543182 16504 net.cpp:100] Creating Layer bn4d_branch2c
I0620 19:58:04.543190 16504 net.cpp:444] bn4d_branch2c <- res4d_branch2c
I0620 19:58:04.543202 16504 net.cpp:405] bn4d_branch2c -> res4d_branch2c (in-place)
I0620 19:58:04.543395 16504 net.cpp:150] Setting up bn4d_branch2c
I0620 19:58:04.543401 16504 net.cpp:157] Top shape: 1 1024 60 80 (4915200)
I0620 19:58:04.543403 16504 net.cpp:165] Memory required for data: 4979097684
I0620 19:58:04.543417 16504 layer_factory.hpp:77] Creating layer scale4d_branch2c
I0620 19:58:04.543431 16504 net.cpp:100] Creating Layer scale4d_branch2c
I0620 19:58:04.543435 16504 net.cpp:444] scale4d_branch2c <- res4d_branch2c
I0620 19:58:04.543445 16504 net.cpp:405] scale4d_branch2c -> res4d_branch2c (in-place)
I0620 19:58:04.543493 16504 layer_factory.hpp:77] Creating layer scale4d_branch2c
I0620 19:58:04.543635 16504 net.cpp:150] Setting up scale4d_branch2c
I0620 19:58:04.543642 16504 net.cpp:157] Top shape: 1 1024 60 80 (4915200)
I0620 19:58:04.543645 16504 net.cpp:165] Memory required for data: 4998758484
I0620 19:58:04.543654 16504 layer_factory.hpp:77] Creating layer res4d
I0620 19:58:04.543663 16504 net.cpp:100] Creating Layer res4d
I0620 19:58:04.543669 16504 net.cpp:444] res4d <- res4c_res4c_relu_0_split_1
I0620 19:58:04.543678 16504 net.cpp:444] res4d <- res4d_branch2c
I0620 19:58:04.543687 16504 net.cpp:418] res4d -> res4d
I0620 19:58:04.543721 16504 net.cpp:150] Setting up res4d
I0620 19:58:04.543728 16504 net.cpp:157] Top shape: 1 1024 60 80 (4915200)
I0620 19:58:04.543731 16504 net.cpp:165] Memory required for data: 5018419284
I0620 19:58:04.543735 16504 layer_factory.hpp:77] Creating layer res4d_relu
I0620 19:58:04.543745 16504 net.cpp:100] Creating Layer res4d_relu
I0620 19:58:04.543748 16504 net.cpp:444] res4d_relu <- res4d
I0620 19:58:04.543758 16504 net.cpp:405] res4d_relu -> res4d (in-place)
I0620 19:58:04.543900 16504 net.cpp:150] Setting up res4d_relu
I0620 19:58:04.543905 16504 net.cpp:157] Top shape: 1 1024 60 80 (4915200)
I0620 19:58:04.543908 16504 net.cpp:165] Memory required for data: 5038080084
I0620 19:58:04.543912 16504 layer_factory.hpp:77] Creating layer res4d_res4d_relu_0_split
I0620 19:58:04.543921 16504 net.cpp:100] Creating Layer res4d_res4d_relu_0_split
I0620 19:58:04.543926 16504 net.cpp:444] res4d_res4d_relu_0_split <- res4d
I0620 19:58:04.543939 16504 net.cpp:418] res4d_res4d_relu_0_split -> res4d_res4d_relu_0_split_0
I0620 19:58:04.543952 16504 net.cpp:418] res4d_res4d_relu_0_split -> res4d_res4d_relu_0_split_1
I0620 19:58:04.543994 16504 net.cpp:150] Setting up res4d_res4d_relu_0_split
I0620 19:58:04.544001 16504 net.cpp:157] Top shape: 1 1024 60 80 (4915200)
I0620 19:58:04.544005 16504 net.cpp:157] Top shape: 1 1024 60 80 (4915200)
I0620 19:58:04.544008 16504 net.cpp:165] Memory required for data: 5077401684
I0620 19:58:04.544010 16504 layer_factory.hpp:77] Creating layer res4e_branch2a
I0620 19:58:04.544024 16504 net.cpp:100] Creating Layer res4e_branch2a
I0620 19:58:04.544029 16504 net.cpp:444] res4e_branch2a <- res4d_res4d_relu_0_split_0
I0620 19:58:04.544041 16504 net.cpp:418] res4e_branch2a -> res4e_branch2a
I0620 19:58:04.545243 16504 cudnn_conv_layer.cpp:194] Reallocating workspace storage: 92952
I0620 19:58:04.545261 16504 net.cpp:150] Setting up res4e_branch2a
I0620 19:58:04.545267 16504 net.cpp:157] Top shape: 1 256 60 80 (1228800)
I0620 19:58:04.545270 16504 net.cpp:165] Memory required for data: 5082316884
I0620 19:58:04.545279 16504 layer_factory.hpp:77] Creating layer bn4e_branch2a
I0620 19:58:04.545292 16504 net.cpp:100] Creating Layer bn4e_branch2a
I0620 19:58:04.545298 16504 net.cpp:444] bn4e_branch2a <- res4e_branch2a
I0620 19:58:04.545311 16504 net.cpp:405] bn4e_branch2a -> res4e_branch2a (in-place)
I0620 19:58:04.545501 16504 net.cpp:150] Setting up bn4e_branch2a
I0620 19:58:04.545508 16504 net.cpp:157] Top shape: 1 256 60 80 (1228800)
I0620 19:58:04.545511 16504 net.cpp:165] Memory required for data: 5087232084
I0620 19:58:04.545524 16504 layer_factory.hpp:77] Creating layer scale4e_branch2a
I0620 19:58:04.545537 16504 net.cpp:100] Creating Layer scale4e_branch2a
I0620 19:58:04.545542 16504 net.cpp:444] scale4e_branch2a <- res4e_branch2a
I0620 19:58:04.545553 16504 net.cpp:405] scale4e_branch2a -> res4e_branch2a (in-place)
I0620 19:58:04.545603 16504 layer_factory.hpp:77] Creating layer scale4e_branch2a
I0620 19:58:04.545774 16504 net.cpp:150] Setting up scale4e_branch2a
I0620 19:58:04.545781 16504 net.cpp:157] Top shape: 1 256 60 80 (1228800)
I0620 19:58:04.545783 16504 net.cpp:165] Memory required for data: 5092147284
I0620 19:58:04.545794 16504 layer_factory.hpp:77] Creating layer res4e_branch2a_relu
I0620 19:58:04.545804 16504 net.cpp:100] Creating Layer res4e_branch2a_relu
I0620 19:58:04.545809 16504 net.cpp:444] res4e_branch2a_relu <- res4e_branch2a
I0620 19:58:04.545819 16504 net.cpp:405] res4e_branch2a_relu -> res4e_branch2a (in-place)
I0620 19:58:04.545961 16504 net.cpp:150] Setting up res4e_branch2a_relu
I0620 19:58:04.545969 16504 net.cpp:157] Top shape: 1 256 60 80 (1228800)
I0620 19:58:04.545970 16504 net.cpp:165] Memory required for data: 5097062484
I0620 19:58:04.545974 16504 layer_factory.hpp:77] Creating layer res4e_branch2b
I0620 19:58:04.545989 16504 net.cpp:100] Creating Layer res4e_branch2b
I0620 19:58:04.545994 16504 net.cpp:444] res4e_branch2b <- res4e_branch2a
I0620 19:58:04.546008 16504 net.cpp:418] res4e_branch2b -> res4e_branch2b
I0620 19:58:04.548280 16504 cudnn_conv_layer.cpp:194] Reallocating workspace storage: 12582912
I0620 19:58:04.548521 16504 net.cpp:150] Setting up res4e_branch2b
I0620 19:58:04.548532 16504 net.cpp:157] Top shape: 1 256 60 80 (1228800)
I0620 19:58:04.548534 16504 net.cpp:165] Memory required for data: 5101977684
I0620 19:58:04.548548 16504 layer_factory.hpp:77] Creating layer bn4e_branch2b
I0620 19:58:04.548564 16504 net.cpp:100] Creating Layer bn4e_branch2b
I0620 19:58:04.548570 16504 net.cpp:444] bn4e_branch2b <- res4e_branch2b
I0620 19:58:04.548584 16504 net.cpp:405] bn4e_branch2b -> res4e_branch2b (in-place)
I0620 19:58:04.548782 16504 net.cpp:150] Setting up bn4e_branch2b
I0620 19:58:04.548789 16504 net.cpp:157] Top shape: 1 256 60 80 (1228800)
I0620 19:58:04.548790 16504 net.cpp:165] Memory required for data: 5106892884
I0620 19:58:04.548804 16504 layer_factory.hpp:77] Creating layer scale4e_branch2b
I0620 19:58:04.548817 16504 net.cpp:100] Creating Layer scale4e_branch2b
I0620 19:58:04.548823 16504 net.cpp:444] scale4e_branch2b <- res4e_branch2b
I0620 19:58:04.548835 16504 net.cpp:405] scale4e_branch2b -> res4e_branch2b (in-place)
I0620 19:58:04.548884 16504 layer_factory.hpp:77] Creating layer scale4e_branch2b
I0620 19:58:04.549026 16504 net.cpp:150] Setting up scale4e_branch2b
I0620 19:58:04.549032 16504 net.cpp:157] Top shape: 1 256 60 80 (1228800)
I0620 19:58:04.549034 16504 net.cpp:165] Memory required for data: 5111808084
I0620 19:58:04.549043 16504 layer_factory.hpp:77] Creating layer res4e_branch2b_relu
I0620 19:58:04.549053 16504 net.cpp:100] Creating Layer res4e_branch2b_relu
I0620 19:58:04.549059 16504 net.cpp:444] res4e_branch2b_relu <- res4e_branch2b
I0620 19:58:04.549069 16504 net.cpp:405] res4e_branch2b_relu -> res4e_branch2b (in-place)
I0620 19:58:04.549464 16504 net.cpp:150] Setting up res4e_branch2b_relu
I0620 19:58:04.549474 16504 net.cpp:157] Top shape: 1 256 60 80 (1228800)
I0620 19:58:04.549476 16504 net.cpp:165] Memory required for data: 5116723284
I0620 19:58:04.549480 16504 layer_factory.hpp:77] Creating layer res4e_branch2c
I0620 19:58:04.549495 16504 net.cpp:100] Creating Layer res4e_branch2c
I0620 19:58:04.549501 16504 net.cpp:444] res4e_branch2c <- res4e_branch2b
I0620 19:58:04.549517 16504 net.cpp:418] res4e_branch2c -> res4e_branch2c
I0620 19:58:04.551443 16504 cudnn_conv_layer.cpp:194] Reallocating workspace storage: 92952
I0620 19:58:04.551470 16504 net.cpp:150] Setting up res4e_branch2c
I0620 19:58:04.551481 16504 net.cpp:157] Top shape: 1 1024 60 80 (4915200)
I0620 19:58:04.551483 16504 net.cpp:165] Memory required for data: 5136384084
I0620 19:58:04.551499 16504 layer_factory.hpp:77] Creating layer bn4e_branch2c
I0620 19:58:04.551518 16504 net.cpp:100] Creating Layer bn4e_branch2c
I0620 19:58:04.551525 16504 net.cpp:444] bn4e_branch2c <- res4e_branch2c
I0620 19:58:04.551539 16504 net.cpp:405] bn4e_branch2c -> res4e_branch2c (in-place)
I0620 19:58:04.551745 16504 net.cpp:150] Setting up bn4e_branch2c
I0620 19:58:04.551751 16504 net.cpp:157] Top shape: 1 1024 60 80 (4915200)
I0620 19:58:04.551753 16504 net.cpp:165] Memory required for data: 5156044884
I0620 19:58:04.551767 16504 layer_factory.hpp:77] Creating layer scale4e_branch2c
I0620 19:58:04.551780 16504 net.cpp:100] Creating Layer scale4e_branch2c
I0620 19:58:04.551785 16504 net.cpp:444] scale4e_branch2c <- res4e_branch2c
I0620 19:58:04.551797 16504 net.cpp:405] scale4e_branch2c -> res4e_branch2c (in-place)
I0620 19:58:04.551844 16504 layer_factory.hpp:77] Creating layer scale4e_branch2c
I0620 19:58:04.551995 16504 net.cpp:150] Setting up scale4e_branch2c
I0620 19:58:04.552001 16504 net.cpp:157] Top shape: 1 1024 60 80 (4915200)
I0620 19:58:04.552003 16504 net.cpp:165] Memory required for data: 5175705684
I0620 19:58:04.552012 16504 layer_factory.hpp:77] Creating layer res4e
I0620 19:58:04.552021 16504 net.cpp:100] Creating Layer res4e
I0620 19:58:04.552026 16504 net.cpp:444] res4e <- res4d_res4d_relu_0_split_1
I0620 19:58:04.552034 16504 net.cpp:444] res4e <- res4e_branch2c
I0620 19:58:04.552043 16504 net.cpp:418] res4e -> res4e
I0620 19:58:04.552080 16504 net.cpp:150] Setting up res4e
I0620 19:58:04.552088 16504 net.cpp:157] Top shape: 1 1024 60 80 (4915200)
I0620 19:58:04.552090 16504 net.cpp:165] Memory required for data: 5195366484
I0620 19:58:04.552093 16504 layer_factory.hpp:77] Creating layer res4e_relu
I0620 19:58:04.552103 16504 net.cpp:100] Creating Layer res4e_relu
I0620 19:58:04.552105 16504 net.cpp:444] res4e_relu <- res4e
I0620 19:58:04.552115 16504 net.cpp:405] res4e_relu -> res4e (in-place)
I0620 19:58:04.552264 16504 net.cpp:150] Setting up res4e_relu
I0620 19:58:04.552271 16504 net.cpp:157] Top shape: 1 1024 60 80 (4915200)
I0620 19:58:04.552273 16504 net.cpp:165] Memory required for data: 5215027284
I0620 19:58:04.552278 16504 layer_factory.hpp:77] Creating layer res4e_res4e_relu_0_split
I0620 19:58:04.552285 16504 net.cpp:100] Creating Layer res4e_res4e_relu_0_split
I0620 19:58:04.552290 16504 net.cpp:444] res4e_res4e_relu_0_split <- res4e
I0620 19:58:04.552302 16504 net.cpp:418] res4e_res4e_relu_0_split -> res4e_res4e_relu_0_split_0
I0620 19:58:04.552315 16504 net.cpp:418] res4e_res4e_relu_0_split -> res4e_res4e_relu_0_split_1
I0620 19:58:04.552358 16504 net.cpp:150] Setting up res4e_res4e_relu_0_split
I0620 19:58:04.552366 16504 net.cpp:157] Top shape: 1 1024 60 80 (4915200)
I0620 19:58:04.552369 16504 net.cpp:157] Top shape: 1 1024 60 80 (4915200)
I0620 19:58:04.552371 16504 net.cpp:165] Memory required for data: 5254348884
I0620 19:58:04.552374 16504 layer_factory.hpp:77] Creating layer res4f_branch2a
I0620 19:58:04.552388 16504 net.cpp:100] Creating Layer res4f_branch2a
I0620 19:58:04.552394 16504 net.cpp:444] res4f_branch2a <- res4e_res4e_relu_0_split_0
I0620 19:58:04.552407 16504 net.cpp:418] res4f_branch2a -> res4f_branch2a
I0620 19:58:04.553706 16504 cudnn_conv_layer.cpp:194] Reallocating workspace storage: 92952
I0620 19:58:04.553730 16504 net.cpp:150] Setting up res4f_branch2a
I0620 19:58:04.553737 16504 net.cpp:157] Top shape: 1 256 60 80 (1228800)
I0620 19:58:04.553740 16504 net.cpp:165] Memory required for data: 5259264084
I0620 19:58:04.553750 16504 layer_factory.hpp:77] Creating layer bn4f_branch2a
I0620 19:58:04.553762 16504 net.cpp:100] Creating Layer bn4f_branch2a
I0620 19:58:04.553768 16504 net.cpp:444] bn4f_branch2a <- res4f_branch2a
I0620 19:58:04.553781 16504 net.cpp:405] bn4f_branch2a -> res4f_branch2a (in-place)
I0620 19:58:04.553977 16504 net.cpp:150] Setting up bn4f_branch2a
I0620 19:58:04.553983 16504 net.cpp:157] Top shape: 1 256 60 80 (1228800)
I0620 19:58:04.553987 16504 net.cpp:165] Memory required for data: 5264179284
I0620 19:58:04.554000 16504 layer_factory.hpp:77] Creating layer scale4f_branch2a
I0620 19:58:04.554013 16504 net.cpp:100] Creating Layer scale4f_branch2a
I0620 19:58:04.554018 16504 net.cpp:444] scale4f_branch2a <- res4f_branch2a
I0620 19:58:04.554029 16504 net.cpp:405] scale4f_branch2a -> res4f_branch2a (in-place)
I0620 19:58:04.554080 16504 layer_factory.hpp:77] Creating layer scale4f_branch2a
I0620 19:58:04.554221 16504 net.cpp:150] Setting up scale4f_branch2a
I0620 19:58:04.554227 16504 net.cpp:157] Top shape: 1 256 60 80 (1228800)
I0620 19:58:04.554230 16504 net.cpp:165] Memory required for data: 5269094484
I0620 19:58:04.554239 16504 layer_factory.hpp:77] Creating layer res4f_branch2a_relu
I0620 19:58:04.554249 16504 net.cpp:100] Creating Layer res4f_branch2a_relu
I0620 19:58:04.554253 16504 net.cpp:444] res4f_branch2a_relu <- res4f_branch2a
I0620 19:58:04.554265 16504 net.cpp:405] res4f_branch2a_relu -> res4f_branch2a (in-place)
I0620 19:58:04.554407 16504 net.cpp:150] Setting up res4f_branch2a_relu
I0620 19:58:04.554414 16504 net.cpp:157] Top shape: 1 256 60 80 (1228800)
I0620 19:58:04.554416 16504 net.cpp:165] Memory required for data: 5274009684
I0620 19:58:04.554420 16504 layer_factory.hpp:77] Creating layer res4f_branch2b
I0620 19:58:04.554435 16504 net.cpp:100] Creating Layer res4f_branch2b
I0620 19:58:04.554440 16504 net.cpp:444] res4f_branch2b <- res4f_branch2a
I0620 19:58:04.554452 16504 net.cpp:418] res4f_branch2b -> res4f_branch2b
I0620 19:58:04.556771 16504 cudnn_conv_layer.cpp:194] Reallocating workspace storage: 12582912
I0620 19:58:04.557011 16504 net.cpp:150] Setting up res4f_branch2b
I0620 19:58:04.557024 16504 net.cpp:157] Top shape: 1 256 60 80 (1228800)
I0620 19:58:04.557025 16504 net.cpp:165] Memory required for data: 5278924884
I0620 19:58:04.557037 16504 layer_factory.hpp:77] Creating layer bn4f_branch2b
I0620 19:58:04.557050 16504 net.cpp:100] Creating Layer bn4f_branch2b
I0620 19:58:04.557056 16504 net.cpp:444] bn4f_branch2b <- res4f_branch2b
I0620 19:58:04.557070 16504 net.cpp:405] bn4f_branch2b -> res4f_branch2b (in-place)
I0620 19:58:04.557271 16504 net.cpp:150] Setting up bn4f_branch2b
I0620 19:58:04.557276 16504 net.cpp:157] Top shape: 1 256 60 80 (1228800)
I0620 19:58:04.557279 16504 net.cpp:165] Memory required for data: 5283840084
I0620 19:58:04.557293 16504 layer_factory.hpp:77] Creating layer scale4f_branch2b
I0620 19:58:04.557305 16504 net.cpp:100] Creating Layer scale4f_branch2b
I0620 19:58:04.557309 16504 net.cpp:444] scale4f_branch2b <- res4f_branch2b
I0620 19:58:04.557320 16504 net.cpp:405] scale4f_branch2b -> res4f_branch2b (in-place)
I0620 19:58:04.557369 16504 layer_factory.hpp:77] Creating layer scale4f_branch2b
I0620 19:58:04.557512 16504 net.cpp:150] Setting up scale4f_branch2b
I0620 19:58:04.557519 16504 net.cpp:157] Top shape: 1 256 60 80 (1228800)
I0620 19:58:04.557521 16504 net.cpp:165] Memory required for data: 5288755284
I0620 19:58:04.557530 16504 layer_factory.hpp:77] Creating layer res4f_branch2b_relu
I0620 19:58:04.557538 16504 net.cpp:100] Creating Layer res4f_branch2b_relu
I0620 19:58:04.557543 16504 net.cpp:444] res4f_branch2b_relu <- res4f_branch2b
I0620 19:58:04.557554 16504 net.cpp:405] res4f_branch2b_relu -> res4f_branch2b (in-place)
I0620 19:58:04.557720 16504 net.cpp:150] Setting up res4f_branch2b_relu
I0620 19:58:04.557727 16504 net.cpp:157] Top shape: 1 256 60 80 (1228800)
I0620 19:58:04.557729 16504 net.cpp:165] Memory required for data: 5293670484
I0620 19:58:04.557734 16504 layer_factory.hpp:77] Creating layer res4f_branch2c
I0620 19:58:04.557749 16504 net.cpp:100] Creating Layer res4f_branch2c
I0620 19:58:04.557754 16504 net.cpp:444] res4f_branch2c <- res4f_branch2b
I0620 19:58:04.557766 16504 net.cpp:418] res4f_branch2c -> res4f_branch2c
I0620 19:58:04.559551 16504 cudnn_conv_layer.cpp:194] Reallocating workspace storage: 92952
I0620 19:58:04.559574 16504 net.cpp:150] Setting up res4f_branch2c
I0620 19:58:04.559582 16504 net.cpp:157] Top shape: 1 1024 60 80 (4915200)
I0620 19:58:04.559584 16504 net.cpp:165] Memory required for data: 5313331284
I0620 19:58:04.559594 16504 layer_factory.hpp:77] Creating layer bn4f_branch2c
I0620 19:58:04.559609 16504 net.cpp:100] Creating Layer bn4f_branch2c
I0620 19:58:04.559614 16504 net.cpp:444] bn4f_branch2c <- res4f_branch2c
I0620 19:58:04.559628 16504 net.cpp:405] bn4f_branch2c -> res4f_branch2c (in-place)
I0620 19:58:04.559826 16504 net.cpp:150] Setting up bn4f_branch2c
I0620 19:58:04.559833 16504 net.cpp:157] Top shape: 1 1024 60 80 (4915200)
I0620 19:58:04.559834 16504 net.cpp:165] Memory required for data: 5332992084
I0620 19:58:04.559881 16504 layer_factory.hpp:77] Creating layer scale4f_branch2c
I0620 19:58:04.559895 16504 net.cpp:100] Creating Layer scale4f_branch2c
I0620 19:58:04.559900 16504 net.cpp:444] scale4f_branch2c <- res4f_branch2c
I0620 19:58:04.559909 16504 net.cpp:405] scale4f_branch2c -> res4f_branch2c (in-place)
I0620 19:58:04.559958 16504 layer_factory.hpp:77] Creating layer scale4f_branch2c
I0620 19:58:04.560103 16504 net.cpp:150] Setting up scale4f_branch2c
I0620 19:58:04.560111 16504 net.cpp:157] Top shape: 1 1024 60 80 (4915200)
I0620 19:58:04.560112 16504 net.cpp:165] Memory required for data: 5352652884
I0620 19:58:04.560122 16504 layer_factory.hpp:77] Creating layer res4f
I0620 19:58:04.560132 16504 net.cpp:100] Creating Layer res4f
I0620 19:58:04.560137 16504 net.cpp:444] res4f <- res4e_res4e_relu_0_split_1
I0620 19:58:04.560145 16504 net.cpp:444] res4f <- res4f_branch2c
I0620 19:58:04.560154 16504 net.cpp:418] res4f -> res4f
I0620 19:58:04.560187 16504 net.cpp:150] Setting up res4f
I0620 19:58:04.560195 16504 net.cpp:157] Top shape: 1 1024 60 80 (4915200)
I0620 19:58:04.560197 16504 net.cpp:165] Memory required for data: 5372313684
I0620 19:58:04.560200 16504 layer_factory.hpp:77] Creating layer res4f_relu
I0620 19:58:04.560209 16504 net.cpp:100] Creating Layer res4f_relu
I0620 19:58:04.560214 16504 net.cpp:444] res4f_relu <- res4f
I0620 19:58:04.560223 16504 net.cpp:405] res4f_relu -> res4f (in-place)
I0620 19:58:04.560606 16504 net.cpp:150] Setting up res4f_relu
I0620 19:58:04.560616 16504 net.cpp:157] Top shape: 1 1024 60 80 (4915200)
I0620 19:58:04.560618 16504 net.cpp:165] Memory required for data: 5391974484
I0620 19:58:04.560623 16504 layer_factory.hpp:77] Creating layer res4f_res4f_relu_0_split
I0620 19:58:04.560633 16504 net.cpp:100] Creating Layer res4f_res4f_relu_0_split
I0620 19:58:04.560638 16504 net.cpp:444] res4f_res4f_relu_0_split <- res4f
I0620 19:58:04.560652 16504 net.cpp:418] res4f_res4f_relu_0_split -> res4f_res4f_relu_0_split_0
I0620 19:58:04.560665 16504 net.cpp:418] res4f_res4f_relu_0_split -> res4f_res4f_relu_0_split_1
I0620 19:58:04.560676 16504 net.cpp:418] res4f_res4f_relu_0_split -> res4f_res4f_relu_0_split_2
I0620 19:58:04.560732 16504 net.cpp:150] Setting up res4f_res4f_relu_0_split
I0620 19:58:04.560740 16504 net.cpp:157] Top shape: 1 1024 60 80 (4915200)
I0620 19:58:04.560744 16504 net.cpp:157] Top shape: 1 1024 60 80 (4915200)
I0620 19:58:04.560746 16504 net.cpp:157] Top shape: 1 1024 60 80 (4915200)
I0620 19:58:04.560748 16504 net.cpp:165] Memory required for data: 5450956884
I0620 19:58:04.560752 16504 layer_factory.hpp:77] Creating layer res5a_branch1
I0620 19:58:04.560765 16504 net.cpp:100] Creating Layer res5a_branch1
I0620 19:58:04.560770 16504 net.cpp:444] res5a_branch1 <- res4f_res4f_relu_0_split_0
I0620 19:58:04.560782 16504 net.cpp:418] res5a_branch1 -> res5a_branch1
I0620 19:58:04.566406 16504 cudnn_conv_layer.cpp:194] Reallocating workspace storage: 86424
I0620 19:58:04.566437 16504 net.cpp:150] Setting up res5a_branch1
I0620 19:58:04.566452 16504 net.cpp:157] Top shape: 1 2048 60 80 (9830400)
I0620 19:58:04.566455 16504 net.cpp:165] Memory required for data: 5490278484
I0620 19:58:04.566474 16504 layer_factory.hpp:77] Creating layer bn5a_branch1
I0620 19:58:04.566501 16504 net.cpp:100] Creating Layer bn5a_branch1
I0620 19:58:04.566511 16504 net.cpp:444] bn5a_branch1 <- res5a_branch1
I0620 19:58:04.566529 16504 net.cpp:405] bn5a_branch1 -> res5a_branch1 (in-place)
I0620 19:58:04.566751 16504 net.cpp:150] Setting up bn5a_branch1
I0620 19:58:04.566757 16504 net.cpp:157] Top shape: 1 2048 60 80 (9830400)
I0620 19:58:04.566761 16504 net.cpp:165] Memory required for data: 5529600084
I0620 19:58:04.566776 16504 layer_factory.hpp:77] Creating layer scale5a_branch1
I0620 19:58:04.566790 16504 net.cpp:100] Creating Layer scale5a_branch1
I0620 19:58:04.566795 16504 net.cpp:444] scale5a_branch1 <- res5a_branch1
I0620 19:58:04.566807 16504 net.cpp:405] scale5a_branch1 -> res5a_branch1 (in-place)
I0620 19:58:04.566859 16504 layer_factory.hpp:77] Creating layer scale5a_branch1
I0620 19:58:04.567013 16504 net.cpp:150] Setting up scale5a_branch1
I0620 19:58:04.567020 16504 net.cpp:157] Top shape: 1 2048 60 80 (9830400)
I0620 19:58:04.567023 16504 net.cpp:165] Memory required for data: 5568921684
I0620 19:58:04.567032 16504 layer_factory.hpp:77] Creating layer res5a_branch2a
I0620 19:58:04.567047 16504 net.cpp:100] Creating Layer res5a_branch2a
I0620 19:58:04.567054 16504 net.cpp:444] res5a_branch2a <- res4f_res4f_relu_0_split_1
I0620 19:58:04.567066 16504 net.cpp:418] res5a_branch2a -> res5a_branch2a
I0620 19:58:04.569247 16504 cudnn_conv_layer.cpp:194] Reallocating workspace storage: 92952
I0620 19:58:04.569269 16504 net.cpp:150] Setting up res5a_branch2a
I0620 19:58:04.569277 16504 net.cpp:157] Top shape: 1 512 60 80 (2457600)
I0620 19:58:04.569279 16504 net.cpp:165] Memory required for data: 5578752084
I0620 19:58:04.569289 16504 layer_factory.hpp:77] Creating layer bn5a_branch2a
I0620 19:58:04.569303 16504 net.cpp:100] Creating Layer bn5a_branch2a
I0620 19:58:04.569309 16504 net.cpp:444] bn5a_branch2a <- res5a_branch2a
I0620 19:58:04.569322 16504 net.cpp:405] bn5a_branch2a -> res5a_branch2a (in-place)
I0620 19:58:04.569521 16504 net.cpp:150] Setting up bn5a_branch2a
I0620 19:58:04.569527 16504 net.cpp:157] Top shape: 1 512 60 80 (2457600)
I0620 19:58:04.569530 16504 net.cpp:165] Memory required for data: 5588582484
I0620 19:58:04.569545 16504 layer_factory.hpp:77] Creating layer scale5a_branch2a
I0620 19:58:04.569557 16504 net.cpp:100] Creating Layer scale5a_branch2a
I0620 19:58:04.569562 16504 net.cpp:444] scale5a_branch2a <- res5a_branch2a
I0620 19:58:04.569572 16504 net.cpp:405] scale5a_branch2a -> res5a_branch2a (in-place)
I0620 19:58:04.569620 16504 layer_factory.hpp:77] Creating layer scale5a_branch2a
I0620 19:58:04.569773 16504 net.cpp:150] Setting up scale5a_branch2a
I0620 19:58:04.569782 16504 net.cpp:157] Top shape: 1 512 60 80 (2457600)
I0620 19:58:04.569783 16504 net.cpp:165] Memory required for data: 5598412884
I0620 19:58:04.569792 16504 layer_factory.hpp:77] Creating layer res5a_branch2a_relu
I0620 19:58:04.569802 16504 net.cpp:100] Creating Layer res5a_branch2a_relu
I0620 19:58:04.569808 16504 net.cpp:444] res5a_branch2a_relu <- res5a_branch2a
I0620 19:58:04.569818 16504 net.cpp:405] res5a_branch2a_relu -> res5a_branch2a (in-place)
I0620 19:58:04.569963 16504 net.cpp:150] Setting up res5a_branch2a_relu
I0620 19:58:04.569970 16504 net.cpp:157] Top shape: 1 512 60 80 (2457600)
I0620 19:58:04.569972 16504 net.cpp:165] Memory required for data: 5608243284
I0620 19:58:04.569977 16504 layer_factory.hpp:77] Creating layer res5a_branch2b
I0620 19:58:04.569991 16504 net.cpp:100] Creating Layer res5a_branch2b
I0620 19:58:04.569996 16504 net.cpp:444] res5a_branch2b <- res5a_branch2a
I0620 19:58:04.570009 16504 net.cpp:418] res5a_branch2b -> res5a_branch2b
I0620 19:58:04.575381 16504 net.cpp:150] Setting up res5a_branch2b
I0620 19:58:04.575410 16504 net.cpp:157] Top shape: 1 512 60 80 (2457600)
I0620 19:58:04.575413 16504 net.cpp:165] Memory required for data: 5618073684
I0620 19:58:04.575435 16504 layer_factory.hpp:77] Creating layer bn5a_branch2b
I0620 19:58:04.575461 16504 net.cpp:100] Creating Layer bn5a_branch2b
I0620 19:58:04.575471 16504 net.cpp:444] bn5a_branch2b <- res5a_branch2b
I0620 19:58:04.575489 16504 net.cpp:405] bn5a_branch2b -> res5a_branch2b (in-place)
I0620 19:58:04.575713 16504 net.cpp:150] Setting up bn5a_branch2b
I0620 19:58:04.575719 16504 net.cpp:157] Top shape: 1 512 60 80 (2457600)
I0620 19:58:04.575721 16504 net.cpp:165] Memory required for data: 5627904084
I0620 19:58:04.575736 16504 layer_factory.hpp:77] Creating layer scale5a_branch2b
I0620 19:58:04.575750 16504 net.cpp:100] Creating Layer scale5a_branch2b
I0620 19:58:04.575755 16504 net.cpp:444] scale5a_branch2b <- res5a_branch2b
I0620 19:58:04.575765 16504 net.cpp:405] scale5a_branch2b -> res5a_branch2b (in-place)
I0620 19:58:04.575815 16504 layer_factory.hpp:77] Creating layer scale5a_branch2b
I0620 19:58:04.575965 16504 net.cpp:150] Setting up scale5a_branch2b
I0620 19:58:04.575971 16504 net.cpp:157] Top shape: 1 512 60 80 (2457600)
I0620 19:58:04.575974 16504 net.cpp:165] Memory required for data: 5637734484
I0620 19:58:04.575984 16504 layer_factory.hpp:77] Creating layer res5a_branch2b_relu
I0620 19:58:04.575994 16504 net.cpp:100] Creating Layer res5a_branch2b_relu
I0620 19:58:04.575999 16504 net.cpp:444] res5a_branch2b_relu <- res5a_branch2b
I0620 19:58:04.576009 16504 net.cpp:405] res5a_branch2b_relu -> res5a_branch2b (in-place)
I0620 19:58:04.576200 16504 net.cpp:150] Setting up res5a_branch2b_relu
I0620 19:58:04.576207 16504 net.cpp:157] Top shape: 1 512 60 80 (2457600)
I0620 19:58:04.576210 16504 net.cpp:165] Memory required for data: 5647564884
I0620 19:58:04.576215 16504 layer_factory.hpp:77] Creating layer res5a_branch2c
I0620 19:58:04.576230 16504 net.cpp:100] Creating Layer res5a_branch2c
I0620 19:58:04.576236 16504 net.cpp:444] res5a_branch2c <- res5a_branch2b
I0620 19:58:04.576248 16504 net.cpp:418] res5a_branch2c -> res5a_branch2c
I0620 19:58:04.579731 16504 cudnn_conv_layer.cpp:194] Reallocating workspace storage: 86424
I0620 19:58:04.579763 16504 net.cpp:150] Setting up res5a_branch2c
I0620 19:58:04.579777 16504 net.cpp:157] Top shape: 1 2048 60 80 (9830400)
I0620 19:58:04.579779 16504 net.cpp:165] Memory required for data: 5686886484
I0620 19:58:04.579795 16504 layer_factory.hpp:77] Creating layer bn5a_branch2c
I0620 19:58:04.579818 16504 net.cpp:100] Creating Layer bn5a_branch2c
I0620 19:58:04.579828 16504 net.cpp:444] bn5a_branch2c <- res5a_branch2c
I0620 19:58:04.579844 16504 net.cpp:405] bn5a_branch2c -> res5a_branch2c (in-place)
I0620 19:58:04.580060 16504 net.cpp:150] Setting up bn5a_branch2c
I0620 19:58:04.580066 16504 net.cpp:157] Top shape: 1 2048 60 80 (9830400)
I0620 19:58:04.580068 16504 net.cpp:165] Memory required for data: 5726208084
I0620 19:58:04.580085 16504 layer_factory.hpp:77] Creating layer scale5a_branch2c
I0620 19:58:04.580097 16504 net.cpp:100] Creating Layer scale5a_branch2c
I0620 19:58:04.580103 16504 net.cpp:444] scale5a_branch2c <- res5a_branch2c
I0620 19:58:04.580114 16504 net.cpp:405] scale5a_branch2c -> res5a_branch2c (in-place)
I0620 19:58:04.580168 16504 layer_factory.hpp:77] Creating layer scale5a_branch2c
I0620 19:58:04.580322 16504 net.cpp:150] Setting up scale5a_branch2c
I0620 19:58:04.580328 16504 net.cpp:157] Top shape: 1 2048 60 80 (9830400)
I0620 19:58:04.580330 16504 net.cpp:165] Memory required for data: 5765529684
I0620 19:58:04.580340 16504 layer_factory.hpp:77] Creating layer res5a
I0620 19:58:04.580350 16504 net.cpp:100] Creating Layer res5a
I0620 19:58:04.580355 16504 net.cpp:444] res5a <- res5a_branch1
I0620 19:58:04.580363 16504 net.cpp:444] res5a <- res5a_branch2c
I0620 19:58:04.580373 16504 net.cpp:418] res5a -> res5a
I0620 19:58:04.580407 16504 net.cpp:150] Setting up res5a
I0620 19:58:04.580416 16504 net.cpp:157] Top shape: 1 2048 60 80 (9830400)
I0620 19:58:04.580418 16504 net.cpp:165] Memory required for data: 5804851284
I0620 19:58:04.580422 16504 layer_factory.hpp:77] Creating layer res5a_relu
I0620 19:58:04.580430 16504 net.cpp:100] Creating Layer res5a_relu
I0620 19:58:04.580435 16504 net.cpp:444] res5a_relu <- res5a
I0620 19:58:04.580444 16504 net.cpp:405] res5a_relu -> res5a (in-place)
I0620 19:58:04.580857 16504 net.cpp:150] Setting up res5a_relu
I0620 19:58:04.580866 16504 net.cpp:157] Top shape: 1 2048 60 80 (9830400)
I0620 19:58:04.580869 16504 net.cpp:165] Memory required for data: 5844172884
I0620 19:58:04.580873 16504 layer_factory.hpp:77] Creating layer res5a_res5a_relu_0_split
I0620 19:58:04.580884 16504 net.cpp:100] Creating Layer res5a_res5a_relu_0_split
I0620 19:58:04.580889 16504 net.cpp:444] res5a_res5a_relu_0_split <- res5a
I0620 19:58:04.580904 16504 net.cpp:418] res5a_res5a_relu_0_split -> res5a_res5a_relu_0_split_0
I0620 19:58:04.580917 16504 net.cpp:418] res5a_res5a_relu_0_split -> res5a_res5a_relu_0_split_1
I0620 19:58:04.580962 16504 net.cpp:150] Setting up res5a_res5a_relu_0_split
I0620 19:58:04.580971 16504 net.cpp:157] Top shape: 1 2048 60 80 (9830400)
I0620 19:58:04.580974 16504 net.cpp:157] Top shape: 1 2048 60 80 (9830400)
I0620 19:58:04.580976 16504 net.cpp:165] Memory required for data: 5922816084
I0620 19:58:04.580979 16504 layer_factory.hpp:77] Creating layer res5b_branch2a
I0620 19:58:04.580994 16504 net.cpp:100] Creating Layer res5b_branch2a
I0620 19:58:04.580999 16504 net.cpp:444] res5b_branch2a <- res5a_res5a_relu_0_split_0
I0620 19:58:04.581012 16504 net.cpp:418] res5b_branch2a -> res5b_branch2a
I0620 19:58:04.584578 16504 cudnn_conv_layer.cpp:194] Reallocating workspace storage: 92952
I0620 19:58:04.584611 16504 net.cpp:150] Setting up res5b_branch2a
I0620 19:58:04.584626 16504 net.cpp:157] Top shape: 1 512 60 80 (2457600)
I0620 19:58:04.584630 16504 net.cpp:165] Memory required for data: 5932646484
I0620 19:58:04.584650 16504 layer_factory.hpp:77] Creating layer bn5b_branch2a
I0620 19:58:04.584677 16504 net.cpp:100] Creating Layer bn5b_branch2a
I0620 19:58:04.584687 16504 net.cpp:444] bn5b_branch2a <- res5b_branch2a
I0620 19:58:04.584705 16504 net.cpp:405] bn5b_branch2a -> res5b_branch2a (in-place)
I0620 19:58:04.584931 16504 net.cpp:150] Setting up bn5b_branch2a
I0620 19:58:04.584938 16504 net.cpp:157] Top shape: 1 512 60 80 (2457600)
I0620 19:58:04.584939 16504 net.cpp:165] Memory required for data: 5942476884
I0620 19:58:04.584955 16504 layer_factory.hpp:77] Creating layer scale5b_branch2a
I0620 19:58:04.584969 16504 net.cpp:100] Creating Layer scale5b_branch2a
I0620 19:58:04.584973 16504 net.cpp:444] scale5b_branch2a <- res5b_branch2a
I0620 19:58:04.584986 16504 net.cpp:405] scale5b_branch2a -> res5b_branch2a (in-place)
I0620 19:58:04.585036 16504 layer_factory.hpp:77] Creating layer scale5b_branch2a
I0620 19:58:04.585188 16504 net.cpp:150] Setting up scale5b_branch2a
I0620 19:58:04.585196 16504 net.cpp:157] Top shape: 1 512 60 80 (2457600)
I0620 19:58:04.585197 16504 net.cpp:165] Memory required for data: 5952307284
I0620 19:58:04.585206 16504 layer_factory.hpp:77] Creating layer res5b_branch2a_relu
I0620 19:58:04.585216 16504 net.cpp:100] Creating Layer res5b_branch2a_relu
I0620 19:58:04.585220 16504 net.cpp:444] res5b_branch2a_relu <- res5b_branch2a
I0620 19:58:04.585232 16504 net.cpp:405] res5b_branch2a_relu -> res5b_branch2a (in-place)
I0620 19:58:04.585395 16504 net.cpp:150] Setting up res5b_branch2a_relu
I0620 19:58:04.585402 16504 net.cpp:157] Top shape: 1 512 60 80 (2457600)
I0620 19:58:04.585404 16504 net.cpp:165] Memory required for data: 5962137684
I0620 19:58:04.585408 16504 layer_factory.hpp:77] Creating layer res5b_branch2b
I0620 19:58:04.585424 16504 net.cpp:100] Creating Layer res5b_branch2b
I0620 19:58:04.585429 16504 net.cpp:444] res5b_branch2b <- res5b_branch2a
I0620 19:58:04.585443 16504 net.cpp:418] res5b_branch2b -> res5b_branch2b
I0620 19:58:04.590874 16504 net.cpp:150] Setting up res5b_branch2b
I0620 19:58:04.590906 16504 net.cpp:157] Top shape: 1 512 60 80 (2457600)
I0620 19:58:04.590909 16504 net.cpp:165] Memory required for data: 5971968084
I0620 19:58:04.590929 16504 layer_factory.hpp:77] Creating layer bn5b_branch2b
I0620 19:58:04.590960 16504 net.cpp:100] Creating Layer bn5b_branch2b
I0620 19:58:04.590970 16504 net.cpp:444] bn5b_branch2b <- res5b_branch2b
I0620 19:58:04.590986 16504 net.cpp:405] bn5b_branch2b -> res5b_branch2b (in-place)
I0620 19:58:04.591218 16504 net.cpp:150] Setting up bn5b_branch2b
I0620 19:58:04.591224 16504 net.cpp:157] Top shape: 1 512 60 80 (2457600)
I0620 19:58:04.591226 16504 net.cpp:165] Memory required for data: 5981798484
I0620 19:58:04.591241 16504 layer_factory.hpp:77] Creating layer scale5b_branch2b
I0620 19:58:04.591256 16504 net.cpp:100] Creating Layer scale5b_branch2b
I0620 19:58:04.591262 16504 net.cpp:444] scale5b_branch2b <- res5b_branch2b
I0620 19:58:04.591272 16504 net.cpp:405] scale5b_branch2b -> res5b_branch2b (in-place)
I0620 19:58:04.591322 16504 layer_factory.hpp:77] Creating layer scale5b_branch2b
I0620 19:58:04.591475 16504 net.cpp:150] Setting up scale5b_branch2b
I0620 19:58:04.591481 16504 net.cpp:157] Top shape: 1 512 60 80 (2457600)
I0620 19:58:04.591483 16504 net.cpp:165] Memory required for data: 5991628884
I0620 19:58:04.591493 16504 layer_factory.hpp:77] Creating layer res5b_branch2b_relu
I0620 19:58:04.591502 16504 net.cpp:100] Creating Layer res5b_branch2b_relu
I0620 19:58:04.591508 16504 net.cpp:444] res5b_branch2b_relu <- res5b_branch2b
I0620 19:58:04.591518 16504 net.cpp:405] res5b_branch2b_relu -> res5b_branch2b (in-place)
I0620 19:58:04.591711 16504 net.cpp:150] Setting up res5b_branch2b_relu
I0620 19:58:04.591717 16504 net.cpp:157] Top shape: 1 512 60 80 (2457600)
I0620 19:58:04.591719 16504 net.cpp:165] Memory required for data: 6001459284
I0620 19:58:04.591723 16504 layer_factory.hpp:77] Creating layer res5b_branch2c
I0620 19:58:04.591739 16504 net.cpp:100] Creating Layer res5b_branch2c
I0620 19:58:04.591744 16504 net.cpp:444] res5b_branch2c <- res5b_branch2b
I0620 19:58:04.591758 16504 net.cpp:418] res5b_branch2c -> res5b_branch2c
I0620 19:58:04.595180 16504 cudnn_conv_layer.cpp:194] Reallocating workspace storage: 86424
I0620 19:58:04.595207 16504 net.cpp:150] Setting up res5b_branch2c
I0620 19:58:04.595216 16504 net.cpp:157] Top shape: 1 2048 60 80 (9830400)
I0620 19:58:04.595219 16504 net.cpp:165] Memory required for data: 6040780884
I0620 19:58:04.595233 16504 layer_factory.hpp:77] Creating layer bn5b_branch2c
I0620 19:58:04.595252 16504 net.cpp:100] Creating Layer bn5b_branch2c
I0620 19:58:04.595258 16504 net.cpp:444] bn5b_branch2c <- res5b_branch2c
I0620 19:58:04.595273 16504 net.cpp:405] bn5b_branch2c -> res5b_branch2c (in-place)
I0620 19:58:04.595489 16504 net.cpp:150] Setting up bn5b_branch2c
I0620 19:58:04.595494 16504 net.cpp:157] Top shape: 1 2048 60 80 (9830400)
I0620 19:58:04.595496 16504 net.cpp:165] Memory required for data: 6080102484
I0620 19:58:04.595511 16504 layer_factory.hpp:77] Creating layer scale5b_branch2c
I0620 19:58:04.595525 16504 net.cpp:100] Creating Layer scale5b_branch2c
I0620 19:58:04.595530 16504 net.cpp:444] scale5b_branch2c <- res5b_branch2c
I0620 19:58:04.595541 16504 net.cpp:405] scale5b_branch2c -> res5b_branch2c (in-place)
I0620 19:58:04.595592 16504 layer_factory.hpp:77] Creating layer scale5b_branch2c
I0620 19:58:04.595746 16504 net.cpp:150] Setting up scale5b_branch2c
I0620 19:58:04.595752 16504 net.cpp:157] Top shape: 1 2048 60 80 (9830400)
I0620 19:58:04.595755 16504 net.cpp:165] Memory required for data: 6119424084
I0620 19:58:04.595764 16504 layer_factory.hpp:77] Creating layer res5b
I0620 19:58:04.595774 16504 net.cpp:100] Creating Layer res5b
I0620 19:58:04.595779 16504 net.cpp:444] res5b <- res5a_res5a_relu_0_split_1
I0620 19:58:04.595788 16504 net.cpp:444] res5b <- res5b_branch2c
I0620 19:58:04.595798 16504 net.cpp:418] res5b -> res5b
I0620 19:58:04.595832 16504 net.cpp:150] Setting up res5b
I0620 19:58:04.595840 16504 net.cpp:157] Top shape: 1 2048 60 80 (9830400)
I0620 19:58:04.595842 16504 net.cpp:165] Memory required for data: 6158745684
I0620 19:58:04.595846 16504 layer_factory.hpp:77] Creating layer res5b_relu
I0620 19:58:04.595855 16504 net.cpp:100] Creating Layer res5b_relu
I0620 19:58:04.595860 16504 net.cpp:444] res5b_relu <- res5b
I0620 19:58:04.595868 16504 net.cpp:405] res5b_relu -> res5b (in-place)
I0620 19:58:04.596276 16504 net.cpp:150] Setting up res5b_relu
I0620 19:58:04.596283 16504 net.cpp:157] Top shape: 1 2048 60 80 (9830400)
I0620 19:58:04.596287 16504 net.cpp:165] Memory required for data: 6198067284
I0620 19:58:04.596290 16504 layer_factory.hpp:77] Creating layer res5b_res5b_relu_0_split
I0620 19:58:04.596302 16504 net.cpp:100] Creating Layer res5b_res5b_relu_0_split
I0620 19:58:04.596307 16504 net.cpp:444] res5b_res5b_relu_0_split <- res5b
I0620 19:58:04.596320 16504 net.cpp:418] res5b_res5b_relu_0_split -> res5b_res5b_relu_0_split_0
I0620 19:58:04.596335 16504 net.cpp:418] res5b_res5b_relu_0_split -> res5b_res5b_relu_0_split_1
I0620 19:58:04.596381 16504 net.cpp:150] Setting up res5b_res5b_relu_0_split
I0620 19:58:04.596390 16504 net.cpp:157] Top shape: 1 2048 60 80 (9830400)
I0620 19:58:04.596393 16504 net.cpp:157] Top shape: 1 2048 60 80 (9830400)
I0620 19:58:04.596395 16504 net.cpp:165] Memory required for data: 6276710484
I0620 19:58:04.596400 16504 layer_factory.hpp:77] Creating layer res5c_branch2a
I0620 19:58:04.596412 16504 net.cpp:100] Creating Layer res5c_branch2a
I0620 19:58:04.596417 16504 net.cpp:444] res5c_branch2a <- res5b_res5b_relu_0_split_0
I0620 19:58:04.596431 16504 net.cpp:418] res5c_branch2a -> res5c_branch2a
I0620 19:58:04.600052 16504 cudnn_conv_layer.cpp:194] Reallocating workspace storage: 92952
I0620 19:58:04.600078 16504 net.cpp:150] Setting up res5c_branch2a
I0620 19:58:04.600090 16504 net.cpp:157] Top shape: 1 512 60 80 (2457600)
I0620 19:58:04.600092 16504 net.cpp:165] Memory required for data: 6286540884
I0620 19:58:04.600111 16504 layer_factory.hpp:77] Creating layer bn5c_branch2a
I0620 19:58:04.600136 16504 net.cpp:100] Creating Layer bn5c_branch2a
I0620 19:58:04.600147 16504 net.cpp:444] bn5c_branch2a <- res5c_branch2a
I0620 19:58:04.600163 16504 net.cpp:405] bn5c_branch2a -> res5c_branch2a (in-place)
I0620 19:58:04.600383 16504 net.cpp:150] Setting up bn5c_branch2a
I0620 19:58:04.600389 16504 net.cpp:157] Top shape: 1 512 60 80 (2457600)
I0620 19:58:04.600391 16504 net.cpp:165] Memory required for data: 6296371284
I0620 19:58:04.600405 16504 layer_factory.hpp:77] Creating layer scale5c_branch2a
I0620 19:58:04.600421 16504 net.cpp:100] Creating Layer scale5c_branch2a
I0620 19:58:04.600426 16504 net.cpp:444] scale5c_branch2a <- res5c_branch2a
I0620 19:58:04.600437 16504 net.cpp:405] scale5c_branch2a -> res5c_branch2a (in-place)
I0620 19:58:04.600487 16504 layer_factory.hpp:77] Creating layer scale5c_branch2a
I0620 19:58:04.600642 16504 net.cpp:150] Setting up scale5c_branch2a
I0620 19:58:04.600649 16504 net.cpp:157] Top shape: 1 512 60 80 (2457600)
I0620 19:58:04.600651 16504 net.cpp:165] Memory required for data: 6306201684
I0620 19:58:04.600661 16504 layer_factory.hpp:77] Creating layer res5c_branch2a_relu
I0620 19:58:04.600672 16504 net.cpp:100] Creating Layer res5c_branch2a_relu
I0620 19:58:04.600677 16504 net.cpp:444] res5c_branch2a_relu <- res5c_branch2a
I0620 19:58:04.600687 16504 net.cpp:405] res5c_branch2a_relu -> res5c_branch2a (in-place)
I0620 19:58:04.600834 16504 net.cpp:150] Setting up res5c_branch2a_relu
I0620 19:58:04.600841 16504 net.cpp:157] Top shape: 1 512 60 80 (2457600)
I0620 19:58:04.600843 16504 net.cpp:165] Memory required for data: 6316032084
I0620 19:58:04.600847 16504 layer_factory.hpp:77] Creating layer res5c_branch2b
I0620 19:58:04.600862 16504 net.cpp:100] Creating Layer res5c_branch2b
I0620 19:58:04.600868 16504 net.cpp:444] res5c_branch2b <- res5c_branch2a
I0620 19:58:04.600880 16504 net.cpp:418] res5c_branch2b -> res5c_branch2b
I0620 19:58:04.606281 16504 net.cpp:150] Setting up res5c_branch2b
I0620 19:58:04.606310 16504 net.cpp:157] Top shape: 1 512 60 80 (2457600)
I0620 19:58:04.606314 16504 net.cpp:165] Memory required for data: 6325862484
I0620 19:58:04.606333 16504 layer_factory.hpp:77] Creating layer bn5c_branch2b
I0620 19:58:04.606361 16504 net.cpp:100] Creating Layer bn5c_branch2b
I0620 19:58:04.606371 16504 net.cpp:444] bn5c_branch2b <- res5c_branch2b
I0620 19:58:04.606390 16504 net.cpp:405] bn5c_branch2b -> res5c_branch2b (in-place)
I0620 19:58:04.606628 16504 net.cpp:150] Setting up bn5c_branch2b
I0620 19:58:04.606636 16504 net.cpp:157] Top shape: 1 512 60 80 (2457600)
I0620 19:58:04.606637 16504 net.cpp:165] Memory required for data: 6335692884
I0620 19:58:04.606652 16504 layer_factory.hpp:77] Creating layer scale5c_branch2b
I0620 19:58:04.606667 16504 net.cpp:100] Creating Layer scale5c_branch2b
I0620 19:58:04.606672 16504 net.cpp:444] scale5c_branch2b <- res5c_branch2b
I0620 19:58:04.606683 16504 net.cpp:405] scale5c_branch2b -> res5c_branch2b (in-place)
I0620 19:58:04.606734 16504 layer_factory.hpp:77] Creating layer scale5c_branch2b
I0620 19:58:04.606886 16504 net.cpp:150] Setting up scale5c_branch2b
I0620 19:58:04.606894 16504 net.cpp:157] Top shape: 1 512 60 80 (2457600)
I0620 19:58:04.606897 16504 net.cpp:165] Memory required for data: 6345523284
I0620 19:58:04.606906 16504 layer_factory.hpp:77] Creating layer res5c_branch2b_relu
I0620 19:58:04.606916 16504 net.cpp:100] Creating Layer res5c_branch2b_relu
I0620 19:58:04.606921 16504 net.cpp:444] res5c_branch2b_relu <- res5c_branch2b
I0620 19:58:04.606930 16504 net.cpp:405] res5c_branch2b_relu -> res5c_branch2b (in-place)
I0620 19:58:04.607126 16504 net.cpp:150] Setting up res5c_branch2b_relu
I0620 19:58:04.607133 16504 net.cpp:157] Top shape: 1 512 60 80 (2457600)
I0620 19:58:04.607136 16504 net.cpp:165] Memory required for data: 6355353684
I0620 19:58:04.607139 16504 layer_factory.hpp:77] Creating layer res5c_branch2c
I0620 19:58:04.607156 16504 net.cpp:100] Creating Layer res5c_branch2c
I0620 19:58:04.607161 16504 net.cpp:444] res5c_branch2c <- res5c_branch2b
I0620 19:58:04.607173 16504 net.cpp:418] res5c_branch2c -> res5c_branch2c
I0620 19:58:04.610626 16504 cudnn_conv_layer.cpp:194] Reallocating workspace storage: 86424
I0620 19:58:04.610656 16504 net.cpp:150] Setting up res5c_branch2c
I0620 19:58:04.610666 16504 net.cpp:157] Top shape: 1 2048 60 80 (9830400)
I0620 19:58:04.610668 16504 net.cpp:165] Memory required for data: 6394675284
I0620 19:58:04.610682 16504 layer_factory.hpp:77] Creating layer bn5c_branch2c
I0620 19:58:04.610702 16504 net.cpp:100] Creating Layer bn5c_branch2c
I0620 19:58:04.610710 16504 net.cpp:444] bn5c_branch2c <- res5c_branch2c
I0620 19:58:04.610725 16504 net.cpp:405] bn5c_branch2c -> res5c_branch2c (in-place)
I0620 19:58:04.610947 16504 net.cpp:150] Setting up bn5c_branch2c
I0620 19:58:04.610954 16504 net.cpp:157] Top shape: 1 2048 60 80 (9830400)
I0620 19:58:04.610956 16504 net.cpp:165] Memory required for data: 6433996884
I0620 19:58:04.610971 16504 layer_factory.hpp:77] Creating layer scale5c_branch2c
I0620 19:58:04.610983 16504 net.cpp:100] Creating Layer scale5c_branch2c
I0620 19:58:04.610990 16504 net.cpp:444] scale5c_branch2c <- res5c_branch2c
I0620 19:58:04.611001 16504 net.cpp:405] scale5c_branch2c -> res5c_branch2c (in-place)
I0620 19:58:04.611052 16504 layer_factory.hpp:77] Creating layer scale5c_branch2c
I0620 19:58:04.611809 16504 net.cpp:150] Setting up scale5c_branch2c
I0620 19:58:04.611819 16504 net.cpp:157] Top shape: 1 2048 60 80 (9830400)
I0620 19:58:04.611820 16504 net.cpp:165] Memory required for data: 6473318484
I0620 19:58:04.611830 16504 layer_factory.hpp:77] Creating layer res5c
I0620 19:58:04.611843 16504 net.cpp:100] Creating Layer res5c
I0620 19:58:04.611850 16504 net.cpp:444] res5c <- res5b_res5b_relu_0_split_1
I0620 19:58:04.611860 16504 net.cpp:444] res5c <- res5c_branch2c
I0620 19:58:04.611867 16504 net.cpp:418] res5c -> res5c
I0620 19:58:04.611907 16504 net.cpp:150] Setting up res5c
I0620 19:58:04.611914 16504 net.cpp:157] Top shape: 1 2048 60 80 (9830400)
I0620 19:58:04.611917 16504 net.cpp:165] Memory required for data: 6512640084
I0620 19:58:04.611920 16504 layer_factory.hpp:77] Creating layer res5c_relu
I0620 19:58:04.611928 16504 net.cpp:100] Creating Layer res5c_relu
I0620 19:58:04.611933 16504 net.cpp:444] res5c_relu <- res5c
I0620 19:58:04.611943 16504 net.cpp:405] res5c_relu -> res5c (in-place)
I0620 19:58:04.612108 16504 net.cpp:150] Setting up res5c_relu
I0620 19:58:04.612115 16504 net.cpp:157] Top shape: 1 2048 60 80 (9830400)
I0620 19:58:04.612118 16504 net.cpp:165] Memory required for data: 6551961684
I0620 19:58:04.612123 16504 layer_factory.hpp:77] Creating layer rpn_conv/3x3
I0620 19:58:04.612140 16504 net.cpp:100] Creating Layer rpn_conv/3x3
I0620 19:58:04.612146 16504 net.cpp:444] rpn_conv/3x3 <- res4f_res4f_relu_0_split_2
I0620 19:58:04.612160 16504 net.cpp:418] rpn_conv/3x3 -> rpn/output
I0620 19:58:05.137897 16504 cudnn_conv_layer.cpp:194] Reallocating workspace storage: 92952
I0620 19:58:05.137924 16504 net.cpp:150] Setting up rpn_conv/3x3
I0620 19:58:05.137938 16504 net.cpp:157] Top shape: 1 512 60 80 (2457600)
I0620 19:58:05.137939 16504 net.cpp:165] Memory required for data: 6561792084
I0620 19:58:05.137959 16504 layer_factory.hpp:77] Creating layer rpn_relu/3x3
I0620 19:58:05.137980 16504 net.cpp:100] Creating Layer rpn_relu/3x3
I0620 19:58:05.137989 16504 net.cpp:444] rpn_relu/3x3 <- rpn/output
I0620 19:58:05.138007 16504 net.cpp:405] rpn_relu/3x3 -> rpn/output (in-place)
I0620 19:58:05.138429 16504 net.cpp:150] Setting up rpn_relu/3x3
I0620 19:58:05.138437 16504 net.cpp:157] Top shape: 1 512 60 80 (2457600)
I0620 19:58:05.138440 16504 net.cpp:165] Memory required for data: 6571622484
I0620 19:58:05.138444 16504 layer_factory.hpp:77] Creating layer rpn/output_rpn_relu/3x3_0_split
I0620 19:58:05.138454 16504 net.cpp:100] Creating Layer rpn/output_rpn_relu/3x3_0_split
I0620 19:58:05.138459 16504 net.cpp:444] rpn/output_rpn_relu/3x3_0_split <- rpn/output
I0620 19:58:05.138471 16504 net.cpp:418] rpn/output_rpn_relu/3x3_0_split -> rpn/output_rpn_relu/3x3_0_split_0
I0620 19:58:05.138487 16504 net.cpp:418] rpn/output_rpn_relu/3x3_0_split -> rpn/output_rpn_relu/3x3_0_split_1
I0620 19:58:05.138540 16504 net.cpp:150] Setting up rpn/output_rpn_relu/3x3_0_split
I0620 19:58:05.138547 16504 net.cpp:157] Top shape: 1 512 60 80 (2457600)
I0620 19:58:05.138550 16504 net.cpp:157] Top shape: 1 512 60 80 (2457600)
I0620 19:58:05.138552 16504 net.cpp:165] Memory required for data: 6591283284
I0620 19:58:05.138556 16504 layer_factory.hpp:77] Creating layer rpn_cls_score
I0620 19:58:05.138574 16504 net.cpp:100] Creating Layer rpn_cls_score
I0620 19:58:05.138579 16504 net.cpp:444] rpn_cls_score <- rpn/output_rpn_relu/3x3_0_split_0
I0620 19:58:05.138593 16504 net.cpp:418] rpn_cls_score -> rpn_cls_score
I0620 19:58:05.143301 16504 cudnn_conv_layer.cpp:194] Reallocating workspace storage: 92952
I0620 19:58:05.143323 16504 net.cpp:150] Setting up rpn_cls_score
I0620 19:58:05.143330 16504 net.cpp:157] Top shape: 1 66 60 80 (316800)
I0620 19:58:05.143332 16504 net.cpp:165] Memory required for data: 6592550484
I0620 19:58:05.143343 16504 layer_factory.hpp:77] Creating layer rpn_cls_score_rpn_cls_score_0_split
I0620 19:58:05.143354 16504 net.cpp:100] Creating Layer rpn_cls_score_rpn_cls_score_0_split
I0620 19:58:05.143360 16504 net.cpp:444] rpn_cls_score_rpn_cls_score_0_split <- rpn_cls_score
I0620 19:58:05.143373 16504 net.cpp:418] rpn_cls_score_rpn_cls_score_0_split -> rpn_cls_score_rpn_cls_score_0_split_0
I0620 19:58:05.143388 16504 net.cpp:418] rpn_cls_score_rpn_cls_score_0_split -> rpn_cls_score_rpn_cls_score_0_split_1
I0620 19:58:05.143432 16504 net.cpp:150] Setting up rpn_cls_score_rpn_cls_score_0_split
I0620 19:58:05.143440 16504 net.cpp:157] Top shape: 1 66 60 80 (316800)
I0620 19:58:05.143443 16504 net.cpp:157] Top shape: 1 66 60 80 (316800)
I0620 19:58:05.143445 16504 net.cpp:165] Memory required for data: 6595084884
I0620 19:58:05.143450 16504 layer_factory.hpp:77] Creating layer rpn_bbox_pred
I0620 19:58:05.143465 16504 net.cpp:100] Creating Layer rpn_bbox_pred
I0620 19:58:05.143471 16504 net.cpp:444] rpn_bbox_pred <- rpn/output_rpn_relu/3x3_0_split_1
I0620 19:58:05.143484 16504 net.cpp:418] rpn_bbox_pred -> rpn_bbox_pred
I0620 19:58:05.152094 16504 cudnn_conv_layer.cpp:194] Reallocating workspace storage: 92952
I0620 19:58:05.152369 16504 net.cpp:150] Setting up rpn_bbox_pred
I0620 19:58:05.152386 16504 net.cpp:157] Top shape: 1 132 60 80 (633600)
I0620 19:58:05.152389 16504 net.cpp:165] Memory required for data: 6597619284
I0620 19:58:05.152410 16504 layer_factory.hpp:77] Creating layer rpn_bbox_pred_rpn_bbox_pred_0_split
I0620 19:58:05.152426 16504 net.cpp:100] Creating Layer rpn_bbox_pred_rpn_bbox_pred_0_split
I0620 19:58:05.152436 16504 net.cpp:444] rpn_bbox_pred_rpn_bbox_pred_0_split <- rpn_bbox_pred
I0620 19:58:05.152453 16504 net.cpp:418] rpn_bbox_pred_rpn_bbox_pred_0_split -> rpn_bbox_pred_rpn_bbox_pred_0_split_0
I0620 19:58:05.152469 16504 net.cpp:418] rpn_bbox_pred_rpn_bbox_pred_0_split -> rpn_bbox_pred_rpn_bbox_pred_0_split_1
I0620 19:58:05.152521 16504 net.cpp:150] Setting up rpn_bbox_pred_rpn_bbox_pred_0_split
I0620 19:58:05.152529 16504 net.cpp:157] Top shape: 1 132 60 80 (633600)
I0620 19:58:05.152531 16504 net.cpp:157] Top shape: 1 132 60 80 (633600)
I0620 19:58:05.152534 16504 net.cpp:165] Memory required for data: 6602688084
I0620 19:58:05.152536 16504 layer_factory.hpp:77] Creating layer rpn_cls_score_reshape
I0620 19:58:05.152549 16504 net.cpp:100] Creating Layer rpn_cls_score_reshape
I0620 19:58:05.152552 16504 net.cpp:444] rpn_cls_score_reshape <- rpn_cls_score_rpn_cls_score_0_split_0
I0620 19:58:05.152565 16504 net.cpp:418] rpn_cls_score_reshape -> rpn_cls_score_reshape
I0620 19:58:05.152604 16504 net.cpp:150] Setting up rpn_cls_score_reshape
I0620 19:58:05.152611 16504 net.cpp:157] Top shape: 1 2 1980 80 (316800)
I0620 19:58:05.152613 16504 net.cpp:165] Memory required for data: 6603955284
I0620 19:58:05.152616 16504 layer_factory.hpp:77] Creating layer rpn_cls_score_reshape_rpn_cls_score_reshape_0_split
I0620 19:58:05.152624 16504 net.cpp:100] Creating Layer rpn_cls_score_reshape_rpn_cls_score_reshape_0_split
I0620 19:58:05.152628 16504 net.cpp:444] rpn_cls_score_reshape_rpn_cls_score_reshape_0_split <- rpn_cls_score_reshape
I0620 19:58:05.152640 16504 net.cpp:418] rpn_cls_score_reshape_rpn_cls_score_reshape_0_split -> rpn_cls_score_reshape_rpn_cls_score_reshape_0_split_0
I0620 19:58:05.152653 16504 net.cpp:418] rpn_cls_score_reshape_rpn_cls_score_reshape_0_split -> rpn_cls_score_reshape_rpn_cls_score_reshape_0_split_1
I0620 19:58:05.152698 16504 net.cpp:150] Setting up rpn_cls_score_reshape_rpn_cls_score_reshape_0_split
I0620 19:58:05.152704 16504 net.cpp:157] Top shape: 1 2 1980 80 (316800)
I0620 19:58:05.152709 16504 net.cpp:157] Top shape: 1 2 1980 80 (316800)
I0620 19:58:05.152709 16504 net.cpp:165] Memory required for data: 6606489684
I0620 19:58:05.152714 16504 layer_factory.hpp:77] Creating layer rpn-data
I0620 19:58:05.153038 16504 net.cpp:100] Creating Layer rpn-data
I0620 19:58:05.153048 16504 net.cpp:444] rpn-data <- rpn_cls_score_rpn_cls_score_0_split_1
I0620 19:58:05.153059 16504 net.cpp:444] rpn-data <- gt_boxes_input-data_2_split_0
I0620 19:58:05.153066 16504 net.cpp:444] rpn-data <- im_info_input-data_1_split_0
I0620 19:58:05.153071 16504 net.cpp:444] rpn-data <- data_input-data_0_split_1
I0620 19:58:05.153080 16504 net.cpp:418] rpn-data -> rpn_labels
I0620 19:58:05.153095 16504 net.cpp:418] rpn-data -> rpn_bbox_targets
I0620 19:58:05.153107 16504 net.cpp:418] rpn-data -> rpn_bbox_inside_weights
I0620 19:58:05.153120 16504 net.cpp:418] rpn-data -> rpn_bbox_outside_weights
I0620 19:58:05.154320 16504 net.cpp:150] Setting up rpn-data
I0620 19:58:05.154333 16504 net.cpp:157] Top shape: 1 1 1980 80 (158400)
I0620 19:58:05.154337 16504 net.cpp:157] Top shape: 1 132 60 80 (633600)
I0620 19:58:05.154340 16504 net.cpp:157] Top shape: 1 132 60 80 (633600)
I0620 19:58:05.154343 16504 net.cpp:157] Top shape: 1 132 60 80 (633600)
I0620 19:58:05.154345 16504 net.cpp:165] Memory required for data: 6614726484
I0620 19:58:05.154350 16504 layer_factory.hpp:77] Creating layer rpn_loss_cls
I0620 19:58:05.154366 16504 net.cpp:100] Creating Layer rpn_loss_cls
I0620 19:58:05.154373 16504 net.cpp:444] rpn_loss_cls <- rpn_cls_score_reshape_rpn_cls_score_reshape_0_split_0
I0620 19:58:05.154384 16504 net.cpp:444] rpn_loss_cls <- rpn_labels
…
I0620 19:58:05.164607 16504 net.cpp:157] Top shape: (1)
I0620 19:58:05.164608 16504 net.cpp:160]     with loss weight 1
I0620 19:58:05.164615 16504 net.cpp:165] Memory required for data: 6614726492
I0620 19:58:05.164629 16504 layer_factory.hpp:77] Creating layer rpn_cls_prob
I0620 19:58:05.164651 16504 net.cpp:100] Creating Layer rpn_cls_prob
I0620 19:58:05.164660 16504 net.cpp:444] rpn_cls_prob <- rpn_cls_score_reshape_rpn_cls_score_reshape_0_split_1
I0620 19:58:05.164677 16504 net.cpp:418] rpn_cls_prob -> rpn_cls_prob
I0620 19:58:05.164974 16504 net.cpp:150] Setting up rpn_cls_prob
I0620 19:58:05.164983 16504 net.cpp:157] Top shape: 1 2 1980 80 (316800)
I0620 19:58:05.164986 16504 net.cpp:165] Memory required for data: 6615993692
I0620 19:58:05.164989 16504 layer_factory.hpp:77] Creating layer rpn_cls_prob_reshape
I0620 19:58:05.165004 16504 net.cpp:100] Creating Layer rpn_cls_prob_reshape
I0620 19:58:05.165009 16504 net.cpp:444] rpn_cls_prob_reshape <- rpn_cls_prob
I0620 19:58:05.165021 16504 net.cpp:418] rpn_cls_prob_reshape -> rpn_cls_prob_reshape
I0620 19:58:05.165063 16504 net.cpp:150] Setting up rpn_cls_prob_reshape
I0620 19:58:05.165071 16504 net.cpp:157] Top shape: 1 66 60 80 (316800)
I0620 19:58:05.165072 16504 net.cpp:165] Memory required for data: 6617260892
I0620 19:58:05.165076 16504 layer_factory.hpp:77] Creating layer proposal
I0620 19:58:05.165581 16504 net.cpp:100] Creating Layer proposal
I0620 19:58:05.165592 16504 net.cpp:444] proposal <- rpn_cls_prob_reshape
I0620 19:58:05.165604 16504 net.cpp:444] proposal <- rpn_bbox_pred_rpn_bbox_pred_0_split_1
I0620 19:58:05.165611 16504 net.cpp:444] proposal <- im_info_input-data_1_split_1
I0620 19:58:05.165619 16504 net.cpp:418] proposal -> rpn_rois
I0620 19:58:05.167273 16504 net.cpp:150] Setting up proposal
I0620 19:58:05.167285 16504 net.cpp:157] Top shape: 1 5 (5)
I0620 19:58:05.167287 16504 net.cpp:165] Memory required for data: 6617260912
I0620 19:58:05.167292 16504 layer_factory.hpp:77] Creating layer roi-data
I0620 19:58:05.167409 16504 net.cpp:100] Creating Layer roi-data
I0620 19:58:05.167418 16504 net.cpp:444] roi-data <- rpn_rois
I0620 19:58:05.167430 16504 net.cpp:444] roi-data <- gt_boxes_input-data_2_split_1
I0620 19:58:05.167440 16504 net.cpp:418] roi-data -> rois
I0620 19:58:05.167454 16504 net.cpp:418] roi-data -> labels
I0620 19:58:05.167466 16504 net.cpp:418] roi-data -> bbox_targets
I0620 19:58:05.167477 16504 net.cpp:418] roi-data -> bbox_inside_weights
I0620 19:58:05.167487 16504 net.cpp:418] roi-data -> bbox_outside_weights
I0620 19:58:05.167815 16504 net.cpp:150] Setting up roi-data
I0620 19:58:05.167826 16504 net.cpp:157] Top shape: 1 5 1 1 (5)
I0620 19:58:05.167829 16504 net.cpp:157] Top shape: 1 1 1 1 (1)
I0620 19:58:05.167831 16504 net.cpp:157] Top shape: 1 8 1 1 (8)
I0620 19:58:05.167834 16504 net.cpp:157] Top shape: 1 8 1 1 (8)
I0620 19:58:05.167836 16504 net.cpp:157] Top shape: 1 8 1 1 (8)
I0620 19:58:05.167838 16504 net.cpp:165] Memory required for data: 6617261032
I0620 19:58:05.167842 16504 layer_factory.hpp:77] Creating layer rois_roi-data_0_split
I0620 19:58:05.167852 16504 net.cpp:100] Creating Layer rois_roi-data_0_split
I0620 19:58:05.167857 16504 net.cpp:444] rois_roi-data_0_split <- rois
I0620 19:58:05.167870 16504 net.cpp:418] rois_roi-data_0_split -> rois_roi-data_0_split_0
I0620 19:58:05.167886 16504 net.cpp:418] rois_roi-data_0_split -> rois_roi-data_0_split_1
I0620 19:58:05.167896 16504 net.cpp:418] rois_roi-data_0_split -> rois_roi-data_0_split_2
I0620 19:58:05.167953 16504 net.cpp:150] Setting up rois_roi-data_0_split
I0620 19:58:05.167959 16504 net.cpp:157] Top shape: 1 5 1 1 (5)
I0620 19:58:05.167963 16504 net.cpp:157] Top shape: 1 5 1 1 (5)
I0620 19:58:05.167966 16504 net.cpp:157] Top shape: 1 5 1 1 (5)
I0620 19:58:05.167968 16504 net.cpp:165] Memory required for data: 6617261092
I0620 19:58:05.167971 16504 layer_factory.hpp:77] Creating layer labels_roi-data_1_split
I0620 19:58:05.167979 16504 net.cpp:100] Creating Layer labels_roi-data_1_split
I0620 19:58:05.167984 16504 net.cpp:444] labels_roi-data_1_split <- labels
I0620 19:58:05.167995 16504 net.cpp:418] labels_roi-data_1_split -> labels_roi-data_1_split_0
I0620 19:58:05.168007 16504 net.cpp:418] labels_roi-data_1_split -> labels_roi-data_1_split_1
I0620 19:58:05.168047 16504 net.cpp:150] Setting up labels_roi-data_1_split
I0620 19:58:05.168054 16504 net.cpp:157] Top shape: 1 1 1 1 (1)
I0620 19:58:05.168057 16504 net.cpp:157] Top shape: 1 1 1 1 (1)
I0620 19:58:05.168059 16504 net.cpp:165] Memory required for data: 6617261100
I0620 19:58:05.168062 16504 layer_factory.hpp:77] Creating layer bbox_targets_roi-data_2_split
I0620 19:58:05.168071 16504 net.cpp:100] Creating Layer bbox_targets_roi-data_2_split
I0620 19:58:05.168076 16504 net.cpp:444] bbox_targets_roi-data_2_split <- bbox_targets
I0620 19:58:05.168087 16504 net.cpp:418] bbox_targets_roi-data_2_split -> bbox_targets_roi-data_2_split_0
I0620 19:58:05.168098 16504 net.cpp:418] bbox_targets_roi-data_2_split -> bbox_targets_roi-data_2_split_1
I0620 19:58:05.168138 16504 net.cpp:150] Setting up bbox_targets_roi-data_2_split
I0620 19:58:05.168145 16504 net.cpp:157] Top shape: 1 8 1 1 (8)
I0620 19:58:05.168148 16504 net.cpp:157] Top shape: 1 8 1 1 (8)
I0620 19:58:05.168150 16504 net.cpp:165] Memory required for data: 6617261164
I0620 19:58:05.168154 16504 layer_factory.hpp:77] Creating layer bbox_inside_weights_roi-data_3_split
I0620 19:58:05.168160 16504 net.cpp:100] Creating Layer bbox_inside_weights_roi-data_3_split
I0620 19:58:05.168164 16504 net.cpp:444] bbox_inside_weights_roi-data_3_split <- bbox_inside_weights
I0620 19:58:05.168175 16504 net.cpp:418] bbox_inside_weights_roi-data_3_split -> bbox_inside_weights_roi-data_3_split_0
I0620 19:58:05.168189 16504 net.cpp:418] bbox_inside_weights_roi-data_3_split -> bbox_inside_weights_roi-data_3_split_1
I0620 19:58:05.168228 16504 net.cpp:150] Setting up bbox_inside_weights_roi-data_3_split
I0620 19:58:05.168236 16504 net.cpp:157] Top shape: 1 8 1 1 (8)
I0620 19:58:05.168237 16504 net.cpp:157] Top shape: 1 8 1 1 (8)
I0620 19:58:05.168239 16504 net.cpp:165] Memory required for data: 6617261228
I0620 19:58:05.168242 16504 layer_factory.hpp:77] Creating layer conv_new_1
I0620 19:58:05.168263 16504 net.cpp:100] Creating Layer conv_new_1
I0620 19:58:05.168268 16504 net.cpp:444] conv_new_1 <- res5c
I0620 19:58:05.168282 16504 net.cpp:418] conv_new_1 -> conv_new_1
I0620 19:58:05.402801 16504 cudnn_conv_layer.cpp:194] Reallocating workspace storage: 92952
I0620 19:58:05.402829 16504 net.cpp:150] Setting up conv_new_1
I0620 19:58:05.402842 16504 net.cpp:157] Top shape: 1 1024 60 80 (4915200)
I0620 19:58:05.402844 16504 net.cpp:165] Memory required for data: 6636922028
I0620 19:58:05.402863 16504 layer_factory.hpp:77] Creating layer conv_new_1_relu
I0620 19:58:05.402885 16504 net.cpp:100] Creating Layer conv_new_1_relu
I0620 19:58:05.402895 16504 net.cpp:444] conv_new_1_relu <- conv_new_1
I0620 19:58:05.402912 16504 net.cpp:405] conv_new_1_relu -> conv_new_1 (in-place)
I0620 19:58:05.403337 16504 net.cpp:150] Setting up conv_new_1_relu
I0620 19:58:05.403347 16504 net.cpp:157] Top shape: 1 1024 60 80 (4915200)
I0620 19:58:05.403349 16504 net.cpp:165] Memory required for data: 6656582828
I0620 19:58:05.403354 16504 layer_factory.hpp:77] Creating layer conv_new_1_conv_new_1_relu_0_split
I0620 19:58:05.403364 16504 net.cpp:100] Creating Layer conv_new_1_conv_new_1_relu_0_split
I0620 19:58:05.403369 16504 net.cpp:444] conv_new_1_conv_new_1_relu_0_split <- conv_new_1
I0620 19:58:05.403383 16504 net.cpp:418] conv_new_1_conv_new_1_relu_0_split -> conv_new_1_conv_new_1_relu_0_split_0
I0620 19:58:05.403398 16504 net.cpp:418] conv_new_1_conv_new_1_relu_0_split -> conv_new_1_conv_new_1_relu_0_split_1
I0620 19:58:05.403446 16504 net.cpp:150] Setting up conv_new_1_conv_new_1_relu_0_split
I0620 19:58:05.403455 16504 net.cpp:157] Top shape: 1 1024 60 80 (4915200)
I0620 19:58:05.403457 16504 net.cpp:157] Top shape: 1 1024 60 80 (4915200)
I0620 19:58:05.403460 16504 net.cpp:165] Memory required for data: 6695904428
I0620 19:58:05.403462 16504 layer_factory.hpp:77] Creating layer rfcn_cls
I0620 19:58:05.403483 16504 net.cpp:100] Creating Layer rfcn_cls
I0620 19:58:05.403488 16504 net.cpp:444] rfcn_cls <- conv_new_1_conv_new_1_relu_0_split_0
I0620 19:58:05.403502 16504 net.cpp:418] rfcn_cls -> rfcn_cls
I0620 19:58:05.426903 16504 cudnn_conv_layer.cpp:194] Reallocating workspace storage: 92952
I0620 19:58:05.426928 16504 net.cpp:150] Setting up rfcn_cls
I0620 19:58:05.426941 16504 net.cpp:157] Top shape: 1 196 60 80 (940800)
I0620 19:58:05.426944 16504 net.cpp:165] Memory required for data: 6699667628
I0620 19:58:05.426962 16504 layer_factory.hpp:77] Creating layer rfcn_bbox
I0620 19:58:05.426992 16504 net.cpp:100] Creating Layer rfcn_bbox
I0620 19:58:05.427001 16504 net.cpp:444] rfcn_bbox <- conv_new_1_conv_new_1_relu_0_split_1
I0620 19:58:05.427021 16504 net.cpp:418] rfcn_bbox -> rfcn_bbox
I0620 19:58:05.473289 16504 cudnn_conv_layer.cpp:194] Reallocating workspace storage: 92952
I0620 19:58:05.473317 16504 net.cpp:150] Setting up rfcn_bbox
I0620 19:58:05.473328 16504 net.cpp:157] Top shape: 1 392 60 80 (1881600)
I0620 19:58:05.473331 16504 net.cpp:165] Memory required for data: 6707194028
I0620 19:58:05.473351 16504 layer_factory.hpp:77] Creating layer psroipooled_cls_rois
I0620 19:58:05.473374 16504 net.cpp:100] Creating Layer psroipooled_cls_rois
I0620 19:58:05.473384 16504 net.cpp:444] psroipooled_cls_rois <- rfcn_cls
I0620 19:58:05.473399 16504 net.cpp:444] psroipooled_cls_rois <- rois_roi-data_0_split_0
I0620 19:58:05.473409 16504 net.cpp:418] psroipooled_cls_rois -> psroipooled_cls_rois
I0620 19:58:05.473428 16504 psroi_pooling_layer.cpp:26] Spatial scale: 0.0625
I0620 19:58:05.473479 16504 net.cpp:150] Setting up psroipooled_cls_rois
I0620 19:58:05.473486 16504 net.cpp:157] Top shape: 1 4 7 7 (196)
I0620 19:58:05.473487 16504 net.cpp:165] Memory required for data: 6707194812
I0620 19:58:05.473491 16504 layer_factory.hpp:77] Creating layer ave_cls_score_rois
I0620 19:58:05.473503 16504 net.cpp:100] Creating Layer ave_cls_score_rois
I0620 19:58:05.473508 16504 net.cpp:444] ave_cls_score_rois <- psroipooled_cls_rois
I0620 19:58:05.473520 16504 net.cpp:418] ave_cls_score_rois -> cls_score
I0620 19:58:05.473697 16504 net.cpp:150] Setting up ave_cls_score_rois
I0620 19:58:05.473707 16504 net.cpp:157] Top shape: 1 4 1 1 (4)
I0620 19:58:05.473709 16504 net.cpp:165] Memory required for data: 6707194828
I0620 19:58:05.473713 16504 layer_factory.hpp:77] Creating layer cls_score_ave_cls_score_rois_0_split
I0620 19:58:05.473722 16504 net.cpp:100] Creating Layer cls_score_ave_cls_score_rois_0_split
I0620 19:58:05.473727 16504 net.cpp:444] cls_score_ave_cls_score_rois_0_split <- cls_score
I0620 19:58:05.473740 16504 net.cpp:418] cls_score_ave_cls_score_rois_0_split -> cls_score_ave_cls_score_rois_0_split_0
I0620 19:58:05.473754 16504 net.cpp:418] cls_score_ave_cls_score_rois_0_split -> cls_score_ave_cls_score_rois_0_split_1
I0620 19:58:05.473764 16504 net.cpp:418] cls_score_ave_cls_score_rois_0_split -> cls_score_ave_cls_score_rois_0_split_2
I0620 19:58:05.473820 16504 net.cpp:150] Setting up cls_score_ave_cls_score_rois_0_split
I0620 19:58:05.473829 16504 net.cpp:157] Top shape: 1 4 1 1 (4)
I0620 19:58:05.473830 16504 net.cpp:157] Top shape: 1 4 1 1 (4)
I0620 19:58:05.473834 16504 net.cpp:157] Top shape: 1 4 1 1 (4)
I0620 19:58:05.473834 16504 net.cpp:165] Memory required for data: 6707194876
I0620 19:58:05.473839 16504 layer_factory.hpp:77] Creating layer psroipooled_loc_rois
I0620 19:58:05.473846 16504 net.cpp:100] Creating Layer psroipooled_loc_rois
I0620 19:58:05.473850 16504 net.cpp:444] psroipooled_loc_rois <- rfcn_bbox
I0620 19:58:05.473860 16504 net.cpp:444] psroipooled_loc_rois <- rois_roi-data_0_split_1
I0620 19:58:05.473868 16504 net.cpp:418] psroipooled_loc_rois -> psroipooled_loc_rois
I0620 19:58:05.473881 16504 psroi_pooling_layer.cpp:26] Spatial scale: 0.0625
I0620 19:58:05.473922 16504 net.cpp:150] Setting up psroipooled_loc_rois
I0620 19:58:05.473928 16504 net.cpp:157] Top shape: 1 8 7 7 (392)
I0620 19:58:05.473932 16504 net.cpp:165] Memory required for data: 6707196444
I0620 19:58:05.473934 16504 layer_factory.hpp:77] Creating layer ave_bbox_pred_rois
I0620 19:58:05.473944 16504 net.cpp:100] Creating Layer ave_bbox_pred_rois
I0620 19:58:05.473949 16504 net.cpp:444] ave_bbox_pred_rois <- psroipooled_loc_rois
I0620 19:58:05.473961 16504 net.cpp:418] ave_bbox_pred_rois -> bbox_pred
I0620 19:58:05.474129 16504 net.cpp:150] Setting up ave_bbox_pred_rois
I0620 19:58:05.474138 16504 net.cpp:157] Top shape: 1 8 1 1 (8)
I0620 19:58:05.474140 16504 net.cpp:165] Memory required for data: 6707196476
I0620 19:58:05.474144 16504 layer_factory.hpp:77] Creating layer bbox_pred_ave_bbox_pred_rois_0_split
I0620 19:58:05.474153 16504 net.cpp:100] Creating Layer bbox_pred_ave_bbox_pred_rois_0_split
I0620 19:58:05.474158 16504 net.cpp:444] bbox_pred_ave_bbox_pred_rois_0_split <- bbox_pred
I0620 19:58:05.474170 16504 net.cpp:418] bbox_pred_ave_bbox_pred_rois_0_split -> bbox_pred_ave_bbox_pred_rois_0_split_0
I0620 19:58:05.474184 16504 net.cpp:418] bbox_pred_ave_bbox_pred_rois_0_split -> bbox_pred_ave_bbox_pred_rois_0_split_1
I0620 19:58:05.474228 16504 net.cpp:150] Setting up bbox_pred_ave_bbox_pred_rois_0_split
I0620 19:58:05.474236 16504 net.cpp:157] Top shape: 1 8 1 1 (8)
I0620 19:58:05.474238 16504 net.cpp:157] Top shape: 1 8 1 1 (8)
I0620 19:58:05.474241 16504 net.cpp:165] Memory required for data: 6707196540
I0620 19:58:05.474244 16504 layer_factory.hpp:77] Creating layer per_roi_loss_cls
I0620 19:58:05.474254 16504 net.cpp:100] Creating Layer per_roi_loss_cls
I0620 19:58:05.474258 16504 net.cpp:444] per_roi_loss_cls <- cls_score_ave_cls_score_rois_0_split_0
I0620 19:58:05.474268 16504 net.cpp:444] per_roi_loss_cls <- labels_roi-data_1_split_0
I0620 19:58:05.474277 16504 net.cpp:418] per_roi_loss_cls -> temp_loss_cls
I0620 19:58:05.474289 16504 net.cpp:418] per_roi_loss_cls -> temp_prob_cls
I0620 19:58:05.474300 16504 net.cpp:418] per_roi_loss_cls -> per_roi_loss_cls
I0620 19:58:05.474313 16504 layer_factory.hpp:77] Creating layer per_roi_loss_cls
I0620 19:58:05.474849 16504 net.cpp:150] Setting up per_roi_loss_cls
I0620 19:58:05.474860 16504 net.cpp:157] Top shape: (1)
I0620 19:58:05.474864 16504 net.cpp:157] Top shape: 1 4 1 1 (4)
I0620 19:58:05.474867 16504 net.cpp:157] Top shape: 1 1 1 1 (1)
I0620 19:58:05.474870 16504 net.cpp:165] Memory required for data: 6707196564
I0620 19:58:05.474874 16504 layer_factory.hpp:77] Creating layer per_roi_loss_bbox
I0620 19:58:05.474886 16504 net.cpp:100] Creating Layer per_roi_loss_bbox
I0620 19:58:05.474892 16504 net.cpp:444] per_roi_loss_bbox <- bbox_pred_ave_bbox_pred_rois_0_split_0
I0620 19:58:05.474903 16504 net.cpp:444] per_roi_loss_bbox <- bbox_targets_roi-data_2_split_0
I0620 19:58:05.474910 16504 net.cpp:444] per_roi_loss_bbox <- bbox_inside_weights_roi-data_3_split_0
I0620 19:58:05.474918 16504 net.cpp:418] per_roi_loss_bbox -> temp_loss_bbox
I0620 19:58:05.474933 16504 net.cpp:418] per_roi_loss_bbox -> per_roi_loss_bbox
I0620 19:58:05.474998 16504 net.cpp:150] Setting up per_roi_loss_bbox
I0620 19:58:05.475005 16504 net.cpp:157] Top shape: (1)
I0620 19:58:05.475008 16504 net.cpp:157] Top shape: 1 1 1 1 (1)
I0620 19:58:05.475010 16504 net.cpp:165] Memory required for data: 6707196572
I0620 19:58:05.475013 16504 layer_factory.hpp:77] Creating layer per_roi_loss
I0620 19:58:05.475023 16504 net.cpp:100] Creating Layer per_roi_loss
I0620 19:58:05.475028 16504 net.cpp:444] per_roi_loss <- per_roi_loss_cls
I0620 19:58:05.475037 16504 net.cpp:444] per_roi_loss <- per_roi_loss_bbox
I0620 19:58:05.475046 16504 net.cpp:418] per_roi_loss -> per_roi_loss
I0620 19:58:05.475080 16504 net.cpp:150] Setting up per_roi_loss
I0620 19:58:05.475087 16504 net.cpp:157] Top shape: 1 1 1 1 (1)
I0620 19:58:05.475090 16504 net.cpp:165] Memory required for data: 6707196576
I0620 19:58:05.475093 16504 layer_factory.hpp:77] Creating layer annotator_detector
I0620 19:58:05.475105 16504 net.cpp:100] Creating Layer annotator_detector
I0620 19:58:05.475109 16504 net.cpp:444] annotator_detector <- rois_roi-data_0_split_2
I0620 19:58:05.475119 16504 net.cpp:444] annotator_detector <- per_roi_loss
I0620 19:58:05.475126 16504 net.cpp:444] annotator_detector <- labels_roi-data_1_split_1
I0620 19:58:05.475131 16504 net.cpp:444] annotator_detector <- bbox_inside_weights_roi-data_3_split_1
I0620 19:58:05.475138 16504 net.cpp:418] annotator_detector -> labels_ohem
I0620 19:58:05.475152 16504 net.cpp:418] annotator_detector -> bbox_loss_weights_ohem
I0620 19:58:05.475198 16504 net.cpp:150] Setting up annotator_detector
I0620 19:58:05.475205 16504 net.cpp:157] Top shape: 1 1 1 1 (1)
I0620 19:58:05.475209 16504 net.cpp:157] Top shape: 1 8 1 1 (8)
I0620 19:58:05.475211 16504 net.cpp:165] Memory required for data: 6707196612
I0620 19:58:05.475214 16504 layer_factory.hpp:77] Creating layer labels_ohem_annotator_detector_0_split
I0620 19:58:05.475221 16504 net.cpp:100] Creating Layer labels_ohem_annotator_detector_0_split
I0620 19:58:05.475226 16504 net.cpp:444] labels_ohem_annotator_detector_0_split <- labels_ohem
I0620 19:58:05.475239 16504 net.cpp:418] labels_ohem_annotator_detector_0_split -> labels_ohem_annotator_detector_0_split_0
I0620 19:58:05.475250 16504 net.cpp:418] labels_ohem_annotator_detector_0_split -> labels_ohem_annotator_detector_0_split_1
I0620 19:58:05.475293 16504 net.cpp:150] Setting up labels_ohem_annotator_detector_0_split
I0620 19:58:05.475301 16504 net.cpp:157] Top shape: 1 1 1 1 (1)
I0620 19:58:05.475303 16504 net.cpp:157] Top shape: 1 1 1 1 (1)
I0620 19:58:05.475306 16504 net.cpp:165] Memory required for data: 6707196620
I0620 19:58:05.475308 16504 layer_factory.hpp:77] Creating layer silence
I0620 19:58:05.475317 16504 net.cpp:100] Creating Layer silence
I0620 19:58:05.475322 16504 net.cpp:444] silence <- bbox_outside_weights
I0620 19:58:05.475330 16504 net.cpp:444] silence <- temp_loss_cls
I0620 19:58:05.475337 16504 net.cpp:444] silence <- temp_prob_cls
…
