…
snapshot_prefix: "resnet50_rfcn_ohem"
iter_size: 8
I0704 20:55:54.246683 22667 solver.cpp:81] Creating training net from train_net file: /home/user/Disk1.8T/py-R-FCN/experiments/7_1_head_body_un/train_agnostic_ohem.prototxt
I0704 20:55:54.248930 22667 net.cpp:58] Initializing net from parameters: 
name: "ResNet-50"
state {
  phase: TRAIN
}
layer {
  name: "input-data"
  type: "Python"
  top: "data"
  top: "im_info"
  top: "gt_boxes"
  top: "head_gt_boxes"
  python_param {
    module: "roi_data_layer.layer"
    layer: "RoIDataLayer"
    param_str: "\'num_classes\': 3"
  }
}
layer {
  name: "conv1"
  type: "Convolution"
  bottom: "data"
  top: "conv1"
  param {
    lr_mult: 0
  }
  param {
    lr_mult: 0
  }
  convolution_param {
    num_output: 64
    pad: 3
    kernel_size: 7
    stride: 2
  }
}
layer {
  name: "bn_conv1"
  type: "BatchNorm"
  bottom: "conv1"
  top: "conv1"
  param {
    lr_mult: 0
    decay_mult: 0
  }
  param {
    lr_mult: 0
    decay_mult: 0
  }
  param {
    lr_mult: 0
    decay_mult: 0
  }
  batch_norm_param {
    use_global_stats: true
  }
}
layer {
  name: "scale_conv1"
  type: "Scale"
  bottom: "conv1"
  top: "conv1"
  param {
    lr_mult: 0
    decay_mult: 0
  }
  param {
    lr_mult: 0
    decay_mult: 0
  }
  scale_param {
    bias_term: true
  }
}
layer {
  name: "conv1_relu"
  type: "ReLU"
  bottom: "conv1"
  top: "conv1"
}
layer {
  name: "pool1"
  type: "Pooling"
  bottom: "conv1"
  top: "pool1"
  pooling_param {
    pool: MAX
    kernel_size: 3
    stride: 2
  }
}
layer {
  name: "res2a_branch1"
  type: "Convolution"
  bottom: "pool1"
  top: "res2a_branch1"
  param {
    lr_mult: 0
  }
  convolution_param {
    num_output: 256
    bias_term: false
    pad: 0
    kernel_size: 1
    stride: 1
  }
}
layer {
  name: "bn2a_branch1"
  type: "BatchNorm"
  bottom: "res2a_branch1"
  top: "res2a_branch1"
  param {
    lr_mult: 0
    decay_mult: 0
  }
  param {
    lr_mult: 0
    decay_mult: 0
  }
  param {
    lr_mult: 0
    decay_mult: 0
  }
  batch_norm_param {
    use_global_stats: true
  }
}
layer {
  name: "scale2a_branch1"
  type: "Scale"
  bottom: "res2a_branch1"
  top: "res2a_branch1"
  param {
    lr_mult: 0
    decay_mult: 0
  }
  param {
    lr_mult: 0
    decay_mult: 0
  }
  scale_param {
    bias_term: true
  }
}
layer {
  name: "res2a_branch2a"
  type: "Convolution"
  bottom: "pool1"
  top: "res2a_branch2a"
  param {
    lr_mult: 0
  }
  convolution_param {
    num_output: 64
    bias_term: false
    pad: 0
    kernel_size: 1
    stride: 1
  }
}
layer {
  name: "bn2a_branch2a"
  type: "BatchNorm"
  bottom: "res2a_branch2a"
  top: "res2a_branch2a"
  param {
    lr_mult: 0
    decay_mult: 0
  }
  param {
    lr_mult: 0
    decay_mult: 0
  }
  param {
    lr_mult: 0
    decay_mult: 0
  }
  batch_norm_param {
    use_global_stats: true
  }
}
layer {
  name: "scale2a_branch2a"
  type: "Scale"
  bottom: "res2a_branch2a"
  top: "res2a_branch2a"
  param {
    lr_mult: 0
    decay_mult: 0
  }
  param {
    lr_mult: 0
    decay_mult: 0
  }
  scale_param {
    bias_term: true
  }
}
layer {
  name: "res2a_branch2a_relu"
  type: "ReLU"
  bottom: "res2a_branch2a"
  top: "res2a_branch2a"
}
layer {
  name: "res2a_branch2b"
  type: "Convolution"
  bottom: "res2a_branch2a"
  top: "res2a_branch2b"
  param {
    lr_mult: 0
  }
  convolution_param {
    num_output: 64
    bias_term: false
    pad: 1
    kernel_size: 3
    stride: 1
  }
}
layer {
  name: "bn2a_branch2b"
  type: "BatchNorm"
  bottom: "res2a_branch2b"
  top: "res2a_branch2b"
  param {
    lr_mult: 0
    decay_mult: 0
  }
  param {
    lr_mult: 0
    decay_mult: 0
  }
  param {
    lr_mult: 0
    decay_mult: 0
  }
  batch_norm_param {
    use_global_stats: true
  }
}
layer {
  name: "scale2a_branch2b"
  type: "Scale"
  bottom: "res2a_branch2b"
  top: "res2a_branch2b"
  param {
    lr_mult: 0
    decay_mult: 0
  }
  param {
    lr_mult: 0
    decay_mult: 0
  }
  scale_param {
    bias_term: true
  }
}
layer {
  name: "res2a_branch2b_relu"
  type: "ReLU"
  bottom: "res2a_branch2b"
  top: "res2a_branch2b"
}
layer {
  name: "res2a_branch2c"
  type: "Convolution"
  bottom: "res2a_branch2b"
  top: "res2a_branch2c"
  param {
    lr_mult: 0
  }
  convolution_param {
    num_output: 256
    bias_term: false
    pad: 0
    kernel_size: 1
    stride: 1
  }
}
layer {
  name: "bn2a_branch2c"
  type: "BatchNorm"
  bottom: "res2a_branch2c"
  top: "res2a_branch2c"
  param {
    lr_mult: 0
    decay_mult: 0
  }
  param {
    lr_mult: 0
    decay_mult: 0
  }
  param {
    lr_mult: 0
    decay_mult: 0
  }
  batch_norm_param {
    use_global_stats: true
  }
}
layer {
  name: "scale2a_branch2c"
  type: "Scale"
  bottom: "res2a_branch2c"
  top: "res2a_branch2c"
  param {
    lr_mult: 0
    decay_mult: 0
  }
  param {
    lr_mult: 0
    decay_mult: 0
  }
  scale_param {
    bias_term: true
  }
}
layer {
  name: "res2a"
  type: "Eltwise"
  bottom: "res2a_branch1"
  bottom: "res2a_branch2c"
  top: "res2a"
}
layer {
  name: "res2a_relu"
  type: "ReLU"
  bottom: "res2a"
  top: "res2a"
}
layer {
  name: "res2b_branch2a"
  type: "Convolution"
  bottom: "res2a"
  top: "res2b_branch2a"
  param {
    lr_mult: 0
  }
  convolution_param {
    num_output: 64
    bias_term: false
    pad: 0
    kernel_size: 1
    stride: 1
  }
}
layer {
  name: "bn2b_branch2a"
  type: "BatchNorm"
  bottom: "res2b_branch2a"
  top: "res2b_branch2a"
  param {
    lr_mult: 0
    decay_mult: 0
  }
  param {
    lr_mult: 0
    decay_mult: 0
  }
  param {
    lr_mult: 0
    decay_mult: 0
  }
  batch_norm_param {
    use_global_stats: true
  }
}
layer {
  name: "scale2b_branch2a"
  type: "Scale"
  bottom: "res2b_branch2a"
  top: "res2b_branch2a"
  param {
    lr_mult: 0
    decay_mult: 0
  }
  param {
    lr_mult: 0
    decay_mult: 0
  }
  scale_param {
    bias_term: true
  }
}
layer {
  name: "res2b_branch2a_relu"
  type: "ReLU"
  bottom: "res2b_branch2a"
  top: "res2b_branch2a"
}
layer {
  name: "res2b_branch2b"
  type: "Convolution"
  bottom: "res2b_branch2a"
  top: "res2b_branch2b"
  param {
    lr_mult: 0
  }
  convolution_param {
    num_output: 64
    bias_term: false
    pad: 1
    kernel_size: 3
    stride: 1
  }
}
layer {
  name: "bn2b_branch2b"
  type: "BatchNorm"
  bottom: "res2b_branch2b"
  top: "res2b_branch2b"
  param {
    lr_mult: 0
    decay_mult: 0
  }
  param {
    lr_mult: 0
    decay_mult: 0
  }
  param {
    lr_mult: 0
    decay_mult: 0
  }
  batch_norm_param {
    use_global_stats: true
  }
}
layer {
  name: "scale2b_branch2b"
  type: "Scale"
  bottom: "res2b_branch2b"
  top: "res2b_branch2b"
  param {
    lr_mult: 0
    decay_mult: 0
  }
  param {
    lr_mult: 0
    decay_mult: 0
  }
  scale_param {
    bias_term: true
  }
}
layer {
  name: "res2b_branch2b_relu"
  type: "ReLU"
  bottom: "res2b_branch2b"
  top: "res2b_branch2b"
}
layer {
  name: "res2b_branch2c"
  type: "Convolution"
  bottom: "res2b_branch2b"
  top: "res2b_branch2c"
  param {
    lr_mult: 0
  }
  convolution_param {
    num_output: 256
    bias_term: false
    pad: 0
    kernel_size: 1
    stride: 1
  }
}
layer {
  name: "bn2b_branch2c"
  type: "BatchNorm"
  bottom: "res2b_branch2c"
  top: "res2b_branch2c"
  param {
    lr_mult: 0
    decay_mult: 0
  }
  param {
    lr_mult: 0
    decay_mult: 0
  }
  param {
    lr_mult: 0
    decay_mult: 0
  }
  batch_norm_param {
    use_global_stats: true
  }
}
layer {
  name: "scale2b_branch2c"
  type: "Scale"
  bottom: "res2b_branch2c"
  top: "res2b_branch2c"
  param {
    lr_mult: 0
    decay_mult: 0
  }
  param {
    lr_mult: 0
    decay_mult: 0
  }
  scale_param {
    bias_term: true
  }
}
layer {
  name: "res2b"
  type: "Eltwise"
  bottom: "res2a"
  bottom: "res2b_branch2c"
  top: "res2b"
}
layer {
  name: "res2b_relu"
  type: "ReLU"
  bottom: "res2b"
  top: "res2b"
}
layer {
  name: "res2c_branch2a"
  type: "Convolution"
  bottom: "res2b"
  top: "res2c_branch2a"
  param {
    lr_mult: 0
  }
  convolution_param {
    num_output: 64
    bias_term: false
    pad: 0
    kernel_size: 1
    stride: 1
  }
}
layer {
  name: "bn2c_branch2a"
  type: "BatchNorm"
  bottom: "res2c_branch2a"
  top: "res2c_branch2a"
  param {
    lr_mult: 0
    decay_mult: 0
  }
  param {
    lr_mult: 0
    decay_mult: 0
  }
  param {
    lr_mult: 0
    decay_mult: 0
  }
  batch_norm_param {
    use_global_stats: true
  }
}
layer {
  name: "scale2c_branch2a"
  type: "Scale"
  bottom: "res2c_branch2a"
  top: "res2c_branch2a"
  param {
    lr_mult: 0
    decay_mult: 0
  }
  param {
    lr_mult: 0
    decay_mult: 0
  }
  scale_param {
    bias_term: true
  }
}
layer {
  name: "res2c_branch2a_relu"
  type: "ReLU"
  bottom: "res2c_branch2a"
  top: "res2c_branch2a"
}
layer {
  name: "res2c_branch2b"
  type: "Convolution"
  bottom: "res2c_branch2a"
  top: "res2c_branch2b"
  param {
    lr_mult: 0
  }
  convolution_param {
    num_output: 64
    bias_term: false
    pad: 1
    kernel_size: 3
    stride: 1
  }
}
layer {
  name: "bn2c_branch2b"
  type: "BatchNorm"
  bottom: "res2c_branch2b"
  top: "res2c_branch2b"
  param {
    lr_mult: 0
    decay_mult: 0
  }
  param {
    lr_mult: 0
    decay_mult: 0
  }
  param {
    lr_mult: 0
    decay_mult: 0
  }
  batch_norm_param {
    use_global_stats: true
  }
}
layer {
  name: "scale2c_branch2b"
  type: "Scale"
  bottom: "res2c_branch2b"
  top: "res2c_branch2b"
  param {
    lr_mult: 0
    decay_mult: 0
  }
  param {
    lr_mult: 0
    decay_mult: 0
  }
  scale_param {
    bias_term: true
  }
}
layer {
  name: "res2c_branch2b_relu"
  type: "ReLU"
  bottom: "res2c_branch2b"
  top: "res2c_branch2b"
}
layer {
  name: "res2c_branch2c"
  type: "Convolution"
  bottom: "res2c_branch2b"
  top: "res2c_branch2c"
  param {
    lr_mult: 0
  }
  convolution_param {
    num_output: 256
    bias_term: false
    pad: 0
    kernel_size: 1
    stride: 1
  }
}
layer {
  name: "bn2c_branch2c"
  type: "BatchNorm"
  bottom: "res2c_branch2c"
  top: "res2c_branch2c"
  param {
    lr_mult: 0
    decay_mult: 0
  }
  param {
    lr_mult: 0
    decay_mult: 0
  }
  param {
    lr_mult: 0
    decay_mult: 0
  }
  batch_norm_param {
    use_global_stats: true
  }
}
layer {
  name: "scale2c_branch2c"
  type: "Scale"
  bottom: "res2c_branch2c"
  top: "res2c_branch2c"
  param {
    lr_mult: 0
    decay_mult: 0
  }
  param {
    lr_mult: 0
    decay_mult: 0
  }
  scale_param {
    bias_term: true
  }
}
layer {
  name: "res2c"
  type: "Eltwise"
  bottom: "res2b"
  bottom: "res2c_branch2c"
  top: "res2c"
}
layer {
  name: "res2c_relu"
  type: "ReLU"
  bottom: "res2c"
  top: "res2c"
}
layer {
  name: "res3a_branch1"
  type: "Convolution"
  bottom: "res2c"
  top: "res3a_branch1"
  param {
    lr_mult: 1
  }
  convolution_param {
    num_output: 512
    bias_term: false
    pad: 0
    kernel_size: 1
    stride: 2
  }
}
layer {
  name: "bn3a_branch1"
  type: "BatchNorm"
  bottom: "res3a_branch1"
  top: "res3a_branch1"
  param {
    lr_mult: 0
    decay_mult: 0
  }
  param {
    lr_mult: 0
    decay_mult: 0
  }
  param {
    lr_mult: 0
    decay_mult: 0
  }
  batch_norm_param {
    use_global_stats: true
  }
}
layer {
  name: "scale3a_branch1"
  type: "Scale"
  bottom: "res3a_branch1"
  top: "res3a_branch1"
  param {
    lr_mult: 0
    decay_mult: 0
  }
  param {
    lr_mult: 0
    decay_mult: 0
  }
  scale_param {
    bias_term: true
  }
}
layer {
  name: "res3a_branch2a"
  type: "Convolution"
  bottom: "res2c"
  top: "res3a_branch2a"
  param {
    lr_mult: 1
  }
  convolution_param {
    num_output: 128
    bias_term: false
    pad: 0
    kernel_size: 1
    stride: 2
  }
}
layer {
  name: "bn3a_branch2a"
  type: "BatchNorm"
  bottom: "res3a_branch2a"
  top: "res3a_branch2a"
  param {
    lr_mult: 0
    decay_mult: 0
  }
  param {
    lr_mult: 0
    decay_mult: 0
  }
  param {
    lr_mult: 0
    decay_mult: 0
  }
  batch_norm_param {
    use_global_stats: true
  }
}
layer {
  name: "scale3a_branch2a"
  type: "Scale"
  bottom: "res3a_branch2a"
  top: "res3a_branch2a"
  param {
    lr_mult: 0
    decay_mult: 0
  }
  param {
    lr_mult: 0
    decay_mult: 0
  }
  scale_param {
    bias_term: true
  }
}
layer {
  name: "res3a_branch2a_relu"
  type: "ReLU"
  bottom: "res3a_branch2a"
  top: "res3a_branch2a"
}
layer {
  name: "res3a_branch2b"
  type: "Convolution"
  bottom: "res3a_branch2a"
  top: "res3a_branch2b"
  param {
    lr_mult: 1
  }
  convolution_param {
    num_output: 128
    bias_term: false
    pad: 1
    kernel_size: 3
    stride: 1
  }
}
layer {
  name: "bn3a_branch2b"
  type: "BatchNorm"
  bottom: "res3a_branch2b"
  top: "res3a_branch2b"
  param {
    lr_mult: 0
    decay_mult: 0
  }
  param {
    lr_mult: 0
    decay_mult: 0
  }
  param {
    lr_mult: 0
    decay_mult: 0
  }
  batch_norm_param {
    use_global_stats: true
  }
}
layer {
  name: "scale3a_branch2b"
  type: "Scale"
  bottom: "res3a_branch2b"
  top: "res3a_branch2b"
  param {
    lr_mult: 0
    decay_mult: 0
  }
  param {
    lr_mult: 0
    decay_mult: 0
  }
  scale_param {
    bias_term: true
  }
}
layer {
  name: "res3a_branch2b_relu"
  type: "ReLU"
  bottom: "res3a_branch2b"
  top: "res3a_branch2b"
}
layer {
  name: "res3a_branch2c"
  type: "Convolution"
  bottom: "res3a_branch2b"
  top: "res3a_branch2c"
  param {
    lr_mult: 1
  }
  convolution_param {
    num_output: 512
    bias_term: false
    pad: 0
    kernel_size: 1
    stride: 1
  }
}
layer {
  name: "bn3a_branch2c"
  type: "BatchNorm"
  bottom: "res3a_branch2c"
  top: "res3a_branch2c"
  param {
    lr_mult: 0
    decay_mult: 0
  }
  param {
    lr_mult: 0
    decay_mult: 0
  }
  param {
    lr_mult: 0
    decay_mult: 0
  }
  batch_norm_param {
    use_global_stats: true
  }
}
layer {
  name: "scale3a_branch2c"
  type: "Scale"
  bottom: "res3a_branch2c"
  top: "res3a_branch2c"
  param {
    lr_mult: 0
    decay_mult: 0
  }
  param {
    lr_mult: 0
    decay_mult: 0
  }
  scale_param {
    bias_term: true
  }
}
layer {
  name: "res3a"
  type: "Eltwise"
  bottom: "res3a_branch1"
  bottom: "res3a_branch2c"
  top: "res3a"
}
layer {
  name: "res3a_relu"
  type: "ReLU"
  bottom: "res3a"
  top: "res3a"
}
layer {
  name: "res3b_branch2a"
  type: "Convolution"
  bottom: "res3a"
  top: "res3b_branch2a"
  param {
    lr_mult: 1
  }
  convolution_param {
    num_output: 128
    bias_term: false
    pad: 0
    kernel_size: 1
    stride: 1
  }
}
layer {
  name: "bn3b_branch2a"
  type: "BatchNorm"
  bottom: "res3b_branch2a"
  top: "res3b_branch2a"
  param {
    lr_mult: 0
    decay_mult: 0
  }
  param {
    lr_mult: 0
    decay_mult: 0
  }
  param {
    lr_mult: 0
    decay_mult: 0
  }
  batch_norm_param {
    use_global_stats: true
  }
}
layer {
  name: "scale3b_branch2a"
  type: "Scale"
  bottom: "res3b_branch2a"
  top: "res3b_branch2a"
  param {
    lr_mult: 0
    decay_mult: 0
  }
  param {
    lr_mult: 0
    decay_mult: 0
  }
  scale_param {
    bias_term: true
  }
}
layer {
  name: "res3b_branch2a_relu"
  type: "ReLU"
  bottom: "res3b_branch2a"
  top: "res3b_branch2a"
}
layer {
  name: "res3b_branch2b"
  type: "Convolution"
  bottom: "res3b_branch2a"
  top: "res3b_branch2b"
  param {
    lr_mult: 1
  }
  convolution_param {
    num_output: 128
    bias_term: false
    pad: 1
    kernel_size: 3
    stride: 1
  }
}
layer {
  name: "bn3b_branch2b"
  type: "BatchNorm"
  bottom: "res3b_branch2b"
  top: "res3b_branch2b"
  param {
    lr_mult: 0
    decay_mult: 0
  }
  param {
    lr_mult: 0
    decay_mult: 0
  }
  param {
    lr_mult: 0
    decay_mult: 0
  }
  batch_norm_param {
    use_global_stats: true
  }
}
layer {
  name: "scale3b_branch2b"
  type: "Scale"
  bottom: "res3b_branch2b"
  top: "res3b_branch2b"
  param {
    lr_mult: 0
    decay_mult: 0
  }
  param {
    lr_mult: 0
    decay_mult: 0
  }
  scale_param {
    bias_term: true
  }
}
layer {
  name: "res3b_branch2b_relu"
  type: "ReLU"
  bottom: "res3b_branch2b"
  top: "res3b_branch2b"
}
layer {
  name: "res3b_branch2c"
  type: "Convolution"
  bottom: "res3b_branch2b"
  top: "res3b_branch2c"
  param {
    lr_mult: 1
  }
  convolution_param {
    num_output: 512
    bias_term: false
    pad: 0
    kernel_size: 1
    stride: 1
  }
}
layer {
  name: "bn3b_branch2c"
  type: "BatchNorm"
  bottom: "res3b_branch2c"
  top: "res3b_branch2c"
  param {
    lr_mult: 0
    decay_mult: 0
  }
  param {
    lr_mult: 0
    decay_mult: 0
  }
  param {
    lr_mult: 0
    decay_mult: 0
  }
  batch_norm_param {
    use_global_stats: true
  }
}
layer {
  name: "scale3b_branch2c"
  type: "Scale"
  bottom: "res3b_branch2c"
  top: "res3b_branch2c"
  param {
    lr_mult: 0
    decay_mult: 0
  }
  param {
    lr_mult: 0
    decay_mult: 0
  }
  scale_param {
    bias_term: true
  }
}
layer {
  name: "res3b"
  type: "Eltwise"
  bottom: "res3a"
  bottom: "res3b_branch2c"
  top: "res3b"
}
layer {
  name: "res3b_relu"
  type: "ReLU"
  bottom: "res3b"
  top: "res3b"
}
layer {
  name: "res3c_branch2a"
  type: "Convolution"
  bottom: "res3b"
  top: "res3c_branch2a"
  param {
    lr_mult: 1
  }
  convolution_param {
    num_output: 128
    bias_term: false
    pad: 0
    kernel_size: 1
    stride: 1
  }
}
layer {
  name: "bn3c_branch2a"
  type: "BatchNorm"
  bottom: "res3c_branch2a"
  top: "res3c_branch2a"
  param {
    lr_mult: 0
    decay_mult: 0
  }
  param {
    lr_mult: 0
    decay_mult: 0
  }
  param {
    lr_mult: 0
    decay_mult: 0
  }
  batch_norm_param {
    use_global_stats: true
  }
}
layer {
  name: "scale3c_branch2a"
  type: "Scale"
  bottom: "res3c_branch2a"
  top: "res3c_branch2a"
  param {
    lr_mult: 0
    decay_mult: 0
  }
  param {
    lr_mult: 0
    decay_mult: 0
  }
  scale_param {
    bias_term: true
  }
}
layer {
  name: "res3c_branch2a_relu"
  type: "ReLU"
  bottom: "res3c_branch2a"
  top: "res3c_branch2a"
}
layer {
  name: "res3c_branch2b"
  type: "Convolution"
  bottom: "res3c_branch2a"
  top: "res3c_branch2b"
  param {
    lr_mult: 1
  }
  convolution_param {
    num_output: 128
    bias_term: false
    pad: 1
    kernel_size: 3
    stride: 1
  }
}
layer {
  name: "bn3c_branch2b"
  type: "BatchNorm"
  bottom: "res3c_branch2b"
  top: "res3c_branch2b"
  param {
    lr_mult: 0
    decay_mult: 0
  }
  param {
    lr_mult: 0
    decay_mult: 0
  }
  param {
    lr_mult: 0
    decay_mult: 0
  }
  batch_norm_param {
    use_global_stats: true
  }
}
layer {
  name: "scale3c_branch2b"
  type: "Scale"
  bottom: "res3c_branch2b"
  top: "res3c_branch2b"
  param {
    lr_mult: 0
    decay_mult: 0
  }
  param {
    lr_mult: 0
    decay_mult: 0
  }
  scale_param {
    bias_term: true
  }
}
layer {
  name: "res3c_branch2b_relu"
  type: "ReLU"
  bottom: "res3c_branch2b"
  top: "res3c_branch2b"
}
layer {
  name: "res3c_branch2c"
  type: "Convolution"
  bottom: "res3c_branch2b"
  top: "res3c_branch2c"
  param {
    lr_mult: 1
  }
  convolution_param {
    num_output: 512
    bias_term: false
    pad: 0
    kernel_size: 1
    stride: 1
  }
}
layer {
  name: "bn3c_branch2c"
  type: "BatchNorm"
  bottom: "res3c_branch2c"
  top: "res3c_branch2c"
  param {
    lr_mult: 0
    decay_mult: 0
  }
  param {
    lr_mult: 0
    decay_mult: 0
  }
  param {
    lr_mult: 0
    decay_mult: 0
  }
  batch_norm_param {
    use_global_stats: true
  }
}
layer {
  name: "scale3c_branch2c"
  type: "Scale"
  bottom: "res3c_branch2c"
  top: "res3c_branch2c"
  param {
    lr_mult: 0
    decay_mult: 0
  }
  param {
    lr_mult: 0
    decay_mult: 0
  }
  scale_param {
    bias_term: true
  }
}
layer {
  name: "res3c"
  type: "Eltwise"
  bottom: "res3b"
  bottom: "res3c_branch2c"
  top: "res3c"
}
layer {
  name: "res3c_relu"
  type: "ReLU"
  bottom: "res3c"
  top: "res3c"
}
layer {
  name: "res3d_branch2a"
  type: "Convolution"
  bottom: "res3c"
  top: "res3d_branch2a"
  param {
    lr_mult: 1
  }
  convolution_param {
    num_output: 128
    bias_term: false
    pad: 0
    kernel_size: 1
    stride: 1
  }
}
layer {
  name: "bn3d_branch2a"
  type: "BatchNorm"
  bottom: "res3d_branch2a"
  top: "res3d_branch2a"
  param {
    lr_mult: 0
    decay_mult: 0
  }
  param {
    lr_mult: 0
    decay_mult: 0
  }
  param {
    lr_mult: 0
    decay_mult: 0
  }
  batch_norm_param {
    use_global_stats: true
  }
}
layer {
  name: "scale3d_branch2a"
  type: "Scale"
  bottom: "res3d_branch2a"
  top: "res3d_branch2a"
  param {
    lr_mult: 0
    decay_mult: 0
  }
  param {
    lr_mult: 0
    decay_mult: 0
  }
  scale_param {
    bias_term: true
  }
}
layer {
  name: "res3d_branch2a_relu"
  type: "ReLU"
  bottom: "res3d_branch2a"
  top: "res3d_branch2a"
}
layer {
  name: "res3d_branch2b"
  type: "Convolution"
  bottom: "res3d_branch2a"
  top: "res3d_branch2b"
  param {
    lr_mult: 1
  }
  convolution_param {
    num_output: 128
    bias_term: false
    pad: 1
    kernel_size: 3
    stride: 1
  }
}
layer {
  name: "bn3d_branch2b"
  type: "BatchNorm"
  bottom: "res3d_branch2b"
  top: "res3d_branch2b"
  param {
    lr_mult: 0
    decay_mult: 0
  }
  param {
    lr_mult: 0
    decay_mult: 0
  }
  param {
    lr_mult: 0
    decay_mult: 0
  }
  batch_norm_param {
    use_global_stats: true
  }
}
layer {
  name: "scale3d_branch2b"
  type: "Scale"
  bottom: "res3d_branch2b"
  top: "res3d_branch2b"
  param {
    lr_mult: 0
    decay_mult: 0
  }
  param {
    lr_mult: 0
    decay_mult: 0
  }
  scale_param {
    bias_term: true
  }
}
layer {
  name: "res3d_branch2b_relu"
  type: "ReLU"
  bottom: "res3d_branch2b"
  top: "res3d_branch2b"
}
layer {
  name: "res3d_branch2c"
  type: "Convolution"
  bottom: "res3d_branch2b"
  top: "res3d_branch2c"
  param {
    lr_mult: 1
  }
  convolution_param {
    num_output: 512
    bias_term: false
    pad: 0
    kernel_size: 1
    stride: 1
  }
}
layer {
  name: "bn3d_branch2c"
  type: "BatchNorm"
  bottom: "res3d_branch2c"
  top: "res3d_branch2c"
  param {
    lr_mult: 0
    decay_mult: 0
  }
  param {
    lr_mult: 0
    decay_mult: 0
  }
  param {
    lr_mult: 0
    decay_mult: 0
  }
  batch_norm_param {
    use_global_stats: true
  }
}
layer {
  name: "scale3d_branch2c"
  type: "Scale"
  bottom: "res3d_branch2c"
  top: "res3d_branch2c"
  param {
    lr_mult: 0
    decay_mult: 0
  }
  param {
    lr_mult: 0
    decay_mult: 0
  }
  scale_param {
    bias_term: true
  }
}
layer {
  name: "res3d"
  type: "Eltwise"
  bottom: "res3c"
  bottom: "res3d_branch2c"
  top: "res3d"
}
layer {
  name: "res3d_relu"
  type: "ReLU"
  bottom: "res3d"
  top: "res3d"
}
layer {
  name: "res4a_branch1"
  type: "Convolution"
  bottom: "res3d"
  top: "res4a_branch1"
  param {
    lr_mult: 1
  }
  convolution_param {
    num_output: 1024
    bias_term: false
    pad: 0
    kernel_size: 1
    stride: 2
  }
}
layer {
  name: "bn4a_branch1"
  type: "BatchNorm"
  bottom: "res4a_branch1"
  top: "res4a_branch1"
  param {
    lr_mult: 0
    decay_mult: 0
  }
  param {
    lr_mult: 0
    decay_mult: 0
  }
  param {
    lr_mult: 0
    decay_mult: 0
  }
  batch_norm_param {
    use_global_stats: true
  }
}
layer {
  name: "scale4a_branch1"
  type: "Scale"
  bottom: "res4a_branch1"
  top: "res4a_branch1"
  param {
    lr_mult: 0
    decay_mult: 0
  }
  param {
    lr_mult: 0
    decay_mult: 0
  }
  scale_param {
    bias_term: true
  }
}
layer {
  name: "res4a_branch2a"
  type: "Convolution"
  bottom: "res3d"
  top: "res4a_branch2a"
  param {
    lr_mult: 1
  }
  convolution_param {
    num_output: 256
    bias_term: false
    pad: 0
    kernel_size: 1
    stride: 2
  }
}
layer {
  name: "bn4a_branch2a"
  type: "BatchNorm"
  bottom: "res4a_branch2a"
  top: "res4a_branch2a"
  param {
    lr_mult: 0
    decay_mult: 0
  }
  param {
    lr_mult: 0
    decay_mult: 0
  }
  param {
    lr_mult: 0
    decay_mult: 0
  }
  batch_norm_param {
    use_global_stats: true
  }
}
layer {
  name: "scale4a_branch2a"
  type: "Scale"
  bottom: "res4a_branch2a"
  top: "res4a_branch2a"
  param {
    lr_mult: 0
    decay_mult: 0
  }
  param {
    lr_mult: 0
    decay_mult: 0
  }
  scale_param {
    bias_term: true
  }
}
layer {
  name: "res4a_branch2a_relu"
  type: "ReLU"
  bottom: "res4a_branch2a"
  top: "res4a_branch2a"
}
layer {
  name: "res4a_branch2b"
  type: "Convolution"
  bottom: "res4a_branch2a"
  top: "res4a_branch2b"
  param {
    lr_mult: 1
  }
  convolution_param {
    num_output: 256
    bias_term: false
    pad: 1
    kernel_size: 3
    stride: 1
  }
}
layer {
  name: "bn4a_branch2b"
  type: "BatchNorm"
  bottom: "res4a_branch2b"
  top: "res4a_branch2b"
  param {
    lr_mult: 0
    decay_mult: 0
  }
  param {
    lr_mult: 0
    decay_mult: 0
  }
  param {
    lr_mult: 0
    decay_mult: 0
  }
  batch_norm_param {
    use_global_stats: true
  }
}
layer {
  name: "scale4a_branch2b"
  type: "Scale"
  bottom: "res4a_branch2b"
  top: "res4a_branch2b"
  param {
    lr_mult: 0
    decay_mult: 0
  }
  param {
    lr_mult: 0
    decay_mult: 0
  }
  scale_param {
    bias_term: true
  }
}
layer {
  name: "res4a_branch2b_relu"
  type: "ReLU"
  bottom: "res4a_branch2b"
  top: "res4a_branch2b"
}
layer {
  name: "res4a_branch2c"
  type: "Convolution"
  bottom: "res4a_branch2b"
  top: "res4a_branch2c"
  param {
    lr_mult: 1
  }
  convolution_param {
    num_output: 1024
    bias_term: false
    pad: 0
    kernel_size: 1
    stride: 1
  }
}
layer {
  name: "bn4a_branch2c"
  type: "BatchNorm"
  bottom: "res4a_branch2c"
  top: "res4a_branch2c"
  param {
    lr_mult: 0
    decay_mult: 0
  }
  param {
    lr_mult: 0
    decay_mult: 0
  }
  param {
    lr_mult: 0
    decay_mult: 0
  }
  batch_norm_param {
    use_global_stats: true
  }
}
layer {
  name: "scale4a_branch2c"
  type: "Scale"
  bottom: "res4a_branch2c"
  top: "res4a_branch2c"
  param {
    lr_mult: 0
    decay_mult: 0
  }
  param {
    lr_mult: 0
    decay_mult: 0
  }
  scale_param {
    bias_term: true
  }
}
layer {
  name: "res4a"
  type: "Eltwise"
  bottom: "res4a_branch1"
  bottom: "res4a_branch2c"
  top: "res4a"
}
layer {
  name: "res4a_relu"
  type: "ReLU"
  bottom: "res4a"
  top: "res4a"
}
layer {
  name: "res4b_branch2a"
  type: "Convolution"
  bottom: "res4a"
  top: "res4b_branch2a"
  param {
    lr_mult: 1
  }
  convolution_param {
    num_output: 256
    bias_term: false
    pad: 0
    kernel_size: 1
    stride: 1
  }
}
layer {
  name: "bn4b_branch2a"
  type: "BatchNorm"
  bottom: "res4b_branch2a"
  top: "res4b_branch2a"
  param {
    lr_mult: 0
    decay_mult: 0
  }
  param {
    lr_mult: 0
    decay_mult: 0
  }
  param {
    lr_mult: 0
    decay_mult: 0
  }
  batch_norm_param {
    use_global_stats: true
  }
}
layer {
  name: "scale4b_branch2a"
  type: "Scale"
  bottom: "res4b_branch2a"
  top: "res4b_branch2a"
  param {
    lr_mult: 0
    decay_mult: 0
  }
  param {
    lr_mult: 0
    decay_mult: 0
  }
  scale_param {
    bias_term: true
  }
}
layer {
  name: "res4b_branch2a_relu"
  type: "ReLU"
  bottom: "res4b_branch2a"
  top: "res4b_branch2a"
}
layer {
  name: "res4b_branch2b"
  type: "Convolution"
  bottom: "res4b_branch2a"
  top: "res4b_branch2b"
  param {
    lr_mult: 1
  }
  convolution_param {
    num_output: 256
    bias_term: false
    pad: 1
    kernel_size: 3
    stride: 1
  }
}
layer {
  name: "bn4b_branch2b"
  type: "BatchNorm"
  bottom: "res4b_branch2b"
  top: "res4b_branch2b"
  param {
    lr_mult: 0
    decay_mult: 0
  }
  param {
    lr_mult: 0
    decay_mult: 0
  }
  param {
    lr_mult: 0
    decay_mult: 0
  }
  batch_norm_param {
    use_global_stats: true
  }
}
layer {
  name: "scale4b_branch2b"
  type: "Scale"
  bottom: "res4b_branch2b"
  top: "res4b_branch2b"
  param {
    lr_mult: 0
    decay_mult: 0
  }
  param {
    lr_mult: 0
    decay_mult: 0
  }
  scale_param {
    bias_term: true
  }
}
layer {
  name: "res4b_branch2b_relu"
  type: "ReLU"
  bottom: "res4b_branch2b"
  top: "res4b_branch2b"
}
layer {
  name: "res4b_branch2c"
  type: "Convolution"
  bottom: "res4b_branch2b"
  top: "res4b_branch2c"
  param {
    lr_mult: 1
  }
  convolution_param {
    num_output: 1024
    bias_term: false
    pad: 0
    kernel_size: 1
    stride: 1
  }
}
layer {
  name: "bn4b_branch2c"
  type: "BatchNorm"
  bottom: "res4b_branch2c"
  top: "res4b_branch2c"
  param {
    lr_mult: 0
    decay_mult: 0
  }
  param {
    lr_mult: 0
    decay_mult: 0
  }
  param {
    lr_mult: 0
    decay_mult: 0
  }
  batch_norm_param {
    use_global_stats: true
  }
}
layer {
  name: "scale4b_branch2c"
  type: "Scale"
  bottom: "res4b_branch2c"
  top: "res4b_branch2c"
  param {
    lr_mult: 0
    decay_mult: 0
  }
  param {
    lr_mult: 0
    decay_mult: 0
  }
  scale_param {
    bias_term: true
  }
}
layer {
  name: "res4b"
  type: "Eltwise"
  bottom: "res4a"
  bottom: "res4b_branch2c"
  top: "res4b"
}
layer {
  name: "res4b_relu"
  type: "ReLU"
  bottom: "res4b"
  top: "res4b"
}
layer {
  name: "res4c_branch2a"
  type: "Convolution"
  bottom: "res4b"
  top: "res4c_branch2a"
  param {
    lr_mult: 1
  }
  convolution_param {
    num_output: 256
    bias_term: false
    pad: 0
    kernel_size: 1
    stride: 1
  }
}
layer {
  name: "bn4c_branch2a"
  type: "BatchNorm"
  bottom: "res4c_branch2a"
  top: "res4c_branch2a"
  param {
    lr_mult: 0
    decay_mult: 0
  }
  param {
    lr_mult: 0
    decay_mult: 0
  }
  param {
    lr_mult: 0
    decay_mult: 0
  }
  batch_norm_param {
    use_global_stats: true
  }
}
layer {
  name: "scale4c_branch2a"
  type: "Scale"
  bottom: "res4c_branch2a"
  top: "res4c_branch2a"
  param {
    lr_mult: 0
    decay_mult: 0
  }
  param {
    lr_mult: 0
    decay_mult: 0
  }
  scale_param {
    bias_term: true
  }
}
layer {
  name: "res4c_branch2a_relu"
  type: "ReLU"
  bottom: "res4c_branch2a"
  top: "res4c_branch2a"
}
layer {
  name: "res4c_branch2b"
  type: "Convolution"
  bottom: "res4c_branch2a"
  top: "res4c_branch2b"
  param {
    lr_mult: 1
  }
  convolution_param {
    num_output: 256
    bias_term: false
    pad: 1
    kernel_size: 3
    stride: 1
  }
}
layer {
  name: "bn4c_branch2b"
  type: "BatchNorm"
  bottom: "res4c_branch2b"
  top: "res4c_branch2b"
  param {
    lr_mult: 0
    decay_mult: 0
  }
  param {
    lr_mult: 0
    decay_mult: 0
  }
  param {
    lr_mult: 0
    decay_mult: 0
  }
  batch_norm_param {
    use_global_stats: true
  }
}
layer {
  name: "scale4c_branch2b"
  type: "Scale"
  bottom: "res4c_branch2b"
  top: "res4c_branch2b"
  param {
    lr_mult: 0
    decay_mult: 0
  }
  param {
    lr_mult: 0
    decay_mult: 0
  }
  scale_param {
    bias_term: true
  }
}
layer {
  name: "res4c_branch2b_relu"
  type: "ReLU"
  bottom: "res4c_b
I0704 20:55:54.250938 22667 layer_factory.hpp:77] Creating layer input-data
I0704 20:55:54.259344 22667 net.cpp:100] Creating Layer input-data
I0704 20:55:54.259366 22667 net.cpp:418] input-data -> data
I0704 20:55:54.259402 22667 net.cpp:418] input-data -> im_info
I0704 20:55:54.259415 22667 net.cpp:418] input-data -> gt_boxes
I0704 20:55:54.259428 22667 net.cpp:418] input-data -> head_gt_boxes
RoiDataLayer: name_to_top: {'gt_boxes': 2, 'data': 0, 'im_info': 1, 'head_gt_boxes': 3}
I0704 20:55:54.278447 22667 net.cpp:150] Setting up input-data
I0704 20:55:54.278470 22667 net.cpp:157] Top shape: 1 3 960 1280 (3686400)
I0704 20:55:54.278473 22667 net.cpp:157] Top shape: 1 3 (3)
I0704 20:55:54.278476 22667 net.cpp:157] Top shape: 1 4 (4)
I0704 20:55:54.278479 22667 net.cpp:157] Top shape: 1 5 (5)
I0704 20:55:54.278481 22667 net.cpp:165] Memory required for data: 14745648
I0704 20:55:54.278496 22667 layer_factory.hpp:77] Creating layer data_input-data_0_split
I0704 20:55:54.278522 22667 net.cpp:100] Creating Layer data_input-data_0_split
I0704 20:55:54.278532 22667 net.cpp:444] data_input-data_0_split <- data
I0704 20:55:54.278548 22667 net.cpp:418] data_input-data_0_split -> data_input-data_0_split_0
I0704 20:55:54.278569 22667 net.cpp:418] data_input-data_0_split -> data_input-data_0_split_1
I0704 20:55:54.278578 22667 net.cpp:418] data_input-data_0_split -> data_input-data_0_split_2
I0704 20:55:54.278614 22667 net.cpp:150] Setting up data_input-data_0_split
I0704 20:55:54.278620 22667 net.cpp:157] Top shape: 1 3 960 1280 (3686400)
I0704 20:55:54.278625 22667 net.cpp:157] Top shape: 1 3 960 1280 (3686400)
I0704 20:55:54.278626 22667 net.cpp:157] Top shape: 1 3 960 1280 (3686400)
I0704 20:55:54.278628 22667 net.cpp:165] Memory required for data: 58982448
I0704 20:55:54.278630 22667 layer_factory.hpp:77] Creating layer im_info_input-data_1_split
I0704 20:55:54.278640 22667 net.cpp:100] Creating Layer im_info_input-data_1_split
I0704 20:55:54.278645 22667 net.cpp:444] im_info_input-data_1_split <- im_info
I0704 20:55:54.278653 22667 net.cpp:418] im_info_input-data_1_split -> im_info_input-data_1_split_0
I0704 20:55:54.278663 22667 net.cpp:418] im_info_input-data_1_split -> im_info_input-data_1_split_1
I0704 20:55:54.278674 22667 net.cpp:418] im_info_input-data_1_split -> im_info_input-data_1_split_2
I0704 20:55:54.278683 22667 net.cpp:418] im_info_input-data_1_split -> im_info_input-data_1_split_3
I0704 20:55:54.278719 22667 net.cpp:150] Setting up im_info_input-data_1_split
I0704 20:55:54.278724 22667 net.cpp:157] Top shape: 1 3 (3)
I0704 20:55:54.278728 22667 net.cpp:157] Top shape: 1 3 (3)
I0704 20:55:54.278730 22667 net.cpp:157] Top shape: 1 3 (3)
I0704 20:55:54.278733 22667 net.cpp:157] Top shape: 1 3 (3)
I0704 20:55:54.278733 22667 net.cpp:165] Memory required for data: 58982496
I0704 20:55:54.278736 22667 layer_factory.hpp:77] Creating layer gt_boxes_input-data_2_split
I0704 20:55:54.278743 22667 net.cpp:100] Creating Layer gt_boxes_input-data_2_split
I0704 20:55:54.278748 22667 net.cpp:444] gt_boxes_input-data_2_split <- gt_boxes
I0704 20:55:54.278756 22667 net.cpp:418] gt_boxes_input-data_2_split -> gt_boxes_input-data_2_split_0
I0704 20:55:54.278767 22667 net.cpp:418] gt_boxes_input-data_2_split -> gt_boxes_input-data_2_split_1
I0704 20:55:54.278791 22667 net.cpp:150] Setting up gt_boxes_input-data_2_split
I0704 20:55:54.278797 22667 net.cpp:157] Top shape: 1 4 (4)
I0704 20:55:54.278800 22667 net.cpp:157] Top shape: 1 4 (4)
I0704 20:55:54.278801 22667 net.cpp:165] Memory required for data: 58982528
I0704 20:55:54.278805 22667 layer_factory.hpp:77] Creating layer head_gt_boxes_input-data_3_split
I0704 20:55:54.278812 22667 net.cpp:100] Creating Layer head_gt_boxes_input-data_3_split
I0704 20:55:54.278817 22667 net.cpp:444] head_gt_boxes_input-data_3_split <- head_gt_boxes
I0704 20:55:54.278826 22667 net.cpp:418] head_gt_boxes_input-data_3_split -> head_gt_boxes_input-data_3_split_0
I0704 20:55:54.278837 22667 net.cpp:418] head_gt_boxes_input-data_3_split -> head_gt_boxes_input-data_3_split_1
I0704 20:55:54.278861 22667 net.cpp:150] Setting up head_gt_boxes_input-data_3_split
I0704 20:55:54.278867 22667 net.cpp:157] Top shape: 1 5 (5)
I0704 20:55:54.278869 22667 net.cpp:157] Top shape: 1 5 (5)
I0704 20:55:54.278872 22667 net.cpp:165] Memory required for data: 58982568
I0704 20:55:54.278873 22667 layer_factory.hpp:77] Creating layer conv1
I0704 20:55:54.278889 22667 net.cpp:100] Creating Layer conv1
I0704 20:55:54.278893 22667 net.cpp:444] conv1 <- data_input-data_0_split_0
I0704 20:55:54.278904 22667 net.cpp:418] conv1 -> conv1
I0704 20:55:54.559087 22667 cudnn_conv_layer.cpp:194] Reallocating workspace storage: 5529624
I0704 20:55:54.559309 22667 net.cpp:150] Setting up conv1
I0704 20:55:54.559341 22667 net.cpp:157] Top shape: 1 64 480 640 (19660800)
I0704 20:55:54.559343 22667 net.cpp:165] Memory required for data: 137625768
I0704 20:55:54.559392 22667 layer_factory.hpp:77] Creating layer bn_conv1
I0704 20:55:54.559419 22667 net.cpp:100] Creating Layer bn_conv1
I0704 20:55:54.559427 22667 net.cpp:444] bn_conv1 <- conv1
I0704 20:55:54.559440 22667 net.cpp:405] bn_conv1 -> conv1 (in-place)
I0704 20:55:54.560462 22667 net.cpp:150] Setting up bn_conv1
I0704 20:55:54.560472 22667 net.cpp:157] Top shape: 1 64 480 640 (19660800)
I0704 20:55:54.560473 22667 net.cpp:165] Memory required for data: 216268968
I0704 20:55:54.560501 22667 layer_factory.hpp:77] Creating layer scale_conv1
I0704 20:55:54.560518 22667 net.cpp:100] Creating Layer scale_conv1
I0704 20:55:54.560523 22667 net.cpp:444] scale_conv1 <- conv1
I0704 20:55:54.560534 22667 net.cpp:405] scale_conv1 -> conv1 (in-place)
I0704 20:55:54.560576 22667 layer_factory.hpp:77] Creating layer scale_conv1
I0704 20:55:54.562484 22667 net.cpp:150] Setting up scale_conv1
I0704 20:55:54.562511 22667 net.cpp:157] Top shape: 1 64 480 640 (19660800)
I0704 20:55:54.562513 22667 net.cpp:165] Memory required for data: 294912168
I0704 20:55:54.562528 22667 layer_factory.hpp:77] Creating layer conv1_relu
I0704 20:55:54.562551 22667 net.cpp:100] Creating Layer conv1_relu
I0704 20:55:54.562558 22667 net.cpp:444] conv1_relu <- conv1
I0704 20:55:54.562572 22667 net.cpp:405] conv1_relu -> conv1 (in-place)
I0704 20:55:54.562729 22667 net.cpp:150] Setting up conv1_relu
I0704 20:55:54.562736 22667 net.cpp:157] Top shape: 1 64 480 640 (19660800)
I0704 20:55:54.562737 22667 net.cpp:165] Memory required for data: 373555368
I0704 20:55:54.562741 22667 layer_factory.hpp:77] Creating layer pool1
I0704 20:55:54.562754 22667 net.cpp:100] Creating Layer pool1
I0704 20:55:54.562758 22667 net.cpp:444] pool1 <- conv1
I0704 20:55:54.562769 22667 net.cpp:418] pool1 -> pool1
I0704 20:55:54.562819 22667 net.cpp:150] Setting up pool1
I0704 20:55:54.562829 22667 net.cpp:157] Top shape: 1 64 240 320 (4915200)
I0704 20:55:54.562831 22667 net.cpp:165] Memory required for data: 393216168
I0704 20:55:54.562834 22667 layer_factory.hpp:77] Creating layer pool1_pool1_0_split
I0704 20:55:54.562842 22667 net.cpp:100] Creating Layer pool1_pool1_0_split
I0704 20:55:54.562846 22667 net.cpp:444] pool1_pool1_0_split <- pool1
I0704 20:55:54.562856 22667 net.cpp:418] pool1_pool1_0_split -> pool1_pool1_0_split_0
I0704 20:55:54.562867 22667 net.cpp:418] pool1_pool1_0_split -> pool1_pool1_0_split_1
I0704 20:55:54.562897 22667 net.cpp:150] Setting up pool1_pool1_0_split
I0704 20:55:54.562903 22667 net.cpp:157] Top shape: 1 64 240 320 (4915200)
I0704 20:55:54.562907 22667 net.cpp:157] Top shape: 1 64 240 320 (4915200)
I0704 20:55:54.562908 22667 net.cpp:165] Memory required for data: 432537768
I0704 20:55:54.562911 22667 layer_factory.hpp:77] Creating layer res2a_branch1
I0704 20:55:54.562925 22667 net.cpp:100] Creating Layer res2a_branch1
I0704 20:55:54.562930 22667 net.cpp:444] res2a_branch1 <- pool1_pool1_0_split_0
I0704 20:55:54.562940 22667 net.cpp:418] res2a_branch1 -> res2a_branch1
I0704 20:55:54.563663 22667 cudnn_conv_layer.cpp:194] Reallocating workspace storage: 1388952
I0704 20:55:54.563851 22667 net.cpp:150] Setting up res2a_branch1
I0704 20:55:54.563861 22667 net.cpp:157] Top shape: 1 256 240 320 (19660800)
I0704 20:55:54.563863 22667 net.cpp:165] Memory required for data: 511180968
I0704 20:55:54.563874 22667 layer_factory.hpp:77] Creating layer bn2a_branch1
I0704 20:55:54.563884 22667 net.cpp:100] Creating Layer bn2a_branch1
I0704 20:55:54.563889 22667 net.cpp:444] bn2a_branch1 <- res2a_branch1
I0704 20:55:54.563899 22667 net.cpp:405] bn2a_branch1 -> res2a_branch1 (in-place)
I0704 20:55:54.564121 22667 net.cpp:150] Setting up bn2a_branch1
I0704 20:55:54.564127 22667 net.cpp:157] Top shape: 1 256 240 320 (19660800)
I0704 20:55:54.564129 22667 net.cpp:165] Memory required for data: 589824168
I0704 20:55:54.564151 22667 layer_factory.hpp:77] Creating layer scale2a_branch1
I0704 20:55:54.564162 22667 net.cpp:100] Creating Layer scale2a_branch1
I0704 20:55:54.564167 22667 net.cpp:444] scale2a_branch1 <- res2a_branch1
I0704 20:55:54.564177 22667 net.cpp:405] scale2a_branch1 -> res2a_branch1 (in-place)
I0704 20:55:54.564215 22667 layer_factory.hpp:77] Creating layer scale2a_branch1
I0704 20:55:54.564497 22667 net.cpp:150] Setting up scale2a_branch1
I0704 20:55:54.564504 22667 net.cpp:157] Top shape: 1 256 240 320 (19660800)
I0704 20:55:54.564507 22667 net.cpp:165] Memory required for data: 668467368
I0704 20:55:54.564514 22667 layer_factory.hpp:77] Creating layer res2a_branch2a
I0704 20:55:54.564525 22667 net.cpp:100] Creating Layer res2a_branch2a
I0704 20:55:54.564530 22667 net.cpp:444] res2a_branch2a <- pool1_pool1_0_split_1
I0704 20:55:54.564540 22667 net.cpp:418] res2a_branch2a -> res2a_branch2a
I0704 20:55:54.565701 22667 cudnn_conv_layer.cpp:194] Reallocating workspace storage: 1388952
I0704 20:55:54.565888 22667 net.cpp:150] Setting up res2a_branch2a
I0704 20:55:54.565897 22667 net.cpp:157] Top shape: 1 64 240 320 (4915200)
I0704 20:55:54.565901 22667 net.cpp:165] Memory required for data: 688128168
I0704 20:55:54.565909 22667 layer_factory.hpp:77] Creating layer bn2a_branch2a
I0704 20:55:54.565922 22667 net.cpp:100] Creating Layer bn2a_branch2a
I0704 20:55:54.565927 22667 net.cpp:444] bn2a_branch2a <- res2a_branch2a
I0704 20:55:54.565937 22667 net.cpp:405] bn2a_branch2a -> res2a_branch2a (in-place)
I0704 20:55:54.566171 22667 net.cpp:150] Setting up bn2a_branch2a
I0704 20:55:54.566176 22667 net.cpp:157] Top shape: 1 64 240 320 (4915200)
I0704 20:55:54.566179 22667 net.cpp:165] Memory required for data: 707788968
I0704 20:55:54.566200 22667 layer_factory.hpp:77] Creating layer scale2a_branch2a
I0704 20:55:54.566216 22667 net.cpp:100] Creating Layer scale2a_branch2a
I0704 20:55:54.566221 22667 net.cpp:444] scale2a_branch2a <- res2a_branch2a
I0704 20:55:54.566231 22667 net.cpp:405] scale2a_branch2a -> res2a_branch2a (in-place)
I0704 20:55:54.566272 22667 layer_factory.hpp:77] Creating layer scale2a_branch2a
I0704 20:55:54.566563 22667 net.cpp:150] Setting up scale2a_branch2a
I0704 20:55:54.566570 22667 net.cpp:157] Top shape: 1 64 240 320 (4915200)
I0704 20:55:54.566571 22667 net.cpp:165] Memory required for data: 727449768
I0704 20:55:54.566581 22667 layer_factory.hpp:77] Creating layer res2a_branch2a_relu
I0704 20:55:54.566588 22667 net.cpp:100] Creating Layer res2a_branch2a_relu
I0704 20:55:54.566592 22667 net.cpp:444] res2a_branch2a_relu <- res2a_branch2a
I0704 20:55:54.566601 22667 net.cpp:405] res2a_branch2a_relu -> res2a_branch2a (in-place)
I0704 20:55:54.566720 22667 net.cpp:150] Setting up res2a_branch2a_relu
I0704 20:55:54.566725 22667 net.cpp:157] Top shape: 1 64 240 320 (4915200)
I0704 20:55:54.566728 22667 net.cpp:165] Memory required for data: 747110568
I0704 20:55:54.566731 22667 layer_factory.hpp:77] Creating layer res2a_branch2b
I0704 20:55:54.566743 22667 net.cpp:100] Creating Layer res2a_branch2b
I0704 20:55:54.566747 22667 net.cpp:444] res2a_branch2b <- res2a_branch2a
I0704 20:55:54.566759 22667 net.cpp:418] res2a_branch2b -> res2a_branch2b
I0704 20:55:54.567973 22667 cudnn_conv_layer.cpp:194] Reallocating workspace storage: 786432
I0704 20:55:54.568181 22667 net.cpp:150] Setting up res2a_branch2b
I0704 20:55:54.568202 22667 net.cpp:157] Top shape: 1 64 240 320 (4915200)
I0704 20:55:54.568204 22667 net.cpp:165] Memory required for data: 766771368
I0704 20:55:54.568214 22667 layer_factory.hpp:77] Creating layer bn2a_branch2b
I0704 20:55:54.568228 22667 net.cpp:100] Creating Layer bn2a_branch2b
I0704 20:55:54.568233 22667 net.cpp:444] bn2a_branch2b <- res2a_branch2b
I0704 20:55:54.568244 22667 net.cpp:405] bn2a_branch2b -> res2a_branch2b (in-place)
I0704 20:55:54.568487 22667 net.cpp:150] Setting up bn2a_branch2b
I0704 20:55:54.568493 22667 net.cpp:157] Top shape: 1 64 240 320 (4915200)
I0704 20:55:54.568495 22667 net.cpp:165] Memory required for data: 786432168
I0704 20:55:54.568509 22667 layer_factory.hpp:77] Creating layer scale2a_branch2b
I0704 20:55:54.568521 22667 net.cpp:100] Creating Layer scale2a_branch2b
I0704 20:55:54.568526 22667 net.cpp:444] scale2a_branch2b <- res2a_branch2b
I0704 20:55:54.568536 22667 net.cpp:405] scale2a_branch2b -> res2a_branch2b (in-place)
I0704 20:55:54.568575 22667 layer_factory.hpp:77] Creating layer scale2a_branch2b
I0704 20:55:54.569361 22667 net.cpp:150] Setting up scale2a_branch2b
I0704 20:55:54.569370 22667 net.cpp:157] Top shape: 1 64 240 320 (4915200)
I0704 20:55:54.569372 22667 net.cpp:165] Memory required for data: 806092968
I0704 20:55:54.569383 22667 layer_factory.hpp:77] Creating layer res2a_branch2b_relu
I0704 20:55:54.569393 22667 net.cpp:100] Creating Layer res2a_branch2b_relu
I0704 20:55:54.569398 22667 net.cpp:444] res2a_branch2b_relu <- res2a_branch2b
I0704 20:55:54.569409 22667 net.cpp:405] res2a_branch2b_relu -> res2a_branch2b (in-place)
I0704 20:55:54.569766 22667 net.cpp:150] Setting up res2a_branch2b_relu
I0704 20:55:54.569774 22667 net.cpp:157] Top shape: 1 64 240 320 (4915200)
I0704 20:55:54.569777 22667 net.cpp:165] Memory required for data: 825753768
I0704 20:55:54.569780 22667 layer_factory.hpp:77] Creating layer res2a_branch2c
I0704 20:55:54.569795 22667 net.cpp:100] Creating Layer res2a_branch2c
I0704 20:55:54.569800 22667 net.cpp:444] res2a_branch2c <- res2a_branch2b
I0704 20:55:54.569814 22667 net.cpp:418] res2a_branch2c -> res2a_branch2c
I0704 20:55:54.570550 22667 cudnn_conv_layer.cpp:194] Reallocating workspace storage: 1388952
I0704 20:55:54.570744 22667 net.cpp:150] Setting up res2a_branch2c
I0704 20:55:54.570753 22667 net.cpp:157] Top shape: 1 256 240 320 (19660800)
I0704 20:55:54.570756 22667 net.cpp:165] Memory required for data: 904396968
I0704 20:55:54.570766 22667 layer_factory.hpp:77] Creating layer bn2a_branch2c
I0704 20:55:54.570781 22667 net.cpp:100] Creating Layer bn2a_branch2c
I0704 20:55:54.570786 22667 net.cpp:444] bn2a_branch2c <- res2a_branch2c
I0704 20:55:54.570798 22667 net.cpp:405] bn2a_branch2c -> res2a_branch2c (in-place)
I0704 20:55:54.571038 22667 net.cpp:150] Setting up bn2a_branch2c
I0704 20:55:54.571043 22667 net.cpp:157] Top shape: 1 256 240 320 (19660800)
I0704 20:55:54.571046 22667 net.cpp:165] Memory required for data: 983040168
I0704 20:55:54.571059 22667 layer_factory.hpp:77] Creating layer scale2a_branch2c
I0704 20:55:54.571072 22667 net.cpp:100] Creating Layer scale2a_branch2c
I0704 20:55:54.571077 22667 net.cpp:444] scale2a_branch2c <- res2a_branch2c
I0704 20:55:54.571087 22667 net.cpp:405] scale2a_branch2c -> res2a_branch2c (in-place)
I0704 20:55:54.571128 22667 layer_factory.hpp:77] Creating layer scale2a_branch2c
I0704 20:55:54.571419 22667 net.cpp:150] Setting up scale2a_branch2c
I0704 20:55:54.571426 22667 net.cpp:157] Top shape: 1 256 240 320 (19660800)
I0704 20:55:54.571429 22667 net.cpp:165] Memory required for data: 1061683368
I0704 20:55:54.571436 22667 layer_factory.hpp:77] Creating layer res2a
I0704 20:55:54.571445 22667 net.cpp:100] Creating Layer res2a
I0704 20:55:54.571450 22667 net.cpp:444] res2a <- res2a_branch1
I0704 20:55:54.571457 22667 net.cpp:444] res2a <- res2a_branch2c
I0704 20:55:54.571466 22667 net.cpp:418] res2a -> res2a
I0704 20:55:54.571494 22667 net.cpp:150] Setting up res2a
I0704 20:55:54.571501 22667 net.cpp:157] Top shape: 1 256 240 320 (19660800)
I0704 20:55:54.571504 22667 net.cpp:165] Memory required for data: 1140326568
I0704 20:55:54.571507 22667 layer_factory.hpp:77] Creating layer res2a_relu
I0704 20:55:54.571516 22667 net.cpp:100] Creating Layer res2a_relu
I0704 20:55:54.571519 22667 net.cpp:444] res2a_relu <- res2a
I0704 20:55:54.571527 22667 net.cpp:405] res2a_relu -> res2a (in-place)
I0704 20:55:54.571655 22667 net.cpp:150] Setting up res2a_relu
I0704 20:55:54.571661 22667 net.cpp:157] Top shape: 1 256 240 320 (19660800)
I0704 20:55:54.571665 22667 net.cpp:165] Memory required for data: 1218969768
I0704 20:55:54.571667 22667 layer_factory.hpp:77] Creating layer res2a_res2a_relu_0_split
I0704 20:55:54.571676 22667 net.cpp:100] Creating Layer res2a_res2a_relu_0_split
I0704 20:55:54.571679 22667 net.cpp:444] res2a_res2a_relu_0_split <- res2a
I0704 20:55:54.571689 22667 net.cpp:418] res2a_res2a_relu_0_split -> res2a_res2a_relu_0_split_0
I0704 20:55:54.571702 22667 net.cpp:418] res2a_res2a_relu_0_split -> res2a_res2a_relu_0_split_1
I0704 20:55:54.571734 22667 net.cpp:150] Setting up res2a_res2a_relu_0_split
I0704 20:55:54.571741 22667 net.cpp:157] Top shape: 1 256 240 320 (19660800)
I0704 20:55:54.571744 22667 net.cpp:157] Top shape: 1 256 240 320 (19660800)
I0704 20:55:54.571746 22667 net.cpp:165] Memory required for data: 1376256168
I0704 20:55:54.571748 22667 layer_factory.hpp:77] Creating layer res2b_branch2a
I0704 20:55:54.571761 22667 net.cpp:100] Creating Layer res2b_branch2a
I0704 20:55:54.571766 22667 net.cpp:444] res2b_branch2a <- res2a_res2a_relu_0_split_0
I0704 20:55:54.571777 22667 net.cpp:418] res2b_branch2a -> res2b_branch2a
I0704 20:55:54.572561 22667 cudnn_conv_layer.cpp:194] Reallocating workspace storage: 1388952
I0704 20:55:54.572757 22667 net.cpp:150] Setting up res2b_branch2a
I0704 20:55:54.572767 22667 net.cpp:157] Top shape: 1 64 240 320 (4915200)
I0704 20:55:54.572769 22667 net.cpp:165] Memory required for data: 1395916968
I0704 20:55:54.572779 22667 layer_factory.hpp:77] Creating layer bn2b_branch2a
I0704 20:55:54.572793 22667 net.cpp:100] Creating Layer bn2b_branch2a
I0704 20:55:54.572798 22667 net.cpp:444] bn2b_branch2a <- res2b_branch2a
I0704 20:55:54.572809 22667 net.cpp:405] bn2b_branch2a -> res2b_branch2a (in-place)
I0704 20:55:54.573053 22667 net.cpp:150] Setting up bn2b_branch2a
I0704 20:55:54.573060 22667 net.cpp:157] Top shape: 1 64 240 320 (4915200)
I0704 20:55:54.573061 22667 net.cpp:165] Memory required for data: 1415577768
I0704 20:55:54.573087 22667 layer_factory.hpp:77] Creating layer scale2b_branch2a
I0704 20:55:54.573101 22667 net.cpp:100] Creating Layer scale2b_branch2a
I0704 20:55:54.573107 22667 net.cpp:444] scale2b_branch2a <- res2b_branch2a
I0704 20:55:54.573117 22667 net.cpp:405] scale2b_branch2a -> res2b_branch2a (in-place)
I0704 20:55:54.573159 22667 layer_factory.hpp:77] Creating layer scale2b_branch2a
I0704 20:55:54.574034 22667 net.cpp:150] Setting up scale2b_branch2a
I0704 20:55:54.574043 22667 net.cpp:157] Top shape: 1 64 240 320 (4915200)
I0704 20:55:54.574045 22667 net.cpp:165] Memory required for data: 1435238568
I0704 20:55:54.574059 22667 layer_factory.hpp:77] Creating layer res2b_branch2a_relu
I0704 20:55:54.574070 22667 net.cpp:100] Creating Layer res2b_branch2a_relu
I0704 20:55:54.574076 22667 net.cpp:444] res2b_branch2a_relu <- res2b_branch2a
I0704 20:55:54.574086 22667 net.cpp:405] res2b_branch2a_relu -> res2b_branch2a (in-place)
I0704 20:55:54.574244 22667 net.cpp:150] Setting up res2b_branch2a_relu
I0704 20:55:54.574250 22667 net.cpp:157] Top shape: 1 64 240 320 (4915200)
I0704 20:55:54.574251 22667 net.cpp:165] Memory required for data: 1454899368
I0704 20:55:54.574254 22667 layer_factory.hpp:77] Creating layer res2b_branch2b
I0704 20:55:54.574276 22667 net.cpp:100] Creating Layer res2b_branch2b
I0704 20:55:54.574282 22667 net.cpp:444] res2b_branch2b <- res2b_branch2a
I0704 20:55:54.574295 22667 net.cpp:418] res2b_branch2b -> res2b_branch2b
I0704 20:55:54.575073 22667 cudnn_conv_layer.cpp:194] Reallocating workspace storage: 786432
I0704 20:55:54.575088 22667 net.cpp:150] Setting up res2b_branch2b
I0704 20:55:54.575094 22667 net.cpp:157] Top shape: 1 64 240 320 (4915200)
I0704 20:55:54.575096 22667 net.cpp:165] Memory required for data: 1474560168
I0704 20:55:54.575104 22667 layer_factory.hpp:77] Creating layer bn2b_branch2b
I0704 20:55:54.575115 22667 net.cpp:100] Creating Layer bn2b_branch2b
I0704 20:55:54.575121 22667 net.cpp:444] bn2b_branch2b <- res2b_branch2b
I0704 20:55:54.575132 22667 net.cpp:405] bn2b_branch2b -> res2b_branch2b (in-place)
I0704 20:55:54.575376 22667 net.cpp:150] Setting up bn2b_branch2b
I0704 20:55:54.575381 22667 net.cpp:157] Top shape: 1 64 240 320 (4915200)
I0704 20:55:54.575382 22667 net.cpp:165] Memory required for data: 1494220968
I0704 20:55:54.575395 22667 layer_factory.hpp:77] Creating layer scale2b_branch2b
I0704 20:55:54.575407 22667 net.cpp:100] Creating Layer scale2b_branch2b
I0704 20:55:54.575412 22667 net.cpp:444] scale2b_branch2b <- res2b_branch2b
I0704 20:55:54.575422 22667 net.cpp:405] scale2b_branch2b -> res2b_branch2b (in-place)
I0704 20:55:54.575464 22667 layer_factory.hpp:77] Creating layer scale2b_branch2b
I0704 20:55:54.575758 22667 net.cpp:150] Setting up scale2b_branch2b
I0704 20:55:54.575765 22667 net.cpp:157] Top shape: 1 64 240 320 (4915200)
I0704 20:55:54.575767 22667 net.cpp:165] Memory required for data: 1513881768
I0704 20:55:54.575775 22667 layer_factory.hpp:77] Creating layer res2b_branch2b_relu
I0704 20:55:54.575784 22667 net.cpp:100] Creating Layer res2b_branch2b_relu
I0704 20:55:54.575789 22667 net.cpp:444] res2b_branch2b_relu <- res2b_branch2b
I0704 20:55:54.575798 22667 net.cpp:405] res2b_branch2b_relu -> res2b_branch2b (in-place)
I0704 20:55:54.576110 22667 net.cpp:150] Setting up res2b_branch2b_relu
I0704 20:55:54.576118 22667 net.cpp:157] Top shape: 1 64 240 320 (4915200)
I0704 20:55:54.576122 22667 net.cpp:165] Memory required for data: 1533542568
I0704 20:55:54.576125 22667 layer_factory.hpp:77] Creating layer res2b_branch2c
I0704 20:55:54.576138 22667 net.cpp:100] Creating Layer res2b_branch2c
I0704 20:55:54.576143 22667 net.cpp:444] res2b_branch2c <- res2b_branch2b
I0704 20:55:54.576156 22667 net.cpp:418] res2b_branch2c -> res2b_branch2c
I0704 20:55:54.576870 22667 cudnn_conv_layer.cpp:194] Reallocating workspace storage: 1388952
I0704 20:55:54.577059 22667 net.cpp:150] Setting up res2b_branch2c
I0704 20:55:54.577069 22667 net.cpp:157] Top shape: 1 256 240 320 (19660800)
I0704 20:55:54.577071 22667 net.cpp:165] Memory required for data: 1612185768
I0704 20:55:54.577080 22667 layer_factory.hpp:77] Creating layer bn2b_branch2c
I0704 20:55:54.577091 22667 net.cpp:100] Creating Layer bn2b_branch2c
I0704 20:55:54.577096 22667 net.cpp:444] bn2b_branch2c <- res2b_branch2c
I0704 20:55:54.577109 22667 net.cpp:405] bn2b_branch2c -> res2b_branch2c (in-place)
I0704 20:55:54.577349 22667 net.cpp:150] Setting up bn2b_branch2c
I0704 20:55:54.577355 22667 net.cpp:157] Top shape: 1 256 240 320 (19660800)
I0704 20:55:54.577358 22667 net.cpp:165] Memory required for data: 1690828968
I0704 20:55:54.577370 22667 layer_factory.hpp:77] Creating layer scale2b_branch2c
I0704 20:55:54.577381 22667 net.cpp:100] Creating Layer scale2b_branch2c
I0704 20:55:54.577385 22667 net.cpp:444] scale2b_branch2c <- res2b_branch2c
I0704 20:55:54.577396 22667 net.cpp:405] scale2b_branch2c -> res2b_branch2c (in-place)
I0704 20:55:54.577436 22667 layer_factory.hpp:77] Creating layer scale2b_branch2c
I0704 20:55:54.578306 22667 net.cpp:150] Setting up scale2b_branch2c
I0704 20:55:54.578320 22667 net.cpp:157] Top shape: 1 256 240 320 (19660800)
I0704 20:55:54.578321 22667 net.cpp:165] Memory required for data: 1769472168
I0704 20:55:54.578341 22667 layer_factory.hpp:77] Creating layer res2b
I0704 20:55:54.578361 22667 net.cpp:100] Creating Layer res2b
I0704 20:55:54.578367 22667 net.cpp:444] res2b <- res2a_res2a_relu_0_split_1
I0704 20:55:54.578379 22667 net.cpp:444] res2b <- res2b_branch2c
I0704 20:55:54.578387 22667 net.cpp:418] res2b -> res2b
I0704 20:55:54.578438 22667 net.cpp:150] Setting up res2b
I0704 20:55:54.578446 22667 net.cpp:157] Top shape: 1 256 240 320 (19660800)
I0704 20:55:54.578449 22667 net.cpp:165] Memory required for data: 1848115368
I0704 20:55:54.578451 22667 layer_factory.hpp:77] Creating layer res2b_relu
I0704 20:55:54.578460 22667 net.cpp:100] Creating Layer res2b_relu
I0704 20:55:54.578464 22667 net.cpp:444] res2b_relu <- res2b
I0704 20:55:54.578474 22667 net.cpp:405] res2b_relu -> res2b (in-place)
I0704 20:55:54.578637 22667 net.cpp:150] Setting up res2b_relu
I0704 20:55:54.578644 22667 net.cpp:157] Top shape: 1 256 240 320 (19660800)
I0704 20:55:54.578645 22667 net.cpp:165] Memory required for data: 1926758568
I0704 20:55:54.578649 22667 layer_factory.hpp:77] Creating layer res2b_res2b_relu_0_split
I0704 20:55:54.578656 22667 net.cpp:100] Creating Layer res2b_res2b_relu_0_split
I0704 20:55:54.578660 22667 net.cpp:444] res2b_res2b_relu_0_split <- res2b
I0704 20:55:54.578672 22667 net.cpp:418] res2b_res2b_relu_0_split -> res2b_res2b_relu_0_split_0
I0704 20:55:54.578685 22667 net.cpp:418] res2b_res2b_relu_0_split -> res2b_res2b_relu_0_split_1
I0704 20:55:54.578722 22667 net.cpp:150] Setting up res2b_res2b_relu_0_split
I0704 20:55:54.578729 22667 net.cpp:157] Top shape: 1 256 240 320 (19660800)
I0704 20:55:54.578732 22667 net.cpp:157] Top shape: 1 256 240 320 (19660800)
I0704 20:55:54.578734 22667 net.cpp:165] Memory required for data: 2084044968
I0704 20:55:54.578737 22667 layer_factory.hpp:77] Creating layer res2c_branch2a
I0704 20:55:54.578752 22667 net.cpp:100] Creating Layer res2c_branch2a
I0704 20:55:54.578758 22667 net.cpp:444] res2c_branch2a <- res2b_res2b_relu_0_split_0
I0704 20:55:54.578774 22667 net.cpp:418] res2c_branch2a -> res2c_branch2a
I0704 20:55:54.579569 22667 cudnn_conv_layer.cpp:194] Reallocating workspace storage: 1388952
I0704 20:55:54.579764 22667 net.cpp:150] Setting up res2c_branch2a
I0704 20:55:54.579774 22667 net.cpp:157] Top shape: 1 64 240 320 (4915200)
I0704 20:55:54.579777 22667 net.cpp:165] Memory required for data: 2103705768
I0704 20:55:54.579787 22667 layer_factory.hpp:77] Creating layer bn2c_branch2a
I0704 20:55:54.579799 22667 net.cpp:100] Creating Layer bn2c_branch2a
I0704 20:55:54.579804 22667 net.cpp:444] bn2c_branch2a <- res2c_branch2a
I0704 20:55:54.579816 22667 net.cpp:405] bn2c_branch2a -> res2c_branch2a (in-place)
I0704 20:55:54.580062 22667 net.cpp:150] Setting up bn2c_branch2a
I0704 20:55:54.580068 22667 net.cpp:157] Top shape: 1 64 240 320 (4915200)
I0704 20:55:54.580070 22667 net.cpp:165] Memory required for data: 2123366568
I0704 20:55:54.580083 22667 layer_factory.hpp:77] Creating layer scale2c_branch2a
I0704 20:55:54.580097 22667 net.cpp:100] Creating Layer scale2c_branch2a
I0704 20:55:54.580102 22667 net.cpp:444] scale2c_branch2a <- res2c_branch2a
I0704 20:55:54.580112 22667 net.cpp:405] scale2c_branch2a -> res2c_branch2a (in-place)
I0704 20:55:54.580154 22667 layer_factory.hpp:77] Creating layer scale2c_branch2a
I0704 20:55:54.580451 22667 net.cpp:150] Setting up scale2c_branch2a
I0704 20:55:54.580456 22667 net.cpp:157] Top shape: 1 64 240 320 (4915200)
I0704 20:55:54.580459 22667 net.cpp:165] Memory required for data: 2143027368
I0704 20:55:54.580467 22667 layer_factory.hpp:77] Creating layer res2c_branch2a_relu
I0704 20:55:54.580476 22667 net.cpp:100] Creating Layer res2c_branch2a_relu
I0704 20:55:54.580482 22667 net.cpp:444] res2c_branch2a_relu <- res2c_branch2a
I0704 20:55:54.580492 22667 net.cpp:405] res2c_branch2a_relu -> res2c_branch2a (in-place)
I0704 20:55:54.580621 22667 net.cpp:150] Setting up res2c_branch2a_relu
I0704 20:55:54.580626 22667 net.cpp:157] Top shape: 1 64 240 320 (4915200)
I0704 20:55:54.580629 22667 net.cpp:165] Memory required for data: 2162688168
I0704 20:55:54.580632 22667 layer_factory.hpp:77] Creating layer res2c_branch2b
I0704 20:55:54.580646 22667 net.cpp:100] Creating Layer res2c_branch2b
I0704 20:55:54.580651 22667 net.cpp:444] res2c_branch2b <- res2c_branch2a
I0704 20:55:54.580662 22667 net.cpp:418] res2c_branch2b -> res2c_branch2b
I0704 20:55:54.581416 22667 cudnn_conv_layer.cpp:194] Reallocating workspace storage: 786432
I0704 20:55:54.581621 22667 net.cpp:150] Setting up res2c_branch2b
I0704 20:55:54.581630 22667 net.cpp:157] Top shape: 1 64 240 320 (4915200)
I0704 20:55:54.581634 22667 net.cpp:165] Memory required for data: 2182348968
I0704 20:55:54.581642 22667 layer_factory.hpp:77] Creating layer bn2c_branch2b
I0704 20:55:54.581655 22667 net.cpp:100] Creating Layer bn2c_branch2b
I0704 20:55:54.581660 22667 net.cpp:444] bn2c_branch2b <- res2c_branch2b
I0704 20:55:54.581670 22667 net.cpp:405] bn2c_branch2b -> res2c_branch2b (in-place)
I0704 20:55:54.581918 22667 net.cpp:150] Setting up bn2c_branch2b
I0704 20:55:54.581923 22667 net.cpp:157] Top shape: 1 64 240 320 (4915200)
I0704 20:55:54.581925 22667 net.cpp:165] Memory required for data: 2202009768
I0704 20:55:54.581938 22667 layer_factory.hpp:77] Creating layer scale2c_branch2b
I0704 20:55:54.581948 22667 net.cpp:100] Creating Layer scale2c_branch2b
I0704 20:55:54.581954 22667 net.cpp:444] scale2c_branch2b <- res2c_branch2b
I0704 20:55:54.581962 22667 net.cpp:405] scale2c_branch2b -> res2c_branch2b (in-place)
I0704 20:55:54.582005 22667 layer_factory.hpp:77] Creating layer scale2c_branch2b
I0704 20:55:54.582798 22667 net.cpp:150] Setting up scale2c_branch2b
I0704 20:55:54.582806 22667 net.cpp:157] Top shape: 1 64 240 320 (4915200)
I0704 20:55:54.582809 22667 net.cpp:165] Memory required for data: 2221670568
I0704 20:55:54.582820 22667 layer_factory.hpp:77] Creating layer res2c_branch2b_relu
I0704 20:55:54.582830 22667 net.cpp:100] Creating Layer res2c_branch2b_relu
I0704 20:55:54.582835 22667 net.cpp:444] res2c_branch2b_relu <- res2c_branch2b
I0704 20:55:54.582846 22667 net.cpp:405] res2c_branch2b_relu -> res2c_branch2b (in-place)
I0704 20:55:54.582988 22667 net.cpp:150] Setting up res2c_branch2b_relu
I0704 20:55:54.582994 22667 net.cpp:157] Top shape: 1 64 240 320 (4915200)
I0704 20:55:54.582996 22667 net.cpp:165] Memory required for data: 2241331368
I0704 20:55:54.582999 22667 layer_factory.hpp:77] Creating layer res2c_branch2c
I0704 20:55:54.583014 22667 net.cpp:100] Creating Layer res2c_branch2c
I0704 20:55:54.583019 22667 net.cpp:444] res2c_branch2c <- res2c_branch2b
I0704 20:55:54.583030 22667 net.cpp:418] res2c_branch2c -> res2c_branch2c
I0704 20:55:54.583768 22667 cudnn_conv_layer.cpp:194] Reallocating workspace storage: 1388952
I0704 20:55:54.583961 22667 net.cpp:150] Setting up res2c_branch2c
I0704 20:55:54.583971 22667 net.cpp:157] Top shape: 1 256 240 320 (19660800)
I0704 20:55:54.583972 22667 net.cpp:165] Memory required for data: 2319974568
I0704 20:55:54.583981 22667 layer_factory.hpp:77] Creating layer bn2c_branch2c
I0704 20:55:54.583992 22667 net.cpp:100] Creating Layer bn2c_branch2c
I0704 20:55:54.583997 22667 net.cpp:444] bn2c_branch2c <- res2c_branch2c
I0704 20:55:54.584007 22667 net.cpp:405] bn2c_branch2c -> res2c_branch2c (in-place)
I0704 20:55:54.584254 22667 net.cpp:150] Setting up bn2c_branch2c
I0704 20:55:54.584259 22667 net.cpp:157] Top shape: 1 256 240 320 (19660800)
I0704 20:55:54.584261 22667 net.cpp:165] Memory required for data: 2398617768
I0704 20:55:54.584290 22667 layer_factory.hpp:77] Creating layer scale2c_branch2c
I0704 20:55:54.584302 22667 net.cpp:100] Creating Layer scale2c_branch2c
I0704 20:55:54.584307 22667 net.cpp:444] scale2c_branch2c <- res2c_branch2c
I0704 20:55:54.584317 22667 net.cpp:405] scale2c_branch2c -> res2c_branch2c (in-place)
I0704 20:55:54.584359 22667 layer_factory.hpp:77] Creating layer scale2c_branch2c
I0704 20:55:54.584650 22667 net.cpp:150] Setting up scale2c_branch2c
I0704 20:55:54.584656 22667 net.cpp:157] Top shape: 1 256 240 320 (19660800)
I0704 20:55:54.584658 22667 net.cpp:165] Memory required for data: 2477260968
I0704 20:55:54.584666 22667 layer_factory.hpp:77] Creating layer res2c
I0704 20:55:54.584676 22667 net.cpp:100] Creating Layer res2c
I0704 20:55:54.584681 22667 net.cpp:444] res2c <- res2b_res2b_relu_0_split_1
I0704 20:55:54.584687 22667 net.cpp:444] res2c <- res2c_branch2c
I0704 20:55:54.584694 22667 net.cpp:418] res2c -> res2c
I0704 20:55:54.584722 22667 net.cpp:150] Setting up res2c
I0704 20:55:54.584729 22667 net.cpp:157] Top shape: 1 256 240 320 (19660800)
I0704 20:55:54.584731 22667 net.cpp:165] Memory required for data: 2555904168
I0704 20:55:54.584734 22667 layer_factory.hpp:77] Creating layer res2c_relu
I0704 20:55:54.584743 22667 net.cpp:100] Creating Layer res2c_relu
I0704 20:55:54.584746 22667 net.cpp:444] res2c_relu <- res2c
I0704 20:55:54.584755 22667 net.cpp:405] res2c_relu -> res2c (in-place)
I0704 20:55:54.585067 22667 net.cpp:150] Setting up res2c_relu
I0704 20:55:54.585074 22667 net.cpp:157] Top shape: 1 256 240 320 (19660800)
I0704 20:55:54.585078 22667 net.cpp:165] Memory required for data: 2634547368
I0704 20:55:54.585080 22667 layer_factory.hpp:77] Creating layer res2c_res2c_relu_0_split
I0704 20:55:54.585090 22667 net.cpp:100] Creating Layer res2c_res2c_relu_0_split
I0704 20:55:54.585094 22667 net.cpp:444] res2c_res2c_relu_0_split <- res2c
I0704 20:55:54.585106 22667 net.cpp:418] res2c_res2c_relu_0_split -> res2c_res2c_relu_0_split_0
I0704 20:55:54.585119 22667 net.cpp:418] res2c_res2c_relu_0_split -> res2c_res2c_relu_0_split_1
I0704 20:55:54.585157 22667 net.cpp:150] Setting up res2c_res2c_relu_0_split
I0704 20:55:54.585165 22667 net.cpp:157] Top shape: 1 256 240 320 (19660800)
I0704 20:55:54.585167 22667 net.cpp:157] Top shape: 1 256 240 320 (19660800)
I0704 20:55:54.585170 22667 net.cpp:165] Memory required for data: 2791833768
I0704 20:55:54.585172 22667 layer_factory.hpp:77] Creating layer res3a_branch1
I0704 20:55:54.585183 22667 net.cpp:100] Creating Layer res3a_branch1
I0704 20:55:54.585188 22667 net.cpp:444] res3a_branch1 <- res2c_res2c_relu_0_split_0
I0704 20:55:54.585199 22667 net.cpp:418] res3a_branch1 -> res3a_branch1
I0704 20:55:54.586102 22667 cudnn_conv_layer.cpp:194] Reallocating workspace storage: 345624
I0704 20:55:54.586119 22667 net.cpp:150] Setting up res3a_branch1
I0704 20:55:54.586127 22667 net.cpp:157] Top shape: 1 512 120 160 (9830400)
I0704 20:55:54.586129 22667 net.cpp:165] Memory required for data: 2831155368
I0704 20:55:54.586138 22667 layer_factory.hpp:77] Creating layer bn3a_branch1
I0704 20:55:54.586150 22667 net.cpp:100] Creating Layer bn3a_branch1
I0704 20:55:54.586155 22667 net.cpp:444] bn3a_branch1 <- res3a_branch1
I0704 20:55:54.586167 22667 net.cpp:405] bn3a_branch1 -> res3a_branch1 (in-place)
I0704 20:55:54.586864 22667 net.cpp:150] Setting up bn3a_branch1
I0704 20:55:54.586874 22667 net.cpp:157] Top shape: 1 512 120 160 (9830400)
I0704 20:55:54.586876 22667 net.cpp:165] Memory required for data: 2870476968
I0704 20:55:54.586894 22667 layer_factory.hpp:77] Creating layer scale3a_branch1
I0704 20:55:54.586910 22667 net.cpp:100] Creating Layer scale3a_branch1
I0704 20:55:54.586915 22667 net.cpp:444] scale3a_branch1 <- res3a_branch1
I0704 20:55:54.586927 22667 net.cpp:405] scale3a_branch1 -> res3a_branch1 (in-place)
I0704 20:55:54.586971 22667 layer_factory.hpp:77] Creating layer scale3a_branch1
I0704 20:55:54.587122 22667 net.cpp:150] Setting up scale3a_branch1
I0704 20:55:54.587129 22667 net.cpp:157] Top shape: 1 512 120 160 (9830400)
I0704 20:55:54.587131 22667 net.cpp:165] Memory required for data: 2909798568
I0704 20:55:54.587141 22667 layer_factory.hpp:77] Creating layer res3a_branch2a
I0704 20:55:54.587154 22667 net.cpp:100] Creating Layer res3a_branch2a
I0704 20:55:54.587160 22667 net.cpp:444] res3a_branch2a <- res2c_res2c_relu_0_split_1
I0704 20:55:54.587172 22667 net.cpp:418] res3a_branch2a -> res3a_branch2a
I0704 20:55:54.588393 22667 cudnn_conv_layer.cpp:194] Reallocating workspace storage: 345624
I0704 20:55:54.588412 22667 net.cpp:150] Setting up res3a_branch2a
I0704 20:55:54.588419 22667 net.cpp:157] Top shape: 1 128 120 160 (2457600)
I0704 20:55:54.588421 22667 net.cpp:165] Memory required for data: 2919628968
I0704 20:55:54.588430 22667 layer_factory.hpp:77] Creating layer bn3a_branch2a
I0704 20:55:54.588443 22667 net.cpp:100] Creating Layer bn3a_branch2a
I0704 20:55:54.588448 22667 net.cpp:444] bn3a_branch2a <- res3a_branch2a
I0704 20:55:54.588459 22667 net.cpp:405] bn3a_branch2a -> res3a_branch2a (in-place)
I0704 20:55:54.588625 22667 net.cpp:150] Setting up bn3a_branch2a
I0704 20:55:54.588630 22667 net.cpp:157] Top shape: 1 128 120 160 (2457600)
I0704 20:55:54.588632 22667 net.cpp:165] Memory required for data: 2929459368
I0704 20:55:54.588646 22667 layer_factory.hpp:77] Creating layer scale3a_branch2a
I0704 20:55:54.588656 22667 net.cpp:100] Creating Layer scale3a_branch2a
I0704 20:55:54.588661 22667 net.cpp:444] scale3a_branch2a <- res3a_branch2a
I0704 20:55:54.588671 22667 net.cpp:405] scale3a_branch2a -> res3a_branch2a (in-place)
I0704 20:55:54.588711 22667 layer_factory.hpp:77] Creating layer scale3a_branch2a
I0704 20:55:54.588855 22667 net.cpp:150] Setting up scale3a_branch2a
I0704 20:55:54.588861 22667 net.cpp:157] Top shape: 1 128 120 160 (2457600)
I0704 20:55:54.588863 22667 net.cpp:165] Memory required for data: 2939289768
I0704 20:55:54.588872 22667 layer_factory.hpp:77] Creating layer res3a_branch2a_relu
I0704 20:55:54.588883 22667 net.cpp:100] Creating Layer res3a_branch2a_relu
I0704 20:55:54.588888 22667 net.cpp:444] res3a_branch2a_relu <- res3a_branch2a
I0704 20:55:54.588896 22667 net.cpp:405] res3a_branch2a_relu -> res3a_branch2a (in-place)
I0704 20:55:54.589022 22667 net.cpp:150] Setting up res3a_branch2a_relu
I0704 20:55:54.589028 22667 net.cpp:157] Top shape: 1 128 120 160 (2457600)
I0704 20:55:54.589030 22667 net.cpp:165] Memory required for data: 2949120168
I0704 20:55:54.589035 22667 layer_factory.hpp:77] Creating layer res3a_branch2b
I0704 20:55:54.589046 22667 net.cpp:100] Creating Layer res3a_branch2b
I0704 20:55:54.589051 22667 net.cpp:444] res3a_branch2b <- res3a_branch2a
I0704 20:55:54.589120 22667 net.cpp:418] res3a_branch2b -> res3a_branch2b
I0704 20:55:54.590687 22667 cudnn_conv_layer.cpp:194] Reallocating workspace storage: 3145728
I0704 20:55:54.590947 22667 net.cpp:150] Setting up res3a_branch2b
I0704 20:55:54.590961 22667 net.cpp:157] Top shape: 1 128 120 160 (2457600)
I0704 20:55:54.590963 22667 net.cpp:165] Memory required for data: 2958950568
I0704 20:55:54.590978 22667 layer_factory.hpp:77] Creating layer bn3a_branch2b
I0704 20:55:54.591012 22667 net.cpp:100] Creating Layer bn3a_branch2b
I0704 20:55:54.591019 22667 net.cpp:444] bn3a_branch2b <- res3a_branch2b
I0704 20:55:54.591033 22667 net.cpp:405] bn3a_branch2b -> res3a_branch2b (in-place)
I0704 20:55:54.591213 22667 net.cpp:150] Setting up bn3a_branch2b
I0704 20:55:54.591219 22667 net.cpp:157] Top shape: 1 128 120 160 (2457600)
I0704 20:55:54.591222 22667 net.cpp:165] Memory required for data: 2968780968
I0704 20:55:54.591235 22667 layer_factory.hpp:77] Creating layer scale3a_branch2b
I0704 20:55:54.591248 22667 net.cpp:100] Creating Layer scale3a_branch2b
I0704 20:55:54.591253 22667 net.cpp:444] scale3a_branch2b <- res3a_branch2b
I0704 20:55:54.591261 22667 net.cpp:405] scale3a_branch2b -> res3a_branch2b (in-place)
I0704 20:55:54.591303 22667 layer_factory.hpp:77] Creating layer scale3a_branch2b
I0704 20:55:54.591449 22667 net.cpp:150] Setting up scale3a_branch2b
I0704 20:55:54.591454 22667 net.cpp:157] Top shape: 1 128 120 160 (2457600)
I0704 20:55:54.591456 22667 net.cpp:165] Memory required for data: 2978611368
I0704 20:55:54.591464 22667 layer_factory.hpp:77] Creating layer res3a_branch2b_relu
I0704 20:55:54.591473 22667 net.cpp:100] Creating Layer res3a_branch2b_relu
I0704 20:55:54.591478 22667 net.cpp:444] res3a_branch2b_relu <- res3a_branch2b
I0704 20:55:54.591488 22667 net.cpp:405] res3a_branch2b_relu -> res3a_branch2b (in-place)
I0704 20:55:54.591617 22667 net.cpp:150] Setting up res3a_branch2b_relu
I0704 20:55:54.591624 22667 net.cpp:157] Top shape: 1 128 120 160 (2457600)
I0704 20:55:54.591626 22667 net.cpp:165] Memory required for data: 2988441768
I0704 20:55:54.591629 22667 layer_factory.hpp:77] Creating layer res3a_branch2c
I0704 20:55:54.591644 22667 net.cpp:100] Creating Layer res3a_branch2c
I0704 20:55:54.591648 22667 net.cpp:444] res3a_branch2c <- res3a_branch2b
I0704 20:55:54.591660 22667 net.cpp:418] res3a_branch2c -> res3a_branch2c
I0704 20:55:54.592466 22667 cudnn_conv_layer.cpp:194] Reallocating workspace storage: 352152
I0704 20:55:54.592478 22667 net.cpp:150] Setting up res3a_branch2c
I0704 20:55:54.592484 22667 net.cpp:157] Top shape: 1 512 120 160 (9830400)
I0704 20:55:54.592487 22667 net.cpp:165] Memory required for data: 3027763368
I0704 20:55:54.592495 22667 layer_factory.hpp:77] Creating layer bn3a_branch2c
I0704 20:55:54.592507 22667 net.cpp:100] Creating Layer bn3a_branch2c
I0704 20:55:54.592512 22667 net.cpp:444] bn3a_branch2c <- res3a_branch2c
I0704 20:55:54.592523 22667 net.cpp:405] bn3a_branch2c -> res3a_branch2c (in-place)
I0704 20:55:54.592694 22667 net.cpp:150] Setting up bn3a_branch2c
I0704 20:55:54.592700 22667 net.cpp:157] Top shape: 1 512 120 160 (9830400)
I0704 20:55:54.592701 22667 net.cpp:165] Memory required for data: 3067084968
I0704 20:55:54.592715 22667 layer_factory.hpp:77] Creating layer scale3a_branch2c
I0704 20:55:54.592726 22667 net.cpp:100] Creating Layer scale3a_branch2c
I0704 20:55:54.592730 22667 net.cpp:444] scale3a_branch2c <- res3a_branch2c
I0704 20:55:54.592741 22667 net.cpp:405] scale3a_branch2c -> res3a_branch2c (in-place)
I0704 20:55:54.592780 22667 layer_factory.hpp:77] Creating layer scale3a_branch2c
I0704 20:55:54.592927 22667 net.cpp:150] Setting up scale3a_branch2c
I0704 20:55:54.592933 22667 net.cpp:157] Top shape: 1 512 120 160 (9830400)
I0704 20:55:54.592936 22667 net.cpp:165] Memory required for data: 3106406568
I0704 20:55:54.592944 22667 layer_factory.hpp:77] Creating layer res3a
I0704 20:55:54.592954 22667 net.cpp:100] Creating Layer res3a
I0704 20:55:54.592958 22667 net.cpp:444] res3a <- res3a_branch1
I0704 20:55:54.592967 22667 net.cpp:444] res3a <- res3a_branch2c
I0704 20:55:54.592974 22667 net.cpp:418] res3a -> res3a
I0704 20:55:54.593003 22667 net.cpp:150] Setting up res3a
I0704 20:55:54.593010 22667 net.cpp:157] Top shape: 1 512 120 160 (9830400)
I0704 20:55:54.593013 22667 net.cpp:165] Memory required for data: 3145728168
I0704 20:55:54.593015 22667 layer_factory.hpp:77] Creating layer res3a_relu
I0704 20:55:54.593024 22667 net.cpp:100] Creating Layer res3a_relu
I0704 20:55:54.593027 22667 net.cpp:444] res3a_relu <- res3a
I0704 20:55:54.593037 22667 net.cpp:405] res3a_relu -> res3a (in-place)
I0704 20:55:54.593353 22667 net.cpp:150] Setting up res3a_relu
I0704 20:55:54.593360 22667 net.cpp:157] Top shape: 1 512 120 160 (9830400)
I0704 20:55:54.593363 22667 net.cpp:165] Memory required for data: 3185049768
I0704 20:55:54.593366 22667 layer_factory.hpp:77] Creating layer res3a_res3a_relu_0_split
I0704 20:55:54.593377 22667 net.cpp:100] Creating Layer res3a_res3a_relu_0_split
I0704 20:55:54.593382 22667 net.cpp:444] res3a_res3a_relu_0_split <- res3a
I0704 20:55:54.593394 22667 net.cpp:418] res3a_res3a_relu_0_split -> res3a_res3a_relu_0_split_0
I0704 20:55:54.593406 22667 net.cpp:418] res3a_res3a_relu_0_split -> res3a_res3a_relu_0_split_1
I0704 20:55:54.593444 22667 net.cpp:150] Setting up res3a_res3a_relu_0_split
I0704 20:55:54.593451 22667 net.cpp:157] Top shape: 1 512 120 160 (9830400)
I0704 20:55:54.593454 22667 net.cpp:157] Top shape: 1 512 120 160 (9830400)
I0704 20:55:54.593456 22667 net.cpp:165] Memory required for data: 3263692968
I0704 20:55:54.593459 22667 layer_factory.hpp:77] Creating layer res3b_branch2a
I0704 20:55:54.593470 22667 net.cpp:100] Creating Layer res3b_branch2a
I0704 20:55:54.593475 22667 net.cpp:444] res3b_branch2a <- res3a_res3a_relu_0_split_0
I0704 20:55:54.593487 22667 net.cpp:418] res3b_branch2a -> res3b_branch2a
I0704 20:55:54.594310 22667 cudnn_conv_layer.cpp:194] Reallocating workspace storage: 352152
I0704 20:55:54.594326 22667 net.cpp:150] Setting up res3b_branch2a
I0704 20:55:54.594332 22667 net.cpp:157] Top shape: 1 128 120 160 (2457600)
I0704 20:55:54.594336 22667 net.cpp:165] Memory required for data: 3273523368
I0704 20:55:54.594343 22667 layer_factory.hpp:77] Creating layer bn3b_branch2a
I0704 20:55:54.594355 22667 net.cpp:100] Creating Layer bn3b_branch2a
I0704 20:55:54.594362 22667 net.cpp:444] bn3b_branch2a <- res3b_branch2a
I0704 20:55:54.594372 22667 net.cpp:405] bn3b_branch2a -> res3b_branch2a (in-place)
I0704 20:55:54.594542 22667 net.cpp:150] Setting up bn3b_branch2a
I0704 20:55:54.594547 22667 net.cpp:157] Top shape: 1 128 120 160 (2457600)
I0704 20:55:54.594549 22667 net.cpp:165] Memory required for data: 3283353768
I0704 20:55:54.594563 22667 layer_factory.hpp:77] Creating layer scale3b_branch2a
I0704 20:55:54.594573 22667 net.cpp:100] Creating Layer scale3b_branch2a
I0704 20:55:54.594578 22667 net.cpp:444] scale3b_branch2a <- res3b_branch2a
I0704 20:55:54.594588 22667 net.cpp:405] scale3b_branch2a -> res3b_branch2a (in-place)
I0704 20:55:54.594630 22667 layer_factory.hpp:77] Creating layer scale3b_branch2a
I0704 20:55:54.595289 22667 net.cpp:150] Setting up scale3b_branch2a
I0704 20:55:54.595297 22667 net.cpp:157] Top shape: 1 128 120 160 (2457600)
I0704 20:55:54.595299 22667 net.cpp:165] Memory required for data: 3293184168
I0704 20:55:54.595309 22667 layer_factory.hpp:77] Creating layer res3b_branch2a_relu
I0704 20:55:54.595319 22667 net.cpp:100] Creating Layer res3b_branch2a_relu
I0704 20:55:54.595324 22667 net.cpp:444] res3b_branch2a_relu <- res3b_branch2a
I0704 20:55:54.595335 22667 net.cpp:405] res3b_branch2a_relu -> res3b_branch2a (in-place)
I0704 20:55:54.595472 22667 net.cpp:150] Setting up res3b_branch2a_relu
I0704 20:55:54.595479 22667 net.cpp:157] Top shape: 1 128 120 160 (2457600)
I0704 20:55:54.595480 22667 net.cpp:165] Memory required for data: 3303014568
I0704 20:55:54.595484 22667 layer_factory.hpp:77] Creating layer res3b_branch2b
I0704 20:55:54.595497 22667 net.cpp:100] Creating Layer res3b_branch2b
I0704 20:55:54.595502 22667 net.cpp:444] res3b_branch2b <- res3b_branch2a
I0704 20:55:54.595515 22667 net.cpp:418] res3b_branch2b -> res3b_branch2b
I0704 20:55:54.596632 22667 cudnn_conv_layer.cpp:194] Reallocating workspace storage: 3145728
I0704 20:55:54.596829 22667 net.cpp:150] Setting up res3b_branch2b
I0704 20:55:54.596838 22667 net.cpp:157] Top shape: 1 128 120 160 (2457600)
I0704 20:55:54.596840 22667 net.cpp:165] Memory required for data: 3312844968
I0704 20:55:54.596850 22667 layer_factory.hpp:77] Creating layer bn3b_branch2b
I0704 20:55:54.596863 22667 net.cpp:100] Creating Layer bn3b_branch2b
I0704 20:55:54.596866 22667 net.cpp:444] bn3b_branch2b <- res3b_branch2b
I0704 20:55:54.596877 22667 net.cpp:405] bn3b_branch2b -> res3b_branch2b (in-place)
I0704 20:55:54.597050 22667 net.cpp:150] Setting up bn3b_branch2b
I0704 20:55:54.597056 22667 net.cpp:157] Top shape: 1 128 120 160 (2457600)
I0704 20:55:54.597059 22667 net.cpp:165] Memory required for data: 3322675368
I0704 20:55:54.597072 22667 layer_factory.hpp:77] Creating layer scale3b_branch2b
I0704 20:55:54.597082 22667 net.cpp:100] Creating Layer scale3b_branch2b
I0704 20:55:54.597087 22667 net.cpp:444] scale3b_branch2b <- res3b_branch2b
I0704 20:55:54.597097 22667 net.cpp:405] scale3b_branch2b -> res3b_branch2b (in-place)
I0704 20:55:54.597139 22667 layer_factory.hpp:77] Creating layer scale3b_branch2b
I0704 20:55:54.597285 22667 net.cpp:150] Setting up scale3b_branch2b
I0704 20:55:54.597291 22667 net.cpp:157] Top shape: 1 128 120 160 (2457600)
I0704 20:55:54.597293 22667 net.cpp:165] Memory required for data: 3332505768
I0704 20:55:54.597302 22667 layer_factory.hpp:77] Creating layer res3b_branch2b_relu
I0704 20:55:54.597311 22667 net.cpp:100] Creating Layer res3b_branch2b_relu
I0704 20:55:54.597316 22667 net.cpp:444] res3b_branch2b_relu <- res3b_branch2b
I0704 20:55:54.597326 22667 net.cpp:405] res3b_branch2b_relu -> res3b_branch2b (in-place)
I0704 20:55:54.597457 22667 net.cpp:150] Setting up res3b_branch2b_relu
I0704 20:55:54.597463 22667 net.cpp:157] Top shape: 1 128 120 160 (2457600)
I0704 20:55:54.597465 22667 net.cpp:165] Memory required for data: 3342336168
I0704 20:55:54.597470 22667 layer_factory.hpp:77] Creating layer res3b_branch2c
I0704 20:55:54.597481 22667 net.cpp:100] Creating Layer res3b_branch2c
I0704 20:55:54.597486 22667 net.cpp:444] res3b_branch2c <- res3b_branch2b
I0704 20:55:54.597496 22667 net.cpp:418] res3b_branch2c -> res3b_branch2c
I0704 20:55:54.598320 22667 cudnn_conv_layer.cpp:194] Reallocating workspace storage: 352152
I0704 20:55:54.598332 22667 net.cpp:150] Setting up res3b_branch2c
I0704 20:55:54.598340 22667 net.cpp:157] Top shape: 1 512 120 160 (9830400)
I0704 20:55:54.598341 22667 net.cpp:165] Memory required for data: 3381657768
I0704 20:55:54.598351 22667 layer_factory.hpp:77] Creating layer bn3b_branch2c
I0704 20:55:54.598361 22667 net.cpp:100] Creating Layer bn3b_branch2c
I0704 20:55:54.598366 22667 net.cpp:444] bn3b_branch2c <- res3b_branch2c
I0704 20:55:54.598377 22667 net.cpp:405] bn3b_branch2c -> res3b_branch2c (in-place)
I0704 20:55:54.598551 22667 net.cpp:150] Setting up bn3b_branch2c
I0704 20:55:54.598556 22667 net.cpp:157] Top shape: 1 512 120 160 (9830400)
I0704 20:55:54.598558 22667 net.cpp:165] Memory required for data: 3420979368
I0704 20:55:54.598572 22667 layer_factory.hpp:77] Creating layer scale3b_branch2c
I0704 20:55:54.598582 22667 net.cpp:100] Creating Layer scale3b_branch2c
I0704 20:55:54.598587 22667 net.cpp:444] scale3b_branch2c <- res3b_branch2c
I0704 20:55:54.598597 22667 net.cpp:405] scale3b_branch2c -> res3b_branch2c (in-place)
I0704 20:55:54.598635 22667 layer_factory.hpp:77] Creating layer scale3b_branch2c
I0704 20:55:54.598783 22667 net.cpp:150] Setting up scale3b_branch2c
I0704 20:55:54.598789 22667 net.cpp:157] Top shape: 1 512 120 160 (9830400)
I0704 20:55:54.598793 22667 net.cpp:165] Memory required for data: 3460300968
I0704 20:55:54.598800 22667 layer_factory.hpp:77] Creating layer res3b
I0704 20:55:54.598810 22667 net.cpp:100] Creating Layer res3b
I0704 20:55:54.598815 22667 net.cpp:444] res3b <- res3a_res3a_relu_0_split_1
I0704 20:55:54.598824 22667 net.cpp:444] res3b <- res3b_branch2c
I0704 20:55:54.598831 22667 net.cpp:418] res3b -> res3b
I0704 20:55:54.598861 22667 net.cpp:150] Setting up res3b
I0704 20:55:54.598867 22667 net.cpp:157] Top shape: 1 512 120 160 (9830400)
I0704 20:55:54.598870 22667 net.cpp:165] Memory required for data: 3499622568
I0704 20:55:54.598873 22667 layer_factory.hpp:77] Creating layer res3b_relu
I0704 20:55:54.598881 22667 net.cpp:100] Creating Layer res3b_relu
I0704 20:55:54.598886 22667 net.cpp:444] res3b_relu <- res3b
I0704 20:55:54.598894 22667 net.cpp:405] res3b_relu -> res3b (in-place)
I0704 20:55:54.599211 22667 net.cpp:150] Setting up res3b_relu
I0704 20:55:54.599218 22667 net.cpp:157] Top shape: 1 512 120 160 (9830400)
I0704 20:55:54.599221 22667 net.cpp:165] Memory required for data: 3538944168
I0704 20:55:54.599225 22667 layer_factory.hpp:77] Creating layer res3b_res3b_relu_0_split
I0704 20:55:54.599234 22667 net.cpp:100] Creating Layer res3b_res3b_relu_0_split
I0704 20:55:54.599239 22667 net.cpp:444] res3b_res3b_relu_0_split <- res3b
I0704 20:55:54.599251 22667 net.cpp:418] res3b_res3b_relu_0_split -> res3b_res3b_relu_0_split_0
I0704 20:55:54.599264 22667 net.cpp:418] res3b_res3b_relu_0_split -> res3b_res3b_relu_0_split_1
I0704 20:55:54.599303 22667 net.cpp:150] Setting up res3b_res3b_relu_0_split
I0704 20:55:54.599309 22667 net.cpp:157] Top shape: 1 512 120 160 (9830400)
I0704 20:55:54.599313 22667 net.cpp:157] Top shape: 1 512 120 160 (9830400)
I0704 20:55:54.599314 22667 net.cpp:165] Memory required for data: 3617587368
I0704 20:55:54.599318 22667 layer_factory.hpp:77] Creating layer res3c_branch2a
I0704 20:55:54.599329 22667 net.cpp:100] Creating Layer res3c_branch2a
I0704 20:55:54.599334 22667 net.cpp:444] res3c_branch2a <- res3b_res3b_relu_0_split_0
I0704 20:55:54.599346 22667 net.cpp:418] res3c_branch2a -> res3c_branch2a
I0704 20:55:54.600147 22667 cudnn_conv_layer.cpp:194] Reallocating workspace storage: 352152
I0704 20:55:54.600164 22667 net.cpp:150] Setting up res3c_branch2a
I0704 20:55:54.600170 22667 net.cpp:157] Top shape: 1 128 120 160 (2457600)
I0704 20:55:54.600173 22667 net.cpp:165] Memory required for data: 3627417768
I0704 20:55:54.600181 22667 layer_factory.hpp:77] Creating layer bn3c_branch2a
I0704 20:55:54.600194 22667 net.cpp:100] Creating Layer bn3c_branch2a
I0704 20:55:54.600199 22667 net.cpp:444] bn3c_branch2a <- res3c_branch2a
I0704 20:55:54.600211 22667 net.cpp:405] bn3c_branch2a -> res3c_branch2a (in-place)
I0704 20:55:54.600383 22667 net.cpp:150] Setting up bn3c_branch2a
I0704 20:55:54.600389 22667 net.cpp:157] Top shape: 1 128 120 160 (2457600)
I0704 20:55:54.600390 22667 net.cpp:165] Memory required for data: 3637248168
I0704 20:55:54.600404 22667 layer_factory.hpp:77] Creating layer scale3c_branch2a
I0704 20:55:54.600414 22667 net.cpp:100] Creating Layer scale3c_branch2a
I0704 20:55:54.600419 22667 net.cpp:444] scale3c_branch2a <- res3c_branch2a
I0704 20:55:54.600428 22667 net.cpp:405] scale3c_branch2a -> res3c_branch2a (in-place)
I0704 20:55:54.600471 22667 layer_factory.hpp:77] Creating layer scale3c_branch2a
I0704 20:55:54.600617 22667 net.cpp:150] Setting up scale3c_branch2a
I0704 20:55:54.600625 22667 net.cpp:157] Top shape: 1 128 120 160 (2457600)
I0704 20:55:54.600626 22667 net.cpp:165] Memory required for data: 3647078568
I0704 20:55:54.600634 22667 layer_factory.hpp:77] Creating layer res3c_branch2a_relu
I0704 20:55:54.600643 22667 net.cpp:100] Creating Layer res3c_branch2a_relu
I0704 20:55:54.600648 22667 net.cpp:444] res3c_branch2a_relu <- res3c_branch2a
I0704 20:55:54.600656 22667 net.cpp:405] res3c_branch2a_relu -> res3c_branch2a (in-place)
I0704 20:55:54.600783 22667 net.cpp:150] Setting up res3c_branch2a_relu
I0704 20:55:54.600790 22667 net.cpp:157] Top shape: 1 128 120 160 (2457600)
I0704 20:55:54.600791 22667 net.cpp:165] Memory required for data: 3656908968
I0704 20:55:54.600795 22667 layer_factory.hpp:77] Creating layer res3c_branch2b
I0704 20:55:54.600806 22667 net.cpp:100] Creating Layer res3c_branch2b
I0704 20:55:54.600811 22667 net.cpp:444] res3c_branch2b <- res3c_branch2a
I0704 20:55:54.600823 22667 net.cpp:418] res3c_branch2b -> res3c_branch2b
I0704 20:55:54.601737 22667 cudnn_conv_layer.cpp:194] Reallocating workspace storage: 3145728
I0704 20:55:54.601935 22667 net.cpp:150] Setting up res3c_branch2b
I0704 20:55:54.601944 22667 net.cpp:157] Top shape: 1 128 120 160 (2457600)
I0704 20:55:54.601948 22667 net.cpp:165] Memory required for data: 3666739368
I0704 20:55:54.601956 22667 layer_factory.hpp:77] Creating layer bn3c_branch2b
I0704 20:55:54.601969 22667 net.cpp:100] Creating Layer bn3c_branch2b
I0704 20:55:54.601974 22667 net.cpp:444] bn3c_branch2b <- res3c_branch2b
I0704 20:55:54.601985 22667 net.cpp:405] bn3c_branch2b -> res3c_branch2b (in-place)
I0704 20:55:54.602160 22667 net.cpp:150] Setting up bn3c_branch2b
I0704 20:55:54.602165 22667 net.cpp:157] Top shape: 1 128 120 160 (2457600)
I0704 20:55:54.602167 22667 net.cpp:165] Memory required for data: 3676569768
I0704 20:55:54.602181 22667 layer_factory.hpp:77] Creating layer scale3c_branch2b
I0704 20:55:54.602191 22667 net.cpp:100] Creating Layer scale3c_branch2b
I0704 20:55:54.602196 22667 net.cpp:444] scale3c_branch2b <- res3c_branch2b
I0704 20:55:54.602206 22667 net.cpp:405] scale3c_branch2b -> res3c_branch2b (in-place)
I0704 20:55:54.602250 22667 layer_factory.hpp:77] Creating layer scale3c_branch2b
I0704 20:55:54.602396 22667 net.cpp:150] Setting up scale3c_branch2b
I0704 20:55:54.602402 22667 net.cpp:157] Top shape: 1 128 120 160 (2457600)
I0704 20:55:54.602406 22667 net.cpp:165] Memory required for data: 3686400168
I0704 20:55:54.602413 22667 layer_factory.hpp:77] Creating layer res3c_branch2b_relu
I0704 20:55:54.602422 22667 net.cpp:100] Creating Layer res3c_branch2b_relu
I0704 20:55:54.602427 22667 net.cpp:444] res3c_branch2b_relu <- res3c_branch2b
I0704 20:55:54.602435 22667 net.cpp:405] res3c_branch2b_relu -> res3c_branch2b (in-place)
I0704 20:55:54.602567 22667 net.cpp:150] Setting up res3c_branch2b_relu
I0704 20:55:54.602574 22667 net.cpp:157] Top shape: 1 128 120 160 (2457600)
I0704 20:55:54.602576 22667 net.cpp:165] Memory required for data: 3696230568
I0704 20:55:54.602581 22667 layer_factory.hpp:77] Creating layer res3c_branch2c
I0704 20:55:54.602591 22667 net.cpp:100] Creating Layer res3c_branch2c
I0704 20:55:54.602596 22667 net.cpp:444] res3c_branch2c <- res3c_branch2b
I0704 20:55:54.602609 22667 net.cpp:418] res3c_branch2c -> res3c_branch2c
I0704 20:55:54.603433 22667 cudnn_conv_layer.cpp:194] Reallocating workspace storage: 352152
I0704 20:55:54.603446 22667 net.cpp:150] Setting up res3c_branch2c
I0704 20:55:54.603451 22667 net.cpp:157] Top shape: 1 512 120 160 (9830400)
I0704 20:55:54.603454 22667 net.cpp:165] Memory required for data: 3735552168
I0704 20:55:54.603462 22667 layer_factory.hpp:77] Creating layer bn3c_branch2c
I0704 20:55:54.603476 22667 net.cpp:100] Creating Layer bn3c_branch2c
I0704 20:55:54.603480 22667 net.cpp:444] bn3c_branch2c <- res3c_branch2c
I0704 20:55:54.603492 22667 net.cpp:405] bn3c_branch2c -> res3c_branch2c (in-place)
I0704 20:55:54.603665 22667 net.cpp:150] Setting up bn3c_branch2c
I0704 20:55:54.603672 22667 net.cpp:157] Top shape: 1 512 120 160 (9830400)
I0704 20:55:54.603673 22667 net.cpp:165] Memory required for data: 3774873768
I0704 20:55:54.603687 22667 layer_factory.hpp:77] Creating layer scale3c_branch2c
I0704 20:55:54.603698 22667 net.cpp:100] Creating Layer scale3c_branch2c
I0704 20:55:54.603703 22667 net.cpp:444] scale3c_branch2c <- res3c_branch2c
I0704 20:55:54.603713 22667 net.cpp:405] scale3c_branch2c -> res3c_branch2c (in-place)
I0704 20:55:54.603752 22667 layer_factory.hpp:77] Creating layer scale3c_branch2c
I0704 20:55:54.603910 22667 net.cpp:150] Setting up scale3c_branch2c
I0704 20:55:54.603916 22667 net.cpp:157] Top shape: 1 512 120 160 (9830400)
I0704 20:55:54.603919 22667 net.cpp:165] Memory required for data: 3814195368
I0704 20:55:54.603929 22667 layer_factory.hpp:77] Creating layer res3c
I0704 20:55:54.603936 22667 net.cpp:100] Creating Layer res3c
I0704 20:55:54.603941 22667 net.cpp:444] res3c <- res3b_res3b_relu_0_split_1
I0704 20:55:54.603950 22667 net.cpp:444] res3c <- res3c_branch2c
I0704 20:55:54.603958 22667 net.cpp:418] res3c -> res3c
I0704 20:55:54.603988 22667 net.cpp:150] Setting up res3c
I0704 20:55:54.603996 22667 net.cpp:157] Top shape: 1 512 120 160 (9830400)
I0704 20:55:54.603997 22667 net.cpp:165] Memory required for data: 3853516968
I0704 20:55:54.604001 22667 layer_factory.hpp:77] Creating layer res3c_relu
I0704 20:55:54.604007 22667 net.cpp:100] Creating Layer res3c_relu
I0704 20:55:54.604012 22667 net.cpp:444] res3c_relu <- res3c
I0704 20:55:54.604020 22667 net.cpp:405] res3c_relu -> res3c (in-place)
I0704 20:55:54.604146 22667 net.cpp:150] Setting up res3c_relu
I0704 20:55:54.604152 22667 net.cpp:157] Top shape: 1 512 120 160 (9830400)
I0704 20:55:54.604154 22667 net.cpp:165] Memory required for data: 3892838568
I0704 20:55:54.604158 22667 layer_factory.hpp:77] Creating layer res3c_res3c_relu_0_split
I0704 20:55:54.604166 22667 net.cpp:100] Creating Layer res3c_res3c_relu_0_split
I0704 20:55:54.604169 22667 net.cpp:444] res3c_res3c_relu_0_split <- res3c
I0704 20:55:54.604180 22667 net.cpp:418] res3c_res3c_relu_0_split -> res3c_res3c_relu_0_split_0
I0704 20:55:54.604192 22667 net.cpp:418] res3c_res3c_relu_0_split -> res3c_res3c_relu_0_split_1
I0704 20:55:54.604228 22667 net.cpp:150] Setting up res3c_res3c_relu_0_split
I0704 20:55:54.604235 22667 net.cpp:157] Top shape: 1 512 120 160 (9830400)
I0704 20:55:54.604238 22667 net.cpp:157] Top shape: 1 512 120 160 (9830400)
I0704 20:55:54.604240 22667 net.cpp:165] Memory required for data: 3971481768
I0704 20:55:54.604243 22667 layer_factory.hpp:77] Creating layer res3d_branch2a
I0704 20:55:54.604254 22667 net.cpp:100] Creating Layer res3d_branch2a
I0704 20:55:54.604259 22667 net.cpp:444] res3d_branch2a <- res3c_res3c_relu_0_split_0
I0704 20:55:54.604270 22667 net.cpp:418] res3d_branch2a -> res3d_branch2a
I0704 20:55:54.605602 22667 cudnn_conv_layer.cpp:194] Reallocating workspace storage: 352152
I0704 20:55:54.605619 22667 net.cpp:150] Setting up res3d_branch2a
I0704 20:55:54.605626 22667 net.cpp:157] Top shape: 1 128 120 160 (2457600)
I0704 20:55:54.605628 22667 net.cpp:165] Memory required for data: 3981312168
I0704 20:55:54.605638 22667 layer_factory.hpp:77] Creating layer bn3d_branch2a
I0704 20:55:54.605649 22667 net.cpp:100] Creating Layer bn3d_branch2a
I0704 20:55:54.605655 22667 net.cpp:444] bn3d_branch2a <- res3d_branch2a
I0704 20:55:54.605667 22667 net.cpp:405] bn3d_branch2a -> res3d_branch2a (in-place)
I0704 20:55:54.605841 22667 net.cpp:150] Setting up bn3d_branch2a
I0704 20:55:54.605846 22667 net.cpp:157] Top shape: 1 128 120 160 (2457600)
I0704 20:55:54.605849 22667 net.cpp:165] Memory required for data: 3991142568
I0704 20:55:54.605882 22667 layer_factory.hpp:77] Creating layer scale3d_branch2a
I0704 20:55:54.605895 22667 net.cpp:100] Creating Layer scale3d_branch2a
I0704 20:55:54.605900 22667 net.cpp:444] scale3d_branch2a <- res3d_branch2a
I0704 20:55:54.605909 22667 net.cpp:405] scale3d_branch2a -> res3d_branch2a (in-place)
I0704 20:55:54.605952 22667 layer_factory.hpp:77] Creating layer scale3d_branch2a
I0704 20:55:54.606099 22667 net.cpp:150] Setting up scale3d_branch2a
I0704 20:55:54.606106 22667 net.cpp:157] Top shape: 1 128 120 160 (2457600)
I0704 20:55:54.606108 22667 net.cpp:165] Memory required for data: 4000972968
I0704 20:55:54.606117 22667 layer_factory.hpp:77] Creating layer res3d_branch2a_relu
I0704 20:55:54.606125 22667 net.cpp:100] Creating Layer res3d_branch2a_relu
I0704 20:55:54.606129 22667 net.cpp:444] res3d_branch2a_relu <- res3d_branch2a
I0704 20:55:54.606138 22667 net.cpp:405] res3d_branch2a_relu -> res3d_branch2a (in-place)
I0704 20:55:54.606467 22667 net.cpp:150] Setting up res3d_branch2a_relu
I0704 20:55:54.606473 22667 net.cpp:157] Top shape: 1 128 120 160 (2457600)
I0704 20:55:54.606475 22667 net.cpp:165] Memory required for data: 4010803368
I0704 20:55:54.606479 22667 layer_factory.hpp:77] Creating layer res3d_branch2b
I0704 20:55:54.606493 22667 net.cpp:100] Creating Layer res3d_branch2b
I0704 20:55:54.606498 22667 net.cpp:444] res3d_branch2b <- res3d_branch2a
I0704 20:55:54.606511 22667 net.cpp:418] res3d_branch2b -> res3d_branch2b
I0704 20:55:54.607949 22667 cudnn_conv_layer.cpp:194] Reallocating workspace storage: 3145728
I0704 20:55:54.608147 22667 net.cpp:150] Setting up res3d_branch2b
I0704 20:55:54.608156 22667 net.cpp:157] Top shape: 1 128 120 160 (2457600)
I0704 20:55:54.608160 22667 net.cpp:165] Memory required for data: 4020633768
I0704 20:55:54.608168 22667 layer_factory.hpp:77] Creating layer bn3d_branch2b
I0704 20:55:54.608181 22667 net.cpp:100] Creating Layer bn3d_branch2b
I0704 20:55:54.608187 22667 net.cpp:444] bn3d_branch2b <- res3d_branch2b
I0704 20:55:54.608199 22667 net.cpp:405] bn3d_branch2b -> res3d_branch2b (in-place)
I0704 20:55:54.608376 22667 net.cpp:150] Setting up bn3d_branch2b
I0704 20:55:54.608382 22667 net.cpp:157] Top shape: 1 128 120 160 (2457600)
I0704 20:55:54.608384 22667 net.cpp:165] Memory required for data: 4030464168
I0704 20:55:54.608397 22667 layer_factory.hpp:77] Creating layer scale3d_branch2b
I0704 20:55:54.608409 22667 net.cpp:100] Creating Layer scale3d_branch2b
I0704 20:55:54.608414 22667 net.cpp:444] scale3d_branch2b <- res3d_branch2b
I0704 20:55:54.608423 22667 net.cpp:405] scale3d_branch2b -> res3d_branch2b (in-place)
I0704 20:55:54.608466 22667 layer_factory.hpp:77] Creating layer scale3d_branch2b
I0704 20:55:54.608618 22667 net.cpp:150] Setting up scale3d_branch2b
I0704 20:55:54.608624 22667 net.cpp:157] Top shape: 1 128 120 160 (2457600)
I0704 20:55:54.608626 22667 net.cpp:165] Memory required for data: 4040294568
I0704 20:55:54.608635 22667 layer_factory.hpp:77] Creating layer res3d_branch2b_relu
I0704 20:55:54.608644 22667 net.cpp:100] Creating Layer res3d_branch2b_relu
I0704 20:55:54.608649 22667 net.cpp:444] res3d_branch2b_relu <- res3d_branch2b
I0704 20:55:54.608657 22667 net.cpp:405] res3d_branch2b_relu -> res3d_branch2b (in-place)
I0704 20:55:54.608793 22667 net.cpp:150] Setting up res3d_branch2b_relu
I0704 20:55:54.608798 22667 net.cpp:157] Top shape: 1 128 120 160 (2457600)
I0704 20:55:54.608800 22667 net.cpp:165] Memory required for data: 4050124968
I0704 20:55:54.608803 22667 layer_factory.hpp:77] Creating layer res3d_branch2c
I0704 20:55:54.608816 22667 net.cpp:100] Creating Layer res3d_branch2c
I0704 20:55:54.608821 22667 net.cpp:444] res3d_branch2c <- res3d_branch2b
I0704 20:55:54.608834 22667 net.cpp:418] res3d_branch2c -> res3d_branch2c
I0704 20:55:54.609671 22667 cudnn_conv_layer.cpp:194] Reallocating workspace storage: 352152
I0704 20:55:54.609685 22667 net.cpp:150] Setting up res3d_branch2c
I0704 20:55:54.609691 22667 net.cpp:157] Top shape: 1 512 120 160 (9830400)
I0704 20:55:54.609694 22667 net.cpp:165] Memory required for data: 4089446568
I0704 20:55:54.609702 22667 layer_factory.hpp:77] Creating layer bn3d_branch2c
I0704 20:55:54.609714 22667 net.cpp:100] Creating Layer bn3d_branch2c
I0704 20:55:54.609719 22667 net.cpp:444] bn3d_branch2c <- res3d_branch2c
I0704 20:55:54.609730 22667 net.cpp:405] bn3d_branch2c -> res3d_branch2c (in-place)
I0704 20:55:54.609908 22667 net.cpp:150] Setting up bn3d_branch2c
I0704 20:55:54.609913 22667 net.cpp:157] Top shape: 1 512 120 160 (9830400)
I0704 20:55:54.609915 22667 net.cpp:165] Memory required for data: 4128768168
I0704 20:55:54.609928 22667 layer_factory.hpp:77] Creating layer scale3d_branch2c
I0704 20:55:54.609941 22667 net.cpp:100] Creating Layer scale3d_branch2c
I0704 20:55:54.609946 22667 net.cpp:444] scale3d_branch2c <- res3d_branch2c
I0704 20:55:54.609954 22667 net.cpp:405] scale3d_branch2c -> res3d_branch2c (in-place)
I0704 20:55:54.609995 22667 layer_factory.hpp:77] Creating layer scale3d_branch2c
I0704 20:55:54.610147 22667 net.cpp:150] Setting up scale3d_branch2c
I0704 20:55:54.610153 22667 net.cpp:157] Top shape: 1 512 120 160 (9830400)
I0704 20:55:54.610155 22667 net.cpp:165] Memory required for data: 4168089768
I0704 20:55:54.610164 22667 layer_factory.hpp:77] Creating layer res3d
I0704 20:55:54.610172 22667 net.cpp:100] Creating Layer res3d
I0704 20:55:54.610177 22667 net.cpp:444] res3d <- res3c_res3c_relu_0_split_1
I0704 20:55:54.610185 22667 net.cpp:444] res3d <- res3d_branch2c
I0704 20:55:54.610194 22667 net.cpp:418] res3d -> res3d
I0704 20:55:54.610224 22667 net.cpp:150] Setting up res3d
I0704 20:55:54.610231 22667 net.cpp:157] Top shape: 1 512 120 160 (9830400)
I0704 20:55:54.610234 22667 net.cpp:165] Memory required for data: 4207411368
I0704 20:55:54.610237 22667 layer_factory.hpp:77] Creating layer res3d_relu
I0704 20:55:54.610244 22667 net.cpp:100] Creating Layer res3d_relu
I0704 20:55:54.610249 22667 net.cpp:444] res3d_relu <- res3d
I0704 20:55:54.610258 22667 net.cpp:405] res3d_relu -> res3d (in-place)
I0704 20:55:54.610385 22667 net.cpp:150] Setting up res3d_relu
I0704 20:55:54.610390 22667 net.cpp:157] Top shape: 1 512 120 160 (9830400)
I0704 20:55:54.610394 22667 net.cpp:165] Memory required for data: 4246732968
I0704 20:55:54.610396 22667 layer_factory.hpp:77] Creating layer res3d_res3d_relu_0_split
I0704 20:55:54.610404 22667 net.cpp:100] Creating Layer res3d_res3d_relu_0_split
I0704 20:55:54.610409 22667 net.cpp:444] res3d_res3d_relu_0_split <- res3d
I0704 20:55:54.610419 22667 net.cpp:418] res3d_res3d_relu_0_split -> res3d_res3d_relu_0_split_0
I0704 20:55:54.610431 22667 net.cpp:418] res3d_res3d_relu_0_split -> res3d_res3d_relu_0_split_1
I0704 20:55:54.610468 22667 net.cpp:150] Setting up res3d_res3d_relu_0_split
I0704 20:55:54.610474 22667 net.cpp:157] Top shape: 1 512 120 160 (9830400)
I0704 20:55:54.610478 22667 net.cpp:157] Top shape: 1 512 120 160 (9830400)
I0704 20:55:54.610479 22667 net.cpp:165] Memory required for data: 4325376168
I0704 20:55:54.610483 22667 layer_factory.hpp:77] Creating layer res4a_branch1
I0704 20:55:54.610494 22667 net.cpp:100] Creating Layer res4a_branch1
I0704 20:55:54.610499 22667 net.cpp:444] res4a_branch1 <- res3d_res3d_relu_0_split_0
I0704 20:55:54.610510 22667 net.cpp:418] res4a_branch1 -> res4a_branch1
I0704 20:55:54.612421 22667 cudnn_conv_layer.cpp:194] Reallocating workspace storage: 86424
I0704 20:55:54.612627 22667 net.cpp:150] Setting up res4a_branch1
I0704 20:55:54.612638 22667 net.cpp:157] Top shape: 1 1024 60 80 (4915200)
I0704 20:55:54.612640 22667 net.cpp:165] Memory required for data: 4345036968
I0704 20:55:54.612650 22667 layer_factory.hpp:77] Creating layer bn4a_branch1
I0704 20:55:54.612664 22667 net.cpp:100] Creating Layer bn4a_branch1
I0704 20:55:54.612669 22667 net.cpp:444] bn4a_branch1 <- res4a_branch1
I0704 20:55:54.612681 22667 net.cpp:405] bn4a_branch1 -> res4a_branch1 (in-place)
I0704 20:55:54.612845 22667 net.cpp:150] Setting up bn4a_branch1
I0704 20:55:54.612851 22667 net.cpp:157] Top shape: 1 1024 60 80 (4915200)
I0704 20:55:54.612854 22667 net.cpp:165] Memory required for data: 4364697768
I0704 20:55:54.612866 22667 layer_factory.hpp:77] Creating layer scale4a_branch1
I0704 20:55:54.612877 22667 net.cpp:100] Creating Layer scale4a_branch1
I0704 20:55:54.612881 22667 net.cpp:444] scale4a_branch1 <- res4a_branch1
I0704 20:55:54.612891 22667 net.cpp:405] scale4a_branch1 -> res4a_branch1 (in-place)
I0704 20:55:54.612931 22667 layer_factory.hpp:77] Creating layer scale4a_branch1
I0704 20:55:54.613059 22667 net.cpp:150] Setting up scale4a_branch1
I0704 20:55:54.613065 22667 net.cpp:157] Top shape: 1 1024 60 80 (4915200)
I0704 20:55:54.613066 22667 net.cpp:165] Memory required for data: 4384358568
I0704 20:55:54.613075 22667 layer_factory.hpp:77] Creating layer res4a_branch2a
I0704 20:55:54.613088 22667 net.cpp:100] Creating Layer res4a_branch2a
I0704 20:55:54.613093 22667 net.cpp:444] res4a_branch2a <- res3d_res3d_relu_0_split_1
I0704 20:55:54.613106 22667 net.cpp:418] res4a_branch2a -> res4a_branch2a
I0704 20:55:54.614038 22667 cudnn_conv_layer.cpp:194] Reallocating workspace storage: 86424
I0704 20:55:54.614054 22667 net.cpp:150] Setting up res4a_branch2a
I0704 20:55:54.614063 22667 net.cpp:157] Top shape: 1 256 60 80 (1228800)
I0704 20:55:54.614065 22667 net.cpp:165] Memory required for data: 4389273768
I0704 20:55:54.614074 22667 layer_factory.hpp:77] Creating layer bn4a_branch2a
I0704 20:55:54.614086 22667 net.cpp:100] Creating Layer bn4a_branch2a
I0704 20:55:54.614091 22667 net.cpp:444] bn4a_branch2a <- res4a_branch2a
I0704 20:55:54.614102 22667 net.cpp:405] bn4a_branch2a -> res4a_branch2a (in-place)
I0704 20:55:54.614269 22667 net.cpp:150] Setting up bn4a_branch2a
I0704 20:55:54.614274 22667 net.cpp:157] Top shape: 1 256 60 80 (1228800)
I0704 20:55:54.614276 22667 net.cpp:165] Memory required for data: 4394188968
I0704 20:55:54.614289 22667 layer_factory.hpp:77] Creating layer scale4a_branch2a
I0704 20:55:54.614300 22667 net.cpp:100] Creating Layer scale4a_branch2a
I0704 20:55:54.614305 22667 net.cpp:444] scale4a_branch2a <- res4a_branch2a
I0704 20:55:54.614315 22667 net.cpp:405] scale4a_branch2a -> res4a_branch2a (in-place)
I0704 20:55:54.614358 22667 layer_factory.hpp:77] Creating layer scale4a_branch2a
I0704 20:55:54.614478 22667 net.cpp:150] Setting up scale4a_branch2a
I0704 20:55:54.614485 22667 net.cpp:157] Top shape: 1 256 60 80 (1228800)
I0704 20:55:54.614486 22667 net.cpp:165] Memory required for data: 4399104168
I0704 20:55:54.614495 22667 layer_factory.hpp:77] Creating layer res4a_branch2a_relu
I0704 20:55:54.614503 22667 net.cpp:100] Creating Layer res4a_branch2a_relu
I0704 20:55:54.614509 22667 net.cpp:444] res4a_branch2a_relu <- res4a_branch2a
I0704 20:55:54.614518 22667 net.cpp:405] res4a_branch2a_relu -> res4a_branch2a (in-place)
I0704 20:55:54.614845 22667 net.cpp:150] Setting up res4a_branch2a_relu
I0704 20:55:54.614853 22667 net.cpp:157] Top shape: 1 256 60 80 (1228800)
I0704 20:55:54.614856 22667 net.cpp:165] Memory required for data: 4404019368
I0704 20:55:54.614859 22667 layer_factory.hpp:77] Creating layer res4a_branch2b
I0704 20:55:54.614872 22667 net.cpp:100] Creating Layer res4a_branch2b
I0704 20:55:54.614878 22667 net.cpp:444] res4a_branch2b <- res4a_branch2a
I0704 20:55:54.614892 22667 net.cpp:418] res4a_branch2b -> res4a_branch2b
I0704 20:55:54.616950 22667 cudnn_conv_layer.cpp:194] Reallocating workspace storage: 12582912
I0704 20:55:54.617152 22667 net.cpp:150] Setting up res4a_branch2b
I0704 20:55:54.617164 22667 net.cpp:157] Top shape: 1 256 60 80 (1228800)
I0704 20:55:54.617166 22667 net.cpp:165] Memory required for data: 4408934568
I0704 20:55:54.617177 22667 layer_factory.hpp:77] Creating layer bn4a_branch2b
I0704 20:55:54.617192 22667 net.cpp:100] Creating Layer bn4a_branch2b
I0704 20:55:54.617197 22667 net.cpp:444] bn4a_branch2b <- res4a_branch2b
I0704 20:55:54.617209 22667 net.cpp:405] bn4a_branch2b -> res4a_branch2b (in-place)
I0704 20:55:54.617383 22667 net.cpp:150] Setting up bn4a_branch2b
I0704 20:55:54.617388 22667 net.cpp:157] Top shape: 1 256 60 80 (1228800)
I0704 20:55:54.617390 22667 net.cpp:165] Memory required for data: 4413849768
I0704 20:55:54.617403 22667 layer_factory.hpp:77] Creating layer scale4a_branch2b
I0704 20:55:54.617414 22667 net.cpp:100] Creating Layer scale4a_branch2b
I0704 20:55:54.617419 22667 net.cpp:444] scale4a_branch2b <- res4a_branch2b
I0704 20:55:54.617429 22667 net.cpp:405] scale4a_branch2b -> res4a_branch2b (in-place)
I0704 20:55:54.617473 22667 layer_factory.hpp:77] Creating layer scale4a_branch2b
I0704 20:55:54.617624 22667 net.cpp:150] Setting up scale4a_branch2b
I0704 20:55:54.617630 22667 net.cpp:157] Top shape: 1 256 60 80 (1228800)
I0704 20:55:54.617633 22667 net.cpp:165] Memory required for data: 4418764968
I0704 20:55:54.617642 22667 layer_factory.hpp:77] Creating layer res4a_branch2b_relu
I0704 20:55:54.617651 22667 net.cpp:100] Creating Layer res4a_branch2b_relu
I0704 20:55:54.617655 22667 net.cpp:444] res4a_branch2b_relu <- res4a_branch2b
I0704 20:55:54.617666 22667 net.cpp:405] res4a_branch2b_relu -> res4a_branch2b (in-place)
I0704 20:55:54.617818 22667 net.cpp:150] Setting up res4a_branch2b_relu
I0704 20:55:54.617825 22667 net.cpp:157] Top shape: 1 256 60 80 (1228800)
I0704 20:55:54.617828 22667 net.cpp:165] Memory required for data: 4423680168
I0704 20:55:54.617833 22667 layer_factory.hpp:77] Creating layer res4a_branch2c
I0704 20:55:54.617849 22667 net.cpp:100] Creating Layer res4a_branch2c
I0704 20:55:54.617854 22667 net.cpp:444] res4a_branch2c <- res4a_branch2b
I0704 20:55:54.617867 22667 net.cpp:418] res4a_branch2c -> res4a_branch2c
I0704 20:55:54.619501 22667 cudnn_conv_layer.cpp:194] Reallocating workspace storage: 92952
I0704 20:55:54.619519 22667 net.cpp:150] Setting up res4a_branch2c
I0704 20:55:54.619527 22667 net.cpp:157] Top shape: 1 1024 60 80 (4915200)
I0704 20:55:54.619529 22667 net.cpp:165] Memory required for data: 4443340968
I0704 20:55:54.619539 22667 layer_factory.hpp:77] Creating layer bn4a_branch2c
I0704 20:55:54.619554 22667 net.cpp:100] Creating Layer bn4a_branch2c
I0704 20:55:54.619560 22667 net.cpp:444] bn4a_branch2c <- res4a_branch2c
I0704 20:55:54.619572 22667 net.cpp:405] bn4a_branch2c -> res4a_branch2c (in-place)
I0704 20:55:54.619745 22667 net.cpp:150] Setting up bn4a_branch2c
I0704 20:55:54.619750 22667 net.cpp:157] Top shape: 1 1024 60 80 (4915200)
I0704 20:55:54.619752 22667 net.cpp:165] Memory required for data: 4463001768
I0704 20:55:54.619765 22667 layer_factory.hpp:77] Creating layer scale4a_branch2c
I0704 20:55:54.619791 22667 net.cpp:100] Creating Layer scale4a_branch2c
I0704 20:55:54.619796 22667 net.cpp:444] scale4a_branch2c <- res4a_branch2c
I0704 20:55:54.619807 22667 net.cpp:405] scale4a_branch2c -> res4a_branch2c (in-place)
I0704 20:55:54.619849 22667 layer_factory.hpp:77] Creating layer scale4a_branch2c
I0704 20:55:54.619979 22667 net.cpp:150] Setting up scale4a_branch2c
I0704 20:55:54.619985 22667 net.cpp:157] Top shape: 1 1024 60 80 (4915200)
I0704 20:55:54.619987 22667 net.cpp:165] Memory required for data: 4482662568
I0704 20:55:54.619997 22667 layer_factory.hpp:77] Creating layer res4a
I0704 20:55:54.620007 22667 net.cpp:100] Creating Layer res4a
I0704 20:55:54.620012 22667 net.cpp:444] res4a <- res4a_branch1
I0704 20:55:54.620019 22667 net.cpp:444] res4a <- res4a_branch2c
I0704 20:55:54.620026 22667 net.cpp:418] res4a -> res4a
I0704 20:55:54.620057 22667 net.cpp:150] Setting up res4a
I0704 20:55:54.620065 22667 net.cpp:157] Top shape: 1 1024 60 80 (4915200)
I0704 20:55:54.620067 22667 net.cpp:165] Memory required for data: 4502323368
I0704 20:55:54.620070 22667 layer_factory.hpp:77] Creating layer res4a_relu
I0704 20:55:54.620079 22667 net.cpp:100] Creating Layer res4a_relu
I0704 20:55:54.620084 22667 net.cpp:444] res4a_relu <- res4a
I0704 20:55:54.620091 22667 net.cpp:405] res4a_relu -> res4a (in-place)
I0704 20:55:54.620224 22667 net.cpp:150] Setting up res4a_relu
I0704 20:55:54.620230 22667 net.cpp:157] Top shape: 1 1024 60 80 (4915200)
I0704 20:55:54.620234 22667 net.cpp:165] Memory required for data: 4521984168
I0704 20:55:54.620236 22667 layer_factory.hpp:77] Creating layer res4a_res4a_relu_0_split
I0704 20:55:54.620246 22667 net.cpp:100] Creating Layer res4a_res4a_relu_0_split
I0704 20:55:54.620250 22667 net.cpp:444] res4a_res4a_relu_0_split <- res4a
I0704 20:55:54.620260 22667 net.cpp:418] res4a_res4a_relu_0_split -> res4a_res4a_relu_0_split_0
I0704 20:55:54.620273 22667 net.cpp:418] res4a_res4a_relu_0_split -> res4a_res4a_relu_0_split_1
I0704 20:55:54.620311 22667 net.cpp:150] Setting up res4a_res4a_relu_0_split
I0704 20:55:54.620317 22667 net.cpp:157] Top shape: 1 1024 60 80 (4915200)
I0704 20:55:54.620321 22667 net.cpp:157] Top shape: 1 1024 60 80 (4915200)
I0704 20:55:54.620322 22667 net.cpp:165] Memory required for data: 4561305768
I0704 20:55:54.620326 22667 layer_factory.hpp:77] Creating layer res4b_branch2a
I0704 20:55:54.620338 22667 net.cpp:100] Creating Layer res4b_branch2a
I0704 20:55:54.620342 22667 net.cpp:444] res4b_branch2a <- res4a_res4a_relu_0_split_0
I0704 20:55:54.620355 22667 net.cpp:418] res4b_branch2a -> res4b_branch2a
I0704 20:55:54.622416 22667 cudnn_conv_layer.cpp:194] Reallocating workspace storage: 92952
I0704 20:55:54.622440 22667 net.cpp:150] Setting up res4b_branch2a
I0704 20:55:54.622448 22667 net.cpp:157] Top shape: 1 256 60 80 (1228800)
I0704 20:55:54.622452 22667 net.cpp:165] Memory required for data: 4566220968
I0704 20:55:54.622462 22667 layer_factory.hpp:77] Creating layer bn4b_branch2a
I0704 20:55:54.622479 22667 net.cpp:100] Creating Layer bn4b_branch2a
I0704 20:55:54.622485 22667 net.cpp:444] bn4b_branch2a <- res4b_branch2a
I0704 20:55:54.622498 22667 net.cpp:405] bn4b_branch2a -> res4b_branch2a (in-place)
I0704 20:55:54.622671 22667 net.cpp:150] Setting up bn4b_branch2a
I0704 20:55:54.622678 22667 net.cpp:157] Top shape: 1 256 60 80 (1228800)
I0704 20:55:54.622679 22667 net.cpp:165] Memory required for data: 4571136168
I0704 20:55:54.622694 22667 layer_factory.hpp:77] Creating layer scale4b_branch2a
I0704 20:55:54.622705 22667 net.cpp:100] Creating Layer scale4b_branch2a
I0704 20:55:54.622710 22667 net.cpp:444] scale4b_branch2a <- res4b_branch2a
I0704 20:55:54.622721 22667 net.cpp:405] scale4b_branch2a -> res4b_branch2a (in-place)
I0704 20:55:54.622766 22667 layer_factory.hpp:77] Creating layer scale4b_branch2a
I0704 20:55:54.622890 22667 net.cpp:150] Setting up scale4b_branch2a
I0704 20:55:54.622896 22667 net.cpp:157] Top shape: 1 256 60 80 (1228800)
I0704 20:55:54.622900 22667 net.cpp:165] Memory required for data: 4576051368
I0704 20:55:54.622908 22667 layer_factory.hpp:77] Creating layer res4b_branch2a_relu
I0704 20:55:54.622916 22667 net.cpp:100] Creating Layer res4b_branch2a_relu
I0704 20:55:54.622920 22667 net.cpp:444] res4b_branch2a_relu <- res4b_branch2a
I0704 20:55:54.622931 22667 net.cpp:405] res4b_branch2a_relu -> res4b_branch2a (in-place)
I0704 20:55:54.623335 22667 net.cpp:150] Setting up res4b_branch2a_relu
I0704 20:55:54.623344 22667 net.cpp:157] Top shape: 1 256 60 80 (1228800)
I0704 20:55:54.623347 22667 net.cpp:165] Memory required for data: 4580966568
I0704 20:55:54.623351 22667 layer_factory.hpp:77] Creating layer res4b_branch2b
I0704 20:55:54.623365 22667 net.cpp:100] Creating Layer res4b_branch2b
I0704 20:55:54.623371 22667 net.cpp:444] res4b_branch2b <- res4b_branch2a
I0704 20:55:54.623384 22667 net.cpp:418] res4b_branch2b -> res4b_branch2b
I0704 20:55:54.625663 22667 cudnn_conv_layer.cpp:194] Reallocating workspace storage: 12582912
I0704 20:55:54.625887 22667 net.cpp:150] Setting up res4b_branch2b
I0704 20:55:54.625902 22667 net.cpp:157] Top shape: 1 256 60 80 (1228800)
I0704 20:55:54.625905 22667 net.cpp:165] Memory required for data: 4585881768
I0704 20:55:54.625922 22667 layer_factory.hpp:77] Creating layer bn4b_branch2b
I0704 20:55:54.625946 22667 net.cpp:100] Creating Layer bn4b_branch2b
I0704 20:55:54.625954 22667 net.cpp:444] bn4b_branch2b <- res4b_branch2b
I0704 20:55:54.625970 22667 net.cpp:405] bn4b_branch2b -> res4b_branch2b (in-place)
I0704 20:55:54.626153 22667 net.cpp:150] Setting up bn4b_branch2b
I0704 20:55:54.626159 22667 net.cpp:157] Top shape: 1 256 60 80 (1228800)
I0704 20:55:54.626161 22667 net.cpp:165] Memory required for data: 4590796968
I0704 20:55:54.626174 22667 layer_factory.hpp:77] Creating layer scale4b_branch2b
I0704 20:55:54.626188 22667 net.cpp:100] Creating Layer scale4b_branch2b
I0704 20:55:54.626193 22667 net.cpp:444] scale4b_branch2b <- res4b_branch2b
I0704 20:55:54.626201 22667 net.cpp:405] scale4b_branch2b -> res4b_branch2b (in-place)
I0704 20:55:54.626247 22667 layer_factory.hpp:77] Creating layer scale4b_branch2b
I0704 20:55:54.626374 22667 net.cpp:150] Setting up scale4b_branch2b
I0704 20:55:54.626380 22667 net.cpp:157] Top shape: 1 256 60 80 (1228800)
I0704 20:55:54.626381 22667 net.cpp:165] Memory required for data: 4595712168
I0704 20:55:54.626389 22667 layer_factory.hpp:77] Creating layer res4b_branch2b_relu
I0704 20:55:54.626399 22667 net.cpp:100] Creating Layer res4b_branch2b_relu
I0704 20:55:54.626404 22667 net.cpp:444] res4b_branch2b_relu <- res4b_branch2b
I0704 20:55:54.626411 22667 net.cpp:405] res4b_branch2b_relu -> res4b_branch2b (in-place)
I0704 20:55:54.626552 22667 net.cpp:150] Setting up res4b_branch2b_relu
I0704 20:55:54.626559 22667 net.cpp:157] Top shape: 1 256 60 80 (1228800)
I0704 20:55:54.626559 22667 net.cpp:165] Memory required for data: 4600627368
I0704 20:55:54.626564 22667 layer_factory.hpp:77] Creating layer res4b_branch2c
I0704 20:55:54.626579 22667 net.cpp:100] Creating Layer res4b_branch2c
I0704 20:55:54.626583 22667 net.cpp:444] res4b_branch2c <- res4b_branch2b
I0704 20:55:54.626595 22667 net.cpp:418] res4b_branch2c -> res4b_branch2c
I0704 20:55:54.628242 22667 cudnn_conv_layer.cpp:194] Reallocating workspace storage: 92952
I0704 20:55:54.628263 22667 net.cpp:150] Setting up res4b_branch2c
I0704 20:55:54.628271 22667 net.cpp:157] Top shape: 1 1024 60 80 (4915200)
I0704 20:55:54.628273 22667 net.cpp:165] Memory required for data: 4620288168
I0704 20:55:54.628283 22667 layer_factory.hpp:77] Creating layer bn4b_branch2c
I0704 20:55:54.628295 22667 net.cpp:100] Creating Layer bn4b_branch2c
I0704 20:55:54.628301 22667 net.cpp:444] bn4b_branch2c <- res4b_branch2c
I0704 20:55:54.628312 22667 net.cpp:405] bn4b_branch2c -> res4b_branch2c (in-place)
I0704 20:55:54.628486 22667 net.cpp:150] Setting up bn4b_branch2c
I0704 20:55:54.628491 22667 net.cpp:157] Top shape: 1 1024 60 80 (4915200)
I0704 20:55:54.628494 22667 net.cpp:165] Memory required for data: 4639948968
I0704 20:55:54.628506 22667 layer_factory.hpp:77] Creating layer scale4b_branch2c
I0704 20:55:54.628518 22667 net.cpp:100] Creating Layer scale4b_branch2c
I0704 20:55:54.628523 22667 net.cpp:444] scale4b_branch2c <- res4b_branch2c
I0704 20:55:54.628533 22667 net.cpp:405] scale4b_branch2c -> res4b_branch2c (in-place)
I0704 20:55:54.628577 22667 layer_factory.hpp:77] Creating layer scale4b_branch2c
I0704 20:55:54.628708 22667 net.cpp:150] Setting up scale4b_branch2c
I0704 20:55:54.628715 22667 net.cpp:157] Top shape: 1 1024 60 80 (4915200)
I0704 20:55:54.628716 22667 net.cpp:165] Memory required for data: 4659609768
I0704 20:55:54.628726 22667 layer_factory.hpp:77] Creating layer res4b
I0704 20:55:54.628734 22667 net.cpp:100] Creating Layer res4b
I0704 20:55:54.628739 22667 net.cpp:444] res4b <- res4a_res4a_relu_0_split_1
I0704 20:55:54.628746 22667 net.cpp:444] res4b <- res4b_branch2c
I0704 20:55:54.628756 22667 net.cpp:418] res4b -> res4b
I0704 20:55:54.628787 22667 net.cpp:150] Setting up res4b
I0704 20:55:54.628793 22667 net.cpp:157] Top shape: 1 1024 60 80 (4915200)
I0704 20:55:54.628795 22667 net.cpp:165] Memory required for data: 4679270568
I0704 20:55:54.628798 22667 layer_factory.hpp:77] Creating layer res4b_relu
I0704 20:55:54.628806 22667 net.cpp:100] Creating Layer res4b_relu
I0704 20:55:54.628810 22667 net.cpp:444] res4b_relu <- res4b
I0704 20:55:54.628819 22667 net.cpp:405] res4b_relu -> res4b (in-place)
I0704 20:55:54.628950 22667 net.cpp:150] Setting up res4b_relu
I0704 20:55:54.628957 22667 net.cpp:157] Top shape: 1 1024 60 80 (4915200)
I0704 20:55:54.628957 22667 net.cpp:165] Memory required for data: 4698931368
I0704 20:55:54.628962 22667 layer_factory.hpp:77] Creating layer res4b_res4b_relu_0_split
I0704 20:55:54.628969 22667 net.cpp:100] Creating Layer res4b_res4b_relu_0_split
I0704 20:55:54.628973 22667 net.cpp:444] res4b_res4b_relu_0_split <- res4b
I0704 20:55:54.628984 22667 net.cpp:418] res4b_res4b_relu_0_split -> res4b_res4b_relu_0_split_0
I0704 20:55:54.628996 22667 net.cpp:418] res4b_res4b_relu_0_split -> res4b_res4b_relu_0_split_1
I0704 20:55:54.629034 22667 net.cpp:150] Setting up res4b_res4b_relu_0_split
I0704 20:55:54.629040 22667 net.cpp:157] Top shape: 1 1024 60 80 (4915200)
I0704 20:55:54.629043 22667 net.cpp:157] Top shape: 1 1024 60 80 (4915200)
I0704 20:55:54.629045 22667 net.cpp:165] Memory required for data: 4738252968
I0704 20:55:54.629048 22667 layer_factory.hpp:77] Creating layer res4c_branch2a
I0704 20:55:54.629060 22667 net.cpp:100] Creating Layer res4c_branch2a
I0704 20:55:54.629065 22667 net.cpp:444] res4c_branch2a <- res4b_res4b_relu_0_split_0
I0704 20:55:54.629076 22667 net.cpp:418] res4c_branch2a -> res4c_branch2a
I0704 20:55:54.630203 22667 cudnn_conv_layer.cpp:194] Reallocating workspace storage: 92952
I0704 20:55:54.630223 22667 net.cpp:150] Setting up res4c_branch2a
I0704 20:55:54.630229 22667 net.cpp:157] Top shape: 1 256 60 80 (1228800)
I0704 20:55:54.630231 22667 net.cpp:165] Memory required for data: 4743168168
I0704 20:55:54.630240 22667 layer_factory.hpp:77] Creating layer bn4c_branch2a
I0704 20:55:54.630254 22667 net.cpp:100] Creating Layer bn4c_branch2a
I0704 20:55:54.630259 22667 net.cpp:444] bn4c_branch2a <- res4c_branch2a
I0704 20:55:54.630270 22667 net.cpp:405] bn4c_branch2a -> res4c_branch2a (in-place)
I0704 20:55:54.630441 22667 net.cpp:150] Setting up bn4c_branch2a
I0704 20:55:54.630446 22667 net.cpp:157] Top shape: 1 256 60 80 (1228800)
I0704 20:55:54.630448 22667 net.cpp:165] Memory required for data: 4748083368
I0704 20:55:54.630462 22667 layer_factory.hpp:77] Creating layer scale4c_branch2a
I0704 20:55:54.630473 22667 net.cpp:100] Creating Layer scale4c_branch2a
I0704 20:55:54.630478 22667 net.cpp:444] scale4c_branch2a <- res4c_branch2a
I0704 20:55:54.630488 22667 net.cpp:405] scale4c_branch2a -> res4c_branch2a (in-place)
I0704 20:55:54.630534 22667 layer_factory.hpp:77] Creating layer scale4c_branch2a
I0704 20:55:54.630661 22667 net.cpp:150] Setting up scale4c_branch2a
I0704 20:55:54.630666 22667 net.cpp:157] Top shape: 1 256 60 80 (1228800)
I0704 20:55:54.630669 22667 net.cpp:165] Memory required for data: 4752998568
I0704 20:55:54.630677 22667 layer_factory.hpp:77] Creating layer res4c_branch2a_relu
I0704 20:55:54.630686 22667 net.cpp:100] Creating Layer res4c_branch2a_relu
I0704 20:55:54.630690 22667 net.cpp:444] res4c_branch2a_relu <- res4c_branch2a
I0704 20:55:54.630700 22667 net.cpp:405] res4c_branch2a_relu -> res4c_branch2a (in-place)
I0704 20:55:54.630833 22667 net.cpp:150] Setting up res4c_branch2a_relu
I0704 20:55:54.630839 22667 net.cpp:157] Top shape: 1 256 60 80 (1228800)
I0704 20:55:54.630841 22667 net.cpp:165] Memory required for data: 4757913768
I0704 20:55:54.630846 22667 layer_factory.hpp:77] Creating layer res4c_branch2b
I0704 20:55:54.630857 22667 net.cpp:100] Creating Layer res4c_branch2b
I0704 20:55:54.630862 22667 net.cpp:444] res4c_branch2b <- res4c_branch2a
I0704 20:55:54.630875 22667 net.cpp:418] res4c_branch2b -> res4c_branch2b
I0704 20:55:54.633149 22667 cudnn_conv_layer.cpp:194] Reallocating workspace storage: 12582912
I0704 20:55:54.633358 22667 net.cpp:150] Setting up res4c_branch2b
I0704 20:55:54.633368 22667 net.cpp:157] Top shape: 1 256 60 80 (1228800)
I0704 20:55:54.633370 22667 net.cpp:165] Memory required for data: 4762828968
I0704 20:55:54.633381 22667 layer_factory.hpp:77] Creating layer bn4c_branch2b
I0704 20:55:54.633394 22667 net.cpp:100] Creating Layer bn4c_branch2b
I0704 20:55:54.633399 22667 net.cpp:444] bn4c_branch2b <- res4c_branch2b
I0704 20:55:54.633409 22667 net.cpp:405] bn4c_branch2b -> res4c_branch2b (in-place)
I0704 20:55:54.633591 22667 net.cpp:150] Setting up bn4c_branch2b
I0704 20:55:54.633599 22667 net.cpp:157] Top shape: 1 256 60 80 (1228800)
I0704 20:55:54.633599 22667 net.cpp:165] Memory required for data: 4767744168
I0704 20:55:54.633613 22667 layer_factory.hpp:77] Creating layer scale4c_branch2b
I0704 20:55:54.633625 22667 net.cpp:100] Creating Layer scale4c_branch2b
I0704 20:55:54.633628 22667 net.cpp:444] scale4c_branch2b <- res4c_branch2b
I0704 20:55:54.633638 22667 net.cpp:405] scale4c_branch2b -> res4c_branch2b (in-place)
I0704 20:55:54.633682 22667 layer_factory.hpp:77] Creating layer scale4c_branch2b
I0704 20:55:54.633807 22667 net.cpp:150] Setting up scale4c_branch2b
I0704 20:55:54.633814 22667 net.cpp:157] Top shape: 1 256 60 80 (1228800)
I0704 20:55:54.633816 22667 net.cpp:165] Memory required for data: 4772659368
I0704 20:55:54.633824 22667 layer_factory.hpp:77] Creating layer res4c_branch2b_relu
I0704 20:55:54.633832 22667 net.cpp:100] Creating Layer res4c_branch2b_relu
I0704 20:55:54.633836 22667 net.cpp:444] res4c_branch2b_relu <- res4c_branch2b
I0704 20:55:54.633844 22667 net.cpp:405] res4c_branch2b_relu -> res4c_branch2b (in-place)
I0704 20:55:54.634187 22667 net.cpp:150] Setting up res4c_branch2b_relu
I0704 20:55:54.634196 22667 net.cpp:157] Top shape: 1 256 60 80 (1228800)
I0704 20:55:54.634197 22667 net.cpp:165] Memory required for data: 4777574568
I0704 20:55:54.634202 22667 layer_factory.hpp:77] Creating layer res4c_branch2c
I0704 20:55:54.634217 22667 net.cpp:100] Creating Layer res4c_branch2c
I0704 20:55:54.634222 22667 net.cpp:444] res4c_branch2c <- res4c_branch2b
I0704 20:55:54.634233 22667 net.cpp:418] res4c_branch2c -> res4c_branch2c
I0704 20:55:54.635869 22667 cudnn_conv_layer.cpp:194] Reallocating workspace storage: 92952
I0704 20:55:54.635890 22667 net.cpp:150] Setting up res4c_branch2c
I0704 20:55:54.635896 22667 net.cpp:157] Top shape: 1 1024 60 80 (4915200)
I0704 20:55:54.635898 22667 net.cpp:165] Memory required for data: 4797235368
I0704 20:55:54.635907 22667 layer_factory.hpp:77] Creating layer bn4c_branch2c
I0704 20:55:54.635920 22667 net.cpp:100] Creating Layer bn4c_branch2c
I0704 20:55:54.635926 22667 net.cpp:444] bn4c_branch2c <- res4c_branch2c
I0704 20:55:54.635936 22667 net.cpp:405] bn4c_branch2c -> res4c_branch2c (in-place)
I0704 20:55:54.636117 22667 net.cpp:150] Setting up bn4c_branch2c
I0704 20:55:54.636122 22667 net.cpp:157] Top shape: 1 1024 60 80 (4915200)
I0704 20:55:54.636126 22667 net.cpp:165] Memory required for data: 4816896168
I0704 20:55:54.636138 22667 layer_factory.hpp:77] Creating layer scale4c_branch2c
I0704 20:55:54.636149 22667 net.cpp:100] Creating Layer scale4c_branch2c
I0704 20:55:54.636153 22667 net.cpp:444] scale4c_branch2c <- res4c_branch2c
I0704 20:55:54.636162 22667 net.cpp:405] scale4c_branch2c -> res4c_branch2c (in-place)
I0704 20:55:54.636206 22667 layer_factory.hpp:77] Creating layer scale4c_branch2c
I0704 20:55:54.636338 22667 net.cpp:150] Setting up scale4c_branch2c
I0704 20:55:54.636344 22667 net.cpp:157] Top shape: 1 1024 60 80 (4915200)
I0704 20:55:54.636345 22667 net.cpp:165] Memory required for data: 4836556968
I0704 20:55:54.636354 22667 layer_factory.hpp:77] Creating layer res4c
I0704 20:55:54.636364 22667 net.cpp:100] Creating Layer res4c
I0704 20:55:54.636368 22667 net.cpp:444] res4c <- res4b_res4b_relu_0_split_1
I0704 20:55:54.636376 22667 net.cpp:444] res4c <- res4c_branch2c
I0704 20:55:54.636384 22667 net.cpp:418] res4c -> res4c
I0704 20:55:54.636413 22667 net.cpp:150] Setting up res4c
I0704 20:55:54.636420 22667 net.cpp:157] Top shape: 1 1024 60 80 (4915200)
I0704 20:55:54.636422 22667 net.cpp:165] Memory required for data: 4856217768
I0704 20:55:54.636426 22667 layer_factory.hpp:77] Creating layer res4c_relu
I0704 20:55:54.636433 22667 net.cpp:100] Creating Layer res4c_relu
I0704 20:55:54.636437 22667 net.cpp:444] res4c_relu <- res4c
I0704 20:55:54.636446 22667 net.cpp:405] res4c_relu -> res4c (in-place)
I0704 20:55:54.636575 22667 net.cpp:150] Setting up res4c_relu
I0704 20:55:54.636581 22667 net.cpp:157] Top shape: 1 1024 60 80 (4915200)
I0704 20:55:54.636584 22667 net.cpp:165] Memory required for data: 4875878568
I0704 20:55:54.636587 22667 layer_factory.hpp:77] Creating layer res4c_res4c_relu_0_split
I0704 20:55:54.636597 22667 net.cpp:100] Creating Layer res4c_res4c_relu_0_split
I0704 20:55:54.636601 22667 net.cpp:444] res4c_res4c_relu_0_split <- res4c
I0704 20:55:54.636611 22667 net.cpp:418] res4c_res4c_relu_0_split -> res4c_res4c_relu_0_split_0
I0704 20:55:54.636623 22667 net.cpp:418] res4c_res4c_relu_0_split -> res4c_res4c_relu_0_split_1
I0704 20:55:54.636662 22667 net.cpp:150] Setting up res4c_res4c_relu_0_split
I0704 20:55:54.636668 22667 net.cpp:157] Top shape: 1 1024 60 80 (4915200)
I0704 20:55:54.636672 22667 net.cpp:157] Top shape: 1 1024 60 80 (4915200)
I0704 20:55:54.636673 22667 net.cpp:165] Memory required for data: 4915200168
I0704 20:55:54.636677 22667 layer_factory.hpp:77] Creating layer res4d_branch2a
I0704 20:55:54.636688 22667 net.cpp:100] Creating Layer res4d_branch2a
I0704 20:55:54.636693 22667 net.cpp:444] res4d_branch2a <- res4c_res4c_relu_0_split_0
I0704 20:55:54.636705 22667 net.cpp:418] res4d_branch2a -> res4d_branch2a
I0704 20:55:54.637814 22667 cudnn_conv_layer.cpp:194] Reallocating workspace storage: 92952
I0704 20:55:54.637833 22667 net.cpp:150] Setting up res4d_branch2a
I0704 20:55:54.637840 22667 net.cpp:157] Top shape: 1 256 60 80 (1228800)
I0704 20:55:54.637842 22667 net.cpp:165] Memory required for data: 4920115368
I0704 20:55:54.637851 22667 layer_factory.hpp:77] Creating layer bn4d_branch2a
I0704 20:55:54.637862 22667 net.cpp:100] Creating Layer bn4d_branch2a
I0704 20:55:54.637867 22667 net.cpp:444] bn4d_branch2a <- res4d_branch2a
I0704 20:55:54.637878 22667 net.cpp:405] bn4d_branch2a -> res4d_branch2a (in-place)
I0704 20:55:54.638054 22667 net.cpp:150] Setting up bn4d_branch2a
I0704 20:55:54.638061 22667 net.cpp:157] Top shape: 1 256 60 80 (1228800)
I0704 20:55:54.638062 22667 net.cpp:165] Memory required for data: 4925030568
I0704 20:55:54.638075 22667 layer_factory.hpp:77] Creating layer scale4d_branch2a
I0704 20:55:54.638087 22667 net.cpp:100] Creating Layer scale4d_branch2a
I0704 20:55:54.638090 22667 net.cpp:444] scale4d_branch2a <- res4d_branch2a
I0704 20:55:54.638100 22667 net.cpp:405] scale4d_branch2a -> res4d_branch2a (in-place)
I0704 20:55:54.638146 22667 layer_factory.hpp:77] Creating layer scale4d_branch2a
I0704 20:55:54.638274 22667 net.cpp:150] Setting up scale4d_branch2a
I0704 20:55:54.638280 22667 net.cpp:157] Top shape: 1 256 60 80 (1228800)
I0704 20:55:54.638283 22667 net.cpp:165] Memory required for data: 4929945768
I0704 20:55:54.638291 22667 layer_factory.hpp:77] Creating layer res4d_branch2a_relu
I0704 20:55:54.638300 22667 net.cpp:100] Creating Layer res4d_branch2a_relu
I0704 20:55:54.638305 22667 net.cpp:444] res4d_branch2a_relu <- res4d_branch2a
I0704 20:55:54.638314 22667 net.cpp:405] res4d_branch2a_relu -> res4d_branch2a (in-place)
I0704 20:55:54.638445 22667 net.cpp:150] Setting up res4d_branch2a_relu
I0704 20:55:54.638451 22667 net.cpp:157] Top shape: 1 256 60 80 (1228800)
I0704 20:55:54.638453 22667 net.cpp:165] Memory required for data: 4934860968
I0704 20:55:54.638458 22667 layer_factory.hpp:77] Creating layer res4d_branch2b
I0704 20:55:54.638468 22667 net.cpp:100] Creating Layer res4d_branch2b
I0704 20:55:54.638473 22667 net.cpp:444] res4d_branch2b <- res4d_branch2a
I0704 20:55:54.638485 22667 net.cpp:418] res4d_branch2b -> res4d_branch2b
I0704 20:55:54.640581 22667 cudnn_conv_layer.cpp:194] Reallocating workspace storage: 12582912
I0704 20:55:54.640794 22667 net.cpp:150] Setting up res4d_branch2b
I0704 20:55:54.640805 22667 net.cpp:157] Top shape: 1 256 60 80 (1228800)
I0704 20:55:54.640808 22667 net.cpp:165] Memory required for data: 4939776168
I0704 20:55:54.640820 22667 layer_factory.hpp:77] Creating layer bn4d_branch2b
I0704 20:55:54.640832 22667 net.cpp:100] Creating Layer bn4d_branch2b
I0704 20:55:54.640838 22667 net.cpp:444] bn4d_branch2b <- res4d_branch2b
I0704 20:55:54.640849 22667 net.cpp:405] bn4d_branch2b -> res4d_branch2b (in-place)
I0704 20:55:54.641031 22667 net.cpp:150] Setting up bn4d_branch2b
I0704 20:55:54.641036 22667 net.cpp:157] Top shape: 1 256 60 80 (1228800)
I0704 20:55:54.641037 22667 net.cpp:165] Memory required for data: 4944691368
I0704 20:55:54.641050 22667 layer_factory.hpp:77] Creating layer scale4d_branch2b
I0704 20:55:54.641062 22667 net.cpp:100] Creating Layer scale4d_branch2b
I0704 20:55:54.641067 22667 net.cpp:444] scale4d_branch2b <- res4d_branch2b
I0704 20:55:54.641075 22667 net.cpp:405] scale4d_branch2b -> res4d_branch2b (in-place)
I0704 20:55:54.641122 22667 layer_factory.hpp:77] Creating layer scale4d_branch2b
I0704 20:55:54.641252 22667 net.cpp:150] Setting up scale4d_branch2b
I0704 20:55:54.641258 22667 net.cpp:157] Top shape: 1 256 60 80 (1228800)
I0704 20:55:54.641260 22667 net.cpp:165] Memory required for data: 4949606568
I0704 20:55:54.641269 22667 layer_factory.hpp:77] Creating layer res4d_branch2b_relu
I0704 20:55:54.641278 22667 net.cpp:100] Creating Layer res4d_branch2b_relu
I0704 20:55:54.641281 22667 net.cpp:444] res4d_branch2b_relu <- res4d_branch2b
I0704 20:55:54.641290 22667 net.cpp:405] res4d_branch2b_relu -> res4d_branch2b (in-place)
I0704 20:55:54.641643 22667 net.cpp:150] Setting up res4d_branch2b_relu
I0704 20:55:54.641650 22667 net.cpp:157] Top shape: 1 256 60 80 (1228800)
I0704 20:55:54.641652 22667 net.cpp:165] Memory required for data: 4954521768
I0704 20:55:54.641656 22667 layer_factory.hpp:77] Creating layer res4d_branch2c
I0704 20:55:54.641669 22667 net.cpp:100] Creating Layer res4d_branch2c
I0704 20:55:54.641674 22667 net.cpp:444] res4d_branch2c <- res4d_branch2b
I0704 20:55:54.641687 22667 net.cpp:418] res4d_branch2c -> res4d_branch2c
I0704 20:55:54.643337 22667 cudnn_conv_layer.cpp:194] Reallocating workspace storage: 92952
I0704 20:55:54.643358 22667 net.cpp:150] Setting up res4d_branch2c
I0704 20:55:54.643366 22667 net.cpp:157] Top shape: 1 1024 60 80 (4915200)
I0704 20:55:54.643368 22667 net.cpp:165] Memory required for data: 4974182568
I0704 20:55:54.643378 22667 layer_factory.hpp:77] Creating layer bn4d_branch2c
I0704 20:55:54.643391 22667 net.cpp:100] Creating Layer bn4d_branch2c
I0704 20:55:54.643396 22667 net.cpp:444] bn4d_branch2c <- res4d_branch2c
I0704 20:55:54.643409 22667 net.cpp:405] bn4d_branch2c -> res4d_branch2c (in-place)
I0704 20:55:54.643591 22667 net.cpp:150] Setting up bn4d_branch2c
I0704 20:55:54.643596 22667 net.cpp:157] Top shape: 1 1024 60 80 (4915200)
I0704 20:55:54.643599 22667 net.cpp:165] Memory required for data: 4993843368
I0704 20:55:54.643612 22667 layer_factory.hpp:77] Creating layer scale4d_branch2c
I0704 20:55:54.643625 22667 net.cpp:100] Creating Layer scale4d_branch2c
I0704 20:55:54.643628 22667 net.cpp:444] scale4d_branch2c <- res4d_branch2c
I0704 20:55:54.643638 22667 net.cpp:405] scale4d_branch2c -> res4d_branch2c (in-place)
I0704 20:55:54.643682 22667 layer_factory.hpp:77] Creating layer scale4d_branch2c
I0704 20:55:54.643813 22667 net.cpp:150] Setting up scale4d_branch2c
I0704 20:55:54.643820 22667 net.cpp:157] Top shape: 1 1024 60 80 (4915200)
I0704 20:55:54.643821 22667 net.cpp:165] Memory required for data: 5013504168
I0704 20:55:54.643829 22667 layer_factory.hpp:77] Creating layer res4d
I0704 20:55:54.643839 22667 net.cpp:100] Creating Layer res4d
I0704 20:55:54.643843 22667 net.cpp:444] res4d <- res4c_res4c_relu_0_split_1
I0704 20:55:54.643851 22667 net.cpp:444] res4d <- res4d_branch2c
I0704 20:55:54.643859 22667 net.cpp:418] res4d -> res4d
I0704 20:55:54.643889 22667 net.cpp:150] Setting up res4d
I0704 20:55:54.643895 22667 net.cpp:157] Top shape: 1 1024 60 80 (4915200)
I0704 20:55:54.643898 22667 net.cpp:165] Memory required for data: 5033164968
I0704 20:55:54.643901 22667 layer_factory.hpp:77] Creating layer res4d_relu
I0704 20:55:54.643909 22667 net.cpp:100] Creating Layer res4d_relu
I0704 20:55:54.643914 22667 net.cpp:444] res4d_relu <- res4d
I0704 20:55:54.643923 22667 net.cpp:405] res4d_relu -> res4d (in-place)
I0704 20:55:54.644052 22667 net.cpp:150] Setting up res4d_relu
I0704 20:55:54.644058 22667 net.cpp:157] Top shape: 1 1024 60 80 (4915200)
I0704 20:55:54.644060 22667 net.cpp:165] Memory required for data: 5052825768
I0704 20:55:54.644063 22667 layer_factory.hpp:77] Creating layer res4d_res4d_relu_0_split
I0704 20:55:54.644073 22667 net.cpp:100] Creating Layer res4d_res4d_relu_0_split
I0704 20:55:54.644078 22667 net.cpp:444] res4d_res4d_relu_0_split <- res4d
I0704 20:55:54.644088 22667 net.cpp:418] res4d_res4d_relu_0_split -> res4d_res4d_relu_0_split_0
I0704 20:55:54.644100 22667 net.cpp:418] res4d_res4d_relu_0_split -> res4d_res4d_relu_0_split_1
I0704 20:55:54.644140 22667 net.cpp:150] Setting up res4d_res4d_relu_0_split
I0704 20:55:54.644146 22667 net.cpp:157] Top shape: 1 1024 60 80 (4915200)
I0704 20:55:54.644150 22667 net.cpp:157] Top shape: 1 1024 60 80 (4915200)
I0704 20:55:54.644151 22667 net.cpp:165] Memory required for data: 5092147368
I0704 20:55:54.644155 22667 layer_factory.hpp:77] Creating layer res4e_branch2a
I0704 20:55:54.644166 22667 net.cpp:100] Creating Layer res4e_branch2a
I0704 20:55:54.644170 22667 net.cpp:444] res4e_branch2a <- res4d_res4d_relu_0_split_0
I0704 20:55:54.644182 22667 net.cpp:418] res4e_branch2a -> res4e_branch2a
I0704 20:55:54.645290 22667 cudnn_conv_layer.cpp:194] Reallocating workspace storage: 92952
I0704 20:55:54.645309 22667 net.cpp:150] Setting up res4e_branch2a
I0704 20:55:54.645315 22667 net.cpp:157] Top shape: 1 256 60 80 (1228800)
I0704 20:55:54.645318 22667 net.cpp:165] Memory required for data: 5097062568
I0704 20:55:54.645326 22667 layer_factory.hpp:77] Creating layer bn4e_branch2a
I0704 20:55:54.645339 22667 net.cpp:100] Creating Layer bn4e_branch2a
I0704 20:55:54.645344 22667 net.cpp:444] bn4e_branch2a <- res4e_branch2a
I0704 20:55:54.645356 22667 net.cpp:405] bn4e_branch2a -> res4e_branch2a (in-place)
I0704 20:55:54.645534 22667 net.cpp:150] Setting up bn4e_branch2a
I0704 20:55:54.645540 22667 net.cpp:157] Top shape: 1 256 60 80 (1228800)
I0704 20:55:54.645542 22667 net.cpp:165] Memory required for data: 5101977768
I0704 20:55:54.645565 22667 layer_factory.hpp:77] Creating layer scale4e_branch2a
I0704 20:55:54.645579 22667 net.cpp:100] Creating Layer scale4e_branch2a
I0704 20:55:54.645586 22667 net.cpp:444] scale4e_branch2a <- res4e_branch2a
I0704 20:55:54.645599 22667 net.cpp:405] scale4e_branch2a -> res4e_branch2a (in-place)
I0704 20:55:54.645653 22667 layer_factory.hpp:77] Creating layer scale4e_branch2a
I0704 20:55:54.645783 22667 net.cpp:150] Setting up scale4e_branch2a
I0704 20:55:54.645790 22667 net.cpp:157] Top shape: 1 256 60 80 (1228800)
I0704 20:55:54.645792 22667 net.cpp:165] Memory required for data: 5106892968
I0704 20:55:54.645800 22667 layer_factory.hpp:77] Creating layer res4e_branch2a_relu
I0704 20:55:54.645809 22667 net.cpp:100] Creating Layer res4e_branch2a_relu
I0704 20:55:54.645814 22667 net.cpp:444] res4e_branch2a_relu <- res4e_branch2a
I0704 20:55:54.645824 22667 net.cpp:405] res4e_branch2a_relu -> res4e_branch2a (in-place)
I0704 20:55:54.645954 22667 net.cpp:150] Setting up res4e_branch2a_relu
I0704 20:55:54.645961 22667 net.cpp:157] Top shape: 1 256 60 80 (1228800)
I0704 20:55:54.645962 22667 net.cpp:165] Memory required for data: 5111808168
I0704 20:55:54.645967 22667 layer_factory.hpp:77] Creating layer res4e_branch2b
I0704 20:55:54.645978 22667 net.cpp:100] Creating Layer res4e_branch2b
I0704 20:55:54.645983 22667 net.cpp:444] res4e_branch2b <- res4e_branch2a
I0704 20:55:54.645994 22667 net.cpp:418] res4e_branch2b -> res4e_branch2b
I0704 20:55:54.648113 22667 cudnn_conv_layer.cpp:194] Reallocating workspace storage: 12582912
I0704 20:55:54.648334 22667 net.cpp:150] Setting up res4e_branch2b
I0704 20:55:54.648345 22667 net.cpp:157] Top shape: 1 256 60 80 (1228800)
I0704 20:55:54.648349 22667 net.cpp:165] Memory required for data: 5116723368
I0704 20:55:54.648358 22667 layer_factory.hpp:77] Creating layer bn4e_branch2b
I0704 20:55:54.648373 22667 net.cpp:100] Creating Layer bn4e_branch2b
I0704 20:55:54.648380 22667 net.cpp:444] bn4e_branch2b <- res4e_branch2b
I0704 20:55:54.648392 22667 net.cpp:405] bn4e_branch2b -> res4e_branch2b (in-place)
I0704 20:55:54.648579 22667 net.cpp:150] Setting up bn4e_branch2b
I0704 20:55:54.648584 22667 net.cpp:157] Top shape: 1 256 60 80 (1228800)
I0704 20:55:54.648587 22667 net.cpp:165] Memory required for data: 5121638568
I0704 20:55:54.648600 22667 layer_factory.hpp:77] Creating layer scale4e_branch2b
I0704 20:55:54.648612 22667 net.cpp:100] Creating Layer scale4e_branch2b
I0704 20:55:54.648617 22667 net.cpp:444] scale4e_branch2b <- res4e_branch2b
I0704 20:55:54.648625 22667 net.cpp:405] scale4e_branch2b -> res4e_branch2b (in-place)
I0704 20:55:54.648671 22667 layer_factory.hpp:77] Creating layer scale4e_branch2b
I0704 20:55:54.648804 22667 net.cpp:150] Setting up scale4e_branch2b
I0704 20:55:54.648810 22667 net.cpp:157] Top shape: 1 256 60 80 (1228800)
I0704 20:55:54.648813 22667 net.cpp:165] Memory required for data: 5126553768
I0704 20:55:54.648821 22667 layer_factory.hpp:77] Creating layer res4e_branch2b_relu
I0704 20:55:54.648830 22667 net.cpp:100] Creating Layer res4e_branch2b_relu
I0704 20:55:54.648835 22667 net.cpp:444] res4e_branch2b_relu <- res4e_branch2b
I0704 20:55:54.648844 22667 net.cpp:405] res4e_branch2b_relu -> res4e_branch2b (in-place)
I0704 20:55:54.649199 22667 net.cpp:150] Setting up res4e_branch2b_relu
I0704 20:55:54.649207 22667 net.cpp:157] Top shape: 1 256 60 80 (1228800)
I0704 20:55:54.649210 22667 net.cpp:165] Memory required for data: 5131468968
I0704 20:55:54.649214 22667 layer_factory.hpp:77] Creating layer res4e_branch2c
I0704 20:55:54.649229 22667 net.cpp:100] Creating Layer res4e_branch2c
I0704 20:55:54.649235 22667 net.cpp:444] res4e_branch2c <- res4e_branch2b
I0704 20:55:54.649247 22667 net.cpp:418] res4e_branch2c -> res4e_branch2c
I0704 20:55:54.650920 22667 cudnn_conv_layer.cpp:194] Reallocating workspace storage: 92952
I0704 20:55:54.650944 22667 net.cpp:150] Setting up res4e_branch2c
I0704 20:55:54.650951 22667 net.cpp:157] Top shape: 1 1024 60 80 (4915200)
I0704 20:55:54.650954 22667 net.cpp:165] Memory required for data: 5151129768
I0704 20:55:54.650964 22667 layer_factory.hpp:77] Creating layer bn4e_branch2c
I0704 20:55:54.650975 22667 net.cpp:100] Creating Layer bn4e_branch2c
I0704 20:55:54.650980 22667 net.cpp:444] bn4e_branch2c <- res4e_branch2c
I0704 20:55:54.650992 22667 net.cpp:405] bn4e_branch2c -> res4e_branch2c (in-place)
I0704 20:55:54.651178 22667 net.cpp:150] Setting up bn4e_branch2c
I0704 20:55:54.651185 22667 net.cpp:157] Top shape: 1 1024 60 80 (4915200)
I0704 20:55:54.651187 22667 net.cpp:165] Memory required for data: 5170790568
I0704 20:55:54.651201 22667 layer_factory.hpp:77] Creating layer scale4e_branch2c
I0704 20:55:54.651211 22667 net.cpp:100] Creating Layer scale4e_branch2c
I0704 20:55:54.651216 22667 net.cpp:444] scale4e_branch2c <- res4e_branch2c
I0704 20:55:54.651226 22667 net.cpp:405] scale4e_branch2c -> res4e_branch2c (in-place)
I0704 20:55:54.651271 22667 layer_factory.hpp:77] Creating layer scale4e_branch2c
I0704 20:55:54.651407 22667 net.cpp:150] Setting up scale4e_branch2c
I0704 20:55:54.651412 22667 net.cpp:157] Top shape: 1 1024 60 80 (4915200)
I0704 20:55:54.651414 22667 net.cpp:165] Memory required for data: 5190451368
I0704 20:55:54.651423 22667 layer_factory.hpp:77] Creating layer res4e
I0704 20:55:54.651432 22667 net.cpp:100] Creating Layer res4e
I0704 20:55:54.651437 22667 net.cpp:444] res4e <- res4d_res4d_relu_0_split_1
I0704 20:55:54.651445 22667 net.cpp:444] res4e <- res4e_branch2c
I0704 20:55:54.651453 22667 net.cpp:418] res4e -> res4e
I0704 20:55:54.651486 22667 net.cpp:150] Setting up res4e
I0704 20:55:54.651492 22667 net.cpp:157] Top shape: 1 1024 60 80 (4915200)
I0704 20:55:54.651495 22667 net.cpp:165] Memory required for data: 5210112168
I0704 20:55:54.651499 22667 layer_factory.hpp:77] Creating layer res4e_relu
I0704 20:55:54.651505 22667 net.cpp:100] Creating Layer res4e_relu
I0704 20:55:54.651510 22667 net.cpp:444] res4e_relu <- res4e
I0704 20:55:54.651518 22667 net.cpp:405] res4e_relu -> res4e (in-place)
I0704 20:55:54.651651 22667 net.cpp:150] Setting up res4e_relu
I0704 20:55:54.651657 22667 net.cpp:157] Top shape: 1 1024 60 80 (4915200)
I0704 20:55:54.651660 22667 net.cpp:165] Memory required for data: 5229772968
I0704 20:55:54.651664 22667 layer_factory.hpp:77] Creating layer res4e_res4e_relu_0_split
I0704 20:55:54.651672 22667 net.cpp:100] Creating Layer res4e_res4e_relu_0_split
I0704 20:55:54.651676 22667 net.cpp:444] res4e_res4e_relu_0_split <- res4e
I0704 20:55:54.651687 22667 net.cpp:418] res4e_res4e_relu_0_split -> res4e_res4e_relu_0_split_0
I0704 20:55:54.651700 22667 net.cpp:418] res4e_res4e_relu_0_split -> res4e_res4e_relu_0_split_1
I0704 20:55:54.651741 22667 net.cpp:150] Setting up res4e_res4e_relu_0_split
I0704 20:55:54.651747 22667 net.cpp:157] Top shape: 1 1024 60 80 (4915200)
I0704 20:55:54.651751 22667 net.cpp:157] Top shape: 1 1024 60 80 (4915200)
I0704 20:55:54.651752 22667 net.cpp:165] Memory required for data: 5269094568
I0704 20:55:54.651756 22667 layer_factory.hpp:77] Creating layer res4f_branch2a
I0704 20:55:54.651768 22667 net.cpp:100] Creating Layer res4f_branch2a
I0704 20:55:54.651773 22667 net.cpp:444] res4f_branch2a <- res4e_res4e_relu_0_split_0
I0704 20:55:54.651783 22667 net.cpp:418] res4f_branch2a -> res4f_branch2a
I0704 20:55:54.652906 22667 cudnn_conv_layer.cpp:194] Reallocating workspace storage: 92952
I0704 20:55:54.652927 22667 net.cpp:150] Setting up res4f_branch2a
I0704 20:55:54.652935 22667 net.cpp:157] Top shape: 1 256 60 80 (1228800)
I0704 20:55:54.652936 22667 net.cpp:165] Memory required for data: 5274009768
I0704 20:55:54.652945 22667 layer_factory.hpp:77] Creating layer bn4f_branch2a
I0704 20:55:54.652957 22667 net.cpp:100] Creating Layer bn4f_branch2a
I0704 20:55:54.652962 22667 net.cpp:444] bn4f_branch2a <- res4f_branch2a
I0704 20:55:54.652973 22667 net.cpp:405] bn4f_branch2a -> res4f_branch2a (in-place)
I0704 20:55:54.653156 22667 net.cpp:150] Setting up bn4f_branch2a
I0704 20:55:54.653162 22667 net.cpp:157] Top shape: 1 256 60 80 (1228800)
I0704 20:55:54.653163 22667 net.cpp:165] Memory required for data: 5278924968
I0704 20:55:54.653177 22667 layer_factory.hpp:77] Creating layer scale4f_branch2a
I0704 20:55:54.653187 22667 net.cpp:100] Creating Layer scale4f_branch2a
I0704 20:55:54.653192 22667 net.cpp:444] scale4f_branch2a <- res4f_branch2a
I0704 20:55:54.653203 22667 net.cpp:405] scale4f_branch2a -> res4f_branch2a (in-place)
I0704 20:55:54.653250 22667 layer_factory.hpp:77] Creating layer scale4f_branch2a
I0704 20:55:54.653383 22667 net.cpp:150] Setting up scale4f_branch2a
I0704 20:55:54.653388 22667 net.cpp:157] Top shape: 1 256 60 80 (1228800)
I0704 20:55:54.653390 22667 net.cpp:165] Memory required for data: 5283840168
I0704 20:55:54.653399 22667 layer_factory.hpp:77] Creating layer res4f_branch2a_relu
I0704 20:55:54.653407 22667 net.cpp:100] Creating Layer res4f_branch2a_relu
I0704 20:55:54.653412 22667 net.cpp:444] res4f_branch2a_relu <- res4f_branch2a
I0704 20:55:54.653422 22667 net.cpp:405] res4f_branch2a_relu -> res4f_branch2a (in-place)
I0704 20:55:54.653559 22667 net.cpp:150] Setting up res4f_branch2a_relu
I0704 20:55:54.653566 22667 net.cpp:157] Top shape: 1 256 60 80 (1228800)
I0704 20:55:54.653569 22667 net.cpp:165] Memory required for data: 5288755368
I0704 20:55:54.653574 22667 layer_factory.hpp:77] Creating layer res4f_branch2b
I0704 20:55:54.653592 22667 net.cpp:100] Creating Layer res4f_branch2b
I0704 20:55:54.653599 22667 net.cpp:444] res4f_branch2b <- res4f_branch2a
I0704 20:55:54.653614 22667 net.cpp:418] res4f_branch2b -> res4f_branch2b
I0704 20:55:54.655853 22667 cudnn_conv_layer.cpp:194] Reallocating workspace storage: 12582912
I0704 20:55:54.656088 22667 net.cpp:150] Setting up res4f_branch2b
I0704 20:55:54.656103 22667 net.cpp:157] Top shape: 1 256 60 80 (1228800)
I0704 20:55:54.656105 22667 net.cpp:165] Memory required for data: 5293670568
I0704 20:55:54.656122 22667 layer_factory.hpp:77] Creating layer bn4f_branch2b
I0704 20:55:54.656142 22667 net.cpp:100] Creating Layer bn4f_branch2b
I0704 20:55:54.656150 22667 net.cpp:444] bn4f_branch2b <- res4f_branch2b
I0704 20:55:54.656167 22667 net.cpp:405] bn4f_branch2b -> res4f_branch2b (in-place)
I0704 20:55:54.656365 22667 net.cpp:150] Setting up bn4f_branch2b
I0704 20:55:54.656370 22667 net.cpp:157] Top shape: 1 256 60 80 (1228800)
I0704 20:55:54.656373 22667 net.cpp:165] Memory required for data: 5298585768
I0704 20:55:54.656386 22667 layer_factory.hpp:77] Creating layer scale4f_branch2b
I0704 20:55:54.656397 22667 net.cpp:100] Creating Layer scale4f_branch2b
I0704 20:55:54.656402 22667 net.cpp:444] scale4f_branch2b <- res4f_branch2b
I0704 20:55:54.656414 22667 net.cpp:405] scale4f_branch2b -> res4f_branch2b (in-place)
I0704 20:55:54.656461 22667 layer_factory.hpp:77] Creating layer scale4f_branch2b
I0704 20:55:54.656596 22667 net.cpp:150] Setting up scale4f_branch2b
I0704 20:55:54.656602 22667 net.cpp:157] Top shape: 1 256 60 80 (1228800)
I0704 20:55:54.656605 22667 net.cpp:165] Memory required for data: 5303500968
I0704 20:55:54.656613 22667 layer_factory.hpp:77] Creating layer res4f_branch2b_relu
I0704 20:55:54.656621 22667 net.cpp:100] Creating Layer res4f_branch2b_relu
I0704 20:55:54.656626 22667 net.cpp:444] res4f_branch2b_relu <- res4f_branch2b
I0704 20:55:54.656636 22667 net.cpp:405] res4f_branch2b_relu -> res4f_branch2b (in-place)
I0704 20:55:54.656780 22667 net.cpp:150] Setting up res4f_branch2b_relu
I0704 20:55:54.656785 22667 net.cpp:157] Top shape: 1 256 60 80 (1228800)
I0704 20:55:54.656787 22667 net.cpp:165] Memory required for data: 5308416168
I0704 20:55:54.656790 22667 layer_factory.hpp:77] Creating layer res4f_branch2c
I0704 20:55:54.656805 22667 net.cpp:100] Creating Layer res4f_branch2c
I0704 20:55:54.656810 22667 net.cpp:444] res4f_branch2c <- res4f_branch2b
I0704 20:55:54.656822 22667 net.cpp:418] res4f_branch2c -> res4f_branch2c
I0704 20:55:54.658596 22667 cudnn_conv_layer.cpp:194] Reallocating workspace storage: 92952
I0704 20:55:54.658622 22667 net.cpp:150] Setting up res4f_branch2c
I0704 20:55:54.658633 22667 net.cpp:157] Top shape: 1 1024 60 80 (4915200)
I0704 20:55:54.658637 22667 net.cpp:165] Memory required for data: 5328076968
I0704 20:55:54.658649 22667 layer_factory.hpp:77] Creating layer bn4f_branch2c
I0704 20:55:54.658670 22667 net.cpp:100] Creating Layer bn4f_branch2c
I0704 20:55:54.658679 22667 net.cpp:444] bn4f_branch2c <- res4f_branch2c
I0704 20:55:54.658694 22667 net.cpp:405] bn4f_branch2c -> res4f_branch2c (in-place)
I0704 20:55:54.658892 22667 net.cpp:150] Setting up bn4f_branch2c
I0704 20:55:54.658897 22667 net.cpp:157] Top shape: 1 1024 60 80 (4915200)
I0704 20:55:54.658900 22667 net.cpp:165] Memory required for data: 5347737768
I0704 20:55:54.658944 22667 layer_factory.hpp:77] Creating layer scale4f_branch2c
I0704 20:55:54.658959 22667 net.cpp:100] Creating Layer scale4f_branch2c
I0704 20:55:54.658964 22667 net.cpp:444] scale4f_branch2c <- res4f_branch2c
I0704 20:55:54.658973 22667 net.cpp:405] scale4f_branch2c -> res4f_branch2c (in-place)
I0704 20:55:54.659021 22667 layer_factory.hpp:77] Creating layer scale4f_branch2c
I0704 20:55:54.659212 22667 net.cpp:150] Setting up scale4f_branch2c
I0704 20:55:54.659219 22667 net.cpp:157] Top shape: 1 1024 60 80 (4915200)
I0704 20:55:54.659221 22667 net.cpp:165] Memory required for data: 5367398568
I0704 20:55:54.659230 22667 layer_factory.hpp:77] Creating layer res4f
I0704 20:55:54.659241 22667 net.cpp:100] Creating Layer res4f
I0704 20:55:54.659246 22667 net.cpp:444] res4f <- res4e_res4e_relu_0_split_1
I0704 20:55:54.659255 22667 net.cpp:444] res4f <- res4f_branch2c
I0704 20:55:54.659262 22667 net.cpp:418] res4f -> res4f
I0704 20:55:54.659297 22667 net.cpp:150] Setting up res4f
I0704 20:55:54.659306 22667 net.cpp:157] Top shape: 1 1024 60 80 (4915200)
I0704 20:55:54.659307 22667 net.cpp:165] Memory required for data: 5387059368
I0704 20:55:54.659312 22667 layer_factory.hpp:77] Creating layer res4f_relu
I0704 20:55:54.659318 22667 net.cpp:100] Creating Layer res4f_relu
I0704 20:55:54.659322 22667 net.cpp:444] res4f_relu <- res4f
I0704 20:55:54.659332 22667 net.cpp:405] res4f_relu -> res4f (in-place)
I0704 20:55:54.659737 22667 net.cpp:150] Setting up res4f_relu
I0704 20:55:54.659745 22667 net.cpp:157] Top shape: 1 1024 60 80 (4915200)
I0704 20:55:54.659747 22667 net.cpp:165] Memory required for data: 5406720168
I0704 20:55:54.659751 22667 layer_factory.hpp:77] Creating layer res4f_res4f_relu_0_split
I0704 20:55:54.659765 22667 net.cpp:100] Creating Layer res4f_res4f_relu_0_split
I0704 20:55:54.659768 22667 net.cpp:444] res4f_res4f_relu_0_split <- res4f
I0704 20:55:54.659780 22667 net.cpp:418] res4f_res4f_relu_0_split -> res4f_res4f_relu_0_split_0
I0704 20:55:54.659793 22667 net.cpp:418] res4f_res4f_relu_0_split -> res4f_res4f_relu_0_split_1
I0704 20:55:54.659804 22667 net.cpp:418] res4f_res4f_relu_0_split -> res4f_res4f_relu_0_split_2
I0704 20:55:54.659812 22667 net.cpp:418] res4f_res4f_relu_0_split -> res4f_res4f_relu_0_split_3
I0704 20:55:54.659876 22667 net.cpp:150] Setting up res4f_res4f_relu_0_split
I0704 20:55:54.659883 22667 net.cpp:157] Top shape: 1 1024 60 80 (4915200)
I0704 20:55:54.659888 22667 net.cpp:157] Top shape: 1 1024 60 80 (4915200)
I0704 20:55:54.659889 22667 net.cpp:157] Top shape: 1 1024 60 80 (4915200)
I0704 20:55:54.659893 22667 net.cpp:157] Top shape: 1 1024 60 80 (4915200)
I0704 20:55:54.659894 22667 net.cpp:165] Memory required for data: 5485363368
I0704 20:55:54.659898 22667 layer_factory.hpp:77] Creating layer res5a_branch1
I0704 20:55:54.659912 22667 net.cpp:100] Creating Layer res5a_branch1
I0704 20:55:54.659917 22667 net.cpp:444] res5a_branch1 <- res4f_res4f_relu_0_split_0
…
I0704 20:55:55.194015 22667 net.cpp:150] Setting up rpn_cls_score_reshape
I0704 20:55:55.194022 22667 net.cpp:157] Top shape: 1 2 660 80 (105600)
I0704 20:55:55.194025 22667 net.cpp:165] Memory required for data: 6708556968
I0704 20:55:55.194027 22667 layer_factory.hpp:77] Creating layer rpn_cls_score_reshape_rpn_cls_score_reshape_0_split
I0704 20:55:55.194034 22667 net.cpp:100] Creating Layer rpn_cls_score_reshape_rpn_cls_score_reshape_0_split
I0704 20:55:55.194041 22667 net.cpp:444] rpn_cls_score_reshape_rpn_cls_score_reshape_0_split <- rpn_cls_score_reshape
I0704 20:55:55.194049 22667 net.cpp:418] rpn_cls_score_reshape_rpn_cls_score_reshape_0_split -> rpn_cls_score_reshape_rpn_cls_score_reshape_0_split_0
I0704 20:55:55.194061 22667 net.cpp:418] rpn_cls_score_reshape_rpn_cls_score_reshape_0_split -> rpn_cls_score_reshape_rpn_cls_score_reshape_0_split_1
I0704 20:55:55.194100 22667 net.cpp:150] Setting up rpn_cls_score_reshape_rpn_cls_score_reshape_0_split
I0704 20:55:55.194105 22667 net.cpp:157] Top shape: 1 2 660 80 (105600)
I0704 20:55:55.194110 22667 net.cpp:157] Top shape: 1 2 660 80 (105600)
I0704 20:55:55.194113 22667 net.cpp:165] Memory required for data: 6709401768
I0704 20:55:55.194115 22667 layer_factory.hpp:77] Creating layer rpn-data
I0704 20:55:55.194428 22667 net.cpp:100] Creating Layer rpn-data
I0704 20:55:55.194437 22667 net.cpp:444] rpn-data <- rpn_cls_score_rpn_cls_score_0_split_1
I0704 20:55:55.194449 22667 net.cpp:444] rpn-data <- gt_boxes_input-data_2_split_0
I0704 20:55:55.194455 22667 net.cpp:444] rpn-data <- im_info_input-data_1_split_0
I0704 20:55:55.194460 22667 net.cpp:444] rpn-data <- data_input-data_0_split_1
I0704 20:55:55.194468 22667 net.cpp:418] rpn-data -> rpn_labels
I0704 20:55:55.194481 22667 net.cpp:418] rpn-data -> rpn_bbox_targets
I0704 20:55:55.194494 22667 net.cpp:418] rpn-data -> rpn_bbox_inside_weights
I0704 20:55:55.194504 22667 net.cpp:418] rpn-data -> rpn_bbox_outside_weights
I0704 20:55:55.194990 22667 net.cpp:150] Setting up rpn-data
I0704 20:55:55.195000 22667 net.cpp:157] Top shape: 1 1 660 80 (52800)
I0704 20:55:55.195004 22667 net.cpp:157] Top shape: 1 44 60 80 (211200)
I0704 20:55:55.195006 22667 net.cpp:157] Top shape: 1 44 60 80 (211200)
I0704 20:55:55.195009 22667 net.cpp:157] Top shape: 1 44 60 80 (211200)
I0704 20:55:55.195010 22667 net.cpp:165] Memory required for data: 6712147368
I0704 20:55:55.195017 22667 layer_factory.hpp:77] Creating layer rpn_loss_cls
I0704 20:55:55.195030 22667 net.cpp:100] Creating Layer rpn_loss_cls
I0704 20:55:55.195036 22667 net.cpp:444] rpn_loss_cls <- rpn_cls_score_reshape_rpn_cls_score_reshape_0_split_0
I0704 20:55:55.195045 22667 net.cpp:444] rpn_loss_cls <- rpn_labels
…
I0704 20:55:55.198041 22667 net.cpp:157] Top shape: (1)
I0704 20:55:55.198043 22667 net.cpp:160]     with loss weight 1
I0704 20:55:55.198046 22667 net.cpp:165] Memory required for data: 6712147376
I0704 20:55:55.198050 22667 layer_factory.hpp:77] Creating layer rpn_cls_prob
I0704 20:55:55.198058 22667 net.cpp:100] Creating Layer rpn_cls_prob
I0704 20:55:55.198063 22667 net.cpp:444] rpn_cls_prob <- rpn_cls_score_reshape_rpn_cls_score_reshape_0_split_1
I0704 20:55:55.198073 22667 net.cpp:418] rpn_cls_prob -> rpn_cls_prob
I0704 20:55:55.198276 22667 net.cpp:150] Setting up rpn_cls_prob
I0704 20:55:55.198284 22667 net.cpp:157] Top shape: 1 2 660 80 (105600)
I0704 20:55:55.198287 22667 net.cpp:165] Memory required for data: 6712569776
I0704 20:55:55.198290 22667 layer_factory.hpp:77] Creating layer rpn_cls_prob_reshape
I0704 20:55:55.198302 22667 net.cpp:100] Creating Layer rpn_cls_prob_reshape
I0704 20:55:55.198307 22667 net.cpp:444] rpn_cls_prob_reshape <- rpn_cls_prob
I0704 20:55:55.198318 22667 net.cpp:418] rpn_cls_prob_reshape -> rpn_cls_prob_reshape
I0704 20:55:55.198354 22667 net.cpp:150] Setting up rpn_cls_prob_reshape
I0704 20:55:55.198360 22667 net.cpp:157] Top shape: 1 22 60 80 (105600)
I0704 20:55:55.198362 22667 net.cpp:165] Memory required for data: 6712992176
I0704 20:55:55.198365 22667 layer_factory.hpp:77] Creating layer proposal
I0704 20:55:55.198792 22667 net.cpp:100] Creating Layer proposal
I0704 20:55:55.198802 22667 net.cpp:444] proposal <- rpn_cls_prob_reshape
I0704 20:55:55.198813 22667 net.cpp:444] proposal <- rpn_bbox_pred_rpn_bbox_pred_0_split_1
I0704 20:55:55.198820 22667 net.cpp:444] proposal <- im_info_input-data_1_split_1
I0704 20:55:55.198829 22667 net.cpp:418] proposal -> rpn_rois
I0704 20:55:55.200278 22667 net.cpp:150] Setting up proposal
I0704 20:55:55.200294 22667 net.cpp:157] Top shape: 1 5 (5)
I0704 20:55:55.200295 22667 net.cpp:165] Memory required for data: 6712992196
I0704 20:55:55.200301 22667 layer_factory.hpp:77] Creating layer roi-data
I0704 20:55:55.200424 22667 net.cpp:100] Creating Layer roi-data
I0704 20:55:55.200433 22667 net.cpp:444] roi-data <- rpn_rois
I0704 20:55:55.200446 22667 net.cpp:444] roi-data <- gt_boxes_input-data_2_split_1
I0704 20:55:55.200458 22667 net.cpp:418] roi-data -> rois
I0704 20:55:55.200474 22667 net.cpp:418] roi-data -> labels
I0704 20:55:55.200484 22667 net.cpp:418] roi-data -> bbox_targets
I0704 20:55:55.200493 22667 net.cpp:418] roi-data -> bbox_inside_weights
I0704 20:55:55.200501 22667 net.cpp:418] roi-data -> bbox_outside_weights
I0704 20:55:55.200870 22667 net.cpp:150] Setting up roi-data
I0704 20:55:55.200881 22667 net.cpp:157] Top shape: 1 5 1 1 (5)
I0704 20:55:55.200883 22667 net.cpp:157] Top shape: 1 1 1 1 (1)
I0704 20:55:55.200886 22667 net.cpp:157] Top shape: 1 8 1 1 (8)
I0704 20:55:55.200888 22667 net.cpp:157] Top shape: 1 8 1 1 (8)
I0704 20:55:55.200891 22667 net.cpp:157] Top shape: 1 8 1 1 (8)
I0704 20:55:55.200892 22667 net.cpp:165] Memory required for data: 6712992316
I0704 20:55:55.200896 22667 layer_factory.hpp:77] Creating layer rois_roi-data_0_split
I0704 20:55:55.200907 22667 net.cpp:100] Creating Layer rois_roi-data_0_split
I0704 20:55:55.200912 22667 net.cpp:444] rois_roi-data_0_split <- rois
I0704 20:55:55.200924 22667 net.cpp:418] rois_roi-data_0_split -> rois_roi-data_0_split_0
I0704 20:55:55.200937 22667 net.cpp:418] rois_roi-data_0_split -> rois_roi-data_0_split_1
I0704 20:55:55.200947 22667 net.cpp:418] rois_roi-data_0_split -> rois_roi-data_0_split_2
I0704 20:55:55.200999 22667 net.cpp:150] Setting up rois_roi-data_0_split
I0704 20:55:55.201005 22667 net.cpp:157] Top shape: 1 5 1 1 (5)
I0704 20:55:55.201009 22667 net.cpp:157] Top shape: 1 5 1 1 (5)
I0704 20:55:55.201011 22667 net.cpp:157] Top shape: 1 5 1 1 (5)
I0704 20:55:55.201014 22667 net.cpp:165] Memory required for data: 6712992376
I0704 20:55:55.201016 22667 layer_factory.hpp:77] Creating layer labels_roi-data_1_split
I0704 20:55:55.201025 22667 net.cpp:100] Creating Layer labels_roi-data_1_split
I0704 20:55:55.201030 22667 net.cpp:444] labels_roi-data_1_split <- labels
I0704 20:55:55.201038 22667 net.cpp:418] labels_roi-data_1_split -> labels_roi-data_1_split_0
I0704 20:55:55.201050 22667 net.cpp:418] labels_roi-data_1_split -> labels_roi-data_1_split_1
I0704 20:55:55.201087 22667 net.cpp:150] Setting up labels_roi-data_1_split
I0704 20:55:55.201093 22667 net.cpp:157] Top shape: 1 1 1 1 (1)
I0704 20:55:55.201097 22667 net.cpp:157] Top shape: 1 1 1 1 (1)
I0704 20:55:55.201098 22667 net.cpp:165] Memory required for data: 6712992384
I0704 20:55:55.201102 22667 layer_factory.hpp:77] Creating layer bbox_targets_roi-data_2_split
I0704 20:55:55.201107 22667 net.cpp:100] Creating Layer bbox_targets_roi-data_2_split
I0704 20:55:55.201112 22667 net.cpp:444] bbox_targets_roi-data_2_split <- bbox_targets
I0704 20:55:55.201120 22667 net.cpp:418] bbox_targets_roi-data_2_split -> bbox_targets_roi-data_2_split_0
I0704 20:55:55.201131 22667 net.cpp:418] bbox_targets_roi-data_2_split -> bbox_targets_roi-data_2_split_1
I0704 20:55:55.201169 22667 net.cpp:150] Setting up bbox_targets_roi-data_2_split
I0704 20:55:55.201175 22667 net.cpp:157] Top shape: 1 8 1 1 (8)
I0704 20:55:55.201179 22667 net.cpp:157] Top shape: 1 8 1 1 (8)
I0704 20:55:55.201179 22667 net.cpp:165] Memory required for data: 6712992448
I0704 20:55:55.201182 22667 layer_factory.hpp:77] Creating layer bbox_inside_weights_roi-data_3_split
I0704 20:55:55.201189 22667 net.cpp:100] Creating Layer bbox_inside_weights_roi-data_3_split
I0704 20:55:55.201194 22667 net.cpp:444] bbox_inside_weights_roi-data_3_split <- bbox_inside_weights
I0704 20:55:55.201202 22667 net.cpp:418] bbox_inside_weights_roi-data_3_split -> bbox_inside_weights_roi-data_3_split_0
I0704 20:55:55.201213 22667 net.cpp:418] bbox_inside_weights_roi-data_3_split -> bbox_inside_weights_roi-data_3_split_1
I0704 20:55:55.201251 22667 net.cpp:150] Setting up bbox_inside_weights_roi-data_3_split
I0704 20:55:55.201256 22667 net.cpp:157] Top shape: 1 8 1 1 (8)
I0704 20:55:55.201259 22667 net.cpp:157] Top shape: 1 8 1 1 (8)
I0704 20:55:55.201262 22667 net.cpp:165] Memory required for data: 6712992512
I0704 20:55:55.201264 22667 layer_factory.hpp:77] Creating layer rpn_conv_head/3x3
I0704 20:55:55.201284 22667 net.cpp:100] Creating Layer rpn_conv_head/3x3
I0704 20:55:55.201289 22667 net.cpp:444] rpn_conv_head/3x3 <- res4f_res4f_relu_0_split_3
I0704 20:55:55.201303 22667 net.cpp:418] rpn_conv_head/3x3 -> rpn_head/output
I0704 20:55:55.684119 22667 cudnn_conv_layer.cpp:194] Reallocating workspace storage: 92952
I0704 20:55:55.684159 22667 net.cpp:150] Setting up rpn_conv_head/3x3
I0704 20:55:55.684171 22667 net.cpp:157] Top shape: 1 512 60 80 (2457600)
I0704 20:55:55.684175 22667 net.cpp:165] Memory required for data: 6722822912
I0704 20:55:55.684193 22667 layer_factory.hpp:77] Creating layer rpn_relu_head/3x3
I0704 20:55:55.684212 22667 net.cpp:100] Creating Layer rpn_relu_head/3x3
I0704 20:55:55.684221 22667 net.cpp:444] rpn_relu_head/3x3 <- rpn_head/output
I0704 20:55:55.684238 22667 net.cpp:405] rpn_relu_head/3x3 -> rpn_head/output (in-place)
I0704 20:55:55.684638 22667 net.cpp:150] Setting up rpn_relu_head/3x3
I0704 20:55:55.684645 22667 net.cpp:157] Top shape: 1 512 60 80 (2457600)
I0704 20:55:55.684648 22667 net.cpp:165] Memory required for data: 6732653312
I0704 20:55:55.684665 22667 layer_factory.hpp:77] Creating layer rpn_head/output_rpn_relu_head/3x3_0_split
I0704 20:55:55.684675 22667 net.cpp:100] Creating Layer rpn_head/output_rpn_relu_head/3x3_0_split
I0704 20:55:55.684680 22667 net.cpp:444] rpn_head/output_rpn_relu_head/3x3_0_split <- rpn_head/output
I0704 20:55:55.684692 22667 net.cpp:418] rpn_head/output_rpn_relu_head/3x3_0_split -> rpn_head/output_rpn_relu_head/3x3_0_split_0
I0704 20:55:55.684708 22667 net.cpp:418] rpn_head/output_rpn_relu_head/3x3_0_split -> rpn_head/output_rpn_relu_head/3x3_0_split_1
I0704 20:55:55.684754 22667 net.cpp:150] Setting up rpn_head/output_rpn_relu_head/3x3_0_split
I0704 20:55:55.684762 22667 net.cpp:157] Top shape: 1 512 60 80 (2457600)
I0704 20:55:55.684765 22667 net.cpp:157] Top shape: 1 512 60 80 (2457600)
I0704 20:55:55.684767 22667 net.cpp:165] Memory required for data: 6752314112
I0704 20:55:55.684770 22667 layer_factory.hpp:77] Creating layer rpn_head_cls_score
I0704 20:55:55.684789 22667 net.cpp:100] Creating Layer rpn_head_cls_score
I0704 20:55:55.684793 22667 net.cpp:444] rpn_head_cls_score <- rpn_head/output_rpn_relu_head/3x3_0_split_0
I0704 20:55:55.684806 22667 net.cpp:418] rpn_head_cls_score -> rpn_head_cls_score
I0704 20:55:55.686837 22667 cudnn_conv_layer.cpp:194] Reallocating workspace storage: 92952
I0704 20:55:55.686854 22667 net.cpp:150] Setting up rpn_head_cls_score
I0704 20:55:55.686861 22667 net.cpp:157] Top shape: 1 22 60 80 (105600)
I0704 20:55:55.686862 22667 net.cpp:165] Memory required for data: 6752736512
I0704 20:55:55.686872 22667 layer_factory.hpp:77] Creating layer rpn_head_cls_score_rpn_head_cls_score_0_split
I0704 20:55:55.686883 22667 net.cpp:100] Creating Layer rpn_head_cls_score_rpn_head_cls_score_0_split
I0704 20:55:55.686888 22667 net.cpp:444] rpn_head_cls_score_rpn_head_cls_score_0_split <- rpn_head_cls_score
I0704 20:55:55.686899 22667 net.cpp:418] rpn_head_cls_score_rpn_head_cls_score_0_split -> rpn_head_cls_score_rpn_head_cls_score_0_split_0
I0704 20:55:55.686911 22667 net.cpp:418] rpn_head_cls_score_rpn_head_cls_score_0_split -> rpn_head_cls_score_rpn_head_cls_score_0_split_1
I0704 20:55:55.686954 22667 net.cpp:150] Setting up rpn_head_cls_score_rpn_head_cls_score_0_split
I0704 20:55:55.686960 22667 net.cpp:157] Top shape: 1 22 60 80 (105600)
I0704 20:55:55.686964 22667 net.cpp:157] Top shape: 1 22 60 80 (105600)
I0704 20:55:55.686966 22667 net.cpp:165] Memory required for data: 6753581312
I0704 20:55:55.686969 22667 layer_factory.hpp:77] Creating layer rpn_head_bbox_pred
I0704 20:55:55.686983 22667 net.cpp:100] Creating Layer rpn_head_bbox_pred
I0704 20:55:55.686990 22667 net.cpp:444] rpn_head_bbox_pred <- rpn_head/output_rpn_relu_head/3x3_0_split_1
I0704 20:55:55.687002 22667 net.cpp:418] rpn_head_bbox_pred -> rpn_head_bbox_pred
I0704 20:55:55.690160 22667 cudnn_conv_layer.cpp:194] Reallocating workspace storage: 92952
I0704 20:55:55.690176 22667 net.cpp:150] Setting up rpn_head_bbox_pred
I0704 20:55:55.690181 22667 net.cpp:157] Top shape: 1 44 60 80 (211200)
I0704 20:55:55.690184 22667 net.cpp:165] Memory required for data: 6754426112
I0704 20:55:55.690194 22667 layer_factory.hpp:77] Creating layer rpn_head_bbox_pred_rpn_head_bbox_pred_0_split
I0704 20:55:55.690204 22667 net.cpp:100] Creating Layer rpn_head_bbox_pred_rpn_head_bbox_pred_0_split
I0704 20:55:55.690210 22667 net.cpp:444] rpn_head_bbox_pred_rpn_head_bbox_pred_0_split <- rpn_head_bbox_pred
I0704 20:55:55.690222 22667 net.cpp:418] rpn_head_bbox_pred_rpn_head_bbox_pred_0_split -> rpn_head_bbox_pred_rpn_head_bbox_pred_0_split_0
I0704 20:55:55.690235 22667 net.cpp:418] rpn_head_bbox_pred_rpn_head_bbox_pred_0_split -> rpn_head_bbox_pred_rpn_head_bbox_pred_0_split_1
I0704 20:55:55.690279 22667 net.cpp:150] Setting up rpn_head_bbox_pred_rpn_head_bbox_pred_0_split
I0704 20:55:55.690285 22667 net.cpp:157] Top shape: 1 44 60 80 (211200)
I0704 20:55:55.690289 22667 net.cpp:157] Top shape: 1 44 60 80 (211200)
I0704 20:55:55.690291 22667 net.cpp:165] Memory required for data: 6756115712
I0704 20:55:55.690294 22667 layer_factory.hpp:77] Creating layer rpn_head_cls_score_reshape
I0704 20:55:55.690304 22667 net.cpp:100] Creating Layer rpn_head_cls_score_reshape
I0704 20:55:55.690310 22667 net.cpp:444] rpn_head_cls_score_reshape <- rpn_head_cls_score_rpn_head_cls_score_0_split_0
I0704 20:55:55.690321 22667 net.cpp:418] rpn_head_cls_score_reshape -> rpn_head_cls_score_reshape
I0704 20:55:55.690356 22667 net.cpp:150] Setting up rpn_head_cls_score_reshape
I0704 20:55:55.690362 22667 net.cpp:157] Top shape: 1 2 660 80 (105600)
I0704 20:55:55.690364 22667 net.cpp:165] Memory required for data: 6756538112
I0704 20:55:55.690367 22667 layer_factory.hpp:77] Creating layer rpn_head_cls_score_reshape_rpn_head_cls_score_reshape_0_split
I0704 20:55:55.690374 22667 net.cpp:100] Creating Layer rpn_head_cls_score_reshape_rpn_head_cls_score_reshape_0_split
I0704 20:55:55.690379 22667 net.cpp:444] rpn_head_cls_score_reshape_rpn_head_cls_score_reshape_0_split <- rpn_head_cls_score_reshape
I0704 20:55:55.690390 22667 net.cpp:418] rpn_head_cls_score_reshape_rpn_head_cls_score_reshape_0_split -> rpn_head_cls_score_reshape_rpn_head_cls_score_reshape_0_split_0
I0704 20:55:55.690403 22667 net.cpp:418] rpn_head_cls_score_reshape_rpn_head_cls_score_reshape_0_split -> rpn_head_cls_score_reshape_rpn_head_cls_score_reshape_0_split_1
I0704 20:55:55.690443 22667 net.cpp:150] Setting up rpn_head_cls_score_reshape_rpn_head_cls_score_reshape_0_split
I0704 20:55:55.690449 22667 net.cpp:157] Top shape: 1 2 660 80 (105600)
I0704 20:55:55.690454 22667 net.cpp:157] Top shape: 1 2 660 80 (105600)
I0704 20:55:55.690455 22667 net.cpp:165] Memory required for data: 6757382912
I0704 20:55:55.690459 22667 layer_factory.hpp:77] Creating layer rpn_head-data
I0704 20:55:55.690620 22667 net.cpp:100] Creating Layer rpn_head-data
I0704 20:55:55.690629 22667 net.cpp:444] rpn_head-data <- rpn_head_cls_score_rpn_head_cls_score_0_split_1
I0704 20:55:55.690639 22667 net.cpp:444] rpn_head-data <- head_gt_boxes_input-data_3_split_0
I0704 20:55:55.690645 22667 net.cpp:444] rpn_head-data <- im_info_input-data_1_split_2
I0704 20:55:55.690651 22667 net.cpp:444] rpn_head-data <- data_input-data_0_split_2
I0704 20:55:55.690659 22667 net.cpp:418] rpn_head-data -> rpn_head_labels
I0704 20:55:55.690672 22667 net.cpp:418] rpn_head-data -> rpn_head_bbox_targets
I0704 20:55:55.690685 22667 net.cpp:418] rpn_head-data -> rpn_head_bbox_inside_weights
I0704 20:55:55.690696 22667 net.cpp:418] rpn_head-data -> rpn_head_bbox_outside_weights
I0704 20:55:55.691761 22667 net.cpp:150] Setting up rpn_head-data
I0704 20:55:55.691772 22667 net.cpp:157] Top shape: 1 1 660 80 (52800)
I0704 20:55:55.691776 22667 net.cpp:157] Top shape: 1 44 60 80 (211200)
I0704 20:55:55.691779 22667 net.cpp:157] Top shape: 1 44 60 80 (211200)
I0704 20:55:55.691782 22667 net.cpp:157] Top shape: 1 44 60 80 (211200)
I0704 20:55:55.691784 22667 net.cpp:165] Memory required for data: 6760128512
I0704 20:55:55.691790 22667 layer_factory.hpp:77] Creating layer rpn_head_loss_cls
I0704 20:55:55.691807 22667 net.cpp:100] Creating Layer rpn_head_loss_cls
I0704 20:55:55.691812 22667 net.cpp:444] rpn_head_loss_cls <- rpn_head_cls_score_reshape_rpn_head_cls_score_reshape_0_split_0
I0704 20:55:55.691823 22667 net.cpp:444] rpn_head_loss_cls <- rpn_head_labels
…
I0704 20:55:55.694800 22667 net.cpp:160]     with loss weight 1
I0704 20:55:55.694803 22667 net.cpp:165] Memory required for data: 6760128520
I0704 20:55:55.694808 22667 layer_factory.hpp:77] Creating layer rpn_head_cls_prob
I0704 20:55:55.694818 22667 net.cpp:100] Creating Layer rpn_head_cls_prob
I0704 20:55:55.694821 22667 net.cpp:444] rpn_head_cls_prob <- rpn_head_cls_score_reshape_rpn_head_cls_score_reshape_0_split_1
I0704 20:55:55.694833 22667 net.cpp:418] rpn_head_cls_prob -> rpn_head_cls_prob
I0704 20:55:55.695045 22667 net.cpp:150] Setting up rpn_head_cls_prob
I0704 20:55:55.695053 22667 net.cpp:157] Top shape: 1 2 660 80 (105600)
I0704 20:55:55.695056 22667 net.cpp:165] Memory required for data: 6760550920
I0704 20:55:55.695060 22667 layer_factory.hpp:77] Creating layer rpn_head_cls_prob_reshape
I0704 20:55:55.695071 22667 net.cpp:100] Creating Layer rpn_head_cls_prob_reshape
I0704 20:55:55.695078 22667 net.cpp:444] rpn_head_cls_prob_reshape <- rpn_head_cls_prob
I0704 20:55:55.695094 22667 net.cpp:418] rpn_head_cls_prob_reshape -> rpn_head_cls_prob_reshape
I0704 20:55:55.695135 22667 net.cpp:150] Setting up rpn_head_cls_prob_reshape
I0704 20:55:55.695144 22667 net.cpp:157] Top shape: 1 22 60 80 (105600)
I0704 20:55:55.695147 22667 net.cpp:165] Memory required for data: 6760973320
I0704 20:55:55.695152 22667 layer_factory.hpp:77] Creating layer proposal_head
I0704 20:55:55.695189 22667 net.cpp:100] Creating Layer proposal_head
I0704 20:55:55.695197 22667 net.cpp:444] proposal_head <- rpn_head_cls_prob_reshape
I0704 20:55:55.695209 22667 net.cpp:444] proposal_head <- rpn_head_bbox_pred_rpn_head_bbox_pred_0_split_1
I0704 20:55:55.695219 22667 net.cpp:444] proposal_head <- im_info_input-data_1_split_3
I0704 20:55:55.695232 22667 net.cpp:418] proposal_head -> rpn_head_rois
I0704 20:55:55.696270 22667 net.cpp:150] Setting up proposal_head
I0704 20:55:55.696283 22667 net.cpp:157] Top shape: 1 5 (5)
I0704 20:55:55.696287 22667 net.cpp:165] Memory required for data: 6760973340
I0704 20:55:55.696295 22667 layer_factory.hpp:77] Creating layer roi_head-data
I0704 20:55:55.696331 22667 net.cpp:100] Creating Layer roi_head-data
I0704 20:55:55.696341 22667 net.cpp:444] roi_head-data <- rpn_head_rois
I0704 20:55:55.696357 22667 net.cpp:444] roi_head-data <- head_gt_boxes_input-data_3_split_1
I0704 20:55:55.696369 22667 net.cpp:418] roi_head-data -> rois_head
I0704 20:55:55.696388 22667 net.cpp:418] roi_head-data -> head_labels
I0704 20:55:55.696403 22667 net.cpp:418] roi_head-data -> head_bbox_targets
I0704 20:55:55.696418 22667 net.cpp:418] roi_head-data -> head_bbox_inside_weights
I0704 20:55:55.696430 22667 net.cpp:418] roi_head-data -> head_bbox_outside_weights
I0704 20:55:55.696733 22667 net.cpp:150] Setting up roi_head-data
I0704 20:55:55.696744 22667 net.cpp:157] Top shape: 1 5 1 1 (5)
I0704 20:55:55.696749 22667 net.cpp:157] Top shape: 1 1 1 1 (1)
I0704 20:55:55.696754 22667 net.cpp:157] Top shape: 1 8 1 1 (8)
I0704 20:55:55.696759 22667 net.cpp:157] Top shape: 1 8 1 1 (8)
I0704 20:55:55.696764 22667 net.cpp:157] Top shape: 1 8 1 1 (8)
I0704 20:55:55.696768 22667 net.cpp:165] Memory required for data: 6760973460
I0704 20:55:55.696774 22667 layer_factory.hpp:77] Creating layer rois_head_roi_head-data_0_split
I0704 20:55:55.696785 22667 net.cpp:100] Creating Layer rois_head_roi_head-data_0_split
I0704 20:55:55.696792 22667 net.cpp:444] rois_head_roi_head-data_0_split <- rois_head
I0704 20:55:55.696808 22667 net.cpp:418] rois_head_roi_head-data_0_split -> rois_head_roi_head-data_0_split_0
I0704 20:55:55.696825 22667 net.cpp:418] rois_head_roi_head-data_0_split -> rois_head_roi_head-data_0_split_1
I0704 20:55:55.696840 22667 net.cpp:418] rois_head_roi_head-data_0_split -> rois_head_roi_head-data_0_split_2
I0704 20:55:55.696895 22667 net.cpp:150] Setting up rois_head_roi_head-data_0_split
I0704 20:55:55.696904 22667 net.cpp:157] Top shape: 1 5 1 1 (5)
I0704 20:55:55.696909 22667 net.cpp:157] Top shape: 1 5 1 1 (5)
I0704 20:55:55.696914 22667 net.cpp:157] Top shape: 1 5 1 1 (5)
I0704 20:55:55.696918 22667 net.cpp:165] Memory required for data: 6760973520
I0704 20:55:55.696923 22667 layer_factory.hpp:77] Creating layer head_labels_roi_head-data_1_split
I0704 20:55:55.696933 22667 net.cpp:100] Creating Layer head_labels_roi_head-data_1_split
I0704 20:55:55.696938 22667 net.cpp:444] head_labels_roi_head-data_1_split <- head_labels
I0704 20:55:55.696954 22667 net.cpp:418] head_labels_roi_head-data_1_split -> head_labels_roi_head-data_1_split_0
I0704 20:55:55.696969 22667 net.cpp:418] head_labels_roi_head-data_1_split -> head_labels_roi_head-data_1_split_1
I0704 20:55:55.697012 22667 net.cpp:150] Setting up head_labels_roi_head-data_1_split
I0704 20:55:55.697021 22667 net.cpp:157] Top shape: 1 1 1 1 (1)
I0704 20:55:55.697026 22667 net.cpp:157] Top shape: 1 1 1 1 (1)
I0704 20:55:55.697029 22667 net.cpp:165] Memory required for data: 6760973528
I0704 20:55:55.697033 22667 layer_factory.hpp:77] Creating layer head_bbox_targets_roi_head-data_2_split
I0704 20:55:55.697044 22667 net.cpp:100] Creating Layer head_bbox_targets_roi_head-data_2_split
I0704 20:55:55.697051 22667 net.cpp:444] head_bbox_targets_roi_head-data_2_split <- head_bbox_targets
I0704 20:55:55.697063 22667 net.cpp:418] head_bbox_targets_roi_head-data_2_split -> head_bbox_targets_roi_head-data_2_split_0
I0704 20:55:55.697078 22667 net.cpp:418] head_bbox_targets_roi_head-data_2_split -> head_bbox_targets_roi_head-data_2_split_1
I0704 20:55:55.697121 22667 net.cpp:150] Setting up head_bbox_targets_roi_head-data_2_split
I0704 20:55:55.697185 22667 net.cpp:157] Top shape: 1 8 1 1 (8)
I0704 20:55:55.697192 22667 net.cpp:157] Top shape: 1 8 1 1 (8)
I0704 20:55:55.697196 22667 net.cpp:165] Memory required for data: 6760973592
I0704 20:55:55.697201 22667 layer_factory.hpp:77] Creating layer head_bbox_inside_weights_roi_head-data_3_split
I0704 20:55:55.697212 22667 net.cpp:100] Creating Layer head_bbox_inside_weights_roi_head-data_3_split
I0704 20:55:55.697218 22667 net.cpp:444] head_bbox_inside_weights_roi_head-data_3_split <- head_bbox_inside_weights
I0704 20:55:55.697232 22667 net.cpp:418] head_bbox_inside_weights_roi_head-data_3_split -> head_bbox_inside_weights_roi_head-data_3_split_0
I0704 20:55:55.697249 22667 net.cpp:418] head_bbox_inside_weights_roi_head-data_3_split -> head_bbox_inside_weights_roi_head-data_3_split_1
I0704 20:55:55.697295 22667 net.cpp:150] Setting up head_bbox_inside_weights_roi_head-data_3_split
I0704 20:55:55.697304 22667 net.cpp:157] Top shape: 1 8 1 1 (8)
I0704 20:55:55.697309 22667 net.cpp:157] Top shape: 1 8 1 1 (8)
I0704 20:55:55.697312 22667 net.cpp:165] Memory required for data: 6760973656
I0704 20:55:55.697317 22667 layer_factory.hpp:77] Creating layer head_bbox_outside_weights_roi_head-data_4_split
I0704 20:55:55.697326 22667 net.cpp:100] Creating Layer head_bbox_outside_weights_roi_head-data_4_split
I0704 20:55:55.697332 22667 net.cpp:444] head_bbox_outside_weights_roi_head-data_4_split <- head_bbox_outside_weights
I0704 20:55:55.697346 22667 net.cpp:418] head_bbox_outside_weights_roi_head-data_4_split -> head_bbox_outside_weights_roi_head-data_4_split_0
I0704 20:55:55.697362 22667 net.cpp:418] head_bbox_outside_weights_roi_head-data_4_split -> head_bbox_outside_weights_roi_head-data_4_split_1
I0704 20:55:55.697404 22667 net.cpp:150] Setting up head_bbox_outside_weights_roi_head-data_4_split
I0704 20:55:55.697412 22667 net.cpp:157] Top shape: 1 8 1 1 (8)
I0704 20:55:55.697418 22667 net.cpp:157] Top shape: 1 8 1 1 (8)
I0704 20:55:55.697422 22667 net.cpp:165] Memory required for data: 6760973720
I0704 20:55:55.697425 22667 layer_factory.hpp:77] Creating layer conv_new_1
I0704 20:55:55.697448 22667 net.cpp:100] Creating Layer conv_new_1
I0704 20:55:55.697456 22667 net.cpp:444] conv_new_1 <- res5c_res5c_relu_0_split_0
I0704 20:55:55.697473 22667 net.cpp:418] conv_new_1 -> conv_new_1
I0704 20:55:55.912621 22667 cudnn_conv_layer.cpp:194] Reallocating workspace storage: 92952
I0704 20:55:55.912663 22667 net.cpp:150] Setting up conv_new_1
I0704 20:55:55.912679 22667 net.cpp:157] Top shape: 1 1024 60 80 (4915200)
I0704 20:55:55.912683 22667 net.cpp:165] Memory required for data: 6780634520
I0704 20:55:55.912706 22667 layer_factory.hpp:77] Creating layer conv_new_1_relu
I0704 20:55:55.912729 22667 net.cpp:100] Creating Layer conv_new_1_relu
I0704 20:55:55.912740 22667 net.cpp:444] conv_new_1_relu <- conv_new_1
I0704 20:55:55.912762 22667 net.cpp:405] conv_new_1_relu -> conv_new_1 (in-place)
I0704 20:55:55.913167 22667 net.cpp:150] Setting up conv_new_1_relu
I0704 20:55:55.913177 22667 net.cpp:157] Top shape: 1 1024 60 80 (4915200)
I0704 20:55:55.913179 22667 net.cpp:165] Memory required for data: 6800295320
I0704 20:55:55.913198 22667 layer_factory.hpp:77] Creating layer conv_new_1_conv_new_1_relu_0_split
I0704 20:55:55.913213 22667 net.cpp:100] Creating Layer conv_new_1_conv_new_1_relu_0_split
I0704 20:55:55.913219 22667 net.cpp:444] conv_new_1_conv_new_1_relu_0_split <- conv_new_1
I0704 20:55:55.913234 22667 net.cpp:418] conv_new_1_conv_new_1_relu_0_split -> conv_new_1_conv_new_1_relu_0_split_0
I0704 20:55:55.913252 22667 net.cpp:418] conv_new_1_conv_new_1_relu_0_split -> conv_new_1_conv_new_1_relu_0_split_1
I0704 20:55:55.913305 22667 net.cpp:150] Setting up conv_new_1_conv_new_1_relu_0_split
I0704 20:55:55.913314 22667 net.cpp:157] Top shape: 1 1024 60 80 (4915200)
I0704 20:55:55.913321 22667 net.cpp:157] Top shape: 1 1024 60 80 (4915200)
I0704 20:55:55.913323 22667 net.cpp:165] Memory required for data: 6839616920
I0704 20:55:55.913328 22667 layer_factory.hpp:77] Creating layer rfcn_cls
I0704 20:55:55.913349 22667 net.cpp:100] Creating Layer rfcn_cls
I0704 20:55:55.913357 22667 net.cpp:444] rfcn_cls <- conv_new_1_conv_new_1_relu_0_split_0
I0704 20:55:55.913374 22667 net.cpp:418] rfcn_cls -> rfcn_cls
I0704 20:55:55.930428 22667 cudnn_conv_layer.cpp:194] Reallocating workspace storage: 92952
I0704 20:55:55.930471 22667 net.cpp:150] Setting up rfcn_cls
I0704 20:55:55.930485 22667 net.cpp:157] Top shape: 1 147 60 80 (705600)
I0704 20:55:55.930490 22667 net.cpp:165] Memory required for data: 6842439320
I0704 20:55:55.930510 22667 layer_factory.hpp:77] Creating layer rfcn_bbox
I0704 20:55:55.930544 22667 net.cpp:100] Creating Layer rfcn_bbox
I0704 20:55:55.930557 22667 net.cpp:444] rfcn_bbox <- conv_new_1_conv_new_1_relu_0_split_1
I0704 20:55:55.930578 22667 net.cpp:418] rfcn_bbox -> rfcn_bbox
I0704 20:55:55.973300 22667 cudnn_conv_layer.cpp:194] Reallocating workspace storage: 92952
I0704 20:55:55.973331 22667 net.cpp:150] Setting up rfcn_bbox
I0704 20:55:55.973347 22667 net.cpp:157] Top shape: 1 392 60 80 (1881600)
I0704 20:55:55.973351 22667 net.cpp:165] Memory required for data: 6849965720
I0704 20:55:55.973372 22667 layer_factory.hpp:77] Creating layer head_conv_new_1
I0704 20:55:55.973408 22667 net.cpp:100] Creating Layer head_conv_new_1
I0704 20:55:55.973420 22667 net.cpp:444] head_conv_new_1 <- res5c_res5c_relu_0_split_1
I0704 20:55:55.973444 22667 net.cpp:418] head_conv_new_1 -> head_conv_new_1
I0704 20:55:56.188450 22667 cudnn_conv_layer.cpp:194] Reallocating workspace storage: 92952
I0704 20:55:56.188494 22667 net.cpp:150] Setting up head_conv_new_1
I0704 20:55:56.188524 22667 net.cpp:157] Top shape: 1 1024 60 80 (4915200)
I0704 20:55:56.188529 22667 net.cpp:165] Memory required for data: 6869626520
I0704 20:55:56.188552 22667 layer_factory.hpp:77] Creating layer head_conv_new_1_relu
I0704 20:55:56.188576 22667 net.cpp:100] Creating Layer head_conv_new_1_relu
I0704 20:55:56.188588 22667 net.cpp:444] head_conv_new_1_relu <- head_conv_new_1
I0704 20:55:56.188607 22667 net.cpp:405] head_conv_new_1_relu -> head_conv_new_1 (in-place)
I0704 20:55:56.188758 22667 net.cpp:150] Setting up head_conv_new_1_relu
I0704 20:55:56.188766 22667 net.cpp:157] Top shape: 1 1024 60 80 (4915200)
I0704 20:55:56.188768 22667 net.cpp:165] Memory required for data: 6889287320
I0704 20:55:56.188773 22667 layer_factory.hpp:77] Creating layer head_conv_new_1_head_conv_new_1_relu_0_split
I0704 20:55:56.188786 22667 net.cpp:100] Creating Layer head_conv_new_1_head_conv_new_1_relu_0_split
I0704 20:55:56.188792 22667 net.cpp:444] head_conv_new_1_head_conv_new_1_relu_0_split <- head_conv_new_1
I0704 20:55:56.188807 22667 net.cpp:418] head_conv_new_1_head_conv_new_1_relu_0_split -> head_conv_new_1_head_conv_new_1_relu_0_split_0
I0704 20:55:56.188827 22667 net.cpp:418] head_conv_new_1_head_conv_new_1_relu_0_split -> head_conv_new_1_head_conv_new_1_relu_0_split_1
I0704 20:55:56.188877 22667 net.cpp:150] Setting up head_conv_new_1_head_conv_new_1_relu_0_split
I0704 20:55:56.188887 22667 net.cpp:157] Top shape: 1 1024 60 80 (4915200)
I0704 20:55:56.188894 22667 net.cpp:157] Top shape: 1 1024 60 80 (4915200)
I0704 20:55:56.188896 22667 net.cpp:165] Memory required for data: 6928608920
I0704 20:55:56.188901 22667 layer_factory.hpp:77] Creating layer head_rfcn_cls
I0704 20:55:56.188922 22667 net.cpp:100] Creating Layer head_rfcn_cls
I0704 20:55:56.188930 22667 net.cpp:444] head_rfcn_cls <- head_conv_new_1_head_conv_new_1_relu_0_split_0
I0704 20:55:56.188948 22667 net.cpp:418] head_rfcn_cls -> head_rfcn_cls
I0704 20:55:56.205338 22667 cudnn_conv_layer.cpp:194] Reallocating workspace storage: 92952
I0704 20:55:56.205368 22667 net.cpp:150] Setting up head_rfcn_cls
I0704 20:55:56.205382 22667 net.cpp:157] Top shape: 1 147 60 80 (705600)
I0704 20:55:56.205385 22667 net.cpp:165] Memory required for data: 6931431320
I0704 20:55:56.205407 22667 layer_factory.hpp:77] Creating layer head_rfcn_bbox
I0704 20:55:56.205440 22667 net.cpp:100] Creating Layer head_rfcn_bbox
I0704 20:55:56.205451 22667 net.cpp:444] head_rfcn_bbox <- head_conv_new_1_head_conv_new_1_relu_0_split_1
I0704 20:55:56.205473 22667 net.cpp:418] head_rfcn_bbox -> head_rfcn_bbox
I0704 20:55:56.247997 22667 cudnn_conv_layer.cpp:194] Reallocating workspace storage: 92952
I0704 20:55:56.248040 22667 net.cpp:150] Setting up head_rfcn_bbox
I0704 20:55:56.248056 22667 net.cpp:157] Top shape: 1 392 60 80 (1881600)
I0704 20:55:56.248059 22667 net.cpp:165] Memory required for data: 6938957720
I0704 20:55:56.248080 22667 layer_factory.hpp:77] Creating layer psroipooled_cls_rois
I0704 20:55:56.248106 22667 net.cpp:100] Creating Layer psroipooled_cls_rois
I0704 20:55:56.248116 22667 net.cpp:444] psroipooled_cls_rois <- rfcn_cls
I0704 20:55:56.248133 22667 net.cpp:444] psroipooled_cls_rois <- rois_roi-data_0_split_0
I0704 20:55:56.248147 22667 net.cpp:418] psroipooled_cls_rois -> psroipooled_cls_rois
I0704 20:55:56.248169 22667 psroi_pooling_layer.cpp:26] Spatial scale: 0.0625
I0704 20:55:56.248219 22667 net.cpp:150] Setting up psroipooled_cls_rois
I0704 20:55:56.248227 22667 net.cpp:157] Top shape: 1 3 7 7 (147)
I0704 20:55:56.248230 22667 net.cpp:165] Memory required for data: 6938958308
I0704 20:55:56.248235 22667 layer_factory.hpp:77] Creating layer ave_cls_score_rois
I0704 20:55:56.248250 22667 net.cpp:100] Creating Layer ave_cls_score_rois
I0704 20:55:56.248255 22667 net.cpp:444] ave_cls_score_rois <- psroipooled_cls_rois
I0704 20:55:56.248270 22667 net.cpp:418] ave_cls_score_rois -> cls_score
I0704 20:55:56.248448 22667 net.cpp:150] Setting up ave_cls_score_rois
I0704 20:55:56.248458 22667 net.cpp:157] Top shape: 1 3 1 1 (3)
I0704 20:55:56.248476 22667 net.cpp:165] Memory required for data: 6938958320
I0704 20:55:56.248481 22667 layer_factory.hpp:77] Creating layer cls_score_ave_cls_score_rois_0_split
I0704 20:55:56.248493 22667 net.cpp:100] Creating Layer cls_score_ave_cls_score_rois_0_split
I0704 20:55:56.248499 22667 net.cpp:444] cls_score_ave_cls_score_rois_0_split <- cls_score
I0704 20:55:56.248514 22667 net.cpp:418] cls_score_ave_cls_score_rois_0_split -> cls_score_ave_cls_score_rois_0_split_0
I0704 20:55:56.248530 22667 net.cpp:418] cls_score_ave_cls_score_rois_0_split -> cls_score_ave_cls_score_rois_0_split_1
I0704 20:55:56.248544 22667 net.cpp:418] cls_score_ave_cls_score_rois_0_split -> cls_score_ave_cls_score_rois_0_split_2
I0704 20:55:56.248605 22667 net.cpp:150] Setting up cls_score_ave_cls_score_rois_0_split
I0704 20:55:56.248613 22667 net.cpp:157] Top shape: 1 3 1 1 (3)
I0704 20:55:56.248620 22667 net.cpp:157] Top shape: 1 3 1 1 (3)
I0704 20:55:56.248625 22667 net.cpp:157] Top shape: 1 3 1 1 (3)
I0704 20:55:56.248627 22667 net.cpp:165] Memory required for data: 6938958356
I0704 20:55:56.248632 22667 layer_factory.hpp:77] Creating layer psroipooled_loc_rois
I0704 20:55:56.248643 22667 net.cpp:100] Creating Layer psroipooled_loc_rois
I0704 20:55:56.248649 22667 net.cpp:444] psroipooled_loc_rois <- rfcn_bbox
I0704 20:55:56.248662 22667 net.cpp:444] psroipooled_loc_rois <- rois_roi-data_0_split_1
I0704 20:55:56.248677 22667 net.cpp:418] psroipooled_loc_rois -> psroipooled_loc_rois
I0704 20:55:56.248690 22667 psroi_pooling_layer.cpp:26] Spatial scale: 0.0625
I0704 20:55:56.248733 22667 net.cpp:150] Setting up psroipooled_loc_rois
I0704 20:55:56.248742 22667 net.cpp:157] Top shape: 1 8 7 7 (392)
I0704 20:55:56.248745 22667 net.cpp:165] Memory required for data: 6938959924
I0704 20:55:56.248750 22667 layer_factory.hpp:77] Creating layer ave_bbox_pred_rois
I0704 20:55:56.248761 22667 net.cpp:100] Creating Layer ave_bbox_pred_rois
I0704 20:55:56.248767 22667 net.cpp:444] ave_bbox_pred_rois <- psroipooled_loc_rois
I0704 20:55:56.248783 22667 net.cpp:418] ave_bbox_pred_rois -> bbox_pred
I0704 20:55:56.248942 22667 net.cpp:150] Setting up ave_bbox_pred_rois
I0704 20:55:56.248951 22667 net.cpp:157] Top shape: 1 8 1 1 (8)
I0704 20:55:56.248955 22667 net.cpp:165] Memory required for data: 6938959956
I0704 20:55:56.248961 22667 layer_factory.hpp:77] Creating layer bbox_pred_ave_bbox_pred_rois_0_split
I0704 20:55:56.248972 22667 net.cpp:100] Creating Layer bbox_pred_ave_bbox_pred_rois_0_split
I0704 20:55:56.248978 22667 net.cpp:444] bbox_pred_ave_bbox_pred_rois_0_split <- bbox_pred
I0704 20:55:56.248993 22667 net.cpp:418] bbox_pred_ave_bbox_pred_rois_0_split -> bbox_pred_ave_bbox_pred_rois_0_split_0
I0704 20:55:56.249009 22667 net.cpp:418] bbox_pred_ave_bbox_pred_rois_0_split -> bbox_pred_ave_bbox_pred_rois_0_split_1
I0704 20:55:56.249056 22667 net.cpp:150] Setting up bbox_pred_ave_bbox_pred_rois_0_split
I0704 20:55:56.249065 22667 net.cpp:157] Top shape: 1 8 1 1 (8)
I0704 20:55:56.249070 22667 net.cpp:157] Top shape: 1 8 1 1 (8)
I0704 20:55:56.249073 22667 net.cpp:165] Memory required for data: 6938960020
I0704 20:55:56.249078 22667 layer_factory.hpp:77] Creating layer per_roi_loss_cls
I0704 20:55:56.249091 22667 net.cpp:100] Creating Layer per_roi_loss_cls
I0704 20:55:56.249099 22667 net.cpp:444] per_roi_loss_cls <- cls_score_ave_cls_score_rois_0_split_0
I0704 20:55:56.249110 22667 net.cpp:444] per_roi_loss_cls <- labels_roi-data_1_split_0
I0704 20:55:56.249122 22667 net.cpp:418] per_roi_loss_cls -> temp_loss_cls
I0704 20:55:56.249140 22667 net.cpp:418] per_roi_loss_cls -> temp_prob_cls
I0704 20:55:56.249153 22667 net.cpp:418] per_roi_loss_cls -> per_roi_loss_cls
I0704 20:55:56.249169 22667 layer_factory.hpp:77] Creating layer per_roi_loss_cls
I0704 20:55:56.249665 22667 net.cpp:150] Setting up per_roi_loss_cls
I0704 20:55:56.249676 22667 net.cpp:157] Top shape: (1)
I0704 20:55:56.249681 22667 net.cpp:157] Top shape: 1 3 1 1 (3)
I0704 20:55:56.249686 22667 net.cpp:157] Top shape: 1 1 1 1 (1)
I0704 20:55:56.249689 22667 net.cpp:165] Memory required for data: 6938960040
I0704 20:55:56.249694 22667 layer_factory.hpp:77] Creating layer per_roi_loss_bbox
I0704 20:55:56.249708 22667 net.cpp:100] Creating Layer per_roi_loss_bbox
I0704 20:55:56.249716 22667 net.cpp:444] per_roi_loss_bbox <- bbox_pred_ave_bbox_pred_rois_0_split_0
I0704 20:55:56.249728 22667 net.cpp:444] per_roi_loss_bbox <- bbox_targets_roi-data_2_split_0
I0704 20:55:56.249737 22667 net.cpp:444] per_roi_loss_bbox <- bbox_inside_weights_roi-data_3_split_0
I0704 20:55:56.249750 22667 net.cpp:418] per_roi_loss_bbox -> temp_loss_bbox
I0704 20:55:56.249768 22667 net.cpp:418] per_roi_loss_bbox -> per_roi_loss_bbox
I0704 20:55:56.249831 22667 net.cpp:150] Setting up per_roi_loss_bbox
I0704 20:55:56.249840 22667 net.cpp:157] Top shape: (1)
I0704 20:55:56.249845 22667 net.cpp:157] Top shape: 1 1 1 1 (1)
I0704 20:55:56.249848 22667 net.cpp:165] Memory required for data: 6938960048
I0704 20:55:56.249853 22667 layer_factory.hpp:77] Creating layer per_roi_loss
I0704 20:55:56.249866 22667 net.cpp:100] Creating Layer per_roi_loss
I0704 20:55:56.249872 22667 net.cpp:444] per_roi_loss <- per_roi_loss_cls
I0704 20:55:56.249884 22667 net.cpp:444] per_roi_loss <- per_roi_loss_bbox
I0704 20:55:56.249896 22667 net.cpp:418] per_roi_loss -> per_roi_loss
I0704 20:55:56.249933 22667 net.cpp:150] Setting up per_roi_loss
I0704 20:55:56.249940 22667 net.cpp:157] Top shape: 1 1 1 1 (1)
I0704 20:55:56.249943 22667 net.cpp:165] Memory required for data: 6938960052
I0704 20:55:56.249948 22667 layer_factory.hpp:77] Creating layer annotator_detector
I0704 20:55:56.249963 22667 net.cpp:100] Creating Layer annotator_detector
I0704 20:55:56.249969 22667 net.cpp:444] annotator_detector <- rois_roi-data_0_split_2
I0704 20:55:56.249980 22667 net.cpp:444] annotator_detector <- per_roi_loss
I0704 20:55:56.249989 22667 net.cpp:444] annotator_detector <- labels_roi-data_1_split_1
I0704 20:55:56.249997 22667 net.cpp:444] annotator_detector <- bbox_inside_weights_roi-data_3_split_1
I0704 20:55:56.250007 22667 net.cpp:418] annotator_detector -> labels_ohem
I0704 20:55:56.250025 22667 net.cpp:418] annotator_detector -> bbox_loss_weights_ohem
I0704 20:55:56.250075 22667 net.cpp:150] Setting up annotator_detector
I0704 20:55:56.250083 22667 net.cpp:157] Top shape: 1 1 1 1 (1)
I0704 20:55:56.250088 22667 net.cpp:157] Top shape: 1 8 1 1 (8)
I0704 20:55:56.250092 22667 net.cpp:165] Memory required for data: 6938960088
I0704 20:55:56.250097 22667 layer_factory.hpp:77] Creating layer labels_ohem_annotator_detector_0_split
I0704 20:55:56.250108 22667 net.cpp:100] Creating Layer labels_ohem_annotator_detector_0_split
I0704 20:55:56.250113 22667 net.cpp:444] labels_ohem_annotator_detector_0_split <- labels_ohem
I0704 20:55:56.250128 22667 net.cpp:418] labels_ohem_annotator_detector_0_split -> labels_ohem_annotator_detector_0_split_0
I0704 20:55:56.250142 22667 net.cpp:418] labels_ohem_annotator_detector_0_split -> labels_ohem_annotator_detector_0_split_1
I0704 20:55:56.250188 22667 net.cpp:150] Setting up labels_ohem_annotator_detector_0_split
I0704 20:55:56.250197 22667 net.cpp:157] Top shape: 1 1 1 1 (1)
I0704 20:55:56.250202 22667 net.cpp:157] Top shape: 1 1 1 1 (1)
I0704 20:55:56.250205 22667 net.cpp:165] Memory required for data: 6938960096
I0704 20:55:56.250210 22667 layer_factory.hpp:77] Creating layer silence
I0704 20:55:56.250221 22667 net.cpp:100] Creating Layer silence
I0704 20:55:56.250226 22667 net.cpp:444] silence <- bbox_outside_weights
I0704 20:55:56.250238 22667 net.cpp:444] silence <- head_bbox_outside_weights_roi_head-data_4_split_0
…
I0704 20:55:56.250809 22667 layer_factory.hpp:77] Creating layer head_psroipooled_cls_rois
I0704 20:55:56.250820 22667 net.cpp:100] Creating Layer head_psroipooled_cls_rois
I0704 20:55:56.250828 22667 net.cpp:444] head_psroipooled_cls_rois <- head_rfcn_cls
I0704 20:55:56.250839 22667 net.cpp:444] head_psroipooled_cls_rois <- rois_head_roi_head-data_0_split_0
I0704 20:55:56.250852 22667 net.cpp:418] head_psroipooled_cls_rois -> head_psroipooled_cls_rois
I0704 20:55:56.250867 22667 psroi_pooling_layer.cpp:26] Spatial scale: 0.0625
I0704 20:55:56.250912 22667 net.cpp:150] Setting up head_psroipooled_cls_rois
I0704 20:55:56.250919 22667 net.cpp:157] Top shape: 1 3 7 7 (147)
I0704 20:55:56.250923 22667 net.cpp:165] Memory required for data: 6938960696
I0704 20:55:56.250928 22667 layer_factory.hpp:77] Creating layer head_ave_cls_score_rois
I0704 20:55:56.250941 22667 net.cpp:100] Creating Layer head_ave_cls_score_rois
I0704 20:55:56.250947 22667 net.cpp:444] head_ave_cls_score_rois <- head_psroipooled_cls_rois
I0704 20:55:56.250963 22667 net.cpp:418] head_ave_cls_score_rois -> head_cls_score
I0704 20:55:56.251125 22667 net.cpp:150] Setting up head_ave_cls_score_rois
I0704 20:55:56.251134 22667 net.cpp:157] Top shape: 1 3 1 1 (3)
I0704 20:55:56.251137 22667 net.cpp:165] Memory required for data: 6938960708
I0704 20:55:56.251142 22667 layer_factory.hpp:77] Creating layer head_cls_score_head_ave_cls_score_rois_0_split
I0704 20:55:56.251153 22667 net.cpp:100] Creating Layer head_cls_score_head_ave_cls_score_rois_0_split
I0704 20:55:56.251159 22667 net.cpp:444] head_cls_score_head_ave_cls_score_rois_0_split <- head_cls_score
I0704 20:55:56.251174 22667 net.cpp:418] head_cls_score_head_ave_cls_score_rois_0_split -> head_cls_score_head_ave_cls_score_rois_0_split_0
I0704 20:55:56.251193 22667 net.cpp:418] head_cls_score_head_ave_cls_score_rois_0_split -> head_cls_score_head_ave_cls_score_rois_0_split_1
I0704 20:55:56.251206 22667 net.cpp:418] head_cls_score_head_ave_cls_score_rois_0_split -> head_cls_score_head_ave_cls_score_rois_0_split_2
I0704 20:55:56.251266 22667 net.cpp:150] Setting up head_cls_score_head_ave_cls_score_rois_0_split
I0704 20:55:56.251273 22667 net.cpp:157] Top shape: 1 3 1 1 (3)
I0704 20:55:56.251279 22667 net.cpp:157] Top shape: 1 3 1 1 (3)
I0704 20:55:56.251284 22667 net.cpp:157] Top shape: 1 3 1 1 (3)
I0704 20:55:56.251287 22667 net.cpp:165] Memory required for data: 6938960744
I0704 20:55:56.251291 22667 layer_factory.hpp:77] Creating layer head_psroipooled_loc_rois
I0704 20:55:56.251305 22667 net.cpp:100] Creating Layer head_psroipooled_loc_rois
I0704 20:55:56.251312 22667 net.cpp:444] head_psroipooled_loc_rois <- head_rfcn_bbox
I0704 20:55:56.251323 22667 net.cpp:444] head_psroipooled_loc_rois <- rois_head_roi_head-data_0_split_1
I0704 20:55:56.251334 22667 net.cpp:418] head_psroipooled_loc_rois -> head_psroipooled_loc_rois
I0704 20:55:56.251351 22667 psroi_pooling_layer.cpp:26] Spatial scale: 0.0625
I0704 20:55:56.251394 22667 net.cpp:150] Setting up head_psroipooled_loc_rois
I0704 20:55:56.251401 22667 net.cpp:157] Top shape: 1 8 7 7 (392)
I0704 20:55:56.251405 22667 net.cpp:165] Memory required for data: 6938962312
I0704 20:55:56.251410 22667 layer_factory.hpp:77] Creating layer head_ave_bbox_pred_rois
I0704 20:55:56.251422 22667 net.cpp:100] Creating Layer head_ave_bbox_pred_rois
I0704 20:55:56.251430 22667 net.cpp:444] head_ave_bbox_pred_rois <- head_psroipooled_loc_rois
I0704 20:55:56.251443 22667 net.cpp:418] head_ave_bbox_pred_rois -> head_bbox_pred
I0704 20:55:56.251847 22667 net.cpp:150] Setting up head_ave_bbox_pred_rois
I0704 20:55:56.251857 22667 net.cpp:157] Top shape: 1 8 1 1 (8)
I0704 20:55:56.251862 22667 net.cpp:165] Memory required for data: 6938962344
I0704 20:55:56.251866 22667 layer_factory.hpp:77] Creating layer head_bbox_pred_head_ave_bbox_pred_rois_0_split
I0704 20:55:56.251878 22667 net.cpp:100] Creating Layer head_bbox_pred_head_ave_bbox_pred_rois_0_split
I0704 20:55:56.251884 22667 net.cpp:444] head_bbox_pred_head_ave_bbox_pred_rois_0_split <- head_bbox_pred
I0704 20:55:56.251899 22667 net.cpp:418] head_bbox_pred_head_ave_bbox_pred_rois_0_split -> head_bbox_pred_head_ave_bbox_pred_rois_0_split_0
I0704 20:55:56.251916 22667 net.cpp:418] head_bbox_pred_head_ave_bbox_pred_rois_0_split -> head_bbox_pred_head_ave_bbox_pred_rois_0_split_1
I0704 20:55:56.251965 22667 net.cpp:150] Setting up head_bbox_pred_head_ave_bbox_pred_rois_0_split
I0704 20:55:56.251973 22667 net.cpp:157] Top shape: 1 8 1 1 (8)
I0704 20:55:56.251978 22667 net.cpp:157] Top shape: 1 8 1 1 (8)
I0704 20:55:56.251981 22667 net.cpp:165] Memory required for data: 6938962408
I0704 20:55:56.251987 22667 layer_factory.hpp:77] Creating layer head_per_roi_loss_cls
I0704 20:55:56.251998 22667 net.cpp:100] Creating Layer head_per_roi_loss_cls
I0704 20:55:56.252004 22667 net.cpp:444] head_per_roi_loss_cls <- head_cls_score_head_ave_cls_score_rois_0_split_0
I0704 20:55:56.252017 22667 net.cpp:444] head_per_roi_loss_cls <- head_labels_roi_head-data_1_split_0
I0704 20:55:56.252032 22667 net.cpp:418] head_per_roi_loss_cls -> head_temp_loss_cls
I0704 20:55:56.252048 22667 net.cpp:418] head_per_roi_loss_cls -> head_temp_prob_cls
I0704 20:55:56.252061 22667 net.cpp:418] head_per_roi_loss_cls -> head_per_roi_loss_cls
I0704 20:55:56.252076 22667 layer_factory.hpp:77] Creating layer head_per_roi_loss_cls
I0704 20:55:56.252308 22667 net.cpp:150] Setting up head_per_roi_loss_cls
I0704 20:55:56.252317 22667 net.cpp:157] Top shape: (1)
I0704 20:55:56.252322 22667 net.cpp:157] Top shape: 1 3 1 1 (3)
I0704 20:55:56.252326 22667 net.cpp:157] Top shape: 1 1 1 1 (1)
I0704 20:55:56.252331 22667 net.cpp:165] Memory required for data: 6938962428
I0704 20:55:56.252336 22667 layer_factory.hpp:77] Creating layer head_per_roi_loss_bbox
I0704 20:55:56.252348 22667 net.cpp:100] Creating Layer head_per_roi_loss_bbox
I0704 20:55:56.252354 22667 net.cpp:444] head_per_roi_loss_bbox <- head_bbox_pred_head_ave_bbox_pred_rois_0_split_0
I0704 20:55:56.252367 22667 net.cpp:444] head_per_roi_loss_bbox <- head_bbox_targets_roi_head-data_2_split_0
I0704 20:55:56.252375 22667 net.cpp:444] head_per_roi_loss_bbox <- head_bbox_inside_weights_roi_head-data_3_split_0
I0704 20:55:56.252388 22667 net.cpp:418] head_per_roi_loss_bbox -> head_temp_loss_bbox
I0704 20:55:56.252404 22667 net.cpp:418] head_per_roi_loss_bbox -> head_per_roi_loss_bbox
I0704 20:55:56.252470 22667 net.cpp:150] Setting up head_per_roi_loss_bbox
I0704 20:55:56.252478 22667 net.cpp:157] Top shape: (1)
I0704 20:55:56.252485 22667 net.cpp:157] Top shape: 1 1 1 1 (1)
I0704 20:55:56.252487 22667 net.cpp:165] Memory required for data: 6938962436
I0704 20:55:56.252492 22667 layer_factory.hpp:77] Creating layer head_per_roi_loss
I0704 20:55:56.252504 22667 net.cpp:100] Creating Layer head_per_roi_loss
I0704 20:55:56.252511 22667 net.cpp:444] head_per_roi_loss <- head_per_roi_loss_cls
I0704 20:55:56.252522 22667 net.cpp:444] head_per_roi_loss <- head_per_roi_loss_bbox
I0704 20:55:56.252533 22667 net.cpp:418] head_per_roi_loss -> head_per_roi_loss
I0704 20:55:56.252569 22667 net.cpp:150] Setting up head_per_roi_loss
I0704 20:55:56.252578 22667 net.cpp:157] Top shape: 1 1 1 1 (1)
I0704 20:55:56.252581 22667 net.cpp:165] Memory required for data: 6938962440
I0704 20:55:56.252586 22667 layer_factory.hpp:77] Creating layer head_annotator_detector
I0704 20:55:56.252599 22667 net.cpp:100] Creating Layer head_annotator_detector
I0704 20:55:56.252605 22667 net.cpp:444] head_annotator_detector <- rois_head_roi_head-data_0_split_2
I0704 20:55:56.252617 22667 net.cpp:444] head_annotator_detector <- head_per_roi_loss
I0704 20:55:56.252625 22667 net.cpp:444] head_annotator_detector <- head_labels_roi_head-data_1_split_1
I0704 20:55:56.252635 22667 net.cpp:444] head_annotator_detector <- head_bbox_inside_weights_roi_head-data_3_split_1
I0704 20:55:56.252646 22667 net.cpp:418] head_annotator_detector -> head_labels_ohem
I0704 20:55:56.252662 22667 net.cpp:418] head_annotator_detector -> head_bbox_loss_weights_ohem
I0704 20:55:56.252712 22667 net.cpp:150] Setting up head_annotator_detector
I0704 20:55:56.252722 22667 net.cpp:157] Top shape: 1 1 1 1 (1)
I0704 20:55:56.252727 22667 net.cpp:157] Top shape: 1 8 1 1 (8)
I0704 20:55:56.252729 22667 net.cpp:165] Memory required for data: 6938962476
I0704 20:55:56.252734 22667 layer_factory.hpp:77] Creating layer head_labels_ohem_head_annotator_detector_0_split
I0704 20:55:56.252744 22667 net.cpp:100] Creating Layer head_labels_ohem_head_annotator_detector_0_split
I0704 20:55:56.252750 22667 net.cpp:444] head_labels_ohem_head_annotator_detector_0_split <- head_labels_ohem
I0704 20:55:56.252764 22667 net.cpp:418] head_labels_ohem_head_annotator_detector_0_split -> head_labels_ohem_head_annotator_detector_0_split_0
I0704 20:55:56.252780 22667 net.cpp:418] head_labels_ohem_head_annotator_detector_0_split -> head_labels_ohem_head_annotator_detector_0_split_1
I0704 20:55:56.252825 22667 net.cpp:150] Setting up head_labels_ohem_head_annotator_detector_0_split
I0704 20:55:56.252835 22667 net.cpp:157] Top shape: 1 1 1 1 (1)
I0704 20:55:56.252840 22667 net.cpp:157] Top shape: 1 1 1 1 (1)
I0704 20:55:56.252842 22667 net.cpp:165] Memory required for data: 6938962484
I0704 20:55:56.252847 22667 layer_factory.hpp:77] Creating layer silence
I0704 20:55:56.252858 22667 net.cpp:100] Creating Layer silence
I0704 20:55:56.252864 22667 net.cpp:444] silence <- head_bbox_outside_weights_roi_head-data_4_split_1
I0704 20:55:56.252876 22667 net.cpp:444] silence <- head_temp_loss_cls
I0704 20:55:56.252884 22667 net.cpp:444] silence <- head_temp_prob_cls
…
