…
snapshot_prefix: "resnet50_rfcn_ohem"
iter_size: 8
I0704 21:49:08.214970 23533 solver.cpp:81] Creating training net from train_net file: /home/user/Disk1.8T/py-R-FCN/experiments/7_1_head_body_un/train_agnostic_ohem.prototxt
I0704 21:49:08.217396 23533 net.cpp:58] Initializing net from parameters: 
name: "ResNet-50"
state {
  phase: TRAIN
}
layer {
  name: "input-data"
  type: "Python"
  top: "data"
  top: "im_info"
  top: "gt_boxes"
  top: "head_gt_boxes"
  python_param {
    module: "roi_data_layer.layer"
    layer: "RoIDataLayer"
    param_str: "\'num_classes\': 3"
  }
}
layer {
  name: "conv1"
  type: "Convolution"
  bottom: "data"
  top: "conv1"
  param {
    lr_mult: 0
  }
  param {
    lr_mult: 0
  }
  convolution_param {
    num_output: 64
    pad: 3
    kernel_size: 7
    stride: 2
  }
}
layer {
  name: "bn_conv1"
  type: "BatchNorm"
  bottom: "conv1"
  top: "conv1"
  param {
    lr_mult: 0
    decay_mult: 0
  }
  param {
    lr_mult: 0
    decay_mult: 0
  }
  param {
    lr_mult: 0
    decay_mult: 0
  }
  batch_norm_param {
    use_global_stats: true
  }
}
layer {
  name: "scale_conv1"
  type: "Scale"
  bottom: "conv1"
  top: "conv1"
  param {
    lr_mult: 0
    decay_mult: 0
  }
  param {
    lr_mult: 0
    decay_mult: 0
  }
  scale_param {
    bias_term: true
  }
}
layer {
  name: "conv1_relu"
  type: "ReLU"
  bottom: "conv1"
  top: "conv1"
}
layer {
  name: "pool1"
  type: "Pooling"
  bottom: "conv1"
  top: "pool1"
  pooling_param {
    pool: MAX
    kernel_size: 3
    stride: 2
  }
}
layer {
  name: "res2a_branch1"
  type: "Convolution"
  bottom: "pool1"
  top: "res2a_branch1"
  param {
    lr_mult: 0
  }
  convolution_param {
    num_output: 256
    bias_term: false
    pad: 0
    kernel_size: 1
    stride: 1
  }
}
layer {
  name: "bn2a_branch1"
  type: "BatchNorm"
  bottom: "res2a_branch1"
  top: "res2a_branch1"
  param {
    lr_mult: 0
    decay_mult: 0
  }
  param {
    lr_mult: 0
    decay_mult: 0
  }
  param {
    lr_mult: 0
    decay_mult: 0
  }
  batch_norm_param {
    use_global_stats: true
  }
}
layer {
  name: "scale2a_branch1"
  type: "Scale"
  bottom: "res2a_branch1"
  top: "res2a_branch1"
  param {
    lr_mult: 0
    decay_mult: 0
  }
  param {
    lr_mult: 0
    decay_mult: 0
  }
  scale_param {
    bias_term: true
  }
}
layer {
  name: "res2a_branch2a"
  type: "Convolution"
  bottom: "pool1"
  top: "res2a_branch2a"
  param {
    lr_mult: 0
  }
  convolution_param {
    num_output: 64
    bias_term: false
    pad: 0
    kernel_size: 1
    stride: 1
  }
}
layer {
  name: "bn2a_branch2a"
  type: "BatchNorm"
  bottom: "res2a_branch2a"
  top: "res2a_branch2a"
  param {
    lr_mult: 0
    decay_mult: 0
  }
  param {
    lr_mult: 0
    decay_mult: 0
  }
  param {
    lr_mult: 0
    decay_mult: 0
  }
  batch_norm_param {
    use_global_stats: true
  }
}
layer {
  name: "scale2a_branch2a"
  type: "Scale"
  bottom: "res2a_branch2a"
  top: "res2a_branch2a"
  param {
    lr_mult: 0
    decay_mult: 0
  }
  param {
    lr_mult: 0
    decay_mult: 0
  }
  scale_param {
    bias_term: true
  }
}
layer {
  name: "res2a_branch2a_relu"
  type: "ReLU"
  bottom: "res2a_branch2a"
  top: "res2a_branch2a"
}
layer {
  name: "res2a_branch2b"
  type: "Convolution"
  bottom: "res2a_branch2a"
  top: "res2a_branch2b"
  param {
    lr_mult: 0
  }
  convolution_param {
    num_output: 64
    bias_term: false
    pad: 1
    kernel_size: 3
    stride: 1
  }
}
layer {
  name: "bn2a_branch2b"
  type: "BatchNorm"
  bottom: "res2a_branch2b"
  top: "res2a_branch2b"
  param {
    lr_mult: 0
    decay_mult: 0
  }
  param {
    lr_mult: 0
    decay_mult: 0
  }
  param {
    lr_mult: 0
    decay_mult: 0
  }
  batch_norm_param {
    use_global_stats: true
  }
}
layer {
  name: "scale2a_branch2b"
  type: "Scale"
  bottom: "res2a_branch2b"
  top: "res2a_branch2b"
  param {
    lr_mult: 0
    decay_mult: 0
  }
  param {
    lr_mult: 0
    decay_mult: 0
  }
  scale_param {
    bias_term: true
  }
}
layer {
  name: "res2a_branch2b_relu"
  type: "ReLU"
  bottom: "res2a_branch2b"
  top: "res2a_branch2b"
}
layer {
  name: "res2a_branch2c"
  type: "Convolution"
  bottom: "res2a_branch2b"
  top: "res2a_branch2c"
  param {
    lr_mult: 0
  }
  convolution_param {
    num_output: 256
    bias_term: false
    pad: 0
    kernel_size: 1
    stride: 1
  }
}
layer {
  name: "bn2a_branch2c"
  type: "BatchNorm"
  bottom: "res2a_branch2c"
  top: "res2a_branch2c"
  param {
    lr_mult: 0
    decay_mult: 0
  }
  param {
    lr_mult: 0
    decay_mult: 0
  }
  param {
    lr_mult: 0
    decay_mult: 0
  }
  batch_norm_param {
    use_global_stats: true
  }
}
layer {
  name: "scale2a_branch2c"
  type: "Scale"
  bottom: "res2a_branch2c"
  top: "res2a_branch2c"
  param {
    lr_mult: 0
    decay_mult: 0
  }
  param {
    lr_mult: 0
    decay_mult: 0
  }
  scale_param {
    bias_term: true
  }
}
layer {
  name: "res2a"
  type: "Eltwise"
  bottom: "res2a_branch1"
  bottom: "res2a_branch2c"
  top: "res2a"
}
layer {
  name: "res2a_relu"
  type: "ReLU"
  bottom: "res2a"
  top: "res2a"
}
layer {
  name: "res2b_branch2a"
  type: "Convolution"
  bottom: "res2a"
  top: "res2b_branch2a"
  param {
    lr_mult: 0
  }
  convolution_param {
    num_output: 64
    bias_term: false
    pad: 0
    kernel_size: 1
    stride: 1
  }
}
layer {
  name: "bn2b_branch2a"
  type: "BatchNorm"
  bottom: "res2b_branch2a"
  top: "res2b_branch2a"
  param {
    lr_mult: 0
    decay_mult: 0
  }
  param {
    lr_mult: 0
    decay_mult: 0
  }
  param {
    lr_mult: 0
    decay_mult: 0
  }
  batch_norm_param {
    use_global_stats: true
  }
}
layer {
  name: "scale2b_branch2a"
  type: "Scale"
  bottom: "res2b_branch2a"
  top: "res2b_branch2a"
  param {
    lr_mult: 0
    decay_mult: 0
  }
  param {
    lr_mult: 0
    decay_mult: 0
  }
  scale_param {
    bias_term: true
  }
}
layer {
  name: "res2b_branch2a_relu"
  type: "ReLU"
  bottom: "res2b_branch2a"
  top: "res2b_branch2a"
}
layer {
  name: "res2b_branch2b"
  type: "Convolution"
  bottom: "res2b_branch2a"
  top: "res2b_branch2b"
  param {
    lr_mult: 0
  }
  convolution_param {
    num_output: 64
    bias_term: false
    pad: 1
    kernel_size: 3
    stride: 1
  }
}
layer {
  name: "bn2b_branch2b"
  type: "BatchNorm"
  bottom: "res2b_branch2b"
  top: "res2b_branch2b"
  param {
    lr_mult: 0
    decay_mult: 0
  }
  param {
    lr_mult: 0
    decay_mult: 0
  }
  param {
    lr_mult: 0
    decay_mult: 0
  }
  batch_norm_param {
    use_global_stats: true
  }
}
layer {
  name: "scale2b_branch2b"
  type: "Scale"
  bottom: "res2b_branch2b"
  top: "res2b_branch2b"
  param {
    lr_mult: 0
    decay_mult: 0
  }
  param {
    lr_mult: 0
    decay_mult: 0
  }
  scale_param {
    bias_term: true
  }
}
layer {
  name: "res2b_branch2b_relu"
  type: "ReLU"
  bottom: "res2b_branch2b"
  top: "res2b_branch2b"
}
layer {
  name: "res2b_branch2c"
  type: "Convolution"
  bottom: "res2b_branch2b"
  top: "res2b_branch2c"
  param {
    lr_mult: 0
  }
  convolution_param {
    num_output: 256
    bias_term: false
    pad: 0
    kernel_size: 1
    stride: 1
  }
}
layer {
  name: "bn2b_branch2c"
  type: "BatchNorm"
  bottom: "res2b_branch2c"
  top: "res2b_branch2c"
  param {
    lr_mult: 0
    decay_mult: 0
  }
  param {
    lr_mult: 0
    decay_mult: 0
  }
  param {
    lr_mult: 0
    decay_mult: 0
  }
  batch_norm_param {
    use_global_stats: true
  }
}
layer {
  name: "scale2b_branch2c"
  type: "Scale"
  bottom: "res2b_branch2c"
  top: "res2b_branch2c"
  param {
    lr_mult: 0
    decay_mult: 0
  }
  param {
    lr_mult: 0
    decay_mult: 0
  }
  scale_param {
    bias_term: true
  }
}
layer {
  name: "res2b"
  type: "Eltwise"
  bottom: "res2a"
  bottom: "res2b_branch2c"
  top: "res2b"
}
layer {
  name: "res2b_relu"
  type: "ReLU"
  bottom: "res2b"
  top: "res2b"
}
layer {
  name: "res2c_branch2a"
  type: "Convolution"
  bottom: "res2b"
  top: "res2c_branch2a"
  param {
    lr_mult: 0
  }
  convolution_param {
    num_output: 64
    bias_term: false
    pad: 0
    kernel_size: 1
    stride: 1
  }
}
layer {
  name: "bn2c_branch2a"
  type: "BatchNorm"
  bottom: "res2c_branch2a"
  top: "res2c_branch2a"
  param {
    lr_mult: 0
    decay_mult: 0
  }
  param {
    lr_mult: 0
    decay_mult: 0
  }
  param {
    lr_mult: 0
    decay_mult: 0
  }
  batch_norm_param {
    use_global_stats: true
  }
}
layer {
  name: "scale2c_branch2a"
  type: "Scale"
  bottom: "res2c_branch2a"
  top: "res2c_branch2a"
  param {
    lr_mult: 0
    decay_mult: 0
  }
  param {
    lr_mult: 0
    decay_mult: 0
  }
  scale_param {
    bias_term: true
  }
}
layer {
  name: "res2c_branch2a_relu"
  type: "ReLU"
  bottom: "res2c_branch2a"
  top: "res2c_branch2a"
}
layer {
  name: "res2c_branch2b"
  type: "Convolution"
  bottom: "res2c_branch2a"
  top: "res2c_branch2b"
  param {
    lr_mult: 0
  }
  convolution_param {
    num_output: 64
    bias_term: false
    pad: 1
    kernel_size: 3
    stride: 1
  }
}
layer {
  name: "bn2c_branch2b"
  type: "BatchNorm"
  bottom: "res2c_branch2b"
  top: "res2c_branch2b"
  param {
    lr_mult: 0
    decay_mult: 0
  }
  param {
    lr_mult: 0
    decay_mult: 0
  }
  param {
    lr_mult: 0
    decay_mult: 0
  }
  batch_norm_param {
    use_global_stats: true
  }
}
layer {
  name: "scale2c_branch2b"
  type: "Scale"
  bottom: "res2c_branch2b"
  top: "res2c_branch2b"
  param {
    lr_mult: 0
    decay_mult: 0
  }
  param {
    lr_mult: 0
    decay_mult: 0
  }
  scale_param {
    bias_term: true
  }
}
layer {
  name: "res2c_branch2b_relu"
  type: "ReLU"
  bottom: "res2c_branch2b"
  top: "res2c_branch2b"
}
layer {
  name: "res2c_branch2c"
  type: "Convolution"
  bottom: "res2c_branch2b"
  top: "res2c_branch2c"
  param {
    lr_mult: 0
  }
  convolution_param {
    num_output: 256
    bias_term: false
    pad: 0
    kernel_size: 1
    stride: 1
  }
}
layer {
  name: "bn2c_branch2c"
  type: "BatchNorm"
  bottom: "res2c_branch2c"
  top: "res2c_branch2c"
  param {
    lr_mult: 0
    decay_mult: 0
  }
  param {
    lr_mult: 0
    decay_mult: 0
  }
  param {
    lr_mult: 0
    decay_mult: 0
  }
  batch_norm_param {
    use_global_stats: true
  }
}
layer {
  name: "scale2c_branch2c"
  type: "Scale"
  bottom: "res2c_branch2c"
  top: "res2c_branch2c"
  param {
    lr_mult: 0
    decay_mult: 0
  }
  param {
    lr_mult: 0
    decay_mult: 0
  }
  scale_param {
    bias_term: true
  }
}
layer {
  name: "res2c"
  type: "Eltwise"
  bottom: "res2b"
  bottom: "res2c_branch2c"
  top: "res2c"
}
layer {
  name: "res2c_relu"
  type: "ReLU"
  bottom: "res2c"
  top: "res2c"
}
layer {
  name: "res3a_branch1"
  type: "Convolution"
  bottom: "res2c"
  top: "res3a_branch1"
  param {
    lr_mult: 1
  }
  convolution_param {
    num_output: 512
    bias_term: false
    pad: 0
    kernel_size: 1
    stride: 2
  }
}
layer {
  name: "bn3a_branch1"
  type: "BatchNorm"
  bottom: "res3a_branch1"
  top: "res3a_branch1"
  param {
    lr_mult: 0
    decay_mult: 0
  }
  param {
    lr_mult: 0
    decay_mult: 0
  }
  param {
    lr_mult: 0
    decay_mult: 0
  }
  batch_norm_param {
    use_global_stats: true
  }
}
layer {
  name: "scale3a_branch1"
  type: "Scale"
  bottom: "res3a_branch1"
  top: "res3a_branch1"
  param {
    lr_mult: 0
    decay_mult: 0
  }
  param {
    lr_mult: 0
    decay_mult: 0
  }
  scale_param {
    bias_term: true
  }
}
layer {
  name: "res3a_branch2a"
  type: "Convolution"
  bottom: "res2c"
  top: "res3a_branch2a"
  param {
    lr_mult: 1
  }
  convolution_param {
    num_output: 128
    bias_term: false
    pad: 0
    kernel_size: 1
    stride: 2
  }
}
layer {
  name: "bn3a_branch2a"
  type: "BatchNorm"
  bottom: "res3a_branch2a"
  top: "res3a_branch2a"
  param {
    lr_mult: 0
    decay_mult: 0
  }
  param {
    lr_mult: 0
    decay_mult: 0
  }
  param {
    lr_mult: 0
    decay_mult: 0
  }
  batch_norm_param {
    use_global_stats: true
  }
}
layer {
  name: "scale3a_branch2a"
  type: "Scale"
  bottom: "res3a_branch2a"
  top: "res3a_branch2a"
  param {
    lr_mult: 0
    decay_mult: 0
  }
  param {
    lr_mult: 0
    decay_mult: 0
  }
  scale_param {
    bias_term: true
  }
}
layer {
  name: "res3a_branch2a_relu"
  type: "ReLU"
  bottom: "res3a_branch2a"
  top: "res3a_branch2a"
}
layer {
  name: "res3a_branch2b"
  type: "Convolution"
  bottom: "res3a_branch2a"
  top: "res3a_branch2b"
  param {
    lr_mult: 1
  }
  convolution_param {
    num_output: 128
    bias_term: false
    pad: 1
    kernel_size: 3
    stride: 1
  }
}
layer {
  name: "bn3a_branch2b"
  type: "BatchNorm"
  bottom: "res3a_branch2b"
  top: "res3a_branch2b"
  param {
    lr_mult: 0
    decay_mult: 0
  }
  param {
    lr_mult: 0
    decay_mult: 0
  }
  param {
    lr_mult: 0
    decay_mult: 0
  }
  batch_norm_param {
    use_global_stats: true
  }
}
layer {
  name: "scale3a_branch2b"
  type: "Scale"
  bottom: "res3a_branch2b"
  top: "res3a_branch2b"
  param {
    lr_mult: 0
    decay_mult: 0
  }
  param {
    lr_mult: 0
    decay_mult: 0
  }
  scale_param {
    bias_term: true
  }
}
layer {
  name: "res3a_branch2b_relu"
  type: "ReLU"
  bottom: "res3a_branch2b"
  top: "res3a_branch2b"
}
layer {
  name: "res3a_branch2c"
  type: "Convolution"
  bottom: "res3a_branch2b"
  top: "res3a_branch2c"
  param {
    lr_mult: 1
  }
  convolution_param {
    num_output: 512
    bias_term: false
    pad: 0
    kernel_size: 1
    stride: 1
  }
}
layer {
  name: "bn3a_branch2c"
  type: "BatchNorm"
  bottom: "res3a_branch2c"
  top: "res3a_branch2c"
  param {
    lr_mult: 0
    decay_mult: 0
  }
  param {
    lr_mult: 0
    decay_mult: 0
  }
  param {
    lr_mult: 0
    decay_mult: 0
  }
  batch_norm_param {
    use_global_stats: true
  }
}
layer {
  name: "scale3a_branch2c"
  type: "Scale"
  bottom: "res3a_branch2c"
  top: "res3a_branch2c"
  param {
    lr_mult: 0
    decay_mult: 0
  }
  param {
    lr_mult: 0
    decay_mult: 0
  }
  scale_param {
    bias_term: true
  }
}
layer {
  name: "res3a"
  type: "Eltwise"
  bottom: "res3a_branch1"
  bottom: "res3a_branch2c"
  top: "res3a"
}
layer {
  name: "res3a_relu"
  type: "ReLU"
  bottom: "res3a"
  top: "res3a"
}
layer {
  name: "res3b_branch2a"
  type: "Convolution"
  bottom: "res3a"
  top: "res3b_branch2a"
  param {
    lr_mult: 1
  }
  convolution_param {
    num_output: 128
    bias_term: false
    pad: 0
    kernel_size: 1
    stride: 1
  }
}
layer {
  name: "bn3b_branch2a"
  type: "BatchNorm"
  bottom: "res3b_branch2a"
  top: "res3b_branch2a"
  param {
    lr_mult: 0
    decay_mult: 0
  }
  param {
    lr_mult: 0
    decay_mult: 0
  }
  param {
    lr_mult: 0
    decay_mult: 0
  }
  batch_norm_param {
    use_global_stats: true
  }
}
layer {
  name: "scale3b_branch2a"
  type: "Scale"
  bottom: "res3b_branch2a"
  top: "res3b_branch2a"
  param {
    lr_mult: 0
    decay_mult: 0
  }
  param {
    lr_mult: 0
    decay_mult: 0
  }
  scale_param {
    bias_term: true
  }
}
layer {
  name: "res3b_branch2a_relu"
  type: "ReLU"
  bottom: "res3b_branch2a"
  top: "res3b_branch2a"
}
layer {
  name: "res3b_branch2b"
  type: "Convolution"
  bottom: "res3b_branch2a"
  top: "res3b_branch2b"
  param {
    lr_mult: 1
  }
  convolution_param {
    num_output: 128
    bias_term: false
    pad: 1
    kernel_size: 3
    stride: 1
  }
}
layer {
  name: "bn3b_branch2b"
  type: "BatchNorm"
  bottom: "res3b_branch2b"
  top: "res3b_branch2b"
  param {
    lr_mult: 0
    decay_mult: 0
  }
  param {
    lr_mult: 0
    decay_mult: 0
  }
  param {
    lr_mult: 0
    decay_mult: 0
  }
  batch_norm_param {
    use_global_stats: true
  }
}
layer {
  name: "scale3b_branch2b"
  type: "Scale"
  bottom: "res3b_branch2b"
  top: "res3b_branch2b"
  param {
    lr_mult: 0
    decay_mult: 0
  }
  param {
    lr_mult: 0
    decay_mult: 0
  }
  scale_param {
    bias_term: true
  }
}
layer {
  name: "res3b_branch2b_relu"
  type: "ReLU"
  bottom: "res3b_branch2b"
  top: "res3b_branch2b"
}
layer {
  name: "res3b_branch2c"
  type: "Convolution"
  bottom: "res3b_branch2b"
  top: "res3b_branch2c"
  param {
    lr_mult: 1
  }
  convolution_param {
    num_output: 512
    bias_term: false
    pad: 0
    kernel_size: 1
    stride: 1
  }
}
layer {
  name: "bn3b_branch2c"
  type: "BatchNorm"
  bottom: "res3b_branch2c"
  top: "res3b_branch2c"
  param {
    lr_mult: 0
    decay_mult: 0
  }
  param {
    lr_mult: 0
    decay_mult: 0
  }
  param {
    lr_mult: 0
    decay_mult: 0
  }
  batch_norm_param {
    use_global_stats: true
  }
}
layer {
  name: "scale3b_branch2c"
  type: "Scale"
  bottom: "res3b_branch2c"
  top: "res3b_branch2c"
  param {
    lr_mult: 0
    decay_mult: 0
  }
  param {
    lr_mult: 0
    decay_mult: 0
  }
  scale_param {
    bias_term: true
  }
}
layer {
  name: "res3b"
  type: "Eltwise"
  bottom: "res3a"
  bottom: "res3b_branch2c"
  top: "res3b"
}
layer {
  name: "res3b_relu"
  type: "ReLU"
  bottom: "res3b"
  top: "res3b"
}
layer {
  name: "res3c_branch2a"
  type: "Convolution"
  bottom: "res3b"
  top: "res3c_branch2a"
  param {
    lr_mult: 1
  }
  convolution_param {
    num_output: 128
    bias_term: false
    pad: 0
    kernel_size: 1
    stride: 1
  }
}
layer {
  name: "bn3c_branch2a"
  type: "BatchNorm"
  bottom: "res3c_branch2a"
  top: "res3c_branch2a"
  param {
    lr_mult: 0
    decay_mult: 0
  }
  param {
    lr_mult: 0
    decay_mult: 0
  }
  param {
    lr_mult: 0
    decay_mult: 0
  }
  batch_norm_param {
    use_global_stats: true
  }
}
layer {
  name: "scale3c_branch2a"
  type: "Scale"
  bottom: "res3c_branch2a"
  top: "res3c_branch2a"
  param {
    lr_mult: 0
    decay_mult: 0
  }
  param {
    lr_mult: 0
    decay_mult: 0
  }
  scale_param {
    bias_term: true
  }
}
layer {
  name: "res3c_branch2a_relu"
  type: "ReLU"
  bottom: "res3c_branch2a"
  top: "res3c_branch2a"
}
layer {
  name: "res3c_branch2b"
  type: "Convolution"
  bottom: "res3c_branch2a"
  top: "res3c_branch2b"
  param {
    lr_mult: 1
  }
  convolution_param {
    num_output: 128
    bias_term: false
    pad: 1
    kernel_size: 3
    stride: 1
  }
}
layer {
  name: "bn3c_branch2b"
  type: "BatchNorm"
  bottom: "res3c_branch2b"
  top: "res3c_branch2b"
  param {
    lr_mult: 0
    decay_mult: 0
  }
  param {
    lr_mult: 0
    decay_mult: 0
  }
  param {
    lr_mult: 0
    decay_mult: 0
  }
  batch_norm_param {
    use_global_stats: true
  }
}
layer {
  name: "scale3c_branch2b"
  type: "Scale"
  bottom: "res3c_branch2b"
  top: "res3c_branch2b"
  param {
    lr_mult: 0
    decay_mult: 0
  }
  param {
    lr_mult: 0
    decay_mult: 0
  }
  scale_param {
    bias_term: true
  }
}
layer {
  name: "res3c_branch2b_relu"
  type: "ReLU"
  bottom: "res3c_branch2b"
  top: "res3c_branch2b"
}
layer {
  name: "res3c_branch2c"
  type: "Convolution"
  bottom: "res3c_branch2b"
  top: "res3c_branch2c"
  param {
    lr_mult: 1
  }
  convolution_param {
    num_output: 512
    bias_term: false
    pad: 0
    kernel_size: 1
    stride: 1
  }
}
layer {
  name: "bn3c_branch2c"
  type: "BatchNorm"
  bottom: "res3c_branch2c"
  top: "res3c_branch2c"
  param {
    lr_mult: 0
    decay_mult: 0
  }
  param {
    lr_mult: 0
    decay_mult: 0
  }
  param {
    lr_mult: 0
    decay_mult: 0
  }
  batch_norm_param {
    use_global_stats: true
  }
}
layer {
  name: "scale3c_branch2c"
  type: "Scale"
  bottom: "res3c_branch2c"
  top: "res3c_branch2c"
  param {
    lr_mult: 0
    decay_mult: 0
  }
  param {
    lr_mult: 0
    decay_mult: 0
  }
  scale_param {
    bias_term: true
  }
}
layer {
  name: "res3c"
  type: "Eltwise"
  bottom: "res3b"
  bottom: "res3c_branch2c"
  top: "res3c"
}
layer {
  name: "res3c_relu"
  type: "ReLU"
  bottom: "res3c"
  top: "res3c"
}
layer {
  name: "res3d_branch2a"
  type: "Convolution"
  bottom: "res3c"
  top: "res3d_branch2a"
  param {
    lr_mult: 1
  }
  convolution_param {
    num_output: 128
    bias_term: false
    pad: 0
    kernel_size: 1
    stride: 1
  }
}
layer {
  name: "bn3d_branch2a"
  type: "BatchNorm"
  bottom: "res3d_branch2a"
  top: "res3d_branch2a"
  param {
    lr_mult: 0
    decay_mult: 0
  }
  param {
    lr_mult: 0
    decay_mult: 0
  }
  param {
    lr_mult: 0
    decay_mult: 0
  }
  batch_norm_param {
    use_global_stats: true
  }
}
layer {
  name: "scale3d_branch2a"
  type: "Scale"
  bottom: "res3d_branch2a"
  top: "res3d_branch2a"
  param {
    lr_mult: 0
    decay_mult: 0
  }
  param {
    lr_mult: 0
    decay_mult: 0
  }
  scale_param {
    bias_term: true
  }
}
layer {
  name: "res3d_branch2a_relu"
  type: "ReLU"
  bottom: "res3d_branch2a"
  top: "res3d_branch2a"
}
layer {
  name: "res3d_branch2b"
  type: "Convolution"
  bottom: "res3d_branch2a"
  top: "res3d_branch2b"
  param {
    lr_mult: 1
  }
  convolution_param {
    num_output: 128
    bias_term: false
    pad: 1
    kernel_size: 3
    stride: 1
  }
}
layer {
  name: "bn3d_branch2b"
  type: "BatchNorm"
  bottom: "res3d_branch2b"
  top: "res3d_branch2b"
  param {
    lr_mult: 0
    decay_mult: 0
  }
  param {
    lr_mult: 0
    decay_mult: 0
  }
  param {
    lr_mult: 0
    decay_mult: 0
  }
  batch_norm_param {
    use_global_stats: true
  }
}
layer {
  name: "scale3d_branch2b"
  type: "Scale"
  bottom: "res3d_branch2b"
  top: "res3d_branch2b"
  param {
    lr_mult: 0
    decay_mult: 0
  }
  param {
    lr_mult: 0
    decay_mult: 0
  }
  scale_param {
    bias_term: true
  }
}
layer {
  name: "res3d_branch2b_relu"
  type: "ReLU"
  bottom: "res3d_branch2b"
  top: "res3d_branch2b"
}
layer {
  name: "res3d_branch2c"
  type: "Convolution"
  bottom: "res3d_branch2b"
  top: "res3d_branch2c"
  param {
    lr_mult: 1
  }
  convolution_param {
    num_output: 512
    bias_term: false
    pad: 0
    kernel_size: 1
    stride: 1
  }
}
layer {
  name: "bn3d_branch2c"
  type: "BatchNorm"
  bottom: "res3d_branch2c"
  top: "res3d_branch2c"
  param {
    lr_mult: 0
    decay_mult: 0
  }
  param {
    lr_mult: 0
    decay_mult: 0
  }
  param {
    lr_mult: 0
    decay_mult: 0
  }
  batch_norm_param {
    use_global_stats: true
  }
}
layer {
  name: "scale3d_branch2c"
  type: "Scale"
  bottom: "res3d_branch2c"
  top: "res3d_branch2c"
  param {
    lr_mult: 0
    decay_mult: 0
  }
  param {
    lr_mult: 0
    decay_mult: 0
  }
  scale_param {
    bias_term: true
  }
}
layer {
  name: "res3d"
  type: "Eltwise"
  bottom: "res3c"
  bottom: "res3d_branch2c"
  top: "res3d"
}
layer {
  name: "res3d_relu"
  type: "ReLU"
  bottom: "res3d"
  top: "res3d"
}
layer {
  name: "res4a_branch1"
  type: "Convolution"
  bottom: "res3d"
  top: "res4a_branch1"
  param {
    lr_mult: 1
  }
  convolution_param {
    num_output: 1024
    bias_term: false
    pad: 0
    kernel_size: 1
    stride: 2
  }
}
layer {
  name: "bn4a_branch1"
  type: "BatchNorm"
  bottom: "res4a_branch1"
  top: "res4a_branch1"
  param {
    lr_mult: 0
    decay_mult: 0
  }
  param {
    lr_mult: 0
    decay_mult: 0
  }
  param {
    lr_mult: 0
    decay_mult: 0
  }
  batch_norm_param {
    use_global_stats: true
  }
}
layer {
  name: "scale4a_branch1"
  type: "Scale"
  bottom: "res4a_branch1"
  top: "res4a_branch1"
  param {
    lr_mult: 0
    decay_mult: 0
  }
  param {
    lr_mult: 0
    decay_mult: 0
  }
  scale_param {
    bias_term: true
  }
}
layer {
  name: "res4a_branch2a"
  type: "Convolution"
  bottom: "res3d"
  top: "res4a_branch2a"
  param {
    lr_mult: 1
  }
  convolution_param {
    num_output: 256
    bias_term: false
    pad: 0
    kernel_size: 1
    stride: 2
  }
}
layer {
  name: "bn4a_branch2a"
  type: "BatchNorm"
  bottom: "res4a_branch2a"
  top: "res4a_branch2a"
  param {
    lr_mult: 0
    decay_mult: 0
  }
  param {
    lr_mult: 0
    decay_mult: 0
  }
  param {
    lr_mult: 0
    decay_mult: 0
  }
  batch_norm_param {
    use_global_stats: true
  }
}
layer {
  name: "scale4a_branch2a"
  type: "Scale"
  bottom: "res4a_branch2a"
  top: "res4a_branch2a"
  param {
    lr_mult: 0
    decay_mult: 0
  }
  param {
    lr_mult: 0
    decay_mult: 0
  }
  scale_param {
    bias_term: true
  }
}
layer {
  name: "res4a_branch2a_relu"
  type: "ReLU"
  bottom: "res4a_branch2a"
  top: "res4a_branch2a"
}
layer {
  name: "res4a_branch2b"
  type: "Convolution"
  bottom: "res4a_branch2a"
  top: "res4a_branch2b"
  param {
    lr_mult: 1
  }
  convolution_param {
    num_output: 256
    bias_term: false
    pad: 1
    kernel_size: 3
    stride: 1
  }
}
layer {
  name: "bn4a_branch2b"
  type: "BatchNorm"
  bottom: "res4a_branch2b"
  top: "res4a_branch2b"
  param {
    lr_mult: 0
    decay_mult: 0
  }
  param {
    lr_mult: 0
    decay_mult: 0
  }
  param {
    lr_mult: 0
    decay_mult: 0
  }
  batch_norm_param {
    use_global_stats: true
  }
}
layer {
  name: "scale4a_branch2b"
  type: "Scale"
  bottom: "res4a_branch2b"
  top: "res4a_branch2b"
  param {
    lr_mult: 0
    decay_mult: 0
  }
  param {
    lr_mult: 0
    decay_mult: 0
  }
  scale_param {
    bias_term: true
  }
}
layer {
  name: "res4a_branch2b_relu"
  type: "ReLU"
  bottom: "res4a_branch2b"
  top: "res4a_branch2b"
}
layer {
  name: "res4a_branch2c"
  type: "Convolution"
  bottom: "res4a_branch2b"
  top: "res4a_branch2c"
  param {
    lr_mult: 1
  }
  convolution_param {
    num_output: 1024
    bias_term: false
    pad: 0
    kernel_size: 1
    stride: 1
  }
}
layer {
  name: "bn4a_branch2c"
  type: "BatchNorm"
  bottom: "res4a_branch2c"
  top: "res4a_branch2c"
  param {
    lr_mult: 0
    decay_mult: 0
  }
  param {
    lr_mult: 0
    decay_mult: 0
  }
  param {
    lr_mult: 0
    decay_mult: 0
  }
  batch_norm_param {
    use_global_stats: true
  }
}
layer {
  name: "scale4a_branch2c"
  type: "Scale"
  bottom: "res4a_branch2c"
  top: "res4a_branch2c"
  param {
    lr_mult: 0
    decay_mult: 0
  }
  param {
    lr_mult: 0
    decay_mult: 0
  }
  scale_param {
    bias_term: true
  }
}
layer {
  name: "res4a"
  type: "Eltwise"
  bottom: "res4a_branch1"
  bottom: "res4a_branch2c"
  top: "res4a"
}
layer {
  name: "res4a_relu"
  type: "ReLU"
  bottom: "res4a"
  top: "res4a"
}
layer {
  name: "res4b_branch2a"
  type: "Convolution"
  bottom: "res4a"
  top: "res4b_branch2a"
  param {
    lr_mult: 1
  }
  convolution_param {
    num_output: 256
    bias_term: false
    pad: 0
    kernel_size: 1
    stride: 1
  }
}
layer {
  name: "bn4b_branch2a"
  type: "BatchNorm"
  bottom: "res4b_branch2a"
  top: "res4b_branch2a"
  param {
    lr_mult: 0
    decay_mult: 0
  }
  param {
    lr_mult: 0
    decay_mult: 0
  }
  param {
    lr_mult: 0
    decay_mult: 0
  }
  batch_norm_param {
    use_global_stats: true
  }
}
layer {
  name: "scale4b_branch2a"
  type: "Scale"
  bottom: "res4b_branch2a"
  top: "res4b_branch2a"
  param {
    lr_mult: 0
    decay_mult: 0
  }
  param {
    lr_mult: 0
    decay_mult: 0
  }
  scale_param {
    bias_term: true
  }
}
layer {
  name: "res4b_branch2a_relu"
  type: "ReLU"
  bottom: "res4b_branch2a"
  top: "res4b_branch2a"
}
layer {
  name: "res4b_branch2b"
  type: "Convolution"
  bottom: "res4b_branch2a"
  top: "res4b_branch2b"
  param {
    lr_mult: 1
  }
  convolution_param {
    num_output: 256
    bias_term: false
    pad: 1
    kernel_size: 3
    stride: 1
  }
}
layer {
  name: "bn4b_branch2b"
  type: "BatchNorm"
  bottom: "res4b_branch2b"
  top: "res4b_branch2b"
  param {
    lr_mult: 0
    decay_mult: 0
  }
  param {
    lr_mult: 0
    decay_mult: 0
  }
  param {
    lr_mult: 0
    decay_mult: 0
  }
  batch_norm_param {
    use_global_stats: true
  }
}
layer {
  name: "scale4b_branch2b"
  type: "Scale"
  bottom: "res4b_branch2b"
  top: "res4b_branch2b"
  param {
    lr_mult: 0
    decay_mult: 0
  }
  param {
    lr_mult: 0
    decay_mult: 0
  }
  scale_param {
    bias_term: true
  }
}
layer {
  name: "res4b_branch2b_relu"
  type: "ReLU"
  bottom: "res4b_branch2b"
  top: "res4b_branch2b"
}
layer {
  name: "res4b_branch2c"
  type: "Convolution"
  bottom: "res4b_branch2b"
  top: "res4b_branch2c"
  param {
    lr_mult: 1
  }
  convolution_param {
    num_output: 1024
    bias_term: false
    pad: 0
    kernel_size: 1
    stride: 1
  }
}
layer {
  name: "bn4b_branch2c"
  type: "BatchNorm"
  bottom: "res4b_branch2c"
  top: "res4b_branch2c"
  param {
    lr_mult: 0
    decay_mult: 0
  }
  param {
    lr_mult: 0
    decay_mult: 0
  }
  param {
    lr_mult: 0
    decay_mult: 0
  }
  batch_norm_param {
    use_global_stats: true
  }
}
layer {
  name: "scale4b_branch2c"
  type: "Scale"
  bottom: "res4b_branch2c"
  top: "res4b_branch2c"
  param {
    lr_mult: 0
    decay_mult: 0
  }
  param {
    lr_mult: 0
    decay_mult: 0
  }
  scale_param {
    bias_term: true
  }
}
layer {
  name: "res4b"
  type: "Eltwise"
  bottom: "res4a"
  bottom: "res4b_branch2c"
  top: "res4b"
}
layer {
  name: "res4b_relu"
  type: "ReLU"
  bottom: "res4b"
  top: "res4b"
}
layer {
  name: "res4c_branch2a"
  type: "Convolution"
  bottom: "res4b"
  top: "res4c_branch2a"
  param {
    lr_mult: 1
  }
  convolution_param {
    num_output: 256
    bias_term: false
    pad: 0
    kernel_size: 1
    stride: 1
  }
}
layer {
  name: "bn4c_branch2a"
  type: "BatchNorm"
  bottom: "res4c_branch2a"
  top: "res4c_branch2a"
  param {
    lr_mult: 0
    decay_mult: 0
  }
  param {
    lr_mult: 0
    decay_mult: 0
  }
  param {
    lr_mult: 0
    decay_mult: 0
  }
  batch_norm_param {
    use_global_stats: true
  }
}
layer {
  name: "scale4c_branch2a"
  type: "Scale"
  bottom: "res4c_branch2a"
  top: "res4c_branch2a"
  param {
    lr_mult: 0
    decay_mult: 0
  }
  param {
    lr_mult: 0
    decay_mult: 0
  }
  scale_param {
    bias_term: true
  }
}
layer {
  name: "res4c_branch2a_relu"
  type: "ReLU"
  bottom: "res4c_branch2a"
  top: "res4c_branch2a"
}
layer {
  name: "res4c_branch2b"
  type: "Convolution"
  bottom: "res4c_branch2a"
  top: "res4c_branch2b"
  param {
    lr_mult: 1
  }
  convolution_param {
    num_output: 256
    bias_term: false
    pad: 1
    kernel_size: 3
    stride: 1
  }
}
layer {
  name: "bn4c_branch2b"
  type: "BatchNorm"
  bottom: "res4c_branch2b"
  top: "res4c_branch2b"
  param {
    lr_mult: 0
    decay_mult: 0
  }
  param {
    lr_mult: 0
    decay_mult: 0
  }
  param {
    lr_mult: 0
    decay_mult: 0
  }
  batch_norm_param {
    use_global_stats: true
  }
}
layer {
  name: "scale4c_branch2b"
  type: "Scale"
  bottom: "res4c_branch2b"
  top: "res4c_branch2b"
  param {
    lr_mult: 0
    decay_mult: 0
  }
  param {
    lr_mult: 0
    decay_mult: 0
  }
  scale_param {
    bias_term: true
  }
}
layer {
  name: "res4c_branch2b_relu"
  type: "ReLU"
  bottom: "res4c_b
I0704 21:49:08.219733 23533 layer_factory.hpp:77] Creating layer input-data
I0704 21:49:08.229107 23533 net.cpp:100] Creating Layer input-data
I0704 21:49:08.229135 23533 net.cpp:418] input-data -> data
I0704 21:49:08.229185 23533 net.cpp:418] input-data -> im_info
I0704 21:49:08.229207 23533 net.cpp:418] input-data -> gt_boxes
I0704 21:49:08.229224 23533 net.cpp:418] input-data -> head_gt_boxes
RoiDataLayer: name_to_top: {'gt_boxes': 2, 'data': 0, 'im_info': 1, 'head_gt_boxes': 3}
I0704 21:49:08.249621 23533 net.cpp:150] Setting up input-data
I0704 21:49:08.249645 23533 net.cpp:157] Top shape: 1 3 960 1280 (3686400)
I0704 21:49:08.249650 23533 net.cpp:157] Top shape: 1 3 (3)
I0704 21:49:08.249653 23533 net.cpp:157] Top shape: 1 4 (4)
I0704 21:49:08.249657 23533 net.cpp:157] Top shape: 1 5 (5)
I0704 21:49:08.249658 23533 net.cpp:165] Memory required for data: 14745648
I0704 21:49:08.249673 23533 layer_factory.hpp:77] Creating layer data_input-data_0_split
I0704 21:49:08.249702 23533 net.cpp:100] Creating Layer data_input-data_0_split
I0704 21:49:08.249713 23533 net.cpp:444] data_input-data_0_split <- data
I0704 21:49:08.249732 23533 net.cpp:418] data_input-data_0_split -> data_input-data_0_split_0
I0704 21:49:08.249755 23533 net.cpp:418] data_input-data_0_split -> data_input-data_0_split_1
I0704 21:49:08.249765 23533 net.cpp:418] data_input-data_0_split -> data_input-data_0_split_2
I0704 21:49:08.249804 23533 net.cpp:150] Setting up data_input-data_0_split
I0704 21:49:08.249811 23533 net.cpp:157] Top shape: 1 3 960 1280 (3686400)
I0704 21:49:08.249814 23533 net.cpp:157] Top shape: 1 3 960 1280 (3686400)
I0704 21:49:08.249817 23533 net.cpp:157] Top shape: 1 3 960 1280 (3686400)
I0704 21:49:08.249819 23533 net.cpp:165] Memory required for data: 58982448
I0704 21:49:08.249822 23533 layer_factory.hpp:77] Creating layer im_info_input-data_1_split
I0704 21:49:08.249832 23533 net.cpp:100] Creating Layer im_info_input-data_1_split
I0704 21:49:08.249836 23533 net.cpp:444] im_info_input-data_1_split <- im_info
I0704 21:49:08.249846 23533 net.cpp:418] im_info_input-data_1_split -> im_info_input-data_1_split_0
I0704 21:49:08.249858 23533 net.cpp:418] im_info_input-data_1_split -> im_info_input-data_1_split_1
I0704 21:49:08.249871 23533 net.cpp:418] im_info_input-data_1_split -> im_info_input-data_1_split_2
I0704 21:49:08.249878 23533 net.cpp:418] im_info_input-data_1_split -> im_info_input-data_1_split_3
I0704 21:49:08.249917 23533 net.cpp:150] Setting up im_info_input-data_1_split
I0704 21:49:08.249922 23533 net.cpp:157] Top shape: 1 3 (3)
I0704 21:49:08.249927 23533 net.cpp:157] Top shape: 1 3 (3)
I0704 21:49:08.249929 23533 net.cpp:157] Top shape: 1 3 (3)
I0704 21:49:08.249933 23533 net.cpp:157] Top shape: 1 3 (3)
I0704 21:49:08.249934 23533 net.cpp:165] Memory required for data: 58982496
I0704 21:49:08.249938 23533 layer_factory.hpp:77] Creating layer gt_boxes_input-data_2_split
I0704 21:49:08.249944 23533 net.cpp:100] Creating Layer gt_boxes_input-data_2_split
I0704 21:49:08.249949 23533 net.cpp:444] gt_boxes_input-data_2_split <- gt_boxes
I0704 21:49:08.249959 23533 net.cpp:418] gt_boxes_input-data_2_split -> gt_boxes_input-data_2_split_0
I0704 21:49:08.249971 23533 net.cpp:418] gt_boxes_input-data_2_split -> gt_boxes_input-data_2_split_1
I0704 21:49:08.249996 23533 net.cpp:150] Setting up gt_boxes_input-data_2_split
I0704 21:49:08.250003 23533 net.cpp:157] Top shape: 1 4 (4)
I0704 21:49:08.250006 23533 net.cpp:157] Top shape: 1 4 (4)
I0704 21:49:08.250008 23533 net.cpp:165] Memory required for data: 58982528
I0704 21:49:08.250011 23533 layer_factory.hpp:77] Creating layer head_gt_boxes_input-data_3_split
I0704 21:49:08.250021 23533 net.cpp:100] Creating Layer head_gt_boxes_input-data_3_split
I0704 21:49:08.250026 23533 net.cpp:444] head_gt_boxes_input-data_3_split <- head_gt_boxes
I0704 21:49:08.250036 23533 net.cpp:418] head_gt_boxes_input-data_3_split -> head_gt_boxes_input-data_3_split_0
I0704 21:49:08.250047 23533 net.cpp:418] head_gt_boxes_input-data_3_split -> head_gt_boxes_input-data_3_split_1
I0704 21:49:08.250073 23533 net.cpp:150] Setting up head_gt_boxes_input-data_3_split
I0704 21:49:08.250079 23533 net.cpp:157] Top shape: 1 5 (5)
I0704 21:49:08.250083 23533 net.cpp:157] Top shape: 1 5 (5)
I0704 21:49:08.250085 23533 net.cpp:165] Memory required for data: 58982568
I0704 21:49:08.250088 23533 layer_factory.hpp:77] Creating layer conv1
I0704 21:49:08.250105 23533 net.cpp:100] Creating Layer conv1
I0704 21:49:08.250110 23533 net.cpp:444] conv1 <- data_input-data_0_split_0
I0704 21:49:08.250123 23533 net.cpp:418] conv1 -> conv1
I0704 21:49:08.550606 23533 cudnn_conv_layer.cpp:194] Reallocating workspace storage: 5529624
I0704 21:49:08.550818 23533 net.cpp:150] Setting up conv1
I0704 21:49:08.550837 23533 net.cpp:157] Top shape: 1 64 480 640 (19660800)
I0704 21:49:08.550838 23533 net.cpp:165] Memory required for data: 137625768
I0704 21:49:08.550890 23533 layer_factory.hpp:77] Creating layer bn_conv1
I0704 21:49:08.550918 23533 net.cpp:100] Creating Layer bn_conv1
I0704 21:49:08.550927 23533 net.cpp:444] bn_conv1 <- conv1
I0704 21:49:08.550940 23533 net.cpp:405] bn_conv1 -> conv1 (in-place)
I0704 21:49:08.552042 23533 net.cpp:150] Setting up bn_conv1
I0704 21:49:08.552052 23533 net.cpp:157] Top shape: 1 64 480 640 (19660800)
I0704 21:49:08.552053 23533 net.cpp:165] Memory required for data: 216268968
I0704 21:49:08.552084 23533 layer_factory.hpp:77] Creating layer scale_conv1
I0704 21:49:08.552103 23533 net.cpp:100] Creating Layer scale_conv1
I0704 21:49:08.552108 23533 net.cpp:444] scale_conv1 <- conv1
I0704 21:49:08.552119 23533 net.cpp:405] scale_conv1 -> conv1 (in-place)
I0704 21:49:08.552168 23533 layer_factory.hpp:77] Creating layer scale_conv1
I0704 21:49:08.554177 23533 net.cpp:150] Setting up scale_conv1
I0704 21:49:08.554189 23533 net.cpp:157] Top shape: 1 64 480 640 (19660800)
I0704 21:49:08.554191 23533 net.cpp:165] Memory required for data: 294912168
I0704 21:49:08.554206 23533 layer_factory.hpp:77] Creating layer conv1_relu
I0704 21:49:08.554227 23533 net.cpp:100] Creating Layer conv1_relu
I0704 21:49:08.554234 23533 net.cpp:444] conv1_relu <- conv1
I0704 21:49:08.554249 23533 net.cpp:405] conv1_relu -> conv1 (in-place)
I0704 21:49:08.554419 23533 net.cpp:150] Setting up conv1_relu
I0704 21:49:08.554425 23533 net.cpp:157] Top shape: 1 64 480 640 (19660800)
I0704 21:49:08.554427 23533 net.cpp:165] Memory required for data: 373555368
I0704 21:49:08.554430 23533 layer_factory.hpp:77] Creating layer pool1
I0704 21:49:08.554443 23533 net.cpp:100] Creating Layer pool1
I0704 21:49:08.554448 23533 net.cpp:444] pool1 <- conv1
I0704 21:49:08.554461 23533 net.cpp:418] pool1 -> pool1
I0704 21:49:08.554515 23533 net.cpp:150] Setting up pool1
I0704 21:49:08.554525 23533 net.cpp:157] Top shape: 1 64 240 320 (4915200)
I0704 21:49:08.554528 23533 net.cpp:165] Memory required for data: 393216168
I0704 21:49:08.554531 23533 layer_factory.hpp:77] Creating layer pool1_pool1_0_split
I0704 21:49:08.554539 23533 net.cpp:100] Creating Layer pool1_pool1_0_split
I0704 21:49:08.554543 23533 net.cpp:444] pool1_pool1_0_split <- pool1
I0704 21:49:08.554554 23533 net.cpp:418] pool1_pool1_0_split -> pool1_pool1_0_split_0
I0704 21:49:08.554565 23533 net.cpp:418] pool1_pool1_0_split -> pool1_pool1_0_split_1
I0704 21:49:08.554600 23533 net.cpp:150] Setting up pool1_pool1_0_split
I0704 21:49:08.554607 23533 net.cpp:157] Top shape: 1 64 240 320 (4915200)
I0704 21:49:08.554611 23533 net.cpp:157] Top shape: 1 64 240 320 (4915200)
I0704 21:49:08.554613 23533 net.cpp:165] Memory required for data: 432537768
I0704 21:49:08.554616 23533 layer_factory.hpp:77] Creating layer res2a_branch1
I0704 21:49:08.554631 23533 net.cpp:100] Creating Layer res2a_branch1
I0704 21:49:08.554637 23533 net.cpp:444] res2a_branch1 <- pool1_pool1_0_split_0
I0704 21:49:08.554651 23533 net.cpp:418] res2a_branch1 -> res2a_branch1
I0704 21:49:08.555450 23533 cudnn_conv_layer.cpp:194] Reallocating workspace storage: 1388952
I0704 21:49:08.555655 23533 net.cpp:150] Setting up res2a_branch1
I0704 21:49:08.555665 23533 net.cpp:157] Top shape: 1 256 240 320 (19660800)
I0704 21:49:08.555667 23533 net.cpp:165] Memory required for data: 511180968
I0704 21:49:08.555677 23533 layer_factory.hpp:77] Creating layer bn2a_branch1
I0704 21:49:08.555691 23533 net.cpp:100] Creating Layer bn2a_branch1
I0704 21:49:08.555696 23533 net.cpp:444] bn2a_branch1 <- res2a_branch1
I0704 21:49:08.555708 23533 net.cpp:405] bn2a_branch1 -> res2a_branch1 (in-place)
I0704 21:49:08.555956 23533 net.cpp:150] Setting up bn2a_branch1
I0704 21:49:08.555963 23533 net.cpp:157] Top shape: 1 256 240 320 (19660800)
I0704 21:49:08.555965 23533 net.cpp:165] Memory required for data: 589824168
I0704 21:49:08.555987 23533 layer_factory.hpp:77] Creating layer scale2a_branch1
I0704 21:49:08.556001 23533 net.cpp:100] Creating Layer scale2a_branch1
I0704 21:49:08.556006 23533 net.cpp:444] scale2a_branch1 <- res2a_branch1
I0704 21:49:08.556017 23533 net.cpp:405] scale2a_branch1 -> res2a_branch1 (in-place)
I0704 21:49:08.556059 23533 layer_factory.hpp:77] Creating layer scale2a_branch1
I0704 21:49:08.556368 23533 net.cpp:150] Setting up scale2a_branch1
I0704 21:49:08.556375 23533 net.cpp:157] Top shape: 1 256 240 320 (19660800)
I0704 21:49:08.556378 23533 net.cpp:165] Memory required for data: 668467368
I0704 21:49:08.556388 23533 layer_factory.hpp:77] Creating layer res2a_branch2a
I0704 21:49:08.556401 23533 net.cpp:100] Creating Layer res2a_branch2a
I0704 21:49:08.556406 23533 net.cpp:444] res2a_branch2a <- pool1_pool1_0_split_1
I0704 21:49:08.556418 23533 net.cpp:418] res2a_branch2a -> res2a_branch2a
I0704 21:49:08.557678 23533 cudnn_conv_layer.cpp:194] Reallocating workspace storage: 1388952
I0704 21:49:08.557881 23533 net.cpp:150] Setting up res2a_branch2a
I0704 21:49:08.557893 23533 net.cpp:157] Top shape: 1 64 240 320 (4915200)
I0704 21:49:08.557895 23533 net.cpp:165] Memory required for data: 688128168
I0704 21:49:08.557906 23533 layer_factory.hpp:77] Creating layer bn2a_branch2a
I0704 21:49:08.557919 23533 net.cpp:100] Creating Layer bn2a_branch2a
I0704 21:49:08.557925 23533 net.cpp:444] bn2a_branch2a <- res2a_branch2a
I0704 21:49:08.557937 23533 net.cpp:405] bn2a_branch2a -> res2a_branch2a (in-place)
I0704 21:49:08.558194 23533 net.cpp:150] Setting up bn2a_branch2a
I0704 21:49:08.558200 23533 net.cpp:157] Top shape: 1 64 240 320 (4915200)
I0704 21:49:08.558202 23533 net.cpp:165] Memory required for data: 707788968
I0704 21:49:08.558225 23533 layer_factory.hpp:77] Creating layer scale2a_branch2a
I0704 21:49:08.558243 23533 net.cpp:100] Creating Layer scale2a_branch2a
I0704 21:49:08.558249 23533 net.cpp:444] scale2a_branch2a <- res2a_branch2a
I0704 21:49:08.558260 23533 net.cpp:405] scale2a_branch2a -> res2a_branch2a (in-place)
I0704 21:49:08.558302 23533 layer_factory.hpp:77] Creating layer scale2a_branch2a
I0704 21:49:08.558622 23533 net.cpp:150] Setting up scale2a_branch2a
I0704 21:49:08.558629 23533 net.cpp:157] Top shape: 1 64 240 320 (4915200)
I0704 21:49:08.558631 23533 net.cpp:165] Memory required for data: 727449768
I0704 21:49:08.558641 23533 layer_factory.hpp:77] Creating layer res2a_branch2a_relu
I0704 21:49:08.558651 23533 net.cpp:100] Creating Layer res2a_branch2a_relu
I0704 21:49:08.558656 23533 net.cpp:444] res2a_branch2a_relu <- res2a_branch2a
I0704 21:49:08.558665 23533 net.cpp:405] res2a_branch2a_relu -> res2a_branch2a (in-place)
I0704 21:49:08.558795 23533 net.cpp:150] Setting up res2a_branch2a_relu
I0704 21:49:08.558801 23533 net.cpp:157] Top shape: 1 64 240 320 (4915200)
I0704 21:49:08.558804 23533 net.cpp:165] Memory required for data: 747110568
I0704 21:49:08.558807 23533 layer_factory.hpp:77] Creating layer res2a_branch2b
I0704 21:49:08.558820 23533 net.cpp:100] Creating Layer res2a_branch2b
I0704 21:49:08.558825 23533 net.cpp:444] res2a_branch2b <- res2a_branch2a
I0704 21:49:08.558837 23533 net.cpp:418] res2a_branch2b -> res2a_branch2b
I0704 21:49:08.560137 23533 cudnn_conv_layer.cpp:194] Reallocating workspace storage: 786432
I0704 21:49:08.560341 23533 net.cpp:150] Setting up res2a_branch2b
I0704 21:49:08.560351 23533 net.cpp:157] Top shape: 1 64 240 320 (4915200)
I0704 21:49:08.560354 23533 net.cpp:165] Memory required for data: 766771368
I0704 21:49:08.560365 23533 layer_factory.hpp:77] Creating layer bn2a_branch2b
I0704 21:49:08.560379 23533 net.cpp:100] Creating Layer bn2a_branch2b
I0704 21:49:08.560384 23533 net.cpp:444] bn2a_branch2b <- res2a_branch2b
I0704 21:49:08.560396 23533 net.cpp:405] bn2a_branch2b -> res2a_branch2b (in-place)
I0704 21:49:08.560658 23533 net.cpp:150] Setting up bn2a_branch2b
I0704 21:49:08.560665 23533 net.cpp:157] Top shape: 1 64 240 320 (4915200)
I0704 21:49:08.560667 23533 net.cpp:165] Memory required for data: 786432168
I0704 21:49:08.560680 23533 layer_factory.hpp:77] Creating layer scale2a_branch2b
I0704 21:49:08.560693 23533 net.cpp:100] Creating Layer scale2a_branch2b
I0704 21:49:08.560698 23533 net.cpp:444] scale2a_branch2b <- res2a_branch2b
I0704 21:49:08.560709 23533 net.cpp:405] scale2a_branch2b -> res2a_branch2b (in-place)
I0704 21:49:08.560752 23533 layer_factory.hpp:77] Creating layer scale2a_branch2b
I0704 21:49:08.561600 23533 net.cpp:150] Setting up scale2a_branch2b
I0704 21:49:08.561610 23533 net.cpp:157] Top shape: 1 64 240 320 (4915200)
I0704 21:49:08.561614 23533 net.cpp:165] Memory required for data: 806092968
I0704 21:49:08.561625 23533 layer_factory.hpp:77] Creating layer res2a_branch2b_relu
I0704 21:49:08.561637 23533 net.cpp:100] Creating Layer res2a_branch2b_relu
I0704 21:49:08.561643 23533 net.cpp:444] res2a_branch2b_relu <- res2a_branch2b
I0704 21:49:08.561655 23533 net.cpp:405] res2a_branch2b_relu -> res2a_branch2b (in-place)
I0704 21:49:08.562017 23533 net.cpp:150] Setting up res2a_branch2b_relu
I0704 21:49:08.562026 23533 net.cpp:157] Top shape: 1 64 240 320 (4915200)
I0704 21:49:08.562028 23533 net.cpp:165] Memory required for data: 825753768
I0704 21:49:08.562032 23533 layer_factory.hpp:77] Creating layer res2a_branch2c
I0704 21:49:08.562050 23533 net.cpp:100] Creating Layer res2a_branch2c
I0704 21:49:08.562057 23533 net.cpp:444] res2a_branch2c <- res2a_branch2b
I0704 21:49:08.562070 23533 net.cpp:418] res2a_branch2c -> res2a_branch2c
I0704 21:49:08.562870 23533 cudnn_conv_layer.cpp:194] Reallocating workspace storage: 1388952
I0704 21:49:08.563076 23533 net.cpp:150] Setting up res2a_branch2c
I0704 21:49:08.563087 23533 net.cpp:157] Top shape: 1 256 240 320 (19660800)
I0704 21:49:08.563091 23533 net.cpp:165] Memory required for data: 904396968
I0704 21:49:08.563100 23533 layer_factory.hpp:77] Creating layer bn2a_branch2c
I0704 21:49:08.563113 23533 net.cpp:100] Creating Layer bn2a_branch2c
I0704 21:49:08.563119 23533 net.cpp:444] bn2a_branch2c <- res2a_branch2c
I0704 21:49:08.563130 23533 net.cpp:405] bn2a_branch2c -> res2a_branch2c (in-place)
I0704 21:49:08.563385 23533 net.cpp:150] Setting up bn2a_branch2c
I0704 21:49:08.563391 23533 net.cpp:157] Top shape: 1 256 240 320 (19660800)
I0704 21:49:08.563393 23533 net.cpp:165] Memory required for data: 983040168
I0704 21:49:08.563408 23533 layer_factory.hpp:77] Creating layer scale2a_branch2c
I0704 21:49:08.563421 23533 net.cpp:100] Creating Layer scale2a_branch2c
I0704 21:49:08.563426 23533 net.cpp:444] scale2a_branch2c <- res2a_branch2c
I0704 21:49:08.563436 23533 net.cpp:405] scale2a_branch2c -> res2a_branch2c (in-place)
I0704 21:49:08.563490 23533 layer_factory.hpp:77] Creating layer scale2a_branch2c
I0704 21:49:08.563869 23533 net.cpp:150] Setting up scale2a_branch2c
I0704 21:49:08.563879 23533 net.cpp:157] Top shape: 1 256 240 320 (19660800)
I0704 21:49:08.563882 23533 net.cpp:165] Memory required for data: 1061683368
I0704 21:49:08.563895 23533 layer_factory.hpp:77] Creating layer res2a
I0704 21:49:08.563908 23533 net.cpp:100] Creating Layer res2a
I0704 21:49:08.563915 23533 net.cpp:444] res2a <- res2a_branch1
I0704 21:49:08.563927 23533 net.cpp:444] res2a <- res2a_branch2c
I0704 21:49:08.563937 23533 net.cpp:418] res2a -> res2a
I0704 21:49:08.563977 23533 net.cpp:150] Setting up res2a
I0704 21:49:08.563984 23533 net.cpp:157] Top shape: 1 256 240 320 (19660800)
I0704 21:49:08.563988 23533 net.cpp:165] Memory required for data: 1140326568
I0704 21:49:08.563992 23533 layer_factory.hpp:77] Creating layer res2a_relu
I0704 21:49:08.564003 23533 net.cpp:100] Creating Layer res2a_relu
I0704 21:49:08.564009 23533 net.cpp:444] res2a_relu <- res2a
I0704 21:49:08.564023 23533 net.cpp:405] res2a_relu -> res2a (in-place)
I0704 21:49:08.564182 23533 net.cpp:150] Setting up res2a_relu
I0704 21:49:08.564190 23533 net.cpp:157] Top shape: 1 256 240 320 (19660800)
I0704 21:49:08.564193 23533 net.cpp:165] Memory required for data: 1218969768
I0704 21:49:08.564198 23533 layer_factory.hpp:77] Creating layer res2a_res2a_relu_0_split
I0704 21:49:08.564210 23533 net.cpp:100] Creating Layer res2a_res2a_relu_0_split
I0704 21:49:08.564215 23533 net.cpp:444] res2a_res2a_relu_0_split <- res2a
I0704 21:49:08.564229 23533 net.cpp:418] res2a_res2a_relu_0_split -> res2a_res2a_relu_0_split_0
I0704 21:49:08.564244 23533 net.cpp:418] res2a_res2a_relu_0_split -> res2a_res2a_relu_0_split_1
I0704 21:49:08.564288 23533 net.cpp:150] Setting up res2a_res2a_relu_0_split
I0704 21:49:08.564297 23533 net.cpp:157] Top shape: 1 256 240 320 (19660800)
I0704 21:49:08.564302 23533 net.cpp:157] Top shape: 1 256 240 320 (19660800)
I0704 21:49:08.564306 23533 net.cpp:165] Memory required for data: 1376256168
I0704 21:49:08.564309 23533 layer_factory.hpp:77] Creating layer res2b_branch2a
I0704 21:49:08.564326 23533 net.cpp:100] Creating Layer res2b_branch2a
I0704 21:49:08.564332 23533 net.cpp:444] res2b_branch2a <- res2a_res2a_relu_0_split_0
I0704 21:49:08.564347 23533 net.cpp:418] res2b_branch2a -> res2b_branch2a
I0704 21:49:08.565352 23533 cudnn_conv_layer.cpp:194] Reallocating workspace storage: 1388952
I0704 21:49:08.565604 23533 net.cpp:150] Setting up res2b_branch2a
I0704 21:49:08.565615 23533 net.cpp:157] Top shape: 1 64 240 320 (4915200)
I0704 21:49:08.565618 23533 net.cpp:165] Memory required for data: 1395916968
I0704 21:49:08.565630 23533 layer_factory.hpp:77] Creating layer bn2b_branch2a
I0704 21:49:08.565646 23533 net.cpp:100] Creating Layer bn2b_branch2a
I0704 21:49:08.565651 23533 net.cpp:444] bn2b_branch2a <- res2b_branch2a
I0704 21:49:08.565665 23533 net.cpp:405] bn2b_branch2a -> res2b_branch2a (in-place)
I0704 21:49:08.565927 23533 net.cpp:150] Setting up bn2b_branch2a
I0704 21:49:08.565932 23533 net.cpp:157] Top shape: 1 64 240 320 (4915200)
I0704 21:49:08.565934 23533 net.cpp:165] Memory required for data: 1415577768
I0704 21:49:08.565963 23533 layer_factory.hpp:77] Creating layer scale2b_branch2a
I0704 21:49:08.565975 23533 net.cpp:100] Creating Layer scale2b_branch2a
I0704 21:49:08.565981 23533 net.cpp:444] scale2b_branch2a <- res2b_branch2a
I0704 21:49:08.565991 23533 net.cpp:405] scale2b_branch2a -> res2b_branch2a (in-place)
I0704 21:49:08.566036 23533 layer_factory.hpp:77] Creating layer scale2b_branch2a
I0704 21:49:08.566902 23533 net.cpp:150] Setting up scale2b_branch2a
I0704 21:49:08.566911 23533 net.cpp:157] Top shape: 1 64 240 320 (4915200)
I0704 21:49:08.566913 23533 net.cpp:165] Memory required for data: 1435238568
I0704 21:49:08.566926 23533 layer_factory.hpp:77] Creating layer res2b_branch2a_relu
I0704 21:49:08.566937 23533 net.cpp:100] Creating Layer res2b_branch2a_relu
I0704 21:49:08.566942 23533 net.cpp:444] res2b_branch2a_relu <- res2b_branch2a
I0704 21:49:08.566953 23533 net.cpp:405] res2b_branch2a_relu -> res2b_branch2a (in-place)
I0704 21:49:08.567104 23533 net.cpp:150] Setting up res2b_branch2a_relu
I0704 21:49:08.567111 23533 net.cpp:157] Top shape: 1 64 240 320 (4915200)
I0704 21:49:08.567113 23533 net.cpp:165] Memory required for data: 1454899368
I0704 21:49:08.567117 23533 layer_factory.hpp:77] Creating layer res2b_branch2b
I0704 21:49:08.567142 23533 net.cpp:100] Creating Layer res2b_branch2b
I0704 21:49:08.567147 23533 net.cpp:444] res2b_branch2b <- res2b_branch2a
I0704 21:49:08.567162 23533 net.cpp:418] res2b_branch2b -> res2b_branch2b
I0704 21:49:08.567993 23533 cudnn_conv_layer.cpp:194] Reallocating workspace storage: 786432
I0704 21:49:08.568008 23533 net.cpp:150] Setting up res2b_branch2b
I0704 21:49:08.568015 23533 net.cpp:157] Top shape: 1 64 240 320 (4915200)
I0704 21:49:08.568018 23533 net.cpp:165] Memory required for data: 1474560168
I0704 21:49:08.568027 23533 layer_factory.hpp:77] Creating layer bn2b_branch2b
I0704 21:49:08.568040 23533 net.cpp:100] Creating Layer bn2b_branch2b
I0704 21:49:08.568047 23533 net.cpp:444] bn2b_branch2b <- res2b_branch2b
I0704 21:49:08.568059 23533 net.cpp:405] bn2b_branch2b -> res2b_branch2b (in-place)
I0704 21:49:08.568326 23533 net.cpp:150] Setting up bn2b_branch2b
I0704 21:49:08.568332 23533 net.cpp:157] Top shape: 1 64 240 320 (4915200)
I0704 21:49:08.568336 23533 net.cpp:165] Memory required for data: 1494220968
I0704 21:49:08.568351 23533 layer_factory.hpp:77] Creating layer scale2b_branch2b
I0704 21:49:08.568361 23533 net.cpp:100] Creating Layer scale2b_branch2b
I0704 21:49:08.568367 23533 net.cpp:444] scale2b_branch2b <- res2b_branch2b
I0704 21:49:08.568378 23533 net.cpp:405] scale2b_branch2b -> res2b_branch2b (in-place)
I0704 21:49:08.568424 23533 layer_factory.hpp:77] Creating layer scale2b_branch2b
I0704 21:49:08.568744 23533 net.cpp:150] Setting up scale2b_branch2b
I0704 21:49:08.568751 23533 net.cpp:157] Top shape: 1 64 240 320 (4915200)
I0704 21:49:08.568753 23533 net.cpp:165] Memory required for data: 1513881768
I0704 21:49:08.568763 23533 layer_factory.hpp:77] Creating layer res2b_branch2b_relu
I0704 21:49:08.568773 23533 net.cpp:100] Creating Layer res2b_branch2b_relu
I0704 21:49:08.568779 23533 net.cpp:444] res2b_branch2b_relu <- res2b_branch2b
I0704 21:49:08.568789 23533 net.cpp:405] res2b_branch2b_relu -> res2b_branch2b (in-place)
I0704 21:49:08.569126 23533 net.cpp:150] Setting up res2b_branch2b_relu
I0704 21:49:08.569134 23533 net.cpp:157] Top shape: 1 64 240 320 (4915200)
I0704 21:49:08.569137 23533 net.cpp:165] Memory required for data: 1533542568
I0704 21:49:08.569141 23533 layer_factory.hpp:77] Creating layer res2b_branch2c
I0704 21:49:08.569156 23533 net.cpp:100] Creating Layer res2b_branch2c
I0704 21:49:08.569162 23533 net.cpp:444] res2b_branch2c <- res2b_branch2b
I0704 21:49:08.569177 23533 net.cpp:418] res2b_branch2c -> res2b_branch2c
I0704 21:49:08.569980 23533 cudnn_conv_layer.cpp:194] Reallocating workspace storage: 1388952
I0704 21:49:08.570185 23533 net.cpp:150] Setting up res2b_branch2c
I0704 21:49:08.570196 23533 net.cpp:157] Top shape: 1 256 240 320 (19660800)
I0704 21:49:08.570199 23533 net.cpp:165] Memory required for data: 1612185768
I0704 21:49:08.570210 23533 layer_factory.hpp:77] Creating layer bn2b_branch2c
I0704 21:49:08.570222 23533 net.cpp:100] Creating Layer bn2b_branch2c
I0704 21:49:08.570228 23533 net.cpp:444] bn2b_branch2c <- res2b_branch2c
I0704 21:49:08.570240 23533 net.cpp:405] bn2b_branch2c -> res2b_branch2c (in-place)
I0704 21:49:08.570500 23533 net.cpp:150] Setting up bn2b_branch2c
I0704 21:49:08.570507 23533 net.cpp:157] Top shape: 1 256 240 320 (19660800)
I0704 21:49:08.570508 23533 net.cpp:165] Memory required for data: 1690828968
I0704 21:49:08.570523 23533 layer_factory.hpp:77] Creating layer scale2b_branch2c
I0704 21:49:08.570534 23533 net.cpp:100] Creating Layer scale2b_branch2c
I0704 21:49:08.570539 23533 net.cpp:444] scale2b_branch2c <- res2b_branch2c
I0704 21:49:08.570549 23533 net.cpp:405] scale2b_branch2c -> res2b_branch2c (in-place)
I0704 21:49:08.570592 23533 layer_factory.hpp:77] Creating layer scale2b_branch2c
I0704 21:49:08.571439 23533 net.cpp:150] Setting up scale2b_branch2c
I0704 21:49:08.571447 23533 net.cpp:157] Top shape: 1 256 240 320 (19660800)
I0704 21:49:08.571449 23533 net.cpp:165] Memory required for data: 1769472168
I0704 21:49:08.571461 23533 layer_factory.hpp:77] Creating layer res2b
I0704 21:49:08.571472 23533 net.cpp:100] Creating Layer res2b
I0704 21:49:08.571478 23533 net.cpp:444] res2b <- res2a_res2a_relu_0_split_1
I0704 21:49:08.571488 23533 net.cpp:444] res2b <- res2b_branch2c
I0704 21:49:08.571497 23533 net.cpp:418] res2b -> res2b
I0704 21:49:08.571534 23533 net.cpp:150] Setting up res2b
I0704 21:49:08.571542 23533 net.cpp:157] Top shape: 1 256 240 320 (19660800)
I0704 21:49:08.571544 23533 net.cpp:165] Memory required for data: 1848115368
I0704 21:49:08.571547 23533 layer_factory.hpp:77] Creating layer res2b_relu
I0704 21:49:08.571557 23533 net.cpp:100] Creating Layer res2b_relu
I0704 21:49:08.571560 23533 net.cpp:444] res2b_relu <- res2b
I0704 21:49:08.571570 23533 net.cpp:405] res2b_relu -> res2b (in-place)
I0704 21:49:08.571705 23533 net.cpp:150] Setting up res2b_relu
I0704 21:49:08.571712 23533 net.cpp:157] Top shape: 1 256 240 320 (19660800)
I0704 21:49:08.571715 23533 net.cpp:165] Memory required for data: 1926758568
I0704 21:49:08.571718 23533 layer_factory.hpp:77] Creating layer res2b_res2b_relu_0_split
I0704 21:49:08.571727 23533 net.cpp:100] Creating Layer res2b_res2b_relu_0_split
I0704 21:49:08.571732 23533 net.cpp:444] res2b_res2b_relu_0_split <- res2b
I0704 21:49:08.571743 23533 net.cpp:418] res2b_res2b_relu_0_split -> res2b_res2b_relu_0_split_0
I0704 21:49:08.571755 23533 net.cpp:418] res2b_res2b_relu_0_split -> res2b_res2b_relu_0_split_1
I0704 21:49:08.571792 23533 net.cpp:150] Setting up res2b_res2b_relu_0_split
I0704 21:49:08.571799 23533 net.cpp:157] Top shape: 1 256 240 320 (19660800)
I0704 21:49:08.571802 23533 net.cpp:157] Top shape: 1 256 240 320 (19660800)
I0704 21:49:08.571805 23533 net.cpp:165] Memory required for data: 2084044968
I0704 21:49:08.571807 23533 layer_factory.hpp:77] Creating layer res2c_branch2a
I0704 21:49:08.571820 23533 net.cpp:100] Creating Layer res2c_branch2a
I0704 21:49:08.571825 23533 net.cpp:444] res2c_branch2a <- res2b_res2b_relu_0_split_0
I0704 21:49:08.571835 23533 net.cpp:418] res2c_branch2a -> res2c_branch2a
I0704 21:49:08.572605 23533 cudnn_conv_layer.cpp:194] Reallocating workspace storage: 1388952
I0704 21:49:08.572810 23533 net.cpp:150] Setting up res2c_branch2a
I0704 21:49:08.572823 23533 net.cpp:157] Top shape: 1 64 240 320 (4915200)
I0704 21:49:08.572824 23533 net.cpp:165] Memory required for data: 2103705768
I0704 21:49:08.572834 23533 layer_factory.hpp:77] Creating layer bn2c_branch2a
I0704 21:49:08.572847 23533 net.cpp:100] Creating Layer bn2c_branch2a
I0704 21:49:08.572854 23533 net.cpp:444] bn2c_branch2a <- res2c_branch2a
I0704 21:49:08.572865 23533 net.cpp:405] bn2c_branch2a -> res2c_branch2a (in-place)
I0704 21:49:08.573125 23533 net.cpp:150] Setting up bn2c_branch2a
I0704 21:49:08.573132 23533 net.cpp:157] Top shape: 1 64 240 320 (4915200)
I0704 21:49:08.573133 23533 net.cpp:165] Memory required for data: 2123366568
I0704 21:49:08.573146 23533 layer_factory.hpp:77] Creating layer scale2c_branch2a
I0704 21:49:08.573158 23533 net.cpp:100] Creating Layer scale2c_branch2a
I0704 21:49:08.573163 23533 net.cpp:444] scale2c_branch2a <- res2c_branch2a
I0704 21:49:08.573173 23533 net.cpp:405] scale2c_branch2a -> res2c_branch2a (in-place)
I0704 21:49:08.573216 23533 layer_factory.hpp:77] Creating layer scale2c_branch2a
I0704 21:49:08.573531 23533 net.cpp:150] Setting up scale2c_branch2a
I0704 21:49:08.573539 23533 net.cpp:157] Top shape: 1 64 240 320 (4915200)
I0704 21:49:08.573540 23533 net.cpp:165] Memory required for data: 2143027368
I0704 21:49:08.573560 23533 layer_factory.hpp:77] Creating layer res2c_branch2a_relu
I0704 21:49:08.573580 23533 net.cpp:100] Creating Layer res2c_branch2a_relu
I0704 21:49:08.573586 23533 net.cpp:444] res2c_branch2a_relu <- res2c_branch2a
I0704 21:49:08.573596 23533 net.cpp:405] res2c_branch2a_relu -> res2c_branch2a (in-place)
I0704 21:49:08.573729 23533 net.cpp:150] Setting up res2c_branch2a_relu
I0704 21:49:08.573735 23533 net.cpp:157] Top shape: 1 64 240 320 (4915200)
I0704 21:49:08.573737 23533 net.cpp:165] Memory required for data: 2162688168
I0704 21:49:08.573741 23533 layer_factory.hpp:77] Creating layer res2c_branch2b
I0704 21:49:08.573753 23533 net.cpp:100] Creating Layer res2c_branch2b
I0704 21:49:08.573758 23533 net.cpp:444] res2c_branch2b <- res2c_branch2a
I0704 21:49:08.573771 23533 net.cpp:418] res2c_branch2b -> res2c_branch2b
I0704 21:49:08.574553 23533 cudnn_conv_layer.cpp:194] Reallocating workspace storage: 786432
I0704 21:49:08.574759 23533 net.cpp:150] Setting up res2c_branch2b
I0704 21:49:08.574769 23533 net.cpp:157] Top shape: 1 64 240 320 (4915200)
I0704 21:49:08.574772 23533 net.cpp:165] Memory required for data: 2182348968
I0704 21:49:08.574782 23533 layer_factory.hpp:77] Creating layer bn2c_branch2b
I0704 21:49:08.574795 23533 net.cpp:100] Creating Layer bn2c_branch2b
I0704 21:49:08.574800 23533 net.cpp:444] bn2c_branch2b <- res2c_branch2b
I0704 21:49:08.574812 23533 net.cpp:405] bn2c_branch2b -> res2c_branch2b (in-place)
I0704 21:49:08.575073 23533 net.cpp:150] Setting up bn2c_branch2b
I0704 21:49:08.575078 23533 net.cpp:157] Top shape: 1 64 240 320 (4915200)
I0704 21:49:08.575079 23533 net.cpp:165] Memory required for data: 2202009768
I0704 21:49:08.575094 23533 layer_factory.hpp:77] Creating layer scale2c_branch2b
I0704 21:49:08.575105 23533 net.cpp:100] Creating Layer scale2c_branch2b
I0704 21:49:08.575110 23533 net.cpp:444] scale2c_branch2b <- res2c_branch2b
I0704 21:49:08.575120 23533 net.cpp:405] scale2c_branch2b -> res2c_branch2b (in-place)
I0704 21:49:08.575163 23533 layer_factory.hpp:77] Creating layer scale2c_branch2b
I0704 21:49:08.576005 23533 net.cpp:150] Setting up scale2c_branch2b
I0704 21:49:08.576015 23533 net.cpp:157] Top shape: 1 64 240 320 (4915200)
I0704 21:49:08.576017 23533 net.cpp:165] Memory required for data: 2221670568
I0704 21:49:08.576030 23533 layer_factory.hpp:77] Creating layer res2c_branch2b_relu
I0704 21:49:08.576040 23533 net.cpp:100] Creating Layer res2c_branch2b_relu
I0704 21:49:08.576045 23533 net.cpp:444] res2c_branch2b_relu <- res2c_branch2b
I0704 21:49:08.576056 23533 net.cpp:405] res2c_branch2b_relu -> res2c_branch2b (in-place)
I0704 21:49:08.576202 23533 net.cpp:150] Setting up res2c_branch2b_relu
I0704 21:49:08.576208 23533 net.cpp:157] Top shape: 1 64 240 320 (4915200)
I0704 21:49:08.576210 23533 net.cpp:165] Memory required for data: 2241331368
I0704 21:49:08.576215 23533 layer_factory.hpp:77] Creating layer res2c_branch2c
I0704 21:49:08.576230 23533 net.cpp:100] Creating Layer res2c_branch2c
I0704 21:49:08.576233 23533 net.cpp:444] res2c_branch2c <- res2c_branch2b
I0704 21:49:08.576246 23533 net.cpp:418] res2c_branch2c -> res2c_branch2c
I0704 21:49:08.577049 23533 cudnn_conv_layer.cpp:194] Reallocating workspace storage: 1388952
I0704 21:49:08.577258 23533 net.cpp:150] Setting up res2c_branch2c
I0704 21:49:08.577268 23533 net.cpp:157] Top shape: 1 256 240 320 (19660800)
I0704 21:49:08.577271 23533 net.cpp:165] Memory required for data: 2319974568
I0704 21:49:08.577281 23533 layer_factory.hpp:77] Creating layer bn2c_branch2c
I0704 21:49:08.577294 23533 net.cpp:100] Creating Layer bn2c_branch2c
I0704 21:49:08.577299 23533 net.cpp:444] bn2c_branch2c <- res2c_branch2c
I0704 21:49:08.577311 23533 net.cpp:405] bn2c_branch2c -> res2c_branch2c (in-place)
I0704 21:49:08.577587 23533 net.cpp:150] Setting up bn2c_branch2c
I0704 21:49:08.577596 23533 net.cpp:157] Top shape: 1 256 240 320 (19660800)
I0704 21:49:08.577600 23533 net.cpp:165] Memory required for data: 2398617768
I0704 21:49:08.577646 23533 layer_factory.hpp:77] Creating layer scale2c_branch2c
I0704 21:49:08.577683 23533 net.cpp:100] Creating Layer scale2c_branch2c
I0704 21:49:08.577702 23533 net.cpp:444] scale2c_branch2c <- res2c_branch2c
I0704 21:49:08.577729 23533 net.cpp:405] scale2c_branch2c -> res2c_branch2c (in-place)
I0704 21:49:08.577819 23533 layer_factory.hpp:77] Creating layer scale2c_branch2c
I0704 21:49:08.578248 23533 net.cpp:150] Setting up scale2c_branch2c
I0704 21:49:08.578259 23533 net.cpp:157] Top shape: 1 256 240 320 (19660800)
I0704 21:49:08.578261 23533 net.cpp:165] Memory required for data: 2477260968
I0704 21:49:08.578275 23533 layer_factory.hpp:77] Creating layer res2c
I0704 21:49:08.578289 23533 net.cpp:100] Creating Layer res2c
I0704 21:49:08.578295 23533 net.cpp:444] res2c <- res2b_res2b_relu_0_split_1
I0704 21:49:08.578306 23533 net.cpp:444] res2c <- res2c_branch2c
I0704 21:49:08.578315 23533 net.cpp:418] res2c -> res2c
I0704 21:49:08.578351 23533 net.cpp:150] Setting up res2c
I0704 21:49:08.578358 23533 net.cpp:157] Top shape: 1 256 240 320 (19660800)
I0704 21:49:08.578361 23533 net.cpp:165] Memory required for data: 2555904168
I0704 21:49:08.578364 23533 layer_factory.hpp:77] Creating layer res2c_relu
I0704 21:49:08.578373 23533 net.cpp:100] Creating Layer res2c_relu
I0704 21:49:08.578378 23533 net.cpp:444] res2c_relu <- res2c
I0704 21:49:08.578388 23533 net.cpp:405] res2c_relu -> res2c (in-place)
I0704 21:49:08.578831 23533 net.cpp:150] Setting up res2c_relu
I0704 21:49:08.578840 23533 net.cpp:157] Top shape: 1 256 240 320 (19660800)
I0704 21:49:08.578843 23533 net.cpp:165] Memory required for data: 2634547368
I0704 21:49:08.578847 23533 layer_factory.hpp:77] Creating layer res2c_res2c_relu_0_split
I0704 21:49:08.578857 23533 net.cpp:100] Creating Layer res2c_res2c_relu_0_split
I0704 21:49:08.578862 23533 net.cpp:444] res2c_res2c_relu_0_split <- res2c
I0704 21:49:08.578876 23533 net.cpp:418] res2c_res2c_relu_0_split -> res2c_res2c_relu_0_split_0
I0704 21:49:08.578891 23533 net.cpp:418] res2c_res2c_relu_0_split -> res2c_res2c_relu_0_split_1
I0704 21:49:08.578930 23533 net.cpp:150] Setting up res2c_res2c_relu_0_split
I0704 21:49:08.578938 23533 net.cpp:157] Top shape: 1 256 240 320 (19660800)
I0704 21:49:08.578943 23533 net.cpp:157] Top shape: 1 256 240 320 (19660800)
I0704 21:49:08.578944 23533 net.cpp:165] Memory required for data: 2791833768
I0704 21:49:08.578948 23533 layer_factory.hpp:77] Creating layer res3a_branch1
I0704 21:49:08.578963 23533 net.cpp:100] Creating Layer res3a_branch1
I0704 21:49:08.578969 23533 net.cpp:444] res3a_branch1 <- res2c_res2c_relu_0_split_0
I0704 21:49:08.578980 23533 net.cpp:418] res3a_branch1 -> res3a_branch1
I0704 21:49:08.579996 23533 cudnn_conv_layer.cpp:194] Reallocating workspace storage: 345624
I0704 21:49:08.580015 23533 net.cpp:150] Setting up res3a_branch1
I0704 21:49:08.580022 23533 net.cpp:157] Top shape: 1 512 120 160 (9830400)
I0704 21:49:08.580024 23533 net.cpp:165] Memory required for data: 2831155368
I0704 21:49:08.580034 23533 layer_factory.hpp:77] Creating layer bn3a_branch1
I0704 21:49:08.580049 23533 net.cpp:100] Creating Layer bn3a_branch1
I0704 21:49:08.580054 23533 net.cpp:444] bn3a_branch1 <- res3a_branch1
I0704 21:49:08.580067 23533 net.cpp:405] bn3a_branch1 -> res3a_branch1 (in-place)
I0704 21:49:08.580919 23533 net.cpp:150] Setting up bn3a_branch1
I0704 21:49:08.580929 23533 net.cpp:157] Top shape: 1 512 120 160 (9830400)
I0704 21:49:08.580934 23533 net.cpp:165] Memory required for data: 2870476968
I0704 21:49:08.580956 23533 layer_factory.hpp:77] Creating layer scale3a_branch1
I0704 21:49:08.580978 23533 net.cpp:100] Creating Layer scale3a_branch1
I0704 21:49:08.580986 23533 net.cpp:444] scale3a_branch1 <- res3a_branch1
I0704 21:49:08.581002 23533 net.cpp:405] scale3a_branch1 -> res3a_branch1 (in-place)
I0704 21:49:08.581066 23533 layer_factory.hpp:77] Creating layer scale3a_branch1
I0704 21:49:08.581277 23533 net.cpp:150] Setting up scale3a_branch1
I0704 21:49:08.581287 23533 net.cpp:157] Top shape: 1 512 120 160 (9830400)
I0704 21:49:08.581291 23533 net.cpp:165] Memory required for data: 2909798568
I0704 21:49:08.581307 23533 layer_factory.hpp:77] Creating layer res3a_branch2a
I0704 21:49:08.581328 23533 net.cpp:100] Creating Layer res3a_branch2a
I0704 21:49:08.581338 23533 net.cpp:444] res3a_branch2a <- res2c_res2c_relu_0_split_1
I0704 21:49:08.581359 23533 net.cpp:418] res3a_branch2a -> res3a_branch2a
I0704 21:49:08.582480 23533 cudnn_conv_layer.cpp:194] Reallocating workspace storage: 345624
I0704 21:49:08.582499 23533 net.cpp:150] Setting up res3a_branch2a
I0704 21:49:08.582509 23533 net.cpp:157] Top shape: 1 128 120 160 (2457600)
I0704 21:49:08.582512 23533 net.cpp:165] Memory required for data: 2919628968
I0704 21:49:08.582522 23533 layer_factory.hpp:77] Creating layer bn3a_branch2a
I0704 21:49:08.582536 23533 net.cpp:100] Creating Layer bn3a_branch2a
I0704 21:49:08.582542 23533 net.cpp:444] bn3a_branch2a <- res3a_branch2a
I0704 21:49:08.582556 23533 net.cpp:405] bn3a_branch2a -> res3a_branch2a (in-place)
I0704 21:49:08.582742 23533 net.cpp:150] Setting up bn3a_branch2a
I0704 21:49:08.582748 23533 net.cpp:157] Top shape: 1 128 120 160 (2457600)
I0704 21:49:08.582751 23533 net.cpp:165] Memory required for data: 2929459368
I0704 21:49:08.582765 23533 layer_factory.hpp:77] Creating layer scale3a_branch2a
I0704 21:49:08.582777 23533 net.cpp:100] Creating Layer scale3a_branch2a
I0704 21:49:08.582782 23533 net.cpp:444] scale3a_branch2a <- res3a_branch2a
I0704 21:49:08.582794 23533 net.cpp:405] scale3a_branch2a -> res3a_branch2a (in-place)
I0704 21:49:08.582839 23533 layer_factory.hpp:77] Creating layer scale3a_branch2a
I0704 21:49:08.582996 23533 net.cpp:150] Setting up scale3a_branch2a
I0704 21:49:08.583003 23533 net.cpp:157] Top shape: 1 128 120 160 (2457600)
I0704 21:49:08.583005 23533 net.cpp:165] Memory required for data: 2939289768
I0704 21:49:08.583015 23533 layer_factory.hpp:77] Creating layer res3a_branch2a_relu
I0704 21:49:08.583025 23533 net.cpp:100] Creating Layer res3a_branch2a_relu
I0704 21:49:08.583030 23533 net.cpp:444] res3a_branch2a_relu <- res3a_branch2a
I0704 21:49:08.583042 23533 net.cpp:405] res3a_branch2a_relu -> res3a_branch2a (in-place)
I0704 21:49:08.583178 23533 net.cpp:150] Setting up res3a_branch2a_relu
I0704 21:49:08.583184 23533 net.cpp:157] Top shape: 1 128 120 160 (2457600)
I0704 21:49:08.583187 23533 net.cpp:165] Memory required for data: 2949120168
I0704 21:49:08.583191 23533 layer_factory.hpp:77] Creating layer res3a_branch2b
I0704 21:49:08.583205 23533 net.cpp:100] Creating Layer res3a_branch2b
I0704 21:49:08.583210 23533 net.cpp:444] res3a_branch2b <- res3a_branch2a
I0704 21:49:08.583225 23533 net.cpp:418] res3a_branch2b -> res3a_branch2b
I0704 21:49:08.584796 23533 cudnn_conv_layer.cpp:194] Reallocating workspace storage: 3145728
I0704 21:49:08.585013 23533 net.cpp:150] Setting up res3a_branch2b
I0704 21:49:08.585024 23533 net.cpp:157] Top shape: 1 128 120 160 (2457600)
I0704 21:49:08.585027 23533 net.cpp:165] Memory required for data: 2958950568
I0704 21:49:08.585038 23533 layer_factory.hpp:77] Creating layer bn3a_branch2b
I0704 21:49:08.585063 23533 net.cpp:100] Creating Layer bn3a_branch2b
I0704 21:49:08.585070 23533 net.cpp:444] bn3a_branch2b <- res3a_branch2b
I0704 21:49:08.585083 23533 net.cpp:405] bn3a_branch2b -> res3a_branch2b (in-place)
I0704 21:49:08.585269 23533 net.cpp:150] Setting up bn3a_branch2b
I0704 21:49:08.585275 23533 net.cpp:157] Top shape: 1 128 120 160 (2457600)
I0704 21:49:08.585278 23533 net.cpp:165] Memory required for data: 2968780968
I0704 21:49:08.585294 23533 layer_factory.hpp:77] Creating layer scale3a_branch2b
I0704 21:49:08.585306 23533 net.cpp:100] Creating Layer scale3a_branch2b
I0704 21:49:08.585311 23533 net.cpp:444] scale3a_branch2b <- res3a_branch2b
I0704 21:49:08.585324 23533 net.cpp:405] scale3a_branch2b -> res3a_branch2b (in-place)
I0704 21:49:08.585369 23533 layer_factory.hpp:77] Creating layer scale3a_branch2b
I0704 21:49:08.585527 23533 net.cpp:150] Setting up scale3a_branch2b
I0704 21:49:08.585535 23533 net.cpp:157] Top shape: 1 128 120 160 (2457600)
I0704 21:49:08.585537 23533 net.cpp:165] Memory required for data: 2978611368
I0704 21:49:08.585546 23533 layer_factory.hpp:77] Creating layer res3a_branch2b_relu
I0704 21:49:08.585584 23533 net.cpp:100] Creating Layer res3a_branch2b_relu
I0704 21:49:08.585589 23533 net.cpp:444] res3a_branch2b_relu <- res3a_branch2b
I0704 21:49:08.585600 23533 net.cpp:405] res3a_branch2b_relu -> res3a_branch2b (in-place)
I0704 21:49:08.585741 23533 net.cpp:150] Setting up res3a_branch2b_relu
I0704 21:49:08.585748 23533 net.cpp:157] Top shape: 1 128 120 160 (2457600)
I0704 21:49:08.585750 23533 net.cpp:165] Memory required for data: 2988441768
I0704 21:49:08.585754 23533 layer_factory.hpp:77] Creating layer res3a_branch2c
I0704 21:49:08.585769 23533 net.cpp:100] Creating Layer res3a_branch2c
I0704 21:49:08.585775 23533 net.cpp:444] res3a_branch2c <- res3a_branch2b
I0704 21:49:08.585788 23533 net.cpp:418] res3a_branch2c -> res3a_branch2c
I0704 21:49:08.586658 23533 cudnn_conv_layer.cpp:194] Reallocating workspace storage: 352152
I0704 21:49:08.586671 23533 net.cpp:150] Setting up res3a_branch2c
I0704 21:49:08.586678 23533 net.cpp:157] Top shape: 1 512 120 160 (9830400)
I0704 21:49:08.586680 23533 net.cpp:165] Memory required for data: 3027763368
I0704 21:49:08.586690 23533 layer_factory.hpp:77] Creating layer bn3a_branch2c
I0704 21:49:08.586704 23533 net.cpp:100] Creating Layer bn3a_branch2c
I0704 21:49:08.586709 23533 net.cpp:444] bn3a_branch2c <- res3a_branch2c
I0704 21:49:08.586722 23533 net.cpp:405] bn3a_branch2c -> res3a_branch2c (in-place)
I0704 21:49:08.586905 23533 net.cpp:150] Setting up bn3a_branch2c
I0704 21:49:08.586911 23533 net.cpp:157] Top shape: 1 512 120 160 (9830400)
I0704 21:49:08.586913 23533 net.cpp:165] Memory required for data: 3067084968
I0704 21:49:08.586928 23533 layer_factory.hpp:77] Creating layer scale3a_branch2c
I0704 21:49:08.586941 23533 net.cpp:100] Creating Layer scale3a_branch2c
I0704 21:49:08.586946 23533 net.cpp:444] scale3a_branch2c <- res3a_branch2c
I0704 21:49:08.586956 23533 net.cpp:405] scale3a_branch2c -> res3a_branch2c (in-place)
I0704 21:49:08.586999 23533 layer_factory.hpp:77] Creating layer scale3a_branch2c
I0704 21:49:08.587159 23533 net.cpp:150] Setting up scale3a_branch2c
I0704 21:49:08.587165 23533 net.cpp:157] Top shape: 1 512 120 160 (9830400)
I0704 21:49:08.587168 23533 net.cpp:165] Memory required for data: 3106406568
I0704 21:49:08.587178 23533 layer_factory.hpp:77] Creating layer res3a
I0704 21:49:08.587188 23533 net.cpp:100] Creating Layer res3a
I0704 21:49:08.587193 23533 net.cpp:444] res3a <- res3a_branch1
I0704 21:49:08.587201 23533 net.cpp:444] res3a <- res3a_branch2c
I0704 21:49:08.587211 23533 net.cpp:418] res3a -> res3a
I0704 21:49:08.587244 23533 net.cpp:150] Setting up res3a
I0704 21:49:08.587250 23533 net.cpp:157] Top shape: 1 512 120 160 (9830400)
I0704 21:49:08.587254 23533 net.cpp:165] Memory required for data: 3145728168
I0704 21:49:08.587256 23533 layer_factory.hpp:77] Creating layer res3a_relu
I0704 21:49:08.587265 23533 net.cpp:100] Creating Layer res3a_relu
I0704 21:49:08.587268 23533 net.cpp:444] res3a_relu <- res3a
I0704 21:49:08.587278 23533 net.cpp:405] res3a_relu -> res3a (in-place)
I0704 21:49:08.587623 23533 net.cpp:150] Setting up res3a_relu
I0704 21:49:08.587631 23533 net.cpp:157] Top shape: 1 512 120 160 (9830400)
I0704 21:49:08.587633 23533 net.cpp:165] Memory required for data: 3185049768
I0704 21:49:08.587638 23533 layer_factory.hpp:77] Creating layer res3a_res3a_relu_0_split
I0704 21:49:08.587648 23533 net.cpp:100] Creating Layer res3a_res3a_relu_0_split
I0704 21:49:08.587654 23533 net.cpp:444] res3a_res3a_relu_0_split <- res3a
I0704 21:49:08.587667 23533 net.cpp:418] res3a_res3a_relu_0_split -> res3a_res3a_relu_0_split_0
I0704 21:49:08.587682 23533 net.cpp:418] res3a_res3a_relu_0_split -> res3a_res3a_relu_0_split_1
I0704 21:49:08.587723 23533 net.cpp:150] Setting up res3a_res3a_relu_0_split
I0704 21:49:08.587729 23533 net.cpp:157] Top shape: 1 512 120 160 (9830400)
I0704 21:49:08.587733 23533 net.cpp:157] Top shape: 1 512 120 160 (9830400)
I0704 21:49:08.587735 23533 net.cpp:165] Memory required for data: 3263692968
I0704 21:49:08.587739 23533 layer_factory.hpp:77] Creating layer res3b_branch2a
I0704 21:49:08.587751 23533 net.cpp:100] Creating Layer res3b_branch2a
I0704 21:49:08.587756 23533 net.cpp:444] res3b_branch2a <- res3a_res3a_relu_0_split_0
I0704 21:49:08.587770 23533 net.cpp:418] res3b_branch2a -> res3b_branch2a
I0704 21:49:08.588641 23533 cudnn_conv_layer.cpp:194] Reallocating workspace storage: 352152
I0704 21:49:08.588660 23533 net.cpp:150] Setting up res3b_branch2a
I0704 21:49:08.588666 23533 net.cpp:157] Top shape: 1 128 120 160 (2457600)
I0704 21:49:08.588670 23533 net.cpp:165] Memory required for data: 3273523368
I0704 21:49:08.588680 23533 layer_factory.hpp:77] Creating layer bn3b_branch2a
I0704 21:49:08.588692 23533 net.cpp:100] Creating Layer bn3b_branch2a
I0704 21:49:08.588698 23533 net.cpp:444] bn3b_branch2a <- res3b_branch2a
I0704 21:49:08.588711 23533 net.cpp:405] bn3b_branch2a -> res3b_branch2a (in-place)
I0704 21:49:08.588896 23533 net.cpp:150] Setting up bn3b_branch2a
I0704 21:49:08.588901 23533 net.cpp:157] Top shape: 1 128 120 160 (2457600)
I0704 21:49:08.588903 23533 net.cpp:165] Memory required for data: 3283353768
I0704 21:49:08.588918 23533 layer_factory.hpp:77] Creating layer scale3b_branch2a
I0704 21:49:08.588929 23533 net.cpp:100] Creating Layer scale3b_branch2a
I0704 21:49:08.588934 23533 net.cpp:444] scale3b_branch2a <- res3b_branch2a
I0704 21:49:08.588945 23533 net.cpp:405] scale3b_branch2a -> res3b_branch2a (in-place)
I0704 21:49:08.588990 23533 layer_factory.hpp:77] Creating layer scale3b_branch2a
I0704 21:49:08.589706 23533 net.cpp:150] Setting up scale3b_branch2a
I0704 21:49:08.589715 23533 net.cpp:157] Top shape: 1 128 120 160 (2457600)
I0704 21:49:08.589717 23533 net.cpp:165] Memory required for data: 3293184168
I0704 21:49:08.589728 23533 layer_factory.hpp:77] Creating layer res3b_branch2a_relu
I0704 21:49:08.589740 23533 net.cpp:100] Creating Layer res3b_branch2a_relu
I0704 21:49:08.589745 23533 net.cpp:444] res3b_branch2a_relu <- res3b_branch2a
I0704 21:49:08.589756 23533 net.cpp:405] res3b_branch2a_relu -> res3b_branch2a (in-place)
I0704 21:49:08.589907 23533 net.cpp:150] Setting up res3b_branch2a_relu
I0704 21:49:08.589915 23533 net.cpp:157] Top shape: 1 128 120 160 (2457600)
I0704 21:49:08.589917 23533 net.cpp:165] Memory required for data: 3303014568
I0704 21:49:08.589921 23533 layer_factory.hpp:77] Creating layer res3b_branch2b
I0704 21:49:08.589934 23533 net.cpp:100] Creating Layer res3b_branch2b
I0704 21:49:08.589941 23533 net.cpp:444] res3b_branch2b <- res3b_branch2a
I0704 21:49:08.589954 23533 net.cpp:418] res3b_branch2b -> res3b_branch2b
I0704 21:49:08.591156 23533 cudnn_conv_layer.cpp:194] Reallocating workspace storage: 3145728
I0704 21:49:08.591367 23533 net.cpp:150] Setting up res3b_branch2b
I0704 21:49:08.591377 23533 net.cpp:157] Top shape: 1 128 120 160 (2457600)
I0704 21:49:08.591380 23533 net.cpp:165] Memory required for data: 3312844968
I0704 21:49:08.591390 23533 layer_factory.hpp:77] Creating layer bn3b_branch2b
I0704 21:49:08.591403 23533 net.cpp:100] Creating Layer bn3b_branch2b
I0704 21:49:08.591409 23533 net.cpp:444] bn3b_branch2b <- res3b_branch2b
I0704 21:49:08.591423 23533 net.cpp:405] bn3b_branch2b -> res3b_branch2b (in-place)
I0704 21:49:08.591611 23533 net.cpp:150] Setting up bn3b_branch2b
I0704 21:49:08.591617 23533 net.cpp:157] Top shape: 1 128 120 160 (2457600)
I0704 21:49:08.591620 23533 net.cpp:165] Memory required for data: 3322675368
I0704 21:49:08.591634 23533 layer_factory.hpp:77] Creating layer scale3b_branch2b
I0704 21:49:08.591646 23533 net.cpp:100] Creating Layer scale3b_branch2b
I0704 21:49:08.591652 23533 net.cpp:444] scale3b_branch2b <- res3b_branch2b
I0704 21:49:08.591662 23533 net.cpp:405] scale3b_branch2b -> res3b_branch2b (in-place)
I0704 21:49:08.591708 23533 layer_factory.hpp:77] Creating layer scale3b_branch2b
I0704 21:49:08.591867 23533 net.cpp:150] Setting up scale3b_branch2b
I0704 21:49:08.591874 23533 net.cpp:157] Top shape: 1 128 120 160 (2457600)
I0704 21:49:08.591877 23533 net.cpp:165] Memory required for data: 3332505768
I0704 21:49:08.591886 23533 layer_factory.hpp:77] Creating layer res3b_branch2b_relu
I0704 21:49:08.591897 23533 net.cpp:100] Creating Layer res3b_branch2b_relu
I0704 21:49:08.591902 23533 net.cpp:444] res3b_branch2b_relu <- res3b_branch2b
I0704 21:49:08.591912 23533 net.cpp:405] res3b_branch2b_relu -> res3b_branch2b (in-place)
I0704 21:49:08.592051 23533 net.cpp:150] Setting up res3b_branch2b_relu
I0704 21:49:08.592056 23533 net.cpp:157] Top shape: 1 128 120 160 (2457600)
I0704 21:49:08.592059 23533 net.cpp:165] Memory required for data: 3342336168
I0704 21:49:08.592063 23533 layer_factory.hpp:77] Creating layer res3b_branch2c
I0704 21:49:08.592077 23533 net.cpp:100] Creating Layer res3b_branch2c
I0704 21:49:08.592082 23533 net.cpp:444] res3b_branch2c <- res3b_branch2b
I0704 21:49:08.592095 23533 net.cpp:418] res3b_branch2c -> res3b_branch2c
I0704 21:49:08.592969 23533 cudnn_conv_layer.cpp:194] Reallocating workspace storage: 352152
I0704 21:49:08.592983 23533 net.cpp:150] Setting up res3b_branch2c
I0704 21:49:08.592990 23533 net.cpp:157] Top shape: 1 512 120 160 (9830400)
I0704 21:49:08.592993 23533 net.cpp:165] Memory required for data: 3381657768
I0704 21:49:08.593003 23533 layer_factory.hpp:77] Creating layer bn3b_branch2c
I0704 21:49:08.593014 23533 net.cpp:100] Creating Layer bn3b_branch2c
I0704 21:49:08.593020 23533 net.cpp:444] bn3b_branch2c <- res3b_branch2c
I0704 21:49:08.593034 23533 net.cpp:405] bn3b_branch2c -> res3b_branch2c (in-place)
I0704 21:49:08.593221 23533 net.cpp:150] Setting up bn3b_branch2c
I0704 21:49:08.593227 23533 net.cpp:157] Top shape: 1 512 120 160 (9830400)
I0704 21:49:08.593230 23533 net.cpp:165] Memory required for data: 3420979368
I0704 21:49:08.593243 23533 layer_factory.hpp:77] Creating layer scale3b_branch2c
I0704 21:49:08.593255 23533 net.cpp:100] Creating Layer scale3b_branch2c
I0704 21:49:08.593260 23533 net.cpp:444] scale3b_branch2c <- res3b_branch2c
I0704 21:49:08.593271 23533 net.cpp:405] scale3b_branch2c -> res3b_branch2c (in-place)
I0704 21:49:08.593312 23533 layer_factory.hpp:77] Creating layer scale3b_branch2c
I0704 21:49:08.593474 23533 net.cpp:150] Setting up scale3b_branch2c
I0704 21:49:08.593480 23533 net.cpp:157] Top shape: 1 512 120 160 (9830400)
I0704 21:49:08.593483 23533 net.cpp:165] Memory required for data: 3460300968
I0704 21:49:08.593492 23533 layer_factory.hpp:77] Creating layer res3b
I0704 21:49:08.593502 23533 net.cpp:100] Creating Layer res3b
I0704 21:49:08.593508 23533 net.cpp:444] res3b <- res3a_res3a_relu_0_split_1
I0704 21:49:08.593516 23533 net.cpp:444] res3b <- res3b_branch2c
I0704 21:49:08.593525 23533 net.cpp:418] res3b -> res3b
I0704 21:49:08.593562 23533 net.cpp:150] Setting up res3b
I0704 21:49:08.593570 23533 net.cpp:157] Top shape: 1 512 120 160 (9830400)
I0704 21:49:08.593572 23533 net.cpp:165] Memory required for data: 3499622568
I0704 21:49:08.593576 23533 layer_factory.hpp:77] Creating layer res3b_relu
I0704 21:49:08.593585 23533 net.cpp:100] Creating Layer res3b_relu
I0704 21:49:08.593590 23533 net.cpp:444] res3b_relu <- res3b
I0704 21:49:08.593598 23533 net.cpp:405] res3b_relu -> res3b (in-place)
I0704 21:49:08.593940 23533 net.cpp:150] Setting up res3b_relu
I0704 21:49:08.593947 23533 net.cpp:157] Top shape: 1 512 120 160 (9830400)
I0704 21:49:08.593950 23533 net.cpp:165] Memory required for data: 3538944168
I0704 21:49:08.593953 23533 layer_factory.hpp:77] Creating layer res3b_res3b_relu_0_split
I0704 21:49:08.593963 23533 net.cpp:100] Creating Layer res3b_res3b_relu_0_split
I0704 21:49:08.593968 23533 net.cpp:444] res3b_res3b_relu_0_split <- res3b
I0704 21:49:08.593981 23533 net.cpp:418] res3b_res3b_relu_0_split -> res3b_res3b_relu_0_split_0
I0704 21:49:08.593994 23533 net.cpp:418] res3b_res3b_relu_0_split -> res3b_res3b_relu_0_split_1
I0704 21:49:08.594034 23533 net.cpp:150] Setting up res3b_res3b_relu_0_split
I0704 21:49:08.594043 23533 net.cpp:157] Top shape: 1 512 120 160 (9830400)
I0704 21:49:08.594046 23533 net.cpp:157] Top shape: 1 512 120 160 (9830400)
I0704 21:49:08.594048 23533 net.cpp:165] Memory required for data: 3617587368
I0704 21:49:08.594051 23533 layer_factory.hpp:77] Creating layer res3c_branch2a
I0704 21:49:08.594064 23533 net.cpp:100] Creating Layer res3c_branch2a
I0704 21:49:08.594069 23533 net.cpp:444] res3c_branch2a <- res3b_res3b_relu_0_split_0
I0704 21:49:08.594081 23533 net.cpp:418] res3c_branch2a -> res3c_branch2a
I0704 21:49:08.594941 23533 cudnn_conv_layer.cpp:194] Reallocating workspace storage: 352152
I0704 21:49:08.594960 23533 net.cpp:150] Setting up res3c_branch2a
I0704 21:49:08.594967 23533 net.cpp:157] Top shape: 1 128 120 160 (2457600)
I0704 21:49:08.594969 23533 net.cpp:165] Memory required for data: 3627417768
I0704 21:49:08.594980 23533 layer_factory.hpp:77] Creating layer bn3c_branch2a
I0704 21:49:08.594992 23533 net.cpp:100] Creating Layer bn3c_branch2a
I0704 21:49:08.594998 23533 net.cpp:444] bn3c_branch2a <- res3c_branch2a
I0704 21:49:08.595010 23533 net.cpp:405] bn3c_branch2a -> res3c_branch2a (in-place)
I0704 21:49:08.595197 23533 net.cpp:150] Setting up bn3c_branch2a
I0704 21:49:08.595203 23533 net.cpp:157] Top shape: 1 128 120 160 (2457600)
I0704 21:49:08.595206 23533 net.cpp:165] Memory required for data: 3637248168
I0704 21:49:08.595219 23533 layer_factory.hpp:77] Creating layer scale3c_branch2a
I0704 21:49:08.595230 23533 net.cpp:100] Creating Layer scale3c_branch2a
I0704 21:49:08.595237 23533 net.cpp:444] scale3c_branch2a <- res3c_branch2a
I0704 21:49:08.595247 23533 net.cpp:405] scale3c_branch2a -> res3c_branch2a (in-place)
I0704 21:49:08.595293 23533 layer_factory.hpp:77] Creating layer scale3c_branch2a
I0704 21:49:08.595450 23533 net.cpp:150] Setting up scale3c_branch2a
I0704 21:49:08.595458 23533 net.cpp:157] Top shape: 1 128 120 160 (2457600)
I0704 21:49:08.595459 23533 net.cpp:165] Memory required for data: 3647078568
I0704 21:49:08.595469 23533 layer_factory.hpp:77] Creating layer res3c_branch2a_relu
I0704 21:49:08.595479 23533 net.cpp:100] Creating Layer res3c_branch2a_relu
I0704 21:49:08.595484 23533 net.cpp:444] res3c_branch2a_relu <- res3c_branch2a
I0704 21:49:08.595494 23533 net.cpp:405] res3c_branch2a_relu -> res3c_branch2a (in-place)
I0704 21:49:08.595626 23533 net.cpp:150] Setting up res3c_branch2a_relu
I0704 21:49:08.595633 23533 net.cpp:157] Top shape: 1 128 120 160 (2457600)
I0704 21:49:08.595636 23533 net.cpp:165] Memory required for data: 3656908968
I0704 21:49:08.595639 23533 layer_factory.hpp:77] Creating layer res3c_branch2b
I0704 21:49:08.595651 23533 net.cpp:100] Creating Layer res3c_branch2b
I0704 21:49:08.595656 23533 net.cpp:444] res3c_branch2b <- res3c_branch2a
I0704 21:49:08.595670 23533 net.cpp:418] res3c_branch2b -> res3c_branch2b
I0704 21:49:08.596653 23533 cudnn_conv_layer.cpp:194] Reallocating workspace storage: 3145728
I0704 21:49:08.596865 23533 net.cpp:150] Setting up res3c_branch2b
I0704 21:49:08.596875 23533 net.cpp:157] Top shape: 1 128 120 160 (2457600)
I0704 21:49:08.596879 23533 net.cpp:165] Memory required for data: 3666739368
I0704 21:49:08.596889 23533 layer_factory.hpp:77] Creating layer bn3c_branch2b
I0704 21:49:08.596901 23533 net.cpp:100] Creating Layer bn3c_branch2b
I0704 21:49:08.596907 23533 net.cpp:444] bn3c_branch2b <- res3c_branch2b
I0704 21:49:08.596920 23533 net.cpp:405] bn3c_branch2b -> res3c_branch2b (in-place)
I0704 21:49:08.597111 23533 net.cpp:150] Setting up bn3c_branch2b
I0704 21:49:08.597117 23533 net.cpp:157] Top shape: 1 128 120 160 (2457600)
I0704 21:49:08.597121 23533 net.cpp:165] Memory required for data: 3676569768
I0704 21:49:08.597134 23533 layer_factory.hpp:77] Creating layer scale3c_branch2b
I0704 21:49:08.597146 23533 net.cpp:100] Creating Layer scale3c_branch2b
I0704 21:49:08.597151 23533 net.cpp:444] scale3c_branch2b <- res3c_branch2b
I0704 21:49:08.597162 23533 net.cpp:405] scale3c_branch2b -> res3c_branch2b (in-place)
I0704 21:49:08.597208 23533 layer_factory.hpp:77] Creating layer scale3c_branch2b
I0704 21:49:08.597365 23533 net.cpp:150] Setting up scale3c_branch2b
I0704 21:49:08.597373 23533 net.cpp:157] Top shape: 1 128 120 160 (2457600)
I0704 21:49:08.597375 23533 net.cpp:165] Memory required for data: 3686400168
I0704 21:49:08.597384 23533 layer_factory.hpp:77] Creating layer res3c_branch2b_relu
I0704 21:49:08.597393 23533 net.cpp:100] Creating Layer res3c_branch2b_relu
I0704 21:49:08.597399 23533 net.cpp:444] res3c_branch2b_relu <- res3c_branch2b
I0704 21:49:08.597409 23533 net.cpp:405] res3c_branch2b_relu -> res3c_branch2b (in-place)
I0704 21:49:08.597558 23533 net.cpp:150] Setting up res3c_branch2b_relu
I0704 21:49:08.597571 23533 net.cpp:157] Top shape: 1 128 120 160 (2457600)
I0704 21:49:08.597573 23533 net.cpp:165] Memory required for data: 3696230568
I0704 21:49:08.597576 23533 layer_factory.hpp:77] Creating layer res3c_branch2c
I0704 21:49:08.597590 23533 net.cpp:100] Creating Layer res3c_branch2c
I0704 21:49:08.597595 23533 net.cpp:444] res3c_branch2c <- res3c_branch2b
I0704 21:49:08.597609 23533 net.cpp:418] res3c_branch2c -> res3c_branch2c
I0704 21:49:08.598506 23533 cudnn_conv_layer.cpp:194] Reallocating workspace storage: 352152
I0704 21:49:08.598520 23533 net.cpp:150] Setting up res3c_branch2c
I0704 21:49:08.598526 23533 net.cpp:157] Top shape: 1 512 120 160 (9830400)
I0704 21:49:08.598528 23533 net.cpp:165] Memory required for data: 3735552168
I0704 21:49:08.598538 23533 layer_factory.hpp:77] Creating layer bn3c_branch2c
I0704 21:49:08.598551 23533 net.cpp:100] Creating Layer bn3c_branch2c
I0704 21:49:08.598557 23533 net.cpp:444] bn3c_branch2c <- res3c_branch2c
I0704 21:49:08.598570 23533 net.cpp:405] bn3c_branch2c -> res3c_branch2c (in-place)
I0704 21:49:08.598760 23533 net.cpp:150] Setting up bn3c_branch2c
I0704 21:49:08.598767 23533 net.cpp:157] Top shape: 1 512 120 160 (9830400)
I0704 21:49:08.598768 23533 net.cpp:165] Memory required for data: 3774873768
I0704 21:49:08.598783 23533 layer_factory.hpp:77] Creating layer scale3c_branch2c
I0704 21:49:08.598794 23533 net.cpp:100] Creating Layer scale3c_branch2c
I0704 21:49:08.598799 23533 net.cpp:444] scale3c_branch2c <- res3c_branch2c
I0704 21:49:08.598809 23533 net.cpp:405] scale3c_branch2c -> res3c_branch2c (in-place)
I0704 21:49:08.598852 23533 layer_factory.hpp:77] Creating layer scale3c_branch2c
I0704 21:49:08.599017 23533 net.cpp:150] Setting up scale3c_branch2c
I0704 21:49:08.599025 23533 net.cpp:157] Top shape: 1 512 120 160 (9830400)
I0704 21:49:08.599026 23533 net.cpp:165] Memory required for data: 3814195368
I0704 21:49:08.599035 23533 layer_factory.hpp:77] Creating layer res3c
I0704 21:49:08.599045 23533 net.cpp:100] Creating Layer res3c
I0704 21:49:08.599050 23533 net.cpp:444] res3c <- res3b_res3b_relu_0_split_1
I0704 21:49:08.599059 23533 net.cpp:444] res3c <- res3c_branch2c
I0704 21:49:08.599067 23533 net.cpp:418] res3c -> res3c
I0704 21:49:08.599099 23533 net.cpp:150] Setting up res3c
I0704 21:49:08.599107 23533 net.cpp:157] Top shape: 1 512 120 160 (9830400)
I0704 21:49:08.599110 23533 net.cpp:165] Memory required for data: 3853516968
I0704 21:49:08.599113 23533 layer_factory.hpp:77] Creating layer res3c_relu
I0704 21:49:08.599122 23533 net.cpp:100] Creating Layer res3c_relu
I0704 21:49:08.599126 23533 net.cpp:444] res3c_relu <- res3c
I0704 21:49:08.599135 23533 net.cpp:405] res3c_relu -> res3c (in-place)
I0704 21:49:08.599267 23533 net.cpp:150] Setting up res3c_relu
I0704 21:49:08.599274 23533 net.cpp:157] Top shape: 1 512 120 160 (9830400)
I0704 21:49:08.599277 23533 net.cpp:165] Memory required for data: 3892838568
I0704 21:49:08.599280 23533 layer_factory.hpp:77] Creating layer res3c_res3c_relu_0_split
I0704 21:49:08.599288 23533 net.cpp:100] Creating Layer res3c_res3c_relu_0_split
I0704 21:49:08.599293 23533 net.cpp:444] res3c_res3c_relu_0_split <- res3c
I0704 21:49:08.599305 23533 net.cpp:418] res3c_res3c_relu_0_split -> res3c_res3c_relu_0_split_0
I0704 21:49:08.599318 23533 net.cpp:418] res3c_res3c_relu_0_split -> res3c_res3c_relu_0_split_1
I0704 21:49:08.599356 23533 net.cpp:150] Setting up res3c_res3c_relu_0_split
I0704 21:49:08.599364 23533 net.cpp:157] Top shape: 1 512 120 160 (9830400)
I0704 21:49:08.599367 23533 net.cpp:157] Top shape: 1 512 120 160 (9830400)
I0704 21:49:08.599370 23533 net.cpp:165] Memory required for data: 3971481768
I0704 21:49:08.599372 23533 layer_factory.hpp:77] Creating layer res3d_branch2a
I0704 21:49:08.599386 23533 net.cpp:100] Creating Layer res3d_branch2a
I0704 21:49:08.599391 23533 net.cpp:444] res3d_branch2a <- res3c_res3c_relu_0_split_0
I0704 21:49:08.599403 23533 net.cpp:418] res3d_branch2a -> res3d_branch2a
I0704 21:49:08.600821 23533 cudnn_conv_layer.cpp:194] Reallocating workspace storage: 352152
I0704 21:49:08.600841 23533 net.cpp:150] Setting up res3d_branch2a
I0704 21:49:08.600848 23533 net.cpp:157] Top shape: 1 128 120 160 (2457600)
I0704 21:49:08.600852 23533 net.cpp:165] Memory required for data: 3981312168
I0704 21:49:08.600862 23533 layer_factory.hpp:77] Creating layer bn3d_branch2a
I0704 21:49:08.600875 23533 net.cpp:100] Creating Layer bn3d_branch2a
I0704 21:49:08.600881 23533 net.cpp:444] bn3d_branch2a <- res3d_branch2a
I0704 21:49:08.600893 23533 net.cpp:405] bn3d_branch2a -> res3d_branch2a (in-place)
I0704 21:49:08.601084 23533 net.cpp:150] Setting up bn3d_branch2a
I0704 21:49:08.601090 23533 net.cpp:157] Top shape: 1 128 120 160 (2457600)
I0704 21:49:08.601092 23533 net.cpp:165] Memory required for data: 3991142568
I0704 21:49:08.601130 23533 layer_factory.hpp:77] Creating layer scale3d_branch2a
I0704 21:49:08.601142 23533 net.cpp:100] Creating Layer scale3d_branch2a
I0704 21:49:08.601147 23533 net.cpp:444] scale3d_branch2a <- res3d_branch2a
I0704 21:49:08.601160 23533 net.cpp:405] scale3d_branch2a -> res3d_branch2a (in-place)
I0704 21:49:08.601207 23533 layer_factory.hpp:77] Creating layer scale3d_branch2a
I0704 21:49:08.601367 23533 net.cpp:150] Setting up scale3d_branch2a
I0704 21:49:08.601377 23533 net.cpp:157] Top shape: 1 128 120 160 (2457600)
I0704 21:49:08.601379 23533 net.cpp:165] Memory required for data: 4000972968
I0704 21:49:08.601388 23533 layer_factory.hpp:77] Creating layer res3d_branch2a_relu
I0704 21:49:08.601398 23533 net.cpp:100] Creating Layer res3d_branch2a_relu
I0704 21:49:08.601403 23533 net.cpp:444] res3d_branch2a_relu <- res3d_branch2a
I0704 21:49:08.601413 23533 net.cpp:405] res3d_branch2a_relu -> res3d_branch2a (in-place)
I0704 21:49:08.601766 23533 net.cpp:150] Setting up res3d_branch2a_relu
I0704 21:49:08.601775 23533 net.cpp:157] Top shape: 1 128 120 160 (2457600)
I0704 21:49:08.601778 23533 net.cpp:165] Memory required for data: 4010803368
I0704 21:49:08.601783 23533 layer_factory.hpp:77] Creating layer res3d_branch2b
I0704 21:49:08.601797 23533 net.cpp:100] Creating Layer res3d_branch2b
I0704 21:49:08.601804 23533 net.cpp:444] res3d_branch2b <- res3d_branch2a
I0704 21:49:08.601817 23533 net.cpp:418] res3d_branch2b -> res3d_branch2b
I0704 21:49:08.603358 23533 cudnn_conv_layer.cpp:194] Reallocating workspace storage: 3145728
I0704 21:49:08.603574 23533 net.cpp:150] Setting up res3d_branch2b
I0704 21:49:08.603583 23533 net.cpp:157] Top shape: 1 128 120 160 (2457600)
I0704 21:49:08.603586 23533 net.cpp:165] Memory required for data: 4020633768
I0704 21:49:08.603596 23533 layer_factory.hpp:77] Creating layer bn3d_branch2b
I0704 21:49:08.603610 23533 net.cpp:100] Creating Layer bn3d_branch2b
I0704 21:49:08.603616 23533 net.cpp:444] bn3d_branch2b <- res3d_branch2b
I0704 21:49:08.603628 23533 net.cpp:405] bn3d_branch2b -> res3d_branch2b (in-place)
I0704 21:49:08.603824 23533 net.cpp:150] Setting up bn3d_branch2b
I0704 21:49:08.603830 23533 net.cpp:157] Top shape: 1 128 120 160 (2457600)
I0704 21:49:08.603833 23533 net.cpp:165] Memory required for data: 4030464168
I0704 21:49:08.603847 23533 layer_factory.hpp:77] Creating layer scale3d_branch2b
I0704 21:49:08.603859 23533 net.cpp:100] Creating Layer scale3d_branch2b
I0704 21:49:08.603864 23533 net.cpp:444] scale3d_branch2b <- res3d_branch2b
I0704 21:49:08.603876 23533 net.cpp:405] scale3d_branch2b -> res3d_branch2b (in-place)
I0704 21:49:08.603922 23533 layer_factory.hpp:77] Creating layer scale3d_branch2b
I0704 21:49:08.604086 23533 net.cpp:150] Setting up scale3d_branch2b
I0704 21:49:08.604094 23533 net.cpp:157] Top shape: 1 128 120 160 (2457600)
I0704 21:49:08.604096 23533 net.cpp:165] Memory required for data: 4040294568
I0704 21:49:08.604106 23533 layer_factory.hpp:77] Creating layer res3d_branch2b_relu
I0704 21:49:08.604115 23533 net.cpp:100] Creating Layer res3d_branch2b_relu
I0704 21:49:08.604120 23533 net.cpp:444] res3d_branch2b_relu <- res3d_branch2b
I0704 21:49:08.604130 23533 net.cpp:405] res3d_branch2b_relu -> res3d_branch2b (in-place)
I0704 21:49:08.604270 23533 net.cpp:150] Setting up res3d_branch2b_relu
I0704 21:49:08.604279 23533 net.cpp:157] Top shape: 1 128 120 160 (2457600)
I0704 21:49:08.604280 23533 net.cpp:165] Memory required for data: 4050124968
I0704 21:49:08.604285 23533 layer_factory.hpp:77] Creating layer res3d_branch2c
I0704 21:49:08.604297 23533 net.cpp:100] Creating Layer res3d_branch2c
I0704 21:49:08.604302 23533 net.cpp:444] res3d_branch2c <- res3d_branch2b
I0704 21:49:08.604316 23533 net.cpp:418] res3d_branch2c -> res3d_branch2c
I0704 21:49:08.605211 23533 cudnn_conv_layer.cpp:194] Reallocating workspace storage: 352152
I0704 21:49:08.605224 23533 net.cpp:150] Setting up res3d_branch2c
I0704 21:49:08.605232 23533 net.cpp:157] Top shape: 1 512 120 160 (9830400)
I0704 21:49:08.605234 23533 net.cpp:165] Memory required for data: 4089446568
I0704 21:49:08.605244 23533 layer_factory.hpp:77] Creating layer bn3d_branch2c
I0704 21:49:08.605257 23533 net.cpp:100] Creating Layer bn3d_branch2c
I0704 21:49:08.605263 23533 net.cpp:444] bn3d_branch2c <- res3d_branch2c
I0704 21:49:08.605275 23533 net.cpp:405] bn3d_branch2c -> res3d_branch2c (in-place)
I0704 21:49:08.605468 23533 net.cpp:150] Setting up bn3d_branch2c
I0704 21:49:08.605474 23533 net.cpp:157] Top shape: 1 512 120 160 (9830400)
I0704 21:49:08.605478 23533 net.cpp:165] Memory required for data: 4128768168
I0704 21:49:08.605491 23533 layer_factory.hpp:77] Creating layer scale3d_branch2c
I0704 21:49:08.605504 23533 net.cpp:100] Creating Layer scale3d_branch2c
I0704 21:49:08.605509 23533 net.cpp:444] scale3d_branch2c <- res3d_branch2c
I0704 21:49:08.605520 23533 net.cpp:405] scale3d_branch2c -> res3d_branch2c (in-place)
I0704 21:49:08.605585 23533 layer_factory.hpp:77] Creating layer scale3d_branch2c
I0704 21:49:08.605751 23533 net.cpp:150] Setting up scale3d_branch2c
I0704 21:49:08.605757 23533 net.cpp:157] Top shape: 1 512 120 160 (9830400)
I0704 21:49:08.605760 23533 net.cpp:165] Memory required for data: 4168089768
I0704 21:49:08.605769 23533 layer_factory.hpp:77] Creating layer res3d
I0704 21:49:08.605779 23533 net.cpp:100] Creating Layer res3d
I0704 21:49:08.605784 23533 net.cpp:444] res3d <- res3c_res3c_relu_0_split_1
I0704 21:49:08.605793 23533 net.cpp:444] res3d <- res3d_branch2c
I0704 21:49:08.605803 23533 net.cpp:418] res3d -> res3d
I0704 21:49:08.605835 23533 net.cpp:150] Setting up res3d
I0704 21:49:08.605842 23533 net.cpp:157] Top shape: 1 512 120 160 (9830400)
I0704 21:49:08.605845 23533 net.cpp:165] Memory required for data: 4207411368
I0704 21:49:08.605849 23533 layer_factory.hpp:77] Creating layer res3d_relu
I0704 21:49:08.605856 23533 net.cpp:100] Creating Layer res3d_relu
I0704 21:49:08.605861 23533 net.cpp:444] res3d_relu <- res3d
I0704 21:49:08.605871 23533 net.cpp:405] res3d_relu -> res3d (in-place)
I0704 21:49:08.606006 23533 net.cpp:150] Setting up res3d_relu
I0704 21:49:08.606012 23533 net.cpp:157] Top shape: 1 512 120 160 (9830400)
I0704 21:49:08.606015 23533 net.cpp:165] Memory required for data: 4246732968
I0704 21:49:08.606019 23533 layer_factory.hpp:77] Creating layer res3d_res3d_relu_0_split
I0704 21:49:08.606027 23533 net.cpp:100] Creating Layer res3d_res3d_relu_0_split
I0704 21:49:08.606032 23533 net.cpp:444] res3d_res3d_relu_0_split <- res3d
I0704 21:49:08.606045 23533 net.cpp:418] res3d_res3d_relu_0_split -> res3d_res3d_relu_0_split_0
I0704 21:49:08.606057 23533 net.cpp:418] res3d_res3d_relu_0_split -> res3d_res3d_relu_0_split_1
I0704 21:49:08.606098 23533 net.cpp:150] Setting up res3d_res3d_relu_0_split
I0704 21:49:08.606106 23533 net.cpp:157] Top shape: 1 512 120 160 (9830400)
I0704 21:49:08.606108 23533 net.cpp:157] Top shape: 1 512 120 160 (9830400)
I0704 21:49:08.606111 23533 net.cpp:165] Memory required for data: 4325376168
I0704 21:49:08.606114 23533 layer_factory.hpp:77] Creating layer res4a_branch1
I0704 21:49:08.606127 23533 net.cpp:100] Creating Layer res4a_branch1
I0704 21:49:08.606132 23533 net.cpp:444] res4a_branch1 <- res3d_res3d_relu_0_split_0
I0704 21:49:08.606143 23533 net.cpp:418] res4a_branch1 -> res4a_branch1
I0704 21:49:08.608220 23533 cudnn_conv_layer.cpp:194] Reallocating workspace storage: 86424
I0704 21:49:08.608443 23533 net.cpp:150] Setting up res4a_branch1
I0704 21:49:08.608454 23533 net.cpp:157] Top shape: 1 1024 60 80 (4915200)
I0704 21:49:08.608458 23533 net.cpp:165] Memory required for data: 4345036968
I0704 21:49:08.608469 23533 layer_factory.hpp:77] Creating layer bn4a_branch1
I0704 21:49:08.608484 23533 net.cpp:100] Creating Layer bn4a_branch1
I0704 21:49:08.608489 23533 net.cpp:444] bn4a_branch1 <- res4a_branch1
I0704 21:49:08.608502 23533 net.cpp:405] bn4a_branch1 -> res4a_branch1 (in-place)
I0704 21:49:08.608683 23533 net.cpp:150] Setting up bn4a_branch1
I0704 21:49:08.608690 23533 net.cpp:157] Top shape: 1 1024 60 80 (4915200)
I0704 21:49:08.608692 23533 net.cpp:165] Memory required for data: 4364697768
I0704 21:49:08.608707 23533 layer_factory.hpp:77] Creating layer scale4a_branch1
I0704 21:49:08.608718 23533 net.cpp:100] Creating Layer scale4a_branch1
I0704 21:49:08.608723 23533 net.cpp:444] scale4a_branch1 <- res4a_branch1
I0704 21:49:08.608736 23533 net.cpp:405] scale4a_branch1 -> res4a_branch1 (in-place)
I0704 21:49:08.608779 23533 layer_factory.hpp:77] Creating layer scale4a_branch1
I0704 21:49:08.608918 23533 net.cpp:150] Setting up scale4a_branch1
I0704 21:49:08.608925 23533 net.cpp:157] Top shape: 1 1024 60 80 (4915200)
I0704 21:49:08.608928 23533 net.cpp:165] Memory required for data: 4384358568
I0704 21:49:08.608937 23533 layer_factory.hpp:77] Creating layer res4a_branch2a
I0704 21:49:08.608952 23533 net.cpp:100] Creating Layer res4a_branch2a
I0704 21:49:08.608958 23533 net.cpp:444] res4a_branch2a <- res3d_res3d_relu_0_split_1
I0704 21:49:08.608971 23533 net.cpp:418] res4a_branch2a -> res4a_branch2a
I0704 21:49:08.609983 23533 cudnn_conv_layer.cpp:194] Reallocating workspace storage: 86424
I0704 21:49:08.610002 23533 net.cpp:150] Setting up res4a_branch2a
I0704 21:49:08.610011 23533 net.cpp:157] Top shape: 1 256 60 80 (1228800)
I0704 21:49:08.610014 23533 net.cpp:165] Memory required for data: 4389273768
I0704 21:49:08.610024 23533 layer_factory.hpp:77] Creating layer bn4a_branch2a
I0704 21:49:08.610038 23533 net.cpp:100] Creating Layer bn4a_branch2a
I0704 21:49:08.610044 23533 net.cpp:444] bn4a_branch2a <- res4a_branch2a
I0704 21:49:08.610056 23533 net.cpp:405] bn4a_branch2a -> res4a_branch2a (in-place)
I0704 21:49:08.610239 23533 net.cpp:150] Setting up bn4a_branch2a
I0704 21:49:08.610245 23533 net.cpp:157] Top shape: 1 256 60 80 (1228800)
I0704 21:49:08.610246 23533 net.cpp:165] Memory required for data: 4394188968
I0704 21:49:08.610261 23533 layer_factory.hpp:77] Creating layer scale4a_branch2a
I0704 21:49:08.610275 23533 net.cpp:100] Creating Layer scale4a_branch2a
I0704 21:49:08.610280 23533 net.cpp:444] scale4a_branch2a <- res4a_branch2a
I0704 21:49:08.610291 23533 net.cpp:405] scale4a_branch2a -> res4a_branch2a (in-place)
I0704 21:49:08.610339 23533 layer_factory.hpp:77] Creating layer scale4a_branch2a
I0704 21:49:08.610471 23533 net.cpp:150] Setting up scale4a_branch2a
I0704 21:49:08.610478 23533 net.cpp:157] Top shape: 1 256 60 80 (1228800)
I0704 21:49:08.610481 23533 net.cpp:165] Memory required for data: 4399104168
I0704 21:49:08.610489 23533 layer_factory.hpp:77] Creating layer res4a_branch2a_relu
I0704 21:49:08.610500 23533 net.cpp:100] Creating Layer res4a_branch2a_relu
I0704 21:49:08.610505 23533 net.cpp:444] res4a_branch2a_relu <- res4a_branch2a
I0704 21:49:08.610517 23533 net.cpp:405] res4a_branch2a_relu -> res4a_branch2a (in-place)
I0704 21:49:08.610914 23533 net.cpp:150] Setting up res4a_branch2a_relu
I0704 21:49:08.610924 23533 net.cpp:157] Top shape: 1 256 60 80 (1228800)
I0704 21:49:08.610927 23533 net.cpp:165] Memory required for data: 4404019368
I0704 21:49:08.610931 23533 layer_factory.hpp:77] Creating layer res4a_branch2b
I0704 21:49:08.610949 23533 net.cpp:100] Creating Layer res4a_branch2b
I0704 21:49:08.610954 23533 net.cpp:444] res4a_branch2b <- res4a_branch2a
I0704 21:49:08.610970 23533 net.cpp:418] res4a_branch2b -> res4a_branch2b
I0704 21:49:08.613711 23533 cudnn_conv_layer.cpp:194] Reallocating workspace storage: 12582912
I0704 21:49:08.614064 23533 net.cpp:150] Setting up res4a_branch2b
I0704 21:49:08.614084 23533 net.cpp:157] Top shape: 1 256 60 80 (1228800)
I0704 21:49:08.614089 23533 net.cpp:165] Memory required for data: 4408934568
I0704 21:49:08.614112 23533 layer_factory.hpp:77] Creating layer bn4a_branch2b
I0704 21:49:08.614141 23533 net.cpp:100] Creating Layer bn4a_branch2b
I0704 21:49:08.614151 23533 net.cpp:444] bn4a_branch2b <- res4a_branch2b
I0704 21:49:08.614171 23533 net.cpp:405] bn4a_branch2b -> res4a_branch2b (in-place)
I0704 21:49:08.614374 23533 net.cpp:150] Setting up bn4a_branch2b
I0704 21:49:08.614382 23533 net.cpp:157] Top shape: 1 256 60 80 (1228800)
I0704 21:49:08.614383 23533 net.cpp:165] Memory required for data: 4413849768
I0704 21:49:08.614398 23533 layer_factory.hpp:77] Creating layer scale4a_branch2b
I0704 21:49:08.614411 23533 net.cpp:100] Creating Layer scale4a_branch2b
I0704 21:49:08.614416 23533 net.cpp:444] scale4a_branch2b <- res4a_branch2b
I0704 21:49:08.614428 23533 net.cpp:405] scale4a_branch2b -> res4a_branch2b (in-place)
I0704 21:49:08.614478 23533 layer_factory.hpp:77] Creating layer scale4a_branch2b
I0704 21:49:08.614615 23533 net.cpp:150] Setting up scale4a_branch2b
I0704 21:49:08.614621 23533 net.cpp:157] Top shape: 1 256 60 80 (1228800)
I0704 21:49:08.614625 23533 net.cpp:165] Memory required for data: 4418764968
I0704 21:49:08.614634 23533 layer_factory.hpp:77] Creating layer res4a_branch2b_relu
I0704 21:49:08.614645 23533 net.cpp:100] Creating Layer res4a_branch2b_relu
I0704 21:49:08.614650 23533 net.cpp:444] res4a_branch2b_relu <- res4a_branch2b
I0704 21:49:08.614660 23533 net.cpp:405] res4a_branch2b_relu -> res4a_branch2b (in-place)
I0704 21:49:08.614835 23533 net.cpp:150] Setting up res4a_branch2b_relu
I0704 21:49:08.614845 23533 net.cpp:157] Top shape: 1 256 60 80 (1228800)
I0704 21:49:08.614850 23533 net.cpp:165] Memory required for data: 4423680168
I0704 21:49:08.614856 23533 layer_factory.hpp:77] Creating layer res4a_branch2c
I0704 21:49:08.614879 23533 net.cpp:100] Creating Layer res4a_branch2c
I0704 21:49:08.614888 23533 net.cpp:444] res4a_branch2c <- res4a_branch2b
I0704 21:49:08.614907 23533 net.cpp:418] res4a_branch2c -> res4a_branch2c
I0704 21:49:08.616703 23533 cudnn_conv_layer.cpp:194] Reallocating workspace storage: 92952
I0704 21:49:08.616724 23533 net.cpp:150] Setting up res4a_branch2c
I0704 21:49:08.616732 23533 net.cpp:157] Top shape: 1 1024 60 80 (4915200)
I0704 21:49:08.616734 23533 net.cpp:165] Memory required for data: 4443340968
I0704 21:49:08.616745 23533 layer_factory.hpp:77] Creating layer bn4a_branch2c
I0704 21:49:08.616760 23533 net.cpp:100] Creating Layer bn4a_branch2c
I0704 21:49:08.616765 23533 net.cpp:444] bn4a_branch2c <- res4a_branch2c
I0704 21:49:08.616780 23533 net.cpp:405] bn4a_branch2c -> res4a_branch2c (in-place)
I0704 21:49:08.616966 23533 net.cpp:150] Setting up bn4a_branch2c
I0704 21:49:08.616971 23533 net.cpp:157] Top shape: 1 1024 60 80 (4915200)
I0704 21:49:08.616973 23533 net.cpp:165] Memory required for data: 4463001768
I0704 21:49:08.616988 23533 layer_factory.hpp:77] Creating layer scale4a_branch2c
I0704 21:49:08.617017 23533 net.cpp:100] Creating Layer scale4a_branch2c
I0704 21:49:08.617022 23533 net.cpp:444] scale4a_branch2c <- res4a_branch2c
I0704 21:49:08.617033 23533 net.cpp:405] scale4a_branch2c -> res4a_branch2c (in-place)
I0704 21:49:08.617079 23533 layer_factory.hpp:77] Creating layer scale4a_branch2c
I0704 21:49:08.617220 23533 net.cpp:150] Setting up scale4a_branch2c
I0704 21:49:08.617228 23533 net.cpp:157] Top shape: 1 1024 60 80 (4915200)
I0704 21:49:08.617229 23533 net.cpp:165] Memory required for data: 4482662568
I0704 21:49:08.617240 23533 layer_factory.hpp:77] Creating layer res4a
I0704 21:49:08.617249 23533 net.cpp:100] Creating Layer res4a
I0704 21:49:08.617254 23533 net.cpp:444] res4a <- res4a_branch1
I0704 21:49:08.617261 23533 net.cpp:444] res4a <- res4a_branch2c
I0704 21:49:08.617269 23533 net.cpp:418] res4a -> res4a
I0704 21:49:08.617303 23533 net.cpp:150] Setting up res4a
I0704 21:49:08.617311 23533 net.cpp:157] Top shape: 1 1024 60 80 (4915200)
I0704 21:49:08.617313 23533 net.cpp:165] Memory required for data: 4502323368
I0704 21:49:08.617317 23533 layer_factory.hpp:77] Creating layer res4a_relu
I0704 21:49:08.617326 23533 net.cpp:100] Creating Layer res4a_relu
I0704 21:49:08.617331 23533 net.cpp:444] res4a_relu <- res4a
I0704 21:49:08.617341 23533 net.cpp:405] res4a_relu -> res4a (in-place)
I0704 21:49:08.617477 23533 net.cpp:150] Setting up res4a_relu
I0704 21:49:08.617483 23533 net.cpp:157] Top shape: 1 1024 60 80 (4915200)
I0704 21:49:08.617486 23533 net.cpp:165] Memory required for data: 4521984168
I0704 21:49:08.617491 23533 layer_factory.hpp:77] Creating layer res4a_res4a_relu_0_split
I0704 21:49:08.617501 23533 net.cpp:100] Creating Layer res4a_res4a_relu_0_split
I0704 21:49:08.617506 23533 net.cpp:444] res4a_res4a_relu_0_split <- res4a
I0704 21:49:08.617516 23533 net.cpp:418] res4a_res4a_relu_0_split -> res4a_res4a_relu_0_split_0
I0704 21:49:08.617529 23533 net.cpp:418] res4a_res4a_relu_0_split -> res4a_res4a_relu_0_split_1
I0704 21:49:08.617599 23533 net.cpp:150] Setting up res4a_res4a_relu_0_split
I0704 21:49:08.617606 23533 net.cpp:157] Top shape: 1 1024 60 80 (4915200)
I0704 21:49:08.617610 23533 net.cpp:157] Top shape: 1 1024 60 80 (4915200)
I0704 21:49:08.617612 23533 net.cpp:165] Memory required for data: 4561305768
I0704 21:49:08.617615 23533 layer_factory.hpp:77] Creating layer res4b_branch2a
I0704 21:49:08.617630 23533 net.cpp:100] Creating Layer res4b_branch2a
I0704 21:49:08.617635 23533 net.cpp:444] res4b_branch2a <- res4a_res4a_relu_0_split_0
I0704 21:49:08.617648 23533 net.cpp:418] res4b_branch2a -> res4b_branch2a
I0704 21:49:08.618832 23533 cudnn_conv_layer.cpp:194] Reallocating workspace storage: 92952
I0704 21:49:08.618852 23533 net.cpp:150] Setting up res4b_branch2a
I0704 21:49:08.618860 23533 net.cpp:157] Top shape: 1 256 60 80 (1228800)
I0704 21:49:08.618862 23533 net.cpp:165] Memory required for data: 4566220968
I0704 21:49:08.618871 23533 layer_factory.hpp:77] Creating layer bn4b_branch2a
I0704 21:49:08.618885 23533 net.cpp:100] Creating Layer bn4b_branch2a
I0704 21:49:08.618891 23533 net.cpp:444] bn4b_branch2a <- res4b_branch2a
I0704 21:49:08.618902 23533 net.cpp:405] bn4b_branch2a -> res4b_branch2a (in-place)
I0704 21:49:08.619086 23533 net.cpp:150] Setting up bn4b_branch2a
I0704 21:49:08.619091 23533 net.cpp:157] Top shape: 1 256 60 80 (1228800)
I0704 21:49:08.619094 23533 net.cpp:165] Memory required for data: 4571136168
I0704 21:49:08.619108 23533 layer_factory.hpp:77] Creating layer scale4b_branch2a
I0704 21:49:08.619119 23533 net.cpp:100] Creating Layer scale4b_branch2a
I0704 21:49:08.619125 23533 net.cpp:444] scale4b_branch2a <- res4b_branch2a
I0704 21:49:08.619135 23533 net.cpp:405] scale4b_branch2a -> res4b_branch2a (in-place)
I0704 21:49:08.619184 23533 layer_factory.hpp:77] Creating layer scale4b_branch2a
I0704 21:49:08.619318 23533 net.cpp:150] Setting up scale4b_branch2a
I0704 21:49:08.619324 23533 net.cpp:157] Top shape: 1 256 60 80 (1228800)
I0704 21:49:08.619326 23533 net.cpp:165] Memory required for data: 4576051368
I0704 21:49:08.619335 23533 layer_factory.hpp:77] Creating layer res4b_branch2a_relu
I0704 21:49:08.619345 23533 net.cpp:100] Creating Layer res4b_branch2a_relu
I0704 21:49:08.619350 23533 net.cpp:444] res4b_branch2a_relu <- res4b_branch2a
I0704 21:49:08.619360 23533 net.cpp:405] res4b_branch2a_relu -> res4b_branch2a (in-place)
I0704 21:49:08.619720 23533 net.cpp:150] Setting up res4b_branch2a_relu
I0704 21:49:08.619729 23533 net.cpp:157] Top shape: 1 256 60 80 (1228800)
I0704 21:49:08.619731 23533 net.cpp:165] Memory required for data: 4580966568
I0704 21:49:08.619735 23533 layer_factory.hpp:77] Creating layer res4b_branch2b
I0704 21:49:08.619750 23533 net.cpp:100] Creating Layer res4b_branch2b
I0704 21:49:08.619756 23533 net.cpp:444] res4b_branch2b <- res4b_branch2a
I0704 21:49:08.619771 23533 net.cpp:418] res4b_branch2b -> res4b_branch2b
I0704 21:49:08.622035 23533 cudnn_conv_layer.cpp:194] Reallocating workspace storage: 12582912
I0704 21:49:08.622261 23533 net.cpp:150] Setting up res4b_branch2b
I0704 21:49:08.622272 23533 net.cpp:157] Top shape: 1 256 60 80 (1228800)
I0704 21:49:08.622274 23533 net.cpp:165] Memory required for data: 4585881768
I0704 21:49:08.622287 23533 layer_factory.hpp:77] Creating layer bn4b_branch2b
I0704 21:49:08.622299 23533 net.cpp:100] Creating Layer bn4b_branch2b
I0704 21:49:08.622306 23533 net.cpp:444] bn4b_branch2b <- res4b_branch2b
I0704 21:49:08.622320 23533 net.cpp:405] bn4b_branch2b -> res4b_branch2b (in-place)
I0704 21:49:08.622510 23533 net.cpp:150] Setting up bn4b_branch2b
I0704 21:49:08.622516 23533 net.cpp:157] Top shape: 1 256 60 80 (1228800)
I0704 21:49:08.622519 23533 net.cpp:165] Memory required for data: 4590796968
I0704 21:49:08.622532 23533 layer_factory.hpp:77] Creating layer scale4b_branch2b
I0704 21:49:08.622545 23533 net.cpp:100] Creating Layer scale4b_branch2b
I0704 21:49:08.622550 23533 net.cpp:444] scale4b_branch2b <- res4b_branch2b
I0704 21:49:08.622560 23533 net.cpp:405] scale4b_branch2b -> res4b_branch2b (in-place)
I0704 21:49:08.622609 23533 layer_factory.hpp:77] Creating layer scale4b_branch2b
I0704 21:49:08.622745 23533 net.cpp:150] Setting up scale4b_branch2b
I0704 21:49:08.622750 23533 net.cpp:157] Top shape: 1 256 60 80 (1228800)
I0704 21:49:08.622752 23533 net.cpp:165] Memory required for data: 4595712168
I0704 21:49:08.622762 23533 layer_factory.hpp:77] Creating layer res4b_branch2b_relu
I0704 21:49:08.622771 23533 net.cpp:100] Creating Layer res4b_branch2b_relu
I0704 21:49:08.622776 23533 net.cpp:444] res4b_branch2b_relu <- res4b_branch2b
I0704 21:49:08.622788 23533 net.cpp:405] res4b_branch2b_relu -> res4b_branch2b (in-place)
I0704 21:49:08.622932 23533 net.cpp:150] Setting up res4b_branch2b_relu
I0704 21:49:08.622938 23533 net.cpp:157] Top shape: 1 256 60 80 (1228800)
I0704 21:49:08.622941 23533 net.cpp:165] Memory required for data: 4600627368
I0704 21:49:08.622944 23533 layer_factory.hpp:77] Creating layer res4b_branch2c
I0704 21:49:08.622959 23533 net.cpp:100] Creating Layer res4b_branch2c
I0704 21:49:08.622965 23533 net.cpp:444] res4b_branch2c <- res4b_branch2b
I0704 21:49:08.622978 23533 net.cpp:418] res4b_branch2c -> res4b_branch2c
I0704 21:49:08.624745 23533 cudnn_conv_layer.cpp:194] Reallocating workspace storage: 92952
I0704 21:49:08.624768 23533 net.cpp:150] Setting up res4b_branch2c
I0704 21:49:08.624776 23533 net.cpp:157] Top shape: 1 1024 60 80 (4915200)
I0704 21:49:08.624778 23533 net.cpp:165] Memory required for data: 4620288168
I0704 21:49:08.624789 23533 layer_factory.hpp:77] Creating layer bn4b_branch2c
I0704 21:49:08.624804 23533 net.cpp:100] Creating Layer bn4b_branch2c
I0704 21:49:08.624811 23533 net.cpp:444] bn4b_branch2c <- res4b_branch2c
I0704 21:49:08.624825 23533 net.cpp:405] bn4b_branch2c -> res4b_branch2c (in-place)
I0704 21:49:08.625015 23533 net.cpp:150] Setting up bn4b_branch2c
I0704 21:49:08.625021 23533 net.cpp:157] Top shape: 1 1024 60 80 (4915200)
I0704 21:49:08.625025 23533 net.cpp:165] Memory required for data: 4639948968
I0704 21:49:08.625038 23533 layer_factory.hpp:77] Creating layer scale4b_branch2c
I0704 21:49:08.625051 23533 net.cpp:100] Creating Layer scale4b_branch2c
I0704 21:49:08.625056 23533 net.cpp:444] scale4b_branch2c <- res4b_branch2c
I0704 21:49:08.625067 23533 net.cpp:405] scale4b_branch2c -> res4b_branch2c (in-place)
I0704 21:49:08.625113 23533 layer_factory.hpp:77] Creating layer scale4b_branch2c
I0704 21:49:08.625252 23533 net.cpp:150] Setting up scale4b_branch2c
I0704 21:49:08.625258 23533 net.cpp:157] Top shape: 1 1024 60 80 (4915200)
I0704 21:49:08.625262 23533 net.cpp:165] Memory required for data: 4659609768
I0704 21:49:08.625270 23533 layer_factory.hpp:77] Creating layer res4b
I0704 21:49:08.625280 23533 net.cpp:100] Creating Layer res4b
I0704 21:49:08.625286 23533 net.cpp:444] res4b <- res4a_res4a_relu_0_split_1
I0704 21:49:08.625295 23533 net.cpp:444] res4b <- res4b_branch2c
I0704 21:49:08.625304 23533 net.cpp:418] res4b -> res4b
I0704 21:49:08.625337 23533 net.cpp:150] Setting up res4b
I0704 21:49:08.625344 23533 net.cpp:157] Top shape: 1 1024 60 80 (4915200)
I0704 21:49:08.625347 23533 net.cpp:165] Memory required for data: 4679270568
I0704 21:49:08.625350 23533 layer_factory.hpp:77] Creating layer res4b_relu
I0704 21:49:08.625360 23533 net.cpp:100] Creating Layer res4b_relu
I0704 21:49:08.625365 23533 net.cpp:444] res4b_relu <- res4b
I0704 21:49:08.625375 23533 net.cpp:405] res4b_relu -> res4b (in-place)
I0704 21:49:08.625511 23533 net.cpp:150] Setting up res4b_relu
I0704 21:49:08.625517 23533 net.cpp:157] Top shape: 1 1024 60 80 (4915200)
I0704 21:49:08.625520 23533 net.cpp:165] Memory required for data: 4698931368
I0704 21:49:08.625524 23533 layer_factory.hpp:77] Creating layer res4b_res4b_relu_0_split
I0704 21:49:08.625533 23533 net.cpp:100] Creating Layer res4b_res4b_relu_0_split
I0704 21:49:08.625537 23533 net.cpp:444] res4b_res4b_relu_0_split <- res4b
I0704 21:49:08.625560 23533 net.cpp:418] res4b_res4b_relu_0_split -> res4b_res4b_relu_0_split_0
I0704 21:49:08.625586 23533 net.cpp:418] res4b_res4b_relu_0_split -> res4b_res4b_relu_0_split_1
I0704 21:49:08.625627 23533 net.cpp:150] Setting up res4b_res4b_relu_0_split
I0704 21:49:08.625634 23533 net.cpp:157] Top shape: 1 1024 60 80 (4915200)
I0704 21:49:08.625638 23533 net.cpp:157] Top shape: 1 1024 60 80 (4915200)
I0704 21:49:08.625640 23533 net.cpp:165] Memory required for data: 4738252968
I0704 21:49:08.625643 23533 layer_factory.hpp:77] Creating layer res4c_branch2a
I0704 21:49:08.625655 23533 net.cpp:100] Creating Layer res4c_branch2a
I0704 21:49:08.625661 23533 net.cpp:444] res4c_branch2a <- res4b_res4b_relu_0_split_0
I0704 21:49:08.625675 23533 net.cpp:418] res4c_branch2a -> res4c_branch2a
I0704 21:49:08.626864 23533 cudnn_conv_layer.cpp:194] Reallocating workspace storage: 92952
I0704 21:49:08.626883 23533 net.cpp:150] Setting up res4c_branch2a
I0704 21:49:08.626889 23533 net.cpp:157] Top shape: 1 256 60 80 (1228800)
I0704 21:49:08.626893 23533 net.cpp:165] Memory required for data: 4743168168
I0704 21:49:08.626901 23533 layer_factory.hpp:77] Creating layer bn4c_branch2a
I0704 21:49:08.626914 23533 net.cpp:100] Creating Layer bn4c_branch2a
I0704 21:49:08.626920 23533 net.cpp:444] bn4c_branch2a <- res4c_branch2a
I0704 21:49:08.626933 23533 net.cpp:405] bn4c_branch2a -> res4c_branch2a (in-place)
I0704 21:49:08.627121 23533 net.cpp:150] Setting up bn4c_branch2a
I0704 21:49:08.627127 23533 net.cpp:157] Top shape: 1 256 60 80 (1228800)
I0704 21:49:08.627130 23533 net.cpp:165] Memory required for data: 4748083368
I0704 21:49:08.627144 23533 layer_factory.hpp:77] Creating layer scale4c_branch2a
I0704 21:49:08.627156 23533 net.cpp:100] Creating Layer scale4c_branch2a
I0704 21:49:08.627161 23533 net.cpp:444] scale4c_branch2a <- res4c_branch2a
I0704 21:49:08.627172 23533 net.cpp:405] scale4c_branch2a -> res4c_branch2a (in-place)
I0704 21:49:08.627220 23533 layer_factory.hpp:77] Creating layer scale4c_branch2a
I0704 21:49:08.627357 23533 net.cpp:150] Setting up scale4c_branch2a
I0704 21:49:08.627363 23533 net.cpp:157] Top shape: 1 256 60 80 (1228800)
I0704 21:49:08.627367 23533 net.cpp:165] Memory required for data: 4752998568
I0704 21:49:08.627375 23533 layer_factory.hpp:77] Creating layer res4c_branch2a_relu
I0704 21:49:08.627387 23533 net.cpp:100] Creating Layer res4c_branch2a_relu
I0704 21:49:08.627391 23533 net.cpp:444] res4c_branch2a_relu <- res4c_branch2a
I0704 21:49:08.627403 23533 net.cpp:405] res4c_branch2a_relu -> res4c_branch2a (in-place)
I0704 21:49:08.627540 23533 net.cpp:150] Setting up res4c_branch2a_relu
I0704 21:49:08.627547 23533 net.cpp:157] Top shape: 1 256 60 80 (1228800)
I0704 21:49:08.627549 23533 net.cpp:165] Memory required for data: 4757913768
I0704 21:49:08.627553 23533 layer_factory.hpp:77] Creating layer res4c_branch2b
I0704 21:49:08.627566 23533 net.cpp:100] Creating Layer res4c_branch2b
I0704 21:49:08.627573 23533 net.cpp:444] res4c_branch2b <- res4c_branch2a
I0704 21:49:08.627585 23533 net.cpp:418] res4c_branch2b -> res4c_branch2b
I0704 21:49:08.630415 23533 cudnn_conv_layer.cpp:194] Reallocating workspace storage: 12582912
I0704 21:49:08.630709 23533 net.cpp:150] Setting up res4c_branch2b
I0704 21:49:08.630728 23533 net.cpp:157] Top shape: 1 256 60 80 (1228800)
I0704 21:49:08.630733 23533 net.cpp:165] Memory required for data: 4762828968
I0704 21:49:08.630756 23533 layer_factory.hpp:77] Creating layer bn4c_branch2b
I0704 21:49:08.630789 23533 net.cpp:100] Creating Layer bn4c_branch2b
I0704 21:49:08.630800 23533 net.cpp:444] bn4c_branch2b <- res4c_branch2b
I0704 21:49:08.630825 23533 net.cpp:405] bn4c_branch2b -> res4c_branch2b (in-place)
I0704 21:49:08.631095 23533 net.cpp:150] Setting up bn4c_branch2b
I0704 21:49:08.631103 23533 net.cpp:157] Top shape: 1 256 60 80 (1228800)
I0704 21:49:08.631105 23533 net.cpp:165] Memory required for data: 4767744168
I0704 21:49:08.631122 23533 layer_factory.hpp:77] Creating layer scale4c_branch2b
I0704 21:49:08.631139 23533 net.cpp:100] Creating Layer scale4c_branch2b
I0704 21:49:08.631145 23533 net.cpp:444] scale4c_branch2b <- res4c_branch2b
I0704 21:49:08.631155 23533 net.cpp:405] scale4c_branch2b -> res4c_branch2b (in-place)
I0704 21:49:08.631211 23533 layer_factory.hpp:77] Creating layer scale4c_branch2b
I0704 21:49:08.631350 23533 net.cpp:150] Setting up scale4c_branch2b
I0704 21:49:08.631356 23533 net.cpp:157] Top shape: 1 256 60 80 (1228800)
I0704 21:49:08.631358 23533 net.cpp:165] Memory required for data: 4772659368
I0704 21:49:08.631367 23533 layer_factory.hpp:77] Creating layer res4c_branch2b_relu
I0704 21:49:08.631378 23533 net.cpp:100] Creating Layer res4c_branch2b_relu
I0704 21:49:08.631383 23533 net.cpp:444] res4c_branch2b_relu <- res4c_branch2b
I0704 21:49:08.631393 23533 net.cpp:405] res4c_branch2b_relu -> res4c_branch2b (in-place)
I0704 21:49:08.631772 23533 net.cpp:150] Setting up res4c_branch2b_relu
I0704 21:49:08.631780 23533 net.cpp:157] Top shape: 1 256 60 80 (1228800)
I0704 21:49:08.631783 23533 net.cpp:165] Memory required for data: 4777574568
I0704 21:49:08.631788 23533 layer_factory.hpp:77] Creating layer res4c_branch2c
I0704 21:49:08.631805 23533 net.cpp:100] Creating Layer res4c_branch2c
I0704 21:49:08.631811 23533 net.cpp:444] res4c_branch2c <- res4c_branch2b
I0704 21:49:08.631826 23533 net.cpp:418] res4c_branch2c -> res4c_branch2c
I0704 21:49:08.633617 23533 cudnn_conv_layer.cpp:194] Reallocating workspace storage: 92952
I0704 21:49:08.633638 23533 net.cpp:150] Setting up res4c_branch2c
I0704 21:49:08.633647 23533 net.cpp:157] Top shape: 1 1024 60 80 (4915200)
I0704 21:49:08.633651 23533 net.cpp:165] Memory required for data: 4797235368
I0704 21:49:08.633661 23533 layer_factory.hpp:77] Creating layer bn4c_branch2c
I0704 21:49:08.633677 23533 net.cpp:100] Creating Layer bn4c_branch2c
I0704 21:49:08.633682 23533 net.cpp:444] bn4c_branch2c <- res4c_branch2c
I0704 21:49:08.633694 23533 net.cpp:405] bn4c_branch2c -> res4c_branch2c (in-place)
I0704 21:49:08.633888 23533 net.cpp:150] Setting up bn4c_branch2c
I0704 21:49:08.633893 23533 net.cpp:157] Top shape: 1 1024 60 80 (4915200)
I0704 21:49:08.633895 23533 net.cpp:165] Memory required for data: 4816896168
I0704 21:49:08.633910 23533 layer_factory.hpp:77] Creating layer scale4c_branch2c
I0704 21:49:08.633924 23533 net.cpp:100] Creating Layer scale4c_branch2c
I0704 21:49:08.633929 23533 net.cpp:444] scale4c_branch2c <- res4c_branch2c
I0704 21:49:08.633939 23533 net.cpp:405] scale4c_branch2c -> res4c_branch2c (in-place)
I0704 21:49:08.633986 23533 layer_factory.hpp:77] Creating layer scale4c_branch2c
I0704 21:49:08.634130 23533 net.cpp:150] Setting up scale4c_branch2c
I0704 21:49:08.634136 23533 net.cpp:157] Top shape: 1 1024 60 80 (4915200)
I0704 21:49:08.634138 23533 net.cpp:165] Memory required for data: 4836556968
I0704 21:49:08.634147 23533 layer_factory.hpp:77] Creating layer res4c
I0704 21:49:08.634157 23533 net.cpp:100] Creating Layer res4c
I0704 21:49:08.634162 23533 net.cpp:444] res4c <- res4b_res4b_relu_0_split_1
I0704 21:49:08.634171 23533 net.cpp:444] res4c <- res4c_branch2c
I0704 21:49:08.634181 23533 net.cpp:418] res4c -> res4c
I0704 21:49:08.634214 23533 net.cpp:150] Setting up res4c
I0704 21:49:08.634222 23533 net.cpp:157] Top shape: 1 1024 60 80 (4915200)
I0704 21:49:08.634224 23533 net.cpp:165] Memory required for data: 4856217768
I0704 21:49:08.634227 23533 layer_factory.hpp:77] Creating layer res4c_relu
I0704 21:49:08.634238 23533 net.cpp:100] Creating Layer res4c_relu
I0704 21:49:08.634241 23533 net.cpp:444] res4c_relu <- res4c
I0704 21:49:08.634251 23533 net.cpp:405] res4c_relu -> res4c (in-place)
I0704 21:49:08.634390 23533 net.cpp:150] Setting up res4c_relu
I0704 21:49:08.634397 23533 net.cpp:157] Top shape: 1 1024 60 80 (4915200)
I0704 21:49:08.634399 23533 net.cpp:165] Memory required for data: 4875878568
I0704 21:49:08.634403 23533 layer_factory.hpp:77] Creating layer res4c_res4c_relu_0_split
I0704 21:49:08.634411 23533 net.cpp:100] Creating Layer res4c_res4c_relu_0_split
I0704 21:49:08.634416 23533 net.cpp:444] res4c_res4c_relu_0_split <- res4c
I0704 21:49:08.634428 23533 net.cpp:418] res4c_res4c_relu_0_split -> res4c_res4c_relu_0_split_0
I0704 21:49:08.634443 23533 net.cpp:418] res4c_res4c_relu_0_split -> res4c_res4c_relu_0_split_1
I0704 21:49:08.634483 23533 net.cpp:150] Setting up res4c_res4c_relu_0_split
I0704 21:49:08.634490 23533 net.cpp:157] Top shape: 1 1024 60 80 (4915200)
I0704 21:49:08.634495 23533 net.cpp:157] Top shape: 1 1024 60 80 (4915200)
I0704 21:49:08.634496 23533 net.cpp:165] Memory required for data: 4915200168
I0704 21:49:08.634500 23533 layer_factory.hpp:77] Creating layer res4d_branch2a
I0704 21:49:08.634512 23533 net.cpp:100] Creating Layer res4d_branch2a
I0704 21:49:08.634517 23533 net.cpp:444] res4d_branch2a <- res4c_res4c_relu_0_split_0
I0704 21:49:08.634531 23533 net.cpp:418] res4d_branch2a -> res4d_branch2a
I0704 21:49:08.635721 23533 cudnn_conv_layer.cpp:194] Reallocating workspace storage: 92952
I0704 21:49:08.635740 23533 net.cpp:150] Setting up res4d_branch2a
I0704 21:49:08.635746 23533 net.cpp:157] Top shape: 1 256 60 80 (1228800)
I0704 21:49:08.635749 23533 net.cpp:165] Memory required for data: 4920115368
I0704 21:49:08.635758 23533 layer_factory.hpp:77] Creating layer bn4d_branch2a
I0704 21:49:08.635772 23533 net.cpp:100] Creating Layer bn4d_branch2a
I0704 21:49:08.635778 23533 net.cpp:444] bn4d_branch2a <- res4d_branch2a
I0704 21:49:08.635790 23533 net.cpp:405] bn4d_branch2a -> res4d_branch2a (in-place)
I0704 21:49:08.635982 23533 net.cpp:150] Setting up bn4d_branch2a
I0704 21:49:08.635988 23533 net.cpp:157] Top shape: 1 256 60 80 (1228800)
I0704 21:49:08.635990 23533 net.cpp:165] Memory required for data: 4925030568
I0704 21:49:08.636005 23533 layer_factory.hpp:77] Creating layer scale4d_branch2a
I0704 21:49:08.636016 23533 net.cpp:100] Creating Layer scale4d_branch2a
I0704 21:49:08.636021 23533 net.cpp:444] scale4d_branch2a <- res4d_branch2a
I0704 21:49:08.636032 23533 net.cpp:405] scale4d_branch2a -> res4d_branch2a (in-place)
I0704 21:49:08.636081 23533 layer_factory.hpp:77] Creating layer scale4d_branch2a
I0704 21:49:08.636219 23533 net.cpp:150] Setting up scale4d_branch2a
I0704 21:49:08.636226 23533 net.cpp:157] Top shape: 1 256 60 80 (1228800)
I0704 21:49:08.636229 23533 net.cpp:165] Memory required for data: 4929945768
I0704 21:49:08.636237 23533 layer_factory.hpp:77] Creating layer res4d_branch2a_relu
I0704 21:49:08.636246 23533 net.cpp:100] Creating Layer res4d_branch2a_relu
I0704 21:49:08.636252 23533 net.cpp:444] res4d_branch2a_relu <- res4d_branch2a
I0704 21:49:08.636262 23533 net.cpp:405] res4d_branch2a_relu -> res4d_branch2a (in-place)
I0704 21:49:08.636404 23533 net.cpp:150] Setting up res4d_branch2a_relu
I0704 21:49:08.636411 23533 net.cpp:157] Top shape: 1 256 60 80 (1228800)
I0704 21:49:08.636413 23533 net.cpp:165] Memory required for data: 4934860968
I0704 21:49:08.636416 23533 layer_factory.hpp:77] Creating layer res4d_branch2b
I0704 21:49:08.636430 23533 net.cpp:100] Creating Layer res4d_branch2b
I0704 21:49:08.636436 23533 net.cpp:444] res4d_branch2b <- res4d_branch2a
I0704 21:49:08.636449 23533 net.cpp:418] res4d_branch2b -> res4d_branch2b
I0704 21:49:08.638728 23533 cudnn_conv_layer.cpp:194] Reallocating workspace storage: 12582912
I0704 21:49:08.638960 23533 net.cpp:150] Setting up res4d_branch2b
I0704 21:49:08.638973 23533 net.cpp:157] Top shape: 1 256 60 80 (1228800)
I0704 21:49:08.638975 23533 net.cpp:165] Memory required for data: 4939776168
I0704 21:49:08.638988 23533 layer_factory.hpp:77] Creating layer bn4d_branch2b
I0704 21:49:08.639003 23533 net.cpp:100] Creating Layer bn4d_branch2b
I0704 21:49:08.639009 23533 net.cpp:444] bn4d_branch2b <- res4d_branch2b
I0704 21:49:08.639024 23533 net.cpp:405] bn4d_branch2b -> res4d_branch2b (in-place)
I0704 21:49:08.639227 23533 net.cpp:150] Setting up bn4d_branch2b
I0704 21:49:08.639233 23533 net.cpp:157] Top shape: 1 256 60 80 (1228800)
I0704 21:49:08.639235 23533 net.cpp:165] Memory required for data: 4944691368
I0704 21:49:08.639250 23533 layer_factory.hpp:77] Creating layer scale4d_branch2b
I0704 21:49:08.639262 23533 net.cpp:100] Creating Layer scale4d_branch2b
I0704 21:49:08.639268 23533 net.cpp:444] scale4d_branch2b <- res4d_branch2b
I0704 21:49:08.639278 23533 net.cpp:405] scale4d_branch2b -> res4d_branch2b (in-place)
I0704 21:49:08.639328 23533 layer_factory.hpp:77] Creating layer scale4d_branch2b
I0704 21:49:08.639468 23533 net.cpp:150] Setting up scale4d_branch2b
I0704 21:49:08.639475 23533 net.cpp:157] Top shape: 1 256 60 80 (1228800)
I0704 21:49:08.639478 23533 net.cpp:165] Memory required for data: 4949606568
I0704 21:49:08.639487 23533 layer_factory.hpp:77] Creating layer res4d_branch2b_relu
I0704 21:49:08.639497 23533 net.cpp:100] Creating Layer res4d_branch2b_relu
I0704 21:49:08.639502 23533 net.cpp:444] res4d_branch2b_relu <- res4d_branch2b
I0704 21:49:08.639513 23533 net.cpp:405] res4d_branch2b_relu -> res4d_branch2b (in-place)
I0704 21:49:08.639883 23533 net.cpp:150] Setting up res4d_branch2b_relu
I0704 21:49:08.639891 23533 net.cpp:157] Top shape: 1 256 60 80 (1228800)
I0704 21:49:08.639894 23533 net.cpp:165] Memory required for data: 4954521768
I0704 21:49:08.639899 23533 layer_factory.hpp:77] Creating layer res4d_branch2c
I0704 21:49:08.639914 23533 net.cpp:100] Creating Layer res4d_branch2c
I0704 21:49:08.639920 23533 net.cpp:444] res4d_branch2c <- res4d_branch2b
I0704 21:49:08.639935 23533 net.cpp:418] res4d_branch2c -> res4d_branch2c
I0704 21:49:08.641752 23533 cudnn_conv_layer.cpp:194] Reallocating workspace storage: 92952
I0704 21:49:08.641777 23533 net.cpp:150] Setting up res4d_branch2c
I0704 21:49:08.641784 23533 net.cpp:157] Top shape: 1 1024 60 80 (4915200)
I0704 21:49:08.641786 23533 net.cpp:165] Memory required for data: 4974182568
I0704 21:49:08.641798 23533 layer_factory.hpp:77] Creating layer bn4d_branch2c
I0704 21:49:08.641813 23533 net.cpp:100] Creating Layer bn4d_branch2c
I0704 21:49:08.641820 23533 net.cpp:444] bn4d_branch2c <- res4d_branch2c
I0704 21:49:08.641834 23533 net.cpp:405] bn4d_branch2c -> res4d_branch2c (in-place)
I0704 21:49:08.642035 23533 net.cpp:150] Setting up bn4d_branch2c
I0704 21:49:08.642040 23533 net.cpp:157] Top shape: 1 1024 60 80 (4915200)
I0704 21:49:08.642042 23533 net.cpp:165] Memory required for data: 4993843368
I0704 21:49:08.642056 23533 layer_factory.hpp:77] Creating layer scale4d_branch2c
I0704 21:49:08.642069 23533 net.cpp:100] Creating Layer scale4d_branch2c
I0704 21:49:08.642074 23533 net.cpp:444] scale4d_branch2c <- res4d_branch2c
I0704 21:49:08.642084 23533 net.cpp:405] scale4d_branch2c -> res4d_branch2c (in-place)
I0704 21:49:08.642132 23533 layer_factory.hpp:77] Creating layer scale4d_branch2c
I0704 21:49:08.642276 23533 net.cpp:150] Setting up scale4d_branch2c
I0704 21:49:08.642282 23533 net.cpp:157] Top shape: 1 1024 60 80 (4915200)
I0704 21:49:08.642284 23533 net.cpp:165] Memory required for data: 5013504168
I0704 21:49:08.642294 23533 layer_factory.hpp:77] Creating layer res4d
I0704 21:49:08.642305 23533 net.cpp:100] Creating Layer res4d
I0704 21:49:08.642310 23533 net.cpp:444] res4d <- res4c_res4c_relu_0_split_1
I0704 21:49:08.642319 23533 net.cpp:444] res4d <- res4d_branch2c
I0704 21:49:08.642328 23533 net.cpp:418] res4d -> res4d
I0704 21:49:08.642362 23533 net.cpp:150] Setting up res4d
I0704 21:49:08.642369 23533 net.cpp:157] Top shape: 1 1024 60 80 (4915200)
I0704 21:49:08.642372 23533 net.cpp:165] Memory required for data: 5033164968
I0704 21:49:08.642376 23533 layer_factory.hpp:77] Creating layer res4d_relu
I0704 21:49:08.642385 23533 net.cpp:100] Creating Layer res4d_relu
I0704 21:49:08.642388 23533 net.cpp:444] res4d_relu <- res4d
I0704 21:49:08.642400 23533 net.cpp:405] res4d_relu -> res4d (in-place)
I0704 21:49:08.642542 23533 net.cpp:150] Setting up res4d_relu
I0704 21:49:08.642549 23533 net.cpp:157] Top shape: 1 1024 60 80 (4915200)
I0704 21:49:08.642550 23533 net.cpp:165] Memory required for data: 5052825768
I0704 21:49:08.642554 23533 layer_factory.hpp:77] Creating layer res4d_res4d_relu_0_split
I0704 21:49:08.642563 23533 net.cpp:100] Creating Layer res4d_res4d_relu_0_split
I0704 21:49:08.642568 23533 net.cpp:444] res4d_res4d_relu_0_split <- res4d
I0704 21:49:08.642580 23533 net.cpp:418] res4d_res4d_relu_0_split -> res4d_res4d_relu_0_split_0
I0704 21:49:08.642593 23533 net.cpp:418] res4d_res4d_relu_0_split -> res4d_res4d_relu_0_split_1
I0704 21:49:08.642634 23533 net.cpp:150] Setting up res4d_res4d_relu_0_split
I0704 21:49:08.642642 23533 net.cpp:157] Top shape: 1 1024 60 80 (4915200)
I0704 21:49:08.642645 23533 net.cpp:157] Top shape: 1 1024 60 80 (4915200)
I0704 21:49:08.642647 23533 net.cpp:165] Memory required for data: 5092147368
I0704 21:49:08.642650 23533 layer_factory.hpp:77] Creating layer res4e_branch2a
I0704 21:49:08.642663 23533 net.cpp:100] Creating Layer res4e_branch2a
I0704 21:49:08.642668 23533 net.cpp:444] res4e_branch2a <- res4d_res4d_relu_0_split_0
I0704 21:49:08.642681 23533 net.cpp:418] res4e_branch2a -> res4e_branch2a
I0704 21:49:08.643885 23533 cudnn_conv_layer.cpp:194] Reallocating workspace storage: 92952
I0704 21:49:08.643904 23533 net.cpp:150] Setting up res4e_branch2a
I0704 21:49:08.643911 23533 net.cpp:157] Top shape: 1 256 60 80 (1228800)
I0704 21:49:08.643913 23533 net.cpp:165] Memory required for data: 5097062568
I0704 21:49:08.643923 23533 layer_factory.hpp:77] Creating layer bn4e_branch2a
I0704 21:49:08.643936 23533 net.cpp:100] Creating Layer bn4e_branch2a
I0704 21:49:08.643942 23533 net.cpp:444] bn4e_branch2a <- res4e_branch2a
I0704 21:49:08.643955 23533 net.cpp:405] bn4e_branch2a -> res4e_branch2a (in-place)
I0704 21:49:08.644150 23533 net.cpp:150] Setting up bn4e_branch2a
I0704 21:49:08.644155 23533 net.cpp:157] Top shape: 1 256 60 80 (1228800)
I0704 21:49:08.644156 23533 net.cpp:165] Memory required for data: 5101977768
I0704 21:49:08.644170 23533 layer_factory.hpp:77] Creating layer scale4e_branch2a
I0704 21:49:08.644183 23533 net.cpp:100] Creating Layer scale4e_branch2a
I0704 21:49:08.644188 23533 net.cpp:444] scale4e_branch2a <- res4e_branch2a
I0704 21:49:08.644198 23533 net.cpp:405] scale4e_branch2a -> res4e_branch2a (in-place)
I0704 21:49:08.644248 23533 layer_factory.hpp:77] Creating layer scale4e_branch2a
I0704 21:49:08.644385 23533 net.cpp:150] Setting up scale4e_branch2a
I0704 21:49:08.644392 23533 net.cpp:157] Top shape: 1 256 60 80 (1228800)
I0704 21:49:08.644395 23533 net.cpp:165] Memory required for data: 5106892968
I0704 21:49:08.644404 23533 layer_factory.hpp:77] Creating layer res4e_branch2a_relu
I0704 21:49:08.644415 23533 net.cpp:100] Creating Layer res4e_branch2a_relu
I0704 21:49:08.644420 23533 net.cpp:444] res4e_branch2a_relu <- res4e_branch2a
I0704 21:49:08.644429 23533 net.cpp:405] res4e_branch2a_relu -> res4e_branch2a (in-place)
I0704 21:49:08.644572 23533 net.cpp:150] Setting up res4e_branch2a_relu
I0704 21:49:08.644578 23533 net.cpp:157] Top shape: 1 256 60 80 (1228800)
I0704 21:49:08.644580 23533 net.cpp:165] Memory required for data: 5111808168
I0704 21:49:08.644584 23533 layer_factory.hpp:77] Creating layer res4e_branch2b
I0704 21:49:08.644598 23533 net.cpp:100] Creating Layer res4e_branch2b
I0704 21:49:08.644603 23533 net.cpp:444] res4e_branch2b <- res4e_branch2a
I0704 21:49:08.644615 23533 net.cpp:418] res4e_branch2b -> res4e_branch2b
I0704 21:49:08.646922 23533 cudnn_conv_layer.cpp:194] Reallocating workspace storage: 12582912
I0704 21:49:08.647166 23533 net.cpp:150] Setting up res4e_branch2b
I0704 21:49:08.647178 23533 net.cpp:157] Top shape: 1 256 60 80 (1228800)
I0704 21:49:08.647181 23533 net.cpp:165] Memory required for data: 5116723368
I0704 21:49:08.647193 23533 layer_factory.hpp:77] Creating layer bn4e_branch2b
I0704 21:49:08.647210 23533 net.cpp:100] Creating Layer bn4e_branch2b
I0704 21:49:08.647218 23533 net.cpp:444] bn4e_branch2b <- res4e_branch2b
I0704 21:49:08.647233 23533 net.cpp:405] bn4e_branch2b -> res4e_branch2b (in-place)
I0704 21:49:08.647435 23533 net.cpp:150] Setting up bn4e_branch2b
I0704 21:49:08.647441 23533 net.cpp:157] Top shape: 1 256 60 80 (1228800)
I0704 21:49:08.647444 23533 net.cpp:165] Memory required for data: 5121638568
I0704 21:49:08.647459 23533 layer_factory.hpp:77] Creating layer scale4e_branch2b
I0704 21:49:08.647471 23533 net.cpp:100] Creating Layer scale4e_branch2b
I0704 21:49:08.647476 23533 net.cpp:444] scale4e_branch2b <- res4e_branch2b
I0704 21:49:08.647488 23533 net.cpp:405] scale4e_branch2b -> res4e_branch2b (in-place)
I0704 21:49:08.647538 23533 layer_factory.hpp:77] Creating layer scale4e_branch2b
I0704 21:49:08.647681 23533 net.cpp:150] Setting up scale4e_branch2b
I0704 21:49:08.647688 23533 net.cpp:157] Top shape: 1 256 60 80 (1228800)
I0704 21:49:08.647691 23533 net.cpp:165] Memory required for data: 5126553768
I0704 21:49:08.647701 23533 layer_factory.hpp:77] Creating layer res4e_branch2b_relu
I0704 21:49:08.647709 23533 net.cpp:100] Creating Layer res4e_branch2b_relu
I0704 21:49:08.647714 23533 net.cpp:444] res4e_branch2b_relu <- res4e_branch2b
I0704 21:49:08.647725 23533 net.cpp:405] res4e_branch2b_relu -> res4e_branch2b (in-place)
I0704 21:49:08.648123 23533 net.cpp:150] Setting up res4e_branch2b_relu
I0704 21:49:08.648130 23533 net.cpp:157] Top shape: 1 256 60 80 (1228800)
I0704 21:49:08.648133 23533 net.cpp:165] Memory required for data: 5131468968
I0704 21:49:08.648138 23533 layer_factory.hpp:77] Creating layer res4e_branch2c
I0704 21:49:08.648154 23533 net.cpp:100] Creating Layer res4e_branch2c
I0704 21:49:08.648160 23533 net.cpp:444] res4e_branch2c <- res4e_branch2b
I0704 21:49:08.648175 23533 net.cpp:418] res4e_branch2c -> res4e_branch2c
I0704 21:49:08.650166 23533 cudnn_conv_layer.cpp:194] Reallocating workspace storage: 92952
I0704 21:49:08.650189 23533 net.cpp:150] Setting up res4e_branch2c
I0704 21:49:08.650199 23533 net.cpp:157] Top shape: 1 1024 60 80 (4915200)
I0704 21:49:08.650202 23533 net.cpp:165] Memory required for data: 5151129768
I0704 21:49:08.650216 23533 layer_factory.hpp:77] Creating layer bn4e_branch2c
I0704 21:49:08.650233 23533 net.cpp:100] Creating Layer bn4e_branch2c
I0704 21:49:08.650240 23533 net.cpp:444] bn4e_branch2c <- res4e_branch2c
I0704 21:49:08.650254 23533 net.cpp:405] bn4e_branch2c -> res4e_branch2c (in-place)
I0704 21:49:08.650461 23533 net.cpp:150] Setting up bn4e_branch2c
I0704 21:49:08.650468 23533 net.cpp:157] Top shape: 1 1024 60 80 (4915200)
I0704 21:49:08.650470 23533 net.cpp:165] Memory required for data: 5170790568
I0704 21:49:08.650485 23533 layer_factory.hpp:77] Creating layer scale4e_branch2c
I0704 21:49:08.650496 23533 net.cpp:100] Creating Layer scale4e_branch2c
I0704 21:49:08.650502 23533 net.cpp:444] scale4e_branch2c <- res4e_branch2c
I0704 21:49:08.650512 23533 net.cpp:405] scale4e_branch2c -> res4e_branch2c (in-place)
I0704 21:49:08.650560 23533 layer_factory.hpp:77] Creating layer scale4e_branch2c
I0704 21:49:08.650729 23533 net.cpp:150] Setting up scale4e_branch2c
I0704 21:49:08.650739 23533 net.cpp:157] Top shape: 1 1024 60 80 (4915200)
I0704 21:49:08.650743 23533 net.cpp:165] Memory required for data: 5190451368
I0704 21:49:08.650755 23533 layer_factory.hpp:77] Creating layer res4e
I0704 21:49:08.650768 23533 net.cpp:100] Creating Layer res4e
I0704 21:49:08.650774 23533 net.cpp:444] res4e <- res4d_res4d_relu_0_split_1
I0704 21:49:08.650786 23533 net.cpp:444] res4e <- res4e_branch2c
I0704 21:49:08.650797 23533 net.cpp:418] res4e -> res4e
I0704 21:49:08.650840 23533 net.cpp:150] Setting up res4e
I0704 21:49:08.650851 23533 net.cpp:157] Top shape: 1 1024 60 80 (4915200)
I0704 21:49:08.650854 23533 net.cpp:165] Memory required for data: 5210112168
I0704 21:49:08.650859 23533 layer_factory.hpp:77] Creating layer res4e_relu
I0704 21:49:08.650869 23533 net.cpp:100] Creating Layer res4e_relu
I0704 21:49:08.650876 23533 net.cpp:444] res4e_relu <- res4e
I0704 21:49:08.650887 23533 net.cpp:405] res4e_relu -> res4e (in-place)
I0704 21:49:08.651062 23533 net.cpp:150] Setting up res4e_relu
I0704 21:49:08.651070 23533 net.cpp:157] Top shape: 1 1024 60 80 (4915200)
I0704 21:49:08.651073 23533 net.cpp:165] Memory required for data: 5229772968
I0704 21:49:08.651078 23533 layer_factory.hpp:77] Creating layer res4e_res4e_relu_0_split
I0704 21:49:08.651090 23533 net.cpp:100] Creating Layer res4e_res4e_relu_0_split
I0704 21:49:08.651098 23533 net.cpp:444] res4e_res4e_relu_0_split <- res4e
I0704 21:49:08.651113 23533 net.cpp:418] res4e_res4e_relu_0_split -> res4e_res4e_relu_0_split_0
I0704 21:49:08.651129 23533 net.cpp:418] res4e_res4e_relu_0_split -> res4e_res4e_relu_0_split_1
I0704 21:49:08.651183 23533 net.cpp:150] Setting up res4e_res4e_relu_0_split
I0704 21:49:08.651192 23533 net.cpp:157] Top shape: 1 1024 60 80 (4915200)
I0704 21:49:08.651197 23533 net.cpp:157] Top shape: 1 1024 60 80 (4915200)
I0704 21:49:08.651201 23533 net.cpp:165] Memory required for data: 5269094568
I0704 21:49:08.651204 23533 layer_factory.hpp:77] Creating layer res4f_branch2a
I0704 21:49:08.651224 23533 net.cpp:100] Creating Layer res4f_branch2a
I0704 21:49:08.651232 23533 net.cpp:444] res4f_branch2a <- res4e_res4e_relu_0_split_0
I0704 21:49:08.651247 23533 net.cpp:418] res4f_branch2a -> res4f_branch2a
I0704 21:49:08.652846 23533 cudnn_conv_layer.cpp:194] Reallocating workspace storage: 92952
I0704 21:49:08.652871 23533 net.cpp:150] Setting up res4f_branch2a
I0704 21:49:08.652882 23533 net.cpp:157] Top shape: 1 256 60 80 (1228800)
I0704 21:49:08.652885 23533 net.cpp:165] Memory required for data: 5274009768
I0704 21:49:08.652897 23533 layer_factory.hpp:77] Creating layer bn4f_branch2a
I0704 21:49:08.652915 23533 net.cpp:100] Creating Layer bn4f_branch2a
I0704 21:49:08.652921 23533 net.cpp:444] bn4f_branch2a <- res4f_branch2a
I0704 21:49:08.652935 23533 net.cpp:405] bn4f_branch2a -> res4f_branch2a (in-place)
I0704 21:49:08.653136 23533 net.cpp:150] Setting up bn4f_branch2a
I0704 21:49:08.653142 23533 net.cpp:157] Top shape: 1 256 60 80 (1228800)
I0704 21:49:08.653146 23533 net.cpp:165] Memory required for data: 5278924968
I0704 21:49:08.653159 23533 layer_factory.hpp:77] Creating layer scale4f_branch2a
I0704 21:49:08.653172 23533 net.cpp:100] Creating Layer scale4f_branch2a
I0704 21:49:08.653178 23533 net.cpp:444] scale4f_branch2a <- res4f_branch2a
I0704 21:49:08.653190 23533 net.cpp:405] scale4f_branch2a -> res4f_branch2a (in-place)
I0704 21:49:08.653241 23533 layer_factory.hpp:77] Creating layer scale4f_branch2a
I0704 21:49:08.653385 23533 net.cpp:150] Setting up scale4f_branch2a
I0704 21:49:08.653393 23533 net.cpp:157] Top shape: 1 256 60 80 (1228800)
I0704 21:49:08.653395 23533 net.cpp:165] Memory required for data: 5283840168
I0704 21:49:08.653404 23533 layer_factory.hpp:77] Creating layer res4f_branch2a_relu
I0704 21:49:08.653414 23533 net.cpp:100] Creating Layer res4f_branch2a_relu
I0704 21:49:08.653419 23533 net.cpp:444] res4f_branch2a_relu <- res4f_branch2a
I0704 21:49:08.653429 23533 net.cpp:405] res4f_branch2a_relu -> res4f_branch2a (in-place)
I0704 21:49:08.653599 23533 net.cpp:150] Setting up res4f_branch2a_relu
I0704 21:49:08.653606 23533 net.cpp:157] Top shape: 1 256 60 80 (1228800)
I0704 21:49:08.653609 23533 net.cpp:165] Memory required for data: 5288755368
I0704 21:49:08.653614 23533 layer_factory.hpp:77] Creating layer res4f_branch2b
I0704 21:49:08.653627 23533 net.cpp:100] Creating Layer res4f_branch2b
I0704 21:49:08.653632 23533 net.cpp:444] res4f_branch2b <- res4f_branch2a
I0704 21:49:08.653646 23533 net.cpp:418] res4f_branch2b -> res4f_branch2b
I0704 21:49:08.655990 23533 cudnn_conv_layer.cpp:194] Reallocating workspace storage: 12582912
I0704 21:49:08.656231 23533 net.cpp:150] Setting up res4f_branch2b
I0704 21:49:08.656242 23533 net.cpp:157] Top shape: 1 256 60 80 (1228800)
I0704 21:49:08.656245 23533 net.cpp:165] Memory required for data: 5293670568
I0704 21:49:08.656257 23533 layer_factory.hpp:77] Creating layer bn4f_branch2b
I0704 21:49:08.656272 23533 net.cpp:100] Creating Layer bn4f_branch2b
I0704 21:49:08.656280 23533 net.cpp:444] bn4f_branch2b <- res4f_branch2b
I0704 21:49:08.656293 23533 net.cpp:405] bn4f_branch2b -> res4f_branch2b (in-place)
I0704 21:49:08.656500 23533 net.cpp:150] Setting up bn4f_branch2b
I0704 21:49:08.656507 23533 net.cpp:157] Top shape: 1 256 60 80 (1228800)
I0704 21:49:08.656508 23533 net.cpp:165] Memory required for data: 5298585768
I0704 21:49:08.656523 23533 layer_factory.hpp:77] Creating layer scale4f_branch2b
I0704 21:49:08.656535 23533 net.cpp:100] Creating Layer scale4f_branch2b
I0704 21:49:08.656540 23533 net.cpp:444] scale4f_branch2b <- res4f_branch2b
I0704 21:49:08.656551 23533 net.cpp:405] scale4f_branch2b -> res4f_branch2b (in-place)
I0704 21:49:08.656601 23533 layer_factory.hpp:77] Creating layer scale4f_branch2b
I0704 21:49:08.656744 23533 net.cpp:150] Setting up scale4f_branch2b
I0704 21:49:08.656751 23533 net.cpp:157] Top shape: 1 256 60 80 (1228800)
I0704 21:49:08.656754 23533 net.cpp:165] Memory required for data: 5303500968
I0704 21:49:08.656764 23533 layer_factory.hpp:77] Creating layer res4f_branch2b_relu
I0704 21:49:08.656774 23533 net.cpp:100] Creating Layer res4f_branch2b_relu
I0704 21:49:08.656778 23533 net.cpp:444] res4f_branch2b_relu <- res4f_branch2b
I0704 21:49:08.656787 23533 net.cpp:405] res4f_branch2b_relu -> res4f_branch2b (in-place)
I0704 21:49:08.656940 23533 net.cpp:150] Setting up res4f_branch2b_relu
I0704 21:49:08.656947 23533 net.cpp:157] Top shape: 1 256 60 80 (1228800)
I0704 21:49:08.656949 23533 net.cpp:165] Memory required for data: 5308416168
I0704 21:49:08.656953 23533 layer_factory.hpp:77] Creating layer res4f_branch2c
I0704 21:49:08.656967 23533 net.cpp:100] Creating Layer res4f_branch2c
I0704 21:49:08.656972 23533 net.cpp:444] res4f_branch2c <- res4f_branch2b
I0704 21:49:08.656985 23533 net.cpp:418] res4f_branch2c -> res4f_branch2c
I0704 21:49:08.658797 23533 cudnn_conv_layer.cpp:194] Reallocating workspace storage: 92952
I0704 21:49:08.658821 23533 net.cpp:150] Setting up res4f_branch2c
I0704 21:49:08.658829 23533 net.cpp:157] Top shape: 1 1024 60 80 (4915200)
I0704 21:49:08.658833 23533 net.cpp:165] Memory required for data: 5328076968
I0704 21:49:08.658843 23533 layer_factory.hpp:77] Creating layer bn4f_branch2c
I0704 21:49:08.658859 23533 net.cpp:100] Creating Layer bn4f_branch2c
I0704 21:49:08.658865 23533 net.cpp:444] bn4f_branch2c <- res4f_branch2c
I0704 21:49:08.658879 23533 net.cpp:405] bn4f_branch2c -> res4f_branch2c (in-place)
I0704 21:49:08.659083 23533 net.cpp:150] Setting up bn4f_branch2c
I0704 21:49:08.659090 23533 net.cpp:157] Top shape: 1 1024 60 80 (4915200)
I0704 21:49:08.659092 23533 net.cpp:165] Memory required for data: 5347737768
I0704 21:49:08.659139 23533 layer_factory.hpp:77] Creating layer scale4f_branch2c
I0704 21:49:08.659153 23533 net.cpp:100] Creating Layer scale4f_branch2c
I0704 21:49:08.659159 23533 net.cpp:444] scale4f_branch2c <- res4f_branch2c
I0704 21:49:08.659169 23533 net.cpp:405] scale4f_branch2c -> res4f_branch2c (in-place)
I0704 21:49:08.659219 23533 layer_factory.hpp:77] Creating layer scale4f_branch2c
I0704 21:49:08.659368 23533 net.cpp:150] Setting up scale4f_branch2c
I0704 21:49:08.659375 23533 net.cpp:157] Top shape: 1 1024 60 80 (4915200)
I0704 21:49:08.659377 23533 net.cpp:165] Memory required for data: 5367398568
I0704 21:49:08.659386 23533 layer_factory.hpp:77] Creating layer res4f
I0704 21:49:08.659397 23533 net.cpp:100] Creating Layer res4f
I0704 21:49:08.659404 23533 net.cpp:444] res4f <- res4e_res4e_relu_0_split_1
I0704 21:49:08.659412 23533 net.cpp:444] res4f <- res4f_branch2c
I0704 21:49:08.659420 23533 net.cpp:418] res4f -> res4f
I0704 21:49:08.659456 23533 net.cpp:150] Setting up res4f
I0704 21:49:08.659463 23533 net.cpp:157] Top shape: 1 1024 60 80 (4915200)
I0704 21:49:08.659466 23533 net.cpp:165] Memory required for data: 5387059368
I0704 21:49:08.659469 23533 layer_factory.hpp:77] Creating layer res4f_relu
I0704 21:49:08.659477 23533 net.cpp:100] Creating Layer res4f_relu
I0704 21:49:08.659482 23533 net.cpp:444] res4f_relu <- res4f
I0704 21:49:08.659492 23533 net.cpp:405] res4f_relu -> res4f (in-place)
I0704 21:49:08.659878 23533 net.cpp:150] Setting up res4f_relu
I0704 21:49:08.659885 23533 net.cpp:157] Top shape: 1 1024 60 80 (4915200)
I0704 21:49:08.659888 23533 net.cpp:165] Memory required for data: 5406720168
I0704 21:49:08.659893 23533 layer_factory.hpp:77] Creating layer res4f_res4f_relu_0_split
I0704 21:49:08.659905 23533 net.cpp:100] Creating Layer res4f_res4f_relu_0_split
I0704 21:49:08.659910 23533 net.cpp:444] res4f_res4f_relu_0_split <- res4f
I0704 21:49:08.659924 23533 net.cpp:418] res4f_res4f_relu_0_split -> res4f_res4f_relu_0_split_0
I0704 21:49:08.659936 23533 net.cpp:418] res4f_res4f_relu_0_split -> res4f_res4f_relu_0_split_1
I0704 21:49:08.659947 23533 net.cpp:418] res4f_res4f_relu_0_split -> res4f_res4f_relu_0_split_2
I0704 21:49:08.659957 23533 net.cpp:418] res4f_res4f_relu_0_split -> res4f_res4f_relu_0_split_3
I0704 21:49:08.660025 23533 net.cpp:150] Setting up res4f_res4f_relu_0_split
I0704 21:49:08.660033 23533 net.cpp:157] Top shape: 1 1024 60 80 (4915200)
I0704 21:49:08.660037 23533 net.cpp:157] Top shape: 1 1024 60 80 (4915200)
I0704 21:49:08.660039 23533 net.cpp:157] Top shape: 1 1024 60 80 (4915200)
I0704 21:49:08.660043 23533 net.cpp:157] Top shape: 1 1024 60 80 (4915200)
I0704 21:49:08.660044 23533 net.cpp:165] Memory required for data: 5485363368
I0704 21:49:08.660048 23533 layer_factory.hpp:77] Creating layer res5a_branch1
I0704 21:49:08.660060 23533 net.cpp:100] Creating Layer res5a_branch1
I0704 21:49:08.660068 23533 net.cpp:444] res5a_branch1 <- res4f_res4f_relu_0_split_0
…
I0706 23:44:11.477272 13647 layer_factory.hpp:77] Creating layer res5a_branch2a_relu
I0706 23:44:11.477280 13647 net.cpp:100] Creating Layer res5a_branch2a_relu
I0706 23:44:11.477284 13647 net.cpp:444] res5a_branch2a_relu <- res5a_branch2a
I0706 23:44:11.477294 13647 net.cpp:405] res5a_branch2a_relu -> res5a_branch2a (in-place)
I0706 23:44:11.477425 13647 net.cpp:150] Setting up res5a_branch2a_relu
I0706 23:44:11.477432 13647 net.cpp:157] Top shape: 1 512 14 14 (100352)
I0706 23:44:11.477434 13647 net.cpp:165] Memory required for data: 228601892
I0706 23:44:11.477437 13647 layer_factory.hpp:77] Creating layer res5a_branch2b
I0706 23:44:11.477450 13647 net.cpp:100] Creating Layer res5a_branch2b
I0706 23:44:11.477455 13647 net.cpp:444] res5a_branch2b <- res5a_branch2a
I0706 23:44:11.477466 13647 net.cpp:418] res5a_branch2b -> res5a_branch2b
I0706 23:44:11.482427 13647 net.cpp:150] Setting up res5a_branch2b
I0706 23:44:11.482455 13647 net.cpp:157] Top shape: 1 512 14 14 (100352)
I0706 23:44:11.482457 13647 net.cpp:165] Memory required for data: 229003300
I0706 23:44:11.482476 13647 layer_factory.hpp:77] Creating layer bn5a_branch2b
I0706 23:44:11.482506 13647 net.cpp:100] Creating Layer bn5a_branch2b
I0706 23:44:11.482519 13647 net.cpp:444] bn5a_branch2b <- res5a_branch2b
I0706 23:44:11.482539 13647 net.cpp:405] bn5a_branch2b -> res5a_branch2b (in-place)
I0706 23:44:11.482731 13647 net.cpp:150] Setting up bn5a_branch2b
I0706 23:44:11.482738 13647 net.cpp:157] Top shape: 1 512 14 14 (100352)
I0706 23:44:11.482739 13647 net.cpp:165] Memory required for data: 229404708
I0706 23:44:11.482753 13647 layer_factory.hpp:77] Creating layer scale5a_branch2b
I0706 23:44:11.482765 13647 net.cpp:100] Creating Layer scale5a_branch2b
I0706 23:44:11.482769 13647 net.cpp:444] scale5a_branch2b <- res5a_branch2b
I0706 23:44:11.482779 13647 net.cpp:405] scale5a_branch2b -> res5a_branch2b (in-place)
I0706 23:44:11.482825 13647 layer_factory.hpp:77] Creating layer scale5a_branch2b
I0706 23:44:11.482941 13647 net.cpp:150] Setting up scale5a_branch2b
I0706 23:44:11.482947 13647 net.cpp:157] Top shape: 1 512 14 14 (100352)
I0706 23:44:11.482949 13647 net.cpp:165] Memory required for data: 229806116
I0706 23:44:11.482957 13647 layer_factory.hpp:77] Creating layer res5a_branch2b_relu
I0706 23:44:11.482965 13647 net.cpp:100] Creating Layer res5a_branch2b_relu
I0706 23:44:11.482969 13647 net.cpp:444] res5a_branch2b_relu <- res5a_branch2b
I0706 23:44:11.482980 13647 net.cpp:405] res5a_branch2b_relu -> res5a_branch2b (in-place)
I0706 23:44:11.483151 13647 net.cpp:150] Setting up res5a_branch2b_relu
I0706 23:44:11.483157 13647 net.cpp:157] Top shape: 1 512 14 14 (100352)
I0706 23:44:11.483160 13647 net.cpp:165] Memory required for data: 230207524
I0706 23:44:11.483162 13647 layer_factory.hpp:77] Creating layer res5a_branch2c
I0706 23:44:11.483177 13647 net.cpp:100] Creating Layer res5a_branch2c
I0706 23:44:11.483181 13647 net.cpp:444] res5a_branch2c <- res5a_branch2b
I0706 23:44:11.483192 13647 net.cpp:418] res5a_branch2c -> res5a_branch2c
I0706 23:44:11.486271 13647 cudnn_conv_layer.cpp:194] Reallocating workspace storage: 7800
I0706 23:44:11.486299 13647 net.cpp:150] Setting up res5a_branch2c
I0706 23:44:11.486310 13647 net.cpp:157] Top shape: 1 2048 14 14 (401408)
I0706 23:44:11.486312 13647 net.cpp:165] Memory required for data: 231813156
I0706 23:44:11.486327 13647 layer_factory.hpp:77] Creating layer bn5a_branch2c
I0706 23:44:11.486348 13647 net.cpp:100] Creating Layer bn5a_branch2c
I0706 23:44:11.486356 13647 net.cpp:444] bn5a_branch2c <- res5a_branch2c
I0706 23:44:11.486371 13647 net.cpp:405] bn5a_branch2c -> res5a_branch2c (in-place)
I0706 23:44:11.486555 13647 net.cpp:150] Setting up bn5a_branch2c
I0706 23:44:11.486562 13647 net.cpp:157] Top shape: 1 2048 14 14 (401408)
I0706 23:44:11.486563 13647 net.cpp:165] Memory required for data: 233418788
I0706 23:44:11.486577 13647 layer_factory.hpp:77] Creating layer scale5a_branch2c
I0706 23:44:11.486588 13647 net.cpp:100] Creating Layer scale5a_branch2c
I0706 23:44:11.486591 13647 net.cpp:444] scale5a_branch2c <- res5a_branch2c
I0706 23:44:11.486600 13647 net.cpp:405] scale5a_branch2c -> res5a_branch2c (in-place)
I0706 23:44:11.486646 13647 layer_factory.hpp:77] Creating layer scale5a_branch2c
I0706 23:44:11.486764 13647 net.cpp:150] Setting up scale5a_branch2c
I0706 23:44:11.486771 13647 net.cpp:157] Top shape: 1 2048 14 14 (401408)
I0706 23:44:11.486773 13647 net.cpp:165] Memory required for data: 235024420
I0706 23:44:11.486781 13647 layer_factory.hpp:77] Creating layer res5a
I0706 23:44:11.486789 13647 net.cpp:100] Creating Layer res5a
I0706 23:44:11.486793 13647 net.cpp:444] res5a <- res5a_branch1
I0706 23:44:11.486800 13647 net.cpp:444] res5a <- res5a_branch2c
I0706 23:44:11.486806 13647 net.cpp:418] res5a -> res5a
I0706 23:44:11.486837 13647 net.cpp:150] Setting up res5a
I0706 23:44:11.486845 13647 net.cpp:157] Top shape: 1 2048 14 14 (401408)
I0706 23:44:11.486845 13647 net.cpp:165] Memory required for data: 236630052
I0706 23:44:11.486848 13647 layer_factory.hpp:77] Creating layer res5a_relu
I0706 23:44:11.486856 13647 net.cpp:100] Creating Layer res5a_relu
I0706 23:44:11.486860 13647 net.cpp:444] res5a_relu <- res5a
I0706 23:44:11.486868 13647 net.cpp:405] res5a_relu -> res5a (in-place)
I0706 23:44:11.487228 13647 net.cpp:150] Setting up res5a_relu
I0706 23:44:11.487236 13647 net.cpp:157] Top shape: 1 2048 14 14 (401408)
I0706 23:44:11.487237 13647 net.cpp:165] Memory required for data: 238235684
I0706 23:44:11.487241 13647 layer_factory.hpp:77] Creating layer res5a_res5a_relu_0_split
I0706 23:44:11.487251 13647 net.cpp:100] Creating Layer res5a_res5a_relu_0_split
I0706 23:44:11.487255 13647 net.cpp:444] res5a_res5a_relu_0_split <- res5a
I0706 23:44:11.487265 13647 net.cpp:418] res5a_res5a_relu_0_split -> res5a_res5a_relu_0_split_0
I0706 23:44:11.487278 13647 net.cpp:418] res5a_res5a_relu_0_split -> res5a_res5a_relu_0_split_1
I0706 23:44:11.487319 13647 net.cpp:150] Setting up res5a_res5a_relu_0_split
I0706 23:44:11.487325 13647 net.cpp:157] Top shape: 1 2048 14 14 (401408)
I0706 23:44:11.487329 13647 net.cpp:157] Top shape: 1 2048 14 14 (401408)
I0706 23:44:11.487329 13647 net.cpp:165] Memory required for data: 241446948
I0706 23:44:11.487332 13647 layer_factory.hpp:77] Creating layer res5b_branch2a
I0706 23:44:11.487346 13647 net.cpp:100] Creating Layer res5b_branch2a
I0706 23:44:11.487351 13647 net.cpp:444] res5b_branch2a <- res5a_res5a_relu_0_split_0
I0706 23:44:11.487363 13647 net.cpp:418] res5b_branch2a -> res5b_branch2a
I0706 23:44:11.490365 13647 cudnn_conv_layer.cpp:194] Reallocating workspace storage: 10080
I0706 23:44:11.490389 13647 net.cpp:150] Setting up res5b_branch2a
I0706 23:44:11.490401 13647 net.cpp:157] Top shape: 1 512 14 14 (100352)
I0706 23:44:11.490402 13647 net.cpp:165] Memory required for data: 241848356
I0706 23:44:11.490417 13647 layer_factory.hpp:77] Creating layer bn5b_branch2a
I0706 23:44:11.490434 13647 net.cpp:100] Creating Layer bn5b_branch2a
I0706 23:44:11.490443 13647 net.cpp:444] bn5b_branch2a <- res5b_branch2a
I0706 23:44:11.490458 13647 net.cpp:405] bn5b_branch2a -> res5b_branch2a (in-place)
I0706 23:44:11.490641 13647 net.cpp:150] Setting up bn5b_branch2a
I0706 23:44:11.490646 13647 net.cpp:157] Top shape: 1 512 14 14 (100352)
I0706 23:44:11.490648 13647 net.cpp:165] Memory required for data: 242249764
I0706 23:44:11.490662 13647 layer_factory.hpp:77] Creating layer scale5b_branch2a
I0706 23:44:11.490674 13647 net.cpp:100] Creating Layer scale5b_branch2a
I0706 23:44:11.490677 13647 net.cpp:444] scale5b_branch2a <- res5b_branch2a
I0706 23:44:11.490687 13647 net.cpp:405] scale5b_branch2a -> res5b_branch2a (in-place)
I0706 23:44:11.490731 13647 layer_factory.hpp:77] Creating layer scale5b_branch2a
I0706 23:44:11.490850 13647 net.cpp:150] Setting up scale5b_branch2a
I0706 23:44:11.490856 13647 net.cpp:157] Top shape: 1 512 14 14 (100352)
I0706 23:44:11.490859 13647 net.cpp:165] Memory required for data: 242651172
I0706 23:44:11.490866 13647 layer_factory.hpp:77] Creating layer res5b_branch2a_relu
I0706 23:44:11.490875 13647 net.cpp:100] Creating Layer res5b_branch2a_relu
I0706 23:44:11.490878 13647 net.cpp:444] res5b_branch2a_relu <- res5b_branch2a
I0706 23:44:11.490887 13647 net.cpp:405] res5b_branch2a_relu -> res5b_branch2a (in-place)
I0706 23:44:11.491017 13647 net.cpp:150] Setting up res5b_branch2a_relu
I0706 23:44:11.491024 13647 net.cpp:157] Top shape: 1 512 14 14 (100352)
I0706 23:44:11.491025 13647 net.cpp:165] Memory required for data: 243052580
I0706 23:44:11.491029 13647 layer_factory.hpp:77] Creating layer res5b_branch2b
I0706 23:44:11.491042 13647 net.cpp:100] Creating Layer res5b_branch2b
I0706 23:44:11.491046 13647 net.cpp:444] res5b_branch2b <- res5b_branch2a
I0706 23:44:11.491058 13647 net.cpp:418] res5b_branch2b -> res5b_branch2b
I0706 23:44:11.495987 13647 net.cpp:150] Setting up res5b_branch2b
I0706 23:44:11.496014 13647 net.cpp:157] Top shape: 1 512 14 14 (100352)
I0706 23:44:11.496016 13647 net.cpp:165] Memory required for data: 243453988
I0706 23:44:11.496035 13647 layer_factory.hpp:77] Creating layer bn5b_branch2b
I0706 23:44:11.496062 13647 net.cpp:100] Creating Layer bn5b_branch2b
I0706 23:44:11.496071 13647 net.cpp:444] bn5b_branch2b <- res5b_branch2b
I0706 23:44:11.496086 13647 net.cpp:405] bn5b_branch2b -> res5b_branch2b (in-place)
I0706 23:44:11.496284 13647 net.cpp:150] Setting up bn5b_branch2b
I0706 23:44:11.496289 13647 net.cpp:157] Top shape: 1 512 14 14 (100352)
I0706 23:44:11.496290 13647 net.cpp:165] Memory required for data: 243855396
I0706 23:44:11.496304 13647 layer_factory.hpp:77] Creating layer scale5b_branch2b
I0706 23:44:11.496316 13647 net.cpp:100] Creating Layer scale5b_branch2b
I0706 23:44:11.496321 13647 net.cpp:444] scale5b_branch2b <- res5b_branch2b
I0706 23:44:11.496331 13647 net.cpp:405] scale5b_branch2b -> res5b_branch2b (in-place)
I0706 23:44:11.496376 13647 layer_factory.hpp:77] Creating layer scale5b_branch2b
I0706 23:44:11.496496 13647 net.cpp:150] Setting up scale5b_branch2b
I0706 23:44:11.496503 13647 net.cpp:157] Top shape: 1 512 14 14 (100352)
I0706 23:44:11.496505 13647 net.cpp:165] Memory required for data: 244256804
I0706 23:44:11.496512 13647 layer_factory.hpp:77] Creating layer res5b_branch2b_relu
I0706 23:44:11.496522 13647 net.cpp:100] Creating Layer res5b_branch2b_relu
I0706 23:44:11.496526 13647 net.cpp:444] res5b_branch2b_relu <- res5b_branch2b
I0706 23:44:11.496534 13647 net.cpp:405] res5b_branch2b_relu -> res5b_branch2b (in-place)
I0706 23:44:11.496707 13647 net.cpp:150] Setting up res5b_branch2b_relu
I0706 23:44:11.496713 13647 net.cpp:157] Top shape: 1 512 14 14 (100352)
I0706 23:44:11.496716 13647 net.cpp:165] Memory required for data: 244658212
I0706 23:44:11.496719 13647 layer_factory.hpp:77] Creating layer res5b_branch2c
I0706 23:44:11.496734 13647 net.cpp:100] Creating Layer res5b_branch2c
I0706 23:44:11.496739 13647 net.cpp:444] res5b_branch2c <- res5b_branch2b
I0706 23:44:11.496752 13647 net.cpp:418] res5b_branch2c -> res5b_branch2c
I0706 23:44:11.499888 13647 cudnn_conv_layer.cpp:194] Reallocating workspace storage: 7800
I0706 23:44:11.499917 13647 net.cpp:150] Setting up res5b_branch2c
I0706 23:44:11.499928 13647 net.cpp:157] Top shape: 1 2048 14 14 (401408)
I0706 23:44:11.499930 13647 net.cpp:165] Memory required for data: 246263844
I0706 23:44:11.499945 13647 layer_factory.hpp:77] Creating layer bn5b_branch2c
I0706 23:44:11.499966 13647 net.cpp:100] Creating Layer bn5b_branch2c
I0706 23:44:11.499974 13647 net.cpp:444] bn5b_branch2c <- res5b_branch2c
I0706 23:44:11.499989 13647 net.cpp:405] bn5b_branch2c -> res5b_branch2c (in-place)
I0706 23:44:11.500178 13647 net.cpp:150] Setting up bn5b_branch2c
I0706 23:44:11.500185 13647 net.cpp:157] Top shape: 1 2048 14 14 (401408)
I0706 23:44:11.500187 13647 net.cpp:165] Memory required for data: 247869476
I0706 23:44:11.500200 13647 layer_factory.hpp:77] Creating layer scale5b_branch2c
I0706 23:44:11.500211 13647 net.cpp:100] Creating Layer scale5b_branch2c
I0706 23:44:11.500216 13647 net.cpp:444] scale5b_branch2c <- res5b_branch2c
I0706 23:44:11.500226 13647 net.cpp:405] scale5b_branch2c -> res5b_branch2c (in-place)
I0706 23:44:11.500273 13647 layer_factory.hpp:77] Creating layer scale5b_branch2c
I0706 23:44:11.500396 13647 net.cpp:150] Setting up scale5b_branch2c
I0706 23:44:11.500401 13647 net.cpp:157] Top shape: 1 2048 14 14 (401408)
I0706 23:44:11.500403 13647 net.cpp:165] Memory required for data: 249475108
I0706 23:44:11.500412 13647 layer_factory.hpp:77] Creating layer res5b
I0706 23:44:11.500422 13647 net.cpp:100] Creating Layer res5b
I0706 23:44:11.500427 13647 net.cpp:444] res5b <- res5a_res5a_relu_0_split_1
I0706 23:44:11.500434 13647 net.cpp:444] res5b <- res5b_branch2c
I0706 23:44:11.500442 13647 net.cpp:418] res5b -> res5b
I0706 23:44:11.500474 13647 net.cpp:150] Setting up res5b
I0706 23:44:11.500480 13647 net.cpp:157] Top shape: 1 2048 14 14 (401408)
I0706 23:44:11.500483 13647 net.cpp:165] Memory required for data: 251080740
I0706 23:44:11.500486 13647 layer_factory.hpp:77] Creating layer res5b_relu
I0706 23:44:11.500494 13647 net.cpp:100] Creating Layer res5b_relu
I0706 23:44:11.500497 13647 net.cpp:444] res5b_relu <- res5b
I0706 23:44:11.500506 13647 net.cpp:405] res5b_relu -> res5b (in-place)
I0706 23:44:11.500874 13647 net.cpp:150] Setting up res5b_relu
I0706 23:44:11.500881 13647 net.cpp:157] Top shape: 1 2048 14 14 (401408)
I0706 23:44:11.500883 13647 net.cpp:165] Memory required for data: 252686372
I0706 23:44:11.500887 13647 layer_factory.hpp:77] Creating layer res5b_res5b_relu_0_split
I0706 23:44:11.500897 13647 net.cpp:100] Creating Layer res5b_res5b_relu_0_split
I0706 23:44:11.500902 13647 net.cpp:444] res5b_res5b_relu_0_split <- res5b
I0706 23:44:11.500914 13647 net.cpp:418] res5b_res5b_relu_0_split -> res5b_res5b_relu_0_split_0
I0706 23:44:11.500926 13647 net.cpp:418] res5b_res5b_relu_0_split -> res5b_res5b_relu_0_split_1
I0706 23:44:11.500969 13647 net.cpp:150] Setting up res5b_res5b_relu_0_split
I0706 23:44:11.500977 13647 net.cpp:157] Top shape: 1 2048 14 14 (401408)
I0706 23:44:11.500979 13647 net.cpp:157] Top shape: 1 2048 14 14 (401408)
I0706 23:44:11.500982 13647 net.cpp:165] Memory required for data: 255897636
I0706 23:44:11.500984 13647 layer_factory.hpp:77] Creating layer res5c_branch2a
I0706 23:44:11.500998 13647 net.cpp:100] Creating Layer res5c_branch2a
I0706 23:44:11.501001 13647 net.cpp:444] res5c_branch2a <- res5b_res5b_relu_0_split_0
I0706 23:44:11.501013 13647 net.cpp:418] res5c_branch2a -> res5c_branch2a
I0706 23:44:11.504051 13647 cudnn_conv_layer.cpp:194] Reallocating workspace storage: 10080
I0706 23:44:11.504077 13647 net.cpp:150] Setting up res5c_branch2a
I0706 23:44:11.504089 13647 net.cpp:157] Top shape: 1 512 14 14 (100352)
I0706 23:44:11.504091 13647 net.cpp:165] Memory required for data: 256299044
I0706 23:44:11.504107 13647 layer_factory.hpp:77] Creating layer bn5c_branch2a
I0706 23:44:11.504127 13647 net.cpp:100] Creating Layer bn5c_branch2a
I0706 23:44:11.504135 13647 net.cpp:444] bn5c_branch2a <- res5c_branch2a
I0706 23:44:11.504151 13647 net.cpp:405] bn5c_branch2a -> res5c_branch2a (in-place)
I0706 23:44:11.504344 13647 net.cpp:150] Setting up bn5c_branch2a
I0706 23:44:11.504351 13647 net.cpp:157] Top shape: 1 512 14 14 (100352)
I0706 23:44:11.504354 13647 net.cpp:165] Memory required for data: 256700452
I0706 23:44:11.504366 13647 layer_factory.hpp:77] Creating layer scale5c_branch2a
I0706 23:44:11.504379 13647 net.cpp:100] Creating Layer scale5c_branch2a
I0706 23:44:11.504384 13647 net.cpp:444] scale5c_branch2a <- res5c_branch2a
I0706 23:44:11.504395 13647 net.cpp:405] scale5c_branch2a -> res5c_branch2a (in-place)
I0706 23:44:11.504438 13647 layer_factory.hpp:77] Creating layer scale5c_branch2a
I0706 23:44:11.504559 13647 net.cpp:150] Setting up scale5c_branch2a
I0706 23:44:11.504565 13647 net.cpp:157] Top shape: 1 512 14 14 (100352)
I0706 23:44:11.504567 13647 net.cpp:165] Memory required for data: 257101860
I0706 23:44:11.504575 13647 layer_factory.hpp:77] Creating layer res5c_branch2a_relu
I0706 23:44:11.504585 13647 net.cpp:100] Creating Layer res5c_branch2a_relu
I0706 23:44:11.504590 13647 net.cpp:444] res5c_branch2a_relu <- res5c_branch2a
I0706 23:44:11.504598 13647 net.cpp:405] res5c_branch2a_relu -> res5c_branch2a (in-place)
I0706 23:44:11.504731 13647 net.cpp:150] Setting up res5c_branch2a_relu
I0706 23:44:11.504737 13647 net.cpp:157] Top shape: 1 512 14 14 (100352)
I0706 23:44:11.504739 13647 net.cpp:165] Memory required for data: 257503268
I0706 23:44:11.504743 13647 layer_factory.hpp:77] Creating layer res5c_branch2b
I0706 23:44:11.504756 13647 net.cpp:100] Creating Layer res5c_branch2b
I0706 23:44:11.504761 13647 net.cpp:444] res5c_branch2b <- res5c_branch2a
I0706 23:44:11.504775 13647 net.cpp:418] res5c_branch2b -> res5c_branch2b
I0706 23:44:11.509718 13647 net.cpp:150] Setting up res5c_branch2b
I0706 23:44:11.509745 13647 net.cpp:157] Top shape: 1 512 14 14 (100352)
I0706 23:44:11.509748 13647 net.cpp:165] Memory required for data: 257904676
I0706 23:44:11.509768 13647 layer_factory.hpp:77] Creating layer bn5c_branch2b
I0706 23:44:11.509796 13647 net.cpp:100] Creating Layer bn5c_branch2b
I0706 23:44:11.509807 13647 net.cpp:444] bn5c_branch2b <- res5c_branch2b
I0706 23:44:11.509825 13647 net.cpp:405] bn5c_branch2b -> res5c_branch2b (in-place)
I0706 23:44:11.510026 13647 net.cpp:150] Setting up bn5c_branch2b
I0706 23:44:11.510032 13647 net.cpp:157] Top shape: 1 512 14 14 (100352)
I0706 23:44:11.510035 13647 net.cpp:165] Memory required for data: 258306084
I0706 23:44:11.510048 13647 layer_factory.hpp:77] Creating layer scale5c_branch2b
I0706 23:44:11.510061 13647 net.cpp:100] Creating Layer scale5c_branch2b
I0706 23:44:11.510066 13647 net.cpp:444] scale5c_branch2b <- res5c_branch2b
I0706 23:44:11.510076 13647 net.cpp:405] scale5c_branch2b -> res5c_branch2b (in-place)
I0706 23:44:11.510121 13647 layer_factory.hpp:77] Creating layer scale5c_branch2b
I0706 23:44:11.510242 13647 net.cpp:150] Setting up scale5c_branch2b
I0706 23:44:11.510248 13647 net.cpp:157] Top shape: 1 512 14 14 (100352)
I0706 23:44:11.510251 13647 net.cpp:165] Memory required for data: 258707492
I0706 23:44:11.510259 13647 layer_factory.hpp:77] Creating layer res5c_branch2b_relu
I0706 23:44:11.510269 13647 net.cpp:100] Creating Layer res5c_branch2b_relu
I0706 23:44:11.510273 13647 net.cpp:444] res5c_branch2b_relu <- res5c_branch2b
I0706 23:44:11.510282 13647 net.cpp:405] res5c_branch2b_relu -> res5c_branch2b (in-place)
I0706 23:44:11.510458 13647 net.cpp:150] Setting up res5c_branch2b_relu
I0706 23:44:11.510464 13647 net.cpp:157] Top shape: 1 512 14 14 (100352)
I0706 23:44:11.510466 13647 net.cpp:165] Memory required for data: 259108900
I0706 23:44:11.510469 13647 layer_factory.hpp:77] Creating layer res5c_branch2c
I0706 23:44:11.510485 13647 net.cpp:100] Creating Layer res5c_branch2c
I0706 23:44:11.510489 13647 net.cpp:444] res5c_branch2c <- res5c_branch2b
I0706 23:44:11.510502 13647 net.cpp:418] res5c_branch2c -> res5c_branch2c
I0706 23:44:11.513753 13647 cudnn_conv_layer.cpp:194] Reallocating workspace storage: 7800
I0706 23:44:11.513784 13647 net.cpp:150] Setting up res5c_branch2c
I0706 23:44:11.513798 13647 net.cpp:157] Top shape: 1 2048 14 14 (401408)
I0706 23:44:11.513800 13647 net.cpp:165] Memory required for data: 260714532
I0706 23:44:11.513818 13647 layer_factory.hpp:77] Creating layer bn5c_branch2c
I0706 23:44:11.513860 13647 net.cpp:100] Creating Layer bn5c_branch2c
I0706 23:44:11.513869 13647 net.cpp:444] bn5c_branch2c <- res5c_branch2c
I0706 23:44:11.513886 13647 net.cpp:405] bn5c_branch2c -> res5c_branch2c (in-place)
I0706 23:44:11.514086 13647 net.cpp:150] Setting up bn5c_branch2c
I0706 23:44:11.514091 13647 net.cpp:157] Top shape: 1 2048 14 14 (401408)
I0706 23:44:11.514093 13647 net.cpp:165] Memory required for data: 262320164
I0706 23:44:11.514106 13647 layer_factory.hpp:77] Creating layer scale5c_branch2c
I0706 23:44:11.514119 13647 net.cpp:100] Creating Layer scale5c_branch2c
I0706 23:44:11.514123 13647 net.cpp:444] scale5c_branch2c <- res5c_branch2c
I0706 23:44:11.514132 13647 net.cpp:405] scale5c_branch2c -> res5c_branch2c (in-place)
I0706 23:44:11.514183 13647 layer_factory.hpp:77] Creating layer scale5c_branch2c
I0706 23:44:11.514309 13647 net.cpp:150] Setting up scale5c_branch2c
I0706 23:44:11.514315 13647 net.cpp:157] Top shape: 1 2048 14 14 (401408)
I0706 23:44:11.514317 13647 net.cpp:165] Memory required for data: 263925796
I0706 23:44:11.514325 13647 layer_factory.hpp:77] Creating layer res5c
I0706 23:44:11.514334 13647 net.cpp:100] Creating Layer res5c
I0706 23:44:11.514338 13647 net.cpp:444] res5c <- res5b_res5b_relu_0_split_1
I0706 23:44:11.514345 13647 net.cpp:444] res5c <- res5c_branch2c
I0706 23:44:11.514353 13647 net.cpp:418] res5c -> res5c
I0706 23:44:11.514384 13647 net.cpp:150] Setting up res5c
I0706 23:44:11.514391 13647 net.cpp:157] Top shape: 1 2048 14 14 (401408)
I0706 23:44:11.514392 13647 net.cpp:165] Memory required for data: 265531428
I0706 23:44:11.514395 13647 layer_factory.hpp:77] Creating layer res5c_relu
I0706 23:44:11.514405 13647 net.cpp:100] Creating Layer res5c_relu
I0706 23:44:11.514408 13647 net.cpp:444] res5c_relu <- res5c
I0706 23:44:11.514416 13647 net.cpp:405] res5c_relu -> res5c (in-place)
I0706 23:44:11.514550 13647 net.cpp:150] Setting up res5c_relu
I0706 23:44:11.514555 13647 net.cpp:157] Top shape: 1 2048 14 14 (401408)
I0706 23:44:11.514557 13647 net.cpp:165] Memory required for data: 267137060
I0706 23:44:11.514560 13647 layer_factory.hpp:77] Creating layer res5c_res5c_relu_0_split
I0706 23:44:11.514569 13647 net.cpp:100] Creating Layer res5c_res5c_relu_0_split
I0706 23:44:11.514572 13647 net.cpp:444] res5c_res5c_relu_0_split <- res5c
I0706 23:44:11.514582 13647 net.cpp:418] res5c_res5c_relu_0_split -> res5c_res5c_relu_0_split_0
I0706 23:44:11.514595 13647 net.cpp:418] res5c_res5c_relu_0_split -> res5c_res5c_relu_0_split_1
I0706 23:44:11.514636 13647 net.cpp:150] Setting up res5c_res5c_relu_0_split
I0706 23:44:11.514642 13647 net.cpp:157] Top shape: 1 2048 14 14 (401408)
I0706 23:44:11.514644 13647 net.cpp:157] Top shape: 1 2048 14 14 (401408)
I0706 23:44:11.514647 13647 net.cpp:165] Memory required for data: 270348324
I0706 23:44:11.514649 13647 layer_factory.hpp:77] Creating layer rpn_conv/3x3
I0706 23:44:11.514665 13647 net.cpp:100] Creating Layer rpn_conv/3x3
I0706 23:44:11.514670 13647 net.cpp:444] rpn_conv/3x3 <- res4f_res4f_relu_0_split_2
I0706 23:44:11.514683 13647 net.cpp:418] rpn_conv/3x3 -> rpn/output
I0706 23:44:12.035984 13647 cudnn_conv_layer.cpp:194] Reallocating workspace storage: 21676032
I0706 23:44:12.036258 13647 net.cpp:150] Setting up rpn_conv/3x3
I0706 23:44:12.036275 13647 net.cpp:157] Top shape: 1 512 14 14 (100352)
I0706 23:44:12.036278 13647 net.cpp:165] Memory required for data: 270749732
I0706 23:44:12.036298 13647 layer_factory.hpp:77] Creating layer rpn_relu/3x3
I0706 23:44:12.036319 13647 net.cpp:100] Creating Layer rpn_relu/3x3
I0706 23:44:12.036329 13647 net.cpp:444] rpn_relu/3x3 <- rpn/output
I0706 23:44:12.036345 13647 net.cpp:405] rpn_relu/3x3 -> rpn/output (in-place)
I0706 23:44:12.036729 13647 net.cpp:150] Setting up rpn_relu/3x3
I0706 23:44:12.036737 13647 net.cpp:157] Top shape: 1 512 14 14 (100352)
I0706 23:44:12.036741 13647 net.cpp:165] Memory required for data: 271151140
I0706 23:44:12.036744 13647 layer_factory.hpp:77] Creating layer rpn/output_rpn_relu/3x3_0_split
I0706 23:44:12.036754 13647 net.cpp:100] Creating Layer rpn/output_rpn_relu/3x3_0_split
I0706 23:44:12.036758 13647 net.cpp:444] rpn/output_rpn_relu/3x3_0_split <- rpn/output
I0706 23:44:12.036772 13647 net.cpp:418] rpn/output_rpn_relu/3x3_0_split -> rpn/output_rpn_relu/3x3_0_split_0
I0706 23:44:12.036787 13647 net.cpp:418] rpn/output_rpn_relu/3x3_0_split -> rpn/output_rpn_relu/3x3_0_split_1
I0706 23:44:12.036839 13647 net.cpp:150] Setting up rpn/output_rpn_relu/3x3_0_split
I0706 23:44:12.036846 13647 net.cpp:157] Top shape: 1 512 14 14 (100352)
I0706 23:44:12.036850 13647 net.cpp:157] Top shape: 1 512 14 14 (100352)
I0706 23:44:12.036851 13647 net.cpp:165] Memory required for data: 271953956
I0706 23:44:12.036855 13647 layer_factory.hpp:77] Creating layer rpn_cls_score
I0706 23:44:12.036873 13647 net.cpp:100] Creating Layer rpn_cls_score
I0706 23:44:12.036880 13647 net.cpp:444] rpn_cls_score <- rpn/output_rpn_relu/3x3_0_split_0
I0706 23:44:12.036893 13647 net.cpp:418] rpn_cls_score -> rpn_cls_score
I0706 23:44:12.039088 13647 cudnn_conv_layer.cpp:194] Reallocating workspace storage: 10080
I0706 23:44:12.039113 13647 net.cpp:150] Setting up rpn_cls_score
I0706 23:44:12.039119 13647 net.cpp:157] Top shape: 1 22 14 14 (4312)
I0706 23:44:12.039122 13647 net.cpp:165] Memory required for data: 271971204
I0706 23:44:12.039134 13647 layer_factory.hpp:77] Creating layer rpn_bbox_pred
I0706 23:44:12.039150 13647 net.cpp:100] Creating Layer rpn_bbox_pred
I0706 23:44:12.039157 13647 net.cpp:444] rpn_bbox_pred <- rpn/output_rpn_relu/3x3_0_split_1
I0706 23:44:12.039173 13647 net.cpp:418] rpn_bbox_pred -> rpn_bbox_pred
I0706 23:44:12.042583 13647 cudnn_conv_layer.cpp:194] Reallocating workspace storage: 10080
I0706 23:44:12.042606 13647 net.cpp:150] Setting up rpn_bbox_pred
I0706 23:44:12.042614 13647 net.cpp:157] Top shape: 1 44 14 14 (8624)
I0706 23:44:12.042616 13647 net.cpp:165] Memory required for data: 272005700
I0706 23:44:12.042628 13647 layer_factory.hpp:77] Creating layer rpn_cls_score_reshape
I0706 23:44:12.042641 13647 net.cpp:100] Creating Layer rpn_cls_score_reshape
I0706 23:44:12.042647 13647 net.cpp:444] rpn_cls_score_reshape <- rpn_cls_score
I0706 23:44:12.042661 13647 net.cpp:418] rpn_cls_score_reshape -> rpn_cls_score_reshape
I0706 23:44:12.042701 13647 net.cpp:150] Setting up rpn_cls_score_reshape
I0706 23:44:12.042708 13647 net.cpp:157] Top shape: 1 2 154 14 (4312)
I0706 23:44:12.042711 13647 net.cpp:165] Memory required for data: 272022948
I0706 23:44:12.042714 13647 layer_factory.hpp:77] Creating layer rpn_cls_prob
I0706 23:44:12.042723 13647 net.cpp:100] Creating Layer rpn_cls_prob
I0706 23:44:12.042728 13647 net.cpp:444] rpn_cls_prob <- rpn_cls_score_reshape
I0706 23:44:12.042740 13647 net.cpp:418] rpn_cls_prob -> rpn_cls_prob
I0706 23:44:12.042987 13647 net.cpp:150] Setting up rpn_cls_prob
I0706 23:44:12.042996 13647 net.cpp:157] Top shape: 1 2 154 14 (4312)
I0706 23:44:12.042999 13647 net.cpp:165] Memory required for data: 272040196
I0706 23:44:12.043004 13647 layer_factory.hpp:77] Creating layer rpn_cls_prob_reshape
I0706 23:44:12.043014 13647 net.cpp:100] Creating Layer rpn_cls_prob_reshape
I0706 23:44:12.043018 13647 net.cpp:444] rpn_cls_prob_reshape <- rpn_cls_prob
I0706 23:44:12.043030 13647 net.cpp:418] rpn_cls_prob_reshape -> rpn_cls_prob_reshape
I0706 23:44:12.043066 13647 net.cpp:150] Setting up rpn_cls_prob_reshape
I0706 23:44:12.043072 13647 net.cpp:157] Top shape: 1 22 14 14 (4312)
I0706 23:44:12.043076 13647 net.cpp:165] Memory required for data: 272057444
I0706 23:44:12.043078 13647 layer_factory.hpp:77] Creating layer proposal
I0706 23:44:12.043365 13647 net.cpp:100] Creating Layer proposal
I0706 23:44:12.043373 13647 net.cpp:444] proposal <- rpn_cls_prob_reshape
I0706 23:44:12.043385 13647 net.cpp:444] proposal <- rpn_bbox_pred
I0706 23:44:12.043391 13647 net.cpp:444] proposal <- im_info_input_1_split_0
I0706 23:44:12.043401 13647 net.cpp:418] proposal -> rois
I0706 23:44:12.044522 13647 net.cpp:150] Setting up proposal
I0706 23:44:12.044533 13647 net.cpp:157] Top shape: 1 5 (5)
I0706 23:44:12.044535 13647 net.cpp:165] Memory required for data: 272057464
I0706 23:44:12.044540 13647 layer_factory.hpp:77] Creating layer rois_proposal_0_split
I0706 23:44:12.044551 13647 net.cpp:100] Creating Layer rois_proposal_0_split
I0706 23:44:12.044556 13647 net.cpp:444] rois_proposal_0_split <- rois
I0706 23:44:12.044569 13647 net.cpp:418] rois_proposal_0_split -> rois_proposal_0_split_0
I0706 23:44:12.044584 13647 net.cpp:418] rois_proposal_0_split -> rois_proposal_0_split_1
I0706 23:44:12.044629 13647 net.cpp:150] Setting up rois_proposal_0_split
I0706 23:44:12.044636 13647 net.cpp:157] Top shape: 1 5 (5)
I0706 23:44:12.044641 13647 net.cpp:157] Top shape: 1 5 (5)
I0706 23:44:12.044642 13647 net.cpp:165] Memory required for data: 272057504
I0706 23:44:12.044646 13647 layer_factory.hpp:77] Creating layer rpn_conv_head/3x3
I0706 23:44:12.044661 13647 net.cpp:100] Creating Layer rpn_conv_head/3x3
I0706 23:44:12.044667 13647 net.cpp:444] rpn_conv_head/3x3 <- res4f_res4f_relu_0_split_3
I0706 23:44:12.044680 13647 net.cpp:418] rpn_conv_head/3x3 -> rpn_head/output
I0706 23:44:12.571331 13647 cudnn_conv_layer.cpp:194] Reallocating workspace storage: 21676032
I0706 23:44:12.571614 13647 net.cpp:150] Setting up rpn_conv_head/3x3
I0706 23:44:12.571630 13647 net.cpp:157] Top shape: 1 512 14 14 (100352)
I0706 23:44:12.571633 13647 net.cpp:165] Memory required for data: 272458912
I0706 23:44:12.571653 13647 layer_factory.hpp:77] Creating layer rpn_relu_head/3x3
I0706 23:44:12.571676 13647 net.cpp:100] Creating Layer rpn_relu_head/3x3
I0706 23:44:12.571684 13647 net.cpp:444] rpn_relu_head/3x3 <- rpn_head/output
I0706 23:44:12.571702 13647 net.cpp:405] rpn_relu_head/3x3 -> rpn_head/output (in-place)
I0706 23:44:12.571864 13647 net.cpp:150] Setting up rpn_relu_head/3x3
I0706 23:44:12.571872 13647 net.cpp:157] Top shape: 1 512 14 14 (100352)
I0706 23:44:12.571874 13647 net.cpp:165] Memory required for data: 272860320
I0706 23:44:12.571878 13647 layer_factory.hpp:77] Creating layer rpn_head/output_rpn_relu_head/3x3_0_split
I0706 23:44:12.571913 13647 net.cpp:100] Creating Layer rpn_head/output_rpn_relu_head/3x3_0_split
I0706 23:44:12.571918 13647 net.cpp:444] rpn_head/output_rpn_relu_head/3x3_0_split <- rpn_head/output
I0706 23:44:12.571930 13647 net.cpp:418] rpn_head/output_rpn_relu_head/3x3_0_split -> rpn_head/output_rpn_relu_head/3x3_0_split_0
I0706 23:44:12.571944 13647 net.cpp:418] rpn_head/output_rpn_relu_head/3x3_0_split -> rpn_head/output_rpn_relu_head/3x3_0_split_1
I0706 23:44:12.571995 13647 net.cpp:150] Setting up rpn_head/output_rpn_relu_head/3x3_0_split
I0706 23:44:12.572002 13647 net.cpp:157] Top shape: 1 512 14 14 (100352)
I0706 23:44:12.572005 13647 net.cpp:157] Top shape: 1 512 14 14 (100352)
I0706 23:44:12.572007 13647 net.cpp:165] Memory required for data: 273663136
I0706 23:44:12.572013 13647 layer_factory.hpp:77] Creating layer rpn_head_cls_score
I0706 23:44:12.572031 13647 net.cpp:100] Creating Layer rpn_head_cls_score
I0706 23:44:12.572036 13647 net.cpp:444] rpn_head_cls_score <- rpn_head/output_rpn_relu_head/3x3_0_split_0
I0706 23:44:12.572052 13647 net.cpp:418] rpn_head_cls_score -> rpn_head_cls_score
I0706 23:44:12.574239 13647 cudnn_conv_layer.cpp:194] Reallocating workspace storage: 10080
I0706 23:44:12.574262 13647 net.cpp:150] Setting up rpn_head_cls_score
I0706 23:44:12.574268 13647 net.cpp:157] Top shape: 1 22 14 14 (4312)
I0706 23:44:12.574271 13647 net.cpp:165] Memory required for data: 273680384
I0706 23:44:12.574282 13647 layer_factory.hpp:77] Creating layer rpn_head_bbox_pred
I0706 23:44:12.574301 13647 net.cpp:100] Creating Layer rpn_head_bbox_pred
I0706 23:44:12.574307 13647 net.cpp:444] rpn_head_bbox_pred <- rpn_head/output_rpn_relu_head/3x3_0_split_1
I0706 23:44:12.574322 13647 net.cpp:418] rpn_head_bbox_pred -> rpn_head_bbox_pred
I0706 23:44:12.577790 13647 cudnn_conv_layer.cpp:194] Reallocating workspace storage: 10080
I0706 23:44:12.577826 13647 net.cpp:150] Setting up rpn_head_bbox_pred
I0706 23:44:12.577836 13647 net.cpp:157] Top shape: 1 44 14 14 (8624)
I0706 23:44:12.577841 13647 net.cpp:165] Memory required for data: 273714880
I0706 23:44:12.577858 13647 layer_factory.hpp:77] Creating layer rpn_head_cls_score_reshape
I0706 23:44:12.577881 13647 net.cpp:100] Creating Layer rpn_head_cls_score_reshape
I0706 23:44:12.577890 13647 net.cpp:444] rpn_head_cls_score_reshape <- rpn_head_cls_score
I0706 23:44:12.577909 13647 net.cpp:418] rpn_head_cls_score_reshape -> rpn_head_cls_score_reshape
I0706 23:44:12.577965 13647 net.cpp:150] Setting up rpn_head_cls_score_reshape
I0706 23:44:12.577975 13647 net.cpp:157] Top shape: 1 2 154 14 (4312)
I0706 23:44:12.577986 13647 net.cpp:165] Memory required for data: 273732128
I0706 23:44:12.577992 13647 layer_factory.hpp:77] Creating layer rpn_head_cls_prob
I0706 23:44:12.578008 13647 net.cpp:100] Creating Layer rpn_head_cls_prob
I0706 23:44:12.578016 13647 net.cpp:444] rpn_head_cls_prob <- rpn_head_cls_score_reshape
I0706 23:44:12.578030 13647 net.cpp:418] rpn_head_cls_prob -> rpn_head_cls_prob
I0706 23:44:12.578560 13647 net.cpp:150] Setting up rpn_head_cls_prob
I0706 23:44:12.578572 13647 net.cpp:157] Top shape: 1 2 154 14 (4312)
I0706 23:44:12.578575 13647 net.cpp:165] Memory required for data: 273749376
I0706 23:44:12.578582 13647 layer_factory.hpp:77] Creating layer rpn_head_cls_prob_reshape
I0706 23:44:12.578598 13647 net.cpp:100] Creating Layer rpn_head_cls_prob_reshape
I0706 23:44:12.578604 13647 net.cpp:444] rpn_head_cls_prob_reshape <- rpn_head_cls_prob
I0706 23:44:12.578621 13647 net.cpp:418] rpn_head_cls_prob_reshape -> rpn_head_cls_prob_reshape
I0706 23:44:12.578682 13647 net.cpp:150] Setting up rpn_head_cls_prob_reshape
I0706 23:44:12.578693 13647 net.cpp:157] Top shape: 1 22 14 14 (4312)
I0706 23:44:12.578698 13647 net.cpp:165] Memory required for data: 273766624
I0706 23:44:12.578703 13647 layer_factory.hpp:77] Creating layer proposal_head
I0706 23:44:12.578758 13647 net.cpp:100] Creating Layer proposal_head
I0706 23:44:12.578768 13647 net.cpp:444] proposal_head <- rpn_head_cls_prob_reshape
I0706 23:44:12.578781 13647 net.cpp:444] proposal_head <- rpn_head_bbox_pred
I0706 23:44:12.578791 13647 net.cpp:444] proposal_head <- im_info_input_1_split_1
I0706 23:44:12.578804 13647 net.cpp:418] proposal_head -> rois_head
I0706 23:44:12.579924 13647 net.cpp:150] Setting up proposal_head
I0706 23:44:12.579937 13647 net.cpp:157] Top shape: 1 5 (5)
I0706 23:44:12.579941 13647 net.cpp:165] Memory required for data: 273766644
I0706 23:44:12.579947 13647 layer_factory.hpp:77] Creating layer rois_head_proposal_head_0_split
I0706 23:44:12.579962 13647 net.cpp:100] Creating Layer rois_head_proposal_head_0_split
I0706 23:44:12.579968 13647 net.cpp:444] rois_head_proposal_head_0_split <- rois_head
I0706 23:44:12.579985 13647 net.cpp:418] rois_head_proposal_head_0_split -> rois_head_proposal_head_0_split_0
I0706 23:44:12.580004 13647 net.cpp:418] rois_head_proposal_head_0_split -> rois_head_proposal_head_0_split_1
I0706 23:44:12.580061 13647 net.cpp:150] Setting up rois_head_proposal_head_0_split
I0706 23:44:12.580070 13647 net.cpp:157] Top shape: 1 5 (5)
I0706 23:44:12.580075 13647 net.cpp:157] Top shape: 1 5 (5)
I0706 23:44:12.580080 13647 net.cpp:165] Memory required for data: 273766684
I0706 23:44:12.580085 13647 layer_factory.hpp:77] Creating layer conv_new_1
I0706 23:44:12.580106 13647 net.cpp:100] Creating Layer conv_new_1
I0706 23:44:12.580113 13647 net.cpp:444] conv_new_1 <- res5c_res5c_relu_0_split_0
I0706 23:44:12.580133 13647 net.cpp:418] conv_new_1 -> conv_new_1
I0706 23:44:12.814559 13647 cudnn_conv_layer.cpp:194] Reallocating workspace storage: 10080
I0706 23:44:12.814595 13647 net.cpp:150] Setting up conv_new_1
I0706 23:44:12.814611 13647 net.cpp:157] Top shape: 1 1024 14 14 (200704)
I0706 23:44:12.814615 13647 net.cpp:165] Memory required for data: 274569500
I0706 23:44:12.814640 13647 layer_factory.hpp:77] Creating layer conv_new_1_relu
I0706 23:44:12.814667 13647 net.cpp:100] Creating Layer conv_new_1_relu
I0706 23:44:12.814677 13647 net.cpp:444] conv_new_1_relu <- conv_new_1
I0706 23:44:12.814693 13647 net.cpp:405] conv_new_1_relu -> conv_new_1 (in-place)
I0706 23:44:12.814849 13647 net.cpp:150] Setting up conv_new_1_relu
I0706 23:44:12.814857 13647 net.cpp:157] Top shape: 1 1024 14 14 (200704)
I0706 23:44:12.814857 13647 net.cpp:165] Memory required for data: 275372316
I0706 23:44:12.814862 13647 layer_factory.hpp:77] Creating layer conv_new_1_conv_new_1_relu_0_split
I0706 23:44:12.814872 13647 net.cpp:100] Creating Layer conv_new_1_conv_new_1_relu_0_split
I0706 23:44:12.814875 13647 net.cpp:444] conv_new_1_conv_new_1_relu_0_split <- conv_new_1
I0706 23:44:12.814888 13647 net.cpp:418] conv_new_1_conv_new_1_relu_0_split -> conv_new_1_conv_new_1_relu_0_split_0
I0706 23:44:12.814901 13647 net.cpp:418] conv_new_1_conv_new_1_relu_0_split -> conv_new_1_conv_new_1_relu_0_split_1
I0706 23:44:12.814954 13647 net.cpp:150] Setting up conv_new_1_conv_new_1_relu_0_split
I0706 23:44:12.814963 13647 net.cpp:157] Top shape: 1 1024 14 14 (200704)
I0706 23:44:12.814966 13647 net.cpp:157] Top shape: 1 1024 14 14 (200704)
I0706 23:44:12.814968 13647 net.cpp:165] Memory required for data: 276977948
I0706 23:44:12.814971 13647 layer_factory.hpp:77] Creating layer rfcn_cls
I0706 23:44:12.814991 13647 net.cpp:100] Creating Layer rfcn_cls
I0706 23:44:12.814996 13647 net.cpp:444] rfcn_cls <- conv_new_1_conv_new_1_relu_0_split_0
I0706 23:44:12.815011 13647 net.cpp:418] rfcn_cls -> rfcn_cls
I0706 23:44:12.832839 13647 cudnn_conv_layer.cpp:194] Reallocating workspace storage: 10080
I0706 23:44:12.832871 13647 net.cpp:150] Setting up rfcn_cls
I0706 23:44:12.832885 13647 net.cpp:157] Top shape: 1 147 14 14 (28812)
I0706 23:44:12.832886 13647 net.cpp:165] Memory required for data: 277093196
I0706 23:44:12.832906 13647 layer_factory.hpp:77] Creating layer rfcn_bbox
I0706 23:44:12.832938 13647 net.cpp:100] Creating Layer rfcn_bbox
I0706 23:44:12.832947 13647 net.cpp:444] rfcn_bbox <- conv_new_1_conv_new_1_relu_0_split_1
I0706 23:44:12.832967 13647 net.cpp:418] rfcn_bbox -> rfcn_bbox
I0706 23:44:12.879220 13647 cudnn_conv_layer.cpp:194] Reallocating workspace storage: 10080
I0706 23:44:12.879251 13647 net.cpp:150] Setting up rfcn_bbox
I0706 23:44:12.879263 13647 net.cpp:157] Top shape: 1 392 14 14 (76832)
I0706 23:44:12.879266 13647 net.cpp:165] Memory required for data: 277400524
I0706 23:44:12.879287 13647 layer_factory.hpp:77] Creating layer head_conv_new_1
I0706 23:44:12.879319 13647 net.cpp:100] Creating Layer head_conv_new_1
I0706 23:44:12.879328 13647 net.cpp:444] head_conv_new_1 <- res5c_res5c_relu_0_split_1
I0706 23:44:12.879348 13647 net.cpp:418] head_conv_new_1 -> head_conv_new_1
I0706 23:44:13.113878 13647 cudnn_conv_layer.cpp:194] Reallocating workspace storage: 10080
I0706 23:44:13.113909 13647 net.cpp:150] Setting up head_conv_new_1
I0706 23:44:13.113922 13647 net.cpp:157] Top shape: 1 1024 14 14 (200704)
I0706 23:44:13.113924 13647 net.cpp:165] Memory required for data: 278203340
I0706 23:44:13.113945 13647 layer_factory.hpp:77] Creating layer head_conv_new_1_relu
I0706 23:44:13.113971 13647 net.cpp:100] Creating Layer head_conv_new_1_relu
I0706 23:44:13.113981 13647 net.cpp:444] head_conv_new_1_relu <- head_conv_new_1
I0706 23:44:13.113999 13647 net.cpp:405] head_conv_new_1_relu -> head_conv_new_1 (in-place)
I0706 23:44:13.114151 13647 net.cpp:150] Setting up head_conv_new_1_relu
I0706 23:44:13.114158 13647 net.cpp:157] Top shape: 1 1024 14 14 (200704)
I0706 23:44:13.114161 13647 net.cpp:165] Memory required for data: 279006156
I0706 23:44:13.114164 13647 layer_factory.hpp:77] Creating layer head_conv_new_1_head_conv_new_1_relu_0_split
I0706 23:44:13.114173 13647 net.cpp:100] Creating Layer head_conv_new_1_head_conv_new_1_relu_0_split
I0706 23:44:13.114178 13647 net.cpp:444] head_conv_new_1_head_conv_new_1_relu_0_split <- head_conv_new_1
I0706 23:44:13.114189 13647 net.cpp:418] head_conv_new_1_head_conv_new_1_relu_0_split -> head_conv_new_1_head_conv_new_1_relu_0_split_0
I0706 23:44:13.114203 13647 net.cpp:418] head_conv_new_1_head_conv_new_1_relu_0_split -> head_conv_new_1_head_conv_new_1_relu_0_split_1
I0706 23:44:13.114256 13647 net.cpp:150] Setting up head_conv_new_1_head_conv_new_1_relu_0_split
I0706 23:44:13.114264 13647 net.cpp:157] Top shape: 1 1024 14 14 (200704)
I0706 23:44:13.114267 13647 net.cpp:157] Top shape: 1 1024 14 14 (200704)
I0706 23:44:13.114269 13647 net.cpp:165] Memory required for data: 280611788
I0706 23:44:13.114272 13647 layer_factory.hpp:77] Creating layer head_rfcn_cls
I0706 23:44:13.114291 13647 net.cpp:100] Creating Layer head_rfcn_cls
I0706 23:44:13.114296 13647 net.cpp:444] head_rfcn_cls <- head_conv_new_1_head_conv_new_1_relu_0_split_0
I0706 23:44:13.114310 13647 net.cpp:418] head_rfcn_cls -> head_rfcn_cls
I0706 23:44:13.133015 13647 cudnn_conv_layer.cpp:194] Reallocating workspace storage: 10080
I0706 23:44:13.133049 13647 net.cpp:150] Setting up head_rfcn_cls
I0706 23:44:13.133061 13647 net.cpp:157] Top shape: 1 147 14 14 (28812)
I0706 23:44:13.133064 13647 net.cpp:165] Memory required for data: 280727036
I0706 23:44:13.133083 13647 layer_factory.hpp:77] Creating layer head_rfcn_bbox
I0706 23:44:13.133116 13647 net.cpp:100] Creating Layer head_rfcn_bbox
I0706 23:44:13.133126 13647 net.cpp:444] head_rfcn_bbox <- head_conv_new_1_head_conv_new_1_relu_0_split_1
I0706 23:44:13.133147 13647 net.cpp:418] head_rfcn_bbox -> head_rfcn_bbox
I0706 23:44:13.179316 13647 cudnn_conv_layer.cpp:194] Reallocating workspace storage: 10080
I0706 23:44:13.179347 13647 net.cpp:150] Setting up head_rfcn_bbox
I0706 23:44:13.179359 13647 net.cpp:157] Top shape: 1 392 14 14 (76832)
I0706 23:44:13.179361 13647 net.cpp:165] Memory required for data: 281034364
I0706 23:44:13.179383 13647 layer_factory.hpp:77] Creating layer psroipooled_cls_rois
I0706 23:44:13.179407 13647 net.cpp:100] Creating Layer psroipooled_cls_rois
I0706 23:44:13.179415 13647 net.cpp:444] psroipooled_cls_rois <- rfcn_cls
I0706 23:44:13.179430 13647 net.cpp:444] psroipooled_cls_rois <- rois_proposal_0_split_0
I0706 23:44:13.179441 13647 net.cpp:418] psroipooled_cls_rois -> psroipooled_cls_rois
I0706 23:44:13.179460 13647 psroi_pooling_layer.cpp:26] Spatial scale: 0.0625
I0706 23:44:13.179515 13647 net.cpp:150] Setting up psroipooled_cls_rois
I0706 23:44:13.179522 13647 net.cpp:157] Top shape: 1 3 7 7 (147)
I0706 23:44:13.179524 13647 net.cpp:165] Memory required for data: 281034952
I0706 23:44:13.179528 13647 layer_factory.hpp:77] Creating layer ave_cls_score_rois
I0706 23:44:13.179539 13647 net.cpp:100] Creating Layer ave_cls_score_rois
I0706 23:44:13.179543 13647 net.cpp:444] ave_cls_score_rois <- psroipooled_cls_rois
I0706 23:44:13.179556 13647 net.cpp:418] ave_cls_score_rois -> cls_score
I0706 23:44:13.180001 13647 net.cpp:150] Setting up ave_cls_score_rois
I0706 23:44:13.180011 13647 net.cpp:157] Top shape: 1 3 1 1 (3)
I0706 23:44:13.180013 13647 net.cpp:165] Memory required for data: 281034964
I0706 23:44:13.180018 13647 layer_factory.hpp:77] Creating layer psroipooled_loc_rois
I0706 23:44:13.180028 13647 net.cpp:100] Creating Layer psroipooled_loc_rois
I0706 23:44:13.180033 13647 net.cpp:444] psroipooled_loc_rois <- rfcn_bbox
I0706 23:44:13.180042 13647 net.cpp:444] psroipooled_loc_rois <- rois_proposal_0_split_1
I0706 23:44:13.180052 13647 net.cpp:418] psroipooled_loc_rois -> psroipooled_loc_rois
I0706 23:44:13.180065 13647 psroi_pooling_layer.cpp:26] Spatial scale: 0.0625
I0706 23:44:13.180109 13647 net.cpp:150] Setting up psroipooled_loc_rois
I0706 23:44:13.180116 13647 net.cpp:157] Top shape: 1 8 7 7 (392)
I0706 23:44:13.180119 13647 net.cpp:165] Memory required for data: 281036532
I0706 23:44:13.180122 13647 layer_factory.hpp:77] Creating layer ave_bbox_pred_rois
I0706 23:44:13.180132 13647 net.cpp:100] Creating Layer ave_bbox_pred_rois
I0706 23:44:13.180137 13647 net.cpp:444] ave_bbox_pred_rois <- psroipooled_loc_rois
I0706 23:44:13.180150 13647 net.cpp:418] ave_bbox_pred_rois -> bbox_pred_pre
I0706 23:44:13.180315 13647 net.cpp:150] Setting up ave_bbox_pred_rois
I0706 23:44:13.180325 13647 net.cpp:157] Top shape: 1 8 1 1 (8)
I0706 23:44:13.180326 13647 net.cpp:165] Memory required for data: 281036564
I0706 23:44:13.180330 13647 layer_factory.hpp:77] Creating layer head_psroipooled_cls_rois
I0706 23:44:13.180341 13647 net.cpp:100] Creating Layer head_psroipooled_cls_rois
I0706 23:44:13.180346 13647 net.cpp:444] head_psroipooled_cls_rois <- head_rfcn_cls
I0706 23:44:13.180356 13647 net.cpp:444] head_psroipooled_cls_rois <- rois_head_proposal_head_0_split_0
I0706 23:44:13.180366 13647 net.cpp:418] head_psroipooled_cls_rois -> head_psroipooled_cls_rois
I0706 23:44:13.180379 13647 psroi_pooling_layer.cpp:26] Spatial scale: 0.0625
I0706 23:44:13.180421 13647 net.cpp:150] Setting up head_psroipooled_cls_rois
I0706 23:44:13.180428 13647 net.cpp:157] Top shape: 1 3 7 7 (147)
I0706 23:44:13.180430 13647 net.cpp:165] Memory required for data: 281037152
I0706 23:44:13.180433 13647 layer_factory.hpp:77] Creating layer head_ave_cls_score_rois
I0706 23:44:13.180444 13647 net.cpp:100] Creating Layer head_ave_cls_score_rois
I0706 23:44:13.180449 13647 net.cpp:444] head_ave_cls_score_rois <- head_psroipooled_cls_rois
I0706 23:44:13.180460 13647 net.cpp:418] head_ave_cls_score_rois -> head_cls_score
I0706 23:44:13.180622 13647 net.cpp:150] Setting up head_ave_cls_score_rois
I0706 23:44:13.180630 13647 net.cpp:157] Top shape: 1 3 1 1 (3)
I0706 23:44:13.180634 13647 net.cpp:165] Memory required for data: 281037164
I0706 23:44:13.180637 13647 layer_factory.hpp:77] Creating layer head_psroipooled_loc_rois
I0706 23:44:13.180647 13647 net.cpp:100] Creating Layer head_psroipooled_loc_rois
I0706 23:44:13.180652 13647 net.cpp:444] head_psroipooled_loc_rois <- head_rfcn_bbox
I0706 23:44:13.180662 13647 net.cpp:444] head_psroipooled_loc_rois <- rois_head_proposal_head_0_split_1
I0706 23:44:13.180671 13647 net.cpp:418] head_psroipooled_loc_rois -> head_psroipooled_loc_rois
I0706 23:44:13.180685 13647 psroi_pooling_layer.cpp:26] Spatial scale: 0.0625
I0706 23:44:13.180725 13647 net.cpp:150] Setting up head_psroipooled_loc_rois
I0706 23:44:13.180732 13647 net.cpp:157] Top shape: 1 8 7 7 (392)
I0706 23:44:13.180734 13647 net.cpp:165] Memory required for data: 281038732
I0706 23:44:13.180737 13647 layer_factory.hpp:77] Creating layer head_ave_bbox_pred_rois
I0706 23:44:13.180747 13647 net.cpp:100] Creating Layer head_ave_bbox_pred_rois
I0706 23:44:13.180753 13647 net.cpp:444] head_ave_bbox_pred_rois <- head_psroipooled_loc_rois
I0706 23:44:13.180764 13647 net.cpp:418] head_ave_bbox_pred_rois -> head_bbox_pred_pre
I0706 23:44:13.180934 13647 net.cpp:150] Setting up head_ave_bbox_pred_rois
I0706 23:44:13.180943 13647 net.cpp:157] Top shape: 1 8 1 1 (8)
I0706 23:44:13.180945 13647 net.cpp:165] Memory required for data: 281038764
I0706 23:44:13.180949 13647 layer_factory.hpp:77] Creating layer cls_prob
I0706 23:44:13.180959 13647 net.cpp:100] Creating Layer cls_prob
I0706 23:44:13.180964 13647 net.cpp:444] cls_prob <- cls_score
I0706 23:44:13.180977 13647 net.cpp:418] cls_prob -> cls_prob_pre
I0706 23:44:13.181434 13647 net.cpp:150] Setting up cls_prob
I0706 23:44:13.181445 13647 net.cpp:157] Top shape: 1 3 1 1 (3)
I0706 23:44:13.181448 13647 net.cpp:165] Memory required for data: 281038776
I0706 23:44:13.181452 13647 layer_factory.hpp:77] Creating layer cls_prob_reshape
I0706 23:44:13.181466 13647 net.cpp:100] Creating Layer cls_prob_reshape
I0706 23:44:13.181471 13647 net.cpp:444] cls_prob_reshape <- cls_prob_pre
I0706 23:44:13.181485 13647 net.cpp:418] cls_prob_reshape -> cls_prob
I0706 23:44:13.181522 13647 net.cpp:150] Setting up cls_prob_reshape
I0706 23:44:13.181531 13647 net.cpp:157] Top shape: 1 3 (3)
I0706 23:44:13.181533 13647 net.cpp:165] Memory required for data: 281038788
I0706 23:44:13.181537 13647 layer_factory.hpp:77] Creating layer bbox_pred_reshape
I0706 23:44:13.181546 13647 net.cpp:100] Creating Layer bbox_pred_reshape
I0706 23:44:13.181572 13647 net.cpp:444] bbox_pred_reshape <- bbox_pred_pre
I0706 23:44:13.181586 13647 net.cpp:418] bbox_pred_reshape -> bbox_pred
I0706 23:44:13.181623 13647 net.cpp:150] Setting up bbox_pred_reshape
I0706 23:44:13.181630 13647 net.cpp:157] Top shape: 1 8 (8)
I0706 23:44:13.181633 13647 net.cpp:165] Memory required for data: 281038820
I0706 23:44:13.181637 13647 layer_factory.hpp:77] Creating layer head_cls_prob
I0706 23:44:13.181644 13647 net.cpp:100] Creating Layer head_cls_prob
I0706 23:44:13.181649 13647 net.cpp:444] head_cls_prob <- head_cls_score
I0706 23:44:13.181660 13647 net.cpp:418] head_cls_prob -> head_cls_prob_pre
I0706 23:44:13.181867 13647 net.cpp:150] Setting up head_cls_prob
I0706 23:44:13.181876 13647 net.cpp:157] Top shape: 1 3 1 1 (3)
I0706 23:44:13.181879 13647 net.cpp:165] Memory required for data: 281038832
I0706 23:44:13.181882 13647 layer_factory.hpp:77] Creating layer head_cls_prob_reshape
I0706 23:44:13.181893 13647 net.cpp:100] Creating Layer head_cls_prob_reshape
I0706 23:44:13.181898 13647 net.cpp:444] head_cls_prob_reshape <- head_cls_prob_pre
I0706 23:44:13.181910 13647 net.cpp:418] head_cls_prob_reshape -> head_cls_prob
I0706 23:44:13.181944 13647 net.cpp:150] Setting up head_cls_prob_reshape
I0706 23:44:13.181951 13647 net.cpp:157] Top shape: 1 3 (3)
I0706 23:44:13.181954 13647 net.cpp:165] Memory required for data: 281038844
I0706 23:44:13.181957 13647 layer_factory.hpp:77] Creating layer head_bbox_pred_reshape
I0706 23:44:13.181967 13647 net.cpp:100] Creating Layer head_bbox_pred_reshape
I0706 23:44:13.181972 13647 net.cpp:444] head_bbox_pred_reshape <- head_bbox_pred_pre
I0706 23:44:13.181982 13647 net.cpp:418] head_bbox_pred_reshape -> head_bbox_pred
I0706 23:44:13.182015 13647 net.cpp:150] Setting up head_bbox_pred_reshape
I0706 23:44:13.182023 13647 net.cpp:157] Top shape: 1 8 (8)
I0706 23:44:13.182025 13647 net.cpp:165] Memory required for data: 281038876
I0706 23:44:13.182029 13647 net.cpp:228] head_bbox_pred_reshape does not need backward computation.
I0706 23:44:13.182034 13647 net.cpp:228] head_cls_prob_reshape does not need backward computation.
I0706 23:44:13.182036 13647 net.cpp:228] head_cls_prob does not need backward computation.
I0706 23:44:13.182039 13647 net.cpp:228] bbox_pred_reshape does not need backward computation.
…
