…
snapshot_prefix: "resnet50_rfcn_ohem"
iter_size: 8
I0613 21:30:20.039845 15760 solver.cpp:81] Creating training net from train_net file: /home/user/Disk1.8T/py-R-FCN/experiments/6_13_original_head_upper_body_handle/train_agnostic_ohem.prototxt
I0613 21:30:20.042881 15760 net.cpp:58] Initializing net from parameters: 
name: "ResNet-50"
state {
  phase: TRAIN
}
layer {
  name: "input-data"
  type: "Python"
  top: "data"
  top: "im_info"
  top: "gt_boxes"
  python_param {
    module: "roi_data_layer.layer"
    layer: "RoIDataLayer"
    param_str: "\'num_classes\': 4"
  }
}
layer {
  name: "conv1"
  type: "Convolution"
  bottom: "data"
  top: "conv1"
  param {
    lr_mult: 0
  }
  param {
    lr_mult: 0
  }
  convolution_param {
    num_output: 64
    pad: 3
    kernel_size: 7
    stride: 2
  }
}
layer {
  name: "bn_conv1"
  type: "BatchNorm"
  bottom: "conv1"
  top: "conv1"
  param {
    lr_mult: 0
    decay_mult: 0
  }
  param {
    lr_mult: 0
    decay_mult: 0
  }
  param {
    lr_mult: 0
    decay_mult: 0
  }
  batch_norm_param {
    use_global_stats: true
  }
}
layer {
  name: "scale_conv1"
  type: "Scale"
  bottom: "conv1"
  top: "conv1"
  param {
    lr_mult: 0
    decay_mult: 0
  }
  param {
    lr_mult: 0
    decay_mult: 0
  }
  scale_param {
    bias_term: true
  }
}
layer {
  name: "conv1_relu"
  type: "ReLU"
  bottom: "conv1"
  top: "conv1"
}
layer {
  name: "pool1"
  type: "Pooling"
  bottom: "conv1"
  top: "pool1"
  pooling_param {
    pool: MAX
    kernel_size: 3
    stride: 2
  }
}
layer {
  name: "res2a_branch1"
  type: "Convolution"
  bottom: "pool1"
  top: "res2a_branch1"
  param {
    lr_mult: 0
  }
  convolution_param {
    num_output: 256
    bias_term: false
    pad: 0
    kernel_size: 1
    stride: 1
  }
}
layer {
  name: "bn2a_branch1"
  type: "BatchNorm"
  bottom: "res2a_branch1"
  top: "res2a_branch1"
  param {
    lr_mult: 0
    decay_mult: 0
  }
  param {
    lr_mult: 0
    decay_mult: 0
  }
  param {
    lr_mult: 0
    decay_mult: 0
  }
  batch_norm_param {
    use_global_stats: true
  }
}
layer {
  name: "scale2a_branch1"
  type: "Scale"
  bottom: "res2a_branch1"
  top: "res2a_branch1"
  param {
    lr_mult: 0
    decay_mult: 0
  }
  param {
    lr_mult: 0
    decay_mult: 0
  }
  scale_param {
    bias_term: true
  }
}
layer {
  name: "res2a_branch2a"
  type: "Convolution"
  bottom: "pool1"
  top: "res2a_branch2a"
  param {
    lr_mult: 0
  }
  convolution_param {
    num_output: 64
    bias_term: false
    pad: 0
    kernel_size: 1
    stride: 1
  }
}
layer {
  name: "bn2a_branch2a"
  type: "BatchNorm"
  bottom: "res2a_branch2a"
  top: "res2a_branch2a"
  param {
    lr_mult: 0
    decay_mult: 0
  }
  param {
    lr_mult: 0
    decay_mult: 0
  }
  param {
    lr_mult: 0
    decay_mult: 0
  }
  batch_norm_param {
    use_global_stats: true
  }
}
layer {
  name: "scale2a_branch2a"
  type: "Scale"
  bottom: "res2a_branch2a"
  top: "res2a_branch2a"
  param {
    lr_mult: 0
    decay_mult: 0
  }
  param {
    lr_mult: 0
    decay_mult: 0
  }
  scale_param {
    bias_term: true
  }
}
layer {
  name: "res2a_branch2a_relu"
  type: "ReLU"
  bottom: "res2a_branch2a"
  top: "res2a_branch2a"
}
layer {
  name: "res2a_branch2b"
  type: "Convolution"
  bottom: "res2a_branch2a"
  top: "res2a_branch2b"
  param {
    lr_mult: 0
  }
  convolution_param {
    num_output: 64
    bias_term: false
    pad: 1
    kernel_size: 3
    stride: 1
  }
}
layer {
  name: "bn2a_branch2b"
  type: "BatchNorm"
  bottom: "res2a_branch2b"
  top: "res2a_branch2b"
  param {
    lr_mult: 0
    decay_mult: 0
  }
  param {
    lr_mult: 0
    decay_mult: 0
  }
  param {
    lr_mult: 0
    decay_mult: 0
  }
  batch_norm_param {
    use_global_stats: true
  }
}
layer {
  name: "scale2a_branch2b"
  type: "Scale"
  bottom: "res2a_branch2b"
  top: "res2a_branch2b"
  param {
    lr_mult: 0
    decay_mult: 0
  }
  param {
    lr_mult: 0
    decay_mult: 0
  }
  scale_param {
    bias_term: true
  }
}
layer {
  name: "res2a_branch2b_relu"
  type: "ReLU"
  bottom: "res2a_branch2b"
  top: "res2a_branch2b"
}
layer {
  name: "res2a_branch2c"
  type: "Convolution"
  bottom: "res2a_branch2b"
  top: "res2a_branch2c"
  param {
    lr_mult: 0
  }
  convolution_param {
    num_output: 256
    bias_term: false
    pad: 0
    kernel_size: 1
    stride: 1
  }
}
layer {
  name: "bn2a_branch2c"
  type: "BatchNorm"
  bottom: "res2a_branch2c"
  top: "res2a_branch2c"
  param {
    lr_mult: 0
    decay_mult: 0
  }
  param {
    lr_mult: 0
    decay_mult: 0
  }
  param {
    lr_mult: 0
    decay_mult: 0
  }
  batch_norm_param {
    use_global_stats: true
  }
}
layer {
  name: "scale2a_branch2c"
  type: "Scale"
  bottom: "res2a_branch2c"
  top: "res2a_branch2c"
  param {
    lr_mult: 0
    decay_mult: 0
  }
  param {
    lr_mult: 0
    decay_mult: 0
  }
  scale_param {
    bias_term: true
  }
}
layer {
  name: "res2a"
  type: "Eltwise"
  bottom: "res2a_branch1"
  bottom: "res2a_branch2c"
  top: "res2a"
}
layer {
  name: "res2a_relu"
  type: "ReLU"
  bottom: "res2a"
  top: "res2a"
}
layer {
  name: "res2b_branch2a"
  type: "Convolution"
  bottom: "res2a"
  top: "res2b_branch2a"
  param {
    lr_mult: 0
  }
  convolution_param {
    num_output: 64
    bias_term: false
    pad: 0
    kernel_size: 1
    stride: 1
  }
}
layer {
  name: "bn2b_branch2a"
  type: "BatchNorm"
  bottom: "res2b_branch2a"
  top: "res2b_branch2a"
  param {
    lr_mult: 0
    decay_mult: 0
  }
  param {
    lr_mult: 0
    decay_mult: 0
  }
  param {
    lr_mult: 0
    decay_mult: 0
  }
  batch_norm_param {
    use_global_stats: true
  }
}
layer {
  name: "scale2b_branch2a"
  type: "Scale"
  bottom: "res2b_branch2a"
  top: "res2b_branch2a"
  param {
    lr_mult: 0
    decay_mult: 0
  }
  param {
    lr_mult: 0
    decay_mult: 0
  }
  scale_param {
    bias_term: true
  }
}
layer {
  name: "res2b_branch2a_relu"
  type: "ReLU"
  bottom: "res2b_branch2a"
  top: "res2b_branch2a"
}
layer {
  name: "res2b_branch2b"
  type: "Convolution"
  bottom: "res2b_branch2a"
  top: "res2b_branch2b"
  param {
    lr_mult: 0
  }
  convolution_param {
    num_output: 64
    bias_term: false
    pad: 1
    kernel_size: 3
    stride: 1
  }
}
layer {
  name: "bn2b_branch2b"
  type: "BatchNorm"
  bottom: "res2b_branch2b"
  top: "res2b_branch2b"
  param {
    lr_mult: 0
    decay_mult: 0
  }
  param {
    lr_mult: 0
    decay_mult: 0
  }
  param {
    lr_mult: 0
    decay_mult: 0
  }
  batch_norm_param {
    use_global_stats: true
  }
}
layer {
  name: "scale2b_branch2b"
  type: "Scale"
  bottom: "res2b_branch2b"
  top: "res2b_branch2b"
  param {
    lr_mult: 0
    decay_mult: 0
  }
  param {
    lr_mult: 0
    decay_mult: 0
  }
  scale_param {
    bias_term: true
  }
}
layer {
  name: "res2b_branch2b_relu"
  type: "ReLU"
  bottom: "res2b_branch2b"
  top: "res2b_branch2b"
}
layer {
  name: "res2b_branch2c"
  type: "Convolution"
  bottom: "res2b_branch2b"
  top: "res2b_branch2c"
  param {
    lr_mult: 0
  }
  convolution_param {
    num_output: 256
    bias_term: false
    pad: 0
    kernel_size: 1
    stride: 1
  }
}
layer {
  name: "bn2b_branch2c"
  type: "BatchNorm"
  bottom: "res2b_branch2c"
  top: "res2b_branch2c"
  param {
    lr_mult: 0
    decay_mult: 0
  }
  param {
    lr_mult: 0
    decay_mult: 0
  }
  param {
    lr_mult: 0
    decay_mult: 0
  }
  batch_norm_param {
    use_global_stats: true
  }
}
layer {
  name: "scale2b_branch2c"
  type: "Scale"
  bottom: "res2b_branch2c"
  top: "res2b_branch2c"
  param {
    lr_mult: 0
    decay_mult: 0
  }
  param {
    lr_mult: 0
    decay_mult: 0
  }
  scale_param {
    bias_term: true
  }
}
layer {
  name: "res2b"
  type: "Eltwise"
  bottom: "res2a"
  bottom: "res2b_branch2c"
  top: "res2b"
}
layer {
  name: "res2b_relu"
  type: "ReLU"
  bottom: "res2b"
  top: "res2b"
}
layer {
  name: "res2c_branch2a"
  type: "Convolution"
  bottom: "res2b"
  top: "res2c_branch2a"
  param {
    lr_mult: 0
  }
  convolution_param {
    num_output: 64
    bias_term: false
    pad: 0
    kernel_size: 1
    stride: 1
  }
}
layer {
  name: "bn2c_branch2a"
  type: "BatchNorm"
  bottom: "res2c_branch2a"
  top: "res2c_branch2a"
  param {
    lr_mult: 0
    decay_mult: 0
  }
  param {
    lr_mult: 0
    decay_mult: 0
  }
  param {
    lr_mult: 0
    decay_mult: 0
  }
  batch_norm_param {
    use_global_stats: true
  }
}
layer {
  name: "scale2c_branch2a"
  type: "Scale"
  bottom: "res2c_branch2a"
  top: "res2c_branch2a"
  param {
    lr_mult: 0
    decay_mult: 0
  }
  param {
    lr_mult: 0
    decay_mult: 0
  }
  scale_param {
    bias_term: true
  }
}
layer {
  name: "res2c_branch2a_relu"
  type: "ReLU"
  bottom: "res2c_branch2a"
  top: "res2c_branch2a"
}
layer {
  name: "res2c_branch2b"
  type: "Convolution"
  bottom: "res2c_branch2a"
  top: "res2c_branch2b"
  param {
    lr_mult: 0
  }
  convolution_param {
    num_output: 64
    bias_term: false
    pad: 1
    kernel_size: 3
    stride: 1
  }
}
layer {
  name: "bn2c_branch2b"
  type: "BatchNorm"
  bottom: "res2c_branch2b"
  top: "res2c_branch2b"
  param {
    lr_mult: 0
    decay_mult: 0
  }
  param {
    lr_mult: 0
    decay_mult: 0
  }
  param {
    lr_mult: 0
    decay_mult: 0
  }
  batch_norm_param {
    use_global_stats: true
  }
}
layer {
  name: "scale2c_branch2b"
  type: "Scale"
  bottom: "res2c_branch2b"
  top: "res2c_branch2b"
  param {
    lr_mult: 0
    decay_mult: 0
  }
  param {
    lr_mult: 0
    decay_mult: 0
  }
  scale_param {
    bias_term: true
  }
}
layer {
  name: "res2c_branch2b_relu"
  type: "ReLU"
  bottom: "res2c_branch2b"
  top: "res2c_branch2b"
}
layer {
  name: "res2c_branch2c"
  type: "Convolution"
  bottom: "res2c_branch2b"
  top: "res2c_branch2c"
  param {
    lr_mult: 0
  }
  convolution_param {
    num_output: 256
    bias_term: false
    pad: 0
    kernel_size: 1
    stride: 1
  }
}
layer {
  name: "bn2c_branch2c"
  type: "BatchNorm"
  bottom: "res2c_branch2c"
  top: "res2c_branch2c"
  param {
    lr_mult: 0
    decay_mult: 0
  }
  param {
    lr_mult: 0
    decay_mult: 0
  }
  param {
    lr_mult: 0
    decay_mult: 0
  }
  batch_norm_param {
    use_global_stats: true
  }
}
layer {
  name: "scale2c_branch2c"
  type: "Scale"
  bottom: "res2c_branch2c"
  top: "res2c_branch2c"
  param {
    lr_mult: 0
    decay_mult: 0
  }
  param {
    lr_mult: 0
    decay_mult: 0
  }
  scale_param {
    bias_term: true
  }
}
layer {
  name: "res2c"
  type: "Eltwise"
  bottom: "res2b"
  bottom: "res2c_branch2c"
  top: "res2c"
}
layer {
  name: "res2c_relu"
  type: "ReLU"
  bottom: "res2c"
  top: "res2c"
}
layer {
  name: "res3a_branch1"
  type: "Convolution"
  bottom: "res2c"
  top: "res3a_branch1"
  param {
    lr_mult: 1
  }
  convolution_param {
    num_output: 512
    bias_term: false
    pad: 0
    kernel_size: 1
    stride: 2
  }
}
layer {
  name: "bn3a_branch1"
  type: "BatchNorm"
  bottom: "res3a_branch1"
  top: "res3a_branch1"
  param {
    lr_mult: 0
    decay_mult: 0
  }
  param {
    lr_mult: 0
    decay_mult: 0
  }
  param {
    lr_mult: 0
    decay_mult: 0
  }
  batch_norm_param {
    use_global_stats: true
  }
}
layer {
  name: "scale3a_branch1"
  type: "Scale"
  bottom: "res3a_branch1"
  top: "res3a_branch1"
  param {
    lr_mult: 0
    decay_mult: 0
  }
  param {
    lr_mult: 0
    decay_mult: 0
  }
  scale_param {
    bias_term: true
  }
}
layer {
  name: "res3a_branch2a"
  type: "Convolution"
  bottom: "res2c"
  top: "res3a_branch2a"
  param {
    lr_mult: 1
  }
  convolution_param {
    num_output: 128
    bias_term: false
    pad: 0
    kernel_size: 1
    stride: 2
  }
}
layer {
  name: "bn3a_branch2a"
  type: "BatchNorm"
  bottom: "res3a_branch2a"
  top: "res3a_branch2a"
  param {
    lr_mult: 0
    decay_mult: 0
  }
  param {
    lr_mult: 0
    decay_mult: 0
  }
  param {
    lr_mult: 0
    decay_mult: 0
  }
  batch_norm_param {
    use_global_stats: true
  }
}
layer {
  name: "scale3a_branch2a"
  type: "Scale"
  bottom: "res3a_branch2a"
  top: "res3a_branch2a"
  param {
    lr_mult: 0
    decay_mult: 0
  }
  param {
    lr_mult: 0
    decay_mult: 0
  }
  scale_param {
    bias_term: true
  }
}
layer {
  name: "res3a_branch2a_relu"
  type: "ReLU"
  bottom: "res3a_branch2a"
  top: "res3a_branch2a"
}
layer {
  name: "res3a_branch2b"
  type: "Convolution"
  bottom: "res3a_branch2a"
  top: "res3a_branch2b"
  param {
    lr_mult: 1
  }
  convolution_param {
    num_output: 128
    bias_term: false
    pad: 1
    kernel_size: 3
    stride: 1
  }
}
layer {
  name: "bn3a_branch2b"
  type: "BatchNorm"
  bottom: "res3a_branch2b"
  top: "res3a_branch2b"
  param {
    lr_mult: 0
    decay_mult: 0
  }
  param {
    lr_mult: 0
    decay_mult: 0
  }
  param {
    lr_mult: 0
    decay_mult: 0
  }
  batch_norm_param {
    use_global_stats: true
  }
}
layer {
  name: "scale3a_branch2b"
  type: "Scale"
  bottom: "res3a_branch2b"
  top: "res3a_branch2b"
  param {
    lr_mult: 0
    decay_mult: 0
  }
  param {
    lr_mult: 0
    decay_mult: 0
  }
  scale_param {
    bias_term: true
  }
}
layer {
  name: "res3a_branch2b_relu"
  type: "ReLU"
  bottom: "res3a_branch2b"
  top: "res3a_branch2b"
}
layer {
  name: "res3a_branch2c"
  type: "Convolution"
  bottom: "res3a_branch2b"
  top: "res3a_branch2c"
  param {
    lr_mult: 1
  }
  convolution_param {
    num_output: 512
    bias_term: false
    pad: 0
    kernel_size: 1
    stride: 1
  }
}
layer {
  name: "bn3a_branch2c"
  type: "BatchNorm"
  bottom: "res3a_branch2c"
  top: "res3a_branch2c"
  param {
    lr_mult: 0
    decay_mult: 0
  }
  param {
    lr_mult: 0
    decay_mult: 0
  }
  param {
    lr_mult: 0
    decay_mult: 0
  }
  batch_norm_param {
    use_global_stats: true
  }
}
layer {
  name: "scale3a_branch2c"
  type: "Scale"
  bottom: "res3a_branch2c"
  top: "res3a_branch2c"
  param {
    lr_mult: 0
    decay_mult: 0
  }
  param {
    lr_mult: 0
    decay_mult: 0
  }
  scale_param {
    bias_term: true
  }
}
layer {
  name: "res3a"
  type: "Eltwise"
  bottom: "res3a_branch1"
  bottom: "res3a_branch2c"
  top: "res3a"
}
layer {
  name: "res3a_relu"
  type: "ReLU"
  bottom: "res3a"
  top: "res3a"
}
layer {
  name: "res3b_branch2a"
  type: "Convolution"
  bottom: "res3a"
  top: "res3b_branch2a"
  param {
    lr_mult: 1
  }
  convolution_param {
    num_output: 128
    bias_term: false
    pad: 0
    kernel_size: 1
    stride: 1
  }
}
layer {
  name: "bn3b_branch2a"
  type: "BatchNorm"
  bottom: "res3b_branch2a"
  top: "res3b_branch2a"
  param {
    lr_mult: 0
    decay_mult: 0
  }
  param {
    lr_mult: 0
    decay_mult: 0
  }
  param {
    lr_mult: 0
    decay_mult: 0
  }
  batch_norm_param {
    use_global_stats: true
  }
}
layer {
  name: "scale3b_branch2a"
  type: "Scale"
  bottom: "res3b_branch2a"
  top: "res3b_branch2a"
  param {
    lr_mult: 0
    decay_mult: 0
  }
  param {
    lr_mult: 0
    decay_mult: 0
  }
  scale_param {
    bias_term: true
  }
}
layer {
  name: "res3b_branch2a_relu"
  type: "ReLU"
  bottom: "res3b_branch2a"
  top: "res3b_branch2a"
}
layer {
  name: "res3b_branch2b"
  type: "Convolution"
  bottom: "res3b_branch2a"
  top: "res3b_branch2b"
  param {
    lr_mult: 1
  }
  convolution_param {
    num_output: 128
    bias_term: false
    pad: 1
    kernel_size: 3
    stride: 1
  }
}
layer {
  name: "bn3b_branch2b"
  type: "BatchNorm"
  bottom: "res3b_branch2b"
  top: "res3b_branch2b"
  param {
    lr_mult: 0
    decay_mult: 0
  }
  param {
    lr_mult: 0
    decay_mult: 0
  }
  param {
    lr_mult: 0
    decay_mult: 0
  }
  batch_norm_param {
    use_global_stats: true
  }
}
layer {
  name: "scale3b_branch2b"
  type: "Scale"
  bottom: "res3b_branch2b"
  top: "res3b_branch2b"
  param {
    lr_mult: 0
    decay_mult: 0
  }
  param {
    lr_mult: 0
    decay_mult: 0
  }
  scale_param {
    bias_term: true
  }
}
layer {
  name: "res3b_branch2b_relu"
  type: "ReLU"
  bottom: "res3b_branch2b"
  top: "res3b_branch2b"
}
layer {
  name: "res3b_branch2c"
  type: "Convolution"
  bottom: "res3b_branch2b"
  top: "res3b_branch2c"
  param {
    lr_mult: 1
  }
  convolution_param {
    num_output: 512
    bias_term: false
    pad: 0
    kernel_size: 1
    stride: 1
  }
}
layer {
  name: "bn3b_branch2c"
  type: "BatchNorm"
  bottom: "res3b_branch2c"
  top: "res3b_branch2c"
  param {
    lr_mult: 0
    decay_mult: 0
  }
  param {
    lr_mult: 0
    decay_mult: 0
  }
  param {
    lr_mult: 0
    decay_mult: 0
  }
  batch_norm_param {
    use_global_stats: true
  }
}
layer {
  name: "scale3b_branch2c"
  type: "Scale"
  bottom: "res3b_branch2c"
  top: "res3b_branch2c"
  param {
    lr_mult: 0
    decay_mult: 0
  }
  param {
    lr_mult: 0
    decay_mult: 0
  }
  scale_param {
    bias_term: true
  }
}
layer {
  name: "res3b"
  type: "Eltwise"
  bottom: "res3a"
  bottom: "res3b_branch2c"
  top: "res3b"
}
layer {
  name: "res3b_relu"
  type: "ReLU"
  bottom: "res3b"
  top: "res3b"
}
layer {
  name: "res3c_branch2a"
  type: "Convolution"
  bottom: "res3b"
  top: "res3c_branch2a"
  param {
    lr_mult: 1
  }
  convolution_param {
    num_output: 128
    bias_term: false
    pad: 0
    kernel_size: 1
    stride: 1
  }
}
layer {
  name: "bn3c_branch2a"
  type: "BatchNorm"
  bottom: "res3c_branch2a"
  top: "res3c_branch2a"
  param {
    lr_mult: 0
    decay_mult: 0
  }
  param {
    lr_mult: 0
    decay_mult: 0
  }
  param {
    lr_mult: 0
    decay_mult: 0
  }
  batch_norm_param {
    use_global_stats: true
  }
}
layer {
  name: "scale3c_branch2a"
  type: "Scale"
  bottom: "res3c_branch2a"
  top: "res3c_branch2a"
  param {
    lr_mult: 0
    decay_mult: 0
  }
  param {
    lr_mult: 0
    decay_mult: 0
  }
  scale_param {
    bias_term: true
  }
}
layer {
  name: "res3c_branch2a_relu"
  type: "ReLU"
  bottom: "res3c_branch2a"
  top: "res3c_branch2a"
}
layer {
  name: "res3c_branch2b"
  type: "Convolution"
  bottom: "res3c_branch2a"
  top: "res3c_branch2b"
  param {
    lr_mult: 1
  }
  convolution_param {
    num_output: 128
    bias_term: false
    pad: 1
    kernel_size: 3
    stride: 1
  }
}
layer {
  name: "bn3c_branch2b"
  type: "BatchNorm"
  bottom: "res3c_branch2b"
  top: "res3c_branch2b"
  param {
    lr_mult: 0
    decay_mult: 0
  }
  param {
    lr_mult: 0
    decay_mult: 0
  }
  param {
    lr_mult: 0
    decay_mult: 0
  }
  batch_norm_param {
    use_global_stats: true
  }
}
layer {
  name: "scale3c_branch2b"
  type: "Scale"
  bottom: "res3c_branch2b"
  top: "res3c_branch2b"
  param {
    lr_mult: 0
    decay_mult: 0
  }
  param {
    lr_mult: 0
    decay_mult: 0
  }
  scale_param {
    bias_term: true
  }
}
layer {
  name: "res3c_branch2b_relu"
  type: "ReLU"
  bottom: "res3c_branch2b"
  top: "res3c_branch2b"
}
layer {
  name: "res3c_branch2c"
  type: "Convolution"
  bottom: "res3c_branch2b"
  top: "res3c_branch2c"
  param {
    lr_mult: 1
  }
  convolution_param {
    num_output: 512
    bias_term: false
    pad: 0
    kernel_size: 1
    stride: 1
  }
}
layer {
  name: "bn3c_branch2c"
  type: "BatchNorm"
  bottom: "res3c_branch2c"
  top: "res3c_branch2c"
  param {
    lr_mult: 0
    decay_mult: 0
  }
  param {
    lr_mult: 0
    decay_mult: 0
  }
  param {
    lr_mult: 0
    decay_mult: 0
  }
  batch_norm_param {
    use_global_stats: true
  }
}
layer {
  name: "scale3c_branch2c"
  type: "Scale"
  bottom: "res3c_branch2c"
  top: "res3c_branch2c"
  param {
    lr_mult: 0
    decay_mult: 0
  }
  param {
    lr_mult: 0
    decay_mult: 0
  }
  scale_param {
    bias_term: true
  }
}
layer {
  name: "res3c"
  type: "Eltwise"
  bottom: "res3b"
  bottom: "res3c_branch2c"
  top: "res3c"
}
layer {
  name: "res3c_relu"
  type: "ReLU"
  bottom: "res3c"
  top: "res3c"
}
layer {
  name: "res3d_branch2a"
  type: "Convolution"
  bottom: "res3c"
  top: "res3d_branch2a"
  param {
    lr_mult: 1
  }
  convolution_param {
    num_output: 128
    bias_term: false
    pad: 0
    kernel_size: 1
    stride: 1
  }
}
layer {
  name: "bn3d_branch2a"
  type: "BatchNorm"
  bottom: "res3d_branch2a"
  top: "res3d_branch2a"
  param {
    lr_mult: 0
    decay_mult: 0
  }
  param {
    lr_mult: 0
    decay_mult: 0
  }
  param {
    lr_mult: 0
    decay_mult: 0
  }
  batch_norm_param {
    use_global_stats: true
  }
}
layer {
  name: "scale3d_branch2a"
  type: "Scale"
  bottom: "res3d_branch2a"
  top: "res3d_branch2a"
  param {
    lr_mult: 0
    decay_mult: 0
  }
  param {
    lr_mult: 0
    decay_mult: 0
  }
  scale_param {
    bias_term: true
  }
}
layer {
  name: "res3d_branch2a_relu"
  type: "ReLU"
  bottom: "res3d_branch2a"
  top: "res3d_branch2a"
}
layer {
  name: "res3d_branch2b"
  type: "Convolution"
  bottom: "res3d_branch2a"
  top: "res3d_branch2b"
  param {
    lr_mult: 1
  }
  convolution_param {
    num_output: 128
    bias_term: false
    pad: 1
    kernel_size: 3
    stride: 1
  }
}
layer {
  name: "bn3d_branch2b"
  type: "BatchNorm"
  bottom: "res3d_branch2b"
  top: "res3d_branch2b"
  param {
    lr_mult: 0
    decay_mult: 0
  }
  param {
    lr_mult: 0
    decay_mult: 0
  }
  param {
    lr_mult: 0
    decay_mult: 0
  }
  batch_norm_param {
    use_global_stats: true
  }
}
layer {
  name: "scale3d_branch2b"
  type: "Scale"
  bottom: "res3d_branch2b"
  top: "res3d_branch2b"
  param {
    lr_mult: 0
    decay_mult: 0
  }
  param {
    lr_mult: 0
    decay_mult: 0
  }
  scale_param {
    bias_term: true
  }
}
layer {
  name: "res3d_branch2b_relu"
  type: "ReLU"
  bottom: "res3d_branch2b"
  top: "res3d_branch2b"
}
layer {
  name: "res3d_branch2c"
  type: "Convolution"
  bottom: "res3d_branch2b"
  top: "res3d_branch2c"
  param {
    lr_mult: 1
  }
  convolution_param {
    num_output: 512
    bias_term: false
    pad: 0
    kernel_size: 1
    stride: 1
  }
}
layer {
  name: "bn3d_branch2c"
  type: "BatchNorm"
  bottom: "res3d_branch2c"
  top: "res3d_branch2c"
  param {
    lr_mult: 0
    decay_mult: 0
  }
  param {
    lr_mult: 0
    decay_mult: 0
  }
  param {
    lr_mult: 0
    decay_mult: 0
  }
  batch_norm_param {
    use_global_stats: true
  }
}
layer {
  name: "scale3d_branch2c"
  type: "Scale"
  bottom: "res3d_branch2c"
  top: "res3d_branch2c"
  param {
    lr_mult: 0
    decay_mult: 0
  }
  param {
    lr_mult: 0
    decay_mult: 0
  }
  scale_param {
    bias_term: true
  }
}
layer {
  name: "res3d"
  type: "Eltwise"
  bottom: "res3c"
  bottom: "res3d_branch2c"
  top: "res3d"
}
layer {
  name: "res3d_relu"
  type: "ReLU"
  bottom: "res3d"
  top: "res3d"
}
layer {
  name: "res4a_branch1"
  type: "Convolution"
  bottom: "res3d"
  top: "res4a_branch1"
  param {
    lr_mult: 1
  }
  convolution_param {
    num_output: 1024
    bias_term: false
    pad: 0
    kernel_size: 1
    stride: 2
  }
}
layer {
  name: "bn4a_branch1"
  type: "BatchNorm"
  bottom: "res4a_branch1"
  top: "res4a_branch1"
  param {
    lr_mult: 0
    decay_mult: 0
  }
  param {
    lr_mult: 0
    decay_mult: 0
  }
  param {
    lr_mult: 0
    decay_mult: 0
  }
  batch_norm_param {
    use_global_stats: true
  }
}
layer {
  name: "scale4a_branch1"
  type: "Scale"
  bottom: "res4a_branch1"
  top: "res4a_branch1"
  param {
    lr_mult: 0
    decay_mult: 0
  }
  param {
    lr_mult: 0
    decay_mult: 0
  }
  scale_param {
    bias_term: true
  }
}
layer {
  name: "res4a_branch2a"
  type: "Convolution"
  bottom: "res3d"
  top: "res4a_branch2a"
  param {
    lr_mult: 1
  }
  convolution_param {
    num_output: 256
    bias_term: false
    pad: 0
    kernel_size: 1
    stride: 2
  }
}
layer {
  name: "bn4a_branch2a"
  type: "BatchNorm"
  bottom: "res4a_branch2a"
  top: "res4a_branch2a"
  param {
    lr_mult: 0
    decay_mult: 0
  }
  param {
    lr_mult: 0
    decay_mult: 0
  }
  param {
    lr_mult: 0
    decay_mult: 0
  }
  batch_norm_param {
    use_global_stats: true
  }
}
layer {
  name: "scale4a_branch2a"
  type: "Scale"
  bottom: "res4a_branch2a"
  top: "res4a_branch2a"
  param {
    lr_mult: 0
    decay_mult: 0
  }
  param {
    lr_mult: 0
    decay_mult: 0
  }
  scale_param {
    bias_term: true
  }
}
layer {
  name: "res4a_branch2a_relu"
  type: "ReLU"
  bottom: "res4a_branch2a"
  top: "res4a_branch2a"
}
layer {
  name: "res4a_branch2b"
  type: "Convolution"
  bottom: "res4a_branch2a"
  top: "res4a_branch2b"
  param {
    lr_mult: 1
  }
  convolution_param {
    num_output: 256
    bias_term: false
    pad: 1
    kernel_size: 3
    stride: 1
  }
}
layer {
  name: "bn4a_branch2b"
  type: "BatchNorm"
  bottom: "res4a_branch2b"
  top: "res4a_branch2b"
  param {
    lr_mult: 0
    decay_mult: 0
  }
  param {
    lr_mult: 0
    decay_mult: 0
  }
  param {
    lr_mult: 0
    decay_mult: 0
  }
  batch_norm_param {
    use_global_stats: true
  }
}
layer {
  name: "scale4a_branch2b"
  type: "Scale"
  bottom: "res4a_branch2b"
  top: "res4a_branch2b"
  param {
    lr_mult: 0
    decay_mult: 0
  }
  param {
    lr_mult: 0
    decay_mult: 0
  }
  scale_param {
    bias_term: true
  }
}
layer {
  name: "res4a_branch2b_relu"
  type: "ReLU"
  bottom: "res4a_branch2b"
  top: "res4a_branch2b"
}
layer {
  name: "res4a_branch2c"
  type: "Convolution"
  bottom: "res4a_branch2b"
  top: "res4a_branch2c"
  param {
    lr_mult: 1
  }
  convolution_param {
    num_output: 1024
    bias_term: false
    pad: 0
    kernel_size: 1
    stride: 1
  }
}
layer {
  name: "bn4a_branch2c"
  type: "BatchNorm"
  bottom: "res4a_branch2c"
  top: "res4a_branch2c"
  param {
    lr_mult: 0
    decay_mult: 0
  }
  param {
    lr_mult: 0
    decay_mult: 0
  }
  param {
    lr_mult: 0
    decay_mult: 0
  }
  batch_norm_param {
    use_global_stats: true
  }
}
layer {
  name: "scale4a_branch2c"
  type: "Scale"
  bottom: "res4a_branch2c"
  top: "res4a_branch2c"
  param {
    lr_mult: 0
    decay_mult: 0
  }
  param {
    lr_mult: 0
    decay_mult: 0
  }
  scale_param {
    bias_term: true
  }
}
layer {
  name: "res4a"
  type: "Eltwise"
  bottom: "res4a_branch1"
  bottom: "res4a_branch2c"
  top: "res4a"
}
layer {
  name: "res4a_relu"
  type: "ReLU"
  bottom: "res4a"
  top: "res4a"
}
layer {
  name: "res4b_branch2a"
  type: "Convolution"
  bottom: "res4a"
  top: "res4b_branch2a"
  param {
    lr_mult: 1
  }
  convolution_param {
    num_output: 256
    bias_term: false
    pad: 0
    kernel_size: 1
    stride: 1
  }
}
layer {
  name: "bn4b_branch2a"
  type: "BatchNorm"
  bottom: "res4b_branch2a"
  top: "res4b_branch2a"
  param {
    lr_mult: 0
    decay_mult: 0
  }
  param {
    lr_mult: 0
    decay_mult: 0
  }
  param {
    lr_mult: 0
    decay_mult: 0
  }
  batch_norm_param {
    use_global_stats: true
  }
}
layer {
  name: "scale4b_branch2a"
  type: "Scale"
  bottom: "res4b_branch2a"
  top: "res4b_branch2a"
  param {
    lr_mult: 0
    decay_mult: 0
  }
  param {
    lr_mult: 0
    decay_mult: 0
  }
  scale_param {
    bias_term: true
  }
}
layer {
  name: "res4b_branch2a_relu"
  type: "ReLU"
  bottom: "res4b_branch2a"
  top: "res4b_branch2a"
}
layer {
  name: "res4b_branch2b"
  type: "Convolution"
  bottom: "res4b_branch2a"
  top: "res4b_branch2b"
  param {
    lr_mult: 1
  }
  convolution_param {
    num_output: 256
    bias_term: false
    pad: 1
    kernel_size: 3
    stride: 1
  }
}
layer {
  name: "bn4b_branch2b"
  type: "BatchNorm"
  bottom: "res4b_branch2b"
  top: "res4b_branch2b"
  param {
    lr_mult: 0
    decay_mult: 0
  }
  param {
    lr_mult: 0
    decay_mult: 0
  }
  param {
    lr_mult: 0
    decay_mult: 0
  }
  batch_norm_param {
    use_global_stats: true
  }
}
layer {
  name: "scale4b_branch2b"
  type: "Scale"
  bottom: "res4b_branch2b"
  top: "res4b_branch2b"
  param {
    lr_mult: 0
    decay_mult: 0
  }
  param {
    lr_mult: 0
    decay_mult: 0
  }
  scale_param {
    bias_term: true
  }
}
layer {
  name: "res4b_branch2b_relu"
  type: "ReLU"
  bottom: "res4b_branch2b"
  top: "res4b_branch2b"
}
layer {
  name: "res4b_branch2c"
  type: "Convolution"
  bottom: "res4b_branch2b"
  top: "res4b_branch2c"
  param {
    lr_mult: 1
  }
  convolution_param {
    num_output: 1024
    bias_term: false
    pad: 0
    kernel_size: 1
    stride: 1
  }
}
layer {
  name: "bn4b_branch2c"
  type: "BatchNorm"
  bottom: "res4b_branch2c"
  top: "res4b_branch2c"
  param {
    lr_mult: 0
    decay_mult: 0
  }
  param {
    lr_mult: 0
    decay_mult: 0
  }
  param {
    lr_mult: 0
    decay_mult: 0
  }
  batch_norm_param {
    use_global_stats: true
  }
}
layer {
  name: "scale4b_branch2c"
  type: "Scale"
  bottom: "res4b_branch2c"
  top: "res4b_branch2c"
  param {
    lr_mult: 0
    decay_mult: 0
  }
  param {
    lr_mult: 0
    decay_mult: 0
  }
  scale_param {
    bias_term: true
  }
}
layer {
  name: "res4b"
  type: "Eltwise"
  bottom: "res4a"
  bottom: "res4b_branch2c"
  top: "res4b"
}
layer {
  name: "res4b_relu"
  type: "ReLU"
  bottom: "res4b"
  top: "res4b"
}
layer {
  name: "res4c_branch2a"
  type: "Convolution"
  bottom: "res4b"
  top: "res4c_branch2a"
  param {
    lr_mult: 1
  }
  convolution_param {
    num_output: 256
    bias_term: false
    pad: 0
    kernel_size: 1
    stride: 1
  }
}
layer {
  name: "bn4c_branch2a"
  type: "BatchNorm"
  bottom: "res4c_branch2a"
  top: "res4c_branch2a"
  param {
    lr_mult: 0
    decay_mult: 0
  }
  param {
    lr_mult: 0
    decay_mult: 0
  }
  param {
    lr_mult: 0
    decay_mult: 0
  }
  batch_norm_param {
    use_global_stats: true
  }
}
layer {
  name: "scale4c_branch2a"
  type: "Scale"
  bottom: "res4c_branch2a"
  top: "res4c_branch2a"
  param {
    lr_mult: 0
    decay_mult: 0
  }
  param {
    lr_mult: 0
    decay_mult: 0
  }
  scale_param {
    bias_term: true
  }
}
layer {
  name: "res4c_branch2a_relu"
  type: "ReLU"
  bottom: "res4c_branch2a"
  top: "res4c_branch2a"
}
layer {
  name: "res4c_branch2b"
  type: "Convolution"
  bottom: "res4c_branch2a"
  top: "res4c_branch2b"
  param {
    lr_mult: 1
  }
  convolution_param {
    num_output: 256
    bias_term: false
    pad: 1
    kernel_size: 3
    stride: 1
  }
}
layer {
  name: "bn4c_branch2b"
  type: "BatchNorm"
  bottom: "res4c_branch2b"
  top: "res4c_branch2b"
  param {
    lr_mult: 0
    decay_mult: 0
  }
  param {
    lr_mult: 0
    decay_mult: 0
  }
  param {
    lr_mult: 0
    decay_mult: 0
  }
  batch_norm_param {
    use_global_stats: true
  }
}
layer {
  name: "scale4c_branch2b"
  type: "Scale"
  bottom: "res4c_branch2b"
  top: "res4c_branch2b"
  param {
    lr_mult: 0
    decay_mult: 0
  }
  param {
    lr_mult: 0
    decay_mult: 0
  }
  scale_param {
    bias_term: true
  }
}
layer {
  name: "res4c_branch2b_relu"
  type: "ReLU"
  bottom: "res4c_branch2b"
  top: "res4c_
I0613 21:30:20.044819 15760 layer_factory.hpp:77] Creating layer input-data
I0613 21:30:20.054332 15760 net.cpp:100] Creating Layer input-data
I0613 21:30:20.054353 15760 net.cpp:418] input-data -> data
I0613 21:30:20.054394 15760 net.cpp:418] input-data -> im_info
I0613 21:30:20.054409 15760 net.cpp:418] input-data -> gt_boxes
RoiDataLayer: name_to_top: {'gt_boxes': 2, 'data': 0, 'im_info': 1}
I0613 21:30:20.074715 15760 net.cpp:150] Setting up input-data
I0613 21:30:20.074741 15760 net.cpp:157] Top shape: 1 3 960 1280 (3686400)
I0613 21:30:20.074746 15760 net.cpp:157] Top shape: 1 3 (3)
I0613 21:30:20.074749 15760 net.cpp:157] Top shape: 1 4 (4)
I0613 21:30:20.074751 15760 net.cpp:165] Memory required for data: 14745628
I0613 21:30:20.074766 15760 layer_factory.hpp:77] Creating layer data_input-data_0_split
I0613 21:30:20.074796 15760 net.cpp:100] Creating Layer data_input-data_0_split
I0613 21:30:20.074807 15760 net.cpp:444] data_input-data_0_split <- data
I0613 21:30:20.074823 15760 net.cpp:418] data_input-data_0_split -> data_input-data_0_split_0
I0613 21:30:20.074843 15760 net.cpp:418] data_input-data_0_split -> data_input-data_0_split_1
I0613 21:30:20.074895 15760 net.cpp:150] Setting up data_input-data_0_split
I0613 21:30:20.074903 15760 net.cpp:157] Top shape: 1 3 960 1280 (3686400)
I0613 21:30:20.074908 15760 net.cpp:157] Top shape: 1 3 960 1280 (3686400)
I0613 21:30:20.074909 15760 net.cpp:165] Memory required for data: 44236828
I0613 21:30:20.074913 15760 layer_factory.hpp:77] Creating layer im_info_input-data_1_split
I0613 21:30:20.074923 15760 net.cpp:100] Creating Layer im_info_input-data_1_split
I0613 21:30:20.074928 15760 net.cpp:444] im_info_input-data_1_split <- im_info
I0613 21:30:20.074937 15760 net.cpp:418] im_info_input-data_1_split -> im_info_input-data_1_split_0
I0613 21:30:20.074950 15760 net.cpp:418] im_info_input-data_1_split -> im_info_input-data_1_split_1
I0613 21:30:20.074988 15760 net.cpp:150] Setting up im_info_input-data_1_split
I0613 21:30:20.074995 15760 net.cpp:157] Top shape: 1 3 (3)
I0613 21:30:20.075000 15760 net.cpp:157] Top shape: 1 3 (3)
I0613 21:30:20.075001 15760 net.cpp:165] Memory required for data: 44236852
I0613 21:30:20.075004 15760 layer_factory.hpp:77] Creating layer gt_boxes_input-data_2_split
I0613 21:30:20.075012 15760 net.cpp:100] Creating Layer gt_boxes_input-data_2_split
I0613 21:30:20.075016 15760 net.cpp:444] gt_boxes_input-data_2_split <- gt_boxes
I0613 21:30:20.075027 15760 net.cpp:418] gt_boxes_input-data_2_split -> gt_boxes_input-data_2_split_0
I0613 21:30:20.075038 15760 net.cpp:418] gt_boxes_input-data_2_split -> gt_boxes_input-data_2_split_1
I0613 21:30:20.075079 15760 net.cpp:150] Setting up gt_boxes_input-data_2_split
I0613 21:30:20.075086 15760 net.cpp:157] Top shape: 1 4 (4)
I0613 21:30:20.075090 15760 net.cpp:157] Top shape: 1 4 (4)
I0613 21:30:20.075093 15760 net.cpp:165] Memory required for data: 44236884
I0613 21:30:20.075096 15760 layer_factory.hpp:77] Creating layer conv1
I0613 21:30:20.075116 15760 net.cpp:100] Creating Layer conv1
I0613 21:30:20.075122 15760 net.cpp:444] conv1 <- data_input-data_0_split_0
I0613 21:30:20.075135 15760 net.cpp:418] conv1 -> conv1
I0613 21:30:20.383437 15760 cudnn_conv_layer.cpp:194] Reallocating workspace storage: 5529624
I0613 21:30:20.383697 15760 net.cpp:150] Setting up conv1
I0613 21:30:20.383715 15760 net.cpp:157] Top shape: 1 64 480 640 (19660800)
I0613 21:30:20.383719 15760 net.cpp:165] Memory required for data: 122880084
I0613 21:30:20.383771 15760 layer_factory.hpp:77] Creating layer bn_conv1
I0613 21:30:20.383800 15760 net.cpp:100] Creating Layer bn_conv1
I0613 21:30:20.383808 15760 net.cpp:444] bn_conv1 <- conv1
I0613 21:30:20.383822 15760 net.cpp:405] bn_conv1 -> conv1 (in-place)
I0613 21:30:20.385169 15760 net.cpp:150] Setting up bn_conv1
I0613 21:30:20.385180 15760 net.cpp:157] Top shape: 1 64 480 640 (19660800)
I0613 21:30:20.385184 15760 net.cpp:165] Memory required for data: 201523284
I0613 21:30:20.385216 15760 layer_factory.hpp:77] Creating layer scale_conv1
I0613 21:30:20.385236 15760 net.cpp:100] Creating Layer scale_conv1
I0613 21:30:20.385241 15760 net.cpp:444] scale_conv1 <- conv1
I0613 21:30:20.385252 15760 net.cpp:405] scale_conv1 -> conv1 (in-place)
I0613 21:30:20.385313 15760 layer_factory.hpp:77] Creating layer scale_conv1
I0613 21:30:20.388972 15760 net.cpp:150] Setting up scale_conv1
I0613 21:30:20.388994 15760 net.cpp:157] Top shape: 1 64 480 640 (19660800)
I0613 21:30:20.388998 15760 net.cpp:165] Memory required for data: 280166484
I0613 21:30:20.389026 15760 layer_factory.hpp:77] Creating layer conv1_relu
I0613 21:30:20.389057 15760 net.cpp:100] Creating Layer conv1_relu
I0613 21:30:20.389067 15760 net.cpp:444] conv1_relu <- conv1
I0613 21:30:20.389094 15760 net.cpp:405] conv1_relu -> conv1 (in-place)
I0613 21:30:20.389297 15760 net.cpp:150] Setting up conv1_relu
I0613 21:30:20.389305 15760 net.cpp:157] Top shape: 1 64 480 640 (19660800)
I0613 21:30:20.389307 15760 net.cpp:165] Memory required for data: 358809684
I0613 21:30:20.389312 15760 layer_factory.hpp:77] Creating layer pool1
I0613 21:30:20.389335 15760 net.cpp:100] Creating Layer pool1
I0613 21:30:20.389341 15760 net.cpp:444] pool1 <- conv1
I0613 21:30:20.389355 15760 net.cpp:418] pool1 -> pool1
I0613 21:30:20.389430 15760 net.cpp:150] Setting up pool1
I0613 21:30:20.389441 15760 net.cpp:157] Top shape: 1 64 240 320 (4915200)
I0613 21:30:20.389443 15760 net.cpp:165] Memory required for data: 378470484
I0613 21:30:20.389447 15760 layer_factory.hpp:77] Creating layer pool1_pool1_0_split
I0613 21:30:20.389456 15760 net.cpp:100] Creating Layer pool1_pool1_0_split
I0613 21:30:20.389461 15760 net.cpp:444] pool1_pool1_0_split <- pool1
I0613 21:30:20.389469 15760 net.cpp:418] pool1_pool1_0_split -> pool1_pool1_0_split_0
I0613 21:30:20.389482 15760 net.cpp:418] pool1_pool1_0_split -> pool1_pool1_0_split_1
I0613 21:30:20.389530 15760 net.cpp:150] Setting up pool1_pool1_0_split
I0613 21:30:20.389538 15760 net.cpp:157] Top shape: 1 64 240 320 (4915200)
I0613 21:30:20.389540 15760 net.cpp:157] Top shape: 1 64 240 320 (4915200)
I0613 21:30:20.389542 15760 net.cpp:165] Memory required for data: 417792084
I0613 21:30:20.389546 15760 layer_factory.hpp:77] Creating layer res2a_branch1
I0613 21:30:20.389562 15760 net.cpp:100] Creating Layer res2a_branch1
I0613 21:30:20.389567 15760 net.cpp:444] res2a_branch1 <- pool1_pool1_0_split_0
I0613 21:30:20.389580 15760 net.cpp:418] res2a_branch1 -> res2a_branch1
I0613 21:30:20.390604 15760 cudnn_conv_layer.cpp:194] Reallocating workspace storage: 1388952
I0613 21:30:20.390902 15760 net.cpp:150] Setting up res2a_branch1
I0613 21:30:20.390914 15760 net.cpp:157] Top shape: 1 256 240 320 (19660800)
I0613 21:30:20.390916 15760 net.cpp:165] Memory required for data: 496435284
I0613 21:30:20.390930 15760 layer_factory.hpp:77] Creating layer bn2a_branch1
I0613 21:30:20.390946 15760 net.cpp:100] Creating Layer bn2a_branch1
I0613 21:30:20.390952 15760 net.cpp:444] bn2a_branch1 <- res2a_branch1
I0613 21:30:20.390964 15760 net.cpp:405] bn2a_branch1 -> res2a_branch1 (in-place)
I0613 21:30:20.391305 15760 net.cpp:150] Setting up bn2a_branch1
I0613 21:30:20.391312 15760 net.cpp:157] Top shape: 1 256 240 320 (19660800)
I0613 21:30:20.391314 15760 net.cpp:165] Memory required for data: 575078484
I0613 21:30:20.391341 15760 layer_factory.hpp:77] Creating layer scale2a_branch1
I0613 21:30:20.391356 15760 net.cpp:100] Creating Layer scale2a_branch1
I0613 21:30:20.391362 15760 net.cpp:444] scale2a_branch1 <- res2a_branch1
I0613 21:30:20.391373 15760 net.cpp:405] scale2a_branch1 -> res2a_branch1 (in-place)
I0613 21:30:20.391433 15760 layer_factory.hpp:77] Creating layer scale2a_branch1
I0613 21:30:20.391793 15760 net.cpp:150] Setting up scale2a_branch1
I0613 21:30:20.391799 15760 net.cpp:157] Top shape: 1 256 240 320 (19660800)
I0613 21:30:20.391803 15760 net.cpp:165] Memory required for data: 653721684
I0613 21:30:20.391811 15760 layer_factory.hpp:77] Creating layer res2a_branch2a
I0613 21:30:20.391826 15760 net.cpp:100] Creating Layer res2a_branch2a
I0613 21:30:20.391832 15760 net.cpp:444] res2a_branch2a <- pool1_pool1_0_split_1
I0613 21:30:20.391846 15760 net.cpp:418] res2a_branch2a -> res2a_branch2a
I0613 21:30:20.393532 15760 cudnn_conv_layer.cpp:194] Reallocating workspace storage: 1388952
I0613 21:30:20.393790 15760 net.cpp:150] Setting up res2a_branch2a
I0613 21:30:20.393805 15760 net.cpp:157] Top shape: 1 64 240 320 (4915200)
I0613 21:30:20.393807 15760 net.cpp:165] Memory required for data: 673382484
I0613 21:30:20.393821 15760 layer_factory.hpp:77] Creating layer bn2a_branch2a
I0613 21:30:20.393838 15760 net.cpp:100] Creating Layer bn2a_branch2a
I0613 21:30:20.393844 15760 net.cpp:444] bn2a_branch2a <- res2a_branch2a
I0613 21:30:20.393857 15760 net.cpp:405] bn2a_branch2a -> res2a_branch2a (in-place)
I0613 21:30:20.394207 15760 net.cpp:150] Setting up bn2a_branch2a
I0613 21:30:20.394214 15760 net.cpp:157] Top shape: 1 64 240 320 (4915200)
I0613 21:30:20.394217 15760 net.cpp:165] Memory required for data: 693043284
I0613 21:30:20.394243 15760 layer_factory.hpp:77] Creating layer scale2a_branch2a
I0613 21:30:20.394259 15760 net.cpp:100] Creating Layer scale2a_branch2a
I0613 21:30:20.394265 15760 net.cpp:444] scale2a_branch2a <- res2a_branch2a
I0613 21:30:20.394275 15760 net.cpp:405] scale2a_branch2a -> res2a_branch2a (in-place)
I0613 21:30:20.394335 15760 layer_factory.hpp:77] Creating layer scale2a_branch2a
I0613 21:30:20.394703 15760 net.cpp:150] Setting up scale2a_branch2a
I0613 21:30:20.394711 15760 net.cpp:157] Top shape: 1 64 240 320 (4915200)
I0613 21:30:20.394714 15760 net.cpp:165] Memory required for data: 712704084
I0613 21:30:20.394723 15760 layer_factory.hpp:77] Creating layer res2a_branch2a_relu
I0613 21:30:20.394740 15760 net.cpp:100] Creating Layer res2a_branch2a_relu
I0613 21:30:20.394745 15760 net.cpp:444] res2a_branch2a_relu <- res2a_branch2a
I0613 21:30:20.394758 15760 net.cpp:405] res2a_branch2a_relu -> res2a_branch2a (in-place)
I0613 21:30:20.394914 15760 net.cpp:150] Setting up res2a_branch2a_relu
I0613 21:30:20.394922 15760 net.cpp:157] Top shape: 1 64 240 320 (4915200)
I0613 21:30:20.394924 15760 net.cpp:165] Memory required for data: 732364884
I0613 21:30:20.394928 15760 layer_factory.hpp:77] Creating layer res2a_branch2b
I0613 21:30:20.394944 15760 net.cpp:100] Creating Layer res2a_branch2b
I0613 21:30:20.394949 15760 net.cpp:444] res2a_branch2b <- res2a_branch2a
I0613 21:30:20.394963 15760 net.cpp:418] res2a_branch2b -> res2a_branch2b
I0613 21:30:20.396733 15760 cudnn_conv_layer.cpp:194] Reallocating workspace storage: 786432
I0613 21:30:20.397071 15760 net.cpp:150] Setting up res2a_branch2b
I0613 21:30:20.397089 15760 net.cpp:157] Top shape: 1 64 240 320 (4915200)
I0613 21:30:20.397092 15760 net.cpp:165] Memory required for data: 752025684
I0613 21:30:20.397111 15760 layer_factory.hpp:77] Creating layer bn2a_branch2b
I0613 21:30:20.397135 15760 net.cpp:100] Creating Layer bn2a_branch2b
I0613 21:30:20.397145 15760 net.cpp:444] bn2a_branch2b <- res2a_branch2b
I0613 21:30:20.397161 15760 net.cpp:405] bn2a_branch2b -> res2a_branch2b (in-place)
I0613 21:30:20.397527 15760 net.cpp:150] Setting up bn2a_branch2b
I0613 21:30:20.397534 15760 net.cpp:157] Top shape: 1 64 240 320 (4915200)
I0613 21:30:20.397536 15760 net.cpp:165] Memory required for data: 771686484
I0613 21:30:20.397552 15760 layer_factory.hpp:77] Creating layer scale2a_branch2b
I0613 21:30:20.397567 15760 net.cpp:100] Creating Layer scale2a_branch2b
I0613 21:30:20.397573 15760 net.cpp:444] scale2a_branch2b <- res2a_branch2b
I0613 21:30:20.397585 15760 net.cpp:405] scale2a_branch2b -> res2a_branch2b (in-place)
I0613 21:30:20.397646 15760 layer_factory.hpp:77] Creating layer scale2a_branch2b
I0613 21:30:20.398811 15760 net.cpp:150] Setting up scale2a_branch2b
I0613 21:30:20.398823 15760 net.cpp:157] Top shape: 1 64 240 320 (4915200)
I0613 21:30:20.398825 15760 net.cpp:165] Memory required for data: 791347284
I0613 21:30:20.398839 15760 layer_factory.hpp:77] Creating layer res2a_branch2b_relu
I0613 21:30:20.398854 15760 net.cpp:100] Creating Layer res2a_branch2b_relu
I0613 21:30:20.398859 15760 net.cpp:444] res2a_branch2b_relu <- res2a_branch2b
I0613 21:30:20.398870 15760 net.cpp:405] res2a_branch2b_relu -> res2a_branch2b (in-place)
I0613 21:30:20.399329 15760 net.cpp:150] Setting up res2a_branch2b_relu
I0613 21:30:20.399338 15760 net.cpp:157] Top shape: 1 64 240 320 (4915200)
I0613 21:30:20.399340 15760 net.cpp:165] Memory required for data: 811008084
I0613 21:30:20.399345 15760 layer_factory.hpp:77] Creating layer res2a_branch2c
I0613 21:30:20.399365 15760 net.cpp:100] Creating Layer res2a_branch2c
I0613 21:30:20.399371 15760 net.cpp:444] res2a_branch2c <- res2a_branch2b
I0613 21:30:20.399386 15760 net.cpp:418] res2a_branch2c -> res2a_branch2c
I0613 21:30:20.400370 15760 cudnn_conv_layer.cpp:194] Reallocating workspace storage: 1388952
I0613 21:30:20.400692 15760 net.cpp:150] Setting up res2a_branch2c
I0613 21:30:20.400708 15760 net.cpp:157] Top shape: 1 256 240 320 (19660800)
I0613 21:30:20.400712 15760 net.cpp:165] Memory required for data: 889651284
I0613 21:30:20.400724 15760 layer_factory.hpp:77] Creating layer bn2a_branch2c
I0613 21:30:20.400740 15760 net.cpp:100] Creating Layer bn2a_branch2c
I0613 21:30:20.400746 15760 net.cpp:444] bn2a_branch2c <- res2a_branch2c
I0613 21:30:20.400759 15760 net.cpp:405] bn2a_branch2c -> res2a_branch2c (in-place)
I0613 21:30:20.401136 15760 net.cpp:150] Setting up bn2a_branch2c
I0613 21:30:20.401144 15760 net.cpp:157] Top shape: 1 256 240 320 (19660800)
I0613 21:30:20.401145 15760 net.cpp:165] Memory required for data: 968294484
I0613 21:30:20.401161 15760 layer_factory.hpp:77] Creating layer scale2a_branch2c
I0613 21:30:20.401176 15760 net.cpp:100] Creating Layer scale2a_branch2c
I0613 21:30:20.401182 15760 net.cpp:444] scale2a_branch2c <- res2a_branch2c
I0613 21:30:20.401193 15760 net.cpp:405] scale2a_branch2c -> res2a_branch2c (in-place)
I0613 21:30:20.401253 15760 layer_factory.hpp:77] Creating layer scale2a_branch2c
I0613 21:30:20.401614 15760 net.cpp:150] Setting up scale2a_branch2c
I0613 21:30:20.401621 15760 net.cpp:157] Top shape: 1 256 240 320 (19660800)
I0613 21:30:20.401625 15760 net.cpp:165] Memory required for data: 1046937684
I0613 21:30:20.401634 15760 layer_factory.hpp:77] Creating layer res2a
I0613 21:30:20.401645 15760 net.cpp:100] Creating Layer res2a
I0613 21:30:20.401650 15760 net.cpp:444] res2a <- res2a_branch1
I0613 21:30:20.401659 15760 net.cpp:444] res2a <- res2a_branch2c
I0613 21:30:20.401667 15760 net.cpp:418] res2a -> res2a
I0613 21:30:20.401706 15760 net.cpp:150] Setting up res2a
I0613 21:30:20.401715 15760 net.cpp:157] Top shape: 1 256 240 320 (19660800)
I0613 21:30:20.401717 15760 net.cpp:165] Memory required for data: 1125580884
I0613 21:30:20.401721 15760 layer_factory.hpp:77] Creating layer res2a_relu
I0613 21:30:20.401728 15760 net.cpp:100] Creating Layer res2a_relu
I0613 21:30:20.401733 15760 net.cpp:444] res2a_relu <- res2a
I0613 21:30:20.401743 15760 net.cpp:405] res2a_relu -> res2a (in-place)
I0613 21:30:20.401896 15760 net.cpp:150] Setting up res2a_relu
I0613 21:30:20.401903 15760 net.cpp:157] Top shape: 1 256 240 320 (19660800)
I0613 21:30:20.401906 15760 net.cpp:165] Memory required for data: 1204224084
I0613 21:30:20.401909 15760 layer_factory.hpp:77] Creating layer res2a_res2a_relu_0_split
I0613 21:30:20.401918 15760 net.cpp:100] Creating Layer res2a_res2a_relu_0_split
I0613 21:30:20.401923 15760 net.cpp:444] res2a_res2a_relu_0_split <- res2a
I0613 21:30:20.401935 15760 net.cpp:418] res2a_res2a_relu_0_split -> res2a_res2a_relu_0_split_0
I0613 21:30:20.401948 15760 net.cpp:418] res2a_res2a_relu_0_split -> res2a_res2a_relu_0_split_1
I0613 21:30:20.402000 15760 net.cpp:150] Setting up res2a_res2a_relu_0_split
I0613 21:30:20.402009 15760 net.cpp:157] Top shape: 1 256 240 320 (19660800)
I0613 21:30:20.402012 15760 net.cpp:157] Top shape: 1 256 240 320 (19660800)
I0613 21:30:20.402014 15760 net.cpp:165] Memory required for data: 1361510484
I0613 21:30:20.402019 15760 layer_factory.hpp:77] Creating layer res2b_branch2a
I0613 21:30:20.402034 15760 net.cpp:100] Creating Layer res2b_branch2a
I0613 21:30:20.402038 15760 net.cpp:444] res2b_branch2a <- res2a_res2a_relu_0_split_0
I0613 21:30:20.402051 15760 net.cpp:418] res2b_branch2a -> res2b_branch2a
I0613 21:30:20.402999 15760 cudnn_conv_layer.cpp:194] Reallocating workspace storage: 1388952
I0613 21:30:20.403256 15760 net.cpp:150] Setting up res2b_branch2a
I0613 21:30:20.403266 15760 net.cpp:157] Top shape: 1 64 240 320 (4915200)
I0613 21:30:20.403270 15760 net.cpp:165] Memory required for data: 1381171284
I0613 21:30:20.403280 15760 layer_factory.hpp:77] Creating layer bn2b_branch2a
I0613 21:30:20.403293 15760 net.cpp:100] Creating Layer bn2b_branch2a
I0613 21:30:20.403300 15760 net.cpp:444] bn2b_branch2a <- res2b_branch2a
I0613 21:30:20.403311 15760 net.cpp:405] bn2b_branch2a -> res2b_branch2a (in-place)
I0613 21:30:20.403663 15760 net.cpp:150] Setting up bn2b_branch2a
I0613 21:30:20.403671 15760 net.cpp:157] Top shape: 1 64 240 320 (4915200)
I0613 21:30:20.403672 15760 net.cpp:165] Memory required for data: 1400832084
I0613 21:30:20.403700 15760 layer_factory.hpp:77] Creating layer scale2b_branch2a
I0613 21:30:20.403713 15760 net.cpp:100] Creating Layer scale2b_branch2a
I0613 21:30:20.403718 15760 net.cpp:444] scale2b_branch2a <- res2b_branch2a
I0613 21:30:20.403729 15760 net.cpp:405] scale2b_branch2a -> res2b_branch2a (in-place)
I0613 21:30:20.403790 15760 layer_factory.hpp:77] Creating layer scale2b_branch2a
I0613 21:30:20.404901 15760 net.cpp:150] Setting up scale2b_branch2a
I0613 21:30:20.404911 15760 net.cpp:157] Top shape: 1 64 240 320 (4915200)
I0613 21:30:20.404913 15760 net.cpp:165] Memory required for data: 1420492884
I0613 21:30:20.404928 15760 layer_factory.hpp:77] Creating layer res2b_branch2a_relu
I0613 21:30:20.404948 15760 net.cpp:100] Creating Layer res2b_branch2a_relu
I0613 21:30:20.404973 15760 net.cpp:444] res2b_branch2a_relu <- res2b_branch2a
I0613 21:30:20.404987 15760 net.cpp:405] res2b_branch2a_relu -> res2b_branch2a (in-place)
I0613 21:30:20.405165 15760 net.cpp:150] Setting up res2b_branch2a_relu
I0613 21:30:20.405172 15760 net.cpp:157] Top shape: 1 64 240 320 (4915200)
I0613 21:30:20.405174 15760 net.cpp:165] Memory required for data: 1440153684
I0613 21:30:20.405179 15760 layer_factory.hpp:77] Creating layer res2b_branch2b
I0613 21:30:20.405195 15760 net.cpp:100] Creating Layer res2b_branch2b
I0613 21:30:20.405200 15760 net.cpp:444] res2b_branch2b <- res2b_branch2a
I0613 21:30:20.405213 15760 net.cpp:418] res2b_branch2b -> res2b_branch2b
I0613 21:30:20.406222 15760 cudnn_conv_layer.cpp:194] Reallocating workspace storage: 786432
I0613 21:30:20.406239 15760 net.cpp:150] Setting up res2b_branch2b
I0613 21:30:20.406246 15760 net.cpp:157] Top shape: 1 64 240 320 (4915200)
I0613 21:30:20.406249 15760 net.cpp:165] Memory required for data: 1459814484
I0613 21:30:20.406257 15760 layer_factory.hpp:77] Creating layer bn2b_branch2b
I0613 21:30:20.406280 15760 net.cpp:100] Creating Layer bn2b_branch2b
I0613 21:30:20.406286 15760 net.cpp:444] bn2b_branch2b <- res2b_branch2b
I0613 21:30:20.406298 15760 net.cpp:405] bn2b_branch2b -> res2b_branch2b (in-place)
I0613 21:30:20.406651 15760 net.cpp:150] Setting up bn2b_branch2b
I0613 21:30:20.406657 15760 net.cpp:157] Top shape: 1 64 240 320 (4915200)
I0613 21:30:20.406659 15760 net.cpp:165] Memory required for data: 1479475284
I0613 21:30:20.406674 15760 layer_factory.hpp:77] Creating layer scale2b_branch2b
I0613 21:30:20.406687 15760 net.cpp:100] Creating Layer scale2b_branch2b
I0613 21:30:20.406692 15760 net.cpp:444] scale2b_branch2b <- res2b_branch2b
I0613 21:30:20.406704 15760 net.cpp:405] scale2b_branch2b -> res2b_branch2b (in-place)
I0613 21:30:20.406764 15760 layer_factory.hpp:77] Creating layer scale2b_branch2b
I0613 21:30:20.407133 15760 net.cpp:150] Setting up scale2b_branch2b
I0613 21:30:20.407140 15760 net.cpp:157] Top shape: 1 64 240 320 (4915200)
I0613 21:30:20.407143 15760 net.cpp:165] Memory required for data: 1499136084
I0613 21:30:20.407152 15760 layer_factory.hpp:77] Creating layer res2b_branch2b_relu
I0613 21:30:20.407163 15760 net.cpp:100] Creating Layer res2b_branch2b_relu
I0613 21:30:20.407168 15760 net.cpp:444] res2b_branch2b_relu <- res2b_branch2b
I0613 21:30:20.407178 15760 net.cpp:405] res2b_branch2b_relu -> res2b_branch2b (in-place)
I0613 21:30:20.407578 15760 net.cpp:150] Setting up res2b_branch2b_relu
I0613 21:30:20.407588 15760 net.cpp:157] Top shape: 1 64 240 320 (4915200)
I0613 21:30:20.407590 15760 net.cpp:165] Memory required for data: 1518796884
I0613 21:30:20.407594 15760 layer_factory.hpp:77] Creating layer res2b_branch2c
I0613 21:30:20.407608 15760 net.cpp:100] Creating Layer res2b_branch2c
I0613 21:30:20.407614 15760 net.cpp:444] res2b_branch2c <- res2b_branch2b
I0613 21:30:20.407629 15760 net.cpp:418] res2b_branch2c -> res2b_branch2c
I0613 21:30:20.408555 15760 cudnn_conv_layer.cpp:194] Reallocating workspace storage: 1388952
I0613 21:30:20.408808 15760 net.cpp:150] Setting up res2b_branch2c
I0613 21:30:20.408819 15760 net.cpp:157] Top shape: 1 256 240 320 (19660800)
I0613 21:30:20.408823 15760 net.cpp:165] Memory required for data: 1597440084
I0613 21:30:20.408833 15760 layer_factory.hpp:77] Creating layer bn2b_branch2c
I0613 21:30:20.408846 15760 net.cpp:100] Creating Layer bn2b_branch2c
I0613 21:30:20.408852 15760 net.cpp:444] bn2b_branch2c <- res2b_branch2c
I0613 21:30:20.408864 15760 net.cpp:405] bn2b_branch2c -> res2b_branch2c (in-place)
I0613 21:30:20.409217 15760 net.cpp:150] Setting up bn2b_branch2c
I0613 21:30:20.409224 15760 net.cpp:157] Top shape: 1 256 240 320 (19660800)
I0613 21:30:20.409226 15760 net.cpp:165] Memory required for data: 1676083284
I0613 21:30:20.409241 15760 layer_factory.hpp:77] Creating layer scale2b_branch2c
I0613 21:30:20.409255 15760 net.cpp:100] Creating Layer scale2b_branch2c
I0613 21:30:20.409258 15760 net.cpp:444] scale2b_branch2c <- res2b_branch2c
I0613 21:30:20.409268 15760 net.cpp:405] scale2b_branch2c -> res2b_branch2c (in-place)
I0613 21:30:20.409327 15760 layer_factory.hpp:77] Creating layer scale2b_branch2c
I0613 21:30:20.410440 15760 net.cpp:150] Setting up scale2b_branch2c
I0613 21:30:20.410454 15760 net.cpp:157] Top shape: 1 256 240 320 (19660800)
I0613 21:30:20.410457 15760 net.cpp:165] Memory required for data: 1754726484
I0613 21:30:20.410475 15760 layer_factory.hpp:77] Creating layer res2b
I0613 21:30:20.410493 15760 net.cpp:100] Creating Layer res2b
I0613 21:30:20.410501 15760 net.cpp:444] res2b <- res2a_res2a_relu_0_split_1
I0613 21:30:20.410513 15760 net.cpp:444] res2b <- res2b_branch2c
I0613 21:30:20.410522 15760 net.cpp:418] res2b -> res2b
I0613 21:30:20.410590 15760 net.cpp:150] Setting up res2b
I0613 21:30:20.410603 15760 net.cpp:157] Top shape: 1 256 240 320 (19660800)
I0613 21:30:20.410606 15760 net.cpp:165] Memory required for data: 1833369684
I0613 21:30:20.410614 15760 layer_factory.hpp:77] Creating layer res2b_relu
I0613 21:30:20.410629 15760 net.cpp:100] Creating Layer res2b_relu
I0613 21:30:20.410636 15760 net.cpp:444] res2b_relu <- res2b
I0613 21:30:20.410650 15760 net.cpp:405] res2b_relu -> res2b (in-place)
I0613 21:30:20.410851 15760 net.cpp:150] Setting up res2b_relu
I0613 21:30:20.410858 15760 net.cpp:157] Top shape: 1 256 240 320 (19660800)
I0613 21:30:20.410859 15760 net.cpp:165] Memory required for data: 1912012884
I0613 21:30:20.410864 15760 layer_factory.hpp:77] Creating layer res2b_res2b_relu_0_split
I0613 21:30:20.410874 15760 net.cpp:100] Creating Layer res2b_res2b_relu_0_split
I0613 21:30:20.410879 15760 net.cpp:444] res2b_res2b_relu_0_split <- res2b
I0613 21:30:20.410892 15760 net.cpp:418] res2b_res2b_relu_0_split -> res2b_res2b_relu_0_split_0
I0613 21:30:20.410907 15760 net.cpp:418] res2b_res2b_relu_0_split -> res2b_res2b_relu_0_split_1
I0613 21:30:20.410966 15760 net.cpp:150] Setting up res2b_res2b_relu_0_split
I0613 21:30:20.410974 15760 net.cpp:157] Top shape: 1 256 240 320 (19660800)
I0613 21:30:20.410979 15760 net.cpp:157] Top shape: 1 256 240 320 (19660800)
I0613 21:30:20.410981 15760 net.cpp:165] Memory required for data: 2069299284
I0613 21:30:20.410984 15760 layer_factory.hpp:77] Creating layer res2c_branch2a
I0613 21:30:20.411000 15760 net.cpp:100] Creating Layer res2c_branch2a
I0613 21:30:20.411005 15760 net.cpp:444] res2c_branch2a <- res2b_res2b_relu_0_split_0
I0613 21:30:20.411018 15760 net.cpp:418] res2c_branch2a -> res2c_branch2a
I0613 21:30:20.412042 15760 cudnn_conv_layer.cpp:194] Reallocating workspace storage: 1388952
I0613 21:30:20.412317 15760 net.cpp:150] Setting up res2c_branch2a
I0613 21:30:20.412328 15760 net.cpp:157] Top shape: 1 64 240 320 (4915200)
I0613 21:30:20.412331 15760 net.cpp:165] Memory required for data: 2088960084
I0613 21:30:20.412343 15760 layer_factory.hpp:77] Creating layer bn2c_branch2a
I0613 21:30:20.412358 15760 net.cpp:100] Creating Layer bn2c_branch2a
I0613 21:30:20.412364 15760 net.cpp:444] bn2c_branch2a <- res2c_branch2a
I0613 21:30:20.412375 15760 net.cpp:405] bn2c_branch2a -> res2c_branch2a (in-place)
I0613 21:30:20.412750 15760 net.cpp:150] Setting up bn2c_branch2a
I0613 21:30:20.412757 15760 net.cpp:157] Top shape: 1 64 240 320 (4915200)
I0613 21:30:20.412760 15760 net.cpp:165] Memory required for data: 2108620884
I0613 21:30:20.412775 15760 layer_factory.hpp:77] Creating layer scale2c_branch2a
I0613 21:30:20.412789 15760 net.cpp:100] Creating Layer scale2c_branch2a
I0613 21:30:20.412794 15760 net.cpp:444] scale2c_branch2a <- res2c_branch2a
I0613 21:30:20.412806 15760 net.cpp:405] scale2c_branch2a -> res2c_branch2a (in-place)
I0613 21:30:20.412866 15760 layer_factory.hpp:77] Creating layer scale2c_branch2a
I0613 21:30:20.413252 15760 net.cpp:150] Setting up scale2c_branch2a
I0613 21:30:20.413261 15760 net.cpp:157] Top shape: 1 64 240 320 (4915200)
I0613 21:30:20.413264 15760 net.cpp:165] Memory required for data: 2128281684
I0613 21:30:20.413274 15760 layer_factory.hpp:77] Creating layer res2c_branch2a_relu
I0613 21:30:20.413285 15760 net.cpp:100] Creating Layer res2c_branch2a_relu
I0613 21:30:20.413290 15760 net.cpp:444] res2c_branch2a_relu <- res2c_branch2a
I0613 21:30:20.413298 15760 net.cpp:405] res2c_branch2a_relu -> res2c_branch2a (in-place)
I0613 21:30:20.413460 15760 net.cpp:150] Setting up res2c_branch2a_relu
I0613 21:30:20.413466 15760 net.cpp:157] Top shape: 1 64 240 320 (4915200)
I0613 21:30:20.413468 15760 net.cpp:165] Memory required for data: 2147942484
I0613 21:30:20.413471 15760 layer_factory.hpp:77] Creating layer res2c_branch2b
I0613 21:30:20.413487 15760 net.cpp:100] Creating Layer res2c_branch2b
I0613 21:30:20.413491 15760 net.cpp:444] res2c_branch2b <- res2c_branch2a
I0613 21:30:20.413504 15760 net.cpp:418] res2c_branch2b -> res2c_branch2b
I0613 21:30:20.414558 15760 cudnn_conv_layer.cpp:194] Reallocating workspace storage: 786432
I0613 21:30:20.414824 15760 net.cpp:150] Setting up res2c_branch2b
I0613 21:30:20.414837 15760 net.cpp:157] Top shape: 1 64 240 320 (4915200)
I0613 21:30:20.414840 15760 net.cpp:165] Memory required for data: 2167603284
I0613 21:30:20.414851 15760 layer_factory.hpp:77] Creating layer bn2c_branch2b
I0613 21:30:20.414865 15760 net.cpp:100] Creating Layer bn2c_branch2b
I0613 21:30:20.414872 15760 net.cpp:444] bn2c_branch2b <- res2c_branch2b
I0613 21:30:20.414883 15760 net.cpp:405] bn2c_branch2b -> res2c_branch2b (in-place)
I0613 21:30:20.415244 15760 net.cpp:150] Setting up bn2c_branch2b
I0613 21:30:20.415251 15760 net.cpp:157] Top shape: 1 64 240 320 (4915200)
I0613 21:30:20.415253 15760 net.cpp:165] Memory required for data: 2187264084
I0613 21:30:20.415268 15760 layer_factory.hpp:77] Creating layer scale2c_branch2b
I0613 21:30:20.415282 15760 net.cpp:100] Creating Layer scale2c_branch2b
I0613 21:30:20.415287 15760 net.cpp:444] scale2c_branch2b <- res2c_branch2b
I0613 21:30:20.415298 15760 net.cpp:405] scale2c_branch2b -> res2c_branch2b (in-place)
I0613 21:30:20.415357 15760 layer_factory.hpp:77] Creating layer scale2c_branch2b
I0613 21:30:20.416452 15760 net.cpp:150] Setting up scale2c_branch2b
I0613 21:30:20.416461 15760 net.cpp:157] Top shape: 1 64 240 320 (4915200)
I0613 21:30:20.416463 15760 net.cpp:165] Memory required for data: 2206924884
I0613 21:30:20.416476 15760 layer_factory.hpp:77] Creating layer res2c_branch2b_relu
I0613 21:30:20.416487 15760 net.cpp:100] Creating Layer res2c_branch2b_relu
I0613 21:30:20.416492 15760 net.cpp:444] res2c_branch2b_relu <- res2c_branch2b
I0613 21:30:20.416505 15760 net.cpp:405] res2c_branch2b_relu -> res2c_branch2b (in-place)
I0613 21:30:20.416671 15760 net.cpp:150] Setting up res2c_branch2b_relu
I0613 21:30:20.416677 15760 net.cpp:157] Top shape: 1 64 240 320 (4915200)
I0613 21:30:20.416679 15760 net.cpp:165] Memory required for data: 2226585684
I0613 21:30:20.416683 15760 layer_factory.hpp:77] Creating layer res2c_branch2c
I0613 21:30:20.416700 15760 net.cpp:100] Creating Layer res2c_branch2c
I0613 21:30:20.416705 15760 net.cpp:444] res2c_branch2c <- res2c_branch2b
I0613 21:30:20.416718 15760 net.cpp:418] res2c_branch2c -> res2c_branch2c
I0613 21:30:20.417735 15760 cudnn_conv_layer.cpp:194] Reallocating workspace storage: 1388952
I0613 21:30:20.417997 15760 net.cpp:150] Setting up res2c_branch2c
I0613 21:30:20.418009 15760 net.cpp:157] Top shape: 1 256 240 320 (19660800)
I0613 21:30:20.418012 15760 net.cpp:165] Memory required for data: 2305228884
I0613 21:30:20.418022 15760 layer_factory.hpp:77] Creating layer bn2c_branch2c
I0613 21:30:20.418035 15760 net.cpp:100] Creating Layer bn2c_branch2c
I0613 21:30:20.418040 15760 net.cpp:444] bn2c_branch2c <- res2c_branch2c
I0613 21:30:20.418052 15760 net.cpp:405] bn2c_branch2c -> res2c_branch2c (in-place)
I0613 21:30:20.418402 15760 net.cpp:150] Setting up bn2c_branch2c
I0613 21:30:20.418408 15760 net.cpp:157] Top shape: 1 256 240 320 (19660800)
I0613 21:30:20.418411 15760 net.cpp:165] Memory required for data: 2383872084
I0613 21:30:20.418444 15760 layer_factory.hpp:77] Creating layer scale2c_branch2c
I0613 21:30:20.418459 15760 net.cpp:100] Creating Layer scale2c_branch2c
I0613 21:30:20.418464 15760 net.cpp:444] scale2c_branch2c <- res2c_branch2c
I0613 21:30:20.418474 15760 net.cpp:405] scale2c_branch2c -> res2c_branch2c (in-place)
I0613 21:30:20.418534 15760 layer_factory.hpp:77] Creating layer scale2c_branch2c
I0613 21:30:20.418895 15760 net.cpp:150] Setting up scale2c_branch2c
I0613 21:30:20.418902 15760 net.cpp:157] Top shape: 1 256 240 320 (19660800)
I0613 21:30:20.418905 15760 net.cpp:165] Memory required for data: 2462515284
I0613 21:30:20.418915 15760 layer_factory.hpp:77] Creating layer res2c
I0613 21:30:20.418926 15760 net.cpp:100] Creating Layer res2c
I0613 21:30:20.418931 15760 net.cpp:444] res2c <- res2b_res2b_relu_0_split_1
I0613 21:30:20.418941 15760 net.cpp:444] res2c <- res2c_branch2c
I0613 21:30:20.418949 15760 net.cpp:418] res2c -> res2c
I0613 21:30:20.418989 15760 net.cpp:150] Setting up res2c
I0613 21:30:20.418997 15760 net.cpp:157] Top shape: 1 256 240 320 (19660800)
I0613 21:30:20.418999 15760 net.cpp:165] Memory required for data: 2541158484
I0613 21:30:20.419003 15760 layer_factory.hpp:77] Creating layer res2c_relu
I0613 21:30:20.419011 15760 net.cpp:100] Creating Layer res2c_relu
I0613 21:30:20.419016 15760 net.cpp:444] res2c_relu <- res2c
I0613 21:30:20.419028 15760 net.cpp:405] res2c_relu -> res2c (in-place)
I0613 21:30:20.419435 15760 net.cpp:150] Setting up res2c_relu
I0613 21:30:20.419445 15760 net.cpp:157] Top shape: 1 256 240 320 (19660800)
I0613 21:30:20.419450 15760 net.cpp:165] Memory required for data: 2619801684
I0613 21:30:20.419456 15760 layer_factory.hpp:77] Creating layer res2c_res2c_relu_0_split
I0613 21:30:20.419468 15760 net.cpp:100] Creating Layer res2c_res2c_relu_0_split
I0613 21:30:20.419492 15760 net.cpp:444] res2c_res2c_relu_0_split <- res2c
I0613 21:30:20.419508 15760 net.cpp:418] res2c_res2c_relu_0_split -> res2c_res2c_relu_0_split_0
I0613 21:30:20.419528 15760 net.cpp:418] res2c_res2c_relu_0_split -> res2c_res2c_relu_0_split_1
I0613 21:30:20.419595 15760 net.cpp:150] Setting up res2c_res2c_relu_0_split
I0613 21:30:20.419605 15760 net.cpp:157] Top shape: 1 256 240 320 (19660800)
I0613 21:30:20.419610 15760 net.cpp:157] Top shape: 1 256 240 320 (19660800)
I0613 21:30:20.419615 15760 net.cpp:165] Memory required for data: 2777088084
I0613 21:30:20.419620 15760 layer_factory.hpp:77] Creating layer res3a_branch1
I0613 21:30:20.419637 15760 net.cpp:100] Creating Layer res3a_branch1
I0613 21:30:20.419644 15760 net.cpp:444] res3a_branch1 <- res2c_res2c_relu_0_split_0
I0613 21:30:20.419661 15760 net.cpp:418] res3a_branch1 -> res3a_branch1
I0613 21:30:20.420825 15760 cudnn_conv_layer.cpp:194] Reallocating workspace storage: 345624
I0613 21:30:20.420847 15760 net.cpp:150] Setting up res3a_branch1
I0613 21:30:20.420857 15760 net.cpp:157] Top shape: 1 512 120 160 (9830400)
I0613 21:30:20.420861 15760 net.cpp:165] Memory required for data: 2816409684
I0613 21:30:20.420876 15760 layer_factory.hpp:77] Creating layer bn3a_branch1
I0613 21:30:20.420893 15760 net.cpp:100] Creating Layer bn3a_branch1
I0613 21:30:20.420900 15760 net.cpp:444] bn3a_branch1 <- res3a_branch1
I0613 21:30:20.420917 15760 net.cpp:405] bn3a_branch1 -> res3a_branch1 (in-place)
I0613 21:30:20.421967 15760 net.cpp:150] Setting up bn3a_branch1
I0613 21:30:20.421977 15760 net.cpp:157] Top shape: 1 512 120 160 (9830400)
I0613 21:30:20.421982 15760 net.cpp:165] Memory required for data: 2855731284
I0613 21:30:20.422003 15760 layer_factory.hpp:77] Creating layer scale3a_branch1
I0613 21:30:20.422024 15760 net.cpp:100] Creating Layer scale3a_branch1
I0613 21:30:20.422030 15760 net.cpp:444] scale3a_branch1 <- res3a_branch1
I0613 21:30:20.422046 15760 net.cpp:405] scale3a_branch1 -> res3a_branch1 (in-place)
I0613 21:30:20.422111 15760 layer_factory.hpp:77] Creating layer scale3a_branch1
I0613 21:30:20.422328 15760 net.cpp:150] Setting up scale3a_branch1
I0613 21:30:20.422338 15760 net.cpp:157] Top shape: 1 512 120 160 (9830400)
I0613 21:30:20.422340 15760 net.cpp:165] Memory required for data: 2895052884
I0613 21:30:20.422353 15760 layer_factory.hpp:77] Creating layer res3a_branch2a
I0613 21:30:20.422371 15760 net.cpp:100] Creating Layer res3a_branch2a
I0613 21:30:20.422379 15760 net.cpp:444] res3a_branch2a <- res2c_res2c_relu_0_split_1
I0613 21:30:20.422396 15760 net.cpp:418] res3a_branch2a -> res3a_branch2a
I0613 21:30:20.423429 15760 cudnn_conv_layer.cpp:194] Reallocating workspace storage: 345624
I0613 21:30:20.423450 15760 net.cpp:150] Setting up res3a_branch2a
I0613 21:30:20.423460 15760 net.cpp:157] Top shape: 1 128 120 160 (2457600)
I0613 21:30:20.423463 15760 net.cpp:165] Memory required for data: 2904883284
I0613 21:30:20.423476 15760 layer_factory.hpp:77] Creating layer bn3a_branch2a
I0613 21:30:20.423492 15760 net.cpp:100] Creating Layer bn3a_branch2a
I0613 21:30:20.423499 15760 net.cpp:444] bn3a_branch2a <- res3a_branch2a
I0613 21:30:20.423516 15760 net.cpp:405] bn3a_branch2a -> res3a_branch2a (in-place)
I0613 21:30:20.423790 15760 net.cpp:150] Setting up bn3a_branch2a
I0613 21:30:20.423799 15760 net.cpp:157] Top shape: 1 128 120 160 (2457600)
I0613 21:30:20.423801 15760 net.cpp:165] Memory required for data: 2914713684
I0613 21:30:20.423820 15760 layer_factory.hpp:77] Creating layer scale3a_branch2a
I0613 21:30:20.423835 15760 net.cpp:100] Creating Layer scale3a_branch2a
I0613 21:30:20.423841 15760 net.cpp:444] scale3a_branch2a <- res3a_branch2a
I0613 21:30:20.423856 15760 net.cpp:405] scale3a_branch2a -> res3a_branch2a (in-place)
I0613 21:30:20.423921 15760 layer_factory.hpp:77] Creating layer scale3a_branch2a
I0613 21:30:20.424130 15760 net.cpp:150] Setting up scale3a_branch2a
I0613 21:30:20.424139 15760 net.cpp:157] Top shape: 1 128 120 160 (2457600)
I0613 21:30:20.424141 15760 net.cpp:165] Memory required for data: 2924544084
I0613 21:30:20.424154 15760 layer_factory.hpp:77] Creating layer res3a_branch2a_relu
I0613 21:30:20.424167 15760 net.cpp:100] Creating Layer res3a_branch2a_relu
I0613 21:30:20.424173 15760 net.cpp:444] res3a_branch2a_relu <- res3a_branch2a
I0613 21:30:20.424188 15760 net.cpp:405] res3a_branch2a_relu -> res3a_branch2a (in-place)
I0613 21:30:20.424336 15760 net.cpp:150] Setting up res3a_branch2a_relu
I0613 21:30:20.424345 15760 net.cpp:157] Top shape: 1 128 120 160 (2457600)
I0613 21:30:20.424348 15760 net.cpp:165] Memory required for data: 2934374484
I0613 21:30:20.424353 15760 layer_factory.hpp:77] Creating layer res3a_branch2b
I0613 21:30:20.424371 15760 net.cpp:100] Creating Layer res3a_branch2b
I0613 21:30:20.424377 15760 net.cpp:444] res3a_branch2b <- res3a_branch2a
I0613 21:30:20.424396 15760 net.cpp:418] res3a_branch2b -> res3a_branch2b
I0613 21:30:20.426355 15760 cudnn_conv_layer.cpp:194] Reallocating workspace storage: 3145728
I0613 21:30:20.426631 15760 net.cpp:150] Setting up res3a_branch2b
I0613 21:30:20.426646 15760 net.cpp:157] Top shape: 1 128 120 160 (2457600)
I0613 21:30:20.426651 15760 net.cpp:165] Memory required for data: 2944204884
I0613 21:30:20.426666 15760 layer_factory.hpp:77] Creating layer bn3a_branch2b
I0613 21:30:20.426687 15760 net.cpp:100] Creating Layer bn3a_branch2b
I0613 21:30:20.426694 15760 net.cpp:444] bn3a_branch2b <- res3a_branch2b
I0613 21:30:20.426712 15760 net.cpp:405] bn3a_branch2b -> res3a_branch2b (in-place)
I0613 21:30:20.426998 15760 net.cpp:150] Setting up bn3a_branch2b
I0613 21:30:20.427007 15760 net.cpp:157] Top shape: 1 128 120 160 (2457600)
I0613 21:30:20.427011 15760 net.cpp:165] Memory required for data: 2954035284
I0613 21:30:20.427029 15760 layer_factory.hpp:77] Creating layer scale3a_branch2b
I0613 21:30:20.427055 15760 net.cpp:100] Creating Layer scale3a_branch2b
I0613 21:30:20.427062 15760 net.cpp:444] scale3a_branch2b <- res3a_branch2b
I0613 21:30:20.427078 15760 net.cpp:405] scale3a_branch2b -> res3a_branch2b (in-place)
I0613 21:30:20.427146 15760 layer_factory.hpp:77] Creating layer scale3a_branch2b
I0613 21:30:20.427357 15760 net.cpp:150] Setting up scale3a_branch2b
I0613 21:30:20.427366 15760 net.cpp:157] Top shape: 1 128 120 160 (2457600)
I0613 21:30:20.427369 15760 net.cpp:165] Memory required for data: 2963865684
I0613 21:30:20.427384 15760 layer_factory.hpp:77] Creating layer res3a_branch2b_relu
I0613 21:30:20.427398 15760 net.cpp:100] Creating Layer res3a_branch2b_relu
I0613 21:30:20.427404 15760 net.cpp:444] res3a_branch2b_relu <- res3a_branch2b
I0613 21:30:20.427418 15760 net.cpp:405] res3a_branch2b_relu -> res3a_branch2b (in-place)
I0613 21:30:20.427570 15760 net.cpp:150] Setting up res3a_branch2b_relu
I0613 21:30:20.427578 15760 net.cpp:157] Top shape: 1 128 120 160 (2457600)
I0613 21:30:20.427582 15760 net.cpp:165] Memory required for data: 2973696084
I0613 21:30:20.427587 15760 layer_factory.hpp:77] Creating layer res3a_branch2c
I0613 21:30:20.427606 15760 net.cpp:100] Creating Layer res3a_branch2c
I0613 21:30:20.427613 15760 net.cpp:444] res3a_branch2c <- res3a_branch2b
I0613 21:30:20.427628 15760 net.cpp:418] res3a_branch2c -> res3a_branch2c
I0613 21:30:20.428683 15760 cudnn_conv_layer.cpp:194] Reallocating workspace storage: 352152
I0613 21:30:20.428699 15760 net.cpp:150] Setting up res3a_branch2c
I0613 21:30:20.428709 15760 net.cpp:157] Top shape: 1 512 120 160 (9830400)
I0613 21:30:20.428712 15760 net.cpp:165] Memory required for data: 3013017684
I0613 21:30:20.428725 15760 layer_factory.hpp:77] Creating layer bn3a_branch2c
I0613 21:30:20.428741 15760 net.cpp:100] Creating Layer bn3a_branch2c
I0613 21:30:20.428748 15760 net.cpp:444] bn3a_branch2c <- res3a_branch2c
I0613 21:30:20.428766 15760 net.cpp:405] bn3a_branch2c -> res3a_branch2c (in-place)
I0613 21:30:20.429060 15760 net.cpp:150] Setting up bn3a_branch2c
I0613 21:30:20.429069 15760 net.cpp:157] Top shape: 1 512 120 160 (9830400)
I0613 21:30:20.429072 15760 net.cpp:165] Memory required for data: 3052339284
I0613 21:30:20.429090 15760 layer_factory.hpp:77] Creating layer scale3a_branch2c
I0613 21:30:20.429105 15760 net.cpp:100] Creating Layer scale3a_branch2c
I0613 21:30:20.429112 15760 net.cpp:444] scale3a_branch2c <- res3a_branch2c
I0613 21:30:20.429128 15760 net.cpp:405] scale3a_branch2c -> res3a_branch2c (in-place)
I0613 21:30:20.429189 15760 layer_factory.hpp:77] Creating layer scale3a_branch2c
I0613 21:30:20.429406 15760 net.cpp:150] Setting up scale3a_branch2c
I0613 21:30:20.429414 15760 net.cpp:157] Top shape: 1 512 120 160 (9830400)
I0613 21:30:20.429417 15760 net.cpp:165] Memory required for data: 3091660884
I0613 21:30:20.429430 15760 layer_factory.hpp:77] Creating layer res3a
I0613 21:30:20.429443 15760 net.cpp:100] Creating Layer res3a
I0613 21:30:20.429450 15760 net.cpp:444] res3a <- res3a_branch1
I0613 21:30:20.429462 15760 net.cpp:444] res3a <- res3a_branch2c
I0613 21:30:20.429476 15760 net.cpp:418] res3a -> res3a
I0613 21:30:20.429518 15760 net.cpp:150] Setting up res3a
I0613 21:30:20.429527 15760 net.cpp:157] Top shape: 1 512 120 160 (9830400)
I0613 21:30:20.429533 15760 net.cpp:165] Memory required for data: 3130982484
I0613 21:30:20.429538 15760 layer_factory.hpp:77] Creating layer res3a_relu
I0613 21:30:20.429550 15760 net.cpp:100] Creating Layer res3a_relu
I0613 21:30:20.429556 15760 net.cpp:444] res3a_relu <- res3a
I0613 21:30:20.429570 15760 net.cpp:405] res3a_relu -> res3a (in-place)
I0613 21:30:20.429986 15760 net.cpp:150] Setting up res3a_relu
I0613 21:30:20.429996 15760 net.cpp:157] Top shape: 1 512 120 160 (9830400)
I0613 21:30:20.430001 15760 net.cpp:165] Memory required for data: 3170304084
I0613 21:30:20.430006 15760 layer_factory.hpp:77] Creating layer res3a_res3a_relu_0_split
I0613 21:30:20.430019 15760 net.cpp:100] Creating Layer res3a_res3a_relu_0_split
I0613 21:30:20.430027 15760 net.cpp:444] res3a_res3a_relu_0_split <- res3a
I0613 21:30:20.430042 15760 net.cpp:418] res3a_res3a_relu_0_split -> res3a_res3a_relu_0_split_0
I0613 21:30:20.430060 15760 net.cpp:418] res3a_res3a_relu_0_split -> res3a_res3a_relu_0_split_1
I0613 21:30:20.430124 15760 net.cpp:150] Setting up res3a_res3a_relu_0_split
I0613 21:30:20.430132 15760 net.cpp:157] Top shape: 1 512 120 160 (9830400)
I0613 21:30:20.430138 15760 net.cpp:157] Top shape: 1 512 120 160 (9830400)
I0613 21:30:20.430143 15760 net.cpp:165] Memory required for data: 3248947284
I0613 21:30:20.430148 15760 layer_factory.hpp:77] Creating layer res3b_branch2a
I0613 21:30:20.430166 15760 net.cpp:100] Creating Layer res3b_branch2a
I0613 21:30:20.430171 15760 net.cpp:444] res3b_branch2a <- res3a_res3a_relu_0_split_0
I0613 21:30:20.430188 15760 net.cpp:418] res3b_branch2a -> res3b_branch2a
I0613 21:30:20.431267 15760 cudnn_conv_layer.cpp:194] Reallocating workspace storage: 352152
I0613 21:30:20.431288 15760 net.cpp:150] Setting up res3b_branch2a
I0613 21:30:20.431298 15760 net.cpp:157] Top shape: 1 128 120 160 (2457600)
I0613 21:30:20.431303 15760 net.cpp:165] Memory required for data: 3258777684
I0613 21:30:20.431315 15760 layer_factory.hpp:77] Creating layer bn3b_branch2a
I0613 21:30:20.431332 15760 net.cpp:100] Creating Layer bn3b_branch2a
I0613 21:30:20.431339 15760 net.cpp:444] bn3b_branch2a <- res3b_branch2a
I0613 21:30:20.431363 15760 net.cpp:405] bn3b_branch2a -> res3b_branch2a (in-place)
I0613 21:30:20.431650 15760 net.cpp:150] Setting up bn3b_branch2a
I0613 21:30:20.431658 15760 net.cpp:157] Top shape: 1 128 120 160 (2457600)
I0613 21:30:20.431661 15760 net.cpp:165] Memory required for data: 3268608084
I0613 21:30:20.431680 15760 layer_factory.hpp:77] Creating layer scale3b_branch2a
I0613 21:30:20.431697 15760 net.cpp:100] Creating Layer scale3b_branch2a
I0613 21:30:20.431704 15760 net.cpp:444] scale3b_branch2a <- res3b_branch2a
I0613 21:30:20.431720 15760 net.cpp:405] scale3b_branch2a -> res3b_branch2a (in-place)
I0613 21:30:20.431787 15760 layer_factory.hpp:77] Creating layer scale3b_branch2a
I0613 21:30:20.432778 15760 net.cpp:150] Setting up scale3b_branch2a
I0613 21:30:20.432788 15760 net.cpp:157] Top shape: 1 128 120 160 (2457600)
I0613 21:30:20.432792 15760 net.cpp:165] Memory required for data: 3278438484
I0613 21:30:20.432808 15760 layer_factory.hpp:77] Creating layer res3b_branch2a_relu
I0613 21:30:20.432822 15760 net.cpp:100] Creating Layer res3b_branch2a_relu
I0613 21:30:20.432831 15760 net.cpp:444] res3b_branch2a_relu <- res3b_branch2a
I0613 21:30:20.432844 15760 net.cpp:405] res3b_branch2a_relu -> res3b_branch2a (in-place)
I0613 21:30:20.433029 15760 net.cpp:150] Setting up res3b_branch2a_relu
I0613 21:30:20.433038 15760 net.cpp:157] Top shape: 1 128 120 160 (2457600)
I0613 21:30:20.433042 15760 net.cpp:165] Memory required for data: 3288268884
I0613 21:30:20.433048 15760 layer_factory.hpp:77] Creating layer res3b_branch2b
I0613 21:30:20.433068 15760 net.cpp:100] Creating Layer res3b_branch2b
I0613 21:30:20.433074 15760 net.cpp:444] res3b_branch2b <- res3b_branch2a
I0613 21:30:20.433090 15760 net.cpp:418] res3b_branch2b -> res3b_branch2b
I0613 21:30:20.434589 15760 cudnn_conv_layer.cpp:194] Reallocating workspace storage: 3145728
I0613 21:30:20.434864 15760 net.cpp:150] Setting up res3b_branch2b
I0613 21:30:20.434880 15760 net.cpp:157] Top shape: 1 128 120 160 (2457600)
I0613 21:30:20.434885 15760 net.cpp:165] Memory required for data: 3298099284
I0613 21:30:20.434898 15760 layer_factory.hpp:77] Creating layer bn3b_branch2b
I0613 21:30:20.434916 15760 net.cpp:100] Creating Layer bn3b_branch2b
I0613 21:30:20.434923 15760 net.cpp:444] bn3b_branch2b <- res3b_branch2b
I0613 21:30:20.434942 15760 net.cpp:405] bn3b_branch2b -> res3b_branch2b (in-place)
I0613 21:30:20.435233 15760 net.cpp:150] Setting up bn3b_branch2b
I0613 21:30:20.435241 15760 net.cpp:157] Top shape: 1 128 120 160 (2457600)
I0613 21:30:20.435245 15760 net.cpp:165] Memory required for data: 3307929684
I0613 21:30:20.435264 15760 layer_factory.hpp:77] Creating layer scale3b_branch2b
I0613 21:30:20.435281 15760 net.cpp:100] Creating Layer scale3b_branch2b
I0613 21:30:20.435288 15760 net.cpp:444] scale3b_branch2b <- res3b_branch2b
I0613 21:30:20.435303 15760 net.cpp:405] scale3b_branch2b -> res3b_branch2b (in-place)
I0613 21:30:20.435371 15760 layer_factory.hpp:77] Creating layer scale3b_branch2b
I0613 21:30:20.435582 15760 net.cpp:150] Setting up scale3b_branch2b
I0613 21:30:20.435590 15760 net.cpp:157] Top shape: 1 128 120 160 (2457600)
I0613 21:30:20.435595 15760 net.cpp:165] Memory required for data: 3317760084
I0613 21:30:20.435607 15760 layer_factory.hpp:77] Creating layer res3b_branch2b_relu
I0613 21:30:20.435619 15760 net.cpp:100] Creating Layer res3b_branch2b_relu
I0613 21:30:20.435626 15760 net.cpp:444] res3b_branch2b_relu <- res3b_branch2b
I0613 21:30:20.435639 15760 net.cpp:405] res3b_branch2b_relu -> res3b_branch2b (in-place)
I0613 21:30:20.435798 15760 net.cpp:150] Setting up res3b_branch2b_relu
I0613 21:30:20.435807 15760 net.cpp:157] Top shape: 1 128 120 160 (2457600)
I0613 21:30:20.435811 15760 net.cpp:165] Memory required for data: 3327590484
I0613 21:30:20.435817 15760 layer_factory.hpp:77] Creating layer res3b_branch2c
I0613 21:30:20.435834 15760 net.cpp:100] Creating Layer res3b_branch2c
I0613 21:30:20.435842 15760 net.cpp:444] res3b_branch2c <- res3b_branch2b
I0613 21:30:20.435859 15760 net.cpp:418] res3b_branch2c -> res3b_branch2c
I0613 21:30:20.436921 15760 cudnn_conv_layer.cpp:194] Reallocating workspace storage: 352152
I0613 21:30:20.436952 15760 net.cpp:150] Setting up res3b_branch2c
I0613 21:30:20.436962 15760 net.cpp:157] Top shape: 1 512 120 160 (9830400)
I0613 21:30:20.436966 15760 net.cpp:165] Memory required for data: 3366912084
I0613 21:30:20.436980 15760 layer_factory.hpp:77] Creating layer bn3b_branch2c
I0613 21:30:20.436995 15760 net.cpp:100] Creating Layer bn3b_branch2c
I0613 21:30:20.437003 15760 net.cpp:444] bn3b_branch2c <- res3b_branch2c
I0613 21:30:20.437018 15760 net.cpp:405] bn3b_branch2c -> res3b_branch2c (in-place)
I0613 21:30:20.437305 15760 net.cpp:150] Setting up bn3b_branch2c
I0613 21:30:20.437314 15760 net.cpp:157] Top shape: 1 512 120 160 (9830400)
I0613 21:30:20.437317 15760 net.cpp:165] Memory required for data: 3406233684
I0613 21:30:20.437335 15760 layer_factory.hpp:77] Creating layer scale3b_branch2c
I0613 21:30:20.437350 15760 net.cpp:100] Creating Layer scale3b_branch2c
I0613 21:30:20.437357 15760 net.cpp:444] scale3b_branch2c <- res3b_branch2c
I0613 21:30:20.437372 15760 net.cpp:405] scale3b_branch2c -> res3b_branch2c (in-place)
I0613 21:30:20.437434 15760 layer_factory.hpp:77] Creating layer scale3b_branch2c
I0613 21:30:20.437652 15760 net.cpp:150] Setting up scale3b_branch2c
I0613 21:30:20.437660 15760 net.cpp:157] Top shape: 1 512 120 160 (9830400)
I0613 21:30:20.437664 15760 net.cpp:165] Memory required for data: 3445555284
I0613 21:30:20.437676 15760 layer_factory.hpp:77] Creating layer res3b
I0613 21:30:20.437690 15760 net.cpp:100] Creating Layer res3b
I0613 21:30:20.437696 15760 net.cpp:444] res3b <- res3a_res3a_relu_0_split_1
I0613 21:30:20.437708 15760 net.cpp:444] res3b <- res3b_branch2c
I0613 21:30:20.437721 15760 net.cpp:418] res3b -> res3b
I0613 21:30:20.437764 15760 net.cpp:150] Setting up res3b
I0613 21:30:20.437774 15760 net.cpp:157] Top shape: 1 512 120 160 (9830400)
I0613 21:30:20.437778 15760 net.cpp:165] Memory required for data: 3484876884
I0613 21:30:20.437783 15760 layer_factory.hpp:77] Creating layer res3b_relu
I0613 21:30:20.437795 15760 net.cpp:100] Creating Layer res3b_relu
I0613 21:30:20.437801 15760 net.cpp:444] res3b_relu <- res3b
I0613 21:30:20.437814 15760 net.cpp:405] res3b_relu -> res3b (in-place)
I0613 21:30:20.438223 15760 net.cpp:150] Setting up res3b_relu
I0613 21:30:20.438233 15760 net.cpp:157] Top shape: 1 512 120 160 (9830400)
I0613 21:30:20.438236 15760 net.cpp:165] Memory required for data: 3524198484
I0613 21:30:20.438242 15760 layer_factory.hpp:77] Creating layer res3b_res3b_relu_0_split
I0613 21:30:20.438256 15760 net.cpp:100] Creating Layer res3b_res3b_relu_0_split
I0613 21:30:20.438263 15760 net.cpp:444] res3b_res3b_relu_0_split <- res3b
I0613 21:30:20.438279 15760 net.cpp:418] res3b_res3b_relu_0_split -> res3b_res3b_relu_0_split_0
I0613 21:30:20.438297 15760 net.cpp:418] res3b_res3b_relu_0_split -> res3b_res3b_relu_0_split_1
I0613 21:30:20.438360 15760 net.cpp:150] Setting up res3b_res3b_relu_0_split
I0613 21:30:20.438369 15760 net.cpp:157] Top shape: 1 512 120 160 (9830400)
I0613 21:30:20.438376 15760 net.cpp:157] Top shape: 1 512 120 160 (9830400)
I0613 21:30:20.438380 15760 net.cpp:165] Memory required for data: 3602841684
I0613 21:30:20.438385 15760 layer_factory.hpp:77] Creating layer res3c_branch2a
I0613 21:30:20.438402 15760 net.cpp:100] Creating Layer res3c_branch2a
I0613 21:30:20.438410 15760 net.cpp:444] res3c_branch2a <- res3b_res3b_relu_0_split_0
I0613 21:30:20.438426 15760 net.cpp:418] res3c_branch2a -> res3c_branch2a
I0613 21:30:20.439467 15760 cudnn_conv_layer.cpp:194] Reallocating workspace storage: 352152
I0613 21:30:20.439488 15760 net.cpp:150] Setting up res3c_branch2a
I0613 21:30:20.439497 15760 net.cpp:157] Top shape: 1 128 120 160 (2457600)
I0613 21:30:20.439502 15760 net.cpp:165] Memory required for data: 3612672084
I0613 21:30:20.439513 15760 layer_factory.hpp:77] Creating layer bn3c_branch2a
I0613 21:30:20.439529 15760 net.cpp:100] Creating Layer bn3c_branch2a
I0613 21:30:20.439537 15760 net.cpp:444] bn3c_branch2a <- res3c_branch2a
I0613 21:30:20.439553 15760 net.cpp:405] bn3c_branch2a -> res3c_branch2a (in-place)
I0613 21:30:20.439836 15760 net.cpp:150] Setting up bn3c_branch2a
I0613 21:30:20.439844 15760 net.cpp:157] Top shape: 1 128 120 160 (2457600)
I0613 21:30:20.439847 15760 net.cpp:165] Memory required for data: 3622502484
I0613 21:30:20.439865 15760 layer_factory.hpp:77] Creating layer scale3c_branch2a
I0613 21:30:20.439882 15760 net.cpp:100] Creating Layer scale3c_branch2a
I0613 21:30:20.439888 15760 net.cpp:444] scale3c_branch2a <- res3c_branch2a
I0613 21:30:20.439903 15760 net.cpp:405] scale3c_branch2a -> res3c_branch2a (in-place)
I0613 21:30:20.439967 15760 layer_factory.hpp:77] Creating layer scale3c_branch2a
I0613 21:30:20.440176 15760 net.cpp:150] Setting up scale3c_branch2a
I0613 21:30:20.440184 15760 net.cpp:157] Top shape: 1 128 120 160 (2457600)
I0613 21:30:20.440187 15760 net.cpp:165] Memory required for data: 3632332884
I0613 21:30:20.440201 15760 layer_factory.hpp:77] Creating layer res3c_branch2a_relu
I0613 21:30:20.440212 15760 net.cpp:100] Creating Layer res3c_branch2a_relu
I0613 21:30:20.440218 15760 net.cpp:444] res3c_branch2a_relu <- res3c_branch2a
I0613 21:30:20.440233 15760 net.cpp:405] res3c_branch2a_relu -> res3c_branch2a (in-place)
I0613 21:30:20.440382 15760 net.cpp:150] Setting up res3c_branch2a_relu
I0613 21:30:20.440388 15760 net.cpp:157] Top shape: 1 128 120 160 (2457600)
I0613 21:30:20.440392 15760 net.cpp:165] Memory required for data: 3642163284
I0613 21:30:20.440398 15760 layer_factory.hpp:77] Creating layer res3c_branch2b
I0613 21:30:20.440414 15760 net.cpp:100] Creating Layer res3c_branch2b
I0613 21:30:20.440421 15760 net.cpp:444] res3c_branch2b <- res3c_branch2a
I0613 21:30:20.440438 15760 net.cpp:418] res3c_branch2b -> res3c_branch2b
I0613 21:30:20.441642 15760 cudnn_conv_layer.cpp:194] Reallocating workspace storage: 3145728
I0613 21:30:20.441920 15760 net.cpp:150] Setting up res3c_branch2b
I0613 21:30:20.441933 15760 net.cpp:157] Top shape: 1 128 120 160 (2457600)
I0613 21:30:20.441938 15760 net.cpp:165] Memory required for data: 3651993684
I0613 21:30:20.441952 15760 layer_factory.hpp:77] Creating layer bn3c_branch2b
I0613 21:30:20.441969 15760 net.cpp:100] Creating Layer bn3c_branch2b
I0613 21:30:20.441977 15760 net.cpp:444] bn3c_branch2b <- res3c_branch2b
I0613 21:30:20.441994 15760 net.cpp:405] bn3c_branch2b -> res3c_branch2b (in-place)
I0613 21:30:20.442286 15760 net.cpp:150] Setting up bn3c_branch2b
I0613 21:30:20.442293 15760 net.cpp:157] Top shape: 1 128 120 160 (2457600)
I0613 21:30:20.442297 15760 net.cpp:165] Memory required for data: 3661824084
I0613 21:30:20.442315 15760 layer_factory.hpp:77] Creating layer scale3c_branch2b
I0613 21:30:20.442330 15760 net.cpp:100] Creating Layer scale3c_branch2b
I0613 21:30:20.442337 15760 net.cpp:444] scale3c_branch2b <- res3c_branch2b
I0613 21:30:20.442353 15760 net.cpp:405] scale3c_branch2b -> res3c_branch2b (in-place)
I0613 21:30:20.442420 15760 layer_factory.hpp:77] Creating layer scale3c_branch2b
I0613 21:30:20.442632 15760 net.cpp:150] Setting up scale3c_branch2b
I0613 21:30:20.442641 15760 net.cpp:157] Top shape: 1 128 120 160 (2457600)
I0613 21:30:20.442643 15760 net.cpp:165] Memory required for data: 3671654484
I0613 21:30:20.442656 15760 layer_factory.hpp:77] Creating layer res3c_branch2b_relu
I0613 21:30:20.442669 15760 net.cpp:100] Creating Layer res3c_branch2b_relu
I0613 21:30:20.442675 15760 net.cpp:444] res3c_branch2b_relu <- res3c_branch2b
I0613 21:30:20.442689 15760 net.cpp:405] res3c_branch2b_relu -> res3c_branch2b (in-place)
I0613 21:30:20.442847 15760 net.cpp:150] Setting up res3c_branch2b_relu
I0613 21:30:20.442855 15760 net.cpp:157] Top shape: 1 128 120 160 (2457600)
I0613 21:30:20.442858 15760 net.cpp:165] Memory required for data: 3681484884
I0613 21:30:20.442864 15760 layer_factory.hpp:77] Creating layer res3c_branch2c
I0613 21:30:20.442883 15760 net.cpp:100] Creating Layer res3c_branch2c
I0613 21:30:20.442889 15760 net.cpp:444] res3c_branch2c <- res3c_branch2b
I0613 21:30:20.442906 15760 net.cpp:418] res3c_branch2c -> res3c_branch2c
I0613 21:30:20.443989 15760 cudnn_conv_layer.cpp:194] Reallocating workspace storage: 352152
I0613 21:30:20.444005 15760 net.cpp:150] Setting up res3c_branch2c
I0613 21:30:20.444015 15760 net.cpp:157] Top shape: 1 512 120 160 (9830400)
I0613 21:30:20.444020 15760 net.cpp:165] Memory required for data: 3720806484
I0613 21:30:20.444032 15760 layer_factory.hpp:77] Creating layer bn3c_branch2c
I0613 21:30:20.444051 15760 net.cpp:100] Creating Layer bn3c_branch2c
I0613 21:30:20.444058 15760 net.cpp:444] bn3c_branch2c <- res3c_branch2c
I0613 21:30:20.444074 15760 net.cpp:405] bn3c_branch2c -> res3c_branch2c (in-place)
I0613 21:30:20.444368 15760 net.cpp:150] Setting up bn3c_branch2c
I0613 21:30:20.444376 15760 net.cpp:157] Top shape: 1 512 120 160 (9830400)
I0613 21:30:20.444380 15760 net.cpp:165] Memory required for data: 3760128084
I0613 21:30:20.444399 15760 layer_factory.hpp:77] Creating layer scale3c_branch2c
I0613 21:30:20.444416 15760 net.cpp:100] Creating Layer scale3c_branch2c
I0613 21:30:20.444423 15760 net.cpp:444] scale3c_branch2c <- res3c_branch2c
I0613 21:30:20.444439 15760 net.cpp:405] scale3c_branch2c -> res3c_branch2c (in-place)
I0613 21:30:20.444504 15760 layer_factory.hpp:77] Creating layer scale3c_branch2c
I0613 21:30:20.444725 15760 net.cpp:150] Setting up scale3c_branch2c
I0613 21:30:20.444733 15760 net.cpp:157] Top shape: 1 512 120 160 (9830400)
I0613 21:30:20.444736 15760 net.cpp:165] Memory required for data: 3799449684
I0613 21:30:20.444749 15760 layer_factory.hpp:77] Creating layer res3c
I0613 21:30:20.444762 15760 net.cpp:100] Creating Layer res3c
I0613 21:30:20.444770 15760 net.cpp:444] res3c <- res3b_res3b_relu_0_split_1
I0613 21:30:20.444782 15760 net.cpp:444] res3c <- res3c_branch2c
I0613 21:30:20.444793 15760 net.cpp:418] res3c -> res3c
I0613 21:30:20.444839 15760 net.cpp:150] Setting up res3c
I0613 21:30:20.444849 15760 net.cpp:157] Top shape: 1 512 120 160 (9830400)
I0613 21:30:20.444852 15760 net.cpp:165] Memory required for data: 3838771284
I0613 21:30:20.444859 15760 layer_factory.hpp:77] Creating layer res3c_relu
I0613 21:30:20.444870 15760 net.cpp:100] Creating Layer res3c_relu
I0613 21:30:20.444876 15760 net.cpp:444] res3c_relu <- res3c
I0613 21:30:20.444890 15760 net.cpp:405] res3c_relu -> res3c (in-place)
I0613 21:30:20.445047 15760 net.cpp:150] Setting up res3c_relu
I0613 21:30:20.445055 15760 net.cpp:157] Top shape: 1 512 120 160 (9830400)
I0613 21:30:20.445058 15760 net.cpp:165] Memory required for data: 3878092884
I0613 21:30:20.445065 15760 layer_factory.hpp:77] Creating layer res3c_res3c_relu_0_split
I0613 21:30:20.445077 15760 net.cpp:100] Creating Layer res3c_res3c_relu_0_split
I0613 21:30:20.445083 15760 net.cpp:444] res3c_res3c_relu_0_split <- res3c
I0613 21:30:20.445099 15760 net.cpp:418] res3c_res3c_relu_0_split -> res3c_res3c_relu_0_split_0
I0613 21:30:20.445116 15760 net.cpp:418] res3c_res3c_relu_0_split -> res3c_res3c_relu_0_split_1
I0613 21:30:20.445178 15760 net.cpp:150] Setting up res3c_res3c_relu_0_split
I0613 21:30:20.445188 15760 net.cpp:157] Top shape: 1 512 120 160 (9830400)
I0613 21:30:20.445194 15760 net.cpp:157] Top shape: 1 512 120 160 (9830400)
I0613 21:30:20.445197 15760 net.cpp:165] Memory required for data: 3956736084
I0613 21:30:20.445204 15760 layer_factory.hpp:77] Creating layer res3d_branch2a
I0613 21:30:20.445220 15760 net.cpp:100] Creating Layer res3d_branch2a
I0613 21:30:20.445227 15760 net.cpp:444] res3d_branch2a <- res3c_res3c_relu_0_split_0
I0613 21:30:20.445245 15760 net.cpp:418] res3d_branch2a -> res3d_branch2a
I0613 21:30:20.447088 15760 cudnn_conv_layer.cpp:194] Reallocating workspace storage: 352152
I0613 21:30:20.447110 15760 net.cpp:150] Setting up res3d_branch2a
I0613 21:30:20.447119 15760 net.cpp:157] Top shape: 1 128 120 160 (2457600)
I0613 21:30:20.447124 15760 net.cpp:165] Memory required for data: 3966566484
I0613 21:30:20.447136 15760 layer_factory.hpp:77] Creating layer bn3d_branch2a
I0613 21:30:20.447154 15760 net.cpp:100] Creating Layer bn3d_branch2a
I0613 21:30:20.447162 15760 net.cpp:444] bn3d_branch2a <- res3d_branch2a
I0613 21:30:20.447180 15760 net.cpp:405] bn3d_branch2a -> res3d_branch2a (in-place)
I0613 21:30:20.447469 15760 net.cpp:150] Setting up bn3d_branch2a
I0613 21:30:20.447477 15760 net.cpp:157] Top shape: 1 128 120 160 (2457600)
I0613 21:30:20.447480 15760 net.cpp:165] Memory required for data: 3976396884
I0613 21:30:20.447525 15760 layer_factory.hpp:77] Creating layer scale3d_branch2a
I0613 21:30:20.447543 15760 net.cpp:100] Creating Layer scale3d_branch2a
I0613 21:30:20.447551 15760 net.cpp:444] scale3d_branch2a <- res3d_branch2a
I0613 21:30:20.447564 15760 net.cpp:405] scale3d_branch2a -> res3d_branch2a (in-place)
I0613 21:30:20.447635 15760 layer_factory.hpp:77] Creating layer scale3d_branch2a
I0613 21:30:20.447851 15760 net.cpp:150] Setting up scale3d_branch2a
I0613 21:30:20.447860 15760 net.cpp:157] Top shape: 1 128 120 160 (2457600)
I0613 21:30:20.447862 15760 net.cpp:165] Memory required for data: 3986227284
I0613 21:30:20.447876 15760 layer_factory.hpp:77] Creating layer res3d_branch2a_relu
I0613 21:30:20.447888 15760 net.cpp:100] Creating Layer res3d_branch2a_relu
I0613 21:30:20.447896 15760 net.cpp:444] res3d_branch2a_relu <- res3d_branch2a
I0613 21:30:20.447911 15760 net.cpp:405] res3d_branch2a_relu -> res3d_branch2a (in-place)
I0613 21:30:20.448379 15760 net.cpp:150] Setting up res3d_branch2a_relu
I0613 21:30:20.448388 15760 net.cpp:157] Top shape: 1 128 120 160 (2457600)
I0613 21:30:20.448391 15760 net.cpp:165] Memory required for data: 3996057684
I0613 21:30:20.448397 15760 layer_factory.hpp:77] Creating layer res3d_branch2b
I0613 21:30:20.448418 15760 net.cpp:100] Creating Layer res3d_branch2b
I0613 21:30:20.448426 15760 net.cpp:444] res3d_branch2b <- res3d_branch2a
I0613 21:30:20.448444 15760 net.cpp:418] res3d_branch2b -> res3d_branch2b
I0613 21:30:20.450464 15760 cudnn_conv_layer.cpp:194] Reallocating workspace storage: 3145728
I0613 21:30:20.450738 15760 net.cpp:150] Setting up res3d_branch2b
I0613 21:30:20.450754 15760 net.cpp:157] Top shape: 1 128 120 160 (2457600)
I0613 21:30:20.450758 15760 net.cpp:165] Memory required for data: 4005888084
I0613 21:30:20.450774 15760 layer_factory.hpp:77] Creating layer bn3d_branch2b
I0613 21:30:20.450796 15760 net.cpp:100] Creating Layer bn3d_branch2b
I0613 21:30:20.450804 15760 net.cpp:444] bn3d_branch2b <- res3d_branch2b
I0613 21:30:20.450821 15760 net.cpp:405] bn3d_branch2b -> res3d_branch2b (in-place)
I0613 21:30:20.451124 15760 net.cpp:150] Setting up bn3d_branch2b
I0613 21:30:20.451133 15760 net.cpp:157] Top shape: 1 128 120 160 (2457600)
I0613 21:30:20.451135 15760 net.cpp:165] Memory required for data: 4015718484
I0613 21:30:20.451154 15760 layer_factory.hpp:77] Creating layer scale3d_branch2b
I0613 21:30:20.451174 15760 net.cpp:100] Creating Layer scale3d_branch2b
I0613 21:30:20.451180 15760 net.cpp:444] scale3d_branch2b <- res3d_branch2b
I0613 21:30:20.451195 15760 net.cpp:405] scale3d_branch2b -> res3d_branch2b (in-place)
I0613 21:30:20.451269 15760 layer_factory.hpp:77] Creating layer scale3d_branch2b
I0613 21:30:20.451490 15760 net.cpp:150] Setting up scale3d_branch2b
I0613 21:30:20.451499 15760 net.cpp:157] Top shape: 1 128 120 160 (2457600)
I0613 21:30:20.451503 15760 net.cpp:165] Memory required for data: 4025548884
I0613 21:30:20.451515 15760 layer_factory.hpp:77] Creating layer res3d_branch2b_relu
I0613 21:30:20.451529 15760 net.cpp:100] Creating Layer res3d_branch2b_relu
I0613 21:30:20.451534 15760 net.cpp:444] res3d_branch2b_relu <- res3d_branch2b
I0613 21:30:20.451550 15760 net.cpp:405] res3d_branch2b_relu -> res3d_branch2b (in-place)
I0613 21:30:20.451723 15760 net.cpp:150] Setting up res3d_branch2b_relu
I0613 21:30:20.451731 15760 net.cpp:157] Top shape: 1 128 120 160 (2457600)
I0613 21:30:20.451735 15760 net.cpp:165] Memory required for data: 4035379284
I0613 21:30:20.451740 15760 layer_factory.hpp:77] Creating layer res3d_branch2c
I0613 21:30:20.451761 15760 net.cpp:100] Creating Layer res3d_branch2c
I0613 21:30:20.451767 15760 net.cpp:444] res3d_branch2c <- res3d_branch2b
I0613 21:30:20.451786 15760 net.cpp:418] res3d_branch2c -> res3d_branch2c
I0613 21:30:20.452927 15760 cudnn_conv_layer.cpp:194] Reallocating workspace storage: 352152
I0613 21:30:20.452950 15760 net.cpp:150] Setting up res3d_branch2c
I0613 21:30:20.452962 15760 net.cpp:157] Top shape: 1 512 120 160 (9830400)
I0613 21:30:20.452965 15760 net.cpp:165] Memory required for data: 4074700884
I0613 21:30:20.452980 15760 layer_factory.hpp:77] Creating layer bn3d_branch2c
I0613 21:30:20.452997 15760 net.cpp:100] Creating Layer bn3d_branch2c
I0613 21:30:20.453004 15760 net.cpp:444] bn3d_branch2c <- res3d_branch2c
I0613 21:30:20.453021 15760 net.cpp:405] bn3d_branch2c -> res3d_branch2c (in-place)
I0613 21:30:20.453317 15760 net.cpp:150] Setting up bn3d_branch2c
I0613 21:30:20.453325 15760 net.cpp:157] Top shape: 1 512 120 160 (9830400)
I0613 21:30:20.453328 15760 net.cpp:165] Memory required for data: 4114022484
I0613 21:30:20.453346 15760 layer_factory.hpp:77] Creating layer scale3d_branch2c
I0613 21:30:20.453363 15760 net.cpp:100] Creating Layer scale3d_branch2c
I0613 21:30:20.453371 15760 net.cpp:444] scale3d_branch2c <- res3d_branch2c
I0613 21:30:20.453385 15760 net.cpp:405] scale3d_branch2c -> res3d_branch2c (in-place)
I0613 21:30:20.453449 15760 layer_factory.hpp:77] Creating layer scale3d_branch2c
I0613 21:30:20.453670 15760 net.cpp:150] Setting up scale3d_branch2c
I0613 21:30:20.453677 15760 net.cpp:157] Top shape: 1 512 120 160 (9830400)
I0613 21:30:20.453680 15760 net.cpp:165] Memory required for data: 4153344084
I0613 21:30:20.453693 15760 layer_factory.hpp:77] Creating layer res3d
I0613 21:30:20.453706 15760 net.cpp:100] Creating Layer res3d
I0613 21:30:20.453713 15760 net.cpp:444] res3d <- res3c_res3c_relu_0_split_1
I0613 21:30:20.453725 15760 net.cpp:444] res3d <- res3d_branch2c
I0613 21:30:20.453737 15760 net.cpp:418] res3d -> res3d
I0613 21:30:20.453783 15760 net.cpp:150] Setting up res3d
I0613 21:30:20.453793 15760 net.cpp:157] Top shape: 1 512 120 160 (9830400)
I0613 21:30:20.453796 15760 net.cpp:165] Memory required for data: 4192665684
I0613 21:30:20.453802 15760 layer_factory.hpp:77] Creating layer res3d_relu
I0613 21:30:20.453814 15760 net.cpp:100] Creating Layer res3d_relu
I0613 21:30:20.453820 15760 net.cpp:444] res3d_relu <- res3d
I0613 21:30:20.453835 15760 net.cpp:405] res3d_relu -> res3d (in-place)
I0613 21:30:20.453987 15760 net.cpp:150] Setting up res3d_relu
I0613 21:30:20.453995 15760 net.cpp:157] Top shape: 1 512 120 160 (9830400)
I0613 21:30:20.453999 15760 net.cpp:165] Memory required for data: 4231987284
I0613 21:30:20.454005 15760 layer_factory.hpp:77] Creating layer res3d_res3d_relu_0_split
I0613 21:30:20.454016 15760 net.cpp:100] Creating Layer res3d_res3d_relu_0_split
I0613 21:30:20.454023 15760 net.cpp:444] res3d_res3d_relu_0_split <- res3d
I0613 21:30:20.454037 15760 net.cpp:418] res3d_res3d_relu_0_split -> res3d_res3d_relu_0_split_0
I0613 21:30:20.454056 15760 net.cpp:418] res3d_res3d_relu_0_split -> res3d_res3d_relu_0_split_1
I0613 21:30:20.454118 15760 net.cpp:150] Setting up res3d_res3d_relu_0_split
I0613 21:30:20.454128 15760 net.cpp:157] Top shape: 1 512 120 160 (9830400)
I0613 21:30:20.454133 15760 net.cpp:157] Top shape: 1 512 120 160 (9830400)
I0613 21:30:20.454138 15760 net.cpp:165] Memory required for data: 4310630484
I0613 21:30:20.454143 15760 layer_factory.hpp:77] Creating layer res4a_branch1
I0613 21:30:20.454160 15760 net.cpp:100] Creating Layer res4a_branch1
I0613 21:30:20.454167 15760 net.cpp:444] res4a_branch1 <- res3d_res3d_relu_0_split_0
I0613 21:30:20.454183 15760 net.cpp:418] res4a_branch1 -> res4a_branch1
I0613 21:30:20.456661 15760 cudnn_conv_layer.cpp:194] Reallocating workspace storage: 86424
I0613 21:30:20.456934 15760 net.cpp:150] Setting up res4a_branch1
I0613 21:30:20.456953 15760 net.cpp:157] Top shape: 1 1024 60 80 (4915200)
I0613 21:30:20.456957 15760 net.cpp:165] Memory required for data: 4330291284
I0613 21:30:20.456972 15760 layer_factory.hpp:77] Creating layer bn4a_branch1
I0613 21:30:20.456992 15760 net.cpp:100] Creating Layer bn4a_branch1
I0613 21:30:20.457000 15760 net.cpp:444] bn4a_branch1 <- res4a_branch1
I0613 21:30:20.457020 15760 net.cpp:405] bn4a_branch1 -> res4a_branch1 (in-place)
I0613 21:30:20.457306 15760 net.cpp:150] Setting up bn4a_branch1
I0613 21:30:20.457314 15760 net.cpp:157] Top shape: 1 1024 60 80 (4915200)
I0613 21:30:20.457317 15760 net.cpp:165] Memory required for data: 4349952084
I0613 21:30:20.457336 15760 layer_factory.hpp:77] Creating layer scale4a_branch1
I0613 21:30:20.457352 15760 net.cpp:100] Creating Layer scale4a_branch1
I0613 21:30:20.457358 15760 net.cpp:444] scale4a_branch1 <- res4a_branch1
I0613 21:30:20.457375 15760 net.cpp:405] scale4a_branch1 -> res4a_branch1 (in-place)
I0613 21:30:20.457440 15760 layer_factory.hpp:77] Creating layer scale4a_branch1
I0613 21:30:20.457641 15760 net.cpp:150] Setting up scale4a_branch1
I0613 21:30:20.457649 15760 net.cpp:157] Top shape: 1 1024 60 80 (4915200)
I0613 21:30:20.457653 15760 net.cpp:165] Memory required for data: 4369612884
I0613 21:30:20.457665 15760 layer_factory.hpp:77] Creating layer res4a_branch2a
I0613 21:30:20.457684 15760 net.cpp:100] Creating Layer res4a_branch2a
I0613 21:30:20.457691 15760 net.cpp:444] res4a_branch2a <- res3d_res3d_relu_0_split_1
I0613 21:30:20.457707 15760 net.cpp:418] res4a_branch2a -> res4a_branch2a
I0613 21:30:20.458876 15760 cudnn_conv_layer.cpp:194] Reallocating workspace storage: 86424
I0613 21:30:20.458900 15760 net.cpp:150] Setting up res4a_branch2a
I0613 21:30:20.458909 15760 net.cpp:157] Top shape: 1 256 60 80 (1228800)
I0613 21:30:20.458914 15760 net.cpp:165] Memory required for data: 4374528084
I0613 21:30:20.458927 15760 layer_factory.hpp:77] Creating layer bn4a_branch2a
I0613 21:30:20.458943 15760 net.cpp:100] Creating Layer bn4a_branch2a
I0613 21:30:20.458950 15760 net.cpp:444] bn4a_branch2a <- res4a_branch2a
I0613 21:30:20.458968 15760 net.cpp:405] bn4a_branch2a -> res4a_branch2a (in-place)
I0613 21:30:20.459251 15760 net.cpp:150] Setting up bn4a_branch2a
I0613 21:30:20.459259 15760 net.cpp:157] Top shape: 1 256 60 80 (1228800)
I0613 21:30:20.459262 15760 net.cpp:165] Memory required for data: 4379443284
I0613 21:30:20.459280 15760 layer_factory.hpp:77] Creating layer scale4a_branch2a
I0613 21:30:20.459295 15760 net.cpp:100] Creating Layer scale4a_branch2a
I0613 21:30:20.459301 15760 net.cpp:444] scale4a_branch2a <- res4a_branch2a
I0613 21:30:20.459317 15760 net.cpp:405] scale4a_branch2a -> res4a_branch2a (in-place)
I0613 21:30:20.459385 15760 layer_factory.hpp:77] Creating layer scale4a_branch2a
I0613 21:30:20.459576 15760 net.cpp:150] Setting up scale4a_branch2a
I0613 21:30:20.459584 15760 net.cpp:157] Top shape: 1 256 60 80 (1228800)
I0613 21:30:20.459587 15760 net.cpp:165] Memory required for data: 4384358484
I0613 21:30:20.459600 15760 layer_factory.hpp:77] Creating layer res4a_branch2a_relu
I0613 21:30:20.459614 15760 net.cpp:100] Creating Layer res4a_branch2a_relu
I0613 21:30:20.459619 15760 net.cpp:444] res4a_branch2a_relu <- res4a_branch2a
I0613 21:30:20.459635 15760 net.cpp:405] res4a_branch2a_relu -> res4a_branch2a (in-place)
I0613 21:30:20.460089 15760 net.cpp:150] Setting up res4a_branch2a_relu
I0613 21:30:20.460100 15760 net.cpp:157] Top shape: 1 256 60 80 (1228800)
I0613 21:30:20.460103 15760 net.cpp:165] Memory required for data: 4389273684
I0613 21:30:20.460109 15760 layer_factory.hpp:77] Creating layer res4a_branch2b
I0613 21:30:20.460137 15760 net.cpp:100] Creating Layer res4a_branch2b
I0613 21:30:20.460145 15760 net.cpp:444] res4a_branch2b <- res4a_branch2a
I0613 21:30:20.460165 15760 net.cpp:418] res4a_branch2b -> res4a_branch2b
I0613 21:30:20.464349 15760 cudnn_conv_layer.cpp:194] Reallocating workspace storage: 12582912
I0613 21:30:20.464646 15760 net.cpp:150] Setting up res4a_branch2b
I0613 21:30:20.464664 15760 net.cpp:157] Top shape: 1 256 60 80 (1228800)
I0613 21:30:20.464668 15760 net.cpp:165] Memory required for data: 4394188884
I0613 21:30:20.464687 15760 layer_factory.hpp:77] Creating layer bn4a_branch2b
I0613 21:30:20.464715 15760 net.cpp:100] Creating Layer bn4a_branch2b
I0613 21:30:20.464725 15760 net.cpp:444] bn4a_branch2b <- res4a_branch2b
I0613 21:30:20.464745 15760 net.cpp:405] bn4a_branch2b -> res4a_branch2b (in-place)
I0613 21:30:20.465078 15760 net.cpp:150] Setting up bn4a_branch2b
I0613 21:30:20.465087 15760 net.cpp:157] Top shape: 1 256 60 80 (1228800)
I0613 21:30:20.465091 15760 net.cpp:165] Memory required for data: 4399104084
I0613 21:30:20.465111 15760 layer_factory.hpp:77] Creating layer scale4a_branch2b
I0613 21:30:20.465131 15760 net.cpp:100] Creating Layer scale4a_branch2b
I0613 21:30:20.465137 15760 net.cpp:444] scale4a_branch2b <- res4a_branch2b
I0613 21:30:20.465152 15760 net.cpp:405] scale4a_branch2b -> res4a_branch2b (in-place)
I0613 21:30:20.465225 15760 layer_factory.hpp:77] Creating layer scale4a_branch2b
I0613 21:30:20.465422 15760 net.cpp:150] Setting up scale4a_branch2b
I0613 21:30:20.465431 15760 net.cpp:157] Top shape: 1 256 60 80 (1228800)
I0613 21:30:20.465435 15760 net.cpp:165] Memory required for data: 4404019284
I0613 21:30:20.465448 15760 layer_factory.hpp:77] Creating layer res4a_branch2b_relu
I0613 21:30:20.465462 15760 net.cpp:100] Creating Layer res4a_branch2b_relu
I0613 21:30:20.465469 15760 net.cpp:444] res4a_branch2b_relu <- res4a_branch2b
I0613 21:30:20.465483 15760 net.cpp:405] res4a_branch2b_relu -> res4a_branch2b (in-place)
I0613 21:30:20.465648 15760 net.cpp:150] Setting up res4a_branch2b_relu
I0613 21:30:20.465657 15760 net.cpp:157] Top shape: 1 256 60 80 (1228800)
I0613 21:30:20.465661 15760 net.cpp:165] Memory required for data: 4408934484
I0613 21:30:20.465667 15760 layer_factory.hpp:77] Creating layer res4a_branch2c
I0613 21:30:20.465685 15760 net.cpp:100] Creating Layer res4a_branch2c
I0613 21:30:20.465692 15760 net.cpp:444] res4a_branch2c <- res4a_branch2b
I0613 21:30:20.465709 15760 net.cpp:418] res4a_branch2c -> res4a_branch2c
I0613 21:30:20.467897 15760 cudnn_conv_layer.cpp:194] Reallocating workspace storage: 92952
I0613 21:30:20.467923 15760 net.cpp:150] Setting up res4a_branch2c
I0613 21:30:20.467936 15760 net.cpp:157] Top shape: 1 1024 60 80 (4915200)
I0613 21:30:20.467939 15760 net.cpp:165] Memory required for data: 4428595284
I0613 21:30:20.467954 15760 layer_factory.hpp:77] Creating layer bn4a_branch2c
I0613 21:30:20.467977 15760 net.cpp:100] Creating Layer bn4a_branch2c
I0613 21:30:20.467984 15760 net.cpp:444] bn4a_branch2c <- res4a_branch2c
I0613 21:30:20.468003 15760 net.cpp:405] bn4a_branch2c -> res4a_branch2c (in-place)
I0613 21:30:20.468308 15760 net.cpp:150] Setting up bn4a_branch2c
I0613 21:30:20.468317 15760 net.cpp:157] Top shape: 1 1024 60 80 (4915200)
I0613 21:30:20.468320 15760 net.cpp:165] Memory required for data: 4448256084
I0613 21:30:20.468340 15760 layer_factory.hpp:77] Creating layer scale4a_branch2c
I0613 21:30:20.468356 15760 net.cpp:100] Creating Layer scale4a_branch2c
I0613 21:30:20.468364 15760 net.cpp:444] scale4a_branch2c <- res4a_branch2c
I0613 21:30:20.468379 15760 net.cpp:405] scale4a_branch2c -> res4a_branch2c (in-place)
I0613 21:30:20.468446 15760 layer_factory.hpp:77] Creating layer scale4a_branch2c
I0613 21:30:20.468649 15760 net.cpp:150] Setting up scale4a_branch2c
I0613 21:30:20.468657 15760 net.cpp:157] Top shape: 1 1024 60 80 (4915200)
I0613 21:30:20.468662 15760 net.cpp:165] Memory required for data: 4467916884
I0613 21:30:20.468673 15760 layer_factory.hpp:77] Creating layer res4a
I0613 21:30:20.468701 15760 net.cpp:100] Creating Layer res4a
I0613 21:30:20.468709 15760 net.cpp:444] res4a <- res4a_branch1
I0613 21:30:20.468721 15760 net.cpp:444] res4a <- res4a_branch2c
I0613 21:30:20.468734 15760 net.cpp:418] res4a -> res4a
I0613 21:30:20.468780 15760 net.cpp:150] Setting up res4a
I0613 21:30:20.468791 15760 net.cpp:157] Top shape: 1 1024 60 80 (4915200)
I0613 21:30:20.468794 15760 net.cpp:165] Memory required for data: 4487577684
I0613 21:30:20.468802 15760 layer_factory.hpp:77] Creating layer res4a_relu
I0613 21:30:20.468814 15760 net.cpp:100] Creating Layer res4a_relu
I0613 21:30:20.468821 15760 net.cpp:444] res4a_relu <- res4a
I0613 21:30:20.468833 15760 net.cpp:405] res4a_relu -> res4a (in-place)
I0613 21:30:20.468998 15760 net.cpp:150] Setting up res4a_relu
I0613 21:30:20.469007 15760 net.cpp:157] Top shape: 1 1024 60 80 (4915200)
I0613 21:30:20.469010 15760 net.cpp:165] Memory required for data: 4507238484
I0613 21:30:20.469017 15760 layer_factory.hpp:77] Creating layer res4a_res4a_relu_0_split
I0613 21:30:20.469029 15760 net.cpp:100] Creating Layer res4a_res4a_relu_0_split
I0613 21:30:20.469035 15760 net.cpp:444] res4a_res4a_relu_0_split <- res4a
I0613 21:30:20.469050 15760 net.cpp:418] res4a_res4a_relu_0_split -> res4a_res4a_relu_0_split_0
I0613 21:30:20.469067 15760 net.cpp:418] res4a_res4a_relu_0_split -> res4a_res4a_relu_0_split_1
I0613 21:30:20.469131 15760 net.cpp:150] Setting up res4a_res4a_relu_0_split
I0613 21:30:20.469142 15760 net.cpp:157] Top shape: 1 1024 60 80 (4915200)
I0613 21:30:20.469148 15760 net.cpp:157] Top shape: 1 1024 60 80 (4915200)
I0613 21:30:20.469152 15760 net.cpp:165] Memory required for data: 4546560084
I0613 21:30:20.469157 15760 layer_factory.hpp:77] Creating layer res4b_branch2a
I0613 21:30:20.469175 15760 net.cpp:100] Creating Layer res4b_branch2a
I0613 21:30:20.469182 15760 net.cpp:444] res4b_branch2a <- res4a_res4a_relu_0_split_0
I0613 21:30:20.469198 15760 net.cpp:418] res4b_branch2a -> res4b_branch2a
I0613 21:30:20.470607 15760 cudnn_conv_layer.cpp:194] Reallocating workspace storage: 92952
I0613 21:30:20.470631 15760 net.cpp:150] Setting up res4b_branch2a
I0613 21:30:20.470643 15760 net.cpp:157] Top shape: 1 256 60 80 (1228800)
I0613 21:30:20.470645 15760 net.cpp:165] Memory required for data: 4551475284
I0613 21:30:20.470659 15760 layer_factory.hpp:77] Creating layer bn4b_branch2a
I0613 21:30:20.470675 15760 net.cpp:100] Creating Layer bn4b_branch2a
I0613 21:30:20.470682 15760 net.cpp:444] bn4b_branch2a <- res4b_branch2a
I0613 21:30:20.470700 15760 net.cpp:405] bn4b_branch2a -> res4b_branch2a (in-place)
I0613 21:30:20.470985 15760 net.cpp:150] Setting up bn4b_branch2a
I0613 21:30:20.470994 15760 net.cpp:157] Top shape: 1 256 60 80 (1228800)
I0613 21:30:20.470999 15760 net.cpp:165] Memory required for data: 4556390484
I0613 21:30:20.471016 15760 layer_factory.hpp:77] Creating layer scale4b_branch2a
I0613 21:30:20.471031 15760 net.cpp:100] Creating Layer scale4b_branch2a
I0613 21:30:20.471037 15760 net.cpp:444] scale4b_branch2a <- res4b_branch2a
I0613 21:30:20.471053 15760 net.cpp:405] scale4b_branch2a -> res4b_branch2a (in-place)
I0613 21:30:20.471124 15760 layer_factory.hpp:77] Creating layer scale4b_branch2a
I0613 21:30:20.471321 15760 net.cpp:150] Setting up scale4b_branch2a
I0613 21:30:20.471329 15760 net.cpp:157] Top shape: 1 256 60 80 (1228800)
I0613 21:30:20.471333 15760 net.cpp:165] Memory required for data: 4561305684
I0613 21:30:20.471345 15760 layer_factory.hpp:77] Creating layer res4b_branch2a_relu
I0613 21:30:20.471357 15760 net.cpp:100] Creating Layer res4b_branch2a_relu
I0613 21:30:20.471364 15760 net.cpp:444] res4b_branch2a_relu <- res4b_branch2a
I0613 21:30:20.471377 15760 net.cpp:405] res4b_branch2a_relu -> res4b_branch2a (in-place)
I0613 21:30:20.471818 15760 net.cpp:150] Setting up res4b_branch2a_relu
I0613 21:30:20.471828 15760 net.cpp:157] Top shape: 1 256 60 80 (1228800)
I0613 21:30:20.471832 15760 net.cpp:165] Memory required for data: 4566220884
I0613 21:30:20.471838 15760 layer_factory.hpp:77] Creating layer res4b_branch2b
I0613 21:30:20.471856 15760 net.cpp:100] Creating Layer res4b_branch2b
I0613 21:30:20.471863 15760 net.cpp:444] res4b_branch2b <- res4b_branch2a
I0613 21:30:20.471882 15760 net.cpp:418] res4b_branch2b -> res4b_branch2b
I0613 21:30:20.474602 15760 cudnn_conv_layer.cpp:194] Reallocating workspace storage: 12582912
I0613 21:30:20.474900 15760 net.cpp:150] Setting up res4b_branch2b
I0613 21:30:20.474915 15760 net.cpp:157] Top shape: 1 256 60 80 (1228800)
I0613 21:30:20.474920 15760 net.cpp:165] Memory required for data: 4571136084
I0613 21:30:20.474936 15760 layer_factory.hpp:77] Creating layer bn4b_branch2b
I0613 21:30:20.474957 15760 net.cpp:100] Creating Layer bn4b_branch2b
I0613 21:30:20.474967 15760 net.cpp:444] bn4b_branch2b <- res4b_branch2b
I0613 21:30:20.474985 15760 net.cpp:405] bn4b_branch2b -> res4b_branch2b (in-place)
I0613 21:30:20.475288 15760 net.cpp:150] Setting up bn4b_branch2b
I0613 21:30:20.475296 15760 net.cpp:157] Top shape: 1 256 60 80 (1228800)
I0613 21:30:20.475299 15760 net.cpp:165] Memory required for data: 4576051284
I0613 21:30:20.475319 15760 layer_factory.hpp:77] Creating layer scale4b_branch2b
I0613 21:30:20.475337 15760 net.cpp:100] Creating Layer scale4b_branch2b
I0613 21:30:20.475344 15760 net.cpp:444] scale4b_branch2b <- res4b_branch2b
I0613 21:30:20.475358 15760 net.cpp:405] scale4b_branch2b -> res4b_branch2b (in-place)
I0613 21:30:20.475430 15760 layer_factory.hpp:77] Creating layer scale4b_branch2b
I0613 21:30:20.475630 15760 net.cpp:150] Setting up scale4b_branch2b
I0613 21:30:20.475638 15760 net.cpp:157] Top shape: 1 256 60 80 (1228800)
I0613 21:30:20.475641 15760 net.cpp:165] Memory required for data: 4580966484
I0613 21:30:20.475654 15760 layer_factory.hpp:77] Creating layer res4b_branch2b_relu
I0613 21:30:20.475667 15760 net.cpp:100] Creating Layer res4b_branch2b_relu
I0613 21:30:20.475673 15760 net.cpp:444] res4b_branch2b_relu <- res4b_branch2b
I0613 21:30:20.475688 15760 net.cpp:405] res4b_branch2b_relu -> res4b_branch2b (in-place)
I0613 21:30:20.475852 15760 net.cpp:150] Setting up res4b_branch2b_relu
I0613 21:30:20.475859 15760 net.cpp:157] Top shape: 1 256 60 80 (1228800)
I0613 21:30:20.475863 15760 net.cpp:165] Memory required for data: 4585881684
I0613 21:30:20.475869 15760 layer_factory.hpp:77] Creating layer res4b_branch2c
I0613 21:30:20.475888 15760 net.cpp:100] Creating Layer res4b_branch2c
I0613 21:30:20.475894 15760 net.cpp:444] res4b_branch2c <- res4b_branch2b
I0613 21:30:20.475911 15760 net.cpp:418] res4b_branch2c -> res4b_branch2c
I0613 21:30:20.478091 15760 cudnn_conv_layer.cpp:194] Reallocating workspace storage: 92952
I0613 21:30:20.478121 15760 net.cpp:150] Setting up res4b_branch2c
I0613 21:30:20.478132 15760 net.cpp:157] Top shape: 1 1024 60 80 (4915200)
I0613 21:30:20.478135 15760 net.cpp:165] Memory required for data: 4605542484
I0613 21:30:20.478150 15760 layer_factory.hpp:77] Creating layer bn4b_branch2c
I0613 21:30:20.478170 15760 net.cpp:100] Creating Layer bn4b_branch2c
I0613 21:30:20.478179 15760 net.cpp:444] bn4b_branch2c <- res4b_branch2c
I0613 21:30:20.478195 15760 net.cpp:405] bn4b_branch2c -> res4b_branch2c (in-place)
I0613 21:30:20.478502 15760 net.cpp:150] Setting up bn4b_branch2c
I0613 21:30:20.478509 15760 net.cpp:157] Top shape: 1 1024 60 80 (4915200)
I0613 21:30:20.478513 15760 net.cpp:165] Memory required for data: 4625203284
I0613 21:30:20.478533 15760 layer_factory.hpp:77] Creating layer scale4b_branch2c
I0613 21:30:20.478550 15760 net.cpp:100] Creating Layer scale4b_branch2c
I0613 21:30:20.478557 15760 net.cpp:444] scale4b_branch2c <- res4b_branch2c
I0613 21:30:20.478571 15760 net.cpp:405] scale4b_branch2c -> res4b_branch2c (in-place)
I0613 21:30:20.478641 15760 layer_factory.hpp:77] Creating layer scale4b_branch2c
I0613 21:30:20.478847 15760 net.cpp:150] Setting up scale4b_branch2c
I0613 21:30:20.478855 15760 net.cpp:157] Top shape: 1 1024 60 80 (4915200)
I0613 21:30:20.478859 15760 net.cpp:165] Memory required for data: 4644864084
I0613 21:30:20.478873 15760 layer_factory.hpp:77] Creating layer res4b
I0613 21:30:20.478886 15760 net.cpp:100] Creating Layer res4b
I0613 21:30:20.478893 15760 net.cpp:444] res4b <- res4a_res4a_relu_0_split_1
I0613 21:30:20.478905 15760 net.cpp:444] res4b <- res4b_branch2c
I0613 21:30:20.478917 15760 net.cpp:418] res4b -> res4b
I0613 21:30:20.478965 15760 net.cpp:150] Setting up res4b
I0613 21:30:20.478974 15760 net.cpp:157] Top shape: 1 1024 60 80 (4915200)
I0613 21:30:20.478978 15760 net.cpp:165] Memory required for data: 4664524884
I0613 21:30:20.478984 15760 layer_factory.hpp:77] Creating layer res4b_relu
I0613 21:30:20.478997 15760 net.cpp:100] Creating Layer res4b_relu
I0613 21:30:20.479003 15760 net.cpp:444] res4b_relu <- res4b
I0613 21:30:20.479017 15760 net.cpp:405] res4b_relu -> res4b (in-place)
I0613 21:30:20.479176 15760 net.cpp:150] Setting up res4b_relu
I0613 21:30:20.479183 15760 net.cpp:157] Top shape: 1 1024 60 80 (4915200)
I0613 21:30:20.479187 15760 net.cpp:165] Memory required for data: 4684185684
I0613 21:30:20.479192 15760 layer_factory.hpp:77] Creating layer res4b_res4b_relu_0_split
I0613 21:30:20.479204 15760 net.cpp:100] Creating Layer res4b_res4b_relu_0_split
I0613 21:30:20.479212 15760 net.cpp:444] res4b_res4b_relu_0_split <- res4b
I0613 21:30:20.479228 15760 net.cpp:418] res4b_res4b_relu_0_split -> res4b_res4b_relu_0_split_0
I0613 21:30:20.479244 15760 net.cpp:418] res4b_res4b_relu_0_split -> res4b_res4b_relu_0_split_1
I0613 21:30:20.479308 15760 net.cpp:150] Setting up res4b_res4b_relu_0_split
I0613 21:30:20.479318 15760 net.cpp:157] Top shape: 1 1024 60 80 (4915200)
I0613 21:30:20.479324 15760 net.cpp:157] Top shape: 1 1024 60 80 (4915200)
I0613 21:30:20.479328 15760 net.cpp:165] Memory required for data: 4723507284
I0613 21:30:20.479334 15760 layer_factory.hpp:77] Creating layer res4c_branch2a
I0613 21:30:20.479352 15760 net.cpp:100] Creating Layer res4c_branch2a
I0613 21:30:20.479358 15760 net.cpp:444] res4c_branch2a <- res4b_res4b_relu_0_split_0
I0613 21:30:20.479375 15760 net.cpp:418] res4c_branch2a -> res4c_branch2a
I0613 21:30:20.480917 15760 cudnn_conv_layer.cpp:194] Reallocating workspace storage: 92952
I0613 21:30:20.480959 15760 net.cpp:150] Setting up res4c_branch2a
I0613 21:30:20.480975 15760 net.cpp:157] Top shape: 1 256 60 80 (1228800)
I0613 21:30:20.480979 15760 net.cpp:165] Memory required for data: 4728422484
I0613 21:30:20.480999 15760 layer_factory.hpp:77] Creating layer bn4c_branch2a
I0613 21:30:20.481024 15760 net.cpp:100] Creating Layer bn4c_branch2a
I0613 21:30:20.481034 15760 net.cpp:444] bn4c_branch2a <- res4c_branch2a
I0613 21:30:20.481053 15760 net.cpp:405] bn4c_branch2a -> res4c_branch2a (in-place)
I0613 21:30:20.481359 15760 net.cpp:150] Setting up bn4c_branch2a
I0613 21:30:20.481366 15760 net.cpp:157] Top shape: 1 256 60 80 (1228800)
I0613 21:30:20.481370 15760 net.cpp:165] Memory required for data: 4733337684
I0613 21:30:20.481389 15760 layer_factory.hpp:77] Creating layer scale4c_branch2a
I0613 21:30:20.481405 15760 net.cpp:100] Creating Layer scale4c_branch2a
I0613 21:30:20.481412 15760 net.cpp:444] scale4c_branch2a <- res4c_branch2a
I0613 21:30:20.481427 15760 net.cpp:405] scale4c_branch2a -> res4c_branch2a (in-place)
I0613 21:30:20.481501 15760 layer_factory.hpp:77] Creating layer scale4c_branch2a
I0613 21:30:20.481703 15760 net.cpp:150] Setting up scale4c_branch2a
I0613 21:30:20.481711 15760 net.cpp:157] Top shape: 1 256 60 80 (1228800)
I0613 21:30:20.481714 15760 net.cpp:165] Memory required for data: 4738252884
I0613 21:30:20.481727 15760 layer_factory.hpp:77] Creating layer res4c_branch2a_relu
I0613 21:30:20.481740 15760 net.cpp:100] Creating Layer res4c_branch2a_relu
I0613 21:30:20.481746 15760 net.cpp:444] res4c_branch2a_relu <- res4c_branch2a
I0613 21:30:20.481761 15760 net.cpp:405] res4c_branch2a_relu -> res4c_branch2a (in-place)
I0613 21:30:20.481921 15760 net.cpp:150] Setting up res4c_branch2a_relu
I0613 21:30:20.481930 15760 net.cpp:157] Top shape: 1 256 60 80 (1228800)
I0613 21:30:20.481932 15760 net.cpp:165] Memory required for data: 4743168084
I0613 21:30:20.481938 15760 layer_factory.hpp:77] Creating layer res4c_branch2b
I0613 21:30:20.481957 15760 net.cpp:100] Creating Layer res4c_branch2b
I0613 21:30:20.481964 15760 net.cpp:444] res4c_branch2b <- res4c_branch2a
I0613 21:30:20.481983 15760 net.cpp:418] res4c_branch2b -> res4c_branch2b
I0613 21:30:20.485302 15760 cudnn_conv_layer.cpp:194] Reallocating workspace storage: 12582912
I0613 21:30:20.485599 15760 net.cpp:150] Setting up res4c_branch2b
I0613 21:30:20.485618 15760 net.cpp:157] Top shape: 1 256 60 80 (1228800)
I0613 21:30:20.485622 15760 net.cpp:165] Memory required for data: 4748083284
I0613 21:30:20.485644 15760 layer_factory.hpp:77] Creating layer bn4c_branch2b
I0613 21:30:20.485671 15760 net.cpp:100] Creating Layer bn4c_branch2b
I0613 21:30:20.485683 15760 net.cpp:444] bn4c_branch2b <- res4c_branch2b
I0613 21:30:20.485704 15760 net.cpp:405] bn4c_branch2b -> res4c_branch2b (in-place)
I0613 21:30:20.486030 15760 net.cpp:150] Setting up bn4c_branch2b
I0613 21:30:20.486039 15760 net.cpp:157] Top shape: 1 256 60 80 (1228800)
I0613 21:30:20.486042 15760 net.cpp:165] Memory required for data: 4752998484
I0613 21:30:20.486063 15760 layer_factory.hpp:77] Creating layer scale4c_branch2b
I0613 21:30:20.486081 15760 net.cpp:100] Creating Layer scale4c_branch2b
I0613 21:30:20.486088 15760 net.cpp:444] scale4c_branch2b <- res4c_branch2b
I0613 21:30:20.486104 15760 net.cpp:405] scale4c_branch2b -> res4c_branch2b (in-place)
I0613 21:30:20.486177 15760 layer_factory.hpp:77] Creating layer scale4c_branch2b
I0613 21:30:20.486380 15760 net.cpp:150] Setting up scale4c_branch2b
I0613 21:30:20.486388 15760 net.cpp:157] Top shape: 1 256 60 80 (1228800)
I0613 21:30:20.486392 15760 net.cpp:165] Memory required for data: 4757913684
I0613 21:30:20.486404 15760 layer_factory.hpp:77] Creating layer res4c_branch2b_relu
I0613 21:30:20.486418 15760 net.cpp:100] Creating Layer res4c_branch2b_relu
I0613 21:30:20.486423 15760 net.cpp:444] res4c_branch2b_relu <- res4c_branch2b
I0613 21:30:20.486439 15760 net.cpp:405] res4c_branch2b_relu -> res4c_branch2b (in-place)
I0613 21:30:20.486871 15760 net.cpp:150] Setting up res4c_branch2b_relu
I0613 21:30:20.486881 15760 net.cpp:157] Top shape: 1 256 60 80 (1228800)
I0613 21:30:20.486884 15760 net.cpp:165] Memory required for data: 4762828884
I0613 21:30:20.486891 15760 layer_factory.hpp:77] Creating layer res4c_branch2c
I0613 21:30:20.486912 15760 net.cpp:100] Creating Layer res4c_branch2c
I0613 21:30:20.486918 15760 net.cpp:444] res4c_branch2c <- res4c_branch2b
I0613 21:30:20.486937 15760 net.cpp:418] res4c_branch2c -> res4c_branch2c
I0613 21:30:20.489100 15760 cudnn_conv_layer.cpp:194] Reallocating workspace storage: 92952
I0613 21:30:20.489128 15760 net.cpp:150] Setting up res4c_branch2c
I0613 21:30:20.489140 15760 net.cpp:157] Top shape: 1 1024 60 80 (4915200)
I0613 21:30:20.489145 15760 net.cpp:165] Memory required for data: 4782489684
I0613 21:30:20.489158 15760 layer_factory.hpp:77] Creating layer bn4c_branch2c
I0613 21:30:20.489177 15760 net.cpp:100] Creating Layer bn4c_branch2c
I0613 21:30:20.489186 15760 net.cpp:444] bn4c_branch2c <- res4c_branch2c
I0613 21:30:20.489203 15760 net.cpp:405] bn4c_branch2c -> res4c_branch2c (in-place)
I0613 21:30:20.489512 15760 net.cpp:150] Setting up bn4c_branch2c
I0613 21:30:20.489521 15760 net.cpp:157] Top shape: 1 1024 60 80 (4915200)
I0613 21:30:20.489523 15760 net.cpp:165] Memory required for data: 4802150484
I0613 21:30:20.489542 15760 layer_factory.hpp:77] Creating layer scale4c_branch2c
I0613 21:30:20.489559 15760 net.cpp:100] Creating Layer scale4c_branch2c
I0613 21:30:20.489567 15760 net.cpp:444] scale4c_branch2c <- res4c_branch2c
I0613 21:30:20.489580 15760 net.cpp:405] scale4c_branch2c -> res4c_branch2c (in-place)
I0613 21:30:20.489648 15760 layer_factory.hpp:77] Creating layer scale4c_branch2c
I0613 21:30:20.489856 15760 net.cpp:150] Setting up scale4c_branch2c
I0613 21:30:20.489864 15760 net.cpp:157] Top shape: 1 1024 60 80 (4915200)
I0613 21:30:20.489868 15760 net.cpp:165] Memory required for data: 4821811284
I0613 21:30:20.489881 15760 layer_factory.hpp:77] Creating layer res4c
I0613 21:30:20.489895 15760 net.cpp:100] Creating Layer res4c
I0613 21:30:20.489902 15760 net.cpp:444] res4c <- res4b_res4b_relu_0_split_1
I0613 21:30:20.489915 15760 net.cpp:444] res4c <- res4c_branch2c
I0613 21:30:20.489928 15760 net.cpp:418] res4c -> res4c
I0613 21:30:20.489975 15760 net.cpp:150] Setting up res4c
I0613 21:30:20.489984 15760 net.cpp:157] Top shape: 1 1024 60 80 (4915200)
I0613 21:30:20.489989 15760 net.cpp:165] Memory required for data: 4841472084
I0613 21:30:20.489995 15760 layer_factory.hpp:77] Creating layer res4c_relu
I0613 21:30:20.490006 15760 net.cpp:100] Creating Layer res4c_relu
I0613 21:30:20.490012 15760 net.cpp:444] res4c_relu <- res4c
I0613 21:30:20.490025 15760 net.cpp:405] res4c_relu -> res4c (in-place)
I0613 21:30:20.490183 15760 net.cpp:150] Setting up res4c_relu
I0613 21:30:20.490191 15760 net.cpp:157] Top shape: 1 1024 60 80 (4915200)
I0613 21:30:20.490195 15760 net.cpp:165] Memory required for data: 4861132884
I0613 21:30:20.490200 15760 layer_factory.hpp:77] Creating layer res4c_res4c_relu_0_split
I0613 21:30:20.490211 15760 net.cpp:100] Creating Layer res4c_res4c_relu_0_split
I0613 21:30:20.490218 15760 net.cpp:444] res4c_res4c_relu_0_split <- res4c
I0613 21:30:20.490234 15760 net.cpp:418] res4c_res4c_relu_0_split -> res4c_res4c_relu_0_split_0
I0613 21:30:20.490252 15760 net.cpp:418] res4c_res4c_relu_0_split -> res4c_res4c_relu_0_split_1
I0613 21:30:20.490317 15760 net.cpp:150] Setting up res4c_res4c_relu_0_split
I0613 21:30:20.490327 15760 net.cpp:157] Top shape: 1 1024 60 80 (4915200)
I0613 21:30:20.490334 15760 net.cpp:157] Top shape: 1 1024 60 80 (4915200)
I0613 21:30:20.490337 15760 net.cpp:165] Memory required for data: 4900454484
I0613 21:30:20.490342 15760 layer_factory.hpp:77] Creating layer res4d_branch2a
I0613 21:30:20.490360 15760 net.cpp:100] Creating Layer res4d_branch2a
I0613 21:30:20.490367 15760 net.cpp:444] res4d_branch2a <- res4c_res4c_relu_0_split_0
I0613 21:30:20.490384 15760 net.cpp:418] res4d_branch2a -> res4d_branch2a
I0613 21:30:20.491776 15760 cudnn_conv_layer.cpp:194] Reallocating workspace storage: 92952
I0613 21:30:20.491801 15760 net.cpp:150] Setting up res4d_branch2a
I0613 21:30:20.491811 15760 net.cpp:157] Top shape: 1 256 60 80 (1228800)
I0613 21:30:20.491814 15760 net.cpp:165] Memory required for data: 4905369684
I0613 21:30:20.491827 15760 layer_factory.hpp:77] Creating layer bn4d_branch2a
I0613 21:30:20.491842 15760 net.cpp:100] Creating Layer bn4d_branch2a
I0613 21:30:20.491849 15760 net.cpp:444] bn4d_branch2a <- res4d_branch2a
I0613 21:30:20.491866 15760 net.cpp:405] bn4d_branch2a -> res4d_branch2a (in-place)
I0613 21:30:20.492179 15760 net.cpp:150] Setting up bn4d_branch2a
I0613 21:30:20.492187 15760 net.cpp:157] Top shape: 1 256 60 80 (1228800)
I0613 21:30:20.492190 15760 net.cpp:165] Memory required for data: 4910284884
I0613 21:30:20.492209 15760 layer_factory.hpp:77] Creating layer scale4d_branch2a
I0613 21:30:20.492226 15760 net.cpp:100] Creating Layer scale4d_branch2a
I0613 21:30:20.492233 15760 net.cpp:444] scale4d_branch2a <- res4d_branch2a
I0613 21:30:20.492249 15760 net.cpp:405] scale4d_branch2a -> res4d_branch2a (in-place)
I0613 21:30:20.492321 15760 layer_factory.hpp:77] Creating layer scale4d_branch2a
I0613 21:30:20.492524 15760 net.cpp:150] Setting up scale4d_branch2a
I0613 21:30:20.492533 15760 net.cpp:157] Top shape: 1 256 60 80 (1228800)
I0613 21:30:20.492537 15760 net.cpp:165] Memory required for data: 4915200084
I0613 21:30:20.492549 15760 layer_factory.hpp:77] Creating layer res4d_branch2a_relu
I0613 21:30:20.492561 15760 net.cpp:100] Creating Layer res4d_branch2a_relu
I0613 21:30:20.492568 15760 net.cpp:444] res4d_branch2a_relu <- res4d_branch2a
I0613 21:30:20.492583 15760 net.cpp:405] res4d_branch2a_relu -> res4d_branch2a (in-place)
I0613 21:30:20.492740 15760 net.cpp:150] Setting up res4d_branch2a_relu
I0613 21:30:20.492748 15760 net.cpp:157] Top shape: 1 256 60 80 (1228800)
I0613 21:30:20.492751 15760 net.cpp:165] Memory required for data: 4920115284
I0613 21:30:20.492758 15760 layer_factory.hpp:77] Creating layer res4d_branch2b
I0613 21:30:20.492775 15760 net.cpp:100] Creating Layer res4d_branch2b
I0613 21:30:20.492782 15760 net.cpp:444] res4d_branch2b <- res4d_branch2a
I0613 21:30:20.492800 15760 net.cpp:418] res4d_branch2b -> res4d_branch2b
I0613 21:30:20.495538 15760 cudnn_conv_layer.cpp:194] Reallocating workspace storage: 12582912
I0613 21:30:20.495848 15760 net.cpp:150] Setting up res4d_branch2b
I0613 21:30:20.495867 15760 net.cpp:157] Top shape: 1 256 60 80 (1228800)
I0613 21:30:20.495870 15760 net.cpp:165] Memory required for data: 4925030484
I0613 21:30:20.495892 15760 layer_factory.hpp:77] Creating layer bn4d_branch2b
I0613 21:30:20.495916 15760 net.cpp:100] Creating Layer bn4d_branch2b
I0613 21:30:20.495928 15760 net.cpp:444] bn4d_branch2b <- res4d_branch2b
I0613 21:30:20.495946 15760 net.cpp:405] bn4d_branch2b -> res4d_branch2b (in-place)
I0613 21:30:20.496266 15760 net.cpp:150] Setting up bn4d_branch2b
I0613 21:30:20.496274 15760 net.cpp:157] Top shape: 1 256 60 80 (1228800)
I0613 21:30:20.496279 15760 net.cpp:165] Memory required for data: 4929945684
I0613 21:30:20.496299 15760 layer_factory.hpp:77] Creating layer scale4d_branch2b
I0613 21:30:20.496316 15760 net.cpp:100] Creating Layer scale4d_branch2b
I0613 21:30:20.496323 15760 net.cpp:444] scale4d_branch2b <- res4d_branch2b
I0613 21:30:20.496338 15760 net.cpp:405] scale4d_branch2b -> res4d_branch2b (in-place)
I0613 21:30:20.496412 15760 layer_factory.hpp:77] Creating layer scale4d_branch2b
I0613 21:30:20.496623 15760 net.cpp:150] Setting up scale4d_branch2b
I0613 21:30:20.496631 15760 net.cpp:157] Top shape: 1 256 60 80 (1228800)
I0613 21:30:20.496634 15760 net.cpp:165] Memory required for data: 4934860884
I0613 21:30:20.496647 15760 layer_factory.hpp:77] Creating layer res4d_branch2b_relu
I0613 21:30:20.496661 15760 net.cpp:100] Creating Layer res4d_branch2b_relu
I0613 21:30:20.496668 15760 net.cpp:444] res4d_branch2b_relu <- res4d_branch2b
I0613 21:30:20.496681 15760 net.cpp:405] res4d_branch2b_relu -> res4d_branch2b (in-place)
I0613 21:30:20.497138 15760 net.cpp:150] Setting up res4d_branch2b_relu
I0613 21:30:20.497148 15760 net.cpp:157] Top shape: 1 256 60 80 (1228800)
I0613 21:30:20.497151 15760 net.cpp:165] Memory required for data: 4939776084
I0613 21:30:20.497157 15760 layer_factory.hpp:77] Creating layer res4d_branch2c
I0613 21:30:20.497179 15760 net.cpp:100] Creating Layer res4d_branch2c
I0613 21:30:20.497186 15760 net.cpp:444] res4d_branch2c <- res4d_branch2b
I0613 21:30:20.497205 15760 net.cpp:418] res4d_branch2c -> res4d_branch2c
I0613 21:30:20.499686 15760 cudnn_conv_layer.cpp:194] Reallocating workspace storage: 92952
I0613 21:30:20.499718 15760 net.cpp:150] Setting up res4d_branch2c
I0613 21:30:20.499733 15760 net.cpp:157] Top shape: 1 1024 60 80 (4915200)
I0613 21:30:20.499737 15760 net.cpp:165] Memory required for data: 4959436884
I0613 21:30:20.499755 15760 layer_factory.hpp:77] Creating layer bn4d_branch2c
I0613 21:30:20.499781 15760 net.cpp:100] Creating Layer bn4d_branch2c
I0613 21:30:20.499792 15760 net.cpp:444] bn4d_branch2c <- res4d_branch2c
I0613 21:30:20.499814 15760 net.cpp:405] bn4d_branch2c -> res4d_branch2c (in-place)
I0613 21:30:20.500134 15760 net.cpp:150] Setting up bn4d_branch2c
I0613 21:30:20.500142 15760 net.cpp:157] Top shape: 1 1024 60 80 (4915200)
I0613 21:30:20.500146 15760 net.cpp:165] Memory required for data: 4979097684
I0613 21:30:20.500165 15760 layer_factory.hpp:77] Creating layer scale4d_branch2c
I0613 21:30:20.500185 15760 net.cpp:100] Creating Layer scale4d_branch2c
I0613 21:30:20.500191 15760 net.cpp:444] scale4d_branch2c <- res4d_branch2c
I0613 21:30:20.500207 15760 net.cpp:405] scale4d_branch2c -> res4d_branch2c (in-place)
I0613 21:30:20.500282 15760 layer_factory.hpp:77] Creating layer scale4d_branch2c
I0613 21:30:20.500502 15760 net.cpp:150] Setting up scale4d_branch2c
I0613 21:30:20.500511 15760 net.cpp:157] Top shape: 1 1024 60 80 (4915200)
I0613 21:30:20.500514 15760 net.cpp:165] Memory required for data: 4998758484
I0613 21:30:20.500527 15760 layer_factory.hpp:77] Creating layer res4d
I0613 21:30:20.500540 15760 net.cpp:100] Creating Layer res4d
I0613 21:30:20.500548 15760 net.cpp:444] res4d <- res4c_res4c_relu_0_split_1
I0613 21:30:20.500560 15760 net.cpp:444] res4d <- res4d_branch2c
I0613 21:30:20.500572 15760 net.cpp:418] res4d -> res4d
I0613 21:30:20.500622 15760 net.cpp:150] Setting up res4d
I0613 21:30:20.500633 15760 net.cpp:157] Top shape: 1 1024 60 80 (4915200)
I0613 21:30:20.500636 15760 net.cpp:165] Memory required for data: 5018419284
I0613 21:30:20.500643 15760 layer_factory.hpp:77] Creating layer res4d_relu
I0613 21:30:20.500653 15760 net.cpp:100] Creating Layer res4d_relu
I0613 21:30:20.500659 15760 net.cpp:444] res4d_relu <- res4d
I0613 21:30:20.500674 15760 net.cpp:405] res4d_relu -> res4d (in-place)
I0613 21:30:20.500843 15760 net.cpp:150] Setting up res4d_relu
I0613 21:30:20.500850 15760 net.cpp:157] Top shape: 1 1024 60 80 (4915200)
I0613 21:30:20.500854 15760 net.cpp:165] Memory required for data: 5038080084
I0613 21:30:20.500859 15760 layer_factory.hpp:77] Creating layer res4d_res4d_relu_0_split
I0613 21:30:20.500871 15760 net.cpp:100] Creating Layer res4d_res4d_relu_0_split
I0613 21:30:20.500877 15760 net.cpp:444] res4d_res4d_relu_0_split <- res4d
I0613 21:30:20.500893 15760 net.cpp:418] res4d_res4d_relu_0_split -> res4d_res4d_relu_0_split_0
I0613 21:30:20.500911 15760 net.cpp:418] res4d_res4d_relu_0_split -> res4d_res4d_relu_0_split_1
I0613 21:30:20.501006 15760 net.cpp:150] Setting up res4d_res4d_relu_0_split
I0613 21:30:20.501016 15760 net.cpp:157] Top shape: 1 1024 60 80 (4915200)
I0613 21:30:20.501024 15760 net.cpp:157] Top shape: 1 1024 60 80 (4915200)
I0613 21:30:20.501027 15760 net.cpp:165] Memory required for data: 5077401684
I0613 21:30:20.501032 15760 layer_factory.hpp:77] Creating layer res4e_branch2a
I0613 21:30:20.501051 15760 net.cpp:100] Creating Layer res4e_branch2a
I0613 21:30:20.501058 15760 net.cpp:444] res4e_branch2a <- res4d_res4d_relu_0_split_0
I0613 21:30:20.501076 15760 net.cpp:418] res4e_branch2a -> res4e_branch2a
I0613 21:30:20.502589 15760 cudnn_conv_layer.cpp:194] Reallocating workspace storage: 92952
I0613 21:30:20.502616 15760 net.cpp:150] Setting up res4e_branch2a
I0613 21:30:20.502627 15760 net.cpp:157] Top shape: 1 256 60 80 (1228800)
I0613 21:30:20.502631 15760 net.cpp:165] Memory required for data: 5082316884
I0613 21:30:20.502645 15760 layer_factory.hpp:77] Creating layer bn4e_branch2a
I0613 21:30:20.502661 15760 net.cpp:100] Creating Layer bn4e_branch2a
I0613 21:30:20.502668 15760 net.cpp:444] bn4e_branch2a <- res4e_branch2a
I0613 21:30:20.502686 15760 net.cpp:405] bn4e_branch2a -> res4e_branch2a (in-place)
I0613 21:30:20.502996 15760 net.cpp:150] Setting up bn4e_branch2a
I0613 21:30:20.503005 15760 net.cpp:157] Top shape: 1 256 60 80 (1228800)
I0613 21:30:20.503007 15760 net.cpp:165] Memory required for data: 5087232084
I0613 21:30:20.503027 15760 layer_factory.hpp:77] Creating layer scale4e_branch2a
I0613 21:30:20.503044 15760 net.cpp:100] Creating Layer scale4e_branch2a
I0613 21:30:20.503052 15760 net.cpp:444] scale4e_branch2a <- res4e_branch2a
I0613 21:30:20.503067 15760 net.cpp:405] scale4e_branch2a -> res4e_branch2a (in-place)
I0613 21:30:20.503140 15760 layer_factory.hpp:77] Creating layer scale4e_branch2a
I0613 21:30:20.503346 15760 net.cpp:150] Setting up scale4e_branch2a
I0613 21:30:20.503355 15760 net.cpp:157] Top shape: 1 256 60 80 (1228800)
I0613 21:30:20.503357 15760 net.cpp:165] Memory required for data: 5092147284
I0613 21:30:20.503371 15760 layer_factory.hpp:77] Creating layer res4e_branch2a_relu
I0613 21:30:20.503383 15760 net.cpp:100] Creating Layer res4e_branch2a_relu
I0613 21:30:20.503389 15760 net.cpp:444] res4e_branch2a_relu <- res4e_branch2a
I0613 21:30:20.503406 15760 net.cpp:405] res4e_branch2a_relu -> res4e_branch2a (in-place)
I0613 21:30:20.503561 15760 net.cpp:150] Setting up res4e_branch2a_relu
I0613 21:30:20.503568 15760 net.cpp:157] Top shape: 1 256 60 80 (1228800)
I0613 21:30:20.503572 15760 net.cpp:165] Memory required for data: 5097062484
I0613 21:30:20.503577 15760 layer_factory.hpp:77] Creating layer res4e_branch2b
I0613 21:30:20.503597 15760 net.cpp:100] Creating Layer res4e_branch2b
I0613 21:30:20.503603 15760 net.cpp:444] res4e_branch2b <- res4e_branch2a
I0613 21:30:20.503620 15760 net.cpp:418] res4e_branch2b -> res4e_branch2b
I0613 21:30:20.506366 15760 cudnn_conv_layer.cpp:194] Reallocating workspace storage: 12582912
I0613 21:30:20.506665 15760 net.cpp:150] Setting up res4e_branch2b
I0613 21:30:20.506680 15760 net.cpp:157] Top shape: 1 256 60 80 (1228800)
I0613 21:30:20.506683 15760 net.cpp:165] Memory required for data: 5101977684
I0613 21:30:20.506700 15760 layer_factory.hpp:77] Creating layer bn4e_branch2b
I0613 21:30:20.506722 15760 net.cpp:100] Creating Layer bn4e_branch2b
I0613 21:30:20.506731 15760 net.cpp:444] bn4e_branch2b <- res4e_branch2b
I0613 21:30:20.506750 15760 net.cpp:405] bn4e_branch2b -> res4e_branch2b (in-place)
I0613 21:30:20.507064 15760 net.cpp:150] Setting up bn4e_branch2b
I0613 21:30:20.507073 15760 net.cpp:157] Top shape: 1 256 60 80 (1228800)
I0613 21:30:20.507076 15760 net.cpp:165] Memory required for data: 5106892884
I0613 21:30:20.507097 15760 layer_factory.hpp:77] Creating layer scale4e_branch2b
I0613 21:30:20.507113 15760 net.cpp:100] Creating Layer scale4e_branch2b
I0613 21:30:20.507120 15760 net.cpp:444] scale4e_branch2b <- res4e_branch2b
I0613 21:30:20.507135 15760 net.cpp:405] scale4e_branch2b -> res4e_branch2b (in-place)
I0613 21:30:20.507210 15760 layer_factory.hpp:77] Creating layer scale4e_branch2b
I0613 21:30:20.507418 15760 net.cpp:150] Setting up scale4e_branch2b
I0613 21:30:20.507427 15760 net.cpp:157] Top shape: 1 256 60 80 (1228800)
I0613 21:30:20.507431 15760 net.cpp:165] Memory required for data: 5111808084
I0613 21:30:20.507443 15760 layer_factory.hpp:77] Creating layer res4e_branch2b_relu
I0613 21:30:20.507457 15760 net.cpp:100] Creating Layer res4e_branch2b_relu
I0613 21:30:20.507464 15760 net.cpp:444] res4e_branch2b_relu <- res4e_branch2b
I0613 21:30:20.507478 15760 net.cpp:405] res4e_branch2b_relu -> res4e_branch2b (in-place)
I0613 21:30:20.507913 15760 net.cpp:150] Setting up res4e_branch2b_relu
I0613 21:30:20.507922 15760 net.cpp:157] Top shape: 1 256 60 80 (1228800)
I0613 21:30:20.507926 15760 net.cpp:165] Memory required for data: 5116723284
I0613 21:30:20.507932 15760 layer_factory.hpp:77] Creating layer res4e_branch2c
I0613 21:30:20.507951 15760 net.cpp:100] Creating Layer res4e_branch2c
I0613 21:30:20.507959 15760 net.cpp:444] res4e_branch2c <- res4e_branch2b
I0613 21:30:20.507978 15760 net.cpp:418] res4e_branch2c -> res4e_branch2c
I0613 21:30:20.510179 15760 cudnn_conv_layer.cpp:194] Reallocating workspace storage: 92952
I0613 21:30:20.510208 15760 net.cpp:150] Setting up res4e_branch2c
I0613 21:30:20.510221 15760 net.cpp:157] Top shape: 1 1024 60 80 (4915200)
I0613 21:30:20.510224 15760 net.cpp:165] Memory required for data: 5136384084
I0613 21:30:20.510239 15760 layer_factory.hpp:77] Creating layer bn4e_branch2c
I0613 21:30:20.510262 15760 net.cpp:100] Creating Layer bn4e_branch2c
I0613 21:30:20.510270 15760 net.cpp:444] bn4e_branch2c <- res4e_branch2c
I0613 21:30:20.510289 15760 net.cpp:405] bn4e_branch2c -> res4e_branch2c (in-place)
I0613 21:30:20.510612 15760 net.cpp:150] Setting up bn4e_branch2c
I0613 21:30:20.510620 15760 net.cpp:157] Top shape: 1 1024 60 80 (4915200)
I0613 21:30:20.510625 15760 net.cpp:165] Memory required for data: 5156044884
I0613 21:30:20.510644 15760 layer_factory.hpp:77] Creating layer scale4e_branch2c
I0613 21:30:20.510660 15760 net.cpp:100] Creating Layer scale4e_branch2c
I0613 21:30:20.510666 15760 net.cpp:444] scale4e_branch2c <- res4e_branch2c
I0613 21:30:20.510682 15760 net.cpp:405] scale4e_branch2c -> res4e_branch2c (in-place)
I0613 21:30:20.510753 15760 layer_factory.hpp:77] Creating layer scale4e_branch2c
I0613 21:30:20.510969 15760 net.cpp:150] Setting up scale4e_branch2c
I0613 21:30:20.510977 15760 net.cpp:157] Top shape: 1 1024 60 80 (4915200)
I0613 21:30:20.510980 15760 net.cpp:165] Memory required for data: 5175705684
I0613 21:30:20.510993 15760 layer_factory.hpp:77] Creating layer res4e
I0613 21:30:20.511006 15760 net.cpp:100] Creating Layer res4e
I0613 21:30:20.511013 15760 net.cpp:444] res4e <- res4d_res4d_relu_0_split_1
I0613 21:30:20.511025 15760 net.cpp:444] res4e <- res4e_branch2c
I0613 21:30:20.511037 15760 net.cpp:418] res4e -> res4e
I0613 21:30:20.511086 15760 net.cpp:150] Setting up res4e
I0613 21:30:20.511096 15760 net.cpp:157] Top shape: 1 1024 60 80 (4915200)
I0613 21:30:20.511101 15760 net.cpp:165] Memory required for data: 5195366484
I0613 21:30:20.511106 15760 layer_factory.hpp:77] Creating layer res4e_relu
I0613 21:30:20.511118 15760 net.cpp:100] Creating Layer res4e_relu
I0613 21:30:20.511124 15760 net.cpp:444] res4e_relu <- res4e
I0613 21:30:20.511138 15760 net.cpp:405] res4e_relu -> res4e (in-place)
I0613 21:30:20.511296 15760 net.cpp:150] Setting up res4e_relu
I0613 21:30:20.511304 15760 net.cpp:157] Top shape: 1 1024 60 80 (4915200)
I0613 21:30:20.511307 15760 net.cpp:165] Memory required for data: 5215027284
I0613 21:30:20.511312 15760 layer_factory.hpp:77] Creating layer res4e_res4e_relu_0_split
I0613 21:30:20.511325 15760 net.cpp:100] Creating Layer res4e_res4e_relu_0_split
I0613 21:30:20.511332 15760 net.cpp:444] res4e_res4e_relu_0_split <- res4e
I0613 21:30:20.511348 15760 net.cpp:418] res4e_res4e_relu_0_split -> res4e_res4e_relu_0_split_0
I0613 21:30:20.511364 15760 net.cpp:418] res4e_res4e_relu_0_split -> res4e_res4e_relu_0_split_1
I0613 21:30:20.511432 15760 net.cpp:150] Setting up res4e_res4e_relu_0_split
I0613 21:30:20.511441 15760 net.cpp:157] Top shape: 1 1024 60 80 (4915200)
I0613 21:30:20.511448 15760 net.cpp:157] Top shape: 1 1024 60 80 (4915200)
I0613 21:30:20.511452 15760 net.cpp:165] Memory required for data: 5254348884
I0613 21:30:20.511457 15760 layer_factory.hpp:77] Creating layer res4f_branch2a
I0613 21:30:20.511476 15760 net.cpp:100] Creating Layer res4f_branch2a
I0613 21:30:20.511482 15760 net.cpp:444] res4f_branch2a <- res4e_res4e_relu_0_split_0
I0613 21:30:20.511499 15760 net.cpp:418] res4f_branch2a -> res4f_branch2a
I0613 21:30:20.513105 15760 cudnn_conv_layer.cpp:194] Reallocating workspace storage: 92952
I0613 21:30:20.513142 15760 net.cpp:150] Setting up res4f_branch2a
I0613 21:30:20.513159 15760 net.cpp:157] Top shape: 1 256 60 80 (1228800)
I0613 21:30:20.513162 15760 net.cpp:165] Memory required for data: 5259264084
I0613 21:30:20.513185 15760 layer_factory.hpp:77] Creating layer bn4f_branch2a
I0613 21:30:20.513214 15760 net.cpp:100] Creating Layer bn4f_branch2a
I0613 21:30:20.513226 15760 net.cpp:444] bn4f_branch2a <- res4f_branch2a
I0613 21:30:20.513247 15760 net.cpp:405] bn4f_branch2a -> res4f_branch2a (in-place)
I0613 21:30:20.513577 15760 net.cpp:150] Setting up bn4f_branch2a
I0613 21:30:20.513586 15760 net.cpp:157] Top shape: 1 256 60 80 (1228800)
I0613 21:30:20.513589 15760 net.cpp:165] Memory required for data: 5264179284
I0613 21:30:20.513608 15760 layer_factory.hpp:77] Creating layer scale4f_branch2a
I0613 21:30:20.513628 15760 net.cpp:100] Creating Layer scale4f_branch2a
I0613 21:30:20.513634 15760 net.cpp:444] scale4f_branch2a <- res4f_branch2a
I0613 21:30:20.513649 15760 net.cpp:405] scale4f_branch2a -> res4f_branch2a (in-place)
I0613 21:30:20.513725 15760 layer_factory.hpp:77] Creating layer scale4f_branch2a
I0613 21:30:20.513936 15760 net.cpp:150] Setting up scale4f_branch2a
I0613 21:30:20.513944 15760 net.cpp:157] Top shape: 1 256 60 80 (1228800)
I0613 21:30:20.513947 15760 net.cpp:165] Memory required for data: 5269094484
I0613 21:30:20.513960 15760 layer_factory.hpp:77] Creating layer res4f_branch2a_relu
I0613 21:30:20.513973 15760 net.cpp:100] Creating Layer res4f_branch2a_relu
I0613 21:30:20.513980 15760 net.cpp:444] res4f_branch2a_relu <- res4f_branch2a
I0613 21:30:20.513995 15760 net.cpp:405] res4f_branch2a_relu -> res4f_branch2a (in-place)
I0613 21:30:20.514163 15760 net.cpp:150] Setting up res4f_branch2a_relu
I0613 21:30:20.514170 15760 net.cpp:157] Top shape: 1 256 60 80 (1228800)
I0613 21:30:20.514173 15760 net.cpp:165] Memory required for data: 5274009684
I0613 21:30:20.514178 15760 layer_factory.hpp:77] Creating layer res4f_branch2b
I0613 21:30:20.514199 15760 net.cpp:100] Creating Layer res4f_branch2b
I0613 21:30:20.514205 15760 net.cpp:444] res4f_branch2b <- res4f_branch2a
I0613 21:30:20.514223 15760 net.cpp:418] res4f_branch2b -> res4f_branch2b
I0613 21:30:20.517066 15760 cudnn_conv_layer.cpp:194] Reallocating workspace storage: 12582912
I0613 21:30:20.517408 15760 net.cpp:150] Setting up res4f_branch2b
I0613 21:30:20.517431 15760 net.cpp:157] Top shape: 1 256 60 80 (1228800)
I0613 21:30:20.517434 15760 net.cpp:165] Memory required for data: 5278924884
I0613 21:30:20.517457 15760 layer_factory.hpp:77] Creating layer bn4f_branch2b
I0613 21:30:20.517488 15760 net.cpp:100] Creating Layer bn4f_branch2b
I0613 21:30:20.517499 15760 net.cpp:444] bn4f_branch2b <- res4f_branch2b
I0613 21:30:20.517522 15760 net.cpp:405] bn4f_branch2b -> res4f_branch2b (in-place)
I0613 21:30:20.517863 15760 net.cpp:150] Setting up bn4f_branch2b
I0613 21:30:20.517870 15760 net.cpp:157] Top shape: 1 256 60 80 (1228800)
I0613 21:30:20.517875 15760 net.cpp:165] Memory required for data: 5283840084
I0613 21:30:20.517896 15760 layer_factory.hpp:77] Creating layer scale4f_branch2b
I0613 21:30:20.517915 15760 net.cpp:100] Creating Layer scale4f_branch2b
I0613 21:30:20.517922 15760 net.cpp:444] scale4f_branch2b <- res4f_branch2b
I0613 21:30:20.517937 15760 net.cpp:405] scale4f_branch2b -> res4f_branch2b (in-place)
I0613 21:30:20.518013 15760 layer_factory.hpp:77] Creating layer scale4f_branch2b
I0613 21:30:20.518229 15760 net.cpp:150] Setting up scale4f_branch2b
I0613 21:30:20.518239 15760 net.cpp:157] Top shape: 1 256 60 80 (1228800)
I0613 21:30:20.518244 15760 net.cpp:165] Memory required for data: 5288755284
I0613 21:30:20.518256 15760 layer_factory.hpp:77] Creating layer res4f_branch2b_relu
I0613 21:30:20.518268 15760 net.cpp:100] Creating Layer res4f_branch2b_relu
I0613 21:30:20.518275 15760 net.cpp:444] res4f_branch2b_relu <- res4f_branch2b
I0613 21:30:20.518290 15760 net.cpp:405] res4f_branch2b_relu -> res4f_branch2b (in-place)
I0613 21:30:20.518462 15760 net.cpp:150] Setting up res4f_branch2b_relu
I0613 21:30:20.518471 15760 net.cpp:157] Top shape: 1 256 60 80 (1228800)
I0613 21:30:20.518476 15760 net.cpp:165] Memory required for data: 5293670484
I0613 21:30:20.518482 15760 layer_factory.hpp:77] Creating layer res4f_branch2c
I0613 21:30:20.518501 15760 net.cpp:100] Creating Layer res4f_branch2c
I0613 21:30:20.518507 15760 net.cpp:444] res4f_branch2c <- res4f_branch2b
I0613 21:30:20.518525 15760 net.cpp:418] res4f_branch2c -> res4f_branch2c
I0613 21:30:20.523643 15760 cudnn_conv_layer.cpp:194] Reallocating workspace storage: 92952
I0613 21:30:20.523679 15760 net.cpp:150] Setting up res4f_branch2c
I0613 21:30:20.523705 15760 net.cpp:157] Top shape: 1 1024 60 80 (4915200)
I0613 21:30:20.523708 15760 net.cpp:165] Memory required for data: 5313331284
I0613 21:30:20.523727 15760 layer_factory.hpp:77] Creating layer bn4f_branch2c
I0613 21:30:20.523752 15760 net.cpp:100] Creating Layer bn4f_branch2c
I0613 21:30:20.523764 15760 net.cpp:444] bn4f_branch2c <- res4f_branch2c
I0613 21:30:20.523784 15760 net.cpp:405] bn4f_branch2c -> res4f_branch2c (in-place)
I0613 21:30:20.524122 15760 net.cpp:150] Setting up bn4f_branch2c
I0613 21:30:20.524130 15760 net.cpp:157] Top shape: 1 1024 60 80 (4915200)
I0613 21:30:20.524134 15760 net.cpp:165] Memory required for data: 5332992084
I0613 21:30:20.524200 15760 layer_factory.hpp:77] Creating layer scale4f_branch2c
I0613 21:30:20.524220 15760 net.cpp:100] Creating Layer scale4f_branch2c
I0613 21:30:20.524227 15760 net.cpp:444] scale4f_branch2c <- res4f_branch2c
I0613 21:30:20.524242 15760 net.cpp:405] scale4f_branch2c -> res4f_branch2c (in-place)
I0613 21:30:20.524317 15760 layer_factory.hpp:77] Creating layer scale4f_branch2c
I0613 21:30:20.524540 15760 net.cpp:150] Setting up scale4f_branch2c
I0613 21:30:20.524549 15760 net.cpp:157] Top shape: 1 1024 60 80 (4915200)
I0613 21:30:20.524554 15760 net.cpp:165] Memory required for data: 5352652884
I0613 21:30:20.524566 15760 layer_factory.hpp:77] Creating layer res4f
I0613 21:30:20.524580 15760 net.cpp:100] Creating Layer res4f
I0613 21:30:20.524587 15760 net.cpp:444] res4f <- res4e_res4e_relu_0_split_1
I0613 21:30:20.524600 15760 net.cpp:444] res4f <- res4f_branch2c
I0613 21:30:20.524612 15760 net.cpp:418] res4f -> res4f
I0613 21:30:20.524663 15760 net.cpp:150] Setting up res4f
I0613 21:30:20.524674 15760 net.cpp:157] Top shape: 1 1024 60 80 (4915200)
I0613 21:30:20.524678 15760 net.cpp:165] Memory required for data: 5372313684
I0613 21:30:20.524683 15760 layer_factory.hpp:77] Creating layer res4f_relu
I0613 21:30:20.524695 15760 net.cpp:100] Creating Layer res4f_relu
I0613 21:30:20.524703 15760 net.cpp:444] res4f_relu <- res4f
I0613 21:30:20.524716 15760 net.cpp:405] res4f_relu -> res4f (in-place)
I0613 21:30:20.525270 15760 net.cpp:150] Setting up res4f_relu
I0613 21:30:20.525281 15760 net.cpp:157] Top shape: 1 1024 60 80 (4915200)
I0613 21:30:20.525285 15760 net.cpp:165] Memory required for data: 5391974484
I0613 21:30:20.525290 15760 layer_factory.hpp:77] Creating layer res4f_res4f_relu_0_split
I0613 21:30:20.525306 15760 net.cpp:100] Creating Layer res4f_res4f_relu_0_split
I0613 21:30:20.525315 15760 net.cpp:444] res4f_res4f_relu_0_split <- res4f
I0613 21:30:20.525331 15760 net.cpp:418] res4f_res4f_relu_0_split -> res4f_res4f_relu_0_split_0
I0613 21:30:20.525351 15760 net.cpp:418] res4f_res4f_relu_0_split -> res4f_res4f_relu_0_split_1
I0613 21:30:20.525365 15760 net.cpp:418] res4f_res4f_relu_0_split -> res4f_res4f_relu_0_split_2
I0613 21:30:20.525460 15760 net.cpp:150] Setting up res4f_res4f_relu_0_split
I0613 21:30:20.525470 15760 net.cpp:157] Top shape: 1 1024 60 80 (4915200)
I0613 21:30:20.525476 15760 net.cpp:157] Top shape: 1 1024 60 80 (4915200)
I0613 21:30:20.525482 15760 net.cpp:157] Top shape: 1 1024 60 80 (4915200)
I0613 21:30:20.525485 15760 net.cpp:165] Memory required for data: 5450956884
I0613 21:30:20.525491 15760 layer_factory.hpp:77] Creating layer res5a_branch1
I0613 21:30:20.525511 15760 net.cpp:100] Creating Layer res5a_branch1
I0613 21:30:20.525517 15760 net.cpp:444] res5a_branch1 <- res4f_res4f_relu_0_split_0
I0613 21:30:20.525535 15760 net.cpp:418] res5a_branch1 -> res5a_branch1
I0613 21:30:20.531718 15760 cudnn_conv_layer.cpp:194] Reallocating workspace storage: 86424
I0613 21:30:20.531757 15760 net.cpp:150] Setting up res5a_branch1
I0613 21:30:20.531776 15760 net.cpp:157] Top shape: 1 2048 60 80 (9830400)
I0613 21:30:20.531780 15760 net.cpp:165] Memory required for data: 5490278484
I0613 21:30:20.531805 15760 layer_factory.hpp:77] Creating layer bn5a_branch1
I0613 21:30:20.531836 15760 net.cpp:100] Creating Layer bn5a_branch1
I0613 21:30:20.531849 15760 net.cpp:444] bn5a_branch1 <- res5a_branch1
I0613 21:30:20.531872 15760 net.cpp:405] bn5a_branch1 -> res5a_branch1 (in-place)
I0613 21:30:20.532217 15760 net.cpp:150] Setting up bn5a_branch1
I0613 21:30:20.532225 15760 net.cpp:157] Top shape: 1 2048 60 80 (9830400)
I0613 21:30:20.532228 15760 net.cpp:165] Memory required for data: 5529600084
I0613 21:30:20.532248 15760 layer_factory.hpp:77] Creating layer scale5a_branch1
I0613 21:30:20.532268 15760 net.cpp:100] Creating Layer scale5a_branch1
I0613 21:30:20.532274 15760 net.cpp:444] scale5a_branch1 <- res5a_branch1
I0613 21:30:20.532289 15760 net.cpp:405] scale5a_branch1 -> res5a_branch1 (in-place)
I0613 21:30:20.532368 15760 layer_factory.hpp:77] Creating layer scale5a_branch1
I0613 21:30:20.532610 15760 net.cpp:150] Setting up scale5a_branch1
I0613 21:30:20.532619 15760 net.cpp:157] Top shape: 1 2048 60 80 (9830400)
I0613 21:30:20.532622 15760 net.cpp:165] Memory required for data: 5568921684
I0613 21:30:20.532635 15760 layer_factory.hpp:77] Creating layer res5a_branch2a
…
I0615 20:53:15.737484 23191 net.cpp:150] Setting up res4e_branch2c
I0615 20:53:15.737496 23191 net.cpp:157] Top shape: 1 1024 14 14 (200704)
I0615 20:53:15.737501 23191 net.cpp:165] Memory required for data: 208531468
I0615 20:53:15.737516 23191 layer_factory.hpp:77] Creating layer bn4e_branch2c
I0615 20:53:15.737536 23191 net.cpp:100] Creating Layer bn4e_branch2c
I0615 20:53:15.737545 23191 net.cpp:444] bn4e_branch2c <- res4e_branch2c
I0615 20:53:15.737565 23191 net.cpp:405] bn4e_branch2c -> res4e_branch2c (in-place)
I0615 20:53:15.737897 23191 net.cpp:150] Setting up bn4e_branch2c
I0615 20:53:15.737906 23191 net.cpp:157] Top shape: 1 1024 14 14 (200704)
I0615 20:53:15.737910 23191 net.cpp:165] Memory required for data: 209334284
I0615 20:53:15.737931 23191 layer_factory.hpp:77] Creating layer scale4e_branch2c
I0615 20:53:15.737948 23191 net.cpp:100] Creating Layer scale4e_branch2c
I0615 20:53:15.737957 23191 net.cpp:444] scale4e_branch2c <- res4e_branch2c
I0615 20:53:15.737974 23191 net.cpp:405] scale4e_branch2c -> res4e_branch2c (in-place)
I0615 20:53:15.738047 23191 layer_factory.hpp:77] Creating layer scale4e_branch2c
I0615 20:53:15.738260 23191 net.cpp:150] Setting up scale4e_branch2c
I0615 20:53:15.738268 23191 net.cpp:157] Top shape: 1 1024 14 14 (200704)
I0615 20:53:15.738272 23191 net.cpp:165] Memory required for data: 210137100
I0615 20:53:15.738287 23191 layer_factory.hpp:77] Creating layer res4e
I0615 20:53:15.738302 23191 net.cpp:100] Creating Layer res4e
I0615 20:53:15.738310 23191 net.cpp:444] res4e <- res4d_res4d_relu_0_split_1
I0615 20:53:15.738324 23191 net.cpp:444] res4e <- res4e_branch2c
I0615 20:53:15.738337 23191 net.cpp:418] res4e -> res4e
I0615 20:53:15.738390 23191 net.cpp:150] Setting up res4e
I0615 20:53:15.738401 23191 net.cpp:157] Top shape: 1 1024 14 14 (200704)
I0615 20:53:15.738406 23191 net.cpp:165] Memory required for data: 210939916
I0615 20:53:15.738412 23191 layer_factory.hpp:77] Creating layer res4e_relu
I0615 20:53:15.738425 23191 net.cpp:100] Creating Layer res4e_relu
I0615 20:53:15.738431 23191 net.cpp:444] res4e_relu <- res4e
I0615 20:53:15.738447 23191 net.cpp:405] res4e_relu -> res4e (in-place)
I0615 20:53:15.738622 23191 net.cpp:150] Setting up res4e_relu
I0615 20:53:15.738631 23191 net.cpp:157] Top shape: 1 1024 14 14 (200704)
I0615 20:53:15.738636 23191 net.cpp:165] Memory required for data: 211742732
I0615 20:53:15.738641 23191 layer_factory.hpp:77] Creating layer res4e_res4e_relu_0_split
I0615 20:53:15.738656 23191 net.cpp:100] Creating Layer res4e_res4e_relu_0_split
I0615 20:53:15.738662 23191 net.cpp:444] res4e_res4e_relu_0_split <- res4e
I0615 20:53:15.738680 23191 net.cpp:418] res4e_res4e_relu_0_split -> res4e_res4e_relu_0_split_0
I0615 20:53:15.738700 23191 net.cpp:418] res4e_res4e_relu_0_split -> res4e_res4e_relu_0_split_1
I0615 20:53:15.738771 23191 net.cpp:150] Setting up res4e_res4e_relu_0_split
I0615 20:53:15.738782 23191 net.cpp:157] Top shape: 1 1024 14 14 (200704)
I0615 20:53:15.738790 23191 net.cpp:157] Top shape: 1 1024 14 14 (200704)
I0615 20:53:15.738793 23191 net.cpp:165] Memory required for data: 213348364
I0615 20:53:15.738800 23191 layer_factory.hpp:77] Creating layer res4f_branch2a
I0615 20:53:15.738817 23191 net.cpp:100] Creating Layer res4f_branch2a
I0615 20:53:15.738824 23191 net.cpp:444] res4f_branch2a <- res4e_res4e_relu_0_split_0
I0615 20:53:15.738844 23191 net.cpp:418] res4f_branch2a -> res4f_branch2a
I0615 20:53:15.740372 23191 cudnn_conv_layer.cpp:194] Reallocating workspace storage: 10080
I0615 20:53:15.740399 23191 net.cpp:150] Setting up res4f_branch2a
I0615 20:53:15.740409 23191 net.cpp:157] Top shape: 1 256 14 14 (50176)
I0615 20:53:15.740414 23191 net.cpp:165] Memory required for data: 213549068
I0615 20:53:15.740427 23191 layer_factory.hpp:77] Creating layer bn4f_branch2a
I0615 20:53:15.740445 23191 net.cpp:100] Creating Layer bn4f_branch2a
I0615 20:53:15.740453 23191 net.cpp:444] bn4f_branch2a <- res4f_branch2a
I0615 20:53:15.740471 23191 net.cpp:405] bn4f_branch2a -> res4f_branch2a (in-place)
I0615 20:53:15.740793 23191 net.cpp:150] Setting up bn4f_branch2a
I0615 20:53:15.740802 23191 net.cpp:157] Top shape: 1 256 14 14 (50176)
I0615 20:53:15.740805 23191 net.cpp:165] Memory required for data: 213749772
I0615 20:53:15.740828 23191 layer_factory.hpp:77] Creating layer scale4f_branch2a
I0615 20:53:15.740844 23191 net.cpp:100] Creating Layer scale4f_branch2a
I0615 20:53:15.740850 23191 net.cpp:444] scale4f_branch2a <- res4f_branch2a
I0615 20:53:15.740869 23191 net.cpp:405] scale4f_branch2a -> res4f_branch2a (in-place)
I0615 20:53:15.740952 23191 layer_factory.hpp:77] Creating layer scale4f_branch2a
I0615 20:53:15.741168 23191 net.cpp:150] Setting up scale4f_branch2a
I0615 20:53:15.741176 23191 net.cpp:157] Top shape: 1 256 14 14 (50176)
I0615 20:53:15.741180 23191 net.cpp:165] Memory required for data: 213950476
I0615 20:53:15.741196 23191 layer_factory.hpp:77] Creating layer res4f_branch2a_relu
I0615 20:53:15.741209 23191 net.cpp:100] Creating Layer res4f_branch2a_relu
I0615 20:53:15.741217 23191 net.cpp:444] res4f_branch2a_relu <- res4f_branch2a
I0615 20:53:15.741233 23191 net.cpp:405] res4f_branch2a_relu -> res4f_branch2a (in-place)
I0615 20:53:15.741403 23191 net.cpp:150] Setting up res4f_branch2a_relu
I0615 20:53:15.741411 23191 net.cpp:157] Top shape: 1 256 14 14 (50176)
I0615 20:53:15.741415 23191 net.cpp:165] Memory required for data: 214151180
I0615 20:53:15.741421 23191 layer_factory.hpp:77] Creating layer res4f_branch2b
I0615 20:53:15.741441 23191 net.cpp:100] Creating Layer res4f_branch2b
I0615 20:53:15.741448 23191 net.cpp:444] res4f_branch2b <- res4f_branch2a
I0615 20:53:15.741469 23191 net.cpp:418] res4f_branch2b -> res4f_branch2b
I0615 20:53:15.744387 23191 cudnn_conv_layer.cpp:194] Reallocating workspace storage: 12582912
I0615 20:53:15.744707 23191 net.cpp:150] Setting up res4f_branch2b
I0615 20:53:15.744721 23191 net.cpp:157] Top shape: 1 256 14 14 (50176)
I0615 20:53:15.744726 23191 net.cpp:165] Memory required for data: 214351884
I0615 20:53:15.744742 23191 layer_factory.hpp:77] Creating layer bn4f_branch2b
I0615 20:53:15.744763 23191 net.cpp:100] Creating Layer bn4f_branch2b
I0615 20:53:15.744771 23191 net.cpp:444] bn4f_branch2b <- res4f_branch2b
I0615 20:53:15.744789 23191 net.cpp:405] bn4f_branch2b -> res4f_branch2b (in-place)
I0615 20:53:15.745158 23191 net.cpp:150] Setting up bn4f_branch2b
I0615 20:53:15.745167 23191 net.cpp:157] Top shape: 1 256 14 14 (50176)
I0615 20:53:15.745172 23191 net.cpp:165] Memory required for data: 214552588
I0615 20:53:15.745191 23191 layer_factory.hpp:77] Creating layer scale4f_branch2b
I0615 20:53:15.745210 23191 net.cpp:100] Creating Layer scale4f_branch2b
I0615 20:53:15.745218 23191 net.cpp:444] scale4f_branch2b <- res4f_branch2b
I0615 20:53:15.745234 23191 net.cpp:405] scale4f_branch2b -> res4f_branch2b (in-place)
I0615 20:53:15.745316 23191 layer_factory.hpp:77] Creating layer scale4f_branch2b
I0615 20:53:15.745519 23191 net.cpp:150] Setting up scale4f_branch2b
I0615 20:53:15.745528 23191 net.cpp:157] Top shape: 1 256 14 14 (50176)
I0615 20:53:15.745532 23191 net.cpp:165] Memory required for data: 214753292
I0615 20:53:15.745546 23191 layer_factory.hpp:77] Creating layer res4f_branch2b_relu
I0615 20:53:15.745559 23191 net.cpp:100] Creating Layer res4f_branch2b_relu
I0615 20:53:15.745568 23191 net.cpp:444] res4f_branch2b_relu <- res4f_branch2b
I0615 20:53:15.745584 23191 net.cpp:405] res4f_branch2b_relu -> res4f_branch2b (in-place)
I0615 20:53:15.745759 23191 net.cpp:150] Setting up res4f_branch2b_relu
I0615 20:53:15.745767 23191 net.cpp:157] Top shape: 1 256 14 14 (50176)
I0615 20:53:15.745771 23191 net.cpp:165] Memory required for data: 214953996
I0615 20:53:15.745779 23191 layer_factory.hpp:77] Creating layer res4f_branch2c
I0615 20:53:15.745797 23191 net.cpp:100] Creating Layer res4f_branch2c
I0615 20:53:15.745805 23191 net.cpp:444] res4f_branch2c <- res4f_branch2b
I0615 20:53:15.745824 23191 net.cpp:418] res4f_branch2c -> res4f_branch2c
I0615 20:53:15.748155 23191 cudnn_conv_layer.cpp:194] Reallocating workspace storage: 10080
I0615 20:53:15.748188 23191 net.cpp:150] Setting up res4f_branch2c
I0615 20:53:15.748198 23191 net.cpp:157] Top shape: 1 1024 14 14 (200704)
I0615 20:53:15.748203 23191 net.cpp:165] Memory required for data: 215756812
I0615 20:53:15.748216 23191 layer_factory.hpp:77] Creating layer bn4f_branch2c
I0615 20:53:15.748235 23191 net.cpp:100] Creating Layer bn4f_branch2c
I0615 20:53:15.748244 23191 net.cpp:444] bn4f_branch2c <- res4f_branch2c
I0615 20:53:15.748262 23191 net.cpp:405] bn4f_branch2c -> res4f_branch2c (in-place)
I0615 20:53:15.748600 23191 net.cpp:150] Setting up bn4f_branch2c
I0615 20:53:15.748610 23191 net.cpp:157] Top shape: 1 1024 14 14 (200704)
I0615 20:53:15.748613 23191 net.cpp:165] Memory required for data: 216559628
I0615 20:53:15.748672 23191 layer_factory.hpp:77] Creating layer scale4f_branch2c
I0615 20:53:15.748690 23191 net.cpp:100] Creating Layer scale4f_branch2c
I0615 20:53:15.748698 23191 net.cpp:444] scale4f_branch2c <- res4f_branch2c
I0615 20:53:15.748714 23191 net.cpp:405] scale4f_branch2c -> res4f_branch2c (in-place)
I0615 20:53:15.748791 23191 layer_factory.hpp:77] Creating layer scale4f_branch2c
I0615 20:53:15.749045 23191 net.cpp:150] Setting up scale4f_branch2c
I0615 20:53:15.749055 23191 net.cpp:157] Top shape: 1 1024 14 14 (200704)
I0615 20:53:15.749059 23191 net.cpp:165] Memory required for data: 217362444
I0615 20:53:15.749074 23191 layer_factory.hpp:77] Creating layer res4f
I0615 20:53:15.749089 23191 net.cpp:100] Creating Layer res4f
I0615 20:53:15.749097 23191 net.cpp:444] res4f <- res4e_res4e_relu_0_split_1
I0615 20:53:15.749111 23191 net.cpp:444] res4f <- res4f_branch2c
I0615 20:53:15.749125 23191 net.cpp:418] res4f -> res4f
I0615 20:53:15.749178 23191 net.cpp:150] Setting up res4f
I0615 20:53:15.749188 23191 net.cpp:157] Top shape: 1 1024 14 14 (200704)
I0615 20:53:15.749193 23191 net.cpp:165] Memory required for data: 218165260
I0615 20:53:15.749199 23191 layer_factory.hpp:77] Creating layer res4f_relu
I0615 20:53:15.749212 23191 net.cpp:100] Creating Layer res4f_relu
I0615 20:53:15.749218 23191 net.cpp:444] res4f_relu <- res4f
I0615 20:53:15.749234 23191 net.cpp:405] res4f_relu -> res4f (in-place)
I0615 20:53:15.749718 23191 net.cpp:150] Setting up res4f_relu
I0615 20:53:15.749728 23191 net.cpp:157] Top shape: 1 1024 14 14 (200704)
I0615 20:53:15.749732 23191 net.cpp:165] Memory required for data: 218968076
I0615 20:53:15.749739 23191 layer_factory.hpp:77] Creating layer res4f_res4f_relu_0_split
I0615 20:53:15.749755 23191 net.cpp:100] Creating Layer res4f_res4f_relu_0_split
I0615 20:53:15.749763 23191 net.cpp:444] res4f_res4f_relu_0_split <- res4f
I0615 20:53:15.749781 23191 net.cpp:418] res4f_res4f_relu_0_split -> res4f_res4f_relu_0_split_0
I0615 20:53:15.749800 23191 net.cpp:418] res4f_res4f_relu_0_split -> res4f_res4f_relu_0_split_1
I0615 20:53:15.749819 23191 net.cpp:418] res4f_res4f_relu_0_split -> res4f_res4f_relu_0_split_2
I0615 20:53:15.749917 23191 net.cpp:150] Setting up res4f_res4f_relu_0_split
I0615 20:53:15.749928 23191 net.cpp:157] Top shape: 1 1024 14 14 (200704)
I0615 20:53:15.749935 23191 net.cpp:157] Top shape: 1 1024 14 14 (200704)
I0615 20:53:15.749943 23191 net.cpp:157] Top shape: 1 1024 14 14 (200704)
I0615 20:53:15.749946 23191 net.cpp:165] Memory required for data: 221376524
I0615 20:53:15.749953 23191 layer_factory.hpp:77] Creating layer res5a_branch1
I0615 20:53:15.749972 23191 net.cpp:100] Creating Layer res5a_branch1
I0615 20:53:15.749980 23191 net.cpp:444] res5a_branch1 <- res4f_res4f_relu_0_split_0
I0615 20:53:15.750000 23191 net.cpp:418] res5a_branch1 -> res5a_branch1
I0615 20:53:15.756712 23191 cudnn_conv_layer.cpp:194] Reallocating workspace storage: 8568
I0615 20:53:15.756753 23191 net.cpp:150] Setting up res5a_branch1
I0615 20:53:15.756770 23191 net.cpp:157] Top shape: 1 2048 14 14 (401408)
I0615 20:53:15.756774 23191 net.cpp:165] Memory required for data: 222982156
I0615 20:53:15.756798 23191 layer_factory.hpp:77] Creating layer bn5a_branch1
I0615 20:53:15.756831 23191 net.cpp:100] Creating Layer bn5a_branch1
I0615 20:53:15.756844 23191 net.cpp:444] bn5a_branch1 <- res5a_branch1
I0615 20:53:15.756867 23191 net.cpp:405] bn5a_branch1 -> res5a_branch1 (in-place)
I0615 20:53:15.757283 23191 net.cpp:150] Setting up bn5a_branch1
I0615 20:53:15.757293 23191 net.cpp:157] Top shape: 1 2048 14 14 (401408)
I0615 20:53:15.757297 23191 net.cpp:165] Memory required for data: 224587788
I0615 20:53:15.757319 23191 layer_factory.hpp:77] Creating layer scale5a_branch1
I0615 20:53:15.757340 23191 net.cpp:100] Creating Layer scale5a_branch1
I0615 20:53:15.757349 23191 net.cpp:444] scale5a_branch1 <- res5a_branch1
I0615 20:53:15.757366 23191 net.cpp:405] scale5a_branch1 -> res5a_branch1 (in-place)
I0615 20:53:15.757448 23191 layer_factory.hpp:77] Creating layer scale5a_branch1
I0615 20:53:15.757666 23191 net.cpp:150] Setting up scale5a_branch1
I0615 20:53:15.757675 23191 net.cpp:157] Top shape: 1 2048 14 14 (401408)
I0615 20:53:15.757679 23191 net.cpp:165] Memory required for data: 226193420
I0615 20:53:15.757694 23191 layer_factory.hpp:77] Creating layer res5a_branch2a
I0615 20:53:15.757715 23191 net.cpp:100] Creating Layer res5a_branch2a
I0615 20:53:15.757724 23191 net.cpp:444] res5a_branch2a <- res4f_res4f_relu_0_split_1
I0615 20:53:15.757742 23191 net.cpp:418] res5a_branch2a -> res5a_branch2a
I0615 20:53:15.760866 23191 cudnn_conv_layer.cpp:194] Reallocating workspace storage: 10080
I0615 20:53:15.760898 23191 net.cpp:150] Setting up res5a_branch2a
I0615 20:53:15.760910 23191 net.cpp:157] Top shape: 1 512 14 14 (100352)
I0615 20:53:15.760915 23191 net.cpp:165] Memory required for data: 226594828
I0615 20:53:15.760931 23191 layer_factory.hpp:77] Creating layer bn5a_branch2a
I0615 20:53:15.760977 23191 net.cpp:100] Creating Layer bn5a_branch2a
I0615 20:53:15.760987 23191 net.cpp:444] bn5a_branch2a <- res5a_branch2a
I0615 20:53:15.761008 23191 net.cpp:405] bn5a_branch2a -> res5a_branch2a (in-place)
I0615 20:53:15.761350 23191 net.cpp:150] Setting up bn5a_branch2a
I0615 20:53:15.761359 23191 net.cpp:157] Top shape: 1 512 14 14 (100352)
I0615 20:53:15.761363 23191 net.cpp:165] Memory required for data: 226996236
I0615 20:53:15.761385 23191 layer_factory.hpp:77] Creating layer scale5a_branch2a
I0615 20:53:15.761404 23191 net.cpp:100] Creating Layer scale5a_branch2a
I0615 20:53:15.761412 23191 net.cpp:444] scale5a_branch2a <- res5a_branch2a
I0615 20:53:15.761430 23191 net.cpp:405] scale5a_branch2a -> res5a_branch2a (in-place)
I0615 20:53:15.761505 23191 layer_factory.hpp:77] Creating layer scale5a_branch2a
I0615 20:53:15.761719 23191 net.cpp:150] Setting up scale5a_branch2a
I0615 20:53:15.761729 23191 net.cpp:157] Top shape: 1 512 14 14 (100352)
I0615 20:53:15.761732 23191 net.cpp:165] Memory required for data: 227397644
I0615 20:53:15.761749 23191 layer_factory.hpp:77] Creating layer res5a_branch2a_relu
I0615 20:53:15.761764 23191 net.cpp:100] Creating Layer res5a_branch2a_relu
I0615 20:53:15.761771 23191 net.cpp:444] res5a_branch2a_relu <- res5a_branch2a
I0615 20:53:15.761787 23191 net.cpp:405] res5a_branch2a_relu -> res5a_branch2a (in-place)
I0615 20:53:15.761961 23191 net.cpp:150] Setting up res5a_branch2a_relu
I0615 20:53:15.761970 23191 net.cpp:157] Top shape: 1 512 14 14 (100352)
I0615 20:53:15.761975 23191 net.cpp:165] Memory required for data: 227799052
I0615 20:53:15.761981 23191 layer_factory.hpp:77] Creating layer res5a_branch2b
I0615 20:53:15.762001 23191 net.cpp:100] Creating Layer res5a_branch2b
I0615 20:53:15.762008 23191 net.cpp:444] res5a_branch2b <- res5a_branch2a
I0615 20:53:15.762028 23191 net.cpp:418] res5a_branch2b -> res5a_branch2b
I0615 20:53:15.768460 23191 net.cpp:150] Setting up res5a_branch2b
I0615 20:53:15.768492 23191 net.cpp:157] Top shape: 1 512 14 14 (100352)
I0615 20:53:15.768496 23191 net.cpp:165] Memory required for data: 228200460
I0615 20:53:15.768522 23191 layer_factory.hpp:77] Creating layer bn5a_branch2b
I0615 20:53:15.768556 23191 net.cpp:100] Creating Layer bn5a_branch2b
I0615 20:53:15.768570 23191 net.cpp:444] bn5a_branch2b <- res5a_branch2b
I0615 20:53:15.768592 23191 net.cpp:405] bn5a_branch2b -> res5a_branch2b (in-place)
I0615 20:53:15.768976 23191 net.cpp:150] Setting up bn5a_branch2b
I0615 20:53:15.768987 23191 net.cpp:157] Top shape: 1 512 14 14 (100352)
I0615 20:53:15.768990 23191 net.cpp:165] Memory required for data: 228601868
I0615 20:53:15.769016 23191 layer_factory.hpp:77] Creating layer scale5a_branch2b
I0615 20:53:15.769034 23191 net.cpp:100] Creating Layer scale5a_branch2b
I0615 20:53:15.769042 23191 net.cpp:444] scale5a_branch2b <- res5a_branch2b
I0615 20:53:15.769060 23191 net.cpp:405] scale5a_branch2b -> res5a_branch2b (in-place)
I0615 20:53:15.769146 23191 layer_factory.hpp:77] Creating layer scale5a_branch2b
I0615 20:53:15.769362 23191 net.cpp:150] Setting up scale5a_branch2b
I0615 20:53:15.769371 23191 net.cpp:157] Top shape: 1 512 14 14 (100352)
I0615 20:53:15.769376 23191 net.cpp:165] Memory required for data: 229003276
I0615 20:53:15.769390 23191 layer_factory.hpp:77] Creating layer res5a_branch2b_relu
I0615 20:53:15.769404 23191 net.cpp:100] Creating Layer res5a_branch2b_relu
I0615 20:53:15.769412 23191 net.cpp:444] res5a_branch2b_relu <- res5a_branch2b
I0615 20:53:15.769428 23191 net.cpp:405] res5a_branch2b_relu -> res5a_branch2b (in-place)
I0615 20:53:15.769640 23191 net.cpp:150] Setting up res5a_branch2b_relu
I0615 20:53:15.769649 23191 net.cpp:157] Top shape: 1 512 14 14 (100352)
I0615 20:53:15.769652 23191 net.cpp:165] Memory required for data: 229404684
I0615 20:53:15.769659 23191 layer_factory.hpp:77] Creating layer res5a_branch2c
I0615 20:53:15.769681 23191 net.cpp:100] Creating Layer res5a_branch2c
I0615 20:53:15.769688 23191 net.cpp:444] res5a_branch2c <- res5a_branch2b
I0615 20:53:15.769708 23191 net.cpp:418] res5a_branch2c -> res5a_branch2c
I0615 20:53:15.773900 23191 cudnn_conv_layer.cpp:194] Reallocating workspace storage: 7800
I0615 20:53:15.773941 23191 net.cpp:150] Setting up res5a_branch2c
I0615 20:53:15.773957 23191 net.cpp:157] Top shape: 1 2048 14 14 (401408)
I0615 20:53:15.773960 23191 net.cpp:165] Memory required for data: 231010316
I0615 20:53:15.773983 23191 layer_factory.hpp:77] Creating layer bn5a_branch2c
I0615 20:53:15.774011 23191 net.cpp:100] Creating Layer bn5a_branch2c
I0615 20:53:15.774022 23191 net.cpp:444] bn5a_branch2c <- res5a_branch2c
I0615 20:53:15.774044 23191 net.cpp:405] bn5a_branch2c -> res5a_branch2c (in-place)
I0615 20:53:15.774397 23191 net.cpp:150] Setting up bn5a_branch2c
I0615 20:53:15.774406 23191 net.cpp:157] Top shape: 1 2048 14 14 (401408)
I0615 20:53:15.774410 23191 net.cpp:165] Memory required for data: 232615948
I0615 20:53:15.774431 23191 layer_factory.hpp:77] Creating layer scale5a_branch2c
I0615 20:53:15.774451 23191 net.cpp:100] Creating Layer scale5a_branch2c
I0615 20:53:15.774458 23191 net.cpp:444] scale5a_branch2c <- res5a_branch2c
I0615 20:53:15.774474 23191 net.cpp:405] scale5a_branch2c -> res5a_branch2c (in-place)
I0615 20:53:15.774555 23191 layer_factory.hpp:77] Creating layer scale5a_branch2c
I0615 20:53:15.774776 23191 net.cpp:150] Setting up scale5a_branch2c
I0615 20:53:15.774786 23191 net.cpp:157] Top shape: 1 2048 14 14 (401408)
I0615 20:53:15.774790 23191 net.cpp:165] Memory required for data: 234221580
I0615 20:53:15.774806 23191 layer_factory.hpp:77] Creating layer res5a
I0615 20:53:15.774821 23191 net.cpp:100] Creating Layer res5a
I0615 20:53:15.774827 23191 net.cpp:444] res5a <- res5a_branch1
I0615 20:53:15.774842 23191 net.cpp:444] res5a <- res5a_branch2c
I0615 20:53:15.774853 23191 net.cpp:418] res5a -> res5a
I0615 20:53:15.774909 23191 net.cpp:150] Setting up res5a
I0615 20:53:15.774919 23191 net.cpp:157] Top shape: 1 2048 14 14 (401408)
I0615 20:53:15.774924 23191 net.cpp:165] Memory required for data: 235827212
I0615 20:53:15.774929 23191 layer_factory.hpp:77] Creating layer res5a_relu
I0615 20:53:15.774941 23191 net.cpp:100] Creating Layer res5a_relu
I0615 20:53:15.774948 23191 net.cpp:444] res5a_relu <- res5a
I0615 20:53:15.774963 23191 net.cpp:405] res5a_relu -> res5a (in-place)
I0615 20:53:15.775476 23191 net.cpp:150] Setting up res5a_relu
I0615 20:53:15.775488 23191 net.cpp:157] Top shape: 1 2048 14 14 (401408)
I0615 20:53:15.775492 23191 net.cpp:165] Memory required for data: 237432844
I0615 20:53:15.775501 23191 layer_factory.hpp:77] Creating layer res5a_res5a_relu_0_split
I0615 20:53:15.775516 23191 net.cpp:100] Creating Layer res5a_res5a_relu_0_split
I0615 20:53:15.775523 23191 net.cpp:444] res5a_res5a_relu_0_split <- res5a
I0615 20:53:15.775542 23191 net.cpp:418] res5a_res5a_relu_0_split -> res5a_res5a_relu_0_split_0
I0615 20:53:15.775563 23191 net.cpp:418] res5a_res5a_relu_0_split -> res5a_res5a_relu_0_split_1
I0615 20:53:15.775638 23191 net.cpp:150] Setting up res5a_res5a_relu_0_split
I0615 20:53:15.775650 23191 net.cpp:157] Top shape: 1 2048 14 14 (401408)
I0615 20:53:15.775656 23191 net.cpp:157] Top shape: 1 2048 14 14 (401408)
I0615 20:53:15.775660 23191 net.cpp:165] Memory required for data: 240644108
I0615 20:53:15.775666 23191 layer_factory.hpp:77] Creating layer res5b_branch2a
I0615 20:53:15.775687 23191 net.cpp:100] Creating Layer res5b_branch2a
I0615 20:53:15.775696 23191 net.cpp:444] res5b_branch2a <- res5a_res5a_relu_0_split_0
I0615 20:53:15.775714 23191 net.cpp:418] res5b_branch2a -> res5b_branch2a
I0615 20:53:15.779785 23191 cudnn_conv_layer.cpp:194] Reallocating workspace storage: 10080
I0615 20:53:15.779824 23191 net.cpp:150] Setting up res5b_branch2a
I0615 20:53:15.779840 23191 net.cpp:157] Top shape: 1 512 14 14 (100352)
I0615 20:53:15.779844 23191 net.cpp:165] Memory required for data: 241045516
I0615 20:53:15.779865 23191 layer_factory.hpp:77] Creating layer bn5b_branch2a
I0615 20:53:15.779891 23191 net.cpp:100] Creating Layer bn5b_branch2a
I0615 20:53:15.779902 23191 net.cpp:444] bn5b_branch2a <- res5b_branch2a
I0615 20:53:15.779923 23191 net.cpp:405] bn5b_branch2a -> res5b_branch2a (in-place)
I0615 20:53:15.780277 23191 net.cpp:150] Setting up bn5b_branch2a
I0615 20:53:15.780287 23191 net.cpp:157] Top shape: 1 512 14 14 (100352)
I0615 20:53:15.780290 23191 net.cpp:165] Memory required for data: 241446924
I0615 20:53:15.780310 23191 layer_factory.hpp:77] Creating layer scale5b_branch2a
I0615 20:53:15.780328 23191 net.cpp:100] Creating Layer scale5b_branch2a
I0615 20:53:15.780338 23191 net.cpp:444] scale5b_branch2a <- res5b_branch2a
I0615 20:53:15.780354 23191 net.cpp:405] scale5b_branch2a -> res5b_branch2a (in-place)
I0615 20:53:15.780433 23191 layer_factory.hpp:77] Creating layer scale5b_branch2a
I0615 20:53:15.780652 23191 net.cpp:150] Setting up scale5b_branch2a
I0615 20:53:15.780661 23191 net.cpp:157] Top shape: 1 512 14 14 (100352)
I0615 20:53:15.780664 23191 net.cpp:165] Memory required for data: 241848332
I0615 20:53:15.780679 23191 layer_factory.hpp:77] Creating layer res5b_branch2a_relu
I0615 20:53:15.780694 23191 net.cpp:100] Creating Layer res5b_branch2a_relu
I0615 20:53:15.780701 23191 net.cpp:444] res5b_branch2a_relu <- res5b_branch2a
I0615 20:53:15.780719 23191 net.cpp:405] res5b_branch2a_relu -> res5b_branch2a (in-place)
I0615 20:53:15.780894 23191 net.cpp:150] Setting up res5b_branch2a_relu
I0615 20:53:15.780902 23191 net.cpp:157] Top shape: 1 512 14 14 (100352)
I0615 20:53:15.780906 23191 net.cpp:165] Memory required for data: 242249740
I0615 20:53:15.780912 23191 layer_factory.hpp:77] Creating layer res5b_branch2b
I0615 20:53:15.780933 23191 net.cpp:100] Creating Layer res5b_branch2b
I0615 20:53:15.780953 23191 net.cpp:444] res5b_branch2b <- res5b_branch2a
I0615 20:53:15.780977 23191 net.cpp:418] res5b_branch2b -> res5b_branch2b
I0615 20:53:15.787382 23191 net.cpp:150] Setting up res5b_branch2b
I0615 20:53:15.787415 23191 net.cpp:157] Top shape: 1 512 14 14 (100352)
I0615 20:53:15.787418 23191 net.cpp:165] Memory required for data: 242651148
I0615 20:53:15.787443 23191 layer_factory.hpp:77] Creating layer bn5b_branch2b
I0615 20:53:15.787479 23191 net.cpp:100] Creating Layer bn5b_branch2b
I0615 20:53:15.787492 23191 net.cpp:444] bn5b_branch2b <- res5b_branch2b
I0615 20:53:15.787516 23191 net.cpp:405] bn5b_branch2b -> res5b_branch2b (in-place)
I0615 20:53:15.787878 23191 net.cpp:150] Setting up bn5b_branch2b
I0615 20:53:15.787887 23191 net.cpp:157] Top shape: 1 512 14 14 (100352)
I0615 20:53:15.787890 23191 net.cpp:165] Memory required for data: 243052556
I0615 20:53:15.787912 23191 layer_factory.hpp:77] Creating layer scale5b_branch2b
I0615 20:53:15.787933 23191 net.cpp:100] Creating Layer scale5b_branch2b
I0615 20:53:15.787941 23191 net.cpp:444] scale5b_branch2b <- res5b_branch2b
I0615 20:53:15.787957 23191 net.cpp:405] scale5b_branch2b -> res5b_branch2b (in-place)
I0615 20:53:15.788038 23191 layer_factory.hpp:77] Creating layer scale5b_branch2b
I0615 20:53:15.788264 23191 net.cpp:150] Setting up scale5b_branch2b
I0615 20:53:15.788275 23191 net.cpp:157] Top shape: 1 512 14 14 (100352)
I0615 20:53:15.788278 23191 net.cpp:165] Memory required for data: 243453964
I0615 20:53:15.788292 23191 layer_factory.hpp:77] Creating layer res5b_branch2b_relu
I0615 20:53:15.788307 23191 net.cpp:100] Creating Layer res5b_branch2b_relu
I0615 20:53:15.788316 23191 net.cpp:444] res5b_branch2b_relu <- res5b_branch2b
I0615 20:53:15.788331 23191 net.cpp:405] res5b_branch2b_relu -> res5b_branch2b (in-place)
I0615 20:53:15.788545 23191 net.cpp:150] Setting up res5b_branch2b_relu
I0615 20:53:15.788555 23191 net.cpp:157] Top shape: 1 512 14 14 (100352)
I0615 20:53:15.788560 23191 net.cpp:165] Memory required for data: 243855372
I0615 20:53:15.788568 23191 layer_factory.hpp:77] Creating layer res5b_branch2c
I0615 20:53:15.788588 23191 net.cpp:100] Creating Layer res5b_branch2c
I0615 20:53:15.788595 23191 net.cpp:444] res5b_branch2c <- res5b_branch2b
I0615 20:53:15.788614 23191 net.cpp:418] res5b_branch2c -> res5b_branch2c
I0615 20:53:15.792982 23191 cudnn_conv_layer.cpp:194] Reallocating workspace storage: 7800
I0615 20:53:15.793030 23191 net.cpp:150] Setting up res5b_branch2c
I0615 20:53:15.793047 23191 net.cpp:157] Top shape: 1 2048 14 14 (401408)
I0615 20:53:15.793051 23191 net.cpp:165] Memory required for data: 245461004
I0615 20:53:15.793076 23191 layer_factory.hpp:77] Creating layer bn5b_branch2c
I0615 20:53:15.793113 23191 net.cpp:100] Creating Layer bn5b_branch2c
I0615 20:53:15.793128 23191 net.cpp:444] bn5b_branch2c <- res5b_branch2c
I0615 20:53:15.793154 23191 net.cpp:405] bn5b_branch2c -> res5b_branch2c (in-place)
I0615 20:53:15.793521 23191 net.cpp:150] Setting up bn5b_branch2c
I0615 20:53:15.793529 23191 net.cpp:157] Top shape: 1 2048 14 14 (401408)
I0615 20:53:15.793534 23191 net.cpp:165] Memory required for data: 247066636
I0615 20:53:15.793556 23191 layer_factory.hpp:77] Creating layer scale5b_branch2c
I0615 20:53:15.793576 23191 net.cpp:100] Creating Layer scale5b_branch2c
I0615 20:53:15.793584 23191 net.cpp:444] scale5b_branch2c <- res5b_branch2c
I0615 20:53:15.793602 23191 net.cpp:405] scale5b_branch2c -> res5b_branch2c (in-place)
I0615 20:53:15.793684 23191 layer_factory.hpp:77] Creating layer scale5b_branch2c
I0615 20:53:15.793911 23191 net.cpp:150] Setting up scale5b_branch2c
I0615 20:53:15.793920 23191 net.cpp:157] Top shape: 1 2048 14 14 (401408)
I0615 20:53:15.793925 23191 net.cpp:165] Memory required for data: 248672268
I0615 20:53:15.793938 23191 layer_factory.hpp:77] Creating layer res5b
I0615 20:53:15.793954 23191 net.cpp:100] Creating Layer res5b
I0615 20:53:15.793962 23191 net.cpp:444] res5b <- res5a_res5a_relu_0_split_1
I0615 20:53:15.793977 23191 net.cpp:444] res5b <- res5b_branch2c
I0615 20:53:15.793990 23191 net.cpp:418] res5b -> res5b
I0615 20:53:15.794045 23191 net.cpp:150] Setting up res5b
I0615 20:53:15.794056 23191 net.cpp:157] Top shape: 1 2048 14 14 (401408)
I0615 20:53:15.794061 23191 net.cpp:165] Memory required for data: 250277900
I0615 20:53:15.794066 23191 layer_factory.hpp:77] Creating layer res5b_relu
I0615 20:53:15.794080 23191 net.cpp:100] Creating Layer res5b_relu
I0615 20:53:15.794086 23191 net.cpp:444] res5b_relu <- res5b
I0615 20:53:15.794103 23191 net.cpp:405] res5b_relu -> res5b (in-place)
I0615 20:53:15.794636 23191 net.cpp:150] Setting up res5b_relu
I0615 20:53:15.794646 23191 net.cpp:157] Top shape: 1 2048 14 14 (401408)
I0615 20:53:15.794651 23191 net.cpp:165] Memory required for data: 251883532
I0615 20:53:15.794657 23191 layer_factory.hpp:77] Creating layer res5b_res5b_relu_0_split
I0615 20:53:15.794672 23191 net.cpp:100] Creating Layer res5b_res5b_relu_0_split
I0615 20:53:15.794679 23191 net.cpp:444] res5b_res5b_relu_0_split <- res5b
I0615 20:53:15.794698 23191 net.cpp:418] res5b_res5b_relu_0_split -> res5b_res5b_relu_0_split_0
I0615 20:53:15.794718 23191 net.cpp:418] res5b_res5b_relu_0_split -> res5b_res5b_relu_0_split_1
I0615 20:53:15.794798 23191 net.cpp:150] Setting up res5b_res5b_relu_0_split
I0615 20:53:15.794808 23191 net.cpp:157] Top shape: 1 2048 14 14 (401408)
I0615 20:53:15.794816 23191 net.cpp:157] Top shape: 1 2048 14 14 (401408)
I0615 20:53:15.794821 23191 net.cpp:165] Memory required for data: 255094796
I0615 20:53:15.794826 23191 layer_factory.hpp:77] Creating layer res5c_branch2a
I0615 20:53:15.794847 23191 net.cpp:100] Creating Layer res5c_branch2a
I0615 20:53:15.794854 23191 net.cpp:444] res5c_branch2a <- res5b_res5b_relu_0_split_0
I0615 20:53:15.794873 23191 net.cpp:418] res5c_branch2a -> res5c_branch2a
I0615 20:53:15.798974 23191 cudnn_conv_layer.cpp:194] Reallocating workspace storage: 10080
I0615 20:53:15.799012 23191 net.cpp:150] Setting up res5c_branch2a
I0615 20:53:15.799027 23191 net.cpp:157] Top shape: 1 512 14 14 (100352)
I0615 20:53:15.799031 23191 net.cpp:165] Memory required for data: 255496204
I0615 20:53:15.799052 23191 layer_factory.hpp:77] Creating layer bn5c_branch2a
I0615 20:53:15.799080 23191 net.cpp:100] Creating Layer bn5c_branch2a
I0615 20:53:15.799091 23191 net.cpp:444] bn5c_branch2a <- res5c_branch2a
I0615 20:53:15.799114 23191 net.cpp:405] bn5c_branch2a -> res5c_branch2a (in-place)
I0615 20:53:15.799473 23191 net.cpp:150] Setting up bn5c_branch2a
I0615 20:53:15.799480 23191 net.cpp:157] Top shape: 1 512 14 14 (100352)
I0615 20:53:15.799484 23191 net.cpp:165] Memory required for data: 255897612
I0615 20:53:15.799506 23191 layer_factory.hpp:77] Creating layer scale5c_branch2a
I0615 20:53:15.799525 23191 net.cpp:100] Creating Layer scale5c_branch2a
I0615 20:53:15.799533 23191 net.cpp:444] scale5c_branch2a <- res5c_branch2a
I0615 20:53:15.799551 23191 net.cpp:405] scale5c_branch2a -> res5c_branch2a (in-place)
I0615 20:53:15.799628 23191 layer_factory.hpp:77] Creating layer scale5c_branch2a
I0615 20:53:15.799851 23191 net.cpp:150] Setting up scale5c_branch2a
I0615 20:53:15.799861 23191 net.cpp:157] Top shape: 1 512 14 14 (100352)
I0615 20:53:15.799865 23191 net.cpp:165] Memory required for data: 256299020
I0615 20:53:15.799880 23191 layer_factory.hpp:77] Creating layer res5c_branch2a_relu
I0615 20:53:15.799896 23191 net.cpp:100] Creating Layer res5c_branch2a_relu
I0615 20:53:15.799902 23191 net.cpp:444] res5c_branch2a_relu <- res5c_branch2a
I0615 20:53:15.799918 23191 net.cpp:405] res5c_branch2a_relu -> res5c_branch2a (in-place)
I0615 20:53:15.800094 23191 net.cpp:150] Setting up res5c_branch2a_relu
I0615 20:53:15.800106 23191 net.cpp:157] Top shape: 1 512 14 14 (100352)
I0615 20:53:15.800109 23191 net.cpp:165] Memory required for data: 256700428
I0615 20:53:15.800117 23191 layer_factory.hpp:77] Creating layer res5c_branch2b
I0615 20:53:15.800135 23191 net.cpp:100] Creating Layer res5c_branch2b
I0615 20:53:15.800143 23191 net.cpp:444] res5c_branch2b <- res5c_branch2a
I0615 20:53:15.800168 23191 net.cpp:418] res5c_branch2b -> res5c_branch2b
I0615 20:53:15.806658 23191 net.cpp:150] Setting up res5c_branch2b
I0615 20:53:15.806690 23191 net.cpp:157] Top shape: 1 512 14 14 (100352)
I0615 20:53:15.806694 23191 net.cpp:165] Memory required for data: 257101836
I0615 20:53:15.806721 23191 layer_factory.hpp:77] Creating layer bn5c_branch2b
I0615 20:53:15.806756 23191 net.cpp:100] Creating Layer bn5c_branch2b
I0615 20:53:15.806771 23191 net.cpp:444] bn5c_branch2b <- res5c_branch2b
I0615 20:53:15.806797 23191 net.cpp:405] bn5c_branch2b -> res5c_branch2b (in-place)
I0615 20:53:15.807165 23191 net.cpp:150] Setting up bn5c_branch2b
I0615 20:53:15.807173 23191 net.cpp:157] Top shape: 1 512 14 14 (100352)
I0615 20:53:15.807178 23191 net.cpp:165] Memory required for data: 257503244
I0615 20:53:15.807198 23191 layer_factory.hpp:77] Creating layer scale5c_branch2b
I0615 20:53:15.807217 23191 net.cpp:100] Creating Layer scale5c_branch2b
I0615 20:53:15.807225 23191 net.cpp:444] scale5c_branch2b <- res5c_branch2b
I0615 20:53:15.807242 23191 net.cpp:405] scale5c_branch2b -> res5c_branch2b (in-place)
I0615 20:53:15.807323 23191 layer_factory.hpp:77] Creating layer scale5c_branch2b
I0615 20:53:15.807548 23191 net.cpp:150] Setting up scale5c_branch2b
I0615 20:53:15.807556 23191 net.cpp:157] Top shape: 1 512 14 14 (100352)
I0615 20:53:15.807560 23191 net.cpp:165] Memory required for data: 257904652
I0615 20:53:15.807575 23191 layer_factory.hpp:77] Creating layer res5c_branch2b_relu
I0615 20:53:15.807590 23191 net.cpp:100] Creating Layer res5c_branch2b_relu
I0615 20:53:15.807597 23191 net.cpp:444] res5c_branch2b_relu <- res5c_branch2b
I0615 20:53:15.807612 23191 net.cpp:405] res5c_branch2b_relu -> res5c_branch2b (in-place)
I0615 20:53:15.807832 23191 net.cpp:150] Setting up res5c_branch2b_relu
I0615 20:53:15.807842 23191 net.cpp:157] Top shape: 1 512 14 14 (100352)
I0615 20:53:15.807844 23191 net.cpp:165] Memory required for data: 258306060
I0615 20:53:15.807852 23191 layer_factory.hpp:77] Creating layer res5c_branch2c
I0615 20:53:15.807873 23191 net.cpp:100] Creating Layer res5c_branch2c
I0615 20:53:15.807880 23191 net.cpp:444] res5c_branch2c <- res5c_branch2b
I0615 20:53:15.807899 23191 net.cpp:418] res5c_branch2c -> res5c_branch2c
I0615 20:53:15.812144 23191 cudnn_conv_layer.cpp:194] Reallocating workspace storage: 7800
I0615 20:53:15.812183 23191 net.cpp:150] Setting up res5c_branch2c
I0615 20:53:15.812197 23191 net.cpp:157] Top shape: 1 2048 14 14 (401408)
I0615 20:53:15.812201 23191 net.cpp:165] Memory required for data: 259911692
I0615 20:53:15.812223 23191 layer_factory.hpp:77] Creating layer bn5c_branch2c
I0615 20:53:15.812250 23191 net.cpp:100] Creating Layer bn5c_branch2c
I0615 20:53:15.812263 23191 net.cpp:444] bn5c_branch2c <- res5c_branch2c
I0615 20:53:15.812283 23191 net.cpp:405] bn5c_branch2c -> res5c_branch2c (in-place)
I0615 20:53:15.812651 23191 net.cpp:150] Setting up bn5c_branch2c
I0615 20:53:15.812660 23191 net.cpp:157] Top shape: 1 2048 14 14 (401408)
I0615 20:53:15.812664 23191 net.cpp:165] Memory required for data: 261517324
I0615 20:53:15.812685 23191 layer_factory.hpp:77] Creating layer scale5c_branch2c
I0615 20:53:15.812703 23191 net.cpp:100] Creating Layer scale5c_branch2c
I0615 20:53:15.812711 23191 net.cpp:444] scale5c_branch2c <- res5c_branch2c
I0615 20:53:15.812729 23191 net.cpp:405] scale5c_branch2c -> res5c_branch2c (in-place)
I0615 20:53:15.812811 23191 layer_factory.hpp:77] Creating layer scale5c_branch2c
I0615 20:53:15.813081 23191 net.cpp:150] Setting up scale5c_branch2c
I0615 20:53:15.813091 23191 net.cpp:157] Top shape: 1 2048 14 14 (401408)
I0615 20:53:15.813096 23191 net.cpp:165] Memory required for data: 263122956
I0615 20:53:15.813109 23191 layer_factory.hpp:77] Creating layer res5c
I0615 20:53:15.813124 23191 net.cpp:100] Creating Layer res5c
I0615 20:53:15.813133 23191 net.cpp:444] res5c <- res5b_res5b_relu_0_split_1
I0615 20:53:15.813146 23191 net.cpp:444] res5c <- res5c_branch2c
I0615 20:53:15.813161 23191 net.cpp:418] res5c -> res5c
I0615 20:53:15.813215 23191 net.cpp:150] Setting up res5c
I0615 20:53:15.813226 23191 net.cpp:157] Top shape: 1 2048 14 14 (401408)
I0615 20:53:15.813231 23191 net.cpp:165] Memory required for data: 264728588
I0615 20:53:15.813237 23191 layer_factory.hpp:77] Creating layer res5c_relu
I0615 20:53:15.813251 23191 net.cpp:100] Creating Layer res5c_relu
I0615 20:53:15.813259 23191 net.cpp:444] res5c_relu <- res5c
I0615 20:53:15.813274 23191 net.cpp:405] res5c_relu -> res5c (in-place)
I0615 20:53:15.813449 23191 net.cpp:150] Setting up res5c_relu
I0615 20:53:15.813458 23191 net.cpp:157] Top shape: 1 2048 14 14 (401408)
I0615 20:53:15.813462 23191 net.cpp:165] Memory required for data: 266334220
I0615 20:53:15.813467 23191 layer_factory.hpp:77] Creating layer rpn_conv/3x3
I0615 20:53:15.813491 23191 net.cpp:100] Creating Layer rpn_conv/3x3
I0615 20:53:15.813500 23191 net.cpp:444] rpn_conv/3x3 <- res4f_res4f_relu_0_split_2
I0615 20:53:15.813520 23191 net.cpp:418] rpn_conv/3x3 -> rpn/output
I0615 20:53:16.401185 23191 cudnn_conv_layer.cpp:194] Reallocating workspace storage: 21676032
I0615 20:53:16.401558 23191 net.cpp:150] Setting up rpn_conv/3x3
I0615 20:53:16.401579 23191 net.cpp:157] Top shape: 1 512 14 14 (100352)
I0615 20:53:16.401583 23191 net.cpp:165] Memory required for data: 266735628
I0615 20:53:16.401608 23191 layer_factory.hpp:77] Creating layer rpn_relu/3x3
I0615 20:53:16.401635 23191 net.cpp:100] Creating Layer rpn_relu/3x3
I0615 20:53:16.401648 23191 net.cpp:444] rpn_relu/3x3 <- rpn/output
I0615 20:53:16.401669 23191 net.cpp:405] rpn_relu/3x3 -> rpn/output (in-place)
I0615 20:53:16.402165 23191 net.cpp:150] Setting up rpn_relu/3x3
I0615 20:53:16.402176 23191 net.cpp:157] Top shape: 1 512 14 14 (100352)
I0615 20:53:16.402181 23191 net.cpp:165] Memory required for data: 267137036
I0615 20:53:16.402187 23191 layer_factory.hpp:77] Creating layer rpn/output_rpn_relu/3x3_0_split
I0615 20:53:16.402202 23191 net.cpp:100] Creating Layer rpn/output_rpn_relu/3x3_0_split
I0615 20:53:16.402209 23191 net.cpp:444] rpn/output_rpn_relu/3x3_0_split <- rpn/output
I0615 20:53:16.402230 23191 net.cpp:418] rpn/output_rpn_relu/3x3_0_split -> rpn/output_rpn_relu/3x3_0_split_0
I0615 20:53:16.402251 23191 net.cpp:418] rpn/output_rpn_relu/3x3_0_split -> rpn/output_rpn_relu/3x3_0_split_1
I0615 20:53:16.402341 23191 net.cpp:150] Setting up rpn/output_rpn_relu/3x3_0_split
I0615 20:53:16.402351 23191 net.cpp:157] Top shape: 1 512 14 14 (100352)
I0615 20:53:16.402359 23191 net.cpp:157] Top shape: 1 512 14 14 (100352)
I0615 20:53:16.402362 23191 net.cpp:165] Memory required for data: 267939852
I0615 20:53:16.402369 23191 layer_factory.hpp:77] Creating layer rpn_cls_score
I0615 20:53:16.402393 23191 net.cpp:100] Creating Layer rpn_cls_score
I0615 20:53:16.402401 23191 net.cpp:444] rpn_cls_score <- rpn/output_rpn_relu/3x3_0_split_0
I0615 20:53:16.402423 23191 net.cpp:418] rpn_cls_score -> rpn_cls_score
I0615 20:53:16.407912 23191 cudnn_conv_layer.cpp:194] Reallocating workspace storage: 10080
I0615 20:53:16.407943 23191 net.cpp:150] Setting up rpn_cls_score
I0615 20:53:16.407954 23191 net.cpp:157] Top shape: 1 66 14 14 (12936)
I0615 20:53:16.407958 23191 net.cpp:165] Memory required for data: 267991596
I0615 20:53:16.407975 23191 layer_factory.hpp:77] Creating layer rpn_bbox_pred
I0615 20:53:16.407999 23191 net.cpp:100] Creating Layer rpn_bbox_pred
I0615 20:53:16.408007 23191 net.cpp:444] rpn_bbox_pred <- rpn/output_rpn_relu/3x3_0_split_1
I0615 20:53:16.408028 23191 net.cpp:418] rpn_bbox_pred -> rpn_bbox_pred
I0615 20:53:16.417901 23191 cudnn_conv_layer.cpp:194] Reallocating workspace storage: 10080
I0615 20:53:16.417943 23191 net.cpp:150] Setting up rpn_bbox_pred
I0615 20:53:16.417958 23191 net.cpp:157] Top shape: 1 132 14 14 (25872)
I0615 20:53:16.417961 23191 net.cpp:165] Memory required for data: 268095084
I0615 20:53:16.417985 23191 layer_factory.hpp:77] Creating layer rpn_cls_score_reshape
I0615 20:53:16.418014 23191 net.cpp:100] Creating Layer rpn_cls_score_reshape
I0615 20:53:16.418025 23191 net.cpp:444] rpn_cls_score_reshape <- rpn_cls_score
I0615 20:53:16.418051 23191 net.cpp:418] rpn_cls_score_reshape -> rpn_cls_score_reshape
I0615 20:53:16.418123 23191 net.cpp:150] Setting up rpn_cls_score_reshape
I0615 20:53:16.418134 23191 net.cpp:157] Top shape: 1 2 462 14 (12936)
I0615 20:53:16.418139 23191 net.cpp:165] Memory required for data: 268146828
I0615 20:53:16.418145 23191 layer_factory.hpp:77] Creating layer rpn_cls_prob
I0615 20:53:16.418159 23191 net.cpp:100] Creating Layer rpn_cls_prob
I0615 20:53:16.418167 23191 net.cpp:444] rpn_cls_prob <- rpn_cls_score_reshape
I0615 20:53:16.418184 23191 net.cpp:418] rpn_cls_prob -> rpn_cls_prob
I0615 20:53:16.418467 23191 net.cpp:150] Setting up rpn_cls_prob
I0615 20:53:16.418478 23191 net.cpp:157] Top shape: 1 2 462 14 (12936)
I0615 20:53:16.418483 23191 net.cpp:165] Memory required for data: 268198572
I0615 20:53:16.418489 23191 layer_factory.hpp:77] Creating layer rpn_cls_prob_reshape
I0615 20:53:16.418504 23191 net.cpp:100] Creating Layer rpn_cls_prob_reshape
I0615 20:53:16.418511 23191 net.cpp:444] rpn_cls_prob_reshape <- rpn_cls_prob
I0615 20:53:16.418529 23191 net.cpp:418] rpn_cls_prob_reshape -> rpn_cls_prob_reshape
I0615 20:53:16.418587 23191 net.cpp:150] Setting up rpn_cls_prob_reshape
I0615 20:53:16.418597 23191 net.cpp:157] Top shape: 1 66 14 14 (12936)
I0615 20:53:16.418601 23191 net.cpp:165] Memory required for data: 268250316
I0615 20:53:16.418607 23191 layer_factory.hpp:77] Creating layer proposal
I0615 20:53:16.418931 23191 net.cpp:100] Creating Layer proposal
I0615 20:53:16.418942 23191 net.cpp:444] proposal <- rpn_cls_prob_reshape
I0615 20:53:16.418957 23191 net.cpp:444] proposal <- rpn_bbox_pred
I0615 20:53:16.418968 23191 net.cpp:444] proposal <- im_info
I0615 20:53:16.418983 23191 net.cpp:418] proposal -> rois
I0615 20:53:16.420289 23191 net.cpp:150] Setting up proposal
I0615 20:53:16.420302 23191 net.cpp:157] Top shape: 1 5 (5)
I0615 20:53:16.420308 23191 net.cpp:165] Memory required for data: 268250336
I0615 20:53:16.420315 23191 layer_factory.hpp:77] Creating layer rois_proposal_0_split
I0615 20:53:16.420331 23191 net.cpp:100] Creating Layer rois_proposal_0_split
I0615 20:53:16.420338 23191 net.cpp:444] rois_proposal_0_split <- rois
I0615 20:53:16.420356 23191 net.cpp:418] rois_proposal_0_split -> rois_proposal_0_split_0
I0615 20:53:16.420377 23191 net.cpp:418] rois_proposal_0_split -> rois_proposal_0_split_1
I0615 20:53:16.420454 23191 net.cpp:150] Setting up rois_proposal_0_split
I0615 20:53:16.420464 23191 net.cpp:157] Top shape: 1 5 (5)
I0615 20:53:16.420471 23191 net.cpp:157] Top shape: 1 5 (5)
I0615 20:53:16.420475 23191 net.cpp:165] Memory required for data: 268250376
I0615 20:53:16.420481 23191 layer_factory.hpp:77] Creating layer conv_new_1
I0615 20:53:16.420506 23191 net.cpp:100] Creating Layer conv_new_1
I0615 20:53:16.420513 23191 net.cpp:444] conv_new_1 <- res5c
I0615 20:53:16.420533 23191 net.cpp:418] conv_new_1 -> conv_new_1
I0615 20:53:16.682829 23191 cudnn_conv_layer.cpp:194] Reallocating workspace storage: 10080
I0615 20:53:16.682870 23191 net.cpp:150] Setting up conv_new_1
I0615 20:53:16.682888 23191 net.cpp:157] Top shape: 1 1024 14 14 (200704)
I0615 20:53:16.682893 23191 net.cpp:165] Memory required for data: 269053192
I0615 20:53:16.682916 23191 layer_factory.hpp:77] Creating layer conv_new_1_relu
I0615 20:53:16.682942 23191 net.cpp:100] Creating Layer conv_new_1_relu
I0615 20:53:16.682955 23191 net.cpp:444] conv_new_1_relu <- conv_new_1
I0615 20:53:16.682976 23191 net.cpp:405] conv_new_1_relu -> conv_new_1 (in-place)
I0615 20:53:16.683153 23191 net.cpp:150] Setting up conv_new_1_relu
I0615 20:53:16.683162 23191 net.cpp:157] Top shape: 1 1024 14 14 (200704)
I0615 20:53:16.683166 23191 net.cpp:165] Memory required for data: 269856008
I0615 20:53:16.683174 23191 layer_factory.hpp:77] Creating layer conv_new_1_conv_new_1_relu_0_split
I0615 20:53:16.683187 23191 net.cpp:100] Creating Layer conv_new_1_conv_new_1_relu_0_split
I0615 20:53:16.683194 23191 net.cpp:444] conv_new_1_conv_new_1_relu_0_split <- conv_new_1
I0615 20:53:16.683212 23191 net.cpp:418] conv_new_1_conv_new_1_relu_0_split -> conv_new_1_conv_new_1_relu_0_split_0
I0615 20:53:16.683234 23191 net.cpp:418] conv_new_1_conv_new_1_relu_0_split -> conv_new_1_conv_new_1_relu_0_split_1
I0615 20:53:16.683323 23191 net.cpp:150] Setting up conv_new_1_conv_new_1_relu_0_split
I0615 20:53:16.683334 23191 net.cpp:157] Top shape: 1 1024 14 14 (200704)
I0615 20:53:16.683341 23191 net.cpp:157] Top shape: 1 1024 14 14 (200704)
I0615 20:53:16.683343 23191 net.cpp:165] Memory required for data: 271461640
I0615 20:53:16.683349 23191 layer_factory.hpp:77] Creating layer rfcn_cls
I0615 20:53:16.683373 23191 net.cpp:100] Creating Layer rfcn_cls
I0615 20:53:16.683382 23191 net.cpp:444] rfcn_cls <- conv_new_1_conv_new_1_relu_0_split_0
I0615 20:53:16.683403 23191 net.cpp:418] rfcn_cls -> rfcn_cls
I0615 20:53:16.711340 23191 cudnn_conv_layer.cpp:194] Reallocating workspace storage: 10080
I0615 20:53:16.711390 23191 net.cpp:150] Setting up rfcn_cls
I0615 20:53:16.711426 23191 net.cpp:157] Top shape: 1 196 14 14 (38416)
I0615 20:53:16.711431 23191 net.cpp:165] Memory required for data: 271615304
I0615 20:53:16.711460 23191 layer_factory.hpp:77] Creating layer rfcn_bbox
I0615 20:53:16.711536 23191 net.cpp:100] Creating Layer rfcn_bbox
I0615 20:53:16.711552 23191 net.cpp:444] rfcn_bbox <- conv_new_1_conv_new_1_relu_0_split_1
I0615 20:53:16.711582 23191 net.cpp:418] rfcn_bbox -> rfcn_bbox
I0615 20:53:16.763794 23191 cudnn_conv_layer.cpp:194] Reallocating workspace storage: 10080
I0615 20:53:16.763834 23191 net.cpp:150] Setting up rfcn_bbox
I0615 20:53:16.763851 23191 net.cpp:157] Top shape: 1 392 14 14 (76832)
I0615 20:53:16.763855 23191 net.cpp:165] Memory required for data: 271922632
I0615 20:53:16.763883 23191 layer_factory.hpp:77] Creating layer psroipooled_cls_rois
I0615 20:53:16.763912 23191 net.cpp:100] Creating Layer psroipooled_cls_rois
I0615 20:53:16.763926 23191 net.cpp:444] psroipooled_cls_rois <- rfcn_cls
I0615 20:53:16.763943 23191 net.cpp:444] psroipooled_cls_rois <- rois_proposal_0_split_0
I0615 20:53:16.763962 23191 net.cpp:418] psroipooled_cls_rois -> psroipooled_cls_rois
I0615 20:53:16.763985 23191 psroi_pooling_layer.cpp:26] Spatial scale: 0.0625
I0615 20:53:16.764073 23191 net.cpp:150] Setting up psroipooled_cls_rois
I0615 20:53:16.764083 23191 net.cpp:157] Top shape: 1 4 7 7 (196)
I0615 20:53:16.764087 23191 net.cpp:165] Memory required for data: 271923416
I0615 20:53:16.764093 23191 layer_factory.hpp:77] Creating layer ave_cls_score_rois
I0615 20:53:16.764111 23191 net.cpp:100] Creating Layer ave_cls_score_rois
I0615 20:53:16.764119 23191 net.cpp:444] ave_cls_score_rois <- psroipooled_cls_rois
I0615 20:53:16.764138 23191 net.cpp:418] ave_cls_score_rois -> cls_score
I0615 20:53:16.765280 23191 net.cpp:150] Setting up ave_cls_score_rois
I0615 20:53:16.765295 23191 net.cpp:157] Top shape: 1 4 1 1 (4)
I0615 20:53:16.765300 23191 net.cpp:165] Memory required for data: 271923432
I0615 20:53:16.765306 23191 layer_factory.hpp:77] Creating layer psroipooled_loc_rois
I0615 20:53:16.765321 23191 net.cpp:100] Creating Layer psroipooled_loc_rois
I0615 20:53:16.765329 23191 net.cpp:444] psroipooled_loc_rois <- rfcn_bbox
I0615 20:53:16.765344 23191 net.cpp:444] psroipooled_loc_rois <- rois_proposal_0_split_1
I0615 20:53:16.765360 23191 net.cpp:418] psroipooled_loc_rois -> psroipooled_loc_rois
I0615 20:53:16.765379 23191 psroi_pooling_layer.cpp:26] Spatial scale: 0.0625
I0615 20:53:16.765451 23191 net.cpp:150] Setting up psroipooled_loc_rois
I0615 20:53:16.765462 23191 net.cpp:157] Top shape: 1 8 7 7 (392)
I0615 20:53:16.765466 23191 net.cpp:165] Memory required for data: 271925000
I0615 20:53:16.765471 23191 layer_factory.hpp:77] Creating layer ave_bbox_pred_rois
I0615 20:53:16.765486 23191 net.cpp:100] Creating Layer ave_bbox_pred_rois
I0615 20:53:16.765493 23191 net.cpp:444] ave_bbox_pred_rois <- psroipooled_loc_rois
I0615 20:53:16.765511 23191 net.cpp:418] ave_bbox_pred_rois -> bbox_pred_pre
I0615 20:53:16.765718 23191 net.cpp:150] Setting up ave_bbox_pred_rois
I0615 20:53:16.765729 23191 net.cpp:157] Top shape: 1 8 1 1 (8)
I0615 20:53:16.765734 23191 net.cpp:165] Memory required for data: 271925032
I0615 20:53:16.765740 23191 layer_factory.hpp:77] Creating layer cls_prob
I0615 20:53:16.765754 23191 net.cpp:100] Creating Layer cls_prob
I0615 20:53:16.765761 23191 net.cpp:444] cls_prob <- cls_score
I0615 20:53:16.765781 23191 net.cpp:418] cls_prob -> cls_prob_pre
I0615 20:53:16.766058 23191 net.cpp:150] Setting up cls_prob
I0615 20:53:16.766070 23191 net.cpp:157] Top shape: 1 4 1 1 (4)
I0615 20:53:16.766074 23191 net.cpp:165] Memory required for data: 271925048
I0615 20:53:16.766082 23191 layer_factory.hpp:77] Creating layer cls_prob_reshape
I0615 20:53:16.766099 23191 net.cpp:100] Creating Layer cls_prob_reshape
I0615 20:53:16.766106 23191 net.cpp:444] cls_prob_reshape <- cls_prob_pre
I0615 20:53:16.766124 23191 net.cpp:418] cls_prob_reshape -> cls_prob
I0615 20:53:16.766180 23191 net.cpp:150] Setting up cls_prob_reshape
I0615 20:53:16.766191 23191 net.cpp:157] Top shape: 1 4 (4)
I0615 20:53:16.766194 23191 net.cpp:165] Memory required for data: 271925064
I0615 20:53:16.766201 23191 layer_factory.hpp:77] Creating layer bbox_pred_reshape
I0615 20:53:16.766213 23191 net.cpp:100] Creating Layer bbox_pred_reshape
I0615 20:53:16.766221 23191 net.cpp:444] bbox_pred_reshape <- bbox_pred_pre
I0615 20:53:16.766238 23191 net.cpp:418] bbox_pred_reshape -> bbox_pred
I0615 20:53:16.766295 23191 net.cpp:150] Setting up bbox_pred_reshape
I0615 20:53:16.766305 23191 net.cpp:157] Top shape: 1 8 (8)
I0615 20:53:16.766309 23191 net.cpp:165] Memory required for data: 271925096
I0615 20:53:16.766316 23191 net.cpp:228] bbox_pred_reshape does not need backward computation.
I0615 20:53:16.766322 23191 net.cpp:228] cls_prob_reshape does not need backward computation.
I0615 20:53:16.766330 23191 net.cpp:228] cls_prob does not need backward computation.
I0615 20:53:16.766335 23191 net.cpp:228] ave_bbox_pred_rois does not need backward computation.
…
