…
iter_size: 1
I0627 21:15:44.601708 12104 solver.cpp:81] Creating training net from train_net file: /home/neuiva1/sol/unicoe_experiments/py-R-FCN/experiments/6_24_original_head_upper_body_handle/train_agnostic_ohem.prototxt
I0627 21:15:44.605885 12104 net.cpp:58] Initializing net from parameters: 
name: "ResNet-50"
state {
  phase: TRAIN
}
layer {
  name: "input-data"
  type: "Python"
  top: "data"
  top: "im_info"
  top: "gt_boxes"
  python_param {
    module: "roi_data_layer.layer"
    layer: "RoIDataLayer"
    param_str: "\'num_classes\': 4"
  }
}
layer {
  name: "conv1"
  type: "Convolution"
  bottom: "data"
  top: "conv1"
  param {
    lr_mult: 0
  }
  param {
    lr_mult: 0
  }
  convolution_param {
    num_output: 64
    pad: 3
    kernel_size: 7
    stride: 2
  }
}
layer {
  name: "bn_conv1"
  type: "BatchNorm"
  bottom: "conv1"
  top: "conv1"
  param {
    lr_mult: 0
    decay_mult: 0
  }
  param {
    lr_mult: 0
    decay_mult: 0
  }
  param {
    lr_mult: 0
    decay_mult: 0
  }
  batch_norm_param {
    use_global_stats: true
  }
}
layer {
  name: "scale_conv1"
  type: "Scale"
  bottom: "conv1"
  top: "conv1"
  param {
    lr_mult: 0
    decay_mult: 0
  }
  param {
    lr_mult: 0
    decay_mult: 0
  }
  scale_param {
    bias_term: true
  }
}
layer {
  name: "conv1_relu"
  type: "ReLU"
  bottom: "conv1"
  top: "conv1"
}
layer {
  name: "pool1"
  type: "Pooling"
  bottom: "conv1"
  top: "pool1"
  pooling_param {
    pool: MAX
    kernel_size: 3
    stride: 2
  }
}
layer {
  name: "res2a_branch1"
  type: "Convolution"
  bottom: "pool1"
  top: "res2a_branch1"
  param {
    lr_mult: 0
  }
  convolution_param {
    num_output: 256
    bias_term: false
    pad: 0
    kernel_size: 1
    stride: 1
  }
}
layer {
  name: "bn2a_branch1"
  type: "BatchNorm"
  bottom: "res2a_branch1"
  top: "res2a_branch1"
  param {
    lr_mult: 0
    decay_mult: 0
  }
  param {
    lr_mult: 0
    decay_mult: 0
  }
  param {
    lr_mult: 0
    decay_mult: 0
  }
  batch_norm_param {
    use_global_stats: true
  }
}
layer {
  name: "scale2a_branch1"
  type: "Scale"
  bottom: "res2a_branch1"
  top: "res2a_branch1"
  param {
    lr_mult: 0
    decay_mult: 0
  }
  param {
    lr_mult: 0
    decay_mult: 0
  }
  scale_param {
    bias_term: true
  }
}
layer {
  name: "res2a_branch2a"
  type: "Convolution"
  bottom: "pool1"
  top: "res2a_branch2a"
  param {
    lr_mult: 0
  }
  convolution_param {
    num_output: 64
    bias_term: false
    pad: 0
    kernel_size: 1
    stride: 1
  }
}
layer {
  name: "bn2a_branch2a"
  type: "BatchNorm"
  bottom: "res2a_branch2a"
  top: "res2a_branch2a"
  param {
    lr_mult: 0
    decay_mult: 0
  }
  param {
    lr_mult: 0
    decay_mult: 0
  }
  param {
    lr_mult: 0
    decay_mult: 0
  }
  batch_norm_param {
    use_global_stats: true
  }
}
layer {
  name: "scale2a_branch2a"
  type: "Scale"
  bottom: "res2a_branch2a"
  top: "res2a_branch2a"
  param {
    lr_mult: 0
    decay_mult: 0
  }
  param {
    lr_mult: 0
    decay_mult: 0
  }
  scale_param {
    bias_term: true
  }
}
layer {
  name: "res2a_branch2a_relu"
  type: "ReLU"
  bottom: "res2a_branch2a"
  top: "res2a_branch2a"
}
layer {
  name: "res2a_branch2b"
  type: "Convolution"
  bottom: "res2a_branch2a"
  top: "res2a_branch2b"
  param {
    lr_mult: 0
  }
  convolution_param {
    num_output: 64
    bias_term: false
    pad: 1
    kernel_size: 3
    stride: 1
  }
}
layer {
  name: "bn2a_branch2b"
  type: "BatchNorm"
  bottom: "res2a_branch2b"
  top: "res2a_branch2b"
  param {
    lr_mult: 0
    decay_mult: 0
  }
  param {
    lr_mult: 0
    decay_mult: 0
  }
  param {
    lr_mult: 0
    decay_mult: 0
  }
  batch_norm_param {
    use_global_stats: true
  }
}
layer {
  name: "scale2a_branch2b"
  type: "Scale"
  bottom: "res2a_branch2b"
  top: "res2a_branch2b"
  param {
    lr_mult: 0
    decay_mult: 0
  }
  param {
    lr_mult: 0
    decay_mult: 0
  }
  scale_param {
    bias_term: true
  }
}
layer {
  name: "res2a_branch2b_relu"
  type: "ReLU"
  bottom: "res2a_branch2b"
  top: "res2a_branch2b"
}
layer {
  name: "res2a_branch2c"
  type: "Convolution"
  bottom: "res2a_branch2b"
  top: "res2a_branch2c"
  param {
    lr_mult: 0
  }
  convolution_param {
    num_output: 256
    bias_term: false
    pad: 0
    kernel_size: 1
    stride: 1
  }
}
layer {
  name: "bn2a_branch2c"
  type: "BatchNorm"
  bottom: "res2a_branch2c"
  top: "res2a_branch2c"
  param {
    lr_mult: 0
    decay_mult: 0
  }
  param {
    lr_mult: 0
    decay_mult: 0
  }
  param {
    lr_mult: 0
    decay_mult: 0
  }
  batch_norm_param {
    use_global_stats: true
  }
}
layer {
  name: "scale2a_branch2c"
  type: "Scale"
  bottom: "res2a_branch2c"
  top: "res2a_branch2c"
  param {
    lr_mult: 0
    decay_mult: 0
  }
  param {
    lr_mult: 0
    decay_mult: 0
  }
  scale_param {
    bias_term: true
  }
}
layer {
  name: "res2a"
  type: "Eltwise"
  bottom: "res2a_branch1"
  bottom: "res2a_branch2c"
  top: "res2a"
}
layer {
  name: "res2a_relu"
  type: "ReLU"
  bottom: "res2a"
  top: "res2a"
}
layer {
  name: "res2b_branch2a"
  type: "Convolution"
  bottom: "res2a"
  top: "res2b_branch2a"
  param {
    lr_mult: 0
  }
  convolution_param {
    num_output: 64
    bias_term: false
    pad: 0
    kernel_size: 1
    stride: 1
  }
}
layer {
  name: "bn2b_branch2a"
  type: "BatchNorm"
  bottom: "res2b_branch2a"
  top: "res2b_branch2a"
  param {
    lr_mult: 0
    decay_mult: 0
  }
  param {
    lr_mult: 0
    decay_mult: 0
  }
  param {
    lr_mult: 0
    decay_mult: 0
  }
  batch_norm_param {
    use_global_stats: true
  }
}
layer {
  name: "scale2b_branch2a"
  type: "Scale"
  bottom: "res2b_branch2a"
  top: "res2b_branch2a"
  param {
    lr_mult: 0
    decay_mult: 0
  }
  param {
    lr_mult: 0
    decay_mult: 0
  }
  scale_param {
    bias_term: true
  }
}
layer {
  name: "res2b_branch2a_relu"
  type: "ReLU"
  bottom: "res2b_branch2a"
  top: "res2b_branch2a"
}
layer {
  name: "res2b_branch2b"
  type: "Convolution"
  bottom: "res2b_branch2a"
  top: "res2b_branch2b"
  param {
    lr_mult: 0
  }
  convolution_param {
    num_output: 64
    bias_term: false
    pad: 1
    kernel_size: 3
    stride: 1
  }
}
layer {
  name: "bn2b_branch2b"
  type: "BatchNorm"
  bottom: "res2b_branch2b"
  top: "res2b_branch2b"
  param {
    lr_mult: 0
    decay_mult: 0
  }
  param {
    lr_mult: 0
    decay_mult: 0
  }
  param {
    lr_mult: 0
    decay_mult: 0
  }
  batch_norm_param {
    use_global_stats: true
  }
}
layer {
  name: "scale2b_branch2b"
  type: "Scale"
  bottom: "res2b_branch2b"
  top: "res2b_branch2b"
  param {
    lr_mult: 0
    decay_mult: 0
  }
  param {
    lr_mult: 0
    decay_mult: 0
  }
  scale_param {
    bias_term: true
  }
}
layer {
  name: "res2b_branch2b_relu"
  type: "ReLU"
  bottom: "res2b_branch2b"
  top: "res2b_branch2b"
}
layer {
  name: "res2b_branch2c"
  type: "Convolution"
  bottom: "res2b_branch2b"
  top: "res2b_branch2c"
  param {
    lr_mult: 0
  }
  convolution_param {
    num_output: 256
    bias_term: false
    pad: 0
    kernel_size: 1
    stride: 1
  }
}
layer {
  name: "bn2b_branch2c"
  type: "BatchNorm"
  bottom: "res2b_branch2c"
  top: "res2b_branch2c"
  param {
    lr_mult: 0
    decay_mult: 0
  }
  param {
    lr_mult: 0
    decay_mult: 0
  }
  param {
    lr_mult: 0
    decay_mult: 0
  }
  batch_norm_param {
    use_global_stats: true
  }
}
layer {
  name: "scale2b_branch2c"
  type: "Scale"
  bottom: "res2b_branch2c"
  top: "res2b_branch2c"
  param {
    lr_mult: 0
    decay_mult: 0
  }
  param {
    lr_mult: 0
    decay_mult: 0
  }
  scale_param {
    bias_term: true
  }
}
layer {
  name: "res2b"
  type: "Eltwise"
  bottom: "res2a"
  bottom: "res2b_branch2c"
  top: "res2b"
}
layer {
  name: "res2b_relu"
  type: "ReLU"
  bottom: "res2b"
  top: "res2b"
}
layer {
  name: "res2c_branch2a"
  type: "Convolution"
  bottom: "res2b"
  top: "res2c_branch2a"
  param {
    lr_mult: 0
  }
  convolution_param {
    num_output: 64
    bias_term: false
    pad: 0
    kernel_size: 1
    stride: 1
  }
}
layer {
  name: "bn2c_branch2a"
  type: "BatchNorm"
  bottom: "res2c_branch2a"
  top: "res2c_branch2a"
  param {
    lr_mult: 0
    decay_mult: 0
  }
  param {
    lr_mult: 0
    decay_mult: 0
  }
  param {
    lr_mult: 0
    decay_mult: 0
  }
  batch_norm_param {
    use_global_stats: true
  }
}
layer {
  name: "scale2c_branch2a"
  type: "Scale"
  bottom: "res2c_branch2a"
  top: "res2c_branch2a"
  param {
    lr_mult: 0
    decay_mult: 0
  }
  param {
    lr_mult: 0
    decay_mult: 0
  }
  scale_param {
    bias_term: true
  }
}
layer {
  name: "res2c_branch2a_relu"
  type: "ReLU"
  bottom: "res2c_branch2a"
  top: "res2c_branch2a"
}
layer {
  name: "res2c_branch2b"
  type: "Convolution"
  bottom: "res2c_branch2a"
  top: "res2c_branch2b"
  param {
    lr_mult: 0
  }
  convolution_param {
    num_output: 64
    bias_term: false
    pad: 1
    kernel_size: 3
    stride: 1
  }
}
layer {
  name: "bn2c_branch2b"
  type: "BatchNorm"
  bottom: "res2c_branch2b"
  top: "res2c_branch2b"
  param {
    lr_mult: 0
    decay_mult: 0
  }
  param {
    lr_mult: 0
    decay_mult: 0
  }
  param {
    lr_mult: 0
    decay_mult: 0
  }
  batch_norm_param {
    use_global_stats: true
  }
}
layer {
  name: "scale2c_branch2b"
  type: "Scale"
  bottom: "res2c_branch2b"
  top: "res2c_branch2b"
  param {
    lr_mult: 0
    decay_mult: 0
  }
  param {
    lr_mult: 0
    decay_mult: 0
  }
  scale_param {
    bias_term: true
  }
}
layer {
  name: "res2c_branch2b_relu"
  type: "ReLU"
  bottom: "res2c_branch2b"
  top: "res2c_branch2b"
}
layer {
  name: "res2c_branch2c"
  type: "Convolution"
  bottom: "res2c_branch2b"
  top: "res2c_branch2c"
  param {
    lr_mult: 0
  }
  convolution_param {
    num_output: 256
    bias_term: false
    pad: 0
    kernel_size: 1
    stride: 1
  }
}
layer {
  name: "bn2c_branch2c"
  type: "BatchNorm"
  bottom: "res2c_branch2c"
  top: "res2c_branch2c"
  param {
    lr_mult: 0
    decay_mult: 0
  }
  param {
    lr_mult: 0
    decay_mult: 0
  }
  param {
    lr_mult: 0
    decay_mult: 0
  }
  batch_norm_param {
    use_global_stats: true
  }
}
layer {
  name: "scale2c_branch2c"
  type: "Scale"
  bottom: "res2c_branch2c"
  top: "res2c_branch2c"
  param {
    lr_mult: 0
    decay_mult: 0
  }
  param {
    lr_mult: 0
    decay_mult: 0
  }
  scale_param {
    bias_term: true
  }
}
layer {
  name: "res2c"
  type: "Eltwise"
  bottom: "res2b"
  bottom: "res2c_branch2c"
  top: "res2c"
}
layer {
  name: "res2c_relu"
  type: "ReLU"
  bottom: "res2c"
  top: "res2c"
}
layer {
  name: "res3a_branch1"
  type: "Convolution"
  bottom: "res2c"
  top: "res3a_branch1"
  param {
    lr_mult: 1
  }
  convolution_param {
    num_output: 512
    bias_term: false
    pad: 0
    kernel_size: 1
    stride: 2
  }
}
layer {
  name: "bn3a_branch1"
  type: "BatchNorm"
  bottom: "res3a_branch1"
  top: "res3a_branch1"
  param {
    lr_mult: 0
    decay_mult: 0
  }
  param {
    lr_mult: 0
    decay_mult: 0
  }
  param {
    lr_mult: 0
    decay_mult: 0
  }
  batch_norm_param {
    use_global_stats: true
  }
}
layer {
  name: "scale3a_branch1"
  type: "Scale"
  bottom: "res3a_branch1"
  top: "res3a_branch1"
  param {
    lr_mult: 0
    decay_mult: 0
  }
  param {
    lr_mult: 0
    decay_mult: 0
  }
  scale_param {
    bias_term: true
  }
}
layer {
  name: "res3a_branch2a"
  type: "Convolution"
  bottom: "res2c"
  top: "res3a_branch2a"
  param {
    lr_mult: 1
  }
  convolution_param {
    num_output: 128
    bias_term: false
    pad: 0
    kernel_size: 1
    stride: 2
  }
}
layer {
  name: "bn3a_branch2a"
  type: "BatchNorm"
  bottom: "res3a_branch2a"
  top: "res3a_branch2a"
  param {
    lr_mult: 0
    decay_mult: 0
  }
  param {
    lr_mult: 0
    decay_mult: 0
  }
  param {
    lr_mult: 0
    decay_mult: 0
  }
  batch_norm_param {
    use_global_stats: true
  }
}
layer {
  name: "scale3a_branch2a"
  type: "Scale"
  bottom: "res3a_branch2a"
  top: "res3a_branch2a"
  param {
    lr_mult: 0
    decay_mult: 0
  }
  param {
    lr_mult: 0
    decay_mult: 0
  }
  scale_param {
    bias_term: true
  }
}
layer {
  name: "res3a_branch2a_relu"
  type: "ReLU"
  bottom: "res3a_branch2a"
  top: "res3a_branch2a"
}
layer {
  name: "res3a_branch2b"
  type: "Convolution"
  bottom: "res3a_branch2a"
  top: "res3a_branch2b"
  param {
    lr_mult: 1
  }
  convolution_param {
    num_output: 128
    bias_term: false
    pad: 1
    kernel_size: 3
    stride: 1
  }
}
layer {
  name: "bn3a_branch2b"
  type: "BatchNorm"
  bottom: "res3a_branch2b"
  top: "res3a_branch2b"
  param {
    lr_mult: 0
    decay_mult: 0
  }
  param {
    lr_mult: 0
    decay_mult: 0
  }
  param {
    lr_mult: 0
    decay_mult: 0
  }
  batch_norm_param {
    use_global_stats: true
  }
}
layer {
  name: "scale3a_branch2b"
  type: "Scale"
  bottom: "res3a_branch2b"
  top: "res3a_branch2b"
  param {
    lr_mult: 0
    decay_mult: 0
  }
  param {
    lr_mult: 0
    decay_mult: 0
  }
  scale_param {
    bias_term: true
  }
}
layer {
  name: "res3a_branch2b_relu"
  type: "ReLU"
  bottom: "res3a_branch2b"
  top: "res3a_branch2b"
}
layer {
  name: "res3a_branch2c"
  type: "Convolution"
  bottom: "res3a_branch2b"
  top: "res3a_branch2c"
  param {
    lr_mult: 1
  }
  convolution_param {
    num_output: 512
    bias_term: false
    pad: 0
    kernel_size: 1
    stride: 1
  }
}
layer {
  name: "bn3a_branch2c"
  type: "BatchNorm"
  bottom: "res3a_branch2c"
  top: "res3a_branch2c"
  param {
    lr_mult: 0
    decay_mult: 0
  }
  param {
    lr_mult: 0
    decay_mult: 0
  }
  param {
    lr_mult: 0
    decay_mult: 0
  }
  batch_norm_param {
    use_global_stats: true
  }
}
layer {
  name: "scale3a_branch2c"
  type: "Scale"
  bottom: "res3a_branch2c"
  top: "res3a_branch2c"
  param {
    lr_mult: 0
    decay_mult: 0
  }
  param {
    lr_mult: 0
    decay_mult: 0
  }
  scale_param {
    bias_term: true
  }
}
layer {
  name: "res3a"
  type: "Eltwise"
  bottom: "res3a_branch1"
  bottom: "res3a_branch2c"
  top: "res3a"
}
layer {
  name: "res3a_relu"
  type: "ReLU"
  bottom: "res3a"
  top: "res3a"
}
layer {
  name: "res3b_branch2a"
  type: "Convolution"
  bottom: "res3a"
  top: "res3b_branch2a"
  param {
    lr_mult: 1
  }
  convolution_param {
    num_output: 128
    bias_term: false
    pad: 0
    kernel_size: 1
    stride: 1
  }
}
layer {
  name: "bn3b_branch2a"
  type: "BatchNorm"
  bottom: "res3b_branch2a"
  top: "res3b_branch2a"
  param {
    lr_mult: 0
    decay_mult: 0
  }
  param {
    lr_mult: 0
    decay_mult: 0
  }
  param {
    lr_mult: 0
    decay_mult: 0
  }
  batch_norm_param {
    use_global_stats: true
  }
}
layer {
  name: "scale3b_branch2a"
  type: "Scale"
  bottom: "res3b_branch2a"
  top: "res3b_branch2a"
  param {
    lr_mult: 0
    decay_mult: 0
  }
  param {
    lr_mult: 0
    decay_mult: 0
  }
  scale_param {
    bias_term: true
  }
}
layer {
  name: "res3b_branch2a_relu"
  type: "ReLU"
  bottom: "res3b_branch2a"
  top: "res3b_branch2a"
}
layer {
  name: "res3b_branch2b"
  type: "Convolution"
  bottom: "res3b_branch2a"
  top: "res3b_branch2b"
  param {
    lr_mult: 1
  }
  convolution_param {
    num_output: 128
    bias_term: false
    pad: 1
    kernel_size: 3
    stride: 1
  }
}
layer {
  name: "bn3b_branch2b"
  type: "BatchNorm"
  bottom: "res3b_branch2b"
  top: "res3b_branch2b"
  param {
    lr_mult: 0
    decay_mult: 0
  }
  param {
    lr_mult: 0
    decay_mult: 0
  }
  param {
    lr_mult: 0
    decay_mult: 0
  }
  batch_norm_param {
    use_global_stats: true
  }
}
layer {
  name: "scale3b_branch2b"
  type: "Scale"
  bottom: "res3b_branch2b"
  top: "res3b_branch2b"
  param {
    lr_mult: 0
    decay_mult: 0
  }
  param {
    lr_mult: 0
    decay_mult: 0
  }
  scale_param {
    bias_term: true
  }
}
layer {
  name: "res3b_branch2b_relu"
  type: "ReLU"
  bottom: "res3b_branch2b"
  top: "res3b_branch2b"
}
layer {
  name: "res3b_branch2c"
  type: "Convolution"
  bottom: "res3b_branch2b"
  top: "res3b_branch2c"
  param {
    lr_mult: 1
  }
  convolution_param {
    num_output: 512
    bias_term: false
    pad: 0
    kernel_size: 1
    stride: 1
  }
}
layer {
  name: "bn3b_branch2c"
  type: "BatchNorm"
  bottom: "res3b_branch2c"
  top: "res3b_branch2c"
  param {
    lr_mult: 0
    decay_mult: 0
  }
  param {
    lr_mult: 0
    decay_mult: 0
  }
  param {
    lr_mult: 0
    decay_mult: 0
  }
  batch_norm_param {
    use_global_stats: true
  }
}
layer {
  name: "scale3b_branch2c"
  type: "Scale"
  bottom: "res3b_branch2c"
  top: "res3b_branch2c"
  param {
    lr_mult: 0
    decay_mult: 0
  }
  param {
    lr_mult: 0
    decay_mult: 0
  }
  scale_param {
    bias_term: true
  }
}
layer {
  name: "res3b"
  type: "Eltwise"
  bottom: "res3a"
  bottom: "res3b_branch2c"
  top: "res3b"
}
layer {
  name: "res3b_relu"
  type: "ReLU"
  bottom: "res3b"
  top: "res3b"
}
layer {
  name: "res3c_branch2a"
  type: "Convolution"
  bottom: "res3b"
  top: "res3c_branch2a"
  param {
    lr_mult: 1
  }
  convolution_param {
    num_output: 128
    bias_term: false
    pad: 0
    kernel_size: 1
    stride: 1
  }
}
layer {
  name: "bn3c_branch2a"
  type: "BatchNorm"
  bottom: "res3c_branch2a"
  top: "res3c_branch2a"
  param {
    lr_mult: 0
    decay_mult: 0
  }
  param {
    lr_mult: 0
    decay_mult: 0
  }
  param {
    lr_mult: 0
    decay_mult: 0
  }
  batch_norm_param {
    use_global_stats: true
  }
}
layer {
  name: "scale3c_branch2a"
  type: "Scale"
  bottom: "res3c_branch2a"
  top: "res3c_branch2a"
  param {
    lr_mult: 0
    decay_mult: 0
  }
  param {
    lr_mult: 0
    decay_mult: 0
  }
  scale_param {
    bias_term: true
  }
}
layer {
  name: "res3c_branch2a_relu"
  type: "ReLU"
  bottom: "res3c_branch2a"
  top: "res3c_branch2a"
}
layer {
  name: "res3c_branch2b"
  type: "Convolution"
  bottom: "res3c_branch2a"
  top: "res3c_branch2b"
  param {
    lr_mult: 1
  }
  convolution_param {
    num_output: 128
    bias_term: false
    pad: 1
    kernel_size: 3
    stride: 1
  }
}
layer {
  name: "bn3c_branch2b"
  type: "BatchNorm"
  bottom: "res3c_branch2b"
  top: "res3c_branch2b"
  param {
    lr_mult: 0
    decay_mult: 0
  }
  param {
    lr_mult: 0
    decay_mult: 0
  }
  param {
    lr_mult: 0
    decay_mult: 0
  }
  batch_norm_param {
    use_global_stats: true
  }
}
layer {
  name: "scale3c_branch2b"
  type: "Scale"
  bottom: "res3c_branch2b"
  top: "res3c_branch2b"
  param {
    lr_mult: 0
    decay_mult: 0
  }
  param {
    lr_mult: 0
    decay_mult: 0
  }
  scale_param {
    bias_term: true
  }
}
layer {
  name: "res3c_branch2b_relu"
  type: "ReLU"
  bottom: "res3c_branch2b"
  top: "res3c_branch2b"
}
layer {
  name: "res3c_branch2c"
  type: "Convolution"
  bottom: "res3c_branch2b"
  top: "res3c_branch2c"
  param {
    lr_mult: 1
  }
  convolution_param {
    num_output: 512
    bias_term: false
    pad: 0
    kernel_size: 1
    stride: 1
  }
}
layer {
  name: "bn3c_branch2c"
  type: "BatchNorm"
  bottom: "res3c_branch2c"
  top: "res3c_branch2c"
  param {
    lr_mult: 0
    decay_mult: 0
  }
  param {
    lr_mult: 0
    decay_mult: 0
  }
  param {
    lr_mult: 0
    decay_mult: 0
  }
  batch_norm_param {
    use_global_stats: true
  }
}
layer {
  name: "scale3c_branch2c"
  type: "Scale"
  bottom: "res3c_branch2c"
  top: "res3c_branch2c"
  param {
    lr_mult: 0
    decay_mult: 0
  }
  param {
    lr_mult: 0
    decay_mult: 0
  }
  scale_param {
    bias_term: true
  }
}
layer {
  name: "res3c"
  type: "Eltwise"
  bottom: "res3b"
  bottom: "res3c_branch2c"
  top: "res3c"
}
layer {
  name: "res3c_relu"
  type: "ReLU"
  bottom: "res3c"
  top: "res3c"
}
layer {
  name: "res3d_branch2a"
  type: "Convolution"
  bottom: "res3c"
  top: "res3d_branch2a"
  param {
    lr_mult: 1
  }
  convolution_param {
    num_output: 128
    bias_term: false
    pad: 0
    kernel_size: 1
    stride: 1
  }
}
layer {
  name: "bn3d_branch2a"
  type: "BatchNorm"
  bottom: "res3d_branch2a"
  top: "res3d_branch2a"
  param {
    lr_mult: 0
    decay_mult: 0
  }
  param {
    lr_mult: 0
    decay_mult: 0
  }
  param {
    lr_mult: 0
    decay_mult: 0
  }
  batch_norm_param {
    use_global_stats: true
  }
}
layer {
  name: "scale3d_branch2a"
  type: "Scale"
  bottom: "res3d_branch2a"
  top: "res3d_branch2a"
  param {
    lr_mult: 0
    decay_mult: 0
  }
  param {
    lr_mult: 0
    decay_mult: 0
  }
  scale_param {
    bias_term: true
  }
}
layer {
  name: "res3d_branch2a_relu"
  type: "ReLU"
  bottom: "res3d_branch2a"
  top: "res3d_branch2a"
}
layer {
  name: "res3d_branch2b"
  type: "Convolution"
  bottom: "res3d_branch2a"
  top: "res3d_branch2b"
  param {
    lr_mult: 1
  }
  convolution_param {
    num_output: 128
    bias_term: false
    pad: 1
    kernel_size: 3
    stride: 1
  }
}
layer {
  name: "bn3d_branch2b"
  type: "BatchNorm"
  bottom: "res3d_branch2b"
  top: "res3d_branch2b"
  param {
    lr_mult: 0
    decay_mult: 0
  }
  param {
    lr_mult: 0
    decay_mult: 0
  }
  param {
    lr_mult: 0
    decay_mult: 0
  }
  batch_norm_param {
    use_global_stats: true
  }
}
layer {
  name: "scale3d_branch2b"
  type: "Scale"
  bottom: "res3d_branch2b"
  top: "res3d_branch2b"
  param {
    lr_mult: 0
    decay_mult: 0
  }
  param {
    lr_mult: 0
    decay_mult: 0
  }
  scale_param {
    bias_term: true
  }
}
layer {
  name: "res3d_branch2b_relu"
  type: "ReLU"
  bottom: "res3d_branch2b"
  top: "res3d_branch2b"
}
layer {
  name: "res3d_branch2c"
  type: "Convolution"
  bottom: "res3d_branch2b"
  top: "res3d_branch2c"
  param {
    lr_mult: 1
  }
  convolution_param {
    num_output: 512
    bias_term: false
    pad: 0
    kernel_size: 1
    stride: 1
  }
}
layer {
  name: "bn3d_branch2c"
  type: "BatchNorm"
  bottom: "res3d_branch2c"
  top: "res3d_branch2c"
  param {
    lr_mult: 0
    decay_mult: 0
  }
  param {
    lr_mult: 0
    decay_mult: 0
  }
  param {
    lr_mult: 0
    decay_mult: 0
  }
  batch_norm_param {
    use_global_stats: true
  }
}
layer {
  name: "scale3d_branch2c"
  type: "Scale"
  bottom: "res3d_branch2c"
  top: "res3d_branch2c"
  param {
    lr_mult: 0
    decay_mult: 0
  }
  param {
    lr_mult: 0
    decay_mult: 0
  }
  scale_param {
    bias_term: true
  }
}
layer {
  name: "res3d"
  type: "Eltwise"
  bottom: "res3c"
  bottom: "res3d_branch2c"
  top: "res3d"
}
layer {
  name: "res3d_relu"
  type: "ReLU"
  bottom: "res3d"
  top: "res3d"
}
layer {
  name: "res4a_branch1"
  type: "Convolution"
  bottom: "res3d"
  top: "res4a_branch1"
  param {
    lr_mult: 1
  }
  convolution_param {
    num_output: 1024
    bias_term: false
    pad: 0
    kernel_size: 1
    stride: 2
  }
}
layer {
  name: "bn4a_branch1"
  type: "BatchNorm"
  bottom: "res4a_branch1"
  top: "res4a_branch1"
  param {
    lr_mult: 0
    decay_mult: 0
  }
  param {
    lr_mult: 0
    decay_mult: 0
  }
  param {
    lr_mult: 0
    decay_mult: 0
  }
  batch_norm_param {
    use_global_stats: true
  }
}
layer {
  name: "scale4a_branch1"
  type: "Scale"
  bottom: "res4a_branch1"
  top: "res4a_branch1"
  param {
    lr_mult: 0
    decay_mult: 0
  }
  param {
    lr_mult: 0
    decay_mult: 0
  }
  scale_param {
    bias_term: true
  }
}
layer {
  name: "res4a_branch2a"
  type: "Convolution"
  bottom: "res3d"
  top: "res4a_branch2a"
  param {
    lr_mult: 1
  }
  convolution_param {
    num_output: 256
    bias_term: false
    pad: 0
    kernel_size: 1
    stride: 2
  }
}
layer {
  name: "bn4a_branch2a"
  type: "BatchNorm"
  bottom: "res4a_branch2a"
  top: "res4a_branch2a"
  param {
    lr_mult: 0
    decay_mult: 0
  }
  param {
    lr_mult: 0
    decay_mult: 0
  }
  param {
    lr_mult: 0
    decay_mult: 0
  }
  batch_norm_param {
    use_global_stats: true
  }
}
layer {
  name: "scale4a_branch2a"
  type: "Scale"
  bottom: "res4a_branch2a"
  top: "res4a_branch2a"
  param {
    lr_mult: 0
    decay_mult: 0
  }
  param {
    lr_mult: 0
    decay_mult: 0
  }
  scale_param {
    bias_term: true
  }
}
layer {
  name: "res4a_branch2a_relu"
  type: "ReLU"
  bottom: "res4a_branch2a"
  top: "res4a_branch2a"
}
layer {
  name: "res4a_branch2b"
  type: "Convolution"
  bottom: "res4a_branch2a"
  top: "res4a_branch2b"
  param {
    lr_mult: 1
  }
  convolution_param {
    num_output: 256
    bias_term: false
    pad: 1
    kernel_size: 3
    stride: 1
  }
}
layer {
  name: "bn4a_branch2b"
  type: "BatchNorm"
  bottom: "res4a_branch2b"
  top: "res4a_branch2b"
  param {
    lr_mult: 0
    decay_mult: 0
  }
  param {
    lr_mult: 0
    decay_mult: 0
  }
  param {
    lr_mult: 0
    decay_mult: 0
  }
  batch_norm_param {
    use_global_stats: true
  }
}
layer {
  name: "scale4a_branch2b"
  type: "Scale"
  bottom: "res4a_branch2b"
  top: "res4a_branch2b"
  param {
    lr_mult: 0
    decay_mult: 0
  }
  param {
    lr_mult: 0
    decay_mult: 0
  }
  scale_param {
    bias_term: true
  }
}
layer {
  name: "res4a_branch2b_relu"
  type: "ReLU"
  bottom: "res4a_branch2b"
  top: "res4a_branch2b"
}
layer {
  name: "res4a_branch2c"
  type: "Convolution"
  bottom: "res4a_branch2b"
  top: "res4a_branch2c"
  param {
    lr_mult: 1
  }
  convolution_param {
    num_output: 1024
    bias_term: false
    pad: 0
    kernel_size: 1
    stride: 1
  }
}
layer {
  name: "bn4a_branch2c"
  type: "BatchNorm"
  bottom: "res4a_branch2c"
  top: "res4a_branch2c"
  param {
    lr_mult: 0
    decay_mult: 0
  }
  param {
    lr_mult: 0
    decay_mult: 0
  }
  param {
    lr_mult: 0
    decay_mult: 0
  }
  batch_norm_param {
    use_global_stats: true
  }
}
layer {
  name: "scale4a_branch2c"
  type: "Scale"
  bottom: "res4a_branch2c"
  top: "res4a_branch2c"
  param {
    lr_mult: 0
    decay_mult: 0
  }
  param {
    lr_mult: 0
    decay_mult: 0
  }
  scale_param {
    bias_term: true
  }
}
layer {
  name: "res4a"
  type: "Eltwise"
  bottom: "res4a_branch1"
  bottom: "res4a_branch2c"
  top: "res4a"
}
layer {
  name: "res4a_relu"
  type: "ReLU"
  bottom: "res4a"
  top: "res4a"
}
layer {
  name: "res4b_branch2a"
  type: "Convolution"
  bottom: "res4a"
  top: "res4b_branch2a"
  param {
    lr_mult: 1
  }
  convolution_param {
    num_output: 256
    bias_term: false
    pad: 0
    kernel_size: 1
    stride: 1
  }
}
layer {
  name: "bn4b_branch2a"
  type: "BatchNorm"
  bottom: "res4b_branch2a"
  top: "res4b_branch2a"
  param {
    lr_mult: 0
    decay_mult: 0
  }
  param {
    lr_mult: 0
    decay_mult: 0
  }
  param {
    lr_mult: 0
    decay_mult: 0
  }
  batch_norm_param {
    use_global_stats: true
  }
}
layer {
  name: "scale4b_branch2a"
  type: "Scale"
  bottom: "res4b_branch2a"
  top: "res4b_branch2a"
  param {
    lr_mult: 0
    decay_mult: 0
  }
  param {
    lr_mult: 0
    decay_mult: 0
  }
  scale_param {
    bias_term: true
  }
}
layer {
  name: "res4b_branch2a_relu"
  type: "ReLU"
  bottom: "res4b_branch2a"
  top: "res4b_branch2a"
}
layer {
  name: "res4b_branch2b"
  type: "Convolution"
  bottom: "res4b_branch2a"
  top: "res4b_branch2b"
  param {
    lr_mult: 1
  }
  convolution_param {
    num_output: 256
    bias_term: false
    pad: 1
    kernel_size: 3
    stride: 1
  }
}
layer {
  name: "bn4b_branch2b"
  type: "BatchNorm"
  bottom: "res4b_branch2b"
  top: "res4b_branch2b"
  param {
    lr_mult: 0
    decay_mult: 0
  }
  param {
    lr_mult: 0
    decay_mult: 0
  }
  param {
    lr_mult: 0
    decay_mult: 0
  }
  batch_norm_param {
    use_global_stats: true
  }
}
layer {
  name: "scale4b_branch2b"
  type: "Scale"
  bottom: "res4b_branch2b"
  top: "res4b_branch2b"
  param {
    lr_mult: 0
    decay_mult: 0
  }
  param {
    lr_mult: 0
    decay_mult: 0
  }
  scale_param {
    bias_term: true
  }
}
layer {
  name: "res4b_branch2b_relu"
  type: "ReLU"
  bottom: "res4b_branch2b"
  top: "res4b_branch2b"
}
layer {
  name: "res4b_branch2c"
  type: "Convolution"
  bottom: "res4b_branch2b"
  top: "res4b_branch2c"
  param {
    lr_mult: 1
  }
  convolution_param {
    num_output: 1024
    bias_term: false
    pad: 0
    kernel_size: 1
    stride: 1
  }
}
layer {
  name: "bn4b_branch2c"
  type: "BatchNorm"
  bottom: "res4b_branch2c"
  top: "res4b_branch2c"
  param {
    lr_mult: 0
    decay_mult: 0
  }
  param {
    lr_mult: 0
    decay_mult: 0
  }
  param {
    lr_mult: 0
    decay_mult: 0
  }
  batch_norm_param {
    use_global_stats: true
  }
}
layer {
  name: "scale4b_branch2c"
  type: "Scale"
  bottom: "res4b_branch2c"
  top: "res4b_branch2c"
  param {
    lr_mult: 0
    decay_mult: 0
  }
  param {
    lr_mult: 0
    decay_mult: 0
  }
  scale_param {
    bias_term: true
  }
}
layer {
  name: "res4b"
  type: "Eltwise"
  bottom: "res4a"
  bottom: "res4b_branch2c"
  top: "res4b"
}
layer {
  name: "res4b_relu"
  type: "ReLU"
  bottom: "res4b"
  top: "res4b"
}
layer {
  name: "res4c_branch2a"
  type: "Convolution"
  bottom: "res4b"
  top: "res4c_branch2a"
  param {
    lr_mult: 1
  }
  convolution_param {
    num_output: 256
    bias_term: false
    pad: 0
    kernel_size: 1
    stride: 1
  }
}
layer {
  name: "bn4c_branch2a"
  type: "BatchNorm"
  bottom: "res4c_branch2a"
  top: "res4c_branch2a"
  param {
    lr_mult: 0
    decay_mult: 0
  }
  param {
    lr_mult: 0
    decay_mult: 0
  }
  param {
    lr_mult: 0
    decay_mult: 0
  }
  batch_norm_param {
    use_global_stats: true
  }
}
layer {
  name: "scale4c_branch2a"
  type: "Scale"
  bottom: "res4c_branch2a"
  top: "res4c_branch2a"
  param {
    lr_mult: 0
    decay_mult: 0
  }
  param {
    lr_mult: 0
    decay_mult: 0
  }
  scale_param {
    bias_term: true
  }
}
layer {
  name: "res4c_branch2a_relu"
  type: "ReLU"
  bottom: "res4c_branch2a"
  top: "res4c_branch2a"
}
layer {
  name: "res4c_branch2b"
  type: "Convolution"
  bottom: "res4c_branch2a"
  top: "res4c_branch2b"
  param {
    lr_mult: 1
  }
  convolution_param {
    num_output: 256
    bias_term: false
    pad: 1
    kernel_size: 3
    stride: 1
  }
}
layer {
  name: "bn4c_branch2b"
  type: "BatchNorm"
  bottom: "res4c_branch2b"
  top: "res4c_branch2b"
  param {
    lr_mult: 0
    decay_mult: 0
  }
  param {
    lr_mult: 0
    decay_mult: 0
  }
  param {
    lr_mult: 0
    decay_mult: 0
  }
  batch_norm_param {
    use_global_stats: true
  }
}
layer {
  name: "scale4c_branch2b"
  type: "Scale"
  bottom: "res4c_branch2b"
  top: "res4c_branch2b"
  param {
    lr_mult: 0
    decay_mult: 0
  }
  param {
    lr_mult: 0
    decay_mult: 0
  }
  scale_param {
    bias_term: true
  }
}
layer {
  name: "res4c_branch2b_relu"
  type: "ReLU"
  bottom: "res4c_branch2b"
  top: "res4c_
I0627 21:15:44.609077 12104 layer_factory.hpp:77] Creating layer input-data
I0627 21:15:44.663837 12104 net.cpp:100] Creating Layer input-data
I0627 21:15:44.663884 12104 net.cpp:418] input-data -> data
I0627 21:15:44.663985 12104 net.cpp:418] input-data -> im_info
I0627 21:15:44.664013 12104 net.cpp:418] input-data -> gt_boxes
RoiDataLayer: name_to_top: {'gt_boxes': 2, 'data': 0, 'im_info': 1}
I0627 21:15:45.086074 12104 net.cpp:150] Setting up input-data
I0627 21:15:45.086124 12104 net.cpp:157] Top shape: 1 3 960 1280 (3686400)
I0627 21:15:45.086133 12104 net.cpp:157] Top shape: 1 3 (3)
I0627 21:15:45.086136 12104 net.cpp:157] Top shape: 1 4 (4)
I0627 21:15:45.086139 12104 net.cpp:165] Memory required for data: 14745628
I0627 21:15:45.086172 12104 layer_factory.hpp:77] Creating layer data_input-data_0_split
I0627 21:15:45.086232 12104 net.cpp:100] Creating Layer data_input-data_0_split
I0627 21:15:45.086251 12104 net.cpp:444] data_input-data_0_split <- data
I0627 21:15:45.086300 12104 net.cpp:418] data_input-data_0_split -> data_input-data_0_split_0
I0627 21:15:45.086341 12104 net.cpp:418] data_input-data_0_split -> data_input-data_0_split_1
I0627 21:15:45.086444 12104 net.cpp:150] Setting up data_input-data_0_split
I0627 21:15:45.086457 12104 net.cpp:157] Top shape: 1 3 960 1280 (3686400)
I0627 21:15:45.086462 12104 net.cpp:157] Top shape: 1 3 960 1280 (3686400)
I0627 21:15:45.086467 12104 net.cpp:165] Memory required for data: 44236828
I0627 21:15:45.086472 12104 layer_factory.hpp:77] Creating layer im_info_input-data_1_split
I0627 21:15:45.086489 12104 net.cpp:100] Creating Layer im_info_input-data_1_split
I0627 21:15:45.086498 12104 net.cpp:444] im_info_input-data_1_split <- im_info
I0627 21:15:45.086520 12104 net.cpp:418] im_info_input-data_1_split -> im_info_input-data_1_split_0
I0627 21:15:45.086540 12104 net.cpp:418] im_info_input-data_1_split -> im_info_input-data_1_split_1
I0627 21:15:45.086602 12104 net.cpp:150] Setting up im_info_input-data_1_split
I0627 21:15:45.086613 12104 net.cpp:157] Top shape: 1 3 (3)
I0627 21:15:45.086617 12104 net.cpp:157] Top shape: 1 3 (3)
I0627 21:15:45.086621 12104 net.cpp:165] Memory required for data: 44236852
I0627 21:15:45.086625 12104 layer_factory.hpp:77] Creating layer gt_boxes_input-data_2_split
I0627 21:15:45.086639 12104 net.cpp:100] Creating Layer gt_boxes_input-data_2_split
I0627 21:15:45.086645 12104 net.cpp:444] gt_boxes_input-data_2_split <- gt_boxes
I0627 21:15:45.086660 12104 net.cpp:418] gt_boxes_input-data_2_split -> gt_boxes_input-data_2_split_0
I0627 21:15:45.086679 12104 net.cpp:418] gt_boxes_input-data_2_split -> gt_boxes_input-data_2_split_1
I0627 21:15:45.086760 12104 net.cpp:150] Setting up gt_boxes_input-data_2_split
I0627 21:15:45.086771 12104 net.cpp:157] Top shape: 1 4 (4)
I0627 21:15:45.086777 12104 net.cpp:157] Top shape: 1 4 (4)
I0627 21:15:45.086779 12104 net.cpp:165] Memory required for data: 44236884
I0627 21:15:45.086784 12104 layer_factory.hpp:77] Creating layer conv1
I0627 21:15:45.086823 12104 net.cpp:100] Creating Layer conv1
I0627 21:15:45.086833 12104 net.cpp:444] conv1 <- data_input-data_0_split_0
I0627 21:15:45.086851 12104 net.cpp:418] conv1 -> conv1
I0627 21:15:45.613714 12104 cudnn_conv_layer.cpp:194] Reallocating workspace storage: 5529624
I0627 21:15:45.614315 12104 net.cpp:150] Setting up conv1
I0627 21:15:45.614362 12104 net.cpp:157] Top shape: 1 64 480 640 (19660800)
I0627 21:15:45.614364 12104 net.cpp:165] Memory required for data: 122880084
I0627 21:15:45.614490 12104 layer_factory.hpp:77] Creating layer bn_conv1
I0627 21:15:45.614542 12104 net.cpp:100] Creating Layer bn_conv1
I0627 21:15:45.614560 12104 net.cpp:444] bn_conv1 <- conv1
I0627 21:15:45.614585 12104 net.cpp:405] bn_conv1 -> conv1 (in-place)
I0627 21:15:45.617059 12104 net.cpp:150] Setting up bn_conv1
I0627 21:15:45.617071 12104 net.cpp:157] Top shape: 1 64 480 640 (19660800)
I0627 21:15:45.617094 12104 net.cpp:165] Memory required for data: 201523284
I0627 21:15:45.617193 12104 layer_factory.hpp:77] Creating layer scale_conv1
I0627 21:15:45.617223 12104 net.cpp:100] Creating Layer scale_conv1
I0627 21:15:45.617233 12104 net.cpp:444] scale_conv1 <- conv1
I0627 21:15:45.617250 12104 net.cpp:405] scale_conv1 -> conv1 (in-place)
I0627 21:15:45.617348 12104 layer_factory.hpp:77] Creating layer scale_conv1
I0627 21:15:45.622884 12104 net.cpp:150] Setting up scale_conv1
I0627 21:15:45.622900 12104 net.cpp:157] Top shape: 1 64 480 640 (19660800)
I0627 21:15:45.622917 12104 net.cpp:165] Memory required for data: 280166484
I0627 21:15:45.622936 12104 layer_factory.hpp:77] Creating layer conv1_relu
I0627 21:15:45.622969 12104 net.cpp:100] Creating Layer conv1_relu
I0627 21:15:45.622977 12104 net.cpp:444] conv1_relu <- conv1
I0627 21:15:45.623008 12104 net.cpp:405] conv1_relu -> conv1 (in-place)
I0627 21:15:45.623248 12104 net.cpp:150] Setting up conv1_relu
I0627 21:15:45.623260 12104 net.cpp:157] Top shape: 1 64 480 640 (19660800)
I0627 21:15:45.623262 12104 net.cpp:165] Memory required for data: 358809684
I0627 21:15:45.623268 12104 layer_factory.hpp:77] Creating layer pool1
I0627 21:15:45.623298 12104 net.cpp:100] Creating Layer pool1
I0627 21:15:45.623307 12104 net.cpp:444] pool1 <- conv1
I0627 21:15:45.623327 12104 net.cpp:418] pool1 -> pool1
I0627 21:15:45.623419 12104 net.cpp:150] Setting up pool1
I0627 21:15:45.623433 12104 net.cpp:157] Top shape: 1 64 240 320 (4915200)
I0627 21:15:45.623436 12104 net.cpp:165] Memory required for data: 378470484
I0627 21:15:45.623445 12104 layer_factory.hpp:77] Creating layer pool1_pool1_0_split
I0627 21:15:45.623461 12104 net.cpp:100] Creating Layer pool1_pool1_0_split
I0627 21:15:45.623466 12104 net.cpp:444] pool1_pool1_0_split <- pool1
I0627 21:15:45.623482 12104 net.cpp:418] pool1_pool1_0_split -> pool1_pool1_0_split_0
I0627 21:15:45.623502 12104 net.cpp:418] pool1_pool1_0_split -> pool1_pool1_0_split_1
I0627 21:15:45.623569 12104 net.cpp:150] Setting up pool1_pool1_0_split
I0627 21:15:45.623580 12104 net.cpp:157] Top shape: 1 64 240 320 (4915200)
I0627 21:15:45.623585 12104 net.cpp:157] Top shape: 1 64 240 320 (4915200)
I0627 21:15:45.623589 12104 net.cpp:165] Memory required for data: 417792084
I0627 21:15:45.623594 12104 layer_factory.hpp:77] Creating layer res2a_branch1
I0627 21:15:45.623618 12104 net.cpp:100] Creating Layer res2a_branch1
I0627 21:15:45.623626 12104 net.cpp:444] res2a_branch1 <- pool1_pool1_0_split_0
I0627 21:15:45.623644 12104 net.cpp:418] res2a_branch1 -> res2a_branch1
I0627 21:15:45.625223 12104 cudnn_conv_layer.cpp:194] Reallocating workspace storage: 1388952
I0627 21:15:45.625808 12104 net.cpp:150] Setting up res2a_branch1
I0627 21:15:45.625823 12104 net.cpp:157] Top shape: 1 256 240 320 (19660800)
I0627 21:15:45.625826 12104 net.cpp:165] Memory required for data: 496435284
I0627 21:15:45.625857 12104 layer_factory.hpp:77] Creating layer bn2a_branch1
I0627 21:15:45.625880 12104 net.cpp:100] Creating Layer bn2a_branch1
I0627 21:15:45.625888 12104 net.cpp:444] bn2a_branch1 <- res2a_branch1
I0627 21:15:45.625910 12104 net.cpp:405] bn2a_branch1 -> res2a_branch1 (in-place)
I0627 21:15:45.626459 12104 net.cpp:150] Setting up bn2a_branch1
I0627 21:15:45.626469 12104 net.cpp:157] Top shape: 1 256 240 320 (19660800)
I0627 21:15:45.626472 12104 net.cpp:165] Memory required for data: 575078484
I0627 21:15:45.626543 12104 layer_factory.hpp:77] Creating layer scale2a_branch1
I0627 21:15:45.626565 12104 net.cpp:100] Creating Layer scale2a_branch1
I0627 21:15:45.626574 12104 net.cpp:444] scale2a_branch1 <- res2a_branch1
I0627 21:15:45.626593 12104 net.cpp:405] scale2a_branch1 -> res2a_branch1 (in-place)
I0627 21:15:45.626687 12104 layer_factory.hpp:77] Creating layer scale2a_branch1
I0627 21:15:45.627291 12104 net.cpp:150] Setting up scale2a_branch1
I0627 21:15:45.627301 12104 net.cpp:157] Top shape: 1 256 240 320 (19660800)
I0627 21:15:45.627305 12104 net.cpp:165] Memory required for data: 653721684
I0627 21:15:45.627336 12104 layer_factory.hpp:77] Creating layer res2a_branch2a
I0627 21:15:45.627373 12104 net.cpp:100] Creating Layer res2a_branch2a
I0627 21:15:45.627383 12104 net.cpp:444] res2a_branch2a <- pool1_pool1_0_split_1
I0627 21:15:45.627403 12104 net.cpp:418] res2a_branch2a -> res2a_branch2a
I0627 21:15:45.630542 12104 cudnn_conv_layer.cpp:194] Reallocating workspace storage: 1388952
I0627 21:15:45.631122 12104 net.cpp:150] Setting up res2a_branch2a
I0627 21:15:45.631153 12104 net.cpp:157] Top shape: 1 64 240 320 (4915200)
I0627 21:15:45.631156 12104 net.cpp:165] Memory required for data: 673382484
I0627 21:15:45.631171 12104 layer_factory.hpp:77] Creating layer bn2a_branch2a
I0627 21:15:45.631209 12104 net.cpp:100] Creating Layer bn2a_branch2a
I0627 21:15:45.631240 12104 net.cpp:444] bn2a_branch2a <- res2a_branch2a
I0627 21:15:45.631259 12104 net.cpp:405] bn2a_branch2a -> res2a_branch2a (in-place)
I0627 21:15:45.631817 12104 net.cpp:150] Setting up bn2a_branch2a
I0627 21:15:45.631827 12104 net.cpp:157] Top shape: 1 64 240 320 (4915200)
I0627 21:15:45.631845 12104 net.cpp:165] Memory required for data: 693043284
I0627 21:15:45.631883 12104 layer_factory.hpp:77] Creating layer scale2a_branch2a
I0627 21:15:45.631925 12104 net.cpp:100] Creating Layer scale2a_branch2a
I0627 21:15:45.631934 12104 net.cpp:444] scale2a_branch2a <- res2a_branch2a
I0627 21:15:45.631950 12104 net.cpp:405] scale2a_branch2a -> res2a_branch2a (in-place)
I0627 21:15:45.632040 12104 layer_factory.hpp:77] Creating layer scale2a_branch2a
I0627 21:15:45.632659 12104 net.cpp:150] Setting up scale2a_branch2a
I0627 21:15:45.632668 12104 net.cpp:157] Top shape: 1 64 240 320 (4915200)
I0627 21:15:45.632686 12104 net.cpp:165] Memory required for data: 712704084
I0627 21:15:45.632702 12104 layer_factory.hpp:77] Creating layer res2a_branch2a_relu
I0627 21:15:45.632740 12104 net.cpp:100] Creating Layer res2a_branch2a_relu
I0627 21:15:45.632747 12104 net.cpp:444] res2a_branch2a_relu <- res2a_branch2a
I0627 21:15:45.632762 12104 net.cpp:405] res2a_branch2a_relu -> res2a_branch2a (in-place)
I0627 21:15:45.633004 12104 net.cpp:150] Setting up res2a_branch2a_relu
I0627 21:15:45.633014 12104 net.cpp:157] Top shape: 1 64 240 320 (4915200)
I0627 21:15:45.633018 12104 net.cpp:165] Memory required for data: 732364884
I0627 21:15:45.633023 12104 layer_factory.hpp:77] Creating layer res2a_branch2b
I0627 21:15:45.633045 12104 net.cpp:100] Creating Layer res2a_branch2b
I0627 21:15:45.633069 12104 net.cpp:444] res2a_branch2b <- res2a_branch2a
I0627 21:15:45.633128 12104 net.cpp:418] res2a_branch2b -> res2a_branch2b
I0627 21:15:45.636162 12104 cudnn_conv_layer.cpp:194] Reallocating workspace storage: 786432
I0627 21:15:45.636756 12104 net.cpp:150] Setting up res2a_branch2b
I0627 21:15:45.636788 12104 net.cpp:157] Top shape: 1 64 240 320 (4915200)
I0627 21:15:45.636792 12104 net.cpp:165] Memory required for data: 752025684
I0627 21:15:45.636807 12104 layer_factory.hpp:77] Creating layer bn2a_branch2b
I0627 21:15:45.636843 12104 net.cpp:100] Creating Layer bn2a_branch2b
I0627 21:15:45.636868 12104 net.cpp:444] bn2a_branch2b <- res2a_branch2b
I0627 21:15:45.636888 12104 net.cpp:405] bn2a_branch2b -> res2a_branch2b (in-place)
I0627 21:15:45.637483 12104 net.cpp:150] Setting up bn2a_branch2b
I0627 21:15:45.637493 12104 net.cpp:157] Top shape: 1 64 240 320 (4915200)
I0627 21:15:45.637512 12104 net.cpp:165] Memory required for data: 771686484
I0627 21:15:45.637534 12104 layer_factory.hpp:77] Creating layer scale2a_branch2b
I0627 21:15:45.637588 12104 net.cpp:100] Creating Layer scale2a_branch2b
I0627 21:15:45.637598 12104 net.cpp:444] scale2a_branch2b <- res2a_branch2b
I0627 21:15:45.637619 12104 net.cpp:405] scale2a_branch2b -> res2a_branch2b (in-place)
I0627 21:15:45.637711 12104 layer_factory.hpp:77] Creating layer scale2a_branch2b
I0627 21:15:45.639888 12104 net.cpp:150] Setting up scale2a_branch2b
I0627 21:15:45.639899 12104 net.cpp:157] Top shape: 1 64 240 320 (4915200)
I0627 21:15:45.639914 12104 net.cpp:165] Memory required for data: 791347284
I0627 21:15:45.639930 12104 layer_factory.hpp:77] Creating layer res2a_branch2b_relu
I0627 21:15:45.639964 12104 net.cpp:100] Creating Layer res2a_branch2b_relu
I0627 21:15:45.639988 12104 net.cpp:444] res2a_branch2b_relu <- res2a_branch2b
I0627 21:15:45.640009 12104 net.cpp:405] res2a_branch2b_relu -> res2a_branch2b (in-place)
I0627 21:15:45.640755 12104 net.cpp:150] Setting up res2a_branch2b_relu
I0627 21:15:45.640767 12104 net.cpp:157] Top shape: 1 64 240 320 (4915200)
I0627 21:15:45.640770 12104 net.cpp:165] Memory required for data: 811008084
I0627 21:15:45.640791 12104 layer_factory.hpp:77] Creating layer res2a_branch2c
I0627 21:15:45.640832 12104 net.cpp:100] Creating Layer res2a_branch2c
I0627 21:15:45.640842 12104 net.cpp:444] res2a_branch2c <- res2a_branch2b
I0627 21:15:45.640866 12104 net.cpp:418] res2a_branch2c -> res2a_branch2c
I0627 21:15:45.642479 12104 cudnn_conv_layer.cpp:194] Reallocating workspace storage: 1388952
I0627 21:15:45.643090 12104 net.cpp:150] Setting up res2a_branch2c
I0627 21:15:45.643121 12104 net.cpp:157] Top shape: 1 256 240 320 (19660800)
I0627 21:15:45.643124 12104 net.cpp:165] Memory required for data: 889651284
I0627 21:15:45.643141 12104 layer_factory.hpp:77] Creating layer bn2a_branch2c
I0627 21:15:45.643177 12104 net.cpp:100] Creating Layer bn2a_branch2c
I0627 21:15:45.643184 12104 net.cpp:444] bn2a_branch2c <- res2a_branch2c
I0627 21:15:45.643220 12104 net.cpp:405] bn2a_branch2c -> res2a_branch2c (in-place)
I0627 21:15:45.643774 12104 net.cpp:150] Setting up bn2a_branch2c
I0627 21:15:45.643782 12104 net.cpp:157] Top shape: 1 256 240 320 (19660800)
I0627 21:15:45.643784 12104 net.cpp:165] Memory required for data: 968294484
I0627 21:15:45.643836 12104 layer_factory.hpp:77] Creating layer scale2a_branch2c
I0627 21:15:45.643854 12104 net.cpp:100] Creating Layer scale2a_branch2c
I0627 21:15:45.643877 12104 net.cpp:444] scale2a_branch2c <- res2a_branch2c
I0627 21:15:45.643896 12104 net.cpp:405] scale2a_branch2c -> res2a_branch2c (in-place)
I0627 21:15:45.643988 12104 layer_factory.hpp:77] Creating layer scale2a_branch2c
I0627 21:15:45.644634 12104 net.cpp:150] Setting up scale2a_branch2c
I0627 21:15:45.644644 12104 net.cpp:157] Top shape: 1 256 240 320 (19660800)
I0627 21:15:45.644646 12104 net.cpp:165] Memory required for data: 1046937684
I0627 21:15:45.644671 12104 layer_factory.hpp:77] Creating layer res2a
I0627 21:15:45.644702 12104 net.cpp:100] Creating Layer res2a
I0627 21:15:45.644711 12104 net.cpp:444] res2a <- res2a_branch1
I0627 21:15:45.644739 12104 net.cpp:444] res2a <- res2a_branch2c
I0627 21:15:45.644749 12104 net.cpp:418] res2a -> res2a
I0627 21:15:45.644810 12104 net.cpp:150] Setting up res2a
I0627 21:15:45.644822 12104 net.cpp:157] Top shape: 1 256 240 320 (19660800)
I0627 21:15:45.644825 12104 net.cpp:165] Memory required for data: 1125580884
I0627 21:15:45.644831 12104 layer_factory.hpp:77] Creating layer res2a_relu
I0627 21:15:45.644845 12104 net.cpp:100] Creating Layer res2a_relu
I0627 21:15:45.644851 12104 net.cpp:444] res2a_relu <- res2a
I0627 21:15:45.644867 12104 net.cpp:405] res2a_relu -> res2a (in-place)
I0627 21:15:45.645130 12104 net.cpp:150] Setting up res2a_relu
I0627 21:15:45.645144 12104 net.cpp:157] Top shape: 1 256 240 320 (19660800)
I0627 21:15:45.645148 12104 net.cpp:165] Memory required for data: 1204224084
I0627 21:15:45.645153 12104 layer_factory.hpp:77] Creating layer res2a_res2a_relu_0_split
I0627 21:15:45.645169 12104 net.cpp:100] Creating Layer res2a_res2a_relu_0_split
I0627 21:15:45.645179 12104 net.cpp:444] res2a_res2a_relu_0_split <- res2a
I0627 21:15:45.645196 12104 net.cpp:418] res2a_res2a_relu_0_split -> res2a_res2a_relu_0_split_0
I0627 21:15:45.645218 12104 net.cpp:418] res2a_res2a_relu_0_split -> res2a_res2a_relu_0_split_1
I0627 21:15:45.645301 12104 net.cpp:150] Setting up res2a_res2a_relu_0_split
I0627 21:15:45.645314 12104 net.cpp:157] Top shape: 1 256 240 320 (19660800)
I0627 21:15:45.645319 12104 net.cpp:157] Top shape: 1 256 240 320 (19660800)
I0627 21:15:45.645321 12104 net.cpp:165] Memory required for data: 1361510484
I0627 21:15:45.645328 12104 layer_factory.hpp:77] Creating layer res2b_branch2a
I0627 21:15:45.645347 12104 net.cpp:100] Creating Layer res2b_branch2a
I0627 21:15:45.645355 12104 net.cpp:444] res2b_branch2a <- res2a_res2a_relu_0_split_0
I0627 21:15:45.645375 12104 net.cpp:418] res2b_branch2a -> res2b_branch2a
I0627 21:15:45.646953 12104 cudnn_conv_layer.cpp:194] Reallocating workspace storage: 1388952
I0627 21:15:45.647527 12104 net.cpp:150] Setting up res2b_branch2a
I0627 21:15:45.647555 12104 net.cpp:157] Top shape: 1 64 240 320 (4915200)
I0627 21:15:45.647558 12104 net.cpp:165] Memory required for data: 1381171284
I0627 21:15:45.647589 12104 layer_factory.hpp:77] Creating layer bn2b_branch2a
I0627 21:15:45.647610 12104 net.cpp:100] Creating Layer bn2b_branch2a
I0627 21:15:45.647620 12104 net.cpp:444] bn2b_branch2a <- res2b_branch2a
I0627 21:15:45.647641 12104 net.cpp:405] bn2b_branch2a -> res2b_branch2a (in-place)
I0627 21:15:45.648197 12104 net.cpp:150] Setting up bn2b_branch2a
I0627 21:15:45.648207 12104 net.cpp:157] Top shape: 1 64 240 320 (4915200)
I0627 21:15:45.648221 12104 net.cpp:165] Memory required for data: 1400832084
I0627 21:15:45.648278 12104 layer_factory.hpp:77] Creating layer scale2b_branch2a
I0627 21:15:45.648300 12104 net.cpp:100] Creating Layer scale2b_branch2a
I0627 21:15:45.648309 12104 net.cpp:444] scale2b_branch2a <- res2b_branch2a
I0627 21:15:45.648329 12104 net.cpp:405] scale2b_branch2a -> res2b_branch2a (in-place)
I0627 21:15:45.648430 12104 layer_factory.hpp:77] Creating layer scale2b_branch2a
I0627 21:15:45.650632 12104 net.cpp:150] Setting up scale2b_branch2a
I0627 21:15:45.650645 12104 net.cpp:157] Top shape: 1 64 240 320 (4915200)
I0627 21:15:45.650660 12104 net.cpp:165] Memory required for data: 1420492884
I0627 21:15:45.650679 12104 layer_factory.hpp:77] Creating layer res2b_branch2a_relu
I0627 21:15:45.650710 12104 net.cpp:100] Creating Layer res2b_branch2a_relu
I0627 21:15:45.650719 12104 net.cpp:444] res2b_branch2a_relu <- res2b_branch2a
I0627 21:15:45.650739 12104 net.cpp:405] res2b_branch2a_relu -> res2b_branch2a (in-place)
I0627 21:15:45.650979 12104 net.cpp:150] Setting up res2b_branch2a_relu
I0627 21:15:45.650990 12104 net.cpp:157] Top shape: 1 64 240 320 (4915200)
I0627 21:15:45.650992 12104 net.cpp:165] Memory required for data: 1440153684
I0627 21:15:45.650998 12104 layer_factory.hpp:77] Creating layer res2b_branch2b
I0627 21:15:45.651021 12104 net.cpp:100] Creating Layer res2b_branch2b
I0627 21:15:45.651029 12104 net.cpp:444] res2b_branch2b <- res2b_branch2a
I0627 21:15:45.651052 12104 net.cpp:418] res2b_branch2b -> res2b_branch2b
I0627 21:15:45.658579 12104 cudnn_conv_layer.cpp:194] Reallocating workspace storage: 786432
I0627 21:15:45.658612 12104 net.cpp:150] Setting up res2b_branch2b
I0627 21:15:45.658623 12104 net.cpp:157] Top shape: 1 64 240 320 (4915200)
I0627 21:15:45.658627 12104 net.cpp:165] Memory required for data: 1459814484
I0627 21:15:45.658656 12104 layer_factory.hpp:77] Creating layer bn2b_branch2b
I0627 21:15:45.658687 12104 net.cpp:100] Creating Layer bn2b_branch2b
I0627 21:15:45.658699 12104 net.cpp:444] bn2b_branch2b <- res2b_branch2b
I0627 21:15:45.658718 12104 net.cpp:405] bn2b_branch2b -> res2b_branch2b (in-place)
I0627 21:15:45.659286 12104 net.cpp:150] Setting up bn2b_branch2b
I0627 21:15:45.659294 12104 net.cpp:157] Top shape: 1 64 240 320 (4915200)
I0627 21:15:45.659312 12104 net.cpp:165] Memory required for data: 1479475284
I0627 21:15:45.659338 12104 layer_factory.hpp:77] Creating layer scale2b_branch2b
I0627 21:15:45.659371 12104 net.cpp:100] Creating Layer scale2b_branch2b
I0627 21:15:45.659382 12104 net.cpp:444] scale2b_branch2b <- res2b_branch2b
I0627 21:15:45.659402 12104 net.cpp:405] scale2b_branch2b -> res2b_branch2b (in-place)
I0627 21:15:45.659500 12104 layer_factory.hpp:77] Creating layer scale2b_branch2b
I0627 21:15:45.660120 12104 net.cpp:150] Setting up scale2b_branch2b
I0627 21:15:45.660130 12104 net.cpp:157] Top shape: 1 64 240 320 (4915200)
I0627 21:15:45.660149 12104 net.cpp:165] Memory required for data: 1499136084
I0627 21:15:45.660164 12104 layer_factory.hpp:77] Creating layer res2b_branch2b_relu
I0627 21:15:45.660177 12104 net.cpp:100] Creating Layer res2b_branch2b_relu
I0627 21:15:45.660184 12104 net.cpp:444] res2b_branch2b_relu <- res2b_branch2b
I0627 21:15:45.660231 12104 net.cpp:405] res2b_branch2b_relu -> res2b_branch2b (in-place)
I0627 21:15:45.662250 12104 net.cpp:150] Setting up res2b_branch2b_relu
I0627 21:15:45.662263 12104 net.cpp:157] Top shape: 1 64 240 320 (4915200)
I0627 21:15:45.662281 12104 net.cpp:165] Memory required for data: 1518796884
I0627 21:15:45.662302 12104 layer_factory.hpp:77] Creating layer res2b_branch2c
I0627 21:15:45.662343 12104 net.cpp:100] Creating Layer res2b_branch2c
I0627 21:15:45.662350 12104 net.cpp:444] res2b_branch2c <- res2b_branch2b
I0627 21:15:45.662389 12104 net.cpp:418] res2b_branch2c -> res2b_branch2c
I0627 21:15:45.663995 12104 cudnn_conv_layer.cpp:194] Reallocating workspace storage: 1388952
I0627 21:15:45.664597 12104 net.cpp:150] Setting up res2b_branch2c
I0627 21:15:45.664628 12104 net.cpp:157] Top shape: 1 256 240 320 (19660800)
I0627 21:15:45.664630 12104 net.cpp:165] Memory required for data: 1597440084
I0627 21:15:45.664645 12104 layer_factory.hpp:77] Creating layer bn2b_branch2c
I0627 21:15:45.664681 12104 net.cpp:100] Creating Layer bn2b_branch2c
I0627 21:15:45.664688 12104 net.cpp:444] bn2b_branch2c <- res2b_branch2c
I0627 21:15:45.664741 12104 net.cpp:405] bn2b_branch2c -> res2b_branch2c (in-place)
I0627 21:15:45.665449 12104 net.cpp:150] Setting up bn2b_branch2c
I0627 21:15:45.665463 12104 net.cpp:157] Top shape: 1 256 240 320 (19660800)
I0627 21:15:45.665482 12104 net.cpp:165] Memory required for data: 1676083284
I0627 21:15:45.665509 12104 layer_factory.hpp:77] Creating layer scale2b_branch2c
I0627 21:15:45.665546 12104 net.cpp:100] Creating Layer scale2b_branch2c
I0627 21:15:45.665556 12104 net.cpp:444] scale2b_branch2c <- res2b_branch2c
I0627 21:15:45.665591 12104 net.cpp:405] scale2b_branch2c -> res2b_branch2c (in-place)
I0627 21:15:45.665688 12104 layer_factory.hpp:77] Creating layer scale2b_branch2c
I0627 21:15:45.667807 12104 net.cpp:150] Setting up scale2b_branch2c
I0627 21:15:45.667819 12104 net.cpp:157] Top shape: 1 256 240 320 (19660800)
I0627 21:15:45.667837 12104 net.cpp:165] Memory required for data: 1754726484
I0627 21:15:45.667855 12104 layer_factory.hpp:77] Creating layer res2b
I0627 21:15:45.667886 12104 net.cpp:100] Creating Layer res2b
I0627 21:15:45.667892 12104 net.cpp:444] res2b <- res2a_res2a_relu_0_split_1
I0627 21:15:45.667906 12104 net.cpp:444] res2b <- res2b_branch2c
I0627 21:15:45.667945 12104 net.cpp:418] res2b -> res2b
I0627 21:15:45.668015 12104 net.cpp:150] Setting up res2b
I0627 21:15:45.668043 12104 net.cpp:157] Top shape: 1 256 240 320 (19660800)
I0627 21:15:45.668048 12104 net.cpp:165] Memory required for data: 1833369684
I0627 21:15:45.668053 12104 layer_factory.hpp:77] Creating layer res2b_relu
I0627 21:15:45.668072 12104 net.cpp:100] Creating Layer res2b_relu
I0627 21:15:45.668081 12104 net.cpp:444] res2b_relu <- res2b
I0627 21:15:45.668103 12104 net.cpp:405] res2b_relu -> res2b (in-place)
I0627 21:15:45.668375 12104 net.cpp:150] Setting up res2b_relu
I0627 21:15:45.668385 12104 net.cpp:157] Top shape: 1 256 240 320 (19660800)
I0627 21:15:45.668390 12104 net.cpp:165] Memory required for data: 1912012884
I0627 21:15:45.668395 12104 layer_factory.hpp:77] Creating layer res2b_res2b_relu_0_split
I0627 21:15:45.668414 12104 net.cpp:100] Creating Layer res2b_res2b_relu_0_split
I0627 21:15:45.668423 12104 net.cpp:444] res2b_res2b_relu_0_split <- res2b
I0627 21:15:45.668444 12104 net.cpp:418] res2b_res2b_relu_0_split -> res2b_res2b_relu_0_split_0
I0627 21:15:45.668480 12104 net.cpp:418] res2b_res2b_relu_0_split -> res2b_res2b_relu_0_split_1
I0627 21:15:45.668567 12104 net.cpp:150] Setting up res2b_res2b_relu_0_split
I0627 21:15:45.668579 12104 net.cpp:157] Top shape: 1 256 240 320 (19660800)
I0627 21:15:45.668586 12104 net.cpp:157] Top shape: 1 256 240 320 (19660800)
I0627 21:15:45.668587 12104 net.cpp:165] Memory required for data: 2069299284
I0627 21:15:45.668593 12104 layer_factory.hpp:77] Creating layer res2c_branch2a
I0627 21:15:45.668615 12104 net.cpp:100] Creating Layer res2c_branch2a
I0627 21:15:45.668624 12104 net.cpp:444] res2c_branch2a <- res2b_res2b_relu_0_split_0
I0627 21:15:45.668643 12104 net.cpp:418] res2c_branch2a -> res2c_branch2a
I0627 21:15:45.670398 12104 cudnn_conv_layer.cpp:194] Reallocating workspace storage: 1388952
I0627 21:15:45.670959 12104 net.cpp:150] Setting up res2c_branch2a
I0627 21:15:45.670990 12104 net.cpp:157] Top shape: 1 64 240 320 (4915200)
I0627 21:15:45.670994 12104 net.cpp:165] Memory required for data: 2088960084
I0627 21:15:45.671010 12104 layer_factory.hpp:77] Creating layer bn2c_branch2a
I0627 21:15:45.671043 12104 net.cpp:100] Creating Layer bn2c_branch2a
I0627 21:15:45.671051 12104 net.cpp:444] bn2c_branch2a <- res2c_branch2a
I0627 21:15:45.671072 12104 net.cpp:405] bn2c_branch2a -> res2c_branch2a (in-place)
I0627 21:15:45.671671 12104 net.cpp:150] Setting up bn2c_branch2a
I0627 21:15:45.671681 12104 net.cpp:157] Top shape: 1 64 240 320 (4915200)
I0627 21:15:45.671700 12104 net.cpp:165] Memory required for data: 2108620884
I0627 21:15:45.671722 12104 layer_factory.hpp:77] Creating layer scale2c_branch2a
I0627 21:15:45.671757 12104 net.cpp:100] Creating Layer scale2c_branch2a
I0627 21:15:45.671764 12104 net.cpp:444] scale2c_branch2a <- res2c_branch2a
I0627 21:15:45.671795 12104 net.cpp:405] scale2c_branch2a -> res2c_branch2a (in-place)
I0627 21:15:45.671892 12104 layer_factory.hpp:77] Creating layer scale2c_branch2a
I0627 21:15:45.672536 12104 net.cpp:150] Setting up scale2c_branch2a
I0627 21:15:45.672547 12104 net.cpp:157] Top shape: 1 64 240 320 (4915200)
I0627 21:15:45.672566 12104 net.cpp:165] Memory required for data: 2128281684
I0627 21:15:45.672581 12104 layer_factory.hpp:77] Creating layer res2c_branch2a_relu
I0627 21:15:45.672610 12104 net.cpp:100] Creating Layer res2c_branch2a_relu
I0627 21:15:45.672631 12104 net.cpp:444] res2c_branch2a_relu <- res2c_branch2a
I0627 21:15:45.672646 12104 net.cpp:405] res2c_branch2a_relu -> res2c_branch2a (in-place)
I0627 21:15:45.672895 12104 net.cpp:150] Setting up res2c_branch2a_relu
I0627 21:15:45.672906 12104 net.cpp:157] Top shape: 1 64 240 320 (4915200)
I0627 21:15:45.672909 12104 net.cpp:165] Memory required for data: 2147942484
I0627 21:15:45.672915 12104 layer_factory.hpp:77] Creating layer res2c_branch2b
I0627 21:15:45.672936 12104 net.cpp:100] Creating Layer res2c_branch2b
I0627 21:15:45.672945 12104 net.cpp:444] res2c_branch2b <- res2c_branch2a
I0627 21:15:45.672981 12104 net.cpp:418] res2c_branch2b -> res2c_branch2b
I0627 21:15:45.674629 12104 cudnn_conv_layer.cpp:194] Reallocating workspace storage: 786432
I0627 21:15:45.675216 12104 net.cpp:150] Setting up res2c_branch2b
I0627 21:15:45.675246 12104 net.cpp:157] Top shape: 1 64 240 320 (4915200)
I0627 21:15:45.675249 12104 net.cpp:165] Memory required for data: 2167603284
I0627 21:15:45.675266 12104 layer_factory.hpp:77] Creating layer bn2c_branch2b
I0627 21:15:45.675302 12104 net.cpp:100] Creating Layer bn2c_branch2b
I0627 21:15:45.675309 12104 net.cpp:444] bn2c_branch2b <- res2c_branch2b
I0627 21:15:45.675330 12104 net.cpp:405] bn2c_branch2b -> res2c_branch2b (in-place)
I0627 21:15:45.675920 12104 net.cpp:150] Setting up bn2c_branch2b
I0627 21:15:45.675930 12104 net.cpp:157] Top shape: 1 64 240 320 (4915200)
I0627 21:15:45.675947 12104 net.cpp:165] Memory required for data: 2187264084
I0627 21:15:45.675969 12104 layer_factory.hpp:77] Creating layer scale2c_branch2b
I0627 21:15:45.676004 12104 net.cpp:100] Creating Layer scale2c_branch2b
I0627 21:15:45.676013 12104 net.cpp:444] scale2c_branch2b <- res2c_branch2b
I0627 21:15:45.676048 12104 net.cpp:405] scale2c_branch2b -> res2c_branch2b (in-place)
I0627 21:15:45.676144 12104 layer_factory.hpp:77] Creating layer scale2c_branch2b
I0627 21:15:45.678287 12104 net.cpp:150] Setting up scale2c_branch2b
I0627 21:15:45.678297 12104 net.cpp:157] Top shape: 1 64 240 320 (4915200)
I0627 21:15:45.678311 12104 net.cpp:165] Memory required for data: 2206924884
I0627 21:15:45.678328 12104 layer_factory.hpp:77] Creating layer res2c_branch2b_relu
I0627 21:15:45.678364 12104 net.cpp:100] Creating Layer res2c_branch2b_relu
I0627 21:15:45.678387 12104 net.cpp:444] res2c_branch2b_relu <- res2c_branch2b
I0627 21:15:45.678407 12104 net.cpp:405] res2c_branch2b_relu -> res2c_branch2b (in-place)
I0627 21:15:45.678642 12104 net.cpp:150] Setting up res2c_branch2b_relu
I0627 21:15:45.678653 12104 net.cpp:157] Top shape: 1 64 240 320 (4915200)
I0627 21:15:45.678654 12104 net.cpp:165] Memory required for data: 2226585684
I0627 21:15:45.678660 12104 layer_factory.hpp:77] Creating layer res2c_branch2c
I0627 21:15:45.678684 12104 net.cpp:100] Creating Layer res2c_branch2c
I0627 21:15:45.678694 12104 net.cpp:444] res2c_branch2c <- res2c_branch2b
I0627 21:15:45.678714 12104 net.cpp:418] res2c_branch2c -> res2c_branch2c
I0627 21:15:45.680261 12104 cudnn_conv_layer.cpp:194] Reallocating workspace storage: 1388952
I0627 21:15:45.680826 12104 net.cpp:150] Setting up res2c_branch2c
I0627 21:15:45.680856 12104 net.cpp:157] Top shape: 1 256 240 320 (19660800)
I0627 21:15:45.680861 12104 net.cpp:165] Memory required for data: 2305228884
I0627 21:15:45.680876 12104 layer_factory.hpp:77] Creating layer bn2c_branch2c
I0627 21:15:45.680907 12104 net.cpp:100] Creating Layer bn2c_branch2c
I0627 21:15:45.680934 12104 net.cpp:444] bn2c_branch2c <- res2c_branch2c
I0627 21:15:45.680956 12104 net.cpp:405] bn2c_branch2c -> res2c_branch2c (in-place)
I0627 21:15:45.681576 12104 net.cpp:150] Setting up bn2c_branch2c
I0627 21:15:45.681586 12104 net.cpp:157] Top shape: 1 256 240 320 (19660800)
I0627 21:15:45.681599 12104 net.cpp:165] Memory required for data: 2383872084
I0627 21:15:45.681687 12104 layer_factory.hpp:77] Creating layer scale2c_branch2c
I0627 21:15:45.681710 12104 net.cpp:100] Creating Layer scale2c_branch2c
I0627 21:15:45.681718 12104 net.cpp:444] scale2c_branch2c <- res2c_branch2c
I0627 21:15:45.681738 12104 net.cpp:405] scale2c_branch2c -> res2c_branch2c (in-place)
I0627 21:15:45.681834 12104 layer_factory.hpp:77] Creating layer scale2c_branch2c
I0627 21:15:45.682441 12104 net.cpp:150] Setting up scale2c_branch2c
I0627 21:15:45.682451 12104 net.cpp:157] Top shape: 1 256 240 320 (19660800)
I0627 21:15:45.682466 12104 net.cpp:165] Memory required for data: 2462515284
I0627 21:15:45.682480 12104 layer_factory.hpp:77] Creating layer res2c
I0627 21:15:45.682509 12104 net.cpp:100] Creating Layer res2c
I0627 21:15:45.682518 12104 net.cpp:444] res2c <- res2b_res2b_relu_0_split_1
I0627 21:15:45.682533 12104 net.cpp:444] res2c <- res2c_branch2c
I0627 21:15:45.682543 12104 net.cpp:418] res2c -> res2c
I0627 21:15:45.682603 12104 net.cpp:150] Setting up res2c
I0627 21:15:45.682615 12104 net.cpp:157] Top shape: 1 256 240 320 (19660800)
I0627 21:15:45.682618 12104 net.cpp:165] Memory required for data: 2541158484
I0627 21:15:45.682623 12104 layer_factory.hpp:77] Creating layer res2c_relu
I0627 21:15:45.682636 12104 net.cpp:100] Creating Layer res2c_relu
I0627 21:15:45.682646 12104 net.cpp:444] res2c_relu <- res2c
I0627 21:15:45.682663 12104 net.cpp:405] res2c_relu -> res2c (in-place)
I0627 21:15:45.687041 12104 net.cpp:150] Setting up res2c_relu
I0627 21:15:45.687057 12104 net.cpp:157] Top shape: 1 256 240 320 (19660800)
I0627 21:15:45.687059 12104 net.cpp:165] Memory required for data: 2619801684
I0627 21:15:45.687068 12104 layer_factory.hpp:77] Creating layer res2c_res2c_relu_0_split
I0627 21:15:45.687091 12104 net.cpp:100] Creating Layer res2c_res2c_relu_0_split
I0627 21:15:45.687114 12104 net.cpp:444] res2c_res2c_relu_0_split <- res2c
I0627 21:15:45.687134 12104 net.cpp:418] res2c_res2c_relu_0_split -> res2c_res2c_relu_0_split_0
I0627 21:15:45.687158 12104 net.cpp:418] res2c_res2c_relu_0_split -> res2c_res2c_relu_0_split_1
I0627 21:15:45.687247 12104 net.cpp:150] Setting up res2c_res2c_relu_0_split
I0627 21:15:45.687261 12104 net.cpp:157] Top shape: 1 256 240 320 (19660800)
I0627 21:15:45.687266 12104 net.cpp:157] Top shape: 1 256 240 320 (19660800)
I0627 21:15:45.687269 12104 net.cpp:165] Memory required for data: 2777088084
I0627 21:15:45.687274 12104 layer_factory.hpp:77] Creating layer res3a_branch1
I0627 21:15:45.687294 12104 net.cpp:100] Creating Layer res3a_branch1
I0627 21:15:45.687304 12104 net.cpp:444] res3a_branch1 <- res2c_res2c_relu_0_split_0
I0627 21:15:45.687325 12104 net.cpp:418] res3a_branch1 -> res3a_branch1
I0627 21:15:45.689296 12104 cudnn_conv_layer.cpp:194] Reallocating workspace storage: 345624
I0627 21:15:45.689342 12104 net.cpp:150] Setting up res3a_branch1
I0627 21:15:45.689355 12104 net.cpp:157] Top shape: 1 512 120 160 (9830400)
I0627 21:15:45.689362 12104 net.cpp:165] Memory required for data: 2816409684
I0627 21:15:45.689378 12104 layer_factory.hpp:77] Creating layer bn3a_branch1
I0627 21:15:45.689402 12104 net.cpp:100] Creating Layer bn3a_branch1
I0627 21:15:45.689412 12104 net.cpp:444] bn3a_branch1 <- res3a_branch1
I0627 21:15:45.689435 12104 net.cpp:405] bn3a_branch1 -> res3a_branch1 (in-place)
I0627 21:15:45.691474 12104 net.cpp:150] Setting up bn3a_branch1
I0627 21:15:45.691488 12104 net.cpp:157] Top shape: 1 512 120 160 (9830400)
I0627 21:15:45.691491 12104 net.cpp:165] Memory required for data: 2855731284
I0627 21:15:45.691517 12104 layer_factory.hpp:77] Creating layer scale3a_branch1
I0627 21:15:45.691545 12104 net.cpp:100] Creating Layer scale3a_branch1
I0627 21:15:45.691553 12104 net.cpp:444] scale3a_branch1 <- res3a_branch1
I0627 21:15:45.691572 12104 net.cpp:405] scale3a_branch1 -> res3a_branch1 (in-place)
I0627 21:15:45.691659 12104 layer_factory.hpp:77] Creating layer scale3a_branch1
I0627 21:15:45.692016 12104 net.cpp:150] Setting up scale3a_branch1
I0627 21:15:45.692028 12104 net.cpp:157] Top shape: 1 512 120 160 (9830400)
I0627 21:15:45.692030 12104 net.cpp:165] Memory required for data: 2895052884
I0627 21:15:45.692045 12104 layer_factory.hpp:77] Creating layer res3a_branch2a
I0627 21:15:45.692070 12104 net.cpp:100] Creating Layer res3a_branch2a
I0627 21:15:45.692080 12104 net.cpp:444] res3a_branch2a <- res2c_res2c_relu_0_split_1
I0627 21:15:45.692101 12104 net.cpp:418] res3a_branch2a -> res3a_branch2a
I0627 21:15:45.693878 12104 cudnn_conv_layer.cpp:194] Reallocating workspace storage: 345624
I0627 21:15:45.693907 12104 net.cpp:150] Setting up res3a_branch2a
I0627 21:15:45.693917 12104 net.cpp:157] Top shape: 1 128 120 160 (2457600)
I0627 21:15:45.693922 12104 net.cpp:165] Memory required for data: 2904883284
I0627 21:15:45.693936 12104 layer_factory.hpp:77] Creating layer bn3a_branch2a
I0627 21:15:45.693958 12104 net.cpp:100] Creating Layer bn3a_branch2a
I0627 21:15:45.693969 12104 net.cpp:444] bn3a_branch2a <- res3a_branch2a
I0627 21:15:45.693987 12104 net.cpp:405] bn3a_branch2a -> res3a_branch2a (in-place)
I0627 21:15:45.694397 12104 net.cpp:150] Setting up bn3a_branch2a
I0627 21:15:45.694407 12104 net.cpp:157] Top shape: 1 128 120 160 (2457600)
I0627 21:15:45.694411 12104 net.cpp:165] Memory required for data: 2914713684
I0627 21:15:45.694433 12104 layer_factory.hpp:77] Creating layer scale3a_branch2a
I0627 21:15:45.694454 12104 net.cpp:100] Creating Layer scale3a_branch2a
I0627 21:15:45.694463 12104 net.cpp:444] scale3a_branch2a <- res3a_branch2a
I0627 21:15:45.694483 12104 net.cpp:405] scale3a_branch2a -> res3a_branch2a (in-place)
I0627 21:15:45.694577 12104 layer_factory.hpp:77] Creating layer scale3a_branch2a
I0627 21:15:45.694922 12104 net.cpp:150] Setting up scale3a_branch2a
I0627 21:15:45.694932 12104 net.cpp:157] Top shape: 1 128 120 160 (2457600)
I0627 21:15:45.694936 12104 net.cpp:165] Memory required for data: 2924544084
I0627 21:15:45.694952 12104 layer_factory.hpp:77] Creating layer res3a_branch2a_relu
I0627 21:15:45.694968 12104 net.cpp:100] Creating Layer res3a_branch2a_relu
I0627 21:15:45.694975 12104 net.cpp:444] res3a_branch2a_relu <- res3a_branch2a
I0627 21:15:45.694989 12104 net.cpp:405] res3a_branch2a_relu -> res3a_branch2a (in-place)
I0627 21:15:45.695231 12104 net.cpp:150] Setting up res3a_branch2a_relu
I0627 21:15:45.695242 12104 net.cpp:157] Top shape: 1 128 120 160 (2457600)
I0627 21:15:45.695245 12104 net.cpp:165] Memory required for data: 2934374484
I0627 21:15:45.695251 12104 layer_factory.hpp:77] Creating layer res3a_branch2b
I0627 21:15:45.695272 12104 net.cpp:100] Creating Layer res3a_branch2b
I0627 21:15:45.695281 12104 net.cpp:444] res3a_branch2b <- res3a_branch2a
I0627 21:15:45.695302 12104 net.cpp:418] res3a_branch2b -> res3a_branch2b
I0627 21:15:45.698897 12104 cudnn_conv_layer.cpp:194] Reallocating workspace storage: 3145728
I0627 21:15:45.699484 12104 net.cpp:150] Setting up res3a_branch2b
I0627 21:15:45.699515 12104 net.cpp:157] Top shape: 1 128 120 160 (2457600)
I0627 21:15:45.699518 12104 net.cpp:165] Memory required for data: 2944204884
I0627 21:15:45.699534 12104 layer_factory.hpp:77] Creating layer bn3a_branch2b
I0627 21:15:45.699556 12104 net.cpp:100] Creating Layer bn3a_branch2b
I0627 21:15:45.699564 12104 net.cpp:444] bn3a_branch2b <- res3a_branch2b
I0627 21:15:45.699584 12104 net.cpp:405] bn3a_branch2b -> res3a_branch2b (in-place)
I0627 21:15:45.700009 12104 net.cpp:150] Setting up bn3a_branch2b
I0627 21:15:45.700036 12104 net.cpp:157] Top shape: 1 128 120 160 (2457600)
I0627 21:15:45.700039 12104 net.cpp:165] Memory required for data: 2954035284
I0627 21:15:45.700078 12104 layer_factory.hpp:77] Creating layer scale3a_branch2b
I0627 21:15:45.700148 12104 net.cpp:100] Creating Layer scale3a_branch2b
I0627 21:15:45.700162 12104 net.cpp:444] scale3a_branch2b <- res3a_branch2b
I0627 21:15:45.700183 12104 net.cpp:405] scale3a_branch2b -> res3a_branch2b (in-place)
I0627 21:15:45.700286 12104 layer_factory.hpp:77] Creating layer scale3a_branch2b
I0627 21:15:45.700716 12104 net.cpp:150] Setting up scale3a_branch2b
I0627 21:15:45.700726 12104 net.cpp:157] Top shape: 1 128 120 160 (2457600)
I0627 21:15:45.700744 12104 net.cpp:165] Memory required for data: 2963865684
I0627 21:15:45.700764 12104 layer_factory.hpp:77] Creating layer res3a_branch2b_relu
I0627 21:15:45.700794 12104 net.cpp:100] Creating Layer res3a_branch2b_relu
I0627 21:15:45.700801 12104 net.cpp:444] res3a_branch2b_relu <- res3a_branch2b
I0627 21:15:45.700845 12104 net.cpp:405] res3a_branch2b_relu -> res3a_branch2b (in-place)
I0627 21:15:45.701086 12104 net.cpp:150] Setting up res3a_branch2b_relu
I0627 21:15:45.701120 12104 net.cpp:157] Top shape: 1 128 120 160 (2457600)
I0627 21:15:45.701138 12104 net.cpp:165] Memory required for data: 2973696084
I0627 21:15:45.701144 12104 layer_factory.hpp:77] Creating layer res3a_branch2c
I0627 21:15:45.701191 12104 net.cpp:100] Creating Layer res3a_branch2c
I0627 21:15:45.701201 12104 net.cpp:444] res3a_branch2c <- res3a_branch2b
I0627 21:15:45.701225 12104 net.cpp:418] res3a_branch2c -> res3a_branch2c
I0627 21:15:45.703004 12104 cudnn_conv_layer.cpp:194] Reallocating workspace storage: 352152
I0627 21:15:45.703025 12104 net.cpp:150] Setting up res3a_branch2c
I0627 21:15:45.703035 12104 net.cpp:157] Top shape: 1 512 120 160 (9830400)
I0627 21:15:45.703037 12104 net.cpp:165] Memory required for data: 3013017684
I0627 21:15:45.703052 12104 layer_factory.hpp:77] Creating layer bn3a_branch2c
I0627 21:15:45.703073 12104 net.cpp:100] Creating Layer bn3a_branch2c
I0627 21:15:45.703079 12104 net.cpp:444] bn3a_branch2c <- res3a_branch2c
I0627 21:15:45.703097 12104 net.cpp:405] bn3a_branch2c -> res3a_branch2c (in-place)
I0627 21:15:45.703527 12104 net.cpp:150] Setting up bn3a_branch2c
I0627 21:15:45.703536 12104 net.cpp:157] Top shape: 1 512 120 160 (9830400)
I0627 21:15:45.703537 12104 net.cpp:165] Memory required for data: 3052339284
I0627 21:15:45.703577 12104 layer_factory.hpp:77] Creating layer scale3a_branch2c
I0627 21:15:45.703595 12104 net.cpp:100] Creating Layer scale3a_branch2c
I0627 21:15:45.703603 12104 net.cpp:444] scale3a_branch2c <- res3a_branch2c
I0627 21:15:45.703619 12104 net.cpp:405] scale3a_branch2c -> res3a_branch2c (in-place)
I0627 21:15:45.703701 12104 layer_factory.hpp:77] Creating layer scale3a_branch2c
I0627 21:15:45.704035 12104 net.cpp:150] Setting up scale3a_branch2c
I0627 21:15:45.704043 12104 net.cpp:157] Top shape: 1 512 120 160 (9830400)
I0627 21:15:45.704046 12104 net.cpp:165] Memory required for data: 3091660884
I0627 21:15:45.704061 12104 layer_factory.hpp:77] Creating layer res3a
I0627 21:15:45.704075 12104 net.cpp:100] Creating Layer res3a
I0627 21:15:45.704082 12104 net.cpp:444] res3a <- res3a_branch1
I0627 21:15:45.704093 12104 net.cpp:444] res3a <- res3a_branch2c
I0627 21:15:45.704102 12104 net.cpp:418] res3a -> res3a
I0627 21:15:45.704161 12104 net.cpp:150] Setting up res3a
I0627 21:15:45.704170 12104 net.cpp:157] Top shape: 1 512 120 160 (9830400)
I0627 21:15:45.704174 12104 net.cpp:165] Memory required for data: 3130982484
I0627 21:15:45.704179 12104 layer_factory.hpp:77] Creating layer res3a_relu
I0627 21:15:45.704191 12104 net.cpp:100] Creating Layer res3a_relu
I0627 21:15:45.704196 12104 net.cpp:444] res3a_relu <- res3a
I0627 21:15:45.704212 12104 net.cpp:405] res3a_relu -> res3a (in-place)
I0627 21:15:45.709682 12104 net.cpp:150] Setting up res3a_relu
I0627 21:15:45.709697 12104 net.cpp:157] Top shape: 1 512 120 160 (9830400)
I0627 21:15:45.709699 12104 net.cpp:165] Memory required for data: 3170304084
I0627 21:15:45.709707 12104 layer_factory.hpp:77] Creating layer res3a_res3a_relu_0_split
I0627 21:15:45.709743 12104 net.cpp:100] Creating Layer res3a_res3a_relu_0_split
I0627 21:15:45.709753 12104 net.cpp:444] res3a_res3a_relu_0_split <- res3a
I0627 21:15:45.709771 12104 net.cpp:418] res3a_res3a_relu_0_split -> res3a_res3a_relu_0_split_0
I0627 21:15:45.709794 12104 net.cpp:418] res3a_res3a_relu_0_split -> res3a_res3a_relu_0_split_1
I0627 21:15:45.709882 12104 net.cpp:150] Setting up res3a_res3a_relu_0_split
I0627 21:15:45.709895 12104 net.cpp:157] Top shape: 1 512 120 160 (9830400)
I0627 21:15:45.709900 12104 net.cpp:157] Top shape: 1 512 120 160 (9830400)
I0627 21:15:45.709903 12104 net.cpp:165] Memory required for data: 3248947284
I0627 21:15:45.709908 12104 layer_factory.hpp:77] Creating layer res3b_branch2a
I0627 21:15:45.709928 12104 net.cpp:100] Creating Layer res3b_branch2a
I0627 21:15:45.709938 12104 net.cpp:444] res3b_branch2a <- res3a_res3a_relu_0_split_0
I0627 21:15:45.709959 12104 net.cpp:418] res3b_branch2a -> res3b_branch2a
I0627 21:15:45.711727 12104 cudnn_conv_layer.cpp:194] Reallocating workspace storage: 352152
I0627 21:15:45.711755 12104 net.cpp:150] Setting up res3b_branch2a
I0627 21:15:45.711766 12104 net.cpp:157] Top shape: 1 128 120 160 (2457600)
I0627 21:15:45.711771 12104 net.cpp:165] Memory required for data: 3258777684
I0627 21:15:45.711786 12104 layer_factory.hpp:77] Creating layer bn3b_branch2a
I0627 21:15:45.711807 12104 net.cpp:100] Creating Layer bn3b_branch2a
I0627 21:15:45.711817 12104 net.cpp:444] bn3b_branch2a <- res3b_branch2a
I0627 21:15:45.711836 12104 net.cpp:405] bn3b_branch2a -> res3b_branch2a (in-place)
I0627 21:15:45.712239 12104 net.cpp:150] Setting up bn3b_branch2a
I0627 21:15:45.712250 12104 net.cpp:157] Top shape: 1 128 120 160 (2457600)
I0627 21:15:45.712254 12104 net.cpp:165] Memory required for data: 3268608084
I0627 21:15:45.712276 12104 layer_factory.hpp:77] Creating layer scale3b_branch2a
I0627 21:15:45.712294 12104 net.cpp:100] Creating Layer scale3b_branch2a
I0627 21:15:45.712303 12104 net.cpp:444] scale3b_branch2a <- res3b_branch2a
I0627 21:15:45.712326 12104 net.cpp:405] scale3b_branch2a -> res3b_branch2a (in-place)
I0627 21:15:45.712421 12104 layer_factory.hpp:77] Creating layer scale3b_branch2a
I0627 21:15:45.714370 12104 net.cpp:150] Setting up scale3b_branch2a
I0627 21:15:45.714385 12104 net.cpp:157] Top shape: 1 128 120 160 (2457600)
I0627 21:15:45.714387 12104 net.cpp:165] Memory required for data: 3278438484
I0627 21:15:45.714406 12104 layer_factory.hpp:77] Creating layer res3b_branch2a_relu
I0627 21:15:45.714423 12104 net.cpp:100] Creating Layer res3b_branch2a_relu
I0627 21:15:45.714433 12104 net.cpp:444] res3b_branch2a_relu <- res3b_branch2a
I0627 21:15:45.714449 12104 net.cpp:405] res3b_branch2a_relu -> res3b_branch2a (in-place)
I0627 21:15:45.714686 12104 net.cpp:150] Setting up res3b_branch2a_relu
I0627 21:15:45.714699 12104 net.cpp:157] Top shape: 1 128 120 160 (2457600)
I0627 21:15:45.714701 12104 net.cpp:165] Memory required for data: 3288268884
I0627 21:15:45.714707 12104 layer_factory.hpp:77] Creating layer res3b_branch2b
I0627 21:15:45.714727 12104 net.cpp:100] Creating Layer res3b_branch2b
I0627 21:15:45.714736 12104 net.cpp:444] res3b_branch2b <- res3b_branch2a
I0627 21:15:45.714758 12104 net.cpp:418] res3b_branch2b -> res3b_branch2b
I0627 21:15:45.717370 12104 cudnn_conv_layer.cpp:194] Reallocating workspace storage: 3145728
I0627 21:15:45.718035 12104 net.cpp:150] Setting up res3b_branch2b
I0627 21:15:45.718065 12104 net.cpp:157] Top shape: 1 128 120 160 (2457600)
I0627 21:15:45.718070 12104 net.cpp:165] Memory required for data: 3298099284
I0627 21:15:45.718099 12104 layer_factory.hpp:77] Creating layer bn3b_branch2b
I0627 21:15:45.718135 12104 net.cpp:100] Creating Layer bn3b_branch2b
I0627 21:15:45.718145 12104 net.cpp:444] bn3b_branch2b <- res3b_branch2b
I0627 21:15:45.718183 12104 net.cpp:405] bn3b_branch2b -> res3b_branch2b (in-place)
I0627 21:15:45.718626 12104 net.cpp:150] Setting up bn3b_branch2b
I0627 21:15:45.718636 12104 net.cpp:157] Top shape: 1 128 120 160 (2457600)
I0627 21:15:45.718638 12104 net.cpp:165] Memory required for data: 3307929684
I0627 21:15:45.718677 12104 layer_factory.hpp:77] Creating layer scale3b_branch2b
I0627 21:15:45.718713 12104 net.cpp:100] Creating Layer scale3b_branch2b
I0627 21:15:45.718721 12104 net.cpp:444] scale3b_branch2b <- res3b_branch2b
I0627 21:15:45.718741 12104 net.cpp:405] scale3b_branch2b -> res3b_branch2b (in-place)
I0627 21:15:45.718871 12104 layer_factory.hpp:77] Creating layer scale3b_branch2b
I0627 21:15:45.719213 12104 net.cpp:150] Setting up scale3b_branch2b
I0627 21:15:45.719223 12104 net.cpp:157] Top shape: 1 128 120 160 (2457600)
I0627 21:15:45.719236 12104 net.cpp:165] Memory required for data: 3317760084
I0627 21:15:45.719251 12104 layer_factory.hpp:77] Creating layer res3b_branch2b_relu
I0627 21:15:45.719264 12104 net.cpp:100] Creating Layer res3b_branch2b_relu
I0627 21:15:45.719274 12104 net.cpp:444] res3b_branch2b_relu <- res3b_branch2b
I0627 21:15:45.719290 12104 net.cpp:405] res3b_branch2b_relu -> res3b_branch2b (in-place)
I0627 21:15:45.719547 12104 net.cpp:150] Setting up res3b_branch2b_relu
I0627 21:15:45.719557 12104 net.cpp:157] Top shape: 1 128 120 160 (2457600)
I0627 21:15:45.719559 12104 net.cpp:165] Memory required for data: 3327590484
I0627 21:15:45.719565 12104 layer_factory.hpp:77] Creating layer res3b_branch2c
I0627 21:15:45.719586 12104 net.cpp:100] Creating Layer res3b_branch2c
I0627 21:15:45.719595 12104 net.cpp:444] res3b_branch2c <- res3b_branch2b
I0627 21:15:45.719617 12104 net.cpp:418] res3b_branch2c -> res3b_branch2c
I0627 21:15:45.721379 12104 cudnn_conv_layer.cpp:194] Reallocating workspace storage: 352152
I0627 21:15:45.721412 12104 net.cpp:150] Setting up res3b_branch2c
I0627 21:15:45.721438 12104 net.cpp:157] Top shape: 1 512 120 160 (9830400)
I0627 21:15:45.721441 12104 net.cpp:165] Memory required for data: 3366912084
I0627 21:15:45.721457 12104 layer_factory.hpp:77] Creating layer bn3b_branch2c
I0627 21:15:45.721494 12104 net.cpp:100] Creating Layer bn3b_branch2c
I0627 21:15:45.721504 12104 net.cpp:444] bn3b_branch2c <- res3b_branch2c
I0627 21:15:45.721524 12104 net.cpp:405] bn3b_branch2c -> res3b_branch2c (in-place)
I0627 21:15:45.721971 12104 net.cpp:150] Setting up bn3b_branch2c
I0627 21:15:45.721981 12104 net.cpp:157] Top shape: 1 512 120 160 (9830400)
I0627 21:15:45.721999 12104 net.cpp:165] Memory required for data: 3406233684
I0627 21:15:45.722023 12104 layer_factory.hpp:77] Creating layer scale3b_branch2c
I0627 21:15:45.722056 12104 net.cpp:100] Creating Layer scale3b_branch2c
I0627 21:15:45.722065 12104 net.cpp:444] scale3b_branch2c <- res3b_branch2c
I0627 21:15:45.722090 12104 net.cpp:405] scale3b_branch2c -> res3b_branch2c (in-place)
I0627 21:15:45.722179 12104 layer_factory.hpp:77] Creating layer scale3b_branch2c
I0627 21:15:45.722544 12104 net.cpp:150] Setting up scale3b_branch2c
I0627 21:15:45.722553 12104 net.cpp:157] Top shape: 1 512 120 160 (9830400)
I0627 21:15:45.722568 12104 net.cpp:165] Memory required for data: 3445555284
I0627 21:15:45.722592 12104 layer_factory.hpp:77] Creating layer res3b
I0627 21:15:45.722626 12104 net.cpp:100] Creating Layer res3b
I0627 21:15:45.722635 12104 net.cpp:444] res3b <- res3a_res3a_relu_0_split_1
I0627 21:15:45.722663 12104 net.cpp:444] res3b <- res3b_branch2c
I0627 21:15:45.722676 12104 net.cpp:418] res3b -> res3b
I0627 21:15:45.722739 12104 net.cpp:150] Setting up res3b
I0627 21:15:45.722751 12104 net.cpp:157] Top shape: 1 512 120 160 (9830400)
I0627 21:15:45.722755 12104 net.cpp:165] Memory required for data: 3484876884
I0627 21:15:45.722761 12104 layer_factory.hpp:77] Creating layer res3b_relu
I0627 21:15:45.722774 12104 net.cpp:100] Creating Layer res3b_relu
I0627 21:15:45.722781 12104 net.cpp:444] res3b_relu <- res3b
I0627 21:15:45.722798 12104 net.cpp:405] res3b_relu -> res3b (in-place)
I0627 21:15:45.723605 12104 net.cpp:150] Setting up res3b_relu
I0627 21:15:45.723618 12104 net.cpp:157] Top shape: 1 512 120 160 (9830400)
I0627 21:15:45.723620 12104 net.cpp:165] Memory required for data: 3524198484
I0627 21:15:45.723642 12104 layer_factory.hpp:77] Creating layer res3b_res3b_relu_0_split
I0627 21:15:45.723659 12104 net.cpp:100] Creating Layer res3b_res3b_relu_0_split
I0627 21:15:45.723667 12104 net.cpp:444] res3b_res3b_relu_0_split <- res3b
I0627 21:15:45.723703 12104 net.cpp:418] res3b_res3b_relu_0_split -> res3b_res3b_relu_0_split_0
I0627 21:15:45.723726 12104 net.cpp:418] res3b_res3b_relu_0_split -> res3b_res3b_relu_0_split_1
I0627 21:15:45.723814 12104 net.cpp:150] Setting up res3b_res3b_relu_0_split
I0627 21:15:45.723826 12104 net.cpp:157] Top shape: 1 512 120 160 (9830400)
I0627 21:15:45.723831 12104 net.cpp:157] Top shape: 1 512 120 160 (9830400)
I0627 21:15:45.723834 12104 net.cpp:165] Memory required for data: 3602841684
I0627 21:15:45.723841 12104 layer_factory.hpp:77] Creating layer res3c_branch2a
I0627 21:15:45.723863 12104 net.cpp:100] Creating Layer res3c_branch2a
I0627 21:15:45.723872 12104 net.cpp:444] res3c_branch2a <- res3b_res3b_relu_0_split_0
I0627 21:15:45.723893 12104 net.cpp:418] res3c_branch2a -> res3c_branch2a
I0627 21:15:45.725669 12104 cudnn_conv_layer.cpp:194] Reallocating workspace storage: 352152
I0627 21:15:45.725697 12104 net.cpp:150] Setting up res3c_branch2a
I0627 21:15:45.725708 12104 net.cpp:157] Top shape: 1 128 120 160 (2457600)
I0627 21:15:45.725710 12104 net.cpp:165] Memory required for data: 3612672084
I0627 21:15:45.725725 12104 layer_factory.hpp:77] Creating layer bn3c_branch2a
I0627 21:15:45.725749 12104 net.cpp:100] Creating Layer bn3c_branch2a
I0627 21:15:45.725756 12104 net.cpp:444] bn3c_branch2a <- res3c_branch2a
I0627 21:15:45.725777 12104 net.cpp:405] bn3c_branch2a -> res3c_branch2a (in-place)
I0627 21:15:45.726187 12104 net.cpp:150] Setting up bn3c_branch2a
I0627 21:15:45.726195 12104 net.cpp:157] Top shape: 1 128 120 160 (2457600)
I0627 21:15:45.726198 12104 net.cpp:165] Memory required for data: 3622502484
I0627 21:15:45.726222 12104 layer_factory.hpp:77] Creating layer scale3c_branch2a
I0627 21:15:45.726240 12104 net.cpp:100] Creating Layer scale3c_branch2a
I0627 21:15:45.726248 12104 net.cpp:444] scale3c_branch2a <- res3c_branch2a
I0627 21:15:45.726265 12104 net.cpp:405] scale3c_branch2a -> res3c_branch2a (in-place)
I0627 21:15:45.726357 12104 layer_factory.hpp:77] Creating layer scale3c_branch2a
I0627 21:15:45.726671 12104 net.cpp:150] Setting up scale3c_branch2a
I0627 21:15:45.726680 12104 net.cpp:157] Top shape: 1 128 120 160 (2457600)
I0627 21:15:45.726683 12104 net.cpp:165] Memory required for data: 3632332884
I0627 21:15:45.726701 12104 layer_factory.hpp:77] Creating layer res3c_branch2a_relu
I0627 21:15:45.726713 12104 net.cpp:100] Creating Layer res3c_branch2a_relu
I0627 21:15:45.726721 12104 net.cpp:444] res3c_branch2a_relu <- res3c_branch2a
I0627 21:15:45.726737 12104 net.cpp:405] res3c_branch2a_relu -> res3c_branch2a (in-place)
I0627 21:15:45.726984 12104 net.cpp:150] Setting up res3c_branch2a_relu
I0627 21:15:45.726991 12104 net.cpp:157] Top shape: 1 128 120 160 (2457600)
I0627 21:15:45.726994 12104 net.cpp:165] Memory required for data: 3642163284
I0627 21:15:45.726999 12104 layer_factory.hpp:77] Creating layer res3c_branch2b
I0627 21:15:45.727022 12104 net.cpp:100] Creating Layer res3c_branch2b
I0627 21:15:45.727030 12104 net.cpp:444] res3c_branch2b <- res3c_branch2a
I0627 21:15:45.727051 12104 net.cpp:418] res3c_branch2b -> res3c_branch2b
I0627 21:15:45.729058 12104 cudnn_conv_layer.cpp:194] Reallocating workspace storage: 3145728
I0627 21:15:45.729719 12104 net.cpp:150] Setting up res3c_branch2b
I0627 21:15:45.729750 12104 net.cpp:157] Top shape: 1 128 120 160 (2457600)
I0627 21:15:45.729754 12104 net.cpp:165] Memory required for data: 3651993684
I0627 21:15:45.729769 12104 layer_factory.hpp:77] Creating layer bn3c_branch2b
I0627 21:15:45.729806 12104 net.cpp:100] Creating Layer bn3c_branch2b
I0627 21:15:45.729816 12104 net.cpp:444] bn3c_branch2b <- res3c_branch2b
I0627 21:15:45.729835 12104 net.cpp:405] bn3c_branch2b -> res3c_branch2b (in-place)
I0627 21:15:45.730309 12104 net.cpp:150] Setting up bn3c_branch2b
I0627 21:15:45.730320 12104 net.cpp:157] Top shape: 1 128 120 160 (2457600)
I0627 21:15:45.730338 12104 net.cpp:165] Memory required for data: 3661824084
I0627 21:15:45.730361 12104 layer_factory.hpp:77] Creating layer scale3c_branch2b
I0627 21:15:45.730381 12104 net.cpp:100] Creating Layer scale3c_branch2b
I0627 21:15:45.730387 12104 net.cpp:444] scale3c_branch2b <- res3c_branch2b
I0627 21:15:45.730406 12104 net.cpp:405] scale3c_branch2b -> res3c_branch2b (in-place)
I0627 21:15:45.730502 12104 layer_factory.hpp:77] Creating layer scale3c_branch2b
I0627 21:15:45.730860 12104 net.cpp:150] Setting up scale3c_branch2b
I0627 21:15:45.730870 12104 net.cpp:157] Top shape: 1 128 120 160 (2457600)
I0627 21:15:45.730885 12104 net.cpp:165] Memory required for data: 3671654484
I0627 21:15:45.730900 12104 layer_factory.hpp:77] Creating layer res3c_branch2b_relu
I0627 21:15:45.730914 12104 net.cpp:100] Creating Layer res3c_branch2b_relu
I0627 21:15:45.730923 12104 net.cpp:444] res3c_branch2b_relu <- res3c_branch2b
I0627 21:15:45.730937 12104 net.cpp:405] res3c_branch2b_relu -> res3c_branch2b (in-place)
I0627 21:15:45.731165 12104 net.cpp:150] Setting up res3c_branch2b_relu
I0627 21:15:45.731175 12104 net.cpp:157] Top shape: 1 128 120 160 (2457600)
I0627 21:15:45.731178 12104 net.cpp:165] Memory required for data: 3681484884
I0627 21:15:45.731184 12104 layer_factory.hpp:77] Creating layer res3c_branch2c
I0627 21:15:45.731205 12104 net.cpp:100] Creating Layer res3c_branch2c
I0627 21:15:45.731215 12104 net.cpp:444] res3c_branch2c <- res3c_branch2b
I0627 21:15:45.731233 12104 net.cpp:418] res3c_branch2c -> res3c_branch2c
I0627 21:15:45.732923 12104 cudnn_conv_layer.cpp:194] Reallocating workspace storage: 352152
I0627 21:15:45.732954 12104 net.cpp:150] Setting up res3c_branch2c
I0627 21:15:45.732964 12104 net.cpp:157] Top shape: 1 512 120 160 (9830400)
I0627 21:15:45.732966 12104 net.cpp:165] Memory required for data: 3720806484
I0627 21:15:45.732981 12104 layer_factory.hpp:77] Creating layer bn3c_branch2c
I0627 21:15:45.733003 12104 net.cpp:100] Creating Layer bn3c_branch2c
I0627 21:15:45.733013 12104 net.cpp:444] bn3c_branch2c <- res3c_branch2c
I0627 21:15:45.733033 12104 net.cpp:405] bn3c_branch2c -> res3c_branch2c (in-place)
I0627 21:15:45.733500 12104 net.cpp:150] Setting up bn3c_branch2c
I0627 21:15:45.733510 12104 net.cpp:157] Top shape: 1 512 120 160 (9830400)
I0627 21:15:45.733525 12104 net.cpp:165] Memory required for data: 3760128084
I0627 21:15:45.733548 12104 layer_factory.hpp:77] Creating layer scale3c_branch2c
I0627 21:15:45.733570 12104 net.cpp:100] Creating Layer scale3c_branch2c
I0627 21:15:45.733579 12104 net.cpp:444] scale3c_branch2c <- res3c_branch2c
I0627 21:15:45.733597 12104 net.cpp:405] scale3c_branch2c -> res3c_branch2c (in-place)
I0627 21:15:45.733687 12104 layer_factory.hpp:77] Creating layer scale3c_branch2c
I0627 21:15:45.734025 12104 net.cpp:150] Setting up scale3c_branch2c
I0627 21:15:45.734035 12104 net.cpp:157] Top shape: 1 512 120 160 (9830400)
I0627 21:15:45.734047 12104 net.cpp:165] Memory required for data: 3799449684
I0627 21:15:45.734062 12104 layer_factory.hpp:77] Creating layer res3c
I0627 21:15:45.734076 12104 net.cpp:100] Creating Layer res3c
I0627 21:15:45.734086 12104 net.cpp:444] res3c <- res3b_res3b_relu_0_split_1
I0627 21:15:45.734098 12104 net.cpp:444] res3c <- res3c_branch2c
I0627 21:15:45.734113 12104 net.cpp:418] res3c -> res3c
I0627 21:15:45.734172 12104 net.cpp:150] Setting up res3c
I0627 21:15:45.734184 12104 net.cpp:157] Top shape: 1 512 120 160 (9830400)
I0627 21:15:45.734186 12104 net.cpp:165] Memory required for data: 3838771284
I0627 21:15:45.734192 12104 layer_factory.hpp:77] Creating layer res3c_relu
I0627 21:15:45.734207 12104 net.cpp:100] Creating Layer res3c_relu
I0627 21:15:45.734216 12104 net.cpp:444] res3c_relu <- res3c
I0627 21:15:45.734231 12104 net.cpp:405] res3c_relu -> res3c (in-place)
I0627 21:15:45.734448 12104 net.cpp:150] Setting up res3c_relu
I0627 21:15:45.734458 12104 net.cpp:157] Top shape: 1 512 120 160 (9830400)
I0627 21:15:45.734462 12104 net.cpp:165] Memory required for data: 3878092884
I0627 21:15:45.734467 12104 layer_factory.hpp:77] Creating layer res3c_res3c_relu_0_split
I0627 21:15:45.734483 12104 net.cpp:100] Creating Layer res3c_res3c_relu_0_split
I0627 21:15:45.734491 12104 net.cpp:444] res3c_res3c_relu_0_split <- res3c
I0627 21:15:45.734511 12104 net.cpp:418] res3c_res3c_relu_0_split -> res3c_res3c_relu_0_split_0
I0627 21:15:45.734532 12104 net.cpp:418] res3c_res3c_relu_0_split -> res3c_res3c_relu_0_split_1
I0627 21:15:45.734613 12104 net.cpp:150] Setting up res3c_res3c_relu_0_split
I0627 21:15:45.734624 12104 net.cpp:157] Top shape: 1 512 120 160 (9830400)
I0627 21:15:45.734629 12104 net.cpp:157] Top shape: 1 512 120 160 (9830400)
I0627 21:15:45.734632 12104 net.cpp:165] Memory required for data: 3956736084
I0627 21:15:45.734637 12104 layer_factory.hpp:77] Creating layer res3d_branch2a
I0627 21:15:45.734658 12104 net.cpp:100] Creating Layer res3d_branch2a
I0627 21:15:45.734666 12104 net.cpp:444] res3d_branch2a <- res3c_res3c_relu_0_split_0
I0627 21:15:45.734686 12104 net.cpp:418] res3d_branch2a -> res3d_branch2a
I0627 21:15:45.738019 12104 cudnn_conv_layer.cpp:194] Reallocating workspace storage: 352152
I0627 21:15:45.738046 12104 net.cpp:150] Setting up res3d_branch2a
I0627 21:15:45.738057 12104 net.cpp:157] Top shape: 1 128 120 160 (2457600)
I0627 21:15:45.738061 12104 net.cpp:165] Memory required for data: 3966566484
I0627 21:15:45.738076 12104 layer_factory.hpp:77] Creating layer bn3d_branch2a
I0627 21:15:45.738098 12104 net.cpp:100] Creating Layer bn3d_branch2a
I0627 21:15:45.738107 12104 net.cpp:444] bn3d_branch2a <- res3d_branch2a
I0627 21:15:45.738126 12104 net.cpp:405] bn3d_branch2a -> res3d_branch2a (in-place)
I0627 21:15:45.738560 12104 net.cpp:150] Setting up bn3d_branch2a
I0627 21:15:45.738571 12104 net.cpp:157] Top shape: 1 128 120 160 (2457600)
I0627 21:15:45.738574 12104 net.cpp:165] Memory required for data: 3976396884
I0627 21:15:45.738636 12104 layer_factory.hpp:77] Creating layer scale3d_branch2a
I0627 21:15:45.738657 12104 net.cpp:100] Creating Layer scale3d_branch2a
I0627 21:15:45.738667 12104 net.cpp:444] scale3d_branch2a <- res3d_branch2a
I0627 21:15:45.738684 12104 net.cpp:405] scale3d_branch2a -> res3d_branch2a (in-place)
I0627 21:15:45.738780 12104 layer_factory.hpp:77] Creating layer scale3d_branch2a
I0627 21:15:45.739100 12104 net.cpp:150] Setting up scale3d_branch2a
I0627 21:15:45.739110 12104 net.cpp:157] Top shape: 1 128 120 160 (2457600)
I0627 21:15:45.739114 12104 net.cpp:165] Memory required for data: 3986227284
I0627 21:15:45.739130 12104 layer_factory.hpp:77] Creating layer res3d_branch2a_relu
I0627 21:15:45.739146 12104 net.cpp:100] Creating Layer res3d_branch2a_relu
I0627 21:15:45.739156 12104 net.cpp:444] res3d_branch2a_relu <- res3d_branch2a
I0627 21:15:45.739172 12104 net.cpp:405] res3d_branch2a_relu -> res3d_branch2a (in-place)
I0627 21:15:45.739929 12104 net.cpp:150] Setting up res3d_branch2a_relu
I0627 21:15:45.739941 12104 net.cpp:157] Top shape: 1 128 120 160 (2457600)
I0627 21:15:45.739955 12104 net.cpp:165] Memory required for data: 3996057684
I0627 21:15:45.739961 12104 layer_factory.hpp:77] Creating layer res3d_branch2b
I0627 21:15:45.739985 12104 net.cpp:100] Creating Layer res3d_branch2b
I0627 21:15:45.739995 12104 net.cpp:444] res3d_branch2b <- res3d_branch2a
I0627 21:15:45.740018 12104 net.cpp:418] res3d_branch2b -> res3d_branch2b
I0627 21:15:45.743507 12104 cudnn_conv_layer.cpp:194] Reallocating workspace storage: 3145728
I0627 21:15:45.744073 12104 net.cpp:150] Setting up res3d_branch2b
I0627 21:15:45.744103 12104 net.cpp:157] Top shape: 1 128 120 160 (2457600)
I0627 21:15:45.744107 12104 net.cpp:165] Memory required for data: 4005888084
I0627 21:15:45.744123 12104 layer_factory.hpp:77] Creating layer bn3d_branch2b
I0627 21:15:45.744144 12104 net.cpp:100] Creating Layer bn3d_branch2b
I0627 21:15:45.744153 12104 net.cpp:444] bn3d_branch2b <- res3d_branch2b
I0627 21:15:45.744173 12104 net.cpp:405] bn3d_branch2b -> res3d_branch2b (in-place)
I0627 21:15:45.744597 12104 net.cpp:150] Setting up bn3d_branch2b
I0627 21:15:45.744607 12104 net.cpp:157] Top shape: 1 128 120 160 (2457600)
I0627 21:15:45.744626 12104 net.cpp:165] Memory required for data: 4015718484
I0627 21:15:45.744647 12104 layer_factory.hpp:77] Creating layer scale3d_branch2b
I0627 21:15:45.744670 12104 net.cpp:100] Creating Layer scale3d_branch2b
I0627 21:15:45.744678 12104 net.cpp:444] scale3d_branch2b <- res3d_branch2b
I0627 21:15:45.744695 12104 net.cpp:405] scale3d_branch2b -> res3d_branch2b (in-place)
I0627 21:15:45.744791 12104 layer_factory.hpp:77] Creating layer scale3d_branch2b
I0627 21:15:45.745172 12104 net.cpp:150] Setting up scale3d_branch2b
I0627 21:15:45.745182 12104 net.cpp:157] Top shape: 1 128 120 160 (2457600)
I0627 21:15:45.745185 12104 net.cpp:165] Memory required for data: 4025548884
I0627 21:15:45.745201 12104 layer_factory.hpp:77] Creating layer res3d_branch2b_relu
I0627 21:15:45.745215 12104 net.cpp:100] Creating Layer res3d_branch2b_relu
I0627 21:15:45.745223 12104 net.cpp:444] res3d_branch2b_relu <- res3d_branch2b
I0627 21:15:45.745239 12104 net.cpp:405] res3d_branch2b_relu -> res3d_branch2b (in-place)
I0627 21:15:45.745474 12104 net.cpp:150] Setting up res3d_branch2b_relu
I0627 21:15:45.745482 12104 net.cpp:157] Top shape: 1 128 120 160 (2457600)
I0627 21:15:45.745486 12104 net.cpp:165] Memory required for data: 4035379284
I0627 21:15:45.745491 12104 layer_factory.hpp:77] Creating layer res3d_branch2c
I0627 21:15:45.745528 12104 net.cpp:100] Creating Layer res3d_branch2c
I0627 21:15:45.745535 12104 net.cpp:444] res3d_branch2c <- res3d_branch2b
I0627 21:15:45.745556 12104 net.cpp:418] res3d_branch2c -> res3d_branch2c
I0627 21:15:45.747805 12104 cudnn_conv_layer.cpp:194] Reallocating workspace storage: 352152
I0627 21:15:45.747844 12104 net.cpp:150] Setting up res3d_branch2c
I0627 21:15:45.747860 12104 net.cpp:157] Top shape: 1 512 120 160 (9830400)
I0627 21:15:45.747864 12104 net.cpp:165] Memory required for data: 4074700884
I0627 21:15:45.747895 12104 layer_factory.hpp:77] Creating layer bn3d_branch2c
I0627 21:15:45.747913 12104 net.cpp:100] Creating Layer bn3d_branch2c
I0627 21:15:45.747923 12104 net.cpp:444] bn3d_branch2c <- res3d_branch2c
I0627 21:15:45.747944 12104 net.cpp:405] bn3d_branch2c -> res3d_branch2c (in-place)
I0627 21:15:45.748379 12104 net.cpp:150] Setting up bn3d_branch2c
I0627 21:15:45.748389 12104 net.cpp:157] Top shape: 1 512 120 160 (9830400)
I0627 21:15:45.748402 12104 net.cpp:165] Memory required for data: 4114022484
I0627 21:15:45.748442 12104 layer_factory.hpp:77] Creating layer scale3d_branch2c
I0627 21:15:45.748479 12104 net.cpp:100] Creating Layer scale3d_branch2c
I0627 21:15:45.748488 12104 net.cpp:444] scale3d_branch2c <- res3d_branch2c
I0627 21:15:45.748507 12104 net.cpp:405] scale3d_branch2c -> res3d_branch2c (in-place)
I0627 21:15:45.748600 12104 layer_factory.hpp:77] Creating layer scale3d_branch2c
I0627 21:15:45.748960 12104 net.cpp:150] Setting up scale3d_branch2c
I0627 21:15:45.748970 12104 net.cpp:157] Top shape: 1 512 120 160 (9830400)
I0627 21:15:45.748973 12104 net.cpp:165] Memory required for data: 4153344084
I0627 21:15:45.748998 12104 layer_factory.hpp:77] Creating layer res3d
I0627 21:15:45.749014 12104 net.cpp:100] Creating Layer res3d
I0627 21:15:45.749023 12104 net.cpp:444] res3d <- res3c_res3c_relu_0_split_1
I0627 21:15:45.749037 12104 net.cpp:444] res3d <- res3d_branch2c
I0627 21:15:45.749047 12104 net.cpp:418] res3d -> res3d
I0627 21:15:45.749140 12104 net.cpp:150] Setting up res3d
I0627 21:15:45.749152 12104 net.cpp:157] Top shape: 1 512 120 160 (9830400)
I0627 21:15:45.749155 12104 net.cpp:165] Memory required for data: 4192665684
I0627 21:15:45.749161 12104 layer_factory.hpp:77] Creating layer res3d_relu
I0627 21:15:45.749174 12104 net.cpp:100] Creating Layer res3d_relu
I0627 21:15:45.749182 12104 net.cpp:444] res3d_relu <- res3d
I0627 21:15:45.749202 12104 net.cpp:405] res3d_relu -> res3d (in-place)
I0627 21:15:45.749438 12104 net.cpp:150] Setting up res3d_relu
I0627 21:15:45.749449 12104 net.cpp:157] Top shape: 1 512 120 160 (9830400)
I0627 21:15:45.749451 12104 net.cpp:165] Memory required for data: 4231987284
I0627 21:15:45.749459 12104 layer_factory.hpp:77] Creating layer res3d_res3d_relu_0_split
I0627 21:15:45.749486 12104 net.cpp:100] Creating Layer res3d_res3d_relu_0_split
I0627 21:15:45.749495 12104 net.cpp:444] res3d_res3d_relu_0_split <- res3d
I0627 21:15:45.749513 12104 net.cpp:418] res3d_res3d_relu_0_split -> res3d_res3d_relu_0_split_0
I0627 21:15:45.749534 12104 net.cpp:418] res3d_res3d_relu_0_split -> res3d_res3d_relu_0_split_1
I0627 21:15:45.749619 12104 net.cpp:150] Setting up res3d_res3d_relu_0_split
I0627 21:15:45.749631 12104 net.cpp:157] Top shape: 1 512 120 160 (9830400)
I0627 21:15:45.749635 12104 net.cpp:157] Top shape: 1 512 120 160 (9830400)
I0627 21:15:45.749639 12104 net.cpp:165] Memory required for data: 4310630484
I0627 21:15:45.749644 12104 layer_factory.hpp:77] Creating layer res4a_branch1
I0627 21:15:45.749665 12104 net.cpp:100] Creating Layer res4a_branch1
I0627 21:15:45.749673 12104 net.cpp:444] res4a_branch1 <- res3d_res3d_relu_0_split_0
I0627 21:15:45.749694 12104 net.cpp:418] res4a_branch1 -> res4a_branch1
I0627 21:15:45.754067 12104 cudnn_conv_layer.cpp:194] Reallocating workspace storage: 86424
I0627 21:15:45.754638 12104 net.cpp:150] Setting up res4a_branch1
I0627 21:15:45.754669 12104 net.cpp:157] Top shape: 1 1024 60 80 (4915200)
I0627 21:15:45.754673 12104 net.cpp:165] Memory required for data: 4330291284
I0627 21:15:45.754688 12104 layer_factory.hpp:77] Creating layer bn4a_branch1
I0627 21:15:45.754709 12104 net.cpp:100] Creating Layer bn4a_branch1
I0627 21:15:45.754717 12104 net.cpp:444] bn4a_branch1 <- res4a_branch1
I0627 21:15:45.754736 12104 net.cpp:405] bn4a_branch1 -> res4a_branch1 (in-place)
I0627 21:15:45.755152 12104 net.cpp:150] Setting up bn4a_branch1
I0627 21:15:45.755163 12104 net.cpp:157] Top shape: 1 1024 60 80 (4915200)
I0627 21:15:45.755182 12104 net.cpp:165] Memory required for data: 4349952084
I0627 21:15:45.755205 12104 layer_factory.hpp:77] Creating layer scale4a_branch1
I0627 21:15:45.755224 12104 net.cpp:100] Creating Layer scale4a_branch1
I0627 21:15:45.755231 12104 net.cpp:444] scale4a_branch1 <- res4a_branch1
I0627 21:15:45.755250 12104 net.cpp:405] scale4a_branch1 -> res4a_branch1 (in-place)
I0627 21:15:45.755344 12104 layer_factory.hpp:77] Creating layer scale4a_branch1
I0627 21:15:45.755659 12104 net.cpp:150] Setting up scale4a_branch1
I0627 21:15:45.755669 12104 net.cpp:157] Top shape: 1 1024 60 80 (4915200)
I0627 21:15:45.755687 12104 net.cpp:165] Memory required for data: 4369612884
I0627 21:15:45.755702 12104 layer_factory.hpp:77] Creating layer res4a_branch2a
I0627 21:15:45.755724 12104 net.cpp:100] Creating Layer res4a_branch2a
I0627 21:15:45.755731 12104 net.cpp:444] res4a_branch2a <- res3d_res3d_relu_0_split_1
I0627 21:15:45.755750 12104 net.cpp:418] res4a_branch2a -> res4a_branch2a
I0627 21:15:45.757668 12104 cudnn_conv_layer.cpp:194] Reallocating workspace storage: 86424
I0627 21:15:45.757709 12104 net.cpp:150] Setting up res4a_branch2a
I0627 21:15:45.757719 12104 net.cpp:157] Top shape: 1 256 60 80 (1228800)
I0627 21:15:45.757724 12104 net.cpp:165] Memory required for data: 4374528084
I0627 21:15:45.757748 12104 layer_factory.hpp:77] Creating layer bn4a_branch2a
I0627 21:15:45.757782 12104 net.cpp:100] Creating Layer bn4a_branch2a
I0627 21:15:45.757791 12104 net.cpp:444] bn4a_branch2a <- res4a_branch2a
I0627 21:15:45.757813 12104 net.cpp:405] bn4a_branch2a -> res4a_branch2a (in-place)
I0627 21:15:45.758260 12104 net.cpp:150] Setting up bn4a_branch2a
I0627 21:15:45.758268 12104 net.cpp:157] Top shape: 1 256 60 80 (1228800)
I0627 21:15:45.758286 12104 net.cpp:165] Memory required for data: 4379443284
I0627 21:15:45.758309 12104 layer_factory.hpp:77] Creating layer scale4a_branch2a
I0627 21:15:45.758345 12104 net.cpp:100] Creating Layer scale4a_branch2a
I0627 21:15:45.758352 12104 net.cpp:444] scale4a_branch2a <- res4a_branch2a
I0627 21:15:45.758370 12104 net.cpp:405] scale4a_branch2a -> res4a_branch2a (in-place)
I0627 21:15:45.758471 12104 layer_factory.hpp:77] Creating layer scale4a_branch2a
I0627 21:15:45.758752 12104 net.cpp:150] Setting up scale4a_branch2a
I0627 21:15:45.758776 12104 net.cpp:157] Top shape: 1 256 60 80 (1228800)
I0627 21:15:45.758780 12104 net.cpp:165] Memory required for data: 4384358484
I0627 21:15:45.758810 12104 layer_factory.hpp:77] Creating layer res4a_branch2a_relu
I0627 21:15:45.758833 12104 net.cpp:100] Creating Layer res4a_branch2a_relu
I0627 21:15:45.758841 12104 net.cpp:444] res4a_branch2a_relu <- res4a_branch2a
I0627 21:15:45.758870 12104 net.cpp:405] res4a_branch2a_relu -> res4a_branch2a (in-place)
I0627 21:15:45.759639 12104 net.cpp:150] Setting up res4a_branch2a_relu
I0627 21:15:45.759650 12104 net.cpp:157] Top shape: 1 256 60 80 (1228800)
I0627 21:15:45.759663 12104 net.cpp:165] Memory required for data: 4389273684
I0627 21:15:45.759670 12104 layer_factory.hpp:77] Creating layer res4a_branch2b
I0627 21:15:45.759711 12104 net.cpp:100] Creating Layer res4a_branch2b
I0627 21:15:45.759721 12104 net.cpp:444] res4a_branch2b <- res4a_branch2a
I0627 21:15:45.759742 12104 net.cpp:418] res4a_branch2b -> res4a_branch2b
I0627 21:15:45.764291 12104 cudnn_conv_layer.cpp:194] Reallocating workspace storage: 12582912
I0627 21:15:45.766942 12104 net.cpp:150] Setting up res4a_branch2b
I0627 21:15:45.766965 12104 net.cpp:157] Top shape: 1 256 60 80 (1228800)
I0627 21:15:45.766968 12104 net.cpp:165] Memory required for data: 4394188884
I0627 21:15:45.767002 12104 layer_factory.hpp:77] Creating layer bn4a_branch2b
I0627 21:15:45.767040 12104 net.cpp:100] Creating Layer bn4a_branch2b
I0627 21:15:45.767050 12104 net.cpp:444] bn4a_branch2b <- res4a_branch2b
I0627 21:15:45.767071 12104 net.cpp:405] bn4a_branch2b -> res4a_branch2b (in-place)
I0627 21:15:45.767529 12104 net.cpp:150] Setting up bn4a_branch2b
I0627 21:15:45.767539 12104 net.cpp:157] Top shape: 1 256 60 80 (1228800)
I0627 21:15:45.767556 12104 net.cpp:165] Memory required for data: 4399104084
I0627 21:15:45.767580 12104 layer_factory.hpp:77] Creating layer scale4a_branch2b
I0627 21:15:45.767612 12104 net.cpp:100] Creating Layer scale4a_branch2b
I0627 21:15:45.767621 12104 net.cpp:444] scale4a_branch2b <- res4a_branch2b
I0627 21:15:45.767649 12104 net.cpp:405] scale4a_branch2b -> res4a_branch2b (in-place)
I0627 21:15:45.767755 12104 layer_factory.hpp:77] Creating layer scale4a_branch2b
I0627 21:15:45.768079 12104 net.cpp:150] Setting up scale4a_branch2b
I0627 21:15:45.768090 12104 net.cpp:157] Top shape: 1 256 60 80 (1228800)
I0627 21:15:45.768107 12104 net.cpp:165] Memory required for data: 4404019284
I0627 21:15:45.768123 12104 layer_factory.hpp:77] Creating layer res4a_branch2b_relu
I0627 21:15:45.768136 12104 net.cpp:100] Creating Layer res4a_branch2b_relu
I0627 21:15:45.768159 12104 net.cpp:444] res4a_branch2b_relu <- res4a_branch2b
I0627 21:15:45.768175 12104 net.cpp:405] res4a_branch2b_relu -> res4a_branch2b (in-place)
I0627 21:15:45.768414 12104 net.cpp:150] Setting up res4a_branch2b_relu
I0627 21:15:45.768425 12104 net.cpp:157] Top shape: 1 256 60 80 (1228800)
I0627 21:15:45.768429 12104 net.cpp:165] Memory required for data: 4408934484
I0627 21:15:45.768435 12104 layer_factory.hpp:77] Creating layer res4a_branch2c
I0627 21:15:45.768457 12104 net.cpp:100] Creating Layer res4a_branch2c
I0627 21:15:45.768465 12104 net.cpp:444] res4a_branch2c <- res4a_branch2b
I0627 21:15:45.768487 12104 net.cpp:418] res4a_branch2c -> res4a_branch2c
I0627 21:15:45.772096 12104 cudnn_conv_layer.cpp:194] Reallocating workspace storage: 92952
I0627 21:15:45.772135 12104 net.cpp:150] Setting up res4a_branch2c
I0627 21:15:45.772155 12104 net.cpp:157] Top shape: 1 1024 60 80 (4915200)
I0627 21:15:45.772157 12104 net.cpp:165] Memory required for data: 4428595284
I0627 21:15:45.772187 12104 layer_factory.hpp:77] Creating layer bn4a_branch2c
I0627 21:15:45.772210 12104 net.cpp:100] Creating Layer bn4a_branch2c
I0627 21:15:45.772220 12104 net.cpp:444] bn4a_branch2c <- res4a_branch2c
I0627 21:15:45.772241 12104 net.cpp:405] bn4a_branch2c -> res4a_branch2c (in-place)
I0627 21:15:45.772656 12104 net.cpp:150] Setting up bn4a_branch2c
I0627 21:15:45.772666 12104 net.cpp:157] Top shape: 1 1024 60 80 (4915200)
I0627 21:15:45.772684 12104 net.cpp:165] Memory required for data: 4448256084
I0627 21:15:45.772708 12104 layer_factory.hpp:77] Creating layer scale4a_branch2c
I0627 21:15:45.772738 12104 net.cpp:100] Creating Layer scale4a_branch2c
I0627 21:15:45.772747 12104 net.cpp:444] scale4a_branch2c <- res4a_branch2c
I0627 21:15:45.772761 12104 net.cpp:405] scale4a_branch2c -> res4a_branch2c (in-place)
I0627 21:15:45.772857 12104 layer_factory.hpp:77] Creating layer scale4a_branch2c
I0627 21:15:45.773203 12104 net.cpp:150] Setting up scale4a_branch2c
I0627 21:15:45.773213 12104 net.cpp:157] Top shape: 1 1024 60 80 (4915200)
I0627 21:15:45.773232 12104 net.cpp:165] Memory required for data: 4467916884
I0627 21:15:45.773248 12104 layer_factory.hpp:77] Creating layer res4a
I0627 21:15:45.773289 12104 net.cpp:100] Creating Layer res4a
I0627 21:15:45.773299 12104 net.cpp:444] res4a <- res4a_branch1
I0627 21:15:45.773314 12104 net.cpp:444] res4a <- res4a_branch2c
I0627 21:15:45.773325 12104 net.cpp:418] res4a -> res4a
I0627 21:15:45.773388 12104 net.cpp:150] Setting up res4a
I0627 21:15:45.773401 12104 net.cpp:157] Top shape: 1 1024 60 80 (4915200)
I0627 21:15:45.773403 12104 net.cpp:165] Memory required for data: 4487577684
I0627 21:15:45.773412 12104 layer_factory.hpp:77] Creating layer res4a_relu
I0627 21:15:45.773425 12104 net.cpp:100] Creating Layer res4a_relu
I0627 21:15:45.773434 12104 net.cpp:444] res4a_relu <- res4a
I0627 21:15:45.773463 12104 net.cpp:405] res4a_relu -> res4a (in-place)
I0627 21:15:45.773686 12104 net.cpp:150] Setting up res4a_relu
I0627 21:15:45.773697 12104 net.cpp:157] Top shape: 1 1024 60 80 (4915200)
I0627 21:15:45.773699 12104 net.cpp:165] Memory required for data: 4507238484
I0627 21:15:45.773705 12104 layer_factory.hpp:77] Creating layer res4a_res4a_relu_0_split
I0627 21:15:45.773720 12104 net.cpp:100] Creating Layer res4a_res4a_relu_0_split
I0627 21:15:45.773727 12104 net.cpp:444] res4a_res4a_relu_0_split <- res4a
I0627 21:15:45.773746 12104 net.cpp:418] res4a_res4a_relu_0_split -> res4a_res4a_relu_0_split_0
I0627 21:15:45.773767 12104 net.cpp:418] res4a_res4a_relu_0_split -> res4a_res4a_relu_0_split_1
I0627 21:15:45.773860 12104 net.cpp:150] Setting up res4a_res4a_relu_0_split
I0627 21:15:45.773871 12104 net.cpp:157] Top shape: 1 1024 60 80 (4915200)
I0627 21:15:45.773876 12104 net.cpp:157] Top shape: 1 1024 60 80 (4915200)
I0627 21:15:45.773878 12104 net.cpp:165] Memory required for data: 4546560084
I0627 21:15:45.773886 12104 layer_factory.hpp:77] Creating layer res4b_branch2a
I0627 21:15:45.773907 12104 net.cpp:100] Creating Layer res4b_branch2a
I0627 21:15:45.773916 12104 net.cpp:444] res4b_branch2a <- res4a_res4a_relu_0_split_0
I0627 21:15:45.773938 12104 net.cpp:418] res4b_branch2a -> res4b_branch2a
I0627 21:15:45.776154 12104 cudnn_conv_layer.cpp:194] Reallocating workspace storage: 92952
I0627 21:15:45.776188 12104 net.cpp:150] Setting up res4b_branch2a
I0627 21:15:45.776201 12104 net.cpp:157] Top shape: 1 256 60 80 (1228800)
I0627 21:15:45.776204 12104 net.cpp:165] Memory required for data: 4551475284
I0627 21:15:45.776219 12104 layer_factory.hpp:77] Creating layer bn4b_branch2a
I0627 21:15:45.776242 12104 net.cpp:100] Creating Layer bn4b_branch2a
I0627 21:15:45.776250 12104 net.cpp:444] bn4b_branch2a <- res4b_branch2a
I0627 21:15:45.776271 12104 net.cpp:405] bn4b_branch2a -> res4b_branch2a (in-place)
I0627 21:15:45.776674 12104 net.cpp:150] Setting up bn4b_branch2a
I0627 21:15:45.776684 12104 net.cpp:157] Top shape: 1 256 60 80 (1228800)
I0627 21:15:45.776686 12104 net.cpp:165] Memory required for data: 4556390484
I0627 21:15:45.776708 12104 layer_factory.hpp:77] Creating layer scale4b_branch2a
I0627 21:15:45.776729 12104 net.cpp:100] Creating Layer scale4b_branch2a
I0627 21:15:45.776737 12104 net.cpp:444] scale4b_branch2a <- res4b_branch2a
I0627 21:15:45.776753 12104 net.cpp:405] scale4b_branch2a -> res4b_branch2a (in-place)
I0627 21:15:45.776851 12104 layer_factory.hpp:77] Creating layer scale4b_branch2a
I0627 21:15:45.777168 12104 net.cpp:150] Setting up scale4b_branch2a
I0627 21:15:45.777182 12104 net.cpp:157] Top shape: 1 256 60 80 (1228800)
I0627 21:15:45.777186 12104 net.cpp:165] Memory required for data: 4561305684
I0627 21:15:45.777201 12104 layer_factory.hpp:77] Creating layer res4b_branch2a_relu
I0627 21:15:45.777220 12104 net.cpp:100] Creating Layer res4b_branch2a_relu
I0627 21:15:45.777226 12104 net.cpp:444] res4b_branch2a_relu <- res4b_branch2a
I0627 21:15:45.777241 12104 net.cpp:405] res4b_branch2a_relu -> res4b_branch2a (in-place)
I0627 21:15:45.778040 12104 net.cpp:150] Setting up res4b_branch2a_relu
I0627 21:15:45.778065 12104 net.cpp:157] Top shape: 1 256 60 80 (1228800)
I0627 21:15:45.778069 12104 net.cpp:165] Memory required for data: 4566220884
I0627 21:15:45.778075 12104 layer_factory.hpp:77] Creating layer res4b_branch2b
I0627 21:15:45.778100 12104 net.cpp:100] Creating Layer res4b_branch2b
I0627 21:15:45.778110 12104 net.cpp:444] res4b_branch2b <- res4b_branch2a
I0627 21:15:45.778131 12104 net.cpp:418] res4b_branch2b -> res4b_branch2b
I0627 21:15:45.783864 12104 cudnn_conv_layer.cpp:194] Reallocating workspace storage: 12582912
I0627 21:15:45.784443 12104 net.cpp:150] Setting up res4b_branch2b
I0627 21:15:45.784461 12104 net.cpp:157] Top shape: 1 256 60 80 (1228800)
I0627 21:15:45.784464 12104 net.cpp:165] Memory required for data: 4571136084
I0627 21:15:45.784481 12104 layer_factory.hpp:77] Creating layer bn4b_branch2b
I0627 21:15:45.784500 12104 net.cpp:100] Creating Layer bn4b_branch2b
I0627 21:15:45.784510 12104 net.cpp:444] bn4b_branch2b <- res4b_branch2b
I0627 21:15:45.784533 12104 net.cpp:405] bn4b_branch2b -> res4b_branch2b (in-place)
I0627 21:15:45.784966 12104 net.cpp:150] Setting up bn4b_branch2b
I0627 21:15:45.784976 12104 net.cpp:157] Top shape: 1 256 60 80 (1228800)
I0627 21:15:45.784994 12104 net.cpp:165] Memory required for data: 4576051284
I0627 21:15:45.785017 12104 layer_factory.hpp:77] Creating layer scale4b_branch2b
I0627 21:15:45.785048 12104 net.cpp:100] Creating Layer scale4b_branch2b
I0627 21:15:45.785056 12104 net.cpp:444] scale4b_branch2b <- res4b_branch2b
I0627 21:15:45.785074 12104 net.cpp:405] scale4b_branch2b -> res4b_branch2b (in-place)
I0627 21:15:45.785198 12104 layer_factory.hpp:77] Creating layer scale4b_branch2b
I0627 21:15:45.785516 12104 net.cpp:150] Setting up scale4b_branch2b
I0627 21:15:45.785524 12104 net.cpp:157] Top shape: 1 256 60 80 (1228800)
I0627 21:15:45.785538 12104 net.cpp:165] Memory required for data: 4580966484
I0627 21:15:45.785555 12104 layer_factory.hpp:77] Creating layer res4b_branch2b_relu
I0627 21:15:45.785569 12104 net.cpp:100] Creating Layer res4b_branch2b_relu
I0627 21:15:45.785578 12104 net.cpp:444] res4b_branch2b_relu <- res4b_branch2b
I0627 21:15:45.785593 12104 net.cpp:405] res4b_branch2b_relu -> res4b_branch2b (in-place)
I0627 21:15:45.785820 12104 net.cpp:150] Setting up res4b_branch2b_relu
I0627 21:15:45.785830 12104 net.cpp:157] Top shape: 1 256 60 80 (1228800)
I0627 21:15:45.785831 12104 net.cpp:165] Memory required for data: 4585881684
I0627 21:15:45.785837 12104 layer_factory.hpp:77] Creating layer res4b_branch2c
I0627 21:15:45.785859 12104 net.cpp:100] Creating Layer res4b_branch2c
I0627 21:15:45.785867 12104 net.cpp:444] res4b_branch2c <- res4b_branch2b
I0627 21:15:45.785887 12104 net.cpp:418] res4b_branch2c -> res4b_branch2c
I0627 21:15:45.789553 12104 cudnn_conv_layer.cpp:194] Reallocating workspace storage: 92952
I0627 21:15:45.789592 12104 net.cpp:150] Setting up res4b_branch2c
I0627 21:15:45.789602 12104 net.cpp:157] Top shape: 1 1024 60 80 (4915200)
I0627 21:15:45.789605 12104 net.cpp:165] Memory required for data: 4605542484
I0627 21:15:45.789619 12104 layer_factory.hpp:77] Creating layer bn4b_branch2c
I0627 21:15:45.789643 12104 net.cpp:100] Creating Layer bn4b_branch2c
I0627 21:15:45.789651 12104 net.cpp:444] bn4b_branch2c <- res4b_branch2c
I0627 21:15:45.789669 12104 net.cpp:405] bn4b_branch2c -> res4b_branch2c (in-place)
I0627 21:15:45.790071 12104 net.cpp:150] Setting up bn4b_branch2c
I0627 21:15:45.790088 12104 net.cpp:157] Top shape: 1 1024 60 80 (4915200)
I0627 21:15:45.790091 12104 net.cpp:165] Memory required for data: 4625203284
I0627 21:15:45.790115 12104 layer_factory.hpp:77] Creating layer scale4b_branch2c
I0627 21:15:45.790133 12104 net.cpp:100] Creating Layer scale4b_branch2c
I0627 21:15:45.790143 12104 net.cpp:444] scale4b_branch2c <- res4b_branch2c
I0627 21:15:45.790159 12104 net.cpp:405] scale4b_branch2c -> res4b_branch2c (in-place)
I0627 21:15:45.790253 12104 layer_factory.hpp:77] Creating layer scale4b_branch2c
I0627 21:15:45.790546 12104 net.cpp:150] Setting up scale4b_branch2c
I0627 21:15:45.790556 12104 net.cpp:157] Top shape: 1 1024 60 80 (4915200)
I0627 21:15:45.790560 12104 net.cpp:165] Memory required for data: 4644864084
I0627 21:15:45.790573 12104 layer_factory.hpp:77] Creating layer res4b
I0627 21:15:45.790590 12104 net.cpp:100] Creating Layer res4b
I0627 21:15:45.790598 12104 net.cpp:444] res4b <- res4a_res4a_relu_0_split_1
I0627 21:15:45.790611 12104 net.cpp:444] res4b <- res4b_branch2c
I0627 21:15:45.790624 12104 net.cpp:418] res4b -> res4b
I0627 21:15:45.790684 12104 net.cpp:150] Setting up res4b
I0627 21:15:45.790695 12104 net.cpp:157] Top shape: 1 1024 60 80 (4915200)
I0627 21:15:45.790699 12104 net.cpp:165] Memory required for data: 4664524884
I0627 21:15:45.790704 12104 layer_factory.hpp:77] Creating layer res4b_relu
I0627 21:15:45.790719 12104 net.cpp:100] Creating Layer res4b_relu
I0627 21:15:45.790727 12104 net.cpp:444] res4b_relu <- res4b
I0627 21:15:45.790742 12104 net.cpp:405] res4b_relu -> res4b (in-place)
I0627 21:15:45.790982 12104 net.cpp:150] Setting up res4b_relu
I0627 21:15:45.790992 12104 net.cpp:157] Top shape: 1 1024 60 80 (4915200)
I0627 21:15:45.790994 12104 net.cpp:165] Memory required for data: 4684185684
I0627 21:15:45.791000 12104 layer_factory.hpp:77] Creating layer res4b_res4b_relu_0_split
I0627 21:15:45.791015 12104 net.cpp:100] Creating Layer res4b_res4b_relu_0_split
I0627 21:15:45.791023 12104 net.cpp:444] res4b_res4b_relu_0_split <- res4b
I0627 21:15:45.791043 12104 net.cpp:418] res4b_res4b_relu_0_split -> res4b_res4b_relu_0_split_0
I0627 21:15:45.791064 12104 net.cpp:418] res4b_res4b_relu_0_split -> res4b_res4b_relu_0_split_1
I0627 21:15:45.791152 12104 net.cpp:150] Setting up res4b_res4b_relu_0_split
I0627 21:15:45.791163 12104 net.cpp:157] Top shape: 1 1024 60 80 (4915200)
I0627 21:15:45.791168 12104 net.cpp:157] Top shape: 1 1024 60 80 (4915200)
I0627 21:15:45.791170 12104 net.cpp:165] Memory required for data: 4723507284
I0627 21:15:45.791177 12104 layer_factory.hpp:77] Creating layer res4c_branch2a
I0627 21:15:45.791214 12104 net.cpp:100] Creating Layer res4c_branch2a
I0627 21:15:45.791224 12104 net.cpp:444] res4c_branch2a <- res4b_res4b_relu_0_split_0
I0627 21:15:45.791242 12104 net.cpp:418] res4c_branch2a -> res4c_branch2a
I0627 21:15:45.793501 12104 cudnn_conv_layer.cpp:194] Reallocating workspace storage: 92952
I0627 21:15:45.793541 12104 net.cpp:150] Setting up res4c_branch2a
I0627 21:15:45.793552 12104 net.cpp:157] Top shape: 1 256 60 80 (1228800)
I0627 21:15:45.793555 12104 net.cpp:165] Memory required for data: 4728422484
I0627 21:15:45.793570 12104 layer_factory.hpp:77] Creating layer bn4c_branch2a
I0627 21:15:45.793591 12104 net.cpp:100] Creating Layer bn4c_branch2a
I0627 21:15:45.793601 12104 net.cpp:444] bn4c_branch2a <- res4c_branch2a
I0627 21:15:45.793620 12104 net.cpp:405] bn4c_branch2a -> res4c_branch2a (in-place)
I0627 21:15:45.794023 12104 net.cpp:150] Setting up bn4c_branch2a
I0627 21:15:45.794032 12104 net.cpp:157] Top shape: 1 256 60 80 (1228800)
I0627 21:15:45.794035 12104 net.cpp:165] Memory required for data: 4733337684
I0627 21:15:45.794072 12104 layer_factory.hpp:77] Creating layer scale4c_branch2a
I0627 21:15:45.794093 12104 net.cpp:100] Creating Layer scale4c_branch2a
I0627 21:15:45.794102 12104 net.cpp:444] scale4c_branch2a <- res4c_branch2a
I0627 21:15:45.794121 12104 net.cpp:405] scale4c_branch2a -> res4c_branch2a (in-place)
I0627 21:15:45.794219 12104 layer_factory.hpp:77] Creating layer scale4c_branch2a
I0627 21:15:45.794509 12104 net.cpp:150] Setting up scale4c_branch2a
I0627 21:15:45.794534 12104 net.cpp:157] Top shape: 1 256 60 80 (1228800)
I0627 21:15:45.794536 12104 net.cpp:165] Memory required for data: 4738252884
I0627 21:15:45.794569 12104 layer_factory.hpp:77] Creating layer res4c_branch2a_relu
I0627 21:15:45.794584 12104 net.cpp:100] Creating Layer res4c_branch2a_relu
I0627 21:15:45.794591 12104 net.cpp:444] res4c_branch2a_relu <- res4c_branch2a
I0627 21:15:45.794606 12104 net.cpp:405] res4c_branch2a_relu -> res4c_branch2a (in-place)
I0627 21:15:45.794829 12104 net.cpp:150] Setting up res4c_branch2a_relu
I0627 21:15:45.794839 12104 net.cpp:157] Top shape: 1 256 60 80 (1228800)
I0627 21:15:45.794842 12104 net.cpp:165] Memory required for data: 4743168084
I0627 21:15:45.794848 12104 layer_factory.hpp:77] Creating layer res4c_branch2b
I0627 21:15:45.794869 12104 net.cpp:100] Creating Layer res4c_branch2b
I0627 21:15:45.794878 12104 net.cpp:444] res4c_branch2b <- res4c_branch2a
I0627 21:15:45.794898 12104 net.cpp:418] res4c_branch2b -> res4c_branch2b
I0627 21:15:45.802171 12104 cudnn_conv_layer.cpp:194] Reallocating workspace storage: 12582912
I0627 21:15:45.802775 12104 net.cpp:150] Setting up res4c_branch2b
I0627 21:15:45.802808 12104 net.cpp:157] Top shape: 1 256 60 80 (1228800)
I0627 21:15:45.802811 12104 net.cpp:165] Memory required for data: 4748083284
I0627 21:15:45.802826 12104 layer_factory.hpp:77] Creating layer bn4c_branch2b
I0627 21:15:45.802861 12104 net.cpp:100] Creating Layer bn4c_branch2b
I0627 21:15:45.802870 12104 net.cpp:444] bn4c_branch2b <- res4c_branch2b
I0627 21:15:45.802893 12104 net.cpp:405] bn4c_branch2b -> res4c_branch2b (in-place)
I0627 21:15:45.803340 12104 net.cpp:150] Setting up bn4c_branch2b
I0627 21:15:45.803349 12104 net.cpp:157] Top shape: 1 256 60 80 (1228800)
I0627 21:15:45.803369 12104 net.cpp:165] Memory required for data: 4752998484
I0627 21:15:45.803391 12104 layer_factory.hpp:77] Creating layer scale4c_branch2b
I0627 21:15:45.803428 12104 net.cpp:100] Creating Layer scale4c_branch2b
I0627 21:15:45.803437 12104 net.cpp:444] scale4c_branch2b <- res4c_branch2b
I0627 21:15:45.803457 12104 net.cpp:405] scale4c_branch2b -> res4c_branch2b (in-place)
I0627 21:15:45.803560 12104 layer_factory.hpp:77] Creating layer scale4c_branch2b
I0627 21:15:45.803891 12104 net.cpp:150] Setting up scale4c_branch2b
I0627 21:15:45.803900 12104 net.cpp:157] Top shape: 1 256 60 80 (1228800)
I0627 21:15:45.803918 12104 net.cpp:165] Memory required for data: 4757913684
I0627 21:15:45.803933 12104 layer_factory.hpp:77] Creating layer res4c_branch2b_relu
I0627 21:15:45.803946 12104 net.cpp:100] Creating Layer res4c_branch2b_relu
I0627 21:15:45.803967 12104 net.cpp:444] res4c_branch2b_relu <- res4c_branch2b
I0627 21:15:45.803982 12104 net.cpp:405] res4c_branch2b_relu -> res4c_branch2b (in-place)
I0627 21:15:45.804745 12104 net.cpp:150] Setting up res4c_branch2b_relu
I0627 21:15:45.804759 12104 net.cpp:157] Top shape: 1 256 60 80 (1228800)
I0627 21:15:45.804777 12104 net.cpp:165] Memory required for data: 4762828884
I0627 21:15:45.804785 12104 layer_factory.hpp:77] Creating layer res4c_branch2c
I0627 21:15:45.804807 12104 net.cpp:100] Creating Layer res4c_branch2c
I0627 21:15:45.804829 12104 net.cpp:444] res4c_branch2c <- res4c_branch2b
I0627 21:15:45.804850 12104 net.cpp:418] res4c_branch2c -> res4c_branch2c
I0627 21:15:45.809245 12104 cudnn_conv_layer.cpp:194] Reallocating workspace storage: 92952
I0627 21:15:45.809293 12104 net.cpp:150] Setting up res4c_branch2c
I0627 21:15:45.809303 12104 net.cpp:157] Top shape: 1 1024 60 80 (4915200)
I0627 21:15:45.809305 12104 net.cpp:165] Memory required for data: 4782489684
I0627 21:15:45.809336 12104 layer_factory.hpp:77] Creating layer bn4c_branch2c
I0627 21:15:45.809378 12104 net.cpp:100] Creating Layer bn4c_branch2c
I0627 21:15:45.809388 12104 net.cpp:444] bn4c_branch2c <- res4c_branch2c
I0627 21:15:45.809408 12104 net.cpp:405] bn4c_branch2c -> res4c_branch2c (in-place)
I0627 21:15:45.809907 12104 net.cpp:150] Setting up bn4c_branch2c
I0627 21:15:45.809916 12104 net.cpp:157] Top shape: 1 1024 60 80 (4915200)
I0627 21:15:45.809934 12104 net.cpp:165] Memory required for data: 4802150484
I0627 21:15:45.809959 12104 layer_factory.hpp:77] Creating layer scale4c_branch2c
I0627 21:15:45.809996 12104 net.cpp:100] Creating Layer scale4c_branch2c
I0627 21:15:45.810021 12104 net.cpp:444] scale4c_branch2c <- res4c_branch2c
I0627 21:15:45.810039 12104 net.cpp:405] scale4c_branch2c -> res4c_branch2c (in-place)
I0627 21:15:45.810137 12104 layer_factory.hpp:77] Creating layer scale4c_branch2c
I0627 21:15:45.810462 12104 net.cpp:150] Setting up scale4c_branch2c
I0627 21:15:45.810487 12104 net.cpp:157] Top shape: 1 1024 60 80 (4915200)
I0627 21:15:45.810489 12104 net.cpp:165] Memory required for data: 4821811284
I0627 21:15:45.810519 12104 layer_factory.hpp:77] Creating layer res4c
I0627 21:15:45.810534 12104 net.cpp:100] Creating Layer res4c
I0627 21:15:45.810556 12104 net.cpp:444] res4c <- res4b_res4b_relu_0_split_1
I0627 21:15:45.810585 12104 net.cpp:444] res4c <- res4c_branch2c
I0627 21:15:45.810602 12104 net.cpp:418] res4c -> res4c
I0627 21:15:45.810667 12104 net.cpp:150] Setting up res4c
I0627 21:15:45.810680 12104 net.cpp:157] Top shape: 1 1024 60 80 (4915200)
I0627 21:15:45.810683 12104 net.cpp:165] Memory required for data: 4841472084
I0627 21:15:45.810689 12104 layer_factory.hpp:77] Creating layer res4c_relu
I0627 21:15:45.810703 12104 net.cpp:100] Creating Layer res4c_relu
I0627 21:15:45.810709 12104 net.cpp:444] res4c_relu <- res4c
I0627 21:15:45.810724 12104 net.cpp:405] res4c_relu -> res4c (in-place)
I0627 21:15:45.810978 12104 net.cpp:150] Setting up res4c_relu
I0627 21:15:45.810991 12104 net.cpp:157] Top shape: 1 1024 60 80 (4915200)
I0627 21:15:45.810993 12104 net.cpp:165] Memory required for data: 4861132884
I0627 21:15:45.810999 12104 layer_factory.hpp:77] Creating layer res4c_res4c_relu_0_split
I0627 21:15:45.811012 12104 net.cpp:100] Creating Layer res4c_res4c_relu_0_split
I0627 21:15:45.811018 12104 net.cpp:444] res4c_res4c_relu_0_split <- res4c
I0627 21:15:45.811055 12104 net.cpp:418] res4c_res4c_relu_0_split -> res4c_res4c_relu_0_split_0
I0627 21:15:45.811077 12104 net.cpp:418] res4c_res4c_relu_0_split -> res4c_res4c_relu_0_split_1
I0627 21:15:45.811175 12104 net.cpp:150] Setting up res4c_res4c_relu_0_split
I0627 21:15:45.811187 12104 net.cpp:157] Top shape: 1 1024 60 80 (4915200)
I0627 21:15:45.811193 12104 net.cpp:157] Top shape: 1 1024 60 80 (4915200)
I0627 21:15:45.811195 12104 net.cpp:165] Memory required for data: 4900454484
I0627 21:15:45.811203 12104 layer_factory.hpp:77] Creating layer res4d_branch2a
I0627 21:15:45.811225 12104 net.cpp:100] Creating Layer res4d_branch2a
I0627 21:15:45.811234 12104 net.cpp:444] res4d_branch2a <- res4c_res4c_relu_0_split_0
I0627 21:15:45.811256 12104 net.cpp:418] res4d_branch2a -> res4d_branch2a
I0627 21:15:45.813535 12104 cudnn_conv_layer.cpp:194] Reallocating workspace storage: 92952
I0627 21:15:45.813580 12104 net.cpp:150] Setting up res4d_branch2a
I0627 21:15:45.813592 12104 net.cpp:157] Top shape: 1 256 60 80 (1228800)
I0627 21:15:45.813596 12104 net.cpp:165] Memory required for data: 4905369684
I0627 21:15:45.813611 12104 layer_factory.hpp:77] Creating layer bn4d_branch2a
I0627 21:15:45.813633 12104 net.cpp:100] Creating Layer bn4d_branch2a
I0627 21:15:45.813643 12104 net.cpp:444] bn4d_branch2a <- res4d_branch2a
I0627 21:15:45.813663 12104 net.cpp:405] bn4d_branch2a -> res4d_branch2a (in-place)
I0627 21:15:45.814093 12104 net.cpp:150] Setting up bn4d_branch2a
I0627 21:15:45.814103 12104 net.cpp:157] Top shape: 1 256 60 80 (1228800)
I0627 21:15:45.814106 12104 net.cpp:165] Memory required for data: 4910284884
I0627 21:15:45.814146 12104 layer_factory.hpp:77] Creating layer scale4d_branch2a
I0627 21:15:45.814167 12104 net.cpp:100] Creating Layer scale4d_branch2a
I0627 21:15:45.814175 12104 net.cpp:444] scale4d_branch2a <- res4d_branch2a
I0627 21:15:45.814195 12104 net.cpp:405] scale4d_branch2a -> res4d_branch2a (in-place)
I0627 21:15:45.814298 12104 layer_factory.hpp:77] Creating layer scale4d_branch2a
I0627 21:15:45.814597 12104 net.cpp:150] Setting up scale4d_branch2a
I0627 21:15:45.814608 12104 net.cpp:157] Top shape: 1 256 60 80 (1228800)
I0627 21:15:45.814611 12104 net.cpp:165] Memory required for data: 4915200084
I0627 21:15:45.814656 12104 layer_factory.hpp:77] Creating layer res4d_branch2a_relu
I0627 21:15:45.814677 12104 net.cpp:100] Creating Layer res4d_branch2a_relu
I0627 21:15:45.814685 12104 net.cpp:444] res4d_branch2a_relu <- res4d_branch2a
I0627 21:15:45.814700 12104 net.cpp:405] res4d_branch2a_relu -> res4d_branch2a (in-place)
I0627 21:15:45.814934 12104 net.cpp:150] Setting up res4d_branch2a_relu
I0627 21:15:45.814944 12104 net.cpp:157] Top shape: 1 256 60 80 (1228800)
I0627 21:15:45.814947 12104 net.cpp:165] Memory required for data: 4920115284
I0627 21:15:45.814954 12104 layer_factory.hpp:77] Creating layer res4d_branch2b
I0627 21:15:45.814976 12104 net.cpp:100] Creating Layer res4d_branch2b
I0627 21:15:45.814985 12104 net.cpp:444] res4d_branch2b <- res4d_branch2a
I0627 21:15:45.815006 12104 net.cpp:418] res4d_branch2b -> res4d_branch2b
I0627 21:15:45.827487 12104 cudnn_conv_layer.cpp:194] Reallocating workspace storage: 12582912
I0627 21:15:45.828163 12104 net.cpp:150] Setting up res4d_branch2b
I0627 21:15:45.828193 12104 net.cpp:157] Top shape: 1 256 60 80 (1228800)
I0627 21:15:45.828197 12104 net.cpp:165] Memory required for data: 4925030484
I0627 21:15:45.828213 12104 layer_factory.hpp:77] Creating layer bn4d_branch2b
I0627 21:15:45.828248 12104 net.cpp:100] Creating Layer bn4d_branch2b
I0627 21:15:45.828274 12104 net.cpp:444] bn4d_branch2b <- res4d_branch2b
I0627 21:15:45.828295 12104 net.cpp:405] bn4d_branch2b -> res4d_branch2b (in-place)
I0627 21:15:45.828774 12104 net.cpp:150] Setting up bn4d_branch2b
I0627 21:15:45.828784 12104 net.cpp:157] Top shape: 1 256 60 80 (1228800)
I0627 21:15:45.828802 12104 net.cpp:165] Memory required for data: 4929945684
I0627 21:15:45.828825 12104 layer_factory.hpp:77] Creating layer scale4d_branch2b
I0627 21:15:45.828861 12104 net.cpp:100] Creating Layer scale4d_branch2b
I0627 21:15:45.828884 12104 net.cpp:444] scale4d_branch2b <- res4d_branch2b
I0627 21:15:45.828917 12104 net.cpp:405] scale4d_branch2b -> res4d_branch2b (in-place)
I0627 21:15:45.829025 12104 layer_factory.hpp:77] Creating layer scale4d_branch2b
I0627 21:15:45.829388 12104 net.cpp:150] Setting up scale4d_branch2b
I0627 21:15:45.829413 12104 net.cpp:157] Top shape: 1 256 60 80 (1228800)
I0627 21:15:45.829432 12104 net.cpp:165] Memory required for data: 4934860884
I0627 21:15:45.829459 12104 layer_factory.hpp:77] Creating layer res4d_branch2b_relu
I0627 21:15:45.829489 12104 net.cpp:100] Creating Layer res4d_branch2b_relu
I0627 21:15:45.829499 12104 net.cpp:444] res4d_branch2b_relu <- res4d_branch2b
I0627 21:15:45.829531 12104 net.cpp:405] res4d_branch2b_relu -> res4d_branch2b (in-place)
I0627 21:15:45.830369 12104 net.cpp:150] Setting up res4d_branch2b_relu
I0627 21:15:45.830381 12104 net.cpp:157] Top shape: 1 256 60 80 (1228800)
I0627 21:15:45.830395 12104 net.cpp:165] Memory required for data: 4939776084
I0627 21:15:45.830402 12104 layer_factory.hpp:77] Creating layer res4d_branch2c
I0627 21:15:45.830442 12104 net.cpp:100] Creating Layer res4d_branch2c
I0627 21:15:45.830452 12104 net.cpp:444] res4d_branch2c <- res4d_branch2b
I0627 21:15:45.830493 12104 net.cpp:418] res4d_branch2c -> res4d_branch2c
I0627 21:15:45.834324 12104 cudnn_conv_layer.cpp:194] Reallocating workspace storage: 92952
I0627 21:15:45.834364 12104 net.cpp:150] Setting up res4d_branch2c
I0627 21:15:45.834390 12104 net.cpp:157] Top shape: 1 1024 60 80 (4915200)
I0627 21:15:45.834395 12104 net.cpp:165] Memory required for data: 4959436884
I0627 21:15:45.834427 12104 layer_factory.hpp:77] Creating layer bn4d_branch2c
I0627 21:15:45.834466 12104 net.cpp:100] Creating Layer bn4d_branch2c
I0627 21:15:45.834477 12104 net.cpp:444] bn4d_branch2c <- res4d_branch2c
I0627 21:15:45.834496 12104 net.cpp:405] bn4d_branch2c -> res4d_branch2c (in-place)
I0627 21:15:45.834975 12104 net.cpp:150] Setting up bn4d_branch2c
I0627 21:15:45.834985 12104 net.cpp:157] Top shape: 1 1024 60 80 (4915200)
I0627 21:15:45.834987 12104 net.cpp:165] Memory required for data: 4979097684
I0627 21:15:45.835045 12104 layer_factory.hpp:77] Creating layer scale4d_branch2c
I0627 21:15:45.835067 12104 net.cpp:100] Creating Layer scale4d_branch2c
I0627 21:15:45.835077 12104 net.cpp:444] scale4d_branch2c <- res4d_branch2c
I0627 21:15:45.835093 12104 net.cpp:405] scale4d_branch2c -> res4d_branch2c (in-place)
I0627 21:15:45.835193 12104 layer_factory.hpp:77] Creating layer scale4d_branch2c
I0627 21:15:45.835512 12104 net.cpp:150] Setting up scale4d_branch2c
I0627 21:15:45.835523 12104 net.cpp:157] Top shape: 1 1024 60 80 (4915200)
I0627 21:15:45.835526 12104 net.cpp:165] Memory required for data: 4998758484
I0627 21:15:45.835572 12104 layer_factory.hpp:77] Creating layer res4d
I0627 21:15:45.835592 12104 net.cpp:100] Creating Layer res4d
I0627 21:15:45.835602 12104 net.cpp:444] res4d <- res4c_res4c_relu_0_split_1
I0627 21:15:45.835615 12104 net.cpp:444] res4d <- res4d_branch2c
I0627 21:15:45.835626 12104 net.cpp:418] res4d -> res4d
I0627 21:15:45.835692 12104 net.cpp:150] Setting up res4d
I0627 21:15:45.835705 12104 net.cpp:157] Top shape: 1 1024 60 80 (4915200)
I0627 21:15:45.835708 12104 net.cpp:165] Memory required for data: 5018419284
I0627 21:15:45.835714 12104 layer_factory.hpp:77] Creating layer res4d_relu
I0627 21:15:45.835727 12104 net.cpp:100] Creating Layer res4d_relu
I0627 21:15:45.835736 12104 net.cpp:444] res4d_relu <- res4d
I0627 21:15:45.835752 12104 net.cpp:405] res4d_relu -> res4d (in-place)
I0627 21:15:45.835988 12104 net.cpp:150] Setting up res4d_relu
I0627 21:15:45.835999 12104 net.cpp:157] Top shape: 1 1024 60 80 (4915200)
I0627 21:15:45.836001 12104 net.cpp:165] Memory required for data: 5038080084
I0627 21:15:45.836007 12104 layer_factory.hpp:77] Creating layer res4d_res4d_relu_0_split
I0627 21:15:45.836020 12104 net.cpp:100] Creating Layer res4d_res4d_relu_0_split
I0627 21:15:45.836027 12104 net.cpp:444] res4d_res4d_relu_0_split <- res4d
I0627 21:15:45.836062 12104 net.cpp:418] res4d_res4d_relu_0_split -> res4d_res4d_relu_0_split_0
I0627 21:15:45.836084 12104 net.cpp:418] res4d_res4d_relu_0_split -> res4d_res4d_relu_0_split_1
I0627 21:15:45.836181 12104 net.cpp:150] Setting up res4d_res4d_relu_0_split
I0627 21:15:45.836194 12104 net.cpp:157] Top shape: 1 1024 60 80 (4915200)
I0627 21:15:45.836199 12104 net.cpp:157] Top shape: 1 1024 60 80 (4915200)
I0627 21:15:45.836202 12104 net.cpp:165] Memory required for data: 5077401684
I0627 21:15:45.836210 12104 layer_factory.hpp:77] Creating layer res4e_branch2a
I0627 21:15:45.836231 12104 net.cpp:100] Creating Layer res4e_branch2a
I0627 21:15:45.836241 12104 net.cpp:444] res4e_branch2a <- res4d_res4d_relu_0_split_0
I0627 21:15:45.836262 12104 net.cpp:418] res4e_branch2a -> res4e_branch2a
I0627 21:15:45.838558 12104 cudnn_conv_layer.cpp:194] Reallocating workspace storage: 92952
I0627 21:15:45.838601 12104 net.cpp:150] Setting up res4e_branch2a
I0627 21:15:45.838615 12104 net.cpp:157] Top shape: 1 256 60 80 (1228800)
I0627 21:15:45.838618 12104 net.cpp:165] Memory required for data: 5082316884
I0627 21:15:45.838634 12104 layer_factory.hpp:77] Creating layer bn4e_branch2a
I0627 21:15:45.838652 12104 net.cpp:100] Creating Layer bn4e_branch2a
I0627 21:15:45.838662 12104 net.cpp:444] bn4e_branch2a <- res4e_branch2a
I0627 21:15:45.838685 12104 net.cpp:405] bn4e_branch2a -> res4e_branch2a (in-place)
I0627 21:15:45.839128 12104 net.cpp:150] Setting up bn4e_branch2a
I0627 21:15:45.839138 12104 net.cpp:157] Top shape: 1 256 60 80 (1228800)
I0627 21:15:45.839156 12104 net.cpp:165] Memory required for data: 5087232084
I0627 21:15:45.839179 12104 layer_factory.hpp:77] Creating layer scale4e_branch2a
I0627 21:15:45.839216 12104 net.cpp:100] Creating Layer scale4e_branch2a
I0627 21:15:45.839241 12104 net.cpp:444] scale4e_branch2a <- res4e_branch2a
I0627 21:15:45.839260 12104 net.cpp:405] scale4e_branch2a -> res4e_branch2a (in-place)
I0627 21:15:45.839372 12104 layer_factory.hpp:77] Creating layer scale4e_branch2a
I0627 21:15:45.839736 12104 net.cpp:150] Setting up scale4e_branch2a
I0627 21:15:45.839746 12104 net.cpp:157] Top shape: 1 256 60 80 (1228800)
I0627 21:15:45.839764 12104 net.cpp:165] Memory required for data: 5092147284
I0627 21:15:45.839781 12104 layer_factory.hpp:77] Creating layer res4e_branch2a_relu
I0627 21:15:45.839797 12104 net.cpp:100] Creating Layer res4e_branch2a_relu
I0627 21:15:45.839820 12104 net.cpp:444] res4e_branch2a_relu <- res4e_branch2a
I0627 21:15:45.839836 12104 net.cpp:405] res4e_branch2a_relu -> res4e_branch2a (in-place)
I0627 21:15:45.840114 12104 net.cpp:150] Setting up res4e_branch2a_relu
I0627 21:15:45.840126 12104 net.cpp:157] Top shape: 1 256 60 80 (1228800)
I0627 21:15:45.840129 12104 net.cpp:165] Memory required for data: 5097062484
I0627 21:15:45.840135 12104 layer_factory.hpp:77] Creating layer res4e_branch2b
I0627 21:15:45.840159 12104 net.cpp:100] Creating Layer res4e_branch2b
I0627 21:15:45.840169 12104 net.cpp:444] res4e_branch2b <- res4e_branch2a
I0627 21:15:45.840190 12104 net.cpp:418] res4e_branch2b -> res4e_branch2b
I0627 21:15:45.845005 12104 cudnn_conv_layer.cpp:194] Reallocating workspace storage: 12582912
I0627 21:15:45.845697 12104 net.cpp:150] Setting up res4e_branch2b
I0627 21:15:45.845727 12104 net.cpp:157] Top shape: 1 256 60 80 (1228800)
I0627 21:15:45.845731 12104 net.cpp:165] Memory required for data: 5101977684
I0627 21:15:45.845747 12104 layer_factory.hpp:77] Creating layer bn4e_branch2b
I0627 21:15:45.845782 12104 net.cpp:100] Creating Layer bn4e_branch2b
I0627 21:15:45.845789 12104 net.cpp:444] bn4e_branch2b <- res4e_branch2b
I0627 21:15:45.845813 12104 net.cpp:405] bn4e_branch2b -> res4e_branch2b (in-place)
I0627 21:15:45.846292 12104 net.cpp:150] Setting up bn4e_branch2b
I0627 21:15:45.846302 12104 net.cpp:157] Top shape: 1 256 60 80 (1228800)
I0627 21:15:45.846320 12104 net.cpp:165] Memory required for data: 5106892884
I0627 21:15:45.846343 12104 layer_factory.hpp:77] Creating layer scale4e_branch2b
I0627 21:15:45.846377 12104 net.cpp:100] Creating Layer scale4e_branch2b
I0627 21:15:45.846387 12104 net.cpp:444] scale4e_branch2b <- res4e_branch2b
I0627 21:15:45.846415 12104 net.cpp:405] scale4e_branch2b -> res4e_branch2b (in-place)
I0627 21:15:45.846521 12104 layer_factory.hpp:77] Creating layer scale4e_branch2b
I0627 21:15:45.846897 12104 net.cpp:150] Setting up scale4e_branch2b
I0627 21:15:45.846907 12104 net.cpp:157] Top shape: 1 256 60 80 (1228800)
I0627 21:15:45.846925 12104 net.cpp:165] Memory required for data: 5111808084
I0627 21:15:45.846949 12104 layer_factory.hpp:77] Creating layer res4e_branch2b_relu
I0627 21:15:45.846977 12104 net.cpp:100] Creating Layer res4e_branch2b_relu
I0627 21:15:45.846984 12104 net.cpp:444] res4e_branch2b_relu <- res4e_branch2b
I0627 21:15:45.847019 12104 net.cpp:405] res4e_branch2b_relu -> res4e_branch2b (in-place)
I0627 21:15:45.847874 12104 net.cpp:150] Setting up res4e_branch2b_relu
I0627 21:15:45.847885 12104 net.cpp:157] Top shape: 1 256 60 80 (1228800)
I0627 21:15:45.847904 12104 net.cpp:165] Memory required for data: 5116723284
I0627 21:15:45.847910 12104 layer_factory.hpp:77] Creating layer res4e_branch2c
I0627 21:15:45.847934 12104 net.cpp:100] Creating Layer res4e_branch2c
I0627 21:15:45.847957 12104 net.cpp:444] res4e_branch2c <- res4e_branch2b
I0627 21:15:45.847997 12104 net.cpp:418] res4e_branch2c -> res4e_branch2c
I0627 21:15:45.851864 12104 cudnn_conv_layer.cpp:194] Reallocating workspace storage: 92952
I0627 21:15:45.851909 12104 net.cpp:150] Setting up res4e_branch2c
I0627 21:15:45.851919 12104 net.cpp:157] Top shape: 1 1024 60 80 (4915200)
I0627 21:15:45.851922 12104 net.cpp:165] Memory required for data: 5136384084
I0627 21:15:45.851953 12104 layer_factory.hpp:77] Creating layer bn4e_branch2c
I0627 21:15:45.851990 12104 net.cpp:100] Creating Layer bn4e_branch2c
I0627 21:15:45.852015 12104 net.cpp:444] bn4e_branch2c <- res4e_branch2c
I0627 21:15:45.852038 12104 net.cpp:405] bn4e_branch2c -> res4e_branch2c (in-place)
I0627 21:15:45.852519 12104 net.cpp:150] Setting up bn4e_branch2c
I0627 21:15:45.852530 12104 net.cpp:157] Top shape: 1 1024 60 80 (4915200)
I0627 21:15:45.852547 12104 net.cpp:165] Memory required for data: 5156044884
I0627 21:15:45.852572 12104 layer_factory.hpp:77] Creating layer scale4e_branch2c
I0627 21:15:45.852623 12104 net.cpp:100] Creating Layer scale4e_branch2c
I0627 21:15:45.852632 12104 net.cpp:444] scale4e_branch2c <- res4e_branch2c
I0627 21:15:45.852664 12104 net.cpp:405] scale4e_branch2c -> res4e_branch2c (in-place)
I0627 21:15:45.852785 12104 layer_factory.hpp:77] Creating layer scale4e_branch2c
I0627 21:15:45.853178 12104 net.cpp:150] Setting up scale4e_branch2c
I0627 21:15:45.853188 12104 net.cpp:157] Top shape: 1 1024 60 80 (4915200)
I0627 21:15:45.853205 12104 net.cpp:165] Memory required for data: 5175705684
I0627 21:15:45.853220 12104 layer_factory.hpp:77] Creating layer res4e
I0627 21:15:45.853236 12104 net.cpp:100] Creating Layer res4e
I0627 21:15:45.853260 12104 net.cpp:444] res4e <- res4d_res4d_relu_0_split_1
I0627 21:15:45.853277 12104 net.cpp:444] res4e <- res4e_branch2c
I0627 21:15:45.853307 12104 net.cpp:418] res4e -> res4e
I0627 21:15:45.853374 12104 net.cpp:150] Setting up res4e
I0627 21:15:45.853386 12104 net.cpp:157] Top shape: 1 1024 60 80 (4915200)
I0627 21:15:45.853389 12104 net.cpp:165] Memory required for data: 5195366484
I0627 21:15:45.853395 12104 layer_factory.hpp:77] Creating layer res4e_relu
I0627 21:15:45.853410 12104 net.cpp:100] Creating Layer res4e_relu
I0627 21:15:45.853418 12104 net.cpp:444] res4e_relu <- res4e
I0627 21:15:45.853435 12104 net.cpp:405] res4e_relu -> res4e (in-place)
I0627 21:15:45.853691 12104 net.cpp:150] Setting up res4e_relu
I0627 21:15:45.853701 12104 net.cpp:157] Top shape: 1 1024 60 80 (4915200)
I0627 21:15:45.853704 12104 net.cpp:165] Memory required for data: 5215027284
I0627 21:15:45.853710 12104 layer_factory.hpp:77] Creating layer res4e_res4e_relu_0_split
I0627 21:15:45.853724 12104 net.cpp:100] Creating Layer res4e_res4e_relu_0_split
I0627 21:15:45.853730 12104 net.cpp:444] res4e_res4e_relu_0_split <- res4e
I0627 21:15:45.853765 12104 net.cpp:418] res4e_res4e_relu_0_split -> res4e_res4e_relu_0_split_0
I0627 21:15:45.853787 12104 net.cpp:418] res4e_res4e_relu_0_split -> res4e_res4e_relu_0_split_1
I0627 21:15:45.853891 12104 net.cpp:150] Setting up res4e_res4e_relu_0_split
I0627 21:15:45.853904 12104 net.cpp:157] Top shape: 1 1024 60 80 (4915200)
I0627 21:15:45.853909 12104 net.cpp:157] Top shape: 1 1024 60 80 (4915200)
I0627 21:15:45.853911 12104 net.cpp:165] Memory required for data: 5254348884
I0627 21:15:45.853919 12104 layer_factory.hpp:77] Creating layer res4f_branch2a
I0627 21:15:45.853943 12104 net.cpp:100] Creating Layer res4f_branch2a
I0627 21:15:45.853952 12104 net.cpp:444] res4f_branch2a <- res4e_res4e_relu_0_split_0
I0627 21:15:45.853974 12104 net.cpp:418] res4f_branch2a -> res4f_branch2a
I0627 21:15:45.856292 12104 cudnn_conv_layer.cpp:194] Reallocating workspace storage: 92952
I0627 21:15:45.856335 12104 net.cpp:150] Setting up res4f_branch2a
I0627 21:15:45.856348 12104 net.cpp:157] Top shape: 1 256 60 80 (1228800)
I0627 21:15:45.856351 12104 net.cpp:165] Memory required for data: 5259264084
I0627 21:15:45.856379 12104 layer_factory.hpp:77] Creating layer bn4f_branch2a
I0627 21:15:45.856400 12104 net.cpp:100] Creating Layer bn4f_branch2a
I0627 21:15:45.856408 12104 net.cpp:444] bn4f_branch2a <- res4f_branch2a
I0627 21:15:45.856431 12104 net.cpp:405] bn4f_branch2a -> res4f_branch2a (in-place)
I0627 21:15:45.856894 12104 net.cpp:150] Setting up bn4f_branch2a
I0627 21:15:45.856904 12104 net.cpp:157] Top shape: 1 256 60 80 (1228800)
I0627 21:15:45.856906 12104 net.cpp:165] Memory required for data: 5264179284
I0627 21:15:45.856945 12104 layer_factory.hpp:77] Creating layer scale4f_branch2a
I0627 21:15:45.856967 12104 net.cpp:100] Creating Layer scale4f_branch2a
I0627 21:15:45.856976 12104 net.cpp:444] scale4f_branch2a <- res4f_branch2a
I0627 21:15:45.857005 12104 net.cpp:405] scale4f_branch2a -> res4f_branch2a (in-place)
I0627 21:15:45.857123 12104 layer_factory.hpp:77] Creating layer scale4f_branch2a
I0627 21:15:45.857456 12104 net.cpp:150] Setting up scale4f_branch2a
I0627 21:15:45.857478 12104 net.cpp:157] Top shape: 1 256 60 80 (1228800)
I0627 21:15:45.857481 12104 net.cpp:165] Memory required for data: 5269094484
I0627 21:15:45.857509 12104 layer_factory.hpp:77] Creating layer res4f_branch2a_relu
I0627 21:15:45.857547 12104 net.cpp:100] Creating Layer res4f_branch2a_relu
I0627 21:15:45.857555 12104 net.cpp:444] res4f_branch2a_relu <- res4f_branch2a
I0627 21:15:45.857571 12104 net.cpp:405] res4f_branch2a_relu -> res4f_branch2a (in-place)
I0627 21:15:45.857815 12104 net.cpp:150] Setting up res4f_branch2a_relu
I0627 21:15:45.857826 12104 net.cpp:157] Top shape: 1 256 60 80 (1228800)
I0627 21:15:45.857830 12104 net.cpp:165] Memory required for data: 5274009684
I0627 21:15:45.857836 12104 layer_factory.hpp:77] Creating layer res4f_branch2b
I0627 21:15:45.857858 12104 net.cpp:100] Creating Layer res4f_branch2b
I0627 21:15:45.857867 12104 net.cpp:444] res4f_branch2b <- res4f_branch2a
I0627 21:15:45.857892 12104 net.cpp:418] res4f_branch2b -> res4f_branch2b
I0627 21:15:45.864413 12104 cudnn_conv_layer.cpp:194] Reallocating workspace storage: 12582912
I0627 21:15:45.865098 12104 net.cpp:150] Setting up res4f_branch2b
I0627 21:15:45.865130 12104 net.cpp:157] Top shape: 1 256 60 80 (1228800)
I0627 21:15:45.865134 12104 net.cpp:165] Memory required for data: 5278924884
I0627 21:15:45.865150 12104 layer_factory.hpp:77] Creating layer bn4f_branch2b
I0627 21:15:45.865187 12104 net.cpp:100] Creating Layer bn4f_branch2b
I0627 21:15:45.865197 12104 net.cpp:444] bn4f_branch2b <- res4f_branch2b
I0627 21:15:45.865216 12104 net.cpp:405] bn4f_branch2b -> res4f_branch2b (in-place)
I0627 21:15:45.865700 12104 net.cpp:150] Setting up bn4f_branch2b
I0627 21:15:45.865710 12104 net.cpp:157] Top shape: 1 256 60 80 (1228800)
I0627 21:15:45.865712 12104 net.cpp:165] Memory required for data: 5283840084
I0627 21:15:45.865751 12104 layer_factory.hpp:77] Creating layer scale4f_branch2b
I0627 21:15:45.865789 12104 net.cpp:100] Creating Layer scale4f_branch2b
I0627 21:15:45.865797 12104 net.cpp:444] scale4f_branch2b <- res4f_branch2b
I0627 21:15:45.865814 12104 net.cpp:405] scale4f_branch2b -> res4f_branch2b (in-place)
I0627 21:15:45.865923 12104 layer_factory.hpp:77] Creating layer scale4f_branch2b
I0627 21:15:45.866271 12104 net.cpp:150] Setting up scale4f_branch2b
I0627 21:15:45.866281 12104 net.cpp:157] Top shape: 1 256 60 80 (1228800)
I0627 21:15:45.866295 12104 net.cpp:165] Memory required for data: 5288755284
I0627 21:15:45.866310 12104 layer_factory.hpp:77] Creating layer res4f_branch2b_relu
I0627 21:15:45.866334 12104 net.cpp:100] Creating Layer res4f_branch2b_relu
I0627 21:15:45.866343 12104 net.cpp:444] res4f_branch2b_relu <- res4f_branch2b
I0627 21:15:45.866360 12104 net.cpp:405] res4f_branch2b_relu -> res4f_branch2b (in-place)
I0627 21:15:45.866631 12104 net.cpp:150] Setting up res4f_branch2b_relu
I0627 21:15:45.866641 12104 net.cpp:157] Top shape: 1 256 60 80 (1228800)
I0627 21:15:45.866644 12104 net.cpp:165] Memory required for data: 5293670484
I0627 21:15:45.866652 12104 layer_factory.hpp:77] Creating layer res4f_branch2c
I0627 21:15:45.866674 12104 net.cpp:100] Creating Layer res4f_branch2c
I0627 21:15:45.866699 12104 net.cpp:444] res4f_branch2c <- res4f_branch2b
I0627 21:15:45.866722 12104 net.cpp:418] res4f_branch2c -> res4f_branch2c
I0627 21:15:45.870546 12104 cudnn_conv_layer.cpp:194] Reallocating workspace storage: 92952
I0627 21:15:45.870592 12104 net.cpp:150] Setting up res4f_branch2c
I0627 21:15:45.870602 12104 net.cpp:157] Top shape: 1 1024 60 80 (4915200)
I0627 21:15:45.870604 12104 net.cpp:165] Memory required for data: 5313331284
I0627 21:15:45.870630 12104 layer_factory.hpp:77] Creating layer bn4f_branch2c
I0627 21:15:45.870652 12104 net.cpp:100] Creating Layer bn4f_branch2c
I0627 21:15:45.870662 12104 net.cpp:444] bn4f_branch2c <- res4f_branch2c
I0627 21:15:45.870683 12104 net.cpp:405] bn4f_branch2c -> res4f_branch2c (in-place)
I0627 21:15:45.871146 12104 net.cpp:150] Setting up bn4f_branch2c
I0627 21:15:45.871156 12104 net.cpp:157] Top shape: 1 1024 60 80 (4915200)
I0627 21:15:45.871174 12104 net.cpp:165] Memory required for data: 5332992084
I0627 21:15:45.871275 12104 layer_factory.hpp:77] Creating layer scale4f_branch2c
I0627 21:15:45.871299 12104 net.cpp:100] Creating Layer scale4f_branch2c
I0627 21:15:45.871307 12104 net.cpp:444] scale4f_branch2c <- res4f_branch2c
I0627 21:15:45.871325 12104 net.cpp:405] scale4f_branch2c -> res4f_branch2c (in-place)
I0627 21:15:45.871444 12104 layer_factory.hpp:77] Creating layer scale4f_branch2c
I0627 21:15:45.871810 12104 net.cpp:150] Setting up scale4f_branch2c
I0627 21:15:45.871820 12104 net.cpp:157] Top shape: 1 1024 60 80 (4915200)
I0627 21:15:45.871824 12104 net.cpp:165] Memory required for data: 5352652884
I0627 21:15:45.871855 12104 layer_factory.hpp:77] Creating layer res4f
I0627 21:15:45.871889 12104 net.cpp:100] Creating Layer res4f
I0627 21:15:45.871898 12104 net.cpp:444] res4f <- res4e_res4e_relu_0_split_1
I0627 21:15:45.871912 12104 net.cpp:444] res4f <- res4f_branch2c
I0627 21:15:45.871925 12104 net.cpp:418] res4f -> res4f
I0627 21:15:45.871994 12104 net.cpp:150] Setting up res4f
I0627 21:15:45.872007 12104 net.cpp:157] Top shape: 1 1024 60 80 (4915200)
I0627 21:15:45.872010 12104 net.cpp:165] Memory required for data: 5372313684
I0627 21:15:45.872016 12104 layer_factory.hpp:77] Creating layer res4f_relu
I0627 21:15:45.872030 12104 net.cpp:100] Creating Layer res4f_relu
I0627 21:15:45.872038 12104 net.cpp:444] res4f_relu <- res4f
I0627 21:15:45.872056 12104 net.cpp:405] res4f_relu -> res4f (in-place)
I0627 21:15:45.872920 12104 net.cpp:150] Setting up res4f_relu
I0627 21:15:45.872934 12104 net.cpp:157] Top shape: 1 1024 60 80 (4915200)
I0627 21:15:45.872937 12104 net.cpp:165] Memory required for data: 5391974484
I0627 21:15:45.872944 12104 layer_factory.hpp:77] Creating layer res4f_res4f_relu_0_split
I0627 21:15:45.872975 12104 net.cpp:100] Creating Layer res4f_res4f_relu_0_split
I0627 21:15:45.872985 12104 net.cpp:444] res4f_res4f_relu_0_split <- res4f
I0627 21:15:45.873008 12104 net.cpp:418] res4f_res4f_relu_0_split -> res4f_res4f_relu_0_split_0
I0627 21:15:45.873031 12104 net.cpp:418] res4f_res4f_relu_0_split -> res4f_res4f_relu_0_split_1
I0627 21:15:45.873050 12104 net.cpp:418] res4f_res4f_relu_0_split -> res4f_res4f_relu_0_split_2
I0627 21:15:45.873188 12104 net.cpp:150] Setting up res4f_res4f_relu_0_split
I0627 21:15:45.873201 12104 net.cpp:157] Top shape: 1 1024 60 80 (4915200)
I0627 21:15:45.873206 12104 net.cpp:157] Top shape: 1 1024 60 80 (4915200)
I0627 21:15:45.873210 12104 net.cpp:157] Top shape: 1 1024 60 80 (4915200)
I0627 21:15:45.873214 12104 net.cpp:165] Memory required for data: 5450956884
I0627 21:15:45.873222 12104 layer_factory.hpp:77] Creating layer res5a_branch1
I0627 21:15:45.873245 12104 net.cpp:100] Creating Layer res5a_branch1
I0627 21:15:45.873255 12104 net.cpp:444] res5a_branch1 <- res4f_res4f_relu_0_split_0
I0627 21:15:45.873277 12104 net.cpp:418] res5a_branch1 -> res5a_branch1
I0627 21:15:45.884325 12104 cudnn_conv_layer.cpp:194] Reallocating workspace storage: 86424
I0627 21:15:45.884378 12104 net.cpp:150] Setting up res5a_branch1
I0627 21:15:45.884393 12104 net.cpp:157] Top shape: 1 2048 60 80 (9830400)
I0627 21:15:45.884397 12104 net.cpp:165] Memory required for data: 5490278484
I0627 21:15:45.884415 12104 layer_factory.hpp:77] Creating layer bn5a_branch1
I0627 21:15:45.884443 12104 net.cpp:100] Creating Layer bn5a_branch1
I0627 21:15:45.884454 12104 net.cpp:444] bn5a_branch1 <- res5a_branch1
I0627 21:15:45.884475 12104 net.cpp:405] bn5a_branch1 -> res5a_branch1 (in-place)
I0627 21:15:45.884970 12104 net.cpp:150] Setting up bn5a_branch1
I0627 21:15:45.884980 12104 net.cpp:157] Top shape: 1 2048 60 80 (9830400)
I0627 21:15:45.884984 12104 net.cpp:165] Memory required for data: 5529600084
I0627 21:15:45.885025 12104 layer_factory.hpp:77] Creating layer scale5a_branch1
I0627 21:15:45.885047 12104 net.cpp:100] Creating Layer scale5a_branch1
I0627 21:15:45.885056 12104 net.cpp:444] scale5a_branch1 <- res5a_branch1
I0627 21:15:45.885073 12104 net.cpp:405] scale5a_branch1 -> res5a_branch1 (in-place)
I0627 21:15:45.885205 12104 layer_factory.hpp:77] Creating layer scale5a_branch1
I0627 21:15:45.885572 12104 net.cpp:150] Setting up scale5a_branch1
I0627 21:15:45.885582 12104 net.cpp:157] Top shape: 1 2048 60 80 (9830400)
I0627 21:15:45.885586 12104 net.cpp:165] Memory required for data: 5568921684
I0627 21:15:45.885619 12104 layer_factory.hpp:77] Creating layer res5a_branch2a
…
I0701 23:39:18.674692  1061 net.cpp:150] Setting up res4e_branch2c
I0701 23:39:18.674706  1061 net.cpp:157] Top shape: 1 1024 14 14 (200704)
I0701 23:39:18.674712  1061 net.cpp:165] Memory required for data: 208531468
I0701 23:39:18.674731  1061 layer_factory.hpp:77] Creating layer bn4e_branch2c
I0701 23:39:18.674757  1061 net.cpp:100] Creating Layer bn4e_branch2c
I0701 23:39:18.674768  1061 net.cpp:444] bn4e_branch2c <- res4e_branch2c
I0701 23:39:18.674794  1061 net.cpp:405] bn4e_branch2c -> res4e_branch2c (in-place)
I0701 23:39:18.675261  1061 net.cpp:150] Setting up bn4e_branch2c
I0701 23:39:18.675272  1061 net.cpp:157] Top shape: 1 1024 14 14 (200704)
I0701 23:39:18.675276  1061 net.cpp:165] Memory required for data: 209334284
I0701 23:39:18.675302  1061 layer_factory.hpp:77] Creating layer scale4e_branch2c
I0701 23:39:18.675324  1061 net.cpp:100] Creating Layer scale4e_branch2c
I0701 23:39:18.675333  1061 net.cpp:444] scale4e_branch2c <- res4e_branch2c
I0701 23:39:18.675357  1061 net.cpp:405] scale4e_branch2c -> res4e_branch2c (in-place)
I0701 23:39:18.675467  1061 layer_factory.hpp:77] Creating layer scale4e_branch2c
I0701 23:39:18.675777  1061 net.cpp:150] Setting up scale4e_branch2c
I0701 23:39:18.675789  1061 net.cpp:157] Top shape: 1 1024 14 14 (200704)
I0701 23:39:18.675792  1061 net.cpp:165] Memory required for data: 210137100
I0701 23:39:18.675809  1061 layer_factory.hpp:77] Creating layer res4e
I0701 23:39:18.675828  1061 net.cpp:100] Creating Layer res4e
I0701 23:39:18.675838  1061 net.cpp:444] res4e <- res4d_res4d_relu_0_split_1
I0701 23:39:18.675853  1061 net.cpp:444] res4e <- res4e_branch2c
I0701 23:39:18.675869  1061 net.cpp:418] res4e -> res4e
I0701 23:39:18.675942  1061 net.cpp:150] Setting up res4e
I0701 23:39:18.675956  1061 net.cpp:157] Top shape: 1 1024 14 14 (200704)
I0701 23:39:18.675961  1061 net.cpp:165] Memory required for data: 210939916
I0701 23:39:18.675968  1061 layer_factory.hpp:77] Creating layer res4e_relu
I0701 23:39:18.675983  1061 net.cpp:100] Creating Layer res4e_relu
I0701 23:39:18.675992  1061 net.cpp:444] res4e_relu <- res4e
I0701 23:39:18.676014  1061 net.cpp:405] res4e_relu -> res4e (in-place)
I0701 23:39:18.676281  1061 net.cpp:150] Setting up res4e_relu
I0701 23:39:18.676292  1061 net.cpp:157] Top shape: 1 1024 14 14 (200704)
I0701 23:39:18.676296  1061 net.cpp:165] Memory required for data: 211742732
I0701 23:39:18.676302  1061 layer_factory.hpp:77] Creating layer res4e_res4e_relu_0_split
I0701 23:39:18.676322  1061 net.cpp:100] Creating Layer res4e_res4e_relu_0_split
I0701 23:39:18.676331  1061 net.cpp:444] res4e_res4e_relu_0_split <- res4e
I0701 23:39:18.676350  1061 net.cpp:418] res4e_res4e_relu_0_split -> res4e_res4e_relu_0_split_0
I0701 23:39:18.676375  1061 net.cpp:418] res4e_res4e_relu_0_split -> res4e_res4e_relu_0_split_1
I0701 23:39:18.676477  1061 net.cpp:150] Setting up res4e_res4e_relu_0_split
I0701 23:39:18.676491  1061 net.cpp:157] Top shape: 1 1024 14 14 (200704)
I0701 23:39:18.676497  1061 net.cpp:157] Top shape: 1 1024 14 14 (200704)
I0701 23:39:18.676501  1061 net.cpp:165] Memory required for data: 213348364
I0701 23:39:18.676507  1061 layer_factory.hpp:77] Creating layer res4f_branch2a
I0701 23:39:18.676534  1061 net.cpp:100] Creating Layer res4f_branch2a
I0701 23:39:18.676544  1061 net.cpp:444] res4f_branch2a <- res4e_res4e_relu_0_split_0
I0701 23:39:18.676568  1061 net.cpp:418] res4f_branch2a -> res4f_branch2a
I0701 23:39:18.679195  1061 cudnn_conv_layer.cpp:194] Reallocating workspace storage: 10080
I0701 23:39:18.679231  1061 net.cpp:150] Setting up res4f_branch2a
I0701 23:39:18.679244  1061 net.cpp:157] Top shape: 1 256 14 14 (50176)
I0701 23:39:18.679250  1061 net.cpp:165] Memory required for data: 213549068
I0701 23:39:18.679266  1061 layer_factory.hpp:77] Creating layer bn4f_branch2a
I0701 23:39:18.679291  1061 net.cpp:100] Creating Layer bn4f_branch2a
I0701 23:39:18.679301  1061 net.cpp:444] bn4f_branch2a <- res4f_branch2a
I0701 23:39:18.679325  1061 net.cpp:405] bn4f_branch2a -> res4f_branch2a (in-place)
I0701 23:39:18.679782  1061 net.cpp:150] Setting up bn4f_branch2a
I0701 23:39:18.679793  1061 net.cpp:157] Top shape: 1 256 14 14 (50176)
I0701 23:39:18.679796  1061 net.cpp:165] Memory required for data: 213749772
I0701 23:39:18.679822  1061 layer_factory.hpp:77] Creating layer scale4f_branch2a
I0701 23:39:18.679847  1061 net.cpp:100] Creating Layer scale4f_branch2a
I0701 23:39:18.679857  1061 net.cpp:444] scale4f_branch2a <- res4f_branch2a
I0701 23:39:18.679874  1061 net.cpp:405] scale4f_branch2a -> res4f_branch2a (in-place)
I0701 23:39:18.679986  1061 layer_factory.hpp:77] Creating layer scale4f_branch2a
I0701 23:39:18.680279  1061 net.cpp:150] Setting up scale4f_branch2a
I0701 23:39:18.680291  1061 net.cpp:157] Top shape: 1 256 14 14 (50176)
I0701 23:39:18.680294  1061 net.cpp:165] Memory required for data: 213950476
I0701 23:39:18.680311  1061 layer_factory.hpp:77] Creating layer res4f_branch2a_relu
I0701 23:39:18.680331  1061 net.cpp:100] Creating Layer res4f_branch2a_relu
I0701 23:39:18.680341  1061 net.cpp:444] res4f_branch2a_relu <- res4f_branch2a
I0701 23:39:18.680357  1061 net.cpp:405] res4f_branch2a_relu -> res4f_branch2a (in-place)
I0701 23:39:18.680624  1061 net.cpp:150] Setting up res4f_branch2a_relu
I0701 23:39:18.680637  1061 net.cpp:157] Top shape: 1 256 14 14 (50176)
I0701 23:39:18.680642  1061 net.cpp:165] Memory required for data: 214151180
I0701 23:39:18.680649  1061 layer_factory.hpp:77] Creating layer res4f_branch2b
I0701 23:39:18.680670  1061 net.cpp:100] Creating Layer res4f_branch2b
I0701 23:39:18.680680  1061 net.cpp:444] res4f_branch2b <- res4f_branch2a
I0701 23:39:18.680706  1061 net.cpp:418] res4f_branch2b -> res4f_branch2b
I0701 23:39:18.686193  1061 cudnn_conv_layer.cpp:194] Reallocating workspace storage: 12582912
I0701 23:39:18.686872  1061 net.cpp:150] Setting up res4f_branch2b
I0701 23:39:18.686899  1061 net.cpp:157] Top shape: 1 256 14 14 (50176)
I0701 23:39:18.686903  1061 net.cpp:165] Memory required for data: 214351884
I0701 23:39:18.686921  1061 layer_factory.hpp:77] Creating layer bn4f_branch2b
I0701 23:39:18.686946  1061 net.cpp:100] Creating Layer bn4f_branch2b
I0701 23:39:18.686957  1061 net.cpp:444] bn4f_branch2b <- res4f_branch2b
I0701 23:39:18.686981  1061 net.cpp:405] bn4f_branch2b -> res4f_branch2b (in-place)
I0701 23:39:18.687458  1061 net.cpp:150] Setting up bn4f_branch2b
I0701 23:39:18.687469  1061 net.cpp:157] Top shape: 1 256 14 14 (50176)
I0701 23:39:18.687474  1061 net.cpp:165] Memory required for data: 214552588
I0701 23:39:18.687505  1061 layer_factory.hpp:77] Creating layer scale4f_branch2b
I0701 23:39:18.687525  1061 net.cpp:100] Creating Layer scale4f_branch2b
I0701 23:39:18.687533  1061 net.cpp:444] scale4f_branch2b <- res4f_branch2b
I0701 23:39:18.687557  1061 net.cpp:405] scale4f_branch2b -> res4f_branch2b (in-place)
I0701 23:39:18.687672  1061 layer_factory.hpp:77] Creating layer scale4f_branch2b
I0701 23:39:18.687971  1061 net.cpp:150] Setting up scale4f_branch2b
I0701 23:39:18.687983  1061 net.cpp:157] Top shape: 1 256 14 14 (50176)
I0701 23:39:18.687985  1061 net.cpp:165] Memory required for data: 214753292
I0701 23:39:18.688007  1061 layer_factory.hpp:77] Creating layer res4f_branch2b_relu
I0701 23:39:18.688024  1061 net.cpp:100] Creating Layer res4f_branch2b_relu
I0701 23:39:18.688033  1061 net.cpp:444] res4f_branch2b_relu <- res4f_branch2b
I0701 23:39:18.688050  1061 net.cpp:405] res4f_branch2b_relu -> res4f_branch2b (in-place)
I0701 23:39:18.688319  1061 net.cpp:150] Setting up res4f_branch2b_relu
I0701 23:39:18.688330  1061 net.cpp:157] Top shape: 1 256 14 14 (50176)
I0701 23:39:18.688333  1061 net.cpp:165] Memory required for data: 214953996
I0701 23:39:18.688344  1061 layer_factory.hpp:77] Creating layer res4f_branch2c
I0701 23:39:18.688376  1061 net.cpp:100] Creating Layer res4f_branch2c
I0701 23:39:18.688386  1061 net.cpp:444] res4f_branch2c <- res4f_branch2b
I0701 23:39:18.688408  1061 net.cpp:418] res4f_branch2c -> res4f_branch2c
I0701 23:39:18.692998  1061 cudnn_conv_layer.cpp:194] Reallocating workspace storage: 10080
I0701 23:39:18.693042  1061 net.cpp:150] Setting up res4f_branch2c
I0701 23:39:18.693054  1061 net.cpp:157] Top shape: 1 1024 14 14 (200704)
I0701 23:39:18.693060  1061 net.cpp:165] Memory required for data: 215756812
I0701 23:39:18.693078  1061 layer_factory.hpp:77] Creating layer bn4f_branch2c
I0701 23:39:18.693135  1061 net.cpp:100] Creating Layer bn4f_branch2c
I0701 23:39:18.693147  1061 net.cpp:444] bn4f_branch2c <- res4f_branch2c
I0701 23:39:18.693171  1061 net.cpp:405] bn4f_branch2c -> res4f_branch2c (in-place)
I0701 23:39:18.693661  1061 net.cpp:150] Setting up bn4f_branch2c
I0701 23:39:18.693672  1061 net.cpp:157] Top shape: 1 1024 14 14 (200704)
I0701 23:39:18.693675  1061 net.cpp:165] Memory required for data: 216559628
I0701 23:39:18.693768  1061 layer_factory.hpp:77] Creating layer scale4f_branch2c
I0701 23:39:18.693792  1061 net.cpp:100] Creating Layer scale4f_branch2c
I0701 23:39:18.693802  1061 net.cpp:444] scale4f_branch2c <- res4f_branch2c
I0701 23:39:18.693820  1061 net.cpp:405] scale4f_branch2c -> res4f_branch2c (in-place)
I0701 23:39:18.693927  1061 layer_factory.hpp:77] Creating layer scale4f_branch2c
I0701 23:39:18.694249  1061 net.cpp:150] Setting up scale4f_branch2c
I0701 23:39:18.694260  1061 net.cpp:157] Top shape: 1 1024 14 14 (200704)
I0701 23:39:18.694263  1061 net.cpp:165] Memory required for data: 217362444
I0701 23:39:18.694284  1061 layer_factory.hpp:77] Creating layer res4f
I0701 23:39:18.694303  1061 net.cpp:100] Creating Layer res4f
I0701 23:39:18.694314  1061 net.cpp:444] res4f <- res4e_res4e_relu_0_split_1
I0701 23:39:18.694329  1061 net.cpp:444] res4f <- res4f_branch2c
I0701 23:39:18.694342  1061 net.cpp:418] res4f -> res4f
I0701 23:39:18.694418  1061 net.cpp:150] Setting up res4f
I0701 23:39:18.694432  1061 net.cpp:157] Top shape: 1 1024 14 14 (200704)
I0701 23:39:18.694437  1061 net.cpp:165] Memory required for data: 218165260
I0701 23:39:18.694444  1061 layer_factory.hpp:77] Creating layer res4f_relu
I0701 23:39:18.694459  1061 net.cpp:100] Creating Layer res4f_relu
I0701 23:39:18.694468  1061 net.cpp:444] res4f_relu <- res4f
I0701 23:39:18.694484  1061 net.cpp:405] res4f_relu -> res4f (in-place)
I0701 23:39:18.695405  1061 net.cpp:150] Setting up res4f_relu
I0701 23:39:18.695420  1061 net.cpp:157] Top shape: 1 1024 14 14 (200704)
I0701 23:39:18.695425  1061 net.cpp:165] Memory required for data: 218968076
I0701 23:39:18.695433  1061 layer_factory.hpp:77] Creating layer res4f_res4f_relu_0_split
I0701 23:39:18.695454  1061 net.cpp:100] Creating Layer res4f_res4f_relu_0_split
I0701 23:39:18.695464  1061 net.cpp:444] res4f_res4f_relu_0_split <- res4f
I0701 23:39:18.695492  1061 net.cpp:418] res4f_res4f_relu_0_split -> res4f_res4f_relu_0_split_0
I0701 23:39:18.695516  1061 net.cpp:418] res4f_res4f_relu_0_split -> res4f_res4f_relu_0_split_1
I0701 23:39:18.695533  1061 net.cpp:418] res4f_res4f_relu_0_split -> res4f_res4f_relu_0_split_2
I0701 23:39:18.695669  1061 net.cpp:150] Setting up res4f_res4f_relu_0_split
I0701 23:39:18.695683  1061 net.cpp:157] Top shape: 1 1024 14 14 (200704)
I0701 23:39:18.695690  1061 net.cpp:157] Top shape: 1 1024 14 14 (200704)
I0701 23:39:18.695694  1061 net.cpp:157] Top shape: 1 1024 14 14 (200704)
I0701 23:39:18.695698  1061 net.cpp:165] Memory required for data: 221376524
I0701 23:39:18.695704  1061 layer_factory.hpp:77] Creating layer res5a_branch1
I0701 23:39:18.695734  1061 net.cpp:100] Creating Layer res5a_branch1
I0701 23:39:18.695744  1061 net.cpp:444] res5a_branch1 <- res4f_res4f_relu_0_split_0
I0701 23:39:18.695766  1061 net.cpp:418] res5a_branch1 -> res5a_branch1
I0701 23:39:18.708055  1061 cudnn_conv_layer.cpp:194] Reallocating workspace storage: 8568
I0701 23:39:18.708094  1061 net.cpp:150] Setting up res5a_branch1
I0701 23:39:18.708107  1061 net.cpp:157] Top shape: 1 2048 14 14 (401408)
I0701 23:39:18.708112  1061 net.cpp:165] Memory required for data: 222982156
I0701 23:39:18.708130  1061 layer_factory.hpp:77] Creating layer bn5a_branch1
I0701 23:39:18.708155  1061 net.cpp:100] Creating Layer bn5a_branch1
I0701 23:39:18.708166  1061 net.cpp:444] bn5a_branch1 <- res5a_branch1
I0701 23:39:18.708192  1061 net.cpp:405] bn5a_branch1 -> res5a_branch1 (in-place)
I0701 23:39:18.708703  1061 net.cpp:150] Setting up bn5a_branch1
I0701 23:39:18.708715  1061 net.cpp:157] Top shape: 1 2048 14 14 (401408)
I0701 23:39:18.708719  1061 net.cpp:165] Memory required for data: 224587788
I0701 23:39:18.708744  1061 layer_factory.hpp:77] Creating layer scale5a_branch1
I0701 23:39:18.708765  1061 net.cpp:100] Creating Layer scale5a_branch1
I0701 23:39:18.708775  1061 net.cpp:444] scale5a_branch1 <- res5a_branch1
I0701 23:39:18.708794  1061 net.cpp:405] scale5a_branch1 -> res5a_branch1 (in-place)
I0701 23:39:18.708910  1061 layer_factory.hpp:77] Creating layer scale5a_branch1
I0701 23:39:18.709259  1061 net.cpp:150] Setting up scale5a_branch1
I0701 23:39:18.709272  1061 net.cpp:157] Top shape: 1 2048 14 14 (401408)
I0701 23:39:18.709275  1061 net.cpp:165] Memory required for data: 226193420
I0701 23:39:18.709292  1061 layer_factory.hpp:77] Creating layer res5a_branch2a
I0701 23:39:18.709319  1061 net.cpp:100] Creating Layer res5a_branch2a
I0701 23:39:18.709331  1061 net.cpp:444] res5a_branch2a <- res4f_res4f_relu_0_split_1
I0701 23:39:18.709350  1061 net.cpp:418] res5a_branch2a -> res5a_branch2a
I0701 23:39:18.715245  1061 cudnn_conv_layer.cpp:194] Reallocating workspace storage: 10080
I0701 23:39:18.715286  1061 net.cpp:150] Setting up res5a_branch2a
I0701 23:39:18.715298  1061 net.cpp:157] Top shape: 1 512 14 14 (100352)
I0701 23:39:18.715303  1061 net.cpp:165] Memory required for data: 226594828
I0701 23:39:18.715322  1061 layer_factory.hpp:77] Creating layer bn5a_branch2a
I0701 23:39:18.715349  1061 net.cpp:100] Creating Layer bn5a_branch2a
I0701 23:39:18.715360  1061 net.cpp:444] bn5a_branch2a <- res5a_branch2a
I0701 23:39:18.715382  1061 net.cpp:405] bn5a_branch2a -> res5a_branch2a (in-place)
I0701 23:39:18.715854  1061 net.cpp:150] Setting up bn5a_branch2a
I0701 23:39:18.715865  1061 net.cpp:157] Top shape: 1 512 14 14 (100352)
I0701 23:39:18.715870  1061 net.cpp:165] Memory required for data: 226996236
I0701 23:39:18.715896  1061 layer_factory.hpp:77] Creating layer scale5a_branch2a
I0701 23:39:18.715917  1061 net.cpp:100] Creating Layer scale5a_branch2a
I0701 23:39:18.715926  1061 net.cpp:444] scale5a_branch2a <- res5a_branch2a
I0701 23:39:18.715950  1061 net.cpp:405] scale5a_branch2a -> res5a_branch2a (in-place)
I0701 23:39:18.716059  1061 layer_factory.hpp:77] Creating layer scale5a_branch2a
I0701 23:39:18.716369  1061 net.cpp:150] Setting up scale5a_branch2a
I0701 23:39:18.716380  1061 net.cpp:157] Top shape: 1 512 14 14 (100352)
I0701 23:39:18.716385  1061 net.cpp:165] Memory required for data: 227397644
I0701 23:39:18.716403  1061 layer_factory.hpp:77] Creating layer res5a_branch2a_relu
I0701 23:39:18.716420  1061 net.cpp:100] Creating Layer res5a_branch2a_relu
I0701 23:39:18.716429  1061 net.cpp:444] res5a_branch2a_relu <- res5a_branch2a
I0701 23:39:18.716449  1061 net.cpp:405] res5a_branch2a_relu -> res5a_branch2a (in-place)
I0701 23:39:18.716717  1061 net.cpp:150] Setting up res5a_branch2a_relu
I0701 23:39:18.716728  1061 net.cpp:157] Top shape: 1 512 14 14 (100352)
I0701 23:39:18.716733  1061 net.cpp:165] Memory required for data: 227799052
I0701 23:39:18.716740  1061 layer_factory.hpp:77] Creating layer res5a_branch2b
I0701 23:39:18.716768  1061 net.cpp:100] Creating Layer res5a_branch2b
I0701 23:39:18.716778  1061 net.cpp:444] res5a_branch2b <- res5a_branch2a
I0701 23:39:18.716804  1061 net.cpp:418] res5a_branch2b -> res5a_branch2b
I0701 23:39:18.728938  1061 net.cpp:150] Setting up res5a_branch2b
I0701 23:39:18.728960  1061 net.cpp:157] Top shape: 1 512 14 14 (100352)
I0701 23:39:18.728972  1061 net.cpp:165] Memory required for data: 228200460
I0701 23:39:18.728989  1061 layer_factory.hpp:77] Creating layer bn5a_branch2b
I0701 23:39:18.729014  1061 net.cpp:100] Creating Layer bn5a_branch2b
I0701 23:39:18.729025  1061 net.cpp:444] bn5a_branch2b <- res5a_branch2b
I0701 23:39:18.729050  1061 net.cpp:405] bn5a_branch2b -> res5a_branch2b (in-place)
I0701 23:39:18.729565  1061 net.cpp:150] Setting up bn5a_branch2b
I0701 23:39:18.729576  1061 net.cpp:157] Top shape: 1 512 14 14 (100352)
I0701 23:39:18.729580  1061 net.cpp:165] Memory required for data: 228601868
I0701 23:39:18.729614  1061 layer_factory.hpp:77] Creating layer scale5a_branch2b
I0701 23:39:18.729636  1061 net.cpp:100] Creating Layer scale5a_branch2b
I0701 23:39:18.729646  1061 net.cpp:444] scale5a_branch2b <- res5a_branch2b
I0701 23:39:18.729665  1061 net.cpp:405] scale5a_branch2b -> res5a_branch2b (in-place)
I0701 23:39:18.729775  1061 layer_factory.hpp:77] Creating layer scale5a_branch2b
I0701 23:39:18.730103  1061 net.cpp:150] Setting up scale5a_branch2b
I0701 23:39:18.730114  1061 net.cpp:157] Top shape: 1 512 14 14 (100352)
I0701 23:39:18.730118  1061 net.cpp:165] Memory required for data: 229003276
I0701 23:39:18.730142  1061 layer_factory.hpp:77] Creating layer res5a_branch2b_relu
I0701 23:39:18.730160  1061 net.cpp:100] Creating Layer res5a_branch2b_relu
I0701 23:39:18.730168  1061 net.cpp:444] res5a_branch2b_relu <- res5a_branch2b
I0701 23:39:18.730185  1061 net.cpp:405] res5a_branch2b_relu -> res5a_branch2b (in-place)
I0701 23:39:18.730456  1061 net.cpp:150] Setting up res5a_branch2b_relu
I0701 23:39:18.730481  1061 net.cpp:157] Top shape: 1 512 14 14 (100352)
I0701 23:39:18.730485  1061 net.cpp:165] Memory required for data: 229404684
I0701 23:39:18.730491  1061 layer_factory.hpp:77] Creating layer res5a_branch2c
I0701 23:39:18.730515  1061 net.cpp:100] Creating Layer res5a_branch2c
I0701 23:39:18.730525  1061 net.cpp:444] res5a_branch2c <- res5a_branch2b
I0701 23:39:18.730549  1061 net.cpp:418] res5a_branch2c -> res5a_branch2c
I0701 23:39:18.738152  1061 cudnn_conv_layer.cpp:194] Reallocating workspace storage: 7800
I0701 23:39:18.738199  1061 net.cpp:150] Setting up res5a_branch2c
I0701 23:39:18.738211  1061 net.cpp:157] Top shape: 1 2048 14 14 (401408)
I0701 23:39:18.738215  1061 net.cpp:165] Memory required for data: 231010316
I0701 23:39:18.738232  1061 layer_factory.hpp:77] Creating layer bn5a_branch2c
I0701 23:39:18.738257  1061 net.cpp:100] Creating Layer bn5a_branch2c
I0701 23:39:18.738268  1061 net.cpp:444] bn5a_branch2c <- res5a_branch2c
I0701 23:39:18.738291  1061 net.cpp:405] bn5a_branch2c -> res5a_branch2c (in-place)
I0701 23:39:18.738781  1061 net.cpp:150] Setting up bn5a_branch2c
I0701 23:39:18.738791  1061 net.cpp:157] Top shape: 1 2048 14 14 (401408)
I0701 23:39:18.738795  1061 net.cpp:165] Memory required for data: 232615948
I0701 23:39:18.738831  1061 layer_factory.hpp:77] Creating layer scale5a_branch2c
I0701 23:39:18.738852  1061 net.cpp:100] Creating Layer scale5a_branch2c
I0701 23:39:18.738862  1061 net.cpp:444] scale5a_branch2c <- res5a_branch2c
I0701 23:39:18.738883  1061 net.cpp:405] scale5a_branch2c -> res5a_branch2c (in-place)
I0701 23:39:18.738997  1061 layer_factory.hpp:77] Creating layer scale5a_branch2c
I0701 23:39:18.739323  1061 net.cpp:150] Setting up scale5a_branch2c
I0701 23:39:18.739336  1061 net.cpp:157] Top shape: 1 2048 14 14 (401408)
I0701 23:39:18.739338  1061 net.cpp:165] Memory required for data: 234221580
I0701 23:39:18.739363  1061 layer_factory.hpp:77] Creating layer res5a
I0701 23:39:18.739383  1061 net.cpp:100] Creating Layer res5a
I0701 23:39:18.739394  1061 net.cpp:444] res5a <- res5a_branch1
I0701 23:39:18.739411  1061 net.cpp:444] res5a <- res5a_branch2c
I0701 23:39:18.739425  1061 net.cpp:418] res5a -> res5a
I0701 23:39:18.739500  1061 net.cpp:150] Setting up res5a
I0701 23:39:18.739514  1061 net.cpp:157] Top shape: 1 2048 14 14 (401408)
I0701 23:39:18.739519  1061 net.cpp:165] Memory required for data: 235827212
I0701 23:39:18.739526  1061 layer_factory.hpp:77] Creating layer res5a_relu
I0701 23:39:18.739542  1061 net.cpp:100] Creating Layer res5a_relu
I0701 23:39:18.739550  1061 net.cpp:444] res5a_relu <- res5a
I0701 23:39:18.739570  1061 net.cpp:405] res5a_relu -> res5a (in-place)
I0701 23:39:18.740535  1061 net.cpp:150] Setting up res5a_relu
I0701 23:39:18.740548  1061 net.cpp:157] Top shape: 1 2048 14 14 (401408)
I0701 23:39:18.740551  1061 net.cpp:165] Memory required for data: 237432844
I0701 23:39:18.740566  1061 layer_factory.hpp:77] Creating layer res5a_res5a_relu_0_split
I0701 23:39:18.740583  1061 net.cpp:100] Creating Layer res5a_res5a_relu_0_split
I0701 23:39:18.740592  1061 net.cpp:444] res5a_res5a_relu_0_split <- res5a
I0701 23:39:18.740617  1061 net.cpp:418] res5a_res5a_relu_0_split -> res5a_res5a_relu_0_split_0
I0701 23:39:18.740643  1061 net.cpp:418] res5a_res5a_relu_0_split -> res5a_res5a_relu_0_split_1
I0701 23:39:18.740761  1061 net.cpp:150] Setting up res5a_res5a_relu_0_split
I0701 23:39:18.740774  1061 net.cpp:157] Top shape: 1 2048 14 14 (401408)
I0701 23:39:18.740788  1061 net.cpp:157] Top shape: 1 2048 14 14 (401408)
I0701 23:39:18.740792  1061 net.cpp:165] Memory required for data: 240644108
I0701 23:39:18.740798  1061 layer_factory.hpp:77] Creating layer res5b_branch2a
I0701 23:39:18.740833  1061 net.cpp:100] Creating Layer res5b_branch2a
I0701 23:39:18.740844  1061 net.cpp:444] res5b_branch2a <- res5a_res5a_relu_0_split_0
I0701 23:39:18.740869  1061 net.cpp:418] res5b_branch2a -> res5b_branch2a
I0701 23:39:18.748445  1061 cudnn_conv_layer.cpp:194] Reallocating workspace storage: 10080
I0701 23:39:18.748486  1061 net.cpp:150] Setting up res5b_branch2a
I0701 23:39:18.748499  1061 net.cpp:157] Top shape: 1 512 14 14 (100352)
I0701 23:39:18.748504  1061 net.cpp:165] Memory required for data: 241045516
I0701 23:39:18.748522  1061 layer_factory.hpp:77] Creating layer bn5b_branch2a
I0701 23:39:18.748546  1061 net.cpp:100] Creating Layer bn5b_branch2a
I0701 23:39:18.748558  1061 net.cpp:444] bn5b_branch2a <- res5b_branch2a
I0701 23:39:18.748581  1061 net.cpp:405] bn5b_branch2a -> res5b_branch2a (in-place)
I0701 23:39:18.749064  1061 net.cpp:150] Setting up bn5b_branch2a
I0701 23:39:18.749075  1061 net.cpp:157] Top shape: 1 512 14 14 (100352)
I0701 23:39:18.749080  1061 net.cpp:165] Memory required for data: 241446924
I0701 23:39:18.749123  1061 layer_factory.hpp:77] Creating layer scale5b_branch2a
I0701 23:39:18.749148  1061 net.cpp:100] Creating Layer scale5b_branch2a
I0701 23:39:18.749158  1061 net.cpp:444] scale5b_branch2a <- res5b_branch2a
I0701 23:39:18.749177  1061 net.cpp:405] scale5b_branch2a -> res5b_branch2a (in-place)
I0701 23:39:18.749290  1061 layer_factory.hpp:77] Creating layer scale5b_branch2a
I0701 23:39:18.749613  1061 net.cpp:150] Setting up scale5b_branch2a
I0701 23:39:18.749626  1061 net.cpp:157] Top shape: 1 512 14 14 (100352)
I0701 23:39:18.749630  1061 net.cpp:165] Memory required for data: 241848332
I0701 23:39:18.749649  1061 layer_factory.hpp:77] Creating layer res5b_branch2a_relu
I0701 23:39:18.749665  1061 net.cpp:100] Creating Layer res5b_branch2a_relu
I0701 23:39:18.749675  1061 net.cpp:444] res5b_branch2a_relu <- res5b_branch2a
I0701 23:39:18.749691  1061 net.cpp:405] res5b_branch2a_relu -> res5b_branch2a (in-place)
I0701 23:39:18.749958  1061 net.cpp:150] Setting up res5b_branch2a_relu
I0701 23:39:18.749970  1061 net.cpp:157] Top shape: 1 512 14 14 (100352)
I0701 23:39:18.749974  1061 net.cpp:165] Memory required for data: 242249740
I0701 23:39:18.749981  1061 layer_factory.hpp:77] Creating layer res5b_branch2b
I0701 23:39:18.750005  1061 net.cpp:100] Creating Layer res5b_branch2b
I0701 23:39:18.750015  1061 net.cpp:444] res5b_branch2b <- res5b_branch2a
I0701 23:39:18.750041  1061 net.cpp:418] res5b_branch2b -> res5b_branch2b
I0701 23:39:18.762019  1061 net.cpp:150] Setting up res5b_branch2b
I0701 23:39:18.762048  1061 net.cpp:157] Top shape: 1 512 14 14 (100352)
I0701 23:39:18.762053  1061 net.cpp:165] Memory required for data: 242651148
I0701 23:39:18.762073  1061 layer_factory.hpp:77] Creating layer bn5b_branch2b
I0701 23:39:18.762096  1061 net.cpp:100] Creating Layer bn5b_branch2b
I0701 23:39:18.762109  1061 net.cpp:444] bn5b_branch2b <- res5b_branch2b
I0701 23:39:18.762133  1061 net.cpp:405] bn5b_branch2b -> res5b_branch2b (in-place)
I0701 23:39:18.762617  1061 net.cpp:150] Setting up bn5b_branch2b
I0701 23:39:18.762629  1061 net.cpp:157] Top shape: 1 512 14 14 (100352)
I0701 23:39:18.762632  1061 net.cpp:165] Memory required for data: 243052556
I0701 23:39:18.762657  1061 layer_factory.hpp:77] Creating layer scale5b_branch2b
I0701 23:39:18.762681  1061 net.cpp:100] Creating Layer scale5b_branch2b
I0701 23:39:18.762691  1061 net.cpp:444] scale5b_branch2b <- res5b_branch2b
I0701 23:39:18.762713  1061 net.cpp:405] scale5b_branch2b -> res5b_branch2b (in-place)
I0701 23:39:18.762827  1061 layer_factory.hpp:77] Creating layer scale5b_branch2b
I0701 23:39:18.763149  1061 net.cpp:150] Setting up scale5b_branch2b
I0701 23:39:18.763160  1061 net.cpp:157] Top shape: 1 512 14 14 (100352)
I0701 23:39:18.763165  1061 net.cpp:165] Memory required for data: 243453964
I0701 23:39:18.763183  1061 layer_factory.hpp:77] Creating layer res5b_branch2b_relu
I0701 23:39:18.763200  1061 net.cpp:100] Creating Layer res5b_branch2b_relu
I0701 23:39:18.763211  1061 net.cpp:444] res5b_branch2b_relu <- res5b_branch2b
I0701 23:39:18.763229  1061 net.cpp:405] res5b_branch2b_relu -> res5b_branch2b (in-place)
I0701 23:39:18.763511  1061 net.cpp:150] Setting up res5b_branch2b_relu
I0701 23:39:18.763526  1061 net.cpp:157] Top shape: 1 512 14 14 (100352)
I0701 23:39:18.763530  1061 net.cpp:165] Memory required for data: 243855372
I0701 23:39:18.763537  1061 layer_factory.hpp:77] Creating layer res5b_branch2c
I0701 23:39:18.763562  1061 net.cpp:100] Creating Layer res5b_branch2c
I0701 23:39:18.763572  1061 net.cpp:444] res5b_branch2c <- res5b_branch2b
I0701 23:39:18.763594  1061 net.cpp:418] res5b_branch2c -> res5b_branch2c
I0701 23:39:18.771360  1061 cudnn_conv_layer.cpp:194] Reallocating workspace storage: 7800
I0701 23:39:18.771404  1061 net.cpp:150] Setting up res5b_branch2c
I0701 23:39:18.771417  1061 net.cpp:157] Top shape: 1 2048 14 14 (401408)
I0701 23:39:18.771422  1061 net.cpp:165] Memory required for data: 245461004
I0701 23:39:18.771440  1061 layer_factory.hpp:77] Creating layer bn5b_branch2c
I0701 23:39:18.771466  1061 net.cpp:100] Creating Layer bn5b_branch2c
I0701 23:39:18.771476  1061 net.cpp:444] bn5b_branch2c <- res5b_branch2c
I0701 23:39:18.771497  1061 net.cpp:405] bn5b_branch2c -> res5b_branch2c (in-place)
I0701 23:39:18.771992  1061 net.cpp:150] Setting up bn5b_branch2c
I0701 23:39:18.772003  1061 net.cpp:157] Top shape: 1 2048 14 14 (401408)
I0701 23:39:18.772006  1061 net.cpp:165] Memory required for data: 247066636
I0701 23:39:18.772032  1061 layer_factory.hpp:77] Creating layer scale5b_branch2c
I0701 23:39:18.772053  1061 net.cpp:100] Creating Layer scale5b_branch2c
I0701 23:39:18.772063  1061 net.cpp:444] scale5b_branch2c <- res5b_branch2c
I0701 23:39:18.772085  1061 net.cpp:405] scale5b_branch2c -> res5b_branch2c (in-place)
I0701 23:39:18.772204  1061 layer_factory.hpp:77] Creating layer scale5b_branch2c
I0701 23:39:18.772605  1061 net.cpp:150] Setting up scale5b_branch2c
I0701 23:39:18.772621  1061 net.cpp:157] Top shape: 1 2048 14 14 (401408)
I0701 23:39:18.772629  1061 net.cpp:165] Memory required for data: 248672268
I0701 23:39:18.772652  1061 layer_factory.hpp:77] Creating layer res5b
I0701 23:39:18.772676  1061 net.cpp:100] Creating Layer res5b
I0701 23:39:18.772689  1061 net.cpp:444] res5b <- res5a_res5a_relu_0_split_1
I0701 23:39:18.772711  1061 net.cpp:444] res5b <- res5b_branch2c
I0701 23:39:18.772733  1061 net.cpp:418] res5b -> res5b
I0701 23:39:18.772828  1061 net.cpp:150] Setting up res5b
I0701 23:39:18.772845  1061 net.cpp:157] Top shape: 1 2048 14 14 (401408)
I0701 23:39:18.772852  1061 net.cpp:165] Memory required for data: 250277900
I0701 23:39:18.772861  1061 layer_factory.hpp:77] Creating layer res5b_relu
I0701 23:39:18.772886  1061 net.cpp:100] Creating Layer res5b_relu
I0701 23:39:18.772897  1061 net.cpp:444] res5b_relu <- res5b
I0701 23:39:18.772920  1061 net.cpp:405] res5b_relu -> res5b (in-place)
I0701 23:39:18.773934  1061 net.cpp:150] Setting up res5b_relu
I0701 23:39:18.773952  1061 net.cpp:157] Top shape: 1 2048 14 14 (401408)
I0701 23:39:18.773957  1061 net.cpp:165] Memory required for data: 251883532
I0701 23:39:18.773965  1061 layer_factory.hpp:77] Creating layer res5b_res5b_relu_0_split
I0701 23:39:18.773985  1061 net.cpp:100] Creating Layer res5b_res5b_relu_0_split
I0701 23:39:18.773995  1061 net.cpp:444] res5b_res5b_relu_0_split <- res5b
I0701 23:39:18.774019  1061 net.cpp:418] res5b_res5b_relu_0_split -> res5b_res5b_relu_0_split_0
I0701 23:39:18.774044  1061 net.cpp:418] res5b_res5b_relu_0_split -> res5b_res5b_relu_0_split_1
I0701 23:39:18.774157  1061 net.cpp:150] Setting up res5b_res5b_relu_0_split
I0701 23:39:18.774171  1061 net.cpp:157] Top shape: 1 2048 14 14 (401408)
I0701 23:39:18.774178  1061 net.cpp:157] Top shape: 1 2048 14 14 (401408)
I0701 23:39:18.774181  1061 net.cpp:165] Memory required for data: 255094796
I0701 23:39:18.774188  1061 layer_factory.hpp:77] Creating layer res5c_branch2a
I0701 23:39:18.774212  1061 net.cpp:100] Creating Layer res5c_branch2a
I0701 23:39:18.774222  1061 net.cpp:444] res5c_branch2a <- res5b_res5b_relu_0_split_0
I0701 23:39:18.774243  1061 net.cpp:418] res5c_branch2a -> res5c_branch2a
I0701 23:39:18.781796  1061 cudnn_conv_layer.cpp:194] Reallocating workspace storage: 10080
I0701 23:39:18.781836  1061 net.cpp:150] Setting up res5c_branch2a
I0701 23:39:18.781852  1061 net.cpp:157] Top shape: 1 512 14 14 (100352)
I0701 23:39:18.781857  1061 net.cpp:165] Memory required for data: 255496204
I0701 23:39:18.781873  1061 layer_factory.hpp:77] Creating layer bn5c_branch2a
I0701 23:39:18.781896  1061 net.cpp:100] Creating Layer bn5c_branch2a
I0701 23:39:18.781908  1061 net.cpp:444] bn5c_branch2a <- res5c_branch2a
I0701 23:39:18.781932  1061 net.cpp:405] bn5c_branch2a -> res5c_branch2a (in-place)
I0701 23:39:18.782419  1061 net.cpp:150] Setting up bn5c_branch2a
I0701 23:39:18.782431  1061 net.cpp:157] Top shape: 1 512 14 14 (100352)
I0701 23:39:18.782434  1061 net.cpp:165] Memory required for data: 255897612
I0701 23:39:18.782460  1061 layer_factory.hpp:77] Creating layer scale5c_branch2a
I0701 23:39:18.782485  1061 net.cpp:100] Creating Layer scale5c_branch2a
I0701 23:39:18.782493  1061 net.cpp:444] scale5c_branch2a <- res5c_branch2a
I0701 23:39:18.782516  1061 net.cpp:405] scale5c_branch2a -> res5c_branch2a (in-place)
I0701 23:39:18.782629  1061 layer_factory.hpp:77] Creating layer scale5c_branch2a
I0701 23:39:18.782951  1061 net.cpp:150] Setting up scale5c_branch2a
I0701 23:39:18.782963  1061 net.cpp:157] Top shape: 1 512 14 14 (100352)
I0701 23:39:18.782968  1061 net.cpp:165] Memory required for data: 256299020
I0701 23:39:18.782984  1061 layer_factory.hpp:77] Creating layer res5c_branch2a_relu
I0701 23:39:18.783001  1061 net.cpp:100] Creating Layer res5c_branch2a_relu
I0701 23:39:18.783011  1061 net.cpp:444] res5c_branch2a_relu <- res5c_branch2a
I0701 23:39:18.783027  1061 net.cpp:405] res5c_branch2a_relu -> res5c_branch2a (in-place)
I0701 23:39:18.783293  1061 net.cpp:150] Setting up res5c_branch2a_relu
I0701 23:39:18.783304  1061 net.cpp:157] Top shape: 1 512 14 14 (100352)
I0701 23:39:18.783308  1061 net.cpp:165] Memory required for data: 256700428
I0701 23:39:18.783315  1061 layer_factory.hpp:77] Creating layer res5c_branch2b
I0701 23:39:18.783341  1061 net.cpp:100] Creating Layer res5c_branch2b
I0701 23:39:18.783351  1061 net.cpp:444] res5c_branch2b <- res5c_branch2a
I0701 23:39:18.783375  1061 net.cpp:418] res5c_branch2b -> res5c_branch2b
I0701 23:39:18.795351  1061 net.cpp:150] Setting up res5c_branch2b
I0701 23:39:18.795377  1061 net.cpp:157] Top shape: 1 512 14 14 (100352)
I0701 23:39:18.795379  1061 net.cpp:165] Memory required for data: 257101836
I0701 23:39:18.795397  1061 layer_factory.hpp:77] Creating layer bn5c_branch2b
I0701 23:39:18.795425  1061 net.cpp:100] Creating Layer bn5c_branch2b
I0701 23:39:18.795436  1061 net.cpp:444] bn5c_branch2b <- res5c_branch2b
I0701 23:39:18.795457  1061 net.cpp:405] bn5c_branch2b -> res5c_branch2b (in-place)
I0701 23:39:18.795946  1061 net.cpp:150] Setting up bn5c_branch2b
I0701 23:39:18.795958  1061 net.cpp:157] Top shape: 1 512 14 14 (100352)
I0701 23:39:18.795960  1061 net.cpp:165] Memory required for data: 257503244
I0701 23:39:18.795985  1061 layer_factory.hpp:77] Creating layer scale5c_branch2b
I0701 23:39:18.796010  1061 net.cpp:100] Creating Layer scale5c_branch2b
I0701 23:39:18.796020  1061 net.cpp:444] scale5c_branch2b <- res5c_branch2b
I0701 23:39:18.796037  1061 net.cpp:405] scale5c_branch2b -> res5c_branch2b (in-place)
I0701 23:39:18.796150  1061 layer_factory.hpp:77] Creating layer scale5c_branch2b
I0701 23:39:18.796480  1061 net.cpp:150] Setting up scale5c_branch2b
I0701 23:39:18.796492  1061 net.cpp:157] Top shape: 1 512 14 14 (100352)
I0701 23:39:18.796495  1061 net.cpp:165] Memory required for data: 257904652
I0701 23:39:18.796520  1061 layer_factory.hpp:77] Creating layer res5c_branch2b_relu
I0701 23:39:18.796536  1061 net.cpp:100] Creating Layer res5c_branch2b_relu
I0701 23:39:18.796545  1061 net.cpp:444] res5c_branch2b_relu <- res5c_branch2b
I0701 23:39:18.796563  1061 net.cpp:405] res5c_branch2b_relu -> res5c_branch2b (in-place)
I0701 23:39:18.796859  1061 net.cpp:150] Setting up res5c_branch2b_relu
I0701 23:39:18.796871  1061 net.cpp:157] Top shape: 1 512 14 14 (100352)
I0701 23:39:18.796875  1061 net.cpp:165] Memory required for data: 258306060
I0701 23:39:18.796890  1061 layer_factory.hpp:77] Creating layer res5c_branch2c
I0701 23:39:18.796914  1061 net.cpp:100] Creating Layer res5c_branch2c
I0701 23:39:18.796922  1061 net.cpp:444] res5c_branch2c <- res5c_branch2b
I0701 23:39:18.796950  1061 net.cpp:418] res5c_branch2c -> res5c_branch2c
I0701 23:39:18.804610  1061 cudnn_conv_layer.cpp:194] Reallocating workspace storage: 7800
I0701 23:39:18.804657  1061 net.cpp:150] Setting up res5c_branch2c
I0701 23:39:18.804672  1061 net.cpp:157] Top shape: 1 2048 14 14 (401408)
I0701 23:39:18.804677  1061 net.cpp:165] Memory required for data: 259911692
I0701 23:39:18.804693  1061 layer_factory.hpp:77] Creating layer bn5c_branch2c
I0701 23:39:18.804719  1061 net.cpp:100] Creating Layer bn5c_branch2c
I0701 23:39:18.804730  1061 net.cpp:444] bn5c_branch2c <- res5c_branch2c
I0701 23:39:18.804754  1061 net.cpp:405] bn5c_branch2c -> res5c_branch2c (in-place)
I0701 23:39:18.805302  1061 net.cpp:150] Setting up bn5c_branch2c
I0701 23:39:18.805315  1061 net.cpp:157] Top shape: 1 2048 14 14 (401408)
I0701 23:39:18.805327  1061 net.cpp:165] Memory required for data: 261517324
I0701 23:39:18.805354  1061 layer_factory.hpp:77] Creating layer scale5c_branch2c
I0701 23:39:18.805377  1061 net.cpp:100] Creating Layer scale5c_branch2c
I0701 23:39:18.805387  1061 net.cpp:444] scale5c_branch2c <- res5c_branch2c
I0701 23:39:18.805409  1061 net.cpp:405] scale5c_branch2c -> res5c_branch2c (in-place)
I0701 23:39:18.805538  1061 layer_factory.hpp:77] Creating layer scale5c_branch2c
I0701 23:39:18.805876  1061 net.cpp:150] Setting up scale5c_branch2c
I0701 23:39:18.805888  1061 net.cpp:157] Top shape: 1 2048 14 14 (401408)
I0701 23:39:18.805893  1061 net.cpp:165] Memory required for data: 263122956
I0701 23:39:18.805912  1061 layer_factory.hpp:77] Creating layer res5c
I0701 23:39:18.805929  1061 net.cpp:100] Creating Layer res5c
I0701 23:39:18.805939  1061 net.cpp:444] res5c <- res5b_res5b_relu_0_split_1
I0701 23:39:18.805955  1061 net.cpp:444] res5c <- res5c_branch2c
I0701 23:39:18.805968  1061 net.cpp:418] res5c -> res5c
I0701 23:39:18.806047  1061 net.cpp:150] Setting up res5c
I0701 23:39:18.806061  1061 net.cpp:157] Top shape: 1 2048 14 14 (401408)
I0701 23:39:18.806066  1061 net.cpp:165] Memory required for data: 264728588
I0701 23:39:18.806073  1061 layer_factory.hpp:77] Creating layer res5c_relu
I0701 23:39:18.806087  1061 net.cpp:100] Creating Layer res5c_relu
I0701 23:39:18.806097  1061 net.cpp:444] res5c_relu <- res5c
I0701 23:39:18.806115  1061 net.cpp:405] res5c_relu -> res5c (in-place)
I0701 23:39:18.806386  1061 net.cpp:150] Setting up res5c_relu
I0701 23:39:18.806397  1061 net.cpp:157] Top shape: 1 2048 14 14 (401408)
I0701 23:39:18.806401  1061 net.cpp:165] Memory required for data: 266334220
I0701 23:39:18.806408  1061 layer_factory.hpp:77] Creating layer rpn_conv/3x3
I0701 23:39:18.806439  1061 net.cpp:100] Creating Layer rpn_conv/3x3
I0701 23:39:18.806449  1061 net.cpp:444] rpn_conv/3x3 <- res4f_res4f_relu_0_split_2
I0701 23:39:18.806478  1061 net.cpp:418] rpn_conv/3x3 -> rpn/output
I0701 23:39:19.567592  1061 cudnn_conv_layer.cpp:194] Reallocating workspace storage: 21676032
I0701 23:39:19.568188  1061 net.cpp:150] Setting up rpn_conv/3x3
I0701 23:39:19.568231  1061 net.cpp:157] Top shape: 1 512 14 14 (100352)
I0701 23:39:19.568234  1061 net.cpp:165] Memory required for data: 266735628
I0701 23:39:19.568271  1061 layer_factory.hpp:77] Creating layer rpn_relu/3x3
I0701 23:39:19.568311  1061 net.cpp:100] Creating Layer rpn_relu/3x3
I0701 23:39:19.568327  1061 net.cpp:444] rpn_relu/3x3 <- rpn/output
I0701 23:39:19.568359  1061 net.cpp:405] rpn_relu/3x3 -> rpn/output (in-place)
I0701 23:39:19.569154  1061 net.cpp:150] Setting up rpn_relu/3x3
I0701 23:39:19.569165  1061 net.cpp:157] Top shape: 1 512 14 14 (100352)
I0701 23:39:19.569169  1061 net.cpp:165] Memory required for data: 267137036
I0701 23:39:19.569175  1061 layer_factory.hpp:77] Creating layer rpn/output_rpn_relu/3x3_0_split
I0701 23:39:19.569190  1061 net.cpp:100] Creating Layer rpn/output_rpn_relu/3x3_0_split
I0701 23:39:19.569198  1061 net.cpp:444] rpn/output_rpn_relu/3x3_0_split <- rpn/output
I0701 23:39:19.569221  1061 net.cpp:418] rpn/output_rpn_relu/3x3_0_split -> rpn/output_rpn_relu/3x3_0_split_0
I0701 23:39:19.569245  1061 net.cpp:418] rpn/output_rpn_relu/3x3_0_split -> rpn/output_rpn_relu/3x3_0_split_1
I0701 23:39:19.569366  1061 net.cpp:150] Setting up rpn/output_rpn_relu/3x3_0_split
I0701 23:39:19.569378  1061 net.cpp:157] Top shape: 1 512 14 14 (100352)
I0701 23:39:19.569384  1061 net.cpp:157] Top shape: 1 512 14 14 (100352)
I0701 23:39:19.569387  1061 net.cpp:165] Memory required for data: 267939852
I0701 23:39:19.569393  1061 layer_factory.hpp:77] Creating layer rpn_cls_score
I0701 23:39:19.569429  1061 net.cpp:100] Creating Layer rpn_cls_score
I0701 23:39:19.569437  1061 net.cpp:444] rpn_cls_score <- rpn/output_rpn_relu/3x3_0_split_0
I0701 23:39:19.569458  1061 net.cpp:418] rpn_cls_score -> rpn_cls_score
I0701 23:39:19.580909  1061 cudnn_conv_layer.cpp:194] Reallocating workspace storage: 10080
I0701 23:39:19.580945  1061 net.cpp:150] Setting up rpn_cls_score
I0701 23:39:19.580956  1061 net.cpp:157] Top shape: 1 66 14 14 (12936)
I0701 23:39:19.580960  1061 net.cpp:165] Memory required for data: 267991596
I0701 23:39:19.580977  1061 layer_factory.hpp:77] Creating layer rpn_bbox_pred
I0701 23:39:19.581007  1061 net.cpp:100] Creating Layer rpn_bbox_pred
I0701 23:39:19.581017  1061 net.cpp:444] rpn_bbox_pred <- rpn/output_rpn_relu/3x3_0_split_1
I0701 23:39:19.581039  1061 net.cpp:418] rpn_bbox_pred -> rpn_bbox_pred
I0701 23:39:19.592602  1061 cudnn_conv_layer.cpp:194] Reallocating workspace storage: 10080
I0701 23:39:19.592638  1061 net.cpp:150] Setting up rpn_bbox_pred
I0701 23:39:19.592648  1061 net.cpp:157] Top shape: 1 132 14 14 (25872)
I0701 23:39:19.592653  1061 net.cpp:165] Memory required for data: 268095084
I0701 23:39:19.592669  1061 layer_factory.hpp:77] Creating layer rpn_cls_score_reshape
I0701 23:39:19.592692  1061 net.cpp:100] Creating Layer rpn_cls_score_reshape
I0701 23:39:19.592700  1061 net.cpp:444] rpn_cls_score_reshape <- rpn_cls_score
I0701 23:39:19.592718  1061 net.cpp:418] rpn_cls_score_reshape -> rpn_cls_score_reshape
I0701 23:39:19.592788  1061 net.cpp:150] Setting up rpn_cls_score_reshape
I0701 23:39:19.592800  1061 net.cpp:157] Top shape: 1 2 462 14 (12936)
I0701 23:39:19.592803  1061 net.cpp:165] Memory required for data: 268146828
I0701 23:39:19.592809  1061 layer_factory.hpp:77] Creating layer rpn_cls_prob
I0701 23:39:19.592824  1061 net.cpp:100] Creating Layer rpn_cls_prob
I0701 23:39:19.592831  1061 net.cpp:444] rpn_cls_prob <- rpn_cls_score_reshape
I0701 23:39:19.592846  1061 net.cpp:418] rpn_cls_prob -> rpn_cls_prob
I0701 23:39:19.593206  1061 net.cpp:150] Setting up rpn_cls_prob
I0701 23:39:19.593220  1061 net.cpp:157] Top shape: 1 2 462 14 (12936)
I0701 23:39:19.593225  1061 net.cpp:165] Memory required for data: 268198572
I0701 23:39:19.593230  1061 layer_factory.hpp:77] Creating layer rpn_cls_prob_reshape
I0701 23:39:19.593247  1061 net.cpp:100] Creating Layer rpn_cls_prob_reshape
I0701 23:39:19.593256  1061 net.cpp:444] rpn_cls_prob_reshape <- rpn_cls_prob
I0701 23:39:19.593277  1061 net.cpp:418] rpn_cls_prob_reshape -> rpn_cls_prob_reshape
I0701 23:39:19.593345  1061 net.cpp:150] Setting up rpn_cls_prob_reshape
I0701 23:39:19.593356  1061 net.cpp:157] Top shape: 1 66 14 14 (12936)
I0701 23:39:19.593360  1061 net.cpp:165] Memory required for data: 268250316
I0701 23:39:19.593366  1061 layer_factory.hpp:77] Creating layer proposal
I0701 23:39:19.595185  1061 net.cpp:100] Creating Layer proposal
I0701 23:39:19.595199  1061 net.cpp:444] proposal <- rpn_cls_prob_reshape
I0701 23:39:19.595218  1061 net.cpp:444] proposal <- rpn_bbox_pred
I0701 23:39:19.595227  1061 net.cpp:444] proposal <- im_info
I0701 23:39:19.595239  1061 net.cpp:418] proposal -> rois
I0701 23:39:19.598384  1061 net.cpp:150] Setting up proposal
I0701 23:39:19.598400  1061 net.cpp:157] Top shape: 1 5 (5)
I0701 23:39:19.598404  1061 net.cpp:165] Memory required for data: 268250336
I0701 23:39:19.598412  1061 layer_factory.hpp:77] Creating layer rois_proposal_0_split
I0701 23:39:19.598425  1061 net.cpp:100] Creating Layer rois_proposal_0_split
I0701 23:39:19.598434  1061 net.cpp:444] rois_proposal_0_split <- rois
I0701 23:39:19.598453  1061 net.cpp:418] rois_proposal_0_split -> rois_proposal_0_split_0
I0701 23:39:19.598471  1061 net.cpp:418] rois_proposal_0_split -> rois_proposal_0_split_1
I0701 23:39:19.598553  1061 net.cpp:150] Setting up rois_proposal_0_split
I0701 23:39:19.598564  1061 net.cpp:157] Top shape: 1 5 (5)
I0701 23:39:19.598569  1061 net.cpp:157] Top shape: 1 5 (5)
I0701 23:39:19.598572  1061 net.cpp:165] Memory required for data: 268250376
I0701 23:39:19.598577  1061 layer_factory.hpp:77] Creating layer conv_new_1
I0701 23:39:19.598600  1061 net.cpp:100] Creating Layer conv_new_1
I0701 23:39:19.598608  1061 net.cpp:444] conv_new_1 <- res5c
I0701 23:39:19.598628  1061 net.cpp:418] conv_new_1 -> conv_new_1
I0701 23:39:19.899325  1061 cudnn_conv_layer.cpp:194] Reallocating workspace storage: 10080
I0701 23:39:19.899399  1061 net.cpp:150] Setting up conv_new_1
I0701 23:39:19.899421  1061 net.cpp:157] Top shape: 1 1024 14 14 (200704)
I0701 23:39:19.899425  1061 net.cpp:165] Memory required for data: 269053192
I0701 23:39:19.899462  1061 layer_factory.hpp:77] Creating layer conv_new_1_relu
I0701 23:39:19.899503  1061 net.cpp:100] Creating Layer conv_new_1_relu
I0701 23:39:19.899520  1061 net.cpp:444] conv_new_1_relu <- conv_new_1
I0701 23:39:19.899552  1061 net.cpp:405] conv_new_1_relu -> conv_new_1 (in-place)
I0701 23:39:19.899778  1061 net.cpp:150] Setting up conv_new_1_relu
I0701 23:39:19.899788  1061 net.cpp:157] Top shape: 1 1024 14 14 (200704)
I0701 23:39:19.899791  1061 net.cpp:165] Memory required for data: 269856008
I0701 23:39:19.899797  1061 layer_factory.hpp:77] Creating layer conv_new_1_conv_new_1_relu_0_split
I0701 23:39:19.899813  1061 net.cpp:100] Creating Layer conv_new_1_conv_new_1_relu_0_split
I0701 23:39:19.899821  1061 net.cpp:444] conv_new_1_conv_new_1_relu_0_split <- conv_new_1
I0701 23:39:19.899837  1061 net.cpp:418] conv_new_1_conv_new_1_relu_0_split -> conv_new_1_conv_new_1_relu_0_split_0
I0701 23:39:19.899859  1061 net.cpp:418] conv_new_1_conv_new_1_relu_0_split -> conv_new_1_conv_new_1_relu_0_split_1
I0701 23:39:19.899966  1061 net.cpp:150] Setting up conv_new_1_conv_new_1_relu_0_split
I0701 23:39:19.899978  1061 net.cpp:157] Top shape: 1 1024 14 14 (200704)
I0701 23:39:19.899984  1061 net.cpp:157] Top shape: 1 1024 14 14 (200704)
I0701 23:39:19.899986  1061 net.cpp:165] Memory required for data: 271461640
I0701 23:39:19.899992  1061 layer_factory.hpp:77] Creating layer rfcn_cls
I0701 23:39:19.900027  1061 net.cpp:100] Creating Layer rfcn_cls
I0701 23:39:19.900035  1061 net.cpp:444] rfcn_cls <- conv_new_1_conv_new_1_relu_0_split_0
I0701 23:39:19.900058  1061 net.cpp:418] rfcn_cls -> rfcn_cls
I0701 23:39:19.933389  1061 cudnn_conv_layer.cpp:194] Reallocating workspace storage: 10080
I0701 23:39:19.933426  1061 net.cpp:150] Setting up rfcn_cls
I0701 23:39:19.933437  1061 net.cpp:157] Top shape: 1 196 14 14 (38416)
I0701 23:39:19.933440  1061 net.cpp:165] Memory required for data: 271615304
I0701 23:39:19.933459  1061 layer_factory.hpp:77] Creating layer rfcn_bbox
I0701 23:39:19.933542  1061 net.cpp:100] Creating Layer rfcn_bbox
I0701 23:39:19.933552  1061 net.cpp:444] rfcn_bbox <- conv_new_1_conv_new_1_relu_0_split_1
I0701 23:39:19.933576  1061 net.cpp:418] rfcn_bbox -> rfcn_bbox
I0701 23:39:19.996608  1061 cudnn_conv_layer.cpp:194] Reallocating workspace storage: 10080
I0701 23:39:19.996661  1061 net.cpp:150] Setting up rfcn_bbox
I0701 23:39:19.996672  1061 net.cpp:157] Top shape: 1 392 14 14 (76832)
I0701 23:39:19.996675  1061 net.cpp:165] Memory required for data: 271922632
I0701 23:39:19.996700  1061 layer_factory.hpp:77] Creating layer psroipooled_cls_rois
I0701 23:39:19.996723  1061 net.cpp:100] Creating Layer psroipooled_cls_rois
I0701 23:39:19.996733  1061 net.cpp:444] psroipooled_cls_rois <- rfcn_cls
I0701 23:39:19.996748  1061 net.cpp:444] psroipooled_cls_rois <- rois_proposal_0_split_0
I0701 23:39:19.996763  1061 net.cpp:418] psroipooled_cls_rois -> psroipooled_cls_rois
I0701 23:39:19.996785  1061 psroi_pooling_layer.cpp:26] Spatial scale: 0.0625
I0701 23:39:19.996892  1061 net.cpp:150] Setting up psroipooled_cls_rois
I0701 23:39:19.996902  1061 net.cpp:157] Top shape: 1 4 7 7 (196)
I0701 23:39:19.996906  1061 net.cpp:165] Memory required for data: 271923416
I0701 23:39:19.996912  1061 layer_factory.hpp:77] Creating layer ave_cls_score_rois
I0701 23:39:19.996930  1061 net.cpp:100] Creating Layer ave_cls_score_rois
I0701 23:39:19.996938  1061 net.cpp:444] ave_cls_score_rois <- psroipooled_cls_rois
I0701 23:39:19.996958  1061 net.cpp:418] ave_cls_score_rois -> cls_score
I0701 23:39:19.997855  1061 net.cpp:150] Setting up ave_cls_score_rois
I0701 23:39:19.997870  1061 net.cpp:157] Top shape: 1 4 1 1 (4)
I0701 23:39:19.997875  1061 net.cpp:165] Memory required for data: 271923432
I0701 23:39:19.997881  1061 layer_factory.hpp:77] Creating layer psroipooled_loc_rois
I0701 23:39:19.997901  1061 net.cpp:100] Creating Layer psroipooled_loc_rois
I0701 23:39:19.997910  1061 net.cpp:444] psroipooled_loc_rois <- rfcn_bbox
I0701 23:39:19.997925  1061 net.cpp:444] psroipooled_loc_rois <- rois_proposal_0_split_1
I0701 23:39:19.997939  1061 net.cpp:418] psroipooled_loc_rois -> psroipooled_loc_rois
I0701 23:39:19.997958  1061 psroi_pooling_layer.cpp:26] Spatial scale: 0.0625
I0701 23:39:19.998045  1061 net.cpp:150] Setting up psroipooled_loc_rois
I0701 23:39:19.998055  1061 net.cpp:157] Top shape: 1 8 7 7 (392)
I0701 23:39:19.998060  1061 net.cpp:165] Memory required for data: 271925000
I0701 23:39:19.998066  1061 layer_factory.hpp:77] Creating layer ave_bbox_pred_rois
I0701 23:39:19.998085  1061 net.cpp:100] Creating Layer ave_bbox_pred_rois
I0701 23:39:19.998091  1061 net.cpp:444] ave_bbox_pred_rois <- psroipooled_loc_rois
I0701 23:39:19.998108  1061 net.cpp:418] ave_bbox_pred_rois -> bbox_pred_pre
I0701 23:39:19.998371  1061 net.cpp:150] Setting up ave_bbox_pred_rois
I0701 23:39:19.998384  1061 net.cpp:157] Top shape: 1 8 1 1 (8)
I0701 23:39:19.998389  1061 net.cpp:165] Memory required for data: 271925032
I0701 23:39:19.998395  1061 layer_factory.hpp:77] Creating layer cls_prob
I0701 23:39:19.998412  1061 net.cpp:100] Creating Layer cls_prob
I0701 23:39:19.998420  1061 net.cpp:444] cls_prob <- cls_score
I0701 23:39:19.998436  1061 net.cpp:418] cls_prob -> cls_prob_pre
I0701 23:39:19.998782  1061 net.cpp:150] Setting up cls_prob
I0701 23:39:19.998797  1061 net.cpp:157] Top shape: 1 4 1 1 (4)
I0701 23:39:19.998801  1061 net.cpp:165] Memory required for data: 271925048
I0701 23:39:19.998807  1061 layer_factory.hpp:77] Creating layer cls_prob_reshape
I0701 23:39:19.998826  1061 net.cpp:100] Creating Layer cls_prob_reshape
I0701 23:39:19.998834  1061 net.cpp:444] cls_prob_reshape <- cls_prob_pre
I0701 23:39:19.998853  1061 net.cpp:418] cls_prob_reshape -> cls_prob
I0701 23:39:19.998924  1061 net.cpp:150] Setting up cls_prob_reshape
I0701 23:39:19.998934  1061 net.cpp:157] Top shape: 1 4 (4)
I0701 23:39:19.998939  1061 net.cpp:165] Memory required for data: 271925064
I0701 23:39:19.998944  1061 layer_factory.hpp:77] Creating layer bbox_pred_reshape
I0701 23:39:19.998960  1061 net.cpp:100] Creating Layer bbox_pred_reshape
I0701 23:39:19.998966  1061 net.cpp:444] bbox_pred_reshape <- bbox_pred_pre
I0701 23:39:19.998986  1061 net.cpp:418] bbox_pred_reshape -> bbox_pred
I0701 23:39:19.999053  1061 net.cpp:150] Setting up bbox_pred_reshape
I0701 23:39:19.999063  1061 net.cpp:157] Top shape: 1 8 (8)
I0701 23:39:19.999066  1061 net.cpp:165] Memory required for data: 271925096
I0701 23:39:19.999073  1061 net.cpp:228] bbox_pred_reshape does not need backward computation.
I0701 23:39:19.999080  1061 net.cpp:228] cls_prob_reshape does not need backward computation.
I0701 23:39:19.999083  1061 net.cpp:228] cls_prob does not need backward computation.
I0701 23:39:19.999088  1061 net.cpp:228] ave_bbox_pred_rois does not need backward computation.
…
