…
stepvalue: 20000
iter_size: 8
I0711 10:50:46.813097 28432 solver.cpp:81] Creating training net from train_net file: /home/user/Disk1.8T/py-R-FCN/experiments/7_10_head_body_un/train_agnostic_ohem.prototxt
I0711 10:50:46.815515 28432 net.cpp:58] Initializing net from parameters: 
name: "ResNet-50"
state {
  phase: TRAIN
}
layer {
  name: "input-data"
  type: "Python"
  top: "data"
  top: "im_info"
  top: "gt_boxes"
  top: "head_gt_boxes"
  python_param {
    module: "roi_data_layer.layer"
    layer: "RoIDataLayer"
    param_str: "\'num_classes\': 3"
  }
}
layer {
  name: "conv1"
  type: "Convolution"
  bottom: "data"
  top: "conv1"
  param {
    lr_mult: 0
  }
  param {
    lr_mult: 0
  }
  convolution_param {
    num_output: 64
    pad: 3
    kernel_size: 7
    stride: 2
  }
}
layer {
  name: "bn_conv1"
  type: "BatchNorm"
  bottom: "conv1"
  top: "conv1"
  param {
    lr_mult: 0
    decay_mult: 0
  }
  param {
    lr_mult: 0
    decay_mult: 0
  }
  param {
    lr_mult: 0
    decay_mult: 0
  }
  batch_norm_param {
    use_global_stats: true
  }
}
layer {
  name: "scale_conv1"
  type: "Scale"
  bottom: "conv1"
  top: "conv1"
  param {
    lr_mult: 0
    decay_mult: 0
  }
  param {
    lr_mult: 0
    decay_mult: 0
  }
  scale_param {
    bias_term: true
  }
}
layer {
  name: "conv1_relu"
  type: "ReLU"
  bottom: "conv1"
  top: "conv1"
}
layer {
  name: "pool1"
  type: "Pooling"
  bottom: "conv1"
  top: "pool1"
  pooling_param {
    pool: MAX
    kernel_size: 3
    stride: 2
  }
}
layer {
  name: "res2a_branch1"
  type: "Convolution"
  bottom: "pool1"
  top: "res2a_branch1"
  param {
    lr_mult: 0
  }
  convolution_param {
    num_output: 256
    bias_term: false
    pad: 0
    kernel_size: 1
    stride: 1
  }
}
layer {
  name: "bn2a_branch1"
  type: "BatchNorm"
  bottom: "res2a_branch1"
  top: "res2a_branch1"
  param {
    lr_mult: 0
    decay_mult: 0
  }
  param {
    lr_mult: 0
    decay_mult: 0
  }
  param {
    lr_mult: 0
    decay_mult: 0
  }
  batch_norm_param {
    use_global_stats: true
  }
}
layer {
  name: "scale2a_branch1"
  type: "Scale"
  bottom: "res2a_branch1"
  top: "res2a_branch1"
  param {
    lr_mult: 0
    decay_mult: 0
  }
  param {
    lr_mult: 0
    decay_mult: 0
  }
  scale_param {
    bias_term: true
  }
}
layer {
  name: "res2a_branch2a"
  type: "Convolution"
  bottom: "pool1"
  top: "res2a_branch2a"
  param {
    lr_mult: 0
  }
  convolution_param {
    num_output: 64
    bias_term: false
    pad: 0
    kernel_size: 1
    stride: 1
  }
}
layer {
  name: "bn2a_branch2a"
  type: "BatchNorm"
  bottom: "res2a_branch2a"
  top: "res2a_branch2a"
  param {
    lr_mult: 0
    decay_mult: 0
  }
  param {
    lr_mult: 0
    decay_mult: 0
  }
  param {
    lr_mult: 0
    decay_mult: 0
  }
  batch_norm_param {
    use_global_stats: true
  }
}
layer {
  name: "scale2a_branch2a"
  type: "Scale"
  bottom: "res2a_branch2a"
  top: "res2a_branch2a"
  param {
    lr_mult: 0
    decay_mult: 0
  }
  param {
    lr_mult: 0
    decay_mult: 0
  }
  scale_param {
    bias_term: true
  }
}
layer {
  name: "res2a_branch2a_relu"
  type: "ReLU"
  bottom: "res2a_branch2a"
  top: "res2a_branch2a"
}
layer {
  name: "res2a_branch2b"
  type: "Convolution"
  bottom: "res2a_branch2a"
  top: "res2a_branch2b"
  param {
    lr_mult: 0
  }
  convolution_param {
    num_output: 64
    bias_term: false
    pad: 1
    kernel_size: 3
    stride: 1
  }
}
layer {
  name: "bn2a_branch2b"
  type: "BatchNorm"
  bottom: "res2a_branch2b"
  top: "res2a_branch2b"
  param {
    lr_mult: 0
    decay_mult: 0
  }
  param {
    lr_mult: 0
    decay_mult: 0
  }
  param {
    lr_mult: 0
    decay_mult: 0
  }
  batch_norm_param {
    use_global_stats: true
  }
}
layer {
  name: "scale2a_branch2b"
  type: "Scale"
  bottom: "res2a_branch2b"
  top: "res2a_branch2b"
  param {
    lr_mult: 0
    decay_mult: 0
  }
  param {
    lr_mult: 0
    decay_mult: 0
  }
  scale_param {
    bias_term: true
  }
}
layer {
  name: "res2a_branch2b_relu"
  type: "ReLU"
  bottom: "res2a_branch2b"
  top: "res2a_branch2b"
}
layer {
  name: "res2a_branch2c"
  type: "Convolution"
  bottom: "res2a_branch2b"
  top: "res2a_branch2c"
  param {
    lr_mult: 0
  }
  convolution_param {
    num_output: 256
    bias_term: false
    pad: 0
    kernel_size: 1
    stride: 1
  }
}
layer {
  name: "bn2a_branch2c"
  type: "BatchNorm"
  bottom: "res2a_branch2c"
  top: "res2a_branch2c"
  param {
    lr_mult: 0
    decay_mult: 0
  }
  param {
    lr_mult: 0
    decay_mult: 0
  }
  param {
    lr_mult: 0
    decay_mult: 0
  }
  batch_norm_param {
    use_global_stats: true
  }
}
layer {
  name: "scale2a_branch2c"
  type: "Scale"
  bottom: "res2a_branch2c"
  top: "res2a_branch2c"
  param {
    lr_mult: 0
    decay_mult: 0
  }
  param {
    lr_mult: 0
    decay_mult: 0
  }
  scale_param {
    bias_term: true
  }
}
layer {
  name: "res2a"
  type: "Eltwise"
  bottom: "res2a_branch1"
  bottom: "res2a_branch2c"
  top: "res2a"
}
layer {
  name: "res2a_relu"
  type: "ReLU"
  bottom: "res2a"
  top: "res2a"
}
layer {
  name: "res2b_branch2a"
  type: "Convolution"
  bottom: "res2a"
  top: "res2b_branch2a"
  param {
    lr_mult: 0
  }
  convolution_param {
    num_output: 64
    bias_term: false
    pad: 0
    kernel_size: 1
    stride: 1
  }
}
layer {
  name: "bn2b_branch2a"
  type: "BatchNorm"
  bottom: "res2b_branch2a"
  top: "res2b_branch2a"
  param {
    lr_mult: 0
    decay_mult: 0
  }
  param {
    lr_mult: 0
    decay_mult: 0
  }
  param {
    lr_mult: 0
    decay_mult: 0
  }
  batch_norm_param {
    use_global_stats: true
  }
}
layer {
  name: "scale2b_branch2a"
  type: "Scale"
  bottom: "res2b_branch2a"
  top: "res2b_branch2a"
  param {
    lr_mult: 0
    decay_mult: 0
  }
  param {
    lr_mult: 0
    decay_mult: 0
  }
  scale_param {
    bias_term: true
  }
}
layer {
  name: "res2b_branch2a_relu"
  type: "ReLU"
  bottom: "res2b_branch2a"
  top: "res2b_branch2a"
}
layer {
  name: "res2b_branch2b"
  type: "Convolution"
  bottom: "res2b_branch2a"
  top: "res2b_branch2b"
  param {
    lr_mult: 0
  }
  convolution_param {
    num_output: 64
    bias_term: false
    pad: 1
    kernel_size: 3
    stride: 1
  }
}
layer {
  name: "bn2b_branch2b"
  type: "BatchNorm"
  bottom: "res2b_branch2b"
  top: "res2b_branch2b"
  param {
    lr_mult: 0
    decay_mult: 0
  }
  param {
    lr_mult: 0
    decay_mult: 0
  }
  param {
    lr_mult: 0
    decay_mult: 0
  }
  batch_norm_param {
    use_global_stats: true
  }
}
layer {
  name: "scale2b_branch2b"
  type: "Scale"
  bottom: "res2b_branch2b"
  top: "res2b_branch2b"
  param {
    lr_mult: 0
    decay_mult: 0
  }
  param {
    lr_mult: 0
    decay_mult: 0
  }
  scale_param {
    bias_term: true
  }
}
layer {
  name: "res2b_branch2b_relu"
  type: "ReLU"
  bottom: "res2b_branch2b"
  top: "res2b_branch2b"
}
layer {
  name: "res2b_branch2c"
  type: "Convolution"
  bottom: "res2b_branch2b"
  top: "res2b_branch2c"
  param {
    lr_mult: 0
  }
  convolution_param {
    num_output: 256
    bias_term: false
    pad: 0
    kernel_size: 1
    stride: 1
  }
}
layer {
  name: "bn2b_branch2c"
  type: "BatchNorm"
  bottom: "res2b_branch2c"
  top: "res2b_branch2c"
  param {
    lr_mult: 0
    decay_mult: 0
  }
  param {
    lr_mult: 0
    decay_mult: 0
  }
  param {
    lr_mult: 0
    decay_mult: 0
  }
  batch_norm_param {
    use_global_stats: true
  }
}
layer {
  name: "scale2b_branch2c"
  type: "Scale"
  bottom: "res2b_branch2c"
  top: "res2b_branch2c"
  param {
    lr_mult: 0
    decay_mult: 0
  }
  param {
    lr_mult: 0
    decay_mult: 0
  }
  scale_param {
    bias_term: true
  }
}
layer {
  name: "res2b"
  type: "Eltwise"
  bottom: "res2a"
  bottom: "res2b_branch2c"
  top: "res2b"
}
layer {
  name: "res2b_relu"
  type: "ReLU"
  bottom: "res2b"
  top: "res2b"
}
layer {
  name: "res2c_branch2a"
  type: "Convolution"
  bottom: "res2b"
  top: "res2c_branch2a"
  param {
    lr_mult: 0
  }
  convolution_param {
    num_output: 64
    bias_term: false
    pad: 0
    kernel_size: 1
    stride: 1
  }
}
layer {
  name: "bn2c_branch2a"
  type: "BatchNorm"
  bottom: "res2c_branch2a"
  top: "res2c_branch2a"
  param {
    lr_mult: 0
    decay_mult: 0
  }
  param {
    lr_mult: 0
    decay_mult: 0
  }
  param {
    lr_mult: 0
    decay_mult: 0
  }
  batch_norm_param {
    use_global_stats: true
  }
}
layer {
  name: "scale2c_branch2a"
  type: "Scale"
  bottom: "res2c_branch2a"
  top: "res2c_branch2a"
  param {
    lr_mult: 0
    decay_mult: 0
  }
  param {
    lr_mult: 0
    decay_mult: 0
  }
  scale_param {
    bias_term: true
  }
}
layer {
  name: "res2c_branch2a_relu"
  type: "ReLU"
  bottom: "res2c_branch2a"
  top: "res2c_branch2a"
}
layer {
  name: "res2c_branch2b"
  type: "Convolution"
  bottom: "res2c_branch2a"
  top: "res2c_branch2b"
  param {
    lr_mult: 0
  }
  convolution_param {
    num_output: 64
    bias_term: false
    pad: 1
    kernel_size: 3
    stride: 1
  }
}
layer {
  name: "bn2c_branch2b"
  type: "BatchNorm"
  bottom: "res2c_branch2b"
  top: "res2c_branch2b"
  param {
    lr_mult: 0
    decay_mult: 0
  }
  param {
    lr_mult: 0
    decay_mult: 0
  }
  param {
    lr_mult: 0
    decay_mult: 0
  }
  batch_norm_param {
    use_global_stats: true
  }
}
layer {
  name: "scale2c_branch2b"
  type: "Scale"
  bottom: "res2c_branch2b"
  top: "res2c_branch2b"
  param {
    lr_mult: 0
    decay_mult: 0
  }
  param {
    lr_mult: 0
    decay_mult: 0
  }
  scale_param {
    bias_term: true
  }
}
layer {
  name: "res2c_branch2b_relu"
  type: "ReLU"
  bottom: "res2c_branch2b"
  top: "res2c_branch2b"
}
layer {
  name: "res2c_branch2c"
  type: "Convolution"
  bottom: "res2c_branch2b"
  top: "res2c_branch2c"
  param {
    lr_mult: 0
  }
  convolution_param {
    num_output: 256
    bias_term: false
    pad: 0
    kernel_size: 1
    stride: 1
  }
}
layer {
  name: "bn2c_branch2c"
  type: "BatchNorm"
  bottom: "res2c_branch2c"
  top: "res2c_branch2c"
  param {
    lr_mult: 0
    decay_mult: 0
  }
  param {
    lr_mult: 0
    decay_mult: 0
  }
  param {
    lr_mult: 0
    decay_mult: 0
  }
  batch_norm_param {
    use_global_stats: true
  }
}
layer {
  name: "scale2c_branch2c"
  type: "Scale"
  bottom: "res2c_branch2c"
  top: "res2c_branch2c"
  param {
    lr_mult: 0
    decay_mult: 0
  }
  param {
    lr_mult: 0
    decay_mult: 0
  }
  scale_param {
    bias_term: true
  }
}
layer {
  name: "res2c"
  type: "Eltwise"
  bottom: "res2b"
  bottom: "res2c_branch2c"
  top: "res2c"
}
layer {
  name: "res2c_relu"
  type: "ReLU"
  bottom: "res2c"
  top: "res2c"
}
layer {
  name: "res3a_branch1"
  type: "Convolution"
  bottom: "res2c"
  top: "res3a_branch1"
  param {
    lr_mult: 1
  }
  convolution_param {
    num_output: 512
    bias_term: false
    pad: 0
    kernel_size: 1
    stride: 2
  }
}
layer {
  name: "bn3a_branch1"
  type: "BatchNorm"
  bottom: "res3a_branch1"
  top: "res3a_branch1"
  param {
    lr_mult: 0
    decay_mult: 0
  }
  param {
    lr_mult: 0
    decay_mult: 0
  }
  param {
    lr_mult: 0
    decay_mult: 0
  }
  batch_norm_param {
    use_global_stats: true
  }
}
layer {
  name: "scale3a_branch1"
  type: "Scale"
  bottom: "res3a_branch1"
  top: "res3a_branch1"
  param {
    lr_mult: 0
    decay_mult: 0
  }
  param {
    lr_mult: 0
    decay_mult: 0
  }
  scale_param {
    bias_term: true
  }
}
layer {
  name: "res3a_branch2a"
  type: "Convolution"
  bottom: "res2c"
  top: "res3a_branch2a"
  param {
    lr_mult: 1
  }
  convolution_param {
    num_output: 128
    bias_term: false
    pad: 0
    kernel_size: 1
    stride: 2
  }
}
layer {
  name: "bn3a_branch2a"
  type: "BatchNorm"
  bottom: "res3a_branch2a"
  top: "res3a_branch2a"
  param {
    lr_mult: 0
    decay_mult: 0
  }
  param {
    lr_mult: 0
    decay_mult: 0
  }
  param {
    lr_mult: 0
    decay_mult: 0
  }
  batch_norm_param {
    use_global_stats: true
  }
}
layer {
  name: "scale3a_branch2a"
  type: "Scale"
  bottom: "res3a_branch2a"
  top: "res3a_branch2a"
  param {
    lr_mult: 0
    decay_mult: 0
  }
  param {
    lr_mult: 0
    decay_mult: 0
  }
  scale_param {
    bias_term: true
  }
}
layer {
  name: "res3a_branch2a_relu"
  type: "ReLU"
  bottom: "res3a_branch2a"
  top: "res3a_branch2a"
}
layer {
  name: "res3a_branch2b"
  type: "Convolution"
  bottom: "res3a_branch2a"
  top: "res3a_branch2b"
  param {
    lr_mult: 1
  }
  convolution_param {
    num_output: 128
    bias_term: false
    pad: 1
    kernel_size: 3
    stride: 1
  }
}
layer {
  name: "bn3a_branch2b"
  type: "BatchNorm"
  bottom: "res3a_branch2b"
  top: "res3a_branch2b"
  param {
    lr_mult: 0
    decay_mult: 0
  }
  param {
    lr_mult: 0
    decay_mult: 0
  }
  param {
    lr_mult: 0
    decay_mult: 0
  }
  batch_norm_param {
    use_global_stats: true
  }
}
layer {
  name: "scale3a_branch2b"
  type: "Scale"
  bottom: "res3a_branch2b"
  top: "res3a_branch2b"
  param {
    lr_mult: 0
    decay_mult: 0
  }
  param {
    lr_mult: 0
    decay_mult: 0
  }
  scale_param {
    bias_term: true
  }
}
layer {
  name: "res3a_branch2b_relu"
  type: "ReLU"
  bottom: "res3a_branch2b"
  top: "res3a_branch2b"
}
layer {
  name: "res3a_branch2c"
  type: "Convolution"
  bottom: "res3a_branch2b"
  top: "res3a_branch2c"
  param {
    lr_mult: 1
  }
  convolution_param {
    num_output: 512
    bias_term: false
    pad: 0
    kernel_size: 1
    stride: 1
  }
}
layer {
  name: "bn3a_branch2c"
  type: "BatchNorm"
  bottom: "res3a_branch2c"
  top: "res3a_branch2c"
  param {
    lr_mult: 0
    decay_mult: 0
  }
  param {
    lr_mult: 0
    decay_mult: 0
  }
  param {
    lr_mult: 0
    decay_mult: 0
  }
  batch_norm_param {
    use_global_stats: true
  }
}
layer {
  name: "scale3a_branch2c"
  type: "Scale"
  bottom: "res3a_branch2c"
  top: "res3a_branch2c"
  param {
    lr_mult: 0
    decay_mult: 0
  }
  param {
    lr_mult: 0
    decay_mult: 0
  }
  scale_param {
    bias_term: true
  }
}
layer {
  name: "res3a"
  type: "Eltwise"
  bottom: "res3a_branch1"
  bottom: "res3a_branch2c"
  top: "res3a"
}
layer {
  name: "res3a_relu"
  type: "ReLU"
  bottom: "res3a"
  top: "res3a"
}
layer {
  name: "res3b_branch2a"
  type: "Convolution"
  bottom: "res3a"
  top: "res3b_branch2a"
  param {
    lr_mult: 1
  }
  convolution_param {
    num_output: 128
    bias_term: false
    pad: 0
    kernel_size: 1
    stride: 1
  }
}
layer {
  name: "bn3b_branch2a"
  type: "BatchNorm"
  bottom: "res3b_branch2a"
  top: "res3b_branch2a"
  param {
    lr_mult: 0
    decay_mult: 0
  }
  param {
    lr_mult: 0
    decay_mult: 0
  }
  param {
    lr_mult: 0
    decay_mult: 0
  }
  batch_norm_param {
    use_global_stats: true
  }
}
layer {
  name: "scale3b_branch2a"
  type: "Scale"
  bottom: "res3b_branch2a"
  top: "res3b_branch2a"
  param {
    lr_mult: 0
    decay_mult: 0
  }
  param {
    lr_mult: 0
    decay_mult: 0
  }
  scale_param {
    bias_term: true
  }
}
layer {
  name: "res3b_branch2a_relu"
  type: "ReLU"
  bottom: "res3b_branch2a"
  top: "res3b_branch2a"
}
layer {
  name: "res3b_branch2b"
  type: "Convolution"
  bottom: "res3b_branch2a"
  top: "res3b_branch2b"
  param {
    lr_mult: 1
  }
  convolution_param {
    num_output: 128
    bias_term: false
    pad: 1
    kernel_size: 3
    stride: 1
  }
}
layer {
  name: "bn3b_branch2b"
  type: "BatchNorm"
  bottom: "res3b_branch2b"
  top: "res3b_branch2b"
  param {
    lr_mult: 0
    decay_mult: 0
  }
  param {
    lr_mult: 0
    decay_mult: 0
  }
  param {
    lr_mult: 0
    decay_mult: 0
  }
  batch_norm_param {
    use_global_stats: true
  }
}
layer {
  name: "scale3b_branch2b"
  type: "Scale"
  bottom: "res3b_branch2b"
  top: "res3b_branch2b"
  param {
    lr_mult: 0
    decay_mult: 0
  }
  param {
    lr_mult: 0
    decay_mult: 0
  }
  scale_param {
    bias_term: true
  }
}
layer {
  name: "res3b_branch2b_relu"
  type: "ReLU"
  bottom: "res3b_branch2b"
  top: "res3b_branch2b"
}
layer {
  name: "res3b_branch2c"
  type: "Convolution"
  bottom: "res3b_branch2b"
  top: "res3b_branch2c"
  param {
    lr_mult: 1
  }
  convolution_param {
    num_output: 512
    bias_term: false
    pad: 0
    kernel_size: 1
    stride: 1
  }
}
layer {
  name: "bn3b_branch2c"
  type: "BatchNorm"
  bottom: "res3b_branch2c"
  top: "res3b_branch2c"
  param {
    lr_mult: 0
    decay_mult: 0
  }
  param {
    lr_mult: 0
    decay_mult: 0
  }
  param {
    lr_mult: 0
    decay_mult: 0
  }
  batch_norm_param {
    use_global_stats: true
  }
}
layer {
  name: "scale3b_branch2c"
  type: "Scale"
  bottom: "res3b_branch2c"
  top: "res3b_branch2c"
  param {
    lr_mult: 0
    decay_mult: 0
  }
  param {
    lr_mult: 0
    decay_mult: 0
  }
  scale_param {
    bias_term: true
  }
}
layer {
  name: "res3b"
  type: "Eltwise"
  bottom: "res3a"
  bottom: "res3b_branch2c"
  top: "res3b"
}
layer {
  name: "res3b_relu"
  type: "ReLU"
  bottom: "res3b"
  top: "res3b"
}
layer {
  name: "res3c_branch2a"
  type: "Convolution"
  bottom: "res3b"
  top: "res3c_branch2a"
  param {
    lr_mult: 1
  }
  convolution_param {
    num_output: 128
    bias_term: false
    pad: 0
    kernel_size: 1
    stride: 1
  }
}
layer {
  name: "bn3c_branch2a"
  type: "BatchNorm"
  bottom: "res3c_branch2a"
  top: "res3c_branch2a"
  param {
    lr_mult: 0
    decay_mult: 0
  }
  param {
    lr_mult: 0
    decay_mult: 0
  }
  param {
    lr_mult: 0
    decay_mult: 0
  }
  batch_norm_param {
    use_global_stats: true
  }
}
layer {
  name: "scale3c_branch2a"
  type: "Scale"
  bottom: "res3c_branch2a"
  top: "res3c_branch2a"
  param {
    lr_mult: 0
    decay_mult: 0
  }
  param {
    lr_mult: 0
    decay_mult: 0
  }
  scale_param {
    bias_term: true
  }
}
layer {
  name: "res3c_branch2a_relu"
  type: "ReLU"
  bottom: "res3c_branch2a"
  top: "res3c_branch2a"
}
layer {
  name: "res3c_branch2b"
  type: "Convolution"
  bottom: "res3c_branch2a"
  top: "res3c_branch2b"
  param {
    lr_mult: 1
  }
  convolution_param {
    num_output: 128
    bias_term: false
    pad: 1
    kernel_size: 3
    stride: 1
  }
}
layer {
  name: "bn3c_branch2b"
  type: "BatchNorm"
  bottom: "res3c_branch2b"
  top: "res3c_branch2b"
  param {
    lr_mult: 0
    decay_mult: 0
  }
  param {
    lr_mult: 0
    decay_mult: 0
  }
  param {
    lr_mult: 0
    decay_mult: 0
  }
  batch_norm_param {
    use_global_stats: true
  }
}
layer {
  name: "scale3c_branch2b"
  type: "Scale"
  bottom: "res3c_branch2b"
  top: "res3c_branch2b"
  param {
    lr_mult: 0
    decay_mult: 0
  }
  param {
    lr_mult: 0
    decay_mult: 0
  }
  scale_param {
    bias_term: true
  }
}
layer {
  name: "res3c_branch2b_relu"
  type: "ReLU"
  bottom: "res3c_branch2b"
  top: "res3c_branch2b"
}
layer {
  name: "res3c_branch2c"
  type: "Convolution"
  bottom: "res3c_branch2b"
  top: "res3c_branch2c"
  param {
    lr_mult: 1
  }
  convolution_param {
    num_output: 512
    bias_term: false
    pad: 0
    kernel_size: 1
    stride: 1
  }
}
layer {
  name: "bn3c_branch2c"
  type: "BatchNorm"
  bottom: "res3c_branch2c"
  top: "res3c_branch2c"
  param {
    lr_mult: 0
    decay_mult: 0
  }
  param {
    lr_mult: 0
    decay_mult: 0
  }
  param {
    lr_mult: 0
    decay_mult: 0
  }
  batch_norm_param {
    use_global_stats: true
  }
}
layer {
  name: "scale3c_branch2c"
  type: "Scale"
  bottom: "res3c_branch2c"
  top: "res3c_branch2c"
  param {
    lr_mult: 0
    decay_mult: 0
  }
  param {
    lr_mult: 0
    decay_mult: 0
  }
  scale_param {
    bias_term: true
  }
}
layer {
  name: "res3c"
  type: "Eltwise"
  bottom: "res3b"
  bottom: "res3c_branch2c"
  top: "res3c"
}
layer {
  name: "res3c_relu"
  type: "ReLU"
  bottom: "res3c"
  top: "res3c"
}
layer {
  name: "res3d_branch2a"
  type: "Convolution"
  bottom: "res3c"
  top: "res3d_branch2a"
  param {
    lr_mult: 1
  }
  convolution_param {
    num_output: 128
    bias_term: false
    pad: 0
    kernel_size: 1
    stride: 1
  }
}
layer {
  name: "bn3d_branch2a"
  type: "BatchNorm"
  bottom: "res3d_branch2a"
  top: "res3d_branch2a"
  param {
    lr_mult: 0
    decay_mult: 0
  }
  param {
    lr_mult: 0
    decay_mult: 0
  }
  param {
    lr_mult: 0
    decay_mult: 0
  }
  batch_norm_param {
    use_global_stats: true
  }
}
layer {
  name: "scale3d_branch2a"
  type: "Scale"
  bottom: "res3d_branch2a"
  top: "res3d_branch2a"
  param {
    lr_mult: 0
    decay_mult: 0
  }
  param {
    lr_mult: 0
    decay_mult: 0
  }
  scale_param {
    bias_term: true
  }
}
layer {
  name: "res3d_branch2a_relu"
  type: "ReLU"
  bottom: "res3d_branch2a"
  top: "res3d_branch2a"
}
layer {
  name: "res3d_branch2b"
  type: "Convolution"
  bottom: "res3d_branch2a"
  top: "res3d_branch2b"
  param {
    lr_mult: 1
  }
  convolution_param {
    num_output: 128
    bias_term: false
    pad: 1
    kernel_size: 3
    stride: 1
  }
}
layer {
  name: "bn3d_branch2b"
  type: "BatchNorm"
  bottom: "res3d_branch2b"
  top: "res3d_branch2b"
  param {
    lr_mult: 0
    decay_mult: 0
  }
  param {
    lr_mult: 0
    decay_mult: 0
  }
  param {
    lr_mult: 0
    decay_mult: 0
  }
  batch_norm_param {
    use_global_stats: true
  }
}
layer {
  name: "scale3d_branch2b"
  type: "Scale"
  bottom: "res3d_branch2b"
  top: "res3d_branch2b"
  param {
    lr_mult: 0
    decay_mult: 0
  }
  param {
    lr_mult: 0
    decay_mult: 0
  }
  scale_param {
    bias_term: true
  }
}
layer {
  name: "res3d_branch2b_relu"
  type: "ReLU"
  bottom: "res3d_branch2b"
  top: "res3d_branch2b"
}
layer {
  name: "res3d_branch2c"
  type: "Convolution"
  bottom: "res3d_branch2b"
  top: "res3d_branch2c"
  param {
    lr_mult: 1
  }
  convolution_param {
    num_output: 512
    bias_term: false
    pad: 0
    kernel_size: 1
    stride: 1
  }
}
layer {
  name: "bn3d_branch2c"
  type: "BatchNorm"
  bottom: "res3d_branch2c"
  top: "res3d_branch2c"
  param {
    lr_mult: 0
    decay_mult: 0
  }
  param {
    lr_mult: 0
    decay_mult: 0
  }
  param {
    lr_mult: 0
    decay_mult: 0
  }
  batch_norm_param {
    use_global_stats: true
  }
}
layer {
  name: "scale3d_branch2c"
  type: "Scale"
  bottom: "res3d_branch2c"
  top: "res3d_branch2c"
  param {
    lr_mult: 0
    decay_mult: 0
  }
  param {
    lr_mult: 0
    decay_mult: 0
  }
  scale_param {
    bias_term: true
  }
}
layer {
  name: "res3d"
  type: "Eltwise"
  bottom: "res3c"
  bottom: "res3d_branch2c"
  top: "res3d"
}
layer {
  name: "res3d_relu"
  type: "ReLU"
  bottom: "res3d"
  top: "res3d"
}
layer {
  name: "res4a_branch1"
  type: "Convolution"
  bottom: "res3d"
  top: "res4a_branch1"
  param {
    lr_mult: 1
  }
  convolution_param {
    num_output: 1024
    bias_term: false
    pad: 0
    kernel_size: 1
    stride: 2
  }
}
layer {
  name: "bn4a_branch1"
  type: "BatchNorm"
  bottom: "res4a_branch1"
  top: "res4a_branch1"
  param {
    lr_mult: 0
    decay_mult: 0
  }
  param {
    lr_mult: 0
    decay_mult: 0
  }
  param {
    lr_mult: 0
    decay_mult: 0
  }
  batch_norm_param {
    use_global_stats: true
  }
}
layer {
  name: "scale4a_branch1"
  type: "Scale"
  bottom: "res4a_branch1"
  top: "res4a_branch1"
  param {
    lr_mult: 0
    decay_mult: 0
  }
  param {
    lr_mult: 0
    decay_mult: 0
  }
  scale_param {
    bias_term: true
  }
}
layer {
  name: "res4a_branch2a"
  type: "Convolution"
  bottom: "res3d"
  top: "res4a_branch2a"
  param {
    lr_mult: 1
  }
  convolution_param {
    num_output: 256
    bias_term: false
    pad: 0
    kernel_size: 1
    stride: 2
  }
}
layer {
  name: "bn4a_branch2a"
  type: "BatchNorm"
  bottom: "res4a_branch2a"
  top: "res4a_branch2a"
  param {
    lr_mult: 0
    decay_mult: 0
  }
  param {
    lr_mult: 0
    decay_mult: 0
  }
  param {
    lr_mult: 0
    decay_mult: 0
  }
  batch_norm_param {
    use_global_stats: true
  }
}
layer {
  name: "scale4a_branch2a"
  type: "Scale"
  bottom: "res4a_branch2a"
  top: "res4a_branch2a"
  param {
    lr_mult: 0
    decay_mult: 0
  }
  param {
    lr_mult: 0
    decay_mult: 0
  }
  scale_param {
    bias_term: true
  }
}
layer {
  name: "res4a_branch2a_relu"
  type: "ReLU"
  bottom: "res4a_branch2a"
  top: "res4a_branch2a"
}
layer {
  name: "res4a_branch2b"
  type: "Convolution"
  bottom: "res4a_branch2a"
  top: "res4a_branch2b"
  param {
    lr_mult: 1
  }
  convolution_param {
    num_output: 256
    bias_term: false
    pad: 1
    kernel_size: 3
    stride: 1
  }
}
layer {
  name: "bn4a_branch2b"
  type: "BatchNorm"
  bottom: "res4a_branch2b"
  top: "res4a_branch2b"
  param {
    lr_mult: 0
    decay_mult: 0
  }
  param {
    lr_mult: 0
    decay_mult: 0
  }
  param {
    lr_mult: 0
    decay_mult: 0
  }
  batch_norm_param {
    use_global_stats: true
  }
}
layer {
  name: "scale4a_branch2b"
  type: "Scale"
  bottom: "res4a_branch2b"
  top: "res4a_branch2b"
  param {
    lr_mult: 0
    decay_mult: 0
  }
  param {
    lr_mult: 0
    decay_mult: 0
  }
  scale_param {
    bias_term: true
  }
}
layer {
  name: "res4a_branch2b_relu"
  type: "ReLU"
  bottom: "res4a_branch2b"
  top: "res4a_branch2b"
}
layer {
  name: "res4a_branch2c"
  type: "Convolution"
  bottom: "res4a_branch2b"
  top: "res4a_branch2c"
  param {
    lr_mult: 1
  }
  convolution_param {
    num_output: 1024
    bias_term: false
    pad: 0
    kernel_size: 1
    stride: 1
  }
}
layer {
  name: "bn4a_branch2c"
  type: "BatchNorm"
  bottom: "res4a_branch2c"
  top: "res4a_branch2c"
  param {
    lr_mult: 0
    decay_mult: 0
  }
  param {
    lr_mult: 0
    decay_mult: 0
  }
  param {
    lr_mult: 0
    decay_mult: 0
  }
  batch_norm_param {
    use_global_stats: true
  }
}
layer {
  name: "scale4a_branch2c"
  type: "Scale"
  bottom: "res4a_branch2c"
  top: "res4a_branch2c"
  param {
    lr_mult: 0
    decay_mult: 0
  }
  param {
    lr_mult: 0
    decay_mult: 0
  }
  scale_param {
    bias_term: true
  }
}
layer {
  name: "res4a"
  type: "Eltwise"
  bottom: "res4a_branch1"
  bottom: "res4a_branch2c"
  top: "res4a"
}
layer {
  name: "res4a_relu"
  type: "ReLU"
  bottom: "res4a"
  top: "res4a"
}
layer {
  name: "res4b_branch2a"
  type: "Convolution"
  bottom: "res4a"
  top: "res4b_branch2a"
  param {
    lr_mult: 1
  }
  convolution_param {
    num_output: 256
    bias_term: false
    pad: 0
    kernel_size: 1
    stride: 1
  }
}
layer {
  name: "bn4b_branch2a"
  type: "BatchNorm"
  bottom: "res4b_branch2a"
  top: "res4b_branch2a"
  param {
    lr_mult: 0
    decay_mult: 0
  }
  param {
    lr_mult: 0
    decay_mult: 0
  }
  param {
    lr_mult: 0
    decay_mult: 0
  }
  batch_norm_param {
    use_global_stats: true
  }
}
layer {
  name: "scale4b_branch2a"
  type: "Scale"
  bottom: "res4b_branch2a"
  top: "res4b_branch2a"
  param {
    lr_mult: 0
    decay_mult: 0
  }
  param {
    lr_mult: 0
    decay_mult: 0
  }
  scale_param {
    bias_term: true
  }
}
layer {
  name: "res4b_branch2a_relu"
  type: "ReLU"
  bottom: "res4b_branch2a"
  top: "res4b_branch2a"
}
layer {
  name: "res4b_branch2b"
  type: "Convolution"
  bottom: "res4b_branch2a"
  top: "res4b_branch2b"
  param {
    lr_mult: 1
  }
  convolution_param {
    num_output: 256
    bias_term: false
    pad: 1
    kernel_size: 3
    stride: 1
  }
}
layer {
  name: "bn4b_branch2b"
  type: "BatchNorm"
  bottom: "res4b_branch2b"
  top: "res4b_branch2b"
  param {
    lr_mult: 0
    decay_mult: 0
  }
  param {
    lr_mult: 0
    decay_mult: 0
  }
  param {
    lr_mult: 0
    decay_mult: 0
  }
  batch_norm_param {
    use_global_stats: true
  }
}
layer {
  name: "scale4b_branch2b"
  type: "Scale"
  bottom: "res4b_branch2b"
  top: "res4b_branch2b"
  param {
    lr_mult: 0
    decay_mult: 0
  }
  param {
    lr_mult: 0
    decay_mult: 0
  }
  scale_param {
    bias_term: true
  }
}
layer {
  name: "res4b_branch2b_relu"
  type: "ReLU"
  bottom: "res4b_branch2b"
  top: "res4b_branch2b"
}
layer {
  name: "res4b_branch2c"
  type: "Convolution"
  bottom: "res4b_branch2b"
  top: "res4b_branch2c"
  param {
    lr_mult: 1
  }
  convolution_param {
    num_output: 1024
    bias_term: false
    pad: 0
    kernel_size: 1
    stride: 1
  }
}
layer {
  name: "bn4b_branch2c"
  type: "BatchNorm"
  bottom: "res4b_branch2c"
  top: "res4b_branch2c"
  param {
    lr_mult: 0
    decay_mult: 0
  }
  param {
    lr_mult: 0
    decay_mult: 0
  }
  param {
    lr_mult: 0
    decay_mult: 0
  }
  batch_norm_param {
    use_global_stats: true
  }
}
layer {
  name: "scale4b_branch2c"
  type: "Scale"
  bottom: "res4b_branch2c"
  top: "res4b_branch2c"
  param {
    lr_mult: 0
    decay_mult: 0
  }
  param {
    lr_mult: 0
    decay_mult: 0
  }
  scale_param {
    bias_term: true
  }
}
layer {
  name: "res4b"
  type: "Eltwise"
  bottom: "res4a"
  bottom: "res4b_branch2c"
  top: "res4b"
}
layer {
  name: "res4b_relu"
  type: "ReLU"
  bottom: "res4b"
  top: "res4b"
}
layer {
  name: "res4c_branch2a"
  type: "Convolution"
  bottom: "res4b"
  top: "res4c_branch2a"
  param {
    lr_mult: 1
  }
  convolution_param {
    num_output: 256
    bias_term: false
    pad: 0
    kernel_size: 1
    stride: 1
  }
}
layer {
  name: "bn4c_branch2a"
  type: "BatchNorm"
  bottom: "res4c_branch2a"
  top: "res4c_branch2a"
  param {
    lr_mult: 0
    decay_mult: 0
  }
  param {
    lr_mult: 0
    decay_mult: 0
  }
  param {
    lr_mult: 0
    decay_mult: 0
  }
  batch_norm_param {
    use_global_stats: true
  }
}
layer {
  name: "scale4c_branch2a"
  type: "Scale"
  bottom: "res4c_branch2a"
  top: "res4c_branch2a"
  param {
    lr_mult: 0
    decay_mult: 0
  }
  param {
    lr_mult: 0
    decay_mult: 0
  }
  scale_param {
    bias_term: true
  }
}
layer {
  name: "res4c_branch2a_relu"
  type: "ReLU"
  bottom: "res4c_branch2a"
  top: "res4c_branch2a"
}
layer {
  name: "res4c_branch2b"
  type: "Convolution"
  bottom: "res4c_branch2a"
  top: "res4c_branch2b"
  param {
    lr_mult: 1
  }
  convolution_param {
    num_output: 256
    bias_term: false
    pad: 1
    kernel_size: 3
    stride: 1
  }
}
layer {
  name: "bn4c_branch2b"
  type: "BatchNorm"
  bottom: "res4c_branch2b"
  top: "res4c_branch2b"
  param {
    lr_mult: 0
    decay_mult: 0
  }
  param {
    lr_mult: 0
    decay_mult: 0
  }
  param {
    lr_mult: 0
    decay_mult: 0
  }
  batch_norm_param {
    use_global_stats: true
  }
}
layer {
  name: "scale4c_branch2b"
  type: "Scale"
  bottom: "res4c_branch2b"
  top: "res4c_branch2b"
  param {
    lr_mult: 0
    decay_mult: 0
  }
  param {
    lr_mult: 0
    decay_mult: 0
  }
  scale_param {
    bias_term: true
  }
}
layer {
  name: "res4c_branch2b_relu"
  type: "ReLU"
  bottom: "res4c_b
I0711 10:50:46.817704 28432 layer_factory.hpp:77] Creating layer input-data
I0711 10:50:46.826673 28432 net.cpp:100] Creating Layer input-data
I0711 10:50:46.826694 28432 net.cpp:418] input-data -> data
I0711 10:50:46.826738 28432 net.cpp:418] input-data -> im_info
I0711 10:50:46.826756 28432 net.cpp:418] input-data -> gt_boxes
I0711 10:50:46.826768 28432 net.cpp:418] input-data -> head_gt_boxes
RoiDataLayer: name_to_top: {'gt_boxes': 2, 'data': 0, 'im_info': 1, 'head_gt_boxes': 3}
I0711 10:50:46.846833 28432 net.cpp:150] Setting up input-data
I0711 10:50:46.846859 28432 net.cpp:157] Top shape: 1 3 960 1280 (3686400)
I0711 10:50:46.846864 28432 net.cpp:157] Top shape: 1 3 (3)
I0711 10:50:46.846868 28432 net.cpp:157] Top shape: 1 4 (4)
I0711 10:50:46.846871 28432 net.cpp:157] Top shape: 1 5 (5)
I0711 10:50:46.846873 28432 net.cpp:165] Memory required for data: 14745648
I0711 10:50:46.846889 28432 layer_factory.hpp:77] Creating layer data_input-data_0_split
I0711 10:50:46.846918 28432 net.cpp:100] Creating Layer data_input-data_0_split
I0711 10:50:46.846928 28432 net.cpp:444] data_input-data_0_split <- data
I0711 10:50:46.846946 28432 net.cpp:418] data_input-data_0_split -> data_input-data_0_split_0
I0711 10:50:46.846971 28432 net.cpp:418] data_input-data_0_split -> data_input-data_0_split_1
I0711 10:50:46.846982 28432 net.cpp:418] data_input-data_0_split -> data_input-data_0_split_2
I0711 10:50:46.847020 28432 net.cpp:150] Setting up data_input-data_0_split
I0711 10:50:46.847028 28432 net.cpp:157] Top shape: 1 3 960 1280 (3686400)
I0711 10:50:46.847033 28432 net.cpp:157] Top shape: 1 3 960 1280 (3686400)
I0711 10:50:46.847035 28432 net.cpp:157] Top shape: 1 3 960 1280 (3686400)
I0711 10:50:46.847038 28432 net.cpp:165] Memory required for data: 58982448
I0711 10:50:46.847040 28432 layer_factory.hpp:77] Creating layer im_info_input-data_1_split
I0711 10:50:46.847050 28432 net.cpp:100] Creating Layer im_info_input-data_1_split
I0711 10:50:46.847055 28432 net.cpp:444] im_info_input-data_1_split <- im_info
I0711 10:50:46.847065 28432 net.cpp:418] im_info_input-data_1_split -> im_info_input-data_1_split_0
I0711 10:50:46.847077 28432 net.cpp:418] im_info_input-data_1_split -> im_info_input-data_1_split_1
I0711 10:50:46.847090 28432 net.cpp:418] im_info_input-data_1_split -> im_info_input-data_1_split_2
I0711 10:50:46.847100 28432 net.cpp:418] im_info_input-data_1_split -> im_info_input-data_1_split_3
I0711 10:50:46.847137 28432 net.cpp:150] Setting up im_info_input-data_1_split
I0711 10:50:46.847144 28432 net.cpp:157] Top shape: 1 3 (3)
I0711 10:50:46.847148 28432 net.cpp:157] Top shape: 1 3 (3)
I0711 10:50:46.847151 28432 net.cpp:157] Top shape: 1 3 (3)
I0711 10:50:46.847154 28432 net.cpp:157] Top shape: 1 3 (3)
I0711 10:50:46.847156 28432 net.cpp:165] Memory required for data: 58982496
I0711 10:50:46.847158 28432 layer_factory.hpp:77] Creating layer gt_boxes_input-data_2_split
I0711 10:50:46.847165 28432 net.cpp:100] Creating Layer gt_boxes_input-data_2_split
I0711 10:50:46.847170 28432 net.cpp:444] gt_boxes_input-data_2_split <- gt_boxes
I0711 10:50:46.847180 28432 net.cpp:418] gt_boxes_input-data_2_split -> gt_boxes_input-data_2_split_0
I0711 10:50:46.847192 28432 net.cpp:418] gt_boxes_input-data_2_split -> gt_boxes_input-data_2_split_1
I0711 10:50:46.847216 28432 net.cpp:150] Setting up gt_boxes_input-data_2_split
I0711 10:50:46.847223 28432 net.cpp:157] Top shape: 1 4 (4)
I0711 10:50:46.847226 28432 net.cpp:157] Top shape: 1 4 (4)
I0711 10:50:46.847229 28432 net.cpp:165] Memory required for data: 58982528
I0711 10:50:46.847230 28432 layer_factory.hpp:77] Creating layer head_gt_boxes_input-data_3_split
I0711 10:50:46.847240 28432 net.cpp:100] Creating Layer head_gt_boxes_input-data_3_split
I0711 10:50:46.847245 28432 net.cpp:444] head_gt_boxes_input-data_3_split <- head_gt_boxes
I0711 10:50:46.847255 28432 net.cpp:418] head_gt_boxes_input-data_3_split -> head_gt_boxes_input-data_3_split_0
I0711 10:50:46.847266 28432 net.cpp:418] head_gt_boxes_input-data_3_split -> head_gt_boxes_input-data_3_split_1
I0711 10:50:46.847292 28432 net.cpp:150] Setting up head_gt_boxes_input-data_3_split
I0711 10:50:46.847298 28432 net.cpp:157] Top shape: 1 5 (5)
I0711 10:50:46.847301 28432 net.cpp:157] Top shape: 1 5 (5)
I0711 10:50:46.847303 28432 net.cpp:165] Memory required for data: 58982568
I0711 10:50:46.847306 28432 layer_factory.hpp:77] Creating layer conv1
I0711 10:50:46.847324 28432 net.cpp:100] Creating Layer conv1
I0711 10:50:46.847329 28432 net.cpp:444] conv1 <- data_input-data_0_split_0
I0711 10:50:46.847340 28432 net.cpp:418] conv1 -> conv1
I0711 10:50:47.148270 28432 cudnn_conv_layer.cpp:194] Reallocating workspace storage: 5529624
I0711 10:50:47.148488 28432 net.cpp:150] Setting up conv1
I0711 10:50:47.148505 28432 net.cpp:157] Top shape: 1 64 480 640 (19660800)
I0711 10:50:47.148509 28432 net.cpp:165] Memory required for data: 137625768
I0711 10:50:47.148561 28432 layer_factory.hpp:77] Creating layer bn_conv1
I0711 10:50:47.148587 28432 net.cpp:100] Creating Layer bn_conv1
I0711 10:50:47.148597 28432 net.cpp:444] bn_conv1 <- conv1
I0711 10:50:47.148612 28432 net.cpp:405] bn_conv1 -> conv1 (in-place)
I0711 10:50:47.149703 28432 net.cpp:150] Setting up bn_conv1
I0711 10:50:47.149711 28432 net.cpp:157] Top shape: 1 64 480 640 (19660800)
I0711 10:50:47.149713 28432 net.cpp:165] Memory required for data: 216268968
I0711 10:50:47.149744 28432 layer_factory.hpp:77] Creating layer scale_conv1
I0711 10:50:47.149763 28432 net.cpp:100] Creating Layer scale_conv1
I0711 10:50:47.149770 28432 net.cpp:444] scale_conv1 <- conv1
I0711 10:50:47.149780 28432 net.cpp:405] scale_conv1 -> conv1 (in-place)
I0711 10:50:47.149828 28432 layer_factory.hpp:77] Creating layer scale_conv1
I0711 10:50:47.151804 28432 net.cpp:150] Setting up scale_conv1
I0711 10:50:47.151815 28432 net.cpp:157] Top shape: 1 64 480 640 (19660800)
I0711 10:50:47.151818 28432 net.cpp:165] Memory required for data: 294912168
I0711 10:50:47.151832 28432 layer_factory.hpp:77] Creating layer conv1_relu
I0711 10:50:47.151852 28432 net.cpp:100] Creating Layer conv1_relu
I0711 10:50:47.151859 28432 net.cpp:444] conv1_relu <- conv1
I0711 10:50:47.151871 28432 net.cpp:405] conv1_relu -> conv1 (in-place)
I0711 10:50:47.152032 28432 net.cpp:150] Setting up conv1_relu
I0711 10:50:47.152040 28432 net.cpp:157] Top shape: 1 64 480 640 (19660800)
I0711 10:50:47.152041 28432 net.cpp:165] Memory required for data: 373555368
I0711 10:50:47.152045 28432 layer_factory.hpp:77] Creating layer pool1
I0711 10:50:47.152057 28432 net.cpp:100] Creating Layer pool1
I0711 10:50:47.152062 28432 net.cpp:444] pool1 <- conv1
I0711 10:50:47.152074 28432 net.cpp:418] pool1 -> pool1
I0711 10:50:47.152125 28432 net.cpp:150] Setting up pool1
I0711 10:50:47.152135 28432 net.cpp:157] Top shape: 1 64 240 320 (4915200)
I0711 10:50:47.152138 28432 net.cpp:165] Memory required for data: 393216168
I0711 10:50:47.152143 28432 layer_factory.hpp:77] Creating layer pool1_pool1_0_split
I0711 10:50:47.152151 28432 net.cpp:100] Creating Layer pool1_pool1_0_split
I0711 10:50:47.152155 28432 net.cpp:444] pool1_pool1_0_split <- pool1
I0711 10:50:47.152165 28432 net.cpp:418] pool1_pool1_0_split -> pool1_pool1_0_split_0
I0711 10:50:47.152176 28432 net.cpp:418] pool1_pool1_0_split -> pool1_pool1_0_split_1
I0711 10:50:47.152209 28432 net.cpp:150] Setting up pool1_pool1_0_split
I0711 10:50:47.152216 28432 net.cpp:157] Top shape: 1 64 240 320 (4915200)
I0711 10:50:47.152220 28432 net.cpp:157] Top shape: 1 64 240 320 (4915200)
I0711 10:50:47.152221 28432 net.cpp:165] Memory required for data: 432537768
I0711 10:50:47.152225 28432 layer_factory.hpp:77] Creating layer res2a_branch1
I0711 10:50:47.152240 28432 net.cpp:100] Creating Layer res2a_branch1
I0711 10:50:47.152245 28432 net.cpp:444] res2a_branch1 <- pool1_pool1_0_split_0
I0711 10:50:47.152256 28432 net.cpp:418] res2a_branch1 -> res2a_branch1
I0711 10:50:47.153019 28432 cudnn_conv_layer.cpp:194] Reallocating workspace storage: 1388952
I0711 10:50:47.153218 28432 net.cpp:150] Setting up res2a_branch1
I0711 10:50:47.153228 28432 net.cpp:157] Top shape: 1 256 240 320 (19660800)
I0711 10:50:47.153231 28432 net.cpp:165] Memory required for data: 511180968
I0711 10:50:47.153241 28432 layer_factory.hpp:77] Creating layer bn2a_branch1
I0711 10:50:47.153254 28432 net.cpp:100] Creating Layer bn2a_branch1
I0711 10:50:47.153260 28432 net.cpp:444] bn2a_branch1 <- res2a_branch1
I0711 10:50:47.153272 28432 net.cpp:405] bn2a_branch1 -> res2a_branch1 (in-place)
I0711 10:50:47.153520 28432 net.cpp:150] Setting up bn2a_branch1
I0711 10:50:47.153527 28432 net.cpp:157] Top shape: 1 256 240 320 (19660800)
I0711 10:50:47.153529 28432 net.cpp:165] Memory required for data: 589824168
I0711 10:50:47.153558 28432 layer_factory.hpp:77] Creating layer scale2a_branch1
I0711 10:50:47.153573 28432 net.cpp:100] Creating Layer scale2a_branch1
I0711 10:50:47.153578 28432 net.cpp:444] scale2a_branch1 <- res2a_branch1
I0711 10:50:47.153587 28432 net.cpp:405] scale2a_branch1 -> res2a_branch1 (in-place)
I0711 10:50:47.153630 28432 layer_factory.hpp:77] Creating layer scale2a_branch1
I0711 10:50:47.153944 28432 net.cpp:150] Setting up scale2a_branch1
I0711 10:50:47.153950 28432 net.cpp:157] Top shape: 1 256 240 320 (19660800)
I0711 10:50:47.153954 28432 net.cpp:165] Memory required for data: 668467368
I0711 10:50:47.153962 28432 layer_factory.hpp:77] Creating layer res2a_branch2a
I0711 10:50:47.153975 28432 net.cpp:100] Creating Layer res2a_branch2a
I0711 10:50:47.153980 28432 net.cpp:444] res2a_branch2a <- pool1_pool1_0_split_1
I0711 10:50:47.153992 28432 net.cpp:418] res2a_branch2a -> res2a_branch2a
I0711 10:50:47.155226 28432 cudnn_conv_layer.cpp:194] Reallocating workspace storage: 1388952
I0711 10:50:47.155426 28432 net.cpp:150] Setting up res2a_branch2a
I0711 10:50:47.155436 28432 net.cpp:157] Top shape: 1 64 240 320 (4915200)
I0711 10:50:47.155438 28432 net.cpp:165] Memory required for data: 688128168
I0711 10:50:47.155449 28432 layer_factory.hpp:77] Creating layer bn2a_branch2a
I0711 10:50:47.155462 28432 net.cpp:100] Creating Layer bn2a_branch2a
I0711 10:50:47.155468 28432 net.cpp:444] bn2a_branch2a <- res2a_branch2a
I0711 10:50:47.155479 28432 net.cpp:405] bn2a_branch2a -> res2a_branch2a (in-place)
I0711 10:50:47.155736 28432 net.cpp:150] Setting up bn2a_branch2a
I0711 10:50:47.155742 28432 net.cpp:157] Top shape: 1 64 240 320 (4915200)
I0711 10:50:47.155745 28432 net.cpp:165] Memory required for data: 707788968
I0711 10:50:47.155767 28432 layer_factory.hpp:77] Creating layer scale2a_branch2a
I0711 10:50:47.155786 28432 net.cpp:100] Creating Layer scale2a_branch2a
I0711 10:50:47.155791 28432 net.cpp:444] scale2a_branch2a <- res2a_branch2a
I0711 10:50:47.155802 28432 net.cpp:405] scale2a_branch2a -> res2a_branch2a (in-place)
I0711 10:50:47.155843 28432 layer_factory.hpp:77] Creating layer scale2a_branch2a
I0711 10:50:47.156165 28432 net.cpp:150] Setting up scale2a_branch2a
I0711 10:50:47.156172 28432 net.cpp:157] Top shape: 1 64 240 320 (4915200)
I0711 10:50:47.156174 28432 net.cpp:165] Memory required for data: 727449768
I0711 10:50:47.156183 28432 layer_factory.hpp:77] Creating layer res2a_branch2a_relu
I0711 10:50:47.156193 28432 net.cpp:100] Creating Layer res2a_branch2a_relu
I0711 10:50:47.156198 28432 net.cpp:444] res2a_branch2a_relu <- res2a_branch2a
I0711 10:50:47.156208 28432 net.cpp:405] res2a_branch2a_relu -> res2a_branch2a (in-place)
I0711 10:50:47.156335 28432 net.cpp:150] Setting up res2a_branch2a_relu
I0711 10:50:47.156342 28432 net.cpp:157] Top shape: 1 64 240 320 (4915200)
I0711 10:50:47.156343 28432 net.cpp:165] Memory required for data: 747110568
I0711 10:50:47.156347 28432 layer_factory.hpp:77] Creating layer res2a_branch2b
I0711 10:50:47.156359 28432 net.cpp:100] Creating Layer res2a_branch2b
I0711 10:50:47.156364 28432 net.cpp:444] res2a_branch2b <- res2a_branch2a
I0711 10:50:47.156376 28432 net.cpp:418] res2a_branch2b -> res2a_branch2b
I0711 10:50:47.157655 28432 cudnn_conv_layer.cpp:194] Reallocating workspace storage: 786432
I0711 10:50:47.157858 28432 net.cpp:150] Setting up res2a_branch2b
I0711 10:50:47.157869 28432 net.cpp:157] Top shape: 1 64 240 320 (4915200)
I0711 10:50:47.157872 28432 net.cpp:165] Memory required for data: 766771368
I0711 10:50:47.157883 28432 layer_factory.hpp:77] Creating layer bn2a_branch2b
I0711 10:50:47.157897 28432 net.cpp:100] Creating Layer bn2a_branch2b
I0711 10:50:47.157902 28432 net.cpp:444] bn2a_branch2b <- res2a_branch2b
I0711 10:50:47.157914 28432 net.cpp:405] bn2a_branch2b -> res2a_branch2b (in-place)
I0711 10:50:47.158175 28432 net.cpp:150] Setting up bn2a_branch2b
I0711 10:50:47.158182 28432 net.cpp:157] Top shape: 1 64 240 320 (4915200)
I0711 10:50:47.158185 28432 net.cpp:165] Memory required for data: 786432168
I0711 10:50:47.158198 28432 layer_factory.hpp:77] Creating layer scale2a_branch2b
I0711 10:50:47.158210 28432 net.cpp:100] Creating Layer scale2a_branch2b
I0711 10:50:47.158215 28432 net.cpp:444] scale2a_branch2b <- res2a_branch2b
I0711 10:50:47.158226 28432 net.cpp:405] scale2a_branch2b -> res2a_branch2b (in-place)
I0711 10:50:47.158268 28432 layer_factory.hpp:77] Creating layer scale2a_branch2b
I0711 10:50:47.159101 28432 net.cpp:150] Setting up scale2a_branch2b
I0711 10:50:47.159109 28432 net.cpp:157] Top shape: 1 64 240 320 (4915200)
I0711 10:50:47.159111 28432 net.cpp:165] Memory required for data: 806092968
I0711 10:50:47.159123 28432 layer_factory.hpp:77] Creating layer res2a_branch2b_relu
I0711 10:50:47.159134 28432 net.cpp:100] Creating Layer res2a_branch2b_relu
I0711 10:50:47.159140 28432 net.cpp:444] res2a_branch2b_relu <- res2a_branch2b
I0711 10:50:47.159150 28432 net.cpp:405] res2a_branch2b_relu -> res2a_branch2b (in-place)
I0711 10:50:47.159485 28432 net.cpp:150] Setting up res2a_branch2b_relu
I0711 10:50:47.159493 28432 net.cpp:157] Top shape: 1 64 240 320 (4915200)
I0711 10:50:47.159495 28432 net.cpp:165] Memory required for data: 825753768
I0711 10:50:47.159499 28432 layer_factory.hpp:77] Creating layer res2a_branch2c
I0711 10:50:47.159515 28432 net.cpp:100] Creating Layer res2a_branch2c
I0711 10:50:47.159520 28432 net.cpp:444] res2a_branch2c <- res2a_branch2b
I0711 10:50:47.159535 28432 net.cpp:418] res2a_branch2c -> res2a_branch2c
I0711 10:50:47.160321 28432 cudnn_conv_layer.cpp:194] Reallocating workspace storage: 1388952
I0711 10:50:47.160533 28432 net.cpp:150] Setting up res2a_branch2c
I0711 10:50:47.160545 28432 net.cpp:157] Top shape: 1 256 240 320 (19660800)
I0711 10:50:47.160549 28432 net.cpp:165] Memory required for data: 904396968
I0711 10:50:47.160562 28432 layer_factory.hpp:77] Creating layer bn2a_branch2c
I0711 10:50:47.160576 28432 net.cpp:100] Creating Layer bn2a_branch2c
I0711 10:50:47.160583 28432 net.cpp:444] bn2a_branch2c <- res2a_branch2c
I0711 10:50:47.160595 28432 net.cpp:405] bn2a_branch2c -> res2a_branch2c (in-place)
I0711 10:50:47.160853 28432 net.cpp:150] Setting up bn2a_branch2c
I0711 10:50:47.160859 28432 net.cpp:157] Top shape: 1 256 240 320 (19660800)
I0711 10:50:47.160861 28432 net.cpp:165] Memory required for data: 983040168
I0711 10:50:47.160876 28432 layer_factory.hpp:77] Creating layer scale2a_branch2c
I0711 10:50:47.160888 28432 net.cpp:100] Creating Layer scale2a_branch2c
I0711 10:50:47.160893 28432 net.cpp:444] scale2a_branch2c <- res2a_branch2c
I0711 10:50:47.160903 28432 net.cpp:405] scale2a_branch2c -> res2a_branch2c (in-place)
I0711 10:50:47.160946 28432 layer_factory.hpp:77] Creating layer scale2a_branch2c
I0711 10:50:47.161260 28432 net.cpp:150] Setting up scale2a_branch2c
I0711 10:50:47.161267 28432 net.cpp:157] Top shape: 1 256 240 320 (19660800)
I0711 10:50:47.161269 28432 net.cpp:165] Memory required for data: 1061683368
I0711 10:50:47.161278 28432 layer_factory.hpp:77] Creating layer res2a
I0711 10:50:47.161288 28432 net.cpp:100] Creating Layer res2a
I0711 10:50:47.161293 28432 net.cpp:444] res2a <- res2a_branch1
I0711 10:50:47.161303 28432 net.cpp:444] res2a <- res2a_branch2c
I0711 10:50:47.161310 28432 net.cpp:418] res2a -> res2a
I0711 10:50:47.161341 28432 net.cpp:150] Setting up res2a
I0711 10:50:47.161348 28432 net.cpp:157] Top shape: 1 256 240 320 (19660800)
I0711 10:50:47.161350 28432 net.cpp:165] Memory required for data: 1140326568
I0711 10:50:47.161355 28432 layer_factory.hpp:77] Creating layer res2a_relu
I0711 10:50:47.161362 28432 net.cpp:100] Creating Layer res2a_relu
I0711 10:50:47.161366 28432 net.cpp:444] res2a_relu <- res2a
I0711 10:50:47.161375 28432 net.cpp:405] res2a_relu -> res2a (in-place)
I0711 10:50:47.161521 28432 net.cpp:150] Setting up res2a_relu
I0711 10:50:47.161528 28432 net.cpp:157] Top shape: 1 256 240 320 (19660800)
I0711 10:50:47.161533 28432 net.cpp:165] Memory required for data: 1218969768
I0711 10:50:47.161538 28432 layer_factory.hpp:77] Creating layer res2a_res2a_relu_0_split
I0711 10:50:47.161556 28432 net.cpp:100] Creating Layer res2a_res2a_relu_0_split
I0711 10:50:47.161564 28432 net.cpp:444] res2a_res2a_relu_0_split <- res2a
I0711 10:50:47.161578 28432 net.cpp:418] res2a_res2a_relu_0_split -> res2a_res2a_relu_0_split_0
I0711 10:50:47.161592 28432 net.cpp:418] res2a_res2a_relu_0_split -> res2a_res2a_relu_0_split_1
I0711 10:50:47.161630 28432 net.cpp:150] Setting up res2a_res2a_relu_0_split
I0711 10:50:47.161638 28432 net.cpp:157] Top shape: 1 256 240 320 (19660800)
I0711 10:50:47.161641 28432 net.cpp:157] Top shape: 1 256 240 320 (19660800)
I0711 10:50:47.161643 28432 net.cpp:165] Memory required for data: 1376256168
I0711 10:50:47.161646 28432 layer_factory.hpp:77] Creating layer res2b_branch2a
I0711 10:50:47.161659 28432 net.cpp:100] Creating Layer res2b_branch2a
I0711 10:50:47.161664 28432 net.cpp:444] res2b_branch2a <- res2a_res2a_relu_0_split_0
I0711 10:50:47.161675 28432 net.cpp:418] res2b_branch2a -> res2b_branch2a
I0711 10:50:47.162554 28432 cudnn_conv_layer.cpp:194] Reallocating workspace storage: 1388952
I0711 10:50:47.162765 28432 net.cpp:150] Setting up res2b_branch2a
I0711 10:50:47.162775 28432 net.cpp:157] Top shape: 1 64 240 320 (4915200)
I0711 10:50:47.162778 28432 net.cpp:165] Memory required for data: 1395916968
I0711 10:50:47.162791 28432 layer_factory.hpp:77] Creating layer bn2b_branch2a
I0711 10:50:47.162804 28432 net.cpp:100] Creating Layer bn2b_branch2a
I0711 10:50:47.162811 28432 net.cpp:444] bn2b_branch2a <- res2b_branch2a
I0711 10:50:47.162822 28432 net.cpp:405] bn2b_branch2a -> res2b_branch2a (in-place)
I0711 10:50:47.163085 28432 net.cpp:150] Setting up bn2b_branch2a
I0711 10:50:47.163091 28432 net.cpp:157] Top shape: 1 64 240 320 (4915200)
I0711 10:50:47.163094 28432 net.cpp:165] Memory required for data: 1415577768
I0711 10:50:47.163120 28432 layer_factory.hpp:77] Creating layer scale2b_branch2a
I0711 10:50:47.163133 28432 net.cpp:100] Creating Layer scale2b_branch2a
I0711 10:50:47.163138 28432 net.cpp:444] scale2b_branch2a <- res2b_branch2a
I0711 10:50:47.163148 28432 net.cpp:405] scale2b_branch2a -> res2b_branch2a (in-place)
I0711 10:50:47.163192 28432 layer_factory.hpp:77] Creating layer scale2b_branch2a
I0711 10:50:47.164046 28432 net.cpp:150] Setting up scale2b_branch2a
I0711 10:50:47.164054 28432 net.cpp:157] Top shape: 1 64 240 320 (4915200)
I0711 10:50:47.164057 28432 net.cpp:165] Memory required for data: 1435238568
I0711 10:50:47.164068 28432 layer_factory.hpp:77] Creating layer res2b_branch2a_relu
I0711 10:50:47.164080 28432 net.cpp:100] Creating Layer res2b_branch2a_relu
I0711 10:50:47.164086 28432 net.cpp:444] res2b_branch2a_relu <- res2b_branch2a
I0711 10:50:47.164098 28432 net.cpp:405] res2b_branch2a_relu -> res2b_branch2a (in-place)
I0711 10:50:47.164242 28432 net.cpp:150] Setting up res2b_branch2a_relu
I0711 10:50:47.164249 28432 net.cpp:157] Top shape: 1 64 240 320 (4915200)
I0711 10:50:47.164252 28432 net.cpp:165] Memory required for data: 1454899368
I0711 10:50:47.164254 28432 layer_factory.hpp:77] Creating layer res2b_branch2b
I0711 10:50:47.164275 28432 net.cpp:100] Creating Layer res2b_branch2b
I0711 10:50:47.164281 28432 net.cpp:444] res2b_branch2b <- res2b_branch2a
I0711 10:50:47.164295 28432 net.cpp:418] res2b_branch2b -> res2b_branch2b
I0711 10:50:47.165071 28432 cudnn_conv_layer.cpp:194] Reallocating workspace storage: 786432
I0711 10:50:47.165084 28432 net.cpp:150] Setting up res2b_branch2b
I0711 10:50:47.165091 28432 net.cpp:157] Top shape: 1 64 240 320 (4915200)
I0711 10:50:47.165093 28432 net.cpp:165] Memory required for data: 1474560168
I0711 10:50:47.165103 28432 layer_factory.hpp:77] Creating layer bn2b_branch2b
I0711 10:50:47.165117 28432 net.cpp:100] Creating Layer bn2b_branch2b
I0711 10:50:47.165122 28432 net.cpp:444] bn2b_branch2b <- res2b_branch2b
I0711 10:50:47.165133 28432 net.cpp:405] bn2b_branch2b -> res2b_branch2b (in-place)
I0711 10:50:47.165388 28432 net.cpp:150] Setting up bn2b_branch2b
I0711 10:50:47.165395 28432 net.cpp:157] Top shape: 1 64 240 320 (4915200)
I0711 10:50:47.165396 28432 net.cpp:165] Memory required for data: 1494220968
I0711 10:50:47.165410 28432 layer_factory.hpp:77] Creating layer scale2b_branch2b
I0711 10:50:47.165422 28432 net.cpp:100] Creating Layer scale2b_branch2b
I0711 10:50:47.165427 28432 net.cpp:444] scale2b_branch2b <- res2b_branch2b
I0711 10:50:47.165438 28432 net.cpp:405] scale2b_branch2b -> res2b_branch2b (in-place)
I0711 10:50:47.165482 28432 layer_factory.hpp:77] Creating layer scale2b_branch2b
I0711 10:50:47.165801 28432 net.cpp:150] Setting up scale2b_branch2b
I0711 10:50:47.165808 28432 net.cpp:157] Top shape: 1 64 240 320 (4915200)
I0711 10:50:47.165810 28432 net.cpp:165] Memory required for data: 1513881768
I0711 10:50:47.165819 28432 layer_factory.hpp:77] Creating layer res2b_branch2b_relu
I0711 10:50:47.165828 28432 net.cpp:100] Creating Layer res2b_branch2b_relu
I0711 10:50:47.165833 28432 net.cpp:444] res2b_branch2b_relu <- res2b_branch2b
I0711 10:50:47.165843 28432 net.cpp:405] res2b_branch2b_relu -> res2b_branch2b (in-place)
I0711 10:50:47.166167 28432 net.cpp:150] Setting up res2b_branch2b_relu
I0711 10:50:47.166175 28432 net.cpp:157] Top shape: 1 64 240 320 (4915200)
I0711 10:50:47.166177 28432 net.cpp:165] Memory required for data: 1533542568
I0711 10:50:47.166182 28432 layer_factory.hpp:77] Creating layer res2b_branch2c
I0711 10:50:47.166195 28432 net.cpp:100] Creating Layer res2b_branch2c
I0711 10:50:47.166201 28432 net.cpp:444] res2b_branch2c <- res2b_branch2b
I0711 10:50:47.166214 28432 net.cpp:418] res2b_branch2c -> res2b_branch2c
I0711 10:50:47.166941 28432 cudnn_conv_layer.cpp:194] Reallocating workspace storage: 1388952
I0711 10:50:47.167140 28432 net.cpp:150] Setting up res2b_branch2c
I0711 10:50:47.167148 28432 net.cpp:157] Top shape: 1 256 240 320 (19660800)
I0711 10:50:47.167151 28432 net.cpp:165] Memory required for data: 1612185768
I0711 10:50:47.167161 28432 layer_factory.hpp:77] Creating layer bn2b_branch2c
I0711 10:50:47.167174 28432 net.cpp:100] Creating Layer bn2b_branch2c
I0711 10:50:47.167179 28432 net.cpp:444] bn2b_branch2c <- res2b_branch2c
I0711 10:50:47.167191 28432 net.cpp:405] bn2b_branch2c -> res2b_branch2c (in-place)
I0711 10:50:47.167444 28432 net.cpp:150] Setting up bn2b_branch2c
I0711 10:50:47.167450 28432 net.cpp:157] Top shape: 1 256 240 320 (19660800)
I0711 10:50:47.167452 28432 net.cpp:165] Memory required for data: 1690828968
I0711 10:50:47.167466 28432 layer_factory.hpp:77] Creating layer scale2b_branch2c
I0711 10:50:47.167479 28432 net.cpp:100] Creating Layer scale2b_branch2c
I0711 10:50:47.167484 28432 net.cpp:444] scale2b_branch2c <- res2b_branch2c
I0711 10:50:47.167492 28432 net.cpp:405] scale2b_branch2c -> res2b_branch2c (in-place)
I0711 10:50:47.167536 28432 layer_factory.hpp:77] Creating layer scale2b_branch2c
I0711 10:50:47.168370 28432 net.cpp:150] Setting up scale2b_branch2c
I0711 10:50:47.168378 28432 net.cpp:157] Top shape: 1 256 240 320 (19660800)
I0711 10:50:47.168380 28432 net.cpp:165] Memory required for data: 1769472168
I0711 10:50:47.168391 28432 layer_factory.hpp:77] Creating layer res2b
I0711 10:50:47.168403 28432 net.cpp:100] Creating Layer res2b
I0711 10:50:47.168409 28432 net.cpp:444] res2b <- res2a_res2a_relu_0_split_1
I0711 10:50:47.168418 28432 net.cpp:444] res2b <- res2b_branch2c
I0711 10:50:47.168426 28432 net.cpp:418] res2b -> res2b
I0711 10:50:47.168462 28432 net.cpp:150] Setting up res2b
I0711 10:50:47.168468 28432 net.cpp:157] Top shape: 1 256 240 320 (19660800)
I0711 10:50:47.168471 28432 net.cpp:165] Memory required for data: 1848115368
I0711 10:50:47.168474 28432 layer_factory.hpp:77] Creating layer res2b_relu
I0711 10:50:47.168483 28432 net.cpp:100] Creating Layer res2b_relu
I0711 10:50:47.168488 28432 net.cpp:444] res2b_relu <- res2b
I0711 10:50:47.168496 28432 net.cpp:405] res2b_relu -> res2b (in-place)
I0711 10:50:47.168629 28432 net.cpp:150] Setting up res2b_relu
I0711 10:50:47.168637 28432 net.cpp:157] Top shape: 1 256 240 320 (19660800)
I0711 10:50:47.168638 28432 net.cpp:165] Memory required for data: 1926758568
I0711 10:50:47.168642 28432 layer_factory.hpp:77] Creating layer res2b_res2b_relu_0_split
I0711 10:50:47.168650 28432 net.cpp:100] Creating Layer res2b_res2b_relu_0_split
I0711 10:50:47.168654 28432 net.cpp:444] res2b_res2b_relu_0_split <- res2b
I0711 10:50:47.168665 28432 net.cpp:418] res2b_res2b_relu_0_split -> res2b_res2b_relu_0_split_0
I0711 10:50:47.168676 28432 net.cpp:418] res2b_res2b_relu_0_split -> res2b_res2b_relu_0_split_1
I0711 10:50:47.168712 28432 net.cpp:150] Setting up res2b_res2b_relu_0_split
I0711 10:50:47.168720 28432 net.cpp:157] Top shape: 1 256 240 320 (19660800)
I0711 10:50:47.168723 28432 net.cpp:157] Top shape: 1 256 240 320 (19660800)
I0711 10:50:47.168725 28432 net.cpp:165] Memory required for data: 2084044968
I0711 10:50:47.168728 28432 layer_factory.hpp:77] Creating layer res2c_branch2a
I0711 10:50:47.168740 28432 net.cpp:100] Creating Layer res2c_branch2a
I0711 10:50:47.168745 28432 net.cpp:444] res2c_branch2a <- res2b_res2b_relu_0_split_0
I0711 10:50:47.168756 28432 net.cpp:418] res2c_branch2a -> res2c_branch2a
I0711 10:50:47.169514 28432 cudnn_conv_layer.cpp:194] Reallocating workspace storage: 1388952
I0711 10:50:47.169728 28432 net.cpp:150] Setting up res2c_branch2a
I0711 10:50:47.169740 28432 net.cpp:157] Top shape: 1 64 240 320 (4915200)
I0711 10:50:47.169744 28432 net.cpp:165] Memory required for data: 2103705768
I0711 10:50:47.169754 28432 layer_factory.hpp:77] Creating layer bn2c_branch2a
I0711 10:50:47.169767 28432 net.cpp:100] Creating Layer bn2c_branch2a
I0711 10:50:47.169772 28432 net.cpp:444] bn2c_branch2a <- res2c_branch2a
I0711 10:50:47.169785 28432 net.cpp:405] bn2c_branch2a -> res2c_branch2a (in-place)
I0711 10:50:47.170043 28432 net.cpp:150] Setting up bn2c_branch2a
I0711 10:50:47.170049 28432 net.cpp:157] Top shape: 1 64 240 320 (4915200)
I0711 10:50:47.170051 28432 net.cpp:165] Memory required for data: 2123366568
I0711 10:50:47.170065 28432 layer_factory.hpp:77] Creating layer scale2c_branch2a
I0711 10:50:47.170078 28432 net.cpp:100] Creating Layer scale2c_branch2a
I0711 10:50:47.170083 28432 net.cpp:444] scale2c_branch2a <- res2c_branch2a
I0711 10:50:47.170092 28432 net.cpp:405] scale2c_branch2a -> res2c_branch2a (in-place)
I0711 10:50:47.170135 28432 layer_factory.hpp:77] Creating layer scale2c_branch2a
I0711 10:50:47.170452 28432 net.cpp:150] Setting up scale2c_branch2a
I0711 10:50:47.170459 28432 net.cpp:157] Top shape: 1 64 240 320 (4915200)
I0711 10:50:47.170461 28432 net.cpp:165] Memory required for data: 2143027368
I0711 10:50:47.170470 28432 layer_factory.hpp:77] Creating layer res2c_branch2a_relu
I0711 10:50:47.170480 28432 net.cpp:100] Creating Layer res2c_branch2a_relu
I0711 10:50:47.170485 28432 net.cpp:444] res2c_branch2a_relu <- res2c_branch2a
I0711 10:50:47.170493 28432 net.cpp:405] res2c_branch2a_relu -> res2c_branch2a (in-place)
I0711 10:50:47.170621 28432 net.cpp:150] Setting up res2c_branch2a_relu
I0711 10:50:47.170627 28432 net.cpp:157] Top shape: 1 64 240 320 (4915200)
I0711 10:50:47.170629 28432 net.cpp:165] Memory required for data: 2162688168
I0711 10:50:47.170632 28432 layer_factory.hpp:77] Creating layer res2c_branch2b
I0711 10:50:47.170645 28432 net.cpp:100] Creating Layer res2c_branch2b
I0711 10:50:47.170650 28432 net.cpp:444] res2c_branch2b <- res2c_branch2a
I0711 10:50:47.170662 28432 net.cpp:418] res2c_branch2b -> res2c_branch2b
I0711 10:50:47.171423 28432 cudnn_conv_layer.cpp:194] Reallocating workspace storage: 786432
I0711 10:50:47.171623 28432 net.cpp:150] Setting up res2c_branch2b
I0711 10:50:47.171633 28432 net.cpp:157] Top shape: 1 64 240 320 (4915200)
I0711 10:50:47.171635 28432 net.cpp:165] Memory required for data: 2182348968
I0711 10:50:47.171646 28432 layer_factory.hpp:77] Creating layer bn2c_branch2b
I0711 10:50:47.171658 28432 net.cpp:100] Creating Layer bn2c_branch2b
I0711 10:50:47.171663 28432 net.cpp:444] bn2c_branch2b <- res2c_branch2b
I0711 10:50:47.171675 28432 net.cpp:405] bn2c_branch2b -> res2c_branch2b (in-place)
I0711 10:50:47.171936 28432 net.cpp:150] Setting up bn2c_branch2b
I0711 10:50:47.171941 28432 net.cpp:157] Top shape: 1 64 240 320 (4915200)
I0711 10:50:47.171943 28432 net.cpp:165] Memory required for data: 2202009768
I0711 10:50:47.171958 28432 layer_factory.hpp:77] Creating layer scale2c_branch2b
I0711 10:50:47.171969 28432 net.cpp:100] Creating Layer scale2c_branch2b
I0711 10:50:47.171974 28432 net.cpp:444] scale2c_branch2b <- res2c_branch2b
I0711 10:50:47.171984 28432 net.cpp:405] scale2c_branch2b -> res2c_branch2b (in-place)
I0711 10:50:47.172027 28432 layer_factory.hpp:77] Creating layer scale2c_branch2b
I0711 10:50:47.172858 28432 net.cpp:150] Setting up scale2c_branch2b
I0711 10:50:47.172868 28432 net.cpp:157] Top shape: 1 64 240 320 (4915200)
I0711 10:50:47.172869 28432 net.cpp:165] Memory required for data: 2221670568
I0711 10:50:47.172881 28432 layer_factory.hpp:77] Creating layer res2c_branch2b_relu
I0711 10:50:47.172893 28432 net.cpp:100] Creating Layer res2c_branch2b_relu
I0711 10:50:47.172897 28432 net.cpp:444] res2c_branch2b_relu <- res2c_branch2b
I0711 10:50:47.172909 28432 net.cpp:405] res2c_branch2b_relu -> res2c_branch2b (in-place)
I0711 10:50:47.173044 28432 net.cpp:150] Setting up res2c_branch2b_relu
I0711 10:50:47.173050 28432 net.cpp:157] Top shape: 1 64 240 320 (4915200)
I0711 10:50:47.173053 28432 net.cpp:165] Memory required for data: 2241331368
I0711 10:50:47.173055 28432 layer_factory.hpp:77] Creating layer res2c_branch2c
I0711 10:50:47.173069 28432 net.cpp:100] Creating Layer res2c_branch2c
I0711 10:50:47.173074 28432 net.cpp:444] res2c_branch2c <- res2c_branch2b
I0711 10:50:47.173086 28432 net.cpp:418] res2c_branch2c -> res2c_branch2c
I0711 10:50:47.173837 28432 cudnn_conv_layer.cpp:194] Reallocating workspace storage: 1388952
I0711 10:50:47.174039 28432 net.cpp:150] Setting up res2c_branch2c
I0711 10:50:47.174049 28432 net.cpp:157] Top shape: 1 256 240 320 (19660800)
I0711 10:50:47.174052 28432 net.cpp:165] Memory required for data: 2319974568
I0711 10:50:47.174062 28432 layer_factory.hpp:77] Creating layer bn2c_branch2c
I0711 10:50:47.174075 28432 net.cpp:100] Creating Layer bn2c_branch2c
I0711 10:50:47.174080 28432 net.cpp:444] bn2c_branch2c <- res2c_branch2c
I0711 10:50:47.174091 28432 net.cpp:405] bn2c_branch2c -> res2c_branch2c (in-place)
I0711 10:50:47.174350 28432 net.cpp:150] Setting up bn2c_branch2c
I0711 10:50:47.174356 28432 net.cpp:157] Top shape: 1 256 240 320 (19660800)
I0711 10:50:47.174358 28432 net.cpp:165] Memory required for data: 2398617768
I0711 10:50:47.174388 28432 layer_factory.hpp:77] Creating layer scale2c_branch2c
I0711 10:50:47.174401 28432 net.cpp:100] Creating Layer scale2c_branch2c
I0711 10:50:47.174407 28432 net.cpp:444] scale2c_branch2c <- res2c_branch2c
I0711 10:50:47.174417 28432 net.cpp:405] scale2c_branch2c -> res2c_branch2c (in-place)
I0711 10:50:47.174461 28432 layer_factory.hpp:77] Creating layer scale2c_branch2c
I0711 10:50:47.174773 28432 net.cpp:150] Setting up scale2c_branch2c
I0711 10:50:47.174780 28432 net.cpp:157] Top shape: 1 256 240 320 (19660800)
I0711 10:50:47.174782 28432 net.cpp:165] Memory required for data: 2477260968
I0711 10:50:47.174793 28432 layer_factory.hpp:77] Creating layer res2c
I0711 10:50:47.174803 28432 net.cpp:100] Creating Layer res2c
I0711 10:50:47.174808 28432 net.cpp:444] res2c <- res2b_res2b_relu_0_split_1
I0711 10:50:47.174816 28432 net.cpp:444] res2c <- res2c_branch2c
I0711 10:50:47.174825 28432 net.cpp:418] res2c -> res2c
I0711 10:50:47.174854 28432 net.cpp:150] Setting up res2c
I0711 10:50:47.174862 28432 net.cpp:157] Top shape: 1 256 240 320 (19660800)
I0711 10:50:47.174865 28432 net.cpp:165] Memory required for data: 2555904168
I0711 10:50:47.174867 28432 layer_factory.hpp:77] Creating layer res2c_relu
I0711 10:50:47.174875 28432 net.cpp:100] Creating Layer res2c_relu
I0711 10:50:47.174880 28432 net.cpp:444] res2c_relu <- res2c
I0711 10:50:47.174888 28432 net.cpp:405] res2c_relu -> res2c (in-place)
I0711 10:50:47.175211 28432 net.cpp:150] Setting up res2c_relu
I0711 10:50:47.175220 28432 net.cpp:157] Top shape: 1 256 240 320 (19660800)
I0711 10:50:47.175221 28432 net.cpp:165] Memory required for data: 2634547368
I0711 10:50:47.175225 28432 layer_factory.hpp:77] Creating layer res2c_res2c_relu_0_split
I0711 10:50:47.175235 28432 net.cpp:100] Creating Layer res2c_res2c_relu_0_split
I0711 10:50:47.175240 28432 net.cpp:444] res2c_res2c_relu_0_split <- res2c
I0711 10:50:47.175253 28432 net.cpp:418] res2c_res2c_relu_0_split -> res2c_res2c_relu_0_split_0
I0711 10:50:47.175266 28432 net.cpp:418] res2c_res2c_relu_0_split -> res2c_res2c_relu_0_split_1
I0711 10:50:47.175303 28432 net.cpp:150] Setting up res2c_res2c_relu_0_split
I0711 10:50:47.175310 28432 net.cpp:157] Top shape: 1 256 240 320 (19660800)
I0711 10:50:47.175314 28432 net.cpp:157] Top shape: 1 256 240 320 (19660800)
I0711 10:50:47.175317 28432 net.cpp:165] Memory required for data: 2791833768
I0711 10:50:47.175319 28432 layer_factory.hpp:77] Creating layer res3a_branch1
I0711 10:50:47.175330 28432 net.cpp:100] Creating Layer res3a_branch1
I0711 10:50:47.175336 28432 net.cpp:444] res3a_branch1 <- res2c_res2c_relu_0_split_0
I0711 10:50:47.175348 28432 net.cpp:418] res3a_branch1 -> res3a_branch1
I0711 10:50:47.176302 28432 cudnn_conv_layer.cpp:194] Reallocating workspace storage: 345624
I0711 10:50:47.176319 28432 net.cpp:150] Setting up res3a_branch1
I0711 10:50:47.176328 28432 net.cpp:157] Top shape: 1 512 120 160 (9830400)
I0711 10:50:47.176331 28432 net.cpp:165] Memory required for data: 2831155368
I0711 10:50:47.176342 28432 layer_factory.hpp:77] Creating layer bn3a_branch1
I0711 10:50:47.176357 28432 net.cpp:100] Creating Layer bn3a_branch1
I0711 10:50:47.176362 28432 net.cpp:444] bn3a_branch1 <- res3a_branch1
I0711 10:50:47.176374 28432 net.cpp:405] bn3a_branch1 -> res3a_branch1 (in-place)
I0711 10:50:47.177093 28432 net.cpp:150] Setting up bn3a_branch1
I0711 10:50:47.177100 28432 net.cpp:157] Top shape: 1 512 120 160 (9830400)
I0711 10:50:47.177103 28432 net.cpp:165] Memory required for data: 2870476968
I0711 10:50:47.177120 28432 layer_factory.hpp:77] Creating layer scale3a_branch1
I0711 10:50:47.177135 28432 net.cpp:100] Creating Layer scale3a_branch1
I0711 10:50:47.177140 28432 net.cpp:444] scale3a_branch1 <- res3a_branch1
I0711 10:50:47.177152 28432 net.cpp:405] scale3a_branch1 -> res3a_branch1 (in-place)
I0711 10:50:47.177196 28432 layer_factory.hpp:77] Creating layer scale3a_branch1
I0711 10:50:47.177353 28432 net.cpp:150] Setting up scale3a_branch1
I0711 10:50:47.177359 28432 net.cpp:157] Top shape: 1 512 120 160 (9830400)
I0711 10:50:47.177361 28432 net.cpp:165] Memory required for data: 2909798568
I0711 10:50:47.177371 28432 layer_factory.hpp:77] Creating layer res3a_branch2a
I0711 10:50:47.177386 28432 net.cpp:100] Creating Layer res3a_branch2a
I0711 10:50:47.177392 28432 net.cpp:444] res3a_branch2a <- res2c_res2c_relu_0_split_1
I0711 10:50:47.177404 28432 net.cpp:418] res3a_branch2a -> res3a_branch2a
I0711 10:50:47.178234 28432 cudnn_conv_layer.cpp:194] Reallocating workspace storage: 345624
I0711 10:50:47.178252 28432 net.cpp:150] Setting up res3a_branch2a
I0711 10:50:47.178259 28432 net.cpp:157] Top shape: 1 128 120 160 (2457600)
I0711 10:50:47.178262 28432 net.cpp:165] Memory required for data: 2919628968
I0711 10:50:47.178272 28432 layer_factory.hpp:77] Creating layer bn3a_branch2a
I0711 10:50:47.178284 28432 net.cpp:100] Creating Layer bn3a_branch2a
I0711 10:50:47.178290 28432 net.cpp:444] bn3a_branch2a <- res3a_branch2a
I0711 10:50:47.178302 28432 net.cpp:405] bn3a_branch2a -> res3a_branch2a (in-place)
I0711 10:50:47.178478 28432 net.cpp:150] Setting up bn3a_branch2a
I0711 10:50:47.178483 28432 net.cpp:157] Top shape: 1 128 120 160 (2457600)
I0711 10:50:47.178484 28432 net.cpp:165] Memory required for data: 2929459368
I0711 10:50:47.178499 28432 layer_factory.hpp:77] Creating layer scale3a_branch2a
I0711 10:50:47.178511 28432 net.cpp:100] Creating Layer scale3a_branch2a
I0711 10:50:47.178515 28432 net.cpp:444] scale3a_branch2a <- res3a_branch2a
I0711 10:50:47.178525 28432 net.cpp:405] scale3a_branch2a -> res3a_branch2a (in-place)
I0711 10:50:47.178570 28432 layer_factory.hpp:77] Creating layer scale3a_branch2a
I0711 10:50:47.178725 28432 net.cpp:150] Setting up scale3a_branch2a
I0711 10:50:47.178730 28432 net.cpp:157] Top shape: 1 128 120 160 (2457600)
I0711 10:50:47.178733 28432 net.cpp:165] Memory required for data: 2939289768
I0711 10:50:47.178742 28432 layer_factory.hpp:77] Creating layer res3a_branch2a_relu
I0711 10:50:47.178752 28432 net.cpp:100] Creating Layer res3a_branch2a_relu
I0711 10:50:47.178757 28432 net.cpp:444] res3a_branch2a_relu <- res3a_branch2a
I0711 10:50:47.178766 28432 net.cpp:405] res3a_branch2a_relu -> res3a_branch2a (in-place)
I0711 10:50:47.178894 28432 net.cpp:150] Setting up res3a_branch2a_relu
I0711 10:50:47.178900 28432 net.cpp:157] Top shape: 1 128 120 160 (2457600)
I0711 10:50:47.178902 28432 net.cpp:165] Memory required for data: 2949120168
I0711 10:50:47.178906 28432 layer_factory.hpp:77] Creating layer res3a_branch2b
I0711 10:50:47.178920 28432 net.cpp:100] Creating Layer res3a_branch2b
I0711 10:50:47.178925 28432 net.cpp:444] res3a_branch2b <- res3a_branch2a
I0711 10:50:47.178936 28432 net.cpp:418] res3a_branch2b -> res3a_branch2b
I0711 10:50:47.180495 28432 cudnn_conv_layer.cpp:194] Reallocating workspace storage: 3145728
I0711 10:50:47.180706 28432 net.cpp:150] Setting up res3a_branch2b
I0711 10:50:47.180716 28432 net.cpp:157] Top shape: 1 128 120 160 (2457600)
I0711 10:50:47.180719 28432 net.cpp:165] Memory required for data: 2958950568
I0711 10:50:47.180732 28432 layer_factory.hpp:77] Creating layer bn3a_branch2b
I0711 10:50:47.180755 28432 net.cpp:100] Creating Layer bn3a_branch2b
I0711 10:50:47.180761 28432 net.cpp:444] bn3a_branch2b <- res3a_branch2b
I0711 10:50:47.180774 28432 net.cpp:405] bn3a_branch2b -> res3a_branch2b (in-place)
I0711 10:50:47.180956 28432 net.cpp:150] Setting up bn3a_branch2b
I0711 10:50:47.180963 28432 net.cpp:157] Top shape: 1 128 120 160 (2457600)
I0711 10:50:47.180964 28432 net.cpp:165] Memory required for data: 2968780968
I0711 10:50:47.180979 28432 layer_factory.hpp:77] Creating layer scale3a_branch2b
I0711 10:50:47.180992 28432 net.cpp:100] Creating Layer scale3a_branch2b
I0711 10:50:47.180999 28432 net.cpp:444] scale3a_branch2b <- res3a_branch2b
I0711 10:50:47.181007 28432 net.cpp:405] scale3a_branch2b -> res3a_branch2b (in-place)
I0711 10:50:47.181052 28432 layer_factory.hpp:77] Creating layer scale3a_branch2b
I0711 10:50:47.181208 28432 net.cpp:150] Setting up scale3a_branch2b
I0711 10:50:47.181215 28432 net.cpp:157] Top shape: 1 128 120 160 (2457600)
I0711 10:50:47.181216 28432 net.cpp:165] Memory required for data: 2978611368
I0711 10:50:47.181226 28432 layer_factory.hpp:77] Creating layer res3a_branch2b_relu
I0711 10:50:47.181236 28432 net.cpp:100] Creating Layer res3a_branch2b_relu
I0711 10:50:47.181241 28432 net.cpp:444] res3a_branch2b_relu <- res3a_branch2b
I0711 10:50:47.181251 28432 net.cpp:405] res3a_branch2b_relu -> res3a_branch2b (in-place)
I0711 10:50:47.181378 28432 net.cpp:150] Setting up res3a_branch2b_relu
I0711 10:50:47.181385 28432 net.cpp:157] Top shape: 1 128 120 160 (2457600)
I0711 10:50:47.181386 28432 net.cpp:165] Memory required for data: 2988441768
I0711 10:50:47.181391 28432 layer_factory.hpp:77] Creating layer res3a_branch2c
I0711 10:50:47.181403 28432 net.cpp:100] Creating Layer res3a_branch2c
I0711 10:50:47.181408 28432 net.cpp:444] res3a_branch2c <- res3a_branch2b
I0711 10:50:47.181421 28432 net.cpp:418] res3a_branch2c -> res3a_branch2c
I0711 10:50:47.182248 28432 cudnn_conv_layer.cpp:194] Reallocating workspace storage: 352152
I0711 10:50:47.182262 28432 net.cpp:150] Setting up res3a_branch2c
I0711 10:50:47.182269 28432 net.cpp:157] Top shape: 1 512 120 160 (9830400)
I0711 10:50:47.182271 28432 net.cpp:165] Memory required for data: 3027763368
I0711 10:50:47.182281 28432 layer_factory.hpp:77] Creating layer bn3a_branch2c
I0711 10:50:47.182293 28432 net.cpp:100] Creating Layer bn3a_branch2c
I0711 10:50:47.182298 28432 net.cpp:444] bn3a_branch2c <- res3a_branch2c
I0711 10:50:47.182312 28432 net.cpp:405] bn3a_branch2c -> res3a_branch2c (in-place)
I0711 10:50:47.182485 28432 net.cpp:150] Setting up bn3a_branch2c
I0711 10:50:47.182490 28432 net.cpp:157] Top shape: 1 512 120 160 (9830400)
I0711 10:50:47.182492 28432 net.cpp:165] Memory required for data: 3067084968
I0711 10:50:47.182507 28432 layer_factory.hpp:77] Creating layer scale3a_branch2c
I0711 10:50:47.182518 28432 net.cpp:100] Creating Layer scale3a_branch2c
I0711 10:50:47.182523 28432 net.cpp:444] scale3a_branch2c <- res3a_branch2c
I0711 10:50:47.182533 28432 net.cpp:405] scale3a_branch2c -> res3a_branch2c (in-place)
I0711 10:50:47.182574 28432 layer_factory.hpp:77] Creating layer scale3a_branch2c
I0711 10:50:47.182729 28432 net.cpp:150] Setting up scale3a_branch2c
I0711 10:50:47.182735 28432 net.cpp:157] Top shape: 1 512 120 160 (9830400)
I0711 10:50:47.182737 28432 net.cpp:165] Memory required for data: 3106406568
I0711 10:50:47.182747 28432 layer_factory.hpp:77] Creating layer res3a
I0711 10:50:47.182756 28432 net.cpp:100] Creating Layer res3a
I0711 10:50:47.182761 28432 net.cpp:444] res3a <- res3a_branch1
I0711 10:50:47.182770 28432 net.cpp:444] res3a <- res3a_branch2c
I0711 10:50:47.182777 28432 net.cpp:418] res3a -> res3a
I0711 10:50:47.182806 28432 net.cpp:150] Setting up res3a
I0711 10:50:47.182813 28432 net.cpp:157] Top shape: 1 512 120 160 (9830400)
I0711 10:50:47.182816 28432 net.cpp:165] Memory required for data: 3145728168
I0711 10:50:47.182819 28432 layer_factory.hpp:77] Creating layer res3a_relu
I0711 10:50:47.182827 28432 net.cpp:100] Creating Layer res3a_relu
I0711 10:50:47.182832 28432 net.cpp:444] res3a_relu <- res3a
I0711 10:50:47.182840 28432 net.cpp:405] res3a_relu -> res3a (in-place)
I0711 10:50:47.183166 28432 net.cpp:150] Setting up res3a_relu
I0711 10:50:47.183174 28432 net.cpp:157] Top shape: 1 512 120 160 (9830400)
I0711 10:50:47.183176 28432 net.cpp:165] Memory required for data: 3185049768
I0711 10:50:47.183182 28432 layer_factory.hpp:77] Creating layer res3a_res3a_relu_0_split
I0711 10:50:47.183192 28432 net.cpp:100] Creating Layer res3a_res3a_relu_0_split
I0711 10:50:47.183197 28432 net.cpp:444] res3a_res3a_relu_0_split <- res3a
I0711 10:50:47.183208 28432 net.cpp:418] res3a_res3a_relu_0_split -> res3a_res3a_relu_0_split_0
I0711 10:50:47.183221 28432 net.cpp:418] res3a_res3a_relu_0_split -> res3a_res3a_relu_0_split_1
I0711 10:50:47.183260 28432 net.cpp:150] Setting up res3a_res3a_relu_0_split
I0711 10:50:47.183267 28432 net.cpp:157] Top shape: 1 512 120 160 (9830400)
I0711 10:50:47.183270 28432 net.cpp:157] Top shape: 1 512 120 160 (9830400)
I0711 10:50:47.183272 28432 net.cpp:165] Memory required for data: 3263692968
I0711 10:50:47.183276 28432 layer_factory.hpp:77] Creating layer res3b_branch2a
I0711 10:50:47.183287 28432 net.cpp:100] Creating Layer res3b_branch2a
I0711 10:50:47.183293 28432 net.cpp:444] res3b_branch2a <- res3a_res3a_relu_0_split_0
I0711 10:50:47.183305 28432 net.cpp:418] res3b_branch2a -> res3b_branch2a
I0711 10:50:47.184116 28432 cudnn_conv_layer.cpp:194] Reallocating workspace storage: 352152
I0711 10:50:47.184134 28432 net.cpp:150] Setting up res3b_branch2a
I0711 10:50:47.184140 28432 net.cpp:157] Top shape: 1 128 120 160 (2457600)
I0711 10:50:47.184142 28432 net.cpp:165] Memory required for data: 3273523368
I0711 10:50:47.184152 28432 layer_factory.hpp:77] Creating layer bn3b_branch2a
I0711 10:50:47.184165 28432 net.cpp:100] Creating Layer bn3b_branch2a
I0711 10:50:47.184170 28432 net.cpp:444] bn3b_branch2a <- res3b_branch2a
I0711 10:50:47.184182 28432 net.cpp:405] bn3b_branch2a -> res3b_branch2a (in-place)
I0711 10:50:47.184357 28432 net.cpp:150] Setting up bn3b_branch2a
I0711 10:50:47.184363 28432 net.cpp:157] Top shape: 1 128 120 160 (2457600)
I0711 10:50:47.184365 28432 net.cpp:165] Memory required for data: 3283353768
I0711 10:50:47.184379 28432 layer_factory.hpp:77] Creating layer scale3b_branch2a
I0711 10:50:47.184391 28432 net.cpp:100] Creating Layer scale3b_branch2a
I0711 10:50:47.184396 28432 net.cpp:444] scale3b_branch2a <- res3b_branch2a
I0711 10:50:47.184406 28432 net.cpp:405] scale3b_branch2a -> res3b_branch2a (in-place)
I0711 10:50:47.184449 28432 layer_factory.hpp:77] Creating layer scale3b_branch2a
I0711 10:50:47.185147 28432 net.cpp:150] Setting up scale3b_branch2a
I0711 10:50:47.185155 28432 net.cpp:157] Top shape: 1 128 120 160 (2457600)
I0711 10:50:47.185158 28432 net.cpp:165] Memory required for data: 3293184168
I0711 10:50:47.185168 28432 layer_factory.hpp:77] Creating layer res3b_branch2a_relu
I0711 10:50:47.185178 28432 net.cpp:100] Creating Layer res3b_branch2a_relu
I0711 10:50:47.185184 28432 net.cpp:444] res3b_branch2a_relu <- res3b_branch2a
I0711 10:50:47.185194 28432 net.cpp:405] res3b_branch2a_relu -> res3b_branch2a (in-place)
I0711 10:50:47.185333 28432 net.cpp:150] Setting up res3b_branch2a_relu
I0711 10:50:47.185338 28432 net.cpp:157] Top shape: 1 128 120 160 (2457600)
I0711 10:50:47.185340 28432 net.cpp:165] Memory required for data: 3303014568
I0711 10:50:47.185344 28432 layer_factory.hpp:77] Creating layer res3b_branch2b
I0711 10:50:47.185358 28432 net.cpp:100] Creating Layer res3b_branch2b
I0711 10:50:47.185362 28432 net.cpp:444] res3b_branch2b <- res3b_branch2a
I0711 10:50:47.185374 28432 net.cpp:418] res3b_branch2b -> res3b_branch2b
I0711 10:50:47.186758 28432 cudnn_conv_layer.cpp:194] Reallocating workspace storage: 3145728
I0711 10:50:47.187052 28432 net.cpp:150] Setting up res3b_branch2b
I0711 10:50:47.187065 28432 net.cpp:157] Top shape: 1 128 120 160 (2457600)
I0711 10:50:47.187069 28432 net.cpp:165] Memory required for data: 3312844968
I0711 10:50:47.187083 28432 layer_factory.hpp:77] Creating layer bn3b_branch2b
I0711 10:50:47.187098 28432 net.cpp:100] Creating Layer bn3b_branch2b
I0711 10:50:47.187105 28432 net.cpp:444] bn3b_branch2b <- res3b_branch2b
I0711 10:50:47.187119 28432 net.cpp:405] bn3b_branch2b -> res3b_branch2b (in-place)
I0711 10:50:47.187364 28432 net.cpp:150] Setting up bn3b_branch2b
I0711 10:50:47.187371 28432 net.cpp:157] Top shape: 1 128 120 160 (2457600)
I0711 10:50:47.187376 28432 net.cpp:165] Memory required for data: 3322675368
I0711 10:50:47.187394 28432 layer_factory.hpp:77] Creating layer scale3b_branch2b
I0711 10:50:47.187408 28432 net.cpp:100] Creating Layer scale3b_branch2b
I0711 10:50:47.187415 28432 net.cpp:444] scale3b_branch2b <- res3b_branch2b
I0711 10:50:47.187428 28432 net.cpp:405] scale3b_branch2b -> res3b_branch2b (in-place)
I0711 10:50:47.187484 28432 layer_factory.hpp:77] Creating layer scale3b_branch2b
I0711 10:50:47.187686 28432 net.cpp:150] Setting up scale3b_branch2b
I0711 10:50:47.187695 28432 net.cpp:157] Top shape: 1 128 120 160 (2457600)
I0711 10:50:47.187697 28432 net.cpp:165] Memory required for data: 3332505768
I0711 10:50:47.187711 28432 layer_factory.hpp:77] Creating layer res3b_branch2b_relu
I0711 10:50:47.187721 28432 net.cpp:100] Creating Layer res3b_branch2b_relu
I0711 10:50:47.187727 28432 net.cpp:444] res3b_branch2b_relu <- res3b_branch2b
I0711 10:50:47.187739 28432 net.cpp:405] res3b_branch2b_relu -> res3b_branch2b (in-place)
I0711 10:50:47.187911 28432 net.cpp:150] Setting up res3b_branch2b_relu
I0711 10:50:47.187918 28432 net.cpp:157] Top shape: 1 128 120 160 (2457600)
I0711 10:50:47.187922 28432 net.cpp:165] Memory required for data: 3342336168
I0711 10:50:47.187927 28432 layer_factory.hpp:77] Creating layer res3b_branch2c
I0711 10:50:47.187942 28432 net.cpp:100] Creating Layer res3b_branch2c
I0711 10:50:47.187948 28432 net.cpp:444] res3b_branch2c <- res3b_branch2b
I0711 10:50:47.187963 28432 net.cpp:418] res3b_branch2c -> res3b_branch2c
I0711 10:50:47.189088 28432 cudnn_conv_layer.cpp:194] Reallocating workspace storage: 352152
I0711 10:50:47.189105 28432 net.cpp:150] Setting up res3b_branch2c
I0711 10:50:47.189113 28432 net.cpp:157] Top shape: 1 512 120 160 (9830400)
I0711 10:50:47.189116 28432 net.cpp:165] Memory required for data: 3381657768
I0711 10:50:47.189128 28432 layer_factory.hpp:77] Creating layer bn3b_branch2c
I0711 10:50:47.189142 28432 net.cpp:100] Creating Layer bn3b_branch2c
I0711 10:50:47.189149 28432 net.cpp:444] bn3b_branch2c <- res3b_branch2c
I0711 10:50:47.189164 28432 net.cpp:405] bn3b_branch2c -> res3b_branch2c (in-place)
I0711 10:50:47.189389 28432 net.cpp:150] Setting up bn3b_branch2c
I0711 10:50:47.189396 28432 net.cpp:157] Top shape: 1 512 120 160 (9830400)
I0711 10:50:47.189399 28432 net.cpp:165] Memory required for data: 3420979368
I0711 10:50:47.189415 28432 layer_factory.hpp:77] Creating layer scale3b_branch2c
I0711 10:50:47.189429 28432 net.cpp:100] Creating Layer scale3b_branch2c
I0711 10:50:47.189435 28432 net.cpp:444] scale3b_branch2c <- res3b_branch2c
I0711 10:50:47.189445 28432 net.cpp:405] scale3b_branch2c -> res3b_branch2c (in-place)
I0711 10:50:47.189491 28432 layer_factory.hpp:77] Creating layer scale3b_branch2c
I0711 10:50:47.189682 28432 net.cpp:150] Setting up scale3b_branch2c
I0711 10:50:47.189689 28432 net.cpp:157] Top shape: 1 512 120 160 (9830400)
I0711 10:50:47.189692 28432 net.cpp:165] Memory required for data: 3460300968
I0711 10:50:47.189703 28432 layer_factory.hpp:77] Creating layer res3b
I0711 10:50:47.189714 28432 net.cpp:100] Creating Layer res3b
I0711 10:50:47.189720 28432 net.cpp:444] res3b <- res3a_res3a_relu_0_split_1
I0711 10:50:47.189729 28432 net.cpp:444] res3b <- res3b_branch2c
I0711 10:50:47.189738 28432 net.cpp:418] res3b -> res3b
I0711 10:50:47.189771 28432 net.cpp:150] Setting up res3b
I0711 10:50:47.189779 28432 net.cpp:157] Top shape: 1 512 120 160 (9830400)
I0711 10:50:47.189781 28432 net.cpp:165] Memory required for data: 3499622568
I0711 10:50:47.189785 28432 layer_factory.hpp:77] Creating layer res3b_relu
I0711 10:50:47.189793 28432 net.cpp:100] Creating Layer res3b_relu
I0711 10:50:47.189798 28432 net.cpp:444] res3b_relu <- res3b
I0711 10:50:47.189807 28432 net.cpp:405] res3b_relu -> res3b (in-place)
I0711 10:50:47.190202 28432 net.cpp:150] Setting up res3b_relu
I0711 10:50:47.190210 28432 net.cpp:157] Top shape: 1 512 120 160 (9830400)
I0711 10:50:47.190213 28432 net.cpp:165] Memory required for data: 3538944168
I0711 10:50:47.190218 28432 layer_factory.hpp:77] Creating layer res3b_res3b_relu_0_split
I0711 10:50:47.190229 28432 net.cpp:100] Creating Layer res3b_res3b_relu_0_split
I0711 10:50:47.190235 28432 net.cpp:444] res3b_res3b_relu_0_split <- res3b
I0711 10:50:47.190248 28432 net.cpp:418] res3b_res3b_relu_0_split -> res3b_res3b_relu_0_split_0
I0711 10:50:47.190263 28432 net.cpp:418] res3b_res3b_relu_0_split -> res3b_res3b_relu_0_split_1
I0711 10:50:47.190306 28432 net.cpp:150] Setting up res3b_res3b_relu_0_split
I0711 10:50:47.190315 28432 net.cpp:157] Top shape: 1 512 120 160 (9830400)
I0711 10:50:47.190318 28432 net.cpp:157] Top shape: 1 512 120 160 (9830400)
I0711 10:50:47.190320 28432 net.cpp:165] Memory required for data: 3617587368
I0711 10:50:47.190325 28432 layer_factory.hpp:77] Creating layer res3c_branch2a
I0711 10:50:47.190337 28432 net.cpp:100] Creating Layer res3c_branch2a
I0711 10:50:47.190343 28432 net.cpp:444] res3c_branch2a <- res3b_res3b_relu_0_split_0
I0711 10:50:47.190356 28432 net.cpp:418] res3c_branch2a -> res3c_branch2a
I0711 10:50:47.191283 28432 cudnn_conv_layer.cpp:194] Reallocating workspace storage: 352152
I0711 10:50:47.191301 28432 net.cpp:150] Setting up res3c_branch2a
I0711 10:50:47.191308 28432 net.cpp:157] Top shape: 1 128 120 160 (2457600)
I0711 10:50:47.191311 28432 net.cpp:165] Memory required for data: 3627417768
I0711 10:50:47.191321 28432 layer_factory.hpp:77] Creating layer bn3c_branch2a
I0711 10:50:47.191335 28432 net.cpp:100] Creating Layer bn3c_branch2a
I0711 10:50:47.191342 28432 net.cpp:444] bn3c_branch2a <- res3c_branch2a
I0711 10:50:47.191354 28432 net.cpp:405] bn3c_branch2a -> res3c_branch2a (in-place)
I0711 10:50:47.191555 28432 net.cpp:150] Setting up bn3c_branch2a
I0711 10:50:47.191561 28432 net.cpp:157] Top shape: 1 128 120 160 (2457600)
I0711 10:50:47.191563 28432 net.cpp:165] Memory required for data: 3637248168
I0711 10:50:47.191581 28432 layer_factory.hpp:77] Creating layer scale3c_branch2a
I0711 10:50:47.191593 28432 net.cpp:100] Creating Layer scale3c_branch2a
I0711 10:50:47.191598 28432 net.cpp:444] scale3c_branch2a <- res3c_branch2a
I0711 10:50:47.191609 28432 net.cpp:405] scale3c_branch2a -> res3c_branch2a (in-place)
I0711 10:50:47.191658 28432 layer_factory.hpp:77] Creating layer scale3c_branch2a
I0711 10:50:47.191830 28432 net.cpp:150] Setting up scale3c_branch2a
I0711 10:50:47.191838 28432 net.cpp:157] Top shape: 1 128 120 160 (2457600)
I0711 10:50:47.191840 28432 net.cpp:165] Memory required for data: 3647078568
I0711 10:50:47.191851 28432 layer_factory.hpp:77] Creating layer res3c_branch2a_relu
I0711 10:50:47.191860 28432 net.cpp:100] Creating Layer res3c_branch2a_relu
I0711 10:50:47.191866 28432 net.cpp:444] res3c_branch2a_relu <- res3c_branch2a
I0711 10:50:47.191876 28432 net.cpp:405] res3c_branch2a_relu -> res3c_branch2a (in-place)
I0711 10:50:47.192011 28432 net.cpp:150] Setting up res3c_branch2a_relu
I0711 10:50:47.192018 28432 net.cpp:157] Top shape: 1 128 120 160 (2457600)
I0711 10:50:47.192021 28432 net.cpp:165] Memory required for data: 3656908968
I0711 10:50:47.192025 28432 layer_factory.hpp:77] Creating layer res3c_branch2b
I0711 10:50:47.192039 28432 net.cpp:100] Creating Layer res3c_branch2b
I0711 10:50:47.192044 28432 net.cpp:444] res3c_branch2b <- res3c_branch2a
I0711 10:50:47.192057 28432 net.cpp:418] res3c_branch2b -> res3c_branch2b
I0711 10:50:47.193111 28432 cudnn_conv_layer.cpp:194] Reallocating workspace storage: 3145728
I0711 10:50:47.193349 28432 net.cpp:150] Setting up res3c_branch2b
I0711 10:50:47.193361 28432 net.cpp:157] Top shape: 1 128 120 160 (2457600)
I0711 10:50:47.193363 28432 net.cpp:165] Memory required for data: 3666739368
I0711 10:50:47.193374 28432 layer_factory.hpp:77] Creating layer bn3c_branch2b
I0711 10:50:47.193387 28432 net.cpp:100] Creating Layer bn3c_branch2b
I0711 10:50:47.193392 28432 net.cpp:444] bn3c_branch2b <- res3c_branch2b
I0711 10:50:47.193404 28432 net.cpp:405] bn3c_branch2b -> res3c_branch2b (in-place)
I0711 10:50:47.193621 28432 net.cpp:150] Setting up bn3c_branch2b
I0711 10:50:47.193627 28432 net.cpp:157] Top shape: 1 128 120 160 (2457600)
I0711 10:50:47.193630 28432 net.cpp:165] Memory required for data: 3676569768
I0711 10:50:47.193647 28432 layer_factory.hpp:77] Creating layer scale3c_branch2b
I0711 10:50:47.193660 28432 net.cpp:100] Creating Layer scale3c_branch2b
I0711 10:50:47.193665 28432 net.cpp:444] scale3c_branch2b <- res3c_branch2b
I0711 10:50:47.193675 28432 net.cpp:405] scale3c_branch2b -> res3c_branch2b (in-place)
I0711 10:50:47.193724 28432 layer_factory.hpp:77] Creating layer scale3c_branch2b
I0711 10:50:47.193898 28432 net.cpp:150] Setting up scale3c_branch2b
I0711 10:50:47.193904 28432 net.cpp:157] Top shape: 1 128 120 160 (2457600)
I0711 10:50:47.193907 28432 net.cpp:165] Memory required for data: 3686400168
I0711 10:50:47.193918 28432 layer_factory.hpp:77] Creating layer res3c_branch2b_relu
I0711 10:50:47.193927 28432 net.cpp:100] Creating Layer res3c_branch2b_relu
I0711 10:50:47.193931 28432 net.cpp:444] res3c_branch2b_relu <- res3c_branch2b
I0711 10:50:47.193940 28432 net.cpp:405] res3c_branch2b_relu -> res3c_branch2b (in-place)
I0711 10:50:47.194082 28432 net.cpp:150] Setting up res3c_branch2b_relu
I0711 10:50:47.194087 28432 net.cpp:157] Top shape: 1 128 120 160 (2457600)
I0711 10:50:47.194089 28432 net.cpp:165] Memory required for data: 3696230568
I0711 10:50:47.194093 28432 layer_factory.hpp:77] Creating layer res3c_branch2c
I0711 10:50:47.194108 28432 net.cpp:100] Creating Layer res3c_branch2c
I0711 10:50:47.194113 28432 net.cpp:444] res3c_branch2c <- res3c_branch2b
I0711 10:50:47.194125 28432 net.cpp:418] res3c_branch2c -> res3c_branch2c
I0711 10:50:47.202863 28432 cudnn_conv_layer.cpp:194] Reallocating workspace storage: 352152
I0711 10:50:47.202878 28432 net.cpp:150] Setting up res3c_branch2c
I0711 10:50:47.202885 28432 net.cpp:157] Top shape: 1 512 120 160 (9830400)
I0711 10:50:47.202888 28432 net.cpp:165] Memory required for data: 3735552168
I0711 10:50:47.202898 28432 layer_factory.hpp:77] Creating layer bn3c_branch2c
I0711 10:50:47.202911 28432 net.cpp:100] Creating Layer bn3c_branch2c
I0711 10:50:47.202917 28432 net.cpp:444] bn3c_branch2c <- res3c_branch2c
I0711 10:50:47.202929 28432 net.cpp:405] bn3c_branch2c -> res3c_branch2c (in-place)
I0711 10:50:47.203111 28432 net.cpp:150] Setting up bn3c_branch2c
I0711 10:50:47.203119 28432 net.cpp:157] Top shape: 1 512 120 160 (9830400)
I0711 10:50:47.203120 28432 net.cpp:165] Memory required for data: 3774873768
I0711 10:50:47.203135 28432 layer_factory.hpp:77] Creating layer scale3c_branch2c
I0711 10:50:47.203146 28432 net.cpp:100] Creating Layer scale3c_branch2c
I0711 10:50:47.203150 28432 net.cpp:444] scale3c_branch2c <- res3c_branch2c
I0711 10:50:47.203161 28432 net.cpp:405] scale3c_branch2c -> res3c_branch2c (in-place)
I0711 10:50:47.203203 28432 layer_factory.hpp:77] Creating layer scale3c_branch2c
I0711 10:50:47.203366 28432 net.cpp:150] Setting up scale3c_branch2c
I0711 10:50:47.203372 28432 net.cpp:157] Top shape: 1 512 120 160 (9830400)
I0711 10:50:47.203374 28432 net.cpp:165] Memory required for data: 3814195368
I0711 10:50:47.203383 28432 layer_factory.hpp:77] Creating layer res3c
I0711 10:50:47.203392 28432 net.cpp:100] Creating Layer res3c
I0711 10:50:47.203397 28432 net.cpp:444] res3c <- res3b_res3b_relu_0_split_1
I0711 10:50:47.203405 28432 net.cpp:444] res3c <- res3c_branch2c
I0711 10:50:47.203411 28432 net.cpp:418] res3c -> res3c
I0711 10:50:47.203442 28432 net.cpp:150] Setting up res3c
I0711 10:50:47.203451 28432 net.cpp:157] Top shape: 1 512 120 160 (9830400)
I0711 10:50:47.203454 28432 net.cpp:165] Memory required for data: 3853516968
I0711 10:50:47.203457 28432 layer_factory.hpp:77] Creating layer res3c_relu
I0711 10:50:47.203465 28432 net.cpp:100] Creating Layer res3c_relu
I0711 10:50:47.203470 28432 net.cpp:444] res3c_relu <- res3c
I0711 10:50:47.203480 28432 net.cpp:405] res3c_relu -> res3c (in-place)
I0711 10:50:47.203608 28432 net.cpp:150] Setting up res3c_relu
I0711 10:50:47.203613 28432 net.cpp:157] Top shape: 1 512 120 160 (9830400)
I0711 10:50:47.203616 28432 net.cpp:165] Memory required for data: 3892838568
I0711 10:50:47.203619 28432 layer_factory.hpp:77] Creating layer res3c_res3c_relu_0_split
I0711 10:50:47.203629 28432 net.cpp:100] Creating Layer res3c_res3c_relu_0_split
I0711 10:50:47.203634 28432 net.cpp:444] res3c_res3c_relu_0_split <- res3c
I0711 10:50:47.203644 28432 net.cpp:418] res3c_res3c_relu_0_split -> res3c_res3c_relu_0_split_0
I0711 10:50:47.203657 28432 net.cpp:418] res3c_res3c_relu_0_split -> res3c_res3c_relu_0_split_1
I0711 10:50:47.203696 28432 net.cpp:150] Setting up res3c_res3c_relu_0_split
I0711 10:50:47.203702 28432 net.cpp:157] Top shape: 1 512 120 160 (9830400)
I0711 10:50:47.203706 28432 net.cpp:157] Top shape: 1 512 120 160 (9830400)
I0711 10:50:47.203707 28432 net.cpp:165] Memory required for data: 3971481768
I0711 10:50:47.203711 28432 layer_factory.hpp:77] Creating layer res3d_branch2a
I0711 10:50:47.203723 28432 net.cpp:100] Creating Layer res3d_branch2a
I0711 10:50:47.203729 28432 net.cpp:444] res3d_branch2a <- res3c_res3c_relu_0_split_0
I0711 10:50:47.203740 28432 net.cpp:418] res3d_branch2a -> res3d_branch2a
I0711 10:50:47.205217 28432 cudnn_conv_layer.cpp:194] Reallocating workspace storage: 352152
I0711 10:50:47.205235 28432 net.cpp:150] Setting up res3d_branch2a
I0711 10:50:47.205243 28432 net.cpp:157] Top shape: 1 128 120 160 (2457600)
I0711 10:50:47.205245 28432 net.cpp:165] Memory required for data: 3981312168
I0711 10:50:47.205257 28432 layer_factory.hpp:77] Creating layer bn3d_branch2a
I0711 10:50:47.205271 28432 net.cpp:100] Creating Layer bn3d_branch2a
I0711 10:50:47.205278 28432 net.cpp:444] bn3d_branch2a <- res3d_branch2a
I0711 10:50:47.205291 28432 net.cpp:405] bn3d_branch2a -> res3d_branch2a (in-place)
I0711 10:50:47.205473 28432 net.cpp:150] Setting up bn3d_branch2a
I0711 10:50:47.205479 28432 net.cpp:157] Top shape: 1 128 120 160 (2457600)
I0711 10:50:47.205482 28432 net.cpp:165] Memory required for data: 3991142568
I0711 10:50:47.205516 28432 layer_factory.hpp:77] Creating layer scale3d_branch2a
I0711 10:50:47.205530 28432 net.cpp:100] Creating Layer scale3d_branch2a
I0711 10:50:47.205536 28432 net.cpp:444] scale3d_branch2a <- res3d_branch2a
I0711 10:50:47.205546 28432 net.cpp:405] scale3d_branch2a -> res3d_branch2a (in-place)
I0711 10:50:47.205623 28432 layer_factory.hpp:77] Creating layer scale3d_branch2a
I0711 10:50:47.205781 28432 net.cpp:150] Setting up scale3d_branch2a
I0711 10:50:47.205787 28432 net.cpp:157] Top shape: 1 128 120 160 (2457600)
I0711 10:50:47.205790 28432 net.cpp:165] Memory required for data: 4000972968
I0711 10:50:47.205799 28432 layer_factory.hpp:77] Creating layer res3d_branch2a_relu
I0711 10:50:47.205809 28432 net.cpp:100] Creating Layer res3d_branch2a_relu
I0711 10:50:47.205814 28432 net.cpp:444] res3d_branch2a_relu <- res3d_branch2a
I0711 10:50:47.205824 28432 net.cpp:405] res3d_branch2a_relu -> res3d_branch2a (in-place)
I0711 10:50:47.206168 28432 net.cpp:150] Setting up res3d_branch2a_relu
I0711 10:50:47.206176 28432 net.cpp:157] Top shape: 1 128 120 160 (2457600)
I0711 10:50:47.206178 28432 net.cpp:165] Memory required for data: 4010803368
I0711 10:50:47.206183 28432 layer_factory.hpp:77] Creating layer res3d_branch2b
I0711 10:50:47.206198 28432 net.cpp:100] Creating Layer res3d_branch2b
I0711 10:50:47.206203 28432 net.cpp:444] res3d_branch2b <- res3d_branch2a
I0711 10:50:47.206218 28432 net.cpp:418] res3d_branch2b -> res3d_branch2b
I0711 10:50:47.207717 28432 cudnn_conv_layer.cpp:194] Reallocating workspace storage: 3145728
I0711 10:50:47.207928 28432 net.cpp:150] Setting up res3d_branch2b
I0711 10:50:47.207939 28432 net.cpp:157] Top shape: 1 128 120 160 (2457600)
I0711 10:50:47.207942 28432 net.cpp:165] Memory required for data: 4020633768
I0711 10:50:47.207952 28432 layer_factory.hpp:77] Creating layer bn3d_branch2b
I0711 10:50:47.207967 28432 net.cpp:100] Creating Layer bn3d_branch2b
I0711 10:50:47.207972 28432 net.cpp:444] bn3d_branch2b <- res3d_branch2b
I0711 10:50:47.207983 28432 net.cpp:405] bn3d_branch2b -> res3d_branch2b (in-place)
I0711 10:50:47.208173 28432 net.cpp:150] Setting up bn3d_branch2b
I0711 10:50:47.208178 28432 net.cpp:157] Top shape: 1 128 120 160 (2457600)
I0711 10:50:47.208180 28432 net.cpp:165] Memory required for data: 4030464168
I0711 10:50:47.208194 28432 layer_factory.hpp:77] Creating layer scale3d_branch2b
I0711 10:50:47.208206 28432 net.cpp:100] Creating Layer scale3d_branch2b
I0711 10:50:47.208211 28432 net.cpp:444] scale3d_branch2b <- res3d_branch2b
I0711 10:50:47.208221 28432 net.cpp:405] scale3d_branch2b -> res3d_branch2b (in-place)
I0711 10:50:47.208266 28432 layer_factory.hpp:77] Creating layer scale3d_branch2b
I0711 10:50:47.208423 28432 net.cpp:150] Setting up scale3d_branch2b
I0711 10:50:47.208431 28432 net.cpp:157] Top shape: 1 128 120 160 (2457600)
I0711 10:50:47.208431 28432 net.cpp:165] Memory required for data: 4040294568
I0711 10:50:47.208441 28432 layer_factory.hpp:77] Creating layer res3d_branch2b_relu
I0711 10:50:47.208451 28432 net.cpp:100] Creating Layer res3d_branch2b_relu
I0711 10:50:47.208454 28432 net.cpp:444] res3d_branch2b_relu <- res3d_branch2b
I0711 10:50:47.208464 28432 net.cpp:405] res3d_branch2b_relu -> res3d_branch2b (in-place)
I0711 10:50:47.208595 28432 net.cpp:150] Setting up res3d_branch2b_relu
I0711 10:50:47.208601 28432 net.cpp:157] Top shape: 1 128 120 160 (2457600)
I0711 10:50:47.208604 28432 net.cpp:165] Memory required for data: 4050124968
I0711 10:50:47.208607 28432 layer_factory.hpp:77] Creating layer res3d_branch2c
I0711 10:50:47.208621 28432 net.cpp:100] Creating Layer res3d_branch2c
I0711 10:50:47.208626 28432 net.cpp:444] res3d_branch2c <- res3d_branch2b
I0711 10:50:47.208638 28432 net.cpp:418] res3d_branch2c -> res3d_branch2c
I0711 10:50:47.209481 28432 cudnn_conv_layer.cpp:194] Reallocating workspace storage: 352152
I0711 10:50:47.209494 28432 net.cpp:150] Setting up res3d_branch2c
I0711 10:50:47.209501 28432 net.cpp:157] Top shape: 1 512 120 160 (9830400)
I0711 10:50:47.209504 28432 net.cpp:165] Memory required for data: 4089446568
I0711 10:50:47.209513 28432 layer_factory.hpp:77] Creating layer bn3d_branch2c
I0711 10:50:47.209527 28432 net.cpp:100] Creating Layer bn3d_branch2c
I0711 10:50:47.209532 28432 net.cpp:444] bn3d_branch2c <- res3d_branch2c
I0711 10:50:47.209543 28432 net.cpp:405] bn3d_branch2c -> res3d_branch2c (in-place)
I0711 10:50:47.209743 28432 net.cpp:150] Setting up bn3d_branch2c
I0711 10:50:47.209748 28432 net.cpp:157] Top shape: 1 512 120 160 (9830400)
I0711 10:50:47.209750 28432 net.cpp:165] Memory required for data: 4128768168
I0711 10:50:47.209765 28432 layer_factory.hpp:77] Creating layer scale3d_branch2c
I0711 10:50:47.209777 28432 net.cpp:100] Creating Layer scale3d_branch2c
I0711 10:50:47.209782 28432 net.cpp:444] scale3d_branch2c <- res3d_branch2c
I0711 10:50:47.209792 28432 net.cpp:405] scale3d_branch2c -> res3d_branch2c (in-place)
I0711 10:50:47.209836 28432 layer_factory.hpp:77] Creating layer scale3d_branch2c
I0711 10:50:47.209995 28432 net.cpp:150] Setting up scale3d_branch2c
I0711 10:50:47.210000 28432 net.cpp:157] Top shape: 1 512 120 160 (9830400)
I0711 10:50:47.210003 28432 net.cpp:165] Memory required for data: 4168089768
I0711 10:50:47.210012 28432 layer_factory.hpp:77] Creating layer res3d
I0711 10:50:47.210022 28432 net.cpp:100] Creating Layer res3d
I0711 10:50:47.210027 28432 net.cpp:444] res3d <- res3c_res3c_relu_0_split_1
I0711 10:50:47.210036 28432 net.cpp:444] res3d <- res3d_branch2c
I0711 10:50:47.210044 28432 net.cpp:418] res3d -> res3d
I0711 10:50:47.210075 28432 net.cpp:150] Setting up res3d
I0711 10:50:47.210083 28432 net.cpp:157] Top shape: 1 512 120 160 (9830400)
I0711 10:50:47.210085 28432 net.cpp:165] Memory required for data: 4207411368
I0711 10:50:47.210088 28432 layer_factory.hpp:77] Creating layer res3d_relu
I0711 10:50:47.210096 28432 net.cpp:100] Creating Layer res3d_relu
I0711 10:50:47.210100 28432 net.cpp:444] res3d_relu <- res3d
I0711 10:50:47.210110 28432 net.cpp:405] res3d_relu -> res3d (in-place)
I0711 10:50:47.210237 28432 net.cpp:150] Setting up res3d_relu
I0711 10:50:47.210242 28432 net.cpp:157] Top shape: 1 512 120 160 (9830400)
I0711 10:50:47.210244 28432 net.cpp:165] Memory required for data: 4246732968
I0711 10:50:47.210248 28432 layer_factory.hpp:77] Creating layer res3d_res3d_relu_0_split
I0711 10:50:47.210258 28432 net.cpp:100] Creating Layer res3d_res3d_relu_0_split
I0711 10:50:47.210261 28432 net.cpp:444] res3d_res3d_relu_0_split <- res3d
I0711 10:50:47.210273 28432 net.cpp:418] res3d_res3d_relu_0_split -> res3d_res3d_relu_0_split_0
I0711 10:50:47.210284 28432 net.cpp:418] res3d_res3d_relu_0_split -> res3d_res3d_relu_0_split_1
I0711 10:50:47.210322 28432 net.cpp:150] Setting up res3d_res3d_relu_0_split
I0711 10:50:47.210330 28432 net.cpp:157] Top shape: 1 512 120 160 (9830400)
I0711 10:50:47.210333 28432 net.cpp:157] Top shape: 1 512 120 160 (9830400)
I0711 10:50:47.210335 28432 net.cpp:165] Memory required for data: 4325376168
I0711 10:50:47.210338 28432 layer_factory.hpp:77] Creating layer res4a_branch1
I0711 10:50:47.210350 28432 net.cpp:100] Creating Layer res4a_branch1
I0711 10:50:47.210355 28432 net.cpp:444] res4a_branch1 <- res3d_res3d_relu_0_split_0
I0711 10:50:47.210367 28432 net.cpp:418] res4a_branch1 -> res4a_branch1
I0711 10:50:47.212565 28432 cudnn_conv_layer.cpp:194] Reallocating workspace storage: 86424
I0711 10:50:47.212800 28432 net.cpp:150] Setting up res4a_branch1
I0711 10:50:47.212816 28432 net.cpp:157] Top shape: 1 1024 60 80 (4915200)
I0711 10:50:47.212819 28432 net.cpp:165] Memory required for data: 4345036968
I0711 10:50:47.212839 28432 layer_factory.hpp:77] Creating layer bn4a_branch1
I0711 10:50:47.212863 28432 net.cpp:100] Creating Layer bn4a_branch1
I0711 10:50:47.212872 28432 net.cpp:444] bn4a_branch1 <- res4a_branch1
I0711 10:50:47.212888 28432 net.cpp:405] bn4a_branch1 -> res4a_branch1 (in-place)
I0711 10:50:47.213066 28432 net.cpp:150] Setting up bn4a_branch1
I0711 10:50:47.213073 28432 net.cpp:157] Top shape: 1 1024 60 80 (4915200)
I0711 10:50:47.213074 28432 net.cpp:165] Memory required for data: 4364697768
I0711 10:50:47.213089 28432 layer_factory.hpp:77] Creating layer scale4a_branch1
I0711 10:50:47.213102 28432 net.cpp:100] Creating Layer scale4a_branch1
I0711 10:50:47.213107 28432 net.cpp:444] scale4a_branch1 <- res4a_branch1
I0711 10:50:47.213117 28432 net.cpp:405] scale4a_branch1 -> res4a_branch1 (in-place)
I0711 10:50:47.213161 28432 layer_factory.hpp:77] Creating layer scale4a_branch1
I0711 10:50:47.213294 28432 net.cpp:150] Setting up scale4a_branch1
I0711 10:50:47.213300 28432 net.cpp:157] Top shape: 1 1024 60 80 (4915200)
I0711 10:50:47.213302 28432 net.cpp:165] Memory required for data: 4384358568
I0711 10:50:47.213312 28432 layer_factory.hpp:77] Creating layer res4a_branch2a
I0711 10:50:47.213327 28432 net.cpp:100] Creating Layer res4a_branch2a
I0711 10:50:47.213333 28432 net.cpp:444] res4a_branch2a <- res3d_res3d_relu_0_split_1
I0711 10:50:47.213346 28432 net.cpp:418] res4a_branch2a -> res4a_branch2a
I0711 10:50:47.214371 28432 cudnn_conv_layer.cpp:194] Reallocating workspace storage: 86424
I0711 10:50:47.214390 28432 net.cpp:150] Setting up res4a_branch2a
I0711 10:50:47.214401 28432 net.cpp:157] Top shape: 1 256 60 80 (1228800)
I0711 10:50:47.214402 28432 net.cpp:165] Memory required for data: 4389273768
I0711 10:50:47.214413 28432 layer_factory.hpp:77] Creating layer bn4a_branch2a
I0711 10:50:47.214429 28432 net.cpp:100] Creating Layer bn4a_branch2a
I0711 10:50:47.214437 28432 net.cpp:444] bn4a_branch2a <- res4a_branch2a
I0711 10:50:47.214454 28432 net.cpp:405] bn4a_branch2a -> res4a_branch2a (in-place)
I0711 10:50:47.214643 28432 net.cpp:150] Setting up bn4a_branch2a
I0711 10:50:47.214649 28432 net.cpp:157] Top shape: 1 256 60 80 (1228800)
I0711 10:50:47.214653 28432 net.cpp:165] Memory required for data: 4394188968
I0711 10:50:47.214668 28432 layer_factory.hpp:77] Creating layer scale4a_branch2a
I0711 10:50:47.214681 28432 net.cpp:100] Creating Layer scale4a_branch2a
I0711 10:50:47.214686 28432 net.cpp:444] scale4a_branch2a <- res4a_branch2a
I0711 10:50:47.214697 28432 net.cpp:405] scale4a_branch2a -> res4a_branch2a (in-place)
I0711 10:50:47.214743 28432 layer_factory.hpp:77] Creating layer scale4a_branch2a
I0711 10:50:47.214870 28432 net.cpp:150] Setting up scale4a_branch2a
I0711 10:50:47.214876 28432 net.cpp:157] Top shape: 1 256 60 80 (1228800)
I0711 10:50:47.214879 28432 net.cpp:165] Memory required for data: 4399104168
I0711 10:50:47.214889 28432 layer_factory.hpp:77] Creating layer res4a_branch2a_relu
I0711 10:50:47.214898 28432 net.cpp:100] Creating Layer res4a_branch2a_relu
I0711 10:50:47.214903 28432 net.cpp:444] res4a_branch2a_relu <- res4a_branch2a
I0711 10:50:47.214912 28432 net.cpp:405] res4a_branch2a_relu -> res4a_branch2a (in-place)
I0711 10:50:47.215276 28432 net.cpp:150] Setting up res4a_branch2a_relu
I0711 10:50:47.215283 28432 net.cpp:157] Top shape: 1 256 60 80 (1228800)
I0711 10:50:47.215286 28432 net.cpp:165] Memory required for data: 4404019368
I0711 10:50:47.215291 28432 layer_factory.hpp:77] Creating layer res4a_branch2b
I0711 10:50:47.215306 28432 net.cpp:100] Creating Layer res4a_branch2b
I0711 10:50:47.215312 28432 net.cpp:444] res4a_branch2b <- res4a_branch2a
I0711 10:50:47.215324 28432 net.cpp:418] res4a_branch2b -> res4a_branch2b
I0711 10:50:47.217538 28432 cudnn_conv_layer.cpp:194] Reallocating workspace storage: 12582912
I0711 10:50:47.217764 28432 net.cpp:150] Setting up res4a_branch2b
I0711 10:50:47.217777 28432 net.cpp:157] Top shape: 1 256 60 80 (1228800)
I0711 10:50:47.217780 28432 net.cpp:165] Memory required for data: 4408934568
I0711 10:50:47.217793 28432 layer_factory.hpp:77] Creating layer bn4a_branch2b
I0711 10:50:47.217810 28432 net.cpp:100] Creating Layer bn4a_branch2b
I0711 10:50:47.217816 28432 net.cpp:444] bn4a_branch2b <- res4a_branch2b
I0711 10:50:47.217828 28432 net.cpp:405] bn4a_branch2b -> res4a_branch2b (in-place)
I0711 10:50:47.218011 28432 net.cpp:150] Setting up bn4a_branch2b
I0711 10:50:47.218016 28432 net.cpp:157] Top shape: 1 256 60 80 (1228800)
I0711 10:50:47.218019 28432 net.cpp:165] Memory required for data: 4413849768
I0711 10:50:47.218034 28432 layer_factory.hpp:77] Creating layer scale4a_branch2b
I0711 10:50:47.218045 28432 net.cpp:100] Creating Layer scale4a_branch2b
I0711 10:50:47.218050 28432 net.cpp:444] scale4a_branch2b <- res4a_branch2b
I0711 10:50:47.218060 28432 net.cpp:405] scale4a_branch2b -> res4a_branch2b (in-place)
I0711 10:50:47.218106 28432 layer_factory.hpp:77] Creating layer scale4a_branch2b
I0711 10:50:47.218235 28432 net.cpp:150] Setting up scale4a_branch2b
I0711 10:50:47.218241 28432 net.cpp:157] Top shape: 1 256 60 80 (1228800)
I0711 10:50:47.218243 28432 net.cpp:165] Memory required for data: 4418764968
I0711 10:50:47.218252 28432 layer_factory.hpp:77] Creating layer res4a_branch2b_relu
I0711 10:50:47.218261 28432 net.cpp:100] Creating Layer res4a_branch2b_relu
I0711 10:50:47.218266 28432 net.cpp:444] res4a_branch2b_relu <- res4a_branch2b
I0711 10:50:47.218276 28432 net.cpp:405] res4a_branch2b_relu -> res4a_branch2b (in-place)
I0711 10:50:47.218422 28432 net.cpp:150] Setting up res4a_branch2b_relu
I0711 10:50:47.218428 28432 net.cpp:157] Top shape: 1 256 60 80 (1228800)
I0711 10:50:47.218431 28432 net.cpp:165] Memory required for data: 4423680168
I0711 10:50:47.218436 28432 layer_factory.hpp:77] Creating layer res4a_branch2c
I0711 10:50:47.218448 28432 net.cpp:100] Creating Layer res4a_branch2c
I0711 10:50:47.218453 28432 net.cpp:444] res4a_branch2c <- res4a_branch2b
I0711 10:50:47.218466 28432 net.cpp:418] res4a_branch2c -> res4a_branch2c
I0711 10:50:47.220158 28432 cudnn_conv_layer.cpp:194] Reallocating workspace storage: 92952
I0711 10:50:47.220175 28432 net.cpp:150] Setting up res4a_branch2c
I0711 10:50:47.220185 28432 net.cpp:157] Top shape: 1 1024 60 80 (4915200)
I0711 10:50:47.220187 28432 net.cpp:165] Memory required for data: 4443340968
I0711 10:50:47.220199 28432 layer_factory.hpp:77] Creating layer bn4a_branch2c
I0711 10:50:47.220213 28432 net.cpp:100] Creating Layer bn4a_branch2c
I0711 10:50:47.220218 28432 net.cpp:444] bn4a_branch2c <- res4a_branch2c
I0711 10:50:47.220230 28432 net.cpp:405] bn4a_branch2c -> res4a_branch2c (in-place)
I0711 10:50:47.220407 28432 net.cpp:150] Setting up bn4a_branch2c
I0711 10:50:47.220413 28432 net.cpp:157] Top shape: 1 1024 60 80 (4915200)
I0711 10:50:47.220417 28432 net.cpp:165] Memory required for data: 4463001768
I0711 10:50:47.220432 28432 layer_factory.hpp:77] Creating layer scale4a_branch2c
I0711 10:50:47.220456 28432 net.cpp:100] Creating Layer scale4a_branch2c
I0711 10:50:47.220463 28432 net.cpp:444] scale4a_branch2c <- res4a_branch2c
I0711 10:50:47.220474 28432 net.cpp:405] scale4a_branch2c -> res4a_branch2c (in-place)
I0711 10:50:47.220520 28432 layer_factory.hpp:77] Creating layer scale4a_branch2c
I0711 10:50:47.220650 28432 net.cpp:150] Setting up scale4a_branch2c
I0711 10:50:47.220657 28432 net.cpp:157] Top shape: 1 1024 60 80 (4915200)
I0711 10:50:47.220659 28432 net.cpp:165] Memory required for data: 4482662568
I0711 10:50:47.220670 28432 layer_factory.hpp:77] Creating layer res4a
I0711 10:50:47.220680 28432 net.cpp:100] Creating Layer res4a
I0711 10:50:47.220685 28432 net.cpp:444] res4a <- res4a_branch1
I0711 10:50:47.220695 28432 net.cpp:444] res4a <- res4a_branch2c
I0711 10:50:47.220701 28432 net.cpp:418] res4a -> res4a
I0711 10:50:47.220732 28432 net.cpp:150] Setting up res4a
I0711 10:50:47.220741 28432 net.cpp:157] Top shape: 1 1024 60 80 (4915200)
I0711 10:50:47.220742 28432 net.cpp:165] Memory required for data: 4502323368
I0711 10:50:47.220746 28432 layer_factory.hpp:77] Creating layer res4a_relu
I0711 10:50:47.220754 28432 net.cpp:100] Creating Layer res4a_relu
I0711 10:50:47.220758 28432 net.cpp:444] res4a_relu <- res4a
I0711 10:50:47.220768 28432 net.cpp:405] res4a_relu -> res4a (in-place)
I0711 10:50:47.220893 28432 net.cpp:150] Setting up res4a_relu
I0711 10:50:47.220899 28432 net.cpp:157] Top shape: 1 1024 60 80 (4915200)
I0711 10:50:47.220901 28432 net.cpp:165] Memory required for data: 4521984168
I0711 10:50:47.220906 28432 layer_factory.hpp:77] Creating layer res4a_res4a_relu_0_split
I0711 10:50:47.220914 28432 net.cpp:100] Creating Layer res4a_res4a_relu_0_split
I0711 10:50:47.220919 28432 net.cpp:444] res4a_res4a_relu_0_split <- res4a
I0711 10:50:47.220929 28432 net.cpp:418] res4a_res4a_relu_0_split -> res4a_res4a_relu_0_split_0
I0711 10:50:47.220942 28432 net.cpp:418] res4a_res4a_relu_0_split -> res4a_res4a_relu_0_split_1
I0711 10:50:47.220979 28432 net.cpp:150] Setting up res4a_res4a_relu_0_split
I0711 10:50:47.220986 28432 net.cpp:157] Top shape: 1 1024 60 80 (4915200)
I0711 10:50:47.220990 28432 net.cpp:157] Top shape: 1 1024 60 80 (4915200)
I0711 10:50:47.220993 28432 net.cpp:165] Memory required for data: 4561305768
I0711 10:50:47.220995 28432 layer_factory.hpp:77] Creating layer res4b_branch2a
I0711 10:50:47.221009 28432 net.cpp:100] Creating Layer res4b_branch2a
I0711 10:50:47.221014 28432 net.cpp:444] res4b_branch2a <- res4a_res4a_relu_0_split_0
I0711 10:50:47.221024 28432 net.cpp:418] res4b_branch2a -> res4b_branch2a
I0711 10:50:47.222168 28432 cudnn_conv_layer.cpp:194] Reallocating workspace storage: 92952
I0711 10:50:47.222188 28432 net.cpp:150] Setting up res4b_branch2a
I0711 10:50:47.222195 28432 net.cpp:157] Top shape: 1 256 60 80 (1228800)
I0711 10:50:47.222198 28432 net.cpp:165] Memory required for data: 4566220968
I0711 10:50:47.222208 28432 layer_factory.hpp:77] Creating layer bn4b_branch2a
I0711 10:50:47.222221 28432 net.cpp:100] Creating Layer bn4b_branch2a
I0711 10:50:47.222226 28432 net.cpp:444] bn4b_branch2a <- res4b_branch2a
I0711 10:50:47.222239 28432 net.cpp:405] bn4b_branch2a -> res4b_branch2a (in-place)
I0711 10:50:47.222409 28432 net.cpp:150] Setting up bn4b_branch2a
I0711 10:50:47.222414 28432 net.cpp:157] Top shape: 1 256 60 80 (1228800)
I0711 10:50:47.222417 28432 net.cpp:165] Memory required for data: 4571136168
I0711 10:50:47.222431 28432 layer_factory.hpp:77] Creating layer scale4b_branch2a
I0711 10:50:47.222442 28432 net.cpp:100] Creating Layer scale4b_branch2a
I0711 10:50:47.222448 28432 net.cpp:444] scale4b_branch2a <- res4b_branch2a
I0711 10:50:47.222458 28432 net.cpp:405] scale4b_branch2a -> res4b_branch2a (in-place)
I0711 10:50:47.222503 28432 layer_factory.hpp:77] Creating layer scale4b_branch2a
I0711 10:50:47.222630 28432 net.cpp:150] Setting up scale4b_branch2a
I0711 10:50:47.222637 28432 net.cpp:157] Top shape: 1 256 60 80 (1228800)
I0711 10:50:47.222640 28432 net.cpp:165] Memory required for data: 4576051368
I0711 10:50:47.222649 28432 layer_factory.hpp:77] Creating layer res4b_branch2a_relu
I0711 10:50:47.222658 28432 net.cpp:100] Creating Layer res4b_branch2a_relu
I0711 10:50:47.222663 28432 net.cpp:444] res4b_branch2a_relu <- res4b_branch2a
I0711 10:50:47.222672 28432 net.cpp:405] res4b_branch2a_relu -> res4b_branch2a (in-place)
I0711 10:50:47.223019 28432 net.cpp:150] Setting up res4b_branch2a_relu
I0711 10:50:47.223027 28432 net.cpp:157] Top shape: 1 256 60 80 (1228800)
I0711 10:50:47.223031 28432 net.cpp:165] Memory required for data: 4580966568
I0711 10:50:47.223034 28432 layer_factory.hpp:77] Creating layer res4b_branch2b
I0711 10:50:47.223048 28432 net.cpp:100] Creating Layer res4b_branch2b
I0711 10:50:47.223054 28432 net.cpp:444] res4b_branch2b <- res4b_branch2a
I0711 10:50:47.223068 28432 net.cpp:418] res4b_branch2b -> res4b_branch2b
I0711 10:50:47.225278 28432 cudnn_conv_layer.cpp:194] Reallocating workspace storage: 12582912
I0711 10:50:47.225505 28432 net.cpp:150] Setting up res4b_branch2b
I0711 10:50:47.225517 28432 net.cpp:157] Top shape: 1 256 60 80 (1228800)
I0711 10:50:47.225520 28432 net.cpp:165] Memory required for data: 4585881768
I0711 10:50:47.225534 28432 layer_factory.hpp:77] Creating layer bn4b_branch2b
I0711 10:50:47.225556 28432 net.cpp:100] Creating Layer bn4b_branch2b
I0711 10:50:47.225585 28432 net.cpp:444] bn4b_branch2b <- res4b_branch2b
I0711 10:50:47.225600 28432 net.cpp:405] bn4b_branch2b -> res4b_branch2b (in-place)
I0711 10:50:47.225783 28432 net.cpp:150] Setting up bn4b_branch2b
I0711 10:50:47.225788 28432 net.cpp:157] Top shape: 1 256 60 80 (1228800)
I0711 10:50:47.225790 28432 net.cpp:165] Memory required for data: 4590796968
I0711 10:50:47.225805 28432 layer_factory.hpp:77] Creating layer scale4b_branch2b
I0711 10:50:47.225818 28432 net.cpp:100] Creating Layer scale4b_branch2b
I0711 10:50:47.225823 28432 net.cpp:444] scale4b_branch2b <- res4b_branch2b
I0711 10:50:47.225833 28432 net.cpp:405] scale4b_branch2b -> res4b_branch2b (in-place)
I0711 10:50:47.225881 28432 layer_factory.hpp:77] Creating layer scale4b_branch2b
I0711 10:50:47.226012 28432 net.cpp:150] Setting up scale4b_branch2b
I0711 10:50:47.226018 28432 net.cpp:157] Top shape: 1 256 60 80 (1228800)
I0711 10:50:47.226022 28432 net.cpp:165] Memory required for data: 4595712168
I0711 10:50:47.226030 28432 layer_factory.hpp:77] Creating layer res4b_branch2b_relu
I0711 10:50:47.226040 28432 net.cpp:100] Creating Layer res4b_branch2b_relu
I0711 10:50:47.226044 28432 net.cpp:444] res4b_branch2b_relu <- res4b_branch2b
I0711 10:50:47.226054 28432 net.cpp:405] res4b_branch2b_relu -> res4b_branch2b (in-place)
I0711 10:50:47.226193 28432 net.cpp:150] Setting up res4b_branch2b_relu
I0711 10:50:47.226200 28432 net.cpp:157] Top shape: 1 256 60 80 (1228800)
I0711 10:50:47.226202 28432 net.cpp:165] Memory required for data: 4600627368
I0711 10:50:47.226205 28432 layer_factory.hpp:77] Creating layer res4b_branch2c
I0711 10:50:47.226220 28432 net.cpp:100] Creating Layer res4b_branch2c
I0711 10:50:47.226225 28432 net.cpp:444] res4b_branch2c <- res4b_branch2b
I0711 10:50:47.226238 28432 net.cpp:418] res4b_branch2c -> res4b_branch2c
I0711 10:50:47.227988 28432 cudnn_conv_layer.cpp:194] Reallocating workspace storage: 92952
I0711 10:50:47.228010 28432 net.cpp:150] Setting up res4b_branch2c
I0711 10:50:47.228019 28432 net.cpp:157] Top shape: 1 1024 60 80 (4915200)
I0711 10:50:47.228021 28432 net.cpp:165] Memory required for data: 4620288168
I0711 10:50:47.228034 28432 layer_factory.hpp:77] Creating layer bn4b_branch2c
I0711 10:50:47.228047 28432 net.cpp:100] Creating Layer bn4b_branch2c
I0711 10:50:47.228055 28432 net.cpp:444] bn4b_branch2c <- res4b_branch2c
I0711 10:50:47.228067 28432 net.cpp:405] bn4b_branch2c -> res4b_branch2c (in-place)
I0711 10:50:47.228252 28432 net.cpp:150] Setting up bn4b_branch2c
I0711 10:50:47.228258 28432 net.cpp:157] Top shape: 1 1024 60 80 (4915200)
I0711 10:50:47.228260 28432 net.cpp:165] Memory required for data: 4639948968
I0711 10:50:47.228274 28432 layer_factory.hpp:77] Creating layer scale4b_branch2c
I0711 10:50:47.228287 28432 net.cpp:100] Creating Layer scale4b_branch2c
I0711 10:50:47.228293 28432 net.cpp:444] scale4b_branch2c <- res4b_branch2c
I0711 10:50:47.228303 28432 net.cpp:405] scale4b_branch2c -> res4b_branch2c (in-place)
I0711 10:50:47.228350 28432 layer_factory.hpp:77] Creating layer scale4b_branch2c
I0711 10:50:47.228485 28432 net.cpp:150] Setting up scale4b_branch2c
I0711 10:50:47.228492 28432 net.cpp:157] Top shape: 1 1024 60 80 (4915200)
I0711 10:50:47.228494 28432 net.cpp:165] Memory required for data: 4659609768
I0711 10:50:47.228503 28432 layer_factory.hpp:77] Creating layer res4b
I0711 10:50:47.228513 28432 net.cpp:100] Creating Layer res4b
I0711 10:50:47.228519 28432 net.cpp:444] res4b <- res4a_res4a_relu_0_split_1
I0711 10:50:47.228528 28432 net.cpp:444] res4b <- res4b_branch2c
I0711 10:50:47.228535 28432 net.cpp:418] res4b -> res4b
I0711 10:50:47.228569 28432 net.cpp:150] Setting up res4b
I0711 10:50:47.228576 28432 net.cpp:157] Top shape: 1 1024 60 80 (4915200)
I0711 10:50:47.228579 28432 net.cpp:165] Memory required for data: 4679270568
I0711 10:50:47.228582 28432 layer_factory.hpp:77] Creating layer res4b_relu
I0711 10:50:47.228590 28432 net.cpp:100] Creating Layer res4b_relu
I0711 10:50:47.228595 28432 net.cpp:444] res4b_relu <- res4b
I0711 10:50:47.228605 28432 net.cpp:405] res4b_relu -> res4b (in-place)
I0711 10:50:47.228741 28432 net.cpp:150] Setting up res4b_relu
I0711 10:50:47.228747 28432 net.cpp:157] Top shape: 1 1024 60 80 (4915200)
I0711 10:50:47.228749 28432 net.cpp:165] Memory required for data: 4698931368
I0711 10:50:47.228754 28432 layer_factory.hpp:77] Creating layer res4b_res4b_relu_0_split
I0711 10:50:47.228762 28432 net.cpp:100] Creating Layer res4b_res4b_relu_0_split
I0711 10:50:47.228767 28432 net.cpp:444] res4b_res4b_relu_0_split <- res4b
I0711 10:50:47.228778 28432 net.cpp:418] res4b_res4b_relu_0_split -> res4b_res4b_relu_0_split_0
I0711 10:50:47.228790 28432 net.cpp:418] res4b_res4b_relu_0_split -> res4b_res4b_relu_0_split_1
I0711 10:50:47.228830 28432 net.cpp:150] Setting up res4b_res4b_relu_0_split
I0711 10:50:47.228837 28432 net.cpp:157] Top shape: 1 1024 60 80 (4915200)
I0711 10:50:47.228842 28432 net.cpp:157] Top shape: 1 1024 60 80 (4915200)
I0711 10:50:47.228843 28432 net.cpp:165] Memory required for data: 4738252968
I0711 10:50:47.228847 28432 layer_factory.hpp:77] Creating layer res4c_branch2a
I0711 10:50:47.228862 28432 net.cpp:100] Creating Layer res4c_branch2a
I0711 10:50:47.228866 28432 net.cpp:444] res4c_branch2a <- res4b_res4b_relu_0_split_0
I0711 10:50:47.228879 28432 net.cpp:418] res4c_branch2a -> res4c_branch2a
I0711 10:50:47.230193 28432 cudnn_conv_layer.cpp:194] Reallocating workspace storage: 92952
I0711 10:50:47.230221 28432 net.cpp:150] Setting up res4c_branch2a
I0711 10:50:47.230235 28432 net.cpp:157] Top shape: 1 256 60 80 (1228800)
I0711 10:50:47.230238 28432 net.cpp:165] Memory required for data: 4743168168
I0711 10:50:47.230255 28432 layer_factory.hpp:77] Creating layer bn4c_branch2a
I0711 10:50:47.230276 28432 net.cpp:100] Creating Layer bn4c_branch2a
I0711 10:50:47.230284 28432 net.cpp:444] bn4c_branch2a <- res4c_branch2a
I0711 10:50:47.230299 28432 net.cpp:405] bn4c_branch2a -> res4c_branch2a (in-place)
I0711 10:50:47.230489 28432 net.cpp:150] Setting up bn4c_branch2a
I0711 10:50:47.230494 28432 net.cpp:157] Top shape: 1 256 60 80 (1228800)
I0711 10:50:47.230497 28432 net.cpp:165] Memory required for data: 4748083368
I0711 10:50:47.230512 28432 layer_factory.hpp:77] Creating layer scale4c_branch2a
I0711 10:50:47.230525 28432 net.cpp:100] Creating Layer scale4c_branch2a
I0711 10:50:47.230530 28432 net.cpp:444] scale4c_branch2a <- res4c_branch2a
I0711 10:50:47.230541 28432 net.cpp:405] scale4c_branch2a -> res4c_branch2a (in-place)
I0711 10:50:47.230590 28432 layer_factory.hpp:77] Creating layer scale4c_branch2a
I0711 10:50:47.230724 28432 net.cpp:150] Setting up scale4c_branch2a
I0711 10:50:47.230731 28432 net.cpp:157] Top shape: 1 256 60 80 (1228800)
I0711 10:50:47.230733 28432 net.cpp:165] Memory required for data: 4752998568
I0711 10:50:47.230743 28432 layer_factory.hpp:77] Creating layer res4c_branch2a_relu
I0711 10:50:47.230752 28432 net.cpp:100] Creating Layer res4c_branch2a_relu
I0711 10:50:47.230757 28432 net.cpp:444] res4c_branch2a_relu <- res4c_branch2a
I0711 10:50:47.230767 28432 net.cpp:405] res4c_branch2a_relu -> res4c_branch2a (in-place)
I0711 10:50:47.230901 28432 net.cpp:150] Setting up res4c_branch2a_relu
I0711 10:50:47.230908 28432 net.cpp:157] Top shape: 1 256 60 80 (1228800)
I0711 10:50:47.230911 28432 net.cpp:165] Memory required for data: 4757913768
I0711 10:50:47.230914 28432 layer_factory.hpp:77] Creating layer res4c_branch2b
I0711 10:50:47.230929 28432 net.cpp:100] Creating Layer res4c_branch2b
I0711 10:50:47.230934 28432 net.cpp:444] res4c_branch2b <- res4c_branch2a
I0711 10:50:47.230947 28432 net.cpp:418] res4c_branch2b -> res4c_branch2b
I0711 10:50:47.233721 28432 cudnn_conv_layer.cpp:194] Reallocating workspace storage: 12582912
I0711 10:50:47.233958 28432 net.cpp:150] Setting up res4c_branch2b
I0711 10:50:47.233976 28432 net.cpp:157] Top shape: 1 256 60 80 (1228800)
I0711 10:50:47.233979 28432 net.cpp:165] Memory required for data: 4762828968
I0711 10:50:47.234004 28432 layer_factory.hpp:77] Creating layer bn4c_branch2b
I0711 10:50:47.234031 28432 net.cpp:100] Creating Layer bn4c_branch2b
I0711 10:50:47.234042 28432 net.cpp:444] bn4c_branch2b <- res4c_branch2b
I0711 10:50:47.234063 28432 net.cpp:405] bn4c_branch2b -> res4c_branch2b (in-place)
I0711 10:50:47.234268 28432 net.cpp:150] Setting up bn4c_branch2b
I0711 10:50:47.234274 28432 net.cpp:157] Top shape: 1 256 60 80 (1228800)
I0711 10:50:47.234277 28432 net.cpp:165] Memory required for data: 4767744168
I0711 10:50:47.234292 28432 layer_factory.hpp:77] Creating layer scale4c_branch2b
I0711 10:50:47.234306 28432 net.cpp:100] Creating Layer scale4c_branch2b
I0711 10:50:47.234311 28432 net.cpp:444] scale4c_branch2b <- res4c_branch2b
I0711 10:50:47.234321 28432 net.cpp:405] scale4c_branch2b -> res4c_branch2b (in-place)
I0711 10:50:47.234372 28432 layer_factory.hpp:77] Creating layer scale4c_branch2b
I0711 10:50:47.234509 28432 net.cpp:150] Setting up scale4c_branch2b
I0711 10:50:47.234516 28432 net.cpp:157] Top shape: 1 256 60 80 (1228800)
I0711 10:50:47.234519 28432 net.cpp:165] Memory required for data: 4772659368
I0711 10:50:47.234529 28432 layer_factory.hpp:77] Creating layer res4c_branch2b_relu
I0711 10:50:47.234539 28432 net.cpp:100] Creating Layer res4c_branch2b_relu
I0711 10:50:47.234544 28432 net.cpp:444] res4c_branch2b_relu <- res4c_branch2b
I0711 10:50:47.234553 28432 net.cpp:405] res4c_branch2b_relu -> res4c_branch2b (in-place)
I0711 10:50:47.235040 28432 net.cpp:150] Setting up res4c_branch2b_relu
I0711 10:50:47.235049 28432 net.cpp:157] Top shape: 1 256 60 80 (1228800)
I0711 10:50:47.235052 28432 net.cpp:165] Memory required for data: 4777574568
I0711 10:50:47.235057 28432 layer_factory.hpp:77] Creating layer res4c_branch2c
I0711 10:50:47.235074 28432 net.cpp:100] Creating Layer res4c_branch2c
I0711 10:50:47.235080 28432 net.cpp:444] res4c_branch2c <- res4c_branch2b
I0711 10:50:47.235095 28432 net.cpp:418] res4c_branch2c -> res4c_branch2c
I0711 10:50:47.237041 28432 cudnn_conv_layer.cpp:194] Reallocating workspace storage: 92952
I0711 10:50:47.237072 28432 net.cpp:150] Setting up res4c_branch2c
I0711 10:50:47.237087 28432 net.cpp:157] Top shape: 1 1024 60 80 (4915200)
I0711 10:50:47.237089 28432 net.cpp:165] Memory required for data: 4797235368
I0711 10:50:47.237109 28432 layer_factory.hpp:77] Creating layer bn4c_branch2c
I0711 10:50:47.237136 28432 net.cpp:100] Creating Layer bn4c_branch2c
I0711 10:50:47.237148 28432 net.cpp:444] bn4c_branch2c <- res4c_branch2c
I0711 10:50:47.237164 28432 net.cpp:405] bn4c_branch2c -> res4c_branch2c (in-place)
I0711 10:50:47.237360 28432 net.cpp:150] Setting up bn4c_branch2c
I0711 10:50:47.237366 28432 net.cpp:157] Top shape: 1 1024 60 80 (4915200)
I0711 10:50:47.237370 28432 net.cpp:165] Memory required for data: 4816896168
I0711 10:50:47.237385 28432 layer_factory.hpp:77] Creating layer scale4c_branch2c
I0711 10:50:47.237398 28432 net.cpp:100] Creating Layer scale4c_branch2c
I0711 10:50:47.237403 28432 net.cpp:444] scale4c_branch2c <- res4c_branch2c
I0711 10:50:47.237414 28432 net.cpp:405] scale4c_branch2c -> res4c_branch2c (in-place)
I0711 10:50:47.237462 28432 layer_factory.hpp:77] Creating layer scale4c_branch2c
I0711 10:50:47.237638 28432 net.cpp:150] Setting up scale4c_branch2c
I0711 10:50:47.237645 28432 net.cpp:157] Top shape: 1 1024 60 80 (4915200)
I0711 10:50:47.237648 28432 net.cpp:165] Memory required for data: 4836556968
I0711 10:50:47.237658 28432 layer_factory.hpp:77] Creating layer res4c
I0711 10:50:47.237668 28432 net.cpp:100] Creating Layer res4c
I0711 10:50:47.237673 28432 net.cpp:444] res4c <- res4b_res4b_relu_0_split_1
I0711 10:50:47.237682 28432 net.cpp:444] res4c <- res4c_branch2c
I0711 10:50:47.237690 28432 net.cpp:418] res4c -> res4c
I0711 10:50:47.237725 28432 net.cpp:150] Setting up res4c
I0711 10:50:47.237731 28432 net.cpp:157] Top shape: 1 1024 60 80 (4915200)
I0711 10:50:47.237735 28432 net.cpp:165] Memory required for data: 4856217768
I0711 10:50:47.237738 28432 layer_factory.hpp:77] Creating layer res4c_relu
I0711 10:50:47.237747 28432 net.cpp:100] Creating Layer res4c_relu
I0711 10:50:47.237752 28432 net.cpp:444] res4c_relu <- res4c
I0711 10:50:47.237761 28432 net.cpp:405] res4c_relu -> res4c (in-place)
I0711 10:50:47.237902 28432 net.cpp:150] Setting up res4c_relu
I0711 10:50:47.237908 28432 net.cpp:157] Top shape: 1 1024 60 80 (4915200)
I0711 10:50:47.237910 28432 net.cpp:165] Memory required for data: 4875878568
I0711 10:50:47.237915 28432 layer_factory.hpp:77] Creating layer res4c_res4c_relu_0_split
I0711 10:50:47.237923 28432 net.cpp:100] Creating Layer res4c_res4c_relu_0_split
I0711 10:50:47.237928 28432 net.cpp:444] res4c_res4c_relu_0_split <- res4c
I0711 10:50:47.237938 28432 net.cpp:418] res4c_res4c_relu_0_split -> res4c_res4c_relu_0_split_0
I0711 10:50:47.237951 28432 net.cpp:418] res4c_res4c_relu_0_split -> res4c_res4c_relu_0_split_1
I0711 10:50:47.237992 28432 net.cpp:150] Setting up res4c_res4c_relu_0_split
I0711 10:50:47.237998 28432 net.cpp:157] Top shape: 1 1024 60 80 (4915200)
I0711 10:50:47.238003 28432 net.cpp:157] Top shape: 1 1024 60 80 (4915200)
I0711 10:50:47.238005 28432 net.cpp:165] Memory required for data: 4915200168
I0711 10:50:47.238008 28432 layer_factory.hpp:77] Creating layer res4d_branch2a
I0711 10:50:47.238023 28432 net.cpp:100] Creating Layer res4d_branch2a
I0711 10:50:47.238028 28432 net.cpp:444] res4d_branch2a <- res4c_res4c_relu_0_split_0
I0711 10:50:47.238039 28432 net.cpp:418] res4d_branch2a -> res4d_branch2a
I0711 10:50:47.239297 28432 cudnn_conv_layer.cpp:194] Reallocating workspace storage: 92952
I0711 10:50:47.239318 28432 net.cpp:150] Setting up res4d_branch2a
I0711 10:50:47.239326 28432 net.cpp:157] Top shape: 1 256 60 80 (1228800)
I0711 10:50:47.239329 28432 net.cpp:165] Memory required for data: 4920115368
I0711 10:50:47.239339 28432 layer_factory.hpp:77] Creating layer bn4d_branch2a
I0711 10:50:47.239353 28432 net.cpp:100] Creating Layer bn4d_branch2a
I0711 10:50:47.239359 28432 net.cpp:444] bn4d_branch2a <- res4d_branch2a
I0711 10:50:47.239372 28432 net.cpp:405] bn4d_branch2a -> res4d_branch2a (in-place)
I0711 10:50:47.239557 28432 net.cpp:150] Setting up bn4d_branch2a
I0711 10:50:47.239563 28432 net.cpp:157] Top shape: 1 256 60 80 (1228800)
I0711 10:50:47.239565 28432 net.cpp:165] Memory required for data: 4925030568
I0711 10:50:47.239580 28432 layer_factory.hpp:77] Creating layer scale4d_branch2a
I0711 10:50:47.239593 28432 net.cpp:100] Creating Layer scale4d_branch2a
I0711 10:50:47.239598 28432 net.cpp:444] scale4d_branch2a <- res4d_branch2a
I0711 10:50:47.239609 28432 net.cpp:405] scale4d_branch2a -> res4d_branch2a (in-place)
I0711 10:50:47.239657 28432 layer_factory.hpp:77] Creating layer scale4d_branch2a
I0711 10:50:47.239796 28432 net.cpp:150] Setting up scale4d_branch2a
I0711 10:50:47.239804 28432 net.cpp:157] Top shape: 1 256 60 80 (1228800)
I0711 10:50:47.239805 28432 net.cpp:165] Memory required for data: 4929945768
I0711 10:50:47.239814 28432 layer_factory.hpp:77] Creating layer res4d_branch2a_relu
I0711 10:50:47.239825 28432 net.cpp:100] Creating Layer res4d_branch2a_relu
I0711 10:50:47.239830 28432 net.cpp:444] res4d_branch2a_relu <- res4d_branch2a
I0711 10:50:47.239838 28432 net.cpp:405] res4d_branch2a_relu -> res4d_branch2a (in-place)
I0711 10:50:47.239975 28432 net.cpp:150] Setting up res4d_branch2a_relu
I0711 10:50:47.239981 28432 net.cpp:157] Top shape: 1 256 60 80 (1228800)
I0711 10:50:47.239984 28432 net.cpp:165] Memory required for data: 4934860968
I0711 10:50:47.239986 28432 layer_factory.hpp:77] Creating layer res4d_branch2b
I0711 10:50:47.240001 28432 net.cpp:100] Creating Layer res4d_branch2b
I0711 10:50:47.240006 28432 net.cpp:444] res4d_branch2b <- res4d_branch2a
I0711 10:50:47.240018 28432 net.cpp:418] res4d_branch2b -> res4d_branch2b
I0711 10:50:47.242606 28432 cudnn_conv_layer.cpp:194] Reallocating workspace storage: 12582912
I0711 10:50:47.242873 28432 net.cpp:150] Setting up res4d_branch2b
I0711 10:50:47.242892 28432 net.cpp:157] Top shape: 1 256 60 80 (1228800)
I0711 10:50:47.242893 28432 net.cpp:165] Memory required for data: 4939776168
I0711 10:50:47.242918 28432 layer_factory.hpp:77] Creating layer bn4d_branch2b
I0711 10:50:47.242945 28432 net.cpp:100] Creating Layer bn4d_branch2b
I0711 10:50:47.242955 28432 net.cpp:444] bn4d_branch2b <- res4d_branch2b
I0711 10:50:47.242974 28432 net.cpp:405] bn4d_branch2b -> res4d_branch2b (in-place)
I0711 10:50:47.243183 28432 net.cpp:150] Setting up bn4d_branch2b
I0711 10:50:47.243189 28432 net.cpp:157] Top shape: 1 256 60 80 (1228800)
I0711 10:50:47.243191 28432 net.cpp:165] Memory required for data: 4944691368
I0711 10:50:47.243207 28432 layer_factory.hpp:77] Creating layer scale4d_branch2b
I0711 10:50:47.243222 28432 net.cpp:100] Creating Layer scale4d_branch2b
I0711 10:50:47.243228 28432 net.cpp:444] scale4d_branch2b <- res4d_branch2b
I0711 10:50:47.243239 28432 net.cpp:405] scale4d_branch2b -> res4d_branch2b (in-place)
I0711 10:50:47.243290 28432 layer_factory.hpp:77] Creating layer scale4d_branch2b
I0711 10:50:47.243429 28432 net.cpp:150] Setting up scale4d_branch2b
I0711 10:50:47.243436 28432 net.cpp:157] Top shape: 1 256 60 80 (1228800)
I0711 10:50:47.243438 28432 net.cpp:165] Memory required for data: 4949606568
I0711 10:50:47.243448 28432 layer_factory.hpp:77] Creating layer res4d_branch2b_relu
I0711 10:50:47.243458 28432 net.cpp:100] Creating Layer res4d_branch2b_relu
I0711 10:50:47.243463 28432 net.cpp:444] res4d_branch2b_relu <- res4d_branch2b
I0711 10:50:47.243472 28432 net.cpp:405] res4d_branch2b_relu -> res4d_branch2b (in-place)
I0711 10:50:47.243871 28432 net.cpp:150] Setting up res4d_branch2b_relu
I0711 10:50:47.243880 28432 net.cpp:157] Top shape: 1 256 60 80 (1228800)
I0711 10:50:47.243881 28432 net.cpp:165] Memory required for data: 4954521768
I0711 10:50:47.243886 28432 layer_factory.hpp:77] Creating layer res4d_branch2c
I0711 10:50:47.243902 28432 net.cpp:100] Creating Layer res4d_branch2c
I0711 10:50:47.243908 28432 net.cpp:444] res4d_branch2c <- res4d_branch2b
I0711 10:50:47.243923 28432 net.cpp:418] res4d_branch2c -> res4d_branch2c
I0711 10:50:47.245908 28432 cudnn_conv_layer.cpp:194] Reallocating workspace storage: 92952
I0711 10:50:47.245937 28432 net.cpp:150] Setting up res4d_branch2c
I0711 10:50:47.245951 28432 net.cpp:157] Top shape: 1 1024 60 80 (4915200)
I0711 10:50:47.245954 28432 net.cpp:165] Memory required for data: 4974182568
I0711 10:50:47.245975 28432 layer_factory.hpp:77] Creating layer bn4d_branch2c
I0711 10:50:47.245999 28432 net.cpp:100] Creating Layer bn4d_branch2c
I0711 10:50:47.246008 28432 net.cpp:444] bn4d_branch2c <- res4d_branch2c
I0711 10:50:47.246026 28432 net.cpp:405] bn4d_branch2c -> res4d_branch2c (in-place)
I0711 10:50:47.246235 28432 net.cpp:150] Setting up bn4d_branch2c
I0711 10:50:47.246242 28432 net.cpp:157] Top shape: 1 1024 60 80 (4915200)
I0711 10:50:47.246244 28432 net.cpp:165] Memory required for data: 4993843368
I0711 10:50:47.246260 28432 layer_factory.hpp:77] Creating layer scale4d_branch2c
I0711 10:50:47.246276 28432 net.cpp:100] Creating Layer scale4d_branch2c
I0711 10:50:47.246282 28432 net.cpp:444] scale4d_branch2c <- res4d_branch2c
I0711 10:50:47.246294 28432 net.cpp:405] scale4d_branch2c -> res4d_branch2c (in-place)
I0711 10:50:47.246345 28432 layer_factory.hpp:77] Creating layer scale4d_branch2c
I0711 10:50:47.246495 28432 net.cpp:150] Setting up scale4d_branch2c
I0711 10:50:47.246502 28432 net.cpp:157] Top shape: 1 1024 60 80 (4915200)
I0711 10:50:47.246503 28432 net.cpp:165] Memory required for data: 5013504168
I0711 10:50:47.246513 28432 layer_factory.hpp:77] Creating layer res4d
I0711 10:50:47.246523 28432 net.cpp:100] Creating Layer res4d
I0711 10:50:47.246529 28432 net.cpp:444] res4d <- res4c_res4c_relu_0_split_1
I0711 10:50:47.246538 28432 net.cpp:444] res4d <- res4d_branch2c
I0711 10:50:47.246547 28432 net.cpp:418] res4d -> res4d
I0711 10:50:47.246584 28432 net.cpp:150] Setting up res4d
I0711 10:50:47.246592 28432 net.cpp:157] Top shape: 1 1024 60 80 (4915200)
I0711 10:50:47.246594 28432 net.cpp:165] Memory required for data: 5033164968
I0711 10:50:47.246598 28432 layer_factory.hpp:77] Creating layer res4d_relu
I0711 10:50:47.246608 28432 net.cpp:100] Creating Layer res4d_relu
I0711 10:50:47.246613 28432 net.cpp:444] res4d_relu <- res4d
I0711 10:50:47.246623 28432 net.cpp:405] res4d_relu -> res4d (in-place)
I0711 10:50:47.246786 28432 net.cpp:150] Setting up res4d_relu
I0711 10:50:47.246793 28432 net.cpp:157] Top shape: 1 1024 60 80 (4915200)
I0711 10:50:47.246794 28432 net.cpp:165] Memory required for data: 5052825768
I0711 10:50:47.246798 28432 layer_factory.hpp:77] Creating layer res4d_res4d_relu_0_split
I0711 10:50:47.246806 28432 net.cpp:100] Creating Layer res4d_res4d_relu_0_split
I0711 10:50:47.246811 28432 net.cpp:444] res4d_res4d_relu_0_split <- res4d
I0711 10:50:47.246822 28432 net.cpp:418] res4d_res4d_relu_0_split -> res4d_res4d_relu_0_split_0
I0711 10:50:47.246835 28432 net.cpp:418] res4d_res4d_relu_0_split -> res4d_res4d_relu_0_split_1
I0711 10:50:47.246883 28432 net.cpp:150] Setting up res4d_res4d_relu_0_split
I0711 10:50:47.246889 28432 net.cpp:157] Top shape: 1 1024 60 80 (4915200)
I0711 10:50:47.246893 28432 net.cpp:157] Top shape: 1 1024 60 80 (4915200)
I0711 10:50:47.246894 28432 net.cpp:165] Memory required for data: 5092147368
I0711 10:50:47.246898 28432 layer_factory.hpp:77] Creating layer res4e_branch2a
I0711 10:50:47.246913 28432 net.cpp:100] Creating Layer res4e_branch2a
I0711 10:50:47.246918 28432 net.cpp:444] res4e_branch2a <- res4d_res4d_relu_0_split_0
I0711 10:50:47.246930 28432 net.cpp:418] res4e_branch2a -> res4e_branch2a
I0711 10:50:47.248816 28432 cudnn_conv_layer.cpp:194] Reallocating workspace storage: 92952
I0711 10:50:47.248847 28432 net.cpp:150] Setting up res4e_branch2a
I0711 10:50:47.248860 28432 net.cpp:157] Top shape: 1 256 60 80 (1228800)
I0711 10:50:47.248863 28432 net.cpp:165] Memory required for data: 5097062568
I0711 10:50:47.248885 28432 layer_factory.hpp:77] Creating layer bn4e_branch2a
I0711 10:50:47.248913 28432 net.cpp:100] Creating Layer bn4e_branch2a
I0711 10:50:47.248921 28432 net.cpp:444] bn4e_branch2a <- res4e_branch2a
I0711 10:50:47.248939 28432 net.cpp:405] bn4e_branch2a -> res4e_branch2a (in-place)
I0711 10:50:47.249150 28432 net.cpp:150] Setting up bn4e_branch2a
I0711 10:50:47.249155 28432 net.cpp:157] Top shape: 1 256 60 80 (1228800)
I0711 10:50:47.249157 28432 net.cpp:165] Memory required for data: 5101977768
I0711 10:50:47.249173 28432 layer_factory.hpp:77] Creating layer scale4e_branch2a
I0711 10:50:47.249187 28432 net.cpp:100] Creating Layer scale4e_branch2a
I0711 10:50:47.249192 28432 net.cpp:444] scale4e_branch2a <- res4e_branch2a
I0711 10:50:47.249204 28432 net.cpp:405] scale4e_branch2a -> res4e_branch2a (in-place)
I0711 10:50:47.249256 28432 layer_factory.hpp:77] Creating layer scale4e_branch2a
I0711 10:50:47.249399 28432 net.cpp:150] Setting up scale4e_branch2a
I0711 10:50:47.249406 28432 net.cpp:157] Top shape: 1 256 60 80 (1228800)
I0711 10:50:47.249408 28432 net.cpp:165] Memory required for data: 5106892968
I0711 10:50:47.249418 28432 layer_factory.hpp:77] Creating layer res4e_branch2a_relu
I0711 10:50:47.249428 28432 net.cpp:100] Creating Layer res4e_branch2a_relu
I0711 10:50:47.249433 28432 net.cpp:444] res4e_branch2a_relu <- res4e_branch2a
I0711 10:50:47.249444 28432 net.cpp:405] res4e_branch2a_relu -> res4e_branch2a (in-place)
I0711 10:50:47.249606 28432 net.cpp:150] Setting up res4e_branch2a_relu
I0711 10:50:47.249615 28432 net.cpp:157] Top shape: 1 256 60 80 (1228800)
I0711 10:50:47.249619 28432 net.cpp:165] Memory required for data: 5111808168
I0711 10:50:47.249624 28432 layer_factory.hpp:77] Creating layer res4e_branch2b
I0711 10:50:47.249644 28432 net.cpp:100] Creating Layer res4e_branch2b
I0711 10:50:47.249652 28432 net.cpp:444] res4e_branch2b <- res4e_branch2a
I0711 10:50:47.249671 28432 net.cpp:418] res4e_branch2b -> res4e_branch2b
I0711 10:50:47.252266 28432 cudnn_conv_layer.cpp:194] Reallocating workspace storage: 12582912
I0711 10:50:47.252542 28432 net.cpp:150] Setting up res4e_branch2b
I0711 10:50:47.252562 28432 net.cpp:157] Top shape: 1 256 60 80 (1228800)
I0711 10:50:47.252565 28432 net.cpp:165] Memory required for data: 5116723368
I0711 10:50:47.252593 28432 layer_factory.hpp:77] Creating layer bn4e_branch2b
I0711 10:50:47.252622 28432 net.cpp:100] Creating Layer bn4e_branch2b
I0711 10:50:47.252632 28432 net.cpp:444] bn4e_branch2b <- res4e_branch2b
I0711 10:50:47.252652 28432 net.cpp:405] bn4e_branch2b -> res4e_branch2b (in-place)
I0711 10:50:47.252874 28432 net.cpp:150] Setting up bn4e_branch2b
I0711 10:50:47.252880 28432 net.cpp:157] Top shape: 1 256 60 80 (1228800)
I0711 10:50:47.252882 28432 net.cpp:165] Memory required for data: 5121638568
I0711 10:50:47.252898 28432 layer_factory.hpp:77] Creating layer scale4e_branch2b
I0711 10:50:47.252913 28432 net.cpp:100] Creating Layer scale4e_branch2b
I0711 10:50:47.252918 28432 net.cpp:444] scale4e_branch2b <- res4e_branch2b
I0711 10:50:47.252930 28432 net.cpp:405] scale4e_branch2b -> res4e_branch2b (in-place)
I0711 10:50:47.252984 28432 layer_factory.hpp:77] Creating layer scale4e_branch2b
I0711 10:50:47.253131 28432 net.cpp:150] Setting up scale4e_branch2b
I0711 10:50:47.253137 28432 net.cpp:157] Top shape: 1 256 60 80 (1228800)
I0711 10:50:47.253139 28432 net.cpp:165] Memory required for data: 5126553768
I0711 10:50:47.253149 28432 layer_factory.hpp:77] Creating layer res4e_branch2b_relu
I0711 10:50:47.253159 28432 net.cpp:100] Creating Layer res4e_branch2b_relu
I0711 10:50:47.253165 28432 net.cpp:444] res4e_branch2b_relu <- res4e_branch2b
I0711 10:50:47.253175 28432 net.cpp:405] res4e_branch2b_relu -> res4e_branch2b (in-place)
I0711 10:50:47.253618 28432 net.cpp:150] Setting up res4e_branch2b_relu
I0711 10:50:47.253629 28432 net.cpp:157] Top shape: 1 256 60 80 (1228800)
I0711 10:50:47.253631 28432 net.cpp:165] Memory required for data: 5131468968
I0711 10:50:47.253635 28432 layer_factory.hpp:77] Creating layer res4e_branch2c
I0711 10:50:47.253659 28432 net.cpp:100] Creating Layer res4e_branch2c
I0711 10:50:47.253664 28432 net.cpp:444] res4e_branch2c <- res4e_branch2b
I0711 10:50:47.253677 28432 net.cpp:418] res4e_branch2c -> res4e_branch2c
I0711 10:50:47.255627 28432 cudnn_conv_layer.cpp:194] Reallocating workspace storage: 92952
I0711 10:50:47.255659 28432 net.cpp:150] Setting up res4e_branch2c
I0711 10:50:47.255671 28432 net.cpp:157] Top shape: 1 1024 60 80 (4915200)
I0711 10:50:47.255674 28432 net.cpp:165] Memory required for data: 5151129768
I0711 10:50:47.255692 28432 layer_factory.hpp:77] Creating layer bn4e_branch2c
I0711 10:50:47.255718 28432 net.cpp:100] Creating Layer bn4e_branch2c
I0711 10:50:47.255728 28432 net.cpp:444] bn4e_branch2c <- res4e_branch2c
I0711 10:50:47.255744 28432 net.cpp:405] bn4e_branch2c -> res4e_branch2c (in-place)
I0711 10:50:47.255956 28432 net.cpp:150] Setting up bn4e_branch2c
I0711 10:50:47.255962 28432 net.cpp:157] Top shape: 1 1024 60 80 (4915200)
I0711 10:50:47.255965 28432 net.cpp:165] Memory required for data: 5170790568
I0711 10:50:47.255980 28432 layer_factory.hpp:77] Creating layer scale4e_branch2c
I0711 10:50:47.255993 28432 net.cpp:100] Creating Layer scale4e_branch2c
I0711 10:50:47.256000 28432 net.cpp:444] scale4e_branch2c <- res4e_branch2c
I0711 10:50:47.256009 28432 net.cpp:405] scale4e_branch2c -> res4e_branch2c (in-place)
I0711 10:50:47.256060 28432 layer_factory.hpp:77] Creating layer scale4e_branch2c
I0711 10:50:47.256209 28432 net.cpp:150] Setting up scale4e_branch2c
I0711 10:50:47.256216 28432 net.cpp:157] Top shape: 1 1024 60 80 (4915200)
I0711 10:50:47.256217 28432 net.cpp:165] Memory required for data: 5190451368
I0711 10:50:47.256227 28432 layer_factory.hpp:77] Creating layer res4e
I0711 10:50:47.256237 28432 net.cpp:100] Creating Layer res4e
I0711 10:50:47.256243 28432 net.cpp:444] res4e <- res4d_res4d_relu_0_split_1
I0711 10:50:47.256253 28432 net.cpp:444] res4e <- res4e_branch2c
I0711 10:50:47.256260 28432 net.cpp:418] res4e -> res4e
I0711 10:50:47.256295 28432 net.cpp:150] Setting up res4e
I0711 10:50:47.256302 28432 net.cpp:157] Top shape: 1 1024 60 80 (4915200)
I0711 10:50:47.256305 28432 net.cpp:165] Memory required for data: 5210112168
I0711 10:50:47.256309 28432 layer_factory.hpp:77] Creating layer res4e_relu
I0711 10:50:47.256316 28432 net.cpp:100] Creating Layer res4e_relu
I0711 10:50:47.256321 28432 net.cpp:444] res4e_relu <- res4e
I0711 10:50:47.256331 28432 net.cpp:405] res4e_relu -> res4e (in-place)
I0711 10:50:47.256479 28432 net.cpp:150] Setting up res4e_relu
I0711 10:50:47.256485 28432 net.cpp:157] Top shape: 1 1024 60 80 (4915200)
I0711 10:50:47.256487 28432 net.cpp:165] Memory required for data: 5229772968
I0711 10:50:47.256491 28432 layer_factory.hpp:77] Creating layer res4e_res4e_relu_0_split
I0711 10:50:47.256500 28432 net.cpp:100] Creating Layer res4e_res4e_relu_0_split
I0711 10:50:47.256505 28432 net.cpp:444] res4e_res4e_relu_0_split <- res4e
I0711 10:50:47.256516 28432 net.cpp:418] res4e_res4e_relu_0_split -> res4e_res4e_relu_0_split_0
I0711 10:50:47.256530 28432 net.cpp:418] res4e_res4e_relu_0_split -> res4e_res4e_relu_0_split_1
I0711 10:50:47.256572 28432 net.cpp:150] Setting up res4e_res4e_relu_0_split
I0711 10:50:47.256578 28432 net.cpp:157] Top shape: 1 1024 60 80 (4915200)
I0711 10:50:47.256582 28432 net.cpp:157] Top shape: 1 1024 60 80 (4915200)
I0711 10:50:47.256584 28432 net.cpp:165] Memory required for data: 5269094568
I0711 10:50:47.256588 28432 layer_factory.hpp:77] Creating layer res4f_branch2a
I0711 10:50:47.256603 28432 net.cpp:100] Creating Layer res4f_branch2a
I0711 10:50:47.256608 28432 net.cpp:444] res4f_branch2a <- res4e_res4e_relu_0_split_0
I0711 10:50:47.256621 28432 net.cpp:418] res4f_branch2a -> res4f_branch2a
I0711 10:50:47.258054 28432 cudnn_conv_layer.cpp:194] Reallocating workspace storage: 92952
I0711 10:50:47.258080 28432 net.cpp:150] Setting up res4f_branch2a
I0711 10:50:47.258090 28432 net.cpp:157] Top shape: 1 256 60 80 (1228800)
I0711 10:50:47.258093 28432 net.cpp:165] Memory required for data: 5274009768
I0711 10:50:47.258107 28432 layer_factory.hpp:77] Creating layer bn4f_branch2a
I0711 10:50:47.258126 28432 net.cpp:100] Creating Layer bn4f_branch2a
I0711 10:50:47.258134 28432 net.cpp:444] bn4f_branch2a <- res4f_branch2a
I0711 10:50:47.258149 28432 net.cpp:405] bn4f_branch2a -> res4f_branch2a (in-place)
I0711 10:50:47.258354 28432 net.cpp:150] Setting up bn4f_branch2a
I0711 10:50:47.258360 28432 net.cpp:157] Top shape: 1 256 60 80 (1228800)
I0711 10:50:47.258363 28432 net.cpp:165] Memory required for data: 5278924968
I0711 10:50:47.258378 28432 layer_factory.hpp:77] Creating layer scale4f_branch2a
I0711 10:50:47.258391 28432 net.cpp:100] Creating Layer scale4f_branch2a
I0711 10:50:47.258396 28432 net.cpp:444] scale4f_branch2a <- res4f_branch2a
I0711 10:50:47.258406 28432 net.cpp:405] scale4f_branch2a -> res4f_branch2a (in-place)
I0711 10:50:47.258458 28432 layer_factory.hpp:77] Creating layer scale4f_branch2a
I0711 10:50:47.258605 28432 net.cpp:150] Setting up scale4f_branch2a
I0711 10:50:47.258611 28432 net.cpp:157] Top shape: 1 256 60 80 (1228800)
I0711 10:50:47.258613 28432 net.cpp:165] Memory required for data: 5283840168
I0711 10:50:47.258623 28432 layer_factory.hpp:77] Creating layer res4f_branch2a_relu
I0711 10:50:47.258632 28432 net.cpp:100] Creating Layer res4f_branch2a_relu
I0711 10:50:47.258637 28432 net.cpp:444] res4f_branch2a_relu <- res4f_branch2a
I0711 10:50:47.258647 28432 net.cpp:405] res4f_branch2a_relu -> res4f_branch2a (in-place)
I0711 10:50:47.258791 28432 net.cpp:150] Setting up res4f_branch2a_relu
I0711 10:50:47.258798 28432 net.cpp:157] Top shape: 1 256 60 80 (1228800)
I0711 10:50:47.258800 28432 net.cpp:165] Memory required for data: 5288755368
I0711 10:50:47.258805 28432 layer_factory.hpp:77] Creating layer res4f_branch2b
I0711 10:50:47.258818 28432 net.cpp:100] Creating Layer res4f_branch2b
I0711 10:50:47.258823 28432 net.cpp:444] res4f_branch2b <- res4f_branch2a
I0711 10:50:47.258837 28432 net.cpp:418] res4f_branch2b -> res4f_branch2b
I0711 10:50:47.261222 28432 cudnn_conv_layer.cpp:194] Reallocating workspace storage: 12582912
I0711 10:50:47.261471 28432 net.cpp:150] Setting up res4f_branch2b
I0711 10:50:47.261487 28432 net.cpp:157] Top shape: 1 256 60 80 (1228800)
I0711 10:50:47.261489 28432 net.cpp:165] Memory required for data: 5293670568
I0711 10:50:47.261504 28432 layer_factory.hpp:77] Creating layer bn4f_branch2b
I0711 10:50:47.261526 28432 net.cpp:100] Creating Layer bn4f_branch2b
I0711 10:50:47.261534 28432 net.cpp:444] bn4f_branch2b <- res4f_branch2b
I0711 10:50:47.261562 28432 net.cpp:405] bn4f_branch2b -> res4f_branch2b (in-place)
I0711 10:50:47.261783 28432 net.cpp:150] Setting up bn4f_branch2b
I0711 10:50:47.261790 28432 net.cpp:157] Top shape: 1 256 60 80 (1228800)
I0711 10:50:47.261792 28432 net.cpp:165] Memory required for data: 5298585768
I0711 10:50:47.261808 28432 layer_factory.hpp:77] Creating layer scale4f_branch2b
I0711 10:50:47.261821 28432 net.cpp:100] Creating Layer scale4f_branch2b
I0711 10:50:47.261826 28432 net.cpp:444] scale4f_branch2b <- res4f_branch2b
I0711 10:50:47.261837 28432 net.cpp:405] scale4f_branch2b -> res4f_branch2b (in-place)
I0711 10:50:47.261893 28432 layer_factory.hpp:77] Creating layer scale4f_branch2b
I0711 10:50:47.262042 28432 net.cpp:150] Setting up scale4f_branch2b
I0711 10:50:47.262048 28432 net.cpp:157] Top shape: 1 256 60 80 (1228800)
I0711 10:50:47.262050 28432 net.cpp:165] Memory required for data: 5303500968
I0711 10:50:47.262059 28432 layer_factory.hpp:77] Creating layer res4f_branch2b_relu
I0711 10:50:47.262070 28432 net.cpp:100] Creating Layer res4f_branch2b_relu
I0711 10:50:47.262076 28432 net.cpp:444] res4f_branch2b_relu <- res4f_branch2b
I0711 10:50:47.262086 28432 net.cpp:405] res4f_branch2b_relu -> res4f_branch2b (in-place)
I0711 10:50:47.262251 28432 net.cpp:150] Setting up res4f_branch2b_relu
I0711 10:50:47.262257 28432 net.cpp:157] Top shape: 1 256 60 80 (1228800)
I0711 10:50:47.262259 28432 net.cpp:165] Memory required for data: 5308416168
I0711 10:50:47.262264 28432 layer_factory.hpp:77] Creating layer res4f_branch2c
I0711 10:50:47.262279 28432 net.cpp:100] Creating Layer res4f_branch2c
I0711 10:50:47.262284 28432 net.cpp:444] res4f_branch2c <- res4f_branch2b
I0711 10:50:47.262298 28432 net.cpp:418] res4f_branch2c -> res4f_branch2c
I0711 10:50:47.264262 28432 cudnn_conv_layer.cpp:194] Reallocating workspace storage: 92952
I0711 10:50:47.264292 28432 net.cpp:150] Setting up res4f_branch2c
I0711 10:50:47.264307 28432 net.cpp:157] Top shape: 1 1024 60 80 (4915200)
I0711 10:50:47.264309 28432 net.cpp:165] Memory required for data: 5328076968
I0711 10:50:47.264327 28432 layer_factory.hpp:77] Creating layer bn4f_branch2c
I0711 10:50:47.264348 28432 net.cpp:100] Creating Layer bn4f_branch2c
I0711 10:50:47.264358 28432 net.cpp:444] bn4f_branch2c <- res4f_branch2c
I0711 10:50:47.264374 28432 net.cpp:405] bn4f_branch2c -> res4f_branch2c (in-place)
I0711 10:50:47.264595 28432 net.cpp:150] Setting up bn4f_branch2c
I0711 10:50:47.264602 28432 net.cpp:157] Top shape: 1 1024 60 80 (4915200)
I0711 10:50:47.264605 28432 net.cpp:165] Memory required for data: 5347737768
I0711 10:50:47.264655 28432 layer_factory.hpp:77] Creating layer scale4f_branch2c
I0711 10:50:47.264673 28432 net.cpp:100] Creating Layer scale4f_branch2c
I0711 10:50:47.264679 28432 net.cpp:444] scale4f_branch2c <- res4f_branch2c
I0711 10:50:47.264689 28432 net.cpp:405] scale4f_branch2c -> res4f_branch2c (in-place)
I0711 10:50:47.264744 28432 layer_factory.hpp:77] Creating layer scale4f_branch2c
I0711 10:50:47.264897 28432 net.cpp:150] Setting up scale4f_branch2c
I0711 10:50:47.264904 28432 net.cpp:157] Top shape: 1 1024 60 80 (4915200)
I0711 10:50:47.264905 28432 net.cpp:165] Memory required for data: 5367398568
I0711 10:50:47.264915 28432 layer_factory.hpp:77] Creating layer res4f
I0711 10:50:47.264925 28432 net.cpp:100] Creating Layer res4f
I0711 10:50:47.264931 28432 net.cpp:444] res4f <- res4e_res4e_relu_0_split_1
I0711 10:50:47.264940 28432 net.cpp:444] res4f <- res4f_branch2c
I0711 10:50:47.264950 28432 net.cpp:418] res4f -> res4f
I0711 10:50:47.264986 28432 net.cpp:150] Setting up res4f
I0711 10:50:47.264995 28432 net.cpp:157] Top shape: 1 1024 60 80 (4915200)
I0711 10:50:47.264997 28432 net.cpp:165] Memory required for data: 5387059368
I0711 10:50:47.265002 28432 layer_factory.hpp:77] Creating layer res4f_relu
I0711 10:50:47.265009 28432 net.cpp:100] Creating Layer res4f_relu
I0711 10:50:47.265014 28432 net.cpp:444] res4f_relu <- res4f
I0711 10:50:47.265023 28432 net.cpp:405] res4f_relu -> res4f (in-place)
I0711 10:50:47.265498 28432 net.cpp:150] Setting up res4f_relu
I0711 10:50:47.265508 28432 net.cpp:157] Top shape: 1 1024 60 80 (4915200)
I0711 10:50:47.265511 28432 net.cpp:165] Memory required for data: 5406720168
I0711 10:50:47.265516 28432 layer_factory.hpp:77] Creating layer res4f_res4f_relu_0_split
I0711 10:50:47.265527 28432 net.cpp:100] Creating Layer res4f_res4f_relu_0_split
I0711 10:50:47.265532 28432 net.cpp:444] res4f_res4f_relu_0_split <- res4f
I0711 10:50:47.265545 28432 net.cpp:418] res4f_res4f_relu_0_split -> res4f_res4f_relu_0_split_0
I0711 10:50:47.265568 28432 net.cpp:418] res4f_res4f_relu_0_split -> res4f_res4f_relu_0_split_1
I0711 10:50:47.265578 28432 net.cpp:418] res4f_res4f_relu_0_split -> res4f_res4f_relu_0_split_2
I0711 10:50:47.265586 28432 net.cpp:418] res4f_res4f_relu_0_split -> res4f_res4f_relu_0_split_3
I0711 10:50:47.265656 28432 net.cpp:150] Setting up res4f_res4f_relu_0_split
I0711 10:50:47.265664 28432 net.cpp:157] Top shape: 1 1024 60 80 (4915200)
I0711 10:50:47.265668 28432 net.cpp:157] Top shape: 1 1024 60 80 (4915200)
I0711 10:50:47.265671 28432 net.cpp:157] Top shape: 1 1024 60 80 (4915200)
I0711 10:50:47.265674 28432 net.cpp:157] Top shape: 1 1024 60 80 (4915200)
I0711 10:50:47.265676 28432 net.cpp:165] Memory required for data: 5485363368
I0711 10:50:47.265679 28432 layer_factory.hpp:77] Creating layer res5a_branch1
I0711 10:50:47.265696 28432 net.cpp:100] Creating Layer res5a_branch1
I0711 10:50:47.265700 28432 net.cpp:444] res5a_branch1 <- res4f_res4f_relu_0_split_0
…
I0711 10:50:47.849097 28432 net.cpp:150] Setting up rpn_cls_score_rpn_cls_score_0_split
I0711 10:50:47.849103 28432 net.cpp:157] Top shape: 1 22 60 80 (105600)
I0711 10:50:47.849107 28432 net.cpp:157] Top shape: 1 22 60 80 (105600)
I0711 10:50:47.849108 28432 net.cpp:165] Memory required for data: 6705600168
I0711 10:50:47.849112 28432 layer_factory.hpp:77] Creating layer rpn_bbox_pred
I0711 10:50:47.849128 28432 net.cpp:100] Creating Layer rpn_bbox_pred
I0711 10:50:47.849133 28432 net.cpp:444] rpn_bbox_pred <- rpn/output_rpn_relu/3x3_0_split_1
I0711 10:50:47.849146 28432 net.cpp:418] rpn_bbox_pred -> rpn_bbox_pred
I0711 10:50:47.852597 28432 cudnn_conv_layer.cpp:194] Reallocating workspace storage: 92952
I0711 10:50:47.852855 28432 net.cpp:150] Setting up rpn_bbox_pred
I0711 10:50:47.852865 28432 net.cpp:157] Top shape: 1 44 60 80 (211200)
I0711 10:50:47.852869 28432 net.cpp:165] Memory required for data: 6706444968
I0711 10:50:47.852880 28432 layer_factory.hpp:77] Creating layer rpn_bbox_pred_rpn_bbox_pred_0_split
I0711 10:50:47.852890 28432 net.cpp:100] Creating Layer rpn_bbox_pred_rpn_bbox_pred_0_split
I0711 10:50:47.852895 28432 net.cpp:444] rpn_bbox_pred_rpn_bbox_pred_0_split <- rpn_bbox_pred
I0711 10:50:47.852907 28432 net.cpp:418] rpn_bbox_pred_rpn_bbox_pred_0_split -> rpn_bbox_pred_rpn_bbox_pred_0_split_0
I0711 10:50:47.852937 28432 net.cpp:418] rpn_bbox_pred_rpn_bbox_pred_0_split -> rpn_bbox_pred_rpn_bbox_pred_0_split_1
I0711 10:50:47.852984 28432 net.cpp:150] Setting up rpn_bbox_pred_rpn_bbox_pred_0_split
I0711 10:50:47.852993 28432 net.cpp:157] Top shape: 1 44 60 80 (211200)
I0711 10:50:47.852998 28432 net.cpp:157] Top shape: 1 44 60 80 (211200)
I0711 10:50:47.852998 28432 net.cpp:165] Memory required for data: 6708134568
I0711 10:50:47.853003 28432 layer_factory.hpp:77] Creating layer rpn_cls_score_reshape
I0711 10:50:47.853013 28432 net.cpp:100] Creating Layer rpn_cls_score_reshape
I0711 10:50:47.853018 28432 net.cpp:444] rpn_cls_score_reshape <- rpn_cls_score_rpn_cls_score_0_split_0
I0711 10:50:47.853029 28432 net.cpp:418] rpn_cls_score_reshape -> rpn_cls_score_reshape
I0711 10:50:47.853066 28432 net.cpp:150] Setting up rpn_cls_score_reshape
I0711 10:50:47.853072 28432 net.cpp:157] Top shape: 1 2 660 80 (105600)
I0711 10:50:47.853075 28432 net.cpp:165] Memory required for data: 6708556968
I0711 10:50:47.853078 28432 layer_factory.hpp:77] Creating layer rpn_cls_score_reshape_rpn_cls_score_reshape_0_split
I0711 10:50:47.853090 28432 net.cpp:100] Creating Layer rpn_cls_score_reshape_rpn_cls_score_reshape_0_split
I0711 10:50:47.853094 28432 net.cpp:444] rpn_cls_score_reshape_rpn_cls_score_reshape_0_split <- rpn_cls_score_reshape
I0711 10:50:47.853106 28432 net.cpp:418] rpn_cls_score_reshape_rpn_cls_score_reshape_0_split -> rpn_cls_score_reshape_rpn_cls_score_reshape_0_split_0
I0711 10:50:47.853117 28432 net.cpp:418] rpn_cls_score_reshape_rpn_cls_score_reshape_0_split -> rpn_cls_score_reshape_rpn_cls_score_reshape_0_split_1
I0711 10:50:47.853159 28432 net.cpp:150] Setting up rpn_cls_score_reshape_rpn_cls_score_reshape_0_split
I0711 10:50:47.853168 28432 net.cpp:157] Top shape: 1 2 660 80 (105600)
I0711 10:50:47.853170 28432 net.cpp:157] Top shape: 1 2 660 80 (105600)
I0711 10:50:47.853173 28432 net.cpp:165] Memory required for data: 6709401768
I0711 10:50:47.853175 28432 layer_factory.hpp:77] Creating layer rpn-data
I0711 10:50:47.853519 28432 net.cpp:100] Creating Layer rpn-data
I0711 10:50:47.853529 28432 net.cpp:444] rpn-data <- rpn_cls_score_rpn_cls_score_0_split_1
I0711 10:50:47.853541 28432 net.cpp:444] rpn-data <- gt_boxes_input-data_2_split_0
I0711 10:50:47.853547 28432 net.cpp:444] rpn-data <- im_info_input-data_1_split_0
I0711 10:50:47.853557 28432 net.cpp:444] rpn-data <- data_input-data_0_split_1
I0711 10:50:47.853566 28432 net.cpp:418] rpn-data -> rpn_labels
I0711 10:50:47.853581 28432 net.cpp:418] rpn-data -> rpn_bbox_targets
I0711 10:50:47.853593 28432 net.cpp:418] rpn-data -> rpn_bbox_inside_weights
I0711 10:50:47.853605 28432 net.cpp:418] rpn-data -> rpn_bbox_outside_weights
I0711 10:50:47.854127 28432 net.cpp:150] Setting up rpn-data
I0711 10:50:47.854140 28432 net.cpp:157] Top shape: 1 1 660 80 (52800)
I0711 10:50:47.854143 28432 net.cpp:157] Top shape: 1 44 60 80 (211200)
I0711 10:50:47.854147 28432 net.cpp:157] Top shape: 1 44 60 80 (211200)
I0711 10:50:47.854151 28432 net.cpp:157] Top shape: 1 44 60 80 (211200)
I0711 10:50:47.854152 28432 net.cpp:165] Memory required for data: 6712147368
I0711 10:50:47.854159 28432 layer_factory.hpp:77] Creating layer rpn_loss_cls
I0711 10:50:47.854173 28432 net.cpp:100] Creating Layer rpn_loss_cls
I0711 10:50:47.854179 28432 net.cpp:444] rpn_loss_cls <- rpn_cls_score_reshape_rpn_cls_score_reshape_0_split_0
I0711 10:50:47.854190 28432 net.cpp:444] rpn_loss_cls <- rpn_labels
…
I0711 10:50:47.857475 28432 net.cpp:157] Top shape: (1)
I0711 10:50:47.857476 28432 net.cpp:160]     with loss weight 1
I0711 10:50:47.857481 28432 net.cpp:165] Memory required for data: 6712147376
I0711 10:50:47.857484 28432 layer_factory.hpp:77] Creating layer rpn_cls_prob
I0711 10:50:47.857494 28432 net.cpp:100] Creating Layer rpn_cls_prob
I0711 10:50:47.857499 28432 net.cpp:444] rpn_cls_prob <- rpn_cls_score_reshape_rpn_cls_score_reshape_0_split_1
I0711 10:50:47.857511 28432 net.cpp:418] rpn_cls_prob -> rpn_cls_prob
I0711 10:50:47.857729 28432 net.cpp:150] Setting up rpn_cls_prob
I0711 10:50:47.857738 28432 net.cpp:157] Top shape: 1 2 660 80 (105600)
I0711 10:50:47.857741 28432 net.cpp:165] Memory required for data: 6712569776
I0711 10:50:47.857745 28432 layer_factory.hpp:77] Creating layer rpn_cls_prob_reshape
I0711 10:50:47.857758 28432 net.cpp:100] Creating Layer rpn_cls_prob_reshape
I0711 10:50:47.857764 28432 net.cpp:444] rpn_cls_prob_reshape <- rpn_cls_prob
I0711 10:50:47.857777 28432 net.cpp:418] rpn_cls_prob_reshape -> rpn_cls_prob_reshape
I0711 10:50:47.857815 28432 net.cpp:150] Setting up rpn_cls_prob_reshape
I0711 10:50:47.857822 28432 net.cpp:157] Top shape: 1 22 60 80 (105600)
I0711 10:50:47.857825 28432 net.cpp:165] Memory required for data: 6712992176
I0711 10:50:47.857828 28432 layer_factory.hpp:77] Creating layer proposal
I0711 10:50:47.858305 28432 net.cpp:100] Creating Layer proposal
I0711 10:50:47.858316 28432 net.cpp:444] proposal <- rpn_cls_prob_reshape
I0711 10:50:47.858328 28432 net.cpp:444] proposal <- rpn_bbox_pred_rpn_bbox_pred_0_split_1
I0711 10:50:47.858335 28432 net.cpp:444] proposal <- im_info_input-data_1_split_1
I0711 10:50:47.858345 28432 net.cpp:418] proposal -> rpn_rois
I0711 10:50:47.859910 28432 net.cpp:150] Setting up proposal
I0711 10:50:47.859925 28432 net.cpp:157] Top shape: 1 5 (5)
I0711 10:50:47.859928 28432 net.cpp:165] Memory required for data: 6712992196
I0711 10:50:47.859935 28432 layer_factory.hpp:77] Creating layer roi-data
I0711 10:50:47.860066 28432 net.cpp:100] Creating Layer roi-data
I0711 10:50:47.860077 28432 net.cpp:444] roi-data <- rpn_rois
I0711 10:50:47.860090 28432 net.cpp:444] roi-data <- gt_boxes_input-data_2_split_1
I0711 10:50:47.860103 28432 net.cpp:418] roi-data -> rois
I0711 10:50:47.860119 28432 net.cpp:418] roi-data -> labels
I0711 10:50:47.860131 28432 net.cpp:418] roi-data -> bbox_targets
I0711 10:50:47.860141 28432 net.cpp:418] roi-data -> bbox_inside_weights
I0711 10:50:47.860150 28432 net.cpp:418] roi-data -> bbox_outside_weights
I0711 10:50:47.860491 28432 net.cpp:150] Setting up roi-data
I0711 10:50:47.860502 28432 net.cpp:157] Top shape: 1 5 1 1 (5)
I0711 10:50:47.860505 28432 net.cpp:157] Top shape: 1 1 1 1 (1)
I0711 10:50:47.860508 28432 net.cpp:157] Top shape: 1 8 1 1 (8)
I0711 10:50:47.860512 28432 net.cpp:157] Top shape: 1 8 1 1 (8)
I0711 10:50:47.860513 28432 net.cpp:157] Top shape: 1 8 1 1 (8)
I0711 10:50:47.860515 28432 net.cpp:165] Memory required for data: 6712992316
I0711 10:50:47.860519 28432 layer_factory.hpp:77] Creating layer rois_roi-data_0_split
I0711 10:50:47.860532 28432 net.cpp:100] Creating Layer rois_roi-data_0_split
I0711 10:50:47.860538 28432 net.cpp:444] rois_roi-data_0_split <- rois
I0711 10:50:47.860549 28432 net.cpp:418] rois_roi-data_0_split -> rois_roi-data_0_split_0
I0711 10:50:47.860565 28432 net.cpp:418] rois_roi-data_0_split -> rois_roi-data_0_split_1
I0711 10:50:47.860576 28432 net.cpp:418] rois_roi-data_0_split -> rois_roi-data_0_split_2
I0711 10:50:47.860648 28432 net.cpp:150] Setting up rois_roi-data_0_split
I0711 10:50:47.860656 28432 net.cpp:157] Top shape: 1 5 1 1 (5)
I0711 10:50:47.860661 28432 net.cpp:157] Top shape: 1 5 1 1 (5)
I0711 10:50:47.860662 28432 net.cpp:157] Top shape: 1 5 1 1 (5)
I0711 10:50:47.860664 28432 net.cpp:165] Memory required for data: 6712992376
I0711 10:50:47.860668 28432 layer_factory.hpp:77] Creating layer labels_roi-data_1_split
I0711 10:50:47.860677 28432 net.cpp:100] Creating Layer labels_roi-data_1_split
I0711 10:50:47.860682 28432 net.cpp:444] labels_roi-data_1_split <- labels
I0711 10:50:47.860694 28432 net.cpp:418] labels_roi-data_1_split -> labels_roi-data_1_split_0
I0711 10:50:47.860707 28432 net.cpp:418] labels_roi-data_1_split -> labels_roi-data_1_split_1
I0711 10:50:47.860749 28432 net.cpp:150] Setting up labels_roi-data_1_split
I0711 10:50:47.860756 28432 net.cpp:157] Top shape: 1 1 1 1 (1)
I0711 10:50:47.860759 28432 net.cpp:157] Top shape: 1 1 1 1 (1)
I0711 10:50:47.860761 28432 net.cpp:165] Memory required for data: 6712992384
I0711 10:50:47.860764 28432 layer_factory.hpp:77] Creating layer bbox_targets_roi-data_2_split
I0711 10:50:47.860774 28432 net.cpp:100] Creating Layer bbox_targets_roi-data_2_split
I0711 10:50:47.860779 28432 net.cpp:444] bbox_targets_roi-data_2_split <- bbox_targets
I0711 10:50:47.860788 28432 net.cpp:418] bbox_targets_roi-data_2_split -> bbox_targets_roi-data_2_split_0
I0711 10:50:47.860800 28432 net.cpp:418] bbox_targets_roi-data_2_split -> bbox_targets_roi-data_2_split_1
I0711 10:50:47.860841 28432 net.cpp:150] Setting up bbox_targets_roi-data_2_split
I0711 10:50:47.860848 28432 net.cpp:157] Top shape: 1 8 1 1 (8)
I0711 10:50:47.860852 28432 net.cpp:157] Top shape: 1 8 1 1 (8)
I0711 10:50:47.860854 28432 net.cpp:165] Memory required for data: 6712992448
I0711 10:50:47.860858 28432 layer_factory.hpp:77] Creating layer bbox_inside_weights_roi-data_3_split
I0711 10:50:47.860865 28432 net.cpp:100] Creating Layer bbox_inside_weights_roi-data_3_split
I0711 10:50:47.860870 28432 net.cpp:444] bbox_inside_weights_roi-data_3_split <- bbox_inside_weights
I0711 10:50:47.860882 28432 net.cpp:418] bbox_inside_weights_roi-data_3_split -> bbox_inside_weights_roi-data_3_split_0
I0711 10:50:47.860893 28432 net.cpp:418] bbox_inside_weights_roi-data_3_split -> bbox_inside_weights_roi-data_3_split_1
I0711 10:50:47.860935 28432 net.cpp:150] Setting up bbox_inside_weights_roi-data_3_split
I0711 10:50:47.860941 28432 net.cpp:157] Top shape: 1 8 1 1 (8)
I0711 10:50:47.860945 28432 net.cpp:157] Top shape: 1 8 1 1 (8)
I0711 10:50:47.860947 28432 net.cpp:165] Memory required for data: 6712992512
I0711 10:50:47.860950 28432 layer_factory.hpp:77] Creating layer rpn_conv_head/3x3
I0711 10:50:47.860972 28432 net.cpp:100] Creating Layer rpn_conv_head/3x3
I0711 10:50:47.860977 28432 net.cpp:444] rpn_conv_head/3x3 <- res4f_res4f_relu_0_split_3
I0711 10:50:47.860993 28432 net.cpp:418] rpn_conv_head/3x3 -> rpn_head/output
I0711 10:50:48.451236 28432 cudnn_conv_layer.cpp:194] Reallocating workspace storage: 92952
I0711 10:50:48.451269 28432 net.cpp:150] Setting up rpn_conv_head/3x3
I0711 10:50:48.451283 28432 net.cpp:157] Top shape: 1 512 60 80 (2457600)
I0711 10:50:48.451287 28432 net.cpp:165] Memory required for data: 6722822912
I0711 10:50:48.451314 28432 layer_factory.hpp:77] Creating layer rpn_relu_head/3x3
I0711 10:50:48.451344 28432 net.cpp:100] Creating Layer rpn_relu_head/3x3
I0711 10:50:48.451355 28432 net.cpp:444] rpn_relu_head/3x3 <- rpn_head/output
I0711 10:50:48.451375 28432 net.cpp:405] rpn_relu_head/3x3 -> rpn_head/output (in-place)
I0711 10:50:48.451915 28432 net.cpp:150] Setting up rpn_relu_head/3x3
I0711 10:50:48.451926 28432 net.cpp:157] Top shape: 1 512 60 80 (2457600)
I0711 10:50:48.451930 28432 net.cpp:165] Memory required for data: 6732653312
I0711 10:50:48.451936 28432 layer_factory.hpp:77] Creating layer rpn_head/output_rpn_relu_head/3x3_0_split
I0711 10:50:48.451947 28432 net.cpp:100] Creating Layer rpn_head/output_rpn_relu_head/3x3_0_split
I0711 10:50:48.451953 28432 net.cpp:444] rpn_head/output_rpn_relu_head/3x3_0_split <- rpn_head/output
I0711 10:50:48.451972 28432 net.cpp:418] rpn_head/output_rpn_relu_head/3x3_0_split -> rpn_head/output_rpn_relu_head/3x3_0_split_0
I0711 10:50:48.451992 28432 net.cpp:418] rpn_head/output_rpn_relu_head/3x3_0_split -> rpn_head/output_rpn_relu_head/3x3_0_split_1
I0711 10:50:48.452056 28432 net.cpp:150] Setting up rpn_head/output_rpn_relu_head/3x3_0_split
I0711 10:50:48.452065 28432 net.cpp:157] Top shape: 1 512 60 80 (2457600)
I0711 10:50:48.452071 28432 net.cpp:157] Top shape: 1 512 60 80 (2457600)
I0711 10:50:48.452075 28432 net.cpp:165] Memory required for data: 6752314112
I0711 10:50:48.452078 28432 layer_factory.hpp:77] Creating layer rpn_head_cls_score
I0711 10:50:48.452105 28432 net.cpp:100] Creating Layer rpn_head_cls_score
I0711 10:50:48.452112 28432 net.cpp:444] rpn_head_cls_score <- rpn_head/output_rpn_relu_head/3x3_0_split_0
I0711 10:50:48.452131 28432 net.cpp:418] rpn_head_cls_score -> rpn_head_cls_score
I0711 10:50:48.454967 28432 cudnn_conv_layer.cpp:194] Reallocating workspace storage: 92952
I0711 10:50:48.454990 28432 net.cpp:150] Setting up rpn_head_cls_score
I0711 10:50:48.455000 28432 net.cpp:157] Top shape: 1 22 60 80 (105600)
I0711 10:50:48.455003 28432 net.cpp:165] Memory required for data: 6752736512
I0711 10:50:48.455018 28432 layer_factory.hpp:77] Creating layer rpn_head_cls_score_rpn_head_cls_score_0_split
I0711 10:50:48.455044 28432 net.cpp:100] Creating Layer rpn_head_cls_score_rpn_head_cls_score_0_split
I0711 10:50:48.455052 28432 net.cpp:444] rpn_head_cls_score_rpn_head_cls_score_0_split <- rpn_head_cls_score
I0711 10:50:48.455077 28432 net.cpp:418] rpn_head_cls_score_rpn_head_cls_score_0_split -> rpn_head_cls_score_rpn_head_cls_score_0_split_0
I0711 10:50:48.455097 28432 net.cpp:418] rpn_head_cls_score_rpn_head_cls_score_0_split -> rpn_head_cls_score_rpn_head_cls_score_0_split_1
I0711 10:50:48.455157 28432 net.cpp:150] Setting up rpn_head_cls_score_rpn_head_cls_score_0_split
I0711 10:50:48.455166 28432 net.cpp:157] Top shape: 1 22 60 80 (105600)
I0711 10:50:48.455173 28432 net.cpp:157] Top shape: 1 22 60 80 (105600)
I0711 10:50:48.455174 28432 net.cpp:165] Memory required for data: 6753581312
I0711 10:50:48.455179 28432 layer_factory.hpp:77] Creating layer rpn_head_bbox_pred
I0711 10:50:48.455199 28432 net.cpp:100] Creating Layer rpn_head_bbox_pred
I0711 10:50:48.455206 28432 net.cpp:444] rpn_head_bbox_pred <- rpn_head/output_rpn_relu_head/3x3_0_split_1
I0711 10:50:48.455225 28432 net.cpp:418] rpn_head_bbox_pred -> rpn_head_bbox_pred
I0711 10:50:48.459659 28432 cudnn_conv_layer.cpp:194] Reallocating workspace storage: 92952
I0711 10:50:48.459681 28432 net.cpp:150] Setting up rpn_head_bbox_pred
I0711 10:50:48.459692 28432 net.cpp:157] Top shape: 1 44 60 80 (211200)
I0711 10:50:48.459694 28432 net.cpp:165] Memory required for data: 6754426112
I0711 10:50:48.459709 28432 layer_factory.hpp:77] Creating layer rpn_head_bbox_pred_rpn_head_bbox_pred_0_split
I0711 10:50:48.459722 28432 net.cpp:100] Creating Layer rpn_head_bbox_pred_rpn_head_bbox_pred_0_split
I0711 10:50:48.459730 28432 net.cpp:444] rpn_head_bbox_pred_rpn_head_bbox_pred_0_split <- rpn_head_bbox_pred
I0711 10:50:48.459748 28432 net.cpp:418] rpn_head_bbox_pred_rpn_head_bbox_pred_0_split -> rpn_head_bbox_pred_rpn_head_bbox_pred_0_split_0
I0711 10:50:48.459766 28432 net.cpp:418] rpn_head_bbox_pred_rpn_head_bbox_pred_0_split -> rpn_head_bbox_pred_rpn_head_bbox_pred_0_split_1
I0711 10:50:48.459828 28432 net.cpp:150] Setting up rpn_head_bbox_pred_rpn_head_bbox_pred_0_split
I0711 10:50:48.459837 28432 net.cpp:157] Top shape: 1 44 60 80 (211200)
I0711 10:50:48.459842 28432 net.cpp:157] Top shape: 1 44 60 80 (211200)
I0711 10:50:48.459846 28432 net.cpp:165] Memory required for data: 6756115712
I0711 10:50:48.459851 28432 layer_factory.hpp:77] Creating layer rpn_head_cls_score_reshape
I0711 10:50:48.459866 28432 net.cpp:100] Creating Layer rpn_head_cls_score_reshape
I0711 10:50:48.459872 28432 net.cpp:444] rpn_head_cls_score_reshape <- rpn_head_cls_score_rpn_head_cls_score_0_split_0
I0711 10:50:48.459889 28432 net.cpp:418] rpn_head_cls_score_reshape -> rpn_head_cls_score_reshape
I0711 10:50:48.459938 28432 net.cpp:150] Setting up rpn_head_cls_score_reshape
I0711 10:50:48.459946 28432 net.cpp:157] Top shape: 1 2 660 80 (105600)
I0711 10:50:48.459950 28432 net.cpp:165] Memory required for data: 6756538112
I0711 10:50:48.459954 28432 layer_factory.hpp:77] Creating layer rpn_head_cls_score_reshape_rpn_head_cls_score_reshape_0_split
I0711 10:50:48.459964 28432 net.cpp:100] Creating Layer rpn_head_cls_score_reshape_rpn_head_cls_score_reshape_0_split
I0711 10:50:48.459970 28432 net.cpp:444] rpn_head_cls_score_reshape_rpn_head_cls_score_reshape_0_split <- rpn_head_cls_score_reshape
I0711 10:50:48.459986 28432 net.cpp:418] rpn_head_cls_score_reshape_rpn_head_cls_score_reshape_0_split -> rpn_head_cls_score_reshape_rpn_head_cls_score_reshape_0_split_0
I0711 10:50:48.460002 28432 net.cpp:418] rpn_head_cls_score_reshape_rpn_head_cls_score_reshape_0_split -> rpn_head_cls_score_reshape_rpn_head_cls_score_reshape_0_split_1
I0711 10:50:48.460059 28432 net.cpp:150] Setting up rpn_head_cls_score_reshape_rpn_head_cls_score_reshape_0_split
I0711 10:50:48.460069 28432 net.cpp:157] Top shape: 1 2 660 80 (105600)
I0711 10:50:48.460073 28432 net.cpp:157] Top shape: 1 2 660 80 (105600)
I0711 10:50:48.460077 28432 net.cpp:165] Memory required for data: 6757382912
I0711 10:50:48.460080 28432 layer_factory.hpp:77] Creating layer rpn_head-data
I0711 10:50:48.460292 28432 net.cpp:100] Creating Layer rpn_head-data
I0711 10:50:48.460304 28432 net.cpp:444] rpn_head-data <- rpn_head_cls_score_rpn_head_cls_score_0_split_1
I0711 10:50:48.460319 28432 net.cpp:444] rpn_head-data <- head_gt_boxes_input-data_3_split_0
I0711 10:50:48.460327 28432 net.cpp:444] rpn_head-data <- im_info_input-data_1_split_2
I0711 10:50:48.460335 28432 net.cpp:444] rpn_head-data <- data_input-data_0_split_2
I0711 10:50:48.460346 28432 net.cpp:418] rpn_head-data -> rpn_head_labels
I0711 10:50:48.460366 28432 net.cpp:418] rpn_head-data -> rpn_head_bbox_targets
I0711 10:50:48.460382 28432 net.cpp:418] rpn_head-data -> rpn_head_bbox_inside_weights
I0711 10:50:48.460397 28432 net.cpp:418] rpn_head-data -> rpn_head_bbox_outside_weights
I0711 10:50:48.461787 28432 net.cpp:150] Setting up rpn_head-data
I0711 10:50:48.461804 28432 net.cpp:157] Top shape: 1 1 660 80 (52800)
I0711 10:50:48.461810 28432 net.cpp:157] Top shape: 1 44 60 80 (211200)
I0711 10:50:48.461815 28432 net.cpp:157] Top shape: 1 44 60 80 (211200)
I0711 10:50:48.461819 28432 net.cpp:157] Top shape: 1 44 60 80 (211200)
I0711 10:50:48.461822 28432 net.cpp:165] Memory required for data: 6760128512
I0711 10:50:48.461829 28432 layer_factory.hpp:77] Creating layer rpn_head_loss_cls
I0711 10:50:48.461849 28432 net.cpp:100] Creating Layer rpn_head_loss_cls
I0711 10:50:48.461858 28432 net.cpp:444] rpn_head_loss_cls <- rpn_head_cls_score_reshape_rpn_head_cls_score_reshape_0_split_0
I0711 10:50:48.461874 28432 net.cpp:444] rpn_head_loss_cls <- rpn_head_labels
…
I0711 10:50:48.466248 28432 net.cpp:160]     with loss weight 1
I0711 10:50:48.466254 28432 net.cpp:165] Memory required for data: 6760128520
I0711 10:50:48.466265 28432 layer_factory.hpp:77] Creating layer rpn_head_cls_prob
I0711 10:50:48.466289 28432 net.cpp:100] Creating Layer rpn_head_cls_prob
I0711 10:50:48.466300 28432 net.cpp:444] rpn_head_cls_prob <- rpn_head_cls_score_reshape_rpn_head_cls_score_reshape_0_split_1
I0711 10:50:48.466323 28432 net.cpp:418] rpn_head_cls_prob -> rpn_head_cls_prob
I0711 10:50:48.466676 28432 net.cpp:150] Setting up rpn_head_cls_prob
I0711 10:50:48.466688 28432 net.cpp:157] Top shape: 1 2 660 80 (105600)
I0711 10:50:48.466691 28432 net.cpp:165] Memory required for data: 6760550920
I0711 10:50:48.466696 28432 layer_factory.hpp:77] Creating layer rpn_head_cls_prob_reshape
I0711 10:50:48.466713 28432 net.cpp:100] Creating Layer rpn_head_cls_prob_reshape
I0711 10:50:48.466722 28432 net.cpp:444] rpn_head_cls_prob_reshape <- rpn_head_cls_prob
I0711 10:50:48.466739 28432 net.cpp:418] rpn_head_cls_prob_reshape -> rpn_head_cls_prob_reshape
I0711 10:50:48.466790 28432 net.cpp:150] Setting up rpn_head_cls_prob_reshape
I0711 10:50:48.466799 28432 net.cpp:157] Top shape: 1 22 60 80 (105600)
I0711 10:50:48.466802 28432 net.cpp:165] Memory required for data: 6760973320
I0711 10:50:48.466807 28432 layer_factory.hpp:77] Creating layer proposal_head
I0711 10:50:48.466866 28432 net.cpp:100] Creating Layer proposal_head
I0711 10:50:48.466876 28432 net.cpp:444] proposal_head <- rpn_head_cls_prob_reshape
I0711 10:50:48.466889 28432 net.cpp:444] proposal_head <- rpn_head_bbox_pred_rpn_head_bbox_pred_0_split_1
I0711 10:50:48.466898 28432 net.cpp:444] proposal_head <- im_info_input-data_1_split_3
I0711 10:50:48.466909 28432 net.cpp:418] proposal_head -> rpn_head_rois
I0711 10:50:48.468324 28432 net.cpp:150] Setting up proposal_head
I0711 10:50:48.468338 28432 net.cpp:157] Top shape: 1 5 (5)
I0711 10:50:48.468343 28432 net.cpp:165] Memory required for data: 6760973340
I0711 10:50:48.468348 28432 layer_factory.hpp:77] Creating layer roi_head-data
I0711 10:50:48.468387 28432 net.cpp:100] Creating Layer roi_head-data
I0711 10:50:48.468396 28432 net.cpp:444] roi_head-data <- rpn_head_rois
I0711 10:50:48.468411 28432 net.cpp:444] roi_head-data <- head_gt_boxes_input-data_3_split_1
I0711 10:50:48.468425 28432 net.cpp:418] roi_head-data -> rois_head
I0711 10:50:48.468444 28432 net.cpp:418] roi_head-data -> head_labels
I0711 10:50:48.468461 28432 net.cpp:418] roi_head-data -> head_bbox_targets
I0711 10:50:48.468477 28432 net.cpp:418] roi_head-data -> head_bbox_inside_weights
I0711 10:50:48.468489 28432 net.cpp:418] roi_head-data -> head_bbox_outside_weights
I0711 10:50:48.468883 28432 net.cpp:150] Setting up roi_head-data
I0711 10:50:48.468896 28432 net.cpp:157] Top shape: 1 5 1 1 (5)
I0711 10:50:48.468901 28432 net.cpp:157] Top shape: 1 1 1 1 (1)
I0711 10:50:48.468905 28432 net.cpp:157] Top shape: 1 8 1 1 (8)
I0711 10:50:48.468909 28432 net.cpp:157] Top shape: 1 8 1 1 (8)
I0711 10:50:48.468912 28432 net.cpp:157] Top shape: 1 8 1 1 (8)
I0711 10:50:48.468914 28432 net.cpp:165] Memory required for data: 6760973460
I0711 10:50:48.468919 28432 layer_factory.hpp:77] Creating layer rois_head_roi_head-data_0_split
I0711 10:50:48.468932 28432 net.cpp:100] Creating Layer rois_head_roi_head-data_0_split
I0711 10:50:48.468940 28432 net.cpp:444] rois_head_roi_head-data_0_split <- rois_head
I0711 10:50:48.468956 28432 net.cpp:418] rois_head_roi_head-data_0_split -> rois_head_roi_head-data_0_split_0
I0711 10:50:48.468974 28432 net.cpp:418] rois_head_roi_head-data_0_split -> rois_head_roi_head-data_0_split_1
I0711 10:50:48.468989 28432 net.cpp:418] rois_head_roi_head-data_0_split -> rois_head_roi_head-data_0_split_2
I0711 10:50:48.469063 28432 net.cpp:150] Setting up rois_head_roi_head-data_0_split
I0711 10:50:48.469071 28432 net.cpp:157] Top shape: 1 5 1 1 (5)
I0711 10:50:48.469075 28432 net.cpp:157] Top shape: 1 5 1 1 (5)
I0711 10:50:48.469079 28432 net.cpp:157] Top shape: 1 5 1 1 (5)
I0711 10:50:48.469081 28432 net.cpp:165] Memory required for data: 6760973520
I0711 10:50:48.469086 28432 layer_factory.hpp:77] Creating layer head_labels_roi_head-data_1_split
I0711 10:50:48.469094 28432 net.cpp:100] Creating Layer head_labels_roi_head-data_1_split
I0711 10:50:48.469101 28432 net.cpp:444] head_labels_roi_head-data_1_split <- head_labels
I0711 10:50:48.469115 28432 net.cpp:418] head_labels_roi_head-data_1_split -> head_labels_roi_head-data_1_split_0
I0711 10:50:48.469130 28432 net.cpp:418] head_labels_roi_head-data_1_split -> head_labels_roi_head-data_1_split_1
I0711 10:50:48.469182 28432 net.cpp:150] Setting up head_labels_roi_head-data_1_split
I0711 10:50:48.469192 28432 net.cpp:157] Top shape: 1 1 1 1 (1)
I0711 10:50:48.469197 28432 net.cpp:157] Top shape: 1 1 1 1 (1)
I0711 10:50:48.469198 28432 net.cpp:165] Memory required for data: 6760973528
I0711 10:50:48.469202 28432 layer_factory.hpp:77] Creating layer head_bbox_targets_roi_head-data_2_split
I0711 10:50:48.469213 28432 net.cpp:100] Creating Layer head_bbox_targets_roi_head-data_2_split
I0711 10:50:48.469219 28432 net.cpp:444] head_bbox_targets_roi_head-data_2_split <- head_bbox_targets
I0711 10:50:48.469233 28432 net.cpp:418] head_bbox_targets_roi_head-data_2_split -> head_bbox_targets_roi_head-data_2_split_0
I0711 10:50:48.469249 28432 net.cpp:418] head_bbox_targets_roi_head-data_2_split -> head_bbox_targets_roi_head-data_2_split_1
I0711 10:50:48.469301 28432 net.cpp:150] Setting up head_bbox_targets_roi_head-data_2_split
I0711 10:50:48.469310 28432 net.cpp:157] Top shape: 1 8 1 1 (8)
I0711 10:50:48.469314 28432 net.cpp:157] Top shape: 1 8 1 1 (8)
I0711 10:50:48.469316 28432 net.cpp:165] Memory required for data: 6760973592
I0711 10:50:48.469321 28432 layer_factory.hpp:77] Creating layer head_bbox_inside_weights_roi_head-data_3_split
I0711 10:50:48.469331 28432 net.cpp:100] Creating Layer head_bbox_inside_weights_roi_head-data_3_split
I0711 10:50:48.469336 28432 net.cpp:444] head_bbox_inside_weights_roi_head-data_3_split <- head_bbox_inside_weights
I0711 10:50:48.469350 28432 net.cpp:418] head_bbox_inside_weights_roi_head-data_3_split -> head_bbox_inside_weights_roi_head-data_3_split_0
I0711 10:50:48.469367 28432 net.cpp:418] head_bbox_inside_weights_roi_head-data_3_split -> head_bbox_inside_weights_roi_head-data_3_split_1
I0711 10:50:48.469420 28432 net.cpp:150] Setting up head_bbox_inside_weights_roi_head-data_3_split
I0711 10:50:48.469429 28432 net.cpp:157] Top shape: 1 8 1 1 (8)
I0711 10:50:48.469434 28432 net.cpp:157] Top shape: 1 8 1 1 (8)
I0711 10:50:48.469436 28432 net.cpp:165] Memory required for data: 6760973656
I0711 10:50:48.469440 28432 layer_factory.hpp:77] Creating layer head_bbox_outside_weights_roi_head-data_4_split
I0711 10:50:48.469449 28432 net.cpp:100] Creating Layer head_bbox_outside_weights_roi_head-data_4_split
I0711 10:50:48.469455 28432 net.cpp:444] head_bbox_outside_weights_roi_head-data_4_split <- head_bbox_outside_weights
I0711 10:50:48.469470 28432 net.cpp:418] head_bbox_outside_weights_roi_head-data_4_split -> head_bbox_outside_weights_roi_head-data_4_split_0
I0711 10:50:48.469485 28432 net.cpp:418] head_bbox_outside_weights_roi_head-data_4_split -> head_bbox_outside_weights_roi_head-data_4_split_1
I0711 10:50:48.469537 28432 net.cpp:150] Setting up head_bbox_outside_weights_roi_head-data_4_split
I0711 10:50:48.469545 28432 net.cpp:157] Top shape: 1 8 1 1 (8)
I0711 10:50:48.469566 28432 net.cpp:157] Top shape: 1 8 1 1 (8)
I0711 10:50:48.469569 28432 net.cpp:165] Memory required for data: 6760973720
I0711 10:50:48.469573 28432 layer_factory.hpp:77] Creating layer conv_new_1
I0711 10:50:48.469599 28432 net.cpp:100] Creating Layer conv_new_1
I0711 10:50:48.469607 28432 net.cpp:444] conv_new_1 <- res5c_res5c_relu_0_split_0
I0711 10:50:48.469624 28432 net.cpp:418] conv_new_1 -> conv_new_1
I0711 10:50:48.773905 28432 cudnn_conv_layer.cpp:194] Reallocating workspace storage: 92952
I0711 10:50:48.773937 28432 net.cpp:150] Setting up conv_new_1
I0711 10:50:48.773952 28432 net.cpp:157] Top shape: 1 1024 60 80 (4915200)
I0711 10:50:48.773955 28432 net.cpp:165] Memory required for data: 6780634520
I0711 10:50:48.773979 28432 layer_factory.hpp:77] Creating layer conv_new_1_relu
I0711 10:50:48.774009 28432 net.cpp:100] Creating Layer conv_new_1_relu
I0711 10:50:48.774021 28432 net.cpp:444] conv_new_1_relu <- conv_new_1
I0711 10:50:48.774042 28432 net.cpp:405] conv_new_1_relu -> conv_new_1 (in-place)
I0711 10:50:48.774585 28432 net.cpp:150] Setting up conv_new_1_relu
I0711 10:50:48.774595 28432 net.cpp:157] Top shape: 1 1024 60 80 (4915200)
I0711 10:50:48.774597 28432 net.cpp:165] Memory required for data: 6800295320
I0711 10:50:48.774603 28432 layer_factory.hpp:77] Creating layer conv_new_1_conv_new_1_relu_0_split
I0711 10:50:48.774616 28432 net.cpp:100] Creating Layer conv_new_1_conv_new_1_relu_0_split
I0711 10:50:48.774623 28432 net.cpp:444] conv_new_1_conv_new_1_relu_0_split <- conv_new_1
I0711 10:50:48.774641 28432 net.cpp:418] conv_new_1_conv_new_1_relu_0_split -> conv_new_1_conv_new_1_relu_0_split_0
I0711 10:50:48.774660 28432 net.cpp:418] conv_new_1_conv_new_1_relu_0_split -> conv_new_1_conv_new_1_relu_0_split_1
I0711 10:50:48.774724 28432 net.cpp:150] Setting up conv_new_1_conv_new_1_relu_0_split
I0711 10:50:48.774734 28432 net.cpp:157] Top shape: 1 1024 60 80 (4915200)
I0711 10:50:48.774739 28432 net.cpp:157] Top shape: 1 1024 60 80 (4915200)
I0711 10:50:48.774741 28432 net.cpp:165] Memory required for data: 6839616920
I0711 10:50:48.774746 28432 layer_factory.hpp:77] Creating layer rfcn_cls
I0711 10:50:48.774770 28432 net.cpp:100] Creating Layer rfcn_cls
I0711 10:50:48.774777 28432 net.cpp:444] rfcn_cls <- conv_new_1_conv_new_1_relu_0_split_0
I0711 10:50:48.774794 28432 net.cpp:418] rfcn_cls -> rfcn_cls
I0711 10:50:48.790652 28432 cudnn_conv_layer.cpp:194] Reallocating workspace storage: 92952
I0711 10:50:48.790683 28432 net.cpp:150] Setting up rfcn_cls
I0711 10:50:48.790696 28432 net.cpp:157] Top shape: 1 98 60 80 (470400)
I0711 10:50:48.790699 28432 net.cpp:165] Memory required for data: 6841498520
I0711 10:50:48.790721 28432 layer_factory.hpp:77] Creating layer rfcn_bbox
I0711 10:50:48.790756 28432 net.cpp:100] Creating Layer rfcn_bbox
I0711 10:50:48.790767 28432 net.cpp:444] rfcn_bbox <- conv_new_1_conv_new_1_relu_0_split_1
I0711 10:50:48.790791 28432 net.cpp:418] rfcn_bbox -> rfcn_bbox
I0711 10:50:48.850487 28432 cudnn_conv_layer.cpp:194] Reallocating workspace storage: 92952
I0711 10:50:48.850522 28432 net.cpp:150] Setting up rfcn_bbox
I0711 10:50:48.850538 28432 net.cpp:157] Top shape: 1 392 60 80 (1881600)
I0711 10:50:48.850539 28432 net.cpp:165] Memory required for data: 6849024920
I0711 10:50:48.850564 28432 layer_factory.hpp:77] Creating layer head_conv_new_1
I0711 10:50:48.850610 28432 net.cpp:100] Creating Layer head_conv_new_1
I0711 10:50:48.850628 28432 net.cpp:444] head_conv_new_1 <- res5c_res5c_relu_0_split_1
I0711 10:50:48.850656 28432 net.cpp:418] head_conv_new_1 -> head_conv_new_1
I0711 10:50:49.153309 28432 cudnn_conv_layer.cpp:194] Reallocating workspace storage: 92952
I0711 10:50:49.153342 28432 net.cpp:150] Setting up head_conv_new_1
I0711 10:50:49.153357 28432 net.cpp:157] Top shape: 1 1024 60 80 (4915200)
I0711 10:50:49.153360 28432 net.cpp:165] Memory required for data: 6868685720
I0711 10:50:49.153388 28432 layer_factory.hpp:77] Creating layer head_conv_new_1_relu
I0711 10:50:49.153416 28432 net.cpp:100] Creating Layer head_conv_new_1_relu
I0711 10:50:49.153429 28432 net.cpp:444] head_conv_new_1_relu <- head_conv_new_1
I0711 10:50:49.153448 28432 net.cpp:405] head_conv_new_1_relu -> head_conv_new_1 (in-place)
I0711 10:50:49.153652 28432 net.cpp:150] Setting up head_conv_new_1_relu
I0711 10:50:49.153662 28432 net.cpp:157] Top shape: 1 1024 60 80 (4915200)
I0711 10:50:49.153666 28432 net.cpp:165] Memory required for data: 6888346520
I0711 10:50:49.153671 28432 layer_factory.hpp:77] Creating layer head_conv_new_1_head_conv_new_1_relu_0_split
I0711 10:50:49.153682 28432 net.cpp:100] Creating Layer head_conv_new_1_head_conv_new_1_relu_0_split
I0711 10:50:49.153688 28432 net.cpp:444] head_conv_new_1_head_conv_new_1_relu_0_split <- head_conv_new_1
I0711 10:50:49.153704 28432 net.cpp:418] head_conv_new_1_head_conv_new_1_relu_0_split -> head_conv_new_1_head_conv_new_1_relu_0_split_0
I0711 10:50:49.153724 28432 net.cpp:418] head_conv_new_1_head_conv_new_1_relu_0_split -> head_conv_new_1_head_conv_new_1_relu_0_split_1
I0711 10:50:49.153787 28432 net.cpp:150] Setting up head_conv_new_1_head_conv_new_1_relu_0_split
I0711 10:50:49.153797 28432 net.cpp:157] Top shape: 1 1024 60 80 (4915200)
I0711 10:50:49.153801 28432 net.cpp:157] Top shape: 1 1024 60 80 (4915200)
I0711 10:50:49.153805 28432 net.cpp:165] Memory required for data: 6927668120
I0711 10:50:49.153808 28432 layer_factory.hpp:77] Creating layer head_rfcn_cls
I0711 10:50:49.153832 28432 net.cpp:100] Creating Layer head_rfcn_cls
I0711 10:50:49.153841 28432 net.cpp:444] head_rfcn_cls <- head_conv_new_1_head_conv_new_1_relu_0_split_0
I0711 10:50:49.153858 28432 net.cpp:418] head_rfcn_cls -> head_rfcn_cls
I0711 10:50:49.169662 28432 cudnn_conv_layer.cpp:194] Reallocating workspace storage: 92952
I0711 10:50:49.169693 28432 net.cpp:150] Setting up head_rfcn_cls
I0711 10:50:49.169706 28432 net.cpp:157] Top shape: 1 98 60 80 (470400)
I0711 10:50:49.169709 28432 net.cpp:165] Memory required for data: 6929549720
I0711 10:50:49.169729 28432 layer_factory.hpp:77] Creating layer head_rfcn_bbox
I0711 10:50:49.169764 28432 net.cpp:100] Creating Layer head_rfcn_bbox
I0711 10:50:49.169775 28432 net.cpp:444] head_rfcn_bbox <- head_conv_new_1_head_conv_new_1_relu_0_split_1
I0711 10:50:49.169797 28432 net.cpp:418] head_rfcn_bbox -> head_rfcn_bbox
I0711 10:50:49.230527 28432 cudnn_conv_layer.cpp:194] Reallocating workspace storage: 92952
I0711 10:50:49.230561 28432 net.cpp:150] Setting up head_rfcn_bbox
I0711 10:50:49.230576 28432 net.cpp:157] Top shape: 1 392 60 80 (1881600)
I0711 10:50:49.230578 28432 net.cpp:165] Memory required for data: 6937076120
I0711 10:50:49.230602 28432 layer_factory.hpp:77] Creating layer psroipooled_cls_rois
I0711 10:50:49.230631 28432 net.cpp:100] Creating Layer psroipooled_cls_rois
I0711 10:50:49.230643 28432 net.cpp:444] psroipooled_cls_rois <- rfcn_cls
I0711 10:50:49.230661 28432 net.cpp:444] psroipooled_cls_rois <- rois_roi-data_0_split_0
I0711 10:50:49.230675 28432 net.cpp:418] psroipooled_cls_rois -> psroipooled_cls_rois
I0711 10:50:49.230698 28432 psroi_pooling_layer.cpp:26] Spatial scale: 0.0625
I0711 10:50:49.230764 28432 net.cpp:150] Setting up psroipooled_cls_rois
I0711 10:50:49.230773 28432 net.cpp:157] Top shape: 1 2 7 7 (98)
I0711 10:50:49.230777 28432 net.cpp:165] Memory required for data: 6937076512
I0711 10:50:49.230780 28432 layer_factory.hpp:77] Creating layer ave_cls_score_rois
I0711 10:50:49.230796 28432 net.cpp:100] Creating Layer ave_cls_score_rois
I0711 10:50:49.230803 28432 net.cpp:444] ave_cls_score_rois <- psroipooled_cls_rois
I0711 10:50:49.230818 28432 net.cpp:418] ave_cls_score_rois -> cls_score
I0711 10:50:49.231040 28432 net.cpp:150] Setting up ave_cls_score_rois
I0711 10:50:49.231051 28432 net.cpp:157] Top shape: 1 2 1 1 (2)
I0711 10:50:49.231055 28432 net.cpp:165] Memory required for data: 6937076520
I0711 10:50:49.231060 28432 layer_factory.hpp:77] Creating layer cls_score_ave_cls_score_rois_0_split
I0711 10:50:49.231075 28432 net.cpp:100] Creating Layer cls_score_ave_cls_score_rois_0_split
I0711 10:50:49.231081 28432 net.cpp:444] cls_score_ave_cls_score_rois_0_split <- cls_score
I0711 10:50:49.231098 28432 net.cpp:418] cls_score_ave_cls_score_rois_0_split -> cls_score_ave_cls_score_rois_0_split_0
I0711 10:50:49.231117 28432 net.cpp:418] cls_score_ave_cls_score_rois_0_split -> cls_score_ave_cls_score_rois_0_split_1
I0711 10:50:49.231175 28432 net.cpp:150] Setting up cls_score_ave_cls_score_rois_0_split
I0711 10:50:49.231185 28432 net.cpp:157] Top shape: 1 2 1 1 (2)
I0711 10:50:49.231189 28432 net.cpp:157] Top shape: 1 2 1 1 (2)
I0711 10:50:49.231192 28432 net.cpp:165] Memory required for data: 6937076536
I0711 10:50:49.231196 28432 layer_factory.hpp:77] Creating layer psroipooled_loc_rois
I0711 10:50:49.231207 28432 net.cpp:100] Creating Layer psroipooled_loc_rois
I0711 10:50:49.231214 28432 net.cpp:444] psroipooled_loc_rois <- rfcn_bbox
I0711 10:50:49.231226 28432 net.cpp:444] psroipooled_loc_rois <- rois_roi-data_0_split_1
I0711 10:50:49.231238 28432 net.cpp:418] psroipooled_loc_rois -> psroipooled_loc_rois
I0711 10:50:49.231254 28432 psroi_pooling_layer.cpp:26] Spatial scale: 0.0625
I0711 10:50:49.231309 28432 net.cpp:150] Setting up psroipooled_loc_rois
I0711 10:50:49.231318 28432 net.cpp:157] Top shape: 1 8 7 7 (392)
I0711 10:50:49.231321 28432 net.cpp:165] Memory required for data: 6937078104
I0711 10:50:49.231325 28432 layer_factory.hpp:77] Creating layer ave_bbox_pred_rois
I0711 10:50:49.231338 28432 net.cpp:100] Creating Layer ave_bbox_pred_rois
I0711 10:50:49.231345 28432 net.cpp:444] ave_bbox_pred_rois <- psroipooled_loc_rois
I0711 10:50:49.231361 28432 net.cpp:418] ave_bbox_pred_rois -> bbox_pred
I0711 10:50:49.231570 28432 net.cpp:150] Setting up ave_bbox_pred_rois
I0711 10:50:49.231581 28432 net.cpp:157] Top shape: 1 8 1 1 (8)
I0711 10:50:49.231585 28432 net.cpp:165] Memory required for data: 6937078136
I0711 10:50:49.231590 28432 layer_factory.hpp:77] Creating layer bbox_pred_ave_bbox_pred_rois_0_split
I0711 10:50:49.231600 28432 net.cpp:100] Creating Layer bbox_pred_ave_bbox_pred_rois_0_split
I0711 10:50:49.231607 28432 net.cpp:444] bbox_pred_ave_bbox_pred_rois_0_split <- bbox_pred
I0711 10:50:49.231623 28432 net.cpp:418] bbox_pred_ave_bbox_pred_rois_0_split -> bbox_pred_ave_bbox_pred_rois_0_split_0
I0711 10:50:49.231640 28432 net.cpp:418] bbox_pred_ave_bbox_pred_rois_0_split -> bbox_pred_ave_bbox_pred_rois_0_split_1
I0711 10:50:49.231699 28432 net.cpp:150] Setting up bbox_pred_ave_bbox_pred_rois_0_split
I0711 10:50:49.231709 28432 net.cpp:157] Top shape: 1 8 1 1 (8)
I0711 10:50:49.231714 28432 net.cpp:157] Top shape: 1 8 1 1 (8)
I0711 10:50:49.231715 28432 net.cpp:165] Memory required for data: 6937078200
I0711 10:50:49.231720 28432 layer_factory.hpp:77] Creating layer per_roi_loss_cls
I0711 10:50:49.231734 28432 net.cpp:100] Creating Layer per_roi_loss_cls
I0711 10:50:49.231740 28432 net.cpp:444] per_roi_loss_cls <- cls_score_ave_cls_score_rois_0_split_0
I0711 10:50:49.231752 28432 net.cpp:444] per_roi_loss_cls <- labels_roi-data_1_split_0
I0711 10:50:49.231765 28432 net.cpp:418] per_roi_loss_cls -> temp_loss_cls
I0711 10:50:49.231781 28432 net.cpp:418] per_roi_loss_cls -> temp_prob_cls
I0711 10:50:49.231794 28432 net.cpp:418] per_roi_loss_cls -> per_roi_loss_cls
I0711 10:50:49.231812 28432 layer_factory.hpp:77] Creating layer per_roi_loss_cls
I0711 10:50:49.232463 28432 net.cpp:150] Setting up per_roi_loss_cls
I0711 10:50:49.232476 28432 net.cpp:157] Top shape: (1)
I0711 10:50:49.232481 28432 net.cpp:157] Top shape: 1 2 1 1 (2)
I0711 10:50:49.232486 28432 net.cpp:157] Top shape: 1 1 1 1 (1)
I0711 10:50:49.232487 28432 net.cpp:165] Memory required for data: 6937078216
I0711 10:50:49.232493 28432 layer_factory.hpp:77] Creating layer per_roi_loss_bbox
I0711 10:50:49.232508 28432 net.cpp:100] Creating Layer per_roi_loss_bbox
I0711 10:50:49.232517 28432 net.cpp:444] per_roi_loss_bbox <- bbox_pred_ave_bbox_pred_rois_0_split_0
I0711 10:50:49.232530 28432 net.cpp:444] per_roi_loss_bbox <- bbox_targets_roi-data_2_split_0
I0711 10:50:49.232539 28432 net.cpp:444] per_roi_loss_bbox <- bbox_inside_weights_roi-data_3_split_0
I0711 10:50:49.232550 28432 net.cpp:418] per_roi_loss_bbox -> temp_loss_bbox
I0711 10:50:49.232568 28432 net.cpp:418] per_roi_loss_bbox -> per_roi_loss_bbox
I0711 10:50:49.232653 28432 net.cpp:150] Setting up per_roi_loss_bbox
I0711 10:50:49.232662 28432 net.cpp:157] Top shape: (1)
I0711 10:50:49.232667 28432 net.cpp:157] Top shape: 1 1 1 1 (1)
I0711 10:50:49.232669 28432 net.cpp:165] Memory required for data: 6937078224
I0711 10:50:49.232674 28432 layer_factory.hpp:77] Creating layer per_roi_loss
I0711 10:50:49.232686 28432 net.cpp:100] Creating Layer per_roi_loss
I0711 10:50:49.232693 28432 net.cpp:444] per_roi_loss <- per_roi_loss_cls
I0711 10:50:49.232705 28432 net.cpp:444] per_roi_loss <- per_roi_loss_bbox
I0711 10:50:49.232717 28432 net.cpp:418] per_roi_loss -> per_roi_loss
I0711 10:50:49.232760 28432 net.cpp:150] Setting up per_roi_loss
I0711 10:50:49.232769 28432 net.cpp:157] Top shape: 1 1 1 1 (1)
I0711 10:50:49.232772 28432 net.cpp:165] Memory required for data: 6937078228
I0711 10:50:49.232777 28432 layer_factory.hpp:77] Creating layer annotator_detector
I0711 10:50:49.232791 28432 net.cpp:100] Creating Layer annotator_detector
I0711 10:50:49.232798 28432 net.cpp:444] annotator_detector <- rois_roi-data_0_split_2
I0711 10:50:49.232810 28432 net.cpp:444] annotator_detector <- per_roi_loss
I0711 10:50:49.232818 28432 net.cpp:444] annotator_detector <- labels_roi-data_1_split_1
I0711 10:50:49.232826 28432 net.cpp:444] annotator_detector <- bbox_inside_weights_roi-data_3_split_1
I0711 10:50:49.232836 28432 net.cpp:418] annotator_detector -> labels_ohem
I0711 10:50:49.232853 28432 net.cpp:418] annotator_detector -> bbox_loss_weights_ohem
I0711 10:50:49.232916 28432 net.cpp:150] Setting up annotator_detector
I0711 10:50:49.232926 28432 net.cpp:157] Top shape: 1 1 1 1 (1)
I0711 10:50:49.232931 28432 net.cpp:157] Top shape: 1 8 1 1 (8)
I0711 10:50:49.232933 28432 net.cpp:165] Memory required for data: 6937078264
I0711 10:50:49.232937 28432 layer_factory.hpp:77] Creating layer silence
I0711 10:50:49.232949 28432 net.cpp:100] Creating Layer silence
I0711 10:50:49.232954 28432 net.cpp:444] silence <- bbox_outside_weights
I0711 10:50:49.232966 28432 net.cpp:444] silence <- head_bbox_outside_weights_roi_head-data_4_split_0
…
I0711 10:50:49.233593 28432 layer_factory.hpp:77] Creating layer head_psroipooled_cls_rois
I0711 10:50:49.233608 28432 net.cpp:100] Creating Layer head_psroipooled_cls_rois
I0711 10:50:49.233614 28432 net.cpp:444] head_psroipooled_cls_rois <- head_rfcn_cls
I0711 10:50:49.233628 28432 net.cpp:444] head_psroipooled_cls_rois <- rois_head_roi_head-data_0_split_0
I0711 10:50:49.233640 28432 net.cpp:418] head_psroipooled_cls_rois -> head_psroipooled_cls_rois
I0711 10:50:49.233657 28432 psroi_pooling_layer.cpp:26] Spatial scale: 0.0625
I0711 10:50:49.233712 28432 net.cpp:150] Setting up head_psroipooled_cls_rois
I0711 10:50:49.233721 28432 net.cpp:157] Top shape: 1 2 7 7 (98)
I0711 10:50:49.233724 28432 net.cpp:165] Memory required for data: 6937078664
I0711 10:50:49.233729 28432 layer_factory.hpp:77] Creating layer head_ave_cls_score_rois
I0711 10:50:49.233742 28432 net.cpp:100] Creating Layer head_ave_cls_score_rois
I0711 10:50:49.233749 28432 net.cpp:444] head_ave_cls_score_rois <- head_psroipooled_cls_rois
I0711 10:50:49.233764 28432 net.cpp:418] head_ave_cls_score_rois -> head_cls_score
I0711 10:50:49.233978 28432 net.cpp:150] Setting up head_ave_cls_score_rois
I0711 10:50:49.233989 28432 net.cpp:157] Top shape: 1 2 1 1 (2)
I0711 10:50:49.233994 28432 net.cpp:165] Memory required for data: 6937078672
I0711 10:50:49.233999 28432 layer_factory.hpp:77] Creating layer head_cls_score_head_ave_cls_score_rois_0_split
I0711 10:50:49.234010 28432 net.cpp:100] Creating Layer head_cls_score_head_ave_cls_score_rois_0_split
I0711 10:50:49.234017 28432 net.cpp:444] head_cls_score_head_ave_cls_score_rois_0_split <- head_cls_score
I0711 10:50:49.234033 28432 net.cpp:418] head_cls_score_head_ave_cls_score_rois_0_split -> head_cls_score_head_ave_cls_score_rois_0_split_0
I0711 10:50:49.234051 28432 net.cpp:418] head_cls_score_head_ave_cls_score_rois_0_split -> head_cls_score_head_ave_cls_score_rois_0_split_1
I0711 10:50:49.234109 28432 net.cpp:150] Setting up head_cls_score_head_ave_cls_score_rois_0_split
I0711 10:50:49.234118 28432 net.cpp:157] Top shape: 1 2 1 1 (2)
I0711 10:50:49.234123 28432 net.cpp:157] Top shape: 1 2 1 1 (2)
I0711 10:50:49.234125 28432 net.cpp:165] Memory required for data: 6937078688
I0711 10:50:49.234130 28432 layer_factory.hpp:77] Creating layer head_psroipooled_loc_rois
I0711 10:50:49.234141 28432 net.cpp:100] Creating Layer head_psroipooled_loc_rois
I0711 10:50:49.234148 28432 net.cpp:444] head_psroipooled_loc_rois <- head_rfcn_bbox
I0711 10:50:49.234160 28432 net.cpp:444] head_psroipooled_loc_rois <- rois_head_roi_head-data_0_split_1
I0711 10:50:49.234172 28432 net.cpp:418] head_psroipooled_loc_rois -> head_psroipooled_loc_rois
I0711 10:50:49.234187 28432 psroi_pooling_layer.cpp:26] Spatial scale: 0.0625
I0711 10:50:49.234242 28432 net.cpp:150] Setting up head_psroipooled_loc_rois
I0711 10:50:49.234251 28432 net.cpp:157] Top shape: 1 8 7 7 (392)
I0711 10:50:49.234254 28432 net.cpp:165] Memory required for data: 6937080256
I0711 10:50:49.234258 28432 layer_factory.hpp:77] Creating layer head_ave_bbox_pred_rois
I0711 10:50:49.234272 28432 net.cpp:100] Creating Layer head_ave_bbox_pred_rois
I0711 10:50:49.234278 28432 net.cpp:444] head_ave_bbox_pred_rois <- head_psroipooled_loc_rois
I0711 10:50:49.234294 28432 net.cpp:418] head_ave_bbox_pred_rois -> head_bbox_pred
I0711 10:50:49.234846 28432 net.cpp:150] Setting up head_ave_bbox_pred_rois
I0711 10:50:49.234863 28432 net.cpp:157] Top shape: 1 8 1 1 (8)
I0711 10:50:49.234869 28432 net.cpp:165] Memory required for data: 6937080288
I0711 10:50:49.234875 28432 layer_factory.hpp:77] Creating layer head_bbox_pred_head_ave_bbox_pred_rois_0_split
I0711 10:50:49.234891 28432 net.cpp:100] Creating Layer head_bbox_pred_head_ave_bbox_pred_rois_0_split
I0711 10:50:49.234899 28432 net.cpp:444] head_bbox_pred_head_ave_bbox_pred_rois_0_split <- head_bbox_pred
I0711 10:50:49.234916 28432 net.cpp:418] head_bbox_pred_head_ave_bbox_pred_rois_0_split -> head_bbox_pred_head_ave_bbox_pred_rois_0_split_0
I0711 10:50:49.234935 28432 net.cpp:418] head_bbox_pred_head_ave_bbox_pred_rois_0_split -> head_bbox_pred_head_ave_bbox_pred_rois_0_split_1
I0711 10:50:49.234997 28432 net.cpp:150] Setting up head_bbox_pred_head_ave_bbox_pred_rois_0_split
I0711 10:50:49.235007 28432 net.cpp:157] Top shape: 1 8 1 1 (8)
I0711 10:50:49.235011 28432 net.cpp:157] Top shape: 1 8 1 1 (8)
I0711 10:50:49.235013 28432 net.cpp:165] Memory required for data: 6937080352
I0711 10:50:49.235018 28432 layer_factory.hpp:77] Creating layer head_per_roi_loss_cls
I0711 10:50:49.235031 28432 net.cpp:100] Creating Layer head_per_roi_loss_cls
I0711 10:50:49.235038 28432 net.cpp:444] head_per_roi_loss_cls <- head_cls_score_head_ave_cls_score_rois_0_split_0
I0711 10:50:49.235050 28432 net.cpp:444] head_per_roi_loss_cls <- head_labels_roi_head-data_1_split_0
I0711 10:50:49.235064 28432 net.cpp:418] head_per_roi_loss_cls -> head_temp_loss_cls
I0711 10:50:49.235080 28432 net.cpp:418] head_per_roi_loss_cls -> head_temp_prob_cls
I0711 10:50:49.235095 28432 net.cpp:418] head_per_roi_loss_cls -> head_per_roi_loss_cls
I0711 10:50:49.235110 28432 layer_factory.hpp:77] Creating layer head_per_roi_loss_cls
I0711 10:50:49.235424 28432 net.cpp:150] Setting up head_per_roi_loss_cls
I0711 10:50:49.235435 28432 net.cpp:157] Top shape: (1)
I0711 10:50:49.235440 28432 net.cpp:157] Top shape: 1 2 1 1 (2)
I0711 10:50:49.235443 28432 net.cpp:157] Top shape: 1 1 1 1 (1)
I0711 10:50:49.235445 28432 net.cpp:165] Memory required for data: 6937080368
I0711 10:50:49.235450 28432 layer_factory.hpp:77] Creating layer head_per_roi_loss_bbox
I0711 10:50:49.235462 28432 net.cpp:100] Creating Layer head_per_roi_loss_bbox
I0711 10:50:49.235469 28432 net.cpp:444] head_per_roi_loss_bbox <- head_bbox_pred_head_ave_bbox_pred_rois_0_split_0
I0711 10:50:49.235483 28432 net.cpp:444] head_per_roi_loss_bbox <- head_bbox_targets_roi_head-data_2_split_0
I0711 10:50:49.235491 28432 net.cpp:444] head_per_roi_loss_bbox <- head_bbox_inside_weights_roi_head-data_3_split_0
I0711 10:50:49.235504 28432 net.cpp:418] head_per_roi_loss_bbox -> head_temp_loss_bbox
I0711 10:50:49.235522 28432 net.cpp:418] head_per_roi_loss_bbox -> head_per_roi_loss_bbox
I0711 10:50:49.235607 28432 net.cpp:150] Setting up head_per_roi_loss_bbox
I0711 10:50:49.235616 28432 net.cpp:157] Top shape: (1)
I0711 10:50:49.235621 28432 net.cpp:157] Top shape: 1 1 1 1 (1)
I0711 10:50:49.235623 28432 net.cpp:165] Memory required for data: 6937080376
I0711 10:50:49.235627 28432 layer_factory.hpp:77] Creating layer head_per_roi_loss
I0711 10:50:49.235640 28432 net.cpp:100] Creating Layer head_per_roi_loss
I0711 10:50:49.235646 28432 net.cpp:444] head_per_roi_loss <- head_per_roi_loss_cls
I0711 10:50:49.235657 28432 net.cpp:444] head_per_roi_loss <- head_per_roi_loss_bbox
I0711 10:50:49.235669 28432 net.cpp:418] head_per_roi_loss -> head_per_roi_loss
I0711 10:50:49.235715 28432 net.cpp:150] Setting up head_per_roi_loss
I0711 10:50:49.235724 28432 net.cpp:157] Top shape: 1 1 1 1 (1)
I0711 10:50:49.235728 28432 net.cpp:165] Memory required for data: 6937080380
I0711 10:50:49.235731 28432 layer_factory.hpp:77] Creating layer head_annotator_detector
I0711 10:50:49.235745 28432 net.cpp:100] Creating Layer head_annotator_detector
I0711 10:50:49.235752 28432 net.cpp:444] head_annotator_detector <- rois_head_roi_head-data_0_split_2
I0711 10:50:49.235764 28432 net.cpp:444] head_annotator_detector <- head_per_roi_loss
I0711 10:50:49.235771 28432 net.cpp:444] head_annotator_detector <- head_labels_roi_head-data_1_split_1
I0711 10:50:49.235780 28432 net.cpp:444] head_annotator_detector <- head_bbox_inside_weights_roi_head-data_3_split_1
I0711 10:50:49.235790 28432 net.cpp:418] head_annotator_detector -> head_labels_ohem
I0711 10:50:49.235808 28432 net.cpp:418] head_annotator_detector -> head_bbox_loss_weights_ohem
I0711 10:50:49.235870 28432 net.cpp:150] Setting up head_annotator_detector
I0711 10:50:49.235879 28432 net.cpp:157] Top shape: 1 1 1 1 (1)
I0711 10:50:49.235884 28432 net.cpp:157] Top shape: 1 8 1 1 (8)
I0711 10:50:49.235886 28432 net.cpp:165] Memory required for data: 6937080416
I0711 10:50:49.235890 28432 layer_factory.hpp:77] Creating layer silence
I0711 10:50:49.235901 28432 net.cpp:100] Creating Layer silence
I0711 10:50:49.235908 28432 net.cpp:444] silence <- head_bbox_outside_weights_roi_head-data_4_split_1
I0711 10:50:49.235919 28432 net.cpp:444] silence <- head_temp_loss_cls
I0711 10:50:49.235927 28432 net.cpp:444] silence <- head_temp_prob_cls
…
