…
snapshot: 0
snapshot_prefix: "resnet50_rfcn_ohem"
iter_size: 8
I0625 14:59:42.550451  6673 solver.cpp:81] Creating training net from train_net file: /home/user/Disk1.8T/py-R-FCN/experiments/6_25_upper/train_agnostic_ohem.prototxt
I0625 14:59:42.552716  6673 net.cpp:58] Initializing net from parameters: 
name: "ResNet-50"
state {
  phase: TRAIN
}
layer {
  name: "input-data"
  type: "Python"
  top: "data"
  top: "im_info"
  top: "gt_boxes"
  python_param {
    module: "roi_data_layer.layer"
    layer: "RoIDataLayer"
    param_str: "\'num_classes\': 2"
  }
}
layer {
  name: "conv1"
  type: "Convolution"
  bottom: "data"
  top: "conv1"
  param {
    lr_mult: 0
  }
  param {
    lr_mult: 0
  }
  convolution_param {
    num_output: 64
    pad: 3
    kernel_size: 7
    stride: 2
  }
}
layer {
  name: "bn_conv1"
  type: "BatchNorm"
  bottom: "conv1"
  top: "conv1"
  param {
    lr_mult: 0
    decay_mult: 0
  }
  param {
    lr_mult: 0
    decay_mult: 0
  }
  param {
    lr_mult: 0
    decay_mult: 0
  }
  batch_norm_param {
    use_global_stats: true
  }
}
layer {
  name: "scale_conv1"
  type: "Scale"
  bottom: "conv1"
  top: "conv1"
  param {
    lr_mult: 0
    decay_mult: 0
  }
  param {
    lr_mult: 0
    decay_mult: 0
  }
  scale_param {
    bias_term: true
  }
}
layer {
  name: "conv1_relu"
  type: "ReLU"
  bottom: "conv1"
  top: "conv1"
}
layer {
  name: "pool1"
  type: "Pooling"
  bottom: "conv1"
  top: "pool1"
  pooling_param {
    pool: MAX
    kernel_size: 3
    stride: 2
  }
}
layer {
  name: "res2a_branch1"
  type: "Convolution"
  bottom: "pool1"
  top: "res2a_branch1"
  param {
    lr_mult: 0
  }
  convolution_param {
    num_output: 256
    bias_term: false
    pad: 0
    kernel_size: 1
    stride: 1
  }
}
layer {
  name: "bn2a_branch1"
  type: "BatchNorm"
  bottom: "res2a_branch1"
  top: "res2a_branch1"
  param {
    lr_mult: 0
    decay_mult: 0
  }
  param {
    lr_mult: 0
    decay_mult: 0
  }
  param {
    lr_mult: 0
    decay_mult: 0
  }
  batch_norm_param {
    use_global_stats: true
  }
}
layer {
  name: "scale2a_branch1"
  type: "Scale"
  bottom: "res2a_branch1"
  top: "res2a_branch1"
  param {
    lr_mult: 0
    decay_mult: 0
  }
  param {
    lr_mult: 0
    decay_mult: 0
  }
  scale_param {
    bias_term: true
  }
}
layer {
  name: "res2a_branch2a"
  type: "Convolution"
  bottom: "pool1"
  top: "res2a_branch2a"
  param {
    lr_mult: 0
  }
  convolution_param {
    num_output: 64
    bias_term: false
    pad: 0
    kernel_size: 1
    stride: 1
  }
}
layer {
  name: "bn2a_branch2a"
  type: "BatchNorm"
  bottom: "res2a_branch2a"
  top: "res2a_branch2a"
  param {
    lr_mult: 0
    decay_mult: 0
  }
  param {
    lr_mult: 0
    decay_mult: 0
  }
  param {
    lr_mult: 0
    decay_mult: 0
  }
  batch_norm_param {
    use_global_stats: true
  }
}
layer {
  name: "scale2a_branch2a"
  type: "Scale"
  bottom: "res2a_branch2a"
  top: "res2a_branch2a"
  param {
    lr_mult: 0
    decay_mult: 0
  }
  param {
    lr_mult: 0
    decay_mult: 0
  }
  scale_param {
    bias_term: true
  }
}
layer {
  name: "res2a_branch2a_relu"
  type: "ReLU"
  bottom: "res2a_branch2a"
  top: "res2a_branch2a"
}
layer {
  name: "res2a_branch2b"
  type: "Convolution"
  bottom: "res2a_branch2a"
  top: "res2a_branch2b"
  param {
    lr_mult: 0
  }
  convolution_param {
    num_output: 64
    bias_term: false
    pad: 1
    kernel_size: 3
    stride: 1
  }
}
layer {
  name: "bn2a_branch2b"
  type: "BatchNorm"
  bottom: "res2a_branch2b"
  top: "res2a_branch2b"
  param {
    lr_mult: 0
    decay_mult: 0
  }
  param {
    lr_mult: 0
    decay_mult: 0
  }
  param {
    lr_mult: 0
    decay_mult: 0
  }
  batch_norm_param {
    use_global_stats: true
  }
}
layer {
  name: "scale2a_branch2b"
  type: "Scale"
  bottom: "res2a_branch2b"
  top: "res2a_branch2b"
  param {
    lr_mult: 0
    decay_mult: 0
  }
  param {
    lr_mult: 0
    decay_mult: 0
  }
  scale_param {
    bias_term: true
  }
}
layer {
  name: "res2a_branch2b_relu"
  type: "ReLU"
  bottom: "res2a_branch2b"
  top: "res2a_branch2b"
}
layer {
  name: "res2a_branch2c"
  type: "Convolution"
  bottom: "res2a_branch2b"
  top: "res2a_branch2c"
  param {
    lr_mult: 0
  }
  convolution_param {
    num_output: 256
    bias_term: false
    pad: 0
    kernel_size: 1
    stride: 1
  }
}
layer {
  name: "bn2a_branch2c"
  type: "BatchNorm"
  bottom: "res2a_branch2c"
  top: "res2a_branch2c"
  param {
    lr_mult: 0
    decay_mult: 0
  }
  param {
    lr_mult: 0
    decay_mult: 0
  }
  param {
    lr_mult: 0
    decay_mult: 0
  }
  batch_norm_param {
    use_global_stats: true
  }
}
layer {
  name: "scale2a_branch2c"
  type: "Scale"
  bottom: "res2a_branch2c"
  top: "res2a_branch2c"
  param {
    lr_mult: 0
    decay_mult: 0
  }
  param {
    lr_mult: 0
    decay_mult: 0
  }
  scale_param {
    bias_term: true
  }
}
layer {
  name: "res2a"
  type: "Eltwise"
  bottom: "res2a_branch1"
  bottom: "res2a_branch2c"
  top: "res2a"
}
layer {
  name: "res2a_relu"
  type: "ReLU"
  bottom: "res2a"
  top: "res2a"
}
layer {
  name: "res2b_branch2a"
  type: "Convolution"
  bottom: "res2a"
  top: "res2b_branch2a"
  param {
    lr_mult: 0
  }
  convolution_param {
    num_output: 64
    bias_term: false
    pad: 0
    kernel_size: 1
    stride: 1
  }
}
layer {
  name: "bn2b_branch2a"
  type: "BatchNorm"
  bottom: "res2b_branch2a"
  top: "res2b_branch2a"
  param {
    lr_mult: 0
    decay_mult: 0
  }
  param {
    lr_mult: 0
    decay_mult: 0
  }
  param {
    lr_mult: 0
    decay_mult: 0
  }
  batch_norm_param {
    use_global_stats: true
  }
}
layer {
  name: "scale2b_branch2a"
  type: "Scale"
  bottom: "res2b_branch2a"
  top: "res2b_branch2a"
  param {
    lr_mult: 0
    decay_mult: 0
  }
  param {
    lr_mult: 0
    decay_mult: 0
  }
  scale_param {
    bias_term: true
  }
}
layer {
  name: "res2b_branch2a_relu"
  type: "ReLU"
  bottom: "res2b_branch2a"
  top: "res2b_branch2a"
}
layer {
  name: "res2b_branch2b"
  type: "Convolution"
  bottom: "res2b_branch2a"
  top: "res2b_branch2b"
  param {
    lr_mult: 0
  }
  convolution_param {
    num_output: 64
    bias_term: false
    pad: 1
    kernel_size: 3
    stride: 1
  }
}
layer {
  name: "bn2b_branch2b"
  type: "BatchNorm"
  bottom: "res2b_branch2b"
  top: "res2b_branch2b"
  param {
    lr_mult: 0
    decay_mult: 0
  }
  param {
    lr_mult: 0
    decay_mult: 0
  }
  param {
    lr_mult: 0
    decay_mult: 0
  }
  batch_norm_param {
    use_global_stats: true
  }
}
layer {
  name: "scale2b_branch2b"
  type: "Scale"
  bottom: "res2b_branch2b"
  top: "res2b_branch2b"
  param {
    lr_mult: 0
    decay_mult: 0
  }
  param {
    lr_mult: 0
    decay_mult: 0
  }
  scale_param {
    bias_term: true
  }
}
layer {
  name: "res2b_branch2b_relu"
  type: "ReLU"
  bottom: "res2b_branch2b"
  top: "res2b_branch2b"
}
layer {
  name: "res2b_branch2c"
  type: "Convolution"
  bottom: "res2b_branch2b"
  top: "res2b_branch2c"
  param {
    lr_mult: 0
  }
  convolution_param {
    num_output: 256
    bias_term: false
    pad: 0
    kernel_size: 1
    stride: 1
  }
}
layer {
  name: "bn2b_branch2c"
  type: "BatchNorm"
  bottom: "res2b_branch2c"
  top: "res2b_branch2c"
  param {
    lr_mult: 0
    decay_mult: 0
  }
  param {
    lr_mult: 0
    decay_mult: 0
  }
  param {
    lr_mult: 0
    decay_mult: 0
  }
  batch_norm_param {
    use_global_stats: true
  }
}
layer {
  name: "scale2b_branch2c"
  type: "Scale"
  bottom: "res2b_branch2c"
  top: "res2b_branch2c"
  param {
    lr_mult: 0
    decay_mult: 0
  }
  param {
    lr_mult: 0
    decay_mult: 0
  }
  scale_param {
    bias_term: true
  }
}
layer {
  name: "res2b"
  type: "Eltwise"
  bottom: "res2a"
  bottom: "res2b_branch2c"
  top: "res2b"
}
layer {
  name: "res2b_relu"
  type: "ReLU"
  bottom: "res2b"
  top: "res2b"
}
layer {
  name: "res2c_branch2a"
  type: "Convolution"
  bottom: "res2b"
  top: "res2c_branch2a"
  param {
    lr_mult: 0
  }
  convolution_param {
    num_output: 64
    bias_term: false
    pad: 0
    kernel_size: 1
    stride: 1
  }
}
layer {
  name: "bn2c_branch2a"
  type: "BatchNorm"
  bottom: "res2c_branch2a"
  top: "res2c_branch2a"
  param {
    lr_mult: 0
    decay_mult: 0
  }
  param {
    lr_mult: 0
    decay_mult: 0
  }
  param {
    lr_mult: 0
    decay_mult: 0
  }
  batch_norm_param {
    use_global_stats: true
  }
}
layer {
  name: "scale2c_branch2a"
  type: "Scale"
  bottom: "res2c_branch2a"
  top: "res2c_branch2a"
  param {
    lr_mult: 0
    decay_mult: 0
  }
  param {
    lr_mult: 0
    decay_mult: 0
  }
  scale_param {
    bias_term: true
  }
}
layer {
  name: "res2c_branch2a_relu"
  type: "ReLU"
  bottom: "res2c_branch2a"
  top: "res2c_branch2a"
}
layer {
  name: "res2c_branch2b"
  type: "Convolution"
  bottom: "res2c_branch2a"
  top: "res2c_branch2b"
  param {
    lr_mult: 0
  }
  convolution_param {
    num_output: 64
    bias_term: false
    pad: 1
    kernel_size: 3
    stride: 1
  }
}
layer {
  name: "bn2c_branch2b"
  type: "BatchNorm"
  bottom: "res2c_branch2b"
  top: "res2c_branch2b"
  param {
    lr_mult: 0
    decay_mult: 0
  }
  param {
    lr_mult: 0
    decay_mult: 0
  }
  param {
    lr_mult: 0
    decay_mult: 0
  }
  batch_norm_param {
    use_global_stats: true
  }
}
layer {
  name: "scale2c_branch2b"
  type: "Scale"
  bottom: "res2c_branch2b"
  top: "res2c_branch2b"
  param {
    lr_mult: 0
    decay_mult: 0
  }
  param {
    lr_mult: 0
    decay_mult: 0
  }
  scale_param {
    bias_term: true
  }
}
layer {
  name: "res2c_branch2b_relu"
  type: "ReLU"
  bottom: "res2c_branch2b"
  top: "res2c_branch2b"
}
layer {
  name: "res2c_branch2c"
  type: "Convolution"
  bottom: "res2c_branch2b"
  top: "res2c_branch2c"
  param {
    lr_mult: 0
  }
  convolution_param {
    num_output: 256
    bias_term: false
    pad: 0
    kernel_size: 1
    stride: 1
  }
}
layer {
  name: "bn2c_branch2c"
  type: "BatchNorm"
  bottom: "res2c_branch2c"
  top: "res2c_branch2c"
  param {
    lr_mult: 0
    decay_mult: 0
  }
  param {
    lr_mult: 0
    decay_mult: 0
  }
  param {
    lr_mult: 0
    decay_mult: 0
  }
  batch_norm_param {
    use_global_stats: true
  }
}
layer {
  name: "scale2c_branch2c"
  type: "Scale"
  bottom: "res2c_branch2c"
  top: "res2c_branch2c"
  param {
    lr_mult: 0
    decay_mult: 0
  }
  param {
    lr_mult: 0
    decay_mult: 0
  }
  scale_param {
    bias_term: true
  }
}
layer {
  name: "res2c"
  type: "Eltwise"
  bottom: "res2b"
  bottom: "res2c_branch2c"
  top: "res2c"
}
layer {
  name: "res2c_relu"
  type: "ReLU"
  bottom: "res2c"
  top: "res2c"
}
layer {
  name: "res3a_branch1"
  type: "Convolution"
  bottom: "res2c"
  top: "res3a_branch1"
  param {
    lr_mult: 1
  }
  convolution_param {
    num_output: 512
    bias_term: false
    pad: 0
    kernel_size: 1
    stride: 2
  }
}
layer {
  name: "bn3a_branch1"
  type: "BatchNorm"
  bottom: "res3a_branch1"
  top: "res3a_branch1"
  param {
    lr_mult: 0
    decay_mult: 0
  }
  param {
    lr_mult: 0
    decay_mult: 0
  }
  param {
    lr_mult: 0
    decay_mult: 0
  }
  batch_norm_param {
    use_global_stats: true
  }
}
layer {
  name: "scale3a_branch1"
  type: "Scale"
  bottom: "res3a_branch1"
  top: "res3a_branch1"
  param {
    lr_mult: 0
    decay_mult: 0
  }
  param {
    lr_mult: 0
    decay_mult: 0
  }
  scale_param {
    bias_term: true
  }
}
layer {
  name: "res3a_branch2a"
  type: "Convolution"
  bottom: "res2c"
  top: "res3a_branch2a"
  param {
    lr_mult: 1
  }
  convolution_param {
    num_output: 128
    bias_term: false
    pad: 0
    kernel_size: 1
    stride: 2
  }
}
layer {
  name: "bn3a_branch2a"
  type: "BatchNorm"
  bottom: "res3a_branch2a"
  top: "res3a_branch2a"
  param {
    lr_mult: 0
    decay_mult: 0
  }
  param {
    lr_mult: 0
    decay_mult: 0
  }
  param {
    lr_mult: 0
    decay_mult: 0
  }
  batch_norm_param {
    use_global_stats: true
  }
}
layer {
  name: "scale3a_branch2a"
  type: "Scale"
  bottom: "res3a_branch2a"
  top: "res3a_branch2a"
  param {
    lr_mult: 0
    decay_mult: 0
  }
  param {
    lr_mult: 0
    decay_mult: 0
  }
  scale_param {
    bias_term: true
  }
}
layer {
  name: "res3a_branch2a_relu"
  type: "ReLU"
  bottom: "res3a_branch2a"
  top: "res3a_branch2a"
}
layer {
  name: "res3a_branch2b"
  type: "Convolution"
  bottom: "res3a_branch2a"
  top: "res3a_branch2b"
  param {
    lr_mult: 1
  }
  convolution_param {
    num_output: 128
    bias_term: false
    pad: 1
    kernel_size: 3
    stride: 1
  }
}
layer {
  name: "bn3a_branch2b"
  type: "BatchNorm"
  bottom: "res3a_branch2b"
  top: "res3a_branch2b"
  param {
    lr_mult: 0
    decay_mult: 0
  }
  param {
    lr_mult: 0
    decay_mult: 0
  }
  param {
    lr_mult: 0
    decay_mult: 0
  }
  batch_norm_param {
    use_global_stats: true
  }
}
layer {
  name: "scale3a_branch2b"
  type: "Scale"
  bottom: "res3a_branch2b"
  top: "res3a_branch2b"
  param {
    lr_mult: 0
    decay_mult: 0
  }
  param {
    lr_mult: 0
    decay_mult: 0
  }
  scale_param {
    bias_term: true
  }
}
layer {
  name: "res3a_branch2b_relu"
  type: "ReLU"
  bottom: "res3a_branch2b"
  top: "res3a_branch2b"
}
layer {
  name: "res3a_branch2c"
  type: "Convolution"
  bottom: "res3a_branch2b"
  top: "res3a_branch2c"
  param {
    lr_mult: 1
  }
  convolution_param {
    num_output: 512
    bias_term: false
    pad: 0
    kernel_size: 1
    stride: 1
  }
}
layer {
  name: "bn3a_branch2c"
  type: "BatchNorm"
  bottom: "res3a_branch2c"
  top: "res3a_branch2c"
  param {
    lr_mult: 0
    decay_mult: 0
  }
  param {
    lr_mult: 0
    decay_mult: 0
  }
  param {
    lr_mult: 0
    decay_mult: 0
  }
  batch_norm_param {
    use_global_stats: true
  }
}
layer {
  name: "scale3a_branch2c"
  type: "Scale"
  bottom: "res3a_branch2c"
  top: "res3a_branch2c"
  param {
    lr_mult: 0
    decay_mult: 0
  }
  param {
    lr_mult: 0
    decay_mult: 0
  }
  scale_param {
    bias_term: true
  }
}
layer {
  name: "res3a"
  type: "Eltwise"
  bottom: "res3a_branch1"
  bottom: "res3a_branch2c"
  top: "res3a"
}
layer {
  name: "res3a_relu"
  type: "ReLU"
  bottom: "res3a"
  top: "res3a"
}
layer {
  name: "res3b_branch2a"
  type: "Convolution"
  bottom: "res3a"
  top: "res3b_branch2a"
  param {
    lr_mult: 1
  }
  convolution_param {
    num_output: 128
    bias_term: false
    pad: 0
    kernel_size: 1
    stride: 1
  }
}
layer {
  name: "bn3b_branch2a"
  type: "BatchNorm"
  bottom: "res3b_branch2a"
  top: "res3b_branch2a"
  param {
    lr_mult: 0
    decay_mult: 0
  }
  param {
    lr_mult: 0
    decay_mult: 0
  }
  param {
    lr_mult: 0
    decay_mult: 0
  }
  batch_norm_param {
    use_global_stats: true
  }
}
layer {
  name: "scale3b_branch2a"
  type: "Scale"
  bottom: "res3b_branch2a"
  top: "res3b_branch2a"
  param {
    lr_mult: 0
    decay_mult: 0
  }
  param {
    lr_mult: 0
    decay_mult: 0
  }
  scale_param {
    bias_term: true
  }
}
layer {
  name: "res3b_branch2a_relu"
  type: "ReLU"
  bottom: "res3b_branch2a"
  top: "res3b_branch2a"
}
layer {
  name: "res3b_branch2b"
  type: "Convolution"
  bottom: "res3b_branch2a"
  top: "res3b_branch2b"
  param {
    lr_mult: 1
  }
  convolution_param {
    num_output: 128
    bias_term: false
    pad: 1
    kernel_size: 3
    stride: 1
  }
}
layer {
  name: "bn3b_branch2b"
  type: "BatchNorm"
  bottom: "res3b_branch2b"
  top: "res3b_branch2b"
  param {
    lr_mult: 0
    decay_mult: 0
  }
  param {
    lr_mult: 0
    decay_mult: 0
  }
  param {
    lr_mult: 0
    decay_mult: 0
  }
  batch_norm_param {
    use_global_stats: true
  }
}
layer {
  name: "scale3b_branch2b"
  type: "Scale"
  bottom: "res3b_branch2b"
  top: "res3b_branch2b"
  param {
    lr_mult: 0
    decay_mult: 0
  }
  param {
    lr_mult: 0
    decay_mult: 0
  }
  scale_param {
    bias_term: true
  }
}
layer {
  name: "res3b_branch2b_relu"
  type: "ReLU"
  bottom: "res3b_branch2b"
  top: "res3b_branch2b"
}
layer {
  name: "res3b_branch2c"
  type: "Convolution"
  bottom: "res3b_branch2b"
  top: "res3b_branch2c"
  param {
    lr_mult: 1
  }
  convolution_param {
    num_output: 512
    bias_term: false
    pad: 0
    kernel_size: 1
    stride: 1
  }
}
layer {
  name: "bn3b_branch2c"
  type: "BatchNorm"
  bottom: "res3b_branch2c"
  top: "res3b_branch2c"
  param {
    lr_mult: 0
    decay_mult: 0
  }
  param {
    lr_mult: 0
    decay_mult: 0
  }
  param {
    lr_mult: 0
    decay_mult: 0
  }
  batch_norm_param {
    use_global_stats: true
  }
}
layer {
  name: "scale3b_branch2c"
  type: "Scale"
  bottom: "res3b_branch2c"
  top: "res3b_branch2c"
  param {
    lr_mult: 0
    decay_mult: 0
  }
  param {
    lr_mult: 0
    decay_mult: 0
  }
  scale_param {
    bias_term: true
  }
}
layer {
  name: "res3b"
  type: "Eltwise"
  bottom: "res3a"
  bottom: "res3b_branch2c"
  top: "res3b"
}
layer {
  name: "res3b_relu"
  type: "ReLU"
  bottom: "res3b"
  top: "res3b"
}
layer {
  name: "res3c_branch2a"
  type: "Convolution"
  bottom: "res3b"
  top: "res3c_branch2a"
  param {
    lr_mult: 1
  }
  convolution_param {
    num_output: 128
    bias_term: false
    pad: 0
    kernel_size: 1
    stride: 1
  }
}
layer {
  name: "bn3c_branch2a"
  type: "BatchNorm"
  bottom: "res3c_branch2a"
  top: "res3c_branch2a"
  param {
    lr_mult: 0
    decay_mult: 0
  }
  param {
    lr_mult: 0
    decay_mult: 0
  }
  param {
    lr_mult: 0
    decay_mult: 0
  }
  batch_norm_param {
    use_global_stats: true
  }
}
layer {
  name: "scale3c_branch2a"
  type: "Scale"
  bottom: "res3c_branch2a"
  top: "res3c_branch2a"
  param {
    lr_mult: 0
    decay_mult: 0
  }
  param {
    lr_mult: 0
    decay_mult: 0
  }
  scale_param {
    bias_term: true
  }
}
layer {
  name: "res3c_branch2a_relu"
  type: "ReLU"
  bottom: "res3c_branch2a"
  top: "res3c_branch2a"
}
layer {
  name: "res3c_branch2b"
  type: "Convolution"
  bottom: "res3c_branch2a"
  top: "res3c_branch2b"
  param {
    lr_mult: 1
  }
  convolution_param {
    num_output: 128
    bias_term: false
    pad: 1
    kernel_size: 3
    stride: 1
  }
}
layer {
  name: "bn3c_branch2b"
  type: "BatchNorm"
  bottom: "res3c_branch2b"
  top: "res3c_branch2b"
  param {
    lr_mult: 0
    decay_mult: 0
  }
  param {
    lr_mult: 0
    decay_mult: 0
  }
  param {
    lr_mult: 0
    decay_mult: 0
  }
  batch_norm_param {
    use_global_stats: true
  }
}
layer {
  name: "scale3c_branch2b"
  type: "Scale"
  bottom: "res3c_branch2b"
  top: "res3c_branch2b"
  param {
    lr_mult: 0
    decay_mult: 0
  }
  param {
    lr_mult: 0
    decay_mult: 0
  }
  scale_param {
    bias_term: true
  }
}
layer {
  name: "res3c_branch2b_relu"
  type: "ReLU"
  bottom: "res3c_branch2b"
  top: "res3c_branch2b"
}
layer {
  name: "res3c_branch2c"
  type: "Convolution"
  bottom: "res3c_branch2b"
  top: "res3c_branch2c"
  param {
    lr_mult: 1
  }
  convolution_param {
    num_output: 512
    bias_term: false
    pad: 0
    kernel_size: 1
    stride: 1
  }
}
layer {
  name: "bn3c_branch2c"
  type: "BatchNorm"
  bottom: "res3c_branch2c"
  top: "res3c_branch2c"
  param {
    lr_mult: 0
    decay_mult: 0
  }
  param {
    lr_mult: 0
    decay_mult: 0
  }
  param {
    lr_mult: 0
    decay_mult: 0
  }
  batch_norm_param {
    use_global_stats: true
  }
}
layer {
  name: "scale3c_branch2c"
  type: "Scale"
  bottom: "res3c_branch2c"
  top: "res3c_branch2c"
  param {
    lr_mult: 0
    decay_mult: 0
  }
  param {
    lr_mult: 0
    decay_mult: 0
  }
  scale_param {
    bias_term: true
  }
}
layer {
  name: "res3c"
  type: "Eltwise"
  bottom: "res3b"
  bottom: "res3c_branch2c"
  top: "res3c"
}
layer {
  name: "res3c_relu"
  type: "ReLU"
  bottom: "res3c"
  top: "res3c"
}
layer {
  name: "res3d_branch2a"
  type: "Convolution"
  bottom: "res3c"
  top: "res3d_branch2a"
  param {
    lr_mult: 1
  }
  convolution_param {
    num_output: 128
    bias_term: false
    pad: 0
    kernel_size: 1
    stride: 1
  }
}
layer {
  name: "bn3d_branch2a"
  type: "BatchNorm"
  bottom: "res3d_branch2a"
  top: "res3d_branch2a"
  param {
    lr_mult: 0
    decay_mult: 0
  }
  param {
    lr_mult: 0
    decay_mult: 0
  }
  param {
    lr_mult: 0
    decay_mult: 0
  }
  batch_norm_param {
    use_global_stats: true
  }
}
layer {
  name: "scale3d_branch2a"
  type: "Scale"
  bottom: "res3d_branch2a"
  top: "res3d_branch2a"
  param {
    lr_mult: 0
    decay_mult: 0
  }
  param {
    lr_mult: 0
    decay_mult: 0
  }
  scale_param {
    bias_term: true
  }
}
layer {
  name: "res3d_branch2a_relu"
  type: "ReLU"
  bottom: "res3d_branch2a"
  top: "res3d_branch2a"
}
layer {
  name: "res3d_branch2b"
  type: "Convolution"
  bottom: "res3d_branch2a"
  top: "res3d_branch2b"
  param {
    lr_mult: 1
  }
  convolution_param {
    num_output: 128
    bias_term: false
    pad: 1
    kernel_size: 3
    stride: 1
  }
}
layer {
  name: "bn3d_branch2b"
  type: "BatchNorm"
  bottom: "res3d_branch2b"
  top: "res3d_branch2b"
  param {
    lr_mult: 0
    decay_mult: 0
  }
  param {
    lr_mult: 0
    decay_mult: 0
  }
  param {
    lr_mult: 0
    decay_mult: 0
  }
  batch_norm_param {
    use_global_stats: true
  }
}
layer {
  name: "scale3d_branch2b"
  type: "Scale"
  bottom: "res3d_branch2b"
  top: "res3d_branch2b"
  param {
    lr_mult: 0
    decay_mult: 0
  }
  param {
    lr_mult: 0
    decay_mult: 0
  }
  scale_param {
    bias_term: true
  }
}
layer {
  name: "res3d_branch2b_relu"
  type: "ReLU"
  bottom: "res3d_branch2b"
  top: "res3d_branch2b"
}
layer {
  name: "res3d_branch2c"
  type: "Convolution"
  bottom: "res3d_branch2b"
  top: "res3d_branch2c"
  param {
    lr_mult: 1
  }
  convolution_param {
    num_output: 512
    bias_term: false
    pad: 0
    kernel_size: 1
    stride: 1
  }
}
layer {
  name: "bn3d_branch2c"
  type: "BatchNorm"
  bottom: "res3d_branch2c"
  top: "res3d_branch2c"
  param {
    lr_mult: 0
    decay_mult: 0
  }
  param {
    lr_mult: 0
    decay_mult: 0
  }
  param {
    lr_mult: 0
    decay_mult: 0
  }
  batch_norm_param {
    use_global_stats: true
  }
}
layer {
  name: "scale3d_branch2c"
  type: "Scale"
  bottom: "res3d_branch2c"
  top: "res3d_branch2c"
  param {
    lr_mult: 0
    decay_mult: 0
  }
  param {
    lr_mult: 0
    decay_mult: 0
  }
  scale_param {
    bias_term: true
  }
}
layer {
  name: "res3d"
  type: "Eltwise"
  bottom: "res3c"
  bottom: "res3d_branch2c"
  top: "res3d"
}
layer {
  name: "res3d_relu"
  type: "ReLU"
  bottom: "res3d"
  top: "res3d"
}
layer {
  name: "res4a_branch1"
  type: "Convolution"
  bottom: "res3d"
  top: "res4a_branch1"
  param {
    lr_mult: 1
  }
  convolution_param {
    num_output: 1024
    bias_term: false
    pad: 0
    kernel_size: 1
    stride: 2
  }
}
layer {
  name: "bn4a_branch1"
  type: "BatchNorm"
  bottom: "res4a_branch1"
  top: "res4a_branch1"
  param {
    lr_mult: 0
    decay_mult: 0
  }
  param {
    lr_mult: 0
    decay_mult: 0
  }
  param {
    lr_mult: 0
    decay_mult: 0
  }
  batch_norm_param {
    use_global_stats: true
  }
}
layer {
  name: "scale4a_branch1"
  type: "Scale"
  bottom: "res4a_branch1"
  top: "res4a_branch1"
  param {
    lr_mult: 0
    decay_mult: 0
  }
  param {
    lr_mult: 0
    decay_mult: 0
  }
  scale_param {
    bias_term: true
  }
}
layer {
  name: "res4a_branch2a"
  type: "Convolution"
  bottom: "res3d"
  top: "res4a_branch2a"
  param {
    lr_mult: 1
  }
  convolution_param {
    num_output: 256
    bias_term: false
    pad: 0
    kernel_size: 1
    stride: 2
  }
}
layer {
  name: "bn4a_branch2a"
  type: "BatchNorm"
  bottom: "res4a_branch2a"
  top: "res4a_branch2a"
  param {
    lr_mult: 0
    decay_mult: 0
  }
  param {
    lr_mult: 0
    decay_mult: 0
  }
  param {
    lr_mult: 0
    decay_mult: 0
  }
  batch_norm_param {
    use_global_stats: true
  }
}
layer {
  name: "scale4a_branch2a"
  type: "Scale"
  bottom: "res4a_branch2a"
  top: "res4a_branch2a"
  param {
    lr_mult: 0
    decay_mult: 0
  }
  param {
    lr_mult: 0
    decay_mult: 0
  }
  scale_param {
    bias_term: true
  }
}
layer {
  name: "res4a_branch2a_relu"
  type: "ReLU"
  bottom: "res4a_branch2a"
  top: "res4a_branch2a"
}
layer {
  name: "res4a_branch2b"
  type: "Convolution"
  bottom: "res4a_branch2a"
  top: "res4a_branch2b"
  param {
    lr_mult: 1
  }
  convolution_param {
    num_output: 256
    bias_term: false
    pad: 1
    kernel_size: 3
    stride: 1
  }
}
layer {
  name: "bn4a_branch2b"
  type: "BatchNorm"
  bottom: "res4a_branch2b"
  top: "res4a_branch2b"
  param {
    lr_mult: 0
    decay_mult: 0
  }
  param {
    lr_mult: 0
    decay_mult: 0
  }
  param {
    lr_mult: 0
    decay_mult: 0
  }
  batch_norm_param {
    use_global_stats: true
  }
}
layer {
  name: "scale4a_branch2b"
  type: "Scale"
  bottom: "res4a_branch2b"
  top: "res4a_branch2b"
  param {
    lr_mult: 0
    decay_mult: 0
  }
  param {
    lr_mult: 0
    decay_mult: 0
  }
  scale_param {
    bias_term: true
  }
}
layer {
  name: "res4a_branch2b_relu"
  type: "ReLU"
  bottom: "res4a_branch2b"
  top: "res4a_branch2b"
}
layer {
  name: "res4a_branch2c"
  type: "Convolution"
  bottom: "res4a_branch2b"
  top: "res4a_branch2c"
  param {
    lr_mult: 1
  }
  convolution_param {
    num_output: 1024
    bias_term: false
    pad: 0
    kernel_size: 1
    stride: 1
  }
}
layer {
  name: "bn4a_branch2c"
  type: "BatchNorm"
  bottom: "res4a_branch2c"
  top: "res4a_branch2c"
  param {
    lr_mult: 0
    decay_mult: 0
  }
  param {
    lr_mult: 0
    decay_mult: 0
  }
  param {
    lr_mult: 0
    decay_mult: 0
  }
  batch_norm_param {
    use_global_stats: true
  }
}
layer {
  name: "scale4a_branch2c"
  type: "Scale"
  bottom: "res4a_branch2c"
  top: "res4a_branch2c"
  param {
    lr_mult: 0
    decay_mult: 0
  }
  param {
    lr_mult: 0
    decay_mult: 0
  }
  scale_param {
    bias_term: true
  }
}
layer {
  name: "res4a"
  type: "Eltwise"
  bottom: "res4a_branch1"
  bottom: "res4a_branch2c"
  top: "res4a"
}
layer {
  name: "res4a_relu"
  type: "ReLU"
  bottom: "res4a"
  top: "res4a"
}
layer {
  name: "res4b_branch2a"
  type: "Convolution"
  bottom: "res4a"
  top: "res4b_branch2a"
  param {
    lr_mult: 1
  }
  convolution_param {
    num_output: 256
    bias_term: false
    pad: 0
    kernel_size: 1
    stride: 1
  }
}
layer {
  name: "bn4b_branch2a"
  type: "BatchNorm"
  bottom: "res4b_branch2a"
  top: "res4b_branch2a"
  param {
    lr_mult: 0
    decay_mult: 0
  }
  param {
    lr_mult: 0
    decay_mult: 0
  }
  param {
    lr_mult: 0
    decay_mult: 0
  }
  batch_norm_param {
    use_global_stats: true
  }
}
layer {
  name: "scale4b_branch2a"
  type: "Scale"
  bottom: "res4b_branch2a"
  top: "res4b_branch2a"
  param {
    lr_mult: 0
    decay_mult: 0
  }
  param {
    lr_mult: 0
    decay_mult: 0
  }
  scale_param {
    bias_term: true
  }
}
layer {
  name: "res4b_branch2a_relu"
  type: "ReLU"
  bottom: "res4b_branch2a"
  top: "res4b_branch2a"
}
layer {
  name: "res4b_branch2b"
  type: "Convolution"
  bottom: "res4b_branch2a"
  top: "res4b_branch2b"
  param {
    lr_mult: 1
  }
  convolution_param {
    num_output: 256
    bias_term: false
    pad: 1
    kernel_size: 3
    stride: 1
  }
}
layer {
  name: "bn4b_branch2b"
  type: "BatchNorm"
  bottom: "res4b_branch2b"
  top: "res4b_branch2b"
  param {
    lr_mult: 0
    decay_mult: 0
  }
  param {
    lr_mult: 0
    decay_mult: 0
  }
  param {
    lr_mult: 0
    decay_mult: 0
  }
  batch_norm_param {
    use_global_stats: true
  }
}
layer {
  name: "scale4b_branch2b"
  type: "Scale"
  bottom: "res4b_branch2b"
  top: "res4b_branch2b"
  param {
    lr_mult: 0
    decay_mult: 0
  }
  param {
    lr_mult: 0
    decay_mult: 0
  }
  scale_param {
    bias_term: true
  }
}
layer {
  name: "res4b_branch2b_relu"
  type: "ReLU"
  bottom: "res4b_branch2b"
  top: "res4b_branch2b"
}
layer {
  name: "res4b_branch2c"
  type: "Convolution"
  bottom: "res4b_branch2b"
  top: "res4b_branch2c"
  param {
    lr_mult: 1
  }
  convolution_param {
    num_output: 1024
    bias_term: false
    pad: 0
    kernel_size: 1
    stride: 1
  }
}
layer {
  name: "bn4b_branch2c"
  type: "BatchNorm"
  bottom: "res4b_branch2c"
  top: "res4b_branch2c"
  param {
    lr_mult: 0
    decay_mult: 0
  }
  param {
    lr_mult: 0
    decay_mult: 0
  }
  param {
    lr_mult: 0
    decay_mult: 0
  }
  batch_norm_param {
    use_global_stats: true
  }
}
layer {
  name: "scale4b_branch2c"
  type: "Scale"
  bottom: "res4b_branch2c"
  top: "res4b_branch2c"
  param {
    lr_mult: 0
    decay_mult: 0
  }
  param {
    lr_mult: 0
    decay_mult: 0
  }
  scale_param {
    bias_term: true
  }
}
layer {
  name: "res4b"
  type: "Eltwise"
  bottom: "res4a"
  bottom: "res4b_branch2c"
  top: "res4b"
}
layer {
  name: "res4b_relu"
  type: "ReLU"
  bottom: "res4b"
  top: "res4b"
}
layer {
  name: "res4c_branch2a"
  type: "Convolution"
  bottom: "res4b"
  top: "res4c_branch2a"
  param {
    lr_mult: 1
  }
  convolution_param {
    num_output: 256
    bias_term: false
    pad: 0
    kernel_size: 1
    stride: 1
  }
}
layer {
  name: "bn4c_branch2a"
  type: "BatchNorm"
  bottom: "res4c_branch2a"
  top: "res4c_branch2a"
  param {
    lr_mult: 0
    decay_mult: 0
  }
  param {
    lr_mult: 0
    decay_mult: 0
  }
  param {
    lr_mult: 0
    decay_mult: 0
  }
  batch_norm_param {
    use_global_stats: true
  }
}
layer {
  name: "scale4c_branch2a"
  type: "Scale"
  bottom: "res4c_branch2a"
  top: "res4c_branch2a"
  param {
    lr_mult: 0
    decay_mult: 0
  }
  param {
    lr_mult: 0
    decay_mult: 0
  }
  scale_param {
    bias_term: true
  }
}
layer {
  name: "res4c_branch2a_relu"
  type: "ReLU"
  bottom: "res4c_branch2a"
  top: "res4c_branch2a"
}
layer {
  name: "res4c_branch2b"
  type: "Convolution"
  bottom: "res4c_branch2a"
  top: "res4c_branch2b"
  param {
    lr_mult: 1
  }
  convolution_param {
    num_output: 256
    bias_term: false
    pad: 1
    kernel_size: 3
    stride: 1
  }
}
layer {
  name: "bn4c_branch2b"
  type: "BatchNorm"
  bottom: "res4c_branch2b"
  top: "res4c_branch2b"
  param {
    lr_mult: 0
    decay_mult: 0
  }
  param {
    lr_mult: 0
    decay_mult: 0
  }
  param {
    lr_mult: 0
    decay_mult: 0
  }
  batch_norm_param {
    use_global_stats: true
  }
}
layer {
  name: "scale4c_branch2b"
  type: "Scale"
  bottom: "res4c_branch2b"
  top: "res4c_branch2b"
  param {
    lr_mult: 0
    decay_mult: 0
  }
  param {
    lr_mult: 0
    decay_mult: 0
  }
  scale_param {
    bias_term: true
  }
}
layer {
  name: "res4c_branch2b_relu"
  type: "ReLU"
  bottom: "res4c_branch2b"
  top: "res4c_
I0625 14:59:42.554385  6673 layer_factory.hpp:77] Creating layer input-data
I0625 14:59:42.562796  6673 net.cpp:100] Creating Layer input-data
I0625 14:59:42.562816  6673 net.cpp:418] input-data -> data
I0625 14:59:42.562855  6673 net.cpp:418] input-data -> im_info
I0625 14:59:42.562875  6673 net.cpp:418] input-data -> gt_boxes
RoiDataLayer: name_to_top: {'gt_boxes': 2, 'data': 0, 'im_info': 1}
I0625 14:59:42.582489  6673 net.cpp:150] Setting up input-data
I0625 14:59:42.582511  6673 net.cpp:157] Top shape: 1 3 960 1280 (3686400)
I0625 14:59:42.582516  6673 net.cpp:157] Top shape: 1 3 (3)
I0625 14:59:42.582520  6673 net.cpp:157] Top shape: 1 4 (4)
I0625 14:59:42.582521  6673 net.cpp:165] Memory required for data: 14745628
I0625 14:59:42.582538  6673 layer_factory.hpp:77] Creating layer data_input-data_0_split
I0625 14:59:42.582566  6673 net.cpp:100] Creating Layer data_input-data_0_split
I0625 14:59:42.582576  6673 net.cpp:444] data_input-data_0_split <- data
I0625 14:59:42.582592  6673 net.cpp:418] data_input-data_0_split -> data_input-data_0_split_0
I0625 14:59:42.582610  6673 net.cpp:418] data_input-data_0_split -> data_input-data_0_split_1
I0625 14:59:42.582653  6673 net.cpp:150] Setting up data_input-data_0_split
I0625 14:59:42.582660  6673 net.cpp:157] Top shape: 1 3 960 1280 (3686400)
I0625 14:59:42.582664  6673 net.cpp:157] Top shape: 1 3 960 1280 (3686400)
I0625 14:59:42.582667  6673 net.cpp:165] Memory required for data: 44236828
I0625 14:59:42.582669  6673 layer_factory.hpp:77] Creating layer im_info_input-data_1_split
I0625 14:59:42.582679  6673 net.cpp:100] Creating Layer im_info_input-data_1_split
I0625 14:59:42.582684  6673 net.cpp:444] im_info_input-data_1_split <- im_info
I0625 14:59:42.582693  6673 net.cpp:418] im_info_input-data_1_split -> im_info_input-data_1_split_0
I0625 14:59:42.582703  6673 net.cpp:418] im_info_input-data_1_split -> im_info_input-data_1_split_1
I0625 14:59:42.582737  6673 net.cpp:150] Setting up im_info_input-data_1_split
I0625 14:59:42.582743  6673 net.cpp:157] Top shape: 1 3 (3)
I0625 14:59:42.582747  6673 net.cpp:157] Top shape: 1 3 (3)
I0625 14:59:42.582748  6673 net.cpp:165] Memory required for data: 44236852
I0625 14:59:42.582751  6673 layer_factory.hpp:77] Creating layer gt_boxes_input-data_2_split
I0625 14:59:42.582757  6673 net.cpp:100] Creating Layer gt_boxes_input-data_2_split
I0625 14:59:42.582762  6673 net.cpp:444] gt_boxes_input-data_2_split <- gt_boxes
I0625 14:59:42.582770  6673 net.cpp:418] gt_boxes_input-data_2_split -> gt_boxes_input-data_2_split_0
I0625 14:59:42.582782  6673 net.cpp:418] gt_boxes_input-data_2_split -> gt_boxes_input-data_2_split_1
I0625 14:59:42.582818  6673 net.cpp:150] Setting up gt_boxes_input-data_2_split
I0625 14:59:42.582824  6673 net.cpp:157] Top shape: 1 4 (4)
I0625 14:59:42.582828  6673 net.cpp:157] Top shape: 1 4 (4)
I0625 14:59:42.582830  6673 net.cpp:165] Memory required for data: 44236884
I0625 14:59:42.582834  6673 layer_factory.hpp:77] Creating layer conv1
I0625 14:59:42.582852  6673 net.cpp:100] Creating Layer conv1
I0625 14:59:42.582862  6673 net.cpp:444] conv1 <- data_input-data_0_split_0
I0625 14:59:42.582877  6673 net.cpp:418] conv1 -> conv1
I0625 14:59:42.884764  6673 cudnn_conv_layer.cpp:194] Reallocating workspace storage: 5529624
I0625 14:59:42.885010  6673 net.cpp:150] Setting up conv1
I0625 14:59:42.885026  6673 net.cpp:157] Top shape: 1 64 480 640 (19660800)
I0625 14:59:42.885028  6673 net.cpp:165] Memory required for data: 122880084
I0625 14:59:42.885078  6673 layer_factory.hpp:77] Creating layer bn_conv1
I0625 14:59:42.885104  6673 net.cpp:100] Creating Layer bn_conv1
I0625 14:59:42.885113  6673 net.cpp:444] bn_conv1 <- conv1
I0625 14:59:42.885124  6673 net.cpp:405] bn_conv1 -> conv1 (in-place)
I0625 14:59:42.886378  6673 net.cpp:150] Setting up bn_conv1
I0625 14:59:42.886385  6673 net.cpp:157] Top shape: 1 64 480 640 (19660800)
I0625 14:59:42.886387  6673 net.cpp:165] Memory required for data: 201523284
I0625 14:59:42.886415  6673 layer_factory.hpp:77] Creating layer scale_conv1
I0625 14:59:42.886428  6673 net.cpp:100] Creating Layer scale_conv1
I0625 14:59:42.886435  6673 net.cpp:444] scale_conv1 <- conv1
I0625 14:59:42.886443  6673 net.cpp:405] scale_conv1 -> conv1 (in-place)
I0625 14:59:42.886500  6673 layer_factory.hpp:77] Creating layer scale_conv1
I0625 14:59:42.888754  6673 net.cpp:150] Setting up scale_conv1
I0625 14:59:42.888765  6673 net.cpp:157] Top shape: 1 64 480 640 (19660800)
I0625 14:59:42.888767  6673 net.cpp:165] Memory required for data: 280166484
I0625 14:59:42.888782  6673 layer_factory.hpp:77] Creating layer conv1_relu
I0625 14:59:42.888797  6673 net.cpp:100] Creating Layer conv1_relu
I0625 14:59:42.888803  6673 net.cpp:444] conv1_relu <- conv1
I0625 14:59:42.888816  6673 net.cpp:405] conv1_relu -> conv1 (in-place)
I0625 14:59:42.888978  6673 net.cpp:150] Setting up conv1_relu
I0625 14:59:42.888983  6673 net.cpp:157] Top shape: 1 64 480 640 (19660800)
I0625 14:59:42.888986  6673 net.cpp:165] Memory required for data: 358809684
I0625 14:59:42.888989  6673 layer_factory.hpp:77] Creating layer pool1
I0625 14:59:42.889006  6673 net.cpp:100] Creating Layer pool1
I0625 14:59:42.889010  6673 net.cpp:444] pool1 <- conv1
I0625 14:59:42.889022  6673 net.cpp:418] pool1 -> pool1
I0625 14:59:42.889080  6673 net.cpp:150] Setting up pool1
I0625 14:59:42.889087  6673 net.cpp:157] Top shape: 1 64 240 320 (4915200)
I0625 14:59:42.889089  6673 net.cpp:165] Memory required for data: 378470484
I0625 14:59:42.889092  6673 layer_factory.hpp:77] Creating layer pool1_pool1_0_split
I0625 14:59:42.889101  6673 net.cpp:100] Creating Layer pool1_pool1_0_split
I0625 14:59:42.889103  6673 net.cpp:444] pool1_pool1_0_split <- pool1
I0625 14:59:42.889112  6673 net.cpp:418] pool1_pool1_0_split -> pool1_pool1_0_split_0
I0625 14:59:42.889122  6673 net.cpp:418] pool1_pool1_0_split -> pool1_pool1_0_split_1
I0625 14:59:42.889163  6673 net.cpp:150] Setting up pool1_pool1_0_split
I0625 14:59:42.889168  6673 net.cpp:157] Top shape: 1 64 240 320 (4915200)
I0625 14:59:42.889170  6673 net.cpp:157] Top shape: 1 64 240 320 (4915200)
I0625 14:59:42.889173  6673 net.cpp:165] Memory required for data: 417792084
I0625 14:59:42.889175  6673 layer_factory.hpp:77] Creating layer res2a_branch1
I0625 14:59:42.889189  6673 net.cpp:100] Creating Layer res2a_branch1
I0625 14:59:42.889192  6673 net.cpp:444] res2a_branch1 <- pool1_pool1_0_split_0
I0625 14:59:42.889204  6673 net.cpp:418] res2a_branch1 -> res2a_branch1
I0625 14:59:42.890048  6673 cudnn_conv_layer.cpp:194] Reallocating workspace storage: 1388952
I0625 14:59:42.890288  6673 net.cpp:150] Setting up res2a_branch1
I0625 14:59:42.890297  6673 net.cpp:157] Top shape: 1 256 240 320 (19660800)
I0625 14:59:42.890300  6673 net.cpp:165] Memory required for data: 496435284
I0625 14:59:42.890308  6673 layer_factory.hpp:77] Creating layer bn2a_branch1
I0625 14:59:42.890321  6673 net.cpp:100] Creating Layer bn2a_branch1
I0625 14:59:42.890324  6673 net.cpp:444] bn2a_branch1 <- res2a_branch1
I0625 14:59:42.890336  6673 net.cpp:405] bn2a_branch1 -> res2a_branch1 (in-place)
I0625 14:59:42.890633  6673 net.cpp:150] Setting up bn2a_branch1
I0625 14:59:42.890638  6673 net.cpp:157] Top shape: 1 256 240 320 (19660800)
I0625 14:59:42.890640  6673 net.cpp:165] Memory required for data: 575078484
I0625 14:59:42.890662  6673 layer_factory.hpp:77] Creating layer scale2a_branch1
I0625 14:59:42.890674  6673 net.cpp:100] Creating Layer scale2a_branch1
I0625 14:59:42.890679  6673 net.cpp:444] scale2a_branch1 <- res2a_branch1
I0625 14:59:42.890688  6673 net.cpp:405] scale2a_branch1 -> res2a_branch1 (in-place)
I0625 14:59:42.890738  6673 layer_factory.hpp:77] Creating layer scale2a_branch1
I0625 14:59:42.891136  6673 net.cpp:150] Setting up scale2a_branch1
I0625 14:59:42.891146  6673 net.cpp:157] Top shape: 1 256 240 320 (19660800)
I0625 14:59:42.891149  6673 net.cpp:165] Memory required for data: 653721684
I0625 14:59:42.891161  6673 layer_factory.hpp:77] Creating layer res2a_branch2a
I0625 14:59:42.891176  6673 net.cpp:100] Creating Layer res2a_branch2a
I0625 14:59:42.891185  6673 net.cpp:444] res2a_branch2a <- pool1_pool1_0_split_1
I0625 14:59:42.891199  6673 net.cpp:418] res2a_branch2a -> res2a_branch2a
I0625 14:59:42.892999  6673 cudnn_conv_layer.cpp:194] Reallocating workspace storage: 1388952
I0625 14:59:42.893235  6673 net.cpp:150] Setting up res2a_branch2a
I0625 14:59:42.893245  6673 net.cpp:157] Top shape: 1 64 240 320 (4915200)
I0625 14:59:42.893247  6673 net.cpp:165] Memory required for data: 673382484
I0625 14:59:42.893257  6673 layer_factory.hpp:77] Creating layer bn2a_branch2a
I0625 14:59:42.893268  6673 net.cpp:100] Creating Layer bn2a_branch2a
I0625 14:59:42.893273  6673 net.cpp:444] bn2a_branch2a <- res2a_branch2a
I0625 14:59:42.893283  6673 net.cpp:405] bn2a_branch2a -> res2a_branch2a (in-place)
I0625 14:59:42.893592  6673 net.cpp:150] Setting up bn2a_branch2a
I0625 14:59:42.893597  6673 net.cpp:157] Top shape: 1 64 240 320 (4915200)
I0625 14:59:42.893599  6673 net.cpp:165] Memory required for data: 693043284
I0625 14:59:42.893620  6673 layer_factory.hpp:77] Creating layer scale2a_branch2a
I0625 14:59:42.893632  6673 net.cpp:100] Creating Layer scale2a_branch2a
I0625 14:59:42.893637  6673 net.cpp:444] scale2a_branch2a <- res2a_branch2a
I0625 14:59:42.893646  6673 net.cpp:405] scale2a_branch2a -> res2a_branch2a (in-place)
I0625 14:59:42.893697  6673 layer_factory.hpp:77] Creating layer scale2a_branch2a
I0625 14:59:42.894026  6673 net.cpp:150] Setting up scale2a_branch2a
I0625 14:59:42.894032  6673 net.cpp:157] Top shape: 1 64 240 320 (4915200)
I0625 14:59:42.894034  6673 net.cpp:165] Memory required for data: 712704084
I0625 14:59:42.894043  6673 layer_factory.hpp:77] Creating layer res2a_branch2a_relu
I0625 14:59:42.894058  6673 net.cpp:100] Creating Layer res2a_branch2a_relu
I0625 14:59:42.894063  6673 net.cpp:444] res2a_branch2a_relu <- res2a_branch2a
I0625 14:59:42.894073  6673 net.cpp:405] res2a_branch2a_relu -> res2a_branch2a (in-place)
I0625 14:59:42.894196  6673 net.cpp:150] Setting up res2a_branch2a_relu
I0625 14:59:42.894201  6673 net.cpp:157] Top shape: 1 64 240 320 (4915200)
I0625 14:59:42.894203  6673 net.cpp:165] Memory required for data: 732364884
I0625 14:59:42.894207  6673 layer_factory.hpp:77] Creating layer res2a_branch2b
I0625 14:59:42.894218  6673 net.cpp:100] Creating Layer res2a_branch2b
I0625 14:59:42.894223  6673 net.cpp:444] res2a_branch2b <- res2a_branch2a
I0625 14:59:42.894235  6673 net.cpp:418] res2a_branch2b -> res2a_branch2b
I0625 14:59:42.895761  6673 cudnn_conv_layer.cpp:194] Reallocating workspace storage: 786432
I0625 14:59:42.895998  6673 net.cpp:150] Setting up res2a_branch2b
I0625 14:59:42.896008  6673 net.cpp:157] Top shape: 1 64 240 320 (4915200)
I0625 14:59:42.896010  6673 net.cpp:165] Memory required for data: 752025684
I0625 14:59:42.896023  6673 layer_factory.hpp:77] Creating layer bn2a_branch2b
I0625 14:59:42.896035  6673 net.cpp:100] Creating Layer bn2a_branch2b
I0625 14:59:42.896040  6673 net.cpp:444] bn2a_branch2b <- res2a_branch2b
I0625 14:59:42.896051  6673 net.cpp:405] bn2a_branch2b -> res2a_branch2b (in-place)
I0625 14:59:42.896375  6673 net.cpp:150] Setting up bn2a_branch2b
I0625 14:59:42.896383  6673 net.cpp:157] Top shape: 1 64 240 320 (4915200)
I0625 14:59:42.896384  6673 net.cpp:165] Memory required for data: 771686484
I0625 14:59:42.896397  6673 layer_factory.hpp:77] Creating layer scale2a_branch2b
I0625 14:59:42.896412  6673 net.cpp:100] Creating Layer scale2a_branch2b
I0625 14:59:42.896417  6673 net.cpp:444] scale2a_branch2b <- res2a_branch2b
I0625 14:59:42.896426  6673 net.cpp:405] scale2a_branch2b -> res2a_branch2b (in-place)
I0625 14:59:42.896494  6673 layer_factory.hpp:77] Creating layer scale2a_branch2b
I0625 14:59:42.897503  6673 net.cpp:150] Setting up scale2a_branch2b
I0625 14:59:42.897511  6673 net.cpp:157] Top shape: 1 64 240 320 (4915200)
I0625 14:59:42.897516  6673 net.cpp:165] Memory required for data: 791347284
I0625 14:59:42.897529  6673 layer_factory.hpp:77] Creating layer res2a_branch2b_relu
I0625 14:59:42.897543  6673 net.cpp:100] Creating Layer res2a_branch2b_relu
I0625 14:59:42.897549  6673 net.cpp:444] res2a_branch2b_relu <- res2a_branch2b
I0625 14:59:42.897562  6673 net.cpp:405] res2a_branch2b_relu -> res2a_branch2b (in-place)
I0625 14:59:42.897970  6673 net.cpp:150] Setting up res2a_branch2b_relu
I0625 14:59:42.897979  6673 net.cpp:157] Top shape: 1 64 240 320 (4915200)
I0625 14:59:42.897982  6673 net.cpp:165] Memory required for data: 811008084
I0625 14:59:42.897989  6673 layer_factory.hpp:77] Creating layer res2a_branch2c
I0625 14:59:42.898008  6673 net.cpp:100] Creating Layer res2a_branch2c
I0625 14:59:42.898015  6673 net.cpp:444] res2a_branch2c <- res2a_branch2b
I0625 14:59:42.898030  6673 net.cpp:418] res2a_branch2c -> res2a_branch2c
I0625 14:59:42.898912  6673 cudnn_conv_layer.cpp:194] Reallocating workspace storage: 1388952
I0625 14:59:42.899160  6673 net.cpp:150] Setting up res2a_branch2c
I0625 14:59:42.899174  6673 net.cpp:157] Top shape: 1 256 240 320 (19660800)
I0625 14:59:42.899178  6673 net.cpp:165] Memory required for data: 889651284
I0625 14:59:42.899191  6673 layer_factory.hpp:77] Creating layer bn2a_branch2c
I0625 14:59:42.899207  6673 net.cpp:100] Creating Layer bn2a_branch2c
I0625 14:59:42.899214  6673 net.cpp:444] bn2a_branch2c <- res2a_branch2c
I0625 14:59:42.899227  6673 net.cpp:405] bn2a_branch2c -> res2a_branch2c (in-place)
I0625 14:59:42.899534  6673 net.cpp:150] Setting up bn2a_branch2c
I0625 14:59:42.899541  6673 net.cpp:157] Top shape: 1 256 240 320 (19660800)
I0625 14:59:42.899544  6673 net.cpp:165] Memory required for data: 968294484
I0625 14:59:42.899561  6673 layer_factory.hpp:77] Creating layer scale2a_branch2c
I0625 14:59:42.899576  6673 net.cpp:100] Creating Layer scale2a_branch2c
I0625 14:59:42.899582  6673 net.cpp:444] scale2a_branch2c <- res2a_branch2c
I0625 14:59:42.899595  6673 net.cpp:405] scale2a_branch2c -> res2a_branch2c (in-place)
I0625 14:59:42.899652  6673 layer_factory.hpp:77] Creating layer scale2a_branch2c
I0625 14:59:42.899999  6673 net.cpp:150] Setting up scale2a_branch2c
I0625 14:59:42.900007  6673 net.cpp:157] Top shape: 1 256 240 320 (19660800)
I0625 14:59:42.900010  6673 net.cpp:165] Memory required for data: 1046937684
I0625 14:59:42.900023  6673 layer_factory.hpp:77] Creating layer res2a
I0625 14:59:42.900035  6673 net.cpp:100] Creating Layer res2a
I0625 14:59:42.900041  6673 net.cpp:444] res2a <- res2a_branch1
I0625 14:59:42.900053  6673 net.cpp:444] res2a <- res2a_branch2c
I0625 14:59:42.900063  6673 net.cpp:418] res2a -> res2a
I0625 14:59:42.900100  6673 net.cpp:150] Setting up res2a
I0625 14:59:42.900108  6673 net.cpp:157] Top shape: 1 256 240 320 (19660800)
I0625 14:59:42.900111  6673 net.cpp:165] Memory required for data: 1125580884
I0625 14:59:42.900116  6673 layer_factory.hpp:77] Creating layer res2a_relu
I0625 14:59:42.900127  6673 net.cpp:100] Creating Layer res2a_relu
I0625 14:59:42.900132  6673 net.cpp:444] res2a_relu <- res2a
I0625 14:59:42.900144  6673 net.cpp:405] res2a_relu -> res2a (in-place)
I0625 14:59:42.900276  6673 net.cpp:150] Setting up res2a_relu
I0625 14:59:42.900285  6673 net.cpp:157] Top shape: 1 256 240 320 (19660800)
I0625 14:59:42.900286  6673 net.cpp:165] Memory required for data: 1204224084
I0625 14:59:42.900291  6673 layer_factory.hpp:77] Creating layer res2a_res2a_relu_0_split
I0625 14:59:42.900303  6673 net.cpp:100] Creating Layer res2a_res2a_relu_0_split
I0625 14:59:42.900308  6673 net.cpp:444] res2a_res2a_relu_0_split <- res2a
I0625 14:59:42.900322  6673 net.cpp:418] res2a_res2a_relu_0_split -> res2a_res2a_relu_0_split_0
I0625 14:59:42.900337  6673 net.cpp:418] res2a_res2a_relu_0_split -> res2a_res2a_relu_0_split_1
I0625 14:59:42.900385  6673 net.cpp:150] Setting up res2a_res2a_relu_0_split
I0625 14:59:42.900394  6673 net.cpp:157] Top shape: 1 256 240 320 (19660800)
I0625 14:59:42.900399  6673 net.cpp:157] Top shape: 1 256 240 320 (19660800)
I0625 14:59:42.900403  6673 net.cpp:165] Memory required for data: 1361510484
I0625 14:59:42.900408  6673 layer_factory.hpp:77] Creating layer res2b_branch2a
I0625 14:59:42.900423  6673 net.cpp:100] Creating Layer res2b_branch2a
I0625 14:59:42.900427  6673 net.cpp:444] res2b_branch2a <- res2a_res2a_relu_0_split_0
I0625 14:59:42.900441  6673 net.cpp:418] res2b_branch2a -> res2b_branch2a
I0625 14:59:42.901266  6673 cudnn_conv_layer.cpp:194] Reallocating workspace storage: 1388952
I0625 14:59:42.901504  6673 net.cpp:150] Setting up res2b_branch2a
I0625 14:59:42.901513  6673 net.cpp:157] Top shape: 1 64 240 320 (4915200)
I0625 14:59:42.901517  6673 net.cpp:165] Memory required for data: 1381171284
I0625 14:59:42.901530  6673 layer_factory.hpp:77] Creating layer bn2b_branch2a
I0625 14:59:42.901543  6673 net.cpp:100] Creating Layer bn2b_branch2a
I0625 14:59:42.901549  6673 net.cpp:444] bn2b_branch2a <- res2b_branch2a
I0625 14:59:42.901564  6673 net.cpp:405] bn2b_branch2a -> res2b_branch2a (in-place)
I0625 14:59:42.901885  6673 net.cpp:150] Setting up bn2b_branch2a
I0625 14:59:42.901891  6673 net.cpp:157] Top shape: 1 64 240 320 (4915200)
I0625 14:59:42.901895  6673 net.cpp:165] Memory required for data: 1400832084
I0625 14:59:42.901921  6673 layer_factory.hpp:77] Creating layer scale2b_branch2a
I0625 14:59:42.901937  6673 net.cpp:100] Creating Layer scale2b_branch2a
I0625 14:59:42.901942  6673 net.cpp:444] scale2b_branch2a <- res2b_branch2a
I0625 14:59:42.901955  6673 net.cpp:405] scale2b_branch2a -> res2b_branch2a (in-place)
I0625 14:59:42.902012  6673 layer_factory.hpp:77] Creating layer scale2b_branch2a
I0625 14:59:42.903029  6673 net.cpp:150] Setting up scale2b_branch2a
I0625 14:59:42.903039  6673 net.cpp:157] Top shape: 1 64 240 320 (4915200)
I0625 14:59:42.903043  6673 net.cpp:165] Memory required for data: 1420492884
I0625 14:59:42.903056  6673 layer_factory.hpp:77] Creating layer res2b_branch2a_relu
I0625 14:59:42.903069  6673 net.cpp:100] Creating Layer res2b_branch2a_relu
I0625 14:59:42.903075  6673 net.cpp:444] res2b_branch2a_relu <- res2b_branch2a
I0625 14:59:42.903089  6673 net.cpp:405] res2b_branch2a_relu -> res2b_branch2a (in-place)
I0625 14:59:42.903229  6673 net.cpp:150] Setting up res2b_branch2a_relu
I0625 14:59:42.903236  6673 net.cpp:157] Top shape: 1 64 240 320 (4915200)
I0625 14:59:42.903239  6673 net.cpp:165] Memory required for data: 1440153684
I0625 14:59:42.903244  6673 layer_factory.hpp:77] Creating layer res2b_branch2b
I0625 14:59:42.903259  6673 net.cpp:100] Creating Layer res2b_branch2b
I0625 14:59:42.903265  6673 net.cpp:444] res2b_branch2b <- res2b_branch2a
I0625 14:59:42.903281  6673 net.cpp:418] res2b_branch2b -> res2b_branch2b
I0625 14:59:42.904148  6673 cudnn_conv_layer.cpp:194] Reallocating workspace storage: 786432
I0625 14:59:42.904163  6673 net.cpp:150] Setting up res2b_branch2b
I0625 14:59:42.904172  6673 net.cpp:157] Top shape: 1 64 240 320 (4915200)
I0625 14:59:42.904176  6673 net.cpp:165] Memory required for data: 1459814484
I0625 14:59:42.904188  6673 layer_factory.hpp:77] Creating layer bn2b_branch2b
I0625 14:59:42.904208  6673 net.cpp:100] Creating Layer bn2b_branch2b
I0625 14:59:42.904214  6673 net.cpp:444] bn2b_branch2b <- res2b_branch2b
I0625 14:59:42.904229  6673 net.cpp:405] bn2b_branch2b -> res2b_branch2b (in-place)
I0625 14:59:42.904547  6673 net.cpp:150] Setting up bn2b_branch2b
I0625 14:59:42.904554  6673 net.cpp:157] Top shape: 1 64 240 320 (4915200)
I0625 14:59:42.904557  6673 net.cpp:165] Memory required for data: 1479475284
I0625 14:59:42.904574  6673 layer_factory.hpp:77] Creating layer scale2b_branch2b
I0625 14:59:42.904588  6673 net.cpp:100] Creating Layer scale2b_branch2b
I0625 14:59:42.904594  6673 net.cpp:444] scale2b_branch2b <- res2b_branch2b
I0625 14:59:42.904608  6673 net.cpp:405] scale2b_branch2b -> res2b_branch2b (in-place)
I0625 14:59:42.904664  6673 layer_factory.hpp:77] Creating layer scale2b_branch2b
I0625 14:59:42.904999  6673 net.cpp:150] Setting up scale2b_branch2b
I0625 14:59:42.905005  6673 net.cpp:157] Top shape: 1 64 240 320 (4915200)
I0625 14:59:42.905009  6673 net.cpp:165] Memory required for data: 1499136084
I0625 14:59:42.905021  6673 layer_factory.hpp:77] Creating layer res2b_branch2b_relu
I0625 14:59:42.905032  6673 net.cpp:100] Creating Layer res2b_branch2b_relu
I0625 14:59:42.905038  6673 net.cpp:444] res2b_branch2b_relu <- res2b_branch2b
I0625 14:59:42.905050  6673 net.cpp:405] res2b_branch2b_relu -> res2b_branch2b (in-place)
I0625 14:59:42.905407  6673 net.cpp:150] Setting up res2b_branch2b_relu
I0625 14:59:42.905416  6673 net.cpp:157] Top shape: 1 64 240 320 (4915200)
I0625 14:59:42.905418  6673 net.cpp:165] Memory required for data: 1518796884
I0625 14:59:42.905424  6673 layer_factory.hpp:77] Creating layer res2b_branch2c
I0625 14:59:42.905441  6673 net.cpp:100] Creating Layer res2b_branch2c
I0625 14:59:42.905447  6673 net.cpp:444] res2b_branch2c <- res2b_branch2b
I0625 14:59:42.905462  6673 net.cpp:418] res2b_branch2c -> res2b_branch2c
I0625 14:59:42.906289  6673 cudnn_conv_layer.cpp:194] Reallocating workspace storage: 1388952
I0625 14:59:42.906528  6673 net.cpp:150] Setting up res2b_branch2c
I0625 14:59:42.906538  6673 net.cpp:157] Top shape: 1 256 240 320 (19660800)
I0625 14:59:42.906543  6673 net.cpp:165] Memory required for data: 1597440084
I0625 14:59:42.906554  6673 layer_factory.hpp:77] Creating layer bn2b_branch2c
I0625 14:59:42.906569  6673 net.cpp:100] Creating Layer bn2b_branch2c
I0625 14:59:42.906574  6673 net.cpp:444] bn2b_branch2c <- res2b_branch2c
I0625 14:59:42.906587  6673 net.cpp:405] bn2b_branch2c -> res2b_branch2c (in-place)
I0625 14:59:42.906904  6673 net.cpp:150] Setting up bn2b_branch2c
I0625 14:59:42.906913  6673 net.cpp:157] Top shape: 1 256 240 320 (19660800)
I0625 14:59:42.906915  6673 net.cpp:165] Memory required for data: 1676083284
I0625 14:59:42.906932  6673 layer_factory.hpp:77] Creating layer scale2b_branch2c
I0625 14:59:42.906945  6673 net.cpp:100] Creating Layer scale2b_branch2c
I0625 14:59:42.906952  6673 net.cpp:444] scale2b_branch2c <- res2b_branch2c
I0625 14:59:42.906965  6673 net.cpp:405] scale2b_branch2c -> res2b_branch2c (in-place)
I0625 14:59:42.907021  6673 layer_factory.hpp:77] Creating layer scale2b_branch2c
I0625 14:59:42.908041  6673 net.cpp:150] Setting up scale2b_branch2c
I0625 14:59:42.908051  6673 net.cpp:157] Top shape: 1 256 240 320 (19660800)
I0625 14:59:42.908053  6673 net.cpp:165] Memory required for data: 1754726484
I0625 14:59:42.908067  6673 layer_factory.hpp:77] Creating layer res2b
I0625 14:59:42.908080  6673 net.cpp:100] Creating Layer res2b
I0625 14:59:42.908087  6673 net.cpp:444] res2b <- res2a_res2a_relu_0_split_1
I0625 14:59:42.908098  6673 net.cpp:444] res2b <- res2b_branch2c
I0625 14:59:42.908109  6673 net.cpp:418] res2b -> res2b
I0625 14:59:42.908155  6673 net.cpp:150] Setting up res2b
I0625 14:59:42.908164  6673 net.cpp:157] Top shape: 1 256 240 320 (19660800)
I0625 14:59:42.908167  6673 net.cpp:165] Memory required for data: 1833369684
I0625 14:59:42.908172  6673 layer_factory.hpp:77] Creating layer res2b_relu
I0625 14:59:42.908182  6673 net.cpp:100] Creating Layer res2b_relu
I0625 14:59:42.908190  6673 net.cpp:444] res2b_relu <- res2b
I0625 14:59:42.908202  6673 net.cpp:405] res2b_relu -> res2b (in-place)
I0625 14:59:42.908341  6673 net.cpp:150] Setting up res2b_relu
I0625 14:59:42.908349  6673 net.cpp:157] Top shape: 1 256 240 320 (19660800)
I0625 14:59:42.908351  6673 net.cpp:165] Memory required for data: 1912012884
I0625 14:59:42.908356  6673 layer_factory.hpp:77] Creating layer res2b_res2b_relu_0_split
I0625 14:59:42.908367  6673 net.cpp:100] Creating Layer res2b_res2b_relu_0_split
I0625 14:59:42.908372  6673 net.cpp:444] res2b_res2b_relu_0_split <- res2b
I0625 14:59:42.908386  6673 net.cpp:418] res2b_res2b_relu_0_split -> res2b_res2b_relu_0_split_0
I0625 14:59:42.908401  6673 net.cpp:418] res2b_res2b_relu_0_split -> res2b_res2b_relu_0_split_1
I0625 14:59:42.908454  6673 net.cpp:150] Setting up res2b_res2b_relu_0_split
I0625 14:59:42.908463  6673 net.cpp:157] Top shape: 1 256 240 320 (19660800)
I0625 14:59:42.908468  6673 net.cpp:157] Top shape: 1 256 240 320 (19660800)
I0625 14:59:42.908471  6673 net.cpp:165] Memory required for data: 2069299284
I0625 14:59:42.908475  6673 layer_factory.hpp:77] Creating layer res2c_branch2a
I0625 14:59:42.908490  6673 net.cpp:100] Creating Layer res2c_branch2a
I0625 14:59:42.908496  6673 net.cpp:444] res2c_branch2a <- res2b_res2b_relu_0_split_0
I0625 14:59:42.908510  6673 net.cpp:418] res2c_branch2a -> res2c_branch2a
I0625 14:59:42.909364  6673 cudnn_conv_layer.cpp:194] Reallocating workspace storage: 1388952
I0625 14:59:42.909602  6673 net.cpp:150] Setting up res2c_branch2a
I0625 14:59:42.909613  6673 net.cpp:157] Top shape: 1 64 240 320 (4915200)
I0625 14:59:42.909617  6673 net.cpp:165] Memory required for data: 2088960084
I0625 14:59:42.909629  6673 layer_factory.hpp:77] Creating layer bn2c_branch2a
I0625 14:59:42.909643  6673 net.cpp:100] Creating Layer bn2c_branch2a
I0625 14:59:42.909649  6673 net.cpp:444] bn2c_branch2a <- res2c_branch2a
I0625 14:59:42.909663  6673 net.cpp:405] bn2c_branch2a -> res2c_branch2a (in-place)
I0625 14:59:42.909988  6673 net.cpp:150] Setting up bn2c_branch2a
I0625 14:59:42.909996  6673 net.cpp:157] Top shape: 1 64 240 320 (4915200)
I0625 14:59:42.909998  6673 net.cpp:165] Memory required for data: 2108620884
I0625 14:59:42.910015  6673 layer_factory.hpp:77] Creating layer scale2c_branch2a
I0625 14:59:42.910028  6673 net.cpp:100] Creating Layer scale2c_branch2a
I0625 14:59:42.910034  6673 net.cpp:444] scale2c_branch2a <- res2c_branch2a
I0625 14:59:42.910048  6673 net.cpp:405] scale2c_branch2a -> res2c_branch2a (in-place)
I0625 14:59:42.910105  6673 layer_factory.hpp:77] Creating layer scale2c_branch2a
I0625 14:59:42.910441  6673 net.cpp:150] Setting up scale2c_branch2a
I0625 14:59:42.910449  6673 net.cpp:157] Top shape: 1 64 240 320 (4915200)
I0625 14:59:42.910452  6673 net.cpp:165] Memory required for data: 2128281684
I0625 14:59:42.910465  6673 layer_factory.hpp:77] Creating layer res2c_branch2a_relu
I0625 14:59:42.910475  6673 net.cpp:100] Creating Layer res2c_branch2a_relu
I0625 14:59:42.910481  6673 net.cpp:444] res2c_branch2a_relu <- res2c_branch2a
I0625 14:59:42.910493  6673 net.cpp:405] res2c_branch2a_relu -> res2c_branch2a (in-place)
I0625 14:59:42.910624  6673 net.cpp:150] Setting up res2c_branch2a_relu
I0625 14:59:42.910631  6673 net.cpp:157] Top shape: 1 64 240 320 (4915200)
I0625 14:59:42.910634  6673 net.cpp:165] Memory required for data: 2147942484
I0625 14:59:42.910639  6673 layer_factory.hpp:77] Creating layer res2c_branch2b
I0625 14:59:42.910655  6673 net.cpp:100] Creating Layer res2c_branch2b
I0625 14:59:42.910660  6673 net.cpp:444] res2c_branch2b <- res2c_branch2a
I0625 14:59:42.910676  6673 net.cpp:418] res2c_branch2b -> res2c_branch2b
I0625 14:59:42.912169  6673 cudnn_conv_layer.cpp:194] Reallocating workspace storage: 786432
I0625 14:59:42.912420  6673 net.cpp:150] Setting up res2c_branch2b
I0625 14:59:42.912431  6673 net.cpp:157] Top shape: 1 64 240 320 (4915200)
I0625 14:59:42.912436  6673 net.cpp:165] Memory required for data: 2167603284
I0625 14:59:42.912451  6673 layer_factory.hpp:77] Creating layer bn2c_branch2b
I0625 14:59:42.912467  6673 net.cpp:100] Creating Layer bn2c_branch2b
I0625 14:59:42.912473  6673 net.cpp:444] bn2c_branch2b <- res2c_branch2b
I0625 14:59:42.912490  6673 net.cpp:405] bn2c_branch2b -> res2c_branch2b (in-place)
I0625 14:59:42.912818  6673 net.cpp:150] Setting up bn2c_branch2b
I0625 14:59:42.912825  6673 net.cpp:157] Top shape: 1 64 240 320 (4915200)
I0625 14:59:42.912828  6673 net.cpp:165] Memory required for data: 2187264084
I0625 14:59:42.912845  6673 layer_factory.hpp:77] Creating layer scale2c_branch2b
I0625 14:59:42.912859  6673 net.cpp:100] Creating Layer scale2c_branch2b
I0625 14:59:42.912866  6673 net.cpp:444] scale2c_branch2b <- res2c_branch2b
I0625 14:59:42.912878  6673 net.cpp:405] scale2c_branch2b -> res2c_branch2b (in-place)
I0625 14:59:42.912936  6673 layer_factory.hpp:77] Creating layer scale2c_branch2b
I0625 14:59:42.913962  6673 net.cpp:150] Setting up scale2c_branch2b
I0625 14:59:42.913971  6673 net.cpp:157] Top shape: 1 64 240 320 (4915200)
I0625 14:59:42.913975  6673 net.cpp:165] Memory required for data: 2206924884
I0625 14:59:42.913987  6673 layer_factory.hpp:77] Creating layer res2c_branch2b_relu
I0625 14:59:42.914000  6673 net.cpp:100] Creating Layer res2c_branch2b_relu
I0625 14:59:42.914007  6673 net.cpp:444] res2c_branch2b_relu <- res2c_branch2b
I0625 14:59:42.914021  6673 net.cpp:405] res2c_branch2b_relu -> res2c_branch2b (in-place)
I0625 14:59:42.914168  6673 net.cpp:150] Setting up res2c_branch2b_relu
I0625 14:59:42.914176  6673 net.cpp:157] Top shape: 1 64 240 320 (4915200)
I0625 14:59:42.914180  6673 net.cpp:165] Memory required for data: 2226585684
I0625 14:59:42.914185  6673 layer_factory.hpp:77] Creating layer res2c_branch2c
I0625 14:59:42.914202  6673 net.cpp:100] Creating Layer res2c_branch2c
I0625 14:59:42.914208  6673 net.cpp:444] res2c_branch2c <- res2c_branch2b
I0625 14:59:42.914223  6673 net.cpp:418] res2c_branch2c -> res2c_branch2c
I0625 14:59:42.915182  6673 cudnn_conv_layer.cpp:194] Reallocating workspace storage: 1388952
I0625 14:59:42.915493  6673 net.cpp:150] Setting up res2c_branch2c
I0625 14:59:42.915506  6673 net.cpp:157] Top shape: 1 256 240 320 (19660800)
I0625 14:59:42.915510  6673 net.cpp:165] Memory required for data: 2305228884
I0625 14:59:42.915524  6673 layer_factory.hpp:77] Creating layer bn2c_branch2c
I0625 14:59:42.915541  6673 net.cpp:100] Creating Layer bn2c_branch2c
I0625 14:59:42.915549  6673 net.cpp:444] bn2c_branch2c <- res2c_branch2c
I0625 14:59:42.915563  6673 net.cpp:405] bn2c_branch2c -> res2c_branch2c (in-place)
I0625 14:59:42.915894  6673 net.cpp:150] Setting up bn2c_branch2c
I0625 14:59:42.915901  6673 net.cpp:157] Top shape: 1 256 240 320 (19660800)
I0625 14:59:42.915904  6673 net.cpp:165] Memory required for data: 2383872084
I0625 14:59:42.915937  6673 layer_factory.hpp:77] Creating layer scale2c_branch2c
I0625 14:59:42.915956  6673 net.cpp:100] Creating Layer scale2c_branch2c
I0625 14:59:42.915961  6673 net.cpp:444] scale2c_branch2c <- res2c_branch2c
I0625 14:59:42.915976  6673 net.cpp:405] scale2c_branch2c -> res2c_branch2c (in-place)
I0625 14:59:42.916036  6673 layer_factory.hpp:77] Creating layer scale2c_branch2c
I0625 14:59:42.916374  6673 net.cpp:150] Setting up scale2c_branch2c
I0625 14:59:42.916381  6673 net.cpp:157] Top shape: 1 256 240 320 (19660800)
I0625 14:59:42.916384  6673 net.cpp:165] Memory required for data: 2462515284
I0625 14:59:42.916396  6673 layer_factory.hpp:77] Creating layer res2c
I0625 14:59:42.916409  6673 net.cpp:100] Creating Layer res2c
I0625 14:59:42.916415  6673 net.cpp:444] res2c <- res2b_res2b_relu_0_split_1
I0625 14:59:42.916427  6673 net.cpp:444] res2c <- res2c_branch2c
I0625 14:59:42.916438  6673 net.cpp:418] res2c -> res2c
I0625 14:59:42.916478  6673 net.cpp:150] Setting up res2c
I0625 14:59:42.916487  6673 net.cpp:157] Top shape: 1 256 240 320 (19660800)
I0625 14:59:42.916491  6673 net.cpp:165] Memory required for data: 2541158484
I0625 14:59:42.916496  6673 layer_factory.hpp:77] Creating layer res2c_relu
I0625 14:59:42.916507  6673 net.cpp:100] Creating Layer res2c_relu
I0625 14:59:42.916513  6673 net.cpp:444] res2c_relu <- res2c
I0625 14:59:42.916527  6673 net.cpp:405] res2c_relu -> res2c (in-place)
I0625 14:59:42.916900  6673 net.cpp:150] Setting up res2c_relu
I0625 14:59:42.916908  6673 net.cpp:157] Top shape: 1 256 240 320 (19660800)
I0625 14:59:42.916911  6673 net.cpp:165] Memory required for data: 2619801684
I0625 14:59:42.916916  6673 layer_factory.hpp:77] Creating layer res2c_res2c_relu_0_split
I0625 14:59:42.916929  6673 net.cpp:100] Creating Layer res2c_res2c_relu_0_split
I0625 14:59:42.916934  6673 net.cpp:444] res2c_res2c_relu_0_split <- res2c
I0625 14:59:42.916949  6673 net.cpp:418] res2c_res2c_relu_0_split -> res2c_res2c_relu_0_split_0
I0625 14:59:42.916966  6673 net.cpp:418] res2c_res2c_relu_0_split -> res2c_res2c_relu_0_split_1
I0625 14:59:42.917021  6673 net.cpp:150] Setting up res2c_res2c_relu_0_split
I0625 14:59:42.917031  6673 net.cpp:157] Top shape: 1 256 240 320 (19660800)
I0625 14:59:42.917035  6673 net.cpp:157] Top shape: 1 256 240 320 (19660800)
I0625 14:59:42.917039  6673 net.cpp:165] Memory required for data: 2777088084
I0625 14:59:42.917043  6673 layer_factory.hpp:77] Creating layer res3a_branch1
I0625 14:59:42.917060  6673 net.cpp:100] Creating Layer res3a_branch1
I0625 14:59:42.917066  6673 net.cpp:444] res3a_branch1 <- res2c_res2c_relu_0_split_0
I0625 14:59:42.917083  6673 net.cpp:418] res3a_branch1 -> res3a_branch1
I0625 14:59:42.918108  6673 cudnn_conv_layer.cpp:194] Reallocating workspace storage: 345624
I0625 14:59:42.918126  6673 net.cpp:150] Setting up res3a_branch1
I0625 14:59:42.918136  6673 net.cpp:157] Top shape: 1 512 120 160 (9830400)
I0625 14:59:42.918139  6673 net.cpp:165] Memory required for data: 2816409684
I0625 14:59:42.918151  6673 layer_factory.hpp:77] Creating layer bn3a_branch1
I0625 14:59:42.918166  6673 net.cpp:100] Creating Layer bn3a_branch1
I0625 14:59:42.918174  6673 net.cpp:444] bn3a_branch1 <- res3a_branch1
I0625 14:59:42.918187  6673 net.cpp:405] bn3a_branch1 -> res3a_branch1 (in-place)
I0625 14:59:42.919150  6673 net.cpp:150] Setting up bn3a_branch1
I0625 14:59:42.919160  6673 net.cpp:157] Top shape: 1 512 120 160 (9830400)
I0625 14:59:42.919163  6673 net.cpp:165] Memory required for data: 2855731284
I0625 14:59:42.919181  6673 layer_factory.hpp:77] Creating layer scale3a_branch1
I0625 14:59:42.919198  6673 net.cpp:100] Creating Layer scale3a_branch1
I0625 14:59:42.919203  6673 net.cpp:444] scale3a_branch1 <- res3a_branch1
I0625 14:59:42.919219  6673 net.cpp:405] scale3a_branch1 -> res3a_branch1 (in-place)
I0625 14:59:42.919275  6673 layer_factory.hpp:77] Creating layer scale3a_branch1
I0625 14:59:42.919471  6673 net.cpp:150] Setting up scale3a_branch1
I0625 14:59:42.919478  6673 net.cpp:157] Top shape: 1 512 120 160 (9830400)
I0625 14:59:42.919481  6673 net.cpp:165] Memory required for data: 2895052884
I0625 14:59:42.919493  6673 layer_factory.hpp:77] Creating layer res3a_branch2a
I0625 14:59:42.919509  6673 net.cpp:100] Creating Layer res3a_branch2a
I0625 14:59:42.919517  6673 net.cpp:444] res3a_branch2a <- res2c_res2c_relu_0_split_1
I0625 14:59:42.919531  6673 net.cpp:418] res3a_branch2a -> res3a_branch2a
I0625 14:59:42.920447  6673 cudnn_conv_layer.cpp:194] Reallocating workspace storage: 345624
I0625 14:59:42.920465  6673 net.cpp:150] Setting up res3a_branch2a
I0625 14:59:42.920473  6673 net.cpp:157] Top shape: 1 128 120 160 (2457600)
I0625 14:59:42.920477  6673 net.cpp:165] Memory required for data: 2904883284
I0625 14:59:42.920488  6673 layer_factory.hpp:77] Creating layer bn3a_branch2a
I0625 14:59:42.920503  6673 net.cpp:100] Creating Layer bn3a_branch2a
I0625 14:59:42.920509  6673 net.cpp:444] bn3a_branch2a <- res3a_branch2a
I0625 14:59:42.920524  6673 net.cpp:405] bn3a_branch2a -> res3a_branch2a (in-place)
I0625 14:59:42.920773  6673 net.cpp:150] Setting up bn3a_branch2a
I0625 14:59:42.920780  6673 net.cpp:157] Top shape: 1 128 120 160 (2457600)
I0625 14:59:42.920783  6673 net.cpp:165] Memory required for data: 2914713684
I0625 14:59:42.920801  6673 layer_factory.hpp:77] Creating layer scale3a_branch2a
I0625 14:59:42.920816  6673 net.cpp:100] Creating Layer scale3a_branch2a
I0625 14:59:42.920823  6673 net.cpp:444] scale3a_branch2a <- res3a_branch2a
I0625 14:59:42.920837  6673 net.cpp:405] scale3a_branch2a -> res3a_branch2a (in-place)
I0625 14:59:42.920895  6673 layer_factory.hpp:77] Creating layer scale3a_branch2a
I0625 14:59:42.921084  6673 net.cpp:150] Setting up scale3a_branch2a
I0625 14:59:42.921092  6673 net.cpp:157] Top shape: 1 128 120 160 (2457600)
I0625 14:59:42.921094  6673 net.cpp:165] Memory required for data: 2924544084
I0625 14:59:42.921106  6673 layer_factory.hpp:77] Creating layer res3a_branch2a_relu
I0625 14:59:42.921118  6673 net.cpp:100] Creating Layer res3a_branch2a_relu
I0625 14:59:42.921123  6673 net.cpp:444] res3a_branch2a_relu <- res3a_branch2a
I0625 14:59:42.921138  6673 net.cpp:405] res3a_branch2a_relu -> res3a_branch2a (in-place)
I0625 14:59:42.921269  6673 net.cpp:150] Setting up res3a_branch2a_relu
I0625 14:59:42.921277  6673 net.cpp:157] Top shape: 1 128 120 160 (2457600)
I0625 14:59:42.921279  6673 net.cpp:165] Memory required for data: 2934374484
I0625 14:59:42.921284  6673 layer_factory.hpp:77] Creating layer res3a_branch2b
I0625 14:59:42.921300  6673 net.cpp:100] Creating Layer res3a_branch2b
I0625 14:59:42.921308  6673 net.cpp:444] res3a_branch2b <- res3a_branch2a
I0625 14:59:42.921324  6673 net.cpp:418] res3a_branch2b -> res3a_branch2b
I0625 14:59:42.923089  6673 cudnn_conv_layer.cpp:194] Reallocating workspace storage: 3145728
I0625 14:59:42.923337  6673 net.cpp:150] Setting up res3a_branch2b
I0625 14:59:42.923349  6673 net.cpp:157] Top shape: 1 128 120 160 (2457600)
I0625 14:59:42.923354  6673 net.cpp:165] Memory required for data: 2944204884
I0625 14:59:42.923367  6673 layer_factory.hpp:77] Creating layer bn3a_branch2b
I0625 14:59:42.923382  6673 net.cpp:100] Creating Layer bn3a_branch2b
I0625 14:59:42.923388  6673 net.cpp:444] bn3a_branch2b <- res3a_branch2b
I0625 14:59:42.923405  6673 net.cpp:405] bn3a_branch2b -> res3a_branch2b (in-place)
I0625 14:59:42.923660  6673 net.cpp:150] Setting up bn3a_branch2b
I0625 14:59:42.923667  6673 net.cpp:157] Top shape: 1 128 120 160 (2457600)
I0625 14:59:42.923669  6673 net.cpp:165] Memory required for data: 2954035284
I0625 14:59:42.923687  6673 layer_factory.hpp:77] Creating layer scale3a_branch2b
I0625 14:59:42.923712  6673 net.cpp:100] Creating Layer scale3a_branch2b
I0625 14:59:42.923717  6673 net.cpp:444] scale3a_branch2b <- res3a_branch2b
I0625 14:59:42.923732  6673 net.cpp:405] scale3a_branch2b -> res3a_branch2b (in-place)
I0625 14:59:42.923791  6673 layer_factory.hpp:77] Creating layer scale3a_branch2b
I0625 14:59:42.923981  6673 net.cpp:150] Setting up scale3a_branch2b
I0625 14:59:42.923988  6673 net.cpp:157] Top shape: 1 128 120 160 (2457600)
I0625 14:59:42.923991  6673 net.cpp:165] Memory required for data: 2963865684
I0625 14:59:42.924005  6673 layer_factory.hpp:77] Creating layer res3a_branch2b_relu
I0625 14:59:42.924016  6673 net.cpp:100] Creating Layer res3a_branch2b_relu
I0625 14:59:42.924022  6673 net.cpp:444] res3a_branch2b_relu <- res3a_branch2b
I0625 14:59:42.924034  6673 net.cpp:405] res3a_branch2b_relu -> res3a_branch2b (in-place)
I0625 14:59:42.924170  6673 net.cpp:150] Setting up res3a_branch2b_relu
I0625 14:59:42.924177  6673 net.cpp:157] Top shape: 1 128 120 160 (2457600)
I0625 14:59:42.924180  6673 net.cpp:165] Memory required for data: 2973696084
I0625 14:59:42.924185  6673 layer_factory.hpp:77] Creating layer res3a_branch2c
I0625 14:59:42.924201  6673 net.cpp:100] Creating Layer res3a_branch2c
I0625 14:59:42.924207  6673 net.cpp:444] res3a_branch2c <- res3a_branch2b
I0625 14:59:42.924223  6673 net.cpp:418] res3a_branch2c -> res3a_branch2c
I0625 14:59:42.925177  6673 cudnn_conv_layer.cpp:194] Reallocating workspace storage: 352152
I0625 14:59:42.925192  6673 net.cpp:150] Setting up res3a_branch2c
I0625 14:59:42.925200  6673 net.cpp:157] Top shape: 1 512 120 160 (9830400)
I0625 14:59:42.925204  6673 net.cpp:165] Memory required for data: 3013017684
I0625 14:59:42.925215  6673 layer_factory.hpp:77] Creating layer bn3a_branch2c
I0625 14:59:42.925230  6673 net.cpp:100] Creating Layer bn3a_branch2c
I0625 14:59:42.925237  6673 net.cpp:444] bn3a_branch2c <- res3a_branch2c
I0625 14:59:42.925252  6673 net.cpp:405] bn3a_branch2c -> res3a_branch2c (in-place)
I0625 14:59:42.925508  6673 net.cpp:150] Setting up bn3a_branch2c
I0625 14:59:42.925513  6673 net.cpp:157] Top shape: 1 512 120 160 (9830400)
I0625 14:59:42.925516  6673 net.cpp:165] Memory required for data: 3052339284
I0625 14:59:42.925534  6673 layer_factory.hpp:77] Creating layer scale3a_branch2c
I0625 14:59:42.925547  6673 net.cpp:100] Creating Layer scale3a_branch2c
I0625 14:59:42.925554  6673 net.cpp:444] scale3a_branch2c <- res3a_branch2c
I0625 14:59:42.925567  6673 net.cpp:405] scale3a_branch2c -> res3a_branch2c (in-place)
I0625 14:59:42.925622  6673 layer_factory.hpp:77] Creating layer scale3a_branch2c
I0625 14:59:42.925824  6673 net.cpp:150] Setting up scale3a_branch2c
I0625 14:59:42.925832  6673 net.cpp:157] Top shape: 1 512 120 160 (9830400)
I0625 14:59:42.925835  6673 net.cpp:165] Memory required for data: 3091660884
I0625 14:59:42.925848  6673 layer_factory.hpp:77] Creating layer res3a
I0625 14:59:42.925859  6673 net.cpp:100] Creating Layer res3a
I0625 14:59:42.925865  6673 net.cpp:444] res3a <- res3a_branch1
I0625 14:59:42.925878  6673 net.cpp:444] res3a <- res3a_branch2c
I0625 14:59:42.925887  6673 net.cpp:418] res3a -> res3a
I0625 14:59:42.925927  6673 net.cpp:150] Setting up res3a
I0625 14:59:42.925936  6673 net.cpp:157] Top shape: 1 512 120 160 (9830400)
I0625 14:59:42.925940  6673 net.cpp:165] Memory required for data: 3130982484
I0625 14:59:42.925945  6673 layer_factory.hpp:77] Creating layer res3a_relu
I0625 14:59:42.925954  6673 net.cpp:100] Creating Layer res3a_relu
I0625 14:59:42.925961  6673 net.cpp:444] res3a_relu <- res3a
I0625 14:59:42.925972  6673 net.cpp:405] res3a_relu -> res3a (in-place)
I0625 14:59:42.926347  6673 net.cpp:150] Setting up res3a_relu
I0625 14:59:42.926354  6673 net.cpp:157] Top shape: 1 512 120 160 (9830400)
I0625 14:59:42.926357  6673 net.cpp:165] Memory required for data: 3170304084
I0625 14:59:42.926363  6673 layer_factory.hpp:77] Creating layer res3a_res3a_relu_0_split
I0625 14:59:42.926374  6673 net.cpp:100] Creating Layer res3a_res3a_relu_0_split
I0625 14:59:42.926380  6673 net.cpp:444] res3a_res3a_relu_0_split <- res3a
I0625 14:59:42.926395  6673 net.cpp:418] res3a_res3a_relu_0_split -> res3a_res3a_relu_0_split_0
I0625 14:59:42.926412  6673 net.cpp:418] res3a_res3a_relu_0_split -> res3a_res3a_relu_0_split_1
I0625 14:59:42.926467  6673 net.cpp:150] Setting up res3a_res3a_relu_0_split
I0625 14:59:42.926476  6673 net.cpp:157] Top shape: 1 512 120 160 (9830400)
I0625 14:59:42.926482  6673 net.cpp:157] Top shape: 1 512 120 160 (9830400)
I0625 14:59:42.926486  6673 net.cpp:165] Memory required for data: 3248947284
I0625 14:59:42.926491  6673 layer_factory.hpp:77] Creating layer res3b_branch2a
I0625 14:59:42.926506  6673 net.cpp:100] Creating Layer res3b_branch2a
I0625 14:59:42.926512  6673 net.cpp:444] res3b_branch2a <- res3a_res3a_relu_0_split_0
I0625 14:59:42.926527  6673 net.cpp:418] res3b_branch2a -> res3b_branch2a
I0625 14:59:42.927480  6673 cudnn_conv_layer.cpp:194] Reallocating workspace storage: 352152
I0625 14:59:42.927501  6673 net.cpp:150] Setting up res3b_branch2a
I0625 14:59:42.927510  6673 net.cpp:157] Top shape: 1 128 120 160 (2457600)
I0625 14:59:42.927513  6673 net.cpp:165] Memory required for data: 3258777684
I0625 14:59:42.927525  6673 layer_factory.hpp:77] Creating layer bn3b_branch2a
I0625 14:59:42.927538  6673 net.cpp:100] Creating Layer bn3b_branch2a
I0625 14:59:42.927546  6673 net.cpp:444] bn3b_branch2a <- res3b_branch2a
I0625 14:59:42.927559  6673 net.cpp:405] bn3b_branch2a -> res3b_branch2a (in-place)
I0625 14:59:42.927814  6673 net.cpp:150] Setting up bn3b_branch2a
I0625 14:59:42.927820  6673 net.cpp:157] Top shape: 1 128 120 160 (2457600)
I0625 14:59:42.927824  6673 net.cpp:165] Memory required for data: 3268608084
I0625 14:59:42.927839  6673 layer_factory.hpp:77] Creating layer scale3b_branch2a
I0625 14:59:42.927855  6673 net.cpp:100] Creating Layer scale3b_branch2a
I0625 14:59:42.927860  6673 net.cpp:444] scale3b_branch2a <- res3b_branch2a
I0625 14:59:42.927875  6673 net.cpp:405] scale3b_branch2a -> res3b_branch2a (in-place)
I0625 14:59:42.927934  6673 layer_factory.hpp:77] Creating layer scale3b_branch2a
I0625 14:59:42.928818  6673 net.cpp:150] Setting up scale3b_branch2a
I0625 14:59:42.928827  6673 net.cpp:157] Top shape: 1 128 120 160 (2457600)
I0625 14:59:42.928830  6673 net.cpp:165] Memory required for data: 3278438484
I0625 14:59:42.928843  6673 layer_factory.hpp:77] Creating layer res3b_branch2a_relu
I0625 14:59:42.928855  6673 net.cpp:100] Creating Layer res3b_branch2a_relu
I0625 14:59:42.928861  6673 net.cpp:444] res3b_branch2a_relu <- res3b_branch2a
I0625 14:59:42.928876  6673 net.cpp:405] res3b_branch2a_relu -> res3b_branch2a (in-place)
I0625 14:59:42.929021  6673 net.cpp:150] Setting up res3b_branch2a_relu
I0625 14:59:42.929028  6673 net.cpp:157] Top shape: 1 128 120 160 (2457600)
I0625 14:59:42.929031  6673 net.cpp:165] Memory required for data: 3288268884
I0625 14:59:42.929036  6673 layer_factory.hpp:77] Creating layer res3b_branch2b
I0625 14:59:42.929052  6673 net.cpp:100] Creating Layer res3b_branch2b
I0625 14:59:42.929059  6673 net.cpp:444] res3b_branch2b <- res3b_branch2a
I0625 14:59:42.929075  6673 net.cpp:418] res3b_branch2b -> res3b_branch2b
I0625 14:59:42.930385  6673 cudnn_conv_layer.cpp:194] Reallocating workspace storage: 3145728
I0625 14:59:42.930632  6673 net.cpp:150] Setting up res3b_branch2b
I0625 14:59:42.930644  6673 net.cpp:157] Top shape: 1 128 120 160 (2457600)
I0625 14:59:42.930647  6673 net.cpp:165] Memory required for data: 3298099284
I0625 14:59:42.930660  6673 layer_factory.hpp:77] Creating layer bn3b_branch2b
I0625 14:59:42.930673  6673 net.cpp:100] Creating Layer bn3b_branch2b
I0625 14:59:42.930680  6673 net.cpp:444] bn3b_branch2b <- res3b_branch2b
I0625 14:59:42.930693  6673 net.cpp:405] bn3b_branch2b -> res3b_branch2b (in-place)
I0625 14:59:42.930979  6673 net.cpp:150] Setting up bn3b_branch2b
I0625 14:59:42.930989  6673 net.cpp:157] Top shape: 1 128 120 160 (2457600)
I0625 14:59:42.930991  6673 net.cpp:165] Memory required for data: 3307929684
I0625 14:59:42.931010  6673 layer_factory.hpp:77] Creating layer scale3b_branch2b
I0625 14:59:42.931026  6673 net.cpp:100] Creating Layer scale3b_branch2b
I0625 14:59:42.931033  6673 net.cpp:444] scale3b_branch2b <- res3b_branch2b
I0625 14:59:42.931048  6673 net.cpp:405] scale3b_branch2b -> res3b_branch2b (in-place)
I0625 14:59:42.931123  6673 layer_factory.hpp:77] Creating layer scale3b_branch2b
I0625 14:59:42.931370  6673 net.cpp:150] Setting up scale3b_branch2b
I0625 14:59:42.931377  6673 net.cpp:157] Top shape: 1 128 120 160 (2457600)
I0625 14:59:42.931380  6673 net.cpp:165] Memory required for data: 3317760084
I0625 14:59:42.931392  6673 layer_factory.hpp:77] Creating layer res3b_branch2b_relu
I0625 14:59:42.931403  6673 net.cpp:100] Creating Layer res3b_branch2b_relu
I0625 14:59:42.931409  6673 net.cpp:444] res3b_branch2b_relu <- res3b_branch2b
I0625 14:59:42.931421  6673 net.cpp:405] res3b_branch2b_relu -> res3b_branch2b (in-place)
I0625 14:59:42.931603  6673 net.cpp:150] Setting up res3b_branch2b_relu
I0625 14:59:42.931612  6673 net.cpp:157] Top shape: 1 128 120 160 (2457600)
I0625 14:59:42.931615  6673 net.cpp:165] Memory required for data: 3327590484
I0625 14:59:42.931620  6673 layer_factory.hpp:77] Creating layer res3b_branch2c
I0625 14:59:42.931637  6673 net.cpp:100] Creating Layer res3b_branch2c
I0625 14:59:42.931643  6673 net.cpp:444] res3b_branch2c <- res3b_branch2b
I0625 14:59:42.931658  6673 net.cpp:418] res3b_branch2c -> res3b_branch2c
I0625 14:59:42.932732  6673 cudnn_conv_layer.cpp:194] Reallocating workspace storage: 352152
I0625 14:59:42.932745  6673 net.cpp:150] Setting up res3b_branch2c
I0625 14:59:42.932751  6673 net.cpp:157] Top shape: 1 512 120 160 (9830400)
I0625 14:59:42.932754  6673 net.cpp:165] Memory required for data: 3366912084
I0625 14:59:42.932762  6673 layer_factory.hpp:77] Creating layer bn3b_branch2c
I0625 14:59:42.932775  6673 net.cpp:100] Creating Layer bn3b_branch2c
I0625 14:59:42.932780  6673 net.cpp:444] bn3b_branch2c <- res3b_branch2c
I0625 14:59:42.932791  6673 net.cpp:405] bn3b_branch2c -> res3b_branch2c (in-place)
I0625 14:59:42.933048  6673 net.cpp:150] Setting up bn3b_branch2c
I0625 14:59:42.933053  6673 net.cpp:157] Top shape: 1 512 120 160 (9830400)
I0625 14:59:42.933055  6673 net.cpp:165] Memory required for data: 3406233684
I0625 14:59:42.933068  6673 layer_factory.hpp:77] Creating layer scale3b_branch2c
I0625 14:59:42.933079  6673 net.cpp:100] Creating Layer scale3b_branch2c
I0625 14:59:42.933084  6673 net.cpp:444] scale3b_branch2c <- res3b_branch2c
I0625 14:59:42.933094  6673 net.cpp:405] scale3b_branch2c -> res3b_branch2c (in-place)
I0625 14:59:42.933146  6673 layer_factory.hpp:77] Creating layer scale3b_branch2c
I0625 14:59:42.933337  6673 net.cpp:150] Setting up scale3b_branch2c
I0625 14:59:42.933343  6673 net.cpp:157] Top shape: 1 512 120 160 (9830400)
I0625 14:59:42.933346  6673 net.cpp:165] Memory required for data: 3445555284
I0625 14:59:42.933354  6673 layer_factory.hpp:77] Creating layer res3b
I0625 14:59:42.933363  6673 net.cpp:100] Creating Layer res3b
I0625 14:59:42.933368  6673 net.cpp:444] res3b <- res3a_res3a_relu_0_split_1
I0625 14:59:42.933377  6673 net.cpp:444] res3b <- res3b_branch2c
I0625 14:59:42.933383  6673 net.cpp:418] res3b -> res3b
I0625 14:59:42.933419  6673 net.cpp:150] Setting up res3b
I0625 14:59:42.933426  6673 net.cpp:157] Top shape: 1 512 120 160 (9830400)
I0625 14:59:42.933429  6673 net.cpp:165] Memory required for data: 3484876884
I0625 14:59:42.933431  6673 layer_factory.hpp:77] Creating layer res3b_relu
I0625 14:59:42.933439  6673 net.cpp:100] Creating Layer res3b_relu
I0625 14:59:42.933442  6673 net.cpp:444] res3b_relu <- res3b
I0625 14:59:42.933451  6673 net.cpp:405] res3b_relu -> res3b (in-place)
I0625 14:59:42.933818  6673 net.cpp:150] Setting up res3b_relu
I0625 14:59:42.933827  6673 net.cpp:157] Top shape: 1 512 120 160 (9830400)
I0625 14:59:42.933830  6673 net.cpp:165] Memory required for data: 3524198484
I0625 14:59:42.933833  6673 layer_factory.hpp:77] Creating layer res3b_res3b_relu_0_split
I0625 14:59:42.933842  6673 net.cpp:100] Creating Layer res3b_res3b_relu_0_split
I0625 14:59:42.933847  6673 net.cpp:444] res3b_res3b_relu_0_split <- res3b
I0625 14:59:42.933859  6673 net.cpp:418] res3b_res3b_relu_0_split -> res3b_res3b_relu_0_split_0
I0625 14:59:42.933872  6673 net.cpp:418] res3b_res3b_relu_0_split -> res3b_res3b_relu_0_split_1
I0625 14:59:42.933924  6673 net.cpp:150] Setting up res3b_res3b_relu_0_split
I0625 14:59:42.933931  6673 net.cpp:157] Top shape: 1 512 120 160 (9830400)
I0625 14:59:42.933934  6673 net.cpp:157] Top shape: 1 512 120 160 (9830400)
I0625 14:59:42.933936  6673 net.cpp:165] Memory required for data: 3602841684
I0625 14:59:42.933939  6673 layer_factory.hpp:77] Creating layer res3c_branch2a
I0625 14:59:42.933951  6673 net.cpp:100] Creating Layer res3c_branch2a
I0625 14:59:42.933956  6673 net.cpp:444] res3c_branch2a <- res3b_res3b_relu_0_split_0
I0625 14:59:42.933967  6673 net.cpp:418] res3c_branch2a -> res3c_branch2a
I0625 14:59:42.934912  6673 cudnn_conv_layer.cpp:194] Reallocating workspace storage: 352152
I0625 14:59:42.934931  6673 net.cpp:150] Setting up res3c_branch2a
I0625 14:59:42.934937  6673 net.cpp:157] Top shape: 1 128 120 160 (2457600)
I0625 14:59:42.934939  6673 net.cpp:165] Memory required for data: 3612672084
I0625 14:59:42.934947  6673 layer_factory.hpp:77] Creating layer bn3c_branch2a
I0625 14:59:42.934960  6673 net.cpp:100] Creating Layer bn3c_branch2a
I0625 14:59:42.934965  6673 net.cpp:444] bn3c_branch2a <- res3c_branch2a
I0625 14:59:42.934976  6673 net.cpp:405] bn3c_branch2a -> res3c_branch2a (in-place)
I0625 14:59:42.935228  6673 net.cpp:150] Setting up bn3c_branch2a
I0625 14:59:42.935235  6673 net.cpp:157] Top shape: 1 128 120 160 (2457600)
I0625 14:59:42.935236  6673 net.cpp:165] Memory required for data: 3622502484
I0625 14:59:42.935250  6673 layer_factory.hpp:77] Creating layer scale3c_branch2a
I0625 14:59:42.935261  6673 net.cpp:100] Creating Layer scale3c_branch2a
I0625 14:59:42.935266  6673 net.cpp:444] scale3c_branch2a <- res3c_branch2a
I0625 14:59:42.935276  6673 net.cpp:405] scale3c_branch2a -> res3c_branch2a (in-place)
I0625 14:59:42.935331  6673 layer_factory.hpp:77] Creating layer scale3c_branch2a
I0625 14:59:42.935516  6673 net.cpp:150] Setting up scale3c_branch2a
I0625 14:59:42.935523  6673 net.cpp:157] Top shape: 1 128 120 160 (2457600)
I0625 14:59:42.935525  6673 net.cpp:165] Memory required for data: 3632332884
I0625 14:59:42.935534  6673 layer_factory.hpp:77] Creating layer res3c_branch2a_relu
I0625 14:59:42.935544  6673 net.cpp:100] Creating Layer res3c_branch2a_relu
I0625 14:59:42.935547  6673 net.cpp:444] res3c_branch2a_relu <- res3c_branch2a
I0625 14:59:42.935556  6673 net.cpp:405] res3c_branch2a_relu -> res3c_branch2a (in-place)
I0625 14:59:42.935685  6673 net.cpp:150] Setting up res3c_branch2a_relu
I0625 14:59:42.935691  6673 net.cpp:157] Top shape: 1 128 120 160 (2457600)
I0625 14:59:42.935693  6673 net.cpp:165] Memory required for data: 3642163284
I0625 14:59:42.935698  6673 layer_factory.hpp:77] Creating layer res3c_branch2b
I0625 14:59:42.935709  6673 net.cpp:100] Creating Layer res3c_branch2b
I0625 14:59:42.935714  6673 net.cpp:444] res3c_branch2b <- res3c_branch2a
I0625 14:59:42.935726  6673 net.cpp:418] res3c_branch2b -> res3c_branch2b
I0625 14:59:42.936777  6673 cudnn_conv_layer.cpp:194] Reallocating workspace storage: 3145728
I0625 14:59:42.937022  6673 net.cpp:150] Setting up res3c_branch2b
I0625 14:59:42.937031  6673 net.cpp:157] Top shape: 1 128 120 160 (2457600)
I0625 14:59:42.937034  6673 net.cpp:165] Memory required for data: 3651993684
I0625 14:59:42.937043  6673 layer_factory.hpp:77] Creating layer bn3c_branch2b
I0625 14:59:42.937055  6673 net.cpp:100] Creating Layer bn3c_branch2b
I0625 14:59:42.937060  6673 net.cpp:444] bn3c_branch2b <- res3c_branch2b
I0625 14:59:42.937072  6673 net.cpp:405] bn3c_branch2b -> res3c_branch2b (in-place)
I0625 14:59:42.937330  6673 net.cpp:150] Setting up bn3c_branch2b
I0625 14:59:42.937336  6673 net.cpp:157] Top shape: 1 128 120 160 (2457600)
I0625 14:59:42.937338  6673 net.cpp:165] Memory required for data: 3661824084
I0625 14:59:42.937351  6673 layer_factory.hpp:77] Creating layer scale3c_branch2b
I0625 14:59:42.937362  6673 net.cpp:100] Creating Layer scale3c_branch2b
I0625 14:59:42.937367  6673 net.cpp:444] scale3c_branch2b <- res3c_branch2b
I0625 14:59:42.937377  6673 net.cpp:405] scale3c_branch2b -> res3c_branch2b (in-place)
I0625 14:59:42.937433  6673 layer_factory.hpp:77] Creating layer scale3c_branch2b
I0625 14:59:42.937618  6673 net.cpp:150] Setting up scale3c_branch2b
I0625 14:59:42.937624  6673 net.cpp:157] Top shape: 1 128 120 160 (2457600)
I0625 14:59:42.937626  6673 net.cpp:165] Memory required for data: 3671654484
I0625 14:59:42.937634  6673 layer_factory.hpp:77] Creating layer res3c_branch2b_relu
I0625 14:59:42.937642  6673 net.cpp:100] Creating Layer res3c_branch2b_relu
I0625 14:59:42.937647  6673 net.cpp:444] res3c_branch2b_relu <- res3c_branch2b
I0625 14:59:42.937656  6673 net.cpp:405] res3c_branch2b_relu -> res3c_branch2b (in-place)
I0625 14:59:42.937795  6673 net.cpp:150] Setting up res3c_branch2b_relu
I0625 14:59:42.937803  6673 net.cpp:157] Top shape: 1 128 120 160 (2457600)
I0625 14:59:42.937804  6673 net.cpp:165] Memory required for data: 3681484884
I0625 14:59:42.937808  6673 layer_factory.hpp:77] Creating layer res3c_branch2c
I0625 14:59:42.937819  6673 net.cpp:100] Creating Layer res3c_branch2c
I0625 14:59:42.937824  6673 net.cpp:444] res3c_branch2c <- res3c_branch2b
I0625 14:59:42.937837  6673 net.cpp:418] res3c_branch2c -> res3c_branch2c
I0625 14:59:42.938794  6673 cudnn_conv_layer.cpp:194] Reallocating workspace storage: 352152
I0625 14:59:42.938807  6673 net.cpp:150] Setting up res3c_branch2c
I0625 14:59:42.938813  6673 net.cpp:157] Top shape: 1 512 120 160 (9830400)
I0625 14:59:42.938817  6673 net.cpp:165] Memory required for data: 3720806484
I0625 14:59:42.938824  6673 layer_factory.hpp:77] Creating layer bn3c_branch2c
I0625 14:59:42.938836  6673 net.cpp:100] Creating Layer bn3c_branch2c
I0625 14:59:42.938841  6673 net.cpp:444] bn3c_branch2c <- res3c_branch2c
I0625 14:59:42.938853  6673 net.cpp:405] bn3c_branch2c -> res3c_branch2c (in-place)
I0625 14:59:42.939131  6673 net.cpp:150] Setting up bn3c_branch2c
I0625 14:59:42.939137  6673 net.cpp:157] Top shape: 1 512 120 160 (9830400)
I0625 14:59:42.939139  6673 net.cpp:165] Memory required for data: 3760128084
I0625 14:59:42.939153  6673 layer_factory.hpp:77] Creating layer scale3c_branch2c
I0625 14:59:42.939163  6673 net.cpp:100] Creating Layer scale3c_branch2c
I0625 14:59:42.939168  6673 net.cpp:444] scale3c_branch2c <- res3c_branch2c
I0625 14:59:42.939179  6673 net.cpp:405] scale3c_branch2c -> res3c_branch2c (in-place)
I0625 14:59:42.939230  6673 layer_factory.hpp:77] Creating layer scale3c_branch2c
I0625 14:59:42.939422  6673 net.cpp:150] Setting up scale3c_branch2c
I0625 14:59:42.939429  6673 net.cpp:157] Top shape: 1 512 120 160 (9830400)
I0625 14:59:42.939431  6673 net.cpp:165] Memory required for data: 3799449684
I0625 14:59:42.939440  6673 layer_factory.hpp:77] Creating layer res3c
I0625 14:59:42.939448  6673 net.cpp:100] Creating Layer res3c
I0625 14:59:42.939453  6673 net.cpp:444] res3c <- res3b_res3b_relu_0_split_1
I0625 14:59:42.939460  6673 net.cpp:444] res3c <- res3c_branch2c
I0625 14:59:42.939468  6673 net.cpp:418] res3c -> res3c
I0625 14:59:42.939503  6673 net.cpp:150] Setting up res3c
I0625 14:59:42.939510  6673 net.cpp:157] Top shape: 1 512 120 160 (9830400)
I0625 14:59:42.939512  6673 net.cpp:165] Memory required for data: 3838771284
I0625 14:59:42.939515  6673 layer_factory.hpp:77] Creating layer res3c_relu
I0625 14:59:42.939522  6673 net.cpp:100] Creating Layer res3c_relu
I0625 14:59:42.939527  6673 net.cpp:444] res3c_relu <- res3c
I0625 14:59:42.939534  6673 net.cpp:405] res3c_relu -> res3c (in-place)
I0625 14:59:42.939666  6673 net.cpp:150] Setting up res3c_relu
I0625 14:59:42.939671  6673 net.cpp:157] Top shape: 1 512 120 160 (9830400)
I0625 14:59:42.939674  6673 net.cpp:165] Memory required for data: 3878092884
I0625 14:59:42.939677  6673 layer_factory.hpp:77] Creating layer res3c_res3c_relu_0_split
I0625 14:59:42.939685  6673 net.cpp:100] Creating Layer res3c_res3c_relu_0_split
I0625 14:59:42.939689  6673 net.cpp:444] res3c_res3c_relu_0_split <- res3c
I0625 14:59:42.939699  6673 net.cpp:418] res3c_res3c_relu_0_split -> res3c_res3c_relu_0_split_0
I0625 14:59:42.939710  6673 net.cpp:418] res3c_res3c_relu_0_split -> res3c_res3c_relu_0_split_1
I0625 14:59:42.939760  6673 net.cpp:150] Setting up res3c_res3c_relu_0_split
I0625 14:59:42.939769  6673 net.cpp:157] Top shape: 1 512 120 160 (9830400)
I0625 14:59:42.939771  6673 net.cpp:157] Top shape: 1 512 120 160 (9830400)
I0625 14:59:42.939774  6673 net.cpp:165] Memory required for data: 3956736084
I0625 14:59:42.939776  6673 layer_factory.hpp:77] Creating layer res3d_branch2a
I0625 14:59:42.939787  6673 net.cpp:100] Creating Layer res3d_branch2a
I0625 14:59:42.939792  6673 net.cpp:444] res3d_branch2a <- res3c_res3c_relu_0_split_0
I0625 14:59:42.939803  6673 net.cpp:418] res3d_branch2a -> res3d_branch2a
I0625 14:59:42.941437  6673 cudnn_conv_layer.cpp:194] Reallocating workspace storage: 352152
I0625 14:59:42.941454  6673 net.cpp:150] Setting up res3d_branch2a
I0625 14:59:42.941460  6673 net.cpp:157] Top shape: 1 128 120 160 (2457600)
I0625 14:59:42.941463  6673 net.cpp:165] Memory required for data: 3966566484
I0625 14:59:42.941473  6673 layer_factory.hpp:77] Creating layer bn3d_branch2a
I0625 14:59:42.941483  6673 net.cpp:100] Creating Layer bn3d_branch2a
I0625 14:59:42.941488  6673 net.cpp:444] bn3d_branch2a <- res3d_branch2a
I0625 14:59:42.941500  6673 net.cpp:405] bn3d_branch2a -> res3d_branch2a (in-place)
I0625 14:59:42.941761  6673 net.cpp:150] Setting up bn3d_branch2a
I0625 14:59:42.941766  6673 net.cpp:157] Top shape: 1 128 120 160 (2457600)
I0625 14:59:42.941769  6673 net.cpp:165] Memory required for data: 3976396884
I0625 14:59:42.941802  6673 layer_factory.hpp:77] Creating layer scale3d_branch2a
I0625 14:59:42.941817  6673 net.cpp:100] Creating Layer scale3d_branch2a
I0625 14:59:42.941820  6673 net.cpp:444] scale3d_branch2a <- res3d_branch2a
I0625 14:59:42.941830  6673 net.cpp:405] scale3d_branch2a -> res3d_branch2a (in-place)
I0625 14:59:42.941889  6673 layer_factory.hpp:77] Creating layer scale3d_branch2a
I0625 14:59:42.942076  6673 net.cpp:150] Setting up scale3d_branch2a
I0625 14:59:42.942082  6673 net.cpp:157] Top shape: 1 128 120 160 (2457600)
I0625 14:59:42.942085  6673 net.cpp:165] Memory required for data: 3986227284
I0625 14:59:42.942093  6673 layer_factory.hpp:77] Creating layer res3d_branch2a_relu
I0625 14:59:42.942104  6673 net.cpp:100] Creating Layer res3d_branch2a_relu
I0625 14:59:42.942108  6673 net.cpp:444] res3d_branch2a_relu <- res3d_branch2a
I0625 14:59:42.942117  6673 net.cpp:405] res3d_branch2a_relu -> res3d_branch2a (in-place)
I0625 14:59:42.942487  6673 net.cpp:150] Setting up res3d_branch2a_relu
I0625 14:59:42.942495  6673 net.cpp:157] Top shape: 1 128 120 160 (2457600)
I0625 14:59:42.942498  6673 net.cpp:165] Memory required for data: 3996057684
I0625 14:59:42.942502  6673 layer_factory.hpp:77] Creating layer res3d_branch2b
I0625 14:59:42.942515  6673 net.cpp:100] Creating Layer res3d_branch2b
I0625 14:59:42.942520  6673 net.cpp:444] res3d_branch2b <- res3d_branch2a
I0625 14:59:42.942533  6673 net.cpp:418] res3d_branch2b -> res3d_branch2b
I0625 14:59:42.944298  6673 cudnn_conv_layer.cpp:194] Reallocating workspace storage: 3145728
I0625 14:59:42.944547  6673 net.cpp:150] Setting up res3d_branch2b
I0625 14:59:42.944556  6673 net.cpp:157] Top shape: 1 128 120 160 (2457600)
I0625 14:59:42.944558  6673 net.cpp:165] Memory required for data: 4005888084
I0625 14:59:42.944569  6673 layer_factory.hpp:77] Creating layer bn3d_branch2b
I0625 14:59:42.944582  6673 net.cpp:100] Creating Layer bn3d_branch2b
I0625 14:59:42.944589  6673 net.cpp:444] bn3d_branch2b <- res3d_branch2b
I0625 14:59:42.944600  6673 net.cpp:405] bn3d_branch2b -> res3d_branch2b (in-place)
I0625 14:59:42.944864  6673 net.cpp:150] Setting up bn3d_branch2b
I0625 14:59:42.944870  6673 net.cpp:157] Top shape: 1 128 120 160 (2457600)
I0625 14:59:42.944872  6673 net.cpp:165] Memory required for data: 4015718484
I0625 14:59:42.944885  6673 layer_factory.hpp:77] Creating layer scale3d_branch2b
I0625 14:59:42.944897  6673 net.cpp:100] Creating Layer scale3d_branch2b
I0625 14:59:42.944902  6673 net.cpp:444] scale3d_branch2b <- res3d_branch2b
I0625 14:59:42.944912  6673 net.cpp:405] scale3d_branch2b -> res3d_branch2b (in-place)
I0625 14:59:42.944969  6673 layer_factory.hpp:77] Creating layer scale3d_branch2b
I0625 14:59:42.945158  6673 net.cpp:150] Setting up scale3d_branch2b
I0625 14:59:42.945163  6673 net.cpp:157] Top shape: 1 128 120 160 (2457600)
I0625 14:59:42.945166  6673 net.cpp:165] Memory required for data: 4025548884
I0625 14:59:42.945174  6673 layer_factory.hpp:77] Creating layer res3d_branch2b_relu
I0625 14:59:42.945184  6673 net.cpp:100] Creating Layer res3d_branch2b_relu
I0625 14:59:42.945188  6673 net.cpp:444] res3d_branch2b_relu <- res3d_branch2b
I0625 14:59:42.945199  6673 net.cpp:405] res3d_branch2b_relu -> res3d_branch2b (in-place)
I0625 14:59:42.945335  6673 net.cpp:150] Setting up res3d_branch2b_relu
I0625 14:59:42.945341  6673 net.cpp:157] Top shape: 1 128 120 160 (2457600)
I0625 14:59:42.945343  6673 net.cpp:165] Memory required for data: 4035379284
I0625 14:59:42.945348  6673 layer_factory.hpp:77] Creating layer res3d_branch2c
I0625 14:59:42.945360  6673 net.cpp:100] Creating Layer res3d_branch2c
I0625 14:59:42.945365  6673 net.cpp:444] res3d_branch2c <- res3d_branch2b
I0625 14:59:42.945376  6673 net.cpp:418] res3d_branch2c -> res3d_branch2c
I0625 14:59:42.946386  6673 cudnn_conv_layer.cpp:194] Reallocating workspace storage: 352152
I0625 14:59:42.946400  6673 net.cpp:150] Setting up res3d_branch2c
I0625 14:59:42.946408  6673 net.cpp:157] Top shape: 1 512 120 160 (9830400)
I0625 14:59:42.946409  6673 net.cpp:165] Memory required for data: 4074700884
I0625 14:59:42.946419  6673 layer_factory.hpp:77] Creating layer bn3d_branch2c
I0625 14:59:42.946431  6673 net.cpp:100] Creating Layer bn3d_branch2c
I0625 14:59:42.946437  6673 net.cpp:444] bn3d_branch2c <- res3d_branch2c
I0625 14:59:42.946449  6673 net.cpp:405] bn3d_branch2c -> res3d_branch2c (in-place)
I0625 14:59:42.946715  6673 net.cpp:150] Setting up bn3d_branch2c
I0625 14:59:42.946722  6673 net.cpp:157] Top shape: 1 512 120 160 (9830400)
I0625 14:59:42.946723  6673 net.cpp:165] Memory required for data: 4114022484
I0625 14:59:42.946736  6673 layer_factory.hpp:77] Creating layer scale3d_branch2c
I0625 14:59:42.946749  6673 net.cpp:100] Creating Layer scale3d_branch2c
I0625 14:59:42.946754  6673 net.cpp:444] scale3d_branch2c <- res3d_branch2c
I0625 14:59:42.946763  6673 net.cpp:405] scale3d_branch2c -> res3d_branch2c (in-place)
I0625 14:59:42.946816  6673 layer_factory.hpp:77] Creating layer scale3d_branch2c
I0625 14:59:42.947024  6673 net.cpp:150] Setting up scale3d_branch2c
I0625 14:59:42.947031  6673 net.cpp:157] Top shape: 1 512 120 160 (9830400)
I0625 14:59:42.947033  6673 net.cpp:165] Memory required for data: 4153344084
I0625 14:59:42.947041  6673 layer_factory.hpp:77] Creating layer res3d
I0625 14:59:42.947052  6673 net.cpp:100] Creating Layer res3d
I0625 14:59:42.947055  6673 net.cpp:444] res3d <- res3c_res3c_relu_0_split_1
I0625 14:59:42.947064  6673 net.cpp:444] res3d <- res3d_branch2c
I0625 14:59:42.947072  6673 net.cpp:418] res3d -> res3d
I0625 14:59:42.947108  6673 net.cpp:150] Setting up res3d
I0625 14:59:42.947115  6673 net.cpp:157] Top shape: 1 512 120 160 (9830400)
I0625 14:59:42.947118  6673 net.cpp:165] Memory required for data: 4192665684
I0625 14:59:42.947120  6673 layer_factory.hpp:77] Creating layer res3d_relu
I0625 14:59:42.947129  6673 net.cpp:100] Creating Layer res3d_relu
I0625 14:59:42.947134  6673 net.cpp:444] res3d_relu <- res3d
I0625 14:59:42.947142  6673 net.cpp:405] res3d_relu -> res3d (in-place)
I0625 14:59:42.947274  6673 net.cpp:150] Setting up res3d_relu
I0625 14:59:42.947280  6673 net.cpp:157] Top shape: 1 512 120 160 (9830400)
I0625 14:59:42.947283  6673 net.cpp:165] Memory required for data: 4231987284
I0625 14:59:42.947285  6673 layer_factory.hpp:77] Creating layer res3d_res3d_relu_0_split
I0625 14:59:42.947294  6673 net.cpp:100] Creating Layer res3d_res3d_relu_0_split
I0625 14:59:42.947299  6673 net.cpp:444] res3d_res3d_relu_0_split <- res3d
I0625 14:59:42.947309  6673 net.cpp:418] res3d_res3d_relu_0_split -> res3d_res3d_relu_0_split_0
I0625 14:59:42.947321  6673 net.cpp:418] res3d_res3d_relu_0_split -> res3d_res3d_relu_0_split_1
I0625 14:59:42.947373  6673 net.cpp:150] Setting up res3d_res3d_relu_0_split
I0625 14:59:42.947381  6673 net.cpp:157] Top shape: 1 512 120 160 (9830400)
I0625 14:59:42.947384  6673 net.cpp:157] Top shape: 1 512 120 160 (9830400)
I0625 14:59:42.947386  6673 net.cpp:165] Memory required for data: 4310630484
I0625 14:59:42.947389  6673 layer_factory.hpp:77] Creating layer res4a_branch1
I0625 14:59:42.947402  6673 net.cpp:100] Creating Layer res4a_branch1
I0625 14:59:42.947407  6673 net.cpp:444] res4a_branch1 <- res3d_res3d_relu_0_split_0
I0625 14:59:42.947417  6673 net.cpp:418] res4a_branch1 -> res4a_branch1
I0625 14:59:42.949774  6673 cudnn_conv_layer.cpp:194] Reallocating workspace storage: 86424
I0625 14:59:42.950057  6673 net.cpp:150] Setting up res4a_branch1
I0625 14:59:42.950071  6673 net.cpp:157] Top shape: 1 1024 60 80 (4915200)
I0625 14:59:42.950073  6673 net.cpp:165] Memory required for data: 4330291284
I0625 14:59:42.950090  6673 layer_factory.hpp:77] Creating layer bn4a_branch1
I0625 14:59:42.950111  6673 net.cpp:100] Creating Layer bn4a_branch1
I0625 14:59:42.950119  6673 net.cpp:444] bn4a_branch1 <- res4a_branch1
I0625 14:59:42.950134  6673 net.cpp:405] bn4a_branch1 -> res4a_branch1 (in-place)
I0625 14:59:42.950397  6673 net.cpp:150] Setting up bn4a_branch1
I0625 14:59:42.950403  6673 net.cpp:157] Top shape: 1 1024 60 80 (4915200)
I0625 14:59:42.950405  6673 net.cpp:165] Memory required for data: 4349952084
I0625 14:59:42.950419  6673 layer_factory.hpp:77] Creating layer scale4a_branch1
I0625 14:59:42.950433  6673 net.cpp:100] Creating Layer scale4a_branch1
I0625 14:59:42.950438  6673 net.cpp:444] scale4a_branch1 <- res4a_branch1
I0625 14:59:42.950448  6673 net.cpp:405] scale4a_branch1 -> res4a_branch1 (in-place)
I0625 14:59:42.950502  6673 layer_factory.hpp:77] Creating layer scale4a_branch1
I0625 14:59:42.950680  6673 net.cpp:150] Setting up scale4a_branch1
I0625 14:59:42.950686  6673 net.cpp:157] Top shape: 1 1024 60 80 (4915200)
I0625 14:59:42.950690  6673 net.cpp:165] Memory required for data: 4369612884
I0625 14:59:42.950697  6673 layer_factory.hpp:77] Creating layer res4a_branch2a
I0625 14:59:42.950712  6673 net.cpp:100] Creating Layer res4a_branch2a
I0625 14:59:42.950717  6673 net.cpp:444] res4a_branch2a <- res3d_res3d_relu_0_split_1
I0625 14:59:42.950728  6673 net.cpp:418] res4a_branch2a -> res4a_branch2a
I0625 14:59:42.952432  6673 cudnn_conv_layer.cpp:194] Reallocating workspace storage: 86424
I0625 14:59:42.952450  6673 net.cpp:150] Setting up res4a_branch2a
I0625 14:59:42.952456  6673 net.cpp:157] Top shape: 1 256 60 80 (1228800)
I0625 14:59:42.952458  6673 net.cpp:165] Memory required for data: 4374528084
I0625 14:59:42.952467  6673 layer_factory.hpp:77] Creating layer bn4a_branch2a
I0625 14:59:42.952478  6673 net.cpp:100] Creating Layer bn4a_branch2a
I0625 14:59:42.952483  6673 net.cpp:444] bn4a_branch2a <- res4a_branch2a
I0625 14:59:42.952495  6673 net.cpp:405] bn4a_branch2a -> res4a_branch2a (in-place)
I0625 14:59:42.952744  6673 net.cpp:150] Setting up bn4a_branch2a
I0625 14:59:42.952749  6673 net.cpp:157] Top shape: 1 256 60 80 (1228800)
I0625 14:59:42.952751  6673 net.cpp:165] Memory required for data: 4379443284
I0625 14:59:42.952764  6673 layer_factory.hpp:77] Creating layer scale4a_branch2a
I0625 14:59:42.952775  6673 net.cpp:100] Creating Layer scale4a_branch2a
I0625 14:59:42.952780  6673 net.cpp:444] scale4a_branch2a <- res4a_branch2a
I0625 14:59:42.952788  6673 net.cpp:405] scale4a_branch2a -> res4a_branch2a (in-place)
I0625 14:59:42.952844  6673 layer_factory.hpp:77] Creating layer scale4a_branch2a
I0625 14:59:42.953011  6673 net.cpp:150] Setting up scale4a_branch2a
I0625 14:59:42.953017  6673 net.cpp:157] Top shape: 1 256 60 80 (1228800)
I0625 14:59:42.953019  6673 net.cpp:165] Memory required for data: 4384358484
I0625 14:59:42.953028  6673 layer_factory.hpp:77] Creating layer res4a_branch2a_relu
I0625 14:59:42.953037  6673 net.cpp:100] Creating Layer res4a_branch2a_relu
I0625 14:59:42.953042  6673 net.cpp:444] res4a_branch2a_relu <- res4a_branch2a
I0625 14:59:42.953050  6673 net.cpp:405] res4a_branch2a_relu -> res4a_branch2a (in-place)
I0625 14:59:42.953438  6673 net.cpp:150] Setting up res4a_branch2a_relu
I0625 14:59:42.953445  6673 net.cpp:157] Top shape: 1 256 60 80 (1228800)
I0625 14:59:42.953447  6673 net.cpp:165] Memory required for data: 4389273684
I0625 14:59:42.953451  6673 layer_factory.hpp:77] Creating layer res4a_branch2b
I0625 14:59:42.953465  6673 net.cpp:100] Creating Layer res4a_branch2b
I0625 14:59:42.953470  6673 net.cpp:444] res4a_branch2b <- res4a_branch2a
I0625 14:59:42.953485  6673 net.cpp:418] res4a_branch2b -> res4a_branch2b
I0625 14:59:42.955943  6673 cudnn_conv_layer.cpp:194] Reallocating workspace storage: 12582912
I0625 14:59:42.956202  6673 net.cpp:150] Setting up res4a_branch2b
I0625 14:59:42.956214  6673 net.cpp:157] Top shape: 1 256 60 80 (1228800)
I0625 14:59:42.956216  6673 net.cpp:165] Memory required for data: 4394188884
I0625 14:59:42.956229  6673 layer_factory.hpp:77] Creating layer bn4a_branch2b
I0625 14:59:42.956244  6673 net.cpp:100] Creating Layer bn4a_branch2b
I0625 14:59:42.956251  6673 net.cpp:444] bn4a_branch2b <- res4a_branch2b
I0625 14:59:42.956264  6673 net.cpp:405] bn4a_branch2b -> res4a_branch2b (in-place)
I0625 14:59:42.956527  6673 net.cpp:150] Setting up bn4a_branch2b
I0625 14:59:42.956533  6673 net.cpp:157] Top shape: 1 256 60 80 (1228800)
I0625 14:59:42.956535  6673 net.cpp:165] Memory required for data: 4399104084
I0625 14:59:42.956547  6673 layer_factory.hpp:77] Creating layer scale4a_branch2b
I0625 14:59:42.956560  6673 net.cpp:100] Creating Layer scale4a_branch2b
I0625 14:59:42.956564  6673 net.cpp:444] scale4a_branch2b <- res4a_branch2b
I0625 14:59:42.956573  6673 net.cpp:405] scale4a_branch2b -> res4a_branch2b (in-place)
I0625 14:59:42.956634  6673 layer_factory.hpp:77] Creating layer scale4a_branch2b
I0625 14:59:42.956804  6673 net.cpp:150] Setting up scale4a_branch2b
I0625 14:59:42.956809  6673 net.cpp:157] Top shape: 1 256 60 80 (1228800)
I0625 14:59:42.956811  6673 net.cpp:165] Memory required for data: 4404019284
I0625 14:59:42.956820  6673 layer_factory.hpp:77] Creating layer res4a_branch2b_relu
I0625 14:59:42.956830  6673 net.cpp:100] Creating Layer res4a_branch2b_relu
I0625 14:59:42.956833  6673 net.cpp:444] res4a_branch2b_relu <- res4a_branch2b
I0625 14:59:42.956841  6673 net.cpp:405] res4a_branch2b_relu -> res4a_branch2b (in-place)
I0625 14:59:42.956982  6673 net.cpp:150] Setting up res4a_branch2b_relu
I0625 14:59:42.956989  6673 net.cpp:157] Top shape: 1 256 60 80 (1228800)
I0625 14:59:42.956990  6673 net.cpp:165] Memory required for data: 4408934484
I0625 14:59:42.956993  6673 layer_factory.hpp:77] Creating layer res4a_branch2c
I0625 14:59:42.957006  6673 net.cpp:100] Creating Layer res4a_branch2c
I0625 14:59:42.957010  6673 net.cpp:444] res4a_branch2c <- res4a_branch2b
I0625 14:59:42.957021  6673 net.cpp:418] res4a_branch2c -> res4a_branch2c
I0625 14:59:42.958961  6673 cudnn_conv_layer.cpp:194] Reallocating workspace storage: 92952
I0625 14:59:42.958979  6673 net.cpp:150] Setting up res4a_branch2c
I0625 14:59:42.958986  6673 net.cpp:157] Top shape: 1 1024 60 80 (4915200)
I0625 14:59:42.958988  6673 net.cpp:165] Memory required for data: 4428595284
I0625 14:59:42.958997  6673 layer_factory.hpp:77] Creating layer bn4a_branch2c
I0625 14:59:42.959010  6673 net.cpp:100] Creating Layer bn4a_branch2c
I0625 14:59:42.959017  6673 net.cpp:444] bn4a_branch2c <- res4a_branch2c
I0625 14:59:42.959028  6673 net.cpp:405] bn4a_branch2c -> res4a_branch2c (in-place)
I0625 14:59:42.959288  6673 net.cpp:150] Setting up bn4a_branch2c
I0625 14:59:42.959295  6673 net.cpp:157] Top shape: 1 1024 60 80 (4915200)
I0625 14:59:42.959296  6673 net.cpp:165] Memory required for data: 4448256084
I0625 14:59:42.959309  6673 layer_factory.hpp:77] Creating layer scale4a_branch2c
I0625 14:59:42.959321  6673 net.cpp:100] Creating Layer scale4a_branch2c
I0625 14:59:42.959324  6673 net.cpp:444] scale4a_branch2c <- res4a_branch2c
I0625 14:59:42.959334  6673 net.cpp:405] scale4a_branch2c -> res4a_branch2c (in-place)
I0625 14:59:42.959388  6673 layer_factory.hpp:77] Creating layer scale4a_branch2c
I0625 14:59:42.959563  6673 net.cpp:150] Setting up scale4a_branch2c
I0625 14:59:42.959569  6673 net.cpp:157] Top shape: 1 1024 60 80 (4915200)
I0625 14:59:42.959571  6673 net.cpp:165] Memory required for data: 4467916884
I0625 14:59:42.959579  6673 layer_factory.hpp:77] Creating layer res4a
I0625 14:59:42.959602  6673 net.cpp:100] Creating Layer res4a
I0625 14:59:42.959607  6673 net.cpp:444] res4a <- res4a_branch1
I0625 14:59:42.959615  6673 net.cpp:444] res4a <- res4a_branch2c
I0625 14:59:42.959621  6673 net.cpp:418] res4a -> res4a
I0625 14:59:42.959658  6673 net.cpp:150] Setting up res4a
I0625 14:59:42.959666  6673 net.cpp:157] Top shape: 1 1024 60 80 (4915200)
I0625 14:59:42.959667  6673 net.cpp:165] Memory required for data: 4487577684
I0625 14:59:42.959672  6673 layer_factory.hpp:77] Creating layer res4a_relu
I0625 14:59:42.959679  6673 net.cpp:100] Creating Layer res4a_relu
I0625 14:59:42.959684  6673 net.cpp:444] res4a_relu <- res4a
I0625 14:59:42.959692  6673 net.cpp:405] res4a_relu -> res4a (in-place)
I0625 14:59:42.959826  6673 net.cpp:150] Setting up res4a_relu
I0625 14:59:42.959833  6673 net.cpp:157] Top shape: 1 1024 60 80 (4915200)
I0625 14:59:42.959836  6673 net.cpp:165] Memory required for data: 4507238484
I0625 14:59:42.959839  6673 layer_factory.hpp:77] Creating layer res4a_res4a_relu_0_split
I0625 14:59:42.959847  6673 net.cpp:100] Creating Layer res4a_res4a_relu_0_split
I0625 14:59:42.959852  6673 net.cpp:444] res4a_res4a_relu_0_split <- res4a
I0625 14:59:42.959861  6673 net.cpp:418] res4a_res4a_relu_0_split -> res4a_res4a_relu_0_split_0
I0625 14:59:42.959874  6673 net.cpp:418] res4a_res4a_relu_0_split -> res4a_res4a_relu_0_split_1
I0625 14:59:42.959928  6673 net.cpp:150] Setting up res4a_res4a_relu_0_split
I0625 14:59:42.959935  6673 net.cpp:157] Top shape: 1 1024 60 80 (4915200)
I0625 14:59:42.959939  6673 net.cpp:157] Top shape: 1 1024 60 80 (4915200)
I0625 14:59:42.959940  6673 net.cpp:165] Memory required for data: 4546560084
I0625 14:59:42.959944  6673 layer_factory.hpp:77] Creating layer res4b_branch2a
I0625 14:59:42.959955  6673 net.cpp:100] Creating Layer res4b_branch2a
I0625 14:59:42.959959  6673 net.cpp:444] res4b_branch2a <- res4a_res4a_relu_0_split_0
I0625 14:59:42.959971  6673 net.cpp:418] res4b_branch2a -> res4b_branch2a
I0625 14:59:42.961208  6673 cudnn_conv_layer.cpp:194] Reallocating workspace storage: 92952
I0625 14:59:42.961230  6673 net.cpp:150] Setting up res4b_branch2a
I0625 14:59:42.961237  6673 net.cpp:157] Top shape: 1 256 60 80 (1228800)
I0625 14:59:42.961241  6673 net.cpp:165] Memory required for data: 4551475284
I0625 14:59:42.961248  6673 layer_factory.hpp:77] Creating layer bn4b_branch2a
I0625 14:59:42.961261  6673 net.cpp:100] Creating Layer bn4b_branch2a
I0625 14:59:42.961266  6673 net.cpp:444] bn4b_branch2a <- res4b_branch2a
I0625 14:59:42.961278  6673 net.cpp:405] bn4b_branch2a -> res4b_branch2a (in-place)
I0625 14:59:42.961530  6673 net.cpp:150] Setting up bn4b_branch2a
I0625 14:59:42.961536  6673 net.cpp:157] Top shape: 1 256 60 80 (1228800)
I0625 14:59:42.961539  6673 net.cpp:165] Memory required for data: 4556390484
I0625 14:59:42.961551  6673 layer_factory.hpp:77] Creating layer scale4b_branch2a
I0625 14:59:42.961562  6673 net.cpp:100] Creating Layer scale4b_branch2a
I0625 14:59:42.961567  6673 net.cpp:444] scale4b_branch2a <- res4b_branch2a
I0625 14:59:42.961576  6673 net.cpp:405] scale4b_branch2a -> res4b_branch2a (in-place)
I0625 14:59:42.961634  6673 layer_factory.hpp:77] Creating layer scale4b_branch2a
I0625 14:59:42.961807  6673 net.cpp:150] Setting up scale4b_branch2a
I0625 14:59:42.961812  6673 net.cpp:157] Top shape: 1 256 60 80 (1228800)
I0625 14:59:42.961814  6673 net.cpp:165] Memory required for data: 4561305684
I0625 14:59:42.961823  6673 layer_factory.hpp:77] Creating layer res4b_branch2a_relu
I0625 14:59:42.961832  6673 net.cpp:100] Creating Layer res4b_branch2a_relu
I0625 14:59:42.961836  6673 net.cpp:444] res4b_branch2a_relu <- res4b_branch2a
I0625 14:59:42.961845  6673 net.cpp:405] res4b_branch2a_relu -> res4b_branch2a (in-place)
I0625 14:59:42.962227  6673 net.cpp:150] Setting up res4b_branch2a_relu
I0625 14:59:42.962234  6673 net.cpp:157] Top shape: 1 256 60 80 (1228800)
I0625 14:59:42.962237  6673 net.cpp:165] Memory required for data: 4566220884
I0625 14:59:42.962240  6673 layer_factory.hpp:77] Creating layer res4b_branch2b
I0625 14:59:42.962255  6673 net.cpp:100] Creating Layer res4b_branch2b
I0625 14:59:42.962260  6673 net.cpp:444] res4b_branch2b <- res4b_branch2a
I0625 14:59:42.962272  6673 net.cpp:418] res4b_branch2b -> res4b_branch2b
I0625 14:59:42.964733  6673 cudnn_conv_layer.cpp:194] Reallocating workspace storage: 12582912
I0625 14:59:42.964998  6673 net.cpp:150] Setting up res4b_branch2b
I0625 14:59:42.965008  6673 net.cpp:157] Top shape: 1 256 60 80 (1228800)
I0625 14:59:42.965010  6673 net.cpp:165] Memory required for data: 4571136084
I0625 14:59:42.965023  6673 layer_factory.hpp:77] Creating layer bn4b_branch2b
I0625 14:59:42.965039  6673 net.cpp:100] Creating Layer bn4b_branch2b
I0625 14:59:42.965045  6673 net.cpp:444] bn4b_branch2b <- res4b_branch2b
I0625 14:59:42.965059  6673 net.cpp:405] bn4b_branch2b -> res4b_branch2b (in-place)
I0625 14:59:42.965327  6673 net.cpp:150] Setting up bn4b_branch2b
I0625 14:59:42.965332  6673 net.cpp:157] Top shape: 1 256 60 80 (1228800)
I0625 14:59:42.965334  6673 net.cpp:165] Memory required for data: 4576051284
I0625 14:59:42.965348  6673 layer_factory.hpp:77] Creating layer scale4b_branch2b
I0625 14:59:42.965359  6673 net.cpp:100] Creating Layer scale4b_branch2b
I0625 14:59:42.965364  6673 net.cpp:444] scale4b_branch2b <- res4b_branch2b
I0625 14:59:42.965373  6673 net.cpp:405] scale4b_branch2b -> res4b_branch2b (in-place)
I0625 14:59:42.965431  6673 layer_factory.hpp:77] Creating layer scale4b_branch2b
I0625 14:59:42.965605  6673 net.cpp:150] Setting up scale4b_branch2b
I0625 14:59:42.965611  6673 net.cpp:157] Top shape: 1 256 60 80 (1228800)
I0625 14:59:42.965613  6673 net.cpp:165] Memory required for data: 4580966484
I0625 14:59:42.965622  6673 layer_factory.hpp:77] Creating layer res4b_branch2b_relu
I0625 14:59:42.965631  6673 net.cpp:100] Creating Layer res4b_branch2b_relu
I0625 14:59:42.965634  6673 net.cpp:444] res4b_branch2b_relu <- res4b_branch2b
I0625 14:59:42.965643  6673 net.cpp:405] res4b_branch2b_relu -> res4b_branch2b (in-place)
I0625 14:59:42.965783  6673 net.cpp:150] Setting up res4b_branch2b_relu
I0625 14:59:42.965790  6673 net.cpp:157] Top shape: 1 256 60 80 (1228800)
I0625 14:59:42.965793  6673 net.cpp:165] Memory required for data: 4585881684
I0625 14:59:42.965796  6673 layer_factory.hpp:77] Creating layer res4b_branch2c
I0625 14:59:42.965809  6673 net.cpp:100] Creating Layer res4b_branch2c
I0625 14:59:42.965813  6673 net.cpp:444] res4b_branch2c <- res4b_branch2b
I0625 14:59:42.965826  6673 net.cpp:418] res4b_branch2c -> res4b_branch2c
I0625 14:59:42.967838  6673 cudnn_conv_layer.cpp:194] Reallocating workspace storage: 92952
I0625 14:59:42.967861  6673 net.cpp:150] Setting up res4b_branch2c
I0625 14:59:42.967870  6673 net.cpp:157] Top shape: 1 1024 60 80 (4915200)
I0625 14:59:42.967872  6673 net.cpp:165] Memory required for data: 4605542484
I0625 14:59:42.967883  6673 layer_factory.hpp:77] Creating layer bn4b_branch2c
I0625 14:59:42.967895  6673 net.cpp:100] Creating Layer bn4b_branch2c
I0625 14:59:42.967901  6673 net.cpp:444] bn4b_branch2c <- res4b_branch2c
I0625 14:59:42.967914  6673 net.cpp:405] bn4b_branch2c -> res4b_branch2c (in-place)
I0625 14:59:42.968186  6673 net.cpp:150] Setting up bn4b_branch2c
I0625 14:59:42.968192  6673 net.cpp:157] Top shape: 1 1024 60 80 (4915200)
I0625 14:59:42.968194  6673 net.cpp:165] Memory required for data: 4625203284
I0625 14:59:42.968207  6673 layer_factory.hpp:77] Creating layer scale4b_branch2c
I0625 14:59:42.968220  6673 net.cpp:100] Creating Layer scale4b_branch2c
I0625 14:59:42.968225  6673 net.cpp:444] scale4b_branch2c <- res4b_branch2c
I0625 14:59:42.968235  6673 net.cpp:405] scale4b_branch2c -> res4b_branch2c (in-place)
I0625 14:59:42.968288  6673 layer_factory.hpp:77] Creating layer scale4b_branch2c
I0625 14:59:42.968468  6673 net.cpp:150] Setting up scale4b_branch2c
I0625 14:59:42.968474  6673 net.cpp:157] Top shape: 1 1024 60 80 (4915200)
I0625 14:59:42.968477  6673 net.cpp:165] Memory required for data: 4644864084
I0625 14:59:42.968487  6673 layer_factory.hpp:77] Creating layer res4b
I0625 14:59:42.968497  6673 net.cpp:100] Creating Layer res4b
I0625 14:59:42.968502  6673 net.cpp:444] res4b <- res4a_res4a_relu_0_split_1
I0625 14:59:42.968510  6673 net.cpp:444] res4b <- res4b_branch2c
I0625 14:59:42.968518  6673 net.cpp:418] res4b -> res4b
I0625 14:59:42.968555  6673 net.cpp:150] Setting up res4b
I0625 14:59:42.968562  6673 net.cpp:157] Top shape: 1 1024 60 80 (4915200)
I0625 14:59:42.968564  6673 net.cpp:165] Memory required for data: 4664524884
I0625 14:59:42.968567  6673 layer_factory.hpp:77] Creating layer res4b_relu
I0625 14:59:42.968575  6673 net.cpp:100] Creating Layer res4b_relu
I0625 14:59:42.968580  6673 net.cpp:444] res4b_relu <- res4b
I0625 14:59:42.968588  6673 net.cpp:405] res4b_relu -> res4b (in-place)
I0625 14:59:42.968724  6673 net.cpp:150] Setting up res4b_relu
I0625 14:59:42.968729  6673 net.cpp:157] Top shape: 1 1024 60 80 (4915200)
I0625 14:59:42.968731  6673 net.cpp:165] Memory required for data: 4684185684
I0625 14:59:42.968735  6673 layer_factory.hpp:77] Creating layer res4b_res4b_relu_0_split
I0625 14:59:42.968744  6673 net.cpp:100] Creating Layer res4b_res4b_relu_0_split
I0625 14:59:42.968749  6673 net.cpp:444] res4b_res4b_relu_0_split <- res4b
I0625 14:59:42.968757  6673 net.cpp:418] res4b_res4b_relu_0_split -> res4b_res4b_relu_0_split_0
I0625 14:59:42.968768  6673 net.cpp:418] res4b_res4b_relu_0_split -> res4b_res4b_relu_0_split_1
I0625 14:59:42.968822  6673 net.cpp:150] Setting up res4b_res4b_relu_0_split
I0625 14:59:42.968828  6673 net.cpp:157] Top shape: 1 1024 60 80 (4915200)
I0625 14:59:42.968832  6673 net.cpp:157] Top shape: 1 1024 60 80 (4915200)
I0625 14:59:42.968833  6673 net.cpp:165] Memory required for data: 4723507284
I0625 14:59:42.968837  6673 layer_factory.hpp:77] Creating layer res4c_branch2a
I0625 14:59:42.968847  6673 net.cpp:100] Creating Layer res4c_branch2a
I0625 14:59:42.968852  6673 net.cpp:444] res4c_branch2a <- res4b_res4b_relu_0_split_0
I0625 14:59:42.968863  6673 net.cpp:418] res4c_branch2a -> res4c_branch2a
I0625 14:59:42.970113  6673 cudnn_conv_layer.cpp:194] Reallocating workspace storage: 92952
I0625 14:59:42.970132  6673 net.cpp:150] Setting up res4c_branch2a
I0625 14:59:42.970139  6673 net.cpp:157] Top shape: 1 256 60 80 (1228800)
I0625 14:59:42.970141  6673 net.cpp:165] Memory required for data: 4728422484
I0625 14:59:42.970150  6673 layer_factory.hpp:77] Creating layer bn4c_branch2a
I0625 14:59:42.970162  6673 net.cpp:100] Creating Layer bn4c_branch2a
I0625 14:59:42.970167  6673 net.cpp:444] bn4c_branch2a <- res4c_branch2a
I0625 14:59:42.970178  6673 net.cpp:405] bn4c_branch2a -> res4c_branch2a (in-place)
I0625 14:59:42.970438  6673 net.cpp:150] Setting up bn4c_branch2a
I0625 14:59:42.970443  6673 net.cpp:157] Top shape: 1 256 60 80 (1228800)
I0625 14:59:42.970445  6673 net.cpp:165] Memory required for data: 4733337684
I0625 14:59:42.970458  6673 layer_factory.hpp:77] Creating layer scale4c_branch2a
I0625 14:59:42.970470  6673 net.cpp:100] Creating Layer scale4c_branch2a
I0625 14:59:42.970474  6673 net.cpp:444] scale4c_branch2a <- res4c_branch2a
I0625 14:59:42.970484  6673 net.cpp:405] scale4c_branch2a -> res4c_branch2a (in-place)
I0625 14:59:42.970542  6673 layer_factory.hpp:77] Creating layer scale4c_branch2a
I0625 14:59:42.970715  6673 net.cpp:150] Setting up scale4c_branch2a
I0625 14:59:42.970721  6673 net.cpp:157] Top shape: 1 256 60 80 (1228800)
I0625 14:59:42.970722  6673 net.cpp:165] Memory required for data: 4738252884
I0625 14:59:42.970731  6673 layer_factory.hpp:77] Creating layer res4c_branch2a_relu
I0625 14:59:42.970739  6673 net.cpp:100] Creating Layer res4c_branch2a_relu
I0625 14:59:42.970744  6673 net.cpp:444] res4c_branch2a_relu <- res4c_branch2a
I0625 14:59:42.970758  6673 net.cpp:405] res4c_branch2a_relu -> res4c_branch2a (in-place)
I0625 14:59:42.970898  6673 net.cpp:150] Setting up res4c_branch2a_relu
I0625 14:59:42.970904  6673 net.cpp:157] Top shape: 1 256 60 80 (1228800)
I0625 14:59:42.970906  6673 net.cpp:165] Memory required for data: 4743168084
I0625 14:59:42.970911  6673 layer_factory.hpp:77] Creating layer res4c_branch2b
I0625 14:59:42.970922  6673 net.cpp:100] Creating Layer res4c_branch2b
I0625 14:59:42.970928  6673 net.cpp:444] res4c_branch2b <- res4c_branch2a
I0625 14:59:42.970940  6673 net.cpp:418] res4c_branch2b -> res4c_branch2b
I0625 14:59:42.973623  6673 cudnn_conv_layer.cpp:194] Reallocating workspace storage: 12582912
I0625 14:59:42.973883  6673 net.cpp:150] Setting up res4c_branch2b
I0625 14:59:42.973894  6673 net.cpp:157] Top shape: 1 256 60 80 (1228800)
I0625 14:59:42.973896  6673 net.cpp:165] Memory required for data: 4748083284
I0625 14:59:42.973907  6673 layer_factory.hpp:77] Creating layer bn4c_branch2b
I0625 14:59:42.973923  6673 net.cpp:100] Creating Layer bn4c_branch2b
I0625 14:59:42.973929  6673 net.cpp:444] bn4c_branch2b <- res4c_branch2b
I0625 14:59:42.973943  6673 net.cpp:405] bn4c_branch2b -> res4c_branch2b (in-place)
I0625 14:59:42.974215  6673 net.cpp:150] Setting up bn4c_branch2b
I0625 14:59:42.974220  6673 net.cpp:157] Top shape: 1 256 60 80 (1228800)
I0625 14:59:42.974221  6673 net.cpp:165] Memory required for data: 4752998484
I0625 14:59:42.974234  6673 layer_factory.hpp:77] Creating layer scale4c_branch2b
I0625 14:59:42.974247  6673 net.cpp:100] Creating Layer scale4c_branch2b
I0625 14:59:42.974252  6673 net.cpp:444] scale4c_branch2b <- res4c_branch2b
I0625 14:59:42.974261  6673 net.cpp:405] scale4c_branch2b -> res4c_branch2b (in-place)
I0625 14:59:42.974320  6673 layer_factory.hpp:77] Creating layer scale4c_branch2b
I0625 14:59:42.974498  6673 net.cpp:150] Setting up scale4c_branch2b
I0625 14:59:42.974504  6673 net.cpp:157] Top shape: 1 256 60 80 (1228800)
I0625 14:59:42.974506  6673 net.cpp:165] Memory required for data: 4757913684
I0625 14:59:42.974515  6673 layer_factory.hpp:77] Creating layer res4c_branch2b_relu
I0625 14:59:42.974524  6673 net.cpp:100] Creating Layer res4c_branch2b_relu
I0625 14:59:42.974529  6673 net.cpp:444] res4c_branch2b_relu <- res4c_branch2b
I0625 14:59:42.974537  6673 net.cpp:405] res4c_branch2b_relu -> res4c_branch2b (in-place)
I0625 14:59:42.974927  6673 net.cpp:150] Setting up res4c_branch2b_relu
I0625 14:59:42.974936  6673 net.cpp:157] Top shape: 1 256 60 80 (1228800)
I0625 14:59:42.974937  6673 net.cpp:165] Memory required for data: 4762828884
I0625 14:59:42.974941  6673 layer_factory.hpp:77] Creating layer res4c_branch2c
I0625 14:59:42.974956  6673 net.cpp:100] Creating Layer res4c_branch2c
I0625 14:59:42.974961  6673 net.cpp:444] res4c_branch2c <- res4c_branch2b
I0625 14:59:42.974974  6673 net.cpp:418] res4c_branch2c -> res4c_branch2c
I0625 14:59:42.976941  6673 cudnn_conv_layer.cpp:194] Reallocating workspace storage: 92952
I0625 14:59:42.976963  6673 net.cpp:150] Setting up res4c_branch2c
I0625 14:59:42.976970  6673 net.cpp:157] Top shape: 1 1024 60 80 (4915200)
I0625 14:59:42.976972  6673 net.cpp:165] Memory required for data: 4782489684
I0625 14:59:42.976982  6673 layer_factory.hpp:77] Creating layer bn4c_branch2c
I0625 14:59:42.976994  6673 net.cpp:100] Creating Layer bn4c_branch2c
I0625 14:59:42.976999  6673 net.cpp:444] bn4c_branch2c <- res4c_branch2c
I0625 14:59:42.977011  6673 net.cpp:405] bn4c_branch2c -> res4c_branch2c (in-place)
I0625 14:59:42.977283  6673 net.cpp:150] Setting up bn4c_branch2c
I0625 14:59:42.977289  6673 net.cpp:157] Top shape: 1 1024 60 80 (4915200)
I0625 14:59:42.977291  6673 net.cpp:165] Memory required for data: 4802150484
I0625 14:59:42.977304  6673 layer_factory.hpp:77] Creating layer scale4c_branch2c
I0625 14:59:42.977315  6673 net.cpp:100] Creating Layer scale4c_branch2c
I0625 14:59:42.977319  6673 net.cpp:444] scale4c_branch2c <- res4c_branch2c
I0625 14:59:42.977329  6673 net.cpp:405] scale4c_branch2c -> res4c_branch2c (in-place)
I0625 14:59:42.977385  6673 layer_factory.hpp:77] Creating layer scale4c_branch2c
I0625 14:59:42.977566  6673 net.cpp:150] Setting up scale4c_branch2c
I0625 14:59:42.977572  6673 net.cpp:157] Top shape: 1 1024 60 80 (4915200)
I0625 14:59:42.977576  6673 net.cpp:165] Memory required for data: 4821811284
I0625 14:59:42.977583  6673 layer_factory.hpp:77] Creating layer res4c
I0625 14:59:42.977592  6673 net.cpp:100] Creating Layer res4c
I0625 14:59:42.977597  6673 net.cpp:444] res4c <- res4b_res4b_relu_0_split_1
I0625 14:59:42.977607  6673 net.cpp:444] res4c <- res4c_branch2c
I0625 14:59:42.977613  6673 net.cpp:418] res4c -> res4c
I0625 14:59:42.977651  6673 net.cpp:150] Setting up res4c
I0625 14:59:42.977658  6673 net.cpp:157] Top shape: 1 1024 60 80 (4915200)
I0625 14:59:42.977660  6673 net.cpp:165] Memory required for data: 4841472084
I0625 14:59:42.977664  6673 layer_factory.hpp:77] Creating layer res4c_relu
I0625 14:59:42.977671  6673 net.cpp:100] Creating Layer res4c_relu
I0625 14:59:42.977675  6673 net.cpp:444] res4c_relu <- res4c
I0625 14:59:42.977684  6673 net.cpp:405] res4c_relu -> res4c (in-place)
I0625 14:59:42.977820  6673 net.cpp:150] Setting up res4c_relu
I0625 14:59:42.977826  6673 net.cpp:157] Top shape: 1 1024 60 80 (4915200)
I0625 14:59:42.977828  6673 net.cpp:165] Memory required for data: 4861132884
I0625 14:59:42.977831  6673 layer_factory.hpp:77] Creating layer res4c_res4c_relu_0_split
I0625 14:59:42.977839  6673 net.cpp:100] Creating Layer res4c_res4c_relu_0_split
I0625 14:59:42.977844  6673 net.cpp:444] res4c_res4c_relu_0_split <- res4c
I0625 14:59:42.977854  6673 net.cpp:418] res4c_res4c_relu_0_split -> res4c_res4c_relu_0_split_0
I0625 14:59:42.977866  6673 net.cpp:418] res4c_res4c_relu_0_split -> res4c_res4c_relu_0_split_1
I0625 14:59:42.977919  6673 net.cpp:150] Setting up res4c_res4c_relu_0_split
I0625 14:59:42.977926  6673 net.cpp:157] Top shape: 1 1024 60 80 (4915200)
I0625 14:59:42.977931  6673 net.cpp:157] Top shape: 1 1024 60 80 (4915200)
I0625 14:59:42.977931  6673 net.cpp:165] Memory required for data: 4900454484
I0625 14:59:42.977934  6673 layer_factory.hpp:77] Creating layer res4d_branch2a
I0625 14:59:42.977946  6673 net.cpp:100] Creating Layer res4d_branch2a
I0625 14:59:42.977952  6673 net.cpp:444] res4d_branch2a <- res4c_res4c_relu_0_split_0
I0625 14:59:42.977963  6673 net.cpp:418] res4d_branch2a -> res4d_branch2a
I0625 14:59:42.979229  6673 cudnn_conv_layer.cpp:194] Reallocating workspace storage: 92952
I0625 14:59:42.979255  6673 net.cpp:150] Setting up res4d_branch2a
I0625 14:59:42.979264  6673 net.cpp:157] Top shape: 1 256 60 80 (1228800)
I0625 14:59:42.979266  6673 net.cpp:165] Memory required for data: 4905369684
I0625 14:59:42.979276  6673 layer_factory.hpp:77] Creating layer bn4d_branch2a
I0625 14:59:42.979290  6673 net.cpp:100] Creating Layer bn4d_branch2a
I0625 14:59:42.979295  6673 net.cpp:444] bn4d_branch2a <- res4d_branch2a
I0625 14:59:42.979307  6673 net.cpp:405] bn4d_branch2a -> res4d_branch2a (in-place)
I0625 14:59:42.979578  6673 net.cpp:150] Setting up bn4d_branch2a
I0625 14:59:42.979583  6673 net.cpp:157] Top shape: 1 256 60 80 (1228800)
I0625 14:59:42.979585  6673 net.cpp:165] Memory required for data: 4910284884
I0625 14:59:42.979599  6673 layer_factory.hpp:77] Creating layer scale4d_branch2a
I0625 14:59:42.979612  6673 net.cpp:100] Creating Layer scale4d_branch2a
I0625 14:59:42.979619  6673 net.cpp:444] scale4d_branch2a <- res4d_branch2a
I0625 14:59:42.979626  6673 net.cpp:405] scale4d_branch2a -> res4d_branch2a (in-place)
I0625 14:59:42.979687  6673 layer_factory.hpp:77] Creating layer scale4d_branch2a
I0625 14:59:42.979867  6673 net.cpp:150] Setting up scale4d_branch2a
I0625 14:59:42.979874  6673 net.cpp:157] Top shape: 1 256 60 80 (1228800)
I0625 14:59:42.979876  6673 net.cpp:165] Memory required for data: 4915200084
I0625 14:59:42.979884  6673 layer_factory.hpp:77] Creating layer res4d_branch2a_relu
I0625 14:59:42.979893  6673 net.cpp:100] Creating Layer res4d_branch2a_relu
I0625 14:59:42.979898  6673 net.cpp:444] res4d_branch2a_relu <- res4d_branch2a
I0625 14:59:42.979907  6673 net.cpp:405] res4d_branch2a_relu -> res4d_branch2a (in-place)
I0625 14:59:42.980047  6673 net.cpp:150] Setting up res4d_branch2a_relu
I0625 14:59:42.980053  6673 net.cpp:157] Top shape: 1 256 60 80 (1228800)
I0625 14:59:42.980056  6673 net.cpp:165] Memory required for data: 4920115284
I0625 14:59:42.980059  6673 layer_factory.hpp:77] Creating layer res4d_branch2b
I0625 14:59:42.980072  6673 net.cpp:100] Creating Layer res4d_branch2b
I0625 14:59:42.980077  6673 net.cpp:444] res4d_branch2b <- res4d_branch2a
I0625 14:59:42.980090  6673 net.cpp:418] res4d_branch2b -> res4d_branch2b
I0625 14:59:42.982614  6673 cudnn_conv_layer.cpp:194] Reallocating workspace storage: 12582912
I0625 14:59:42.982894  6673 net.cpp:150] Setting up res4d_branch2b
I0625 14:59:42.982913  6673 net.cpp:157] Top shape: 1 256 60 80 (1228800)
I0625 14:59:42.982915  6673 net.cpp:165] Memory required for data: 4925030484
I0625 14:59:42.982929  6673 layer_factory.hpp:77] Creating layer bn4d_branch2b
I0625 14:59:42.982949  6673 net.cpp:100] Creating Layer bn4d_branch2b
I0625 14:59:42.982955  6673 net.cpp:444] bn4d_branch2b <- res4d_branch2b
I0625 14:59:42.982970  6673 net.cpp:405] bn4d_branch2b -> res4d_branch2b (in-place)
I0625 14:59:42.983256  6673 net.cpp:150] Setting up bn4d_branch2b
I0625 14:59:42.983263  6673 net.cpp:157] Top shape: 1 256 60 80 (1228800)
I0625 14:59:42.983263  6673 net.cpp:165] Memory required for data: 4929945684
I0625 14:59:42.983278  6673 layer_factory.hpp:77] Creating layer scale4d_branch2b
I0625 14:59:42.983290  6673 net.cpp:100] Creating Layer scale4d_branch2b
I0625 14:59:42.983295  6673 net.cpp:444] scale4d_branch2b <- res4d_branch2b
I0625 14:59:42.983305  6673 net.cpp:405] scale4d_branch2b -> res4d_branch2b (in-place)
I0625 14:59:42.983366  6673 layer_factory.hpp:77] Creating layer scale4d_branch2b
I0625 14:59:42.983551  6673 net.cpp:150] Setting up scale4d_branch2b
I0625 14:59:42.983556  6673 net.cpp:157] Top shape: 1 256 60 80 (1228800)
I0625 14:59:42.983557  6673 net.cpp:165] Memory required for data: 4934860884
I0625 14:59:42.983566  6673 layer_factory.hpp:77] Creating layer res4d_branch2b_relu
I0625 14:59:42.983575  6673 net.cpp:100] Creating Layer res4d_branch2b_relu
I0625 14:59:42.983580  6673 net.cpp:444] res4d_branch2b_relu <- res4d_branch2b
I0625 14:59:42.983588  6673 net.cpp:405] res4d_branch2b_relu -> res4d_branch2b (in-place)
I0625 14:59:42.984053  6673 net.cpp:150] Setting up res4d_branch2b_relu
I0625 14:59:42.984061  6673 net.cpp:157] Top shape: 1 256 60 80 (1228800)
I0625 14:59:42.984063  6673 net.cpp:165] Memory required for data: 4939776084
I0625 14:59:42.984067  6673 layer_factory.hpp:77] Creating layer res4d_branch2c
I0625 14:59:42.984084  6673 net.cpp:100] Creating Layer res4d_branch2c
I0625 14:59:42.984091  6673 net.cpp:444] res4d_branch2c <- res4d_branch2b
I0625 14:59:42.984104  6673 net.cpp:418] res4d_branch2c -> res4d_branch2c
I0625 14:59:42.986160  6673 cudnn_conv_layer.cpp:194] Reallocating workspace storage: 92952
I0625 14:59:42.986184  6673 net.cpp:150] Setting up res4d_branch2c
I0625 14:59:42.986192  6673 net.cpp:157] Top shape: 1 1024 60 80 (4915200)
I0625 14:59:42.986194  6673 net.cpp:165] Memory required for data: 4959436884
I0625 14:59:42.986204  6673 layer_factory.hpp:77] Creating layer bn4d_branch2c
I0625 14:59:42.986218  6673 net.cpp:100] Creating Layer bn4d_branch2c
I0625 14:59:42.986224  6673 net.cpp:444] bn4d_branch2c <- res4d_branch2c
I0625 14:59:42.986237  6673 net.cpp:405] bn4d_branch2c -> res4d_branch2c (in-place)
I0625 14:59:42.986515  6673 net.cpp:150] Setting up bn4d_branch2c
I0625 14:59:42.986521  6673 net.cpp:157] Top shape: 1 1024 60 80 (4915200)
I0625 14:59:42.986523  6673 net.cpp:165] Memory required for data: 4979097684
I0625 14:59:42.986536  6673 layer_factory.hpp:77] Creating layer scale4d_branch2c
I0625 14:59:42.986547  6673 net.cpp:100] Creating Layer scale4d_branch2c
I0625 14:59:42.986552  6673 net.cpp:444] scale4d_branch2c <- res4d_branch2c
I0625 14:59:42.986562  6673 net.cpp:405] scale4d_branch2c -> res4d_branch2c (in-place)
I0625 14:59:42.986619  6673 layer_factory.hpp:77] Creating layer scale4d_branch2c
I0625 14:59:42.986802  6673 net.cpp:150] Setting up scale4d_branch2c
I0625 14:59:42.986809  6673 net.cpp:157] Top shape: 1 1024 60 80 (4915200)
I0625 14:59:42.986811  6673 net.cpp:165] Memory required for data: 4998758484
I0625 14:59:42.986819  6673 layer_factory.hpp:77] Creating layer res4d
I0625 14:59:42.986829  6673 net.cpp:100] Creating Layer res4d
I0625 14:59:42.986834  6673 net.cpp:444] res4d <- res4c_res4c_relu_0_split_1
I0625 14:59:42.986842  6673 net.cpp:444] res4d <- res4d_branch2c
I0625 14:59:42.986850  6673 net.cpp:418] res4d -> res4d
I0625 14:59:42.986917  6673 net.cpp:150] Setting up res4d
I0625 14:59:42.986924  6673 net.cpp:157] Top shape: 1 1024 60 80 (4915200)
I0625 14:59:42.986927  6673 net.cpp:165] Memory required for data: 5018419284
I0625 14:59:42.986929  6673 layer_factory.hpp:77] Creating layer res4d_relu
I0625 14:59:42.986937  6673 net.cpp:100] Creating Layer res4d_relu
I0625 14:59:42.986941  6673 net.cpp:444] res4d_relu <- res4d
I0625 14:59:42.986953  6673 net.cpp:405] res4d_relu -> res4d (in-place)
I0625 14:59:42.987089  6673 net.cpp:150] Setting up res4d_relu
I0625 14:59:42.987095  6673 net.cpp:157] Top shape: 1 1024 60 80 (4915200)
I0625 14:59:42.987097  6673 net.cpp:165] Memory required for data: 5038080084
I0625 14:59:42.987102  6673 layer_factory.hpp:77] Creating layer res4d_res4d_relu_0_split
I0625 14:59:42.987109  6673 net.cpp:100] Creating Layer res4d_res4d_relu_0_split
I0625 14:59:42.987114  6673 net.cpp:444] res4d_res4d_relu_0_split <- res4d
I0625 14:59:42.987124  6673 net.cpp:418] res4d_res4d_relu_0_split -> res4d_res4d_relu_0_split_0
I0625 14:59:42.987138  6673 net.cpp:418] res4d_res4d_relu_0_split -> res4d_res4d_relu_0_split_1
I0625 14:59:42.987191  6673 net.cpp:150] Setting up res4d_res4d_relu_0_split
I0625 14:59:42.987198  6673 net.cpp:157] Top shape: 1 1024 60 80 (4915200)
I0625 14:59:42.987201  6673 net.cpp:157] Top shape: 1 1024 60 80 (4915200)
I0625 14:59:42.987203  6673 net.cpp:165] Memory required for data: 5077401684
I0625 14:59:42.987206  6673 layer_factory.hpp:77] Creating layer res4e_branch2a
I0625 14:59:42.987218  6673 net.cpp:100] Creating Layer res4e_branch2a
I0625 14:59:42.987223  6673 net.cpp:444] res4e_branch2a <- res4d_res4d_relu_0_split_0
I0625 14:59:42.987236  6673 net.cpp:418] res4e_branch2a -> res4e_branch2a
I0625 14:59:42.988502  6673 cudnn_conv_layer.cpp:194] Reallocating workspace storage: 92952
I0625 14:59:42.988523  6673 net.cpp:150] Setting up res4e_branch2a
I0625 14:59:42.988529  6673 net.cpp:157] Top shape: 1 256 60 80 (1228800)
I0625 14:59:42.988531  6673 net.cpp:165] Memory required for data: 5082316884
I0625 14:59:42.988540  6673 layer_factory.hpp:77] Creating layer bn4e_branch2a
I0625 14:59:42.988553  6673 net.cpp:100] Creating Layer bn4e_branch2a
I0625 14:59:42.988557  6673 net.cpp:444] bn4e_branch2a <- res4e_branch2a
I0625 14:59:42.988569  6673 net.cpp:405] bn4e_branch2a -> res4e_branch2a (in-place)
I0625 14:59:42.988840  6673 net.cpp:150] Setting up bn4e_branch2a
I0625 14:59:42.988845  6673 net.cpp:157] Top shape: 1 256 60 80 (1228800)
I0625 14:59:42.988848  6673 net.cpp:165] Memory required for data: 5087232084
I0625 14:59:42.988862  6673 layer_factory.hpp:77] Creating layer scale4e_branch2a
I0625 14:59:42.988873  6673 net.cpp:100] Creating Layer scale4e_branch2a
I0625 14:59:42.988878  6673 net.cpp:444] scale4e_branch2a <- res4e_branch2a
I0625 14:59:42.988888  6673 net.cpp:405] scale4e_branch2a -> res4e_branch2a (in-place)
I0625 14:59:42.988947  6673 layer_factory.hpp:77] Creating layer scale4e_branch2a
I0625 14:59:42.989125  6673 net.cpp:150] Setting up scale4e_branch2a
I0625 14:59:42.989131  6673 net.cpp:157] Top shape: 1 256 60 80 (1228800)
I0625 14:59:42.989133  6673 net.cpp:165] Memory required for data: 5092147284
I0625 14:59:42.989142  6673 layer_factory.hpp:77] Creating layer res4e_branch2a_relu
I0625 14:59:42.989151  6673 net.cpp:100] Creating Layer res4e_branch2a_relu
I0625 14:59:42.989156  6673 net.cpp:444] res4e_branch2a_relu <- res4e_branch2a
I0625 14:59:42.989166  6673 net.cpp:405] res4e_branch2a_relu -> res4e_branch2a (in-place)
I0625 14:59:42.989302  6673 net.cpp:150] Setting up res4e_branch2a_relu
I0625 14:59:42.989308  6673 net.cpp:157] Top shape: 1 256 60 80 (1228800)
I0625 14:59:42.989311  6673 net.cpp:165] Memory required for data: 5097062484
I0625 14:59:42.989315  6673 layer_factory.hpp:77] Creating layer res4e_branch2b
I0625 14:59:42.989326  6673 net.cpp:100] Creating Layer res4e_branch2b
I0625 14:59:42.989331  6673 net.cpp:444] res4e_branch2b <- res4e_branch2a
I0625 14:59:42.989343  6673 net.cpp:418] res4e_branch2b -> res4e_branch2b
I0625 14:59:42.991801  6673 cudnn_conv_layer.cpp:194] Reallocating workspace storage: 12582912
I0625 14:59:42.992703  6673 net.cpp:150] Setting up res4e_branch2b
I0625 14:59:42.992715  6673 net.cpp:157] Top shape: 1 256 60 80 (1228800)
I0625 14:59:42.992717  6673 net.cpp:165] Memory required for data: 5101977684
I0625 14:59:42.992730  6673 layer_factory.hpp:77] Creating layer bn4e_branch2b
I0625 14:59:42.992746  6673 net.cpp:100] Creating Layer bn4e_branch2b
I0625 14:59:42.992751  6673 net.cpp:444] bn4e_branch2b <- res4e_branch2b
I0625 14:59:42.992764  6673 net.cpp:405] bn4e_branch2b -> res4e_branch2b (in-place)
I0625 14:59:42.993053  6673 net.cpp:150] Setting up bn4e_branch2b
I0625 14:59:42.993062  6673 net.cpp:157] Top shape: 1 256 60 80 (1228800)
I0625 14:59:42.993063  6673 net.cpp:165] Memory required for data: 5106892884
I0625 14:59:42.993077  6673 layer_factory.hpp:77] Creating layer scale4e_branch2b
I0625 14:59:42.993088  6673 net.cpp:100] Creating Layer scale4e_branch2b
I0625 14:59:42.993093  6673 net.cpp:444] scale4e_branch2b <- res4e_branch2b
I0625 14:59:42.993103  6673 net.cpp:405] scale4e_branch2b -> res4e_branch2b (in-place)
I0625 14:59:42.993165  6673 layer_factory.hpp:77] Creating layer scale4e_branch2b
I0625 14:59:42.993345  6673 net.cpp:150] Setting up scale4e_branch2b
I0625 14:59:42.993351  6673 net.cpp:157] Top shape: 1 256 60 80 (1228800)
I0625 14:59:42.993352  6673 net.cpp:165] Memory required for data: 5111808084
I0625 14:59:42.993361  6673 layer_factory.hpp:77] Creating layer res4e_branch2b_relu
I0625 14:59:42.993369  6673 net.cpp:100] Creating Layer res4e_branch2b_relu
I0625 14:59:42.993373  6673 net.cpp:444] res4e_branch2b_relu <- res4e_branch2b
I0625 14:59:42.993382  6673 net.cpp:405] res4e_branch2b_relu -> res4e_branch2b (in-place)
I0625 14:59:42.993778  6673 net.cpp:150] Setting up res4e_branch2b_relu
I0625 14:59:42.993788  6673 net.cpp:157] Top shape: 1 256 60 80 (1228800)
I0625 14:59:42.993789  6673 net.cpp:165] Memory required for data: 5116723284
I0625 14:59:42.993793  6673 layer_factory.hpp:77] Creating layer res4e_branch2c
I0625 14:59:42.993808  6673 net.cpp:100] Creating Layer res4e_branch2c
I0625 14:59:42.993813  6673 net.cpp:444] res4e_branch2c <- res4e_branch2b
I0625 14:59:42.993825  6673 net.cpp:418] res4e_branch2c -> res4e_branch2c
I0625 14:59:42.995856  6673 cudnn_conv_layer.cpp:194] Reallocating workspace storage: 92952
I0625 14:59:42.995878  6673 net.cpp:150] Setting up res4e_branch2c
I0625 14:59:42.995887  6673 net.cpp:157] Top shape: 1 1024 60 80 (4915200)
I0625 14:59:42.995888  6673 net.cpp:165] Memory required for data: 5136384084
I0625 14:59:42.995898  6673 layer_factory.hpp:77] Creating layer bn4e_branch2c
I0625 14:59:42.995911  6673 net.cpp:100] Creating Layer bn4e_branch2c
I0625 14:59:42.995918  6673 net.cpp:444] bn4e_branch2c <- res4e_branch2c
I0625 14:59:42.995929  6673 net.cpp:405] bn4e_branch2c -> res4e_branch2c (in-place)
I0625 14:59:42.996209  6673 net.cpp:150] Setting up bn4e_branch2c
I0625 14:59:42.996215  6673 net.cpp:157] Top shape: 1 1024 60 80 (4915200)
I0625 14:59:42.996217  6673 net.cpp:165] Memory required for data: 5156044884
I0625 14:59:42.996230  6673 layer_factory.hpp:77] Creating layer scale4e_branch2c
I0625 14:59:42.996242  6673 net.cpp:100] Creating Layer scale4e_branch2c
I0625 14:59:42.996246  6673 net.cpp:444] scale4e_branch2c <- res4e_branch2c
I0625 14:59:42.996256  6673 net.cpp:405] scale4e_branch2c -> res4e_branch2c (in-place)
I0625 14:59:42.996314  6673 layer_factory.hpp:77] Creating layer scale4e_branch2c
I0625 14:59:42.996502  6673 net.cpp:150] Setting up scale4e_branch2c
I0625 14:59:42.996508  6673 net.cpp:157] Top shape: 1 1024 60 80 (4915200)
I0625 14:59:42.996510  6673 net.cpp:165] Memory required for data: 5175705684
I0625 14:59:42.996520  6673 layer_factory.hpp:77] Creating layer res4e
I0625 14:59:42.996528  6673 net.cpp:100] Creating Layer res4e
I0625 14:59:42.996533  6673 net.cpp:444] res4e <- res4d_res4d_relu_0_split_1
I0625 14:59:42.996541  6673 net.cpp:444] res4e <- res4e_branch2c
I0625 14:59:42.996549  6673 net.cpp:418] res4e -> res4e
I0625 14:59:42.996588  6673 net.cpp:150] Setting up res4e
I0625 14:59:42.996594  6673 net.cpp:157] Top shape: 1 1024 60 80 (4915200)
I0625 14:59:42.996598  6673 net.cpp:165] Memory required for data: 5195366484
I0625 14:59:42.996600  6673 layer_factory.hpp:77] Creating layer res4e_relu
I0625 14:59:42.996608  6673 net.cpp:100] Creating Layer res4e_relu
I0625 14:59:42.996611  6673 net.cpp:444] res4e_relu <- res4e
I0625 14:59:42.996621  6673 net.cpp:405] res4e_relu -> res4e (in-place)
I0625 14:59:42.996758  6673 net.cpp:150] Setting up res4e_relu
I0625 14:59:42.996764  6673 net.cpp:157] Top shape: 1 1024 60 80 (4915200)
I0625 14:59:42.996767  6673 net.cpp:165] Memory required for data: 5215027284
I0625 14:59:42.996769  6673 layer_factory.hpp:77] Creating layer res4e_res4e_relu_0_split
I0625 14:59:42.996778  6673 net.cpp:100] Creating Layer res4e_res4e_relu_0_split
I0625 14:59:42.996783  6673 net.cpp:444] res4e_res4e_relu_0_split <- res4e
I0625 14:59:42.996793  6673 net.cpp:418] res4e_res4e_relu_0_split -> res4e_res4e_relu_0_split_0
I0625 14:59:42.996805  6673 net.cpp:418] res4e_res4e_relu_0_split -> res4e_res4e_relu_0_split_1
I0625 14:59:42.996860  6673 net.cpp:150] Setting up res4e_res4e_relu_0_split
I0625 14:59:42.996866  6673 net.cpp:157] Top shape: 1 1024 60 80 (4915200)
I0625 14:59:42.996870  6673 net.cpp:157] Top shape: 1 1024 60 80 (4915200)
I0625 14:59:42.996871  6673 net.cpp:165] Memory required for data: 5254348884
I0625 14:59:42.996875  6673 layer_factory.hpp:77] Creating layer res4f_branch2a
I0625 14:59:42.996886  6673 net.cpp:100] Creating Layer res4f_branch2a
I0625 14:59:42.996891  6673 net.cpp:444] res4f_branch2a <- res4e_res4e_relu_0_split_0
I0625 14:59:42.996902  6673 net.cpp:418] res4f_branch2a -> res4f_branch2a
I0625 14:59:42.998159  6673 cudnn_conv_layer.cpp:194] Reallocating workspace storage: 92952
I0625 14:59:42.998179  6673 net.cpp:150] Setting up res4f_branch2a
I0625 14:59:42.998186  6673 net.cpp:157] Top shape: 1 256 60 80 (1228800)
I0625 14:59:42.998188  6673 net.cpp:165] Memory required for data: 5259264084
I0625 14:59:42.998198  6673 layer_factory.hpp:77] Creating layer bn4f_branch2a
I0625 14:59:42.998209  6673 net.cpp:100] Creating Layer bn4f_branch2a
I0625 14:59:42.998214  6673 net.cpp:444] bn4f_branch2a <- res4f_branch2a
I0625 14:59:42.998225  6673 net.cpp:405] bn4f_branch2a -> res4f_branch2a (in-place)
I0625 14:59:42.998497  6673 net.cpp:150] Setting up bn4f_branch2a
I0625 14:59:42.998502  6673 net.cpp:157] Top shape: 1 256 60 80 (1228800)
I0625 14:59:42.998504  6673 net.cpp:165] Memory required for data: 5264179284
I0625 14:59:42.998517  6673 layer_factory.hpp:77] Creating layer scale4f_branch2a
I0625 14:59:42.998528  6673 net.cpp:100] Creating Layer scale4f_branch2a
I0625 14:59:42.998533  6673 net.cpp:444] scale4f_branch2a <- res4f_branch2a
I0625 14:59:42.998543  6673 net.cpp:405] scale4f_branch2a -> res4f_branch2a (in-place)
I0625 14:59:42.998601  6673 layer_factory.hpp:77] Creating layer scale4f_branch2a
I0625 14:59:42.998781  6673 net.cpp:150] Setting up scale4f_branch2a
I0625 14:59:42.998788  6673 net.cpp:157] Top shape: 1 256 60 80 (1228800)
I0625 14:59:42.998790  6673 net.cpp:165] Memory required for data: 5269094484
I0625 14:59:42.998798  6673 layer_factory.hpp:77] Creating layer res4f_branch2a_relu
I0625 14:59:42.998807  6673 net.cpp:100] Creating Layer res4f_branch2a_relu
I0625 14:59:42.998811  6673 net.cpp:444] res4f_branch2a_relu <- res4f_branch2a
I0625 14:59:42.998821  6673 net.cpp:405] res4f_branch2a_relu -> res4f_branch2a (in-place)
I0625 14:59:42.998962  6673 net.cpp:150] Setting up res4f_branch2a_relu
I0625 14:59:42.998970  6673 net.cpp:157] Top shape: 1 256 60 80 (1228800)
I0625 14:59:42.998971  6673 net.cpp:165] Memory required for data: 5274009684
I0625 14:59:42.998975  6673 layer_factory.hpp:77] Creating layer res4f_branch2b
I0625 14:59:42.998986  6673 net.cpp:100] Creating Layer res4f_branch2b
I0625 14:59:42.998991  6673 net.cpp:444] res4f_branch2b <- res4f_branch2a
I0625 14:59:42.999004  6673 net.cpp:418] res4f_branch2b -> res4f_branch2b
I0625 14:59:43.001497  6673 cudnn_conv_layer.cpp:194] Reallocating workspace storage: 12582912
I0625 14:59:43.001768  6673 net.cpp:150] Setting up res4f_branch2b
I0625 14:59:43.001780  6673 net.cpp:157] Top shape: 1 256 60 80 (1228800)
I0625 14:59:43.001783  6673 net.cpp:165] Memory required for data: 5278924884
I0625 14:59:43.001796  6673 layer_factory.hpp:77] Creating layer bn4f_branch2b
I0625 14:59:43.001813  6673 net.cpp:100] Creating Layer bn4f_branch2b
I0625 14:59:43.001819  6673 net.cpp:444] bn4f_branch2b <- res4f_branch2b
I0625 14:59:43.001833  6673 net.cpp:405] bn4f_branch2b -> res4f_branch2b (in-place)
I0625 14:59:43.002120  6673 net.cpp:150] Setting up bn4f_branch2b
I0625 14:59:43.002125  6673 net.cpp:157] Top shape: 1 256 60 80 (1228800)
I0625 14:59:43.002128  6673 net.cpp:165] Memory required for data: 5283840084
I0625 14:59:43.002141  6673 layer_factory.hpp:77] Creating layer scale4f_branch2b
I0625 14:59:43.002152  6673 net.cpp:100] Creating Layer scale4f_branch2b
I0625 14:59:43.002157  6673 net.cpp:444] scale4f_branch2b <- res4f_branch2b
I0625 14:59:43.002167  6673 net.cpp:405] scale4f_branch2b -> res4f_branch2b (in-place)
I0625 14:59:43.002229  6673 layer_factory.hpp:77] Creating layer scale4f_branch2b
I0625 14:59:43.002413  6673 net.cpp:150] Setting up scale4f_branch2b
I0625 14:59:43.002418  6673 net.cpp:157] Top shape: 1 256 60 80 (1228800)
I0625 14:59:43.002421  6673 net.cpp:165] Memory required for data: 5288755284
I0625 14:59:43.002430  6673 layer_factory.hpp:77] Creating layer res4f_branch2b_relu
I0625 14:59:43.002439  6673 net.cpp:100] Creating Layer res4f_branch2b_relu
I0625 14:59:43.002444  6673 net.cpp:444] res4f_branch2b_relu <- res4f_branch2b
I0625 14:59:43.002454  6673 net.cpp:405] res4f_branch2b_relu -> res4f_branch2b (in-place)
I0625 14:59:43.002600  6673 net.cpp:150] Setting up res4f_branch2b_relu
I0625 14:59:43.002606  6673 net.cpp:157] Top shape: 1 256 60 80 (1228800)
I0625 14:59:43.002609  6673 net.cpp:165] Memory required for data: 5293670484
I0625 14:59:43.002611  6673 layer_factory.hpp:77] Creating layer res4f_branch2c
I0625 14:59:43.002625  6673 net.cpp:100] Creating Layer res4f_branch2c
I0625 14:59:43.002630  6673 net.cpp:444] res4f_branch2c <- res4f_branch2b
I0625 14:59:43.002642  6673 net.cpp:418] res4f_branch2c -> res4f_branch2c
I0625 14:59:43.004629  6673 cudnn_conv_layer.cpp:194] Reallocating workspace storage: 92952
I0625 14:59:43.004654  6673 net.cpp:150] Setting up res4f_branch2c
I0625 14:59:43.004662  6673 net.cpp:157] Top shape: 1 1024 60 80 (4915200)
I0625 14:59:43.004664  6673 net.cpp:165] Memory required for data: 5313331284
I0625 14:59:43.004673  6673 layer_factory.hpp:77] Creating layer bn4f_branch2c
I0625 14:59:43.004685  6673 net.cpp:100] Creating Layer bn4f_branch2c
I0625 14:59:43.004691  6673 net.cpp:444] bn4f_branch2c <- res4f_branch2c
I0625 14:59:43.004703  6673 net.cpp:405] bn4f_branch2c -> res4f_branch2c (in-place)
I0625 14:59:43.004987  6673 net.cpp:150] Setting up bn4f_branch2c
I0625 14:59:43.004993  6673 net.cpp:157] Top shape: 1 1024 60 80 (4915200)
I0625 14:59:43.004995  6673 net.cpp:165] Memory required for data: 5332992084
I0625 14:59:43.005038  6673 layer_factory.hpp:77] Creating layer scale4f_branch2c
I0625 14:59:43.005051  6673 net.cpp:100] Creating Layer scale4f_branch2c
I0625 14:59:43.005056  6673 net.cpp:444] scale4f_branch2c <- res4f_branch2c
I0625 14:59:43.005066  6673 net.cpp:405] scale4f_branch2c -> res4f_branch2c (in-place)
I0625 14:59:43.005123  6673 layer_factory.hpp:77] Creating layer scale4f_branch2c
I0625 14:59:43.005313  6673 net.cpp:150] Setting up scale4f_branch2c
I0625 14:59:43.005319  6673 net.cpp:157] Top shape: 1 1024 60 80 (4915200)
I0625 14:59:43.005321  6673 net.cpp:165] Memory required for data: 5352652884
I0625 14:59:43.005329  6673 layer_factory.hpp:77] Creating layer res4f
I0625 14:59:43.005338  6673 net.cpp:100] Creating Layer res4f
I0625 14:59:43.005343  6673 net.cpp:444] res4f <- res4e_res4e_relu_0_split_1
I0625 14:59:43.005352  6673 net.cpp:444] res4f <- res4f_branch2c
I0625 14:59:43.005359  6673 net.cpp:418] res4f -> res4f
I0625 14:59:43.005398  6673 net.cpp:150] Setting up res4f
I0625 14:59:43.005404  6673 net.cpp:157] Top shape: 1 1024 60 80 (4915200)
I0625 14:59:43.005406  6673 net.cpp:165] Memory required for data: 5372313684
I0625 14:59:43.005409  6673 layer_factory.hpp:77] Creating layer res4f_relu
I0625 14:59:43.005417  6673 net.cpp:100] Creating Layer res4f_relu
I0625 14:59:43.005421  6673 net.cpp:444] res4f_relu <- res4f
I0625 14:59:43.005429  6673 net.cpp:405] res4f_relu -> res4f (in-place)
I0625 14:59:43.005831  6673 net.cpp:150] Setting up res4f_relu
I0625 14:59:43.005838  6673 net.cpp:157] Top shape: 1 1024 60 80 (4915200)
I0625 14:59:43.005841  6673 net.cpp:165] Memory required for data: 5391974484
I0625 14:59:43.005846  6673 layer_factory.hpp:77] Creating layer res4f_res4f_relu_0_split
I0625 14:59:43.005854  6673 net.cpp:100] Creating Layer res4f_res4f_relu_0_split
I0625 14:59:43.005859  6673 net.cpp:444] res4f_res4f_relu_0_split <- res4f
I0625 14:59:43.005872  6673 net.cpp:418] res4f_res4f_relu_0_split -> res4f_res4f_relu_0_split_0
I0625 14:59:43.005884  6673 net.cpp:418] res4f_res4f_relu_0_split -> res4f_res4f_relu_0_split_1
I0625 14:59:43.005893  6673 net.cpp:418] res4f_res4f_relu_0_split -> res4f_res4f_relu_0_split_2
I0625 14:59:43.005970  6673 net.cpp:150] Setting up res4f_res4f_relu_0_split
I0625 14:59:43.005976  6673 net.cpp:157] Top shape: 1 1024 60 80 (4915200)
I0625 14:59:43.005980  6673 net.cpp:157] Top shape: 1 1024 60 80 (4915200)
I0625 14:59:43.005982  6673 net.cpp:157] Top shape: 1 1024 60 80 (4915200)
I0625 14:59:43.005985  6673 net.cpp:165] Memory required for data: 5450956884
I0625 14:59:43.005987  6673 layer_factory.hpp:77] Creating layer res5a_branch1
I0625 14:59:43.006000  6673 net.cpp:100] Creating Layer res5a_branch1
I0625 14:59:43.006005  6673 net.cpp:444] res5a_branch1 <- res4f_res4f_relu_0_split_0
I0625 14:59:43.006016  6673 net.cpp:418] res5a_branch1 -> res5a_branch1
I0625 14:59:43.011703  6673 cudnn_conv_layer.cpp:194] Reallocating workspace storage: 86424
I0625 14:59:43.011739  6673 net.cpp:150] Setting up res5a_branch1
I0625 14:59:43.011754  6673 net.cpp:157] Top shape: 1 2048 60 80 (9830400)
I0625 14:59:43.011756  6673 net.cpp:165] Memory required for data: 5490278484
I0625 14:59:43.011776  6673 layer_factory.hpp:77] Creating layer bn5a_branch1
I0625 14:59:43.011802  6673 net.cpp:100] Creating Layer bn5a_branch1
I0625 14:59:43.011812  6673 net.cpp:444] bn5a_branch1 <- res5a_branch1
I0625 14:59:43.011829  6673 net.cpp:405] bn5a_branch1 -> res5a_branch1 (in-place)
I0625 14:59:43.012133  6673 net.cpp:150] Setting up bn5a_branch1
I0625 14:59:43.012140  6673 net.cpp:157] Top shape: 1 2048 60 80 (9830400)
I0625 14:59:43.012142  6673 net.cpp:165] Memory required for data: 5529600084
I0625 14:59:43.012156  6673 layer_factory.hpp:77] Creating layer scale5a_branch1
I0625 14:59:43.012169  6673 net.cpp:100] Creating Layer scale5a_branch1
I0625 14:59:43.012173  6673 net.cpp:444] scale5a_branch1 <- res5a_branch1
I0625 14:59:43.012184  6673 net.cpp:405] scale5a_branch1 -> res5a_branch1 (in-place)
I0625 14:59:43.012246  6673 layer_factory.hpp:77] Creating layer scale5a_branch1
I0625 14:59:43.012440  6673 net.cpp:150] Setting up scale5a_branch1
I0625 14:59:43.012447  6673 net.cpp:157] Top shape: 1 2048 60 80 (9830400)
I0625 14:59:43.012449  6673 net.cpp:165] Memory required for data: 5568921684
I0625 14:59:43.012459  6673 layer_factory.hpp:77] Creating layer res5a_branch2a
…
I0627 10:43:58.125797 23737 net.cpp:150] Setting up res4e_branch2c
I0627 10:43:58.125808 23737 net.cpp:157] Top shape: 1 1024 14 14 (200704)
I0627 10:43:58.125813 23737 net.cpp:165] Memory required for data: 208531468
I0627 10:43:58.125828 23737 layer_factory.hpp:77] Creating layer bn4e_branch2c
I0627 10:43:58.125847 23737 net.cpp:100] Creating Layer bn4e_branch2c
I0627 10:43:58.125856 23737 net.cpp:444] bn4e_branch2c <- res4e_branch2c
I0627 10:43:58.125874 23737 net.cpp:405] bn4e_branch2c -> res4e_branch2c (in-place)
I0627 10:43:58.126201 23737 net.cpp:150] Setting up bn4e_branch2c
I0627 10:43:58.126210 23737 net.cpp:157] Top shape: 1 1024 14 14 (200704)
I0627 10:43:58.126214 23737 net.cpp:165] Memory required for data: 209334284
I0627 10:43:58.126235 23737 layer_factory.hpp:77] Creating layer scale4e_branch2c
I0627 10:43:58.126251 23737 net.cpp:100] Creating Layer scale4e_branch2c
I0627 10:43:58.126260 23737 net.cpp:444] scale4e_branch2c <- res4e_branch2c
I0627 10:43:58.126277 23737 net.cpp:405] scale4e_branch2c -> res4e_branch2c (in-place)
I0627 10:43:58.126350 23737 layer_factory.hpp:77] Creating layer scale4e_branch2c
I0627 10:43:58.126560 23737 net.cpp:150] Setting up scale4e_branch2c
I0627 10:43:58.126569 23737 net.cpp:157] Top shape: 1 1024 14 14 (200704)
I0627 10:43:58.126572 23737 net.cpp:165] Memory required for data: 210137100
I0627 10:43:58.126587 23737 layer_factory.hpp:77] Creating layer res4e
I0627 10:43:58.126600 23737 net.cpp:100] Creating Layer res4e
I0627 10:43:58.126610 23737 net.cpp:444] res4e <- res4d_res4d_relu_0_split_1
I0627 10:43:58.126622 23737 net.cpp:444] res4e <- res4e_branch2c
I0627 10:43:58.126636 23737 net.cpp:418] res4e -> res4e
I0627 10:43:58.126688 23737 net.cpp:150] Setting up res4e
I0627 10:43:58.126698 23737 net.cpp:157] Top shape: 1 1024 14 14 (200704)
I0627 10:43:58.126703 23737 net.cpp:165] Memory required for data: 210939916
I0627 10:43:58.126708 23737 layer_factory.hpp:77] Creating layer res4e_relu
I0627 10:43:58.126720 23737 net.cpp:100] Creating Layer res4e_relu
I0627 10:43:58.126729 23737 net.cpp:444] res4e_relu <- res4e
I0627 10:43:58.126744 23737 net.cpp:405] res4e_relu -> res4e (in-place)
I0627 10:43:58.126921 23737 net.cpp:150] Setting up res4e_relu
I0627 10:43:58.126930 23737 net.cpp:157] Top shape: 1 1024 14 14 (200704)
I0627 10:43:58.126935 23737 net.cpp:165] Memory required for data: 211742732
I0627 10:43:58.126940 23737 layer_factory.hpp:77] Creating layer res4e_res4e_relu_0_split
I0627 10:43:58.126955 23737 net.cpp:100] Creating Layer res4e_res4e_relu_0_split
I0627 10:43:58.126961 23737 net.cpp:444] res4e_res4e_relu_0_split <- res4e
I0627 10:43:58.126979 23737 net.cpp:418] res4e_res4e_relu_0_split -> res4e_res4e_relu_0_split_0
I0627 10:43:58.126998 23737 net.cpp:418] res4e_res4e_relu_0_split -> res4e_res4e_relu_0_split_1
I0627 10:43:58.127069 23737 net.cpp:150] Setting up res4e_res4e_relu_0_split
I0627 10:43:58.127079 23737 net.cpp:157] Top shape: 1 1024 14 14 (200704)
I0627 10:43:58.127086 23737 net.cpp:157] Top shape: 1 1024 14 14 (200704)
I0627 10:43:58.127090 23737 net.cpp:165] Memory required for data: 213348364
I0627 10:43:58.127095 23737 layer_factory.hpp:77] Creating layer res4f_branch2a
I0627 10:43:58.127115 23737 net.cpp:100] Creating Layer res4f_branch2a
I0627 10:43:58.127122 23737 net.cpp:444] res4f_branch2a <- res4e_res4e_relu_0_split_0
I0627 10:43:58.127140 23737 net.cpp:418] res4f_branch2a -> res4f_branch2a
I0627 10:43:58.128655 23737 cudnn_conv_layer.cpp:194] Reallocating workspace storage: 10080
I0627 10:43:58.128684 23737 net.cpp:150] Setting up res4f_branch2a
I0627 10:43:58.128695 23737 net.cpp:157] Top shape: 1 256 14 14 (50176)
I0627 10:43:58.128700 23737 net.cpp:165] Memory required for data: 213549068
I0627 10:43:58.128712 23737 layer_factory.hpp:77] Creating layer bn4f_branch2a
I0627 10:43:58.128731 23737 net.cpp:100] Creating Layer bn4f_branch2a
I0627 10:43:58.128738 23737 net.cpp:444] bn4f_branch2a <- res4f_branch2a
I0627 10:43:58.128756 23737 net.cpp:405] bn4f_branch2a -> res4f_branch2a (in-place)
I0627 10:43:58.129077 23737 net.cpp:150] Setting up bn4f_branch2a
I0627 10:43:58.129086 23737 net.cpp:157] Top shape: 1 256 14 14 (50176)
I0627 10:43:58.129091 23737 net.cpp:165] Memory required for data: 213749772
I0627 10:43:58.129110 23737 layer_factory.hpp:77] Creating layer scale4f_branch2a
I0627 10:43:58.129128 23737 net.cpp:100] Creating Layer scale4f_branch2a
I0627 10:43:58.129135 23737 net.cpp:444] scale4f_branch2a <- res4f_branch2a
I0627 10:43:58.129153 23737 net.cpp:405] scale4f_branch2a -> res4f_branch2a (in-place)
I0627 10:43:58.129230 23737 layer_factory.hpp:77] Creating layer scale4f_branch2a
I0627 10:43:58.129429 23737 net.cpp:150] Setting up scale4f_branch2a
I0627 10:43:58.129439 23737 net.cpp:157] Top shape: 1 256 14 14 (50176)
I0627 10:43:58.129443 23737 net.cpp:165] Memory required for data: 213950476
I0627 10:43:58.129457 23737 layer_factory.hpp:77] Creating layer res4f_branch2a_relu
I0627 10:43:58.129470 23737 net.cpp:100] Creating Layer res4f_branch2a_relu
I0627 10:43:58.129478 23737 net.cpp:444] res4f_branch2a_relu <- res4f_branch2a
I0627 10:43:58.129493 23737 net.cpp:405] res4f_branch2a_relu -> res4f_branch2a (in-place)
I0627 10:43:58.129662 23737 net.cpp:150] Setting up res4f_branch2a_relu
I0627 10:43:58.129671 23737 net.cpp:157] Top shape: 1 256 14 14 (50176)
I0627 10:43:58.129675 23737 net.cpp:165] Memory required for data: 214151180
I0627 10:43:58.129683 23737 layer_factory.hpp:77] Creating layer res4f_branch2b
I0627 10:43:58.129700 23737 net.cpp:100] Creating Layer res4f_branch2b
I0627 10:43:58.129707 23737 net.cpp:444] res4f_branch2b <- res4f_branch2a
I0627 10:43:58.129727 23737 net.cpp:418] res4f_branch2b -> res4f_branch2b
I0627 10:43:58.132679 23737 cudnn_conv_layer.cpp:194] Reallocating workspace storage: 12582912
I0627 10:43:58.133003 23737 net.cpp:150] Setting up res4f_branch2b
I0627 10:43:58.133019 23737 net.cpp:157] Top shape: 1 256 14 14 (50176)
I0627 10:43:58.133023 23737 net.cpp:165] Memory required for data: 214351884
I0627 10:43:58.133040 23737 layer_factory.hpp:77] Creating layer bn4f_branch2b
I0627 10:43:58.133062 23737 net.cpp:100] Creating Layer bn4f_branch2b
I0627 10:43:58.133072 23737 net.cpp:444] bn4f_branch2b <- res4f_branch2b
I0627 10:43:58.133092 23737 net.cpp:405] bn4f_branch2b -> res4f_branch2b (in-place)
I0627 10:43:58.133421 23737 net.cpp:150] Setting up bn4f_branch2b
I0627 10:43:58.133431 23737 net.cpp:157] Top shape: 1 256 14 14 (50176)
I0627 10:43:58.133436 23737 net.cpp:165] Memory required for data: 214552588
I0627 10:43:58.133456 23737 layer_factory.hpp:77] Creating layer scale4f_branch2b
I0627 10:43:58.133473 23737 net.cpp:100] Creating Layer scale4f_branch2b
I0627 10:43:58.133481 23737 net.cpp:444] scale4f_branch2b <- res4f_branch2b
I0627 10:43:58.133498 23737 net.cpp:405] scale4f_branch2b -> res4f_branch2b (in-place)
I0627 10:43:58.133577 23737 layer_factory.hpp:77] Creating layer scale4f_branch2b
I0627 10:43:58.133786 23737 net.cpp:150] Setting up scale4f_branch2b
I0627 10:43:58.133795 23737 net.cpp:157] Top shape: 1 256 14 14 (50176)
I0627 10:43:58.133800 23737 net.cpp:165] Memory required for data: 214753292
I0627 10:43:58.133816 23737 layer_factory.hpp:77] Creating layer res4f_branch2b_relu
I0627 10:43:58.133831 23737 net.cpp:100] Creating Layer res4f_branch2b_relu
I0627 10:43:58.133837 23737 net.cpp:444] res4f_branch2b_relu <- res4f_branch2b
I0627 10:43:58.133852 23737 net.cpp:405] res4f_branch2b_relu -> res4f_branch2b (in-place)
I0627 10:43:58.134025 23737 net.cpp:150] Setting up res4f_branch2b_relu
I0627 10:43:58.134035 23737 net.cpp:157] Top shape: 1 256 14 14 (50176)
I0627 10:43:58.134038 23737 net.cpp:165] Memory required for data: 214953996
I0627 10:43:58.134047 23737 layer_factory.hpp:77] Creating layer res4f_branch2c
I0627 10:43:58.134066 23737 net.cpp:100] Creating Layer res4f_branch2c
I0627 10:43:58.134074 23737 net.cpp:444] res4f_branch2c <- res4f_branch2b
I0627 10:43:58.134093 23737 net.cpp:418] res4f_branch2c -> res4f_branch2c
I0627 10:43:58.136498 23737 cudnn_conv_layer.cpp:194] Reallocating workspace storage: 10080
I0627 10:43:58.136530 23737 net.cpp:150] Setting up res4f_branch2c
I0627 10:43:58.136544 23737 net.cpp:157] Top shape: 1 1024 14 14 (200704)
I0627 10:43:58.136548 23737 net.cpp:165] Memory required for data: 215756812
I0627 10:43:58.136564 23737 layer_factory.hpp:77] Creating layer bn4f_branch2c
I0627 10:43:58.136585 23737 net.cpp:100] Creating Layer bn4f_branch2c
I0627 10:43:58.136595 23737 net.cpp:444] bn4f_branch2c <- res4f_branch2c
I0627 10:43:58.136613 23737 net.cpp:405] bn4f_branch2c -> res4f_branch2c (in-place)
I0627 10:43:58.136946 23737 net.cpp:150] Setting up bn4f_branch2c
I0627 10:43:58.136955 23737 net.cpp:157] Top shape: 1 1024 14 14 (200704)
I0627 10:43:58.136958 23737 net.cpp:165] Memory required for data: 216559628
I0627 10:43:58.137019 23737 layer_factory.hpp:77] Creating layer scale4f_branch2c
I0627 10:43:58.137038 23737 net.cpp:100] Creating Layer scale4f_branch2c
I0627 10:43:58.137046 23737 net.cpp:444] scale4f_branch2c <- res4f_branch2c
I0627 10:43:58.137063 23737 net.cpp:405] scale4f_branch2c -> res4f_branch2c (in-place)
I0627 10:43:58.137137 23737 layer_factory.hpp:77] Creating layer scale4f_branch2c
I0627 10:43:58.137352 23737 net.cpp:150] Setting up scale4f_branch2c
I0627 10:43:58.137362 23737 net.cpp:157] Top shape: 1 1024 14 14 (200704)
I0627 10:43:58.137364 23737 net.cpp:165] Memory required for data: 217362444
I0627 10:43:58.137379 23737 layer_factory.hpp:77] Creating layer res4f
I0627 10:43:58.137393 23737 net.cpp:100] Creating Layer res4f
I0627 10:43:58.137401 23737 net.cpp:444] res4f <- res4e_res4e_relu_0_split_1
I0627 10:43:58.137415 23737 net.cpp:444] res4f <- res4f_branch2c
I0627 10:43:58.137428 23737 net.cpp:418] res4f -> res4f
I0627 10:43:58.137480 23737 net.cpp:150] Setting up res4f
I0627 10:43:58.137490 23737 net.cpp:157] Top shape: 1 1024 14 14 (200704)
I0627 10:43:58.137495 23737 net.cpp:165] Memory required for data: 218165260
I0627 10:43:58.137501 23737 layer_factory.hpp:77] Creating layer res4f_relu
I0627 10:43:58.137513 23737 net.cpp:100] Creating Layer res4f_relu
I0627 10:43:58.137521 23737 net.cpp:444] res4f_relu <- res4f
I0627 10:43:58.137536 23737 net.cpp:405] res4f_relu -> res4f (in-place)
I0627 10:43:58.138046 23737 net.cpp:150] Setting up res4f_relu
I0627 10:43:58.138058 23737 net.cpp:157] Top shape: 1 1024 14 14 (200704)
I0627 10:43:58.138062 23737 net.cpp:165] Memory required for data: 218968076
I0627 10:43:58.138068 23737 layer_factory.hpp:77] Creating layer res4f_res4f_relu_0_split
I0627 10:43:58.138084 23737 net.cpp:100] Creating Layer res4f_res4f_relu_0_split
I0627 10:43:58.138092 23737 net.cpp:444] res4f_res4f_relu_0_split <- res4f
I0627 10:43:58.138110 23737 net.cpp:418] res4f_res4f_relu_0_split -> res4f_res4f_relu_0_split_0
I0627 10:43:58.138130 23737 net.cpp:418] res4f_res4f_relu_0_split -> res4f_res4f_relu_0_split_1
I0627 10:43:58.138146 23737 net.cpp:418] res4f_res4f_relu_0_split -> res4f_res4f_relu_0_split_2
I0627 10:43:58.138247 23737 net.cpp:150] Setting up res4f_res4f_relu_0_split
I0627 10:43:58.138258 23737 net.cpp:157] Top shape: 1 1024 14 14 (200704)
I0627 10:43:58.138265 23737 net.cpp:157] Top shape: 1 1024 14 14 (200704)
I0627 10:43:58.138270 23737 net.cpp:157] Top shape: 1 1024 14 14 (200704)
I0627 10:43:58.138274 23737 net.cpp:165] Memory required for data: 221376524
I0627 10:43:58.138279 23737 layer_factory.hpp:77] Creating layer res5a_branch1
I0627 10:43:58.138301 23737 net.cpp:100] Creating Layer res5a_branch1
I0627 10:43:58.138309 23737 net.cpp:444] res5a_branch1 <- res4f_res4f_relu_0_split_0
I0627 10:43:58.138327 23737 net.cpp:418] res5a_branch1 -> res5a_branch1
I0627 10:43:58.145140 23737 cudnn_conv_layer.cpp:194] Reallocating workspace storage: 8568
I0627 10:43:58.145182 23737 net.cpp:150] Setting up res5a_branch1
I0627 10:43:58.145200 23737 net.cpp:157] Top shape: 1 2048 14 14 (401408)
I0627 10:43:58.145205 23737 net.cpp:165] Memory required for data: 222982156
I0627 10:43:58.145228 23737 layer_factory.hpp:77] Creating layer bn5a_branch1
I0627 10:43:58.145262 23737 net.cpp:100] Creating Layer bn5a_branch1
I0627 10:43:58.145273 23737 net.cpp:444] bn5a_branch1 <- res5a_branch1
I0627 10:43:58.145298 23737 net.cpp:405] bn5a_branch1 -> res5a_branch1 (in-place)
I0627 10:43:58.145665 23737 net.cpp:150] Setting up bn5a_branch1
I0627 10:43:58.145674 23737 net.cpp:157] Top shape: 1 2048 14 14 (401408)
I0627 10:43:58.145679 23737 net.cpp:165] Memory required for data: 224587788
I0627 10:43:58.145700 23737 layer_factory.hpp:77] Creating layer scale5a_branch1
I0627 10:43:58.145718 23737 net.cpp:100] Creating Layer scale5a_branch1
I0627 10:43:58.145725 23737 net.cpp:444] scale5a_branch1 <- res5a_branch1
I0627 10:43:58.145742 23737 net.cpp:405] scale5a_branch1 -> res5a_branch1 (in-place)
I0627 10:43:58.145820 23737 layer_factory.hpp:77] Creating layer scale5a_branch1
I0627 10:43:58.146041 23737 net.cpp:150] Setting up scale5a_branch1
I0627 10:43:58.146050 23737 net.cpp:157] Top shape: 1 2048 14 14 (401408)
I0627 10:43:58.146054 23737 net.cpp:165] Memory required for data: 226193420
I0627 10:43:58.146070 23737 layer_factory.hpp:77] Creating layer res5a_branch2a
I0627 10:43:58.146090 23737 net.cpp:100] Creating Layer res5a_branch2a
I0627 10:43:58.146098 23737 net.cpp:444] res5a_branch2a <- res4f_res4f_relu_0_split_1
I0627 10:43:58.146116 23737 net.cpp:418] res5a_branch2a -> res5a_branch2a
I0627 10:43:58.149273 23737 cudnn_conv_layer.cpp:194] Reallocating workspace storage: 10080
I0627 10:43:58.149305 23737 net.cpp:150] Setting up res5a_branch2a
I0627 10:43:58.149318 23737 net.cpp:157] Top shape: 1 512 14 14 (100352)
I0627 10:43:58.149322 23737 net.cpp:165] Memory required for data: 226594828
I0627 10:43:58.149338 23737 layer_factory.hpp:77] Creating layer bn5a_branch2a
I0627 10:43:58.149358 23737 net.cpp:100] Creating Layer bn5a_branch2a
I0627 10:43:58.149366 23737 net.cpp:444] bn5a_branch2a <- res5a_branch2a
I0627 10:43:58.149384 23737 net.cpp:405] bn5a_branch2a -> res5a_branch2a (in-place)
I0627 10:43:58.149721 23737 net.cpp:150] Setting up bn5a_branch2a
I0627 10:43:58.149729 23737 net.cpp:157] Top shape: 1 512 14 14 (100352)
I0627 10:43:58.149734 23737 net.cpp:165] Memory required for data: 226996236
I0627 10:43:58.149755 23737 layer_factory.hpp:77] Creating layer scale5a_branch2a
I0627 10:43:58.149772 23737 net.cpp:100] Creating Layer scale5a_branch2a
I0627 10:43:58.149780 23737 net.cpp:444] scale5a_branch2a <- res5a_branch2a
I0627 10:43:58.149796 23737 net.cpp:405] scale5a_branch2a -> res5a_branch2a (in-place)
I0627 10:43:58.149871 23737 layer_factory.hpp:77] Creating layer scale5a_branch2a
I0627 10:43:58.150082 23737 net.cpp:150] Setting up scale5a_branch2a
I0627 10:43:58.150091 23737 net.cpp:157] Top shape: 1 512 14 14 (100352)
I0627 10:43:58.150094 23737 net.cpp:165] Memory required for data: 227397644
I0627 10:43:58.150110 23737 layer_factory.hpp:77] Creating layer res5a_branch2a_relu
I0627 10:43:58.150122 23737 net.cpp:100] Creating Layer res5a_branch2a_relu
I0627 10:43:58.150130 23737 net.cpp:444] res5a_branch2a_relu <- res5a_branch2a
I0627 10:43:58.150146 23737 net.cpp:405] res5a_branch2a_relu -> res5a_branch2a (in-place)
I0627 10:43:58.150315 23737 net.cpp:150] Setting up res5a_branch2a_relu
I0627 10:43:58.150323 23737 net.cpp:157] Top shape: 1 512 14 14 (100352)
I0627 10:43:58.150326 23737 net.cpp:165] Memory required for data: 227799052
I0627 10:43:58.150333 23737 layer_factory.hpp:77] Creating layer res5a_branch2b
I0627 10:43:58.150352 23737 net.cpp:100] Creating Layer res5a_branch2b
I0627 10:43:58.150360 23737 net.cpp:444] res5a_branch2b <- res5a_branch2a
I0627 10:43:58.150378 23737 net.cpp:418] res5a_branch2b -> res5a_branch2b
I0627 10:43:58.156919 23737 net.cpp:150] Setting up res5a_branch2b
I0627 10:43:58.156953 23737 net.cpp:157] Top shape: 1 512 14 14 (100352)
I0627 10:43:58.156957 23737 net.cpp:165] Memory required for data: 228200460
I0627 10:43:58.156982 23737 layer_factory.hpp:77] Creating layer bn5a_branch2b
I0627 10:43:58.157018 23737 net.cpp:100] Creating Layer bn5a_branch2b
I0627 10:43:58.157032 23737 net.cpp:444] bn5a_branch2b <- res5a_branch2b
I0627 10:43:58.157057 23737 net.cpp:405] bn5a_branch2b -> res5a_branch2b (in-place)
I0627 10:43:58.157424 23737 net.cpp:150] Setting up bn5a_branch2b
I0627 10:43:58.157434 23737 net.cpp:157] Top shape: 1 512 14 14 (100352)
I0627 10:43:58.157438 23737 net.cpp:165] Memory required for data: 228601868
I0627 10:43:58.157459 23737 layer_factory.hpp:77] Creating layer scale5a_branch2b
I0627 10:43:58.157479 23737 net.cpp:100] Creating Layer scale5a_branch2b
I0627 10:43:58.157485 23737 net.cpp:444] scale5a_branch2b <- res5a_branch2b
I0627 10:43:58.157502 23737 net.cpp:405] scale5a_branch2b -> res5a_branch2b (in-place)
I0627 10:43:58.157582 23737 layer_factory.hpp:77] Creating layer scale5a_branch2b
I0627 10:43:58.157800 23737 net.cpp:150] Setting up scale5a_branch2b
I0627 10:43:58.157810 23737 net.cpp:157] Top shape: 1 512 14 14 (100352)
I0627 10:43:58.157815 23737 net.cpp:165] Memory required for data: 229003276
I0627 10:43:58.157829 23737 layer_factory.hpp:77] Creating layer res5a_branch2b_relu
I0627 10:43:58.157842 23737 net.cpp:100] Creating Layer res5a_branch2b_relu
I0627 10:43:58.157850 23737 net.cpp:444] res5a_branch2b_relu <- res5a_branch2b
I0627 10:43:58.157863 23737 net.cpp:405] res5a_branch2b_relu -> res5a_branch2b (in-place)
I0627 10:43:58.158073 23737 net.cpp:150] Setting up res5a_branch2b_relu
I0627 10:43:58.158082 23737 net.cpp:157] Top shape: 1 512 14 14 (100352)
I0627 10:43:58.158087 23737 net.cpp:165] Memory required for data: 229404684
I0627 10:43:58.158092 23737 layer_factory.hpp:77] Creating layer res5a_branch2c
I0627 10:43:58.158113 23737 net.cpp:100] Creating Layer res5a_branch2c
I0627 10:43:58.158120 23737 net.cpp:444] res5a_branch2c <- res5a_branch2b
I0627 10:43:58.158139 23737 net.cpp:418] res5a_branch2c -> res5a_branch2c
I0627 10:43:58.162343 23737 cudnn_conv_layer.cpp:194] Reallocating workspace storage: 7800
I0627 10:43:58.162380 23737 net.cpp:150] Setting up res5a_branch2c
I0627 10:43:58.162395 23737 net.cpp:157] Top shape: 1 2048 14 14 (401408)
I0627 10:43:58.162400 23737 net.cpp:165] Memory required for data: 231010316
I0627 10:43:58.162418 23737 layer_factory.hpp:77] Creating layer bn5a_branch2c
I0627 10:43:58.162441 23737 net.cpp:100] Creating Layer bn5a_branch2c
I0627 10:43:58.162452 23737 net.cpp:444] bn5a_branch2c <- res5a_branch2c
I0627 10:43:58.162473 23737 net.cpp:405] bn5a_branch2c -> res5a_branch2c (in-place)
I0627 10:43:58.162814 23737 net.cpp:150] Setting up bn5a_branch2c
I0627 10:43:58.162823 23737 net.cpp:157] Top shape: 1 2048 14 14 (401408)
I0627 10:43:58.162827 23737 net.cpp:165] Memory required for data: 232615948
I0627 10:43:58.162847 23737 layer_factory.hpp:77] Creating layer scale5a_branch2c
I0627 10:43:58.162871 23737 net.cpp:100] Creating Layer scale5a_branch2c
I0627 10:43:58.162889 23737 net.cpp:444] scale5a_branch2c <- res5a_branch2c
I0627 10:43:58.162906 23737 net.cpp:405] scale5a_branch2c -> res5a_branch2c (in-place)
I0627 10:43:58.162986 23737 layer_factory.hpp:77] Creating layer scale5a_branch2c
I0627 10:43:58.163205 23737 net.cpp:150] Setting up scale5a_branch2c
I0627 10:43:58.163214 23737 net.cpp:157] Top shape: 1 2048 14 14 (401408)
I0627 10:43:58.163218 23737 net.cpp:165] Memory required for data: 234221580
I0627 10:43:58.163233 23737 layer_factory.hpp:77] Creating layer res5a
I0627 10:43:58.163249 23737 net.cpp:100] Creating Layer res5a
I0627 10:43:58.163256 23737 net.cpp:444] res5a <- res5a_branch1
I0627 10:43:58.163269 23737 net.cpp:444] res5a <- res5a_branch2c
I0627 10:43:58.163281 23737 net.cpp:418] res5a -> res5a
I0627 10:43:58.163334 23737 net.cpp:150] Setting up res5a
I0627 10:43:58.163344 23737 net.cpp:157] Top shape: 1 2048 14 14 (401408)
I0627 10:43:58.163348 23737 net.cpp:165] Memory required for data: 235827212
I0627 10:43:58.163354 23737 layer_factory.hpp:77] Creating layer res5a_relu
I0627 10:43:58.163367 23737 net.cpp:100] Creating Layer res5a_relu
I0627 10:43:58.163372 23737 net.cpp:444] res5a_relu <- res5a
I0627 10:43:58.163388 23737 net.cpp:405] res5a_relu -> res5a (in-place)
I0627 10:43:58.163890 23737 net.cpp:150] Setting up res5a_relu
I0627 10:43:58.163902 23737 net.cpp:157] Top shape: 1 2048 14 14 (401408)
I0627 10:43:58.163904 23737 net.cpp:165] Memory required for data: 237432844
I0627 10:43:58.163911 23737 layer_factory.hpp:77] Creating layer res5a_res5a_relu_0_split
I0627 10:43:58.163926 23737 net.cpp:100] Creating Layer res5a_res5a_relu_0_split
I0627 10:43:58.163933 23737 net.cpp:444] res5a_res5a_relu_0_split <- res5a
I0627 10:43:58.163950 23737 net.cpp:418] res5a_res5a_relu_0_split -> res5a_res5a_relu_0_split_0
I0627 10:43:58.163969 23737 net.cpp:418] res5a_res5a_relu_0_split -> res5a_res5a_relu_0_split_1
I0627 10:43:58.164044 23737 net.cpp:150] Setting up res5a_res5a_relu_0_split
I0627 10:43:58.164054 23737 net.cpp:157] Top shape: 1 2048 14 14 (401408)
I0627 10:43:58.164062 23737 net.cpp:157] Top shape: 1 2048 14 14 (401408)
I0627 10:43:58.164065 23737 net.cpp:165] Memory required for data: 240644108
I0627 10:43:58.164070 23737 layer_factory.hpp:77] Creating layer res5b_branch2a
I0627 10:43:58.164090 23737 net.cpp:100] Creating Layer res5b_branch2a
I0627 10:43:58.164098 23737 net.cpp:444] res5b_branch2a <- res5a_res5a_relu_0_split_0
I0627 10:43:58.164115 23737 net.cpp:418] res5b_branch2a -> res5b_branch2a
I0627 10:43:58.168231 23737 cudnn_conv_layer.cpp:194] Reallocating workspace storage: 10080
I0627 10:43:58.168269 23737 net.cpp:150] Setting up res5b_branch2a
I0627 10:43:58.168283 23737 net.cpp:157] Top shape: 1 512 14 14 (100352)
I0627 10:43:58.168287 23737 net.cpp:165] Memory required for data: 241045516
I0627 10:43:58.168306 23737 layer_factory.hpp:77] Creating layer bn5b_branch2a
I0627 10:43:58.168334 23737 net.cpp:100] Creating Layer bn5b_branch2a
I0627 10:43:58.168344 23737 net.cpp:444] bn5b_branch2a <- res5b_branch2a
I0627 10:43:58.168365 23737 net.cpp:405] bn5b_branch2a -> res5b_branch2a (in-place)
I0627 10:43:58.168714 23737 net.cpp:150] Setting up bn5b_branch2a
I0627 10:43:58.168722 23737 net.cpp:157] Top shape: 1 512 14 14 (100352)
I0627 10:43:58.168726 23737 net.cpp:165] Memory required for data: 241446924
I0627 10:43:58.168750 23737 layer_factory.hpp:77] Creating layer scale5b_branch2a
I0627 10:43:58.168768 23737 net.cpp:100] Creating Layer scale5b_branch2a
I0627 10:43:58.168776 23737 net.cpp:444] scale5b_branch2a <- res5b_branch2a
I0627 10:43:58.168792 23737 net.cpp:405] scale5b_branch2a -> res5b_branch2a (in-place)
I0627 10:43:58.168870 23737 layer_factory.hpp:77] Creating layer scale5b_branch2a
I0627 10:43:58.169087 23737 net.cpp:150] Setting up scale5b_branch2a
I0627 10:43:58.169096 23737 net.cpp:157] Top shape: 1 512 14 14 (100352)
I0627 10:43:58.169100 23737 net.cpp:165] Memory required for data: 241848332
I0627 10:43:58.169114 23737 layer_factory.hpp:77] Creating layer res5b_branch2a_relu
I0627 10:43:58.169127 23737 net.cpp:100] Creating Layer res5b_branch2a_relu
I0627 10:43:58.169136 23737 net.cpp:444] res5b_branch2a_relu <- res5b_branch2a
I0627 10:43:58.169149 23737 net.cpp:405] res5b_branch2a_relu -> res5b_branch2a (in-place)
I0627 10:43:58.169322 23737 net.cpp:150] Setting up res5b_branch2a_relu
I0627 10:43:58.169330 23737 net.cpp:157] Top shape: 1 512 14 14 (100352)
I0627 10:43:58.169334 23737 net.cpp:165] Memory required for data: 242249740
I0627 10:43:58.169342 23737 layer_factory.hpp:77] Creating layer res5b_branch2b
I0627 10:43:58.169359 23737 net.cpp:100] Creating Layer res5b_branch2b
I0627 10:43:58.169368 23737 net.cpp:444] res5b_branch2b <- res5b_branch2a
I0627 10:43:58.169386 23737 net.cpp:418] res5b_branch2b -> res5b_branch2b
I0627 10:43:58.175850 23737 net.cpp:150] Setting up res5b_branch2b
I0627 10:43:58.175881 23737 net.cpp:157] Top shape: 1 512 14 14 (100352)
I0627 10:43:58.175885 23737 net.cpp:165] Memory required for data: 242651148
I0627 10:43:58.175911 23737 layer_factory.hpp:77] Creating layer bn5b_branch2b
I0627 10:43:58.175948 23737 net.cpp:100] Creating Layer bn5b_branch2b
I0627 10:43:58.175961 23737 net.cpp:444] bn5b_branch2b <- res5b_branch2b
I0627 10:43:58.175987 23737 net.cpp:405] bn5b_branch2b -> res5b_branch2b (in-place)
I0627 10:43:58.176348 23737 net.cpp:150] Setting up bn5b_branch2b
I0627 10:43:58.176357 23737 net.cpp:157] Top shape: 1 512 14 14 (100352)
I0627 10:43:58.176362 23737 net.cpp:165] Memory required for data: 243052556
I0627 10:43:58.176381 23737 layer_factory.hpp:77] Creating layer scale5b_branch2b
I0627 10:43:58.176400 23737 net.cpp:100] Creating Layer scale5b_branch2b
I0627 10:43:58.176409 23737 net.cpp:444] scale5b_branch2b <- res5b_branch2b
I0627 10:43:58.176425 23737 net.cpp:405] scale5b_branch2b -> res5b_branch2b (in-place)
I0627 10:43:58.176504 23737 layer_factory.hpp:77] Creating layer scale5b_branch2b
I0627 10:43:58.176724 23737 net.cpp:150] Setting up scale5b_branch2b
I0627 10:43:58.176733 23737 net.cpp:157] Top shape: 1 512 14 14 (100352)
I0627 10:43:58.176738 23737 net.cpp:165] Memory required for data: 243453964
I0627 10:43:58.176753 23737 layer_factory.hpp:77] Creating layer res5b_branch2b_relu
I0627 10:43:58.176765 23737 net.cpp:100] Creating Layer res5b_branch2b_relu
I0627 10:43:58.176772 23737 net.cpp:444] res5b_branch2b_relu <- res5b_branch2b
I0627 10:43:58.176787 23737 net.cpp:405] res5b_branch2b_relu -> res5b_branch2b (in-place)
I0627 10:43:58.177002 23737 net.cpp:150] Setting up res5b_branch2b_relu
I0627 10:43:58.177011 23737 net.cpp:157] Top shape: 1 512 14 14 (100352)
I0627 10:43:58.177014 23737 net.cpp:165] Memory required for data: 243855372
I0627 10:43:58.177021 23737 layer_factory.hpp:77] Creating layer res5b_branch2c
I0627 10:43:58.177042 23737 net.cpp:100] Creating Layer res5b_branch2c
I0627 10:43:58.177049 23737 net.cpp:444] res5b_branch2c <- res5b_branch2b
I0627 10:43:58.177068 23737 net.cpp:418] res5b_branch2c -> res5b_branch2c
I0627 10:43:58.181324 23737 cudnn_conv_layer.cpp:194] Reallocating workspace storage: 7800
I0627 10:43:58.181362 23737 net.cpp:150] Setting up res5b_branch2c
I0627 10:43:58.181378 23737 net.cpp:157] Top shape: 1 2048 14 14 (401408)
I0627 10:43:58.181382 23737 net.cpp:165] Memory required for data: 245461004
I0627 10:43:58.181403 23737 layer_factory.hpp:77] Creating layer bn5b_branch2c
I0627 10:43:58.181430 23737 net.cpp:100] Creating Layer bn5b_branch2c
I0627 10:43:58.181442 23737 net.cpp:444] bn5b_branch2c <- res5b_branch2c
I0627 10:43:58.181462 23737 net.cpp:405] bn5b_branch2c -> res5b_branch2c (in-place)
I0627 10:43:58.181823 23737 net.cpp:150] Setting up bn5b_branch2c
I0627 10:43:58.181833 23737 net.cpp:157] Top shape: 1 2048 14 14 (401408)
I0627 10:43:58.181836 23737 net.cpp:165] Memory required for data: 247066636
I0627 10:43:58.181857 23737 layer_factory.hpp:77] Creating layer scale5b_branch2c
I0627 10:43:58.181875 23737 net.cpp:100] Creating Layer scale5b_branch2c
I0627 10:43:58.181882 23737 net.cpp:444] scale5b_branch2c <- res5b_branch2c
I0627 10:43:58.181900 23737 net.cpp:405] scale5b_branch2c -> res5b_branch2c (in-place)
I0627 10:43:58.181979 23737 layer_factory.hpp:77] Creating layer scale5b_branch2c
I0627 10:43:58.182199 23737 net.cpp:150] Setting up scale5b_branch2c
I0627 10:43:58.182209 23737 net.cpp:157] Top shape: 1 2048 14 14 (401408)
I0627 10:43:58.182212 23737 net.cpp:165] Memory required for data: 248672268
I0627 10:43:58.182226 23737 layer_factory.hpp:77] Creating layer res5b
I0627 10:43:58.182240 23737 net.cpp:100] Creating Layer res5b
I0627 10:43:58.182248 23737 net.cpp:444] res5b <- res5a_res5a_relu_0_split_1
I0627 10:43:58.182262 23737 net.cpp:444] res5b <- res5b_branch2c
I0627 10:43:58.182276 23737 net.cpp:418] res5b -> res5b
I0627 10:43:58.182327 23737 net.cpp:150] Setting up res5b
I0627 10:43:58.182337 23737 net.cpp:157] Top shape: 1 2048 14 14 (401408)
I0627 10:43:58.182341 23737 net.cpp:165] Memory required for data: 250277900
I0627 10:43:58.182348 23737 layer_factory.hpp:77] Creating layer res5b_relu
I0627 10:43:58.182360 23737 net.cpp:100] Creating Layer res5b_relu
I0627 10:43:58.182368 23737 net.cpp:444] res5b_relu <- res5b
I0627 10:43:58.182382 23737 net.cpp:405] res5b_relu -> res5b (in-place)
I0627 10:43:58.182914 23737 net.cpp:150] Setting up res5b_relu
I0627 10:43:58.182925 23737 net.cpp:157] Top shape: 1 2048 14 14 (401408)
I0627 10:43:58.182929 23737 net.cpp:165] Memory required for data: 251883532
I0627 10:43:58.182937 23737 layer_factory.hpp:77] Creating layer res5b_res5b_relu_0_split
I0627 10:43:58.182951 23737 net.cpp:100] Creating Layer res5b_res5b_relu_0_split
I0627 10:43:58.182958 23737 net.cpp:444] res5b_res5b_relu_0_split <- res5b
I0627 10:43:58.182977 23737 net.cpp:418] res5b_res5b_relu_0_split -> res5b_res5b_relu_0_split_0
I0627 10:43:58.182997 23737 net.cpp:418] res5b_res5b_relu_0_split -> res5b_res5b_relu_0_split_1
I0627 10:43:58.183074 23737 net.cpp:150] Setting up res5b_res5b_relu_0_split
I0627 10:43:58.183084 23737 net.cpp:157] Top shape: 1 2048 14 14 (401408)
I0627 10:43:58.183092 23737 net.cpp:157] Top shape: 1 2048 14 14 (401408)
I0627 10:43:58.183096 23737 net.cpp:165] Memory required for data: 255094796
I0627 10:43:58.183102 23737 layer_factory.hpp:77] Creating layer res5c_branch2a
I0627 10:43:58.183122 23737 net.cpp:100] Creating Layer res5c_branch2a
I0627 10:43:58.183130 23737 net.cpp:444] res5c_branch2a <- res5b_res5b_relu_0_split_0
I0627 10:43:58.183149 23737 net.cpp:418] res5c_branch2a -> res5c_branch2a
I0627 10:43:58.187268 23737 cudnn_conv_layer.cpp:194] Reallocating workspace storage: 10080
I0627 10:43:58.187306 23737 net.cpp:150] Setting up res5c_branch2a
I0627 10:43:58.187320 23737 net.cpp:157] Top shape: 1 512 14 14 (100352)
I0627 10:43:58.187325 23737 net.cpp:165] Memory required for data: 255496204
I0627 10:43:58.187345 23737 layer_factory.hpp:77] Creating layer bn5c_branch2a
I0627 10:43:58.187369 23737 net.cpp:100] Creating Layer bn5c_branch2a
I0627 10:43:58.187381 23737 net.cpp:444] bn5c_branch2a <- res5c_branch2a
I0627 10:43:58.187402 23737 net.cpp:405] bn5c_branch2a -> res5c_branch2a (in-place)
I0627 10:43:58.187757 23737 net.cpp:150] Setting up bn5c_branch2a
I0627 10:43:58.187765 23737 net.cpp:157] Top shape: 1 512 14 14 (100352)
I0627 10:43:58.187769 23737 net.cpp:165] Memory required for data: 255897612
I0627 10:43:58.187790 23737 layer_factory.hpp:77] Creating layer scale5c_branch2a
I0627 10:43:58.187809 23737 net.cpp:100] Creating Layer scale5c_branch2a
I0627 10:43:58.187816 23737 net.cpp:444] scale5c_branch2a <- res5c_branch2a
I0627 10:43:58.187834 23737 net.cpp:405] scale5c_branch2a -> res5c_branch2a (in-place)
I0627 10:43:58.187913 23737 layer_factory.hpp:77] Creating layer scale5c_branch2a
I0627 10:43:58.188164 23737 net.cpp:150] Setting up scale5c_branch2a
I0627 10:43:58.188174 23737 net.cpp:157] Top shape: 1 512 14 14 (100352)
I0627 10:43:58.188177 23737 net.cpp:165] Memory required for data: 256299020
I0627 10:43:58.188192 23737 layer_factory.hpp:77] Creating layer res5c_branch2a_relu
I0627 10:43:58.188207 23737 net.cpp:100] Creating Layer res5c_branch2a_relu
I0627 10:43:58.188215 23737 net.cpp:444] res5c_branch2a_relu <- res5c_branch2a
I0627 10:43:58.188228 23737 net.cpp:405] res5c_branch2a_relu -> res5c_branch2a (in-place)
I0627 10:43:58.188417 23737 net.cpp:150] Setting up res5c_branch2a_relu
I0627 10:43:58.188426 23737 net.cpp:157] Top shape: 1 512 14 14 (100352)
I0627 10:43:58.188429 23737 net.cpp:165] Memory required for data: 256700428
I0627 10:43:58.188436 23737 layer_factory.hpp:77] Creating layer res5c_branch2b
I0627 10:43:58.188458 23737 net.cpp:100] Creating Layer res5c_branch2b
I0627 10:43:58.188465 23737 net.cpp:444] res5c_branch2b <- res5c_branch2a
I0627 10:43:58.188485 23737 net.cpp:418] res5c_branch2b -> res5c_branch2b
I0627 10:43:58.194967 23737 net.cpp:150] Setting up res5c_branch2b
I0627 10:43:58.195003 23737 net.cpp:157] Top shape: 1 512 14 14 (100352)
I0627 10:43:58.195005 23737 net.cpp:165] Memory required for data: 257101836
I0627 10:43:58.195032 23737 layer_factory.hpp:77] Creating layer bn5c_branch2b
I0627 10:43:58.195068 23737 net.cpp:100] Creating Layer bn5c_branch2b
I0627 10:43:58.195082 23737 net.cpp:444] bn5c_branch2b <- res5c_branch2b
I0627 10:43:58.195104 23737 net.cpp:405] bn5c_branch2b -> res5c_branch2b (in-place)
I0627 10:43:58.195472 23737 net.cpp:150] Setting up bn5c_branch2b
I0627 10:43:58.195480 23737 net.cpp:157] Top shape: 1 512 14 14 (100352)
I0627 10:43:58.195484 23737 net.cpp:165] Memory required for data: 257503244
I0627 10:43:58.195505 23737 layer_factory.hpp:77] Creating layer scale5c_branch2b
I0627 10:43:58.195524 23737 net.cpp:100] Creating Layer scale5c_branch2b
I0627 10:43:58.195533 23737 net.cpp:444] scale5c_branch2b <- res5c_branch2b
I0627 10:43:58.195549 23737 net.cpp:405] scale5c_branch2b -> res5c_branch2b (in-place)
I0627 10:43:58.195629 23737 layer_factory.hpp:77] Creating layer scale5c_branch2b
I0627 10:43:58.195850 23737 net.cpp:150] Setting up scale5c_branch2b
I0627 10:43:58.195859 23737 net.cpp:157] Top shape: 1 512 14 14 (100352)
I0627 10:43:58.195863 23737 net.cpp:165] Memory required for data: 257904652
I0627 10:43:58.195878 23737 layer_factory.hpp:77] Creating layer res5c_branch2b_relu
I0627 10:43:58.195893 23737 net.cpp:100] Creating Layer res5c_branch2b_relu
I0627 10:43:58.195900 23737 net.cpp:444] res5c_branch2b_relu <- res5c_branch2b
I0627 10:43:58.195915 23737 net.cpp:405] res5c_branch2b_relu -> res5c_branch2b (in-place)
I0627 10:43:58.196135 23737 net.cpp:150] Setting up res5c_branch2b_relu
I0627 10:43:58.196143 23737 net.cpp:157] Top shape: 1 512 14 14 (100352)
I0627 10:43:58.196146 23737 net.cpp:165] Memory required for data: 258306060
I0627 10:43:58.196153 23737 layer_factory.hpp:77] Creating layer res5c_branch2c
I0627 10:43:58.196175 23737 net.cpp:100] Creating Layer res5c_branch2c
I0627 10:43:58.196183 23737 net.cpp:444] res5c_branch2c <- res5c_branch2b
I0627 10:43:58.196202 23737 net.cpp:418] res5c_branch2c -> res5c_branch2c
I0627 10:43:58.200470 23737 cudnn_conv_layer.cpp:194] Reallocating workspace storage: 7800
I0627 10:43:58.200508 23737 net.cpp:150] Setting up res5c_branch2c
I0627 10:43:58.200522 23737 net.cpp:157] Top shape: 1 2048 14 14 (401408)
I0627 10:43:58.200526 23737 net.cpp:165] Memory required for data: 259911692
I0627 10:43:58.200546 23737 layer_factory.hpp:77] Creating layer bn5c_branch2c
I0627 10:43:58.200570 23737 net.cpp:100] Creating Layer bn5c_branch2c
I0627 10:43:58.200580 23737 net.cpp:444] bn5c_branch2c <- res5c_branch2c
I0627 10:43:58.200603 23737 net.cpp:405] bn5c_branch2c -> res5c_branch2c (in-place)
I0627 10:43:58.200965 23737 net.cpp:150] Setting up bn5c_branch2c
I0627 10:43:58.200974 23737 net.cpp:157] Top shape: 1 2048 14 14 (401408)
I0627 10:43:58.200978 23737 net.cpp:165] Memory required for data: 261517324
I0627 10:43:58.200999 23737 layer_factory.hpp:77] Creating layer scale5c_branch2c
I0627 10:43:58.201019 23737 net.cpp:100] Creating Layer scale5c_branch2c
I0627 10:43:58.201026 23737 net.cpp:444] scale5c_branch2c <- res5c_branch2c
I0627 10:43:58.201043 23737 net.cpp:405] scale5c_branch2c -> res5c_branch2c (in-place)
I0627 10:43:58.201126 23737 layer_factory.hpp:77] Creating layer scale5c_branch2c
I0627 10:43:58.201356 23737 net.cpp:150] Setting up scale5c_branch2c
I0627 10:43:58.201365 23737 net.cpp:157] Top shape: 1 2048 14 14 (401408)
I0627 10:43:58.201370 23737 net.cpp:165] Memory required for data: 263122956
I0627 10:43:58.201383 23737 layer_factory.hpp:77] Creating layer res5c
I0627 10:43:58.201397 23737 net.cpp:100] Creating Layer res5c
I0627 10:43:58.201406 23737 net.cpp:444] res5c <- res5b_res5b_relu_0_split_1
I0627 10:43:58.201419 23737 net.cpp:444] res5c <- res5c_branch2c
I0627 10:43:58.201432 23737 net.cpp:418] res5c -> res5c
I0627 10:43:58.201488 23737 net.cpp:150] Setting up res5c
I0627 10:43:58.201498 23737 net.cpp:157] Top shape: 1 2048 14 14 (401408)
I0627 10:43:58.201503 23737 net.cpp:165] Memory required for data: 264728588
I0627 10:43:58.201509 23737 layer_factory.hpp:77] Creating layer res5c_relu
I0627 10:43:58.201521 23737 net.cpp:100] Creating Layer res5c_relu
I0627 10:43:58.201529 23737 net.cpp:444] res5c_relu <- res5c
I0627 10:43:58.201545 23737 net.cpp:405] res5c_relu -> res5c (in-place)
I0627 10:43:58.201719 23737 net.cpp:150] Setting up res5c_relu
I0627 10:43:58.201727 23737 net.cpp:157] Top shape: 1 2048 14 14 (401408)
I0627 10:43:58.201730 23737 net.cpp:165] Memory required for data: 266334220
I0627 10:43:58.201737 23737 layer_factory.hpp:77] Creating layer rpn_conv/3x3
I0627 10:43:58.201759 23737 net.cpp:100] Creating Layer rpn_conv/3x3
I0627 10:43:58.201767 23737 net.cpp:444] rpn_conv/3x3 <- res4f_res4f_relu_0_split_2
I0627 10:43:58.201789 23737 net.cpp:418] rpn_conv/3x3 -> rpn/output
I0627 10:43:58.789348 23737 cudnn_conv_layer.cpp:194] Reallocating workspace storage: 21676032
I0627 10:43:58.789762 23737 net.cpp:150] Setting up rpn_conv/3x3
I0627 10:43:58.789784 23737 net.cpp:157] Top shape: 1 512 14 14 (100352)
I0627 10:43:58.789789 23737 net.cpp:165] Memory required for data: 266735628
I0627 10:43:58.789818 23737 layer_factory.hpp:77] Creating layer rpn_relu/3x3
I0627 10:43:58.789844 23737 net.cpp:100] Creating Layer rpn_relu/3x3
I0627 10:43:58.789857 23737 net.cpp:444] rpn_relu/3x3 <- rpn/output
I0627 10:43:58.789881 23737 net.cpp:405] rpn_relu/3x3 -> rpn/output (in-place)
I0627 10:43:58.790410 23737 net.cpp:150] Setting up rpn_relu/3x3
I0627 10:43:58.790419 23737 net.cpp:157] Top shape: 1 512 14 14 (100352)
I0627 10:43:58.790424 23737 net.cpp:165] Memory required for data: 267137036
I0627 10:43:58.790431 23737 layer_factory.hpp:77] Creating layer rpn/output_rpn_relu/3x3_0_split
I0627 10:43:58.790448 23737 net.cpp:100] Creating Layer rpn/output_rpn_relu/3x3_0_split
I0627 10:43:58.790457 23737 net.cpp:444] rpn/output_rpn_relu/3x3_0_split <- rpn/output
I0627 10:43:58.790474 23737 net.cpp:418] rpn/output_rpn_relu/3x3_0_split -> rpn/output_rpn_relu/3x3_0_split_0
I0627 10:43:58.790496 23737 net.cpp:418] rpn/output_rpn_relu/3x3_0_split -> rpn/output_rpn_relu/3x3_0_split_1
I0627 10:43:58.790601 23737 net.cpp:150] Setting up rpn/output_rpn_relu/3x3_0_split
I0627 10:43:58.790612 23737 net.cpp:157] Top shape: 1 512 14 14 (100352)
I0627 10:43:58.790619 23737 net.cpp:157] Top shape: 1 512 14 14 (100352)
I0627 10:43:58.790623 23737 net.cpp:165] Memory required for data: 267939852
I0627 10:43:58.790628 23737 layer_factory.hpp:77] Creating layer rpn_cls_score
I0627 10:43:58.790657 23737 net.cpp:100] Creating Layer rpn_cls_score
I0627 10:43:58.790664 23737 net.cpp:444] rpn_cls_score <- rpn/output_rpn_relu/3x3_0_split_0
I0627 10:43:58.790683 23737 net.cpp:418] rpn_cls_score -> rpn_cls_score
I0627 10:43:58.793421 23737 cudnn_conv_layer.cpp:194] Reallocating workspace storage: 10080
I0627 10:43:58.793452 23737 net.cpp:150] Setting up rpn_cls_score
I0627 10:43:58.793463 23737 net.cpp:157] Top shape: 1 22 14 14 (4312)
I0627 10:43:58.793467 23737 net.cpp:165] Memory required for data: 267957100
I0627 10:43:58.793483 23737 layer_factory.hpp:77] Creating layer rpn_bbox_pred
I0627 10:43:58.793506 23737 net.cpp:100] Creating Layer rpn_bbox_pred
I0627 10:43:58.793514 23737 net.cpp:444] rpn_bbox_pred <- rpn/output_rpn_relu/3x3_0_split_1
I0627 10:43:58.793534 23737 net.cpp:418] rpn_bbox_pred -> rpn_bbox_pred
I0627 10:43:58.798508 23737 cudnn_conv_layer.cpp:194] Reallocating workspace storage: 10080
I0627 10:43:58.798550 23737 net.cpp:150] Setting up rpn_bbox_pred
I0627 10:43:58.798583 23737 net.cpp:157] Top shape: 1 44 14 14 (8624)
I0627 10:43:58.798588 23737 net.cpp:165] Memory required for data: 267991596
I0627 10:43:58.798614 23737 layer_factory.hpp:77] Creating layer rpn_cls_score_reshape
I0627 10:43:58.798645 23737 net.cpp:100] Creating Layer rpn_cls_score_reshape
I0627 10:43:58.798657 23737 net.cpp:444] rpn_cls_score_reshape <- rpn_cls_score
I0627 10:43:58.798682 23737 net.cpp:418] rpn_cls_score_reshape -> rpn_cls_score_reshape
I0627 10:43:58.798756 23737 net.cpp:150] Setting up rpn_cls_score_reshape
I0627 10:43:58.798768 23737 net.cpp:157] Top shape: 1 2 154 14 (4312)
I0627 10:43:58.798771 23737 net.cpp:165] Memory required for data: 268008844
I0627 10:43:58.798777 23737 layer_factory.hpp:77] Creating layer rpn_cls_prob
I0627 10:43:58.798790 23737 net.cpp:100] Creating Layer rpn_cls_prob
I0627 10:43:58.798797 23737 net.cpp:444] rpn_cls_prob <- rpn_cls_score_reshape
I0627 10:43:58.798813 23737 net.cpp:418] rpn_cls_prob -> rpn_cls_prob
I0627 10:43:58.799136 23737 net.cpp:150] Setting up rpn_cls_prob
I0627 10:43:58.799149 23737 net.cpp:157] Top shape: 1 2 154 14 (4312)
I0627 10:43:58.799154 23737 net.cpp:165] Memory required for data: 268026092
I0627 10:43:58.799160 23737 layer_factory.hpp:77] Creating layer rpn_cls_prob_reshape
I0627 10:43:58.799176 23737 net.cpp:100] Creating Layer rpn_cls_prob_reshape
I0627 10:43:58.799185 23737 net.cpp:444] rpn_cls_prob_reshape <- rpn_cls_prob
I0627 10:43:58.799203 23737 net.cpp:418] rpn_cls_prob_reshape -> rpn_cls_prob_reshape
I0627 10:43:58.799258 23737 net.cpp:150] Setting up rpn_cls_prob_reshape
I0627 10:43:58.799268 23737 net.cpp:157] Top shape: 1 22 14 14 (4312)
I0627 10:43:58.799273 23737 net.cpp:165] Memory required for data: 268043340
I0627 10:43:58.799278 23737 layer_factory.hpp:77] Creating layer proposal
I0627 10:43:58.799623 23737 net.cpp:100] Creating Layer proposal
I0627 10:43:58.799634 23737 net.cpp:444] proposal <- rpn_cls_prob_reshape
I0627 10:43:58.799651 23737 net.cpp:444] proposal <- rpn_bbox_pred
I0627 10:43:58.799661 23737 net.cpp:444] proposal <- im_info
I0627 10:43:58.799675 23737 net.cpp:418] proposal -> rois
I0627 10:43:58.801177 23737 net.cpp:150] Setting up proposal
I0627 10:43:58.801208 23737 net.cpp:157] Top shape: 1 5 (5)
I0627 10:43:58.801213 23737 net.cpp:165] Memory required for data: 268043360
I0627 10:43:58.801228 23737 layer_factory.hpp:77] Creating layer rois_proposal_0_split
I0627 10:43:58.801255 23737 net.cpp:100] Creating Layer rois_proposal_0_split
I0627 10:43:58.801268 23737 net.cpp:444] rois_proposal_0_split <- rois
I0627 10:43:58.801298 23737 net.cpp:418] rois_proposal_0_split -> rois_proposal_0_split_0
I0627 10:43:58.801326 23737 net.cpp:418] rois_proposal_0_split -> rois_proposal_0_split_1
I0627 10:43:58.801451 23737 net.cpp:150] Setting up rois_proposal_0_split
I0627 10:43:58.801462 23737 net.cpp:157] Top shape: 1 5 (5)
I0627 10:43:58.801468 23737 net.cpp:157] Top shape: 1 5 (5)
I0627 10:43:58.801472 23737 net.cpp:165] Memory required for data: 268043400
I0627 10:43:58.801478 23737 layer_factory.hpp:77] Creating layer conv_new_1
I0627 10:43:58.801508 23737 net.cpp:100] Creating Layer conv_new_1
I0627 10:43:58.801517 23737 net.cpp:444] conv_new_1 <- res5c
I0627 10:43:58.801537 23737 net.cpp:418] conv_new_1 -> conv_new_1
I0627 10:43:59.068290 23737 cudnn_conv_layer.cpp:194] Reallocating workspace storage: 10080
I0627 10:43:59.068331 23737 net.cpp:150] Setting up conv_new_1
I0627 10:43:59.068351 23737 net.cpp:157] Top shape: 1 1024 14 14 (200704)
I0627 10:43:59.068356 23737 net.cpp:165] Memory required for data: 268846216
I0627 10:43:59.068384 23737 layer_factory.hpp:77] Creating layer conv_new_1_relu
I0627 10:43:59.068413 23737 net.cpp:100] Creating Layer conv_new_1_relu
I0627 10:43:59.068425 23737 net.cpp:444] conv_new_1_relu <- conv_new_1
I0627 10:43:59.068447 23737 net.cpp:405] conv_new_1_relu -> conv_new_1 (in-place)
I0627 10:43:59.068622 23737 net.cpp:150] Setting up conv_new_1_relu
I0627 10:43:59.068629 23737 net.cpp:157] Top shape: 1 1024 14 14 (200704)
I0627 10:43:59.068631 23737 net.cpp:165] Memory required for data: 269649032
I0627 10:43:59.068636 23737 layer_factory.hpp:77] Creating layer conv_new_1_conv_new_1_relu_0_split
I0627 10:43:59.068647 23737 net.cpp:100] Creating Layer conv_new_1_conv_new_1_relu_0_split
I0627 10:43:59.068652 23737 net.cpp:444] conv_new_1_conv_new_1_relu_0_split <- conv_new_1
I0627 10:43:59.068666 23737 net.cpp:418] conv_new_1_conv_new_1_relu_0_split -> conv_new_1_conv_new_1_relu_0_split_0
I0627 10:43:59.068682 23737 net.cpp:418] conv_new_1_conv_new_1_relu_0_split -> conv_new_1_conv_new_1_relu_0_split_1
I0627 10:43:59.068768 23737 net.cpp:150] Setting up conv_new_1_conv_new_1_relu_0_split
I0627 10:43:59.068775 23737 net.cpp:157] Top shape: 1 1024 14 14 (200704)
I0627 10:43:59.068779 23737 net.cpp:157] Top shape: 1 1024 14 14 (200704)
I0627 10:43:59.068781 23737 net.cpp:165] Memory required for data: 271254664
I0627 10:43:59.068812 23737 layer_factory.hpp:77] Creating layer rfcn_cls
I0627 10:43:59.068843 23737 net.cpp:100] Creating Layer rfcn_cls
I0627 10:43:59.068852 23737 net.cpp:444] rfcn_cls <- conv_new_1_conv_new_1_relu_0_split_0
I0627 10:43:59.068876 23737 net.cpp:418] rfcn_cls -> rfcn_cls
I0627 10:43:59.083149 23737 cudnn_conv_layer.cpp:194] Reallocating workspace storage: 10080
I0627 10:43:59.083194 23737 net.cpp:150] Setting up rfcn_cls
I0627 10:43:59.083212 23737 net.cpp:157] Top shape: 1 98 14 14 (19208)
I0627 10:43:59.083216 23737 net.cpp:165] Memory required for data: 271331496
I0627 10:43:59.083243 23737 layer_factory.hpp:77] Creating layer rfcn_bbox
I0627 10:43:59.083310 23737 net.cpp:100] Creating Layer rfcn_bbox
I0627 10:43:59.083323 23737 net.cpp:444] rfcn_bbox <- conv_new_1_conv_new_1_relu_0_split_1
I0627 10:43:59.083350 23737 net.cpp:418] rfcn_bbox -> rfcn_bbox
I0627 10:43:59.136816 23737 cudnn_conv_layer.cpp:194] Reallocating workspace storage: 10080
I0627 10:43:59.136860 23737 net.cpp:150] Setting up rfcn_bbox
I0627 10:43:59.136879 23737 net.cpp:157] Top shape: 1 392 14 14 (76832)
I0627 10:43:59.136888 23737 net.cpp:165] Memory required for data: 271638824
I0627 10:43:59.136916 23737 layer_factory.hpp:77] Creating layer psroipooled_cls_rois
I0627 10:43:59.136946 23737 net.cpp:100] Creating Layer psroipooled_cls_rois
I0627 10:43:59.136960 23737 net.cpp:444] psroipooled_cls_rois <- rfcn_cls
I0627 10:43:59.136978 23737 net.cpp:444] psroipooled_cls_rois <- rois_proposal_0_split_0
I0627 10:43:59.136996 23737 net.cpp:418] psroipooled_cls_rois -> psroipooled_cls_rois
I0627 10:43:59.137022 23737 psroi_pooling_layer.cpp:26] Spatial scale: 0.0625
I0627 10:43:59.137115 23737 net.cpp:150] Setting up psroipooled_cls_rois
I0627 10:43:59.137126 23737 net.cpp:157] Top shape: 1 2 7 7 (98)
I0627 10:43:59.137130 23737 net.cpp:165] Memory required for data: 271639216
I0627 10:43:59.137135 23737 layer_factory.hpp:77] Creating layer ave_cls_score_rois
I0627 10:43:59.137153 23737 net.cpp:100] Creating Layer ave_cls_score_rois
I0627 10:43:59.137161 23737 net.cpp:444] ave_cls_score_rois <- psroipooled_cls_rois
I0627 10:43:59.137179 23737 net.cpp:418] ave_cls_score_rois -> cls_score
I0627 10:43:59.137778 23737 net.cpp:150] Setting up ave_cls_score_rois
I0627 10:43:59.137791 23737 net.cpp:157] Top shape: 1 2 1 1 (2)
I0627 10:43:59.137797 23737 net.cpp:165] Memory required for data: 271639224
I0627 10:43:59.137804 23737 layer_factory.hpp:77] Creating layer psroipooled_loc_rois
I0627 10:43:59.137820 23737 net.cpp:100] Creating Layer psroipooled_loc_rois
I0627 10:43:59.137830 23737 net.cpp:444] psroipooled_loc_rois <- rfcn_bbox
I0627 10:43:59.137845 23737 net.cpp:444] psroipooled_loc_rois <- rois_proposal_0_split_1
I0627 10:43:59.137862 23737 net.cpp:418] psroipooled_loc_rois -> psroipooled_loc_rois
I0627 10:43:59.137886 23737 psroi_pooling_layer.cpp:26] Spatial scale: 0.0625
I0627 10:43:59.137964 23737 net.cpp:150] Setting up psroipooled_loc_rois
I0627 10:43:59.137974 23737 net.cpp:157] Top shape: 1 8 7 7 (392)
I0627 10:43:59.137979 23737 net.cpp:165] Memory required for data: 271640792
I0627 10:43:59.137985 23737 layer_factory.hpp:77] Creating layer ave_bbox_pred_rois
I0627 10:43:59.138002 23737 net.cpp:100] Creating Layer ave_bbox_pred_rois
I0627 10:43:59.138010 23737 net.cpp:444] ave_bbox_pred_rois <- psroipooled_loc_rois
I0627 10:43:59.138028 23737 net.cpp:418] ave_bbox_pred_rois -> bbox_pred_pre
I0627 10:43:59.138240 23737 net.cpp:150] Setting up ave_bbox_pred_rois
I0627 10:43:59.138252 23737 net.cpp:157] Top shape: 1 8 1 1 (8)
I0627 10:43:59.138255 23737 net.cpp:165] Memory required for data: 271640824
I0627 10:43:59.138262 23737 layer_factory.hpp:77] Creating layer cls_prob
I0627 10:43:59.138276 23737 net.cpp:100] Creating Layer cls_prob
I0627 10:43:59.138283 23737 net.cpp:444] cls_prob <- cls_score
I0627 10:43:59.138301 23737 net.cpp:418] cls_prob -> cls_prob_pre
I0627 10:43:59.138587 23737 net.cpp:150] Setting up cls_prob
I0627 10:43:59.138599 23737 net.cpp:157] Top shape: 1 2 1 1 (2)
I0627 10:43:59.138603 23737 net.cpp:165] Memory required for data: 271640832
I0627 10:43:59.138609 23737 layer_factory.hpp:77] Creating layer cls_prob_reshape
I0627 10:43:59.138628 23737 net.cpp:100] Creating Layer cls_prob_reshape
I0627 10:43:59.138635 23737 net.cpp:444] cls_prob_reshape <- cls_prob_pre
I0627 10:43:59.138655 23737 net.cpp:418] cls_prob_reshape -> cls_prob
I0627 10:43:59.138713 23737 net.cpp:150] Setting up cls_prob_reshape
I0627 10:43:59.138722 23737 net.cpp:157] Top shape: 1 2 (2)
I0627 10:43:59.138727 23737 net.cpp:165] Memory required for data: 271640840
I0627 10:43:59.138733 23737 layer_factory.hpp:77] Creating layer bbox_pred_reshape
I0627 10:43:59.138747 23737 net.cpp:100] Creating Layer bbox_pred_reshape
I0627 10:43:59.138754 23737 net.cpp:444] bbox_pred_reshape <- bbox_pred_pre
I0627 10:43:59.138773 23737 net.cpp:418] bbox_pred_reshape -> bbox_pred
I0627 10:43:59.138830 23737 net.cpp:150] Setting up bbox_pred_reshape
I0627 10:43:59.138841 23737 net.cpp:157] Top shape: 1 8 (8)
I0627 10:43:59.138845 23737 net.cpp:165] Memory required for data: 271640872
I0627 10:43:59.138852 23737 net.cpp:228] bbox_pred_reshape does not need backward computation.
I0627 10:43:59.138864 23737 net.cpp:228] cls_prob_reshape does not need backward computation.
I0627 10:43:59.138870 23737 net.cpp:228] cls_prob does not need backward computation.
I0627 10:43:59.138875 23737 net.cpp:228] ave_bbox_pred_rois does not need backward computation.
…
