…
stepsize: 50000
snapshot: 0
snapshot_prefix: "resnet50_rfcn_ohem"
iter_size: 8
I0408 07:54:48.934705 28923 solver.cpp:81] Creating training net from train_net file: models/pascal_voc/ResNet-50/rfcn_end2end/train_agnostic_ohem.prototxt
I0408 07:54:48.936874 28923 net.cpp:58] Initializing net from parameters: 
name: "ResNet-50"
state {
  phase: TRAIN
}
layer {
  name: "input-data"
  type: "Python"
  top: "data"
  top: "im_info"
  top: "gt_boxes"
  python_param {
    module: "roi_data_layer.layer"
    layer: "RoIDataLayer"
    param_str: "\'num_classes\': 2"
  }
}
layer {
  name: "conv1"
  type: "Convolution"
  bottom: "data"
  top: "conv1"
  param {
    lr_mult: 0
  }
  param {
    lr_mult: 0
  }
  convolution_param {
    num_output: 64
    pad: 3
    kernel_size: 7
    stride: 2
  }
}
layer {
  name: "bn_conv1"
  type: "BatchNorm"
  bottom: "conv1"
  top: "conv1"
  param {
    lr_mult: 0
    decay_mult: 0
  }
  param {
    lr_mult: 0
    decay_mult: 0
  }
  param {
    lr_mult: 0
    decay_mult: 0
  }
  batch_norm_param {
    use_global_stats: true
  }
}
layer {
  name: "scale_conv1"
  type: "Scale"
  bottom: "conv1"
  top: "conv1"
  param {
    lr_mult: 0
    decay_mult: 0
  }
  param {
    lr_mult: 0
    decay_mult: 0
  }
  scale_param {
    bias_term: true
  }
}
layer {
  name: "conv1_relu"
  type: "ReLU"
  bottom: "conv1"
  top: "conv1"
}
layer {
  name: "pool1"
  type: "Pooling"
  bottom: "conv1"
  top: "pool1"
  pooling_param {
    pool: MAX
    kernel_size: 3
    stride: 2
  }
}
layer {
  name: "res2a_branch1"
  type: "Convolution"
  bottom: "pool1"
  top: "res2a_branch1"
  param {
    lr_mult: 0
  }
  convolution_param {
    num_output: 256
    bias_term: false
    pad: 0
    kernel_size: 1
    stride: 1
  }
}
layer {
  name: "bn2a_branch1"
  type: "BatchNorm"
  bottom: "res2a_branch1"
  top: "res2a_branch1"
  param {
    lr_mult: 0
    decay_mult: 0
  }
  param {
    lr_mult: 0
    decay_mult: 0
  }
  param {
    lr_mult: 0
    decay_mult: 0
  }
  batch_norm_param {
    use_global_stats: true
  }
}
layer {
  name: "scale2a_branch1"
  type: "Scale"
  bottom: "res2a_branch1"
  top: "res2a_branch1"
  param {
    lr_mult: 0
    decay_mult: 0
  }
  param {
    lr_mult: 0
    decay_mult: 0
  }
  scale_param {
    bias_term: true
  }
}
layer {
  name: "res2a_branch2a"
  type: "Convolution"
  bottom: "pool1"
  top: "res2a_branch2a"
  param {
    lr_mult: 0
  }
  convolution_param {
    num_output: 64
    bias_term: false
    pad: 0
    kernel_size: 1
    stride: 1
  }
}
layer {
  name: "bn2a_branch2a"
  type: "BatchNorm"
  bottom: "res2a_branch2a"
  top: "res2a_branch2a"
  param {
    lr_mult: 0
    decay_mult: 0
  }
  param {
    lr_mult: 0
    decay_mult: 0
  }
  param {
    lr_mult: 0
    decay_mult: 0
  }
  batch_norm_param {
    use_global_stats: true
  }
}
layer {
  name: "scale2a_branch2a"
  type: "Scale"
  bottom: "res2a_branch2a"
  top: "res2a_branch2a"
  param {
    lr_mult: 0
    decay_mult: 0
  }
  param {
    lr_mult: 0
    decay_mult: 0
  }
  scale_param {
    bias_term: true
  }
}
layer {
  name: "res2a_branch2a_relu"
  type: "ReLU"
  bottom: "res2a_branch2a"
  top: "res2a_branch2a"
}
layer {
  name: "res2a_branch2b"
  type: "Convolution"
  bottom: "res2a_branch2a"
  top: "res2a_branch2b"
  param {
    lr_mult: 0
  }
  convolution_param {
    num_output: 64
    bias_term: false
    pad: 1
    kernel_size: 3
    stride: 1
  }
}
layer {
  name: "bn2a_branch2b"
  type: "BatchNorm"
  bottom: "res2a_branch2b"
  top: "res2a_branch2b"
  param {
    lr_mult: 0
    decay_mult: 0
  }
  param {
    lr_mult: 0
    decay_mult: 0
  }
  param {
    lr_mult: 0
    decay_mult: 0
  }
  batch_norm_param {
    use_global_stats: true
  }
}
layer {
  name: "scale2a_branch2b"
  type: "Scale"
  bottom: "res2a_branch2b"
  top: "res2a_branch2b"
  param {
    lr_mult: 0
    decay_mult: 0
  }
  param {
    lr_mult: 0
    decay_mult: 0
  }
  scale_param {
    bias_term: true
  }
}
layer {
  name: "res2a_branch2b_relu"
  type: "ReLU"
  bottom: "res2a_branch2b"
  top: "res2a_branch2b"
}
layer {
  name: "res2a_branch2c"
  type: "Convolution"
  bottom: "res2a_branch2b"
  top: "res2a_branch2c"
  param {
    lr_mult: 0
  }
  convolution_param {
    num_output: 256
    bias_term: false
    pad: 0
    kernel_size: 1
    stride: 1
  }
}
layer {
  name: "bn2a_branch2c"
  type: "BatchNorm"
  bottom: "res2a_branch2c"
  top: "res2a_branch2c"
  param {
    lr_mult: 0
    decay_mult: 0
  }
  param {
    lr_mult: 0
    decay_mult: 0
  }
  param {
    lr_mult: 0
    decay_mult: 0
  }
  batch_norm_param {
    use_global_stats: true
  }
}
layer {
  name: "scale2a_branch2c"
  type: "Scale"
  bottom: "res2a_branch2c"
  top: "res2a_branch2c"
  param {
    lr_mult: 0
    decay_mult: 0
  }
  param {
    lr_mult: 0
    decay_mult: 0
  }
  scale_param {
    bias_term: true
  }
}
layer {
  name: "res2a"
  type: "Eltwise"
  bottom: "res2a_branch1"
  bottom: "res2a_branch2c"
  top: "res2a"
}
layer {
  name: "res2a_relu"
  type: "ReLU"
  bottom: "res2a"
  top: "res2a"
}
layer {
  name: "res2b_branch2a"
  type: "Convolution"
  bottom: "res2a"
  top: "res2b_branch2a"
  param {
    lr_mult: 0
  }
  convolution_param {
    num_output: 64
    bias_term: false
    pad: 0
    kernel_size: 1
    stride: 1
  }
}
layer {
  name: "bn2b_branch2a"
  type: "BatchNorm"
  bottom: "res2b_branch2a"
  top: "res2b_branch2a"
  param {
    lr_mult: 0
    decay_mult: 0
  }
  param {
    lr_mult: 0
    decay_mult: 0
  }
  param {
    lr_mult: 0
    decay_mult: 0
  }
  batch_norm_param {
    use_global_stats: true
  }
}
layer {
  name: "scale2b_branch2a"
  type: "Scale"
  bottom: "res2b_branch2a"
  top: "res2b_branch2a"
  param {
    lr_mult: 0
    decay_mult: 0
  }
  param {
    lr_mult: 0
    decay_mult: 0
  }
  scale_param {
    bias_term: true
  }
}
layer {
  name: "res2b_branch2a_relu"
  type: "ReLU"
  bottom: "res2b_branch2a"
  top: "res2b_branch2a"
}
layer {
  name: "res2b_branch2b"
  type: "Convolution"
  bottom: "res2b_branch2a"
  top: "res2b_branch2b"
  param {
    lr_mult: 0
  }
  convolution_param {
    num_output: 64
    bias_term: false
    pad: 1
    kernel_size: 3
    stride: 1
  }
}
layer {
  name: "bn2b_branch2b"
  type: "BatchNorm"
  bottom: "res2b_branch2b"
  top: "res2b_branch2b"
  param {
    lr_mult: 0
    decay_mult: 0
  }
  param {
    lr_mult: 0
    decay_mult: 0
  }
  param {
    lr_mult: 0
    decay_mult: 0
  }
  batch_norm_param {
    use_global_stats: true
  }
}
layer {
  name: "scale2b_branch2b"
  type: "Scale"
  bottom: "res2b_branch2b"
  top: "res2b_branch2b"
  param {
    lr_mult: 0
    decay_mult: 0
  }
  param {
    lr_mult: 0
    decay_mult: 0
  }
  scale_param {
    bias_term: true
  }
}
layer {
  name: "res2b_branch2b_relu"
  type: "ReLU"
  bottom: "res2b_branch2b"
  top: "res2b_branch2b"
}
layer {
  name: "res2b_branch2c"
  type: "Convolution"
  bottom: "res2b_branch2b"
  top: "res2b_branch2c"
  param {
    lr_mult: 0
  }
  convolution_param {
    num_output: 256
    bias_term: false
    pad: 0
    kernel_size: 1
    stride: 1
  }
}
layer {
  name: "bn2b_branch2c"
  type: "BatchNorm"
  bottom: "res2b_branch2c"
  top: "res2b_branch2c"
  param {
    lr_mult: 0
    decay_mult: 0
  }
  param {
    lr_mult: 0
    decay_mult: 0
  }
  param {
    lr_mult: 0
    decay_mult: 0
  }
  batch_norm_param {
    use_global_stats: true
  }
}
layer {
  name: "scale2b_branch2c"
  type: "Scale"
  bottom: "res2b_branch2c"
  top: "res2b_branch2c"
  param {
    lr_mult: 0
    decay_mult: 0
  }
  param {
    lr_mult: 0
    decay_mult: 0
  }
  scale_param {
    bias_term: true
  }
}
layer {
  name: "res2b"
  type: "Eltwise"
  bottom: "res2a"
  bottom: "res2b_branch2c"
  top: "res2b"
}
layer {
  name: "res2b_relu"
  type: "ReLU"
  bottom: "res2b"
  top: "res2b"
}
layer {
  name: "res2c_branch2a"
  type: "Convolution"
  bottom: "res2b"
  top: "res2c_branch2a"
  param {
    lr_mult: 0
  }
  convolution_param {
    num_output: 64
    bias_term: false
    pad: 0
    kernel_size: 1
    stride: 1
  }
}
layer {
  name: "bn2c_branch2a"
  type: "BatchNorm"
  bottom: "res2c_branch2a"
  top: "res2c_branch2a"
  param {
    lr_mult: 0
    decay_mult: 0
  }
  param {
    lr_mult: 0
    decay_mult: 0
  }
  param {
    lr_mult: 0
    decay_mult: 0
  }
  batch_norm_param {
    use_global_stats: true
  }
}
layer {
  name: "scale2c_branch2a"
  type: "Scale"
  bottom: "res2c_branch2a"
  top: "res2c_branch2a"
  param {
    lr_mult: 0
    decay_mult: 0
  }
  param {
    lr_mult: 0
    decay_mult: 0
  }
  scale_param {
    bias_term: true
  }
}
layer {
  name: "res2c_branch2a_relu"
  type: "ReLU"
  bottom: "res2c_branch2a"
  top: "res2c_branch2a"
}
layer {
  name: "res2c_branch2b"
  type: "Convolution"
  bottom: "res2c_branch2a"
  top: "res2c_branch2b"
  param {
    lr_mult: 0
  }
  convolution_param {
    num_output: 64
    bias_term: false
    pad: 1
    kernel_size: 3
    stride: 1
  }
}
layer {
  name: "bn2c_branch2b"
  type: "BatchNorm"
  bottom: "res2c_branch2b"
  top: "res2c_branch2b"
  param {
    lr_mult: 0
    decay_mult: 0
  }
  param {
    lr_mult: 0
    decay_mult: 0
  }
  param {
    lr_mult: 0
    decay_mult: 0
  }
  batch_norm_param {
    use_global_stats: true
  }
}
layer {
  name: "scale2c_branch2b"
  type: "Scale"
  bottom: "res2c_branch2b"
  top: "res2c_branch2b"
  param {
    lr_mult: 0
    decay_mult: 0
  }
  param {
    lr_mult: 0
    decay_mult: 0
  }
  scale_param {
    bias_term: true
  }
}
layer {
  name: "res2c_branch2b_relu"
  type: "ReLU"
  bottom: "res2c_branch2b"
  top: "res2c_branch2b"
}
layer {
  name: "res2c_branch2c"
  type: "Convolution"
  bottom: "res2c_branch2b"
  top: "res2c_branch2c"
  param {
    lr_mult: 0
  }
  convolution_param {
    num_output: 256
    bias_term: false
    pad: 0
    kernel_size: 1
    stride: 1
  }
}
layer {
  name: "bn2c_branch2c"
  type: "BatchNorm"
  bottom: "res2c_branch2c"
  top: "res2c_branch2c"
  param {
    lr_mult: 0
    decay_mult: 0
  }
  param {
    lr_mult: 0
    decay_mult: 0
  }
  param {
    lr_mult: 0
    decay_mult: 0
  }
  batch_norm_param {
    use_global_stats: true
  }
}
layer {
  name: "scale2c_branch2c"
  type: "Scale"
  bottom: "res2c_branch2c"
  top: "res2c_branch2c"
  param {
    lr_mult: 0
    decay_mult: 0
  }
  param {
    lr_mult: 0
    decay_mult: 0
  }
  scale_param {
    bias_term: true
  }
}
layer {
  name: "res2c"
  type: "Eltwise"
  bottom: "res2b"
  bottom: "res2c_branch2c"
  top: "res2c"
}
layer {
  name: "res2c_relu"
  type: "ReLU"
  bottom: "res2c"
  top: "res2c"
}
layer {
  name: "res3a_branch1"
  type: "Convolution"
  bottom: "res2c"
  top: "res3a_branch1"
  param {
    lr_mult: 1
  }
  convolution_param {
    num_output: 512
    bias_term: false
    pad: 0
    kernel_size: 1
    stride: 2
  }
}
layer {
  name: "bn3a_branch1"
  type: "BatchNorm"
  bottom: "res3a_branch1"
  top: "res3a_branch1"
  param {
    lr_mult: 0
    decay_mult: 0
  }
  param {
    lr_mult: 0
    decay_mult: 0
  }
  param {
    lr_mult: 0
    decay_mult: 0
  }
  batch_norm_param {
    use_global_stats: true
  }
}
layer {
  name: "scale3a_branch1"
  type: "Scale"
  bottom: "res3a_branch1"
  top: "res3a_branch1"
  param {
    lr_mult: 0
    decay_mult: 0
  }
  param {
    lr_mult: 0
    decay_mult: 0
  }
  scale_param {
    bias_term: true
  }
}
layer {
  name: "res3a_branch2a"
  type: "Convolution"
  bottom: "res2c"
  top: "res3a_branch2a"
  param {
    lr_mult: 1
  }
  convolution_param {
    num_output: 128
    bias_term: false
    pad: 0
    kernel_size: 1
    stride: 2
  }
}
layer {
  name: "bn3a_branch2a"
  type: "BatchNorm"
  bottom: "res3a_branch2a"
  top: "res3a_branch2a"
  param {
    lr_mult: 0
    decay_mult: 0
  }
  param {
    lr_mult: 0
    decay_mult: 0
  }
  param {
    lr_mult: 0
    decay_mult: 0
  }
  batch_norm_param {
    use_global_stats: true
  }
}
layer {
  name: "scale3a_branch2a"
  type: "Scale"
  bottom: "res3a_branch2a"
  top: "res3a_branch2a"
  param {
    lr_mult: 0
    decay_mult: 0
  }
  param {
    lr_mult: 0
    decay_mult: 0
  }
  scale_param {
    bias_term: true
  }
}
layer {
  name: "res3a_branch2a_relu"
  type: "ReLU"
  bottom: "res3a_branch2a"
  top: "res3a_branch2a"
}
layer {
  name: "res3a_branch2b"
  type: "Convolution"
  bottom: "res3a_branch2a"
  top: "res3a_branch2b"
  param {
    lr_mult: 1
  }
  convolution_param {
    num_output: 128
    bias_term: false
    pad: 1
    kernel_size: 3
    stride: 1
  }
}
layer {
  name: "bn3a_branch2b"
  type: "BatchNorm"
  bottom: "res3a_branch2b"
  top: "res3a_branch2b"
  param {
    lr_mult: 0
    decay_mult: 0
  }
  param {
    lr_mult: 0
    decay_mult: 0
  }
  param {
    lr_mult: 0
    decay_mult: 0
  }
  batch_norm_param {
    use_global_stats: true
  }
}
layer {
  name: "scale3a_branch2b"
  type: "Scale"
  bottom: "res3a_branch2b"
  top: "res3a_branch2b"
  param {
    lr_mult: 0
    decay_mult: 0
  }
  param {
    lr_mult: 0
    decay_mult: 0
  }
  scale_param {
    bias_term: true
  }
}
layer {
  name: "res3a_branch2b_relu"
  type: "ReLU"
  bottom: "res3a_branch2b"
  top: "res3a_branch2b"
}
layer {
  name: "res3a_branch2c"
  type: "Convolution"
  bottom: "res3a_branch2b"
  top: "res3a_branch2c"
  param {
    lr_mult: 1
  }
  convolution_param {
    num_output: 512
    bias_term: false
    pad: 0
    kernel_size: 1
    stride: 1
  }
}
layer {
  name: "bn3a_branch2c"
  type: "BatchNorm"
  bottom: "res3a_branch2c"
  top: "res3a_branch2c"
  param {
    lr_mult: 0
    decay_mult: 0
  }
  param {
    lr_mult: 0
    decay_mult: 0
  }
  param {
    lr_mult: 0
    decay_mult: 0
  }
  batch_norm_param {
    use_global_stats: true
  }
}
layer {
  name: "scale3a_branch2c"
  type: "Scale"
  bottom: "res3a_branch2c"
  top: "res3a_branch2c"
  param {
    lr_mult: 0
    decay_mult: 0
  }
  param {
    lr_mult: 0
    decay_mult: 0
  }
  scale_param {
    bias_term: true
  }
}
layer {
  name: "res3a"
  type: "Eltwise"
  bottom: "res3a_branch1"
  bottom: "res3a_branch2c"
  top: "res3a"
}
layer {
  name: "res3a_relu"
  type: "ReLU"
  bottom: "res3a"
  top: "res3a"
}
layer {
  name: "res3b_branch2a"
  type: "Convolution"
  bottom: "res3a"
  top: "res3b_branch2a"
  param {
    lr_mult: 1
  }
  convolution_param {
    num_output: 128
    bias_term: false
    pad: 0
    kernel_size: 1
    stride: 1
  }
}
layer {
  name: "bn3b_branch2a"
  type: "BatchNorm"
  bottom: "res3b_branch2a"
  top: "res3b_branch2a"
  param {
    lr_mult: 0
    decay_mult: 0
  }
  param {
    lr_mult: 0
    decay_mult: 0
  }
  param {
    lr_mult: 0
    decay_mult: 0
  }
  batch_norm_param {
    use_global_stats: true
  }
}
layer {
  name: "scale3b_branch2a"
  type: "Scale"
  bottom: "res3b_branch2a"
  top: "res3b_branch2a"
  param {
    lr_mult: 0
    decay_mult: 0
  }
  param {
    lr_mult: 0
    decay_mult: 0
  }
  scale_param {
    bias_term: true
  }
}
layer {
  name: "res3b_branch2a_relu"
  type: "ReLU"
  bottom: "res3b_branch2a"
  top: "res3b_branch2a"
}
layer {
  name: "res3b_branch2b"
  type: "Convolution"
  bottom: "res3b_branch2a"
  top: "res3b_branch2b"
  param {
    lr_mult: 1
  }
  convolution_param {
    num_output: 128
    bias_term: false
    pad: 1
    kernel_size: 3
    stride: 1
  }
}
layer {
  name: "bn3b_branch2b"
  type: "BatchNorm"
  bottom: "res3b_branch2b"
  top: "res3b_branch2b"
  param {
    lr_mult: 0
    decay_mult: 0
  }
  param {
    lr_mult: 0
    decay_mult: 0
  }
  param {
    lr_mult: 0
    decay_mult: 0
  }
  batch_norm_param {
    use_global_stats: true
  }
}
layer {
  name: "scale3b_branch2b"
  type: "Scale"
  bottom: "res3b_branch2b"
  top: "res3b_branch2b"
  param {
    lr_mult: 0
    decay_mult: 0
  }
  param {
    lr_mult: 0
    decay_mult: 0
  }
  scale_param {
    bias_term: true
  }
}
layer {
  name: "res3b_branch2b_relu"
  type: "ReLU"
  bottom: "res3b_branch2b"
  top: "res3b_branch2b"
}
layer {
  name: "res3b_branch2c"
  type: "Convolution"
  bottom: "res3b_branch2b"
  top: "res3b_branch2c"
  param {
    lr_mult: 1
  }
  convolution_param {
    num_output: 512
    bias_term: false
    pad: 0
    kernel_size: 1
    stride: 1
  }
}
layer {
  name: "bn3b_branch2c"
  type: "BatchNorm"
  bottom: "res3b_branch2c"
  top: "res3b_branch2c"
  param {
    lr_mult: 0
    decay_mult: 0
  }
  param {
    lr_mult: 0
    decay_mult: 0
  }
  param {
    lr_mult: 0
    decay_mult: 0
  }
  batch_norm_param {
    use_global_stats: true
  }
}
layer {
  name: "scale3b_branch2c"
  type: "Scale"
  bottom: "res3b_branch2c"
  top: "res3b_branch2c"
  param {
    lr_mult: 0
    decay_mult: 0
  }
  param {
    lr_mult: 0
    decay_mult: 0
  }
  scale_param {
    bias_term: true
  }
}
layer {
  name: "res3b"
  type: "Eltwise"
  bottom: "res3a"
  bottom: "res3b_branch2c"
  top: "res3b"
}
layer {
  name: "res3b_relu"
  type: "ReLU"
  bottom: "res3b"
  top: "res3b"
}
layer {
  name: "res3c_branch2a"
  type: "Convolution"
  bottom: "res3b"
  top: "res3c_branch2a"
  param {
    lr_mult: 1
  }
  convolution_param {
    num_output: 128
    bias_term: false
    pad: 0
    kernel_size: 1
    stride: 1
  }
}
layer {
  name: "bn3c_branch2a"
  type: "BatchNorm"
  bottom: "res3c_branch2a"
  top: "res3c_branch2a"
  param {
    lr_mult: 0
    decay_mult: 0
  }
  param {
    lr_mult: 0
    decay_mult: 0
  }
  param {
    lr_mult: 0
    decay_mult: 0
  }
  batch_norm_param {
    use_global_stats: true
  }
}
layer {
  name: "scale3c_branch2a"
  type: "Scale"
  bottom: "res3c_branch2a"
  top: "res3c_branch2a"
  param {
    lr_mult: 0
    decay_mult: 0
  }
  param {
    lr_mult: 0
    decay_mult: 0
  }
  scale_param {
    bias_term: true
  }
}
layer {
  name: "res3c_branch2a_relu"
  type: "ReLU"
  bottom: "res3c_branch2a"
  top: "res3c_branch2a"
}
layer {
  name: "res3c_branch2b"
  type: "Convolution"
  bottom: "res3c_branch2a"
  top: "res3c_branch2b"
  param {
    lr_mult: 1
  }
  convolution_param {
    num_output: 128
    bias_term: false
    pad: 1
    kernel_size: 3
    stride: 1
  }
}
layer {
  name: "bn3c_branch2b"
  type: "BatchNorm"
  bottom: "res3c_branch2b"
  top: "res3c_branch2b"
  param {
    lr_mult: 0
    decay_mult: 0
  }
  param {
    lr_mult: 0
    decay_mult: 0
  }
  param {
    lr_mult: 0
    decay_mult: 0
  }
  batch_norm_param {
    use_global_stats: true
  }
}
layer {
  name: "scale3c_branch2b"
  type: "Scale"
  bottom: "res3c_branch2b"
  top: "res3c_branch2b"
  param {
    lr_mult: 0
    decay_mult: 0
  }
  param {
    lr_mult: 0
    decay_mult: 0
  }
  scale_param {
    bias_term: true
  }
}
layer {
  name: "res3c_branch2b_relu"
  type: "ReLU"
  bottom: "res3c_branch2b"
  top: "res3c_branch2b"
}
layer {
  name: "res3c_branch2c"
  type: "Convolution"
  bottom: "res3c_branch2b"
  top: "res3c_branch2c"
  param {
    lr_mult: 1
  }
  convolution_param {
    num_output: 512
    bias_term: false
    pad: 0
    kernel_size: 1
    stride: 1
  }
}
layer {
  name: "bn3c_branch2c"
  type: "BatchNorm"
  bottom: "res3c_branch2c"
  top: "res3c_branch2c"
  param {
    lr_mult: 0
    decay_mult: 0
  }
  param {
    lr_mult: 0
    decay_mult: 0
  }
  param {
    lr_mult: 0
    decay_mult: 0
  }
  batch_norm_param {
    use_global_stats: true
  }
}
layer {
  name: "scale3c_branch2c"
  type: "Scale"
  bottom: "res3c_branch2c"
  top: "res3c_branch2c"
  param {
    lr_mult: 0
    decay_mult: 0
  }
  param {
    lr_mult: 0
    decay_mult: 0
  }
  scale_param {
    bias_term: true
  }
}
layer {
  name: "res3c"
  type: "Eltwise"
  bottom: "res3b"
  bottom: "res3c_branch2c"
  top: "res3c"
}
layer {
  name: "res3c_relu"
  type: "ReLU"
  bottom: "res3c"
  top: "res3c"
}
layer {
  name: "res3d_branch2a"
  type: "Convolution"
  bottom: "res3c"
  top: "res3d_branch2a"
  param {
    lr_mult: 1
  }
  convolution_param {
    num_output: 128
    bias_term: false
    pad: 0
    kernel_size: 1
    stride: 1
  }
}
layer {
  name: "bn3d_branch2a"
  type: "BatchNorm"
  bottom: "res3d_branch2a"
  top: "res3d_branch2a"
  param {
    lr_mult: 0
    decay_mult: 0
  }
  param {
    lr_mult: 0
    decay_mult: 0
  }
  param {
    lr_mult: 0
    decay_mult: 0
  }
  batch_norm_param {
    use_global_stats: true
  }
}
layer {
  name: "scale3d_branch2a"
  type: "Scale"
  bottom: "res3d_branch2a"
  top: "res3d_branch2a"
  param {
    lr_mult: 0
    decay_mult: 0
  }
  param {
    lr_mult: 0
    decay_mult: 0
  }
  scale_param {
    bias_term: true
  }
}
layer {
  name: "res3d_branch2a_relu"
  type: "ReLU"
  bottom: "res3d_branch2a"
  top: "res3d_branch2a"
}
layer {
  name: "res3d_branch2b"
  type: "Convolution"
  bottom: "res3d_branch2a"
  top: "res3d_branch2b"
  param {
    lr_mult: 1
  }
  convolution_param {
    num_output: 128
    bias_term: false
    pad: 1
    kernel_size: 3
    stride: 1
  }
}
layer {
  name: "bn3d_branch2b"
  type: "BatchNorm"
  bottom: "res3d_branch2b"
  top: "res3d_branch2b"
  param {
    lr_mult: 0
    decay_mult: 0
  }
  param {
    lr_mult: 0
    decay_mult: 0
  }
  param {
    lr_mult: 0
    decay_mult: 0
  }
  batch_norm_param {
    use_global_stats: true
  }
}
layer {
  name: "scale3d_branch2b"
  type: "Scale"
  bottom: "res3d_branch2b"
  top: "res3d_branch2b"
  param {
    lr_mult: 0
    decay_mult: 0
  }
  param {
    lr_mult: 0
    decay_mult: 0
  }
  scale_param {
    bias_term: true
  }
}
layer {
  name: "res3d_branch2b_relu"
  type: "ReLU"
  bottom: "res3d_branch2b"
  top: "res3d_branch2b"
}
layer {
  name: "res3d_branch2c"
  type: "Convolution"
  bottom: "res3d_branch2b"
  top: "res3d_branch2c"
  param {
    lr_mult: 1
  }
  convolution_param {
    num_output: 512
    bias_term: false
    pad: 0
    kernel_size: 1
    stride: 1
  }
}
layer {
  name: "bn3d_branch2c"
  type: "BatchNorm"
  bottom: "res3d_branch2c"
  top: "res3d_branch2c"
  param {
    lr_mult: 0
    decay_mult: 0
  }
  param {
    lr_mult: 0
    decay_mult: 0
  }
  param {
    lr_mult: 0
    decay_mult: 0
  }
  batch_norm_param {
    use_global_stats: true
  }
}
layer {
  name: "scale3d_branch2c"
  type: "Scale"
  bottom: "res3d_branch2c"
  top: "res3d_branch2c"
  param {
    lr_mult: 0
    decay_mult: 0
  }
  param {
    lr_mult: 0
    decay_mult: 0
  }
  scale_param {
    bias_term: true
  }
}
layer {
  name: "res3d"
  type: "Eltwise"
  bottom: "res3c"
  bottom: "res3d_branch2c"
  top: "res3d"
}
layer {
  name: "res3d_relu"
  type: "ReLU"
  bottom: "res3d"
  top: "res3d"
}
layer {
  name: "res4a_branch1"
  type: "Convolution"
  bottom: "res3d"
  top: "res4a_branch1"
  param {
    lr_mult: 1
  }
  convolution_param {
    num_output: 1024
    bias_term: false
    pad: 0
    kernel_size: 1
    stride: 2
  }
}
layer {
  name: "bn4a_branch1"
  type: "BatchNorm"
  bottom: "res4a_branch1"
  top: "res4a_branch1"
  param {
    lr_mult: 0
    decay_mult: 0
  }
  param {
    lr_mult: 0
    decay_mult: 0
  }
  param {
    lr_mult: 0
    decay_mult: 0
  }
  batch_norm_param {
    use_global_stats: true
  }
}
layer {
  name: "scale4a_branch1"
  type: "Scale"
  bottom: "res4a_branch1"
  top: "res4a_branch1"
  param {
    lr_mult: 0
    decay_mult: 0
  }
  param {
    lr_mult: 0
    decay_mult: 0
  }
  scale_param {
    bias_term: true
  }
}
layer {
  name: "res4a_branch2a"
  type: "Convolution"
  bottom: "res3d"
  top: "res4a_branch2a"
  param {
    lr_mult: 1
  }
  convolution_param {
    num_output: 256
    bias_term: false
    pad: 0
    kernel_size: 1
    stride: 2
  }
}
layer {
  name: "bn4a_branch2a"
  type: "BatchNorm"
  bottom: "res4a_branch2a"
  top: "res4a_branch2a"
  param {
    lr_mult: 0
    decay_mult: 0
  }
  param {
    lr_mult: 0
    decay_mult: 0
  }
  param {
    lr_mult: 0
    decay_mult: 0
  }
  batch_norm_param {
    use_global_stats: true
  }
}
layer {
  name: "scale4a_branch2a"
  type: "Scale"
  bottom: "res4a_branch2a"
  top: "res4a_branch2a"
  param {
    lr_mult: 0
    decay_mult: 0
  }
  param {
    lr_mult: 0
    decay_mult: 0
  }
  scale_param {
    bias_term: true
  }
}
layer {
  name: "res4a_branch2a_relu"
  type: "ReLU"
  bottom: "res4a_branch2a"
  top: "res4a_branch2a"
}
layer {
  name: "res4a_branch2b"
  type: "Convolution"
  bottom: "res4a_branch2a"
  top: "res4a_branch2b"
  param {
    lr_mult: 1
  }
  convolution_param {
    num_output: 256
    bias_term: false
    pad: 1
    kernel_size: 3
    stride: 1
  }
}
layer {
  name: "bn4a_branch2b"
  type: "BatchNorm"
  bottom: "res4a_branch2b"
  top: "res4a_branch2b"
  param {
    lr_mult: 0
    decay_mult: 0
  }
  param {
    lr_mult: 0
    decay_mult: 0
  }
  param {
    lr_mult: 0
    decay_mult: 0
  }
  batch_norm_param {
    use_global_stats: true
  }
}
layer {
  name: "scale4a_branch2b"
  type: "Scale"
  bottom: "res4a_branch2b"
  top: "res4a_branch2b"
  param {
    lr_mult: 0
    decay_mult: 0
  }
  param {
    lr_mult: 0
    decay_mult: 0
  }
  scale_param {
    bias_term: true
  }
}
layer {
  name: "res4a_branch2b_relu"
  type: "ReLU"
  bottom: "res4a_branch2b"
  top: "res4a_branch2b"
}
layer {
  name: "res4a_branch2c"
  type: "Convolution"
  bottom: "res4a_branch2b"
  top: "res4a_branch2c"
  param {
    lr_mult: 1
  }
  convolution_param {
    num_output: 1024
    bias_term: false
    pad: 0
    kernel_size: 1
    stride: 1
  }
}
layer {
  name: "bn4a_branch2c"
  type: "BatchNorm"
  bottom: "res4a_branch2c"
  top: "res4a_branch2c"
  param {
    lr_mult: 0
    decay_mult: 0
  }
  param {
    lr_mult: 0
    decay_mult: 0
  }
  param {
    lr_mult: 0
    decay_mult: 0
  }
  batch_norm_param {
    use_global_stats: true
  }
}
layer {
  name: "scale4a_branch2c"
  type: "Scale"
  bottom: "res4a_branch2c"
  top: "res4a_branch2c"
  param {
    lr_mult: 0
    decay_mult: 0
  }
  param {
    lr_mult: 0
    decay_mult: 0
  }
  scale_param {
    bias_term: true
  }
}
layer {
  name: "res4a"
  type: "Eltwise"
  bottom: "res4a_branch1"
  bottom: "res4a_branch2c"
  top: "res4a"
}
layer {
  name: "res4a_relu"
  type: "ReLU"
  bottom: "res4a"
  top: "res4a"
}
layer {
  name: "res4b_branch2a"
  type: "Convolution"
  bottom: "res4a"
  top: "res4b_branch2a"
  param {
    lr_mult: 1
  }
  convolution_param {
    num_output: 256
    bias_term: false
    pad: 0
    kernel_size: 1
    stride: 1
  }
}
layer {
  name: "bn4b_branch2a"
  type: "BatchNorm"
  bottom: "res4b_branch2a"
  top: "res4b_branch2a"
  param {
    lr_mult: 0
    decay_mult: 0
  }
  param {
    lr_mult: 0
    decay_mult: 0
  }
  param {
    lr_mult: 0
    decay_mult: 0
  }
  batch_norm_param {
    use_global_stats: true
  }
}
layer {
  name: "scale4b_branch2a"
  type: "Scale"
  bottom: "res4b_branch2a"
  top: "res4b_branch2a"
  param {
    lr_mult: 0
    decay_mult: 0
  }
  param {
    lr_mult: 0
    decay_mult: 0
  }
  scale_param {
    bias_term: true
  }
}
layer {
  name: "res4b_branch2a_relu"
  type: "ReLU"
  bottom: "res4b_branch2a"
  top: "res4b_branch2a"
}
layer {
  name: "res4b_branch2b"
  type: "Convolution"
  bottom: "res4b_branch2a"
  top: "res4b_branch2b"
  param {
    lr_mult: 1
  }
  convolution_param {
    num_output: 256
    bias_term: false
    pad: 1
    kernel_size: 3
    stride: 1
  }
}
layer {
  name: "bn4b_branch2b"
  type: "BatchNorm"
  bottom: "res4b_branch2b"
  top: "res4b_branch2b"
  param {
    lr_mult: 0
    decay_mult: 0
  }
  param {
    lr_mult: 0
    decay_mult: 0
  }
  param {
    lr_mult: 0
    decay_mult: 0
  }
  batch_norm_param {
    use_global_stats: true
  }
}
layer {
  name: "scale4b_branch2b"
  type: "Scale"
  bottom: "res4b_branch2b"
  top: "res4b_branch2b"
  param {
    lr_mult: 0
    decay_mult: 0
  }
  param {
    lr_mult: 0
    decay_mult: 0
  }
  scale_param {
    bias_term: true
  }
}
layer {
  name: "res4b_branch2b_relu"
  type: "ReLU"
  bottom: "res4b_branch2b"
  top: "res4b_branch2b"
}
layer {
  name: "res4b_branch2c"
  type: "Convolution"
  bottom: "res4b_branch2b"
  top: "res4b_branch2c"
  param {
    lr_mult: 1
  }
  convolution_param {
    num_output: 1024
    bias_term: false
    pad: 0
    kernel_size: 1
    stride: 1
  }
}
layer {
  name: "bn4b_branch2c"
  type: "BatchNorm"
  bottom: "res4b_branch2c"
  top: "res4b_branch2c"
  param {
    lr_mult: 0
    decay_mult: 0
  }
  param {
    lr_mult: 0
    decay_mult: 0
  }
  param {
    lr_mult: 0
    decay_mult: 0
  }
  batch_norm_param {
    use_global_stats: true
  }
}
layer {
  name: "scale4b_branch2c"
  type: "Scale"
  bottom: "res4b_branch2c"
  top: "res4b_branch2c"
  param {
    lr_mult: 0
    decay_mult: 0
  }
  param {
    lr_mult: 0
    decay_mult: 0
  }
  scale_param {
    bias_term: true
  }
}
layer {
  name: "res4b"
  type: "Eltwise"
  bottom: "res4a"
  bottom: "res4b_branch2c"
  top: "res4b"
}
layer {
  name: "res4b_relu"
  type: "ReLU"
  bottom: "res4b"
  top: "res4b"
}
layer {
  name: "res4c_branch2a"
  type: "Convolution"
  bottom: "res4b"
  top: "res4c_branch2a"
  param {
    lr_mult: 1
  }
  convolution_param {
    num_output: 256
    bias_term: false
    pad: 0
    kernel_size: 1
    stride: 1
  }
}
layer {
  name: "bn4c_branch2a"
  type: "BatchNorm"
  bottom: "res4c_branch2a"
  top: "res4c_branch2a"
  param {
    lr_mult: 0
    decay_mult: 0
  }
  param {
    lr_mult: 0
    decay_mult: 0
  }
  param {
    lr_mult: 0
    decay_mult: 0
  }
  batch_norm_param {
    use_global_stats: true
  }
}
layer {
  name: "scale4c_branch2a"
  type: "Scale"
  bottom: "res4c_branch2a"
  top: "res4c_branch2a"
  param {
    lr_mult: 0
    decay_mult: 0
  }
  param {
    lr_mult: 0
    decay_mult: 0
  }
  scale_param {
    bias_term: true
  }
}
layer {
  name: "res4c_branch2a_relu"
  type: "ReLU"
  bottom: "res4c_branch2a"
  top: "res4c_branch2a"
}
layer {
  name: "res4c_branch2b"
  type: "Convolution"
  bottom: "res4c_branch2a"
  top: "res4c_branch2b"
  param {
    lr_mult: 1
  }
  convolution_param {
    num_output: 256
    bias_term: false
    pad: 1
    kernel_size: 3
    stride: 1
  }
}
layer {
  name: "bn4c_branch2b"
  type: "BatchNorm"
  bottom: "res4c_branch2b"
  top: "res4c_branch2b"
  param {
    lr_mult: 0
    decay_mult: 0
  }
  param {
    lr_mult: 0
    decay_mult: 0
  }
  param {
    lr_mult: 0
    decay_mult: 0
  }
  batch_norm_param {
    use_global_stats: true
  }
}
layer {
  name: "scale4c_branch2b"
  type: "Scale"
  bottom: "res4c_branch2b"
  top: "res4c_branch2b"
  param {
    lr_mult: 0
    decay_mult: 0
  }
  param {
    lr_mult: 0
    decay_mult: 0
  }
  scale_param {
    bias_term: true
  }
}
layer {
  name: "res4c_branch2b_relu"
  type: "ReLU"
  bottom: "res4c_branch2b"
  top: "res4c_
I0408 07:54:48.938616 28923 layer_factory.hpp:77] Creating layer input-data
I0408 07:54:48.943779 28923 net.cpp:100] Creating Layer input-data
I0408 07:54:48.943800 28923 net.cpp:418] input-data -> data
I0408 07:54:48.943835 28923 net.cpp:418] input-data -> im_info
I0408 07:54:48.943850 28923 net.cpp:418] input-data -> gt_boxes
RoiDataLayer: name_to_top: {'gt_boxes': 2, 'data': 0, 'im_info': 1}
I0408 07:54:48.963799 28923 net.cpp:150] Setting up input-data
I0408 07:54:48.963825 28923 net.cpp:157] Top shape: 1 3 960 1280 (3686400)
I0408 07:54:48.963830 28923 net.cpp:157] Top shape: 1 3 (3)
I0408 07:54:48.963834 28923 net.cpp:157] Top shape: 1 4 (4)
I0408 07:54:48.963835 28923 net.cpp:165] Memory required for data: 14745628
I0408 07:54:48.963850 28923 layer_factory.hpp:77] Creating layer data_input-data_0_split
I0408 07:54:48.963876 28923 net.cpp:100] Creating Layer data_input-data_0_split
I0408 07:54:48.963886 28923 net.cpp:444] data_input-data_0_split <- data
I0408 07:54:48.963912 28923 net.cpp:418] data_input-data_0_split -> data_input-data_0_split_0
I0408 07:54:48.963929 28923 net.cpp:418] data_input-data_0_split -> data_input-data_0_split_1
I0408 07:54:48.963963 28923 net.cpp:150] Setting up data_input-data_0_split
I0408 07:54:48.963969 28923 net.cpp:157] Top shape: 1 3 960 1280 (3686400)
I0408 07:54:48.963973 28923 net.cpp:157] Top shape: 1 3 960 1280 (3686400)
I0408 07:54:48.963976 28923 net.cpp:165] Memory required for data: 44236828
I0408 07:54:48.963979 28923 layer_factory.hpp:77] Creating layer im_info_input-data_1_split
I0408 07:54:48.963989 28923 net.cpp:100] Creating Layer im_info_input-data_1_split
I0408 07:54:48.963991 28923 net.cpp:444] im_info_input-data_1_split <- im_info
I0408 07:54:48.964001 28923 net.cpp:418] im_info_input-data_1_split -> im_info_input-data_1_split_0
I0408 07:54:48.964011 28923 net.cpp:418] im_info_input-data_1_split -> im_info_input-data_1_split_1
I0408 07:54:48.964045 28923 net.cpp:150] Setting up im_info_input-data_1_split
I0408 07:54:48.964051 28923 net.cpp:157] Top shape: 1 3 (3)
I0408 07:54:48.964054 28923 net.cpp:157] Top shape: 1 3 (3)
I0408 07:54:48.964056 28923 net.cpp:165] Memory required for data: 44236852
I0408 07:54:48.964058 28923 layer_factory.hpp:77] Creating layer gt_boxes_input-data_2_split
I0408 07:54:48.964066 28923 net.cpp:100] Creating Layer gt_boxes_input-data_2_split
I0408 07:54:48.964068 28923 net.cpp:444] gt_boxes_input-data_2_split <- gt_boxes
I0408 07:54:48.964077 28923 net.cpp:418] gt_boxes_input-data_2_split -> gt_boxes_input-data_2_split_0
I0408 07:54:48.964087 28923 net.cpp:418] gt_boxes_input-data_2_split -> gt_boxes_input-data_2_split_1
I0408 07:54:48.964114 28923 net.cpp:150] Setting up gt_boxes_input-data_2_split
I0408 07:54:48.964121 28923 net.cpp:157] Top shape: 1 4 (4)
I0408 07:54:48.964125 28923 net.cpp:157] Top shape: 1 4 (4)
I0408 07:54:48.964128 28923 net.cpp:165] Memory required for data: 44236884
I0408 07:54:48.964130 28923 layer_factory.hpp:77] Creating layer conv1
I0408 07:54:48.964157 28923 net.cpp:100] Creating Layer conv1
I0408 07:54:48.964161 28923 net.cpp:444] conv1 <- data_input-data_0_split_0
I0408 07:54:48.964172 28923 net.cpp:418] conv1 -> conv1
I0408 07:54:49.268913 28923 cudnn_conv_layer.cpp:194] Reallocating workspace storage: 5529624
I0408 07:54:49.269134 28923 net.cpp:150] Setting up conv1
I0408 07:54:49.269152 28923 net.cpp:157] Top shape: 1 64 480 640 (19660800)
I0408 07:54:49.269155 28923 net.cpp:165] Memory required for data: 122880084
I0408 07:54:49.269206 28923 layer_factory.hpp:77] Creating layer bn_conv1
I0408 07:54:49.269239 28923 net.cpp:100] Creating Layer bn_conv1
I0408 07:54:49.269248 28923 net.cpp:444] bn_conv1 <- conv1
I0408 07:54:49.269263 28923 net.cpp:405] bn_conv1 -> conv1 (in-place)
I0408 07:54:49.270318 28923 net.cpp:150] Setting up bn_conv1
I0408 07:54:49.270328 28923 net.cpp:157] Top shape: 1 64 480 640 (19660800)
I0408 07:54:49.270329 28923 net.cpp:165] Memory required for data: 201523284
I0408 07:54:49.270359 28923 layer_factory.hpp:77] Creating layer scale_conv1
I0408 07:54:49.270376 28923 net.cpp:100] Creating Layer scale_conv1
I0408 07:54:49.270382 28923 net.cpp:444] scale_conv1 <- conv1
I0408 07:54:49.270392 28923 net.cpp:405] scale_conv1 -> conv1 (in-place)
I0408 07:54:49.270447 28923 layer_factory.hpp:77] Creating layer scale_conv1
I0408 07:54:49.272327 28923 net.cpp:150] Setting up scale_conv1
I0408 07:54:49.272336 28923 net.cpp:157] Top shape: 1 64 480 640 (19660800)
I0408 07:54:49.272338 28923 net.cpp:165] Memory required for data: 280166484
I0408 07:54:49.272352 28923 layer_factory.hpp:77] Creating layer conv1_relu
I0408 07:54:49.272366 28923 net.cpp:100] Creating Layer conv1_relu
I0408 07:54:49.272380 28923 net.cpp:444] conv1_relu <- conv1
I0408 07:54:49.272390 28923 net.cpp:405] conv1_relu -> conv1 (in-place)
I0408 07:54:49.272538 28923 net.cpp:150] Setting up conv1_relu
I0408 07:54:49.272544 28923 net.cpp:157] Top shape: 1 64 480 640 (19660800)
I0408 07:54:49.272547 28923 net.cpp:165] Memory required for data: 358809684
I0408 07:54:49.272550 28923 layer_factory.hpp:77] Creating layer pool1
I0408 07:54:49.272567 28923 net.cpp:100] Creating Layer pool1
I0408 07:54:49.272572 28923 net.cpp:444] pool1 <- conv1
I0408 07:54:49.272583 28923 net.cpp:418] pool1 -> pool1
I0408 07:54:49.272624 28923 net.cpp:150] Setting up pool1
I0408 07:54:49.272632 28923 net.cpp:157] Top shape: 1 64 240 320 (4915200)
I0408 07:54:49.272635 28923 net.cpp:165] Memory required for data: 378470484
I0408 07:54:49.272639 28923 layer_factory.hpp:77] Creating layer pool1_pool1_0_split
I0408 07:54:49.272646 28923 net.cpp:100] Creating Layer pool1_pool1_0_split
I0408 07:54:49.272658 28923 net.cpp:444] pool1_pool1_0_split <- pool1
I0408 07:54:49.272667 28923 net.cpp:418] pool1_pool1_0_split -> pool1_pool1_0_split_0
I0408 07:54:49.272677 28923 net.cpp:418] pool1_pool1_0_split -> pool1_pool1_0_split_1
I0408 07:54:49.272706 28923 net.cpp:150] Setting up pool1_pool1_0_split
I0408 07:54:49.272712 28923 net.cpp:157] Top shape: 1 64 240 320 (4915200)
I0408 07:54:49.272716 28923 net.cpp:157] Top shape: 1 64 240 320 (4915200)
I0408 07:54:49.272718 28923 net.cpp:165] Memory required for data: 417792084
I0408 07:54:49.272722 28923 layer_factory.hpp:77] Creating layer res2a_branch1
I0408 07:54:49.272735 28923 net.cpp:100] Creating Layer res2a_branch1
I0408 07:54:49.272740 28923 net.cpp:444] res2a_branch1 <- pool1_pool1_0_split_0
I0408 07:54:49.272750 28923 net.cpp:418] res2a_branch1 -> res2a_branch1
I0408 07:54:49.273489 28923 cudnn_conv_layer.cpp:194] Reallocating workspace storage: 1388952
I0408 07:54:49.273700 28923 net.cpp:150] Setting up res2a_branch1
I0408 07:54:49.273710 28923 net.cpp:157] Top shape: 1 256 240 320 (19660800)
I0408 07:54:49.273712 28923 net.cpp:165] Memory required for data: 496435284
I0408 07:54:49.273722 28923 layer_factory.hpp:77] Creating layer bn2a_branch1
I0408 07:54:49.273735 28923 net.cpp:100] Creating Layer bn2a_branch1
I0408 07:54:49.273738 28923 net.cpp:444] bn2a_branch1 <- res2a_branch1
I0408 07:54:49.273751 28923 net.cpp:405] bn2a_branch1 -> res2a_branch1 (in-place)
I0408 07:54:49.274009 28923 net.cpp:150] Setting up bn2a_branch1
I0408 07:54:49.274015 28923 net.cpp:157] Top shape: 1 256 240 320 (19660800)
I0408 07:54:49.274018 28923 net.cpp:165] Memory required for data: 575078484
I0408 07:54:49.274041 28923 layer_factory.hpp:77] Creating layer scale2a_branch1
I0408 07:54:49.274055 28923 net.cpp:100] Creating Layer scale2a_branch1
I0408 07:54:49.274058 28923 net.cpp:444] scale2a_branch1 <- res2a_branch1
I0408 07:54:49.274070 28923 net.cpp:405] scale2a_branch1 -> res2a_branch1 (in-place)
I0408 07:54:49.274118 28923 layer_factory.hpp:77] Creating layer scale2a_branch1
I0408 07:54:49.274408 28923 net.cpp:150] Setting up scale2a_branch1
I0408 07:54:49.274415 28923 net.cpp:157] Top shape: 1 256 240 320 (19660800)
I0408 07:54:49.274417 28923 net.cpp:165] Memory required for data: 653721684
I0408 07:54:49.274426 28923 layer_factory.hpp:77] Creating layer res2a_branch2a
I0408 07:54:49.274438 28923 net.cpp:100] Creating Layer res2a_branch2a
I0408 07:54:49.274442 28923 net.cpp:444] res2a_branch2a <- pool1_pool1_0_split_1
I0408 07:54:49.274454 28923 net.cpp:418] res2a_branch2a -> res2a_branch2a
I0408 07:54:49.275663 28923 cudnn_conv_layer.cpp:194] Reallocating workspace storage: 1388952
I0408 07:54:49.275861 28923 net.cpp:150] Setting up res2a_branch2a
I0408 07:54:49.275872 28923 net.cpp:157] Top shape: 1 64 240 320 (4915200)
I0408 07:54:49.275874 28923 net.cpp:165] Memory required for data: 673382484
I0408 07:54:49.275884 28923 layer_factory.hpp:77] Creating layer bn2a_branch2a
I0408 07:54:49.275897 28923 net.cpp:100] Creating Layer bn2a_branch2a
I0408 07:54:49.275902 28923 net.cpp:444] bn2a_branch2a <- res2a_branch2a
I0408 07:54:49.275913 28923 net.cpp:405] bn2a_branch2a -> res2a_branch2a (in-place)
I0408 07:54:49.276155 28923 net.cpp:150] Setting up bn2a_branch2a
I0408 07:54:49.276161 28923 net.cpp:157] Top shape: 1 64 240 320 (4915200)
I0408 07:54:49.276163 28923 net.cpp:165] Memory required for data: 693043284
I0408 07:54:49.276185 28923 layer_factory.hpp:77] Creating layer scale2a_branch2a
I0408 07:54:49.276196 28923 net.cpp:100] Creating Layer scale2a_branch2a
I0408 07:54:49.276201 28923 net.cpp:444] scale2a_branch2a <- res2a_branch2a
I0408 07:54:49.276211 28923 net.cpp:405] scale2a_branch2a -> res2a_branch2a (in-place)
I0408 07:54:49.276252 28923 layer_factory.hpp:77] Creating layer scale2a_branch2a
I0408 07:54:49.276552 28923 net.cpp:150] Setting up scale2a_branch2a
I0408 07:54:49.276558 28923 net.cpp:157] Top shape: 1 64 240 320 (4915200)
I0408 07:54:49.276561 28923 net.cpp:165] Memory required for data: 712704084
I0408 07:54:49.276569 28923 layer_factory.hpp:77] Creating layer res2a_branch2a_relu
I0408 07:54:49.276583 28923 net.cpp:100] Creating Layer res2a_branch2a_relu
I0408 07:54:49.276587 28923 net.cpp:444] res2a_branch2a_relu <- res2a_branch2a
I0408 07:54:49.276597 28923 net.cpp:405] res2a_branch2a_relu -> res2a_branch2a (in-place)
I0408 07:54:49.276720 28923 net.cpp:150] Setting up res2a_branch2a_relu
I0408 07:54:49.276726 28923 net.cpp:157] Top shape: 1 64 240 320 (4915200)
I0408 07:54:49.276727 28923 net.cpp:165] Memory required for data: 732364884
I0408 07:54:49.276731 28923 layer_factory.hpp:77] Creating layer res2a_branch2b
I0408 07:54:49.276743 28923 net.cpp:100] Creating Layer res2a_branch2b
I0408 07:54:49.276748 28923 net.cpp:444] res2a_branch2b <- res2a_branch2a
I0408 07:54:49.276760 28923 net.cpp:418] res2a_branch2b -> res2a_branch2b
I0408 07:54:49.278038 28923 cudnn_conv_layer.cpp:194] Reallocating workspace storage: 786432
I0408 07:54:49.278244 28923 net.cpp:150] Setting up res2a_branch2b
I0408 07:54:49.278254 28923 net.cpp:157] Top shape: 1 64 240 320 (4915200)
I0408 07:54:49.278257 28923 net.cpp:165] Memory required for data: 752025684
I0408 07:54:49.278267 28923 layer_factory.hpp:77] Creating layer bn2a_branch2b
I0408 07:54:49.278280 28923 net.cpp:100] Creating Layer bn2a_branch2b
I0408 07:54:49.278285 28923 net.cpp:444] bn2a_branch2b <- res2a_branch2b
I0408 07:54:49.278295 28923 net.cpp:405] bn2a_branch2b -> res2a_branch2b (in-place)
I0408 07:54:49.278542 28923 net.cpp:150] Setting up bn2a_branch2b
I0408 07:54:49.278548 28923 net.cpp:157] Top shape: 1 64 240 320 (4915200)
I0408 07:54:49.278550 28923 net.cpp:165] Memory required for data: 771686484
I0408 07:54:49.278563 28923 layer_factory.hpp:77] Creating layer scale2a_branch2b
I0408 07:54:49.278574 28923 net.cpp:100] Creating Layer scale2a_branch2b
I0408 07:54:49.278579 28923 net.cpp:444] scale2a_branch2b <- res2a_branch2b
I0408 07:54:49.278589 28923 net.cpp:405] scale2a_branch2b -> res2a_branch2b (in-place)
I0408 07:54:49.278636 28923 layer_factory.hpp:77] Creating layer scale2a_branch2b
I0408 07:54:49.279430 28923 net.cpp:150] Setting up scale2a_branch2b
I0408 07:54:49.279438 28923 net.cpp:157] Top shape: 1 64 240 320 (4915200)
I0408 07:54:49.279440 28923 net.cpp:165] Memory required for data: 791347284
I0408 07:54:49.279451 28923 layer_factory.hpp:77] Creating layer res2a_branch2b_relu
I0408 07:54:49.279469 28923 net.cpp:100] Creating Layer res2a_branch2b_relu
I0408 07:54:49.279474 28923 net.cpp:444] res2a_branch2b_relu <- res2a_branch2b
I0408 07:54:49.279484 28923 net.cpp:405] res2a_branch2b_relu -> res2a_branch2b (in-place)
I0408 07:54:49.279812 28923 net.cpp:150] Setting up res2a_branch2b_relu
I0408 07:54:49.279820 28923 net.cpp:157] Top shape: 1 64 240 320 (4915200)
I0408 07:54:49.279822 28923 net.cpp:165] Memory required for data: 811008084
I0408 07:54:49.279826 28923 layer_factory.hpp:77] Creating layer res2a_branch2c
I0408 07:54:49.279842 28923 net.cpp:100] Creating Layer res2a_branch2c
I0408 07:54:49.279847 28923 net.cpp:444] res2a_branch2c <- res2a_branch2b
I0408 07:54:49.279860 28923 net.cpp:418] res2a_branch2c -> res2a_branch2c
I0408 07:54:49.280592 28923 cudnn_conv_layer.cpp:194] Reallocating workspace storage: 1388952
I0408 07:54:49.280786 28923 net.cpp:150] Setting up res2a_branch2c
I0408 07:54:49.280797 28923 net.cpp:157] Top shape: 1 256 240 320 (19660800)
I0408 07:54:49.280799 28923 net.cpp:165] Memory required for data: 889651284
I0408 07:54:49.280809 28923 layer_factory.hpp:77] Creating layer bn2a_branch2c
I0408 07:54:49.280820 28923 net.cpp:100] Creating Layer bn2a_branch2c
I0408 07:54:49.280824 28923 net.cpp:444] bn2a_branch2c <- res2a_branch2c
I0408 07:54:49.280836 28923 net.cpp:405] bn2a_branch2c -> res2a_branch2c (in-place)
I0408 07:54:49.281077 28923 net.cpp:150] Setting up bn2a_branch2c
I0408 07:54:49.281082 28923 net.cpp:157] Top shape: 1 256 240 320 (19660800)
I0408 07:54:49.281085 28923 net.cpp:165] Memory required for data: 968294484
I0408 07:54:49.281098 28923 layer_factory.hpp:77] Creating layer scale2a_branch2c
I0408 07:54:49.281110 28923 net.cpp:100] Creating Layer scale2a_branch2c
I0408 07:54:49.281113 28923 net.cpp:444] scale2a_branch2c <- res2a_branch2c
I0408 07:54:49.281122 28923 net.cpp:405] scale2a_branch2c -> res2a_branch2c (in-place)
I0408 07:54:49.281170 28923 layer_factory.hpp:77] Creating layer scale2a_branch2c
I0408 07:54:49.281462 28923 net.cpp:150] Setting up scale2a_branch2c
I0408 07:54:49.281468 28923 net.cpp:157] Top shape: 1 256 240 320 (19660800)
I0408 07:54:49.281471 28923 net.cpp:165] Memory required for data: 1046937684
I0408 07:54:49.281479 28923 layer_factory.hpp:77] Creating layer res2a
I0408 07:54:49.281488 28923 net.cpp:100] Creating Layer res2a
I0408 07:54:49.281492 28923 net.cpp:444] res2a <- res2a_branch1
I0408 07:54:49.281500 28923 net.cpp:444] res2a <- res2a_branch2c
I0408 07:54:49.281507 28923 net.cpp:418] res2a -> res2a
I0408 07:54:49.281534 28923 net.cpp:150] Setting up res2a
I0408 07:54:49.281543 28923 net.cpp:157] Top shape: 1 256 240 320 (19660800)
I0408 07:54:49.281544 28923 net.cpp:165] Memory required for data: 1125580884
I0408 07:54:49.281548 28923 layer_factory.hpp:77] Creating layer res2a_relu
I0408 07:54:49.281556 28923 net.cpp:100] Creating Layer res2a_relu
I0408 07:54:49.281559 28923 net.cpp:444] res2a_relu <- res2a
I0408 07:54:49.281569 28923 net.cpp:405] res2a_relu -> res2a (in-place)
I0408 07:54:49.281699 28923 net.cpp:150] Setting up res2a_relu
I0408 07:54:49.281705 28923 net.cpp:157] Top shape: 1 256 240 320 (19660800)
I0408 07:54:49.281708 28923 net.cpp:165] Memory required for data: 1204224084
I0408 07:54:49.281711 28923 layer_factory.hpp:77] Creating layer res2a_res2a_relu_0_split
I0408 07:54:49.281720 28923 net.cpp:100] Creating Layer res2a_res2a_relu_0_split
I0408 07:54:49.281724 28923 net.cpp:444] res2a_res2a_relu_0_split <- res2a
I0408 07:54:49.281734 28923 net.cpp:418] res2a_res2a_relu_0_split -> res2a_res2a_relu_0_split_0
I0408 07:54:49.281746 28923 net.cpp:418] res2a_res2a_relu_0_split -> res2a_res2a_relu_0_split_1
I0408 07:54:49.281780 28923 net.cpp:150] Setting up res2a_res2a_relu_0_split
I0408 07:54:49.281787 28923 net.cpp:157] Top shape: 1 256 240 320 (19660800)
I0408 07:54:49.281791 28923 net.cpp:157] Top shape: 1 256 240 320 (19660800)
I0408 07:54:49.281793 28923 net.cpp:165] Memory required for data: 1361510484
I0408 07:54:49.281796 28923 layer_factory.hpp:77] Creating layer res2b_branch2a
I0408 07:54:49.281808 28923 net.cpp:100] Creating Layer res2b_branch2a
I0408 07:54:49.281812 28923 net.cpp:444] res2b_branch2a <- res2a_res2a_relu_0_split_0
I0408 07:54:49.281822 28923 net.cpp:418] res2b_branch2a -> res2b_branch2a
I0408 07:54:49.282568 28923 cudnn_conv_layer.cpp:194] Reallocating workspace storage: 1388952
I0408 07:54:49.282768 28923 net.cpp:150] Setting up res2b_branch2a
I0408 07:54:49.282778 28923 net.cpp:157] Top shape: 1 64 240 320 (4915200)
I0408 07:54:49.282779 28923 net.cpp:165] Memory required for data: 1381171284
I0408 07:54:49.282789 28923 layer_factory.hpp:77] Creating layer bn2b_branch2a
I0408 07:54:49.282801 28923 net.cpp:100] Creating Layer bn2b_branch2a
I0408 07:54:49.282806 28923 net.cpp:444] bn2b_branch2a <- res2b_branch2a
I0408 07:54:49.282817 28923 net.cpp:405] bn2b_branch2a -> res2b_branch2a (in-place)
I0408 07:54:49.283064 28923 net.cpp:150] Setting up bn2b_branch2a
I0408 07:54:49.283071 28923 net.cpp:157] Top shape: 1 64 240 320 (4915200)
I0408 07:54:49.283072 28923 net.cpp:165] Memory required for data: 1400832084
I0408 07:54:49.283105 28923 layer_factory.hpp:77] Creating layer scale2b_branch2a
I0408 07:54:49.283118 28923 net.cpp:100] Creating Layer scale2b_branch2a
I0408 07:54:49.283121 28923 net.cpp:444] scale2b_branch2a <- res2b_branch2a
I0408 07:54:49.283131 28923 net.cpp:405] scale2b_branch2a -> res2b_branch2a (in-place)
I0408 07:54:49.283172 28923 layer_factory.hpp:77] Creating layer scale2b_branch2a
I0408 07:54:49.283975 28923 net.cpp:150] Setting up scale2b_branch2a
I0408 07:54:49.283983 28923 net.cpp:157] Top shape: 1 64 240 320 (4915200)
I0408 07:54:49.283987 28923 net.cpp:165] Memory required for data: 1420492884
I0408 07:54:49.283998 28923 layer_factory.hpp:77] Creating layer res2b_branch2a_relu
I0408 07:54:49.284006 28923 net.cpp:100] Creating Layer res2b_branch2a_relu
I0408 07:54:49.284011 28923 net.cpp:444] res2b_branch2a_relu <- res2b_branch2a
I0408 07:54:49.284020 28923 net.cpp:405] res2b_branch2a_relu -> res2b_branch2a (in-place)
I0408 07:54:49.284154 28923 net.cpp:150] Setting up res2b_branch2a_relu
I0408 07:54:49.284160 28923 net.cpp:157] Top shape: 1 64 240 320 (4915200)
I0408 07:54:49.284162 28923 net.cpp:165] Memory required for data: 1440153684
I0408 07:54:49.284166 28923 layer_factory.hpp:77] Creating layer res2b_branch2b
I0408 07:54:49.284179 28923 net.cpp:100] Creating Layer res2b_branch2b
I0408 07:54:49.284183 28923 net.cpp:444] res2b_branch2b <- res2b_branch2a
I0408 07:54:49.284195 28923 net.cpp:418] res2b_branch2b -> res2b_branch2b
I0408 07:54:49.284970 28923 cudnn_conv_layer.cpp:194] Reallocating workspace storage: 786432
I0408 07:54:49.284983 28923 net.cpp:150] Setting up res2b_branch2b
I0408 07:54:49.284991 28923 net.cpp:157] Top shape: 1 64 240 320 (4915200)
I0408 07:54:49.284992 28923 net.cpp:165] Memory required for data: 1459814484
I0408 07:54:49.285001 28923 layer_factory.hpp:77] Creating layer bn2b_branch2b
I0408 07:54:49.285019 28923 net.cpp:100] Creating Layer bn2b_branch2b
I0408 07:54:49.285024 28923 net.cpp:444] bn2b_branch2b <- res2b_branch2b
I0408 07:54:49.285035 28923 net.cpp:405] bn2b_branch2b -> res2b_branch2b (in-place)
I0408 07:54:49.285284 28923 net.cpp:150] Setting up bn2b_branch2b
I0408 07:54:49.285290 28923 net.cpp:157] Top shape: 1 64 240 320 (4915200)
I0408 07:54:49.285290 28923 net.cpp:165] Memory required for data: 1479475284
I0408 07:54:49.285305 28923 layer_factory.hpp:77] Creating layer scale2b_branch2b
I0408 07:54:49.285315 28923 net.cpp:100] Creating Layer scale2b_branch2b
I0408 07:54:49.285320 28923 net.cpp:444] scale2b_branch2b <- res2b_branch2b
I0408 07:54:49.285328 28923 net.cpp:405] scale2b_branch2b -> res2b_branch2b (in-place)
I0408 07:54:49.285377 28923 layer_factory.hpp:77] Creating layer scale2b_branch2b
I0408 07:54:49.285676 28923 net.cpp:150] Setting up scale2b_branch2b
I0408 07:54:49.285682 28923 net.cpp:157] Top shape: 1 64 240 320 (4915200)
I0408 07:54:49.285684 28923 net.cpp:165] Memory required for data: 1499136084
I0408 07:54:49.285693 28923 layer_factory.hpp:77] Creating layer res2b_branch2b_relu
I0408 07:54:49.285701 28923 net.cpp:100] Creating Layer res2b_branch2b_relu
I0408 07:54:49.285706 28923 net.cpp:444] res2b_branch2b_relu <- res2b_branch2b
I0408 07:54:49.285714 28923 net.cpp:405] res2b_branch2b_relu -> res2b_branch2b (in-place)
I0408 07:54:49.286051 28923 net.cpp:150] Setting up res2b_branch2b_relu
I0408 07:54:49.286058 28923 net.cpp:157] Top shape: 1 64 240 320 (4915200)
I0408 07:54:49.286062 28923 net.cpp:165] Memory required for data: 1518796884
I0408 07:54:49.286065 28923 layer_factory.hpp:77] Creating layer res2b_branch2c
I0408 07:54:49.286078 28923 net.cpp:100] Creating Layer res2b_branch2c
I0408 07:54:49.286083 28923 net.cpp:444] res2b_branch2c <- res2b_branch2b
I0408 07:54:49.286097 28923 net.cpp:418] res2b_branch2c -> res2b_branch2c
I0408 07:54:49.286831 28923 cudnn_conv_layer.cpp:194] Reallocating workspace storage: 1388952
I0408 07:54:49.287022 28923 net.cpp:150] Setting up res2b_branch2c
I0408 07:54:49.287042 28923 net.cpp:157] Top shape: 1 256 240 320 (19660800)
I0408 07:54:49.287045 28923 net.cpp:165] Memory required for data: 1597440084
I0408 07:54:49.287055 28923 layer_factory.hpp:77] Creating layer bn2b_branch2c
I0408 07:54:49.287066 28923 net.cpp:100] Creating Layer bn2b_branch2c
I0408 07:54:49.287070 28923 net.cpp:444] bn2b_branch2c <- res2b_branch2c
I0408 07:54:49.287082 28923 net.cpp:405] bn2b_branch2c -> res2b_branch2c (in-place)
I0408 07:54:49.287324 28923 net.cpp:150] Setting up bn2b_branch2c
I0408 07:54:49.287330 28923 net.cpp:157] Top shape: 1 256 240 320 (19660800)
I0408 07:54:49.287333 28923 net.cpp:165] Memory required for data: 1676083284
I0408 07:54:49.287346 28923 layer_factory.hpp:77] Creating layer scale2b_branch2c
I0408 07:54:49.287358 28923 net.cpp:100] Creating Layer scale2b_branch2c
I0408 07:54:49.287361 28923 net.cpp:444] scale2b_branch2c <- res2b_branch2c
I0408 07:54:49.287371 28923 net.cpp:405] scale2b_branch2c -> res2b_branch2c (in-place)
I0408 07:54:49.287411 28923 layer_factory.hpp:77] Creating layer scale2b_branch2c
I0408 07:54:49.288219 28923 net.cpp:150] Setting up scale2b_branch2c
I0408 07:54:49.288228 28923 net.cpp:157] Top shape: 1 256 240 320 (19660800)
I0408 07:54:49.288230 28923 net.cpp:165] Memory required for data: 1754726484
I0408 07:54:49.288241 28923 layer_factory.hpp:77] Creating layer res2b
I0408 07:54:49.288252 28923 net.cpp:100] Creating Layer res2b
I0408 07:54:49.288257 28923 net.cpp:444] res2b <- res2a_res2a_relu_0_split_1
I0408 07:54:49.288266 28923 net.cpp:444] res2b <- res2b_branch2c
I0408 07:54:49.288274 28923 net.cpp:418] res2b -> res2b
I0408 07:54:49.288307 28923 net.cpp:150] Setting up res2b
I0408 07:54:49.288316 28923 net.cpp:157] Top shape: 1 256 240 320 (19660800)
I0408 07:54:49.288317 28923 net.cpp:165] Memory required for data: 1833369684
I0408 07:54:49.288321 28923 layer_factory.hpp:77] Creating layer res2b_relu
I0408 07:54:49.288328 28923 net.cpp:100] Creating Layer res2b_relu
I0408 07:54:49.288332 28923 net.cpp:444] res2b_relu <- res2b
I0408 07:54:49.288341 28923 net.cpp:405] res2b_relu -> res2b (in-place)
I0408 07:54:49.288485 28923 net.cpp:150] Setting up res2b_relu
I0408 07:54:49.288491 28923 net.cpp:157] Top shape: 1 256 240 320 (19660800)
I0408 07:54:49.288492 28923 net.cpp:165] Memory required for data: 1912012884
I0408 07:54:49.288496 28923 layer_factory.hpp:77] Creating layer res2b_res2b_relu_0_split
I0408 07:54:49.288504 28923 net.cpp:100] Creating Layer res2b_res2b_relu_0_split
I0408 07:54:49.288508 28923 net.cpp:444] res2b_res2b_relu_0_split <- res2b
I0408 07:54:49.288518 28923 net.cpp:418] res2b_res2b_relu_0_split -> res2b_res2b_relu_0_split_0
I0408 07:54:49.288529 28923 net.cpp:418] res2b_res2b_relu_0_split -> res2b_res2b_relu_0_split_1
I0408 07:54:49.288565 28923 net.cpp:150] Setting up res2b_res2b_relu_0_split
I0408 07:54:49.288573 28923 net.cpp:157] Top shape: 1 256 240 320 (19660800)
I0408 07:54:49.288576 28923 net.cpp:157] Top shape: 1 256 240 320 (19660800)
I0408 07:54:49.288578 28923 net.cpp:165] Memory required for data: 2069299284
I0408 07:54:49.288580 28923 layer_factory.hpp:77] Creating layer res2c_branch2a
I0408 07:54:49.288592 28923 net.cpp:100] Creating Layer res2c_branch2a
I0408 07:54:49.288597 28923 net.cpp:444] res2c_branch2a <- res2b_res2b_relu_0_split_0
I0408 07:54:49.288609 28923 net.cpp:418] res2c_branch2a -> res2c_branch2a
I0408 07:54:49.289367 28923 cudnn_conv_layer.cpp:194] Reallocating workspace storage: 1388952
I0408 07:54:49.289562 28923 net.cpp:150] Setting up res2c_branch2a
I0408 07:54:49.289572 28923 net.cpp:157] Top shape: 1 64 240 320 (4915200)
I0408 07:54:49.289573 28923 net.cpp:165] Memory required for data: 2088960084
I0408 07:54:49.289583 28923 layer_factory.hpp:77] Creating layer bn2c_branch2a
I0408 07:54:49.289595 28923 net.cpp:100] Creating Layer bn2c_branch2a
I0408 07:54:49.289600 28923 net.cpp:444] bn2c_branch2a <- res2c_branch2a
I0408 07:54:49.289611 28923 net.cpp:405] bn2c_branch2a -> res2c_branch2a (in-place)
I0408 07:54:49.289878 28923 net.cpp:150] Setting up bn2c_branch2a
I0408 07:54:49.289885 28923 net.cpp:157] Top shape: 1 64 240 320 (4915200)
I0408 07:54:49.289887 28923 net.cpp:165] Memory required for data: 2108620884
I0408 07:54:49.289901 28923 layer_factory.hpp:77] Creating layer scale2c_branch2a
I0408 07:54:49.289914 28923 net.cpp:100] Creating Layer scale2c_branch2a
I0408 07:54:49.289918 28923 net.cpp:444] scale2c_branch2a <- res2c_branch2a
I0408 07:54:49.289928 28923 net.cpp:405] scale2c_branch2a -> res2c_branch2a (in-place)
I0408 07:54:49.289978 28923 layer_factory.hpp:77] Creating layer scale2c_branch2a
I0408 07:54:49.290279 28923 net.cpp:150] Setting up scale2c_branch2a
I0408 07:54:49.290287 28923 net.cpp:157] Top shape: 1 64 240 320 (4915200)
I0408 07:54:49.290288 28923 net.cpp:165] Memory required for data: 2128281684
I0408 07:54:49.290297 28923 layer_factory.hpp:77] Creating layer res2c_branch2a_relu
I0408 07:54:49.290305 28923 net.cpp:100] Creating Layer res2c_branch2a_relu
I0408 07:54:49.290309 28923 net.cpp:444] res2c_branch2a_relu <- res2c_branch2a
I0408 07:54:49.290318 28923 net.cpp:405] res2c_branch2a_relu -> res2c_branch2a (in-place)
I0408 07:54:49.290443 28923 net.cpp:150] Setting up res2c_branch2a_relu
I0408 07:54:49.290449 28923 net.cpp:157] Top shape: 1 64 240 320 (4915200)
I0408 07:54:49.290452 28923 net.cpp:165] Memory required for data: 2147942484
I0408 07:54:49.290455 28923 layer_factory.hpp:77] Creating layer res2c_branch2b
I0408 07:54:49.290467 28923 net.cpp:100] Creating Layer res2c_branch2b
I0408 07:54:49.290472 28923 net.cpp:444] res2c_branch2b <- res2c_branch2a
I0408 07:54:49.290483 28923 net.cpp:418] res2c_branch2b -> res2c_branch2b
I0408 07:54:49.291257 28923 cudnn_conv_layer.cpp:194] Reallocating workspace storage: 786432
I0408 07:54:49.291462 28923 net.cpp:150] Setting up res2c_branch2b
I0408 07:54:49.291471 28923 net.cpp:157] Top shape: 1 64 240 320 (4915200)
I0408 07:54:49.291473 28923 net.cpp:165] Memory required for data: 2167603284
I0408 07:54:49.291483 28923 layer_factory.hpp:77] Creating layer bn2c_branch2b
I0408 07:54:49.291496 28923 net.cpp:100] Creating Layer bn2c_branch2b
I0408 07:54:49.291499 28923 net.cpp:444] bn2c_branch2b <- res2c_branch2b
I0408 07:54:49.291512 28923 net.cpp:405] bn2c_branch2b -> res2c_branch2b (in-place)
I0408 07:54:49.291764 28923 net.cpp:150] Setting up bn2c_branch2b
I0408 07:54:49.291769 28923 net.cpp:157] Top shape: 1 64 240 320 (4915200)
I0408 07:54:49.291771 28923 net.cpp:165] Memory required for data: 2187264084
I0408 07:54:49.291785 28923 layer_factory.hpp:77] Creating layer scale2c_branch2b
I0408 07:54:49.291795 28923 net.cpp:100] Creating Layer scale2c_branch2b
I0408 07:54:49.291800 28923 net.cpp:444] scale2c_branch2b <- res2c_branch2b
I0408 07:54:49.291808 28923 net.cpp:405] scale2c_branch2b -> res2c_branch2b (in-place)
I0408 07:54:49.291849 28923 layer_factory.hpp:77] Creating layer scale2c_branch2b
I0408 07:54:49.292665 28923 net.cpp:150] Setting up scale2c_branch2b
I0408 07:54:49.292672 28923 net.cpp:157] Top shape: 1 64 240 320 (4915200)
I0408 07:54:49.292675 28923 net.cpp:165] Memory required for data: 2206924884
I0408 07:54:49.292685 28923 layer_factory.hpp:77] Creating layer res2c_branch2b_relu
I0408 07:54:49.292695 28923 net.cpp:100] Creating Layer res2c_branch2b_relu
I0408 07:54:49.292701 28923 net.cpp:444] res2c_branch2b_relu <- res2c_branch2b
I0408 07:54:49.292711 28923 net.cpp:405] res2c_branch2b_relu -> res2c_branch2b (in-place)
I0408 07:54:49.292845 28923 net.cpp:150] Setting up res2c_branch2b_relu
I0408 07:54:49.292852 28923 net.cpp:157] Top shape: 1 64 240 320 (4915200)
I0408 07:54:49.292855 28923 net.cpp:165] Memory required for data: 2226585684
I0408 07:54:49.292857 28923 layer_factory.hpp:77] Creating layer res2c_branch2c
I0408 07:54:49.292870 28923 net.cpp:100] Creating Layer res2c_branch2c
I0408 07:54:49.292876 28923 net.cpp:444] res2c_branch2c <- res2c_branch2b
I0408 07:54:49.292887 28923 net.cpp:418] res2c_branch2c -> res2c_branch2c
I0408 07:54:49.293645 28923 cudnn_conv_layer.cpp:194] Reallocating workspace storage: 1388952
I0408 07:54:49.293856 28923 net.cpp:150] Setting up res2c_branch2c
I0408 07:54:49.293866 28923 net.cpp:157] Top shape: 1 256 240 320 (19660800)
I0408 07:54:49.293869 28923 net.cpp:165] Memory required for data: 2305228884
I0408 07:54:49.293879 28923 layer_factory.hpp:77] Creating layer bn2c_branch2c
I0408 07:54:49.293900 28923 net.cpp:100] Creating Layer bn2c_branch2c
I0408 07:54:49.293905 28923 net.cpp:444] bn2c_branch2c <- res2c_branch2c
I0408 07:54:49.293915 28923 net.cpp:405] bn2c_branch2c -> res2c_branch2c (in-place)
I0408 07:54:49.294159 28923 net.cpp:150] Setting up bn2c_branch2c
I0408 07:54:49.294164 28923 net.cpp:157] Top shape: 1 256 240 320 (19660800)
I0408 07:54:49.294167 28923 net.cpp:165] Memory required for data: 2383872084
I0408 07:54:49.294205 28923 layer_factory.hpp:77] Creating layer scale2c_branch2c
I0408 07:54:49.294217 28923 net.cpp:100] Creating Layer scale2c_branch2c
I0408 07:54:49.294221 28923 net.cpp:444] scale2c_branch2c <- res2c_branch2c
I0408 07:54:49.294231 28923 net.cpp:405] scale2c_branch2c -> res2c_branch2c (in-place)
I0408 07:54:49.294275 28923 layer_factory.hpp:77] Creating layer scale2c_branch2c
I0408 07:54:49.294570 28923 net.cpp:150] Setting up scale2c_branch2c
I0408 07:54:49.294576 28923 net.cpp:157] Top shape: 1 256 240 320 (19660800)
I0408 07:54:49.294579 28923 net.cpp:165] Memory required for data: 2462515284
I0408 07:54:49.294589 28923 layer_factory.hpp:77] Creating layer res2c
I0408 07:54:49.294596 28923 net.cpp:100] Creating Layer res2c
I0408 07:54:49.294601 28923 net.cpp:444] res2c <- res2b_res2b_relu_0_split_1
I0408 07:54:49.294608 28923 net.cpp:444] res2c <- res2c_branch2c
I0408 07:54:49.294615 28923 net.cpp:418] res2c -> res2c
I0408 07:54:49.294643 28923 net.cpp:150] Setting up res2c
I0408 07:54:49.294651 28923 net.cpp:157] Top shape: 1 256 240 320 (19660800)
I0408 07:54:49.294653 28923 net.cpp:165] Memory required for data: 2541158484
I0408 07:54:49.294656 28923 layer_factory.hpp:77] Creating layer res2c_relu
I0408 07:54:49.294663 28923 net.cpp:100] Creating Layer res2c_relu
I0408 07:54:49.294667 28923 net.cpp:444] res2c_relu <- res2c
I0408 07:54:49.294675 28923 net.cpp:405] res2c_relu -> res2c (in-place)
I0408 07:54:49.295056 28923 net.cpp:150] Setting up res2c_relu
I0408 07:54:49.295063 28923 net.cpp:157] Top shape: 1 256 240 320 (19660800)
I0408 07:54:49.295065 28923 net.cpp:165] Memory required for data: 2619801684
I0408 07:54:49.295069 28923 layer_factory.hpp:77] Creating layer res2c_res2c_relu_0_split
I0408 07:54:49.295078 28923 net.cpp:100] Creating Layer res2c_res2c_relu_0_split
I0408 07:54:49.295083 28923 net.cpp:444] res2c_res2c_relu_0_split <- res2c
I0408 07:54:49.295094 28923 net.cpp:418] res2c_res2c_relu_0_split -> res2c_res2c_relu_0_split_0
I0408 07:54:49.295106 28923 net.cpp:418] res2c_res2c_relu_0_split -> res2c_res2c_relu_0_split_1
I0408 07:54:49.295152 28923 net.cpp:150] Setting up res2c_res2c_relu_0_split
I0408 07:54:49.295159 28923 net.cpp:157] Top shape: 1 256 240 320 (19660800)
I0408 07:54:49.295162 28923 net.cpp:157] Top shape: 1 256 240 320 (19660800)
I0408 07:54:49.295164 28923 net.cpp:165] Memory required for data: 2777088084
I0408 07:54:49.295167 28923 layer_factory.hpp:77] Creating layer res3a_branch1
I0408 07:54:49.295179 28923 net.cpp:100] Creating Layer res3a_branch1
I0408 07:54:49.295183 28923 net.cpp:444] res3a_branch1 <- res2c_res2c_relu_0_split_0
I0408 07:54:49.295195 28923 net.cpp:418] res3a_branch1 -> res3a_branch1
I0408 07:54:49.296084 28923 cudnn_conv_layer.cpp:194] Reallocating workspace storage: 345624
I0408 07:54:49.296099 28923 net.cpp:150] Setting up res3a_branch1
I0408 07:54:49.296108 28923 net.cpp:157] Top shape: 1 512 120 160 (9830400)
I0408 07:54:49.296109 28923 net.cpp:165] Memory required for data: 2816409684
I0408 07:54:49.296118 28923 layer_factory.hpp:77] Creating layer bn3a_branch1
I0408 07:54:49.296130 28923 net.cpp:100] Creating Layer bn3a_branch1
I0408 07:54:49.296135 28923 net.cpp:444] bn3a_branch1 <- res3a_branch1
I0408 07:54:49.296145 28923 net.cpp:405] bn3a_branch1 -> res3a_branch1 (in-place)
I0408 07:54:49.296838 28923 net.cpp:150] Setting up bn3a_branch1
I0408 07:54:49.296845 28923 net.cpp:157] Top shape: 1 512 120 160 (9830400)
I0408 07:54:49.296847 28923 net.cpp:165] Memory required for data: 2855731284
I0408 07:54:49.296862 28923 layer_factory.hpp:77] Creating layer scale3a_branch1
I0408 07:54:49.296875 28923 net.cpp:100] Creating Layer scale3a_branch1
I0408 07:54:49.296880 28923 net.cpp:444] scale3a_branch1 <- res3a_branch1
I0408 07:54:49.296890 28923 net.cpp:405] scale3a_branch1 -> res3a_branch1 (in-place)
I0408 07:54:49.296932 28923 layer_factory.hpp:77] Creating layer scale3a_branch1
I0408 07:54:49.297085 28923 net.cpp:150] Setting up scale3a_branch1
I0408 07:54:49.297091 28923 net.cpp:157] Top shape: 1 512 120 160 (9830400)
I0408 07:54:49.297093 28923 net.cpp:165] Memory required for data: 2895052884
I0408 07:54:49.297102 28923 layer_factory.hpp:77] Creating layer res3a_branch2a
I0408 07:54:49.297116 28923 net.cpp:100] Creating Layer res3a_branch2a
I0408 07:54:49.297121 28923 net.cpp:444] res3a_branch2a <- res2c_res2c_relu_0_split_1
I0408 07:54:49.297130 28923 net.cpp:418] res3a_branch2a -> res3a_branch2a
I0408 07:54:49.297948 28923 cudnn_conv_layer.cpp:194] Reallocating workspace storage: 345624
I0408 07:54:49.297965 28923 net.cpp:150] Setting up res3a_branch2a
I0408 07:54:49.297972 28923 net.cpp:157] Top shape: 1 128 120 160 (2457600)
I0408 07:54:49.297974 28923 net.cpp:165] Memory required for data: 2904883284
I0408 07:54:49.297983 28923 layer_factory.hpp:77] Creating layer bn3a_branch2a
I0408 07:54:49.297996 28923 net.cpp:100] Creating Layer bn3a_branch2a
I0408 07:54:49.298000 28923 net.cpp:444] bn3a_branch2a <- res3a_branch2a
I0408 07:54:49.298012 28923 net.cpp:405] bn3a_branch2a -> res3a_branch2a (in-place)
I0408 07:54:49.298178 28923 net.cpp:150] Setting up bn3a_branch2a
I0408 07:54:49.298184 28923 net.cpp:157] Top shape: 1 128 120 160 (2457600)
I0408 07:54:49.298187 28923 net.cpp:165] Memory required for data: 2914713684
I0408 07:54:49.298199 28923 layer_factory.hpp:77] Creating layer scale3a_branch2a
I0408 07:54:49.298210 28923 net.cpp:100] Creating Layer scale3a_branch2a
I0408 07:54:49.298215 28923 net.cpp:444] scale3a_branch2a <- res3a_branch2a
I0408 07:54:49.298224 28923 net.cpp:405] scale3a_branch2a -> res3a_branch2a (in-place)
I0408 07:54:49.298274 28923 layer_factory.hpp:77] Creating layer scale3a_branch2a
I0408 07:54:49.298418 28923 net.cpp:150] Setting up scale3a_branch2a
I0408 07:54:49.298424 28923 net.cpp:157] Top shape: 1 128 120 160 (2457600)
I0408 07:54:49.298426 28923 net.cpp:165] Memory required for data: 2924544084
I0408 07:54:49.298435 28923 layer_factory.hpp:77] Creating layer res3a_branch2a_relu
I0408 07:54:49.298444 28923 net.cpp:100] Creating Layer res3a_branch2a_relu
I0408 07:54:49.298449 28923 net.cpp:444] res3a_branch2a_relu <- res3a_branch2a
I0408 07:54:49.298457 28923 net.cpp:405] res3a_branch2a_relu -> res3a_branch2a (in-place)
I0408 07:54:49.298593 28923 net.cpp:150] Setting up res3a_branch2a_relu
I0408 07:54:49.298599 28923 net.cpp:157] Top shape: 1 128 120 160 (2457600)
I0408 07:54:49.298600 28923 net.cpp:165] Memory required for data: 2934374484
I0408 07:54:49.298604 28923 layer_factory.hpp:77] Creating layer res3a_branch2b
I0408 07:54:49.298615 28923 net.cpp:100] Creating Layer res3a_branch2b
I0408 07:54:49.298620 28923 net.cpp:444] res3a_branch2b <- res3a_branch2a
I0408 07:54:49.298632 28923 net.cpp:418] res3a_branch2b -> res3a_branch2b
I0408 07:54:49.300087 28923 cudnn_conv_layer.cpp:194] Reallocating workspace storage: 3145728
I0408 07:54:49.300297 28923 net.cpp:150] Setting up res3a_branch2b
I0408 07:54:49.300307 28923 net.cpp:157] Top shape: 1 128 120 160 (2457600)
I0408 07:54:49.300309 28923 net.cpp:165] Memory required for data: 2944204884
I0408 07:54:49.300319 28923 layer_factory.hpp:77] Creating layer bn3a_branch2b
I0408 07:54:49.300331 28923 net.cpp:100] Creating Layer bn3a_branch2b
I0408 07:54:49.300336 28923 net.cpp:444] bn3a_branch2b <- res3a_branch2b
I0408 07:54:49.300348 28923 net.cpp:405] bn3a_branch2b -> res3a_branch2b (in-place)
I0408 07:54:49.300521 28923 net.cpp:150] Setting up bn3a_branch2b
I0408 07:54:49.300528 28923 net.cpp:157] Top shape: 1 128 120 160 (2457600)
I0408 07:54:49.300529 28923 net.cpp:165] Memory required for data: 2954035284
I0408 07:54:49.300544 28923 layer_factory.hpp:77] Creating layer scale3a_branch2b
I0408 07:54:49.300565 28923 net.cpp:100] Creating Layer scale3a_branch2b
I0408 07:54:49.300570 28923 net.cpp:444] scale3a_branch2b <- res3a_branch2b
I0408 07:54:49.300580 28923 net.cpp:405] scale3a_branch2b -> res3a_branch2b (in-place)
I0408 07:54:49.300621 28923 layer_factory.hpp:77] Creating layer scale3a_branch2b
I0408 07:54:49.300773 28923 net.cpp:150] Setting up scale3a_branch2b
I0408 07:54:49.300779 28923 net.cpp:157] Top shape: 1 128 120 160 (2457600)
I0408 07:54:49.300781 28923 net.cpp:165] Memory required for data: 2963865684
I0408 07:54:49.300792 28923 layer_factory.hpp:77] Creating layer res3a_branch2b_relu
I0408 07:54:49.300801 28923 net.cpp:100] Creating Layer res3a_branch2b_relu
I0408 07:54:49.300806 28923 net.cpp:444] res3a_branch2b_relu <- res3a_branch2b
I0408 07:54:49.300814 28923 net.cpp:405] res3a_branch2b_relu -> res3a_branch2b (in-place)
I0408 07:54:49.300940 28923 net.cpp:150] Setting up res3a_branch2b_relu
I0408 07:54:49.300946 28923 net.cpp:157] Top shape: 1 128 120 160 (2457600)
I0408 07:54:49.300948 28923 net.cpp:165] Memory required for data: 2973696084
I0408 07:54:49.300952 28923 layer_factory.hpp:77] Creating layer res3a_branch2c
I0408 07:54:49.300964 28923 net.cpp:100] Creating Layer res3a_branch2c
I0408 07:54:49.300969 28923 net.cpp:444] res3a_branch2c <- res3a_branch2b
I0408 07:54:49.300981 28923 net.cpp:418] res3a_branch2c -> res3a_branch2c
I0408 07:54:49.301801 28923 cudnn_conv_layer.cpp:194] Reallocating workspace storage: 352152
I0408 07:54:49.301812 28923 net.cpp:150] Setting up res3a_branch2c
I0408 07:54:49.301820 28923 net.cpp:157] Top shape: 1 512 120 160 (9830400)
I0408 07:54:49.301821 28923 net.cpp:165] Memory required for data: 3013017684
I0408 07:54:49.301831 28923 layer_factory.hpp:77] Creating layer bn3a_branch2c
I0408 07:54:49.301847 28923 net.cpp:100] Creating Layer bn3a_branch2c
I0408 07:54:49.301854 28923 net.cpp:444] bn3a_branch2c <- res3a_branch2c
I0408 07:54:49.301867 28923 net.cpp:405] bn3a_branch2c -> res3a_branch2c (in-place)
I0408 07:54:49.302043 28923 net.cpp:150] Setting up bn3a_branch2c
I0408 07:54:49.302049 28923 net.cpp:157] Top shape: 1 512 120 160 (9830400)
I0408 07:54:49.302052 28923 net.cpp:165] Memory required for data: 3052339284
I0408 07:54:49.302065 28923 layer_factory.hpp:77] Creating layer scale3a_branch2c
I0408 07:54:49.302075 28923 net.cpp:100] Creating Layer scale3a_branch2c
I0408 07:54:49.302079 28923 net.cpp:444] scale3a_branch2c <- res3a_branch2c
I0408 07:54:49.302089 28923 net.cpp:405] scale3a_branch2c -> res3a_branch2c (in-place)
I0408 07:54:49.302127 28923 layer_factory.hpp:77] Creating layer scale3a_branch2c
I0408 07:54:49.302279 28923 net.cpp:150] Setting up scale3a_branch2c
I0408 07:54:49.302285 28923 net.cpp:157] Top shape: 1 512 120 160 (9830400)
I0408 07:54:49.302287 28923 net.cpp:165] Memory required for data: 3091660884
I0408 07:54:49.302296 28923 layer_factory.hpp:77] Creating layer res3a
I0408 07:54:49.302305 28923 net.cpp:100] Creating Layer res3a
I0408 07:54:49.302310 28923 net.cpp:444] res3a <- res3a_branch1
I0408 07:54:49.302317 28923 net.cpp:444] res3a <- res3a_branch2c
I0408 07:54:49.302323 28923 net.cpp:418] res3a -> res3a
I0408 07:54:49.302352 28923 net.cpp:150] Setting up res3a
I0408 07:54:49.302359 28923 net.cpp:157] Top shape: 1 512 120 160 (9830400)
I0408 07:54:49.302361 28923 net.cpp:165] Memory required for data: 3130982484
I0408 07:54:49.302364 28923 layer_factory.hpp:77] Creating layer res3a_relu
I0408 07:54:49.302372 28923 net.cpp:100] Creating Layer res3a_relu
I0408 07:54:49.302376 28923 net.cpp:444] res3a_relu <- res3a
I0408 07:54:49.302386 28923 net.cpp:405] res3a_relu -> res3a (in-place)
I0408 07:54:49.302713 28923 net.cpp:150] Setting up res3a_relu
I0408 07:54:49.302721 28923 net.cpp:157] Top shape: 1 512 120 160 (9830400)
I0408 07:54:49.302723 28923 net.cpp:165] Memory required for data: 3170304084
I0408 07:54:49.302727 28923 layer_factory.hpp:77] Creating layer res3a_res3a_relu_0_split
I0408 07:54:49.302736 28923 net.cpp:100] Creating Layer res3a_res3a_relu_0_split
I0408 07:54:49.302740 28923 net.cpp:444] res3a_res3a_relu_0_split <- res3a
I0408 07:54:49.302752 28923 net.cpp:418] res3a_res3a_relu_0_split -> res3a_res3a_relu_0_split_0
I0408 07:54:49.302765 28923 net.cpp:418] res3a_res3a_relu_0_split -> res3a_res3a_relu_0_split_1
I0408 07:54:49.302801 28923 net.cpp:150] Setting up res3a_res3a_relu_0_split
I0408 07:54:49.302809 28923 net.cpp:157] Top shape: 1 512 120 160 (9830400)
I0408 07:54:49.302812 28923 net.cpp:157] Top shape: 1 512 120 160 (9830400)
I0408 07:54:49.302814 28923 net.cpp:165] Memory required for data: 3248947284
I0408 07:54:49.302817 28923 layer_factory.hpp:77] Creating layer res3b_branch2a
I0408 07:54:49.302829 28923 net.cpp:100] Creating Layer res3b_branch2a
I0408 07:54:49.302834 28923 net.cpp:444] res3b_branch2a <- res3a_res3a_relu_0_split_0
I0408 07:54:49.302845 28923 net.cpp:418] res3b_branch2a -> res3b_branch2a
I0408 07:54:49.303671 28923 cudnn_conv_layer.cpp:194] Reallocating workspace storage: 352152
I0408 07:54:49.303686 28923 net.cpp:150] Setting up res3b_branch2a
I0408 07:54:49.303694 28923 net.cpp:157] Top shape: 1 128 120 160 (2457600)
I0408 07:54:49.303695 28923 net.cpp:165] Memory required for data: 3258777684
I0408 07:54:49.303704 28923 layer_factory.hpp:77] Creating layer bn3b_branch2a
I0408 07:54:49.303716 28923 net.cpp:100] Creating Layer bn3b_branch2a
I0408 07:54:49.303721 28923 net.cpp:444] bn3b_branch2a <- res3b_branch2a
I0408 07:54:49.303732 28923 net.cpp:405] bn3b_branch2a -> res3b_branch2a (in-place)
I0408 07:54:49.303906 28923 net.cpp:150] Setting up bn3b_branch2a
I0408 07:54:49.303911 28923 net.cpp:157] Top shape: 1 128 120 160 (2457600)
I0408 07:54:49.303913 28923 net.cpp:165] Memory required for data: 3268608084
I0408 07:54:49.303927 28923 layer_factory.hpp:77] Creating layer scale3b_branch2a
I0408 07:54:49.303939 28923 net.cpp:100] Creating Layer scale3b_branch2a
I0408 07:54:49.303943 28923 net.cpp:444] scale3b_branch2a <- res3b_branch2a
I0408 07:54:49.303952 28923 net.cpp:405] scale3b_branch2a -> res3b_branch2a (in-place)
I0408 07:54:49.303994 28923 layer_factory.hpp:77] Creating layer scale3b_branch2a
I0408 07:54:49.304661 28923 net.cpp:150] Setting up scale3b_branch2a
I0408 07:54:49.304668 28923 net.cpp:157] Top shape: 1 128 120 160 (2457600)
I0408 07:54:49.304671 28923 net.cpp:165] Memory required for data: 3278438484
I0408 07:54:49.304682 28923 layer_factory.hpp:77] Creating layer res3b_branch2a_relu
I0408 07:54:49.304690 28923 net.cpp:100] Creating Layer res3b_branch2a_relu
I0408 07:54:49.304695 28923 net.cpp:444] res3b_branch2a_relu <- res3b_branch2a
I0408 07:54:49.304705 28923 net.cpp:405] res3b_branch2a_relu -> res3b_branch2a (in-place)
I0408 07:54:49.304846 28923 net.cpp:150] Setting up res3b_branch2a_relu
I0408 07:54:49.304852 28923 net.cpp:157] Top shape: 1 128 120 160 (2457600)
I0408 07:54:49.304854 28923 net.cpp:165] Memory required for data: 3288268884
I0408 07:54:49.304857 28923 layer_factory.hpp:77] Creating layer res3b_branch2b
I0408 07:54:49.304869 28923 net.cpp:100] Creating Layer res3b_branch2b
I0408 07:54:49.304874 28923 net.cpp:444] res3b_branch2b <- res3b_branch2a
I0408 07:54:49.304888 28923 net.cpp:418] res3b_branch2b -> res3b_branch2b
I0408 07:54:49.306051 28923 cudnn_conv_layer.cpp:194] Reallocating workspace storage: 3145728
I0408 07:54:49.306257 28923 net.cpp:150] Setting up res3b_branch2b
I0408 07:54:49.306267 28923 net.cpp:157] Top shape: 1 128 120 160 (2457600)
I0408 07:54:49.306270 28923 net.cpp:165] Memory required for data: 3298099284
I0408 07:54:49.306288 28923 layer_factory.hpp:77] Creating layer bn3b_branch2b
I0408 07:54:49.306300 28923 net.cpp:100] Creating Layer bn3b_branch2b
I0408 07:54:49.306305 28923 net.cpp:444] bn3b_branch2b <- res3b_branch2b
I0408 07:54:49.306318 28923 net.cpp:405] bn3b_branch2b -> res3b_branch2b (in-place)
I0408 07:54:49.306485 28923 net.cpp:150] Setting up bn3b_branch2b
I0408 07:54:49.306490 28923 net.cpp:157] Top shape: 1 128 120 160 (2457600)
I0408 07:54:49.306493 28923 net.cpp:165] Memory required for data: 3307929684
I0408 07:54:49.306506 28923 layer_factory.hpp:77] Creating layer scale3b_branch2b
I0408 07:54:49.306516 28923 net.cpp:100] Creating Layer scale3b_branch2b
I0408 07:54:49.306521 28923 net.cpp:444] scale3b_branch2b <- res3b_branch2b
I0408 07:54:49.306530 28923 net.cpp:405] scale3b_branch2b -> res3b_branch2b (in-place)
I0408 07:54:49.306573 28923 layer_factory.hpp:77] Creating layer scale3b_branch2b
I0408 07:54:49.306726 28923 net.cpp:150] Setting up scale3b_branch2b
I0408 07:54:49.306733 28923 net.cpp:157] Top shape: 1 128 120 160 (2457600)
I0408 07:54:49.306735 28923 net.cpp:165] Memory required for data: 3317760084
I0408 07:54:49.306744 28923 layer_factory.hpp:77] Creating layer res3b_branch2b_relu
I0408 07:54:49.306752 28923 net.cpp:100] Creating Layer res3b_branch2b_relu
I0408 07:54:49.306756 28923 net.cpp:444] res3b_branch2b_relu <- res3b_branch2b
I0408 07:54:49.306764 28923 net.cpp:405] res3b_branch2b_relu -> res3b_branch2b (in-place)
I0408 07:54:49.306902 28923 net.cpp:150] Setting up res3b_branch2b_relu
I0408 07:54:49.306908 28923 net.cpp:157] Top shape: 1 128 120 160 (2457600)
I0408 07:54:49.306910 28923 net.cpp:165] Memory required for data: 3327590484
I0408 07:54:49.306915 28923 layer_factory.hpp:77] Creating layer res3b_branch2c
I0408 07:54:49.306927 28923 net.cpp:100] Creating Layer res3b_branch2c
I0408 07:54:49.306931 28923 net.cpp:444] res3b_branch2c <- res3b_branch2b
I0408 07:54:49.306942 28923 net.cpp:418] res3b_branch2c -> res3b_branch2c
I0408 07:54:49.307766 28923 cudnn_conv_layer.cpp:194] Reallocating workspace storage: 352152
I0408 07:54:49.307777 28923 net.cpp:150] Setting up res3b_branch2c
I0408 07:54:49.307785 28923 net.cpp:157] Top shape: 1 512 120 160 (9830400)
I0408 07:54:49.307786 28923 net.cpp:165] Memory required for data: 3366912084
I0408 07:54:49.307796 28923 layer_factory.hpp:77] Creating layer bn3b_branch2c
I0408 07:54:49.307816 28923 net.cpp:100] Creating Layer bn3b_branch2c
I0408 07:54:49.307821 28923 net.cpp:444] bn3b_branch2c <- res3b_branch2c
I0408 07:54:49.307832 28923 net.cpp:405] bn3b_branch2c -> res3b_branch2c (in-place)
I0408 07:54:49.308001 28923 net.cpp:150] Setting up bn3b_branch2c
I0408 07:54:49.308007 28923 net.cpp:157] Top shape: 1 512 120 160 (9830400)
I0408 07:54:49.308008 28923 net.cpp:165] Memory required for data: 3406233684
I0408 07:54:49.308022 28923 layer_factory.hpp:77] Creating layer scale3b_branch2c
I0408 07:54:49.308032 28923 net.cpp:100] Creating Layer scale3b_branch2c
I0408 07:54:49.308037 28923 net.cpp:444] scale3b_branch2c <- res3b_branch2c
I0408 07:54:49.308046 28923 net.cpp:405] scale3b_branch2c -> res3b_branch2c (in-place)
I0408 07:54:49.308085 28923 layer_factory.hpp:77] Creating layer scale3b_branch2c
I0408 07:54:49.308243 28923 net.cpp:150] Setting up scale3b_branch2c
I0408 07:54:49.308248 28923 net.cpp:157] Top shape: 1 512 120 160 (9830400)
I0408 07:54:49.308250 28923 net.cpp:165] Memory required for data: 3445555284
I0408 07:54:49.308259 28923 layer_factory.hpp:77] Creating layer res3b
I0408 07:54:49.308269 28923 net.cpp:100] Creating Layer res3b
I0408 07:54:49.308274 28923 net.cpp:444] res3b <- res3a_res3a_relu_0_split_1
I0408 07:54:49.308280 28923 net.cpp:444] res3b <- res3b_branch2c
I0408 07:54:49.308288 28923 net.cpp:418] res3b -> res3b
I0408 07:54:49.308317 28923 net.cpp:150] Setting up res3b
I0408 07:54:49.308324 28923 net.cpp:157] Top shape: 1 512 120 160 (9830400)
I0408 07:54:49.308326 28923 net.cpp:165] Memory required for data: 3484876884
I0408 07:54:49.308331 28923 layer_factory.hpp:77] Creating layer res3b_relu
I0408 07:54:49.308337 28923 net.cpp:100] Creating Layer res3b_relu
I0408 07:54:49.308341 28923 net.cpp:444] res3b_relu <- res3b
I0408 07:54:49.308351 28923 net.cpp:405] res3b_relu -> res3b (in-place)
I0408 07:54:49.308673 28923 net.cpp:150] Setting up res3b_relu
I0408 07:54:49.308681 28923 net.cpp:157] Top shape: 1 512 120 160 (9830400)
I0408 07:54:49.308683 28923 net.cpp:165] Memory required for data: 3524198484
I0408 07:54:49.308687 28923 layer_factory.hpp:77] Creating layer res3b_res3b_relu_0_split
I0408 07:54:49.308696 28923 net.cpp:100] Creating Layer res3b_res3b_relu_0_split
I0408 07:54:49.308701 28923 net.cpp:444] res3b_res3b_relu_0_split <- res3b
I0408 07:54:49.308712 28923 net.cpp:418] res3b_res3b_relu_0_split -> res3b_res3b_relu_0_split_0
I0408 07:54:49.308724 28923 net.cpp:418] res3b_res3b_relu_0_split -> res3b_res3b_relu_0_split_1
I0408 07:54:49.308769 28923 net.cpp:150] Setting up res3b_res3b_relu_0_split
I0408 07:54:49.308776 28923 net.cpp:157] Top shape: 1 512 120 160 (9830400)
I0408 07:54:49.308780 28923 net.cpp:157] Top shape: 1 512 120 160 (9830400)
I0408 07:54:49.308782 28923 net.cpp:165] Memory required for data: 3602841684
I0408 07:54:49.308785 28923 layer_factory.hpp:77] Creating layer res3c_branch2a
I0408 07:54:49.308797 28923 net.cpp:100] Creating Layer res3c_branch2a
I0408 07:54:49.308802 28923 net.cpp:444] res3c_branch2a <- res3b_res3b_relu_0_split_0
I0408 07:54:49.308814 28923 net.cpp:418] res3c_branch2a -> res3c_branch2a
I0408 07:54:49.309619 28923 cudnn_conv_layer.cpp:194] Reallocating workspace storage: 352152
I0408 07:54:49.309635 28923 net.cpp:150] Setting up res3c_branch2a
I0408 07:54:49.309643 28923 net.cpp:157] Top shape: 1 128 120 160 (2457600)
I0408 07:54:49.309644 28923 net.cpp:165] Memory required for data: 3612672084
I0408 07:54:49.309662 28923 layer_factory.hpp:77] Creating layer bn3c_branch2a
I0408 07:54:49.309674 28923 net.cpp:100] Creating Layer bn3c_branch2a
I0408 07:54:49.309679 28923 net.cpp:444] bn3c_branch2a <- res3c_branch2a
I0408 07:54:49.309690 28923 net.cpp:405] bn3c_branch2a -> res3c_branch2a (in-place)
I0408 07:54:49.309872 28923 net.cpp:150] Setting up bn3c_branch2a
I0408 07:54:49.309880 28923 net.cpp:157] Top shape: 1 128 120 160 (2457600)
I0408 07:54:49.309881 28923 net.cpp:165] Memory required for data: 3622502484
I0408 07:54:49.309895 28923 layer_factory.hpp:77] Creating layer scale3c_branch2a
I0408 07:54:49.309906 28923 net.cpp:100] Creating Layer scale3c_branch2a
I0408 07:54:49.309911 28923 net.cpp:444] scale3c_branch2a <- res3c_branch2a
I0408 07:54:49.309919 28923 net.cpp:405] scale3c_branch2a -> res3c_branch2a (in-place)
I0408 07:54:49.309960 28923 layer_factory.hpp:77] Creating layer scale3c_branch2a
I0408 07:54:49.310114 28923 net.cpp:150] Setting up scale3c_branch2a
I0408 07:54:49.310120 28923 net.cpp:157] Top shape: 1 128 120 160 (2457600)
I0408 07:54:49.310122 28923 net.cpp:165] Memory required for data: 3632332884
I0408 07:54:49.310132 28923 layer_factory.hpp:77] Creating layer res3c_branch2a_relu
I0408 07:54:49.310140 28923 net.cpp:100] Creating Layer res3c_branch2a_relu
I0408 07:54:49.310144 28923 net.cpp:444] res3c_branch2a_relu <- res3c_branch2a
I0408 07:54:49.310153 28923 net.cpp:405] res3c_branch2a_relu -> res3c_branch2a (in-place)
I0408 07:54:49.310278 28923 net.cpp:150] Setting up res3c_branch2a_relu
I0408 07:54:49.310292 28923 net.cpp:157] Top shape: 1 128 120 160 (2457600)
I0408 07:54:49.310294 28923 net.cpp:165] Memory required for data: 3642163284
I0408 07:54:49.310298 28923 layer_factory.hpp:77] Creating layer res3c_branch2b
I0408 07:54:49.310310 28923 net.cpp:100] Creating Layer res3c_branch2b
I0408 07:54:49.310315 28923 net.cpp:444] res3c_branch2b <- res3c_branch2a
I0408 07:54:49.310326 28923 net.cpp:418] res3c_branch2b -> res3c_branch2b
I0408 07:54:49.311260 28923 cudnn_conv_layer.cpp:194] Reallocating workspace storage: 3145728
I0408 07:54:49.311463 28923 net.cpp:150] Setting up res3c_branch2b
I0408 07:54:49.311472 28923 net.cpp:157] Top shape: 1 128 120 160 (2457600)
I0408 07:54:49.311475 28923 net.cpp:165] Memory required for data: 3651993684
I0408 07:54:49.311484 28923 layer_factory.hpp:77] Creating layer bn3c_branch2b
I0408 07:54:49.311496 28923 net.cpp:100] Creating Layer bn3c_branch2b
I0408 07:54:49.311501 28923 net.cpp:444] bn3c_branch2b <- res3c_branch2b
I0408 07:54:49.311520 28923 net.cpp:405] bn3c_branch2b -> res3c_branch2b (in-place)
I0408 07:54:49.311695 28923 net.cpp:150] Setting up bn3c_branch2b
I0408 07:54:49.311702 28923 net.cpp:157] Top shape: 1 128 120 160 (2457600)
I0408 07:54:49.311703 28923 net.cpp:165] Memory required for data: 3661824084
I0408 07:54:49.311717 28923 layer_factory.hpp:77] Creating layer scale3c_branch2b
I0408 07:54:49.311728 28923 net.cpp:100] Creating Layer scale3c_branch2b
I0408 07:54:49.311733 28923 net.cpp:444] scale3c_branch2b <- res3c_branch2b
I0408 07:54:49.311741 28923 net.cpp:405] scale3c_branch2b -> res3c_branch2b (in-place)
I0408 07:54:49.311784 28923 layer_factory.hpp:77] Creating layer scale3c_branch2b
I0408 07:54:49.311936 28923 net.cpp:150] Setting up scale3c_branch2b
I0408 07:54:49.311942 28923 net.cpp:157] Top shape: 1 128 120 160 (2457600)
I0408 07:54:49.311944 28923 net.cpp:165] Memory required for data: 3671654484
I0408 07:54:49.311954 28923 layer_factory.hpp:77] Creating layer res3c_branch2b_relu
I0408 07:54:49.311962 28923 net.cpp:100] Creating Layer res3c_branch2b_relu
I0408 07:54:49.311966 28923 net.cpp:444] res3c_branch2b_relu <- res3c_branch2b
I0408 07:54:49.311975 28923 net.cpp:405] res3c_branch2b_relu -> res3c_branch2b (in-place)
I0408 07:54:49.312103 28923 net.cpp:150] Setting up res3c_branch2b_relu
I0408 07:54:49.312108 28923 net.cpp:157] Top shape: 1 128 120 160 (2457600)
I0408 07:54:49.312110 28923 net.cpp:165] Memory required for data: 3681484884
I0408 07:54:49.312114 28923 layer_factory.hpp:77] Creating layer res3c_branch2c
I0408 07:54:49.312135 28923 net.cpp:100] Creating Layer res3c_branch2c
I0408 07:54:49.312141 28923 net.cpp:444] res3c_branch2c <- res3c_branch2b
I0408 07:54:49.312152 28923 net.cpp:418] res3c_branch2c -> res3c_branch2c
I0408 07:54:49.312986 28923 cudnn_conv_layer.cpp:194] Reallocating workspace storage: 352152
I0408 07:54:49.312997 28923 net.cpp:150] Setting up res3c_branch2c
I0408 07:54:49.313004 28923 net.cpp:157] Top shape: 1 512 120 160 (9830400)
I0408 07:54:49.313006 28923 net.cpp:165] Memory required for data: 3720806484
I0408 07:54:49.313015 28923 layer_factory.hpp:77] Creating layer bn3c_branch2c
I0408 07:54:49.313026 28923 net.cpp:100] Creating Layer bn3c_branch2c
I0408 07:54:49.313031 28923 net.cpp:444] bn3c_branch2c <- res3c_branch2c
I0408 07:54:49.313052 28923 net.cpp:405] bn3c_branch2c -> res3c_branch2c (in-place)
I0408 07:54:49.313223 28923 net.cpp:150] Setting up bn3c_branch2c
I0408 07:54:49.313228 28923 net.cpp:157] Top shape: 1 512 120 160 (9830400)
I0408 07:54:49.313231 28923 net.cpp:165] Memory required for data: 3760128084
I0408 07:54:49.313244 28923 layer_factory.hpp:77] Creating layer scale3c_branch2c
I0408 07:54:49.313254 28923 net.cpp:100] Creating Layer scale3c_branch2c
I0408 07:54:49.313258 28923 net.cpp:444] scale3c_branch2c <- res3c_branch2c
I0408 07:54:49.313267 28923 net.cpp:405] scale3c_branch2c -> res3c_branch2c (in-place)
I0408 07:54:49.313307 28923 layer_factory.hpp:77] Creating layer scale3c_branch2c
I0408 07:54:49.313465 28923 net.cpp:150] Setting up scale3c_branch2c
I0408 07:54:49.313472 28923 net.cpp:157] Top shape: 1 512 120 160 (9830400)
I0408 07:54:49.313473 28923 net.cpp:165] Memory required for data: 3799449684
I0408 07:54:49.313482 28923 layer_factory.hpp:77] Creating layer res3c
I0408 07:54:49.313491 28923 net.cpp:100] Creating Layer res3c
I0408 07:54:49.313495 28923 net.cpp:444] res3c <- res3b_res3b_relu_0_split_1
I0408 07:54:49.313503 28923 net.cpp:444] res3c <- res3c_branch2c
I0408 07:54:49.313511 28923 net.cpp:418] res3c -> res3c
I0408 07:54:49.313539 28923 net.cpp:150] Setting up res3c
I0408 07:54:49.313546 28923 net.cpp:157] Top shape: 1 512 120 160 (9830400)
I0408 07:54:49.313549 28923 net.cpp:165] Memory required for data: 3838771284
I0408 07:54:49.313552 28923 layer_factory.hpp:77] Creating layer res3c_relu
I0408 07:54:49.313560 28923 net.cpp:100] Creating Layer res3c_relu
I0408 07:54:49.313565 28923 net.cpp:444] res3c_relu <- res3c
I0408 07:54:49.313572 28923 net.cpp:405] res3c_relu -> res3c (in-place)
I0408 07:54:49.313701 28923 net.cpp:150] Setting up res3c_relu
I0408 07:54:49.313707 28923 net.cpp:157] Top shape: 1 512 120 160 (9830400)
I0408 07:54:49.313709 28923 net.cpp:165] Memory required for data: 3878092884
I0408 07:54:49.313714 28923 layer_factory.hpp:77] Creating layer res3c_res3c_relu_0_split
I0408 07:54:49.313721 28923 net.cpp:100] Creating Layer res3c_res3c_relu_0_split
I0408 07:54:49.313724 28923 net.cpp:444] res3c_res3c_relu_0_split <- res3c
I0408 07:54:49.313735 28923 net.cpp:418] res3c_res3c_relu_0_split -> res3c_res3c_relu_0_split_0
I0408 07:54:49.313747 28923 net.cpp:418] res3c_res3c_relu_0_split -> res3c_res3c_relu_0_split_1
I0408 07:54:49.313782 28923 net.cpp:150] Setting up res3c_res3c_relu_0_split
I0408 07:54:49.313789 28923 net.cpp:157] Top shape: 1 512 120 160 (9830400)
I0408 07:54:49.313792 28923 net.cpp:157] Top shape: 1 512 120 160 (9830400)
I0408 07:54:49.313794 28923 net.cpp:165] Memory required for data: 3956736084
I0408 07:54:49.313798 28923 layer_factory.hpp:77] Creating layer res3d_branch2a
I0408 07:54:49.313809 28923 net.cpp:100] Creating Layer res3d_branch2a
I0408 07:54:49.313814 28923 net.cpp:444] res3d_branch2a <- res3c_res3c_relu_0_split_0
I0408 07:54:49.313825 28923 net.cpp:418] res3d_branch2a -> res3d_branch2a
I0408 07:54:49.315212 28923 cudnn_conv_layer.cpp:194] Reallocating workspace storage: 352152
I0408 07:54:49.315230 28923 net.cpp:150] Setting up res3d_branch2a
I0408 07:54:49.315237 28923 net.cpp:157] Top shape: 1 128 120 160 (2457600)
I0408 07:54:49.315240 28923 net.cpp:165] Memory required for data: 3966566484
I0408 07:54:49.315249 28923 layer_factory.hpp:77] Creating layer bn3d_branch2a
I0408 07:54:49.315263 28923 net.cpp:100] Creating Layer bn3d_branch2a
I0408 07:54:49.315268 28923 net.cpp:444] bn3d_branch2a <- res3d_branch2a
I0408 07:54:49.315279 28923 net.cpp:405] bn3d_branch2a -> res3d_branch2a (in-place)
I0408 07:54:49.315450 28923 net.cpp:150] Setting up bn3d_branch2a
I0408 07:54:49.315456 28923 net.cpp:157] Top shape: 1 128 120 160 (2457600)
I0408 07:54:49.315460 28923 net.cpp:165] Memory required for data: 3976396884
I0408 07:54:49.315501 28923 layer_factory.hpp:77] Creating layer scale3d_branch2a
I0408 07:54:49.315513 28923 net.cpp:100] Creating Layer scale3d_branch2a
I0408 07:54:49.315518 28923 net.cpp:444] scale3d_branch2a <- res3d_branch2a
I0408 07:54:49.315527 28923 net.cpp:405] scale3d_branch2a -> res3d_branch2a (in-place)
I0408 07:54:49.315572 28923 layer_factory.hpp:77] Creating layer scale3d_branch2a
I0408 07:54:49.315717 28923 net.cpp:150] Setting up scale3d_branch2a
I0408 07:54:49.315723 28923 net.cpp:157] Top shape: 1 128 120 160 (2457600)
I0408 07:54:49.315726 28923 net.cpp:165] Memory required for data: 3986227284
I0408 07:54:49.315735 28923 layer_factory.hpp:77] Creating layer res3d_branch2a_relu
I0408 07:54:49.315744 28923 net.cpp:100] Creating Layer res3d_branch2a_relu
I0408 07:54:49.315748 28923 net.cpp:444] res3d_branch2a_relu <- res3d_branch2a
I0408 07:54:49.315767 28923 net.cpp:405] res3d_branch2a_relu -> res3d_branch2a (in-place)
I0408 07:54:49.316102 28923 net.cpp:150] Setting up res3d_branch2a_relu
I0408 07:54:49.316108 28923 net.cpp:157] Top shape: 1 128 120 160 (2457600)
I0408 07:54:49.316110 28923 net.cpp:165] Memory required for data: 3996057684
I0408 07:54:49.316115 28923 layer_factory.hpp:77] Creating layer res3d_branch2b
I0408 07:54:49.316128 28923 net.cpp:100] Creating Layer res3d_branch2b
I0408 07:54:49.316133 28923 net.cpp:444] res3d_branch2b <- res3d_branch2a
I0408 07:54:49.316145 28923 net.cpp:418] res3d_branch2b -> res3d_branch2b
I0408 07:54:49.317617 28923 cudnn_conv_layer.cpp:194] Reallocating workspace storage: 3145728
I0408 07:54:49.317831 28923 net.cpp:150] Setting up res3d_branch2b
I0408 07:54:49.317848 28923 net.cpp:157] Top shape: 1 128 120 160 (2457600)
I0408 07:54:49.317852 28923 net.cpp:165] Memory required for data: 4005888084
I0408 07:54:49.317864 28923 layer_factory.hpp:77] Creating layer bn3d_branch2b
I0408 07:54:49.317879 28923 net.cpp:100] Creating Layer bn3d_branch2b
I0408 07:54:49.317884 28923 net.cpp:444] bn3d_branch2b <- res3d_branch2b
I0408 07:54:49.317895 28923 net.cpp:405] bn3d_branch2b -> res3d_branch2b (in-place)
I0408 07:54:49.318073 28923 net.cpp:150] Setting up bn3d_branch2b
I0408 07:54:49.318079 28923 net.cpp:157] Top shape: 1 128 120 160 (2457600)
I0408 07:54:49.318081 28923 net.cpp:165] Memory required for data: 4015718484
I0408 07:54:49.318095 28923 layer_factory.hpp:77] Creating layer scale3d_branch2b
I0408 07:54:49.318106 28923 net.cpp:100] Creating Layer scale3d_branch2b
I0408 07:54:49.318110 28923 net.cpp:444] scale3d_branch2b <- res3d_branch2b
I0408 07:54:49.318128 28923 net.cpp:405] scale3d_branch2b -> res3d_branch2b (in-place)
I0408 07:54:49.318171 28923 layer_factory.hpp:77] Creating layer scale3d_branch2b
I0408 07:54:49.318318 28923 net.cpp:150] Setting up scale3d_branch2b
I0408 07:54:49.318325 28923 net.cpp:157] Top shape: 1 128 120 160 (2457600)
I0408 07:54:49.318326 28923 net.cpp:165] Memory required for data: 4025548884
I0408 07:54:49.318336 28923 layer_factory.hpp:77] Creating layer res3d_branch2b_relu
I0408 07:54:49.318344 28923 net.cpp:100] Creating Layer res3d_branch2b_relu
I0408 07:54:49.318349 28923 net.cpp:444] res3d_branch2b_relu <- res3d_branch2b
I0408 07:54:49.318358 28923 net.cpp:405] res3d_branch2b_relu -> res3d_branch2b (in-place)
I0408 07:54:49.318495 28923 net.cpp:150] Setting up res3d_branch2b_relu
I0408 07:54:49.318500 28923 net.cpp:157] Top shape: 1 128 120 160 (2457600)
I0408 07:54:49.318503 28923 net.cpp:165] Memory required for data: 4035379284
I0408 07:54:49.318506 28923 layer_factory.hpp:77] Creating layer res3d_branch2c
I0408 07:54:49.318519 28923 net.cpp:100] Creating Layer res3d_branch2c
I0408 07:54:49.318523 28923 net.cpp:444] res3d_branch2c <- res3d_branch2b
I0408 07:54:49.318534 28923 net.cpp:418] res3d_branch2c -> res3d_branch2c
I0408 07:54:49.319382 28923 cudnn_conv_layer.cpp:194] Reallocating workspace storage: 352152
I0408 07:54:49.319396 28923 net.cpp:150] Setting up res3d_branch2c
I0408 07:54:49.319401 28923 net.cpp:157] Top shape: 1 512 120 160 (9830400)
I0408 07:54:49.319404 28923 net.cpp:165] Memory required for data: 4074700884
I0408 07:54:49.319413 28923 layer_factory.hpp:77] Creating layer bn3d_branch2c
I0408 07:54:49.319423 28923 net.cpp:100] Creating Layer bn3d_branch2c
I0408 07:54:49.319428 28923 net.cpp:444] bn3d_branch2c <- res3d_branch2c
I0408 07:54:49.319439 28923 net.cpp:405] bn3d_branch2c -> res3d_branch2c (in-place)
I0408 07:54:49.319623 28923 net.cpp:150] Setting up bn3d_branch2c
I0408 07:54:49.319629 28923 net.cpp:157] Top shape: 1 512 120 160 (9830400)
I0408 07:54:49.319631 28923 net.cpp:165] Memory required for data: 4114022484
I0408 07:54:49.319645 28923 layer_factory.hpp:77] Creating layer scale3d_branch2c
I0408 07:54:49.319655 28923 net.cpp:100] Creating Layer scale3d_branch2c
I0408 07:54:49.319659 28923 net.cpp:444] scale3d_branch2c <- res3d_branch2c
I0408 07:54:49.319669 28923 net.cpp:405] scale3d_branch2c -> res3d_branch2c (in-place)
I0408 07:54:49.319708 28923 layer_factory.hpp:77] Creating layer scale3d_branch2c
I0408 07:54:49.319865 28923 net.cpp:150] Setting up scale3d_branch2c
I0408 07:54:49.319871 28923 net.cpp:157] Top shape: 1 512 120 160 (9830400)
I0408 07:54:49.319874 28923 net.cpp:165] Memory required for data: 4153344084
I0408 07:54:49.319882 28923 layer_factory.hpp:77] Creating layer res3d
I0408 07:54:49.319891 28923 net.cpp:100] Creating Layer res3d
I0408 07:54:49.319896 28923 net.cpp:444] res3d <- res3c_res3c_relu_0_split_1
I0408 07:54:49.319903 28923 net.cpp:444] res3d <- res3d_branch2c
I0408 07:54:49.319911 28923 net.cpp:418] res3d -> res3d
I0408 07:54:49.319939 28923 net.cpp:150] Setting up res3d
I0408 07:54:49.319947 28923 net.cpp:157] Top shape: 1 512 120 160 (9830400)
I0408 07:54:49.319948 28923 net.cpp:165] Memory required for data: 4192665684
I0408 07:54:49.319952 28923 layer_factory.hpp:77] Creating layer res3d_relu
I0408 07:54:49.319959 28923 net.cpp:100] Creating Layer res3d_relu
I0408 07:54:49.319963 28923 net.cpp:444] res3d_relu <- res3d
I0408 07:54:49.319972 28923 net.cpp:405] res3d_relu -> res3d (in-place)
I0408 07:54:49.320096 28923 net.cpp:150] Setting up res3d_relu
I0408 07:54:49.320102 28923 net.cpp:157] Top shape: 1 512 120 160 (9830400)
I0408 07:54:49.320106 28923 net.cpp:165] Memory required for data: 4231987284
I0408 07:54:49.320108 28923 layer_factory.hpp:77] Creating layer res3d_res3d_relu_0_split
I0408 07:54:49.320127 28923 net.cpp:100] Creating Layer res3d_res3d_relu_0_split
I0408 07:54:49.320130 28923 net.cpp:444] res3d_res3d_relu_0_split <- res3d
I0408 07:54:49.320140 28923 net.cpp:418] res3d_res3d_relu_0_split -> res3d_res3d_relu_0_split_0
I0408 07:54:49.320152 28923 net.cpp:418] res3d_res3d_relu_0_split -> res3d_res3d_relu_0_split_1
I0408 07:54:49.320188 28923 net.cpp:150] Setting up res3d_res3d_relu_0_split
I0408 07:54:49.320195 28923 net.cpp:157] Top shape: 1 512 120 160 (9830400)
I0408 07:54:49.320199 28923 net.cpp:157] Top shape: 1 512 120 160 (9830400)
I0408 07:54:49.320200 28923 net.cpp:165] Memory required for data: 4310630484
I0408 07:54:49.320204 28923 layer_factory.hpp:77] Creating layer res4a_branch1
I0408 07:54:49.320215 28923 net.cpp:100] Creating Layer res4a_branch1
I0408 07:54:49.320219 28923 net.cpp:444] res4a_branch1 <- res3d_res3d_relu_0_split_0
I0408 07:54:49.320230 28923 net.cpp:418] res4a_branch1 -> res4a_branch1
I0408 07:54:49.322212 28923 cudnn_conv_layer.cpp:194] Reallocating workspace storage: 86424
I0408 07:54:49.322430 28923 net.cpp:150] Setting up res4a_branch1
I0408 07:54:49.322440 28923 net.cpp:157] Top shape: 1 1024 60 80 (4915200)
I0408 07:54:49.322443 28923 net.cpp:165] Memory required for data: 4330291284
I0408 07:54:49.322455 28923 layer_factory.hpp:77] Creating layer bn4a_branch1
I0408 07:54:49.322469 28923 net.cpp:100] Creating Layer bn4a_branch1
I0408 07:54:49.322474 28923 net.cpp:444] bn4a_branch1 <- res4a_branch1
I0408 07:54:49.322486 28923 net.cpp:405] bn4a_branch1 -> res4a_branch1 (in-place)
I0408 07:54:49.322652 28923 net.cpp:150] Setting up bn4a_branch1
I0408 07:54:49.322659 28923 net.cpp:157] Top shape: 1 1024 60 80 (4915200)
I0408 07:54:49.322660 28923 net.cpp:165] Memory required for data: 4349952084
I0408 07:54:49.322674 28923 layer_factory.hpp:77] Creating layer scale4a_branch1
I0408 07:54:49.322685 28923 net.cpp:100] Creating Layer scale4a_branch1
I0408 07:54:49.322690 28923 net.cpp:444] scale4a_branch1 <- res4a_branch1
I0408 07:54:49.322706 28923 net.cpp:405] scale4a_branch1 -> res4a_branch1 (in-place)
I0408 07:54:49.322748 28923 layer_factory.hpp:77] Creating layer scale4a_branch1
I0408 07:54:49.322877 28923 net.cpp:150] Setting up scale4a_branch1
I0408 07:54:49.322883 28923 net.cpp:157] Top shape: 1 1024 60 80 (4915200)
I0408 07:54:49.322885 28923 net.cpp:165] Memory required for data: 4369612884
I0408 07:54:49.322895 28923 layer_factory.hpp:77] Creating layer res4a_branch2a
I0408 07:54:49.322906 28923 net.cpp:100] Creating Layer res4a_branch2a
I0408 07:54:49.322911 28923 net.cpp:444] res4a_branch2a <- res3d_res3d_relu_0_split_1
I0408 07:54:49.322923 28923 net.cpp:418] res4a_branch2a -> res4a_branch2a
I0408 07:54:49.323868 28923 cudnn_conv_layer.cpp:194] Reallocating workspace storage: 86424
I0408 07:54:49.323884 28923 net.cpp:150] Setting up res4a_branch2a
I0408 07:54:49.323890 28923 net.cpp:157] Top shape: 1 256 60 80 (1228800)
I0408 07:54:49.323894 28923 net.cpp:165] Memory required for data: 4374528084
I0408 07:54:49.323902 28923 layer_factory.hpp:77] Creating layer bn4a_branch2a
I0408 07:54:49.323915 28923 net.cpp:100] Creating Layer bn4a_branch2a
I0408 07:54:49.323920 28923 net.cpp:444] bn4a_branch2a <- res4a_branch2a
I0408 07:54:49.323930 28923 net.cpp:405] bn4a_branch2a -> res4a_branch2a (in-place)
I0408 07:54:49.324091 28923 net.cpp:150] Setting up bn4a_branch2a
I0408 07:54:49.324097 28923 net.cpp:157] Top shape: 1 256 60 80 (1228800)
I0408 07:54:49.324100 28923 net.cpp:165] Memory required for data: 4379443284
I0408 07:54:49.324112 28923 layer_factory.hpp:77] Creating layer scale4a_branch2a
I0408 07:54:49.324123 28923 net.cpp:100] Creating Layer scale4a_branch2a
I0408 07:54:49.324137 28923 net.cpp:444] scale4a_branch2a <- res4a_branch2a
I0408 07:54:49.324146 28923 net.cpp:405] scale4a_branch2a -> res4a_branch2a (in-place)
I0408 07:54:49.324190 28923 layer_factory.hpp:77] Creating layer scale4a_branch2a
I0408 07:54:49.324308 28923 net.cpp:150] Setting up scale4a_branch2a
I0408 07:54:49.324316 28923 net.cpp:157] Top shape: 1 256 60 80 (1228800)
I0408 07:54:49.324317 28923 net.cpp:165] Memory required for data: 4384358484
I0408 07:54:49.324326 28923 layer_factory.hpp:77] Creating layer res4a_branch2a_relu
I0408 07:54:49.324335 28923 net.cpp:100] Creating Layer res4a_branch2a_relu
I0408 07:54:49.324339 28923 net.cpp:444] res4a_branch2a_relu <- res4a_branch2a
I0408 07:54:49.324348 28923 net.cpp:405] res4a_branch2a_relu -> res4a_branch2a (in-place)
I0408 07:54:49.324682 28923 net.cpp:150] Setting up res4a_branch2a_relu
I0408 07:54:49.324690 28923 net.cpp:157] Top shape: 1 256 60 80 (1228800)
I0408 07:54:49.324692 28923 net.cpp:165] Memory required for data: 4389273684
I0408 07:54:49.324705 28923 layer_factory.hpp:77] Creating layer res4a_branch2b
I0408 07:54:49.324718 28923 net.cpp:100] Creating Layer res4a_branch2b
I0408 07:54:49.324723 28923 net.cpp:444] res4a_branch2b <- res4a_branch2a
I0408 07:54:49.324735 28923 net.cpp:418] res4a_branch2b -> res4a_branch2b
I0408 07:54:49.326876 28923 cudnn_conv_layer.cpp:194] Reallocating workspace storage: 12582912
I0408 07:54:49.327095 28923 net.cpp:150] Setting up res4a_branch2b
I0408 07:54:49.327105 28923 net.cpp:157] Top shape: 1 256 60 80 (1228800)
I0408 07:54:49.327108 28923 net.cpp:165] Memory required for data: 4394188884
I0408 07:54:49.327119 28923 layer_factory.hpp:77] Creating layer bn4a_branch2b
I0408 07:54:49.327132 28923 net.cpp:100] Creating Layer bn4a_branch2b
I0408 07:54:49.327138 28923 net.cpp:444] bn4a_branch2b <- res4a_branch2b
I0408 07:54:49.327149 28923 net.cpp:405] bn4a_branch2b -> res4a_branch2b (in-place)
I0408 07:54:49.327332 28923 net.cpp:150] Setting up bn4a_branch2b
I0408 07:54:49.327338 28923 net.cpp:157] Top shape: 1 256 60 80 (1228800)
I0408 07:54:49.327340 28923 net.cpp:165] Memory required for data: 4399104084
I0408 07:54:49.327353 28923 layer_factory.hpp:77] Creating layer scale4a_branch2b
I0408 07:54:49.327364 28923 net.cpp:100] Creating Layer scale4a_branch2b
I0408 07:54:49.327368 28923 net.cpp:444] scale4a_branch2b <- res4a_branch2b
I0408 07:54:49.327378 28923 net.cpp:405] scale4a_branch2b -> res4a_branch2b (in-place)
I0408 07:54:49.327422 28923 layer_factory.hpp:77] Creating layer scale4a_branch2b
I0408 07:54:49.327545 28923 net.cpp:150] Setting up scale4a_branch2b
I0408 07:54:49.327551 28923 net.cpp:157] Top shape: 1 256 60 80 (1228800)
I0408 07:54:49.327553 28923 net.cpp:165] Memory required for data: 4404019284
I0408 07:54:49.327563 28923 layer_factory.hpp:77] Creating layer res4a_branch2b_relu
I0408 07:54:49.327571 28923 net.cpp:100] Creating Layer res4a_branch2b_relu
I0408 07:54:49.327575 28923 net.cpp:444] res4a_branch2b_relu <- res4a_branch2b
I0408 07:54:49.327584 28923 net.cpp:405] res4a_branch2b_relu -> res4a_branch2b (in-place)
I0408 07:54:49.327741 28923 net.cpp:150] Setting up res4a_branch2b_relu
I0408 07:54:49.327747 28923 net.cpp:157] Top shape: 1 256 60 80 (1228800)
I0408 07:54:49.327749 28923 net.cpp:165] Memory required for data: 4408934484
I0408 07:54:49.327752 28923 layer_factory.hpp:77] Creating layer res4a_branch2c
I0408 07:54:49.327765 28923 net.cpp:100] Creating Layer res4a_branch2c
I0408 07:54:49.327770 28923 net.cpp:444] res4a_branch2c <- res4a_branch2b
I0408 07:54:49.327782 28923 net.cpp:418] res4a_branch2c -> res4a_branch2c
I0408 07:54:49.329442 28923 cudnn_conv_layer.cpp:194] Reallocating workspace storage: 92952
I0408 07:54:49.329458 28923 net.cpp:150] Setting up res4a_branch2c
I0408 07:54:49.329466 28923 net.cpp:157] Top shape: 1 1024 60 80 (4915200)
I0408 07:54:49.329469 28923 net.cpp:165] Memory required for data: 4428595284
I0408 07:54:49.329478 28923 layer_factory.hpp:77] Creating layer bn4a_branch2c
I0408 07:54:49.329490 28923 net.cpp:100] Creating Layer bn4a_branch2c
I0408 07:54:49.329495 28923 net.cpp:444] bn4a_branch2c <- res4a_branch2c
I0408 07:54:49.329506 28923 net.cpp:405] bn4a_branch2c -> res4a_branch2c (in-place)
I0408 07:54:49.329676 28923 net.cpp:150] Setting up bn4a_branch2c
I0408 07:54:49.329691 28923 net.cpp:157] Top shape: 1 1024 60 80 (4915200)
I0408 07:54:49.329694 28923 net.cpp:165] Memory required for data: 4448256084
I0408 07:54:49.329706 28923 layer_factory.hpp:77] Creating layer scale4a_branch2c
I0408 07:54:49.329717 28923 net.cpp:100] Creating Layer scale4a_branch2c
I0408 07:54:49.329721 28923 net.cpp:444] scale4a_branch2c <- res4a_branch2c
I0408 07:54:49.329731 28923 net.cpp:405] scale4a_branch2c -> res4a_branch2c (in-place)
I0408 07:54:49.329773 28923 layer_factory.hpp:77] Creating layer scale4a_branch2c
I0408 07:54:49.329906 28923 net.cpp:150] Setting up scale4a_branch2c
I0408 07:54:49.329912 28923 net.cpp:157] Top shape: 1 1024 60 80 (4915200)
I0408 07:54:49.329916 28923 net.cpp:165] Memory required for data: 4467916884
I0408 07:54:49.329924 28923 layer_factory.hpp:77] Creating layer res4a
I0408 07:54:49.329948 28923 net.cpp:100] Creating Layer res4a
I0408 07:54:49.329953 28923 net.cpp:444] res4a <- res4a_branch1
I0408 07:54:49.329962 28923 net.cpp:444] res4a <- res4a_branch2c
I0408 07:54:49.329968 28923 net.cpp:418] res4a -> res4a
I0408 07:54:49.330008 28923 net.cpp:150] Setting up res4a
I0408 07:54:49.330014 28923 net.cpp:157] Top shape: 1 1024 60 80 (4915200)
I0408 07:54:49.330016 28923 net.cpp:165] Memory required for data: 4487577684
I0408 07:54:49.330021 28923 layer_factory.hpp:77] Creating layer res4a_relu
I0408 07:54:49.330029 28923 net.cpp:100] Creating Layer res4a_relu
I0408 07:54:49.330034 28923 net.cpp:444] res4a_relu <- res4a
I0408 07:54:49.330041 28923 net.cpp:405] res4a_relu -> res4a (in-place)
I0408 07:54:49.330170 28923 net.cpp:150] Setting up res4a_relu
I0408 07:54:49.330176 28923 net.cpp:157] Top shape: 1 1024 60 80 (4915200)
I0408 07:54:49.330178 28923 net.cpp:165] Memory required for data: 4507238484
I0408 07:54:49.330183 28923 layer_factory.hpp:77] Creating layer res4a_res4a_relu_0_split
I0408 07:54:49.330190 28923 net.cpp:100] Creating Layer res4a_res4a_relu_0_split
I0408 07:54:49.330194 28923 net.cpp:444] res4a_res4a_relu_0_split <- res4a
I0408 07:54:49.330204 28923 net.cpp:418] res4a_res4a_relu_0_split -> res4a_res4a_relu_0_split_0
I0408 07:54:49.330216 28923 net.cpp:418] res4a_res4a_relu_0_split -> res4a_res4a_relu_0_split_1
I0408 07:54:49.330253 28923 net.cpp:150] Setting up res4a_res4a_relu_0_split
I0408 07:54:49.330260 28923 net.cpp:157] Top shape: 1 1024 60 80 (4915200)
I0408 07:54:49.330263 28923 net.cpp:157] Top shape: 1 1024 60 80 (4915200)
I0408 07:54:49.330265 28923 net.cpp:165] Memory required for data: 4546560084
I0408 07:54:49.330268 28923 layer_factory.hpp:77] Creating layer res4b_branch2a
I0408 07:54:49.330281 28923 net.cpp:100] Creating Layer res4b_branch2a
I0408 07:54:49.330286 28923 net.cpp:444] res4b_branch2a <- res4a_res4a_relu_0_split_0
I0408 07:54:49.330296 28923 net.cpp:418] res4b_branch2a -> res4b_branch2a
I0408 07:54:49.331416 28923 cudnn_conv_layer.cpp:194] Reallocating workspace storage: 92952
I0408 07:54:49.331435 28923 net.cpp:150] Setting up res4b_branch2a
I0408 07:54:49.331444 28923 net.cpp:157] Top shape: 1 256 60 80 (1228800)
I0408 07:54:49.331445 28923 net.cpp:165] Memory required for data: 4551475284
I0408 07:54:49.331454 28923 layer_factory.hpp:77] Creating layer bn4b_branch2a
I0408 07:54:49.331466 28923 net.cpp:100] Creating Layer bn4b_branch2a
I0408 07:54:49.331471 28923 net.cpp:444] bn4b_branch2a <- res4b_branch2a
I0408 07:54:49.331482 28923 net.cpp:405] bn4b_branch2a -> res4b_branch2a (in-place)
I0408 07:54:49.331657 28923 net.cpp:150] Setting up bn4b_branch2a
I0408 07:54:49.331662 28923 net.cpp:157] Top shape: 1 256 60 80 (1228800)
I0408 07:54:49.331665 28923 net.cpp:165] Memory required for data: 4556390484
I0408 07:54:49.331678 28923 layer_factory.hpp:77] Creating layer scale4b_branch2a
I0408 07:54:49.331689 28923 net.cpp:100] Creating Layer scale4b_branch2a
I0408 07:54:49.331694 28923 net.cpp:444] scale4b_branch2a <- res4b_branch2a
I0408 07:54:49.331703 28923 net.cpp:405] scale4b_branch2a -> res4b_branch2a (in-place)
I0408 07:54:49.331748 28923 layer_factory.hpp:77] Creating layer scale4b_branch2a
I0408 07:54:49.331879 28923 net.cpp:150] Setting up scale4b_branch2a
I0408 07:54:49.331885 28923 net.cpp:157] Top shape: 1 256 60 80 (1228800)
I0408 07:54:49.331887 28923 net.cpp:165] Memory required for data: 4561305684
I0408 07:54:49.331897 28923 layer_factory.hpp:77] Creating layer res4b_branch2a_relu
I0408 07:54:49.331905 28923 net.cpp:100] Creating Layer res4b_branch2a_relu
I0408 07:54:49.331909 28923 net.cpp:444] res4b_branch2a_relu <- res4b_branch2a
I0408 07:54:49.331918 28923 net.cpp:405] res4b_branch2a_relu -> res4b_branch2a (in-place)
I0408 07:54:49.332257 28923 net.cpp:150] Setting up res4b_branch2a_relu
I0408 07:54:49.332263 28923 net.cpp:157] Top shape: 1 256 60 80 (1228800)
I0408 07:54:49.332267 28923 net.cpp:165] Memory required for data: 4566220884
I0408 07:54:49.332270 28923 layer_factory.hpp:77] Creating layer res4b_branch2b
I0408 07:54:49.332283 28923 net.cpp:100] Creating Layer res4b_branch2b
I0408 07:54:49.332288 28923 net.cpp:444] res4b_branch2b <- res4b_branch2a
I0408 07:54:49.332300 28923 net.cpp:418] res4b_branch2b -> res4b_branch2b
I0408 07:54:49.334457 28923 cudnn_conv_layer.cpp:194] Reallocating workspace storage: 12582912
I0408 07:54:49.334684 28923 net.cpp:150] Setting up res4b_branch2b
I0408 07:54:49.334695 28923 net.cpp:157] Top shape: 1 256 60 80 (1228800)
I0408 07:54:49.334697 28923 net.cpp:165] Memory required for data: 4571136084
I0408 07:54:49.334708 28923 layer_factory.hpp:77] Creating layer bn4b_branch2b
I0408 07:54:49.334722 28923 net.cpp:100] Creating Layer bn4b_branch2b
I0408 07:54:49.334729 28923 net.cpp:444] bn4b_branch2b <- res4b_branch2b
I0408 07:54:49.334740 28923 net.cpp:405] bn4b_branch2b -> res4b_branch2b (in-place)
I0408 07:54:49.334916 28923 net.cpp:150] Setting up bn4b_branch2b
I0408 07:54:49.334921 28923 net.cpp:157] Top shape: 1 256 60 80 (1228800)
I0408 07:54:49.334928 28923 net.cpp:165] Memory required for data: 4576051284
I0408 07:54:49.334945 28923 layer_factory.hpp:77] Creating layer scale4b_branch2b
I0408 07:54:49.334956 28923 net.cpp:100] Creating Layer scale4b_branch2b
I0408 07:54:49.334960 28923 net.cpp:444] scale4b_branch2b <- res4b_branch2b
I0408 07:54:49.334969 28923 net.cpp:405] scale4b_branch2b -> res4b_branch2b (in-place)
I0408 07:54:49.335013 28923 layer_factory.hpp:77] Creating layer scale4b_branch2b
I0408 07:54:49.335137 28923 net.cpp:150] Setting up scale4b_branch2b
I0408 07:54:49.335144 28923 net.cpp:157] Top shape: 1 256 60 80 (1228800)
I0408 07:54:49.335145 28923 net.cpp:165] Memory required for data: 4580966484
I0408 07:54:49.335155 28923 layer_factory.hpp:77] Creating layer res4b_branch2b_relu
I0408 07:54:49.335163 28923 net.cpp:100] Creating Layer res4b_branch2b_relu
I0408 07:54:49.335168 28923 net.cpp:444] res4b_branch2b_relu <- res4b_branch2b
I0408 07:54:49.335176 28923 net.cpp:405] res4b_branch2b_relu -> res4b_branch2b (in-place)
I0408 07:54:49.335315 28923 net.cpp:150] Setting up res4b_branch2b_relu
I0408 07:54:49.335324 28923 net.cpp:157] Top shape: 1 256 60 80 (1228800)
I0408 07:54:49.335325 28923 net.cpp:165] Memory required for data: 4585881684
I0408 07:54:49.335330 28923 layer_factory.hpp:77] Creating layer res4b_branch2c
I0408 07:54:49.335341 28923 net.cpp:100] Creating Layer res4b_branch2c
I0408 07:54:49.335345 28923 net.cpp:444] res4b_branch2c <- res4b_branch2b
I0408 07:54:49.335358 28923 net.cpp:418] res4b_branch2c -> res4b_branch2c
I0408 07:54:49.337025 28923 cudnn_conv_layer.cpp:194] Reallocating workspace storage: 92952
I0408 07:54:49.337045 28923 net.cpp:150] Setting up res4b_branch2c
I0408 07:54:49.337052 28923 net.cpp:157] Top shape: 1 1024 60 80 (4915200)
I0408 07:54:49.337055 28923 net.cpp:165] Memory required for data: 4605542484
I0408 07:54:49.337064 28923 layer_factory.hpp:77] Creating layer bn4b_branch2c
I0408 07:54:49.337076 28923 net.cpp:100] Creating Layer bn4b_branch2c
I0408 07:54:49.337087 28923 net.cpp:444] bn4b_branch2c <- res4b_branch2c
I0408 07:54:49.337101 28923 net.cpp:405] bn4b_branch2c -> res4b_branch2c (in-place)
I0408 07:54:49.337273 28923 net.cpp:150] Setting up bn4b_branch2c
I0408 07:54:49.337280 28923 net.cpp:157] Top shape: 1 1024 60 80 (4915200)
I0408 07:54:49.337281 28923 net.cpp:165] Memory required for data: 4625203284
I0408 07:54:49.337294 28923 layer_factory.hpp:77] Creating layer scale4b_branch2c
I0408 07:54:49.337306 28923 net.cpp:100] Creating Layer scale4b_branch2c
I0408 07:54:49.337309 28923 net.cpp:444] scale4b_branch2c <- res4b_branch2c
I0408 07:54:49.337319 28923 net.cpp:405] scale4b_branch2c -> res4b_branch2c (in-place)
I0408 07:54:49.337360 28923 layer_factory.hpp:77] Creating layer scale4b_branch2c
I0408 07:54:49.337496 28923 net.cpp:150] Setting up scale4b_branch2c
I0408 07:54:49.337503 28923 net.cpp:157] Top shape: 1 1024 60 80 (4915200)
I0408 07:54:49.337505 28923 net.cpp:165] Memory required for data: 4644864084
I0408 07:54:49.337514 28923 layer_factory.hpp:77] Creating layer res4b
I0408 07:54:49.337522 28923 net.cpp:100] Creating Layer res4b
I0408 07:54:49.337527 28923 net.cpp:444] res4b <- res4a_res4a_relu_0_split_1
I0408 07:54:49.337534 28923 net.cpp:444] res4b <- res4b_branch2c
I0408 07:54:49.337543 28923 net.cpp:418] res4b -> res4b
I0408 07:54:49.337574 28923 net.cpp:150] Setting up res4b
I0408 07:54:49.337581 28923 net.cpp:157] Top shape: 1 1024 60 80 (4915200)
I0408 07:54:49.337584 28923 net.cpp:165] Memory required for data: 4664524884
I0408 07:54:49.337587 28923 layer_factory.hpp:77] Creating layer res4b_relu
I0408 07:54:49.337594 28923 net.cpp:100] Creating Layer res4b_relu
I0408 07:54:49.337599 28923 net.cpp:444] res4b_relu <- res4b
I0408 07:54:49.337606 28923 net.cpp:405] res4b_relu -> res4b (in-place)
I0408 07:54:49.337743 28923 net.cpp:150] Setting up res4b_relu
I0408 07:54:49.337749 28923 net.cpp:157] Top shape: 1 1024 60 80 (4915200)
I0408 07:54:49.337751 28923 net.cpp:165] Memory required for data: 4684185684
I0408 07:54:49.337755 28923 layer_factory.hpp:77] Creating layer res4b_res4b_relu_0_split
I0408 07:54:49.337764 28923 net.cpp:100] Creating Layer res4b_res4b_relu_0_split
I0408 07:54:49.337767 28923 net.cpp:444] res4b_res4b_relu_0_split <- res4b
I0408 07:54:49.337777 28923 net.cpp:418] res4b_res4b_relu_0_split -> res4b_res4b_relu_0_split_0
I0408 07:54:49.337790 28923 net.cpp:418] res4b_res4b_relu_0_split -> res4b_res4b_relu_0_split_1
I0408 07:54:49.337827 28923 net.cpp:150] Setting up res4b_res4b_relu_0_split
I0408 07:54:49.337839 28923 net.cpp:157] Top shape: 1 1024 60 80 (4915200)
I0408 07:54:49.337843 28923 net.cpp:157] Top shape: 1 1024 60 80 (4915200)
I0408 07:54:49.337846 28923 net.cpp:165] Memory required for data: 4723507284
I0408 07:54:49.337849 28923 layer_factory.hpp:77] Creating layer res4c_branch2a
I0408 07:54:49.337862 28923 net.cpp:100] Creating Layer res4c_branch2a
I0408 07:54:49.337867 28923 net.cpp:444] res4c_branch2a <- res4b_res4b_relu_0_split_0
I0408 07:54:49.337877 28923 net.cpp:418] res4c_branch2a -> res4c_branch2a
I0408 07:54:49.339000 28923 cudnn_conv_layer.cpp:194] Reallocating workspace storage: 92952
I0408 07:54:49.339017 28923 net.cpp:150] Setting up res4c_branch2a
I0408 07:54:49.339025 28923 net.cpp:157] Top shape: 1 256 60 80 (1228800)
I0408 07:54:49.339026 28923 net.cpp:165] Memory required for data: 4728422484
I0408 07:54:49.339035 28923 layer_factory.hpp:77] Creating layer bn4c_branch2a
I0408 07:54:49.339046 28923 net.cpp:100] Creating Layer bn4c_branch2a
I0408 07:54:49.339051 28923 net.cpp:444] bn4c_branch2a <- res4c_branch2a
I0408 07:54:49.339062 28923 net.cpp:405] bn4c_branch2a -> res4c_branch2a (in-place)
I0408 07:54:49.339234 28923 net.cpp:150] Setting up bn4c_branch2a
I0408 07:54:49.339244 28923 net.cpp:157] Top shape: 1 256 60 80 (1228800)
I0408 07:54:49.339251 28923 net.cpp:165] Memory required for data: 4733337684
I0408 07:54:49.339264 28923 layer_factory.hpp:77] Creating layer scale4c_branch2a
I0408 07:54:49.339274 28923 net.cpp:100] Creating Layer scale4c_branch2a
I0408 07:54:49.339278 28923 net.cpp:444] scale4c_branch2a <- res4c_branch2a
I0408 07:54:49.339288 28923 net.cpp:405] scale4c_branch2a -> res4c_branch2a (in-place)
I0408 07:54:49.339334 28923 layer_factory.hpp:77] Creating layer scale4c_branch2a
I0408 07:54:49.339458 28923 net.cpp:150] Setting up scale4c_branch2a
I0408 07:54:49.339465 28923 net.cpp:157] Top shape: 1 256 60 80 (1228800)
I0408 07:54:49.339468 28923 net.cpp:165] Memory required for data: 4738252884
I0408 07:54:49.339476 28923 layer_factory.hpp:77] Creating layer res4c_branch2a_relu
I0408 07:54:49.339484 28923 net.cpp:100] Creating Layer res4c_branch2a_relu
I0408 07:54:49.339488 28923 net.cpp:444] res4c_branch2a_relu <- res4c_branch2a
I0408 07:54:49.339498 28923 net.cpp:405] res4c_branch2a_relu -> res4c_branch2a (in-place)
I0408 07:54:49.339634 28923 net.cpp:150] Setting up res4c_branch2a_relu
I0408 07:54:49.339640 28923 net.cpp:157] Top shape: 1 256 60 80 (1228800)
I0408 07:54:49.339643 28923 net.cpp:165] Memory required for data: 4743168084
I0408 07:54:49.339646 28923 layer_factory.hpp:77] Creating layer res4c_branch2b
I0408 07:54:49.339658 28923 net.cpp:100] Creating Layer res4c_branch2b
I0408 07:54:49.339663 28923 net.cpp:444] res4c_branch2b <- res4c_branch2a
I0408 07:54:49.339674 28923 net.cpp:418] res4c_branch2b -> res4c_branch2b
I0408 07:54:49.342044 28923 cudnn_conv_layer.cpp:194] Reallocating workspace storage: 12582912
I0408 07:54:49.342262 28923 net.cpp:150] Setting up res4c_branch2b
I0408 07:54:49.342273 28923 net.cpp:157] Top shape: 1 256 60 80 (1228800)
I0408 07:54:49.342275 28923 net.cpp:165] Memory required for data: 4748083284
I0408 07:54:49.342288 28923 layer_factory.hpp:77] Creating layer bn4c_branch2b
I0408 07:54:49.346644 28923 net.cpp:100] Creating Layer bn4c_branch2b
I0408 07:54:49.346652 28923 net.cpp:444] bn4c_branch2b <- res4c_branch2b
I0408 07:54:49.346665 28923 net.cpp:405] bn4c_branch2b -> res4c_branch2b (in-place)
I0408 07:54:49.346844 28923 net.cpp:150] Setting up bn4c_branch2b
I0408 07:54:49.346850 28923 net.cpp:157] Top shape: 1 256 60 80 (1228800)
I0408 07:54:49.346853 28923 net.cpp:165] Memory required for data: 4752998484
I0408 07:54:49.346868 28923 layer_factory.hpp:77] Creating layer scale4c_branch2b
I0408 07:54:49.346879 28923 net.cpp:100] Creating Layer scale4c_branch2b
I0408 07:54:49.346884 28923 net.cpp:444] scale4c_branch2b <- res4c_branch2b
I0408 07:54:49.346892 28923 net.cpp:405] scale4c_branch2b -> res4c_branch2b (in-place)
I0408 07:54:49.346946 28923 layer_factory.hpp:77] Creating layer scale4c_branch2b
I0408 07:54:49.347070 28923 net.cpp:150] Setting up scale4c_branch2b
I0408 07:54:49.347076 28923 net.cpp:157] Top shape: 1 256 60 80 (1228800)
I0408 07:54:49.347079 28923 net.cpp:165] Memory required for data: 4757913684
I0408 07:54:49.347088 28923 layer_factory.hpp:77] Creating layer res4c_branch2b_relu
I0408 07:54:49.347097 28923 net.cpp:100] Creating Layer res4c_branch2b_relu
I0408 07:54:49.347102 28923 net.cpp:444] res4c_branch2b_relu <- res4c_branch2b
I0408 07:54:49.347111 28923 net.cpp:405] res4c_branch2b_relu -> res4c_branch2b (in-place)
I0408 07:54:49.347461 28923 net.cpp:150] Setting up res4c_branch2b_relu
I0408 07:54:49.347470 28923 net.cpp:157] Top shape: 1 256 60 80 (1228800)
I0408 07:54:49.347471 28923 net.cpp:165] Memory required for data: 4762828884
I0408 07:54:49.347476 28923 layer_factory.hpp:77] Creating layer res4c_branch2c
I0408 07:54:49.347489 28923 net.cpp:100] Creating Layer res4c_branch2c
I0408 07:54:49.347494 28923 net.cpp:444] res4c_branch2c <- res4c_branch2b
I0408 07:54:49.347517 28923 net.cpp:418] res4c_branch2c -> res4c_branch2c
I0408 07:54:49.349189 28923 cudnn_conv_layer.cpp:194] Reallocating workspace storage: 92952
I0408 07:54:49.349207 28923 net.cpp:150] Setting up res4c_branch2c
I0408 07:54:49.349215 28923 net.cpp:157] Top shape: 1 1024 60 80 (4915200)
I0408 07:54:49.349217 28923 net.cpp:165] Memory required for data: 4782489684
I0408 07:54:49.349228 28923 layer_factory.hpp:77] Creating layer bn4c_branch2c
I0408 07:54:49.349241 28923 net.cpp:100] Creating Layer bn4c_branch2c
I0408 07:54:49.349246 28923 net.cpp:444] bn4c_branch2c <- res4c_branch2c
I0408 07:54:49.349256 28923 net.cpp:405] bn4c_branch2c -> res4c_branch2c (in-place)
I0408 07:54:49.349439 28923 net.cpp:150] Setting up bn4c_branch2c
I0408 07:54:49.349445 28923 net.cpp:157] Top shape: 1 1024 60 80 (4915200)
I0408 07:54:49.349447 28923 net.cpp:165] Memory required for data: 4802150484
I0408 07:54:49.349460 28923 layer_factory.hpp:77] Creating layer scale4c_branch2c
I0408 07:54:49.349472 28923 net.cpp:100] Creating Layer scale4c_branch2c
I0408 07:54:49.349476 28923 net.cpp:444] scale4c_branch2c <- res4c_branch2c
I0408 07:54:49.349486 28923 net.cpp:405] scale4c_branch2c -> res4c_branch2c (in-place)
I0408 07:54:49.349529 28923 layer_factory.hpp:77] Creating layer scale4c_branch2c
I0408 07:54:49.349668 28923 net.cpp:150] Setting up scale4c_branch2c
I0408 07:54:49.349673 28923 net.cpp:157] Top shape: 1 1024 60 80 (4915200)
I0408 07:54:49.349675 28923 net.cpp:165] Memory required for data: 4821811284
I0408 07:54:49.349684 28923 layer_factory.hpp:77] Creating layer res4c
I0408 07:54:49.349694 28923 net.cpp:100] Creating Layer res4c
I0408 07:54:49.349699 28923 net.cpp:444] res4c <- res4b_res4b_relu_0_split_1
I0408 07:54:49.349706 28923 net.cpp:444] res4c <- res4c_branch2c
I0408 07:54:49.349714 28923 net.cpp:418] res4c -> res4c
I0408 07:54:49.349745 28923 net.cpp:150] Setting up res4c
I0408 07:54:49.349752 28923 net.cpp:157] Top shape: 1 1024 60 80 (4915200)
I0408 07:54:49.349755 28923 net.cpp:165] Memory required for data: 4841472084
I0408 07:54:49.349757 28923 layer_factory.hpp:77] Creating layer res4c_relu
I0408 07:54:49.349766 28923 net.cpp:100] Creating Layer res4c_relu
I0408 07:54:49.349769 28923 net.cpp:444] res4c_relu <- res4c
I0408 07:54:49.349778 28923 net.cpp:405] res4c_relu -> res4c (in-place)
I0408 07:54:49.349943 28923 net.cpp:150] Setting up res4c_relu
I0408 07:54:49.349951 28923 net.cpp:157] Top shape: 1 1024 60 80 (4915200)
I0408 07:54:49.349952 28923 net.cpp:165] Memory required for data: 4861132884
I0408 07:54:49.349956 28923 layer_factory.hpp:77] Creating layer res4c_res4c_relu_0_split
I0408 07:54:49.349964 28923 net.cpp:100] Creating Layer res4c_res4c_relu_0_split
I0408 07:54:49.349969 28923 net.cpp:444] res4c_res4c_relu_0_split <- res4c
I0408 07:54:49.349980 28923 net.cpp:418] res4c_res4c_relu_0_split -> res4c_res4c_relu_0_split_0
I0408 07:54:49.349992 28923 net.cpp:418] res4c_res4c_relu_0_split -> res4c_res4c_relu_0_split_1
I0408 07:54:49.350031 28923 net.cpp:150] Setting up res4c_res4c_relu_0_split
I0408 07:54:49.350039 28923 net.cpp:157] Top shape: 1 1024 60 80 (4915200)
I0408 07:54:49.350042 28923 net.cpp:157] Top shape: 1 1024 60 80 (4915200)
I0408 07:54:49.350044 28923 net.cpp:165] Memory required for data: 4900454484
I0408 07:54:49.350047 28923 layer_factory.hpp:77] Creating layer res4d_branch2a
I0408 07:54:49.350059 28923 net.cpp:100] Creating Layer res4d_branch2a
I0408 07:54:49.350064 28923 net.cpp:444] res4d_branch2a <- res4c_res4c_relu_0_split_0
I0408 07:54:49.350076 28923 net.cpp:418] res4d_branch2a -> res4d_branch2a
I0408 07:54:49.351213 28923 cudnn_conv_layer.cpp:194] Reallocating workspace storage: 92952
I0408 07:54:49.351231 28923 net.cpp:150] Setting up res4d_branch2a
I0408 07:54:49.351238 28923 net.cpp:157] Top shape: 1 256 60 80 (1228800)
I0408 07:54:49.351240 28923 net.cpp:165] Memory required for data: 4905369684
I0408 07:54:49.351248 28923 layer_factory.hpp:77] Creating layer bn4d_branch2a
I0408 07:54:49.351261 28923 net.cpp:100] Creating Layer bn4d_branch2a
I0408 07:54:49.351266 28923 net.cpp:444] bn4d_branch2a <- res4d_branch2a
I0408 07:54:49.351277 28923 net.cpp:405] bn4d_branch2a -> res4d_branch2a (in-place)
I0408 07:54:49.351459 28923 net.cpp:150] Setting up bn4d_branch2a
I0408 07:54:49.351465 28923 net.cpp:157] Top shape: 1 256 60 80 (1228800)
I0408 07:54:49.351467 28923 net.cpp:165] Memory required for data: 4910284884
I0408 07:54:49.351481 28923 layer_factory.hpp:77] Creating layer scale4d_branch2a
I0408 07:54:49.351491 28923 net.cpp:100] Creating Layer scale4d_branch2a
I0408 07:54:49.351496 28923 net.cpp:444] scale4d_branch2a <- res4d_branch2a
I0408 07:54:49.351505 28923 net.cpp:405] scale4d_branch2a -> res4d_branch2a (in-place)
I0408 07:54:49.351550 28923 layer_factory.hpp:77] Creating layer scale4d_branch2a
I0408 07:54:49.351686 28923 net.cpp:150] Setting up scale4d_branch2a
I0408 07:54:49.351692 28923 net.cpp:157] Top shape: 1 256 60 80 (1228800)
I0408 07:54:49.351694 28923 net.cpp:165] Memory required for data: 4915200084
I0408 07:54:49.351703 28923 layer_factory.hpp:77] Creating layer res4d_branch2a_relu
I0408 07:54:49.351712 28923 net.cpp:100] Creating Layer res4d_branch2a_relu
I0408 07:54:49.351716 28923 net.cpp:444] res4d_branch2a_relu <- res4d_branch2a
I0408 07:54:49.351725 28923 net.cpp:405] res4d_branch2a_relu -> res4d_branch2a (in-place)
I0408 07:54:49.351856 28923 net.cpp:150] Setting up res4d_branch2a_relu
I0408 07:54:49.351862 28923 net.cpp:157] Top shape: 1 256 60 80 (1228800)
I0408 07:54:49.351866 28923 net.cpp:165] Memory required for data: 4920115284
I0408 07:54:49.351868 28923 layer_factory.hpp:77] Creating layer res4d_branch2b
I0408 07:54:49.351881 28923 net.cpp:100] Creating Layer res4d_branch2b
I0408 07:54:49.351886 28923 net.cpp:444] res4d_branch2b <- res4d_branch2a
I0408 07:54:49.351897 28923 net.cpp:418] res4d_branch2b -> res4d_branch2b
I0408 07:54:49.354074 28923 cudnn_conv_layer.cpp:194] Reallocating workspace storage: 12582912
I0408 07:54:49.354318 28923 net.cpp:150] Setting up res4d_branch2b
I0408 07:54:49.354331 28923 net.cpp:157] Top shape: 1 256 60 80 (1228800)
I0408 07:54:49.354333 28923 net.cpp:165] Memory required for data: 4925030484
I0408 07:54:49.354346 28923 layer_factory.hpp:77] Creating layer bn4d_branch2b
I0408 07:54:49.378602 28923 net.cpp:100] Creating Layer bn4d_branch2b
I0408 07:54:49.378612 28923 net.cpp:444] bn4d_branch2b <- res4d_branch2b
I0408 07:54:49.378628 28923 net.cpp:405] bn4d_branch2b -> res4d_branch2b (in-place)
I0408 07:54:49.378818 28923 net.cpp:150] Setting up bn4d_branch2b
I0408 07:54:49.378824 28923 net.cpp:157] Top shape: 1 256 60 80 (1228800)
I0408 07:54:49.378826 28923 net.cpp:165] Memory required for data: 4929945684
I0408 07:54:49.378841 28923 layer_factory.hpp:77] Creating layer scale4d_branch2b
I0408 07:54:49.378854 28923 net.cpp:100] Creating Layer scale4d_branch2b
I0408 07:54:49.378866 28923 net.cpp:444] scale4d_branch2b <- res4d_branch2b
I0408 07:54:49.378876 28923 net.cpp:405] scale4d_branch2b -> res4d_branch2b (in-place)
I0408 07:54:49.378926 28923 layer_factory.hpp:77] Creating layer scale4d_branch2b
I0408 07:54:49.379053 28923 net.cpp:150] Setting up scale4d_branch2b
I0408 07:54:49.379060 28923 net.cpp:157] Top shape: 1 256 60 80 (1228800)
I0408 07:54:49.379061 28923 net.cpp:165] Memory required for data: 4934860884
I0408 07:54:49.379070 28923 layer_factory.hpp:77] Creating layer res4d_branch2b_relu
I0408 07:54:49.379079 28923 net.cpp:100] Creating Layer res4d_branch2b_relu
I0408 07:54:49.379083 28923 net.cpp:444] res4d_branch2b_relu <- res4d_branch2b
I0408 07:54:49.379092 28923 net.cpp:405] res4d_branch2b_relu -> res4d_branch2b (in-place)
I0408 07:54:49.379473 28923 net.cpp:150] Setting up res4d_branch2b_relu
I0408 07:54:49.379482 28923 net.cpp:157] Top shape: 1 256 60 80 (1228800)
I0408 07:54:49.379483 28923 net.cpp:165] Memory required for data: 4939776084
I0408 07:54:49.379487 28923 layer_factory.hpp:77] Creating layer res4d_branch2c
I0408 07:54:49.379503 28923 net.cpp:100] Creating Layer res4d_branch2c
I0408 07:54:49.379508 28923 net.cpp:444] res4d_branch2c <- res4d_branch2b
I0408 07:54:49.379521 28923 net.cpp:418] res4d_branch2c -> res4d_branch2c
I0408 07:54:49.381220 28923 cudnn_conv_layer.cpp:194] Reallocating workspace storage: 92952
I0408 07:54:49.381248 28923 net.cpp:150] Setting up res4d_branch2c
I0408 07:54:49.381256 28923 net.cpp:157] Top shape: 1 1024 60 80 (4915200)
I0408 07:54:49.381258 28923 net.cpp:165] Memory required for data: 4959436884
I0408 07:54:49.381268 28923 layer_factory.hpp:77] Creating layer bn4d_branch2c
I0408 07:54:49.381280 28923 net.cpp:100] Creating Layer bn4d_branch2c
I0408 07:54:49.381284 28923 net.cpp:444] bn4d_branch2c <- res4d_branch2c
I0408 07:54:49.381296 28923 net.cpp:405] bn4d_branch2c -> res4d_branch2c (in-place)
I0408 07:54:49.381470 28923 net.cpp:150] Setting up bn4d_branch2c
I0408 07:54:49.381476 28923 net.cpp:157] Top shape: 1 1024 60 80 (4915200)
I0408 07:54:49.381479 28923 net.cpp:165] Memory required for data: 4979097684
I0408 07:54:49.381491 28923 layer_factory.hpp:77] Creating layer scale4d_branch2c
I0408 07:54:49.381501 28923 net.cpp:100] Creating Layer scale4d_branch2c
I0408 07:54:49.381506 28923 net.cpp:444] scale4d_branch2c <- res4d_branch2c
I0408 07:54:49.381516 28923 net.cpp:405] scale4d_branch2c -> res4d_branch2c (in-place)
I0408 07:54:49.381567 28923 layer_factory.hpp:77] Creating layer scale4d_branch2c
I0408 07:54:49.381695 28923 net.cpp:150] Setting up scale4d_branch2c
I0408 07:54:49.381701 28923 net.cpp:157] Top shape: 1 1024 60 80 (4915200)
I0408 07:54:49.381703 28923 net.cpp:165] Memory required for data: 4998758484
I0408 07:54:49.381712 28923 layer_factory.hpp:77] Creating layer res4d
I0408 07:54:49.381721 28923 net.cpp:100] Creating Layer res4d
I0408 07:54:49.381726 28923 net.cpp:444] res4d <- res4c_res4c_relu_0_split_1
I0408 07:54:49.381732 28923 net.cpp:444] res4d <- res4d_branch2c
I0408 07:54:49.381739 28923 net.cpp:418] res4d -> res4d
I0408 07:54:49.381770 28923 net.cpp:150] Setting up res4d
I0408 07:54:49.381778 28923 net.cpp:157] Top shape: 1 1024 60 80 (4915200)
I0408 07:54:49.381779 28923 net.cpp:165] Memory required for data: 5018419284
I0408 07:54:49.381783 28923 layer_factory.hpp:77] Creating layer res4d_relu
I0408 07:54:49.381791 28923 net.cpp:100] Creating Layer res4d_relu
I0408 07:54:49.381795 28923 net.cpp:444] res4d_relu <- res4d
I0408 07:54:49.381803 28923 net.cpp:405] res4d_relu -> res4d (in-place)
I0408 07:54:49.381958 28923 net.cpp:150] Setting up res4d_relu
I0408 07:54:49.381965 28923 net.cpp:157] Top shape: 1 1024 60 80 (4915200)
I0408 07:54:49.381968 28923 net.cpp:165] Memory required for data: 5038080084
I0408 07:54:49.381971 28923 layer_factory.hpp:77] Creating layer res4d_res4d_relu_0_split
I0408 07:54:49.381979 28923 net.cpp:100] Creating Layer res4d_res4d_relu_0_split
I0408 07:54:49.381983 28923 net.cpp:444] res4d_res4d_relu_0_split <- res4d
I0408 07:54:49.381995 28923 net.cpp:418] res4d_res4d_relu_0_split -> res4d_res4d_relu_0_split_0
I0408 07:54:49.382007 28923 net.cpp:418] res4d_res4d_relu_0_split -> res4d_res4d_relu_0_split_1
I0408 07:54:49.382046 28923 net.cpp:150] Setting up res4d_res4d_relu_0_split
I0408 07:54:49.382053 28923 net.cpp:157] Top shape: 1 1024 60 80 (4915200)
I0408 07:54:49.382057 28923 net.cpp:157] Top shape: 1 1024 60 80 (4915200)
I0408 07:54:49.382058 28923 net.cpp:165] Memory required for data: 5077401684
I0408 07:54:49.382062 28923 layer_factory.hpp:77] Creating layer res4e_branch2a
I0408 07:54:49.382074 28923 net.cpp:100] Creating Layer res4e_branch2a
I0408 07:54:49.382079 28923 net.cpp:444] res4e_branch2a <- res4d_res4d_relu_0_split_0
I0408 07:54:49.382089 28923 net.cpp:418] res4e_branch2a -> res4e_branch2a
I0408 07:54:49.383226 28923 cudnn_conv_layer.cpp:194] Reallocating workspace storage: 92952
I0408 07:54:49.383244 28923 net.cpp:150] Setting up res4e_branch2a
I0408 07:54:49.383251 28923 net.cpp:157] Top shape: 1 256 60 80 (1228800)
I0408 07:54:49.383253 28923 net.cpp:165] Memory required for data: 5082316884
I0408 07:54:49.383262 28923 layer_factory.hpp:77] Creating layer bn4e_branch2a
I0408 07:54:49.383273 28923 net.cpp:100] Creating Layer bn4e_branch2a
I0408 07:54:49.383278 28923 net.cpp:444] bn4e_branch2a <- res4e_branch2a
I0408 07:54:49.383298 28923 net.cpp:405] bn4e_branch2a -> res4e_branch2a (in-place)
I0408 07:54:49.383469 28923 net.cpp:150] Setting up bn4e_branch2a
I0408 07:54:49.383474 28923 net.cpp:157] Top shape: 1 256 60 80 (1228800)
I0408 07:54:49.383476 28923 net.cpp:165] Memory required for data: 5087232084
I0408 07:54:49.383491 28923 layer_factory.hpp:77] Creating layer scale4e_branch2a
I0408 07:54:49.383500 28923 net.cpp:100] Creating Layer scale4e_branch2a
I0408 07:54:49.383504 28923 net.cpp:444] scale4e_branch2a <- res4e_branch2a
I0408 07:54:49.383514 28923 net.cpp:405] scale4e_branch2a -> res4e_branch2a (in-place)
I0408 07:54:49.383558 28923 layer_factory.hpp:77] Creating layer scale4e_branch2a
I0408 07:54:49.383692 28923 net.cpp:150] Setting up scale4e_branch2a
I0408 07:54:49.383698 28923 net.cpp:157] Top shape: 1 256 60 80 (1228800)
I0408 07:54:49.383700 28923 net.cpp:165] Memory required for data: 5092147284
I0408 07:54:49.383709 28923 layer_factory.hpp:77] Creating layer res4e_branch2a_relu
I0408 07:54:49.383718 28923 net.cpp:100] Creating Layer res4e_branch2a_relu
I0408 07:54:49.383721 28923 net.cpp:444] res4e_branch2a_relu <- res4e_branch2a
I0408 07:54:49.383729 28923 net.cpp:405] res4e_branch2a_relu -> res4e_branch2a (in-place)
I0408 07:54:49.383869 28923 net.cpp:150] Setting up res4e_branch2a_relu
I0408 07:54:49.383875 28923 net.cpp:157] Top shape: 1 256 60 80 (1228800)
I0408 07:54:49.383877 28923 net.cpp:165] Memory required for data: 5097062484
I0408 07:54:49.383882 28923 layer_factory.hpp:77] Creating layer res4e_branch2b
I0408 07:54:49.383893 28923 net.cpp:100] Creating Layer res4e_branch2b
I0408 07:54:49.383898 28923 net.cpp:444] res4e_branch2b <- res4e_branch2a
I0408 07:54:49.383910 28923 net.cpp:418] res4e_branch2b -> res4e_branch2b
I0408 07:54:49.386081 28923 cudnn_conv_layer.cpp:194] Reallocating workspace storage: 12582912
I0408 07:54:49.386313 28923 net.cpp:150] Setting up res4e_branch2b
I0408 07:54:49.386324 28923 net.cpp:157] Top shape: 1 256 60 80 (1228800)
I0408 07:54:49.386327 28923 net.cpp:165] Memory required for data: 5101977684
I0408 07:54:49.386337 28923 layer_factory.hpp:77] Creating layer bn4e_branch2b
I0408 07:54:49.410733 28923 net.cpp:100] Creating Layer bn4e_branch2b
I0408 07:54:49.410743 28923 net.cpp:444] bn4e_branch2b <- res4e_branch2b
I0408 07:54:49.410758 28923 net.cpp:405] bn4e_branch2b -> res4e_branch2b (in-place)
I0408 07:54:49.410951 28923 net.cpp:150] Setting up bn4e_branch2b
I0408 07:54:49.410959 28923 net.cpp:157] Top shape: 1 256 60 80 (1228800)
I0408 07:54:49.410960 28923 net.cpp:165] Memory required for data: 5106892884
I0408 07:54:49.410975 28923 layer_factory.hpp:77] Creating layer scale4e_branch2b
I0408 07:54:49.410987 28923 net.cpp:100] Creating Layer scale4e_branch2b
I0408 07:54:49.410991 28923 net.cpp:444] scale4e_branch2b <- res4e_branch2b
I0408 07:54:49.411000 28923 net.cpp:405] scale4e_branch2b -> res4e_branch2b (in-place)
I0408 07:54:49.411056 28923 layer_factory.hpp:77] Creating layer scale4e_branch2b
I0408 07:54:49.411183 28923 net.cpp:150] Setting up scale4e_branch2b
I0408 07:54:49.411190 28923 net.cpp:157] Top shape: 1 256 60 80 (1228800)
I0408 07:54:49.411191 28923 net.cpp:165] Memory required for data: 5111808084
I0408 07:54:49.411201 28923 layer_factory.hpp:77] Creating layer res4e_branch2b_relu
I0408 07:54:49.411209 28923 net.cpp:100] Creating Layer res4e_branch2b_relu
I0408 07:54:49.411213 28923 net.cpp:444] res4e_branch2b_relu <- res4e_branch2b
I0408 07:54:49.411221 28923 net.cpp:405] res4e_branch2b_relu -> res4e_branch2b (in-place)
I0408 07:54:49.411597 28923 net.cpp:150] Setting up res4e_branch2b_relu
I0408 07:54:49.411604 28923 net.cpp:157] Top shape: 1 256 60 80 (1228800)
I0408 07:54:49.411607 28923 net.cpp:165] Memory required for data: 5116723284
I0408 07:54:49.411610 28923 layer_factory.hpp:77] Creating layer res4e_branch2c
I0408 07:54:49.411633 28923 net.cpp:100] Creating Layer res4e_branch2c
I0408 07:54:49.411639 28923 net.cpp:444] res4e_branch2c <- res4e_branch2b
I0408 07:54:49.411653 28923 net.cpp:418] res4e_branch2c -> res4e_branch2c
I0408 07:54:49.413374 28923 cudnn_conv_layer.cpp:194] Reallocating workspace storage: 92952
I0408 07:54:49.413394 28923 net.cpp:150] Setting up res4e_branch2c
I0408 07:54:49.413403 28923 net.cpp:157] Top shape: 1 1024 60 80 (4915200)
I0408 07:54:49.413405 28923 net.cpp:165] Memory required for data: 5136384084
I0408 07:54:49.413415 28923 layer_factory.hpp:77] Creating layer bn4e_branch2c
I0408 07:54:49.413429 28923 net.cpp:100] Creating Layer bn4e_branch2c
I0408 07:54:49.413435 28923 net.cpp:444] bn4e_branch2c <- res4e_branch2c
I0408 07:54:49.413446 28923 net.cpp:405] bn4e_branch2c -> res4e_branch2c (in-place)
I0408 07:54:49.413632 28923 net.cpp:150] Setting up bn4e_branch2c
I0408 07:54:49.413638 28923 net.cpp:157] Top shape: 1 1024 60 80 (4915200)
I0408 07:54:49.413640 28923 net.cpp:165] Memory required for data: 5156044884
I0408 07:54:49.413655 28923 layer_factory.hpp:77] Creating layer scale4e_branch2c
I0408 07:54:49.413664 28923 net.cpp:100] Creating Layer scale4e_branch2c
I0408 07:54:49.413669 28923 net.cpp:444] scale4e_branch2c <- res4e_branch2c
I0408 07:54:49.413678 28923 net.cpp:405] scale4e_branch2c -> res4e_branch2c (in-place)
I0408 07:54:49.413722 28923 layer_factory.hpp:77] Creating layer scale4e_branch2c
I0408 07:54:49.413902 28923 net.cpp:150] Setting up scale4e_branch2c
I0408 07:54:49.413908 28923 net.cpp:157] Top shape: 1 1024 60 80 (4915200)
I0408 07:54:49.413910 28923 net.cpp:165] Memory required for data: 5175705684
I0408 07:54:49.413920 28923 layer_factory.hpp:77] Creating layer res4e
I0408 07:54:49.413929 28923 net.cpp:100] Creating Layer res4e
I0408 07:54:49.413933 28923 net.cpp:444] res4e <- res4d_res4d_relu_0_split_1
I0408 07:54:49.413942 28923 net.cpp:444] res4e <- res4e_branch2c
I0408 07:54:49.413949 28923 net.cpp:418] res4e -> res4e
I0408 07:54:49.413982 28923 net.cpp:150] Setting up res4e
I0408 07:54:49.413990 28923 net.cpp:157] Top shape: 1 1024 60 80 (4915200)
I0408 07:54:49.413991 28923 net.cpp:165] Memory required for data: 5195366484
I0408 07:54:49.413995 28923 layer_factory.hpp:77] Creating layer res4e_relu
I0408 07:54:49.414002 28923 net.cpp:100] Creating Layer res4e_relu
I0408 07:54:49.414006 28923 net.cpp:444] res4e_relu <- res4e
I0408 07:54:49.414016 28923 net.cpp:405] res4e_relu -> res4e (in-place)
I0408 07:54:49.414152 28923 net.cpp:150] Setting up res4e_relu
I0408 07:54:49.414158 28923 net.cpp:157] Top shape: 1 1024 60 80 (4915200)
I0408 07:54:49.414160 28923 net.cpp:165] Memory required for data: 5215027284
I0408 07:54:49.414165 28923 layer_factory.hpp:77] Creating layer res4e_res4e_relu_0_split
I0408 07:54:49.414172 28923 net.cpp:100] Creating Layer res4e_res4e_relu_0_split
I0408 07:54:49.414176 28923 net.cpp:444] res4e_res4e_relu_0_split <- res4e
I0408 07:54:49.414186 28923 net.cpp:418] res4e_res4e_relu_0_split -> res4e_res4e_relu_0_split_0
I0408 07:54:49.414198 28923 net.cpp:418] res4e_res4e_relu_0_split -> res4e_res4e_relu_0_split_1
I0408 07:54:49.414237 28923 net.cpp:150] Setting up res4e_res4e_relu_0_split
I0408 07:54:49.414244 28923 net.cpp:157] Top shape: 1 1024 60 80 (4915200)
I0408 07:54:49.414247 28923 net.cpp:157] Top shape: 1 1024 60 80 (4915200)
I0408 07:54:49.414249 28923 net.cpp:165] Memory required for data: 5254348884
I0408 07:54:49.414252 28923 layer_factory.hpp:77] Creating layer res4f_branch2a
I0408 07:54:49.414266 28923 net.cpp:100] Creating Layer res4f_branch2a
I0408 07:54:49.414271 28923 net.cpp:444] res4f_branch2a <- res4e_res4e_relu_0_split_0
I0408 07:54:49.414283 28923 net.cpp:418] res4f_branch2a -> res4f_branch2a
I0408 07:54:49.415447 28923 cudnn_conv_layer.cpp:194] Reallocating workspace storage: 92952
I0408 07:54:49.415465 28923 net.cpp:150] Setting up res4f_branch2a
I0408 07:54:49.415472 28923 net.cpp:157] Top shape: 1 256 60 80 (1228800)
I0408 07:54:49.415474 28923 net.cpp:165] Memory required for data: 5259264084
I0408 07:54:49.415483 28923 layer_factory.hpp:77] Creating layer bn4f_branch2a
I0408 07:54:49.415495 28923 net.cpp:100] Creating Layer bn4f_branch2a
I0408 07:54:49.415500 28923 net.cpp:444] bn4f_branch2a <- res4f_branch2a
I0408 07:54:49.415511 28923 net.cpp:405] bn4f_branch2a -> res4f_branch2a (in-place)
I0408 07:54:49.415695 28923 net.cpp:150] Setting up bn4f_branch2a
I0408 07:54:49.415700 28923 net.cpp:157] Top shape: 1 256 60 80 (1228800)
I0408 07:54:49.415702 28923 net.cpp:165] Memory required for data: 5264179284
I0408 07:54:49.415716 28923 layer_factory.hpp:77] Creating layer scale4f_branch2a
I0408 07:54:49.415726 28923 net.cpp:100] Creating Layer scale4f_branch2a
I0408 07:54:49.415731 28923 net.cpp:444] scale4f_branch2a <- res4f_branch2a
I0408 07:54:49.415740 28923 net.cpp:405] scale4f_branch2a -> res4f_branch2a (in-place)
I0408 07:54:49.415786 28923 layer_factory.hpp:77] Creating layer scale4f_branch2a
I0408 07:54:49.415915 28923 net.cpp:150] Setting up scale4f_branch2a
I0408 07:54:49.415920 28923 net.cpp:157] Top shape: 1 256 60 80 (1228800)
I0408 07:54:49.415922 28923 net.cpp:165] Memory required for data: 5269094484
I0408 07:54:49.415940 28923 layer_factory.hpp:77] Creating layer res4f_branch2a_relu
I0408 07:54:49.415947 28923 net.cpp:100] Creating Layer res4f_branch2a_relu
I0408 07:54:49.415951 28923 net.cpp:444] res4f_branch2a_relu <- res4f_branch2a
I0408 07:54:49.415961 28923 net.cpp:405] res4f_branch2a_relu -> res4f_branch2a (in-place)
I0408 07:54:49.416092 28923 net.cpp:150] Setting up res4f_branch2a_relu
I0408 07:54:49.416098 28923 net.cpp:157] Top shape: 1 256 60 80 (1228800)
I0408 07:54:49.416100 28923 net.cpp:165] Memory required for data: 5274009684
I0408 07:54:49.416103 28923 layer_factory.hpp:77] Creating layer res4f_branch2b
I0408 07:54:49.416116 28923 net.cpp:100] Creating Layer res4f_branch2b
I0408 07:54:49.416121 28923 net.cpp:444] res4f_branch2b <- res4f_branch2a
I0408 07:54:49.416132 28923 net.cpp:418] res4f_branch2b -> res4f_branch2b
I0408 07:54:49.418340 28923 cudnn_conv_layer.cpp:194] Reallocating workspace storage: 12582912
I0408 07:54:49.418578 28923 net.cpp:150] Setting up res4f_branch2b
I0408 07:54:49.418591 28923 net.cpp:157] Top shape: 1 256 60 80 (1228800)
I0408 07:54:49.418592 28923 net.cpp:165] Memory required for data: 5278924884
I0408 07:54:49.418606 28923 layer_factory.hpp:77] Creating layer bn4f_branch2b
I0408 07:54:49.442401 28923 net.cpp:100] Creating Layer bn4f_branch2b
I0408 07:54:49.442411 28923 net.cpp:444] bn4f_branch2b <- res4f_branch2b
I0408 07:54:49.442427 28923 net.cpp:405] bn4f_branch2b -> res4f_branch2b (in-place)
I0408 07:54:49.442625 28923 net.cpp:150] Setting up bn4f_branch2b
I0408 07:54:49.442631 28923 net.cpp:157] Top shape: 1 256 60 80 (1228800)
I0408 07:54:49.442633 28923 net.cpp:165] Memory required for data: 5283840084
I0408 07:54:49.442648 28923 layer_factory.hpp:77] Creating layer scale4f_branch2b
I0408 07:54:49.442661 28923 net.cpp:100] Creating Layer scale4f_branch2b
I0408 07:54:49.442665 28923 net.cpp:444] scale4f_branch2b <- res4f_branch2b
I0408 07:54:49.442673 28923 net.cpp:405] scale4f_branch2b -> res4f_branch2b (in-place)
I0408 07:54:49.442729 28923 layer_factory.hpp:77] Creating layer scale4f_branch2b
I0408 07:54:49.442859 28923 net.cpp:150] Setting up scale4f_branch2b
I0408 07:54:49.442867 28923 net.cpp:157] Top shape: 1 256 60 80 (1228800)
I0408 07:54:49.442868 28923 net.cpp:165] Memory required for data: 5288755284
I0408 07:54:49.442878 28923 layer_factory.hpp:77] Creating layer res4f_branch2b_relu
I0408 07:54:49.442885 28923 net.cpp:100] Creating Layer res4f_branch2b_relu
I0408 07:54:49.442890 28923 net.cpp:444] res4f_branch2b_relu <- res4f_branch2b
I0408 07:54:49.442899 28923 net.cpp:405] res4f_branch2b_relu -> res4f_branch2b (in-place)
I0408 07:54:49.443047 28923 net.cpp:150] Setting up res4f_branch2b_relu
I0408 07:54:49.443053 28923 net.cpp:157] Top shape: 1 256 60 80 (1228800)
I0408 07:54:49.443055 28923 net.cpp:165] Memory required for data: 5293670484
I0408 07:54:49.443059 28923 layer_factory.hpp:77] Creating layer res4f_branch2c
I0408 07:54:49.443073 28923 net.cpp:100] Creating Layer res4f_branch2c
I0408 07:54:49.443078 28923 net.cpp:444] res4f_branch2c <- res4f_branch2b
I0408 07:54:49.443089 28923 net.cpp:418] res4f_branch2c -> res4f_branch2c
I0408 07:54:49.444810 28923 cudnn_conv_layer.cpp:194] Reallocating workspace storage: 92952
I0408 07:54:49.444831 28923 net.cpp:150] Setting up res4f_branch2c
I0408 07:54:49.444849 28923 net.cpp:157] Top shape: 1 1024 60 80 (4915200)
I0408 07:54:49.444850 28923 net.cpp:165] Memory required for data: 5313331284
I0408 07:54:49.444860 28923 layer_factory.hpp:77] Creating layer bn4f_branch2c
I0408 07:54:49.444872 28923 net.cpp:100] Creating Layer bn4f_branch2c
I0408 07:54:49.444877 28923 net.cpp:444] bn4f_branch2c <- res4f_branch2c
I0408 07:54:49.444890 28923 net.cpp:405] bn4f_branch2c -> res4f_branch2c (in-place)
I0408 07:54:49.445075 28923 net.cpp:150] Setting up bn4f_branch2c
I0408 07:54:49.445080 28923 net.cpp:157] Top shape: 1 1024 60 80 (4915200)
I0408 07:54:49.445082 28923 net.cpp:165] Memory required for data: 5332992084
I0408 07:54:49.445128 28923 layer_factory.hpp:77] Creating layer scale4f_branch2c
I0408 07:54:49.445140 28923 net.cpp:100] Creating Layer scale4f_branch2c
I0408 07:54:49.445153 28923 net.cpp:444] scale4f_branch2c <- res4f_branch2c
I0408 07:54:49.445163 28923 net.cpp:405] scale4f_branch2c -> res4f_branch2c (in-place)
I0408 07:54:49.445209 28923 layer_factory.hpp:77] Creating layer scale4f_branch2c
I0408 07:54:49.445343 28923 net.cpp:150] Setting up scale4f_branch2c
I0408 07:54:49.445350 28923 net.cpp:157] Top shape: 1 1024 60 80 (4915200)
I0408 07:54:49.445353 28923 net.cpp:165] Memory required for data: 5352652884
I0408 07:54:49.445361 28923 layer_factory.hpp:77] Creating layer res4f
I0408 07:54:49.445370 28923 net.cpp:100] Creating Layer res4f
I0408 07:54:49.445374 28923 net.cpp:444] res4f <- res4e_res4e_relu_0_split_1
I0408 07:54:49.445382 28923 net.cpp:444] res4f <- res4f_branch2c
I0408 07:54:49.445389 28923 net.cpp:418] res4f -> res4f
I0408 07:54:49.445420 28923 net.cpp:150] Setting up res4f
I0408 07:54:49.445427 28923 net.cpp:157] Top shape: 1 1024 60 80 (4915200)
I0408 07:54:49.445430 28923 net.cpp:165] Memory required for data: 5372313684
I0408 07:54:49.445433 28923 layer_factory.hpp:77] Creating layer res4f_relu
I0408 07:54:49.445441 28923 net.cpp:100] Creating Layer res4f_relu
I0408 07:54:49.445446 28923 net.cpp:444] res4f_relu <- res4f
I0408 07:54:49.445462 28923 net.cpp:405] res4f_relu -> res4f (in-place)
I0408 07:54:49.445824 28923 net.cpp:150] Setting up res4f_relu
I0408 07:54:49.445832 28923 net.cpp:157] Top shape: 1 1024 60 80 (4915200)
I0408 07:54:49.445852 28923 net.cpp:165] Memory required for data: 5391974484
I0408 07:54:49.445857 28923 layer_factory.hpp:77] Creating layer res4f_res4f_relu_0_split
I0408 07:54:49.445866 28923 net.cpp:100] Creating Layer res4f_res4f_relu_0_split
I0408 07:54:49.445871 28923 net.cpp:444] res4f_res4f_relu_0_split <- res4f
I0408 07:54:49.445883 28923 net.cpp:418] res4f_res4f_relu_0_split -> res4f_res4f_relu_0_split_0
I0408 07:54:49.445895 28923 net.cpp:418] res4f_res4f_relu_0_split -> res4f_res4f_relu_0_split_1
I0408 07:54:49.445905 28923 net.cpp:418] res4f_res4f_relu_0_split -> res4f_res4f_relu_0_split_2
I0408 07:54:49.445958 28923 net.cpp:150] Setting up res4f_res4f_relu_0_split
I0408 07:54:49.445966 28923 net.cpp:157] Top shape: 1 1024 60 80 (4915200)
I0408 07:54:49.445969 28923 net.cpp:157] Top shape: 1 1024 60 80 (4915200)
I0408 07:54:49.445972 28923 net.cpp:157] Top shape: 1 1024 60 80 (4915200)
I0408 07:54:49.445974 28923 net.cpp:165] Memory required for data: 5450956884
I0408 07:54:49.445977 28923 layer_factory.hpp:77] Creating layer res5a_branch1
I0408 07:54:49.445991 28923 net.cpp:100] Creating Layer res5a_branch1
I0408 07:54:49.445996 28923 net.cpp:444] res5a_branch1 <- res4f_res4f_relu_0_split_0
I0408 07:54:49.446007 28923 net.cpp:418] res5a_branch1 -> res5a_branch1
I0408 07:54:49.451345 28923 cudnn_conv_layer.cpp:194] Reallocating workspace storage: 86424
I0408 07:54:49.451373 28923 net.cpp:150] Setting up res5a_branch1
I0408 07:54:49.451388 28923 net.cpp:157] Top shape: 1 2048 60 80 (9830400)
I0408 07:54:49.451390 28923 net.cpp:165] Memory required for data: 5490278484
I0408 07:54:49.451411 28923 layer_factory.hpp:77] Creating layer bn5a_branch1
I0408 07:54:49.451436 28923 net.cpp:100] Creating Layer bn5a_branch1
I0408 07:54:49.451445 28923 net.cpp:444] bn5a_branch1 <- res5a_branch1
I0408 07:54:49.451462 28923 net.cpp:405] bn5a_branch1 -> res5a_branch1 (in-place)
I0408 07:54:49.451675 28923 net.cpp:150] Setting up bn5a_branch1
I0408 07:54:49.451681 28923 net.cpp:157] Top shape: 1 2048 60 80 (9830400)
I0408 07:54:49.451684 28923 net.cpp:165] Memory required for data: 5529600084
I0408 07:54:49.451699 28923 layer_factory.hpp:77] Creating layer scale5a_branch1
I0408 07:54:49.451712 28923 net.cpp:100] Creating Layer scale5a_branch1
I0408 07:54:49.451716 28923 net.cpp:444] scale5a_branch1 <- res5a_branch1
I0408 07:54:49.451726 28923 net.cpp:405] scale5a_branch1 -> res5a_branch1 (in-place)
I0408 07:54:49.451776 28923 layer_factory.hpp:77] Creating layer scale5a_branch1
I0408 07:54:49.451927 28923 net.cpp:150] Setting up scale5a_branch1
I0408 07:54:49.451933 28923 net.cpp:157] Top shape: 1 2048 60 80 (9830400)
I0408 07:54:49.451936 28923 net.cpp:165] Memory required for data: 5568921684
I0408 07:54:49.451946 28923 layer_factory.hpp:77] Creating layer res5a_branch2a
…
I0412 08:21:18.876188 20927 net.cpp:150] Setting up res4e_branch2c
I0412 08:21:18.876195 20927 net.cpp:157] Top shape: 1 1024 14 14 (200704)
I0412 08:21:18.876210 20927 net.cpp:165] Memory required for data: 208531468
I0412 08:21:18.876235 20927 layer_factory.hpp:77] Creating layer bn4e_branch2c
I0412 08:21:18.876247 20927 net.cpp:100] Creating Layer bn4e_branch2c
I0412 08:21:18.876252 20927 net.cpp:444] bn4e_branch2c <- res4e_branch2c
I0412 08:21:18.876263 20927 net.cpp:405] bn4e_branch2c -> res4e_branch2c (in-place)
I0412 08:21:18.876432 20927 net.cpp:150] Setting up bn4e_branch2c
I0412 08:21:18.876440 20927 net.cpp:157] Top shape: 1 1024 14 14 (200704)
I0412 08:21:18.876441 20927 net.cpp:165] Memory required for data: 209334284
I0412 08:21:18.876456 20927 layer_factory.hpp:77] Creating layer scale4e_branch2c
I0412 08:21:18.876485 20927 net.cpp:100] Creating Layer scale4e_branch2c
I0412 08:21:18.876490 20927 net.cpp:444] scale4e_branch2c <- res4e_branch2c
I0412 08:21:18.876513 20927 net.cpp:405] scale4e_branch2c -> res4e_branch2c (in-place)
I0412 08:21:18.876569 20927 layer_factory.hpp:77] Creating layer scale4e_branch2c
I0412 08:21:18.876711 20927 net.cpp:150] Setting up scale4e_branch2c
I0412 08:21:18.876718 20927 net.cpp:157] Top shape: 1 1024 14 14 (200704)
I0412 08:21:18.876734 20927 net.cpp:165] Memory required for data: 210137100
I0412 08:21:18.876742 20927 layer_factory.hpp:77] Creating layer res4e
I0412 08:21:18.876751 20927 net.cpp:100] Creating Layer res4e
I0412 08:21:18.876757 20927 net.cpp:444] res4e <- res4d_res4d_relu_0_split_1
I0412 08:21:18.876765 20927 net.cpp:444] res4e <- res4e_branch2c
I0412 08:21:18.876775 20927 net.cpp:418] res4e -> res4e
I0412 08:21:18.876829 20927 net.cpp:150] Setting up res4e
I0412 08:21:18.876837 20927 net.cpp:157] Top shape: 1 1024 14 14 (200704)
I0412 08:21:18.876840 20927 net.cpp:165] Memory required for data: 210939916
I0412 08:21:18.876844 20927 layer_factory.hpp:77] Creating layer res4e_relu
I0412 08:21:18.876852 20927 net.cpp:100] Creating Layer res4e_relu
I0412 08:21:18.876855 20927 net.cpp:444] res4e_relu <- res4e
I0412 08:21:18.876864 20927 net.cpp:405] res4e_relu -> res4e (in-place)
I0412 08:21:18.876997 20927 net.cpp:150] Setting up res4e_relu
I0412 08:21:18.877004 20927 net.cpp:157] Top shape: 1 1024 14 14 (200704)
I0412 08:21:18.877007 20927 net.cpp:165] Memory required for data: 211742732
I0412 08:21:18.877009 20927 layer_factory.hpp:77] Creating layer res4e_res4e_relu_0_split
I0412 08:21:18.877018 20927 net.cpp:100] Creating Layer res4e_res4e_relu_0_split
I0412 08:21:18.877022 20927 net.cpp:444] res4e_res4e_relu_0_split <- res4e
I0412 08:21:18.877034 20927 net.cpp:418] res4e_res4e_relu_0_split -> res4e_res4e_relu_0_split_0
I0412 08:21:18.877046 20927 net.cpp:418] res4e_res4e_relu_0_split -> res4e_res4e_relu_0_split_1
I0412 08:21:18.877086 20927 net.cpp:150] Setting up res4e_res4e_relu_0_split
I0412 08:21:18.877094 20927 net.cpp:157] Top shape: 1 1024 14 14 (200704)
I0412 08:21:18.877099 20927 net.cpp:157] Top shape: 1 1024 14 14 (200704)
I0412 08:21:18.877100 20927 net.cpp:165] Memory required for data: 213348364
I0412 08:21:18.877104 20927 layer_factory.hpp:77] Creating layer res4f_branch2a
I0412 08:21:18.877116 20927 net.cpp:100] Creating Layer res4f_branch2a
I0412 08:21:18.877122 20927 net.cpp:444] res4f_branch2a <- res4e_res4e_relu_0_split_0
I0412 08:21:18.877135 20927 net.cpp:418] res4f_branch2a -> res4f_branch2a
I0412 08:21:18.878237 20927 cudnn_conv_layer.cpp:194] Reallocating workspace storage: 10080
I0412 08:21:18.878257 20927 net.cpp:150] Setting up res4f_branch2a
I0412 08:21:18.878263 20927 net.cpp:157] Top shape: 1 256 14 14 (50176)
I0412 08:21:18.878267 20927 net.cpp:165] Memory required for data: 213549068
I0412 08:21:18.878276 20927 layer_factory.hpp:77] Creating layer bn4f_branch2a
I0412 08:21:18.878288 20927 net.cpp:100] Creating Layer bn4f_branch2a
I0412 08:21:18.878294 20927 net.cpp:444] bn4f_branch2a <- res4f_branch2a
I0412 08:21:18.878305 20927 net.cpp:405] bn4f_branch2a -> res4f_branch2a (in-place)
I0412 08:21:18.878470 20927 net.cpp:150] Setting up bn4f_branch2a
I0412 08:21:18.878478 20927 net.cpp:157] Top shape: 1 256 14 14 (50176)
I0412 08:21:18.878479 20927 net.cpp:165] Memory required for data: 213749772
I0412 08:21:18.878494 20927 layer_factory.hpp:77] Creating layer scale4f_branch2a
I0412 08:21:18.878505 20927 net.cpp:100] Creating Layer scale4f_branch2a
I0412 08:21:18.878510 20927 net.cpp:444] scale4f_branch2a <- res4f_branch2a
I0412 08:21:18.878520 20927 net.cpp:405] scale4f_branch2a -> res4f_branch2a (in-place)
I0412 08:21:18.878566 20927 layer_factory.hpp:77] Creating layer scale4f_branch2a
I0412 08:21:18.878679 20927 net.cpp:150] Setting up scale4f_branch2a
I0412 08:21:18.878685 20927 net.cpp:157] Top shape: 1 256 14 14 (50176)
I0412 08:21:18.878687 20927 net.cpp:165] Memory required for data: 213950476
I0412 08:21:18.878697 20927 layer_factory.hpp:77] Creating layer res4f_branch2a_relu
I0412 08:21:18.878706 20927 net.cpp:100] Creating Layer res4f_branch2a_relu
I0412 08:21:18.878711 20927 net.cpp:444] res4f_branch2a_relu <- res4f_branch2a
I0412 08:21:18.878721 20927 net.cpp:405] res4f_branch2a_relu -> res4f_branch2a (in-place)
I0412 08:21:18.878850 20927 net.cpp:150] Setting up res4f_branch2a_relu
I0412 08:21:18.878859 20927 net.cpp:157] Top shape: 1 256 14 14 (50176)
I0412 08:21:18.878860 20927 net.cpp:165] Memory required for data: 214151180
I0412 08:21:18.878865 20927 layer_factory.hpp:77] Creating layer res4f_branch2b
I0412 08:21:18.878877 20927 net.cpp:100] Creating Layer res4f_branch2b
I0412 08:21:18.878882 20927 net.cpp:444] res4f_branch2b <- res4f_branch2a
I0412 08:21:18.878895 20927 net.cpp:418] res4f_branch2b -> res4f_branch2b
I0412 08:21:18.880964 20927 cudnn_conv_layer.cpp:194] Reallocating workspace storage: 12582912
I0412 08:21:18.881187 20927 net.cpp:150] Setting up res4f_branch2b
I0412 08:21:18.881212 20927 net.cpp:157] Top shape: 1 256 14 14 (50176)
I0412 08:21:18.881216 20927 net.cpp:165] Memory required for data: 214351884
I0412 08:21:18.881227 20927 layer_factory.hpp:77] Creating layer bn4f_branch2b
I0412 08:21:18.881240 20927 net.cpp:100] Creating Layer bn4f_branch2b
I0412 08:21:18.881247 20927 net.cpp:444] bn4f_branch2b <- res4f_branch2b
I0412 08:21:18.881259 20927 net.cpp:405] bn4f_branch2b -> res4f_branch2b (in-place)
I0412 08:21:18.881464 20927 net.cpp:150] Setting up bn4f_branch2b
I0412 08:21:18.881470 20927 net.cpp:157] Top shape: 1 256 14 14 (50176)
I0412 08:21:18.881472 20927 net.cpp:165] Memory required for data: 214552588
I0412 08:21:18.881500 20927 layer_factory.hpp:77] Creating layer scale4f_branch2b
I0412 08:21:18.881512 20927 net.cpp:100] Creating Layer scale4f_branch2b
I0412 08:21:18.881518 20927 net.cpp:444] scale4f_branch2b <- res4f_branch2b
I0412 08:21:18.881528 20927 net.cpp:405] scale4f_branch2b -> res4f_branch2b (in-place)
I0412 08:21:18.881599 20927 layer_factory.hpp:77] Creating layer scale4f_branch2b
I0412 08:21:18.881749 20927 net.cpp:150] Setting up scale4f_branch2b
I0412 08:21:18.881757 20927 net.cpp:157] Top shape: 1 256 14 14 (50176)
I0412 08:21:18.881772 20927 net.cpp:165] Memory required for data: 214753292
I0412 08:21:18.881780 20927 layer_factory.hpp:77] Creating layer res4f_branch2b_relu
I0412 08:21:18.881789 20927 net.cpp:100] Creating Layer res4f_branch2b_relu
I0412 08:21:18.881795 20927 net.cpp:444] res4f_branch2b_relu <- res4f_branch2b
I0412 08:21:18.881804 20927 net.cpp:405] res4f_branch2b_relu -> res4f_branch2b (in-place)
I0412 08:21:18.881949 20927 net.cpp:150] Setting up res4f_branch2b_relu
I0412 08:21:18.881958 20927 net.cpp:157] Top shape: 1 256 14 14 (50176)
I0412 08:21:18.881959 20927 net.cpp:165] Memory required for data: 214953996
I0412 08:21:18.881963 20927 layer_factory.hpp:77] Creating layer res4f_branch2c
I0412 08:21:18.881976 20927 net.cpp:100] Creating Layer res4f_branch2c
I0412 08:21:18.881983 20927 net.cpp:444] res4f_branch2c <- res4f_branch2b
I0412 08:21:18.881994 20927 net.cpp:418] res4f_branch2c -> res4f_branch2c
I0412 08:21:18.883597 20927 cudnn_conv_layer.cpp:194] Reallocating workspace storage: 10080
I0412 08:21:18.883620 20927 net.cpp:150] Setting up res4f_branch2c
I0412 08:21:18.883628 20927 net.cpp:157] Top shape: 1 1024 14 14 (200704)
I0412 08:21:18.883642 20927 net.cpp:165] Memory required for data: 215756812
I0412 08:21:18.883666 20927 layer_factory.hpp:77] Creating layer bn4f_branch2c
I0412 08:21:18.883677 20927 net.cpp:100] Creating Layer bn4f_branch2c
I0412 08:21:18.883683 20927 net.cpp:444] bn4f_branch2c <- res4f_branch2c
I0412 08:21:18.883694 20927 net.cpp:405] bn4f_branch2c -> res4f_branch2c (in-place)
I0412 08:21:18.883889 20927 net.cpp:150] Setting up bn4f_branch2c
I0412 08:21:18.883895 20927 net.cpp:157] Top shape: 1 1024 14 14 (200704)
I0412 08:21:18.883898 20927 net.cpp:165] Memory required for data: 216559628
I0412 08:21:18.883955 20927 layer_factory.hpp:77] Creating layer scale4f_branch2c
I0412 08:21:18.883980 20927 net.cpp:100] Creating Layer scale4f_branch2c
I0412 08:21:18.883985 20927 net.cpp:444] scale4f_branch2c <- res4f_branch2c
I0412 08:21:18.883996 20927 net.cpp:405] scale4f_branch2c -> res4f_branch2c (in-place)
I0412 08:21:18.884065 20927 layer_factory.hpp:77] Creating layer scale4f_branch2c
I0412 08:21:18.884183 20927 net.cpp:150] Setting up scale4f_branch2c
I0412 08:21:18.884191 20927 net.cpp:157] Top shape: 1 1024 14 14 (200704)
I0412 08:21:18.884196 20927 net.cpp:165] Memory required for data: 217362444
I0412 08:21:18.884204 20927 layer_factory.hpp:77] Creating layer res4f
I0412 08:21:18.884214 20927 net.cpp:100] Creating Layer res4f
I0412 08:21:18.884219 20927 net.cpp:444] res4f <- res4e_res4e_relu_0_split_1
I0412 08:21:18.884227 20927 net.cpp:444] res4f <- res4f_branch2c
I0412 08:21:18.884234 20927 net.cpp:418] res4f -> res4f
I0412 08:21:18.884268 20927 net.cpp:150] Setting up res4f
I0412 08:21:18.884275 20927 net.cpp:157] Top shape: 1 1024 14 14 (200704)
I0412 08:21:18.884279 20927 net.cpp:165] Memory required for data: 218165260
I0412 08:21:18.884282 20927 layer_factory.hpp:77] Creating layer res4f_relu
I0412 08:21:18.884290 20927 net.cpp:100] Creating Layer res4f_relu
I0412 08:21:18.884296 20927 net.cpp:444] res4f_relu <- res4f
I0412 08:21:18.884305 20927 net.cpp:405] res4f_relu -> res4f (in-place)
I0412 08:21:18.884649 20927 net.cpp:150] Setting up res4f_relu
I0412 08:21:18.884657 20927 net.cpp:157] Top shape: 1 1024 14 14 (200704)
I0412 08:21:18.884660 20927 net.cpp:165] Memory required for data: 218968076
I0412 08:21:18.884665 20927 layer_factory.hpp:77] Creating layer res4f_res4f_relu_0_split
I0412 08:21:18.884673 20927 net.cpp:100] Creating Layer res4f_res4f_relu_0_split
I0412 08:21:18.884680 20927 net.cpp:444] res4f_res4f_relu_0_split <- res4f
I0412 08:21:18.884690 20927 net.cpp:418] res4f_res4f_relu_0_split -> res4f_res4f_relu_0_split_0
I0412 08:21:18.884704 20927 net.cpp:418] res4f_res4f_relu_0_split -> res4f_res4f_relu_0_split_1
I0412 08:21:18.884714 20927 net.cpp:418] res4f_res4f_relu_0_split -> res4f_res4f_relu_0_split_2
I0412 08:21:18.884766 20927 net.cpp:150] Setting up res4f_res4f_relu_0_split
I0412 08:21:18.884774 20927 net.cpp:157] Top shape: 1 1024 14 14 (200704)
I0412 08:21:18.884779 20927 net.cpp:157] Top shape: 1 1024 14 14 (200704)
I0412 08:21:18.884783 20927 net.cpp:157] Top shape: 1 1024 14 14 (200704)
I0412 08:21:18.884784 20927 net.cpp:165] Memory required for data: 221376524
I0412 08:21:18.884788 20927 layer_factory.hpp:77] Creating layer res5a_branch1
I0412 08:21:18.884800 20927 net.cpp:100] Creating Layer res5a_branch1
I0412 08:21:18.884806 20927 net.cpp:444] res5a_branch1 <- res4f_res4f_relu_0_split_0
I0412 08:21:18.884819 20927 net.cpp:418] res5a_branch1 -> res5a_branch1
I0412 08:21:18.889943 20927 cudnn_conv_layer.cpp:194] Reallocating workspace storage: 8568
I0412 08:21:18.889976 20927 net.cpp:150] Setting up res5a_branch1
I0412 08:21:18.889993 20927 net.cpp:157] Top shape: 1 2048 14 14 (401408)
I0412 08:21:18.889997 20927 net.cpp:165] Memory required for data: 222982156
I0412 08:21:18.890017 20927 layer_factory.hpp:77] Creating layer bn5a_branch1
I0412 08:21:18.890043 20927 net.cpp:100] Creating Layer bn5a_branch1
I0412 08:21:18.890053 20927 net.cpp:444] bn5a_branch1 <- res5a_branch1
I0412 08:21:18.890071 20927 net.cpp:405] bn5a_branch1 -> res5a_branch1 (in-place)
I0412 08:21:18.890274 20927 net.cpp:150] Setting up bn5a_branch1
I0412 08:21:18.890280 20927 net.cpp:157] Top shape: 1 2048 14 14 (401408)
I0412 08:21:18.890282 20927 net.cpp:165] Memory required for data: 224587788
I0412 08:21:18.890298 20927 layer_factory.hpp:77] Creating layer scale5a_branch1
I0412 08:21:18.890312 20927 net.cpp:100] Creating Layer scale5a_branch1
I0412 08:21:18.890317 20927 net.cpp:444] scale5a_branch1 <- res5a_branch1
I0412 08:21:18.890327 20927 net.cpp:405] scale5a_branch1 -> res5a_branch1 (in-place)
I0412 08:21:18.890375 20927 layer_factory.hpp:77] Creating layer scale5a_branch1
I0412 08:21:18.890497 20927 net.cpp:150] Setting up scale5a_branch1
I0412 08:21:18.890506 20927 net.cpp:157] Top shape: 1 2048 14 14 (401408)
I0412 08:21:18.890507 20927 net.cpp:165] Memory required for data: 226193420
I0412 08:21:18.890516 20927 layer_factory.hpp:77] Creating layer res5a_branch2a
I0412 08:21:18.890532 20927 net.cpp:100] Creating Layer res5a_branch2a
I0412 08:21:18.890538 20927 net.cpp:444] res5a_branch2a <- res4f_res4f_relu_0_split_1
I0412 08:21:18.890549 20927 net.cpp:418] res5a_branch2a -> res5a_branch2a
I0412 08:21:18.892736 20927 cudnn_conv_layer.cpp:194] Reallocating workspace storage: 10080
I0412 08:21:18.892760 20927 net.cpp:150] Setting up res5a_branch2a
I0412 08:21:18.892766 20927 net.cpp:157] Top shape: 1 512 14 14 (100352)
I0412 08:21:18.892769 20927 net.cpp:165] Memory required for data: 226594828
I0412 08:21:18.892779 20927 layer_factory.hpp:77] Creating layer bn5a_branch2a
I0412 08:21:18.892791 20927 net.cpp:100] Creating Layer bn5a_branch2a
I0412 08:21:18.892798 20927 net.cpp:444] bn5a_branch2a <- res5a_branch2a
I0412 08:21:18.892810 20927 net.cpp:405] bn5a_branch2a -> res5a_branch2a (in-place)
I0412 08:21:18.892983 20927 net.cpp:150] Setting up bn5a_branch2a
I0412 08:21:18.892990 20927 net.cpp:157] Top shape: 1 512 14 14 (100352)
I0412 08:21:18.892992 20927 net.cpp:165] Memory required for data: 226996236
I0412 08:21:18.893007 20927 layer_factory.hpp:77] Creating layer scale5a_branch2a
I0412 08:21:18.893018 20927 net.cpp:100] Creating Layer scale5a_branch2a
I0412 08:21:18.893024 20927 net.cpp:444] scale5a_branch2a <- res5a_branch2a
I0412 08:21:18.893033 20927 net.cpp:405] scale5a_branch2a -> res5a_branch2a (in-place)
I0412 08:21:18.893079 20927 layer_factory.hpp:77] Creating layer scale5a_branch2a
I0412 08:21:18.893198 20927 net.cpp:150] Setting up scale5a_branch2a
I0412 08:21:18.893205 20927 net.cpp:157] Top shape: 1 512 14 14 (100352)
I0412 08:21:18.893208 20927 net.cpp:165] Memory required for data: 227397644
I0412 08:21:18.893216 20927 layer_factory.hpp:77] Creating layer res5a_branch2a_relu
I0412 08:21:18.893227 20927 net.cpp:100] Creating Layer res5a_branch2a_relu
I0412 08:21:18.893234 20927 net.cpp:444] res5a_branch2a_relu <- res5a_branch2a
I0412 08:21:18.893241 20927 net.cpp:405] res5a_branch2a_relu -> res5a_branch2a (in-place)
I0412 08:21:18.893370 20927 net.cpp:150] Setting up res5a_branch2a_relu
I0412 08:21:18.893378 20927 net.cpp:157] Top shape: 1 512 14 14 (100352)
I0412 08:21:18.893380 20927 net.cpp:165] Memory required for data: 227799052
I0412 08:21:18.893383 20927 layer_factory.hpp:77] Creating layer res5a_branch2b
I0412 08:21:18.893396 20927 net.cpp:100] Creating Layer res5a_branch2b
I0412 08:21:18.893402 20927 net.cpp:444] res5a_branch2b <- res5a_branch2a
I0412 08:21:18.893414 20927 net.cpp:418] res5a_branch2b -> res5a_branch2b
I0412 08:21:18.898388 20927 net.cpp:150] Setting up res5a_branch2b
I0412 08:21:18.898422 20927 net.cpp:157] Top shape: 1 512 14 14 (100352)
I0412 08:21:18.898425 20927 net.cpp:165] Memory required for data: 228200460
I0412 08:21:18.898447 20927 layer_factory.hpp:77] Creating layer bn5a_branch2b
I0412 08:21:18.898500 20927 net.cpp:100] Creating Layer bn5a_branch2b
I0412 08:21:18.898510 20927 net.cpp:444] bn5a_branch2b <- res5a_branch2b
I0412 08:21:18.898527 20927 net.cpp:405] bn5a_branch2b -> res5a_branch2b (in-place)
I0412 08:21:18.898722 20927 net.cpp:150] Setting up bn5a_branch2b
I0412 08:21:18.898730 20927 net.cpp:157] Top shape: 1 512 14 14 (100352)
I0412 08:21:18.898731 20927 net.cpp:165] Memory required for data: 228601868
I0412 08:21:18.898747 20927 layer_factory.hpp:77] Creating layer scale5a_branch2b
I0412 08:21:18.898773 20927 net.cpp:100] Creating Layer scale5a_branch2b
I0412 08:21:18.898777 20927 net.cpp:444] scale5a_branch2b <- res5a_branch2b
I0412 08:21:18.898802 20927 net.cpp:405] scale5a_branch2b -> res5a_branch2b (in-place)
I0412 08:21:18.898849 20927 layer_factory.hpp:77] Creating layer scale5a_branch2b
I0412 08:21:18.898972 20927 net.cpp:150] Setting up scale5a_branch2b
I0412 08:21:18.898978 20927 net.cpp:157] Top shape: 1 512 14 14 (100352)
I0412 08:21:18.898980 20927 net.cpp:165] Memory required for data: 229003276
I0412 08:21:18.898989 20927 layer_factory.hpp:77] Creating layer res5a_branch2b_relu
I0412 08:21:18.899000 20927 net.cpp:100] Creating Layer res5a_branch2b_relu
I0412 08:21:18.899005 20927 net.cpp:444] res5a_branch2b_relu <- res5a_branch2b
I0412 08:21:18.899014 20927 net.cpp:405] res5a_branch2b_relu -> res5a_branch2b (in-place)
I0412 08:21:18.899193 20927 net.cpp:150] Setting up res5a_branch2b_relu
I0412 08:21:18.899199 20927 net.cpp:157] Top shape: 1 512 14 14 (100352)
I0412 08:21:18.899201 20927 net.cpp:165] Memory required for data: 229404684
I0412 08:21:18.899205 20927 layer_factory.hpp:77] Creating layer res5a_branch2c
I0412 08:21:18.899220 20927 net.cpp:100] Creating Layer res5a_branch2c
I0412 08:21:18.899225 20927 net.cpp:444] res5a_branch2c <- res5a_branch2b
I0412 08:21:18.899251 20927 net.cpp:418] res5a_branch2c -> res5a_branch2c
I0412 08:21:18.902267 20927 cudnn_conv_layer.cpp:194] Reallocating workspace storage: 7800
I0412 08:21:18.902309 20927 net.cpp:150] Setting up res5a_branch2c
I0412 08:21:18.902320 20927 net.cpp:157] Top shape: 1 2048 14 14 (401408)
I0412 08:21:18.902323 20927 net.cpp:165] Memory required for data: 231010316
I0412 08:21:18.902336 20927 layer_factory.hpp:77] Creating layer bn5a_branch2c
I0412 08:21:18.902354 20927 net.cpp:100] Creating Layer bn5a_branch2c
I0412 08:21:18.902361 20927 net.cpp:444] bn5a_branch2c <- res5a_branch2c
I0412 08:21:18.902386 20927 net.cpp:405] bn5a_branch2c -> res5a_branch2c (in-place)
I0412 08:21:18.902580 20927 net.cpp:150] Setting up bn5a_branch2c
I0412 08:21:18.902586 20927 net.cpp:157] Top shape: 1 2048 14 14 (401408)
I0412 08:21:18.902588 20927 net.cpp:165] Memory required for data: 232615948
I0412 08:21:18.902602 20927 layer_factory.hpp:77] Creating layer scale5a_branch2c
I0412 08:21:18.902614 20927 net.cpp:100] Creating Layer scale5a_branch2c
I0412 08:21:18.902632 20927 net.cpp:444] scale5a_branch2c <- res5a_branch2c
I0412 08:21:18.902657 20927 net.cpp:405] scale5a_branch2c -> res5a_branch2c (in-place)
I0412 08:21:18.902715 20927 layer_factory.hpp:77] Creating layer scale5a_branch2c
I0412 08:21:18.902853 20927 net.cpp:150] Setting up scale5a_branch2c
I0412 08:21:18.902860 20927 net.cpp:157] Top shape: 1 2048 14 14 (401408)
I0412 08:21:18.902863 20927 net.cpp:165] Memory required for data: 234221580
I0412 08:21:18.902871 20927 layer_factory.hpp:77] Creating layer res5a
I0412 08:21:18.902881 20927 net.cpp:100] Creating Layer res5a
I0412 08:21:18.902886 20927 net.cpp:444] res5a <- res5a_branch1
I0412 08:21:18.902894 20927 net.cpp:444] res5a <- res5a_branch2c
I0412 08:21:18.902902 20927 net.cpp:418] res5a -> res5a
I0412 08:21:18.902935 20927 net.cpp:150] Setting up res5a
I0412 08:21:18.902943 20927 net.cpp:157] Top shape: 1 2048 14 14 (401408)
I0412 08:21:18.902946 20927 net.cpp:165] Memory required for data: 235827212
I0412 08:21:18.902950 20927 layer_factory.hpp:77] Creating layer res5a_relu
I0412 08:21:18.902957 20927 net.cpp:100] Creating Layer res5a_relu
I0412 08:21:18.902961 20927 net.cpp:444] res5a_relu <- res5a
I0412 08:21:18.902971 20927 net.cpp:405] res5a_relu -> res5a (in-place)
I0412 08:21:18.903329 20927 net.cpp:150] Setting up res5a_relu
I0412 08:21:18.903338 20927 net.cpp:157] Top shape: 1 2048 14 14 (401408)
I0412 08:21:18.903342 20927 net.cpp:165] Memory required for data: 237432844
I0412 08:21:18.903347 20927 layer_factory.hpp:77] Creating layer res5a_res5a_relu_0_split
I0412 08:21:18.903355 20927 net.cpp:100] Creating Layer res5a_res5a_relu_0_split
I0412 08:21:18.903360 20927 net.cpp:444] res5a_res5a_relu_0_split <- res5a
I0412 08:21:18.903373 20927 net.cpp:418] res5a_res5a_relu_0_split -> res5a_res5a_relu_0_split_0
I0412 08:21:18.903386 20927 net.cpp:418] res5a_res5a_relu_0_split -> res5a_res5a_relu_0_split_1
I0412 08:21:18.903429 20927 net.cpp:150] Setting up res5a_res5a_relu_0_split
I0412 08:21:18.903437 20927 net.cpp:157] Top shape: 1 2048 14 14 (401408)
I0412 08:21:18.903442 20927 net.cpp:157] Top shape: 1 2048 14 14 (401408)
I0412 08:21:18.903445 20927 net.cpp:165] Memory required for data: 240644108
I0412 08:21:18.903447 20927 layer_factory.hpp:77] Creating layer res5b_branch2a
I0412 08:21:18.903460 20927 net.cpp:100] Creating Layer res5b_branch2a
I0412 08:21:18.903466 20927 net.cpp:444] res5b_branch2a <- res5a_res5a_relu_0_split_0
I0412 08:21:18.903477 20927 net.cpp:418] res5b_branch2a -> res5b_branch2a
I0412 08:21:18.906486 20927 cudnn_conv_layer.cpp:194] Reallocating workspace storage: 10080
I0412 08:21:18.906515 20927 net.cpp:150] Setting up res5b_branch2a
I0412 08:21:18.906527 20927 net.cpp:157] Top shape: 1 512 14 14 (100352)
I0412 08:21:18.906529 20927 net.cpp:165] Memory required for data: 241045516
I0412 08:21:18.906545 20927 layer_factory.hpp:77] Creating layer bn5b_branch2a
I0412 08:21:18.906563 20927 net.cpp:100] Creating Layer bn5b_branch2a
I0412 08:21:18.906571 20927 net.cpp:444] bn5b_branch2a <- res5b_branch2a
I0412 08:21:18.906585 20927 net.cpp:405] bn5b_branch2a -> res5b_branch2a (in-place)
I0412 08:21:18.906771 20927 net.cpp:150] Setting up bn5b_branch2a
I0412 08:21:18.906778 20927 net.cpp:157] Top shape: 1 512 14 14 (100352)
I0412 08:21:18.906780 20927 net.cpp:165] Memory required for data: 241446924
I0412 08:21:18.906795 20927 layer_factory.hpp:77] Creating layer scale5b_branch2a
I0412 08:21:18.906808 20927 net.cpp:100] Creating Layer scale5b_branch2a
I0412 08:21:18.906813 20927 net.cpp:444] scale5b_branch2a <- res5b_branch2a
I0412 08:21:18.906824 20927 net.cpp:405] scale5b_branch2a -> res5b_branch2a (in-place)
I0412 08:21:18.906870 20927 layer_factory.hpp:77] Creating layer scale5b_branch2a
I0412 08:21:18.906994 20927 net.cpp:150] Setting up scale5b_branch2a
I0412 08:21:18.907001 20927 net.cpp:157] Top shape: 1 512 14 14 (100352)
I0412 08:21:18.907003 20927 net.cpp:165] Memory required for data: 241848332
I0412 08:21:18.907013 20927 layer_factory.hpp:77] Creating layer res5b_branch2a_relu
I0412 08:21:18.907022 20927 net.cpp:100] Creating Layer res5b_branch2a_relu
I0412 08:21:18.907027 20927 net.cpp:444] res5b_branch2a_relu <- res5b_branch2a
I0412 08:21:18.907037 20927 net.cpp:405] res5b_branch2a_relu -> res5b_branch2a (in-place)
I0412 08:21:18.907171 20927 net.cpp:150] Setting up res5b_branch2a_relu
I0412 08:21:18.907178 20927 net.cpp:157] Top shape: 1 512 14 14 (100352)
I0412 08:21:18.907181 20927 net.cpp:165] Memory required for data: 242249740
I0412 08:21:18.907186 20927 layer_factory.hpp:77] Creating layer res5b_branch2b
I0412 08:21:18.907198 20927 net.cpp:100] Creating Layer res5b_branch2b
I0412 08:21:18.907204 20927 net.cpp:444] res5b_branch2b <- res5b_branch2a
I0412 08:21:18.907217 20927 net.cpp:418] res5b_branch2b -> res5b_branch2b
I0412 08:21:18.912158 20927 net.cpp:150] Setting up res5b_branch2b
I0412 08:21:18.912192 20927 net.cpp:157] Top shape: 1 512 14 14 (100352)
I0412 08:21:18.912195 20927 net.cpp:165] Memory required for data: 242651148
I0412 08:21:18.912216 20927 layer_factory.hpp:77] Creating layer bn5b_branch2b
I0412 08:21:18.912272 20927 net.cpp:100] Creating Layer bn5b_branch2b
I0412 08:21:18.912282 20927 net.cpp:444] bn5b_branch2b <- res5b_branch2b
I0412 08:21:18.912300 20927 net.cpp:405] bn5b_branch2b -> res5b_branch2b (in-place)
I0412 08:21:18.912497 20927 net.cpp:150] Setting up bn5b_branch2b
I0412 08:21:18.912504 20927 net.cpp:157] Top shape: 1 512 14 14 (100352)
I0412 08:21:18.912508 20927 net.cpp:165] Memory required for data: 243052556
I0412 08:21:18.912521 20927 layer_factory.hpp:77] Creating layer scale5b_branch2b
I0412 08:21:18.912547 20927 net.cpp:100] Creating Layer scale5b_branch2b
I0412 08:21:18.912552 20927 net.cpp:444] scale5b_branch2b <- res5b_branch2b
I0412 08:21:18.912575 20927 net.cpp:405] scale5b_branch2b -> res5b_branch2b (in-place)
I0412 08:21:18.912634 20927 layer_factory.hpp:77] Creating layer scale5b_branch2b
I0412 08:21:18.912772 20927 net.cpp:150] Setting up scale5b_branch2b
I0412 08:21:18.912781 20927 net.cpp:157] Top shape: 1 512 14 14 (100352)
I0412 08:21:18.912782 20927 net.cpp:165] Memory required for data: 243453964
I0412 08:21:18.912791 20927 layer_factory.hpp:77] Creating layer res5b_branch2b_relu
I0412 08:21:18.912801 20927 net.cpp:100] Creating Layer res5b_branch2b_relu
I0412 08:21:18.912806 20927 net.cpp:444] res5b_branch2b_relu <- res5b_branch2b
I0412 08:21:18.912816 20927 net.cpp:405] res5b_branch2b_relu -> res5b_branch2b (in-place)
I0412 08:21:18.913023 20927 net.cpp:150] Setting up res5b_branch2b_relu
I0412 08:21:18.913031 20927 net.cpp:157] Top shape: 1 512 14 14 (100352)
I0412 08:21:18.913033 20927 net.cpp:165] Memory required for data: 243855372
I0412 08:21:18.913038 20927 layer_factory.hpp:77] Creating layer res5b_branch2c
I0412 08:21:18.913053 20927 net.cpp:100] Creating Layer res5b_branch2c
I0412 08:21:18.913058 20927 net.cpp:444] res5b_branch2c <- res5b_branch2b
I0412 08:21:18.913082 20927 net.cpp:418] res5b_branch2c -> res5b_branch2c
I0412 08:21:18.916136 20927 cudnn_conv_layer.cpp:194] Reallocating workspace storage: 7800
I0412 08:21:18.916177 20927 net.cpp:150] Setting up res5b_branch2c
I0412 08:21:18.916188 20927 net.cpp:157] Top shape: 1 2048 14 14 (401408)
I0412 08:21:18.916191 20927 net.cpp:165] Memory required for data: 245461004
I0412 08:21:18.916204 20927 layer_factory.hpp:77] Creating layer bn5b_branch2c
I0412 08:21:18.916223 20927 net.cpp:100] Creating Layer bn5b_branch2c
I0412 08:21:18.916229 20927 net.cpp:444] bn5b_branch2c <- res5b_branch2c
I0412 08:21:18.916255 20927 net.cpp:405] bn5b_branch2c -> res5b_branch2c (in-place)
I0412 08:21:18.916455 20927 net.cpp:150] Setting up bn5b_branch2c
I0412 08:21:18.916461 20927 net.cpp:157] Top shape: 1 2048 14 14 (401408)
I0412 08:21:18.916463 20927 net.cpp:165] Memory required for data: 247066636
I0412 08:21:18.916477 20927 layer_factory.hpp:77] Creating layer scale5b_branch2c
I0412 08:21:18.916489 20927 net.cpp:100] Creating Layer scale5b_branch2c
I0412 08:21:18.916507 20927 net.cpp:444] scale5b_branch2c <- res5b_branch2c
I0412 08:21:18.916532 20927 net.cpp:405] scale5b_branch2c -> res5b_branch2c (in-place)
I0412 08:21:18.916591 20927 layer_factory.hpp:77] Creating layer scale5b_branch2c
I0412 08:21:18.916729 20927 net.cpp:150] Setting up scale5b_branch2c
I0412 08:21:18.916738 20927 net.cpp:157] Top shape: 1 2048 14 14 (401408)
I0412 08:21:18.916739 20927 net.cpp:165] Memory required for data: 248672268
I0412 08:21:18.916749 20927 layer_factory.hpp:77] Creating layer res5b
I0412 08:21:18.916759 20927 net.cpp:100] Creating Layer res5b
I0412 08:21:18.916764 20927 net.cpp:444] res5b <- res5a_res5a_relu_0_split_1
I0412 08:21:18.916771 20927 net.cpp:444] res5b <- res5b_branch2c
I0412 08:21:18.916779 20927 net.cpp:418] res5b -> res5b
I0412 08:21:18.916812 20927 net.cpp:150] Setting up res5b
I0412 08:21:18.916821 20927 net.cpp:157] Top shape: 1 2048 14 14 (401408)
I0412 08:21:18.916822 20927 net.cpp:165] Memory required for data: 250277900
I0412 08:21:18.916826 20927 layer_factory.hpp:77] Creating layer res5b_relu
I0412 08:21:18.916836 20927 net.cpp:100] Creating Layer res5b_relu
I0412 08:21:18.916841 20927 net.cpp:444] res5b_relu <- res5b
I0412 08:21:18.916849 20927 net.cpp:405] res5b_relu -> res5b (in-place)
I0412 08:21:18.917215 20927 net.cpp:150] Setting up res5b_relu
I0412 08:21:18.917224 20927 net.cpp:157] Top shape: 1 2048 14 14 (401408)
I0412 08:21:18.917227 20927 net.cpp:165] Memory required for data: 251883532
I0412 08:21:18.917230 20927 layer_factory.hpp:77] Creating layer res5b_res5b_relu_0_split
I0412 08:21:18.917240 20927 net.cpp:100] Creating Layer res5b_res5b_relu_0_split
I0412 08:21:18.917245 20927 net.cpp:444] res5b_res5b_relu_0_split <- res5b
I0412 08:21:18.917256 20927 net.cpp:418] res5b_res5b_relu_0_split -> res5b_res5b_relu_0_split_0
I0412 08:21:18.917271 20927 net.cpp:418] res5b_res5b_relu_0_split -> res5b_res5b_relu_0_split_1
I0412 08:21:18.917315 20927 net.cpp:150] Setting up res5b_res5b_relu_0_split
I0412 08:21:18.917323 20927 net.cpp:157] Top shape: 1 2048 14 14 (401408)
I0412 08:21:18.917327 20927 net.cpp:157] Top shape: 1 2048 14 14 (401408)
I0412 08:21:18.917330 20927 net.cpp:165] Memory required for data: 255094796
I0412 08:21:18.917333 20927 layer_factory.hpp:77] Creating layer res5c_branch2a
I0412 08:21:18.917346 20927 net.cpp:100] Creating Layer res5c_branch2a
I0412 08:21:18.917351 20927 net.cpp:444] res5c_branch2a <- res5b_res5b_relu_0_split_0
I0412 08:21:18.917362 20927 net.cpp:418] res5c_branch2a -> res5c_branch2a
I0412 08:21:18.920389 20927 cudnn_conv_layer.cpp:194] Reallocating workspace storage: 10080
I0412 08:21:18.920418 20927 net.cpp:150] Setting up res5c_branch2a
I0412 08:21:18.920430 20927 net.cpp:157] Top shape: 1 512 14 14 (100352)
I0412 08:21:18.920433 20927 net.cpp:165] Memory required for data: 255496204
I0412 08:21:18.920447 20927 layer_factory.hpp:77] Creating layer bn5c_branch2a
I0412 08:21:18.920466 20927 net.cpp:100] Creating Layer bn5c_branch2a
I0412 08:21:18.920475 20927 net.cpp:444] bn5c_branch2a <- res5c_branch2a
I0412 08:21:18.920490 20927 net.cpp:405] bn5c_branch2a -> res5c_branch2a (in-place)
I0412 08:21:18.920681 20927 net.cpp:150] Setting up bn5c_branch2a
I0412 08:21:18.920687 20927 net.cpp:157] Top shape: 1 512 14 14 (100352)
I0412 08:21:18.920691 20927 net.cpp:165] Memory required for data: 255897612
I0412 08:21:18.920704 20927 layer_factory.hpp:77] Creating layer scale5c_branch2a
I0412 08:21:18.920717 20927 net.cpp:100] Creating Layer scale5c_branch2a
I0412 08:21:18.920722 20927 net.cpp:444] scale5c_branch2a <- res5c_branch2a
I0412 08:21:18.920733 20927 net.cpp:405] scale5c_branch2a -> res5c_branch2a (in-place)
I0412 08:21:18.920780 20927 layer_factory.hpp:77] Creating layer scale5c_branch2a
I0412 08:21:18.920904 20927 net.cpp:150] Setting up scale5c_branch2a
I0412 08:21:18.920912 20927 net.cpp:157] Top shape: 1 512 14 14 (100352)
I0412 08:21:18.920914 20927 net.cpp:165] Memory required for data: 256299020
I0412 08:21:18.920923 20927 layer_factory.hpp:77] Creating layer res5c_branch2a_relu
I0412 08:21:18.920933 20927 net.cpp:100] Creating Layer res5c_branch2a_relu
I0412 08:21:18.920938 20927 net.cpp:444] res5c_branch2a_relu <- res5c_branch2a
I0412 08:21:18.920948 20927 net.cpp:405] res5c_branch2a_relu -> res5c_branch2a (in-place)
I0412 08:21:18.921082 20927 net.cpp:150] Setting up res5c_branch2a_relu
I0412 08:21:18.921089 20927 net.cpp:157] Top shape: 1 512 14 14 (100352)
I0412 08:21:18.921092 20927 net.cpp:165] Memory required for data: 256700428
I0412 08:21:18.921095 20927 layer_factory.hpp:77] Creating layer res5c_branch2b
I0412 08:21:18.921109 20927 net.cpp:100] Creating Layer res5c_branch2b
I0412 08:21:18.921114 20927 net.cpp:444] res5c_branch2b <- res5c_branch2a
I0412 08:21:18.921128 20927 net.cpp:418] res5c_branch2b -> res5c_branch2b
I0412 08:21:18.926110 20927 net.cpp:150] Setting up res5c_branch2b
I0412 08:21:18.926143 20927 net.cpp:157] Top shape: 1 512 14 14 (100352)
I0412 08:21:18.926147 20927 net.cpp:165] Memory required for data: 257101836
I0412 08:21:18.926168 20927 layer_factory.hpp:77] Creating layer bn5c_branch2b
I0412 08:21:18.926195 20927 net.cpp:100] Creating Layer bn5c_branch2b
I0412 08:21:18.926206 20927 net.cpp:444] bn5c_branch2b <- res5c_branch2b
I0412 08:21:18.926223 20927 net.cpp:405] bn5c_branch2b -> res5c_branch2b (in-place)
I0412 08:21:18.926424 20927 net.cpp:150] Setting up bn5c_branch2b
I0412 08:21:18.926431 20927 net.cpp:157] Top shape: 1 512 14 14 (100352)
I0412 08:21:18.926434 20927 net.cpp:165] Memory required for data: 257503244
I0412 08:21:18.926448 20927 layer_factory.hpp:77] Creating layer scale5c_branch2b
I0412 08:21:18.926462 20927 net.cpp:100] Creating Layer scale5c_branch2b
I0412 08:21:18.926468 20927 net.cpp:444] scale5c_branch2b <- res5c_branch2b
I0412 08:21:18.926477 20927 net.cpp:405] scale5c_branch2b -> res5c_branch2b (in-place)
I0412 08:21:18.926525 20927 layer_factory.hpp:77] Creating layer scale5c_branch2b
I0412 08:21:18.926651 20927 net.cpp:150] Setting up scale5c_branch2b
I0412 08:21:18.926658 20927 net.cpp:157] Top shape: 1 512 14 14 (100352)
I0412 08:21:18.926661 20927 net.cpp:165] Memory required for data: 257904652
I0412 08:21:18.926671 20927 layer_factory.hpp:77] Creating layer res5c_branch2b_relu
I0412 08:21:18.926681 20927 net.cpp:100] Creating Layer res5c_branch2b_relu
I0412 08:21:18.926686 20927 net.cpp:444] res5c_branch2b_relu <- res5c_branch2b
I0412 08:21:18.926694 20927 net.cpp:405] res5c_branch2b_relu -> res5c_branch2b (in-place)
I0412 08:21:18.926873 20927 net.cpp:150] Setting up res5c_branch2b_relu
I0412 08:21:18.926882 20927 net.cpp:157] Top shape: 1 512 14 14 (100352)
I0412 08:21:18.926883 20927 net.cpp:165] Memory required for data: 258306060
I0412 08:21:18.926887 20927 layer_factory.hpp:77] Creating layer res5c_branch2c
I0412 08:21:18.926903 20927 net.cpp:100] Creating Layer res5c_branch2c
I0412 08:21:18.926908 20927 net.cpp:444] res5c_branch2c <- res5c_branch2b
I0412 08:21:18.926919 20927 net.cpp:418] res5c_branch2c -> res5c_branch2c
I0412 08:21:18.930022 20927 cudnn_conv_layer.cpp:194] Reallocating workspace storage: 7800
I0412 08:21:18.930052 20927 net.cpp:150] Setting up res5c_branch2c
I0412 08:21:18.930063 20927 net.cpp:157] Top shape: 1 2048 14 14 (401408)
I0412 08:21:18.930064 20927 net.cpp:165] Memory required for data: 259911692
I0412 08:21:18.930104 20927 layer_factory.hpp:77] Creating layer bn5c_branch2c
I0412 08:21:18.930120 20927 net.cpp:100] Creating Layer bn5c_branch2c
I0412 08:21:18.930127 20927 net.cpp:444] bn5c_branch2c <- res5c_branch2c
I0412 08:21:18.930140 20927 net.cpp:405] bn5c_branch2c -> res5c_branch2c (in-place)
I0412 08:21:18.930330 20927 net.cpp:150] Setting up bn5c_branch2c
I0412 08:21:18.930337 20927 net.cpp:157] Top shape: 1 2048 14 14 (401408)
I0412 08:21:18.930341 20927 net.cpp:165] Memory required for data: 261517324
I0412 08:21:18.930354 20927 layer_factory.hpp:77] Creating layer scale5c_branch2c
I0412 08:21:18.930366 20927 net.cpp:100] Creating Layer scale5c_branch2c
I0412 08:21:18.930383 20927 net.cpp:444] scale5c_branch2c <- res5c_branch2c
I0412 08:21:18.930407 20927 net.cpp:405] scale5c_branch2c -> res5c_branch2c (in-place)
I0412 08:21:18.930469 20927 layer_factory.hpp:77] Creating layer scale5c_branch2c
I0412 08:21:18.930610 20927 net.cpp:150] Setting up scale5c_branch2c
I0412 08:21:18.930619 20927 net.cpp:157] Top shape: 1 2048 14 14 (401408)
I0412 08:21:18.930620 20927 net.cpp:165] Memory required for data: 263122956
I0412 08:21:18.930629 20927 layer_factory.hpp:77] Creating layer res5c
I0412 08:21:18.930639 20927 net.cpp:100] Creating Layer res5c
I0412 08:21:18.930645 20927 net.cpp:444] res5c <- res5b_res5b_relu_0_split_1
I0412 08:21:18.930654 20927 net.cpp:444] res5c <- res5c_branch2c
I0412 08:21:18.930660 20927 net.cpp:418] res5c -> res5c
I0412 08:21:18.930693 20927 net.cpp:150] Setting up res5c
I0412 08:21:18.930702 20927 net.cpp:157] Top shape: 1 2048 14 14 (401408)
I0412 08:21:18.930706 20927 net.cpp:165] Memory required for data: 264728588
I0412 08:21:18.930708 20927 layer_factory.hpp:77] Creating layer res5c_relu
I0412 08:21:18.930716 20927 net.cpp:100] Creating Layer res5c_relu
I0412 08:21:18.930721 20927 net.cpp:444] res5c_relu <- res5c
I0412 08:21:18.930729 20927 net.cpp:405] res5c_relu -> res5c (in-place)
I0412 08:21:18.930862 20927 net.cpp:150] Setting up res5c_relu
I0412 08:21:18.930869 20927 net.cpp:157] Top shape: 1 2048 14 14 (401408)
I0412 08:21:18.930871 20927 net.cpp:165] Memory required for data: 266334220
I0412 08:21:18.930876 20927 layer_factory.hpp:77] Creating layer rpn_conv/3x3
I0412 08:21:18.930892 20927 net.cpp:100] Creating Layer rpn_conv/3x3
I0412 08:21:18.930897 20927 net.cpp:444] rpn_conv/3x3 <- res4f_res4f_relu_0_split_2
I0412 08:21:18.930912 20927 net.cpp:418] rpn_conv/3x3 -> rpn/output
I0412 08:21:19.402843 20927 cudnn_conv_layer.cpp:194] Reallocating workspace storage: 21676032
I0412 08:21:19.403121 20927 net.cpp:150] Setting up rpn_conv/3x3
I0412 08:21:19.403153 20927 net.cpp:157] Top shape: 1 512 14 14 (100352)
I0412 08:21:19.403156 20927 net.cpp:165] Memory required for data: 266735628
I0412 08:21:19.403175 20927 layer_factory.hpp:77] Creating layer rpn_relu/3x3
I0412 08:21:19.403223 20927 net.cpp:100] Creating Layer rpn_relu/3x3
I0412 08:21:19.403230 20927 net.cpp:444] rpn_relu/3x3 <- rpn/output
I0412 08:21:19.403247 20927 net.cpp:405] rpn_relu/3x3 -> rpn/output (in-place)
I0412 08:21:19.403666 20927 net.cpp:150] Setting up rpn_relu/3x3
I0412 08:21:19.403688 20927 net.cpp:157] Top shape: 1 512 14 14 (100352)
I0412 08:21:19.403692 20927 net.cpp:165] Memory required for data: 267137036
I0412 08:21:19.403695 20927 layer_factory.hpp:77] Creating layer rpn/output_rpn_relu/3x3_0_split
I0412 08:21:19.403705 20927 net.cpp:100] Creating Layer rpn/output_rpn_relu/3x3_0_split
I0412 08:21:19.403709 20927 net.cpp:444] rpn/output_rpn_relu/3x3_0_split <- rpn/output
I0412 08:21:19.403720 20927 net.cpp:418] rpn/output_rpn_relu/3x3_0_split -> rpn/output_rpn_relu/3x3_0_split_0
I0412 08:21:19.403735 20927 net.cpp:418] rpn/output_rpn_relu/3x3_0_split -> rpn/output_rpn_relu/3x3_0_split_1
I0412 08:21:19.403797 20927 net.cpp:150] Setting up rpn/output_rpn_relu/3x3_0_split
I0412 08:21:19.403818 20927 net.cpp:157] Top shape: 1 512 14 14 (100352)
I0412 08:21:19.403822 20927 net.cpp:157] Top shape: 1 512 14 14 (100352)
I0412 08:21:19.403825 20927 net.cpp:165] Memory required for data: 267939852
I0412 08:21:19.403828 20927 layer_factory.hpp:77] Creating layer rpn_cls_score
I0412 08:21:19.403847 20927 net.cpp:100] Creating Layer rpn_cls_score
I0412 08:21:19.403852 20927 net.cpp:444] rpn_cls_score <- rpn/output_rpn_relu/3x3_0_split_0
I0412 08:21:19.403878 20927 net.cpp:418] rpn_cls_score -> rpn_cls_score
I0412 08:21:19.405882 20927 cudnn_conv_layer.cpp:194] Reallocating workspace storage: 10080
I0412 08:21:19.405905 20927 net.cpp:150] Setting up rpn_cls_score
I0412 08:21:19.405913 20927 net.cpp:157] Top shape: 1 22 14 14 (4312)
I0412 08:21:19.405916 20927 net.cpp:165] Memory required for data: 267957100
I0412 08:21:19.405927 20927 layer_factory.hpp:77] Creating layer rpn_bbox_pred
I0412 08:21:19.405943 20927 net.cpp:100] Creating Layer rpn_bbox_pred
I0412 08:21:19.405951 20927 net.cpp:444] rpn_bbox_pred <- rpn/output_rpn_relu/3x3_0_split_1
I0412 08:21:19.405964 20927 net.cpp:418] rpn_bbox_pred -> rpn_bbox_pred
I0412 08:21:19.409078 20927 cudnn_conv_layer.cpp:194] Reallocating workspace storage: 10080
I0412 08:21:19.409101 20927 net.cpp:150] Setting up rpn_bbox_pred
I0412 08:21:19.409107 20927 net.cpp:157] Top shape: 1 44 14 14 (8624)
I0412 08:21:19.409111 20927 net.cpp:165] Memory required for data: 267991596
I0412 08:21:19.409121 20927 layer_factory.hpp:77] Creating layer rpn_cls_score_reshape
I0412 08:21:19.409134 20927 net.cpp:100] Creating Layer rpn_cls_score_reshape
I0412 08:21:19.409140 20927 net.cpp:444] rpn_cls_score_reshape <- rpn_cls_score
I0412 08:21:19.409152 20927 net.cpp:418] rpn_cls_score_reshape -> rpn_cls_score_reshape
I0412 08:21:19.409189 20927 net.cpp:150] Setting up rpn_cls_score_reshape
I0412 08:21:19.409198 20927 net.cpp:157] Top shape: 1 2 154 14 (4312)
I0412 08:21:19.409200 20927 net.cpp:165] Memory required for data: 268008844
I0412 08:21:19.409204 20927 layer_factory.hpp:77] Creating layer rpn_cls_prob
I0412 08:21:19.409214 20927 net.cpp:100] Creating Layer rpn_cls_prob
I0412 08:21:19.409219 20927 net.cpp:444] rpn_cls_prob <- rpn_cls_score_reshape
I0412 08:21:19.409229 20927 net.cpp:418] rpn_cls_prob -> rpn_cls_prob
I0412 08:21:19.409447 20927 net.cpp:150] Setting up rpn_cls_prob
I0412 08:21:19.409456 20927 net.cpp:157] Top shape: 1 2 154 14 (4312)
I0412 08:21:19.409459 20927 net.cpp:165] Memory required for data: 268026092
I0412 08:21:19.409463 20927 layer_factory.hpp:77] Creating layer rpn_cls_prob_reshape
I0412 08:21:19.409473 20927 net.cpp:100] Creating Layer rpn_cls_prob_reshape
I0412 08:21:19.409478 20927 net.cpp:444] rpn_cls_prob_reshape <- rpn_cls_prob
I0412 08:21:19.409489 20927 net.cpp:418] rpn_cls_prob_reshape -> rpn_cls_prob_reshape
I0412 08:21:19.409521 20927 net.cpp:150] Setting up rpn_cls_prob_reshape
I0412 08:21:19.409530 20927 net.cpp:157] Top shape: 1 22 14 14 (4312)
I0412 08:21:19.409533 20927 net.cpp:165] Memory required for data: 268043340
I0412 08:21:19.409536 20927 layer_factory.hpp:77] Creating layer proposal
I0412 08:21:19.409831 20927 net.cpp:100] Creating Layer proposal
I0412 08:21:19.409844 20927 net.cpp:444] proposal <- rpn_cls_prob_reshape
I0412 08:21:19.409855 20927 net.cpp:444] proposal <- rpn_bbox_pred
I0412 08:21:19.409862 20927 net.cpp:444] proposal <- im_info
I0412 08:21:19.409870 20927 net.cpp:418] proposal -> rois
I0412 08:21:19.411042 20927 net.cpp:150] Setting up proposal
I0412 08:21:19.411053 20927 net.cpp:157] Top shape: 1 5 (5)
I0412 08:21:19.411056 20927 net.cpp:165] Memory required for data: 268043360
I0412 08:21:19.411062 20927 layer_factory.hpp:77] Creating layer rois_proposal_0_split
I0412 08:21:19.411070 20927 net.cpp:100] Creating Layer rois_proposal_0_split
I0412 08:21:19.411077 20927 net.cpp:444] rois_proposal_0_split <- rois
I0412 08:21:19.411087 20927 net.cpp:418] rois_proposal_0_split -> rois_proposal_0_split_0
I0412 08:21:19.411100 20927 net.cpp:418] rois_proposal_0_split -> rois_proposal_0_split_1
I0412 08:21:19.411144 20927 net.cpp:150] Setting up rois_proposal_0_split
I0412 08:21:19.411150 20927 net.cpp:157] Top shape: 1 5 (5)
I0412 08:21:19.411154 20927 net.cpp:157] Top shape: 1 5 (5)
I0412 08:21:19.411156 20927 net.cpp:165] Memory required for data: 268043400
I0412 08:21:19.411159 20927 layer_factory.hpp:77] Creating layer conv_new_1
I0412 08:21:19.411173 20927 net.cpp:100] Creating Layer conv_new_1
I0412 08:21:19.411178 20927 net.cpp:444] conv_new_1 <- res5c
I0412 08:21:19.411191 20927 net.cpp:418] conv_new_1 -> conv_new_1
I0412 08:21:19.621309 20927 cudnn_conv_layer.cpp:194] Reallocating workspace storage: 10080
I0412 08:21:19.621356 20927 net.cpp:150] Setting up conv_new_1
I0412 08:21:19.621371 20927 net.cpp:157] Top shape: 1 1024 14 14 (200704)
I0412 08:21:19.621374 20927 net.cpp:165] Memory required for data: 268846216
I0412 08:21:19.621393 20927 layer_factory.hpp:77] Creating layer conv_new_1_relu
I0412 08:21:19.621428 20927 net.cpp:100] Creating Layer conv_new_1_relu
I0412 08:21:19.621449 20927 net.cpp:444] conv_new_1_relu <- conv_new_1
I0412 08:21:19.621465 20927 net.cpp:405] conv_new_1_relu -> conv_new_1 (in-place)
I0412 08:21:19.621641 20927 net.cpp:150] Setting up conv_new_1_relu
I0412 08:21:19.621649 20927 net.cpp:157] Top shape: 1 1024 14 14 (200704)
I0412 08:21:19.621650 20927 net.cpp:165] Memory required for data: 269649032
I0412 08:21:19.621668 20927 layer_factory.hpp:77] Creating layer conv_new_1_conv_new_1_relu_0_split
I0412 08:21:19.621677 20927 net.cpp:100] Creating Layer conv_new_1_conv_new_1_relu_0_split
I0412 08:21:19.621681 20927 net.cpp:444] conv_new_1_conv_new_1_relu_0_split <- conv_new_1
I0412 08:21:19.621692 20927 net.cpp:418] conv_new_1_conv_new_1_relu_0_split -> conv_new_1_conv_new_1_relu_0_split_0
I0412 08:21:19.621706 20927 net.cpp:418] conv_new_1_conv_new_1_relu_0_split -> conv_new_1_conv_new_1_relu_0_split_1
I0412 08:21:19.621767 20927 net.cpp:150] Setting up conv_new_1_conv_new_1_relu_0_split
I0412 08:21:19.621790 20927 net.cpp:157] Top shape: 1 1024 14 14 (200704)
I0412 08:21:19.621794 20927 net.cpp:157] Top shape: 1 1024 14 14 (200704)
I0412 08:21:19.621796 20927 net.cpp:165] Memory required for data: 271254664
I0412 08:21:19.621799 20927 layer_factory.hpp:77] Creating layer rfcn_cls
I0412 08:21:19.621819 20927 net.cpp:100] Creating Layer rfcn_cls
I0412 08:21:19.621824 20927 net.cpp:444] rfcn_cls <- conv_new_1_conv_new_1_relu_0_split_0
I0412 08:21:19.621840 20927 net.cpp:418] rfcn_cls -> rfcn_cls
I0412 08:21:19.632632 20927 cudnn_conv_layer.cpp:194] Reallocating workspace storage: 10080
I0412 08:21:19.632665 20927 net.cpp:150] Setting up rfcn_cls
I0412 08:21:19.632673 20927 net.cpp:157] Top shape: 1 98 14 14 (19208)
I0412 08:21:19.632676 20927 net.cpp:165] Memory required for data: 271331496
I0412 08:21:19.632688 20927 layer_factory.hpp:77] Creating layer rfcn_bbox
I0412 08:21:19.632751 20927 net.cpp:100] Creating Layer rfcn_bbox
I0412 08:21:19.632758 20927 net.cpp:444] rfcn_bbox <- conv_new_1_conv_new_1_relu_0_split_1
I0412 08:21:19.632772 20927 net.cpp:418] rfcn_bbox -> rfcn_bbox
I0412 08:21:19.674486 20927 cudnn_conv_layer.cpp:194] Reallocating workspace storage: 10080
I0412 08:21:19.674510 20927 net.cpp:150] Setting up rfcn_bbox
I0412 08:21:19.674518 20927 net.cpp:157] Top shape: 1 392 14 14 (76832)
I0412 08:21:19.674520 20927 net.cpp:165] Memory required for data: 271638824
I0412 08:21:19.674535 20927 layer_factory.hpp:77] Creating layer psroipooled_cls_rois
I0412 08:21:19.674552 20927 net.cpp:100] Creating Layer psroipooled_cls_rois
I0412 08:21:19.674558 20927 net.cpp:444] psroipooled_cls_rois <- rfcn_cls
I0412 08:21:19.674567 20927 net.cpp:444] psroipooled_cls_rois <- rois_proposal_0_split_0
I0412 08:21:19.674577 20927 net.cpp:418] psroipooled_cls_rois -> psroipooled_cls_rois
I0412 08:21:19.674592 20927 psroi_pooling_layer.cpp:26] Spatial scale: 0.0625
I0412 08:21:19.674638 20927 net.cpp:150] Setting up psroipooled_cls_rois
I0412 08:21:19.674644 20927 net.cpp:157] Top shape: 1 2 7 7 (98)
I0412 08:21:19.674649 20927 net.cpp:165] Memory required for data: 271639216
I0412 08:21:19.674651 20927 layer_factory.hpp:77] Creating layer ave_cls_score_rois
I0412 08:21:19.674664 20927 net.cpp:100] Creating Layer ave_cls_score_rois
I0412 08:21:19.674669 20927 net.cpp:444] ave_cls_score_rois <- psroipooled_cls_rois
I0412 08:21:19.674679 20927 net.cpp:418] ave_cls_score_rois -> cls_score
I0412 08:21:19.675065 20927 net.cpp:150] Setting up ave_cls_score_rois
I0412 08:21:19.675076 20927 net.cpp:157] Top shape: 1 2 1 1 (2)
I0412 08:21:19.675078 20927 net.cpp:165] Memory required for data: 271639224
I0412 08:21:19.675082 20927 layer_factory.hpp:77] Creating layer psroipooled_loc_rois
I0412 08:21:19.675092 20927 net.cpp:100] Creating Layer psroipooled_loc_rois
I0412 08:21:19.675097 20927 net.cpp:444] psroipooled_loc_rois <- rfcn_bbox
I0412 08:21:19.675107 20927 net.cpp:444] psroipooled_loc_rois <- rois_proposal_0_split_1
I0412 08:21:19.675117 20927 net.cpp:418] psroipooled_loc_rois -> psroipooled_loc_rois
I0412 08:21:19.675129 20927 psroi_pooling_layer.cpp:26] Spatial scale: 0.0625
I0412 08:21:19.675168 20927 net.cpp:150] Setting up psroipooled_loc_rois
I0412 08:21:19.675176 20927 net.cpp:157] Top shape: 1 8 7 7 (392)
I0412 08:21:19.675179 20927 net.cpp:165] Memory required for data: 271640792
I0412 08:21:19.675182 20927 layer_factory.hpp:77] Creating layer ave_bbox_pred_rois
I0412 08:21:19.675192 20927 net.cpp:100] Creating Layer ave_bbox_pred_rois
I0412 08:21:19.675197 20927 net.cpp:444] ave_bbox_pred_rois <- psroipooled_loc_rois
I0412 08:21:19.675209 20927 net.cpp:418] ave_bbox_pred_rois -> bbox_pred_pre
I0412 08:21:19.675361 20927 net.cpp:150] Setting up ave_bbox_pred_rois
I0412 08:21:19.675370 20927 net.cpp:157] Top shape: 1 8 1 1 (8)
I0412 08:21:19.675374 20927 net.cpp:165] Memory required for data: 271640824
I0412 08:21:19.675377 20927 layer_factory.hpp:77] Creating layer cls_prob
I0412 08:21:19.675386 20927 net.cpp:100] Creating Layer cls_prob
I0412 08:21:19.675391 20927 net.cpp:444] cls_prob <- cls_score
I0412 08:21:19.675402 20927 net.cpp:418] cls_prob -> cls_prob_pre
I0412 08:21:19.675590 20927 net.cpp:150] Setting up cls_prob
I0412 08:21:19.675598 20927 net.cpp:157] Top shape: 1 2 1 1 (2)
I0412 08:21:19.675601 20927 net.cpp:165] Memory required for data: 271640832
I0412 08:21:19.675606 20927 layer_factory.hpp:77] Creating layer cls_prob_reshape
I0412 08:21:19.675616 20927 net.cpp:100] Creating Layer cls_prob_reshape
I0412 08:21:19.675621 20927 net.cpp:444] cls_prob_reshape <- cls_prob_pre
I0412 08:21:19.675633 20927 net.cpp:418] cls_prob_reshape -> cls_prob
I0412 08:21:19.675669 20927 net.cpp:150] Setting up cls_prob_reshape
I0412 08:21:19.675678 20927 net.cpp:157] Top shape: 1 2 (2)
I0412 08:21:19.675679 20927 net.cpp:165] Memory required for data: 271640840
I0412 08:21:19.675683 20927 layer_factory.hpp:77] Creating layer bbox_pred_reshape
I0412 08:21:19.675691 20927 net.cpp:100] Creating Layer bbox_pred_reshape
I0412 08:21:19.675696 20927 net.cpp:444] bbox_pred_reshape <- bbox_pred_pre
I0412 08:21:19.675705 20927 net.cpp:418] bbox_pred_reshape -> bbox_pred
I0412 08:21:19.675736 20927 net.cpp:150] Setting up bbox_pred_reshape
I0412 08:21:19.675745 20927 net.cpp:157] Top shape: 1 8 (8)
I0412 08:21:19.675748 20927 net.cpp:165] Memory required for data: 271640872
I0412 08:21:19.675752 20927 net.cpp:228] bbox_pred_reshape does not need backward computation.
I0412 08:21:19.675755 20927 net.cpp:228] cls_prob_reshape does not need backward computation.
I0412 08:21:19.675758 20927 net.cpp:228] cls_prob does not need backward computation.
I0412 08:21:19.675761 20927 net.cpp:228] ave_bbox_pred_rois does not need backward computation.
…
