…
stepsize: 20000
snapshot: 0
snapshot_prefix: "resnet50_rfcn_ohem"
iter_size: 2
I0205 10:18:02.673105 12479 solver.cpp:81] Creating training net from train_net file: models/pascal_voc/ResNet-50/rfcn_end2end/train_agnostic_ohem.prototxt
I0205 10:18:02.675235 12479 net.cpp:58] Initializing net from parameters: 
name: "ResNet-50"
state {
  phase: TRAIN
}
layer {
  name: "input-data"
  type: "Python"
  top: "data"
  top: "im_info"
  top: "gt_boxes"
  python_param {
    module: "roi_data_layer.layer"
    layer: "RoIDataLayer"
    param_str: "\'num_classes\': 2"
  }
}
layer {
  name: "conv1"
  type: "Convolution"
  bottom: "data"
  top: "conv1"
  param {
    lr_mult: 0
  }
  param {
    lr_mult: 0
  }
  convolution_param {
    num_output: 64
    pad: 3
    kernel_size: 7
    stride: 2
  }
}
layer {
  name: "bn_conv1"
  type: "BatchNorm"
  bottom: "conv1"
  top: "conv1"
  param {
    lr_mult: 0
    decay_mult: 0
  }
  param {
    lr_mult: 0
    decay_mult: 0
  }
  param {
    lr_mult: 0
    decay_mult: 0
  }
  batch_norm_param {
    use_global_stats: true
  }
}
layer {
  name: "scale_conv1"
  type: "Scale"
  bottom: "conv1"
  top: "conv1"
  param {
    lr_mult: 0
    decay_mult: 0
  }
  param {
    lr_mult: 0
    decay_mult: 0
  }
  scale_param {
    bias_term: true
  }
}
layer {
  name: "conv1_relu"
  type: "ReLU"
  bottom: "conv1"
  top: "conv1"
}
layer {
  name: "pool1"
  type: "Pooling"
  bottom: "conv1"
  top: "pool1"
  pooling_param {
    pool: MAX
    kernel_size: 3
    stride: 2
  }
}
layer {
  name: "res2a_branch1"
  type: "Convolution"
  bottom: "pool1"
  top: "res2a_branch1"
  param {
    lr_mult: 0
  }
  convolution_param {
    num_output: 256
    bias_term: false
    pad: 0
    kernel_size: 1
    stride: 1
  }
}
layer {
  name: "bn2a_branch1"
  type: "BatchNorm"
  bottom: "res2a_branch1"
  top: "res2a_branch1"
  param {
    lr_mult: 0
    decay_mult: 0
  }
  param {
    lr_mult: 0
    decay_mult: 0
  }
  param {
    lr_mult: 0
    decay_mult: 0
  }
  batch_norm_param {
    use_global_stats: true
  }
}
layer {
  name: "scale2a_branch1"
  type: "Scale"
  bottom: "res2a_branch1"
  top: "res2a_branch1"
  param {
    lr_mult: 0
    decay_mult: 0
  }
  param {
    lr_mult: 0
    decay_mult: 0
  }
  scale_param {
    bias_term: true
  }
}
layer {
  name: "res2a_branch2a"
  type: "Convolution"
  bottom: "pool1"
  top: "res2a_branch2a"
  param {
    lr_mult: 0
  }
  convolution_param {
    num_output: 64
    bias_term: false
    pad: 0
    kernel_size: 1
    stride: 1
  }
}
layer {
  name: "bn2a_branch2a"
  type: "BatchNorm"
  bottom: "res2a_branch2a"
  top: "res2a_branch2a"
  param {
    lr_mult: 0
    decay_mult: 0
  }
  param {
    lr_mult: 0
    decay_mult: 0
  }
  param {
    lr_mult: 0
    decay_mult: 0
  }
  batch_norm_param {
    use_global_stats: true
  }
}
layer {
  name: "scale2a_branch2a"
  type: "Scale"
  bottom: "res2a_branch2a"
  top: "res2a_branch2a"
  param {
    lr_mult: 0
    decay_mult: 0
  }
  param {
    lr_mult: 0
    decay_mult: 0
  }
  scale_param {
    bias_term: true
  }
}
layer {
  name: "res2a_branch2a_relu"
  type: "ReLU"
  bottom: "res2a_branch2a"
  top: "res2a_branch2a"
}
layer {
  name: "res2a_branch2b"
  type: "Convolution"
  bottom: "res2a_branch2a"
  top: "res2a_branch2b"
  param {
    lr_mult: 0
  }
  convolution_param {
    num_output: 64
    bias_term: false
    pad: 1
    kernel_size: 3
    stride: 1
  }
}
layer {
  name: "bn2a_branch2b"
  type: "BatchNorm"
  bottom: "res2a_branch2b"
  top: "res2a_branch2b"
  param {
    lr_mult: 0
    decay_mult: 0
  }
  param {
    lr_mult: 0
    decay_mult: 0
  }
  param {
    lr_mult: 0
    decay_mult: 0
  }
  batch_norm_param {
    use_global_stats: true
  }
}
layer {
  name: "scale2a_branch2b"
  type: "Scale"
  bottom: "res2a_branch2b"
  top: "res2a_branch2b"
  param {
    lr_mult: 0
    decay_mult: 0
  }
  param {
    lr_mult: 0
    decay_mult: 0
  }
  scale_param {
    bias_term: true
  }
}
layer {
  name: "res2a_branch2b_relu"
  type: "ReLU"
  bottom: "res2a_branch2b"
  top: "res2a_branch2b"
}
layer {
  name: "res2a_branch2c"
  type: "Convolution"
  bottom: "res2a_branch2b"
  top: "res2a_branch2c"
  param {
    lr_mult: 0
  }
  convolution_param {
    num_output: 256
    bias_term: false
    pad: 0
    kernel_size: 1
    stride: 1
  }
}
layer {
  name: "bn2a_branch2c"
  type: "BatchNorm"
  bottom: "res2a_branch2c"
  top: "res2a_branch2c"
  param {
    lr_mult: 0
    decay_mult: 0
  }
  param {
    lr_mult: 0
    decay_mult: 0
  }
  param {
    lr_mult: 0
    decay_mult: 0
  }
  batch_norm_param {
    use_global_stats: true
  }
}
layer {
  name: "scale2a_branch2c"
  type: "Scale"
  bottom: "res2a_branch2c"
  top: "res2a_branch2c"
  param {
    lr_mult: 0
    decay_mult: 0
  }
  param {
    lr_mult: 0
    decay_mult: 0
  }
  scale_param {
    bias_term: true
  }
}
layer {
  name: "res2a"
  type: "Eltwise"
  bottom: "res2a_branch1"
  bottom: "res2a_branch2c"
  top: "res2a"
}
layer {
  name: "res2a_relu"
  type: "ReLU"
  bottom: "res2a"
  top: "res2a"
}
layer {
  name: "res2b_branch2a"
  type: "Convolution"
  bottom: "res2a"
  top: "res2b_branch2a"
  param {
    lr_mult: 0
  }
  convolution_param {
    num_output: 64
    bias_term: false
    pad: 0
    kernel_size: 1
    stride: 1
  }
}
layer {
  name: "bn2b_branch2a"
  type: "BatchNorm"
  bottom: "res2b_branch2a"
  top: "res2b_branch2a"
  param {
    lr_mult: 0
    decay_mult: 0
  }
  param {
    lr_mult: 0
    decay_mult: 0
  }
  param {
    lr_mult: 0
    decay_mult: 0
  }
  batch_norm_param {
    use_global_stats: true
  }
}
layer {
  name: "scale2b_branch2a"
  type: "Scale"
  bottom: "res2b_branch2a"
  top: "res2b_branch2a"
  param {
    lr_mult: 0
    decay_mult: 0
  }
  param {
    lr_mult: 0
    decay_mult: 0
  }
  scale_param {
    bias_term: true
  }
}
layer {
  name: "res2b_branch2a_relu"
  type: "ReLU"
  bottom: "res2b_branch2a"
  top: "res2b_branch2a"
}
layer {
  name: "res2b_branch2b"
  type: "Convolution"
  bottom: "res2b_branch2a"
  top: "res2b_branch2b"
  param {
    lr_mult: 0
  }
  convolution_param {
    num_output: 64
    bias_term: false
    pad: 1
    kernel_size: 3
    stride: 1
  }
}
layer {
  name: "bn2b_branch2b"
  type: "BatchNorm"
  bottom: "res2b_branch2b"
  top: "res2b_branch2b"
  param {
    lr_mult: 0
    decay_mult: 0
  }
  param {
    lr_mult: 0
    decay_mult: 0
  }
  param {
    lr_mult: 0
    decay_mult: 0
  }
  batch_norm_param {
    use_global_stats: true
  }
}
layer {
  name: "scale2b_branch2b"
  type: "Scale"
  bottom: "res2b_branch2b"
  top: "res2b_branch2b"
  param {
    lr_mult: 0
    decay_mult: 0
  }
  param {
    lr_mult: 0
    decay_mult: 0
  }
  scale_param {
    bias_term: true
  }
}
layer {
  name: "res2b_branch2b_relu"
  type: "ReLU"
  bottom: "res2b_branch2b"
  top: "res2b_branch2b"
}
layer {
  name: "res2b_branch2c"
  type: "Convolution"
  bottom: "res2b_branch2b"
  top: "res2b_branch2c"
  param {
    lr_mult: 0
  }
  convolution_param {
    num_output: 256
    bias_term: false
    pad: 0
    kernel_size: 1
    stride: 1
  }
}
layer {
  name: "bn2b_branch2c"
  type: "BatchNorm"
  bottom: "res2b_branch2c"
  top: "res2b_branch2c"
  param {
    lr_mult: 0
    decay_mult: 0
  }
  param {
    lr_mult: 0
    decay_mult: 0
  }
  param {
    lr_mult: 0
    decay_mult: 0
  }
  batch_norm_param {
    use_global_stats: true
  }
}
layer {
  name: "scale2b_branch2c"
  type: "Scale"
  bottom: "res2b_branch2c"
  top: "res2b_branch2c"
  param {
    lr_mult: 0
    decay_mult: 0
  }
  param {
    lr_mult: 0
    decay_mult: 0
  }
  scale_param {
    bias_term: true
  }
}
layer {
  name: "res2b"
  type: "Eltwise"
  bottom: "res2a"
  bottom: "res2b_branch2c"
  top: "res2b"
}
layer {
  name: "res2b_relu"
  type: "ReLU"
  bottom: "res2b"
  top: "res2b"
}
layer {
  name: "res2c_branch2a"
  type: "Convolution"
  bottom: "res2b"
  top: "res2c_branch2a"
  param {
    lr_mult: 0
  }
  convolution_param {
    num_output: 64
    bias_term: false
    pad: 0
    kernel_size: 1
    stride: 1
  }
}
layer {
  name: "bn2c_branch2a"
  type: "BatchNorm"
  bottom: "res2c_branch2a"
  top: "res2c_branch2a"
  param {
    lr_mult: 0
    decay_mult: 0
  }
  param {
    lr_mult: 0
    decay_mult: 0
  }
  param {
    lr_mult: 0
    decay_mult: 0
  }
  batch_norm_param {
    use_global_stats: true
  }
}
layer {
  name: "scale2c_branch2a"
  type: "Scale"
  bottom: "res2c_branch2a"
  top: "res2c_branch2a"
  param {
    lr_mult: 0
    decay_mult: 0
  }
  param {
    lr_mult: 0
    decay_mult: 0
  }
  scale_param {
    bias_term: true
  }
}
layer {
  name: "res2c_branch2a_relu"
  type: "ReLU"
  bottom: "res2c_branch2a"
  top: "res2c_branch2a"
}
layer {
  name: "res2c_branch2b"
  type: "Convolution"
  bottom: "res2c_branch2a"
  top: "res2c_branch2b"
  param {
    lr_mult: 0
  }
  convolution_param {
    num_output: 64
    bias_term: false
    pad: 1
    kernel_size: 3
    stride: 1
  }
}
layer {
  name: "bn2c_branch2b"
  type: "BatchNorm"
  bottom: "res2c_branch2b"
  top: "res2c_branch2b"
  param {
    lr_mult: 0
    decay_mult: 0
  }
  param {
    lr_mult: 0
    decay_mult: 0
  }
  param {
    lr_mult: 0
    decay_mult: 0
  }
  batch_norm_param {
    use_global_stats: true
  }
}
layer {
  name: "scale2c_branch2b"
  type: "Scale"
  bottom: "res2c_branch2b"
  top: "res2c_branch2b"
  param {
    lr_mult: 0
    decay_mult: 0
  }
  param {
    lr_mult: 0
    decay_mult: 0
  }
  scale_param {
    bias_term: true
  }
}
layer {
  name: "res2c_branch2b_relu"
  type: "ReLU"
  bottom: "res2c_branch2b"
  top: "res2c_branch2b"
}
layer {
  name: "res2c_branch2c"
  type: "Convolution"
  bottom: "res2c_branch2b"
  top: "res2c_branch2c"
  param {
    lr_mult: 0
  }
  convolution_param {
    num_output: 256
    bias_term: false
    pad: 0
    kernel_size: 1
    stride: 1
  }
}
layer {
  name: "bn2c_branch2c"
  type: "BatchNorm"
  bottom: "res2c_branch2c"
  top: "res2c_branch2c"
  param {
    lr_mult: 0
    decay_mult: 0
  }
  param {
    lr_mult: 0
    decay_mult: 0
  }
  param {
    lr_mult: 0
    decay_mult: 0
  }
  batch_norm_param {
    use_global_stats: true
  }
}
layer {
  name: "scale2c_branch2c"
  type: "Scale"
  bottom: "res2c_branch2c"
  top: "res2c_branch2c"
  param {
    lr_mult: 0
    decay_mult: 0
  }
  param {
    lr_mult: 0
    decay_mult: 0
  }
  scale_param {
    bias_term: true
  }
}
layer {
  name: "res2c"
  type: "Eltwise"
  bottom: "res2b"
  bottom: "res2c_branch2c"
  top: "res2c"
}
layer {
  name: "res2c_relu"
  type: "ReLU"
  bottom: "res2c"
  top: "res2c"
}
layer {
  name: "res3a_branch1"
  type: "Convolution"
  bottom: "res2c"
  top: "res3a_branch1"
  param {
    lr_mult: 1
  }
  convolution_param {
    num_output: 512
    bias_term: false
    pad: 0
    kernel_size: 1
    stride: 2
  }
}
layer {
  name: "bn3a_branch1"
  type: "BatchNorm"
  bottom: "res3a_branch1"
  top: "res3a_branch1"
  param {
    lr_mult: 0
    decay_mult: 0
  }
  param {
    lr_mult: 0
    decay_mult: 0
  }
  param {
    lr_mult: 0
    decay_mult: 0
  }
  batch_norm_param {
    use_global_stats: true
  }
}
layer {
  name: "scale3a_branch1"
  type: "Scale"
  bottom: "res3a_branch1"
  top: "res3a_branch1"
  param {
    lr_mult: 0
    decay_mult: 0
  }
  param {
    lr_mult: 0
    decay_mult: 0
  }
  scale_param {
    bias_term: true
  }
}
layer {
  name: "res3a_branch2a"
  type: "Convolution"
  bottom: "res2c"
  top: "res3a_branch2a"
  param {
    lr_mult: 1
  }
  convolution_param {
    num_output: 128
    bias_term: false
    pad: 0
    kernel_size: 1
    stride: 2
  }
}
layer {
  name: "bn3a_branch2a"
  type: "BatchNorm"
  bottom: "res3a_branch2a"
  top: "res3a_branch2a"
  param {
    lr_mult: 0
    decay_mult: 0
  }
  param {
    lr_mult: 0
    decay_mult: 0
  }
  param {
    lr_mult: 0
    decay_mult: 0
  }
  batch_norm_param {
    use_global_stats: true
  }
}
layer {
  name: "scale3a_branch2a"
  type: "Scale"
  bottom: "res3a_branch2a"
  top: "res3a_branch2a"
  param {
    lr_mult: 0
    decay_mult: 0
  }
  param {
    lr_mult: 0
    decay_mult: 0
  }
  scale_param {
    bias_term: true
  }
}
layer {
  name: "res3a_branch2a_relu"
  type: "ReLU"
  bottom: "res3a_branch2a"
  top: "res3a_branch2a"
}
layer {
  name: "res3a_branch2b"
  type: "Convolution"
  bottom: "res3a_branch2a"
  top: "res3a_branch2b"
  param {
    lr_mult: 1
  }
  convolution_param {
    num_output: 128
    bias_term: false
    pad: 1
    kernel_size: 3
    stride: 1
  }
}
layer {
  name: "bn3a_branch2b"
  type: "BatchNorm"
  bottom: "res3a_branch2b"
  top: "res3a_branch2b"
  param {
    lr_mult: 0
    decay_mult: 0
  }
  param {
    lr_mult: 0
    decay_mult: 0
  }
  param {
    lr_mult: 0
    decay_mult: 0
  }
  batch_norm_param {
    use_global_stats: true
  }
}
layer {
  name: "scale3a_branch2b"
  type: "Scale"
  bottom: "res3a_branch2b"
  top: "res3a_branch2b"
  param {
    lr_mult: 0
    decay_mult: 0
  }
  param {
    lr_mult: 0
    decay_mult: 0
  }
  scale_param {
    bias_term: true
  }
}
layer {
  name: "res3a_branch2b_relu"
  type: "ReLU"
  bottom: "res3a_branch2b"
  top: "res3a_branch2b"
}
layer {
  name: "res3a_branch2c"
  type: "Convolution"
  bottom: "res3a_branch2b"
  top: "res3a_branch2c"
  param {
    lr_mult: 1
  }
  convolution_param {
    num_output: 512
    bias_term: false
    pad: 0
    kernel_size: 1
    stride: 1
  }
}
layer {
  name: "bn3a_branch2c"
  type: "BatchNorm"
  bottom: "res3a_branch2c"
  top: "res3a_branch2c"
  param {
    lr_mult: 0
    decay_mult: 0
  }
  param {
    lr_mult: 0
    decay_mult: 0
  }
  param {
    lr_mult: 0
    decay_mult: 0
  }
  batch_norm_param {
    use_global_stats: true
  }
}
layer {
  name: "scale3a_branch2c"
  type: "Scale"
  bottom: "res3a_branch2c"
  top: "res3a_branch2c"
  param {
    lr_mult: 0
    decay_mult: 0
  }
  param {
    lr_mult: 0
    decay_mult: 0
  }
  scale_param {
    bias_term: true
  }
}
layer {
  name: "res3a"
  type: "Eltwise"
  bottom: "res3a_branch1"
  bottom: "res3a_branch2c"
  top: "res3a"
}
layer {
  name: "res3a_relu"
  type: "ReLU"
  bottom: "res3a"
  top: "res3a"
}
layer {
  name: "res3b_branch2a"
  type: "Convolution"
  bottom: "res3a"
  top: "res3b_branch2a"
  param {
    lr_mult: 1
  }
  convolution_param {
    num_output: 128
    bias_term: false
    pad: 0
    kernel_size: 1
    stride: 1
  }
}
layer {
  name: "bn3b_branch2a"
  type: "BatchNorm"
  bottom: "res3b_branch2a"
  top: "res3b_branch2a"
  param {
    lr_mult: 0
    decay_mult: 0
  }
  param {
    lr_mult: 0
    decay_mult: 0
  }
  param {
    lr_mult: 0
    decay_mult: 0
  }
  batch_norm_param {
    use_global_stats: true
  }
}
layer {
  name: "scale3b_branch2a"
  type: "Scale"
  bottom: "res3b_branch2a"
  top: "res3b_branch2a"
  param {
    lr_mult: 0
    decay_mult: 0
  }
  param {
    lr_mult: 0
    decay_mult: 0
  }
  scale_param {
    bias_term: true
  }
}
layer {
  name: "res3b_branch2a_relu"
  type: "ReLU"
  bottom: "res3b_branch2a"
  top: "res3b_branch2a"
}
layer {
  name: "res3b_branch2b"
  type: "Convolution"
  bottom: "res3b_branch2a"
  top: "res3b_branch2b"
  param {
    lr_mult: 1
  }
  convolution_param {
    num_output: 128
    bias_term: false
    pad: 1
    kernel_size: 3
    stride: 1
  }
}
layer {
  name: "bn3b_branch2b"
  type: "BatchNorm"
  bottom: "res3b_branch2b"
  top: "res3b_branch2b"
  param {
    lr_mult: 0
    decay_mult: 0
  }
  param {
    lr_mult: 0
    decay_mult: 0
  }
  param {
    lr_mult: 0
    decay_mult: 0
  }
  batch_norm_param {
    use_global_stats: true
  }
}
layer {
  name: "scale3b_branch2b"
  type: "Scale"
  bottom: "res3b_branch2b"
  top: "res3b_branch2b"
  param {
    lr_mult: 0
    decay_mult: 0
  }
  param {
    lr_mult: 0
    decay_mult: 0
  }
  scale_param {
    bias_term: true
  }
}
layer {
  name: "res3b_branch2b_relu"
  type: "ReLU"
  bottom: "res3b_branch2b"
  top: "res3b_branch2b"
}
layer {
  name: "res3b_branch2c"
  type: "Convolution"
  bottom: "res3b_branch2b"
  top: "res3b_branch2c"
  param {
    lr_mult: 1
  }
  convolution_param {
    num_output: 512
    bias_term: false
    pad: 0
    kernel_size: 1
    stride: 1
  }
}
layer {
  name: "bn3b_branch2c"
  type: "BatchNorm"
  bottom: "res3b_branch2c"
  top: "res3b_branch2c"
  param {
    lr_mult: 0
    decay_mult: 0
  }
  param {
    lr_mult: 0
    decay_mult: 0
  }
  param {
    lr_mult: 0
    decay_mult: 0
  }
  batch_norm_param {
    use_global_stats: true
  }
}
layer {
  name: "scale3b_branch2c"
  type: "Scale"
  bottom: "res3b_branch2c"
  top: "res3b_branch2c"
  param {
    lr_mult: 0
    decay_mult: 0
  }
  param {
    lr_mult: 0
    decay_mult: 0
  }
  scale_param {
    bias_term: true
  }
}
layer {
  name: "res3b"
  type: "Eltwise"
  bottom: "res3a"
  bottom: "res3b_branch2c"
  top: "res3b"
}
layer {
  name: "res3b_relu"
  type: "ReLU"
  bottom: "res3b"
  top: "res3b"
}
layer {
  name: "res3c_branch2a"
  type: "Convolution"
  bottom: "res3b"
  top: "res3c_branch2a"
  param {
    lr_mult: 1
  }
  convolution_param {
    num_output: 128
    bias_term: false
    pad: 0
    kernel_size: 1
    stride: 1
  }
}
layer {
  name: "bn3c_branch2a"
  type: "BatchNorm"
  bottom: "res3c_branch2a"
  top: "res3c_branch2a"
  param {
    lr_mult: 0
    decay_mult: 0
  }
  param {
    lr_mult: 0
    decay_mult: 0
  }
  param {
    lr_mult: 0
    decay_mult: 0
  }
  batch_norm_param {
    use_global_stats: true
  }
}
layer {
  name: "scale3c_branch2a"
  type: "Scale"
  bottom: "res3c_branch2a"
  top: "res3c_branch2a"
  param {
    lr_mult: 0
    decay_mult: 0
  }
  param {
    lr_mult: 0
    decay_mult: 0
  }
  scale_param {
    bias_term: true
  }
}
layer {
  name: "res3c_branch2a_relu"
  type: "ReLU"
  bottom: "res3c_branch2a"
  top: "res3c_branch2a"
}
layer {
  name: "res3c_branch2b"
  type: "Convolution"
  bottom: "res3c_branch2a"
  top: "res3c_branch2b"
  param {
    lr_mult: 1
  }
  convolution_param {
    num_output: 128
    bias_term: false
    pad: 1
    kernel_size: 3
    stride: 1
  }
}
layer {
  name: "bn3c_branch2b"
  type: "BatchNorm"
  bottom: "res3c_branch2b"
  top: "res3c_branch2b"
  param {
    lr_mult: 0
    decay_mult: 0
  }
  param {
    lr_mult: 0
    decay_mult: 0
  }
  param {
    lr_mult: 0
    decay_mult: 0
  }
  batch_norm_param {
    use_global_stats: true
  }
}
layer {
  name: "scale3c_branch2b"
  type: "Scale"
  bottom: "res3c_branch2b"
  top: "res3c_branch2b"
  param {
    lr_mult: 0
    decay_mult: 0
  }
  param {
    lr_mult: 0
    decay_mult: 0
  }
  scale_param {
    bias_term: true
  }
}
layer {
  name: "res3c_branch2b_relu"
  type: "ReLU"
  bottom: "res3c_branch2b"
  top: "res3c_branch2b"
}
layer {
  name: "res3c_branch2c"
  type: "Convolution"
  bottom: "res3c_branch2b"
  top: "res3c_branch2c"
  param {
    lr_mult: 1
  }
  convolution_param {
    num_output: 512
    bias_term: false
    pad: 0
    kernel_size: 1
    stride: 1
  }
}
layer {
  name: "bn3c_branch2c"
  type: "BatchNorm"
  bottom: "res3c_branch2c"
  top: "res3c_branch2c"
  param {
    lr_mult: 0
    decay_mult: 0
  }
  param {
    lr_mult: 0
    decay_mult: 0
  }
  param {
    lr_mult: 0
    decay_mult: 0
  }
  batch_norm_param {
    use_global_stats: true
  }
}
layer {
  name: "scale3c_branch2c"
  type: "Scale"
  bottom: "res3c_branch2c"
  top: "res3c_branch2c"
  param {
    lr_mult: 0
    decay_mult: 0
  }
  param {
    lr_mult: 0
    decay_mult: 0
  }
  scale_param {
    bias_term: true
  }
}
layer {
  name: "res3c"
  type: "Eltwise"
  bottom: "res3b"
  bottom: "res3c_branch2c"
  top: "res3c"
}
layer {
  name: "res3c_relu"
  type: "ReLU"
  bottom: "res3c"
  top: "res3c"
}
layer {
  name: "res3d_branch2a"
  type: "Convolution"
  bottom: "res3c"
  top: "res3d_branch2a"
  param {
    lr_mult: 1
  }
  convolution_param {
    num_output: 128
    bias_term: false
    pad: 0
    kernel_size: 1
    stride: 1
  }
}
layer {
  name: "bn3d_branch2a"
  type: "BatchNorm"
  bottom: "res3d_branch2a"
  top: "res3d_branch2a"
  param {
    lr_mult: 0
    decay_mult: 0
  }
  param {
    lr_mult: 0
    decay_mult: 0
  }
  param {
    lr_mult: 0
    decay_mult: 0
  }
  batch_norm_param {
    use_global_stats: true
  }
}
layer {
  name: "scale3d_branch2a"
  type: "Scale"
  bottom: "res3d_branch2a"
  top: "res3d_branch2a"
  param {
    lr_mult: 0
    decay_mult: 0
  }
  param {
    lr_mult: 0
    decay_mult: 0
  }
  scale_param {
    bias_term: true
  }
}
layer {
  name: "res3d_branch2a_relu"
  type: "ReLU"
  bottom: "res3d_branch2a"
  top: "res3d_branch2a"
}
layer {
  name: "res3d_branch2b"
  type: "Convolution"
  bottom: "res3d_branch2a"
  top: "res3d_branch2b"
  param {
    lr_mult: 1
  }
  convolution_param {
    num_output: 128
    bias_term: false
    pad: 1
    kernel_size: 3
    stride: 1
  }
}
layer {
  name: "bn3d_branch2b"
  type: "BatchNorm"
  bottom: "res3d_branch2b"
  top: "res3d_branch2b"
  param {
    lr_mult: 0
    decay_mult: 0
  }
  param {
    lr_mult: 0
    decay_mult: 0
  }
  param {
    lr_mult: 0
    decay_mult: 0
  }
  batch_norm_param {
    use_global_stats: true
  }
}
layer {
  name: "scale3d_branch2b"
  type: "Scale"
  bottom: "res3d_branch2b"
  top: "res3d_branch2b"
  param {
    lr_mult: 0
    decay_mult: 0
  }
  param {
    lr_mult: 0
    decay_mult: 0
  }
  scale_param {
    bias_term: true
  }
}
layer {
  name: "res3d_branch2b_relu"
  type: "ReLU"
  bottom: "res3d_branch2b"
  top: "res3d_branch2b"
}
layer {
  name: "res3d_branch2c"
  type: "Convolution"
  bottom: "res3d_branch2b"
  top: "res3d_branch2c"
  param {
    lr_mult: 1
  }
  convolution_param {
    num_output: 512
    bias_term: false
    pad: 0
    kernel_size: 1
    stride: 1
  }
}
layer {
  name: "bn3d_branch2c"
  type: "BatchNorm"
  bottom: "res3d_branch2c"
  top: "res3d_branch2c"
  param {
    lr_mult: 0
    decay_mult: 0
  }
  param {
    lr_mult: 0
    decay_mult: 0
  }
  param {
    lr_mult: 0
    decay_mult: 0
  }
  batch_norm_param {
    use_global_stats: true
  }
}
layer {
  name: "scale3d_branch2c"
  type: "Scale"
  bottom: "res3d_branch2c"
  top: "res3d_branch2c"
  param {
    lr_mult: 0
    decay_mult: 0
  }
  param {
    lr_mult: 0
    decay_mult: 0
  }
  scale_param {
    bias_term: true
  }
}
layer {
  name: "res3d"
  type: "Eltwise"
  bottom: "res3c"
  bottom: "res3d_branch2c"
  top: "res3d"
}
layer {
  name: "res3d_relu"
  type: "ReLU"
  bottom: "res3d"
  top: "res3d"
}
layer {
  name: "res4a_branch1"
  type: "Convolution"
  bottom: "res3d"
  top: "res4a_branch1"
  param {
    lr_mult: 1
  }
  convolution_param {
    num_output: 1024
    bias_term: false
    pad: 0
    kernel_size: 1
    stride: 2
  }
}
layer {
  name: "bn4a_branch1"
  type: "BatchNorm"
  bottom: "res4a_branch1"
  top: "res4a_branch1"
  param {
    lr_mult: 0
    decay_mult: 0
  }
  param {
    lr_mult: 0
    decay_mult: 0
  }
  param {
    lr_mult: 0
    decay_mult: 0
  }
  batch_norm_param {
    use_global_stats: true
  }
}
layer {
  name: "scale4a_branch1"
  type: "Scale"
  bottom: "res4a_branch1"
  top: "res4a_branch1"
  param {
    lr_mult: 0
    decay_mult: 0
  }
  param {
    lr_mult: 0
    decay_mult: 0
  }
  scale_param {
    bias_term: true
  }
}
layer {
  name: "res4a_branch2a"
  type: "Convolution"
  bottom: "res3d"
  top: "res4a_branch2a"
  param {
    lr_mult: 1
  }
  convolution_param {
    num_output: 256
    bias_term: false
    pad: 0
    kernel_size: 1
    stride: 2
  }
}
layer {
  name: "bn4a_branch2a"
  type: "BatchNorm"
  bottom: "res4a_branch2a"
  top: "res4a_branch2a"
  param {
    lr_mult: 0
    decay_mult: 0
  }
  param {
    lr_mult: 0
    decay_mult: 0
  }
  param {
    lr_mult: 0
    decay_mult: 0
  }
  batch_norm_param {
    use_global_stats: true
  }
}
layer {
  name: "scale4a_branch2a"
  type: "Scale"
  bottom: "res4a_branch2a"
  top: "res4a_branch2a"
  param {
    lr_mult: 0
    decay_mult: 0
  }
  param {
    lr_mult: 0
    decay_mult: 0
  }
  scale_param {
    bias_term: true
  }
}
layer {
  name: "res4a_branch2a_relu"
  type: "ReLU"
  bottom: "res4a_branch2a"
  top: "res4a_branch2a"
}
layer {
  name: "res4a_branch2b"
  type: "Convolution"
  bottom: "res4a_branch2a"
  top: "res4a_branch2b"
  param {
    lr_mult: 1
  }
  convolution_param {
    num_output: 256
    bias_term: false
    pad: 1
    kernel_size: 3
    stride: 1
  }
}
layer {
  name: "bn4a_branch2b"
  type: "BatchNorm"
  bottom: "res4a_branch2b"
  top: "res4a_branch2b"
  param {
    lr_mult: 0
    decay_mult: 0
  }
  param {
    lr_mult: 0
    decay_mult: 0
  }
  param {
    lr_mult: 0
    decay_mult: 0
  }
  batch_norm_param {
    use_global_stats: true
  }
}
layer {
  name: "scale4a_branch2b"
  type: "Scale"
  bottom: "res4a_branch2b"
  top: "res4a_branch2b"
  param {
    lr_mult: 0
    decay_mult: 0
  }
  param {
    lr_mult: 0
    decay_mult: 0
  }
  scale_param {
    bias_term: true
  }
}
layer {
  name: "res4a_branch2b_relu"
  type: "ReLU"
  bottom: "res4a_branch2b"
  top: "res4a_branch2b"
}
layer {
  name: "res4a_branch2c"
  type: "Convolution"
  bottom: "res4a_branch2b"
  top: "res4a_branch2c"
  param {
    lr_mult: 1
  }
  convolution_param {
    num_output: 1024
    bias_term: false
    pad: 0
    kernel_size: 1
    stride: 1
  }
}
layer {
  name: "bn4a_branch2c"
  type: "BatchNorm"
  bottom: "res4a_branch2c"
  top: "res4a_branch2c"
  param {
    lr_mult: 0
    decay_mult: 0
  }
  param {
    lr_mult: 0
    decay_mult: 0
  }
  param {
    lr_mult: 0
    decay_mult: 0
  }
  batch_norm_param {
    use_global_stats: true
  }
}
layer {
  name: "scale4a_branch2c"
  type: "Scale"
  bottom: "res4a_branch2c"
  top: "res4a_branch2c"
  param {
    lr_mult: 0
    decay_mult: 0
  }
  param {
    lr_mult: 0
    decay_mult: 0
  }
  scale_param {
    bias_term: true
  }
}
layer {
  name: "res4a"
  type: "Eltwise"
  bottom: "res4a_branch1"
  bottom: "res4a_branch2c"
  top: "res4a"
}
layer {
  name: "res4a_relu"
  type: "ReLU"
  bottom: "res4a"
  top: "res4a"
}
layer {
  name: "res4b_branch2a"
  type: "Convolution"
  bottom: "res4a"
  top: "res4b_branch2a"
  param {
    lr_mult: 1
  }
  convolution_param {
    num_output: 256
    bias_term: false
    pad: 0
    kernel_size: 1
    stride: 1
  }
}
layer {
  name: "bn4b_branch2a"
  type: "BatchNorm"
  bottom: "res4b_branch2a"
  top: "res4b_branch2a"
  param {
    lr_mult: 0
    decay_mult: 0
  }
  param {
    lr_mult: 0
    decay_mult: 0
  }
  param {
    lr_mult: 0
    decay_mult: 0
  }
  batch_norm_param {
    use_global_stats: true
  }
}
layer {
  name: "scale4b_branch2a"
  type: "Scale"
  bottom: "res4b_branch2a"
  top: "res4b_branch2a"
  param {
    lr_mult: 0
    decay_mult: 0
  }
  param {
    lr_mult: 0
    decay_mult: 0
  }
  scale_param {
    bias_term: true
  }
}
layer {
  name: "res4b_branch2a_relu"
  type: "ReLU"
  bottom: "res4b_branch2a"
  top: "res4b_branch2a"
}
layer {
  name: "res4b_branch2b"
  type: "Convolution"
  bottom: "res4b_branch2a"
  top: "res4b_branch2b"
  param {
    lr_mult: 1
  }
  convolution_param {
    num_output: 256
    bias_term: false
    pad: 1
    kernel_size: 3
    stride: 1
  }
}
layer {
  name: "bn4b_branch2b"
  type: "BatchNorm"
  bottom: "res4b_branch2b"
  top: "res4b_branch2b"
  param {
    lr_mult: 0
    decay_mult: 0
  }
  param {
    lr_mult: 0
    decay_mult: 0
  }
  param {
    lr_mult: 0
    decay_mult: 0
  }
  batch_norm_param {
    use_global_stats: true
  }
}
layer {
  name: "scale4b_branch2b"
  type: "Scale"
  bottom: "res4b_branch2b"
  top: "res4b_branch2b"
  param {
    lr_mult: 0
    decay_mult: 0
  }
  param {
    lr_mult: 0
    decay_mult: 0
  }
  scale_param {
    bias_term: true
  }
}
layer {
  name: "res4b_branch2b_relu"
  type: "ReLU"
  bottom: "res4b_branch2b"
  top: "res4b_branch2b"
}
layer {
  name: "res4b_branch2c"
  type: "Convolution"
  bottom: "res4b_branch2b"
  top: "res4b_branch2c"
  param {
    lr_mult: 1
  }
  convolution_param {
    num_output: 1024
    bias_term: false
    pad: 0
    kernel_size: 1
    stride: 1
  }
}
layer {
  name: "bn4b_branch2c"
  type: "BatchNorm"
  bottom: "res4b_branch2c"
  top: "res4b_branch2c"
  param {
    lr_mult: 0
    decay_mult: 0
  }
  param {
    lr_mult: 0
    decay_mult: 0
  }
  param {
    lr_mult: 0
    decay_mult: 0
  }
  batch_norm_param {
    use_global_stats: true
  }
}
layer {
  name: "scale4b_branch2c"
  type: "Scale"
  bottom: "res4b_branch2c"
  top: "res4b_branch2c"
  param {
    lr_mult: 0
    decay_mult: 0
  }
  param {
    lr_mult: 0
    decay_mult: 0
  }
  scale_param {
    bias_term: true
  }
}
layer {
  name: "res4b"
  type: "Eltwise"
  bottom: "res4a"
  bottom: "res4b_branch2c"
  top: "res4b"
}
layer {
  name: "res4b_relu"
  type: "ReLU"
  bottom: "res4b"
  top: "res4b"
}
layer {
  name: "res4c_branch2a"
  type: "Convolution"
  bottom: "res4b"
  top: "res4c_branch2a"
  param {
    lr_mult: 1
  }
  convolution_param {
    num_output: 256
    bias_term: false
    pad: 0
    kernel_size: 1
    stride: 1
  }
}
layer {
  name: "bn4c_branch2a"
  type: "BatchNorm"
  bottom: "res4c_branch2a"
  top: "res4c_branch2a"
  param {
    lr_mult: 0
    decay_mult: 0
  }
  param {
    lr_mult: 0
    decay_mult: 0
  }
  param {
    lr_mult: 0
    decay_mult: 0
  }
  batch_norm_param {
    use_global_stats: true
  }
}
layer {
  name: "scale4c_branch2a"
  type: "Scale"
  bottom: "res4c_branch2a"
  top: "res4c_branch2a"
  param {
    lr_mult: 0
    decay_mult: 0
  }
  param {
    lr_mult: 0
    decay_mult: 0
  }
  scale_param {
    bias_term: true
  }
}
layer {
  name: "res4c_branch2a_relu"
  type: "ReLU"
  bottom: "res4c_branch2a"
  top: "res4c_branch2a"
}
layer {
  name: "res4c_branch2b"
  type: "Convolution"
  bottom: "res4c_branch2a"
  top: "res4c_branch2b"
  param {
    lr_mult: 1
  }
  convolution_param {
    num_output: 256
    bias_term: false
    pad: 1
    kernel_size: 3
    stride: 1
  }
}
layer {
  name: "bn4c_branch2b"
  type: "BatchNorm"
  bottom: "res4c_branch2b"
  top: "res4c_branch2b"
  param {
    lr_mult: 0
    decay_mult: 0
  }
  param {
    lr_mult: 0
    decay_mult: 0
  }
  param {
    lr_mult: 0
    decay_mult: 0
  }
  batch_norm_param {
    use_global_stats: true
  }
}
layer {
  name: "scale4c_branch2b"
  type: "Scale"
  bottom: "res4c_branch2b"
  top: "res4c_branch2b"
  param {
    lr_mult: 0
    decay_mult: 0
  }
  param {
    lr_mult: 0
    decay_mult: 0
  }
  scale_param {
    bias_term: true
  }
}
layer {
  name: "res4c_branch2b_relu"
  type: "ReLU"
  bottom: "res4c_branch2b"
  top: "res4c_
I0205 10:18:02.676954 12479 layer_factory.hpp:77] Creating layer input-data
I0205 10:18:02.690984 12479 net.cpp:100] Creating Layer input-data
I0205 10:18:02.691004 12479 net.cpp:418] input-data -> data
I0205 10:18:02.691038 12479 net.cpp:418] input-data -> im_info
I0205 10:18:02.691056 12479 net.cpp:418] input-data -> gt_boxes
RoiDataLayer: name_to_top: {'gt_boxes': 2, 'data': 0, 'im_info': 1}
I0205 10:18:02.709507 12479 net.cpp:150] Setting up input-data
I0205 10:18:02.709533 12479 net.cpp:157] Top shape: 1 3 600 1000 (1800000)
I0205 10:18:02.709538 12479 net.cpp:157] Top shape: 1 3 (3)
I0205 10:18:02.709542 12479 net.cpp:157] Top shape: 1 4 (4)
I0205 10:18:02.709543 12479 net.cpp:165] Memory required for data: 7200028
I0205 10:18:02.709558 12479 layer_factory.hpp:77] Creating layer data_input-data_0_split
I0205 10:18:02.709586 12479 net.cpp:100] Creating Layer data_input-data_0_split
I0205 10:18:02.709595 12479 net.cpp:444] data_input-data_0_split <- data
I0205 10:18:02.709612 12479 net.cpp:418] data_input-data_0_split -> data_input-data_0_split_0
I0205 10:18:02.709632 12479 net.cpp:418] data_input-data_0_split -> data_input-data_0_split_1
I0205 10:18:02.709666 12479 net.cpp:150] Setting up data_input-data_0_split
I0205 10:18:02.709674 12479 net.cpp:157] Top shape: 1 3 600 1000 (1800000)
I0205 10:18:02.709679 12479 net.cpp:157] Top shape: 1 3 600 1000 (1800000)
I0205 10:18:02.709681 12479 net.cpp:165] Memory required for data: 21600028
I0205 10:18:02.709686 12479 layer_factory.hpp:77] Creating layer im_info_input-data_1_split
I0205 10:18:02.709695 12479 net.cpp:100] Creating Layer im_info_input-data_1_split
I0205 10:18:02.709699 12479 net.cpp:444] im_info_input-data_1_split <- im_info
I0205 10:18:02.709708 12479 net.cpp:418] im_info_input-data_1_split -> im_info_input-data_1_split_0
I0205 10:18:02.709720 12479 net.cpp:418] im_info_input-data_1_split -> im_info_input-data_1_split_1
I0205 10:18:02.709746 12479 net.cpp:150] Setting up im_info_input-data_1_split
I0205 10:18:02.709753 12479 net.cpp:157] Top shape: 1 3 (3)
I0205 10:18:02.709756 12479 net.cpp:157] Top shape: 1 3 (3)
I0205 10:18:02.709758 12479 net.cpp:165] Memory required for data: 21600052
I0205 10:18:02.709761 12479 layer_factory.hpp:77] Creating layer gt_boxes_input-data_2_split
I0205 10:18:02.709769 12479 net.cpp:100] Creating Layer gt_boxes_input-data_2_split
I0205 10:18:02.709772 12479 net.cpp:444] gt_boxes_input-data_2_split <- gt_boxes
I0205 10:18:02.709782 12479 net.cpp:418] gt_boxes_input-data_2_split -> gt_boxes_input-data_2_split_0
I0205 10:18:02.709794 12479 net.cpp:418] gt_boxes_input-data_2_split -> gt_boxes_input-data_2_split_1
I0205 10:18:02.709821 12479 net.cpp:150] Setting up gt_boxes_input-data_2_split
I0205 10:18:02.709827 12479 net.cpp:157] Top shape: 1 4 (4)
I0205 10:18:02.709832 12479 net.cpp:157] Top shape: 1 4 (4)
I0205 10:18:02.709834 12479 net.cpp:165] Memory required for data: 21600084
I0205 10:18:02.709837 12479 layer_factory.hpp:77] Creating layer conv1
I0205 10:18:02.709856 12479 net.cpp:100] Creating Layer conv1
I0205 10:18:02.709861 12479 net.cpp:444] conv1 <- data_input-data_0_split_0
I0205 10:18:02.709872 12479 net.cpp:418] conv1 -> conv1
I0205 10:18:02.982668 12479 cudnn_conv_layer.cpp:194] Reallocating workspace storage: 2700024
I0205 10:18:02.982885 12479 net.cpp:150] Setting up conv1
I0205 10:18:02.982919 12479 net.cpp:157] Top shape: 1 64 300 500 (9600000)
I0205 10:18:02.982923 12479 net.cpp:165] Memory required for data: 60000084
I0205 10:18:02.982971 12479 layer_factory.hpp:77] Creating layer bn_conv1
I0205 10:18:02.982997 12479 net.cpp:100] Creating Layer bn_conv1
I0205 10:18:02.983006 12479 net.cpp:444] bn_conv1 <- conv1
I0205 10:18:02.983018 12479 net.cpp:405] bn_conv1 -> conv1 (in-place)
I0205 10:18:02.983357 12479 net.cpp:150] Setting up bn_conv1
I0205 10:18:02.983363 12479 net.cpp:157] Top shape: 1 64 300 500 (9600000)
I0205 10:18:02.983379 12479 net.cpp:165] Memory required for data: 98400084
I0205 10:18:02.983404 12479 layer_factory.hpp:77] Creating layer scale_conv1
I0205 10:18:02.983418 12479 net.cpp:100] Creating Layer scale_conv1
I0205 10:18:02.983423 12479 net.cpp:444] scale_conv1 <- conv1
I0205 10:18:02.983433 12479 net.cpp:405] scale_conv1 -> conv1 (in-place)
I0205 10:18:02.983472 12479 layer_factory.hpp:77] Creating layer scale_conv1
I0205 10:18:02.984411 12479 net.cpp:150] Setting up scale_conv1
I0205 10:18:02.984434 12479 net.cpp:157] Top shape: 1 64 300 500 (9600000)
I0205 10:18:02.984436 12479 net.cpp:165] Memory required for data: 136800084
I0205 10:18:02.984448 12479 layer_factory.hpp:77] Creating layer conv1_relu
I0205 10:18:02.984458 12479 net.cpp:100] Creating Layer conv1_relu
I0205 10:18:02.984463 12479 net.cpp:444] conv1_relu <- conv1
I0205 10:18:02.984474 12479 net.cpp:405] conv1_relu -> conv1 (in-place)
I0205 10:18:02.984613 12479 net.cpp:150] Setting up conv1_relu
I0205 10:18:02.984619 12479 net.cpp:157] Top shape: 1 64 300 500 (9600000)
I0205 10:18:02.984622 12479 net.cpp:165] Memory required for data: 175200084
I0205 10:18:02.984627 12479 layer_factory.hpp:77] Creating layer pool1
I0205 10:18:02.984642 12479 net.cpp:100] Creating Layer pool1
I0205 10:18:02.984647 12479 net.cpp:444] pool1 <- conv1
I0205 10:18:02.984658 12479 net.cpp:418] pool1 -> pool1
I0205 10:18:02.984700 12479 net.cpp:150] Setting up pool1
I0205 10:18:02.984707 12479 net.cpp:157] Top shape: 1 64 150 250 (2400000)
I0205 10:18:02.984710 12479 net.cpp:165] Memory required for data: 184800084
I0205 10:18:02.984714 12479 layer_factory.hpp:77] Creating layer pool1_pool1_0_split
I0205 10:18:02.984721 12479 net.cpp:100] Creating Layer pool1_pool1_0_split
I0205 10:18:02.984726 12479 net.cpp:444] pool1_pool1_0_split <- pool1
I0205 10:18:02.984735 12479 net.cpp:418] pool1_pool1_0_split -> pool1_pool1_0_split_0
I0205 10:18:02.984746 12479 net.cpp:418] pool1_pool1_0_split -> pool1_pool1_0_split_1
I0205 10:18:02.984776 12479 net.cpp:150] Setting up pool1_pool1_0_split
I0205 10:18:02.984783 12479 net.cpp:157] Top shape: 1 64 150 250 (2400000)
I0205 10:18:02.984787 12479 net.cpp:157] Top shape: 1 64 150 250 (2400000)
I0205 10:18:02.984789 12479 net.cpp:165] Memory required for data: 204000084
I0205 10:18:02.984793 12479 layer_factory.hpp:77] Creating layer res2a_branch1
I0205 10:18:02.984807 12479 net.cpp:100] Creating Layer res2a_branch1
I0205 10:18:02.984812 12479 net.cpp:444] res2a_branch1 <- pool1_pool1_0_split_0
I0205 10:18:02.984823 12479 net.cpp:418] res2a_branch1 -> res2a_branch1
I0205 10:18:02.985515 12479 cudnn_conv_layer.cpp:194] Reallocating workspace storage: 681552
I0205 10:18:02.985530 12479 net.cpp:150] Setting up res2a_branch1
I0205 10:18:02.985538 12479 net.cpp:157] Top shape: 1 256 150 250 (9600000)
I0205 10:18:02.985540 12479 net.cpp:165] Memory required for data: 242400084
I0205 10:18:02.985550 12479 layer_factory.hpp:77] Creating layer bn2a_branch1
I0205 10:18:02.985563 12479 net.cpp:100] Creating Layer bn2a_branch1
I0205 10:18:02.985568 12479 net.cpp:444] bn2a_branch1 <- res2a_branch1
I0205 10:18:02.985579 12479 net.cpp:405] bn2a_branch1 -> res2a_branch1 (in-place)
I0205 10:18:02.986213 12479 net.cpp:150] Setting up bn2a_branch1
I0205 10:18:02.986222 12479 net.cpp:157] Top shape: 1 256 150 250 (9600000)
I0205 10:18:02.986224 12479 net.cpp:165] Memory required for data: 280800084
I0205 10:18:02.986249 12479 layer_factory.hpp:77] Creating layer scale2a_branch1
I0205 10:18:02.986263 12479 net.cpp:100] Creating Layer scale2a_branch1
I0205 10:18:02.986268 12479 net.cpp:444] scale2a_branch1 <- res2a_branch1
I0205 10:18:02.986279 12479 net.cpp:405] scale2a_branch1 -> res2a_branch1 (in-place)
I0205 10:18:02.986320 12479 layer_factory.hpp:77] Creating layer scale2a_branch1
I0205 10:18:02.986502 12479 net.cpp:150] Setting up scale2a_branch1
I0205 10:18:02.986510 12479 net.cpp:157] Top shape: 1 256 150 250 (9600000)
I0205 10:18:02.986511 12479 net.cpp:165] Memory required for data: 319200084
I0205 10:18:02.986521 12479 layer_factory.hpp:77] Creating layer res2a_branch2a
I0205 10:18:02.986533 12479 net.cpp:100] Creating Layer res2a_branch2a
I0205 10:18:02.986538 12479 net.cpp:444] res2a_branch2a <- pool1_pool1_0_split_1
I0205 10:18:02.986551 12479 net.cpp:418] res2a_branch2a -> res2a_branch2a
I0205 10:18:02.987671 12479 cudnn_conv_layer.cpp:194] Reallocating workspace storage: 681552
I0205 10:18:02.987686 12479 net.cpp:150] Setting up res2a_branch2a
I0205 10:18:02.987694 12479 net.cpp:157] Top shape: 1 64 150 250 (2400000)
I0205 10:18:02.987696 12479 net.cpp:165] Memory required for data: 328800084
I0205 10:18:02.987704 12479 layer_factory.hpp:77] Creating layer bn2a_branch2a
I0205 10:18:02.987717 12479 net.cpp:100] Creating Layer bn2a_branch2a
I0205 10:18:02.987722 12479 net.cpp:444] bn2a_branch2a <- res2a_branch2a
I0205 10:18:02.987733 12479 net.cpp:405] bn2a_branch2a -> res2a_branch2a (in-place)
I0205 10:18:02.987911 12479 net.cpp:150] Setting up bn2a_branch2a
I0205 10:18:02.987917 12479 net.cpp:157] Top shape: 1 64 150 250 (2400000)
I0205 10:18:02.987920 12479 net.cpp:165] Memory required for data: 338400084
I0205 10:18:02.987942 12479 layer_factory.hpp:77] Creating layer scale2a_branch2a
I0205 10:18:02.987954 12479 net.cpp:100] Creating Layer scale2a_branch2a
I0205 10:18:02.987959 12479 net.cpp:444] scale2a_branch2a <- res2a_branch2a
I0205 10:18:02.987969 12479 net.cpp:405] scale2a_branch2a -> res2a_branch2a (in-place)
I0205 10:18:02.988008 12479 layer_factory.hpp:77] Creating layer scale2a_branch2a
I0205 10:18:02.988195 12479 net.cpp:150] Setting up scale2a_branch2a
I0205 10:18:02.988204 12479 net.cpp:157] Top shape: 1 64 150 250 (2400000)
I0205 10:18:02.988205 12479 net.cpp:165] Memory required for data: 348000084
I0205 10:18:02.988215 12479 layer_factory.hpp:77] Creating layer res2a_branch2a_relu
I0205 10:18:02.988229 12479 net.cpp:100] Creating Layer res2a_branch2a_relu
I0205 10:18:02.988234 12479 net.cpp:444] res2a_branch2a_relu <- res2a_branch2a
I0205 10:18:02.988245 12479 net.cpp:405] res2a_branch2a_relu -> res2a_branch2a (in-place)
I0205 10:18:02.988359 12479 net.cpp:150] Setting up res2a_branch2a_relu
I0205 10:18:02.988366 12479 net.cpp:157] Top shape: 1 64 150 250 (2400000)
I0205 10:18:02.988368 12479 net.cpp:165] Memory required for data: 357600084
I0205 10:18:02.988373 12479 layer_factory.hpp:77] Creating layer res2a_branch2b
I0205 10:18:02.988384 12479 net.cpp:100] Creating Layer res2a_branch2b
I0205 10:18:02.988389 12479 net.cpp:444] res2a_branch2b <- res2a_branch2a
I0205 10:18:02.988400 12479 net.cpp:418] res2a_branch2b -> res2a_branch2b
I0205 10:18:02.989089 12479 cudnn_conv_layer.cpp:194] Reallocating workspace storage: 786432
I0205 10:18:02.989279 12479 net.cpp:150] Setting up res2a_branch2b
I0205 10:18:02.989289 12479 net.cpp:157] Top shape: 1 64 150 250 (2400000)
I0205 10:18:02.989292 12479 net.cpp:165] Memory required for data: 367200084
I0205 10:18:02.989302 12479 layer_factory.hpp:77] Creating layer bn2a_branch2b
I0205 10:18:02.989313 12479 net.cpp:100] Creating Layer bn2a_branch2b
I0205 10:18:02.989318 12479 net.cpp:444] bn2a_branch2b <- res2a_branch2b
I0205 10:18:02.989328 12479 net.cpp:405] bn2a_branch2b -> res2a_branch2b (in-place)
I0205 10:18:02.989508 12479 net.cpp:150] Setting up bn2a_branch2b
I0205 10:18:02.989514 12479 net.cpp:157] Top shape: 1 64 150 250 (2400000)
I0205 10:18:02.989516 12479 net.cpp:165] Memory required for data: 376800084
I0205 10:18:02.989531 12479 layer_factory.hpp:77] Creating layer scale2a_branch2b
I0205 10:18:02.989542 12479 net.cpp:100] Creating Layer scale2a_branch2b
I0205 10:18:02.989547 12479 net.cpp:444] scale2a_branch2b <- res2a_branch2b
I0205 10:18:02.989557 12479 net.cpp:405] scale2a_branch2b -> res2a_branch2b (in-place)
I0205 10:18:02.989595 12479 layer_factory.hpp:77] Creating layer scale2a_branch2b
I0205 10:18:02.989784 12479 net.cpp:150] Setting up scale2a_branch2b
I0205 10:18:02.989791 12479 net.cpp:157] Top shape: 1 64 150 250 (2400000)
I0205 10:18:02.989794 12479 net.cpp:165] Memory required for data: 386400084
I0205 10:18:02.989804 12479 layer_factory.hpp:77] Creating layer res2a_branch2b_relu
I0205 10:18:02.989811 12479 net.cpp:100] Creating Layer res2a_branch2b_relu
I0205 10:18:02.989815 12479 net.cpp:444] res2a_branch2b_relu <- res2a_branch2b
I0205 10:18:02.989825 12479 net.cpp:405] res2a_branch2b_relu -> res2a_branch2b (in-place)
I0205 10:18:02.990121 12479 net.cpp:150] Setting up res2a_branch2b_relu
I0205 10:18:02.990129 12479 net.cpp:157] Top shape: 1 64 150 250 (2400000)
I0205 10:18:02.990133 12479 net.cpp:165] Memory required for data: 396000084
I0205 10:18:02.990135 12479 layer_factory.hpp:77] Creating layer res2a_branch2c
I0205 10:18:02.990149 12479 net.cpp:100] Creating Layer res2a_branch2c
I0205 10:18:02.990154 12479 net.cpp:444] res2a_branch2c <- res2a_branch2b
I0205 10:18:02.990167 12479 net.cpp:418] res2a_branch2c -> res2a_branch2c
I0205 10:18:02.990818 12479 cudnn_conv_layer.cpp:194] Reallocating workspace storage: 681552
I0205 10:18:02.990831 12479 net.cpp:150] Setting up res2a_branch2c
I0205 10:18:02.990839 12479 net.cpp:157] Top shape: 1 256 150 250 (9600000)
I0205 10:18:02.990842 12479 net.cpp:165] Memory required for data: 434400084
I0205 10:18:02.990850 12479 layer_factory.hpp:77] Creating layer bn2a_branch2c
I0205 10:18:02.990862 12479 net.cpp:100] Creating Layer bn2a_branch2c
I0205 10:18:02.990867 12479 net.cpp:444] bn2a_branch2c <- res2a_branch2c
I0205 10:18:02.990878 12479 net.cpp:405] bn2a_branch2c -> res2a_branch2c (in-place)
I0205 10:18:02.991051 12479 net.cpp:150] Setting up bn2a_branch2c
I0205 10:18:02.991058 12479 net.cpp:157] Top shape: 1 256 150 250 (9600000)
I0205 10:18:02.991060 12479 net.cpp:165] Memory required for data: 472800084
I0205 10:18:02.991075 12479 layer_factory.hpp:77] Creating layer scale2a_branch2c
I0205 10:18:02.991086 12479 net.cpp:100] Creating Layer scale2a_branch2c
I0205 10:18:02.991091 12479 net.cpp:444] scale2a_branch2c <- res2a_branch2c
I0205 10:18:02.991101 12479 net.cpp:405] scale2a_branch2c -> res2a_branch2c (in-place)
I0205 10:18:02.991138 12479 layer_factory.hpp:77] Creating layer scale2a_branch2c
I0205 10:18:02.991324 12479 net.cpp:150] Setting up scale2a_branch2c
I0205 10:18:02.991331 12479 net.cpp:157] Top shape: 1 256 150 250 (9600000)
I0205 10:18:02.991334 12479 net.cpp:165] Memory required for data: 511200084
I0205 10:18:02.991343 12479 layer_factory.hpp:77] Creating layer res2a
I0205 10:18:02.991353 12479 net.cpp:100] Creating Layer res2a
I0205 10:18:02.991358 12479 net.cpp:444] res2a <- res2a_branch1
I0205 10:18:02.991365 12479 net.cpp:444] res2a <- res2a_branch2c
I0205 10:18:02.991374 12479 net.cpp:418] res2a -> res2a
I0205 10:18:02.991400 12479 net.cpp:150] Setting up res2a
I0205 10:18:02.991408 12479 net.cpp:157] Top shape: 1 256 150 250 (9600000)
I0205 10:18:02.991410 12479 net.cpp:165] Memory required for data: 549600084
I0205 10:18:02.991413 12479 layer_factory.hpp:77] Creating layer res2a_relu
I0205 10:18:02.991420 12479 net.cpp:100] Creating Layer res2a_relu
I0205 10:18:02.991425 12479 net.cpp:444] res2a_relu <- res2a
I0205 10:18:02.991433 12479 net.cpp:405] res2a_relu -> res2a (in-place)
I0205 10:18:02.991544 12479 net.cpp:150] Setting up res2a_relu
I0205 10:18:02.991550 12479 net.cpp:157] Top shape: 1 256 150 250 (9600000)
I0205 10:18:02.991554 12479 net.cpp:165] Memory required for data: 588000084
I0205 10:18:02.991556 12479 layer_factory.hpp:77] Creating layer res2a_res2a_relu_0_split
I0205 10:18:02.991564 12479 net.cpp:100] Creating Layer res2a_res2a_relu_0_split
I0205 10:18:02.991569 12479 net.cpp:444] res2a_res2a_relu_0_split <- res2a
I0205 10:18:02.991578 12479 net.cpp:418] res2a_res2a_relu_0_split -> res2a_res2a_relu_0_split_0
I0205 10:18:02.991590 12479 net.cpp:418] res2a_res2a_relu_0_split -> res2a_res2a_relu_0_split_1
I0205 10:18:02.991621 12479 net.cpp:150] Setting up res2a_res2a_relu_0_split
I0205 10:18:02.991628 12479 net.cpp:157] Top shape: 1 256 150 250 (9600000)
I0205 10:18:02.991633 12479 net.cpp:157] Top shape: 1 256 150 250 (9600000)
I0205 10:18:02.991636 12479 net.cpp:165] Memory required for data: 664800084
I0205 10:18:02.991638 12479 layer_factory.hpp:77] Creating layer res2b_branch2a
I0205 10:18:02.991648 12479 net.cpp:100] Creating Layer res2b_branch2a
I0205 10:18:02.991653 12479 net.cpp:444] res2b_branch2a <- res2a_res2a_relu_0_split_0
I0205 10:18:02.991664 12479 net.cpp:418] res2b_branch2a -> res2b_branch2a
I0205 10:18:02.992322 12479 cudnn_conv_layer.cpp:194] Reallocating workspace storage: 681552
I0205 10:18:02.992509 12479 net.cpp:150] Setting up res2b_branch2a
I0205 10:18:02.992519 12479 net.cpp:157] Top shape: 1 64 150 250 (2400000)
I0205 10:18:02.992522 12479 net.cpp:165] Memory required for data: 674400084
I0205 10:18:02.992532 12479 layer_factory.hpp:77] Creating layer bn2b_branch2a
I0205 10:18:02.992543 12479 net.cpp:100] Creating Layer bn2b_branch2a
I0205 10:18:02.992549 12479 net.cpp:444] bn2b_branch2a <- res2b_branch2a
I0205 10:18:02.992560 12479 net.cpp:405] bn2b_branch2a -> res2b_branch2a (in-place)
I0205 10:18:02.993227 12479 net.cpp:150] Setting up bn2b_branch2a
I0205 10:18:02.993237 12479 net.cpp:157] Top shape: 1 64 150 250 (2400000)
I0205 10:18:02.993238 12479 net.cpp:165] Memory required for data: 684000084
I0205 10:18:02.993265 12479 layer_factory.hpp:77] Creating layer scale2b_branch2a
I0205 10:18:02.993278 12479 net.cpp:100] Creating Layer scale2b_branch2a
I0205 10:18:02.993283 12479 net.cpp:444] scale2b_branch2a <- res2b_branch2a
I0205 10:18:02.993294 12479 net.cpp:405] scale2b_branch2a -> res2b_branch2a (in-place)
I0205 10:18:02.993336 12479 layer_factory.hpp:77] Creating layer scale2b_branch2a
I0205 10:18:02.993532 12479 net.cpp:150] Setting up scale2b_branch2a
I0205 10:18:02.993540 12479 net.cpp:157] Top shape: 1 64 150 250 (2400000)
I0205 10:18:02.993542 12479 net.cpp:165] Memory required for data: 693600084
I0205 10:18:02.993552 12479 layer_factory.hpp:77] Creating layer res2b_branch2a_relu
I0205 10:18:02.993561 12479 net.cpp:100] Creating Layer res2b_branch2a_relu
I0205 10:18:02.993566 12479 net.cpp:444] res2b_branch2a_relu <- res2b_branch2a
I0205 10:18:02.993577 12479 net.cpp:405] res2b_branch2a_relu -> res2b_branch2a (in-place)
I0205 10:18:02.993705 12479 net.cpp:150] Setting up res2b_branch2a_relu
I0205 10:18:02.993711 12479 net.cpp:157] Top shape: 1 64 150 250 (2400000)
I0205 10:18:02.993713 12479 net.cpp:165] Memory required for data: 703200084
I0205 10:18:02.993717 12479 layer_factory.hpp:77] Creating layer res2b_branch2b
I0205 10:18:02.993731 12479 net.cpp:100] Creating Layer res2b_branch2b
I0205 10:18:02.993736 12479 net.cpp:444] res2b_branch2b <- res2b_branch2a
I0205 10:18:02.993747 12479 net.cpp:418] res2b_branch2b -> res2b_branch2b
I0205 10:18:02.994518 12479 cudnn_conv_layer.cpp:194] Reallocating workspace storage: 786432
I0205 10:18:02.994534 12479 net.cpp:150] Setting up res2b_branch2b
I0205 10:18:02.994542 12479 net.cpp:157] Top shape: 1 64 150 250 (2400000)
I0205 10:18:02.994545 12479 net.cpp:165] Memory required for data: 712800084
I0205 10:18:02.994555 12479 layer_factory.hpp:77] Creating layer bn2b_branch2b
I0205 10:18:02.994577 12479 net.cpp:100] Creating Layer bn2b_branch2b
I0205 10:18:02.994582 12479 net.cpp:444] bn2b_branch2b <- res2b_branch2b
I0205 10:18:02.994596 12479 net.cpp:405] bn2b_branch2b -> res2b_branch2b (in-place)
I0205 10:18:02.994783 12479 net.cpp:150] Setting up bn2b_branch2b
I0205 10:18:02.994791 12479 net.cpp:157] Top shape: 1 64 150 250 (2400000)
I0205 10:18:02.994792 12479 net.cpp:165] Memory required for data: 722400084
I0205 10:18:02.994807 12479 layer_factory.hpp:77] Creating layer scale2b_branch2b
I0205 10:18:02.994819 12479 net.cpp:100] Creating Layer scale2b_branch2b
I0205 10:18:02.994824 12479 net.cpp:444] scale2b_branch2b <- res2b_branch2b
I0205 10:18:02.994835 12479 net.cpp:405] scale2b_branch2b -> res2b_branch2b (in-place)
I0205 10:18:02.994876 12479 layer_factory.hpp:77] Creating layer scale2b_branch2b
I0205 10:18:02.995075 12479 net.cpp:150] Setting up scale2b_branch2b
I0205 10:18:02.995082 12479 net.cpp:157] Top shape: 1 64 150 250 (2400000)
I0205 10:18:02.995085 12479 net.cpp:165] Memory required for data: 732000084
I0205 10:18:02.995093 12479 layer_factory.hpp:77] Creating layer res2b_branch2b_relu
I0205 10:18:02.995102 12479 net.cpp:100] Creating Layer res2b_branch2b_relu
I0205 10:18:02.995107 12479 net.cpp:444] res2b_branch2b_relu <- res2b_branch2b
I0205 10:18:02.995116 12479 net.cpp:405] res2b_branch2b_relu -> res2b_branch2b (in-place)
I0205 10:18:02.995443 12479 net.cpp:150] Setting up res2b_branch2b_relu
I0205 10:18:02.995451 12479 net.cpp:157] Top shape: 1 64 150 250 (2400000)
I0205 10:18:02.995455 12479 net.cpp:165] Memory required for data: 741600084
I0205 10:18:02.995458 12479 layer_factory.hpp:77] Creating layer res2b_branch2c
I0205 10:18:02.995472 12479 net.cpp:100] Creating Layer res2b_branch2c
I0205 10:18:02.995478 12479 net.cpp:444] res2b_branch2c <- res2b_branch2b
I0205 10:18:02.995492 12479 net.cpp:418] res2b_branch2c -> res2b_branch2c
I0205 10:18:02.996340 12479 cudnn_conv_layer.cpp:194] Reallocating workspace storage: 681552
I0205 10:18:02.996531 12479 net.cpp:150] Setting up res2b_branch2c
I0205 10:18:02.996541 12479 net.cpp:157] Top shape: 1 256 150 250 (9600000)
I0205 10:18:02.996544 12479 net.cpp:165] Memory required for data: 780000084
I0205 10:18:02.996554 12479 layer_factory.hpp:77] Creating layer bn2b_branch2c
I0205 10:18:02.996567 12479 net.cpp:100] Creating Layer bn2b_branch2c
I0205 10:18:02.996572 12479 net.cpp:444] bn2b_branch2c <- res2b_branch2c
I0205 10:18:02.996584 12479 net.cpp:405] bn2b_branch2c -> res2b_branch2c (in-place)
I0205 10:18:02.996774 12479 net.cpp:150] Setting up bn2b_branch2c
I0205 10:18:02.996781 12479 net.cpp:157] Top shape: 1 256 150 250 (9600000)
I0205 10:18:02.996783 12479 net.cpp:165] Memory required for data: 818400084
I0205 10:18:02.996798 12479 layer_factory.hpp:77] Creating layer scale2b_branch2c
I0205 10:18:02.996809 12479 net.cpp:100] Creating Layer scale2b_branch2c
I0205 10:18:02.996814 12479 net.cpp:444] scale2b_branch2c <- res2b_branch2c
I0205 10:18:02.996824 12479 net.cpp:405] scale2b_branch2c -> res2b_branch2c (in-place)
I0205 10:18:02.996865 12479 layer_factory.hpp:77] Creating layer scale2b_branch2c
I0205 10:18:02.997061 12479 net.cpp:150] Setting up scale2b_branch2c
I0205 10:18:02.997068 12479 net.cpp:157] Top shape: 1 256 150 250 (9600000)
I0205 10:18:02.997071 12479 net.cpp:165] Memory required for data: 856800084
I0205 10:18:02.997081 12479 layer_factory.hpp:77] Creating layer res2b
I0205 10:18:02.997089 12479 net.cpp:100] Creating Layer res2b
I0205 10:18:02.997094 12479 net.cpp:444] res2b <- res2a_res2a_relu_0_split_1
I0205 10:18:02.997102 12479 net.cpp:444] res2b <- res2b_branch2c
I0205 10:18:02.997112 12479 net.cpp:418] res2b -> res2b
I0205 10:18:02.997140 12479 net.cpp:150] Setting up res2b
I0205 10:18:02.997148 12479 net.cpp:157] Top shape: 1 256 150 250 (9600000)
I0205 10:18:02.997151 12479 net.cpp:165] Memory required for data: 895200084
I0205 10:18:02.997155 12479 layer_factory.hpp:77] Creating layer res2b_relu
I0205 10:18:02.997162 12479 net.cpp:100] Creating Layer res2b_relu
I0205 10:18:02.997166 12479 net.cpp:444] res2b_relu <- res2b
I0205 10:18:02.997175 12479 net.cpp:405] res2b_relu -> res2b (in-place)
I0205 10:18:02.997337 12479 net.cpp:150] Setting up res2b_relu
I0205 10:18:02.997344 12479 net.cpp:157] Top shape: 1 256 150 250 (9600000)
I0205 10:18:02.997347 12479 net.cpp:165] Memory required for data: 933600084
I0205 10:18:02.997350 12479 layer_factory.hpp:77] Creating layer res2b_res2b_relu_0_split
I0205 10:18:02.997359 12479 net.cpp:100] Creating Layer res2b_res2b_relu_0_split
I0205 10:18:02.997364 12479 net.cpp:444] res2b_res2b_relu_0_split <- res2b
I0205 10:18:02.997375 12479 net.cpp:418] res2b_res2b_relu_0_split -> res2b_res2b_relu_0_split_0
I0205 10:18:02.997386 12479 net.cpp:418] res2b_res2b_relu_0_split -> res2b_res2b_relu_0_split_1
I0205 10:18:02.997422 12479 net.cpp:150] Setting up res2b_res2b_relu_0_split
I0205 10:18:02.997429 12479 net.cpp:157] Top shape: 1 256 150 250 (9600000)
I0205 10:18:02.997433 12479 net.cpp:157] Top shape: 1 256 150 250 (9600000)
I0205 10:18:02.997436 12479 net.cpp:165] Memory required for data: 1010400084
I0205 10:18:02.997438 12479 layer_factory.hpp:77] Creating layer res2c_branch2a
I0205 10:18:02.997453 12479 net.cpp:100] Creating Layer res2c_branch2a
I0205 10:18:02.997457 12479 net.cpp:444] res2c_branch2a <- res2b_res2b_relu_0_split_0
I0205 10:18:02.997469 12479 net.cpp:418] res2c_branch2a -> res2c_branch2a
I0205 10:18:02.998209 12479 cudnn_conv_layer.cpp:194] Reallocating workspace storage: 681552
I0205 10:18:02.998226 12479 net.cpp:150] Setting up res2c_branch2a
I0205 10:18:02.998234 12479 net.cpp:157] Top shape: 1 64 150 250 (2400000)
I0205 10:18:02.998236 12479 net.cpp:165] Memory required for data: 1020000084
I0205 10:18:02.998245 12479 layer_factory.hpp:77] Creating layer bn2c_branch2a
I0205 10:18:02.998257 12479 net.cpp:100] Creating Layer bn2c_branch2a
I0205 10:18:02.998262 12479 net.cpp:444] bn2c_branch2a <- res2c_branch2a
I0205 10:18:02.998275 12479 net.cpp:405] bn2c_branch2a -> res2c_branch2a (in-place)
I0205 10:18:02.998468 12479 net.cpp:150] Setting up bn2c_branch2a
I0205 10:18:02.998474 12479 net.cpp:157] Top shape: 1 64 150 250 (2400000)
I0205 10:18:02.998476 12479 net.cpp:165] Memory required for data: 1029600084
I0205 10:18:02.998491 12479 layer_factory.hpp:77] Creating layer scale2c_branch2a
I0205 10:18:02.998502 12479 net.cpp:100] Creating Layer scale2c_branch2a
I0205 10:18:02.998507 12479 net.cpp:444] scale2c_branch2a <- res2c_branch2a
I0205 10:18:02.998517 12479 net.cpp:405] scale2c_branch2a -> res2c_branch2a (in-place)
I0205 10:18:02.998558 12479 layer_factory.hpp:77] Creating layer scale2c_branch2a
I0205 10:18:02.998756 12479 net.cpp:150] Setting up scale2c_branch2a
I0205 10:18:02.998764 12479 net.cpp:157] Top shape: 1 64 150 250 (2400000)
I0205 10:18:02.998765 12479 net.cpp:165] Memory required for data: 1039200084
I0205 10:18:02.998775 12479 layer_factory.hpp:77] Creating layer res2c_branch2a_relu
I0205 10:18:02.998785 12479 net.cpp:100] Creating Layer res2c_branch2a_relu
I0205 10:18:02.998790 12479 net.cpp:444] res2c_branch2a_relu <- res2c_branch2a
I0205 10:18:02.998798 12479 net.cpp:405] res2c_branch2a_relu -> res2c_branch2a (in-place)
I0205 10:18:02.998921 12479 net.cpp:150] Setting up res2c_branch2a_relu
I0205 10:18:02.998929 12479 net.cpp:157] Top shape: 1 64 150 250 (2400000)
I0205 10:18:02.998930 12479 net.cpp:165] Memory required for data: 1048800084
I0205 10:18:02.998934 12479 layer_factory.hpp:77] Creating layer res2c_branch2b
I0205 10:18:02.998945 12479 net.cpp:100] Creating Layer res2c_branch2b
I0205 10:18:02.998950 12479 net.cpp:444] res2c_branch2b <- res2c_branch2a
I0205 10:18:02.998963 12479 net.cpp:418] res2c_branch2b -> res2c_branch2b
I0205 10:18:02.999718 12479 cudnn_conv_layer.cpp:194] Reallocating workspace storage: 786432
I0205 10:18:02.999910 12479 net.cpp:150] Setting up res2c_branch2b
I0205 10:18:02.999919 12479 net.cpp:157] Top shape: 1 64 150 250 (2400000)
I0205 10:18:02.999922 12479 net.cpp:165] Memory required for data: 1058400084
I0205 10:18:02.999933 12479 layer_factory.hpp:77] Creating layer bn2c_branch2b
I0205 10:18:02.999944 12479 net.cpp:100] Creating Layer bn2c_branch2b
I0205 10:18:02.999949 12479 net.cpp:444] bn2c_branch2b <- res2c_branch2b
I0205 10:18:02.999960 12479 net.cpp:405] bn2c_branch2b -> res2c_branch2b (in-place)
I0205 10:18:03.000630 12479 net.cpp:150] Setting up bn2c_branch2b
I0205 10:18:03.000639 12479 net.cpp:157] Top shape: 1 64 150 250 (2400000)
I0205 10:18:03.000641 12479 net.cpp:165] Memory required for data: 1068000084
I0205 10:18:03.000658 12479 layer_factory.hpp:77] Creating layer scale2c_branch2b
I0205 10:18:03.000669 12479 net.cpp:100] Creating Layer scale2c_branch2b
I0205 10:18:03.000674 12479 net.cpp:444] scale2c_branch2b <- res2c_branch2b
I0205 10:18:03.000685 12479 net.cpp:405] scale2c_branch2b -> res2c_branch2b (in-place)
I0205 10:18:03.000730 12479 layer_factory.hpp:77] Creating layer scale2c_branch2b
I0205 10:18:03.000927 12479 net.cpp:150] Setting up scale2c_branch2b
I0205 10:18:03.000934 12479 net.cpp:157] Top shape: 1 64 150 250 (2400000)
I0205 10:18:03.000937 12479 net.cpp:165] Memory required for data: 1077600084
I0205 10:18:03.000946 12479 layer_factory.hpp:77] Creating layer res2c_branch2b_relu
I0205 10:18:03.000954 12479 net.cpp:100] Creating Layer res2c_branch2b_relu
I0205 10:18:03.000959 12479 net.cpp:444] res2c_branch2b_relu <- res2c_branch2b
I0205 10:18:03.000969 12479 net.cpp:405] res2c_branch2b_relu -> res2c_branch2b (in-place)
I0205 10:18:03.001099 12479 net.cpp:150] Setting up res2c_branch2b_relu
I0205 10:18:03.001106 12479 net.cpp:157] Top shape: 1 64 150 250 (2400000)
I0205 10:18:03.001109 12479 net.cpp:165] Memory required for data: 1087200084
I0205 10:18:03.001113 12479 layer_factory.hpp:77] Creating layer res2c_branch2c
I0205 10:18:03.001125 12479 net.cpp:100] Creating Layer res2c_branch2c
I0205 10:18:03.001130 12479 net.cpp:444] res2c_branch2c <- res2c_branch2b
I0205 10:18:03.001143 12479 net.cpp:418] res2c_branch2c -> res2c_branch2c
I0205 10:18:03.001865 12479 cudnn_conv_layer.cpp:194] Reallocating workspace storage: 681552
I0205 10:18:03.001878 12479 net.cpp:150] Setting up res2c_branch2c
I0205 10:18:03.001884 12479 net.cpp:157] Top shape: 1 256 150 250 (9600000)
I0205 10:18:03.001888 12479 net.cpp:165] Memory required for data: 1125600084
I0205 10:18:03.001896 12479 layer_factory.hpp:77] Creating layer bn2c_branch2c
I0205 10:18:03.001909 12479 net.cpp:100] Creating Layer bn2c_branch2c
I0205 10:18:03.001914 12479 net.cpp:444] bn2c_branch2c <- res2c_branch2c
I0205 10:18:03.001925 12479 net.cpp:405] bn2c_branch2c -> res2c_branch2c (in-place)
I0205 10:18:03.002115 12479 net.cpp:150] Setting up bn2c_branch2c
I0205 10:18:03.002120 12479 net.cpp:157] Top shape: 1 256 150 250 (9600000)
I0205 10:18:03.002123 12479 net.cpp:165] Memory required for data: 1164000084
I0205 10:18:03.002152 12479 layer_factory.hpp:77] Creating layer scale2c_branch2c
I0205 10:18:03.002166 12479 net.cpp:100] Creating Layer scale2c_branch2c
I0205 10:18:03.002171 12479 net.cpp:444] scale2c_branch2c <- res2c_branch2c
I0205 10:18:03.002180 12479 net.cpp:405] scale2c_branch2c -> res2c_branch2c (in-place)
I0205 10:18:03.002223 12479 layer_factory.hpp:77] Creating layer scale2c_branch2c
I0205 10:18:03.002416 12479 net.cpp:150] Setting up scale2c_branch2c
I0205 10:18:03.002424 12479 net.cpp:157] Top shape: 1 256 150 250 (9600000)
I0205 10:18:03.002425 12479 net.cpp:165] Memory required for data: 1202400084
I0205 10:18:03.002435 12479 layer_factory.hpp:77] Creating layer res2c
I0205 10:18:03.002444 12479 net.cpp:100] Creating Layer res2c
I0205 10:18:03.002449 12479 net.cpp:444] res2c <- res2b_res2b_relu_0_split_1
I0205 10:18:03.002457 12479 net.cpp:444] res2c <- res2c_branch2c
I0205 10:18:03.002465 12479 net.cpp:418] res2c -> res2c
I0205 10:18:03.002493 12479 net.cpp:150] Setting up res2c
I0205 10:18:03.002501 12479 net.cpp:157] Top shape: 1 256 150 250 (9600000)
I0205 10:18:03.002503 12479 net.cpp:165] Memory required for data: 1240800084
I0205 10:18:03.002507 12479 layer_factory.hpp:77] Creating layer res2c_relu
I0205 10:18:03.002514 12479 net.cpp:100] Creating Layer res2c_relu
I0205 10:18:03.002518 12479 net.cpp:444] res2c_relu <- res2c
I0205 10:18:03.002528 12479 net.cpp:405] res2c_relu -> res2c (in-place)
I0205 10:18:03.002833 12479 net.cpp:150] Setting up res2c_relu
I0205 10:18:03.002841 12479 net.cpp:157] Top shape: 1 256 150 250 (9600000)
I0205 10:18:03.002843 12479 net.cpp:165] Memory required for data: 1279200084
I0205 10:18:03.002847 12479 layer_factory.hpp:77] Creating layer res2c_res2c_relu_0_split
I0205 10:18:03.002856 12479 net.cpp:100] Creating Layer res2c_res2c_relu_0_split
I0205 10:18:03.002861 12479 net.cpp:444] res2c_res2c_relu_0_split <- res2c
I0205 10:18:03.002873 12479 net.cpp:418] res2c_res2c_relu_0_split -> res2c_res2c_relu_0_split_0
I0205 10:18:03.002887 12479 net.cpp:418] res2c_res2c_relu_0_split -> res2c_res2c_relu_0_split_1
I0205 10:18:03.002923 12479 net.cpp:150] Setting up res2c_res2c_relu_0_split
I0205 10:18:03.002930 12479 net.cpp:157] Top shape: 1 256 150 250 (9600000)
I0205 10:18:03.002934 12479 net.cpp:157] Top shape: 1 256 150 250 (9600000)
I0205 10:18:03.002936 12479 net.cpp:165] Memory required for data: 1356000084
I0205 10:18:03.002939 12479 layer_factory.hpp:77] Creating layer res3a_branch1
I0205 10:18:03.002951 12479 net.cpp:100] Creating Layer res3a_branch1
I0205 10:18:03.002956 12479 net.cpp:444] res3a_branch1 <- res2c_res2c_relu_0_split_0
I0205 10:18:03.002969 12479 net.cpp:418] res3a_branch1 -> res3a_branch1
I0205 10:18:03.003839 12479 cudnn_conv_layer.cpp:194] Reallocating workspace storage: 168768
I0205 10:18:03.004024 12479 net.cpp:150] Setting up res3a_branch1
I0205 10:18:03.004035 12479 net.cpp:157] Top shape: 1 512 75 125 (4800000)
I0205 10:18:03.004039 12479 net.cpp:165] Memory required for data: 1375200084
I0205 10:18:03.004048 12479 layer_factory.hpp:77] Creating layer bn3a_branch1
I0205 10:18:03.004061 12479 net.cpp:100] Creating Layer bn3a_branch1
I0205 10:18:03.004066 12479 net.cpp:444] bn3a_branch1 <- res3a_branch1
I0205 10:18:03.004078 12479 net.cpp:405] bn3a_branch1 -> res3a_branch1 (in-place)
I0205 10:18:03.004709 12479 net.cpp:150] Setting up bn3a_branch1
I0205 10:18:03.004717 12479 net.cpp:157] Top shape: 1 512 75 125 (4800000)
I0205 10:18:03.004720 12479 net.cpp:165] Memory required for data: 1394400084
I0205 10:18:03.004736 12479 layer_factory.hpp:77] Creating layer scale3a_branch1
I0205 10:18:03.004750 12479 net.cpp:100] Creating Layer scale3a_branch1
I0205 10:18:03.004755 12479 net.cpp:444] scale3a_branch1 <- res3a_branch1
I0205 10:18:03.004765 12479 net.cpp:405] scale3a_branch1 -> res3a_branch1 (in-place)
I0205 10:18:03.004806 12479 layer_factory.hpp:77] Creating layer scale3a_branch1
I0205 10:18:03.004935 12479 net.cpp:150] Setting up scale3a_branch1
I0205 10:18:03.004943 12479 net.cpp:157] Top shape: 1 512 75 125 (4800000)
I0205 10:18:03.004945 12479 net.cpp:165] Memory required for data: 1413600084
I0205 10:18:03.004954 12479 layer_factory.hpp:77] Creating layer res3a_branch2a
I0205 10:18:03.004968 12479 net.cpp:100] Creating Layer res3a_branch2a
I0205 10:18:03.004973 12479 net.cpp:444] res3a_branch2a <- res2c_res2c_relu_0_split_1
I0205 10:18:03.004987 12479 net.cpp:418] res3a_branch2a -> res3a_branch2a
I0205 10:18:03.005745 12479 cudnn_conv_layer.cpp:194] Reallocating workspace storage: 168768
I0205 10:18:03.005765 12479 net.cpp:150] Setting up res3a_branch2a
I0205 10:18:03.005772 12479 net.cpp:157] Top shape: 1 128 75 125 (1200000)
I0205 10:18:03.005775 12479 net.cpp:165] Memory required for data: 1418400084
I0205 10:18:03.005784 12479 layer_factory.hpp:77] Creating layer bn3a_branch2a
I0205 10:18:03.005798 12479 net.cpp:100] Creating Layer bn3a_branch2a
I0205 10:18:03.005803 12479 net.cpp:444] bn3a_branch2a <- res3a_branch2a
I0205 10:18:03.005815 12479 net.cpp:405] bn3a_branch2a -> res3a_branch2a (in-place)
I0205 10:18:03.005970 12479 net.cpp:150] Setting up bn3a_branch2a
I0205 10:18:03.005976 12479 net.cpp:157] Top shape: 1 128 75 125 (1200000)
I0205 10:18:03.005978 12479 net.cpp:165] Memory required for data: 1423200084
I0205 10:18:03.005992 12479 layer_factory.hpp:77] Creating layer scale3a_branch2a
I0205 10:18:03.006002 12479 net.cpp:100] Creating Layer scale3a_branch2a
I0205 10:18:03.006007 12479 net.cpp:444] scale3a_branch2a <- res3a_branch2a
I0205 10:18:03.006017 12479 net.cpp:405] scale3a_branch2a -> res3a_branch2a (in-place)
I0205 10:18:03.006059 12479 layer_factory.hpp:77] Creating layer scale3a_branch2a
I0205 10:18:03.006183 12479 net.cpp:150] Setting up scale3a_branch2a
I0205 10:18:03.006191 12479 net.cpp:157] Top shape: 1 128 75 125 (1200000)
I0205 10:18:03.006193 12479 net.cpp:165] Memory required for data: 1428000084
I0205 10:18:03.006202 12479 layer_factory.hpp:77] Creating layer res3a_branch2a_relu
I0205 10:18:03.006211 12479 net.cpp:100] Creating Layer res3a_branch2a_relu
I0205 10:18:03.006217 12479 net.cpp:444] res3a_branch2a_relu <- res3a_branch2a
I0205 10:18:03.006227 12479 net.cpp:405] res3a_branch2a_relu -> res3a_branch2a (in-place)
I0205 10:18:03.006346 12479 net.cpp:150] Setting up res3a_branch2a_relu
I0205 10:18:03.006353 12479 net.cpp:157] Top shape: 1 128 75 125 (1200000)
I0205 10:18:03.006356 12479 net.cpp:165] Memory required for data: 1432800084
I0205 10:18:03.006359 12479 layer_factory.hpp:77] Creating layer res3a_branch2b
I0205 10:18:03.006372 12479 net.cpp:100] Creating Layer res3a_branch2b
I0205 10:18:03.006377 12479 net.cpp:444] res3a_branch2b <- res3a_branch2a
I0205 10:18:03.006391 12479 net.cpp:418] res3a_branch2b -> res3a_branch2b
I0205 10:18:03.007275 12479 cudnn_conv_layer.cpp:194] Reallocating workspace storage: 3145728
I0205 10:18:03.007462 12479 net.cpp:150] Setting up res3a_branch2b
I0205 10:18:03.007472 12479 net.cpp:157] Top shape: 1 128 75 125 (1200000)
I0205 10:18:03.007475 12479 net.cpp:165] Memory required for data: 1437600084
I0205 10:18:03.007485 12479 layer_factory.hpp:77] Creating layer bn3a_branch2b
I0205 10:18:03.007498 12479 net.cpp:100] Creating Layer bn3a_branch2b
I0205 10:18:03.007501 12479 net.cpp:444] bn3a_branch2b <- res3a_branch2b
I0205 10:18:03.007513 12479 net.cpp:405] bn3a_branch2b -> res3a_branch2b (in-place)
I0205 10:18:03.007666 12479 net.cpp:150] Setting up bn3a_branch2b
I0205 10:18:03.007673 12479 net.cpp:157] Top shape: 1 128 75 125 (1200000)
I0205 10:18:03.007675 12479 net.cpp:165] Memory required for data: 1442400084
I0205 10:18:03.007689 12479 layer_factory.hpp:77] Creating layer scale3a_branch2b
I0205 10:18:03.007710 12479 net.cpp:100] Creating Layer scale3a_branch2b
I0205 10:18:03.007715 12479 net.cpp:444] scale3a_branch2b <- res3a_branch2b
I0205 10:18:03.007726 12479 net.cpp:405] scale3a_branch2b -> res3a_branch2b (in-place)
I0205 10:18:03.007768 12479 layer_factory.hpp:77] Creating layer scale3a_branch2b
I0205 10:18:03.007891 12479 net.cpp:150] Setting up scale3a_branch2b
I0205 10:18:03.007899 12479 net.cpp:157] Top shape: 1 128 75 125 (1200000)
I0205 10:18:03.007901 12479 net.cpp:165] Memory required for data: 1447200084
I0205 10:18:03.007912 12479 layer_factory.hpp:77] Creating layer res3a_branch2b_relu
I0205 10:18:03.007921 12479 net.cpp:100] Creating Layer res3a_branch2b_relu
I0205 10:18:03.007925 12479 net.cpp:444] res3a_branch2b_relu <- res3a_branch2b
I0205 10:18:03.007936 12479 net.cpp:405] res3a_branch2b_relu -> res3a_branch2b (in-place)
I0205 10:18:03.008060 12479 net.cpp:150] Setting up res3a_branch2b_relu
I0205 10:18:03.008066 12479 net.cpp:157] Top shape: 1 128 75 125 (1200000)
I0205 10:18:03.008069 12479 net.cpp:165] Memory required for data: 1452000084
I0205 10:18:03.008074 12479 layer_factory.hpp:77] Creating layer res3a_branch2c
I0205 10:18:03.008086 12479 net.cpp:100] Creating Layer res3a_branch2c
I0205 10:18:03.008091 12479 net.cpp:444] res3a_branch2c <- res3a_branch2b
I0205 10:18:03.008103 12479 net.cpp:418] res3a_branch2c -> res3a_branch2c
I0205 10:18:03.008877 12479 cudnn_conv_layer.cpp:194] Reallocating workspace storage: 175296
I0205 10:18:03.008895 12479 net.cpp:150] Setting up res3a_branch2c
I0205 10:18:03.008903 12479 net.cpp:157] Top shape: 1 512 75 125 (4800000)
I0205 10:18:03.008905 12479 net.cpp:165] Memory required for data: 1471200084
I0205 10:18:03.008914 12479 layer_factory.hpp:77] Creating layer bn3a_branch2c
I0205 10:18:03.008925 12479 net.cpp:100] Creating Layer bn3a_branch2c
I0205 10:18:03.008931 12479 net.cpp:444] bn3a_branch2c <- res3a_branch2c
I0205 10:18:03.008944 12479 net.cpp:405] bn3a_branch2c -> res3a_branch2c (in-place)
I0205 10:18:03.009097 12479 net.cpp:150] Setting up bn3a_branch2c
I0205 10:18:03.009104 12479 net.cpp:157] Top shape: 1 512 75 125 (4800000)
I0205 10:18:03.009105 12479 net.cpp:165] Memory required for data: 1490400084
I0205 10:18:03.009119 12479 layer_factory.hpp:77] Creating layer scale3a_branch2c
I0205 10:18:03.009130 12479 net.cpp:100] Creating Layer scale3a_branch2c
I0205 10:18:03.009135 12479 net.cpp:444] scale3a_branch2c <- res3a_branch2c
I0205 10:18:03.009146 12479 net.cpp:405] scale3a_branch2c -> res3a_branch2c (in-place)
I0205 10:18:03.009186 12479 layer_factory.hpp:77] Creating layer scale3a_branch2c
I0205 10:18:03.009318 12479 net.cpp:150] Setting up scale3a_branch2c
I0205 10:18:03.009326 12479 net.cpp:157] Top shape: 1 512 75 125 (4800000)
I0205 10:18:03.009328 12479 net.cpp:165] Memory required for data: 1509600084
I0205 10:18:03.009337 12479 layer_factory.hpp:77] Creating layer res3a
I0205 10:18:03.009347 12479 net.cpp:100] Creating Layer res3a
I0205 10:18:03.009352 12479 net.cpp:444] res3a <- res3a_branch1
I0205 10:18:03.009361 12479 net.cpp:444] res3a <- res3a_branch2c
I0205 10:18:03.009367 12479 net.cpp:418] res3a -> res3a
I0205 10:18:03.009397 12479 net.cpp:150] Setting up res3a
I0205 10:18:03.009405 12479 net.cpp:157] Top shape: 1 512 75 125 (4800000)
I0205 10:18:03.009408 12479 net.cpp:165] Memory required for data: 1528800084
I0205 10:18:03.009412 12479 layer_factory.hpp:77] Creating layer res3a_relu
I0205 10:18:03.009418 12479 net.cpp:100] Creating Layer res3a_relu
I0205 10:18:03.009423 12479 net.cpp:444] res3a_relu <- res3a
I0205 10:18:03.009431 12479 net.cpp:405] res3a_relu -> res3a (in-place)
I0205 10:18:03.009738 12479 net.cpp:150] Setting up res3a_relu
I0205 10:18:03.009748 12479 net.cpp:157] Top shape: 1 512 75 125 (4800000)
I0205 10:18:03.009750 12479 net.cpp:165] Memory required for data: 1548000084
I0205 10:18:03.009754 12479 layer_factory.hpp:77] Creating layer res3a_res3a_relu_0_split
I0205 10:18:03.009764 12479 net.cpp:100] Creating Layer res3a_res3a_relu_0_split
I0205 10:18:03.009769 12479 net.cpp:444] res3a_res3a_relu_0_split <- res3a
I0205 10:18:03.009783 12479 net.cpp:418] res3a_res3a_relu_0_split -> res3a_res3a_relu_0_split_0
I0205 10:18:03.009795 12479 net.cpp:418] res3a_res3a_relu_0_split -> res3a_res3a_relu_0_split_1
I0205 10:18:03.009831 12479 net.cpp:150] Setting up res3a_res3a_relu_0_split
I0205 10:18:03.009840 12479 net.cpp:157] Top shape: 1 512 75 125 (4800000)
I0205 10:18:03.009845 12479 net.cpp:157] Top shape: 1 512 75 125 (4800000)
I0205 10:18:03.009846 12479 net.cpp:165] Memory required for data: 1586400084
I0205 10:18:03.009850 12479 layer_factory.hpp:77] Creating layer res3b_branch2a
I0205 10:18:03.009861 12479 net.cpp:100] Creating Layer res3b_branch2a
I0205 10:18:03.009866 12479 net.cpp:444] res3b_branch2a <- res3a_res3a_relu_0_split_0
I0205 10:18:03.009878 12479 net.cpp:418] res3b_branch2a -> res3b_branch2a
I0205 10:18:03.010684 12479 cudnn_conv_layer.cpp:194] Reallocating workspace storage: 175296
I0205 10:18:03.010704 12479 net.cpp:150] Setting up res3b_branch2a
I0205 10:18:03.010711 12479 net.cpp:157] Top shape: 1 128 75 125 (1200000)
I0205 10:18:03.010713 12479 net.cpp:165] Memory required for data: 1591200084
I0205 10:18:03.010723 12479 layer_factory.hpp:77] Creating layer bn3b_branch2a
I0205 10:18:03.010737 12479 net.cpp:100] Creating Layer bn3b_branch2a
I0205 10:18:03.010742 12479 net.cpp:444] bn3b_branch2a <- res3b_branch2a
I0205 10:18:03.010754 12479 net.cpp:405] bn3b_branch2a -> res3b_branch2a (in-place)
I0205 10:18:03.010917 12479 net.cpp:150] Setting up bn3b_branch2a
I0205 10:18:03.010923 12479 net.cpp:157] Top shape: 1 128 75 125 (1200000)
I0205 10:18:03.010926 12479 net.cpp:165] Memory required for data: 1596000084
I0205 10:18:03.010941 12479 layer_factory.hpp:77] Creating layer scale3b_branch2a
I0205 10:18:03.010951 12479 net.cpp:100] Creating Layer scale3b_branch2a
I0205 10:18:03.010957 12479 net.cpp:444] scale3b_branch2a <- res3b_branch2a
I0205 10:18:03.010967 12479 net.cpp:405] scale3b_branch2a -> res3b_branch2a (in-place)
I0205 10:18:03.011009 12479 layer_factory.hpp:77] Creating layer scale3b_branch2a
I0205 10:18:03.011132 12479 net.cpp:150] Setting up scale3b_branch2a
I0205 10:18:03.011139 12479 net.cpp:157] Top shape: 1 128 75 125 (1200000)
I0205 10:18:03.011142 12479 net.cpp:165] Memory required for data: 1600800084
I0205 10:18:03.011152 12479 layer_factory.hpp:77] Creating layer res3b_branch2a_relu
I0205 10:18:03.011160 12479 net.cpp:100] Creating Layer res3b_branch2a_relu
I0205 10:18:03.011165 12479 net.cpp:444] res3b_branch2a_relu <- res3b_branch2a
I0205 10:18:03.011176 12479 net.cpp:405] res3b_branch2a_relu -> res3b_branch2a (in-place)
I0205 10:18:03.011306 12479 net.cpp:150] Setting up res3b_branch2a_relu
I0205 10:18:03.011312 12479 net.cpp:157] Top shape: 1 128 75 125 (1200000)
I0205 10:18:03.011315 12479 net.cpp:165] Memory required for data: 1605600084
I0205 10:18:03.011319 12479 layer_factory.hpp:77] Creating layer res3b_branch2b
I0205 10:18:03.011332 12479 net.cpp:100] Creating Layer res3b_branch2b
I0205 10:18:03.011337 12479 net.cpp:444] res3b_branch2b <- res3b_branch2a
I0205 10:18:03.011349 12479 net.cpp:418] res3b_branch2b -> res3b_branch2b
I0205 10:18:03.012964 12479 cudnn_conv_layer.cpp:194] Reallocating workspace storage: 3145728
I0205 10:18:03.013164 12479 net.cpp:150] Setting up res3b_branch2b
I0205 10:18:03.013177 12479 net.cpp:157] Top shape: 1 128 75 125 (1200000)
I0205 10:18:03.013182 12479 net.cpp:165] Memory required for data: 1610400084
I0205 10:18:03.013197 12479 layer_factory.hpp:77] Creating layer bn3b_branch2b
I0205 10:18:03.013222 12479 net.cpp:100] Creating Layer bn3b_branch2b
I0205 10:18:03.013231 12479 net.cpp:444] bn3b_branch2b <- res3b_branch2b
I0205 10:18:03.013247 12479 net.cpp:405] bn3b_branch2b -> res3b_branch2b (in-place)
I0205 10:18:03.013419 12479 net.cpp:150] Setting up bn3b_branch2b
I0205 10:18:03.013427 12479 net.cpp:157] Top shape: 1 128 75 125 (1200000)
I0205 10:18:03.013430 12479 net.cpp:165] Memory required for data: 1615200084
I0205 10:18:03.013448 12479 layer_factory.hpp:77] Creating layer scale3b_branch2b
I0205 10:18:03.013463 12479 net.cpp:100] Creating Layer scale3b_branch2b
I0205 10:18:03.013469 12479 net.cpp:444] scale3b_branch2b <- res3b_branch2b
I0205 10:18:03.013485 12479 net.cpp:405] scale3b_branch2b -> res3b_branch2b (in-place)
I0205 10:18:03.013533 12479 layer_factory.hpp:77] Creating layer scale3b_branch2b
I0205 10:18:03.013669 12479 net.cpp:150] Setting up scale3b_branch2b
I0205 10:18:03.013679 12479 net.cpp:157] Top shape: 1 128 75 125 (1200000)
I0205 10:18:03.013681 12479 net.cpp:165] Memory required for data: 1620000084
I0205 10:18:03.013695 12479 layer_factory.hpp:77] Creating layer res3b_branch2b_relu
I0205 10:18:03.013706 12479 net.cpp:100] Creating Layer res3b_branch2b_relu
I0205 10:18:03.013712 12479 net.cpp:444] res3b_branch2b_relu <- res3b_branch2b
I0205 10:18:03.013727 12479 net.cpp:405] res3b_branch2b_relu -> res3b_branch2b (in-place)
I0205 10:18:03.013870 12479 net.cpp:150] Setting up res3b_branch2b_relu
I0205 10:18:03.013877 12479 net.cpp:157] Top shape: 1 128 75 125 (1200000)
I0205 10:18:03.013880 12479 net.cpp:165] Memory required for data: 1624800084
I0205 10:18:03.013887 12479 layer_factory.hpp:77] Creating layer res3b_branch2c
I0205 10:18:03.013905 12479 net.cpp:100] Creating Layer res3b_branch2c
I0205 10:18:03.013911 12479 net.cpp:444] res3b_branch2c <- res3b_branch2b
I0205 10:18:03.013928 12479 net.cpp:418] res3b_branch2c -> res3b_branch2c
I0205 10:18:03.014756 12479 cudnn_conv_layer.cpp:194] Reallocating workspace storage: 175296
I0205 10:18:03.014777 12479 net.cpp:150] Setting up res3b_branch2c
I0205 10:18:03.014786 12479 net.cpp:157] Top shape: 1 512 75 125 (4800000)
I0205 10:18:03.014791 12479 net.cpp:165] Memory required for data: 1644000084
I0205 10:18:03.014801 12479 layer_factory.hpp:77] Creating layer bn3b_branch2c
I0205 10:18:03.014816 12479 net.cpp:100] Creating Layer bn3b_branch2c
I0205 10:18:03.014823 12479 net.cpp:444] bn3b_branch2c <- res3b_branch2c
I0205 10:18:03.014839 12479 net.cpp:405] bn3b_branch2c -> res3b_branch2c (in-place)
I0205 10:18:03.015004 12479 net.cpp:150] Setting up bn3b_branch2c
I0205 10:18:03.015012 12479 net.cpp:157] Top shape: 1 512 75 125 (4800000)
I0205 10:18:03.015017 12479 net.cpp:165] Memory required for data: 1663200084
I0205 10:18:03.015034 12479 layer_factory.hpp:77] Creating layer scale3b_branch2c
I0205 10:18:03.015048 12479 net.cpp:100] Creating Layer scale3b_branch2c
I0205 10:18:03.015053 12479 net.cpp:444] scale3b_branch2c <- res3b_branch2c
I0205 10:18:03.015069 12479 net.cpp:405] scale3b_branch2c -> res3b_branch2c (in-place)
I0205 10:18:03.015113 12479 layer_factory.hpp:77] Creating layer scale3b_branch2c
I0205 10:18:03.015245 12479 net.cpp:150] Setting up scale3b_branch2c
I0205 10:18:03.015254 12479 net.cpp:157] Top shape: 1 512 75 125 (4800000)
I0205 10:18:03.015257 12479 net.cpp:165] Memory required for data: 1682400084
I0205 10:18:03.015271 12479 layer_factory.hpp:77] Creating layer res3b
I0205 10:18:03.015283 12479 net.cpp:100] Creating Layer res3b
I0205 10:18:03.015290 12479 net.cpp:444] res3b <- res3a_res3a_relu_0_split_1
I0205 10:18:03.015302 12479 net.cpp:444] res3b <- res3b_branch2c
I0205 10:18:03.015313 12479 net.cpp:418] res3b -> res3b
I0205 10:18:03.015347 12479 net.cpp:150] Setting up res3b
I0205 10:18:03.015357 12479 net.cpp:157] Top shape: 1 512 75 125 (4800000)
I0205 10:18:03.015360 12479 net.cpp:165] Memory required for data: 1701600084
I0205 10:18:03.015365 12479 layer_factory.hpp:77] Creating layer res3b_relu
I0205 10:18:03.015377 12479 net.cpp:100] Creating Layer res3b_relu
I0205 10:18:03.015383 12479 net.cpp:444] res3b_relu <- res3b
I0205 10:18:03.015396 12479 net.cpp:405] res3b_relu -> res3b (in-place)
I0205 10:18:03.015712 12479 net.cpp:150] Setting up res3b_relu
I0205 10:18:03.015720 12479 net.cpp:157] Top shape: 1 512 75 125 (4800000)
I0205 10:18:03.015724 12479 net.cpp:165] Memory required for data: 1720800084
I0205 10:18:03.015730 12479 layer_factory.hpp:77] Creating layer res3b_res3b_relu_0_split
I0205 10:18:03.015743 12479 net.cpp:100] Creating Layer res3b_res3b_relu_0_split
I0205 10:18:03.015750 12479 net.cpp:444] res3b_res3b_relu_0_split <- res3b
I0205 10:18:03.015764 12479 net.cpp:418] res3b_res3b_relu_0_split -> res3b_res3b_relu_0_split_0
I0205 10:18:03.015781 12479 net.cpp:418] res3b_res3b_relu_0_split -> res3b_res3b_relu_0_split_1
I0205 10:18:03.015823 12479 net.cpp:150] Setting up res3b_res3b_relu_0_split
I0205 10:18:03.015832 12479 net.cpp:157] Top shape: 1 512 75 125 (4800000)
I0205 10:18:03.015839 12479 net.cpp:157] Top shape: 1 512 75 125 (4800000)
I0205 10:18:03.015843 12479 net.cpp:165] Memory required for data: 1759200084
I0205 10:18:03.015848 12479 layer_factory.hpp:77] Creating layer res3c_branch2a
I0205 10:18:03.015864 12479 net.cpp:100] Creating Layer res3c_branch2a
I0205 10:18:03.015871 12479 net.cpp:444] res3c_branch2a <- res3b_res3b_relu_0_split_0
I0205 10:18:03.015887 12479 net.cpp:418] res3c_branch2a -> res3c_branch2a
I0205 10:18:03.016671 12479 cudnn_conv_layer.cpp:194] Reallocating workspace storage: 175296
I0205 10:18:03.016690 12479 net.cpp:150] Setting up res3c_branch2a
I0205 10:18:03.016700 12479 net.cpp:157] Top shape: 1 128 75 125 (1200000)
I0205 10:18:03.016702 12479 net.cpp:165] Memory required for data: 1764000084
I0205 10:18:03.016715 12479 layer_factory.hpp:77] Creating layer bn3c_branch2a
I0205 10:18:03.016731 12479 net.cpp:100] Creating Layer bn3c_branch2a
I0205 10:18:03.016737 12479 net.cpp:444] bn3c_branch2a <- res3c_branch2a
I0205 10:18:03.016753 12479 net.cpp:405] bn3c_branch2a -> res3c_branch2a (in-place)
I0205 10:18:03.016912 12479 net.cpp:150] Setting up bn3c_branch2a
I0205 10:18:03.016921 12479 net.cpp:157] Top shape: 1 128 75 125 (1200000)
I0205 10:18:03.016923 12479 net.cpp:165] Memory required for data: 1768800084
I0205 10:18:03.016942 12479 layer_factory.hpp:77] Creating layer scale3c_branch2a
I0205 10:18:03.016957 12479 net.cpp:100] Creating Layer scale3c_branch2a
I0205 10:18:03.016963 12479 net.cpp:444] scale3c_branch2a <- res3c_branch2a
I0205 10:18:03.016978 12479 net.cpp:405] scale3c_branch2a -> res3c_branch2a (in-place)
I0205 10:18:03.017025 12479 layer_factory.hpp:77] Creating layer scale3c_branch2a
I0205 10:18:03.017159 12479 net.cpp:150] Setting up scale3c_branch2a
I0205 10:18:03.017168 12479 net.cpp:157] Top shape: 1 128 75 125 (1200000)
I0205 10:18:03.017170 12479 net.cpp:165] Memory required for data: 1773600084
I0205 10:18:03.017184 12479 layer_factory.hpp:77] Creating layer res3c_branch2a_relu
I0205 10:18:03.017195 12479 net.cpp:100] Creating Layer res3c_branch2a_relu
I0205 10:18:03.017201 12479 net.cpp:444] res3c_branch2a_relu <- res3c_branch2a
I0205 10:18:03.017237 12479 net.cpp:405] res3c_branch2a_relu -> res3c_branch2a (in-place)
I0205 10:18:03.017366 12479 net.cpp:150] Setting up res3c_branch2a_relu
I0205 10:18:03.017374 12479 net.cpp:157] Top shape: 1 128 75 125 (1200000)
I0205 10:18:03.017377 12479 net.cpp:165] Memory required for data: 1778400084
I0205 10:18:03.017383 12479 layer_factory.hpp:77] Creating layer res3c_branch2b
I0205 10:18:03.017400 12479 net.cpp:100] Creating Layer res3c_branch2b
I0205 10:18:03.017405 12479 net.cpp:444] res3c_branch2b <- res3c_branch2a
I0205 10:18:03.017421 12479 net.cpp:418] res3c_branch2b -> res3c_branch2b
I0205 10:18:03.018321 12479 cudnn_conv_layer.cpp:194] Reallocating workspace storage: 3145728
I0205 10:18:03.018514 12479 net.cpp:150] Setting up res3c_branch2b
I0205 10:18:03.018525 12479 net.cpp:157] Top shape: 1 128 75 125 (1200000)
I0205 10:18:03.018529 12479 net.cpp:165] Memory required for data: 1783200084
I0205 10:18:03.018543 12479 layer_factory.hpp:77] Creating layer bn3c_branch2b
I0205 10:18:03.018558 12479 net.cpp:100] Creating Layer bn3c_branch2b
I0205 10:18:03.018564 12479 net.cpp:444] bn3c_branch2b <- res3c_branch2b
I0205 10:18:03.018579 12479 net.cpp:405] bn3c_branch2b -> res3c_branch2b (in-place)
I0205 10:18:03.018748 12479 net.cpp:150] Setting up bn3c_branch2b
I0205 10:18:03.018755 12479 net.cpp:157] Top shape: 1 128 75 125 (1200000)
I0205 10:18:03.018759 12479 net.cpp:165] Memory required for data: 1788000084
I0205 10:18:03.018777 12479 layer_factory.hpp:77] Creating layer scale3c_branch2b
I0205 10:18:03.018790 12479 net.cpp:100] Creating Layer scale3c_branch2b
I0205 10:18:03.018797 12479 net.cpp:444] scale3c_branch2b <- res3c_branch2b
I0205 10:18:03.018811 12479 net.cpp:405] scale3c_branch2b -> res3c_branch2b (in-place)
I0205 10:18:03.018863 12479 layer_factory.hpp:77] Creating layer scale3c_branch2b
I0205 10:18:03.018996 12479 net.cpp:150] Setting up scale3c_branch2b
I0205 10:18:03.019006 12479 net.cpp:157] Top shape: 1 128 75 125 (1200000)
I0205 10:18:03.019008 12479 net.cpp:165] Memory required for data: 1792800084
I0205 10:18:03.019022 12479 layer_factory.hpp:77] Creating layer res3c_branch2b_relu
I0205 10:18:03.019034 12479 net.cpp:100] Creating Layer res3c_branch2b_relu
I0205 10:18:03.019040 12479 net.cpp:444] res3c_branch2b_relu <- res3c_branch2b
I0205 10:18:03.019054 12479 net.cpp:405] res3c_branch2b_relu -> res3c_branch2b (in-place)
I0205 10:18:03.019189 12479 net.cpp:150] Setting up res3c_branch2b_relu
I0205 10:18:03.019198 12479 net.cpp:157] Top shape: 1 128 75 125 (1200000)
I0205 10:18:03.019202 12479 net.cpp:165] Memory required for data: 1797600084
I0205 10:18:03.019207 12479 layer_factory.hpp:77] Creating layer res3c_branch2c
I0205 10:18:03.019222 12479 net.cpp:100] Creating Layer res3c_branch2c
I0205 10:18:03.019228 12479 net.cpp:444] res3c_branch2c <- res3c_branch2b
I0205 10:18:03.019245 12479 net.cpp:418] res3c_branch2c -> res3c_branch2c
I0205 10:18:03.020550 12479 cudnn_conv_layer.cpp:194] Reallocating workspace storage: 175296
I0205 10:18:03.020572 12479 net.cpp:150] Setting up res3c_branch2c
I0205 10:18:03.020581 12479 net.cpp:157] Top shape: 1 512 75 125 (4800000)
I0205 10:18:03.020586 12479 net.cpp:165] Memory required for data: 1816800084
I0205 10:18:03.020597 12479 layer_factory.hpp:77] Creating layer bn3c_branch2c
I0205 10:18:03.020613 12479 net.cpp:100] Creating Layer bn3c_branch2c
I0205 10:18:03.020620 12479 net.cpp:444] bn3c_branch2c <- res3c_branch2c
I0205 10:18:03.020635 12479 net.cpp:405] bn3c_branch2c -> res3c_branch2c (in-place)
I0205 10:18:03.020804 12479 net.cpp:150] Setting up bn3c_branch2c
I0205 10:18:03.020812 12479 net.cpp:157] Top shape: 1 512 75 125 (4800000)
I0205 10:18:03.020815 12479 net.cpp:165] Memory required for data: 1836000084
I0205 10:18:03.020834 12479 layer_factory.hpp:77] Creating layer scale3c_branch2c
I0205 10:18:03.020848 12479 net.cpp:100] Creating Layer scale3c_branch2c
I0205 10:18:03.020854 12479 net.cpp:444] scale3c_branch2c <- res3c_branch2c
I0205 10:18:03.020869 12479 net.cpp:405] scale3c_branch2c -> res3c_branch2c (in-place)
I0205 10:18:03.020915 12479 layer_factory.hpp:77] Creating layer scale3c_branch2c
I0205 10:18:03.021051 12479 net.cpp:150] Setting up scale3c_branch2c
I0205 10:18:03.021060 12479 net.cpp:157] Top shape: 1 512 75 125 (4800000)
I0205 10:18:03.021064 12479 net.cpp:165] Memory required for data: 1855200084
I0205 10:18:03.021077 12479 layer_factory.hpp:77] Creating layer res3c
I0205 10:18:03.021088 12479 net.cpp:100] Creating Layer res3c
I0205 10:18:03.021095 12479 net.cpp:444] res3c <- res3b_res3b_relu_0_split_1
I0205 10:18:03.021106 12479 net.cpp:444] res3c <- res3c_branch2c
I0205 10:18:03.021119 12479 net.cpp:418] res3c -> res3c
I0205 10:18:03.021154 12479 net.cpp:150] Setting up res3c
I0205 10:18:03.021163 12479 net.cpp:157] Top shape: 1 512 75 125 (4800000)
I0205 10:18:03.021167 12479 net.cpp:165] Memory required for data: 1874400084
I0205 10:18:03.021173 12479 layer_factory.hpp:77] Creating layer res3c_relu
I0205 10:18:03.021183 12479 net.cpp:100] Creating Layer res3c_relu
I0205 10:18:03.021189 12479 net.cpp:444] res3c_relu <- res3c
I0205 10:18:03.021203 12479 net.cpp:405] res3c_relu -> res3c (in-place)
I0205 10:18:03.021340 12479 net.cpp:150] Setting up res3c_relu
I0205 10:18:03.021348 12479 net.cpp:157] Top shape: 1 512 75 125 (4800000)
I0205 10:18:03.021351 12479 net.cpp:165] Memory required for data: 1893600084
I0205 10:18:03.021358 12479 layer_factory.hpp:77] Creating layer res3c_res3c_relu_0_split
I0205 10:18:03.021369 12479 net.cpp:100] Creating Layer res3c_res3c_relu_0_split
I0205 10:18:03.021375 12479 net.cpp:444] res3c_res3c_relu_0_split <- res3c
I0205 10:18:03.021390 12479 net.cpp:418] res3c_res3c_relu_0_split -> res3c_res3c_relu_0_split_0
I0205 10:18:03.021406 12479 net.cpp:418] res3c_res3c_relu_0_split -> res3c_res3c_relu_0_split_1
I0205 10:18:03.021447 12479 net.cpp:150] Setting up res3c_res3c_relu_0_split
I0205 10:18:03.021456 12479 net.cpp:157] Top shape: 1 512 75 125 (4800000)
I0205 10:18:03.021462 12479 net.cpp:157] Top shape: 1 512 75 125 (4800000)
I0205 10:18:03.021466 12479 net.cpp:165] Memory required for data: 1932000084
I0205 10:18:03.021471 12479 layer_factory.hpp:77] Creating layer res3d_branch2a
I0205 10:18:03.021487 12479 net.cpp:100] Creating Layer res3d_branch2a
I0205 10:18:03.021493 12479 net.cpp:444] res3d_branch2a <- res3c_res3c_relu_0_split_0
I0205 10:18:03.021509 12479 net.cpp:418] res3d_branch2a -> res3d_branch2a
I0205 10:18:03.022301 12479 cudnn_conv_layer.cpp:194] Reallocating workspace storage: 175296
I0205 10:18:03.022321 12479 net.cpp:150] Setting up res3d_branch2a
I0205 10:18:03.022330 12479 net.cpp:157] Top shape: 1 128 75 125 (1200000)
I0205 10:18:03.022334 12479 net.cpp:165] Memory required for data: 1936800084
I0205 10:18:03.022346 12479 layer_factory.hpp:77] Creating layer bn3d_branch2a
I0205 10:18:03.022361 12479 net.cpp:100] Creating Layer bn3d_branch2a
I0205 10:18:03.022367 12479 net.cpp:444] bn3d_branch2a <- res3d_branch2a
I0205 10:18:03.022382 12479 net.cpp:405] bn3d_branch2a -> res3d_branch2a (in-place)
I0205 10:18:03.022547 12479 net.cpp:150] Setting up bn3d_branch2a
I0205 10:18:03.022554 12479 net.cpp:157] Top shape: 1 128 75 125 (1200000)
I0205 10:18:03.022558 12479 net.cpp:165] Memory required for data: 1941600084
I0205 10:18:03.022598 12479 layer_factory.hpp:77] Creating layer scale3d_branch2a
I0205 10:18:03.022615 12479 net.cpp:100] Creating Layer scale3d_branch2a
I0205 10:18:03.022621 12479 net.cpp:444] scale3d_branch2a <- res3d_branch2a
I0205 10:18:03.022635 12479 net.cpp:405] scale3d_branch2a -> res3d_branch2a (in-place)
I0205 10:18:03.022686 12479 layer_factory.hpp:77] Creating layer scale3d_branch2a
I0205 10:18:03.022819 12479 net.cpp:150] Setting up scale3d_branch2a
I0205 10:18:03.022827 12479 net.cpp:157] Top shape: 1 128 75 125 (1200000)
I0205 10:18:03.022831 12479 net.cpp:165] Memory required for data: 1946400084
I0205 10:18:03.022843 12479 layer_factory.hpp:77] Creating layer res3d_branch2a_relu
I0205 10:18:03.022855 12479 net.cpp:100] Creating Layer res3d_branch2a_relu
I0205 10:18:03.022861 12479 net.cpp:444] res3d_branch2a_relu <- res3d_branch2a
I0205 10:18:03.022874 12479 net.cpp:405] res3d_branch2a_relu -> res3d_branch2a (in-place)
I0205 10:18:03.023192 12479 net.cpp:150] Setting up res3d_branch2a_relu
I0205 10:18:03.023203 12479 net.cpp:157] Top shape: 1 128 75 125 (1200000)
I0205 10:18:03.023208 12479 net.cpp:165] Memory required for data: 1951200084
I0205 10:18:03.023214 12479 layer_factory.hpp:77] Creating layer res3d_branch2b
I0205 10:18:03.023231 12479 net.cpp:100] Creating Layer res3d_branch2b
I0205 10:18:03.023237 12479 net.cpp:444] res3d_branch2b <- res3d_branch2a
I0205 10:18:03.023253 12479 net.cpp:418] res3d_branch2b -> res3d_branch2b
I0205 10:18:03.024160 12479 cudnn_conv_layer.cpp:194] Reallocating workspace storage: 3145728
I0205 10:18:03.024353 12479 net.cpp:150] Setting up res3d_branch2b
I0205 10:18:03.024365 12479 net.cpp:157] Top shape: 1 128 75 125 (1200000)
I0205 10:18:03.024369 12479 net.cpp:165] Memory required for data: 1956000084
I0205 10:18:03.024382 12479 layer_factory.hpp:77] Creating layer bn3d_branch2b
I0205 10:18:03.024397 12479 net.cpp:100] Creating Layer bn3d_branch2b
I0205 10:18:03.024405 12479 net.cpp:444] bn3d_branch2b <- res3d_branch2b
I0205 10:18:03.024420 12479 net.cpp:405] bn3d_branch2b -> res3d_branch2b (in-place)
I0205 10:18:03.024590 12479 net.cpp:150] Setting up bn3d_branch2b
I0205 10:18:03.024597 12479 net.cpp:157] Top shape: 1 128 75 125 (1200000)
I0205 10:18:03.024601 12479 net.cpp:165] Memory required for data: 1960800084
I0205 10:18:03.024619 12479 layer_factory.hpp:77] Creating layer scale3d_branch2b
I0205 10:18:03.024634 12479 net.cpp:100] Creating Layer scale3d_branch2b
I0205 10:18:03.024641 12479 net.cpp:444] scale3d_branch2b <- res3d_branch2b
I0205 10:18:03.024654 12479 net.cpp:405] scale3d_branch2b -> res3d_branch2b (in-place)
I0205 10:18:03.024703 12479 layer_factory.hpp:77] Creating layer scale3d_branch2b
I0205 10:18:03.024838 12479 net.cpp:150] Setting up scale3d_branch2b
I0205 10:18:03.024847 12479 net.cpp:157] Top shape: 1 128 75 125 (1200000)
I0205 10:18:03.024850 12479 net.cpp:165] Memory required for data: 1965600084
I0205 10:18:03.024863 12479 layer_factory.hpp:77] Creating layer res3d_branch2b_relu
I0205 10:18:03.024874 12479 net.cpp:100] Creating Layer res3d_branch2b_relu
I0205 10:18:03.024880 12479 net.cpp:444] res3d_branch2b_relu <- res3d_branch2b
I0205 10:18:03.024895 12479 net.cpp:405] res3d_branch2b_relu -> res3d_branch2b (in-place)
I0205 10:18:03.025029 12479 net.cpp:150] Setting up res3d_branch2b_relu
I0205 10:18:03.025038 12479 net.cpp:157] Top shape: 1 128 75 125 (1200000)
I0205 10:18:03.025040 12479 net.cpp:165] Memory required for data: 1970400084
I0205 10:18:03.025048 12479 layer_factory.hpp:77] Creating layer res3d_branch2c
I0205 10:18:03.025063 12479 net.cpp:100] Creating Layer res3d_branch2c
I0205 10:18:03.025069 12479 net.cpp:444] res3d_branch2c <- res3d_branch2b
I0205 10:18:03.025086 12479 net.cpp:418] res3d_branch2c -> res3d_branch2c
I0205 10:18:03.025904 12479 cudnn_conv_layer.cpp:194] Reallocating workspace storage: 175296
I0205 10:18:03.025923 12479 net.cpp:150] Setting up res3d_branch2c
I0205 10:18:03.025931 12479 net.cpp:157] Top shape: 1 512 75 125 (4800000)
I0205 10:18:03.025935 12479 net.cpp:165] Memory required for data: 1989600084
I0205 10:18:03.025948 12479 layer_factory.hpp:77] Creating layer bn3d_branch2c
I0205 10:18:03.025961 12479 net.cpp:100] Creating Layer bn3d_branch2c
I0205 10:18:03.025969 12479 net.cpp:444] bn3d_branch2c <- res3d_branch2c
I0205 10:18:03.025985 12479 net.cpp:405] bn3d_branch2c -> res3d_branch2c (in-place)
I0205 10:18:03.026151 12479 net.cpp:150] Setting up bn3d_branch2c
I0205 10:18:03.026160 12479 net.cpp:157] Top shape: 1 512 75 125 (4800000)
I0205 10:18:03.026162 12479 net.cpp:165] Memory required for data: 2008800084
I0205 10:18:03.026180 12479 layer_factory.hpp:77] Creating layer scale3d_branch2c
I0205 10:18:03.026196 12479 net.cpp:100] Creating Layer scale3d_branch2c
I0205 10:18:03.026202 12479 net.cpp:444] scale3d_branch2c <- res3d_branch2c
I0205 10:18:03.026216 12479 net.cpp:405] scale3d_branch2c -> res3d_branch2c (in-place)
I0205 10:18:03.026260 12479 layer_factory.hpp:77] Creating layer scale3d_branch2c
I0205 10:18:03.026403 12479 net.cpp:150] Setting up scale3d_branch2c
I0205 10:18:03.026412 12479 net.cpp:157] Top shape: 1 512 75 125 (4800000)
I0205 10:18:03.026415 12479 net.cpp:165] Memory required for data: 2028000084
I0205 10:18:03.026430 12479 layer_factory.hpp:77] Creating layer res3d
I0205 10:18:03.026441 12479 net.cpp:100] Creating Layer res3d
I0205 10:18:03.026448 12479 net.cpp:444] res3d <- res3c_res3c_relu_0_split_1
I0205 10:18:03.026460 12479 net.cpp:444] res3d <- res3d_branch2c
I0205 10:18:03.026473 12479 net.cpp:418] res3d -> res3d
I0205 10:18:03.026504 12479 net.cpp:150] Setting up res3d
I0205 10:18:03.026515 12479 net.cpp:157] Top shape: 1 512 75 125 (4800000)
I0205 10:18:03.026518 12479 net.cpp:165] Memory required for data: 2047200084
I0205 10:18:03.026523 12479 layer_factory.hpp:77] Creating layer res3d_relu
I0205 10:18:03.026533 12479 net.cpp:100] Creating Layer res3d_relu
I0205 10:18:03.026540 12479 net.cpp:444] res3d_relu <- res3d
I0205 10:18:03.026552 12479 net.cpp:405] res3d_relu -> res3d (in-place)
I0205 10:18:03.026681 12479 net.cpp:150] Setting up res3d_relu
I0205 10:18:03.026690 12479 net.cpp:157] Top shape: 1 512 75 125 (4800000)
I0205 10:18:03.026693 12479 net.cpp:165] Memory required for data: 2066400084
I0205 10:18:03.026700 12479 layer_factory.hpp:77] Creating layer res3d_res3d_relu_0_split
I0205 10:18:03.026711 12479 net.cpp:100] Creating Layer res3d_res3d_relu_0_split
I0205 10:18:03.026717 12479 net.cpp:444] res3d_res3d_relu_0_split <- res3d
I0205 10:18:03.026732 12479 net.cpp:418] res3d_res3d_relu_0_split -> res3d_res3d_relu_0_split_0
I0205 10:18:03.026748 12479 net.cpp:418] res3d_res3d_relu_0_split -> res3d_res3d_relu_0_split_1
I0205 10:18:03.026788 12479 net.cpp:150] Setting up res3d_res3d_relu_0_split
I0205 10:18:03.026798 12479 net.cpp:157] Top shape: 1 512 75 125 (4800000)
I0205 10:18:03.026804 12479 net.cpp:157] Top shape: 1 512 75 125 (4800000)
I0205 10:18:03.026808 12479 net.cpp:165] Memory required for data: 2104800084
I0205 10:18:03.026813 12479 layer_factory.hpp:77] Creating layer res4a_branch1
I0205 10:18:03.026827 12479 net.cpp:100] Creating Layer res4a_branch1
I0205 10:18:03.026834 12479 net.cpp:444] res4a_branch1 <- res3d_res3d_relu_0_split_0
I0205 10:18:03.026850 12479 net.cpp:418] res4a_branch1 -> res4a_branch1
I0205 10:18:03.028717 12479 cudnn_conv_layer.cpp:194] Reallocating workspace storage: 43116
I0205 10:18:03.028731 12479 net.cpp:150] Setting up res4a_branch1
I0205 10:18:03.028743 12479 net.cpp:157] Top shape: 1 1024 38 63 (2451456)
I0205 10:18:03.028746 12479 net.cpp:165] Memory required for data: 2114605908
I0205 10:18:03.028759 12479 layer_factory.hpp:77] Creating layer bn4a_branch1
I0205 10:18:03.028774 12479 net.cpp:100] Creating Layer bn4a_branch1
I0205 10:18:03.028780 12479 net.cpp:444] bn4a_branch1 <- res4a_branch1
I0205 10:18:03.028796 12479 net.cpp:405] bn4a_branch1 -> res4a_branch1 (in-place)
I0205 10:18:03.028954 12479 net.cpp:150] Setting up bn4a_branch1
I0205 10:18:03.028961 12479 net.cpp:157] Top shape: 1 1024 38 63 (2451456)
I0205 10:18:03.028965 12479 net.cpp:165] Memory required for data: 2124411732
I0205 10:18:03.028983 12479 layer_factory.hpp:77] Creating layer scale4a_branch1
I0205 10:18:03.028997 12479 net.cpp:100] Creating Layer scale4a_branch1
I0205 10:18:03.029003 12479 net.cpp:444] scale4a_branch1 <- res4a_branch1
I0205 10:18:03.029017 12479 net.cpp:405] scale4a_branch1 -> res4a_branch1 (in-place)
I0205 10:18:03.029063 12479 layer_factory.hpp:77] Creating layer scale4a_branch1
I0205 10:18:03.029184 12479 net.cpp:150] Setting up scale4a_branch1
I0205 10:18:03.029192 12479 net.cpp:157] Top shape: 1 1024 38 63 (2451456)
I0205 10:18:03.029196 12479 net.cpp:165] Memory required for data: 2134217556
I0205 10:18:03.029215 12479 layer_factory.hpp:77] Creating layer res4a_branch2a
I0205 10:18:03.029233 12479 net.cpp:100] Creating Layer res4a_branch2a
I0205 10:18:03.029240 12479 net.cpp:444] res4a_branch2a <- res3d_res3d_relu_0_split_1
I0205 10:18:03.029258 12479 net.cpp:418] res4a_branch2a -> res4a_branch2a
I0205 10:18:03.030649 12479 cudnn_conv_layer.cpp:194] Reallocating workspace storage: 43116
I0205 10:18:03.030668 12479 net.cpp:150] Setting up res4a_branch2a
I0205 10:18:03.030678 12479 net.cpp:157] Top shape: 1 256 38 63 (612864)
I0205 10:18:03.030680 12479 net.cpp:165] Memory required for data: 2136669012
I0205 10:18:03.030692 12479 layer_factory.hpp:77] Creating layer bn4a_branch2a
I0205 10:18:03.030706 12479 net.cpp:100] Creating Layer bn4a_branch2a
I0205 10:18:03.030714 12479 net.cpp:444] bn4a_branch2a <- res4a_branch2a
I0205 10:18:03.030730 12479 net.cpp:405] bn4a_branch2a -> res4a_branch2a (in-place)
I0205 10:18:03.030889 12479 net.cpp:150] Setting up bn4a_branch2a
I0205 10:18:03.030896 12479 net.cpp:157] Top shape: 1 256 38 63 (612864)
I0205 10:18:03.030900 12479 net.cpp:165] Memory required for data: 2139120468
I0205 10:18:03.030918 12479 layer_factory.hpp:77] Creating layer scale4a_branch2a
I0205 10:18:03.030932 12479 net.cpp:100] Creating Layer scale4a_branch2a
I0205 10:18:03.030939 12479 net.cpp:444] scale4a_branch2a <- res4a_branch2a
I0205 10:18:03.030954 12479 net.cpp:405] scale4a_branch2a -> res4a_branch2a (in-place)
I0205 10:18:03.031002 12479 layer_factory.hpp:77] Creating layer scale4a_branch2a
I0205 10:18:03.031118 12479 net.cpp:150] Setting up scale4a_branch2a
I0205 10:18:03.031127 12479 net.cpp:157] Top shape: 1 256 38 63 (612864)
I0205 10:18:03.031131 12479 net.cpp:165] Memory required for data: 2141571924
I0205 10:18:03.031143 12479 layer_factory.hpp:77] Creating layer res4a_branch2a_relu
I0205 10:18:03.031155 12479 net.cpp:100] Creating Layer res4a_branch2a_relu
I0205 10:18:03.031162 12479 net.cpp:444] res4a_branch2a_relu <- res4a_branch2a
I0205 10:18:03.031175 12479 net.cpp:405] res4a_branch2a_relu -> res4a_branch2a (in-place)
I0205 10:18:03.031502 12479 net.cpp:150] Setting up res4a_branch2a_relu
I0205 10:18:03.031512 12479 net.cpp:157] Top shape: 1 256 38 63 (612864)
I0205 10:18:03.031515 12479 net.cpp:165] Memory required for data: 2144023380
I0205 10:18:03.031522 12479 layer_factory.hpp:77] Creating layer res4a_branch2b
I0205 10:18:03.031538 12479 net.cpp:100] Creating Layer res4a_branch2b
I0205 10:18:03.031545 12479 net.cpp:444] res4a_branch2b <- res4a_branch2a
I0205 10:18:03.031563 12479 net.cpp:418] res4a_branch2b -> res4a_branch2b
I0205 10:18:03.033586 12479 cudnn_conv_layer.cpp:194] Reallocating workspace storage: 12582912
I0205 10:18:03.033789 12479 net.cpp:150] Setting up res4a_branch2b
I0205 10:18:03.033803 12479 net.cpp:157] Top shape: 1 256 38 63 (612864)
I0205 10:18:03.033807 12479 net.cpp:165] Memory required for data: 2146474836
I0205 10:18:03.033820 12479 layer_factory.hpp:77] Creating layer bn4a_branch2b
I0205 10:18:03.033838 12479 net.cpp:100] Creating Layer bn4a_branch2b
I0205 10:18:03.033844 12479 net.cpp:444] bn4a_branch2b <- res4a_branch2b
I0205 10:18:03.033859 12479 net.cpp:405] bn4a_branch2b -> res4a_branch2b (in-place)
I0205 10:18:03.034027 12479 net.cpp:150] Setting up bn4a_branch2b
I0205 10:18:03.034035 12479 net.cpp:157] Top shape: 1 256 38 63 (612864)
I0205 10:18:03.034039 12479 net.cpp:165] Memory required for data: 2148926292
I0205 10:18:03.034056 12479 layer_factory.hpp:77] Creating layer scale4a_branch2b
I0205 10:18:03.034071 12479 net.cpp:100] Creating Layer scale4a_branch2b
I0205 10:18:03.034078 12479 net.cpp:444] scale4a_branch2b <- res4a_branch2b
I0205 10:18:03.034093 12479 net.cpp:405] scale4a_branch2b -> res4a_branch2b (in-place)
I0205 10:18:03.034144 12479 layer_factory.hpp:77] Creating layer scale4a_branch2b
I0205 10:18:03.034262 12479 net.cpp:150] Setting up scale4a_branch2b
I0205 10:18:03.034271 12479 net.cpp:157] Top shape: 1 256 38 63 (612864)
I0205 10:18:03.034273 12479 net.cpp:165] Memory required for data: 2151377748
I0205 10:18:03.034286 12479 layer_factory.hpp:77] Creating layer res4a_branch2b_relu
I0205 10:18:03.034297 12479 net.cpp:100] Creating Layer res4a_branch2b_relu
I0205 10:18:03.034303 12479 net.cpp:444] res4a_branch2b_relu <- res4a_branch2b
I0205 10:18:03.034317 12479 net.cpp:405] res4a_branch2b_relu -> res4a_branch2b (in-place)
I0205 10:18:03.034468 12479 net.cpp:150] Setting up res4a_branch2b_relu
I0205 10:18:03.034476 12479 net.cpp:157] Top shape: 1 256 38 63 (612864)
I0205 10:18:03.034481 12479 net.cpp:165] Memory required for data: 2153829204
I0205 10:18:03.034487 12479 layer_factory.hpp:77] Creating layer res4a_branch2c
I0205 10:18:03.034502 12479 net.cpp:100] Creating Layer res4a_branch2c
I0205 10:18:03.034508 12479 net.cpp:444] res4a_branch2c <- res4a_branch2b
I0205 10:18:03.034525 12479 net.cpp:418] res4a_branch2c -> res4a_branch2c
I0205 10:18:03.035606 12479 cudnn_conv_layer.cpp:194] Reallocating workspace storage: 49644
I0205 10:18:03.035621 12479 net.cpp:150] Setting up res4a_branch2c
I0205 10:18:03.035631 12479 net.cpp:157] Top shape: 1 1024 38 63 (2451456)
I0205 10:18:03.035635 12479 net.cpp:165] Memory required for data: 2163635028
I0205 10:18:03.035646 12479 layer_factory.hpp:77] Creating layer bn4a_branch2c
I0205 10:18:03.035661 12479 net.cpp:100] Creating Layer bn4a_branch2c
I0205 10:18:03.035668 12479 net.cpp:444] bn4a_branch2c <- res4a_branch2c
I0205 10:18:03.035683 12479 net.cpp:405] bn4a_branch2c -> res4a_branch2c (in-place)
I0205 10:18:03.035848 12479 net.cpp:150] Setting up bn4a_branch2c
I0205 10:18:03.035856 12479 net.cpp:157] Top shape: 1 1024 38 63 (2451456)
I0205 10:18:03.035861 12479 net.cpp:165] Memory required for data: 2173440852
I0205 10:18:03.035878 12479 layer_factory.hpp:77] Creating layer scale4a_branch2c
I0205 10:18:03.035892 12479 net.cpp:100] Creating Layer scale4a_branch2c
I0205 10:18:03.035898 12479 net.cpp:444] scale4a_branch2c <- res4a_branch2c
I0205 10:18:03.035913 12479 net.cpp:405] scale4a_branch2c -> res4a_branch2c (in-place)
I0205 10:18:03.035959 12479 layer_factory.hpp:77] Creating layer scale4a_branch2c
I0205 10:18:03.036079 12479 net.cpp:150] Setting up scale4a_branch2c
I0205 10:18:03.036087 12479 net.cpp:157] Top shape: 1 1024 38 63 (2451456)
I0205 10:18:03.036092 12479 net.cpp:165] Memory required for data: 2183246676
I0205 10:18:03.036105 12479 layer_factory.hpp:77] Creating layer res4a
I0205 10:18:03.036130 12479 net.cpp:100] Creating Layer res4a
I0205 10:18:03.036137 12479 net.cpp:444] res4a <- res4a_branch1
I0205 10:18:03.036149 12479 net.cpp:444] res4a <- res4a_branch2c
I0205 10:18:03.036160 12479 net.cpp:418] res4a -> res4a
I0205 10:18:03.036195 12479 net.cpp:150] Setting up res4a
I0205 10:18:03.036204 12479 net.cpp:157] Top shape: 1 1024 38 63 (2451456)
I0205 10:18:03.036208 12479 net.cpp:165] Memory required for data: 2193052500
I0205 10:18:03.036216 12479 layer_factory.hpp:77] Creating layer res4a_relu
I0205 10:18:03.036226 12479 net.cpp:100] Creating Layer res4a_relu
I0205 10:18:03.036232 12479 net.cpp:444] res4a_relu <- res4a
I0205 10:18:03.036244 12479 net.cpp:405] res4a_relu -> res4a (in-place)
I0205 10:18:03.036386 12479 net.cpp:150] Setting up res4a_relu
I0205 10:18:03.036394 12479 net.cpp:157] Top shape: 1 1024 38 63 (2451456)
I0205 10:18:03.036398 12479 net.cpp:165] Memory required for data: 2202858324
I0205 10:18:03.036404 12479 layer_factory.hpp:77] Creating layer res4a_res4a_relu_0_split
I0205 10:18:03.036417 12479 net.cpp:100] Creating Layer res4a_res4a_relu_0_split
I0205 10:18:03.036422 12479 net.cpp:444] res4a_res4a_relu_0_split <- res4a
I0205 10:18:03.036437 12479 net.cpp:418] res4a_res4a_relu_0_split -> res4a_res4a_relu_0_split_0
I0205 10:18:03.036453 12479 net.cpp:418] res4a_res4a_relu_0_split -> res4a_res4a_relu_0_split_1
I0205 10:18:03.036494 12479 net.cpp:150] Setting up res4a_res4a_relu_0_split
I0205 10:18:03.036504 12479 net.cpp:157] Top shape: 1 1024 38 63 (2451456)
I0205 10:18:03.036509 12479 net.cpp:157] Top shape: 1 1024 38 63 (2451456)
I0205 10:18:03.036514 12479 net.cpp:165] Memory required for data: 2222469972
I0205 10:18:03.036520 12479 layer_factory.hpp:77] Creating layer res4b_branch2a
I0205 10:18:03.036535 12479 net.cpp:100] Creating Layer res4b_branch2a
I0205 10:18:03.036541 12479 net.cpp:444] res4b_branch2a <- res4a_res4a_relu_0_split_0
I0205 10:18:03.036558 12479 net.cpp:418] res4b_branch2a -> res4b_branch2a
I0205 10:18:03.038151 12479 cudnn_conv_layer.cpp:194] Reallocating workspace storage: 49644
I0205 10:18:03.038168 12479 net.cpp:150] Setting up res4b_branch2a
I0205 10:18:03.038179 12479 net.cpp:157] Top shape: 1 256 38 63 (612864)
I0205 10:18:03.038183 12479 net.cpp:165] Memory required for data: 2224921428
I0205 10:18:03.038195 12479 layer_factory.hpp:77] Creating layer bn4b_branch2a
I0205 10:18:03.038211 12479 net.cpp:100] Creating Layer bn4b_branch2a
I0205 10:18:03.038218 12479 net.cpp:444] bn4b_branch2a <- res4b_branch2a
I0205 10:18:03.038234 12479 net.cpp:405] bn4b_branch2a -> res4b_branch2a (in-place)
I0205 10:18:03.038398 12479 net.cpp:150] Setting up bn4b_branch2a
I0205 10:18:03.038406 12479 net.cpp:157] Top shape: 1 256 38 63 (612864)
I0205 10:18:03.038409 12479 net.cpp:165] Memory required for data: 2227372884
I0205 10:18:03.038427 12479 layer_factory.hpp:77] Creating layer scale4b_branch2a
I0205 10:18:03.038441 12479 net.cpp:100] Creating Layer scale4b_branch2a
I0205 10:18:03.038449 12479 net.cpp:444] scale4b_branch2a <- res4b_branch2a
I0205 10:18:03.038462 12479 net.cpp:405] scale4b_branch2a -> res4b_branch2a (in-place)
I0205 10:18:03.038511 12479 layer_factory.hpp:77] Creating layer scale4b_branch2a
I0205 10:18:03.038628 12479 net.cpp:150] Setting up scale4b_branch2a
I0205 10:18:03.038636 12479 net.cpp:157] Top shape: 1 256 38 63 (612864)
I0205 10:18:03.038640 12479 net.cpp:165] Memory required for data: 2229824340
I0205 10:18:03.038653 12479 layer_factory.hpp:77] Creating layer res4b_branch2a_relu
I0205 10:18:03.038666 12479 net.cpp:100] Creating Layer res4b_branch2a_relu
I0205 10:18:03.038672 12479 net.cpp:444] res4b_branch2a_relu <- res4b_branch2a
I0205 10:18:03.038686 12479 net.cpp:405] res4b_branch2a_relu -> res4b_branch2a (in-place)
I0205 10:18:03.039017 12479 net.cpp:150] Setting up res4b_branch2a_relu
I0205 10:18:03.039027 12479 net.cpp:157] Top shape: 1 256 38 63 (612864)
I0205 10:18:03.039031 12479 net.cpp:165] Memory required for data: 2232275796
I0205 10:18:03.039036 12479 layer_factory.hpp:77] Creating layer res4b_branch2b
I0205 10:18:03.039053 12479 net.cpp:100] Creating Layer res4b_branch2b
I0205 10:18:03.039060 12479 net.cpp:444] res4b_branch2b <- res4b_branch2a
I0205 10:18:03.039077 12479 net.cpp:418] res4b_branch2b -> res4b_branch2b
I0205 10:18:03.041110 12479 cudnn_conv_layer.cpp:194] Reallocating workspace storage: 12582912
I0205 10:18:03.041321 12479 net.cpp:150] Setting up res4b_branch2b
I0205 10:18:03.041334 12479 net.cpp:157] Top shape: 1 256 38 63 (612864)
I0205 10:18:03.041338 12479 net.cpp:165] Memory required for data: 2234727252
I0205 10:18:03.041352 12479 layer_factory.hpp:77] Creating layer bn4b_branch2b
I0205 10:18:03.041368 12479 net.cpp:100] Creating Layer bn4b_branch2b
I0205 10:18:03.041376 12479 net.cpp:444] bn4b_branch2b <- res4b_branch2b
I0205 10:18:03.041391 12479 net.cpp:405] bn4b_branch2b -> res4b_branch2b (in-place)
I0205 10:18:03.041563 12479 net.cpp:150] Setting up bn4b_branch2b
I0205 10:18:03.041571 12479 net.cpp:157] Top shape: 1 256 38 63 (612864)
I0205 10:18:03.041575 12479 net.cpp:165] Memory required for data: 2237178708
I0205 10:18:03.041592 12479 layer_factory.hpp:77] Creating layer scale4b_branch2b
I0205 10:18:03.041606 12479 net.cpp:100] Creating Layer scale4b_branch2b
I0205 10:18:03.041613 12479 net.cpp:444] scale4b_branch2b <- res4b_branch2b
I0205 10:18:03.041627 12479 net.cpp:405] scale4b_branch2b -> res4b_branch2b (in-place)
I0205 10:18:03.041678 12479 layer_factory.hpp:77] Creating layer scale4b_branch2b
I0205 10:18:03.041798 12479 net.cpp:150] Setting up scale4b_branch2b
I0205 10:18:03.041807 12479 net.cpp:157] Top shape: 1 256 38 63 (612864)
I0205 10:18:03.041810 12479 net.cpp:165] Memory required for data: 2239630164
I0205 10:18:03.041823 12479 layer_factory.hpp:77] Creating layer res4b_branch2b_relu
I0205 10:18:03.041836 12479 net.cpp:100] Creating Layer res4b_branch2b_relu
I0205 10:18:03.041842 12479 net.cpp:444] res4b_branch2b_relu <- res4b_branch2b
I0205 10:18:03.041856 12479 net.cpp:405] res4b_branch2b_relu -> res4b_branch2b (in-place)
I0205 10:18:03.041992 12479 net.cpp:150] Setting up res4b_branch2b_relu
I0205 10:18:03.042001 12479 net.cpp:157] Top shape: 1 256 38 63 (612864)
I0205 10:18:03.042006 12479 net.cpp:165] Memory required for data: 2242081620
I0205 10:18:03.042011 12479 layer_factory.hpp:77] Creating layer res4b_branch2c
I0205 10:18:03.042026 12479 net.cpp:100] Creating Layer res4b_branch2c
I0205 10:18:03.042032 12479 net.cpp:444] res4b_branch2c <- res4b_branch2b
I0205 10:18:03.042048 12479 net.cpp:418] res4b_branch2c -> res4b_branch2c
I0205 10:18:03.043146 12479 cudnn_conv_layer.cpp:194] Reallocating workspace storage: 49644
I0205 10:18:03.043354 12479 net.cpp:150] Setting up res4b_branch2c
I0205 10:18:03.043365 12479 net.cpp:157] Top shape: 1 1024 38 63 (2451456)
I0205 10:18:03.043370 12479 net.cpp:165] Memory required for data: 2251887444
I0205 10:18:03.043382 12479 layer_factory.hpp:77] Creating layer bn4b_branch2c
I0205 10:18:03.043398 12479 net.cpp:100] Creating Layer bn4b_branch2c
I0205 10:18:03.043406 12479 net.cpp:444] bn4b_branch2c <- res4b_branch2c
I0205 10:18:03.043421 12479 net.cpp:405] bn4b_branch2c -> res4b_branch2c (in-place)
I0205 10:18:03.043592 12479 net.cpp:150] Setting up bn4b_branch2c
I0205 10:18:03.043599 12479 net.cpp:157] Top shape: 1 1024 38 63 (2451456)
I0205 10:18:03.043603 12479 net.cpp:165] Memory required for data: 2261693268
I0205 10:18:03.043620 12479 layer_factory.hpp:77] Creating layer scale4b_branch2c
I0205 10:18:03.043634 12479 net.cpp:100] Creating Layer scale4b_branch2c
I0205 10:18:03.043640 12479 net.cpp:444] scale4b_branch2c <- res4b_branch2c
I0205 10:18:03.043654 12479 net.cpp:405] scale4b_branch2c -> res4b_branch2c (in-place)
I0205 10:18:03.043702 12479 layer_factory.hpp:77] Creating layer scale4b_branch2c
I0205 10:18:03.043848 12479 net.cpp:150] Setting up scale4b_branch2c
I0205 10:18:03.043859 12479 net.cpp:157] Top shape: 1 1024 38 63 (2451456)
I0205 10:18:03.043864 12479 net.cpp:165] Memory required for data: 2271499092
I0205 10:18:03.043879 12479 layer_factory.hpp:77] Creating layer res4b
I0205 10:18:03.043892 12479 net.cpp:100] Creating Layer res4b
I0205 10:18:03.043900 12479 net.cpp:444] res4b <- res4a_res4a_relu_0_split_1
I0205 10:18:03.043911 12479 net.cpp:444] res4b <- res4b_branch2c
I0205 10:18:03.043922 12479 net.cpp:418] res4b -> res4b
I0205 10:18:03.043958 12479 net.cpp:150] Setting up res4b
I0205 10:18:03.043968 12479 net.cpp:157] Top shape: 1 1024 38 63 (2451456)
I0205 10:18:03.043972 12479 net.cpp:165] Memory required for data: 2281304916
I0205 10:18:03.043977 12479 layer_factory.hpp:77] Creating layer res4b_relu
I0205 10:18:03.043988 12479 net.cpp:100] Creating Layer res4b_relu
I0205 10:18:03.043994 12479 net.cpp:444] res4b_relu <- res4b
I0205 10:18:03.044008 12479 net.cpp:405] res4b_relu -> res4b (in-place)
I0205 10:18:03.044150 12479 net.cpp:150] Setting up res4b_relu
I0205 10:18:03.044159 12479 net.cpp:157] Top shape: 1 1024 38 63 (2451456)
I0205 10:18:03.044162 12479 net.cpp:165] Memory required for data: 2291110740
I0205 10:18:03.044168 12479 layer_factory.hpp:77] Creating layer res4b_res4b_relu_0_split
I0205 10:18:03.044180 12479 net.cpp:100] Creating Layer res4b_res4b_relu_0_split
I0205 10:18:03.044186 12479 net.cpp:444] res4b_res4b_relu_0_split <- res4b
I0205 10:18:03.044200 12479 net.cpp:418] res4b_res4b_relu_0_split -> res4b_res4b_relu_0_split_0
I0205 10:18:03.044217 12479 net.cpp:418] res4b_res4b_relu_0_split -> res4b_res4b_relu_0_split_1
I0205 10:18:03.044260 12479 net.cpp:150] Setting up res4b_res4b_relu_0_split
I0205 10:18:03.044270 12479 net.cpp:157] Top shape: 1 1024 38 63 (2451456)
I0205 10:18:03.044275 12479 net.cpp:157] Top shape: 1 1024 38 63 (2451456)
I0205 10:18:03.044278 12479 net.cpp:165] Memory required for data: 2310722388
I0205 10:18:03.044286 12479 layer_factory.hpp:77] Creating layer res4c_branch2a
I0205 10:18:03.044302 12479 net.cpp:100] Creating Layer res4c_branch2a
I0205 10:18:03.044309 12479 net.cpp:444] res4c_branch2a <- res4b_res4b_relu_0_split_0
I0205 10:18:03.044327 12479 net.cpp:418] res4c_branch2a -> res4c_branch2a
I0205 10:18:03.045974 12479 cudnn_conv_layer.cpp:194] Reallocating workspace storage: 49644
I0205 10:18:03.045991 12479 net.cpp:150] Setting up res4c_branch2a
I0205 10:18:03.046001 12479 net.cpp:157] Top shape: 1 256 38 63 (612864)
I0205 10:18:03.046005 12479 net.cpp:165] Memory required for data: 2313173844
I0205 10:18:03.046018 12479 layer_factory.hpp:77] Creating layer bn4c_branch2a
I0205 10:18:03.046036 12479 net.cpp:100] Creating Layer bn4c_branch2a
I0205 10:18:03.046043 12479 net.cpp:444] bn4c_branch2a <- res4c_branch2a
I0205 10:18:03.046059 12479 net.cpp:405] bn4c_branch2a -> res4c_branch2a (in-place)
I0205 10:18:03.046228 12479 net.cpp:150] Setting up bn4c_branch2a
I0205 10:18:03.046236 12479 net.cpp:157] Top shape: 1 256 38 63 (612864)
I0205 10:18:03.046239 12479 net.cpp:165] Memory required for data: 2315625300
I0205 10:18:03.046258 12479 layer_factory.hpp:77] Creating layer scale4c_branch2a
I0205 10:18:03.046274 12479 net.cpp:100] Creating Layer scale4c_branch2a
I0205 10:18:03.046280 12479 net.cpp:444] scale4c_branch2a <- res4c_branch2a
I0205 10:18:03.046294 12479 net.cpp:405] scale4c_branch2a -> res4c_branch2a (in-place)
I0205 10:18:03.046345 12479 layer_factory.hpp:77] Creating layer scale4c_branch2a
I0205 10:18:03.046468 12479 net.cpp:150] Setting up scale4c_branch2a
I0205 10:18:03.046475 12479 net.cpp:157] Top shape: 1 256 38 63 (612864)
I0205 10:18:03.046479 12479 net.cpp:165] Memory required for data: 2318076756
I0205 10:18:03.046491 12479 layer_factory.hpp:77] Creating layer res4c_branch2a_relu
I0205 10:18:03.046504 12479 net.cpp:100] Creating Layer res4c_branch2a_relu
I0205 10:18:03.046509 12479 net.cpp:444] res4c_branch2a_relu <- res4c_branch2a
I0205 10:18:03.046524 12479 net.cpp:405] res4c_branch2a_relu -> res4c_branch2a (in-place)
I0205 10:18:03.046666 12479 net.cpp:150] Setting up res4c_branch2a_relu
I0205 10:18:03.046674 12479 net.cpp:157] Top shape: 1 256 38 63 (612864)
I0205 10:18:03.046679 12479 net.cpp:165] Memory required for data: 2320528212
I0205 10:18:03.046684 12479 layer_factory.hpp:77] Creating layer res4c_branch2b
I0205 10:18:03.046701 12479 net.cpp:100] Creating Layer res4c_branch2b
I0205 10:18:03.046707 12479 net.cpp:444] res4c_branch2b <- res4c_branch2a
I0205 10:18:03.046723 12479 net.cpp:418] res4c_branch2b -> res4c_branch2b
I0205 10:18:03.048842 12479 cudnn_conv_layer.cpp:194] Reallocating workspace storage: 12582912
I0205 10:18:03.049052 12479 net.cpp:150] Setting up res4c_branch2b
I0205 10:18:03.049068 12479 net.cpp:157] Top shape: 1 256 38 63 (612864)
I0205 10:18:03.049072 12479 net.cpp:165] Memory required for data: 2322979668
I0205 10:18:03.049088 12479 layer_factory.hpp:77] Creating layer bn4c_branch2b
I0205 10:18:03.049105 12479 net.cpp:100] Creating Layer bn4c_branch2b
I0205 10:18:03.049113 12479 net.cpp:444] bn4c_branch2b <- res4c_branch2b
I0205 10:18:03.049132 12479 net.cpp:405] bn4c_branch2b -> res4c_branch2b (in-place)
I0205 10:18:03.049325 12479 net.cpp:150] Setting up bn4c_branch2b
I0205 10:18:03.049334 12479 net.cpp:157] Top shape: 1 256 38 63 (612864)
I0205 10:18:03.049336 12479 net.cpp:165] Memory required for data: 2325431124
I0205 10:18:03.049355 12479 layer_factory.hpp:77] Creating layer scale4c_branch2b
I0205 10:18:03.049371 12479 net.cpp:100] Creating Layer scale4c_branch2b
I0205 10:18:03.049377 12479 net.cpp:444] scale4c_branch2b <- res4c_branch2b
I0205 10:18:03.049392 12479 net.cpp:405] scale4c_branch2b -> res4c_branch2b (in-place)
I0205 10:18:03.049443 12479 layer_factory.hpp:77] Creating layer scale4c_branch2b
I0205 10:18:03.049571 12479 net.cpp:150] Setting up scale4c_branch2b
I0205 10:18:03.049578 12479 net.cpp:157] Top shape: 1 256 38 63 (612864)
I0205 10:18:03.049582 12479 net.cpp:165] Memory required for data: 2327882580
I0205 10:18:03.049597 12479 layer_factory.hpp:77] Creating layer res4c_branch2b_relu
I0205 10:18:03.049607 12479 net.cpp:100] Creating Layer res4c_branch2b_relu
I0205 10:18:03.049613 12479 net.cpp:444] res4c_branch2b_relu <- res4c_branch2b
I0205 10:18:03.049628 12479 net.cpp:405] res4c_branch2b_relu -> res4c_branch2b (in-place)
I0205 10:18:03.049962 12479 net.cpp:150] Setting up res4c_branch2b_relu
I0205 10:18:03.049970 12479 net.cpp:157] Top shape: 1 256 38 63 (612864)
I0205 10:18:03.049973 12479 net.cpp:165] Memory required for data: 2330334036
I0205 10:18:03.049979 12479 layer_factory.hpp:77] Creating layer res4c_branch2c
I0205 10:18:03.049998 12479 net.cpp:100] Creating Layer res4c_branch2c
I0205 10:18:03.050005 12479 net.cpp:444] res4c_branch2c <- res4c_branch2b
I0205 10:18:03.050022 12479 net.cpp:418] res4c_branch2c -> res4c_branch2c
I0205 10:18:03.051115 12479 cudnn_conv_layer.cpp:194] Reallocating workspace storage: 49644
I0205 10:18:03.051129 12479 net.cpp:150] Setting up res4c_branch2c
I0205 10:18:03.051141 12479 net.cpp:157] Top shape: 1 1024 38 63 (2451456)
I0205 10:18:03.051143 12479 net.cpp:165] Memory required for data: 2340139860
I0205 10:18:03.051156 12479 layer_factory.hpp:77] Creating layer bn4c_branch2c
I0205 10:18:03.051170 12479 net.cpp:100] Creating Layer bn4c_branch2c
I0205 10:18:03.051177 12479 net.cpp:444] bn4c_branch2c <- res4c_branch2c
I0205 10:18:03.051193 12479 net.cpp:405] bn4c_branch2c -> res4c_branch2c (in-place)
I0205 10:18:03.051363 12479 net.cpp:150] Setting up bn4c_branch2c
I0205 10:18:03.051371 12479 net.cpp:157] Top shape: 1 1024 38 63 (2451456)
I0205 10:18:03.051374 12479 net.cpp:165] Memory required for data: 2349945684
I0205 10:18:03.051393 12479 layer_factory.hpp:77] Creating layer scale4c_branch2c
I0205 10:18:03.051406 12479 net.cpp:100] Creating Layer scale4c_branch2c
I0205 10:18:03.051414 12479 net.cpp:444] scale4c_branch2c <- res4c_branch2c
I0205 10:18:03.051427 12479 net.cpp:405] scale4c_branch2c -> res4c_branch2c (in-place)
I0205 10:18:03.051475 12479 layer_factory.hpp:77] Creating layer scale4c_branch2c
I0205 10:18:03.051599 12479 net.cpp:150] Setting up scale4c_branch2c
I0205 10:18:03.051606 12479 net.cpp:157] Top shape: 1 1024 38 63 (2451456)
I0205 10:18:03.051609 12479 net.cpp:165] Memory required for data: 2359751508
I0205 10:18:03.051622 12479 layer_factory.hpp:77] Creating layer res4c
I0205 10:18:03.051635 12479 net.cpp:100] Creating Layer res4c
I0205 10:18:03.051642 12479 net.cpp:444] res4c <- res4b_res4b_relu_0_split_1
I0205 10:18:03.051654 12479 net.cpp:444] res4c <- res4c_branch2c
I0205 10:18:03.051666 12479 net.cpp:418] res4c -> res4c
I0205 10:18:03.051700 12479 net.cpp:150] Setting up res4c
I0205 10:18:03.051709 12479 net.cpp:157] Top shape: 1 1024 38 63 (2451456)
I0205 10:18:03.051713 12479 net.cpp:165] Memory required for data: 2369557332
I0205 10:18:03.051718 12479 layer_factory.hpp:77] Creating layer res4c_relu
I0205 10:18:03.051729 12479 net.cpp:100] Creating Layer res4c_relu
I0205 10:18:03.051736 12479 net.cpp:444] res4c_relu <- res4c
I0205 10:18:03.051748 12479 net.cpp:405] res4c_relu -> res4c (in-place)
I0205 10:18:03.051887 12479 net.cpp:150] Setting up res4c_relu
I0205 10:18:03.051895 12479 net.cpp:157] Top shape: 1 1024 38 63 (2451456)
I0205 10:18:03.051898 12479 net.cpp:165] Memory required for data: 2379363156
I0205 10:18:03.051904 12479 layer_factory.hpp:77] Creating layer res4c_res4c_relu_0_split
I0205 10:18:03.051916 12479 net.cpp:100] Creating Layer res4c_res4c_relu_0_split
I0205 10:18:03.051923 12479 net.cpp:444] res4c_res4c_relu_0_split <- res4c
I0205 10:18:03.051937 12479 net.cpp:418] res4c_res4c_relu_0_split -> res4c_res4c_relu_0_split_0
I0205 10:18:03.051954 12479 net.cpp:418] res4c_res4c_relu_0_split -> res4c_res4c_relu_0_split_1
I0205 10:18:03.051996 12479 net.cpp:150] Setting up res4c_res4c_relu_0_split
I0205 10:18:03.052006 12479 net.cpp:157] Top shape: 1 1024 38 63 (2451456)
I0205 10:18:03.052012 12479 net.cpp:157] Top shape: 1 1024 38 63 (2451456)
I0205 10:18:03.052016 12479 net.cpp:165] Memory required for data: 2398974804
I0205 10:18:03.052021 12479 layer_factory.hpp:77] Creating layer res4d_branch2a
I0205 10:18:03.052037 12479 net.cpp:100] Creating Layer res4d_branch2a
I0205 10:18:03.052043 12479 net.cpp:444] res4d_branch2a <- res4c_res4c_relu_0_split_0
I0205 10:18:03.052059 12479 net.cpp:418] res4d_branch2a -> res4d_branch2a
I0205 10:18:03.053650 12479 cudnn_conv_layer.cpp:194] Reallocating workspace storage: 49644
I0205 10:18:03.053665 12479 net.cpp:150] Setting up res4d_branch2a
I0205 10:18:03.053676 12479 net.cpp:157] Top shape: 1 256 38 63 (612864)
I0205 10:18:03.053679 12479 net.cpp:165] Memory required for data: 2401426260
I0205 10:18:03.053691 12479 layer_factory.hpp:77] Creating layer bn4d_branch2a
I0205 10:18:03.053707 12479 net.cpp:100] Creating Layer bn4d_branch2a
I0205 10:18:03.053714 12479 net.cpp:444] bn4d_branch2a <- res4d_branch2a
I0205 10:18:03.053731 12479 net.cpp:405] bn4d_branch2a -> res4d_branch2a (in-place)
I0205 10:18:03.053900 12479 net.cpp:150] Setting up bn4d_branch2a
I0205 10:18:03.053907 12479 net.cpp:157] Top shape: 1 256 38 63 (612864)
I0205 10:18:03.053910 12479 net.cpp:165] Memory required for data: 2403877716
I0205 10:18:03.053930 12479 layer_factory.hpp:77] Creating layer scale4d_branch2a
I0205 10:18:03.053944 12479 net.cpp:100] Creating Layer scale4d_branch2a
I0205 10:18:03.053951 12479 net.cpp:444] scale4d_branch2a <- res4d_branch2a
I0205 10:18:03.053966 12479 net.cpp:405] scale4d_branch2a -> res4d_branch2a (in-place)
I0205 10:18:03.054014 12479 layer_factory.hpp:77] Creating layer scale4d_branch2a
I0205 10:18:03.054136 12479 net.cpp:150] Setting up scale4d_branch2a
I0205 10:18:03.054143 12479 net.cpp:157] Top shape: 1 256 38 63 (612864)
I0205 10:18:03.054147 12479 net.cpp:165] Memory required for data: 2406329172
I0205 10:18:03.054162 12479 layer_factory.hpp:77] Creating layer res4d_branch2a_relu
I0205 10:18:03.054173 12479 net.cpp:100] Creating Layer res4d_branch2a_relu
I0205 10:18:03.054180 12479 net.cpp:444] res4d_branch2a_relu <- res4d_branch2a
I0205 10:18:03.054193 12479 net.cpp:405] res4d_branch2a_relu -> res4d_branch2a (in-place)
I0205 10:18:03.054332 12479 net.cpp:150] Setting up res4d_branch2a_relu
I0205 10:18:03.054339 12479 net.cpp:157] Top shape: 1 256 38 63 (612864)
I0205 10:18:03.054342 12479 net.cpp:165] Memory required for data: 2408780628
I0205 10:18:03.054349 12479 layer_factory.hpp:77] Creating layer res4d_branch2b
I0205 10:18:03.054366 12479 net.cpp:100] Creating Layer res4d_branch2b
I0205 10:18:03.054373 12479 net.cpp:444] res4d_branch2b <- res4d_branch2a
I0205 10:18:03.054388 12479 net.cpp:418] res4d_branch2b -> res4d_branch2b
I0205 10:18:03.056452 12479 cudnn_conv_layer.cpp:194] Reallocating workspace storage: 12582912
I0205 10:18:03.056669 12479 net.cpp:150] Setting up res4d_branch2b
I0205 10:18:03.056681 12479 net.cpp:157] Top shape: 1 256 38 63 (612864)
I0205 10:18:03.056686 12479 net.cpp:165] Memory required for data: 2411232084
I0205 10:18:03.056700 12479 layer_factory.hpp:77] Creating layer bn4d_branch2b
I0205 10:18:03.056716 12479 net.cpp:100] Creating Layer bn4d_branch2b
I0205 10:18:03.056725 12479 net.cpp:444] bn4d_branch2b <- res4d_branch2b
I0205 10:18:03.056740 12479 net.cpp:405] bn4d_branch2b -> res4d_branch2b (in-place)
I0205 10:18:03.056916 12479 net.cpp:150] Setting up bn4d_branch2b
I0205 10:18:03.056924 12479 net.cpp:157] Top shape: 1 256 38 63 (612864)
I0205 10:18:03.056927 12479 net.cpp:165] Memory required for data: 2413683540
I0205 10:18:03.056946 12479 layer_factory.hpp:77] Creating layer scale4d_branch2b
I0205 10:18:03.056962 12479 net.cpp:100] Creating Layer scale4d_branch2b
I0205 10:18:03.056968 12479 net.cpp:444] scale4d_branch2b <- res4d_branch2b
I0205 10:18:03.056982 12479 net.cpp:405] scale4d_branch2b -> res4d_branch2b (in-place)
I0205 10:18:03.057034 12479 layer_factory.hpp:77] Creating layer scale4d_branch2b
I0205 10:18:03.057157 12479 net.cpp:150] Setting up scale4d_branch2b
I0205 10:18:03.057164 12479 net.cpp:157] Top shape: 1 256 38 63 (612864)
I0205 10:18:03.057168 12479 net.cpp:165] Memory required for data: 2416134996
I0205 10:18:03.057181 12479 layer_factory.hpp:77] Creating layer res4d_branch2b_relu
I0205 10:18:03.057193 12479 net.cpp:100] Creating Layer res4d_branch2b_relu
I0205 10:18:03.057200 12479 net.cpp:444] res4d_branch2b_relu <- res4d_branch2b
I0205 10:18:03.057221 12479 net.cpp:405] res4d_branch2b_relu -> res4d_branch2b (in-place)
I0205 10:18:03.057575 12479 net.cpp:150] Setting up res4d_branch2b_relu
I0205 10:18:03.057585 12479 net.cpp:157] Top shape: 1 256 38 63 (612864)
I0205 10:18:03.057590 12479 net.cpp:165] Memory required for data: 2418586452
I0205 10:18:03.057595 12479 layer_factory.hpp:77] Creating layer res4d_branch2c
I0205 10:18:03.057612 12479 net.cpp:100] Creating Layer res4d_branch2c
I0205 10:18:03.057620 12479 net.cpp:444] res4d_branch2c <- res4d_branch2b
I0205 10:18:03.057636 12479 net.cpp:418] res4d_branch2c -> res4d_branch2c
I0205 10:18:03.058738 12479 cudnn_conv_layer.cpp:194] Reallocating workspace storage: 49644
I0205 10:18:03.058755 12479 net.cpp:150] Setting up res4d_branch2c
I0205 10:18:03.058765 12479 net.cpp:157] Top shape: 1 1024 38 63 (2451456)
I0205 10:18:03.058768 12479 net.cpp:165] Memory required for data: 2428392276
I0205 10:18:03.058780 12479 layer_factory.hpp:77] Creating layer bn4d_branch2c
I0205 10:18:03.058795 12479 net.cpp:100] Creating Layer bn4d_branch2c
I0205 10:18:03.058802 12479 net.cpp:444] bn4d_branch2c <- res4d_branch2c
I0205 10:18:03.058817 12479 net.cpp:405] bn4d_branch2c -> res4d_branch2c (in-place)
I0205 10:18:03.059000 12479 net.cpp:150] Setting up bn4d_branch2c
I0205 10:18:03.059008 12479 net.cpp:157] Top shape: 1 1024 38 63 (2451456)
I0205 10:18:03.059012 12479 net.cpp:165] Memory required for data: 2438198100
I0205 10:18:03.059031 12479 layer_factory.hpp:77] Creating layer scale4d_branch2c
I0205 10:18:03.059046 12479 net.cpp:100] Creating Layer scale4d_branch2c
I0205 10:18:03.059051 12479 net.cpp:444] scale4d_branch2c <- res4d_branch2c
I0205 10:18:03.059067 12479 net.cpp:405] scale4d_branch2c -> res4d_branch2c (in-place)
I0205 10:18:03.059114 12479 layer_factory.hpp:77] Creating layer scale4d_branch2c
I0205 10:18:03.059242 12479 net.cpp:150] Setting up scale4d_branch2c
I0205 10:18:03.059249 12479 net.cpp:157] Top shape: 1 1024 38 63 (2451456)
I0205 10:18:03.059253 12479 net.cpp:165] Memory required for data: 2448003924
I0205 10:18:03.059267 12479 layer_factory.hpp:77] Creating layer res4d
I0205 10:18:03.059278 12479 net.cpp:100] Creating Layer res4d
I0205 10:18:03.059285 12479 net.cpp:444] res4d <- res4c_res4c_relu_0_split_1
I0205 10:18:03.059298 12479 net.cpp:444] res4d <- res4d_branch2c
I0205 10:18:03.059310 12479 net.cpp:418] res4d -> res4d
I0205 10:18:03.059345 12479 net.cpp:150] Setting up res4d
I0205 10:18:03.059355 12479 net.cpp:157] Top shape: 1 1024 38 63 (2451456)
I0205 10:18:03.059358 12479 net.cpp:165] Memory required for data: 2457809748
I0205 10:18:03.059365 12479 layer_factory.hpp:77] Creating layer res4d_relu
I0205 10:18:03.059376 12479 net.cpp:100] Creating Layer res4d_relu
I0205 10:18:03.059381 12479 net.cpp:444] res4d_relu <- res4d
I0205 10:18:03.059396 12479 net.cpp:405] res4d_relu -> res4d (in-place)
I0205 10:18:03.059533 12479 net.cpp:150] Setting up res4d_relu
I0205 10:18:03.059541 12479 net.cpp:157] Top shape: 1 1024 38 63 (2451456)
I0205 10:18:03.059545 12479 net.cpp:165] Memory required for data: 2467615572
I0205 10:18:03.059550 12479 layer_factory.hpp:77] Creating layer res4d_res4d_relu_0_split
I0205 10:18:03.059561 12479 net.cpp:100] Creating Layer res4d_res4d_relu_0_split
I0205 10:18:03.059567 12479 net.cpp:444] res4d_res4d_relu_0_split <- res4d
I0205 10:18:03.059581 12479 net.cpp:418] res4d_res4d_relu_0_split -> res4d_res4d_relu_0_split_0
I0205 10:18:03.059598 12479 net.cpp:418] res4d_res4d_relu_0_split -> res4d_res4d_relu_0_split_1
I0205 10:18:03.059643 12479 net.cpp:150] Setting up res4d_res4d_relu_0_split
I0205 10:18:03.059651 12479 net.cpp:157] Top shape: 1 1024 38 63 (2451456)
I0205 10:18:03.059657 12479 net.cpp:157] Top shape: 1 1024 38 63 (2451456)
I0205 10:18:03.059661 12479 net.cpp:165] Memory required for data: 2487227220
I0205 10:18:03.059666 12479 layer_factory.hpp:77] Creating layer res4e_branch2a
I0205 10:18:03.059682 12479 net.cpp:100] Creating Layer res4e_branch2a
I0205 10:18:03.059689 12479 net.cpp:444] res4e_branch2a <- res4d_res4d_relu_0_split_0
I0205 10:18:03.059706 12479 net.cpp:418] res4e_branch2a -> res4e_branch2a
I0205 10:18:03.061327 12479 cudnn_conv_layer.cpp:194] Reallocating workspace storage: 49644
I0205 10:18:03.061343 12479 net.cpp:150] Setting up res4e_branch2a
I0205 10:18:03.061354 12479 net.cpp:157] Top shape: 1 256 38 63 (612864)
I0205 10:18:03.061358 12479 net.cpp:165] Memory required for data: 2489678676
I0205 10:18:03.061370 12479 layer_factory.hpp:77] Creating layer bn4e_branch2a
I0205 10:18:03.061384 12479 net.cpp:100] Creating Layer bn4e_branch2a
I0205 10:18:03.061391 12479 net.cpp:444] bn4e_branch2a <- res4e_branch2a
I0205 10:18:03.061408 12479 net.cpp:405] bn4e_branch2a -> res4e_branch2a (in-place)
I0205 10:18:03.061581 12479 net.cpp:150] Setting up bn4e_branch2a
I0205 10:18:03.061589 12479 net.cpp:157] Top shape: 1 256 38 63 (612864)
I0205 10:18:03.061592 12479 net.cpp:165] Memory required for data: 2492130132
I0205 10:18:03.061610 12479 layer_factory.hpp:77] Creating layer scale4e_branch2a
I0205 10:18:03.061625 12479 net.cpp:100] Creating Layer scale4e_branch2a
I0205 10:18:03.061630 12479 net.cpp:444] scale4e_branch2a <- res4e_branch2a
I0205 10:18:03.061645 12479 net.cpp:405] scale4e_branch2a -> res4e_branch2a (in-place)
I0205 10:18:03.061695 12479 layer_factory.hpp:77] Creating layer scale4e_branch2a
I0205 10:18:03.061818 12479 net.cpp:150] Setting up scale4e_branch2a
I0205 10:18:03.061826 12479 net.cpp:157] Top shape: 1 256 38 63 (612864)
I0205 10:18:03.061830 12479 net.cpp:165] Memory required for data: 2494581588
I0205 10:18:03.061843 12479 layer_factory.hpp:77] Creating layer res4e_branch2a_relu
I0205 10:18:03.061854 12479 net.cpp:100] Creating Layer res4e_branch2a_relu
I0205 10:18:03.061861 12479 net.cpp:444] res4e_branch2a_relu <- res4e_branch2a
I0205 10:18:03.061873 12479 net.cpp:405] res4e_branch2a_relu -> res4e_branch2a (in-place)
I0205 10:18:03.062013 12479 net.cpp:150] Setting up res4e_branch2a_relu
I0205 10:18:03.062021 12479 net.cpp:157] Top shape: 1 256 38 63 (612864)
I0205 10:18:03.062024 12479 net.cpp:165] Memory required for data: 2497033044
I0205 10:18:03.062029 12479 layer_factory.hpp:77] Creating layer res4e_branch2b
I0205 10:18:03.062047 12479 net.cpp:100] Creating Layer res4e_branch2b
I0205 10:18:03.062052 12479 net.cpp:444] res4e_branch2b <- res4e_branch2a
I0205 10:18:03.062069 12479 net.cpp:418] res4e_branch2b -> res4e_branch2b
I0205 10:18:03.064121 12479 cudnn_conv_layer.cpp:194] Reallocating workspace storage: 12582912
I0205 10:18:03.064335 12479 net.cpp:150] Setting up res4e_branch2b
I0205 10:18:03.064348 12479 net.cpp:157] Top shape: 1 256 38 63 (612864)
I0205 10:18:03.064353 12479 net.cpp:165] Memory required for data: 2499484500
I0205 10:18:03.064366 12479 layer_factory.hpp:77] Creating layer bn4e_branch2b
I0205 10:18:03.064383 12479 net.cpp:100] Creating Layer bn4e_branch2b
I0205 10:18:03.064389 12479 net.cpp:444] bn4e_branch2b <- res4e_branch2b
I0205 10:18:03.064405 12479 net.cpp:405] bn4e_branch2b -> res4e_branch2b (in-place)
I0205 10:18:03.064587 12479 net.cpp:150] Setting up bn4e_branch2b
I0205 10:18:03.064595 12479 net.cpp:157] Top shape: 1 256 38 63 (612864)
I0205 10:18:03.064599 12479 net.cpp:165] Memory required for data: 2501935956
I0205 10:18:03.064615 12479 layer_factory.hpp:77] Creating layer scale4e_branch2b
I0205 10:18:03.064630 12479 net.cpp:100] Creating Layer scale4e_branch2b
I0205 10:18:03.064636 12479 net.cpp:444] scale4e_branch2b <- res4e_branch2b
I0205 10:18:03.064651 12479 net.cpp:405] scale4e_branch2b -> res4e_branch2b (in-place)
I0205 10:18:03.064702 12479 layer_factory.hpp:77] Creating layer scale4e_branch2b
I0205 10:18:03.064828 12479 net.cpp:150] Setting up scale4e_branch2b
I0205 10:18:03.064836 12479 net.cpp:157] Top shape: 1 256 38 63 (612864)
I0205 10:18:03.064839 12479 net.cpp:165] Memory required for data: 2504387412
I0205 10:18:03.064853 12479 layer_factory.hpp:77] Creating layer res4e_branch2b_relu
I0205 10:18:03.064864 12479 net.cpp:100] Creating Layer res4e_branch2b_relu
I0205 10:18:03.064872 12479 net.cpp:444] res4e_branch2b_relu <- res4e_branch2b
I0205 10:18:03.064884 12479 net.cpp:405] res4e_branch2b_relu -> res4e_branch2b (in-place)
I0205 10:18:03.065228 12479 net.cpp:150] Setting up res4e_branch2b_relu
I0205 10:18:03.065239 12479 net.cpp:157] Top shape: 1 256 38 63 (612864)
I0205 10:18:03.065243 12479 net.cpp:165] Memory required for data: 2506838868
I0205 10:18:03.065250 12479 layer_factory.hpp:77] Creating layer res4e_branch2c
I0205 10:18:03.065268 12479 net.cpp:100] Creating Layer res4e_branch2c
I0205 10:18:03.065275 12479 net.cpp:444] res4e_branch2c <- res4e_branch2b
I0205 10:18:03.065292 12479 net.cpp:418] res4e_branch2c -> res4e_branch2c
I0205 10:18:03.066402 12479 cudnn_conv_layer.cpp:194] Reallocating workspace storage: 49644
I0205 10:18:03.066416 12479 net.cpp:150] Setting up res4e_branch2c
I0205 10:18:03.066426 12479 net.cpp:157] Top shape: 1 1024 38 63 (2451456)
I0205 10:18:03.066429 12479 net.cpp:165] Memory required for data: 2516644692
I0205 10:18:03.066442 12479 layer_factory.hpp:77] Creating layer bn4e_branch2c
I0205 10:18:03.066457 12479 net.cpp:100] Creating Layer bn4e_branch2c
I0205 10:18:03.066463 12479 net.cpp:444] bn4e_branch2c <- res4e_branch2c
I0205 10:18:03.066479 12479 net.cpp:405] bn4e_branch2c -> res4e_branch2c (in-place)
I0205 10:18:03.066655 12479 net.cpp:150] Setting up bn4e_branch2c
I0205 10:18:03.066663 12479 net.cpp:157] Top shape: 1 1024 38 63 (2451456)
I0205 10:18:03.066666 12479 net.cpp:165] Memory required for data: 2526450516
I0205 10:18:03.066685 12479 layer_factory.hpp:77] Creating layer scale4e_branch2c
I0205 10:18:03.066699 12479 net.cpp:100] Creating Layer scale4e_branch2c
I0205 10:18:03.066705 12479 net.cpp:444] scale4e_branch2c <- res4e_branch2c
I0205 10:18:03.066720 12479 net.cpp:405] scale4e_branch2c -> res4e_branch2c (in-place)
I0205 10:18:03.066767 12479 layer_factory.hpp:77] Creating layer scale4e_branch2c
I0205 10:18:03.066893 12479 net.cpp:150] Setting up scale4e_branch2c
I0205 10:18:03.066902 12479 net.cpp:157] Top shape: 1 1024 38 63 (2451456)
I0205 10:18:03.066906 12479 net.cpp:165] Memory required for data: 2536256340
I0205 10:18:03.066920 12479 layer_factory.hpp:77] Creating layer res4e
I0205 10:18:03.066931 12479 net.cpp:100] Creating Layer res4e
I0205 10:18:03.066937 12479 net.cpp:444] res4e <- res4d_res4d_relu_0_split_1
I0205 10:18:03.066949 12479 net.cpp:444] res4e <- res4e_branch2c
I0205 10:18:03.066961 12479 net.cpp:418] res4e -> res4e
I0205 10:18:03.066995 12479 net.cpp:150] Setting up res4e
I0205 10:18:03.067005 12479 net.cpp:157] Top shape: 1 1024 38 63 (2451456)
I0205 10:18:03.067009 12479 net.cpp:165] Memory required for data: 2546062164
I0205 10:18:03.067014 12479 layer_factory.hpp:77] Creating layer res4e_relu
I0205 10:18:03.067026 12479 net.cpp:100] Creating Layer res4e_relu
I0205 10:18:03.067032 12479 net.cpp:444] res4e_relu <- res4e
I0205 10:18:03.067045 12479 net.cpp:405] res4e_relu -> res4e (in-place)
I0205 10:18:03.067183 12479 net.cpp:150] Setting up res4e_relu
I0205 10:18:03.067191 12479 net.cpp:157] Top shape: 1 1024 38 63 (2451456)
I0205 10:18:03.067195 12479 net.cpp:165] Memory required for data: 2555867988
I0205 10:18:03.067201 12479 layer_factory.hpp:77] Creating layer res4e_res4e_relu_0_split
I0205 10:18:03.067212 12479 net.cpp:100] Creating Layer res4e_res4e_relu_0_split
I0205 10:18:03.067219 12479 net.cpp:444] res4e_res4e_relu_0_split <- res4e
I0205 10:18:03.067234 12479 net.cpp:418] res4e_res4e_relu_0_split -> res4e_res4e_relu_0_split_0
I0205 10:18:03.067250 12479 net.cpp:418] res4e_res4e_relu_0_split -> res4e_res4e_relu_0_split_1
I0205 10:18:03.067294 12479 net.cpp:150] Setting up res4e_res4e_relu_0_split
I0205 10:18:03.067303 12479 net.cpp:157] Top shape: 1 1024 38 63 (2451456)
I0205 10:18:03.067309 12479 net.cpp:157] Top shape: 1 1024 38 63 (2451456)
I0205 10:18:03.067313 12479 net.cpp:165] Memory required for data: 2575479636
I0205 10:18:03.067318 12479 layer_factory.hpp:77] Creating layer res4f_branch2a
I0205 10:18:03.067340 12479 net.cpp:100] Creating Layer res4f_branch2a
I0205 10:18:03.067348 12479 net.cpp:444] res4f_branch2a <- res4e_res4e_relu_0_split_0
I0205 10:18:03.067363 12479 net.cpp:418] res4f_branch2a -> res4f_branch2a
I0205 10:18:03.068970 12479 cudnn_conv_layer.cpp:194] Reallocating workspace storage: 49644
I0205 10:18:03.068987 12479 net.cpp:150] Setting up res4f_branch2a
I0205 10:18:03.068996 12479 net.cpp:157] Top shape: 1 256 38 63 (612864)
I0205 10:18:03.069000 12479 net.cpp:165] Memory required for data: 2577931092
I0205 10:18:03.069012 12479 layer_factory.hpp:77] Creating layer bn4f_branch2a
I0205 10:18:03.069028 12479 net.cpp:100] Creating Layer bn4f_branch2a
I0205 10:18:03.069034 12479 net.cpp:444] bn4f_branch2a <- res4f_branch2a
I0205 10:18:03.069049 12479 net.cpp:405] bn4f_branch2a -> res4f_branch2a (in-place)
I0205 10:18:03.069236 12479 net.cpp:150] Setting up bn4f_branch2a
I0205 10:18:03.069245 12479 net.cpp:157] Top shape: 1 256 38 63 (612864)
I0205 10:18:03.069248 12479 net.cpp:165] Memory required for data: 2580382548
I0205 10:18:03.069267 12479 layer_factory.hpp:77] Creating layer scale4f_branch2a
I0205 10:18:03.069280 12479 net.cpp:100] Creating Layer scale4f_branch2a
I0205 10:18:03.069288 12479 net.cpp:444] scale4f_branch2a <- res4f_branch2a
I0205 10:18:03.069300 12479 net.cpp:405] scale4f_branch2a -> res4f_branch2a (in-place)
I0205 10:18:03.069352 12479 layer_factory.hpp:77] Creating layer scale4f_branch2a
I0205 10:18:03.069475 12479 net.cpp:150] Setting up scale4f_branch2a
I0205 10:18:03.069484 12479 net.cpp:157] Top shape: 1 256 38 63 (612864)
I0205 10:18:03.069488 12479 net.cpp:165] Memory required for data: 2582834004
I0205 10:18:03.069500 12479 layer_factory.hpp:77] Creating layer res4f_branch2a_relu
I0205 10:18:03.069512 12479 net.cpp:100] Creating Layer res4f_branch2a_relu
I0205 10:18:03.069519 12479 net.cpp:444] res4f_branch2a_relu <- res4f_branch2a
I0205 10:18:03.069533 12479 net.cpp:405] res4f_branch2a_relu -> res4f_branch2a (in-place)
I0205 10:18:03.069670 12479 net.cpp:150] Setting up res4f_branch2a_relu
I0205 10:18:03.069680 12479 net.cpp:157] Top shape: 1 256 38 63 (612864)
I0205 10:18:03.069684 12479 net.cpp:165] Memory required for data: 2585285460
I0205 10:18:03.069689 12479 layer_factory.hpp:77] Creating layer res4f_branch2b
I0205 10:18:03.069705 12479 net.cpp:100] Creating Layer res4f_branch2b
I0205 10:18:03.069710 12479 net.cpp:444] res4f_branch2b <- res4f_branch2a
I0205 10:18:03.069727 12479 net.cpp:418] res4f_branch2b -> res4f_branch2b
I0205 10:18:03.071806 12479 cudnn_conv_layer.cpp:194] Reallocating workspace storage: 12582912
I0205 10:18:03.072024 12479 net.cpp:150] Setting up res4f_branch2b
I0205 10:18:03.072037 12479 net.cpp:157] Top shape: 1 256 38 63 (612864)
I0205 10:18:03.072041 12479 net.cpp:165] Memory required for data: 2587736916
I0205 10:18:03.072055 12479 layer_factory.hpp:77] Creating layer bn4f_branch2b
I0205 10:18:03.072072 12479 net.cpp:100] Creating Layer bn4f_branch2b
I0205 10:18:03.072079 12479 net.cpp:444] bn4f_branch2b <- res4f_branch2b
I0205 10:18:03.072094 12479 net.cpp:405] bn4f_branch2b -> res4f_branch2b (in-place)
I0205 10:18:03.072280 12479 net.cpp:150] Setting up bn4f_branch2b
I0205 10:18:03.072288 12479 net.cpp:157] Top shape: 1 256 38 63 (612864)
I0205 10:18:03.072291 12479 net.cpp:165] Memory required for data: 2590188372
I0205 10:18:03.072309 12479 layer_factory.hpp:77] Creating layer scale4f_branch2b
I0205 10:18:03.072322 12479 net.cpp:100] Creating Layer scale4f_branch2b
I0205 10:18:03.072329 12479 net.cpp:444] scale4f_branch2b <- res4f_branch2b
I0205 10:18:03.072343 12479 net.cpp:405] scale4f_branch2b -> res4f_branch2b (in-place)
I0205 10:18:03.072396 12479 layer_factory.hpp:77] Creating layer scale4f_branch2b
I0205 10:18:03.072525 12479 net.cpp:150] Setting up scale4f_branch2b
I0205 10:18:03.072533 12479 net.cpp:157] Top shape: 1 256 38 63 (612864)
I0205 10:18:03.072537 12479 net.cpp:165] Memory required for data: 2592639828
I0205 10:18:03.072551 12479 layer_factory.hpp:77] Creating layer res4f_branch2b_relu
I0205 10:18:03.072562 12479 net.cpp:100] Creating Layer res4f_branch2b_relu
I0205 10:18:03.072568 12479 net.cpp:444] res4f_branch2b_relu <- res4f_branch2b
I0205 10:18:03.072583 12479 net.cpp:405] res4f_branch2b_relu -> res4f_branch2b (in-place)
I0205 10:18:03.072722 12479 net.cpp:150] Setting up res4f_branch2b_relu
I0205 10:18:03.072731 12479 net.cpp:157] Top shape: 1 256 38 63 (612864)
I0205 10:18:03.072734 12479 net.cpp:165] Memory required for data: 2595091284
I0205 10:18:03.072741 12479 layer_factory.hpp:77] Creating layer res4f_branch2c
I0205 10:18:03.072757 12479 net.cpp:100] Creating Layer res4f_branch2c
I0205 10:18:03.072764 12479 net.cpp:444] res4f_branch2c <- res4f_branch2b
I0205 10:18:03.072780 12479 net.cpp:418] res4f_branch2c -> res4f_branch2c
I0205 10:18:03.073905 12479 cudnn_conv_layer.cpp:194] Reallocating workspace storage: 49644
I0205 10:18:03.073922 12479 net.cpp:150] Setting up res4f_branch2c
I0205 10:18:03.073932 12479 net.cpp:157] Top shape: 1 1024 38 63 (2451456)
I0205 10:18:03.073935 12479 net.cpp:165] Memory required for data: 2604897108
I0205 10:18:03.073948 12479 layer_factory.hpp:77] Creating layer bn4f_branch2c
I0205 10:18:03.073961 12479 net.cpp:100] Creating Layer bn4f_branch2c
I0205 10:18:03.073968 12479 net.cpp:444] bn4f_branch2c <- res4f_branch2c
I0205 10:18:03.073985 12479 net.cpp:405] bn4f_branch2c -> res4f_branch2c (in-place)
I0205 10:18:03.074167 12479 net.cpp:150] Setting up bn4f_branch2c
I0205 10:18:03.074173 12479 net.cpp:157] Top shape: 1 1024 38 63 (2451456)
I0205 10:18:03.074177 12479 net.cpp:165] Memory required for data: 2614702932
I0205 10:18:03.074226 12479 layer_factory.hpp:77] Creating layer scale4f_branch2c
I0205 10:18:03.074242 12479 net.cpp:100] Creating Layer scale4f_branch2c
I0205 10:18:03.074249 12479 net.cpp:444] scale4f_branch2c <- res4f_branch2c
I0205 10:18:03.074262 12479 net.cpp:405] scale4f_branch2c -> res4f_branch2c (in-place)
I0205 10:18:03.074311 12479 layer_factory.hpp:77] Creating layer scale4f_branch2c
I0205 10:18:03.074440 12479 net.cpp:150] Setting up scale4f_branch2c
I0205 10:18:03.074450 12479 net.cpp:157] Top shape: 1 1024 38 63 (2451456)
I0205 10:18:03.074452 12479 net.cpp:165] Memory required for data: 2624508756
I0205 10:18:03.074466 12479 layer_factory.hpp:77] Creating layer res4f
I0205 10:18:03.074478 12479 net.cpp:100] Creating Layer res4f
I0205 10:18:03.074484 12479 net.cpp:444] res4f <- res4e_res4e_relu_0_split_1
I0205 10:18:03.074496 12479 net.cpp:444] res4f <- res4f_branch2c
I0205 10:18:03.074508 12479 net.cpp:418] res4f -> res4f
I0205 10:18:03.074546 12479 net.cpp:150] Setting up res4f
I0205 10:18:03.074555 12479 net.cpp:157] Top shape: 1 1024 38 63 (2451456)
I0205 10:18:03.074559 12479 net.cpp:165] Memory required for data: 2634314580
I0205 10:18:03.074564 12479 layer_factory.hpp:77] Creating layer res4f_relu
I0205 10:18:03.074575 12479 net.cpp:100] Creating Layer res4f_relu
I0205 10:18:03.074581 12479 net.cpp:444] res4f_relu <- res4f
I0205 10:18:03.074594 12479 net.cpp:405] res4f_relu -> res4f (in-place)
I0205 10:18:03.074946 12479 net.cpp:150] Setting up res4f_relu
I0205 10:18:03.074956 12479 net.cpp:157] Top shape: 1 1024 38 63 (2451456)
I0205 10:18:03.074959 12479 net.cpp:165] Memory required for data: 2644120404
I0205 10:18:03.074965 12479 layer_factory.hpp:77] Creating layer res4f_res4f_relu_0_split
I0205 10:18:03.074980 12479 net.cpp:100] Creating Layer res4f_res4f_relu_0_split
I0205 10:18:03.074985 12479 net.cpp:444] res4f_res4f_relu_0_split <- res4f
I0205 10:18:03.075001 12479 net.cpp:418] res4f_res4f_relu_0_split -> res4f_res4f_relu_0_split_0
I0205 10:18:03.075017 12479 net.cpp:418] res4f_res4f_relu_0_split -> res4f_res4f_relu_0_split_1
I0205 10:18:03.075032 12479 net.cpp:418] res4f_res4f_relu_0_split -> res4f_res4f_relu_0_split_2
I0205 10:18:03.075089 12479 net.cpp:150] Setting up res4f_res4f_relu_0_split
I0205 10:18:03.075098 12479 net.cpp:157] Top shape: 1 1024 38 63 (2451456)
I0205 10:18:03.075105 12479 net.cpp:157] Top shape: 1 1024 38 63 (2451456)
I0205 10:18:03.075110 12479 net.cpp:157] Top shape: 1 1024 38 63 (2451456)
I0205 10:18:03.075114 12479 net.cpp:165] Memory required for data: 2673537876
I0205 10:18:03.075120 12479 layer_factory.hpp:77] Creating layer res5a_branch1
I0205 10:18:03.075136 12479 net.cpp:100] Creating Layer res5a_branch1
I0205 10:18:03.075142 12479 net.cpp:444] res5a_branch1 <- res4f_res4f_relu_0_split_0
I0205 10:18:03.075160 12479 net.cpp:418] res5a_branch1 -> res5a_branch1
I0205 10:18:03.080536 12479 cudnn_conv_layer.cpp:194] Reallocating workspace storage: 43116
I0205 10:18:03.080559 12479 net.cpp:150] Setting up res5a_branch1
I0205 10:18:03.080579 12479 net.cpp:157] Top shape: 1 2048 38 63 (4902912)
I0205 10:18:03.080585 12479 net.cpp:165] Memory required for data: 2693149524
I0205 10:18:03.080607 12479 layer_factory.hpp:77] Creating layer bn5a_branch1
I0205 10:18:03.080636 12479 net.cpp:100] Creating Layer bn5a_branch1
I0205 10:18:03.080647 12479 net.cpp:444] bn5a_branch1 <- res5a_branch1
I0205 10:18:03.080669 12479 net.cpp:405] bn5a_branch1 -> res5a_branch1 (in-place)
I0205 10:18:03.080868 12479 net.cpp:150] Setting up bn5a_branch1
I0205 10:18:03.080874 12479 net.cpp:157] Top shape: 1 2048 38 63 (4902912)
I0205 10:18:03.080878 12479 net.cpp:165] Memory required for data: 2712761172
I0205 10:18:03.080899 12479 layer_factory.hpp:77] Creating layer scale5a_branch1
I0205 10:18:03.080915 12479 net.cpp:100] Creating Layer scale5a_branch1
I0205 10:18:03.080922 12479 net.cpp:444] scale5a_branch1 <- res5a_branch1
I0205 10:18:03.080936 12479 net.cpp:405] scale5a_branch1 -> res5a_branch1 (in-place)
I0205 10:18:03.080993 12479 layer_factory.hpp:77] Creating layer scale5a_branch1
I0205 10:18:03.081122 12479 net.cpp:150] Setting up scale5a_branch1
I0205 10:18:03.081130 12479 net.cpp:157] Top shape: 1 2048 38 63 (4902912)
I0205 10:18:03.081133 12479 net.cpp:165] Memory required for data: 2732372820
I0205 10:18:03.081148 12479 layer_factory.hpp:77] Creating layer res5a_branch2a
I0205 10:18:03.081166 12479 net.cpp:100] Creating Layer res5a_branch2a
I0205 10:18:03.081173 12479 net.cpp:444] res5a_branch2a <- res4f_res4f_relu_0_split_1
…
I0205 13:42:09.108374 17873 net.cpp:150] Setting up res4e_branch2c
I0205 13:42:09.108383 17873 net.cpp:157] Top shape: 1 1024 14 14 (200704)
I0205 13:42:09.108387 17873 net.cpp:165] Memory required for data: 208531468
I0205 13:42:09.108398 17873 layer_factory.hpp:77] Creating layer bn4e_branch2c
I0205 13:42:09.108414 17873 net.cpp:100] Creating Layer bn4e_branch2c
I0205 13:42:09.108420 17873 net.cpp:444] bn4e_branch2c <- res4e_branch2c
I0205 13:42:09.108435 17873 net.cpp:405] bn4e_branch2c -> res4e_branch2c (in-place)
I0205 13:42:09.108610 17873 net.cpp:150] Setting up bn4e_branch2c
I0205 13:42:09.108618 17873 net.cpp:157] Top shape: 1 1024 14 14 (200704)
I0205 13:42:09.108621 17873 net.cpp:165] Memory required for data: 209334284
I0205 13:42:09.108639 17873 layer_factory.hpp:77] Creating layer scale4e_branch2c
I0205 13:42:09.108651 17873 net.cpp:100] Creating Layer scale4e_branch2c
I0205 13:42:09.108659 17873 net.cpp:444] scale4e_branch2c <- res4e_branch2c
I0205 13:42:09.108671 17873 net.cpp:405] scale4e_branch2c -> res4e_branch2c (in-place)
I0205 13:42:09.108719 17873 layer_factory.hpp:77] Creating layer scale4e_branch2c
I0205 13:42:09.108841 17873 net.cpp:150] Setting up scale4e_branch2c
I0205 13:42:09.108850 17873 net.cpp:157] Top shape: 1 1024 14 14 (200704)
I0205 13:42:09.108855 17873 net.cpp:165] Memory required for data: 210137100
I0205 13:42:09.108866 17873 layer_factory.hpp:77] Creating layer res4e
I0205 13:42:09.108878 17873 net.cpp:100] Creating Layer res4e
I0205 13:42:09.108885 17873 net.cpp:444] res4e <- res4d_res4d_relu_0_split_1
I0205 13:42:09.108896 17873 net.cpp:444] res4e <- res4e_branch2c
I0205 13:42:09.108906 17873 net.cpp:418] res4e -> res4e
I0205 13:42:09.108939 17873 net.cpp:150] Setting up res4e
I0205 13:42:09.108948 17873 net.cpp:157] Top shape: 1 1024 14 14 (200704)
I0205 13:42:09.108952 17873 net.cpp:165] Memory required for data: 210939916
I0205 13:42:09.108956 17873 layer_factory.hpp:77] Creating layer res4e_relu
I0205 13:42:09.108966 17873 net.cpp:100] Creating Layer res4e_relu
I0205 13:42:09.108973 17873 net.cpp:444] res4e_relu <- res4e
I0205 13:42:09.108984 17873 net.cpp:405] res4e_relu -> res4e (in-place)
I0205 13:42:09.109117 17873 net.cpp:150] Setting up res4e_relu
I0205 13:42:09.109124 17873 net.cpp:157] Top shape: 1 1024 14 14 (200704)
I0205 13:42:09.109128 17873 net.cpp:165] Memory required for data: 211742732
I0205 13:42:09.109133 17873 layer_factory.hpp:77] Creating layer res4e_res4e_relu_0_split
I0205 13:42:09.109144 17873 net.cpp:100] Creating Layer res4e_res4e_relu_0_split
I0205 13:42:09.109150 17873 net.cpp:444] res4e_res4e_relu_0_split <- res4e
I0205 13:42:09.109163 17873 net.cpp:418] res4e_res4e_relu_0_split -> res4e_res4e_relu_0_split_0
I0205 13:42:09.109179 17873 net.cpp:418] res4e_res4e_relu_0_split -> res4e_res4e_relu_0_split_1
I0205 13:42:09.109227 17873 net.cpp:150] Setting up res4e_res4e_relu_0_split
I0205 13:42:09.109236 17873 net.cpp:157] Top shape: 1 1024 14 14 (200704)
I0205 13:42:09.109241 17873 net.cpp:157] Top shape: 1 1024 14 14 (200704)
I0205 13:42:09.109241 17873 net.cpp:165] Memory required for data: 213348364
I0205 13:42:09.109246 17873 layer_factory.hpp:77] Creating layer res4f_branch2a
I0205 13:42:09.109258 17873 net.cpp:100] Creating Layer res4f_branch2a
I0205 13:42:09.109263 17873 net.cpp:444] res4f_branch2a <- res4e_res4e_relu_0_split_0
I0205 13:42:09.109277 17873 net.cpp:418] res4f_branch2a -> res4f_branch2a
I0205 13:42:09.110368 17873 cudnn_conv_layer.cpp:194] Reallocating workspace storage: 10080
I0205 13:42:09.110388 17873 net.cpp:150] Setting up res4f_branch2a
I0205 13:42:09.110395 17873 net.cpp:157] Top shape: 1 256 14 14 (50176)
I0205 13:42:09.110397 17873 net.cpp:165] Memory required for data: 213549068
I0205 13:42:09.110407 17873 layer_factory.hpp:77] Creating layer bn4f_branch2a
I0205 13:42:09.110419 17873 net.cpp:100] Creating Layer bn4f_branch2a
I0205 13:42:09.110425 17873 net.cpp:444] bn4f_branch2a <- res4f_branch2a
I0205 13:42:09.110437 17873 net.cpp:405] bn4f_branch2a -> res4f_branch2a (in-place)
I0205 13:42:09.110605 17873 net.cpp:150] Setting up bn4f_branch2a
I0205 13:42:09.110611 17873 net.cpp:157] Top shape: 1 256 14 14 (50176)
I0205 13:42:09.110615 17873 net.cpp:165] Memory required for data: 213749772
I0205 13:42:09.110630 17873 layer_factory.hpp:77] Creating layer scale4f_branch2a
I0205 13:42:09.110644 17873 net.cpp:100] Creating Layer scale4f_branch2a
I0205 13:42:09.110651 17873 net.cpp:444] scale4f_branch2a <- res4f_branch2a
I0205 13:42:09.110664 17873 net.cpp:405] scale4f_branch2a -> res4f_branch2a (in-place)
I0205 13:42:09.110713 17873 layer_factory.hpp:77] Creating layer scale4f_branch2a
I0205 13:42:09.110829 17873 net.cpp:150] Setting up scale4f_branch2a
I0205 13:42:09.110837 17873 net.cpp:157] Top shape: 1 256 14 14 (50176)
I0205 13:42:09.110841 17873 net.cpp:165] Memory required for data: 213950476
I0205 13:42:09.110853 17873 layer_factory.hpp:77] Creating layer res4f_branch2a_relu
I0205 13:42:09.110864 17873 net.cpp:100] Creating Layer res4f_branch2a_relu
I0205 13:42:09.110870 17873 net.cpp:444] res4f_branch2a_relu <- res4f_branch2a
I0205 13:42:09.110882 17873 net.cpp:405] res4f_branch2a_relu -> res4f_branch2a (in-place)
I0205 13:42:09.111014 17873 net.cpp:150] Setting up res4f_branch2a_relu
I0205 13:42:09.111021 17873 net.cpp:157] Top shape: 1 256 14 14 (50176)
I0205 13:42:09.111026 17873 net.cpp:165] Memory required for data: 214151180
I0205 13:42:09.111030 17873 layer_factory.hpp:77] Creating layer res4f_branch2b
I0205 13:42:09.111047 17873 net.cpp:100] Creating Layer res4f_branch2b
I0205 13:42:09.111052 17873 net.cpp:444] res4f_branch2b <- res4f_branch2a
I0205 13:42:09.111068 17873 net.cpp:418] res4f_branch2b -> res4f_branch2b
I0205 13:42:09.113137 17873 cudnn_conv_layer.cpp:194] Reallocating workspace storage: 12582912
I0205 13:42:09.113366 17873 net.cpp:150] Setting up res4f_branch2b
I0205 13:42:09.113379 17873 net.cpp:157] Top shape: 1 256 14 14 (50176)
I0205 13:42:09.113382 17873 net.cpp:165] Memory required for data: 214351884
I0205 13:42:09.113395 17873 layer_factory.hpp:77] Creating layer bn4f_branch2b
I0205 13:42:09.113411 17873 net.cpp:100] Creating Layer bn4f_branch2b
I0205 13:42:09.113417 17873 net.cpp:444] bn4f_branch2b <- res4f_branch2b
I0205 13:42:09.113430 17873 net.cpp:405] bn4f_branch2b -> res4f_branch2b (in-place)
I0205 13:42:09.113605 17873 net.cpp:150] Setting up bn4f_branch2b
I0205 13:42:09.113611 17873 net.cpp:157] Top shape: 1 256 14 14 (50176)
I0205 13:42:09.113613 17873 net.cpp:165] Memory required for data: 214552588
I0205 13:42:09.113628 17873 layer_factory.hpp:77] Creating layer scale4f_branch2b
I0205 13:42:09.113639 17873 net.cpp:100] Creating Layer scale4f_branch2b
I0205 13:42:09.113644 17873 net.cpp:444] scale4f_branch2b <- res4f_branch2b
I0205 13:42:09.113656 17873 net.cpp:405] scale4f_branch2b -> res4f_branch2b (in-place)
I0205 13:42:09.113703 17873 layer_factory.hpp:77] Creating layer scale4f_branch2b
I0205 13:42:09.113817 17873 net.cpp:150] Setting up scale4f_branch2b
I0205 13:42:09.113824 17873 net.cpp:157] Top shape: 1 256 14 14 (50176)
I0205 13:42:09.113827 17873 net.cpp:165] Memory required for data: 214753292
I0205 13:42:09.113837 17873 layer_factory.hpp:77] Creating layer res4f_branch2b_relu
I0205 13:42:09.113847 17873 net.cpp:100] Creating Layer res4f_branch2b_relu
I0205 13:42:09.113852 17873 net.cpp:444] res4f_branch2b_relu <- res4f_branch2b
I0205 13:42:09.113860 17873 net.cpp:405] res4f_branch2b_relu -> res4f_branch2b (in-place)
I0205 13:42:09.113998 17873 net.cpp:150] Setting up res4f_branch2b_relu
I0205 13:42:09.114006 17873 net.cpp:157] Top shape: 1 256 14 14 (50176)
I0205 13:42:09.114007 17873 net.cpp:165] Memory required for data: 214953996
I0205 13:42:09.114012 17873 layer_factory.hpp:77] Creating layer res4f_branch2c
I0205 13:42:09.114024 17873 net.cpp:100] Creating Layer res4f_branch2c
I0205 13:42:09.114029 17873 net.cpp:444] res4f_branch2c <- res4f_branch2b
I0205 13:42:09.114043 17873 net.cpp:418] res4f_branch2c -> res4f_branch2c
I0205 13:42:09.115662 17873 cudnn_conv_layer.cpp:194] Reallocating workspace storage: 10080
I0205 13:42:09.115686 17873 net.cpp:150] Setting up res4f_branch2c
I0205 13:42:09.115694 17873 net.cpp:157] Top shape: 1 1024 14 14 (200704)
I0205 13:42:09.115697 17873 net.cpp:165] Memory required for data: 215756812
I0205 13:42:09.115707 17873 layer_factory.hpp:77] Creating layer bn4f_branch2c
I0205 13:42:09.115721 17873 net.cpp:100] Creating Layer bn4f_branch2c
I0205 13:42:09.115727 17873 net.cpp:444] bn4f_branch2c <- res4f_branch2c
I0205 13:42:09.115741 17873 net.cpp:405] bn4f_branch2c -> res4f_branch2c (in-place)
I0205 13:42:09.115914 17873 net.cpp:150] Setting up bn4f_branch2c
I0205 13:42:09.115921 17873 net.cpp:157] Top shape: 1 1024 14 14 (200704)
I0205 13:42:09.115923 17873 net.cpp:165] Memory required for data: 216559628
I0205 13:42:09.115972 17873 layer_factory.hpp:77] Creating layer scale4f_branch2c
I0205 13:42:09.115986 17873 net.cpp:100] Creating Layer scale4f_branch2c
I0205 13:42:09.115993 17873 net.cpp:444] scale4f_branch2c <- res4f_branch2c
I0205 13:42:09.116005 17873 net.cpp:405] scale4f_branch2c -> res4f_branch2c (in-place)
I0205 13:42:09.116056 17873 layer_factory.hpp:77] Creating layer scale4f_branch2c
I0205 13:42:09.116180 17873 net.cpp:150] Setting up scale4f_branch2c
I0205 13:42:09.116189 17873 net.cpp:157] Top shape: 1 1024 14 14 (200704)
I0205 13:42:09.116191 17873 net.cpp:165] Memory required for data: 217362444
I0205 13:42:09.116204 17873 layer_factory.hpp:77] Creating layer res4f
I0205 13:42:09.116214 17873 net.cpp:100] Creating Layer res4f
I0205 13:42:09.116220 17873 net.cpp:444] res4f <- res4e_res4e_relu_0_split_1
I0205 13:42:09.116230 17873 net.cpp:444] res4f <- res4f_branch2c
I0205 13:42:09.116240 17873 net.cpp:418] res4f -> res4f
I0205 13:42:09.116273 17873 net.cpp:150] Setting up res4f
I0205 13:42:09.116282 17873 net.cpp:157] Top shape: 1 1024 14 14 (200704)
I0205 13:42:09.116286 17873 net.cpp:165] Memory required for data: 218165260
I0205 13:42:09.116289 17873 layer_factory.hpp:77] Creating layer res4f_relu
I0205 13:42:09.116302 17873 net.cpp:100] Creating Layer res4f_relu
I0205 13:42:09.116307 17873 net.cpp:444] res4f_relu <- res4f
I0205 13:42:09.116317 17873 net.cpp:405] res4f_relu -> res4f (in-place)
I0205 13:42:09.116662 17873 net.cpp:150] Setting up res4f_relu
I0205 13:42:09.116672 17873 net.cpp:157] Top shape: 1 1024 14 14 (200704)
I0205 13:42:09.116677 17873 net.cpp:165] Memory required for data: 218968076
I0205 13:42:09.116681 17873 layer_factory.hpp:77] Creating layer res4f_res4f_relu_0_split
I0205 13:42:09.116693 17873 net.cpp:100] Creating Layer res4f_res4f_relu_0_split
I0205 13:42:09.116699 17873 net.cpp:444] res4f_res4f_relu_0_split <- res4f
I0205 13:42:09.116714 17873 net.cpp:418] res4f_res4f_relu_0_split -> res4f_res4f_relu_0_split_0
I0205 13:42:09.116727 17873 net.cpp:418] res4f_res4f_relu_0_split -> res4f_res4f_relu_0_split_1
I0205 13:42:09.116737 17873 net.cpp:418] res4f_res4f_relu_0_split -> res4f_res4f_relu_0_split_2
I0205 13:42:09.116791 17873 net.cpp:150] Setting up res4f_res4f_relu_0_split
I0205 13:42:09.116797 17873 net.cpp:157] Top shape: 1 1024 14 14 (200704)
I0205 13:42:09.116801 17873 net.cpp:157] Top shape: 1 1024 14 14 (200704)
I0205 13:42:09.116806 17873 net.cpp:157] Top shape: 1 1024 14 14 (200704)
I0205 13:42:09.116808 17873 net.cpp:165] Memory required for data: 221376524
I0205 13:42:09.116811 17873 layer_factory.hpp:77] Creating layer res5a_branch1
I0205 13:42:09.116824 17873 net.cpp:100] Creating Layer res5a_branch1
I0205 13:42:09.116829 17873 net.cpp:444] res5a_branch1 <- res4f_res4f_relu_0_split_0
I0205 13:42:09.116842 17873 net.cpp:418] res5a_branch1 -> res5a_branch1
I0205 13:42:09.121954 17873 cudnn_conv_layer.cpp:194] Reallocating workspace storage: 8568
I0205 13:42:09.121989 17873 net.cpp:150] Setting up res5a_branch1
I0205 13:42:09.122005 17873 net.cpp:157] Top shape: 1 2048 14 14 (401408)
I0205 13:42:09.122009 17873 net.cpp:165] Memory required for data: 222982156
I0205 13:42:09.122027 17873 layer_factory.hpp:77] Creating layer bn5a_branch1
I0205 13:42:09.122053 17873 net.cpp:100] Creating Layer bn5a_branch1
I0205 13:42:09.122063 17873 net.cpp:444] bn5a_branch1 <- res5a_branch1
I0205 13:42:09.122081 17873 net.cpp:405] bn5a_branch1 -> res5a_branch1 (in-place)
I0205 13:42:09.122277 17873 net.cpp:150] Setting up bn5a_branch1
I0205 13:42:09.122284 17873 net.cpp:157] Top shape: 1 2048 14 14 (401408)
I0205 13:42:09.122287 17873 net.cpp:165] Memory required for data: 224587788
I0205 13:42:09.122303 17873 layer_factory.hpp:77] Creating layer scale5a_branch1
I0205 13:42:09.122316 17873 net.cpp:100] Creating Layer scale5a_branch1
I0205 13:42:09.122323 17873 net.cpp:444] scale5a_branch1 <- res5a_branch1
I0205 13:42:09.122331 17873 net.cpp:405] scale5a_branch1 -> res5a_branch1 (in-place)
I0205 13:42:09.122381 17873 layer_factory.hpp:77] Creating layer scale5a_branch1
I0205 13:42:09.122505 17873 net.cpp:150] Setting up scale5a_branch1
I0205 13:42:09.122514 17873 net.cpp:157] Top shape: 1 2048 14 14 (401408)
I0205 13:42:09.122515 17873 net.cpp:165] Memory required for data: 226193420
I0205 13:42:09.122525 17873 layer_factory.hpp:77] Creating layer res5a_branch2a
I0205 13:42:09.122541 17873 net.cpp:100] Creating Layer res5a_branch2a
I0205 13:42:09.122547 17873 net.cpp:444] res5a_branch2a <- res4f_res4f_relu_0_split_1
I0205 13:42:09.122560 17873 net.cpp:418] res5a_branch2a -> res5a_branch2a
I0205 13:42:09.125016 17873 cudnn_conv_layer.cpp:194] Reallocating workspace storage: 10080
I0205 13:42:09.125044 17873 net.cpp:150] Setting up res5a_branch2a
I0205 13:42:09.125058 17873 net.cpp:157] Top shape: 1 512 14 14 (100352)
I0205 13:42:09.125061 17873 net.cpp:165] Memory required for data: 226594828
I0205 13:42:09.125077 17873 layer_factory.hpp:77] Creating layer bn5a_branch2a
I0205 13:42:09.125097 17873 net.cpp:100] Creating Layer bn5a_branch2a
I0205 13:42:09.125107 17873 net.cpp:444] bn5a_branch2a <- res5a_branch2a
I0205 13:42:09.125123 17873 net.cpp:405] bn5a_branch2a -> res5a_branch2a (in-place)
I0205 13:42:09.125318 17873 net.cpp:150] Setting up bn5a_branch2a
I0205 13:42:09.125325 17873 net.cpp:157] Top shape: 1 512 14 14 (100352)
I0205 13:42:09.125327 17873 net.cpp:165] Memory required for data: 226996236
I0205 13:42:09.125342 17873 layer_factory.hpp:77] Creating layer scale5a_branch2a
I0205 13:42:09.125355 17873 net.cpp:100] Creating Layer scale5a_branch2a
I0205 13:42:09.125360 17873 net.cpp:444] scale5a_branch2a <- res5a_branch2a
I0205 13:42:09.125371 17873 net.cpp:405] scale5a_branch2a -> res5a_branch2a (in-place)
I0205 13:42:09.125416 17873 layer_factory.hpp:77] Creating layer scale5a_branch2a
I0205 13:42:09.125540 17873 net.cpp:150] Setting up scale5a_branch2a
I0205 13:42:09.125547 17873 net.cpp:157] Top shape: 1 512 14 14 (100352)
I0205 13:42:09.125550 17873 net.cpp:165] Memory required for data: 227397644
I0205 13:42:09.125560 17873 layer_factory.hpp:77] Creating layer res5a_branch2a_relu
I0205 13:42:09.125569 17873 net.cpp:100] Creating Layer res5a_branch2a_relu
I0205 13:42:09.125574 17873 net.cpp:444] res5a_branch2a_relu <- res5a_branch2a
I0205 13:42:09.125584 17873 net.cpp:405] res5a_branch2a_relu -> res5a_branch2a (in-place)
I0205 13:42:09.125716 17873 net.cpp:150] Setting up res5a_branch2a_relu
I0205 13:42:09.125723 17873 net.cpp:157] Top shape: 1 512 14 14 (100352)
I0205 13:42:09.125726 17873 net.cpp:165] Memory required for data: 227799052
I0205 13:42:09.125730 17873 layer_factory.hpp:77] Creating layer res5a_branch2b
I0205 13:42:09.125743 17873 net.cpp:100] Creating Layer res5a_branch2b
I0205 13:42:09.125748 17873 net.cpp:444] res5a_branch2b <- res5a_branch2a
I0205 13:42:09.125761 17873 net.cpp:418] res5a_branch2b -> res5a_branch2b
I0205 13:42:09.130735 17873 net.cpp:150] Setting up res5a_branch2b
I0205 13:42:09.130764 17873 net.cpp:157] Top shape: 1 512 14 14 (100352)
I0205 13:42:09.130767 17873 net.cpp:165] Memory required for data: 228200460
I0205 13:42:09.130789 17873 layer_factory.hpp:77] Creating layer bn5a_branch2b
I0205 13:42:09.130818 17873 net.cpp:100] Creating Layer bn5a_branch2b
I0205 13:42:09.130828 17873 net.cpp:444] bn5a_branch2b <- res5a_branch2b
I0205 13:42:09.130846 17873 net.cpp:405] bn5a_branch2b -> res5a_branch2b (in-place)
I0205 13:42:09.131042 17873 net.cpp:150] Setting up bn5a_branch2b
I0205 13:42:09.131048 17873 net.cpp:157] Top shape: 1 512 14 14 (100352)
I0205 13:42:09.131050 17873 net.cpp:165] Memory required for data: 228601868
I0205 13:42:09.131065 17873 layer_factory.hpp:77] Creating layer scale5a_branch2b
I0205 13:42:09.131079 17873 net.cpp:100] Creating Layer scale5a_branch2b
I0205 13:42:09.131085 17873 net.cpp:444] scale5a_branch2b <- res5a_branch2b
I0205 13:42:09.131094 17873 net.cpp:405] scale5a_branch2b -> res5a_branch2b (in-place)
I0205 13:42:09.131141 17873 layer_factory.hpp:77] Creating layer scale5a_branch2b
I0205 13:42:09.131265 17873 net.cpp:150] Setting up scale5a_branch2b
I0205 13:42:09.131273 17873 net.cpp:157] Top shape: 1 512 14 14 (100352)
I0205 13:42:09.131275 17873 net.cpp:165] Memory required for data: 229003276
I0205 13:42:09.131286 17873 layer_factory.hpp:77] Creating layer res5a_branch2b_relu
I0205 13:42:09.131299 17873 net.cpp:100] Creating Layer res5a_branch2b_relu
I0205 13:42:09.131304 17873 net.cpp:444] res5a_branch2b_relu <- res5a_branch2b
I0205 13:42:09.131317 17873 net.cpp:405] res5a_branch2b_relu -> res5a_branch2b (in-place)
I0205 13:42:09.131494 17873 net.cpp:150] Setting up res5a_branch2b_relu
I0205 13:42:09.131500 17873 net.cpp:157] Top shape: 1 512 14 14 (100352)
I0205 13:42:09.131505 17873 net.cpp:165] Memory required for data: 229404684
I0205 13:42:09.131510 17873 layer_factory.hpp:77] Creating layer res5a_branch2c
I0205 13:42:09.131526 17873 net.cpp:100] Creating Layer res5a_branch2c
I0205 13:42:09.131531 17873 net.cpp:444] res5a_branch2c <- res5a_branch2b
I0205 13:42:09.131544 17873 net.cpp:418] res5a_branch2c -> res5a_branch2c
I0205 13:42:09.134634 17873 cudnn_conv_layer.cpp:194] Reallocating workspace storage: 7800
I0205 13:42:09.134665 17873 net.cpp:150] Setting up res5a_branch2c
I0205 13:42:09.134676 17873 net.cpp:157] Top shape: 1 2048 14 14 (401408)
I0205 13:42:09.134680 17873 net.cpp:165] Memory required for data: 231010316
I0205 13:42:09.134693 17873 layer_factory.hpp:77] Creating layer bn5a_branch2c
I0205 13:42:09.134712 17873 net.cpp:100] Creating Layer bn5a_branch2c
I0205 13:42:09.134721 17873 net.cpp:444] bn5a_branch2c <- res5a_branch2c
I0205 13:42:09.134733 17873 net.cpp:405] bn5a_branch2c -> res5a_branch2c (in-place)
I0205 13:42:09.134919 17873 net.cpp:150] Setting up bn5a_branch2c
I0205 13:42:09.134925 17873 net.cpp:157] Top shape: 1 2048 14 14 (401408)
I0205 13:42:09.134928 17873 net.cpp:165] Memory required for data: 232615948
I0205 13:42:09.134943 17873 layer_factory.hpp:77] Creating layer scale5a_branch2c
I0205 13:42:09.134955 17873 net.cpp:100] Creating Layer scale5a_branch2c
I0205 13:42:09.134960 17873 net.cpp:444] scale5a_branch2c <- res5a_branch2c
I0205 13:42:09.134970 17873 net.cpp:405] scale5a_branch2c -> res5a_branch2c (in-place)
I0205 13:42:09.135020 17873 layer_factory.hpp:77] Creating layer scale5a_branch2c
I0205 13:42:09.135143 17873 net.cpp:150] Setting up scale5a_branch2c
I0205 13:42:09.135150 17873 net.cpp:157] Top shape: 1 2048 14 14 (401408)
I0205 13:42:09.135154 17873 net.cpp:165] Memory required for data: 234221580
I0205 13:42:09.135162 17873 layer_factory.hpp:77] Creating layer res5a
I0205 13:42:09.135172 17873 net.cpp:100] Creating Layer res5a
I0205 13:42:09.135177 17873 net.cpp:444] res5a <- res5a_branch1
I0205 13:42:09.135186 17873 net.cpp:444] res5a <- res5a_branch2c
I0205 13:42:09.135195 17873 net.cpp:418] res5a -> res5a
I0205 13:42:09.135226 17873 net.cpp:150] Setting up res5a
I0205 13:42:09.135234 17873 net.cpp:157] Top shape: 1 2048 14 14 (401408)
I0205 13:42:09.135236 17873 net.cpp:165] Memory required for data: 235827212
I0205 13:42:09.135241 17873 layer_factory.hpp:77] Creating layer res5a_relu
I0205 13:42:09.135248 17873 net.cpp:100] Creating Layer res5a_relu
I0205 13:42:09.135252 17873 net.cpp:444] res5a_relu <- res5a
I0205 13:42:09.135262 17873 net.cpp:405] res5a_relu -> res5a (in-place)
I0205 13:42:09.135624 17873 net.cpp:150] Setting up res5a_relu
I0205 13:42:09.135632 17873 net.cpp:157] Top shape: 1 2048 14 14 (401408)
I0205 13:42:09.135635 17873 net.cpp:165] Memory required for data: 237432844
I0205 13:42:09.135640 17873 layer_factory.hpp:77] Creating layer res5a_res5a_relu_0_split
I0205 13:42:09.135649 17873 net.cpp:100] Creating Layer res5a_res5a_relu_0_split
I0205 13:42:09.135655 17873 net.cpp:444] res5a_res5a_relu_0_split <- res5a
I0205 13:42:09.135666 17873 net.cpp:418] res5a_res5a_relu_0_split -> res5a_res5a_relu_0_split_0
I0205 13:42:09.135680 17873 net.cpp:418] res5a_res5a_relu_0_split -> res5a_res5a_relu_0_split_1
I0205 13:42:09.135721 17873 net.cpp:150] Setting up res5a_res5a_relu_0_split
I0205 13:42:09.135730 17873 net.cpp:157] Top shape: 1 2048 14 14 (401408)
I0205 13:42:09.135733 17873 net.cpp:157] Top shape: 1 2048 14 14 (401408)
I0205 13:42:09.135735 17873 net.cpp:165] Memory required for data: 240644108
I0205 13:42:09.135740 17873 layer_factory.hpp:77] Creating layer res5b_branch2a
I0205 13:42:09.135752 17873 net.cpp:100] Creating Layer res5b_branch2a
I0205 13:42:09.135757 17873 net.cpp:444] res5b_branch2a <- res5a_res5a_relu_0_split_0
I0205 13:42:09.135772 17873 net.cpp:418] res5b_branch2a -> res5b_branch2a
I0205 13:42:09.138792 17873 cudnn_conv_layer.cpp:194] Reallocating workspace storage: 10080
I0205 13:42:09.138823 17873 net.cpp:150] Setting up res5b_branch2a
I0205 13:42:09.138835 17873 net.cpp:157] Top shape: 1 512 14 14 (100352)
I0205 13:42:09.138839 17873 net.cpp:165] Memory required for data: 241045516
I0205 13:42:09.138856 17873 layer_factory.hpp:77] Creating layer bn5b_branch2a
I0205 13:42:09.138877 17873 net.cpp:100] Creating Layer bn5b_branch2a
I0205 13:42:09.138885 17873 net.cpp:444] bn5b_branch2a <- res5b_branch2a
I0205 13:42:09.138900 17873 net.cpp:405] bn5b_branch2a -> res5b_branch2a (in-place)
I0205 13:42:09.139086 17873 net.cpp:150] Setting up bn5b_branch2a
I0205 13:42:09.139093 17873 net.cpp:157] Top shape: 1 512 14 14 (100352)
I0205 13:42:09.139096 17873 net.cpp:165] Memory required for data: 241446924
I0205 13:42:09.139112 17873 layer_factory.hpp:77] Creating layer scale5b_branch2a
I0205 13:42:09.139125 17873 net.cpp:100] Creating Layer scale5b_branch2a
I0205 13:42:09.139132 17873 net.cpp:444] scale5b_branch2a <- res5b_branch2a
I0205 13:42:09.139142 17873 net.cpp:405] scale5b_branch2a -> res5b_branch2a (in-place)
I0205 13:42:09.139189 17873 layer_factory.hpp:77] Creating layer scale5b_branch2a
I0205 13:42:09.139313 17873 net.cpp:150] Setting up scale5b_branch2a
I0205 13:42:09.139322 17873 net.cpp:157] Top shape: 1 512 14 14 (100352)
I0205 13:42:09.139323 17873 net.cpp:165] Memory required for data: 241848332
I0205 13:42:09.139333 17873 layer_factory.hpp:77] Creating layer res5b_branch2a_relu
I0205 13:42:09.139343 17873 net.cpp:100] Creating Layer res5b_branch2a_relu
I0205 13:42:09.139348 17873 net.cpp:444] res5b_branch2a_relu <- res5b_branch2a
I0205 13:42:09.139356 17873 net.cpp:405] res5b_branch2a_relu -> res5b_branch2a (in-place)
I0205 13:42:09.139492 17873 net.cpp:150] Setting up res5b_branch2a_relu
I0205 13:42:09.139498 17873 net.cpp:157] Top shape: 1 512 14 14 (100352)
I0205 13:42:09.139502 17873 net.cpp:165] Memory required for data: 242249740
I0205 13:42:09.139504 17873 layer_factory.hpp:77] Creating layer res5b_branch2b
I0205 13:42:09.139518 17873 net.cpp:100] Creating Layer res5b_branch2b
I0205 13:42:09.139523 17873 net.cpp:444] res5b_branch2b <- res5b_branch2a
I0205 13:42:09.139535 17873 net.cpp:418] res5b_branch2b -> res5b_branch2b
I0205 13:42:09.144448 17873 net.cpp:150] Setting up res5b_branch2b
I0205 13:42:09.144481 17873 net.cpp:157] Top shape: 1 512 14 14 (100352)
I0205 13:42:09.144484 17873 net.cpp:165] Memory required for data: 242651148
I0205 13:42:09.144505 17873 layer_factory.hpp:77] Creating layer bn5b_branch2b
I0205 13:42:09.144532 17873 net.cpp:100] Creating Layer bn5b_branch2b
I0205 13:42:09.144541 17873 net.cpp:444] bn5b_branch2b <- res5b_branch2b
I0205 13:42:09.144557 17873 net.cpp:405] bn5b_branch2b -> res5b_branch2b (in-place)
I0205 13:42:09.144753 17873 net.cpp:150] Setting up bn5b_branch2b
I0205 13:42:09.144760 17873 net.cpp:157] Top shape: 1 512 14 14 (100352)
I0205 13:42:09.144763 17873 net.cpp:165] Memory required for data: 243052556
I0205 13:42:09.144778 17873 layer_factory.hpp:77] Creating layer scale5b_branch2b
I0205 13:42:09.144791 17873 net.cpp:100] Creating Layer scale5b_branch2b
I0205 13:42:09.144796 17873 net.cpp:444] scale5b_branch2b <- res5b_branch2b
I0205 13:42:09.144807 17873 net.cpp:405] scale5b_branch2b -> res5b_branch2b (in-place)
I0205 13:42:09.144855 17873 layer_factory.hpp:77] Creating layer scale5b_branch2b
I0205 13:42:09.144979 17873 net.cpp:150] Setting up scale5b_branch2b
I0205 13:42:09.144986 17873 net.cpp:157] Top shape: 1 512 14 14 (100352)
I0205 13:42:09.144989 17873 net.cpp:165] Memory required for data: 243453964
I0205 13:42:09.144999 17873 layer_factory.hpp:77] Creating layer res5b_branch2b_relu
I0205 13:42:09.145009 17873 net.cpp:100] Creating Layer res5b_branch2b_relu
I0205 13:42:09.145015 17873 net.cpp:444] res5b_branch2b_relu <- res5b_branch2b
I0205 13:42:09.145023 17873 net.cpp:405] res5b_branch2b_relu -> res5b_branch2b (in-place)
I0205 13:42:09.145198 17873 net.cpp:150] Setting up res5b_branch2b_relu
I0205 13:42:09.145210 17873 net.cpp:157] Top shape: 1 512 14 14 (100352)
I0205 13:42:09.145213 17873 net.cpp:165] Memory required for data: 243855372
I0205 13:42:09.145217 17873 layer_factory.hpp:77] Creating layer res5b_branch2c
I0205 13:42:09.145232 17873 net.cpp:100] Creating Layer res5b_branch2c
I0205 13:42:09.145237 17873 net.cpp:444] res5b_branch2c <- res5b_branch2b
I0205 13:42:09.145249 17873 net.cpp:418] res5b_branch2c -> res5b_branch2c
I0205 13:42:09.148377 17873 cudnn_conv_layer.cpp:194] Reallocating workspace storage: 7800
I0205 13:42:09.148406 17873 net.cpp:150] Setting up res5b_branch2c
I0205 13:42:09.148419 17873 net.cpp:157] Top shape: 1 2048 14 14 (401408)
I0205 13:42:09.148423 17873 net.cpp:165] Memory required for data: 245461004
I0205 13:42:09.148438 17873 layer_factory.hpp:77] Creating layer bn5b_branch2c
I0205 13:42:09.148459 17873 net.cpp:100] Creating Layer bn5b_branch2c
I0205 13:42:09.148470 17873 net.cpp:444] bn5b_branch2c <- res5b_branch2c
I0205 13:42:09.148486 17873 net.cpp:405] bn5b_branch2c -> res5b_branch2c (in-place)
I0205 13:42:09.148680 17873 net.cpp:150] Setting up bn5b_branch2c
I0205 13:42:09.148687 17873 net.cpp:157] Top shape: 1 2048 14 14 (401408)
I0205 13:42:09.148691 17873 net.cpp:165] Memory required for data: 247066636
I0205 13:42:09.148708 17873 layer_factory.hpp:77] Creating layer scale5b_branch2c
I0205 13:42:09.148722 17873 net.cpp:100] Creating Layer scale5b_branch2c
I0205 13:42:09.148728 17873 net.cpp:444] scale5b_branch2c <- res5b_branch2c
I0205 13:42:09.148742 17873 net.cpp:405] scale5b_branch2c -> res5b_branch2c (in-place)
I0205 13:42:09.148793 17873 layer_factory.hpp:77] Creating layer scale5b_branch2c
I0205 13:42:09.148922 17873 net.cpp:150] Setting up scale5b_branch2c
I0205 13:42:09.148929 17873 net.cpp:157] Top shape: 1 2048 14 14 (401408)
I0205 13:42:09.148933 17873 net.cpp:165] Memory required for data: 248672268
I0205 13:42:09.148946 17873 layer_factory.hpp:77] Creating layer res5b
I0205 13:42:09.148957 17873 net.cpp:100] Creating Layer res5b
I0205 13:42:09.148963 17873 net.cpp:444] res5b <- res5a_res5a_relu_0_split_1
I0205 13:42:09.148973 17873 net.cpp:444] res5b <- res5b_branch2c
I0205 13:42:09.148984 17873 net.cpp:418] res5b -> res5b
I0205 13:42:09.149019 17873 net.cpp:150] Setting up res5b
I0205 13:42:09.149029 17873 net.cpp:157] Top shape: 1 2048 14 14 (401408)
I0205 13:42:09.149031 17873 net.cpp:165] Memory required for data: 250277900
I0205 13:42:09.149035 17873 layer_factory.hpp:77] Creating layer res5b_relu
I0205 13:42:09.149047 17873 net.cpp:100] Creating Layer res5b_relu
I0205 13:42:09.149052 17873 net.cpp:444] res5b_relu <- res5b
I0205 13:42:09.149065 17873 net.cpp:405] res5b_relu -> res5b (in-place)
I0205 13:42:09.149428 17873 net.cpp:150] Setting up res5b_relu
I0205 13:42:09.149437 17873 net.cpp:157] Top shape: 1 2048 14 14 (401408)
I0205 13:42:09.149441 17873 net.cpp:165] Memory required for data: 251883532
I0205 13:42:09.149447 17873 layer_factory.hpp:77] Creating layer res5b_res5b_relu_0_split
I0205 13:42:09.149459 17873 net.cpp:100] Creating Layer res5b_res5b_relu_0_split
I0205 13:42:09.149466 17873 net.cpp:444] res5b_res5b_relu_0_split <- res5b
I0205 13:42:09.149480 17873 net.cpp:418] res5b_res5b_relu_0_split -> res5b_res5b_relu_0_split_0
I0205 13:42:09.149497 17873 net.cpp:418] res5b_res5b_relu_0_split -> res5b_res5b_relu_0_split_1
I0205 13:42:09.149543 17873 net.cpp:150] Setting up res5b_res5b_relu_0_split
I0205 13:42:09.149551 17873 net.cpp:157] Top shape: 1 2048 14 14 (401408)
I0205 13:42:09.149556 17873 net.cpp:157] Top shape: 1 2048 14 14 (401408)
I0205 13:42:09.149560 17873 net.cpp:165] Memory required for data: 255094796
I0205 13:42:09.149565 17873 layer_factory.hpp:77] Creating layer res5c_branch2a
I0205 13:42:09.149581 17873 net.cpp:100] Creating Layer res5c_branch2a
I0205 13:42:09.149588 17873 net.cpp:444] res5c_branch2a <- res5b_res5b_relu_0_split_0
I0205 13:42:09.149602 17873 net.cpp:418] res5c_branch2a -> res5c_branch2a
I0205 13:42:09.152644 17873 cudnn_conv_layer.cpp:194] Reallocating workspace storage: 10080
I0205 13:42:09.152675 17873 net.cpp:150] Setting up res5c_branch2a
I0205 13:42:09.152689 17873 net.cpp:157] Top shape: 1 512 14 14 (100352)
I0205 13:42:09.152693 17873 net.cpp:165] Memory required for data: 255496204
I0205 13:42:09.152709 17873 layer_factory.hpp:77] Creating layer bn5c_branch2a
I0205 13:42:09.152730 17873 net.cpp:100] Creating Layer bn5c_branch2a
I0205 13:42:09.152740 17873 net.cpp:444] bn5c_branch2a <- res5c_branch2a
I0205 13:42:09.152756 17873 net.cpp:405] bn5c_branch2a -> res5c_branch2a (in-place)
I0205 13:42:09.152950 17873 net.cpp:150] Setting up bn5c_branch2a
I0205 13:42:09.152957 17873 net.cpp:157] Top shape: 1 512 14 14 (100352)
I0205 13:42:09.152961 17873 net.cpp:165] Memory required for data: 255897612
I0205 13:42:09.152978 17873 layer_factory.hpp:77] Creating layer scale5c_branch2a
I0205 13:42:09.152992 17873 net.cpp:100] Creating Layer scale5c_branch2a
I0205 13:42:09.152998 17873 net.cpp:444] scale5c_branch2a <- res5c_branch2a
I0205 13:42:09.153012 17873 net.cpp:405] scale5c_branch2a -> res5c_branch2a (in-place)
I0205 13:42:09.153062 17873 layer_factory.hpp:77] Creating layer scale5c_branch2a
I0205 13:42:09.153188 17873 net.cpp:150] Setting up scale5c_branch2a
I0205 13:42:09.153197 17873 net.cpp:157] Top shape: 1 512 14 14 (100352)
I0205 13:42:09.153200 17873 net.cpp:165] Memory required for data: 256299020
I0205 13:42:09.153218 17873 layer_factory.hpp:77] Creating layer res5c_branch2a_relu
I0205 13:42:09.153231 17873 net.cpp:100] Creating Layer res5c_branch2a_relu
I0205 13:42:09.153239 17873 net.cpp:444] res5c_branch2a_relu <- res5c_branch2a
I0205 13:42:09.153251 17873 net.cpp:405] res5c_branch2a_relu -> res5c_branch2a (in-place)
I0205 13:42:09.153391 17873 net.cpp:150] Setting up res5c_branch2a_relu
I0205 13:42:09.153399 17873 net.cpp:157] Top shape: 1 512 14 14 (100352)
I0205 13:42:09.153403 17873 net.cpp:165] Memory required for data: 256700428
I0205 13:42:09.153409 17873 layer_factory.hpp:77] Creating layer res5c_branch2b
I0205 13:42:09.153425 17873 net.cpp:100] Creating Layer res5c_branch2b
I0205 13:42:09.153431 17873 net.cpp:444] res5c_branch2b <- res5c_branch2a
I0205 13:42:09.153446 17873 net.cpp:418] res5c_branch2b -> res5c_branch2b
I0205 13:42:09.158385 17873 net.cpp:150] Setting up res5c_branch2b
I0205 13:42:09.158416 17873 net.cpp:157] Top shape: 1 512 14 14 (100352)
I0205 13:42:09.158419 17873 net.cpp:165] Memory required for data: 257101836
I0205 13:42:09.158442 17873 layer_factory.hpp:77] Creating layer bn5c_branch2b
I0205 13:42:09.158495 17873 net.cpp:100] Creating Layer bn5c_branch2b
I0205 13:42:09.158506 17873 net.cpp:444] bn5c_branch2b <- res5c_branch2b
I0205 13:42:09.158525 17873 net.cpp:405] bn5c_branch2b -> res5c_branch2b (in-place)
I0205 13:42:09.158732 17873 net.cpp:150] Setting up bn5c_branch2b
I0205 13:42:09.158740 17873 net.cpp:157] Top shape: 1 512 14 14 (100352)
I0205 13:42:09.158745 17873 net.cpp:165] Memory required for data: 257503244
I0205 13:42:09.158761 17873 layer_factory.hpp:77] Creating layer scale5c_branch2b
I0205 13:42:09.158776 17873 net.cpp:100] Creating Layer scale5c_branch2b
I0205 13:42:09.158782 17873 net.cpp:444] scale5c_branch2b <- res5c_branch2b
I0205 13:42:09.158793 17873 net.cpp:405] scale5c_branch2b -> res5c_branch2b (in-place)
I0205 13:42:09.158841 17873 layer_factory.hpp:77] Creating layer scale5c_branch2b
I0205 13:42:09.158968 17873 net.cpp:150] Setting up scale5c_branch2b
I0205 13:42:09.158975 17873 net.cpp:157] Top shape: 1 512 14 14 (100352)
I0205 13:42:09.158978 17873 net.cpp:165] Memory required for data: 257904652
I0205 13:42:09.158988 17873 layer_factory.hpp:77] Creating layer res5c_branch2b_relu
I0205 13:42:09.158998 17873 net.cpp:100] Creating Layer res5c_branch2b_relu
I0205 13:42:09.159004 17873 net.cpp:444] res5c_branch2b_relu <- res5c_branch2b
I0205 13:42:09.159016 17873 net.cpp:405] res5c_branch2b_relu -> res5c_branch2b (in-place)
I0205 13:42:09.159212 17873 net.cpp:150] Setting up res5c_branch2b_relu
I0205 13:42:09.159220 17873 net.cpp:157] Top shape: 1 512 14 14 (100352)
I0205 13:42:09.159224 17873 net.cpp:165] Memory required for data: 258306060
I0205 13:42:09.159229 17873 layer_factory.hpp:77] Creating layer res5c_branch2c
I0205 13:42:09.159247 17873 net.cpp:100] Creating Layer res5c_branch2c
I0205 13:42:09.159253 17873 net.cpp:444] res5c_branch2c <- res5c_branch2b
I0205 13:42:09.159270 17873 net.cpp:418] res5c_branch2c -> res5c_branch2c
I0205 13:42:09.162457 17873 cudnn_conv_layer.cpp:194] Reallocating workspace storage: 7800
I0205 13:42:09.162492 17873 net.cpp:150] Setting up res5c_branch2c
I0205 13:42:09.162508 17873 net.cpp:157] Top shape: 1 2048 14 14 (401408)
I0205 13:42:09.162510 17873 net.cpp:165] Memory required for data: 259911692
I0205 13:42:09.162526 17873 layer_factory.hpp:77] Creating layer bn5c_branch2c
I0205 13:42:09.162550 17873 net.cpp:100] Creating Layer bn5c_branch2c
I0205 13:42:09.162560 17873 net.cpp:444] bn5c_branch2c <- res5c_branch2c
I0205 13:42:09.162578 17873 net.cpp:405] bn5c_branch2c -> res5c_branch2c (in-place)
I0205 13:42:09.162778 17873 net.cpp:150] Setting up bn5c_branch2c
I0205 13:42:09.162786 17873 net.cpp:157] Top shape: 1 2048 14 14 (401408)
I0205 13:42:09.162791 17873 net.cpp:165] Memory required for data: 261517324
I0205 13:42:09.162807 17873 layer_factory.hpp:77] Creating layer scale5c_branch2c
I0205 13:42:09.162822 17873 net.cpp:100] Creating Layer scale5c_branch2c
I0205 13:42:09.162828 17873 net.cpp:444] scale5c_branch2c <- res5c_branch2c
I0205 13:42:09.162840 17873 net.cpp:405] scale5c_branch2c -> res5c_branch2c (in-place)
I0205 13:42:09.162894 17873 layer_factory.hpp:77] Creating layer scale5c_branch2c
I0205 13:42:09.163024 17873 net.cpp:150] Setting up scale5c_branch2c
I0205 13:42:09.163033 17873 net.cpp:157] Top shape: 1 2048 14 14 (401408)
I0205 13:42:09.163036 17873 net.cpp:165] Memory required for data: 263122956
I0205 13:42:09.163048 17873 layer_factory.hpp:77] Creating layer res5c
I0205 13:42:09.163060 17873 net.cpp:100] Creating Layer res5c
I0205 13:42:09.163066 17873 net.cpp:444] res5c <- res5b_res5b_relu_0_split_1
I0205 13:42:09.163077 17873 net.cpp:444] res5c <- res5c_branch2c
I0205 13:42:09.163089 17873 net.cpp:418] res5c -> res5c
I0205 13:42:09.163123 17873 net.cpp:150] Setting up res5c
I0205 13:42:09.163132 17873 net.cpp:157] Top shape: 1 2048 14 14 (401408)
I0205 13:42:09.163136 17873 net.cpp:165] Memory required for data: 264728588
I0205 13:42:09.163141 17873 layer_factory.hpp:77] Creating layer res5c_relu
I0205 13:42:09.163151 17873 net.cpp:100] Creating Layer res5c_relu
I0205 13:42:09.163157 17873 net.cpp:444] res5c_relu <- res5c
I0205 13:42:09.163168 17873 net.cpp:405] res5c_relu -> res5c (in-place)
I0205 13:42:09.163303 17873 net.cpp:150] Setting up res5c_relu
I0205 13:42:09.163311 17873 net.cpp:157] Top shape: 1 2048 14 14 (401408)
I0205 13:42:09.163314 17873 net.cpp:165] Memory required for data: 266334220
I0205 13:42:09.163319 17873 layer_factory.hpp:77] Creating layer rpn_conv/3x3
I0205 13:42:09.163339 17873 net.cpp:100] Creating Layer rpn_conv/3x3
I0205 13:42:09.163347 17873 net.cpp:444] rpn_conv/3x3 <- res4f_res4f_relu_0_split_2
I0205 13:42:09.163362 17873 net.cpp:418] rpn_conv/3x3 -> rpn/output
I0205 13:42:09.636642 17873 cudnn_conv_layer.cpp:194] Reallocating workspace storage: 21676032
I0205 13:42:09.636924 17873 net.cpp:150] Setting up rpn_conv/3x3
I0205 13:42:09.636955 17873 net.cpp:157] Top shape: 1 512 14 14 (100352)
I0205 13:42:09.636958 17873 net.cpp:165] Memory required for data: 266735628
I0205 13:42:09.636981 17873 layer_factory.hpp:77] Creating layer rpn_relu/3x3
I0205 13:42:09.637004 17873 net.cpp:100] Creating Layer rpn_relu/3x3
I0205 13:42:09.637012 17873 net.cpp:444] rpn_relu/3x3 <- rpn/output
I0205 13:42:09.637029 17873 net.cpp:405] rpn_relu/3x3 -> rpn/output (in-place)
I0205 13:42:09.637426 17873 net.cpp:150] Setting up rpn_relu/3x3
I0205 13:42:09.637449 17873 net.cpp:157] Top shape: 1 512 14 14 (100352)
I0205 13:42:09.637452 17873 net.cpp:165] Memory required for data: 267137036
I0205 13:42:09.637456 17873 layer_factory.hpp:77] Creating layer rpn/output_rpn_relu/3x3_0_split
I0205 13:42:09.637468 17873 net.cpp:100] Creating Layer rpn/output_rpn_relu/3x3_0_split
I0205 13:42:09.637475 17873 net.cpp:444] rpn/output_rpn_relu/3x3_0_split <- rpn/output
I0205 13:42:09.637490 17873 net.cpp:418] rpn/output_rpn_relu/3x3_0_split -> rpn/output_rpn_relu/3x3_0_split_0
I0205 13:42:09.637517 17873 net.cpp:418] rpn/output_rpn_relu/3x3_0_split -> rpn/output_rpn_relu/3x3_0_split_1
I0205 13:42:09.637583 17873 net.cpp:150] Setting up rpn/output_rpn_relu/3x3_0_split
I0205 13:42:09.637603 17873 net.cpp:157] Top shape: 1 512 14 14 (100352)
I0205 13:42:09.637621 17873 net.cpp:157] Top shape: 1 512 14 14 (100352)
I0205 13:42:09.637624 17873 net.cpp:165] Memory required for data: 267939852
I0205 13:42:09.637626 17873 layer_factory.hpp:77] Creating layer rpn_cls_score
I0205 13:42:09.637650 17873 net.cpp:100] Creating Layer rpn_cls_score
I0205 13:42:09.637655 17873 net.cpp:444] rpn_cls_score <- rpn/output_rpn_relu/3x3_0_split_0
I0205 13:42:09.637671 17873 net.cpp:418] rpn_cls_score -> rpn_cls_score
I0205 13:42:09.639451 17873 cudnn_conv_layer.cpp:194] Reallocating workspace storage: 10080
I0205 13:42:09.639475 17873 net.cpp:150] Setting up rpn_cls_score
I0205 13:42:09.639484 17873 net.cpp:157] Top shape: 1 18 14 14 (3528)
I0205 13:42:09.639487 17873 net.cpp:165] Memory required for data: 267953964
I0205 13:42:09.639500 17873 layer_factory.hpp:77] Creating layer rpn_bbox_pred
I0205 13:42:09.639519 17873 net.cpp:100] Creating Layer rpn_bbox_pred
I0205 13:42:09.639526 17873 net.cpp:444] rpn_bbox_pred <- rpn/output_rpn_relu/3x3_0_split_1
I0205 13:42:09.639542 17873 net.cpp:418] rpn_bbox_pred -> rpn_bbox_pred
I0205 13:42:09.642248 17873 cudnn_conv_layer.cpp:194] Reallocating workspace storage: 10080
I0205 13:42:09.642271 17873 net.cpp:150] Setting up rpn_bbox_pred
I0205 13:42:09.642280 17873 net.cpp:157] Top shape: 1 36 14 14 (7056)
I0205 13:42:09.642283 17873 net.cpp:165] Memory required for data: 267982188
I0205 13:42:09.642297 17873 layer_factory.hpp:77] Creating layer rpn_cls_score_reshape
I0205 13:42:09.642313 17873 net.cpp:100] Creating Layer rpn_cls_score_reshape
I0205 13:42:09.642318 17873 net.cpp:444] rpn_cls_score_reshape <- rpn_cls_score
I0205 13:42:09.642334 17873 net.cpp:418] rpn_cls_score_reshape -> rpn_cls_score_reshape
I0205 13:42:09.642372 17873 net.cpp:150] Setting up rpn_cls_score_reshape
I0205 13:42:09.642382 17873 net.cpp:157] Top shape: 1 2 126 14 (3528)
I0205 13:42:09.642385 17873 net.cpp:165] Memory required for data: 267996300
I0205 13:42:09.642390 17873 layer_factory.hpp:77] Creating layer rpn_cls_prob
I0205 13:42:09.642401 17873 net.cpp:100] Creating Layer rpn_cls_prob
I0205 13:42:09.642407 17873 net.cpp:444] rpn_cls_prob <- rpn_cls_score_reshape
I0205 13:42:09.642421 17873 net.cpp:418] rpn_cls_prob -> rpn_cls_prob
I0205 13:42:09.642642 17873 net.cpp:150] Setting up rpn_cls_prob
I0205 13:42:09.642652 17873 net.cpp:157] Top shape: 1 2 126 14 (3528)
I0205 13:42:09.642657 17873 net.cpp:165] Memory required for data: 268010412
I0205 13:42:09.642662 17873 layer_factory.hpp:77] Creating layer rpn_cls_prob_reshape
I0205 13:42:09.642673 17873 net.cpp:100] Creating Layer rpn_cls_prob_reshape
I0205 13:42:09.642679 17873 net.cpp:444] rpn_cls_prob_reshape <- rpn_cls_prob
I0205 13:42:09.642693 17873 net.cpp:418] rpn_cls_prob_reshape -> rpn_cls_prob_reshape
I0205 13:42:09.642729 17873 net.cpp:150] Setting up rpn_cls_prob_reshape
I0205 13:42:09.642737 17873 net.cpp:157] Top shape: 1 18 14 14 (3528)
I0205 13:42:09.642740 17873 net.cpp:165] Memory required for data: 268024524
I0205 13:42:09.642745 17873 layer_factory.hpp:77] Creating layer proposal
I0205 13:42:09.643020 17873 net.cpp:100] Creating Layer proposal
I0205 13:42:09.643029 17873 net.cpp:444] proposal <- rpn_cls_prob_reshape
I0205 13:42:09.643043 17873 net.cpp:444] proposal <- rpn_bbox_pred
I0205 13:42:09.643050 17873 net.cpp:444] proposal <- im_info
I0205 13:42:09.643061 17873 net.cpp:418] proposal -> rois
I0205 13:42:09.643517 17873 net.cpp:150] Setting up proposal
I0205 13:42:09.643528 17873 net.cpp:157] Top shape: 1 5 (5)
I0205 13:42:09.643532 17873 net.cpp:165] Memory required for data: 268024544
I0205 13:42:09.643537 17873 layer_factory.hpp:77] Creating layer rois_proposal_0_split
I0205 13:42:09.643549 17873 net.cpp:100] Creating Layer rois_proposal_0_split
I0205 13:42:09.643555 17873 net.cpp:444] rois_proposal_0_split <- rois
I0205 13:42:09.643570 17873 net.cpp:418] rois_proposal_0_split -> rois_proposal_0_split_0
I0205 13:42:09.643586 17873 net.cpp:418] rois_proposal_0_split -> rois_proposal_0_split_1
I0205 13:42:09.643630 17873 net.cpp:150] Setting up rois_proposal_0_split
I0205 13:42:09.643638 17873 net.cpp:157] Top shape: 1 5 (5)
I0205 13:42:09.643643 17873 net.cpp:157] Top shape: 1 5 (5)
I0205 13:42:09.643646 17873 net.cpp:165] Memory required for data: 268024584
I0205 13:42:09.643651 17873 layer_factory.hpp:77] Creating layer conv_new_1
I0205 13:42:09.643668 17873 net.cpp:100] Creating Layer conv_new_1
I0205 13:42:09.643674 17873 net.cpp:444] conv_new_1 <- res5c
I0205 13:42:09.643690 17873 net.cpp:418] conv_new_1 -> conv_new_1
I0205 13:42:09.856245 17873 cudnn_conv_layer.cpp:194] Reallocating workspace storage: 10080
I0205 13:42:09.856290 17873 net.cpp:150] Setting up conv_new_1
I0205 13:42:09.856307 17873 net.cpp:157] Top shape: 1 1024 14 14 (200704)
I0205 13:42:09.856310 17873 net.cpp:165] Memory required for data: 268827400
I0205 13:42:09.856333 17873 layer_factory.hpp:77] Creating layer conv_new_1_relu
I0205 13:42:09.856354 17873 net.cpp:100] Creating Layer conv_new_1_relu
I0205 13:42:09.856362 17873 net.cpp:444] conv_new_1_relu <- conv_new_1
I0205 13:42:09.856382 17873 net.cpp:405] conv_new_1_relu -> conv_new_1 (in-place)
I0205 13:42:09.856525 17873 net.cpp:150] Setting up conv_new_1_relu
I0205 13:42:09.856532 17873 net.cpp:157] Top shape: 1 1024 14 14 (200704)
I0205 13:42:09.856534 17873 net.cpp:165] Memory required for data: 269630216
I0205 13:42:09.856539 17873 layer_factory.hpp:77] Creating layer conv_new_1_conv_new_1_relu_0_split
I0205 13:42:09.856547 17873 net.cpp:100] Creating Layer conv_new_1_conv_new_1_relu_0_split
I0205 13:42:09.856551 17873 net.cpp:444] conv_new_1_conv_new_1_relu_0_split <- conv_new_1
I0205 13:42:09.856562 17873 net.cpp:418] conv_new_1_conv_new_1_relu_0_split -> conv_new_1_conv_new_1_relu_0_split_0
I0205 13:42:09.856578 17873 net.cpp:418] conv_new_1_conv_new_1_relu_0_split -> conv_new_1_conv_new_1_relu_0_split_1
I0205 13:42:09.856629 17873 net.cpp:150] Setting up conv_new_1_conv_new_1_relu_0_split
I0205 13:42:09.856638 17873 net.cpp:157] Top shape: 1 1024 14 14 (200704)
I0205 13:42:09.856642 17873 net.cpp:157] Top shape: 1 1024 14 14 (200704)
I0205 13:42:09.856644 17873 net.cpp:165] Memory required for data: 271235848
I0205 13:42:09.856649 17873 layer_factory.hpp:77] Creating layer rfcn_cls
I0205 13:42:09.856670 17873 net.cpp:100] Creating Layer rfcn_cls
I0205 13:42:09.856676 17873 net.cpp:444] rfcn_cls <- conv_new_1_conv_new_1_relu_0_split_0
I0205 13:42:09.856691 17873 net.cpp:418] rfcn_cls -> rfcn_cls
I0205 13:42:09.867667 17873 cudnn_conv_layer.cpp:194] Reallocating workspace storage: 10080
I0205 13:42:09.867691 17873 net.cpp:150] Setting up rfcn_cls
I0205 13:42:09.867700 17873 net.cpp:157] Top shape: 1 98 14 14 (19208)
I0205 13:42:09.867703 17873 net.cpp:165] Memory required for data: 271312680
I0205 13:42:09.867717 17873 layer_factory.hpp:77] Creating layer rfcn_bbox
I0205 13:42:09.867758 17873 net.cpp:100] Creating Layer rfcn_bbox
I0205 13:42:09.867764 17873 net.cpp:444] rfcn_bbox <- conv_new_1_conv_new_1_relu_0_split_1
I0205 13:42:09.867782 17873 net.cpp:418] rfcn_bbox -> rfcn_bbox
I0205 13:42:09.909703 17873 cudnn_conv_layer.cpp:194] Reallocating workspace storage: 10080
I0205 13:42:09.909750 17873 net.cpp:150] Setting up rfcn_bbox
I0205 13:42:09.909766 17873 net.cpp:157] Top shape: 1 392 14 14 (76832)
I0205 13:42:09.909770 17873 net.cpp:165] Memory required for data: 271620008
I0205 13:42:09.909793 17873 layer_factory.hpp:77] Creating layer psroipooled_cls_rois
I0205 13:42:09.909842 17873 net.cpp:100] Creating Layer psroipooled_cls_rois
I0205 13:42:09.909852 17873 net.cpp:444] psroipooled_cls_rois <- rfcn_cls
I0205 13:42:09.909868 17873 net.cpp:444] psroipooled_cls_rois <- rois_proposal_0_split_0
I0205 13:42:09.909881 17873 net.cpp:418] psroipooled_cls_rois -> psroipooled_cls_rois
I0205 13:42:09.909901 17873 psroi_pooling_layer.cpp:26] Spatial scale: 0.0625
I0205 13:42:09.909981 17873 net.cpp:150] Setting up psroipooled_cls_rois
I0205 13:42:09.909991 17873 net.cpp:157] Top shape: 1 2 7 7 (98)
I0205 13:42:09.909993 17873 net.cpp:165] Memory required for data: 271620400
I0205 13:42:09.909997 17873 layer_factory.hpp:77] Creating layer ave_cls_score_rois
I0205 13:42:09.910010 17873 net.cpp:100] Creating Layer ave_cls_score_rois
I0205 13:42:09.910017 17873 net.cpp:444] ave_cls_score_rois <- psroipooled_cls_rois
I0205 13:42:09.910032 17873 net.cpp:418] ave_cls_score_rois -> cls_score
I0205 13:42:09.910429 17873 net.cpp:150] Setting up ave_cls_score_rois
I0205 13:42:09.910441 17873 net.cpp:157] Top shape: 1 2 1 1 (2)
I0205 13:42:09.910445 17873 net.cpp:165] Memory required for data: 271620408
I0205 13:42:09.910450 17873 layer_factory.hpp:77] Creating layer psroipooled_loc_rois
I0205 13:42:09.910464 17873 net.cpp:100] Creating Layer psroipooled_loc_rois
I0205 13:42:09.910470 17873 net.cpp:444] psroipooled_loc_rois <- rfcn_bbox
I0205 13:42:09.910482 17873 net.cpp:444] psroipooled_loc_rois <- rois_proposal_0_split_1
I0205 13:42:09.910493 17873 net.cpp:418] psroipooled_loc_rois -> psroipooled_loc_rois
I0205 13:42:09.910507 17873 psroi_pooling_layer.cpp:26] Spatial scale: 0.0625
I0205 13:42:09.910550 17873 net.cpp:150] Setting up psroipooled_loc_rois
I0205 13:42:09.910558 17873 net.cpp:157] Top shape: 1 8 7 7 (392)
I0205 13:42:09.910562 17873 net.cpp:165] Memory required for data: 271621976
I0205 13:42:09.910567 17873 layer_factory.hpp:77] Creating layer ave_bbox_pred_rois
I0205 13:42:09.910578 17873 net.cpp:100] Creating Layer ave_bbox_pred_rois
I0205 13:42:09.910585 17873 net.cpp:444] ave_bbox_pred_rois <- psroipooled_loc_rois
I0205 13:42:09.910598 17873 net.cpp:418] ave_bbox_pred_rois -> bbox_pred_pre
I0205 13:42:09.910753 17873 net.cpp:150] Setting up ave_bbox_pred_rois
I0205 13:42:09.910763 17873 net.cpp:157] Top shape: 1 8 1 1 (8)
I0205 13:42:09.910766 17873 net.cpp:165] Memory required for data: 271622008
I0205 13:42:09.910771 17873 layer_factory.hpp:77] Creating layer cls_prob
I0205 13:42:09.910784 17873 net.cpp:100] Creating Layer cls_prob
I0205 13:42:09.910790 17873 net.cpp:444] cls_prob <- cls_score
I0205 13:42:09.910804 17873 net.cpp:418] cls_prob -> cls_prob_pre
I0205 13:42:09.910998 17873 net.cpp:150] Setting up cls_prob
I0205 13:42:09.911008 17873 net.cpp:157] Top shape: 1 2 1 1 (2)
I0205 13:42:09.911012 17873 net.cpp:165] Memory required for data: 271622016
I0205 13:42:09.911016 17873 layer_factory.hpp:77] Creating layer cls_prob_reshape
I0205 13:42:09.911032 17873 net.cpp:100] Creating Layer cls_prob_reshape
I0205 13:42:09.911038 17873 net.cpp:444] cls_prob_reshape <- cls_prob_pre
I0205 13:42:09.911052 17873 net.cpp:418] cls_prob_reshape -> cls_prob
I0205 13:42:09.911088 17873 net.cpp:150] Setting up cls_prob_reshape
I0205 13:42:09.911098 17873 net.cpp:157] Top shape: 1 2 (2)
I0205 13:42:09.911100 17873 net.cpp:165] Memory required for data: 271622024
I0205 13:42:09.911105 17873 layer_factory.hpp:77] Creating layer bbox_pred_reshape
I0205 13:42:09.911116 17873 net.cpp:100] Creating Layer bbox_pred_reshape
I0205 13:42:09.911123 17873 net.cpp:444] bbox_pred_reshape <- bbox_pred_pre
I0205 13:42:09.911137 17873 net.cpp:418] bbox_pred_reshape -> bbox_pred
I0205 13:42:09.911172 17873 net.cpp:150] Setting up bbox_pred_reshape
I0205 13:42:09.911180 17873 net.cpp:157] Top shape: 1 8 (8)
I0205 13:42:09.911185 17873 net.cpp:165] Memory required for data: 271622056
I0205 13:42:09.911190 17873 net.cpp:228] bbox_pred_reshape does not need backward computation.
I0205 13:42:09.911195 17873 net.cpp:228] cls_prob_reshape does not need backward computation.
I0205 13:42:09.911200 17873 net.cpp:228] cls_prob does not need backward computation.
I0205 13:42:09.911204 17873 net.cpp:228] ave_bbox_pred_rois does not need backward computation.
…
