…
snapshot_prefix: "resnet50_rfcn_ohem"
iter_size: 8
I0710 17:29:01.152911 25334 solver.cpp:81] Creating training net from train_net file: /home/user/Disk1.8T/py-R-FCN/experiments/7_1_head_body_un_v2/train_agnostic_ohem.prototxt
I0710 17:29:01.155143 25334 net.cpp:58] Initializing net from parameters: 
name: "ResNet-50"
state {
  phase: TRAIN
}
layer {
  name: "input-data"
  type: "Python"
  top: "data"
  top: "im_info"
  top: "gt_boxes"
  top: "head_gt_boxes"
  python_param {
    module: "roi_data_layer.layer"
    layer: "RoIDataLayer"
    param_str: "\'num_classes\': 3"
  }
}
layer {
  name: "conv1"
  type: "Convolution"
  bottom: "data"
  top: "conv1"
  param {
    lr_mult: 0
  }
  param {
    lr_mult: 0
  }
  convolution_param {
    num_output: 64
    pad: 3
    kernel_size: 7
    stride: 2
  }
}
layer {
  name: "bn_conv1"
  type: "BatchNorm"
  bottom: "conv1"
  top: "conv1"
  param {
    lr_mult: 0
    decay_mult: 0
  }
  param {
    lr_mult: 0
    decay_mult: 0
  }
  param {
    lr_mult: 0
    decay_mult: 0
  }
  batch_norm_param {
    use_global_stats: true
  }
}
layer {
  name: "scale_conv1"
  type: "Scale"
  bottom: "conv1"
  top: "conv1"
  param {
    lr_mult: 0
    decay_mult: 0
  }
  param {
    lr_mult: 0
    decay_mult: 0
  }
  scale_param {
    bias_term: true
  }
}
layer {
  name: "conv1_relu"
  type: "ReLU"
  bottom: "conv1"
  top: "conv1"
}
layer {
  name: "pool1"
  type: "Pooling"
  bottom: "conv1"
  top: "pool1"
  pooling_param {
    pool: MAX
    kernel_size: 3
    stride: 2
  }
}
layer {
  name: "res2a_branch1"
  type: "Convolution"
  bottom: "pool1"
  top: "res2a_branch1"
  param {
    lr_mult: 0
  }
  convolution_param {
    num_output: 256
    bias_term: false
    pad: 0
    kernel_size: 1
    stride: 1
  }
}
layer {
  name: "bn2a_branch1"
  type: "BatchNorm"
  bottom: "res2a_branch1"
  top: "res2a_branch1"
  param {
    lr_mult: 0
    decay_mult: 0
  }
  param {
    lr_mult: 0
    decay_mult: 0
  }
  param {
    lr_mult: 0
    decay_mult: 0
  }
  batch_norm_param {
    use_global_stats: true
  }
}
layer {
  name: "scale2a_branch1"
  type: "Scale"
  bottom: "res2a_branch1"
  top: "res2a_branch1"
  param {
    lr_mult: 0
    decay_mult: 0
  }
  param {
    lr_mult: 0
    decay_mult: 0
  }
  scale_param {
    bias_term: true
  }
}
layer {
  name: "res2a_branch2a"
  type: "Convolution"
  bottom: "pool1"
  top: "res2a_branch2a"
  param {
    lr_mult: 0
  }
  convolution_param {
    num_output: 64
    bias_term: false
    pad: 0
    kernel_size: 1
    stride: 1
  }
}
layer {
  name: "bn2a_branch2a"
  type: "BatchNorm"
  bottom: "res2a_branch2a"
  top: "res2a_branch2a"
  param {
    lr_mult: 0
    decay_mult: 0
  }
  param {
    lr_mult: 0
    decay_mult: 0
  }
  param {
    lr_mult: 0
    decay_mult: 0
  }
  batch_norm_param {
    use_global_stats: true
  }
}
layer {
  name: "scale2a_branch2a"
  type: "Scale"
  bottom: "res2a_branch2a"
  top: "res2a_branch2a"
  param {
    lr_mult: 0
    decay_mult: 0
  }
  param {
    lr_mult: 0
    decay_mult: 0
  }
  scale_param {
    bias_term: true
  }
}
layer {
  name: "res2a_branch2a_relu"
  type: "ReLU"
  bottom: "res2a_branch2a"
  top: "res2a_branch2a"
}
layer {
  name: "res2a_branch2b"
  type: "Convolution"
  bottom: "res2a_branch2a"
  top: "res2a_branch2b"
  param {
    lr_mult: 0
  }
  convolution_param {
    num_output: 64
    bias_term: false
    pad: 1
    kernel_size: 3
    stride: 1
  }
}
layer {
  name: "bn2a_branch2b"
  type: "BatchNorm"
  bottom: "res2a_branch2b"
  top: "res2a_branch2b"
  param {
    lr_mult: 0
    decay_mult: 0
  }
  param {
    lr_mult: 0
    decay_mult: 0
  }
  param {
    lr_mult: 0
    decay_mult: 0
  }
  batch_norm_param {
    use_global_stats: true
  }
}
layer {
  name: "scale2a_branch2b"
  type: "Scale"
  bottom: "res2a_branch2b"
  top: "res2a_branch2b"
  param {
    lr_mult: 0
    decay_mult: 0
  }
  param {
    lr_mult: 0
    decay_mult: 0
  }
  scale_param {
    bias_term: true
  }
}
layer {
  name: "res2a_branch2b_relu"
  type: "ReLU"
  bottom: "res2a_branch2b"
  top: "res2a_branch2b"
}
layer {
  name: "res2a_branch2c"
  type: "Convolution"
  bottom: "res2a_branch2b"
  top: "res2a_branch2c"
  param {
    lr_mult: 0
  }
  convolution_param {
    num_output: 256
    bias_term: false
    pad: 0
    kernel_size: 1
    stride: 1
  }
}
layer {
  name: "bn2a_branch2c"
  type: "BatchNorm"
  bottom: "res2a_branch2c"
  top: "res2a_branch2c"
  param {
    lr_mult: 0
    decay_mult: 0
  }
  param {
    lr_mult: 0
    decay_mult: 0
  }
  param {
    lr_mult: 0
    decay_mult: 0
  }
  batch_norm_param {
    use_global_stats: true
  }
}
layer {
  name: "scale2a_branch2c"
  type: "Scale"
  bottom: "res2a_branch2c"
  top: "res2a_branch2c"
  param {
    lr_mult: 0
    decay_mult: 0
  }
  param {
    lr_mult: 0
    decay_mult: 0
  }
  scale_param {
    bias_term: true
  }
}
layer {
  name: "res2a"
  type: "Eltwise"
  bottom: "res2a_branch1"
  bottom: "res2a_branch2c"
  top: "res2a"
}
layer {
  name: "res2a_relu"
  type: "ReLU"
  bottom: "res2a"
  top: "res2a"
}
layer {
  name: "res2b_branch2a"
  type: "Convolution"
  bottom: "res2a"
  top: "res2b_branch2a"
  param {
    lr_mult: 0
  }
  convolution_param {
    num_output: 64
    bias_term: false
    pad: 0
    kernel_size: 1
    stride: 1
  }
}
layer {
  name: "bn2b_branch2a"
  type: "BatchNorm"
  bottom: "res2b_branch2a"
  top: "res2b_branch2a"
  param {
    lr_mult: 0
    decay_mult: 0
  }
  param {
    lr_mult: 0
    decay_mult: 0
  }
  param {
    lr_mult: 0
    decay_mult: 0
  }
  batch_norm_param {
    use_global_stats: true
  }
}
layer {
  name: "scale2b_branch2a"
  type: "Scale"
  bottom: "res2b_branch2a"
  top: "res2b_branch2a"
  param {
    lr_mult: 0
    decay_mult: 0
  }
  param {
    lr_mult: 0
    decay_mult: 0
  }
  scale_param {
    bias_term: true
  }
}
layer {
  name: "res2b_branch2a_relu"
  type: "ReLU"
  bottom: "res2b_branch2a"
  top: "res2b_branch2a"
}
layer {
  name: "res2b_branch2b"
  type: "Convolution"
  bottom: "res2b_branch2a"
  top: "res2b_branch2b"
  param {
    lr_mult: 0
  }
  convolution_param {
    num_output: 64
    bias_term: false
    pad: 1
    kernel_size: 3
    stride: 1
  }
}
layer {
  name: "bn2b_branch2b"
  type: "BatchNorm"
  bottom: "res2b_branch2b"
  top: "res2b_branch2b"
  param {
    lr_mult: 0
    decay_mult: 0
  }
  param {
    lr_mult: 0
    decay_mult: 0
  }
  param {
    lr_mult: 0
    decay_mult: 0
  }
  batch_norm_param {
    use_global_stats: true
  }
}
layer {
  name: "scale2b_branch2b"
  type: "Scale"
  bottom: "res2b_branch2b"
  top: "res2b_branch2b"
  param {
    lr_mult: 0
    decay_mult: 0
  }
  param {
    lr_mult: 0
    decay_mult: 0
  }
  scale_param {
    bias_term: true
  }
}
layer {
  name: "res2b_branch2b_relu"
  type: "ReLU"
  bottom: "res2b_branch2b"
  top: "res2b_branch2b"
}
layer {
  name: "res2b_branch2c"
  type: "Convolution"
  bottom: "res2b_branch2b"
  top: "res2b_branch2c"
  param {
    lr_mult: 0
  }
  convolution_param {
    num_output: 256
    bias_term: false
    pad: 0
    kernel_size: 1
    stride: 1
  }
}
layer {
  name: "bn2b_branch2c"
  type: "BatchNorm"
  bottom: "res2b_branch2c"
  top: "res2b_branch2c"
  param {
    lr_mult: 0
    decay_mult: 0
  }
  param {
    lr_mult: 0
    decay_mult: 0
  }
  param {
    lr_mult: 0
    decay_mult: 0
  }
  batch_norm_param {
    use_global_stats: true
  }
}
layer {
  name: "scale2b_branch2c"
  type: "Scale"
  bottom: "res2b_branch2c"
  top: "res2b_branch2c"
  param {
    lr_mult: 0
    decay_mult: 0
  }
  param {
    lr_mult: 0
    decay_mult: 0
  }
  scale_param {
    bias_term: true
  }
}
layer {
  name: "res2b"
  type: "Eltwise"
  bottom: "res2a"
  bottom: "res2b_branch2c"
  top: "res2b"
}
layer {
  name: "res2b_relu"
  type: "ReLU"
  bottom: "res2b"
  top: "res2b"
}
layer {
  name: "res2c_branch2a"
  type: "Convolution"
  bottom: "res2b"
  top: "res2c_branch2a"
  param {
    lr_mult: 0
  }
  convolution_param {
    num_output: 64
    bias_term: false
    pad: 0
    kernel_size: 1
    stride: 1
  }
}
layer {
  name: "bn2c_branch2a"
  type: "BatchNorm"
  bottom: "res2c_branch2a"
  top: "res2c_branch2a"
  param {
    lr_mult: 0
    decay_mult: 0
  }
  param {
    lr_mult: 0
    decay_mult: 0
  }
  param {
    lr_mult: 0
    decay_mult: 0
  }
  batch_norm_param {
    use_global_stats: true
  }
}
layer {
  name: "scale2c_branch2a"
  type: "Scale"
  bottom: "res2c_branch2a"
  top: "res2c_branch2a"
  param {
    lr_mult: 0
    decay_mult: 0
  }
  param {
    lr_mult: 0
    decay_mult: 0
  }
  scale_param {
    bias_term: true
  }
}
layer {
  name: "res2c_branch2a_relu"
  type: "ReLU"
  bottom: "res2c_branch2a"
  top: "res2c_branch2a"
}
layer {
  name: "res2c_branch2b"
  type: "Convolution"
  bottom: "res2c_branch2a"
  top: "res2c_branch2b"
  param {
    lr_mult: 0
  }
  convolution_param {
    num_output: 64
    bias_term: false
    pad: 1
    kernel_size: 3
    stride: 1
  }
}
layer {
  name: "bn2c_branch2b"
  type: "BatchNorm"
  bottom: "res2c_branch2b"
  top: "res2c_branch2b"
  param {
    lr_mult: 0
    decay_mult: 0
  }
  param {
    lr_mult: 0
    decay_mult: 0
  }
  param {
    lr_mult: 0
    decay_mult: 0
  }
  batch_norm_param {
    use_global_stats: true
  }
}
layer {
  name: "scale2c_branch2b"
  type: "Scale"
  bottom: "res2c_branch2b"
  top: "res2c_branch2b"
  param {
    lr_mult: 0
    decay_mult: 0
  }
  param {
    lr_mult: 0
    decay_mult: 0
  }
  scale_param {
    bias_term: true
  }
}
layer {
  name: "res2c_branch2b_relu"
  type: "ReLU"
  bottom: "res2c_branch2b"
  top: "res2c_branch2b"
}
layer {
  name: "res2c_branch2c"
  type: "Convolution"
  bottom: "res2c_branch2b"
  top: "res2c_branch2c"
  param {
    lr_mult: 0
  }
  convolution_param {
    num_output: 256
    bias_term: false
    pad: 0
    kernel_size: 1
    stride: 1
  }
}
layer {
  name: "bn2c_branch2c"
  type: "BatchNorm"
  bottom: "res2c_branch2c"
  top: "res2c_branch2c"
  param {
    lr_mult: 0
    decay_mult: 0
  }
  param {
    lr_mult: 0
    decay_mult: 0
  }
  param {
    lr_mult: 0
    decay_mult: 0
  }
  batch_norm_param {
    use_global_stats: true
  }
}
layer {
  name: "scale2c_branch2c"
  type: "Scale"
  bottom: "res2c_branch2c"
  top: "res2c_branch2c"
  param {
    lr_mult: 0
    decay_mult: 0
  }
  param {
    lr_mult: 0
    decay_mult: 0
  }
  scale_param {
    bias_term: true
  }
}
layer {
  name: "res2c"
  type: "Eltwise"
  bottom: "res2b"
  bottom: "res2c_branch2c"
  top: "res2c"
}
layer {
  name: "res2c_relu"
  type: "ReLU"
  bottom: "res2c"
  top: "res2c"
}
layer {
  name: "res3a_branch1"
  type: "Convolution"
  bottom: "res2c"
  top: "res3a_branch1"
  param {
    lr_mult: 1
  }
  convolution_param {
    num_output: 512
    bias_term: false
    pad: 0
    kernel_size: 1
    stride: 2
  }
}
layer {
  name: "bn3a_branch1"
  type: "BatchNorm"
  bottom: "res3a_branch1"
  top: "res3a_branch1"
  param {
    lr_mult: 0
    decay_mult: 0
  }
  param {
    lr_mult: 0
    decay_mult: 0
  }
  param {
    lr_mult: 0
    decay_mult: 0
  }
  batch_norm_param {
    use_global_stats: true
  }
}
layer {
  name: "scale3a_branch1"
  type: "Scale"
  bottom: "res3a_branch1"
  top: "res3a_branch1"
  param {
    lr_mult: 0
    decay_mult: 0
  }
  param {
    lr_mult: 0
    decay_mult: 0
  }
  scale_param {
    bias_term: true
  }
}
layer {
  name: "res3a_branch2a"
  type: "Convolution"
  bottom: "res2c"
  top: "res3a_branch2a"
  param {
    lr_mult: 1
  }
  convolution_param {
    num_output: 128
    bias_term: false
    pad: 0
    kernel_size: 1
    stride: 2
  }
}
layer {
  name: "bn3a_branch2a"
  type: "BatchNorm"
  bottom: "res3a_branch2a"
  top: "res3a_branch2a"
  param {
    lr_mult: 0
    decay_mult: 0
  }
  param {
    lr_mult: 0
    decay_mult: 0
  }
  param {
    lr_mult: 0
    decay_mult: 0
  }
  batch_norm_param {
    use_global_stats: true
  }
}
layer {
  name: "scale3a_branch2a"
  type: "Scale"
  bottom: "res3a_branch2a"
  top: "res3a_branch2a"
  param {
    lr_mult: 0
    decay_mult: 0
  }
  param {
    lr_mult: 0
    decay_mult: 0
  }
  scale_param {
    bias_term: true
  }
}
layer {
  name: "res3a_branch2a_relu"
  type: "ReLU"
  bottom: "res3a_branch2a"
  top: "res3a_branch2a"
}
layer {
  name: "res3a_branch2b"
  type: "Convolution"
  bottom: "res3a_branch2a"
  top: "res3a_branch2b"
  param {
    lr_mult: 1
  }
  convolution_param {
    num_output: 128
    bias_term: false
    pad: 1
    kernel_size: 3
    stride: 1
  }
}
layer {
  name: "bn3a_branch2b"
  type: "BatchNorm"
  bottom: "res3a_branch2b"
  top: "res3a_branch2b"
  param {
    lr_mult: 0
    decay_mult: 0
  }
  param {
    lr_mult: 0
    decay_mult: 0
  }
  param {
    lr_mult: 0
    decay_mult: 0
  }
  batch_norm_param {
    use_global_stats: true
  }
}
layer {
  name: "scale3a_branch2b"
  type: "Scale"
  bottom: "res3a_branch2b"
  top: "res3a_branch2b"
  param {
    lr_mult: 0
    decay_mult: 0
  }
  param {
    lr_mult: 0
    decay_mult: 0
  }
  scale_param {
    bias_term: true
  }
}
layer {
  name: "res3a_branch2b_relu"
  type: "ReLU"
  bottom: "res3a_branch2b"
  top: "res3a_branch2b"
}
layer {
  name: "res3a_branch2c"
  type: "Convolution"
  bottom: "res3a_branch2b"
  top: "res3a_branch2c"
  param {
    lr_mult: 1
  }
  convolution_param {
    num_output: 512
    bias_term: false
    pad: 0
    kernel_size: 1
    stride: 1
  }
}
layer {
  name: "bn3a_branch2c"
  type: "BatchNorm"
  bottom: "res3a_branch2c"
  top: "res3a_branch2c"
  param {
    lr_mult: 0
    decay_mult: 0
  }
  param {
    lr_mult: 0
    decay_mult: 0
  }
  param {
    lr_mult: 0
    decay_mult: 0
  }
  batch_norm_param {
    use_global_stats: true
  }
}
layer {
  name: "scale3a_branch2c"
  type: "Scale"
  bottom: "res3a_branch2c"
  top: "res3a_branch2c"
  param {
    lr_mult: 0
    decay_mult: 0
  }
  param {
    lr_mult: 0
    decay_mult: 0
  }
  scale_param {
    bias_term: true
  }
}
layer {
  name: "res3a"
  type: "Eltwise"
  bottom: "res3a_branch1"
  bottom: "res3a_branch2c"
  top: "res3a"
}
layer {
  name: "res3a_relu"
  type: "ReLU"
  bottom: "res3a"
  top: "res3a"
}
layer {
  name: "res3b_branch2a"
  type: "Convolution"
  bottom: "res3a"
  top: "res3b_branch2a"
  param {
    lr_mult: 1
  }
  convolution_param {
    num_output: 128
    bias_term: false
    pad: 0
    kernel_size: 1
    stride: 1
  }
}
layer {
  name: "bn3b_branch2a"
  type: "BatchNorm"
  bottom: "res3b_branch2a"
  top: "res3b_branch2a"
  param {
    lr_mult: 0
    decay_mult: 0
  }
  param {
    lr_mult: 0
    decay_mult: 0
  }
  param {
    lr_mult: 0
    decay_mult: 0
  }
  batch_norm_param {
    use_global_stats: true
  }
}
layer {
  name: "scale3b_branch2a"
  type: "Scale"
  bottom: "res3b_branch2a"
  top: "res3b_branch2a"
  param {
    lr_mult: 0
    decay_mult: 0
  }
  param {
    lr_mult: 0
    decay_mult: 0
  }
  scale_param {
    bias_term: true
  }
}
layer {
  name: "res3b_branch2a_relu"
  type: "ReLU"
  bottom: "res3b_branch2a"
  top: "res3b_branch2a"
}
layer {
  name: "res3b_branch2b"
  type: "Convolution"
  bottom: "res3b_branch2a"
  top: "res3b_branch2b"
  param {
    lr_mult: 1
  }
  convolution_param {
    num_output: 128
    bias_term: false
    pad: 1
    kernel_size: 3
    stride: 1
  }
}
layer {
  name: "bn3b_branch2b"
  type: "BatchNorm"
  bottom: "res3b_branch2b"
  top: "res3b_branch2b"
  param {
    lr_mult: 0
    decay_mult: 0
  }
  param {
    lr_mult: 0
    decay_mult: 0
  }
  param {
    lr_mult: 0
    decay_mult: 0
  }
  batch_norm_param {
    use_global_stats: true
  }
}
layer {
  name: "scale3b_branch2b"
  type: "Scale"
  bottom: "res3b_branch2b"
  top: "res3b_branch2b"
  param {
    lr_mult: 0
    decay_mult: 0
  }
  param {
    lr_mult: 0
    decay_mult: 0
  }
  scale_param {
    bias_term: true
  }
}
layer {
  name: "res3b_branch2b_relu"
  type: "ReLU"
  bottom: "res3b_branch2b"
  top: "res3b_branch2b"
}
layer {
  name: "res3b_branch2c"
  type: "Convolution"
  bottom: "res3b_branch2b"
  top: "res3b_branch2c"
  param {
    lr_mult: 1
  }
  convolution_param {
    num_output: 512
    bias_term: false
    pad: 0
    kernel_size: 1
    stride: 1
  }
}
layer {
  name: "bn3b_branch2c"
  type: "BatchNorm"
  bottom: "res3b_branch2c"
  top: "res3b_branch2c"
  param {
    lr_mult: 0
    decay_mult: 0
  }
  param {
    lr_mult: 0
    decay_mult: 0
  }
  param {
    lr_mult: 0
    decay_mult: 0
  }
  batch_norm_param {
    use_global_stats: true
  }
}
layer {
  name: "scale3b_branch2c"
  type: "Scale"
  bottom: "res3b_branch2c"
  top: "res3b_branch2c"
  param {
    lr_mult: 0
    decay_mult: 0
  }
  param {
    lr_mult: 0
    decay_mult: 0
  }
  scale_param {
    bias_term: true
  }
}
layer {
  name: "res3b"
  type: "Eltwise"
  bottom: "res3a"
  bottom: "res3b_branch2c"
  top: "res3b"
}
layer {
  name: "res3b_relu"
  type: "ReLU"
  bottom: "res3b"
  top: "res3b"
}
layer {
  name: "res3c_branch2a"
  type: "Convolution"
  bottom: "res3b"
  top: "res3c_branch2a"
  param {
    lr_mult: 1
  }
  convolution_param {
    num_output: 128
    bias_term: false
    pad: 0
    kernel_size: 1
    stride: 1
  }
}
layer {
  name: "bn3c_branch2a"
  type: "BatchNorm"
  bottom: "res3c_branch2a"
  top: "res3c_branch2a"
  param {
    lr_mult: 0
    decay_mult: 0
  }
  param {
    lr_mult: 0
    decay_mult: 0
  }
  param {
    lr_mult: 0
    decay_mult: 0
  }
  batch_norm_param {
    use_global_stats: true
  }
}
layer {
  name: "scale3c_branch2a"
  type: "Scale"
  bottom: "res3c_branch2a"
  top: "res3c_branch2a"
  param {
    lr_mult: 0
    decay_mult: 0
  }
  param {
    lr_mult: 0
    decay_mult: 0
  }
  scale_param {
    bias_term: true
  }
}
layer {
  name: "res3c_branch2a_relu"
  type: "ReLU"
  bottom: "res3c_branch2a"
  top: "res3c_branch2a"
}
layer {
  name: "res3c_branch2b"
  type: "Convolution"
  bottom: "res3c_branch2a"
  top: "res3c_branch2b"
  param {
    lr_mult: 1
  }
  convolution_param {
    num_output: 128
    bias_term: false
    pad: 1
    kernel_size: 3
    stride: 1
  }
}
layer {
  name: "bn3c_branch2b"
  type: "BatchNorm"
  bottom: "res3c_branch2b"
  top: "res3c_branch2b"
  param {
    lr_mult: 0
    decay_mult: 0
  }
  param {
    lr_mult: 0
    decay_mult: 0
  }
  param {
    lr_mult: 0
    decay_mult: 0
  }
  batch_norm_param {
    use_global_stats: true
  }
}
layer {
  name: "scale3c_branch2b"
  type: "Scale"
  bottom: "res3c_branch2b"
  top: "res3c_branch2b"
  param {
    lr_mult: 0
    decay_mult: 0
  }
  param {
    lr_mult: 0
    decay_mult: 0
  }
  scale_param {
    bias_term: true
  }
}
layer {
  name: "res3c_branch2b_relu"
  type: "ReLU"
  bottom: "res3c_branch2b"
  top: "res3c_branch2b"
}
layer {
  name: "res3c_branch2c"
  type: "Convolution"
  bottom: "res3c_branch2b"
  top: "res3c_branch2c"
  param {
    lr_mult: 1
  }
  convolution_param {
    num_output: 512
    bias_term: false
    pad: 0
    kernel_size: 1
    stride: 1
  }
}
layer {
  name: "bn3c_branch2c"
  type: "BatchNorm"
  bottom: "res3c_branch2c"
  top: "res3c_branch2c"
  param {
    lr_mult: 0
    decay_mult: 0
  }
  param {
    lr_mult: 0
    decay_mult: 0
  }
  param {
    lr_mult: 0
    decay_mult: 0
  }
  batch_norm_param {
    use_global_stats: true
  }
}
layer {
  name: "scale3c_branch2c"
  type: "Scale"
  bottom: "res3c_branch2c"
  top: "res3c_branch2c"
  param {
    lr_mult: 0
    decay_mult: 0
  }
  param {
    lr_mult: 0
    decay_mult: 0
  }
  scale_param {
    bias_term: true
  }
}
layer {
  name: "res3c"
  type: "Eltwise"
  bottom: "res3b"
  bottom: "res3c_branch2c"
  top: "res3c"
}
layer {
  name: "res3c_relu"
  type: "ReLU"
  bottom: "res3c"
  top: "res3c"
}
layer {
  name: "res3d_branch2a"
  type: "Convolution"
  bottom: "res3c"
  top: "res3d_branch2a"
  param {
    lr_mult: 1
  }
  convolution_param {
    num_output: 128
    bias_term: false
    pad: 0
    kernel_size: 1
    stride: 1
  }
}
layer {
  name: "bn3d_branch2a"
  type: "BatchNorm"
  bottom: "res3d_branch2a"
  top: "res3d_branch2a"
  param {
    lr_mult: 0
    decay_mult: 0
  }
  param {
    lr_mult: 0
    decay_mult: 0
  }
  param {
    lr_mult: 0
    decay_mult: 0
  }
  batch_norm_param {
    use_global_stats: true
  }
}
layer {
  name: "scale3d_branch2a"
  type: "Scale"
  bottom: "res3d_branch2a"
  top: "res3d_branch2a"
  param {
    lr_mult: 0
    decay_mult: 0
  }
  param {
    lr_mult: 0
    decay_mult: 0
  }
  scale_param {
    bias_term: true
  }
}
layer {
  name: "res3d_branch2a_relu"
  type: "ReLU"
  bottom: "res3d_branch2a"
  top: "res3d_branch2a"
}
layer {
  name: "res3d_branch2b"
  type: "Convolution"
  bottom: "res3d_branch2a"
  top: "res3d_branch2b"
  param {
    lr_mult: 1
  }
  convolution_param {
    num_output: 128
    bias_term: false
    pad: 1
    kernel_size: 3
    stride: 1
  }
}
layer {
  name: "bn3d_branch2b"
  type: "BatchNorm"
  bottom: "res3d_branch2b"
  top: "res3d_branch2b"
  param {
    lr_mult: 0
    decay_mult: 0
  }
  param {
    lr_mult: 0
    decay_mult: 0
  }
  param {
    lr_mult: 0
    decay_mult: 0
  }
  batch_norm_param {
    use_global_stats: true
  }
}
layer {
  name: "scale3d_branch2b"
  type: "Scale"
  bottom: "res3d_branch2b"
  top: "res3d_branch2b"
  param {
    lr_mult: 0
    decay_mult: 0
  }
  param {
    lr_mult: 0
    decay_mult: 0
  }
  scale_param {
    bias_term: true
  }
}
layer {
  name: "res3d_branch2b_relu"
  type: "ReLU"
  bottom: "res3d_branch2b"
  top: "res3d_branch2b"
}
layer {
  name: "res3d_branch2c"
  type: "Convolution"
  bottom: "res3d_branch2b"
  top: "res3d_branch2c"
  param {
    lr_mult: 1
  }
  convolution_param {
    num_output: 512
    bias_term: false
    pad: 0
    kernel_size: 1
    stride: 1
  }
}
layer {
  name: "bn3d_branch2c"
  type: "BatchNorm"
  bottom: "res3d_branch2c"
  top: "res3d_branch2c"
  param {
    lr_mult: 0
    decay_mult: 0
  }
  param {
    lr_mult: 0
    decay_mult: 0
  }
  param {
    lr_mult: 0
    decay_mult: 0
  }
  batch_norm_param {
    use_global_stats: true
  }
}
layer {
  name: "scale3d_branch2c"
  type: "Scale"
  bottom: "res3d_branch2c"
  top: "res3d_branch2c"
  param {
    lr_mult: 0
    decay_mult: 0
  }
  param {
    lr_mult: 0
    decay_mult: 0
  }
  scale_param {
    bias_term: true
  }
}
layer {
  name: "res3d"
  type: "Eltwise"
  bottom: "res3c"
  bottom: "res3d_branch2c"
  top: "res3d"
}
layer {
  name: "res3d_relu"
  type: "ReLU"
  bottom: "res3d"
  top: "res3d"
}
layer {
  name: "res4a_branch1"
  type: "Convolution"
  bottom: "res3d"
  top: "res4a_branch1"
  param {
    lr_mult: 1
  }
  convolution_param {
    num_output: 1024
    bias_term: false
    pad: 0
    kernel_size: 1
    stride: 2
  }
}
layer {
  name: "bn4a_branch1"
  type: "BatchNorm"
  bottom: "res4a_branch1"
  top: "res4a_branch1"
  param {
    lr_mult: 0
    decay_mult: 0
  }
  param {
    lr_mult: 0
    decay_mult: 0
  }
  param {
    lr_mult: 0
    decay_mult: 0
  }
  batch_norm_param {
    use_global_stats: true
  }
}
layer {
  name: "scale4a_branch1"
  type: "Scale"
  bottom: "res4a_branch1"
  top: "res4a_branch1"
  param {
    lr_mult: 0
    decay_mult: 0
  }
  param {
    lr_mult: 0
    decay_mult: 0
  }
  scale_param {
    bias_term: true
  }
}
layer {
  name: "res4a_branch2a"
  type: "Convolution"
  bottom: "res3d"
  top: "res4a_branch2a"
  param {
    lr_mult: 1
  }
  convolution_param {
    num_output: 256
    bias_term: false
    pad: 0
    kernel_size: 1
    stride: 2
  }
}
layer {
  name: "bn4a_branch2a"
  type: "BatchNorm"
  bottom: "res4a_branch2a"
  top: "res4a_branch2a"
  param {
    lr_mult: 0
    decay_mult: 0
  }
  param {
    lr_mult: 0
    decay_mult: 0
  }
  param {
    lr_mult: 0
    decay_mult: 0
  }
  batch_norm_param {
    use_global_stats: true
  }
}
layer {
  name: "scale4a_branch2a"
  type: "Scale"
  bottom: "res4a_branch2a"
  top: "res4a_branch2a"
  param {
    lr_mult: 0
    decay_mult: 0
  }
  param {
    lr_mult: 0
    decay_mult: 0
  }
  scale_param {
    bias_term: true
  }
}
layer {
  name: "res4a_branch2a_relu"
  type: "ReLU"
  bottom: "res4a_branch2a"
  top: "res4a_branch2a"
}
layer {
  name: "res4a_branch2b"
  type: "Convolution"
  bottom: "res4a_branch2a"
  top: "res4a_branch2b"
  param {
    lr_mult: 1
  }
  convolution_param {
    num_output: 256
    bias_term: false
    pad: 1
    kernel_size: 3
    stride: 1
  }
}
layer {
  name: "bn4a_branch2b"
  type: "BatchNorm"
  bottom: "res4a_branch2b"
  top: "res4a_branch2b"
  param {
    lr_mult: 0
    decay_mult: 0
  }
  param {
    lr_mult: 0
    decay_mult: 0
  }
  param {
    lr_mult: 0
    decay_mult: 0
  }
  batch_norm_param {
    use_global_stats: true
  }
}
layer {
  name: "scale4a_branch2b"
  type: "Scale"
  bottom: "res4a_branch2b"
  top: "res4a_branch2b"
  param {
    lr_mult: 0
    decay_mult: 0
  }
  param {
    lr_mult: 0
    decay_mult: 0
  }
  scale_param {
    bias_term: true
  }
}
layer {
  name: "res4a_branch2b_relu"
  type: "ReLU"
  bottom: "res4a_branch2b"
  top: "res4a_branch2b"
}
layer {
  name: "res4a_branch2c"
  type: "Convolution"
  bottom: "res4a_branch2b"
  top: "res4a_branch2c"
  param {
    lr_mult: 1
  }
  convolution_param {
    num_output: 1024
    bias_term: false
    pad: 0
    kernel_size: 1
    stride: 1
  }
}
layer {
  name: "bn4a_branch2c"
  type: "BatchNorm"
  bottom: "res4a_branch2c"
  top: "res4a_branch2c"
  param {
    lr_mult: 0
    decay_mult: 0
  }
  param {
    lr_mult: 0
    decay_mult: 0
  }
  param {
    lr_mult: 0
    decay_mult: 0
  }
  batch_norm_param {
    use_global_stats: true
  }
}
layer {
  name: "scale4a_branch2c"
  type: "Scale"
  bottom: "res4a_branch2c"
  top: "res4a_branch2c"
  param {
    lr_mult: 0
    decay_mult: 0
  }
  param {
    lr_mult: 0
    decay_mult: 0
  }
  scale_param {
    bias_term: true
  }
}
layer {
  name: "res4a"
  type: "Eltwise"
  bottom: "res4a_branch1"
  bottom: "res4a_branch2c"
  top: "res4a"
}
layer {
  name: "res4a_relu"
  type: "ReLU"
  bottom: "res4a"
  top: "res4a"
}
layer {
  name: "res4b_branch2a"
  type: "Convolution"
  bottom: "res4a"
  top: "res4b_branch2a"
  param {
    lr_mult: 1
  }
  convolution_param {
    num_output: 256
    bias_term: false
    pad: 0
    kernel_size: 1
    stride: 1
  }
}
layer {
  name: "bn4b_branch2a"
  type: "BatchNorm"
  bottom: "res4b_branch2a"
  top: "res4b_branch2a"
  param {
    lr_mult: 0
    decay_mult: 0
  }
  param {
    lr_mult: 0
    decay_mult: 0
  }
  param {
    lr_mult: 0
    decay_mult: 0
  }
  batch_norm_param {
    use_global_stats: true
  }
}
layer {
  name: "scale4b_branch2a"
  type: "Scale"
  bottom: "res4b_branch2a"
  top: "res4b_branch2a"
  param {
    lr_mult: 0
    decay_mult: 0
  }
  param {
    lr_mult: 0
    decay_mult: 0
  }
  scale_param {
    bias_term: true
  }
}
layer {
  name: "res4b_branch2a_relu"
  type: "ReLU"
  bottom: "res4b_branch2a"
  top: "res4b_branch2a"
}
layer {
  name: "res4b_branch2b"
  type: "Convolution"
  bottom: "res4b_branch2a"
  top: "res4b_branch2b"
  param {
    lr_mult: 1
  }
  convolution_param {
    num_output: 256
    bias_term: false
    pad: 1
    kernel_size: 3
    stride: 1
  }
}
layer {
  name: "bn4b_branch2b"
  type: "BatchNorm"
  bottom: "res4b_branch2b"
  top: "res4b_branch2b"
  param {
    lr_mult: 0
    decay_mult: 0
  }
  param {
    lr_mult: 0
    decay_mult: 0
  }
  param {
    lr_mult: 0
    decay_mult: 0
  }
  batch_norm_param {
    use_global_stats: true
  }
}
layer {
  name: "scale4b_branch2b"
  type: "Scale"
  bottom: "res4b_branch2b"
  top: "res4b_branch2b"
  param {
    lr_mult: 0
    decay_mult: 0
  }
  param {
    lr_mult: 0
    decay_mult: 0
  }
  scale_param {
    bias_term: true
  }
}
layer {
  name: "res4b_branch2b_relu"
  type: "ReLU"
  bottom: "res4b_branch2b"
  top: "res4b_branch2b"
}
layer {
  name: "res4b_branch2c"
  type: "Convolution"
  bottom: "res4b_branch2b"
  top: "res4b_branch2c"
  param {
    lr_mult: 1
  }
  convolution_param {
    num_output: 1024
    bias_term: false
    pad: 0
    kernel_size: 1
    stride: 1
  }
}
layer {
  name: "bn4b_branch2c"
  type: "BatchNorm"
  bottom: "res4b_branch2c"
  top: "res4b_branch2c"
  param {
    lr_mult: 0
    decay_mult: 0
  }
  param {
    lr_mult: 0
    decay_mult: 0
  }
  param {
    lr_mult: 0
    decay_mult: 0
  }
  batch_norm_param {
    use_global_stats: true
  }
}
layer {
  name: "scale4b_branch2c"
  type: "Scale"
  bottom: "res4b_branch2c"
  top: "res4b_branch2c"
  param {
    lr_mult: 0
    decay_mult: 0
  }
  param {
    lr_mult: 0
    decay_mult: 0
  }
  scale_param {
    bias_term: true
  }
}
layer {
  name: "res4b"
  type: "Eltwise"
  bottom: "res4a"
  bottom: "res4b_branch2c"
  top: "res4b"
}
layer {
  name: "res4b_relu"
  type: "ReLU"
  bottom: "res4b"
  top: "res4b"
}
layer {
  name: "res4c_branch2a"
  type: "Convolution"
  bottom: "res4b"
  top: "res4c_branch2a"
  param {
    lr_mult: 1
  }
  convolution_param {
    num_output: 256
    bias_term: false
    pad: 0
    kernel_size: 1
    stride: 1
  }
}
layer {
  name: "bn4c_branch2a"
  type: "BatchNorm"
  bottom: "res4c_branch2a"
  top: "res4c_branch2a"
  param {
    lr_mult: 0
    decay_mult: 0
  }
  param {
    lr_mult: 0
    decay_mult: 0
  }
  param {
    lr_mult: 0
    decay_mult: 0
  }
  batch_norm_param {
    use_global_stats: true
  }
}
layer {
  name: "scale4c_branch2a"
  type: "Scale"
  bottom: "res4c_branch2a"
  top: "res4c_branch2a"
  param {
    lr_mult: 0
    decay_mult: 0
  }
  param {
    lr_mult: 0
    decay_mult: 0
  }
  scale_param {
    bias_term: true
  }
}
layer {
  name: "res4c_branch2a_relu"
  type: "ReLU"
  bottom: "res4c_branch2a"
  top: "res4c_branch2a"
}
layer {
  name: "res4c_branch2b"
  type: "Convolution"
  bottom: "res4c_branch2a"
  top: "res4c_branch2b"
  param {
    lr_mult: 1
  }
  convolution_param {
    num_output: 256
    bias_term: false
    pad: 1
    kernel_size: 3
    stride: 1
  }
}
layer {
  name: "bn4c_branch2b"
  type: "BatchNorm"
  bottom: "res4c_branch2b"
  top: "res4c_branch2b"
  param {
    lr_mult: 0
    decay_mult: 0
  }
  param {
    lr_mult: 0
    decay_mult: 0
  }
  param {
    lr_mult: 0
    decay_mult: 0
  }
  batch_norm_param {
    use_global_stats: true
  }
}
layer {
  name: "scale4c_branch2b"
  type: "Scale"
  bottom: "res4c_branch2b"
  top: "res4c_branch2b"
  param {
    lr_mult: 0
    decay_mult: 0
  }
  param {
    lr_mult: 0
    decay_mult: 0
  }
  scale_param {
    bias_term: true
  }
}
layer {
  name: "res4c_branch2b_relu"
  type: "ReLU"
  bottom: "res4c_b
I0710 17:29:01.157140 25334 layer_factory.hpp:77] Creating layer input-data
I0710 17:29:01.165163 25334 net.cpp:100] Creating Layer input-data
I0710 17:29:01.165182 25334 net.cpp:418] input-data -> data
I0710 17:29:01.165220 25334 net.cpp:418] input-data -> im_info
I0710 17:29:01.165237 25334 net.cpp:418] input-data -> gt_boxes
I0710 17:29:01.165251 25334 net.cpp:418] input-data -> head_gt_boxes
RoiDataLayer: name_to_top: {'gt_boxes': 2, 'data': 0, 'im_info': 1, 'head_gt_boxes': 3}
I0710 17:29:01.183876 25334 net.cpp:150] Setting up input-data
I0710 17:29:01.183899 25334 net.cpp:157] Top shape: 1 3 960 1280 (3686400)
I0710 17:29:01.183903 25334 net.cpp:157] Top shape: 1 3 (3)
I0710 17:29:01.183905 25334 net.cpp:157] Top shape: 1 4 (4)
I0710 17:29:01.183909 25334 net.cpp:157] Top shape: 1 5 (5)
I0710 17:29:01.183910 25334 net.cpp:165] Memory required for data: 14745648
I0710 17:29:01.183924 25334 layer_factory.hpp:77] Creating layer data_input-data_0_split
I0710 17:29:01.183951 25334 net.cpp:100] Creating Layer data_input-data_0_split
I0710 17:29:01.183960 25334 net.cpp:444] data_input-data_0_split <- data
I0710 17:29:01.183977 25334 net.cpp:418] data_input-data_0_split -> data_input-data_0_split_0
I0710 17:29:01.184000 25334 net.cpp:418] data_input-data_0_split -> data_input-data_0_split_1
I0710 17:29:01.184010 25334 net.cpp:418] data_input-data_0_split -> data_input-data_0_split_2
I0710 17:29:01.184060 25334 net.cpp:150] Setting up data_input-data_0_split
I0710 17:29:01.184067 25334 net.cpp:157] Top shape: 1 3 960 1280 (3686400)
I0710 17:29:01.184070 25334 net.cpp:157] Top shape: 1 3 960 1280 (3686400)
I0710 17:29:01.184074 25334 net.cpp:157] Top shape: 1 3 960 1280 (3686400)
I0710 17:29:01.184077 25334 net.cpp:165] Memory required for data: 58982448
I0710 17:29:01.184079 25334 layer_factory.hpp:77] Creating layer im_info_input-data_1_split
I0710 17:29:01.184089 25334 net.cpp:100] Creating Layer im_info_input-data_1_split
I0710 17:29:01.184093 25334 net.cpp:444] im_info_input-data_1_split <- im_info
I0710 17:29:01.184103 25334 net.cpp:418] im_info_input-data_1_split -> im_info_input-data_1_split_0
I0710 17:29:01.184114 25334 net.cpp:418] im_info_input-data_1_split -> im_info_input-data_1_split_1
I0710 17:29:01.184126 25334 net.cpp:418] im_info_input-data_1_split -> im_info_input-data_1_split_2
I0710 17:29:01.184135 25334 net.cpp:418] im_info_input-data_1_split -> im_info_input-data_1_split_3
I0710 17:29:01.184190 25334 net.cpp:150] Setting up im_info_input-data_1_split
I0710 17:29:01.184196 25334 net.cpp:157] Top shape: 1 3 (3)
I0710 17:29:01.184200 25334 net.cpp:157] Top shape: 1 3 (3)
I0710 17:29:01.184202 25334 net.cpp:157] Top shape: 1 3 (3)
I0710 17:29:01.184204 25334 net.cpp:157] Top shape: 1 3 (3)
I0710 17:29:01.184206 25334 net.cpp:165] Memory required for data: 58982496
I0710 17:29:01.184208 25334 layer_factory.hpp:77] Creating layer gt_boxes_input-data_2_split
I0710 17:29:01.184214 25334 net.cpp:100] Creating Layer gt_boxes_input-data_2_split
I0710 17:29:01.184218 25334 net.cpp:444] gt_boxes_input-data_2_split <- gt_boxes
I0710 17:29:01.184228 25334 net.cpp:418] gt_boxes_input-data_2_split -> gt_boxes_input-data_2_split_0
I0710 17:29:01.184238 25334 net.cpp:418] gt_boxes_input-data_2_split -> gt_boxes_input-data_2_split_1
I0710 17:29:01.184273 25334 net.cpp:150] Setting up gt_boxes_input-data_2_split
I0710 17:29:01.184278 25334 net.cpp:157] Top shape: 1 4 (4)
I0710 17:29:01.184281 25334 net.cpp:157] Top shape: 1 4 (4)
I0710 17:29:01.184283 25334 net.cpp:165] Memory required for data: 58982528
I0710 17:29:01.184285 25334 layer_factory.hpp:77] Creating layer head_gt_boxes_input-data_3_split
I0710 17:29:01.184295 25334 net.cpp:100] Creating Layer head_gt_boxes_input-data_3_split
I0710 17:29:01.184299 25334 net.cpp:444] head_gt_boxes_input-data_3_split <- head_gt_boxes
I0710 17:29:01.184309 25334 net.cpp:418] head_gt_boxes_input-data_3_split -> head_gt_boxes_input-data_3_split_0
I0710 17:29:01.184319 25334 net.cpp:418] head_gt_boxes_input-data_3_split -> head_gt_boxes_input-data_3_split_1
I0710 17:29:01.184370 25334 net.cpp:150] Setting up head_gt_boxes_input-data_3_split
I0710 17:29:01.184376 25334 net.cpp:157] Top shape: 1 5 (5)
I0710 17:29:01.184378 25334 net.cpp:157] Top shape: 1 5 (5)
I0710 17:29:01.184379 25334 net.cpp:165] Memory required for data: 58982568
I0710 17:29:01.184382 25334 layer_factory.hpp:77] Creating layer conv1
I0710 17:29:01.184399 25334 net.cpp:100] Creating Layer conv1
I0710 17:29:01.184403 25334 net.cpp:444] conv1 <- data_input-data_0_split_0
I0710 17:29:01.184413 25334 net.cpp:418] conv1 -> conv1
I0710 17:29:01.467532 25334 cudnn_conv_layer.cpp:194] Reallocating workspace storage: 5529624
I0710 17:29:01.467797 25334 net.cpp:150] Setting up conv1
I0710 17:29:01.467815 25334 net.cpp:157] Top shape: 1 64 480 640 (19660800)
I0710 17:29:01.467839 25334 net.cpp:165] Memory required for data: 137625768
I0710 17:29:01.467891 25334 layer_factory.hpp:77] Creating layer bn_conv1
I0710 17:29:01.467917 25334 net.cpp:100] Creating Layer bn_conv1
I0710 17:29:01.467926 25334 net.cpp:444] bn_conv1 <- conv1
I0710 17:29:01.467938 25334 net.cpp:405] bn_conv1 -> conv1 (in-place)
I0710 17:29:01.469202 25334 net.cpp:150] Setting up bn_conv1
I0710 17:29:01.469210 25334 net.cpp:157] Top shape: 1 64 480 640 (19660800)
I0710 17:29:01.469213 25334 net.cpp:165] Memory required for data: 216268968
I0710 17:29:01.469241 25334 layer_factory.hpp:77] Creating layer scale_conv1
I0710 17:29:01.469256 25334 net.cpp:100] Creating Layer scale_conv1
I0710 17:29:01.469262 25334 net.cpp:444] scale_conv1 <- conv1
I0710 17:29:01.469272 25334 net.cpp:405] scale_conv1 -> conv1 (in-place)
I0710 17:29:01.469328 25334 layer_factory.hpp:77] Creating layer scale_conv1
I0710 17:29:01.471487 25334 net.cpp:150] Setting up scale_conv1
I0710 17:29:01.471498 25334 net.cpp:157] Top shape: 1 64 480 640 (19660800)
I0710 17:29:01.471499 25334 net.cpp:165] Memory required for data: 294912168
I0710 17:29:01.471515 25334 layer_factory.hpp:77] Creating layer conv1_relu
I0710 17:29:01.471535 25334 net.cpp:100] Creating Layer conv1_relu
I0710 17:29:01.471544 25334 net.cpp:444] conv1_relu <- conv1
I0710 17:29:01.471556 25334 net.cpp:405] conv1_relu -> conv1 (in-place)
I0710 17:29:01.471719 25334 net.cpp:150] Setting up conv1_relu
I0710 17:29:01.471725 25334 net.cpp:157] Top shape: 1 64 480 640 (19660800)
I0710 17:29:01.471727 25334 net.cpp:165] Memory required for data: 373555368
I0710 17:29:01.471730 25334 layer_factory.hpp:77] Creating layer pool1
I0710 17:29:01.471742 25334 net.cpp:100] Creating Layer pool1
I0710 17:29:01.471746 25334 net.cpp:444] pool1 <- conv1
I0710 17:29:01.471757 25334 net.cpp:418] pool1 -> pool1
I0710 17:29:01.471819 25334 net.cpp:150] Setting up pool1
I0710 17:29:01.471830 25334 net.cpp:157] Top shape: 1 64 240 320 (4915200)
I0710 17:29:01.471833 25334 net.cpp:165] Memory required for data: 393216168
I0710 17:29:01.471835 25334 layer_factory.hpp:77] Creating layer pool1_pool1_0_split
I0710 17:29:01.471843 25334 net.cpp:100] Creating Layer pool1_pool1_0_split
I0710 17:29:01.471848 25334 net.cpp:444] pool1_pool1_0_split <- pool1
I0710 17:29:01.471856 25334 net.cpp:418] pool1_pool1_0_split -> pool1_pool1_0_split_0
I0710 17:29:01.471866 25334 net.cpp:418] pool1_pool1_0_split -> pool1_pool1_0_split_1
I0710 17:29:01.471906 25334 net.cpp:150] Setting up pool1_pool1_0_split
I0710 17:29:01.471912 25334 net.cpp:157] Top shape: 1 64 240 320 (4915200)
I0710 17:29:01.471915 25334 net.cpp:157] Top shape: 1 64 240 320 (4915200)
I0710 17:29:01.471917 25334 net.cpp:165] Memory required for data: 432537768
I0710 17:29:01.471920 25334 layer_factory.hpp:77] Creating layer res2a_branch1
I0710 17:29:01.471935 25334 net.cpp:100] Creating Layer res2a_branch1
I0710 17:29:01.471938 25334 net.cpp:444] res2a_branch1 <- pool1_pool1_0_split_0
I0710 17:29:01.471948 25334 net.cpp:418] res2a_branch1 -> res2a_branch1
I0710 17:29:01.472805 25334 cudnn_conv_layer.cpp:194] Reallocating workspace storage: 1388952
I0710 17:29:01.473043 25334 net.cpp:150] Setting up res2a_branch1
I0710 17:29:01.473052 25334 net.cpp:157] Top shape: 1 256 240 320 (19660800)
I0710 17:29:01.473055 25334 net.cpp:165] Memory required for data: 511180968
I0710 17:29:01.473065 25334 layer_factory.hpp:77] Creating layer bn2a_branch1
I0710 17:29:01.473078 25334 net.cpp:100] Creating Layer bn2a_branch1
I0710 17:29:01.473083 25334 net.cpp:444] bn2a_branch1 <- res2a_branch1
I0710 17:29:01.473093 25334 net.cpp:405] bn2a_branch1 -> res2a_branch1 (in-place)
I0710 17:29:01.473390 25334 net.cpp:150] Setting up bn2a_branch1
I0710 17:29:01.473397 25334 net.cpp:157] Top shape: 1 256 240 320 (19660800)
I0710 17:29:01.473399 25334 net.cpp:165] Memory required for data: 589824168
I0710 17:29:01.473420 25334 layer_factory.hpp:77] Creating layer scale2a_branch1
I0710 17:29:01.473433 25334 net.cpp:100] Creating Layer scale2a_branch1
I0710 17:29:01.473438 25334 net.cpp:444] scale2a_branch1 <- res2a_branch1
I0710 17:29:01.473448 25334 net.cpp:405] scale2a_branch1 -> res2a_branch1 (in-place)
I0710 17:29:01.473498 25334 layer_factory.hpp:77] Creating layer scale2a_branch1
I0710 17:29:01.473856 25334 net.cpp:150] Setting up scale2a_branch1
I0710 17:29:01.473863 25334 net.cpp:157] Top shape: 1 256 240 320 (19660800)
I0710 17:29:01.473865 25334 net.cpp:165] Memory required for data: 668467368
I0710 17:29:01.473875 25334 layer_factory.hpp:77] Creating layer res2a_branch2a
I0710 17:29:01.473887 25334 net.cpp:100] Creating Layer res2a_branch2a
I0710 17:29:01.473892 25334 net.cpp:444] res2a_branch2a <- pool1_pool1_0_split_1
I0710 17:29:01.473904 25334 net.cpp:418] res2a_branch2a -> res2a_branch2a
I0710 17:29:01.475373 25334 cudnn_conv_layer.cpp:194] Reallocating workspace storage: 1388952
I0710 17:29:01.475607 25334 net.cpp:150] Setting up res2a_branch2a
I0710 17:29:01.475617 25334 net.cpp:157] Top shape: 1 64 240 320 (4915200)
I0710 17:29:01.475620 25334 net.cpp:165] Memory required for data: 688128168
I0710 17:29:01.475630 25334 layer_factory.hpp:77] Creating layer bn2a_branch2a
I0710 17:29:01.475641 25334 net.cpp:100] Creating Layer bn2a_branch2a
I0710 17:29:01.475646 25334 net.cpp:444] bn2a_branch2a <- res2a_branch2a
I0710 17:29:01.475656 25334 net.cpp:405] bn2a_branch2a -> res2a_branch2a (in-place)
I0710 17:29:01.475965 25334 net.cpp:150] Setting up bn2a_branch2a
I0710 17:29:01.475970 25334 net.cpp:157] Top shape: 1 64 240 320 (4915200)
I0710 17:29:01.475972 25334 net.cpp:165] Memory required for data: 707788968
I0710 17:29:01.475993 25334 layer_factory.hpp:77] Creating layer scale2a_branch2a
I0710 17:29:01.476009 25334 net.cpp:100] Creating Layer scale2a_branch2a
I0710 17:29:01.476014 25334 net.cpp:444] scale2a_branch2a <- res2a_branch2a
I0710 17:29:01.476024 25334 net.cpp:405] scale2a_branch2a -> res2a_branch2a (in-place)
I0710 17:29:01.476074 25334 layer_factory.hpp:77] Creating layer scale2a_branch2a
I0710 17:29:01.476404 25334 net.cpp:150] Setting up scale2a_branch2a
I0710 17:29:01.476410 25334 net.cpp:157] Top shape: 1 64 240 320 (4915200)
I0710 17:29:01.476413 25334 net.cpp:165] Memory required for data: 727449768
I0710 17:29:01.476421 25334 layer_factory.hpp:77] Creating layer res2a_branch2a_relu
I0710 17:29:01.476429 25334 net.cpp:100] Creating Layer res2a_branch2a_relu
I0710 17:29:01.476433 25334 net.cpp:444] res2a_branch2a_relu <- res2a_branch2a
I0710 17:29:01.476441 25334 net.cpp:405] res2a_branch2a_relu -> res2a_branch2a (in-place)
I0710 17:29:01.476562 25334 net.cpp:150] Setting up res2a_branch2a_relu
I0710 17:29:01.476567 25334 net.cpp:157] Top shape: 1 64 240 320 (4915200)
I0710 17:29:01.476568 25334 net.cpp:165] Memory required for data: 747110568
I0710 17:29:01.476572 25334 layer_factory.hpp:77] Creating layer res2a_branch2b
I0710 17:29:01.476584 25334 net.cpp:100] Creating Layer res2a_branch2b
I0710 17:29:01.476588 25334 net.cpp:444] res2a_branch2b <- res2a_branch2a
I0710 17:29:01.476598 25334 net.cpp:418] res2a_branch2b -> res2a_branch2b
I0710 17:29:01.478081 25334 cudnn_conv_layer.cpp:194] Reallocating workspace storage: 786432
I0710 17:29:01.478319 25334 net.cpp:150] Setting up res2a_branch2b
I0710 17:29:01.478329 25334 net.cpp:157] Top shape: 1 64 240 320 (4915200)
I0710 17:29:01.478332 25334 net.cpp:165] Memory required for data: 766771368
I0710 17:29:01.478341 25334 layer_factory.hpp:77] Creating layer bn2a_branch2b
I0710 17:29:01.478354 25334 net.cpp:100] Creating Layer bn2a_branch2b
I0710 17:29:01.478359 25334 net.cpp:444] bn2a_branch2b <- res2a_branch2b
I0710 17:29:01.478370 25334 net.cpp:405] bn2a_branch2b -> res2a_branch2b (in-place)
I0710 17:29:01.478688 25334 net.cpp:150] Setting up bn2a_branch2b
I0710 17:29:01.478693 25334 net.cpp:157] Top shape: 1 64 240 320 (4915200)
I0710 17:29:01.478694 25334 net.cpp:165] Memory required for data: 786432168
I0710 17:29:01.478708 25334 layer_factory.hpp:77] Creating layer scale2a_branch2b
I0710 17:29:01.478719 25334 net.cpp:100] Creating Layer scale2a_branch2b
I0710 17:29:01.478724 25334 net.cpp:444] scale2a_branch2b <- res2a_branch2b
I0710 17:29:01.478734 25334 net.cpp:405] scale2a_branch2b -> res2a_branch2b (in-place)
I0710 17:29:01.478786 25334 layer_factory.hpp:77] Creating layer scale2a_branch2b
I0710 17:29:01.479784 25334 net.cpp:150] Setting up scale2a_branch2b
I0710 17:29:01.479794 25334 net.cpp:157] Top shape: 1 64 240 320 (4915200)
I0710 17:29:01.479795 25334 net.cpp:165] Memory required for data: 806092968
I0710 17:29:01.479809 25334 layer_factory.hpp:77] Creating layer res2a_branch2b_relu
I0710 17:29:01.479823 25334 net.cpp:100] Creating Layer res2a_branch2b_relu
I0710 17:29:01.479830 25334 net.cpp:444] res2a_branch2b_relu <- res2a_branch2b
I0710 17:29:01.479842 25334 net.cpp:405] res2a_branch2b_relu -> res2a_branch2b (in-place)
I0710 17:29:01.480252 25334 net.cpp:150] Setting up res2a_branch2b_relu
I0710 17:29:01.480259 25334 net.cpp:157] Top shape: 1 64 240 320 (4915200)
I0710 17:29:01.480262 25334 net.cpp:165] Memory required for data: 825753768
I0710 17:29:01.480265 25334 layer_factory.hpp:77] Creating layer res2a_branch2c
I0710 17:29:01.480283 25334 net.cpp:100] Creating Layer res2a_branch2c
I0710 17:29:01.480286 25334 net.cpp:444] res2a_branch2c <- res2a_branch2b
I0710 17:29:01.480300 25334 net.cpp:418] res2a_branch2c -> res2a_branch2c
I0710 17:29:01.481192 25334 cudnn_conv_layer.cpp:194] Reallocating workspace storage: 1388952
I0710 17:29:01.481433 25334 net.cpp:150] Setting up res2a_branch2c
I0710 17:29:01.481444 25334 net.cpp:157] Top shape: 1 256 240 320 (19660800)
I0710 17:29:01.481447 25334 net.cpp:165] Memory required for data: 904396968
I0710 17:29:01.481457 25334 layer_factory.hpp:77] Creating layer bn2a_branch2c
I0710 17:29:01.481472 25334 net.cpp:100] Creating Layer bn2a_branch2c
I0710 17:29:01.481477 25334 net.cpp:444] bn2a_branch2c <- res2a_branch2c
I0710 17:29:01.481487 25334 net.cpp:405] bn2a_branch2c -> res2a_branch2c (in-place)
I0710 17:29:01.481823 25334 net.cpp:150] Setting up bn2a_branch2c
I0710 17:29:01.481830 25334 net.cpp:157] Top shape: 1 256 240 320 (19660800)
I0710 17:29:01.481832 25334 net.cpp:165] Memory required for data: 983040168
I0710 17:29:01.481848 25334 layer_factory.hpp:77] Creating layer scale2a_branch2c
I0710 17:29:01.481860 25334 net.cpp:100] Creating Layer scale2a_branch2c
I0710 17:29:01.481865 25334 net.cpp:444] scale2a_branch2c <- res2a_branch2c
I0710 17:29:01.481875 25334 net.cpp:405] scale2a_branch2c -> res2a_branch2c (in-place)
I0710 17:29:01.481930 25334 layer_factory.hpp:77] Creating layer scale2a_branch2c
I0710 17:29:01.482259 25334 net.cpp:150] Setting up scale2a_branch2c
I0710 17:29:01.482264 25334 net.cpp:157] Top shape: 1 256 240 320 (19660800)
I0710 17:29:01.482266 25334 net.cpp:165] Memory required for data: 1061683368
I0710 17:29:01.482275 25334 layer_factory.hpp:77] Creating layer res2a
I0710 17:29:01.482285 25334 net.cpp:100] Creating Layer res2a
I0710 17:29:01.482290 25334 net.cpp:444] res2a <- res2a_branch1
I0710 17:29:01.482297 25334 net.cpp:444] res2a <- res2a_branch2c
I0710 17:29:01.482306 25334 net.cpp:418] res2a -> res2a
I0710 17:29:01.482342 25334 net.cpp:150] Setting up res2a
I0710 17:29:01.482348 25334 net.cpp:157] Top shape: 1 256 240 320 (19660800)
I0710 17:29:01.482352 25334 net.cpp:165] Memory required for data: 1140326568
I0710 17:29:01.482354 25334 layer_factory.hpp:77] Creating layer res2a_relu
I0710 17:29:01.482362 25334 net.cpp:100] Creating Layer res2a_relu
I0710 17:29:01.482367 25334 net.cpp:444] res2a_relu <- res2a
I0710 17:29:01.482376 25334 net.cpp:405] res2a_relu -> res2a (in-place)
I0710 17:29:01.482527 25334 net.cpp:150] Setting up res2a_relu
I0710 17:29:01.482532 25334 net.cpp:157] Top shape: 1 256 240 320 (19660800)
I0710 17:29:01.482535 25334 net.cpp:165] Memory required for data: 1218969768
I0710 17:29:01.482538 25334 layer_factory.hpp:77] Creating layer res2a_res2a_relu_0_split
I0710 17:29:01.482547 25334 net.cpp:100] Creating Layer res2a_res2a_relu_0_split
I0710 17:29:01.482551 25334 net.cpp:444] res2a_res2a_relu_0_split <- res2a
I0710 17:29:01.482561 25334 net.cpp:418] res2a_res2a_relu_0_split -> res2a_res2a_relu_0_split_0
I0710 17:29:01.482574 25334 net.cpp:418] res2a_res2a_relu_0_split -> res2a_res2a_relu_0_split_1
I0710 17:29:01.482622 25334 net.cpp:150] Setting up res2a_res2a_relu_0_split
I0710 17:29:01.482628 25334 net.cpp:157] Top shape: 1 256 240 320 (19660800)
I0710 17:29:01.482632 25334 net.cpp:157] Top shape: 1 256 240 320 (19660800)
I0710 17:29:01.482633 25334 net.cpp:165] Memory required for data: 1376256168
I0710 17:29:01.482636 25334 layer_factory.hpp:77] Creating layer res2b_branch2a
I0710 17:29:01.482650 25334 net.cpp:100] Creating Layer res2b_branch2a
I0710 17:29:01.482655 25334 net.cpp:444] res2b_branch2a <- res2a_res2a_relu_0_split_0
I0710 17:29:01.482666 25334 net.cpp:418] res2b_branch2a -> res2b_branch2a
I0710 17:29:01.483573 25334 cudnn_conv_layer.cpp:194] Reallocating workspace storage: 1388952
I0710 17:29:01.483829 25334 net.cpp:150] Setting up res2b_branch2a
I0710 17:29:01.483839 25334 net.cpp:157] Top shape: 1 64 240 320 (4915200)
I0710 17:29:01.483840 25334 net.cpp:165] Memory required for data: 1395916968
I0710 17:29:01.483850 25334 layer_factory.hpp:77] Creating layer bn2b_branch2a
I0710 17:29:01.483862 25334 net.cpp:100] Creating Layer bn2b_branch2a
I0710 17:29:01.483868 25334 net.cpp:444] bn2b_branch2a <- res2b_branch2a
I0710 17:29:01.483880 25334 net.cpp:405] bn2b_branch2a -> res2b_branch2a (in-place)
I0710 17:29:01.484205 25334 net.cpp:150] Setting up bn2b_branch2a
I0710 17:29:01.484211 25334 net.cpp:157] Top shape: 1 64 240 320 (4915200)
I0710 17:29:01.484212 25334 net.cpp:165] Memory required for data: 1415577768
I0710 17:29:01.484241 25334 layer_factory.hpp:77] Creating layer scale2b_branch2a
I0710 17:29:01.484257 25334 net.cpp:100] Creating Layer scale2b_branch2a
I0710 17:29:01.484262 25334 net.cpp:444] scale2b_branch2a <- res2b_branch2a
I0710 17:29:01.484273 25334 net.cpp:405] scale2b_branch2a -> res2b_branch2a (in-place)
I0710 17:29:01.484329 25334 layer_factory.hpp:77] Creating layer scale2b_branch2a
I0710 17:29:01.485312 25334 net.cpp:150] Setting up scale2b_branch2a
I0710 17:29:01.485321 25334 net.cpp:157] Top shape: 1 64 240 320 (4915200)
I0710 17:29:01.485322 25334 net.cpp:165] Memory required for data: 1435238568
I0710 17:29:01.485332 25334 layer_factory.hpp:77] Creating layer res2b_branch2a_relu
I0710 17:29:01.485344 25334 net.cpp:100] Creating Layer res2b_branch2a_relu
I0710 17:29:01.485349 25334 net.cpp:444] res2b_branch2a_relu <- res2b_branch2a
I0710 17:29:01.485360 25334 net.cpp:405] res2b_branch2a_relu -> res2b_branch2a (in-place)
I0710 17:29:01.485510 25334 net.cpp:150] Setting up res2b_branch2a_relu
I0710 17:29:01.485517 25334 net.cpp:157] Top shape: 1 64 240 320 (4915200)
I0710 17:29:01.485519 25334 net.cpp:165] Memory required for data: 1454899368
I0710 17:29:01.485522 25334 layer_factory.hpp:77] Creating layer res2b_branch2b
I0710 17:29:01.485543 25334 net.cpp:100] Creating Layer res2b_branch2b
I0710 17:29:01.485553 25334 net.cpp:444] res2b_branch2b <- res2b_branch2a
I0710 17:29:01.485569 25334 net.cpp:418] res2b_branch2b -> res2b_branch2b
I0710 17:29:01.486486 25334 cudnn_conv_layer.cpp:194] Reallocating workspace storage: 786432
I0710 17:29:01.486502 25334 net.cpp:150] Setting up res2b_branch2b
I0710 17:29:01.486512 25334 net.cpp:157] Top shape: 1 64 240 320 (4915200)
I0710 17:29:01.486516 25334 net.cpp:165] Memory required for data: 1474560168
I0710 17:29:01.486526 25334 layer_factory.hpp:77] Creating layer bn2b_branch2b
I0710 17:29:01.486541 25334 net.cpp:100] Creating Layer bn2b_branch2b
I0710 17:29:01.486549 25334 net.cpp:444] bn2b_branch2b <- res2b_branch2b
I0710 17:29:01.486562 25334 net.cpp:405] bn2b_branch2b -> res2b_branch2b (in-place)
I0710 17:29:01.486894 25334 net.cpp:150] Setting up bn2b_branch2b
I0710 17:29:01.486901 25334 net.cpp:157] Top shape: 1 64 240 320 (4915200)
I0710 17:29:01.486902 25334 net.cpp:165] Memory required for data: 1494220968
I0710 17:29:01.486915 25334 layer_factory.hpp:77] Creating layer scale2b_branch2b
I0710 17:29:01.486928 25334 net.cpp:100] Creating Layer scale2b_branch2b
I0710 17:29:01.486933 25334 net.cpp:444] scale2b_branch2b <- res2b_branch2b
I0710 17:29:01.486943 25334 net.cpp:405] scale2b_branch2b -> res2b_branch2b (in-place)
I0710 17:29:01.486996 25334 layer_factory.hpp:77] Creating layer scale2b_branch2b
I0710 17:29:01.487330 25334 net.cpp:150] Setting up scale2b_branch2b
I0710 17:29:01.487336 25334 net.cpp:157] Top shape: 1 64 240 320 (4915200)
I0710 17:29:01.487339 25334 net.cpp:165] Memory required for data: 1513881768
I0710 17:29:01.487347 25334 layer_factory.hpp:77] Creating layer res2b_branch2b_relu
I0710 17:29:01.487356 25334 net.cpp:100] Creating Layer res2b_branch2b_relu
I0710 17:29:01.487360 25334 net.cpp:444] res2b_branch2b_relu <- res2b_branch2b
I0710 17:29:01.487370 25334 net.cpp:405] res2b_branch2b_relu -> res2b_branch2b (in-place)
I0710 17:29:01.487747 25334 net.cpp:150] Setting up res2b_branch2b_relu
I0710 17:29:01.487754 25334 net.cpp:157] Top shape: 1 64 240 320 (4915200)
I0710 17:29:01.487757 25334 net.cpp:165] Memory required for data: 1533542568
I0710 17:29:01.487761 25334 layer_factory.hpp:77] Creating layer res2b_branch2c
I0710 17:29:01.487774 25334 net.cpp:100] Creating Layer res2b_branch2c
I0710 17:29:01.487779 25334 net.cpp:444] res2b_branch2c <- res2b_branch2b
I0710 17:29:01.487793 25334 net.cpp:418] res2b_branch2c -> res2b_branch2c
I0710 17:29:01.488644 25334 cudnn_conv_layer.cpp:194] Reallocating workspace storage: 1388952
I0710 17:29:01.488883 25334 net.cpp:150] Setting up res2b_branch2c
I0710 17:29:01.488893 25334 net.cpp:157] Top shape: 1 256 240 320 (19660800)
I0710 17:29:01.488895 25334 net.cpp:165] Memory required for data: 1612185768
I0710 17:29:01.488904 25334 layer_factory.hpp:77] Creating layer bn2b_branch2c
I0710 17:29:01.488916 25334 net.cpp:100] Creating Layer bn2b_branch2c
I0710 17:29:01.488921 25334 net.cpp:444] bn2b_branch2c <- res2b_branch2c
I0710 17:29:01.488932 25334 net.cpp:405] bn2b_branch2c -> res2b_branch2c (in-place)
I0710 17:29:01.489249 25334 net.cpp:150] Setting up bn2b_branch2c
I0710 17:29:01.489255 25334 net.cpp:157] Top shape: 1 256 240 320 (19660800)
I0710 17:29:01.489259 25334 net.cpp:165] Memory required for data: 1690828968
I0710 17:29:01.489271 25334 layer_factory.hpp:77] Creating layer scale2b_branch2c
I0710 17:29:01.489281 25334 net.cpp:100] Creating Layer scale2b_branch2c
I0710 17:29:01.489286 25334 net.cpp:444] scale2b_branch2c <- res2b_branch2c
I0710 17:29:01.489301 25334 net.cpp:405] scale2b_branch2c -> res2b_branch2c (in-place)
I0710 17:29:01.489358 25334 layer_factory.hpp:77] Creating layer scale2b_branch2c
I0710 17:29:01.490345 25334 net.cpp:150] Setting up scale2b_branch2c
I0710 17:29:01.490355 25334 net.cpp:157] Top shape: 1 256 240 320 (19660800)
I0710 17:29:01.490355 25334 net.cpp:165] Memory required for data: 1769472168
I0710 17:29:01.490366 25334 layer_factory.hpp:77] Creating layer res2b
I0710 17:29:01.490377 25334 net.cpp:100] Creating Layer res2b
I0710 17:29:01.490382 25334 net.cpp:444] res2b <- res2a_res2a_relu_0_split_1
I0710 17:29:01.490391 25334 net.cpp:444] res2b <- res2b_branch2c
I0710 17:29:01.490398 25334 net.cpp:418] res2b -> res2b
I0710 17:29:01.490442 25334 net.cpp:150] Setting up res2b
I0710 17:29:01.490448 25334 net.cpp:157] Top shape: 1 256 240 320 (19660800)
I0710 17:29:01.490450 25334 net.cpp:165] Memory required for data: 1848115368
I0710 17:29:01.490453 25334 layer_factory.hpp:77] Creating layer res2b_relu
I0710 17:29:01.490463 25334 net.cpp:100] Creating Layer res2b_relu
I0710 17:29:01.490466 25334 net.cpp:444] res2b_relu <- res2b
I0710 17:29:01.490475 25334 net.cpp:405] res2b_relu -> res2b (in-place)
I0710 17:29:01.490619 25334 net.cpp:150] Setting up res2b_relu
I0710 17:29:01.490626 25334 net.cpp:157] Top shape: 1 256 240 320 (19660800)
I0710 17:29:01.490628 25334 net.cpp:165] Memory required for data: 1926758568
I0710 17:29:01.490631 25334 layer_factory.hpp:77] Creating layer res2b_res2b_relu_0_split
I0710 17:29:01.490639 25334 net.cpp:100] Creating Layer res2b_res2b_relu_0_split
I0710 17:29:01.490644 25334 net.cpp:444] res2b_res2b_relu_0_split <- res2b
I0710 17:29:01.490653 25334 net.cpp:418] res2b_res2b_relu_0_split -> res2b_res2b_relu_0_split_0
I0710 17:29:01.490666 25334 net.cpp:418] res2b_res2b_relu_0_split -> res2b_res2b_relu_0_split_1
I0710 17:29:01.490715 25334 net.cpp:150] Setting up res2b_res2b_relu_0_split
I0710 17:29:01.490721 25334 net.cpp:157] Top shape: 1 256 240 320 (19660800)
I0710 17:29:01.490725 25334 net.cpp:157] Top shape: 1 256 240 320 (19660800)
I0710 17:29:01.490726 25334 net.cpp:165] Memory required for data: 2084044968
I0710 17:29:01.490730 25334 layer_factory.hpp:77] Creating layer res2c_branch2a
I0710 17:29:01.490741 25334 net.cpp:100] Creating Layer res2c_branch2a
I0710 17:29:01.490746 25334 net.cpp:444] res2c_branch2a <- res2b_res2b_relu_0_split_0
I0710 17:29:01.490757 25334 net.cpp:418] res2c_branch2a -> res2c_branch2a
I0710 17:29:01.491649 25334 cudnn_conv_layer.cpp:194] Reallocating workspace storage: 1388952
I0710 17:29:01.491888 25334 net.cpp:150] Setting up res2c_branch2a
I0710 17:29:01.491897 25334 net.cpp:157] Top shape: 1 64 240 320 (4915200)
I0710 17:29:01.491900 25334 net.cpp:165] Memory required for data: 2103705768
I0710 17:29:01.491909 25334 layer_factory.hpp:77] Creating layer bn2c_branch2a
I0710 17:29:01.491922 25334 net.cpp:100] Creating Layer bn2c_branch2a
I0710 17:29:01.491927 25334 net.cpp:444] bn2c_branch2a <- res2c_branch2a
I0710 17:29:01.491938 25334 net.cpp:405] bn2c_branch2a -> res2c_branch2a (in-place)
I0710 17:29:01.492270 25334 net.cpp:150] Setting up bn2c_branch2a
I0710 17:29:01.492275 25334 net.cpp:157] Top shape: 1 64 240 320 (4915200)
I0710 17:29:01.492277 25334 net.cpp:165] Memory required for data: 2123366568
I0710 17:29:01.492290 25334 layer_factory.hpp:77] Creating layer scale2c_branch2a
I0710 17:29:01.492302 25334 net.cpp:100] Creating Layer scale2c_branch2a
I0710 17:29:01.492307 25334 net.cpp:444] scale2c_branch2a <- res2c_branch2a
I0710 17:29:01.492317 25334 net.cpp:405] scale2c_branch2a -> res2c_branch2a (in-place)
I0710 17:29:01.492370 25334 layer_factory.hpp:77] Creating layer scale2c_branch2a
I0710 17:29:01.492705 25334 net.cpp:150] Setting up scale2c_branch2a
I0710 17:29:01.492712 25334 net.cpp:157] Top shape: 1 64 240 320 (4915200)
I0710 17:29:01.492714 25334 net.cpp:165] Memory required for data: 2143027368
I0710 17:29:01.492722 25334 layer_factory.hpp:77] Creating layer res2c_branch2a_relu
I0710 17:29:01.492732 25334 net.cpp:100] Creating Layer res2c_branch2a_relu
I0710 17:29:01.492736 25334 net.cpp:444] res2c_branch2a_relu <- res2c_branch2a
I0710 17:29:01.492745 25334 net.cpp:405] res2c_branch2a_relu -> res2c_branch2a (in-place)
I0710 17:29:01.492878 25334 net.cpp:150] Setting up res2c_branch2a_relu
I0710 17:29:01.492884 25334 net.cpp:157] Top shape: 1 64 240 320 (4915200)
I0710 17:29:01.492887 25334 net.cpp:165] Memory required for data: 2162688168
I0710 17:29:01.492889 25334 layer_factory.hpp:77] Creating layer res2c_branch2b
I0710 17:29:01.492902 25334 net.cpp:100] Creating Layer res2c_branch2b
I0710 17:29:01.492907 25334 net.cpp:444] res2c_branch2b <- res2c_branch2a
I0710 17:29:01.492920 25334 net.cpp:418] res2c_branch2b -> res2c_branch2b
I0710 17:29:01.493818 25334 cudnn_conv_layer.cpp:194] Reallocating workspace storage: 786432
I0710 17:29:01.494055 25334 net.cpp:150] Setting up res2c_branch2b
I0710 17:29:01.494065 25334 net.cpp:157] Top shape: 1 64 240 320 (4915200)
I0710 17:29:01.494067 25334 net.cpp:165] Memory required for data: 2182348968
I0710 17:29:01.494076 25334 layer_factory.hpp:77] Creating layer bn2c_branch2b
I0710 17:29:01.494088 25334 net.cpp:100] Creating Layer bn2c_branch2b
I0710 17:29:01.494093 25334 net.cpp:444] bn2c_branch2b <- res2c_branch2b
I0710 17:29:01.494104 25334 net.cpp:405] bn2c_branch2b -> res2c_branch2b (in-place)
I0710 17:29:01.494438 25334 net.cpp:150] Setting up bn2c_branch2b
I0710 17:29:01.494446 25334 net.cpp:157] Top shape: 1 64 240 320 (4915200)
I0710 17:29:01.494447 25334 net.cpp:165] Memory required for data: 2202009768
I0710 17:29:01.494462 25334 layer_factory.hpp:77] Creating layer scale2c_branch2b
I0710 17:29:01.494472 25334 net.cpp:100] Creating Layer scale2c_branch2b
I0710 17:29:01.494477 25334 net.cpp:444] scale2c_branch2b <- res2c_branch2b
I0710 17:29:01.494488 25334 net.cpp:405] scale2c_branch2b -> res2c_branch2b (in-place)
I0710 17:29:01.494544 25334 layer_factory.hpp:77] Creating layer scale2c_branch2b
I0710 17:29:01.495549 25334 net.cpp:150] Setting up scale2c_branch2b
I0710 17:29:01.495560 25334 net.cpp:157] Top shape: 1 64 240 320 (4915200)
I0710 17:29:01.495563 25334 net.cpp:165] Memory required for data: 2221670568
I0710 17:29:01.495579 25334 layer_factory.hpp:77] Creating layer res2c_branch2b_relu
I0710 17:29:01.495594 25334 net.cpp:100] Creating Layer res2c_branch2b_relu
I0710 17:29:01.495600 25334 net.cpp:444] res2c_branch2b_relu <- res2c_branch2b
I0710 17:29:01.495612 25334 net.cpp:405] res2c_branch2b_relu -> res2c_branch2b (in-place)
I0710 17:29:01.495790 25334 net.cpp:150] Setting up res2c_branch2b_relu
I0710 17:29:01.495795 25334 net.cpp:157] Top shape: 1 64 240 320 (4915200)
I0710 17:29:01.495797 25334 net.cpp:165] Memory required for data: 2241331368
I0710 17:29:01.495801 25334 layer_factory.hpp:77] Creating layer res2c_branch2c
I0710 17:29:01.495816 25334 net.cpp:100] Creating Layer res2c_branch2c
I0710 17:29:01.495821 25334 net.cpp:444] res2c_branch2c <- res2c_branch2b
I0710 17:29:01.495833 25334 net.cpp:418] res2c_branch2c -> res2c_branch2c
I0710 17:29:01.496765 25334 cudnn_conv_layer.cpp:194] Reallocating workspace storage: 1388952
I0710 17:29:01.497022 25334 net.cpp:150] Setting up res2c_branch2c
I0710 17:29:01.497033 25334 net.cpp:157] Top shape: 1 256 240 320 (19660800)
I0710 17:29:01.497036 25334 net.cpp:165] Memory required for data: 2319974568
I0710 17:29:01.497045 25334 layer_factory.hpp:77] Creating layer bn2c_branch2c
I0710 17:29:01.497058 25334 net.cpp:100] Creating Layer bn2c_branch2c
I0710 17:29:01.497063 25334 net.cpp:444] bn2c_branch2c <- res2c_branch2c
I0710 17:29:01.497074 25334 net.cpp:405] bn2c_branch2c -> res2c_branch2c (in-place)
I0710 17:29:01.497403 25334 net.cpp:150] Setting up bn2c_branch2c
I0710 17:29:01.497411 25334 net.cpp:157] Top shape: 1 256 240 320 (19660800)
I0710 17:29:01.497411 25334 net.cpp:165] Memory required for data: 2398617768
I0710 17:29:01.497443 25334 layer_factory.hpp:77] Creating layer scale2c_branch2c
I0710 17:29:01.497458 25334 net.cpp:100] Creating Layer scale2c_branch2c
I0710 17:29:01.497464 25334 net.cpp:444] scale2c_branch2c <- res2c_branch2c
I0710 17:29:01.497473 25334 net.cpp:405] scale2c_branch2c -> res2c_branch2c (in-place)
I0710 17:29:01.497530 25334 layer_factory.hpp:77] Creating layer scale2c_branch2c
I0710 17:29:01.497877 25334 net.cpp:150] Setting up scale2c_branch2c
I0710 17:29:01.497884 25334 net.cpp:157] Top shape: 1 256 240 320 (19660800)
I0710 17:29:01.497886 25334 net.cpp:165] Memory required for data: 2477260968
I0710 17:29:01.497895 25334 layer_factory.hpp:77] Creating layer res2c
I0710 17:29:01.497905 25334 net.cpp:100] Creating Layer res2c
I0710 17:29:01.497910 25334 net.cpp:444] res2c <- res2b_res2b_relu_0_split_1
I0710 17:29:01.497918 25334 net.cpp:444] res2c <- res2c_branch2c
I0710 17:29:01.497926 25334 net.cpp:418] res2c -> res2c
I0710 17:29:01.497964 25334 net.cpp:150] Setting up res2c
I0710 17:29:01.497972 25334 net.cpp:157] Top shape: 1 256 240 320 (19660800)
I0710 17:29:01.497973 25334 net.cpp:165] Memory required for data: 2555904168
I0710 17:29:01.497977 25334 layer_factory.hpp:77] Creating layer res2c_relu
I0710 17:29:01.497984 25334 net.cpp:100] Creating Layer res2c_relu
I0710 17:29:01.497989 25334 net.cpp:444] res2c_relu <- res2c
I0710 17:29:01.497998 25334 net.cpp:405] res2c_relu -> res2c (in-place)
I0710 17:29:01.498443 25334 net.cpp:150] Setting up res2c_relu
I0710 17:29:01.498451 25334 net.cpp:157] Top shape: 1 256 240 320 (19660800)
I0710 17:29:01.498455 25334 net.cpp:165] Memory required for data: 2634547368
I0710 17:29:01.498458 25334 layer_factory.hpp:77] Creating layer res2c_res2c_relu_0_split
I0710 17:29:01.498467 25334 net.cpp:100] Creating Layer res2c_res2c_relu_0_split
I0710 17:29:01.498472 25334 net.cpp:444] res2c_res2c_relu_0_split <- res2c
I0710 17:29:01.498484 25334 net.cpp:418] res2c_res2c_relu_0_split -> res2c_res2c_relu_0_split_0
I0710 17:29:01.498497 25334 net.cpp:418] res2c_res2c_relu_0_split -> res2c_res2c_relu_0_split_1
I0710 17:29:01.498550 25334 net.cpp:150] Setting up res2c_res2c_relu_0_split
I0710 17:29:01.498558 25334 net.cpp:157] Top shape: 1 256 240 320 (19660800)
I0710 17:29:01.498560 25334 net.cpp:157] Top shape: 1 256 240 320 (19660800)
I0710 17:29:01.498562 25334 net.cpp:165] Memory required for data: 2791833768
I0710 17:29:01.498565 25334 layer_factory.hpp:77] Creating layer res3a_branch1
I0710 17:29:01.498580 25334 net.cpp:100] Creating Layer res3a_branch1
I0710 17:29:01.498586 25334 net.cpp:444] res3a_branch1 <- res2c_res2c_relu_0_split_0
I0710 17:29:01.498598 25334 net.cpp:418] res3a_branch1 -> res3a_branch1
I0710 17:29:01.499652 25334 cudnn_conv_layer.cpp:194] Reallocating workspace storage: 345624
I0710 17:29:01.499670 25334 net.cpp:150] Setting up res3a_branch1
I0710 17:29:01.499676 25334 net.cpp:157] Top shape: 1 512 120 160 (9830400)
I0710 17:29:01.499678 25334 net.cpp:165] Memory required for data: 2831155368
I0710 17:29:01.499687 25334 layer_factory.hpp:77] Creating layer bn3a_branch1
I0710 17:29:01.499701 25334 net.cpp:100] Creating Layer bn3a_branch1
I0710 17:29:01.499706 25334 net.cpp:444] bn3a_branch1 <- res3a_branch1
I0710 17:29:01.499716 25334 net.cpp:405] bn3a_branch1 -> res3a_branch1 (in-place)
I0710 17:29:01.500615 25334 net.cpp:150] Setting up bn3a_branch1
I0710 17:29:01.500622 25334 net.cpp:157] Top shape: 1 512 120 160 (9830400)
I0710 17:29:01.500625 25334 net.cpp:165] Memory required for data: 2870476968
I0710 17:29:01.500639 25334 layer_factory.hpp:77] Creating layer scale3a_branch1
I0710 17:29:01.500653 25334 net.cpp:100] Creating Layer scale3a_branch1
I0710 17:29:01.500658 25334 net.cpp:444] scale3a_branch1 <- res3a_branch1
I0710 17:29:01.500669 25334 net.cpp:405] scale3a_branch1 -> res3a_branch1 (in-place)
I0710 17:29:01.500720 25334 layer_factory.hpp:77] Creating layer scale3a_branch1
I0710 17:29:01.500910 25334 net.cpp:150] Setting up scale3a_branch1
I0710 17:29:01.500917 25334 net.cpp:157] Top shape: 1 512 120 160 (9830400)
I0710 17:29:01.500919 25334 net.cpp:165] Memory required for data: 2909798568
I0710 17:29:01.500928 25334 layer_factory.hpp:77] Creating layer res3a_branch2a
I0710 17:29:01.500941 25334 net.cpp:100] Creating Layer res3a_branch2a
I0710 17:29:01.500946 25334 net.cpp:444] res3a_branch2a <- res2c_res2c_relu_0_split_1
I0710 17:29:01.500957 25334 net.cpp:418] res3a_branch2a -> res3a_branch2a
I0710 17:29:01.501878 25334 cudnn_conv_layer.cpp:194] Reallocating workspace storage: 345624
I0710 17:29:01.501893 25334 net.cpp:150] Setting up res3a_branch2a
I0710 17:29:01.501899 25334 net.cpp:157] Top shape: 1 128 120 160 (2457600)
I0710 17:29:01.501902 25334 net.cpp:165] Memory required for data: 2919628968
I0710 17:29:01.501910 25334 layer_factory.hpp:77] Creating layer bn3a_branch2a
I0710 17:29:01.501924 25334 net.cpp:100] Creating Layer bn3a_branch2a
I0710 17:29:01.501929 25334 net.cpp:444] bn3a_branch2a <- res3a_branch2a
I0710 17:29:01.501940 25334 net.cpp:405] bn3a_branch2a -> res3a_branch2a (in-place)
I0710 17:29:01.502184 25334 net.cpp:150] Setting up bn3a_branch2a
I0710 17:29:01.502189 25334 net.cpp:157] Top shape: 1 128 120 160 (2457600)
I0710 17:29:01.502192 25334 net.cpp:165] Memory required for data: 2929459368
I0710 17:29:01.502204 25334 layer_factory.hpp:77] Creating layer scale3a_branch2a
I0710 17:29:01.502216 25334 net.cpp:100] Creating Layer scale3a_branch2a
I0710 17:29:01.502221 25334 net.cpp:444] scale3a_branch2a <- res3a_branch2a
I0710 17:29:01.502230 25334 net.cpp:405] scale3a_branch2a -> res3a_branch2a (in-place)
I0710 17:29:01.502282 25334 layer_factory.hpp:77] Creating layer scale3a_branch2a
I0710 17:29:01.502466 25334 net.cpp:150] Setting up scale3a_branch2a
I0710 17:29:01.502472 25334 net.cpp:157] Top shape: 1 128 120 160 (2457600)
I0710 17:29:01.502475 25334 net.cpp:165] Memory required for data: 2939289768
I0710 17:29:01.502483 25334 layer_factory.hpp:77] Creating layer res3a_branch2a_relu
I0710 17:29:01.502492 25334 net.cpp:100] Creating Layer res3a_branch2a_relu
I0710 17:29:01.502497 25334 net.cpp:444] res3a_branch2a_relu <- res3a_branch2a
I0710 17:29:01.502506 25334 net.cpp:405] res3a_branch2a_relu -> res3a_branch2a (in-place)
I0710 17:29:01.502635 25334 net.cpp:150] Setting up res3a_branch2a_relu
I0710 17:29:01.502640 25334 net.cpp:157] Top shape: 1 128 120 160 (2457600)
I0710 17:29:01.502642 25334 net.cpp:165] Memory required for data: 2949120168
I0710 17:29:01.502645 25334 layer_factory.hpp:77] Creating layer res3a_branch2b
I0710 17:29:01.502660 25334 net.cpp:100] Creating Layer res3a_branch2b
I0710 17:29:01.502665 25334 net.cpp:444] res3a_branch2b <- res3a_branch2a
I0710 17:29:01.502676 25334 net.cpp:418] res3a_branch2b -> res3a_branch2b
I0710 17:29:01.504392 25334 cudnn_conv_layer.cpp:194] Reallocating workspace storage: 3145728
I0710 17:29:01.504652 25334 net.cpp:150] Setting up res3a_branch2b
I0710 17:29:01.504662 25334 net.cpp:157] Top shape: 1 128 120 160 (2457600)
I0710 17:29:01.504664 25334 net.cpp:165] Memory required for data: 2958950568
I0710 17:29:01.504673 25334 layer_factory.hpp:77] Creating layer bn3a_branch2b
I0710 17:29:01.504698 25334 net.cpp:100] Creating Layer bn3a_branch2b
I0710 17:29:01.504703 25334 net.cpp:444] bn3a_branch2b <- res3a_branch2b
I0710 17:29:01.504714 25334 net.cpp:405] bn3a_branch2b -> res3a_branch2b (in-place)
I0710 17:29:01.504967 25334 net.cpp:150] Setting up bn3a_branch2b
I0710 17:29:01.504973 25334 net.cpp:157] Top shape: 1 128 120 160 (2457600)
I0710 17:29:01.504976 25334 net.cpp:165] Memory required for data: 2968780968
I0710 17:29:01.504990 25334 layer_factory.hpp:77] Creating layer scale3a_branch2b
I0710 17:29:01.505002 25334 net.cpp:100] Creating Layer scale3a_branch2b
I0710 17:29:01.505005 25334 net.cpp:444] scale3a_branch2b <- res3a_branch2b
I0710 17:29:01.505015 25334 net.cpp:405] scale3a_branch2b -> res3a_branch2b (in-place)
I0710 17:29:01.505069 25334 layer_factory.hpp:77] Creating layer scale3a_branch2b
I0710 17:29:01.505252 25334 net.cpp:150] Setting up scale3a_branch2b
I0710 17:29:01.505259 25334 net.cpp:157] Top shape: 1 128 120 160 (2457600)
I0710 17:29:01.505260 25334 net.cpp:165] Memory required for data: 2978611368
I0710 17:29:01.505268 25334 layer_factory.hpp:77] Creating layer res3a_branch2b_relu
I0710 17:29:01.505277 25334 net.cpp:100] Creating Layer res3a_branch2b_relu
I0710 17:29:01.505282 25334 net.cpp:444] res3a_branch2b_relu <- res3a_branch2b
I0710 17:29:01.505290 25334 net.cpp:405] res3a_branch2b_relu -> res3a_branch2b (in-place)
I0710 17:29:01.505425 25334 net.cpp:150] Setting up res3a_branch2b_relu
I0710 17:29:01.505430 25334 net.cpp:157] Top shape: 1 128 120 160 (2457600)
I0710 17:29:01.505432 25334 net.cpp:165] Memory required for data: 2988441768
I0710 17:29:01.505436 25334 layer_factory.hpp:77] Creating layer res3a_branch2c
I0710 17:29:01.505448 25334 net.cpp:100] Creating Layer res3a_branch2c
I0710 17:29:01.505453 25334 net.cpp:444] res3a_branch2c <- res3a_branch2b
I0710 17:29:01.505465 25334 net.cpp:418] res3a_branch2c -> res3a_branch2c
I0710 17:29:01.506423 25334 cudnn_conv_layer.cpp:194] Reallocating workspace storage: 352152
I0710 17:29:01.506438 25334 net.cpp:150] Setting up res3a_branch2c
I0710 17:29:01.506443 25334 net.cpp:157] Top shape: 1 512 120 160 (9830400)
I0710 17:29:01.506446 25334 net.cpp:165] Memory required for data: 3027763368
I0710 17:29:01.506454 25334 layer_factory.hpp:77] Creating layer bn3a_branch2c
I0710 17:29:01.506467 25334 net.cpp:100] Creating Layer bn3a_branch2c
I0710 17:29:01.506472 25334 net.cpp:444] bn3a_branch2c <- res3a_branch2c
I0710 17:29:01.506484 25334 net.cpp:405] bn3a_branch2c -> res3a_branch2c (in-place)
I0710 17:29:01.506733 25334 net.cpp:150] Setting up bn3a_branch2c
I0710 17:29:01.506738 25334 net.cpp:157] Top shape: 1 512 120 160 (9830400)
I0710 17:29:01.506741 25334 net.cpp:165] Memory required for data: 3067084968
I0710 17:29:01.506754 25334 layer_factory.hpp:77] Creating layer scale3a_branch2c
I0710 17:29:01.506765 25334 net.cpp:100] Creating Layer scale3a_branch2c
I0710 17:29:01.506770 25334 net.cpp:444] scale3a_branch2c <- res3a_branch2c
I0710 17:29:01.506780 25334 net.cpp:405] scale3a_branch2c -> res3a_branch2c (in-place)
I0710 17:29:01.506831 25334 layer_factory.hpp:77] Creating layer scale3a_branch2c
I0710 17:29:01.507024 25334 net.cpp:150] Setting up scale3a_branch2c
I0710 17:29:01.507030 25334 net.cpp:157] Top shape: 1 512 120 160 (9830400)
I0710 17:29:01.507031 25334 net.cpp:165] Memory required for data: 3106406568
I0710 17:29:01.507040 25334 layer_factory.hpp:77] Creating layer res3a
I0710 17:29:01.507050 25334 net.cpp:100] Creating Layer res3a
I0710 17:29:01.507055 25334 net.cpp:444] res3a <- res3a_branch1
I0710 17:29:01.507063 25334 net.cpp:444] res3a <- res3a_branch2c
I0710 17:29:01.507071 25334 net.cpp:418] res3a -> res3a
I0710 17:29:01.507105 25334 net.cpp:150] Setting up res3a
I0710 17:29:01.507112 25334 net.cpp:157] Top shape: 1 512 120 160 (9830400)
I0710 17:29:01.507114 25334 net.cpp:165] Memory required for data: 3145728168
I0710 17:29:01.507117 25334 layer_factory.hpp:77] Creating layer res3a_relu
I0710 17:29:01.507125 25334 net.cpp:100] Creating Layer res3a_relu
I0710 17:29:01.507130 25334 net.cpp:444] res3a_relu <- res3a
I0710 17:29:01.507138 25334 net.cpp:405] res3a_relu -> res3a (in-place)
I0710 17:29:01.507509 25334 net.cpp:150] Setting up res3a_relu
I0710 17:29:01.507516 25334 net.cpp:157] Top shape: 1 512 120 160 (9830400)
I0710 17:29:01.507519 25334 net.cpp:165] Memory required for data: 3185049768
I0710 17:29:01.507522 25334 layer_factory.hpp:77] Creating layer res3a_res3a_relu_0_split
I0710 17:29:01.507532 25334 net.cpp:100] Creating Layer res3a_res3a_relu_0_split
I0710 17:29:01.507537 25334 net.cpp:444] res3a_res3a_relu_0_split <- res3a
I0710 17:29:01.507550 25334 net.cpp:418] res3a_res3a_relu_0_split -> res3a_res3a_relu_0_split_0
I0710 17:29:01.507561 25334 net.cpp:418] res3a_res3a_relu_0_split -> res3a_res3a_relu_0_split_1
I0710 17:29:01.507612 25334 net.cpp:150] Setting up res3a_res3a_relu_0_split
I0710 17:29:01.507618 25334 net.cpp:157] Top shape: 1 512 120 160 (9830400)
I0710 17:29:01.507622 25334 net.cpp:157] Top shape: 1 512 120 160 (9830400)
I0710 17:29:01.507624 25334 net.cpp:165] Memory required for data: 3263692968
I0710 17:29:01.507627 25334 layer_factory.hpp:77] Creating layer res3b_branch2a
I0710 17:29:01.507639 25334 net.cpp:100] Creating Layer res3b_branch2a
I0710 17:29:01.507644 25334 net.cpp:444] res3b_branch2a <- res3a_res3a_relu_0_split_0
I0710 17:29:01.507656 25334 net.cpp:418] res3b_branch2a -> res3b_branch2a
I0710 17:29:01.508587 25334 cudnn_conv_layer.cpp:194] Reallocating workspace storage: 352152
I0710 17:29:01.508605 25334 net.cpp:150] Setting up res3b_branch2a
I0710 17:29:01.508610 25334 net.cpp:157] Top shape: 1 128 120 160 (2457600)
I0710 17:29:01.508613 25334 net.cpp:165] Memory required for data: 3273523368
I0710 17:29:01.508622 25334 layer_factory.hpp:77] Creating layer bn3b_branch2a
I0710 17:29:01.508633 25334 net.cpp:100] Creating Layer bn3b_branch2a
I0710 17:29:01.508639 25334 net.cpp:444] bn3b_branch2a <- res3b_branch2a
I0710 17:29:01.508651 25334 net.cpp:405] bn3b_branch2a -> res3b_branch2a (in-place)
I0710 17:29:01.508898 25334 net.cpp:150] Setting up bn3b_branch2a
I0710 17:29:01.508903 25334 net.cpp:157] Top shape: 1 128 120 160 (2457600)
I0710 17:29:01.508906 25334 net.cpp:165] Memory required for data: 3283353768
I0710 17:29:01.508919 25334 layer_factory.hpp:77] Creating layer scale3b_branch2a
I0710 17:29:01.508930 25334 net.cpp:100] Creating Layer scale3b_branch2a
I0710 17:29:01.508935 25334 net.cpp:444] scale3b_branch2a <- res3b_branch2a
I0710 17:29:01.508945 25334 net.cpp:405] scale3b_branch2a -> res3b_branch2a (in-place)
I0710 17:29:01.508998 25334 layer_factory.hpp:77] Creating layer scale3b_branch2a
I0710 17:29:01.509855 25334 net.cpp:150] Setting up scale3b_branch2a
I0710 17:29:01.509863 25334 net.cpp:157] Top shape: 1 128 120 160 (2457600)
I0710 17:29:01.509865 25334 net.cpp:165] Memory required for data: 3293184168
I0710 17:29:01.509876 25334 layer_factory.hpp:77] Creating layer res3b_branch2a_relu
I0710 17:29:01.509886 25334 net.cpp:100] Creating Layer res3b_branch2a_relu
I0710 17:29:01.509891 25334 net.cpp:444] res3b_branch2a_relu <- res3b_branch2a
I0710 17:29:01.509902 25334 net.cpp:405] res3b_branch2a_relu -> res3b_branch2a (in-place)
I0710 17:29:01.510042 25334 net.cpp:150] Setting up res3b_branch2a_relu
I0710 17:29:01.510047 25334 net.cpp:157] Top shape: 1 128 120 160 (2457600)
I0710 17:29:01.510051 25334 net.cpp:165] Memory required for data: 3303014568
I0710 17:29:01.510053 25334 layer_factory.hpp:77] Creating layer res3b_branch2b
I0710 17:29:01.510066 25334 net.cpp:100] Creating Layer res3b_branch2b
I0710 17:29:01.510071 25334 net.cpp:444] res3b_branch2b <- res3b_branch2a
I0710 17:29:01.510083 25334 net.cpp:418] res3b_branch2b -> res3b_branch2b
I0710 17:29:01.511394 25334 cudnn_conv_layer.cpp:194] Reallocating workspace storage: 3145728
I0710 17:29:01.511639 25334 net.cpp:150] Setting up res3b_branch2b
I0710 17:29:01.511648 25334 net.cpp:157] Top shape: 1 128 120 160 (2457600)
I0710 17:29:01.511651 25334 net.cpp:165] Memory required for data: 3312844968
I0710 17:29:01.511660 25334 layer_factory.hpp:77] Creating layer bn3b_branch2b
I0710 17:29:01.511672 25334 net.cpp:100] Creating Layer bn3b_branch2b
I0710 17:29:01.511677 25334 net.cpp:444] bn3b_branch2b <- res3b_branch2b
I0710 17:29:01.511687 25334 net.cpp:405] bn3b_branch2b -> res3b_branch2b (in-place)
I0710 17:29:01.511942 25334 net.cpp:150] Setting up bn3b_branch2b
I0710 17:29:01.511948 25334 net.cpp:157] Top shape: 1 128 120 160 (2457600)
I0710 17:29:01.511950 25334 net.cpp:165] Memory required for data: 3322675368
I0710 17:29:01.511963 25334 layer_factory.hpp:77] Creating layer scale3b_branch2b
I0710 17:29:01.511974 25334 net.cpp:100] Creating Layer scale3b_branch2b
I0710 17:29:01.511979 25334 net.cpp:444] scale3b_branch2b <- res3b_branch2b
I0710 17:29:01.511989 25334 net.cpp:405] scale3b_branch2b -> res3b_branch2b (in-place)
I0710 17:29:01.512044 25334 layer_factory.hpp:77] Creating layer scale3b_branch2b
I0710 17:29:01.512228 25334 net.cpp:150] Setting up scale3b_branch2b
I0710 17:29:01.512234 25334 net.cpp:157] Top shape: 1 128 120 160 (2457600)
I0710 17:29:01.512236 25334 net.cpp:165] Memory required for data: 3332505768
I0710 17:29:01.512245 25334 layer_factory.hpp:77] Creating layer res3b_branch2b_relu
I0710 17:29:01.512253 25334 net.cpp:100] Creating Layer res3b_branch2b_relu
I0710 17:29:01.512259 25334 net.cpp:444] res3b_branch2b_relu <- res3b_branch2b
I0710 17:29:01.512267 25334 net.cpp:405] res3b_branch2b_relu -> res3b_branch2b (in-place)
I0710 17:29:01.512408 25334 net.cpp:150] Setting up res3b_branch2b_relu
I0710 17:29:01.512413 25334 net.cpp:157] Top shape: 1 128 120 160 (2457600)
I0710 17:29:01.512415 25334 net.cpp:165] Memory required for data: 3342336168
I0710 17:29:01.512418 25334 layer_factory.hpp:77] Creating layer res3b_branch2c
I0710 17:29:01.512430 25334 net.cpp:100] Creating Layer res3b_branch2c
I0710 17:29:01.512435 25334 net.cpp:444] res3b_branch2c <- res3b_branch2b
I0710 17:29:01.512447 25334 net.cpp:418] res3b_branch2c -> res3b_branch2c
I0710 17:29:01.513387 25334 cudnn_conv_layer.cpp:194] Reallocating workspace storage: 352152
I0710 17:29:01.513399 25334 net.cpp:150] Setting up res3b_branch2c
I0710 17:29:01.513406 25334 net.cpp:157] Top shape: 1 512 120 160 (9830400)
I0710 17:29:01.513408 25334 net.cpp:165] Memory required for data: 3381657768
I0710 17:29:01.513417 25334 layer_factory.hpp:77] Creating layer bn3b_branch2c
I0710 17:29:01.513428 25334 net.cpp:100] Creating Layer bn3b_branch2c
I0710 17:29:01.513433 25334 net.cpp:444] bn3b_branch2c <- res3b_branch2c
I0710 17:29:01.513445 25334 net.cpp:405] bn3b_branch2c -> res3b_branch2c (in-place)
I0710 17:29:01.513710 25334 net.cpp:150] Setting up bn3b_branch2c
I0710 17:29:01.513716 25334 net.cpp:157] Top shape: 1 512 120 160 (9830400)
I0710 17:29:01.513718 25334 net.cpp:165] Memory required for data: 3420979368
I0710 17:29:01.513731 25334 layer_factory.hpp:77] Creating layer scale3b_branch2c
I0710 17:29:01.513742 25334 net.cpp:100] Creating Layer scale3b_branch2c
I0710 17:29:01.513747 25334 net.cpp:444] scale3b_branch2c <- res3b_branch2c
I0710 17:29:01.513757 25334 net.cpp:405] scale3b_branch2c -> res3b_branch2c (in-place)
I0710 17:29:01.513809 25334 layer_factory.hpp:77] Creating layer scale3b_branch2c
I0710 17:29:01.513998 25334 net.cpp:150] Setting up scale3b_branch2c
I0710 17:29:01.514004 25334 net.cpp:157] Top shape: 1 512 120 160 (9830400)
I0710 17:29:01.514008 25334 net.cpp:165] Memory required for data: 3460300968
I0710 17:29:01.514016 25334 layer_factory.hpp:77] Creating layer res3b
I0710 17:29:01.514025 25334 net.cpp:100] Creating Layer res3b
I0710 17:29:01.514029 25334 net.cpp:444] res3b <- res3a_res3a_relu_0_split_1
I0710 17:29:01.514037 25334 net.cpp:444] res3b <- res3b_branch2c
I0710 17:29:01.514045 25334 net.cpp:418] res3b -> res3b
I0710 17:29:01.514081 25334 net.cpp:150] Setting up res3b
I0710 17:29:01.514087 25334 net.cpp:157] Top shape: 1 512 120 160 (9830400)
I0710 17:29:01.514089 25334 net.cpp:165] Memory required for data: 3499622568
I0710 17:29:01.514092 25334 layer_factory.hpp:77] Creating layer res3b_relu
I0710 17:29:01.514099 25334 net.cpp:100] Creating Layer res3b_relu
I0710 17:29:01.514103 25334 net.cpp:444] res3b_relu <- res3b
I0710 17:29:01.514112 25334 net.cpp:405] res3b_relu -> res3b (in-place)
I0710 17:29:01.514482 25334 net.cpp:150] Setting up res3b_relu
I0710 17:29:01.514492 25334 net.cpp:157] Top shape: 1 512 120 160 (9830400)
I0710 17:29:01.514493 25334 net.cpp:165] Memory required for data: 3538944168
I0710 17:29:01.514497 25334 layer_factory.hpp:77] Creating layer res3b_res3b_relu_0_split
I0710 17:29:01.514508 25334 net.cpp:100] Creating Layer res3b_res3b_relu_0_split
I0710 17:29:01.514513 25334 net.cpp:444] res3b_res3b_relu_0_split <- res3b
I0710 17:29:01.514523 25334 net.cpp:418] res3b_res3b_relu_0_split -> res3b_res3b_relu_0_split_0
I0710 17:29:01.514536 25334 net.cpp:418] res3b_res3b_relu_0_split -> res3b_res3b_relu_0_split_1
I0710 17:29:01.514587 25334 net.cpp:150] Setting up res3b_res3b_relu_0_split
I0710 17:29:01.514595 25334 net.cpp:157] Top shape: 1 512 120 160 (9830400)
I0710 17:29:01.514600 25334 net.cpp:157] Top shape: 1 512 120 160 (9830400)
I0710 17:29:01.514605 25334 net.cpp:165] Memory required for data: 3617587368
I0710 17:29:01.514608 25334 layer_factory.hpp:77] Creating layer res3c_branch2a
I0710 17:29:01.514621 25334 net.cpp:100] Creating Layer res3c_branch2a
I0710 17:29:01.514626 25334 net.cpp:444] res3c_branch2a <- res3b_res3b_relu_0_split_0
I0710 17:29:01.514639 25334 net.cpp:418] res3c_branch2a -> res3c_branch2a
I0710 17:29:01.515579 25334 cudnn_conv_layer.cpp:194] Reallocating workspace storage: 352152
I0710 17:29:01.515597 25334 net.cpp:150] Setting up res3c_branch2a
I0710 17:29:01.515604 25334 net.cpp:157] Top shape: 1 128 120 160 (2457600)
I0710 17:29:01.515605 25334 net.cpp:165] Memory required for data: 3627417768
I0710 17:29:01.515614 25334 layer_factory.hpp:77] Creating layer bn3c_branch2a
I0710 17:29:01.515626 25334 net.cpp:100] Creating Layer bn3c_branch2a
I0710 17:29:01.515631 25334 net.cpp:444] bn3c_branch2a <- res3c_branch2a
I0710 17:29:01.515642 25334 net.cpp:405] bn3c_branch2a -> res3c_branch2a (in-place)
I0710 17:29:01.515895 25334 net.cpp:150] Setting up bn3c_branch2a
I0710 17:29:01.515902 25334 net.cpp:157] Top shape: 1 128 120 160 (2457600)
I0710 17:29:01.515903 25334 net.cpp:165] Memory required for data: 3637248168
I0710 17:29:01.515916 25334 layer_factory.hpp:77] Creating layer scale3c_branch2a
I0710 17:29:01.515926 25334 net.cpp:100] Creating Layer scale3c_branch2a
I0710 17:29:01.515931 25334 net.cpp:444] scale3c_branch2a <- res3c_branch2a
I0710 17:29:01.515941 25334 net.cpp:405] scale3c_branch2a -> res3c_branch2a (in-place)
I0710 17:29:01.515997 25334 layer_factory.hpp:77] Creating layer scale3c_branch2a
I0710 17:29:01.516180 25334 net.cpp:150] Setting up scale3c_branch2a
I0710 17:29:01.516187 25334 net.cpp:157] Top shape: 1 128 120 160 (2457600)
I0710 17:29:01.516189 25334 net.cpp:165] Memory required for data: 3647078568
I0710 17:29:01.516198 25334 layer_factory.hpp:77] Creating layer res3c_branch2a_relu
I0710 17:29:01.516207 25334 net.cpp:100] Creating Layer res3c_branch2a_relu
I0710 17:29:01.516212 25334 net.cpp:444] res3c_branch2a_relu <- res3c_branch2a
I0710 17:29:01.516221 25334 net.cpp:405] res3c_branch2a_relu -> res3c_branch2a (in-place)
I0710 17:29:01.516348 25334 net.cpp:150] Setting up res3c_branch2a_relu
I0710 17:29:01.516355 25334 net.cpp:157] Top shape: 1 128 120 160 (2457600)
I0710 17:29:01.516356 25334 net.cpp:165] Memory required for data: 3656908968
I0710 17:29:01.516360 25334 layer_factory.hpp:77] Creating layer res3c_branch2b
I0710 17:29:01.516371 25334 net.cpp:100] Creating Layer res3c_branch2b
I0710 17:29:01.516376 25334 net.cpp:444] res3c_branch2b <- res3c_branch2a
I0710 17:29:01.516388 25334 net.cpp:418] res3c_branch2b -> res3c_branch2b
I0710 17:29:01.517436 25334 cudnn_conv_layer.cpp:194] Reallocating workspace storage: 3145728
I0710 17:29:01.517691 25334 net.cpp:150] Setting up res3c_branch2b
I0710 17:29:01.517700 25334 net.cpp:157] Top shape: 1 128 120 160 (2457600)
I0710 17:29:01.517704 25334 net.cpp:165] Memory required for data: 3666739368
I0710 17:29:01.517712 25334 layer_factory.hpp:77] Creating layer bn3c_branch2b
I0710 17:29:01.517724 25334 net.cpp:100] Creating Layer bn3c_branch2b
I0710 17:29:01.517729 25334 net.cpp:444] bn3c_branch2b <- res3c_branch2b
I0710 17:29:01.517740 25334 net.cpp:405] bn3c_branch2b -> res3c_branch2b (in-place)
I0710 17:29:01.517997 25334 net.cpp:150] Setting up bn3c_branch2b
I0710 17:29:01.518002 25334 net.cpp:157] Top shape: 1 128 120 160 (2457600)
I0710 17:29:01.518005 25334 net.cpp:165] Memory required for data: 3676569768
I0710 17:29:01.518018 25334 layer_factory.hpp:77] Creating layer scale3c_branch2b
I0710 17:29:01.518029 25334 net.cpp:100] Creating Layer scale3c_branch2b
I0710 17:29:01.518034 25334 net.cpp:444] scale3c_branch2b <- res3c_branch2b
I0710 17:29:01.518044 25334 net.cpp:405] scale3c_branch2b -> res3c_branch2b (in-place)
I0710 17:29:01.518100 25334 layer_factory.hpp:77] Creating layer scale3c_branch2b
I0710 17:29:01.518285 25334 net.cpp:150] Setting up scale3c_branch2b
I0710 17:29:01.518291 25334 net.cpp:157] Top shape: 1 128 120 160 (2457600)
I0710 17:29:01.518293 25334 net.cpp:165] Memory required for data: 3686400168
I0710 17:29:01.518302 25334 layer_factory.hpp:77] Creating layer res3c_branch2b_relu
I0710 17:29:01.518311 25334 net.cpp:100] Creating Layer res3c_branch2b_relu
I0710 17:29:01.518316 25334 net.cpp:444] res3c_branch2b_relu <- res3c_branch2b
I0710 17:29:01.518324 25334 net.cpp:405] res3c_branch2b_relu -> res3c_branch2b (in-place)
I0710 17:29:01.518458 25334 net.cpp:150] Setting up res3c_branch2b_relu
I0710 17:29:01.518465 25334 net.cpp:157] Top shape: 1 128 120 160 (2457600)
I0710 17:29:01.518467 25334 net.cpp:165] Memory required for data: 3696230568
I0710 17:29:01.518471 25334 layer_factory.hpp:77] Creating layer res3c_branch2c
I0710 17:29:01.518482 25334 net.cpp:100] Creating Layer res3c_branch2c
I0710 17:29:01.518487 25334 net.cpp:444] res3c_branch2c <- res3c_branch2b
I0710 17:29:01.518501 25334 net.cpp:418] res3c_branch2c -> res3c_branch2c
I0710 17:29:01.519460 25334 cudnn_conv_layer.cpp:194] Reallocating workspace storage: 352152
I0710 17:29:01.519474 25334 net.cpp:150] Setting up res3c_branch2c
I0710 17:29:01.519479 25334 net.cpp:157] Top shape: 1 512 120 160 (9830400)
I0710 17:29:01.519481 25334 net.cpp:165] Memory required for data: 3735552168
I0710 17:29:01.519490 25334 layer_factory.hpp:77] Creating layer bn3c_branch2c
I0710 17:29:01.519502 25334 net.cpp:100] Creating Layer bn3c_branch2c
I0710 17:29:01.519507 25334 net.cpp:444] bn3c_branch2c <- res3c_branch2c
I0710 17:29:01.519520 25334 net.cpp:405] bn3c_branch2c -> res3c_branch2c (in-place)
I0710 17:29:01.519780 25334 net.cpp:150] Setting up bn3c_branch2c
I0710 17:29:01.519788 25334 net.cpp:157] Top shape: 1 512 120 160 (9830400)
I0710 17:29:01.519789 25334 net.cpp:165] Memory required for data: 3774873768
I0710 17:29:01.519804 25334 layer_factory.hpp:77] Creating layer scale3c_branch2c
I0710 17:29:01.519814 25334 net.cpp:100] Creating Layer scale3c_branch2c
I0710 17:29:01.519819 25334 net.cpp:444] scale3c_branch2c <- res3c_branch2c
I0710 17:29:01.519829 25334 net.cpp:405] scale3c_branch2c -> res3c_branch2c (in-place)
I0710 17:29:01.519881 25334 layer_factory.hpp:77] Creating layer scale3c_branch2c
I0710 17:29:01.520073 25334 net.cpp:150] Setting up scale3c_branch2c
I0710 17:29:01.520081 25334 net.cpp:157] Top shape: 1 512 120 160 (9830400)
I0710 17:29:01.520082 25334 net.cpp:165] Memory required for data: 3814195368
I0710 17:29:01.520090 25334 layer_factory.hpp:77] Creating layer res3c
I0710 17:29:01.520099 25334 net.cpp:100] Creating Layer res3c
I0710 17:29:01.520104 25334 net.cpp:444] res3c <- res3b_res3b_relu_0_split_1
I0710 17:29:01.520112 25334 net.cpp:444] res3c <- res3c_branch2c
I0710 17:29:01.520120 25334 net.cpp:418] res3c -> res3c
I0710 17:29:01.520155 25334 net.cpp:150] Setting up res3c
I0710 17:29:01.520162 25334 net.cpp:157] Top shape: 1 512 120 160 (9830400)
I0710 17:29:01.520164 25334 net.cpp:165] Memory required for data: 3853516968
I0710 17:29:01.520167 25334 layer_factory.hpp:77] Creating layer res3c_relu
I0710 17:29:01.520174 25334 net.cpp:100] Creating Layer res3c_relu
I0710 17:29:01.520179 25334 net.cpp:444] res3c_relu <- res3c
I0710 17:29:01.520187 25334 net.cpp:405] res3c_relu -> res3c (in-place)
I0710 17:29:01.520315 25334 net.cpp:150] Setting up res3c_relu
I0710 17:29:01.520321 25334 net.cpp:157] Top shape: 1 512 120 160 (9830400)
I0710 17:29:01.520324 25334 net.cpp:165] Memory required for data: 3892838568
I0710 17:29:01.520328 25334 layer_factory.hpp:77] Creating layer res3c_res3c_relu_0_split
I0710 17:29:01.520335 25334 net.cpp:100] Creating Layer res3c_res3c_relu_0_split
I0710 17:29:01.520339 25334 net.cpp:444] res3c_res3c_relu_0_split <- res3c
I0710 17:29:01.520349 25334 net.cpp:418] res3c_res3c_relu_0_split -> res3c_res3c_relu_0_split_0
I0710 17:29:01.520361 25334 net.cpp:418] res3c_res3c_relu_0_split -> res3c_res3c_relu_0_split_1
I0710 17:29:01.520411 25334 net.cpp:150] Setting up res3c_res3c_relu_0_split
I0710 17:29:01.520418 25334 net.cpp:157] Top shape: 1 512 120 160 (9830400)
I0710 17:29:01.520421 25334 net.cpp:157] Top shape: 1 512 120 160 (9830400)
I0710 17:29:01.520423 25334 net.cpp:165] Memory required for data: 3971481768
I0710 17:29:01.520426 25334 layer_factory.hpp:77] Creating layer res3d_branch2a
I0710 17:29:01.520437 25334 net.cpp:100] Creating Layer res3d_branch2a
I0710 17:29:01.520442 25334 net.cpp:444] res3d_branch2a <- res3c_res3c_relu_0_split_0
I0710 17:29:01.520453 25334 net.cpp:418] res3d_branch2a -> res3d_branch2a
I0710 17:29:01.522060 25334 cudnn_conv_layer.cpp:194] Reallocating workspace storage: 352152
I0710 17:29:01.522079 25334 net.cpp:150] Setting up res3d_branch2a
I0710 17:29:01.522086 25334 net.cpp:157] Top shape: 1 128 120 160 (2457600)
I0710 17:29:01.522089 25334 net.cpp:165] Memory required for data: 3981312168
I0710 17:29:01.522099 25334 layer_factory.hpp:77] Creating layer bn3d_branch2a
I0710 17:29:01.522110 25334 net.cpp:100] Creating Layer bn3d_branch2a
I0710 17:29:01.522116 25334 net.cpp:444] bn3d_branch2a <- res3d_branch2a
I0710 17:29:01.522127 25334 net.cpp:405] bn3d_branch2a -> res3d_branch2a (in-place)
I0710 17:29:01.522380 25334 net.cpp:150] Setting up bn3d_branch2a
I0710 17:29:01.522387 25334 net.cpp:157] Top shape: 1 128 120 160 (2457600)
I0710 17:29:01.522389 25334 net.cpp:165] Memory required for data: 3991142568
I0710 17:29:01.522424 25334 layer_factory.hpp:77] Creating layer scale3d_branch2a
I0710 17:29:01.522436 25334 net.cpp:100] Creating Layer scale3d_branch2a
I0710 17:29:01.522441 25334 net.cpp:444] scale3d_branch2a <- res3d_branch2a
I0710 17:29:01.522451 25334 net.cpp:405] scale3d_branch2a -> res3d_branch2a (in-place)
I0710 17:29:01.522508 25334 layer_factory.hpp:77] Creating layer scale3d_branch2a
I0710 17:29:01.522694 25334 net.cpp:150] Setting up scale3d_branch2a
I0710 17:29:01.522701 25334 net.cpp:157] Top shape: 1 128 120 160 (2457600)
I0710 17:29:01.522702 25334 net.cpp:165] Memory required for data: 4000972968
I0710 17:29:01.522711 25334 layer_factory.hpp:77] Creating layer res3d_branch2a_relu
I0710 17:29:01.522722 25334 net.cpp:100] Creating Layer res3d_branch2a_relu
I0710 17:29:01.522727 25334 net.cpp:444] res3d_branch2a_relu <- res3d_branch2a
I0710 17:29:01.522735 25334 net.cpp:405] res3d_branch2a_relu -> res3d_branch2a (in-place)
I0710 17:29:01.523113 25334 net.cpp:150] Setting up res3d_branch2a_relu
I0710 17:29:01.523121 25334 net.cpp:157] Top shape: 1 128 120 160 (2457600)
I0710 17:29:01.523123 25334 net.cpp:165] Memory required for data: 4010803368
I0710 17:29:01.523128 25334 layer_factory.hpp:77] Creating layer res3d_branch2b
I0710 17:29:01.523141 25334 net.cpp:100] Creating Layer res3d_branch2b
I0710 17:29:01.523147 25334 net.cpp:444] res3d_branch2b <- res3d_branch2a
I0710 17:29:01.523160 25334 net.cpp:418] res3d_branch2b -> res3d_branch2b
I0710 17:29:01.524879 25334 cudnn_conv_layer.cpp:194] Reallocating workspace storage: 3145728
I0710 17:29:01.525144 25334 net.cpp:150] Setting up res3d_branch2b
I0710 17:29:01.525156 25334 net.cpp:157] Top shape: 1 128 120 160 (2457600)
I0710 17:29:01.525157 25334 net.cpp:165] Memory required for data: 4020633768
I0710 17:29:01.525169 25334 layer_factory.hpp:77] Creating layer bn3d_branch2b
I0710 17:29:01.525183 25334 net.cpp:100] Creating Layer bn3d_branch2b
I0710 17:29:01.525188 25334 net.cpp:444] bn3d_branch2b <- res3d_branch2b
I0710 17:29:01.525199 25334 net.cpp:405] bn3d_branch2b -> res3d_branch2b (in-place)
I0710 17:29:01.525468 25334 net.cpp:150] Setting up bn3d_branch2b
I0710 17:29:01.525475 25334 net.cpp:157] Top shape: 1 128 120 160 (2457600)
I0710 17:29:01.525476 25334 net.cpp:165] Memory required for data: 4030464168
I0710 17:29:01.525490 25334 layer_factory.hpp:77] Creating layer scale3d_branch2b
I0710 17:29:01.525501 25334 net.cpp:100] Creating Layer scale3d_branch2b
I0710 17:29:01.525504 25334 net.cpp:444] scale3d_branch2b <- res3d_branch2b
I0710 17:29:01.525514 25334 net.cpp:405] scale3d_branch2b -> res3d_branch2b (in-place)
I0710 17:29:01.525578 25334 layer_factory.hpp:77] Creating layer scale3d_branch2b
I0710 17:29:01.525769 25334 net.cpp:150] Setting up scale3d_branch2b
I0710 17:29:01.525776 25334 net.cpp:157] Top shape: 1 128 120 160 (2457600)
I0710 17:29:01.525777 25334 net.cpp:165] Memory required for data: 4040294568
I0710 17:29:01.525786 25334 layer_factory.hpp:77] Creating layer res3d_branch2b_relu
I0710 17:29:01.525795 25334 net.cpp:100] Creating Layer res3d_branch2b_relu
I0710 17:29:01.525799 25334 net.cpp:444] res3d_branch2b_relu <- res3d_branch2b
I0710 17:29:01.525809 25334 net.cpp:405] res3d_branch2b_relu -> res3d_branch2b (in-place)
I0710 17:29:01.525949 25334 net.cpp:150] Setting up res3d_branch2b_relu
I0710 17:29:01.525954 25334 net.cpp:157] Top shape: 1 128 120 160 (2457600)
I0710 17:29:01.525956 25334 net.cpp:165] Memory required for data: 4050124968
I0710 17:29:01.525959 25334 layer_factory.hpp:77] Creating layer res3d_branch2c
I0710 17:29:01.525972 25334 net.cpp:100] Creating Layer res3d_branch2c
I0710 17:29:01.525977 25334 net.cpp:444] res3d_branch2c <- res3d_branch2b
I0710 17:29:01.525987 25334 net.cpp:418] res3d_branch2c -> res3d_branch2c
I0710 17:29:01.526965 25334 cudnn_conv_layer.cpp:194] Reallocating workspace storage: 352152
I0710 17:29:01.526978 25334 net.cpp:150] Setting up res3d_branch2c
I0710 17:29:01.526983 25334 net.cpp:157] Top shape: 1 512 120 160 (9830400)
I0710 17:29:01.526985 25334 net.cpp:165] Memory required for data: 4089446568
I0710 17:29:01.526994 25334 layer_factory.hpp:77] Creating layer bn3d_branch2c
I0710 17:29:01.527005 25334 net.cpp:100] Creating Layer bn3d_branch2c
I0710 17:29:01.527011 25334 net.cpp:444] bn3d_branch2c <- res3d_branch2c
I0710 17:29:01.527022 25334 net.cpp:405] bn3d_branch2c -> res3d_branch2c (in-place)
I0710 17:29:01.527285 25334 net.cpp:150] Setting up bn3d_branch2c
I0710 17:29:01.527292 25334 net.cpp:157] Top shape: 1 512 120 160 (9830400)
I0710 17:29:01.527293 25334 net.cpp:165] Memory required for data: 4128768168
I0710 17:29:01.527307 25334 layer_factory.hpp:77] Creating layer scale3d_branch2c
I0710 17:29:01.527318 25334 net.cpp:100] Creating Layer scale3d_branch2c
I0710 17:29:01.527321 25334 net.cpp:444] scale3d_branch2c <- res3d_branch2c
I0710 17:29:01.527331 25334 net.cpp:405] scale3d_branch2c -> res3d_branch2c (in-place)
I0710 17:29:01.527391 25334 layer_factory.hpp:77] Creating layer scale3d_branch2c
I0710 17:29:01.527588 25334 net.cpp:150] Setting up scale3d_branch2c
I0710 17:29:01.527595 25334 net.cpp:157] Top shape: 1 512 120 160 (9830400)
I0710 17:29:01.527597 25334 net.cpp:165] Memory required for data: 4168089768
I0710 17:29:01.527606 25334 layer_factory.hpp:77] Creating layer res3d
I0710 17:29:01.527616 25334 net.cpp:100] Creating Layer res3d
I0710 17:29:01.527621 25334 net.cpp:444] res3d <- res3c_res3c_relu_0_split_1
I0710 17:29:01.527628 25334 net.cpp:444] res3d <- res3d_branch2c
I0710 17:29:01.527637 25334 net.cpp:418] res3d -> res3d
I0710 17:29:01.527671 25334 net.cpp:150] Setting up res3d
I0710 17:29:01.527678 25334 net.cpp:157] Top shape: 1 512 120 160 (9830400)
I0710 17:29:01.527680 25334 net.cpp:165] Memory required for data: 4207411368
I0710 17:29:01.527683 25334 layer_factory.hpp:77] Creating layer res3d_relu
I0710 17:29:01.527693 25334 net.cpp:100] Creating Layer res3d_relu
I0710 17:29:01.527698 25334 net.cpp:444] res3d_relu <- res3d
I0710 17:29:01.527706 25334 net.cpp:405] res3d_relu -> res3d (in-place)
I0710 17:29:01.527844 25334 net.cpp:150] Setting up res3d_relu
I0710 17:29:01.527849 25334 net.cpp:157] Top shape: 1 512 120 160 (9830400)
I0710 17:29:01.527851 25334 net.cpp:165] Memory required for data: 4246732968
I0710 17:29:01.527855 25334 layer_factory.hpp:77] Creating layer res3d_res3d_relu_0_split
I0710 17:29:01.527863 25334 net.cpp:100] Creating Layer res3d_res3d_relu_0_split
I0710 17:29:01.527868 25334 net.cpp:444] res3d_res3d_relu_0_split <- res3d
I0710 17:29:01.527878 25334 net.cpp:418] res3d_res3d_relu_0_split -> res3d_res3d_relu_0_split_0
I0710 17:29:01.527890 25334 net.cpp:418] res3d_res3d_relu_0_split -> res3d_res3d_relu_0_split_1
I0710 17:29:01.527940 25334 net.cpp:150] Setting up res3d_res3d_relu_0_split
I0710 17:29:01.527947 25334 net.cpp:157] Top shape: 1 512 120 160 (9830400)
I0710 17:29:01.527951 25334 net.cpp:157] Top shape: 1 512 120 160 (9830400)
I0710 17:29:01.527953 25334 net.cpp:165] Memory required for data: 4325376168
I0710 17:29:01.527956 25334 layer_factory.hpp:77] Creating layer res4a_branch1
I0710 17:29:01.527968 25334 net.cpp:100] Creating Layer res4a_branch1
I0710 17:29:01.527973 25334 net.cpp:444] res4a_branch1 <- res3d_res3d_relu_0_split_0
I0710 17:29:01.527986 25334 net.cpp:418] res4a_branch1 -> res4a_branch1
I0710 17:29:01.530372 25334 cudnn_conv_layer.cpp:194] Reallocating workspace storage: 86424
I0710 17:29:01.530697 25334 net.cpp:150] Setting up res4a_branch1
I0710 17:29:01.530712 25334 net.cpp:157] Top shape: 1 1024 60 80 (4915200)
I0710 17:29:01.530714 25334 net.cpp:165] Memory required for data: 4345036968
I0710 17:29:01.530735 25334 layer_factory.hpp:77] Creating layer bn4a_branch1
I0710 17:29:01.530760 25334 net.cpp:100] Creating Layer bn4a_branch1
I0710 17:29:01.530768 25334 net.cpp:444] bn4a_branch1 <- res4a_branch1
I0710 17:29:01.530786 25334 net.cpp:405] bn4a_branch1 -> res4a_branch1 (in-place)
I0710 17:29:01.531055 25334 net.cpp:150] Setting up bn4a_branch1
I0710 17:29:01.531061 25334 net.cpp:157] Top shape: 1 1024 60 80 (4915200)
I0710 17:29:01.531064 25334 net.cpp:165] Memory required for data: 4364697768
I0710 17:29:01.531078 25334 layer_factory.hpp:77] Creating layer scale4a_branch1
I0710 17:29:01.531092 25334 net.cpp:100] Creating Layer scale4a_branch1
I0710 17:29:01.531096 25334 net.cpp:444] scale4a_branch1 <- res4a_branch1
I0710 17:29:01.531107 25334 net.cpp:405] scale4a_branch1 -> res4a_branch1 (in-place)
I0710 17:29:01.531163 25334 layer_factory.hpp:77] Creating layer scale4a_branch1
I0710 17:29:01.531342 25334 net.cpp:150] Setting up scale4a_branch1
I0710 17:29:01.531349 25334 net.cpp:157] Top shape: 1 1024 60 80 (4915200)
I0710 17:29:01.531350 25334 net.cpp:165] Memory required for data: 4384358568
I0710 17:29:01.531360 25334 layer_factory.hpp:77] Creating layer res4a_branch2a
I0710 17:29:01.531375 25334 net.cpp:100] Creating Layer res4a_branch2a
I0710 17:29:01.531380 25334 net.cpp:444] res4a_branch2a <- res3d_res3d_relu_0_split_1
I0710 17:29:01.531392 25334 net.cpp:418] res4a_branch2a -> res4a_branch2a
I0710 17:29:01.532493 25334 cudnn_conv_layer.cpp:194] Reallocating workspace storage: 86424
I0710 17:29:01.532510 25334 net.cpp:150] Setting up res4a_branch2a
I0710 17:29:01.532518 25334 net.cpp:157] Top shape: 1 256 60 80 (1228800)
I0710 17:29:01.532521 25334 net.cpp:165] Memory required for data: 4389273768
I0710 17:29:01.532529 25334 layer_factory.hpp:77] Creating layer bn4a_branch2a
I0710 17:29:01.532541 25334 net.cpp:100] Creating Layer bn4a_branch2a
I0710 17:29:01.532546 25334 net.cpp:444] bn4a_branch2a <- res4a_branch2a
I0710 17:29:01.532555 25334 net.cpp:405] bn4a_branch2a -> res4a_branch2a (in-place)
I0710 17:29:01.532805 25334 net.cpp:150] Setting up bn4a_branch2a
I0710 17:29:01.532810 25334 net.cpp:157] Top shape: 1 256 60 80 (1228800)
I0710 17:29:01.532812 25334 net.cpp:165] Memory required for data: 4394188968
I0710 17:29:01.532825 25334 layer_factory.hpp:77] Creating layer scale4a_branch2a
I0710 17:29:01.532837 25334 net.cpp:100] Creating Layer scale4a_branch2a
I0710 17:29:01.532842 25334 net.cpp:444] scale4a_branch2a <- res4a_branch2a
I0710 17:29:01.532851 25334 net.cpp:405] scale4a_branch2a -> res4a_branch2a (in-place)
I0710 17:29:01.532907 25334 layer_factory.hpp:77] Creating layer scale4a_branch2a
I0710 17:29:01.533073 25334 net.cpp:150] Setting up scale4a_branch2a
I0710 17:29:01.533079 25334 net.cpp:157] Top shape: 1 256 60 80 (1228800)
I0710 17:29:01.533082 25334 net.cpp:165] Memory required for data: 4399104168
I0710 17:29:01.533090 25334 layer_factory.hpp:77] Creating layer res4a_branch2a_relu
I0710 17:29:01.533099 25334 net.cpp:100] Creating Layer res4a_branch2a_relu
I0710 17:29:01.533104 25334 net.cpp:444] res4a_branch2a_relu <- res4a_branch2a
I0710 17:29:01.533114 25334 net.cpp:405] res4a_branch2a_relu -> res4a_branch2a (in-place)
I0710 17:29:01.533514 25334 net.cpp:150] Setting up res4a_branch2a_relu
I0710 17:29:01.533520 25334 net.cpp:157] Top shape: 1 256 60 80 (1228800)
I0710 17:29:01.533524 25334 net.cpp:165] Memory required for data: 4404019368
I0710 17:29:01.533527 25334 layer_factory.hpp:77] Creating layer res4a_branch2b
I0710 17:29:01.533540 25334 net.cpp:100] Creating Layer res4a_branch2b
I0710 17:29:01.533546 25334 net.cpp:444] res4a_branch2b <- res4a_branch2a
I0710 17:29:01.533588 25334 net.cpp:418] res4a_branch2b -> res4a_branch2b
I0710 17:29:01.536054 25334 cudnn_conv_layer.cpp:194] Reallocating workspace storage: 12582912
I0710 17:29:01.536321 25334 net.cpp:150] Setting up res4a_branch2b
I0710 17:29:01.536334 25334 net.cpp:157] Top shape: 1 256 60 80 (1228800)
I0710 17:29:01.536336 25334 net.cpp:165] Memory required for data: 4408934568
I0710 17:29:01.536351 25334 layer_factory.hpp:77] Creating layer bn4a_branch2b
I0710 17:29:01.536370 25334 net.cpp:100] Creating Layer bn4a_branch2b
I0710 17:29:01.536377 25334 net.cpp:444] bn4a_branch2b <- res4a_branch2b
I0710 17:29:01.536391 25334 net.cpp:405] bn4a_branch2b -> res4a_branch2b (in-place)
I0710 17:29:01.536650 25334 net.cpp:150] Setting up bn4a_branch2b
I0710 17:29:01.536656 25334 net.cpp:157] Top shape: 1 256 60 80 (1228800)
I0710 17:29:01.536659 25334 net.cpp:165] Memory required for data: 4413849768
I0710 17:29:01.536672 25334 layer_factory.hpp:77] Creating layer scale4a_branch2b
I0710 17:29:01.536685 25334 net.cpp:100] Creating Layer scale4a_branch2b
I0710 17:29:01.536689 25334 net.cpp:444] scale4a_branch2b <- res4a_branch2b
I0710 17:29:01.536700 25334 net.cpp:405] scale4a_branch2b -> res4a_branch2b (in-place)
I0710 17:29:01.536756 25334 layer_factory.hpp:77] Creating layer scale4a_branch2b
I0710 17:29:01.536922 25334 net.cpp:150] Setting up scale4a_branch2b
I0710 17:29:01.536928 25334 net.cpp:157] Top shape: 1 256 60 80 (1228800)
I0710 17:29:01.536931 25334 net.cpp:165] Memory required for data: 4418764968
I0710 17:29:01.536939 25334 layer_factory.hpp:77] Creating layer res4a_branch2b_relu
I0710 17:29:01.536948 25334 net.cpp:100] Creating Layer res4a_branch2b_relu
I0710 17:29:01.536952 25334 net.cpp:444] res4a_branch2b_relu <- res4a_branch2b
I0710 17:29:01.536960 25334 net.cpp:405] res4a_branch2b_relu -> res4a_branch2b (in-place)
I0710 17:29:01.537101 25334 net.cpp:150] Setting up res4a_branch2b_relu
I0710 17:29:01.537107 25334 net.cpp:157] Top shape: 1 256 60 80 (1228800)
I0710 17:29:01.537108 25334 net.cpp:165] Memory required for data: 4423680168
I0710 17:29:01.537112 25334 layer_factory.hpp:77] Creating layer res4a_branch2c
I0710 17:29:01.537127 25334 net.cpp:100] Creating Layer res4a_branch2c
I0710 17:29:01.537130 25334 net.cpp:444] res4a_branch2c <- res4a_branch2b
I0710 17:29:01.537142 25334 net.cpp:418] res4a_branch2c -> res4a_branch2c
I0710 17:29:01.539055 25334 cudnn_conv_layer.cpp:194] Reallocating workspace storage: 92952
I0710 17:29:01.539074 25334 net.cpp:150] Setting up res4a_branch2c
I0710 17:29:01.539083 25334 net.cpp:157] Top shape: 1 1024 60 80 (4915200)
I0710 17:29:01.539083 25334 net.cpp:165] Memory required for data: 4443340968
I0710 17:29:01.539093 25334 layer_factory.hpp:77] Creating layer bn4a_branch2c
I0710 17:29:01.539105 25334 net.cpp:100] Creating Layer bn4a_branch2c
I0710 17:29:01.539111 25334 net.cpp:444] bn4a_branch2c <- res4a_branch2c
I0710 17:29:01.539124 25334 net.cpp:405] bn4a_branch2c -> res4a_branch2c (in-place)
I0710 17:29:01.539381 25334 net.cpp:150] Setting up bn4a_branch2c
I0710 17:29:01.539387 25334 net.cpp:157] Top shape: 1 1024 60 80 (4915200)
I0710 17:29:01.539389 25334 net.cpp:165] Memory required for data: 4463001768
I0710 17:29:01.539402 25334 layer_factory.hpp:77] Creating layer scale4a_branch2c
I0710 17:29:01.539427 25334 net.cpp:100] Creating Layer scale4a_branch2c
I0710 17:29:01.539432 25334 net.cpp:444] scale4a_branch2c <- res4a_branch2c
I0710 17:29:01.539441 25334 net.cpp:405] scale4a_branch2c -> res4a_branch2c (in-place)
I0710 17:29:01.539494 25334 layer_factory.hpp:77] Creating layer scale4a_branch2c
I0710 17:29:01.539669 25334 net.cpp:150] Setting up scale4a_branch2c
I0710 17:29:01.539675 25334 net.cpp:157] Top shape: 1 1024 60 80 (4915200)
I0710 17:29:01.539677 25334 net.cpp:165] Memory required for data: 4482662568
I0710 17:29:01.539687 25334 layer_factory.hpp:77] Creating layer res4a
I0710 17:29:01.539696 25334 net.cpp:100] Creating Layer res4a
I0710 17:29:01.539701 25334 net.cpp:444] res4a <- res4a_branch1
I0710 17:29:01.539710 25334 net.cpp:444] res4a <- res4a_branch2c
I0710 17:29:01.539716 25334 net.cpp:418] res4a -> res4a
I0710 17:29:01.539753 25334 net.cpp:150] Setting up res4a
I0710 17:29:01.539760 25334 net.cpp:157] Top shape: 1 1024 60 80 (4915200)
I0710 17:29:01.539762 25334 net.cpp:165] Memory required for data: 4502323368
I0710 17:29:01.539767 25334 layer_factory.hpp:77] Creating layer res4a_relu
I0710 17:29:01.539774 25334 net.cpp:100] Creating Layer res4a_relu
I0710 17:29:01.539778 25334 net.cpp:444] res4a_relu <- res4a
I0710 17:29:01.539788 25334 net.cpp:405] res4a_relu -> res4a (in-place)
I0710 17:29:01.539924 25334 net.cpp:150] Setting up res4a_relu
I0710 17:29:01.539930 25334 net.cpp:157] Top shape: 1 1024 60 80 (4915200)
I0710 17:29:01.539933 25334 net.cpp:165] Memory required for data: 4521984168
I0710 17:29:01.539937 25334 layer_factory.hpp:77] Creating layer res4a_res4a_relu_0_split
I0710 17:29:01.539947 25334 net.cpp:100] Creating Layer res4a_res4a_relu_0_split
I0710 17:29:01.539952 25334 net.cpp:444] res4a_res4a_relu_0_split <- res4a
I0710 17:29:01.539961 25334 net.cpp:418] res4a_res4a_relu_0_split -> res4a_res4a_relu_0_split_0
I0710 17:29:01.539973 25334 net.cpp:418] res4a_res4a_relu_0_split -> res4a_res4a_relu_0_split_1
I0710 17:29:01.540025 25334 net.cpp:150] Setting up res4a_res4a_relu_0_split
I0710 17:29:01.540033 25334 net.cpp:157] Top shape: 1 1024 60 80 (4915200)
I0710 17:29:01.540036 25334 net.cpp:157] Top shape: 1 1024 60 80 (4915200)
I0710 17:29:01.540038 25334 net.cpp:165] Memory required for data: 4561305768
I0710 17:29:01.540041 25334 layer_factory.hpp:77] Creating layer res4b_branch2a
I0710 17:29:01.540053 25334 net.cpp:100] Creating Layer res4b_branch2a
I0710 17:29:01.540057 25334 net.cpp:444] res4b_branch2a <- res4a_res4a_relu_0_split_0
I0710 17:29:01.540069 25334 net.cpp:418] res4b_branch2a -> res4b_branch2a
I0710 17:29:01.541297 25334 cudnn_conv_layer.cpp:194] Reallocating workspace storage: 92952
I0710 17:29:01.541317 25334 net.cpp:150] Setting up res4b_branch2a
I0710 17:29:01.541323 25334 net.cpp:157] Top shape: 1 256 60 80 (1228800)
I0710 17:29:01.541326 25334 net.cpp:165] Memory required for data: 4566220968
I0710 17:29:01.541334 25334 layer_factory.hpp:77] Creating layer bn4b_branch2a
I0710 17:29:01.541347 25334 net.cpp:100] Creating Layer bn4b_branch2a
I0710 17:29:01.541352 25334 net.cpp:444] bn4b_branch2a <- res4b_branch2a
I0710 17:29:01.541363 25334 net.cpp:405] bn4b_branch2a -> res4b_branch2a (in-place)
I0710 17:29:01.541622 25334 net.cpp:150] Setting up bn4b_branch2a
I0710 17:29:01.541628 25334 net.cpp:157] Top shape: 1 256 60 80 (1228800)
I0710 17:29:01.541630 25334 net.cpp:165] Memory required for data: 4571136168
I0710 17:29:01.541643 25334 layer_factory.hpp:77] Creating layer scale4b_branch2a
I0710 17:29:01.541656 25334 net.cpp:100] Creating Layer scale4b_branch2a
I0710 17:29:01.541661 25334 net.cpp:444] scale4b_branch2a <- res4b_branch2a
I0710 17:29:01.541669 25334 net.cpp:405] scale4b_branch2a -> res4b_branch2a (in-place)
I0710 17:29:01.541728 25334 layer_factory.hpp:77] Creating layer scale4b_branch2a
I0710 17:29:01.541898 25334 net.cpp:150] Setting up scale4b_branch2a
I0710 17:29:01.541903 25334 net.cpp:157] Top shape: 1 256 60 80 (1228800)
I0710 17:29:01.541905 25334 net.cpp:165] Memory required for data: 4576051368
I0710 17:29:01.541914 25334 layer_factory.hpp:77] Creating layer res4b_branch2a_relu
I0710 17:29:01.541923 25334 net.cpp:100] Creating Layer res4b_branch2a_relu
I0710 17:29:01.541927 25334 net.cpp:444] res4b_branch2a_relu <- res4b_branch2a
I0710 17:29:01.541937 25334 net.cpp:405] res4b_branch2a_relu -> res4b_branch2a (in-place)
I0710 17:29:01.542327 25334 net.cpp:150] Setting up res4b_branch2a_relu
I0710 17:29:01.542335 25334 net.cpp:157] Top shape: 1 256 60 80 (1228800)
I0710 17:29:01.542337 25334 net.cpp:165] Memory required for data: 4580966568
I0710 17:29:01.542341 25334 layer_factory.hpp:77] Creating layer res4b_branch2b
I0710 17:29:01.542356 25334 net.cpp:100] Creating Layer res4b_branch2b
I0710 17:29:01.542361 25334 net.cpp:444] res4b_branch2b <- res4b_branch2a
I0710 17:29:01.542374 25334 net.cpp:418] res4b_branch2b -> res4b_branch2b
I0710 17:29:01.544833 25334 cudnn_conv_layer.cpp:194] Reallocating workspace storage: 12582912
I0710 17:29:01.545117 25334 net.cpp:150] Setting up res4b_branch2b
I0710 17:29:01.545131 25334 net.cpp:157] Top shape: 1 256 60 80 (1228800)
I0710 17:29:01.545135 25334 net.cpp:165] Memory required for data: 4585881768
I0710 17:29:01.545151 25334 layer_factory.hpp:77] Creating layer bn4b_branch2b
I0710 17:29:01.545173 25334 net.cpp:100] Creating Layer bn4b_branch2b
I0710 17:29:01.545181 25334 net.cpp:444] bn4b_branch2b <- res4b_branch2b
I0710 17:29:01.545197 25334 net.cpp:405] bn4b_branch2b -> res4b_branch2b (in-place)
I0710 17:29:01.545465 25334 net.cpp:150] Setting up bn4b_branch2b
I0710 17:29:01.545470 25334 net.cpp:157] Top shape: 1 256 60 80 (1228800)
I0710 17:29:01.545472 25334 net.cpp:165] Memory required for data: 4590796968
I0710 17:29:01.545486 25334 layer_factory.hpp:77] Creating layer scale4b_branch2b
I0710 17:29:01.545500 25334 net.cpp:100] Creating Layer scale4b_branch2b
I0710 17:29:01.545505 25334 net.cpp:444] scale4b_branch2b <- res4b_branch2b
I0710 17:29:01.545516 25334 net.cpp:405] scale4b_branch2b -> res4b_branch2b (in-place)
I0710 17:29:01.545588 25334 layer_factory.hpp:77] Creating layer scale4b_branch2b
I0710 17:29:01.545763 25334 net.cpp:150] Setting up scale4b_branch2b
I0710 17:29:01.545769 25334 net.cpp:157] Top shape: 1 256 60 80 (1228800)
I0710 17:29:01.545771 25334 net.cpp:165] Memory required for data: 4595712168
I0710 17:29:01.545780 25334 layer_factory.hpp:77] Creating layer res4b_branch2b_relu
I0710 17:29:01.545789 25334 net.cpp:100] Creating Layer res4b_branch2b_relu
I0710 17:29:01.545794 25334 net.cpp:444] res4b_branch2b_relu <- res4b_branch2b
I0710 17:29:01.545802 25334 net.cpp:405] res4b_branch2b_relu -> res4b_branch2b (in-place)
I0710 17:29:01.545948 25334 net.cpp:150] Setting up res4b_branch2b_relu
I0710 17:29:01.545954 25334 net.cpp:157] Top shape: 1 256 60 80 (1228800)
I0710 17:29:01.545956 25334 net.cpp:165] Memory required for data: 4600627368
I0710 17:29:01.545960 25334 layer_factory.hpp:77] Creating layer res4b_branch2c
I0710 17:29:01.545975 25334 net.cpp:100] Creating Layer res4b_branch2c
I0710 17:29:01.545980 25334 net.cpp:444] res4b_branch2c <- res4b_branch2b
I0710 17:29:01.545992 25334 net.cpp:418] res4b_branch2c -> res4b_branch2c
I0710 17:29:01.547931 25334 cudnn_conv_layer.cpp:194] Reallocating workspace storage: 92952
I0710 17:29:01.547953 25334 net.cpp:150] Setting up res4b_branch2c
I0710 17:29:01.547962 25334 net.cpp:157] Top shape: 1 1024 60 80 (4915200)
I0710 17:29:01.547965 25334 net.cpp:165] Memory required for data: 4620288168
I0710 17:29:01.547973 25334 layer_factory.hpp:77] Creating layer bn4b_branch2c
I0710 17:29:01.547984 25334 net.cpp:100] Creating Layer bn4b_branch2c
I0710 17:29:01.547989 25334 net.cpp:444] bn4b_branch2c <- res4b_branch2c
I0710 17:29:01.547999 25334 net.cpp:405] bn4b_branch2c -> res4b_branch2c (in-place)
I0710 17:29:01.548265 25334 net.cpp:150] Setting up bn4b_branch2c
I0710 17:29:01.548271 25334 net.cpp:157] Top shape: 1 1024 60 80 (4915200)
I0710 17:29:01.548274 25334 net.cpp:165] Memory required for data: 4639948968
I0710 17:29:01.548286 25334 layer_factory.hpp:77] Creating layer scale4b_branch2c
I0710 17:29:01.548297 25334 net.cpp:100] Creating Layer scale4b_branch2c
I0710 17:29:01.548302 25334 net.cpp:444] scale4b_branch2c <- res4b_branch2c
I0710 17:29:01.548311 25334 net.cpp:405] scale4b_branch2c -> res4b_branch2c (in-place)
I0710 17:29:01.548367 25334 layer_factory.hpp:77] Creating layer scale4b_branch2c
I0710 17:29:01.548547 25334 net.cpp:150] Setting up scale4b_branch2c
I0710 17:29:01.548553 25334 net.cpp:157] Top shape: 1 1024 60 80 (4915200)
I0710 17:29:01.548555 25334 net.cpp:165] Memory required for data: 4659609768
I0710 17:29:01.548563 25334 layer_factory.hpp:77] Creating layer res4b
I0710 17:29:01.548573 25334 net.cpp:100] Creating Layer res4b
I0710 17:29:01.548576 25334 net.cpp:444] res4b <- res4a_res4a_relu_0_split_1
I0710 17:29:01.548583 25334 net.cpp:444] res4b <- res4b_branch2c
I0710 17:29:01.548590 25334 net.cpp:418] res4b -> res4b
I0710 17:29:01.548629 25334 net.cpp:150] Setting up res4b
I0710 17:29:01.548635 25334 net.cpp:157] Top shape: 1 1024 60 80 (4915200)
I0710 17:29:01.548636 25334 net.cpp:165] Memory required for data: 4679270568
I0710 17:29:01.548640 25334 layer_factory.hpp:77] Creating layer res4b_relu
I0710 17:29:01.548647 25334 net.cpp:100] Creating Layer res4b_relu
I0710 17:29:01.548651 25334 net.cpp:444] res4b_relu <- res4b
I0710 17:29:01.548660 25334 net.cpp:405] res4b_relu -> res4b (in-place)
I0710 17:29:01.548792 25334 net.cpp:150] Setting up res4b_relu
I0710 17:29:01.548799 25334 net.cpp:157] Top shape: 1 1024 60 80 (4915200)
I0710 17:29:01.548800 25334 net.cpp:165] Memory required for data: 4698931368
I0710 17:29:01.548804 25334 layer_factory.hpp:77] Creating layer res4b_res4b_relu_0_split
I0710 17:29:01.548812 25334 net.cpp:100] Creating Layer res4b_res4b_relu_0_split
I0710 17:29:01.548815 25334 net.cpp:444] res4b_res4b_relu_0_split <- res4b
I0710 17:29:01.548825 25334 net.cpp:418] res4b_res4b_relu_0_split -> res4b_res4b_relu_0_split_0
I0710 17:29:01.548836 25334 net.cpp:418] res4b_res4b_relu_0_split -> res4b_res4b_relu_0_split_1
I0710 17:29:01.548889 25334 net.cpp:150] Setting up res4b_res4b_relu_0_split
I0710 17:29:01.548897 25334 net.cpp:157] Top shape: 1 1024 60 80 (4915200)
I0710 17:29:01.548899 25334 net.cpp:157] Top shape: 1 1024 60 80 (4915200)
I0710 17:29:01.548902 25334 net.cpp:165] Memory required for data: 4738252968
I0710 17:29:01.548903 25334 layer_factory.hpp:77] Creating layer res4c_branch2a
I0710 17:29:01.548915 25334 net.cpp:100] Creating Layer res4c_branch2a
I0710 17:29:01.548919 25334 net.cpp:444] res4c_branch2a <- res4b_res4b_relu_0_split_0
I0710 17:29:01.548929 25334 net.cpp:418] res4c_branch2a -> res4c_branch2a
I0710 17:29:01.550207 25334 cudnn_conv_layer.cpp:194] Reallocating workspace storage: 92952
I0710 17:29:01.550227 25334 net.cpp:150] Setting up res4c_branch2a
I0710 17:29:01.550235 25334 net.cpp:157] Top shape: 1 256 60 80 (1228800)
I0710 17:29:01.550236 25334 net.cpp:165] Memory required for data: 4743168168
I0710 17:29:01.550245 25334 layer_factory.hpp:77] Creating layer bn4c_branch2a
I0710 17:29:01.550257 25334 net.cpp:100] Creating Layer bn4c_branch2a
I0710 17:29:01.550261 25334 net.cpp:444] bn4c_branch2a <- res4c_branch2a
I0710 17:29:01.550271 25334 net.cpp:405] bn4c_branch2a -> res4c_branch2a (in-place)
I0710 17:29:01.550529 25334 net.cpp:150] Setting up bn4c_branch2a
I0710 17:29:01.550534 25334 net.cpp:157] Top shape: 1 256 60 80 (1228800)
I0710 17:29:01.550536 25334 net.cpp:165] Memory required for data: 4748083368
I0710 17:29:01.550549 25334 layer_factory.hpp:77] Creating layer scale4c_branch2a
I0710 17:29:01.550560 25334 net.cpp:100] Creating Layer scale4c_branch2a
I0710 17:29:01.550565 25334 net.cpp:444] scale4c_branch2a <- res4c_branch2a
I0710 17:29:01.550576 25334 net.cpp:405] scale4c_branch2a -> res4c_branch2a (in-place)
I0710 17:29:01.550633 25334 layer_factory.hpp:77] Creating layer scale4c_branch2a
I0710 17:29:01.550804 25334 net.cpp:150] Setting up scale4c_branch2a
I0710 17:29:01.550812 25334 net.cpp:157] Top shape: 1 256 60 80 (1228800)
I0710 17:29:01.550813 25334 net.cpp:165] Memory required for data: 4752998568
I0710 17:29:01.550822 25334 layer_factory.hpp:77] Creating layer res4c_branch2a_relu
I0710 17:29:01.550832 25334 net.cpp:100] Creating Layer res4c_branch2a_relu
I0710 17:29:01.550837 25334 net.cpp:444] res4c_branch2a_relu <- res4c_branch2a
I0710 17:29:01.550845 25334 net.cpp:405] res4c_branch2a_relu -> res4c_branch2a (in-place)
I0710 17:29:01.550981 25334 net.cpp:150] Setting up res4c_branch2a_relu
I0710 17:29:01.550985 25334 net.cpp:157] Top shape: 1 256 60 80 (1228800)
I0710 17:29:01.550988 25334 net.cpp:165] Memory required for data: 4757913768
I0710 17:29:01.550992 25334 layer_factory.hpp:77] Creating layer res4c_branch2b
I0710 17:29:01.551005 25334 net.cpp:100] Creating Layer res4c_branch2b
I0710 17:29:01.551010 25334 net.cpp:444] res4c_branch2b <- res4c_branch2a
I0710 17:29:01.551023 25334 net.cpp:418] res4c_branch2b -> res4c_branch2b
I0710 17:29:01.553678 25334 cudnn_conv_layer.cpp:194] Reallocating workspace storage: 12582912
I0710 17:29:01.553939 25334 net.cpp:150] Setting up res4c_branch2b
I0710 17:29:01.553952 25334 net.cpp:157] Top shape: 1 256 60 80 (1228800)
I0710 17:29:01.553956 25334 net.cpp:165] Memory required for data: 4762828968
I0710 17:29:01.553970 25334 layer_factory.hpp:77] Creating layer bn4c_branch2b
I0710 17:29:01.553990 25334 net.cpp:100] Creating Layer bn4c_branch2b
I0710 17:29:01.553997 25334 net.cpp:444] bn4c_branch2b <- res4c_branch2b
I0710 17:29:01.554011 25334 net.cpp:405] bn4c_branch2b -> res4c_branch2b (in-place)
I0710 17:29:01.554285 25334 net.cpp:150] Setting up bn4c_branch2b
I0710 17:29:01.554289 25334 net.cpp:157] Top shape: 1 256 60 80 (1228800)
I0710 17:29:01.554291 25334 net.cpp:165] Memory required for data: 4767744168
I0710 17:29:01.554306 25334 layer_factory.hpp:77] Creating layer scale4c_branch2b
I0710 17:29:01.554316 25334 net.cpp:100] Creating Layer scale4c_branch2b
I0710 17:29:01.554320 25334 net.cpp:444] scale4c_branch2b <- res4c_branch2b
I0710 17:29:01.554330 25334 net.cpp:405] scale4c_branch2b -> res4c_branch2b (in-place)
I0710 17:29:01.554391 25334 layer_factory.hpp:77] Creating layer scale4c_branch2b
I0710 17:29:01.554566 25334 net.cpp:150] Setting up scale4c_branch2b
I0710 17:29:01.554572 25334 net.cpp:157] Top shape: 1 256 60 80 (1228800)
I0710 17:29:01.554574 25334 net.cpp:165] Memory required for data: 4772659368
I0710 17:29:01.554582 25334 layer_factory.hpp:77] Creating layer res4c_branch2b_relu
I0710 17:29:01.554591 25334 net.cpp:100] Creating Layer res4c_branch2b_relu
I0710 17:29:01.554595 25334 net.cpp:444] res4c_branch2b_relu <- res4c_branch2b
I0710 17:29:01.554603 25334 net.cpp:405] res4c_branch2b_relu -> res4c_branch2b (in-place)
I0710 17:29:01.554996 25334 net.cpp:150] Setting up res4c_branch2b_relu
I0710 17:29:01.555003 25334 net.cpp:157] Top shape: 1 256 60 80 (1228800)
I0710 17:29:01.555004 25334 net.cpp:165] Memory required for data: 4777574568
I0710 17:29:01.555008 25334 layer_factory.hpp:77] Creating layer res4c_branch2c
I0710 17:29:01.555023 25334 net.cpp:100] Creating Layer res4c_branch2c
I0710 17:29:01.555029 25334 net.cpp:444] res4c_branch2c <- res4c_branch2b
I0710 17:29:01.555042 25334 net.cpp:418] res4c_branch2c -> res4c_branch2c
I0710 17:29:01.556982 25334 cudnn_conv_layer.cpp:194] Reallocating workspace storage: 92952
I0710 17:29:01.557003 25334 net.cpp:150] Setting up res4c_branch2c
I0710 17:29:01.557010 25334 net.cpp:157] Top shape: 1 1024 60 80 (4915200)
I0710 17:29:01.557013 25334 net.cpp:165] Memory required for data: 4797235368
I0710 17:29:01.557021 25334 layer_factory.hpp:77] Creating layer bn4c_branch2c
I0710 17:29:01.557035 25334 net.cpp:100] Creating Layer bn4c_branch2c
I0710 17:29:01.557041 25334 net.cpp:444] bn4c_branch2c <- res4c_branch2c
I0710 17:29:01.557054 25334 net.cpp:405] bn4c_branch2c -> res4c_branch2c (in-place)
I0710 17:29:01.557324 25334 net.cpp:150] Setting up bn4c_branch2c
I0710 17:29:01.557329 25334 net.cpp:157] Top shape: 1 1024 60 80 (4915200)
I0710 17:29:01.557332 25334 net.cpp:165] Memory required for data: 4816896168
I0710 17:29:01.557345 25334 layer_factory.hpp:77] Creating layer scale4c_branch2c
I0710 17:29:01.557356 25334 net.cpp:100] Creating Layer scale4c_branch2c
I0710 17:29:01.557360 25334 net.cpp:444] scale4c_branch2c <- res4c_branch2c
I0710 17:29:01.557371 25334 net.cpp:405] scale4c_branch2c -> res4c_branch2c (in-place)
I0710 17:29:01.557426 25334 layer_factory.hpp:77] Creating layer scale4c_branch2c
I0710 17:29:01.557612 25334 net.cpp:150] Setting up scale4c_branch2c
I0710 17:29:01.557618 25334 net.cpp:157] Top shape: 1 1024 60 80 (4915200)
I0710 17:29:01.557621 25334 net.cpp:165] Memory required for data: 4836556968
I0710 17:29:01.557629 25334 layer_factory.hpp:77] Creating layer res4c
I0710 17:29:01.557638 25334 net.cpp:100] Creating Layer res4c
I0710 17:29:01.557643 25334 net.cpp:444] res4c <- res4b_res4b_relu_0_split_1
I0710 17:29:01.557651 25334 net.cpp:444] res4c <- res4c_branch2c
I0710 17:29:01.557660 25334 net.cpp:418] res4c -> res4c
I0710 17:29:01.557698 25334 net.cpp:150] Setting up res4c
I0710 17:29:01.557703 25334 net.cpp:157] Top shape: 1 1024 60 80 (4915200)
I0710 17:29:01.557706 25334 net.cpp:165] Memory required for data: 4856217768
I0710 17:29:01.557709 25334 layer_factory.hpp:77] Creating layer res4c_relu
I0710 17:29:01.557718 25334 net.cpp:100] Creating Layer res4c_relu
I0710 17:29:01.557723 25334 net.cpp:444] res4c_relu <- res4c
I0710 17:29:01.557731 25334 net.cpp:405] res4c_relu -> res4c (in-place)
I0710 17:29:01.557871 25334 net.cpp:150] Setting up res4c_relu
I0710 17:29:01.557878 25334 net.cpp:157] Top shape: 1 1024 60 80 (4915200)
I0710 17:29:01.557880 25334 net.cpp:165] Memory required for data: 4875878568
I0710 17:29:01.557883 25334 layer_factory.hpp:77] Creating layer res4c_res4c_relu_0_split
I0710 17:29:01.557893 25334 net.cpp:100] Creating Layer res4c_res4c_relu_0_split
I0710 17:29:01.557898 25334 net.cpp:444] res4c_res4c_relu_0_split <- res4c
I0710 17:29:01.557907 25334 net.cpp:418] res4c_res4c_relu_0_split -> res4c_res4c_relu_0_split_0
I0710 17:29:01.557919 25334 net.cpp:418] res4c_res4c_relu_0_split -> res4c_res4c_relu_0_split_1
I0710 17:29:01.557970 25334 net.cpp:150] Setting up res4c_res4c_relu_0_split
I0710 17:29:01.557976 25334 net.cpp:157] Top shape: 1 1024 60 80 (4915200)
I0710 17:29:01.557979 25334 net.cpp:157] Top shape: 1 1024 60 80 (4915200)
I0710 17:29:01.557981 25334 net.cpp:165] Memory required for data: 4915200168
I0710 17:29:01.557984 25334 layer_factory.hpp:77] Creating layer res4d_branch2a
I0710 17:29:01.557997 25334 net.cpp:100] Creating Layer res4d_branch2a
I0710 17:29:01.558002 25334 net.cpp:444] res4d_branch2a <- res4c_res4c_relu_0_split_0
I0710 17:29:01.558013 25334 net.cpp:418] res4d_branch2a -> res4d_branch2a
I0710 17:29:01.559267 25334 cudnn_conv_layer.cpp:194] Reallocating workspace storage: 92952
I0710 17:29:01.559288 25334 net.cpp:150] Setting up res4d_branch2a
I0710 17:29:01.559293 25334 net.cpp:157] Top shape: 1 256 60 80 (1228800)
I0710 17:29:01.559296 25334 net.cpp:165] Memory required for data: 4920115368
I0710 17:29:01.559304 25334 layer_factory.hpp:77] Creating layer bn4d_branch2a
I0710 17:29:01.559316 25334 net.cpp:100] Creating Layer bn4d_branch2a
I0710 17:29:01.559322 25334 net.cpp:444] bn4d_branch2a <- res4d_branch2a
I0710 17:29:01.559334 25334 net.cpp:405] bn4d_branch2a -> res4d_branch2a (in-place)
I0710 17:29:01.559595 25334 net.cpp:150] Setting up bn4d_branch2a
I0710 17:29:01.559600 25334 net.cpp:157] Top shape: 1 256 60 80 (1228800)
I0710 17:29:01.559602 25334 net.cpp:165] Memory required for data: 4925030568
I0710 17:29:01.559617 25334 layer_factory.hpp:77] Creating layer scale4d_branch2a
I0710 17:29:01.559628 25334 net.cpp:100] Creating Layer scale4d_branch2a
I0710 17:29:01.559633 25334 net.cpp:444] scale4d_branch2a <- res4d_branch2a
I0710 17:29:01.559641 25334 net.cpp:405] scale4d_branch2a -> res4d_branch2a (in-place)
I0710 17:29:01.559700 25334 layer_factory.hpp:77] Creating layer scale4d_branch2a
I0710 17:29:01.559877 25334 net.cpp:150] Setting up scale4d_branch2a
I0710 17:29:01.559883 25334 net.cpp:157] Top shape: 1 256 60 80 (1228800)
I0710 17:29:01.559886 25334 net.cpp:165] Memory required for data: 4929945768
I0710 17:29:01.559895 25334 layer_factory.hpp:77] Creating layer res4d_branch2a_relu
I0710 17:29:01.559903 25334 net.cpp:100] Creating Layer res4d_branch2a_relu
I0710 17:29:01.559908 25334 net.cpp:444] res4d_branch2a_relu <- res4d_branch2a
I0710 17:29:01.559916 25334 net.cpp:405] res4d_branch2a_relu -> res4d_branch2a (in-place)
I0710 17:29:01.560052 25334 net.cpp:150] Setting up res4d_branch2a_relu
I0710 17:29:01.560058 25334 net.cpp:157] Top shape: 1 256 60 80 (1228800)
I0710 17:29:01.560061 25334 net.cpp:165] Memory required for data: 4934860968
I0710 17:29:01.560065 25334 layer_factory.hpp:77] Creating layer res4d_branch2b
I0710 17:29:01.560076 25334 net.cpp:100] Creating Layer res4d_branch2b
I0710 17:29:01.560081 25334 net.cpp:444] res4d_branch2b <- res4d_branch2a
I0710 17:29:01.560094 25334 net.cpp:418] res4d_branch2b -> res4d_branch2b
I0710 17:29:01.562691 25334 cudnn_conv_layer.cpp:194] Reallocating workspace storage: 12582912
I0710 17:29:01.562993 25334 net.cpp:150] Setting up res4d_branch2b
I0710 17:29:01.563007 25334 net.cpp:157] Top shape: 1 256 60 80 (1228800)
I0710 17:29:01.563009 25334 net.cpp:165] Memory required for data: 4939776168
I0710 17:29:01.563028 25334 layer_factory.hpp:77] Creating layer bn4d_branch2b
I0710 17:29:01.563055 25334 net.cpp:100] Creating Layer bn4d_branch2b
I0710 17:29:01.563064 25334 net.cpp:444] bn4d_branch2b <- res4d_branch2b
I0710 17:29:01.563081 25334 net.cpp:405] bn4d_branch2b -> res4d_branch2b (in-place)
I0710 17:29:01.563370 25334 net.cpp:150] Setting up bn4d_branch2b
I0710 17:29:01.563377 25334 net.cpp:157] Top shape: 1 256 60 80 (1228800)
I0710 17:29:01.563380 25334 net.cpp:165] Memory required for data: 4944691368
I0710 17:29:01.563393 25334 layer_factory.hpp:77] Creating layer scale4d_branch2b
I0710 17:29:01.563407 25334 net.cpp:100] Creating Layer scale4d_branch2b
I0710 17:29:01.563412 25334 net.cpp:444] scale4d_branch2b <- res4d_branch2b
I0710 17:29:01.563423 25334 net.cpp:405] scale4d_branch2b -> res4d_branch2b (in-place)
I0710 17:29:01.563488 25334 layer_factory.hpp:77] Creating layer scale4d_branch2b
I0710 17:29:01.563694 25334 net.cpp:150] Setting up scale4d_branch2b
I0710 17:29:01.563702 25334 net.cpp:157] Top shape: 1 256 60 80 (1228800)
I0710 17:29:01.563705 25334 net.cpp:165] Memory required for data: 4949606568
I0710 17:29:01.563717 25334 layer_factory.hpp:77] Creating layer res4d_branch2b_relu
I0710 17:29:01.563730 25334 net.cpp:100] Creating Layer res4d_branch2b_relu
I0710 17:29:01.563736 25334 net.cpp:444] res4d_branch2b_relu <- res4d_branch2b
I0710 17:29:01.563748 25334 net.cpp:405] res4d_branch2b_relu -> res4d_branch2b (in-place)
I0710 17:29:01.564222 25334 net.cpp:150] Setting up res4d_branch2b_relu
I0710 17:29:01.564234 25334 net.cpp:157] Top shape: 1 256 60 80 (1228800)
I0710 17:29:01.564236 25334 net.cpp:165] Memory required for data: 4954521768
I0710 17:29:01.564242 25334 layer_factory.hpp:77] Creating layer res4d_branch2c
I0710 17:29:01.564262 25334 net.cpp:100] Creating Layer res4d_branch2c
I0710 17:29:01.564270 25334 net.cpp:444] res4d_branch2c <- res4d_branch2b
I0710 17:29:01.564286 25334 net.cpp:418] res4d_branch2c -> res4d_branch2c
I0710 17:29:01.566365 25334 cudnn_conv_layer.cpp:194] Reallocating workspace storage: 92952
I0710 17:29:01.566393 25334 net.cpp:150] Setting up res4d_branch2c
I0710 17:29:01.566406 25334 net.cpp:157] Top shape: 1 1024 60 80 (4915200)
I0710 17:29:01.566409 25334 net.cpp:165] Memory required for data: 4974182568
I0710 17:29:01.566424 25334 layer_factory.hpp:77] Creating layer bn4d_branch2c
I0710 17:29:01.566444 25334 net.cpp:100] Creating Layer bn4d_branch2c
I0710 17:29:01.566452 25334 net.cpp:444] bn4d_branch2c <- res4d_branch2c
I0710 17:29:01.566468 25334 net.cpp:405] bn4d_branch2c -> res4d_branch2c (in-place)
I0710 17:29:01.566759 25334 net.cpp:150] Setting up bn4d_branch2c
I0710 17:29:01.566766 25334 net.cpp:157] Top shape: 1 1024 60 80 (4915200)
I0710 17:29:01.566769 25334 net.cpp:165] Memory required for data: 4993843368
I0710 17:29:01.566787 25334 layer_factory.hpp:77] Creating layer scale4d_branch2c
I0710 17:29:01.566800 25334 net.cpp:100] Creating Layer scale4d_branch2c
I0710 17:29:01.566807 25334 net.cpp:444] scale4d_branch2c <- res4d_branch2c
I0710 17:29:01.566820 25334 net.cpp:405] scale4d_branch2c -> res4d_branch2c (in-place)
I0710 17:29:01.566884 25334 layer_factory.hpp:77] Creating layer scale4d_branch2c
I0710 17:29:01.567076 25334 net.cpp:150] Setting up scale4d_branch2c
I0710 17:29:01.567085 25334 net.cpp:157] Top shape: 1 1024 60 80 (4915200)
I0710 17:29:01.567086 25334 net.cpp:165] Memory required for data: 5013504168
I0710 17:29:01.567098 25334 layer_factory.hpp:77] Creating layer res4d
I0710 17:29:01.567111 25334 net.cpp:100] Creating Layer res4d
I0710 17:29:01.567116 25334 net.cpp:444] res4d <- res4c_res4c_relu_0_split_1
I0710 17:29:01.567128 25334 net.cpp:444] res4d <- res4d_branch2c
I0710 17:29:01.567140 25334 net.cpp:418] res4d -> res4d
I0710 17:29:01.567183 25334 net.cpp:150] Setting up res4d
I0710 17:29:01.567190 25334 net.cpp:157] Top shape: 1 1024 60 80 (4915200)
I0710 17:29:01.567194 25334 net.cpp:165] Memory required for data: 5033164968
I0710 17:29:01.567199 25334 layer_factory.hpp:77] Creating layer res4d_relu
I0710 17:29:01.567211 25334 net.cpp:100] Creating Layer res4d_relu
I0710 17:29:01.567216 25334 net.cpp:444] res4d_relu <- res4d
I0710 17:29:01.567229 25334 net.cpp:405] res4d_relu -> res4d (in-place)
I0710 17:29:01.567366 25334 net.cpp:150] Setting up res4d_relu
I0710 17:29:01.567373 25334 net.cpp:157] Top shape: 1 1024 60 80 (4915200)
I0710 17:29:01.567376 25334 net.cpp:165] Memory required for data: 5052825768
I0710 17:29:01.567381 25334 layer_factory.hpp:77] Creating layer res4d_res4d_relu_0_split
I0710 17:29:01.567394 25334 net.cpp:100] Creating Layer res4d_res4d_relu_0_split
I0710 17:29:01.567399 25334 net.cpp:444] res4d_res4d_relu_0_split <- res4d
I0710 17:29:01.567414 25334 net.cpp:418] res4d_res4d_relu_0_split -> res4d_res4d_relu_0_split_0
I0710 17:29:01.567430 25334 net.cpp:418] res4d_res4d_relu_0_split -> res4d_res4d_relu_0_split_1
I0710 17:29:01.567487 25334 net.cpp:150] Setting up res4d_res4d_relu_0_split
I0710 17:29:01.567495 25334 net.cpp:157] Top shape: 1 1024 60 80 (4915200)
I0710 17:29:01.567502 25334 net.cpp:157] Top shape: 1 1024 60 80 (4915200)
I0710 17:29:01.567504 25334 net.cpp:165] Memory required for data: 5092147368
I0710 17:29:01.567509 25334 layer_factory.hpp:77] Creating layer res4e_branch2a
I0710 17:29:01.567525 25334 net.cpp:100] Creating Layer res4e_branch2a
I0710 17:29:01.567533 25334 net.cpp:444] res4e_branch2a <- res4d_res4d_relu_0_split_0
I0710 17:29:01.567546 25334 net.cpp:418] res4e_branch2a -> res4e_branch2a
I0710 17:29:01.568825 25334 cudnn_conv_layer.cpp:194] Reallocating workspace storage: 92952
I0710 17:29:01.568847 25334 net.cpp:150] Setting up res4e_branch2a
I0710 17:29:01.568856 25334 net.cpp:157] Top shape: 1 256 60 80 (1228800)
I0710 17:29:01.568858 25334 net.cpp:165] Memory required for data: 5097062568
I0710 17:29:01.568869 25334 layer_factory.hpp:77] Creating layer bn4e_branch2a
I0710 17:29:01.568884 25334 net.cpp:100] Creating Layer bn4e_branch2a
I0710 17:29:01.568892 25334 net.cpp:444] bn4e_branch2a <- res4e_branch2a
I0710 17:29:01.568907 25334 net.cpp:405] bn4e_branch2a -> res4e_branch2a (in-place)
I0710 17:29:01.569180 25334 net.cpp:150] Setting up bn4e_branch2a
I0710 17:29:01.569187 25334 net.cpp:157] Top shape: 1 256 60 80 (1228800)
I0710 17:29:01.569190 25334 net.cpp:165] Memory required for data: 5101977768
I0710 17:29:01.569206 25334 layer_factory.hpp:77] Creating layer scale4e_branch2a
I0710 17:29:01.569221 25334 net.cpp:100] Creating Layer scale4e_branch2a
I0710 17:29:01.569226 25334 net.cpp:444] scale4e_branch2a <- res4e_branch2a
I0710 17:29:01.569242 25334 net.cpp:405] scale4e_branch2a -> res4e_branch2a (in-place)
I0710 17:29:01.569304 25334 layer_factory.hpp:77] Creating layer scale4e_branch2a
I0710 17:29:01.569486 25334 net.cpp:150] Setting up scale4e_branch2a
I0710 17:29:01.569494 25334 net.cpp:157] Top shape: 1 256 60 80 (1228800)
I0710 17:29:01.569496 25334 net.cpp:165] Memory required for data: 5106892968
I0710 17:29:01.569509 25334 layer_factory.hpp:77] Creating layer res4e_branch2a_relu
I0710 17:29:01.569519 25334 net.cpp:100] Creating Layer res4e_branch2a_relu
I0710 17:29:01.569525 25334 net.cpp:444] res4e_branch2a_relu <- res4e_branch2a
I0710 17:29:01.569537 25334 net.cpp:405] res4e_branch2a_relu -> res4e_branch2a (in-place)
I0710 17:29:01.569692 25334 net.cpp:150] Setting up res4e_branch2a_relu
I0710 17:29:01.569700 25334 net.cpp:157] Top shape: 1 256 60 80 (1228800)
I0710 17:29:01.569703 25334 net.cpp:165] Memory required for data: 5111808168
I0710 17:29:01.569708 25334 layer_factory.hpp:77] Creating layer res4e_branch2b
I0710 17:29:01.569723 25334 net.cpp:100] Creating Layer res4e_branch2b
I0710 17:29:01.569730 25334 net.cpp:444] res4e_branch2b <- res4e_branch2a
I0710 17:29:01.569746 25334 net.cpp:418] res4e_branch2b -> res4e_branch2b
I0710 17:29:01.572146 25334 cudnn_conv_layer.cpp:194] Reallocating workspace storage: 12582912
I0710 17:29:01.572417 25334 net.cpp:150] Setting up res4e_branch2b
I0710 17:29:01.572429 25334 net.cpp:157] Top shape: 1 256 60 80 (1228800)
I0710 17:29:01.572433 25334 net.cpp:165] Memory required for data: 5116723368
I0710 17:29:01.572446 25334 layer_factory.hpp:77] Creating layer bn4e_branch2b
I0710 17:29:01.572461 25334 net.cpp:100] Creating Layer bn4e_branch2b
I0710 17:29:01.572468 25334 net.cpp:444] bn4e_branch2b <- res4e_branch2b
I0710 17:29:01.572485 25334 net.cpp:405] bn4e_branch2b -> res4e_branch2b (in-place)
I0710 17:29:01.572768 25334 net.cpp:150] Setting up bn4e_branch2b
I0710 17:29:01.572777 25334 net.cpp:157] Top shape: 1 256 60 80 (1228800)
I0710 17:29:01.572779 25334 net.cpp:165] Memory required for data: 5121638568
I0710 17:29:01.572795 25334 layer_factory.hpp:77] Creating layer scale4e_branch2b
I0710 17:29:01.572809 25334 net.cpp:100] Creating Layer scale4e_branch2b
I0710 17:29:01.572815 25334 net.cpp:444] scale4e_branch2b <- res4e_branch2b
I0710 17:29:01.572830 25334 net.cpp:405] scale4e_branch2b -> res4e_branch2b (in-place)
I0710 17:29:01.572897 25334 layer_factory.hpp:77] Creating layer scale4e_branch2b
I0710 17:29:01.573081 25334 net.cpp:150] Setting up scale4e_branch2b
I0710 17:29:01.573088 25334 net.cpp:157] Top shape: 1 256 60 80 (1228800)
I0710 17:29:01.573092 25334 net.cpp:165] Memory required for data: 5126553768
I0710 17:29:01.573103 25334 layer_factory.hpp:77] Creating layer res4e_branch2b_relu
I0710 17:29:01.573114 25334 net.cpp:100] Creating Layer res4e_branch2b_relu
I0710 17:29:01.573120 25334 net.cpp:444] res4e_branch2b_relu <- res4e_branch2b
I0710 17:29:01.573134 25334 net.cpp:405] res4e_branch2b_relu -> res4e_branch2b (in-place)
I0710 17:29:01.573534 25334 net.cpp:150] Setting up res4e_branch2b_relu
I0710 17:29:01.573544 25334 net.cpp:157] Top shape: 1 256 60 80 (1228800)
I0710 17:29:01.573547 25334 net.cpp:165] Memory required for data: 5131468968
I0710 17:29:01.573557 25334 layer_factory.hpp:77] Creating layer res4e_branch2c
I0710 17:29:01.573576 25334 net.cpp:100] Creating Layer res4e_branch2c
I0710 17:29:01.573583 25334 net.cpp:444] res4e_branch2c <- res4e_branch2b
I0710 17:29:01.573599 25334 net.cpp:418] res4e_branch2c -> res4e_branch2c
I0710 17:29:01.575585 25334 cudnn_conv_layer.cpp:194] Reallocating workspace storage: 92952
I0710 17:29:01.575611 25334 net.cpp:150] Setting up res4e_branch2c
I0710 17:29:01.575621 25334 net.cpp:157] Top shape: 1 1024 60 80 (4915200)
I0710 17:29:01.575625 25334 net.cpp:165] Memory required for data: 5151129768
I0710 17:29:01.575639 25334 layer_factory.hpp:77] Creating layer bn4e_branch2c
I0710 17:29:01.575654 25334 net.cpp:100] Creating Layer bn4e_branch2c
I0710 17:29:01.575661 25334 net.cpp:444] bn4e_branch2c <- res4e_branch2c
I0710 17:29:01.575676 25334 net.cpp:405] bn4e_branch2c -> res4e_branch2c (in-place)
I0710 17:29:01.575965 25334 net.cpp:150] Setting up bn4e_branch2c
I0710 17:29:01.575973 25334 net.cpp:157] Top shape: 1 1024 60 80 (4915200)
I0710 17:29:01.575974 25334 net.cpp:165] Memory required for data: 5170790568
I0710 17:29:01.575991 25334 layer_factory.hpp:77] Creating layer scale4e_branch2c
I0710 17:29:01.576005 25334 net.cpp:100] Creating Layer scale4e_branch2c
I0710 17:29:01.576011 25334 net.cpp:444] scale4e_branch2c <- res4e_branch2c
I0710 17:29:01.576025 25334 net.cpp:405] scale4e_branch2c -> res4e_branch2c (in-place)
I0710 17:29:01.576087 25334 layer_factory.hpp:77] Creating layer scale4e_branch2c
I0710 17:29:01.576278 25334 net.cpp:150] Setting up scale4e_branch2c
I0710 17:29:01.576285 25334 net.cpp:157] Top shape: 1 1024 60 80 (4915200)
I0710 17:29:01.576288 25334 net.cpp:165] Memory required for data: 5190451368
I0710 17:29:01.576300 25334 layer_factory.hpp:77] Creating layer res4e
I0710 17:29:01.576313 25334 net.cpp:100] Creating Layer res4e
I0710 17:29:01.576318 25334 net.cpp:444] res4e <- res4d_res4d_relu_0_split_1
I0710 17:29:01.576330 25334 net.cpp:444] res4e <- res4e_branch2c
I0710 17:29:01.576341 25334 net.cpp:418] res4e -> res4e
I0710 17:29:01.576383 25334 net.cpp:150] Setting up res4e
I0710 17:29:01.576391 25334 net.cpp:157] Top shape: 1 1024 60 80 (4915200)
I0710 17:29:01.576395 25334 net.cpp:165] Memory required for data: 5210112168
I0710 17:29:01.576400 25334 layer_factory.hpp:77] Creating layer res4e_relu
I0710 17:29:01.576411 25334 net.cpp:100] Creating Layer res4e_relu
I0710 17:29:01.576417 25334 net.cpp:444] res4e_relu <- res4e
I0710 17:29:01.576429 25334 net.cpp:405] res4e_relu -> res4e (in-place)
I0710 17:29:01.576568 25334 net.cpp:150] Setting up res4e_relu
I0710 17:29:01.576575 25334 net.cpp:157] Top shape: 1 1024 60 80 (4915200)
I0710 17:29:01.576578 25334 net.cpp:165] Memory required for data: 5229772968
I0710 17:29:01.576583 25334 layer_factory.hpp:77] Creating layer res4e_res4e_relu_0_split
I0710 17:29:01.576594 25334 net.cpp:100] Creating Layer res4e_res4e_relu_0_split
I0710 17:29:01.576601 25334 net.cpp:444] res4e_res4e_relu_0_split <- res4e
I0710 17:29:01.576614 25334 net.cpp:418] res4e_res4e_relu_0_split -> res4e_res4e_relu_0_split_0
I0710 17:29:01.576630 25334 net.cpp:418] res4e_res4e_relu_0_split -> res4e_res4e_relu_0_split_1
I0710 17:29:01.576689 25334 net.cpp:150] Setting up res4e_res4e_relu_0_split
I0710 17:29:01.576697 25334 net.cpp:157] Top shape: 1 1024 60 80 (4915200)
I0710 17:29:01.576702 25334 net.cpp:157] Top shape: 1 1024 60 80 (4915200)
I0710 17:29:01.576705 25334 net.cpp:165] Memory required for data: 5269094568
I0710 17:29:01.576710 25334 layer_factory.hpp:77] Creating layer res4f_branch2a
I0710 17:29:01.576725 25334 net.cpp:100] Creating Layer res4f_branch2a
I0710 17:29:01.576731 25334 net.cpp:444] res4f_branch2a <- res4e_res4e_relu_0_split_0
I0710 17:29:01.576746 25334 net.cpp:418] res4f_branch2a -> res4f_branch2a
I0710 17:29:01.578100 25334 cudnn_conv_layer.cpp:194] Reallocating workspace storage: 92952
I0710 17:29:01.578130 25334 net.cpp:150] Setting up res4f_branch2a
I0710 17:29:01.578142 25334 net.cpp:157] Top shape: 1 256 60 80 (1228800)
I0710 17:29:01.578146 25334 net.cpp:165] Memory required for data: 5274009768
I0710 17:29:01.578164 25334 layer_factory.hpp:77] Creating layer bn4f_branch2a
I0710 17:29:01.578188 25334 net.cpp:100] Creating Layer bn4f_branch2a
I0710 17:29:01.578199 25334 net.cpp:444] bn4f_branch2a <- res4f_branch2a
I0710 17:29:01.578219 25334 net.cpp:405] bn4f_branch2a -> res4f_branch2a (in-place)
I0710 17:29:01.578523 25334 net.cpp:150] Setting up bn4f_branch2a
I0710 17:29:01.578531 25334 net.cpp:157] Top shape: 1 256 60 80 (1228800)
I0710 17:29:01.578534 25334 net.cpp:165] Memory required for data: 5278924968
I0710 17:29:01.578553 25334 layer_factory.hpp:77] Creating layer scale4f_branch2a
I0710 17:29:01.578568 25334 net.cpp:100] Creating Layer scale4f_branch2a
I0710 17:29:01.578575 25334 net.cpp:444] scale4f_branch2a <- res4f_branch2a
I0710 17:29:01.578588 25334 net.cpp:405] scale4f_branch2a -> res4f_branch2a (in-place)
I0710 17:29:01.578655 25334 layer_factory.hpp:77] Creating layer scale4f_branch2a
I0710 17:29:01.578845 25334 net.cpp:150] Setting up scale4f_branch2a
I0710 17:29:01.578853 25334 net.cpp:157] Top shape: 1 256 60 80 (1228800)
I0710 17:29:01.578856 25334 net.cpp:165] Memory required for data: 5283840168
I0710 17:29:01.578867 25334 layer_factory.hpp:77] Creating layer res4f_branch2a_relu
I0710 17:29:01.578878 25334 net.cpp:100] Creating Layer res4f_branch2a_relu
I0710 17:29:01.578886 25334 net.cpp:444] res4f_branch2a_relu <- res4f_branch2a
I0710 17:29:01.578897 25334 net.cpp:405] res4f_branch2a_relu -> res4f_branch2a (in-place)
I0710 17:29:01.579066 25334 net.cpp:150] Setting up res4f_branch2a_relu
I0710 17:29:01.579071 25334 net.cpp:157] Top shape: 1 256 60 80 (1228800)
I0710 17:29:01.579075 25334 net.cpp:165] Memory required for data: 5288755368
I0710 17:29:01.579079 25334 layer_factory.hpp:77] Creating layer res4f_branch2b
I0710 17:29:01.579097 25334 net.cpp:100] Creating Layer res4f_branch2b
I0710 17:29:01.579104 25334 net.cpp:444] res4f_branch2b <- res4f_branch2a
I0710 17:29:01.579119 25334 net.cpp:418] res4f_branch2b -> res4f_branch2b
I0710 17:29:01.581933 25334 cudnn_conv_layer.cpp:194] Reallocating workspace storage: 12582912
I0710 17:29:01.582280 25334 net.cpp:150] Setting up res4f_branch2b
I0710 17:29:01.582303 25334 net.cpp:157] Top shape: 1 256 60 80 (1228800)
I0710 17:29:01.582306 25334 net.cpp:165] Memory required for data: 5293670568
I0710 17:29:01.582331 25334 layer_factory.hpp:77] Creating layer bn4f_branch2b
I0710 17:29:01.582362 25334 net.cpp:100] Creating Layer bn4f_branch2b
I0710 17:29:01.582376 25334 net.cpp:444] bn4f_branch2b <- res4f_branch2b
I0710 17:29:01.582398 25334 net.cpp:405] bn4f_branch2b -> res4f_branch2b (in-place)
I0710 17:29:01.582717 25334 net.cpp:150] Setting up bn4f_branch2b
I0710 17:29:01.582725 25334 net.cpp:157] Top shape: 1 256 60 80 (1228800)
I0710 17:29:01.582727 25334 net.cpp:165] Memory required for data: 5298585768
I0710 17:29:01.582746 25334 layer_factory.hpp:77] Creating layer scale4f_branch2b
I0710 17:29:01.582762 25334 net.cpp:100] Creating Layer scale4f_branch2b
I0710 17:29:01.582768 25334 net.cpp:444] scale4f_branch2b <- res4f_branch2b
I0710 17:29:01.582785 25334 net.cpp:405] scale4f_branch2b -> res4f_branch2b (in-place)
I0710 17:29:01.582859 25334 layer_factory.hpp:77] Creating layer scale4f_branch2b
I0710 17:29:01.583060 25334 net.cpp:150] Setting up scale4f_branch2b
I0710 17:29:01.583067 25334 net.cpp:157] Top shape: 1 256 60 80 (1228800)
I0710 17:29:01.583070 25334 net.cpp:165] Memory required for data: 5303500968
I0710 17:29:01.583082 25334 layer_factory.hpp:77] Creating layer res4f_branch2b_relu
I0710 17:29:01.583094 25334 net.cpp:100] Creating Layer res4f_branch2b_relu
I0710 17:29:01.583101 25334 net.cpp:444] res4f_branch2b_relu <- res4f_branch2b
I0710 17:29:01.583113 25334 net.cpp:405] res4f_branch2b_relu -> res4f_branch2b (in-place)
I0710 17:29:01.583313 25334 net.cpp:150] Setting up res4f_branch2b_relu
I0710 17:29:01.583322 25334 net.cpp:157] Top shape: 1 256 60 80 (1228800)
I0710 17:29:01.583324 25334 net.cpp:165] Memory required for data: 5308416168
I0710 17:29:01.583329 25334 layer_factory.hpp:77] Creating layer res4f_branch2c
I0710 17:29:01.583349 25334 net.cpp:100] Creating Layer res4f_branch2c
I0710 17:29:01.583356 25334 net.cpp:444] res4f_branch2c <- res4f_branch2b
I0710 17:29:01.583372 25334 net.cpp:418] res4f_branch2c -> res4f_branch2c
I0710 17:29:01.585791 25334 cudnn_conv_layer.cpp:194] Reallocating workspace storage: 92952
I0710 17:29:01.585829 25334 net.cpp:150] Setting up res4f_branch2c
I0710 17:29:01.585846 25334 net.cpp:157] Top shape: 1 1024 60 80 (4915200)
I0710 17:29:01.585850 25334 net.cpp:165] Memory required for data: 5328076968
I0710 17:29:01.585873 25334 layer_factory.hpp:77] Creating layer bn4f_branch2c
I0710 17:29:01.585904 25334 net.cpp:100] Creating Layer bn4f_branch2c
I0710 17:29:01.585914 25334 net.cpp:444] bn4f_branch2c <- res4f_branch2c
I0710 17:29:01.585935 25334 net.cpp:405] bn4f_branch2c -> res4f_branch2c (in-place)
I0710 17:29:01.586243 25334 net.cpp:150] Setting up bn4f_branch2c
I0710 17:29:01.586251 25334 net.cpp:157] Top shape: 1 1024 60 80 (4915200)
I0710 17:29:01.586253 25334 net.cpp:165] Memory required for data: 5347737768
I0710 17:29:01.586303 25334 layer_factory.hpp:77] Creating layer scale4f_branch2c
I0710 17:29:01.586321 25334 net.cpp:100] Creating Layer scale4f_branch2c
I0710 17:29:01.586328 25334 net.cpp:444] scale4f_branch2c <- res4f_branch2c
I0710 17:29:01.586341 25334 net.cpp:405] scale4f_branch2c -> res4f_branch2c (in-place)
I0710 17:29:01.586407 25334 layer_factory.hpp:77] Creating layer scale4f_branch2c
I0710 17:29:01.586608 25334 net.cpp:150] Setting up scale4f_branch2c
I0710 17:29:01.586616 25334 net.cpp:157] Top shape: 1 1024 60 80 (4915200)
I0710 17:29:01.586618 25334 net.cpp:165] Memory required for data: 5367398568
I0710 17:29:01.586632 25334 layer_factory.hpp:77] Creating layer res4f
I0710 17:29:01.586643 25334 net.cpp:100] Creating Layer res4f
I0710 17:29:01.586649 25334 net.cpp:444] res4f <- res4e_res4e_relu_0_split_1
I0710 17:29:01.586661 25334 net.cpp:444] res4f <- res4f_branch2c
I0710 17:29:01.586671 25334 net.cpp:418] res4f -> res4f
I0710 17:29:01.586717 25334 net.cpp:150] Setting up res4f
I0710 17:29:01.586726 25334 net.cpp:157] Top shape: 1 1024 60 80 (4915200)
I0710 17:29:01.586730 25334 net.cpp:165] Memory required for data: 5387059368
I0710 17:29:01.586735 25334 layer_factory.hpp:77] Creating layer res4f_relu
I0710 17:29:01.586745 25334 net.cpp:100] Creating Layer res4f_relu
I0710 17:29:01.586751 25334 net.cpp:444] res4f_relu <- res4f
I0710 17:29:01.586763 25334 net.cpp:405] res4f_relu -> res4f (in-place)
I0710 17:29:01.587293 25334 net.cpp:150] Setting up res4f_relu
I0710 17:29:01.587302 25334 net.cpp:157] Top shape: 1 1024 60 80 (4915200)
I0710 17:29:01.587306 25334 net.cpp:165] Memory required for data: 5406720168
I0710 17:29:01.587311 25334 layer_factory.hpp:77] Creating layer res4f_res4f_relu_0_split
I0710 17:29:01.587324 25334 net.cpp:100] Creating Layer res4f_res4f_relu_0_split
I0710 17:29:01.587332 25334 net.cpp:444] res4f_res4f_relu_0_split <- res4f
I0710 17:29:01.587347 25334 net.cpp:418] res4f_res4f_relu_0_split -> res4f_res4f_relu_0_split_0
I0710 17:29:01.587363 25334 net.cpp:418] res4f_res4f_relu_0_split -> res4f_res4f_relu_0_split_1
I0710 17:29:01.587376 25334 net.cpp:418] res4f_res4f_relu_0_split -> res4f_res4f_relu_0_split_2
I0710 17:29:01.587390 25334 net.cpp:418] res4f_res4f_relu_0_split -> res4f_res4f_relu_0_split_3
I0710 17:29:01.587491 25334 net.cpp:150] Setting up res4f_res4f_relu_0_split
I0710 17:29:01.587499 25334 net.cpp:157] Top shape: 1 1024 60 80 (4915200)
I0710 17:29:01.587505 25334 net.cpp:157] Top shape: 1 1024 60 80 (4915200)
I0710 17:29:01.587510 25334 net.cpp:157] Top shape: 1 1024 60 80 (4915200)
I0710 17:29:01.587515 25334 net.cpp:157] Top shape: 1 1024 60 80 (4915200)
I0710 17:29:01.587518 25334 net.cpp:165] Memory required for data: 5485363368
I0710 17:29:01.587523 25334 layer_factory.hpp:77] Creating layer res5a_branch1
I0710 17:29:01.587541 25334 net.cpp:100] Creating Layer res5a_branch1
I0710 17:29:01.587548 25334 net.cpp:444] res5a_branch1 <- res4f_res4f_relu_0_split_0
…
I0712 18:14:50.329538 11837 layer_factory.hpp:77] Creating layer res5a_branch2a_relu
I0712 18:14:50.329565 11837 net.cpp:100] Creating Layer res5a_branch2a_relu
I0712 18:14:50.329572 11837 net.cpp:444] res5a_branch2a_relu <- res5a_branch2a
I0712 18:14:50.329588 11837 net.cpp:405] res5a_branch2a_relu -> res5a_branch2a (in-place)
I0712 18:14:50.329767 11837 net.cpp:150] Setting up res5a_branch2a_relu
I0712 18:14:50.329777 11837 net.cpp:157] Top shape: 1 512 14 14 (100352)
I0712 18:14:50.329780 11837 net.cpp:165] Memory required for data: 228601892
I0712 18:14:50.329787 11837 layer_factory.hpp:77] Creating layer res5a_branch2b
I0712 18:14:50.329805 11837 net.cpp:100] Creating Layer res5a_branch2b
I0712 18:14:50.329813 11837 net.cpp:444] res5a_branch2b <- res5a_branch2a
I0712 18:14:50.329833 11837 net.cpp:418] res5a_branch2b -> res5a_branch2b
I0712 18:14:50.336297 11837 net.cpp:150] Setting up res5a_branch2b
I0712 18:14:50.336331 11837 net.cpp:157] Top shape: 1 512 14 14 (100352)
I0712 18:14:50.336335 11837 net.cpp:165] Memory required for data: 229003300
I0712 18:14:50.336364 11837 layer_factory.hpp:77] Creating layer bn5a_branch2b
I0712 18:14:50.336398 11837 net.cpp:100] Creating Layer bn5a_branch2b
I0712 18:14:50.336412 11837 net.cpp:444] bn5a_branch2b <- res5a_branch2b
I0712 18:14:50.336436 11837 net.cpp:405] bn5a_branch2b -> res5a_branch2b (in-place)
I0712 18:14:50.336787 11837 net.cpp:150] Setting up bn5a_branch2b
I0712 18:14:50.336796 11837 net.cpp:157] Top shape: 1 512 14 14 (100352)
I0712 18:14:50.336799 11837 net.cpp:165] Memory required for data: 229404708
I0712 18:14:50.336820 11837 layer_factory.hpp:77] Creating layer scale5a_branch2b
I0712 18:14:50.336840 11837 net.cpp:100] Creating Layer scale5a_branch2b
I0712 18:14:50.336848 11837 net.cpp:444] scale5a_branch2b <- res5a_branch2b
I0712 18:14:50.336866 11837 net.cpp:405] scale5a_branch2b -> res5a_branch2b (in-place)
I0712 18:14:50.336946 11837 layer_factory.hpp:77] Creating layer scale5a_branch2b
I0712 18:14:50.337163 11837 net.cpp:150] Setting up scale5a_branch2b
I0712 18:14:50.337172 11837 net.cpp:157] Top shape: 1 512 14 14 (100352)
I0712 18:14:50.337177 11837 net.cpp:165] Memory required for data: 229806116
I0712 18:14:50.337191 11837 layer_factory.hpp:77] Creating layer res5a_branch2b_relu
I0712 18:14:50.337205 11837 net.cpp:100] Creating Layer res5a_branch2b_relu
I0712 18:14:50.337213 11837 net.cpp:444] res5a_branch2b_relu <- res5a_branch2b
I0712 18:14:50.337227 11837 net.cpp:405] res5a_branch2b_relu -> res5a_branch2b (in-place)
I0712 18:14:50.337437 11837 net.cpp:150] Setting up res5a_branch2b_relu
I0712 18:14:50.337446 11837 net.cpp:157] Top shape: 1 512 14 14 (100352)
I0712 18:14:50.337450 11837 net.cpp:165] Memory required for data: 230207524
I0712 18:14:50.337456 11837 layer_factory.hpp:77] Creating layer res5a_branch2c
I0712 18:14:50.337477 11837 net.cpp:100] Creating Layer res5a_branch2c
I0712 18:14:50.337484 11837 net.cpp:444] res5a_branch2c <- res5a_branch2b
I0712 18:14:50.337503 11837 net.cpp:418] res5a_branch2c -> res5a_branch2c
I0712 18:14:50.341665 11837 cudnn_conv_layer.cpp:194] Reallocating workspace storage: 7800
I0712 18:14:50.341701 11837 net.cpp:150] Setting up res5a_branch2c
I0712 18:14:50.341715 11837 net.cpp:157] Top shape: 1 2048 14 14 (401408)
I0712 18:14:50.341719 11837 net.cpp:165] Memory required for data: 231813156
I0712 18:14:50.341740 11837 layer_factory.hpp:77] Creating layer bn5a_branch2c
I0712 18:14:50.341769 11837 net.cpp:100] Creating Layer bn5a_branch2c
I0712 18:14:50.341780 11837 net.cpp:444] bn5a_branch2c <- res5a_branch2c
I0712 18:14:50.341801 11837 net.cpp:405] bn5a_branch2c -> res5a_branch2c (in-place)
I0712 18:14:50.342151 11837 net.cpp:150] Setting up bn5a_branch2c
I0712 18:14:50.342159 11837 net.cpp:157] Top shape: 1 2048 14 14 (401408)
I0712 18:14:50.342164 11837 net.cpp:165] Memory required for data: 233418788
I0712 18:14:50.342185 11837 layer_factory.hpp:77] Creating layer scale5a_branch2c
I0712 18:14:50.342203 11837 net.cpp:100] Creating Layer scale5a_branch2c
I0712 18:14:50.342211 11837 net.cpp:444] scale5a_branch2c <- res5a_branch2c
I0712 18:14:50.342228 11837 net.cpp:405] scale5a_branch2c -> res5a_branch2c (in-place)
I0712 18:14:50.342310 11837 layer_factory.hpp:77] Creating layer scale5a_branch2c
I0712 18:14:50.342526 11837 net.cpp:150] Setting up scale5a_branch2c
I0712 18:14:50.342535 11837 net.cpp:157] Top shape: 1 2048 14 14 (401408)
I0712 18:14:50.342538 11837 net.cpp:165] Memory required for data: 235024420
I0712 18:14:50.342555 11837 layer_factory.hpp:77] Creating layer res5a
I0712 18:14:50.342571 11837 net.cpp:100] Creating Layer res5a
I0712 18:14:50.342577 11837 net.cpp:444] res5a <- res5a_branch1
I0712 18:14:50.342591 11837 net.cpp:444] res5a <- res5a_branch2c
I0712 18:14:50.342605 11837 net.cpp:418] res5a -> res5a
I0712 18:14:50.342658 11837 net.cpp:150] Setting up res5a
I0712 18:14:50.342669 11837 net.cpp:157] Top shape: 1 2048 14 14 (401408)
I0712 18:14:50.342674 11837 net.cpp:165] Memory required for data: 236630052
I0712 18:14:50.342679 11837 layer_factory.hpp:77] Creating layer res5a_relu
I0712 18:14:50.342694 11837 net.cpp:100] Creating Layer res5a_relu
I0712 18:14:50.342701 11837 net.cpp:444] res5a_relu <- res5a
I0712 18:14:50.342716 11837 net.cpp:405] res5a_relu -> res5a (in-place)
I0712 18:14:50.343222 11837 net.cpp:150] Setting up res5a_relu
I0712 18:14:50.343235 11837 net.cpp:157] Top shape: 1 2048 14 14 (401408)
I0712 18:14:50.343238 11837 net.cpp:165] Memory required for data: 238235684
I0712 18:14:50.343245 11837 layer_factory.hpp:77] Creating layer res5a_res5a_relu_0_split
I0712 18:14:50.343261 11837 net.cpp:100] Creating Layer res5a_res5a_relu_0_split
I0712 18:14:50.343268 11837 net.cpp:444] res5a_res5a_relu_0_split <- res5a
I0712 18:14:50.343286 11837 net.cpp:418] res5a_res5a_relu_0_split -> res5a_res5a_relu_0_split_0
I0712 18:14:50.343307 11837 net.cpp:418] res5a_res5a_relu_0_split -> res5a_res5a_relu_0_split_1
I0712 18:14:50.343384 11837 net.cpp:150] Setting up res5a_res5a_relu_0_split
I0712 18:14:50.343394 11837 net.cpp:157] Top shape: 1 2048 14 14 (401408)
I0712 18:14:50.343401 11837 net.cpp:157] Top shape: 1 2048 14 14 (401408)
I0712 18:14:50.343405 11837 net.cpp:165] Memory required for data: 241446948
I0712 18:14:50.343411 11837 layer_factory.hpp:77] Creating layer res5b_branch2a
I0712 18:14:50.343431 11837 net.cpp:100] Creating Layer res5b_branch2a
I0712 18:14:50.343439 11837 net.cpp:444] res5b_branch2a <- res5a_res5a_relu_0_split_0
I0712 18:14:50.343458 11837 net.cpp:418] res5b_branch2a -> res5b_branch2a
I0712 18:14:50.347564 11837 cudnn_conv_layer.cpp:194] Reallocating workspace storage: 10080
I0712 18:14:50.347600 11837 net.cpp:150] Setting up res5b_branch2a
I0712 18:14:50.347617 11837 net.cpp:157] Top shape: 1 512 14 14 (100352)
I0712 18:14:50.347621 11837 net.cpp:165] Memory required for data: 241848356
I0712 18:14:50.347642 11837 layer_factory.hpp:77] Creating layer bn5b_branch2a
I0712 18:14:50.347666 11837 net.cpp:100] Creating Layer bn5b_branch2a
I0712 18:14:50.347678 11837 net.cpp:444] bn5b_branch2a <- res5b_branch2a
I0712 18:14:50.347700 11837 net.cpp:405] bn5b_branch2a -> res5b_branch2a (in-place)
I0712 18:14:50.348047 11837 net.cpp:150] Setting up bn5b_branch2a
I0712 18:14:50.348057 11837 net.cpp:157] Top shape: 1 512 14 14 (100352)
I0712 18:14:50.348059 11837 net.cpp:165] Memory required for data: 242249764
I0712 18:14:50.348080 11837 layer_factory.hpp:77] Creating layer scale5b_branch2a
I0712 18:14:50.348100 11837 net.cpp:100] Creating Layer scale5b_branch2a
I0712 18:14:50.348109 11837 net.cpp:444] scale5b_branch2a <- res5b_branch2a
I0712 18:14:50.348125 11837 net.cpp:405] scale5b_branch2a -> res5b_branch2a (in-place)
I0712 18:14:50.348202 11837 layer_factory.hpp:77] Creating layer scale5b_branch2a
I0712 18:14:50.348419 11837 net.cpp:150] Setting up scale5b_branch2a
I0712 18:14:50.348428 11837 net.cpp:157] Top shape: 1 512 14 14 (100352)
I0712 18:14:50.348433 11837 net.cpp:165] Memory required for data: 242651172
I0712 18:14:50.348448 11837 layer_factory.hpp:77] Creating layer res5b_branch2a_relu
I0712 18:14:50.348461 11837 net.cpp:100] Creating Layer res5b_branch2a_relu
I0712 18:14:50.348469 11837 net.cpp:444] res5b_branch2a_relu <- res5b_branch2a
I0712 18:14:50.348484 11837 net.cpp:405] res5b_branch2a_relu -> res5b_branch2a (in-place)
I0712 18:14:50.348657 11837 net.cpp:150] Setting up res5b_branch2a_relu
I0712 18:14:50.348666 11837 net.cpp:157] Top shape: 1 512 14 14 (100352)
I0712 18:14:50.348670 11837 net.cpp:165] Memory required for data: 243052580
I0712 18:14:50.348676 11837 layer_factory.hpp:77] Creating layer res5b_branch2b
I0712 18:14:50.348697 11837 net.cpp:100] Creating Layer res5b_branch2b
I0712 18:14:50.348704 11837 net.cpp:444] res5b_branch2b <- res5b_branch2a
I0712 18:14:50.348723 11837 net.cpp:418] res5b_branch2b -> res5b_branch2b
I0712 18:14:50.355173 11837 net.cpp:150] Setting up res5b_branch2b
I0712 18:14:50.355204 11837 net.cpp:157] Top shape: 1 512 14 14 (100352)
I0712 18:14:50.355208 11837 net.cpp:165] Memory required for data: 243453988
I0712 18:14:50.355233 11837 layer_factory.hpp:77] Creating layer bn5b_branch2b
I0712 18:14:50.355269 11837 net.cpp:100] Creating Layer bn5b_branch2b
I0712 18:14:50.355283 11837 net.cpp:444] bn5b_branch2b <- res5b_branch2b
I0712 18:14:50.355306 11837 net.cpp:405] bn5b_branch2b -> res5b_branch2b (in-place)
I0712 18:14:50.355672 11837 net.cpp:150] Setting up bn5b_branch2b
I0712 18:14:50.355681 11837 net.cpp:157] Top shape: 1 512 14 14 (100352)
I0712 18:14:50.355685 11837 net.cpp:165] Memory required for data: 243855396
I0712 18:14:50.355705 11837 layer_factory.hpp:77] Creating layer scale5b_branch2b
I0712 18:14:50.355726 11837 net.cpp:100] Creating Layer scale5b_branch2b
I0712 18:14:50.355734 11837 net.cpp:444] scale5b_branch2b <- res5b_branch2b
I0712 18:14:50.355751 11837 net.cpp:405] scale5b_branch2b -> res5b_branch2b (in-place)
I0712 18:14:50.355831 11837 layer_factory.hpp:77] Creating layer scale5b_branch2b
I0712 18:14:50.356050 11837 net.cpp:150] Setting up scale5b_branch2b
I0712 18:14:50.356060 11837 net.cpp:157] Top shape: 1 512 14 14 (100352)
I0712 18:14:50.356063 11837 net.cpp:165] Memory required for data: 244256804
I0712 18:14:50.356078 11837 layer_factory.hpp:77] Creating layer res5b_branch2b_relu
I0712 18:14:50.356092 11837 net.cpp:100] Creating Layer res5b_branch2b_relu
I0712 18:14:50.356101 11837 net.cpp:444] res5b_branch2b_relu <- res5b_branch2b
I0712 18:14:50.356117 11837 net.cpp:405] res5b_branch2b_relu -> res5b_branch2b (in-place)
I0712 18:14:50.356333 11837 net.cpp:150] Setting up res5b_branch2b_relu
I0712 18:14:50.356341 11837 net.cpp:157] Top shape: 1 512 14 14 (100352)
I0712 18:14:50.356345 11837 net.cpp:165] Memory required for data: 244658212
I0712 18:14:50.356351 11837 layer_factory.hpp:77] Creating layer res5b_branch2c
I0712 18:14:50.356374 11837 net.cpp:100] Creating Layer res5b_branch2c
I0712 18:14:50.356382 11837 net.cpp:444] res5b_branch2c <- res5b_branch2b
I0712 18:14:50.356402 11837 net.cpp:418] res5b_branch2c -> res5b_branch2c
I0712 18:14:50.360775 11837 cudnn_conv_layer.cpp:194] Reallocating workspace storage: 7800
I0712 18:14:50.360817 11837 net.cpp:150] Setting up res5b_branch2c
I0712 18:14:50.360836 11837 net.cpp:157] Top shape: 1 2048 14 14 (401408)
I0712 18:14:50.360841 11837 net.cpp:165] Memory required for data: 246263844
I0712 18:14:50.360865 11837 layer_factory.hpp:77] Creating layer bn5b_branch2c
I0712 18:14:50.360895 11837 net.cpp:100] Creating Layer bn5b_branch2c
I0712 18:14:50.360908 11837 net.cpp:444] bn5b_branch2c <- res5b_branch2c
I0712 18:14:50.360934 11837 net.cpp:405] bn5b_branch2c -> res5b_branch2c (in-place)
I0712 18:14:50.361289 11837 net.cpp:150] Setting up bn5b_branch2c
I0712 18:14:50.361299 11837 net.cpp:157] Top shape: 1 2048 14 14 (401408)
I0712 18:14:50.361301 11837 net.cpp:165] Memory required for data: 247869476
I0712 18:14:50.361322 11837 layer_factory.hpp:77] Creating layer scale5b_branch2c
I0712 18:14:50.361342 11837 net.cpp:100] Creating Layer scale5b_branch2c
I0712 18:14:50.361351 11837 net.cpp:444] scale5b_branch2c <- res5b_branch2c
I0712 18:14:50.361366 11837 net.cpp:405] scale5b_branch2c -> res5b_branch2c (in-place)
I0712 18:14:50.361449 11837 layer_factory.hpp:77] Creating layer scale5b_branch2c
I0712 18:14:50.361685 11837 net.cpp:150] Setting up scale5b_branch2c
I0712 18:14:50.361696 11837 net.cpp:157] Top shape: 1 2048 14 14 (401408)
I0712 18:14:50.361699 11837 net.cpp:165] Memory required for data: 249475108
I0712 18:14:50.361714 11837 layer_factory.hpp:77] Creating layer res5b
I0712 18:14:50.361729 11837 net.cpp:100] Creating Layer res5b
I0712 18:14:50.361737 11837 net.cpp:444] res5b <- res5a_res5a_relu_0_split_1
I0712 18:14:50.361752 11837 net.cpp:444] res5b <- res5b_branch2c
I0712 18:14:50.361766 11837 net.cpp:418] res5b -> res5b
I0712 18:14:50.361820 11837 net.cpp:150] Setting up res5b
I0712 18:14:50.361831 11837 net.cpp:157] Top shape: 1 2048 14 14 (401408)
I0712 18:14:50.361835 11837 net.cpp:165] Memory required for data: 251080740
I0712 18:14:50.361841 11837 layer_factory.hpp:77] Creating layer res5b_relu
I0712 18:14:50.361855 11837 net.cpp:100] Creating Layer res5b_relu
I0712 18:14:50.361862 11837 net.cpp:444] res5b_relu <- res5b
I0712 18:14:50.361877 11837 net.cpp:405] res5b_relu -> res5b (in-place)
I0712 18:14:50.362411 11837 net.cpp:150] Setting up res5b_relu
I0712 18:14:50.362421 11837 net.cpp:157] Top shape: 1 2048 14 14 (401408)
I0712 18:14:50.362424 11837 net.cpp:165] Memory required for data: 252686372
I0712 18:14:50.362432 11837 layer_factory.hpp:77] Creating layer res5b_res5b_relu_0_split
I0712 18:14:50.362447 11837 net.cpp:100] Creating Layer res5b_res5b_relu_0_split
I0712 18:14:50.362454 11837 net.cpp:444] res5b_res5b_relu_0_split <- res5b
I0712 18:14:50.362473 11837 net.cpp:418] res5b_res5b_relu_0_split -> res5b_res5b_relu_0_split_0
I0712 18:14:50.362494 11837 net.cpp:418] res5b_res5b_relu_0_split -> res5b_res5b_relu_0_split_1
I0712 18:14:50.362571 11837 net.cpp:150] Setting up res5b_res5b_relu_0_split
I0712 18:14:50.362581 11837 net.cpp:157] Top shape: 1 2048 14 14 (401408)
I0712 18:14:50.362588 11837 net.cpp:157] Top shape: 1 2048 14 14 (401408)
I0712 18:14:50.362592 11837 net.cpp:165] Memory required for data: 255897636
I0712 18:14:50.362598 11837 layer_factory.hpp:77] Creating layer res5c_branch2a
I0712 18:14:50.362619 11837 net.cpp:100] Creating Layer res5c_branch2a
I0712 18:14:50.362627 11837 net.cpp:444] res5c_branch2a <- res5b_res5b_relu_0_split_0
I0712 18:14:50.362646 11837 net.cpp:418] res5c_branch2a -> res5c_branch2a
I0712 18:14:50.366753 11837 cudnn_conv_layer.cpp:194] Reallocating workspace storage: 10080
I0712 18:14:50.366791 11837 net.cpp:150] Setting up res5c_branch2a
I0712 18:14:50.366806 11837 net.cpp:157] Top shape: 1 512 14 14 (100352)
I0712 18:14:50.366809 11837 net.cpp:165] Memory required for data: 256299044
I0712 18:14:50.366830 11837 layer_factory.hpp:77] Creating layer bn5c_branch2a
I0712 18:14:50.366858 11837 net.cpp:100] Creating Layer bn5c_branch2a
I0712 18:14:50.366868 11837 net.cpp:444] bn5c_branch2a <- res5c_branch2a
I0712 18:14:50.366888 11837 net.cpp:405] bn5c_branch2a -> res5c_branch2a (in-place)
I0712 18:14:50.367239 11837 net.cpp:150] Setting up bn5c_branch2a
I0712 18:14:50.367247 11837 net.cpp:157] Top shape: 1 512 14 14 (100352)
I0712 18:14:50.367251 11837 net.cpp:165] Memory required for data: 256700452
I0712 18:14:50.367272 11837 layer_factory.hpp:77] Creating layer scale5c_branch2a
I0712 18:14:50.367292 11837 net.cpp:100] Creating Layer scale5c_branch2a
I0712 18:14:50.367300 11837 net.cpp:444] scale5c_branch2a <- res5c_branch2a
I0712 18:14:50.367316 11837 net.cpp:405] scale5c_branch2a -> res5c_branch2a (in-place)
I0712 18:14:50.367395 11837 layer_factory.hpp:77] Creating layer scale5c_branch2a
I0712 18:14:50.367611 11837 net.cpp:150] Setting up scale5c_branch2a
I0712 18:14:50.367620 11837 net.cpp:157] Top shape: 1 512 14 14 (100352)
I0712 18:14:50.367624 11837 net.cpp:165] Memory required for data: 257101860
I0712 18:14:50.367640 11837 layer_factory.hpp:77] Creating layer res5c_branch2a_relu
I0712 18:14:50.367653 11837 net.cpp:100] Creating Layer res5c_branch2a_relu
I0712 18:14:50.367661 11837 net.cpp:444] res5c_branch2a_relu <- res5c_branch2a
I0712 18:14:50.367677 11837 net.cpp:405] res5c_branch2a_relu -> res5c_branch2a (in-place)
I0712 18:14:50.367852 11837 net.cpp:150] Setting up res5c_branch2a_relu
I0712 18:14:50.367861 11837 net.cpp:157] Top shape: 1 512 14 14 (100352)
I0712 18:14:50.367864 11837 net.cpp:165] Memory required for data: 257503268
I0712 18:14:50.367871 11837 layer_factory.hpp:77] Creating layer res5c_branch2b
I0712 18:14:50.367893 11837 net.cpp:100] Creating Layer res5c_branch2b
I0712 18:14:50.367902 11837 net.cpp:444] res5c_branch2b <- res5c_branch2a
I0712 18:14:50.367923 11837 net.cpp:418] res5c_branch2b -> res5c_branch2b
I0712 18:14:50.374402 11837 net.cpp:150] Setting up res5c_branch2b
I0712 18:14:50.374438 11837 net.cpp:157] Top shape: 1 512 14 14 (100352)
I0712 18:14:50.374441 11837 net.cpp:165] Memory required for data: 257904676
I0712 18:14:50.374467 11837 layer_factory.hpp:77] Creating layer bn5c_branch2b
I0712 18:14:50.374505 11837 net.cpp:100] Creating Layer bn5c_branch2b
I0712 18:14:50.374521 11837 net.cpp:444] bn5c_branch2b <- res5c_branch2b
I0712 18:14:50.374547 11837 net.cpp:405] bn5c_branch2b -> res5c_branch2b (in-place)
I0712 18:14:50.374907 11837 net.cpp:150] Setting up bn5c_branch2b
I0712 18:14:50.374915 11837 net.cpp:157] Top shape: 1 512 14 14 (100352)
I0712 18:14:50.374918 11837 net.cpp:165] Memory required for data: 258306084
I0712 18:14:50.374940 11837 layer_factory.hpp:77] Creating layer scale5c_branch2b
I0712 18:14:50.374960 11837 net.cpp:100] Creating Layer scale5c_branch2b
I0712 18:14:50.374967 11837 net.cpp:444] scale5c_branch2b <- res5c_branch2b
I0712 18:14:50.374985 11837 net.cpp:405] scale5c_branch2b -> res5c_branch2b (in-place)
I0712 18:14:50.375066 11837 layer_factory.hpp:77] Creating layer scale5c_branch2b
I0712 18:14:50.375286 11837 net.cpp:150] Setting up scale5c_branch2b
I0712 18:14:50.375295 11837 net.cpp:157] Top shape: 1 512 14 14 (100352)
I0712 18:14:50.375299 11837 net.cpp:165] Memory required for data: 258707492
I0712 18:14:50.375314 11837 layer_factory.hpp:77] Creating layer res5c_branch2b_relu
I0712 18:14:50.375329 11837 net.cpp:100] Creating Layer res5c_branch2b_relu
I0712 18:14:50.375336 11837 net.cpp:444] res5c_branch2b_relu <- res5c_branch2b
I0712 18:14:50.375350 11837 net.cpp:405] res5c_branch2b_relu -> res5c_branch2b (in-place)
I0712 18:14:50.375567 11837 net.cpp:150] Setting up res5c_branch2b_relu
I0712 18:14:50.375576 11837 net.cpp:157] Top shape: 1 512 14 14 (100352)
I0712 18:14:50.375579 11837 net.cpp:165] Memory required for data: 259108900
I0712 18:14:50.375586 11837 layer_factory.hpp:77] Creating layer res5c_branch2c
I0712 18:14:50.375607 11837 net.cpp:100] Creating Layer res5c_branch2c
I0712 18:14:50.375615 11837 net.cpp:444] res5c_branch2c <- res5c_branch2b
I0712 18:14:50.375633 11837 net.cpp:418] res5c_branch2c -> res5c_branch2c
I0712 18:14:50.379864 11837 cudnn_conv_layer.cpp:194] Reallocating workspace storage: 7800
I0712 18:14:50.379901 11837 net.cpp:150] Setting up res5c_branch2c
I0712 18:14:50.379916 11837 net.cpp:157] Top shape: 1 2048 14 14 (401408)
I0712 18:14:50.379920 11837 net.cpp:165] Memory required for data: 260714532
I0712 18:14:50.379940 11837 layer_factory.hpp:77] Creating layer bn5c_branch2c
I0712 18:14:50.379964 11837 net.cpp:100] Creating Layer bn5c_branch2c
I0712 18:14:50.379976 11837 net.cpp:444] bn5c_branch2c <- res5c_branch2c
I0712 18:14:50.379997 11837 net.cpp:405] bn5c_branch2c -> res5c_branch2c (in-place)
I0712 18:14:50.380360 11837 net.cpp:150] Setting up bn5c_branch2c
I0712 18:14:50.380369 11837 net.cpp:157] Top shape: 1 2048 14 14 (401408)
I0712 18:14:50.380373 11837 net.cpp:165] Memory required for data: 262320164
I0712 18:14:50.380393 11837 layer_factory.hpp:77] Creating layer scale5c_branch2c
I0712 18:14:50.380412 11837 net.cpp:100] Creating Layer scale5c_branch2c
I0712 18:14:50.380420 11837 net.cpp:444] scale5c_branch2c <- res5c_branch2c
I0712 18:14:50.380439 11837 net.cpp:405] scale5c_branch2c -> res5c_branch2c (in-place)
I0712 18:14:50.380519 11837 layer_factory.hpp:77] Creating layer scale5c_branch2c
I0712 18:14:50.380744 11837 net.cpp:150] Setting up scale5c_branch2c
I0712 18:14:50.380753 11837 net.cpp:157] Top shape: 1 2048 14 14 (401408)
I0712 18:14:50.380758 11837 net.cpp:165] Memory required for data: 263925796
I0712 18:14:50.380772 11837 layer_factory.hpp:77] Creating layer res5c
I0712 18:14:50.380786 11837 net.cpp:100] Creating Layer res5c
I0712 18:14:50.380795 11837 net.cpp:444] res5c <- res5b_res5b_relu_0_split_1
I0712 18:14:50.380810 11837 net.cpp:444] res5c <- res5c_branch2c
I0712 18:14:50.380822 11837 net.cpp:418] res5c -> res5c
I0712 18:14:50.380880 11837 net.cpp:150] Setting up res5c
I0712 18:14:50.380892 11837 net.cpp:157] Top shape: 1 2048 14 14 (401408)
I0712 18:14:50.380895 11837 net.cpp:165] Memory required for data: 265531428
I0712 18:14:50.380903 11837 layer_factory.hpp:77] Creating layer res5c_relu
I0712 18:14:50.380915 11837 net.cpp:100] Creating Layer res5c_relu
I0712 18:14:50.380923 11837 net.cpp:444] res5c_relu <- res5c
I0712 18:14:50.380939 11837 net.cpp:405] res5c_relu -> res5c (in-place)
I0712 18:14:50.381114 11837 net.cpp:150] Setting up res5c_relu
I0712 18:14:50.381122 11837 net.cpp:157] Top shape: 1 2048 14 14 (401408)
I0712 18:14:50.381126 11837 net.cpp:165] Memory required for data: 267137060
I0712 18:14:50.381132 11837 layer_factory.hpp:77] Creating layer res5c_res5c_relu_0_split
I0712 18:14:50.381146 11837 net.cpp:100] Creating Layer res5c_res5c_relu_0_split
I0712 18:14:50.381155 11837 net.cpp:444] res5c_res5c_relu_0_split <- res5c
I0712 18:14:50.381170 11837 net.cpp:418] res5c_res5c_relu_0_split -> res5c_res5c_relu_0_split_0
I0712 18:14:50.381191 11837 net.cpp:418] res5c_res5c_relu_0_split -> res5c_res5c_relu_0_split_1
I0712 18:14:50.381265 11837 net.cpp:150] Setting up res5c_res5c_relu_0_split
I0712 18:14:50.381276 11837 net.cpp:157] Top shape: 1 2048 14 14 (401408)
I0712 18:14:50.381283 11837 net.cpp:157] Top shape: 1 2048 14 14 (401408)
I0712 18:14:50.381287 11837 net.cpp:165] Memory required for data: 270348324
I0712 18:14:50.381294 11837 layer_factory.hpp:77] Creating layer rpn_conv/3x3
I0712 18:14:50.381315 11837 net.cpp:100] Creating Layer rpn_conv/3x3
I0712 18:14:50.381325 11837 net.cpp:444] rpn_conv/3x3 <- res4f_res4f_relu_0_split_2
I0712 18:14:50.381345 11837 net.cpp:418] rpn_conv/3x3 -> rpn/output
I0712 18:14:50.954255 11837 cudnn_conv_layer.cpp:194] Reallocating workspace storage: 21676032
I0712 18:14:50.954592 11837 net.cpp:150] Setting up rpn_conv/3x3
I0712 18:14:50.954612 11837 net.cpp:157] Top shape: 1 512 14 14 (100352)
I0712 18:14:50.954615 11837 net.cpp:165] Memory required for data: 270749732
I0712 18:14:50.954638 11837 layer_factory.hpp:77] Creating layer rpn_relu/3x3
I0712 18:14:50.954663 11837 net.cpp:100] Creating Layer rpn_relu/3x3
I0712 18:14:50.954674 11837 net.cpp:444] rpn_relu/3x3 <- rpn/output
I0712 18:14:50.954694 11837 net.cpp:405] rpn_relu/3x3 -> rpn/output (in-place)
I0712 18:14:50.955139 11837 net.cpp:150] Setting up rpn_relu/3x3
I0712 18:14:50.955150 11837 net.cpp:157] Top shape: 1 512 14 14 (100352)
I0712 18:14:50.955154 11837 net.cpp:165] Memory required for data: 271151140
I0712 18:14:50.955160 11837 layer_factory.hpp:77] Creating layer rpn/output_rpn_relu/3x3_0_split
I0712 18:14:50.955174 11837 net.cpp:100] Creating Layer rpn/output_rpn_relu/3x3_0_split
I0712 18:14:50.955181 11837 net.cpp:444] rpn/output_rpn_relu/3x3_0_split <- rpn/output
I0712 18:14:50.955199 11837 net.cpp:418] rpn/output_rpn_relu/3x3_0_split -> rpn/output_rpn_relu/3x3_0_split_0
I0712 18:14:50.955219 11837 net.cpp:418] rpn/output_rpn_relu/3x3_0_split -> rpn/output_rpn_relu/3x3_0_split_1
I0712 18:14:50.955301 11837 net.cpp:150] Setting up rpn/output_rpn_relu/3x3_0_split
I0712 18:14:50.955310 11837 net.cpp:157] Top shape: 1 512 14 14 (100352)
I0712 18:14:50.955317 11837 net.cpp:157] Top shape: 1 512 14 14 (100352)
I0712 18:14:50.955320 11837 net.cpp:165] Memory required for data: 271953956
I0712 18:14:50.955327 11837 layer_factory.hpp:77] Creating layer rpn_cls_score
I0712 18:14:50.955350 11837 net.cpp:100] Creating Layer rpn_cls_score
I0712 18:14:50.955358 11837 net.cpp:444] rpn_cls_score <- rpn/output_rpn_relu/3x3_0_split_0
I0712 18:14:50.955379 11837 net.cpp:418] rpn_cls_score -> rpn_cls_score
I0712 18:14:50.957772 11837 cudnn_conv_layer.cpp:194] Reallocating workspace storage: 10080
I0712 18:14:50.957801 11837 net.cpp:150] Setting up rpn_cls_score
I0712 18:14:50.957810 11837 net.cpp:157] Top shape: 1 22 14 14 (4312)
I0712 18:14:50.957814 11837 net.cpp:165] Memory required for data: 271971204
I0712 18:14:50.957829 11837 layer_factory.hpp:77] Creating layer rpn_bbox_pred
I0712 18:14:50.957850 11837 net.cpp:100] Creating Layer rpn_bbox_pred
I0712 18:14:50.957859 11837 net.cpp:444] rpn_bbox_pred <- rpn/output_rpn_relu/3x3_0_split_1
I0712 18:14:50.957878 11837 net.cpp:418] rpn_bbox_pred -> rpn_bbox_pred
I0712 18:14:50.961536 11837 cudnn_conv_layer.cpp:194] Reallocating workspace storage: 10080
I0712 18:14:50.961567 11837 net.cpp:150] Setting up rpn_bbox_pred
I0712 18:14:50.961578 11837 net.cpp:157] Top shape: 1 44 14 14 (8624)
I0712 18:14:50.961582 11837 net.cpp:165] Memory required for data: 272005700
I0712 18:14:50.961596 11837 layer_factory.hpp:77] Creating layer rpn_cls_score_reshape
I0712 18:14:50.961612 11837 net.cpp:100] Creating Layer rpn_cls_score_reshape
I0712 18:14:50.961621 11837 net.cpp:444] rpn_cls_score_reshape <- rpn_cls_score
I0712 18:14:50.961637 11837 net.cpp:418] rpn_cls_score_reshape -> rpn_cls_score_reshape
I0712 18:14:50.961689 11837 net.cpp:150] Setting up rpn_cls_score_reshape
I0712 18:14:50.961699 11837 net.cpp:157] Top shape: 1 2 154 14 (4312)
I0712 18:14:50.961704 11837 net.cpp:165] Memory required for data: 272022948
I0712 18:14:50.961709 11837 layer_factory.hpp:77] Creating layer rpn_cls_prob
I0712 18:14:50.961721 11837 net.cpp:100] Creating Layer rpn_cls_prob
I0712 18:14:50.961729 11837 net.cpp:444] rpn_cls_prob <- rpn_cls_score_reshape
I0712 18:14:50.961742 11837 net.cpp:418] rpn_cls_prob -> rpn_cls_prob
I0712 18:14:50.961989 11837 net.cpp:150] Setting up rpn_cls_prob
I0712 18:14:50.961999 11837 net.cpp:157] Top shape: 1 2 154 14 (4312)
I0712 18:14:50.962002 11837 net.cpp:165] Memory required for data: 272040196
I0712 18:14:50.962008 11837 layer_factory.hpp:77] Creating layer rpn_cls_prob_reshape
I0712 18:14:50.962021 11837 net.cpp:100] Creating Layer rpn_cls_prob_reshape
I0712 18:14:50.962028 11837 net.cpp:444] rpn_cls_prob_reshape <- rpn_cls_prob
I0712 18:14:50.962046 11837 net.cpp:418] rpn_cls_prob_reshape -> rpn_cls_prob_reshape
I0712 18:14:50.962097 11837 net.cpp:150] Setting up rpn_cls_prob_reshape
I0712 18:14:50.962106 11837 net.cpp:157] Top shape: 1 22 14 14 (4312)
I0712 18:14:50.962110 11837 net.cpp:165] Memory required for data: 272057444
I0712 18:14:50.962116 11837 layer_factory.hpp:77] Creating layer proposal
I0712 18:14:50.962424 11837 net.cpp:100] Creating Layer proposal
I0712 18:14:50.962435 11837 net.cpp:444] proposal <- rpn_cls_prob_reshape
I0712 18:14:50.962448 11837 net.cpp:444] proposal <- rpn_bbox_pred
I0712 18:14:50.962457 11837 net.cpp:444] proposal <- im_info_input_1_split_0
I0712 18:14:50.962471 11837 net.cpp:418] proposal -> rois
I0712 18:14:50.963625 11837 net.cpp:150] Setting up proposal
I0712 18:14:50.963637 11837 net.cpp:157] Top shape: 1 5 (5)
I0712 18:14:50.963641 11837 net.cpp:165] Memory required for data: 272057464
I0712 18:14:50.963647 11837 layer_factory.hpp:77] Creating layer rois_proposal_0_split
I0712 18:14:50.963661 11837 net.cpp:100] Creating Layer rois_proposal_0_split
I0712 18:14:50.963668 11837 net.cpp:444] rois_proposal_0_split <- rois
I0712 18:14:50.963685 11837 net.cpp:418] rois_proposal_0_split -> rois_proposal_0_split_0
I0712 18:14:50.963703 11837 net.cpp:418] rois_proposal_0_split -> rois_proposal_0_split_1
I0712 18:14:50.963771 11837 net.cpp:150] Setting up rois_proposal_0_split
I0712 18:14:50.963780 11837 net.cpp:157] Top shape: 1 5 (5)
I0712 18:14:50.963786 11837 net.cpp:157] Top shape: 1 5 (5)
I0712 18:14:50.963789 11837 net.cpp:165] Memory required for data: 272057504
I0712 18:14:50.963795 11837 layer_factory.hpp:77] Creating layer rpn_conv_head/3x3
I0712 18:14:50.963814 11837 net.cpp:100] Creating Layer rpn_conv_head/3x3
I0712 18:14:50.963821 11837 net.cpp:444] rpn_conv_head/3x3 <- res4f_res4f_relu_0_split_3
I0712 18:14:50.963840 11837 net.cpp:418] rpn_conv_head/3x3 -> rpn_head/output
I0712 18:14:51.492601 11837 cudnn_conv_layer.cpp:194] Reallocating workspace storage: 21676032
I0712 18:14:51.492946 11837 net.cpp:150] Setting up rpn_conv_head/3x3
I0712 18:14:51.492965 11837 net.cpp:157] Top shape: 1 512 14 14 (100352)
I0712 18:14:51.492969 11837 net.cpp:165] Memory required for data: 272458912
I0712 18:14:51.492993 11837 layer_factory.hpp:77] Creating layer rpn_relu_head/3x3
I0712 18:14:51.493019 11837 net.cpp:100] Creating Layer rpn_relu_head/3x3
I0712 18:14:51.493032 11837 net.cpp:444] rpn_relu_head/3x3 <- rpn_head/output
I0712 18:14:51.493053 11837 net.cpp:405] rpn_relu_head/3x3 -> rpn_head/output (in-place)
I0712 18:14:51.493221 11837 net.cpp:150] Setting up rpn_relu_head/3x3
I0712 18:14:51.493228 11837 net.cpp:157] Top shape: 1 512 14 14 (100352)
I0712 18:14:51.493232 11837 net.cpp:165] Memory required for data: 272860320
I0712 18:14:51.493237 11837 layer_factory.hpp:77] Creating layer rpn_head/output_rpn_relu_head/3x3_0_split
I0712 18:14:51.493276 11837 net.cpp:100] Creating Layer rpn_head/output_rpn_relu_head/3x3_0_split
I0712 18:14:51.493284 11837 net.cpp:444] rpn_head/output_rpn_relu_head/3x3_0_split <- rpn_head/output
I0712 18:14:51.493299 11837 net.cpp:418] rpn_head/output_rpn_relu_head/3x3_0_split -> rpn_head/output_rpn_relu_head/3x3_0_split_0
I0712 18:14:51.493319 11837 net.cpp:418] rpn_head/output_rpn_relu_head/3x3_0_split -> rpn_head/output_rpn_relu_head/3x3_0_split_1
I0712 18:14:51.493397 11837 net.cpp:150] Setting up rpn_head/output_rpn_relu_head/3x3_0_split
I0712 18:14:51.493407 11837 net.cpp:157] Top shape: 1 512 14 14 (100352)
I0712 18:14:51.493413 11837 net.cpp:157] Top shape: 1 512 14 14 (100352)
I0712 18:14:51.493417 11837 net.cpp:165] Memory required for data: 273663136
I0712 18:14:51.493425 11837 layer_factory.hpp:77] Creating layer rpn_head_cls_score
I0712 18:14:51.493448 11837 net.cpp:100] Creating Layer rpn_head_cls_score
I0712 18:14:51.493455 11837 net.cpp:444] rpn_head_cls_score <- rpn_head/output_rpn_relu_head/3x3_0_split_0
I0712 18:14:51.493472 11837 net.cpp:418] rpn_head_cls_score -> rpn_head_cls_score
I0712 18:14:51.495913 11837 cudnn_conv_layer.cpp:194] Reallocating workspace storage: 10080
I0712 18:14:51.495944 11837 net.cpp:150] Setting up rpn_head_cls_score
I0712 18:14:51.495952 11837 net.cpp:157] Top shape: 1 22 14 14 (4312)
I0712 18:14:51.495956 11837 net.cpp:165] Memory required for data: 273680384
I0712 18:14:51.495970 11837 layer_factory.hpp:77] Creating layer rpn_head_bbox_pred
I0712 18:14:51.495991 11837 net.cpp:100] Creating Layer rpn_head_bbox_pred
I0712 18:14:51.495999 11837 net.cpp:444] rpn_head_bbox_pred <- rpn_head/output_rpn_relu_head/3x3_0_split_1
I0712 18:14:51.496019 11837 net.cpp:418] rpn_head_bbox_pred -> rpn_head_bbox_pred
I0712 18:14:51.499650 11837 cudnn_conv_layer.cpp:194] Reallocating workspace storage: 10080
I0712 18:14:51.499678 11837 net.cpp:150] Setting up rpn_head_bbox_pred
I0712 18:14:51.499688 11837 net.cpp:157] Top shape: 1 44 14 14 (8624)
I0712 18:14:51.499691 11837 net.cpp:165] Memory required for data: 273714880
I0712 18:14:51.499706 11837 layer_factory.hpp:77] Creating layer rpn_head_cls_score_reshape
I0712 18:14:51.499723 11837 net.cpp:100] Creating Layer rpn_head_cls_score_reshape
I0712 18:14:51.499730 11837 net.cpp:444] rpn_head_cls_score_reshape <- rpn_head_cls_score
I0712 18:14:51.499748 11837 net.cpp:418] rpn_head_cls_score_reshape -> rpn_head_cls_score_reshape
I0712 18:14:51.499802 11837 net.cpp:150] Setting up rpn_head_cls_score_reshape
I0712 18:14:51.499812 11837 net.cpp:157] Top shape: 1 2 154 14 (4312)
I0712 18:14:51.499815 11837 net.cpp:165] Memory required for data: 273732128
I0712 18:14:51.499821 11837 layer_factory.hpp:77] Creating layer rpn_head_cls_prob
I0712 18:14:51.499833 11837 net.cpp:100] Creating Layer rpn_head_cls_prob
I0712 18:14:51.499840 11837 net.cpp:444] rpn_head_cls_prob <- rpn_head_cls_score_reshape
I0712 18:14:51.499857 11837 net.cpp:418] rpn_head_cls_prob -> rpn_head_cls_prob
I0712 18:14:51.500394 11837 net.cpp:150] Setting up rpn_head_cls_prob
I0712 18:14:51.500406 11837 net.cpp:157] Top shape: 1 2 154 14 (4312)
I0712 18:14:51.500409 11837 net.cpp:165] Memory required for data: 273749376
I0712 18:14:51.500417 11837 layer_factory.hpp:77] Creating layer rpn_head_cls_prob_reshape
I0712 18:14:51.500432 11837 net.cpp:100] Creating Layer rpn_head_cls_prob_reshape
I0712 18:14:51.500440 11837 net.cpp:444] rpn_head_cls_prob_reshape <- rpn_head_cls_prob
I0712 18:14:51.500458 11837 net.cpp:418] rpn_head_cls_prob_reshape -> rpn_head_cls_prob_reshape
I0712 18:14:51.500525 11837 net.cpp:150] Setting up rpn_head_cls_prob_reshape
I0712 18:14:51.500536 11837 net.cpp:157] Top shape: 1 22 14 14 (4312)
I0712 18:14:51.500540 11837 net.cpp:165] Memory required for data: 273766624
I0712 18:14:51.500546 11837 layer_factory.hpp:77] Creating layer proposal_head
I0712 18:14:51.500597 11837 net.cpp:100] Creating Layer proposal_head
I0712 18:14:51.500605 11837 net.cpp:444] proposal_head <- rpn_head_cls_prob_reshape
I0712 18:14:51.500619 11837 net.cpp:444] proposal_head <- rpn_head_bbox_pred
I0712 18:14:51.500629 11837 net.cpp:444] proposal_head <- im_info_input_1_split_1
I0712 18:14:51.500643 11837 net.cpp:418] proposal_head -> rois_head
I0712 18:14:51.501775 11837 net.cpp:150] Setting up proposal_head
I0712 18:14:51.501788 11837 net.cpp:157] Top shape: 1 5 (5)
I0712 18:14:51.501792 11837 net.cpp:165] Memory required for data: 273766644
I0712 18:14:51.501798 11837 layer_factory.hpp:77] Creating layer rois_head_proposal_head_0_split
I0712 18:14:51.501811 11837 net.cpp:100] Creating Layer rois_head_proposal_head_0_split
I0712 18:14:51.501818 11837 net.cpp:444] rois_head_proposal_head_0_split <- rois_head
I0712 18:14:51.501835 11837 net.cpp:418] rois_head_proposal_head_0_split -> rois_head_proposal_head_0_split_0
I0712 18:14:51.501854 11837 net.cpp:418] rois_head_proposal_head_0_split -> rois_head_proposal_head_0_split_1
I0712 18:14:51.501921 11837 net.cpp:150] Setting up rois_head_proposal_head_0_split
I0712 18:14:51.501930 11837 net.cpp:157] Top shape: 1 5 (5)
I0712 18:14:51.501936 11837 net.cpp:157] Top shape: 1 5 (5)
I0712 18:14:51.501940 11837 net.cpp:165] Memory required for data: 273766684
I0712 18:14:51.501945 11837 layer_factory.hpp:77] Creating layer conv_new_1
I0712 18:14:51.501963 11837 net.cpp:100] Creating Layer conv_new_1
I0712 18:14:51.501971 11837 net.cpp:444] conv_new_1 <- res5c_res5c_relu_0_split_0
I0712 18:14:51.501989 11837 net.cpp:418] conv_new_1 -> conv_new_1
I0712 18:14:51.737043 11837 cudnn_conv_layer.cpp:194] Reallocating workspace storage: 10080
I0712 18:14:51.737082 11837 net.cpp:150] Setting up conv_new_1
I0712 18:14:51.737097 11837 net.cpp:157] Top shape: 1 1024 14 14 (200704)
I0712 18:14:51.737100 11837 net.cpp:165] Memory required for data: 274569500
I0712 18:14:51.737123 11837 layer_factory.hpp:77] Creating layer conv_new_1_relu
I0712 18:14:51.737150 11837 net.cpp:100] Creating Layer conv_new_1_relu
I0712 18:14:51.737162 11837 net.cpp:444] conv_new_1_relu <- conv_new_1
I0712 18:14:51.737184 11837 net.cpp:405] conv_new_1_relu -> conv_new_1 (in-place)
I0712 18:14:51.737345 11837 net.cpp:150] Setting up conv_new_1_relu
I0712 18:14:51.737354 11837 net.cpp:157] Top shape: 1 1024 14 14 (200704)
I0712 18:14:51.737356 11837 net.cpp:165] Memory required for data: 275372316
I0712 18:14:51.737362 11837 layer_factory.hpp:77] Creating layer conv_new_1_conv_new_1_relu_0_split
I0712 18:14:51.737375 11837 net.cpp:100] Creating Layer conv_new_1_conv_new_1_relu_0_split
I0712 18:14:51.737381 11837 net.cpp:444] conv_new_1_conv_new_1_relu_0_split <- conv_new_1
I0712 18:14:51.737398 11837 net.cpp:418] conv_new_1_conv_new_1_relu_0_split -> conv_new_1_conv_new_1_relu_0_split_0
I0712 18:14:51.737417 11837 net.cpp:418] conv_new_1_conv_new_1_relu_0_split -> conv_new_1_conv_new_1_relu_0_split_1
I0712 18:14:51.737496 11837 net.cpp:150] Setting up conv_new_1_conv_new_1_relu_0_split
I0712 18:14:51.737506 11837 net.cpp:157] Top shape: 1 1024 14 14 (200704)
I0712 18:14:51.737512 11837 net.cpp:157] Top shape: 1 1024 14 14 (200704)
I0712 18:14:51.737515 11837 net.cpp:165] Memory required for data: 276977948
I0712 18:14:51.737521 11837 layer_factory.hpp:77] Creating layer rfcn_cls
I0712 18:14:51.737545 11837 net.cpp:100] Creating Layer rfcn_cls
I0712 18:14:51.737555 11837 net.cpp:444] rfcn_cls <- conv_new_1_conv_new_1_relu_0_split_0
I0712 18:14:51.737577 11837 net.cpp:418] rfcn_cls -> rfcn_cls
I0712 18:14:51.755590 11837 cudnn_conv_layer.cpp:194] Reallocating workspace storage: 10080
I0712 18:14:51.755630 11837 net.cpp:150] Setting up rfcn_cls
I0712 18:14:51.755645 11837 net.cpp:157] Top shape: 1 147 14 14 (28812)
I0712 18:14:51.755648 11837 net.cpp:165] Memory required for data: 277093196
I0712 18:14:51.755669 11837 layer_factory.hpp:77] Creating layer rfcn_bbox
I0712 18:14:51.755702 11837 net.cpp:100] Creating Layer rfcn_bbox
I0712 18:14:51.755712 11837 net.cpp:444] rfcn_bbox <- conv_new_1_conv_new_1_relu_0_split_1
I0712 18:14:51.755735 11837 net.cpp:418] rfcn_bbox -> rfcn_bbox
I0712 18:14:51.802389 11837 cudnn_conv_layer.cpp:194] Reallocating workspace storage: 10080
I0712 18:14:51.802428 11837 net.cpp:150] Setting up rfcn_bbox
I0712 18:14:51.802443 11837 net.cpp:157] Top shape: 1 392 14 14 (76832)
I0712 18:14:51.802446 11837 net.cpp:165] Memory required for data: 277400524
I0712 18:14:51.802470 11837 layer_factory.hpp:77] Creating layer head_conv_new_1
I0712 18:14:51.802506 11837 net.cpp:100] Creating Layer head_conv_new_1
I0712 18:14:51.802520 11837 net.cpp:444] head_conv_new_1 <- res5c_res5c_relu_0_split_1
I0712 18:14:51.802543 11837 net.cpp:418] head_conv_new_1 -> head_conv_new_1
I0712 18:14:52.037883 11837 cudnn_conv_layer.cpp:194] Reallocating workspace storage: 10080
I0712 18:14:52.037923 11837 net.cpp:150] Setting up head_conv_new_1
I0712 18:14:52.037938 11837 net.cpp:157] Top shape: 1 1024 14 14 (200704)
I0712 18:14:52.037942 11837 net.cpp:165] Memory required for data: 278203340
I0712 18:14:52.037964 11837 layer_factory.hpp:77] Creating layer head_conv_new_1_relu
I0712 18:14:52.037993 11837 net.cpp:100] Creating Layer head_conv_new_1_relu
I0712 18:14:52.038004 11837 net.cpp:444] head_conv_new_1_relu <- head_conv_new_1
I0712 18:14:52.038024 11837 net.cpp:405] head_conv_new_1_relu -> head_conv_new_1 (in-place)
I0712 18:14:52.038187 11837 net.cpp:150] Setting up head_conv_new_1_relu
I0712 18:14:52.038195 11837 net.cpp:157] Top shape: 1 1024 14 14 (200704)
I0712 18:14:52.038198 11837 net.cpp:165] Memory required for data: 279006156
I0712 18:14:52.038203 11837 layer_factory.hpp:77] Creating layer head_conv_new_1_head_conv_new_1_relu_0_split
I0712 18:14:52.038216 11837 net.cpp:100] Creating Layer head_conv_new_1_head_conv_new_1_relu_0_split
I0712 18:14:52.038223 11837 net.cpp:444] head_conv_new_1_head_conv_new_1_relu_0_split <- head_conv_new_1
I0712 18:14:52.038240 11837 net.cpp:418] head_conv_new_1_head_conv_new_1_relu_0_split -> head_conv_new_1_head_conv_new_1_relu_0_split_0
I0712 18:14:52.038259 11837 net.cpp:418] head_conv_new_1_head_conv_new_1_relu_0_split -> head_conv_new_1_head_conv_new_1_relu_0_split_1
I0712 18:14:52.038341 11837 net.cpp:150] Setting up head_conv_new_1_head_conv_new_1_relu_0_split
I0712 18:14:52.038352 11837 net.cpp:157] Top shape: 1 1024 14 14 (200704)
I0712 18:14:52.038357 11837 net.cpp:157] Top shape: 1 1024 14 14 (200704)
I0712 18:14:52.038360 11837 net.cpp:165] Memory required for data: 280611788
I0712 18:14:52.038367 11837 layer_factory.hpp:77] Creating layer head_rfcn_cls
I0712 18:14:52.038389 11837 net.cpp:100] Creating Layer head_rfcn_cls
I0712 18:14:52.038396 11837 net.cpp:444] head_rfcn_cls <- head_conv_new_1_head_conv_new_1_relu_0_split_0
I0712 18:14:52.038415 11837 net.cpp:418] head_rfcn_cls -> head_rfcn_cls
I0712 18:14:52.057675 11837 cudnn_conv_layer.cpp:194] Reallocating workspace storage: 10080
I0712 18:14:52.057715 11837 net.cpp:150] Setting up head_rfcn_cls
I0712 18:14:52.057730 11837 net.cpp:157] Top shape: 1 147 14 14 (28812)
I0712 18:14:52.057734 11837 net.cpp:165] Memory required for data: 280727036
I0712 18:14:52.057756 11837 layer_factory.hpp:77] Creating layer head_rfcn_bbox
I0712 18:14:52.057791 11837 net.cpp:100] Creating Layer head_rfcn_bbox
I0712 18:14:52.057804 11837 net.cpp:444] head_rfcn_bbox <- head_conv_new_1_head_conv_new_1_relu_0_split_1
I0712 18:14:52.057829 11837 net.cpp:418] head_rfcn_bbox -> head_rfcn_bbox
I0712 18:14:52.104470 11837 cudnn_conv_layer.cpp:194] Reallocating workspace storage: 10080
I0712 18:14:52.104509 11837 net.cpp:150] Setting up head_rfcn_bbox
I0712 18:14:52.104524 11837 net.cpp:157] Top shape: 1 392 14 14 (76832)
I0712 18:14:52.104527 11837 net.cpp:165] Memory required for data: 281034364
I0712 18:14:52.104552 11837 layer_factory.hpp:77] Creating layer psroipooled_cls_rois
I0712 18:14:52.104579 11837 net.cpp:100] Creating Layer psroipooled_cls_rois
I0712 18:14:52.104591 11837 net.cpp:444] psroipooled_cls_rois <- rfcn_cls
I0712 18:14:52.104609 11837 net.cpp:444] psroipooled_cls_rois <- rois_proposal_0_split_0
I0712 18:14:52.104624 11837 net.cpp:418] psroipooled_cls_rois -> psroipooled_cls_rois
I0712 18:14:52.104646 11837 psroi_pooling_layer.cpp:26] Spatial scale: 0.0625
I0712 18:14:52.104728 11837 net.cpp:150] Setting up psroipooled_cls_rois
I0712 18:14:52.104737 11837 net.cpp:157] Top shape: 1 3 7 7 (147)
I0712 18:14:52.104741 11837 net.cpp:165] Memory required for data: 281034952
I0712 18:14:52.104748 11837 layer_factory.hpp:77] Creating layer ave_cls_score_rois
I0712 18:14:52.104763 11837 net.cpp:100] Creating Layer ave_cls_score_rois
I0712 18:14:52.104769 11837 net.cpp:444] ave_cls_score_rois <- psroipooled_cls_rois
I0712 18:14:52.104785 11837 net.cpp:418] ave_cls_score_rois -> cls_score
I0712 18:14:52.105309 11837 net.cpp:150] Setting up ave_cls_score_rois
I0712 18:14:52.105320 11837 net.cpp:157] Top shape: 1 3 1 1 (3)
I0712 18:14:52.105324 11837 net.cpp:165] Memory required for data: 281034964
I0712 18:14:52.105330 11837 layer_factory.hpp:77] Creating layer psroipooled_loc_rois
I0712 18:14:52.105345 11837 net.cpp:100] Creating Layer psroipooled_loc_rois
I0712 18:14:52.105353 11837 net.cpp:444] psroipooled_loc_rois <- rfcn_bbox
I0712 18:14:52.105367 11837 net.cpp:444] psroipooled_loc_rois <- rois_proposal_0_split_1
I0712 18:14:52.105379 11837 net.cpp:418] psroipooled_loc_rois -> psroipooled_loc_rois
I0712 18:14:52.105398 11837 psroi_pooling_layer.cpp:26] Spatial scale: 0.0625
I0712 18:14:52.105463 11837 net.cpp:150] Setting up psroipooled_loc_rois
I0712 18:14:52.105473 11837 net.cpp:157] Top shape: 1 8 7 7 (392)
I0712 18:14:52.105476 11837 net.cpp:165] Memory required for data: 281036532
I0712 18:14:52.105481 11837 layer_factory.hpp:77] Creating layer ave_bbox_pred_rois
I0712 18:14:52.105497 11837 net.cpp:100] Creating Layer ave_bbox_pred_rois
I0712 18:14:52.105504 11837 net.cpp:444] ave_bbox_pred_rois <- psroipooled_loc_rois
I0712 18:14:52.105521 11837 net.cpp:418] ave_bbox_pred_rois -> bbox_pred_pre
I0712 18:14:52.105710 11837 net.cpp:150] Setting up ave_bbox_pred_rois
I0712 18:14:52.105720 11837 net.cpp:157] Top shape: 1 8 1 1 (8)
I0712 18:14:52.105723 11837 net.cpp:165] Memory required for data: 281036564
I0712 18:14:52.105729 11837 layer_factory.hpp:77] Creating layer head_psroipooled_cls_rois
I0712 18:14:52.105744 11837 net.cpp:100] Creating Layer head_psroipooled_cls_rois
I0712 18:14:52.105751 11837 net.cpp:444] head_psroipooled_cls_rois <- head_rfcn_cls
I0712 18:14:52.105764 11837 net.cpp:444] head_psroipooled_cls_rois <- rois_head_proposal_head_0_split_0
I0712 18:14:52.105778 11837 net.cpp:418] head_psroipooled_cls_rois -> head_psroipooled_cls_rois
I0712 18:14:52.105796 11837 psroi_pooling_layer.cpp:26] Spatial scale: 0.0625
I0712 18:14:52.105860 11837 net.cpp:150] Setting up head_psroipooled_cls_rois
I0712 18:14:52.105868 11837 net.cpp:157] Top shape: 1 3 7 7 (147)
I0712 18:14:52.105872 11837 net.cpp:165] Memory required for data: 281037152
I0712 18:14:52.105878 11837 layer_factory.hpp:77] Creating layer head_ave_cls_score_rois
I0712 18:14:52.105892 11837 net.cpp:100] Creating Layer head_ave_cls_score_rois
I0712 18:14:52.105898 11837 net.cpp:444] head_ave_cls_score_rois <- head_psroipooled_cls_rois
I0712 18:14:52.105916 11837 net.cpp:418] head_ave_cls_score_rois -> head_cls_score
I0712 18:14:52.106096 11837 net.cpp:150] Setting up head_ave_cls_score_rois
I0712 18:14:52.106106 11837 net.cpp:157] Top shape: 1 3 1 1 (3)
I0712 18:14:52.106109 11837 net.cpp:165] Memory required for data: 281037164
I0712 18:14:52.106115 11837 layer_factory.hpp:77] Creating layer head_psroipooled_loc_rois
I0712 18:14:52.106129 11837 net.cpp:100] Creating Layer head_psroipooled_loc_rois
I0712 18:14:52.106137 11837 net.cpp:444] head_psroipooled_loc_rois <- head_rfcn_bbox
I0712 18:14:52.106151 11837 net.cpp:444] head_psroipooled_loc_rois <- rois_head_proposal_head_0_split_1
I0712 18:14:52.106165 11837 net.cpp:418] head_psroipooled_loc_rois -> head_psroipooled_loc_rois
I0712 18:14:52.106182 11837 psroi_pooling_layer.cpp:26] Spatial scale: 0.0625
I0712 18:14:52.106246 11837 net.cpp:150] Setting up head_psroipooled_loc_rois
I0712 18:14:52.106254 11837 net.cpp:157] Top shape: 1 8 7 7 (392)
I0712 18:14:52.106258 11837 net.cpp:165] Memory required for data: 281038732
I0712 18:14:52.106264 11837 layer_factory.hpp:77] Creating layer head_ave_bbox_pred_rois
I0712 18:14:52.106278 11837 net.cpp:100] Creating Layer head_ave_bbox_pred_rois
I0712 18:14:52.106284 11837 net.cpp:444] head_ave_bbox_pred_rois <- head_psroipooled_loc_rois
I0712 18:14:52.106302 11837 net.cpp:418] head_ave_bbox_pred_rois -> head_bbox_pred_pre
I0712 18:14:52.106485 11837 net.cpp:150] Setting up head_ave_bbox_pred_rois
I0712 18:14:52.106495 11837 net.cpp:157] Top shape: 1 8 1 1 (8)
I0712 18:14:52.106499 11837 net.cpp:165] Memory required for data: 281038764
I0712 18:14:52.106504 11837 layer_factory.hpp:77] Creating layer cls_prob
I0712 18:14:52.106518 11837 net.cpp:100] Creating Layer cls_prob
I0712 18:14:52.106525 11837 net.cpp:444] cls_prob <- cls_score
I0712 18:14:52.106541 11837 net.cpp:418] cls_prob -> cls_prob_pre
I0712 18:14:52.107091 11837 net.cpp:150] Setting up cls_prob
I0712 18:14:52.107103 11837 net.cpp:157] Top shape: 1 3 1 1 (3)
I0712 18:14:52.107106 11837 net.cpp:165] Memory required for data: 281038776
I0712 18:14:52.107113 11837 layer_factory.hpp:77] Creating layer cls_prob_reshape
I0712 18:14:52.107131 11837 net.cpp:100] Creating Layer cls_prob_reshape
I0712 18:14:52.107139 11837 net.cpp:444] cls_prob_reshape <- cls_prob_pre
I0712 18:14:52.107156 11837 net.cpp:418] cls_prob_reshape -> cls_prob
I0712 18:14:52.107208 11837 net.cpp:150] Setting up cls_prob_reshape
I0712 18:14:52.107216 11837 net.cpp:157] Top shape: 1 3 (3)
I0712 18:14:52.107220 11837 net.cpp:165] Memory required for data: 281038788
I0712 18:14:52.107226 11837 layer_factory.hpp:77] Creating layer bbox_pred_reshape
I0712 18:14:52.107239 11837 net.cpp:100] Creating Layer bbox_pred_reshape
I0712 18:14:52.107245 11837 net.cpp:444] bbox_pred_reshape <- bbox_pred_pre
I0712 18:14:52.107262 11837 net.cpp:418] bbox_pred_reshape -> bbox_pred
I0712 18:14:52.107316 11837 net.cpp:150] Setting up bbox_pred_reshape
I0712 18:14:52.107324 11837 net.cpp:157] Top shape: 1 8 (8)
I0712 18:14:52.107328 11837 net.cpp:165] Memory required for data: 281038820
I0712 18:14:52.107334 11837 layer_factory.hpp:77] Creating layer head_cls_prob
I0712 18:14:52.107347 11837 net.cpp:100] Creating Layer head_cls_prob
I0712 18:14:52.107353 11837 net.cpp:444] head_cls_prob <- head_cls_score
I0712 18:14:52.107367 11837 net.cpp:418] head_cls_prob -> head_cls_prob_pre
I0712 18:14:52.107620 11837 net.cpp:150] Setting up head_cls_prob
I0712 18:14:52.107631 11837 net.cpp:157] Top shape: 1 3 1 1 (3)
I0712 18:14:52.107635 11837 net.cpp:165] Memory required for data: 281038832
I0712 18:14:52.107640 11837 layer_factory.hpp:77] Creating layer head_cls_prob_reshape
I0712 18:14:52.107655 11837 net.cpp:100] Creating Layer head_cls_prob_reshape
I0712 18:14:52.107661 11837 net.cpp:444] head_cls_prob_reshape <- head_cls_prob_pre
I0712 18:14:52.107678 11837 net.cpp:418] head_cls_prob_reshape -> head_cls_prob
I0712 18:14:52.107728 11837 net.cpp:150] Setting up head_cls_prob_reshape
I0712 18:14:52.107736 11837 net.cpp:157] Top shape: 1 3 (3)
I0712 18:14:52.107740 11837 net.cpp:165] Memory required for data: 281038844
I0712 18:14:52.107745 11837 layer_factory.hpp:77] Creating layer head_bbox_pred_reshape
I0712 18:14:52.107758 11837 net.cpp:100] Creating Layer head_bbox_pred_reshape
I0712 18:14:52.107764 11837 net.cpp:444] head_bbox_pred_reshape <- head_bbox_pred_pre
I0712 18:14:52.107781 11837 net.cpp:418] head_bbox_pred_reshape -> head_bbox_pred
I0712 18:14:52.107828 11837 net.cpp:150] Setting up head_bbox_pred_reshape
I0712 18:14:52.107836 11837 net.cpp:157] Top shape: 1 8 (8)
I0712 18:14:52.107841 11837 net.cpp:165] Memory required for data: 281038876
I0712 18:14:52.107847 11837 net.cpp:228] head_bbox_pred_reshape does not need backward computation.
I0712 18:14:52.107853 11837 net.cpp:228] head_cls_prob_reshape does not need backward computation.
I0712 18:14:52.107859 11837 net.cpp:228] head_cls_prob does not need backward computation.
I0712 18:14:52.107864 11837 net.cpp:228] bbox_pred_reshape does not need backward computation.
…
