…
snapshot: 0
snapshot_prefix: "resnet50_rfcn_ohem"
iter_size: 8
I0528 17:10:13.580965 10644 solver.cpp:81] Creating training net from train_net file: /home/user/Disk1.8T/py-R-FCN/experiments/5_28_original/train_agnostic_ohem.prototxt
I0528 17:10:13.583539 10644 net.cpp:58] Initializing net from parameters: 
name: "ResNet-50"
state {
  phase: TRAIN
}
layer {
  name: "input-data"
  type: "Python"
  top: "data"
  top: "im_info"
  top: "gt_boxes"
  python_param {
    module: "roi_data_layer.layer"
    layer: "RoIDataLayer"
    param_str: "\'num_classes\': 2"
  }
}
layer {
  name: "conv1"
  type: "Convolution"
  bottom: "data"
  top: "conv1"
  param {
    lr_mult: 0
  }
  param {
    lr_mult: 0
  }
  convolution_param {
    num_output: 64
    pad: 3
    kernel_size: 7
    stride: 2
  }
}
layer {
  name: "bn_conv1"
  type: "BatchNorm"
  bottom: "conv1"
  top: "conv1"
  param {
    lr_mult: 0
    decay_mult: 0
  }
  param {
    lr_mult: 0
    decay_mult: 0
  }
  param {
    lr_mult: 0
    decay_mult: 0
  }
  batch_norm_param {
    use_global_stats: true
  }
}
layer {
  name: "scale_conv1"
  type: "Scale"
  bottom: "conv1"
  top: "conv1"
  param {
    lr_mult: 0
    decay_mult: 0
  }
  param {
    lr_mult: 0
    decay_mult: 0
  }
  scale_param {
    bias_term: true
  }
}
layer {
  name: "conv1_relu"
  type: "ReLU"
  bottom: "conv1"
  top: "conv1"
}
layer {
  name: "pool1"
  type: "Pooling"
  bottom: "conv1"
  top: "pool1"
  pooling_param {
    pool: MAX
    kernel_size: 3
    stride: 2
  }
}
layer {
  name: "res2a_branch1"
  type: "Convolution"
  bottom: "pool1"
  top: "res2a_branch1"
  param {
    lr_mult: 0
  }
  convolution_param {
    num_output: 256
    bias_term: false
    pad: 0
    kernel_size: 1
    stride: 1
  }
}
layer {
  name: "bn2a_branch1"
  type: "BatchNorm"
  bottom: "res2a_branch1"
  top: "res2a_branch1"
  param {
    lr_mult: 0
    decay_mult: 0
  }
  param {
    lr_mult: 0
    decay_mult: 0
  }
  param {
    lr_mult: 0
    decay_mult: 0
  }
  batch_norm_param {
    use_global_stats: true
  }
}
layer {
  name: "scale2a_branch1"
  type: "Scale"
  bottom: "res2a_branch1"
  top: "res2a_branch1"
  param {
    lr_mult: 0
    decay_mult: 0
  }
  param {
    lr_mult: 0
    decay_mult: 0
  }
  scale_param {
    bias_term: true
  }
}
layer {
  name: "res2a_branch2a"
  type: "Convolution"
  bottom: "pool1"
  top: "res2a_branch2a"
  param {
    lr_mult: 0
  }
  convolution_param {
    num_output: 64
    bias_term: false
    pad: 0
    kernel_size: 1
    stride: 1
  }
}
layer {
  name: "bn2a_branch2a"
  type: "BatchNorm"
  bottom: "res2a_branch2a"
  top: "res2a_branch2a"
  param {
    lr_mult: 0
    decay_mult: 0
  }
  param {
    lr_mult: 0
    decay_mult: 0
  }
  param {
    lr_mult: 0
    decay_mult: 0
  }
  batch_norm_param {
    use_global_stats: true
  }
}
layer {
  name: "scale2a_branch2a"
  type: "Scale"
  bottom: "res2a_branch2a"
  top: "res2a_branch2a"
  param {
    lr_mult: 0
    decay_mult: 0
  }
  param {
    lr_mult: 0
    decay_mult: 0
  }
  scale_param {
    bias_term: true
  }
}
layer {
  name: "res2a_branch2a_relu"
  type: "ReLU"
  bottom: "res2a_branch2a"
  top: "res2a_branch2a"
}
layer {
  name: "res2a_branch2b"
  type: "Convolution"
  bottom: "res2a_branch2a"
  top: "res2a_branch2b"
  param {
    lr_mult: 0
  }
  convolution_param {
    num_output: 64
    bias_term: false
    pad: 1
    kernel_size: 3
    stride: 1
  }
}
layer {
  name: "bn2a_branch2b"
  type: "BatchNorm"
  bottom: "res2a_branch2b"
  top: "res2a_branch2b"
  param {
    lr_mult: 0
    decay_mult: 0
  }
  param {
    lr_mult: 0
    decay_mult: 0
  }
  param {
    lr_mult: 0
    decay_mult: 0
  }
  batch_norm_param {
    use_global_stats: true
  }
}
layer {
  name: "scale2a_branch2b"
  type: "Scale"
  bottom: "res2a_branch2b"
  top: "res2a_branch2b"
  param {
    lr_mult: 0
    decay_mult: 0
  }
  param {
    lr_mult: 0
    decay_mult: 0
  }
  scale_param {
    bias_term: true
  }
}
layer {
  name: "res2a_branch2b_relu"
  type: "ReLU"
  bottom: "res2a_branch2b"
  top: "res2a_branch2b"
}
layer {
  name: "res2a_branch2c"
  type: "Convolution"
  bottom: "res2a_branch2b"
  top: "res2a_branch2c"
  param {
    lr_mult: 0
  }
  convolution_param {
    num_output: 256
    bias_term: false
    pad: 0
    kernel_size: 1
    stride: 1
  }
}
layer {
  name: "bn2a_branch2c"
  type: "BatchNorm"
  bottom: "res2a_branch2c"
  top: "res2a_branch2c"
  param {
    lr_mult: 0
    decay_mult: 0
  }
  param {
    lr_mult: 0
    decay_mult: 0
  }
  param {
    lr_mult: 0
    decay_mult: 0
  }
  batch_norm_param {
    use_global_stats: true
  }
}
layer {
  name: "scale2a_branch2c"
  type: "Scale"
  bottom: "res2a_branch2c"
  top: "res2a_branch2c"
  param {
    lr_mult: 0
    decay_mult: 0
  }
  param {
    lr_mult: 0
    decay_mult: 0
  }
  scale_param {
    bias_term: true
  }
}
layer {
  name: "res2a"
  type: "Eltwise"
  bottom: "res2a_branch1"
  bottom: "res2a_branch2c"
  top: "res2a"
}
layer {
  name: "res2a_relu"
  type: "ReLU"
  bottom: "res2a"
  top: "res2a"
}
layer {
  name: "res2b_branch2a"
  type: "Convolution"
  bottom: "res2a"
  top: "res2b_branch2a"
  param {
    lr_mult: 0
  }
  convolution_param {
    num_output: 64
    bias_term: false
    pad: 0
    kernel_size: 1
    stride: 1
  }
}
layer {
  name: "bn2b_branch2a"
  type: "BatchNorm"
  bottom: "res2b_branch2a"
  top: "res2b_branch2a"
  param {
    lr_mult: 0
    decay_mult: 0
  }
  param {
    lr_mult: 0
    decay_mult: 0
  }
  param {
    lr_mult: 0
    decay_mult: 0
  }
  batch_norm_param {
    use_global_stats: true
  }
}
layer {
  name: "scale2b_branch2a"
  type: "Scale"
  bottom: "res2b_branch2a"
  top: "res2b_branch2a"
  param {
    lr_mult: 0
    decay_mult: 0
  }
  param {
    lr_mult: 0
    decay_mult: 0
  }
  scale_param {
    bias_term: true
  }
}
layer {
  name: "res2b_branch2a_relu"
  type: "ReLU"
  bottom: "res2b_branch2a"
  top: "res2b_branch2a"
}
layer {
  name: "res2b_branch2b"
  type: "Convolution"
  bottom: "res2b_branch2a"
  top: "res2b_branch2b"
  param {
    lr_mult: 0
  }
  convolution_param {
    num_output: 64
    bias_term: false
    pad: 1
    kernel_size: 3
    stride: 1
  }
}
layer {
  name: "bn2b_branch2b"
  type: "BatchNorm"
  bottom: "res2b_branch2b"
  top: "res2b_branch2b"
  param {
    lr_mult: 0
    decay_mult: 0
  }
  param {
    lr_mult: 0
    decay_mult: 0
  }
  param {
    lr_mult: 0
    decay_mult: 0
  }
  batch_norm_param {
    use_global_stats: true
  }
}
layer {
  name: "scale2b_branch2b"
  type: "Scale"
  bottom: "res2b_branch2b"
  top: "res2b_branch2b"
  param {
    lr_mult: 0
    decay_mult: 0
  }
  param {
    lr_mult: 0
    decay_mult: 0
  }
  scale_param {
    bias_term: true
  }
}
layer {
  name: "res2b_branch2b_relu"
  type: "ReLU"
  bottom: "res2b_branch2b"
  top: "res2b_branch2b"
}
layer {
  name: "res2b_branch2c"
  type: "Convolution"
  bottom: "res2b_branch2b"
  top: "res2b_branch2c"
  param {
    lr_mult: 0
  }
  convolution_param {
    num_output: 256
    bias_term: false
    pad: 0
    kernel_size: 1
    stride: 1
  }
}
layer {
  name: "bn2b_branch2c"
  type: "BatchNorm"
  bottom: "res2b_branch2c"
  top: "res2b_branch2c"
  param {
    lr_mult: 0
    decay_mult: 0
  }
  param {
    lr_mult: 0
    decay_mult: 0
  }
  param {
    lr_mult: 0
    decay_mult: 0
  }
  batch_norm_param {
    use_global_stats: true
  }
}
layer {
  name: "scale2b_branch2c"
  type: "Scale"
  bottom: "res2b_branch2c"
  top: "res2b_branch2c"
  param {
    lr_mult: 0
    decay_mult: 0
  }
  param {
    lr_mult: 0
    decay_mult: 0
  }
  scale_param {
    bias_term: true
  }
}
layer {
  name: "res2b"
  type: "Eltwise"
  bottom: "res2a"
  bottom: "res2b_branch2c"
  top: "res2b"
}
layer {
  name: "res2b_relu"
  type: "ReLU"
  bottom: "res2b"
  top: "res2b"
}
layer {
  name: "res2c_branch2a"
  type: "Convolution"
  bottom: "res2b"
  top: "res2c_branch2a"
  param {
    lr_mult: 0
  }
  convolution_param {
    num_output: 64
    bias_term: false
    pad: 0
    kernel_size: 1
    stride: 1
  }
}
layer {
  name: "bn2c_branch2a"
  type: "BatchNorm"
  bottom: "res2c_branch2a"
  top: "res2c_branch2a"
  param {
    lr_mult: 0
    decay_mult: 0
  }
  param {
    lr_mult: 0
    decay_mult: 0
  }
  param {
    lr_mult: 0
    decay_mult: 0
  }
  batch_norm_param {
    use_global_stats: true
  }
}
layer {
  name: "scale2c_branch2a"
  type: "Scale"
  bottom: "res2c_branch2a"
  top: "res2c_branch2a"
  param {
    lr_mult: 0
    decay_mult: 0
  }
  param {
    lr_mult: 0
    decay_mult: 0
  }
  scale_param {
    bias_term: true
  }
}
layer {
  name: "res2c_branch2a_relu"
  type: "ReLU"
  bottom: "res2c_branch2a"
  top: "res2c_branch2a"
}
layer {
  name: "res2c_branch2b"
  type: "Convolution"
  bottom: "res2c_branch2a"
  top: "res2c_branch2b"
  param {
    lr_mult: 0
  }
  convolution_param {
    num_output: 64
    bias_term: false
    pad: 1
    kernel_size: 3
    stride: 1
  }
}
layer {
  name: "bn2c_branch2b"
  type: "BatchNorm"
  bottom: "res2c_branch2b"
  top: "res2c_branch2b"
  param {
    lr_mult: 0
    decay_mult: 0
  }
  param {
    lr_mult: 0
    decay_mult: 0
  }
  param {
    lr_mult: 0
    decay_mult: 0
  }
  batch_norm_param {
    use_global_stats: true
  }
}
layer {
  name: "scale2c_branch2b"
  type: "Scale"
  bottom: "res2c_branch2b"
  top: "res2c_branch2b"
  param {
    lr_mult: 0
    decay_mult: 0
  }
  param {
    lr_mult: 0
    decay_mult: 0
  }
  scale_param {
    bias_term: true
  }
}
layer {
  name: "res2c_branch2b_relu"
  type: "ReLU"
  bottom: "res2c_branch2b"
  top: "res2c_branch2b"
}
layer {
  name: "res2c_branch2c"
  type: "Convolution"
  bottom: "res2c_branch2b"
  top: "res2c_branch2c"
  param {
    lr_mult: 0
  }
  convolution_param {
    num_output: 256
    bias_term: false
    pad: 0
    kernel_size: 1
    stride: 1
  }
}
layer {
  name: "bn2c_branch2c"
  type: "BatchNorm"
  bottom: "res2c_branch2c"
  top: "res2c_branch2c"
  param {
    lr_mult: 0
    decay_mult: 0
  }
  param {
    lr_mult: 0
    decay_mult: 0
  }
  param {
    lr_mult: 0
    decay_mult: 0
  }
  batch_norm_param {
    use_global_stats: true
  }
}
layer {
  name: "scale2c_branch2c"
  type: "Scale"
  bottom: "res2c_branch2c"
  top: "res2c_branch2c"
  param {
    lr_mult: 0
    decay_mult: 0
  }
  param {
    lr_mult: 0
    decay_mult: 0
  }
  scale_param {
    bias_term: true
  }
}
layer {
  name: "res2c"
  type: "Eltwise"
  bottom: "res2b"
  bottom: "res2c_branch2c"
  top: "res2c"
}
layer {
  name: "res2c_relu"
  type: "ReLU"
  bottom: "res2c"
  top: "res2c"
}
layer {
  name: "res3a_branch1"
  type: "Convolution"
  bottom: "res2c"
  top: "res3a_branch1"
  param {
    lr_mult: 1
  }
  convolution_param {
    num_output: 512
    bias_term: false
    pad: 0
    kernel_size: 1
    stride: 2
  }
}
layer {
  name: "bn3a_branch1"
  type: "BatchNorm"
  bottom: "res3a_branch1"
  top: "res3a_branch1"
  param {
    lr_mult: 0
    decay_mult: 0
  }
  param {
    lr_mult: 0
    decay_mult: 0
  }
  param {
    lr_mult: 0
    decay_mult: 0
  }
  batch_norm_param {
    use_global_stats: true
  }
}
layer {
  name: "scale3a_branch1"
  type: "Scale"
  bottom: "res3a_branch1"
  top: "res3a_branch1"
  param {
    lr_mult: 0
    decay_mult: 0
  }
  param {
    lr_mult: 0
    decay_mult: 0
  }
  scale_param {
    bias_term: true
  }
}
layer {
  name: "res3a_branch2a"
  type: "Convolution"
  bottom: "res2c"
  top: "res3a_branch2a"
  param {
    lr_mult: 1
  }
  convolution_param {
    num_output: 128
    bias_term: false
    pad: 0
    kernel_size: 1
    stride: 2
  }
}
layer {
  name: "bn3a_branch2a"
  type: "BatchNorm"
  bottom: "res3a_branch2a"
  top: "res3a_branch2a"
  param {
    lr_mult: 0
    decay_mult: 0
  }
  param {
    lr_mult: 0
    decay_mult: 0
  }
  param {
    lr_mult: 0
    decay_mult: 0
  }
  batch_norm_param {
    use_global_stats: true
  }
}
layer {
  name: "scale3a_branch2a"
  type: "Scale"
  bottom: "res3a_branch2a"
  top: "res3a_branch2a"
  param {
    lr_mult: 0
    decay_mult: 0
  }
  param {
    lr_mult: 0
    decay_mult: 0
  }
  scale_param {
    bias_term: true
  }
}
layer {
  name: "res3a_branch2a_relu"
  type: "ReLU"
  bottom: "res3a_branch2a"
  top: "res3a_branch2a"
}
layer {
  name: "res3a_branch2b"
  type: "Convolution"
  bottom: "res3a_branch2a"
  top: "res3a_branch2b"
  param {
    lr_mult: 1
  }
  convolution_param {
    num_output: 128
    bias_term: false
    pad: 1
    kernel_size: 3
    stride: 1
  }
}
layer {
  name: "bn3a_branch2b"
  type: "BatchNorm"
  bottom: "res3a_branch2b"
  top: "res3a_branch2b"
  param {
    lr_mult: 0
    decay_mult: 0
  }
  param {
    lr_mult: 0
    decay_mult: 0
  }
  param {
    lr_mult: 0
    decay_mult: 0
  }
  batch_norm_param {
    use_global_stats: true
  }
}
layer {
  name: "scale3a_branch2b"
  type: "Scale"
  bottom: "res3a_branch2b"
  top: "res3a_branch2b"
  param {
    lr_mult: 0
    decay_mult: 0
  }
  param {
    lr_mult: 0
    decay_mult: 0
  }
  scale_param {
    bias_term: true
  }
}
layer {
  name: "res3a_branch2b_relu"
  type: "ReLU"
  bottom: "res3a_branch2b"
  top: "res3a_branch2b"
}
layer {
  name: "res3a_branch2c"
  type: "Convolution"
  bottom: "res3a_branch2b"
  top: "res3a_branch2c"
  param {
    lr_mult: 1
  }
  convolution_param {
    num_output: 512
    bias_term: false
    pad: 0
    kernel_size: 1
    stride: 1
  }
}
layer {
  name: "bn3a_branch2c"
  type: "BatchNorm"
  bottom: "res3a_branch2c"
  top: "res3a_branch2c"
  param {
    lr_mult: 0
    decay_mult: 0
  }
  param {
    lr_mult: 0
    decay_mult: 0
  }
  param {
    lr_mult: 0
    decay_mult: 0
  }
  batch_norm_param {
    use_global_stats: true
  }
}
layer {
  name: "scale3a_branch2c"
  type: "Scale"
  bottom: "res3a_branch2c"
  top: "res3a_branch2c"
  param {
    lr_mult: 0
    decay_mult: 0
  }
  param {
    lr_mult: 0
    decay_mult: 0
  }
  scale_param {
    bias_term: true
  }
}
layer {
  name: "res3a"
  type: "Eltwise"
  bottom: "res3a_branch1"
  bottom: "res3a_branch2c"
  top: "res3a"
}
layer {
  name: "res3a_relu"
  type: "ReLU"
  bottom: "res3a"
  top: "res3a"
}
layer {
  name: "res3b_branch2a"
  type: "Convolution"
  bottom: "res3a"
  top: "res3b_branch2a"
  param {
    lr_mult: 1
  }
  convolution_param {
    num_output: 128
    bias_term: false
    pad: 0
    kernel_size: 1
    stride: 1
  }
}
layer {
  name: "bn3b_branch2a"
  type: "BatchNorm"
  bottom: "res3b_branch2a"
  top: "res3b_branch2a"
  param {
    lr_mult: 0
    decay_mult: 0
  }
  param {
    lr_mult: 0
    decay_mult: 0
  }
  param {
    lr_mult: 0
    decay_mult: 0
  }
  batch_norm_param {
    use_global_stats: true
  }
}
layer {
  name: "scale3b_branch2a"
  type: "Scale"
  bottom: "res3b_branch2a"
  top: "res3b_branch2a"
  param {
    lr_mult: 0
    decay_mult: 0
  }
  param {
    lr_mult: 0
    decay_mult: 0
  }
  scale_param {
    bias_term: true
  }
}
layer {
  name: "res3b_branch2a_relu"
  type: "ReLU"
  bottom: "res3b_branch2a"
  top: "res3b_branch2a"
}
layer {
  name: "res3b_branch2b"
  type: "Convolution"
  bottom: "res3b_branch2a"
  top: "res3b_branch2b"
  param {
    lr_mult: 1
  }
  convolution_param {
    num_output: 128
    bias_term: false
    pad: 1
    kernel_size: 3
    stride: 1
  }
}
layer {
  name: "bn3b_branch2b"
  type: "BatchNorm"
  bottom: "res3b_branch2b"
  top: "res3b_branch2b"
  param {
    lr_mult: 0
    decay_mult: 0
  }
  param {
    lr_mult: 0
    decay_mult: 0
  }
  param {
    lr_mult: 0
    decay_mult: 0
  }
  batch_norm_param {
    use_global_stats: true
  }
}
layer {
  name: "scale3b_branch2b"
  type: "Scale"
  bottom: "res3b_branch2b"
  top: "res3b_branch2b"
  param {
    lr_mult: 0
    decay_mult: 0
  }
  param {
    lr_mult: 0
    decay_mult: 0
  }
  scale_param {
    bias_term: true
  }
}
layer {
  name: "res3b_branch2b_relu"
  type: "ReLU"
  bottom: "res3b_branch2b"
  top: "res3b_branch2b"
}
layer {
  name: "res3b_branch2c"
  type: "Convolution"
  bottom: "res3b_branch2b"
  top: "res3b_branch2c"
  param {
    lr_mult: 1
  }
  convolution_param {
    num_output: 512
    bias_term: false
    pad: 0
    kernel_size: 1
    stride: 1
  }
}
layer {
  name: "bn3b_branch2c"
  type: "BatchNorm"
  bottom: "res3b_branch2c"
  top: "res3b_branch2c"
  param {
    lr_mult: 0
    decay_mult: 0
  }
  param {
    lr_mult: 0
    decay_mult: 0
  }
  param {
    lr_mult: 0
    decay_mult: 0
  }
  batch_norm_param {
    use_global_stats: true
  }
}
layer {
  name: "scale3b_branch2c"
  type: "Scale"
  bottom: "res3b_branch2c"
  top: "res3b_branch2c"
  param {
    lr_mult: 0
    decay_mult: 0
  }
  param {
    lr_mult: 0
    decay_mult: 0
  }
  scale_param {
    bias_term: true
  }
}
layer {
  name: "res3b"
  type: "Eltwise"
  bottom: "res3a"
  bottom: "res3b_branch2c"
  top: "res3b"
}
layer {
  name: "res3b_relu"
  type: "ReLU"
  bottom: "res3b"
  top: "res3b"
}
layer {
  name: "res3c_branch2a"
  type: "Convolution"
  bottom: "res3b"
  top: "res3c_branch2a"
  param {
    lr_mult: 1
  }
  convolution_param {
    num_output: 128
    bias_term: false
    pad: 0
    kernel_size: 1
    stride: 1
  }
}
layer {
  name: "bn3c_branch2a"
  type: "BatchNorm"
  bottom: "res3c_branch2a"
  top: "res3c_branch2a"
  param {
    lr_mult: 0
    decay_mult: 0
  }
  param {
    lr_mult: 0
    decay_mult: 0
  }
  param {
    lr_mult: 0
    decay_mult: 0
  }
  batch_norm_param {
    use_global_stats: true
  }
}
layer {
  name: "scale3c_branch2a"
  type: "Scale"
  bottom: "res3c_branch2a"
  top: "res3c_branch2a"
  param {
    lr_mult: 0
    decay_mult: 0
  }
  param {
    lr_mult: 0
    decay_mult: 0
  }
  scale_param {
    bias_term: true
  }
}
layer {
  name: "res3c_branch2a_relu"
  type: "ReLU"
  bottom: "res3c_branch2a"
  top: "res3c_branch2a"
}
layer {
  name: "res3c_branch2b"
  type: "Convolution"
  bottom: "res3c_branch2a"
  top: "res3c_branch2b"
  param {
    lr_mult: 1
  }
  convolution_param {
    num_output: 128
    bias_term: false
    pad: 1
    kernel_size: 3
    stride: 1
  }
}
layer {
  name: "bn3c_branch2b"
  type: "BatchNorm"
  bottom: "res3c_branch2b"
  top: "res3c_branch2b"
  param {
    lr_mult: 0
    decay_mult: 0
  }
  param {
    lr_mult: 0
    decay_mult: 0
  }
  param {
    lr_mult: 0
    decay_mult: 0
  }
  batch_norm_param {
    use_global_stats: true
  }
}
layer {
  name: "scale3c_branch2b"
  type: "Scale"
  bottom: "res3c_branch2b"
  top: "res3c_branch2b"
  param {
    lr_mult: 0
    decay_mult: 0
  }
  param {
    lr_mult: 0
    decay_mult: 0
  }
  scale_param {
    bias_term: true
  }
}
layer {
  name: "res3c_branch2b_relu"
  type: "ReLU"
  bottom: "res3c_branch2b"
  top: "res3c_branch2b"
}
layer {
  name: "res3c_branch2c"
  type: "Convolution"
  bottom: "res3c_branch2b"
  top: "res3c_branch2c"
  param {
    lr_mult: 1
  }
  convolution_param {
    num_output: 512
    bias_term: false
    pad: 0
    kernel_size: 1
    stride: 1
  }
}
layer {
  name: "bn3c_branch2c"
  type: "BatchNorm"
  bottom: "res3c_branch2c"
  top: "res3c_branch2c"
  param {
    lr_mult: 0
    decay_mult: 0
  }
  param {
    lr_mult: 0
    decay_mult: 0
  }
  param {
    lr_mult: 0
    decay_mult: 0
  }
  batch_norm_param {
    use_global_stats: true
  }
}
layer {
  name: "scale3c_branch2c"
  type: "Scale"
  bottom: "res3c_branch2c"
  top: "res3c_branch2c"
  param {
    lr_mult: 0
    decay_mult: 0
  }
  param {
    lr_mult: 0
    decay_mult: 0
  }
  scale_param {
    bias_term: true
  }
}
layer {
  name: "res3c"
  type: "Eltwise"
  bottom: "res3b"
  bottom: "res3c_branch2c"
  top: "res3c"
}
layer {
  name: "res3c_relu"
  type: "ReLU"
  bottom: "res3c"
  top: "res3c"
}
layer {
  name: "res3d_branch2a"
  type: "Convolution"
  bottom: "res3c"
  top: "res3d_branch2a"
  param {
    lr_mult: 1
  }
  convolution_param {
    num_output: 128
    bias_term: false
    pad: 0
    kernel_size: 1
    stride: 1
  }
}
layer {
  name: "bn3d_branch2a"
  type: "BatchNorm"
  bottom: "res3d_branch2a"
  top: "res3d_branch2a"
  param {
    lr_mult: 0
    decay_mult: 0
  }
  param {
    lr_mult: 0
    decay_mult: 0
  }
  param {
    lr_mult: 0
    decay_mult: 0
  }
  batch_norm_param {
    use_global_stats: true
  }
}
layer {
  name: "scale3d_branch2a"
  type: "Scale"
  bottom: "res3d_branch2a"
  top: "res3d_branch2a"
  param {
    lr_mult: 0
    decay_mult: 0
  }
  param {
    lr_mult: 0
    decay_mult: 0
  }
  scale_param {
    bias_term: true
  }
}
layer {
  name: "res3d_branch2a_relu"
  type: "ReLU"
  bottom: "res3d_branch2a"
  top: "res3d_branch2a"
}
layer {
  name: "res3d_branch2b"
  type: "Convolution"
  bottom: "res3d_branch2a"
  top: "res3d_branch2b"
  param {
    lr_mult: 1
  }
  convolution_param {
    num_output: 128
    bias_term: false
    pad: 1
    kernel_size: 3
    stride: 1
  }
}
layer {
  name: "bn3d_branch2b"
  type: "BatchNorm"
  bottom: "res3d_branch2b"
  top: "res3d_branch2b"
  param {
    lr_mult: 0
    decay_mult: 0
  }
  param {
    lr_mult: 0
    decay_mult: 0
  }
  param {
    lr_mult: 0
    decay_mult: 0
  }
  batch_norm_param {
    use_global_stats: true
  }
}
layer {
  name: "scale3d_branch2b"
  type: "Scale"
  bottom: "res3d_branch2b"
  top: "res3d_branch2b"
  param {
    lr_mult: 0
    decay_mult: 0
  }
  param {
    lr_mult: 0
    decay_mult: 0
  }
  scale_param {
    bias_term: true
  }
}
layer {
  name: "res3d_branch2b_relu"
  type: "ReLU"
  bottom: "res3d_branch2b"
  top: "res3d_branch2b"
}
layer {
  name: "res3d_branch2c"
  type: "Convolution"
  bottom: "res3d_branch2b"
  top: "res3d_branch2c"
  param {
    lr_mult: 1
  }
  convolution_param {
    num_output: 512
    bias_term: false
    pad: 0
    kernel_size: 1
    stride: 1
  }
}
layer {
  name: "bn3d_branch2c"
  type: "BatchNorm"
  bottom: "res3d_branch2c"
  top: "res3d_branch2c"
  param {
    lr_mult: 0
    decay_mult: 0
  }
  param {
    lr_mult: 0
    decay_mult: 0
  }
  param {
    lr_mult: 0
    decay_mult: 0
  }
  batch_norm_param {
    use_global_stats: true
  }
}
layer {
  name: "scale3d_branch2c"
  type: "Scale"
  bottom: "res3d_branch2c"
  top: "res3d_branch2c"
  param {
    lr_mult: 0
    decay_mult: 0
  }
  param {
    lr_mult: 0
    decay_mult: 0
  }
  scale_param {
    bias_term: true
  }
}
layer {
  name: "res3d"
  type: "Eltwise"
  bottom: "res3c"
  bottom: "res3d_branch2c"
  top: "res3d"
}
layer {
  name: "res3d_relu"
  type: "ReLU"
  bottom: "res3d"
  top: "res3d"
}
layer {
  name: "res4a_branch1"
  type: "Convolution"
  bottom: "res3d"
  top: "res4a_branch1"
  param {
    lr_mult: 1
  }
  convolution_param {
    num_output: 1024
    bias_term: false
    pad: 0
    kernel_size: 1
    stride: 2
  }
}
layer {
  name: "bn4a_branch1"
  type: "BatchNorm"
  bottom: "res4a_branch1"
  top: "res4a_branch1"
  param {
    lr_mult: 0
    decay_mult: 0
  }
  param {
    lr_mult: 0
    decay_mult: 0
  }
  param {
    lr_mult: 0
    decay_mult: 0
  }
  batch_norm_param {
    use_global_stats: true
  }
}
layer {
  name: "scale4a_branch1"
  type: "Scale"
  bottom: "res4a_branch1"
  top: "res4a_branch1"
  param {
    lr_mult: 0
    decay_mult: 0
  }
  param {
    lr_mult: 0
    decay_mult: 0
  }
  scale_param {
    bias_term: true
  }
}
layer {
  name: "res4a_branch2a"
  type: "Convolution"
  bottom: "res3d"
  top: "res4a_branch2a"
  param {
    lr_mult: 1
  }
  convolution_param {
    num_output: 256
    bias_term: false
    pad: 0
    kernel_size: 1
    stride: 2
  }
}
layer {
  name: "bn4a_branch2a"
  type: "BatchNorm"
  bottom: "res4a_branch2a"
  top: "res4a_branch2a"
  param {
    lr_mult: 0
    decay_mult: 0
  }
  param {
    lr_mult: 0
    decay_mult: 0
  }
  param {
    lr_mult: 0
    decay_mult: 0
  }
  batch_norm_param {
    use_global_stats: true
  }
}
layer {
  name: "scale4a_branch2a"
  type: "Scale"
  bottom: "res4a_branch2a"
  top: "res4a_branch2a"
  param {
    lr_mult: 0
    decay_mult: 0
  }
  param {
    lr_mult: 0
    decay_mult: 0
  }
  scale_param {
    bias_term: true
  }
}
layer {
  name: "res4a_branch2a_relu"
  type: "ReLU"
  bottom: "res4a_branch2a"
  top: "res4a_branch2a"
}
layer {
  name: "res4a_branch2b"
  type: "Convolution"
  bottom: "res4a_branch2a"
  top: "res4a_branch2b"
  param {
    lr_mult: 1
  }
  convolution_param {
    num_output: 256
    bias_term: false
    pad: 1
    kernel_size: 3
    stride: 1
  }
}
layer {
  name: "bn4a_branch2b"
  type: "BatchNorm"
  bottom: "res4a_branch2b"
  top: "res4a_branch2b"
  param {
    lr_mult: 0
    decay_mult: 0
  }
  param {
    lr_mult: 0
    decay_mult: 0
  }
  param {
    lr_mult: 0
    decay_mult: 0
  }
  batch_norm_param {
    use_global_stats: true
  }
}
layer {
  name: "scale4a_branch2b"
  type: "Scale"
  bottom: "res4a_branch2b"
  top: "res4a_branch2b"
  param {
    lr_mult: 0
    decay_mult: 0
  }
  param {
    lr_mult: 0
    decay_mult: 0
  }
  scale_param {
    bias_term: true
  }
}
layer {
  name: "res4a_branch2b_relu"
  type: "ReLU"
  bottom: "res4a_branch2b"
  top: "res4a_branch2b"
}
layer {
  name: "res4a_branch2c"
  type: "Convolution"
  bottom: "res4a_branch2b"
  top: "res4a_branch2c"
  param {
    lr_mult: 1
  }
  convolution_param {
    num_output: 1024
    bias_term: false
    pad: 0
    kernel_size: 1
    stride: 1
  }
}
layer {
  name: "bn4a_branch2c"
  type: "BatchNorm"
  bottom: "res4a_branch2c"
  top: "res4a_branch2c"
  param {
    lr_mult: 0
    decay_mult: 0
  }
  param {
    lr_mult: 0
    decay_mult: 0
  }
  param {
    lr_mult: 0
    decay_mult: 0
  }
  batch_norm_param {
    use_global_stats: true
  }
}
layer {
  name: "scale4a_branch2c"
  type: "Scale"
  bottom: "res4a_branch2c"
  top: "res4a_branch2c"
  param {
    lr_mult: 0
    decay_mult: 0
  }
  param {
    lr_mult: 0
    decay_mult: 0
  }
  scale_param {
    bias_term: true
  }
}
layer {
  name: "res4a"
  type: "Eltwise"
  bottom: "res4a_branch1"
  bottom: "res4a_branch2c"
  top: "res4a"
}
layer {
  name: "res4a_relu"
  type: "ReLU"
  bottom: "res4a"
  top: "res4a"
}
layer {
  name: "res4b_branch2a"
  type: "Convolution"
  bottom: "res4a"
  top: "res4b_branch2a"
  param {
    lr_mult: 1
  }
  convolution_param {
    num_output: 256
    bias_term: false
    pad: 0
    kernel_size: 1
    stride: 1
  }
}
layer {
  name: "bn4b_branch2a"
  type: "BatchNorm"
  bottom: "res4b_branch2a"
  top: "res4b_branch2a"
  param {
    lr_mult: 0
    decay_mult: 0
  }
  param {
    lr_mult: 0
    decay_mult: 0
  }
  param {
    lr_mult: 0
    decay_mult: 0
  }
  batch_norm_param {
    use_global_stats: true
  }
}
layer {
  name: "scale4b_branch2a"
  type: "Scale"
  bottom: "res4b_branch2a"
  top: "res4b_branch2a"
  param {
    lr_mult: 0
    decay_mult: 0
  }
  param {
    lr_mult: 0
    decay_mult: 0
  }
  scale_param {
    bias_term: true
  }
}
layer {
  name: "res4b_branch2a_relu"
  type: "ReLU"
  bottom: "res4b_branch2a"
  top: "res4b_branch2a"
}
layer {
  name: "res4b_branch2b"
  type: "Convolution"
  bottom: "res4b_branch2a"
  top: "res4b_branch2b"
  param {
    lr_mult: 1
  }
  convolution_param {
    num_output: 256
    bias_term: false
    pad: 1
    kernel_size: 3
    stride: 1
  }
}
layer {
  name: "bn4b_branch2b"
  type: "BatchNorm"
  bottom: "res4b_branch2b"
  top: "res4b_branch2b"
  param {
    lr_mult: 0
    decay_mult: 0
  }
  param {
    lr_mult: 0
    decay_mult: 0
  }
  param {
    lr_mult: 0
    decay_mult: 0
  }
  batch_norm_param {
    use_global_stats: true
  }
}
layer {
  name: "scale4b_branch2b"
  type: "Scale"
  bottom: "res4b_branch2b"
  top: "res4b_branch2b"
  param {
    lr_mult: 0
    decay_mult: 0
  }
  param {
    lr_mult: 0
    decay_mult: 0
  }
  scale_param {
    bias_term: true
  }
}
layer {
  name: "res4b_branch2b_relu"
  type: "ReLU"
  bottom: "res4b_branch2b"
  top: "res4b_branch2b"
}
layer {
  name: "res4b_branch2c"
  type: "Convolution"
  bottom: "res4b_branch2b"
  top: "res4b_branch2c"
  param {
    lr_mult: 1
  }
  convolution_param {
    num_output: 1024
    bias_term: false
    pad: 0
    kernel_size: 1
    stride: 1
  }
}
layer {
  name: "bn4b_branch2c"
  type: "BatchNorm"
  bottom: "res4b_branch2c"
  top: "res4b_branch2c"
  param {
    lr_mult: 0
    decay_mult: 0
  }
  param {
    lr_mult: 0
    decay_mult: 0
  }
  param {
    lr_mult: 0
    decay_mult: 0
  }
  batch_norm_param {
    use_global_stats: true
  }
}
layer {
  name: "scale4b_branch2c"
  type: "Scale"
  bottom: "res4b_branch2c"
  top: "res4b_branch2c"
  param {
    lr_mult: 0
    decay_mult: 0
  }
  param {
    lr_mult: 0
    decay_mult: 0
  }
  scale_param {
    bias_term: true
  }
}
layer {
  name: "res4b"
  type: "Eltwise"
  bottom: "res4a"
  bottom: "res4b_branch2c"
  top: "res4b"
}
layer {
  name: "res4b_relu"
  type: "ReLU"
  bottom: "res4b"
  top: "res4b"
}
layer {
  name: "res4c_branch2a"
  type: "Convolution"
  bottom: "res4b"
  top: "res4c_branch2a"
  param {
    lr_mult: 1
  }
  convolution_param {
    num_output: 256
    bias_term: false
    pad: 0
    kernel_size: 1
    stride: 1
  }
}
layer {
  name: "bn4c_branch2a"
  type: "BatchNorm"
  bottom: "res4c_branch2a"
  top: "res4c_branch2a"
  param {
    lr_mult: 0
    decay_mult: 0
  }
  param {
    lr_mult: 0
    decay_mult: 0
  }
  param {
    lr_mult: 0
    decay_mult: 0
  }
  batch_norm_param {
    use_global_stats: true
  }
}
layer {
  name: "scale4c_branch2a"
  type: "Scale"
  bottom: "res4c_branch2a"
  top: "res4c_branch2a"
  param {
    lr_mult: 0
    decay_mult: 0
  }
  param {
    lr_mult: 0
    decay_mult: 0
  }
  scale_param {
    bias_term: true
  }
}
layer {
  name: "res4c_branch2a_relu"
  type: "ReLU"
  bottom: "res4c_branch2a"
  top: "res4c_branch2a"
}
layer {
  name: "res4c_branch2b"
  type: "Convolution"
  bottom: "res4c_branch2a"
  top: "res4c_branch2b"
  param {
    lr_mult: 1
  }
  convolution_param {
    num_output: 256
    bias_term: false
    pad: 1
    kernel_size: 3
    stride: 1
  }
}
layer {
  name: "bn4c_branch2b"
  type: "BatchNorm"
  bottom: "res4c_branch2b"
  top: "res4c_branch2b"
  param {
    lr_mult: 0
    decay_mult: 0
  }
  param {
    lr_mult: 0
    decay_mult: 0
  }
  param {
    lr_mult: 0
    decay_mult: 0
  }
  batch_norm_param {
    use_global_stats: true
  }
}
layer {
  name: "scale4c_branch2b"
  type: "Scale"
  bottom: "res4c_branch2b"
  top: "res4c_branch2b"
  param {
    lr_mult: 0
    decay_mult: 0
  }
  param {
    lr_mult: 0
    decay_mult: 0
  }
  scale_param {
    bias_term: true
  }
}
layer {
  name: "res4c_branch2b_relu"
  type: "ReLU"
  bottom: "res4c_branch2b"
  top: "res4c_
I0528 17:10:13.585358 10644 layer_factory.hpp:77] Creating layer input-data
I0528 17:10:13.622452 10644 net.cpp:100] Creating Layer input-data
I0528 17:10:13.622476 10644 net.cpp:418] input-data -> data
I0528 17:10:13.622514 10644 net.cpp:418] input-data -> im_info
I0528 17:10:13.622531 10644 net.cpp:418] input-data -> gt_boxes
RoiDataLayer: name_to_top: {'gt_boxes': 2, 'data': 0, 'im_info': 1}
I0528 17:10:13.645073 10644 net.cpp:150] Setting up input-data
I0528 17:10:13.645100 10644 net.cpp:157] Top shape: 1 3 640 1280 (2457600)
I0528 17:10:13.645107 10644 net.cpp:157] Top shape: 1 3 (3)
I0528 17:10:13.645110 10644 net.cpp:157] Top shape: 1 4 (4)
I0528 17:10:13.645112 10644 net.cpp:165] Memory required for data: 9830428
I0528 17:10:13.645128 10644 layer_factory.hpp:77] Creating layer data_input-data_0_split
I0528 17:10:13.645162 10644 net.cpp:100] Creating Layer data_input-data_0_split
I0528 17:10:13.645174 10644 net.cpp:444] data_input-data_0_split <- data
I0528 17:10:13.645195 10644 net.cpp:418] data_input-data_0_split -> data_input-data_0_split_0
I0528 17:10:13.645217 10644 net.cpp:418] data_input-data_0_split -> data_input-data_0_split_1
I0528 17:10:13.645267 10644 net.cpp:150] Setting up data_input-data_0_split
I0528 17:10:13.645275 10644 net.cpp:157] Top shape: 1 3 640 1280 (2457600)
I0528 17:10:13.645282 10644 net.cpp:157] Top shape: 1 3 640 1280 (2457600)
I0528 17:10:13.645285 10644 net.cpp:165] Memory required for data: 29491228
I0528 17:10:13.645289 10644 layer_factory.hpp:77] Creating layer im_info_input-data_1_split
I0528 17:10:13.645301 10644 net.cpp:100] Creating Layer im_info_input-data_1_split
I0528 17:10:13.645306 10644 net.cpp:444] im_info_input-data_1_split <- im_info
I0528 17:10:13.645318 10644 net.cpp:418] im_info_input-data_1_split -> im_info_input-data_1_split_0
I0528 17:10:13.645330 10644 net.cpp:418] im_info_input-data_1_split -> im_info_input-data_1_split_1
I0528 17:10:13.645370 10644 net.cpp:150] Setting up im_info_input-data_1_split
I0528 17:10:13.645376 10644 net.cpp:157] Top shape: 1 3 (3)
I0528 17:10:13.645381 10644 net.cpp:157] Top shape: 1 3 (3)
I0528 17:10:13.645383 10644 net.cpp:165] Memory required for data: 29491252
I0528 17:10:13.645387 10644 layer_factory.hpp:77] Creating layer gt_boxes_input-data_2_split
I0528 17:10:13.645396 10644 net.cpp:100] Creating Layer gt_boxes_input-data_2_split
I0528 17:10:13.645401 10644 net.cpp:444] gt_boxes_input-data_2_split <- gt_boxes
I0528 17:10:13.645412 10644 net.cpp:418] gt_boxes_input-data_2_split -> gt_boxes_input-data_2_split_0
I0528 17:10:13.645426 10644 net.cpp:418] gt_boxes_input-data_2_split -> gt_boxes_input-data_2_split_1
I0528 17:10:13.645465 10644 net.cpp:150] Setting up gt_boxes_input-data_2_split
I0528 17:10:13.645473 10644 net.cpp:157] Top shape: 1 4 (4)
I0528 17:10:13.645479 10644 net.cpp:157] Top shape: 1 4 (4)
I0528 17:10:13.645483 10644 net.cpp:165] Memory required for data: 29491284
I0528 17:10:13.645486 10644 layer_factory.hpp:77] Creating layer conv1
I0528 17:10:13.645510 10644 net.cpp:100] Creating Layer conv1
I0528 17:10:13.645516 10644 net.cpp:444] conv1 <- data_input-data_0_split_0
I0528 17:10:13.645531 10644 net.cpp:418] conv1 -> conv1
I0528 17:10:13.939103 10644 cudnn_conv_layer.cpp:194] Reallocating workspace storage: 3686424
I0528 17:10:13.939357 10644 net.cpp:150] Setting up conv1
I0528 17:10:13.939375 10644 net.cpp:157] Top shape: 1 64 320 640 (13107200)
I0528 17:10:13.939378 10644 net.cpp:165] Memory required for data: 81920084
I0528 17:10:13.939433 10644 layer_factory.hpp:77] Creating layer bn_conv1
I0528 17:10:13.939460 10644 net.cpp:100] Creating Layer bn_conv1
I0528 17:10:13.939468 10644 net.cpp:444] bn_conv1 <- conv1
I0528 17:10:13.939482 10644 net.cpp:405] bn_conv1 -> conv1 (in-place)
I0528 17:10:13.939966 10644 net.cpp:150] Setting up bn_conv1
I0528 17:10:13.939973 10644 net.cpp:157] Top shape: 1 64 320 640 (13107200)
I0528 17:10:13.939975 10644 net.cpp:165] Memory required for data: 134348884
I0528 17:10:13.939997 10644 layer_factory.hpp:77] Creating layer scale_conv1
I0528 17:10:13.940012 10644 net.cpp:100] Creating Layer scale_conv1
I0528 17:10:13.940017 10644 net.cpp:444] scale_conv1 <- conv1
I0528 17:10:13.940028 10644 net.cpp:405] scale_conv1 -> conv1 (in-place)
I0528 17:10:13.940083 10644 layer_factory.hpp:77] Creating layer scale_conv1
I0528 17:10:13.941429 10644 net.cpp:150] Setting up scale_conv1
I0528 17:10:13.941440 10644 net.cpp:157] Top shape: 1 64 320 640 (13107200)
I0528 17:10:13.941442 10644 net.cpp:165] Memory required for data: 186777684
I0528 17:10:13.941453 10644 layer_factory.hpp:77] Creating layer conv1_relu
I0528 17:10:13.941465 10644 net.cpp:100] Creating Layer conv1_relu
I0528 17:10:13.941470 10644 net.cpp:444] conv1_relu <- conv1
I0528 17:10:13.941481 10644 net.cpp:405] conv1_relu -> conv1 (in-place)
I0528 17:10:13.941642 10644 net.cpp:150] Setting up conv1_relu
I0528 17:10:13.941648 10644 net.cpp:157] Top shape: 1 64 320 640 (13107200)
I0528 17:10:13.941650 10644 net.cpp:165] Memory required for data: 239206484
I0528 17:10:13.941653 10644 layer_factory.hpp:77] Creating layer pool1
I0528 17:10:13.941673 10644 net.cpp:100] Creating Layer pool1
I0528 17:10:13.941678 10644 net.cpp:444] pool1 <- conv1
I0528 17:10:13.941689 10644 net.cpp:418] pool1 -> pool1
I0528 17:10:13.941742 10644 net.cpp:150] Setting up pool1
I0528 17:10:13.941751 10644 net.cpp:157] Top shape: 1 64 160 320 (3276800)
I0528 17:10:13.941752 10644 net.cpp:165] Memory required for data: 252313684
I0528 17:10:13.941756 10644 layer_factory.hpp:77] Creating layer pool1_pool1_0_split
I0528 17:10:13.941764 10644 net.cpp:100] Creating Layer pool1_pool1_0_split
I0528 17:10:13.941768 10644 net.cpp:444] pool1_pool1_0_split <- pool1
I0528 17:10:13.941776 10644 net.cpp:418] pool1_pool1_0_split -> pool1_pool1_0_split_0
I0528 17:10:13.941787 10644 net.cpp:418] pool1_pool1_0_split -> pool1_pool1_0_split_1
I0528 17:10:13.941829 10644 net.cpp:150] Setting up pool1_pool1_0_split
I0528 17:10:13.941836 10644 net.cpp:157] Top shape: 1 64 160 320 (3276800)
I0528 17:10:13.941839 10644 net.cpp:157] Top shape: 1 64 160 320 (3276800)
I0528 17:10:13.941841 10644 net.cpp:165] Memory required for data: 278528084
I0528 17:10:13.941844 10644 layer_factory.hpp:77] Creating layer res2a_branch1
I0528 17:10:13.941860 10644 net.cpp:100] Creating Layer res2a_branch1
I0528 17:10:13.941864 10644 net.cpp:444] res2a_branch1 <- pool1_pool1_0_split_0
I0528 17:10:13.941876 10644 net.cpp:418] res2a_branch1 -> res2a_branch1
I0528 17:10:13.942757 10644 cudnn_conv_layer.cpp:194] Reallocating workspace storage: 928152
I0528 17:10:13.944481 10644 net.cpp:150] Setting up res2a_branch1
I0528 17:10:13.944494 10644 net.cpp:157] Top shape: 1 256 160 320 (13107200)
I0528 17:10:13.944496 10644 net.cpp:165] Memory required for data: 330956884
I0528 17:10:13.944507 10644 layer_factory.hpp:77] Creating layer bn2a_branch1
I0528 17:10:13.944520 10644 net.cpp:100] Creating Layer bn2a_branch1
I0528 17:10:13.944525 10644 net.cpp:444] bn2a_branch1 <- res2a_branch1
I0528 17:10:13.944537 10644 net.cpp:405] bn2a_branch1 -> res2a_branch1 (in-place)
I0528 17:10:13.945518 10644 net.cpp:150] Setting up bn2a_branch1
I0528 17:10:13.945525 10644 net.cpp:157] Top shape: 1 256 160 320 (13107200)
I0528 17:10:13.945528 10644 net.cpp:165] Memory required for data: 383385684
I0528 17:10:13.945557 10644 layer_factory.hpp:77] Creating layer scale2a_branch1
I0528 17:10:13.945572 10644 net.cpp:100] Creating Layer scale2a_branch1
I0528 17:10:13.945578 10644 net.cpp:444] scale2a_branch1 <- res2a_branch1
I0528 17:10:13.945590 10644 net.cpp:405] scale2a_branch1 -> res2a_branch1 (in-place)
I0528 17:10:13.945649 10644 layer_factory.hpp:77] Creating layer scale2a_branch1
I0528 17:10:13.945905 10644 net.cpp:150] Setting up scale2a_branch1
I0528 17:10:13.945912 10644 net.cpp:157] Top shape: 1 256 160 320 (13107200)
I0528 17:10:13.945914 10644 net.cpp:165] Memory required for data: 435814484
I0528 17:10:13.945922 10644 layer_factory.hpp:77] Creating layer res2a_branch2a
I0528 17:10:13.945935 10644 net.cpp:100] Creating Layer res2a_branch2a
I0528 17:10:13.945940 10644 net.cpp:444] res2a_branch2a <- pool1_pool1_0_split_1
I0528 17:10:13.945950 10644 net.cpp:418] res2a_branch2a -> res2a_branch2a
I0528 17:10:13.947450 10644 cudnn_conv_layer.cpp:194] Reallocating workspace storage: 928152
I0528 17:10:13.947468 10644 net.cpp:150] Setting up res2a_branch2a
I0528 17:10:13.947476 10644 net.cpp:157] Top shape: 1 64 160 320 (3276800)
I0528 17:10:13.947479 10644 net.cpp:165] Memory required for data: 448921684
I0528 17:10:13.947487 10644 layer_factory.hpp:77] Creating layer bn2a_branch2a
I0528 17:10:13.947501 10644 net.cpp:100] Creating Layer bn2a_branch2a
I0528 17:10:13.947507 10644 net.cpp:444] bn2a_branch2a <- res2a_branch2a
I0528 17:10:13.947544 10644 net.cpp:405] bn2a_branch2a -> res2a_branch2a (in-place)
I0528 17:10:13.947832 10644 net.cpp:150] Setting up bn2a_branch2a
I0528 17:10:13.947839 10644 net.cpp:157] Top shape: 1 64 160 320 (3276800)
I0528 17:10:13.947841 10644 net.cpp:165] Memory required for data: 462028884
I0528 17:10:13.947863 10644 layer_factory.hpp:77] Creating layer scale2a_branch2a
I0528 17:10:13.947877 10644 net.cpp:100] Creating Layer scale2a_branch2a
I0528 17:10:13.947882 10644 net.cpp:444] scale2a_branch2a <- res2a_branch2a
I0528 17:10:13.947891 10644 net.cpp:405] scale2a_branch2a -> res2a_branch2a (in-place)
I0528 17:10:13.947954 10644 layer_factory.hpp:77] Creating layer scale2a_branch2a
I0528 17:10:13.948223 10644 net.cpp:150] Setting up scale2a_branch2a
I0528 17:10:13.948230 10644 net.cpp:157] Top shape: 1 64 160 320 (3276800)
I0528 17:10:13.948233 10644 net.cpp:165] Memory required for data: 475136084
I0528 17:10:13.948246 10644 layer_factory.hpp:77] Creating layer res2a_branch2a_relu
I0528 17:10:13.948263 10644 net.cpp:100] Creating Layer res2a_branch2a_relu
I0528 17:10:13.948271 10644 net.cpp:444] res2a_branch2a_relu <- res2a_branch2a
I0528 17:10:13.948282 10644 net.cpp:405] res2a_branch2a_relu -> res2a_branch2a (in-place)
I0528 17:10:13.948413 10644 net.cpp:150] Setting up res2a_branch2a_relu
I0528 17:10:13.948421 10644 net.cpp:157] Top shape: 1 64 160 320 (3276800)
I0528 17:10:13.948423 10644 net.cpp:165] Memory required for data: 488243284
I0528 17:10:13.948427 10644 layer_factory.hpp:77] Creating layer res2a_branch2b
I0528 17:10:13.948442 10644 net.cpp:100] Creating Layer res2a_branch2b
I0528 17:10:13.948448 10644 net.cpp:444] res2a_branch2b <- res2a_branch2a
I0528 17:10:13.948462 10644 net.cpp:418] res2a_branch2b -> res2a_branch2b
I0528 17:10:13.949419 10644 cudnn_conv_layer.cpp:194] Reallocating workspace storage: 786432
I0528 17:10:13.949765 10644 net.cpp:150] Setting up res2a_branch2b
I0528 17:10:13.949776 10644 net.cpp:157] Top shape: 1 64 160 320 (3276800)
I0528 17:10:13.949779 10644 net.cpp:165] Memory required for data: 501350484
I0528 17:10:13.949789 10644 layer_factory.hpp:77] Creating layer bn2a_branch2b
I0528 17:10:13.949800 10644 net.cpp:100] Creating Layer bn2a_branch2b
I0528 17:10:13.949805 10644 net.cpp:444] bn2a_branch2b <- res2a_branch2b
I0528 17:10:13.949815 10644 net.cpp:405] bn2a_branch2b -> res2a_branch2b (in-place)
I0528 17:10:13.950096 10644 net.cpp:150] Setting up bn2a_branch2b
I0528 17:10:13.950103 10644 net.cpp:157] Top shape: 1 64 160 320 (3276800)
I0528 17:10:13.950104 10644 net.cpp:165] Memory required for data: 514457684
I0528 17:10:13.950117 10644 layer_factory.hpp:77] Creating layer scale2a_branch2b
I0528 17:10:13.950127 10644 net.cpp:100] Creating Layer scale2a_branch2b
I0528 17:10:13.950132 10644 net.cpp:444] scale2a_branch2b <- res2a_branch2b
I0528 17:10:13.950141 10644 net.cpp:405] scale2a_branch2b -> res2a_branch2b (in-place)
I0528 17:10:13.950191 10644 layer_factory.hpp:77] Creating layer scale2a_branch2b
I0528 17:10:13.950454 10644 net.cpp:150] Setting up scale2a_branch2b
I0528 17:10:13.950461 10644 net.cpp:157] Top shape: 1 64 160 320 (3276800)
I0528 17:10:13.950464 10644 net.cpp:165] Memory required for data: 527564884
I0528 17:10:13.950477 10644 layer_factory.hpp:77] Creating layer res2a_branch2b_relu
I0528 17:10:13.950489 10644 net.cpp:100] Creating Layer res2a_branch2b_relu
I0528 17:10:13.950495 10644 net.cpp:444] res2a_branch2b_relu <- res2a_branch2b
I0528 17:10:13.950507 10644 net.cpp:405] res2a_branch2b_relu -> res2a_branch2b (in-place)
I0528 17:10:13.950956 10644 net.cpp:150] Setting up res2a_branch2b_relu
I0528 17:10:13.950983 10644 net.cpp:157] Top shape: 1 64 160 320 (3276800)
I0528 17:10:13.950992 10644 net.cpp:165] Memory required for data: 540672084
I0528 17:10:13.951005 10644 layer_factory.hpp:77] Creating layer res2a_branch2c
I0528 17:10:13.951035 10644 net.cpp:100] Creating Layer res2a_branch2c
I0528 17:10:13.951050 10644 net.cpp:444] res2a_branch2c <- res2a_branch2b
I0528 17:10:13.951076 10644 net.cpp:418] res2a_branch2c -> res2a_branch2c
I0528 17:10:13.952209 10644 cudnn_conv_layer.cpp:194] Reallocating workspace storage: 928152
I0528 17:10:13.952225 10644 net.cpp:150] Setting up res2a_branch2c
I0528 17:10:13.952237 10644 net.cpp:157] Top shape: 1 256 160 320 (13107200)
I0528 17:10:13.952240 10644 net.cpp:165] Memory required for data: 593100884
I0528 17:10:13.952252 10644 layer_factory.hpp:77] Creating layer bn2a_branch2c
I0528 17:10:13.952270 10644 net.cpp:100] Creating Layer bn2a_branch2c
I0528 17:10:13.952277 10644 net.cpp:444] bn2a_branch2c <- res2a_branch2c
I0528 17:10:13.952291 10644 net.cpp:405] bn2a_branch2c -> res2a_branch2c (in-place)
I0528 17:10:13.953398 10644 net.cpp:150] Setting up bn2a_branch2c
I0528 17:10:13.953410 10644 net.cpp:157] Top shape: 1 256 160 320 (13107200)
I0528 17:10:13.953413 10644 net.cpp:165] Memory required for data: 645529684
I0528 17:10:13.953438 10644 layer_factory.hpp:77] Creating layer scale2a_branch2c
I0528 17:10:13.953459 10644 net.cpp:100] Creating Layer scale2a_branch2c
I0528 17:10:13.953469 10644 net.cpp:444] scale2a_branch2c <- res2a_branch2c
I0528 17:10:13.953485 10644 net.cpp:405] scale2a_branch2c -> res2a_branch2c (in-place)
I0528 17:10:13.953553 10644 layer_factory.hpp:77] Creating layer scale2a_branch2c
I0528 17:10:13.953820 10644 net.cpp:150] Setting up scale2a_branch2c
I0528 17:10:13.953829 10644 net.cpp:157] Top shape: 1 256 160 320 (13107200)
I0528 17:10:13.953831 10644 net.cpp:165] Memory required for data: 697958484
I0528 17:10:13.953843 10644 layer_factory.hpp:77] Creating layer res2a
I0528 17:10:13.953855 10644 net.cpp:100] Creating Layer res2a
I0528 17:10:13.953861 10644 net.cpp:444] res2a <- res2a_branch1
I0528 17:10:13.953873 10644 net.cpp:444] res2a <- res2a_branch2c
I0528 17:10:13.953883 10644 net.cpp:418] res2a -> res2a
I0528 17:10:13.953925 10644 net.cpp:150] Setting up res2a
I0528 17:10:13.953934 10644 net.cpp:157] Top shape: 1 256 160 320 (13107200)
I0528 17:10:13.953938 10644 net.cpp:165] Memory required for data: 750387284
I0528 17:10:13.953943 10644 layer_factory.hpp:77] Creating layer res2a_relu
I0528 17:10:13.953954 10644 net.cpp:100] Creating Layer res2a_relu
I0528 17:10:13.953959 10644 net.cpp:444] res2a_relu <- res2a
I0528 17:10:13.953971 10644 net.cpp:405] res2a_relu -> res2a (in-place)
I0528 17:10:13.954136 10644 net.cpp:150] Setting up res2a_relu
I0528 17:10:13.954144 10644 net.cpp:157] Top shape: 1 256 160 320 (13107200)
I0528 17:10:13.954147 10644 net.cpp:165] Memory required for data: 802816084
I0528 17:10:13.954151 10644 layer_factory.hpp:77] Creating layer res2a_res2a_relu_0_split
I0528 17:10:13.954164 10644 net.cpp:100] Creating Layer res2a_res2a_relu_0_split
I0528 17:10:13.954169 10644 net.cpp:444] res2a_res2a_relu_0_split <- res2a
I0528 17:10:13.954182 10644 net.cpp:418] res2a_res2a_relu_0_split -> res2a_res2a_relu_0_split_0
I0528 17:10:13.954198 10644 net.cpp:418] res2a_res2a_relu_0_split -> res2a_res2a_relu_0_split_1
I0528 17:10:13.954248 10644 net.cpp:150] Setting up res2a_res2a_relu_0_split
I0528 17:10:13.954257 10644 net.cpp:157] Top shape: 1 256 160 320 (13107200)
I0528 17:10:13.954263 10644 net.cpp:157] Top shape: 1 256 160 320 (13107200)
I0528 17:10:13.954267 10644 net.cpp:165] Memory required for data: 907673684
I0528 17:10:13.954272 10644 layer_factory.hpp:77] Creating layer res2b_branch2a
I0528 17:10:13.954288 10644 net.cpp:100] Creating Layer res2b_branch2a
I0528 17:10:13.954294 10644 net.cpp:444] res2b_branch2a <- res2a_res2a_relu_0_split_0
I0528 17:10:13.954310 10644 net.cpp:418] res2b_branch2a -> res2b_branch2a
I0528 17:10:13.955265 10644 cudnn_conv_layer.cpp:194] Reallocating workspace storage: 928152
I0528 17:10:13.955524 10644 net.cpp:150] Setting up res2b_branch2a
I0528 17:10:13.955534 10644 net.cpp:157] Top shape: 1 64 160 320 (3276800)
I0528 17:10:13.955539 10644 net.cpp:165] Memory required for data: 920780884
I0528 17:10:13.955552 10644 layer_factory.hpp:77] Creating layer bn2b_branch2a
I0528 17:10:13.955569 10644 net.cpp:100] Creating Layer bn2b_branch2a
I0528 17:10:13.955575 10644 net.cpp:444] bn2b_branch2a <- res2b_branch2a
I0528 17:10:13.955591 10644 net.cpp:405] bn2b_branch2a -> res2b_branch2a (in-place)
I0528 17:10:13.955883 10644 net.cpp:150] Setting up bn2b_branch2a
I0528 17:10:13.955893 10644 net.cpp:157] Top shape: 1 64 160 320 (3276800)
I0528 17:10:13.955895 10644 net.cpp:165] Memory required for data: 933888084
I0528 17:10:13.955926 10644 layer_factory.hpp:77] Creating layer scale2b_branch2a
I0528 17:10:13.955943 10644 net.cpp:100] Creating Layer scale2b_branch2a
I0528 17:10:13.955950 10644 net.cpp:444] scale2b_branch2a <- res2b_branch2a
I0528 17:10:13.955963 10644 net.cpp:405] scale2b_branch2a -> res2b_branch2a (in-place)
I0528 17:10:13.956027 10644 layer_factory.hpp:77] Creating layer scale2b_branch2a
I0528 17:10:13.956312 10644 net.cpp:150] Setting up scale2b_branch2a
I0528 17:10:13.956321 10644 net.cpp:157] Top shape: 1 64 160 320 (3276800)
I0528 17:10:13.956323 10644 net.cpp:165] Memory required for data: 946995284
I0528 17:10:13.956336 10644 layer_factory.hpp:77] Creating layer res2b_branch2a_relu
I0528 17:10:13.956347 10644 net.cpp:100] Creating Layer res2b_branch2a_relu
I0528 17:10:13.956353 10644 net.cpp:444] res2b_branch2a_relu <- res2b_branch2a
I0528 17:10:13.956367 10644 net.cpp:405] res2b_branch2a_relu -> res2b_branch2a (in-place)
I0528 17:10:13.956514 10644 net.cpp:150] Setting up res2b_branch2a_relu
I0528 17:10:13.956521 10644 net.cpp:157] Top shape: 1 64 160 320 (3276800)
I0528 17:10:13.956524 10644 net.cpp:165] Memory required for data: 960102484
I0528 17:10:13.956529 10644 layer_factory.hpp:77] Creating layer res2b_branch2b
I0528 17:10:13.956547 10644 net.cpp:100] Creating Layer res2b_branch2b
I0528 17:10:13.956552 10644 net.cpp:444] res2b_branch2b <- res2b_branch2a
I0528 17:10:13.956570 10644 net.cpp:418] res2b_branch2b -> res2b_branch2b
I0528 17:10:13.957490 10644 cudnn_conv_layer.cpp:194] Reallocating workspace storage: 786432
I0528 17:10:13.957511 10644 net.cpp:150] Setting up res2b_branch2b
I0528 17:10:13.957520 10644 net.cpp:157] Top shape: 1 64 160 320 (3276800)
I0528 17:10:13.957523 10644 net.cpp:165] Memory required for data: 973209684
I0528 17:10:13.957535 10644 layer_factory.hpp:77] Creating layer bn2b_branch2b
I0528 17:10:13.957557 10644 net.cpp:100] Creating Layer bn2b_branch2b
I0528 17:10:13.957564 10644 net.cpp:444] bn2b_branch2b <- res2b_branch2b
I0528 17:10:13.957581 10644 net.cpp:405] bn2b_branch2b -> res2b_branch2b (in-place)
I0528 17:10:13.957867 10644 net.cpp:150] Setting up bn2b_branch2b
I0528 17:10:13.957875 10644 net.cpp:157] Top shape: 1 64 160 320 (3276800)
I0528 17:10:13.957877 10644 net.cpp:165] Memory required for data: 986316884
I0528 17:10:13.957895 10644 layer_factory.hpp:77] Creating layer scale2b_branch2b
I0528 17:10:13.957908 10644 net.cpp:100] Creating Layer scale2b_branch2b
I0528 17:10:13.957916 10644 net.cpp:444] scale2b_branch2b <- res2b_branch2b
I0528 17:10:13.957929 10644 net.cpp:405] scale2b_branch2b -> res2b_branch2b (in-place)
I0528 17:10:13.957989 10644 layer_factory.hpp:77] Creating layer scale2b_branch2b
I0528 17:10:13.958264 10644 net.cpp:150] Setting up scale2b_branch2b
I0528 17:10:13.958272 10644 net.cpp:157] Top shape: 1 64 160 320 (3276800)
I0528 17:10:13.958276 10644 net.cpp:165] Memory required for data: 999424084
I0528 17:10:13.958287 10644 layer_factory.hpp:77] Creating layer res2b_branch2b_relu
I0528 17:10:13.958298 10644 net.cpp:100] Creating Layer res2b_branch2b_relu
I0528 17:10:13.958304 10644 net.cpp:444] res2b_branch2b_relu <- res2b_branch2b
I0528 17:10:13.958317 10644 net.cpp:405] res2b_branch2b_relu -> res2b_branch2b (in-place)
I0528 17:10:13.958686 10644 net.cpp:150] Setting up res2b_branch2b_relu
I0528 17:10:13.958695 10644 net.cpp:157] Top shape: 1 64 160 320 (3276800)
I0528 17:10:13.958698 10644 net.cpp:165] Memory required for data: 1012531284
I0528 17:10:13.958703 10644 layer_factory.hpp:77] Creating layer res2b_branch2c
I0528 17:10:13.958721 10644 net.cpp:100] Creating Layer res2b_branch2c
I0528 17:10:13.958727 10644 net.cpp:444] res2b_branch2c <- res2b_branch2b
I0528 17:10:13.958744 10644 net.cpp:418] res2b_branch2c -> res2b_branch2c
I0528 17:10:13.959594 10644 cudnn_conv_layer.cpp:194] Reallocating workspace storage: 928152
I0528 17:10:13.959828 10644 net.cpp:150] Setting up res2b_branch2c
I0528 17:10:13.959841 10644 net.cpp:157] Top shape: 1 256 160 320 (13107200)
I0528 17:10:13.959844 10644 net.cpp:165] Memory required for data: 1064960084
I0528 17:10:13.959856 10644 layer_factory.hpp:77] Creating layer bn2b_branch2c
I0528 17:10:13.959869 10644 net.cpp:100] Creating Layer bn2b_branch2c
I0528 17:10:13.959877 10644 net.cpp:444] bn2b_branch2c <- res2b_branch2c
I0528 17:10:13.959892 10644 net.cpp:405] bn2b_branch2c -> res2b_branch2c (in-place)
I0528 17:10:13.960834 10644 net.cpp:150] Setting up bn2b_branch2c
I0528 17:10:13.960842 10644 net.cpp:157] Top shape: 1 256 160 320 (13107200)
I0528 17:10:13.960845 10644 net.cpp:165] Memory required for data: 1117388884
I0528 17:10:13.960863 10644 layer_factory.hpp:77] Creating layer scale2b_branch2c
I0528 17:10:13.960880 10644 net.cpp:100] Creating Layer scale2b_branch2c
I0528 17:10:13.960887 10644 net.cpp:444] scale2b_branch2c <- res2b_branch2c
I0528 17:10:13.960903 10644 net.cpp:405] scale2b_branch2c -> res2b_branch2c (in-place)
I0528 17:10:13.960981 10644 layer_factory.hpp:77] Creating layer scale2b_branch2c
I0528 17:10:13.961256 10644 net.cpp:150] Setting up scale2b_branch2c
I0528 17:10:13.961264 10644 net.cpp:157] Top shape: 1 256 160 320 (13107200)
I0528 17:10:13.961267 10644 net.cpp:165] Memory required for data: 1169817684
I0528 17:10:13.961279 10644 layer_factory.hpp:77] Creating layer res2b
I0528 17:10:13.961292 10644 net.cpp:100] Creating Layer res2b
I0528 17:10:13.961298 10644 net.cpp:444] res2b <- res2a_res2a_relu_0_split_1
I0528 17:10:13.961309 10644 net.cpp:444] res2b <- res2b_branch2c
I0528 17:10:13.961320 10644 net.cpp:418] res2b -> res2b
I0528 17:10:13.961360 10644 net.cpp:150] Setting up res2b
I0528 17:10:13.961369 10644 net.cpp:157] Top shape: 1 256 160 320 (13107200)
I0528 17:10:13.961374 10644 net.cpp:165] Memory required for data: 1222246484
I0528 17:10:13.961377 10644 layer_factory.hpp:77] Creating layer res2b_relu
I0528 17:10:13.961388 10644 net.cpp:100] Creating Layer res2b_relu
I0528 17:10:13.961395 10644 net.cpp:444] res2b_relu <- res2b
I0528 17:10:13.961407 10644 net.cpp:405] res2b_relu -> res2b (in-place)
I0528 17:10:13.961549 10644 net.cpp:150] Setting up res2b_relu
I0528 17:10:13.961556 10644 net.cpp:157] Top shape: 1 256 160 320 (13107200)
I0528 17:10:13.961560 10644 net.cpp:165] Memory required for data: 1274675284
I0528 17:10:13.961565 10644 layer_factory.hpp:77] Creating layer res2b_res2b_relu_0_split
I0528 17:10:13.961575 10644 net.cpp:100] Creating Layer res2b_res2b_relu_0_split
I0528 17:10:13.961581 10644 net.cpp:444] res2b_res2b_relu_0_split <- res2b
I0528 17:10:13.961596 10644 net.cpp:418] res2b_res2b_relu_0_split -> res2b_res2b_relu_0_split_0
I0528 17:10:13.961611 10644 net.cpp:418] res2b_res2b_relu_0_split -> res2b_res2b_relu_0_split_1
I0528 17:10:13.961664 10644 net.cpp:150] Setting up res2b_res2b_relu_0_split
I0528 17:10:13.961673 10644 net.cpp:157] Top shape: 1 256 160 320 (13107200)
I0528 17:10:13.961678 10644 net.cpp:157] Top shape: 1 256 160 320 (13107200)
I0528 17:10:13.961683 10644 net.cpp:165] Memory required for data: 1379532884
I0528 17:10:13.961686 10644 layer_factory.hpp:77] Creating layer res2c_branch2a
I0528 17:10:13.961702 10644 net.cpp:100] Creating Layer res2c_branch2a
I0528 17:10:13.961709 10644 net.cpp:444] res2c_branch2a <- res2b_res2b_relu_0_split_0
I0528 17:10:13.961724 10644 net.cpp:418] res2c_branch2a -> res2c_branch2a
I0528 17:10:13.962600 10644 cudnn_conv_layer.cpp:194] Reallocating workspace storage: 928152
I0528 17:10:13.962620 10644 net.cpp:150] Setting up res2c_branch2a
I0528 17:10:13.962630 10644 net.cpp:157] Top shape: 1 64 160 320 (3276800)
I0528 17:10:13.962632 10644 net.cpp:165] Memory required for data: 1392640084
I0528 17:10:13.962644 10644 layer_factory.hpp:77] Creating layer bn2c_branch2a
I0528 17:10:13.962658 10644 net.cpp:100] Creating Layer bn2c_branch2a
I0528 17:10:13.962666 10644 net.cpp:444] bn2c_branch2a <- res2c_branch2a
I0528 17:10:13.962682 10644 net.cpp:405] bn2c_branch2a -> res2c_branch2a (in-place)
I0528 17:10:13.962980 10644 net.cpp:150] Setting up bn2c_branch2a
I0528 17:10:13.962986 10644 net.cpp:157] Top shape: 1 64 160 320 (3276800)
I0528 17:10:13.962990 10644 net.cpp:165] Memory required for data: 1405747284
I0528 17:10:13.963006 10644 layer_factory.hpp:77] Creating layer scale2c_branch2a
I0528 17:10:13.963021 10644 net.cpp:100] Creating Layer scale2c_branch2a
I0528 17:10:13.963027 10644 net.cpp:444] scale2c_branch2a <- res2c_branch2a
I0528 17:10:13.963040 10644 net.cpp:405] scale2c_branch2a -> res2c_branch2a (in-place)
I0528 17:10:13.963101 10644 layer_factory.hpp:77] Creating layer scale2c_branch2a
I0528 17:10:13.963377 10644 net.cpp:150] Setting up scale2c_branch2a
I0528 17:10:13.963384 10644 net.cpp:157] Top shape: 1 64 160 320 (3276800)
I0528 17:10:13.963388 10644 net.cpp:165] Memory required for data: 1418854484
I0528 17:10:13.963400 10644 layer_factory.hpp:77] Creating layer res2c_branch2a_relu
I0528 17:10:13.963412 10644 net.cpp:100] Creating Layer res2c_branch2a_relu
I0528 17:10:13.963418 10644 net.cpp:444] res2c_branch2a_relu <- res2c_branch2a
I0528 17:10:13.963431 10644 net.cpp:405] res2c_branch2a_relu -> res2c_branch2a (in-place)
I0528 17:10:13.963564 10644 net.cpp:150] Setting up res2c_branch2a_relu
I0528 17:10:13.963572 10644 net.cpp:157] Top shape: 1 64 160 320 (3276800)
I0528 17:10:13.963574 10644 net.cpp:165] Memory required for data: 1431961684
I0528 17:10:13.963579 10644 layer_factory.hpp:77] Creating layer res2c_branch2b
I0528 17:10:13.963595 10644 net.cpp:100] Creating Layer res2c_branch2b
I0528 17:10:13.963601 10644 net.cpp:444] res2c_branch2b <- res2c_branch2a
I0528 17:10:13.963618 10644 net.cpp:418] res2c_branch2b -> res2c_branch2b
I0528 17:10:13.964516 10644 cudnn_conv_layer.cpp:194] Reallocating workspace storage: 786432
I0528 17:10:13.964766 10644 net.cpp:150] Setting up res2c_branch2b
I0528 17:10:13.964776 10644 net.cpp:157] Top shape: 1 64 160 320 (3276800)
I0528 17:10:13.964781 10644 net.cpp:165] Memory required for data: 1445068884
I0528 17:10:13.964793 10644 layer_factory.hpp:77] Creating layer bn2c_branch2b
I0528 17:10:13.964810 10644 net.cpp:100] Creating Layer bn2c_branch2b
I0528 17:10:13.964818 10644 net.cpp:444] bn2c_branch2b <- res2c_branch2b
I0528 17:10:13.964833 10644 net.cpp:405] bn2c_branch2b -> res2c_branch2b (in-place)
I0528 17:10:13.965140 10644 net.cpp:150] Setting up bn2c_branch2b
I0528 17:10:13.965148 10644 net.cpp:157] Top shape: 1 64 160 320 (3276800)
I0528 17:10:13.965152 10644 net.cpp:165] Memory required for data: 1458176084
I0528 17:10:13.965167 10644 layer_factory.hpp:77] Creating layer scale2c_branch2b
I0528 17:10:13.965183 10644 net.cpp:100] Creating Layer scale2c_branch2b
I0528 17:10:13.965189 10644 net.cpp:444] scale2c_branch2b <- res2c_branch2b
I0528 17:10:13.965204 10644 net.cpp:405] scale2c_branch2b -> res2c_branch2b (in-place)
I0528 17:10:13.965265 10644 layer_factory.hpp:77] Creating layer scale2c_branch2b
I0528 17:10:13.965543 10644 net.cpp:150] Setting up scale2c_branch2b
I0528 17:10:13.965550 10644 net.cpp:157] Top shape: 1 64 160 320 (3276800)
I0528 17:10:13.965553 10644 net.cpp:165] Memory required for data: 1471283284
I0528 17:10:13.965565 10644 layer_factory.hpp:77] Creating layer res2c_branch2b_relu
I0528 17:10:13.965579 10644 net.cpp:100] Creating Layer res2c_branch2b_relu
I0528 17:10:13.965585 10644 net.cpp:444] res2c_branch2b_relu <- res2c_branch2b
I0528 17:10:13.965597 10644 net.cpp:405] res2c_branch2b_relu -> res2c_branch2b (in-place)
I0528 17:10:13.965741 10644 net.cpp:150] Setting up res2c_branch2b_relu
I0528 17:10:13.965749 10644 net.cpp:157] Top shape: 1 64 160 320 (3276800)
I0528 17:10:13.965751 10644 net.cpp:165] Memory required for data: 1484390484
I0528 17:10:13.965756 10644 layer_factory.hpp:77] Creating layer res2c_branch2c
I0528 17:10:13.965773 10644 net.cpp:100] Creating Layer res2c_branch2c
I0528 17:10:13.965780 10644 net.cpp:444] res2c_branch2c <- res2c_branch2b
I0528 17:10:13.965804 10644 net.cpp:418] res2c_branch2c -> res2c_branch2c
I0528 17:10:13.966712 10644 cudnn_conv_layer.cpp:194] Reallocating workspace storage: 928152
I0528 17:10:13.966727 10644 net.cpp:150] Setting up res2c_branch2c
I0528 17:10:13.966737 10644 net.cpp:157] Top shape: 1 256 160 320 (13107200)
I0528 17:10:13.966740 10644 net.cpp:165] Memory required for data: 1536819284
I0528 17:10:13.966753 10644 layer_factory.hpp:77] Creating layer bn2c_branch2c
I0528 17:10:13.966768 10644 net.cpp:100] Creating Layer bn2c_branch2c
I0528 17:10:13.966774 10644 net.cpp:444] bn2c_branch2c <- res2c_branch2c
I0528 17:10:13.966791 10644 net.cpp:405] bn2c_branch2c -> res2c_branch2c (in-place)
I0528 17:10:13.967770 10644 net.cpp:150] Setting up bn2c_branch2c
I0528 17:10:13.967779 10644 net.cpp:157] Top shape: 1 256 160 320 (13107200)
I0528 17:10:13.967783 10644 net.cpp:165] Memory required for data: 1589248084
I0528 17:10:13.967823 10644 layer_factory.hpp:77] Creating layer scale2c_branch2c
I0528 17:10:13.967841 10644 net.cpp:100] Creating Layer scale2c_branch2c
I0528 17:10:13.967849 10644 net.cpp:444] scale2c_branch2c <- res2c_branch2c
I0528 17:10:13.967864 10644 net.cpp:405] scale2c_branch2c -> res2c_branch2c (in-place)
I0528 17:10:13.967927 10644 layer_factory.hpp:77] Creating layer scale2c_branch2c
I0528 17:10:13.968196 10644 net.cpp:150] Setting up scale2c_branch2c
I0528 17:10:13.968204 10644 net.cpp:157] Top shape: 1 256 160 320 (13107200)
I0528 17:10:13.968206 10644 net.cpp:165] Memory required for data: 1641676884
I0528 17:10:13.968219 10644 layer_factory.hpp:77] Creating layer res2c
I0528 17:10:13.968230 10644 net.cpp:100] Creating Layer res2c
I0528 17:10:13.968237 10644 net.cpp:444] res2c <- res2b_res2b_relu_0_split_1
I0528 17:10:13.968248 10644 net.cpp:444] res2c <- res2c_branch2c
I0528 17:10:13.968261 10644 net.cpp:418] res2c -> res2c
I0528 17:10:13.968299 10644 net.cpp:150] Setting up res2c
I0528 17:10:13.968308 10644 net.cpp:157] Top shape: 1 256 160 320 (13107200)
I0528 17:10:13.968312 10644 net.cpp:165] Memory required for data: 1694105684
I0528 17:10:13.968317 10644 layer_factory.hpp:77] Creating layer res2c_relu
I0528 17:10:13.968328 10644 net.cpp:100] Creating Layer res2c_relu
I0528 17:10:13.968333 10644 net.cpp:444] res2c_relu <- res2c
I0528 17:10:13.968346 10644 net.cpp:405] res2c_relu -> res2c (in-place)
I0528 17:10:13.968739 10644 net.cpp:150] Setting up res2c_relu
I0528 17:10:13.968746 10644 net.cpp:157] Top shape: 1 256 160 320 (13107200)
I0528 17:10:13.968750 10644 net.cpp:165] Memory required for data: 1746534484
I0528 17:10:13.968755 10644 layer_factory.hpp:77] Creating layer res2c_res2c_relu_0_split
I0528 17:10:13.968768 10644 net.cpp:100] Creating Layer res2c_res2c_relu_0_split
I0528 17:10:13.968775 10644 net.cpp:444] res2c_res2c_relu_0_split <- res2c
I0528 17:10:13.968789 10644 net.cpp:418] res2c_res2c_relu_0_split -> res2c_res2c_relu_0_split_0
I0528 17:10:13.968807 10644 net.cpp:418] res2c_res2c_relu_0_split -> res2c_res2c_relu_0_split_1
I0528 17:10:13.968861 10644 net.cpp:150] Setting up res2c_res2c_relu_0_split
I0528 17:10:13.968870 10644 net.cpp:157] Top shape: 1 256 160 320 (13107200)
I0528 17:10:13.968876 10644 net.cpp:157] Top shape: 1 256 160 320 (13107200)
I0528 17:10:13.968880 10644 net.cpp:165] Memory required for data: 1851392084
I0528 17:10:13.968885 10644 layer_factory.hpp:77] Creating layer res3a_branch1
I0528 17:10:13.968902 10644 net.cpp:100] Creating Layer res3a_branch1
I0528 17:10:13.968909 10644 net.cpp:444] res3a_branch1 <- res2c_res2c_relu_0_split_0
I0528 17:10:13.968933 10644 net.cpp:418] res3a_branch1 -> res3a_branch1
I0528 17:10:13.970712 10644 cudnn_conv_layer.cpp:194] Reallocating workspace storage: 230424
I0528 17:10:13.970973 10644 net.cpp:150] Setting up res3a_branch1
I0528 17:10:13.970990 10644 net.cpp:157] Top shape: 1 512 80 160 (6553600)
I0528 17:10:13.970994 10644 net.cpp:165] Memory required for data: 1877606484
I0528 17:10:13.971011 10644 layer_factory.hpp:77] Creating layer bn3a_branch1
I0528 17:10:13.971036 10644 net.cpp:100] Creating Layer bn3a_branch1
I0528 17:10:13.971047 10644 net.cpp:444] bn3a_branch1 <- res3a_branch1
I0528 17:10:13.971067 10644 net.cpp:405] bn3a_branch1 -> res3a_branch1 (in-place)
I0528 17:10:13.972059 10644 net.cpp:150] Setting up bn3a_branch1
I0528 17:10:13.972070 10644 net.cpp:157] Top shape: 1 512 80 160 (6553600)
I0528 17:10:13.972074 10644 net.cpp:165] Memory required for data: 1903820884
I0528 17:10:13.972095 10644 layer_factory.hpp:77] Creating layer scale3a_branch1
I0528 17:10:13.972115 10644 net.cpp:100] Creating Layer scale3a_branch1
I0528 17:10:13.972121 10644 net.cpp:444] scale3a_branch1 <- res3a_branch1
I0528 17:10:13.972137 10644 net.cpp:405] scale3a_branch1 -> res3a_branch1 (in-place)
I0528 17:10:13.972200 10644 layer_factory.hpp:77] Creating layer scale3a_branch1
I0528 17:10:13.972385 10644 net.cpp:150] Setting up scale3a_branch1
I0528 17:10:13.972393 10644 net.cpp:157] Top shape: 1 512 80 160 (6553600)
I0528 17:10:13.972396 10644 net.cpp:165] Memory required for data: 1930035284
I0528 17:10:13.972409 10644 layer_factory.hpp:77] Creating layer res3a_branch2a
I0528 17:10:13.972426 10644 net.cpp:100] Creating Layer res3a_branch2a
I0528 17:10:13.972434 10644 net.cpp:444] res3a_branch2a <- res2c_res2c_relu_0_split_1
I0528 17:10:13.972448 10644 net.cpp:418] res3a_branch2a -> res3a_branch2a
I0528 17:10:13.973446 10644 cudnn_conv_layer.cpp:194] Reallocating workspace storage: 230424
I0528 17:10:13.973464 10644 net.cpp:150] Setting up res3a_branch2a
I0528 17:10:13.973474 10644 net.cpp:157] Top shape: 1 128 80 160 (1638400)
I0528 17:10:13.973476 10644 net.cpp:165] Memory required for data: 1936588884
I0528 17:10:13.973489 10644 layer_factory.hpp:77] Creating layer bn3a_branch2a
I0528 17:10:13.973505 10644 net.cpp:100] Creating Layer bn3a_branch2a
I0528 17:10:13.973511 10644 net.cpp:444] bn3a_branch2a <- res3a_branch2a
I0528 17:10:13.973526 10644 net.cpp:405] bn3a_branch2a -> res3a_branch2a (in-place)
I0528 17:10:13.973767 10644 net.cpp:150] Setting up bn3a_branch2a
I0528 17:10:13.973773 10644 net.cpp:157] Top shape: 1 128 80 160 (1638400)
I0528 17:10:13.973776 10644 net.cpp:165] Memory required for data: 1943142484
I0528 17:10:13.973793 10644 layer_factory.hpp:77] Creating layer scale3a_branch2a
I0528 17:10:13.973809 10644 net.cpp:100] Creating Layer scale3a_branch2a
I0528 17:10:13.973814 10644 net.cpp:444] scale3a_branch2a <- res3a_branch2a
I0528 17:10:13.973827 10644 net.cpp:405] scale3a_branch2a -> res3a_branch2a (in-place)
I0528 17:10:13.973886 10644 layer_factory.hpp:77] Creating layer scale3a_branch2a
I0528 17:10:13.974058 10644 net.cpp:150] Setting up scale3a_branch2a
I0528 17:10:13.974066 10644 net.cpp:157] Top shape: 1 128 80 160 (1638400)
I0528 17:10:13.974069 10644 net.cpp:165] Memory required for data: 1949696084
I0528 17:10:13.974081 10644 layer_factory.hpp:77] Creating layer res3a_branch2a_relu
I0528 17:10:13.974092 10644 net.cpp:100] Creating Layer res3a_branch2a_relu
I0528 17:10:13.974099 10644 net.cpp:444] res3a_branch2a_relu <- res3a_branch2a
I0528 17:10:13.974113 10644 net.cpp:405] res3a_branch2a_relu -> res3a_branch2a (in-place)
I0528 17:10:13.974247 10644 net.cpp:150] Setting up res3a_branch2a_relu
I0528 17:10:13.974256 10644 net.cpp:157] Top shape: 1 128 80 160 (1638400)
I0528 17:10:13.974258 10644 net.cpp:165] Memory required for data: 1956249684
I0528 17:10:13.974263 10644 layer_factory.hpp:77] Creating layer res3a_branch2b
I0528 17:10:13.974278 10644 net.cpp:100] Creating Layer res3a_branch2b
I0528 17:10:13.974284 10644 net.cpp:444] res3a_branch2b <- res3a_branch2a
I0528 17:10:13.974300 10644 net.cpp:418] res3a_branch2b -> res3a_branch2b
I0528 17:10:13.975368 10644 cudnn_conv_layer.cpp:194] Reallocating workspace storage: 3145728
I0528 17:10:13.975613 10644 net.cpp:150] Setting up res3a_branch2b
I0528 17:10:13.975625 10644 net.cpp:157] Top shape: 1 128 80 160 (1638400)
I0528 17:10:13.975628 10644 net.cpp:165] Memory required for data: 1962803284
I0528 17:10:13.975641 10644 layer_factory.hpp:77] Creating layer bn3a_branch2b
I0528 17:10:13.975656 10644 net.cpp:100] Creating Layer bn3a_branch2b
I0528 17:10:13.975663 10644 net.cpp:444] bn3a_branch2b <- res3a_branch2b
I0528 17:10:13.975678 10644 net.cpp:405] bn3a_branch2b -> res3a_branch2b (in-place)
I0528 17:10:13.975922 10644 net.cpp:150] Setting up bn3a_branch2b
I0528 17:10:13.975929 10644 net.cpp:157] Top shape: 1 128 80 160 (1638400)
I0528 17:10:13.975932 10644 net.cpp:165] Memory required for data: 1969356884
I0528 17:10:13.975950 10644 layer_factory.hpp:77] Creating layer scale3a_branch2b
I0528 17:10:13.975975 10644 net.cpp:100] Creating Layer scale3a_branch2b
I0528 17:10:13.975981 10644 net.cpp:444] scale3a_branch2b <- res3a_branch2b
I0528 17:10:13.975994 10644 net.cpp:405] scale3a_branch2b -> res3a_branch2b (in-place)
I0528 17:10:13.976054 10644 layer_factory.hpp:77] Creating layer scale3a_branch2b
I0528 17:10:13.976230 10644 net.cpp:150] Setting up scale3a_branch2b
I0528 17:10:13.976238 10644 net.cpp:157] Top shape: 1 128 80 160 (1638400)
I0528 17:10:13.976240 10644 net.cpp:165] Memory required for data: 1975910484
I0528 17:10:13.976254 10644 layer_factory.hpp:77] Creating layer res3a_branch2b_relu
I0528 17:10:13.976267 10644 net.cpp:100] Creating Layer res3a_branch2b_relu
I0528 17:10:13.976274 10644 net.cpp:444] res3a_branch2b_relu <- res3a_branch2b
I0528 17:10:13.976286 10644 net.cpp:405] res3a_branch2b_relu -> res3a_branch2b (in-place)
I0528 17:10:13.976424 10644 net.cpp:150] Setting up res3a_branch2b_relu
I0528 17:10:13.976431 10644 net.cpp:157] Top shape: 1 128 80 160 (1638400)
I0528 17:10:13.976434 10644 net.cpp:165] Memory required for data: 1982464084
I0528 17:10:13.976439 10644 layer_factory.hpp:77] Creating layer res3a_branch2c
I0528 17:10:13.976455 10644 net.cpp:100] Creating Layer res3a_branch2c
I0528 17:10:13.976461 10644 net.cpp:444] res3a_branch2c <- res3a_branch2b
I0528 17:10:13.976477 10644 net.cpp:418] res3a_branch2c -> res3a_branch2c
I0528 17:10:13.977421 10644 cudnn_conv_layer.cpp:194] Reallocating workspace storage: 236952
I0528 17:10:13.977439 10644 net.cpp:150] Setting up res3a_branch2c
I0528 17:10:13.977448 10644 net.cpp:157] Top shape: 1 512 80 160 (6553600)
I0528 17:10:13.977452 10644 net.cpp:165] Memory required for data: 2008678484
I0528 17:10:13.977463 10644 layer_factory.hpp:77] Creating layer bn3a_branch2c
I0528 17:10:13.977478 10644 net.cpp:100] Creating Layer bn3a_branch2c
I0528 17:10:13.977485 10644 net.cpp:444] bn3a_branch2c <- res3a_branch2c
I0528 17:10:13.977500 10644 net.cpp:405] bn3a_branch2c -> res3a_branch2c (in-place)
I0528 17:10:13.977744 10644 net.cpp:150] Setting up bn3a_branch2c
I0528 17:10:13.977751 10644 net.cpp:157] Top shape: 1 512 80 160 (6553600)
I0528 17:10:13.977754 10644 net.cpp:165] Memory required for data: 2034892884
I0528 17:10:13.977771 10644 layer_factory.hpp:77] Creating layer scale3a_branch2c
I0528 17:10:13.977787 10644 net.cpp:100] Creating Layer scale3a_branch2c
I0528 17:10:13.977792 10644 net.cpp:444] scale3a_branch2c <- res3a_branch2c
I0528 17:10:13.977807 10644 net.cpp:405] scale3a_branch2c -> res3a_branch2c (in-place)
I0528 17:10:13.977861 10644 layer_factory.hpp:77] Creating layer scale3a_branch2c
I0528 17:10:13.978041 10644 net.cpp:150] Setting up scale3a_branch2c
I0528 17:10:13.978049 10644 net.cpp:157] Top shape: 1 512 80 160 (6553600)
I0528 17:10:13.978051 10644 net.cpp:165] Memory required for data: 2061107284
I0528 17:10:13.978063 10644 layer_factory.hpp:77] Creating layer res3a
I0528 17:10:13.978075 10644 net.cpp:100] Creating Layer res3a
I0528 17:10:13.978081 10644 net.cpp:444] res3a <- res3a_branch1
I0528 17:10:13.978093 10644 net.cpp:444] res3a <- res3a_branch2c
I0528 17:10:13.978106 10644 net.cpp:418] res3a -> res3a
I0528 17:10:13.978143 10644 net.cpp:150] Setting up res3a
I0528 17:10:13.978152 10644 net.cpp:157] Top shape: 1 512 80 160 (6553600)
I0528 17:10:13.978155 10644 net.cpp:165] Memory required for data: 2087321684
I0528 17:10:13.978160 10644 layer_factory.hpp:77] Creating layer res3a_relu
I0528 17:10:13.978173 10644 net.cpp:100] Creating Layer res3a_relu
I0528 17:10:13.978178 10644 net.cpp:444] res3a_relu <- res3a
I0528 17:10:13.978190 10644 net.cpp:405] res3a_relu -> res3a (in-place)
I0528 17:10:13.978557 10644 net.cpp:150] Setting up res3a_relu
I0528 17:10:13.978565 10644 net.cpp:157] Top shape: 1 512 80 160 (6553600)
I0528 17:10:13.978569 10644 net.cpp:165] Memory required for data: 2113536084
I0528 17:10:13.978574 10644 layer_factory.hpp:77] Creating layer res3a_res3a_relu_0_split
I0528 17:10:13.978587 10644 net.cpp:100] Creating Layer res3a_res3a_relu_0_split
I0528 17:10:13.978593 10644 net.cpp:444] res3a_res3a_relu_0_split <- res3a
I0528 17:10:13.978610 10644 net.cpp:418] res3a_res3a_relu_0_split -> res3a_res3a_relu_0_split_0
I0528 17:10:13.978626 10644 net.cpp:418] res3a_res3a_relu_0_split -> res3a_res3a_relu_0_split_1
I0528 17:10:13.978682 10644 net.cpp:150] Setting up res3a_res3a_relu_0_split
I0528 17:10:13.978690 10644 net.cpp:157] Top shape: 1 512 80 160 (6553600)
I0528 17:10:13.978695 10644 net.cpp:157] Top shape: 1 512 80 160 (6553600)
I0528 17:10:13.978698 10644 net.cpp:165] Memory required for data: 2165964884
I0528 17:10:13.978703 10644 layer_factory.hpp:77] Creating layer res3b_branch2a
I0528 17:10:13.978719 10644 net.cpp:100] Creating Layer res3b_branch2a
I0528 17:10:13.978726 10644 net.cpp:444] res3b_branch2a <- res3a_res3a_relu_0_split_0
I0528 17:10:13.978742 10644 net.cpp:418] res3b_branch2a -> res3b_branch2a
I0528 17:10:13.979666 10644 cudnn_conv_layer.cpp:194] Reallocating workspace storage: 236952
I0528 17:10:13.979687 10644 net.cpp:150] Setting up res3b_branch2a
I0528 17:10:13.979696 10644 net.cpp:157] Top shape: 1 128 80 160 (1638400)
I0528 17:10:13.979699 10644 net.cpp:165] Memory required for data: 2172518484
I0528 17:10:13.979710 10644 layer_factory.hpp:77] Creating layer bn3b_branch2a
I0528 17:10:13.979723 10644 net.cpp:100] Creating Layer bn3b_branch2a
I0528 17:10:13.979730 10644 net.cpp:444] bn3b_branch2a <- res3b_branch2a
I0528 17:10:13.979746 10644 net.cpp:405] bn3b_branch2a -> res3b_branch2a (in-place)
I0528 17:10:13.979995 10644 net.cpp:150] Setting up bn3b_branch2a
I0528 17:10:13.980001 10644 net.cpp:157] Top shape: 1 128 80 160 (1638400)
I0528 17:10:13.980005 10644 net.cpp:165] Memory required for data: 2179072084
I0528 17:10:13.980021 10644 layer_factory.hpp:77] Creating layer scale3b_branch2a
I0528 17:10:13.980036 10644 net.cpp:100] Creating Layer scale3b_branch2a
I0528 17:10:13.980042 10644 net.cpp:444] scale3b_branch2a <- res3b_branch2a
I0528 17:10:13.980057 10644 net.cpp:405] scale3b_branch2a -> res3b_branch2a (in-place)
I0528 17:10:13.980116 10644 layer_factory.hpp:77] Creating layer scale3b_branch2a
I0528 17:10:13.980289 10644 net.cpp:150] Setting up scale3b_branch2a
I0528 17:10:13.980296 10644 net.cpp:157] Top shape: 1 128 80 160 (1638400)
I0528 17:10:13.980299 10644 net.cpp:165] Memory required for data: 2185625684
I0528 17:10:13.980311 10644 layer_factory.hpp:77] Creating layer res3b_branch2a_relu
I0528 17:10:13.980322 10644 net.cpp:100] Creating Layer res3b_branch2a_relu
I0528 17:10:13.980329 10644 net.cpp:444] res3b_branch2a_relu <- res3b_branch2a
I0528 17:10:13.980341 10644 net.cpp:405] res3b_branch2a_relu -> res3b_branch2a (in-place)
I0528 17:10:13.980478 10644 net.cpp:150] Setting up res3b_branch2a_relu
I0528 17:10:13.980484 10644 net.cpp:157] Top shape: 1 128 80 160 (1638400)
I0528 17:10:13.980487 10644 net.cpp:165] Memory required for data: 2192179284
I0528 17:10:13.980492 10644 layer_factory.hpp:77] Creating layer res3b_branch2b
I0528 17:10:13.980509 10644 net.cpp:100] Creating Layer res3b_branch2b
I0528 17:10:13.980515 10644 net.cpp:444] res3b_branch2b <- res3b_branch2a
I0528 17:10:13.980530 10644 net.cpp:418] res3b_branch2b -> res3b_branch2b
I0528 17:10:13.981818 10644 cudnn_conv_layer.cpp:194] Reallocating workspace storage: 3145728
I0528 17:10:13.982059 10644 net.cpp:150] Setting up res3b_branch2b
I0528 17:10:13.982070 10644 net.cpp:157] Top shape: 1 128 80 160 (1638400)
I0528 17:10:13.982074 10644 net.cpp:165] Memory required for data: 2198732884
I0528 17:10:13.982086 10644 layer_factory.hpp:77] Creating layer bn3b_branch2b
I0528 17:10:13.982101 10644 net.cpp:100] Creating Layer bn3b_branch2b
I0528 17:10:13.982108 10644 net.cpp:444] bn3b_branch2b <- res3b_branch2b
I0528 17:10:13.982125 10644 net.cpp:405] bn3b_branch2b -> res3b_branch2b (in-place)
I0528 17:10:13.982376 10644 net.cpp:150] Setting up bn3b_branch2b
I0528 17:10:13.982383 10644 net.cpp:157] Top shape: 1 128 80 160 (1638400)
I0528 17:10:13.982386 10644 net.cpp:165] Memory required for data: 2205286484
I0528 17:10:13.982403 10644 layer_factory.hpp:77] Creating layer scale3b_branch2b
I0528 17:10:13.982419 10644 net.cpp:100] Creating Layer scale3b_branch2b
I0528 17:10:13.982424 10644 net.cpp:444] scale3b_branch2b <- res3b_branch2b
I0528 17:10:13.982437 10644 net.cpp:405] scale3b_branch2b -> res3b_branch2b (in-place)
I0528 17:10:13.982498 10644 layer_factory.hpp:77] Creating layer scale3b_branch2b
I0528 17:10:13.982677 10644 net.cpp:150] Setting up scale3b_branch2b
I0528 17:10:13.982684 10644 net.cpp:157] Top shape: 1 128 80 160 (1638400)
I0528 17:10:13.982687 10644 net.cpp:165] Memory required for data: 2211840084
I0528 17:10:13.982699 10644 layer_factory.hpp:77] Creating layer res3b_branch2b_relu
I0528 17:10:13.982710 10644 net.cpp:100] Creating Layer res3b_branch2b_relu
I0528 17:10:13.982717 10644 net.cpp:444] res3b_branch2b_relu <- res3b_branch2b
I0528 17:10:13.982729 10644 net.cpp:405] res3b_branch2b_relu -> res3b_branch2b (in-place)
I0528 17:10:13.982870 10644 net.cpp:150] Setting up res3b_branch2b_relu
I0528 17:10:13.982877 10644 net.cpp:157] Top shape: 1 128 80 160 (1638400)
I0528 17:10:13.982880 10644 net.cpp:165] Memory required for data: 2218393684
I0528 17:10:13.982885 10644 layer_factory.hpp:77] Creating layer res3b_branch2c
I0528 17:10:13.982903 10644 net.cpp:100] Creating Layer res3b_branch2c
I0528 17:10:13.982909 10644 net.cpp:444] res3b_branch2c <- res3b_branch2b
I0528 17:10:13.982925 10644 net.cpp:418] res3b_branch2c -> res3b_branch2c
I0528 17:10:13.983861 10644 cudnn_conv_layer.cpp:194] Reallocating workspace storage: 236952
I0528 17:10:13.983881 10644 net.cpp:150] Setting up res3b_branch2c
I0528 17:10:13.983891 10644 net.cpp:157] Top shape: 1 512 80 160 (6553600)
I0528 17:10:13.983894 10644 net.cpp:165] Memory required for data: 2244608084
I0528 17:10:13.983906 10644 layer_factory.hpp:77] Creating layer bn3b_branch2c
I0528 17:10:13.983920 10644 net.cpp:100] Creating Layer bn3b_branch2c
I0528 17:10:13.983927 10644 net.cpp:444] bn3b_branch2c <- res3b_branch2c
I0528 17:10:13.983942 10644 net.cpp:405] bn3b_branch2c -> res3b_branch2c (in-place)
I0528 17:10:13.984189 10644 net.cpp:150] Setting up bn3b_branch2c
I0528 17:10:13.984196 10644 net.cpp:157] Top shape: 1 512 80 160 (6553600)
I0528 17:10:13.984200 10644 net.cpp:165] Memory required for data: 2270822484
I0528 17:10:13.984216 10644 layer_factory.hpp:77] Creating layer scale3b_branch2c
I0528 17:10:13.984230 10644 net.cpp:100] Creating Layer scale3b_branch2c
I0528 17:10:13.984236 10644 net.cpp:444] scale3b_branch2c <- res3b_branch2c
I0528 17:10:13.984251 10644 net.cpp:405] scale3b_branch2c -> res3b_branch2c (in-place)
I0528 17:10:13.984306 10644 layer_factory.hpp:77] Creating layer scale3b_branch2c
I0528 17:10:13.984490 10644 net.cpp:150] Setting up scale3b_branch2c
I0528 17:10:13.984498 10644 net.cpp:157] Top shape: 1 512 80 160 (6553600)
I0528 17:10:13.984501 10644 net.cpp:165] Memory required for data: 2297036884
I0528 17:10:13.984513 10644 layer_factory.hpp:77] Creating layer res3b
I0528 17:10:13.984524 10644 net.cpp:100] Creating Layer res3b
I0528 17:10:13.984530 10644 net.cpp:444] res3b <- res3a_res3a_relu_0_split_1
I0528 17:10:13.984542 10644 net.cpp:444] res3b <- res3b_branch2c
I0528 17:10:13.984553 10644 net.cpp:418] res3b -> res3b
I0528 17:10:13.984593 10644 net.cpp:150] Setting up res3b
I0528 17:10:13.984601 10644 net.cpp:157] Top shape: 1 512 80 160 (6553600)
I0528 17:10:13.984606 10644 net.cpp:165] Memory required for data: 2323251284
I0528 17:10:13.984611 10644 layer_factory.hpp:77] Creating layer res3b_relu
I0528 17:10:13.984621 10644 net.cpp:100] Creating Layer res3b_relu
I0528 17:10:13.984627 10644 net.cpp:444] res3b_relu <- res3b
I0528 17:10:13.984639 10644 net.cpp:405] res3b_relu -> res3b (in-place)
I0528 17:10:13.986297 10644 net.cpp:150] Setting up res3b_relu
I0528 17:10:13.986306 10644 net.cpp:157] Top shape: 1 512 80 160 (6553600)
I0528 17:10:13.986310 10644 net.cpp:165] Memory required for data: 2349465684
I0528 17:10:13.986315 10644 layer_factory.hpp:77] Creating layer res3b_res3b_relu_0_split
I0528 17:10:13.986330 10644 net.cpp:100] Creating Layer res3b_res3b_relu_0_split
I0528 17:10:13.986335 10644 net.cpp:444] res3b_res3b_relu_0_split <- res3b
I0528 17:10:13.986351 10644 net.cpp:418] res3b_res3b_relu_0_split -> res3b_res3b_relu_0_split_0
I0528 17:10:13.986368 10644 net.cpp:418] res3b_res3b_relu_0_split -> res3b_res3b_relu_0_split_1
I0528 17:10:13.986425 10644 net.cpp:150] Setting up res3b_res3b_relu_0_split
I0528 17:10:13.986433 10644 net.cpp:157] Top shape: 1 512 80 160 (6553600)
I0528 17:10:13.986439 10644 net.cpp:157] Top shape: 1 512 80 160 (6553600)
I0528 17:10:13.986443 10644 net.cpp:165] Memory required for data: 2401894484
I0528 17:10:13.986446 10644 layer_factory.hpp:77] Creating layer res3c_branch2a
I0528 17:10:13.986464 10644 net.cpp:100] Creating Layer res3c_branch2a
I0528 17:10:13.986470 10644 net.cpp:444] res3c_branch2a <- res3b_res3b_relu_0_split_0
I0528 17:10:13.986485 10644 net.cpp:418] res3c_branch2a -> res3c_branch2a
I0528 17:10:13.987423 10644 cudnn_conv_layer.cpp:194] Reallocating workspace storage: 236952
I0528 17:10:13.987443 10644 net.cpp:150] Setting up res3c_branch2a
I0528 17:10:13.987452 10644 net.cpp:157] Top shape: 1 128 80 160 (1638400)
I0528 17:10:13.987455 10644 net.cpp:165] Memory required for data: 2408448084
I0528 17:10:13.987466 10644 layer_factory.hpp:77] Creating layer bn3c_branch2a
I0528 17:10:13.987481 10644 net.cpp:100] Creating Layer bn3c_branch2a
I0528 17:10:13.987488 10644 net.cpp:444] bn3c_branch2a <- res3c_branch2a
I0528 17:10:13.987504 10644 net.cpp:405] bn3c_branch2a -> res3c_branch2a (in-place)
I0528 17:10:13.987751 10644 net.cpp:150] Setting up bn3c_branch2a
I0528 17:10:13.987757 10644 net.cpp:157] Top shape: 1 128 80 160 (1638400)
I0528 17:10:13.987761 10644 net.cpp:165] Memory required for data: 2415001684
I0528 17:10:13.987777 10644 layer_factory.hpp:77] Creating layer scale3c_branch2a
I0528 17:10:13.987792 10644 net.cpp:100] Creating Layer scale3c_branch2a
I0528 17:10:13.987798 10644 net.cpp:444] scale3c_branch2a <- res3c_branch2a
I0528 17:10:13.987812 10644 net.cpp:405] scale3c_branch2a -> res3c_branch2a (in-place)
I0528 17:10:13.987871 10644 layer_factory.hpp:77] Creating layer scale3c_branch2a
I0528 17:10:13.988050 10644 net.cpp:150] Setting up scale3c_branch2a
I0528 17:10:13.988059 10644 net.cpp:157] Top shape: 1 128 80 160 (1638400)
I0528 17:10:13.988061 10644 net.cpp:165] Memory required for data: 2421555284
I0528 17:10:13.988073 10644 layer_factory.hpp:77] Creating layer res3c_branch2a_relu
I0528 17:10:13.988085 10644 net.cpp:100] Creating Layer res3c_branch2a_relu
I0528 17:10:13.988090 10644 net.cpp:444] res3c_branch2a_relu <- res3c_branch2a
I0528 17:10:13.988103 10644 net.cpp:405] res3c_branch2a_relu -> res3c_branch2a (in-place)
I0528 17:10:13.988237 10644 net.cpp:150] Setting up res3c_branch2a_relu
I0528 17:10:13.988245 10644 net.cpp:157] Top shape: 1 128 80 160 (1638400)
I0528 17:10:13.988247 10644 net.cpp:165] Memory required for data: 2428108884
I0528 17:10:13.988252 10644 layer_factory.hpp:77] Creating layer res3c_branch2b
I0528 17:10:13.988270 10644 net.cpp:100] Creating Layer res3c_branch2b
I0528 17:10:13.988276 10644 net.cpp:444] res3c_branch2b <- res3c_branch2a
I0528 17:10:13.988291 10644 net.cpp:418] res3c_branch2b -> res3c_branch2b
I0528 17:10:13.990092 10644 cudnn_conv_layer.cpp:194] Reallocating workspace storage: 3145728
I0528 17:10:13.990337 10644 net.cpp:150] Setting up res3c_branch2b
I0528 17:10:13.990350 10644 net.cpp:157] Top shape: 1 128 80 160 (1638400)
I0528 17:10:13.990355 10644 net.cpp:165] Memory required for data: 2434662484
I0528 17:10:13.990370 10644 layer_factory.hpp:77] Creating layer bn3c_branch2b
I0528 17:10:13.990387 10644 net.cpp:100] Creating Layer bn3c_branch2b
I0528 17:10:13.990396 10644 net.cpp:444] bn3c_branch2b <- res3c_branch2b
I0528 17:10:13.990412 10644 net.cpp:405] bn3c_branch2b -> res3c_branch2b (in-place)
I0528 17:10:13.990670 10644 net.cpp:150] Setting up bn3c_branch2b
I0528 17:10:13.990679 10644 net.cpp:157] Top shape: 1 128 80 160 (1638400)
I0528 17:10:13.990681 10644 net.cpp:165] Memory required for data: 2441216084
I0528 17:10:13.990697 10644 layer_factory.hpp:77] Creating layer scale3c_branch2b
I0528 17:10:13.990713 10644 net.cpp:100] Creating Layer scale3c_branch2b
I0528 17:10:13.990720 10644 net.cpp:444] scale3c_branch2b <- res3c_branch2b
I0528 17:10:13.990733 10644 net.cpp:405] scale3c_branch2b -> res3c_branch2b (in-place)
I0528 17:10:13.990797 10644 layer_factory.hpp:77] Creating layer scale3c_branch2b
I0528 17:10:13.990978 10644 net.cpp:150] Setting up scale3c_branch2b
I0528 17:10:13.990986 10644 net.cpp:157] Top shape: 1 128 80 160 (1638400)
I0528 17:10:13.990989 10644 net.cpp:165] Memory required for data: 2447769684
I0528 17:10:13.991001 10644 layer_factory.hpp:77] Creating layer res3c_branch2b_relu
I0528 17:10:13.991013 10644 net.cpp:100] Creating Layer res3c_branch2b_relu
I0528 17:10:13.991019 10644 net.cpp:444] res3c_branch2b_relu <- res3c_branch2b
I0528 17:10:13.991031 10644 net.cpp:405] res3c_branch2b_relu -> res3c_branch2b (in-place)
I0528 17:10:13.991174 10644 net.cpp:150] Setting up res3c_branch2b_relu
I0528 17:10:13.991183 10644 net.cpp:157] Top shape: 1 128 80 160 (1638400)
I0528 17:10:13.991186 10644 net.cpp:165] Memory required for data: 2454323284
I0528 17:10:13.991191 10644 layer_factory.hpp:77] Creating layer res3c_branch2c
I0528 17:10:13.991225 10644 net.cpp:100] Creating Layer res3c_branch2c
I0528 17:10:13.991231 10644 net.cpp:444] res3c_branch2c <- res3c_branch2b
I0528 17:10:13.991245 10644 net.cpp:418] res3c_branch2c -> res3c_branch2c
I0528 17:10:13.992220 10644 cudnn_conv_layer.cpp:194] Reallocating workspace storage: 236952
I0528 17:10:13.992238 10644 net.cpp:150] Setting up res3c_branch2c
I0528 17:10:13.992245 10644 net.cpp:157] Top shape: 1 512 80 160 (6553600)
I0528 17:10:13.992249 10644 net.cpp:165] Memory required for data: 2480537684
I0528 17:10:13.992256 10644 layer_factory.hpp:77] Creating layer bn3c_branch2c
I0528 17:10:13.992269 10644 net.cpp:100] Creating Layer bn3c_branch2c
I0528 17:10:13.992274 10644 net.cpp:444] bn3c_branch2c <- res3c_branch2c
I0528 17:10:13.992286 10644 net.cpp:405] bn3c_branch2c -> res3c_branch2c (in-place)
I0528 17:10:13.992534 10644 net.cpp:150] Setting up bn3c_branch2c
I0528 17:10:13.992540 10644 net.cpp:157] Top shape: 1 512 80 160 (6553600)
I0528 17:10:13.992542 10644 net.cpp:165] Memory required for data: 2506752084
I0528 17:10:13.992555 10644 layer_factory.hpp:77] Creating layer scale3c_branch2c
I0528 17:10:13.992566 10644 net.cpp:100] Creating Layer scale3c_branch2c
I0528 17:10:13.992571 10644 net.cpp:444] scale3c_branch2c <- res3c_branch2c
I0528 17:10:13.992581 10644 net.cpp:405] scale3c_branch2c -> res3c_branch2c (in-place)
I0528 17:10:13.992635 10644 layer_factory.hpp:77] Creating layer scale3c_branch2c
I0528 17:10:13.992857 10644 net.cpp:150] Setting up scale3c_branch2c
I0528 17:10:13.992877 10644 net.cpp:157] Top shape: 1 512 80 160 (6553600)
I0528 17:10:13.992887 10644 net.cpp:165] Memory required for data: 2532966484
I0528 17:10:13.992905 10644 layer_factory.hpp:77] Creating layer res3c
I0528 17:10:13.992964 10644 net.cpp:100] Creating Layer res3c
I0528 17:10:13.992977 10644 net.cpp:444] res3c <- res3b_res3b_relu_0_split_1
I0528 17:10:13.992995 10644 net.cpp:444] res3c <- res3c_branch2c
I0528 17:10:13.993012 10644 net.cpp:418] res3c -> res3c
I0528 17:10:13.993069 10644 net.cpp:150] Setting up res3c
I0528 17:10:13.993085 10644 net.cpp:157] Top shape: 1 512 80 160 (6553600)
I0528 17:10:13.993094 10644 net.cpp:165] Memory required for data: 2559180884
I0528 17:10:13.993105 10644 layer_factory.hpp:77] Creating layer res3c_relu
I0528 17:10:13.993121 10644 net.cpp:100] Creating Layer res3c_relu
I0528 17:10:13.993134 10644 net.cpp:444] res3c_relu <- res3c
I0528 17:10:13.993151 10644 net.cpp:405] res3c_relu -> res3c (in-place)
I0528 17:10:13.993331 10644 net.cpp:150] Setting up res3c_relu
I0528 17:10:13.993348 10644 net.cpp:157] Top shape: 1 512 80 160 (6553600)
I0528 17:10:13.993358 10644 net.cpp:165] Memory required for data: 2585395284
I0528 17:10:13.993365 10644 layer_factory.hpp:77] Creating layer res3c_res3c_relu_0_split
I0528 17:10:13.993376 10644 net.cpp:100] Creating Layer res3c_res3c_relu_0_split
I0528 17:10:13.993382 10644 net.cpp:444] res3c_res3c_relu_0_split <- res3c
I0528 17:10:13.993397 10644 net.cpp:418] res3c_res3c_relu_0_split -> res3c_res3c_relu_0_split_0
I0528 17:10:13.993414 10644 net.cpp:418] res3c_res3c_relu_0_split -> res3c_res3c_relu_0_split_1
I0528 17:10:13.993474 10644 net.cpp:150] Setting up res3c_res3c_relu_0_split
I0528 17:10:13.993482 10644 net.cpp:157] Top shape: 1 512 80 160 (6553600)
I0528 17:10:13.993487 10644 net.cpp:157] Top shape: 1 512 80 160 (6553600)
I0528 17:10:13.993489 10644 net.cpp:165] Memory required for data: 2637824084
I0528 17:10:13.993495 10644 layer_factory.hpp:77] Creating layer res3d_branch2a
I0528 17:10:13.993512 10644 net.cpp:100] Creating Layer res3d_branch2a
I0528 17:10:13.993518 10644 net.cpp:444] res3d_branch2a <- res3c_res3c_relu_0_split_0
I0528 17:10:13.993535 10644 net.cpp:418] res3d_branch2a -> res3d_branch2a
I0528 17:10:13.995376 10644 cudnn_conv_layer.cpp:194] Reallocating workspace storage: 236952
I0528 17:10:13.995402 10644 net.cpp:150] Setting up res3d_branch2a
I0528 17:10:13.995414 10644 net.cpp:157] Top shape: 1 128 80 160 (1638400)
I0528 17:10:13.995417 10644 net.cpp:165] Memory required for data: 2644377684
I0528 17:10:13.995432 10644 layer_factory.hpp:77] Creating layer bn3d_branch2a
I0528 17:10:13.995453 10644 net.cpp:100] Creating Layer bn3d_branch2a
I0528 17:10:13.995461 10644 net.cpp:444] bn3d_branch2a <- res3d_branch2a
I0528 17:10:13.995477 10644 net.cpp:405] bn3d_branch2a -> res3d_branch2a (in-place)
I0528 17:10:13.995736 10644 net.cpp:150] Setting up bn3d_branch2a
I0528 17:10:13.995743 10644 net.cpp:157] Top shape: 1 128 80 160 (1638400)
I0528 17:10:13.995746 10644 net.cpp:165] Memory required for data: 2650931284
I0528 17:10:13.995787 10644 layer_factory.hpp:77] Creating layer scale3d_branch2a
I0528 17:10:13.995805 10644 net.cpp:100] Creating Layer scale3d_branch2a
I0528 17:10:13.995810 10644 net.cpp:444] scale3d_branch2a <- res3d_branch2a
I0528 17:10:13.995826 10644 net.cpp:405] scale3d_branch2a -> res3d_branch2a (in-place)
I0528 17:10:13.995887 10644 layer_factory.hpp:77] Creating layer scale3d_branch2a
I0528 17:10:13.996727 10644 net.cpp:150] Setting up scale3d_branch2a
I0528 17:10:13.996737 10644 net.cpp:157] Top shape: 1 128 80 160 (1638400)
I0528 17:10:13.996739 10644 net.cpp:165] Memory required for data: 2657484884
I0528 17:10:13.996753 10644 layer_factory.hpp:77] Creating layer res3d_branch2a_relu
I0528 17:10:13.996767 10644 net.cpp:100] Creating Layer res3d_branch2a_relu
I0528 17:10:13.996773 10644 net.cpp:444] res3d_branch2a_relu <- res3d_branch2a
I0528 17:10:13.996788 10644 net.cpp:405] res3d_branch2a_relu -> res3d_branch2a (in-place)
I0528 17:10:13.997189 10644 net.cpp:150] Setting up res3d_branch2a_relu
I0528 17:10:13.997198 10644 net.cpp:157] Top shape: 1 128 80 160 (1638400)
I0528 17:10:13.997201 10644 net.cpp:165] Memory required for data: 2664038484
I0528 17:10:13.997207 10644 layer_factory.hpp:77] Creating layer res3d_branch2b
I0528 17:10:13.997226 10644 net.cpp:100] Creating Layer res3d_branch2b
I0528 17:10:13.997233 10644 net.cpp:444] res3d_branch2b <- res3d_branch2a
I0528 17:10:13.997251 10644 net.cpp:418] res3d_branch2b -> res3d_branch2b
I0528 17:10:13.998404 10644 cudnn_conv_layer.cpp:194] Reallocating workspace storage: 3145728
I0528 17:10:13.998656 10644 net.cpp:150] Setting up res3d_branch2b
I0528 17:10:13.998667 10644 net.cpp:157] Top shape: 1 128 80 160 (1638400)
I0528 17:10:13.998672 10644 net.cpp:165] Memory required for data: 2670592084
I0528 17:10:13.998684 10644 layer_factory.hpp:77] Creating layer bn3d_branch2b
I0528 17:10:13.998702 10644 net.cpp:100] Creating Layer bn3d_branch2b
I0528 17:10:13.998708 10644 net.cpp:444] bn3d_branch2b <- res3d_branch2b
I0528 17:10:13.998724 10644 net.cpp:405] bn3d_branch2b -> res3d_branch2b (in-place)
I0528 17:10:13.998982 10644 net.cpp:150] Setting up bn3d_branch2b
I0528 17:10:13.998991 10644 net.cpp:157] Top shape: 1 128 80 160 (1638400)
I0528 17:10:13.998993 10644 net.cpp:165] Memory required for data: 2677145684
I0528 17:10:13.999011 10644 layer_factory.hpp:77] Creating layer scale3d_branch2b
I0528 17:10:13.999024 10644 net.cpp:100] Creating Layer scale3d_branch2b
I0528 17:10:13.999030 10644 net.cpp:444] scale3d_branch2b <- res3d_branch2b
I0528 17:10:13.999045 10644 net.cpp:405] scale3d_branch2b -> res3d_branch2b (in-place)
I0528 17:10:13.999107 10644 layer_factory.hpp:77] Creating layer scale3d_branch2b
I0528 17:10:13.999290 10644 net.cpp:150] Setting up scale3d_branch2b
I0528 17:10:13.999297 10644 net.cpp:157] Top shape: 1 128 80 160 (1638400)
I0528 17:10:13.999300 10644 net.cpp:165] Memory required for data: 2683699284
I0528 17:10:13.999313 10644 layer_factory.hpp:77] Creating layer res3d_branch2b_relu
I0528 17:10:13.999325 10644 net.cpp:100] Creating Layer res3d_branch2b_relu
I0528 17:10:13.999331 10644 net.cpp:444] res3d_branch2b_relu <- res3d_branch2b
I0528 17:10:13.999346 10644 net.cpp:405] res3d_branch2b_relu -> res3d_branch2b (in-place)
I0528 17:10:13.999491 10644 net.cpp:150] Setting up res3d_branch2b_relu
I0528 17:10:13.999498 10644 net.cpp:157] Top shape: 1 128 80 160 (1638400)
I0528 17:10:13.999501 10644 net.cpp:165] Memory required for data: 2690252884
I0528 17:10:13.999506 10644 layer_factory.hpp:77] Creating layer res3d_branch2c
I0528 17:10:13.999523 10644 net.cpp:100] Creating Layer res3d_branch2c
I0528 17:10:13.999529 10644 net.cpp:444] res3d_branch2c <- res3d_branch2b
I0528 17:10:13.999557 10644 net.cpp:418] res3d_branch2c -> res3d_branch2c
I0528 17:10:14.000571 10644 cudnn_conv_layer.cpp:194] Reallocating workspace storage: 236952
I0528 17:10:14.000829 10644 net.cpp:150] Setting up res3d_branch2c
I0528 17:10:14.000840 10644 net.cpp:157] Top shape: 1 512 80 160 (6553600)
I0528 17:10:14.000845 10644 net.cpp:165] Memory required for data: 2716467284
I0528 17:10:14.000857 10644 layer_factory.hpp:77] Creating layer bn3d_branch2c
I0528 17:10:14.000872 10644 net.cpp:100] Creating Layer bn3d_branch2c
I0528 17:10:14.000879 10644 net.cpp:444] bn3d_branch2c <- res3d_branch2c
I0528 17:10:14.000895 10644 net.cpp:405] bn3d_branch2c -> res3d_branch2c (in-place)
I0528 17:10:14.001173 10644 net.cpp:150] Setting up bn3d_branch2c
I0528 17:10:14.001181 10644 net.cpp:157] Top shape: 1 512 80 160 (6553600)
I0528 17:10:14.001184 10644 net.cpp:165] Memory required for data: 2742681684
I0528 17:10:14.001201 10644 layer_factory.hpp:77] Creating layer scale3d_branch2c
I0528 17:10:14.001217 10644 net.cpp:100] Creating Layer scale3d_branch2c
I0528 17:10:14.001224 10644 net.cpp:444] scale3d_branch2c <- res3d_branch2c
I0528 17:10:14.001238 10644 net.cpp:405] scale3d_branch2c -> res3d_branch2c (in-place)
I0528 17:10:14.001299 10644 layer_factory.hpp:77] Creating layer scale3d_branch2c
I0528 17:10:14.001482 10644 net.cpp:150] Setting up scale3d_branch2c
I0528 17:10:14.001489 10644 net.cpp:157] Top shape: 1 512 80 160 (6553600)
I0528 17:10:14.001492 10644 net.cpp:165] Memory required for data: 2768896084
I0528 17:10:14.001504 10644 layer_factory.hpp:77] Creating layer res3d
I0528 17:10:14.001516 10644 net.cpp:100] Creating Layer res3d
I0528 17:10:14.001523 10644 net.cpp:444] res3d <- res3c_res3c_relu_0_split_1
I0528 17:10:14.001534 10644 net.cpp:444] res3d <- res3d_branch2c
I0528 17:10:14.001546 10644 net.cpp:418] res3d -> res3d
I0528 17:10:14.001587 10644 net.cpp:150] Setting up res3d
I0528 17:10:14.001596 10644 net.cpp:157] Top shape: 1 512 80 160 (6553600)
I0528 17:10:14.001600 10644 net.cpp:165] Memory required for data: 2795110484
I0528 17:10:14.001605 10644 layer_factory.hpp:77] Creating layer res3d_relu
I0528 17:10:14.001616 10644 net.cpp:100] Creating Layer res3d_relu
I0528 17:10:14.001621 10644 net.cpp:444] res3d_relu <- res3d
I0528 17:10:14.001636 10644 net.cpp:405] res3d_relu -> res3d (in-place)
I0528 17:10:14.001777 10644 net.cpp:150] Setting up res3d_relu
I0528 17:10:14.001785 10644 net.cpp:157] Top shape: 1 512 80 160 (6553600)
I0528 17:10:14.001788 10644 net.cpp:165] Memory required for data: 2821324884
I0528 17:10:14.001792 10644 layer_factory.hpp:77] Creating layer res3d_res3d_relu_0_split
I0528 17:10:14.001804 10644 net.cpp:100] Creating Layer res3d_res3d_relu_0_split
I0528 17:10:14.001811 10644 net.cpp:444] res3d_res3d_relu_0_split <- res3d
I0528 17:10:14.001826 10644 net.cpp:418] res3d_res3d_relu_0_split -> res3d_res3d_relu_0_split_0
I0528 17:10:14.001842 10644 net.cpp:418] res3d_res3d_relu_0_split -> res3d_res3d_relu_0_split_1
I0528 17:10:14.001899 10644 net.cpp:150] Setting up res3d_res3d_relu_0_split
I0528 17:10:14.001906 10644 net.cpp:157] Top shape: 1 512 80 160 (6553600)
I0528 17:10:14.001911 10644 net.cpp:157] Top shape: 1 512 80 160 (6553600)
I0528 17:10:14.001914 10644 net.cpp:165] Memory required for data: 2873753684
I0528 17:10:14.001919 10644 layer_factory.hpp:77] Creating layer res4a_branch1
I0528 17:10:14.001933 10644 net.cpp:100] Creating Layer res4a_branch1
I0528 17:10:14.001940 10644 net.cpp:444] res4a_branch1 <- res3d_res3d_relu_0_split_0
I0528 17:10:14.001955 10644 net.cpp:418] res4a_branch1 -> res4a_branch1
I0528 17:10:14.004340 10644 cudnn_conv_layer.cpp:194] Reallocating workspace storage: 57624
I0528 17:10:14.004361 10644 net.cpp:150] Setting up res4a_branch1
I0528 17:10:14.004374 10644 net.cpp:157] Top shape: 1 1024 40 80 (3276800)
I0528 17:10:14.004379 10644 net.cpp:165] Memory required for data: 2886860884
I0528 17:10:14.004396 10644 layer_factory.hpp:77] Creating layer bn4a_branch1
I0528 17:10:14.004422 10644 net.cpp:100] Creating Layer bn4a_branch1
I0528 17:10:14.004432 10644 net.cpp:444] bn4a_branch1 <- res4a_branch1
I0528 17:10:14.004451 10644 net.cpp:405] bn4a_branch1 -> res4a_branch1 (in-place)
I0528 17:10:14.004710 10644 net.cpp:150] Setting up bn4a_branch1
I0528 17:10:14.004717 10644 net.cpp:157] Top shape: 1 1024 40 80 (3276800)
I0528 17:10:14.004721 10644 net.cpp:165] Memory required for data: 2899968084
I0528 17:10:14.004739 10644 layer_factory.hpp:77] Creating layer scale4a_branch1
I0528 17:10:14.004755 10644 net.cpp:100] Creating Layer scale4a_branch1
I0528 17:10:14.004761 10644 net.cpp:444] scale4a_branch1 <- res4a_branch1
I0528 17:10:14.004776 10644 net.cpp:405] scale4a_branch1 -> res4a_branch1 (in-place)
I0528 17:10:14.004838 10644 layer_factory.hpp:77] Creating layer scale4a_branch1
I0528 17:10:14.005010 10644 net.cpp:150] Setting up scale4a_branch1
I0528 17:10:14.005018 10644 net.cpp:157] Top shape: 1 1024 40 80 (3276800)
I0528 17:10:14.005022 10644 net.cpp:165] Memory required for data: 2913075284
I0528 17:10:14.005033 10644 layer_factory.hpp:77] Creating layer res4a_branch2a
I0528 17:10:14.005050 10644 net.cpp:100] Creating Layer res4a_branch2a
I0528 17:10:14.005057 10644 net.cpp:444] res4a_branch2a <- res3d_res3d_relu_0_split_1
I0528 17:10:14.005074 10644 net.cpp:418] res4a_branch2a -> res4a_branch2a
I0528 17:10:14.006213 10644 cudnn_conv_layer.cpp:194] Reallocating workspace storage: 57624
I0528 17:10:14.006228 10644 net.cpp:150] Setting up res4a_branch2a
I0528 17:10:14.006238 10644 net.cpp:157] Top shape: 1 256 40 80 (819200)
I0528 17:10:14.006242 10644 net.cpp:165] Memory required for data: 2916352084
I0528 17:10:14.006253 10644 layer_factory.hpp:77] Creating layer bn4a_branch2a
I0528 17:10:14.006268 10644 net.cpp:100] Creating Layer bn4a_branch2a
I0528 17:10:14.006276 10644 net.cpp:444] bn4a_branch2a <- res4a_branch2a
I0528 17:10:14.006292 10644 net.cpp:405] bn4a_branch2a -> res4a_branch2a (in-place)
I0528 17:10:14.006533 10644 net.cpp:150] Setting up bn4a_branch2a
I0528 17:10:14.006541 10644 net.cpp:157] Top shape: 1 256 40 80 (819200)
I0528 17:10:14.006543 10644 net.cpp:165] Memory required for data: 2919628884
I0528 17:10:14.006559 10644 layer_factory.hpp:77] Creating layer scale4a_branch2a
I0528 17:10:14.006574 10644 net.cpp:100] Creating Layer scale4a_branch2a
I0528 17:10:14.006580 10644 net.cpp:444] scale4a_branch2a <- res4a_branch2a
I0528 17:10:14.006594 10644 net.cpp:405] scale4a_branch2a -> res4a_branch2a (in-place)
I0528 17:10:14.006657 10644 layer_factory.hpp:77] Creating layer scale4a_branch2a
I0528 17:10:14.006814 10644 net.cpp:150] Setting up scale4a_branch2a
I0528 17:10:14.006821 10644 net.cpp:157] Top shape: 1 256 40 80 (819200)
I0528 17:10:14.006824 10644 net.cpp:165] Memory required for data: 2922905684
I0528 17:10:14.006836 10644 layer_factory.hpp:77] Creating layer res4a_branch2a_relu
I0528 17:10:14.006848 10644 net.cpp:100] Creating Layer res4a_branch2a_relu
I0528 17:10:14.006855 10644 net.cpp:444] res4a_branch2a_relu <- res4a_branch2a
I0528 17:10:14.006866 10644 net.cpp:405] res4a_branch2a_relu -> res4a_branch2a (in-place)
I0528 17:10:14.007285 10644 net.cpp:150] Setting up res4a_branch2a_relu
I0528 17:10:14.007293 10644 net.cpp:157] Top shape: 1 256 40 80 (819200)
I0528 17:10:14.007297 10644 net.cpp:165] Memory required for data: 2926182484
I0528 17:10:14.007302 10644 layer_factory.hpp:77] Creating layer res4a_branch2b
I0528 17:10:14.007319 10644 net.cpp:100] Creating Layer res4a_branch2b
I0528 17:10:14.007326 10644 net.cpp:444] res4a_branch2b <- res4a_branch2a
I0528 17:10:14.007344 10644 net.cpp:418] res4a_branch2b -> res4a_branch2b
I0528 17:10:14.010613 10644 cudnn_conv_layer.cpp:194] Reallocating workspace storage: 12582912
I0528 17:10:14.010890 10644 net.cpp:150] Setting up res4a_branch2b
I0528 17:10:14.010906 10644 net.cpp:157] Top shape: 1 256 40 80 (819200)
I0528 17:10:14.010910 10644 net.cpp:165] Memory required for data: 2929459284
I0528 17:10:14.010924 10644 layer_factory.hpp:77] Creating layer bn4a_branch2b
I0528 17:10:14.010944 10644 net.cpp:100] Creating Layer bn4a_branch2b
I0528 17:10:14.010953 10644 net.cpp:444] bn4a_branch2b <- res4a_branch2b
I0528 17:10:14.010970 10644 net.cpp:405] bn4a_branch2b -> res4a_branch2b (in-place)
I0528 17:10:14.011235 10644 net.cpp:150] Setting up bn4a_branch2b
I0528 17:10:14.011243 10644 net.cpp:157] Top shape: 1 256 40 80 (819200)
I0528 17:10:14.011245 10644 net.cpp:165] Memory required for data: 2932736084
I0528 17:10:14.011262 10644 layer_factory.hpp:77] Creating layer scale4a_branch2b
I0528 17:10:14.011278 10644 net.cpp:100] Creating Layer scale4a_branch2b
I0528 17:10:14.011286 10644 net.cpp:444] scale4a_branch2b <- res4a_branch2b
I0528 17:10:14.011299 10644 net.cpp:405] scale4a_branch2b -> res4a_branch2b (in-place)
I0528 17:10:14.011363 10644 layer_factory.hpp:77] Creating layer scale4a_branch2b
I0528 17:10:14.011523 10644 net.cpp:150] Setting up scale4a_branch2b
I0528 17:10:14.011529 10644 net.cpp:157] Top shape: 1 256 40 80 (819200)
I0528 17:10:14.011533 10644 net.cpp:165] Memory required for data: 2936012884
I0528 17:10:14.011544 10644 layer_factory.hpp:77] Creating layer res4a_branch2b_relu
I0528 17:10:14.011556 10644 net.cpp:100] Creating Layer res4a_branch2b_relu
I0528 17:10:14.011564 10644 net.cpp:444] res4a_branch2b_relu <- res4a_branch2b
I0528 17:10:14.011575 10644 net.cpp:405] res4a_branch2b_relu -> res4a_branch2b (in-place)
I0528 17:10:14.011721 10644 net.cpp:150] Setting up res4a_branch2b_relu
I0528 17:10:14.011729 10644 net.cpp:157] Top shape: 1 256 40 80 (819200)
I0528 17:10:14.011732 10644 net.cpp:165] Memory required for data: 2939289684
I0528 17:10:14.011737 10644 layer_factory.hpp:77] Creating layer res4a_branch2c
I0528 17:10:14.011754 10644 net.cpp:100] Creating Layer res4a_branch2c
I0528 17:10:14.011761 10644 net.cpp:444] res4a_branch2c <- res4a_branch2b
I0528 17:10:14.011777 10644 net.cpp:418] res4a_branch2c -> res4a_branch2c
I0528 17:10:14.013725 10644 cudnn_conv_layer.cpp:194] Reallocating workspace storage: 64152
I0528 17:10:14.013743 10644 net.cpp:150] Setting up res4a_branch2c
I0528 17:10:14.013754 10644 net.cpp:157] Top shape: 1 1024 40 80 (3276800)
I0528 17:10:14.013758 10644 net.cpp:165] Memory required for data: 2952396884
I0528 17:10:14.013770 10644 layer_factory.hpp:77] Creating layer bn4a_branch2c
I0528 17:10:14.013787 10644 net.cpp:100] Creating Layer bn4a_branch2c
I0528 17:10:14.013794 10644 net.cpp:444] bn4a_branch2c <- res4a_branch2c
I0528 17:10:14.013809 10644 net.cpp:405] bn4a_branch2c -> res4a_branch2c (in-place)
I0528 17:10:14.014065 10644 net.cpp:150] Setting up bn4a_branch2c
I0528 17:10:14.014072 10644 net.cpp:157] Top shape: 1 1024 40 80 (3276800)
I0528 17:10:14.014077 10644 net.cpp:165] Memory required for data: 2965504084
I0528 17:10:14.014094 10644 layer_factory.hpp:77] Creating layer scale4a_branch2c
I0528 17:10:14.014108 10644 net.cpp:100] Creating Layer scale4a_branch2c
I0528 17:10:14.014114 10644 net.cpp:444] scale4a_branch2c <- res4a_branch2c
I0528 17:10:14.014128 10644 net.cpp:405] scale4a_branch2c -> res4a_branch2c (in-place)
I0528 17:10:14.014190 10644 layer_factory.hpp:77] Creating layer scale4a_branch2c
I0528 17:10:14.014358 10644 net.cpp:150] Setting up scale4a_branch2c
I0528 17:10:14.014365 10644 net.cpp:157] Top shape: 1 1024 40 80 (3276800)
I0528 17:10:14.014369 10644 net.cpp:165] Memory required for data: 2978611284
I0528 17:10:14.014381 10644 layer_factory.hpp:77] Creating layer res4a
I0528 17:10:14.014406 10644 net.cpp:100] Creating Layer res4a
I0528 17:10:14.014413 10644 net.cpp:444] res4a <- res4a_branch1
I0528 17:10:14.014425 10644 net.cpp:444] res4a <- res4a_branch2c
I0528 17:10:14.014436 10644 net.cpp:418] res4a -> res4a
I0528 17:10:14.014477 10644 net.cpp:150] Setting up res4a
I0528 17:10:14.014487 10644 net.cpp:157] Top shape: 1 1024 40 80 (3276800)
I0528 17:10:14.014490 10644 net.cpp:165] Memory required for data: 2991718484
I0528 17:10:14.014498 10644 layer_factory.hpp:77] Creating layer res4a_relu
I0528 17:10:14.014508 10644 net.cpp:100] Creating Layer res4a_relu
I0528 17:10:14.014514 10644 net.cpp:444] res4a_relu <- res4a
I0528 17:10:14.014526 10644 net.cpp:405] res4a_relu -> res4a (in-place)
I0528 17:10:14.014670 10644 net.cpp:150] Setting up res4a_relu
I0528 17:10:14.014678 10644 net.cpp:157] Top shape: 1 1024 40 80 (3276800)
I0528 17:10:14.014680 10644 net.cpp:165] Memory required for data: 3004825684
I0528 17:10:14.014685 10644 layer_factory.hpp:77] Creating layer res4a_res4a_relu_0_split
I0528 17:10:14.014698 10644 net.cpp:100] Creating Layer res4a_res4a_relu_0_split
I0528 17:10:14.014703 10644 net.cpp:444] res4a_res4a_relu_0_split <- res4a
I0528 17:10:14.014719 10644 net.cpp:418] res4a_res4a_relu_0_split -> res4a_res4a_relu_0_split_0
I0528 17:10:14.014734 10644 net.cpp:418] res4a_res4a_relu_0_split -> res4a_res4a_relu_0_split_1
I0528 17:10:14.014791 10644 net.cpp:150] Setting up res4a_res4a_relu_0_split
I0528 17:10:14.014799 10644 net.cpp:157] Top shape: 1 1024 40 80 (3276800)
I0528 17:10:14.014806 10644 net.cpp:157] Top shape: 1 1024 40 80 (3276800)
I0528 17:10:14.014808 10644 net.cpp:165] Memory required for data: 3031040084
I0528 17:10:14.014814 10644 layer_factory.hpp:77] Creating layer res4b_branch2a
I0528 17:10:14.014829 10644 net.cpp:100] Creating Layer res4b_branch2a
I0528 17:10:14.014837 10644 net.cpp:444] res4b_branch2a <- res4a_res4a_relu_0_split_0
I0528 17:10:14.014852 10644 net.cpp:418] res4b_branch2a -> res4b_branch2a
I0528 17:10:14.016088 10644 cudnn_conv_layer.cpp:194] Reallocating workspace storage: 64152
I0528 17:10:14.016103 10644 net.cpp:150] Setting up res4b_branch2a
I0528 17:10:14.016114 10644 net.cpp:157] Top shape: 1 256 40 80 (819200)
I0528 17:10:14.016119 10644 net.cpp:165] Memory required for data: 3034316884
I0528 17:10:14.016130 10644 layer_factory.hpp:77] Creating layer bn4b_branch2a
I0528 17:10:14.016144 10644 net.cpp:100] Creating Layer bn4b_branch2a
I0528 17:10:14.016150 10644 net.cpp:444] bn4b_branch2a <- res4b_branch2a
I0528 17:10:14.016166 10644 net.cpp:405] bn4b_branch2a -> res4b_branch2a (in-place)
I0528 17:10:14.016412 10644 net.cpp:150] Setting up bn4b_branch2a
I0528 17:10:14.016419 10644 net.cpp:157] Top shape: 1 256 40 80 (819200)
I0528 17:10:14.016422 10644 net.cpp:165] Memory required for data: 3037593684
I0528 17:10:14.016438 10644 layer_factory.hpp:77] Creating layer scale4b_branch2a
I0528 17:10:14.016453 10644 net.cpp:100] Creating Layer scale4b_branch2a
I0528 17:10:14.016459 10644 net.cpp:444] scale4b_branch2a <- res4b_branch2a
I0528 17:10:14.016475 10644 net.cpp:405] scale4b_branch2a -> res4b_branch2a (in-place)
I0528 17:10:14.016537 10644 layer_factory.hpp:77] Creating layer scale4b_branch2a
I0528 17:10:14.016698 10644 net.cpp:150] Setting up scale4b_branch2a
I0528 17:10:14.016705 10644 net.cpp:157] Top shape: 1 256 40 80 (819200)
I0528 17:10:14.016708 10644 net.cpp:165] Memory required for data: 3040870484
I0528 17:10:14.016721 10644 layer_factory.hpp:77] Creating layer res4b_branch2a_relu
I0528 17:10:14.016732 10644 net.cpp:100] Creating Layer res4b_branch2a_relu
I0528 17:10:14.016738 10644 net.cpp:444] res4b_branch2a_relu <- res4b_branch2a
I0528 17:10:14.016752 10644 net.cpp:405] res4b_branch2a_relu -> res4b_branch2a (in-place)
I0528 17:10:14.017148 10644 net.cpp:150] Setting up res4b_branch2a_relu
I0528 17:10:14.017158 10644 net.cpp:157] Top shape: 1 256 40 80 (819200)
I0528 17:10:14.017160 10644 net.cpp:165] Memory required for data: 3044147284
I0528 17:10:14.017166 10644 layer_factory.hpp:77] Creating layer res4b_branch2b
I0528 17:10:14.017184 10644 net.cpp:100] Creating Layer res4b_branch2b
I0528 17:10:14.017190 10644 net.cpp:444] res4b_branch2b <- res4b_branch2a
I0528 17:10:14.017206 10644 net.cpp:418] res4b_branch2b -> res4b_branch2b
I0528 17:10:14.019634 10644 cudnn_conv_layer.cpp:194] Reallocating workspace storage: 12582912
I0528 17:10:14.019894 10644 net.cpp:150] Setting up res4b_branch2b
I0528 17:10:14.019907 10644 net.cpp:157] Top shape: 1 256 40 80 (819200)
I0528 17:10:14.019912 10644 net.cpp:165] Memory required for data: 3047424084
I0528 17:10:14.019927 10644 layer_factory.hpp:77] Creating layer bn4b_branch2b
I0528 17:10:14.019945 10644 net.cpp:100] Creating Layer bn4b_branch2b
I0528 17:10:14.019953 10644 net.cpp:444] bn4b_branch2b <- res4b_branch2b
I0528 17:10:14.019970 10644 net.cpp:405] bn4b_branch2b -> res4b_branch2b (in-place)
I0528 17:10:14.020228 10644 net.cpp:150] Setting up bn4b_branch2b
I0528 17:10:14.020236 10644 net.cpp:157] Top shape: 1 256 40 80 (819200)
I0528 17:10:14.020238 10644 net.cpp:165] Memory required for data: 3050700884
I0528 17:10:14.020256 10644 layer_factory.hpp:77] Creating layer scale4b_branch2b
I0528 17:10:14.020272 10644 net.cpp:100] Creating Layer scale4b_branch2b
I0528 17:10:14.020278 10644 net.cpp:444] scale4b_branch2b <- res4b_branch2b
I0528 17:10:14.020293 10644 net.cpp:405] scale4b_branch2b -> res4b_branch2b (in-place)
I0528 17:10:14.020359 10644 layer_factory.hpp:77] Creating layer scale4b_branch2b
I0528 17:10:14.020519 10644 net.cpp:150] Setting up scale4b_branch2b
I0528 17:10:14.020527 10644 net.cpp:157] Top shape: 1 256 40 80 (819200)
I0528 17:10:14.020530 10644 net.cpp:165] Memory required for data: 3053977684
I0528 17:10:14.020543 10644 layer_factory.hpp:77] Creating layer res4b_branch2b_relu
I0528 17:10:14.020560 10644 net.cpp:100] Creating Layer res4b_branch2b_relu
I0528 17:10:14.020566 10644 net.cpp:444] res4b_branch2b_relu <- res4b_branch2b
I0528 17:10:14.020581 10644 net.cpp:405] res4b_branch2b_relu -> res4b_branch2b (in-place)
I0528 17:10:14.020728 10644 net.cpp:150] Setting up res4b_branch2b_relu
I0528 17:10:14.020735 10644 net.cpp:157] Top shape: 1 256 40 80 (819200)
I0528 17:10:14.020738 10644 net.cpp:165] Memory required for data: 3057254484
I0528 17:10:14.020743 10644 layer_factory.hpp:77] Creating layer res4b_branch2c
I0528 17:10:14.020761 10644 net.cpp:100] Creating Layer res4b_branch2c
I0528 17:10:14.020768 10644 net.cpp:444] res4b_branch2c <- res4b_branch2b
I0528 17:10:14.020784 10644 net.cpp:418] res4b_branch2c -> res4b_branch2c
I0528 17:10:14.022970 10644 cudnn_conv_layer.cpp:194] Reallocating workspace storage: 64152
I0528 17:10:14.022987 10644 net.cpp:150] Setting up res4b_branch2c
I0528 17:10:14.022997 10644 net.cpp:157] Top shape: 1 1024 40 80 (3276800)
I0528 17:10:14.023001 10644 net.cpp:165] Memory required for data: 3070361684
I0528 17:10:14.023015 10644 layer_factory.hpp:77] Creating layer bn4b_branch2c
I0528 17:10:14.023036 10644 net.cpp:100] Creating Layer bn4b_branch2c
I0528 17:10:14.023043 10644 net.cpp:444] bn4b_branch2c <- res4b_branch2c
I0528 17:10:14.023061 10644 net.cpp:405] bn4b_branch2c -> res4b_branch2c (in-place)
I0528 17:10:14.023324 10644 net.cpp:150] Setting up bn4b_branch2c
I0528 17:10:14.023331 10644 net.cpp:157] Top shape: 1 1024 40 80 (3276800)
I0528 17:10:14.023334 10644 net.cpp:165] Memory required for data: 3083468884
I0528 17:10:14.023350 10644 layer_factory.hpp:77] Creating layer scale4b_branch2c
I0528 17:10:14.023366 10644 net.cpp:100] Creating Layer scale4b_branch2c
I0528 17:10:14.023373 10644 net.cpp:444] scale4b_branch2c <- res4b_branch2c
I0528 17:10:14.023386 10644 net.cpp:405] scale4b_branch2c -> res4b_branch2c (in-place)
I0528 17:10:14.023448 10644 layer_factory.hpp:77] Creating layer scale4b_branch2c
I0528 17:10:14.023623 10644 net.cpp:150] Setting up scale4b_branch2c
I0528 17:10:14.023632 10644 net.cpp:157] Top shape: 1 1024 40 80 (3276800)
I0528 17:10:14.023634 10644 net.cpp:165] Memory required for data: 3096576084
I0528 17:10:14.023646 10644 layer_factory.hpp:77] Creating layer res4b
I0528 17:10:14.023660 10644 net.cpp:100] Creating Layer res4b
I0528 17:10:14.023667 10644 net.cpp:444] res4b <- res4a_res4a_relu_0_split_1
I0528 17:10:14.023679 10644 net.cpp:444] res4b <- res4b_branch2c
I0528 17:10:14.023690 10644 net.cpp:418] res4b -> res4b
I0528 17:10:14.023731 10644 net.cpp:150] Setting up res4b
I0528 17:10:14.023741 10644 net.cpp:157] Top shape: 1 1024 40 80 (3276800)
I0528 17:10:14.023744 10644 net.cpp:165] Memory required for data: 3109683284
I0528 17:10:14.023748 10644 layer_factory.hpp:77] Creating layer res4b_relu
I0528 17:10:14.023761 10644 net.cpp:100] Creating Layer res4b_relu
I0528 17:10:14.023767 10644 net.cpp:444] res4b_relu <- res4b
I0528 17:10:14.023779 10644 net.cpp:405] res4b_relu -> res4b (in-place)
I0528 17:10:14.023926 10644 net.cpp:150] Setting up res4b_relu
I0528 17:10:14.023933 10644 net.cpp:157] Top shape: 1 1024 40 80 (3276800)
I0528 17:10:14.023936 10644 net.cpp:165] Memory required for data: 3122790484
I0528 17:10:14.023941 10644 layer_factory.hpp:77] Creating layer res4b_res4b_relu_0_split
I0528 17:10:14.023952 10644 net.cpp:100] Creating Layer res4b_res4b_relu_0_split
I0528 17:10:14.023958 10644 net.cpp:444] res4b_res4b_relu_0_split <- res4b
I0528 17:10:14.023972 10644 net.cpp:418] res4b_res4b_relu_0_split -> res4b_res4b_relu_0_split_0
I0528 17:10:14.023988 10644 net.cpp:418] res4b_res4b_relu_0_split -> res4b_res4b_relu_0_split_1
I0528 17:10:14.024045 10644 net.cpp:150] Setting up res4b_res4b_relu_0_split
I0528 17:10:14.024055 10644 net.cpp:157] Top shape: 1 1024 40 80 (3276800)
I0528 17:10:14.024060 10644 net.cpp:157] Top shape: 1 1024 40 80 (3276800)
I0528 17:10:14.024065 10644 net.cpp:165] Memory required for data: 3149004884
I0528 17:10:14.024068 10644 layer_factory.hpp:77] Creating layer res4c_branch2a
I0528 17:10:14.024085 10644 net.cpp:100] Creating Layer res4c_branch2a
I0528 17:10:14.024091 10644 net.cpp:444] res4c_branch2a <- res4b_res4b_relu_0_split_0
I0528 17:10:14.024106 10644 net.cpp:418] res4c_branch2a -> res4c_branch2a
I0528 17:10:14.025375 10644 cudnn_conv_layer.cpp:194] Reallocating workspace storage: 64152
I0528 17:10:14.025391 10644 net.cpp:150] Setting up res4c_branch2a
I0528 17:10:14.025400 10644 net.cpp:157] Top shape: 1 256 40 80 (819200)
I0528 17:10:14.025404 10644 net.cpp:165] Memory required for data: 3152281684
I0528 17:10:14.025415 10644 layer_factory.hpp:77] Creating layer bn4c_branch2a
I0528 17:10:14.025431 10644 net.cpp:100] Creating Layer bn4c_branch2a
I0528 17:10:14.025439 10644 net.cpp:444] bn4c_branch2a <- res4c_branch2a
I0528 17:10:14.025454 10644 net.cpp:405] bn4c_branch2a -> res4c_branch2a (in-place)
I0528 17:10:14.025703 10644 net.cpp:150] Setting up bn4c_branch2a
I0528 17:10:14.025710 10644 net.cpp:157] Top shape: 1 256 40 80 (819200)
I0528 17:10:14.025713 10644 net.cpp:165] Memory required for data: 3155558484
I0528 17:10:14.025730 10644 layer_factory.hpp:77] Creating layer scale4c_branch2a
I0528 17:10:14.025745 10644 net.cpp:100] Creating Layer scale4c_branch2a
I0528 17:10:14.025751 10644 net.cpp:444] scale4c_branch2a <- res4c_branch2a
I0528 17:10:14.025764 10644 net.cpp:405] scale4c_branch2a -> res4c_branch2a (in-place)
I0528 17:10:14.025828 10644 layer_factory.hpp:77] Creating layer scale4c_branch2a
I0528 17:10:14.025991 10644 net.cpp:150] Setting up scale4c_branch2a
I0528 17:10:14.025998 10644 net.cpp:157] Top shape: 1 256 40 80 (819200)
I0528 17:10:14.026001 10644 net.cpp:165] Memory required for data: 3158835284
I0528 17:10:14.026015 10644 layer_factory.hpp:77] Creating layer res4c_branch2a_relu
I0528 17:10:14.026026 10644 net.cpp:100] Creating Layer res4c_branch2a_relu
I0528 17:10:14.026032 10644 net.cpp:444] res4c_branch2a_relu <- res4c_branch2a
I0528 17:10:14.026046 10644 net.cpp:405] res4c_branch2a_relu -> res4c_branch2a (in-place)
I0528 17:10:14.026186 10644 net.cpp:150] Setting up res4c_branch2a_relu
I0528 17:10:14.026195 10644 net.cpp:157] Top shape: 1 256 40 80 (819200)
I0528 17:10:14.026197 10644 net.cpp:165] Memory required for data: 3162112084
I0528 17:10:14.026202 10644 layer_factory.hpp:77] Creating layer res4c_branch2b
I0528 17:10:14.026218 10644 net.cpp:100] Creating Layer res4c_branch2b
I0528 17:10:14.026224 10644 net.cpp:444] res4c_branch2b <- res4c_branch2a
I0528 17:10:14.026240 10644 net.cpp:418] res4c_branch2b -> res4c_branch2b
I0528 17:10:14.028998 10644 cudnn_conv_layer.cpp:194] Reallocating workspace storage: 12582912
I0528 17:10:14.029407 10644 net.cpp:150] Setting up res4c_branch2b
I0528 17:10:14.029428 10644 net.cpp:157] Top shape: 1 256 40 80 (819200)
I0528 17:10:14.029433 10644 net.cpp:165] Memory required for data: 3165388884
I0528 17:10:14.029458 10644 layer_factory.hpp:77] Creating layer bn4c_branch2b
I0528 17:10:14.029485 10644 net.cpp:100] Creating Layer bn4c_branch2b
I0528 17:10:14.029494 10644 net.cpp:444] bn4c_branch2b <- res4c_branch2b
I0528 17:10:14.029512 10644 net.cpp:405] bn4c_branch2b -> res4c_branch2b (in-place)
I0528 17:10:14.029842 10644 net.cpp:150] Setting up bn4c_branch2b
I0528 17:10:14.029861 10644 net.cpp:157] Top shape: 1 256 40 80 (819200)
I0528 17:10:14.029870 10644 net.cpp:165] Memory required for data: 3168665684
I0528 17:10:14.029897 10644 layer_factory.hpp:77] Creating layer scale4c_branch2b
I0528 17:10:14.029928 10644 net.cpp:100] Creating Layer scale4c_branch2b
I0528 17:10:14.029943 10644 net.cpp:444] scale4c_branch2b <- res4c_branch2b
I0528 17:10:14.029964 10644 net.cpp:405] scale4c_branch2b -> res4c_branch2b (in-place)
I0528 17:10:14.030038 10644 layer_factory.hpp:77] Creating layer scale4c_branch2b
I0528 17:10:14.030244 10644 net.cpp:150] Setting up scale4c_branch2b
I0528 17:10:14.030252 10644 net.cpp:157] Top shape: 1 256 40 80 (819200)
I0528 17:10:14.030256 10644 net.cpp:165] Memory required for data: 3171942484
I0528 17:10:14.030269 10644 layer_factory.hpp:77] Creating layer res4c_branch2b_relu
I0528 17:10:14.030282 10644 net.cpp:100] Creating Layer res4c_branch2b_relu
I0528 17:10:14.030288 10644 net.cpp:444] res4c_branch2b_relu <- res4c_branch2b
I0528 17:10:14.030302 10644 net.cpp:405] res4c_branch2b_relu -> res4c_branch2b (in-place)
I0528 17:10:14.030841 10644 net.cpp:150] Setting up res4c_branch2b_relu
I0528 17:10:14.030850 10644 net.cpp:157] Top shape: 1 256 40 80 (819200)
I0528 17:10:14.030853 10644 net.cpp:165] Memory required for data: 3175219284
I0528 17:10:14.030859 10644 layer_factory.hpp:77] Creating layer res4c_branch2c
I0528 17:10:14.030879 10644 net.cpp:100] Creating Layer res4c_branch2c
I0528 17:10:14.030885 10644 net.cpp:444] res4c_branch2c <- res4c_branch2b
I0528 17:10:14.030902 10644 net.cpp:418] res4c_branch2c -> res4c_branch2c
I0528 17:10:14.033042 10644 cudnn_conv_layer.cpp:194] Reallocating workspace storage: 64152
I0528 17:10:14.033061 10644 net.cpp:150] Setting up res4c_branch2c
I0528 17:10:14.033071 10644 net.cpp:157] Top shape: 1 1024 40 80 (3276800)
I0528 17:10:14.033076 10644 net.cpp:165] Memory required for data: 3188326484
I0528 17:10:14.033092 10644 layer_factory.hpp:77] Creating layer bn4c_branch2c
I0528 17:10:14.033113 10644 net.cpp:100] Creating Layer bn4c_branch2c
I0528 17:10:14.033121 10644 net.cpp:444] bn4c_branch2c <- res4c_branch2c
I0528 17:10:14.033139 10644 net.cpp:405] bn4c_branch2c -> res4c_branch2c (in-place)
I0528 17:10:14.033416 10644 net.cpp:150] Setting up bn4c_branch2c
I0528 17:10:14.033422 10644 net.cpp:157] Top shape: 1 1024 40 80 (3276800)
I0528 17:10:14.033426 10644 net.cpp:165] Memory required for data: 3201433684
I0528 17:10:14.033443 10644 layer_factory.hpp:77] Creating layer scale4c_branch2c
I0528 17:10:14.033459 10644 net.cpp:100] Creating Layer scale4c_branch2c
I0528 17:10:14.033466 10644 net.cpp:444] scale4c_branch2c <- res4c_branch2c
I0528 17:10:14.033490 10644 net.cpp:405] scale4c_branch2c -> res4c_branch2c (in-place)
I0528 17:10:14.033560 10644 layer_factory.hpp:77] Creating layer scale4c_branch2c
I0528 17:10:14.033736 10644 net.cpp:150] Setting up scale4c_branch2c
I0528 17:10:14.033744 10644 net.cpp:157] Top shape: 1 1024 40 80 (3276800)
I0528 17:10:14.033747 10644 net.cpp:165] Memory required for data: 3214540884
I0528 17:10:14.033761 10644 layer_factory.hpp:77] Creating layer res4c
I0528 17:10:14.033773 10644 net.cpp:100] Creating Layer res4c
I0528 17:10:14.033780 10644 net.cpp:444] res4c <- res4b_res4b_relu_0_split_1
I0528 17:10:14.033792 10644 net.cpp:444] res4c <- res4c_branch2c
I0528 17:10:14.033804 10644 net.cpp:418] res4c -> res4c
I0528 17:10:14.033849 10644 net.cpp:150] Setting up res4c
I0528 17:10:14.033859 10644 net.cpp:157] Top shape: 1 1024 40 80 (3276800)
I0528 17:10:14.033862 10644 net.cpp:165] Memory required for data: 3227648084
I0528 17:10:14.033867 10644 layer_factory.hpp:77] Creating layer res4c_relu
I0528 17:10:14.033880 10644 net.cpp:100] Creating Layer res4c_relu
I0528 17:10:14.033886 10644 net.cpp:444] res4c_relu <- res4c
I0528 17:10:14.033900 10644 net.cpp:405] res4c_relu -> res4c (in-place)
I0528 17:10:14.034054 10644 net.cpp:150] Setting up res4c_relu
I0528 17:10:14.034061 10644 net.cpp:157] Top shape: 1 1024 40 80 (3276800)
I0528 17:10:14.034065 10644 net.cpp:165] Memory required for data: 3240755284
I0528 17:10:14.034070 10644 layer_factory.hpp:77] Creating layer res4c_res4c_relu_0_split
I0528 17:10:14.034082 10644 net.cpp:100] Creating Layer res4c_res4c_relu_0_split
I0528 17:10:14.034088 10644 net.cpp:444] res4c_res4c_relu_0_split <- res4c
I0528 17:10:14.034103 10644 net.cpp:418] res4c_res4c_relu_0_split -> res4c_res4c_relu_0_split_0
I0528 17:10:14.034121 10644 net.cpp:418] res4c_res4c_relu_0_split -> res4c_res4c_relu_0_split_1
I0528 17:10:14.034180 10644 net.cpp:150] Setting up res4c_res4c_relu_0_split
I0528 17:10:14.034188 10644 net.cpp:157] Top shape: 1 1024 40 80 (3276800)
I0528 17:10:14.034195 10644 net.cpp:157] Top shape: 1 1024 40 80 (3276800)
I0528 17:10:14.034198 10644 net.cpp:165] Memory required for data: 3266969684
I0528 17:10:14.034204 10644 layer_factory.hpp:77] Creating layer res4d_branch2a
I0528 17:10:14.034220 10644 net.cpp:100] Creating Layer res4d_branch2a
I0528 17:10:14.034227 10644 net.cpp:444] res4d_branch2a <- res4c_res4c_relu_0_split_0
I0528 17:10:14.034243 10644 net.cpp:418] res4d_branch2a -> res4d_branch2a
I0528 17:10:14.035725 10644 cudnn_conv_layer.cpp:194] Reallocating workspace storage: 64152
I0528 17:10:14.035743 10644 net.cpp:150] Setting up res4d_branch2a
I0528 17:10:14.035753 10644 net.cpp:157] Top shape: 1 256 40 80 (819200)
I0528 17:10:14.035756 10644 net.cpp:165] Memory required for data: 3270246484
I0528 17:10:14.035770 10644 layer_factory.hpp:77] Creating layer bn4d_branch2a
I0528 17:10:14.035789 10644 net.cpp:100] Creating Layer bn4d_branch2a
I0528 17:10:14.035799 10644 net.cpp:444] bn4d_branch2a <- res4d_branch2a
I0528 17:10:14.035815 10644 net.cpp:405] bn4d_branch2a -> res4d_branch2a (in-place)
I0528 17:10:14.036090 10644 net.cpp:150] Setting up bn4d_branch2a
I0528 17:10:14.036098 10644 net.cpp:157] Top shape: 1 256 40 80 (819200)
I0528 17:10:14.036101 10644 net.cpp:165] Memory required for data: 3273523284
I0528 17:10:14.036118 10644 layer_factory.hpp:77] Creating layer scale4d_branch2a
I0528 17:10:14.036136 10644 net.cpp:100] Creating Layer scale4d_branch2a
I0528 17:10:14.036142 10644 net.cpp:444] scale4d_branch2a <- res4d_branch2a
I0528 17:10:14.036156 10644 net.cpp:405] scale4d_branch2a -> res4d_branch2a (in-place)
I0528 17:10:14.036222 10644 layer_factory.hpp:77] Creating layer scale4d_branch2a
I0528 17:10:14.036396 10644 net.cpp:150] Setting up scale4d_branch2a
I0528 17:10:14.036402 10644 net.cpp:157] Top shape: 1 256 40 80 (819200)
I0528 17:10:14.036406 10644 net.cpp:165] Memory required for data: 3276800084
I0528 17:10:14.036418 10644 layer_factory.hpp:77] Creating layer res4d_branch2a_relu
I0528 17:10:14.036429 10644 net.cpp:100] Creating Layer res4d_branch2a_relu
I0528 17:10:14.036435 10644 net.cpp:444] res4d_branch2a_relu <- res4d_branch2a
I0528 17:10:14.036449 10644 net.cpp:405] res4d_branch2a_relu -> res4d_branch2a (in-place)
I0528 17:10:14.036599 10644 net.cpp:150] Setting up res4d_branch2a_relu
I0528 17:10:14.036607 10644 net.cpp:157] Top shape: 1 256 40 80 (819200)
I0528 17:10:14.036609 10644 net.cpp:165] Memory required for data: 3280076884
I0528 17:10:14.036614 10644 layer_factory.hpp:77] Creating layer res4d_branch2b
I0528 17:10:14.036631 10644 net.cpp:100] Creating Layer res4d_branch2b
I0528 17:10:14.036638 10644 net.cpp:444] res4d_branch2b <- res4d_branch2a
I0528 17:10:14.036654 10644 net.cpp:418] res4d_branch2b -> res4d_branch2b
I0528 17:10:14.039283 10644 cudnn_conv_layer.cpp:194] Reallocating workspace storage: 12582912
I0528 17:10:14.039584 10644 net.cpp:150] Setting up res4d_branch2b
I0528 17:10:14.039602 10644 net.cpp:157] Top shape: 1 256 40 80 (819200)
I0528 17:10:14.039605 10644 net.cpp:165] Memory required for data: 3283353684
I0528 17:10:14.039626 10644 layer_factory.hpp:77] Creating layer bn4d_branch2b
I0528 17:10:14.039654 10644 net.cpp:100] Creating Layer bn4d_branch2b
I0528 17:10:14.039664 10644 net.cpp:444] bn4d_branch2b <- res4d_branch2b
I0528 17:10:14.039685 10644 net.cpp:405] bn4d_branch2b -> res4d_branch2b (in-place)
I0528 17:10:14.039968 10644 net.cpp:150] Setting up bn4d_branch2b
I0528 17:10:14.039975 10644 net.cpp:157] Top shape: 1 256 40 80 (819200)
I0528 17:10:14.039978 10644 net.cpp:165] Memory required for data: 3286630484
I0528 17:10:14.039995 10644 layer_factory.hpp:77] Creating layer scale4d_branch2b
I0528 17:10:14.040011 10644 net.cpp:100] Creating Layer scale4d_branch2b
I0528 17:10:14.040017 10644 net.cpp:444] scale4d_branch2b <- res4d_branch2b
I0528 17:10:14.040032 10644 net.cpp:405] scale4d_branch2b -> res4d_branch2b (in-place)
I0528 17:10:14.040099 10644 layer_factory.hpp:77] Creating layer scale4d_branch2b
I0528 17:10:14.040267 10644 net.cpp:150] Setting up scale4d_branch2b
I0528 17:10:14.040275 10644 net.cpp:157] Top shape: 1 256 40 80 (819200)
I0528 17:10:14.040277 10644 net.cpp:165] Memory required for data: 3289907284
I0528 17:10:14.040290 10644 layer_factory.hpp:77] Creating layer res4d_branch2b_relu
I0528 17:10:14.040302 10644 net.cpp:100] Creating Layer res4d_branch2b_relu
I0528 17:10:14.040308 10644 net.cpp:444] res4d_branch2b_relu <- res4d_branch2b
I0528 17:10:14.040321 10644 net.cpp:405] res4d_branch2b_relu -> res4d_branch2b (in-place)
I0528 17:10:14.040717 10644 net.cpp:150] Setting up res4d_branch2b_relu
I0528 17:10:14.040726 10644 net.cpp:157] Top shape: 1 256 40 80 (819200)
I0528 17:10:14.040729 10644 net.cpp:165] Memory required for data: 3293184084
I0528 17:10:14.040735 10644 layer_factory.hpp:77] Creating layer res4d_branch2c
I0528 17:10:14.040753 10644 net.cpp:100] Creating Layer res4d_branch2c
I0528 17:10:14.040760 10644 net.cpp:444] res4d_branch2c <- res4d_branch2b
I0528 17:10:14.040777 10644 net.cpp:418] res4d_branch2c -> res4d_branch2c
I0528 17:10:14.042778 10644 cudnn_conv_layer.cpp:194] Reallocating workspace storage: 64152
I0528 17:10:14.042796 10644 net.cpp:150] Setting up res4d_branch2c
I0528 17:10:14.042807 10644 net.cpp:157] Top shape: 1 1024 40 80 (3276800)
I0528 17:10:14.042811 10644 net.cpp:165] Memory required for data: 3306291284
I0528 17:10:14.042824 10644 layer_factory.hpp:77] Creating layer bn4d_branch2c
I0528 17:10:14.042842 10644 net.cpp:100] Creating Layer bn4d_branch2c
I0528 17:10:14.042850 10644 net.cpp:444] bn4d_branch2c <- res4d_branch2c
I0528 17:10:14.042866 10644 net.cpp:405] bn4d_branch2c -> res4d_branch2c (in-place)
I0528 17:10:14.043141 10644 net.cpp:150] Setting up bn4d_branch2c
I0528 17:10:14.043148 10644 net.cpp:157] Top shape: 1 1024 40 80 (3276800)
I0528 17:10:14.043153 10644 net.cpp:165] Memory required for data: 3319398484
I0528 17:10:14.043169 10644 layer_factory.hpp:77] Creating layer scale4d_branch2c
I0528 17:10:14.043184 10644 net.cpp:100] Creating Layer scale4d_branch2c
I0528 17:10:14.043190 10644 net.cpp:444] scale4d_branch2c <- res4d_branch2c
I0528 17:10:14.043205 10644 net.cpp:405] scale4d_branch2c -> res4d_branch2c (in-place)
I0528 17:10:14.043268 10644 layer_factory.hpp:77] Creating layer scale4d_branch2c
I0528 17:10:14.043442 10644 net.cpp:150] Setting up scale4d_branch2c
I0528 17:10:14.043448 10644 net.cpp:157] Top shape: 1 1024 40 80 (3276800)
I0528 17:10:14.043452 10644 net.cpp:165] Memory required for data: 3332505684
I0528 17:10:14.043464 10644 layer_factory.hpp:77] Creating layer res4d
I0528 17:10:14.043478 10644 net.cpp:100] Creating Layer res4d
I0528 17:10:14.043483 10644 net.cpp:444] res4d <- res4c_res4c_relu_0_split_1
I0528 17:10:14.043495 10644 net.cpp:444] res4d <- res4d_branch2c
I0528 17:10:14.043506 10644 net.cpp:418] res4d -> res4d
I0528 17:10:14.043550 10644 net.cpp:150] Setting up res4d
I0528 17:10:14.043558 10644 net.cpp:157] Top shape: 1 1024 40 80 (3276800)
I0528 17:10:14.043562 10644 net.cpp:165] Memory required for data: 3345612884
I0528 17:10:14.043567 10644 layer_factory.hpp:77] Creating layer res4d_relu
I0528 17:10:14.043578 10644 net.cpp:100] Creating Layer res4d_relu
I0528 17:10:14.043584 10644 net.cpp:444] res4d_relu <- res4d
I0528 17:10:14.043597 10644 net.cpp:405] res4d_relu -> res4d (in-place)
I0528 17:10:14.043741 10644 net.cpp:150] Setting up res4d_relu
I0528 17:10:14.043748 10644 net.cpp:157] Top shape: 1 1024 40 80 (3276800)
I0528 17:10:14.043751 10644 net.cpp:165] Memory required for data: 3358720084
I0528 17:10:14.043756 10644 layer_factory.hpp:77] Creating layer res4d_res4d_relu_0_split
I0528 17:10:14.043768 10644 net.cpp:100] Creating Layer res4d_res4d_relu_0_split
I0528 17:10:14.043774 10644 net.cpp:444] res4d_res4d_relu_0_split <- res4d
I0528 17:10:14.043788 10644 net.cpp:418] res4d_res4d_relu_0_split -> res4d_res4d_relu_0_split_0
I0528 17:10:14.043805 10644 net.cpp:418] res4d_res4d_relu_0_split -> res4d_res4d_relu_0_split_1
I0528 17:10:14.043864 10644 net.cpp:150] Setting up res4d_res4d_relu_0_split
I0528 17:10:14.043874 10644 net.cpp:157] Top shape: 1 1024 40 80 (3276800)
I0528 17:10:14.043879 10644 net.cpp:157] Top shape: 1 1024 40 80 (3276800)
I0528 17:10:14.043884 10644 net.cpp:165] Memory required for data: 3384934484
I0528 17:10:14.043887 10644 layer_factory.hpp:77] Creating layer res4e_branch2a
I0528 17:10:14.043905 10644 net.cpp:100] Creating Layer res4e_branch2a
I0528 17:10:14.043910 10644 net.cpp:444] res4e_branch2a <- res4d_res4d_relu_0_split_0
I0528 17:10:14.043926 10644 net.cpp:418] res4e_branch2a -> res4e_branch2a
I0528 17:10:14.045202 10644 cudnn_conv_layer.cpp:194] Reallocating workspace storage: 64152
I0528 17:10:14.045217 10644 net.cpp:150] Setting up res4e_branch2a
I0528 17:10:14.045226 10644 net.cpp:157] Top shape: 1 256 40 80 (819200)
I0528 17:10:14.045230 10644 net.cpp:165] Memory required for data: 3388211284
I0528 17:10:14.045241 10644 layer_factory.hpp:77] Creating layer bn4e_branch2a
I0528 17:10:14.045256 10644 net.cpp:100] Creating Layer bn4e_branch2a
I0528 17:10:14.045264 10644 net.cpp:444] bn4e_branch2a <- res4e_branch2a
I0528 17:10:14.045279 10644 net.cpp:405] bn4e_branch2a -> res4e_branch2a (in-place)
I0528 17:10:14.045538 10644 net.cpp:150] Setting up bn4e_branch2a
I0528 17:10:14.045545 10644 net.cpp:157] Top shape: 1 256 40 80 (819200)
I0528 17:10:14.045548 10644 net.cpp:165] Memory required for data: 3391488084
I0528 17:10:14.045565 10644 layer_factory.hpp:77] Creating layer scale4e_branch2a
I0528 17:10:14.045580 10644 net.cpp:100] Creating Layer scale4e_branch2a
I0528 17:10:14.045586 10644 net.cpp:444] scale4e_branch2a <- res4e_branch2a
I0528 17:10:14.045601 10644 net.cpp:405] scale4e_branch2a -> res4e_branch2a (in-place)
I0528 17:10:14.045665 10644 layer_factory.hpp:77] Creating layer scale4e_branch2a
I0528 17:10:14.045831 10644 net.cpp:150] Setting up scale4e_branch2a
I0528 17:10:14.045838 10644 net.cpp:157] Top shape: 1 256 40 80 (819200)
I0528 17:10:14.045841 10644 net.cpp:165] Memory required for data: 3394764884
I0528 17:10:14.045855 10644 layer_factory.hpp:77] Creating layer res4e_branch2a_relu
I0528 17:10:14.045866 10644 net.cpp:100] Creating Layer res4e_branch2a_relu
I0528 17:10:14.045871 10644 net.cpp:444] res4e_branch2a_relu <- res4e_branch2a
I0528 17:10:14.045884 10644 net.cpp:405] res4e_branch2a_relu -> res4e_branch2a (in-place)
I0528 17:10:14.046030 10644 net.cpp:150] Setting up res4e_branch2a_relu
I0528 17:10:14.046036 10644 net.cpp:157] Top shape: 1 256 40 80 (819200)
I0528 17:10:14.046039 10644 net.cpp:165] Memory required for data: 3398041684
I0528 17:10:14.046044 10644 layer_factory.hpp:77] Creating layer res4e_branch2b
I0528 17:10:14.046061 10644 net.cpp:100] Creating Layer res4e_branch2b
I0528 17:10:14.046067 10644 net.cpp:444] res4e_branch2b <- res4e_branch2a
I0528 17:10:14.046084 10644 net.cpp:418] res4e_branch2b -> res4e_branch2b
I0528 17:10:14.049747 10644 cudnn_conv_layer.cpp:194] Reallocating workspace storage: 12582912
I0528 17:10:14.050037 10644 net.cpp:150] Setting up res4e_branch2b
I0528 17:10:14.050052 10644 net.cpp:157] Top shape: 1 256 40 80 (819200)
I0528 17:10:14.050056 10644 net.cpp:165] Memory required for data: 3401318484
I0528 17:10:14.050073 10644 layer_factory.hpp:77] Creating layer bn4e_branch2b
I0528 17:10:14.050098 10644 net.cpp:100] Creating Layer bn4e_branch2b
I0528 17:10:14.050108 10644 net.cpp:444] bn4e_branch2b <- res4e_branch2b
I0528 17:10:14.050127 10644 net.cpp:405] bn4e_branch2b -> res4e_branch2b (in-place)
I0528 17:10:14.050405 10644 net.cpp:150] Setting up bn4e_branch2b
I0528 17:10:14.050415 10644 net.cpp:157] Top shape: 1 256 40 80 (819200)
I0528 17:10:14.050417 10644 net.cpp:165] Memory required for data: 3404595284
I0528 17:10:14.050434 10644 layer_factory.hpp:77] Creating layer scale4e_branch2b
I0528 17:10:14.050449 10644 net.cpp:100] Creating Layer scale4e_branch2b
I0528 17:10:14.050456 10644 net.cpp:444] scale4e_branch2b <- res4e_branch2b
I0528 17:10:14.050470 10644 net.cpp:405] scale4e_branch2b -> res4e_branch2b (in-place)
I0528 17:10:14.050537 10644 layer_factory.hpp:77] Creating layer scale4e_branch2b
I0528 17:10:14.050707 10644 net.cpp:150] Setting up scale4e_branch2b
I0528 17:10:14.050715 10644 net.cpp:157] Top shape: 1 256 40 80 (819200)
I0528 17:10:14.050719 10644 net.cpp:165] Memory required for data: 3407872084
I0528 17:10:14.050730 10644 layer_factory.hpp:77] Creating layer res4e_branch2b_relu
I0528 17:10:14.050742 10644 net.cpp:100] Creating Layer res4e_branch2b_relu
I0528 17:10:14.050748 10644 net.cpp:444] res4e_branch2b_relu <- res4e_branch2b
I0528 17:10:14.050761 10644 net.cpp:405] res4e_branch2b_relu -> res4e_branch2b (in-place)
I0528 17:10:14.051159 10644 net.cpp:150] Setting up res4e_branch2b_relu
I0528 17:10:14.051169 10644 net.cpp:157] Top shape: 1 256 40 80 (819200)
I0528 17:10:14.051173 10644 net.cpp:165] Memory required for data: 3411148884
I0528 17:10:14.051178 10644 layer_factory.hpp:77] Creating layer res4e_branch2c
I0528 17:10:14.051198 10644 net.cpp:100] Creating Layer res4e_branch2c
I0528 17:10:14.051204 10644 net.cpp:444] res4e_branch2c <- res4e_branch2b
I0528 17:10:14.051221 10644 net.cpp:418] res4e_branch2c -> res4e_branch2c
I0528 17:10:14.053200 10644 cudnn_conv_layer.cpp:194] Reallocating workspace storage: 64152
I0528 17:10:14.053218 10644 net.cpp:150] Setting up res4e_branch2c
I0528 17:10:14.053230 10644 net.cpp:157] Top shape: 1 1024 40 80 (3276800)
I0528 17:10:14.053233 10644 net.cpp:165] Memory required for data: 3424256084
I0528 17:10:14.053247 10644 layer_factory.hpp:77] Creating layer bn4e_branch2c
I0528 17:10:14.053263 10644 net.cpp:100] Creating Layer bn4e_branch2c
I0528 17:10:14.053270 10644 net.cpp:444] bn4e_branch2c <- res4e_branch2c
I0528 17:10:14.053292 10644 net.cpp:405] bn4e_branch2c -> res4e_branch2c (in-place)
I0528 17:10:14.053568 10644 net.cpp:150] Setting up bn4e_branch2c
I0528 17:10:14.053575 10644 net.cpp:157] Top shape: 1 1024 40 80 (3276800)
I0528 17:10:14.053580 10644 net.cpp:165] Memory required for data: 3437363284
I0528 17:10:14.053596 10644 layer_factory.hpp:77] Creating layer scale4e_branch2c
I0528 17:10:14.053611 10644 net.cpp:100] Creating Layer scale4e_branch2c
I0528 17:10:14.053618 10644 net.cpp:444] scale4e_branch2c <- res4e_branch2c
I0528 17:10:14.053633 10644 net.cpp:405] scale4e_branch2c -> res4e_branch2c (in-place)
I0528 17:10:14.053695 10644 layer_factory.hpp:77] Creating layer scale4e_branch2c
I0528 17:10:14.053867 10644 net.cpp:150] Setting up scale4e_branch2c
I0528 17:10:14.053875 10644 net.cpp:157] Top shape: 1 1024 40 80 (3276800)
I0528 17:10:14.053879 10644 net.cpp:165] Memory required for data: 3450470484
I0528 17:10:14.053891 10644 layer_factory.hpp:77] Creating layer res4e
I0528 17:10:14.053903 10644 net.cpp:100] Creating Layer res4e
I0528 17:10:14.053910 10644 net.cpp:444] res4e <- res4d_res4d_relu_0_split_1
I0528 17:10:14.053921 10644 net.cpp:444] res4e <- res4e_branch2c
I0528 17:10:14.053933 10644 net.cpp:418] res4e -> res4e
I0528 17:10:14.053977 10644 net.cpp:150] Setting up res4e
I0528 17:10:14.053985 10644 net.cpp:157] Top shape: 1 1024 40 80 (3276800)
I0528 17:10:14.053989 10644 net.cpp:165] Memory required for data: 3463577684
I0528 17:10:14.053994 10644 layer_factory.hpp:77] Creating layer res4e_relu
I0528 17:10:14.054005 10644 net.cpp:100] Creating Layer res4e_relu
I0528 17:10:14.054011 10644 net.cpp:444] res4e_relu <- res4e
I0528 17:10:14.054023 10644 net.cpp:405] res4e_relu -> res4e (in-place)
I0528 17:10:14.054170 10644 net.cpp:150] Setting up res4e_relu
I0528 17:10:14.054177 10644 net.cpp:157] Top shape: 1 1024 40 80 (3276800)
I0528 17:10:14.054180 10644 net.cpp:165] Memory required for data: 3476684884
I0528 17:10:14.054185 10644 layer_factory.hpp:77] Creating layer res4e_res4e_relu_0_split
I0528 17:10:14.054198 10644 net.cpp:100] Creating Layer res4e_res4e_relu_0_split
I0528 17:10:14.054203 10644 net.cpp:444] res4e_res4e_relu_0_split <- res4e
I0528 17:10:14.054217 10644 net.cpp:418] res4e_res4e_relu_0_split -> res4e_res4e_relu_0_split_0
I0528 17:10:14.054234 10644 net.cpp:418] res4e_res4e_relu_0_split -> res4e_res4e_relu_0_split_1
I0528 17:10:14.054293 10644 net.cpp:150] Setting up res4e_res4e_relu_0_split
I0528 17:10:14.054302 10644 net.cpp:157] Top shape: 1 1024 40 80 (3276800)
I0528 17:10:14.054308 10644 net.cpp:157] Top shape: 1 1024 40 80 (3276800)
I0528 17:10:14.054312 10644 net.cpp:165] Memory required for data: 3502899284
I0528 17:10:14.054317 10644 layer_factory.hpp:77] Creating layer res4f_branch2a
I0528 17:10:14.054333 10644 net.cpp:100] Creating Layer res4f_branch2a
I0528 17:10:14.054339 10644 net.cpp:444] res4f_branch2a <- res4e_res4e_relu_0_split_0
I0528 17:10:14.054355 10644 net.cpp:418] res4f_branch2a -> res4f_branch2a
I0528 17:10:14.055649 10644 cudnn_conv_layer.cpp:194] Reallocating workspace storage: 64152
I0528 17:10:14.055665 10644 net.cpp:150] Setting up res4f_branch2a
I0528 17:10:14.055675 10644 net.cpp:157] Top shape: 1 256 40 80 (819200)
I0528 17:10:14.055678 10644 net.cpp:165] Memory required for data: 3506176084
I0528 17:10:14.055689 10644 layer_factory.hpp:77] Creating layer bn4f_branch2a
I0528 17:10:14.055703 10644 net.cpp:100] Creating Layer bn4f_branch2a
I0528 17:10:14.055711 10644 net.cpp:444] bn4f_branch2a <- res4f_branch2a
I0528 17:10:14.055725 10644 net.cpp:405] bn4f_branch2a -> res4f_branch2a (in-place)
I0528 17:10:14.055994 10644 net.cpp:150] Setting up bn4f_branch2a
I0528 17:10:14.056000 10644 net.cpp:157] Top shape: 1 256 40 80 (819200)
I0528 17:10:14.056004 10644 net.cpp:165] Memory required for data: 3509452884
I0528 17:10:14.056020 10644 layer_factory.hpp:77] Creating layer scale4f_branch2a
I0528 17:10:14.056035 10644 net.cpp:100] Creating Layer scale4f_branch2a
I0528 17:10:14.056041 10644 net.cpp:444] scale4f_branch2a <- res4f_branch2a
I0528 17:10:14.056057 10644 net.cpp:405] scale4f_branch2a -> res4f_branch2a (in-place)
I0528 17:10:14.056123 10644 layer_factory.hpp:77] Creating layer scale4f_branch2a
I0528 17:10:14.056293 10644 net.cpp:150] Setting up scale4f_branch2a
I0528 17:10:14.056300 10644 net.cpp:157] Top shape: 1 256 40 80 (819200)
I0528 17:10:14.056303 10644 net.cpp:165] Memory required for data: 3512729684
I0528 17:10:14.056315 10644 layer_factory.hpp:77] Creating layer res4f_branch2a_relu
I0528 17:10:14.056326 10644 net.cpp:100] Creating Layer res4f_branch2a_relu
I0528 17:10:14.056334 10644 net.cpp:444] res4f_branch2a_relu <- res4f_branch2a
I0528 17:10:14.056346 10644 net.cpp:405] res4f_branch2a_relu -> res4f_branch2a (in-place)
I0528 17:10:14.056491 10644 net.cpp:150] Setting up res4f_branch2a_relu
I0528 17:10:14.056499 10644 net.cpp:157] Top shape: 1 256 40 80 (819200)
I0528 17:10:14.056502 10644 net.cpp:165] Memory required for data: 3516006484
I0528 17:10:14.056507 10644 layer_factory.hpp:77] Creating layer res4f_branch2b
I0528 17:10:14.056524 10644 net.cpp:100] Creating Layer res4f_branch2b
I0528 17:10:14.056530 10644 net.cpp:444] res4f_branch2b <- res4f_branch2a
I0528 17:10:14.056546 10644 net.cpp:418] res4f_branch2b -> res4f_branch2b
I0528 17:10:14.059028 10644 cudnn_conv_layer.cpp:194] Reallocating workspace storage: 12582912
I0528 17:10:14.059303 10644 net.cpp:150] Setting up res4f_branch2b
I0528 17:10:14.059319 10644 net.cpp:157] Top shape: 1 256 40 80 (819200)
I0528 17:10:14.059322 10644 net.cpp:165] Memory required for data: 3519283284
I0528 17:10:14.059339 10644 layer_factory.hpp:77] Creating layer bn4f_branch2b
I0528 17:10:14.059356 10644 net.cpp:100] Creating Layer bn4f_branch2b
I0528 17:10:14.059365 10644 net.cpp:444] bn4f_branch2b <- res4f_branch2b
I0528 17:10:14.059383 10644 net.cpp:405] bn4f_branch2b -> res4f_branch2b (in-place)
I0528 17:10:14.059662 10644 net.cpp:150] Setting up bn4f_branch2b
I0528 17:10:14.059669 10644 net.cpp:157] Top shape: 1 256 40 80 (819200)
I0528 17:10:14.059672 10644 net.cpp:165] Memory required for data: 3522560084
I0528 17:10:14.059689 10644 layer_factory.hpp:77] Creating layer scale4f_branch2b
I0528 17:10:14.059705 10644 net.cpp:100] Creating Layer scale4f_branch2b
I0528 17:10:14.059710 10644 net.cpp:444] scale4f_branch2b <- res4f_branch2b
I0528 17:10:14.059725 10644 net.cpp:405] scale4f_branch2b -> res4f_branch2b (in-place)
I0528 17:10:14.059792 10644 layer_factory.hpp:77] Creating layer scale4f_branch2b
I0528 17:10:14.059964 10644 net.cpp:150] Setting up scale4f_branch2b
I0528 17:10:14.059972 10644 net.cpp:157] Top shape: 1 256 40 80 (819200)
I0528 17:10:14.059974 10644 net.cpp:165] Memory required for data: 3525836884
I0528 17:10:14.059986 10644 layer_factory.hpp:77] Creating layer res4f_branch2b_relu
I0528 17:10:14.059999 10644 net.cpp:100] Creating Layer res4f_branch2b_relu
I0528 17:10:14.060006 10644 net.cpp:444] res4f_branch2b_relu <- res4f_branch2b
I0528 17:10:14.060019 10644 net.cpp:405] res4f_branch2b_relu -> res4f_branch2b (in-place)
I0528 17:10:14.060168 10644 net.cpp:150] Setting up res4f_branch2b_relu
I0528 17:10:14.060176 10644 net.cpp:157] Top shape: 1 256 40 80 (819200)
I0528 17:10:14.060179 10644 net.cpp:165] Memory required for data: 3529113684
I0528 17:10:14.060184 10644 layer_factory.hpp:77] Creating layer res4f_branch2c
I0528 17:10:14.060202 10644 net.cpp:100] Creating Layer res4f_branch2c
I0528 17:10:14.060209 10644 net.cpp:444] res4f_branch2c <- res4f_branch2b
I0528 17:10:14.060225 10644 net.cpp:418] res4f_branch2c -> res4f_branch2c
I0528 17:10:14.062506 10644 cudnn_conv_layer.cpp:194] Reallocating workspace storage: 64152
I0528 17:10:14.062525 10644 net.cpp:150] Setting up res4f_branch2c
I0528 17:10:14.062536 10644 net.cpp:157] Top shape: 1 1024 40 80 (3276800)
I0528 17:10:14.062541 10644 net.cpp:165] Memory required for data: 3542220884
I0528 17:10:14.062556 10644 layer_factory.hpp:77] Creating layer bn4f_branch2c
I0528 17:10:14.062573 10644 net.cpp:100] Creating Layer bn4f_branch2c
I0528 17:10:14.062582 10644 net.cpp:444] bn4f_branch2c <- res4f_branch2c
I0528 17:10:14.062599 10644 net.cpp:405] bn4f_branch2c -> res4f_branch2c (in-place)
I0528 17:10:14.062881 10644 net.cpp:150] Setting up bn4f_branch2c
I0528 17:10:14.062889 10644 net.cpp:157] Top shape: 1 1024 40 80 (3276800)
I0528 17:10:14.062892 10644 net.cpp:165] Memory required for data: 3555328084
I0528 17:10:14.062942 10644 layer_factory.hpp:77] Creating layer scale4f_branch2c
I0528 17:10:14.062959 10644 net.cpp:100] Creating Layer scale4f_branch2c
I0528 17:10:14.062966 10644 net.cpp:444] scale4f_branch2c <- res4f_branch2c
I0528 17:10:14.062979 10644 net.cpp:405] scale4f_branch2c -> res4f_branch2c (in-place)
I0528 17:10:14.063043 10644 layer_factory.hpp:77] Creating layer scale4f_branch2c
I0528 17:10:14.063223 10644 net.cpp:150] Setting up scale4f_branch2c
I0528 17:10:14.063230 10644 net.cpp:157] Top shape: 1 1024 40 80 (3276800)
I0528 17:10:14.063233 10644 net.cpp:165] Memory required for data: 3568435284
I0528 17:10:14.063246 10644 layer_factory.hpp:77] Creating layer res4f
I0528 17:10:14.063258 10644 net.cpp:100] Creating Layer res4f
I0528 17:10:14.063266 10644 net.cpp:444] res4f <- res4e_res4e_relu_0_split_1
I0528 17:10:14.063277 10644 net.cpp:444] res4f <- res4f_branch2c
I0528 17:10:14.063288 10644 net.cpp:418] res4f -> res4f
I0528 17:10:14.063331 10644 net.cpp:150] Setting up res4f
I0528 17:10:14.063341 10644 net.cpp:157] Top shape: 1 1024 40 80 (3276800)
I0528 17:10:14.063344 10644 net.cpp:165] Memory required for data: 3581542484
I0528 17:10:14.063349 10644 layer_factory.hpp:77] Creating layer res4f_relu
I0528 17:10:14.063360 10644 net.cpp:100] Creating Layer res4f_relu
I0528 17:10:14.063366 10644 net.cpp:444] res4f_relu <- res4f
I0528 17:10:14.063379 10644 net.cpp:405] res4f_relu -> res4f (in-place)
I0528 17:10:14.063799 10644 net.cpp:150] Setting up res4f_relu
I0528 17:10:14.063808 10644 net.cpp:157] Top shape: 1 1024 40 80 (3276800)
I0528 17:10:14.063812 10644 net.cpp:165] Memory required for data: 3594649684
I0528 17:10:14.063817 10644 layer_factory.hpp:77] Creating layer res4f_res4f_relu_0_split
I0528 17:10:14.063830 10644 net.cpp:100] Creating Layer res4f_res4f_relu_0_split
I0528 17:10:14.063836 10644 net.cpp:444] res4f_res4f_relu_0_split <- res4f
I0528 17:10:14.063853 10644 net.cpp:418] res4f_res4f_relu_0_split -> res4f_res4f_relu_0_split_0
I0528 17:10:14.063870 10644 net.cpp:418] res4f_res4f_relu_0_split -> res4f_res4f_relu_0_split_1
I0528 17:10:14.063884 10644 net.cpp:418] res4f_res4f_relu_0_split -> res4f_res4f_relu_0_split_2
I0528 17:10:14.063962 10644 net.cpp:150] Setting up res4f_res4f_relu_0_split
I0528 17:10:14.063972 10644 net.cpp:157] Top shape: 1 1024 40 80 (3276800)
I0528 17:10:14.063978 10644 net.cpp:157] Top shape: 1 1024 40 80 (3276800)
I0528 17:10:14.063983 10644 net.cpp:157] Top shape: 1 1024 40 80 (3276800)
I0528 17:10:14.063987 10644 net.cpp:165] Memory required for data: 3633971284
I0528 17:10:14.063992 10644 layer_factory.hpp:77] Creating layer res5a_branch1
I0528 17:10:14.064007 10644 net.cpp:100] Creating Layer res5a_branch1
I0528 17:10:14.064014 10644 net.cpp:444] res5a_branch1 <- res4f_res4f_relu_0_split_0
I0528 17:10:14.064030 10644 net.cpp:418] res5a_branch1 -> res5a_branch1
I0528 17:10:14.069736 10644 cudnn_conv_layer.cpp:194] Reallocating workspace storage: 57624
I0528 17:10:14.069761 10644 net.cpp:150] Setting up res5a_branch1
I0528 17:10:14.069777 10644 net.cpp:157] Top shape: 1 2048 40 80 (6553600)
I0528 17:10:14.069780 10644 net.cpp:165] Memory required for data: 3660185684
I0528 17:10:14.069803 10644 layer_factory.hpp:77] Creating layer bn5a_branch1
I0528 17:10:14.069835 10644 net.cpp:100] Creating Layer bn5a_branch1
I0528 17:10:14.069847 10644 net.cpp:444] bn5a_branch1 <- res5a_branch1
I0528 17:10:14.069867 10644 net.cpp:405] bn5a_branch1 -> res5a_branch1 (in-place)
I0528 17:10:14.070175 10644 net.cpp:150] Setting up bn5a_branch1
I0528 17:10:14.070183 10644 net.cpp:157] Top shape: 1 2048 40 80 (6553600)
I0528 17:10:14.070185 10644 net.cpp:165] Memory required for data: 3686400084
I0528 17:10:14.070204 10644 layer_factory.hpp:77] Creating layer scale5a_branch1
I0528 17:10:14.070222 10644 net.cpp:100] Creating Layer scale5a_branch1
I0528 17:10:14.070230 10644 net.cpp:444] scale5a_branch1 <- res5a_branch1
I0528 17:10:14.070243 10644 net.cpp:405] scale5a_branch1 -> res5a_branch1 (in-place)
I0528 17:10:14.070317 10644 layer_factory.hpp:77] Creating layer scale5a_branch1
I0528 17:10:14.070508 10644 net.cpp:150] Setting up scale5a_branch1
I0528 17:10:14.070515 10644 net.cpp:157] Top shape: 1 2048 40 80 (6553600)
I0528 17:10:14.070518 10644 net.cpp:165] Memory required for data: 3712614484
I0528 17:10:14.070530 10644 layer_factory.hpp:77] Creating layer res5a_branch2a
I0528 17:10:14.070551 10644 net.cpp:100] Creating Layer res5a_branch2a
…
I0529 14:44:57.144697 30229 net.cpp:150] Setting up res4e_branch2c
I0529 14:44:57.144706 30229 net.cpp:157] Top shape: 1 1024 14 14 (200704)
I0529 14:44:57.144708 30229 net.cpp:165] Memory required for data: 208531468
I0529 14:44:57.144719 30229 layer_factory.hpp:77] Creating layer bn4e_branch2c
I0529 14:44:57.144732 30229 net.cpp:100] Creating Layer bn4e_branch2c
I0529 14:44:57.144739 30229 net.cpp:444] bn4e_branch2c <- res4e_branch2c
I0529 14:44:57.144753 30229 net.cpp:405] bn4e_branch2c -> res4e_branch2c (in-place)
I0529 14:44:57.145068 30229 net.cpp:150] Setting up bn4e_branch2c
I0529 14:44:57.145076 30229 net.cpp:157] Top shape: 1 1024 14 14 (200704)
I0529 14:44:57.145078 30229 net.cpp:165] Memory required for data: 209334284
I0529 14:44:57.145093 30229 layer_factory.hpp:77] Creating layer scale4e_branch2c
I0529 14:44:57.145107 30229 net.cpp:100] Creating Layer scale4e_branch2c
I0529 14:44:57.145112 30229 net.cpp:444] scale4e_branch2c <- res4e_branch2c
I0529 14:44:57.145123 30229 net.cpp:405] scale4e_branch2c -> res4e_branch2c (in-place)
I0529 14:44:57.145185 30229 layer_factory.hpp:77] Creating layer scale4e_branch2c
I0529 14:44:57.145370 30229 net.cpp:150] Setting up scale4e_branch2c
I0529 14:44:57.145376 30229 net.cpp:157] Top shape: 1 1024 14 14 (200704)
I0529 14:44:57.145380 30229 net.cpp:165] Memory required for data: 210137100
I0529 14:44:57.145390 30229 layer_factory.hpp:77] Creating layer res4e
I0529 14:44:57.145398 30229 net.cpp:100] Creating Layer res4e
I0529 14:44:57.145404 30229 net.cpp:444] res4e <- res4d_res4d_relu_0_split_1
I0529 14:44:57.145413 30229 net.cpp:444] res4e <- res4e_branch2c
I0529 14:44:57.145421 30229 net.cpp:418] res4e -> res4e
I0529 14:44:57.145464 30229 net.cpp:150] Setting up res4e
I0529 14:44:57.145473 30229 net.cpp:157] Top shape: 1 1024 14 14 (200704)
I0529 14:44:57.145475 30229 net.cpp:165] Memory required for data: 210939916
I0529 14:44:57.145478 30229 layer_factory.hpp:77] Creating layer res4e_relu
I0529 14:44:57.145488 30229 net.cpp:100] Creating Layer res4e_relu
I0529 14:44:57.145491 30229 net.cpp:444] res4e_relu <- res4e
I0529 14:44:57.145503 30229 net.cpp:405] res4e_relu -> res4e (in-place)
I0529 14:44:57.145651 30229 net.cpp:150] Setting up res4e_relu
I0529 14:44:57.145658 30229 net.cpp:157] Top shape: 1 1024 14 14 (200704)
I0529 14:44:57.145660 30229 net.cpp:165] Memory required for data: 211742732
I0529 14:44:57.145664 30229 layer_factory.hpp:77] Creating layer res4e_res4e_relu_0_split
I0529 14:44:57.145674 30229 net.cpp:100] Creating Layer res4e_res4e_relu_0_split
I0529 14:44:57.145680 30229 net.cpp:444] res4e_res4e_relu_0_split <- res4e
I0529 14:44:57.145690 30229 net.cpp:418] res4e_res4e_relu_0_split -> res4e_res4e_relu_0_split_0
I0529 14:44:57.145704 30229 net.cpp:418] res4e_res4e_relu_0_split -> res4e_res4e_relu_0_split_1
I0529 14:44:57.145762 30229 net.cpp:150] Setting up res4e_res4e_relu_0_split
I0529 14:44:57.145771 30229 net.cpp:157] Top shape: 1 1024 14 14 (200704)
I0529 14:44:57.145774 30229 net.cpp:157] Top shape: 1 1024 14 14 (200704)
I0529 14:44:57.145776 30229 net.cpp:165] Memory required for data: 213348364
I0529 14:44:57.145779 30229 layer_factory.hpp:77] Creating layer res4f_branch2a
I0529 14:44:57.145792 30229 net.cpp:100] Creating Layer res4f_branch2a
I0529 14:44:57.145797 30229 net.cpp:444] res4f_branch2a <- res4e_res4e_relu_0_split_0
I0529 14:44:57.145810 30229 net.cpp:418] res4f_branch2a -> res4f_branch2a
I0529 14:44:57.147178 30229 cudnn_conv_layer.cpp:194] Reallocating workspace storage: 10080
I0529 14:44:57.147199 30229 net.cpp:150] Setting up res4f_branch2a
I0529 14:44:57.147207 30229 net.cpp:157] Top shape: 1 256 14 14 (50176)
I0529 14:44:57.147209 30229 net.cpp:165] Memory required for data: 213549068
I0529 14:44:57.147219 30229 layer_factory.hpp:77] Creating layer bn4f_branch2a
I0529 14:44:57.147233 30229 net.cpp:100] Creating Layer bn4f_branch2a
I0529 14:44:57.147238 30229 net.cpp:444] bn4f_branch2a <- res4f_branch2a
I0529 14:44:57.147250 30229 net.cpp:405] bn4f_branch2a -> res4f_branch2a (in-place)
I0529 14:44:57.147534 30229 net.cpp:150] Setting up bn4f_branch2a
I0529 14:44:57.147541 30229 net.cpp:157] Top shape: 1 256 14 14 (50176)
I0529 14:44:57.147543 30229 net.cpp:165] Memory required for data: 213749772
I0529 14:44:57.147557 30229 layer_factory.hpp:77] Creating layer scale4f_branch2a
I0529 14:44:57.147570 30229 net.cpp:100] Creating Layer scale4f_branch2a
I0529 14:44:57.147575 30229 net.cpp:444] scale4f_branch2a <- res4f_branch2a
I0529 14:44:57.147588 30229 net.cpp:405] scale4f_branch2a -> res4f_branch2a (in-place)
I0529 14:44:57.147651 30229 layer_factory.hpp:77] Creating layer scale4f_branch2a
I0529 14:44:57.147826 30229 net.cpp:150] Setting up scale4f_branch2a
I0529 14:44:57.147833 30229 net.cpp:157] Top shape: 1 256 14 14 (50176)
I0529 14:44:57.147836 30229 net.cpp:165] Memory required for data: 213950476
I0529 14:44:57.147846 30229 layer_factory.hpp:77] Creating layer res4f_branch2a_relu
I0529 14:44:57.147855 30229 net.cpp:100] Creating Layer res4f_branch2a_relu
I0529 14:44:57.147861 30229 net.cpp:444] res4f_branch2a_relu <- res4f_branch2a
I0529 14:44:57.147871 30229 net.cpp:405] res4f_branch2a_relu -> res4f_branch2a (in-place)
I0529 14:44:57.148017 30229 net.cpp:150] Setting up res4f_branch2a_relu
I0529 14:44:57.148025 30229 net.cpp:157] Top shape: 1 256 14 14 (50176)
I0529 14:44:57.148026 30229 net.cpp:165] Memory required for data: 214151180
I0529 14:44:57.148030 30229 layer_factory.hpp:77] Creating layer res4f_branch2b
I0529 14:44:57.148043 30229 net.cpp:100] Creating Layer res4f_branch2b
I0529 14:44:57.148049 30229 net.cpp:444] res4f_branch2b <- res4f_branch2a
I0529 14:44:57.148063 30229 net.cpp:418] res4f_branch2b -> res4f_branch2b
I0529 14:44:57.150693 30229 cudnn_conv_layer.cpp:194] Reallocating workspace storage: 12582912
I0529 14:44:57.150975 30229 net.cpp:150] Setting up res4f_branch2b
I0529 14:44:57.150987 30229 net.cpp:157] Top shape: 1 256 14 14 (50176)
I0529 14:44:57.150990 30229 net.cpp:165] Memory required for data: 214351884
I0529 14:44:57.151005 30229 layer_factory.hpp:77] Creating layer bn4f_branch2b
I0529 14:44:57.151021 30229 net.cpp:100] Creating Layer bn4f_branch2b
I0529 14:44:57.151027 30229 net.cpp:444] bn4f_branch2b <- res4f_branch2b
I0529 14:44:57.151041 30229 net.cpp:405] bn4f_branch2b -> res4f_branch2b (in-place)
I0529 14:44:57.151335 30229 net.cpp:150] Setting up bn4f_branch2b
I0529 14:44:57.151341 30229 net.cpp:157] Top shape: 1 256 14 14 (50176)
I0529 14:44:57.151345 30229 net.cpp:165] Memory required for data: 214552588
I0529 14:44:57.151360 30229 layer_factory.hpp:77] Creating layer scale4f_branch2b
I0529 14:44:57.151372 30229 net.cpp:100] Creating Layer scale4f_branch2b
I0529 14:44:57.151378 30229 net.cpp:444] scale4f_branch2b <- res4f_branch2b
I0529 14:44:57.151389 30229 net.cpp:405] scale4f_branch2b -> res4f_branch2b (in-place)
I0529 14:44:57.151454 30229 layer_factory.hpp:77] Creating layer scale4f_branch2b
I0529 14:44:57.151630 30229 net.cpp:150] Setting up scale4f_branch2b
I0529 14:44:57.151638 30229 net.cpp:157] Top shape: 1 256 14 14 (50176)
I0529 14:44:57.151640 30229 net.cpp:165] Memory required for data: 214753292
I0529 14:44:57.151649 30229 layer_factory.hpp:77] Creating layer res4f_branch2b_relu
I0529 14:44:57.151661 30229 net.cpp:100] Creating Layer res4f_branch2b_relu
I0529 14:44:57.151666 30229 net.cpp:444] res4f_branch2b_relu <- res4f_branch2b
I0529 14:44:57.151676 30229 net.cpp:405] res4f_branch2b_relu -> res4f_branch2b (in-place)
I0529 14:44:57.151830 30229 net.cpp:150] Setting up res4f_branch2b_relu
I0529 14:44:57.151836 30229 net.cpp:157] Top shape: 1 256 14 14 (50176)
I0529 14:44:57.151839 30229 net.cpp:165] Memory required for data: 214953996
I0529 14:44:57.151844 30229 layer_factory.hpp:77] Creating layer res4f_branch2c
I0529 14:44:57.151857 30229 net.cpp:100] Creating Layer res4f_branch2c
I0529 14:44:57.151863 30229 net.cpp:444] res4f_branch2c <- res4f_branch2b
I0529 14:44:57.151876 30229 net.cpp:418] res4f_branch2c -> res4f_branch2c
I0529 14:44:57.154013 30229 cudnn_conv_layer.cpp:194] Reallocating workspace storage: 10080
I0529 14:44:57.154040 30229 net.cpp:150] Setting up res4f_branch2c
I0529 14:44:57.154049 30229 net.cpp:157] Top shape: 1 1024 14 14 (200704)
I0529 14:44:57.154052 30229 net.cpp:165] Memory required for data: 215756812
I0529 14:44:57.154065 30229 layer_factory.hpp:77] Creating layer bn4f_branch2c
I0529 14:44:57.154081 30229 net.cpp:100] Creating Layer bn4f_branch2c
I0529 14:44:57.154088 30229 net.cpp:444] bn4f_branch2c <- res4f_branch2c
I0529 14:44:57.154103 30229 net.cpp:405] bn4f_branch2c -> res4f_branch2c (in-place)
I0529 14:44:57.154402 30229 net.cpp:150] Setting up bn4f_branch2c
I0529 14:44:57.154408 30229 net.cpp:157] Top shape: 1 1024 14 14 (200704)
I0529 14:44:57.154410 30229 net.cpp:165] Memory required for data: 216559628
I0529 14:44:57.154461 30229 layer_factory.hpp:77] Creating layer scale4f_branch2c
I0529 14:44:57.154475 30229 net.cpp:100] Creating Layer scale4f_branch2c
I0529 14:44:57.154481 30229 net.cpp:444] scale4f_branch2c <- res4f_branch2c
I0529 14:44:57.154491 30229 net.cpp:405] scale4f_branch2c -> res4f_branch2c (in-place)
I0529 14:44:57.154556 30229 layer_factory.hpp:77] Creating layer scale4f_branch2c
I0529 14:44:57.154744 30229 net.cpp:150] Setting up scale4f_branch2c
I0529 14:44:57.154752 30229 net.cpp:157] Top shape: 1 1024 14 14 (200704)
I0529 14:44:57.154753 30229 net.cpp:165] Memory required for data: 217362444
I0529 14:44:57.154764 30229 layer_factory.hpp:77] Creating layer res4f
I0529 14:44:57.154774 30229 net.cpp:100] Creating Layer res4f
I0529 14:44:57.154779 30229 net.cpp:444] res4f <- res4e_res4e_relu_0_split_1
I0529 14:44:57.154788 30229 net.cpp:444] res4f <- res4f_branch2c
I0529 14:44:57.154798 30229 net.cpp:418] res4f -> res4f
I0529 14:44:57.154839 30229 net.cpp:150] Setting up res4f
I0529 14:44:57.154846 30229 net.cpp:157] Top shape: 1 1024 14 14 (200704)
I0529 14:44:57.154850 30229 net.cpp:165] Memory required for data: 218165260
I0529 14:44:57.154853 30229 layer_factory.hpp:77] Creating layer res4f_relu
I0529 14:44:57.154862 30229 net.cpp:100] Creating Layer res4f_relu
I0529 14:44:57.154867 30229 net.cpp:444] res4f_relu <- res4f
I0529 14:44:57.154876 30229 net.cpp:405] res4f_relu -> res4f (in-place)
I0529 14:44:57.155308 30229 net.cpp:150] Setting up res4f_relu
I0529 14:44:57.155315 30229 net.cpp:157] Top shape: 1 1024 14 14 (200704)
I0529 14:44:57.155318 30229 net.cpp:165] Memory required for data: 218968076
I0529 14:44:57.155323 30229 layer_factory.hpp:77] Creating layer res4f_res4f_relu_0_split
I0529 14:44:57.155333 30229 net.cpp:100] Creating Layer res4f_res4f_relu_0_split
I0529 14:44:57.155339 30229 net.cpp:444] res4f_res4f_relu_0_split <- res4f
I0529 14:44:57.155351 30229 net.cpp:418] res4f_res4f_relu_0_split -> res4f_res4f_relu_0_split_0
I0529 14:44:57.155366 30229 net.cpp:418] res4f_res4f_relu_0_split -> res4f_res4f_relu_0_split_1
I0529 14:44:57.155377 30229 net.cpp:418] res4f_res4f_relu_0_split -> res4f_res4f_relu_0_split_2
I0529 14:44:57.155459 30229 net.cpp:150] Setting up res4f_res4f_relu_0_split
I0529 14:44:57.155468 30229 net.cpp:157] Top shape: 1 1024 14 14 (200704)
I0529 14:44:57.155472 30229 net.cpp:157] Top shape: 1 1024 14 14 (200704)
I0529 14:44:57.155475 30229 net.cpp:157] Top shape: 1 1024 14 14 (200704)
I0529 14:44:57.155478 30229 net.cpp:165] Memory required for data: 221376524
I0529 14:44:57.155480 30229 layer_factory.hpp:77] Creating layer res5a_branch1
I0529 14:44:57.155493 30229 net.cpp:100] Creating Layer res5a_branch1
I0529 14:44:57.155498 30229 net.cpp:444] res5a_branch1 <- res4f_res4f_relu_0_split_0
I0529 14:44:57.155513 30229 net.cpp:418] res5a_branch1 -> res5a_branch1
I0529 14:44:57.161551 30229 cudnn_conv_layer.cpp:194] Reallocating workspace storage: 8568
I0529 14:44:57.161588 30229 net.cpp:150] Setting up res5a_branch1
I0529 14:44:57.161604 30229 net.cpp:157] Top shape: 1 2048 14 14 (401408)
I0529 14:44:57.161607 30229 net.cpp:165] Memory required for data: 222982156
I0529 14:44:57.161628 30229 layer_factory.hpp:77] Creating layer bn5a_branch1
I0529 14:44:57.161655 30229 net.cpp:100] Creating Layer bn5a_branch1
I0529 14:44:57.161665 30229 net.cpp:444] bn5a_branch1 <- res5a_branch1
I0529 14:44:57.161684 30229 net.cpp:405] bn5a_branch1 -> res5a_branch1 (in-place)
I0529 14:44:57.162009 30229 net.cpp:150] Setting up bn5a_branch1
I0529 14:44:57.162015 30229 net.cpp:157] Top shape: 1 2048 14 14 (401408)
I0529 14:44:57.162019 30229 net.cpp:165] Memory required for data: 224587788
I0529 14:44:57.162034 30229 layer_factory.hpp:77] Creating layer scale5a_branch1
I0529 14:44:57.162057 30229 net.cpp:100] Creating Layer scale5a_branch1
I0529 14:44:57.162063 30229 net.cpp:444] scale5a_branch1 <- res5a_branch1
I0529 14:44:57.162076 30229 net.cpp:405] scale5a_branch1 -> res5a_branch1 (in-place)
I0529 14:44:57.162144 30229 layer_factory.hpp:77] Creating layer scale5a_branch1
I0529 14:44:57.162336 30229 net.cpp:150] Setting up scale5a_branch1
I0529 14:44:57.162343 30229 net.cpp:157] Top shape: 1 2048 14 14 (401408)
I0529 14:44:57.162346 30229 net.cpp:165] Memory required for data: 226193420
I0529 14:44:57.162355 30229 layer_factory.hpp:77] Creating layer res5a_branch2a
I0529 14:44:57.162372 30229 net.cpp:100] Creating Layer res5a_branch2a
I0529 14:44:57.162379 30229 net.cpp:444] res5a_branch2a <- res4f_res4f_relu_0_split_1
I0529 14:44:57.162390 30229 net.cpp:418] res5a_branch2a -> res5a_branch2a
I0529 14:44:57.165184 30229 cudnn_conv_layer.cpp:194] Reallocating workspace storage: 10080
I0529 14:44:57.165208 30229 net.cpp:150] Setting up res5a_branch2a
I0529 14:44:57.165217 30229 net.cpp:157] Top shape: 1 512 14 14 (100352)
I0529 14:44:57.165220 30229 net.cpp:165] Memory required for data: 226594828
I0529 14:44:57.165231 30229 layer_factory.hpp:77] Creating layer bn5a_branch2a
I0529 14:44:57.165246 30229 net.cpp:100] Creating Layer bn5a_branch2a
I0529 14:44:57.165251 30229 net.cpp:444] bn5a_branch2a <- res5a_branch2a
I0529 14:44:57.165266 30229 net.cpp:405] bn5a_branch2a -> res5a_branch2a (in-place)
I0529 14:44:57.165561 30229 net.cpp:150] Setting up bn5a_branch2a
I0529 14:44:57.165568 30229 net.cpp:157] Top shape: 1 512 14 14 (100352)
I0529 14:44:57.165571 30229 net.cpp:165] Memory required for data: 226996236
I0529 14:44:57.165586 30229 layer_factory.hpp:77] Creating layer scale5a_branch2a
I0529 14:44:57.165599 30229 net.cpp:100] Creating Layer scale5a_branch2a
I0529 14:44:57.165604 30229 net.cpp:444] scale5a_branch2a <- res5a_branch2a
I0529 14:44:57.165616 30229 net.cpp:405] scale5a_branch2a -> res5a_branch2a (in-place)
I0529 14:44:57.165678 30229 layer_factory.hpp:77] Creating layer scale5a_branch2a
I0529 14:44:57.165863 30229 net.cpp:150] Setting up scale5a_branch2a
I0529 14:44:57.165869 30229 net.cpp:157] Top shape: 1 512 14 14 (100352)
I0529 14:44:57.165871 30229 net.cpp:165] Memory required for data: 227397644
I0529 14:44:57.165881 30229 layer_factory.hpp:77] Creating layer res5a_branch2a_relu
I0529 14:44:57.165891 30229 net.cpp:100] Creating Layer res5a_branch2a_relu
I0529 14:44:57.165897 30229 net.cpp:444] res5a_branch2a_relu <- res5a_branch2a
I0529 14:44:57.165906 30229 net.cpp:405] res5a_branch2a_relu -> res5a_branch2a (in-place)
I0529 14:44:57.166059 30229 net.cpp:150] Setting up res5a_branch2a_relu
I0529 14:44:57.166064 30229 net.cpp:157] Top shape: 1 512 14 14 (100352)
I0529 14:44:57.166066 30229 net.cpp:165] Memory required for data: 227799052
I0529 14:44:57.166070 30229 layer_factory.hpp:77] Creating layer res5a_branch2b
I0529 14:44:57.166085 30229 net.cpp:100] Creating Layer res5a_branch2b
I0529 14:44:57.166090 30229 net.cpp:444] res5a_branch2b <- res5a_branch2a
I0529 14:44:57.166105 30229 net.cpp:418] res5a_branch2b -> res5a_branch2b
I0529 14:44:57.171978 30229 net.cpp:150] Setting up res5a_branch2b
I0529 14:44:57.172005 30229 net.cpp:157] Top shape: 1 512 14 14 (100352)
I0529 14:44:57.172008 30229 net.cpp:165] Memory required for data: 228200460
I0529 14:44:57.172029 30229 layer_factory.hpp:77] Creating layer bn5a_branch2b
I0529 14:44:57.172057 30229 net.cpp:100] Creating Layer bn5a_branch2b
I0529 14:44:57.172068 30229 net.cpp:444] bn5a_branch2b <- res5a_branch2b
I0529 14:44:57.172086 30229 net.cpp:405] bn5a_branch2b -> res5a_branch2b (in-place)
I0529 14:44:57.172407 30229 net.cpp:150] Setting up bn5a_branch2b
I0529 14:44:57.172415 30229 net.cpp:157] Top shape: 1 512 14 14 (100352)
I0529 14:44:57.172416 30229 net.cpp:165] Memory required for data: 228601868
I0529 14:44:57.172432 30229 layer_factory.hpp:77] Creating layer scale5a_branch2b
I0529 14:44:57.172446 30229 net.cpp:100] Creating Layer scale5a_branch2b
I0529 14:44:57.172451 30229 net.cpp:444] scale5a_branch2b <- res5a_branch2b
I0529 14:44:57.172463 30229 net.cpp:405] scale5a_branch2b -> res5a_branch2b (in-place)
I0529 14:44:57.172531 30229 layer_factory.hpp:77] Creating layer scale5a_branch2b
I0529 14:44:57.172729 30229 net.cpp:150] Setting up scale5a_branch2b
I0529 14:44:57.172734 30229 net.cpp:157] Top shape: 1 512 14 14 (100352)
I0529 14:44:57.172737 30229 net.cpp:165] Memory required for data: 229003276
I0529 14:44:57.172747 30229 layer_factory.hpp:77] Creating layer res5a_branch2b_relu
I0529 14:44:57.172756 30229 net.cpp:100] Creating Layer res5a_branch2b_relu
I0529 14:44:57.172761 30229 net.cpp:444] res5a_branch2b_relu <- res5a_branch2b
I0529 14:44:57.172771 30229 net.cpp:405] res5a_branch2b_relu -> res5a_branch2b (in-place)
I0529 14:44:57.172983 30229 net.cpp:150] Setting up res5a_branch2b_relu
I0529 14:44:57.172991 30229 net.cpp:157] Top shape: 1 512 14 14 (100352)
I0529 14:44:57.172993 30229 net.cpp:165] Memory required for data: 229404684
I0529 14:44:57.172997 30229 layer_factory.hpp:77] Creating layer res5a_branch2c
I0529 14:44:57.173014 30229 net.cpp:100] Creating Layer res5a_branch2c
I0529 14:44:57.173019 30229 net.cpp:444] res5a_branch2c <- res5a_branch2b
I0529 14:44:57.173032 30229 net.cpp:418] res5a_branch2c -> res5a_branch2c
I0529 14:44:57.176982 30229 cudnn_conv_layer.cpp:194] Reallocating workspace storage: 7800
I0529 14:44:57.177017 30229 net.cpp:150] Setting up res5a_branch2c
I0529 14:44:57.177031 30229 net.cpp:157] Top shape: 1 2048 14 14 (401408)
I0529 14:44:57.177032 30229 net.cpp:165] Memory required for data: 231010316
I0529 14:44:57.177053 30229 layer_factory.hpp:77] Creating layer bn5a_branch2c
I0529 14:44:57.177079 30229 net.cpp:100] Creating Layer bn5a_branch2c
I0529 14:44:57.177088 30229 net.cpp:444] bn5a_branch2c <- res5a_branch2c
I0529 14:44:57.177105 30229 net.cpp:405] bn5a_branch2c -> res5a_branch2c (in-place)
I0529 14:44:57.177422 30229 net.cpp:150] Setting up bn5a_branch2c
I0529 14:44:57.177428 30229 net.cpp:157] Top shape: 1 2048 14 14 (401408)
I0529 14:44:57.177430 30229 net.cpp:165] Memory required for data: 232615948
I0529 14:44:57.177445 30229 layer_factory.hpp:77] Creating layer scale5a_branch2c
I0529 14:44:57.177459 30229 net.cpp:100] Creating Layer scale5a_branch2c
I0529 14:44:57.177464 30229 net.cpp:444] scale5a_branch2c <- res5a_branch2c
I0529 14:44:57.177476 30229 net.cpp:405] scale5a_branch2c -> res5a_branch2c (in-place)
I0529 14:44:57.177541 30229 layer_factory.hpp:77] Creating layer scale5a_branch2c
I0529 14:44:57.177736 30229 net.cpp:150] Setting up scale5a_branch2c
I0529 14:44:57.177742 30229 net.cpp:157] Top shape: 1 2048 14 14 (401408)
I0529 14:44:57.177744 30229 net.cpp:165] Memory required for data: 234221580
I0529 14:44:57.177753 30229 layer_factory.hpp:77] Creating layer res5a
I0529 14:44:57.177762 30229 net.cpp:100] Creating Layer res5a
I0529 14:44:57.177767 30229 net.cpp:444] res5a <- res5a_branch1
I0529 14:44:57.177775 30229 net.cpp:444] res5a <- res5a_branch2c
I0529 14:44:57.177783 30229 net.cpp:418] res5a -> res5a
I0529 14:44:57.177825 30229 net.cpp:150] Setting up res5a
I0529 14:44:57.177834 30229 net.cpp:157] Top shape: 1 2048 14 14 (401408)
I0529 14:44:57.177835 30229 net.cpp:165] Memory required for data: 235827212
I0529 14:44:57.177839 30229 layer_factory.hpp:77] Creating layer res5a_relu
I0529 14:44:57.177847 30229 net.cpp:100] Creating Layer res5a_relu
I0529 14:44:57.177851 30229 net.cpp:444] res5a_relu <- res5a
I0529 14:44:57.177862 30229 net.cpp:405] res5a_relu -> res5a (in-place)
I0529 14:44:57.178333 30229 net.cpp:150] Setting up res5a_relu
I0529 14:44:57.178342 30229 net.cpp:157] Top shape: 1 2048 14 14 (401408)
I0529 14:44:57.178345 30229 net.cpp:165] Memory required for data: 237432844
I0529 14:44:57.178349 30229 layer_factory.hpp:77] Creating layer res5a_res5a_relu_0_split
I0529 14:44:57.178360 30229 net.cpp:100] Creating Layer res5a_res5a_relu_0_split
I0529 14:44:57.178365 30229 net.cpp:444] res5a_res5a_relu_0_split <- res5a
I0529 14:44:57.178380 30229 net.cpp:418] res5a_res5a_relu_0_split -> res5a_res5a_relu_0_split_0
I0529 14:44:57.178393 30229 net.cpp:418] res5a_res5a_relu_0_split -> res5a_res5a_relu_0_split_1
I0529 14:44:57.178457 30229 net.cpp:150] Setting up res5a_res5a_relu_0_split
I0529 14:44:57.178464 30229 net.cpp:157] Top shape: 1 2048 14 14 (401408)
I0529 14:44:57.178468 30229 net.cpp:157] Top shape: 1 2048 14 14 (401408)
I0529 14:44:57.178472 30229 net.cpp:165] Memory required for data: 240644108
I0529 14:44:57.178474 30229 layer_factory.hpp:77] Creating layer res5b_branch2a
I0529 14:44:57.178489 30229 net.cpp:100] Creating Layer res5b_branch2a
I0529 14:44:57.178494 30229 net.cpp:444] res5b_branch2a <- res5a_res5a_relu_0_split_0
I0529 14:44:57.178508 30229 net.cpp:418] res5b_branch2a -> res5b_branch2a
I0529 14:44:57.182206 30229 cudnn_conv_layer.cpp:194] Reallocating workspace storage: 10080
I0529 14:44:57.182237 30229 net.cpp:150] Setting up res5b_branch2a
I0529 14:44:57.182248 30229 net.cpp:157] Top shape: 1 512 14 14 (100352)
I0529 14:44:57.182251 30229 net.cpp:165] Memory required for data: 241045516
I0529 14:44:57.182267 30229 layer_factory.hpp:77] Creating layer bn5b_branch2a
I0529 14:44:57.182288 30229 net.cpp:100] Creating Layer bn5b_branch2a
I0529 14:44:57.182297 30229 net.cpp:444] bn5b_branch2a <- res5b_branch2a
I0529 14:44:57.182313 30229 net.cpp:405] bn5b_branch2a -> res5b_branch2a (in-place)
I0529 14:44:57.182634 30229 net.cpp:150] Setting up bn5b_branch2a
I0529 14:44:57.182641 30229 net.cpp:157] Top shape: 1 512 14 14 (100352)
I0529 14:44:57.182644 30229 net.cpp:165] Memory required for data: 241446924
I0529 14:44:57.182659 30229 layer_factory.hpp:77] Creating layer scale5b_branch2a
I0529 14:44:57.182673 30229 net.cpp:100] Creating Layer scale5b_branch2a
I0529 14:44:57.182679 30229 net.cpp:444] scale5b_branch2a <- res5b_branch2a
I0529 14:44:57.182689 30229 net.cpp:405] scale5b_branch2a -> res5b_branch2a (in-place)
I0529 14:44:57.182755 30229 layer_factory.hpp:77] Creating layer scale5b_branch2a
I0529 14:44:57.182945 30229 net.cpp:150] Setting up scale5b_branch2a
I0529 14:44:57.182953 30229 net.cpp:157] Top shape: 1 512 14 14 (100352)
I0529 14:44:57.182956 30229 net.cpp:165] Memory required for data: 241848332
I0529 14:44:57.182965 30229 layer_factory.hpp:77] Creating layer res5b_branch2a_relu
I0529 14:44:57.182976 30229 net.cpp:100] Creating Layer res5b_branch2a_relu
I0529 14:44:57.182981 30229 net.cpp:444] res5b_branch2a_relu <- res5b_branch2a
I0529 14:44:57.182991 30229 net.cpp:405] res5b_branch2a_relu -> res5b_branch2a (in-place)
I0529 14:44:57.183140 30229 net.cpp:150] Setting up res5b_branch2a_relu
I0529 14:44:57.183147 30229 net.cpp:157] Top shape: 1 512 14 14 (100352)
I0529 14:44:57.183151 30229 net.cpp:165] Memory required for data: 242249740
I0529 14:44:57.183156 30229 layer_factory.hpp:77] Creating layer res5b_branch2b
I0529 14:44:57.183171 30229 net.cpp:100] Creating Layer res5b_branch2b
I0529 14:44:57.183176 30229 net.cpp:444] res5b_branch2b <- res5b_branch2a
I0529 14:44:57.183189 30229 net.cpp:418] res5b_branch2b -> res5b_branch2b
I0529 14:44:57.189007 30229 net.cpp:150] Setting up res5b_branch2b
I0529 14:44:57.189036 30229 net.cpp:157] Top shape: 1 512 14 14 (100352)
I0529 14:44:57.189039 30229 net.cpp:165] Memory required for data: 242651148
I0529 14:44:57.189060 30229 layer_factory.hpp:77] Creating layer bn5b_branch2b
I0529 14:44:57.189090 30229 net.cpp:100] Creating Layer bn5b_branch2b
I0529 14:44:57.189101 30229 net.cpp:444] bn5b_branch2b <- res5b_branch2b
I0529 14:44:57.189118 30229 net.cpp:405] bn5b_branch2b -> res5b_branch2b (in-place)
I0529 14:44:57.189437 30229 net.cpp:150] Setting up bn5b_branch2b
I0529 14:44:57.189445 30229 net.cpp:157] Top shape: 1 512 14 14 (100352)
I0529 14:44:57.189447 30229 net.cpp:165] Memory required for data: 243052556
I0529 14:44:57.189463 30229 layer_factory.hpp:77] Creating layer scale5b_branch2b
I0529 14:44:57.189477 30229 net.cpp:100] Creating Layer scale5b_branch2b
I0529 14:44:57.189482 30229 net.cpp:444] scale5b_branch2b <- res5b_branch2b
I0529 14:44:57.189493 30229 net.cpp:405] scale5b_branch2b -> res5b_branch2b (in-place)
I0529 14:44:57.189560 30229 layer_factory.hpp:77] Creating layer scale5b_branch2b
I0529 14:44:57.189752 30229 net.cpp:150] Setting up scale5b_branch2b
I0529 14:44:57.189759 30229 net.cpp:157] Top shape: 1 512 14 14 (100352)
I0529 14:44:57.189761 30229 net.cpp:165] Memory required for data: 243453964
I0529 14:44:57.189770 30229 layer_factory.hpp:77] Creating layer res5b_branch2b_relu
I0529 14:44:57.189780 30229 net.cpp:100] Creating Layer res5b_branch2b_relu
I0529 14:44:57.189785 30229 net.cpp:444] res5b_branch2b_relu <- res5b_branch2b
I0529 14:44:57.189795 30229 net.cpp:405] res5b_branch2b_relu -> res5b_branch2b (in-place)
I0529 14:44:57.189987 30229 net.cpp:150] Setting up res5b_branch2b_relu
I0529 14:44:57.189994 30229 net.cpp:157] Top shape: 1 512 14 14 (100352)
I0529 14:44:57.189996 30229 net.cpp:165] Memory required for data: 243855372
I0529 14:44:57.190001 30229 layer_factory.hpp:77] Creating layer res5b_branch2c
I0529 14:44:57.190014 30229 net.cpp:100] Creating Layer res5b_branch2c
I0529 14:44:57.190021 30229 net.cpp:444] res5b_branch2c <- res5b_branch2b
I0529 14:44:57.190033 30229 net.cpp:418] res5b_branch2c -> res5b_branch2c
I0529 14:44:57.193827 30229 cudnn_conv_layer.cpp:194] Reallocating workspace storage: 7800
I0529 14:44:57.193857 30229 net.cpp:150] Setting up res5b_branch2c
I0529 14:44:57.193869 30229 net.cpp:157] Top shape: 1 2048 14 14 (401408)
I0529 14:44:57.193872 30229 net.cpp:165] Memory required for data: 245461004
I0529 14:44:57.193888 30229 layer_factory.hpp:77] Creating layer bn5b_branch2c
I0529 14:44:57.193909 30229 net.cpp:100] Creating Layer bn5b_branch2c
I0529 14:44:57.193918 30229 net.cpp:444] bn5b_branch2c <- res5b_branch2c
I0529 14:44:57.193934 30229 net.cpp:405] bn5b_branch2c -> res5b_branch2c (in-place)
I0529 14:44:57.194257 30229 net.cpp:150] Setting up bn5b_branch2c
I0529 14:44:57.194263 30229 net.cpp:157] Top shape: 1 2048 14 14 (401408)
I0529 14:44:57.194267 30229 net.cpp:165] Memory required for data: 247066636
I0529 14:44:57.194281 30229 layer_factory.hpp:77] Creating layer scale5b_branch2c
I0529 14:44:57.194295 30229 net.cpp:100] Creating Layer scale5b_branch2c
I0529 14:44:57.194301 30229 net.cpp:444] scale5b_branch2c <- res5b_branch2c
I0529 14:44:57.194313 30229 net.cpp:405] scale5b_branch2c -> res5b_branch2c (in-place)
I0529 14:44:57.194380 30229 layer_factory.hpp:77] Creating layer scale5b_branch2c
I0529 14:44:57.194574 30229 net.cpp:150] Setting up scale5b_branch2c
I0529 14:44:57.194581 30229 net.cpp:157] Top shape: 1 2048 14 14 (401408)
I0529 14:44:57.194583 30229 net.cpp:165] Memory required for data: 248672268
I0529 14:44:57.194593 30229 layer_factory.hpp:77] Creating layer res5b
I0529 14:44:57.194604 30229 net.cpp:100] Creating Layer res5b
I0529 14:44:57.194609 30229 net.cpp:444] res5b <- res5a_res5a_relu_0_split_1
I0529 14:44:57.194618 30229 net.cpp:444] res5b <- res5b_branch2c
I0529 14:44:57.194627 30229 net.cpp:418] res5b -> res5b
I0529 14:44:57.194669 30229 net.cpp:150] Setting up res5b
I0529 14:44:57.194677 30229 net.cpp:157] Top shape: 1 2048 14 14 (401408)
I0529 14:44:57.194680 30229 net.cpp:165] Memory required for data: 250277900
I0529 14:44:57.194684 30229 layer_factory.hpp:77] Creating layer res5b_relu
I0529 14:44:57.194694 30229 net.cpp:100] Creating Layer res5b_relu
I0529 14:44:57.194699 30229 net.cpp:444] res5b_relu <- res5b
I0529 14:44:57.194707 30229 net.cpp:405] res5b_relu -> res5b (in-place)
I0529 14:44:57.195158 30229 net.cpp:150] Setting up res5b_relu
I0529 14:44:57.195168 30229 net.cpp:157] Top shape: 1 2048 14 14 (401408)
I0529 14:44:57.195169 30229 net.cpp:165] Memory required for data: 251883532
I0529 14:44:57.195174 30229 layer_factory.hpp:77] Creating layer res5b_res5b_relu_0_split
I0529 14:44:57.195184 30229 net.cpp:100] Creating Layer res5b_res5b_relu_0_split
I0529 14:44:57.195190 30229 net.cpp:444] res5b_res5b_relu_0_split <- res5b
I0529 14:44:57.195202 30229 net.cpp:418] res5b_res5b_relu_0_split -> res5b_res5b_relu_0_split_0
I0529 14:44:57.195217 30229 net.cpp:418] res5b_res5b_relu_0_split -> res5b_res5b_relu_0_split_1
I0529 14:44:57.195281 30229 net.cpp:150] Setting up res5b_res5b_relu_0_split
I0529 14:44:57.195289 30229 net.cpp:157] Top shape: 1 2048 14 14 (401408)
I0529 14:44:57.195293 30229 net.cpp:157] Top shape: 1 2048 14 14 (401408)
I0529 14:44:57.195296 30229 net.cpp:165] Memory required for data: 255094796
I0529 14:44:57.195298 30229 layer_factory.hpp:77] Creating layer res5c_branch2a
I0529 14:44:57.195314 30229 net.cpp:100] Creating Layer res5c_branch2a
I0529 14:44:57.195320 30229 net.cpp:444] res5c_branch2a <- res5b_res5b_relu_0_split_0
I0529 14:44:57.195333 30229 net.cpp:418] res5c_branch2a -> res5c_branch2a
I0529 14:44:57.199020 30229 cudnn_conv_layer.cpp:194] Reallocating workspace storage: 10080
I0529 14:44:57.199049 30229 net.cpp:150] Setting up res5c_branch2a
I0529 14:44:57.199060 30229 net.cpp:157] Top shape: 1 512 14 14 (100352)
I0529 14:44:57.199064 30229 net.cpp:165] Memory required for data: 255496204
I0529 14:44:57.199080 30229 layer_factory.hpp:77] Creating layer bn5c_branch2a
I0529 14:44:57.199101 30229 net.cpp:100] Creating Layer bn5c_branch2a
I0529 14:44:57.199110 30229 net.cpp:444] bn5c_branch2a <- res5c_branch2a
I0529 14:44:57.199128 30229 net.cpp:405] bn5c_branch2a -> res5c_branch2a (in-place)
I0529 14:44:57.199437 30229 net.cpp:150] Setting up bn5c_branch2a
I0529 14:44:57.199445 30229 net.cpp:157] Top shape: 1 512 14 14 (100352)
I0529 14:44:57.199446 30229 net.cpp:165] Memory required for data: 255897612
I0529 14:44:57.199462 30229 layer_factory.hpp:77] Creating layer scale5c_branch2a
I0529 14:44:57.199476 30229 net.cpp:100] Creating Layer scale5c_branch2a
I0529 14:44:57.199481 30229 net.cpp:444] scale5c_branch2a <- res5c_branch2a
I0529 14:44:57.199492 30229 net.cpp:405] scale5c_branch2a -> res5c_branch2a (in-place)
I0529 14:44:57.199556 30229 layer_factory.hpp:77] Creating layer scale5c_branch2a
I0529 14:44:57.199750 30229 net.cpp:150] Setting up scale5c_branch2a
I0529 14:44:57.199757 30229 net.cpp:157] Top shape: 1 512 14 14 (100352)
I0529 14:44:57.199759 30229 net.cpp:165] Memory required for data: 256299020
I0529 14:44:57.199770 30229 layer_factory.hpp:77] Creating layer res5c_branch2a_relu
I0529 14:44:57.199779 30229 net.cpp:100] Creating Layer res5c_branch2a_relu
I0529 14:44:57.199785 30229 net.cpp:444] res5c_branch2a_relu <- res5c_branch2a
I0529 14:44:57.199795 30229 net.cpp:405] res5c_branch2a_relu -> res5c_branch2a (in-place)
I0529 14:44:57.199947 30229 net.cpp:150] Setting up res5c_branch2a_relu
I0529 14:44:57.199954 30229 net.cpp:157] Top shape: 1 512 14 14 (100352)
I0529 14:44:57.199956 30229 net.cpp:165] Memory required for data: 256700428
I0529 14:44:57.199960 30229 layer_factory.hpp:77] Creating layer res5c_branch2b
I0529 14:44:57.199975 30229 net.cpp:100] Creating Layer res5c_branch2b
I0529 14:44:57.199980 30229 net.cpp:444] res5c_branch2b <- res5c_branch2a
I0529 14:44:57.199992 30229 net.cpp:418] res5c_branch2b -> res5c_branch2b
I0529 14:44:57.205874 30229 net.cpp:150] Setting up res5c_branch2b
I0529 14:44:57.205904 30229 net.cpp:157] Top shape: 1 512 14 14 (100352)
I0529 14:44:57.205905 30229 net.cpp:165] Memory required for data: 257101836
I0529 14:44:57.205929 30229 layer_factory.hpp:77] Creating layer bn5c_branch2b
I0529 14:44:57.205963 30229 net.cpp:100] Creating Layer bn5c_branch2b
I0529 14:44:57.205976 30229 net.cpp:444] bn5c_branch2b <- res5c_branch2b
I0529 14:44:57.205993 30229 net.cpp:405] bn5c_branch2b -> res5c_branch2b (in-place)
I0529 14:44:57.206327 30229 net.cpp:150] Setting up bn5c_branch2b
I0529 14:44:57.206334 30229 net.cpp:157] Top shape: 1 512 14 14 (100352)
I0529 14:44:57.206336 30229 net.cpp:165] Memory required for data: 257503244
I0529 14:44:57.206351 30229 layer_factory.hpp:77] Creating layer scale5c_branch2b
I0529 14:44:57.206367 30229 net.cpp:100] Creating Layer scale5c_branch2b
I0529 14:44:57.206370 30229 net.cpp:444] scale5c_branch2b <- res5c_branch2b
I0529 14:44:57.206382 30229 net.cpp:405] scale5c_branch2b -> res5c_branch2b (in-place)
I0529 14:44:57.206452 30229 layer_factory.hpp:77] Creating layer scale5c_branch2b
I0529 14:44:57.206651 30229 net.cpp:150] Setting up scale5c_branch2b
I0529 14:44:57.206658 30229 net.cpp:157] Top shape: 1 512 14 14 (100352)
I0529 14:44:57.206660 30229 net.cpp:165] Memory required for data: 257904652
I0529 14:44:57.206670 30229 layer_factory.hpp:77] Creating layer res5c_branch2b_relu
I0529 14:44:57.206681 30229 net.cpp:100] Creating Layer res5c_branch2b_relu
I0529 14:44:57.206686 30229 net.cpp:444] res5c_branch2b_relu <- res5c_branch2b
I0529 14:44:57.206696 30229 net.cpp:405] res5c_branch2b_relu -> res5c_branch2b (in-place)
I0529 14:44:57.206912 30229 net.cpp:150] Setting up res5c_branch2b_relu
I0529 14:44:57.206918 30229 net.cpp:157] Top shape: 1 512 14 14 (100352)
I0529 14:44:57.206921 30229 net.cpp:165] Memory required for data: 258306060
I0529 14:44:57.206925 30229 layer_factory.hpp:77] Creating layer res5c_branch2c
I0529 14:44:57.206941 30229 net.cpp:100] Creating Layer res5c_branch2c
I0529 14:44:57.206948 30229 net.cpp:444] res5c_branch2c <- res5c_branch2b
I0529 14:44:57.206959 30229 net.cpp:418] res5c_branch2c -> res5c_branch2c
I0529 14:44:57.210814 30229 cudnn_conv_layer.cpp:194] Reallocating workspace storage: 7800
I0529 14:44:57.210847 30229 net.cpp:150] Setting up res5c_branch2c
I0529 14:44:57.210860 30229 net.cpp:157] Top shape: 1 2048 14 14 (401408)
I0529 14:44:57.210863 30229 net.cpp:165] Memory required for data: 259911692
I0529 14:44:57.210881 30229 layer_factory.hpp:77] Creating layer bn5c_branch2c
I0529 14:44:57.210904 30229 net.cpp:100] Creating Layer bn5c_branch2c
I0529 14:44:57.210913 30229 net.cpp:444] bn5c_branch2c <- res5c_branch2c
I0529 14:44:57.210929 30229 net.cpp:405] bn5c_branch2c -> res5c_branch2c (in-place)
I0529 14:44:57.211257 30229 net.cpp:150] Setting up bn5c_branch2c
I0529 14:44:57.211264 30229 net.cpp:157] Top shape: 1 2048 14 14 (401408)
I0529 14:44:57.211266 30229 net.cpp:165] Memory required for data: 261517324
I0529 14:44:57.211282 30229 layer_factory.hpp:77] Creating layer scale5c_branch2c
I0529 14:44:57.211297 30229 net.cpp:100] Creating Layer scale5c_branch2c
I0529 14:44:57.211302 30229 net.cpp:444] scale5c_branch2c <- res5c_branch2c
I0529 14:44:57.211313 30229 net.cpp:405] scale5c_branch2c -> res5c_branch2c (in-place)
I0529 14:44:57.211381 30229 layer_factory.hpp:77] Creating layer scale5c_branch2c
I0529 14:44:57.211581 30229 net.cpp:150] Setting up scale5c_branch2c
I0529 14:44:57.211588 30229 net.cpp:157] Top shape: 1 2048 14 14 (401408)
I0529 14:44:57.211591 30229 net.cpp:165] Memory required for data: 263122956
I0529 14:44:57.211602 30229 layer_factory.hpp:77] Creating layer res5c
I0529 14:44:57.211617 30229 net.cpp:100] Creating Layer res5c
I0529 14:44:57.211623 30229 net.cpp:444] res5c <- res5b_res5b_relu_0_split_1
I0529 14:44:57.211632 30229 net.cpp:444] res5c <- res5c_branch2c
I0529 14:44:57.211642 30229 net.cpp:418] res5c -> res5c
I0529 14:44:57.211685 30229 net.cpp:150] Setting up res5c
I0529 14:44:57.211694 30229 net.cpp:157] Top shape: 1 2048 14 14 (401408)
I0529 14:44:57.211695 30229 net.cpp:165] Memory required for data: 264728588
I0529 14:44:57.211699 30229 layer_factory.hpp:77] Creating layer res5c_relu
I0529 14:44:57.211709 30229 net.cpp:100] Creating Layer res5c_relu
I0529 14:44:57.211714 30229 net.cpp:444] res5c_relu <- res5c
I0529 14:44:57.211724 30229 net.cpp:405] res5c_relu -> res5c (in-place)
I0529 14:44:57.211877 30229 net.cpp:150] Setting up res5c_relu
I0529 14:44:57.211884 30229 net.cpp:157] Top shape: 1 2048 14 14 (401408)
I0529 14:44:57.211886 30229 net.cpp:165] Memory required for data: 266334220
I0529 14:44:57.211890 30229 layer_factory.hpp:77] Creating layer rpn_conv/3x3
I0529 14:44:57.211907 30229 net.cpp:100] Creating Layer rpn_conv/3x3
I0529 14:44:57.211913 30229 net.cpp:444] rpn_conv/3x3 <- res4f_res4f_relu_0_split_2
I0529 14:44:57.211928 30229 net.cpp:418] rpn_conv/3x3 -> rpn/output
I0529 14:44:57.738337 30229 cudnn_conv_layer.cpp:194] Reallocating workspace storage: 21676032
I0529 14:44:57.738672 30229 net.cpp:150] Setting up rpn_conv/3x3
I0529 14:44:57.738690 30229 net.cpp:157] Top shape: 1 512 14 14 (100352)
I0529 14:44:57.738692 30229 net.cpp:165] Memory required for data: 266735628
I0529 14:44:57.738714 30229 layer_factory.hpp:77] Creating layer rpn_relu/3x3
I0529 14:44:57.738736 30229 net.cpp:100] Creating Layer rpn_relu/3x3
I0529 14:44:57.738746 30229 net.cpp:444] rpn_relu/3x3 <- rpn/output
I0529 14:44:57.738764 30229 net.cpp:405] rpn_relu/3x3 -> rpn/output (in-place)
I0529 14:44:57.739198 30229 net.cpp:150] Setting up rpn_relu/3x3
I0529 14:44:57.739207 30229 net.cpp:157] Top shape: 1 512 14 14 (100352)
I0529 14:44:57.739209 30229 net.cpp:165] Memory required for data: 267137036
I0529 14:44:57.739213 30229 layer_factory.hpp:77] Creating layer rpn/output_rpn_relu/3x3_0_split
I0529 14:44:57.739223 30229 net.cpp:100] Creating Layer rpn/output_rpn_relu/3x3_0_split
I0529 14:44:57.739228 30229 net.cpp:444] rpn/output_rpn_relu/3x3_0_split <- rpn/output
I0529 14:44:57.739241 30229 net.cpp:418] rpn/output_rpn_relu/3x3_0_split -> rpn/output_rpn_relu/3x3_0_split_0
I0529 14:44:57.739255 30229 net.cpp:418] rpn/output_rpn_relu/3x3_0_split -> rpn/output_rpn_relu/3x3_0_split_1
I0529 14:44:57.739331 30229 net.cpp:150] Setting up rpn/output_rpn_relu/3x3_0_split
I0529 14:44:57.739339 30229 net.cpp:157] Top shape: 1 512 14 14 (100352)
I0529 14:44:57.739342 30229 net.cpp:157] Top shape: 1 512 14 14 (100352)
I0529 14:44:57.739344 30229 net.cpp:165] Memory required for data: 267939852
I0529 14:44:57.739348 30229 layer_factory.hpp:77] Creating layer rpn_cls_score
I0529 14:44:57.739367 30229 net.cpp:100] Creating Layer rpn_cls_score
I0529 14:44:57.739372 30229 net.cpp:444] rpn_cls_score <- rpn/output_rpn_relu/3x3_0_split_0
I0529 14:44:57.739388 30229 net.cpp:418] rpn_cls_score -> rpn_cls_score
I0529 14:44:57.741791 30229 cudnn_conv_layer.cpp:194] Reallocating workspace storage: 10080
I0529 14:44:57.741816 30229 net.cpp:150] Setting up rpn_cls_score
I0529 14:44:57.741822 30229 net.cpp:157] Top shape: 1 22 14 14 (4312)
I0529 14:44:57.741824 30229 net.cpp:165] Memory required for data: 267957100
I0529 14:44:57.741835 30229 layer_factory.hpp:77] Creating layer rpn_bbox_pred
I0529 14:44:57.741854 30229 net.cpp:100] Creating Layer rpn_bbox_pred
I0529 14:44:57.741861 30229 net.cpp:444] rpn_bbox_pred <- rpn/output_rpn_relu/3x3_0_split_1
I0529 14:44:57.741875 30229 net.cpp:418] rpn_bbox_pred -> rpn_bbox_pred
I0529 14:44:57.745528 30229 cudnn_conv_layer.cpp:194] Reallocating workspace storage: 10080
I0529 14:44:57.745553 30229 net.cpp:150] Setting up rpn_bbox_pred
I0529 14:44:57.745559 30229 net.cpp:157] Top shape: 1 44 14 14 (8624)
I0529 14:44:57.745561 30229 net.cpp:165] Memory required for data: 267991596
I0529 14:44:57.745573 30229 layer_factory.hpp:77] Creating layer rpn_cls_score_reshape
I0529 14:44:57.745587 30229 net.cpp:100] Creating Layer rpn_cls_score_reshape
I0529 14:44:57.745594 30229 net.cpp:444] rpn_cls_score_reshape <- rpn_cls_score
I0529 14:44:57.745605 30229 net.cpp:418] rpn_cls_score_reshape -> rpn_cls_score_reshape
I0529 14:44:57.745651 30229 net.cpp:150] Setting up rpn_cls_score_reshape
I0529 14:44:57.745659 30229 net.cpp:157] Top shape: 1 2 154 14 (4312)
I0529 14:44:57.745661 30229 net.cpp:165] Memory required for data: 268008844
I0529 14:44:57.745666 30229 layer_factory.hpp:77] Creating layer rpn_cls_prob
I0529 14:44:57.745674 30229 net.cpp:100] Creating Layer rpn_cls_prob
I0529 14:44:57.745678 30229 net.cpp:444] rpn_cls_prob <- rpn_cls_score_reshape
I0529 14:44:57.745688 30229 net.cpp:418] rpn_cls_prob -> rpn_cls_prob
I0529 14:44:57.745936 30229 net.cpp:150] Setting up rpn_cls_prob
I0529 14:44:57.745945 30229 net.cpp:157] Top shape: 1 2 154 14 (4312)
I0529 14:44:57.745949 30229 net.cpp:165] Memory required for data: 268026092
I0529 14:44:57.745954 30229 layer_factory.hpp:77] Creating layer rpn_cls_prob_reshape
I0529 14:44:57.745963 30229 net.cpp:100] Creating Layer rpn_cls_prob_reshape
I0529 14:44:57.745968 30229 net.cpp:444] rpn_cls_prob_reshape <- rpn_cls_prob
I0529 14:44:57.745980 30229 net.cpp:418] rpn_cls_prob_reshape -> rpn_cls_prob_reshape
I0529 14:44:57.746026 30229 net.cpp:150] Setting up rpn_cls_prob_reshape
I0529 14:44:57.746034 30229 net.cpp:157] Top shape: 1 22 14 14 (4312)
I0529 14:44:57.746037 30229 net.cpp:165] Memory required for data: 268043340
I0529 14:44:57.746040 30229 layer_factory.hpp:77] Creating layer proposal
I0529 14:44:57.746335 30229 net.cpp:100] Creating Layer proposal
I0529 14:44:57.746345 30229 net.cpp:444] proposal <- rpn_cls_prob_reshape
I0529 14:44:57.746357 30229 net.cpp:444] proposal <- rpn_bbox_pred
I0529 14:44:57.746363 30229 net.cpp:444] proposal <- im_info
I0529 14:44:57.746373 30229 net.cpp:418] proposal -> rois
I0529 14:44:57.747509 30229 net.cpp:150] Setting up proposal
I0529 14:44:57.747521 30229 net.cpp:157] Top shape: 1 5 (5)
I0529 14:44:57.747524 30229 net.cpp:165] Memory required for data: 268043360
I0529 14:44:57.747529 30229 layer_factory.hpp:77] Creating layer rois_proposal_0_split
I0529 14:44:57.747539 30229 net.cpp:100] Creating Layer rois_proposal_0_split
I0529 14:44:57.747545 30229 net.cpp:444] rois_proposal_0_split <- rois
I0529 14:44:57.747558 30229 net.cpp:418] rois_proposal_0_split -> rois_proposal_0_split_0
I0529 14:44:57.747572 30229 net.cpp:418] rois_proposal_0_split -> rois_proposal_0_split_1
I0529 14:44:57.747634 30229 net.cpp:150] Setting up rois_proposal_0_split
I0529 14:44:57.747642 30229 net.cpp:157] Top shape: 1 5 (5)
I0529 14:44:57.747645 30229 net.cpp:157] Top shape: 1 5 (5)
I0529 14:44:57.747648 30229 net.cpp:165] Memory required for data: 268043400
I0529 14:44:57.747651 30229 layer_factory.hpp:77] Creating layer conv_new_1
I0529 14:44:57.747666 30229 net.cpp:100] Creating Layer conv_new_1
I0529 14:44:57.747673 30229 net.cpp:444] conv_new_1 <- res5c
I0529 14:44:57.747686 30229 net.cpp:418] conv_new_1 -> conv_new_1
I0529 14:44:57.982764 30229 cudnn_conv_layer.cpp:194] Reallocating workspace storage: 10080
I0529 14:44:57.982800 30229 net.cpp:150] Setting up conv_new_1
I0529 14:44:57.982812 30229 net.cpp:157] Top shape: 1 1024 14 14 (200704)
I0529 14:44:57.982815 30229 net.cpp:165] Memory required for data: 268846216
I0529 14:44:57.982836 30229 layer_factory.hpp:77] Creating layer conv_new_1_relu
I0529 14:44:57.982856 30229 net.cpp:100] Creating Layer conv_new_1_relu
I0529 14:44:57.982867 30229 net.cpp:444] conv_new_1_relu <- conv_new_1
I0529 14:44:57.982884 30229 net.cpp:405] conv_new_1_relu -> conv_new_1 (in-place)
I0529 14:44:57.983039 30229 net.cpp:150] Setting up conv_new_1_relu
I0529 14:44:57.983045 30229 net.cpp:157] Top shape: 1 1024 14 14 (200704)
I0529 14:44:57.983047 30229 net.cpp:165] Memory required for data: 269649032
I0529 14:44:57.983052 30229 layer_factory.hpp:77] Creating layer conv_new_1_conv_new_1_relu_0_split
I0529 14:44:57.983062 30229 net.cpp:100] Creating Layer conv_new_1_conv_new_1_relu_0_split
I0529 14:44:57.983065 30229 net.cpp:444] conv_new_1_conv_new_1_relu_0_split <- conv_new_1
I0529 14:44:57.983075 30229 net.cpp:418] conv_new_1_conv_new_1_relu_0_split -> conv_new_1_conv_new_1_relu_0_split_0
I0529 14:44:57.983090 30229 net.cpp:418] conv_new_1_conv_new_1_relu_0_split -> conv_new_1_conv_new_1_relu_0_split_1
I0529 14:44:57.983166 30229 net.cpp:150] Setting up conv_new_1_conv_new_1_relu_0_split
I0529 14:44:57.983175 30229 net.cpp:157] Top shape: 1 1024 14 14 (200704)
I0529 14:44:57.983177 30229 net.cpp:157] Top shape: 1 1024 14 14 (200704)
I0529 14:44:57.983180 30229 net.cpp:165] Memory required for data: 271254664
I0529 14:44:57.983182 30229 layer_factory.hpp:77] Creating layer rfcn_cls
I0529 14:44:57.983202 30229 net.cpp:100] Creating Layer rfcn_cls
I0529 14:44:57.983206 30229 net.cpp:444] rfcn_cls <- conv_new_1_conv_new_1_relu_0_split_0
I0529 14:44:57.983222 30229 net.cpp:418] rfcn_cls -> rfcn_cls
I0529 14:44:57.995563 30229 cudnn_conv_layer.cpp:194] Reallocating workspace storage: 10080
I0529 14:44:57.995592 30229 net.cpp:150] Setting up rfcn_cls
I0529 14:44:57.995625 30229 net.cpp:157] Top shape: 1 98 14 14 (19208)
I0529 14:44:57.995628 30229 net.cpp:165] Memory required for data: 271331496
I0529 14:44:57.995643 30229 layer_factory.hpp:77] Creating layer rfcn_bbox
I0529 14:44:57.995692 30229 net.cpp:100] Creating Layer rfcn_bbox
I0529 14:44:57.995699 30229 net.cpp:444] rfcn_bbox <- conv_new_1_conv_new_1_relu_0_split_1
I0529 14:44:57.995717 30229 net.cpp:418] rfcn_bbox -> rfcn_bbox
I0529 14:44:58.042448 30229 cudnn_conv_layer.cpp:194] Reallocating workspace storage: 10080
I0529 14:44:58.042480 30229 net.cpp:150] Setting up rfcn_bbox
I0529 14:44:58.042495 30229 net.cpp:157] Top shape: 1 392 14 14 (76832)
I0529 14:44:58.042497 30229 net.cpp:165] Memory required for data: 271638824
I0529 14:44:58.042520 30229 layer_factory.hpp:77] Creating layer psroipooled_cls_rois
I0529 14:44:58.042543 30229 net.cpp:100] Creating Layer psroipooled_cls_rois
I0529 14:44:58.042552 30229 net.cpp:444] psroipooled_cls_rois <- rfcn_cls
I0529 14:44:58.042567 30229 net.cpp:444] psroipooled_cls_rois <- rois_proposal_0_split_0
I0529 14:44:58.042577 30229 net.cpp:418] psroipooled_cls_rois -> psroipooled_cls_rois
I0529 14:44:58.042596 30229 psroi_pooling_layer.cpp:26] Spatial scale: 0.0625
I0529 14:44:58.042671 30229 net.cpp:150] Setting up psroipooled_cls_rois
I0529 14:44:58.042678 30229 net.cpp:157] Top shape: 1 2 7 7 (98)
I0529 14:44:58.042680 30229 net.cpp:165] Memory required for data: 271639216
I0529 14:44:58.042685 30229 layer_factory.hpp:77] Creating layer ave_cls_score_rois
I0529 14:44:58.042695 30229 net.cpp:100] Creating Layer ave_cls_score_rois
I0529 14:44:58.042699 30229 net.cpp:444] ave_cls_score_rois <- psroipooled_cls_rois
I0529 14:44:58.042711 30229 net.cpp:418] ave_cls_score_rois -> cls_score
I0529 14:44:58.043236 30229 net.cpp:150] Setting up ave_cls_score_rois
I0529 14:44:58.043246 30229 net.cpp:157] Top shape: 1 2 1 1 (2)
I0529 14:44:58.043248 30229 net.cpp:165] Memory required for data: 271639224
I0529 14:44:58.043252 30229 layer_factory.hpp:77] Creating layer psroipooled_loc_rois
I0529 14:44:58.043263 30229 net.cpp:100] Creating Layer psroipooled_loc_rois
I0529 14:44:58.043268 30229 net.cpp:444] psroipooled_loc_rois <- rfcn_bbox
I0529 14:44:58.043278 30229 net.cpp:444] psroipooled_loc_rois <- rois_proposal_0_split_1
I0529 14:44:58.043287 30229 net.cpp:418] psroipooled_loc_rois -> psroipooled_loc_rois
I0529 14:44:58.043301 30229 psroi_pooling_layer.cpp:26] Spatial scale: 0.0625
I0529 14:44:58.043360 30229 net.cpp:150] Setting up psroipooled_loc_rois
I0529 14:44:58.043368 30229 net.cpp:157] Top shape: 1 8 7 7 (392)
I0529 14:44:58.043370 30229 net.cpp:165] Memory required for data: 271640792
I0529 14:44:58.043375 30229 layer_factory.hpp:77] Creating layer ave_bbox_pred_rois
I0529 14:44:58.043383 30229 net.cpp:100] Creating Layer ave_bbox_pred_rois
I0529 14:44:58.043388 30229 net.cpp:444] ave_bbox_pred_rois <- psroipooled_loc_rois
I0529 14:44:58.043401 30229 net.cpp:418] ave_bbox_pred_rois -> bbox_pred_pre
I0529 14:44:58.043581 30229 net.cpp:150] Setting up ave_bbox_pred_rois
I0529 14:44:58.043589 30229 net.cpp:157] Top shape: 1 8 1 1 (8)
I0529 14:44:58.043592 30229 net.cpp:165] Memory required for data: 271640824
I0529 14:44:58.043596 30229 layer_factory.hpp:77] Creating layer cls_prob
I0529 14:44:58.043606 30229 net.cpp:100] Creating Layer cls_prob
I0529 14:44:58.043612 30229 net.cpp:444] cls_prob <- cls_score
I0529 14:44:58.043623 30229 net.cpp:418] cls_prob -> cls_prob_pre
I0529 14:44:58.043870 30229 net.cpp:150] Setting up cls_prob
I0529 14:44:58.043879 30229 net.cpp:157] Top shape: 1 2 1 1 (2)
I0529 14:44:58.043882 30229 net.cpp:165] Memory required for data: 271640832
I0529 14:44:58.043886 30229 layer_factory.hpp:77] Creating layer cls_prob_reshape
I0529 14:44:58.043900 30229 net.cpp:100] Creating Layer cls_prob_reshape
I0529 14:44:58.043905 30229 net.cpp:444] cls_prob_reshape <- cls_prob_pre
I0529 14:44:58.043916 30229 net.cpp:418] cls_prob_reshape -> cls_prob
I0529 14:44:58.043962 30229 net.cpp:150] Setting up cls_prob_reshape
I0529 14:44:58.043969 30229 net.cpp:157] Top shape: 1 2 (2)
I0529 14:44:58.043972 30229 net.cpp:165] Memory required for data: 271640840
I0529 14:44:58.043975 30229 layer_factory.hpp:77] Creating layer bbox_pred_reshape
I0529 14:44:58.043984 30229 net.cpp:100] Creating Layer bbox_pred_reshape
I0529 14:44:58.043988 30229 net.cpp:444] bbox_pred_reshape <- bbox_pred_pre
I0529 14:44:58.044000 30229 net.cpp:418] bbox_pred_reshape -> bbox_pred
I0529 14:44:58.044042 30229 net.cpp:150] Setting up bbox_pred_reshape
I0529 14:44:58.044049 30229 net.cpp:157] Top shape: 1 8 (8)
I0529 14:44:58.044051 30229 net.cpp:165] Memory required for data: 271640872
I0529 14:44:58.044055 30229 net.cpp:228] bbox_pred_reshape does not need backward computation.
I0529 14:44:58.044059 30229 net.cpp:228] cls_prob_reshape does not need backward computation.
I0529 14:44:58.044062 30229 net.cpp:228] cls_prob does not need backward computation.
I0529 14:44:58.044065 30229 net.cpp:228] ave_bbox_pred_rois does not need backward computation.
…
