…
      sampler {
        min_scale: 0.3
        max_scale: 1
        min_aspect_ratio: 0.5
        max_aspect_ratio: 2
      }
      sample_constraint {
        min_jaccard_overlap: 0.9
      }
      max_sample: 1
      max_trials: 50
    }
    batch_sampler {
      sampler {
        min_scale: 0.3
        max_scale: 1
        min_aspect_ratio: 0.5
        max_aspect_ratio: 2
      }
      sample_constraint {
        max_jaccard_overlap: 1
      }
      max_sample: 1
      max_trials: 50
    }
    label_map_file: "data/VOC0712/labelmap_voc.prototxt"
  }
}
layer {
  name: "conv1_1"
  type: "Convolution"
  bottom: "data"
  top: "conv1_1"
  param {
    lr_mult: 1
    decay_mult: 1
  }
  param {
    lr_mult: 2
    decay_mult: 0
  }
  convolution_param {
    num_output: 64
    pad: 1
    kernel_size: 3
    weight_filler {
      type: "xavier"
    }
    bias_filler {
      type: "constant"
      value: 0
    }
  }
}
layer {
  name: "relu1_1"
  type: "ReLU"
  bottom: "conv1_1"
  top: "conv1_1"
}
layer {
  name: "conv1_2"
  type: "Convolution"
  bottom: "conv1_1"
  top: "conv1_2"
  param {
    lr_mult: 1
    decay_mult: 1
  }
  param {
    lr_mult: 2
    decay_mult: 0
  }
  convolution_param {
    num_output: 64
    pad: 1
    kernel_size: 3
    weight_filler {
      type: "xavier"
    }
    bias_filler {
      type: "constant"
      value: 0
    }
  }
}
layer {
  name: "relu1_2"
  type: "ReLU"
  bottom: "conv1_2"
  top: "conv1_2"
}
layer {
  name: "pool1"
  type: "Pooling"
  bottom: "conv1_2"
  top: "pool1"
  pooling_param {
    pool: MAX
    kernel_size: 2
    stride: 2
  }
}
layer {
  name: "conv2_1"
  type: "Convolution"
  bottom: "pool1"
  top: "conv2_1"
  param {
    lr_mult: 1
    decay_mult: 1
  }
  param {
    lr_mult: 2
    decay_mult: 0
  }
  convolution_param {
    num_output: 128
    pad: 1
    kernel_size: 3
    weight_filler {
      type: "xavier"
    }
    bias_filler {
      type: "constant"
      value: 0
    }
  }
}
layer {
  name: "relu2_1"
  type: "ReLU"
  bottom: "conv2_1"
  top: "conv2_1"
}
layer {
  name: "conv2_2"
  type: "Convolution"
  bottom: "conv2_1"
  top: "conv2_2"
  param {
    lr_mult: 1
    decay_mult: 1
  }
  param {
    lr_mult: 2
    decay_mult: 0
  }
  convolution_param {
    num_output: 128
    pad: 1
    kernel_size: 3
    weight_filler {
      type: "xavier"
    }
    bias_filler {
      type: "constant"
      value: 0
    }
  }
}
layer {
  name: "relu2_2"
  type: "ReLU"
  bottom: "conv2_2"
  top: "conv2_2"
}
layer {
  name: "pool2"
  type: "Pooling"
  bottom: "conv2_2"
  top: "pool2"
  pooling_param {
    pool: MAX
    kernel_size: 2
    stride: 2
  }
}
layer {
  name: "conv3_1"
  type: "Convolution"
  bottom: "pool2"
  top: "conv3_1"
  param {
    lr_mult: 1
    decay_mult: 1
  }
  param {
    lr_mult: 2
    decay_mult: 0
  }
  convolution_param {
    num_output: 256
    pad: 1
    kernel_size: 3
    weight_filler {
      type: "xavier"
    }
    bias_filler {
      type: "constant"
      value: 0
    }
  }
}
layer {
  name: "relu3_1"
  type: "ReLU"
  bottom: "conv3_1"
  top: "conv3_1"
}
layer {
  name: "conv3_2"
  type: "Convolution"
  bottom: "conv3_1"
  top: "conv3_2"
  param {
    lr_mult: 1
    decay_mult: 1
  }
  param {
    lr_mult: 2
    decay_mult: 0
  }
  convolution_param {
    num_output: 256
    pad: 1
    kernel_size: 3
    weight_filler {
      type: "xavier"
    }
    bias_filler {
      type: "constant"
      value: 0
    }
  }
}
layer {
  name: "relu3_2"
  type: "ReLU"
  bottom: "conv3_2"
  top: "conv3_2"
}
layer {
  name: "conv3_3"
  type: "Convolution"
  bottom: "conv3_2"
  top: "conv3_3"
  param {
    lr_mult: 1
    decay_mult: 1
  }
  param {
    lr_mult: 2
    decay_mult: 0
  }
  convolution_param {
    num_output: 256
    pad: 1
    kernel_size: 3
    weight_filler {
      type: "xavier"
    }
    bias_filler {
      type: "constant"
      value: 0
    }
  }
}
layer {
  name: "relu3_3"
  type: "ReLU"
  bottom: "conv3_3"
  top: "conv3_3"
}
layer {
  name: "pool3"
  type: "Pooling"
  bottom: "conv3_3"
  top: "pool3"
  pooling_param {
    pool: MAX
    kernel_size: 2
    stride: 2
  }
}
layer {
  name: "conv4_1"
  type: "Convolution"
  bottom: "pool3"
  top: "conv4_1"
  param {
    lr_mult: 1
    decay_mult: 1
  }
  param {
    lr_mult: 2
    decay_mult: 0
  }
  convolution_param {
    num_output: 512
    pad: 1
    kernel_size: 3
    weight_filler {
      type: "xavier"
    }
    bias_filler {
      type: "constant"
      value: 0
    }
  }
}
layer {
  name: "relu4_1"
  type: "ReLU"
  bottom: "conv4_1"
  top: "conv4_1"
}
layer {
  name: "conv4_2"
  type: "Convolution"
  bottom: "conv4_1"
  top: "conv4_2"
  param {
    lr_mult: 1
    decay_mult: 1
  }
  param {
    lr_mult: 2
    decay_mult: 0
  }
  convolution_param {
    num_output: 512
    pad: 1
    kernel_size: 3
    weight_filler {
      type: "xavier"
    }
    bias_filler {
      type: "constant"
      value: 0
    }
  }
}
layer {
  name: "relu4_2"
  type: "ReLU"
  bottom: "conv4_2"
  top: "conv4_2"
}
layer {
  name: "conv4_3"
  type: "Convolution"
  bottom: "conv4_2"
  top: "conv4_3"
  param {
    lr_mult: 1
    decay_mult: 1
  }
  param {
    lr_mult: 2
    decay_mult: 0
  }
  convolution_param {
    num_output: 512
    pad: 1
    kernel_size: 3
    weight_filler {
      type: "xavier"
    }
    bias_filler {
      type: "constant"
      value: 0
    }
  }
}
layer {
  name: "relu4_3"
  type: "ReLU"
  bottom: "conv4_3"
  top: "conv4_3"
}
layer {
  name: "pool4"
  type: "Pooling"
  bottom: "conv4_3"
  top: "pool4"
  pooling_param {
    pool: MAX
    kernel_size: 2
    stride: 2
  }
}
layer {
  name: "conv5_1"
  type: "Convolution"
  bottom: "pool4"
  top: "conv5_1"
  param {
    lr_mult: 1
    decay_mult: 1
  }
  param {
    lr_mult: 2
    decay_mult: 0
  }
  convolution_param {
    num_output: 512
    pad: 1
    kernel_size: 3
    weight_filler {
      type: "xavier"
    }
    bias_filler {
      type: "constant"
      value: 0
    }
    dilation: 1
  }
}
layer {
  name: "relu5_1"
  type: "ReLU"
  bottom: "conv5_1"
  top: "conv5_1"
}
layer {
  name: "conv5_2"
  type: "Convolution"
  bottom: "conv5_1"
  top: "conv5_2"
  param {
    lr_mult: 1
    decay_mult: 1
  }
  param {
    lr_mult: 2
    decay_mult: 0
  }
  convolution_param {
    num_output: 512
    pad: 1
    kernel_size: 3
    weight_filler {
      type: "xavier"
    }
    bias_filler {
      type: "constant"
      value: 0
    }
    dilation: 1
  }
}
layer {
  name: "relu5_2"
  type: "ReLU"
  bottom: "conv5_2"
  top: "conv5_2"
}
layer {
  name: "conv5_3"
  type: "Convolution"
  bottom: "conv5_2"
  top: "conv5_3"
  param {
    lr_mult: 1
    decay_mult: 1
  }
  param {
    lr_mult: 2
    decay_mult: 0
  }
  convolution_param {
    num_output: 512
    pad: 1
    kernel_size: 3
    weight_filler {
      type: "xavier"
    }
    bias_filler {
      type: "constant"
      value: 0
    }
    dilation: 1
  }
}
layer {
  name: "relu5_3"
  type: "ReLU"
  bottom: "conv5_3"
  top: "conv5_3"
}
layer {
  name: "pool5"
  type: "Pooling"
  bottom: "conv5_3"
  top: "pool5"
  pooling_param {
    pool: MAX
    kernel_size: 3
    stride: 1
    pad: 1
  }
}
layer {
  name: "fc6"
  type: "Convolution"
  bottom: "pool5"
  top: "fc6"
  param {
    lr_mult: 1
    decay_mult: 1
  }
  param {
    lr_mult: 2
    decay_mult: 0
  }
  convolution_param {
    num_output: 1024
    pad: 6
    kernel_size: 3
    weight_filler {
      type: "xavier"
    }
    bias_filler {
      type: "constant"
      value: 0
    }
    dilation: 6
  }
}
layer {
  name: "relu6"
  type: "ReLU"
  bottom: "fc6"
  top: "fc6"
}
layer {
  name: "fc7"
  type: "Convolution"
  bottom: "fc6"
  top: "fc7"
  param {
    lr_mult: 1
    decay_mult: 1
  }
  param {
    lr_mult: 2
    decay_mult: 0
  }
  convolution_param {
    num_output: 1024
    kernel_size: 1
    weight_filler {
      type: "xavier"
    }
    bias_filler {
      type: "constant"
      value: 0
    }
  }
}
layer {
  name: "relu7"
  type: "ReLU"
  bottom: "fc7"
  top: "fc7"
}
layer {
  name: "conv6_1"
  type: "Convolution"
  bottom: "fc7"
  top: "conv6_1"
  param {
    lr_mult: 1
    decay_mult: 1
  }
  param {
    lr_mult: 2
    decay_mult: 0
  }
  convolution_param {
    num_output: 256
    pad: 0
    kernel_size: 1
    stride: 1
    weight_filler {
      type: "xavier"
    }
    bias_filler {
      type: "constant"
      value: 0
    }
  }
}
layer {
  name: "conv6_1_relu"
  type: "ReLU"
  bottom: "conv6_1"
  top: "conv6_1"
}
layer {
  name: "conv6_2"
  type: "Convolution"
  bottom: "conv6_1"
  top: "conv6_2"
  param {
    lr_mult: 1
    decay_mult: 1
  }
  param {
    lr_mult: 2
    decay_mult: 0
  }
  convolution_param {
    num_output: 512
    pad: 1
    kernel_size: 3
    stride: 2
    weight_filler {
      type: "xavier"
    }
    bias_filler {
      type: "constant"
      value: 0
    }
  }
}
layer {
  name: "conv6_2_relu"
  type: "ReLU"
  bottom: "conv6_2"
  top: "conv6_2"
}
layer {
  name: "conv7_1"
  type: "Convolution"
  bottom: "conv6_2"
  top: "conv7_1"
  param {
    lr_mult: 1
    decay_mult: 1
  }
  param {
    lr_mult: 2
    decay_mult: 0
  }
  convolution_param {
    num_output: 128
    pad: 0
    kernel_size: 1
    stride: 1
    weight_filler {
      type: "xavier"
    }
    bias_filler {
      type: "constant"
      value: 0
    }
  }
}
layer {
  name: "conv7_1_relu"
  type: "ReLU"
  bottom: "conv7_1"
  top: "conv7_1"
}
layer {
  name: "conv7_2"
  type: "Convolution"
  bottom: "conv7_1"
  top: "conv7_2"
  param {
    lr_mult: 1
    decay_mult: 1
  }
  param {
    lr_mult: 2
    decay_mult: 0
  }
  convolution_param {
    num_output: 256
    pad: 1
    kernel_size: 3
    stride: 2
    weight_filler {
      type: "xavier"
    }
    bias_filler {
      type: "constant"
      value: 0
    }
  }
}
layer {
  name: "conv7_2_relu"
  type: "ReLU"
  bottom: "conv7_2"
  top: "conv7_2"
}
layer {
  name: "conv8_1"
  type: "Convolution"
  bottom: "conv7_2"
  top: "conv8_1"
  param {
    lr_mult: 1
    decay_mult: 1
  }
  param {
    lr_mult: 2
    decay_mult: 0
  }
  convolution_param {
    num_output: 128
    pad: 0
    kernel_size: 1
    stride: 1
    weight_filler {
      type: "xavier"
    }
    bias_filler {
      type: "constant"
      value: 0
    }
  }
}
layer {
  name: "conv8_1_relu"
  type: "ReLU"
  bottom: "conv8_1"
  top: "conv8_1"
}
layer {
  name: "conv8_2"
  type: "Convolution"
  bottom: "conv8_1"
  top: "conv8_2"
  param {
    lr_mult: 1
    decay_mult: 1
  }
  param {
    lr_mult: 2
    decay_mult: 0
  }
  convolution_param {
    num_output: 256
    pad: 0
    kernel_size: 3
    stride: 1
    weight_filler {
      type: "xavier"
    }
    bias_filler {
      type: "constant"
      value: 0
    }
  }
}
layer {
  name: "conv8_2_relu"
  type: "ReLU"
  bottom: "conv8_2"
  top: "conv8_2"
}
layer {
  name: "conv9_1"
  type: "Convolution"
  bottom: "conv8_2"
  top: "conv9_1"
  param {
    lr_mult: 1
    decay_mult: 1
  }
  param {
    lr_mult: 2
    decay_mult: 0
  }
  convolution_param {
    num_output: 128
    pad: 0
    kernel_size: 1
    stride: 1
    weight_filler {
      type: "xavier"
    }
    bias_filler {
      type: "constant"
      value: 0
    }
  }
}
layer {
  name: "conv9_1_relu"
  type: "ReLU"
  bottom: "conv9_1"
  top: "conv9_1"
}
layer {
  name: "conv9_2"
  type: "Convolution"
  bottom: "conv9_1"
  top: "conv9_2"
  param {
    lr_mult: 1
    decay_mult: 1
  }
  param {
    lr_mult: 2
    decay_mult: 0
  }
  convolution_param {
    num_output: 256
    pad: 0
    kernel_size: 3
    stride: 1
    weight_filler {
      type: "xavier"
    }
    bias_filler {
      type: "constant"
      value: 0
    }
  }
}
layer {
  name: "conv9_2_relu"
  type: "ReLU"
  bottom: "conv9_2"
  top: "conv9_2"
}
layer {
  name: "conv4_3_norm"
  type: "Normalize"
  bottom: "conv4_3"
  top: "conv4_3_norm"
  norm_param {
    across_spatial: false
    scale_filler {
      type: "constant"
      value: 20
    }
    channel_shared: false
  }
}
layer {
  name: "conv4_3_norm_mbox_loc"
  type: "Convolution"
  bottom: "conv4_3_norm"
  top: "conv4_3_norm_mbox_loc"
  param {
    lr_mult: 1
    decay_mult: 1
  }
  param {
    lr_mult: 2
    decay_mult: 0
  }
  convolution_param {
    num_output: 16
    pad: 1
    kernel_size: 3
    stride: 1
    weight_filler {
      type: "xavier"
    }
    bias_filler {
      type: "constant"
      value: 0
    }
  }
}
layer {
  name: "conv4_3_norm_mbox_loc_perm"
  type: "Permute"
  bottom: "conv4_3_norm_mbox_loc"
  top: "conv4_3_norm_mbox_loc_perm"
  permute_param {
    order: 0
    order: 2
    order: 3
    order: 1
  }
}
layer {
  name: "conv4_3_norm_mbox_loc_flat"
  type: "Flatten"
  bottom: "conv4_3_norm_mbox_loc_perm"
  top: "conv4_3_norm_mbox_loc_flat"
  flatten_param {
    axis: 1
  }
}
layer {
  name: "conv4_3_norm_mbox_conf"
  type: "Convolution"
  bottom: "conv4_3_norm"
  top: "conv4_3_norm_mbox_conf"
  param {
    lr_mult: 1
    decay_mult: 1
  }
  param {
    lr_mult: 2
    decay_mult: 0
  }
  convolution_param {
    num_output: 8
    pad: 1
    kernel_size: 3
    stride: 1
    weight_filler {
      type: "xavier"
    }
    bias_filler {
      type: "constant"
      value: 0
    }
  }
}
layer {
  name: "conv4_3_norm_mbox_conf_perm"
  type: "Permute"
  bottom: "conv4_3_norm_mbox_conf"
  top: "conv4_3_norm_mbox_conf_perm"
  permute_param {
    order: 0
    order: 2
    order: 3
    order: 1
  }
}
layer {
  name: "conv4_3_norm_mbox_conf_flat"
  type: "Flatten"
  bottom: "conv4_3_norm_mbox_conf_perm"
  top: "conv4_3_norm_mbox_conf_flat"
  flatten_param {
    axis: 1
  }
}
layer {
  name: "conv4_3_norm_mbox_priorbox"
  type: "PriorBox"
  bottom: "conv4_3_norm"
  bottom: "data"
  top: "conv4_3_norm_mbox_priorbox"
  prior_box_param {
    min_size: 30
    max_size: 60
    aspect_ratio: 2
    flip: true
    clip: false
    variance: 0.1
    variance: 0.1
    variance: 0.2
    variance: 0.2
    step: 8
    offset: 0.5
  }
}
layer {
  name: "fc7_mbox_loc"
  type: "Convolution"
  bottom: "fc7"
  top: "fc7_mbox_loc"
  param {
    lr_mult: 1
    decay_mult: 1
  }
  param {
    lr_mult: 2
    decay_mult: 0
  }
  convolution_param {
    num_output: 24
    pad: 1
    kernel_size: 3
    stride: 1
    weight_filler {
      type: "xavier"
    }
    bias_filler {
      type: "constant"
      value: 0
    }
  }
}
layer {
  name: "fc7_mbox_loc_perm"
  type: "Permute"
  bottom: "fc7_mbox_loc"
  top: "fc7_mbox_loc_perm"
  permute_param {
    order: 0
    order: 2
    order: 3
    order: 1
  }
}
layer {
  name: "fc7_mbox_loc_flat"
  type: "Flatten"
  bottom: "fc7_mbox_loc_perm"
  top: "fc7_mbox_loc_flat"
  flatten_param {
    axis: 1
  }
}
layer {
  name: "fc7_mbox_conf"
  type: "Convolution"
  bottom: "fc7"
  top: "fc7_mbox_conf"
  param {
    lr_mult: 1
    decay_mult: 1
  }
  param {
    lr_mult: 2
    decay_mult: 0
  }
  convolution_param {
    num_output: 12
    pad: 1
    kernel_size: 3
    stride: 1
    weight_filler {
      type: "xavier"
    }
    bias_filler {
      type: "constant"
      value: 0
    }
  }
}
layer {
  name: "fc7_mbox_conf_perm"
  type: "Permute"
  bottom: "fc7_mbox_conf"
  top: "fc7_mbox_conf_perm"
  permute_param {
    order: 0
    order: 2
    order: 3
    order: 1
  }
}
layer {
  name: "fc7_mbox_conf_flat"
  type: "Flatten"
  bottom: "fc7_mbox_conf_perm"
  top: "fc7_mbox_conf_flat"
  flatten_param {
    axis: 1
  }
}
layer {
  name: "fc7_mbox_priorbox"
  type: "PriorBox"
  bottom: "fc7"
  bottom: "data"
  top: "fc7_mbox_priorbox"
  prior_box_param {
    min_size: 60
    max_size: 111
    aspect_ratio: 2
    aspect_ratio: 3
    flip: true
    clip: false
    variance: 0.1
    variance: 0.1
    variance: 0.2
    variance: 0.2
    step: 16
    offset: 0.5
  }
}
layer {
  name: "conv6_2_mbox_loc"
  type: "Convolution"
  bottom: "conv6_2"
  top: "conv6_2_mbox_loc"
  param {
    lr_mult: 1
    decay_mult: 1
  }
  param {
    lr_mult: 2
    decay_mult: 0
  }
  convolution_param {
    num_output: 24
    pad: 1
    kernel_size: 3
    stride: 1
    weight_filler {
      type: "xavier"
    }
    bias_filler {
      type: "constant"
      value: 0
    }
  }
}
layer {
  name: "conv6_2_mbox_loc_perm"
  type: "Permute"
  bottom: "conv6_2_mbox_loc"
  top: "conv6_2_mbox_loc_perm"
  permute_param {
    order: 0
    order: 2
    order: 3
    order: 1
  }
}
layer {
  name: "conv6_2_mbox_loc_flat"
  type: "Flatten"
  bottom: "conv6_2_mbox_loc_perm"
  top: "conv6_2_mbox_loc_flat"
  flatten_param {
    axis: 1
  }
}
layer {
  name: "conv6_2_mbox_conf"
  type: "Convolution"
  bottom: "conv6_2"
  top: "conv6_2_mbox_conf"
  param {
    lr_mult: 1
    decay_mult: 1
  }
  param {
    lr_mult: 2
    decay_mult: 0
  }
  convolution_param {
    num_output: 12
    pad: 1
    kernel_size: 3
    stride: 1
    weight_filler {
      type: "xavier"
    }
    bias_filler {
      type: "constant"
      value: 0
    }
  }
}
layer {
  name: "conv6_2_mbox_conf_perm"
  type: "Permute"
  bottom: "conv6_2_mbox_conf"
  top: "conv6_2_mbox_conf_perm"
  permute_param {
    order: 0
    order: 2
    order: 3
    order: 1
  }
}
layer {
  name: "conv6_2_mbox_conf_flat"
  type: "Flatten"
  bottom: "conv6_2_mbox_conf_perm"
  top: "conv6_2_mbox_conf_flat"
  flatten_param {
    axis: 1
  }
}
layer {
  name: "conv6_2_mbox_priorbox"
  type: "PriorBox"
  bottom: "conv6_2"
  bottom: "data"
  top: "conv6_2_mbox_priorbox"
  prior_box_param {
    min_size: 111
    max_size: 162
    aspect_ratio: 2
    aspect_ratio: 3
    flip: true
    clip: false
    variance: 0.1
    variance: 0.1
    variance: 0.2
    variance: 0.2
    step: 32
    offset: 0.5
  }
}
layer {
  name: "conv7_2_mbox_loc"
  type: "Convolution"
  bottom: "conv7_2"
  top: "conv7_2_mbox_loc"
  param {
    lr_mult: 1
    decay_mult: 1
  }
  param {
    lr_mult: 2
    decay_mult: 0
  }
  convolution_param {
    num_output: 24
    pad: 1
    kernel_size: 3
    stride: 1
    weight_filler {
      type: "xavier"
    }
    bias_filler {
      type: "constant"
      value: 0
    }
  }
}
layer {
  name: "conv7_2_mbox_loc_perm"
  type: "Permute"
  bottom: "conv7_2_mbox_loc"
  top: "conv7_2_mbox_loc_perm"
  permute_param {
    order: 0
    order: 2
    order: 3
    order: 1
  }
}
layer {
  name: "conv7_2_mbox_loc_flat"
  type: "Flatten"
  bottom: "conv7_2_mbox_loc_perm"
  top: "conv7_2_mbox_loc_flat"
  flatten_param {
    axis: 1
  }
}
layer {
  name: "conv7_2_mbox_conf"
  type: "Convolution"
  bottom: "conv7_2"
  top: "conv7_2_mbox_conf"
  param {
    lr_mult: 1
    decay_mult: 1
  }
  param {
    lr_mult: 2
    decay_mult: 0
  }
  convolution_param {
    num_output: 12
    pad: 1
    kernel_size: 3
    stride: 1
    weight_filler {
      type: "xavier"
    }
    bias_filler {
      type: "constant"
      value: 0
    }
  }
}
layer {
  name: "conv7_2_mbox_conf_perm"
  type: "Permute"
  bottom: "conv7_2_mbox_conf"
  top: "conv7_2_mbox_conf_perm"
  permute_param {
    order: 0
    order: 2
    order: 3
    order: 1
  }
}
layer {
  name: "conv7_2_mbox_conf_flat"
  type: "Flatten"
  bottom: "conv7_2_mbox_conf_perm"
  top: "conv7_2_mbox_conf_flat"
  flatten_param {
    axis: 1
  }
}
layer {
  name: "conv7_2_mbox_priorbox"
  type: "PriorBox"
  bottom: "conv7_2"
  bottom: "data"
  top: "conv7_2_mbox_priorbox"
  prior_box_param {
    min_size: 162
    max_size: 213
    aspect_ratio: 2
    aspect_ratio: 3
    flip: true
    clip: false
    variance: 0.1
    variance: 0.1
    variance: 0.2
    variance: 0.2
    step: 64
    offset: 0.5
  }
}
layer {
  name: "conv8_2_mbox_loc"
  type: "Convolution"
  bottom: "conv8_2"
  top: "conv8_2_mbox_loc"
  param {
    lr_mult: 1
    decay_mult: 1
  }
  param {
    lr_mult: 2
    decay_mult: 0
  }
  convolution_param {
    num_output: 16
    pad: 1
    kernel_size: 3
    stride: 1
    weight_filler {
      type: "xavier"
    }
    bias_filler {
      type: "constant"
      value: 0
    }
  }
}
layer {
  name: "conv8_2_mbox_loc_perm"
  type: "Permute"
  bottom: "conv8_2_mbox_loc"
  top: "conv8_2_mbox_loc_perm"
  permute_param {
    order: 0
    order: 2
    order: 3
    order: 1
  }
}
layer {
  name: "conv8_2_mbox_loc_flat"
  type: "Flatten"
  bottom: "conv8_2_mbox_loc_perm"
  top: "conv8_2_mbox_loc_flat"
  flatten_param {
    axis: 1
  }
}
layer {
  name: "conv8_2_mbox_conf"
  type: "Convolution"
  bottom: "conv8_2"
  top: "conv8_2_mbox_conf"
  param {
    lr_mult: 1
    decay_mult: 1
  }
  param {
    lr_mult: 2
    decay_mult: 0
  }
  convolution_param {
    num_output: 8
    pad: 1
    kernel_size: 3
    stride: 1
    weight_filler {
      type: "xavier"
    }
    bias_filler {
      type: "constant"
      value: 0
    }
  }
}
layer {
  name: "conv8_2_mbox_conf_perm"
  type: "Permute"
  bottom: "conv8_2_mbox_conf"
  top: "conv8_2_mbox_conf_perm"
  permute_param {
    order: 0
    order: 2
    order: 3
    order: 1
  }
}
layer {
  name: "conv8_2_mbox_conf_flat"
  type: "Flatten"
  bottom: "conv8_2_mbox_conf_perm"
  top: "conv8_2_mbox_conf_flat"
  flatten_param {
    axis: 1
  }
}
layer {
  name: "conv8_2_mbox_priorbox"
  type: "PriorBox"
  bottom: "conv8_2"
  bottom: "data"
  top: "conv8_2_mbox_priorbox"
  prior_box_param {
    min_size: 213
    max_size: 264
    aspect_ratio: 2
    flip: true
    clip: false
    variance: 0.1
    variance: 0.1
    variance: 0.2
    variance: 0.2
    step: 100
    offset: 0.5
  }
}
layer {
  name: "conv9_2_mbox_loc"
  type: "Convolution"
  bottom: "conv9_2"
  top: "conv9_2_mbox_loc"
  param {
    lr_mult: 1
    decay_mult: 1
  }
  param {
    lr_mult: 2
    decay_mult: 0
  }
  convolution_param {
    num_output: 16
    pad: 1
    kernel_size: 3
    stride: 1
    weight_filler {
      type: "xavier"
    }
    bias_filler {
      type: "constant"
      value: 0
    }
  }
}
layer {
  name: "conv9_2_mbox_loc_perm"
  type: "Permute"
  bottom: "conv9_2_mbox_loc"
  top: "conv9_2_mbox_loc_perm"
  permute_param {
    order: 0
    order: 2
    order: 3
    order: 1
  }
}
layer {
  name: "conv9_2_mbox_loc_flat"
  type: "Flatten"
  bottom: "conv9_2_mbox_loc_perm"
  top: "conv9_2_mbox_loc_flat"
  flatten_param {
    axis: 1
  }
}
layer {
  name: "conv9_2_mbox_conf"
  type: "Convolution"
  bottom: "conv9_2"
  top: "conv9_2_mbox_conf"
  param {
    lr_mult: 1
    decay_mult: 1
  }
  param {
    lr_mult: 2
    decay_mult: 0
  }
  convolution_param {
    num_output: 8
    pad: 1
    kernel_size: 3
    stride: 1
    weight_filler {
      type: "xavier"
    }
    bias_filler {
      type: "constant"
      value: 0
    }
  }
}
layer {
  name: "conv9_2_mbox_conf_perm"
  type: "Permute"
  bottom: "conv9_2_mbox_conf"
  top: "conv9_2_mbox_conf_perm"
  permute_param {
    order: 0
    order: 2
    order: 3
    order: 1
  }
}
layer {
  name: "conv9_2_mbox_conf_flat"
  type: "Flatten"
  bottom: "conv9_2_mbox_conf_perm"
  top: "conv9_2_mbox_conf_flat"
  flatten_param {
    axis: 1
  }
}
layer {
  name: "conv9_2_mbox_priorbox"
  type: "PriorBox"
  bottom: "conv9_2"
  bottom: "data"
  top: "conv9_2_mbox_priorbox"
  prior_box_param {
    min_size: 264
    max_size: 315
    aspect_ratio: 2
    flip: true
    clip: false
    variance: 0.1
    variance: 0.1
    variance: 0.2
    variance: 0.2
    step: 300
    offset: 0.5
  }
}
layer {
  name: "mbox_loc"
  type: "Concat"
  bottom: "conv4_3_norm_mbox_loc_flat"
  bottom: "fc7_mbox_loc_flat"
  bottom: "conv6_2_mbox_loc_flat"
  bottom: "conv7_2_mbox_loc_flat"
  bottom: "conv8_2_mbox_loc_flat"
  bottom: "conv9_2_mbox_loc_flat"
  top: "mbox_loc"
  concat_param {
    axis: 1
  }
}
layer {
  name: "mbox_conf"
  type: "Concat"
  bottom: "conv4_3_norm_mbox_conf_flat"
  bottom: "fc7_mbox_conf_flat"
  bottom: "conv6_2_mbox_conf_flat"
  bottom: "conv7_2_mbox_conf_flat"
  bottom: "conv8_2_mbox_conf_flat"
  bottom: "conv9_2_mbox_conf_flat"
  top: "mbox_conf"
  concat_param {
    axis: 1
  }
}
layer {
  name: "mbox_priorbox"
  type: "Concat"
  bottom: "conv4_3_norm_mbox_priorbox"
  bottom: "fc7_mbox_priorbox"
  bottom: "conv6_2_mbox_priorbox"
  bottom: "conv7_2_mbox_priorbox"
  bottom: "conv8_2_mbox_priorbox"
  bottom: "conv9_2_mbox_priorbox"
  top: "mbox_priorbox"
  concat_param {
    axis: 2
  }
}
layer {
  name: "mbox_loss"
  type: "MultiBoxLoss"
  bottom: "mbox_loc"
  bottom: "mbox_conf"
  bottom: "mbox_priorbox"
  bottom: "label"
  top: "mbox_loss"
  include {
    phase: TRAIN
  }
  propagate_down: true
  propagate_down: true
  propagate_down: false
  propagate_down: false
  loss_param {
    normalization: VALID
  }
  multibox_loss_param {
    loc_loss_type: SMOOTH_L1
    conf_loss_type: SOFTMAX
    loc_weight: 1
    num_classes: 2
    share_location: true
    match_type: PER_PREDICTION
    overlap_threshold: 0.5
    use_prior_for_matching: true
    background_label_id: 0
    use_difficult_gt: true
    neg_pos_ratio: 3
    neg_overlap: 0.5
    code_type: CENTER_SIZE
    ignore_cross_boundary_bbox: false
    mining_type: MAX_NEGATIVE
  }
}
I0510 09:23:20.757416 23939 layer_factory.hpp:77] Creating layer data
I0510 09:23:20.757530 23939 net.cpp:100] Creating Layer data
I0510 09:23:20.757540 23939 net.cpp:408] data -> data
I0510 09:23:20.757563 23939 net.cpp:408] data -> label
I0510 09:23:20.757963 23954 db_lmdb.cpp:35] Opened lmdb examples/VOC0712/VOC0712_trainval_lmdb
I0510 09:23:20.770046 23939 annotated_data_layer.cpp:62] output data size: 16,3,300,300
I0510 09:23:20.789271 23939 net.cpp:150] Setting up data
I0510 09:23:20.789290 23939 net.cpp:157] Top shape: 16 3 300 300 (4320000)
I0510 09:23:20.789294 23939 net.cpp:157] Top shape: 1 1 1 8 (8)
I0510 09:23:20.789295 23939 net.cpp:165] Memory required for data: 17280032
I0510 09:23:20.789314 23939 layer_factory.hpp:77] Creating layer data_data_0_split
I0510 09:23:20.789324 23939 net.cpp:100] Creating Layer data_data_0_split
I0510 09:23:20.789327 23939 net.cpp:434] data_data_0_split <- data
I0510 09:23:20.789337 23939 net.cpp:408] data_data_0_split -> data_data_0_split_0
I0510 09:23:20.789346 23939 net.cpp:408] data_data_0_split -> data_data_0_split_1
I0510 09:23:20.789350 23939 net.cpp:408] data_data_0_split -> data_data_0_split_2
I0510 09:23:20.789356 23939 net.cpp:408] data_data_0_split -> data_data_0_split_3
I0510 09:23:20.789361 23939 net.cpp:408] data_data_0_split -> data_data_0_split_4
I0510 09:23:20.789364 23939 net.cpp:408] data_data_0_split -> data_data_0_split_5
I0510 09:23:20.789368 23939 net.cpp:408] data_data_0_split -> data_data_0_split_6
I0510 09:23:20.789429 23939 net.cpp:150] Setting up data_data_0_split
I0510 09:23:20.789434 23939 net.cpp:157] Top shape: 16 3 300 300 (4320000)
I0510 09:23:20.789436 23939 net.cpp:157] Top shape: 16 3 300 300 (4320000)
I0510 09:23:20.789439 23939 net.cpp:157] Top shape: 16 3 300 300 (4320000)
I0510 09:23:20.789441 23939 net.cpp:157] Top shape: 16 3 300 300 (4320000)
I0510 09:23:20.789443 23939 net.cpp:157] Top shape: 16 3 300 300 (4320000)
I0510 09:23:20.789445 23939 net.cpp:157] Top shape: 16 3 300 300 (4320000)
I0510 09:23:20.789449 23939 net.cpp:157] Top shape: 16 3 300 300 (4320000)
I0510 09:23:20.789451 23939 net.cpp:165] Memory required for data: 138240032
I0510 09:23:20.789453 23939 layer_factory.hpp:77] Creating layer conv1_1
I0510 09:23:20.789464 23939 net.cpp:100] Creating Layer conv1_1
I0510 09:23:20.789466 23939 net.cpp:434] conv1_1 <- data_data_0_split_0
I0510 09:23:20.789471 23939 net.cpp:408] conv1_1 -> conv1_1
I0510 09:23:21.117386 23939 net.cpp:150] Setting up conv1_1
I0510 09:23:21.117403 23939 net.cpp:157] Top shape: 16 64 300 300 (92160000)
I0510 09:23:21.117406 23939 net.cpp:165] Memory required for data: 506880032
I0510 09:23:21.117421 23939 layer_factory.hpp:77] Creating layer relu1_1
I0510 09:23:21.117429 23939 net.cpp:100] Creating Layer relu1_1
I0510 09:23:21.117431 23939 net.cpp:434] relu1_1 <- conv1_1
I0510 09:23:21.117435 23939 net.cpp:395] relu1_1 -> conv1_1 (in-place)
I0510 09:23:21.117564 23939 net.cpp:150] Setting up relu1_1
I0510 09:23:21.117570 23939 net.cpp:157] Top shape: 16 64 300 300 (92160000)
I0510 09:23:21.117571 23939 net.cpp:165] Memory required for data: 875520032
I0510 09:23:21.117573 23939 layer_factory.hpp:77] Creating layer conv1_2
I0510 09:23:21.117583 23939 net.cpp:100] Creating Layer conv1_2
I0510 09:23:21.117584 23939 net.cpp:434] conv1_2 <- conv1_1
I0510 09:23:21.117588 23939 net.cpp:408] conv1_2 -> conv1_2
I0510 09:23:21.118988 23939 net.cpp:150] Setting up conv1_2
I0510 09:23:21.118996 23939 net.cpp:157] Top shape: 16 64 300 300 (92160000)
I0510 09:23:21.118999 23939 net.cpp:165] Memory required for data: 1244160032
I0510 09:23:21.119004 23939 layer_factory.hpp:77] Creating layer relu1_2
I0510 09:23:21.119009 23939 net.cpp:100] Creating Layer relu1_2
I0510 09:23:21.119011 23939 net.cpp:434] relu1_2 <- conv1_2
I0510 09:23:21.119014 23939 net.cpp:395] relu1_2 -> conv1_2 (in-place)
I0510 09:23:21.119122 23939 net.cpp:150] Setting up relu1_2
I0510 09:23:21.119127 23939 net.cpp:157] Top shape: 16 64 300 300 (92160000)
I0510 09:23:21.119129 23939 net.cpp:165] Memory required for data: 1612800032
I0510 09:23:21.119132 23939 layer_factory.hpp:77] Creating layer pool1
I0510 09:23:21.119134 23939 net.cpp:100] Creating Layer pool1
I0510 09:23:21.119137 23939 net.cpp:434] pool1 <- conv1_2
I0510 09:23:21.119140 23939 net.cpp:408] pool1 -> pool1
I0510 09:23:21.119171 23939 net.cpp:150] Setting up pool1
I0510 09:23:21.119175 23939 net.cpp:157] Top shape: 16 64 150 150 (23040000)
I0510 09:23:21.119176 23939 net.cpp:165] Memory required for data: 1704960032
I0510 09:23:21.119179 23939 layer_factory.hpp:77] Creating layer conv2_1
I0510 09:23:21.119184 23939 net.cpp:100] Creating Layer conv2_1
I0510 09:23:21.119185 23939 net.cpp:434] conv2_1 <- pool1
I0510 09:23:21.119189 23939 net.cpp:408] conv2_1 -> conv2_1
I0510 09:23:21.120133 23939 net.cpp:150] Setting up conv2_1
I0510 09:23:21.120141 23939 net.cpp:157] Top shape: 16 128 150 150 (46080000)
I0510 09:23:21.120143 23939 net.cpp:165] Memory required for data: 1889280032
I0510 09:23:21.120149 23939 layer_factory.hpp:77] Creating layer relu2_1
I0510 09:23:21.120154 23939 net.cpp:100] Creating Layer relu2_1
I0510 09:23:21.120156 23939 net.cpp:434] relu2_1 <- conv2_1
I0510 09:23:21.120158 23939 net.cpp:395] relu2_1 -> conv2_1 (in-place)
I0510 09:23:21.120492 23939 net.cpp:150] Setting up relu2_1
I0510 09:23:21.120499 23939 net.cpp:157] Top shape: 16 128 150 150 (46080000)
I0510 09:23:21.120501 23939 net.cpp:165] Memory required for data: 2073600032
I0510 09:23:21.120503 23939 layer_factory.hpp:77] Creating layer conv2_2
I0510 09:23:21.120508 23939 net.cpp:100] Creating Layer conv2_2
I0510 09:23:21.120512 23939 net.cpp:434] conv2_2 <- conv2_1
I0510 09:23:21.120514 23939 net.cpp:408] conv2_2 -> conv2_2
I0510 09:23:21.121919 23939 net.cpp:150] Setting up conv2_2
I0510 09:23:21.121927 23939 net.cpp:157] Top shape: 16 128 150 150 (46080000)
I0510 09:23:21.121929 23939 net.cpp:165] Memory required for data: 2257920032
I0510 09:23:21.121933 23939 layer_factory.hpp:77] Creating layer relu2_2
I0510 09:23:21.121937 23939 net.cpp:100] Creating Layer relu2_2
I0510 09:23:21.121938 23939 net.cpp:434] relu2_2 <- conv2_2
I0510 09:23:21.121942 23939 net.cpp:395] relu2_2 -> conv2_2 (in-place)
I0510 09:23:21.122054 23939 net.cpp:150] Setting up relu2_2
I0510 09:23:21.122059 23939 net.cpp:157] Top shape: 16 128 150 150 (46080000)
I0510 09:23:21.122061 23939 net.cpp:165] Memory required for data: 2442240032
I0510 09:23:21.122063 23939 layer_factory.hpp:77] Creating layer pool2
I0510 09:23:21.122067 23939 net.cpp:100] Creating Layer pool2
I0510 09:23:21.122068 23939 net.cpp:434] pool2 <- conv2_2
I0510 09:23:21.122071 23939 net.cpp:408] pool2 -> pool2
I0510 09:23:21.122097 23939 net.cpp:150] Setting up pool2
I0510 09:23:21.122099 23939 net.cpp:157] Top shape: 16 128 75 75 (11520000)
I0510 09:23:21.122102 23939 net.cpp:165] Memory required for data: 2488320032
I0510 09:23:21.122103 23939 layer_factory.hpp:77] Creating layer conv3_1
I0510 09:23:21.122108 23939 net.cpp:100] Creating Layer conv3_1
I0510 09:23:21.122110 23939 net.cpp:434] conv3_1 <- pool2
I0510 09:23:21.122113 23939 net.cpp:408] conv3_1 -> conv3_1
I0510 09:23:21.125023 23939 net.cpp:150] Setting up conv3_1
I0510 09:23:21.125036 23939 net.cpp:157] Top shape: 16 256 75 75 (23040000)
I0510 09:23:21.125037 23939 net.cpp:165] Memory required for data: 2580480032
I0510 09:23:21.125046 23939 layer_factory.hpp:77] Creating layer relu3_1
I0510 09:23:21.125051 23939 net.cpp:100] Creating Layer relu3_1
I0510 09:23:21.125053 23939 net.cpp:434] relu3_1 <- conv3_1
I0510 09:23:21.125056 23939 net.cpp:395] relu3_1 -> conv3_1 (in-place)
I0510 09:23:21.125176 23939 net.cpp:150] Setting up relu3_1
I0510 09:23:21.125181 23939 net.cpp:157] Top shape: 16 256 75 75 (23040000)
I0510 09:23:21.125183 23939 net.cpp:165] Memory required for data: 2672640032
I0510 09:23:21.125185 23939 layer_factory.hpp:77] Creating layer conv3_2
I0510 09:23:21.125191 23939 net.cpp:100] Creating Layer conv3_2
I0510 09:23:21.125193 23939 net.cpp:434] conv3_2 <- conv3_1
I0510 09:23:21.125196 23939 net.cpp:408] conv3_2 -> conv3_2
I0510 09:23:21.128579 23939 net.cpp:150] Setting up conv3_2
I0510 09:23:21.128588 23939 net.cpp:157] Top shape: 16 256 75 75 (23040000)
I0510 09:23:21.128590 23939 net.cpp:165] Memory required for data: 2764800032
I0510 09:23:21.128595 23939 layer_factory.hpp:77] Creating layer relu3_2
I0510 09:23:21.128599 23939 net.cpp:100] Creating Layer relu3_2
I0510 09:23:21.128602 23939 net.cpp:434] relu3_2 <- conv3_2
I0510 09:23:21.128604 23939 net.cpp:395] relu3_2 -> conv3_2 (in-place)
I0510 09:23:21.128943 23939 net.cpp:150] Setting up relu3_2
I0510 09:23:21.128952 23939 net.cpp:157] Top shape: 16 256 75 75 (23040000)
I0510 09:23:21.128953 23939 net.cpp:165] Memory required for data: 2856960032
I0510 09:23:21.128955 23939 layer_factory.hpp:77] Creating layer conv3_3
I0510 09:23:21.128976 23939 net.cpp:100] Creating Layer conv3_3
I0510 09:23:21.128980 23939 net.cpp:434] conv3_3 <- conv3_2
I0510 09:23:21.128985 23939 net.cpp:408] conv3_3 -> conv3_3
I0510 09:23:21.133036 23939 net.cpp:150] Setting up conv3_3
I0510 09:23:21.133052 23939 net.cpp:157] Top shape: 16 256 75 75 (23040000)
I0510 09:23:21.133055 23939 net.cpp:165] Memory required for data: 2949120032
I0510 09:23:21.133061 23939 layer_factory.hpp:77] Creating layer relu3_3
I0510 09:23:21.133066 23939 net.cpp:100] Creating Layer relu3_3
I0510 09:23:21.133069 23939 net.cpp:434] relu3_3 <- conv3_3
I0510 09:23:21.133074 23939 net.cpp:395] relu3_3 -> conv3_3 (in-place)
I0510 09:23:21.133190 23939 net.cpp:150] Setting up relu3_3
I0510 09:23:21.133195 23939 net.cpp:157] Top shape: 16 256 75 75 (23040000)
I0510 09:23:21.133198 23939 net.cpp:165] Memory required for data: 3041280032
I0510 09:23:21.133199 23939 layer_factory.hpp:77] Creating layer pool3
I0510 09:23:21.133203 23939 net.cpp:100] Creating Layer pool3
I0510 09:23:21.133205 23939 net.cpp:434] pool3 <- conv3_3
I0510 09:23:21.133208 23939 net.cpp:408] pool3 -> pool3
I0510 09:23:21.133235 23939 net.cpp:150] Setting up pool3
I0510 09:23:21.133239 23939 net.cpp:157] Top shape: 16 256 38 38 (5914624)
I0510 09:23:21.133240 23939 net.cpp:165] Memory required for data: 3064938528
I0510 09:23:21.133242 23939 layer_factory.hpp:77] Creating layer conv4_1
I0510 09:23:21.133249 23939 net.cpp:100] Creating Layer conv4_1
I0510 09:23:21.133250 23939 net.cpp:434] conv4_1 <- pool3
I0510 09:23:21.133255 23939 net.cpp:408] conv4_1 -> conv4_1
I0510 09:23:21.140460 23939 net.cpp:150] Setting up conv4_1
I0510 09:23:21.140477 23939 net.cpp:157] Top shape: 16 512 38 38 (11829248)
I0510 09:23:21.140480 23939 net.cpp:165] Memory required for data: 3112255520
I0510 09:23:21.140486 23939 layer_factory.hpp:77] Creating layer relu4_1
I0510 09:23:21.140491 23939 net.cpp:100] Creating Layer relu4_1
I0510 09:23:21.140494 23939 net.cpp:434] relu4_1 <- conv4_1
I0510 09:23:21.140497 23939 net.cpp:395] relu4_1 -> conv4_1 (in-place)
I0510 09:23:21.140615 23939 net.cpp:150] Setting up relu4_1
I0510 09:23:21.140621 23939 net.cpp:157] Top shape: 16 512 38 38 (11829248)
I0510 09:23:21.140622 23939 net.cpp:165] Memory required for data: 3159572512
I0510 09:23:21.140625 23939 layer_factory.hpp:77] Creating layer conv4_2
I0510 09:23:21.140631 23939 net.cpp:100] Creating Layer conv4_2
I0510 09:23:21.140633 23939 net.cpp:434] conv4_2 <- conv4_1
I0510 09:23:21.140636 23939 net.cpp:408] conv4_2 -> conv4_2
I0510 09:23:21.151787 23939 net.cpp:150] Setting up conv4_2
I0510 09:23:21.151803 23939 net.cpp:157] Top shape: 16 512 38 38 (11829248)
I0510 09:23:21.151804 23939 net.cpp:165] Memory required for data: 3206889504
I0510 09:23:21.151814 23939 layer_factory.hpp:77] Creating layer relu4_2
I0510 09:23:21.151820 23939 net.cpp:100] Creating Layer relu4_2
I0510 09:23:21.151823 23939 net.cpp:434] relu4_2 <- conv4_2
I0510 09:23:21.151826 23939 net.cpp:395] relu4_2 -> conv4_2 (in-place)
I0510 09:23:21.151939 23939 net.cpp:150] Setting up relu4_2
I0510 09:23:21.151944 23939 net.cpp:157] Top shape: 16 512 38 38 (11829248)
I0510 09:23:21.151947 23939 net.cpp:165] Memory required for data: 3254206496
I0510 09:23:21.151948 23939 layer_factory.hpp:77] Creating layer conv4_3
I0510 09:23:21.151954 23939 net.cpp:100] Creating Layer conv4_3
I0510 09:23:21.151957 23939 net.cpp:434] conv4_3 <- conv4_2
I0510 09:23:21.151959 23939 net.cpp:408] conv4_3 -> conv4_3
I0510 09:23:21.162364 23939 net.cpp:150] Setting up conv4_3
I0510 09:23:21.162384 23939 net.cpp:157] Top shape: 16 512 38 38 (11829248)
I0510 09:23:21.162385 23939 net.cpp:165] Memory required for data: 3301523488
I0510 09:23:21.162391 23939 layer_factory.hpp:77] Creating layer relu4_3
I0510 09:23:21.162397 23939 net.cpp:100] Creating Layer relu4_3
I0510 09:23:21.162400 23939 net.cpp:434] relu4_3 <- conv4_3
I0510 09:23:21.162402 23939 net.cpp:395] relu4_3 -> conv4_3 (in-place)
I0510 09:23:21.162780 23939 net.cpp:150] Setting up relu4_3
I0510 09:23:21.162787 23939 net.cpp:157] Top shape: 16 512 38 38 (11829248)
I0510 09:23:21.162801 23939 net.cpp:165] Memory required for data: 3348840480
I0510 09:23:21.162802 23939 layer_factory.hpp:77] Creating layer conv4_3_relu4_3_0_split
I0510 09:23:21.162806 23939 net.cpp:100] Creating Layer conv4_3_relu4_3_0_split
I0510 09:23:21.162809 23939 net.cpp:434] conv4_3_relu4_3_0_split <- conv4_3
I0510 09:23:21.162812 23939 net.cpp:408] conv4_3_relu4_3_0_split -> conv4_3_relu4_3_0_split_0
I0510 09:23:21.162817 23939 net.cpp:408] conv4_3_relu4_3_0_split -> conv4_3_relu4_3_0_split_1
I0510 09:23:21.162842 23939 net.cpp:150] Setting up conv4_3_relu4_3_0_split
I0510 09:23:21.162847 23939 net.cpp:157] Top shape: 16 512 38 38 (11829248)
I0510 09:23:21.162849 23939 net.cpp:157] Top shape: 16 512 38 38 (11829248)
I0510 09:23:21.162852 23939 net.cpp:165] Memory required for data: 3443474464
I0510 09:23:21.162853 23939 layer_factory.hpp:77] Creating layer pool4
I0510 09:23:21.162856 23939 net.cpp:100] Creating Layer pool4
I0510 09:23:21.162858 23939 net.cpp:434] pool4 <- conv4_3_relu4_3_0_split_0
I0510 09:23:21.162863 23939 net.cpp:408] pool4 -> pool4
I0510 09:23:21.162884 23939 net.cpp:150] Setting up pool4
I0510 09:23:21.162888 23939 net.cpp:157] Top shape: 16 512 19 19 (2957312)
I0510 09:23:21.162890 23939 net.cpp:165] Memory required for data: 3455303712
I0510 09:23:21.162891 23939 layer_factory.hpp:77] Creating layer conv5_1
I0510 09:23:21.162899 23939 net.cpp:100] Creating Layer conv5_1
I0510 09:23:21.162901 23939 net.cpp:434] conv5_1 <- pool4
I0510 09:23:21.162905 23939 net.cpp:408] conv5_1 -> conv5_1
I0510 09:23:21.173393 23939 net.cpp:150] Setting up conv5_1
I0510 09:23:21.173409 23939 net.cpp:157] Top shape: 16 512 19 19 (2957312)
I0510 09:23:21.173411 23939 net.cpp:165] Memory required for data: 3467132960
I0510 09:23:21.173419 23939 layer_factory.hpp:77] Creating layer relu5_1
I0510 09:23:21.173425 23939 net.cpp:100] Creating Layer relu5_1
I0510 09:23:21.173429 23939 net.cpp:434] relu5_1 <- conv5_1
I0510 09:23:21.173432 23939 net.cpp:395] relu5_1 -> conv5_1 (in-place)
I0510 09:23:21.173547 23939 net.cpp:150] Setting up relu5_1
I0510 09:23:21.173552 23939 net.cpp:157] Top shape: 16 512 19 19 (2957312)
I0510 09:23:21.173554 23939 net.cpp:165] Memory required for data: 3478962208
I0510 09:23:21.173557 23939 layer_factory.hpp:77] Creating layer conv5_2
I0510 09:23:21.173564 23939 net.cpp:100] Creating Layer conv5_2
I0510 09:23:21.173566 23939 net.cpp:434] conv5_2 <- conv5_1
I0510 09:23:21.173570 23939 net.cpp:408] conv5_2 -> conv5_2
I0510 09:23:21.184157 23939 net.cpp:150] Setting up conv5_2
I0510 09:23:21.184175 23939 net.cpp:157] Top shape: 16 512 19 19 (2957312)
I0510 09:23:21.184178 23939 net.cpp:165] Memory required for data: 3490791456
I0510 09:23:21.184185 23939 layer_factory.hpp:77] Creating layer relu5_2
I0510 09:23:21.184190 23939 net.cpp:100] Creating Layer relu5_2
I0510 09:23:21.184193 23939 net.cpp:434] relu5_2 <- conv5_2
I0510 09:23:21.184197 23939 net.cpp:395] relu5_2 -> conv5_2 (in-place)
I0510 09:23:21.184306 23939 net.cpp:150] Setting up relu5_2
I0510 09:23:21.184311 23939 net.cpp:157] Top shape: 16 512 19 19 (2957312)
I0510 09:23:21.184314 23939 net.cpp:165] Memory required for data: 3502620704
I0510 09:23:21.184315 23939 layer_factory.hpp:77] Creating layer conv5_3
I0510 09:23:21.184322 23939 net.cpp:100] Creating Layer conv5_3
I0510 09:23:21.184324 23939 net.cpp:434] conv5_3 <- conv5_2
I0510 09:23:21.184327 23939 net.cpp:408] conv5_3 -> conv5_3
I0510 09:23:21.194535 23939 net.cpp:150] Setting up conv5_3
I0510 09:23:21.194551 23939 net.cpp:157] Top shape: 16 512 19 19 (2957312)
I0510 09:23:21.194553 23939 net.cpp:165] Memory required for data: 3514449952
I0510 09:23:21.194561 23939 layer_factory.hpp:77] Creating layer relu5_3
I0510 09:23:21.194569 23939 net.cpp:100] Creating Layer relu5_3
I0510 09:23:21.194571 23939 net.cpp:434] relu5_3 <- conv5_3
I0510 09:23:21.194576 23939 net.cpp:395] relu5_3 -> conv5_3 (in-place)
I0510 09:23:21.194963 23939 net.cpp:150] Setting up relu5_3
I0510 09:23:21.194972 23939 net.cpp:157] Top shape: 16 512 19 19 (2957312)
I0510 09:23:21.194984 23939 net.cpp:165] Memory required for data: 3526279200
I0510 09:23:21.194986 23939 layer_factory.hpp:77] Creating layer pool5
I0510 09:23:21.194991 23939 net.cpp:100] Creating Layer pool5
I0510 09:23:21.194993 23939 net.cpp:434] pool5 <- conv5_3
I0510 09:23:21.194996 23939 net.cpp:408] pool5 -> pool5
I0510 09:23:21.195026 23939 net.cpp:150] Setting up pool5
I0510 09:23:21.195031 23939 net.cpp:157] Top shape: 16 512 19 19 (2957312)
I0510 09:23:21.195034 23939 net.cpp:165] Memory required for data: 3538108448
I0510 09:23:21.195034 23939 layer_factory.hpp:77] Creating layer fc6
I0510 09:23:21.195041 23939 net.cpp:100] Creating Layer fc6
I0510 09:23:21.195044 23939 net.cpp:434] fc6 <- pool5
I0510 09:23:21.195046 23939 net.cpp:408] fc6 -> fc6
I0510 09:23:21.214457 23939 net.cpp:150] Setting up fc6
I0510 09:23:21.214474 23939 net.cpp:157] Top shape: 16 1024 19 19 (5914624)
I0510 09:23:21.214478 23939 net.cpp:165] Memory required for data: 3561766944
I0510 09:23:21.214483 23939 layer_factory.hpp:77] Creating layer relu6
I0510 09:23:21.214488 23939 net.cpp:100] Creating Layer relu6
I0510 09:23:21.214491 23939 net.cpp:434] relu6 <- fc6
I0510 09:23:21.214495 23939 net.cpp:395] relu6 -> fc6 (in-place)
I0510 09:23:21.214649 23939 net.cpp:150] Setting up relu6
I0510 09:23:21.214654 23939 net.cpp:157] Top shape: 16 1024 19 19 (5914624)
I0510 09:23:21.214656 23939 net.cpp:165] Memory required for data: 3585425440
I0510 09:23:21.214658 23939 layer_factory.hpp:77] Creating layer fc7
I0510 09:23:21.214665 23939 net.cpp:100] Creating Layer fc7
I0510 09:23:21.214666 23939 net.cpp:434] fc7 <- fc6
I0510 09:23:21.214670 23939 net.cpp:408] fc7 -> fc7
I0510 09:23:21.219905 23939 net.cpp:150] Setting up fc7
I0510 09:23:21.219920 23939 net.cpp:157] Top shape: 16 1024 19 19 (5914624)
I0510 09:23:21.219923 23939 net.cpp:165] Memory required for data: 3609083936
I0510 09:23:21.219928 23939 layer_factory.hpp:77] Creating layer relu7
I0510 09:23:21.219934 23939 net.cpp:100] Creating Layer relu7
I0510 09:23:21.219936 23939 net.cpp:434] relu7 <- fc7
I0510 09:23:21.219940 23939 net.cpp:395] relu7 -> fc7 (in-place)
I0510 09:23:21.220053 23939 net.cpp:150] Setting up relu7
I0510 09:23:21.220058 23939 net.cpp:157] Top shape: 16 1024 19 19 (5914624)
I0510 09:23:21.220060 23939 net.cpp:165] Memory required for data: 3632742432
I0510 09:23:21.220062 23939 layer_factory.hpp:77] Creating layer fc7_relu7_0_split
I0510 09:23:21.220065 23939 net.cpp:100] Creating Layer fc7_relu7_0_split
I0510 09:23:21.220067 23939 net.cpp:434] fc7_relu7_0_split <- fc7
I0510 09:23:21.220070 23939 net.cpp:408] fc7_relu7_0_split -> fc7_relu7_0_split_0
I0510 09:23:21.220075 23939 net.cpp:408] fc7_relu7_0_split -> fc7_relu7_0_split_1
I0510 09:23:21.220082 23939 net.cpp:408] fc7_relu7_0_split -> fc7_relu7_0_split_2
I0510 09:23:21.220088 23939 net.cpp:408] fc7_relu7_0_split -> fc7_relu7_0_split_3
I0510 09:23:21.220129 23939 net.cpp:150] Setting up fc7_relu7_0_split
I0510 09:23:21.220132 23939 net.cpp:157] Top shape: 16 1024 19 19 (5914624)
I0510 09:23:21.220135 23939 net.cpp:157] Top shape: 16 1024 19 19 (5914624)
I0510 09:23:21.220137 23939 net.cpp:157] Top shape: 16 1024 19 19 (5914624)
I0510 09:23:21.220139 23939 net.cpp:157] Top shape: 16 1024 19 19 (5914624)
I0510 09:23:21.220141 23939 net.cpp:165] Memory required for data: 3727376416
I0510 09:23:21.220144 23939 layer_factory.hpp:77] Creating layer conv6_1
I0510 09:23:21.220149 23939 net.cpp:100] Creating Layer conv6_1
I0510 09:23:21.220151 23939 net.cpp:434] conv6_1 <- fc7_relu7_0_split_0
I0510 09:23:21.220155 23939 net.cpp:408] conv6_1 -> conv6_1
I0510 09:23:21.222575 23939 net.cpp:150] Setting up conv6_1
I0510 09:23:21.222585 23939 net.cpp:157] Top shape: 16 256 19 19 (1478656)
I0510 09:23:21.222587 23939 net.cpp:165] Memory required for data: 3733291040
I0510 09:23:21.222591 23939 layer_factory.hpp:77] Creating layer conv6_1_relu
I0510 09:23:21.222594 23939 net.cpp:100] Creating Layer conv6_1_relu
I0510 09:23:21.222597 23939 net.cpp:434] conv6_1_relu <- conv6_1
I0510 09:23:21.222600 23939 net.cpp:395] conv6_1_relu -> conv6_1 (in-place)
I0510 09:23:21.222966 23939 net.cpp:150] Setting up conv6_1_relu
I0510 09:23:21.222973 23939 net.cpp:157] Top shape: 16 256 19 19 (1478656)
I0510 09:23:21.222975 23939 net.cpp:165] Memory required for data: 3739205664
I0510 09:23:21.222977 23939 layer_factory.hpp:77] Creating layer conv6_2
I0510 09:23:21.222983 23939 net.cpp:100] Creating Layer conv6_2
I0510 09:23:21.222985 23939 net.cpp:434] conv6_2 <- conv6_1
I0510 09:23:21.222990 23939 net.cpp:408] conv6_2 -> conv6_2
I0510 09:23:21.228601 23939 net.cpp:150] Setting up conv6_2
I0510 09:23:21.228616 23939 net.cpp:157] Top shape: 16 512 10 10 (819200)
I0510 09:23:21.228618 23939 net.cpp:165] Memory required for data: 3742482464
I0510 09:23:21.228628 23939 layer_factory.hpp:77] Creating layer conv6_2_relu
I0510 09:23:21.228634 23939 net.cpp:100] Creating Layer conv6_2_relu
I0510 09:23:21.228636 23939 net.cpp:434] conv6_2_relu <- conv6_2
I0510 09:23:21.228641 23939 net.cpp:395] conv6_2_relu -> conv6_2 (in-place)
I0510 09:23:21.228754 23939 net.cpp:150] Setting up conv6_2_relu
I0510 09:23:21.228758 23939 net.cpp:157] Top shape: 16 512 10 10 (819200)
I0510 09:23:21.228760 23939 net.cpp:165] Memory required for data: 3745759264
I0510 09:23:21.228762 23939 layer_factory.hpp:77] Creating layer conv6_2_conv6_2_relu_0_split
I0510 09:23:21.228766 23939 net.cpp:100] Creating Layer conv6_2_conv6_2_relu_0_split
I0510 09:23:21.228768 23939 net.cpp:434] conv6_2_conv6_2_relu_0_split <- conv6_2
I0510 09:23:21.228771 23939 net.cpp:408] conv6_2_conv6_2_relu_0_split -> conv6_2_conv6_2_relu_0_split_0
I0510 09:23:21.228776 23939 net.cpp:408] conv6_2_conv6_2_relu_0_split -> conv6_2_conv6_2_relu_0_split_1
I0510 09:23:21.228780 23939 net.cpp:408] conv6_2_conv6_2_relu_0_split -> conv6_2_conv6_2_relu_0_split_2
I0510 09:23:21.228785 23939 net.cpp:408] conv6_2_conv6_2_relu_0_split -> conv6_2_conv6_2_relu_0_split_3
I0510 09:23:21.228826 23939 net.cpp:150] Setting up conv6_2_conv6_2_relu_0_split
I0510 09:23:21.228829 23939 net.cpp:157] Top shape: 16 512 10 10 (819200)
I0510 09:23:21.228833 23939 net.cpp:157] Top shape: 16 512 10 10 (819200)
I0510 09:23:21.228835 23939 net.cpp:157] Top shape: 16 512 10 10 (819200)
I0510 09:23:21.228837 23939 net.cpp:157] Top shape: 16 512 10 10 (819200)
I0510 09:23:21.228839 23939 net.cpp:165] Memory required for data: 3758866464
I0510 09:23:21.228842 23939 layer_factory.hpp:77] Creating layer conv7_1
I0510 09:23:21.228847 23939 net.cpp:100] Creating Layer conv7_1
I0510 09:23:21.228849 23939 net.cpp:434] conv7_1 <- conv6_2_conv6_2_relu_0_split_0
I0510 09:23:21.228853 23939 net.cpp:408] conv7_1 -> conv7_1
I0510 09:23:21.229856 23939 net.cpp:150] Setting up conv7_1
I0510 09:23:21.229863 23939 net.cpp:157] Top shape: 16 128 10 10 (204800)
I0510 09:23:21.229866 23939 net.cpp:165] Memory required for data: 3759685664
I0510 09:23:21.229869 23939 layer_factory.hpp:77] Creating layer conv7_1_relu
I0510 09:23:21.229872 23939 net.cpp:100] Creating Layer conv7_1_relu
I0510 09:23:21.229874 23939 net.cpp:434] conv7_1_relu <- conv7_1
I0510 09:23:21.229877 23939 net.cpp:395] conv7_1_relu -> conv7_1 (in-place)
I0510 09:23:21.229987 23939 net.cpp:150] Setting up conv7_1_relu
I0510 09:23:21.229993 23939 net.cpp:157] Top shape: 16 128 10 10 (204800)
I0510 09:23:21.229995 23939 net.cpp:165] Memory required for data: 3760504864
I0510 09:23:21.229996 23939 layer_factory.hpp:77] Creating layer conv7_2
I0510 09:23:21.230002 23939 net.cpp:100] Creating Layer conv7_2
I0510 09:23:21.230003 23939 net.cpp:434] conv7_2 <- conv7_1
I0510 09:23:21.230007 23939 net.cpp:408] conv7_2 -> conv7_2
I0510 09:23:21.232514 23939 net.cpp:150] Setting up conv7_2
I0510 09:23:21.232523 23939 net.cpp:157] Top shape: 16 256 5 5 (102400)
I0510 09:23:21.232525 23939 net.cpp:165] Memory required for data: 3760914464
I0510 09:23:21.232529 23939 layer_factory.hpp:77] Creating layer conv7_2_relu
I0510 09:23:21.232533 23939 net.cpp:100] Creating Layer conv7_2_relu
I0510 09:23:21.232535 23939 net.cpp:434] conv7_2_relu <- conv7_2
I0510 09:23:21.232538 23939 net.cpp:395] conv7_2_relu -> conv7_2 (in-place)
I0510 09:23:21.232666 23939 net.cpp:150] Setting up conv7_2_relu
I0510 09:23:21.232672 23939 net.cpp:157] Top shape: 16 256 5 5 (102400)
I0510 09:23:21.232674 23939 net.cpp:165] Memory required for data: 3761324064
I0510 09:23:21.232676 23939 layer_factory.hpp:77] Creating layer conv7_2_conv7_2_relu_0_split
I0510 09:23:21.232679 23939 net.cpp:100] Creating Layer conv7_2_conv7_2_relu_0_split
I0510 09:23:21.232682 23939 net.cpp:434] conv7_2_conv7_2_relu_0_split <- conv7_2
I0510 09:23:21.232686 23939 net.cpp:408] conv7_2_conv7_2_relu_0_split -> conv7_2_conv7_2_relu_0_split_0
I0510 09:23:21.232689 23939 net.cpp:408] conv7_2_conv7_2_relu_0_split -> conv7_2_conv7_2_relu_0_split_1
I0510 09:23:21.232693 23939 net.cpp:408] conv7_2_conv7_2_relu_0_split -> conv7_2_conv7_2_relu_0_split_2
I0510 09:23:21.232699 23939 net.cpp:408] conv7_2_conv7_2_relu_0_split -> conv7_2_conv7_2_relu_0_split_3
I0510 09:23:21.232743 23939 net.cpp:150] Setting up conv7_2_conv7_2_relu_0_split
I0510 09:23:21.232748 23939 net.cpp:157] Top shape: 16 256 5 5 (102400)
I0510 09:23:21.232749 23939 net.cpp:157] Top shape: 16 256 5 5 (102400)
I0510 09:23:21.232753 23939 net.cpp:157] Top shape: 16 256 5 5 (102400)
I0510 09:23:21.232754 23939 net.cpp:157] Top shape: 16 256 5 5 (102400)
I0510 09:23:21.232755 23939 net.cpp:165] Memory required for data: 3762962464
I0510 09:23:21.232758 23939 layer_factory.hpp:77] Creating layer conv8_1
I0510 09:23:21.232762 23939 net.cpp:100] Creating Layer conv8_1
I0510 09:23:21.232764 23939 net.cpp:434] conv8_1 <- conv7_2_conv7_2_relu_0_split_0
I0510 09:23:21.232769 23939 net.cpp:408] conv8_1 -> conv8_1
I0510 09:23:21.233649 23939 net.cpp:150] Setting up conv8_1
I0510 09:23:21.233657 23939 net.cpp:157] Top shape: 16 128 5 5 (51200)
I0510 09:23:21.233659 23939 net.cpp:165] Memory required for data: 3763167264
I0510 09:23:21.233664 23939 layer_factory.hpp:77] Creating layer conv8_1_relu
I0510 09:23:21.233666 23939 net.cpp:100] Creating Layer conv8_1_relu
I0510 09:23:21.233669 23939 net.cpp:434] conv8_1_relu <- conv8_1
I0510 09:23:21.233672 23939 net.cpp:395] conv8_1_relu -> conv8_1 (in-place)
I0510 09:23:21.234037 23939 net.cpp:150] Setting up conv8_1_relu
I0510 09:23:21.234045 23939 net.cpp:157] Top shape: 16 128 5 5 (51200)
I0510 09:23:21.234047 23939 net.cpp:165] Memory required for data: 3763372064
I0510 09:23:21.234050 23939 layer_factory.hpp:77] Creating layer conv8_2
I0510 09:23:21.234055 23939 net.cpp:100] Creating Layer conv8_2
I0510 09:23:21.234057 23939 net.cpp:434] conv8_2 <- conv8_1
I0510 09:23:21.234062 23939 net.cpp:408] conv8_2 -> conv8_2
I0510 09:23:21.236599 23939 net.cpp:150] Setting up conv8_2
I0510 09:23:21.236608 23939 net.cpp:157] Top shape: 16 256 3 3 (36864)
I0510 09:23:21.236610 23939 net.cpp:165] Memory required for data: 3763519520
I0510 09:23:21.236614 23939 layer_factory.hpp:77] Creating layer conv8_2_relu
I0510 09:23:21.236618 23939 net.cpp:100] Creating Layer conv8_2_relu
I0510 09:23:21.236620 23939 net.cpp:434] conv8_2_relu <- conv8_2
I0510 09:23:21.236624 23939 net.cpp:395] conv8_2_relu -> conv8_2 (in-place)
I0510 09:23:21.236752 23939 net.cpp:150] Setting up conv8_2_relu
I0510 09:23:21.236757 23939 net.cpp:157] Top shape: 16 256 3 3 (36864)
I0510 09:23:21.236758 23939 net.cpp:165] Memory required for data: 3763666976
I0510 09:23:21.236760 23939 layer_factory.hpp:77] Creating layer conv8_2_conv8_2_relu_0_split
I0510 09:23:21.236765 23939 net.cpp:100] Creating Layer conv8_2_conv8_2_relu_0_split
I0510 09:23:21.236768 23939 net.cpp:434] conv8_2_conv8_2_relu_0_split <- conv8_2
I0510 09:23:21.236770 23939 net.cpp:408] conv8_2_conv8_2_relu_0_split -> conv8_2_conv8_2_relu_0_split_0
I0510 09:23:21.236776 23939 net.cpp:408] conv8_2_conv8_2_relu_0_split -> conv8_2_conv8_2_relu_0_split_1
I0510 09:23:21.236781 23939 net.cpp:408] conv8_2_conv8_2_relu_0_split -> conv8_2_conv8_2_relu_0_split_2
I0510 09:23:21.236788 23939 net.cpp:408] conv8_2_conv8_2_relu_0_split -> conv8_2_conv8_2_relu_0_split_3
I0510 09:23:21.236835 23939 net.cpp:150] Setting up conv8_2_conv8_2_relu_0_split
I0510 09:23:21.236847 23939 net.cpp:157] Top shape: 16 256 3 3 (36864)
I0510 09:23:21.236850 23939 net.cpp:157] Top shape: 16 256 3 3 (36864)
I0510 09:23:21.236852 23939 net.cpp:157] Top shape: 16 256 3 3 (36864)
I0510 09:23:21.236855 23939 net.cpp:157] Top shape: 16 256 3 3 (36864)
I0510 09:23:21.236856 23939 net.cpp:165] Memory required for data: 3764256800
I0510 09:23:21.236860 23939 layer_factory.hpp:77] Creating layer conv9_1
I0510 09:23:21.236865 23939 net.cpp:100] Creating Layer conv9_1
I0510 09:23:21.236868 23939 net.cpp:434] conv9_1 <- conv8_2_conv8_2_relu_0_split_0
I0510 09:23:21.236872 23939 net.cpp:408] conv9_1 -> conv9_1
I0510 09:23:21.237777 23939 net.cpp:150] Setting up conv9_1
I0510 09:23:21.237784 23939 net.cpp:157] Top shape: 16 128 3 3 (18432)
I0510 09:23:21.237787 23939 net.cpp:165] Memory required for data: 3764330528
I0510 09:23:21.237792 23939 layer_factory.hpp:77] Creating layer conv9_1_relu
I0510 09:23:21.237795 23939 net.cpp:100] Creating Layer conv9_1_relu
I0510 09:23:21.237798 23939 net.cpp:434] conv9_1_relu <- conv9_1
I0510 09:23:21.237802 23939 net.cpp:395] conv9_1_relu -> conv9_1 (in-place)
I0510 09:23:21.237920 23939 net.cpp:150] Setting up conv9_1_relu
I0510 09:23:21.237926 23939 net.cpp:157] Top shape: 16 128 3 3 (18432)
I0510 09:23:21.237928 23939 net.cpp:165] Memory required for data: 3764404256
I0510 09:23:21.237929 23939 layer_factory.hpp:77] Creating layer conv9_2
I0510 09:23:21.237936 23939 net.cpp:100] Creating Layer conv9_2
I0510 09:23:21.237938 23939 net.cpp:434] conv9_2 <- conv9_1
I0510 09:23:21.237943 23939 net.cpp:408] conv9_2 -> conv9_2
I0510 09:23:21.240468 23939 net.cpp:150] Setting up conv9_2
I0510 09:23:21.240476 23939 net.cpp:157] Top shape: 16 256 1 1 (4096)
I0510 09:23:21.240479 23939 net.cpp:165] Memory required for data: 3764420640
I0510 09:23:21.240483 23939 layer_factory.hpp:77] Creating layer conv9_2_relu
I0510 09:23:21.240489 23939 net.cpp:100] Creating Layer conv9_2_relu
I0510 09:23:21.240490 23939 net.cpp:434] conv9_2_relu <- conv9_2
I0510 09:23:21.240494 23939 net.cpp:395] conv9_2_relu -> conv9_2 (in-place)
I0510 09:23:21.240859 23939 net.cpp:150] Setting up conv9_2_relu
I0510 09:23:21.240866 23939 net.cpp:157] Top shape: 16 256 1 1 (4096)
I0510 09:23:21.240869 23939 net.cpp:165] Memory required for data: 3764437024
I0510 09:23:21.240870 23939 layer_factory.hpp:77] Creating layer conv9_2_conv9_2_relu_0_split
I0510 09:23:21.240875 23939 net.cpp:100] Creating Layer conv9_2_conv9_2_relu_0_split
I0510 09:23:21.240880 23939 net.cpp:434] conv9_2_conv9_2_relu_0_split <- conv9_2
I0510 09:23:21.240887 23939 net.cpp:408] conv9_2_conv9_2_relu_0_split -> conv9_2_conv9_2_relu_0_split_0
I0510 09:23:21.240895 23939 net.cpp:408] conv9_2_conv9_2_relu_0_split -> conv9_2_conv9_2_relu_0_split_1
I0510 09:23:21.240902 23939 net.cpp:408] conv9_2_conv9_2_relu_0_split -> conv9_2_conv9_2_relu_0_split_2
I0510 09:23:21.240949 23939 net.cpp:150] Setting up conv9_2_conv9_2_relu_0_split
I0510 09:23:21.240954 23939 net.cpp:157] Top shape: 16 256 1 1 (4096)
I0510 09:23:21.240958 23939 net.cpp:157] Top shape: 16 256 1 1 (4096)
I0510 09:23:21.240962 23939 net.cpp:157] Top shape: 16 256 1 1 (4096)
I0510 09:23:21.240964 23939 net.cpp:165] Memory required for data: 3764486176
I0510 09:23:21.240967 23939 layer_factory.hpp:77] Creating layer conv4_3_norm
I0510 09:23:21.240975 23939 net.cpp:100] Creating Layer conv4_3_norm
I0510 09:23:21.240978 23939 net.cpp:434] conv4_3_norm <- conv4_3_relu4_3_0_split_1
I0510 09:23:21.240983 23939 net.cpp:408] conv4_3_norm -> conv4_3_norm
I0510 09:23:21.241104 23939 net.cpp:150] Setting up conv4_3_norm
I0510 09:23:21.241111 23939 net.cpp:157] Top shape: 16 512 38 38 (11829248)
I0510 09:23:21.241113 23939 net.cpp:165] Memory required for data: 3811803168
I0510 09:23:21.241118 23939 layer_factory.hpp:77] Creating layer conv4_3_norm_conv4_3_norm_0_split
I0510 09:23:21.241122 23939 net.cpp:100] Creating Layer conv4_3_norm_conv4_3_norm_0_split
I0510 09:23:21.241127 23939 net.cpp:434] conv4_3_norm_conv4_3_norm_0_split <- conv4_3_norm
I0510 09:23:21.241132 23939 net.cpp:408] conv4_3_norm_conv4_3_norm_0_split -> conv4_3_norm_conv4_3_norm_0_split_0
I0510 09:23:21.241144 23939 net.cpp:408] conv4_3_norm_conv4_3_norm_0_split -> conv4_3_norm_conv4_3_norm_0_split_1
I0510 09:23:21.241150 23939 net.cpp:408] conv4_3_norm_conv4_3_norm_0_split -> conv4_3_norm_conv4_3_norm_0_split_2
I0510 09:23:21.241183 23939 net.cpp:150] Setting up conv4_3_norm_conv4_3_norm_0_split
I0510 09:23:21.241188 23939 net.cpp:157] Top shape: 16 512 38 38 (11829248)
I0510 09:23:21.241191 23939 net.cpp:157] Top shape: 16 512 38 38 (11829248)
I0510 09:23:21.241195 23939 net.cpp:157] Top shape: 16 512 38 38 (11829248)
I0510 09:23:21.241199 23939 net.cpp:165] Memory required for data: 3953754144
I0510 09:23:21.241201 23939 layer_factory.hpp:77] Creating layer conv4_3_norm_mbox_loc
I0510 09:23:21.241209 23939 net.cpp:100] Creating Layer conv4_3_norm_mbox_loc
I0510 09:23:21.241212 23939 net.cpp:434] conv4_3_norm_mbox_loc <- conv4_3_norm_conv4_3_norm_0_split_0
I0510 09:23:21.241219 23939 net.cpp:408] conv4_3_norm_mbox_loc -> conv4_3_norm_mbox_loc
I0510 09:23:21.242795 23939 net.cpp:150] Setting up conv4_3_norm_mbox_loc
I0510 09:23:21.242805 23939 net.cpp:157] Top shape: 16 16 38 38 (369664)
I0510 09:23:21.242808 23939 net.cpp:165] Memory required for data: 3955232800
I0510 09:23:21.242815 23939 layer_factory.hpp:77] Creating layer conv4_3_norm_mbox_loc_perm
I0510 09:23:21.242821 23939 net.cpp:100] Creating Layer conv4_3_norm_mbox_loc_perm
I0510 09:23:21.242823 23939 net.cpp:434] conv4_3_norm_mbox_loc_perm <- conv4_3_norm_mbox_loc
I0510 09:23:21.242828 23939 net.cpp:408] conv4_3_norm_mbox_loc_perm -> conv4_3_norm_mbox_loc_perm
I0510 09:23:21.242910 23939 net.cpp:150] Setting up conv4_3_norm_mbox_loc_perm
I0510 09:23:21.242914 23939 net.cpp:157] Top shape: 16 38 38 16 (369664)
I0510 09:23:21.242916 23939 net.cpp:165] Memory required for data: 3956711456
I0510 09:23:21.242918 23939 layer_factory.hpp:77] Creating layer conv4_3_norm_mbox_loc_flat
I0510 09:23:21.242921 23939 net.cpp:100] Creating Layer conv4_3_norm_mbox_loc_flat
I0510 09:23:21.242923 23939 net.cpp:434] conv4_3_norm_mbox_loc_flat <- conv4_3_norm_mbox_loc_perm
I0510 09:23:21.242928 23939 net.cpp:408] conv4_3_norm_mbox_loc_flat -> conv4_3_norm_mbox_loc_flat
I0510 09:23:21.242955 23939 net.cpp:150] Setting up conv4_3_norm_mbox_loc_flat
I0510 09:23:21.242960 23939 net.cpp:157] Top shape: 16 23104 (369664)
I0510 09:23:21.242961 23939 net.cpp:165] Memory required for data: 3958190112
I0510 09:23:21.242964 23939 layer_factory.hpp:77] Creating layer conv4_3_norm_mbox_conf
I0510 09:23:21.242974 23939 net.cpp:100] Creating Layer conv4_3_norm_mbox_conf
I0510 09:23:21.242975 23939 net.cpp:434] conv4_3_norm_mbox_conf <- conv4_3_norm_conv4_3_norm_0_split_1
I0510 09:23:21.242980 23939 net.cpp:408] conv4_3_norm_mbox_conf -> conv4_3_norm_mbox_conf
I0510 09:23:21.244422 23939 net.cpp:150] Setting up conv4_3_norm_mbox_conf
I0510 09:23:21.244431 23939 net.cpp:157] Top shape: 16 8 38 38 (184832)
I0510 09:23:21.244434 23939 net.cpp:165] Memory required for data: 3958929440
I0510 09:23:21.244438 23939 layer_factory.hpp:77] Creating layer conv4_3_norm_mbox_conf_perm
I0510 09:23:21.244443 23939 net.cpp:100] Creating Layer conv4_3_norm_mbox_conf_perm
I0510 09:23:21.244446 23939 net.cpp:434] conv4_3_norm_mbox_conf_perm <- conv4_3_norm_mbox_conf
I0510 09:23:21.244451 23939 net.cpp:408] conv4_3_norm_mbox_conf_perm -> conv4_3_norm_mbox_conf_perm
I0510 09:23:21.244529 23939 net.cpp:150] Setting up conv4_3_norm_mbox_conf_perm
I0510 09:23:21.244534 23939 net.cpp:157] Top shape: 16 38 38 8 (184832)
I0510 09:23:21.244535 23939 net.cpp:165] Memory required for data: 3959668768
I0510 09:23:21.244537 23939 layer_factory.hpp:77] Creating layer conv4_3_norm_mbox_conf_flat
I0510 09:23:21.244540 23939 net.cpp:100] Creating Layer conv4_3_norm_mbox_conf_flat
I0510 09:23:21.244542 23939 net.cpp:434] conv4_3_norm_mbox_conf_flat <- conv4_3_norm_mbox_conf_perm
I0510 09:23:21.244546 23939 net.cpp:408] conv4_3_norm_mbox_conf_flat -> conv4_3_norm_mbox_conf_flat
I0510 09:23:21.244565 23939 net.cpp:150] Setting up conv4_3_norm_mbox_conf_flat
I0510 09:23:21.244577 23939 net.cpp:157] Top shape: 16 11552 (184832)
I0510 09:23:21.244580 23939 net.cpp:165] Memory required for data: 3960408096
I0510 09:23:21.244580 23939 layer_factory.hpp:77] Creating layer conv4_3_norm_mbox_priorbox
I0510 09:23:21.244585 23939 net.cpp:100] Creating Layer conv4_3_norm_mbox_priorbox
I0510 09:23:21.244587 23939 net.cpp:434] conv4_3_norm_mbox_priorbox <- conv4_3_norm_conv4_3_norm_0_split_2
I0510 09:23:21.244590 23939 net.cpp:434] conv4_3_norm_mbox_priorbox <- data_data_0_split_1
I0510 09:23:21.244594 23939 net.cpp:408] conv4_3_norm_mbox_priorbox -> conv4_3_norm_mbox_priorbox
I0510 09:23:21.244616 23939 net.cpp:150] Setting up conv4_3_norm_mbox_priorbox
I0510 09:23:21.244621 23939 net.cpp:157] Top shape: 1 2 23104 (46208)
I0510 09:23:21.244623 23939 net.cpp:165] Memory required for data: 3960592928
I0510 09:23:21.244624 23939 layer_factory.hpp:77] Creating layer fc7_mbox_loc
I0510 09:23:21.244635 23939 net.cpp:100] Creating Layer fc7_mbox_loc
I0510 09:23:21.244638 23939 net.cpp:434] fc7_mbox_loc <- fc7_relu7_0_split_1
I0510 09:23:21.244644 23939 net.cpp:408] fc7_mbox_loc -> fc7_mbox_loc
I0510 09:23:21.246454 23939 net.cpp:150] Setting up fc7_mbox_loc
I0510 09:23:21.246464 23939 net.cpp:157] Top shape: 16 24 19 19 (138624)
I0510 09:23:21.246467 23939 net.cpp:165] Memory required for data: 3961147424
I0510 09:23:21.246471 23939 layer_factory.hpp:77] Creating layer fc7_mbox_loc_perm
I0510 09:23:21.246476 23939 net.cpp:100] Creating Layer fc7_mbox_loc_perm
I0510 09:23:21.246481 23939 net.cpp:434] fc7_mbox_loc_perm <- fc7_mbox_loc
I0510 09:23:21.246485 23939 net.cpp:408] fc7_mbox_loc_perm -> fc7_mbox_loc_perm
I0510 09:23:21.246559 23939 net.cpp:150] Setting up fc7_mbox_loc_perm
I0510 09:23:21.246564 23939 net.cpp:157] Top shape: 16 19 19 24 (138624)
I0510 09:23:21.246567 23939 net.cpp:165] Memory required for data: 3961701920
I0510 09:23:21.246569 23939 layer_factory.hpp:77] Creating layer fc7_mbox_loc_flat
I0510 09:23:21.246572 23939 net.cpp:100] Creating Layer fc7_mbox_loc_flat
I0510 09:23:21.246574 23939 net.cpp:434] fc7_mbox_loc_flat <- fc7_mbox_loc_perm
I0510 09:23:21.246578 23939 net.cpp:408] fc7_mbox_loc_flat -> fc7_mbox_loc_flat
I0510 09:23:21.246594 23939 net.cpp:150] Setting up fc7_mbox_loc_flat
I0510 09:23:21.246598 23939 net.cpp:157] Top shape: 16 8664 (138624)
I0510 09:23:21.246599 23939 net.cpp:165] Memory required for data: 3962256416
I0510 09:23:21.246601 23939 layer_factory.hpp:77] Creating layer fc7_mbox_conf
I0510 09:23:21.246608 23939 net.cpp:100] Creating Layer fc7_mbox_conf
I0510 09:23:21.246610 23939 net.cpp:434] fc7_mbox_conf <- fc7_relu7_0_split_2
I0510 09:23:21.246613 23939 net.cpp:408] fc7_mbox_conf -> fc7_mbox_conf
I0510 09:23:21.248028 23939 net.cpp:150] Setting up fc7_mbox_conf
I0510 09:23:21.248035 23939 net.cpp:157] Top shape: 16 12 19 19 (69312)
I0510 09:23:21.248039 23939 net.cpp:165] Memory required for data: 3962533664
I0510 09:23:21.248045 23939 layer_factory.hpp:77] Creating layer fc7_mbox_conf_perm
I0510 09:23:21.248052 23939 net.cpp:100] Creating Layer fc7_mbox_conf_perm
I0510 09:23:21.248056 23939 net.cpp:434] fc7_mbox_conf_perm <- fc7_mbox_conf
I0510 09:23:21.248064 23939 net.cpp:408] fc7_mbox_conf_perm -> fc7_mbox_conf_perm
I0510 09:23:21.248142 23939 net.cpp:150] Setting up fc7_mbox_conf_perm
I0510 09:23:21.248147 23939 net.cpp:157] Top shape: 16 19 19 12 (69312)
I0510 09:23:21.248150 23939 net.cpp:165] Memory required for data: 3962810912
I0510 09:23:21.248153 23939 layer_factory.hpp:77] Creating layer fc7_mbox_conf_flat
I0510 09:23:21.248159 23939 net.cpp:100] Creating Layer fc7_mbox_conf_flat
I0510 09:23:21.248163 23939 net.cpp:434] fc7_mbox_conf_flat <- fc7_mbox_conf_perm
I0510 09:23:21.248168 23939 net.cpp:408] fc7_mbox_conf_flat -> fc7_mbox_conf_flat
I0510 09:23:21.248188 23939 net.cpp:150] Setting up fc7_mbox_conf_flat
I0510 09:23:21.248191 23939 net.cpp:157] Top shape: 16 4332 (69312)
I0510 09:23:21.248194 23939 net.cpp:165] Memory required for data: 3963088160
I0510 09:23:21.248198 23939 layer_factory.hpp:77] Creating layer fc7_mbox_priorbox
I0510 09:23:21.248211 23939 net.cpp:100] Creating Layer fc7_mbox_priorbox
I0510 09:23:21.248214 23939 net.cpp:434] fc7_mbox_priorbox <- fc7_relu7_0_split_3
I0510 09:23:21.248217 23939 net.cpp:434] fc7_mbox_priorbox <- data_data_0_split_2
I0510 09:23:21.248221 23939 net.cpp:408] fc7_mbox_priorbox -> fc7_mbox_priorbox
I0510 09:23:21.248241 23939 net.cpp:150] Setting up fc7_mbox_priorbox
I0510 09:23:21.248246 23939 net.cpp:157] Top shape: 1 2 8664 (17328)
I0510 09:23:21.248248 23939 net.cpp:165] Memory required for data: 3963157472
I0510 09:23:21.248250 23939 layer_factory.hpp:77] Creating layer conv6_2_mbox_loc
I0510 09:23:21.248257 23939 net.cpp:100] Creating Layer conv6_2_mbox_loc
I0510 09:23:21.248260 23939 net.cpp:434] conv6_2_mbox_loc <- conv6_2_conv6_2_relu_0_split_1
I0510 09:23:21.248266 23939 net.cpp:408] conv6_2_mbox_loc -> conv6_2_mbox_loc
I0510 09:23:21.250306 23939 net.cpp:150] Setting up conv6_2_mbox_loc
I0510 09:23:21.250315 23939 net.cpp:157] Top shape: 16 24 10 10 (38400)
I0510 09:23:21.250317 23939 net.cpp:165] Memory required for data: 3963311072
I0510 09:23:21.250322 23939 layer_factory.hpp:77] Creating layer conv6_2_mbox_loc_perm
I0510 09:23:21.250326 23939 net.cpp:100] Creating Layer conv6_2_mbox_loc_perm
I0510 09:23:21.250329 23939 net.cpp:434] conv6_2_mbox_loc_perm <- conv6_2_mbox_loc
I0510 09:23:21.250332 23939 net.cpp:408] conv6_2_mbox_loc_perm -> conv6_2_mbox_loc_perm
I0510 09:23:21.250416 23939 net.cpp:150] Setting up conv6_2_mbox_loc_perm
I0510 09:23:21.250437 23939 net.cpp:157] Top shape: 16 10 10 24 (38400)
I0510 09:23:21.250447 23939 net.cpp:165] Memory required for data: 3963464672
I0510 09:23:21.250458 23939 layer_factory.hpp:77] Creating layer conv6_2_mbox_loc_flat
I0510 09:23:21.250471 23939 net.cpp:100] Creating Layer conv6_2_mbox_loc_flat
I0510 09:23:21.250483 23939 net.cpp:434] conv6_2_mbox_loc_flat <- conv6_2_mbox_loc_perm
I0510 09:23:21.250497 23939 net.cpp:408] conv6_2_mbox_loc_flat -> conv6_2_mbox_loc_flat
I0510 09:23:21.250535 23939 net.cpp:150] Setting up conv6_2_mbox_loc_flat
I0510 09:23:21.250550 23939 net.cpp:157] Top shape: 16 2400 (38400)
I0510 09:23:21.250560 23939 net.cpp:165] Memory required for data: 3963618272
I0510 09:23:21.250568 23939 layer_factory.hpp:77] Creating layer conv6_2_mbox_conf
I0510 09:23:21.250586 23939 net.cpp:100] Creating Layer conv6_2_mbox_conf
I0510 09:23:21.250597 23939 net.cpp:434] conv6_2_mbox_conf <- conv6_2_conv6_2_relu_0_split_2
I0510 09:23:21.250613 23939 net.cpp:408] conv6_2_mbox_conf -> conv6_2_mbox_conf
I0510 09:23:21.251991 23939 net.cpp:150] Setting up conv6_2_mbox_conf
I0510 09:23:21.251998 23939 net.cpp:157] Top shape: 16 12 10 10 (19200)
I0510 09:23:21.252002 23939 net.cpp:165] Memory required for data: 3963695072
I0510 09:23:21.252005 23939 layer_factory.hpp:77] Creating layer conv6_2_mbox_conf_perm
I0510 09:23:21.252009 23939 net.cpp:100] Creating Layer conv6_2_mbox_conf_perm
I0510 09:23:21.252012 23939 net.cpp:434] conv6_2_mbox_conf_perm <- conv6_2_mbox_conf
I0510 09:23:21.252017 23939 net.cpp:408] conv6_2_mbox_conf_perm -> conv6_2_mbox_conf_perm
I0510 09:23:21.252096 23939 net.cpp:150] Setting up conv6_2_mbox_conf_perm
I0510 09:23:21.252101 23939 net.cpp:157] Top shape: 16 10 10 12 (19200)
I0510 09:23:21.252104 23939 net.cpp:165] Memory required for data: 3963771872
I0510 09:23:21.252105 23939 layer_factory.hpp:77] Creating layer conv6_2_mbox_conf_flat
I0510 09:23:21.252108 23939 net.cpp:100] Creating Layer conv6_2_mbox_conf_flat
I0510 09:23:21.252110 23939 net.cpp:434] conv6_2_mbox_conf_flat <- conv6_2_mbox_conf_perm
I0510 09:23:21.252113 23939 net.cpp:408] conv6_2_mbox_conf_flat -> conv6_2_mbox_conf_flat
I0510 09:23:21.252132 23939 net.cpp:150] Setting up conv6_2_mbox_conf_flat
I0510 09:23:21.252136 23939 net.cpp:157] Top shape: 16 1200 (19200)
I0510 09:23:21.252137 23939 net.cpp:165] Memory required for data: 3963848672
I0510 09:23:21.252140 23939 layer_factory.hpp:77] Creating layer conv6_2_mbox_priorbox
I0510 09:23:21.252143 23939 net.cpp:100] Creating Layer conv6_2_mbox_priorbox
I0510 09:23:21.252146 23939 net.cpp:434] conv6_2_mbox_priorbox <- conv6_2_conv6_2_relu_0_split_3
I0510 09:23:21.252156 23939 net.cpp:434] conv6_2_mbox_priorbox <- data_data_0_split_3
I0510 09:23:21.252162 23939 net.cpp:408] conv6_2_mbox_priorbox -> conv6_2_mbox_priorbox
I0510 09:23:21.252182 23939 net.cpp:150] Setting up conv6_2_mbox_priorbox
I0510 09:23:21.252185 23939 net.cpp:157] Top shape: 1 2 2400 (4800)
I0510 09:23:21.252187 23939 net.cpp:165] Memory required for data: 3963867872
I0510 09:23:21.252188 23939 layer_factory.hpp:77] Creating layer conv7_2_mbox_loc
I0510 09:23:21.252197 23939 net.cpp:100] Creating Layer conv7_2_mbox_loc
I0510 09:23:21.252199 23939 net.cpp:434] conv7_2_mbox_loc <- conv7_2_conv7_2_relu_0_split_1
I0510 09:23:21.252204 23939 net.cpp:408] conv7_2_mbox_loc -> conv7_2_mbox_loc
I0510 09:23:21.253199 23939 net.cpp:150] Setting up conv7_2_mbox_loc
I0510 09:23:21.253208 23939 net.cpp:157] Top shape: 16 24 5 5 (9600)
I0510 09:23:21.253211 23939 net.cpp:165] Memory required for data: 3963906272
I0510 09:23:21.253214 23939 layer_factory.hpp:77] Creating layer conv7_2_mbox_loc_perm
I0510 09:23:21.253218 23939 net.cpp:100] Creating Layer conv7_2_mbox_loc_perm
I0510 09:23:21.253221 23939 net.cpp:434] conv7_2_mbox_loc_perm <- conv7_2_mbox_loc
I0510 09:23:21.253224 23939 net.cpp:408] conv7_2_mbox_loc_perm -> conv7_2_mbox_loc_perm
I0510 09:23:21.253298 23939 net.cpp:150] Setting up conv7_2_mbox_loc_perm
I0510 09:23:21.253302 23939 net.cpp:157] Top shape: 16 5 5 24 (9600)
I0510 09:23:21.253304 23939 net.cpp:165] Memory required for data: 3963944672
I0510 09:23:21.253306 23939 layer_factory.hpp:77] Creating layer conv7_2_mbox_loc_flat
I0510 09:23:21.253309 23939 net.cpp:100] Creating Layer conv7_2_mbox_loc_flat
I0510 09:23:21.253311 23939 net.cpp:434] conv7_2_mbox_loc_flat <- conv7_2_mbox_loc_perm
I0510 09:23:21.253315 23939 net.cpp:408] conv7_2_mbox_loc_flat -> conv7_2_mbox_loc_flat
I0510 09:23:21.253329 23939 net.cpp:150] Setting up conv7_2_mbox_loc_flat
I0510 09:23:21.253332 23939 net.cpp:157] Top shape: 16 600 (9600)
I0510 09:23:21.253334 23939 net.cpp:165] Memory required for data: 3963983072
I0510 09:23:21.253336 23939 layer_factory.hpp:77] Creating layer conv7_2_mbox_conf
I0510 09:23:21.253346 23939 net.cpp:100] Creating Layer conv7_2_mbox_conf
I0510 09:23:21.253350 23939 net.cpp:434] conv7_2_mbox_conf <- conv7_2_conv7_2_relu_0_split_2
I0510 09:23:21.253355 23939 net.cpp:408] conv7_2_mbox_conf -> conv7_2_mbox_conf
I0510 09:23:21.254241 23939 net.cpp:150] Setting up conv7_2_mbox_conf
I0510 09:23:21.254250 23939 net.cpp:157] Top shape: 16 12 5 5 (4800)
I0510 09:23:21.254252 23939 net.cpp:165] Memory required for data: 3964002272
I0510 09:23:21.254258 23939 layer_factory.hpp:77] Creating layer conv7_2_mbox_conf_perm
I0510 09:23:21.254266 23939 net.cpp:100] Creating Layer conv7_2_mbox_conf_perm
I0510 09:23:21.254269 23939 net.cpp:434] conv7_2_mbox_conf_perm <- conv7_2_mbox_conf
I0510 09:23:21.254274 23939 net.cpp:408] conv7_2_mbox_conf_perm -> conv7_2_mbox_conf_perm
I0510 09:23:21.254350 23939 net.cpp:150] Setting up conv7_2_mbox_conf_perm
I0510 09:23:21.254355 23939 net.cpp:157] Top shape: 16 5 5 12 (4800)
I0510 09:23:21.254359 23939 net.cpp:165] Memory required for data: 3964021472
I0510 09:23:21.254361 23939 layer_factory.hpp:77] Creating layer conv7_2_mbox_conf_flat
I0510 09:23:21.254365 23939 net.cpp:100] Creating Layer conv7_2_mbox_conf_flat
I0510 09:23:21.254369 23939 net.cpp:434] conv7_2_mbox_conf_flat <- conv7_2_mbox_conf_perm
I0510 09:23:21.254375 23939 net.cpp:408] conv7_2_mbox_conf_flat -> conv7_2_mbox_conf_flat
I0510 09:23:21.254393 23939 net.cpp:150] Setting up conv7_2_mbox_conf_flat
I0510 09:23:21.254397 23939 net.cpp:157] Top shape: 16 300 (4800)
I0510 09:23:21.254400 23939 net.cpp:165] Memory required for data: 3964040672
I0510 09:23:21.254403 23939 layer_factory.hpp:77] Creating layer conv7_2_mbox_priorbox
I0510 09:23:21.254408 23939 net.cpp:100] Creating Layer conv7_2_mbox_priorbox
I0510 09:23:21.254411 23939 net.cpp:434] conv7_2_mbox_priorbox <- conv7_2_conv7_2_relu_0_split_3
I0510 09:23:21.254415 23939 net.cpp:434] conv7_2_mbox_priorbox <- data_data_0_split_4
I0510 09:23:21.254427 23939 net.cpp:408] conv7_2_mbox_priorbox -> conv7_2_mbox_priorbox
I0510 09:23:21.254446 23939 net.cpp:150] Setting up conv7_2_mbox_priorbox
I0510 09:23:21.254449 23939 net.cpp:157] Top shape: 1 2 600 (1200)
I0510 09:23:21.254451 23939 net.cpp:165] Memory required for data: 3964045472
I0510 09:23:21.254452 23939 layer_factory.hpp:77] Creating layer conv8_2_mbox_loc
I0510 09:23:21.254461 23939 net.cpp:100] Creating Layer conv8_2_mbox_loc
I0510 09:23:21.254463 23939 net.cpp:434] conv8_2_mbox_loc <- conv8_2_conv8_2_relu_0_split_1
I0510 09:23:21.254469 23939 net.cpp:408] conv8_2_mbox_loc -> conv8_2_mbox_loc
I0510 09:23:21.255396 23939 net.cpp:150] Setting up conv8_2_mbox_loc
I0510 09:23:21.255404 23939 net.cpp:157] Top shape: 16 16 3 3 (2304)
I0510 09:23:21.255405 23939 net.cpp:165] Memory required for data: 3964054688
I0510 09:23:21.255417 23939 layer_factory.hpp:77] Creating layer conv8_2_mbox_loc_perm
I0510 09:23:21.255421 23939 net.cpp:100] Creating Layer conv8_2_mbox_loc_perm
I0510 09:23:21.255424 23939 net.cpp:434] conv8_2_mbox_loc_perm <- conv8_2_mbox_loc
I0510 09:23:21.255429 23939 net.cpp:408] conv8_2_mbox_loc_perm -> conv8_2_mbox_loc_perm
I0510 09:23:21.255506 23939 net.cpp:150] Setting up conv8_2_mbox_loc_perm
I0510 09:23:21.255512 23939 net.cpp:157] Top shape: 16 3 3 16 (2304)
I0510 09:23:21.255515 23939 net.cpp:165] Memory required for data: 3964063904
I0510 09:23:21.255518 23939 layer_factory.hpp:77] Creating layer conv8_2_mbox_loc_flat
I0510 09:23:21.255523 23939 net.cpp:100] Creating Layer conv8_2_mbox_loc_flat
I0510 09:23:21.255527 23939 net.cpp:434] conv8_2_mbox_loc_flat <- conv8_2_mbox_loc_perm
I0510 09:23:21.255530 23939 net.cpp:408] conv8_2_mbox_loc_flat -> conv8_2_mbox_loc_flat
I0510 09:23:21.255549 23939 net.cpp:150] Setting up conv8_2_mbox_loc_flat
I0510 09:23:21.255553 23939 net.cpp:157] Top shape: 16 144 (2304)
I0510 09:23:21.255556 23939 net.cpp:165] Memory required for data: 3964073120
I0510 09:23:21.255559 23939 layer_factory.hpp:77] Creating layer conv8_2_mbox_conf
I0510 09:23:21.255568 23939 net.cpp:100] Creating Layer conv8_2_mbox_conf
I0510 09:23:21.255573 23939 net.cpp:434] conv8_2_mbox_conf <- conv8_2_conv8_2_relu_0_split_2
I0510 09:23:21.255578 23939 net.cpp:408] conv8_2_mbox_conf -> conv8_2_mbox_conf
I0510 09:23:21.256438 23939 net.cpp:150] Setting up conv8_2_mbox_conf
I0510 09:23:21.256445 23939 net.cpp:157] Top shape: 16 8 3 3 (1152)
I0510 09:23:21.256448 23939 net.cpp:165] Memory required for data: 3964077728
I0510 09:23:21.256453 23939 layer_factory.hpp:77] Creating layer conv8_2_mbox_conf_perm
I0510 09:23:21.256456 23939 net.cpp:100] Creating Layer conv8_2_mbox_conf_perm
I0510 09:23:21.256459 23939 net.cpp:434] conv8_2_mbox_conf_perm <- conv8_2_mbox_conf
I0510 09:23:21.256464 23939 net.cpp:408] conv8_2_mbox_conf_perm -> conv8_2_mbox_conf_perm
I0510 09:23:21.256536 23939 net.cpp:150] Setting up conv8_2_mbox_conf_perm
I0510 09:23:21.256541 23939 net.cpp:157] Top shape: 16 3 3 8 (1152)
I0510 09:23:21.256542 23939 net.cpp:165] Memory required for data: 3964082336
I0510 09:23:21.256544 23939 layer_factory.hpp:77] Creating layer conv8_2_mbox_conf_flat
I0510 09:23:21.256548 23939 net.cpp:100] Creating Layer conv8_2_mbox_conf_flat
I0510 09:23:21.256551 23939 net.cpp:434] conv8_2_mbox_conf_flat <- conv8_2_mbox_conf_perm
I0510 09:23:21.256554 23939 net.cpp:408] conv8_2_mbox_conf_flat -> conv8_2_mbox_conf_flat
I0510 09:23:21.256573 23939 net.cpp:150] Setting up conv8_2_mbox_conf_flat
I0510 09:23:21.256577 23939 net.cpp:157] Top shape: 16 72 (1152)
I0510 09:23:21.256577 23939 net.cpp:165] Memory required for data: 3964086944
I0510 09:23:21.256579 23939 layer_factory.hpp:77] Creating layer conv8_2_mbox_priorbox
I0510 09:23:21.256584 23939 net.cpp:100] Creating Layer conv8_2_mbox_priorbox
I0510 09:23:21.256587 23939 net.cpp:434] conv8_2_mbox_priorbox <- conv8_2_conv8_2_relu_0_split_3
I0510 09:23:21.256590 23939 net.cpp:434] conv8_2_mbox_priorbox <- data_data_0_split_5
I0510 09:23:21.256597 23939 net.cpp:408] conv8_2_mbox_priorbox -> conv8_2_mbox_priorbox
I0510 09:23:21.256624 23939 net.cpp:150] Setting up conv8_2_mbox_priorbox
I0510 09:23:21.256628 23939 net.cpp:157] Top shape: 1 2 144 (288)
I0510 09:23:21.256631 23939 net.cpp:165] Memory required for data: 3964088096
I0510 09:23:21.256634 23939 layer_factory.hpp:77] Creating layer conv9_2_mbox_loc
I0510 09:23:21.256644 23939 net.cpp:100] Creating Layer conv9_2_mbox_loc
I0510 09:23:21.256647 23939 net.cpp:434] conv9_2_mbox_loc <- conv9_2_conv9_2_relu_0_split_0
I0510 09:23:21.256654 23939 net.cpp:408] conv9_2_mbox_loc -> conv9_2_mbox_loc
I0510 09:23:21.257591 23939 net.cpp:150] Setting up conv9_2_mbox_loc
I0510 09:23:21.257599 23939 net.cpp:157] Top shape: 16 16 1 1 (256)
I0510 09:23:21.257601 23939 net.cpp:165] Memory required for data: 3964089120
I0510 09:23:21.257606 23939 layer_factory.hpp:77] Creating layer conv9_2_mbox_loc_perm
I0510 09:23:21.257611 23939 net.cpp:100] Creating Layer conv9_2_mbox_loc_perm
I0510 09:23:21.257613 23939 net.cpp:434] conv9_2_mbox_loc_perm <- conv9_2_mbox_loc
I0510 09:23:21.257617 23939 net.cpp:408] conv9_2_mbox_loc_perm -> conv9_2_mbox_loc_perm
I0510 09:23:21.257690 23939 net.cpp:150] Setting up conv9_2_mbox_loc_perm
I0510 09:23:21.257694 23939 net.cpp:157] Top shape: 16 1 1 16 (256)
I0510 09:23:21.257696 23939 net.cpp:165] Memory required for data: 3964090144
I0510 09:23:21.257697 23939 layer_factory.hpp:77] Creating layer conv9_2_mbox_loc_flat
I0510 09:23:21.257701 23939 net.cpp:100] Creating Layer conv9_2_mbox_loc_flat
I0510 09:23:21.257704 23939 net.cpp:434] conv9_2_mbox_loc_flat <- conv9_2_mbox_loc_perm
I0510 09:23:21.257707 23939 net.cpp:408] conv9_2_mbox_loc_flat -> conv9_2_mbox_loc_flat
I0510 09:23:21.257722 23939 net.cpp:150] Setting up conv9_2_mbox_loc_flat
I0510 09:23:21.257726 23939 net.cpp:157] Top shape: 16 16 (256)
I0510 09:23:21.257727 23939 net.cpp:165] Memory required for data: 3964091168
I0510 09:23:21.257730 23939 layer_factory.hpp:77] Creating layer conv9_2_mbox_conf
I0510 09:23:21.257736 23939 net.cpp:100] Creating Layer conv9_2_mbox_conf
I0510 09:23:21.257740 23939 net.cpp:434] conv9_2_mbox_conf <- conv9_2_conv9_2_relu_0_split_1
I0510 09:23:21.257743 23939 net.cpp:408] conv9_2_mbox_conf -> conv9_2_mbox_conf
I0510 09:23:21.258852 23939 net.cpp:150] Setting up conv9_2_mbox_conf
I0510 09:23:21.258859 23939 net.cpp:157] Top shape: 16 8 1 1 (128)
I0510 09:23:21.258862 23939 net.cpp:165] Memory required for data: 3964091680
I0510 09:23:21.258865 23939 layer_factory.hpp:77] Creating layer conv9_2_mbox_conf_perm
I0510 09:23:21.258872 23939 net.cpp:100] Creating Layer conv9_2_mbox_conf_perm
I0510 09:23:21.258874 23939 net.cpp:434] conv9_2_mbox_conf_perm <- conv9_2_mbox_conf
I0510 09:23:21.258879 23939 net.cpp:408] conv9_2_mbox_conf_perm -> conv9_2_mbox_conf_perm
I0510 09:23:21.258954 23939 net.cpp:150] Setting up conv9_2_mbox_conf_perm
I0510 09:23:21.258958 23939 net.cpp:157] Top shape: 16 1 1 8 (128)
I0510 09:23:21.258960 23939 net.cpp:165] Memory required for data: 3964092192
I0510 09:23:21.258961 23939 layer_factory.hpp:77] Creating layer conv9_2_mbox_conf_flat
I0510 09:23:21.258965 23939 net.cpp:100] Creating Layer conv9_2_mbox_conf_flat
I0510 09:23:21.258968 23939 net.cpp:434] conv9_2_mbox_conf_flat <- conv9_2_mbox_conf_perm
I0510 09:23:21.258971 23939 net.cpp:408] conv9_2_mbox_conf_flat -> conv9_2_mbox_conf_flat
I0510 09:23:21.258988 23939 net.cpp:150] Setting up conv9_2_mbox_conf_flat
I0510 09:23:21.258991 23939 net.cpp:157] Top shape: 16 8 (128)
I0510 09:23:21.258993 23939 net.cpp:165] Memory required for data: 3964092704
I0510 09:23:21.258996 23939 layer_factory.hpp:77] Creating layer conv9_2_mbox_priorbox
I0510 09:23:21.258999 23939 net.cpp:100] Creating Layer conv9_2_mbox_priorbox
I0510 09:23:21.259003 23939 net.cpp:434] conv9_2_mbox_priorbox <- conv9_2_conv9_2_relu_0_split_2
I0510 09:23:21.259009 23939 net.cpp:434] conv9_2_mbox_priorbox <- data_data_0_split_6
I0510 09:23:21.259014 23939 net.cpp:408] conv9_2_mbox_priorbox -> conv9_2_mbox_priorbox
I0510 09:23:21.259035 23939 net.cpp:150] Setting up conv9_2_mbox_priorbox
I0510 09:23:21.259039 23939 net.cpp:157] Top shape: 1 2 16 (32)
I0510 09:23:21.259049 23939 net.cpp:165] Memory required for data: 3964092832
I0510 09:23:21.259052 23939 layer_factory.hpp:77] Creating layer mbox_loc
I0510 09:23:21.259057 23939 net.cpp:100] Creating Layer mbox_loc
I0510 09:23:21.259060 23939 net.cpp:434] mbox_loc <- conv4_3_norm_mbox_loc_flat
I0510 09:23:21.259063 23939 net.cpp:434] mbox_loc <- fc7_mbox_loc_flat
I0510 09:23:21.259066 23939 net.cpp:434] mbox_loc <- conv6_2_mbox_loc_flat
I0510 09:23:21.259069 23939 net.cpp:434] mbox_loc <- conv7_2_mbox_loc_flat
I0510 09:23:21.259071 23939 net.cpp:434] mbox_loc <- conv8_2_mbox_loc_flat
I0510 09:23:21.259075 23939 net.cpp:434] mbox_loc <- conv9_2_mbox_loc_flat
I0510 09:23:21.259080 23939 net.cpp:408] mbox_loc -> mbox_loc
I0510 09:23:21.259104 23939 net.cpp:150] Setting up mbox_loc
I0510 09:23:21.259109 23939 net.cpp:157] Top shape: 16 34928 (558848)
I0510 09:23:21.259112 23939 net.cpp:165] Memory required for data: 3966328224
I0510 09:23:21.259115 23939 layer_factory.hpp:77] Creating layer mbox_conf
I0510 09:23:21.259119 23939 net.cpp:100] Creating Layer mbox_conf
I0510 09:23:21.259122 23939 net.cpp:434] mbox_conf <- conv4_3_norm_mbox_conf_flat
I0510 09:23:21.259125 23939 net.cpp:434] mbox_conf <- fc7_mbox_conf_flat
I0510 09:23:21.259127 23939 net.cpp:434] mbox_conf <- conv6_2_mbox_conf_flat
I0510 09:23:21.259130 23939 net.cpp:434] mbox_conf <- conv7_2_mbox_conf_flat
I0510 09:23:21.259132 23939 net.cpp:434] mbox_conf <- conv8_2_mbox_conf_flat
I0510 09:23:21.259135 23939 net.cpp:434] mbox_conf <- conv9_2_mbox_conf_flat
I0510 09:23:21.259137 23939 net.cpp:408] mbox_conf -> mbox_conf
I0510 09:23:21.259153 23939 net.cpp:150] Setting up mbox_conf
I0510 09:23:21.259157 23939 net.cpp:157] Top shape: 16 17464 (279424)
I0510 09:23:21.259160 23939 net.cpp:165] Memory required for data: 3967445920
I0510 09:23:21.259160 23939 layer_factory.hpp:77] Creating layer mbox_priorbox
I0510 09:23:21.259166 23939 net.cpp:100] Creating Layer mbox_priorbox
I0510 09:23:21.259168 23939 net.cpp:434] mbox_priorbox <- conv4_3_norm_mbox_priorbox
I0510 09:23:21.259173 23939 net.cpp:434] mbox_priorbox <- fc7_mbox_priorbox
I0510 09:23:21.259178 23939 net.cpp:434] mbox_priorbox <- conv6_2_mbox_priorbox
I0510 09:23:21.259182 23939 net.cpp:434] mbox_priorbox <- conv7_2_mbox_priorbox
I0510 09:23:21.259186 23939 net.cpp:434] mbox_priorbox <- conv8_2_mbox_priorbox
I0510 09:23:21.259191 23939 net.cpp:434] mbox_priorbox <- conv9_2_mbox_priorbox
I0510 09:23:21.259196 23939 net.cpp:408] mbox_priorbox -> mbox_priorbox
I0510 09:23:21.259214 23939 net.cpp:150] Setting up mbox_priorbox
I0510 09:23:21.259218 23939 net.cpp:157] Top shape: 1 2 34928 (69856)
I0510 09:23:21.259222 23939 net.cpp:165] Memory required for data: 3967725344
I0510 09:23:21.259224 23939 layer_factory.hpp:77] Creating layer mbox_loss
I0510 09:23:21.259232 23939 net.cpp:100] Creating Layer mbox_loss
I0510 09:23:21.259235 23939 net.cpp:434] mbox_loss <- mbox_loc
I0510 09:23:21.259238 23939 net.cpp:434] mbox_loss <- mbox_conf
I0510 09:23:21.259240 23939 net.cpp:434] mbox_loss <- mbox_priorbox
…
state {
  phase: TEST
}
layer {
  name: "data"
  type: "AnnotatedData"
  top: "data"
  top: "label"
  include {
    phase: TEST
  }
  transform_param {
    mean_value: 104
    mean_value: 117
    mean_value: 123
    resize_param {
      prob: 1
      resize_mode: WARP
      height: 300
      width: 300
      interp_mode: LINEAR
    }
  }
  data_param {
    source: "examples/VOC0712/VOC0712_test_lmdb"
    batch_size: 8
    backend: LMDB
  }
  annotated_data_param {
    batch_sampler {
    }
    label_map_file: "data/VOC0712/labelmap_voc.prototxt"
  }
}
layer {
  name: "conv1_1"
  type: "Convolution"
  bottom: "data"
  top: "conv1_1"
  param {
    lr_mult: 1
    decay_mult: 1
  }
  param {
    lr_mult: 2
    decay_mult: 0
  }
  convolution_param {
    num_output: 64
    pad: 1
    kernel_size: 3
    weight_filler {
      type: "xavier"
    }
    bias_filler {
      type: "constant"
      value: 0
    }
  }
}
layer {
  name: "relu1_1"
  type: "ReLU"
  bottom: "conv1_1"
  top: "conv1_1"
}
layer {
  name: "conv1_2"
  type: "Convolution"
  bottom: "conv1_1"
  top: "conv1_2"
  param {
    lr_mult: 1
    decay_mult: 1
  }
  param {
    lr_mult: 2
    decay_mult: 0
  }
  convolution_param {
    num_output: 64
    pad: 1
    kernel_size: 3
    weight_filler {
      type: "xavier"
    }
    bias_filler {
      type: "constant"
      value: 0
    }
  }
}
layer {
  name: "relu1_2"
  type: "ReLU"
  bottom: "conv1_2"
  top: "conv1_2"
}
layer {
  name: "pool1"
  type: "Pooling"
  bottom: "conv1_2"
  top: "pool1"
  pooling_param {
    pool: MAX
    kernel_size: 2
    stride: 2
  }
}
layer {
  name: "conv2_1"
  type: "Convolution"
  bottom: "pool1"
  top: "conv2_1"
  param {
    lr_mult: 1
    decay_mult: 1
  }
  param {
    lr_mult: 2
    decay_mult: 0
  }
  convolution_param {
    num_output: 128
    pad: 1
    kernel_size: 3
    weight_filler {
      type: "xavier"
    }
    bias_filler {
      type: "constant"
      value: 0
    }
  }
}
layer {
  name: "relu2_1"
  type: "ReLU"
  bottom: "conv2_1"
  top: "conv2_1"
}
layer {
  name: "conv2_2"
  type: "Convolution"
  bottom: "conv2_1"
  top: "conv2_2"
  param {
    lr_mult: 1
    decay_mult: 1
  }
  param {
    lr_mult: 2
    decay_mult: 0
  }
  convolution_param {
    num_output: 128
    pad: 1
    kernel_size: 3
    weight_filler {
      type: "xavier"
    }
    bias_filler {
      type: "constant"
      value: 0
    }
  }
}
layer {
  name: "relu2_2"
  type: "ReLU"
  bottom: "conv2_2"
  top: "conv2_2"
}
layer {
  name: "pool2"
  type: "Pooling"
  bottom: "conv2_2"
  top: "pool2"
  pooling_param {
    pool: MAX
    kernel_size: 2
    stride: 2
  }
}
layer {
  name: "conv3_1"
  type: "Convolution"
  bottom: "pool2"
  top: "conv3_1"
  param {
    lr_mult: 1
    decay_mult: 1
  }
  param {
    lr_mult: 2
    decay_mult: 0
  }
  convolution_param {
    num_output: 256
    pad: 1
    kernel_size: 3
    weight_filler {
      type: "xavier"
    }
    bias_filler {
      type: "constant"
      value: 0
    }
  }
}
layer {
  name: "relu3_1"
  type: "ReLU"
  bottom: "conv3_1"
  top: "conv3_1"
}
layer {
  name: "conv3_2"
  type: "Convolution"
  bottom: "conv3_1"
  top: "conv3_2"
  param {
    lr_mult: 1
    decay_mult: 1
  }
  param {
    lr_mult: 2
    decay_mult: 0
  }
  convolution_param {
    num_output: 256
    pad: 1
    kernel_size: 3
    weight_filler {
      type: "xavier"
    }
    bias_filler {
      type: "constant"
      value: 0
    }
  }
}
layer {
  name: "relu3_2"
  type: "ReLU"
  bottom: "conv3_2"
  top: "conv3_2"
}
layer {
  name: "conv3_3"
  type: "Convolution"
  bottom: "conv3_2"
  top: "conv3_3"
  param {
    lr_mult: 1
    decay_mult: 1
  }
  param {
    lr_mult: 2
    decay_mult: 0
  }
  convolution_param {
    num_output: 256
    pad: 1
    kernel_size: 3
    weight_filler {
      type: "xavier"
    }
    bias_filler {
      type: "constant"
      value: 0
    }
  }
}
layer {
  name: "relu3_3"
  type: "ReLU"
  bottom: "conv3_3"
  top: "conv3_3"
}
layer {
  name: "pool3"
  type: "Pooling"
  bottom: "conv3_3"
  top: "pool3"
  pooling_param {
    pool: MAX
    kernel_size: 2
    stride: 2
  }
}
layer {
  name: "conv4_1"
  type: "Convolution"
  bottom: "pool3"
  top: "conv4_1"
  param {
    lr_mult: 1
    decay_mult: 1
  }
  param {
    lr_mult: 2
    decay_mult: 0
  }
  convolution_param {
    num_output: 512
    pad: 1
    kernel_size: 3
    weight_filler {
      type: "xavier"
    }
    bias_filler {
      type: "constant"
      value: 0
    }
  }
}
layer {
  name: "relu4_1"
  type: "ReLU"
  bottom: "conv4_1"
  top: "conv4_1"
}
layer {
  name: "conv4_2"
  type: "Convolution"
  bottom: "conv4_1"
  top: "conv4_2"
  param {
    lr_mult: 1
    decay_mult: 1
  }
  param {
    lr_mult: 2
    decay_mult: 0
  }
  convolution_param {
    num_output: 512
    pad: 1
    kernel_size: 3
    weight_filler {
      type: "xavier"
    }
    bias_filler {
      type: "constant"
      value: 0
    }
  }
}
layer {
  name: "relu4_2"
  type: "ReLU"
  bottom: "conv4_2"
  top: "conv4_2"
}
layer {
  name: "conv4_3"
  type: "Convolution"
  bottom: "conv4_2"
  top: "conv4_3"
  param {
    lr_mult: 1
    decay_mult: 1
  }
  param {
    lr_mult: 2
    decay_mult: 0
  }
  convolution_param {
    num_output: 512
    pad: 1
    kernel_size: 3
    weight_filler {
      type: "xavier"
    }
    bias_filler {
      type: "constant"
      value: 0
    }
  }
}
layer {
  name: "relu4_3"
  type: "ReLU"
  bottom: "conv4_3"
  top: "conv4_3"
}
layer {
  name: "pool4"
  type: "Pooling"
  bottom: "conv4_3"
  top: "pool4"
  pooling_param {
    pool: MAX
    kernel_size: 2
    stride: 2
  }
}
layer {
  name: "conv5_1"
  type: "Convolution"
  bottom: "pool4"
  top: "conv5_1"
  param {
    lr_mult: 1
    decay_mult: 1
  }
  param {
    lr_mult: 2
    decay_mult: 0
  }
  convolution_param {
    num_output: 512
    pad: 1
    kernel_size: 3
    weight_filler {
      type: "xavier"
    }
    bias_filler {
      type: "constant"
      value: 0
    }
    dilation: 1
  }
}
layer {
  name: "relu5_1"
  type: "ReLU"
  bottom: "conv5_1"
  top: "conv5_1"
}
layer {
  name: "conv5_2"
  type: "Convolution"
  bottom: "conv5_1"
  top: "conv5_2"
  param {
    lr_mult: 1
    decay_mult: 1
  }
  param {
    lr_mult: 2
    decay_mult: 0
  }
  convolution_param {
    num_output: 512
    pad: 1
    kernel_size: 3
    weight_filler {
      type: "xavier"
    }
    bias_filler {
      type: "constant"
      value: 0
    }
    dilation: 1
  }
}
layer {
  name: "relu5_2"
  type: "ReLU"
  bottom: "conv5_2"
  top: "conv5_2"
}
layer {
  name: "conv5_3"
  type: "Convolution"
  bottom: "conv5_2"
  top: "conv5_3"
  param {
    lr_mult: 1
    decay_mult: 1
  }
  param {
    lr_mult: 2
    decay_mult: 0
  }
  convolution_param {
    num_output: 512
    pad: 1
    kernel_size: 3
    weight_filler {
      type: "xavier"
    }
    bias_filler {
      type: "constant"
      value: 0
    }
    dilation: 1
  }
}
layer {
  name: "relu5_3"
  type: "ReLU"
  bottom: "conv5_3"
  top: "conv5_3"
}
layer {
  name: "pool5"
  type: "Pooling"
  bottom: "conv5_3"
  top: "pool5"
  pooling_param {
    pool: MAX
    kernel_size: 3
    stride: 1
    pad: 1
  }
}
layer {
  name: "fc6"
  type: "Convolution"
  bottom: "pool5"
  top: "fc6"
  param {
    lr_mult: 1
    decay_mult: 1
  }
  param {
    lr_mult: 2
    decay_mult: 0
  }
  convolution_param {
    num_output: 1024
    pad: 6
    kernel_size: 3
    weight_filler {
      type: "xavier"
    }
    bias_filler {
      type: "constant"
      value: 0
    }
    dilation: 6
  }
}
layer {
  name: "relu6"
  type: "ReLU"
  bottom: "fc6"
  top: "fc6"
}
layer {
  name: "fc7"
  type: "Convolution"
  bottom: "fc6"
  top: "fc7"
  param {
    lr_mult: 1
    decay_mult: 1
  }
  param {
    lr_mult: 2
    decay_mult: 0
  }
  convolution_param {
    num_output: 1024
    kernel_size: 1
    weight_filler {
      type: "xavier"
    }
    bias_filler {
      type: "constant"
      value: 0
    }
  }
}
layer {
  name: "relu7"
  type: "ReLU"
  bottom: "fc7"
  top: "fc7"
}
layer {
  name: "conv6_1"
  type: "Convolution"
  bottom: "fc7"
  top: "conv6_1"
  param {
    lr_mult: 1
    decay_mult: 1
  }
  param {
    lr_mult: 2
    decay_mult: 0
  }
  convolution_param {
    num_output: 256
    pad: 0
    kernel_size: 1
    stride: 1
    weight_filler {
      type: "xavier"
    }
    bias_filler {
      type: "constant"
      value: 0
    }
  }
}
layer {
  name: "conv6_1_relu"
  type: "ReLU"
  bottom: "conv6_1"
  top: "conv6_1"
}
layer {
  name: "conv6_2"
  type: "Convolution"
  bottom: "conv6_1"
  top: "conv6_2"
  param {
    lr_mult: 1
    decay_mult: 1
  }
  param {
    lr_mult: 2
    decay_mult: 0
  }
  convolution_param {
    num_output: 512
    pad: 1
    kernel_size: 3
    stride: 2
    weight_filler {
      type: "xavier"
    }
    bias_filler {
      type: "constant"
      value: 0
    }
  }
}
layer {
  name: "conv6_2_relu"
  type: "ReLU"
  bottom: "conv6_2"
  top: "conv6_2"
}
layer {
  name: "conv7_1"
  type: "Convolution"
  bottom: "conv6_2"
  top: "conv7_1"
  param {
    lr_mult: 1
    decay_mult: 1
  }
  param {
    lr_mult: 2
    decay_mult: 0
  }
  convolution_param {
    num_output: 128
    pad: 0
    kernel_size: 1
    stride: 1
    weight_filler {
      type: "xavier"
    }
    bias_filler {
      type: "constant"
      value: 0
    }
  }
}
layer {
  name: "conv7_1_relu"
  type: "ReLU"
  bottom: "conv7_1"
  top: "conv7_1"
}
layer {
  name: "conv7_2"
  type: "Convolution"
  bottom: "conv7_1"
  top: "conv7_2"
  param {
    lr_mult: 1
    decay_mult: 1
  }
  param {
    lr_mult: 2
    decay_mult: 0
  }
  convolution_param {
    num_output: 256
    pad: 1
    kernel_size: 3
    stride: 2
    weight_filler {
      type: "xavier"
    }
    bias_filler {
      type: "constant"
      value: 0
    }
  }
}
layer {
  name: "conv7_2_relu"
  type: "ReLU"
  bottom: "conv7_2"
  top: "conv7_2"
}
layer {
  name: "conv8_1"
  type: "Convolution"
  bottom: "conv7_2"
  top: "conv8_1"
  param {
    lr_mult: 1
    decay_mult: 1
  }
  param {
    lr_mult: 2
    decay_mult: 0
  }
  convolution_param {
    num_output: 128
    pad: 0
    kernel_size: 1
    stride: 1
    weight_filler {
      type: "xavier"
    }
    bias_filler {
      type: "constant"
      value: 0
    }
  }
}
layer {
  name: "conv8_1_relu"
  type: "ReLU"
  bottom: "conv8_1"
  top: "conv8_1"
}
layer {
  name: "conv8_2"
  type: "Convolution"
  bottom: "conv8_1"
  top: "conv8_2"
  param {
    lr_mult: 1
    decay_mult: 1
  }
  param {
    lr_mult: 2
    decay_mult: 0
  }
  convolution_param {
    num_output: 256
    pad: 0
    kernel_size: 3
    stride: 1
    weight_filler {
      type: "xavier"
    }
    bias_filler {
      type: "constant"
      value: 0
    }
  }
}
layer {
  name: "conv8_2_relu"
  type: "ReLU"
  bottom: "conv8_2"
  top: "conv8_2"
}
layer {
  name: "conv9_1"
  type: "Convolution"
  bottom: "conv8_2"
  top: "conv9_1"
  param {
    lr_mult: 1
    decay_mult: 1
  }
  param {
    lr_mult: 2
    decay_mult: 0
  }
  convolution_param {
    num_output: 128
    pad: 0
    kernel_size: 1
    stride: 1
    weight_filler {
      type: "xavier"
    }
    bias_filler {
      type: "constant"
      value: 0
    }
  }
}
layer {
  name: "conv9_1_relu"
  type: "ReLU"
  bottom: "conv9_1"
  top: "conv9_1"
}
layer {
  name: "conv9_2"
  type: "Convolution"
  bottom: "conv9_1"
  top: "conv9_2"
  param {
    lr_mult: 1
    decay_mult: 1
  }
  param {
    lr_mult: 2
    decay_mult: 0
  }
  convolution_param {
    num_output: 256
    pad: 0
    kernel_size: 3
    stride: 1
    weight_filler {
      type: "xavier"
    }
    bias_filler {
      type: "constant"
      value: 0
    }
  }
}
layer {
  name: "conv9_2_relu"
  type: "ReLU"
  bottom: "conv9_2"
  top: "conv9_2"
}
layer {
  name: "conv4_3_norm"
  type: "Normalize"
  bottom: "conv4_3"
  top: "conv4_3_norm"
  norm_param {
    across_spatial: false
    scale_filler {
      type: "constant"
      value: 20
    }
    channel_shared: false
  }
}
layer {
  name: "conv4_3_norm_mbox_loc"
  type: "Convolution"
  bottom: "conv4_3_norm"
  top: "conv4_3_norm_mbox_loc"
  param {
    lr_mult: 1
    decay_mult: 1
  }
  param {
    lr_mult: 2
    decay_mult: 0
  }
  convolution_param {
    num_output: 16
    pad: 1
    kernel_size: 3
    stride: 1
    weight_filler {
      type: "xavier"
    }
    bias_filler {
      type: "constant"
      value: 0
    }
  }
}
layer {
  name: "conv4_3_norm_mbox_loc_perm"
  type: "Permute"
  bottom: "conv4_3_norm_mbox_loc"
  top: "conv4_3_norm_mbox_loc_perm"
  permute_param {
    order: 0
    order: 2
    order: 3
    order: 1
  }
}
layer {
  name: "conv4_3_norm_mbox_loc_flat"
  type: "Flatten"
  bottom: "conv4_3_norm_mbox_loc_perm"
  top: "conv4_3_norm_mbox_loc_flat"
  flatten_param {
    axis: 1
  }
}
layer {
  name: "conv4_3_norm_mbox_conf"
  type: "Convolution"
  bottom: "conv4_3_norm"
  top: "conv4_3_norm_mbox_conf"
  param {
    lr_mult: 1
    decay_mult: 1
  }
  param {
    lr_mult: 2
    decay_mult: 0
  }
  convolution_param {
    num_output: 8
    pad: 1
    kernel_size: 3
    stride: 1
    weight_filler {
      type: "xavier"
    }
    bias_filler {
      type: "constant"
      value: 0
    }
  }
}
layer {
  name: "conv4_3_norm_mbox_conf_perm"
  type: "Permute"
  bottom: "conv4_3_norm_mbox_conf"
  top: "conv4_3_norm_mbox_conf_perm"
  permute_param {
    order: 0
    order: 2
    order: 3
    order: 1
  }
}
layer {
  name: "conv4_3_norm_mbox_conf_flat"
  type: "Flatten"
  bottom: "conv4_3_norm_mbox_conf_perm"
  top: "conv4_3_norm_mbox_conf_flat"
  flatten_param {
    axis: 1
  }
}
layer {
  name: "conv4_3_norm_mbox_priorbox"
  type: "PriorBox"
  bottom: "conv4_3_norm"
  bottom: "data"
  top: "conv4_3_norm_mbox_priorbox"
  prior_box_param {
    min_size: 30
    max_size: 60
    aspect_ratio: 2
    flip: true
    clip: false
    variance: 0.1
    variance: 0.1
    variance: 0.2
    variance: 0.2
    step: 8
    offset: 0.5
  }
}
layer {
  name: "fc7_mbox_loc"
  type: "Convolution"
  bottom: "fc7"
  top: "fc7_mbox_loc"
  param {
    lr_mult: 1
    decay_mult: 1
  }
  param {
    lr_mult: 2
    decay_mult: 0
  }
  convolution_param {
    num_output: 24
    pad: 1
    kernel_size: 3
    stride: 1
    weight_filler {
      type: "xavier"
    }
    bias_filler {
      type: "constant"
      value: 0
    }
  }
}
layer {
  name: "fc7_mbox_loc_perm"
  type: "Permute"
  bottom: "fc7_mbox_loc"
  top: "fc7_mbox_loc_perm"
  permute_param {
    order: 0
    order: 2
    order: 3
    order: 1
  }
}
layer {
  name: "fc7_mbox_loc_flat"
  type: "Flatten"
  bottom: "fc7_mbox_loc_perm"
  top: "fc7_mbox_loc_flat"
  flatten_param {
    axis: 1
  }
}
layer {
  name: "fc7_mbox_conf"
  type: "Convolution"
  bottom: "fc7"
  top: "fc7_mbox_conf"
  param {
    lr_mult: 1
    decay_mult: 1
  }
  param {
    lr_mult: 2
    decay_mult: 0
  }
  convolution_param {
    num_output: 12
    pad: 1
    kernel_size: 3
    stride: 1
    weight_filler {
      type: "xavier"
    }
    bias_filler {
      type: "constant"
      value: 0
    }
  }
}
layer {
  name: "fc7_mbox_conf_perm"
  type: "Permute"
  bottom: "fc7_mbox_conf"
  top: "fc7_mbox_conf_perm"
  permute_param {
    order: 0
    order: 2
    order: 3
    order: 1
  }
}
layer {
  name: "fc7_mbox_conf_flat"
  type: "Flatten"
  bottom: "fc7_mbox_conf_perm"
  top: "fc7_mbox_conf_flat"
  flatten_param {
    axis: 1
  }
}
layer {
  name: "fc7_mbox_priorbox"
  type: "PriorBox"
  bottom: "fc7"
  bottom: "data"
  top: "fc7_mbox_priorbox"
  prior_box_param {
    min_size: 60
    max_size: 111
    aspect_ratio: 2
    aspect_ratio: 3
    flip: true
    clip: false
    variance: 0.1
    variance: 0.1
    variance: 0.2
    variance: 0.2
    step: 16
    offset: 0.5
  }
}
layer {
  name: "conv6_2_mbox_loc"
  type: "Convolution"
  bottom: "conv6_2"
  top: "conv6_2_mbox_loc"
  param {
    lr_mult: 1
    decay_mult: 1
  }
  param {
    lr_mult: 2
    decay_mult: 0
  }
  convolution_param {
    num_output: 24
    pad: 1
    kernel_size: 3
    stride: 1
    weight_filler {
      type: "xavier"
    }
    bias_filler {
      type: "constant"
      value: 0
    }
  }
}
layer {
  name: "conv6_2_mbox_loc_perm"
  type: "Permute"
  bottom: "conv6_2_mbox_loc"
  top: "conv6_2_mbox_loc_perm"
  permute_param {
    order: 0
    order: 2
    order: 3
    order: 1
  }
}
layer {
  name: "conv6_2_mbox_loc_flat"
  type: "Flatten"
  bottom: "conv6_2_mbox_loc_perm"
  top: "conv6_2_mbox_loc_flat"
  flatten_param {
    axis: 1
  }
}
layer {
  name: "conv6_2_mbox_conf"
  type: "Convolution"
  bottom: "conv6_2"
  top: "conv6_2_mbox_conf"
  param {
    lr_mult: 1
    decay_mult: 1
  }
  param {
    lr_mult: 2
    decay_mult: 0
  }
  convolution_param {
    num_output: 12
    pad: 1
    kernel_size: 3
    stride: 1
    weight_filler {
      type: "xavier"
    }
    bias_filler {
      type: "constant"
      value: 0
    }
  }
}
layer {
  name: "conv6_2_mbox_conf_perm"
  type: "Permute"
  bottom: "conv6_2_mbox_conf"
  top: "conv6_2_mbox_conf_perm"
  permute_param {
    order: 0
    order: 2
    order: 3
    order: 1
  }
}
layer {
  name: "conv6_2_mbox_conf_flat"
  type: "Flatten"
  bottom: "conv6_2_mbox_conf_perm"
  top: "conv6_2_mbox_conf_flat"
  flatten_param {
    axis: 1
  }
}
layer {
  name: "conv6_2_mbox_priorbox"
  type: "PriorBox"
  bottom: "conv6_2"
  bottom: "data"
  top: "conv6_2_mbox_priorbox"
  prior_box_param {
    min_size: 111
    max_size: 162
    aspect_ratio: 2
    aspect_ratio: 3
    flip: true
    clip: false
    variance: 0.1
    variance: 0.1
    variance: 0.2
    variance: 0.2
    step: 32
    offset: 0.5
  }
}
layer {
  name: "conv7_2_mbox_loc"
  type: "Convolution"
  bottom: "conv7_2"
  top: "conv7_2_mbox_loc"
  param {
    lr_mult: 1
    decay_mult: 1
  }
  param {
    lr_mult: 2
    decay_mult: 0
  }
  convolution_param {
    num_output: 24
    pad: 1
    kernel_size: 3
    stride: 1
    weight_filler {
      type: "xavier"
    }
    bias_filler {
      type: "constant"
      value: 0
    }
  }
}
layer {
  name: "conv7_2_mbox_loc_perm"
  type: "Permute"
  bottom: "conv7_2_mbox_loc"
  top: "conv7_2_mbox_loc_perm"
  permute_param {
    order: 0
    order: 2
    order: 3
    order: 1
  }
}
layer {
  name: "conv7_2_mbox_loc_flat"
  type: "Flatten"
  bottom: "conv7_2_mbox_loc_perm"
  top: "conv7_2_mbox_loc_flat"
  flatten_param {
    axis: 1
  }
}
layer {
  name: "conv7_2_mbox_conf"
  type: "Convolution"
  bottom: "conv7_2"
  top: "conv7_2_mbox_conf"
  param {
    lr_mult: 1
    decay_mult: 1
  }
  param {
    lr_mult: 2
    decay_mult: 0
  }
  convolution_param {
    num_output: 12
    pad: 1
    kernel_size: 3
    stride: 1
    weight_filler {
      type: "xavier"
    }
    bias_filler {
      type: "constant"
      value: 0
    }
  }
}
layer {
  name: "conv7_2_mbox_conf_perm"
  type: "Permute"
  bottom: "conv7_2_mbox_conf"
  top: "conv7_2_mbox_conf_perm"
  permute_param {
    order: 0
    order: 2
    order: 3
    order: 1
  }
}
layer {
  name: "conv7_2_mbox_conf_flat"
  type: "Flatten"
  bottom: "conv7_2_mbox_conf_perm"
  top: "conv7_2_mbox_conf_flat"
  flatten_param {
    axis: 1
  }
}
layer {
  name: "conv7_2_mbox_priorbox"
  type: "PriorBox"
  bottom: "conv7_2"
  bottom: "data"
  top: "conv7_2_mbox_priorbox"
  prior_box_param {
    min_size: 162
    max_size: 213
    aspect_ratio: 2
    aspect_ratio: 3
    flip: true
    clip: false
    variance: 0.1
    variance: 0.1
    variance: 0.2
    variance: 0.2
    step: 64
    offset: 0.5
  }
}
layer {
  name: "conv8_2_mbox_loc"
  type: "Convolution"
  bottom: "conv8_2"
  top: "conv8_2_mbox_loc"
  param {
    lr_mult: 1
    decay_mult: 1
  }
  param {
    lr_mult: 2
    decay_mult: 0
  }
  convolution_param {
    num_output: 16
    pad: 1
    kernel_size: 3
    stride: 1
    weight_filler {
      type: "xavier"
    }
    bias_filler {
      type: "constant"
      value: 0
    }
  }
}
layer {
  name: "conv8_2_mbox_loc_perm"
  type: "Permute"
  bottom: "conv8_2_mbox_loc"
  top: "conv8_2_mbox_loc_perm"
  permute_param {
    order: 0
    order: 2
    order: 3
    order: 1
  }
}
layer {
  name: "conv8_2_mbox_loc_flat"
  type: "Flatten"
  bottom: "conv8_2_mbox_loc_perm"
  top: "conv8_2_mbox_loc_flat"
  flatten_param {
    axis: 1
  }
}
layer {
  name: "conv8_2_mbox_conf"
  type: "Convolution"
  bottom: "conv8_2"
  top: "conv8_2_mbox_conf"
  param {
    lr_mult: 1
    decay_mult: 1
  }
  param {
    lr_mult: 2
    decay_mult: 0
  }
  convolution_param {
    num_output: 8
    pad: 1
    kernel_size: 3
    stride: 1
    weight_filler {
      type: "xavier"
    }
    bias_filler {
      type: "constant"
      value: 0
    }
  }
}
layer {
  name: "conv8_2_mbox_conf_perm"
  type: "Permute"
  bottom: "conv8_2_mbox_conf"
  top: "conv8_2_mbox_conf_perm"
  permute_param {
    order: 0
    order: 2
    order: 3
    order: 1
  }
}
layer {
  name: "conv8_2_mbox_conf_flat"
  type: "Flatten"
  bottom: "conv8_2_mbox_conf_perm"
  top: "conv8_2_mbox_conf_flat"
  flatten_param {
    axis: 1
  }
}
layer {
  name: "conv8_2_mbox_priorbox"
  type: "PriorBox"
  bottom: "conv8_2"
  bottom: "data"
  top: "conv8_2_mbox_priorbox"
  prior_box_param {
    min_size: 213
    max_size: 264
    aspect_ratio: 2
    flip: true
    clip: false
    variance: 0.1
    variance: 0.1
    variance: 0.2
    variance: 0.2
    step: 100
    offset: 0.5
  }
}
layer {
  name: "conv9_2_mbox_loc"
  type: "Convolution"
  bottom: "conv9_2"
  top: "conv9_2_mbox_loc"
  param {
    lr_mult: 1
    decay_mult: 1
  }
  param {
    lr_mult: 2
    decay_mult: 0
  }
  convolution_param {
    num_output: 16
    pad: 1
    kernel_size: 3
    stride: 1
    weight_filler {
      type: "xavier"
    }
    bias_filler {
      type: "constant"
      value: 0
    }
  }
}
layer {
  name: "conv9_2_mbox_loc_perm"
  type: "Permute"
  bottom: "conv9_2_mbox_loc"
  top: "conv9_2_mbox_loc_perm"
  permute_param {
    order: 0
    order: 2
    order: 3
    order: 1
  }
}
layer {
  name: "conv9_2_mbox_loc_flat"
  type: "Flatten"
  bottom: "conv9_2_mbox_loc_perm"
  top: "conv9_2_mbox_loc_flat"
  flatten_param {
    axis: 1
  }
}
layer {
  name: "conv9_2_mbox_conf"
  type: "Convolution"
  bottom: "conv9_2"
  top: "conv9_2_mbox_conf"
  param {
    lr_mult: 1
    decay_mult: 1
  }
  param {
    lr_mult: 2
    decay_mult: 0
  }
  convolution_param {
    num_output: 8
    pad: 1
    kernel_size: 3
    stride: 1
    weight_filler {
      type: "xavier"
    }
    bias_filler {
      type: "constant"
      value: 0
    }
  }
}
layer {
  name: "conv9_2_mbox_conf_perm"
  type: "Permute"
  bottom: "conv9_2_mbox_conf"
  top: "conv9_2_mbox_conf_perm"
  permute_param {
    order: 0
    order: 2
    order: 3
    order: 1
  }
}
layer {
  name: "conv9_2_mbox_conf_flat"
  type: "Flatten"
  bottom: "conv9_2_mbox_conf_perm"
  top: "conv9_2_mbox_conf_flat"
  flatten_param {
    axis: 1
  }
}
layer {
  name: "conv9_2_mbox_priorbox"
  type: "PriorBox"
  bottom: "conv9_2"
  bottom: "data"
  top: "conv9_2_mbox_priorbox"
  prior_box_param {
    min_size: 264
    max_size: 315
    aspect_ratio: 2
    flip: true
    clip: false
    variance: 0.1
    variance: 0.1
    variance: 0.2
    variance: 0.2
    step: 300
    offset: 0.5
  }
}
layer {
  name: "mbox_loc"
  type: "Concat"
  bottom: "conv4_3_norm_mbox_loc_flat"
  bottom: "fc7_mbox_loc_flat"
  bottom: "conv6_2_mbox_loc_flat"
  bottom: "conv7_2_mbox_loc_flat"
  bottom: "conv8_2_mbox_loc_flat"
  bottom: "conv9_2_mbox_loc_flat"
  top: "mbox_loc"
  concat_param {
    axis: 1
  }
}
layer {
  name: "mbox_conf"
  type: "Concat"
  bottom: "conv4_3_norm_mbox_conf_flat"
  bottom: "fc7_mbox_conf_flat"
  bottom: "conv6_2_mbox_conf_flat"
  bottom: "conv7_2_mbox_conf_flat"
  bottom: "conv8_2_mbox_conf_flat"
  bottom: "conv9_2_mbox_conf_flat"
  top: "mbox_conf"
  concat_param {
    axis: 1
  }
}
layer {
  name: "mbox_priorbox"
  type: "Concat"
  bottom: "conv4_3_norm_mbox_priorbox"
  bottom: "fc7_mbox_priorbox"
  bottom: "conv6_2_mbox_priorbox"
  bottom: "conv7_2_mbox_priorbox"
  bottom: "conv8_2_mbox_priorbox"
  bottom: "conv9_2_mbox_priorbox"
  top: "mbox_priorbox"
  concat_param {
    axis: 2
  }
}
layer {
  name: "mbox_conf_reshape"
  type: "Reshape"
  bottom: "mbox_conf"
  top: "mbox_conf_reshape"
  reshape_param {
    shape {
      dim: 0
      dim: -1
      dim: 2
    }
  }
}
layer {
  name: "mbox_conf_softmax"
  type: "Softmax"
  bottom: "mbox_conf_reshape"
  top: "mbox_conf_softmax"
  softmax_param {
    axis: 2
  }
}
layer {
  name: "mbox_conf_flatten"
  type: "Flatten"
  bottom: "mbox_conf_softmax"
  top: "mbox_conf_flatten"
  flatten_param {
    axis: 1
  }
}
layer {
  name: "detection_out"
  type: "DetectionOutput"
  bottom: "mbox_loc"
  bottom: "mbox_conf_flatten"
  bottom: "mbox_priorbox"
  top: "detection_out"
  include {
    phase: TEST
  }
  detection_output_param {
    num_classes: 2
    share_location: true
    background_label_id: 0
    nms_param {
      nms_threshold: 0.45
      top_k: 400
    }
    save_output_param {
      output_directory: "/home/user/data/VOCdevkit/results/VOC2007/SSD_300x300/Main"
      output_name_prefix: "comp4_det_test_"
      output_format: "VOC"
      label_map_file: "data/VOC0712/labelmap_voc.prototxt"
      name_size_file: "data/VOC0712/test_name_size.txt"
      num_test_image: 4024
    }
    code_type: CENTER_SIZE
    keep_top_k: 200
    confidence_threshold: 0.01
  }
}
layer {
  name: "detection_eval"
  type: "DetectionEvaluate"
  bottom: "detection_out"
  bottom: "label"
  top: "detection_eval"
  include {
    phase: TEST
  }
  detection_evaluate_param {
    num_classes: 2
    background_label_id: 0
    overlap_threshold: 0.5
    evaluate_difficult_gt: false
    name_size_file: "data/VOC0712/test_name_size.txt"
  }
}
I0510 09:23:21.261373 23939 layer_factory.hpp:77] Creating layer data
I0510 09:23:21.261502 23939 net.cpp:100] Creating Layer data
I0510 09:23:21.261515 23939 net.cpp:408] data -> data
I0510 09:23:21.261524 23939 net.cpp:408] data -> label
I0510 09:23:21.262038 23970 db_lmdb.cpp:35] Opened lmdb examples/VOC0712/VOC0712_test_lmdb
I0510 09:23:21.263578 23939 annotated_data_layer.cpp:62] output data size: 8,3,300,300
I0510 09:23:21.277096 23939 net.cpp:150] Setting up data
I0510 09:23:21.277122 23939 net.cpp:157] Top shape: 8 3 300 300 (2160000)
I0510 09:23:21.277124 23939 net.cpp:157] Top shape: 1 1 1 8 (8)
I0510 09:23:21.277127 23939 net.cpp:165] Memory required for data: 8640032
I0510 09:23:21.277132 23939 layer_factory.hpp:77] Creating layer data_data_0_split
I0510 09:23:21.277145 23939 net.cpp:100] Creating Layer data_data_0_split
I0510 09:23:21.277148 23939 net.cpp:434] data_data_0_split <- data
I0510 09:23:21.277154 23939 net.cpp:408] data_data_0_split -> data_data_0_split_0
I0510 09:23:21.277165 23939 net.cpp:408] data_data_0_split -> data_data_0_split_1
I0510 09:23:21.277170 23939 net.cpp:408] data_data_0_split -> data_data_0_split_2
I0510 09:23:21.277178 23939 net.cpp:408] data_data_0_split -> data_data_0_split_3
I0510 09:23:21.277182 23939 net.cpp:408] data_data_0_split -> data_data_0_split_4
I0510 09:23:21.277187 23939 net.cpp:408] data_data_0_split -> data_data_0_split_5
I0510 09:23:21.277194 23939 net.cpp:408] data_data_0_split -> data_data_0_split_6
I0510 09:23:21.277338 23939 net.cpp:150] Setting up data_data_0_split
I0510 09:23:21.277343 23939 net.cpp:157] Top shape: 8 3 300 300 (2160000)
I0510 09:23:21.277346 23939 net.cpp:157] Top shape: 8 3 300 300 (2160000)
I0510 09:23:21.277348 23939 net.cpp:157] Top shape: 8 3 300 300 (2160000)
I0510 09:23:21.277351 23939 net.cpp:157] Top shape: 8 3 300 300 (2160000)
I0510 09:23:21.277354 23939 net.cpp:157] Top shape: 8 3 300 300 (2160000)
I0510 09:23:21.277356 23939 net.cpp:157] Top shape: 8 3 300 300 (2160000)
I0510 09:23:21.277359 23939 net.cpp:157] Top shape: 8 3 300 300 (2160000)
I0510 09:23:21.277361 23939 net.cpp:165] Memory required for data: 69120032
I0510 09:23:21.277379 23939 layer_factory.hpp:77] Creating layer conv1_1
I0510 09:23:21.277391 23939 net.cpp:100] Creating Layer conv1_1
I0510 09:23:21.277398 23939 net.cpp:434] conv1_1 <- data_data_0_split_0
I0510 09:23:21.277403 23939 net.cpp:408] conv1_1 -> conv1_1
I0510 09:23:21.278453 23939 net.cpp:150] Setting up conv1_1
I0510 09:23:21.278461 23939 net.cpp:157] Top shape: 8 64 300 300 (46080000)
I0510 09:23:21.278463 23939 net.cpp:165] Memory required for data: 253440032
I0510 09:23:21.278472 23939 layer_factory.hpp:77] Creating layer relu1_1
I0510 09:23:21.278476 23939 net.cpp:100] Creating Layer relu1_1
I0510 09:23:21.278478 23939 net.cpp:434] relu1_1 <- conv1_1
I0510 09:23:21.278481 23939 net.cpp:395] relu1_1 -> conv1_1 (in-place)
I0510 09:23:21.278625 23939 net.cpp:150] Setting up relu1_1
I0510 09:23:21.278633 23939 net.cpp:157] Top shape: 8 64 300 300 (46080000)
I0510 09:23:21.278636 23939 net.cpp:165] Memory required for data: 437760032
I0510 09:23:21.278638 23939 layer_factory.hpp:77] Creating layer conv1_2
I0510 09:23:21.278650 23939 net.cpp:100] Creating Layer conv1_2
I0510 09:23:21.278652 23939 net.cpp:434] conv1_2 <- conv1_1
I0510 09:23:21.278658 23939 net.cpp:408] conv1_2 -> conv1_2
I0510 09:23:21.281810 23939 net.cpp:150] Setting up conv1_2
I0510 09:23:21.281823 23939 net.cpp:157] Top shape: 8 64 300 300 (46080000)
I0510 09:23:21.281826 23939 net.cpp:165] Memory required for data: 622080032
I0510 09:23:21.281833 23939 layer_factory.hpp:77] Creating layer relu1_2
I0510 09:23:21.281838 23939 net.cpp:100] Creating Layer relu1_2
I0510 09:23:21.281841 23939 net.cpp:434] relu1_2 <- conv1_2
I0510 09:23:21.281846 23939 net.cpp:395] relu1_2 -> conv1_2 (in-place)
I0510 09:23:21.282258 23939 net.cpp:150] Setting up relu1_2
I0510 09:23:21.282266 23939 net.cpp:157] Top shape: 8 64 300 300 (46080000)
I0510 09:23:21.282269 23939 net.cpp:165] Memory required for data: 806400032
I0510 09:23:21.282271 23939 layer_factory.hpp:77] Creating layer pool1
I0510 09:23:21.282276 23939 net.cpp:100] Creating Layer pool1
I0510 09:23:21.282279 23939 net.cpp:434] pool1 <- conv1_2
I0510 09:23:21.282282 23939 net.cpp:408] pool1 -> pool1
I0510 09:23:21.282320 23939 net.cpp:150] Setting up pool1
I0510 09:23:21.282323 23939 net.cpp:157] Top shape: 8 64 150 150 (11520000)
I0510 09:23:21.282325 23939 net.cpp:165] Memory required for data: 852480032
I0510 09:23:21.282327 23939 layer_factory.hpp:77] Creating layer conv2_1
I0510 09:23:21.282333 23939 net.cpp:100] Creating Layer conv2_1
I0510 09:23:21.282335 23939 net.cpp:434] conv2_1 <- pool1
I0510 09:23:21.282340 23939 net.cpp:408] conv2_1 -> conv2_1
I0510 09:23:21.283443 23939 net.cpp:150] Setting up conv2_1
I0510 09:23:21.283452 23939 net.cpp:157] Top shape: 8 128 150 150 (23040000)
I0510 09:23:21.283454 23939 net.cpp:165] Memory required for data: 944640032
I0510 09:23:21.283460 23939 layer_factory.hpp:77] Creating layer relu2_1
I0510 09:23:21.283465 23939 net.cpp:100] Creating Layer relu2_1
I0510 09:23:21.283468 23939 net.cpp:434] relu2_1 <- conv2_1
I0510 09:23:21.283470 23939 net.cpp:395] relu2_1 -> conv2_1 (in-place)
I0510 09:23:21.283594 23939 net.cpp:150] Setting up relu2_1
I0510 09:23:21.283601 23939 net.cpp:157] Top shape: 8 128 150 150 (23040000)
I0510 09:23:21.283603 23939 net.cpp:165] Memory required for data: 1036800032
I0510 09:23:21.283604 23939 layer_factory.hpp:77] Creating layer conv2_2
I0510 09:23:21.283609 23939 net.cpp:100] Creating Layer conv2_2
I0510 09:23:21.283612 23939 net.cpp:434] conv2_2 <- conv2_1
I0510 09:23:21.283615 23939 net.cpp:408] conv2_2 -> conv2_2
I0510 09:23:21.285193 23939 net.cpp:150] Setting up conv2_2
I0510 09:23:21.285202 23939 net.cpp:157] Top shape: 8 128 150 150 (23040000)
I0510 09:23:21.285203 23939 net.cpp:165] Memory required for data: 1128960032
I0510 09:23:21.285208 23939 layer_factory.hpp:77] Creating layer relu2_2
I0510 09:23:21.285212 23939 net.cpp:100] Creating Layer relu2_2
I0510 09:23:21.285213 23939 net.cpp:434] relu2_2 <- conv2_2
I0510 09:23:21.285217 23939 net.cpp:395] relu2_2 -> conv2_2 (in-place)
I0510 09:23:21.285359 23939 net.cpp:150] Setting up relu2_2
I0510 09:23:21.285365 23939 net.cpp:157] Top shape: 8 128 150 150 (23040000)
I0510 09:23:21.285367 23939 net.cpp:165] Memory required for data: 1221120032
I0510 09:23:21.285368 23939 layer_factory.hpp:77] Creating layer pool2
I0510 09:23:21.285372 23939 net.cpp:100] Creating Layer pool2
I0510 09:23:21.285374 23939 net.cpp:434] pool2 <- conv2_2
I0510 09:23:21.285377 23939 net.cpp:408] pool2 -> pool2
I0510 09:23:21.285411 23939 net.cpp:150] Setting up pool2
I0510 09:23:21.285416 23939 net.cpp:157] Top shape: 8 128 75 75 (5760000)
I0510 09:23:21.285418 23939 net.cpp:165] Memory required for data: 1244160032
I0510 09:23:21.285419 23939 layer_factory.hpp:77] Creating layer conv3_1
I0510 09:23:21.285424 23939 net.cpp:100] Creating Layer conv3_1
I0510 09:23:21.285426 23939 net.cpp:434] conv3_1 <- pool2
I0510 09:23:21.285430 23939 net.cpp:408] conv3_1 -> conv3_1
I0510 09:23:21.288130 23939 net.cpp:150] Setting up conv3_1
I0510 09:23:21.288142 23939 net.cpp:157] Top shape: 8 256 75 75 (11520000)
I0510 09:23:21.288146 23939 net.cpp:165] Memory required for data: 1290240032
I0510 09:23:21.288153 23939 layer_factory.hpp:77] Creating layer relu3_1
I0510 09:23:21.288158 23939 net.cpp:100] Creating Layer relu3_1
I0510 09:23:21.288161 23939 net.cpp:434] relu3_1 <- conv3_1
I0510 09:23:21.288164 23939 net.cpp:395] relu3_1 -> conv3_1 (in-place)
I0510 09:23:21.288300 23939 net.cpp:150] Setting up relu3_1
I0510 09:23:21.288305 23939 net.cpp:157] Top shape: 8 256 75 75 (11520000)
I0510 09:23:21.288306 23939 net.cpp:165] Memory required for data: 1336320032
I0510 09:23:21.288308 23939 layer_factory.hpp:77] Creating layer conv3_2
I0510 09:23:21.288314 23939 net.cpp:100] Creating Layer conv3_2
I0510 09:23:21.288316 23939 net.cpp:434] conv3_2 <- conv3_1
I0510 09:23:21.288319 23939 net.cpp:408] conv3_2 -> conv3_2
I0510 09:23:21.291968 23939 net.cpp:150] Setting up conv3_2
I0510 09:23:21.291980 23939 net.cpp:157] Top shape: 8 256 75 75 (11520000)
I0510 09:23:21.291982 23939 net.cpp:165] Memory required for data: 1382400032
I0510 09:23:21.291987 23939 layer_factory.hpp:77] Creating layer relu3_2
I0510 09:23:21.291992 23939 net.cpp:100] Creating Layer relu3_2
I0510 09:23:21.291995 23939 net.cpp:434] relu3_2 <- conv3_2
I0510 09:23:21.291998 23939 net.cpp:395] relu3_2 -> conv3_2 (in-place)
I0510 09:23:21.292383 23939 net.cpp:150] Setting up relu3_2
I0510 09:23:21.292392 23939 net.cpp:157] Top shape: 8 256 75 75 (11520000)
I0510 09:23:21.292393 23939 net.cpp:165] Memory required for data: 1428480032
I0510 09:23:21.292395 23939 layer_factory.hpp:77] Creating layer conv3_3
I0510 09:23:21.292403 23939 net.cpp:100] Creating Layer conv3_3
I0510 09:23:21.292405 23939 net.cpp:434] conv3_3 <- conv3_2
I0510 09:23:21.292409 23939 net.cpp:408] conv3_3 -> conv3_3
I0510 09:23:21.296103 23939 net.cpp:150] Setting up conv3_3
I0510 09:23:21.296116 23939 net.cpp:157] Top shape: 8 256 75 75 (11520000)
I0510 09:23:21.296119 23939 net.cpp:165] Memory required for data: 1474560032
I0510 09:23:21.296124 23939 layer_factory.hpp:77] Creating layer relu3_3
I0510 09:23:21.296130 23939 net.cpp:100] Creating Layer relu3_3
I0510 09:23:21.296133 23939 net.cpp:434] relu3_3 <- conv3_3
I0510 09:23:21.296138 23939 net.cpp:395] relu3_3 -> conv3_3 (in-place)
I0510 09:23:21.296275 23939 net.cpp:150] Setting up relu3_3
I0510 09:23:21.296281 23939 net.cpp:157] Top shape: 8 256 75 75 (11520000)
I0510 09:23:21.296283 23939 net.cpp:165] Memory required for data: 1520640032
I0510 09:23:21.296285 23939 layer_factory.hpp:77] Creating layer pool3
I0510 09:23:21.296289 23939 net.cpp:100] Creating Layer pool3
I0510 09:23:21.296290 23939 net.cpp:434] pool3 <- conv3_3
I0510 09:23:21.296293 23939 net.cpp:408] pool3 -> pool3
I0510 09:23:21.296329 23939 net.cpp:150] Setting up pool3
I0510 09:23:21.296334 23939 net.cpp:157] Top shape: 8 256 38 38 (2957312)
I0510 09:23:21.296335 23939 net.cpp:165] Memory required for data: 1532469280
I0510 09:23:21.296337 23939 layer_factory.hpp:77] Creating layer conv4_1
I0510 09:23:21.296344 23939 net.cpp:100] Creating Layer conv4_1
I0510 09:23:21.296355 23939 net.cpp:434] conv4_1 <- pool3
I0510 09:23:21.296358 23939 net.cpp:408] conv4_1 -> conv4_1
I0510 09:23:21.302532 23939 net.cpp:150] Setting up conv4_1
I0510 09:23:21.302547 23939 net.cpp:157] Top shape: 8 512 38 38 (5914624)
I0510 09:23:21.302549 23939 net.cpp:165] Memory required for data: 1556127776
I0510 09:23:21.302556 23939 layer_factory.hpp:77] Creating layer relu4_1
I0510 09:23:21.302561 23939 net.cpp:100] Creating Layer relu4_1
I0510 09:23:21.302563 23939 net.cpp:434] relu4_1 <- conv4_1
I0510 09:23:21.302568 23939 net.cpp:395] relu4_1 -> conv4_1 (in-place)
I0510 09:23:21.302711 23939 net.cpp:150] Setting up relu4_1
I0510 09:23:21.302716 23939 net.cpp:157] Top shape: 8 512 38 38 (5914624)
I0510 09:23:21.302718 23939 net.cpp:165] Memory required for data: 1579786272
I0510 09:23:21.302721 23939 layer_factory.hpp:77] Creating layer conv4_2
I0510 09:23:21.302726 23939 net.cpp:100] Creating Layer conv4_2
I0510 09:23:21.302729 23939 net.cpp:434] conv4_2 <- conv4_1
I0510 09:23:21.302734 23939 net.cpp:408] conv4_2 -> conv4_2
I0510 09:23:21.313630 23939 net.cpp:150] Setting up conv4_2
I0510 09:23:21.313647 23939 net.cpp:157] Top shape: 8 512 38 38 (5914624)
I0510 09:23:21.313649 23939 net.cpp:165] Memory required for data: 1603444768
I0510 09:23:21.313660 23939 layer_factory.hpp:77] Creating layer relu4_2
I0510 09:23:21.313665 23939 net.cpp:100] Creating Layer relu4_2
I0510 09:23:21.313668 23939 net.cpp:434] relu4_2 <- conv4_2
I0510 09:23:21.313673 23939 net.cpp:395] relu4_2 -> conv4_2 (in-place)
I0510 09:23:21.314106 23939 net.cpp:150] Setting up relu4_2
I0510 09:23:21.314115 23939 net.cpp:157] Top shape: 8 512 38 38 (5914624)
I0510 09:23:21.314116 23939 net.cpp:165] Memory required for data: 1627103264
I0510 09:23:21.314118 23939 layer_factory.hpp:77] Creating layer conv4_3
I0510 09:23:21.314127 23939 net.cpp:100] Creating Layer conv4_3
I0510 09:23:21.314129 23939 net.cpp:434] conv4_3 <- conv4_2
I0510 09:23:21.314133 23939 net.cpp:408] conv4_3 -> conv4_3
I0510 09:23:21.324657 23939 net.cpp:150] Setting up conv4_3
I0510 09:23:21.324671 23939 net.cpp:157] Top shape: 8 512 38 38 (5914624)
I0510 09:23:21.324674 23939 net.cpp:165] Memory required for data: 1650761760
I0510 09:23:21.324679 23939 layer_factory.hpp:77] Creating layer relu4_3
I0510 09:23:21.324688 23939 net.cpp:100] Creating Layer relu4_3
I0510 09:23:21.324692 23939 net.cpp:434] relu4_3 <- conv4_3
I0510 09:23:21.324697 23939 net.cpp:395] relu4_3 -> conv4_3 (in-place)
I0510 09:23:21.324836 23939 net.cpp:150] Setting up relu4_3
I0510 09:23:21.324842 23939 net.cpp:157] Top shape: 8 512 38 38 (5914624)
I0510 09:23:21.324844 23939 net.cpp:165] Memory required for data: 1674420256
I0510 09:23:21.324847 23939 layer_factory.hpp:77] Creating layer conv4_3_relu4_3_0_split
I0510 09:23:21.324854 23939 net.cpp:100] Creating Layer conv4_3_relu4_3_0_split
I0510 09:23:21.324856 23939 net.cpp:434] conv4_3_relu4_3_0_split <- conv4_3
I0510 09:23:21.324862 23939 net.cpp:408] conv4_3_relu4_3_0_split -> conv4_3_relu4_3_0_split_0
I0510 09:23:21.324867 23939 net.cpp:408] conv4_3_relu4_3_0_split -> conv4_3_relu4_3_0_split_1
I0510 09:23:21.324900 23939 net.cpp:150] Setting up conv4_3_relu4_3_0_split
I0510 09:23:21.324904 23939 net.cpp:157] Top shape: 8 512 38 38 (5914624)
I0510 09:23:21.324908 23939 net.cpp:157] Top shape: 8 512 38 38 (5914624)
I0510 09:23:21.324909 23939 net.cpp:165] Memory required for data: 1721737248
I0510 09:23:21.324928 23939 layer_factory.hpp:77] Creating layer pool4
I0510 09:23:21.324932 23939 net.cpp:100] Creating Layer pool4
I0510 09:23:21.324935 23939 net.cpp:434] pool4 <- conv4_3_relu4_3_0_split_0
I0510 09:23:21.324941 23939 net.cpp:408] pool4 -> pool4
I0510 09:23:21.324976 23939 net.cpp:150] Setting up pool4
I0510 09:23:21.324980 23939 net.cpp:157] Top shape: 8 512 19 19 (1478656)
I0510 09:23:21.324985 23939 net.cpp:165] Memory required for data: 1727651872
I0510 09:23:21.324987 23939 layer_factory.hpp:77] Creating layer conv5_1
I0510 09:23:21.324997 23939 net.cpp:100] Creating Layer conv5_1
I0510 09:23:21.325001 23939 net.cpp:434] conv5_1 <- pool4
I0510 09:23:21.325014 23939 net.cpp:408] conv5_1 -> conv5_1
I0510 09:23:21.335563 23939 net.cpp:150] Setting up conv5_1
I0510 09:23:21.335579 23939 net.cpp:157] Top shape: 8 512 19 19 (1478656)
I0510 09:23:21.335582 23939 net.cpp:165] Memory required for data: 1733566496
I0510 09:23:21.335587 23939 layer_factory.hpp:77] Creating layer relu5_1
I0510 09:23:21.335592 23939 net.cpp:100] Creating Layer relu5_1
I0510 09:23:21.335595 23939 net.cpp:434] relu5_1 <- conv5_1
I0510 09:23:21.335600 23939 net.cpp:395] relu5_1 -> conv5_1 (in-place)
I0510 09:23:21.335734 23939 net.cpp:150] Setting up relu5_1
I0510 09:23:21.335741 23939 net.cpp:157] Top shape: 8 512 19 19 (1478656)
I0510 09:23:21.335742 23939 net.cpp:165] Memory required for data: 1739481120
I0510 09:23:21.335743 23939 layer_factory.hpp:77] Creating layer conv5_2
I0510 09:23:21.335752 23939 net.cpp:100] Creating Layer conv5_2
I0510 09:23:21.335754 23939 net.cpp:434] conv5_2 <- conv5_1
I0510 09:23:21.335757 23939 net.cpp:408] conv5_2 -> conv5_2
I0510 09:23:21.347662 23939 net.cpp:150] Setting up conv5_2
I0510 09:23:21.347681 23939 net.cpp:157] Top shape: 8 512 19 19 (1478656)
I0510 09:23:21.347683 23939 net.cpp:165] Memory required for data: 1745395744
I0510 09:23:21.347688 23939 layer_factory.hpp:77] Creating layer relu5_2
I0510 09:23:21.347693 23939 net.cpp:100] Creating Layer relu5_2
I0510 09:23:21.347697 23939 net.cpp:434] relu5_2 <- conv5_2
I0510 09:23:21.347702 23939 net.cpp:395] relu5_2 -> conv5_2 (in-place)
I0510 09:23:21.348140 23939 net.cpp:150] Setting up relu5_2
I0510 09:23:21.348146 23939 net.cpp:157] Top shape: 8 512 19 19 (1478656)
I0510 09:23:21.348150 23939 net.cpp:165] Memory required for data: 1751310368
I0510 09:23:21.348151 23939 layer_factory.hpp:77] Creating layer conv5_3
I0510 09:23:21.348158 23939 net.cpp:100] Creating Layer conv5_3
I0510 09:23:21.348160 23939 net.cpp:434] conv5_3 <- conv5_2
I0510 09:23:21.348166 23939 net.cpp:408] conv5_3 -> conv5_3
I0510 09:23:21.358767 23939 net.cpp:150] Setting up conv5_3
I0510 09:23:21.358783 23939 net.cpp:157] Top shape: 8 512 19 19 (1478656)
I0510 09:23:21.358785 23939 net.cpp:165] Memory required for data: 1757224992
I0510 09:23:21.358791 23939 layer_factory.hpp:77] Creating layer relu5_3
I0510 09:23:21.358800 23939 net.cpp:100] Creating Layer relu5_3
I0510 09:23:21.358803 23939 net.cpp:434] relu5_3 <- conv5_3
I0510 09:23:21.358808 23939 net.cpp:395] relu5_3 -> conv5_3 (in-place)
I0510 09:23:21.358945 23939 net.cpp:150] Setting up relu5_3
I0510 09:23:21.358952 23939 net.cpp:157] Top shape: 8 512 19 19 (1478656)
I0510 09:23:21.358953 23939 net.cpp:165] Memory required for data: 1763139616
I0510 09:23:21.358955 23939 layer_factory.hpp:77] Creating layer pool5
I0510 09:23:21.358961 23939 net.cpp:100] Creating Layer pool5
I0510 09:23:21.358963 23939 net.cpp:434] pool5 <- conv5_3
I0510 09:23:21.358968 23939 net.cpp:408] pool5 -> pool5
I0510 09:23:21.359006 23939 net.cpp:150] Setting up pool5
I0510 09:23:21.359012 23939 net.cpp:157] Top shape: 8 512 19 19 (1478656)
I0510 09:23:21.359014 23939 net.cpp:165] Memory required for data: 1769054240
I0510 09:23:21.359015 23939 layer_factory.hpp:77] Creating layer fc6
I0510 09:23:21.359022 23939 net.cpp:100] Creating Layer fc6
I0510 09:23:21.359025 23939 net.cpp:434] fc6 <- pool5
I0510 09:23:21.359028 23939 net.cpp:408] fc6 -> fc6
I0510 09:23:21.378412 23939 net.cpp:150] Setting up fc6
I0510 09:23:21.378429 23939 net.cpp:157] Top shape: 8 1024 19 19 (2957312)
I0510 09:23:21.378432 23939 net.cpp:165] Memory required for data: 1780883488
I0510 09:23:21.378437 23939 layer_factory.hpp:77] Creating layer relu6
I0510 09:23:21.378444 23939 net.cpp:100] Creating Layer relu6
I0510 09:23:21.378446 23939 net.cpp:434] relu6 <- fc6
I0510 09:23:21.378450 23939 net.cpp:395] relu6 -> fc6 (in-place)
I0510 09:23:21.378638 23939 net.cpp:150] Setting up relu6
I0510 09:23:21.378643 23939 net.cpp:157] Top shape: 8 1024 19 19 (2957312)
I0510 09:23:21.378645 23939 net.cpp:165] Memory required for data: 1792712736
I0510 09:23:21.378648 23939 layer_factory.hpp:77] Creating layer fc7
I0510 09:23:21.378664 23939 net.cpp:100] Creating Layer fc7
I0510 09:23:21.378666 23939 net.cpp:434] fc7 <- fc6
I0510 09:23:21.378671 23939 net.cpp:408] fc7 -> fc7
I0510 09:23:21.384114 23939 net.cpp:150] Setting up fc7
I0510 09:23:21.384137 23939 net.cpp:157] Top shape: 8 1024 19 19 (2957312)
I0510 09:23:21.384140 23939 net.cpp:165] Memory required for data: 1804541984
I0510 09:23:21.384145 23939 layer_factory.hpp:77] Creating layer relu7
I0510 09:23:21.384152 23939 net.cpp:100] Creating Layer relu7
I0510 09:23:21.384155 23939 net.cpp:434] relu7 <- fc7
I0510 09:23:21.384161 23939 net.cpp:395] relu7 -> fc7 (in-place)
I0510 09:23:21.384295 23939 net.cpp:150] Setting up relu7
I0510 09:23:21.384301 23939 net.cpp:157] Top shape: 8 1024 19 19 (2957312)
I0510 09:23:21.384304 23939 net.cpp:165] Memory required for data: 1816371232
I0510 09:23:21.384305 23939 layer_factory.hpp:77] Creating layer fc7_relu7_0_split
I0510 09:23:21.384310 23939 net.cpp:100] Creating Layer fc7_relu7_0_split
I0510 09:23:21.384312 23939 net.cpp:434] fc7_relu7_0_split <- fc7
I0510 09:23:21.384316 23939 net.cpp:408] fc7_relu7_0_split -> fc7_relu7_0_split_0
I0510 09:23:21.384321 23939 net.cpp:408] fc7_relu7_0_split -> fc7_relu7_0_split_1
I0510 09:23:21.384330 23939 net.cpp:408] fc7_relu7_0_split -> fc7_relu7_0_split_2
I0510 09:23:21.384337 23939 net.cpp:408] fc7_relu7_0_split -> fc7_relu7_0_split_3
I0510 09:23:21.384397 23939 net.cpp:150] Setting up fc7_relu7_0_split
I0510 09:23:21.384402 23939 net.cpp:157] Top shape: 8 1024 19 19 (2957312)
I0510 09:23:21.384405 23939 net.cpp:157] Top shape: 8 1024 19 19 (2957312)
I0510 09:23:21.384407 23939 net.cpp:157] Top shape: 8 1024 19 19 (2957312)
I0510 09:23:21.384409 23939 net.cpp:157] Top shape: 8 1024 19 19 (2957312)
I0510 09:23:21.384411 23939 net.cpp:165] Memory required for data: 1863688224
I0510 09:23:21.384413 23939 layer_factory.hpp:77] Creating layer conv6_1
I0510 09:23:21.384419 23939 net.cpp:100] Creating Layer conv6_1
I0510 09:23:21.384421 23939 net.cpp:434] conv6_1 <- fc7_relu7_0_split_0
I0510 09:23:21.384426 23939 net.cpp:408] conv6_1 -> conv6_1
I0510 09:23:21.387100 23939 net.cpp:150] Setting up conv6_1
I0510 09:23:21.387110 23939 net.cpp:157] Top shape: 8 256 19 19 (739328)
I0510 09:23:21.387112 23939 net.cpp:165] Memory required for data: 1866645536
I0510 09:23:21.387116 23939 layer_factory.hpp:77] Creating layer conv6_1_relu
I0510 09:23:21.387120 23939 net.cpp:100] Creating Layer conv6_1_relu
I0510 09:23:21.387122 23939 net.cpp:434] conv6_1_relu <- conv6_1
I0510 09:23:21.387126 23939 net.cpp:395] conv6_1_relu -> conv6_1 (in-place)
I0510 09:23:21.387537 23939 net.cpp:150] Setting up conv6_1_relu
I0510 09:23:21.387543 23939 net.cpp:157] Top shape: 8 256 19 19 (739328)
I0510 09:23:21.387547 23939 net.cpp:165] Memory required for data: 1869602848
I0510 09:23:21.387548 23939 layer_factory.hpp:77] Creating layer conv6_2
I0510 09:23:21.387555 23939 net.cpp:100] Creating Layer conv6_2
I0510 09:23:21.387557 23939 net.cpp:434] conv6_2 <- conv6_1
I0510 09:23:21.387562 23939 net.cpp:408] conv6_2 -> conv6_2
I0510 09:23:21.394269 23939 net.cpp:150] Setting up conv6_2
I0510 09:23:21.394284 23939 net.cpp:157] Top shape: 8 512 10 10 (409600)
I0510 09:23:21.394286 23939 net.cpp:165] Memory required for data: 1871241248
I0510 09:23:21.394299 23939 layer_factory.hpp:77] Creating layer conv6_2_relu
I0510 09:23:21.394304 23939 net.cpp:100] Creating Layer conv6_2_relu
I0510 09:23:21.394306 23939 net.cpp:434] conv6_2_relu <- conv6_2
I0510 09:23:21.394310 23939 net.cpp:395] conv6_2_relu -> conv6_2 (in-place)
I0510 09:23:21.394453 23939 net.cpp:150] Setting up conv6_2_relu
I0510 09:23:21.394459 23939 net.cpp:157] Top shape: 8 512 10 10 (409600)
I0510 09:23:21.394461 23939 net.cpp:165] Memory required for data: 1872879648
I0510 09:23:21.394464 23939 layer_factory.hpp:77] Creating layer conv6_2_conv6_2_relu_0_split
I0510 09:23:21.394467 23939 net.cpp:100] Creating Layer conv6_2_conv6_2_relu_0_split
I0510 09:23:21.394469 23939 net.cpp:434] conv6_2_conv6_2_relu_0_split <- conv6_2
I0510 09:23:21.394474 23939 net.cpp:408] conv6_2_conv6_2_relu_0_split -> conv6_2_conv6_2_relu_0_split_0
I0510 09:23:21.394487 23939 net.cpp:408] conv6_2_conv6_2_relu_0_split -> conv6_2_conv6_2_relu_0_split_1
I0510 09:23:21.394495 23939 net.cpp:408] conv6_2_conv6_2_relu_0_split -> conv6_2_conv6_2_relu_0_split_2
I0510 09:23:21.394500 23939 net.cpp:408] conv6_2_conv6_2_relu_0_split -> conv6_2_conv6_2_relu_0_split_3
I0510 09:23:21.394563 23939 net.cpp:150] Setting up conv6_2_conv6_2_relu_0_split
I0510 09:23:21.394567 23939 net.cpp:157] Top shape: 8 512 10 10 (409600)
I0510 09:23:21.394570 23939 net.cpp:157] Top shape: 8 512 10 10 (409600)
I0510 09:23:21.394572 23939 net.cpp:157] Top shape: 8 512 10 10 (409600)
I0510 09:23:21.394574 23939 net.cpp:157] Top shape: 8 512 10 10 (409600)
I0510 09:23:21.394575 23939 net.cpp:165] Memory required for data: 1879433248
I0510 09:23:21.394577 23939 layer_factory.hpp:77] Creating layer conv7_1
I0510 09:23:21.394584 23939 net.cpp:100] Creating Layer conv7_1
I0510 09:23:21.394587 23939 net.cpp:434] conv7_1 <- conv6_2_conv6_2_relu_0_split_0
I0510 09:23:21.394590 23939 net.cpp:408] conv7_1 -> conv7_1
I0510 09:23:21.395745 23939 net.cpp:150] Setting up conv7_1
I0510 09:23:21.395752 23939 net.cpp:157] Top shape: 8 128 10 10 (102400)
I0510 09:23:21.395754 23939 net.cpp:165] Memory required for data: 1879842848
I0510 09:23:21.395759 23939 layer_factory.hpp:77] Creating layer conv7_1_relu
I0510 09:23:21.395763 23939 net.cpp:100] Creating Layer conv7_1_relu
I0510 09:23:21.395766 23939 net.cpp:434] conv7_1_relu <- conv7_1
I0510 09:23:21.395769 23939 net.cpp:395] conv7_1_relu -> conv7_1 (in-place)
I0510 09:23:21.395918 23939 net.cpp:150] Setting up conv7_1_relu
I0510 09:23:21.395925 23939 net.cpp:157] Top shape: 8 128 10 10 (102400)
I0510 09:23:21.395927 23939 net.cpp:165] Memory required for data: 1880252448
I0510 09:23:21.395929 23939 layer_factory.hpp:77] Creating layer conv7_2
I0510 09:23:21.395936 23939 net.cpp:100] Creating Layer conv7_2
I0510 09:23:21.395937 23939 net.cpp:434] conv7_2 <- conv7_1
I0510 09:23:21.395941 23939 net.cpp:408] conv7_2 -> conv7_2
I0510 09:23:21.398630 23939 net.cpp:150] Setting up conv7_2
I0510 09:23:21.398643 23939 net.cpp:157] Top shape: 8 256 5 5 (51200)
I0510 09:23:21.398644 23939 net.cpp:165] Memory required for data: 1880457248
I0510 09:23:21.398649 23939 layer_factory.hpp:77] Creating layer conv7_2_relu
I0510 09:23:21.398653 23939 net.cpp:100] Creating Layer conv7_2_relu
I0510 09:23:21.398655 23939 net.cpp:434] conv7_2_relu <- conv7_2
I0510 09:23:21.398658 23939 net.cpp:395] conv7_2_relu -> conv7_2 (in-place)
I0510 09:23:21.399075 23939 net.cpp:150] Setting up conv7_2_relu
I0510 09:23:21.399082 23939 net.cpp:157] Top shape: 8 256 5 5 (51200)
I0510 09:23:21.399085 23939 net.cpp:165] Memory required for data: 1880662048
I0510 09:23:21.399087 23939 layer_factory.hpp:77] Creating layer conv7_2_conv7_2_relu_0_split
I0510 09:23:21.399091 23939 net.cpp:100] Creating Layer conv7_2_conv7_2_relu_0_split
I0510 09:23:21.399093 23939 net.cpp:434] conv7_2_conv7_2_relu_0_split <- conv7_2
I0510 09:23:21.399098 23939 net.cpp:408] conv7_2_conv7_2_relu_0_split -> conv7_2_conv7_2_relu_0_split_0
I0510 09:23:21.399103 23939 net.cpp:408] conv7_2_conv7_2_relu_0_split -> conv7_2_conv7_2_relu_0_split_1
I0510 09:23:21.399107 23939 net.cpp:408] conv7_2_conv7_2_relu_0_split -> conv7_2_conv7_2_relu_0_split_2
I0510 09:23:21.399112 23939 net.cpp:408] conv7_2_conv7_2_relu_0_split -> conv7_2_conv7_2_relu_0_split_3
I0510 09:23:21.399174 23939 net.cpp:150] Setting up conv7_2_conv7_2_relu_0_split
I0510 09:23:21.399178 23939 net.cpp:157] Top shape: 8 256 5 5 (51200)
I0510 09:23:21.399181 23939 net.cpp:157] Top shape: 8 256 5 5 (51200)
I0510 09:23:21.399183 23939 net.cpp:157] Top shape: 8 256 5 5 (51200)
I0510 09:23:21.399185 23939 net.cpp:157] Top shape: 8 256 5 5 (51200)
I0510 09:23:21.399188 23939 net.cpp:165] Memory required for data: 1881481248
I0510 09:23:21.399189 23939 layer_factory.hpp:77] Creating layer conv8_1
I0510 09:23:21.399195 23939 net.cpp:100] Creating Layer conv8_1
I0510 09:23:21.399197 23939 net.cpp:434] conv8_1 <- conv7_2_conv7_2_relu_0_split_0
I0510 09:23:21.399214 23939 net.cpp:408] conv8_1 -> conv8_1
I0510 09:23:21.401562 23939 net.cpp:150] Setting up conv8_1
I0510 09:23:21.401571 23939 net.cpp:157] Top shape: 8 128 5 5 (25600)
I0510 09:23:21.401572 23939 net.cpp:165] Memory required for data: 1881583648
I0510 09:23:21.401576 23939 layer_factory.hpp:77] Creating layer conv8_1_relu
I0510 09:23:21.401581 23939 net.cpp:100] Creating Layer conv8_1_relu
I0510 09:23:21.401582 23939 net.cpp:434] conv8_1_relu <- conv8_1
I0510 09:23:21.401585 23939 net.cpp:395] conv8_1_relu -> conv8_1 (in-place)
I0510 09:23:21.401716 23939 net.cpp:150] Setting up conv8_1_relu
I0510 09:23:21.401723 23939 net.cpp:157] Top shape: 8 128 5 5 (25600)
I0510 09:23:21.401724 23939 net.cpp:165] Memory required for data: 1881686048
I0510 09:23:21.401726 23939 layer_factory.hpp:77] Creating layer conv8_2
I0510 09:23:21.401732 23939 net.cpp:100] Creating Layer conv8_2
I0510 09:23:21.401734 23939 net.cpp:434] conv8_2 <- conv8_1
I0510 09:23:21.401739 23939 net.cpp:408] conv8_2 -> conv8_2
I0510 09:23:21.404561 23939 net.cpp:150] Setting up conv8_2
I0510 09:23:21.404573 23939 net.cpp:157] Top shape: 8 256 3 3 (18432)
I0510 09:23:21.404577 23939 net.cpp:165] Memory required for data: 1881759776
I0510 09:23:21.404580 23939 layer_factory.hpp:77] Creating layer conv8_2_relu
I0510 09:23:21.404584 23939 net.cpp:100] Creating Layer conv8_2_relu
I0510 09:23:21.404587 23939 net.cpp:434] conv8_2_relu <- conv8_2
I0510 09:23:21.404592 23939 net.cpp:395] conv8_2_relu -> conv8_2 (in-place)
I0510 09:23:21.404734 23939 net.cpp:150] Setting up conv8_2_relu
I0510 09:23:21.404741 23939 net.cpp:157] Top shape: 8 256 3 3 (18432)
I0510 09:23:21.404742 23939 net.cpp:165] Memory required for data: 1881833504
I0510 09:23:21.404744 23939 layer_factory.hpp:77] Creating layer conv8_2_conv8_2_relu_0_split
I0510 09:23:21.404748 23939 net.cpp:100] Creating Layer conv8_2_conv8_2_relu_0_split
I0510 09:23:21.404750 23939 net.cpp:434] conv8_2_conv8_2_relu_0_split <- conv8_2
I0510 09:23:21.404754 23939 net.cpp:408] conv8_2_conv8_2_relu_0_split -> conv8_2_conv8_2_relu_0_split_0
I0510 09:23:21.404759 23939 net.cpp:408] conv8_2_conv8_2_relu_0_split -> conv8_2_conv8_2_relu_0_split_1
I0510 09:23:21.404764 23939 net.cpp:408] conv8_2_conv8_2_relu_0_split -> conv8_2_conv8_2_relu_0_split_2
I0510 09:23:21.404768 23939 net.cpp:408] conv8_2_conv8_2_relu_0_split -> conv8_2_conv8_2_relu_0_split_3
I0510 09:23:21.404830 23939 net.cpp:150] Setting up conv8_2_conv8_2_relu_0_split
I0510 09:23:21.404834 23939 net.cpp:157] Top shape: 8 256 3 3 (18432)
I0510 09:23:21.404839 23939 net.cpp:157] Top shape: 8 256 3 3 (18432)
I0510 09:23:21.404842 23939 net.cpp:157] Top shape: 8 256 3 3 (18432)
I0510 09:23:21.404845 23939 net.cpp:157] Top shape: 8 256 3 3 (18432)
I0510 09:23:21.404846 23939 net.cpp:165] Memory required for data: 1882128416
I0510 09:23:21.404850 23939 layer_factory.hpp:77] Creating layer conv9_1
I0510 09:23:21.404858 23939 net.cpp:100] Creating Layer conv9_1
I0510 09:23:21.404861 23939 net.cpp:434] conv9_1 <- conv8_2_conv8_2_relu_0_split_0
I0510 09:23:21.404866 23939 net.cpp:408] conv9_1 -> conv9_1
I0510 09:23:21.405937 23939 net.cpp:150] Setting up conv9_1
I0510 09:23:21.405946 23939 net.cpp:157] Top shape: 8 128 3 3 (9216)
I0510 09:23:21.405948 23939 net.cpp:165] Memory required for data: 1882165280
I0510 09:23:21.405951 23939 layer_factory.hpp:77] Creating layer conv9_1_relu
I0510 09:23:21.405956 23939 net.cpp:100] Creating Layer conv9_1_relu
I0510 09:23:21.405957 23939 net.cpp:434] conv9_1_relu <- conv9_1
I0510 09:23:21.405961 23939 net.cpp:395] conv9_1_relu -> conv9_1 (in-place)
I0510 09:23:21.406376 23939 net.cpp:150] Setting up conv9_1_relu
I0510 09:23:21.406384 23939 net.cpp:157] Top shape: 8 128 3 3 (9216)
I0510 09:23:21.406386 23939 net.cpp:165] Memory required for data: 1882202144
I0510 09:23:21.406388 23939 layer_factory.hpp:77] Creating layer conv9_2
I0510 09:23:21.406394 23939 net.cpp:100] Creating Layer conv9_2
I0510 09:23:21.406397 23939 net.cpp:434] conv9_2 <- conv9_1
I0510 09:23:21.406401 23939 net.cpp:408] conv9_2 -> conv9_2
I0510 09:23:21.409549 23939 net.cpp:150] Setting up conv9_2
I0510 09:23:21.409564 23939 net.cpp:157] Top shape: 8 256 1 1 (2048)
I0510 09:23:21.409567 23939 net.cpp:165] Memory required for data: 1882210336
I0510 09:23:21.409574 23939 layer_factory.hpp:77] Creating layer conv9_2_relu
I0510 09:23:21.409579 23939 net.cpp:100] Creating Layer conv9_2_relu
I0510 09:23:21.409582 23939 net.cpp:434] conv9_2_relu <- conv9_2
I0510 09:23:21.409586 23939 net.cpp:395] conv9_2_relu -> conv9_2 (in-place)
I0510 09:23:21.409772 23939 net.cpp:150] Setting up conv9_2_relu
I0510 09:23:21.409782 23939 net.cpp:157] Top shape: 8 256 1 1 (2048)
I0510 09:23:21.409785 23939 net.cpp:165] Memory required for data: 1882218528
I0510 09:23:21.409787 23939 layer_factory.hpp:77] Creating layer conv9_2_conv9_2_relu_0_split
I0510 09:23:21.409793 23939 net.cpp:100] Creating Layer conv9_2_conv9_2_relu_0_split
I0510 09:23:21.409798 23939 net.cpp:434] conv9_2_conv9_2_relu_0_split <- conv9_2
I0510 09:23:21.409803 23939 net.cpp:408] conv9_2_conv9_2_relu_0_split -> conv9_2_conv9_2_relu_0_split_0
I0510 09:23:21.409811 23939 net.cpp:408] conv9_2_conv9_2_relu_0_split -> conv9_2_conv9_2_relu_0_split_1
I0510 09:23:21.409816 23939 net.cpp:408] conv9_2_conv9_2_relu_0_split -> conv9_2_conv9_2_relu_0_split_2
I0510 09:23:21.409879 23939 net.cpp:150] Setting up conv9_2_conv9_2_relu_0_split
I0510 09:23:21.409884 23939 net.cpp:157] Top shape: 8 256 1 1 (2048)
I0510 09:23:21.409888 23939 net.cpp:157] Top shape: 8 256 1 1 (2048)
I0510 09:23:21.409893 23939 net.cpp:157] Top shape: 8 256 1 1 (2048)
I0510 09:23:21.409895 23939 net.cpp:165] Memory required for data: 1882243104
I0510 09:23:21.409898 23939 layer_factory.hpp:77] Creating layer conv4_3_norm
I0510 09:23:21.409905 23939 net.cpp:100] Creating Layer conv4_3_norm
I0510 09:23:21.409909 23939 net.cpp:434] conv4_3_norm <- conv4_3_relu4_3_0_split_1
I0510 09:23:21.409915 23939 net.cpp:408] conv4_3_norm -> conv4_3_norm
I0510 09:23:21.410116 23939 net.cpp:150] Setting up conv4_3_norm
I0510 09:23:21.410125 23939 net.cpp:157] Top shape: 8 512 38 38 (5914624)
I0510 09:23:21.410128 23939 net.cpp:165] Memory required for data: 1905901600
I0510 09:23:21.410135 23939 layer_factory.hpp:77] Creating layer conv4_3_norm_conv4_3_norm_0_split
I0510 09:23:21.410140 23939 net.cpp:100] Creating Layer conv4_3_norm_conv4_3_norm_0_split
I0510 09:23:21.410145 23939 net.cpp:434] conv4_3_norm_conv4_3_norm_0_split <- conv4_3_norm
I0510 09:23:21.410151 23939 net.cpp:408] conv4_3_norm_conv4_3_norm_0_split -> conv4_3_norm_conv4_3_norm_0_split_0
I0510 09:23:21.410157 23939 net.cpp:408] conv4_3_norm_conv4_3_norm_0_split -> conv4_3_norm_conv4_3_norm_0_split_1
I0510 09:23:21.410164 23939 net.cpp:408] conv4_3_norm_conv4_3_norm_0_split -> conv4_3_norm_conv4_3_norm_0_split_2
I0510 09:23:21.410226 23939 net.cpp:150] Setting up conv4_3_norm_conv4_3_norm_0_split
I0510 09:23:21.410234 23939 net.cpp:157] Top shape: 8 512 38 38 (5914624)
I0510 09:23:21.410238 23939 net.cpp:157] Top shape: 8 512 38 38 (5914624)
I0510 09:23:21.410243 23939 net.cpp:157] Top shape: 8 512 38 38 (5914624)
I0510 09:23:21.410245 23939 net.cpp:165] Memory required for data: 1976877088
I0510 09:23:21.410249 23939 layer_factory.hpp:77] Creating layer conv4_3_norm_mbox_loc
I0510 09:23:21.410260 23939 net.cpp:100] Creating Layer conv4_3_norm_mbox_loc
I0510 09:23:21.410264 23939 net.cpp:434] conv4_3_norm_mbox_loc <- conv4_3_norm_conv4_3_norm_0_split_0
I0510 09:23:21.410271 23939 net.cpp:408] conv4_3_norm_mbox_loc -> conv4_3_norm_mbox_loc
I0510 09:23:21.411895 23939 net.cpp:150] Setting up conv4_3_norm_mbox_loc
I0510 09:23:21.411904 23939 net.cpp:157] Top shape: 8 16 38 38 (184832)
I0510 09:23:21.411909 23939 net.cpp:165] Memory required for data: 1977616416
I0510 09:23:21.411916 23939 layer_factory.hpp:77] Creating layer conv4_3_norm_mbox_loc_perm
I0510 09:23:21.411923 23939 net.cpp:100] Creating Layer conv4_3_norm_mbox_loc_perm
I0510 09:23:21.411927 23939 net.cpp:434] conv4_3_norm_mbox_loc_perm <- conv4_3_norm_mbox_loc
I0510 09:23:21.411934 23939 net.cpp:408] conv4_3_norm_mbox_loc_perm -> conv4_3_norm_mbox_loc_perm
I0510 09:23:21.412040 23939 net.cpp:150] Setting up conv4_3_norm_mbox_loc_perm
I0510 09:23:21.412045 23939 net.cpp:157] Top shape: 8 38 38 16 (184832)
I0510 09:23:21.412047 23939 net.cpp:165] Memory required for data: 1978355744
I0510 09:23:21.412050 23939 layer_factory.hpp:77] Creating layer conv4_3_norm_mbox_loc_flat
I0510 09:23:21.412055 23939 net.cpp:100] Creating Layer conv4_3_norm_mbox_loc_flat
I0510 09:23:21.412056 23939 net.cpp:434] conv4_3_norm_mbox_loc_flat <- conv4_3_norm_mbox_loc_perm
I0510 09:23:21.412060 23939 net.cpp:408] conv4_3_norm_mbox_loc_flat -> conv4_3_norm_mbox_loc_flat
I0510 09:23:21.412088 23939 net.cpp:150] Setting up conv4_3_norm_mbox_loc_flat
I0510 09:23:21.412092 23939 net.cpp:157] Top shape: 8 23104 (184832)
I0510 09:23:21.412096 23939 net.cpp:165] Memory required for data: 1979095072
I0510 09:23:21.412097 23939 layer_factory.hpp:77] Creating layer conv4_3_norm_mbox_conf
I0510 09:23:21.412108 23939 net.cpp:100] Creating Layer conv4_3_norm_mbox_conf
I0510 09:23:21.412111 23939 net.cpp:434] conv4_3_norm_mbox_conf <- conv4_3_norm_conv4_3_norm_0_split_1
I0510 09:23:21.412115 23939 net.cpp:408] conv4_3_norm_mbox_conf -> conv4_3_norm_mbox_conf
I0510 09:23:21.413461 23939 net.cpp:150] Setting up conv4_3_norm_mbox_conf
I0510 09:23:21.413470 23939 net.cpp:157] Top shape: 8 8 38 38 (92416)
I0510 09:23:21.413473 23939 net.cpp:165] Memory required for data: 1979464736
I0510 09:23:21.413478 23939 layer_factory.hpp:77] Creating layer conv4_3_norm_mbox_conf_perm
I0510 09:23:21.413482 23939 net.cpp:100] Creating Layer conv4_3_norm_mbox_conf_perm
I0510 09:23:21.413486 23939 net.cpp:434] conv4_3_norm_mbox_conf_perm <- conv4_3_norm_mbox_conf
I0510 09:23:21.413491 23939 net.cpp:408] conv4_3_norm_mbox_conf_perm -> conv4_3_norm_mbox_conf_perm
I0510 09:23:21.413590 23939 net.cpp:150] Setting up conv4_3_norm_mbox_conf_perm
I0510 09:23:21.413595 23939 net.cpp:157] Top shape: 8 38 38 8 (92416)
I0510 09:23:21.413599 23939 net.cpp:165] Memory required for data: 1979834400
I0510 09:23:21.413602 23939 layer_factory.hpp:77] Creating layer conv4_3_norm_mbox_conf_flat
I0510 09:23:21.413606 23939 net.cpp:100] Creating Layer conv4_3_norm_mbox_conf_flat
I0510 09:23:21.413610 23939 net.cpp:434] conv4_3_norm_mbox_conf_flat <- conv4_3_norm_mbox_conf_perm
I0510 09:23:21.413614 23939 net.cpp:408] conv4_3_norm_mbox_conf_flat -> conv4_3_norm_mbox_conf_flat
I0510 09:23:21.413637 23939 net.cpp:150] Setting up conv4_3_norm_mbox_conf_flat
I0510 09:23:21.413641 23939 net.cpp:157] Top shape: 8 11552 (92416)
I0510 09:23:21.413645 23939 net.cpp:165] Memory required for data: 1980204064
I0510 09:23:21.413647 23939 layer_factory.hpp:77] Creating layer conv4_3_norm_mbox_priorbox
I0510 09:23:21.413655 23939 net.cpp:100] Creating Layer conv4_3_norm_mbox_priorbox
I0510 09:23:21.413657 23939 net.cpp:434] conv4_3_norm_mbox_priorbox <- conv4_3_norm_conv4_3_norm_0_split_2
I0510 09:23:21.413661 23939 net.cpp:434] conv4_3_norm_mbox_priorbox <- data_data_0_split_1
I0510 09:23:21.413667 23939 net.cpp:408] conv4_3_norm_mbox_priorbox -> conv4_3_norm_mbox_priorbox
I0510 09:23:21.413691 23939 net.cpp:150] Setting up conv4_3_norm_mbox_priorbox
I0510 09:23:21.413694 23939 net.cpp:157] Top shape: 1 2 23104 (46208)
I0510 09:23:21.413695 23939 net.cpp:165] Memory required for data: 1980388896
I0510 09:23:21.413697 23939 layer_factory.hpp:77] Creating layer fc7_mbox_loc
I0510 09:23:21.413703 23939 net.cpp:100] Creating Layer fc7_mbox_loc
I0510 09:23:21.413707 23939 net.cpp:434] fc7_mbox_loc <- fc7_relu7_0_split_1
I0510 09:23:21.413712 23939 net.cpp:408] fc7_mbox_loc -> fc7_mbox_loc
I0510 09:23:21.415683 23939 net.cpp:150] Setting up fc7_mbox_loc
I0510 09:23:21.415691 23939 net.cpp:157] Top shape: 8 24 19 19 (69312)
I0510 09:23:21.415694 23939 net.cpp:165] Memory required for data: 1980666144
I0510 09:23:21.415699 23939 layer_factory.hpp:77] Creating layer fc7_mbox_loc_perm
I0510 09:23:21.415704 23939 net.cpp:100] Creating Layer fc7_mbox_loc_perm
I0510 09:23:21.415707 23939 net.cpp:434] fc7_mbox_loc_perm <- fc7_mbox_loc
I0510 09:23:21.415719 23939 net.cpp:408] fc7_mbox_loc_perm -> fc7_mbox_loc_perm
I0510 09:23:21.415815 23939 net.cpp:150] Setting up fc7_mbox_loc_perm
I0510 09:23:21.415819 23939 net.cpp:157] Top shape: 8 19 19 24 (69312)
I0510 09:23:21.415822 23939 net.cpp:165] Memory required for data: 1980943392
I0510 09:23:21.415823 23939 layer_factory.hpp:77] Creating layer fc7_mbox_loc_flat
I0510 09:23:21.415828 23939 net.cpp:100] Creating Layer fc7_mbox_loc_flat
I0510 09:23:21.415830 23939 net.cpp:434] fc7_mbox_loc_flat <- fc7_mbox_loc_perm
I0510 09:23:21.415833 23939 net.cpp:408] fc7_mbox_loc_flat -> fc7_mbox_loc_flat
I0510 09:23:21.415853 23939 net.cpp:150] Setting up fc7_mbox_loc_flat
I0510 09:23:21.415858 23939 net.cpp:157] Top shape: 8 8664 (69312)
I0510 09:23:21.415859 23939 net.cpp:165] Memory required for data: 1981220640
I0510 09:23:21.415860 23939 layer_factory.hpp:77] Creating layer fc7_mbox_conf
I0510 09:23:21.415868 23939 net.cpp:100] Creating Layer fc7_mbox_conf
I0510 09:23:21.415869 23939 net.cpp:434] fc7_mbox_conf <- fc7_relu7_0_split_2
I0510 09:23:21.415874 23939 net.cpp:408] fc7_mbox_conf -> fc7_mbox_conf
I0510 09:23:21.417475 23939 net.cpp:150] Setting up fc7_mbox_conf
I0510 09:23:21.417484 23939 net.cpp:157] Top shape: 8 12 19 19 (34656)
I0510 09:23:21.417486 23939 net.cpp:165] Memory required for data: 1981359264
I0510 09:23:21.417490 23939 layer_factory.hpp:77] Creating layer fc7_mbox_conf_perm
I0510 09:23:21.417495 23939 net.cpp:100] Creating Layer fc7_mbox_conf_perm
I0510 09:23:21.417498 23939 net.cpp:434] fc7_mbox_conf_perm <- fc7_mbox_conf
I0510 09:23:21.417502 23939 net.cpp:408] fc7_mbox_conf_perm -> fc7_mbox_conf_perm
I0510 09:23:21.417601 23939 net.cpp:150] Setting up fc7_mbox_conf_perm
I0510 09:23:21.417605 23939 net.cpp:157] Top shape: 8 19 19 12 (34656)
I0510 09:23:21.417609 23939 net.cpp:165] Memory required for data: 1981497888
I0510 09:23:21.417613 23939 layer_factory.hpp:77] Creating layer fc7_mbox_conf_flat
I0510 09:23:21.417618 23939 net.cpp:100] Creating Layer fc7_mbox_conf_flat
I0510 09:23:21.417620 23939 net.cpp:434] fc7_mbox_conf_flat <- fc7_mbox_conf_perm
I0510 09:23:21.417626 23939 net.cpp:408] fc7_mbox_conf_flat -> fc7_mbox_conf_flat
I0510 09:23:21.417649 23939 net.cpp:150] Setting up fc7_mbox_conf_flat
I0510 09:23:21.417651 23939 net.cpp:157] Top shape: 8 4332 (34656)
I0510 09:23:21.417654 23939 net.cpp:165] Memory required for data: 1981636512
I0510 09:23:21.417655 23939 layer_factory.hpp:77] Creating layer fc7_mbox_priorbox
I0510 09:23:21.417659 23939 net.cpp:100] Creating Layer fc7_mbox_priorbox
I0510 09:23:21.417662 23939 net.cpp:434] fc7_mbox_priorbox <- fc7_relu7_0_split_3
I0510 09:23:21.417665 23939 net.cpp:434] fc7_mbox_priorbox <- data_data_0_split_2
I0510 09:23:21.417670 23939 net.cpp:408] fc7_mbox_priorbox -> fc7_mbox_priorbox
I0510 09:23:21.417692 23939 net.cpp:150] Setting up fc7_mbox_priorbox
I0510 09:23:21.417695 23939 net.cpp:157] Top shape: 1 2 8664 (17328)
I0510 09:23:21.417697 23939 net.cpp:165] Memory required for data: 1981705824
I0510 09:23:21.417699 23939 layer_factory.hpp:77] Creating layer conv6_2_mbox_loc
I0510 09:23:21.417706 23939 net.cpp:100] Creating Layer conv6_2_mbox_loc
I0510 09:23:21.417708 23939 net.cpp:434] conv6_2_mbox_loc <- conv6_2_conv6_2_relu_0_split_1
I0510 09:23:21.417712 23939 net.cpp:408] conv6_2_mbox_loc -> conv6_2_mbox_loc
I0510 09:23:21.419292 23939 net.cpp:150] Setting up conv6_2_mbox_loc
I0510 09:23:21.419301 23939 net.cpp:157] Top shape: 8 24 10 10 (19200)
I0510 09:23:21.419303 23939 net.cpp:165] Memory required for data: 1981782624
I0510 09:23:21.419307 23939 layer_factory.hpp:77] Creating layer conv6_2_mbox_loc_perm
I0510 09:23:21.419312 23939 net.cpp:100] Creating Layer conv6_2_mbox_loc_perm
I0510 09:23:21.419315 23939 net.cpp:434] conv6_2_mbox_loc_perm <- conv6_2_mbox_loc
I0510 09:23:21.419319 23939 net.cpp:408] conv6_2_mbox_loc_perm -> conv6_2_mbox_loc_perm
I0510 09:23:21.419418 23939 net.cpp:150] Setting up conv6_2_mbox_loc_perm
I0510 09:23:21.419423 23939 net.cpp:157] Top shape: 8 10 10 24 (19200)
I0510 09:23:21.419426 23939 net.cpp:165] Memory required for data: 1981859424
I0510 09:23:21.419438 23939 layer_factory.hpp:77] Creating layer conv6_2_mbox_loc_flat
I0510 09:23:21.419443 23939 net.cpp:100] Creating Layer conv6_2_mbox_loc_flat
I0510 09:23:21.419448 23939 net.cpp:434] conv6_2_mbox_loc_flat <- conv6_2_mbox_loc_perm
I0510 09:23:21.419456 23939 net.cpp:408] conv6_2_mbox_loc_flat -> conv6_2_mbox_loc_flat
I0510 09:23:21.419478 23939 net.cpp:150] Setting up conv6_2_mbox_loc_flat
I0510 09:23:21.419482 23939 net.cpp:157] Top shape: 8 2400 (19200)
I0510 09:23:21.419486 23939 net.cpp:165] Memory required for data: 1981936224
I0510 09:23:21.419488 23939 layer_factory.hpp:77] Creating layer conv6_2_mbox_conf
I0510 09:23:21.419498 23939 net.cpp:100] Creating Layer conv6_2_mbox_conf
I0510 09:23:21.419502 23939 net.cpp:434] conv6_2_mbox_conf <- conv6_2_conv6_2_relu_0_split_2
I0510 09:23:21.419510 23939 net.cpp:408] conv6_2_mbox_conf -> conv6_2_mbox_conf
I0510 09:23:21.420895 23939 net.cpp:150] Setting up conv6_2_mbox_conf
I0510 09:23:21.420904 23939 net.cpp:157] Top shape: 8 12 10 10 (9600)
I0510 09:23:21.420908 23939 net.cpp:165] Memory required for data: 1981974624
I0510 09:23:21.420923 23939 layer_factory.hpp:77] Creating layer conv6_2_mbox_conf_perm
I0510 09:23:21.420928 23939 net.cpp:100] Creating Layer conv6_2_mbox_conf_perm
I0510 09:23:21.420931 23939 net.cpp:434] conv6_2_mbox_conf_perm <- conv6_2_mbox_conf
I0510 09:23:21.420935 23939 net.cpp:408] conv6_2_mbox_conf_perm -> conv6_2_mbox_conf_perm
I0510 09:23:21.421038 23939 net.cpp:150] Setting up conv6_2_mbox_conf_perm
I0510 09:23:21.421042 23939 net.cpp:157] Top shape: 8 10 10 12 (9600)
I0510 09:23:21.421046 23939 net.cpp:165] Memory required for data: 1982013024
I0510 09:23:21.421048 23939 layer_factory.hpp:77] Creating layer conv6_2_mbox_conf_flat
I0510 09:23:21.421052 23939 net.cpp:100] Creating Layer conv6_2_mbox_conf_flat
I0510 09:23:21.421054 23939 net.cpp:434] conv6_2_mbox_conf_flat <- conv6_2_mbox_conf_perm
I0510 09:23:21.421058 23939 net.cpp:408] conv6_2_mbox_conf_flat -> conv6_2_mbox_conf_flat
I0510 09:23:21.421078 23939 net.cpp:150] Setting up conv6_2_mbox_conf_flat
I0510 09:23:21.421082 23939 net.cpp:157] Top shape: 8 1200 (9600)
I0510 09:23:21.421084 23939 net.cpp:165] Memory required for data: 1982051424
I0510 09:23:21.421085 23939 layer_factory.hpp:77] Creating layer conv6_2_mbox_priorbox
I0510 09:23:21.421089 23939 net.cpp:100] Creating Layer conv6_2_mbox_priorbox
I0510 09:23:21.421092 23939 net.cpp:434] conv6_2_mbox_priorbox <- conv6_2_conv6_2_relu_0_split_3
I0510 09:23:21.421094 23939 net.cpp:434] conv6_2_mbox_priorbox <- data_data_0_split_3
I0510 09:23:21.421099 23939 net.cpp:408] conv6_2_mbox_priorbox -> conv6_2_mbox_priorbox
I0510 09:23:21.421120 23939 net.cpp:150] Setting up conv6_2_mbox_priorbox
I0510 09:23:21.421124 23939 net.cpp:157] Top shape: 1 2 2400 (4800)
I0510 09:23:21.421126 23939 net.cpp:165] Memory required for data: 1982070624
I0510 09:23:21.421128 23939 layer_factory.hpp:77] Creating layer conv7_2_mbox_loc
I0510 09:23:21.421133 23939 net.cpp:100] Creating Layer conv7_2_mbox_loc
I0510 09:23:21.421136 23939 net.cpp:434] conv7_2_mbox_loc <- conv7_2_conv7_2_relu_0_split_1
I0510 09:23:21.421139 23939 net.cpp:408] conv7_2_mbox_loc -> conv7_2_mbox_loc
I0510 09:23:21.422555 23939 net.cpp:150] Setting up conv7_2_mbox_loc
I0510 09:23:21.422564 23939 net.cpp:157] Top shape: 8 24 5 5 (4800)
I0510 09:23:21.422566 23939 net.cpp:165] Memory required for data: 1982089824
I0510 09:23:21.422570 23939 layer_factory.hpp:77] Creating layer conv7_2_mbox_loc_perm
I0510 09:23:21.422574 23939 net.cpp:100] Creating Layer conv7_2_mbox_loc_perm
I0510 09:23:21.422576 23939 net.cpp:434] conv7_2_mbox_loc_perm <- conv7_2_mbox_loc
I0510 09:23:21.422581 23939 net.cpp:408] conv7_2_mbox_loc_perm -> conv7_2_mbox_loc_perm
I0510 09:23:21.422677 23939 net.cpp:150] Setting up conv7_2_mbox_loc_perm
I0510 09:23:21.422682 23939 net.cpp:157] Top shape: 8 5 5 24 (4800)
I0510 09:23:21.422683 23939 net.cpp:165] Memory required for data: 1982109024
I0510 09:23:21.422685 23939 layer_factory.hpp:77] Creating layer conv7_2_mbox_loc_flat
I0510 09:23:21.422698 23939 net.cpp:100] Creating Layer conv7_2_mbox_loc_flat
I0510 09:23:21.422700 23939 net.cpp:434] conv7_2_mbox_loc_flat <- conv7_2_mbox_loc_perm
I0510 09:23:21.422704 23939 net.cpp:408] conv7_2_mbox_loc_flat -> conv7_2_mbox_loc_flat
I0510 09:23:21.422724 23939 net.cpp:150] Setting up conv7_2_mbox_loc_flat
I0510 09:23:21.422729 23939 net.cpp:157] Top shape: 8 600 (4800)
I0510 09:23:21.422729 23939 net.cpp:165] Memory required for data: 1982128224
I0510 09:23:21.422731 23939 layer_factory.hpp:77] Creating layer conv7_2_mbox_conf
I0510 09:23:21.422739 23939 net.cpp:100] Creating Layer conv7_2_mbox_conf
I0510 09:23:21.422741 23939 net.cpp:434] conv7_2_mbox_conf <- conv7_2_conv7_2_relu_0_split_2
I0510 09:23:21.422747 23939 net.cpp:408] conv7_2_mbox_conf -> conv7_2_mbox_conf
I0510 09:23:21.423820 23939 net.cpp:150] Setting up conv7_2_mbox_conf
I0510 09:23:21.423830 23939 net.cpp:157] Top shape: 8 12 5 5 (2400)
I0510 09:23:21.423830 23939 net.cpp:165] Memory required for data: 1982137824
I0510 09:23:21.423835 23939 layer_factory.hpp:77] Creating layer conv7_2_mbox_conf_perm
I0510 09:23:21.423840 23939 net.cpp:100] Creating Layer conv7_2_mbox_conf_perm
I0510 09:23:21.423841 23939 net.cpp:434] conv7_2_mbox_conf_perm <- conv7_2_mbox_conf
I0510 09:23:21.423846 23939 net.cpp:408] conv7_2_mbox_conf_perm -> conv7_2_mbox_conf_perm
I0510 09:23:21.423939 23939 net.cpp:150] Setting up conv7_2_mbox_conf_perm
I0510 09:23:21.423943 23939 net.cpp:157] Top shape: 8 5 5 12 (2400)
I0510 09:23:21.423945 23939 net.cpp:165] Memory required for data: 1982147424
I0510 09:23:21.423948 23939 layer_factory.hpp:77] Creating layer conv7_2_mbox_conf_flat
I0510 09:23:21.423951 23939 net.cpp:100] Creating Layer conv7_2_mbox_conf_flat
I0510 09:23:21.423954 23939 net.cpp:434] conv7_2_mbox_conf_flat <- conv7_2_mbox_conf_perm
I0510 09:23:21.423957 23939 net.cpp:408] conv7_2_mbox_conf_flat -> conv7_2_mbox_conf_flat
I0510 09:23:21.423977 23939 net.cpp:150] Setting up conv7_2_mbox_conf_flat
I0510 09:23:21.423981 23939 net.cpp:157] Top shape: 8 300 (2400)
I0510 09:23:21.423982 23939 net.cpp:165] Memory required for data: 1982157024
I0510 09:23:21.423985 23939 layer_factory.hpp:77] Creating layer conv7_2_mbox_priorbox
I0510 09:23:21.423993 23939 net.cpp:100] Creating Layer conv7_2_mbox_priorbox
I0510 09:23:21.423995 23939 net.cpp:434] conv7_2_mbox_priorbox <- conv7_2_conv7_2_relu_0_split_3
I0510 09:23:21.424000 23939 net.cpp:434] conv7_2_mbox_priorbox <- data_data_0_split_4
I0510 09:23:21.424005 23939 net.cpp:408] conv7_2_mbox_priorbox -> conv7_2_mbox_priorbox
I0510 09:23:21.424026 23939 net.cpp:150] Setting up conv7_2_mbox_priorbox
I0510 09:23:21.424029 23939 net.cpp:157] Top shape: 1 2 600 (1200)
I0510 09:23:21.424031 23939 net.cpp:165] Memory required for data: 1982161824
I0510 09:23:21.424032 23939 layer_factory.hpp:77] Creating layer conv8_2_mbox_loc
I0510 09:23:21.424039 23939 net.cpp:100] Creating Layer conv8_2_mbox_loc
I0510 09:23:21.424041 23939 net.cpp:434] conv8_2_mbox_loc <- conv8_2_conv8_2_relu_0_split_1
I0510 09:23:21.424046 23939 net.cpp:408] conv8_2_mbox_loc -> conv8_2_mbox_loc
I0510 09:23:21.425107 23939 net.cpp:150] Setting up conv8_2_mbox_loc
I0510 09:23:21.425115 23939 net.cpp:157] Top shape: 8 16 3 3 (1152)
I0510 09:23:21.425117 23939 net.cpp:165] Memory required for data: 1982166432
I0510 09:23:21.425128 23939 layer_factory.hpp:77] Creating layer conv8_2_mbox_loc_perm
I0510 09:23:21.425134 23939 net.cpp:100] Creating Layer conv8_2_mbox_loc_perm
I0510 09:23:21.425137 23939 net.cpp:434] conv8_2_mbox_loc_perm <- conv8_2_mbox_loc
I0510 09:23:21.425140 23939 net.cpp:408] conv8_2_mbox_loc_perm -> conv8_2_mbox_loc_perm
I0510 09:23:21.425240 23939 net.cpp:150] Setting up conv8_2_mbox_loc_perm
I0510 09:23:21.425245 23939 net.cpp:157] Top shape: 8 3 3 16 (1152)
I0510 09:23:21.425246 23939 net.cpp:165] Memory required for data: 1982171040
I0510 09:23:21.425247 23939 layer_factory.hpp:77] Creating layer conv8_2_mbox_loc_flat
I0510 09:23:21.425251 23939 net.cpp:100] Creating Layer conv8_2_mbox_loc_flat
I0510 09:23:21.425261 23939 net.cpp:434] conv8_2_mbox_loc_flat <- conv8_2_mbox_loc_perm
I0510 09:23:21.425266 23939 net.cpp:408] conv8_2_mbox_loc_flat -> conv8_2_mbox_loc_flat
I0510 09:23:21.425287 23939 net.cpp:150] Setting up conv8_2_mbox_loc_flat
I0510 09:23:21.425292 23939 net.cpp:157] Top shape: 8 144 (1152)
I0510 09:23:21.425293 23939 net.cpp:165] Memory required for data: 1982175648
I0510 09:23:21.425297 23939 layer_factory.hpp:77] Creating layer conv8_2_mbox_conf
I0510 09:23:21.425304 23939 net.cpp:100] Creating Layer conv8_2_mbox_conf
I0510 09:23:21.425307 23939 net.cpp:434] conv8_2_mbox_conf <- conv8_2_conv8_2_relu_0_split_2
I0510 09:23:21.425314 23939 net.cpp:408] conv8_2_mbox_conf -> conv8_2_mbox_conf
I0510 09:23:21.426295 23939 net.cpp:150] Setting up conv8_2_mbox_conf
I0510 09:23:21.426303 23939 net.cpp:157] Top shape: 8 8 3 3 (576)
I0510 09:23:21.426304 23939 net.cpp:165] Memory required for data: 1982177952
I0510 09:23:21.426308 23939 layer_factory.hpp:77] Creating layer conv8_2_mbox_conf_perm
I0510 09:23:21.426312 23939 net.cpp:100] Creating Layer conv8_2_mbox_conf_perm
I0510 09:23:21.426314 23939 net.cpp:434] conv8_2_mbox_conf_perm <- conv8_2_mbox_conf
I0510 09:23:21.426318 23939 net.cpp:408] conv8_2_mbox_conf_perm -> conv8_2_mbox_conf_perm
I0510 09:23:21.426414 23939 net.cpp:150] Setting up conv8_2_mbox_conf_perm
I0510 09:23:21.426419 23939 net.cpp:157] Top shape: 8 3 3 8 (576)
I0510 09:23:21.426420 23939 net.cpp:165] Memory required for data: 1982180256
I0510 09:23:21.426421 23939 layer_factory.hpp:77] Creating layer conv8_2_mbox_conf_flat
I0510 09:23:21.426425 23939 net.cpp:100] Creating Layer conv8_2_mbox_conf_flat
I0510 09:23:21.426429 23939 net.cpp:434] conv8_2_mbox_conf_flat <- conv8_2_mbox_conf_perm
I0510 09:23:21.426432 23939 net.cpp:408] conv8_2_mbox_conf_flat -> conv8_2_mbox_conf_flat
I0510 09:23:21.426450 23939 net.cpp:150] Setting up conv8_2_mbox_conf_flat
I0510 09:23:21.426455 23939 net.cpp:157] Top shape: 8 72 (576)
I0510 09:23:21.426457 23939 net.cpp:165] Memory required for data: 1982182560
I0510 09:23:21.426460 23939 layer_factory.hpp:77] Creating layer conv8_2_mbox_priorbox
I0510 09:23:21.426467 23939 net.cpp:100] Creating Layer conv8_2_mbox_priorbox
I0510 09:23:21.426470 23939 net.cpp:434] conv8_2_mbox_priorbox <- conv8_2_conv8_2_relu_0_split_3
I0510 09:23:21.426475 23939 net.cpp:434] conv8_2_mbox_priorbox <- data_data_0_split_5
I0510 09:23:21.426481 23939 net.cpp:408] conv8_2_mbox_priorbox -> conv8_2_mbox_priorbox
I0510 09:23:21.426507 23939 net.cpp:150] Setting up conv8_2_mbox_priorbox
I0510 09:23:21.426513 23939 net.cpp:157] Top shape: 1 2 144 (288)
I0510 09:23:21.426517 23939 net.cpp:165] Memory required for data: 1982183712
I0510 09:23:21.426519 23939 layer_factory.hpp:77] Creating layer conv9_2_mbox_loc
I0510 09:23:21.426529 23939 net.cpp:100] Creating Layer conv9_2_mbox_loc
I0510 09:23:21.426532 23939 net.cpp:434] conv9_2_mbox_loc <- conv9_2_conv9_2_relu_0_split_0
I0510 09:23:21.426537 23939 net.cpp:408] conv9_2_mbox_loc -> conv9_2_mbox_loc
I0510 09:23:21.427906 23939 net.cpp:150] Setting up conv9_2_mbox_loc
I0510 09:23:21.427916 23939 net.cpp:157] Top shape: 8 16 1 1 (128)
I0510 09:23:21.427918 23939 net.cpp:165] Memory required for data: 1982184224
I0510 09:23:21.427925 23939 layer_factory.hpp:77] Creating layer conv9_2_mbox_loc_perm
I0510 09:23:21.427932 23939 net.cpp:100] Creating Layer conv9_2_mbox_loc_perm
I0510 09:23:21.427935 23939 net.cpp:434] conv9_2_mbox_loc_perm <- conv9_2_mbox_loc
I0510 09:23:21.427939 23939 net.cpp:408] conv9_2_mbox_loc_perm -> conv9_2_mbox_loc_perm
I0510 09:23:21.428035 23939 net.cpp:150] Setting up conv9_2_mbox_loc_perm
I0510 09:23:21.428038 23939 net.cpp:157] Top shape: 8 1 1 16 (128)
I0510 09:23:21.428040 23939 net.cpp:165] Memory required for data: 1982184736
I0510 09:23:21.428041 23939 layer_factory.hpp:77] Creating layer conv9_2_mbox_loc_flat
I0510 09:23:21.428045 23939 net.cpp:100] Creating Layer conv9_2_mbox_loc_flat
I0510 09:23:21.428048 23939 net.cpp:434] conv9_2_mbox_loc_flat <- conv9_2_mbox_loc_perm
I0510 09:23:21.428051 23939 net.cpp:408] conv9_2_mbox_loc_flat -> conv9_2_mbox_loc_flat
I0510 09:23:21.428081 23939 net.cpp:150] Setting up conv9_2_mbox_loc_flat
I0510 09:23:21.428084 23939 net.cpp:157] Top shape: 8 16 (128)
I0510 09:23:21.428086 23939 net.cpp:165] Memory required for data: 1982185248
I0510 09:23:21.428087 23939 layer_factory.hpp:77] Creating layer conv9_2_mbox_conf
I0510 09:23:21.428093 23939 net.cpp:100] Creating Layer conv9_2_mbox_conf
I0510 09:23:21.428097 23939 net.cpp:434] conv9_2_mbox_conf <- conv9_2_conv9_2_relu_0_split_1
I0510 09:23:21.428100 23939 net.cpp:408] conv9_2_mbox_conf -> conv9_2_mbox_conf
I0510 09:23:21.429122 23939 net.cpp:150] Setting up conv9_2_mbox_conf
I0510 09:23:21.429131 23939 net.cpp:157] Top shape: 8 8 1 1 (64)
I0510 09:23:21.429133 23939 net.cpp:165] Memory required for data: 1982185504
I0510 09:23:21.429137 23939 layer_factory.hpp:77] Creating layer conv9_2_mbox_conf_perm
I0510 09:23:21.429142 23939 net.cpp:100] Creating Layer conv9_2_mbox_conf_perm
I0510 09:23:21.429144 23939 net.cpp:434] conv9_2_mbox_conf_perm <- conv9_2_mbox_conf
I0510 09:23:21.429148 23939 net.cpp:408] conv9_2_mbox_conf_perm -> conv9_2_mbox_conf_perm
I0510 09:23:21.429245 23939 net.cpp:150] Setting up conv9_2_mbox_conf_perm
I0510 09:23:21.429250 23939 net.cpp:157] Top shape: 8 1 1 8 (64)
I0510 09:23:21.429251 23939 net.cpp:165] Memory required for data: 1982185760
I0510 09:23:21.429253 23939 layer_factory.hpp:77] Creating layer conv9_2_mbox_conf_flat
I0510 09:23:21.429257 23939 net.cpp:100] Creating Layer conv9_2_mbox_conf_flat
I0510 09:23:21.429260 23939 net.cpp:434] conv9_2_mbox_conf_flat <- conv9_2_mbox_conf_perm
I0510 09:23:21.429263 23939 net.cpp:408] conv9_2_mbox_conf_flat -> conv9_2_mbox_conf_flat
I0510 09:23:21.429283 23939 net.cpp:150] Setting up conv9_2_mbox_conf_flat
I0510 09:23:21.429288 23939 net.cpp:157] Top shape: 8 8 (64)
I0510 09:23:21.429291 23939 net.cpp:165] Memory required for data: 1982186016
I0510 09:23:21.429294 23939 layer_factory.hpp:77] Creating layer conv9_2_mbox_priorbox
I0510 09:23:21.429302 23939 net.cpp:100] Creating Layer conv9_2_mbox_priorbox
I0510 09:23:21.429306 23939 net.cpp:434] conv9_2_mbox_priorbox <- conv9_2_conv9_2_relu_0_split_2
I0510 09:23:21.429309 23939 net.cpp:434] conv9_2_mbox_priorbox <- data_data_0_split_6
I0510 09:23:21.429316 23939 net.cpp:408] conv9_2_mbox_priorbox -> conv9_2_mbox_priorbox
I0510 09:23:21.429342 23939 net.cpp:150] Setting up conv9_2_mbox_priorbox
I0510 09:23:21.429345 23939 net.cpp:157] Top shape: 1 2 16 (32)
I0510 09:23:21.429347 23939 net.cpp:165] Memory required for data: 1982186144
I0510 09:23:21.429348 23939 layer_factory.hpp:77] Creating layer mbox_loc
I0510 09:23:21.429353 23939 net.cpp:100] Creating Layer mbox_loc
I0510 09:23:21.429356 23939 net.cpp:434] mbox_loc <- conv4_3_norm_mbox_loc_flat
I0510 09:23:21.429359 23939 net.cpp:434] mbox_loc <- fc7_mbox_loc_flat
I0510 09:23:21.429363 23939 net.cpp:434] mbox_loc <- conv6_2_mbox_loc_flat
I0510 09:23:21.429365 23939 net.cpp:434] mbox_loc <- conv7_2_mbox_loc_flat
I0510 09:23:21.429368 23939 net.cpp:434] mbox_loc <- conv8_2_mbox_loc_flat
I0510 09:23:21.429370 23939 net.cpp:434] mbox_loc <- conv9_2_mbox_loc_flat
I0510 09:23:21.429373 23939 net.cpp:408] mbox_loc -> mbox_loc
I0510 09:23:21.429397 23939 net.cpp:150] Setting up mbox_loc
I0510 09:23:21.429402 23939 net.cpp:157] Top shape: 8 34928 (279424)
I0510 09:23:21.429404 23939 net.cpp:165] Memory required for data: 1983303840
I0510 09:23:21.429405 23939 layer_factory.hpp:77] Creating layer mbox_conf
I0510 09:23:21.429409 23939 net.cpp:100] Creating Layer mbox_conf
I0510 09:23:21.429411 23939 net.cpp:434] mbox_conf <- conv4_3_norm_mbox_conf_flat
I0510 09:23:21.429414 23939 net.cpp:434] mbox_conf <- fc7_mbox_conf_flat
I0510 09:23:21.429416 23939 net.cpp:434] mbox_conf <- conv6_2_mbox_conf_flat
I0510 09:23:21.429419 23939 net.cpp:434] mbox_conf <- conv7_2_mbox_conf_flat
I0510 09:23:21.429421 23939 net.cpp:434] mbox_conf <- conv8_2_mbox_conf_flat
I0510 09:23:21.429424 23939 net.cpp:434] mbox_conf <- conv9_2_mbox_conf_flat
I0510 09:23:21.429426 23939 net.cpp:408] mbox_conf -> mbox_conf
I0510 09:23:21.429455 23939 net.cpp:150] Setting up mbox_conf
I0510 09:23:21.429458 23939 net.cpp:157] Top shape: 8 17464 (139712)
I0510 09:23:21.429461 23939 net.cpp:165] Memory required for data: 1983862688
I0510 09:23:21.429462 23939 layer_factory.hpp:77] Creating layer mbox_priorbox
I0510 09:23:21.429466 23939 net.cpp:100] Creating Layer mbox_priorbox
I0510 09:23:21.429468 23939 net.cpp:434] mbox_priorbox <- conv4_3_norm_mbox_priorbox
I0510 09:23:21.429471 23939 net.cpp:434] mbox_priorbox <- fc7_mbox_priorbox
I0510 09:23:21.429473 23939 net.cpp:434] mbox_priorbox <- conv6_2_mbox_priorbox
I0510 09:23:21.429476 23939 net.cpp:434] mbox_priorbox <- conv7_2_mbox_priorbox
I0510 09:23:21.429478 23939 net.cpp:434] mbox_priorbox <- conv8_2_mbox_priorbox
I0510 09:23:21.429481 23939 net.cpp:434] mbox_priorbox <- conv9_2_mbox_priorbox
I0510 09:23:21.429483 23939 net.cpp:408] mbox_priorbox -> mbox_priorbox
I0510 09:23:21.429502 23939 net.cpp:150] Setting up mbox_priorbox
I0510 09:23:21.429505 23939 net.cpp:157] Top shape: 1 2 34928 (69856)
I0510 09:23:21.429507 23939 net.cpp:165] Memory required for data: 1984142112
I0510 09:23:21.429509 23939 layer_factory.hpp:77] Creating layer mbox_conf_reshape
I0510 09:23:21.429514 23939 net.cpp:100] Creating Layer mbox_conf_reshape
I0510 09:23:21.429517 23939 net.cpp:434] mbox_conf_reshape <- mbox_conf
I0510 09:23:21.429522 23939 net.cpp:408] mbox_conf_reshape -> mbox_conf_reshape
I0510 09:23:21.429545 23939 net.cpp:150] Setting up mbox_conf_reshape
I0510 09:23:21.429549 23939 net.cpp:157] Top shape: 8 8732 2 (139712)
I0510 09:23:21.429551 23939 net.cpp:165] Memory required for data: 1984700960
I0510 09:23:21.429553 23939 layer_factory.hpp:77] Creating layer mbox_conf_softmax
I0510 09:23:21.429558 23939 net.cpp:100] Creating Layer mbox_conf_softmax
I0510 09:23:21.429559 23939 net.cpp:434] mbox_conf_softmax <- mbox_conf_reshape
I0510 09:23:21.429563 23939 net.cpp:408] mbox_conf_softmax -> mbox_conf_softmax
I0510 09:23:21.429746 23939 net.cpp:150] Setting up mbox_conf_softmax
I0510 09:23:21.429752 23939 net.cpp:157] Top shape: 8 8732 2 (139712)
I0510 09:23:21.429756 23939 net.cpp:165] Memory required for data: 1985259808
I0510 09:23:21.429759 23939 layer_factory.hpp:77] Creating layer mbox_conf_flatten
I0510 09:23:21.429765 23939 net.cpp:100] Creating Layer mbox_conf_flatten
I0510 09:23:21.429769 23939 net.cpp:434] mbox_conf_flatten <- mbox_conf_softmax
I0510 09:23:21.429774 23939 net.cpp:408] mbox_conf_flatten -> mbox_conf_flatten
I0510 09:23:21.429797 23939 net.cpp:150] Setting up mbox_conf_flatten
I0510 09:23:21.429801 23939 net.cpp:157] Top shape: 8 17464 (139712)
I0510 09:23:21.429803 23939 net.cpp:165] Memory required for data: 1985818656
I0510 09:23:21.429806 23939 layer_factory.hpp:77] Creating layer detection_out
I0510 09:23:21.429818 23939 net.cpp:100] Creating Layer detection_out
I0510 09:23:21.429821 23939 net.cpp:434] detection_out <- mbox_loc
I0510 09:23:21.429824 23939 net.cpp:434] detection_out <- mbox_conf_flatten
I0510 09:23:21.429826 23939 net.cpp:434] detection_out <- mbox_priorbox
I0510 09:23:21.429831 23939 net.cpp:408] detection_out -> detection_out
W0510 09:23:21.429849 23939 detection_output_layer.cpp:49] Failed to create directory: /home/user/data/VOCdevkit/results/VOC2007/SSD_300x300/Main
I0510 09:23:21.430958 23939 net.cpp:150] Setting up detection_out
I0510 09:23:21.430964 23939 net.cpp:157] Top shape: 1 1 1 7 (7)
I0510 09:23:21.430968 23939 net.cpp:165] Memory required for data: 1985818684
I0510 09:23:21.430969 23939 layer_factory.hpp:77] Creating layer detection_eval
I0510 09:23:21.430974 23939 net.cpp:100] Creating Layer detection_eval
I0510 09:23:21.430979 23939 net.cpp:434] detection_eval <- detection_out
I0510 09:23:21.430984 23939 net.cpp:434] detection_eval <- label
I0510 09:23:21.430989 23939 net.cpp:408] detection_eval -> detection_eval
I0510 09:23:21.431531 23939 net.cpp:150] Setting up detection_eval
I0510 09:23:21.431536 23939 net.cpp:157] Top shape: 1 1 2 5 (10)
I0510 09:23:21.431540 23939 net.cpp:165] Memory required for data: 1985818724
I0510 09:23:21.431550 23939 net.cpp:228] detection_eval does not need backward computation.
I0510 09:23:21.431553 23939 net.cpp:228] detection_out does not need backward computation.
I0510 09:23:21.431557 23939 net.cpp:228] mbox_conf_flatten does not need backward computation.
I0510 09:23:21.431561 23939 net.cpp:228] mbox_conf_softmax does not need backward computation.
…
