…
snapshot_prefix: "fpn_rfcn_ohem"
stepvalue: 10000
stepvalue: 12000
iter_size: 8
I1021 23:15:38.033993 25759 solver.cpp:81] Creating training net from train_net file: /home/neuiva1/sol/10_12/py-R-FCN/experiments/10_22/model_ohem/multi_ohem.prototxt
I1021 23:15:38.037510 25759 net.cpp:58] Initializing net from parameters: 
name: "ResNet-50"
state {
  phase: TRAIN
}
layer {
  name: "input-data"
  type: "Python"
  top: "data"
  top: "im_info"
  top: "gt_boxes"
  python_param {
    module: "roi_data_layer.layer"
    layer: "RoIDataLayer"
    param_str: "\'num_classes\': 2"
  }
}
layer {
  name: "conv1"
  type: "Convolution"
  bottom: "data"
  top: "conv1"
  param {
    lr_mult: 0
  }
  param {
    lr_mult: 0
  }
  convolution_param {
    num_output: 64
    pad: 3
    kernel_size: 7
    stride: 2
  }
}
layer {
  name: "bn_conv1"
  type: "BatchNorm"
  bottom: "conv1"
  top: "conv1"
  param {
    lr_mult: 0
    decay_mult: 0
  }
  param {
    lr_mult: 0
    decay_mult: 0
  }
  param {
    lr_mult: 0
    decay_mult: 0
  }
  batch_norm_param {
    use_global_stats: true
  }
}
layer {
  name: "scale_conv1"
  type: "Scale"
  bottom: "conv1"
  top: "conv1"
  param {
    lr_mult: 0
    decay_mult: 0
  }
  param {
    lr_mult: 0
    decay_mult: 0
  }
  scale_param {
    bias_term: true
  }
}
layer {
  name: "conv1_relu"
  type: "ReLU"
  bottom: "conv1"
  top: "conv1"
}
layer {
  name: "pool1"
  type: "Pooling"
  bottom: "conv1"
  top: "pool1"
  pooling_param {
    pool: MAX
    kernel_size: 3
    stride: 2
    pad: 0
  }
}
layer {
  name: "res2a_branch1"
  type: "Convolution"
  bottom: "pool1"
  top: "res2a_branch1"
  param {
    lr_mult: 0
  }
  convolution_param {
    num_output: 256
    bias_term: false
    pad: 0
    kernel_size: 1
    stride: 1
  }
}
layer {
  name: "bn2a_branch1"
  type: "BatchNorm"
  bottom: "res2a_branch1"
  top: "res2a_branch1"
  param {
    lr_mult: 0
    decay_mult: 0
  }
  param {
    lr_mult: 0
    decay_mult: 0
  }
  param {
    lr_mult: 0
    decay_mult: 0
  }
  batch_norm_param {
    use_global_stats: true
  }
}
layer {
  name: "scale2a_branch1"
  type: "Scale"
  bottom: "res2a_branch1"
  top: "res2a_branch1"
  param {
    lr_mult: 0
    decay_mult: 0
  }
  param {
    lr_mult: 0
    decay_mult: 0
  }
  scale_param {
    bias_term: true
  }
}
layer {
  name: "res2a_branch2a"
  type: "Convolution"
  bottom: "pool1"
  top: "res2a_branch2a"
  param {
    lr_mult: 0
  }
  convolution_param {
    num_output: 64
    bias_term: false
    pad: 0
    kernel_size: 1
    stride: 1
  }
}
layer {
  name: "bn2a_branch2a"
  type: "BatchNorm"
  bottom: "res2a_branch2a"
  top: "res2a_branch2a"
  param {
    lr_mult: 0
    decay_mult: 0
  }
  param {
    lr_mult: 0
    decay_mult: 0
  }
  param {
    lr_mult: 0
    decay_mult: 0
  }
  batch_norm_param {
    use_global_stats: true
  }
}
layer {
  name: "scale2a_branch2a"
  type: "Scale"
  bottom: "res2a_branch2a"
  top: "res2a_branch2a"
  param {
    lr_mult: 0
    decay_mult: 0
  }
  param {
    lr_mult: 0
    decay_mult: 0
  }
  scale_param {
    bias_term: true
  }
}
layer {
  name: "res2a_branch2a_relu"
  type: "ReLU"
  bottom: "res2a_branch2a"
  top: "res2a_branch2a"
}
layer {
  name: "res2a_branch2b"
  type: "Convolution"
  bottom: "res2a_branch2a"
  top: "res2a_branch2b"
  param {
    lr_mult: 0
  }
  convolution_param {
    num_output: 64
    bias_term: false
    pad: 1
    kernel_size: 3
    stride: 1
  }
}
layer {
  name: "bn2a_branch2b"
  type: "BatchNorm"
  bottom: "res2a_branch2b"
  top: "res2a_branch2b"
  param {
    lr_mult: 0
    decay_mult: 0
  }
  param {
    lr_mult: 0
    decay_mult: 0
  }
  param {
    lr_mult: 0
    decay_mult: 0
  }
  batch_norm_param {
    use_global_stats: true
  }
}
layer {
  name: "scale2a_branch2b"
  type: "Scale"
  bottom: "res2a_branch2b"
  top: "res2a_branch2b"
  param {
    lr_mult: 0
    decay_mult: 0
  }
  param {
    lr_mult: 0
    decay_mult: 0
  }
  scale_param {
    bias_term: true
  }
}
layer {
  name: "res2a_branch2b_relu"
  type: "ReLU"
  bottom: "res2a_branch2b"
  top: "res2a_branch2b"
}
layer {
  name: "res2a_branch2c"
  type: "Convolution"
  bottom: "res2a_branch2b"
  top: "res2a_branch2c"
  param {
    lr_mult: 0
  }
  convolution_param {
    num_output: 256
    bias_term: false
    pad: 0
    kernel_size: 1
    stride: 1
  }
}
layer {
  name: "bn2a_branch2c"
  type: "BatchNorm"
  bottom: "res2a_branch2c"
  top: "res2a_branch2c"
  param {
    lr_mult: 0
    decay_mult: 0
  }
  param {
    lr_mult: 0
    decay_mult: 0
  }
  param {
    lr_mult: 0
    decay_mult: 0
  }
  batch_norm_param {
    use_global_stats: true
  }
}
layer {
  name: "scale2a_branch2c"
  type: "Scale"
  bottom: "res2a_branch2c"
  top: "res2a_branch2c"
  param {
    lr_mult: 0
    decay_mult: 0
  }
  param {
    lr_mult: 0
    decay_mult: 0
  }
  scale_param {
    bias_term: true
  }
}
layer {
  name: "res2a"
  type: "Eltwise"
  bottom: "res2a_branch1"
  bottom: "res2a_branch2c"
  top: "res2a"
}
layer {
  name: "res2a_relu"
  type: "ReLU"
  bottom: "res2a"
  top: "res2a"
}
layer {
  name: "res2b_branch2a"
  type: "Convolution"
  bottom: "res2a"
  top: "res2b_branch2a"
  param {
    lr_mult: 0
  }
  convolution_param {
    num_output: 64
    bias_term: false
    pad: 0
    kernel_size: 1
    stride: 1
  }
}
layer {
  name: "bn2b_branch2a"
  type: "BatchNorm"
  bottom: "res2b_branch2a"
  top: "res2b_branch2a"
  param {
    lr_mult: 0
    decay_mult: 0
  }
  param {
    lr_mult: 0
    decay_mult: 0
  }
  param {
    lr_mult: 0
    decay_mult: 0
  }
  batch_norm_param {
    use_global_stats: true
  }
}
layer {
  name: "scale2b_branch2a"
  type: "Scale"
  bottom: "res2b_branch2a"
  top: "res2b_branch2a"
  param {
    lr_mult: 0
    decay_mult: 0
  }
  param {
    lr_mult: 0
    decay_mult: 0
  }
  scale_param {
    bias_term: true
  }
}
layer {
  name: "res2b_branch2a_relu"
  type: "ReLU"
  bottom: "res2b_branch2a"
  top: "res2b_branch2a"
}
layer {
  name: "res2b_branch2b"
  type: "Convolution"
  bottom: "res2b_branch2a"
  top: "res2b_branch2b"
  param {
    lr_mult: 0
  }
  convolution_param {
    num_output: 64
    bias_term: false
    pad: 1
    kernel_size: 3
    stride: 1
  }
}
layer {
  name: "bn2b_branch2b"
  type: "BatchNorm"
  bottom: "res2b_branch2b"
  top: "res2b_branch2b"
  param {
    lr_mult: 0
    decay_mult: 0
  }
  param {
    lr_mult: 0
    decay_mult: 0
  }
  param {
    lr_mult: 0
    decay_mult: 0
  }
  batch_norm_param {
    use_global_stats: true
  }
}
layer {
  name: "scale2b_branch2b"
  type: "Scale"
  bottom: "res2b_branch2b"
  top: "res2b_branch2b"
  param {
    lr_mult: 0
    decay_mult: 0
  }
  param {
    lr_mult: 0
    decay_mult: 0
  }
  scale_param {
    bias_term: true
  }
}
layer {
  name: "res2b_branch2b_relu"
  type: "ReLU"
  bottom: "res2b_branch2b"
  top: "res2b_branch2b"
}
layer {
  name: "res2b_branch2c"
  type: "Convolution"
  bottom: "res2b_branch2b"
  top: "res2b_branch2c"
  param {
    lr_mult: 0
  }
  convolution_param {
    num_output: 256
    bias_term: false
    pad: 0
    kernel_size: 1
    stride: 1
  }
}
layer {
  name: "bn2b_branch2c"
  type: "BatchNorm"
  bottom: "res2b_branch2c"
  top: "res2b_branch2c"
  param {
    lr_mult: 0
    decay_mult: 0
  }
  param {
    lr_mult: 0
    decay_mult: 0
  }
  param {
    lr_mult: 0
    decay_mult: 0
  }
  batch_norm_param {
    use_global_stats: true
  }
}
layer {
  name: "scale2b_branch2c"
  type: "Scale"
  bottom: "res2b_branch2c"
  top: "res2b_branch2c"
  param {
    lr_mult: 0
    decay_mult: 0
  }
  param {
    lr_mult: 0
    decay_mult: 0
  }
  scale_param {
    bias_term: true
  }
}
layer {
  name: "res2b"
  type: "Eltwise"
  bottom: "res2a"
  bottom: "res2b_branch2c"
  top: "res2b"
}
layer {
  name: "res2b_relu"
  type: "ReLU"
  bottom: "res2b"
  top: "res2b"
}
layer {
  name: "res2c_branch2a"
  type: "Convolution"
  bottom: "res2b"
  top: "res2c_branch2a"
  param {
    lr_mult: 0
  }
  convolution_param {
    num_output: 64
    bias_term: false
    pad: 0
    kernel_size: 1
    stride: 1
  }
}
layer {
  name: "bn2c_branch2a"
  type: "BatchNorm"
  bottom: "res2c_branch2a"
  top: "res2c_branch2a"
  param {
    lr_mult: 0
    decay_mult: 0
  }
  param {
    lr_mult: 0
    decay_mult: 0
  }
  param {
    lr_mult: 0
    decay_mult: 0
  }
  batch_norm_param {
    use_global_stats: true
  }
}
layer {
  name: "scale2c_branch2a"
  type: "Scale"
  bottom: "res2c_branch2a"
  top: "res2c_branch2a"
  param {
    lr_mult: 0
    decay_mult: 0
  }
  param {
    lr_mult: 0
    decay_mult: 0
  }
  scale_param {
    bias_term: true
  }
}
layer {
  name: "res2c_branch2a_relu"
  type: "ReLU"
  bottom: "res2c_branch2a"
  top: "res2c_branch2a"
}
layer {
  name: "res2c_branch2b"
  type: "Convolution"
  bottom: "res2c_branch2a"
  top: "res2c_branch2b"
  param {
    lr_mult: 0
  }
  convolution_param {
    num_output: 64
    bias_term: false
    pad: 1
    kernel_size: 3
    stride: 1
  }
}
layer {
  name: "bn2c_branch2b"
  type: "BatchNorm"
  bottom: "res2c_branch2b"
  top: "res2c_branch2b"
  param {
    lr_mult: 0
    decay_mult: 0
  }
  param {
    lr_mult: 0
    decay_mult: 0
  }
  param {
    lr_mult: 0
    decay_mult: 0
  }
  batch_norm_param {
    use_global_stats: true
  }
}
layer {
  name: "scale2c_branch2b"
  type: "Scale"
  bottom: "res2c_branch2b"
  top: "res2c_branch2b"
  param {
    lr_mult: 0
    decay_mult: 0
  }
  param {
    lr_mult: 0
    decay_mult: 0
  }
  scale_param {
    bias_term: true
  }
}
layer {
  name: "res2c_branch2b_relu"
  type: "ReLU"
  bottom: "res2c_branch2b"
  top: "res2c_branch2b"
}
layer {
  name: "res2c_branch2c"
  type: "Convolution"
  bottom: "res2c_branch2b"
  top: "res2c_branch2c"
  param {
    lr_mult: 0
  }
  convolution_param {
    num_output: 256
    bias_term: false
    pad: 0
    kernel_size: 1
    stride: 1
  }
}
layer {
  name: "bn2c_branch2c"
  type: "BatchNorm"
  bottom: "res2c_branch2c"
  top: "res2c_branch2c"
  param {
    lr_mult: 0
    decay_mult: 0
  }
  param {
    lr_mult: 0
    decay_mult: 0
  }
  param {
    lr_mult: 0
    decay_mult: 0
  }
  batch_norm_param {
    use_global_stats: true
  }
}
layer {
  name: "scale2c_branch2c"
  type: "Scale"
  bottom: "res2c_branch2c"
  top: "res2c_branch2c"
  param {
    lr_mult: 0
    decay_mult: 0
  }
  param {
    lr_mult: 0
    decay_mult: 0
  }
  scale_param {
    bias_term: true
  }
}
layer {
  name: "res2c"
  type: "Eltwise"
  bottom: "res2b"
  bottom: "res2c_branch2c"
  top: "res2c"
}
layer {
  name: "res2c_relu"
  type: "ReLU"
  bottom: "res2c"
  top: "res2c"
}
layer {
  name: "res3a_branch1"
  type: "Convolution"
  bottom: "res2c"
  top: "res3a_branch1"
  param {
    lr_mult: 1
  }
  convolution_param {
    num_output: 512
    bias_term: false
    pad: 0
    kernel_size: 1
    stride: 2
  }
}
layer {
  name: "bn3a_branch1"
  type: "BatchNorm"
  bottom: "res3a_branch1"
  top: "res3a_branch1"
  param {
    lr_mult: 0
    decay_mult: 0
  }
  param {
    lr_mult: 0
    decay_mult: 0
  }
  param {
    lr_mult: 0
    decay_mult: 0
  }
  batch_norm_param {
    use_global_stats: true
  }
}
layer {
  name: "scale3a_branch1"
  type: "Scale"
  bottom: "res3a_branch1"
  top: "res3a_branch1"
  param {
    lr_mult: 0
    decay_mult: 0
  }
  param {
    lr_mult: 0
    decay_mult: 0
  }
  scale_param {
    bias_term: true
  }
}
layer {
  name: "res3a_branch2a"
  type: "Convolution"
  bottom: "res2c"
  top: "res3a_branch2a"
  param {
    lr_mult: 1
  }
  convolution_param {
    num_output: 128
    bias_term: false
    pad: 0
    kernel_size: 1
    stride: 2
  }
}
layer {
  name: "bn3a_branch2a"
  type: "BatchNorm"
  bottom: "res3a_branch2a"
  top: "res3a_branch2a"
  param {
    lr_mult: 0
    decay_mult: 0
  }
  param {
    lr_mult: 0
    decay_mult: 0
  }
  param {
    lr_mult: 0
    decay_mult: 0
  }
  batch_norm_param {
    use_global_stats: true
  }
}
layer {
  name: "scale3a_branch2a"
  type: "Scale"
  bottom: "res3a_branch2a"
  top: "res3a_branch2a"
  param {
    lr_mult: 0
    decay_mult: 0
  }
  param {
    lr_mult: 0
    decay_mult: 0
  }
  scale_param {
    bias_term: true
  }
}
layer {
  name: "res3a_branch2a_relu"
  type: "ReLU"
  bottom: "res3a_branch2a"
  top: "res3a_branch2a"
}
layer {
  name: "res3a_branch2b"
  type: "Convolution"
  bottom: "res3a_branch2a"
  top: "res3a_branch2b"
  param {
    lr_mult: 1
  }
  convolution_param {
    num_output: 128
    bias_term: false
    pad: 1
    kernel_size: 3
    stride: 1
  }
}
layer {
  name: "bn3a_branch2b"
  type: "BatchNorm"
  bottom: "res3a_branch2b"
  top: "res3a_branch2b"
  param {
    lr_mult: 0
    decay_mult: 0
  }
  param {
    lr_mult: 0
    decay_mult: 0
  }
  param {
    lr_mult: 0
    decay_mult: 0
  }
  batch_norm_param {
    use_global_stats: true
  }
}
layer {
  name: "scale3a_branch2b"
  type: "Scale"
  bottom: "res3a_branch2b"
  top: "res3a_branch2b"
  param {
    lr_mult: 0
    decay_mult: 0
  }
  param {
    lr_mult: 0
    decay_mult: 0
  }
  scale_param {
    bias_term: true
  }
}
layer {
  name: "res3a_branch2b_relu"
  type: "ReLU"
  bottom: "res3a_branch2b"
  top: "res3a_branch2b"
}
layer {
  name: "res3a_branch2c"
  type: "Convolution"
  bottom: "res3a_branch2b"
  top: "res3a_branch2c"
  param {
    lr_mult: 1
  }
  convolution_param {
    num_output: 512
    bias_term: false
    pad: 0
    kernel_size: 1
    stride: 1
  }
}
layer {
  name: "bn3a_branch2c"
  type: "BatchNorm"
  bottom: "res3a_branch2c"
  top: "res3a_branch2c"
  param {
    lr_mult: 0
    decay_mult: 0
  }
  param {
    lr_mult: 0
    decay_mult: 0
  }
  param {
    lr_mult: 0
    decay_mult: 0
  }
  batch_norm_param {
    use_global_stats: true
  }
}
layer {
  name: "scale3a_branch2c"
  type: "Scale"
  bottom: "res3a_branch2c"
  top: "res3a_branch2c"
  param {
    lr_mult: 0
    decay_mult: 0
  }
  param {
    lr_mult: 0
    decay_mult: 0
  }
  scale_param {
    bias_term: true
  }
}
layer {
  name: "res3a"
  type: "Eltwise"
  bottom: "res3a_branch1"
  bottom: "res3a_branch2c"
  top: "res3a"
}
layer {
  name: "res3a_relu"
  type: "ReLU"
  bottom: "res3a"
  top: "res3a"
}
layer {
  name: "res3b_branch2a"
  type: "Convolution"
  bottom: "res3a"
  top: "res3b_branch2a"
  param {
    lr_mult: 1
  }
  convolution_param {
    num_output: 128
    bias_term: false
    pad: 0
    kernel_size: 1
    stride: 1
  }
}
layer {
  name: "bn3b_branch2a"
  type: "BatchNorm"
  bottom: "res3b_branch2a"
  top: "res3b_branch2a"
  param {
    lr_mult: 0
    decay_mult: 0
  }
  param {
    lr_mult: 0
    decay_mult: 0
  }
  param {
    lr_mult: 0
    decay_mult: 0
  }
  batch_norm_param {
    use_global_stats: true
  }
}
layer {
  name: "scale3b_branch2a"
  type: "Scale"
  bottom: "res3b_branch2a"
  top: "res3b_branch2a"
  param {
    lr_mult: 0
    decay_mult: 0
  }
  param {
    lr_mult: 0
    decay_mult: 0
  }
  scale_param {
    bias_term: true
  }
}
layer {
  name: "res3b_branch2a_relu"
  type: "ReLU"
  bottom: "res3b_branch2a"
  top: "res3b_branch2a"
}
layer {
  name: "res3b_branch2b"
  type: "Convolution"
  bottom: "res3b_branch2a"
  top: "res3b_branch2b"
  param {
    lr_mult: 1
  }
  convolution_param {
    num_output: 128
    bias_term: false
    pad: 1
    kernel_size: 3
    stride: 1
  }
}
layer {
  name: "bn3b_branch2b"
  type: "BatchNorm"
  bottom: "res3b_branch2b"
  top: "res3b_branch2b"
  param {
    lr_mult: 0
    decay_mult: 0
  }
  param {
    lr_mult: 0
    decay_mult: 0
  }
  param {
    lr_mult: 0
    decay_mult: 0
  }
  batch_norm_param {
    use_global_stats: true
  }
}
layer {
  name: "scale3b_branch2b"
  type: "Scale"
  bottom: "res3b_branch2b"
  top: "res3b_branch2b"
  param {
    lr_mult: 0
    decay_mult: 0
  }
  param {
    lr_mult: 0
    decay_mult: 0
  }
  scale_param {
    bias_term: true
  }
}
layer {
  name: "res3b_branch2b_relu"
  type: "ReLU"
  bottom: "res3b_branch2b"
  top: "res3b_branch2b"
}
layer {
  name: "res3b_branch2c"
  type: "Convolution"
  bottom: "res3b_branch2b"
  top: "res3b_branch2c"
  param {
    lr_mult: 1
  }
  convolution_param {
    num_output: 512
    bias_term: false
    pad: 0
    kernel_size: 1
    stride: 1
  }
}
layer {
  name: "bn3b_branch2c"
  type: "BatchNorm"
  bottom: "res3b_branch2c"
  top: "res3b_branch2c"
  param {
    lr_mult: 0
    decay_mult: 0
  }
  param {
    lr_mult: 0
    decay_mult: 0
  }
  param {
    lr_mult: 0
    decay_mult: 0
  }
  batch_norm_param {
    use_global_stats: true
  }
}
layer {
  name: "scale3b_branch2c"
  type: "Scale"
  bottom: "res3b_branch2c"
  top: "res3b_branch2c"
  param {
    lr_mult: 0
    decay_mult: 0
  }
  param {
    lr_mult: 0
    decay_mult: 0
  }
  scale_param {
    bias_term: true
  }
}
layer {
  name: "res3b"
  type: "Eltwise"
  bottom: "res3a"
  bottom: "res3b_branch2c"
  top: "res3b"
}
layer {
  name: "res3b_relu"
  type: "ReLU"
  bottom: "res3b"
  top: "res3b"
}
layer {
  name: "res3c_branch2a"
  type: "Convolution"
  bottom: "res3b"
  top: "res3c_branch2a"
  param {
    lr_mult: 1
  }
  convolution_param {
    num_output: 128
    bias_term: false
    pad: 0
    kernel_size: 1
    stride: 1
  }
}
layer {
  name: "bn3c_branch2a"
  type: "BatchNorm"
  bottom: "res3c_branch2a"
  top: "res3c_branch2a"
  param {
    lr_mult: 0
    decay_mult: 0
  }
  param {
    lr_mult: 0
    decay_mult: 0
  }
  param {
    lr_mult: 0
    decay_mult: 0
  }
  batch_norm_param {
    use_global_stats: true
  }
}
layer {
  name: "scale3c_branch2a"
  type: "Scale"
  bottom: "res3c_branch2a"
  top: "res3c_branch2a"
  param {
    lr_mult: 0
    decay_mult: 0
  }
  param {
    lr_mult: 0
    decay_mult: 0
  }
  scale_param {
    bias_term: true
  }
}
layer {
  name: "res3c_branch2a_relu"
  type: "ReLU"
  bottom: "res3c_branch2a"
  top: "res3c_branch2a"
}
layer {
  name: "res3c_branch2b"
  type: "Convolution"
  bottom: "res3c_branch2a"
  top: "res3c_branch2b"
  param {
    lr_mult: 1
  }
  convolution_param {
    num_output: 128
    bias_term: false
    pad: 1
    kernel_size: 3
    stride: 1
  }
}
layer {
  name: "bn3c_branch2b"
  type: "BatchNorm"
  bottom: "res3c_branch2b"
  top: "res3c_branch2b"
  param {
    lr_mult: 0
    decay_mult: 0
  }
  param {
    lr_mult: 0
    decay_mult: 0
  }
  param {
    lr_mult: 0
    decay_mult: 0
  }
  batch_norm_param {
    use_global_stats: true
  }
}
layer {
  name: "scale3c_branch2b"
  type: "Scale"
  bottom: "res3c_branch2b"
  top: "res3c_branch2b"
  param {
    lr_mult: 0
    decay_mult: 0
  }
  param {
    lr_mult: 0
    decay_mult: 0
  }
  scale_param {
    bias_term: true
  }
}
layer {
  name: "res3c_branch2b_relu"
  type: "ReLU"
  bottom: "res3c_branch2b"
  top: "res3c_branch2b"
}
layer {
  name: "res3c_branch2c"
  type: "Convolution"
  bottom: "res3c_branch2b"
  top: "res3c_branch2c"
  param {
    lr_mult: 1
  }
  convolution_param {
    num_output: 512
    bias_term: false
    pad: 0
    kernel_size: 1
    stride: 1
  }
}
layer {
  name: "bn3c_branch2c"
  type: "BatchNorm"
  bottom: "res3c_branch2c"
  top: "res3c_branch2c"
  param {
    lr_mult: 0
    decay_mult: 0
  }
  param {
    lr_mult: 0
    decay_mult: 0
  }
  param {
    lr_mult: 0
    decay_mult: 0
  }
  batch_norm_param {
    use_global_stats: true
  }
}
layer {
  name: "scale3c_branch2c"
  type: "Scale"
  bottom: "res3c_branch2c"
  top: "res3c_branch2c"
  param {
    lr_mult: 0
    decay_mult: 0
  }
  param {
    lr_mult: 0
    decay_mult: 0
  }
  scale_param {
    bias_term: true
  }
}
layer {
  name: "res3c"
  type: "Eltwise"
  bottom: "res3b"
  bottom: "res3c_branch2c"
  top: "res3c"
}
layer {
  name: "res3c_relu"
  type: "ReLU"
  bottom: "res3c"
  top: "res3c"
}
layer {
  name: "res3d_branch2a"
  type: "Convolution"
  bottom: "res3c"
  top: "res3d_branch2a"
  param {
    lr_mult: 1
  }
  convolution_param {
    num_output: 128
    bias_term: false
    pad: 0
    kernel_size: 1
    stride: 1
  }
}
layer {
  name: "bn3d_branch2a"
  type: "BatchNorm"
  bottom: "res3d_branch2a"
  top: "res3d_branch2a"
  param {
    lr_mult: 0
    decay_mult: 0
  }
  param {
    lr_mult: 0
    decay_mult: 0
  }
  param {
    lr_mult: 0
    decay_mult: 0
  }
  batch_norm_param {
    use_global_stats: true
  }
}
layer {
  name: "scale3d_branch2a"
  type: "Scale"
  bottom: "res3d_branch2a"
  top: "res3d_branch2a"
  param {
    lr_mult: 0
    decay_mult: 0
  }
  param {
    lr_mult: 0
    decay_mult: 0
  }
  scale_param {
    bias_term: true
  }
}
layer {
  name: "res3d_branch2a_relu"
  type: "ReLU"
  bottom: "res3d_branch2a"
  top: "res3d_branch2a"
}
layer {
  name: "res3d_branch2b"
  type: "Convolution"
  bottom: "res3d_branch2a"
  top: "res3d_branch2b"
  param {
    lr_mult: 1
  }
  convolution_param {
    num_output: 128
    bias_term: false
    pad: 1
    kernel_size: 3
    stride: 1
  }
}
layer {
  name: "bn3d_branch2b"
  type: "BatchNorm"
  bottom: "res3d_branch2b"
  top: "res3d_branch2b"
  param {
    lr_mult: 0
    decay_mult: 0
  }
  param {
    lr_mult: 0
    decay_mult: 0
  }
  param {
    lr_mult: 0
    decay_mult: 0
  }
  batch_norm_param {
    use_global_stats: true
  }
}
layer {
  name: "scale3d_branch2b"
  type: "Scale"
  bottom: "res3d_branch2b"
  top: "res3d_branch2b"
  param {
    lr_mult: 0
    decay_mult: 0
  }
  param {
    lr_mult: 0
    decay_mult: 0
  }
  scale_param {
    bias_term: true
  }
}
layer {
  name: "res3d_branch2b_relu"
  type: "ReLU"
  bottom: "res3d_branch2b"
  top: "res3d_branch2b"
}
layer {
  name: "res3d_branch2c"
  type: "Convolution"
  bottom: "res3d_branch2b"
  top: "res3d_branch2c"
  param {
    lr_mult: 1
  }
  convolution_param {
    num_output: 512
    bias_term: false
    pad: 0
    kernel_size: 1
    stride: 1
  }
}
layer {
  name: "bn3d_branch2c"
  type: "BatchNorm"
  bottom: "res3d_branch2c"
  top: "res3d_branch2c"
  param {
    lr_mult: 0
    decay_mult: 0
  }
  param {
    lr_mult: 0
    decay_mult: 0
  }
  param {
    lr_mult: 0
    decay_mult: 0
  }
  batch_norm_param {
    use_global_stats: true
  }
}
layer {
  name: "scale3d_branch2c"
  type: "Scale"
  bottom: "res3d_branch2c"
  top: "res3d_branch2c"
  param {
    lr_mult: 0
    decay_mult: 0
  }
  param {
    lr_mult: 0
    decay_mult: 0
  }
  scale_param {
    bias_term: true
  }
}
layer {
  name: "res3d"
  type: "Eltwise"
  bottom: "res3c"
  bottom: "res3d_branch2c"
  top: "res3d"
}
layer {
  name: "res3d_relu"
  type: "ReLU"
  bottom: "res3d"
  top: "res3d"
}
layer {
  name: "res4a_branch1"
  type: "Convolution"
  bottom: "res3d"
  top: "res4a_branch1"
  param {
    lr_mult: 1
  }
  convolution_param {
    num_output: 1024
    bias_term: false
    pad: 0
    kernel_size: 1
    stride: 2
  }
}
layer {
  name: "bn4a_branch1"
  type: "BatchNorm"
  bottom: "res4a_branch1"
  top: "res4a_branch1"
  param {
    lr_mult: 0
    decay_mult: 0
  }
  param {
    lr_mult: 0
    decay_mult: 0
  }
  param {
    lr_mult: 0
    decay_mult: 0
  }
  batch_norm_param {
    use_global_stats: true
  }
}
layer {
  name: "scale4a_branch1"
  type: "Scale"
  bottom: "res4a_branch1"
  top: "res4a_branch1"
  param {
    lr_mult: 0
    decay_mult: 0
  }
  param {
    lr_mult: 0
    decay_mult: 0
  }
  scale_param {
    bias_term: true
  }
}
layer {
  name: "res4a_branch2a"
  type: "Convolution"
  bottom: "res3d"
  top: "res4a_branch2a"
  param {
    lr_mult: 1
  }
  convolution_param {
    num_output: 256
    bias_term: false
    pad: 0
    kernel_size: 1
    stride: 2
  }
}
layer {
  name: "bn4a_branch2a"
  type: "BatchNorm"
  bottom: "res4a_branch2a"
  top: "res4a_branch2a"
  param {
    lr_mult: 0
    decay_mult: 0
  }
  param {
    lr_mult: 0
    decay_mult: 0
  }
  param {
    lr_mult: 0
    decay_mult: 0
  }
  batch_norm_param {
    use_global_stats: true
  }
}
layer {
  name: "scale4a_branch2a"
  type: "Scale"
  bottom: "res4a_branch2a"
  top: "res4a_branch2a"
  param {
    lr_mult: 0
    decay_mult: 0
  }
  param {
    lr_mult: 0
    decay_mult: 0
  }
  scale_param {
    bias_term: true
  }
}
layer {
  name: "res4a_branch2a_relu"
  type: "ReLU"
  bottom: "res4a_branch2a"
  top: "res4a_branch2a"
}
layer {
  name: "res4a_branch2b"
  type: "Convolution"
  bottom: "res4a_branch2a"
  top: "res4a_branch2b"
  param {
    lr_mult: 1
  }
  convolution_param {
    num_output: 256
    bias_term: false
    pad: 1
    kernel_size: 3
    stride: 1
  }
}
layer {
  name: "bn4a_branch2b"
  type: "BatchNorm"
  bottom: "res4a_branch2b"
  top: "res4a_branch2b"
  param {
    lr_mult: 0
    decay_mult: 0
  }
  param {
    lr_mult: 0
    decay_mult: 0
  }
  param {
    lr_mult: 0
    decay_mult: 0
  }
  batch_norm_param {
    use_global_stats: true
  }
}
layer {
  name: "scale4a_branch2b"
  type: "Scale"
  bottom: "res4a_branch2b"
  top: "res4a_branch2b"
  param {
    lr_mult: 0
    decay_mult: 0
  }
  param {
    lr_mult: 0
    decay_mult: 0
  }
  scale_param {
    bias_term: true
  }
}
layer {
  name: "res4a_branch2b_relu"
  type: "ReLU"
  bottom: "res4a_branch2b"
  top: "res4a_branch2b"
}
layer {
  name: "res4a_branch2c"
  type: "Convolution"
  bottom: "res4a_branch2b"
  top: "res4a_branch2c"
  param {
    lr_mult: 1
  }
  convolution_param {
    num_output: 1024
    bias_term: false
    pad: 0
    kernel_size: 1
    stride: 1
  }
}
layer {
  name: "bn4a_branch2c"
  type: "BatchNorm"
  bottom: "res4a_branch2c"
  top: "res4a_branch2c"
  param {
    lr_mult: 0
    decay_mult: 0
  }
  param {
    lr_mult: 0
    decay_mult: 0
  }
  param {
    lr_mult: 0
    decay_mult: 0
  }
  batch_norm_param {
    use_global_stats: true
  }
}
layer {
  name: "scale4a_branch2c"
  type: "Scale"
  bottom: "res4a_branch2c"
  top: "res4a_branch2c"
  param {
    lr_mult: 0
    decay_mult: 0
  }
  param {
    lr_mult: 0
    decay_mult: 0
  }
  scale_param {
    bias_term: true
  }
}
layer {
  name: "res4a"
  type: "Eltwise"
  bottom: "res4a_branch1"
  bottom: "res4a_branch2c"
  top: "res4a"
}
layer {
  name: "res4a_relu"
  type: "ReLU"
  bottom: "res4a"
  top: "res4a"
}
layer {
  name: "res4b_branch2a"
  type: "Convolution"
  bottom: "res4a"
  top: "res4b_branch2a"
  param {
    lr_mult: 1
  }
  convolution_param {
    num_output: 256
    bias_term: false
    pad: 0
    kernel_size: 1
    stride: 1
  }
}
layer {
  name: "bn4b_branch2a"
  type: "BatchNorm"
  bottom: "res4b_branch2a"
  top: "res4b_branch2a"
  param {
    lr_mult: 0
    decay_mult: 0
  }
  param {
    lr_mult: 0
    decay_mult: 0
  }
  param {
    lr_mult: 0
    decay_mult: 0
  }
  batch_norm_param {
    use_global_stats: true
  }
}
layer {
  name: "scale4b_branch2a"
  type: "Scale"
  bottom: "res4b_branch2a"
  top: "res4b_branch2a"
  param {
    lr_mult: 0
    decay_mult: 0
  }
  param {
    lr_mult: 0
    decay_mult: 0
  }
  scale_param {
    bias_term: true
  }
}
layer {
  name: "res4b_branch2a_relu"
  type: "ReLU"
  bottom: "res4b_branch2a"
  top: "res4b_branch2a"
}
layer {
  name: "res4b_branch2b"
  type: "Convolution"
  bottom: "res4b_branch2a"
  top: "res4b_branch2b"
  param {
    lr_mult: 1
  }
  convolution_param {
    num_output: 256
    bias_term: false
    pad: 1
    kernel_size: 3
    stride: 1
  }
}
layer {
  name: "bn4b_branch2b"
  type: "BatchNorm"
  bottom: "res4b_branch2b"
  top: "res4b_branch2b"
  param {
    lr_mult: 0
    decay_mult: 0
  }
  param {
    lr_mult: 0
    decay_mult: 0
  }
  param {
    lr_mult: 0
    decay_mult: 0
  }
  batch_norm_param {
    use_global_stats: true
  }
}
layer {
  name: "scale4b_branch2b"
  type: "Scale"
  bottom: "res4b_branch2b"
  top: "res4b_branch2b"
  param {
    lr_mult: 0
    decay_mult: 0
  }
  param {
    lr_mult: 0
    decay_mult: 0
  }
  scale_param {
    bias_term: true
  }
}
layer {
  name: "res4b_branch2b_relu"
  type: "ReLU"
  bottom: "res4b_branch2b"
  top: "res4b_branch2b"
}
layer {
  name: "res4b_branch2c"
  type: "Convolution"
  bottom: "res4b_branch2b"
  top: "res4b_branch2c"
  param {
    lr_mult: 1
  }
  convolution_param {
    num_output: 1024
    bias_term: false
    pad: 0
    kernel_size: 1
    stride: 1
  }
}
layer {
  name: "bn4b_branch2c"
  type: "BatchNorm"
  bottom: "res4b_branch2c"
  top: "res4b_branch2c"
  param {
    lr_mult: 0
    decay_mult: 0
  }
  param {
    lr_mult: 0
    decay_mult: 0
  }
  param {
    lr_mult: 0
    decay_mult: 0
  }
  batch_norm_param {
    use_global_stats: true
  }
}
layer {
  name: "scale4b_branch2c"
  type: "Scale"
  bottom: "res4b_branch2c"
  top: "res4b_branch2c"
  param {
    lr_mult: 0
    decay_mult: 0
  }
  param {
    lr_mult: 0
    decay_mult: 0
  }
  scale_param {
    bias_term: true
  }
}
layer {
  name: "res4b"
  type: "Eltwise"
  bottom: "res4a"
  bottom: "res4b_branch2c"
  top: "res4b"
}
layer {
  name: "res4b_relu"
  type: "ReLU"
  bottom: "res4b"
  top: "res4b"
}
layer {
  name: "res4c_branch2a"
  type: "Convolution"
  bottom: "res4b"
  top: "res4c_branch2a"
  param {
    lr_mult: 1
  }
  convolution_param {
    num_output: 256
    bias_term: false
    pad: 0
    kernel_size: 1
    stride: 1
  }
}
layer {
  name: "bn4c_branch2a"
  type: "BatchNorm"
  bottom: "res4c_branch2a"
  top: "res4c_branch2a"
  param {
    lr_mult: 0
    decay_mult: 0
  }
  param {
    lr_mult: 0
    decay_mult: 0
  }
  param {
    lr_mult: 0
    decay_mult: 0
  }
  batch_norm_param {
    use_global_stats: true
  }
}
layer {
  name: "scale4c_branch2a"
  type: "Scale"
  bottom: "res4c_branch2a"
  top: "res4c_branch2a"
  param {
    lr_mult: 0
    decay_mult: 0
  }
  param {
    lr_mult: 0
    decay_mult: 0
  }
  scale_param {
    bias_term: true
  }
}
layer {
  name: "res4c_branch2a_relu"
  type: "ReLU"
  bottom: "res4c_branch2a"
  top: "res4c_branch2a"
}
layer {
  name: "res4c_branch2b"
  type: "Convolution"
  bottom: "res4c_branch2a"
  top: "res4c_branch2b"
  param {
    lr_mult: 1
  }
  convolution_param {
    num_output: 256
    bias_term: false
    pad: 1
    kernel_size: 3
    stride: 1
  }
}
layer {
  name: "bn4c_branch2b"
  type: "BatchNorm"
  bottom: "res4c_branch2b"
  top: "res4c_branch2b"
  param {
    lr_mult: 0
    decay_mult: 0
  }
  param {
    lr_mult: 0
    decay_mult: 0
  }
  param {
    lr_mult: 0
    decay_mult: 0
  }
  batch_norm_param {
    use_global_stats: true
  }
}
layer {
  name: "scale4c_branch2b"
  type: "Scale"
  bottom: "res4c_branch2b"
  top: "res4c_branch2b"
  param {
    lr_mult: 0
    decay_mult: 0
  }
  param {
    lr_mult: 0
    decay_mult: 0
  }
  scale_param {
    bias_term: true
  }
}
layer {
  name: "res4c_branch2b_relu"
  type: "ReLU"
  bottom: "res4c_branch2b"
  t
I1021 23:15:38.038772 25759 layer_factory.hpp:77] Creating layer input-data
I1021 23:15:38.081650 25759 net.cpp:100] Creating Layer input-data
I1021 23:15:38.081687 25759 net.cpp:418] input-data -> data
I1021 23:15:38.081699 25759 net.cpp:418] input-data -> im_info
I1021 23:15:38.081704 25759 net.cpp:418] input-data -> gt_boxes
RoiDataLayer: name_to_top: {'gt_boxes': 2, 'data': 0, 'im_info': 1}
I1021 23:15:38.482383 25759 net.cpp:150] Setting up input-data
I1021 23:15:38.482424 25759 net.cpp:157] Top shape: 1 3 960 1280 (3686400)
I1021 23:15:38.482429 25759 net.cpp:157] Top shape: 1 3 (3)
I1021 23:15:38.482432 25759 net.cpp:157] Top shape: 1 4 (4)
I1021 23:15:38.482434 25759 net.cpp:165] Memory required for data: 14745628
I1021 23:15:38.482441 25759 layer_factory.hpp:77] Creating layer data_input-data_0_split
I1021 23:15:38.482455 25759 net.cpp:100] Creating Layer data_input-data_0_split
I1021 23:15:38.482460 25759 net.cpp:444] data_input-data_0_split <- data
I1021 23:15:38.482468 25759 net.cpp:418] data_input-data_0_split -> data_input-data_0_split_0
I1021 23:15:38.482481 25759 net.cpp:418] data_input-data_0_split -> data_input-data_0_split_1
I1021 23:15:38.482535 25759 net.cpp:150] Setting up data_input-data_0_split
I1021 23:15:38.482542 25759 net.cpp:157] Top shape: 1 3 960 1280 (3686400)
I1021 23:15:38.482547 25759 net.cpp:157] Top shape: 1 3 960 1280 (3686400)
I1021 23:15:38.482549 25759 net.cpp:165] Memory required for data: 44236828
I1021 23:15:38.482551 25759 layer_factory.hpp:77] Creating layer im_info_input-data_1_split
I1021 23:15:38.482556 25759 net.cpp:100] Creating Layer im_info_input-data_1_split
I1021 23:15:38.482559 25759 net.cpp:444] im_info_input-data_1_split <- im_info
I1021 23:15:38.482565 25759 net.cpp:418] im_info_input-data_1_split -> im_info_input-data_1_split_0
I1021 23:15:38.482586 25759 net.cpp:418] im_info_input-data_1_split -> im_info_input-data_1_split_1
I1021 23:15:38.482632 25759 net.cpp:150] Setting up im_info_input-data_1_split
I1021 23:15:38.482637 25759 net.cpp:157] Top shape: 1 3 (3)
I1021 23:15:38.482642 25759 net.cpp:157] Top shape: 1 3 (3)
I1021 23:15:38.482645 25759 net.cpp:165] Memory required for data: 44236852
I1021 23:15:38.482647 25759 layer_factory.hpp:77] Creating layer gt_boxes_input-data_2_split
I1021 23:15:38.482653 25759 net.cpp:100] Creating Layer gt_boxes_input-data_2_split
I1021 23:15:38.482656 25759 net.cpp:444] gt_boxes_input-data_2_split <- gt_boxes
I1021 23:15:38.482661 25759 net.cpp:418] gt_boxes_input-data_2_split -> gt_boxes_input-data_2_split_0
I1021 23:15:38.482667 25759 net.cpp:418] gt_boxes_input-data_2_split -> gt_boxes_input-data_2_split_1
I1021 23:15:38.482709 25759 net.cpp:150] Setting up gt_boxes_input-data_2_split
I1021 23:15:38.482715 25759 net.cpp:157] Top shape: 1 4 (4)
I1021 23:15:38.482720 25759 net.cpp:157] Top shape: 1 4 (4)
I1021 23:15:38.482722 25759 net.cpp:165] Memory required for data: 44236884
I1021 23:15:38.482725 25759 layer_factory.hpp:77] Creating layer conv1
I1021 23:15:38.482739 25759 net.cpp:100] Creating Layer conv1
I1021 23:15:38.482743 25759 net.cpp:444] conv1 <- data_input-data_0_split_0
I1021 23:15:38.482748 25759 net.cpp:418] conv1 -> conv1
I1021 23:15:39.027148 25759 net.cpp:150] Setting up conv1
I1021 23:15:39.027191 25759 net.cpp:157] Top shape: 1 64 480 640 (19660800)
I1021 23:15:39.027194 25759 net.cpp:165] Memory required for data: 122880084
I1021 23:15:39.027209 25759 layer_factory.hpp:77] Creating layer bn_conv1
I1021 23:15:39.027223 25759 net.cpp:100] Creating Layer bn_conv1
I1021 23:15:39.027227 25759 net.cpp:444] bn_conv1 <- conv1
I1021 23:15:39.027233 25759 net.cpp:405] bn_conv1 -> conv1 (in-place)
I1021 23:15:39.029417 25759 net.cpp:150] Setting up bn_conv1
I1021 23:15:39.029428 25759 net.cpp:157] Top shape: 1 64 480 640 (19660800)
I1021 23:15:39.029448 25759 net.cpp:165] Memory required for data: 201523284
I1021 23:15:39.029458 25759 layer_factory.hpp:77] Creating layer scale_conv1
I1021 23:15:39.029465 25759 net.cpp:100] Creating Layer scale_conv1
I1021 23:15:39.029469 25759 net.cpp:444] scale_conv1 <- conv1
I1021 23:15:39.029474 25759 net.cpp:405] scale_conv1 -> conv1 (in-place)
I1021 23:15:39.029561 25759 layer_factory.hpp:77] Creating layer scale_conv1
I1021 23:15:39.033252 25759 net.cpp:150] Setting up scale_conv1
I1021 23:15:39.033264 25759 net.cpp:157] Top shape: 1 64 480 640 (19660800)
I1021 23:15:39.033282 25759 net.cpp:165] Memory required for data: 280166484
I1021 23:15:39.033288 25759 layer_factory.hpp:77] Creating layer conv1_relu
I1021 23:15:39.033294 25759 net.cpp:100] Creating Layer conv1_relu
I1021 23:15:39.033298 25759 net.cpp:444] conv1_relu <- conv1
I1021 23:15:39.033301 25759 net.cpp:405] conv1_relu -> conv1 (in-place)
I1021 23:15:39.033531 25759 net.cpp:150] Setting up conv1_relu
I1021 23:15:39.033540 25759 net.cpp:157] Top shape: 1 64 480 640 (19660800)
I1021 23:15:39.033543 25759 net.cpp:165] Memory required for data: 358809684
I1021 23:15:39.033546 25759 layer_factory.hpp:77] Creating layer pool1
I1021 23:15:39.033555 25759 net.cpp:100] Creating Layer pool1
I1021 23:15:39.033558 25759 net.cpp:444] pool1 <- conv1
I1021 23:15:39.033562 25759 net.cpp:418] pool1 -> pool1
I1021 23:15:39.033622 25759 net.cpp:150] Setting up pool1
I1021 23:15:39.033628 25759 net.cpp:157] Top shape: 1 64 240 320 (4915200)
I1021 23:15:39.033632 25759 net.cpp:165] Memory required for data: 378470484
I1021 23:15:39.033634 25759 layer_factory.hpp:77] Creating layer pool1_pool1_0_split
I1021 23:15:39.033640 25759 net.cpp:100] Creating Layer pool1_pool1_0_split
I1021 23:15:39.033643 25759 net.cpp:444] pool1_pool1_0_split <- pool1
I1021 23:15:39.033648 25759 net.cpp:418] pool1_pool1_0_split -> pool1_pool1_0_split_0
I1021 23:15:39.033653 25759 net.cpp:418] pool1_pool1_0_split -> pool1_pool1_0_split_1
I1021 23:15:39.033715 25759 net.cpp:150] Setting up pool1_pool1_0_split
I1021 23:15:39.033720 25759 net.cpp:157] Top shape: 1 64 240 320 (4915200)
I1021 23:15:39.033725 25759 net.cpp:157] Top shape: 1 64 240 320 (4915200)
I1021 23:15:39.033727 25759 net.cpp:165] Memory required for data: 417792084
I1021 23:15:39.033730 25759 layer_factory.hpp:77] Creating layer res2a_branch1
I1021 23:15:39.033740 25759 net.cpp:100] Creating Layer res2a_branch1
I1021 23:15:39.033742 25759 net.cpp:444] res2a_branch1 <- pool1_pool1_0_split_0
I1021 23:15:39.033747 25759 net.cpp:418] res2a_branch1 -> res2a_branch1
I1021 23:15:39.043284 25759 net.cpp:150] Setting up res2a_branch1
I1021 23:15:39.043298 25759 net.cpp:157] Top shape: 1 256 240 320 (19660800)
I1021 23:15:39.043318 25759 net.cpp:165] Memory required for data: 496435284
I1021 23:15:39.043323 25759 layer_factory.hpp:77] Creating layer bn2a_branch1
I1021 23:15:39.043330 25759 net.cpp:100] Creating Layer bn2a_branch1
I1021 23:15:39.043334 25759 net.cpp:444] bn2a_branch1 <- res2a_branch1
I1021 23:15:39.043339 25759 net.cpp:405] bn2a_branch1 -> res2a_branch1 (in-place)
I1021 23:15:39.043756 25759 net.cpp:150] Setting up bn2a_branch1
I1021 23:15:39.043762 25759 net.cpp:157] Top shape: 1 256 240 320 (19660800)
I1021 23:15:39.043766 25759 net.cpp:165] Memory required for data: 575078484
I1021 23:15:39.043789 25759 layer_factory.hpp:77] Creating layer scale2a_branch1
I1021 23:15:39.043797 25759 net.cpp:100] Creating Layer scale2a_branch1
I1021 23:15:39.043800 25759 net.cpp:444] scale2a_branch1 <- res2a_branch1
I1021 23:15:39.043805 25759 net.cpp:405] scale2a_branch1 -> res2a_branch1 (in-place)
I1021 23:15:39.043889 25759 layer_factory.hpp:77] Creating layer scale2a_branch1
I1021 23:15:39.044124 25759 net.cpp:150] Setting up scale2a_branch1
I1021 23:15:39.044132 25759 net.cpp:157] Top shape: 1 256 240 320 (19660800)
I1021 23:15:39.044136 25759 net.cpp:165] Memory required for data: 653721684
I1021 23:15:39.044140 25759 layer_factory.hpp:77] Creating layer res2a_branch2a
I1021 23:15:39.044148 25759 net.cpp:100] Creating Layer res2a_branch2a
I1021 23:15:39.044152 25759 net.cpp:444] res2a_branch2a <- pool1_pool1_0_split_1
I1021 23:15:39.044157 25759 net.cpp:418] res2a_branch2a -> res2a_branch2a
I1021 23:15:39.047683 25759 net.cpp:150] Setting up res2a_branch2a
I1021 23:15:39.047695 25759 net.cpp:157] Top shape: 1 64 240 320 (4915200)
I1021 23:15:39.047714 25759 net.cpp:165] Memory required for data: 673382484
I1021 23:15:39.047719 25759 layer_factory.hpp:77] Creating layer bn2a_branch2a
I1021 23:15:39.047726 25759 net.cpp:100] Creating Layer bn2a_branch2a
I1021 23:15:39.047729 25759 net.cpp:444] bn2a_branch2a <- res2a_branch2a
I1021 23:15:39.047735 25759 net.cpp:405] bn2a_branch2a -> res2a_branch2a (in-place)
I1021 23:15:39.048130 25759 net.cpp:150] Setting up bn2a_branch2a
I1021 23:15:39.048152 25759 net.cpp:157] Top shape: 1 64 240 320 (4915200)
I1021 23:15:39.048154 25759 net.cpp:165] Memory required for data: 693043284
I1021 23:15:39.048179 25759 layer_factory.hpp:77] Creating layer scale2a_branch2a
I1021 23:15:39.048187 25759 net.cpp:100] Creating Layer scale2a_branch2a
I1021 23:15:39.048189 25759 net.cpp:444] scale2a_branch2a <- res2a_branch2a
I1021 23:15:39.048194 25759 net.cpp:405] scale2a_branch2a -> res2a_branch2a (in-place)
I1021 23:15:39.048279 25759 layer_factory.hpp:77] Creating layer scale2a_branch2a
I1021 23:15:39.048527 25759 net.cpp:150] Setting up scale2a_branch2a
I1021 23:15:39.048534 25759 net.cpp:157] Top shape: 1 64 240 320 (4915200)
I1021 23:15:39.048537 25759 net.cpp:165] Memory required for data: 712704084
I1021 23:15:39.048543 25759 layer_factory.hpp:77] Creating layer res2a_branch2a_relu
I1021 23:15:39.048550 25759 net.cpp:100] Creating Layer res2a_branch2a_relu
I1021 23:15:39.048553 25759 net.cpp:444] res2a_branch2a_relu <- res2a_branch2a
I1021 23:15:39.048558 25759 net.cpp:405] res2a_branch2a_relu -> res2a_branch2a (in-place)
I1021 23:15:39.048763 25759 net.cpp:150] Setting up res2a_branch2a_relu
I1021 23:15:39.048772 25759 net.cpp:157] Top shape: 1 64 240 320 (4915200)
I1021 23:15:39.048775 25759 net.cpp:165] Memory required for data: 732364884
I1021 23:15:39.048779 25759 layer_factory.hpp:77] Creating layer res2a_branch2b
I1021 23:15:39.048787 25759 net.cpp:100] Creating Layer res2a_branch2b
I1021 23:15:39.048790 25759 net.cpp:444] res2a_branch2b <- res2a_branch2a
I1021 23:15:39.048795 25759 net.cpp:418] res2a_branch2b -> res2a_branch2b
I1021 23:15:39.052294 25759 net.cpp:150] Setting up res2a_branch2b
I1021 23:15:39.052305 25759 net.cpp:157] Top shape: 1 64 240 320 (4915200)
I1021 23:15:39.052309 25759 net.cpp:165] Memory required for data: 752025684
I1021 23:15:39.052328 25759 layer_factory.hpp:77] Creating layer bn2a_branch2b
I1021 23:15:39.052336 25759 net.cpp:100] Creating Layer bn2a_branch2b
I1021 23:15:39.052340 25759 net.cpp:444] bn2a_branch2b <- res2a_branch2b
I1021 23:15:39.052345 25759 net.cpp:405] bn2a_branch2b -> res2a_branch2b (in-place)
I1021 23:15:39.052770 25759 net.cpp:150] Setting up bn2a_branch2b
I1021 23:15:39.052778 25759 net.cpp:157] Top shape: 1 64 240 320 (4915200)
I1021 23:15:39.052780 25759 net.cpp:165] Memory required for data: 771686484
I1021 23:15:39.052803 25759 layer_factory.hpp:77] Creating layer scale2a_branch2b
I1021 23:15:39.052809 25759 net.cpp:100] Creating Layer scale2a_branch2b
I1021 23:15:39.052812 25759 net.cpp:444] scale2a_branch2b <- res2a_branch2b
I1021 23:15:39.052819 25759 net.cpp:405] scale2a_branch2b -> res2a_branch2b (in-place)
I1021 23:15:39.052903 25759 layer_factory.hpp:77] Creating layer scale2a_branch2b
I1021 23:15:39.057842 25759 net.cpp:150] Setting up scale2a_branch2b
I1021 23:15:39.057854 25759 net.cpp:157] Top shape: 1 64 240 320 (4915200)
I1021 23:15:39.057874 25759 net.cpp:165] Memory required for data: 791347284
I1021 23:15:39.057880 25759 layer_factory.hpp:77] Creating layer res2a_branch2b_relu
I1021 23:15:39.057886 25759 net.cpp:100] Creating Layer res2a_branch2b_relu
I1021 23:15:39.057890 25759 net.cpp:444] res2a_branch2b_relu <- res2a_branch2b
I1021 23:15:39.057895 25759 net.cpp:405] res2a_branch2b_relu -> res2a_branch2b (in-place)
I1021 23:15:39.058708 25759 net.cpp:150] Setting up res2a_branch2b_relu
I1021 23:15:39.058719 25759 net.cpp:157] Top shape: 1 64 240 320 (4915200)
I1021 23:15:39.058722 25759 net.cpp:165] Memory required for data: 811008084
I1021 23:15:39.058740 25759 layer_factory.hpp:77] Creating layer res2a_branch2c
I1021 23:15:39.058748 25759 net.cpp:100] Creating Layer res2a_branch2c
I1021 23:15:39.058751 25759 net.cpp:444] res2a_branch2c <- res2a_branch2b
I1021 23:15:39.058759 25759 net.cpp:418] res2a_branch2c -> res2a_branch2c
I1021 23:15:39.060706 25759 net.cpp:150] Setting up res2a_branch2c
I1021 23:15:39.060719 25759 net.cpp:157] Top shape: 1 256 240 320 (19660800)
I1021 23:15:39.060737 25759 net.cpp:165] Memory required for data: 889651284
I1021 23:15:39.060742 25759 layer_factory.hpp:77] Creating layer bn2a_branch2c
I1021 23:15:39.060766 25759 net.cpp:100] Creating Layer bn2a_branch2c
I1021 23:15:39.060770 25759 net.cpp:444] bn2a_branch2c <- res2a_branch2c
I1021 23:15:39.060775 25759 net.cpp:405] bn2a_branch2c -> res2a_branch2c (in-place)
I1021 23:15:39.061177 25759 net.cpp:150] Setting up bn2a_branch2c
I1021 23:15:39.061185 25759 net.cpp:157] Top shape: 1 256 240 320 (19660800)
I1021 23:15:39.061187 25759 net.cpp:165] Memory required for data: 968294484
I1021 23:15:39.061209 25759 layer_factory.hpp:77] Creating layer scale2a_branch2c
I1021 23:15:39.061231 25759 net.cpp:100] Creating Layer scale2a_branch2c
I1021 23:15:39.061234 25759 net.cpp:444] scale2a_branch2c <- res2a_branch2c
I1021 23:15:39.061239 25759 net.cpp:405] scale2a_branch2c -> res2a_branch2c (in-place)
I1021 23:15:39.061321 25759 layer_factory.hpp:77] Creating layer scale2a_branch2c
I1021 23:15:39.061549 25759 net.cpp:150] Setting up scale2a_branch2c
I1021 23:15:39.061558 25759 net.cpp:157] Top shape: 1 256 240 320 (19660800)
I1021 23:15:39.061561 25759 net.cpp:165] Memory required for data: 1046937684
I1021 23:15:39.061565 25759 layer_factory.hpp:77] Creating layer res2a
I1021 23:15:39.061571 25759 net.cpp:100] Creating Layer res2a
I1021 23:15:39.061575 25759 net.cpp:444] res2a <- res2a_branch1
I1021 23:15:39.061578 25759 net.cpp:444] res2a <- res2a_branch2c
I1021 23:15:39.061583 25759 net.cpp:418] res2a -> res2a
I1021 23:15:39.061631 25759 net.cpp:150] Setting up res2a
I1021 23:15:39.061637 25759 net.cpp:157] Top shape: 1 256 240 320 (19660800)
I1021 23:15:39.061641 25759 net.cpp:165] Memory required for data: 1125580884
I1021 23:15:39.061643 25759 layer_factory.hpp:77] Creating layer res2a_relu
I1021 23:15:39.061650 25759 net.cpp:100] Creating Layer res2a_relu
I1021 23:15:39.061652 25759 net.cpp:444] res2a_relu <- res2a
I1021 23:15:39.061655 25759 net.cpp:405] res2a_relu -> res2a (in-place)
I1021 23:15:39.061836 25759 net.cpp:150] Setting up res2a_relu
I1021 23:15:39.061846 25759 net.cpp:157] Top shape: 1 256 240 320 (19660800)
I1021 23:15:39.061848 25759 net.cpp:165] Memory required for data: 1204224084
I1021 23:15:39.061851 25759 layer_factory.hpp:77] Creating layer res2a_res2a_relu_0_split
I1021 23:15:39.061857 25759 net.cpp:100] Creating Layer res2a_res2a_relu_0_split
I1021 23:15:39.061861 25759 net.cpp:444] res2a_res2a_relu_0_split <- res2a
I1021 23:15:39.061866 25759 net.cpp:418] res2a_res2a_relu_0_split -> res2a_res2a_relu_0_split_0
I1021 23:15:39.061872 25759 net.cpp:418] res2a_res2a_relu_0_split -> res2a_res2a_relu_0_split_1
I1021 23:15:39.061924 25759 net.cpp:150] Setting up res2a_res2a_relu_0_split
I1021 23:15:39.061930 25759 net.cpp:157] Top shape: 1 256 240 320 (19660800)
I1021 23:15:39.061935 25759 net.cpp:157] Top shape: 1 256 240 320 (19660800)
I1021 23:15:39.061938 25759 net.cpp:165] Memory required for data: 1361510484
I1021 23:15:39.061940 25759 layer_factory.hpp:77] Creating layer res2b_branch2a
I1021 23:15:39.061949 25759 net.cpp:100] Creating Layer res2b_branch2a
I1021 23:15:39.061951 25759 net.cpp:444] res2b_branch2a <- res2a_res2a_relu_0_split_0
I1021 23:15:39.061957 25759 net.cpp:418] res2b_branch2a -> res2b_branch2a
I1021 23:15:39.064302 25759 net.cpp:150] Setting up res2b_branch2a
I1021 23:15:39.064316 25759 net.cpp:157] Top shape: 1 64 240 320 (4915200)
I1021 23:15:39.064333 25759 net.cpp:165] Memory required for data: 1381171284
I1021 23:15:39.064338 25759 layer_factory.hpp:77] Creating layer bn2b_branch2a
I1021 23:15:39.064347 25759 net.cpp:100] Creating Layer bn2b_branch2a
I1021 23:15:39.064350 25759 net.cpp:444] bn2b_branch2a <- res2b_branch2a
I1021 23:15:39.064357 25759 net.cpp:405] bn2b_branch2a -> res2b_branch2a (in-place)
I1021 23:15:39.064790 25759 net.cpp:150] Setting up bn2b_branch2a
I1021 23:15:39.064797 25759 net.cpp:157] Top shape: 1 64 240 320 (4915200)
I1021 23:15:39.064800 25759 net.cpp:165] Memory required for data: 1400832084
I1021 23:15:39.064826 25759 layer_factory.hpp:77] Creating layer scale2b_branch2a
I1021 23:15:39.064833 25759 net.cpp:100] Creating Layer scale2b_branch2a
I1021 23:15:39.064836 25759 net.cpp:444] scale2b_branch2a <- res2b_branch2a
I1021 23:15:39.064841 25759 net.cpp:405] scale2b_branch2a -> res2b_branch2a (in-place)
I1021 23:15:39.064929 25759 layer_factory.hpp:77] Creating layer scale2b_branch2a
I1021 23:15:39.066818 25759 net.cpp:150] Setting up scale2b_branch2a
I1021 23:15:39.066830 25759 net.cpp:157] Top shape: 1 64 240 320 (4915200)
I1021 23:15:39.066833 25759 net.cpp:165] Memory required for data: 1420492884
I1021 23:15:39.066839 25759 layer_factory.hpp:77] Creating layer res2b_branch2a_relu
I1021 23:15:39.066862 25759 net.cpp:100] Creating Layer res2b_branch2a_relu
I1021 23:15:39.066865 25759 net.cpp:444] res2b_branch2a_relu <- res2b_branch2a
I1021 23:15:39.066870 25759 net.cpp:405] res2b_branch2a_relu -> res2b_branch2a (in-place)
I1021 23:15:39.067108 25759 net.cpp:150] Setting up res2b_branch2a_relu
I1021 23:15:39.067117 25759 net.cpp:157] Top shape: 1 64 240 320 (4915200)
I1021 23:15:39.067121 25759 net.cpp:165] Memory required for data: 1440153684
I1021 23:15:39.067123 25759 layer_factory.hpp:77] Creating layer res2b_branch2b
I1021 23:15:39.067131 25759 net.cpp:100] Creating Layer res2b_branch2b
I1021 23:15:39.067134 25759 net.cpp:444] res2b_branch2b <- res2b_branch2a
I1021 23:15:39.067140 25759 net.cpp:418] res2b_branch2b -> res2b_branch2b
I1021 23:15:39.068584 25759 net.cpp:150] Setting up res2b_branch2b
I1021 23:15:39.068595 25759 net.cpp:157] Top shape: 1 64 240 320 (4915200)
I1021 23:15:39.068598 25759 net.cpp:165] Memory required for data: 1459814484
I1021 23:15:39.068639 25759 layer_factory.hpp:77] Creating layer bn2b_branch2b
I1021 23:15:39.068648 25759 net.cpp:100] Creating Layer bn2b_branch2b
I1021 23:15:39.068651 25759 net.cpp:444] bn2b_branch2b <- res2b_branch2b
I1021 23:15:39.068656 25759 net.cpp:405] bn2b_branch2b -> res2b_branch2b (in-place)
I1021 23:15:39.069049 25759 net.cpp:150] Setting up bn2b_branch2b
I1021 23:15:39.069057 25759 net.cpp:157] Top shape: 1 64 240 320 (4915200)
I1021 23:15:39.069061 25759 net.cpp:165] Memory required for data: 1479475284
I1021 23:15:39.069082 25759 layer_factory.hpp:77] Creating layer scale2b_branch2b
I1021 23:15:39.069088 25759 net.cpp:100] Creating Layer scale2b_branch2b
I1021 23:15:39.069092 25759 net.cpp:444] scale2b_branch2b <- res2b_branch2b
I1021 23:15:39.069095 25759 net.cpp:405] scale2b_branch2b -> res2b_branch2b (in-place)
I1021 23:15:39.069180 25759 layer_factory.hpp:77] Creating layer scale2b_branch2b
I1021 23:15:39.069429 25759 net.cpp:150] Setting up scale2b_branch2b
I1021 23:15:39.069437 25759 net.cpp:157] Top shape: 1 64 240 320 (4915200)
I1021 23:15:39.069440 25759 net.cpp:165] Memory required for data: 1499136084
I1021 23:15:39.069445 25759 layer_factory.hpp:77] Creating layer res2b_branch2b_relu
I1021 23:15:39.069452 25759 net.cpp:100] Creating Layer res2b_branch2b_relu
I1021 23:15:39.069454 25759 net.cpp:444] res2b_branch2b_relu <- res2b_branch2b
I1021 23:15:39.069459 25759 net.cpp:405] res2b_branch2b_relu -> res2b_branch2b (in-place)
I1021 23:15:39.070284 25759 net.cpp:150] Setting up res2b_branch2b_relu
I1021 23:15:39.070294 25759 net.cpp:157] Top shape: 1 64 240 320 (4915200)
I1021 23:15:39.070297 25759 net.cpp:165] Memory required for data: 1518796884
I1021 23:15:39.070315 25759 layer_factory.hpp:77] Creating layer res2b_branch2c
I1021 23:15:39.070323 25759 net.cpp:100] Creating Layer res2b_branch2c
I1021 23:15:39.070327 25759 net.cpp:444] res2b_branch2c <- res2b_branch2b
I1021 23:15:39.070331 25759 net.cpp:418] res2b_branch2c -> res2b_branch2c
I1021 23:15:39.072310 25759 net.cpp:150] Setting up res2b_branch2c
I1021 23:15:39.072321 25759 net.cpp:157] Top shape: 1 256 240 320 (19660800)
I1021 23:15:39.072340 25759 net.cpp:165] Memory required for data: 1597440084
I1021 23:15:39.072345 25759 layer_factory.hpp:77] Creating layer bn2b_branch2c
I1021 23:15:39.072353 25759 net.cpp:100] Creating Layer bn2b_branch2c
I1021 23:15:39.072357 25759 net.cpp:444] bn2b_branch2c <- res2b_branch2c
I1021 23:15:39.072361 25759 net.cpp:405] bn2b_branch2c -> res2b_branch2c (in-place)
I1021 23:15:39.072808 25759 net.cpp:150] Setting up bn2b_branch2c
I1021 23:15:39.072818 25759 net.cpp:157] Top shape: 1 256 240 320 (19660800)
I1021 23:15:39.072819 25759 net.cpp:165] Memory required for data: 1676083284
I1021 23:15:39.072841 25759 layer_factory.hpp:77] Creating layer scale2b_branch2c
I1021 23:15:39.072849 25759 net.cpp:100] Creating Layer scale2b_branch2c
I1021 23:15:39.072851 25759 net.cpp:444] scale2b_branch2c <- res2b_branch2c
I1021 23:15:39.072857 25759 net.cpp:405] scale2b_branch2c -> res2b_branch2c (in-place)
I1021 23:15:39.072948 25759 layer_factory.hpp:77] Creating layer scale2b_branch2c
I1021 23:15:39.077949 25759 net.cpp:150] Setting up scale2b_branch2c
I1021 23:15:39.077960 25759 net.cpp:157] Top shape: 1 256 240 320 (19660800)
I1021 23:15:39.077977 25759 net.cpp:165] Memory required for data: 1754726484
I1021 23:15:39.077983 25759 layer_factory.hpp:77] Creating layer res2b
I1021 23:15:39.077989 25759 net.cpp:100] Creating Layer res2b
I1021 23:15:39.077992 25759 net.cpp:444] res2b <- res2a_res2a_relu_0_split_1
I1021 23:15:39.077996 25759 net.cpp:444] res2b <- res2b_branch2c
I1021 23:15:39.078002 25759 net.cpp:418] res2b -> res2b
I1021 23:15:39.078076 25759 net.cpp:150] Setting up res2b
I1021 23:15:39.078083 25759 net.cpp:157] Top shape: 1 256 240 320 (19660800)
I1021 23:15:39.078088 25759 net.cpp:165] Memory required for data: 1833369684
I1021 23:15:39.078089 25759 layer_factory.hpp:77] Creating layer res2b_relu
I1021 23:15:39.078096 25759 net.cpp:100] Creating Layer res2b_relu
I1021 23:15:39.078099 25759 net.cpp:444] res2b_relu <- res2b
I1021 23:15:39.078104 25759 net.cpp:405] res2b_relu -> res2b (in-place)
I1021 23:15:39.078308 25759 net.cpp:150] Setting up res2b_relu
I1021 23:15:39.078317 25759 net.cpp:157] Top shape: 1 256 240 320 (19660800)
I1021 23:15:39.078320 25759 net.cpp:165] Memory required for data: 1912012884
I1021 23:15:39.078323 25759 layer_factory.hpp:77] Creating layer res2b_res2b_relu_0_split
I1021 23:15:39.078330 25759 net.cpp:100] Creating Layer res2b_res2b_relu_0_split
I1021 23:15:39.078332 25759 net.cpp:444] res2b_res2b_relu_0_split <- res2b
I1021 23:15:39.078339 25759 net.cpp:418] res2b_res2b_relu_0_split -> res2b_res2b_relu_0_split_0
I1021 23:15:39.078346 25759 net.cpp:418] res2b_res2b_relu_0_split -> res2b_res2b_relu_0_split_1
I1021 23:15:39.078404 25759 net.cpp:150] Setting up res2b_res2b_relu_0_split
I1021 23:15:39.078411 25759 net.cpp:157] Top shape: 1 256 240 320 (19660800)
I1021 23:15:39.078415 25759 net.cpp:157] Top shape: 1 256 240 320 (19660800)
I1021 23:15:39.078418 25759 net.cpp:165] Memory required for data: 2069299284
I1021 23:15:39.078420 25759 layer_factory.hpp:77] Creating layer res2c_branch2a
I1021 23:15:39.078429 25759 net.cpp:100] Creating Layer res2c_branch2a
I1021 23:15:39.078433 25759 net.cpp:444] res2c_branch2a <- res2b_res2b_relu_0_split_0
I1021 23:15:39.078436 25759 net.cpp:418] res2c_branch2a -> res2c_branch2a
I1021 23:15:39.080499 25759 net.cpp:150] Setting up res2c_branch2a
I1021 23:15:39.080510 25759 net.cpp:157] Top shape: 1 64 240 320 (4915200)
I1021 23:15:39.080528 25759 net.cpp:165] Memory required for data: 2088960084
I1021 23:15:39.080533 25759 layer_factory.hpp:77] Creating layer bn2c_branch2a
I1021 23:15:39.080539 25759 net.cpp:100] Creating Layer bn2c_branch2a
I1021 23:15:39.080543 25759 net.cpp:444] bn2c_branch2a <- res2c_branch2a
I1021 23:15:39.080551 25759 net.cpp:405] bn2c_branch2a -> res2c_branch2a (in-place)
I1021 23:15:39.081028 25759 net.cpp:150] Setting up bn2c_branch2a
I1021 23:15:39.081037 25759 net.cpp:157] Top shape: 1 64 240 320 (4915200)
I1021 23:15:39.081039 25759 net.cpp:165] Memory required for data: 2108620884
I1021 23:15:39.081063 25759 layer_factory.hpp:77] Creating layer scale2c_branch2a
I1021 23:15:39.081069 25759 net.cpp:100] Creating Layer scale2c_branch2a
I1021 23:15:39.081073 25759 net.cpp:444] scale2c_branch2a <- res2c_branch2a
I1021 23:15:39.081076 25759 net.cpp:405] scale2c_branch2a -> res2c_branch2a (in-place)
I1021 23:15:39.081167 25759 layer_factory.hpp:77] Creating layer scale2c_branch2a
I1021 23:15:39.081446 25759 net.cpp:150] Setting up scale2c_branch2a
I1021 23:15:39.081455 25759 net.cpp:157] Top shape: 1 64 240 320 (4915200)
I1021 23:15:39.081472 25759 net.cpp:165] Memory required for data: 2128281684
I1021 23:15:39.081478 25759 layer_factory.hpp:77] Creating layer res2c_branch2a_relu
I1021 23:15:39.081497 25759 net.cpp:100] Creating Layer res2c_branch2a_relu
I1021 23:15:39.081501 25759 net.cpp:444] res2c_branch2a_relu <- res2c_branch2a
I1021 23:15:39.081503 25759 net.cpp:405] res2c_branch2a_relu -> res2c_branch2a (in-place)
I1021 23:15:39.081775 25759 net.cpp:150] Setting up res2c_branch2a_relu
I1021 23:15:39.081784 25759 net.cpp:157] Top shape: 1 64 240 320 (4915200)
I1021 23:15:39.081787 25759 net.cpp:165] Memory required for data: 2147942484
I1021 23:15:39.081790 25759 layer_factory.hpp:77] Creating layer res2c_branch2b
I1021 23:15:39.081799 25759 net.cpp:100] Creating Layer res2c_branch2b
I1021 23:15:39.081802 25759 net.cpp:444] res2c_branch2b <- res2c_branch2a
I1021 23:15:39.081807 25759 net.cpp:418] res2c_branch2b -> res2c_branch2b
I1021 23:15:39.084050 25759 net.cpp:150] Setting up res2c_branch2b
I1021 23:15:39.084061 25759 net.cpp:157] Top shape: 1 64 240 320 (4915200)
I1021 23:15:39.084079 25759 net.cpp:165] Memory required for data: 2167603284
I1021 23:15:39.084084 25759 layer_factory.hpp:77] Creating layer bn2c_branch2b
I1021 23:15:39.084094 25759 net.cpp:100] Creating Layer bn2c_branch2b
I1021 23:15:39.084097 25759 net.cpp:444] bn2c_branch2b <- res2c_branch2b
I1021 23:15:39.084103 25759 net.cpp:405] bn2c_branch2b -> res2c_branch2b (in-place)
I1021 23:15:39.084535 25759 net.cpp:150] Setting up bn2c_branch2b
I1021 23:15:39.084542 25759 net.cpp:157] Top shape: 1 64 240 320 (4915200)
I1021 23:15:39.084544 25759 net.cpp:165] Memory required for data: 2187264084
I1021 23:15:39.084566 25759 layer_factory.hpp:77] Creating layer scale2c_branch2b
I1021 23:15:39.084573 25759 net.cpp:100] Creating Layer scale2c_branch2b
I1021 23:15:39.084576 25759 net.cpp:444] scale2c_branch2b <- res2c_branch2b
I1021 23:15:39.084581 25759 net.cpp:405] scale2c_branch2b -> res2c_branch2b (in-place)
I1021 23:15:39.084683 25759 layer_factory.hpp:77] Creating layer scale2c_branch2b
I1021 23:15:39.086580 25759 net.cpp:150] Setting up scale2c_branch2b
I1021 23:15:39.086591 25759 net.cpp:157] Top shape: 1 64 240 320 (4915200)
I1021 23:15:39.086593 25759 net.cpp:165] Memory required for data: 2206924884
I1021 23:15:39.086616 25759 layer_factory.hpp:77] Creating layer res2c_branch2b_relu
I1021 23:15:39.086622 25759 net.cpp:100] Creating Layer res2c_branch2b_relu
I1021 23:15:39.086625 25759 net.cpp:444] res2c_branch2b_relu <- res2c_branch2b
I1021 23:15:39.086629 25759 net.cpp:405] res2c_branch2b_relu -> res2c_branch2b (in-place)
I1021 23:15:39.086879 25759 net.cpp:150] Setting up res2c_branch2b_relu
I1021 23:15:39.086887 25759 net.cpp:157] Top shape: 1 64 240 320 (4915200)
I1021 23:15:39.086890 25759 net.cpp:165] Memory required for data: 2226585684
I1021 23:15:39.086894 25759 layer_factory.hpp:77] Creating layer res2c_branch2c
I1021 23:15:39.086904 25759 net.cpp:100] Creating Layer res2c_branch2c
I1021 23:15:39.086906 25759 net.cpp:444] res2c_branch2c <- res2c_branch2b
I1021 23:15:39.086911 25759 net.cpp:418] res2c_branch2c -> res2c_branch2c
I1021 23:15:39.088927 25759 net.cpp:150] Setting up res2c_branch2c
I1021 23:15:39.088955 25759 net.cpp:157] Top shape: 1 256 240 320 (19660800)
I1021 23:15:39.088958 25759 net.cpp:165] Memory required for data: 2305228884
I1021 23:15:39.088963 25759 layer_factory.hpp:77] Creating layer bn2c_branch2c
I1021 23:15:39.088969 25759 net.cpp:100] Creating Layer bn2c_branch2c
I1021 23:15:39.088974 25759 net.cpp:444] bn2c_branch2c <- res2c_branch2c
I1021 23:15:39.088979 25759 net.cpp:405] bn2c_branch2c -> res2c_branch2c (in-place)
I1021 23:15:39.089393 25759 net.cpp:150] Setting up bn2c_branch2c
I1021 23:15:39.089401 25759 net.cpp:157] Top shape: 1 256 240 320 (19660800)
I1021 23:15:39.089403 25759 net.cpp:165] Memory required for data: 2383872084
I1021 23:15:39.089443 25759 layer_factory.hpp:77] Creating layer scale2c_branch2c
I1021 23:15:39.089452 25759 net.cpp:100] Creating Layer scale2c_branch2c
I1021 23:15:39.089454 25759 net.cpp:444] scale2c_branch2c <- res2c_branch2c
I1021 23:15:39.089458 25759 net.cpp:405] scale2c_branch2c -> res2c_branch2c (in-place)
I1021 23:15:39.089541 25759 layer_factory.hpp:77] Creating layer scale2c_branch2c
I1021 23:15:39.089784 25759 net.cpp:150] Setting up scale2c_branch2c
I1021 23:15:39.089792 25759 net.cpp:157] Top shape: 1 256 240 320 (19660800)
I1021 23:15:39.089795 25759 net.cpp:165] Memory required for data: 2462515284
I1021 23:15:39.089800 25759 layer_factory.hpp:77] Creating layer res2c
I1021 23:15:39.089805 25759 net.cpp:100] Creating Layer res2c
I1021 23:15:39.089808 25759 net.cpp:444] res2c <- res2b_res2b_relu_0_split_1
I1021 23:15:39.089812 25759 net.cpp:444] res2c <- res2c_branch2c
I1021 23:15:39.089818 25759 net.cpp:418] res2c -> res2c
I1021 23:15:39.089851 25759 net.cpp:150] Setting up res2c
I1021 23:15:39.089859 25759 net.cpp:157] Top shape: 1 256 240 320 (19660800)
I1021 23:15:39.089861 25759 net.cpp:165] Memory required for data: 2541158484
I1021 23:15:39.089864 25759 layer_factory.hpp:77] Creating layer res2c_relu
I1021 23:15:39.089869 25759 net.cpp:100] Creating Layer res2c_relu
I1021 23:15:39.089871 25759 net.cpp:444] res2c_relu <- res2c
I1021 23:15:39.089877 25759 net.cpp:405] res2c_relu -> res2c (in-place)
I1021 23:15:39.090708 25759 net.cpp:150] Setting up res2c_relu
I1021 23:15:39.090718 25759 net.cpp:157] Top shape: 1 256 240 320 (19660800)
I1021 23:15:39.090721 25759 net.cpp:165] Memory required for data: 2619801684
I1021 23:15:39.090740 25759 layer_factory.hpp:77] Creating layer res2c_res2c_relu_0_split
I1021 23:15:39.090747 25759 net.cpp:100] Creating Layer res2c_res2c_relu_0_split
I1021 23:15:39.090750 25759 net.cpp:444] res2c_res2c_relu_0_split <- res2c
I1021 23:15:39.090755 25759 net.cpp:418] res2c_res2c_relu_0_split -> res2c_res2c_relu_0_split_0
I1021 23:15:39.090761 25759 net.cpp:418] res2c_res2c_relu_0_split -> res2c_res2c_relu_0_split_1
I1021 23:15:39.090855 25759 net.cpp:150] Setting up res2c_res2c_relu_0_split
I1021 23:15:39.090864 25759 net.cpp:157] Top shape: 1 256 240 320 (19660800)
I1021 23:15:39.090869 25759 net.cpp:157] Top shape: 1 256 240 320 (19660800)
I1021 23:15:39.090872 25759 net.cpp:165] Memory required for data: 2777088084
I1021 23:15:39.090874 25759 layer_factory.hpp:77] Creating layer res3a_branch1
I1021 23:15:39.090883 25759 net.cpp:100] Creating Layer res3a_branch1
I1021 23:15:39.090885 25759 net.cpp:444] res3a_branch1 <- res2c_res2c_relu_0_split_0
I1021 23:15:39.090890 25759 net.cpp:418] res3a_branch1 -> res3a_branch1
I1021 23:15:39.092447 25759 net.cpp:150] Setting up res3a_branch1
I1021 23:15:39.092458 25759 net.cpp:157] Top shape: 1 512 120 160 (9830400)
I1021 23:15:39.092478 25759 net.cpp:165] Memory required for data: 2816409684
I1021 23:15:39.092483 25759 layer_factory.hpp:77] Creating layer bn3a_branch1
I1021 23:15:39.092490 25759 net.cpp:100] Creating Layer bn3a_branch1
I1021 23:15:39.092494 25759 net.cpp:444] bn3a_branch1 <- res3a_branch1
I1021 23:15:39.092501 25759 net.cpp:405] bn3a_branch1 -> res3a_branch1 (in-place)
I1021 23:15:39.095567 25759 net.cpp:150] Setting up bn3a_branch1
I1021 23:15:39.095580 25759 net.cpp:157] Top shape: 1 512 120 160 (9830400)
I1021 23:15:39.095582 25759 net.cpp:165] Memory required for data: 2855731284
I1021 23:15:39.095607 25759 layer_factory.hpp:77] Creating layer scale3a_branch1
I1021 23:15:39.095614 25759 net.cpp:100] Creating Layer scale3a_branch1
I1021 23:15:39.095618 25759 net.cpp:444] scale3a_branch1 <- res3a_branch1
I1021 23:15:39.095623 25759 net.cpp:405] scale3a_branch1 -> res3a_branch1 (in-place)
I1021 23:15:39.095706 25759 layer_factory.hpp:77] Creating layer scale3a_branch1
I1021 23:15:39.095906 25759 net.cpp:150] Setting up scale3a_branch1
I1021 23:15:39.095914 25759 net.cpp:157] Top shape: 1 512 120 160 (9830400)
I1021 23:15:39.095916 25759 net.cpp:165] Memory required for data: 2895052884
I1021 23:15:39.095922 25759 layer_factory.hpp:77] Creating layer res3a_branch2a
I1021 23:15:39.095930 25759 net.cpp:100] Creating Layer res3a_branch2a
I1021 23:15:39.095933 25759 net.cpp:444] res3a_branch2a <- res2c_res2c_relu_0_split_1
I1021 23:15:39.095940 25759 net.cpp:418] res3a_branch2a -> res3a_branch2a
I1021 23:15:39.097527 25759 net.cpp:150] Setting up res3a_branch2a
I1021 23:15:39.097538 25759 net.cpp:157] Top shape: 1 128 120 160 (2457600)
I1021 23:15:39.097556 25759 net.cpp:165] Memory required for data: 2904883284
I1021 23:15:39.097561 25759 layer_factory.hpp:77] Creating layer bn3a_branch2a
I1021 23:15:39.097570 25759 net.cpp:100] Creating Layer bn3a_branch2a
I1021 23:15:39.097574 25759 net.cpp:444] bn3a_branch2a <- res3a_branch2a
I1021 23:15:39.097581 25759 net.cpp:405] bn3a_branch2a -> res3a_branch2a (in-place)
I1021 23:15:39.097952 25759 net.cpp:150] Setting up bn3a_branch2a
I1021 23:15:39.097960 25759 net.cpp:157] Top shape: 1 128 120 160 (2457600)
I1021 23:15:39.097962 25759 net.cpp:165] Memory required for data: 2914713684
I1021 23:15:39.097985 25759 layer_factory.hpp:77] Creating layer scale3a_branch2a
I1021 23:15:39.098007 25759 net.cpp:100] Creating Layer scale3a_branch2a
I1021 23:15:39.098011 25759 net.cpp:444] scale3a_branch2a <- res3a_branch2a
I1021 23:15:39.098016 25759 net.cpp:405] scale3a_branch2a -> res3a_branch2a (in-place)
I1021 23:15:39.098104 25759 layer_factory.hpp:77] Creating layer scale3a_branch2a
I1021 23:15:39.098291 25759 net.cpp:150] Setting up scale3a_branch2a
I1021 23:15:39.098299 25759 net.cpp:157] Top shape: 1 128 120 160 (2457600)
I1021 23:15:39.098301 25759 net.cpp:165] Memory required for data: 2924544084
I1021 23:15:39.098306 25759 layer_factory.hpp:77] Creating layer res3a_branch2a_relu
I1021 23:15:39.098311 25759 net.cpp:100] Creating Layer res3a_branch2a_relu
I1021 23:15:39.098315 25759 net.cpp:444] res3a_branch2a_relu <- res3a_branch2a
I1021 23:15:39.098320 25759 net.cpp:405] res3a_branch2a_relu -> res3a_branch2a (in-place)
I1021 23:15:39.098520 25759 net.cpp:150] Setting up res3a_branch2a_relu
I1021 23:15:39.098527 25759 net.cpp:157] Top shape: 1 128 120 160 (2457600)
I1021 23:15:39.098531 25759 net.cpp:165] Memory required for data: 2934374484
I1021 23:15:39.098533 25759 layer_factory.hpp:77] Creating layer res3a_branch2b
I1021 23:15:39.098541 25759 net.cpp:100] Creating Layer res3a_branch2b
I1021 23:15:39.098544 25759 net.cpp:444] res3a_branch2b <- res3a_branch2a
I1021 23:15:39.098551 25759 net.cpp:418] res3a_branch2b -> res3a_branch2b
I1021 23:15:39.104113 25759 net.cpp:150] Setting up res3a_branch2b
I1021 23:15:39.104125 25759 net.cpp:157] Top shape: 1 128 120 160 (2457600)
I1021 23:15:39.104144 25759 net.cpp:165] Memory required for data: 2944204884
I1021 23:15:39.104151 25759 layer_factory.hpp:77] Creating layer bn3a_branch2b
I1021 23:15:39.104158 25759 net.cpp:100] Creating Layer bn3a_branch2b
I1021 23:15:39.104161 25759 net.cpp:444] bn3a_branch2b <- res3a_branch2b
I1021 23:15:39.104167 25759 net.cpp:405] bn3a_branch2b -> res3a_branch2b (in-place)
I1021 23:15:39.104549 25759 net.cpp:150] Setting up bn3a_branch2b
I1021 23:15:39.104557 25759 net.cpp:157] Top shape: 1 128 120 160 (2457600)
I1021 23:15:39.104558 25759 net.cpp:165] Memory required for data: 2954035284
I1021 23:15:39.104580 25759 layer_factory.hpp:77] Creating layer scale3a_branch2b
I1021 23:15:39.104590 25759 net.cpp:100] Creating Layer scale3a_branch2b
I1021 23:15:39.104595 25759 net.cpp:444] scale3a_branch2b <- res3a_branch2b
I1021 23:15:39.104599 25759 net.cpp:405] scale3a_branch2b -> res3a_branch2b (in-place)
I1021 23:15:39.104696 25759 layer_factory.hpp:77] Creating layer scale3a_branch2b
I1021 23:15:39.104887 25759 net.cpp:150] Setting up scale3a_branch2b
I1021 23:15:39.104895 25759 net.cpp:157] Top shape: 1 128 120 160 (2457600)
I1021 23:15:39.104897 25759 net.cpp:165] Memory required for data: 2963865684
I1021 23:15:39.104902 25759 layer_factory.hpp:77] Creating layer res3a_branch2b_relu
I1021 23:15:39.104909 25759 net.cpp:100] Creating Layer res3a_branch2b_relu
I1021 23:15:39.104912 25759 net.cpp:444] res3a_branch2b_relu <- res3a_branch2b
I1021 23:15:39.104917 25759 net.cpp:405] res3a_branch2b_relu -> res3a_branch2b (in-place)
I1021 23:15:39.105116 25759 net.cpp:150] Setting up res3a_branch2b_relu
I1021 23:15:39.105125 25759 net.cpp:157] Top shape: 1 128 120 160 (2457600)
I1021 23:15:39.105127 25759 net.cpp:165] Memory required for data: 2973696084
I1021 23:15:39.105130 25759 layer_factory.hpp:77] Creating layer res3a_branch2c
I1021 23:15:39.105140 25759 net.cpp:100] Creating Layer res3a_branch2c
I1021 23:15:39.105144 25759 net.cpp:444] res3a_branch2c <- res3a_branch2b
I1021 23:15:39.105149 25759 net.cpp:418] res3a_branch2c -> res3a_branch2c
I1021 23:15:39.106739 25759 net.cpp:150] Setting up res3a_branch2c
I1021 23:15:39.106750 25759 net.cpp:157] Top shape: 1 512 120 160 (9830400)
I1021 23:15:39.106752 25759 net.cpp:165] Memory required for data: 3013017684
I1021 23:15:39.106757 25759 layer_factory.hpp:77] Creating layer bn3a_branch2c
I1021 23:15:39.106781 25759 net.cpp:100] Creating Layer bn3a_branch2c
I1021 23:15:39.106784 25759 net.cpp:444] bn3a_branch2c <- res3a_branch2c
I1021 23:15:39.106791 25759 net.cpp:405] bn3a_branch2c -> res3a_branch2c (in-place)
I1021 23:15:39.107136 25759 net.cpp:150] Setting up bn3a_branch2c
I1021 23:15:39.107142 25759 net.cpp:157] Top shape: 1 512 120 160 (9830400)
I1021 23:15:39.107144 25759 net.cpp:165] Memory required for data: 3052339284
I1021 23:15:39.107167 25759 layer_factory.hpp:77] Creating layer scale3a_branch2c
I1021 23:15:39.107173 25759 net.cpp:100] Creating Layer scale3a_branch2c
I1021 23:15:39.107177 25759 net.cpp:444] scale3a_branch2c <- res3a_branch2c
I1021 23:15:39.107179 25759 net.cpp:405] scale3a_branch2c -> res3a_branch2c (in-place)
I1021 23:15:39.107249 25759 layer_factory.hpp:77] Creating layer scale3a_branch2c
I1021 23:15:39.107451 25759 net.cpp:150] Setting up scale3a_branch2c
I1021 23:15:39.107458 25759 net.cpp:157] Top shape: 1 512 120 160 (9830400)
I1021 23:15:39.107461 25759 net.cpp:165] Memory required for data: 3091660884
I1021 23:15:39.107466 25759 layer_factory.hpp:77] Creating layer res3a
I1021 23:15:39.107470 25759 net.cpp:100] Creating Layer res3a
I1021 23:15:39.107475 25759 net.cpp:444] res3a <- res3a_branch1
I1021 23:15:39.107477 25759 net.cpp:444] res3a <- res3a_branch2c
I1021 23:15:39.107484 25759 net.cpp:418] res3a -> res3a
I1021 23:15:39.107517 25759 net.cpp:150] Setting up res3a
I1021 23:15:39.107524 25759 net.cpp:157] Top shape: 1 512 120 160 (9830400)
I1021 23:15:39.107527 25759 net.cpp:165] Memory required for data: 3130982484
I1021 23:15:39.107529 25759 layer_factory.hpp:77] Creating layer res3a_relu
I1021 23:15:39.107535 25759 net.cpp:100] Creating Layer res3a_relu
I1021 23:15:39.107538 25759 net.cpp:444] res3a_relu <- res3a
I1021 23:15:39.107542 25759 net.cpp:405] res3a_relu -> res3a (in-place)
I1021 23:15:39.108378 25759 net.cpp:150] Setting up res3a_relu
I1021 23:15:39.108392 25759 net.cpp:157] Top shape: 1 512 120 160 (9830400)
I1021 23:15:39.108394 25759 net.cpp:165] Memory required for data: 3170304084
I1021 23:15:39.108397 25759 layer_factory.hpp:77] Creating layer res3a_res3a_relu_0_split
I1021 23:15:39.108414 25759 net.cpp:100] Creating Layer res3a_res3a_relu_0_split
I1021 23:15:39.108418 25759 net.cpp:444] res3a_res3a_relu_0_split <- res3a
I1021 23:15:39.108424 25759 net.cpp:418] res3a_res3a_relu_0_split -> res3a_res3a_relu_0_split_0
I1021 23:15:39.108448 25759 net.cpp:418] res3a_res3a_relu_0_split -> res3a_res3a_relu_0_split_1
I1021 23:15:39.108515 25759 net.cpp:150] Setting up res3a_res3a_relu_0_split
I1021 23:15:39.108522 25759 net.cpp:157] Top shape: 1 512 120 160 (9830400)
I1021 23:15:39.108525 25759 net.cpp:157] Top shape: 1 512 120 160 (9830400)
I1021 23:15:39.108528 25759 net.cpp:165] Memory required for data: 3248947284
I1021 23:15:39.108531 25759 layer_factory.hpp:77] Creating layer res3b_branch2a
I1021 23:15:39.108539 25759 net.cpp:100] Creating Layer res3b_branch2a
I1021 23:15:39.108543 25759 net.cpp:444] res3b_branch2a <- res3a_res3a_relu_0_split_0
I1021 23:15:39.108551 25759 net.cpp:418] res3b_branch2a -> res3b_branch2a
I1021 23:15:39.111506 25759 net.cpp:150] Setting up res3b_branch2a
I1021 23:15:39.111519 25759 net.cpp:157] Top shape: 1 128 120 160 (2457600)
I1021 23:15:39.111532 25759 net.cpp:165] Memory required for data: 3258777684
I1021 23:15:39.111538 25759 layer_factory.hpp:77] Creating layer bn3b_branch2a
I1021 23:15:39.111546 25759 net.cpp:100] Creating Layer bn3b_branch2a
I1021 23:15:39.111549 25759 net.cpp:444] bn3b_branch2a <- res3b_branch2a
I1021 23:15:39.111567 25759 net.cpp:405] bn3b_branch2a -> res3b_branch2a (in-place)
I1021 23:15:39.111897 25759 net.cpp:150] Setting up bn3b_branch2a
I1021 23:15:39.111905 25759 net.cpp:157] Top shape: 1 128 120 160 (2457600)
I1021 23:15:39.111907 25759 net.cpp:165] Memory required for data: 3268608084
I1021 23:15:39.111929 25759 layer_factory.hpp:77] Creating layer scale3b_branch2a
I1021 23:15:39.111937 25759 net.cpp:100] Creating Layer scale3b_branch2a
I1021 23:15:39.111939 25759 net.cpp:444] scale3b_branch2a <- res3b_branch2a
I1021 23:15:39.111945 25759 net.cpp:405] scale3b_branch2a -> res3b_branch2a (in-place)
I1021 23:15:39.112018 25759 layer_factory.hpp:77] Creating layer scale3b_branch2a
I1021 23:15:39.113890 25759 net.cpp:150] Setting up scale3b_branch2a
I1021 23:15:39.113901 25759 net.cpp:157] Top shape: 1 128 120 160 (2457600)
I1021 23:15:39.113903 25759 net.cpp:165] Memory required for data: 3278438484
I1021 23:15:39.113925 25759 layer_factory.hpp:77] Creating layer res3b_branch2a_relu
I1021 23:15:39.113930 25759 net.cpp:100] Creating Layer res3b_branch2a_relu
I1021 23:15:39.113934 25759 net.cpp:444] res3b_branch2a_relu <- res3b_branch2a
I1021 23:15:39.113940 25759 net.cpp:405] res3b_branch2a_relu -> res3b_branch2a (in-place)
I1021 23:15:39.114167 25759 net.cpp:150] Setting up res3b_branch2a_relu
I1021 23:15:39.114176 25759 net.cpp:157] Top shape: 1 128 120 160 (2457600)
I1021 23:15:39.114178 25759 net.cpp:165] Memory required for data: 3288268884
I1021 23:15:39.114181 25759 layer_factory.hpp:77] Creating layer res3b_branch2b
I1021 23:15:39.114189 25759 net.cpp:100] Creating Layer res3b_branch2b
I1021 23:15:39.114192 25759 net.cpp:444] res3b_branch2b <- res3b_branch2a
I1021 23:15:39.114199 25759 net.cpp:418] res3b_branch2b -> res3b_branch2b
I1021 23:15:39.116909 25759 net.cpp:150] Setting up res3b_branch2b
I1021 23:15:39.116935 25759 net.cpp:157] Top shape: 1 128 120 160 (2457600)
I1021 23:15:39.116938 25759 net.cpp:165] Memory required for data: 3298099284
I1021 23:15:39.116943 25759 layer_factory.hpp:77] Creating layer bn3b_branch2b
I1021 23:15:39.116966 25759 net.cpp:100] Creating Layer bn3b_branch2b
I1021 23:15:39.116968 25759 net.cpp:444] bn3b_branch2b <- res3b_branch2b
I1021 23:15:39.116974 25759 net.cpp:405] bn3b_branch2b -> res3b_branch2b (in-place)
I1021 23:15:39.117296 25759 net.cpp:150] Setting up bn3b_branch2b
I1021 23:15:39.117319 25759 net.cpp:157] Top shape: 1 128 120 160 (2457600)
I1021 23:15:39.117321 25759 net.cpp:165] Memory required for data: 3307929684
I1021 23:15:39.117342 25759 layer_factory.hpp:77] Creating layer scale3b_branch2b
I1021 23:15:39.117365 25759 net.cpp:100] Creating Layer scale3b_branch2b
I1021 23:15:39.117368 25759 net.cpp:444] scale3b_branch2b <- res3b_branch2b
I1021 23:15:39.117374 25759 net.cpp:405] scale3b_branch2b -> res3b_branch2b (in-place)
I1021 23:15:39.117447 25759 layer_factory.hpp:77] Creating layer scale3b_branch2b
I1021 23:15:39.117625 25759 net.cpp:150] Setting up scale3b_branch2b
I1021 23:15:39.117633 25759 net.cpp:157] Top shape: 1 128 120 160 (2457600)
I1021 23:15:39.117635 25759 net.cpp:165] Memory required for data: 3317760084
I1021 23:15:39.117640 25759 layer_factory.hpp:77] Creating layer res3b_branch2b_relu
I1021 23:15:39.117645 25759 net.cpp:100] Creating Layer res3b_branch2b_relu
I1021 23:15:39.117648 25759 net.cpp:444] res3b_branch2b_relu <- res3b_branch2b
I1021 23:15:39.117652 25759 net.cpp:405] res3b_branch2b_relu -> res3b_branch2b (in-place)
I1021 23:15:39.117861 25759 net.cpp:150] Setting up res3b_branch2b_relu
I1021 23:15:39.117878 25759 net.cpp:157] Top shape: 1 128 120 160 (2457600)
I1021 23:15:39.117882 25759 net.cpp:165] Memory required for data: 3327590484
I1021 23:15:39.117883 25759 layer_factory.hpp:77] Creating layer res3b_branch2c
I1021 23:15:39.117892 25759 net.cpp:100] Creating Layer res3b_branch2c
I1021 23:15:39.117895 25759 net.cpp:444] res3b_branch2c <- res3b_branch2b
I1021 23:15:39.117900 25759 net.cpp:418] res3b_branch2c -> res3b_branch2c
I1021 23:15:39.119426 25759 net.cpp:150] Setting up res3b_branch2c
I1021 23:15:39.119436 25759 net.cpp:157] Top shape: 1 512 120 160 (9830400)
I1021 23:15:39.119454 25759 net.cpp:165] Memory required for data: 3366912084
I1021 23:15:39.119459 25759 layer_factory.hpp:77] Creating layer bn3b_branch2c
I1021 23:15:39.119467 25759 net.cpp:100] Creating Layer bn3b_branch2c
I1021 23:15:39.119472 25759 net.cpp:444] bn3b_branch2c <- res3b_branch2c
I1021 23:15:39.119477 25759 net.cpp:405] bn3b_branch2c -> res3b_branch2c (in-place)
I1021 23:15:39.119838 25759 net.cpp:150] Setting up bn3b_branch2c
I1021 23:15:39.119845 25759 net.cpp:157] Top shape: 1 512 120 160 (9830400)
I1021 23:15:39.119848 25759 net.cpp:165] Memory required for data: 3406233684
I1021 23:15:39.119869 25759 layer_factory.hpp:77] Creating layer scale3b_branch2c
I1021 23:15:39.119874 25759 net.cpp:100] Creating Layer scale3b_branch2c
I1021 23:15:39.119877 25759 net.cpp:444] scale3b_branch2c <- res3b_branch2c
I1021 23:15:39.119884 25759 net.cpp:405] scale3b_branch2c -> res3b_branch2c (in-place)
I1021 23:15:39.119956 25759 layer_factory.hpp:77] Creating layer scale3b_branch2c
I1021 23:15:39.120146 25759 net.cpp:150] Setting up scale3b_branch2c
I1021 23:15:39.120153 25759 net.cpp:157] Top shape: 1 512 120 160 (9830400)
I1021 23:15:39.120157 25759 net.cpp:165] Memory required for data: 3445555284
I1021 23:15:39.120162 25759 layer_factory.hpp:77] Creating layer res3b
I1021 23:15:39.120167 25759 net.cpp:100] Creating Layer res3b
I1021 23:15:39.120169 25759 net.cpp:444] res3b <- res3a_res3a_relu_0_split_1
I1021 23:15:39.120172 25759 net.cpp:444] res3b <- res3b_branch2c
I1021 23:15:39.120177 25759 net.cpp:418] res3b -> res3b
I1021 23:15:39.120213 25759 net.cpp:150] Setting up res3b
I1021 23:15:39.120219 25759 net.cpp:157] Top shape: 1 512 120 160 (9830400)
I1021 23:15:39.120223 25759 net.cpp:165] Memory required for data: 3484876884
I1021 23:15:39.120225 25759 layer_factory.hpp:77] Creating layer res3b_relu
I1021 23:15:39.120229 25759 net.cpp:100] Creating Layer res3b_relu
I1021 23:15:39.120232 25759 net.cpp:444] res3b_relu <- res3b
I1021 23:15:39.120236 25759 net.cpp:405] res3b_relu -> res3b (in-place)
I1021 23:15:39.121064 25759 net.cpp:150] Setting up res3b_relu
I1021 23:15:39.121078 25759 net.cpp:157] Top shape: 1 512 120 160 (9830400)
I1021 23:15:39.121080 25759 net.cpp:165] Memory required for data: 3524198484
I1021 23:15:39.121083 25759 layer_factory.hpp:77] Creating layer res3b_res3b_relu_0_split
I1021 23:15:39.121089 25759 net.cpp:100] Creating Layer res3b_res3b_relu_0_split
I1021 23:15:39.121093 25759 net.cpp:444] res3b_res3b_relu_0_split <- res3b
I1021 23:15:39.121099 25759 net.cpp:418] res3b_res3b_relu_0_split -> res3b_res3b_relu_0_split_0
I1021 23:15:39.121105 25759 net.cpp:418] res3b_res3b_relu_0_split -> res3b_res3b_relu_0_split_1
I1021 23:15:39.121170 25759 net.cpp:150] Setting up res3b_res3b_relu_0_split
I1021 23:15:39.121176 25759 net.cpp:157] Top shape: 1 512 120 160 (9830400)
I1021 23:15:39.121181 25759 net.cpp:157] Top shape: 1 512 120 160 (9830400)
I1021 23:15:39.121182 25759 net.cpp:165] Memory required for data: 3602841684
I1021 23:15:39.121186 25759 layer_factory.hpp:77] Creating layer res3c_branch2a
I1021 23:15:39.121193 25759 net.cpp:100] Creating Layer res3c_branch2a
I1021 23:15:39.121196 25759 net.cpp:444] res3c_branch2a <- res3b_res3b_relu_0_split_0
I1021 23:15:39.121218 25759 net.cpp:418] res3c_branch2a -> res3c_branch2a
I1021 23:15:39.123684 25759 net.cpp:150] Setting up res3c_branch2a
I1021 23:15:39.123697 25759 net.cpp:157] Top shape: 1 128 120 160 (2457600)
I1021 23:15:39.123698 25759 net.cpp:165] Memory required for data: 3612672084
I1021 23:15:39.123714 25759 layer_factory.hpp:77] Creating layer bn3c_branch2a
I1021 23:15:39.123724 25759 net.cpp:100] Creating Layer bn3c_branch2a
I1021 23:15:39.123728 25759 net.cpp:444] bn3c_branch2a <- res3c_branch2a
I1021 23:15:39.123747 25759 net.cpp:405] bn3c_branch2a -> res3c_branch2a (in-place)
I1021 23:15:39.124101 25759 net.cpp:150] Setting up bn3c_branch2a
I1021 23:15:39.124109 25759 net.cpp:157] Top shape: 1 128 120 160 (2457600)
I1021 23:15:39.124110 25759 net.cpp:165] Memory required for data: 3622502484
I1021 23:15:39.124132 25759 layer_factory.hpp:77] Creating layer scale3c_branch2a
I1021 23:15:39.124140 25759 net.cpp:100] Creating Layer scale3c_branch2a
I1021 23:15:39.124142 25759 net.cpp:444] scale3c_branch2a <- res3c_branch2a
I1021 23:15:39.124147 25759 net.cpp:405] scale3c_branch2a -> res3c_branch2a (in-place)
I1021 23:15:39.124223 25759 layer_factory.hpp:77] Creating layer scale3c_branch2a
I1021 23:15:39.124404 25759 net.cpp:150] Setting up scale3c_branch2a
I1021 23:15:39.124411 25759 net.cpp:157] Top shape: 1 128 120 160 (2457600)
I1021 23:15:39.124415 25759 net.cpp:165] Memory required for data: 3632332884
I1021 23:15:39.124419 25759 layer_factory.hpp:77] Creating layer res3c_branch2a_relu
I1021 23:15:39.124426 25759 net.cpp:100] Creating Layer res3c_branch2a_relu
I1021 23:15:39.124430 25759 net.cpp:444] res3c_branch2a_relu <- res3c_branch2a
I1021 23:15:39.124433 25759 net.cpp:405] res3c_branch2a_relu -> res3c_branch2a (in-place)
I1021 23:15:39.124650 25759 net.cpp:150] Setting up res3c_branch2a_relu
I1021 23:15:39.124658 25759 net.cpp:157] Top shape: 1 128 120 160 (2457600)
I1021 23:15:39.124661 25759 net.cpp:165] Memory required for data: 3642163284
I1021 23:15:39.124665 25759 layer_factory.hpp:77] Creating layer res3c_branch2b
I1021 23:15:39.124672 25759 net.cpp:100] Creating Layer res3c_branch2b
I1021 23:15:39.124675 25759 net.cpp:444] res3c_branch2b <- res3c_branch2a
I1021 23:15:39.124681 25759 net.cpp:418] res3c_branch2b -> res3c_branch2b
I1021 23:15:39.126754 25759 net.cpp:150] Setting up res3c_branch2b
I1021 23:15:39.126765 25759 net.cpp:157] Top shape: 1 128 120 160 (2457600)
I1021 23:15:39.126778 25759 net.cpp:165] Memory required for data: 3651993684
I1021 23:15:39.126783 25759 layer_factory.hpp:77] Creating layer bn3c_branch2b
I1021 23:15:39.126790 25759 net.cpp:100] Creating Layer bn3c_branch2b
I1021 23:15:39.126792 25759 net.cpp:444] bn3c_branch2b <- res3c_branch2b
I1021 23:15:39.126809 25759 net.cpp:405] bn3c_branch2b -> res3c_branch2b (in-place)
I1021 23:15:39.127140 25759 net.cpp:150] Setting up bn3c_branch2b
I1021 23:15:39.127147 25759 net.cpp:157] Top shape: 1 128 120 160 (2457600)
I1021 23:15:39.127149 25759 net.cpp:165] Memory required for data: 3661824084
I1021 23:15:39.127171 25759 layer_factory.hpp:77] Creating layer scale3c_branch2b
I1021 23:15:39.127178 25759 net.cpp:100] Creating Layer scale3c_branch2b
I1021 23:15:39.127182 25759 net.cpp:444] scale3c_branch2b <- res3c_branch2b
I1021 23:15:39.127187 25759 net.cpp:405] scale3c_branch2b -> res3c_branch2b (in-place)
I1021 23:15:39.127259 25759 layer_factory.hpp:77] Creating layer scale3c_branch2b
I1021 23:15:39.127434 25759 net.cpp:150] Setting up scale3c_branch2b
I1021 23:15:39.127441 25759 net.cpp:157] Top shape: 1 128 120 160 (2457600)
I1021 23:15:39.127444 25759 net.cpp:165] Memory required for data: 3671654484
I1021 23:15:39.127449 25759 layer_factory.hpp:77] Creating layer res3c_branch2b_relu
I1021 23:15:39.127454 25759 net.cpp:100] Creating Layer res3c_branch2b_relu
I1021 23:15:39.127456 25759 net.cpp:444] res3c_branch2b_relu <- res3c_branch2b
I1021 23:15:39.127460 25759 net.cpp:405] res3c_branch2b_relu -> res3c_branch2b (in-place)
I1021 23:15:39.127660 25759 net.cpp:150] Setting up res3c_branch2b_relu
I1021 23:15:39.127669 25759 net.cpp:157] Top shape: 1 128 120 160 (2457600)
I1021 23:15:39.127672 25759 net.cpp:165] Memory required for data: 3681484884
I1021 23:15:39.127674 25759 layer_factory.hpp:77] Creating layer res3c_branch2c
I1021 23:15:39.127681 25759 net.cpp:100] Creating Layer res3c_branch2c
I1021 23:15:39.127684 25759 net.cpp:444] res3c_branch2c <- res3c_branch2b
I1021 23:15:39.127691 25759 net.cpp:418] res3c_branch2c -> res3c_branch2c
I1021 23:15:39.131075 25759 net.cpp:150] Setting up res3c_branch2c
I1021 23:15:39.131088 25759 net.cpp:157] Top shape: 1 512 120 160 (9830400)
I1021 23:15:39.131103 25759 net.cpp:165] Memory required for data: 3720806484
I1021 23:15:39.131108 25759 layer_factory.hpp:77] Creating layer bn3c_branch2c
I1021 23:15:39.131116 25759 net.cpp:100] Creating Layer bn3c_branch2c
I1021 23:15:39.131119 25759 net.cpp:444] bn3c_branch2c <- res3c_branch2c
I1021 23:15:39.131125 25759 net.cpp:405] bn3c_branch2c -> res3c_branch2c (in-place)
I1021 23:15:39.131450 25759 net.cpp:150] Setting up bn3c_branch2c
I1021 23:15:39.131458 25759 net.cpp:157] Top shape: 1 512 120 160 (9830400)
I1021 23:15:39.131459 25759 net.cpp:165] Memory required for data: 3760128084
I1021 23:15:39.131482 25759 layer_factory.hpp:77] Creating layer scale3c_branch2c
I1021 23:15:39.131487 25759 net.cpp:100] Creating Layer scale3c_branch2c
I1021 23:15:39.131490 25759 net.cpp:444] scale3c_branch2c <- res3c_branch2c
I1021 23:15:39.131503 25759 net.cpp:405] scale3c_branch2c -> res3c_branch2c (in-place)
I1021 23:15:39.131573 25759 layer_factory.hpp:77] Creating layer scale3c_branch2c
I1021 23:15:39.131762 25759 net.cpp:150] Setting up scale3c_branch2c
I1021 23:15:39.131770 25759 net.cpp:157] Top shape: 1 512 120 160 (9830400)
I1021 23:15:39.131772 25759 net.cpp:165] Memory required for data: 3799449684
I1021 23:15:39.131778 25759 layer_factory.hpp:77] Creating layer res3c
I1021 23:15:39.131783 25759 net.cpp:100] Creating Layer res3c
I1021 23:15:39.131785 25759 net.cpp:444] res3c <- res3b_res3b_relu_0_split_1
I1021 23:15:39.131789 25759 net.cpp:444] res3c <- res3c_branch2c
I1021 23:15:39.131794 25759 net.cpp:418] res3c -> res3c
I1021 23:15:39.131830 25759 net.cpp:150] Setting up res3c
I1021 23:15:39.131836 25759 net.cpp:157] Top shape: 1 512 120 160 (9830400)
I1021 23:15:39.131839 25759 net.cpp:165] Memory required for data: 3838771284
I1021 23:15:39.131842 25759 layer_factory.hpp:77] Creating layer res3c_relu
I1021 23:15:39.131846 25759 net.cpp:100] Creating Layer res3c_relu
I1021 23:15:39.131850 25759 net.cpp:444] res3c_relu <- res3c
I1021 23:15:39.131852 25759 net.cpp:405] res3c_relu -> res3c (in-place)
I1021 23:15:39.132046 25759 net.cpp:150] Setting up res3c_relu
I1021 23:15:39.132056 25759 net.cpp:157] Top shape: 1 512 120 160 (9830400)
I1021 23:15:39.132058 25759 net.cpp:165] Memory required for data: 3878092884
I1021 23:15:39.132061 25759 layer_factory.hpp:77] Creating layer res3c_res3c_relu_0_split
I1021 23:15:39.132067 25759 net.cpp:100] Creating Layer res3c_res3c_relu_0_split
I1021 23:15:39.132069 25759 net.cpp:444] res3c_res3c_relu_0_split <- res3c
I1021 23:15:39.132076 25759 net.cpp:418] res3c_res3c_relu_0_split -> res3c_res3c_relu_0_split_0
I1021 23:15:39.132081 25759 net.cpp:418] res3c_res3c_relu_0_split -> res3c_res3c_relu_0_split_1
I1021 23:15:39.132145 25759 net.cpp:150] Setting up res3c_res3c_relu_0_split
I1021 23:15:39.132151 25759 net.cpp:157] Top shape: 1 512 120 160 (9830400)
I1021 23:15:39.132155 25759 net.cpp:157] Top shape: 1 512 120 160 (9830400)
I1021 23:15:39.132158 25759 net.cpp:165] Memory required for data: 3956736084
I1021 23:15:39.132160 25759 layer_factory.hpp:77] Creating layer res3d_branch2a
I1021 23:15:39.132169 25759 net.cpp:100] Creating Layer res3d_branch2a
I1021 23:15:39.132171 25759 net.cpp:444] res3d_branch2a <- res3c_res3c_relu_0_split_0
I1021 23:15:39.132177 25759 net.cpp:418] res3d_branch2a -> res3d_branch2a
I1021 23:15:39.135223 25759 net.cpp:150] Setting up res3d_branch2a
I1021 23:15:39.135234 25759 net.cpp:157] Top shape: 1 128 120 160 (2457600)
I1021 23:15:39.135237 25759 net.cpp:165] Memory required for data: 3966566484
I1021 23:15:39.135253 25759 layer_factory.hpp:77] Creating layer bn3d_branch2a
I1021 23:15:39.135262 25759 net.cpp:100] Creating Layer bn3d_branch2a
I1021 23:15:39.135265 25759 net.cpp:444] bn3d_branch2a <- res3d_branch2a
I1021 23:15:39.135269 25759 net.cpp:405] bn3d_branch2a -> res3d_branch2a (in-place)
I1021 23:15:39.135624 25759 net.cpp:150] Setting up bn3d_branch2a
I1021 23:15:39.135632 25759 net.cpp:157] Top shape: 1 128 120 160 (2457600)
I1021 23:15:39.135634 25759 net.cpp:165] Memory required for data: 3976396884
I1021 23:15:39.135668 25759 layer_factory.hpp:77] Creating layer scale3d_branch2a
I1021 23:15:39.135673 25759 net.cpp:100] Creating Layer scale3d_branch2a
I1021 23:15:39.135675 25759 net.cpp:444] scale3d_branch2a <- res3d_branch2a
I1021 23:15:39.135681 25759 net.cpp:405] scale3d_branch2a -> res3d_branch2a (in-place)
I1021 23:15:39.135756 25759 layer_factory.hpp:77] Creating layer scale3d_branch2a
I1021 23:15:39.135933 25759 net.cpp:150] Setting up scale3d_branch2a
I1021 23:15:39.135941 25759 net.cpp:157] Top shape: 1 128 120 160 (2457600)
I1021 23:15:39.135943 25759 net.cpp:165] Memory required for data: 3986227284
I1021 23:15:39.135948 25759 layer_factory.hpp:77] Creating layer res3d_branch2a_relu
I1021 23:15:39.135953 25759 net.cpp:100] Creating Layer res3d_branch2a_relu
I1021 23:15:39.135957 25759 net.cpp:444] res3d_branch2a_relu <- res3d_branch2a
I1021 23:15:39.135959 25759 net.cpp:405] res3d_branch2a_relu -> res3d_branch2a (in-place)
I1021 23:15:39.136859 25759 net.cpp:150] Setting up res3d_branch2a_relu
I1021 23:15:39.136873 25759 net.cpp:157] Top shape: 1 128 120 160 (2457600)
I1021 23:15:39.136886 25759 net.cpp:165] Memory required for data: 3996057684
I1021 23:15:39.136889 25759 layer_factory.hpp:77] Creating layer res3d_branch2b
I1021 23:15:39.136900 25759 net.cpp:100] Creating Layer res3d_branch2b
I1021 23:15:39.136904 25759 net.cpp:444] res3d_branch2b <- res3d_branch2a
I1021 23:15:39.136911 25759 net.cpp:418] res3d_branch2b -> res3d_branch2b
I1021 23:15:39.141563 25759 net.cpp:150] Setting up res3d_branch2b
I1021 23:15:39.141577 25759 net.cpp:157] Top shape: 1 128 120 160 (2457600)
I1021 23:15:39.141595 25759 net.cpp:165] Memory required for data: 4005888084
I1021 23:15:39.141602 25759 layer_factory.hpp:77] Creating layer bn3d_branch2b
I1021 23:15:39.141610 25759 net.cpp:100] Creating Layer bn3d_branch2b
I1021 23:15:39.141614 25759 net.cpp:444] bn3d_branch2b <- res3d_branch2b
I1021 23:15:39.141619 25759 net.cpp:405] bn3d_branch2b -> res3d_branch2b (in-place)
I1021 23:15:39.141997 25759 net.cpp:150] Setting up bn3d_branch2b
I1021 23:15:39.142004 25759 net.cpp:157] Top shape: 1 128 120 160 (2457600)
I1021 23:15:39.142006 25759 net.cpp:165] Memory required for data: 4015718484
I1021 23:15:39.142029 25759 layer_factory.hpp:77] Creating layer scale3d_branch2b
I1021 23:15:39.142035 25759 net.cpp:100] Creating Layer scale3d_branch2b
I1021 23:15:39.142037 25759 net.cpp:444] scale3d_branch2b <- res3d_branch2b
I1021 23:15:39.142045 25759 net.cpp:405] scale3d_branch2b -> res3d_branch2b (in-place)
I1021 23:15:39.142136 25759 layer_factory.hpp:77] Creating layer scale3d_branch2b
I1021 23:15:39.142331 25759 net.cpp:150] Setting up scale3d_branch2b
I1021 23:15:39.142338 25759 net.cpp:157] Top shape: 1 128 120 160 (2457600)
I1021 23:15:39.142341 25759 net.cpp:165] Memory required for data: 4025548884
I1021 23:15:39.142346 25759 layer_factory.hpp:77] Creating layer res3d_branch2b_relu
I1021 23:15:39.142351 25759 net.cpp:100] Creating Layer res3d_branch2b_relu
I1021 23:15:39.142354 25759 net.cpp:444] res3d_branch2b_relu <- res3d_branch2b
I1021 23:15:39.142359 25759 net.cpp:405] res3d_branch2b_relu -> res3d_branch2b (in-place)
I1021 23:15:39.142575 25759 net.cpp:150] Setting up res3d_branch2b_relu
I1021 23:15:39.142583 25759 net.cpp:157] Top shape: 1 128 120 160 (2457600)
I1021 23:15:39.142585 25759 net.cpp:165] Memory required for data: 4035379284
I1021 23:15:39.142588 25759 layer_factory.hpp:77] Creating layer res3d_branch2c
I1021 23:15:39.142597 25759 net.cpp:100] Creating Layer res3d_branch2c
I1021 23:15:39.142601 25759 net.cpp:444] res3d_branch2c <- res3d_branch2b
I1021 23:15:39.142606 25759 net.cpp:418] res3d_branch2c -> res3d_branch2c
I1021 23:15:39.144136 25759 net.cpp:150] Setting up res3d_branch2c
I1021 23:15:39.144146 25759 net.cpp:157] Top shape: 1 512 120 160 (9830400)
I1021 23:15:39.144150 25759 net.cpp:165] Memory required for data: 4074700884
I1021 23:15:39.144170 25759 layer_factory.hpp:77] Creating layer bn3d_branch2c
I1021 23:15:39.144178 25759 net.cpp:100] Creating Layer bn3d_branch2c
I1021 23:15:39.144181 25759 net.cpp:444] bn3d_branch2c <- res3d_branch2c
I1021 23:15:39.144186 25759 net.cpp:405] bn3d_branch2c -> res3d_branch2c (in-place)
I1021 23:15:39.144563 25759 net.cpp:150] Setting up bn3d_branch2c
I1021 23:15:39.144570 25759 net.cpp:157] Top shape: 1 512 120 160 (9830400)
I1021 23:15:39.144573 25759 net.cpp:165] Memory required for data: 4114022484
I1021 23:15:39.144594 25759 layer_factory.hpp:77] Creating layer scale3d_branch2c
I1021 23:15:39.144601 25759 net.cpp:100] Creating Layer scale3d_branch2c
I1021 23:15:39.144604 25759 net.cpp:444] scale3d_branch2c <- res3d_branch2c
I1021 23:15:39.144644 25759 net.cpp:405] scale3d_branch2c -> res3d_branch2c (in-place)
I1021 23:15:39.144716 25759 layer_factory.hpp:77] Creating layer scale3d_branch2c
I1021 23:15:39.144922 25759 net.cpp:150] Setting up scale3d_branch2c
I1021 23:15:39.144930 25759 net.cpp:157] Top shape: 1 512 120 160 (9830400)
I1021 23:15:39.144932 25759 net.cpp:165] Memory required for data: 4153344084
I1021 23:15:39.144937 25759 layer_factory.hpp:77] Creating layer res3d
I1021 23:15:39.144944 25759 net.cpp:100] Creating Layer res3d
I1021 23:15:39.144948 25759 net.cpp:444] res3d <- res3c_res3c_relu_0_split_1
I1021 23:15:39.144953 25759 net.cpp:444] res3d <- res3d_branch2c
I1021 23:15:39.144956 25759 net.cpp:418] res3d -> res3d
I1021 23:15:39.145009 25759 net.cpp:150] Setting up res3d
I1021 23:15:39.145015 25759 net.cpp:157] Top shape: 1 512 120 160 (9830400)
I1021 23:15:39.145017 25759 net.cpp:165] Memory required for data: 4192665684
I1021 23:15:39.145020 25759 layer_factory.hpp:77] Creating layer res3d_relu
I1021 23:15:39.145025 25759 net.cpp:100] Creating Layer res3d_relu
I1021 23:15:39.145026 25759 net.cpp:444] res3d_relu <- res3d
I1021 23:15:39.145030 25759 net.cpp:405] res3d_relu -> res3d (in-place)
I1021 23:15:39.145241 25759 net.cpp:150] Setting up res3d_relu
I1021 23:15:39.145249 25759 net.cpp:157] Top shape: 1 512 120 160 (9830400)
I1021 23:15:39.145252 25759 net.cpp:165] Memory required for data: 4231987284
I1021 23:15:39.145256 25759 layer_factory.hpp:77] Creating layer res3d_res3d_relu_0_split
I1021 23:15:39.145262 25759 net.cpp:100] Creating Layer res3d_res3d_relu_0_split
I1021 23:15:39.145265 25759 net.cpp:444] res3d_res3d_relu_0_split <- res3d
I1021 23:15:39.145270 25759 net.cpp:418] res3d_res3d_relu_0_split -> res3d_res3d_relu_0_split_0
I1021 23:15:39.145277 25759 net.cpp:418] res3d_res3d_relu_0_split -> res3d_res3d_relu_0_split_1
I1021 23:15:39.145283 25759 net.cpp:418] res3d_res3d_relu_0_split -> res3d_res3d_relu_0_split_2
I1021 23:15:39.145366 25759 net.cpp:150] Setting up res3d_res3d_relu_0_split
I1021 23:15:39.145373 25759 net.cpp:157] Top shape: 1 512 120 160 (9830400)
I1021 23:15:39.145376 25759 net.cpp:157] Top shape: 1 512 120 160 (9830400)
I1021 23:15:39.145380 25759 net.cpp:157] Top shape: 1 512 120 160 (9830400)
I1021 23:15:39.145382 25759 net.cpp:165] Memory required for data: 4349952084
I1021 23:15:39.145385 25759 layer_factory.hpp:77] Creating layer res4a_branch1
I1021 23:15:39.145395 25759 net.cpp:100] Creating Layer res4a_branch1
I1021 23:15:39.145398 25759 net.cpp:444] res4a_branch1 <- res3d_res3d_relu_0_split_0
I1021 23:15:39.145404 25759 net.cpp:418] res4a_branch1 -> res4a_branch1
I1021 23:15:39.149469 25759 net.cpp:150] Setting up res4a_branch1
I1021 23:15:39.149482 25759 net.cpp:157] Top shape: 1 1024 60 80 (4915200)
I1021 23:15:39.149500 25759 net.cpp:165] Memory required for data: 4369612884
I1021 23:15:39.149505 25759 layer_factory.hpp:77] Creating layer bn4a_branch1
I1021 23:15:39.149513 25759 net.cpp:100] Creating Layer bn4a_branch1
I1021 23:15:39.149516 25759 net.cpp:444] bn4a_branch1 <- res4a_branch1
I1021 23:15:39.149521 25759 net.cpp:405] bn4a_branch1 -> res4a_branch1 (in-place)
I1021 23:15:39.149874 25759 net.cpp:150] Setting up bn4a_branch1
I1021 23:15:39.149881 25759 net.cpp:157] Top shape: 1 1024 60 80 (4915200)
I1021 23:15:39.149883 25759 net.cpp:165] Memory required for data: 4389273684
I1021 23:15:39.149906 25759 layer_factory.hpp:77] Creating layer scale4a_branch1
I1021 23:15:39.149914 25759 net.cpp:100] Creating Layer scale4a_branch1
I1021 23:15:39.149917 25759 net.cpp:444] scale4a_branch1 <- res4a_branch1
I1021 23:15:39.149922 25759 net.cpp:405] scale4a_branch1 -> res4a_branch1 (in-place)
I1021 23:15:39.149977 25759 layer_factory.hpp:77] Creating layer scale4a_branch1
I1021 23:15:39.150185 25759 net.cpp:150] Setting up scale4a_branch1
I1021 23:15:39.150192 25759 net.cpp:157] Top shape: 1 1024 60 80 (4915200)
I1021 23:15:39.150194 25759 net.cpp:165] Memory required for data: 4408934484
I1021 23:15:39.150199 25759 layer_factory.hpp:77] Creating layer res4a_branch2a
I1021 23:15:39.150223 25759 net.cpp:100] Creating Layer res4a_branch2a
I1021 23:15:39.150228 25759 net.cpp:444] res4a_branch2a <- res3d_res3d_relu_0_split_1
I1021 23:15:39.150233 25759 net.cpp:418] res4a_branch2a -> res4a_branch2a
I1021 23:15:39.151862 25759 net.cpp:150] Setting up res4a_branch2a
I1021 23:15:39.151873 25759 net.cpp:157] Top shape: 1 256 60 80 (1228800)
I1021 23:15:39.151875 25759 net.cpp:165] Memory required for data: 4413849684
I1021 23:15:39.151880 25759 layer_factory.hpp:77] Creating layer bn4a_branch2a
I1021 23:15:39.151898 25759 net.cpp:100] Creating Layer bn4a_branch2a
I1021 23:15:39.151902 25759 net.cpp:444] bn4a_branch2a <- res4a_branch2a
I1021 23:15:39.151924 25759 net.cpp:405] bn4a_branch2a -> res4a_branch2a (in-place)
I1021 23:15:39.152266 25759 net.cpp:150] Setting up bn4a_branch2a
I1021 23:15:39.152274 25759 net.cpp:157] Top shape: 1 256 60 80 (1228800)
I1021 23:15:39.152277 25759 net.cpp:165] Memory required for data: 4418764884
I1021 23:15:39.152298 25759 layer_factory.hpp:77] Creating layer scale4a_branch2a
I1021 23:15:39.152304 25759 net.cpp:100] Creating Layer scale4a_branch2a
I1021 23:15:39.152307 25759 net.cpp:444] scale4a_branch2a <- res4a_branch2a
I1021 23:15:39.152313 25759 net.cpp:405] scale4a_branch2a -> res4a_branch2a (in-place)
I1021 23:15:39.152390 25759 layer_factory.hpp:77] Creating layer scale4a_branch2a
I1021 23:15:39.152580 25759 net.cpp:150] Setting up scale4a_branch2a
I1021 23:15:39.152588 25759 net.cpp:157] Top shape: 1 256 60 80 (1228800)
I1021 23:15:39.152591 25759 net.cpp:165] Memory required for data: 4423680084
I1021 23:15:39.152596 25759 layer_factory.hpp:77] Creating layer res4a_branch2a_relu
I1021 23:15:39.152601 25759 net.cpp:100] Creating Layer res4a_branch2a_relu
I1021 23:15:39.152604 25759 net.cpp:444] res4a_branch2a_relu <- res4a_branch2a
I1021 23:15:39.152613 25759 net.cpp:405] res4a_branch2a_relu -> res4a_branch2a (in-place)
I1021 23:15:39.155114 25759 net.cpp:150] Setting up res4a_branch2a_relu
I1021 23:15:39.155128 25759 net.cpp:157] Top shape: 1 256 60 80 (1228800)
I1021 23:15:39.155148 25759 net.cpp:165] Memory required for data: 4428595284
I1021 23:15:39.155150 25759 layer_factory.hpp:77] Creating layer res4a_branch2b
I1021 23:15:39.155162 25759 net.cpp:100] Creating Layer res4a_branch2b
I1021 23:15:39.155166 25759 net.cpp:444] res4a_branch2b <- res4a_branch2a
I1021 23:15:39.155171 25759 net.cpp:418] res4a_branch2b -> res4a_branch2b
I1021 23:15:39.160876 25759 net.cpp:150] Setting up res4a_branch2b
I1021 23:15:39.160892 25759 net.cpp:157] Top shape: 1 256 60 80 (1228800)
I1021 23:15:39.160912 25759 net.cpp:165] Memory required for data: 4433510484
I1021 23:15:39.160919 25759 layer_factory.hpp:77] Creating layer bn4a_branch2b
I1021 23:15:39.160929 25759 net.cpp:100] Creating Layer bn4a_branch2b
I1021 23:15:39.160933 25759 net.cpp:444] bn4a_branch2b <- res4a_branch2b
I1021 23:15:39.160938 25759 net.cpp:405] bn4a_branch2b -> res4a_branch2b (in-place)
I1021 23:15:39.161342 25759 net.cpp:150] Setting up bn4a_branch2b
I1021 23:15:39.161350 25759 net.cpp:157] Top shape: 1 256 60 80 (1228800)
I1021 23:15:39.161351 25759 net.cpp:165] Memory required for data: 4438425684
I1021 23:15:39.161373 25759 layer_factory.hpp:77] Creating layer scale4a_branch2b
I1021 23:15:39.161398 25759 net.cpp:100] Creating Layer scale4a_branch2b
I1021 23:15:39.161402 25759 net.cpp:444] scale4a_branch2b <- res4a_branch2b
I1021 23:15:39.161406 25759 net.cpp:405] scale4a_branch2b -> res4a_branch2b (in-place)
I1021 23:15:39.161468 25759 layer_factory.hpp:77] Creating layer scale4a_branch2b
I1021 23:15:39.161659 25759 net.cpp:150] Setting up scale4a_branch2b
I1021 23:15:39.161666 25759 net.cpp:157] Top shape: 1 256 60 80 (1228800)
I1021 23:15:39.161669 25759 net.cpp:165] Memory required for data: 4443340884
I1021 23:15:39.161674 25759 layer_factory.hpp:77] Creating layer res4a_branch2b_relu
I1021 23:15:39.161679 25759 net.cpp:100] Creating Layer res4a_branch2b_relu
I1021 23:15:39.161682 25759 net.cpp:444] res4a_branch2b_relu <- res4a_branch2b
I1021 23:15:39.161687 25759 net.cpp:405] res4a_branch2b_relu -> res4a_branch2b (in-place)
I1021 23:15:39.161891 25759 net.cpp:150] Setting up res4a_branch2b_relu
I1021 23:15:39.161900 25759 net.cpp:157] Top shape: 1 256 60 80 (1228800)
I1021 23:15:39.161902 25759 net.cpp:165] Memory required for data: 4448256084
I1021 23:15:39.161906 25759 layer_factory.hpp:77] Creating layer res4a_branch2c
I1021 23:15:39.161913 25759 net.cpp:100] Creating Layer res4a_branch2c
I1021 23:15:39.161917 25759 net.cpp:444] res4a_branch2c <- res4a_branch2b
I1021 23:15:39.161923 25759 net.cpp:418] res4a_branch2c -> res4a_branch2c
I1021 23:15:39.165274 25759 net.cpp:150] Setting up res4a_branch2c
I1021 23:15:39.165287 25759 net.cpp:157] Top shape: 1 1024 60 80 (4915200)
I1021 23:15:39.165289 25759 net.cpp:165] Memory required for data: 4467916884
I1021 23:15:39.165310 25759 layer_factory.hpp:77] Creating layer bn4a_branch2c
I1021 23:15:39.165318 25759 net.cpp:100] Creating Layer bn4a_branch2c
I1021 23:15:39.165321 25759 net.cpp:444] bn4a_branch2c <- res4a_branch2c
I1021 23:15:39.165328 25759 net.cpp:405] bn4a_branch2c -> res4a_branch2c (in-place)
I1021 23:15:39.165706 25759 net.cpp:150] Setting up bn4a_branch2c
I1021 23:15:39.165714 25759 net.cpp:157] Top shape: 1 1024 60 80 (4915200)
I1021 23:15:39.165715 25759 net.cpp:165] Memory required for data: 4487577684
I1021 23:15:39.165737 25759 layer_factory.hpp:77] Creating layer scale4a_branch2c
I1021 23:15:39.165745 25759 net.cpp:100] Creating Layer scale4a_branch2c
I1021 23:15:39.165748 25759 net.cpp:444] scale4a_branch2c <- res4a_branch2c
I1021 23:15:39.165755 25759 net.cpp:405] scale4a_branch2c -> res4a_branch2c (in-place)
I1021 23:15:39.165825 25759 layer_factory.hpp:77] Creating layer scale4a_branch2c
I1021 23:15:39.166024 25759 net.cpp:150] Setting up scale4a_branch2c
I1021 23:15:39.166033 25759 net.cpp:157] Top shape: 1 1024 60 80 (4915200)
I1021 23:15:39.166034 25759 net.cpp:165] Memory required for data: 4507238484
I1021 23:15:39.166040 25759 layer_factory.hpp:77] Creating layer res4a
I1021 23:15:39.166054 25759 net.cpp:100] Creating Layer res4a
I1021 23:15:39.166059 25759 net.cpp:444] res4a <- res4a_branch1
I1021 23:15:39.166062 25759 net.cpp:444] res4a <- res4a_branch2c
I1021 23:15:39.166066 25759 net.cpp:418] res4a -> res4a
I1021 23:15:39.166102 25759 net.cpp:150] Setting up res4a
I1021 23:15:39.166108 25759 net.cpp:157] Top shape: 1 1024 60 80 (4915200)
I1021 23:15:39.166112 25759 net.cpp:165] Memory required for data: 4526899284
I1021 23:15:39.166115 25759 layer_factory.hpp:77] Creating layer res4a_relu
I1021 23:15:39.166121 25759 net.cpp:100] Creating Layer res4a_relu
I1021 23:15:39.166123 25759 net.cpp:444] res4a_relu <- res4a
I1021 23:15:39.166126 25759 net.cpp:405] res4a_relu -> res4a (in-place)
I1021 23:15:39.166324 25759 net.cpp:150] Setting up res4a_relu
I1021 23:15:39.166332 25759 net.cpp:157] Top shape: 1 1024 60 80 (4915200)
I1021 23:15:39.166334 25759 net.cpp:165] Memory required for data: 4546560084
I1021 23:15:39.166337 25759 layer_factory.hpp:77] Creating layer res4a_res4a_relu_0_split
I1021 23:15:39.166343 25759 net.cpp:100] Creating Layer res4a_res4a_relu_0_split
I1021 23:15:39.166347 25759 net.cpp:444] res4a_res4a_relu_0_split <- res4a
I1021 23:15:39.166352 25759 net.cpp:418] res4a_res4a_relu_0_split -> res4a_res4a_relu_0_split_0
I1021 23:15:39.166357 25759 net.cpp:418] res4a_res4a_relu_0_split -> res4a_res4a_relu_0_split_1
I1021 23:15:39.166427 25759 net.cpp:150] Setting up res4a_res4a_relu_0_split
I1021 23:15:39.166435 25759 net.cpp:157] Top shape: 1 1024 60 80 (4915200)
I1021 23:15:39.166438 25759 net.cpp:157] Top shape: 1 1024 60 80 (4915200)
I1021 23:15:39.166441 25759 net.cpp:165] Memory required for data: 4585881684
I1021 23:15:39.166443 25759 layer_factory.hpp:77] Creating layer res4b_branch2a
I1021 23:15:39.166452 25759 net.cpp:100] Creating Layer res4b_branch2a
I1021 23:15:39.166455 25759 net.cpp:444] res4b_branch2a <- res4a_res4a_relu_0_split_0
I1021 23:15:39.166477 25759 net.cpp:418] res4b_branch2a -> res4b_branch2a
I1021 23:15:39.168164 25759 net.cpp:150] Setting up res4b_branch2a
I1021 23:15:39.168175 25759 net.cpp:157] Top shape: 1 256 60 80 (1228800)
I1021 23:15:39.168177 25759 net.cpp:165] Memory required for data: 4590796884
I1021 23:15:39.168197 25759 layer_factory.hpp:77] Creating layer bn4b_branch2a
I1021 23:15:39.168206 25759 net.cpp:100] Creating Layer bn4b_branch2a
I1021 23:15:39.168210 25759 net.cpp:444] bn4b_branch2a <- res4b_branch2a
I1021 23:15:39.168216 25759 net.cpp:405] bn4b_branch2a -> res4b_branch2a (in-place)
I1021 23:15:39.168596 25759 net.cpp:150] Setting up bn4b_branch2a
I1021 23:15:39.168603 25759 net.cpp:157] Top shape: 1 256 60 80 (1228800)
I1021 23:15:39.168606 25759 net.cpp:165] Memory required for data: 4595712084
I1021 23:15:39.168653 25759 layer_factory.hpp:77] Creating layer scale4b_branch2a
I1021 23:15:39.168659 25759 net.cpp:100] Creating Layer scale4b_branch2a
I1021 23:15:39.168663 25759 net.cpp:444] scale4b_branch2a <- res4b_branch2a
I1021 23:15:39.168668 25759 net.cpp:405] scale4b_branch2a -> res4b_branch2a (in-place)
I1021 23:15:39.168732 25759 layer_factory.hpp:77] Creating layer scale4b_branch2a
I1021 23:15:39.168929 25759 net.cpp:150] Setting up scale4b_branch2a
I1021 23:15:39.168936 25759 net.cpp:157] Top shape: 1 256 60 80 (1228800)
I1021 23:15:39.168939 25759 net.cpp:165] Memory required for data: 4600627284
I1021 23:15:39.168944 25759 layer_factory.hpp:77] Creating layer res4b_branch2a_relu
I1021 23:15:39.168962 25759 net.cpp:100] Creating Layer res4b_branch2a_relu
I1021 23:15:39.168967 25759 net.cpp:444] res4b_branch2a_relu <- res4b_branch2a
I1021 23:15:39.168970 25759 net.cpp:405] res4b_branch2a_relu -> res4b_branch2a (in-place)
I1021 23:15:39.169801 25759 net.cpp:150] Setting up res4b_branch2a_relu
I1021 23:15:39.169811 25759 net.cpp:157] Top shape: 1 256 60 80 (1228800)
I1021 23:15:39.169831 25759 net.cpp:165] Memory required for data: 4605542484
I1021 23:15:39.169833 25759 layer_factory.hpp:77] Creating layer res4b_branch2b
I1021 23:15:39.169842 25759 net.cpp:100] Creating Layer res4b_branch2b
I1021 23:15:39.169845 25759 net.cpp:444] res4b_branch2b <- res4b_branch2a
I1021 23:15:39.169854 25759 net.cpp:418] res4b_branch2b -> res4b_branch2b
I1021 23:15:39.175765 25759 net.cpp:150] Setting up res4b_branch2b
I1021 23:15:39.175778 25759 net.cpp:157] Top shape: 1 256 60 80 (1228800)
I1021 23:15:39.175797 25759 net.cpp:165] Memory required for data: 4610457684
I1021 23:15:39.175803 25759 layer_factory.hpp:77] Creating layer bn4b_branch2b
I1021 23:15:39.175813 25759 net.cpp:100] Creating Layer bn4b_branch2b
I1021 23:15:39.175817 25759 net.cpp:444] bn4b_branch2b <- res4b_branch2b
I1021 23:15:39.175822 25759 net.cpp:405] bn4b_branch2b -> res4b_branch2b (in-place)
I1021 23:15:39.176213 25759 net.cpp:150] Setting up bn4b_branch2b
I1021 23:15:39.176221 25759 net.cpp:157] Top shape: 1 256 60 80 (1228800)
I1021 23:15:39.176223 25759 net.cpp:165] Memory required for data: 4615372884
I1021 23:15:39.176245 25759 layer_factory.hpp:77] Creating layer scale4b_branch2b
I1021 23:15:39.176251 25759 net.cpp:100] Creating Layer scale4b_branch2b
I1021 23:15:39.176254 25759 net.cpp:444] scale4b_branch2b <- res4b_branch2b
I1021 23:15:39.176260 25759 net.cpp:405] scale4b_branch2b -> res4b_branch2b (in-place)
I1021 23:15:39.176338 25759 layer_factory.hpp:77] Creating layer scale4b_branch2b
I1021 23:15:39.176537 25759 net.cpp:150] Setting up scale4b_branch2b
I1021 23:15:39.176544 25759 net.cpp:157] Top shape: 1 256 60 80 (1228800)
I1021 23:15:39.176546 25759 net.cpp:165] Memory required for data: 4620288084
I1021 23:15:39.176551 25759 layer_factory.hpp:77] Creating layer res4b_branch2b_relu
I1021 23:15:39.176556 25759 net.cpp:100] Creating Layer res4b_branch2b_relu
I1021 23:15:39.176559 25759 net.cpp:444] res4b_branch2b_relu <- res4b_branch2b
I1021 23:15:39.176565 25759 net.cpp:405] res4b_branch2b_relu -> res4b_branch2b (in-place)
I1021 23:15:39.176784 25759 net.cpp:150] Setting up res4b_branch2b_relu
I1021 23:15:39.176795 25759 net.cpp:157] Top shape: 1 256 60 80 (1228800)
I1021 23:15:39.176797 25759 net.cpp:165] Memory required for data: 4625203284
I1021 23:15:39.176800 25759 layer_factory.hpp:77] Creating layer res4b_branch2c
I1021 23:15:39.176810 25759 net.cpp:100] Creating Layer res4b_branch2c
I1021 23:15:39.176813 25759 net.cpp:444] res4b_branch2c <- res4b_branch2b
I1021 23:15:39.176820 25759 net.cpp:418] res4b_branch2c -> res4b_branch2c
I1021 23:15:39.180220 25759 net.cpp:150] Setting up res4b_branch2c
I1021 23:15:39.180233 25759 net.cpp:157] Top shape: 1 1024 60 80 (4915200)
I1021 23:15:39.180251 25759 net.cpp:165] Memory required for data: 4644864084
I1021 23:15:39.180256 25759 layer_factory.hpp:77] Creating layer bn4b_branch2c
I1021 23:15:39.180264 25759 net.cpp:100] Creating Layer bn4b_branch2c
I1021 23:15:39.180269 25759 net.cpp:444] bn4b_branch2c <- res4b_branch2c
I1021 23:15:39.180276 25759 net.cpp:405] bn4b_branch2c -> res4b_branch2c (in-place)
I1021 23:15:39.180678 25759 net.cpp:150] Setting up bn4b_branch2c
I1021 23:15:39.180686 25759 net.cpp:157] Top shape: 1 1024 60 80 (4915200)
I1021 23:15:39.180688 25759 net.cpp:165] Memory required for data: 4664524884
I1021 23:15:39.180711 25759 layer_factory.hpp:77] Creating layer scale4b_branch2c
I1021 23:15:39.180718 25759 net.cpp:100] Creating Layer scale4b_branch2c
I1021 23:15:39.180721 25759 net.cpp:444] scale4b_branch2c <- res4b_branch2c
I1021 23:15:39.180727 25759 net.cpp:405] scale4b_branch2c -> res4b_branch2c (in-place)
I1021 23:15:39.180801 25759 layer_factory.hpp:77] Creating layer scale4b_branch2c
I1021 23:15:39.181026 25759 net.cpp:150] Setting up scale4b_branch2c
I1021 23:15:39.181035 25759 net.cpp:157] Top shape: 1 1024 60 80 (4915200)
I1021 23:15:39.181037 25759 net.cpp:165] Memory required for data: 4684185684
I1021 23:15:39.181042 25759 layer_factory.hpp:77] Creating layer res4b
I1021 23:15:39.181047 25759 net.cpp:100] Creating Layer res4b
I1021 23:15:39.181051 25759 net.cpp:444] res4b <- res4a_res4a_relu_0_split_1
I1021 23:15:39.181054 25759 net.cpp:444] res4b <- res4b_branch2c
I1021 23:15:39.181059 25759 net.cpp:418] res4b -> res4b
I1021 23:15:39.181097 25759 net.cpp:150] Setting up res4b
I1021 23:15:39.181102 25759 net.cpp:157] Top shape: 1 1024 60 80 (4915200)
I1021 23:15:39.181107 25759 net.cpp:165] Memory required for data: 4703846484
I1021 23:15:39.181108 25759 layer_factory.hpp:77] Creating layer res4b_relu
I1021 23:15:39.181113 25759 net.cpp:100] Creating Layer res4b_relu
I1021 23:15:39.181116 25759 net.cpp:444] res4b_relu <- res4b
I1021 23:15:39.181121 25759 net.cpp:405] res4b_relu -> res4b (in-place)
I1021 23:15:39.181340 25759 net.cpp:150] Setting up res4b_relu
I1021 23:15:39.181349 25759 net.cpp:157] Top shape: 1 1024 60 80 (4915200)
I1021 23:15:39.181351 25759 net.cpp:165] Memory required for data: 4723507284
I1021 23:15:39.181354 25759 layer_factory.hpp:77] Creating layer res4b_res4b_relu_0_split
I1021 23:15:39.181360 25759 net.cpp:100] Creating Layer res4b_res4b_relu_0_split
I1021 23:15:39.181362 25759 net.cpp:444] res4b_res4b_relu_0_split <- res4b
I1021 23:15:39.181370 25759 net.cpp:418] res4b_res4b_relu_0_split -> res4b_res4b_relu_0_split_0
I1021 23:15:39.181375 25759 net.cpp:418] res4b_res4b_relu_0_split -> res4b_res4b_relu_0_split_1
I1021 23:15:39.181444 25759 net.cpp:150] Setting up res4b_res4b_relu_0_split
I1021 23:15:39.181450 25759 net.cpp:157] Top shape: 1 1024 60 80 (4915200)
I1021 23:15:39.181454 25759 net.cpp:157] Top shape: 1 1024 60 80 (4915200)
I1021 23:15:39.181457 25759 net.cpp:165] Memory required for data: 4762828884
I1021 23:15:39.181459 25759 layer_factory.hpp:77] Creating layer res4c_branch2a
I1021 23:15:39.181468 25759 net.cpp:100] Creating Layer res4c_branch2a
I1021 23:15:39.181471 25759 net.cpp:444] res4c_branch2a <- res4b_res4b_relu_0_split_0
I1021 23:15:39.181478 25759 net.cpp:418] res4c_branch2a -> res4c_branch2a
I1021 23:15:39.184265 25759 net.cpp:150] Setting up res4c_branch2a
I1021 23:15:39.184278 25759 net.cpp:157] Top shape: 1 256 60 80 (1228800)
I1021 23:15:39.184295 25759 net.cpp:165] Memory required for data: 4767744084
I1021 23:15:39.184300 25759 layer_factory.hpp:77] Creating layer bn4c_branch2a
I1021 23:15:39.184306 25759 net.cpp:100] Creating Layer bn4c_branch2a
I1021 23:15:39.184309 25759 net.cpp:444] bn4c_branch2a <- res4c_branch2a
I1021 23:15:39.184316 25759 net.cpp:405] bn4c_branch2a -> res4c_branch2a (in-place)
I1021 23:15:39.184705 25759 net.cpp:150] Setting up bn4c_branch2a
I1021 23:15:39.184712 25759 net.cpp:157] Top shape: 1 256 60 80 (1228800)
I1021 23:15:39.184715 25759 net.cpp:165] Memory required for data: 4772659284
I1021 23:15:39.184737 25759 layer_factory.hpp:77] Creating layer scale4c_branch2a
I1021 23:15:39.184742 25759 net.cpp:100] Creating Layer scale4c_branch2a
I1021 23:15:39.184746 25759 net.cpp:444] scale4c_branch2a <- res4c_branch2a
I1021 23:15:39.184753 25759 net.cpp:405] scale4c_branch2a -> res4c_branch2a (in-place)
I1021 23:15:39.184831 25759 layer_factory.hpp:77] Creating layer scale4c_branch2a
I1021 23:15:39.185036 25759 net.cpp:150] Setting up scale4c_branch2a
I1021 23:15:39.185045 25759 net.cpp:157] Top shape: 1 256 60 80 (1228800)
I1021 23:15:39.185046 25759 net.cpp:165] Memory required for data: 4777574484
I1021 23:15:39.185051 25759 layer_factory.hpp:77] Creating layer res4c_branch2a_relu
I1021 23:15:39.185056 25759 net.cpp:100] Creating Layer res4c_branch2a_relu
I1021 23:15:39.185060 25759 net.cpp:444] res4c_branch2a_relu <- res4c_branch2a
I1021 23:15:39.185065 25759 net.cpp:405] res4c_branch2a_relu -> res4c_branch2a (in-place)
I1021 23:15:39.185262 25759 net.cpp:150] Setting up res4c_branch2a_relu
I1021 23:15:39.185271 25759 net.cpp:157] Top shape: 1 256 60 80 (1228800)
I1021 23:15:39.185274 25759 net.cpp:165] Memory required for data: 4782489684
I1021 23:15:39.185276 25759 layer_factory.hpp:77] Creating layer res4c_branch2b
I1021 23:15:39.185286 25759 net.cpp:100] Creating Layer res4c_branch2b
I1021 23:15:39.185288 25759 net.cpp:444] res4c_branch2b <- res4c_branch2a
I1021 23:15:39.185294 25759 net.cpp:418] res4c_branch2b -> res4c_branch2b
I1021 23:15:39.189980 25759 net.cpp:150] Setting up res4c_branch2b
I1021 23:15:39.189991 25759 net.cpp:157] Top shape: 1 256 60 80 (1228800)
I1021 23:15:39.190009 25759 net.cpp:165] Memory required for data: 4787404884
I1021 23:15:39.190014 25759 layer_factory.hpp:77] Creating layer bn4c_branch2b
I1021 23:15:39.190022 25759 net.cpp:100] Creating Layer bn4c_branch2b
I1021 23:15:39.190028 25759 net.cpp:444] bn4c_branch2b <- res4c_branch2b
I1021 23:15:39.190032 25759 net.cpp:405] bn4c_branch2b -> res4c_branch2b (in-place)
I1021 23:15:39.190420 25759 net.cpp:150] Setting up bn4c_branch2b
I1021 23:15:39.190428 25759 net.cpp:157] Top shape: 1 256 60 80 (1228800)
I1021 23:15:39.190430 25759 net.cpp:165] Memory required for data: 4792320084
I1021 23:15:39.190451 25759 layer_factory.hpp:77] Creating layer scale4c_branch2b
I1021 23:15:39.190459 25759 net.cpp:100] Creating Layer scale4c_branch2b
I1021 23:15:39.190461 25759 net.cpp:444] scale4c_branch2b <- res4c_branch2b
I1021 23:15:39.190466 25759 net.cpp:405] scale4c_branch2b -> res4c_branch2b (in-place)
I1021 23:15:39.190544 25759 layer_factory.hpp:77] Creating layer scale4c_branch2b
I1021 23:15:39.190743 25759 net.cpp:150] Setting up scale4c_branch2b
I1021 23:15:39.190750 25759 net.cpp:157] Top shape: 1 256 60 80 (1228800)
I1021 23:15:39.190753 25759 net.cpp:165] Memory required for data: 4797235284
I1021 23:15:39.190758 25759 layer_factory.hpp:77] Creating layer res4c_branch2b_relu
I1021 23:15:39.190764 25759 net.cpp:100] Creating Layer res4c_branch2b_relu
I1021 23:15:39.190768 25759 net.cpp:444] res4c_branch2b_relu <- res4c_branch2b
I1021 23:15:39.190771 25759 net.cpp:405] res4c_branch2b_relu -> res4c_branch2b (in-place)
I1021 23:15:39.191597 25759 net.cpp:150] Setting up res4c_branch2b_relu
I1021 23:15:39.191607 25759 net.cpp:157] Top shape: 1 256 60 80 (1228800)
I1021 23:15:39.191609 25759 net.cpp:165] Memory required for data: 4802150484
I1021 23:15:39.191628 25759 layer_factory.hpp:77] Creating layer res4c_branch2c
I1021 23:15:39.191637 25759 net.cpp:100] Creating Layer res4c_branch2c
I1021 23:15:39.191642 25759 net.cpp:444] res4c_branch2c <- res4c_branch2b
I1021 23:15:39.191648 25759 net.cpp:418] res4c_branch2c -> res4c_branch2c
I1021 23:15:39.198561 25759 net.cpp:150] Setting up res4c_branch2c
I1021 23:15:39.198593 25759 net.cpp:157] Top shape: 1 1024 60 80 (4915200)
I1021 23:15:39.198596 25759 net.cpp:165] Memory required for data: 4821811284
I1021 23:15:39.198603 25759 layer_factory.hpp:77] Creating layer bn4c_branch2c
I1021 23:15:39.198613 25759 net.cpp:100] Creating Layer bn4c_branch2c
I1021 23:15:39.198617 25759 net.cpp:444] bn4c_branch2c <- res4c_branch2c
I1021 23:15:39.198623 25759 net.cpp:405] bn4c_branch2c -> res4c_branch2c (in-place)
I1021 23:15:39.199023 25759 net.cpp:150] Setting up bn4c_branch2c
I1021 23:15:39.199030 25759 net.cpp:157] Top shape: 1 1024 60 80 (4915200)
I1021 23:15:39.199033 25759 net.cpp:165] Memory required for data: 4841472084
I1021 23:15:39.199054 25759 layer_factory.hpp:77] Creating layer scale4c_branch2c
I1021 23:15:39.199062 25759 net.cpp:100] Creating Layer scale4c_branch2c
I1021 23:15:39.199065 25759 net.cpp:444] scale4c_branch2c <- res4c_branch2c
I1021 23:15:39.199070 25759 net.cpp:405] scale4c_branch2c -> res4c_branch2c (in-place)
I1021 23:15:39.199143 25759 layer_factory.hpp:77] Creating layer scale4c_branch2c
I1021 23:15:39.199367 25759 net.cpp:150] Setting up scale4c_branch2c
I1021 23:15:39.199373 25759 net.cpp:157] Top shape: 1 1024 60 80 (4915200)
I1021 23:15:39.199376 25759 net.cpp:165] Memory required for data: 4861132884
I1021 23:15:39.199383 25759 layer_factory.hpp:77] Creating layer res4c
I1021 23:15:39.199390 25759 net.cpp:100] Creating Layer res4c
I1021 23:15:39.199393 25759 net.cpp:444] res4c <- res4b_res4b_relu_0_split_1
I1021 23:15:39.199398 25759 net.cpp:444] res4c <- res4c_branch2c
I1021 23:15:39.199403 25759 net.cpp:418] res4c -> res4c
I1021 23:15:39.199440 25759 net.cpp:150] Setting up res4c
I1021 23:15:39.199447 25759 net.cpp:157] Top shape: 1 1024 60 80 (4915200)
I1021 23:15:39.199450 25759 net.cpp:165] Memory required for data: 4880793684
I1021 23:15:39.199453 25759 layer_factory.hpp:77] Creating layer res4c_relu
I1021 23:15:39.199457 25759 net.cpp:100] Creating Layer res4c_relu
I1021 23:15:39.199460 25759 net.cpp:444] res4c_relu <- res4c
I1021 23:15:39.199466 25759 net.cpp:405] res4c_relu -> res4c (in-place)
I1021 23:15:39.199685 25759 net.cpp:150] Setting up res4c_relu
I1021 23:15:39.199708 25759 net.cpp:157] Top shape: 1 1024 60 80 (4915200)
I1021 23:15:39.199712 25759 net.cpp:165] Memory required for data: 4900454484
I1021 23:15:39.199714 25759 layer_factory.hpp:77] Creating layer res4c_res4c_relu_0_split
I1021 23:15:39.199721 25759 net.cpp:100] Creating Layer res4c_res4c_relu_0_split
I1021 23:15:39.199724 25759 net.cpp:444] res4c_res4c_relu_0_split <- res4c
I1021 23:15:39.199729 25759 net.cpp:418] res4c_res4c_relu_0_split -> res4c_res4c_relu_0_split_0
I1021 23:15:39.199735 25759 net.cpp:418] res4c_res4c_relu_0_split -> res4c_res4c_relu_0_split_1
I1021 23:15:39.199802 25759 net.cpp:150] Setting up res4c_res4c_relu_0_split
I1021 23:15:39.199810 25759 net.cpp:157] Top shape: 1 1024 60 80 (4915200)
I1021 23:15:39.199815 25759 net.cpp:157] Top shape: 1 1024 60 80 (4915200)
I1021 23:15:39.199816 25759 net.cpp:165] Memory required for data: 4939776084
I1021 23:15:39.199820 25759 layer_factory.hpp:77] Creating layer res4d_branch2a
I1021 23:15:39.199827 25759 net.cpp:100] Creating Layer res4d_branch2a
I1021 23:15:39.199831 25759 net.cpp:444] res4d_branch2a <- res4c_res4c_relu_0_split_0
I1021 23:15:39.199836 25759 net.cpp:418] res4d_branch2a -> res4d_branch2a
I1021 23:15:39.201581 25759 net.cpp:150] Setting up res4d_branch2a
I1021 23:15:39.201593 25759 net.cpp:157] Top shape: 1 256 60 80 (1228800)
I1021 23:15:39.201611 25759 net.cpp:165] Memory required for data: 4944691284
I1021 23:15:39.201616 25759 layer_factory.hpp:77] Creating layer bn4d_branch2a
I1021 23:15:39.201623 25759 net.cpp:100] Creating Layer bn4d_branch2a
I1021 23:15:39.201627 25759 net.cpp:444] bn4d_branch2a <- res4d_branch2a
I1021 23:15:39.201632 25759 net.cpp:405] bn4d_branch2a -> res4d_branch2a (in-place)
I1021 23:15:39.202050 25759 net.cpp:150] Setting up bn4d_branch2a
I1021 23:15:39.202057 25759 net.cpp:157] Top shape: 1 256 60 80 (1228800)
I1021 23:15:39.202060 25759 net.cpp:165] Memory required for data: 4949606484
I1021 23:15:39.202081 25759 layer_factory.hpp:77] Creating layer scale4d_branch2a
I1021 23:15:39.202088 25759 net.cpp:100] Creating Layer scale4d_branch2a
I1021 23:15:39.202092 25759 net.cpp:444] scale4d_branch2a <- res4d_branch2a
I1021 23:15:39.202097 25759 net.cpp:405] scale4d_branch2a -> res4d_branch2a (in-place)
I1021 23:15:39.202177 25759 layer_factory.hpp:77] Creating layer scale4d_branch2a
I1021 23:15:39.202380 25759 net.cpp:150] Setting up scale4d_branch2a
I1021 23:15:39.202389 25759 net.cpp:157] Top shape: 1 256 60 80 (1228800)
I1021 23:15:39.202390 25759 net.cpp:165] Memory required for data: 4954521684
I1021 23:15:39.202395 25759 layer_factory.hpp:77] Creating layer res4d_branch2a_relu
I1021 23:15:39.202400 25759 net.cpp:100] Creating Layer res4d_branch2a_relu
I1021 23:15:39.202404 25759 net.cpp:444] res4d_branch2a_relu <- res4d_branch2a
I1021 23:15:39.202409 25759 net.cpp:405] res4d_branch2a_relu -> res4d_branch2a (in-place)
I1021 23:15:39.202636 25759 net.cpp:150] Setting up res4d_branch2a_relu
I1021 23:15:39.202646 25759 net.cpp:157] Top shape: 1 256 60 80 (1228800)
I1021 23:15:39.202648 25759 net.cpp:165] Memory required for data: 4959436884
I1021 23:15:39.202651 25759 layer_factory.hpp:77] Creating layer res4d_branch2b
I1021 23:15:39.202661 25759 net.cpp:100] Creating Layer res4d_branch2b
I1021 23:15:39.202666 25759 net.cpp:444] res4d_branch2b <- res4d_branch2a
I1021 23:15:39.202672 25759 net.cpp:418] res4d_branch2b -> res4d_branch2b
I1021 23:15:39.213994 25759 net.cpp:150] Setting up res4d_branch2b
I1021 23:15:39.214032 25759 net.cpp:157] Top shape: 1 256 60 80 (1228800)
I1021 23:15:39.214035 25759 net.cpp:165] Memory required for data: 4964352084
I1021 23:15:39.214046 25759 layer_factory.hpp:77] Creating layer bn4d_branch2b
I1021 23:15:39.214057 25759 net.cpp:100] Creating Layer bn4d_branch2b
I1021 23:15:39.214061 25759 net.cpp:444] bn4d_branch2b <- res4d_branch2b
I1021 23:15:39.214069 25759 net.cpp:405] bn4d_branch2b -> res4d_branch2b (in-place)
I1021 23:15:39.214504 25759 net.cpp:150] Setting up bn4d_branch2b
I1021 23:15:39.214511 25759 net.cpp:157] Top shape: 1 256 60 80 (1228800)
I1021 23:15:39.214514 25759 net.cpp:165] Memory required for data: 4969267284
I1021 23:15:39.214536 25759 layer_factory.hpp:77] Creating layer scale4d_branch2b
I1021 23:15:39.214545 25759 net.cpp:100] Creating Layer scale4d_branch2b
I1021 23:15:39.214550 25759 net.cpp:444] scale4d_branch2b <- res4d_branch2b
I1021 23:15:39.214555 25759 net.cpp:405] scale4d_branch2b -> res4d_branch2b (in-place)
I1021 23:15:39.214639 25759 layer_factory.hpp:77] Creating layer scale4d_branch2b
I1021 23:15:39.214849 25759 net.cpp:150] Setting up scale4d_branch2b
I1021 23:15:39.214856 25759 net.cpp:157] Top shape: 1 256 60 80 (1228800)
I1021 23:15:39.214859 25759 net.cpp:165] Memory required for data: 4974182484
I1021 23:15:39.214864 25759 layer_factory.hpp:77] Creating layer res4d_branch2b_relu
I1021 23:15:39.214871 25759 net.cpp:100] Creating Layer res4d_branch2b_relu
I1021 23:15:39.214874 25759 net.cpp:444] res4d_branch2b_relu <- res4d_branch2b
I1021 23:15:39.214879 25759 net.cpp:405] res4d_branch2b_relu -> res4d_branch2b (in-place)
I1021 23:15:39.215754 25759 net.cpp:150] Setting up res4d_branch2b_relu
I1021 23:15:39.215766 25759 net.cpp:157] Top shape: 1 256 60 80 (1228800)
I1021 23:15:39.215785 25759 net.cpp:165] Memory required for data: 4979097684
I1021 23:15:39.215787 25759 layer_factory.hpp:77] Creating layer res4d_branch2c
I1021 23:15:39.215796 25759 net.cpp:100] Creating Layer res4d_branch2c
I1021 23:15:39.215801 25759 net.cpp:444] res4d_branch2c <- res4d_branch2b
I1021 23:15:39.215808 25759 net.cpp:418] res4d_branch2c -> res4d_branch2c
I1021 23:15:39.219977 25759 net.cpp:150] Setting up res4d_branch2c
I1021 23:15:39.219991 25759 net.cpp:157] Top shape: 1 1024 60 80 (4915200)
I1021 23:15:39.220010 25759 net.cpp:165] Memory required for data: 4998758484
I1021 23:15:39.220016 25759 layer_factory.hpp:77] Creating layer bn4d_branch2c
I1021 23:15:39.220022 25759 net.cpp:100] Creating Layer bn4d_branch2c
I1021 23:15:39.220027 25759 net.cpp:444] bn4d_branch2c <- res4d_branch2c
I1021 23:15:39.220034 25759 net.cpp:405] bn4d_branch2c -> res4d_branch2c (in-place)
I1021 23:15:39.220448 25759 net.cpp:150] Setting up bn4d_branch2c
I1021 23:15:39.220454 25759 net.cpp:157] Top shape: 1 1024 60 80 (4915200)
I1021 23:15:39.220458 25759 net.cpp:165] Memory required for data: 5018419284
I1021 23:15:39.220479 25759 layer_factory.hpp:77] Creating layer scale4d_branch2c
I1021 23:15:39.220485 25759 net.cpp:100] Creating Layer scale4d_branch2c
I1021 23:15:39.220489 25759 net.cpp:444] scale4d_branch2c <- res4d_branch2c
I1021 23:15:39.220495 25759 net.cpp:405] scale4d_branch2c -> res4d_branch2c (in-place)
I1021 23:15:39.220571 25759 layer_factory.hpp:77] Creating layer scale4d_branch2c
I1021 23:15:39.220801 25759 net.cpp:150] Setting up scale4d_branch2c
I1021 23:15:39.220809 25759 net.cpp:157] Top shape: 1 1024 60 80 (4915200)
I1021 23:15:39.220813 25759 net.cpp:165] Memory required for data: 5038080084
I1021 23:15:39.220818 25759 layer_factory.hpp:77] Creating layer res4d
I1021 23:15:39.220824 25759 net.cpp:100] Creating Layer res4d
I1021 23:15:39.220826 25759 net.cpp:444] res4d <- res4c_res4c_relu_0_split_1
I1021 23:15:39.220830 25759 net.cpp:444] res4d <- res4d_branch2c
I1021 23:15:39.220835 25759 net.cpp:418] res4d -> res4d
I1021 23:15:39.220875 25759 net.cpp:150] Setting up res4d
I1021 23:15:39.220881 25759 net.cpp:157] Top shape: 1 1024 60 80 (4915200)
I1021 23:15:39.220885 25759 net.cpp:165] Memory required for data: 5057740884
I1021 23:15:39.220887 25759 layer_factory.hpp:77] Creating layer res4d_relu
I1021 23:15:39.220892 25759 net.cpp:100] Creating Layer res4d_relu
I1021 23:15:39.220896 25759 net.cpp:444] res4d_relu <- res4d
I1021 23:15:39.220899 25759 net.cpp:405] res4d_relu -> res4d (in-place)
I1021 23:15:39.221103 25759 net.cpp:150] Setting up res4d_relu
I1021 23:15:39.221113 25759 net.cpp:157] Top shape: 1 1024 60 80 (4915200)
I1021 23:15:39.221115 25759 net.cpp:165] Memory required for data: 5077401684
I1021 23:15:39.221118 25759 layer_factory.hpp:77] Creating layer res4d_res4d_relu_0_split
I1021 23:15:39.221124 25759 net.cpp:100] Creating Layer res4d_res4d_relu_0_split
I1021 23:15:39.221127 25759 net.cpp:444] res4d_res4d_relu_0_split <- res4d
I1021 23:15:39.221133 25759 net.cpp:418] res4d_res4d_relu_0_split -> res4d_res4d_relu_0_split_0
I1021 23:15:39.221139 25759 net.cpp:418] res4d_res4d_relu_0_split -> res4d_res4d_relu_0_split_1
I1021 23:15:39.221209 25759 net.cpp:150] Setting up res4d_res4d_relu_0_split
I1021 23:15:39.221215 25759 net.cpp:157] Top shape: 1 1024 60 80 (4915200)
I1021 23:15:39.221220 25759 net.cpp:157] Top shape: 1 1024 60 80 (4915200)
I1021 23:15:39.221221 25759 net.cpp:165] Memory required for data: 5116723284
I1021 23:15:39.221225 25759 layer_factory.hpp:77] Creating layer res4e_branch2a
I1021 23:15:39.221233 25759 net.cpp:100] Creating Layer res4e_branch2a
I1021 23:15:39.221236 25759 net.cpp:444] res4e_branch2a <- res4d_res4d_relu_0_split_0
I1021 23:15:39.221242 25759 net.cpp:418] res4e_branch2a -> res4e_branch2a
I1021 23:15:39.224156 25759 net.cpp:150] Setting up res4e_branch2a
I1021 23:15:39.224169 25759 net.cpp:157] Top shape: 1 256 60 80 (1228800)
I1021 23:15:39.224171 25759 net.cpp:165] Memory required for data: 5121638484
I1021 23:15:39.224191 25759 layer_factory.hpp:77] Creating layer bn4e_branch2a
I1021 23:15:39.224200 25759 net.cpp:100] Creating Layer bn4e_branch2a
I1021 23:15:39.224203 25759 net.cpp:444] bn4e_branch2a <- res4e_branch2a
I1021 23:15:39.224210 25759 net.cpp:405] bn4e_branch2a -> res4e_branch2a (in-place)
I1021 23:15:39.224591 25759 net.cpp:150] Setting up bn4e_branch2a
I1021 23:15:39.224599 25759 net.cpp:157] Top shape: 1 256 60 80 (1228800)
I1021 23:15:39.224602 25759 net.cpp:165] Memory required for data: 5126553684
I1021 23:15:39.224637 25759 layer_factory.hpp:77] Creating layer scale4e_branch2a
I1021 23:15:39.224644 25759 net.cpp:100] Creating Layer scale4e_branch2a
I1021 23:15:39.224648 25759 net.cpp:444] scale4e_branch2a <- res4e_branch2a
I1021 23:15:39.224653 25759 net.cpp:405] scale4e_branch2a -> res4e_branch2a (in-place)
I1021 23:15:39.224720 25759 layer_factory.hpp:77] Creating layer scale4e_branch2a
I1021 23:15:39.224927 25759 net.cpp:150] Setting up scale4e_branch2a
I1021 23:15:39.224936 25759 net.cpp:157] Top shape: 1 256 60 80 (1228800)
I1021 23:15:39.224937 25759 net.cpp:165] Memory required for data: 5131468884
I1021 23:15:39.224942 25759 layer_factory.hpp:77] Creating layer res4e_branch2a_relu
I1021 23:15:39.224949 25759 net.cpp:100] Creating Layer res4e_branch2a_relu
I1021 23:15:39.224952 25759 net.cpp:444] res4e_branch2a_relu <- res4e_branch2a
I1021 23:15:39.224956 25759 net.cpp:405] res4e_branch2a_relu -> res4e_branch2a (in-place)
I1021 23:15:39.225160 25759 net.cpp:150] Setting up res4e_branch2a_relu
I1021 23:15:39.225169 25759 net.cpp:157] Top shape: 1 256 60 80 (1228800)
I1021 23:15:39.225172 25759 net.cpp:165] Memory required for data: 5136384084
I1021 23:15:39.225175 25759 layer_factory.hpp:77] Creating layer res4e_branch2b
I1021 23:15:39.225183 25759 net.cpp:100] Creating Layer res4e_branch2b
I1021 23:15:39.225186 25759 net.cpp:444] res4e_branch2b <- res4e_branch2a
I1021 23:15:39.225191 25759 net.cpp:418] res4e_branch2b -> res4e_branch2b
I1021 23:15:39.229562 25759 net.cpp:150] Setting up res4e_branch2b
I1021 23:15:39.229575 25759 net.cpp:157] Top shape: 1 256 60 80 (1228800)
I1021 23:15:39.229593 25759 net.cpp:165] Memory required for data: 5141299284
I1021 23:15:39.229599 25759 layer_factory.hpp:77] Creating layer bn4e_branch2b
I1021 23:15:39.229605 25759 net.cpp:100] Creating Layer bn4e_branch2b
I1021 23:15:39.229609 25759 net.cpp:444] bn4e_branch2b <- res4e_branch2b
I1021 23:15:39.229615 25759 net.cpp:405] bn4e_branch2b -> res4e_branch2b (in-place)
I1021 23:15:39.230032 25759 net.cpp:150] Setting up bn4e_branch2b
I1021 23:15:39.230039 25759 net.cpp:157] Top shape: 1 256 60 80 (1228800)
I1021 23:15:39.230041 25759 net.cpp:165] Memory required for data: 5146214484
I1021 23:15:39.230062 25759 layer_factory.hpp:77] Creating layer scale4e_branch2b
I1021 23:15:39.230070 25759 net.cpp:100] Creating Layer scale4e_branch2b
I1021 23:15:39.230072 25759 net.cpp:444] scale4e_branch2b <- res4e_branch2b
I1021 23:15:39.230078 25759 net.cpp:405] scale4e_branch2b -> res4e_branch2b (in-place)
I1021 23:15:39.230156 25759 layer_factory.hpp:77] Creating layer scale4e_branch2b
I1021 23:15:39.230362 25759 net.cpp:150] Setting up scale4e_branch2b
I1021 23:15:39.230370 25759 net.cpp:157] Top shape: 1 256 60 80 (1228800)
I1021 23:15:39.230372 25759 net.cpp:165] Memory required for data: 5151129684
I1021 23:15:39.230376 25759 layer_factory.hpp:77] Creating layer res4e_branch2b_relu
I1021 23:15:39.230381 25759 net.cpp:100] Creating Layer res4e_branch2b_relu
I1021 23:15:39.230384 25759 net.cpp:444] res4e_branch2b_relu <- res4e_branch2b
I1021 23:15:39.230389 25759 net.cpp:405] res4e_branch2b_relu -> res4e_branch2b (in-place)
I1021 23:15:39.231220 25759 net.cpp:150] Setting up res4e_branch2b_relu
I1021 23:15:39.231230 25759 net.cpp:157] Top shape: 1 256 60 80 (1228800)
I1021 23:15:39.231232 25759 net.cpp:165] Memory required for data: 5156044884
I1021 23:15:39.231251 25759 layer_factory.hpp:77] Creating layer res4e_branch2c
I1021 23:15:39.231259 25759 net.cpp:100] Creating Layer res4e_branch2c
I1021 23:15:39.231262 25759 net.cpp:444] res4e_branch2c <- res4e_branch2b
I1021 23:15:39.231268 25759 net.cpp:418] res4e_branch2c -> res4e_branch2c
I1021 23:15:39.234679 25759 net.cpp:150] Setting up res4e_branch2c
I1021 23:15:39.234691 25759 net.cpp:157] Top shape: 1 1024 60 80 (4915200)
I1021 23:15:39.234709 25759 net.cpp:165] Memory required for data: 5175705684
I1021 23:15:39.234714 25759 layer_factory.hpp:77] Creating layer bn4e_branch2c
I1021 23:15:39.234721 25759 net.cpp:100] Creating Layer bn4e_branch2c
I1021 23:15:39.234725 25759 net.cpp:444] bn4e_branch2c <- res4e_branch2c
I1021 23:15:39.234731 25759 net.cpp:405] bn4e_branch2c -> res4e_branch2c (in-place)
I1021 23:15:39.235121 25759 net.cpp:150] Setting up bn4e_branch2c
I1021 23:15:39.235127 25759 net.cpp:157] Top shape: 1 1024 60 80 (4915200)
I1021 23:15:39.235129 25759 net.cpp:165] Memory required for data: 5195366484
I1021 23:15:39.235152 25759 layer_factory.hpp:77] Creating layer scale4e_branch2c
I1021 23:15:39.235158 25759 net.cpp:100] Creating Layer scale4e_branch2c
I1021 23:15:39.235162 25759 net.cpp:444] scale4e_branch2c <- res4e_branch2c
I1021 23:15:39.235167 25759 net.cpp:405] scale4e_branch2c -> res4e_branch2c (in-place)
I1021 23:15:39.235241 25759 layer_factory.hpp:77] Creating layer scale4e_branch2c
I1021 23:15:39.235453 25759 net.cpp:150] Setting up scale4e_branch2c
I1021 23:15:39.235460 25759 net.cpp:157] Top shape: 1 1024 60 80 (4915200)
I1021 23:15:39.235462 25759 net.cpp:165] Memory required for data: 5215027284
I1021 23:15:39.235468 25759 layer_factory.hpp:77] Creating layer res4e
I1021 23:15:39.235473 25759 net.cpp:100] Creating Layer res4e
I1021 23:15:39.235476 25759 net.cpp:444] res4e <- res4d_res4d_relu_0_split_1
I1021 23:15:39.235479 25759 net.cpp:444] res4e <- res4e_branch2c
I1021 23:15:39.235483 25759 net.cpp:418] res4e -> res4e
I1021 23:15:39.235522 25759 net.cpp:150] Setting up res4e
I1021 23:15:39.235528 25759 net.cpp:157] Top shape: 1 1024 60 80 (4915200)
I1021 23:15:39.235532 25759 net.cpp:165] Memory required for data: 5234688084
I1021 23:15:39.235533 25759 layer_factory.hpp:77] Creating layer res4e_relu
I1021 23:15:39.235538 25759 net.cpp:100] Creating Layer res4e_relu
I1021 23:15:39.235540 25759 net.cpp:444] res4e_relu <- res4e
I1021 23:15:39.235544 25759 net.cpp:405] res4e_relu -> res4e (in-place)
I1021 23:15:39.235761 25759 net.cpp:150] Setting up res4e_relu
I1021 23:15:39.235770 25759 net.cpp:157] Top shape: 1 1024 60 80 (4915200)
I1021 23:15:39.235772 25759 net.cpp:165] Memory required for data: 5254348884
I1021 23:15:39.235775 25759 layer_factory.hpp:77] Creating layer res4e_res4e_relu_0_split
I1021 23:15:39.235780 25759 net.cpp:100] Creating Layer res4e_res4e_relu_0_split
I1021 23:15:39.235783 25759 net.cpp:444] res4e_res4e_relu_0_split <- res4e
I1021 23:15:39.235790 25759 net.cpp:418] res4e_res4e_relu_0_split -> res4e_res4e_relu_0_split_0
I1021 23:15:39.235796 25759 net.cpp:418] res4e_res4e_relu_0_split -> res4e_res4e_relu_0_split_1
I1021 23:15:39.235882 25759 net.cpp:150] Setting up res4e_res4e_relu_0_split
I1021 23:15:39.235888 25759 net.cpp:157] Top shape: 1 1024 60 80 (4915200)
I1021 23:15:39.235893 25759 net.cpp:157] Top shape: 1 1024 60 80 (4915200)
I1021 23:15:39.235895 25759 net.cpp:165] Memory required for data: 5293670484
I1021 23:15:39.235898 25759 layer_factory.hpp:77] Creating layer res4f_branch2a
I1021 23:15:39.235906 25759 net.cpp:100] Creating Layer res4f_branch2a
I1021 23:15:39.235909 25759 net.cpp:444] res4f_branch2a <- res4e_res4e_relu_0_split_0
I1021 23:15:39.235915 25759 net.cpp:418] res4f_branch2a -> res4f_branch2a
I1021 23:15:39.238402 25759 net.cpp:150] Setting up res4f_branch2a
I1021 23:15:39.238416 25759 net.cpp:157] Top shape: 1 256 60 80 (1228800)
I1021 23:15:39.238435 25759 net.cpp:165] Memory required for data: 5298585684
I1021 23:15:39.238440 25759 layer_factory.hpp:77] Creating layer bn4f_branch2a
I1021 23:15:39.238445 25759 net.cpp:100] Creating Layer bn4f_branch2a
I1021 23:15:39.238449 25759 net.cpp:444] bn4f_branch2a <- res4f_branch2a
I1021 23:15:39.238456 25759 net.cpp:405] bn4f_branch2a -> res4f_branch2a (in-place)
I1021 23:15:39.238847 25759 net.cpp:150] Setting up bn4f_branch2a
I1021 23:15:39.238854 25759 net.cpp:157] Top shape: 1 256 60 80 (1228800)
I1021 23:15:39.238857 25759 net.cpp:165] Memory required for data: 5303500884
I1021 23:15:39.238878 25759 layer_factory.hpp:77] Creating layer scale4f_branch2a
I1021 23:15:39.238888 25759 net.cpp:100] Creating Layer scale4f_branch2a
I1021 23:15:39.238890 25759 net.cpp:444] scale4f_branch2a <- res4f_branch2a
I1021 23:15:39.238895 25759 net.cpp:405] scale4f_branch2a -> res4f_branch2a (in-place)
I1021 23:15:39.238972 25759 layer_factory.hpp:77] Creating layer scale4f_branch2a
I1021 23:15:39.239178 25759 net.cpp:150] Setting up scale4f_branch2a
I1021 23:15:39.239186 25759 net.cpp:157] Top shape: 1 256 60 80 (1228800)
I1021 23:15:39.239188 25759 net.cpp:165] Memory required for data: 5308416084
I1021 23:15:39.239192 25759 layer_factory.hpp:77] Creating layer res4f_branch2a_relu
I1021 23:15:39.239197 25759 net.cpp:100] Creating Layer res4f_branch2a_relu
I1021 23:15:39.239200 25759 net.cpp:444] res4f_branch2a_relu <- res4f_branch2a
I1021 23:15:39.239205 25759 net.cpp:405] res4f_branch2a_relu -> res4f_branch2a (in-place)
I1021 23:15:39.239400 25759 net.cpp:150] Setting up res4f_branch2a_relu
I1021 23:15:39.239408 25759 net.cpp:157] Top shape: 1 256 60 80 (1228800)
I1021 23:15:39.239410 25759 net.cpp:165] Memory required for data: 5313331284
I1021 23:15:39.239413 25759 layer_factory.hpp:77] Creating layer res4f_branch2b
I1021 23:15:39.239421 25759 net.cpp:100] Creating Layer res4f_branch2b
I1021 23:15:39.239424 25759 net.cpp:444] res4f_branch2b <- res4f_branch2a
I1021 23:15:39.239431 25759 net.cpp:418] res4f_branch2b -> res4f_branch2b
I1021 23:15:39.244705 25759 net.cpp:150] Setting up res4f_branch2b
I1021 23:15:39.244719 25759 net.cpp:157] Top shape: 1 256 60 80 (1228800)
I1021 23:15:39.244736 25759 net.cpp:165] Memory required for data: 5318246484
I1021 23:15:39.244742 25759 layer_factory.hpp:77] Creating layer bn4f_branch2b
I1021 23:15:39.244751 25759 net.cpp:100] Creating Layer bn4f_branch2b
I1021 23:15:39.244755 25759 net.cpp:444] bn4f_branch2b <- res4f_branch2b
I1021 23:15:39.244760 25759 net.cpp:405] bn4f_branch2b -> res4f_branch2b (in-place)
I1021 23:15:39.245158 25759 net.cpp:150] Setting up bn4f_branch2b
I1021 23:15:39.245165 25759 net.cpp:157] Top shape: 1 256 60 80 (1228800)
I1021 23:15:39.245168 25759 net.cpp:165] Memory required for data: 5323161684
I1021 23:15:39.245189 25759 layer_factory.hpp:77] Creating layer scale4f_branch2b
I1021 23:15:39.245199 25759 net.cpp:100] Creating Layer scale4f_branch2b
I1021 23:15:39.245203 25759 net.cpp:444] scale4f_branch2b <- res4f_branch2b
I1021 23:15:39.245206 25759 net.cpp:405] scale4f_branch2b -> res4f_branch2b (in-place)
I1021 23:15:39.245287 25759 layer_factory.hpp:77] Creating layer scale4f_branch2b
I1021 23:15:39.245503 25759 net.cpp:150] Setting up scale4f_branch2b
I1021 23:15:39.245512 25759 net.cpp:157] Top shape: 1 256 60 80 (1228800)
I1021 23:15:39.245513 25759 net.cpp:165] Memory required for data: 5328076884
I1021 23:15:39.245518 25759 layer_factory.hpp:77] Creating layer res4f_branch2b_relu
I1021 23:15:39.245525 25759 net.cpp:100] Creating Layer res4f_branch2b_relu
I1021 23:15:39.245528 25759 net.cpp:444] res4f_branch2b_relu <- res4f_branch2b
I1021 23:15:39.245532 25759 net.cpp:405] res4f_branch2b_relu -> res4f_branch2b (in-place)
I1021 23:15:39.245748 25759 net.cpp:150] Setting up res4f_branch2b_relu
I1021 23:15:39.245759 25759 net.cpp:157] Top shape: 1 256 60 80 (1228800)
I1021 23:15:39.245761 25759 net.cpp:165] Memory required for data: 5332992084
I1021 23:15:39.245764 25759 layer_factory.hpp:77] Creating layer res4f_branch2c
I1021 23:15:39.245771 25759 net.cpp:100] Creating Layer res4f_branch2c
I1021 23:15:39.245774 25759 net.cpp:444] res4f_branch2c <- res4f_branch2b
I1021 23:15:39.245781 25759 net.cpp:418] res4f_branch2c -> res4f_branch2c
I1021 23:15:39.249199 25759 net.cpp:150] Setting up res4f_branch2c
I1021 23:15:39.249228 25759 net.cpp:157] Top shape: 1 1024 60 80 (4915200)
I1021 23:15:39.249231 25759 net.cpp:165] Memory required for data: 5352652884
I1021 23:15:39.249236 25759 layer_factory.hpp:77] Creating layer bn4f_branch2c
I1021 23:15:39.249243 25759 net.cpp:100] Creating Layer bn4f_branch2c
I1021 23:15:39.249248 25759 net.cpp:444] bn4f_branch2c <- res4f_branch2c
I1021 23:15:39.249253 25759 net.cpp:405] bn4f_branch2c -> res4f_branch2c (in-place)
I1021 23:15:39.249661 25759 net.cpp:150] Setting up bn4f_branch2c
I1021 23:15:39.249668 25759 net.cpp:157] Top shape: 1 1024 60 80 (4915200)
I1021 23:15:39.249671 25759 net.cpp:165] Memory required for data: 5372313684
I1021 23:15:39.249714 25759 layer_factory.hpp:77] Creating layer scale4f_branch2c
I1021 23:15:39.249720 25759 net.cpp:100] Creating Layer scale4f_branch2c
I1021 23:15:39.249723 25759 net.cpp:444] scale4f_branch2c <- res4f_branch2c
I1021 23:15:39.249743 25759 net.cpp:405] scale4f_branch2c -> res4f_branch2c (in-place)
I1021 23:15:39.249801 25759 layer_factory.hpp:77] Creating layer scale4f_branch2c
I1021 23:15:39.250022 25759 net.cpp:150] Setting up scale4f_branch2c
I1021 23:15:39.250044 25759 net.cpp:157] Top shape: 1 1024 60 80 (4915200)
I1021 23:15:39.250047 25759 net.cpp:165] Memory required for data: 5391974484
I1021 23:15:39.250052 25759 layer_factory.hpp:77] Creating layer res4f
I1021 23:15:39.250059 25759 net.cpp:100] Creating Layer res4f
I1021 23:15:39.250062 25759 net.cpp:444] res4f <- res4e_res4e_relu_0_split_1
I1021 23:15:39.250066 25759 net.cpp:444] res4f <- res4f_branch2c
I1021 23:15:39.250071 25759 net.cpp:418] res4f -> res4f
I1021 23:15:39.250111 25759 net.cpp:150] Setting up res4f
I1021 23:15:39.250118 25759 net.cpp:157] Top shape: 1 1024 60 80 (4915200)
I1021 23:15:39.250120 25759 net.cpp:165] Memory required for data: 5411635284
I1021 23:15:39.250123 25759 layer_factory.hpp:77] Creating layer res4f_relu
I1021 23:15:39.250128 25759 net.cpp:100] Creating Layer res4f_relu
I1021 23:15:39.250130 25759 net.cpp:444] res4f_relu <- res4f
I1021 23:15:39.250136 25759 net.cpp:405] res4f_relu -> res4f (in-place)
I1021 23:15:39.251024 25759 net.cpp:150] Setting up res4f_relu
I1021 23:15:39.251035 25759 net.cpp:157] Top shape: 1 1024 60 80 (4915200)
I1021 23:15:39.251037 25759 net.cpp:165] Memory required for data: 5431296084
I1021 23:15:39.251040 25759 layer_factory.hpp:77] Creating layer res4f_res4f_relu_0_split
I1021 23:15:39.251065 25759 net.cpp:100] Creating Layer res4f_res4f_relu_0_split
I1021 23:15:39.251070 25759 net.cpp:444] res4f_res4f_relu_0_split <- res4f
I1021 23:15:39.251075 25759 net.cpp:418] res4f_res4f_relu_0_split -> res4f_res4f_relu_0_split_0
I1021 23:15:39.251082 25759 net.cpp:418] res4f_res4f_relu_0_split -> res4f_res4f_relu_0_split_1
I1021 23:15:39.251087 25759 net.cpp:418] res4f_res4f_relu_0_split -> res4f_res4f_relu_0_split_2
I1021 23:15:39.251185 25759 net.cpp:150] Setting up res4f_res4f_relu_0_split
I1021 23:15:39.251193 25759 net.cpp:157] Top shape: 1 1024 60 80 (4915200)
I1021 23:15:39.251196 25759 net.cpp:157] Top shape: 1 1024 60 80 (4915200)
I1021 23:15:39.251199 25759 net.cpp:157] Top shape: 1 1024 60 80 (4915200)
I1021 23:15:39.251201 25759 net.cpp:165] Memory required for data: 5490278484
I1021 23:15:39.251204 25759 layer_factory.hpp:77] Creating layer res5a_branch1
I1021 23:15:39.251214 25759 net.cpp:100] Creating Layer res5a_branch1
I1021 23:15:39.251216 25759 net.cpp:444] res5a_branch1 <- res4f_res4f_relu_0_split_0
I1021 23:15:39.251224 25759 net.cpp:418] res5a_branch1 -> res5a_branch1
I1021 23:15:39.258292 25759 net.cpp:150] Setting up res5a_branch1
I1021 23:15:39.258304 25759 net.cpp:157] Top shape: 1 2048 30 40 (2457600)
I1021 23:15:39.258322 25759 net.cpp:165] Memory required for data: 5500108884
I1021 23:15:39.258327 25759 layer_factory.hpp:77] Creating layer bn5a_branch1
I1021 23:15:39.258337 25759 net.cpp:100] Creating Layer bn5a_branch1
I1021 23:15:39.258339 25759 net.cpp:444] bn5a_branch1 <- res5a_branch1
I1021 23:15:39.258344 25759 net.cpp:405] bn5a_branch1 -> res5a_branch1 (in-place)
I1021 23:15:39.258734 25759 net.cpp:150] Setting up bn5a_branch1
I1021 23:15:39.258741 25759 net.cpp:157] Top shape: 1 2048 30 40 (2457600)
I1021 23:15:39.258744 25759 net.cpp:165] Memory required for data: 5509939284
I1021 23:15:39.258765 25759 layer_factory.hpp:77] Creating layer scale5a_branch1
I1021 23:15:39.258772 25759 net.cpp:100] Creating Layer scale5a_branch1
I1021 23:15:39.258775 25759 net.cpp:444] scale5a_branch1 <- res5a_branch1
I1021 23:15:39.258782 25759 net.cpp:405] scale5a_branch1 -> res5a_branch1 (in-place)
I1021 23:15:39.258869 25759 layer_factory.hpp:77] Creating layer scale5a_branch1
I1021 23:15:39.259063 25759 net.cpp:150] Setting up scale5a_branch1
I1021 23:15:39.259070 25759 net.cpp:157] Top shape: 1 2048 30 40 (2457600)
I1021 23:15:39.259073 25759 net.cpp:165] Memory required for data: 5519769684
I1021 23:15:39.259078 25759 layer_factory.hpp:77] Creating layer res5a_branch2a
I1021 23:15:39.259086 25759 net.cpp:100] Creating Layer res5a_branch2a
I1021 23:15:39.259089 25759 net.cpp:444] res5a_branch2a <- res4f_res4f_relu_0_split_1
I1021 23:15:39.259094 25759 net.cpp:418] res5a_branch2a -> res5a_branch2a
I1021 23:15:39.264076 25759 net.cpp:150] Setting up res5a_branch2a
I1021 23:15:39.264088 25759 net.cpp:157] Top shape: 1 512 30 40 (614400)
I1021 23:15:39.264106 25759 net.cpp:165] Memory required for data: 5522227284
I1021 23:15:39.264111 25759 layer_factory.hpp:77] Creating layer bn5a_branch2a
I1021 23:15:39.264119 25759 net.cpp:100] Creating Layer bn5a_branch2a
I1021 23:15:39.264124 25759 net.cpp:444] bn5a_branch2a <- res5a_branch2a
I1021 23:15:39.264130 25759 net.cpp:405] bn5a_branch2a -> res5a_branch2a (in-place)
I1021 23:15:39.264524 25759 net.cpp:150] Setting up bn5a_branch2a
I1021 23:15:39.264533 25759 net.cpp:157] Top shape: 1 512 30 40 (614400)
I1021 23:15:39.264551 25759 net.cpp:165] Memory required for data: 5524684884
I1021 23:15:39.264557 25759 layer_factory.hpp:77] Creating layer scale5a_branch2a
I1021 23:15:39.264562 25759 net.cpp:100] Creating Layer scale5a_branch2a
I1021 23:15:39.264565 25759 net.cpp:444] scale5a_branch2a <- res5a_branch2a
I1021 23:15:39.264572 25759 net.cpp:405] scale5a_branch2a -> res5a_branch2a (in-place)
I1021 23:15:39.264667 25759 layer_factory.hpp:77] Creating layer scale5a_branch2a
I1021 23:15:39.264873 25759 net.cpp:150] Setting up scale5a_branch2a
I1021 23:15:39.264881 25759 net.cpp:157] Top shape: 1 512 30 40 (614400)
I1021 23:15:39.264884 25759 net.cpp:165] Memory required for data: 5527142484
I1021 23:15:39.264889 25759 layer_factory.hpp:77] Creating layer res5a_branch2a_relu
I1021 23:15:39.264894 25759 net.cpp:100] Creating Layer res5a_branch2a_relu
I1021 23:15:39.264897 25759 net.cpp:444] res5a_branch2a_relu <- res5a_branch2a
I1021 23:15:39.264900 25759 net.cpp:405] res5a_branch2a_relu -> res5a_branch2a (in-place)
I1021 23:15:39.265107 25759 net.cpp:150] Setting up res5a_branch2a_relu
I1021 23:15:39.265116 25759 net.cpp:157] Top shape: 1 512 30 40 (614400)
I1021 23:15:39.265118 25759 net.cpp:165] Memory required for data: 5529600084
I1021 23:15:39.265121 25759 layer_factory.hpp:77] Creating layer res5a_branch2b
I1021 23:15:39.265130 25759 net.cpp:100] Creating Layer res5a_branch2b
I1021 23:15:39.265132 25759 net.cpp:444] res5a_branch2b <- res5a_branch2a
I1021 23:15:39.265139 25759 net.cpp:418] res5a_branch2b -> res5a_branch2b
I1021 23:15:39.270977 25759 net.cpp:150] Setting up res5a_branch2b
I1021 23:15:39.270988 25759 net.cpp:157] Top shape: 1 512 30 40 (614400)
I1021 23:15:39.270992 25759 net.cpp:165] Memory required for data: 5532057684
I1021 23:15:39.271011 25759 layer_factory.hpp:77] Creating layer bn5a_branch2b
I1021 23:15:39.271019 25759 net.cpp:100] Creating Layer bn5a_branch2b
I1021 23:15:39.271023 25759 net.cpp:444] bn5a_branch2b <- res5a_branch2b
I1021 23:15:39.271029 25759 net.cpp:405] bn5a_branch2b -> res5a_branch2b (in-place)
I1021 23:15:39.271422 25759 net.cpp:150] Setting up bn5a_branch2b
I1021 23:15:39.271430 25759 net.cpp:157] Top shape: 1 512 30 40 (614400)
I1021 23:15:39.271432 25759 net.cpp:165] Memory required for data: 5534515284
I1021 23:15:39.271453 25759 layer_factory.hpp:77] Creating layer scale5a_branch2b
I1021 23:15:39.271461 25759 net.cpp:100] Creating Layer scale5a_branch2b
I1021 23:15:39.271463 25759 net.cpp:444] scale5a_branch2b <- res5a_branch2b
I1021 23:15:39.271468 25759 net.cpp:405] scale5a_branch2b -> res5a_branch2b (in-place)
I1021 23:15:39.271548 25759 layer_factory.hpp:77] Creating layer scale5a_branch2b
I1021 23:15:39.271755 25759 net.cpp:150] Setting up scale5a_branch2b
I1021 23:15:39.271762 25759 net.cpp:157] Top shape: 1 512 30 40 (614400)
I1021 23:15:39.271765 25759 net.cpp:165] Memory required for data: 5536972884
I1021 23:15:39.271770 25759 layer_factory.hpp:77] Creating layer res5a_branch2b_relu
…
I1022 15:39:00.868311 27315 layer_factory.hpp:77] Creating layer res5c_branch2b_relu
I1022 15:39:00.868320 27315 net.cpp:100] Creating Layer res5c_branch2b_relu
I1022 15:39:00.868324 27315 net.cpp:444] res5c_branch2b_relu <- res5c_branch2b
I1022 15:39:00.868329 27315 net.cpp:405] res5c_branch2b_relu -> res5c_branch2b (in-place)
I1022 15:39:00.868589 27315 net.cpp:150] Setting up res5c_branch2b_relu
I1022 15:39:00.868598 27315 net.cpp:157] Top shape: 1 512 7 7 (25088)
I1022 15:39:00.868602 27315 net.cpp:165] Memory required for data: 232214540
I1022 15:39:00.868605 27315 layer_factory.hpp:77] Creating layer res5c_branch2c
I1022 15:39:00.868633 27315 net.cpp:100] Creating Layer res5c_branch2c
I1022 15:39:00.868636 27315 net.cpp:444] res5c_branch2c <- res5c_branch2b
I1022 15:39:00.868644 27315 net.cpp:418] res5c_branch2c -> res5c_branch2c
I1022 15:39:00.874121 27315 net.cpp:150] Setting up res5c_branch2c
I1022 15:39:00.874135 27315 net.cpp:157] Top shape: 1 2048 7 7 (100352)
I1022 15:39:00.874138 27315 net.cpp:165] Memory required for data: 232615948
I1022 15:39:00.874153 27315 layer_factory.hpp:77] Creating layer bn5c_branch2c
I1022 15:39:00.874162 27315 net.cpp:100] Creating Layer bn5c_branch2c
I1022 15:39:00.874166 27315 net.cpp:444] bn5c_branch2c <- res5c_branch2c
I1022 15:39:00.874171 27315 net.cpp:405] bn5c_branch2c -> res5c_branch2c (in-place)
I1022 15:39:00.874624 27315 net.cpp:150] Setting up bn5c_branch2c
I1022 15:39:00.874632 27315 net.cpp:157] Top shape: 1 2048 7 7 (100352)
I1022 15:39:00.874634 27315 net.cpp:165] Memory required for data: 233017356
I1022 15:39:00.874651 27315 layer_factory.hpp:77] Creating layer scale5c_branch2c
I1022 15:39:00.874660 27315 net.cpp:100] Creating Layer scale5c_branch2c
I1022 15:39:00.874663 27315 net.cpp:444] scale5c_branch2c <- res5c_branch2c
I1022 15:39:00.874670 27315 net.cpp:405] scale5c_branch2c -> res5c_branch2c (in-place)
I1022 15:39:00.874744 27315 layer_factory.hpp:77] Creating layer scale5c_branch2c
I1022 15:39:00.875001 27315 net.cpp:150] Setting up scale5c_branch2c
I1022 15:39:00.875008 27315 net.cpp:157] Top shape: 1 2048 7 7 (100352)
I1022 15:39:00.875011 27315 net.cpp:165] Memory required for data: 233418764
I1022 15:39:00.875017 27315 layer_factory.hpp:77] Creating layer res5c
I1022 15:39:00.875025 27315 net.cpp:100] Creating Layer res5c
I1022 15:39:00.875032 27315 net.cpp:444] res5c <- res5b_res5b_relu_0_split_1
I1022 15:39:00.875036 27315 net.cpp:444] res5c <- res5c_branch2c
I1022 15:39:00.875042 27315 net.cpp:418] res5c -> res5c
I1022 15:39:00.875087 27315 net.cpp:150] Setting up res5c
I1022 15:39:00.875093 27315 net.cpp:157] Top shape: 1 2048 7 7 (100352)
I1022 15:39:00.875097 27315 net.cpp:165] Memory required for data: 233820172
I1022 15:39:00.875099 27315 layer_factory.hpp:77] Creating layer res5c_relu
I1022 15:39:00.875106 27315 net.cpp:100] Creating Layer res5c_relu
I1022 15:39:00.875110 27315 net.cpp:444] res5c_relu <- res5c
I1022 15:39:00.875116 27315 net.cpp:405] res5c_relu -> res5c (in-place)
I1022 15:39:00.875361 27315 net.cpp:150] Setting up res5c_relu
I1022 15:39:00.875371 27315 net.cpp:157] Top shape: 1 2048 7 7 (100352)
I1022 15:39:00.875375 27315 net.cpp:165] Memory required for data: 234221580
I1022 15:39:00.875377 27315 layer_factory.hpp:77] Creating layer upP4
I1022 15:39:00.875386 27315 net.cpp:100] Creating Layer upP4
I1022 15:39:00.875392 27315 net.cpp:444] upP4 <- res5c
I1022 15:39:00.875396 27315 net.cpp:418] upP4 -> upP4
I1022 15:39:00.877439 27315 net.cpp:150] Setting up upP4
I1022 15:39:00.877446 27315 net.cpp:157] Top shape: 1 512 14 14 (100352)
I1022 15:39:00.877449 27315 net.cpp:165] Memory required for data: 234622988
I1022 15:39:00.877462 27315 layer_factory.hpp:77] Creating layer newC4
I1022 15:39:00.877472 27315 net.cpp:100] Creating Layer newC4
I1022 15:39:00.877476 27315 net.cpp:444] newC4 <- res4f_res4f_relu_0_split_2
I1022 15:39:00.877485 27315 net.cpp:418] newC4 -> c4
I1022 15:39:00.890661 27315 net.cpp:150] Setting up newC4
I1022 15:39:00.890676 27315 net.cpp:157] Top shape: 1 512 14 14 (100352)
I1022 15:39:00.890679 27315 net.cpp:165] Memory required for data: 235024396
I1022 15:39:00.890694 27315 layer_factory.hpp:77] Creating layer eltwise_bnc4_bnp4
I1022 15:39:00.890702 27315 net.cpp:100] Creating Layer eltwise_bnc4_bnp4
I1022 15:39:00.890705 27315 net.cpp:444] eltwise_bnc4_bnp4 <- c4
I1022 15:39:00.890710 27315 net.cpp:444] eltwise_bnc4_bnp4 <- upP4
I1022 15:39:00.890718 27315 net.cpp:418] eltwise_bnc4_bnp4 -> skip_eltwise1
I1022 15:39:00.890784 27315 net.cpp:150] Setting up eltwise_bnc4_bnp4
I1022 15:39:00.890792 27315 net.cpp:157] Top shape: 1 512 14 14 (100352)
I1022 15:39:00.890796 27315 net.cpp:165] Memory required for data: 235425804
I1022 15:39:00.890799 27315 layer_factory.hpp:77] Creating layer skip_eltwise1_eltwise_bnc4_bnp4_0_split
I1022 15:39:00.890807 27315 net.cpp:100] Creating Layer skip_eltwise1_eltwise_bnc4_bnp4_0_split
I1022 15:39:00.890813 27315 net.cpp:444] skip_eltwise1_eltwise_bnc4_bnp4_0_split <- skip_eltwise1
I1022 15:39:00.890818 27315 net.cpp:418] skip_eltwise1_eltwise_bnc4_bnp4_0_split -> skip_eltwise1_eltwise_bnc4_bnp4_0_split_0
I1022 15:39:00.890827 27315 net.cpp:418] skip_eltwise1_eltwise_bnc4_bnp4_0_split -> skip_eltwise1_eltwise_bnc4_bnp4_0_split_1
I1022 15:39:00.890903 27315 net.cpp:150] Setting up skip_eltwise1_eltwise_bnc4_bnp4_0_split
I1022 15:39:00.890910 27315 net.cpp:157] Top shape: 1 512 14 14 (100352)
I1022 15:39:00.890914 27315 net.cpp:157] Top shape: 1 512 14 14 (100352)
I1022 15:39:00.890918 27315 net.cpp:165] Memory required for data: 236228620
I1022 15:39:00.890920 27315 layer_factory.hpp:77] Creating layer bnp4_conv
I1022 15:39:00.890933 27315 net.cpp:100] Creating Layer bnp4_conv
I1022 15:39:00.890938 27315 net.cpp:444] bnp4_conv <- skip_eltwise1_eltwise_bnc4_bnp4_0_split_0
I1022 15:39:00.890944 27315 net.cpp:418] bnp4_conv -> bnp4_conv
I1022 15:39:00.893653 27315 net.cpp:150] Setting up bnp4_conv
I1022 15:39:00.893666 27315 net.cpp:157] Top shape: 1 128 14 14 (25088)
I1022 15:39:00.893669 27315 net.cpp:165] Memory required for data: 236328972
I1022 15:39:00.893683 27315 layer_factory.hpp:77] Creating layer bnp4_bn
I1022 15:39:00.893692 27315 net.cpp:100] Creating Layer bnp4_bn
I1022 15:39:00.893697 27315 net.cpp:444] bnp4_bn <- bnp4_conv
I1022 15:39:00.893703 27315 net.cpp:405] bnp4_bn -> bnp4_conv (in-place)
I1022 15:39:00.894148 27315 net.cpp:150] Setting up bnp4_bn
I1022 15:39:00.894157 27315 net.cpp:157] Top shape: 1 128 14 14 (25088)
I1022 15:39:00.894160 27315 net.cpp:165] Memory required for data: 236429324
I1022 15:39:00.894176 27315 layer_factory.hpp:77] Creating layer bnp4_scale
I1022 15:39:00.894182 27315 net.cpp:100] Creating Layer bnp4_scale
I1022 15:39:00.894186 27315 net.cpp:444] bnp4_scale <- bnp4_conv
I1022 15:39:00.894191 27315 net.cpp:405] bnp4_scale -> bnp4_conv (in-place)
I1022 15:39:00.894268 27315 layer_factory.hpp:77] Creating layer bnp4_scale
I1022 15:39:00.894500 27315 net.cpp:150] Setting up bnp4_scale
I1022 15:39:00.894507 27315 net.cpp:157] Top shape: 1 128 14 14 (25088)
I1022 15:39:00.894510 27315 net.cpp:165] Memory required for data: 236529676
I1022 15:39:00.894515 27315 layer_factory.hpp:77] Creating layer bnp4_ReLU
I1022 15:39:00.894523 27315 net.cpp:100] Creating Layer bnp4_ReLU
I1022 15:39:00.894526 27315 net.cpp:444] bnp4_ReLU <- bnp4_conv
I1022 15:39:00.894531 27315 net.cpp:405] bnp4_ReLU -> bnp4_conv (in-place)
I1022 15:39:00.895547 27315 net.cpp:150] Setting up bnp4_ReLU
I1022 15:39:00.895563 27315 net.cpp:157] Top shape: 1 128 14 14 (25088)
I1022 15:39:00.895575 27315 net.cpp:165] Memory required for data: 236630028
I1022 15:39:00.895578 27315 layer_factory.hpp:77] Creating layer bn_eltwise_1_1_conv
I1022 15:39:00.895589 27315 net.cpp:100] Creating Layer bn_eltwise_1_1_conv
I1022 15:39:00.895594 27315 net.cpp:444] bn_eltwise_1_1_conv <- bnp4_conv
I1022 15:39:00.895601 27315 net.cpp:418] bn_eltwise_1_1_conv -> bn_eltwise_1_1_conv
I1022 15:39:00.905653 27315 net.cpp:150] Setting up bn_eltwise_1_1_conv
I1022 15:39:00.905668 27315 net.cpp:157] Top shape: 1 128 14 14 (25088)
I1022 15:39:00.905673 27315 net.cpp:165] Memory required for data: 236730380
I1022 15:39:00.905686 27315 layer_factory.hpp:77] Creating layer bn_eltwise_1_1_bn
I1022 15:39:00.905694 27315 net.cpp:100] Creating Layer bn_eltwise_1_1_bn
I1022 15:39:00.905697 27315 net.cpp:444] bn_eltwise_1_1_bn <- bn_eltwise_1_1_conv
I1022 15:39:00.905704 27315 net.cpp:405] bn_eltwise_1_1_bn -> bn_eltwise_1_1_conv (in-place)
I1022 15:39:00.906155 27315 net.cpp:150] Setting up bn_eltwise_1_1_bn
I1022 15:39:00.906163 27315 net.cpp:157] Top shape: 1 128 14 14 (25088)
I1022 15:39:00.906167 27315 net.cpp:165] Memory required for data: 236830732
I1022 15:39:00.906181 27315 layer_factory.hpp:77] Creating layer bn_eltwise_1_1_scale
I1022 15:39:00.906190 27315 net.cpp:100] Creating Layer bn_eltwise_1_1_scale
I1022 15:39:00.906193 27315 net.cpp:444] bn_eltwise_1_1_scale <- bn_eltwise_1_1_conv
I1022 15:39:00.906198 27315 net.cpp:405] bn_eltwise_1_1_scale -> bn_eltwise_1_1_conv (in-place)
I1022 15:39:00.906282 27315 layer_factory.hpp:77] Creating layer bn_eltwise_1_1_scale
I1022 15:39:00.906518 27315 net.cpp:150] Setting up bn_eltwise_1_1_scale
I1022 15:39:00.906527 27315 net.cpp:157] Top shape: 1 128 14 14 (25088)
I1022 15:39:00.906529 27315 net.cpp:165] Memory required for data: 236931084
I1022 15:39:00.906535 27315 layer_factory.hpp:77] Creating layer bn_eltwise_1_1_ReLU
I1022 15:39:00.906543 27315 net.cpp:100] Creating Layer bn_eltwise_1_1_ReLU
I1022 15:39:00.906546 27315 net.cpp:444] bn_eltwise_1_1_ReLU <- bn_eltwise_1_1_conv
I1022 15:39:00.906550 27315 net.cpp:405] bn_eltwise_1_1_ReLU -> bn_eltwise_1_1_conv (in-place)
I1022 15:39:00.906805 27315 net.cpp:150] Setting up bn_eltwise_1_1_ReLU
I1022 15:39:00.906816 27315 net.cpp:157] Top shape: 1 128 14 14 (25088)
I1022 15:39:00.906818 27315 net.cpp:165] Memory required for data: 237031436
I1022 15:39:00.906821 27315 layer_factory.hpp:77] Creating layer bn_eltwise_1_2_conv
I1022 15:39:00.906831 27315 net.cpp:100] Creating Layer bn_eltwise_1_2_conv
I1022 15:39:00.906836 27315 net.cpp:444] bn_eltwise_1_2_conv <- bn_eltwise_1_1_conv
I1022 15:39:00.906842 27315 net.cpp:418] bn_eltwise_1_2_conv -> bn_eltwise_1_2_conv
I1022 15:39:00.909600 27315 net.cpp:150] Setting up bn_eltwise_1_2_conv
I1022 15:39:00.909613 27315 net.cpp:157] Top shape: 1 512 14 14 (100352)
I1022 15:39:00.909616 27315 net.cpp:165] Memory required for data: 237432844
I1022 15:39:00.909629 27315 layer_factory.hpp:77] Creating layer bn_eltwise_1_2_bn
I1022 15:39:00.909637 27315 net.cpp:100] Creating Layer bn_eltwise_1_2_bn
I1022 15:39:00.909641 27315 net.cpp:444] bn_eltwise_1_2_bn <- bn_eltwise_1_2_conv
I1022 15:39:00.909648 27315 net.cpp:405] bn_eltwise_1_2_bn -> bn_eltwise_1_2_conv (in-place)
I1022 15:39:00.910094 27315 net.cpp:150] Setting up bn_eltwise_1_2_bn
I1022 15:39:00.910100 27315 net.cpp:157] Top shape: 1 512 14 14 (100352)
I1022 15:39:00.910104 27315 net.cpp:165] Memory required for data: 237834252
I1022 15:39:00.910121 27315 layer_factory.hpp:77] Creating layer bn_eltwise_1_2_scale
I1022 15:39:00.910143 27315 net.cpp:100] Creating Layer bn_eltwise_1_2_scale
I1022 15:39:00.910147 27315 net.cpp:444] bn_eltwise_1_2_scale <- bn_eltwise_1_2_conv
I1022 15:39:00.910152 27315 net.cpp:405] bn_eltwise_1_2_scale -> bn_eltwise_1_2_conv (in-place)
I1022 15:39:00.910219 27315 layer_factory.hpp:77] Creating layer bn_eltwise_1_2_scale
I1022 15:39:00.910471 27315 net.cpp:150] Setting up bn_eltwise_1_2_scale
I1022 15:39:00.910478 27315 net.cpp:157] Top shape: 1 512 14 14 (100352)
I1022 15:39:00.910482 27315 net.cpp:165] Memory required for data: 238235660
I1022 15:39:00.910488 27315 layer_factory.hpp:77] Creating layer p3
I1022 15:39:00.910495 27315 net.cpp:100] Creating Layer p3
I1022 15:39:00.910499 27315 net.cpp:444] p3 <- bn_eltwise_1_2_conv
I1022 15:39:00.910504 27315 net.cpp:444] p3 <- skip_eltwise1_eltwise_bnc4_bnp4_0_split_1
I1022 15:39:00.910511 27315 net.cpp:418] p3 -> p3
I1022 15:39:00.910559 27315 net.cpp:150] Setting up p3
I1022 15:39:00.910567 27315 net.cpp:157] Top shape: 1 512 14 14 (100352)
I1022 15:39:00.910569 27315 net.cpp:165] Memory required for data: 238637068
I1022 15:39:00.910573 27315 layer_factory.hpp:77] Creating layer p3_relu
I1022 15:39:00.910579 27315 net.cpp:100] Creating Layer p3_relu
I1022 15:39:00.910583 27315 net.cpp:444] p3_relu <- p3
I1022 15:39:00.910588 27315 net.cpp:405] p3_relu -> p3 (in-place)
I1022 15:39:00.910825 27315 net.cpp:150] Setting up p3_relu
I1022 15:39:00.910833 27315 net.cpp:157] Top shape: 1 512 14 14 (100352)
I1022 15:39:00.910836 27315 net.cpp:165] Memory required for data: 239038476
I1022 15:39:00.910840 27315 layer_factory.hpp:77] Creating layer p3_p3_relu_0_split
I1022 15:39:00.910848 27315 net.cpp:100] Creating Layer p3_p3_relu_0_split
I1022 15:39:00.910852 27315 net.cpp:444] p3_p3_relu_0_split <- p3
I1022 15:39:00.910857 27315 net.cpp:418] p3_p3_relu_0_split -> p3_p3_relu_0_split_0
I1022 15:39:00.910867 27315 net.cpp:418] p3_p3_relu_0_split -> p3_p3_relu_0_split_1
I1022 15:39:00.910874 27315 net.cpp:418] p3_p3_relu_0_split -> p3_p3_relu_0_split_2
I1022 15:39:00.910989 27315 net.cpp:150] Setting up p3_p3_relu_0_split
I1022 15:39:00.910995 27315 net.cpp:157] Top shape: 1 512 14 14 (100352)
I1022 15:39:00.911000 27315 net.cpp:157] Top shape: 1 512 14 14 (100352)
I1022 15:39:00.911002 27315 net.cpp:157] Top shape: 1 512 14 14 (100352)
I1022 15:39:00.911005 27315 net.cpp:165] Memory required for data: 240242700
I1022 15:39:00.911008 27315 layer_factory.hpp:77] Creating layer newC3
I1022 15:39:00.911021 27315 net.cpp:100] Creating Layer newC3
I1022 15:39:00.911025 27315 net.cpp:444] newC3 <- res3d_res3d_relu_0_split_2
I1022 15:39:00.911031 27315 net.cpp:418] newC3 -> c3
I1022 15:39:00.919417 27315 net.cpp:150] Setting up newC3
I1022 15:39:00.919433 27315 net.cpp:157] Top shape: 1 512 28 28 (401408)
I1022 15:39:00.919436 27315 net.cpp:165] Memory required for data: 241848332
I1022 15:39:00.919446 27315 layer_factory.hpp:77] Creating layer upP3
I1022 15:39:00.919458 27315 net.cpp:100] Creating Layer upP3
I1022 15:39:00.919463 27315 net.cpp:444] upP3 <- p3_p3_relu_0_split_0
I1022 15:39:00.919469 27315 net.cpp:418] upP3 -> upP3
I1022 15:39:00.920307 27315 net.cpp:150] Setting up upP3
I1022 15:39:00.920316 27315 net.cpp:157] Top shape: 1 512 28 28 (401408)
I1022 15:39:00.920320 27315 net.cpp:165] Memory required for data: 243453964
I1022 15:39:00.920325 27315 layer_factory.hpp:77] Creating layer eltwise_bnc3_bnp3
I1022 15:39:00.920332 27315 net.cpp:100] Creating Layer eltwise_bnc3_bnp3
I1022 15:39:00.920336 27315 net.cpp:444] eltwise_bnc3_bnp3 <- c3
I1022 15:39:00.920341 27315 net.cpp:444] eltwise_bnc3_bnp3 <- upP3
I1022 15:39:00.920347 27315 net.cpp:418] eltwise_bnc3_bnp3 -> skip_eltwise2
I1022 15:39:00.920395 27315 net.cpp:150] Setting up eltwise_bnc3_bnp3
I1022 15:39:00.920403 27315 net.cpp:157] Top shape: 1 512 28 28 (401408)
I1022 15:39:00.920405 27315 net.cpp:165] Memory required for data: 245059596
I1022 15:39:00.920408 27315 layer_factory.hpp:77] Creating layer skip_eltwise2_eltwise_bnc3_bnp3_0_split
I1022 15:39:00.920415 27315 net.cpp:100] Creating Layer skip_eltwise2_eltwise_bnc3_bnp3_0_split
I1022 15:39:00.920419 27315 net.cpp:444] skip_eltwise2_eltwise_bnc3_bnp3_0_split <- skip_eltwise2
I1022 15:39:00.920424 27315 net.cpp:418] skip_eltwise2_eltwise_bnc3_bnp3_0_split -> skip_eltwise2_eltwise_bnc3_bnp3_0_split_0
I1022 15:39:00.920430 27315 net.cpp:418] skip_eltwise2_eltwise_bnc3_bnp3_0_split -> skip_eltwise2_eltwise_bnc3_bnp3_0_split_1
I1022 15:39:00.920506 27315 net.cpp:150] Setting up skip_eltwise2_eltwise_bnc3_bnp3_0_split
I1022 15:39:00.920513 27315 net.cpp:157] Top shape: 1 512 28 28 (401408)
I1022 15:39:00.920518 27315 net.cpp:157] Top shape: 1 512 28 28 (401408)
I1022 15:39:00.920521 27315 net.cpp:165] Memory required for data: 248270860
I1022 15:39:00.920523 27315 layer_factory.hpp:77] Creating layer bnp3_conv
I1022 15:39:00.920531 27315 net.cpp:100] Creating Layer bnp3_conv
I1022 15:39:00.920536 27315 net.cpp:444] bnp3_conv <- skip_eltwise2_eltwise_bnc3_bnp3_0_split_0
I1022 15:39:00.920544 27315 net.cpp:418] bnp3_conv -> bnp3_conv
I1022 15:39:00.923710 27315 net.cpp:150] Setting up bnp3_conv
I1022 15:39:00.923725 27315 net.cpp:157] Top shape: 1 128 28 28 (100352)
I1022 15:39:00.923729 27315 net.cpp:165] Memory required for data: 248672268
I1022 15:39:00.923735 27315 layer_factory.hpp:77] Creating layer bnp3_bn
I1022 15:39:00.923744 27315 net.cpp:100] Creating Layer bnp3_bn
I1022 15:39:00.923748 27315 net.cpp:444] bnp3_bn <- bnp3_conv
I1022 15:39:00.923755 27315 net.cpp:405] bnp3_bn -> bnp3_conv (in-place)
I1022 15:39:00.924214 27315 net.cpp:150] Setting up bnp3_bn
I1022 15:39:00.924222 27315 net.cpp:157] Top shape: 1 128 28 28 (100352)
I1022 15:39:00.924226 27315 net.cpp:165] Memory required for data: 249073676
I1022 15:39:00.924232 27315 layer_factory.hpp:77] Creating layer bnp3_scale
I1022 15:39:00.924242 27315 net.cpp:100] Creating Layer bnp3_scale
I1022 15:39:00.924245 27315 net.cpp:444] bnp3_scale <- bnp3_conv
I1022 15:39:00.924252 27315 net.cpp:405] bnp3_scale -> bnp3_conv (in-place)
I1022 15:39:00.924327 27315 layer_factory.hpp:77] Creating layer bnp3_scale
I1022 15:39:00.924574 27315 net.cpp:150] Setting up bnp3_scale
I1022 15:39:00.924582 27315 net.cpp:157] Top shape: 1 128 28 28 (100352)
I1022 15:39:00.924584 27315 net.cpp:165] Memory required for data: 249475084
I1022 15:39:00.924590 27315 layer_factory.hpp:77] Creating layer bnp3_ReLU
I1022 15:39:00.924597 27315 net.cpp:100] Creating Layer bnp3_ReLU
I1022 15:39:00.924603 27315 net.cpp:444] bnp3_ReLU <- bnp3_conv
I1022 15:39:00.924618 27315 net.cpp:405] bnp3_ReLU -> bnp3_conv (in-place)
I1022 15:39:00.925639 27315 net.cpp:150] Setting up bnp3_ReLU
I1022 15:39:00.925652 27315 net.cpp:157] Top shape: 1 128 28 28 (100352)
I1022 15:39:00.925655 27315 net.cpp:165] Memory required for data: 249876492
I1022 15:39:00.925658 27315 layer_factory.hpp:77] Creating layer bn_eltwise_2_1_conv
I1022 15:39:00.925675 27315 net.cpp:100] Creating Layer bn_eltwise_2_1_conv
I1022 15:39:00.925679 27315 net.cpp:444] bn_eltwise_2_1_conv <- bnp3_conv
I1022 15:39:00.925688 27315 net.cpp:418] bn_eltwise_2_1_conv -> bn_eltwise_2_1_conv
I1022 15:39:00.929975 27315 net.cpp:150] Setting up bn_eltwise_2_1_conv
I1022 15:39:00.929989 27315 net.cpp:157] Top shape: 1 128 28 28 (100352)
I1022 15:39:00.930001 27315 net.cpp:165] Memory required for data: 250277900
I1022 15:39:00.930007 27315 layer_factory.hpp:77] Creating layer bn_eltwise_2_1_bn
I1022 15:39:00.930017 27315 net.cpp:100] Creating Layer bn_eltwise_2_1_bn
I1022 15:39:00.930022 27315 net.cpp:444] bn_eltwise_2_1_bn <- bn_eltwise_2_1_conv
I1022 15:39:00.930027 27315 net.cpp:405] bn_eltwise_2_1_bn -> bn_eltwise_2_1_conv (in-place)
I1022 15:39:00.930485 27315 net.cpp:150] Setting up bn_eltwise_2_1_bn
I1022 15:39:00.930492 27315 net.cpp:157] Top shape: 1 128 28 28 (100352)
I1022 15:39:00.930496 27315 net.cpp:165] Memory required for data: 250679308
I1022 15:39:00.930503 27315 layer_factory.hpp:77] Creating layer bn_eltwise_2_1_scale
I1022 15:39:00.930511 27315 net.cpp:100] Creating Layer bn_eltwise_2_1_scale
I1022 15:39:00.930516 27315 net.cpp:444] bn_eltwise_2_1_scale <- bn_eltwise_2_1_conv
I1022 15:39:00.930521 27315 net.cpp:405] bn_eltwise_2_1_scale -> bn_eltwise_2_1_conv (in-place)
I1022 15:39:00.930601 27315 layer_factory.hpp:77] Creating layer bn_eltwise_2_1_scale
I1022 15:39:00.930846 27315 net.cpp:150] Setting up bn_eltwise_2_1_scale
I1022 15:39:00.930853 27315 net.cpp:157] Top shape: 1 128 28 28 (100352)
I1022 15:39:00.930856 27315 net.cpp:165] Memory required for data: 251080716
I1022 15:39:00.930862 27315 layer_factory.hpp:77] Creating layer bn_eltwise_2_1_ReLU
I1022 15:39:00.930871 27315 net.cpp:100] Creating Layer bn_eltwise_2_1_ReLU
I1022 15:39:00.930874 27315 net.cpp:444] bn_eltwise_2_1_ReLU <- bn_eltwise_2_1_conv
I1022 15:39:00.930881 27315 net.cpp:405] bn_eltwise_2_1_ReLU -> bn_eltwise_2_1_conv (in-place)
I1022 15:39:00.931134 27315 net.cpp:150] Setting up bn_eltwise_2_1_ReLU
I1022 15:39:00.931143 27315 net.cpp:157] Top shape: 1 128 28 28 (100352)
I1022 15:39:00.931146 27315 net.cpp:165] Memory required for data: 251482124
I1022 15:39:00.931150 27315 layer_factory.hpp:77] Creating layer bn_eltwise_2_2_conv
I1022 15:39:00.931162 27315 net.cpp:100] Creating Layer bn_eltwise_2_2_conv
I1022 15:39:00.931166 27315 net.cpp:444] bn_eltwise_2_2_conv <- bn_eltwise_2_1_conv
I1022 15:39:00.931172 27315 net.cpp:418] bn_eltwise_2_2_conv -> bn_eltwise_2_2_conv
I1022 15:39:00.933923 27315 net.cpp:150] Setting up bn_eltwise_2_2_conv
I1022 15:39:00.933936 27315 net.cpp:157] Top shape: 1 512 28 28 (401408)
I1022 15:39:00.933939 27315 net.cpp:165] Memory required for data: 253087756
I1022 15:39:00.933944 27315 layer_factory.hpp:77] Creating layer bn_eltwise_2_2_bn
I1022 15:39:00.933954 27315 net.cpp:100] Creating Layer bn_eltwise_2_2_bn
I1022 15:39:00.933957 27315 net.cpp:444] bn_eltwise_2_2_bn <- bn_eltwise_2_2_conv
I1022 15:39:00.933964 27315 net.cpp:405] bn_eltwise_2_2_bn -> bn_eltwise_2_2_conv (in-place)
I1022 15:39:00.934417 27315 net.cpp:150] Setting up bn_eltwise_2_2_bn
I1022 15:39:00.934425 27315 net.cpp:157] Top shape: 1 512 28 28 (401408)
I1022 15:39:00.934428 27315 net.cpp:165] Memory required for data: 254693388
I1022 15:39:00.934435 27315 layer_factory.hpp:77] Creating layer bn_eltwise_2_2_scale
I1022 15:39:00.934444 27315 net.cpp:100] Creating Layer bn_eltwise_2_2_scale
I1022 15:39:00.934448 27315 net.cpp:444] bn_eltwise_2_2_scale <- bn_eltwise_2_2_conv
I1022 15:39:00.934454 27315 net.cpp:405] bn_eltwise_2_2_scale -> bn_eltwise_2_2_conv (in-place)
I1022 15:39:00.934538 27315 layer_factory.hpp:77] Creating layer bn_eltwise_2_2_scale
I1022 15:39:00.934785 27315 net.cpp:150] Setting up bn_eltwise_2_2_scale
I1022 15:39:00.934793 27315 net.cpp:157] Top shape: 1 512 28 28 (401408)
I1022 15:39:00.934797 27315 net.cpp:165] Memory required for data: 256299020
I1022 15:39:00.934803 27315 layer_factory.hpp:77] Creating layer p2
I1022 15:39:00.934810 27315 net.cpp:100] Creating Layer p2
I1022 15:39:00.934816 27315 net.cpp:444] p2 <- skip_eltwise2_eltwise_bnc3_bnp3_0_split_1
I1022 15:39:00.934821 27315 net.cpp:444] p2 <- bn_eltwise_2_2_conv
I1022 15:39:00.934826 27315 net.cpp:418] p2 -> p2
I1022 15:39:00.934872 27315 net.cpp:150] Setting up p2
I1022 15:39:00.934880 27315 net.cpp:157] Top shape: 1 512 28 28 (401408)
I1022 15:39:00.934882 27315 net.cpp:165] Memory required for data: 257904652
I1022 15:39:00.934885 27315 layer_factory.hpp:77] Creating layer p2_relu
I1022 15:39:00.934890 27315 net.cpp:100] Creating Layer p2_relu
I1022 15:39:00.934895 27315 net.cpp:444] p2_relu <- p2
I1022 15:39:00.934900 27315 net.cpp:405] p2_relu -> p2 (in-place)
I1022 15:39:00.935150 27315 net.cpp:150] Setting up p2_relu
I1022 15:39:00.935159 27315 net.cpp:157] Top shape: 1 512 28 28 (401408)
I1022 15:39:00.935163 27315 net.cpp:165] Memory required for data: 259510284
I1022 15:39:00.935165 27315 layer_factory.hpp:77] Creating layer p2_p2_relu_0_split
I1022 15:39:00.935173 27315 net.cpp:100] Creating Layer p2_p2_relu_0_split
I1022 15:39:00.935178 27315 net.cpp:444] p2_p2_relu_0_split <- p2
I1022 15:39:00.935184 27315 net.cpp:418] p2_p2_relu_0_split -> p2_p2_relu_0_split_0
I1022 15:39:00.935194 27315 net.cpp:418] p2_p2_relu_0_split -> p2_p2_relu_0_split_1
I1022 15:39:00.935293 27315 net.cpp:150] Setting up p2_p2_relu_0_split
I1022 15:39:00.935300 27315 net.cpp:157] Top shape: 1 512 28 28 (401408)
I1022 15:39:00.935305 27315 net.cpp:157] Top shape: 1 512 28 28 (401408)
I1022 15:39:00.935308 27315 net.cpp:165] Memory required for data: 262721548
I1022 15:39:00.935312 27315 layer_factory.hpp:77] Creating layer rpn_conv/3x3_p2
I1022 15:39:00.935322 27315 net.cpp:100] Creating Layer rpn_conv/3x3_p2
I1022 15:39:00.935328 27315 net.cpp:444] rpn_conv/3x3_p2 <- p2_p2_relu_0_split_0
I1022 15:39:00.935336 27315 net.cpp:418] rpn_conv/3x3_p2 -> rpn/output_p2
I1022 15:39:00.969357 27315 net.cpp:150] Setting up rpn_conv/3x3_p2
I1022 15:39:00.969373 27315 net.cpp:157] Top shape: 1 512 28 28 (401408)
I1022 15:39:00.969377 27315 net.cpp:165] Memory required for data: 264327180
I1022 15:39:00.969384 27315 layer_factory.hpp:77] Creating layer rpn_relu/3x3_p2
I1022 15:39:00.969391 27315 net.cpp:100] Creating Layer rpn_relu/3x3_p2
I1022 15:39:00.969395 27315 net.cpp:444] rpn_relu/3x3_p2 <- rpn/output_p2
I1022 15:39:00.969400 27315 net.cpp:405] rpn_relu/3x3_p2 -> rpn/output_p2 (in-place)
I1022 15:39:00.970438 27315 net.cpp:150] Setting up rpn_relu/3x3_p2
I1022 15:39:00.970450 27315 net.cpp:157] Top shape: 1 512 28 28 (401408)
I1022 15:39:00.970453 27315 net.cpp:165] Memory required for data: 265932812
I1022 15:39:00.970458 27315 layer_factory.hpp:77] Creating layer rpn/output_p2_rpn_relu/3x3_p2_0_split
I1022 15:39:00.970463 27315 net.cpp:100] Creating Layer rpn/output_p2_rpn_relu/3x3_p2_0_split
I1022 15:39:00.970468 27315 net.cpp:444] rpn/output_p2_rpn_relu/3x3_p2_0_split <- rpn/output_p2
I1022 15:39:00.970475 27315 net.cpp:418] rpn/output_p2_rpn_relu/3x3_p2_0_split -> rpn/output_p2_rpn_relu/3x3_p2_0_split_0
I1022 15:39:00.970484 27315 net.cpp:418] rpn/output_p2_rpn_relu/3x3_p2_0_split -> rpn/output_p2_rpn_relu/3x3_p2_0_split_1
I1022 15:39:00.970578 27315 net.cpp:150] Setting up rpn/output_p2_rpn_relu/3x3_p2_0_split
I1022 15:39:00.970587 27315 net.cpp:157] Top shape: 1 512 28 28 (401408)
I1022 15:39:00.970592 27315 net.cpp:157] Top shape: 1 512 28 28 (401408)
I1022 15:39:00.970594 27315 net.cpp:165] Memory required for data: 269144076
I1022 15:39:00.970597 27315 layer_factory.hpp:77] Creating layer rpn_cls_score_p2
I1022 15:39:00.970608 27315 net.cpp:100] Creating Layer rpn_cls_score_p2
I1022 15:39:00.970613 27315 net.cpp:444] rpn_cls_score_p2 <- rpn/output_p2_rpn_relu/3x3_p2_0_split_0
I1022 15:39:00.970623 27315 net.cpp:418] rpn_cls_score_p2 -> rpn_cls_score_p2
I1022 15:39:00.975584 27315 net.cpp:150] Setting up rpn_cls_score_p2
I1022 15:39:00.975597 27315 net.cpp:157] Top shape: 1 22 28 28 (17248)
I1022 15:39:00.975601 27315 net.cpp:165] Memory required for data: 269213068
I1022 15:39:00.975608 27315 layer_factory.hpp:77] Creating layer rpn_bbox_pred_p2
I1022 15:39:00.975622 27315 net.cpp:100] Creating Layer rpn_bbox_pred_p2
I1022 15:39:00.975627 27315 net.cpp:444] rpn_bbox_pred_p2 <- rpn/output_p2_rpn_relu/3x3_p2_0_split_1
I1022 15:39:00.975634 27315 net.cpp:418] rpn_bbox_pred_p2 -> rpn_bbox_pred_p2
I1022 15:39:00.978062 27315 net.cpp:150] Setting up rpn_bbox_pred_p2
I1022 15:39:00.978076 27315 net.cpp:157] Top shape: 1 44 28 28 (34496)
I1022 15:39:00.978080 27315 net.cpp:165] Memory required for data: 269351052
I1022 15:39:00.978086 27315 layer_factory.hpp:77] Creating layer rpn_cls_score_reshape_p2
I1022 15:39:00.978097 27315 net.cpp:100] Creating Layer rpn_cls_score_reshape_p2
I1022 15:39:00.978101 27315 net.cpp:444] rpn_cls_score_reshape_p2 <- rpn_cls_score_p2
I1022 15:39:00.978108 27315 net.cpp:418] rpn_cls_score_reshape_p2 -> rpn_cls_score_reshape_p2
I1022 15:39:00.978168 27315 net.cpp:150] Setting up rpn_cls_score_reshape_p2
I1022 15:39:00.978176 27315 net.cpp:157] Top shape: 1 2 308 28 (17248)
I1022 15:39:00.978179 27315 net.cpp:165] Memory required for data: 269420044
I1022 15:39:00.978183 27315 layer_factory.hpp:77] Creating layer rpn_cls_prob_p2
I1022 15:39:00.978199 27315 net.cpp:100] Creating Layer rpn_cls_prob_p2
I1022 15:39:00.978205 27315 net.cpp:444] rpn_cls_prob_p2 <- rpn_cls_score_reshape_p2
I1022 15:39:00.978211 27315 net.cpp:418] rpn_cls_prob_p2 -> rpn_cls_prob_p2
I1022 15:39:00.978605 27315 net.cpp:150] Setting up rpn_cls_prob_p2
I1022 15:39:00.978613 27315 net.cpp:157] Top shape: 1 2 308 28 (17248)
I1022 15:39:00.978616 27315 net.cpp:165] Memory required for data: 269489036
I1022 15:39:00.978621 27315 layer_factory.hpp:77] Creating layer rpn_cls_prob_reshape_p2
I1022 15:39:00.978626 27315 net.cpp:100] Creating Layer rpn_cls_prob_reshape_p2
I1022 15:39:00.978629 27315 net.cpp:444] rpn_cls_prob_reshape_p2 <- rpn_cls_prob_p2
I1022 15:39:00.978637 27315 net.cpp:418] rpn_cls_prob_reshape_p2 -> rpn_cls_prob_reshape_p2
I1022 15:39:00.978687 27315 net.cpp:150] Setting up rpn_cls_prob_reshape_p2
I1022 15:39:00.978693 27315 net.cpp:157] Top shape: 1 22 28 28 (17248)
I1022 15:39:00.978695 27315 net.cpp:165] Memory required for data: 269558028
I1022 15:39:00.978699 27315 layer_factory.hpp:77] Creating layer rpn_conv/3x3_p3
I1022 15:39:00.978713 27315 net.cpp:100] Creating Layer rpn_conv/3x3_p3
I1022 15:39:00.978718 27315 net.cpp:444] rpn_conv/3x3_p3 <- p3_p3_relu_0_split_1
I1022 15:39:00.978724 27315 net.cpp:418] rpn_conv/3x3_p3 -> rpn/output_p3
I1022 15:39:01.011921 27315 net.cpp:150] Setting up rpn_conv/3x3_p3
I1022 15:39:01.011940 27315 net.cpp:157] Top shape: 1 512 14 14 (100352)
I1022 15:39:01.011942 27315 net.cpp:165] Memory required for data: 269959436
I1022 15:39:01.011950 27315 layer_factory.hpp:77] Creating layer rpn_relu/3x3_p3
I1022 15:39:01.011956 27315 net.cpp:100] Creating Layer rpn_relu/3x3_p3
I1022 15:39:01.011960 27315 net.cpp:444] rpn_relu/3x3_p3 <- rpn/output_p3
I1022 15:39:01.011965 27315 net.cpp:405] rpn_relu/3x3_p3 -> rpn/output_p3 (in-place)
I1022 15:39:01.012234 27315 net.cpp:150] Setting up rpn_relu/3x3_p3
I1022 15:39:01.012244 27315 net.cpp:157] Top shape: 1 512 14 14 (100352)
I1022 15:39:01.012248 27315 net.cpp:165] Memory required for data: 270360844
I1022 15:39:01.012250 27315 layer_factory.hpp:77] Creating layer rpn/output_p3_rpn_relu/3x3_p3_0_split
I1022 15:39:01.012256 27315 net.cpp:100] Creating Layer rpn/output_p3_rpn_relu/3x3_p3_0_split
I1022 15:39:01.012260 27315 net.cpp:444] rpn/output_p3_rpn_relu/3x3_p3_0_split <- rpn/output_p3
I1022 15:39:01.012271 27315 net.cpp:418] rpn/output_p3_rpn_relu/3x3_p3_0_split -> rpn/output_p3_rpn_relu/3x3_p3_0_split_0
I1022 15:39:01.012280 27315 net.cpp:418] rpn/output_p3_rpn_relu/3x3_p3_0_split -> rpn/output_p3_rpn_relu/3x3_p3_0_split_1
I1022 15:39:01.012387 27315 net.cpp:150] Setting up rpn/output_p3_rpn_relu/3x3_p3_0_split
I1022 15:39:01.012393 27315 net.cpp:157] Top shape: 1 512 14 14 (100352)
I1022 15:39:01.012398 27315 net.cpp:157] Top shape: 1 512 14 14 (100352)
I1022 15:39:01.012400 27315 net.cpp:165] Memory required for data: 271163660
I1022 15:39:01.012403 27315 layer_factory.hpp:77] Creating layer rpn_cls_score_p3
I1022 15:39:01.012415 27315 net.cpp:100] Creating Layer rpn_cls_score_p3
I1022 15:39:01.012423 27315 net.cpp:444] rpn_cls_score_p3 <- rpn/output_p3_rpn_relu/3x3_p3_0_split_0
I1022 15:39:01.012428 27315 net.cpp:418] rpn_cls_score_p3 -> rpn_cls_score_p3
I1022 15:39:01.019799 27315 net.cpp:150] Setting up rpn_cls_score_p3
I1022 15:39:01.019815 27315 net.cpp:157] Top shape: 1 22 14 14 (4312)
I1022 15:39:01.019819 27315 net.cpp:165] Memory required for data: 271180908
I1022 15:39:01.019825 27315 layer_factory.hpp:77] Creating layer rpn_bbox_pred_p3
I1022 15:39:01.019840 27315 net.cpp:100] Creating Layer rpn_bbox_pred_p3
I1022 15:39:01.019846 27315 net.cpp:444] rpn_bbox_pred_p3 <- rpn/output_p3_rpn_relu/3x3_p3_0_split_1
I1022 15:39:01.019853 27315 net.cpp:418] rpn_bbox_pred_p3 -> rpn_bbox_pred_p3
I1022 15:39:01.022292 27315 net.cpp:150] Setting up rpn_bbox_pred_p3
I1022 15:39:01.022306 27315 net.cpp:157] Top shape: 1 44 14 14 (8624)
I1022 15:39:01.022310 27315 net.cpp:165] Memory required for data: 271215404
I1022 15:39:01.022316 27315 layer_factory.hpp:77] Creating layer rpn_cls_score_reshape_p3
I1022 15:39:01.022326 27315 net.cpp:100] Creating Layer rpn_cls_score_reshape_p3
I1022 15:39:01.022330 27315 net.cpp:444] rpn_cls_score_reshape_p3 <- rpn_cls_score_p3
I1022 15:39:01.022338 27315 net.cpp:418] rpn_cls_score_reshape_p3 -> rpn_cls_score_reshape_p3
I1022 15:39:01.022395 27315 net.cpp:150] Setting up rpn_cls_score_reshape_p3
I1022 15:39:01.022403 27315 net.cpp:157] Top shape: 1 2 154 14 (4312)
I1022 15:39:01.022405 27315 net.cpp:165] Memory required for data: 271232652
I1022 15:39:01.022408 27315 layer_factory.hpp:77] Creating layer rpn_cls_prob_p3
I1022 15:39:01.022416 27315 net.cpp:100] Creating Layer rpn_cls_prob_p3
I1022 15:39:01.022423 27315 net.cpp:444] rpn_cls_prob_p3 <- rpn_cls_score_reshape_p3
I1022 15:39:01.022428 27315 net.cpp:418] rpn_cls_prob_p3 -> rpn_cls_prob_p3
I1022 15:39:01.022815 27315 net.cpp:150] Setting up rpn_cls_prob_p3
I1022 15:39:01.022826 27315 net.cpp:157] Top shape: 1 2 154 14 (4312)
I1022 15:39:01.022830 27315 net.cpp:165] Memory required for data: 271249900
I1022 15:39:01.022832 27315 layer_factory.hpp:77] Creating layer rpn_cls_prob_reshape_p3
I1022 15:39:01.022838 27315 net.cpp:100] Creating Layer rpn_cls_prob_reshape_p3
I1022 15:39:01.022842 27315 net.cpp:444] rpn_cls_prob_reshape_p3 <- rpn_cls_prob_p3
I1022 15:39:01.022850 27315 net.cpp:418] rpn_cls_prob_reshape_p3 -> rpn_cls_prob_reshape_p3
I1022 15:39:01.022900 27315 net.cpp:150] Setting up rpn_cls_prob_reshape_p3
I1022 15:39:01.022907 27315 net.cpp:157] Top shape: 1 22 14 14 (4312)
I1022 15:39:01.022909 27315 net.cpp:165] Memory required for data: 271267148
I1022 15:39:01.022912 27315 layer_factory.hpp:77] Creating layer proposal
I1022 15:39:01.024050 27315 net.cpp:100] Creating Layer proposal
I1022 15:39:01.024062 27315 net.cpp:444] proposal <- im_info
I1022 15:39:01.024067 27315 net.cpp:444] proposal <- rpn_bbox_pred_p2
I1022 15:39:01.024072 27315 net.cpp:444] proposal <- rpn_bbox_pred_p3
I1022 15:39:01.024076 27315 net.cpp:444] proposal <- rpn_cls_prob_reshape_p2
I1022 15:39:01.024080 27315 net.cpp:444] proposal <- rpn_cls_prob_reshape_p3
I1022 15:39:01.024086 27315 net.cpp:418] proposal -> rpn_rois_p2
I1022 15:39:01.024094 27315 net.cpp:418] proposal -> rpn_rois_p3
I1022 15:39:01.025151 27315 net.cpp:150] Setting up proposal
I1022 15:39:01.025166 27315 net.cpp:157] Top shape: 1 5 (5)
I1022 15:39:01.025171 27315 net.cpp:157] Top shape: 1 1 1 1 (1)
I1022 15:39:01.025172 27315 net.cpp:165] Memory required for data: 271267172
I1022 15:39:01.025177 27315 layer_factory.hpp:77] Creating layer rpn_rois_p2_proposal_0_split
I1022 15:39:01.025183 27315 net.cpp:100] Creating Layer rpn_rois_p2_proposal_0_split
I1022 15:39:01.025187 27315 net.cpp:444] rpn_rois_p2_proposal_0_split <- rpn_rois_p2
I1022 15:39:01.025193 27315 net.cpp:418] rpn_rois_p2_proposal_0_split -> rpn_rois_p2_proposal_0_split_0
I1022 15:39:01.025202 27315 net.cpp:418] rpn_rois_p2_proposal_0_split -> rpn_rois_p2_proposal_0_split_1
I1022 15:39:01.025285 27315 net.cpp:150] Setting up rpn_rois_p2_proposal_0_split
I1022 15:39:01.025291 27315 net.cpp:157] Top shape: 1 5 (5)
I1022 15:39:01.025295 27315 net.cpp:157] Top shape: 1 5 (5)
I1022 15:39:01.025297 27315 net.cpp:165] Memory required for data: 271267212
I1022 15:39:01.025300 27315 layer_factory.hpp:77] Creating layer rpn_rois_p3_proposal_1_split
I1022 15:39:01.025305 27315 net.cpp:100] Creating Layer rpn_rois_p3_proposal_1_split
I1022 15:39:01.025310 27315 net.cpp:444] rpn_rois_p3_proposal_1_split <- rpn_rois_p3
I1022 15:39:01.025315 27315 net.cpp:418] rpn_rois_p3_proposal_1_split -> rpn_rois_p3_proposal_1_split_0
I1022 15:39:01.025321 27315 net.cpp:418] rpn_rois_p3_proposal_1_split -> rpn_rois_p3_proposal_1_split_1
I1022 15:39:01.025396 27315 net.cpp:150] Setting up rpn_rois_p3_proposal_1_split
I1022 15:39:01.025403 27315 net.cpp:157] Top shape: 1 1 1 1 (1)
I1022 15:39:01.025408 27315 net.cpp:157] Top shape: 1 1 1 1 (1)
I1022 15:39:01.025410 27315 net.cpp:165] Memory required for data: 271267220
I1022 15:39:01.025413 27315 layer_factory.hpp:77] Creating layer conv_new_p2
I1022 15:39:01.025422 27315 net.cpp:100] Creating Layer conv_new_p2
I1022 15:39:01.025429 27315 net.cpp:444] conv_new_p2 <- p2_p2_relu_0_split_1
I1022 15:39:01.025434 27315 net.cpp:418] conv_new_p2 -> conv_new_p2
I1022 15:39:01.040135 27315 net.cpp:150] Setting up conv_new_p2
I1022 15:39:01.040150 27315 net.cpp:157] Top shape: 1 1024 28 28 (802816)
I1022 15:39:01.040153 27315 net.cpp:165] Memory required for data: 274478484
I1022 15:39:01.040161 27315 layer_factory.hpp:77] Creating layer conv_new_p2_relu
I1022 15:39:01.040169 27315 net.cpp:100] Creating Layer conv_new_p2_relu
I1022 15:39:01.040174 27315 net.cpp:444] conv_new_p2_relu <- conv_new_p2
I1022 15:39:01.040179 27315 net.cpp:405] conv_new_p2_relu -> conv_new_p2 (in-place)
I1022 15:39:01.041260 27315 net.cpp:150] Setting up conv_new_p2_relu
I1022 15:39:01.041272 27315 net.cpp:157] Top shape: 1 1024 28 28 (802816)
I1022 15:39:01.041275 27315 net.cpp:165] Memory required for data: 277689748
I1022 15:39:01.041278 27315 layer_factory.hpp:77] Creating layer conv_new_p2_conv_new_p2_relu_0_split
I1022 15:39:01.041285 27315 net.cpp:100] Creating Layer conv_new_p2_conv_new_p2_relu_0_split
I1022 15:39:01.041288 27315 net.cpp:444] conv_new_p2_conv_new_p2_relu_0_split <- conv_new_p2
I1022 15:39:01.041296 27315 net.cpp:418] conv_new_p2_conv_new_p2_relu_0_split -> conv_new_p2_conv_new_p2_relu_0_split_0
I1022 15:39:01.041304 27315 net.cpp:418] conv_new_p2_conv_new_p2_relu_0_split -> conv_new_p2_conv_new_p2_relu_0_split_1
I1022 15:39:01.041401 27315 net.cpp:150] Setting up conv_new_p2_conv_new_p2_relu_0_split
I1022 15:39:01.041409 27315 net.cpp:157] Top shape: 1 1024 28 28 (802816)
I1022 15:39:01.041412 27315 net.cpp:157] Top shape: 1 1024 28 28 (802816)
I1022 15:39:01.041415 27315 net.cpp:165] Memory required for data: 284112276
I1022 15:39:01.041419 27315 layer_factory.hpp:77] Creating layer rfcn_cls_p2
I1022 15:39:01.041430 27315 net.cpp:100] Creating Layer rfcn_cls_p2
I1022 15:39:01.041435 27315 net.cpp:444] rfcn_cls_p2 <- conv_new_p2_conv_new_p2_relu_0_split_0
I1022 15:39:01.041445 27315 net.cpp:418] rfcn_cls_p2 -> rfcn_cls_p2
I1022 15:39:01.044760 27315 net.cpp:150] Setting up rfcn_cls_p2
I1022 15:39:01.044775 27315 net.cpp:157] Top shape: 1 98 28 28 (76832)
I1022 15:39:01.044777 27315 net.cpp:165] Memory required for data: 284419604
I1022 15:39:01.044785 27315 layer_factory.hpp:77] Creating layer rfcn_bbox_p2
I1022 15:39:01.044796 27315 net.cpp:100] Creating Layer rfcn_bbox_p2
I1022 15:39:01.044801 27315 net.cpp:444] rfcn_bbox_p2 <- conv_new_p2_conv_new_p2_relu_0_split_1
I1022 15:39:01.044811 27315 net.cpp:418] rfcn_bbox_p2 -> rfcn_bbox_p2
I1022 15:39:01.053299 27315 net.cpp:150] Setting up rfcn_bbox_p2
I1022 15:39:01.053313 27315 net.cpp:157] Top shape: 1 392 28 28 (307328)
I1022 15:39:01.053316 27315 net.cpp:165] Memory required for data: 285648916
I1022 15:39:01.053331 27315 layer_factory.hpp:77] Creating layer psroipooled_cls_rois_p2
I1022 15:39:01.053341 27315 net.cpp:100] Creating Layer psroipooled_cls_rois_p2
I1022 15:39:01.053347 27315 net.cpp:444] psroipooled_cls_rois_p2 <- rfcn_cls_p2
I1022 15:39:01.053352 27315 net.cpp:444] psroipooled_cls_rois_p2 <- rpn_rois_p2_proposal_0_split_0
I1022 15:39:01.053360 27315 net.cpp:418] psroipooled_cls_rois_p2 -> psroipooled_cls_rois_p2
I1022 15:39:01.053369 27315 psroi_pooling_layer.cpp:26] Spatial scale: 0.125
I1022 15:39:01.053468 27315 net.cpp:150] Setting up psroipooled_cls_rois_p2
I1022 15:39:01.053475 27315 net.cpp:157] Top shape: 1 2 7 7 (98)
I1022 15:39:01.053478 27315 net.cpp:165] Memory required for data: 285649308
I1022 15:39:01.053481 27315 layer_factory.hpp:77] Creating layer ave_cls_score_rois_p2
I1022 15:39:01.053490 27315 net.cpp:100] Creating Layer ave_cls_score_rois_p2
I1022 15:39:01.053495 27315 net.cpp:444] ave_cls_score_rois_p2 <- psroipooled_cls_rois_p2
I1022 15:39:01.053503 27315 net.cpp:418] ave_cls_score_rois_p2 -> cls_score_p2
I1022 15:39:01.053802 27315 net.cpp:150] Setting up ave_cls_score_rois_p2
I1022 15:39:01.053812 27315 net.cpp:157] Top shape: 1 2 1 1 (2)
I1022 15:39:01.053814 27315 net.cpp:165] Memory required for data: 285649316
I1022 15:39:01.053817 27315 layer_factory.hpp:77] Creating layer psroipooled_loc_rois_p2
I1022 15:39:01.053823 27315 net.cpp:100] Creating Layer psroipooled_loc_rois_p2
I1022 15:39:01.053827 27315 net.cpp:444] psroipooled_loc_rois_p2 <- rfcn_bbox_p2
I1022 15:39:01.053831 27315 net.cpp:444] psroipooled_loc_rois_p2 <- rpn_rois_p2_proposal_0_split_1
I1022 15:39:01.053838 27315 net.cpp:418] psroipooled_loc_rois_p2 -> psroipooled_loc_rois_p2
I1022 15:39:01.053845 27315 psroi_pooling_layer.cpp:26] Spatial scale: 0.125
I1022 15:39:01.053933 27315 net.cpp:150] Setting up psroipooled_loc_rois_p2
I1022 15:39:01.053941 27315 net.cpp:157] Top shape: 1 8 7 7 (392)
I1022 15:39:01.053943 27315 net.cpp:165] Memory required for data: 285650884
I1022 15:39:01.053946 27315 layer_factory.hpp:77] Creating layer ave_bbox_pred_rois_p2
I1022 15:39:01.053953 27315 net.cpp:100] Creating Layer ave_bbox_pred_rois_p2
I1022 15:39:01.053958 27315 net.cpp:444] ave_bbox_pred_rois_p2 <- psroipooled_loc_rois_p2
I1022 15:39:01.053963 27315 net.cpp:418] ave_bbox_pred_rois_p2 -> bbox_pred_pre_p2
I1022 15:39:01.054247 27315 net.cpp:150] Setting up ave_bbox_pred_rois_p2
I1022 15:39:01.054256 27315 net.cpp:157] Top shape: 1 8 1 1 (8)
I1022 15:39:01.054260 27315 net.cpp:165] Memory required for data: 285650916
I1022 15:39:01.054262 27315 layer_factory.hpp:77] Creating layer conv_new_p3
I1022 15:39:01.054280 27315 net.cpp:100] Creating Layer conv_new_p3
I1022 15:39:01.054283 27315 net.cpp:444] conv_new_p3 <- p3_p3_relu_0_split_2
I1022 15:39:01.054291 27315 net.cpp:418] conv_new_p3 -> conv_new_p3
I1022 15:39:01.070035 27315 net.cpp:150] Setting up conv_new_p3
I1022 15:39:01.070050 27315 net.cpp:157] Top shape: 1 1024 14 14 (200704)
I1022 15:39:01.070055 27315 net.cpp:165] Memory required for data: 286453732
I1022 15:39:01.070070 27315 layer_factory.hpp:77] Creating layer conv_new_p3_relu
I1022 15:39:01.070077 27315 net.cpp:100] Creating Layer conv_new_p3_relu
I1022 15:39:01.070082 27315 net.cpp:444] conv_new_p3_relu <- conv_new_p3
I1022 15:39:01.070087 27315 net.cpp:405] conv_new_p3_relu -> conv_new_p3 (in-place)
I1022 15:39:01.071125 27315 net.cpp:150] Setting up conv_new_p3_relu
I1022 15:39:01.071138 27315 net.cpp:157] Top shape: 1 1024 14 14 (200704)
I1022 15:39:01.071141 27315 net.cpp:165] Memory required for data: 287256548
I1022 15:39:01.071146 27315 layer_factory.hpp:77] Creating layer conv_new_p3_conv_new_p3_relu_0_split
I1022 15:39:01.071153 27315 net.cpp:100] Creating Layer conv_new_p3_conv_new_p3_relu_0_split
I1022 15:39:01.071157 27315 net.cpp:444] conv_new_p3_conv_new_p3_relu_0_split <- conv_new_p3
I1022 15:39:01.071164 27315 net.cpp:418] conv_new_p3_conv_new_p3_relu_0_split -> conv_new_p3_conv_new_p3_relu_0_split_0
I1022 15:39:01.071173 27315 net.cpp:418] conv_new_p3_conv_new_p3_relu_0_split -> conv_new_p3_conv_new_p3_relu_0_split_1
I1022 15:39:01.071270 27315 net.cpp:150] Setting up conv_new_p3_conv_new_p3_relu_0_split
I1022 15:39:01.071279 27315 net.cpp:157] Top shape: 1 1024 14 14 (200704)
I1022 15:39:01.071282 27315 net.cpp:157] Top shape: 1 1024 14 14 (200704)
I1022 15:39:01.071286 27315 net.cpp:165] Memory required for data: 288862180
I1022 15:39:01.071290 27315 layer_factory.hpp:77] Creating layer rfcn_cls_p3
I1022 15:39:01.071302 27315 net.cpp:100] Creating Layer rfcn_cls_p3
I1022 15:39:01.071307 27315 net.cpp:444] rfcn_cls_p3 <- conv_new_p3_conv_new_p3_relu_0_split_0
I1022 15:39:01.071316 27315 net.cpp:418] rfcn_cls_p3 -> rfcn_cls_p3
I1022 15:39:01.074592 27315 net.cpp:150] Setting up rfcn_cls_p3
I1022 15:39:01.074606 27315 net.cpp:157] Top shape: 1 98 14 14 (19208)
I1022 15:39:01.074609 27315 net.cpp:165] Memory required for data: 288939012
I1022 15:39:01.074617 27315 layer_factory.hpp:77] Creating layer rfcn_bbox_p3
I1022 15:39:01.074630 27315 net.cpp:100] Creating Layer rfcn_bbox_p3
I1022 15:39:01.074633 27315 net.cpp:444] rfcn_bbox_p3 <- conv_new_p3_conv_new_p3_relu_0_split_1
I1022 15:39:01.074640 27315 net.cpp:418] rfcn_bbox_p3 -> rfcn_bbox_p3
I1022 15:39:01.089783 27315 net.cpp:150] Setting up rfcn_bbox_p3
I1022 15:39:01.089798 27315 net.cpp:157] Top shape: 1 392 14 14 (76832)
I1022 15:39:01.089802 27315 net.cpp:165] Memory required for data: 289246340
I1022 15:39:01.089808 27315 layer_factory.hpp:77] Creating layer psroipooled_cls_rois_p3
I1022 15:39:01.089818 27315 net.cpp:100] Creating Layer psroipooled_cls_rois_p3
I1022 15:39:01.089823 27315 net.cpp:444] psroipooled_cls_rois_p3 <- rfcn_cls_p3
I1022 15:39:01.089828 27315 net.cpp:444] psroipooled_cls_rois_p3 <- rpn_rois_p3_proposal_1_split_0
I1022 15:39:01.089835 27315 net.cpp:418] psroipooled_cls_rois_p3 -> psroipooled_cls_rois_p3
I1022 15:39:01.089844 27315 psroi_pooling_layer.cpp:26] Spatial scale: 0.0625
I1022 15:39:01.089944 27315 net.cpp:150] Setting up psroipooled_cls_rois_p3
I1022 15:39:01.089952 27315 net.cpp:157] Top shape: 1 2 7 7 (98)
I1022 15:39:01.089954 27315 net.cpp:165] Memory required for data: 289246732
I1022 15:39:01.089958 27315 layer_factory.hpp:77] Creating layer ave_cls_score_rois_p3
I1022 15:39:01.089964 27315 net.cpp:100] Creating Layer ave_cls_score_rois_p3
I1022 15:39:01.089968 27315 net.cpp:444] ave_cls_score_rois_p3 <- psroipooled_cls_rois_p3
I1022 15:39:01.089975 27315 net.cpp:418] ave_cls_score_rois_p3 -> cls_score_p3
I1022 15:39:01.090275 27315 net.cpp:150] Setting up ave_cls_score_rois_p3
I1022 15:39:01.090283 27315 net.cpp:157] Top shape: 1 2 1 1 (2)
I1022 15:39:01.090286 27315 net.cpp:165] Memory required for data: 289246740
I1022 15:39:01.090289 27315 layer_factory.hpp:77] Creating layer psroipooled_loc_rois_p3
I1022 15:39:01.090296 27315 net.cpp:100] Creating Layer psroipooled_loc_rois_p3
I1022 15:39:01.090299 27315 net.cpp:444] psroipooled_loc_rois_p3 <- rfcn_bbox_p3
I1022 15:39:01.090306 27315 net.cpp:444] psroipooled_loc_rois_p3 <- rpn_rois_p3_proposal_1_split_1
I1022 15:39:01.090312 27315 net.cpp:418] psroipooled_loc_rois_p3 -> psroipooled_loc_rois_p3
I1022 15:39:01.090318 27315 psroi_pooling_layer.cpp:26] Spatial scale: 0.0625
I1022 15:39:01.090405 27315 net.cpp:150] Setting up psroipooled_loc_rois_p3
I1022 15:39:01.090412 27315 net.cpp:157] Top shape: 1 8 7 7 (392)
I1022 15:39:01.090415 27315 net.cpp:165] Memory required for data: 289248308
I1022 15:39:01.090418 27315 layer_factory.hpp:77] Creating layer ave_bbox_pred_rois_p3
I1022 15:39:01.090425 27315 net.cpp:100] Creating Layer ave_bbox_pred_rois_p3
I1022 15:39:01.090432 27315 net.cpp:444] ave_bbox_pred_rois_p3 <- psroipooled_loc_rois_p3
I1022 15:39:01.090437 27315 net.cpp:418] ave_bbox_pred_rois_p3 -> bbox_pred_pre_p3
I1022 15:39:01.090723 27315 net.cpp:150] Setting up ave_bbox_pred_rois_p3
I1022 15:39:01.090731 27315 net.cpp:157] Top shape: 1 8 1 1 (8)
I1022 15:39:01.090734 27315 net.cpp:165] Memory required for data: 289248340
I1022 15:39:01.090737 27315 layer_factory.hpp:77] Creating layer cls_prob_pre_p2
I1022 15:39:01.090745 27315 net.cpp:100] Creating Layer cls_prob_pre_p2
I1022 15:39:01.090749 27315 net.cpp:444] cls_prob_pre_p2 <- cls_score_p2
I1022 15:39:01.090754 27315 net.cpp:418] cls_prob_pre_p2 -> cls_prob_pre_p2
I1022 15:39:01.091935 27315 net.cpp:150] Setting up cls_prob_pre_p2
I1022 15:39:01.091948 27315 net.cpp:157] Top shape: 1 2 1 1 (2)
I1022 15:39:01.091951 27315 net.cpp:165] Memory required for data: 289248348
I1022 15:39:01.091954 27315 layer_factory.hpp:77] Creating layer cls_prob_pre_p3
I1022 15:39:01.091962 27315 net.cpp:100] Creating Layer cls_prob_pre_p3
I1022 15:39:01.091966 27315 net.cpp:444] cls_prob_pre_p3 <- cls_score_p3
I1022 15:39:01.091974 27315 net.cpp:418] cls_prob_pre_p3 -> cls_prob_pre_p3
I1022 15:39:01.092363 27315 net.cpp:150] Setting up cls_prob_pre_p3
I1022 15:39:01.092372 27315 net.cpp:157] Top shape: 1 2 1 1 (2)
I1022 15:39:01.092375 27315 net.cpp:165] Memory required for data: 289248356
I1022 15:39:01.092380 27315 layer_factory.hpp:77] Creating layer cls_prob_reshape_p2
I1022 15:39:01.092387 27315 net.cpp:100] Creating Layer cls_prob_reshape_p2
I1022 15:39:01.092391 27315 net.cpp:444] cls_prob_reshape_p2 <- cls_prob_pre_p2
I1022 15:39:01.092397 27315 net.cpp:418] cls_prob_reshape_p2 -> cls_prob_p2
I1022 15:39:01.092448 27315 net.cpp:150] Setting up cls_prob_reshape_p2
I1022 15:39:01.092458 27315 net.cpp:157] Top shape: 1 2 (2)
I1022 15:39:01.092461 27315 net.cpp:165] Memory required for data: 289248364
I1022 15:39:01.092464 27315 layer_factory.hpp:77] Creating layer cls_prob_reshape_p3
I1022 15:39:01.092469 27315 net.cpp:100] Creating Layer cls_prob_reshape_p3
I1022 15:39:01.092473 27315 net.cpp:444] cls_prob_reshape_p3 <- cls_prob_pre_p3
I1022 15:39:01.092478 27315 net.cpp:418] cls_prob_reshape_p3 -> cls_prob_p3
I1022 15:39:01.092528 27315 net.cpp:150] Setting up cls_prob_reshape_p3
I1022 15:39:01.092535 27315 net.cpp:157] Top shape: 1 2 (2)
I1022 15:39:01.092537 27315 net.cpp:165] Memory required for data: 289248372
I1022 15:39:01.092540 27315 layer_factory.hpp:77] Creating layer bbox_pred_reshape_p2
I1022 15:39:01.092545 27315 net.cpp:100] Creating Layer bbox_pred_reshape_p2
I1022 15:39:01.092550 27315 net.cpp:444] bbox_pred_reshape_p2 <- bbox_pred_pre_p2
I1022 15:39:01.092556 27315 net.cpp:418] bbox_pred_reshape_p2 -> bbox_pred_p2
I1022 15:39:01.092603 27315 net.cpp:150] Setting up bbox_pred_reshape_p2
I1022 15:39:01.092628 27315 net.cpp:157] Top shape: 1 8 (8)
I1022 15:39:01.092631 27315 net.cpp:165] Memory required for data: 289248404
I1022 15:39:01.092634 27315 layer_factory.hpp:77] Creating layer bbox_pred_reshape_p3
I1022 15:39:01.092653 27315 net.cpp:100] Creating Layer bbox_pred_reshape_p3
I1022 15:39:01.092658 27315 net.cpp:444] bbox_pred_reshape_p3 <- bbox_pred_pre_p3
I1022 15:39:01.092664 27315 net.cpp:418] bbox_pred_reshape_p3 -> bbox_pred_p3
I1022 15:39:01.092715 27315 net.cpp:150] Setting up bbox_pred_reshape_p3
I1022 15:39:01.092722 27315 net.cpp:157] Top shape: 1 8 (8)
I1022 15:39:01.092725 27315 net.cpp:165] Memory required for data: 289248436
I1022 15:39:01.092728 27315 net.cpp:228] bbox_pred_reshape_p3 does not need backward computation.
I1022 15:39:01.092732 27315 net.cpp:228] bbox_pred_reshape_p2 does not need backward computation.
I1022 15:39:01.092736 27315 net.cpp:228] cls_prob_reshape_p3 does not need backward computation.
I1022 15:39:01.092739 27315 net.cpp:228] cls_prob_reshape_p2 does not need backward computation.
…
