…
snapshot_prefix: "fpn_rfcn_ohem"
stepvalue: 4000
stepvalue: 5000
iter_size: 8
I1029 22:13:16.511572  6732 solver.cpp:81] Creating training net from train_net file: /home/user/Disk1.8T/unicoe/py-R-FCN/experiments/10_29/model_ohem/multi_ohem.prototxt
I1029 22:13:16.514174  6732 net.cpp:58] Initializing net from parameters: 
name: "ResNet-50"
state {
  phase: TRAIN
}
layer {
  name: "input-data"
  type: "Python"
  top: "data"
  top: "im_info"
  top: "gt_boxes"
  python_param {
    module: "roi_data_layer.layer"
    layer: "RoIDataLayer"
    param_str: "\'num_classes\': 2"
  }
}
layer {
  name: "conv1"
  type: "Convolution"
  bottom: "data"
  top: "conv1"
  param {
    lr_mult: 0
  }
  param {
    lr_mult: 0
  }
  convolution_param {
    num_output: 64
    pad: 3
    kernel_size: 7
    stride: 2
  }
}
layer {
  name: "bn_conv1"
  type: "BatchNorm"
  bottom: "conv1"
  top: "conv1"
  param {
    lr_mult: 0
    decay_mult: 0
  }
  param {
    lr_mult: 0
    decay_mult: 0
  }
  param {
    lr_mult: 0
    decay_mult: 0
  }
  batch_norm_param {
    use_global_stats: true
  }
}
layer {
  name: "scale_conv1"
  type: "Scale"
  bottom: "conv1"
  top: "conv1"
  param {
    lr_mult: 0
    decay_mult: 0
  }
  param {
    lr_mult: 0
    decay_mult: 0
  }
  scale_param {
    bias_term: true
  }
}
layer {
  name: "conv1_relu"
  type: "ReLU"
  bottom: "conv1"
  top: "conv1"
}
layer {
  name: "pool1"
  type: "Pooling"
  bottom: "conv1"
  top: "pool1"
  pooling_param {
    pool: MAX
    kernel_size: 3
    stride: 2
    pad: 0
  }
}
layer {
  name: "res2a_branch1"
  type: "Convolution"
  bottom: "pool1"
  top: "res2a_branch1"
  param {
    lr_mult: 0
  }
  convolution_param {
    num_output: 256
    bias_term: false
    pad: 0
    kernel_size: 1
    stride: 1
  }
}
layer {
  name: "bn2a_branch1"
  type: "BatchNorm"
  bottom: "res2a_branch1"
  top: "res2a_branch1"
  param {
    lr_mult: 0
    decay_mult: 0
  }
  param {
    lr_mult: 0
    decay_mult: 0
  }
  param {
    lr_mult: 0
    decay_mult: 0
  }
  batch_norm_param {
    use_global_stats: true
  }
}
layer {
  name: "scale2a_branch1"
  type: "Scale"
  bottom: "res2a_branch1"
  top: "res2a_branch1"
  param {
    lr_mult: 0
    decay_mult: 0
  }
  param {
    lr_mult: 0
    decay_mult: 0
  }
  scale_param {
    bias_term: true
  }
}
layer {
  name: "res2a_branch2a"
  type: "Convolution"
  bottom: "pool1"
  top: "res2a_branch2a"
  param {
    lr_mult: 0
  }
  convolution_param {
    num_output: 64
    bias_term: false
    pad: 0
    kernel_size: 1
    stride: 1
  }
}
layer {
  name: "bn2a_branch2a"
  type: "BatchNorm"
  bottom: "res2a_branch2a"
  top: "res2a_branch2a"
  param {
    lr_mult: 0
    decay_mult: 0
  }
  param {
    lr_mult: 0
    decay_mult: 0
  }
  param {
    lr_mult: 0
    decay_mult: 0
  }
  batch_norm_param {
    use_global_stats: true
  }
}
layer {
  name: "scale2a_branch2a"
  type: "Scale"
  bottom: "res2a_branch2a"
  top: "res2a_branch2a"
  param {
    lr_mult: 0
    decay_mult: 0
  }
  param {
    lr_mult: 0
    decay_mult: 0
  }
  scale_param {
    bias_term: true
  }
}
layer {
  name: "res2a_branch2a_relu"
  type: "ReLU"
  bottom: "res2a_branch2a"
  top: "res2a_branch2a"
}
layer {
  name: "res2a_branch2b"
  type: "Convolution"
  bottom: "res2a_branch2a"
  top: "res2a_branch2b"
  param {
    lr_mult: 0
  }
  convolution_param {
    num_output: 64
    bias_term: false
    pad: 1
    kernel_size: 3
    stride: 1
  }
}
layer {
  name: "bn2a_branch2b"
  type: "BatchNorm"
  bottom: "res2a_branch2b"
  top: "res2a_branch2b"
  param {
    lr_mult: 0
    decay_mult: 0
  }
  param {
    lr_mult: 0
    decay_mult: 0
  }
  param {
    lr_mult: 0
    decay_mult: 0
  }
  batch_norm_param {
    use_global_stats: true
  }
}
layer {
  name: "scale2a_branch2b"
  type: "Scale"
  bottom: "res2a_branch2b"
  top: "res2a_branch2b"
  param {
    lr_mult: 0
    decay_mult: 0
  }
  param {
    lr_mult: 0
    decay_mult: 0
  }
  scale_param {
    bias_term: true
  }
}
layer {
  name: "res2a_branch2b_relu"
  type: "ReLU"
  bottom: "res2a_branch2b"
  top: "res2a_branch2b"
}
layer {
  name: "res2a_branch2c"
  type: "Convolution"
  bottom: "res2a_branch2b"
  top: "res2a_branch2c"
  param {
    lr_mult: 0
  }
  convolution_param {
    num_output: 256
    bias_term: false
    pad: 0
    kernel_size: 1
    stride: 1
  }
}
layer {
  name: "bn2a_branch2c"
  type: "BatchNorm"
  bottom: "res2a_branch2c"
  top: "res2a_branch2c"
  param {
    lr_mult: 0
    decay_mult: 0
  }
  param {
    lr_mult: 0
    decay_mult: 0
  }
  param {
    lr_mult: 0
    decay_mult: 0
  }
  batch_norm_param {
    use_global_stats: true
  }
}
layer {
  name: "scale2a_branch2c"
  type: "Scale"
  bottom: "res2a_branch2c"
  top: "res2a_branch2c"
  param {
    lr_mult: 0
    decay_mult: 0
  }
  param {
    lr_mult: 0
    decay_mult: 0
  }
  scale_param {
    bias_term: true
  }
}
layer {
  name: "res2a"
  type: "Eltwise"
  bottom: "res2a_branch1"
  bottom: "res2a_branch2c"
  top: "res2a"
}
layer {
  name: "res2a_relu"
  type: "ReLU"
  bottom: "res2a"
  top: "res2a"
}
layer {
  name: "res2b_branch2a"
  type: "Convolution"
  bottom: "res2a"
  top: "res2b_branch2a"
  param {
    lr_mult: 0
  }
  convolution_param {
    num_output: 64
    bias_term: false
    pad: 0
    kernel_size: 1
    stride: 1
  }
}
layer {
  name: "bn2b_branch2a"
  type: "BatchNorm"
  bottom: "res2b_branch2a"
  top: "res2b_branch2a"
  param {
    lr_mult: 0
    decay_mult: 0
  }
  param {
    lr_mult: 0
    decay_mult: 0
  }
  param {
    lr_mult: 0
    decay_mult: 0
  }
  batch_norm_param {
    use_global_stats: true
  }
}
layer {
  name: "scale2b_branch2a"
  type: "Scale"
  bottom: "res2b_branch2a"
  top: "res2b_branch2a"
  param {
    lr_mult: 0
    decay_mult: 0
  }
  param {
    lr_mult: 0
    decay_mult: 0
  }
  scale_param {
    bias_term: true
  }
}
layer {
  name: "res2b_branch2a_relu"
  type: "ReLU"
  bottom: "res2b_branch2a"
  top: "res2b_branch2a"
}
layer {
  name: "res2b_branch2b"
  type: "Convolution"
  bottom: "res2b_branch2a"
  top: "res2b_branch2b"
  param {
    lr_mult: 0
  }
  convolution_param {
    num_output: 64
    bias_term: false
    pad: 1
    kernel_size: 3
    stride: 1
  }
}
layer {
  name: "bn2b_branch2b"
  type: "BatchNorm"
  bottom: "res2b_branch2b"
  top: "res2b_branch2b"
  param {
    lr_mult: 0
    decay_mult: 0
  }
  param {
    lr_mult: 0
    decay_mult: 0
  }
  param {
    lr_mult: 0
    decay_mult: 0
  }
  batch_norm_param {
    use_global_stats: true
  }
}
layer {
  name: "scale2b_branch2b"
  type: "Scale"
  bottom: "res2b_branch2b"
  top: "res2b_branch2b"
  param {
    lr_mult: 0
    decay_mult: 0
  }
  param {
    lr_mult: 0
    decay_mult: 0
  }
  scale_param {
    bias_term: true
  }
}
layer {
  name: "res2b_branch2b_relu"
  type: "ReLU"
  bottom: "res2b_branch2b"
  top: "res2b_branch2b"
}
layer {
  name: "res2b_branch2c"
  type: "Convolution"
  bottom: "res2b_branch2b"
  top: "res2b_branch2c"
  param {
    lr_mult: 0
  }
  convolution_param {
    num_output: 256
    bias_term: false
    pad: 0
    kernel_size: 1
    stride: 1
  }
}
layer {
  name: "bn2b_branch2c"
  type: "BatchNorm"
  bottom: "res2b_branch2c"
  top: "res2b_branch2c"
  param {
    lr_mult: 0
    decay_mult: 0
  }
  param {
    lr_mult: 0
    decay_mult: 0
  }
  param {
    lr_mult: 0
    decay_mult: 0
  }
  batch_norm_param {
    use_global_stats: true
  }
}
layer {
  name: "scale2b_branch2c"
  type: "Scale"
  bottom: "res2b_branch2c"
  top: "res2b_branch2c"
  param {
    lr_mult: 0
    decay_mult: 0
  }
  param {
    lr_mult: 0
    decay_mult: 0
  }
  scale_param {
    bias_term: true
  }
}
layer {
  name: "res2b"
  type: "Eltwise"
  bottom: "res2a"
  bottom: "res2b_branch2c"
  top: "res2b"
}
layer {
  name: "res2b_relu"
  type: "ReLU"
  bottom: "res2b"
  top: "res2b"
}
layer {
  name: "res2c_branch2a"
  type: "Convolution"
  bottom: "res2b"
  top: "res2c_branch2a"
  param {
    lr_mult: 0
  }
  convolution_param {
    num_output: 64
    bias_term: false
    pad: 0
    kernel_size: 1
    stride: 1
  }
}
layer {
  name: "bn2c_branch2a"
  type: "BatchNorm"
  bottom: "res2c_branch2a"
  top: "res2c_branch2a"
  param {
    lr_mult: 0
    decay_mult: 0
  }
  param {
    lr_mult: 0
    decay_mult: 0
  }
  param {
    lr_mult: 0
    decay_mult: 0
  }
  batch_norm_param {
    use_global_stats: true
  }
}
layer {
  name: "scale2c_branch2a"
  type: "Scale"
  bottom: "res2c_branch2a"
  top: "res2c_branch2a"
  param {
    lr_mult: 0
    decay_mult: 0
  }
  param {
    lr_mult: 0
    decay_mult: 0
  }
  scale_param {
    bias_term: true
  }
}
layer {
  name: "res2c_branch2a_relu"
  type: "ReLU"
  bottom: "res2c_branch2a"
  top: "res2c_branch2a"
}
layer {
  name: "res2c_branch2b"
  type: "Convolution"
  bottom: "res2c_branch2a"
  top: "res2c_branch2b"
  param {
    lr_mult: 0
  }
  convolution_param {
    num_output: 64
    bias_term: false
    pad: 1
    kernel_size: 3
    stride: 1
  }
}
layer {
  name: "bn2c_branch2b"
  type: "BatchNorm"
  bottom: "res2c_branch2b"
  top: "res2c_branch2b"
  param {
    lr_mult: 0
    decay_mult: 0
  }
  param {
    lr_mult: 0
    decay_mult: 0
  }
  param {
    lr_mult: 0
    decay_mult: 0
  }
  batch_norm_param {
    use_global_stats: true
  }
}
layer {
  name: "scale2c_branch2b"
  type: "Scale"
  bottom: "res2c_branch2b"
  top: "res2c_branch2b"
  param {
    lr_mult: 0
    decay_mult: 0
  }
  param {
    lr_mult: 0
    decay_mult: 0
  }
  scale_param {
    bias_term: true
  }
}
layer {
  name: "res2c_branch2b_relu"
  type: "ReLU"
  bottom: "res2c_branch2b"
  top: "res2c_branch2b"
}
layer {
  name: "res2c_branch2c"
  type: "Convolution"
  bottom: "res2c_branch2b"
  top: "res2c_branch2c"
  param {
    lr_mult: 0
  }
  convolution_param {
    num_output: 256
    bias_term: false
    pad: 0
    kernel_size: 1
    stride: 1
  }
}
layer {
  name: "bn2c_branch2c"
  type: "BatchNorm"
  bottom: "res2c_branch2c"
  top: "res2c_branch2c"
  param {
    lr_mult: 0
    decay_mult: 0
  }
  param {
    lr_mult: 0
    decay_mult: 0
  }
  param {
    lr_mult: 0
    decay_mult: 0
  }
  batch_norm_param {
    use_global_stats: true
  }
}
layer {
  name: "scale2c_branch2c"
  type: "Scale"
  bottom: "res2c_branch2c"
  top: "res2c_branch2c"
  param {
    lr_mult: 0
    decay_mult: 0
  }
  param {
    lr_mult: 0
    decay_mult: 0
  }
  scale_param {
    bias_term: true
  }
}
layer {
  name: "res2c"
  type: "Eltwise"
  bottom: "res2b"
  bottom: "res2c_branch2c"
  top: "res2c"
}
layer {
  name: "res2c_relu"
  type: "ReLU"
  bottom: "res2c"
  top: "res2c"
}
layer {
  name: "res3a_branch1"
  type: "Convolution"
  bottom: "res2c"
  top: "res3a_branch1"
  param {
    lr_mult: 1
  }
  convolution_param {
    num_output: 512
    bias_term: false
    pad: 0
    kernel_size: 1
    stride: 2
  }
}
layer {
  name: "bn3a_branch1"
  type: "BatchNorm"
  bottom: "res3a_branch1"
  top: "res3a_branch1"
  param {
    lr_mult: 0
    decay_mult: 0
  }
  param {
    lr_mult: 0
    decay_mult: 0
  }
  param {
    lr_mult: 0
    decay_mult: 0
  }
  batch_norm_param {
    use_global_stats: true
  }
}
layer {
  name: "scale3a_branch1"
  type: "Scale"
  bottom: "res3a_branch1"
  top: "res3a_branch1"
  param {
    lr_mult: 0
    decay_mult: 0
  }
  param {
    lr_mult: 0
    decay_mult: 0
  }
  scale_param {
    bias_term: true
  }
}
layer {
  name: "res3a_branch2a"
  type: "Convolution"
  bottom: "res2c"
  top: "res3a_branch2a"
  param {
    lr_mult: 1
  }
  convolution_param {
    num_output: 128
    bias_term: false
    pad: 0
    kernel_size: 1
    stride: 2
  }
}
layer {
  name: "bn3a_branch2a"
  type: "BatchNorm"
  bottom: "res3a_branch2a"
  top: "res3a_branch2a"
  param {
    lr_mult: 0
    decay_mult: 0
  }
  param {
    lr_mult: 0
    decay_mult: 0
  }
  param {
    lr_mult: 0
    decay_mult: 0
  }
  batch_norm_param {
    use_global_stats: true
  }
}
layer {
  name: "scale3a_branch2a"
  type: "Scale"
  bottom: "res3a_branch2a"
  top: "res3a_branch2a"
  param {
    lr_mult: 0
    decay_mult: 0
  }
  param {
    lr_mult: 0
    decay_mult: 0
  }
  scale_param {
    bias_term: true
  }
}
layer {
  name: "res3a_branch2a_relu"
  type: "ReLU"
  bottom: "res3a_branch2a"
  top: "res3a_branch2a"
}
layer {
  name: "res3a_branch2b"
  type: "Convolution"
  bottom: "res3a_branch2a"
  top: "res3a_branch2b"
  param {
    lr_mult: 1
  }
  convolution_param {
    num_output: 128
    bias_term: false
    pad: 1
    kernel_size: 3
    stride: 1
  }
}
layer {
  name: "bn3a_branch2b"
  type: "BatchNorm"
  bottom: "res3a_branch2b"
  top: "res3a_branch2b"
  param {
    lr_mult: 0
    decay_mult: 0
  }
  param {
    lr_mult: 0
    decay_mult: 0
  }
  param {
    lr_mult: 0
    decay_mult: 0
  }
  batch_norm_param {
    use_global_stats: true
  }
}
layer {
  name: "scale3a_branch2b"
  type: "Scale"
  bottom: "res3a_branch2b"
  top: "res3a_branch2b"
  param {
    lr_mult: 0
    decay_mult: 0
  }
  param {
    lr_mult: 0
    decay_mult: 0
  }
  scale_param {
    bias_term: true
  }
}
layer {
  name: "res3a_branch2b_relu"
  type: "ReLU"
  bottom: "res3a_branch2b"
  top: "res3a_branch2b"
}
layer {
  name: "res3a_branch2c"
  type: "Convolution"
  bottom: "res3a_branch2b"
  top: "res3a_branch2c"
  param {
    lr_mult: 1
  }
  convolution_param {
    num_output: 512
    bias_term: false
    pad: 0
    kernel_size: 1
    stride: 1
  }
}
layer {
  name: "bn3a_branch2c"
  type: "BatchNorm"
  bottom: "res3a_branch2c"
  top: "res3a_branch2c"
  param {
    lr_mult: 0
    decay_mult: 0
  }
  param {
    lr_mult: 0
    decay_mult: 0
  }
  param {
    lr_mult: 0
    decay_mult: 0
  }
  batch_norm_param {
    use_global_stats: true
  }
}
layer {
  name: "scale3a_branch2c"
  type: "Scale"
  bottom: "res3a_branch2c"
  top: "res3a_branch2c"
  param {
    lr_mult: 0
    decay_mult: 0
  }
  param {
    lr_mult: 0
    decay_mult: 0
  }
  scale_param {
    bias_term: true
  }
}
layer {
  name: "res3a"
  type: "Eltwise"
  bottom: "res3a_branch1"
  bottom: "res3a_branch2c"
  top: "res3a"
}
layer {
  name: "res3a_relu"
  type: "ReLU"
  bottom: "res3a"
  top: "res3a"
}
layer {
  name: "res3b_branch2a"
  type: "Convolution"
  bottom: "res3a"
  top: "res3b_branch2a"
  param {
    lr_mult: 1
  }
  convolution_param {
    num_output: 128
    bias_term: false
    pad: 0
    kernel_size: 1
    stride: 1
  }
}
layer {
  name: "bn3b_branch2a"
  type: "BatchNorm"
  bottom: "res3b_branch2a"
  top: "res3b_branch2a"
  param {
    lr_mult: 0
    decay_mult: 0
  }
  param {
    lr_mult: 0
    decay_mult: 0
  }
  param {
    lr_mult: 0
    decay_mult: 0
  }
  batch_norm_param {
    use_global_stats: true
  }
}
layer {
  name: "scale3b_branch2a"
  type: "Scale"
  bottom: "res3b_branch2a"
  top: "res3b_branch2a"
  param {
    lr_mult: 0
    decay_mult: 0
  }
  param {
    lr_mult: 0
    decay_mult: 0
  }
  scale_param {
    bias_term: true
  }
}
layer {
  name: "res3b_branch2a_relu"
  type: "ReLU"
  bottom: "res3b_branch2a"
  top: "res3b_branch2a"
}
layer {
  name: "res3b_branch2b"
  type: "Convolution"
  bottom: "res3b_branch2a"
  top: "res3b_branch2b"
  param {
    lr_mult: 1
  }
  convolution_param {
    num_output: 128
    bias_term: false
    pad: 1
    kernel_size: 3
    stride: 1
  }
}
layer {
  name: "bn3b_branch2b"
  type: "BatchNorm"
  bottom: "res3b_branch2b"
  top: "res3b_branch2b"
  param {
    lr_mult: 0
    decay_mult: 0
  }
  param {
    lr_mult: 0
    decay_mult: 0
  }
  param {
    lr_mult: 0
    decay_mult: 0
  }
  batch_norm_param {
    use_global_stats: true
  }
}
layer {
  name: "scale3b_branch2b"
  type: "Scale"
  bottom: "res3b_branch2b"
  top: "res3b_branch2b"
  param {
    lr_mult: 0
    decay_mult: 0
  }
  param {
    lr_mult: 0
    decay_mult: 0
  }
  scale_param {
    bias_term: true
  }
}
layer {
  name: "res3b_branch2b_relu"
  type: "ReLU"
  bottom: "res3b_branch2b"
  top: "res3b_branch2b"
}
layer {
  name: "res3b_branch2c"
  type: "Convolution"
  bottom: "res3b_branch2b"
  top: "res3b_branch2c"
  param {
    lr_mult: 1
  }
  convolution_param {
    num_output: 512
    bias_term: false
    pad: 0
    kernel_size: 1
    stride: 1
  }
}
layer {
  name: "bn3b_branch2c"
  type: "BatchNorm"
  bottom: "res3b_branch2c"
  top: "res3b_branch2c"
  param {
    lr_mult: 0
    decay_mult: 0
  }
  param {
    lr_mult: 0
    decay_mult: 0
  }
  param {
    lr_mult: 0
    decay_mult: 0
  }
  batch_norm_param {
    use_global_stats: true
  }
}
layer {
  name: "scale3b_branch2c"
  type: "Scale"
  bottom: "res3b_branch2c"
  top: "res3b_branch2c"
  param {
    lr_mult: 0
    decay_mult: 0
  }
  param {
    lr_mult: 0
    decay_mult: 0
  }
  scale_param {
    bias_term: true
  }
}
layer {
  name: "res3b"
  type: "Eltwise"
  bottom: "res3a"
  bottom: "res3b_branch2c"
  top: "res3b"
}
layer {
  name: "res3b_relu"
  type: "ReLU"
  bottom: "res3b"
  top: "res3b"
}
layer {
  name: "res3c_branch2a"
  type: "Convolution"
  bottom: "res3b"
  top: "res3c_branch2a"
  param {
    lr_mult: 1
  }
  convolution_param {
    num_output: 128
    bias_term: false
    pad: 0
    kernel_size: 1
    stride: 1
  }
}
layer {
  name: "bn3c_branch2a"
  type: "BatchNorm"
  bottom: "res3c_branch2a"
  top: "res3c_branch2a"
  param {
    lr_mult: 0
    decay_mult: 0
  }
  param {
    lr_mult: 0
    decay_mult: 0
  }
  param {
    lr_mult: 0
    decay_mult: 0
  }
  batch_norm_param {
    use_global_stats: true
  }
}
layer {
  name: "scale3c_branch2a"
  type: "Scale"
  bottom: "res3c_branch2a"
  top: "res3c_branch2a"
  param {
    lr_mult: 0
    decay_mult: 0
  }
  param {
    lr_mult: 0
    decay_mult: 0
  }
  scale_param {
    bias_term: true
  }
}
layer {
  name: "res3c_branch2a_relu"
  type: "ReLU"
  bottom: "res3c_branch2a"
  top: "res3c_branch2a"
}
layer {
  name: "res3c_branch2b"
  type: "Convolution"
  bottom: "res3c_branch2a"
  top: "res3c_branch2b"
  param {
    lr_mult: 1
  }
  convolution_param {
    num_output: 128
    bias_term: false
    pad: 1
    kernel_size: 3
    stride: 1
  }
}
layer {
  name: "bn3c_branch2b"
  type: "BatchNorm"
  bottom: "res3c_branch2b"
  top: "res3c_branch2b"
  param {
    lr_mult: 0
    decay_mult: 0
  }
  param {
    lr_mult: 0
    decay_mult: 0
  }
  param {
    lr_mult: 0
    decay_mult: 0
  }
  batch_norm_param {
    use_global_stats: true
  }
}
layer {
  name: "scale3c_branch2b"
  type: "Scale"
  bottom: "res3c_branch2b"
  top: "res3c_branch2b"
  param {
    lr_mult: 0
    decay_mult: 0
  }
  param {
    lr_mult: 0
    decay_mult: 0
  }
  scale_param {
    bias_term: true
  }
}
layer {
  name: "res3c_branch2b_relu"
  type: "ReLU"
  bottom: "res3c_branch2b"
  top: "res3c_branch2b"
}
layer {
  name: "res3c_branch2c"
  type: "Convolution"
  bottom: "res3c_branch2b"
  top: "res3c_branch2c"
  param {
    lr_mult: 1
  }
  convolution_param {
    num_output: 512
    bias_term: false
    pad: 0
    kernel_size: 1
    stride: 1
  }
}
layer {
  name: "bn3c_branch2c"
  type: "BatchNorm"
  bottom: "res3c_branch2c"
  top: "res3c_branch2c"
  param {
    lr_mult: 0
    decay_mult: 0
  }
  param {
    lr_mult: 0
    decay_mult: 0
  }
  param {
    lr_mult: 0
    decay_mult: 0
  }
  batch_norm_param {
    use_global_stats: true
  }
}
layer {
  name: "scale3c_branch2c"
  type: "Scale"
  bottom: "res3c_branch2c"
  top: "res3c_branch2c"
  param {
    lr_mult: 0
    decay_mult: 0
  }
  param {
    lr_mult: 0
    decay_mult: 0
  }
  scale_param {
    bias_term: true
  }
}
layer {
  name: "res3c"
  type: "Eltwise"
  bottom: "res3b"
  bottom: "res3c_branch2c"
  top: "res3c"
}
layer {
  name: "res3c_relu"
  type: "ReLU"
  bottom: "res3c"
  top: "res3c"
}
layer {
  name: "res3d_branch2a"
  type: "Convolution"
  bottom: "res3c"
  top: "res3d_branch2a"
  param {
    lr_mult: 1
  }
  convolution_param {
    num_output: 128
    bias_term: false
    pad: 0
    kernel_size: 1
    stride: 1
  }
}
layer {
  name: "bn3d_branch2a"
  type: "BatchNorm"
  bottom: "res3d_branch2a"
  top: "res3d_branch2a"
  param {
    lr_mult: 0
    decay_mult: 0
  }
  param {
    lr_mult: 0
    decay_mult: 0
  }
  param {
    lr_mult: 0
    decay_mult: 0
  }
  batch_norm_param {
    use_global_stats: true
  }
}
layer {
  name: "scale3d_branch2a"
  type: "Scale"
  bottom: "res3d_branch2a"
  top: "res3d_branch2a"
  param {
    lr_mult: 0
    decay_mult: 0
  }
  param {
    lr_mult: 0
    decay_mult: 0
  }
  scale_param {
    bias_term: true
  }
}
layer {
  name: "res3d_branch2a_relu"
  type: "ReLU"
  bottom: "res3d_branch2a"
  top: "res3d_branch2a"
}
layer {
  name: "res3d_branch2b"
  type: "Convolution"
  bottom: "res3d_branch2a"
  top: "res3d_branch2b"
  param {
    lr_mult: 1
  }
  convolution_param {
    num_output: 128
    bias_term: false
    pad: 1
    kernel_size: 3
    stride: 1
  }
}
layer {
  name: "bn3d_branch2b"
  type: "BatchNorm"
  bottom: "res3d_branch2b"
  top: "res3d_branch2b"
  param {
    lr_mult: 0
    decay_mult: 0
  }
  param {
    lr_mult: 0
    decay_mult: 0
  }
  param {
    lr_mult: 0
    decay_mult: 0
  }
  batch_norm_param {
    use_global_stats: true
  }
}
layer {
  name: "scale3d_branch2b"
  type: "Scale"
  bottom: "res3d_branch2b"
  top: "res3d_branch2b"
  param {
    lr_mult: 0
    decay_mult: 0
  }
  param {
    lr_mult: 0
    decay_mult: 0
  }
  scale_param {
    bias_term: true
  }
}
layer {
  name: "res3d_branch2b_relu"
  type: "ReLU"
  bottom: "res3d_branch2b"
  top: "res3d_branch2b"
}
layer {
  name: "res3d_branch2c"
  type: "Convolution"
  bottom: "res3d_branch2b"
  top: "res3d_branch2c"
  param {
    lr_mult: 1
  }
  convolution_param {
    num_output: 512
    bias_term: false
    pad: 0
    kernel_size: 1
    stride: 1
  }
}
layer {
  name: "bn3d_branch2c"
  type: "BatchNorm"
  bottom: "res3d_branch2c"
  top: "res3d_branch2c"
  param {
    lr_mult: 0
    decay_mult: 0
  }
  param {
    lr_mult: 0
    decay_mult: 0
  }
  param {
    lr_mult: 0
    decay_mult: 0
  }
  batch_norm_param {
    use_global_stats: true
  }
}
layer {
  name: "scale3d_branch2c"
  type: "Scale"
  bottom: "res3d_branch2c"
  top: "res3d_branch2c"
  param {
    lr_mult: 0
    decay_mult: 0
  }
  param {
    lr_mult: 0
    decay_mult: 0
  }
  scale_param {
    bias_term: true
  }
}
layer {
  name: "res3d"
  type: "Eltwise"
  bottom: "res3c"
  bottom: "res3d_branch2c"
  top: "res3d"
}
layer {
  name: "res3d_relu"
  type: "ReLU"
  bottom: "res3d"
  top: "res3d"
}
layer {
  name: "res4a_branch1"
  type: "Convolution"
  bottom: "res3d"
  top: "res4a_branch1"
  param {
    lr_mult: 1
  }
  convolution_param {
    num_output: 1024
    bias_term: false
    pad: 0
    kernel_size: 1
    stride: 2
  }
}
layer {
  name: "bn4a_branch1"
  type: "BatchNorm"
  bottom: "res4a_branch1"
  top: "res4a_branch1"
  param {
    lr_mult: 0
    decay_mult: 0
  }
  param {
    lr_mult: 0
    decay_mult: 0
  }
  param {
    lr_mult: 0
    decay_mult: 0
  }
  batch_norm_param {
    use_global_stats: true
  }
}
layer {
  name: "scale4a_branch1"
  type: "Scale"
  bottom: "res4a_branch1"
  top: "res4a_branch1"
  param {
    lr_mult: 0
    decay_mult: 0
  }
  param {
    lr_mult: 0
    decay_mult: 0
  }
  scale_param {
    bias_term: true
  }
}
layer {
  name: "res4a_branch2a"
  type: "Convolution"
  bottom: "res3d"
  top: "res4a_branch2a"
  param {
    lr_mult: 1
  }
  convolution_param {
    num_output: 256
    bias_term: false
    pad: 0
    kernel_size: 1
    stride: 2
  }
}
layer {
  name: "bn4a_branch2a"
  type: "BatchNorm"
  bottom: "res4a_branch2a"
  top: "res4a_branch2a"
  param {
    lr_mult: 0
    decay_mult: 0
  }
  param {
    lr_mult: 0
    decay_mult: 0
  }
  param {
    lr_mult: 0
    decay_mult: 0
  }
  batch_norm_param {
    use_global_stats: true
  }
}
layer {
  name: "scale4a_branch2a"
  type: "Scale"
  bottom: "res4a_branch2a"
  top: "res4a_branch2a"
  param {
    lr_mult: 0
    decay_mult: 0
  }
  param {
    lr_mult: 0
    decay_mult: 0
  }
  scale_param {
    bias_term: true
  }
}
layer {
  name: "res4a_branch2a_relu"
  type: "ReLU"
  bottom: "res4a_branch2a"
  top: "res4a_branch2a"
}
layer {
  name: "res4a_branch2b"
  type: "Convolution"
  bottom: "res4a_branch2a"
  top: "res4a_branch2b"
  param {
    lr_mult: 1
  }
  convolution_param {
    num_output: 256
    bias_term: false
    pad: 1
    kernel_size: 3
    stride: 1
  }
}
layer {
  name: "bn4a_branch2b"
  type: "BatchNorm"
  bottom: "res4a_branch2b"
  top: "res4a_branch2b"
  param {
    lr_mult: 0
    decay_mult: 0
  }
  param {
    lr_mult: 0
    decay_mult: 0
  }
  param {
    lr_mult: 0
    decay_mult: 0
  }
  batch_norm_param {
    use_global_stats: true
  }
}
layer {
  name: "scale4a_branch2b"
  type: "Scale"
  bottom: "res4a_branch2b"
  top: "res4a_branch2b"
  param {
    lr_mult: 0
    decay_mult: 0
  }
  param {
    lr_mult: 0
    decay_mult: 0
  }
  scale_param {
    bias_term: true
  }
}
layer {
  name: "res4a_branch2b_relu"
  type: "ReLU"
  bottom: "res4a_branch2b"
  top: "res4a_branch2b"
}
layer {
  name: "res4a_branch2c"
  type: "Convolution"
  bottom: "res4a_branch2b"
  top: "res4a_branch2c"
  param {
    lr_mult: 1
  }
  convolution_param {
    num_output: 1024
    bias_term: false
    pad: 0
    kernel_size: 1
    stride: 1
  }
}
layer {
  name: "bn4a_branch2c"
  type: "BatchNorm"
  bottom: "res4a_branch2c"
  top: "res4a_branch2c"
  param {
    lr_mult: 0
    decay_mult: 0
  }
  param {
    lr_mult: 0
    decay_mult: 0
  }
  param {
    lr_mult: 0
    decay_mult: 0
  }
  batch_norm_param {
    use_global_stats: true
  }
}
layer {
  name: "scale4a_branch2c"
  type: "Scale"
  bottom: "res4a_branch2c"
  top: "res4a_branch2c"
  param {
    lr_mult: 0
    decay_mult: 0
  }
  param {
    lr_mult: 0
    decay_mult: 0
  }
  scale_param {
    bias_term: true
  }
}
layer {
  name: "res4a"
  type: "Eltwise"
  bottom: "res4a_branch1"
  bottom: "res4a_branch2c"
  top: "res4a"
}
layer {
  name: "res4a_relu"
  type: "ReLU"
  bottom: "res4a"
  top: "res4a"
}
layer {
  name: "res4b_branch2a"
  type: "Convolution"
  bottom: "res4a"
  top: "res4b_branch2a"
  param {
    lr_mult: 1
  }
  convolution_param {
    num_output: 256
    bias_term: false
    pad: 0
    kernel_size: 1
    stride: 1
  }
}
layer {
  name: "bn4b_branch2a"
  type: "BatchNorm"
  bottom: "res4b_branch2a"
  top: "res4b_branch2a"
  param {
    lr_mult: 0
    decay_mult: 0
  }
  param {
    lr_mult: 0
    decay_mult: 0
  }
  param {
    lr_mult: 0
    decay_mult: 0
  }
  batch_norm_param {
    use_global_stats: true
  }
}
layer {
  name: "scale4b_branch2a"
  type: "Scale"
  bottom: "res4b_branch2a"
  top: "res4b_branch2a"
  param {
    lr_mult: 0
    decay_mult: 0
  }
  param {
    lr_mult: 0
    decay_mult: 0
  }
  scale_param {
    bias_term: true
  }
}
layer {
  name: "res4b_branch2a_relu"
  type: "ReLU"
  bottom: "res4b_branch2a"
  top: "res4b_branch2a"
}
layer {
  name: "res4b_branch2b"
  type: "Convolution"
  bottom: "res4b_branch2a"
  top: "res4b_branch2b"
  param {
    lr_mult: 1
  }
  convolution_param {
    num_output: 256
    bias_term: false
    pad: 1
    kernel_size: 3
    stride: 1
  }
}
layer {
  name: "bn4b_branch2b"
  type: "BatchNorm"
  bottom: "res4b_branch2b"
  top: "res4b_branch2b"
  param {
    lr_mult: 0
    decay_mult: 0
  }
  param {
    lr_mult: 0
    decay_mult: 0
  }
  param {
    lr_mult: 0
    decay_mult: 0
  }
  batch_norm_param {
    use_global_stats: true
  }
}
layer {
  name: "scale4b_branch2b"
  type: "Scale"
  bottom: "res4b_branch2b"
  top: "res4b_branch2b"
  param {
    lr_mult: 0
    decay_mult: 0
  }
  param {
    lr_mult: 0
    decay_mult: 0
  }
  scale_param {
    bias_term: true
  }
}
layer {
  name: "res4b_branch2b_relu"
  type: "ReLU"
  bottom: "res4b_branch2b"
  top: "res4b_branch2b"
}
layer {
  name: "res4b_branch2c"
  type: "Convolution"
  bottom: "res4b_branch2b"
  top: "res4b_branch2c"
  param {
    lr_mult: 1
  }
  convolution_param {
    num_output: 1024
    bias_term: false
    pad: 0
    kernel_size: 1
    stride: 1
  }
}
layer {
  name: "bn4b_branch2c"
  type: "BatchNorm"
  bottom: "res4b_branch2c"
  top: "res4b_branch2c"
  param {
    lr_mult: 0
    decay_mult: 0
  }
  param {
    lr_mult: 0
    decay_mult: 0
  }
  param {
    lr_mult: 0
    decay_mult: 0
  }
  batch_norm_param {
    use_global_stats: true
  }
}
layer {
  name: "scale4b_branch2c"
  type: "Scale"
  bottom: "res4b_branch2c"
  top: "res4b_branch2c"
  param {
    lr_mult: 0
    decay_mult: 0
  }
  param {
    lr_mult: 0
    decay_mult: 0
  }
  scale_param {
    bias_term: true
  }
}
layer {
  name: "res4b"
  type: "Eltwise"
  bottom: "res4a"
  bottom: "res4b_branch2c"
  top: "res4b"
}
layer {
  name: "res4b_relu"
  type: "ReLU"
  bottom: "res4b"
  top: "res4b"
}
layer {
  name: "res4c_branch2a"
  type: "Convolution"
  bottom: "res4b"
  top: "res4c_branch2a"
  param {
    lr_mult: 1
  }
  convolution_param {
    num_output: 256
    bias_term: false
    pad: 0
    kernel_size: 1
    stride: 1
  }
}
layer {
  name: "bn4c_branch2a"
  type: "BatchNorm"
  bottom: "res4c_branch2a"
  top: "res4c_branch2a"
  param {
    lr_mult: 0
    decay_mult: 0
  }
  param {
    lr_mult: 0
    decay_mult: 0
  }
  param {
    lr_mult: 0
    decay_mult: 0
  }
  batch_norm_param {
    use_global_stats: true
  }
}
layer {
  name: "scale4c_branch2a"
  type: "Scale"
  bottom: "res4c_branch2a"
  top: "res4c_branch2a"
  param {
    lr_mult: 0
    decay_mult: 0
  }
  param {
    lr_mult: 0
    decay_mult: 0
  }
  scale_param {
    bias_term: true
  }
}
layer {
  name: "res4c_branch2a_relu"
  type: "ReLU"
  bottom: "res4c_branch2a"
  top: "res4c_branch2a"
}
layer {
  name: "res4c_branch2b"
  type: "Convolution"
  bottom: "res4c_branch2a"
  top: "res4c_branch2b"
  param {
    lr_mult: 1
  }
  convolution_param {
    num_output: 256
    bias_term: false
    pad: 1
    kernel_size: 3
    stride: 1
  }
}
layer {
  name: "bn4c_branch2b"
  type: "BatchNorm"
  bottom: "res4c_branch2b"
  top: "res4c_branch2b"
  param {
    lr_mult: 0
    decay_mult: 0
  }
  param {
    lr_mult: 0
    decay_mult: 0
  }
  param {
    lr_mult: 0
    decay_mult: 0
  }
  batch_norm_param {
    use_global_stats: true
  }
}
layer {
  name: "scale4c_branch2b"
  type: "Scale"
  bottom: "res4c_branch2b"
  top: "res4c_branch2b"
  param {
    lr_mult: 0
    decay_mult: 0
  }
  param {
    lr_mult: 0
    decay_mult: 0
  }
  scale_param {
    bias_term: true
  }
}
layer {
  name: "res4c_branch2b_relu"
  type: "ReLU"
  bottom: "res4c_branch2b"
  t
I1029 22:13:16.516377  6732 layer_factory.hpp:77] Creating layer input-data
I1029 22:13:16.525655  6732 net.cpp:100] Creating Layer input-data
I1029 22:13:16.525679  6732 net.cpp:418] input-data -> data
I1029 22:13:16.525717  6732 net.cpp:418] input-data -> im_info
I1029 22:13:16.525733  6732 net.cpp:418] input-data -> gt_boxes
RoiDataLayer: name_to_top: {'gt_boxes': 2, 'data': 0, 'im_info': 1}
I1029 22:13:16.545694  6732 net.cpp:150] Setting up input-data
I1029 22:13:16.545719  6732 net.cpp:157] Top shape: 1 3 960 1280 (3686400)
I1029 22:13:16.545724  6732 net.cpp:157] Top shape: 1 3 (3)
I1029 22:13:16.545727  6732 net.cpp:157] Top shape: 1 4 (4)
I1029 22:13:16.545729  6732 net.cpp:165] Memory required for data: 14745628
I1029 22:13:16.545745  6732 layer_factory.hpp:77] Creating layer data_input-data_0_split
I1029 22:13:16.545778  6732 net.cpp:100] Creating Layer data_input-data_0_split
I1029 22:13:16.545787  6732 net.cpp:444] data_input-data_0_split <- data
I1029 22:13:16.545810  6732 net.cpp:418] data_input-data_0_split -> data_input-data_0_split_0
I1029 22:13:16.545831  6732 net.cpp:418] data_input-data_0_split -> data_input-data_0_split_1
I1029 22:13:16.545876  6732 net.cpp:150] Setting up data_input-data_0_split
I1029 22:13:16.545884  6732 net.cpp:157] Top shape: 1 3 960 1280 (3686400)
I1029 22:13:16.545887  6732 net.cpp:157] Top shape: 1 3 960 1280 (3686400)
I1029 22:13:16.545889  6732 net.cpp:165] Memory required for data: 44236828
I1029 22:13:16.545892  6732 layer_factory.hpp:77] Creating layer im_info_input-data_1_split
I1029 22:13:16.545903  6732 net.cpp:100] Creating Layer im_info_input-data_1_split
I1029 22:13:16.545907  6732 net.cpp:444] im_info_input-data_1_split <- im_info
I1029 22:13:16.545917  6732 net.cpp:418] im_info_input-data_1_split -> im_info_input-data_1_split_0
I1029 22:13:16.545928  6732 net.cpp:418] im_info_input-data_1_split -> im_info_input-data_1_split_1
I1029 22:13:16.545965  6732 net.cpp:150] Setting up im_info_input-data_1_split
I1029 22:13:16.545971  6732 net.cpp:157] Top shape: 1 3 (3)
I1029 22:13:16.545974  6732 net.cpp:157] Top shape: 1 3 (3)
I1029 22:13:16.545975  6732 net.cpp:165] Memory required for data: 44236852
I1029 22:13:16.545979  6732 layer_factory.hpp:77] Creating layer gt_boxes_input-data_2_split
I1029 22:13:16.545986  6732 net.cpp:100] Creating Layer gt_boxes_input-data_2_split
I1029 22:13:16.545989  6732 net.cpp:444] gt_boxes_input-data_2_split <- gt_boxes
I1029 22:13:16.545998  6732 net.cpp:418] gt_boxes_input-data_2_split -> gt_boxes_input-data_2_split_0
I1029 22:13:16.546010  6732 net.cpp:418] gt_boxes_input-data_2_split -> gt_boxes_input-data_2_split_1
I1029 22:13:16.546048  6732 net.cpp:150] Setting up gt_boxes_input-data_2_split
I1029 22:13:16.546056  6732 net.cpp:157] Top shape: 1 4 (4)
I1029 22:13:16.546058  6732 net.cpp:157] Top shape: 1 4 (4)
I1029 22:13:16.546061  6732 net.cpp:165] Memory required for data: 44236884
I1029 22:13:16.546063  6732 layer_factory.hpp:77] Creating layer conv1
I1029 22:13:16.546082  6732 net.cpp:100] Creating Layer conv1
I1029 22:13:16.546087  6732 net.cpp:444] conv1 <- data_input-data_0_split_0
I1029 22:13:16.546098  6732 net.cpp:418] conv1 -> conv1
I1029 22:13:16.819416  6732 cudnn_conv_layer.cpp:194] Reallocating workspace storage: 5529624
I1029 22:13:16.819694  6732 net.cpp:150] Setting up conv1
I1029 22:13:16.819727  6732 net.cpp:157] Top shape: 1 64 480 640 (19660800)
I1029 22:13:16.819730  6732 net.cpp:165] Memory required for data: 122880084
I1029 22:13:16.819779  6732 layer_factory.hpp:77] Creating layer bn_conv1
I1029 22:13:16.819833  6732 net.cpp:100] Creating Layer bn_conv1
I1029 22:13:16.819842  6732 net.cpp:444] bn_conv1 <- conv1
I1029 22:13:16.819856  6732 net.cpp:405] bn_conv1 -> conv1 (in-place)
I1029 22:13:16.821084  6732 net.cpp:150] Setting up bn_conv1
I1029 22:13:16.821094  6732 net.cpp:157] Top shape: 1 64 480 640 (19660800)
I1029 22:13:16.821095  6732 net.cpp:165] Memory required for data: 201523284
I1029 22:13:16.821125  6732 layer_factory.hpp:77] Creating layer scale_conv1
I1029 22:13:16.821142  6732 net.cpp:100] Creating Layer scale_conv1
I1029 22:13:16.821148  6732 net.cpp:444] scale_conv1 <- conv1
I1029 22:13:16.821159  6732 net.cpp:405] scale_conv1 -> conv1 (in-place)
I1029 22:13:16.821220  6732 layer_factory.hpp:77] Creating layer scale_conv1
I1029 22:13:16.823369  6732 net.cpp:150] Setting up scale_conv1
I1029 22:13:16.823380  6732 net.cpp:157] Top shape: 1 64 480 640 (19660800)
I1029 22:13:16.823382  6732 net.cpp:165] Memory required for data: 280166484
I1029 22:13:16.823397  6732 layer_factory.hpp:77] Creating layer conv1_relu
I1029 22:13:16.823411  6732 net.cpp:100] Creating Layer conv1_relu
I1029 22:13:16.823418  6732 net.cpp:444] conv1_relu <- conv1
I1029 22:13:16.823431  6732 net.cpp:405] conv1_relu -> conv1 (in-place)
I1029 22:13:16.823595  6732 net.cpp:150] Setting up conv1_relu
I1029 22:13:16.823601  6732 net.cpp:157] Top shape: 1 64 480 640 (19660800)
I1029 22:13:16.823603  6732 net.cpp:165] Memory required for data: 358809684
I1029 22:13:16.823606  6732 layer_factory.hpp:77] Creating layer pool1
I1029 22:13:16.823623  6732 net.cpp:100] Creating Layer pool1
I1029 22:13:16.823628  6732 net.cpp:444] pool1 <- conv1
I1029 22:13:16.823639  6732 net.cpp:418] pool1 -> pool1
I1029 22:13:16.823696  6732 net.cpp:150] Setting up pool1
I1029 22:13:16.823705  6732 net.cpp:157] Top shape: 1 64 240 320 (4915200)
I1029 22:13:16.823707  6732 net.cpp:165] Memory required for data: 378470484
I1029 22:13:16.823710  6732 layer_factory.hpp:77] Creating layer pool1_pool1_0_split
I1029 22:13:16.823719  6732 net.cpp:100] Creating Layer pool1_pool1_0_split
I1029 22:13:16.823724  6732 net.cpp:444] pool1_pool1_0_split <- pool1
I1029 22:13:16.823734  6732 net.cpp:418] pool1_pool1_0_split -> pool1_pool1_0_split_0
I1029 22:13:16.823746  6732 net.cpp:418] pool1_pool1_0_split -> pool1_pool1_0_split_1
I1029 22:13:16.823787  6732 net.cpp:150] Setting up pool1_pool1_0_split
I1029 22:13:16.823794  6732 net.cpp:157] Top shape: 1 64 240 320 (4915200)
I1029 22:13:16.823797  6732 net.cpp:157] Top shape: 1 64 240 320 (4915200)
I1029 22:13:16.823801  6732 net.cpp:165] Memory required for data: 417792084
I1029 22:13:16.823803  6732 layer_factory.hpp:77] Creating layer res2a_branch1
I1029 22:13:16.823817  6732 net.cpp:100] Creating Layer res2a_branch1
I1029 22:13:16.823822  6732 net.cpp:444] res2a_branch1 <- pool1_pool1_0_split_0
I1029 22:13:16.823832  6732 net.cpp:418] res2a_branch1 -> res2a_branch1
I1029 22:13:16.824673  6732 cudnn_conv_layer.cpp:194] Reallocating workspace storage: 1388952
I1029 22:13:16.824905  6732 net.cpp:150] Setting up res2a_branch1
I1029 22:13:16.824914  6732 net.cpp:157] Top shape: 1 256 240 320 (19660800)
I1029 22:13:16.824918  6732 net.cpp:165] Memory required for data: 496435284
I1029 22:13:16.824928  6732 layer_factory.hpp:77] Creating layer bn2a_branch1
I1029 22:13:16.824939  6732 net.cpp:100] Creating Layer bn2a_branch1
I1029 22:13:16.824944  6732 net.cpp:444] bn2a_branch1 <- res2a_branch1
I1029 22:13:16.824956  6732 net.cpp:405] bn2a_branch1 -> res2a_branch1 (in-place)
I1029 22:13:16.825251  6732 net.cpp:150] Setting up bn2a_branch1
I1029 22:13:16.825258  6732 net.cpp:157] Top shape: 1 256 240 320 (19660800)
I1029 22:13:16.825260  6732 net.cpp:165] Memory required for data: 575078484
I1029 22:13:16.825284  6732 layer_factory.hpp:77] Creating layer scale2a_branch1
I1029 22:13:16.825295  6732 net.cpp:100] Creating Layer scale2a_branch1
I1029 22:13:16.825300  6732 net.cpp:444] scale2a_branch1 <- res2a_branch1
I1029 22:13:16.825309  6732 net.cpp:405] scale2a_branch1 -> res2a_branch1 (in-place)
I1029 22:13:16.825359  6732 layer_factory.hpp:77] Creating layer scale2a_branch1
I1029 22:13:16.825676  6732 net.cpp:150] Setting up scale2a_branch1
I1029 22:13:16.825683  6732 net.cpp:157] Top shape: 1 256 240 320 (19660800)
I1029 22:13:16.825685  6732 net.cpp:165] Memory required for data: 653721684
I1029 22:13:16.825695  6732 layer_factory.hpp:77] Creating layer res2a_branch2a
I1029 22:13:16.825707  6732 net.cpp:100] Creating Layer res2a_branch2a
I1029 22:13:16.825712  6732 net.cpp:444] res2a_branch2a <- pool1_pool1_0_split_1
I1029 22:13:16.825724  6732 net.cpp:418] res2a_branch2a -> res2a_branch2a
I1029 22:13:16.827148  6732 cudnn_conv_layer.cpp:194] Reallocating workspace storage: 1388952
I1029 22:13:16.827383  6732 net.cpp:150] Setting up res2a_branch2a
I1029 22:13:16.827391  6732 net.cpp:157] Top shape: 1 64 240 320 (4915200)
I1029 22:13:16.827394  6732 net.cpp:165] Memory required for data: 673382484
I1029 22:13:16.827404  6732 layer_factory.hpp:77] Creating layer bn2a_branch2a
I1029 22:13:16.827419  6732 net.cpp:100] Creating Layer bn2a_branch2a
I1029 22:13:16.827424  6732 net.cpp:444] bn2a_branch2a <- res2a_branch2a
I1029 22:13:16.827435  6732 net.cpp:405] bn2a_branch2a -> res2a_branch2a (in-place)
I1029 22:13:16.827742  6732 net.cpp:150] Setting up bn2a_branch2a
I1029 22:13:16.827749  6732 net.cpp:157] Top shape: 1 64 240 320 (4915200)
I1029 22:13:16.827751  6732 net.cpp:165] Memory required for data: 693043284
I1029 22:13:16.827772  6732 layer_factory.hpp:77] Creating layer scale2a_branch2a
I1029 22:13:16.827785  6732 net.cpp:100] Creating Layer scale2a_branch2a
I1029 22:13:16.827790  6732 net.cpp:444] scale2a_branch2a <- res2a_branch2a
I1029 22:13:16.827800  6732 net.cpp:405] scale2a_branch2a -> res2a_branch2a (in-place)
I1029 22:13:16.827852  6732 layer_factory.hpp:77] Creating layer scale2a_branch2a
I1029 22:13:16.828178  6732 net.cpp:150] Setting up scale2a_branch2a
I1029 22:13:16.828186  6732 net.cpp:157] Top shape: 1 64 240 320 (4915200)
I1029 22:13:16.828187  6732 net.cpp:165] Memory required for data: 712704084
I1029 22:13:16.828197  6732 layer_factory.hpp:77] Creating layer res2a_branch2a_relu
I1029 22:13:16.828210  6732 net.cpp:100] Creating Layer res2a_branch2a_relu
I1029 22:13:16.828215  6732 net.cpp:444] res2a_branch2a_relu <- res2a_branch2a
I1029 22:13:16.828227  6732 net.cpp:405] res2a_branch2a_relu -> res2a_branch2a (in-place)
I1029 22:13:16.828352  6732 net.cpp:150] Setting up res2a_branch2a_relu
I1029 22:13:16.828357  6732 net.cpp:157] Top shape: 1 64 240 320 (4915200)
I1029 22:13:16.828361  6732 net.cpp:165] Memory required for data: 732364884
I1029 22:13:16.828364  6732 layer_factory.hpp:77] Creating layer res2a_branch2b
I1029 22:13:16.828377  6732 net.cpp:100] Creating Layer res2a_branch2b
I1029 22:13:16.828382  6732 net.cpp:444] res2a_branch2b <- res2a_branch2a
I1029 22:13:16.828393  6732 net.cpp:418] res2a_branch2b -> res2a_branch2b
I1029 22:13:16.829856  6732 cudnn_conv_layer.cpp:194] Reallocating workspace storage: 786432
I1029 22:13:16.830088  6732 net.cpp:150] Setting up res2a_branch2b
I1029 22:13:16.830098  6732 net.cpp:157] Top shape: 1 64 240 320 (4915200)
I1029 22:13:16.830101  6732 net.cpp:165] Memory required for data: 752025684
I1029 22:13:16.830111  6732 layer_factory.hpp:77] Creating layer bn2a_branch2b
I1029 22:13:16.830123  6732 net.cpp:100] Creating Layer bn2a_branch2b
I1029 22:13:16.830128  6732 net.cpp:444] bn2a_branch2b <- res2a_branch2b
I1029 22:13:16.830140  6732 net.cpp:405] bn2a_branch2b -> res2a_branch2b (in-place)
I1029 22:13:16.830452  6732 net.cpp:150] Setting up bn2a_branch2b
I1029 22:13:16.830459  6732 net.cpp:157] Top shape: 1 64 240 320 (4915200)
I1029 22:13:16.830461  6732 net.cpp:165] Memory required for data: 771686484
I1029 22:13:16.830474  6732 layer_factory.hpp:77] Creating layer scale2a_branch2b
I1029 22:13:16.830487  6732 net.cpp:100] Creating Layer scale2a_branch2b
I1029 22:13:16.830492  6732 net.cpp:444] scale2a_branch2b <- res2a_branch2b
I1029 22:13:16.830502  6732 net.cpp:405] scale2a_branch2b -> res2a_branch2b (in-place)
I1029 22:13:16.830564  6732 layer_factory.hpp:77] Creating layer scale2a_branch2b
I1029 22:13:16.831540  6732 net.cpp:150] Setting up scale2a_branch2b
I1029 22:13:16.831550  6732 net.cpp:157] Top shape: 1 64 240 320 (4915200)
I1029 22:13:16.831553  6732 net.cpp:165] Memory required for data: 791347284
I1029 22:13:16.831569  6732 layer_factory.hpp:77] Creating layer res2a_branch2b_relu
I1029 22:13:16.831586  6732 net.cpp:100] Creating Layer res2a_branch2b_relu
I1029 22:13:16.831593  6732 net.cpp:444] res2a_branch2b_relu <- res2a_branch2b
I1029 22:13:16.831610  6732 net.cpp:405] res2a_branch2b_relu -> res2a_branch2b (in-place)
I1029 22:13:16.832010  6732 net.cpp:150] Setting up res2a_branch2b_relu
I1029 22:13:16.832018  6732 net.cpp:157] Top shape: 1 64 240 320 (4915200)
I1029 22:13:16.832021  6732 net.cpp:165] Memory required for data: 811008084
I1029 22:13:16.832026  6732 layer_factory.hpp:77] Creating layer res2a_branch2c
I1029 22:13:16.832077  6732 net.cpp:100] Creating Layer res2a_branch2c
I1029 22:13:16.832084  6732 net.cpp:444] res2a_branch2c <- res2a_branch2b
I1029 22:13:16.832100  6732 net.cpp:418] res2a_branch2c -> res2a_branch2c
I1029 22:13:16.832991  6732 cudnn_conv_layer.cpp:194] Reallocating workspace storage: 1388952
I1029 22:13:16.833230  6732 net.cpp:150] Setting up res2a_branch2c
I1029 22:13:16.833245  6732 net.cpp:157] Top shape: 1 256 240 320 (19660800)
I1029 22:13:16.833248  6732 net.cpp:165] Memory required for data: 889651284
I1029 22:13:16.833261  6732 layer_factory.hpp:77] Creating layer bn2a_branch2c
I1029 22:13:16.833277  6732 net.cpp:100] Creating Layer bn2a_branch2c
I1029 22:13:16.833284  6732 net.cpp:444] bn2a_branch2c <- res2a_branch2c
I1029 22:13:16.833299  6732 net.cpp:405] bn2a_branch2c -> res2a_branch2c (in-place)
I1029 22:13:16.833609  6732 net.cpp:150] Setting up bn2a_branch2c
I1029 22:13:16.833616  6732 net.cpp:157] Top shape: 1 256 240 320 (19660800)
I1029 22:13:16.833619  6732 net.cpp:165] Memory required for data: 968294484
I1029 22:13:16.833637  6732 layer_factory.hpp:77] Creating layer scale2a_branch2c
I1029 22:13:16.833652  6732 net.cpp:100] Creating Layer scale2a_branch2c
I1029 22:13:16.833657  6732 net.cpp:444] scale2a_branch2c <- res2a_branch2c
I1029 22:13:16.833672  6732 net.cpp:405] scale2a_branch2c -> res2a_branch2c (in-place)
I1029 22:13:16.833729  6732 layer_factory.hpp:77] Creating layer scale2a_branch2c
I1029 22:13:16.834080  6732 net.cpp:150] Setting up scale2a_branch2c
I1029 22:13:16.834089  6732 net.cpp:157] Top shape: 1 256 240 320 (19660800)
I1029 22:13:16.834092  6732 net.cpp:165] Memory required for data: 1046937684
I1029 22:13:16.834105  6732 layer_factory.hpp:77] Creating layer res2a
I1029 22:13:16.834117  6732 net.cpp:100] Creating Layer res2a
I1029 22:13:16.834125  6732 net.cpp:444] res2a <- res2a_branch1
I1029 22:13:16.834136  6732 net.cpp:444] res2a <- res2a_branch2c
I1029 22:13:16.834147  6732 net.cpp:418] res2a -> res2a
I1029 22:13:16.834185  6732 net.cpp:150] Setting up res2a
I1029 22:13:16.834194  6732 net.cpp:157] Top shape: 1 256 240 320 (19660800)
I1029 22:13:16.834198  6732 net.cpp:165] Memory required for data: 1125580884
I1029 22:13:16.834203  6732 layer_factory.hpp:77] Creating layer res2a_relu
I1029 22:13:16.834214  6732 net.cpp:100] Creating Layer res2a_relu
I1029 22:13:16.834220  6732 net.cpp:444] res2a_relu <- res2a
I1029 22:13:16.834234  6732 net.cpp:405] res2a_relu -> res2a (in-place)
I1029 22:13:16.834368  6732 net.cpp:150] Setting up res2a_relu
I1029 22:13:16.834375  6732 net.cpp:157] Top shape: 1 256 240 320 (19660800)
I1029 22:13:16.834378  6732 net.cpp:165] Memory required for data: 1204224084
I1029 22:13:16.834383  6732 layer_factory.hpp:77] Creating layer res2a_res2a_relu_0_split
I1029 22:13:16.834395  6732 net.cpp:100] Creating Layer res2a_res2a_relu_0_split
I1029 22:13:16.834401  6732 net.cpp:444] res2a_res2a_relu_0_split <- res2a
I1029 22:13:16.834416  6732 net.cpp:418] res2a_res2a_relu_0_split -> res2a_res2a_relu_0_split_0
I1029 22:13:16.834434  6732 net.cpp:418] res2a_res2a_relu_0_split -> res2a_res2a_relu_0_split_1
I1029 22:13:16.834482  6732 net.cpp:150] Setting up res2a_res2a_relu_0_split
I1029 22:13:16.834491  6732 net.cpp:157] Top shape: 1 256 240 320 (19660800)
I1029 22:13:16.834496  6732 net.cpp:157] Top shape: 1 256 240 320 (19660800)
I1029 22:13:16.834501  6732 net.cpp:165] Memory required for data: 1361510484
I1029 22:13:16.834506  6732 layer_factory.hpp:77] Creating layer res2b_branch2a
I1029 22:13:16.834520  6732 net.cpp:100] Creating Layer res2b_branch2a
I1029 22:13:16.834527  6732 net.cpp:444] res2b_branch2a <- res2a_res2a_relu_0_split_0
I1029 22:13:16.834542  6732 net.cpp:418] res2b_branch2a -> res2b_branch2a
I1029 22:13:16.835398  6732 cudnn_conv_layer.cpp:194] Reallocating workspace storage: 1388952
I1029 22:13:16.835635  6732 net.cpp:150] Setting up res2b_branch2a
I1029 22:13:16.835645  6732 net.cpp:157] Top shape: 1 64 240 320 (4915200)
I1029 22:13:16.835650  6732 net.cpp:165] Memory required for data: 1381171284
I1029 22:13:16.835664  6732 layer_factory.hpp:77] Creating layer bn2b_branch2a
I1029 22:13:16.835677  6732 net.cpp:100] Creating Layer bn2b_branch2a
I1029 22:13:16.835683  6732 net.cpp:444] bn2b_branch2a <- res2b_branch2a
I1029 22:13:16.835698  6732 net.cpp:405] bn2b_branch2a -> res2b_branch2a (in-place)
I1029 22:13:16.836026  6732 net.cpp:150] Setting up bn2b_branch2a
I1029 22:13:16.836033  6732 net.cpp:157] Top shape: 1 64 240 320 (4915200)
I1029 22:13:16.836036  6732 net.cpp:165] Memory required for data: 1400832084
I1029 22:13:16.836066  6732 layer_factory.hpp:77] Creating layer scale2b_branch2a
I1029 22:13:16.836081  6732 net.cpp:100] Creating Layer scale2b_branch2a
I1029 22:13:16.836087  6732 net.cpp:444] scale2b_branch2a <- res2b_branch2a
I1029 22:13:16.836103  6732 net.cpp:405] scale2b_branch2a -> res2b_branch2a (in-place)
I1029 22:13:16.836163  6732 layer_factory.hpp:77] Creating layer scale2b_branch2a
I1029 22:13:16.837133  6732 net.cpp:150] Setting up scale2b_branch2a
I1029 22:13:16.837142  6732 net.cpp:157] Top shape: 1 64 240 320 (4915200)
I1029 22:13:16.837146  6732 net.cpp:165] Memory required for data: 1420492884
I1029 22:13:16.837160  6732 layer_factory.hpp:77] Creating layer res2b_branch2a_relu
I1029 22:13:16.837174  6732 net.cpp:100] Creating Layer res2b_branch2a_relu
I1029 22:13:16.837180  6732 net.cpp:444] res2b_branch2a_relu <- res2b_branch2a
I1029 22:13:16.837195  6732 net.cpp:405] res2b_branch2a_relu -> res2b_branch2a (in-place)
I1029 22:13:16.837345  6732 net.cpp:150] Setting up res2b_branch2a_relu
I1029 22:13:16.837353  6732 net.cpp:157] Top shape: 1 64 240 320 (4915200)
I1029 22:13:16.837357  6732 net.cpp:165] Memory required for data: 1440153684
I1029 22:13:16.837363  6732 layer_factory.hpp:77] Creating layer res2b_branch2b
I1029 22:13:16.837378  6732 net.cpp:100] Creating Layer res2b_branch2b
I1029 22:13:16.837384  6732 net.cpp:444] res2b_branch2b <- res2b_branch2a
I1029 22:13:16.837401  6732 net.cpp:418] res2b_branch2b -> res2b_branch2b
I1029 22:13:16.838302  6732 cudnn_conv_layer.cpp:194] Reallocating workspace storage: 786432
I1029 22:13:16.838320  6732 net.cpp:150] Setting up res2b_branch2b
I1029 22:13:16.838330  6732 net.cpp:157] Top shape: 1 64 240 320 (4915200)
I1029 22:13:16.838332  6732 net.cpp:165] Memory required for data: 1459814484
I1029 22:13:16.838343  6732 layer_factory.hpp:77] Creating layer bn2b_branch2b
I1029 22:13:16.838366  6732 net.cpp:100] Creating Layer bn2b_branch2b
I1029 22:13:16.838373  6732 net.cpp:444] bn2b_branch2b <- res2b_branch2b
I1029 22:13:16.838388  6732 net.cpp:405] bn2b_branch2b -> res2b_branch2b (in-place)
I1029 22:13:16.838709  6732 net.cpp:150] Setting up bn2b_branch2b
I1029 22:13:16.838716  6732 net.cpp:157] Top shape: 1 64 240 320 (4915200)
I1029 22:13:16.838719  6732 net.cpp:165] Memory required for data: 1479475284
I1029 22:13:16.838737  6732 layer_factory.hpp:77] Creating layer scale2b_branch2b
I1029 22:13:16.838752  6732 net.cpp:100] Creating Layer scale2b_branch2b
I1029 22:13:16.838757  6732 net.cpp:444] scale2b_branch2b <- res2b_branch2b
I1029 22:13:16.838774  6732 net.cpp:405] scale2b_branch2b -> res2b_branch2b (in-place)
I1029 22:13:16.838835  6732 layer_factory.hpp:77] Creating layer scale2b_branch2b
I1029 22:13:16.839171  6732 net.cpp:150] Setting up scale2b_branch2b
I1029 22:13:16.839179  6732 net.cpp:157] Top shape: 1 64 240 320 (4915200)
I1029 22:13:16.839182  6732 net.cpp:165] Memory required for data: 1499136084
I1029 22:13:16.839195  6732 layer_factory.hpp:77] Creating layer res2b_branch2b_relu
I1029 22:13:16.839206  6732 net.cpp:100] Creating Layer res2b_branch2b_relu
I1029 22:13:16.839212  6732 net.cpp:444] res2b_branch2b_relu <- res2b_branch2b
I1029 22:13:16.839226  6732 net.cpp:405] res2b_branch2b_relu -> res2b_branch2b (in-place)
I1029 22:13:16.839591  6732 net.cpp:150] Setting up res2b_branch2b_relu
I1029 22:13:16.839599  6732 net.cpp:157] Top shape: 1 64 240 320 (4915200)
I1029 22:13:16.839603  6732 net.cpp:165] Memory required for data: 1518796884
I1029 22:13:16.839608  6732 layer_factory.hpp:77] Creating layer res2b_branch2c
I1029 22:13:16.839627  6732 net.cpp:100] Creating Layer res2b_branch2c
I1029 22:13:16.839632  6732 net.cpp:444] res2b_branch2c <- res2b_branch2b
I1029 22:13:16.839649  6732 net.cpp:418] res2b_branch2c -> res2b_branch2c
I1029 22:13:16.840510  6732 cudnn_conv_layer.cpp:194] Reallocating workspace storage: 1388952
I1029 22:13:16.840750  6732 net.cpp:150] Setting up res2b_branch2c
I1029 22:13:16.840761  6732 net.cpp:157] Top shape: 1 256 240 320 (19660800)
I1029 22:13:16.840766  6732 net.cpp:165] Memory required for data: 1597440084
I1029 22:13:16.840778  6732 layer_factory.hpp:77] Creating layer bn2b_branch2c
I1029 22:13:16.840792  6732 net.cpp:100] Creating Layer bn2b_branch2c
I1029 22:13:16.840800  6732 net.cpp:444] bn2b_branch2c <- res2b_branch2c
I1029 22:13:16.840814  6732 net.cpp:405] bn2b_branch2c -> res2b_branch2c (in-place)
I1029 22:13:16.841135  6732 net.cpp:150] Setting up bn2b_branch2c
I1029 22:13:16.841141  6732 net.cpp:157] Top shape: 1 256 240 320 (19660800)
I1029 22:13:16.841145  6732 net.cpp:165] Memory required for data: 1676083284
I1029 22:13:16.841161  6732 layer_factory.hpp:77] Creating layer scale2b_branch2c
I1029 22:13:16.841177  6732 net.cpp:100] Creating Layer scale2b_branch2c
I1029 22:13:16.841183  6732 net.cpp:444] scale2b_branch2c <- res2b_branch2c
I1029 22:13:16.841197  6732 net.cpp:405] scale2b_branch2c -> res2b_branch2c (in-place)
I1029 22:13:16.841259  6732 layer_factory.hpp:77] Creating layer scale2b_branch2c
I1029 22:13:16.842239  6732 net.cpp:150] Setting up scale2b_branch2c
I1029 22:13:16.842248  6732 net.cpp:157] Top shape: 1 256 240 320 (19660800)
I1029 22:13:16.842252  6732 net.cpp:165] Memory required for data: 1754726484
I1029 22:13:16.842265  6732 layer_factory.hpp:77] Creating layer res2b
I1029 22:13:16.842279  6732 net.cpp:100] Creating Layer res2b
I1029 22:13:16.842286  6732 net.cpp:444] res2b <- res2a_res2a_relu_0_split_1
I1029 22:13:16.842299  6732 net.cpp:444] res2b <- res2b_branch2c
I1029 22:13:16.842311  6732 net.cpp:418] res2b -> res2b
I1029 22:13:16.842360  6732 net.cpp:150] Setting up res2b
I1029 22:13:16.842368  6732 net.cpp:157] Top shape: 1 256 240 320 (19660800)
I1029 22:13:16.842371  6732 net.cpp:165] Memory required for data: 1833369684
I1029 22:13:16.842376  6732 layer_factory.hpp:77] Creating layer res2b_relu
I1029 22:13:16.842388  6732 net.cpp:100] Creating Layer res2b_relu
I1029 22:13:16.842394  6732 net.cpp:444] res2b_relu <- res2b
I1029 22:13:16.842409  6732 net.cpp:405] res2b_relu -> res2b (in-place)
I1029 22:13:16.842557  6732 net.cpp:150] Setting up res2b_relu
I1029 22:13:16.842564  6732 net.cpp:157] Top shape: 1 256 240 320 (19660800)
I1029 22:13:16.842567  6732 net.cpp:165] Memory required for data: 1912012884
I1029 22:13:16.842572  6732 layer_factory.hpp:77] Creating layer res2b_res2b_relu_0_split
I1029 22:13:16.842584  6732 net.cpp:100] Creating Layer res2b_res2b_relu_0_split
I1029 22:13:16.842591  6732 net.cpp:444] res2b_res2b_relu_0_split <- res2b
I1029 22:13:16.842607  6732 net.cpp:418] res2b_res2b_relu_0_split -> res2b_res2b_relu_0_split_0
I1029 22:13:16.842623  6732 net.cpp:418] res2b_res2b_relu_0_split -> res2b_res2b_relu_0_split_1
I1029 22:13:16.842679  6732 net.cpp:150] Setting up res2b_res2b_relu_0_split
I1029 22:13:16.842687  6732 net.cpp:157] Top shape: 1 256 240 320 (19660800)
I1029 22:13:16.842692  6732 net.cpp:157] Top shape: 1 256 240 320 (19660800)
I1029 22:13:16.842696  6732 net.cpp:165] Memory required for data: 2069299284
I1029 22:13:16.842700  6732 layer_factory.hpp:77] Creating layer res2c_branch2a
I1029 22:13:16.842717  6732 net.cpp:100] Creating Layer res2c_branch2a
I1029 22:13:16.842723  6732 net.cpp:444] res2c_branch2a <- res2b_res2b_relu_0_split_0
I1029 22:13:16.842741  6732 net.cpp:418] res2c_branch2a -> res2c_branch2a
I1029 22:13:16.843616  6732 cudnn_conv_layer.cpp:194] Reallocating workspace storage: 1388952
I1029 22:13:16.843854  6732 net.cpp:150] Setting up res2c_branch2a
I1029 22:13:16.843864  6732 net.cpp:157] Top shape: 1 64 240 320 (4915200)
I1029 22:13:16.843869  6732 net.cpp:165] Memory required for data: 2088960084
I1029 22:13:16.843881  6732 layer_factory.hpp:77] Creating layer bn2c_branch2a
I1029 22:13:16.843896  6732 net.cpp:100] Creating Layer bn2c_branch2a
I1029 22:13:16.843904  6732 net.cpp:444] bn2c_branch2a <- res2c_branch2a
I1029 22:13:16.843919  6732 net.cpp:405] bn2c_branch2a -> res2c_branch2a (in-place)
I1029 22:13:16.844249  6732 net.cpp:150] Setting up bn2c_branch2a
I1029 22:13:16.844256  6732 net.cpp:157] Top shape: 1 64 240 320 (4915200)
I1029 22:13:16.844259  6732 net.cpp:165] Memory required for data: 2108620884
I1029 22:13:16.844276  6732 layer_factory.hpp:77] Creating layer scale2c_branch2a
I1029 22:13:16.844291  6732 net.cpp:100] Creating Layer scale2c_branch2a
I1029 22:13:16.844297  6732 net.cpp:444] scale2c_branch2a <- res2c_branch2a
I1029 22:13:16.844312  6732 net.cpp:405] scale2c_branch2a -> res2c_branch2a (in-place)
I1029 22:13:16.844374  6732 layer_factory.hpp:77] Creating layer scale2c_branch2a
I1029 22:13:16.844713  6732 net.cpp:150] Setting up scale2c_branch2a
I1029 22:13:16.844722  6732 net.cpp:157] Top shape: 1 64 240 320 (4915200)
I1029 22:13:16.844724  6732 net.cpp:165] Memory required for data: 2128281684
I1029 22:13:16.844736  6732 layer_factory.hpp:77] Creating layer res2c_branch2a_relu
I1029 22:13:16.844748  6732 net.cpp:100] Creating Layer res2c_branch2a_relu
I1029 22:13:16.844754  6732 net.cpp:444] res2c_branch2a_relu <- res2c_branch2a
I1029 22:13:16.844769  6732 net.cpp:405] res2c_branch2a_relu -> res2c_branch2a (in-place)
I1029 22:13:16.844916  6732 net.cpp:150] Setting up res2c_branch2a_relu
I1029 22:13:16.844923  6732 net.cpp:157] Top shape: 1 64 240 320 (4915200)
I1029 22:13:16.844926  6732 net.cpp:165] Memory required for data: 2147942484
I1029 22:13:16.844931  6732 layer_factory.hpp:77] Creating layer res2c_branch2b
I1029 22:13:16.844947  6732 net.cpp:100] Creating Layer res2c_branch2b
I1029 22:13:16.844954  6732 net.cpp:444] res2c_branch2b <- res2c_branch2a
I1029 22:13:16.844971  6732 net.cpp:418] res2c_branch2b -> res2c_branch2b
I1029 22:13:16.845896  6732 cudnn_conv_layer.cpp:194] Reallocating workspace storage: 786432
I1029 22:13:16.846146  6732 net.cpp:150] Setting up res2c_branch2b
I1029 22:13:16.846158  6732 net.cpp:157] Top shape: 1 64 240 320 (4915200)
I1029 22:13:16.846163  6732 net.cpp:165] Memory required for data: 2167603284
I1029 22:13:16.846175  6732 layer_factory.hpp:77] Creating layer bn2c_branch2b
I1029 22:13:16.846194  6732 net.cpp:100] Creating Layer bn2c_branch2b
I1029 22:13:16.846200  6732 net.cpp:444] bn2c_branch2b <- res2c_branch2b
I1029 22:13:16.846216  6732 net.cpp:405] bn2c_branch2b -> res2c_branch2b (in-place)
I1029 22:13:16.846550  6732 net.cpp:150] Setting up bn2c_branch2b
I1029 22:13:16.846559  6732 net.cpp:157] Top shape: 1 64 240 320 (4915200)
I1029 22:13:16.846561  6732 net.cpp:165] Memory required for data: 2187264084
I1029 22:13:16.846580  6732 layer_factory.hpp:77] Creating layer scale2c_branch2b
I1029 22:13:16.846593  6732 net.cpp:100] Creating Layer scale2c_branch2b
I1029 22:13:16.846599  6732 net.cpp:444] scale2c_branch2b <- res2c_branch2b
I1029 22:13:16.846616  6732 net.cpp:405] scale2c_branch2b -> res2c_branch2b (in-place)
I1029 22:13:16.846678  6732 layer_factory.hpp:77] Creating layer scale2c_branch2b
I1029 22:13:16.847666  6732 net.cpp:150] Setting up scale2c_branch2b
I1029 22:13:16.847676  6732 net.cpp:157] Top shape: 1 64 240 320 (4915200)
I1029 22:13:16.847678  6732 net.cpp:165] Memory required for data: 2206924884
I1029 22:13:16.847692  6732 layer_factory.hpp:77] Creating layer res2c_branch2b_relu
I1029 22:13:16.847707  6732 net.cpp:100] Creating Layer res2c_branch2b_relu
I1029 22:13:16.847712  6732 net.cpp:444] res2c_branch2b_relu <- res2c_branch2b
I1029 22:13:16.847728  6732 net.cpp:405] res2c_branch2b_relu -> res2c_branch2b (in-place)
I1029 22:13:16.847896  6732 net.cpp:150] Setting up res2c_branch2b_relu
I1029 22:13:16.847903  6732 net.cpp:157] Top shape: 1 64 240 320 (4915200)
I1029 22:13:16.847906  6732 net.cpp:165] Memory required for data: 2226585684
I1029 22:13:16.847911  6732 layer_factory.hpp:77] Creating layer res2c_branch2c
I1029 22:13:16.847929  6732 net.cpp:100] Creating Layer res2c_branch2c
I1029 22:13:16.847936  6732 net.cpp:444] res2c_branch2c <- res2c_branch2b
I1029 22:13:16.847954  6732 net.cpp:418] res2c_branch2c -> res2c_branch2c
I1029 22:13:16.848853  6732 cudnn_conv_layer.cpp:194] Reallocating workspace storage: 1388952
I1029 22:13:16.849094  6732 net.cpp:150] Setting up res2c_branch2c
I1029 22:13:16.849107  6732 net.cpp:157] Top shape: 1 256 240 320 (19660800)
I1029 22:13:16.849110  6732 net.cpp:165] Memory required for data: 2305228884
I1029 22:13:16.849123  6732 layer_factory.hpp:77] Creating layer bn2c_branch2c
I1029 22:13:16.849138  6732 net.cpp:100] Creating Layer bn2c_branch2c
I1029 22:13:16.849145  6732 net.cpp:444] bn2c_branch2c <- res2c_branch2c
I1029 22:13:16.849160  6732 net.cpp:405] bn2c_branch2c -> res2c_branch2c (in-place)
I1029 22:13:16.849486  6732 net.cpp:150] Setting up bn2c_branch2c
I1029 22:13:16.849494  6732 net.cpp:157] Top shape: 1 256 240 320 (19660800)
I1029 22:13:16.849498  6732 net.cpp:165] Memory required for data: 2383872084
I1029 22:13:16.849531  6732 layer_factory.hpp:77] Creating layer scale2c_branch2c
I1029 22:13:16.849548  6732 net.cpp:100] Creating Layer scale2c_branch2c
I1029 22:13:16.849555  6732 net.cpp:444] scale2c_branch2c <- res2c_branch2c
I1029 22:13:16.849570  6732 net.cpp:405] scale2c_branch2c -> res2c_branch2c (in-place)
I1029 22:13:16.849633  6732 layer_factory.hpp:77] Creating layer scale2c_branch2c
I1029 22:13:16.849977  6732 net.cpp:150] Setting up scale2c_branch2c
I1029 22:13:16.849985  6732 net.cpp:157] Top shape: 1 256 240 320 (19660800)
I1029 22:13:16.849989  6732 net.cpp:165] Memory required for data: 2462515284
I1029 22:13:16.850001  6732 layer_factory.hpp:77] Creating layer res2c
I1029 22:13:16.850015  6732 net.cpp:100] Creating Layer res2c
I1029 22:13:16.850023  6732 net.cpp:444] res2c <- res2b_res2b_relu_0_split_1
I1029 22:13:16.850034  6732 net.cpp:444] res2c <- res2c_branch2c
I1029 22:13:16.850046  6732 net.cpp:418] res2c -> res2c
I1029 22:13:16.850086  6732 net.cpp:150] Setting up res2c
I1029 22:13:16.850096  6732 net.cpp:157] Top shape: 1 256 240 320 (19660800)
I1029 22:13:16.850100  6732 net.cpp:165] Memory required for data: 2541158484
I1029 22:13:16.850105  6732 layer_factory.hpp:77] Creating layer res2c_relu
I1029 22:13:16.850116  6732 net.cpp:100] Creating Layer res2c_relu
I1029 22:13:16.850122  6732 net.cpp:444] res2c_relu <- res2c
I1029 22:13:16.850136  6732 net.cpp:405] res2c_relu -> res2c (in-place)
I1029 22:13:16.850540  6732 net.cpp:150] Setting up res2c_relu
I1029 22:13:16.850549  6732 net.cpp:157] Top shape: 1 256 240 320 (19660800)
I1029 22:13:16.850553  6732 net.cpp:165] Memory required for data: 2619801684
I1029 22:13:16.850558  6732 layer_factory.hpp:77] Creating layer res2c_res2c_relu_0_split
I1029 22:13:16.850571  6732 net.cpp:100] Creating Layer res2c_res2c_relu_0_split
I1029 22:13:16.850577  6732 net.cpp:444] res2c_res2c_relu_0_split <- res2c
I1029 22:13:16.850594  6732 net.cpp:418] res2c_res2c_relu_0_split -> res2c_res2c_relu_0_split_0
I1029 22:13:16.850612  6732 net.cpp:418] res2c_res2c_relu_0_split -> res2c_res2c_relu_0_split_1
I1029 22:13:16.850668  6732 net.cpp:150] Setting up res2c_res2c_relu_0_split
I1029 22:13:16.850677  6732 net.cpp:157] Top shape: 1 256 240 320 (19660800)
I1029 22:13:16.850683  6732 net.cpp:157] Top shape: 1 256 240 320 (19660800)
I1029 22:13:16.850687  6732 net.cpp:165] Memory required for data: 2777088084
I1029 22:13:16.850692  6732 layer_factory.hpp:77] Creating layer res3a_branch1
I1029 22:13:16.850708  6732 net.cpp:100] Creating Layer res3a_branch1
I1029 22:13:16.850714  6732 net.cpp:444] res3a_branch1 <- res2c_res2c_relu_0_split_0
I1029 22:13:16.850731  6732 net.cpp:418] res3a_branch1 -> res3a_branch1
I1029 22:13:16.851763  6732 cudnn_conv_layer.cpp:194] Reallocating workspace storage: 345624
I1029 22:13:16.851781  6732 net.cpp:150] Setting up res3a_branch1
I1029 22:13:16.851791  6732 net.cpp:157] Top shape: 1 512 120 160 (9830400)
I1029 22:13:16.851794  6732 net.cpp:165] Memory required for data: 2816409684
I1029 22:13:16.851806  6732 layer_factory.hpp:77] Creating layer bn3a_branch1
I1029 22:13:16.851820  6732 net.cpp:100] Creating Layer bn3a_branch1
I1029 22:13:16.851827  6732 net.cpp:444] bn3a_branch1 <- res3a_branch1
I1029 22:13:16.851843  6732 net.cpp:405] bn3a_branch1 -> res3a_branch1 (in-place)
I1029 22:13:16.852737  6732 net.cpp:150] Setting up bn3a_branch1
I1029 22:13:16.852746  6732 net.cpp:157] Top shape: 1 512 120 160 (9830400)
I1029 22:13:16.852749  6732 net.cpp:165] Memory required for data: 2855731284
I1029 22:13:16.852767  6732 layer_factory.hpp:77] Creating layer scale3a_branch1
I1029 22:13:16.852784  6732 net.cpp:100] Creating Layer scale3a_branch1
I1029 22:13:16.852790  6732 net.cpp:444] scale3a_branch1 <- res3a_branch1
I1029 22:13:16.852807  6732 net.cpp:405] scale3a_branch1 -> res3a_branch1 (in-place)
I1029 22:13:16.852864  6732 layer_factory.hpp:77] Creating layer scale3a_branch1
I1029 22:13:16.853058  6732 net.cpp:150] Setting up scale3a_branch1
I1029 22:13:16.853065  6732 net.cpp:157] Top shape: 1 512 120 160 (9830400)
I1029 22:13:16.853068  6732 net.cpp:165] Memory required for data: 2895052884
I1029 22:13:16.853081  6732 layer_factory.hpp:77] Creating layer res3a_branch2a
I1029 22:13:16.853098  6732 net.cpp:100] Creating Layer res3a_branch2a
I1029 22:13:16.853104  6732 net.cpp:444] res3a_branch2a <- res2c_res2c_relu_0_split_1
I1029 22:13:16.853121  6732 net.cpp:418] res3a_branch2a -> res3a_branch2a
I1029 22:13:16.854045  6732 cudnn_conv_layer.cpp:194] Reallocating workspace storage: 345624
I1029 22:13:16.854063  6732 net.cpp:150] Setting up res3a_branch2a
I1029 22:13:16.854074  6732 net.cpp:157] Top shape: 1 128 120 160 (2457600)
I1029 22:13:16.854077  6732 net.cpp:165] Memory required for data: 2904883284
I1029 22:13:16.854089  6732 layer_factory.hpp:77] Creating layer bn3a_branch2a
I1029 22:13:16.854102  6732 net.cpp:100] Creating Layer bn3a_branch2a
I1029 22:13:16.854110  6732 net.cpp:444] bn3a_branch2a <- res3a_branch2a
I1029 22:13:16.854125  6732 net.cpp:405] bn3a_branch2a -> res3a_branch2a (in-place)
I1029 22:13:16.854372  6732 net.cpp:150] Setting up bn3a_branch2a
I1029 22:13:16.854378  6732 net.cpp:157] Top shape: 1 128 120 160 (2457600)
I1029 22:13:16.854382  6732 net.cpp:165] Memory required for data: 2914713684
I1029 22:13:16.854399  6732 layer_factory.hpp:77] Creating layer scale3a_branch2a
I1029 22:13:16.854414  6732 net.cpp:100] Creating Layer scale3a_branch2a
I1029 22:13:16.854420  6732 net.cpp:444] scale3a_branch2a <- res3a_branch2a
I1029 22:13:16.854435  6732 net.cpp:405] scale3a_branch2a -> res3a_branch2a (in-place)
I1029 22:13:16.854496  6732 layer_factory.hpp:77] Creating layer scale3a_branch2a
I1029 22:13:16.854683  6732 net.cpp:150] Setting up scale3a_branch2a
I1029 22:13:16.854691  6732 net.cpp:157] Top shape: 1 128 120 160 (2457600)
I1029 22:13:16.854694  6732 net.cpp:165] Memory required for data: 2924544084
I1029 22:13:16.854707  6732 layer_factory.hpp:77] Creating layer res3a_branch2a_relu
I1029 22:13:16.854719  6732 net.cpp:100] Creating Layer res3a_branch2a_relu
I1029 22:13:16.854725  6732 net.cpp:444] res3a_branch2a_relu <- res3a_branch2a
I1029 22:13:16.854738  6732 net.cpp:405] res3a_branch2a_relu -> res3a_branch2a (in-place)
I1029 22:13:16.854874  6732 net.cpp:150] Setting up res3a_branch2a_relu
I1029 22:13:16.854882  6732 net.cpp:157] Top shape: 1 128 120 160 (2457600)
I1029 22:13:16.854885  6732 net.cpp:165] Memory required for data: 2934374484
I1029 22:13:16.854890  6732 layer_factory.hpp:77] Creating layer res3a_branch2b
I1029 22:13:16.854905  6732 net.cpp:100] Creating Layer res3a_branch2b
I1029 22:13:16.854912  6732 net.cpp:444] res3a_branch2b <- res3a_branch2a
I1029 22:13:16.854928  6732 net.cpp:418] res3a_branch2b -> res3a_branch2b
I1029 22:13:16.856622  6732 cudnn_conv_layer.cpp:194] Reallocating workspace storage: 3145728
I1029 22:13:16.856869  6732 net.cpp:150] Setting up res3a_branch2b
I1029 22:13:16.856881  6732 net.cpp:157] Top shape: 1 128 120 160 (2457600)
I1029 22:13:16.856885  6732 net.cpp:165] Memory required for data: 2944204884
I1029 22:13:16.856899  6732 layer_factory.hpp:77] Creating layer bn3a_branch2b
I1029 22:13:16.856914  6732 net.cpp:100] Creating Layer bn3a_branch2b
I1029 22:13:16.856920  6732 net.cpp:444] bn3a_branch2b <- res3a_branch2b
I1029 22:13:16.856935  6732 net.cpp:405] bn3a_branch2b -> res3a_branch2b (in-place)
I1029 22:13:16.857192  6732 net.cpp:150] Setting up bn3a_branch2b
I1029 22:13:16.857198  6732 net.cpp:157] Top shape: 1 128 120 160 (2457600)
I1029 22:13:16.857201  6732 net.cpp:165] Memory required for data: 2954035284
I1029 22:13:16.857219  6732 layer_factory.hpp:77] Creating layer scale3a_branch2b
I1029 22:13:16.857244  6732 net.cpp:100] Creating Layer scale3a_branch2b
I1029 22:13:16.857250  6732 net.cpp:444] scale3a_branch2b <- res3a_branch2b
I1029 22:13:16.857265  6732 net.cpp:405] scale3a_branch2b -> res3a_branch2b (in-place)
I1029 22:13:16.857327  6732 layer_factory.hpp:77] Creating layer scale3a_branch2b
I1029 22:13:16.857517  6732 net.cpp:150] Setting up scale3a_branch2b
I1029 22:13:16.857523  6732 net.cpp:157] Top shape: 1 128 120 160 (2457600)
I1029 22:13:16.857527  6732 net.cpp:165] Memory required for data: 2963865684
I1029 22:13:16.857540  6732 layer_factory.hpp:77] Creating layer res3a_branch2b_relu
I1029 22:13:16.857553  6732 net.cpp:100] Creating Layer res3a_branch2b_relu
I1029 22:13:16.857559  6732 net.cpp:444] res3a_branch2b_relu <- res3a_branch2b
I1029 22:13:16.857573  6732 net.cpp:405] res3a_branch2b_relu -> res3a_branch2b (in-place)
I1029 22:13:16.857713  6732 net.cpp:150] Setting up res3a_branch2b_relu
I1029 22:13:16.857720  6732 net.cpp:157] Top shape: 1 128 120 160 (2457600)
I1029 22:13:16.857723  6732 net.cpp:165] Memory required for data: 2973696084
I1029 22:13:16.857728  6732 layer_factory.hpp:77] Creating layer res3a_branch2c
I1029 22:13:16.857744  6732 net.cpp:100] Creating Layer res3a_branch2c
I1029 22:13:16.857750  6732 net.cpp:444] res3a_branch2c <- res3a_branch2b
I1029 22:13:16.857769  6732 net.cpp:418] res3a_branch2c -> res3a_branch2c
I1029 22:13:16.858741  6732 cudnn_conv_layer.cpp:194] Reallocating workspace storage: 352152
I1029 22:13:16.858754  6732 net.cpp:150] Setting up res3a_branch2c
I1029 22:13:16.858764  6732 net.cpp:157] Top shape: 1 512 120 160 (9830400)
I1029 22:13:16.858768  6732 net.cpp:165] Memory required for data: 3013017684
I1029 22:13:16.858779  6732 layer_factory.hpp:77] Creating layer bn3a_branch2c
I1029 22:13:16.858794  6732 net.cpp:100] Creating Layer bn3a_branch2c
I1029 22:13:16.858800  6732 net.cpp:444] bn3a_branch2c <- res3a_branch2c
I1029 22:13:16.858817  6732 net.cpp:405] bn3a_branch2c -> res3a_branch2c (in-place)
I1029 22:13:16.859071  6732 net.cpp:150] Setting up bn3a_branch2c
I1029 22:13:16.859077  6732 net.cpp:157] Top shape: 1 512 120 160 (9830400)
I1029 22:13:16.859081  6732 net.cpp:165] Memory required for data: 3052339284
I1029 22:13:16.859097  6732 layer_factory.hpp:77] Creating layer scale3a_branch2c
I1029 22:13:16.859112  6732 net.cpp:100] Creating Layer scale3a_branch2c
I1029 22:13:16.859118  6732 net.cpp:444] scale3a_branch2c <- res3a_branch2c
I1029 22:13:16.859134  6732 net.cpp:405] scale3a_branch2c -> res3a_branch2c (in-place)
I1029 22:13:16.859191  6732 layer_factory.hpp:77] Creating layer scale3a_branch2c
I1029 22:13:16.859385  6732 net.cpp:150] Setting up scale3a_branch2c
I1029 22:13:16.859392  6732 net.cpp:157] Top shape: 1 512 120 160 (9830400)
I1029 22:13:16.859395  6732 net.cpp:165] Memory required for data: 3091660884
I1029 22:13:16.859407  6732 layer_factory.hpp:77] Creating layer res3a
I1029 22:13:16.859421  6732 net.cpp:100] Creating Layer res3a
I1029 22:13:16.859427  6732 net.cpp:444] res3a <- res3a_branch1
I1029 22:13:16.859438  6732 net.cpp:444] res3a <- res3a_branch2c
I1029 22:13:16.859449  6732 net.cpp:418] res3a -> res3a
I1029 22:13:16.859489  6732 net.cpp:150] Setting up res3a
I1029 22:13:16.859498  6732 net.cpp:157] Top shape: 1 512 120 160 (9830400)
I1029 22:13:16.859503  6732 net.cpp:165] Memory required for data: 3130982484
I1029 22:13:16.859508  6732 layer_factory.hpp:77] Creating layer res3a_relu
I1029 22:13:16.859519  6732 net.cpp:100] Creating Layer res3a_relu
I1029 22:13:16.859525  6732 net.cpp:444] res3a_relu <- res3a
I1029 22:13:16.859539  6732 net.cpp:405] res3a_relu -> res3a (in-place)
I1029 22:13:16.859915  6732 net.cpp:150] Setting up res3a_relu
I1029 22:13:16.859923  6732 net.cpp:157] Top shape: 1 512 120 160 (9830400)
I1029 22:13:16.859927  6732 net.cpp:165] Memory required for data: 3170304084
I1029 22:13:16.859932  6732 layer_factory.hpp:77] Creating layer res3a_res3a_relu_0_split
I1029 22:13:16.859946  6732 net.cpp:100] Creating Layer res3a_res3a_relu_0_split
I1029 22:13:16.859952  6732 net.cpp:444] res3a_res3a_relu_0_split <- res3a
I1029 22:13:16.859968  6732 net.cpp:418] res3a_res3a_relu_0_split -> res3a_res3a_relu_0_split_0
I1029 22:13:16.859987  6732 net.cpp:418] res3a_res3a_relu_0_split -> res3a_res3a_relu_0_split_1
I1029 22:13:16.860043  6732 net.cpp:150] Setting up res3a_res3a_relu_0_split
I1029 22:13:16.860051  6732 net.cpp:157] Top shape: 1 512 120 160 (9830400)
I1029 22:13:16.860057  6732 net.cpp:157] Top shape: 1 512 120 160 (9830400)
I1029 22:13:16.860060  6732 net.cpp:165] Memory required for data: 3248947284
I1029 22:13:16.860066  6732 layer_factory.hpp:77] Creating layer res3b_branch2a
I1029 22:13:16.860082  6732 net.cpp:100] Creating Layer res3b_branch2a
I1029 22:13:16.860090  6732 net.cpp:444] res3b_branch2a <- res3a_res3a_relu_0_split_0
I1029 22:13:16.860106  6732 net.cpp:418] res3b_branch2a -> res3b_branch2a
I1029 22:13:16.861047  6732 cudnn_conv_layer.cpp:194] Reallocating workspace storage: 352152
I1029 22:13:16.861068  6732 net.cpp:150] Setting up res3b_branch2a
I1029 22:13:16.861075  6732 net.cpp:157] Top shape: 1 128 120 160 (2457600)
I1029 22:13:16.861079  6732 net.cpp:165] Memory required for data: 3258777684
I1029 22:13:16.861091  6732 layer_factory.hpp:77] Creating layer bn3b_branch2a
I1029 22:13:16.861106  6732 net.cpp:100] Creating Layer bn3b_branch2a
I1029 22:13:16.861112  6732 net.cpp:444] bn3b_branch2a <- res3b_branch2a
I1029 22:13:16.861127  6732 net.cpp:405] bn3b_branch2a -> res3b_branch2a (in-place)
I1029 22:13:16.861378  6732 net.cpp:150] Setting up bn3b_branch2a
I1029 22:13:16.861387  6732 net.cpp:157] Top shape: 1 128 120 160 (2457600)
I1029 22:13:16.861389  6732 net.cpp:165] Memory required for data: 3268608084
I1029 22:13:16.861407  6732 layer_factory.hpp:77] Creating layer scale3b_branch2a
I1029 22:13:16.861420  6732 net.cpp:100] Creating Layer scale3b_branch2a
I1029 22:13:16.861428  6732 net.cpp:444] scale3b_branch2a <- res3b_branch2a
I1029 22:13:16.861443  6732 net.cpp:405] scale3b_branch2a -> res3b_branch2a (in-place)
I1029 22:13:16.861503  6732 layer_factory.hpp:77] Creating layer scale3b_branch2a
I1029 22:13:16.862349  6732 net.cpp:150] Setting up scale3b_branch2a
I1029 22:13:16.862360  6732 net.cpp:157] Top shape: 1 128 120 160 (2457600)
I1029 22:13:16.862362  6732 net.cpp:165] Memory required for data: 3278438484
I1029 22:13:16.862376  6732 layer_factory.hpp:77] Creating layer res3b_branch2a_relu
I1029 22:13:16.862390  6732 net.cpp:100] Creating Layer res3b_branch2a_relu
I1029 22:13:16.862396  6732 net.cpp:444] res3b_branch2a_relu <- res3b_branch2a
I1029 22:13:16.862411  6732 net.cpp:405] res3b_branch2a_relu -> res3b_branch2a (in-place)
I1029 22:13:16.862560  6732 net.cpp:150] Setting up res3b_branch2a_relu
I1029 22:13:16.862567  6732 net.cpp:157] Top shape: 1 128 120 160 (2457600)
I1029 22:13:16.862571  6732 net.cpp:165] Memory required for data: 3288268884
I1029 22:13:16.862576  6732 layer_factory.hpp:77] Creating layer res3b_branch2b
I1029 22:13:16.862592  6732 net.cpp:100] Creating Layer res3b_branch2b
I1029 22:13:16.862599  6732 net.cpp:444] res3b_branch2b <- res3b_branch2a
I1029 22:13:16.862617  6732 net.cpp:418] res3b_branch2b -> res3b_branch2b
I1029 22:13:16.863929  6732 cudnn_conv_layer.cpp:194] Reallocating workspace storage: 3145728
I1029 22:13:16.864174  6732 net.cpp:150] Setting up res3b_branch2b
I1029 22:13:16.864187  6732 net.cpp:157] Top shape: 1 128 120 160 (2457600)
I1029 22:13:16.864190  6732 net.cpp:165] Memory required for data: 3298099284
I1029 22:13:16.864202  6732 layer_factory.hpp:77] Creating layer bn3b_branch2b
I1029 22:13:16.864217  6732 net.cpp:100] Creating Layer bn3b_branch2b
I1029 22:13:16.864225  6732 net.cpp:444] bn3b_branch2b <- res3b_branch2b
I1029 22:13:16.864240  6732 net.cpp:405] bn3b_branch2b -> res3b_branch2b (in-place)
I1029 22:13:16.864497  6732 net.cpp:150] Setting up bn3b_branch2b
I1029 22:13:16.864506  6732 net.cpp:157] Top shape: 1 128 120 160 (2457600)
I1029 22:13:16.864508  6732 net.cpp:165] Memory required for data: 3307929684
I1029 22:13:16.864526  6732 layer_factory.hpp:77] Creating layer scale3b_branch2b
I1029 22:13:16.864539  6732 net.cpp:100] Creating Layer scale3b_branch2b
I1029 22:13:16.864545  6732 net.cpp:444] scale3b_branch2b <- res3b_branch2b
I1029 22:13:16.864562  6732 net.cpp:405] scale3b_branch2b -> res3b_branch2b (in-place)
I1029 22:13:16.864624  6732 layer_factory.hpp:77] Creating layer scale3b_branch2b
I1029 22:13:16.864812  6732 net.cpp:150] Setting up scale3b_branch2b
I1029 22:13:16.864820  6732 net.cpp:157] Top shape: 1 128 120 160 (2457600)
I1029 22:13:16.864823  6732 net.cpp:165] Memory required for data: 3317760084
I1029 22:13:16.864835  6732 layer_factory.hpp:77] Creating layer res3b_branch2b_relu
I1029 22:13:16.864847  6732 net.cpp:100] Creating Layer res3b_branch2b_relu
I1029 22:13:16.864853  6732 net.cpp:444] res3b_branch2b_relu <- res3b_branch2b
I1029 22:13:16.864867  6732 net.cpp:405] res3b_branch2b_relu -> res3b_branch2b (in-place)
I1029 22:13:16.865010  6732 net.cpp:150] Setting up res3b_branch2b_relu
I1029 22:13:16.865017  6732 net.cpp:157] Top shape: 1 128 120 160 (2457600)
I1029 22:13:16.865020  6732 net.cpp:165] Memory required for data: 3327590484
I1029 22:13:16.865025  6732 layer_factory.hpp:77] Creating layer res3b_branch2c
I1029 22:13:16.865041  6732 net.cpp:100] Creating Layer res3b_branch2c
I1029 22:13:16.865048  6732 net.cpp:444] res3b_branch2c <- res3b_branch2b
I1029 22:13:16.865064  6732 net.cpp:418] res3b_branch2c -> res3b_branch2c
I1029 22:13:16.866017  6732 cudnn_conv_layer.cpp:194] Reallocating workspace storage: 352152
I1029 22:13:16.866034  6732 net.cpp:150] Setting up res3b_branch2c
I1029 22:13:16.866041  6732 net.cpp:157] Top shape: 1 512 120 160 (9830400)
I1029 22:13:16.866045  6732 net.cpp:165] Memory required for data: 3366912084
I1029 22:13:16.866056  6732 layer_factory.hpp:77] Creating layer bn3b_branch2c
I1029 22:13:16.866071  6732 net.cpp:100] Creating Layer bn3b_branch2c
I1029 22:13:16.866078  6732 net.cpp:444] bn3b_branch2c <- res3b_branch2c
I1029 22:13:16.866096  6732 net.cpp:405] bn3b_branch2c -> res3b_branch2c (in-place)
I1029 22:13:16.866353  6732 net.cpp:150] Setting up bn3b_branch2c
I1029 22:13:16.866359  6732 net.cpp:157] Top shape: 1 512 120 160 (9830400)
I1029 22:13:16.866363  6732 net.cpp:165] Memory required for data: 3406233684
I1029 22:13:16.866379  6732 layer_factory.hpp:77] Creating layer scale3b_branch2c
I1029 22:13:16.866395  6732 net.cpp:100] Creating Layer scale3b_branch2c
I1029 22:13:16.866401  6732 net.cpp:444] scale3b_branch2c <- res3b_branch2c
I1029 22:13:16.866415  6732 net.cpp:405] scale3b_branch2c -> res3b_branch2c (in-place)
I1029 22:13:16.866472  6732 layer_factory.hpp:77] Creating layer scale3b_branch2c
I1029 22:13:16.866667  6732 net.cpp:150] Setting up scale3b_branch2c
I1029 22:13:16.866675  6732 net.cpp:157] Top shape: 1 512 120 160 (9830400)
I1029 22:13:16.866678  6732 net.cpp:165] Memory required for data: 3445555284
I1029 22:13:16.866690  6732 layer_factory.hpp:77] Creating layer res3b
I1029 22:13:16.866705  6732 net.cpp:100] Creating Layer res3b
I1029 22:13:16.866711  6732 net.cpp:444] res3b <- res3a_res3a_relu_0_split_1
I1029 22:13:16.866724  6732 net.cpp:444] res3b <- res3b_branch2c
I1029 22:13:16.866735  6732 net.cpp:418] res3b -> res3b
I1029 22:13:16.866775  6732 net.cpp:150] Setting up res3b
I1029 22:13:16.866782  6732 net.cpp:157] Top shape: 1 512 120 160 (9830400)
I1029 22:13:16.866786  6732 net.cpp:165] Memory required for data: 3484876884
I1029 22:13:16.866791  6732 layer_factory.hpp:77] Creating layer res3b_relu
I1029 22:13:16.866804  6732 net.cpp:100] Creating Layer res3b_relu
I1029 22:13:16.866811  6732 net.cpp:444] res3b_relu <- res3b
I1029 22:13:16.866823  6732 net.cpp:405] res3b_relu -> res3b (in-place)
I1029 22:13:16.867193  6732 net.cpp:150] Setting up res3b_relu
I1029 22:13:16.867202  6732 net.cpp:157] Top shape: 1 512 120 160 (9830400)
I1029 22:13:16.867204  6732 net.cpp:165] Memory required for data: 3524198484
I1029 22:13:16.867210  6732 layer_factory.hpp:77] Creating layer res3b_res3b_relu_0_split
I1029 22:13:16.867223  6732 net.cpp:100] Creating Layer res3b_res3b_relu_0_split
I1029 22:13:16.867229  6732 net.cpp:444] res3b_res3b_relu_0_split <- res3b
I1029 22:13:16.867245  6732 net.cpp:418] res3b_res3b_relu_0_split -> res3b_res3b_relu_0_split_0
I1029 22:13:16.867264  6732 net.cpp:418] res3b_res3b_relu_0_split -> res3b_res3b_relu_0_split_1
I1029 22:13:16.867321  6732 net.cpp:150] Setting up res3b_res3b_relu_0_split
I1029 22:13:16.867331  6732 net.cpp:157] Top shape: 1 512 120 160 (9830400)
I1029 22:13:16.867336  6732 net.cpp:157] Top shape: 1 512 120 160 (9830400)
I1029 22:13:16.867339  6732 net.cpp:165] Memory required for data: 3602841684
I1029 22:13:16.867344  6732 layer_factory.hpp:77] Creating layer res3c_branch2a
I1029 22:13:16.867360  6732 net.cpp:100] Creating Layer res3c_branch2a
I1029 22:13:16.867367  6732 net.cpp:444] res3c_branch2a <- res3b_res3b_relu_0_split_0
I1029 22:13:16.867383  6732 net.cpp:418] res3c_branch2a -> res3c_branch2a
I1029 22:13:16.868326  6732 cudnn_conv_layer.cpp:194] Reallocating workspace storage: 352152
I1029 22:13:16.868346  6732 net.cpp:150] Setting up res3c_branch2a
I1029 22:13:16.868355  6732 net.cpp:157] Top shape: 1 128 120 160 (2457600)
I1029 22:13:16.868358  6732 net.cpp:165] Memory required for data: 3612672084
I1029 22:13:16.868369  6732 layer_factory.hpp:77] Creating layer bn3c_branch2a
I1029 22:13:16.868384  6732 net.cpp:100] Creating Layer bn3c_branch2a
I1029 22:13:16.868391  6732 net.cpp:444] bn3c_branch2a <- res3c_branch2a
I1029 22:13:16.868407  6732 net.cpp:405] bn3c_branch2a -> res3c_branch2a (in-place)
I1029 22:13:16.868662  6732 net.cpp:150] Setting up bn3c_branch2a
I1029 22:13:16.868670  6732 net.cpp:157] Top shape: 1 128 120 160 (2457600)
I1029 22:13:16.868674  6732 net.cpp:165] Memory required for data: 3622502484
I1029 22:13:16.868690  6732 layer_factory.hpp:77] Creating layer scale3c_branch2a
I1029 22:13:16.868705  6732 net.cpp:100] Creating Layer scale3c_branch2a
I1029 22:13:16.868712  6732 net.cpp:444] scale3c_branch2a <- res3c_branch2a
I1029 22:13:16.868727  6732 net.cpp:405] scale3c_branch2a -> res3c_branch2a (in-place)
I1029 22:13:16.868789  6732 layer_factory.hpp:77] Creating layer scale3c_branch2a
I1029 22:13:16.868978  6732 net.cpp:150] Setting up scale3c_branch2a
I1029 22:13:16.868985  6732 net.cpp:157] Top shape: 1 128 120 160 (2457600)
I1029 22:13:16.868988  6732 net.cpp:165] Memory required for data: 3632332884
I1029 22:13:16.869000  6732 layer_factory.hpp:77] Creating layer res3c_branch2a_relu
I1029 22:13:16.869012  6732 net.cpp:100] Creating Layer res3c_branch2a_relu
I1029 22:13:16.869019  6732 net.cpp:444] res3c_branch2a_relu <- res3c_branch2a
I1029 22:13:16.869032  6732 net.cpp:405] res3c_branch2a_relu -> res3c_branch2a (in-place)
I1029 22:13:16.869168  6732 net.cpp:150] Setting up res3c_branch2a_relu
I1029 22:13:16.869174  6732 net.cpp:157] Top shape: 1 128 120 160 (2457600)
I1029 22:13:16.869177  6732 net.cpp:165] Memory required for data: 3642163284
I1029 22:13:16.869184  6732 layer_factory.hpp:77] Creating layer res3c_branch2b
I1029 22:13:16.869199  6732 net.cpp:100] Creating Layer res3c_branch2b
I1029 22:13:16.869205  6732 net.cpp:444] res3c_branch2b <- res3c_branch2a
I1029 22:13:16.869221  6732 net.cpp:418] res3c_branch2b -> res3c_branch2b
I1029 22:13:16.870295  6732 cudnn_conv_layer.cpp:194] Reallocating workspace storage: 3145728
I1029 22:13:16.870539  6732 net.cpp:150] Setting up res3c_branch2b
I1029 22:13:16.870551  6732 net.cpp:157] Top shape: 1 128 120 160 (2457600)
I1029 22:13:16.870556  6732 net.cpp:165] Memory required for data: 3651993684
I1029 22:13:16.870568  6732 layer_factory.hpp:77] Creating layer bn3c_branch2b
I1029 22:13:16.870584  6732 net.cpp:100] Creating Layer bn3c_branch2b
I1029 22:13:16.870590  6732 net.cpp:444] bn3c_branch2b <- res3c_branch2b
I1029 22:13:16.870606  6732 net.cpp:405] bn3c_branch2b -> res3c_branch2b (in-place)
I1029 22:13:16.870868  6732 net.cpp:150] Setting up bn3c_branch2b
I1029 22:13:16.870875  6732 net.cpp:157] Top shape: 1 128 120 160 (2457600)
I1029 22:13:16.870878  6732 net.cpp:165] Memory required for data: 3661824084
I1029 22:13:16.870895  6732 layer_factory.hpp:77] Creating layer scale3c_branch2b
I1029 22:13:16.870910  6732 net.cpp:100] Creating Layer scale3c_branch2b
I1029 22:13:16.870918  6732 net.cpp:444] scale3c_branch2b <- res3c_branch2b
I1029 22:13:16.870932  6732 net.cpp:405] scale3c_branch2b -> res3c_branch2b (in-place)
I1029 22:13:16.870995  6732 layer_factory.hpp:77] Creating layer scale3c_branch2b
I1029 22:13:16.871186  6732 net.cpp:150] Setting up scale3c_branch2b
I1029 22:13:16.871194  6732 net.cpp:157] Top shape: 1 128 120 160 (2457600)
I1029 22:13:16.871196  6732 net.cpp:165] Memory required for data: 3671654484
I1029 22:13:16.871209  6732 layer_factory.hpp:77] Creating layer res3c_branch2b_relu
I1029 22:13:16.871222  6732 net.cpp:100] Creating Layer res3c_branch2b_relu
I1029 22:13:16.871229  6732 net.cpp:444] res3c_branch2b_relu <- res3c_branch2b
I1029 22:13:16.871243  6732 net.cpp:405] res3c_branch2b_relu -> res3c_branch2b (in-place)
I1029 22:13:16.871385  6732 net.cpp:150] Setting up res3c_branch2b_relu
I1029 22:13:16.871392  6732 net.cpp:157] Top shape: 1 128 120 160 (2457600)
I1029 22:13:16.871395  6732 net.cpp:165] Memory required for data: 3681484884
I1029 22:13:16.871400  6732 layer_factory.hpp:77] Creating layer res3c_branch2c
I1029 22:13:16.871417  6732 net.cpp:100] Creating Layer res3c_branch2c
I1029 22:13:16.871424  6732 net.cpp:444] res3c_branch2c <- res3c_branch2b
I1029 22:13:16.871440  6732 net.cpp:418] res3c_branch2c -> res3c_branch2c
I1029 22:13:16.872401  6732 cudnn_conv_layer.cpp:194] Reallocating workspace storage: 352152
I1029 22:13:16.872416  6732 net.cpp:150] Setting up res3c_branch2c
I1029 22:13:16.872424  6732 net.cpp:157] Top shape: 1 512 120 160 (9830400)
I1029 22:13:16.872427  6732 net.cpp:165] Memory required for data: 3720806484
I1029 22:13:16.872439  6732 layer_factory.hpp:77] Creating layer bn3c_branch2c
I1029 22:13:16.872454  6732 net.cpp:100] Creating Layer bn3c_branch2c
I1029 22:13:16.872462  6732 net.cpp:444] bn3c_branch2c <- res3c_branch2c
I1029 22:13:16.872478  6732 net.cpp:405] bn3c_branch2c -> res3c_branch2c (in-place)
I1029 22:13:16.872736  6732 net.cpp:150] Setting up bn3c_branch2c
I1029 22:13:16.872743  6732 net.cpp:157] Top shape: 1 512 120 160 (9830400)
I1029 22:13:16.872746  6732 net.cpp:165] Memory required for data: 3760128084
I1029 22:13:16.872764  6732 layer_factory.hpp:77] Creating layer scale3c_branch2c
I1029 22:13:16.872777  6732 net.cpp:100] Creating Layer scale3c_branch2c
I1029 22:13:16.872786  6732 net.cpp:444] scale3c_branch2c <- res3c_branch2c
I1029 22:13:16.872800  6732 net.cpp:405] scale3c_branch2c -> res3c_branch2c (in-place)
I1029 22:13:16.872858  6732 layer_factory.hpp:77] Creating layer scale3c_branch2c
I1029 22:13:16.873054  6732 net.cpp:150] Setting up scale3c_branch2c
I1029 22:13:16.873061  6732 net.cpp:157] Top shape: 1 512 120 160 (9830400)
I1029 22:13:16.873064  6732 net.cpp:165] Memory required for data: 3799449684
I1029 22:13:16.873076  6732 layer_factory.hpp:77] Creating layer res3c
I1029 22:13:16.873090  6732 net.cpp:100] Creating Layer res3c
I1029 22:13:16.873095  6732 net.cpp:444] res3c <- res3b_res3b_relu_0_split_1
I1029 22:13:16.873107  6732 net.cpp:444] res3c <- res3c_branch2c
I1029 22:13:16.873121  6732 net.cpp:418] res3c -> res3c
I1029 22:13:16.873159  6732 net.cpp:150] Setting up res3c
I1029 22:13:16.873168  6732 net.cpp:157] Top shape: 1 512 120 160 (9830400)
I1029 22:13:16.873172  6732 net.cpp:165] Memory required for data: 3838771284
I1029 22:13:16.873178  6732 layer_factory.hpp:77] Creating layer res3c_relu
I1029 22:13:16.873190  6732 net.cpp:100] Creating Layer res3c_relu
I1029 22:13:16.873196  6732 net.cpp:444] res3c_relu <- res3c
I1029 22:13:16.873210  6732 net.cpp:405] res3c_relu -> res3c (in-place)
I1029 22:13:16.873344  6732 net.cpp:150] Setting up res3c_relu
I1029 22:13:16.873353  6732 net.cpp:157] Top shape: 1 512 120 160 (9830400)
I1029 22:13:16.873354  6732 net.cpp:165] Memory required for data: 3878092884
I1029 22:13:16.873360  6732 layer_factory.hpp:77] Creating layer res3c_res3c_relu_0_split
I1029 22:13:16.873373  6732 net.cpp:100] Creating Layer res3c_res3c_relu_0_split
I1029 22:13:16.873379  6732 net.cpp:444] res3c_res3c_relu_0_split <- res3c
I1029 22:13:16.873395  6732 net.cpp:418] res3c_res3c_relu_0_split -> res3c_res3c_relu_0_split_0
I1029 22:13:16.873414  6732 net.cpp:418] res3c_res3c_relu_0_split -> res3c_res3c_relu_0_split_1
I1029 22:13:16.873468  6732 net.cpp:150] Setting up res3c_res3c_relu_0_split
I1029 22:13:16.873476  6732 net.cpp:157] Top shape: 1 512 120 160 (9830400)
I1029 22:13:16.873481  6732 net.cpp:157] Top shape: 1 512 120 160 (9830400)
I1029 22:13:16.873486  6732 net.cpp:165] Memory required for data: 3956736084
I1029 22:13:16.873491  6732 layer_factory.hpp:77] Creating layer res3d_branch2a
I1029 22:13:16.873507  6732 net.cpp:100] Creating Layer res3d_branch2a
I1029 22:13:16.873512  6732 net.cpp:444] res3d_branch2a <- res3c_res3c_relu_0_split_0
I1029 22:13:16.873528  6732 net.cpp:418] res3d_branch2a -> res3d_branch2a
I1029 22:13:16.875118  6732 cudnn_conv_layer.cpp:194] Reallocating workspace storage: 352152
I1029 22:13:16.875138  6732 net.cpp:150] Setting up res3d_branch2a
I1029 22:13:16.875146  6732 net.cpp:157] Top shape: 1 128 120 160 (2457600)
I1029 22:13:16.875150  6732 net.cpp:165] Memory required for data: 3966566484
I1029 22:13:16.875161  6732 layer_factory.hpp:77] Creating layer bn3d_branch2a
I1029 22:13:16.875177  6732 net.cpp:100] Creating Layer bn3d_branch2a
I1029 22:13:16.875185  6732 net.cpp:444] bn3d_branch2a <- res3d_branch2a
I1029 22:13:16.875200  6732 net.cpp:405] bn3d_branch2a -> res3d_branch2a (in-place)
I1029 22:13:16.875457  6732 net.cpp:150] Setting up bn3d_branch2a
I1029 22:13:16.875464  6732 net.cpp:157] Top shape: 1 128 120 160 (2457600)
I1029 22:13:16.875468  6732 net.cpp:165] Memory required for data: 3976396884
I1029 22:13:16.875507  6732 layer_factory.hpp:77] Creating layer scale3d_branch2a
I1029 22:13:16.875522  6732 net.cpp:100] Creating Layer scale3d_branch2a
I1029 22:13:16.875530  6732 net.cpp:444] scale3d_branch2a <- res3d_branch2a
I1029 22:13:16.875543  6732 net.cpp:405] scale3d_branch2a -> res3d_branch2a (in-place)
I1029 22:13:16.875607  6732 layer_factory.hpp:77] Creating layer scale3d_branch2a
I1029 22:13:16.875799  6732 net.cpp:150] Setting up scale3d_branch2a
I1029 22:13:16.875807  6732 net.cpp:157] Top shape: 1 128 120 160 (2457600)
I1029 22:13:16.875809  6732 net.cpp:165] Memory required for data: 3986227284
I1029 22:13:16.875823  6732 layer_factory.hpp:77] Creating layer res3d_branch2a_relu
I1029 22:13:16.875834  6732 net.cpp:100] Creating Layer res3d_branch2a_relu
I1029 22:13:16.875840  6732 net.cpp:444] res3d_branch2a_relu <- res3d_branch2a
I1029 22:13:16.875854  6732 net.cpp:405] res3d_branch2a_relu -> res3d_branch2a (in-place)
I1029 22:13:16.876232  6732 net.cpp:150] Setting up res3d_branch2a_relu
I1029 22:13:16.876240  6732 net.cpp:157] Top shape: 1 128 120 160 (2457600)
I1029 22:13:16.876245  6732 net.cpp:165] Memory required for data: 3996057684
I1029 22:13:16.876250  6732 layer_factory.hpp:77] Creating layer res3d_branch2b
I1029 22:13:16.876267  6732 net.cpp:100] Creating Layer res3d_branch2b
I1029 22:13:16.876274  6732 net.cpp:444] res3d_branch2b <- res3d_branch2a
I1029 22:13:16.876291  6732 net.cpp:418] res3d_branch2b -> res3d_branch2b
I1029 22:13:16.878012  6732 cudnn_conv_layer.cpp:194] Reallocating workspace storage: 3145728
I1029 22:13:16.878265  6732 net.cpp:150] Setting up res3d_branch2b
I1029 22:13:16.878276  6732 net.cpp:157] Top shape: 1 128 120 160 (2457600)
I1029 22:13:16.878281  6732 net.cpp:165] Memory required for data: 4005888084
I1029 22:13:16.878293  6732 layer_factory.hpp:77] Creating layer bn3d_branch2b
I1029 22:13:16.878311  6732 net.cpp:100] Creating Layer bn3d_branch2b
I1029 22:13:16.878319  6732 net.cpp:444] bn3d_branch2b <- res3d_branch2b
I1029 22:13:16.878334  6732 net.cpp:405] bn3d_branch2b -> res3d_branch2b (in-place)
I1029 22:13:16.878608  6732 net.cpp:150] Setting up bn3d_branch2b
I1029 22:13:16.878617  6732 net.cpp:157] Top shape: 1 128 120 160 (2457600)
I1029 22:13:16.878619  6732 net.cpp:165] Memory required for data: 4015718484
I1029 22:13:16.878636  6732 layer_factory.hpp:77] Creating layer scale3d_branch2b
I1029 22:13:16.878651  6732 net.cpp:100] Creating Layer scale3d_branch2b
I1029 22:13:16.878659  6732 net.cpp:444] scale3d_branch2b <- res3d_branch2b
I1029 22:13:16.878674  6732 net.cpp:405] scale3d_branch2b -> res3d_branch2b (in-place)
I1029 22:13:16.878736  6732 layer_factory.hpp:77] Creating layer scale3d_branch2b
I1029 22:13:16.878929  6732 net.cpp:150] Setting up scale3d_branch2b
I1029 22:13:16.878937  6732 net.cpp:157] Top shape: 1 128 120 160 (2457600)
I1029 22:13:16.878939  6732 net.cpp:165] Memory required for data: 4025548884
I1029 22:13:16.878952  6732 layer_factory.hpp:77] Creating layer res3d_branch2b_relu
I1029 22:13:16.878964  6732 net.cpp:100] Creating Layer res3d_branch2b_relu
I1029 22:13:16.878970  6732 net.cpp:444] res3d_branch2b_relu <- res3d_branch2b
I1029 22:13:16.878985  6732 net.cpp:405] res3d_branch2b_relu -> res3d_branch2b (in-place)
I1029 22:13:16.879130  6732 net.cpp:150] Setting up res3d_branch2b_relu
I1029 22:13:16.879137  6732 net.cpp:157] Top shape: 1 128 120 160 (2457600)
I1029 22:13:16.879140  6732 net.cpp:165] Memory required for data: 4035379284
I1029 22:13:16.879146  6732 layer_factory.hpp:77] Creating layer res3d_branch2c
I1029 22:13:16.879163  6732 net.cpp:100] Creating Layer res3d_branch2c
I1029 22:13:16.879169  6732 net.cpp:444] res3d_branch2c <- res3d_branch2b
I1029 22:13:16.879186  6732 net.cpp:418] res3d_branch2c -> res3d_branch2c
I1029 22:13:16.880193  6732 cudnn_conv_layer.cpp:194] Reallocating workspace storage: 352152
I1029 22:13:16.880209  6732 net.cpp:150] Setting up res3d_branch2c
I1029 22:13:16.880219  6732 net.cpp:157] Top shape: 1 512 120 160 (9830400)
I1029 22:13:16.880223  6732 net.cpp:165] Memory required for data: 4074700884
I1029 22:13:16.880235  6732 layer_factory.hpp:77] Creating layer bn3d_branch2c
I1029 22:13:16.880250  6732 net.cpp:100] Creating Layer bn3d_branch2c
I1029 22:13:16.880257  6732 net.cpp:444] bn3d_branch2c <- res3d_branch2c
I1029 22:13:16.880275  6732 net.cpp:405] bn3d_branch2c -> res3d_branch2c (in-place)
I1029 22:13:16.880542  6732 net.cpp:150] Setting up bn3d_branch2c
I1029 22:13:16.880549  6732 net.cpp:157] Top shape: 1 512 120 160 (9830400)
I1029 22:13:16.880553  6732 net.cpp:165] Memory required for data: 4114022484
I1029 22:13:16.880570  6732 layer_factory.hpp:77] Creating layer scale3d_branch2c
I1029 22:13:16.880585  6732 net.cpp:100] Creating Layer scale3d_branch2c
I1029 22:13:16.880591  6732 net.cpp:444] scale3d_branch2c <- res3d_branch2c
I1029 22:13:16.880606  6732 net.cpp:405] scale3d_branch2c -> res3d_branch2c (in-place)
I1029 22:13:16.880666  6732 layer_factory.hpp:77] Creating layer scale3d_branch2c
I1029 22:13:16.880864  6732 net.cpp:150] Setting up scale3d_branch2c
I1029 22:13:16.880872  6732 net.cpp:157] Top shape: 1 512 120 160 (9830400)
I1029 22:13:16.880875  6732 net.cpp:165] Memory required for data: 4153344084
I1029 22:13:16.880888  6732 layer_factory.hpp:77] Creating layer res3d
I1029 22:13:16.880900  6732 net.cpp:100] Creating Layer res3d
I1029 22:13:16.880908  6732 net.cpp:444] res3d <- res3c_res3c_relu_0_split_1
I1029 22:13:16.880918  6732 net.cpp:444] res3d <- res3d_branch2c
I1029 22:13:16.880931  6732 net.cpp:418] res3d -> res3d
I1029 22:13:16.880972  6732 net.cpp:150] Setting up res3d
I1029 22:13:16.880981  6732 net.cpp:157] Top shape: 1 512 120 160 (9830400)
I1029 22:13:16.880985  6732 net.cpp:165] Memory required for data: 4192665684
I1029 22:13:16.880990  6732 layer_factory.hpp:77] Creating layer res3d_relu
I1029 22:13:16.881002  6732 net.cpp:100] Creating Layer res3d_relu
I1029 22:13:16.881008  6732 net.cpp:444] res3d_relu <- res3d
I1029 22:13:16.881021  6732 net.cpp:405] res3d_relu -> res3d (in-place)
I1029 22:13:16.881162  6732 net.cpp:150] Setting up res3d_relu
I1029 22:13:16.881170  6732 net.cpp:157] Top shape: 1 512 120 160 (9830400)
I1029 22:13:16.881172  6732 net.cpp:165] Memory required for data: 4231987284
I1029 22:13:16.881177  6732 layer_factory.hpp:77] Creating layer res3d_res3d_relu_0_split
I1029 22:13:16.881191  6732 net.cpp:100] Creating Layer res3d_res3d_relu_0_split
I1029 22:13:16.881196  6732 net.cpp:444] res3d_res3d_relu_0_split <- res3d
I1029 22:13:16.881211  6732 net.cpp:418] res3d_res3d_relu_0_split -> res3d_res3d_relu_0_split_0
I1029 22:13:16.881229  6732 net.cpp:418] res3d_res3d_relu_0_split -> res3d_res3d_relu_0_split_1
I1029 22:13:16.881247  6732 net.cpp:418] res3d_res3d_relu_0_split -> res3d_res3d_relu_0_split_2
I1029 22:13:16.881319  6732 net.cpp:150] Setting up res3d_res3d_relu_0_split
I1029 22:13:16.881327  6732 net.cpp:157] Top shape: 1 512 120 160 (9830400)
I1029 22:13:16.881332  6732 net.cpp:157] Top shape: 1 512 120 160 (9830400)
I1029 22:13:16.881338  6732 net.cpp:157] Top shape: 1 512 120 160 (9830400)
I1029 22:13:16.881341  6732 net.cpp:165] Memory required for data: 4349952084
I1029 22:13:16.881346  6732 layer_factory.hpp:77] Creating layer res4a_branch1
I1029 22:13:16.881363  6732 net.cpp:100] Creating Layer res4a_branch1
I1029 22:13:16.881371  6732 net.cpp:444] res4a_branch1 <- res3d_res3d_relu_0_split_0
I1029 22:13:16.881387  6732 net.cpp:418] res4a_branch1 -> res4a_branch1
I1029 22:13:16.883730  6732 cudnn_conv_layer.cpp:194] Reallocating workspace storage: 86424
I1029 22:13:16.884003  6732 net.cpp:150] Setting up res4a_branch1
I1029 22:13:16.884021  6732 net.cpp:157] Top shape: 1 1024 60 80 (4915200)
I1029 22:13:16.884024  6732 net.cpp:165] Memory required for data: 4369612884
I1029 22:13:16.884042  6732 layer_factory.hpp:77] Creating layer bn4a_branch1
I1029 22:13:16.884064  6732 net.cpp:100] Creating Layer bn4a_branch1
I1029 22:13:16.884073  6732 net.cpp:444] bn4a_branch1 <- res4a_branch1
I1029 22:13:16.884091  6732 net.cpp:405] bn4a_branch1 -> res4a_branch1 (in-place)
I1029 22:13:16.884356  6732 net.cpp:150] Setting up bn4a_branch1
I1029 22:13:16.884363  6732 net.cpp:157] Top shape: 1 1024 60 80 (4915200)
I1029 22:13:16.884366  6732 net.cpp:165] Memory required for data: 4389273684
I1029 22:13:16.884387  6732 layer_factory.hpp:77] Creating layer scale4a_branch1
I1029 22:13:16.884402  6732 net.cpp:100] Creating Layer scale4a_branch1
I1029 22:13:16.884408  6732 net.cpp:444] scale4a_branch1 <- res4a_branch1
I1029 22:13:16.884424  6732 net.cpp:405] scale4a_branch1 -> res4a_branch1 (in-place)
I1029 22:13:16.884486  6732 layer_factory.hpp:77] Creating layer scale4a_branch1
I1029 22:13:16.884670  6732 net.cpp:150] Setting up scale4a_branch1
I1029 22:13:16.884677  6732 net.cpp:157] Top shape: 1 1024 60 80 (4915200)
I1029 22:13:16.884680  6732 net.cpp:165] Memory required for data: 4408934484
I1029 22:13:16.884692  6732 layer_factory.hpp:77] Creating layer res4a_branch2a
I1029 22:13:16.884709  6732 net.cpp:100] Creating Layer res4a_branch2a
I1029 22:13:16.884716  6732 net.cpp:444] res4a_branch2a <- res3d_res3d_relu_0_split_1
I1029 22:13:16.884733  6732 net.cpp:418] res4a_branch2a -> res4a_branch2a
I1029 22:13:16.885802  6732 cudnn_conv_layer.cpp:194] Reallocating workspace storage: 86424
I1029 22:13:16.885828  6732 net.cpp:150] Setting up res4a_branch2a
I1029 22:13:16.885836  6732 net.cpp:157] Top shape: 1 256 60 80 (1228800)
I1029 22:13:16.885839  6732 net.cpp:165] Memory required for data: 4413849684
I1029 22:13:16.885851  6732 layer_factory.hpp:77] Creating layer bn4a_branch2a
I1029 22:13:16.885866  6732 net.cpp:100] Creating Layer bn4a_branch2a
I1029 22:13:16.885874  6732 net.cpp:444] bn4a_branch2a <- res4a_branch2a
I1029 22:13:16.885890  6732 net.cpp:405] bn4a_branch2a -> res4a_branch2a (in-place)
I1029 22:13:16.886144  6732 net.cpp:150] Setting up bn4a_branch2a
I1029 22:13:16.886152  6732 net.cpp:157] Top shape: 1 256 60 80 (1228800)
I1029 22:13:16.886154  6732 net.cpp:165] Memory required for data: 4418764884
I1029 22:13:16.886171  6732 layer_factory.hpp:77] Creating layer scale4a_branch2a
I1029 22:13:16.886186  6732 net.cpp:100] Creating Layer scale4a_branch2a
I1029 22:13:16.886193  6732 net.cpp:444] scale4a_branch2a <- res4a_branch2a
I1029 22:13:16.886207  6732 net.cpp:405] scale4a_branch2a -> res4a_branch2a (in-place)
I1029 22:13:16.886270  6732 layer_factory.hpp:77] Creating layer scale4a_branch2a
I1029 22:13:16.886442  6732 net.cpp:150] Setting up scale4a_branch2a
I1029 22:13:16.886449  6732 net.cpp:157] Top shape: 1 256 60 80 (1228800)
I1029 22:13:16.886452  6732 net.cpp:165] Memory required for data: 4423680084
I1029 22:13:16.886464  6732 layer_factory.hpp:77] Creating layer res4a_branch2a_relu
I1029 22:13:16.886478  6732 net.cpp:100] Creating Layer res4a_branch2a_relu
I1029 22:13:16.886484  6732 net.cpp:444] res4a_branch2a_relu <- res4a_branch2a
I1029 22:13:16.886498  6732 net.cpp:405] res4a_branch2a_relu -> res4a_branch2a (in-place)
I1029 22:13:16.886891  6732 net.cpp:150] Setting up res4a_branch2a_relu
I1029 22:13:16.886901  6732 net.cpp:157] Top shape: 1 256 60 80 (1228800)
I1029 22:13:16.886904  6732 net.cpp:165] Memory required for data: 4428595284
I1029 22:13:16.886910  6732 layer_factory.hpp:77] Creating layer res4a_branch2b
I1029 22:13:16.886927  6732 net.cpp:100] Creating Layer res4a_branch2b
I1029 22:13:16.886934  6732 net.cpp:444] res4a_branch2b <- res4a_branch2a
I1029 22:13:16.886951  6732 net.cpp:418] res4a_branch2b -> res4a_branch2b
I1029 22:13:16.889328  6732 cudnn_conv_layer.cpp:194] Reallocating workspace storage: 12582912
I1029 22:13:16.889585  6732 net.cpp:150] Setting up res4a_branch2b
I1029 22:13:16.889597  6732 net.cpp:157] Top shape: 1 256 60 80 (1228800)
I1029 22:13:16.889601  6732 net.cpp:165] Memory required for data: 4433510484
I1029 22:13:16.889616  6732 layer_factory.hpp:77] Creating layer bn4a_branch2b
I1029 22:13:16.889632  6732 net.cpp:100] Creating Layer bn4a_branch2b
I1029 22:13:16.889641  6732 net.cpp:444] bn4a_branch2b <- res4a_branch2b
I1029 22:13:16.889657  6732 net.cpp:405] bn4a_branch2b -> res4a_branch2b (in-place)
I1029 22:13:16.889932  6732 net.cpp:150] Setting up bn4a_branch2b
I1029 22:13:16.889940  6732 net.cpp:157] Top shape: 1 256 60 80 (1228800)
I1029 22:13:16.889943  6732 net.cpp:165] Memory required for data: 4438425684
I1029 22:13:16.889962  6732 layer_factory.hpp:77] Creating layer scale4a_branch2b
I1029 22:13:16.889978  6732 net.cpp:100] Creating Layer scale4a_branch2b
I1029 22:13:16.889984  6732 net.cpp:444] scale4a_branch2b <- res4a_branch2b
I1029 22:13:16.890000  6732 net.cpp:405] scale4a_branch2b -> res4a_branch2b (in-place)
I1029 22:13:16.890069  6732 layer_factory.hpp:77] Creating layer scale4a_branch2b
I1029 22:13:16.890244  6732 net.cpp:150] Setting up scale4a_branch2b
I1029 22:13:16.890251  6732 net.cpp:157] Top shape: 1 256 60 80 (1228800)
I1029 22:13:16.890254  6732 net.cpp:165] Memory required for data: 4443340884
I1029 22:13:16.890266  6732 layer_factory.hpp:77] Creating layer res4a_branch2b_relu
I1029 22:13:16.890278  6732 net.cpp:100] Creating Layer res4a_branch2b_relu
I1029 22:13:16.890285  6732 net.cpp:444] res4a_branch2b_relu <- res4a_branch2b
I1029 22:13:16.890300  6732 net.cpp:405] res4a_branch2b_relu -> res4a_branch2b (in-place)
I1029 22:13:16.890446  6732 net.cpp:150] Setting up res4a_branch2b_relu
I1029 22:13:16.890453  6732 net.cpp:157] Top shape: 1 256 60 80 (1228800)
I1029 22:13:16.890456  6732 net.cpp:165] Memory required for data: 4448256084
I1029 22:13:16.890461  6732 layer_factory.hpp:77] Creating layer res4a_branch2c
I1029 22:13:16.890478  6732 net.cpp:100] Creating Layer res4a_branch2c
I1029 22:13:16.890485  6732 net.cpp:444] res4a_branch2c <- res4a_branch2b
I1029 22:13:16.890502  6732 net.cpp:418] res4a_branch2c -> res4a_branch2c
I1029 22:13:16.892398  6732 cudnn_conv_layer.cpp:194] Reallocating workspace storage: 92952
I1029 22:13:16.892421  6732 net.cpp:150] Setting up res4a_branch2c
I1029 22:13:16.892431  6732 net.cpp:157] Top shape: 1 1024 60 80 (4915200)
I1029 22:13:16.892433  6732 net.cpp:165] Memory required for data: 4467916884
I1029 22:13:16.892446  6732 layer_factory.hpp:77] Creating layer bn4a_branch2c
I1029 22:13:16.892463  6732 net.cpp:100] Creating Layer bn4a_branch2c
I1029 22:13:16.892470  6732 net.cpp:444] bn4a_branch2c <- res4a_branch2c
I1029 22:13:16.892487  6732 net.cpp:405] bn4a_branch2c -> res4a_branch2c (in-place)
I1029 22:13:16.892750  6732 net.cpp:150] Setting up bn4a_branch2c
I1029 22:13:16.892757  6732 net.cpp:157] Top shape: 1 1024 60 80 (4915200)
I1029 22:13:16.892760  6732 net.cpp:165] Memory required for data: 4487577684
I1029 22:13:16.892778  6732 layer_factory.hpp:77] Creating layer scale4a_branch2c
I1029 22:13:16.892793  6732 net.cpp:100] Creating Layer scale4a_branch2c
I1029 22:13:16.892799  6732 net.cpp:444] scale4a_branch2c <- res4a_branch2c
I1029 22:13:16.892814  6732 net.cpp:405] scale4a_branch2c -> res4a_branch2c (in-place)
I1029 22:13:16.892876  6732 layer_factory.hpp:77] Creating layer scale4a_branch2c
I1029 22:13:16.893059  6732 net.cpp:150] Setting up scale4a_branch2c
I1029 22:13:16.893065  6732 net.cpp:157] Top shape: 1 1024 60 80 (4915200)
I1029 22:13:16.893069  6732 net.cpp:165] Memory required for data: 4507238484
I1029 22:13:16.893081  6732 layer_factory.hpp:77] Creating layer res4a
I1029 22:13:16.893107  6732 net.cpp:100] Creating Layer res4a
I1029 22:13:16.893113  6732 net.cpp:444] res4a <- res4a_branch1
I1029 22:13:16.893126  6732 net.cpp:444] res4a <- res4a_branch2c
I1029 22:13:16.893137  6732 net.cpp:418] res4a -> res4a
I1029 22:13:16.893179  6732 net.cpp:150] Setting up res4a
I1029 22:13:16.893188  6732 net.cpp:157] Top shape: 1 1024 60 80 (4915200)
I1029 22:13:16.893191  6732 net.cpp:165] Memory required for data: 4526899284
I1029 22:13:16.893199  6732 layer_factory.hpp:77] Creating layer res4a_relu
I1029 22:13:16.893211  6732 net.cpp:100] Creating Layer res4a_relu
I1029 22:13:16.893216  6732 net.cpp:444] res4a_relu <- res4a
I1029 22:13:16.893229  6732 net.cpp:405] res4a_relu -> res4a (in-place)
I1029 22:13:16.893370  6732 net.cpp:150] Setting up res4a_relu
I1029 22:13:16.893378  6732 net.cpp:157] Top shape: 1 1024 60 80 (4915200)
I1029 22:13:16.893380  6732 net.cpp:165] Memory required for data: 4546560084
I1029 22:13:16.893386  6732 layer_factory.hpp:77] Creating layer res4a_res4a_relu_0_split
I1029 22:13:16.893400  6732 net.cpp:100] Creating Layer res4a_res4a_relu_0_split
I1029 22:13:16.893406  6732 net.cpp:444] res4a_res4a_relu_0_split <- res4a
I1029 22:13:16.893422  6732 net.cpp:418] res4a_res4a_relu_0_split -> res4a_res4a_relu_0_split_0
I1029 22:13:16.893440  6732 net.cpp:418] res4a_res4a_relu_0_split -> res4a_res4a_relu_0_split_1
I1029 22:13:16.893507  6732 net.cpp:150] Setting up res4a_res4a_relu_0_split
I1029 22:13:16.893515  6732 net.cpp:157] Top shape: 1 1024 60 80 (4915200)
I1029 22:13:16.893523  6732 net.cpp:157] Top shape: 1 1024 60 80 (4915200)
I1029 22:13:16.893527  6732 net.cpp:165] Memory required for data: 4585881684
I1029 22:13:16.893532  6732 layer_factory.hpp:77] Creating layer res4b_branch2a
I1029 22:13:16.893548  6732 net.cpp:100] Creating Layer res4b_branch2a
I1029 22:13:16.893555  6732 net.cpp:444] res4b_branch2a <- res4a_res4a_relu_0_split_0
I1029 22:13:16.893571  6732 net.cpp:418] res4b_branch2a -> res4b_branch2a
I1029 22:13:16.894807  6732 cudnn_conv_layer.cpp:194] Reallocating workspace storage: 92952
I1029 22:13:16.894830  6732 net.cpp:150] Setting up res4b_branch2a
I1029 22:13:16.894840  6732 net.cpp:157] Top shape: 1 256 60 80 (1228800)
I1029 22:13:16.894842  6732 net.cpp:165] Memory required for data: 4590796884
I1029 22:13:16.894855  6732 layer_factory.hpp:77] Creating layer bn4b_branch2a
I1029 22:13:16.894870  6732 net.cpp:100] Creating Layer bn4b_branch2a
I1029 22:13:16.894877  6732 net.cpp:444] bn4b_branch2a <- res4b_branch2a
I1029 22:13:16.894893  6732 net.cpp:405] bn4b_branch2a -> res4b_branch2a (in-place)
I1029 22:13:16.895151  6732 net.cpp:150] Setting up bn4b_branch2a
I1029 22:13:16.895159  6732 net.cpp:157] Top shape: 1 256 60 80 (1228800)
I1029 22:13:16.895161  6732 net.cpp:165] Memory required for data: 4595712084
I1029 22:13:16.895179  6732 layer_factory.hpp:77] Creating layer scale4b_branch2a
I1029 22:13:16.895193  6732 net.cpp:100] Creating Layer scale4b_branch2a
I1029 22:13:16.895200  6732 net.cpp:444] scale4b_branch2a <- res4b_branch2a
I1029 22:13:16.895215  6732 net.cpp:405] scale4b_branch2a -> res4b_branch2a (in-place)
I1029 22:13:16.895278  6732 layer_factory.hpp:77] Creating layer scale4b_branch2a
I1029 22:13:16.895454  6732 net.cpp:150] Setting up scale4b_branch2a
I1029 22:13:16.895462  6732 net.cpp:157] Top shape: 1 256 60 80 (1228800)
I1029 22:13:16.895464  6732 net.cpp:165] Memory required for data: 4600627284
I1029 22:13:16.895478  6732 layer_factory.hpp:77] Creating layer res4b_branch2a_relu
I1029 22:13:16.895490  6732 net.cpp:100] Creating Layer res4b_branch2a_relu
I1029 22:13:16.895496  6732 net.cpp:444] res4b_branch2a_relu <- res4b_branch2a
I1029 22:13:16.895510  6732 net.cpp:405] res4b_branch2a_relu -> res4b_branch2a (in-place)
I1029 22:13:16.895905  6732 net.cpp:150] Setting up res4b_branch2a_relu
I1029 22:13:16.895912  6732 net.cpp:157] Top shape: 1 256 60 80 (1228800)
I1029 22:13:16.895915  6732 net.cpp:165] Memory required for data: 4605542484
I1029 22:13:16.895921  6732 layer_factory.hpp:77] Creating layer res4b_branch2b
I1029 22:13:16.895941  6732 net.cpp:100] Creating Layer res4b_branch2b
I1029 22:13:16.895947  6732 net.cpp:444] res4b_branch2b <- res4b_branch2a
I1029 22:13:16.895964  6732 net.cpp:418] res4b_branch2b -> res4b_branch2b
I1029 22:13:16.898370  6732 cudnn_conv_layer.cpp:194] Reallocating workspace storage: 12582912
I1029 22:13:16.898638  6732 net.cpp:150] Setting up res4b_branch2b
I1029 22:13:16.898653  6732 net.cpp:157] Top shape: 1 256 60 80 (1228800)
I1029 22:13:16.898656  6732 net.cpp:165] Memory required for data: 4610457684
I1029 22:13:16.898671  6732 layer_factory.hpp:77] Creating layer bn4b_branch2b
I1029 22:13:16.898689  6732 net.cpp:100] Creating Layer bn4b_branch2b
I1029 22:13:16.898697  6732 net.cpp:444] bn4b_branch2b <- res4b_branch2b
I1029 22:13:16.898715  6732 net.cpp:405] bn4b_branch2b -> res4b_branch2b (in-place)
I1029 22:13:16.898990  6732 net.cpp:150] Setting up bn4b_branch2b
I1029 22:13:16.898998  6732 net.cpp:157] Top shape: 1 256 60 80 (1228800)
I1029 22:13:16.899000  6732 net.cpp:165] Memory required for data: 4615372884
I1029 22:13:16.899019  6732 layer_factory.hpp:77] Creating layer scale4b_branch2b
I1029 22:13:16.899035  6732 net.cpp:100] Creating Layer scale4b_branch2b
I1029 22:13:16.899041  6732 net.cpp:444] scale4b_branch2b <- res4b_branch2b
I1029 22:13:16.899058  6732 net.cpp:405] scale4b_branch2b -> res4b_branch2b (in-place)
I1029 22:13:16.899125  6732 layer_factory.hpp:77] Creating layer scale4b_branch2b
I1029 22:13:16.899302  6732 net.cpp:150] Setting up scale4b_branch2b
I1029 22:13:16.899309  6732 net.cpp:157] Top shape: 1 256 60 80 (1228800)
I1029 22:13:16.899312  6732 net.cpp:165] Memory required for data: 4620288084
I1029 22:13:16.899324  6732 layer_factory.hpp:77] Creating layer res4b_branch2b_relu
I1029 22:13:16.899338  6732 net.cpp:100] Creating Layer res4b_branch2b_relu
I1029 22:13:16.899343  6732 net.cpp:444] res4b_branch2b_relu <- res4b_branch2b
I1029 22:13:16.899358  6732 net.cpp:405] res4b_branch2b_relu -> res4b_branch2b (in-place)
I1029 22:13:16.899504  6732 net.cpp:150] Setting up res4b_branch2b_relu
I1029 22:13:16.899511  6732 net.cpp:157] Top shape: 1 256 60 80 (1228800)
I1029 22:13:16.899514  6732 net.cpp:165] Memory required for data: 4625203284
I1029 22:13:16.899520  6732 layer_factory.hpp:77] Creating layer res4b_branch2c
I1029 22:13:16.899538  6732 net.cpp:100] Creating Layer res4b_branch2c
I1029 22:13:16.899544  6732 net.cpp:444] res4b_branch2c <- res4b_branch2b
I1029 22:13:16.899560  6732 net.cpp:418] res4b_branch2c -> res4b_branch2c
I1029 22:13:16.901486  6732 cudnn_conv_layer.cpp:194] Reallocating workspace storage: 92952
I1029 22:13:16.901511  6732 net.cpp:150] Setting up res4b_branch2c
I1029 22:13:16.901521  6732 net.cpp:157] Top shape: 1 1024 60 80 (4915200)
I1029 22:13:16.901525  6732 net.cpp:165] Memory required for data: 4644864084
I1029 22:13:16.901537  6732 layer_factory.hpp:77] Creating layer bn4b_branch2c
I1029 22:13:16.901553  6732 net.cpp:100] Creating Layer bn4b_branch2c
I1029 22:13:16.901561  6732 net.cpp:444] bn4b_branch2c <- res4b_branch2c
I1029 22:13:16.901576  6732 net.cpp:405] bn4b_branch2c -> res4b_branch2c (in-place)
I1029 22:13:16.901856  6732 net.cpp:150] Setting up bn4b_branch2c
I1029 22:13:16.901865  6732 net.cpp:157] Top shape: 1 1024 60 80 (4915200)
I1029 22:13:16.901867  6732 net.cpp:165] Memory required for data: 4664524884
I1029 22:13:16.901885  6732 layer_factory.hpp:77] Creating layer scale4b_branch2c
I1029 22:13:16.901899  6732 net.cpp:100] Creating Layer scale4b_branch2c
I1029 22:13:16.901906  6732 net.cpp:444] scale4b_branch2c <- res4b_branch2c
I1029 22:13:16.901921  6732 net.cpp:405] scale4b_branch2c -> res4b_branch2c (in-place)
I1029 22:13:16.901983  6732 layer_factory.hpp:77] Creating layer scale4b_branch2c
I1029 22:13:16.902166  6732 net.cpp:150] Setting up scale4b_branch2c
I1029 22:13:16.902173  6732 net.cpp:157] Top shape: 1 1024 60 80 (4915200)
I1029 22:13:16.902176  6732 net.cpp:165] Memory required for data: 4684185684
I1029 22:13:16.902189  6732 layer_factory.hpp:77] Creating layer res4b
I1029 22:13:16.902204  6732 net.cpp:100] Creating Layer res4b
I1029 22:13:16.902209  6732 net.cpp:444] res4b <- res4a_res4a_relu_0_split_1
I1029 22:13:16.902220  6732 net.cpp:444] res4b <- res4b_branch2c
I1029 22:13:16.902235  6732 net.cpp:418] res4b -> res4b
I1029 22:13:16.902276  6732 net.cpp:150] Setting up res4b
I1029 22:13:16.902284  6732 net.cpp:157] Top shape: 1 1024 60 80 (4915200)
I1029 22:13:16.902288  6732 net.cpp:165] Memory required for data: 4703846484
I1029 22:13:16.902293  6732 layer_factory.hpp:77] Creating layer res4b_relu
I1029 22:13:16.902307  6732 net.cpp:100] Creating Layer res4b_relu
I1029 22:13:16.902312  6732 net.cpp:444] res4b_relu <- res4b
I1029 22:13:16.902325  6732 net.cpp:405] res4b_relu -> res4b (in-place)
I1029 22:13:16.902470  6732 net.cpp:150] Setting up res4b_relu
I1029 22:13:16.902477  6732 net.cpp:157] Top shape: 1 1024 60 80 (4915200)
I1029 22:13:16.902480  6732 net.cpp:165] Memory required for data: 4723507284
I1029 22:13:16.902485  6732 layer_factory.hpp:77] Creating layer res4b_res4b_relu_0_split
I1029 22:13:16.902499  6732 net.cpp:100] Creating Layer res4b_res4b_relu_0_split
I1029 22:13:16.902505  6732 net.cpp:444] res4b_res4b_relu_0_split <- res4b
I1029 22:13:16.902521  6732 net.cpp:418] res4b_res4b_relu_0_split -> res4b_res4b_relu_0_split_0
I1029 22:13:16.902539  6732 net.cpp:418] res4b_res4b_relu_0_split -> res4b_res4b_relu_0_split_1
I1029 22:13:16.902599  6732 net.cpp:150] Setting up res4b_res4b_relu_0_split
I1029 22:13:16.902607  6732 net.cpp:157] Top shape: 1 1024 60 80 (4915200)
I1029 22:13:16.902613  6732 net.cpp:157] Top shape: 1 1024 60 80 (4915200)
I1029 22:13:16.902617  6732 net.cpp:165] Memory required for data: 4762828884
I1029 22:13:16.902622  6732 layer_factory.hpp:77] Creating layer res4c_branch2a
I1029 22:13:16.902638  6732 net.cpp:100] Creating Layer res4c_branch2a
I1029 22:13:16.902645  6732 net.cpp:444] res4c_branch2a <- res4b_res4b_relu_0_split_0
I1029 22:13:16.902660  6732 net.cpp:418] res4c_branch2a -> res4c_branch2a
I1029 22:13:16.903908  6732 cudnn_conv_layer.cpp:194] Reallocating workspace storage: 92952
I1029 22:13:16.903930  6732 net.cpp:150] Setting up res4c_branch2a
I1029 22:13:16.903939  6732 net.cpp:157] Top shape: 1 256 60 80 (1228800)
I1029 22:13:16.903941  6732 net.cpp:165] Memory required for data: 4767744084
I1029 22:13:16.903954  6732 layer_factory.hpp:77] Creating layer bn4c_branch2a
I1029 22:13:16.903969  6732 net.cpp:100] Creating Layer bn4c_branch2a
I1029 22:13:16.903975  6732 net.cpp:444] bn4c_branch2a <- res4c_branch2a
I1029 22:13:16.903991  6732 net.cpp:405] bn4c_branch2a -> res4c_branch2a (in-place)
I1029 22:13:16.904253  6732 net.cpp:150] Setting up bn4c_branch2a
I1029 22:13:16.904261  6732 net.cpp:157] Top shape: 1 256 60 80 (1228800)
I1029 22:13:16.904264  6732 net.cpp:165] Memory required for data: 4772659284
I1029 22:13:16.904281  6732 layer_factory.hpp:77] Creating layer scale4c_branch2a
I1029 22:13:16.904295  6732 net.cpp:100] Creating Layer scale4c_branch2a
I1029 22:13:16.904302  6732 net.cpp:444] scale4c_branch2a <- res4c_branch2a
I1029 22:13:16.904317  6732 net.cpp:405] scale4c_branch2a -> res4c_branch2a (in-place)
I1029 22:13:16.904382  6732 layer_factory.hpp:77] Creating layer scale4c_branch2a
I1029 22:13:16.904561  6732 net.cpp:150] Setting up scale4c_branch2a
I1029 22:13:16.904569  6732 net.cpp:157] Top shape: 1 256 60 80 (1228800)
I1029 22:13:16.904572  6732 net.cpp:165] Memory required for data: 4777574484
I1029 22:13:16.904584  6732 layer_factory.hpp:77] Creating layer res4c_branch2a_relu
I1029 22:13:16.904597  6732 net.cpp:100] Creating Layer res4c_branch2a_relu
I1029 22:13:16.904603  6732 net.cpp:444] res4c_branch2a_relu <- res4c_branch2a
I1029 22:13:16.904616  6732 net.cpp:405] res4c_branch2a_relu -> res4c_branch2a (in-place)
I1029 22:13:16.904757  6732 net.cpp:150] Setting up res4c_branch2a_relu
I1029 22:13:16.904764  6732 net.cpp:157] Top shape: 1 256 60 80 (1228800)
I1029 22:13:16.904767  6732 net.cpp:165] Memory required for data: 4782489684
I1029 22:13:16.904772  6732 layer_factory.hpp:77] Creating layer res4c_branch2b
I1029 22:13:16.904789  6732 net.cpp:100] Creating Layer res4c_branch2b
I1029 22:13:16.904796  6732 net.cpp:444] res4c_branch2b <- res4c_branch2a
I1029 22:13:16.904812  6732 net.cpp:418] res4c_branch2b -> res4c_branch2b
I1029 22:13:16.907424  6732 cudnn_conv_layer.cpp:194] Reallocating workspace storage: 12582912
I1029 22:13:16.907685  6732 net.cpp:150] Setting up res4c_branch2b
I1029 22:13:16.907697  6732 net.cpp:157] Top shape: 1 256 60 80 (1228800)
I1029 22:13:16.907701  6732 net.cpp:165] Memory required for data: 4787404884
I1029 22:13:16.907716  6732 layer_factory.hpp:77] Creating layer bn4c_branch2b
I1029 22:13:16.907732  6732 net.cpp:100] Creating Layer bn4c_branch2b
I1029 22:13:16.907739  6732 net.cpp:444] bn4c_branch2b <- res4c_branch2b
I1029 22:13:16.907757  6732 net.cpp:405] bn4c_branch2b -> res4c_branch2b (in-place)
I1029 22:13:16.908031  6732 net.cpp:150] Setting up bn4c_branch2b
I1029 22:13:16.908038  6732 net.cpp:157] Top shape: 1 256 60 80 (1228800)
I1029 22:13:16.908041  6732 net.cpp:165] Memory required for data: 4792320084
I1029 22:13:16.908061  6732 layer_factory.hpp:77] Creating layer scale4c_branch2b
I1029 22:13:16.908076  6732 net.cpp:100] Creating Layer scale4c_branch2b
I1029 22:13:16.908082  6732 net.cpp:444] scale4c_branch2b <- res4c_branch2b
I1029 22:13:16.908097  6732 net.cpp:405] scale4c_branch2b -> res4c_branch2b (in-place)
I1029 22:13:16.908165  6732 layer_factory.hpp:77] Creating layer scale4c_branch2b
I1029 22:13:16.908350  6732 net.cpp:150] Setting up scale4c_branch2b
I1029 22:13:16.908357  6732 net.cpp:157] Top shape: 1 256 60 80 (1228800)
I1029 22:13:16.908360  6732 net.cpp:165] Memory required for data: 4797235284
I1029 22:13:16.908373  6732 layer_factory.hpp:77] Creating layer res4c_branch2b_relu
I1029 22:13:16.908386  6732 net.cpp:100] Creating Layer res4c_branch2b_relu
I1029 22:13:16.908392  6732 net.cpp:444] res4c_branch2b_relu <- res4c_branch2b
I1029 22:13:16.908406  6732 net.cpp:405] res4c_branch2b_relu -> res4c_branch2b (in-place)
I1029 22:13:16.908797  6732 net.cpp:150] Setting up res4c_branch2b_relu
I1029 22:13:16.908805  6732 net.cpp:157] Top shape: 1 256 60 80 (1228800)
I1029 22:13:16.908808  6732 net.cpp:165] Memory required for data: 4802150484
I1029 22:13:16.908814  6732 layer_factory.hpp:77] Creating layer res4c_branch2c
I1029 22:13:16.908833  6732 net.cpp:100] Creating Layer res4c_branch2c
I1029 22:13:16.908838  6732 net.cpp:444] res4c_branch2c <- res4c_branch2b
I1029 22:13:16.908855  6732 net.cpp:418] res4c_branch2c -> res4c_branch2c
I1029 22:13:16.910773  6732 cudnn_conv_layer.cpp:194] Reallocating workspace storage: 92952
I1029 22:13:16.910799  6732 net.cpp:150] Setting up res4c_branch2c
I1029 22:13:16.910809  6732 net.cpp:157] Top shape: 1 1024 60 80 (4915200)
I1029 22:13:16.910812  6732 net.cpp:165] Memory required for data: 4821811284
I1029 22:13:16.910825  6732 layer_factory.hpp:77] Creating layer bn4c_branch2c
I1029 22:13:16.910840  6732 net.cpp:100] Creating Layer bn4c_branch2c
I1029 22:13:16.910847  6732 net.cpp:444] bn4c_branch2c <- res4c_branch2c
I1029 22:13:16.910863  6732 net.cpp:405] bn4c_branch2c -> res4c_branch2c (in-place)
I1029 22:13:16.911140  6732 net.cpp:150] Setting up bn4c_branch2c
I1029 22:13:16.911149  6732 net.cpp:157] Top shape: 1 1024 60 80 (4915200)
I1029 22:13:16.911151  6732 net.cpp:165] Memory required for data: 4841472084
I1029 22:13:16.911168  6732 layer_factory.hpp:77] Creating layer scale4c_branch2c
I1029 22:13:16.911183  6732 net.cpp:100] Creating Layer scale4c_branch2c
I1029 22:13:16.911190  6732 net.cpp:444] scale4c_branch2c <- res4c_branch2c
I1029 22:13:16.911204  6732 net.cpp:405] scale4c_branch2c -> res4c_branch2c (in-place)
I1029 22:13:16.911267  6732 layer_factory.hpp:77] Creating layer scale4c_branch2c
I1029 22:13:16.911453  6732 net.cpp:150] Setting up scale4c_branch2c
I1029 22:13:16.911460  6732 net.cpp:157] Top shape: 1 1024 60 80 (4915200)
I1029 22:13:16.911463  6732 net.cpp:165] Memory required for data: 4861132884
I1029 22:13:16.911475  6732 layer_factory.hpp:77] Creating layer res4c
I1029 22:13:16.911489  6732 net.cpp:100] Creating Layer res4c
I1029 22:13:16.911495  6732 net.cpp:444] res4c <- res4b_res4b_relu_0_split_1
I1029 22:13:16.911507  6732 net.cpp:444] res4c <- res4c_branch2c
I1029 22:13:16.911520  6732 net.cpp:418] res4c -> res4c
I1029 22:13:16.911562  6732 net.cpp:150] Setting up res4c
I1029 22:13:16.911571  6732 net.cpp:157] Top shape: 1 1024 60 80 (4915200)
I1029 22:13:16.911576  6732 net.cpp:165] Memory required for data: 4880793684
I1029 22:13:16.911581  6732 layer_factory.hpp:77] Creating layer res4c_relu
I1029 22:13:16.911592  6732 net.cpp:100] Creating Layer res4c_relu
I1029 22:13:16.911597  6732 net.cpp:444] res4c_relu <- res4c
I1029 22:13:16.911612  6732 net.cpp:405] res4c_relu -> res4c (in-place)
I1029 22:13:16.911752  6732 net.cpp:150] Setting up res4c_relu
I1029 22:13:16.911761  6732 net.cpp:157] Top shape: 1 1024 60 80 (4915200)
I1029 22:13:16.911763  6732 net.cpp:165] Memory required for data: 4900454484
I1029 22:13:16.911768  6732 layer_factory.hpp:77] Creating layer res4c_res4c_relu_0_split
I1029 22:13:16.911780  6732 net.cpp:100] Creating Layer res4c_res4c_relu_0_split
I1029 22:13:16.911787  6732 net.cpp:444] res4c_res4c_relu_0_split <- res4c
I1029 22:13:16.911803  6732 net.cpp:418] res4c_res4c_relu_0_split -> res4c_res4c_relu_0_split_0
I1029 22:13:16.911820  6732 net.cpp:418] res4c_res4c_relu_0_split -> res4c_res4c_relu_0_split_1
I1029 22:13:16.911880  6732 net.cpp:150] Setting up res4c_res4c_relu_0_split
I1029 22:13:16.911888  6732 net.cpp:157] Top shape: 1 1024 60 80 (4915200)
I1029 22:13:16.911895  6732 net.cpp:157] Top shape: 1 1024 60 80 (4915200)
I1029 22:13:16.911898  6732 net.cpp:165] Memory required for data: 4939776084
I1029 22:13:16.911903  6732 layer_factory.hpp:77] Creating layer res4d_branch2a
I1029 22:13:16.911919  6732 net.cpp:100] Creating Layer res4d_branch2a
I1029 22:13:16.911926  6732 net.cpp:444] res4d_branch2a <- res4c_res4c_relu_0_split_0
I1029 22:13:16.911942  6732 net.cpp:418] res4d_branch2a -> res4d_branch2a
I1029 22:13:16.913257  6732 cudnn_conv_layer.cpp:194] Reallocating workspace storage: 92952
I1029 22:13:16.913283  6732 net.cpp:150] Setting up res4d_branch2a
I1029 22:13:16.913295  6732 net.cpp:157] Top shape: 1 256 60 80 (1228800)
I1029 22:13:16.913298  6732 net.cpp:165] Memory required for data: 4944691284
I1029 22:13:16.913311  6732 layer_factory.hpp:77] Creating layer bn4d_branch2a
I1029 22:13:16.913328  6732 net.cpp:100] Creating Layer bn4d_branch2a
I1029 22:13:16.913336  6732 net.cpp:444] bn4d_branch2a <- res4d_branch2a
I1029 22:13:16.913354  6732 net.cpp:405] bn4d_branch2a -> res4d_branch2a (in-place)
I1029 22:13:16.913630  6732 net.cpp:150] Setting up bn4d_branch2a
I1029 22:13:16.913637  6732 net.cpp:157] Top shape: 1 256 60 80 (1228800)
I1029 22:13:16.913640  6732 net.cpp:165] Memory required for data: 4949606484
I1029 22:13:16.913657  6732 layer_factory.hpp:77] Creating layer scale4d_branch2a
I1029 22:13:16.913672  6732 net.cpp:100] Creating Layer scale4d_branch2a
I1029 22:13:16.913679  6732 net.cpp:444] scale4d_branch2a <- res4d_branch2a
I1029 22:13:16.913695  6732 net.cpp:405] scale4d_branch2a -> res4d_branch2a (in-place)
I1029 22:13:16.913763  6732 layer_factory.hpp:77] Creating layer scale4d_branch2a
I1029 22:13:16.913954  6732 net.cpp:150] Setting up scale4d_branch2a
I1029 22:13:16.913962  6732 net.cpp:157] Top shape: 1 256 60 80 (1228800)
I1029 22:13:16.913966  6732 net.cpp:165] Memory required for data: 4954521684
I1029 22:13:16.913978  6732 layer_factory.hpp:77] Creating layer res4d_branch2a_relu
I1029 22:13:16.913992  6732 net.cpp:100] Creating Layer res4d_branch2a_relu
I1029 22:13:16.913998  6732 net.cpp:444] res4d_branch2a_relu <- res4d_branch2a
I1029 22:13:16.914013  6732 net.cpp:405] res4d_branch2a_relu -> res4d_branch2a (in-place)
I1029 22:13:16.914160  6732 net.cpp:150] Setting up res4d_branch2a_relu
I1029 22:13:16.914166  6732 net.cpp:157] Top shape: 1 256 60 80 (1228800)
I1029 22:13:16.914170  6732 net.cpp:165] Memory required for data: 4959436884
I1029 22:13:16.914175  6732 layer_factory.hpp:77] Creating layer res4d_branch2b
I1029 22:13:16.914192  6732 net.cpp:100] Creating Layer res4d_branch2b
I1029 22:13:16.914198  6732 net.cpp:444] res4d_branch2b <- res4d_branch2a
I1029 22:13:16.914216  6732 net.cpp:418] res4d_branch2b -> res4d_branch2b
I1029 22:13:16.916757  6732 cudnn_conv_layer.cpp:194] Reallocating workspace storage: 12582912
I1029 22:13:16.917042  6732 net.cpp:150] Setting up res4d_branch2b
I1029 22:13:16.917057  6732 net.cpp:157] Top shape: 1 256 60 80 (1228800)
I1029 22:13:16.917059  6732 net.cpp:165] Memory required for data: 4964352084
I1029 22:13:16.917078  6732 layer_factory.hpp:77] Creating layer bn4d_branch2b
I1029 22:13:16.917100  6732 net.cpp:100] Creating Layer bn4d_branch2b
I1029 22:13:16.917110  6732 net.cpp:444] bn4d_branch2b <- res4d_branch2b
I1029 22:13:16.917130  6732 net.cpp:405] bn4d_branch2b -> res4d_branch2b (in-place)
I1029 22:13:16.917419  6732 net.cpp:150] Setting up bn4d_branch2b
I1029 22:13:16.917428  6732 net.cpp:157] Top shape: 1 256 60 80 (1228800)
I1029 22:13:16.917430  6732 net.cpp:165] Memory required for data: 4969267284
I1029 22:13:16.917448  6732 layer_factory.hpp:77] Creating layer scale4d_branch2b
I1029 22:13:16.917464  6732 net.cpp:100] Creating Layer scale4d_branch2b
I1029 22:13:16.917470  6732 net.cpp:444] scale4d_branch2b <- res4d_branch2b
I1029 22:13:16.917484  6732 net.cpp:405] scale4d_branch2b -> res4d_branch2b (in-place)
I1029 22:13:16.917553  6732 layer_factory.hpp:77] Creating layer scale4d_branch2b
I1029 22:13:16.917739  6732 net.cpp:150] Setting up scale4d_branch2b
I1029 22:13:16.917747  6732 net.cpp:157] Top shape: 1 256 60 80 (1228800)
I1029 22:13:16.917749  6732 net.cpp:165] Memory required for data: 4974182484
I1029 22:13:16.917762  6732 layer_factory.hpp:77] Creating layer res4d_branch2b_relu
I1029 22:13:16.917774  6732 net.cpp:100] Creating Layer res4d_branch2b_relu
I1029 22:13:16.917781  6732 net.cpp:444] res4d_branch2b_relu <- res4d_branch2b
I1029 22:13:16.917795  6732 net.cpp:405] res4d_branch2b_relu -> res4d_branch2b (in-place)
I1029 22:13:16.918213  6732 net.cpp:150] Setting up res4d_branch2b_relu
I1029 22:13:16.918222  6732 net.cpp:157] Top shape: 1 256 60 80 (1228800)
I1029 22:13:16.918226  6732 net.cpp:165] Memory required for data: 4979097684
I1029 22:13:16.918231  6732 layer_factory.hpp:77] Creating layer res4d_branch2c
I1029 22:13:16.918251  6732 net.cpp:100] Creating Layer res4d_branch2c
I1029 22:13:16.918257  6732 net.cpp:444] res4d_branch2c <- res4d_branch2b
I1029 22:13:16.918275  6732 net.cpp:418] res4d_branch2c -> res4d_branch2c
I1029 22:13:16.920244  6732 cudnn_conv_layer.cpp:194] Reallocating workspace storage: 92952
I1029 22:13:16.920271  6732 net.cpp:150] Setting up res4d_branch2c
I1029 22:13:16.920281  6732 net.cpp:157] Top shape: 1 1024 60 80 (4915200)
I1029 22:13:16.920285  6732 net.cpp:165] Memory required for data: 4998758484
I1029 22:13:16.920300  6732 layer_factory.hpp:77] Creating layer bn4d_branch2c
I1029 22:13:16.920317  6732 net.cpp:100] Creating Layer bn4d_branch2c
I1029 22:13:16.920325  6732 net.cpp:444] bn4d_branch2c <- res4d_branch2c
I1029 22:13:16.920342  6732 net.cpp:405] bn4d_branch2c -> res4d_branch2c (in-place)
I1029 22:13:16.920630  6732 net.cpp:150] Setting up bn4d_branch2c
I1029 22:13:16.920637  6732 net.cpp:157] Top shape: 1 1024 60 80 (4915200)
I1029 22:13:16.920641  6732 net.cpp:165] Memory required for data: 5018419284
I1029 22:13:16.920658  6732 layer_factory.hpp:77] Creating layer scale4d_branch2c
I1029 22:13:16.920673  6732 net.cpp:100] Creating Layer scale4d_branch2c
I1029 22:13:16.920680  6732 net.cpp:444] scale4d_branch2c <- res4d_branch2c
I1029 22:13:16.920694  6732 net.cpp:405] scale4d_branch2c -> res4d_branch2c (in-place)
I1029 22:13:16.920758  6732 layer_factory.hpp:77] Creating layer scale4d_branch2c
I1029 22:13:16.920945  6732 net.cpp:150] Setting up scale4d_branch2c
I1029 22:13:16.920953  6732 net.cpp:157] Top shape: 1 1024 60 80 (4915200)
I1029 22:13:16.920955  6732 net.cpp:165] Memory required for data: 5038080084
I1029 22:13:16.920969  6732 layer_factory.hpp:77] Creating layer res4d
I1029 22:13:16.920982  6732 net.cpp:100] Creating Layer res4d
I1029 22:13:16.920989  6732 net.cpp:444] res4d <- res4c_res4c_relu_0_split_1
I1029 22:13:16.921001  6732 net.cpp:444] res4d <- res4d_branch2c
I1029 22:13:16.921013  6732 net.cpp:418] res4d -> res4d
I1029 22:13:16.921056  6732 net.cpp:150] Setting up res4d
I1029 22:13:16.921066  6732 net.cpp:157] Top shape: 1 1024 60 80 (4915200)
I1029 22:13:16.921069  6732 net.cpp:165] Memory required for data: 5057740884
I1029 22:13:16.921074  6732 layer_factory.hpp:77] Creating layer res4d_relu
I1029 22:13:16.921087  6732 net.cpp:100] Creating Layer res4d_relu
I1029 22:13:16.921092  6732 net.cpp:444] res4d_relu <- res4d
I1029 22:13:16.921106  6732 net.cpp:405] res4d_relu -> res4d (in-place)
I1029 22:13:16.921249  6732 net.cpp:150] Setting up res4d_relu
I1029 22:13:16.921257  6732 net.cpp:157] Top shape: 1 1024 60 80 (4915200)
I1029 22:13:16.921259  6732 net.cpp:165] Memory required for data: 5077401684
I1029 22:13:16.921264  6732 layer_factory.hpp:77] Creating layer res4d_res4d_relu_0_split
I1029 22:13:16.921277  6732 net.cpp:100] Creating Layer res4d_res4d_relu_0_split
I1029 22:13:16.921283  6732 net.cpp:444] res4d_res4d_relu_0_split <- res4d
I1029 22:13:16.921298  6732 net.cpp:418] res4d_res4d_relu_0_split -> res4d_res4d_relu_0_split_0
I1029 22:13:16.921316  6732 net.cpp:418] res4d_res4d_relu_0_split -> res4d_res4d_relu_0_split_1
I1029 22:13:16.921376  6732 net.cpp:150] Setting up res4d_res4d_relu_0_split
I1029 22:13:16.921386  6732 net.cpp:157] Top shape: 1 1024 60 80 (4915200)
I1029 22:13:16.921391  6732 net.cpp:157] Top shape: 1 1024 60 80 (4915200)
I1029 22:13:16.921394  6732 net.cpp:165] Memory required for data: 5116723284
I1029 22:13:16.921399  6732 layer_factory.hpp:77] Creating layer res4e_branch2a
I1029 22:13:16.921416  6732 net.cpp:100] Creating Layer res4e_branch2a
I1029 22:13:16.921422  6732 net.cpp:444] res4e_branch2a <- res4d_res4d_relu_0_split_0
I1029 22:13:16.921439  6732 net.cpp:418] res4e_branch2a -> res4e_branch2a
I1029 22:13:16.922714  6732 cudnn_conv_layer.cpp:194] Reallocating workspace storage: 92952
I1029 22:13:16.922735  6732 net.cpp:150] Setting up res4e_branch2a
I1029 22:13:16.922745  6732 net.cpp:157] Top shape: 1 256 60 80 (1228800)
I1029 22:13:16.922749  6732 net.cpp:165] Memory required for data: 5121638484
I1029 22:13:16.922760  6732 layer_factory.hpp:77] Creating layer bn4e_branch2a
I1029 22:13:16.922775  6732 net.cpp:100] Creating Layer bn4e_branch2a
I1029 22:13:16.922781  6732 net.cpp:444] bn4e_branch2a <- res4e_branch2a
I1029 22:13:16.922797  6732 net.cpp:405] bn4e_branch2a -> res4e_branch2a (in-place)
I1029 22:13:16.923070  6732 net.cpp:150] Setting up bn4e_branch2a
I1029 22:13:16.923077  6732 net.cpp:157] Top shape: 1 256 60 80 (1228800)
I1029 22:13:16.923080  6732 net.cpp:165] Memory required for data: 5126553684
I1029 22:13:16.923099  6732 layer_factory.hpp:77] Creating layer scale4e_branch2a
I1029 22:13:16.923112  6732 net.cpp:100] Creating Layer scale4e_branch2a
I1029 22:13:16.923120  6732 net.cpp:444] scale4e_branch2a <- res4e_branch2a
I1029 22:13:16.923135  6732 net.cpp:405] scale4e_branch2a -> res4e_branch2a (in-place)
I1029 22:13:16.923200  6732 layer_factory.hpp:77] Creating layer scale4e_branch2a
I1029 22:13:16.923383  6732 net.cpp:150] Setting up scale4e_branch2a
I1029 22:13:16.923390  6732 net.cpp:157] Top shape: 1 256 60 80 (1228800)
I1029 22:13:16.923393  6732 net.cpp:165] Memory required for data: 5131468884
I1029 22:13:16.923405  6732 layer_factory.hpp:77] Creating layer res4e_branch2a_relu
I1029 22:13:16.923418  6732 net.cpp:100] Creating Layer res4e_branch2a_relu
I1029 22:13:16.923424  6732 net.cpp:444] res4e_branch2a_relu <- res4e_branch2a
I1029 22:13:16.923439  6732 net.cpp:405] res4e_branch2a_relu -> res4e_branch2a (in-place)
I1029 22:13:16.923580  6732 net.cpp:150] Setting up res4e_branch2a_relu
I1029 22:13:16.923588  6732 net.cpp:157] Top shape: 1 256 60 80 (1228800)
I1029 22:13:16.923589  6732 net.cpp:165] Memory required for data: 5136384084
I1029 22:13:16.923595  6732 layer_factory.hpp:77] Creating layer res4e_branch2b
I1029 22:13:16.923611  6732 net.cpp:100] Creating Layer res4e_branch2b
I1029 22:13:16.923619  6732 net.cpp:444] res4e_branch2b <- res4e_branch2a
I1029 22:13:16.923635  6732 net.cpp:418] res4e_branch2b -> res4e_branch2b
I1029 22:13:16.926025  6732 cudnn_conv_layer.cpp:194] Reallocating workspace storage: 12582912
I1029 22:13:16.926293  6732 net.cpp:150] Setting up res4e_branch2b
I1029 22:13:16.926306  6732 net.cpp:157] Top shape: 1 256 60 80 (1228800)
I1029 22:13:16.926311  6732 net.cpp:165] Memory required for data: 5141299284
I1029 22:13:16.926323  6732 layer_factory.hpp:77] Creating layer bn4e_branch2b
I1029 22:13:16.926342  6732 net.cpp:100] Creating Layer bn4e_branch2b
I1029 22:13:16.926350  6732 net.cpp:444] bn4e_branch2b <- res4e_branch2b
I1029 22:13:16.926367  6732 net.cpp:405] bn4e_branch2b -> res4e_branch2b (in-place)
I1029 22:13:16.926651  6732 net.cpp:150] Setting up bn4e_branch2b
I1029 22:13:16.926658  6732 net.cpp:157] Top shape: 1 256 60 80 (1228800)
I1029 22:13:16.926661  6732 net.cpp:165] Memory required for data: 5146214484
I1029 22:13:16.926678  6732 layer_factory.hpp:77] Creating layer scale4e_branch2b
I1029 22:13:16.926694  6732 net.cpp:100] Creating Layer scale4e_branch2b
I1029 22:13:16.926702  6732 net.cpp:444] scale4e_branch2b <- res4e_branch2b
I1029 22:13:16.926717  6732 net.cpp:405] scale4e_branch2b -> res4e_branch2b (in-place)
I1029 22:13:16.926784  6732 layer_factory.hpp:77] Creating layer scale4e_branch2b
I1029 22:13:16.926970  6732 net.cpp:150] Setting up scale4e_branch2b
I1029 22:13:16.926978  6732 net.cpp:157] Top shape: 1 256 60 80 (1228800)
I1029 22:13:16.926981  6732 net.cpp:165] Memory required for data: 5151129684
I1029 22:13:16.926995  6732 layer_factory.hpp:77] Creating layer res4e_branch2b_relu
I1029 22:13:16.927007  6732 net.cpp:100] Creating Layer res4e_branch2b_relu
I1029 22:13:16.927014  6732 net.cpp:444] res4e_branch2b_relu <- res4e_branch2b
I1029 22:13:16.927027  6732 net.cpp:405] res4e_branch2b_relu -> res4e_branch2b (in-place)
I1029 22:13:16.927430  6732 net.cpp:150] Setting up res4e_branch2b_relu
I1029 22:13:16.927438  6732 net.cpp:157] Top shape: 1 256 60 80 (1228800)
I1029 22:13:16.927443  6732 net.cpp:165] Memory required for data: 5156044884
I1029 22:13:16.927448  6732 layer_factory.hpp:77] Creating layer res4e_branch2c
I1029 22:13:16.927465  6732 net.cpp:100] Creating Layer res4e_branch2c
I1029 22:13:16.927472  6732 net.cpp:444] res4e_branch2c <- res4e_branch2b
I1029 22:13:16.927490  6732 net.cpp:418] res4e_branch2c -> res4e_branch2c
I1029 22:13:16.929435  6732 cudnn_conv_layer.cpp:194] Reallocating workspace storage: 92952
I1029 22:13:16.929461  6732 net.cpp:150] Setting up res4e_branch2c
I1029 22:13:16.929469  6732 net.cpp:157] Top shape: 1 1024 60 80 (4915200)
I1029 22:13:16.929473  6732 net.cpp:165] Memory required for data: 5175705684
I1029 22:13:16.929486  6732 layer_factory.hpp:77] Creating layer bn4e_branch2c
I1029 22:13:16.929507  6732 net.cpp:100] Creating Layer bn4e_branch2c
I1029 22:13:16.929515  6732 net.cpp:444] bn4e_branch2c <- res4e_branch2c
I1029 22:13:16.929533  6732 net.cpp:405] bn4e_branch2c -> res4e_branch2c (in-place)
I1029 22:13:16.929826  6732 net.cpp:150] Setting up bn4e_branch2c
I1029 22:13:16.929833  6732 net.cpp:157] Top shape: 1 1024 60 80 (4915200)
I1029 22:13:16.929836  6732 net.cpp:165] Memory required for data: 5195366484
I1029 22:13:16.929854  6732 layer_factory.hpp:77] Creating layer scale4e_branch2c
I1029 22:13:16.929869  6732 net.cpp:100] Creating Layer scale4e_branch2c
I1029 22:13:16.929877  6732 net.cpp:444] scale4e_branch2c <- res4e_branch2c
I1029 22:13:16.929891  6732 net.cpp:405] scale4e_branch2c -> res4e_branch2c (in-place)
I1029 22:13:16.929955  6732 layer_factory.hpp:77] Creating layer scale4e_branch2c
I1029 22:13:16.930145  6732 net.cpp:150] Setting up scale4e_branch2c
I1029 22:13:16.930152  6732 net.cpp:157] Top shape: 1 1024 60 80 (4915200)
I1029 22:13:16.930155  6732 net.cpp:165] Memory required for data: 5215027284
I1029 22:13:16.930168  6732 layer_factory.hpp:77] Creating layer res4e
I1029 22:13:16.930181  6732 net.cpp:100] Creating Layer res4e
I1029 22:13:16.930188  6732 net.cpp:444] res4e <- res4d_res4d_relu_0_split_1
I1029 22:13:16.930199  6732 net.cpp:444] res4e <- res4e_branch2c
I1029 22:13:16.930212  6732 net.cpp:418] res4e -> res4e
I1029 22:13:16.930255  6732 net.cpp:150] Setting up res4e
I1029 22:13:16.930264  6732 net.cpp:157] Top shape: 1 1024 60 80 (4915200)
I1029 22:13:16.930269  6732 net.cpp:165] Memory required for data: 5234688084
I1029 22:13:16.930274  6732 layer_factory.hpp:77] Creating layer res4e_relu
I1029 22:13:16.930285  6732 net.cpp:100] Creating Layer res4e_relu
I1029 22:13:16.930291  6732 net.cpp:444] res4e_relu <- res4e
I1029 22:13:16.930305  6732 net.cpp:405] res4e_relu -> res4e (in-place)
I1029 22:13:16.930450  6732 net.cpp:150] Setting up res4e_relu
I1029 22:13:16.930457  6732 net.cpp:157] Top shape: 1 1024 60 80 (4915200)
I1029 22:13:16.930460  6732 net.cpp:165] Memory required for data: 5254348884
I1029 22:13:16.930465  6732 layer_factory.hpp:77] Creating layer res4e_res4e_relu_0_split
I1029 22:13:16.930477  6732 net.cpp:100] Creating Layer res4e_res4e_relu_0_split
I1029 22:13:16.930483  6732 net.cpp:444] res4e_res4e_relu_0_split <- res4e
I1029 22:13:16.930500  6732 net.cpp:418] res4e_res4e_relu_0_split -> res4e_res4e_relu_0_split_0
I1029 22:13:16.930517  6732 net.cpp:418] res4e_res4e_relu_0_split -> res4e_res4e_relu_0_split_1
I1029 22:13:16.930578  6732 net.cpp:150] Setting up res4e_res4e_relu_0_split
I1029 22:13:16.930588  6732 net.cpp:157] Top shape: 1 1024 60 80 (4915200)
I1029 22:13:16.930593  6732 net.cpp:157] Top shape: 1 1024 60 80 (4915200)
I1029 22:13:16.930596  6732 net.cpp:165] Memory required for data: 5293670484
I1029 22:13:16.930603  6732 layer_factory.hpp:77] Creating layer res4f_branch2a
I1029 22:13:16.930619  6732 net.cpp:100] Creating Layer res4f_branch2a
I1029 22:13:16.930624  6732 net.cpp:444] res4f_branch2a <- res4e_res4e_relu_0_split_0
I1029 22:13:16.930641  6732 net.cpp:418] res4f_branch2a -> res4f_branch2a
I1029 22:13:16.931919  6732 cudnn_conv_layer.cpp:194] Reallocating workspace storage: 92952
I1029 22:13:16.931942  6732 net.cpp:150] Setting up res4f_branch2a
I1029 22:13:16.931951  6732 net.cpp:157] Top shape: 1 256 60 80 (1228800)
I1029 22:13:16.931954  6732 net.cpp:165] Memory required for data: 5298585684
I1029 22:13:16.931967  6732 layer_factory.hpp:77] Creating layer bn4f_branch2a
I1029 22:13:16.931980  6732 net.cpp:100] Creating Layer bn4f_branch2a
I1029 22:13:16.931988  6732 net.cpp:444] bn4f_branch2a <- res4f_branch2a
I1029 22:13:16.932003  6732 net.cpp:405] bn4f_branch2a -> res4f_branch2a (in-place)
I1029 22:13:16.932283  6732 net.cpp:150] Setting up bn4f_branch2a
I1029 22:13:16.932291  6732 net.cpp:157] Top shape: 1 256 60 80 (1228800)
I1029 22:13:16.932293  6732 net.cpp:165] Memory required for data: 5303500884
I1029 22:13:16.932310  6732 layer_factory.hpp:77] Creating layer scale4f_branch2a
I1029 22:13:16.932325  6732 net.cpp:100] Creating Layer scale4f_branch2a
I1029 22:13:16.932332  6732 net.cpp:444] scale4f_branch2a <- res4f_branch2a
I1029 22:13:16.932346  6732 net.cpp:405] scale4f_branch2a -> res4f_branch2a (in-place)
I1029 22:13:16.932412  6732 layer_factory.hpp:77] Creating layer scale4f_branch2a
I1029 22:13:16.932597  6732 net.cpp:150] Setting up scale4f_branch2a
I1029 22:13:16.932605  6732 net.cpp:157] Top shape: 1 256 60 80 (1228800)
I1029 22:13:16.932607  6732 net.cpp:165] Memory required for data: 5308416084
I1029 22:13:16.932621  6732 layer_factory.hpp:77] Creating layer res4f_branch2a_relu
I1029 22:13:16.932631  6732 net.cpp:100] Creating Layer res4f_branch2a_relu
I1029 22:13:16.932638  6732 net.cpp:444] res4f_branch2a_relu <- res4f_branch2a
I1029 22:13:16.932653  6732 net.cpp:405] res4f_branch2a_relu -> res4f_branch2a (in-place)
I1029 22:13:16.932795  6732 net.cpp:150] Setting up res4f_branch2a_relu
I1029 22:13:16.932802  6732 net.cpp:157] Top shape: 1 256 60 80 (1228800)
I1029 22:13:16.932806  6732 net.cpp:165] Memory required for data: 5313331284
I1029 22:13:16.932811  6732 layer_factory.hpp:77] Creating layer res4f_branch2b
I1029 22:13:16.932826  6732 net.cpp:100] Creating Layer res4f_branch2b
I1029 22:13:16.932833  6732 net.cpp:444] res4f_branch2b <- res4f_branch2a
I1029 22:13:16.932850  6732 net.cpp:418] res4f_branch2b -> res4f_branch2b
I1029 22:13:16.935283  6732 cudnn_conv_layer.cpp:194] Reallocating workspace storage: 12582912
I1029 22:13:16.935562  6732 net.cpp:150] Setting up res4f_branch2b
I1029 22:13:16.935575  6732 net.cpp:157] Top shape: 1 256 60 80 (1228800)
I1029 22:13:16.935578  6732 net.cpp:165] Memory required for data: 5318246484
I1029 22:13:16.935593  6732 layer_factory.hpp:77] Creating layer bn4f_branch2b
I1029 22:13:16.935612  6732 net.cpp:100] Creating Layer bn4f_branch2b
I1029 22:13:16.935621  6732 net.cpp:444] bn4f_branch2b <- res4f_branch2b
I1029 22:13:16.935639  6732 net.cpp:405] bn4f_branch2b -> res4f_branch2b (in-place)
I1029 22:13:16.935930  6732 net.cpp:150] Setting up bn4f_branch2b
I1029 22:13:16.935936  6732 net.cpp:157] Top shape: 1 256 60 80 (1228800)
I1029 22:13:16.935940  6732 net.cpp:165] Memory required for data: 5323161684
I1029 22:13:16.935957  6732 layer_factory.hpp:77] Creating layer scale4f_branch2b
I1029 22:13:16.935973  6732 net.cpp:100] Creating Layer scale4f_branch2b
I1029 22:13:16.935981  6732 net.cpp:444] scale4f_branch2b <- res4f_branch2b
I1029 22:13:16.935995  6732 net.cpp:405] scale4f_branch2b -> res4f_branch2b (in-place)
I1029 22:13:16.936064  6732 layer_factory.hpp:77] Creating layer scale4f_branch2b
I1029 22:13:16.936254  6732 net.cpp:150] Setting up scale4f_branch2b
I1029 22:13:16.936261  6732 net.cpp:157] Top shape: 1 256 60 80 (1228800)
I1029 22:13:16.936265  6732 net.cpp:165] Memory required for data: 5328076884
I1029 22:13:16.936278  6732 layer_factory.hpp:77] Creating layer res4f_branch2b_relu
I1029 22:13:16.936290  6732 net.cpp:100] Creating Layer res4f_branch2b_relu
I1029 22:13:16.936297  6732 net.cpp:444] res4f_branch2b_relu <- res4f_branch2b
I1029 22:13:16.936311  6732 net.cpp:405] res4f_branch2b_relu -> res4f_branch2b (in-place)
I1029 22:13:16.936462  6732 net.cpp:150] Setting up res4f_branch2b_relu
I1029 22:13:16.936471  6732 net.cpp:157] Top shape: 1 256 60 80 (1228800)
I1029 22:13:16.936475  6732 net.cpp:165] Memory required for data: 5332992084
I1029 22:13:16.936481  6732 layer_factory.hpp:77] Creating layer res4f_branch2c
I1029 22:13:16.936497  6732 net.cpp:100] Creating Layer res4f_branch2c
I1029 22:13:16.936503  6732 net.cpp:444] res4f_branch2c <- res4f_branch2b
I1029 22:13:16.936522  6732 net.cpp:418] res4f_branch2c -> res4f_branch2c
I1029 22:13:16.938472  6732 cudnn_conv_layer.cpp:194] Reallocating workspace storage: 92952
I1029 22:13:16.938498  6732 net.cpp:150] Setting up res4f_branch2c
I1029 22:13:16.938508  6732 net.cpp:157] Top shape: 1 1024 60 80 (4915200)
I1029 22:13:16.938510  6732 net.cpp:165] Memory required for data: 5352652884
I1029 22:13:16.938524  6732 layer_factory.hpp:77] Creating layer bn4f_branch2c
I1029 22:13:16.938539  6732 net.cpp:100] Creating Layer bn4f_branch2c
I1029 22:13:16.938546  6732 net.cpp:444] bn4f_branch2c <- res4f_branch2c
I1029 22:13:16.938562  6732 net.cpp:405] bn4f_branch2c -> res4f_branch2c (in-place)
I1029 22:13:16.938850  6732 net.cpp:150] Setting up bn4f_branch2c
I1029 22:13:16.938858  6732 net.cpp:157] Top shape: 1 1024 60 80 (4915200)
I1029 22:13:16.938860  6732 net.cpp:165] Memory required for data: 5372313684
I1029 22:13:16.938910  6732 layer_factory.hpp:77] Creating layer scale4f_branch2c
I1029 22:13:16.938925  6732 net.cpp:100] Creating Layer scale4f_branch2c
I1029 22:13:16.938931  6732 net.cpp:444] scale4f_branch2c <- res4f_branch2c
I1029 22:13:16.938946  6732 net.cpp:405] scale4f_branch2c -> res4f_branch2c (in-place)
I1029 22:13:16.939008  6732 layer_factory.hpp:77] Creating layer scale4f_branch2c
I1029 22:13:16.939203  6732 net.cpp:150] Setting up scale4f_branch2c
I1029 22:13:16.939210  6732 net.cpp:157] Top shape: 1 1024 60 80 (4915200)
I1029 22:13:16.939213  6732 net.cpp:165] Memory required for data: 5391974484
I1029 22:13:16.939226  6732 layer_factory.hpp:77] Creating layer res4f
I1029 22:13:16.939239  6732 net.cpp:100] Creating Layer res4f
I1029 22:13:16.939246  6732 net.cpp:444] res4f <- res4e_res4e_relu_0_split_1
I1029 22:13:16.939258  6732 net.cpp:444] res4f <- res4f_branch2c
I1029 22:13:16.939270  6732 net.cpp:418] res4f -> res4f
I1029 22:13:16.939314  6732 net.cpp:150] Setting up res4f
I1029 22:13:16.939323  6732 net.cpp:157] Top shape: 1 1024 60 80 (4915200)
I1029 22:13:16.939327  6732 net.cpp:165] Memory required for data: 5411635284
I1029 22:13:16.939332  6732 layer_factory.hpp:77] Creating layer res4f_relu
I1029 22:13:16.939344  6732 net.cpp:100] Creating Layer res4f_relu
I1029 22:13:16.939352  6732 net.cpp:444] res4f_relu <- res4f
I1029 22:13:16.939365  6732 net.cpp:405] res4f_relu -> res4f (in-place)
I1029 22:13:16.939783  6732 net.cpp:150] Setting up res4f_relu
I1029 22:13:16.939791  6732 net.cpp:157] Top shape: 1 1024 60 80 (4915200)
I1029 22:13:16.939795  6732 net.cpp:165] Memory required for data: 5431296084
I1029 22:13:16.939801  6732 layer_factory.hpp:77] Creating layer res4f_res4f_relu_0_split
I1029 22:13:16.939815  6732 net.cpp:100] Creating Layer res4f_res4f_relu_0_split
I1029 22:13:16.939821  6732 net.cpp:444] res4f_res4f_relu_0_split <- res4f
I1029 22:13:16.939838  6732 net.cpp:418] res4f_res4f_relu_0_split -> res4f_res4f_relu_0_split_0
I1029 22:13:16.939857  6732 net.cpp:418] res4f_res4f_relu_0_split -> res4f_res4f_relu_0_split_1
I1029 22:13:16.939872  6732 net.cpp:418] res4f_res4f_relu_0_split -> res4f_res4f_relu_0_split_2
I1029 22:13:16.939952  6732 net.cpp:150] Setting up res4f_res4f_relu_0_split
I1029 22:13:16.939961  6732 net.cpp:157] Top shape: 1 1024 60 80 (4915200)
I1029 22:13:16.939966  6732 net.cpp:157] Top shape: 1 1024 60 80 (4915200)
I1029 22:13:16.939972  6732 net.cpp:157] Top shape: 1 1024 60 80 (4915200)
I1029 22:13:16.939975  6732 net.cpp:165] Memory required for data: 5490278484
I1029 22:13:16.939981  6732 layer_factory.hpp:77] Creating layer res5a_branch1
I1029 22:13:16.939997  6732 net.cpp:100] Creating Layer res5a_branch1
I1029 22:13:16.940004  6732 net.cpp:444] res5a_branch1 <- res4f_res4f_relu_0_split_0
I1029 22:13:16.940021  6732 net.cpp:418] res5a_branch1 -> res5a_branch1
I1029 22:13:16.945560  6732 cudnn_conv_layer.cpp:194] Reallocating workspace storage: 21624
I1029 22:13:16.945588  6732 net.cpp:150] Setting up res5a_branch1
I1029 22:13:16.945608  6732 net.cpp:157] Top shape: 1 2048 30 40 (2457600)
I1029 22:13:16.945611  6732 net.cpp:165] Memory required for data: 5500108884
I1029 22:13:16.945636  6732 layer_factory.hpp:77] Creating layer bn5a_branch1
I1029 22:13:16.945668  6732 net.cpp:100] Creating Layer bn5a_branch1
I1029 22:13:16.945680  6732 net.cpp:444] bn5a_branch1 <- res5a_branch1
I1029 22:13:16.945703  6732 net.cpp:405] bn5a_branch1 -> res5a_branch1 (in-place)
I1029 22:13:16.946014  6732 net.cpp:150] Setting up bn5a_branch1
I1029 22:13:16.946022  6732 net.cpp:157] Top shape: 1 2048 30 40 (2457600)
I1029 22:13:16.946025  6732 net.cpp:165] Memory required for data: 5509939284
I1029 22:13:16.946044  6732 layer_factory.hpp:77] Creating layer scale5a_branch1
I1029 22:13:16.946061  6732 net.cpp:100] Creating Layer scale5a_branch1
I1029 22:13:16.946068  6732 net.cpp:444] scale5a_branch1 <- res5a_branch1
I1029 22:13:16.946084  6732 net.cpp:405] scale5a_branch1 -> res5a_branch1 (in-place)
I1029 22:13:16.946163  6732 layer_factory.hpp:77] Creating layer scale5a_branch1
I1029 22:13:16.946341  6732 net.cpp:150] Setting up scale5a_branch1
…
I1030 08:27:26.438827 13097 layer_factory.hpp:77] Creating layer scale5c_branch2c
I1030 08:27:26.439007 13097 net.cpp:150] Setting up scale5c_branch2c
I1030 08:27:26.439013 13097 net.cpp:157] Top shape: 1 2048 7 7 (100352)
I1030 08:27:26.439015 13097 net.cpp:165] Memory required for data: 233418764
I1030 08:27:26.439024 13097 layer_factory.hpp:77] Creating layer res5c
I1030 08:27:26.439035 13097 net.cpp:100] Creating Layer res5c
I1030 08:27:26.439040 13097 net.cpp:444] res5c <- res5b_res5b_relu_0_split_1
I1030 08:27:26.439049 13097 net.cpp:444] res5c <- res5c_branch2c
I1030 08:27:26.439055 13097 net.cpp:418] res5c -> res5c
I1030 08:27:26.439096 13097 net.cpp:150] Setting up res5c
I1030 08:27:26.439103 13097 net.cpp:157] Top shape: 1 2048 7 7 (100352)
I1030 08:27:26.439105 13097 net.cpp:165] Memory required for data: 233820172
I1030 08:27:26.439108 13097 layer_factory.hpp:77] Creating layer res5c_relu
I1030 08:27:26.439117 13097 net.cpp:100] Creating Layer res5c_relu
I1030 08:27:26.439121 13097 net.cpp:444] res5c_relu <- res5c
I1030 08:27:26.439131 13097 net.cpp:405] res5c_relu -> res5c (in-place)
I1030 08:27:26.439275 13097 net.cpp:150] Setting up res5c_relu
I1030 08:27:26.439280 13097 net.cpp:157] Top shape: 1 2048 7 7 (100352)
I1030 08:27:26.439282 13097 net.cpp:165] Memory required for data: 234221580
I1030 08:27:26.439285 13097 layer_factory.hpp:77] Creating layer upP4
I1030 08:27:26.439297 13097 net.cpp:100] Creating Layer upP4
I1030 08:27:26.439302 13097 net.cpp:444] upP4 <- res5c
I1030 08:27:26.439312 13097 net.cpp:418] upP4 -> upP4
I1030 08:27:26.446161 13097 net.cpp:150] Setting up upP4
I1030 08:27:26.446173 13097 net.cpp:157] Top shape: 1 512 14 14 (100352)
I1030 08:27:26.446175 13097 net.cpp:165] Memory required for data: 234622988
I1030 08:27:26.446184 13097 layer_factory.hpp:77] Creating layer newC4
I1030 08:27:26.446202 13097 net.cpp:100] Creating Layer newC4
I1030 08:27:26.446208 13097 net.cpp:444] newC4 <- res4f_res4f_relu_0_split_2
I1030 08:27:26.446223 13097 net.cpp:418] newC4 -> c4
I1030 08:27:26.501914 13097 cudnn_conv_layer.cpp:194] Reallocating workspace storage: 10080
I1030 08:27:26.501945 13097 net.cpp:150] Setting up newC4
I1030 08:27:26.501956 13097 net.cpp:157] Top shape: 1 512 14 14 (100352)
I1030 08:27:26.501960 13097 net.cpp:165] Memory required for data: 235024396
I1030 08:27:26.501978 13097 layer_factory.hpp:77] Creating layer eltwise_bnc4_bnp4
I1030 08:27:26.502005 13097 net.cpp:100] Creating Layer eltwise_bnc4_bnp4
I1030 08:27:26.502014 13097 net.cpp:444] eltwise_bnc4_bnp4 <- c4
I1030 08:27:26.502029 13097 net.cpp:444] eltwise_bnc4_bnp4 <- upP4
I1030 08:27:26.502039 13097 net.cpp:418] eltwise_bnc4_bnp4 -> skip_eltwise1
I1030 08:27:26.502097 13097 net.cpp:150] Setting up eltwise_bnc4_bnp4
I1030 08:27:26.502104 13097 net.cpp:157] Top shape: 1 512 14 14 (100352)
I1030 08:27:26.502106 13097 net.cpp:165] Memory required for data: 235425804
I1030 08:27:26.502110 13097 layer_factory.hpp:77] Creating layer skip_eltwise1_eltwise_bnc4_bnp4_0_split
I1030 08:27:26.502120 13097 net.cpp:100] Creating Layer skip_eltwise1_eltwise_bnc4_bnp4_0_split
I1030 08:27:26.502125 13097 net.cpp:444] skip_eltwise1_eltwise_bnc4_bnp4_0_split <- skip_eltwise1
I1030 08:27:26.502135 13097 net.cpp:418] skip_eltwise1_eltwise_bnc4_bnp4_0_split -> skip_eltwise1_eltwise_bnc4_bnp4_0_split_0
I1030 08:27:26.502149 13097 net.cpp:418] skip_eltwise1_eltwise_bnc4_bnp4_0_split -> skip_eltwise1_eltwise_bnc4_bnp4_0_split_1
I1030 08:27:26.502203 13097 net.cpp:150] Setting up skip_eltwise1_eltwise_bnc4_bnp4_0_split
I1030 08:27:26.502210 13097 net.cpp:157] Top shape: 1 512 14 14 (100352)
I1030 08:27:26.502213 13097 net.cpp:157] Top shape: 1 512 14 14 (100352)
I1030 08:27:26.502215 13097 net.cpp:165] Memory required for data: 236228620
I1030 08:27:26.502218 13097 layer_factory.hpp:77] Creating layer bnp4_conv
I1030 08:27:26.502235 13097 net.cpp:100] Creating Layer bnp4_conv
I1030 08:27:26.502240 13097 net.cpp:444] bnp4_conv <- skip_eltwise1_eltwise_bnc4_bnp4_0_split_0
I1030 08:27:26.502252 13097 net.cpp:418] bnp4_conv -> bnp4_conv
I1030 08:27:26.509877 13097 cudnn_conv_layer.cpp:194] Reallocating workspace storage: 10080
I1030 08:27:26.509898 13097 net.cpp:150] Setting up bnp4_conv
I1030 08:27:26.509904 13097 net.cpp:157] Top shape: 1 128 14 14 (25088)
I1030 08:27:26.509907 13097 net.cpp:165] Memory required for data: 236328972
I1030 08:27:26.509917 13097 layer_factory.hpp:77] Creating layer bnp4_bn
I1030 08:27:26.509929 13097 net.cpp:100] Creating Layer bnp4_bn
I1030 08:27:26.509934 13097 net.cpp:444] bnp4_bn <- bnp4_conv
I1030 08:27:26.509948 13097 net.cpp:405] bnp4_bn -> bnp4_conv (in-place)
I1030 08:27:26.510218 13097 net.cpp:150] Setting up bnp4_bn
I1030 08:27:26.510224 13097 net.cpp:157] Top shape: 1 128 14 14 (25088)
I1030 08:27:26.510227 13097 net.cpp:165] Memory required for data: 236429324
I1030 08:27:26.510241 13097 layer_factory.hpp:77] Creating layer bnp4_scale
I1030 08:27:26.510253 13097 net.cpp:100] Creating Layer bnp4_scale
I1030 08:27:26.510257 13097 net.cpp:444] bnp4_scale <- bnp4_conv
I1030 08:27:26.510267 13097 net.cpp:405] bnp4_scale -> bnp4_conv (in-place)
I1030 08:27:26.510330 13097 layer_factory.hpp:77] Creating layer bnp4_scale
I1030 08:27:26.510496 13097 net.cpp:150] Setting up bnp4_scale
I1030 08:27:26.510502 13097 net.cpp:157] Top shape: 1 128 14 14 (25088)
I1030 08:27:26.510504 13097 net.cpp:165] Memory required for data: 236529676
I1030 08:27:26.510514 13097 layer_factory.hpp:77] Creating layer bnp4_ReLU
I1030 08:27:26.510524 13097 net.cpp:100] Creating Layer bnp4_ReLU
I1030 08:27:26.510529 13097 net.cpp:444] bnp4_ReLU <- bnp4_conv
I1030 08:27:26.510537 13097 net.cpp:405] bnp4_ReLU -> bnp4_conv (in-place)
I1030 08:27:26.510942 13097 net.cpp:150] Setting up bnp4_ReLU
I1030 08:27:26.510951 13097 net.cpp:157] Top shape: 1 128 14 14 (25088)
I1030 08:27:26.510953 13097 net.cpp:165] Memory required for data: 236630028
I1030 08:27:26.510957 13097 layer_factory.hpp:77] Creating layer bn_eltwise_1_1_conv
I1030 08:27:26.510972 13097 net.cpp:100] Creating Layer bn_eltwise_1_1_conv
I1030 08:27:26.510977 13097 net.cpp:444] bn_eltwise_1_1_conv <- bnp4_conv
I1030 08:27:26.510990 13097 net.cpp:418] bn_eltwise_1_1_conv -> bn_eltwise_1_1_conv
I1030 08:27:26.526978 13097 cudnn_conv_layer.cpp:194] Reallocating workspace storage: 3145728
I1030 08:27:26.527254 13097 net.cpp:150] Setting up bn_eltwise_1_1_conv
I1030 08:27:26.527266 13097 net.cpp:157] Top shape: 1 128 14 14 (25088)
I1030 08:27:26.527269 13097 net.cpp:165] Memory required for data: 236730380
I1030 08:27:26.527281 13097 layer_factory.hpp:77] Creating layer bn_eltwise_1_1_bn
I1030 08:27:26.527297 13097 net.cpp:100] Creating Layer bn_eltwise_1_1_bn
I1030 08:27:26.527304 13097 net.cpp:444] bn_eltwise_1_1_bn <- bn_eltwise_1_1_conv
I1030 08:27:26.527318 13097 net.cpp:405] bn_eltwise_1_1_bn -> bn_eltwise_1_1_conv (in-place)
I1030 08:27:26.527601 13097 net.cpp:150] Setting up bn_eltwise_1_1_bn
I1030 08:27:26.527606 13097 net.cpp:157] Top shape: 1 128 14 14 (25088)
I1030 08:27:26.527608 13097 net.cpp:165] Memory required for data: 236830732
I1030 08:27:26.527622 13097 layer_factory.hpp:77] Creating layer bn_eltwise_1_1_scale
I1030 08:27:26.527634 13097 net.cpp:100] Creating Layer bn_eltwise_1_1_scale
I1030 08:27:26.527639 13097 net.cpp:444] bn_eltwise_1_1_scale <- bn_eltwise_1_1_conv
I1030 08:27:26.527649 13097 net.cpp:405] bn_eltwise_1_1_scale -> bn_eltwise_1_1_conv (in-place)
I1030 08:27:26.527711 13097 layer_factory.hpp:77] Creating layer bn_eltwise_1_1_scale
I1030 08:27:26.527878 13097 net.cpp:150] Setting up bn_eltwise_1_1_scale
I1030 08:27:26.527884 13097 net.cpp:157] Top shape: 1 128 14 14 (25088)
I1030 08:27:26.527886 13097 net.cpp:165] Memory required for data: 236931084
I1030 08:27:26.527894 13097 layer_factory.hpp:77] Creating layer bn_eltwise_1_1_ReLU
I1030 08:27:26.527904 13097 net.cpp:100] Creating Layer bn_eltwise_1_1_ReLU
I1030 08:27:26.527910 13097 net.cpp:444] bn_eltwise_1_1_ReLU <- bn_eltwise_1_1_conv
I1030 08:27:26.527920 13097 net.cpp:405] bn_eltwise_1_1_ReLU -> bn_eltwise_1_1_conv (in-place)
I1030 08:27:26.528064 13097 net.cpp:150] Setting up bn_eltwise_1_1_ReLU
I1030 08:27:26.528070 13097 net.cpp:157] Top shape: 1 128 14 14 (25088)
I1030 08:27:26.528072 13097 net.cpp:165] Memory required for data: 237031436
I1030 08:27:26.528076 13097 layer_factory.hpp:77] Creating layer bn_eltwise_1_2_conv
I1030 08:27:26.528090 13097 net.cpp:100] Creating Layer bn_eltwise_1_2_conv
I1030 08:27:26.528095 13097 net.cpp:444] bn_eltwise_1_2_conv <- bn_eltwise_1_1_conv
I1030 08:27:26.528107 13097 net.cpp:418] bn_eltwise_1_2_conv -> bn_eltwise_1_2_conv
I1030 08:27:26.535708 13097 cudnn_conv_layer.cpp:194] Reallocating workspace storage: 10080
I1030 08:27:26.535732 13097 net.cpp:150] Setting up bn_eltwise_1_2_conv
I1030 08:27:26.535738 13097 net.cpp:157] Top shape: 1 512 14 14 (100352)
I1030 08:27:26.535740 13097 net.cpp:165] Memory required for data: 237432844
I1030 08:27:26.535749 13097 layer_factory.hpp:77] Creating layer bn_eltwise_1_2_bn
I1030 08:27:26.535763 13097 net.cpp:100] Creating Layer bn_eltwise_1_2_bn
I1030 08:27:26.535768 13097 net.cpp:444] bn_eltwise_1_2_bn <- bn_eltwise_1_2_conv
I1030 08:27:26.535778 13097 net.cpp:405] bn_eltwise_1_2_bn -> bn_eltwise_1_2_conv (in-place)
I1030 08:27:26.536058 13097 net.cpp:150] Setting up bn_eltwise_1_2_bn
I1030 08:27:26.536063 13097 net.cpp:157] Top shape: 1 512 14 14 (100352)
I1030 08:27:26.536065 13097 net.cpp:165] Memory required for data: 237834252
I1030 08:27:26.536079 13097 layer_factory.hpp:77] Creating layer bn_eltwise_1_2_scale
I1030 08:27:26.536110 13097 net.cpp:100] Creating Layer bn_eltwise_1_2_scale
I1030 08:27:26.536115 13097 net.cpp:444] bn_eltwise_1_2_scale <- bn_eltwise_1_2_conv
I1030 08:27:26.536126 13097 net.cpp:405] bn_eltwise_1_2_scale -> bn_eltwise_1_2_conv (in-place)
I1030 08:27:26.536183 13097 layer_factory.hpp:77] Creating layer bn_eltwise_1_2_scale
I1030 08:27:26.536360 13097 net.cpp:150] Setting up bn_eltwise_1_2_scale
I1030 08:27:26.536365 13097 net.cpp:157] Top shape: 1 512 14 14 (100352)
I1030 08:27:26.536367 13097 net.cpp:165] Memory required for data: 238235660
I1030 08:27:26.536378 13097 layer_factory.hpp:77] Creating layer p3
I1030 08:27:26.536391 13097 net.cpp:100] Creating Layer p3
I1030 08:27:26.536394 13097 net.cpp:444] p3 <- bn_eltwise_1_2_conv
I1030 08:27:26.536403 13097 net.cpp:444] p3 <- skip_eltwise1_eltwise_bnc4_bnp4_0_split_1
I1030 08:27:26.536412 13097 net.cpp:418] p3 -> p3
I1030 08:27:26.536453 13097 net.cpp:150] Setting up p3
I1030 08:27:26.536459 13097 net.cpp:157] Top shape: 1 512 14 14 (100352)
I1030 08:27:26.536463 13097 net.cpp:165] Memory required for data: 238637068
I1030 08:27:26.536465 13097 layer_factory.hpp:77] Creating layer p3_relu
I1030 08:27:26.536474 13097 net.cpp:100] Creating Layer p3_relu
I1030 08:27:26.536478 13097 net.cpp:444] p3_relu <- p3
I1030 08:27:26.536489 13097 net.cpp:405] p3_relu -> p3 (in-place)
I1030 08:27:26.536630 13097 net.cpp:150] Setting up p3_relu
I1030 08:27:26.536636 13097 net.cpp:157] Top shape: 1 512 14 14 (100352)
I1030 08:27:26.536638 13097 net.cpp:165] Memory required for data: 239038476
I1030 08:27:26.536643 13097 layer_factory.hpp:77] Creating layer p3_p3_relu_0_split
I1030 08:27:26.536653 13097 net.cpp:100] Creating Layer p3_p3_relu_0_split
I1030 08:27:26.536656 13097 net.cpp:444] p3_p3_relu_0_split <- p3
I1030 08:27:26.536667 13097 net.cpp:418] p3_p3_relu_0_split -> p3_p3_relu_0_split_0
I1030 08:27:26.536680 13097 net.cpp:418] p3_p3_relu_0_split -> p3_p3_relu_0_split_1
I1030 08:27:26.536691 13097 net.cpp:418] p3_p3_relu_0_split -> p3_p3_relu_0_split_2
I1030 08:27:26.536767 13097 net.cpp:150] Setting up p3_p3_relu_0_split
I1030 08:27:26.536773 13097 net.cpp:157] Top shape: 1 512 14 14 (100352)
I1030 08:27:26.536777 13097 net.cpp:157] Top shape: 1 512 14 14 (100352)
I1030 08:27:26.536779 13097 net.cpp:157] Top shape: 1 512 14 14 (100352)
I1030 08:27:26.536782 13097 net.cpp:165] Memory required for data: 240242700
I1030 08:27:26.536784 13097 layer_factory.hpp:77] Creating layer newC3
I1030 08:27:26.536798 13097 net.cpp:100] Creating Layer newC3
I1030 08:27:26.536803 13097 net.cpp:444] newC3 <- res3d_res3d_relu_0_split_2
I1030 08:27:26.536815 13097 net.cpp:418] newC3 -> c3
I1030 08:27:26.565771 13097 cudnn_conv_layer.cpp:194] Reallocating workspace storage: 20664
I1030 08:27:26.565791 13097 net.cpp:150] Setting up newC3
I1030 08:27:26.565802 13097 net.cpp:157] Top shape: 1 512 28 28 (401408)
I1030 08:27:26.565809 13097 net.cpp:165] Memory required for data: 241848332
I1030 08:27:26.565829 13097 layer_factory.hpp:77] Creating layer upP3
I1030 08:27:26.565856 13097 net.cpp:100] Creating Layer upP3
I1030 08:27:26.565865 13097 net.cpp:444] upP3 <- p3_p3_relu_0_split_0
I1030 08:27:26.565884 13097 net.cpp:418] upP3 -> upP3
I1030 08:27:26.567824 13097 net.cpp:150] Setting up upP3
I1030 08:27:26.567833 13097 net.cpp:157] Top shape: 1 512 28 28 (401408)
I1030 08:27:26.567836 13097 net.cpp:165] Memory required for data: 243453964
I1030 08:27:26.567844 13097 layer_factory.hpp:77] Creating layer eltwise_bnc3_bnp3
I1030 08:27:26.567857 13097 net.cpp:100] Creating Layer eltwise_bnc3_bnp3
I1030 08:27:26.567862 13097 net.cpp:444] eltwise_bnc3_bnp3 <- c3
I1030 08:27:26.567869 13097 net.cpp:444] eltwise_bnc3_bnp3 <- upP3
I1030 08:27:26.567878 13097 net.cpp:418] eltwise_bnc3_bnp3 -> skip_eltwise2
I1030 08:27:26.567919 13097 net.cpp:150] Setting up eltwise_bnc3_bnp3
I1030 08:27:26.567926 13097 net.cpp:157] Top shape: 1 512 28 28 (401408)
I1030 08:27:26.567929 13097 net.cpp:165] Memory required for data: 245059596
I1030 08:27:26.567932 13097 layer_factory.hpp:77] Creating layer skip_eltwise2_eltwise_bnc3_bnp3_0_split
I1030 08:27:26.567941 13097 net.cpp:100] Creating Layer skip_eltwise2_eltwise_bnc3_bnp3_0_split
I1030 08:27:26.567945 13097 net.cpp:444] skip_eltwise2_eltwise_bnc3_bnp3_0_split <- skip_eltwise2
I1030 08:27:26.567957 13097 net.cpp:418] skip_eltwise2_eltwise_bnc3_bnp3_0_split -> skip_eltwise2_eltwise_bnc3_bnp3_0_split_0
I1030 08:27:26.567970 13097 net.cpp:418] skip_eltwise2_eltwise_bnc3_bnp3_0_split -> skip_eltwise2_eltwise_bnc3_bnp3_0_split_1
I1030 08:27:26.568024 13097 net.cpp:150] Setting up skip_eltwise2_eltwise_bnc3_bnp3_0_split
I1030 08:27:26.568030 13097 net.cpp:157] Top shape: 1 512 28 28 (401408)
I1030 08:27:26.568034 13097 net.cpp:157] Top shape: 1 512 28 28 (401408)
I1030 08:27:26.568035 13097 net.cpp:165] Memory required for data: 248270860
I1030 08:27:26.568039 13097 layer_factory.hpp:77] Creating layer bnp3_conv
I1030 08:27:26.568053 13097 net.cpp:100] Creating Layer bnp3_conv
I1030 08:27:26.568058 13097 net.cpp:444] bnp3_conv <- skip_eltwise2_eltwise_bnc3_bnp3_0_split_0
I1030 08:27:26.568070 13097 net.cpp:418] bnp3_conv -> bnp3_conv
I1030 08:27:26.575992 13097 cudnn_conv_layer.cpp:194] Reallocating workspace storage: 20664
I1030 08:27:26.576011 13097 net.cpp:150] Setting up bnp3_conv
I1030 08:27:26.576023 13097 net.cpp:157] Top shape: 1 128 28 28 (100352)
I1030 08:27:26.576026 13097 net.cpp:165] Memory required for data: 248672268
I1030 08:27:26.576041 13097 layer_factory.hpp:77] Creating layer bnp3_bn
I1030 08:27:26.576066 13097 net.cpp:100] Creating Layer bnp3_bn
I1030 08:27:26.576073 13097 net.cpp:444] bnp3_bn <- bnp3_conv
I1030 08:27:26.576090 13097 net.cpp:405] bnp3_bn -> bnp3_conv (in-place)
I1030 08:27:26.576390 13097 net.cpp:150] Setting up bnp3_bn
I1030 08:27:26.576396 13097 net.cpp:157] Top shape: 1 128 28 28 (100352)
I1030 08:27:26.576398 13097 net.cpp:165] Memory required for data: 249073676
I1030 08:27:26.576412 13097 layer_factory.hpp:77] Creating layer bnp3_scale
I1030 08:27:26.576426 13097 net.cpp:100] Creating Layer bnp3_scale
I1030 08:27:26.576431 13097 net.cpp:444] bnp3_scale <- bnp3_conv
I1030 08:27:26.576439 13097 net.cpp:405] bnp3_scale -> bnp3_conv (in-place)
I1030 08:27:26.576504 13097 layer_factory.hpp:77] Creating layer bnp3_scale
I1030 08:27:26.576683 13097 net.cpp:150] Setting up bnp3_scale
I1030 08:27:26.576689 13097 net.cpp:157] Top shape: 1 128 28 28 (100352)
I1030 08:27:26.576690 13097 net.cpp:165] Memory required for data: 249475084
I1030 08:27:26.576699 13097 layer_factory.hpp:77] Creating layer bnp3_ReLU
I1030 08:27:26.576710 13097 net.cpp:100] Creating Layer bnp3_ReLU
I1030 08:27:26.576715 13097 net.cpp:444] bnp3_ReLU <- bnp3_conv
I1030 08:27:26.576725 13097 net.cpp:405] bnp3_ReLU -> bnp3_conv (in-place)
I1030 08:27:26.577170 13097 net.cpp:150] Setting up bnp3_ReLU
I1030 08:27:26.577178 13097 net.cpp:157] Top shape: 1 128 28 28 (100352)
I1030 08:27:26.577180 13097 net.cpp:165] Memory required for data: 249876492
I1030 08:27:26.577185 13097 layer_factory.hpp:77] Creating layer bn_eltwise_2_1_conv
I1030 08:27:26.577201 13097 net.cpp:100] Creating Layer bn_eltwise_2_1_conv
I1030 08:27:26.577208 13097 net.cpp:444] bn_eltwise_2_1_conv <- bnp3_conv
I1030 08:27:26.577221 13097 net.cpp:418] bn_eltwise_2_1_conv -> bn_eltwise_2_1_conv
I1030 08:27:26.593312 13097 cudnn_conv_layer.cpp:194] Reallocating workspace storage: 3145728
I1030 08:27:26.593613 13097 net.cpp:150] Setting up bn_eltwise_2_1_conv
I1030 08:27:26.593629 13097 net.cpp:157] Top shape: 1 128 28 28 (100352)
I1030 08:27:26.593631 13097 net.cpp:165] Memory required for data: 250277900
I1030 08:27:26.593647 13097 layer_factory.hpp:77] Creating layer bn_eltwise_2_1_bn
I1030 08:27:26.593668 13097 net.cpp:100] Creating Layer bn_eltwise_2_1_bn
I1030 08:27:26.593677 13097 net.cpp:444] bn_eltwise_2_1_bn <- bn_eltwise_2_1_conv
I1030 08:27:26.593693 13097 net.cpp:405] bn_eltwise_2_1_bn -> bn_eltwise_2_1_conv (in-place)
I1030 08:27:26.593998 13097 net.cpp:150] Setting up bn_eltwise_2_1_bn
I1030 08:27:26.594005 13097 net.cpp:157] Top shape: 1 128 28 28 (100352)
I1030 08:27:26.594007 13097 net.cpp:165] Memory required for data: 250679308
I1030 08:27:26.594022 13097 layer_factory.hpp:77] Creating layer bn_eltwise_2_1_scale
I1030 08:27:26.594033 13097 net.cpp:100] Creating Layer bn_eltwise_2_1_scale
I1030 08:27:26.594038 13097 net.cpp:444] bn_eltwise_2_1_scale <- bn_eltwise_2_1_conv
I1030 08:27:26.594049 13097 net.cpp:405] bn_eltwise_2_1_scale -> bn_eltwise_2_1_conv (in-place)
I1030 08:27:26.594113 13097 layer_factory.hpp:77] Creating layer bn_eltwise_2_1_scale
I1030 08:27:26.594290 13097 net.cpp:150] Setting up bn_eltwise_2_1_scale
I1030 08:27:26.594297 13097 net.cpp:157] Top shape: 1 128 28 28 (100352)
I1030 08:27:26.594300 13097 net.cpp:165] Memory required for data: 251080716
I1030 08:27:26.594308 13097 layer_factory.hpp:77] Creating layer bn_eltwise_2_1_ReLU
I1030 08:27:26.594318 13097 net.cpp:100] Creating Layer bn_eltwise_2_1_ReLU
I1030 08:27:26.594323 13097 net.cpp:444] bn_eltwise_2_1_ReLU <- bn_eltwise_2_1_conv
I1030 08:27:26.594333 13097 net.cpp:405] bn_eltwise_2_1_ReLU -> bn_eltwise_2_1_conv (in-place)
I1030 08:27:26.594493 13097 net.cpp:150] Setting up bn_eltwise_2_1_ReLU
I1030 08:27:26.594499 13097 net.cpp:157] Top shape: 1 128 28 28 (100352)
I1030 08:27:26.594501 13097 net.cpp:165] Memory required for data: 251482124
I1030 08:27:26.594506 13097 layer_factory.hpp:77] Creating layer bn_eltwise_2_2_conv
I1030 08:27:26.594521 13097 net.cpp:100] Creating Layer bn_eltwise_2_2_conv
I1030 08:27:26.594527 13097 net.cpp:444] bn_eltwise_2_2_conv <- bn_eltwise_2_1_conv
I1030 08:27:26.594540 13097 net.cpp:418] bn_eltwise_2_2_conv -> bn_eltwise_2_2_conv
I1030 08:27:26.602185 13097 cudnn_conv_layer.cpp:194] Reallocating workspace storage: 20664
I1030 08:27:26.602200 13097 net.cpp:150] Setting up bn_eltwise_2_2_conv
I1030 08:27:26.602205 13097 net.cpp:157] Top shape: 1 512 28 28 (401408)
I1030 08:27:26.602208 13097 net.cpp:165] Memory required for data: 253087756
I1030 08:27:26.602217 13097 layer_factory.hpp:77] Creating layer bn_eltwise_2_2_bn
I1030 08:27:26.602229 13097 net.cpp:100] Creating Layer bn_eltwise_2_2_bn
I1030 08:27:26.602234 13097 net.cpp:444] bn_eltwise_2_2_bn <- bn_eltwise_2_2_conv
I1030 08:27:26.602247 13097 net.cpp:405] bn_eltwise_2_2_bn -> bn_eltwise_2_2_conv (in-place)
I1030 08:27:26.602532 13097 net.cpp:150] Setting up bn_eltwise_2_2_bn
I1030 08:27:26.602538 13097 net.cpp:157] Top shape: 1 512 28 28 (401408)
I1030 08:27:26.602540 13097 net.cpp:165] Memory required for data: 254693388
I1030 08:27:26.602555 13097 layer_factory.hpp:77] Creating layer bn_eltwise_2_2_scale
I1030 08:27:26.602566 13097 net.cpp:100] Creating Layer bn_eltwise_2_2_scale
I1030 08:27:26.602571 13097 net.cpp:444] bn_eltwise_2_2_scale <- bn_eltwise_2_2_conv
I1030 08:27:26.602581 13097 net.cpp:405] bn_eltwise_2_2_scale -> bn_eltwise_2_2_conv (in-place)
I1030 08:27:26.602644 13097 layer_factory.hpp:77] Creating layer bn_eltwise_2_2_scale
I1030 08:27:26.602819 13097 net.cpp:150] Setting up bn_eltwise_2_2_scale
I1030 08:27:26.602826 13097 net.cpp:157] Top shape: 1 512 28 28 (401408)
I1030 08:27:26.602828 13097 net.cpp:165] Memory required for data: 256299020
I1030 08:27:26.602838 13097 layer_factory.hpp:77] Creating layer p2
I1030 08:27:26.602849 13097 net.cpp:100] Creating Layer p2
I1030 08:27:26.602854 13097 net.cpp:444] p2 <- skip_eltwise2_eltwise_bnc3_bnp3_0_split_1
I1030 08:27:26.602862 13097 net.cpp:444] p2 <- bn_eltwise_2_2_conv
I1030 08:27:26.602871 13097 net.cpp:418] p2 -> p2
I1030 08:27:26.602912 13097 net.cpp:150] Setting up p2
I1030 08:27:26.602918 13097 net.cpp:157] Top shape: 1 512 28 28 (401408)
I1030 08:27:26.602921 13097 net.cpp:165] Memory required for data: 257904652
I1030 08:27:26.602924 13097 layer_factory.hpp:77] Creating layer p2_relu
I1030 08:27:26.602932 13097 net.cpp:100] Creating Layer p2_relu
I1030 08:27:26.602937 13097 net.cpp:444] p2_relu <- p2
I1030 08:27:26.602947 13097 net.cpp:405] p2_relu -> p2 (in-place)
I1030 08:27:26.603091 13097 net.cpp:150] Setting up p2_relu
I1030 08:27:26.603097 13097 net.cpp:157] Top shape: 1 512 28 28 (401408)
I1030 08:27:26.603099 13097 net.cpp:165] Memory required for data: 259510284
I1030 08:27:26.603102 13097 layer_factory.hpp:77] Creating layer p2_p2_relu_0_split
I1030 08:27:26.603112 13097 net.cpp:100] Creating Layer p2_p2_relu_0_split
I1030 08:27:26.603116 13097 net.cpp:444] p2_p2_relu_0_split <- p2
I1030 08:27:26.603128 13097 net.cpp:418] p2_p2_relu_0_split -> p2_p2_relu_0_split_0
I1030 08:27:26.603142 13097 net.cpp:418] p2_p2_relu_0_split -> p2_p2_relu_0_split_1
I1030 08:27:26.603212 13097 net.cpp:150] Setting up p2_p2_relu_0_split
I1030 08:27:26.603220 13097 net.cpp:157] Top shape: 1 512 28 28 (401408)
I1030 08:27:26.603225 13097 net.cpp:157] Top shape: 1 512 28 28 (401408)
I1030 08:27:26.603227 13097 net.cpp:165] Memory required for data: 262721548
I1030 08:27:26.603231 13097 layer_factory.hpp:77] Creating layer rpn_conv/3x3_p2
I1030 08:27:26.603245 13097 net.cpp:100] Creating Layer rpn_conv/3x3_p2
I1030 08:27:26.603250 13097 net.cpp:444] rpn_conv/3x3_p2 <- p2_p2_relu_0_split_0
I1030 08:27:26.603263 13097 net.cpp:418] rpn_conv/3x3_p2 -> rpn/output_p2
I1030 08:27:26.845281 13097 cudnn_conv_layer.cpp:194] Reallocating workspace storage: 20664
I1030 08:27:26.845302 13097 net.cpp:150] Setting up rpn_conv/3x3_p2
I1030 08:27:26.845315 13097 net.cpp:157] Top shape: 1 512 28 28 (401408)
I1030 08:27:26.845317 13097 net.cpp:165] Memory required for data: 264327180
I1030 08:27:26.845336 13097 layer_factory.hpp:77] Creating layer rpn_relu/3x3_p2
I1030 08:27:26.845360 13097 net.cpp:100] Creating Layer rpn_relu/3x3_p2
I1030 08:27:26.845371 13097 net.cpp:444] rpn_relu/3x3_p2 <- rpn/output_p2
I1030 08:27:26.845386 13097 net.cpp:405] rpn_relu/3x3_p2 -> rpn/output_p2 (in-place)
I1030 08:27:26.845842 13097 net.cpp:150] Setting up rpn_relu/3x3_p2
I1030 08:27:26.845850 13097 net.cpp:157] Top shape: 1 512 28 28 (401408)
I1030 08:27:26.845852 13097 net.cpp:165] Memory required for data: 265932812
I1030 08:27:26.845856 13097 layer_factory.hpp:77] Creating layer rpn/output_p2_rpn_relu/3x3_p2_0_split
I1030 08:27:26.845868 13097 net.cpp:100] Creating Layer rpn/output_p2_rpn_relu/3x3_p2_0_split
I1030 08:27:26.845873 13097 net.cpp:444] rpn/output_p2_rpn_relu/3x3_p2_0_split <- rpn/output_p2
I1030 08:27:26.845886 13097 net.cpp:418] rpn/output_p2_rpn_relu/3x3_p2_0_split -> rpn/output_p2_rpn_relu/3x3_p2_0_split_0
I1030 08:27:26.845901 13097 net.cpp:418] rpn/output_p2_rpn_relu/3x3_p2_0_split -> rpn/output_p2_rpn_relu/3x3_p2_0_split_1
I1030 08:27:26.845965 13097 net.cpp:150] Setting up rpn/output_p2_rpn_relu/3x3_p2_0_split
I1030 08:27:26.845973 13097 net.cpp:157] Top shape: 1 512 28 28 (401408)
I1030 08:27:26.845975 13097 net.cpp:157] Top shape: 1 512 28 28 (401408)
I1030 08:27:26.845976 13097 net.cpp:165] Memory required for data: 269144076
I1030 08:27:26.845980 13097 layer_factory.hpp:77] Creating layer rpn_cls_score_p2
I1030 08:27:26.845998 13097 net.cpp:100] Creating Layer rpn_cls_score_p2
I1030 08:27:26.846001 13097 net.cpp:444] rpn_cls_score_p2 <- rpn/output_p2_rpn_relu/3x3_p2_0_split_0
I1030 08:27:26.846015 13097 net.cpp:418] rpn_cls_score_p2 -> rpn_cls_score_p2
I1030 08:27:26.848502 13097 cudnn_conv_layer.cpp:194] Reallocating workspace storage: 20664
I1030 08:27:26.848515 13097 net.cpp:150] Setting up rpn_cls_score_p2
I1030 08:27:26.848521 13097 net.cpp:157] Top shape: 1 22 28 28 (17248)
I1030 08:27:26.848523 13097 net.cpp:165] Memory required for data: 269213068
I1030 08:27:26.848534 13097 layer_factory.hpp:77] Creating layer rpn_bbox_pred_p2
I1030 08:27:26.848551 13097 net.cpp:100] Creating Layer rpn_bbox_pred_p2
I1030 08:27:26.848556 13097 net.cpp:444] rpn_bbox_pred_p2 <- rpn/output_p2_rpn_relu/3x3_p2_0_split_1
I1030 08:27:26.848569 13097 net.cpp:418] rpn_bbox_pred_p2 -> rpn_bbox_pred_p2
I1030 08:27:26.851918 13097 cudnn_conv_layer.cpp:194] Reallocating workspace storage: 20664
I1030 08:27:26.851932 13097 net.cpp:150] Setting up rpn_bbox_pred_p2
I1030 08:27:26.851938 13097 net.cpp:157] Top shape: 1 44 28 28 (34496)
I1030 08:27:26.851940 13097 net.cpp:165] Memory required for data: 269351052
I1030 08:27:26.851950 13097 layer_factory.hpp:77] Creating layer rpn_cls_score_reshape_p2
I1030 08:27:26.851964 13097 net.cpp:100] Creating Layer rpn_cls_score_reshape_p2
I1030 08:27:26.851969 13097 net.cpp:444] rpn_cls_score_reshape_p2 <- rpn_cls_score_p2
I1030 08:27:26.851982 13097 net.cpp:418] rpn_cls_score_reshape_p2 -> rpn_cls_score_reshape_p2
I1030 08:27:26.852027 13097 net.cpp:150] Setting up rpn_cls_score_reshape_p2
I1030 08:27:26.852035 13097 net.cpp:157] Top shape: 1 2 308 28 (17248)
I1030 08:27:26.852036 13097 net.cpp:165] Memory required for data: 269420044
I1030 08:27:26.852041 13097 layer_factory.hpp:77] Creating layer rpn_cls_prob_p2
I1030 08:27:26.852049 13097 net.cpp:100] Creating Layer rpn_cls_prob_p2
I1030 08:27:26.852054 13097 net.cpp:444] rpn_cls_prob_p2 <- rpn_cls_score_reshape_p2
I1030 08:27:26.852066 13097 net.cpp:418] rpn_cls_prob_p2 -> rpn_cls_prob_p2
I1030 08:27:26.852295 13097 net.cpp:150] Setting up rpn_cls_prob_p2
I1030 08:27:26.852304 13097 net.cpp:157] Top shape: 1 2 308 28 (17248)
I1030 08:27:26.852306 13097 net.cpp:165] Memory required for data: 269489036
I1030 08:27:26.852310 13097 layer_factory.hpp:77] Creating layer rpn_cls_prob_reshape_p2
I1030 08:27:26.852320 13097 net.cpp:100] Creating Layer rpn_cls_prob_reshape_p2
I1030 08:27:26.852326 13097 net.cpp:444] rpn_cls_prob_reshape_p2 <- rpn_cls_prob_p2
I1030 08:27:26.852339 13097 net.cpp:418] rpn_cls_prob_reshape_p2 -> rpn_cls_prob_reshape_p2
I1030 08:27:26.852380 13097 net.cpp:150] Setting up rpn_cls_prob_reshape_p2
I1030 08:27:26.852386 13097 net.cpp:157] Top shape: 1 22 28 28 (17248)
I1030 08:27:26.852388 13097 net.cpp:165] Memory required for data: 269558028
I1030 08:27:26.852392 13097 layer_factory.hpp:77] Creating layer rpn_conv/3x3_p3
I1030 08:27:26.852406 13097 net.cpp:100] Creating Layer rpn_conv/3x3_p3
I1030 08:27:26.852411 13097 net.cpp:444] rpn_conv/3x3_p3 <- p3_p3_relu_0_split_1
I1030 08:27:26.852424 13097 net.cpp:418] rpn_conv/3x3_p3 -> rpn/output_p3
I1030 08:27:27.095037 13097 cudnn_conv_layer.cpp:194] Reallocating workspace storage: 10838016
I1030 08:27:27.095360 13097 net.cpp:150] Setting up rpn_conv/3x3_p3
I1030 08:27:27.095376 13097 net.cpp:157] Top shape: 1 512 14 14 (100352)
I1030 08:27:27.095378 13097 net.cpp:165] Memory required for data: 269959436
I1030 08:27:27.095398 13097 layer_factory.hpp:77] Creating layer rpn_relu/3x3_p3
I1030 08:27:27.095424 13097 net.cpp:100] Creating Layer rpn_relu/3x3_p3
I1030 08:27:27.095434 13097 net.cpp:444] rpn_relu/3x3_p3 <- rpn/output_p3
I1030 08:27:27.095453 13097 net.cpp:405] rpn_relu/3x3_p3 -> rpn/output_p3 (in-place)
I1030 08:27:27.095607 13097 net.cpp:150] Setting up rpn_relu/3x3_p3
I1030 08:27:27.095614 13097 net.cpp:157] Top shape: 1 512 14 14 (100352)
I1030 08:27:27.095616 13097 net.cpp:165] Memory required for data: 270360844
I1030 08:27:27.095620 13097 layer_factory.hpp:77] Creating layer rpn/output_p3_rpn_relu/3x3_p3_0_split
I1030 08:27:27.095630 13097 net.cpp:100] Creating Layer rpn/output_p3_rpn_relu/3x3_p3_0_split
I1030 08:27:27.095635 13097 net.cpp:444] rpn/output_p3_rpn_relu/3x3_p3_0_split <- rpn/output_p3
I1030 08:27:27.095647 13097 net.cpp:418] rpn/output_p3_rpn_relu/3x3_p3_0_split -> rpn/output_p3_rpn_relu/3x3_p3_0_split_0
I1030 08:27:27.095664 13097 net.cpp:418] rpn/output_p3_rpn_relu/3x3_p3_0_split -> rpn/output_p3_rpn_relu/3x3_p3_0_split_1
I1030 08:27:27.095736 13097 net.cpp:150] Setting up rpn/output_p3_rpn_relu/3x3_p3_0_split
I1030 08:27:27.095741 13097 net.cpp:157] Top shape: 1 512 14 14 (100352)
I1030 08:27:27.095746 13097 net.cpp:157] Top shape: 1 512 14 14 (100352)
I1030 08:27:27.095747 13097 net.cpp:165] Memory required for data: 271163660
I1030 08:27:27.095751 13097 layer_factory.hpp:77] Creating layer rpn_cls_score_p3
I1030 08:27:27.095767 13097 net.cpp:100] Creating Layer rpn_cls_score_p3
I1030 08:27:27.095772 13097 net.cpp:444] rpn_cls_score_p3 <- rpn/output_p3_rpn_relu/3x3_p3_0_split_0
I1030 08:27:27.095784 13097 net.cpp:418] rpn_cls_score_p3 -> rpn_cls_score_p3
I1030 08:27:27.098013 13097 cudnn_conv_layer.cpp:194] Reallocating workspace storage: 10080
I1030 08:27:27.098037 13097 net.cpp:150] Setting up rpn_cls_score_p3
I1030 08:27:27.098044 13097 net.cpp:157] Top shape: 1 22 14 14 (4312)
I1030 08:27:27.098047 13097 net.cpp:165] Memory required for data: 271180908
I1030 08:27:27.098058 13097 layer_factory.hpp:77] Creating layer rpn_bbox_pred_p3
I1030 08:27:27.098074 13097 net.cpp:100] Creating Layer rpn_bbox_pred_p3
I1030 08:27:27.098079 13097 net.cpp:444] rpn_bbox_pred_p3 <- rpn/output_p3_rpn_relu/3x3_p3_0_split_1
I1030 08:27:27.098095 13097 net.cpp:418] rpn_bbox_pred_p3 -> rpn_bbox_pred_p3
I1030 08:27:27.101441 13097 cudnn_conv_layer.cpp:194] Reallocating workspace storage: 10080
I1030 08:27:27.101461 13097 net.cpp:150] Setting up rpn_bbox_pred_p3
I1030 08:27:27.101469 13097 net.cpp:157] Top shape: 1 44 14 14 (8624)
I1030 08:27:27.101470 13097 net.cpp:165] Memory required for data: 271215404
I1030 08:27:27.101481 13097 layer_factory.hpp:77] Creating layer rpn_cls_score_reshape_p3
I1030 08:27:27.101495 13097 net.cpp:100] Creating Layer rpn_cls_score_reshape_p3
I1030 08:27:27.101500 13097 net.cpp:444] rpn_cls_score_reshape_p3 <- rpn_cls_score_p3
I1030 08:27:27.101512 13097 net.cpp:418] rpn_cls_score_reshape_p3 -> rpn_cls_score_reshape_p3
I1030 08:27:27.101558 13097 net.cpp:150] Setting up rpn_cls_score_reshape_p3
I1030 08:27:27.101567 13097 net.cpp:157] Top shape: 1 2 154 14 (4312)
I1030 08:27:27.101568 13097 net.cpp:165] Memory required for data: 271232652
I1030 08:27:27.101572 13097 layer_factory.hpp:77] Creating layer rpn_cls_prob_p3
I1030 08:27:27.101581 13097 net.cpp:100] Creating Layer rpn_cls_prob_p3
I1030 08:27:27.101586 13097 net.cpp:444] rpn_cls_prob_p3 <- rpn_cls_score_reshape_p3
I1030 08:27:27.101599 13097 net.cpp:418] rpn_cls_prob_p3 -> rpn_cls_prob_p3
I1030 08:27:27.101830 13097 net.cpp:150] Setting up rpn_cls_prob_p3
I1030 08:27:27.101837 13097 net.cpp:157] Top shape: 1 2 154 14 (4312)
I1030 08:27:27.101840 13097 net.cpp:165] Memory required for data: 271249900
I1030 08:27:27.101843 13097 layer_factory.hpp:77] Creating layer rpn_cls_prob_reshape_p3
I1030 08:27:27.101855 13097 net.cpp:100] Creating Layer rpn_cls_prob_reshape_p3
I1030 08:27:27.101860 13097 net.cpp:444] rpn_cls_prob_reshape_p3 <- rpn_cls_prob_p3
I1030 08:27:27.101871 13097 net.cpp:418] rpn_cls_prob_reshape_p3 -> rpn_cls_prob_reshape_p3
I1030 08:27:27.101913 13097 net.cpp:150] Setting up rpn_cls_prob_reshape_p3
I1030 08:27:27.101920 13097 net.cpp:157] Top shape: 1 22 14 14 (4312)
I1030 08:27:27.101922 13097 net.cpp:165] Memory required for data: 271267148
I1030 08:27:27.101927 13097 layer_factory.hpp:77] Creating layer proposal
I1030 08:27:27.102190 13097 net.cpp:100] Creating Layer proposal
I1030 08:27:27.102200 13097 net.cpp:444] proposal <- im_info
I1030 08:27:27.102210 13097 net.cpp:444] proposal <- rpn_bbox_pred_p2
I1030 08:27:27.102216 13097 net.cpp:444] proposal <- rpn_bbox_pred_p3
I1030 08:27:27.102221 13097 net.cpp:444] proposal <- rpn_cls_prob_reshape_p2
I1030 08:27:27.102226 13097 net.cpp:444] proposal <- rpn_cls_prob_reshape_p3
I1030 08:27:27.102233 13097 net.cpp:418] proposal -> rpn_rois_p2
I1030 08:27:27.102247 13097 net.cpp:418] proposal -> rpn_rois_p3
I1030 08:27:27.102620 13097 net.cpp:150] Setting up proposal
I1030 08:27:27.102630 13097 net.cpp:157] Top shape: 1 5 (5)
I1030 08:27:27.102634 13097 net.cpp:157] Top shape: 1 1 1 1 (1)
I1030 08:27:27.102635 13097 net.cpp:165] Memory required for data: 271267172
I1030 08:27:27.102639 13097 layer_factory.hpp:77] Creating layer rpn_rois_p2_proposal_0_split
I1030 08:27:27.102650 13097 net.cpp:100] Creating Layer rpn_rois_p2_proposal_0_split
I1030 08:27:27.102655 13097 net.cpp:444] rpn_rois_p2_proposal_0_split <- rpn_rois_p2
I1030 08:27:27.102668 13097 net.cpp:418] rpn_rois_p2_proposal_0_split -> rpn_rois_p2_proposal_0_split_0
I1030 08:27:27.102682 13097 net.cpp:418] rpn_rois_p2_proposal_0_split -> rpn_rois_p2_proposal_0_split_1
I1030 08:27:27.102740 13097 net.cpp:150] Setting up rpn_rois_p2_proposal_0_split
I1030 08:27:27.102746 13097 net.cpp:157] Top shape: 1 5 (5)
I1030 08:27:27.102748 13097 net.cpp:157] Top shape: 1 5 (5)
I1030 08:27:27.102749 13097 net.cpp:165] Memory required for data: 271267212
I1030 08:27:27.102753 13097 layer_factory.hpp:77] Creating layer rpn_rois_p3_proposal_1_split
I1030 08:27:27.102761 13097 net.cpp:100] Creating Layer rpn_rois_p3_proposal_1_split
I1030 08:27:27.102766 13097 net.cpp:444] rpn_rois_p3_proposal_1_split <- rpn_rois_p3
I1030 08:27:27.102775 13097 net.cpp:418] rpn_rois_p3_proposal_1_split -> rpn_rois_p3_proposal_1_split_0
I1030 08:27:27.102788 13097 net.cpp:418] rpn_rois_p3_proposal_1_split -> rpn_rois_p3_proposal_1_split_1
I1030 08:27:27.102841 13097 net.cpp:150] Setting up rpn_rois_p3_proposal_1_split
I1030 08:27:27.102847 13097 net.cpp:157] Top shape: 1 1 1 1 (1)
I1030 08:27:27.102850 13097 net.cpp:157] Top shape: 1 1 1 1 (1)
I1030 08:27:27.102852 13097 net.cpp:165] Memory required for data: 271267220
I1030 08:27:27.102855 13097 layer_factory.hpp:77] Creating layer conv_new_p2
I1030 08:27:27.102867 13097 net.cpp:100] Creating Layer conv_new_p2
I1030 08:27:27.102872 13097 net.cpp:444] conv_new_p2 <- p2_p2_relu_0_split_1
I1030 08:27:27.102885 13097 net.cpp:418] conv_new_p2 -> conv_new_p2
I1030 08:27:27.158076 13097 cudnn_conv_layer.cpp:194] Reallocating workspace storage: 20664
I1030 08:27:27.158102 13097 net.cpp:150] Setting up conv_new_p2
I1030 08:27:27.158118 13097 net.cpp:157] Top shape: 1 1024 28 28 (802816)
I1030 08:27:27.158121 13097 net.cpp:165] Memory required for data: 274478484
I1030 08:27:27.158145 13097 layer_factory.hpp:77] Creating layer conv_new_p2_relu
I1030 08:27:27.158179 13097 net.cpp:100] Creating Layer conv_new_p2_relu
I1030 08:27:27.158193 13097 net.cpp:444] conv_new_p2_relu <- conv_new_p2
I1030 08:27:27.158219 13097 net.cpp:405] conv_new_p2_relu -> conv_new_p2 (in-place)
I1030 08:27:27.158903 13097 net.cpp:150] Setting up conv_new_p2_relu
I1030 08:27:27.158913 13097 net.cpp:157] Top shape: 1 1024 28 28 (802816)
I1030 08:27:27.158916 13097 net.cpp:165] Memory required for data: 277689748
I1030 08:27:27.158922 13097 layer_factory.hpp:77] Creating layer conv_new_p2_conv_new_p2_relu_0_split
I1030 08:27:27.158937 13097 net.cpp:100] Creating Layer conv_new_p2_conv_new_p2_relu_0_split
I1030 08:27:27.158944 13097 net.cpp:444] conv_new_p2_conv_new_p2_relu_0_split <- conv_new_p2
I1030 08:27:27.158962 13097 net.cpp:418] conv_new_p2_conv_new_p2_relu_0_split -> conv_new_p2_conv_new_p2_relu_0_split_0
I1030 08:27:27.158987 13097 net.cpp:418] conv_new_p2_conv_new_p2_relu_0_split -> conv_new_p2_conv_new_p2_relu_0_split_1
I1030 08:27:27.159081 13097 net.cpp:150] Setting up conv_new_p2_conv_new_p2_relu_0_split
I1030 08:27:27.159091 13097 net.cpp:157] Top shape: 1 1024 28 28 (802816)
I1030 08:27:27.159096 13097 net.cpp:157] Top shape: 1 1024 28 28 (802816)
I1030 08:27:27.159099 13097 net.cpp:165] Memory required for data: 284112276
I1030 08:27:27.159106 13097 layer_factory.hpp:77] Creating layer rfcn_cls_p2
I1030 08:27:27.159129 13097 net.cpp:100] Creating Layer rfcn_cls_p2
I1030 08:27:27.159137 13097 net.cpp:444] rfcn_cls_p2 <- conv_new_p2_conv_new_p2_relu_0_split_0
I1030 08:27:27.159155 13097 net.cpp:418] rfcn_cls_p2 -> rfcn_cls_p2
I1030 08:27:27.164641 13097 cudnn_conv_layer.cpp:194] Reallocating workspace storage: 20664
I1030 08:27:27.164657 13097 net.cpp:150] Setting up rfcn_cls_p2
I1030 08:27:27.164665 13097 net.cpp:157] Top shape: 1 40 28 28 (31360)
I1030 08:27:27.164669 13097 net.cpp:165] Memory required for data: 284237716
I1030 08:27:27.164681 13097 layer_factory.hpp:77] Creating layer rfcn_bbox_p2
I1030 08:27:27.164701 13097 net.cpp:100] Creating Layer rfcn_bbox_p2
I1030 08:27:27.164707 13097 net.cpp:444] rfcn_bbox_p2 <- conv_new_p2_conv_new_p2_relu_0_split_1
I1030 08:27:27.164722 13097 net.cpp:418] rfcn_bbox_p2 -> rfcn_bbox_p2
I1030 08:27:27.183564 13097 cudnn_conv_layer.cpp:194] Reallocating workspace storage: 20664
I1030 08:27:27.183586 13097 net.cpp:150] Setting up rfcn_bbox_p2
I1030 08:27:27.183598 13097 net.cpp:157] Top shape: 1 160 28 28 (125440)
I1030 08:27:27.183601 13097 net.cpp:165] Memory required for data: 284739476
I1030 08:27:27.183619 13097 layer_factory.hpp:77] Creating layer psroipooled_cls_rois_p2
I1030 08:27:27.183645 13097 net.cpp:100] Creating Layer psroipooled_cls_rois_p2
I1030 08:27:27.183655 13097 net.cpp:444] psroipooled_cls_rois_p2 <- rfcn_cls_p2
I1030 08:27:27.183670 13097 net.cpp:444] psroipooled_cls_rois_p2 <- rpn_rois_p2_proposal_0_split_0
I1030 08:27:27.183679 13097 net.cpp:418] psroipooled_cls_rois_p2 -> psroipooled_cls_rois_p2
I1030 08:27:27.183701 13097 psroi_pooling_layer.cpp:26] Spatial scale: 0.125
I1030 08:27:27.183763 13097 net.cpp:150] Setting up psroipooled_cls_rois_p2
I1030 08:27:27.183770 13097 net.cpp:157] Top shape: 1 2 1 20 (40)
I1030 08:27:27.183771 13097 net.cpp:165] Memory required for data: 284739636
I1030 08:27:27.183775 13097 layer_factory.hpp:77] Creating layer ave_cls_score_rois_p2
I1030 08:27:27.183786 13097 net.cpp:100] Creating Layer ave_cls_score_rois_p2
I1030 08:27:27.183791 13097 net.cpp:444] ave_cls_score_rois_p2 <- psroipooled_cls_rois_p2
I1030 08:27:27.183802 13097 net.cpp:418] ave_cls_score_rois_p2 -> cls_score_p2
I1030 08:27:27.183979 13097 net.cpp:150] Setting up ave_cls_score_rois_p2
I1030 08:27:27.183986 13097 net.cpp:157] Top shape: 1 2 1 1 (2)
I1030 08:27:27.183989 13097 net.cpp:165] Memory required for data: 284739644
I1030 08:27:27.183992 13097 layer_factory.hpp:77] Creating layer psroipooled_loc_rois_p2
I1030 08:27:27.184003 13097 net.cpp:100] Creating Layer psroipooled_loc_rois_p2
I1030 08:27:27.184008 13097 net.cpp:444] psroipooled_loc_rois_p2 <- rfcn_bbox_p2
I1030 08:27:27.184018 13097 net.cpp:444] psroipooled_loc_rois_p2 <- rpn_rois_p2_proposal_0_split_1
I1030 08:27:27.184027 13097 net.cpp:418] psroipooled_loc_rois_p2 -> psroipooled_loc_rois_p2
I1030 08:27:27.184039 13097 psroi_pooling_layer.cpp:26] Spatial scale: 0.125
I1030 08:27:27.184093 13097 net.cpp:150] Setting up psroipooled_loc_rois_p2
I1030 08:27:27.184099 13097 net.cpp:157] Top shape: 1 8 1 20 (160)
I1030 08:27:27.184101 13097 net.cpp:165] Memory required for data: 284740284
I1030 08:27:27.184104 13097 layer_factory.hpp:77] Creating layer ave_bbox_pred_rois_p2
I1030 08:27:27.184114 13097 net.cpp:100] Creating Layer ave_bbox_pred_rois_p2
I1030 08:27:27.184118 13097 net.cpp:444] ave_bbox_pred_rois_p2 <- psroipooled_loc_rois_p2
I1030 08:27:27.184130 13097 net.cpp:418] ave_bbox_pred_rois_p2 -> bbox_pred_pre_p2
I1030 08:27:27.184298 13097 net.cpp:150] Setting up ave_bbox_pred_rois_p2
I1030 08:27:27.184304 13097 net.cpp:157] Top shape: 1 8 1 1 (8)
I1030 08:27:27.184306 13097 net.cpp:165] Memory required for data: 284740316
I1030 08:27:27.184310 13097 layer_factory.hpp:77] Creating layer conv_new_p3
I1030 08:27:27.184327 13097 net.cpp:100] Creating Layer conv_new_p3
I1030 08:27:27.184332 13097 net.cpp:444] conv_new_p3 <- p3_p3_relu_0_split_2
I1030 08:27:27.184345 13097 net.cpp:418] conv_new_p3 -> conv_new_p3
I1030 08:27:27.240115 13097 cudnn_conv_layer.cpp:194] Reallocating workspace storage: 10080
I1030 08:27:27.240150 13097 net.cpp:150] Setting up conv_new_p3
I1030 08:27:27.240164 13097 net.cpp:157] Top shape: 1 1024 14 14 (200704)
I1030 08:27:27.240165 13097 net.cpp:165] Memory required for data: 285543132
I1030 08:27:27.240185 13097 layer_factory.hpp:77] Creating layer conv_new_p3_relu
I1030 08:27:27.240211 13097 net.cpp:100] Creating Layer conv_new_p3_relu
I1030 08:27:27.240221 13097 net.cpp:444] conv_new_p3_relu <- conv_new_p3
I1030 08:27:27.240237 13097 net.cpp:405] conv_new_p3_relu -> conv_new_p3 (in-place)
I1030 08:27:27.240692 13097 net.cpp:150] Setting up conv_new_p3_relu
I1030 08:27:27.240700 13097 net.cpp:157] Top shape: 1 1024 14 14 (200704)
I1030 08:27:27.240701 13097 net.cpp:165] Memory required for data: 286345948
I1030 08:27:27.240705 13097 layer_factory.hpp:77] Creating layer conv_new_p3_conv_new_p3_relu_0_split
I1030 08:27:27.240716 13097 net.cpp:100] Creating Layer conv_new_p3_conv_new_p3_relu_0_split
I1030 08:27:27.240721 13097 net.cpp:444] conv_new_p3_conv_new_p3_relu_0_split <- conv_new_p3
I1030 08:27:27.240734 13097 net.cpp:418] conv_new_p3_conv_new_p3_relu_0_split -> conv_new_p3_conv_new_p3_relu_0_split_0
I1030 08:27:27.240751 13097 net.cpp:418] conv_new_p3_conv_new_p3_relu_0_split -> conv_new_p3_conv_new_p3_relu_0_split_1
I1030 08:27:27.240825 13097 net.cpp:150] Setting up conv_new_p3_conv_new_p3_relu_0_split
I1030 08:27:27.240833 13097 net.cpp:157] Top shape: 1 1024 14 14 (200704)
I1030 08:27:27.240835 13097 net.cpp:157] Top shape: 1 1024 14 14 (200704)
I1030 08:27:27.240837 13097 net.cpp:165] Memory required for data: 287951580
I1030 08:27:27.240841 13097 layer_factory.hpp:77] Creating layer rfcn_cls_p3
I1030 08:27:27.240857 13097 net.cpp:100] Creating Layer rfcn_cls_p3
I1030 08:27:27.240862 13097 net.cpp:444] rfcn_cls_p3 <- conv_new_p3_conv_new_p3_relu_0_split_0
I1030 08:27:27.240876 13097 net.cpp:418] rfcn_cls_p3 -> rfcn_cls_p3
I1030 08:27:27.246122 13097 cudnn_conv_layer.cpp:194] Reallocating workspace storage: 10080
I1030 08:27:27.246142 13097 net.cpp:150] Setting up rfcn_cls_p3
I1030 08:27:27.246148 13097 net.cpp:157] Top shape: 1 40 14 14 (7840)
I1030 08:27:27.246151 13097 net.cpp:165] Memory required for data: 287982940
I1030 08:27:27.246161 13097 layer_factory.hpp:77] Creating layer rfcn_bbox_p3
I1030 08:27:27.246178 13097 net.cpp:100] Creating Layer rfcn_bbox_p3
I1030 08:27:27.246184 13097 net.cpp:444] rfcn_bbox_p3 <- conv_new_p3_conv_new_p3_relu_0_split_1
I1030 08:27:27.246197 13097 net.cpp:418] rfcn_bbox_p3 -> rfcn_bbox_p3
I1030 08:27:27.263979 13097 cudnn_conv_layer.cpp:194] Reallocating workspace storage: 10080
I1030 08:27:27.264005 13097 net.cpp:150] Setting up rfcn_bbox_p3
I1030 08:27:27.264015 13097 net.cpp:157] Top shape: 1 160 14 14 (31360)
I1030 08:27:27.264017 13097 net.cpp:165] Memory required for data: 288108380
I1030 08:27:27.264031 13097 layer_factory.hpp:77] Creating layer psroipooled_cls_rois_p3
I1030 08:27:27.264050 13097 net.cpp:100] Creating Layer psroipooled_cls_rois_p3
I1030 08:27:27.264057 13097 net.cpp:444] psroipooled_cls_rois_p3 <- rfcn_cls_p3
I1030 08:27:27.264068 13097 net.cpp:444] psroipooled_cls_rois_p3 <- rpn_rois_p3_proposal_1_split_0
I1030 08:27:27.264078 13097 net.cpp:418] psroipooled_cls_rois_p3 -> psroipooled_cls_rois_p3
I1030 08:27:27.264094 13097 psroi_pooling_layer.cpp:26] Spatial scale: 0.0625
I1030 08:27:27.264161 13097 net.cpp:150] Setting up psroipooled_cls_rois_p3
I1030 08:27:27.264168 13097 net.cpp:157] Top shape: 1 2 1 20 (40)
I1030 08:27:27.264170 13097 net.cpp:165] Memory required for data: 288108540
I1030 08:27:27.264174 13097 layer_factory.hpp:77] Creating layer ave_cls_score_rois_p3
I1030 08:27:27.264184 13097 net.cpp:100] Creating Layer ave_cls_score_rois_p3
I1030 08:27:27.264190 13097 net.cpp:444] ave_cls_score_rois_p3 <- psroipooled_cls_rois_p3
I1030 08:27:27.264202 13097 net.cpp:418] ave_cls_score_rois_p3 -> cls_score_p3
I1030 08:27:27.264376 13097 net.cpp:150] Setting up ave_cls_score_rois_p3
I1030 08:27:27.264384 13097 net.cpp:157] Top shape: 1 2 1 1 (2)
I1030 08:27:27.264387 13097 net.cpp:165] Memory required for data: 288108548
I1030 08:27:27.264390 13097 layer_factory.hpp:77] Creating layer psroipooled_loc_rois_p3
I1030 08:27:27.264400 13097 net.cpp:100] Creating Layer psroipooled_loc_rois_p3
I1030 08:27:27.264405 13097 net.cpp:444] psroipooled_loc_rois_p3 <- rfcn_bbox_p3
I1030 08:27:27.264415 13097 net.cpp:444] psroipooled_loc_rois_p3 <- rpn_rois_p3_proposal_1_split_1
I1030 08:27:27.264423 13097 net.cpp:418] psroipooled_loc_rois_p3 -> psroipooled_loc_rois_p3
I1030 08:27:27.264436 13097 psroi_pooling_layer.cpp:26] Spatial scale: 0.0625
I1030 08:27:27.264492 13097 net.cpp:150] Setting up psroipooled_loc_rois_p3
I1030 08:27:27.264497 13097 net.cpp:157] Top shape: 1 8 1 20 (160)
I1030 08:27:27.264499 13097 net.cpp:165] Memory required for data: 288109188
I1030 08:27:27.264503 13097 layer_factory.hpp:77] Creating layer ave_bbox_pred_rois_p3
I1030 08:27:27.264511 13097 net.cpp:100] Creating Layer ave_bbox_pred_rois_p3
I1030 08:27:27.264516 13097 net.cpp:444] ave_bbox_pred_rois_p3 <- psroipooled_loc_rois_p3
I1030 08:27:27.264528 13097 net.cpp:418] ave_bbox_pred_rois_p3 -> bbox_pred_pre_p3
I1030 08:27:27.264691 13097 net.cpp:150] Setting up ave_bbox_pred_rois_p3
I1030 08:27:27.264699 13097 net.cpp:157] Top shape: 1 8 1 1 (8)
I1030 08:27:27.264701 13097 net.cpp:165] Memory required for data: 288109220
I1030 08:27:27.264705 13097 layer_factory.hpp:77] Creating layer cls_prob_pre_p2
I1030 08:27:27.264715 13097 net.cpp:100] Creating Layer cls_prob_pre_p2
I1030 08:27:27.264720 13097 net.cpp:444] cls_prob_pre_p2 <- cls_score_p2
I1030 08:27:27.264732 13097 net.cpp:418] cls_prob_pre_p2 -> cls_prob_pre_p2
I1030 08:27:27.265264 13097 net.cpp:150] Setting up cls_prob_pre_p2
I1030 08:27:27.265275 13097 net.cpp:157] Top shape: 1 2 1 1 (2)
I1030 08:27:27.265276 13097 net.cpp:165] Memory required for data: 288109228
I1030 08:27:27.265280 13097 layer_factory.hpp:77] Creating layer cls_prob_pre_p3
I1030 08:27:27.265292 13097 net.cpp:100] Creating Layer cls_prob_pre_p3
I1030 08:27:27.265297 13097 net.cpp:444] cls_prob_pre_p3 <- cls_score_p3
I1030 08:27:27.265310 13097 net.cpp:418] cls_prob_pre_p3 -> cls_prob_pre_p3
I1030 08:27:27.265545 13097 net.cpp:150] Setting up cls_prob_pre_p3
I1030 08:27:27.265553 13097 net.cpp:157] Top shape: 1 2 1 1 (2)
I1030 08:27:27.265555 13097 net.cpp:165] Memory required for data: 288109236
I1030 08:27:27.265559 13097 layer_factory.hpp:77] Creating layer cls_prob_reshape_p2
I1030 08:27:27.265571 13097 net.cpp:100] Creating Layer cls_prob_reshape_p2
I1030 08:27:27.265576 13097 net.cpp:444] cls_prob_reshape_p2 <- cls_prob_pre_p2
I1030 08:27:27.265589 13097 net.cpp:418] cls_prob_reshape_p2 -> cls_prob_p2
I1030 08:27:27.265633 13097 net.cpp:150] Setting up cls_prob_reshape_p2
I1030 08:27:27.265640 13097 net.cpp:157] Top shape: 1 2 (2)
I1030 08:27:27.265642 13097 net.cpp:165] Memory required for data: 288109244
I1030 08:27:27.265645 13097 layer_factory.hpp:77] Creating layer cls_prob_reshape_p3
I1030 08:27:27.265655 13097 net.cpp:100] Creating Layer cls_prob_reshape_p3
I1030 08:27:27.265660 13097 net.cpp:444] cls_prob_reshape_p3 <- cls_prob_pre_p3
I1030 08:27:27.265671 13097 net.cpp:418] cls_prob_reshape_p3 -> cls_prob_p3
I1030 08:27:27.265709 13097 net.cpp:150] Setting up cls_prob_reshape_p3
I1030 08:27:27.265715 13097 net.cpp:157] Top shape: 1 2 (2)
I1030 08:27:27.265718 13097 net.cpp:165] Memory required for data: 288109252
I1030 08:27:27.265722 13097 layer_factory.hpp:77] Creating layer bbox_pred_reshape_p2
I1030 08:27:27.265729 13097 net.cpp:100] Creating Layer bbox_pred_reshape_p2
I1030 08:27:27.265734 13097 net.cpp:444] bbox_pred_reshape_p2 <- bbox_pred_pre_p2
I1030 08:27:27.265745 13097 net.cpp:418] bbox_pred_reshape_p2 -> bbox_pred_p2
I1030 08:27:27.265784 13097 net.cpp:150] Setting up bbox_pred_reshape_p2
I1030 08:27:27.265790 13097 net.cpp:157] Top shape: 1 8 (8)
I1030 08:27:27.265792 13097 net.cpp:165] Memory required for data: 288109284
I1030 08:27:27.265795 13097 layer_factory.hpp:77] Creating layer bbox_pred_reshape_p3
I1030 08:27:27.265807 13097 net.cpp:100] Creating Layer bbox_pred_reshape_p3
I1030 08:27:27.265811 13097 net.cpp:444] bbox_pred_reshape_p3 <- bbox_pred_pre_p3
I1030 08:27:27.265823 13097 net.cpp:418] bbox_pred_reshape_p3 -> bbox_pred_p3
I1030 08:27:27.265861 13097 net.cpp:150] Setting up bbox_pred_reshape_p3
I1030 08:27:27.265868 13097 net.cpp:157] Top shape: 1 8 (8)
I1030 08:27:27.265871 13097 net.cpp:165] Memory required for data: 288109316
I1030 08:27:27.265874 13097 net.cpp:228] bbox_pred_reshape_p3 does not need backward computation.
I1030 08:27:27.265877 13097 net.cpp:228] bbox_pred_reshape_p2 does not need backward computation.
I1030 08:27:27.265880 13097 net.cpp:228] cls_prob_reshape_p3 does not need backward computation.
I1030 08:27:27.265882 13097 net.cpp:228] cls_prob_reshape_p2 does not need backward computation.
…
